#map = affine_map<()[s0, s1] -> ((s0 * 41 + s1) mod 8)>
#map1 = affine_map<()[s0, s1, s2] -> (((s0 * 410 + s1 * 10 + s2 - ((s0 * 41 + s1) floordiv 8) * 79) floordiv 80) * -40 + 41)>
#map2 = affine_map<()[s0, s1, s2, s3, s4, s5] -> ((s0 floordiv 16) mod 16 + ((s1 * 410 + s2 * 10 + s3 - ((s1 * 41 + s2) floordiv 8) * 79) floordiv 80) * 640 + (((s1 * 410 + s2 * 10 + s4 - ((s1 * 41 + s2) floordiv 8) * 79) mod 80) mod s5) * 16)>
#map3 = affine_map<()[s0] -> (s0 mod 16)>
#map4 = affine_map<()[s0, s1, s2, s3, s4, s5] -> (s0 floordiv 2 + s1 * 128 - ((s1 * 128 + s0 floordiv 2) floordiv 1448) * 1448 + (((s2 * 410 + s3 * 10 + s4 - ((s2 * 41 + s3) floordiv 8) * 79) mod 80) floordiv s5) * 1448)>
#map5 = affine_map<()[s0] -> (s0 * 8 - (s0 floordiv 2) * 16)>
#map6 = affine_map<()[s0, s1, s2, s3, s4, s5] -> (s0 floordiv 2 + s1 * 128 - ((s1 * 128 + s0 floordiv 2 + 256) floordiv 1448) * 1448 + (((s2 * 410 + s3 * 10 + s4 - ((s2 * 41 + s3) floordiv 8) * 79) mod 80) floordiv s5) * 1448 + 256)>
#map7 = affine_map<()[s0, s1, s2, s3, s4, s5] -> (s0 floordiv 2 + s1 * 128 - ((s1 * 128 + s0 floordiv 2 + 512) floordiv 1448) * 1448 + (((s2 * 410 + s3 * 10 + s4 - ((s2 * 41 + s3) floordiv 8) * 79) mod 80) floordiv s5) * 1448 + 512)>
#map8 = affine_map<()[s0, s1, s2, s3, s4, s5] -> (s0 floordiv 2 + s1 * 128 - ((s1 * 128 + s0 floordiv 2 + 768) floordiv 1448) * 1448 + (((s2 * 410 + s3 * 10 + s4 - ((s2 * 41 + s3) floordiv 8) * 79) mod 80) floordiv s5) * 1448 + 768)>
#map9 = affine_map<()[s0, s1, s2, s3, s4, s5] -> (s0 floordiv 2 + s1 * 128 - ((s1 * 128 + s0 floordiv 2 + 1024) floordiv 1448) * 1448 + (((s2 * 410 + s3 * 10 + s4 - ((s2 * 41 + s3) floordiv 8) * 79) mod 80) floordiv s5) * 1448 + 1024)>
#map10 = affine_map<()[s0, s1, s2, s3, s4, s5] -> (s0 floordiv 2 + s1 * 128 - ((s1 * 128 + s0 floordiv 2 + 1280) floordiv 1448) * 1448 + (((s2 * 410 + s3 * 10 + s4 - ((s2 * 41 + s3) floordiv 8) * 79) mod 80) floordiv s5) * 1448 + 1280)>
#map11 = affine_map<()[s0] -> ((s0 floordiv 64) * 4 + 4)>
#map12 = affine_map<()[s0] -> ((s0 floordiv 16) mod 16)>
#map13 = affine_map<()[s0] -> (s0 * 724 + 724)>
#map14 = affine_map<()[s0, s1] -> ((s1 * 128 + s0 floordiv 2) mod 1448)>
#map15 = affine_map<()[s0, s1] -> (s1 * 128 + s0 floordiv 2 - ((s1 * 128 + s0 floordiv 2 + 256) floordiv 1448) * 1448 + 256)>
#map16 = affine_map<()[s0, s1] -> (s1 * 128 + s0 floordiv 2 - ((s1 * 128 + s0 floordiv 2 + 512) floordiv 1448) * 1448 + 512)>
#map17 = affine_map<()[s0, s1] -> (s1 * 128 + s0 floordiv 2 - ((s1 * 128 + s0 floordiv 2 + 768) floordiv 1448) * 1448 + 768)>
#map18 = affine_map<()[s0, s1] -> (s1 * 128 + s0 floordiv 2 - ((s1 * 128 + s0 floordiv 2 + 1024) floordiv 1448) * 1448 + 1024)>
#map19 = affine_map<()[s0, s1] -> (s1 * 128 + s0 floordiv 2 - ((s1 * 128 + s0 floordiv 2 + 1280) floordiv 1448) * 1448 + 1280)>
#map20 = affine_map<()[s0, s1] -> (s0 + s1 * 724 - (s0 floordiv 32) * 32)>
#map21 = affine_map<()[s0] -> (((s0 mod 64) floordiv 32) * 4)>
#map22 = affine_map<()[s0] -> (((s0 mod 64) floordiv 32) * 4 + 8)>
#map23 = affine_map<()[s0, s1] -> (s0 + s1 * 724 - (s0 floordiv 32) * 32 + 32)>
#map24 = affine_map<()[s0, s1] -> (s0 + s1 * 724 - (s0 floordiv 32) * 32 + 64)>
#map25 = affine_map<()[s0, s1] -> (s0 + s1 * 724 - (s0 floordiv 32) * 32 + 96)>
#map26 = affine_map<()[s0, s1] -> (s0 + s1 * 724 - (s0 floordiv 32) * 32 + 128)>
#map27 = affine_map<()[s0, s1] -> (s0 + s1 * 724 - (s0 floordiv 32) * 32 + 160)>
#map28 = affine_map<()[s0, s1] -> (s0 + s1 * 724 - (s0 floordiv 32) * 32 + 192)>
#map29 = affine_map<()[s0, s1] -> (s0 + s1 * 724 - (s0 floordiv 32) * 32 + 224)>
#map30 = affine_map<()[s0, s1] -> (s0 + s1 * 724 - (s0 floordiv 32) * 32 + 256)>
#map31 = affine_map<()[s0, s1] -> (s0 + s1 * 724 - (s0 floordiv 32) * 32 + 288)>
#map32 = affine_map<()[s0, s1] -> (s0 + s1 * 724 - (s0 floordiv 32) * 32 + 320)>
#map33 = affine_map<()[s0, s1] -> (s0 + s1 * 724 - (s0 floordiv 32) * 32 + 352)>
#map34 = affine_map<()[s0, s1] -> (s0 + s1 * 724 - (s0 floordiv 32) * 32 + 384)>
#map35 = affine_map<()[s0, s1] -> (s0 + s1 * 724 - (s0 floordiv 32) * 32 + 416)>
#map36 = affine_map<()[s0, s1] -> (s0 + s1 * 724 - (s0 floordiv 32) * 32 + 448)>
#map37 = affine_map<()[s0, s1] -> (s0 + s1 * 724 - (s0 floordiv 32) * 32 + 480)>
#map38 = affine_map<()[s0, s1] -> (s0 + s1 * 724 - (s0 floordiv 32) * 32 + 512)>
#map39 = affine_map<()[s0, s1] -> (s0 + s1 * 724 - (s0 floordiv 32) * 32 + 544)>
#map40 = affine_map<()[s0, s1] -> (s0 + s1 * 724 - (s0 floordiv 32) * 32 + 576)>
#map41 = affine_map<()[s0, s1] -> (s0 + s1 * 724 - (s0 floordiv 32) * 32 + 608)>
#map42 = affine_map<()[s0, s1] -> (s0 + s1 * 724 - (s0 floordiv 32) * 32 + 640)>
#map43 = affine_map<()[s0, s1] -> (s0 + s1 * 724 - (s0 floordiv 32) * 32 + 672)>
#map44 = affine_map<()[s0, s1] -> (s0 + s1 * 724 - (s0 floordiv 32) * 32 + 704)>
#map45 = affine_map<()[s0] -> (s0 mod 32 + (s0 floordiv 64) * 4)>
#map46 = affine_map<()[s0, s1] -> (s0 + s1 * 16 - (s0 floordiv 16) * 16 + 16)>
#map47 = affine_map<()[s0, s1] -> (s0 * 16 + s1 * 8 - (s1 floordiv 2) * 16 + 16)>
#map48 = affine_map<()[s0, s1] -> (s0 * 1448 + s1 * 724 + 724)>
#map49 = affine_map<()[s0] -> (s0 * 1448 + 1448)>
#map50 = affine_map<()[s0, s1, s2, s3, s4, s5] -> (s0 mod 32 + s5 * 724 + (((s1 * 410 + s2 * 10 + s3 - ((s1 * 41 + s2) floordiv 8) * 79) mod 80) floordiv s4) * 1448)>
#map51 = affine_map<()[s0, s1] -> (s0 * 16 + (s1 floordiv 64) * 4 + 4)>
#map52 = affine_map<()[s0] -> (s0 * 16 + 16)>
#map53 = affine_map<()[s0, s1, s2, s3, s4, s5] -> ((s5 floordiv 64) * 4 + ((s0 * 410 + s1 * 10 + s2 - ((s0 * 41 + s1) floordiv 8) * 79) floordiv 80) * 640 + (((s0 * 410 + s1 * 10 + s3 - ((s0 * 41 + s1) floordiv 8) * 79) mod 80) mod s4) * 16 + ((s5 mod 64) floordiv 32) * 4)>
#map54 = affine_map<()[s0, s1, s2, s3, s4] -> (((s0 * 410 + s1 * 10 + s2 - ((s0 * 41 + s1) floordiv 8) * 79) floordiv 80) * 640 + (((s0 * 410 + s1 * 10 + s3 - ((s0 * 41 + s1) floordiv 8) * 79) mod 80) mod s4) * 16)>
#map55 = affine_map<()[s0, s1, s2, s3] -> ((((s0 * 410 + s1 * 10 + s2 - ((s0 * 41 + s1) floordiv 8) * 79) mod 80) floordiv s3) * 1448)>
#map56 = affine_map<()[s0] -> ((s0 floordiv 64) * 4 + ((s0 mod 64) floordiv 32) * 4)>
#map57 = affine_map<()[s0, s1, s2, s3, s4, s5] -> ((s5 floordiv 64) * 4 + ((s0 * 410 + s1 * 10 + s2 - ((s0 * 41 + s1) floordiv 8) * 79) floordiv 80) * 640 + (((s0 * 410 + s1 * 10 + s3 - ((s0 * 41 + s1) floordiv 8) * 79) mod 80) mod s4) * 16 + ((s5 mod 64) floordiv 32) * 4 + 1)>
#map58 = affine_map<()[s0] -> ((s0 floordiv 64) * 4 + ((s0 mod 64) floordiv 32) * 4 + 1)>
#map59 = affine_map<()[s0, s1, s2, s3, s4, s5] -> ((s5 floordiv 64) * 4 + ((s0 * 410 + s1 * 10 + s2 - ((s0 * 41 + s1) floordiv 8) * 79) floordiv 80) * 640 + (((s0 * 410 + s1 * 10 + s3 - ((s0 * 41 + s1) floordiv 8) * 79) mod 80) mod s4) * 16 + ((s5 mod 64) floordiv 32) * 4 + 2)>
#map60 = affine_map<()[s0] -> ((s0 floordiv 64) * 4 + ((s0 mod 64) floordiv 32) * 4 + 2)>
#map61 = affine_map<()[s0, s1, s2, s3, s4, s5] -> ((s5 floordiv 64) * 4 + ((s0 * 410 + s1 * 10 + s2 - ((s0 * 41 + s1) floordiv 8) * 79) floordiv 80) * 640 + (((s0 * 410 + s1 * 10 + s3 - ((s0 * 41 + s1) floordiv 8) * 79) mod 80) mod s4) * 16 + ((s5 mod 64) floordiv 32) * 4 + 3)>
#map62 = affine_map<()[s0] -> ((s0 floordiv 64) * 4 + ((s0 mod 64) floordiv 32) * 4 + 3)>
#map63 = affine_map<()[s0, s1, s2, s3, s4, s5] -> ((s5 floordiv 64) * 4 + ((s0 * 410 + s1 * 10 + s2 - ((s0 * 41 + s1) floordiv 8) * 79) floordiv 80) * 640 + (((s0 * 410 + s1 * 10 + s3 - ((s0 * 41 + s1) floordiv 8) * 79) mod 80) mod s4) * 16 + ((s5 mod 64) floordiv 32) * 4 + 8)>
#map64 = affine_map<()[s0] -> ((s0 floordiv 64) * 4 + ((s0 mod 64) floordiv 32) * 4 + 8)>
#map65 = affine_map<()[s0, s1, s2, s3, s4, s5] -> ((s5 floordiv 64) * 4 + ((s0 * 410 + s1 * 10 + s2 - ((s0 * 41 + s1) floordiv 8) * 79) floordiv 80) * 640 + (((s0 * 410 + s1 * 10 + s3 - ((s0 * 41 + s1) floordiv 8) * 79) mod 80) mod s4) * 16 + ((s5 mod 64) floordiv 32) * 4 + 9)>
#map66 = affine_map<()[s0] -> ((s0 floordiv 64) * 4 + ((s0 mod 64) floordiv 32) * 4 + 9)>
#map67 = affine_map<()[s0, s1, s2, s3, s4, s5] -> ((s5 floordiv 64) * 4 + ((s0 * 410 + s1 * 10 + s2 - ((s0 * 41 + s1) floordiv 8) * 79) floordiv 80) * 640 + (((s0 * 410 + s1 * 10 + s3 - ((s0 * 41 + s1) floordiv 8) * 79) mod 80) mod s4) * 16 + ((s5 mod 64) floordiv 32) * 4 + 10)>
#map68 = affine_map<()[s0] -> ((s0 floordiv 64) * 4 + ((s0 mod 64) floordiv 32) * 4 + 10)>
#map69 = affine_map<()[s0, s1, s2, s3, s4, s5] -> ((s5 floordiv 64) * 4 + ((s0 * 410 + s1 * 10 + s2 - ((s0 * 41 + s1) floordiv 8) * 79) floordiv 80) * 640 + (((s0 * 410 + s1 * 10 + s3 - ((s0 * 41 + s1) floordiv 8) * 79) mod 80) mod s4) * 16 + ((s5 mod 64) floordiv 32) * 4 + 11)>
#map70 = affine_map<()[s0] -> ((s0 floordiv 64) * 4 + ((s0 mod 64) floordiv 32) * 4 + 11)>
#map71 = affine_map<()[s0, s1, s2, s3, s4, s5] -> ((s5 floordiv 64) * 4 + ((s0 * 410 + s1 * 10 + s2 - ((s0 * 41 + s1) floordiv 8) * 79) floordiv 80) * 640 + (((s0 * 410 + s1 * 10 + s3 - ((s0 * 41 + s1) floordiv 8) * 79) mod 80) mod s4) * 16 + ((s5 mod 64) floordiv 32) * 4 + 16)>
#map72 = affine_map<()[s0] -> ((s0 floordiv 64) * 4 + ((s0 mod 64) floordiv 32) * 4 + 16)>
#map73 = affine_map<()[s0, s1, s2, s3, s4, s5] -> ((s5 floordiv 64) * 4 + ((s0 * 410 + s1 * 10 + s2 - ((s0 * 41 + s1) floordiv 8) * 79) floordiv 80) * 640 + (((s0 * 410 + s1 * 10 + s3 - ((s0 * 41 + s1) floordiv 8) * 79) mod 80) mod s4) * 16 + ((s5 mod 64) floordiv 32) * 4 + 17)>
#map74 = affine_map<()[s0] -> ((s0 floordiv 64) * 4 + ((s0 mod 64) floordiv 32) * 4 + 17)>
#map75 = affine_map<()[s0, s1, s2, s3, s4, s5] -> ((s5 floordiv 64) * 4 + ((s0 * 410 + s1 * 10 + s2 - ((s0 * 41 + s1) floordiv 8) * 79) floordiv 80) * 640 + (((s0 * 410 + s1 * 10 + s3 - ((s0 * 41 + s1) floordiv 8) * 79) mod 80) mod s4) * 16 + ((s5 mod 64) floordiv 32) * 4 + 18)>
#map76 = affine_map<()[s0] -> ((s0 floordiv 64) * 4 + ((s0 mod 64) floordiv 32) * 4 + 18)>
#map77 = affine_map<()[s0, s1, s2, s3, s4, s5] -> ((s5 floordiv 64) * 4 + ((s0 * 410 + s1 * 10 + s2 - ((s0 * 41 + s1) floordiv 8) * 79) floordiv 80) * 640 + (((s0 * 410 + s1 * 10 + s3 - ((s0 * 41 + s1) floordiv 8) * 79) mod 80) mod s4) * 16 + ((s5 mod 64) floordiv 32) * 4 + 19)>
#map78 = affine_map<()[s0] -> ((s0 floordiv 64) * 4 + ((s0 mod 64) floordiv 32) * 4 + 19)>
#map79 = affine_map<()[s0, s1, s2, s3, s4, s5] -> ((s5 floordiv 64) * 4 + ((s0 * 410 + s1 * 10 + s2 - ((s0 * 41 + s1) floordiv 8) * 79) floordiv 80) * 640 + (((s0 * 410 + s1 * 10 + s3 - ((s0 * 41 + s1) floordiv 8) * 79) mod 80) mod s4) * 16 + ((s5 mod 64) floordiv 32) * 4 + 24)>
#map80 = affine_map<()[s0] -> ((s0 floordiv 64) * 4 + ((s0 mod 64) floordiv 32) * 4 + 24)>
#map81 = affine_map<()[s0, s1, s2, s3, s4, s5] -> ((s5 floordiv 64) * 4 + ((s0 * 410 + s1 * 10 + s2 - ((s0 * 41 + s1) floordiv 8) * 79) floordiv 80) * 640 + (((s0 * 410 + s1 * 10 + s3 - ((s0 * 41 + s1) floordiv 8) * 79) mod 80) mod s4) * 16 + ((s5 mod 64) floordiv 32) * 4 + 25)>
#map82 = affine_map<()[s0] -> ((s0 floordiv 64) * 4 + ((s0 mod 64) floordiv 32) * 4 + 25)>
#map83 = affine_map<()[s0, s1, s2, s3, s4, s5] -> ((s5 floordiv 64) * 4 + ((s0 * 410 + s1 * 10 + s2 - ((s0 * 41 + s1) floordiv 8) * 79) floordiv 80) * 640 + (((s0 * 410 + s1 * 10 + s3 - ((s0 * 41 + s1) floordiv 8) * 79) mod 80) mod s4) * 16 + ((s5 mod 64) floordiv 32) * 4 + 26)>
#map84 = affine_map<()[s0] -> ((s0 floordiv 64) * 4 + ((s0 mod 64) floordiv 32) * 4 + 26)>
#map85 = affine_map<()[s0, s1, s2, s3, s4, s5] -> ((s5 floordiv 64) * 4 + ((s0 * 410 + s1 * 10 + s2 - ((s0 * 41 + s1) floordiv 8) * 79) floordiv 80) * 640 + (((s0 * 410 + s1 * 10 + s3 - ((s0 * 41 + s1) floordiv 8) * 79) mod 80) mod s4) * 16 + ((s5 mod 64) floordiv 32) * 4 + 27)>
#map86 = affine_map<()[s0] -> ((s0 floordiv 64) * 4 + ((s0 mod 64) floordiv 32) * 4 + 27)>
#map87 = affine_map<()[s0, s1, s2, s3, s4, s5] -> (s0 mod 32 + s5 * 724 + (((s1 * 410 + s2 * 10 + s3 - ((s1 * 41 + s2) floordiv 8) * 79) mod 80) floordiv s4) * 1448 + 32)>
#map88 = affine_map<()[s0, s1, s2, s3, s4, s5] -> (s0 mod 32 + s5 * 724 + (((s1 * 410 + s2 * 10 + s3 - ((s1 * 41 + s2) floordiv 8) * 79) mod 80) floordiv s4) * 1448 + 64)>
#map89 = affine_map<()[s0, s1, s2, s3, s4, s5] -> (s0 mod 32 + s5 * 724 + (((s1 * 410 + s2 * 10 + s3 - ((s1 * 41 + s2) floordiv 8) * 79) mod 80) floordiv s4) * 1448 + 96)>
#map90 = affine_map<()[s0, s1, s2, s3, s4, s5] -> (s0 mod 32 + s5 * 724 + (((s1 * 410 + s2 * 10 + s3 - ((s1 * 41 + s2) floordiv 8) * 79) mod 80) floordiv s4) * 1448 + 128)>
#map91 = affine_map<()[s0, s1, s2, s3, s4, s5] -> (s0 mod 32 + s5 * 724 + (((s1 * 410 + s2 * 10 + s3 - ((s1 * 41 + s2) floordiv 8) * 79) mod 80) floordiv s4) * 1448 + 160)>
#map92 = affine_map<()[s0, s1, s2, s3, s4, s5] -> (s0 mod 32 + s5 * 724 + (((s1 * 410 + s2 * 10 + s3 - ((s1 * 41 + s2) floordiv 8) * 79) mod 80) floordiv s4) * 1448 + 192)>
#map93 = affine_map<()[s0, s1, s2, s3, s4, s5] -> (s0 mod 32 + s5 * 724 + (((s1 * 410 + s2 * 10 + s3 - ((s1 * 41 + s2) floordiv 8) * 79) mod 80) floordiv s4) * 1448 + 224)>
#map94 = affine_map<()[s0, s1, s2, s3, s4, s5] -> (s0 mod 32 + s5 * 724 + (((s1 * 410 + s2 * 10 + s3 - ((s1 * 41 + s2) floordiv 8) * 79) mod 80) floordiv s4) * 1448 + 256)>
#map95 = affine_map<()[s0, s1, s2, s3, s4, s5] -> (s0 mod 32 + s5 * 724 + (((s1 * 410 + s2 * 10 + s3 - ((s1 * 41 + s2) floordiv 8) * 79) mod 80) floordiv s4) * 1448 + 288)>
#map96 = affine_map<()[s0, s1, s2, s3, s4, s5] -> (s0 mod 32 + s5 * 724 + (((s1 * 410 + s2 * 10 + s3 - ((s1 * 41 + s2) floordiv 8) * 79) mod 80) floordiv s4) * 1448 + 320)>
#map97 = affine_map<()[s0, s1, s2, s3, s4, s5] -> (s0 mod 32 + s5 * 724 + (((s1 * 410 + s2 * 10 + s3 - ((s1 * 41 + s2) floordiv 8) * 79) mod 80) floordiv s4) * 1448 + 352)>
#map98 = affine_map<()[s0, s1, s2, s3, s4, s5] -> (s0 mod 32 + s5 * 724 + (((s1 * 410 + s2 * 10 + s3 - ((s1 * 41 + s2) floordiv 8) * 79) mod 80) floordiv s4) * 1448 + 384)>
#map99 = affine_map<()[s0, s1, s2, s3, s4, s5] -> (s0 mod 32 + s5 * 724 + (((s1 * 410 + s2 * 10 + s3 - ((s1 * 41 + s2) floordiv 8) * 79) mod 80) floordiv s4) * 1448 + 416)>
#map100 = affine_map<()[s0, s1, s2, s3, s4, s5] -> (s0 mod 32 + s5 * 724 + (((s1 * 410 + s2 * 10 + s3 - ((s1 * 41 + s2) floordiv 8) * 79) mod 80) floordiv s4) * 1448 + 448)>
#map101 = affine_map<()[s0, s1, s2, s3, s4, s5] -> (s0 mod 32 + s5 * 724 + (((s1 * 410 + s2 * 10 + s3 - ((s1 * 41 + s2) floordiv 8) * 79) mod 80) floordiv s4) * 1448 + 480)>
#map102 = affine_map<()[s0, s1, s2, s3, s4, s5] -> (s0 mod 32 + s5 * 724 + (((s1 * 410 + s2 * 10 + s3 - ((s1 * 41 + s2) floordiv 8) * 79) mod 80) floordiv s4) * 1448 + 512)>
#map103 = affine_map<()[s0, s1, s2, s3, s4, s5] -> (s0 mod 32 + s5 * 724 + (((s1 * 410 + s2 * 10 + s3 - ((s1 * 41 + s2) floordiv 8) * 79) mod 80) floordiv s4) * 1448 + 544)>
#map104 = affine_map<()[s0, s1, s2, s3, s4, s5] -> (s0 mod 32 + s5 * 724 + (((s1 * 410 + s2 * 10 + s3 - ((s1 * 41 + s2) floordiv 8) * 79) mod 80) floordiv s4) * 1448 + 576)>
#map105 = affine_map<()[s0, s1, s2, s3, s4, s5] -> (s0 mod 32 + s5 * 724 + (((s1 * 410 + s2 * 10 + s3 - ((s1 * 41 + s2) floordiv 8) * 79) mod 80) floordiv s4) * 1448 + 608)>
#map106 = affine_map<()[s0, s1, s2, s3, s4, s5] -> (s0 mod 32 + s5 * 724 + (((s1 * 410 + s2 * 10 + s3 - ((s1 * 41 + s2) floordiv 8) * 79) mod 80) floordiv s4) * 1448 + 640)>
#map107 = affine_map<()[s0, s1, s2, s3, s4, s5] -> (s0 mod 32 + s5 * 724 + (((s1 * 410 + s2 * 10 + s3 - ((s1 * 41 + s2) floordiv 8) * 79) mod 80) floordiv s4) * 1448 + 672)>
#map108 = affine_map<()[s0, s1, s2, s3, s4, s5] -> (s0 mod 32 + s5 * 724 + (((s1 * 410 + s2 * 10 + s3 - ((s1 * 41 + s2) floordiv 8) * 79) mod 80) floordiv s4) * 1448 + 704)>
#translation = #iree_codegen.translation_info<pipeline = None workgroup_size = [256, 2, 1] subgroup_size = 64>
module attributes {transform.with_named_sequence} {
  stream.executable private @gemm {
    stream.executable.export public @gemm workgroups() -> (index, index, index) {
      %c41 = arith.constant 41 : index
      %c2 = arith.constant 2 : index
      %c1 = arith.constant 1 : index
      stream.return %c41, %c2, %c1 : index, index, index
    }
    builtin.module {
      func.func @gemm(%arg0: !stream.binding, %arg1: !stream.binding, %arg2: !stream.binding) attributes {translation_info = #translation} {
        %c536870911 = arith.constant 536870911 : index
        %c2880_i14 = arith.constant 2880 : i14
        %cst = arith.constant dense<0.000000e+00> : vector<4xf16>
        %cst_0 = arith.constant dense<[0, 1, 2, 3, 4, 5, 6, 7]> : vector<8xi32>
        %cst_1 = arith.constant dense<1073741823> : vector<8xindex>
        %c4096_i14 = arith.constant 4096 : i14
        %c2147483643_i32 = arith.constant 2147483643 : i32
        %c536870910 = arith.constant 536870910 : index
        %c255 = arith.constant 255 : index
        %c2880 = arith.constant 2880 : index
        %c1448 = arith.constant 1448 : index
        %c1073741823 = arith.constant 1073741823 : index
        %c2147483645_i32 = arith.constant 2147483645 : i32
        %c1073741822 = arith.constant 1073741822 : index
        %c4096 = arith.constant 4096 : index
        %c641 = arith.constant 641 : index
        %c40 = arith.constant 40 : index
        %c1 = arith.constant 1 : index
        %c2 = arith.constant 2 : index
        %c16 = arith.constant 16 : index
        %c57920 = arith.constant 57920 : index
        %c0 = arith.constant 0 : index
        %cst_2 = arith.constant dense<0.000000e+00> : vector<16xf32>
        %block_id_x = gpu.block_id  x upper_bound 41
        %block_id_y = gpu.block_id  y upper_bound 2
        %thread_id_x = gpu.thread_id  x upper_bound 256
        %thread_id_y = gpu.thread_id  y upper_bound 2
        %alloc = memref.alloc() : memref<58560xi8, #gpu.address_space<workgroup>>
        %view = memref.view %alloc[%c0][] : memref<58560xi8, #gpu.address_space<workgroup>> to memref<1448x20xf16, #gpu.address_space<workgroup>>
        %view_3 = memref.view %alloc[%c57920][] : memref<58560xi8, #gpu.address_space<workgroup>> to memref<16x20xf16, #gpu.address_space<workgroup>>
        %0 = stream.binding.subspan %arg0[%c0] : !stream.binding -> memref<641x4096xf16, strided<[4096, 1], offset: ?>>
        %1 = affine.apply #map()[%block_id_y, %block_id_x]
        %2 = arith.minsi %1, %c2 : index
        %3 = affine.apply #map1()[%block_id_y, %block_id_x, %2]
        %4 = arith.minsi %3, %c40 : index
        %5 = arith.maxsi %4, %c1 : index
        %6 = affine.apply #map2()[%thread_id_x, %block_id_y, %block_id_x, %2, %2, %5]
        %7 = arith.cmpi slt, %6, %c641 : index
        %8 = affine.apply #map3()[%thread_id_x]
        %9 = arith.muli %6, %c4096 overflow<nsw> : index
        %10 = arith.addi %9, %8 overflow<nsw> : index
        %base_buffer, %offset, %sizes:2, %strides:2 = memref.extract_strided_metadata %0 : memref<641x4096xf16, strided<[4096, 1], offset: ?>> -> memref<f16>, index, index, index, index, index
        %reinterpret_cast = memref.reinterpret_cast %0 to offset: [%offset], sizes: [%c1073741822], strides: [1] : memref<641x4096xf16, strided<[4096, 1], offset: ?>> to memref<?xf16, strided<[1], offset: ?>>
        %11 = amdgpu.fat_raw_buffer_cast %reinterpret_cast validBytes(%c2147483645_i32) cacheSwizzleStride(%c4096_i14) resetOffset : memref<?xf16, strided<[1], offset: ?>> to memref<?xf16, #amdgpu.address_space<fat_raw_buffer>>
        %12 = arith.select %7, %10, %c1073741823 : index
        %13 = vector.load %11[%12] : memref<?xf16, #amdgpu.address_space<fat_raw_buffer>>, vector<1xf16>
        %14 = stream.binding.subspan %arg1[%c0] : !stream.binding -> memref<2880x4096xf16, strided<[4096, 1], offset: ?>>
        %15 = affine.apply #map4()[%thread_id_x, %thread_id_y, %block_id_y, %block_id_x, %2, %5]
        %16 = arith.cmpi slt, %15, %c2880 : index
        %17 = vector.broadcast %16 : i1 to vector<8xi1>
        %18 = affine.apply #map5()[%thread_id_x]
        %19 = arith.muli %15, %c4096 overflow<nsw> : index
        %20 = arith.addi %19, %18 overflow<nsw> : index
        %base_buffer_4, %offset_5, %sizes_6:2, %strides_7:2 = memref.extract_strided_metadata %14 : memref<2880x4096xf16, strided<[4096, 1], offset: ?>> -> memref<f16>, index, index, index, index, index
        %reinterpret_cast_8 = memref.reinterpret_cast %14 to offset: [%offset_5], sizes: [%c1073741822], strides: [1] : memref<2880x4096xf16, strided<[4096, 1], offset: ?>> to memref<?xf16, strided<[1], offset: ?>>
        %21 = amdgpu.fat_raw_buffer_cast %reinterpret_cast_8 validBytes(%c2147483645_i32) cacheSwizzleStride(%c4096_i14) resetOffset : memref<?xf16, strided<[1], offset: ?>> to memref<?xf16, #amdgpu.address_space<fat_raw_buffer>>
        %22 = arith.index_cast %20 : index to i32
        %23 = vector.broadcast %22 : i32 to vector<8xi32>
        %24 = arith.addi %23, %cst_0 : vector<8xi32>
        %25 = arith.index_cast %24 : vector<8xi32> to vector<8xindex>
        %26 = arith.select %17, %25, %cst_1 : vector<8xi1>, vector<8xindex>
        %27 = vector.extract %26[0] : index from vector<8xindex>
        %28 = vector.load %21[%27] : memref<?xf16, #amdgpu.address_space<fat_raw_buffer>>, vector<8xf16>
        %29 = affine.apply #map6()[%thread_id_x, %thread_id_y, %block_id_y, %block_id_x, %2, %5]
        %30 = arith.cmpi slt, %29, %c2880 : index
        %31 = vector.broadcast %30 : i1 to vector<8xi1>
        %32 = arith.muli %29, %c4096 overflow<nsw> : index
        %33 = arith.addi %32, %18 overflow<nsw> : index
        %34 = arith.index_cast %33 : index to i32
        %35 = vector.broadcast %34 : i32 to vector<8xi32>
        %36 = arith.addi %35, %cst_0 : vector<8xi32>
        %37 = arith.index_cast %36 : vector<8xi32> to vector<8xindex>
        %38 = arith.select %31, %37, %cst_1 : vector<8xi1>, vector<8xindex>
        %39 = vector.extract %38[0] : index from vector<8xindex>
        %40 = vector.load %21[%39] : memref<?xf16, #amdgpu.address_space<fat_raw_buffer>>, vector<8xf16>
        %41 = affine.apply #map7()[%thread_id_x, %thread_id_y, %block_id_y, %block_id_x, %2, %5]
        %42 = arith.cmpi slt, %41, %c2880 : index
        %43 = vector.broadcast %42 : i1 to vector<8xi1>
        %44 = arith.muli %41, %c4096 overflow<nsw> : index
        %45 = arith.addi %44, %18 overflow<nsw> : index
        %46 = arith.index_cast %45 : index to i32
        %47 = vector.broadcast %46 : i32 to vector<8xi32>
        %48 = arith.addi %47, %cst_0 : vector<8xi32>
        %49 = arith.index_cast %48 : vector<8xi32> to vector<8xindex>
        %50 = arith.select %43, %49, %cst_1 : vector<8xi1>, vector<8xindex>
        %51 = vector.extract %50[0] : index from vector<8xindex>
        %52 = vector.load %21[%51] : memref<?xf16, #amdgpu.address_space<fat_raw_buffer>>, vector<8xf16>
        %53 = affine.apply #map8()[%thread_id_x, %thread_id_y, %block_id_y, %block_id_x, %2, %5]
        %54 = arith.cmpi slt, %53, %c2880 : index
        %55 = vector.broadcast %54 : i1 to vector<8xi1>
        %56 = arith.muli %53, %c4096 overflow<nsw> : index
        %57 = arith.addi %56, %18 overflow<nsw> : index
        %58 = arith.index_cast %57 : index to i32
        %59 = vector.broadcast %58 : i32 to vector<8xi32>
        %60 = arith.addi %59, %cst_0 : vector<8xi32>
        %61 = arith.index_cast %60 : vector<8xi32> to vector<8xindex>
        %62 = arith.select %55, %61, %cst_1 : vector<8xi1>, vector<8xindex>
        %63 = vector.extract %62[0] : index from vector<8xindex>
        %64 = vector.load %21[%63] : memref<?xf16, #amdgpu.address_space<fat_raw_buffer>>, vector<8xf16>
        %65 = affine.apply #map9()[%thread_id_x, %thread_id_y, %block_id_y, %block_id_x, %2, %5]
        %66 = arith.cmpi slt, %65, %c2880 : index
        %67 = vector.broadcast %66 : i1 to vector<8xi1>
        %68 = arith.muli %65, %c4096 overflow<nsw> : index
        %69 = arith.addi %68, %18 overflow<nsw> : index
        %70 = arith.index_cast %69 : index to i32
        %71 = vector.broadcast %70 : i32 to vector<8xi32>
        %72 = arith.addi %71, %cst_0 : vector<8xi32>
        %73 = arith.index_cast %72 : vector<8xi32> to vector<8xindex>
        %74 = arith.select %67, %73, %cst_1 : vector<8xi1>, vector<8xindex>
        %75 = vector.extract %74[0] : index from vector<8xindex>
        %76 = vector.load %21[%75] : memref<?xf16, #amdgpu.address_space<fat_raw_buffer>>, vector<8xf16>
        %77 = affine.apply #map10()[%thread_id_x, %thread_id_y, %block_id_y, %block_id_x, %2, %5]
        %78 = arith.cmpi slt, %77, %c2880 : index
        %79 = vector.broadcast %78 : i1 to vector<8xi1>
        %80 = arith.muli %77, %c4096 overflow<nsw> : index
        %81 = arith.addi %80, %18 overflow<nsw> : index
        %82 = arith.index_cast %81 : index to i32
        %83 = vector.broadcast %82 : i32 to vector<8xi32>
        %84 = arith.addi %83, %cst_0 : vector<8xi32>
        %85 = arith.index_cast %84 : vector<8xi32> to vector<8xindex>
        %86 = arith.select %79, %85, %cst_1 : vector<8xi1>, vector<8xindex>
        %87 = vector.extract %86[0] : index from vector<8xindex>
        %88 = vector.load %21[%87] : memref<?xf16, #amdgpu.address_space<fat_raw_buffer>>, vector<8xf16>
        %89 = affine.apply #map11()[%thread_id_x]
        %90 = arith.minsi %89, %c16 : index
        %91 = affine.apply #map12()[%thread_id_x]
        %92 = arith.cmpi slt, %91, %90 : index
        %93 = vector.broadcast %92 : i1 to vector<1xi1>
        vector.maskedstore %view_3[%91, %8], %93, %13 : memref<16x20xf16, #gpu.address_space<workgroup>>, vector<1xi1>, vector<1xf16>
        %94 = affine.apply #map13()[%thread_id_y]
        %95 = arith.minsi %94, %c1448 : index
        %96 = affine.apply #map14()[%thread_id_x, %thread_id_y]
        %97 = arith.cmpi slt, %96, %95 : index
        %98 = vector.broadcast %97 : i1 to vector<8xi1>
        vector.maskedstore %view[%96, %18], %98, %28 : memref<1448x20xf16, #gpu.address_space<workgroup>>, vector<8xi1>, vector<8xf16>
        %99 = affine.apply #map15()[%thread_id_x, %thread_id_y]
        %100 = arith.cmpi slt, %99, %95 : index
        %101 = vector.broadcast %100 : i1 to vector<8xi1>
        vector.maskedstore %view[%99, %18], %101, %40 : memref<1448x20xf16, #gpu.address_space<workgroup>>, vector<8xi1>, vector<8xf16>
        %102 = affine.apply #map16()[%thread_id_x, %thread_id_y]
        %103 = arith.cmpi slt, %102, %95 : index
        %104 = vector.broadcast %103 : i1 to vector<8xi1>
        vector.maskedstore %view[%102, %18], %104, %52 : memref<1448x20xf16, #gpu.address_space<workgroup>>, vector<8xi1>, vector<8xf16>
        %105 = affine.apply #map17()[%thread_id_x, %thread_id_y]
        %106 = arith.cmpi slt, %105, %95 : index
        %107 = vector.broadcast %106 : i1 to vector<8xi1>
        vector.maskedstore %view[%105, %18], %107, %64 : memref<1448x20xf16, #gpu.address_space<workgroup>>, vector<8xi1>, vector<8xf16>
        %108 = affine.apply #map18()[%thread_id_x, %thread_id_y]
        %109 = arith.cmpi slt, %108, %95 : index
        %110 = vector.broadcast %109 : i1 to vector<8xi1>
        vector.maskedstore %view[%108, %18], %110, %76 : memref<1448x20xf16, #gpu.address_space<workgroup>>, vector<8xi1>, vector<8xf16>
        %111 = affine.apply #map19()[%thread_id_x, %thread_id_y]
        %112 = arith.cmpi slt, %111, %95 : index
        %113 = vector.broadcast %112 : i1 to vector<8xi1>
        vector.maskedstore %view[%111, %18], %113, %88 : memref<1448x20xf16, #gpu.address_space<workgroup>>, vector<8xi1>, vector<8xf16>
        %114 = affine.apply #map20()[%thread_id_x, %thread_id_y]
        %115 = arith.cmpi slt, %114, %95 : index
        %116 = vector.broadcast %115 : i1 to vector<4xi1>
        %117 = affine.apply #map21()[%thread_id_x]
        %118 = affine.apply #map22()[%thread_id_x]
        %119 = affine.apply #map23()[%thread_id_x, %thread_id_y]
        %120 = arith.cmpi slt, %119, %95 : index
        %121 = vector.broadcast %120 : i1 to vector<4xi1>
        %122 = affine.apply #map24()[%thread_id_x, %thread_id_y]
        %123 = arith.cmpi slt, %122, %95 : index
        %124 = vector.broadcast %123 : i1 to vector<4xi1>
        %125 = affine.apply #map25()[%thread_id_x, %thread_id_y]
        %126 = arith.cmpi slt, %125, %95 : index
        %127 = vector.broadcast %126 : i1 to vector<4xi1>
        %128 = affine.apply #map26()[%thread_id_x, %thread_id_y]
        %129 = arith.cmpi slt, %128, %95 : index
        %130 = vector.broadcast %129 : i1 to vector<4xi1>
        %131 = affine.apply #map27()[%thread_id_x, %thread_id_y]
        %132 = arith.cmpi slt, %131, %95 : index
        %133 = vector.broadcast %132 : i1 to vector<4xi1>
        %134 = affine.apply #map28()[%thread_id_x, %thread_id_y]
        %135 = arith.cmpi slt, %134, %95 : index
        %136 = vector.broadcast %135 : i1 to vector<4xi1>
        %137 = affine.apply #map29()[%thread_id_x, %thread_id_y]
        %138 = arith.cmpi slt, %137, %95 : index
        %139 = vector.broadcast %138 : i1 to vector<4xi1>
        %140 = affine.apply #map30()[%thread_id_x, %thread_id_y]
        %141 = arith.cmpi slt, %140, %95 : index
        %142 = vector.broadcast %141 : i1 to vector<4xi1>
        %143 = affine.apply #map31()[%thread_id_x, %thread_id_y]
        %144 = arith.cmpi slt, %143, %95 : index
        %145 = vector.broadcast %144 : i1 to vector<4xi1>
        %146 = affine.apply #map32()[%thread_id_x, %thread_id_y]
        %147 = arith.cmpi slt, %146, %95 : index
        %148 = vector.broadcast %147 : i1 to vector<4xi1>
        %149 = affine.apply #map33()[%thread_id_x, %thread_id_y]
        %150 = arith.cmpi slt, %149, %95 : index
        %151 = vector.broadcast %150 : i1 to vector<4xi1>
        %152 = affine.apply #map34()[%thread_id_x, %thread_id_y]
        %153 = arith.cmpi slt, %152, %95 : index
        %154 = vector.broadcast %153 : i1 to vector<4xi1>
        %155 = affine.apply #map35()[%thread_id_x, %thread_id_y]
        %156 = arith.cmpi slt, %155, %95 : index
        %157 = vector.broadcast %156 : i1 to vector<4xi1>
        %158 = affine.apply #map36()[%thread_id_x, %thread_id_y]
        %159 = arith.cmpi slt, %158, %95 : index
        %160 = vector.broadcast %159 : i1 to vector<4xi1>
        %161 = affine.apply #map37()[%thread_id_x, %thread_id_y]
        %162 = arith.cmpi slt, %161, %95 : index
        %163 = vector.broadcast %162 : i1 to vector<4xi1>
        %164 = affine.apply #map38()[%thread_id_x, %thread_id_y]
        %165 = arith.cmpi slt, %164, %95 : index
        %166 = vector.broadcast %165 : i1 to vector<4xi1>
        %167 = affine.apply #map39()[%thread_id_x, %thread_id_y]
        %168 = arith.cmpi slt, %167, %95 : index
        %169 = vector.broadcast %168 : i1 to vector<4xi1>
        %170 = affine.apply #map40()[%thread_id_x, %thread_id_y]
        %171 = arith.cmpi slt, %170, %95 : index
        %172 = vector.broadcast %171 : i1 to vector<4xi1>
        %173 = affine.apply #map41()[%thread_id_x, %thread_id_y]
        %174 = arith.cmpi slt, %173, %95 : index
        %175 = vector.broadcast %174 : i1 to vector<4xi1>
        %176 = affine.apply #map42()[%thread_id_x, %thread_id_y]
        %177 = arith.cmpi slt, %176, %95 : index
        %178 = vector.broadcast %177 : i1 to vector<4xi1>
        %179 = affine.apply #map43()[%thread_id_x, %thread_id_y]
        %180 = arith.cmpi slt, %179, %95 : index
        %181 = vector.broadcast %180 : i1 to vector<4xi1>
        %182 = affine.apply #map44()[%thread_id_x, %thread_id_y]
        %183 = arith.cmpi slt, %182, %95 : index
        %184 = vector.broadcast %183 : i1 to vector<4xi1>
        %185 = affine.apply #map45()[%thread_id_x]
        %186 = arith.cmpi slt, %185, %90 : index
        %187 = vector.broadcast %186 : i1 to vector<4xi1>
        %188:23 = scf.for %arg3 = %c0 to %c255 step %c1 iter_args(%arg4 = %cst_2, %arg5 = %cst_2, %arg6 = %cst_2, %arg7 = %cst_2, %arg8 = %cst_2, %arg9 = %cst_2, %arg10 = %cst_2, %arg11 = %cst_2, %arg12 = %cst_2, %arg13 = %cst_2, %arg14 = %cst_2, %arg15 = %cst_2, %arg16 = %cst_2, %arg17 = %cst_2, %arg18 = %cst_2, %arg19 = %cst_2, %arg20 = %cst_2, %arg21 = %cst_2, %arg22 = %cst_2, %arg23 = %cst_2, %arg24 = %cst_2, %arg25 = %cst_2, %arg26 = %cst_2) -> (vector<16xf32>, vector<16xf32>, vector<16xf32>, vector<16xf32>, vector<16xf32>, vector<16xf32>, vector<16xf32>, vector<16xf32>, vector<16xf32>, vector<16xf32>, vector<16xf32>, vector<16xf32>, vector<16xf32>, vector<16xf32>, vector<16xf32>, vector<16xf32>, vector<16xf32>, vector<16xf32>, vector<16xf32>, vector<16xf32>, vector<16xf32>, vector<16xf32>, vector<16xf32>) {
          amdgpu.lds_barrier
          %1954 = vector.maskedload %view[%114, %117], %116, %cst : memref<1448x20xf16, #gpu.address_space<workgroup>>, vector<4xi1>, vector<4xf16> into vector<4xf16>
          %1955 = vector.maskedload %view[%114, %118], %116, %cst : memref<1448x20xf16, #gpu.address_space<workgroup>>, vector<4xi1>, vector<4xf16> into vector<4xf16>
          %1956 = vector.maskedload %view[%119, %117], %121, %cst : memref<1448x20xf16, #gpu.address_space<workgroup>>, vector<4xi1>, vector<4xf16> into vector<4xf16>
          %1957 = vector.maskedload %view[%119, %118], %121, %cst : memref<1448x20xf16, #gpu.address_space<workgroup>>, vector<4xi1>, vector<4xf16> into vector<4xf16>
          %1958 = vector.maskedload %view[%122, %117], %124, %cst : memref<1448x20xf16, #gpu.address_space<workgroup>>, vector<4xi1>, vector<4xf16> into vector<4xf16>
          %1959 = vector.maskedload %view[%122, %118], %124, %cst : memref<1448x20xf16, #gpu.address_space<workgroup>>, vector<4xi1>, vector<4xf16> into vector<4xf16>
          %1960 = vector.maskedload %view[%125, %117], %127, %cst : memref<1448x20xf16, #gpu.address_space<workgroup>>, vector<4xi1>, vector<4xf16> into vector<4xf16>
          %1961 = vector.maskedload %view[%125, %118], %127, %cst : memref<1448x20xf16, #gpu.address_space<workgroup>>, vector<4xi1>, vector<4xf16> into vector<4xf16>
          %1962 = vector.maskedload %view[%128, %117], %130, %cst : memref<1448x20xf16, #gpu.address_space<workgroup>>, vector<4xi1>, vector<4xf16> into vector<4xf16>
          %1963 = vector.maskedload %view[%128, %118], %130, %cst : memref<1448x20xf16, #gpu.address_space<workgroup>>, vector<4xi1>, vector<4xf16> into vector<4xf16>
          %1964 = vector.maskedload %view[%131, %117], %133, %cst : memref<1448x20xf16, #gpu.address_space<workgroup>>, vector<4xi1>, vector<4xf16> into vector<4xf16>
          %1965 = vector.maskedload %view[%131, %118], %133, %cst : memref<1448x20xf16, #gpu.address_space<workgroup>>, vector<4xi1>, vector<4xf16> into vector<4xf16>
          %1966 = vector.maskedload %view[%134, %117], %136, %cst : memref<1448x20xf16, #gpu.address_space<workgroup>>, vector<4xi1>, vector<4xf16> into vector<4xf16>
          %1967 = vector.maskedload %view[%134, %118], %136, %cst : memref<1448x20xf16, #gpu.address_space<workgroup>>, vector<4xi1>, vector<4xf16> into vector<4xf16>
          %1968 = vector.maskedload %view[%137, %117], %139, %cst : memref<1448x20xf16, #gpu.address_space<workgroup>>, vector<4xi1>, vector<4xf16> into vector<4xf16>
          %1969 = vector.maskedload %view[%137, %118], %139, %cst : memref<1448x20xf16, #gpu.address_space<workgroup>>, vector<4xi1>, vector<4xf16> into vector<4xf16>
          %1970 = vector.maskedload %view[%140, %117], %142, %cst : memref<1448x20xf16, #gpu.address_space<workgroup>>, vector<4xi1>, vector<4xf16> into vector<4xf16>
          %1971 = vector.maskedload %view[%140, %118], %142, %cst : memref<1448x20xf16, #gpu.address_space<workgroup>>, vector<4xi1>, vector<4xf16> into vector<4xf16>
          %1972 = vector.maskedload %view[%143, %117], %145, %cst : memref<1448x20xf16, #gpu.address_space<workgroup>>, vector<4xi1>, vector<4xf16> into vector<4xf16>
          %1973 = vector.maskedload %view[%143, %118], %145, %cst : memref<1448x20xf16, #gpu.address_space<workgroup>>, vector<4xi1>, vector<4xf16> into vector<4xf16>
          %1974 = vector.maskedload %view[%146, %117], %148, %cst : memref<1448x20xf16, #gpu.address_space<workgroup>>, vector<4xi1>, vector<4xf16> into vector<4xf16>
          %1975 = vector.maskedload %view[%146, %118], %148, %cst : memref<1448x20xf16, #gpu.address_space<workgroup>>, vector<4xi1>, vector<4xf16> into vector<4xf16>
          %1976 = vector.maskedload %view[%149, %117], %151, %cst : memref<1448x20xf16, #gpu.address_space<workgroup>>, vector<4xi1>, vector<4xf16> into vector<4xf16>
          %1977 = vector.maskedload %view[%149, %118], %151, %cst : memref<1448x20xf16, #gpu.address_space<workgroup>>, vector<4xi1>, vector<4xf16> into vector<4xf16>
          %1978 = vector.maskedload %view[%152, %117], %154, %cst : memref<1448x20xf16, #gpu.address_space<workgroup>>, vector<4xi1>, vector<4xf16> into vector<4xf16>
          %1979 = vector.maskedload %view[%152, %118], %154, %cst : memref<1448x20xf16, #gpu.address_space<workgroup>>, vector<4xi1>, vector<4xf16> into vector<4xf16>
          %1980 = vector.maskedload %view[%155, %117], %157, %cst : memref<1448x20xf16, #gpu.address_space<workgroup>>, vector<4xi1>, vector<4xf16> into vector<4xf16>
          %1981 = vector.maskedload %view[%155, %118], %157, %cst : memref<1448x20xf16, #gpu.address_space<workgroup>>, vector<4xi1>, vector<4xf16> into vector<4xf16>
          %1982 = vector.maskedload %view[%158, %117], %160, %cst : memref<1448x20xf16, #gpu.address_space<workgroup>>, vector<4xi1>, vector<4xf16> into vector<4xf16>
          %1983 = vector.maskedload %view[%158, %118], %160, %cst : memref<1448x20xf16, #gpu.address_space<workgroup>>, vector<4xi1>, vector<4xf16> into vector<4xf16>
          %1984 = vector.maskedload %view[%161, %117], %163, %cst : memref<1448x20xf16, #gpu.address_space<workgroup>>, vector<4xi1>, vector<4xf16> into vector<4xf16>
          %1985 = vector.maskedload %view[%161, %118], %163, %cst : memref<1448x20xf16, #gpu.address_space<workgroup>>, vector<4xi1>, vector<4xf16> into vector<4xf16>
          %1986 = vector.maskedload %view[%164, %117], %166, %cst : memref<1448x20xf16, #gpu.address_space<workgroup>>, vector<4xi1>, vector<4xf16> into vector<4xf16>
          %1987 = vector.maskedload %view[%164, %118], %166, %cst : memref<1448x20xf16, #gpu.address_space<workgroup>>, vector<4xi1>, vector<4xf16> into vector<4xf16>
          %1988 = vector.maskedload %view[%167, %117], %169, %cst : memref<1448x20xf16, #gpu.address_space<workgroup>>, vector<4xi1>, vector<4xf16> into vector<4xf16>
          %1989 = vector.maskedload %view[%167, %118], %169, %cst : memref<1448x20xf16, #gpu.address_space<workgroup>>, vector<4xi1>, vector<4xf16> into vector<4xf16>
          %1990 = vector.maskedload %view[%170, %117], %172, %cst : memref<1448x20xf16, #gpu.address_space<workgroup>>, vector<4xi1>, vector<4xf16> into vector<4xf16>
          %1991 = vector.maskedload %view[%170, %118], %172, %cst : memref<1448x20xf16, #gpu.address_space<workgroup>>, vector<4xi1>, vector<4xf16> into vector<4xf16>
          %1992 = vector.maskedload %view[%173, %117], %175, %cst : memref<1448x20xf16, #gpu.address_space<workgroup>>, vector<4xi1>, vector<4xf16> into vector<4xf16>
          %1993 = vector.maskedload %view[%173, %118], %175, %cst : memref<1448x20xf16, #gpu.address_space<workgroup>>, vector<4xi1>, vector<4xf16> into vector<4xf16>
          %1994 = vector.maskedload %view[%176, %117], %178, %cst : memref<1448x20xf16, #gpu.address_space<workgroup>>, vector<4xi1>, vector<4xf16> into vector<4xf16>
          %1995 = vector.maskedload %view[%176, %118], %178, %cst : memref<1448x20xf16, #gpu.address_space<workgroup>>, vector<4xi1>, vector<4xf16> into vector<4xf16>
          %1996 = vector.maskedload %view[%179, %117], %181, %cst : memref<1448x20xf16, #gpu.address_space<workgroup>>, vector<4xi1>, vector<4xf16> into vector<4xf16>
          %1997 = vector.maskedload %view[%179, %118], %181, %cst : memref<1448x20xf16, #gpu.address_space<workgroup>>, vector<4xi1>, vector<4xf16> into vector<4xf16>
          %1998 = vector.maskedload %view[%182, %117], %184, %cst : memref<1448x20xf16, #gpu.address_space<workgroup>>, vector<4xi1>, vector<4xf16> into vector<4xf16>
          %1999 = vector.maskedload %view[%182, %118], %184, %cst : memref<1448x20xf16, #gpu.address_space<workgroup>>, vector<4xi1>, vector<4xf16> into vector<4xf16>
          %2000 = vector.maskedload %view_3[%185, %117], %187, %cst : memref<16x20xf16, #gpu.address_space<workgroup>>, vector<4xi1>, vector<4xf16> into vector<4xf16>
          %2001 = vector.maskedload %view_3[%185, %118], %187, %cst : memref<16x20xf16, #gpu.address_space<workgroup>>, vector<4xi1>, vector<4xf16> into vector<4xf16>
          %2002 = affine.apply #map46()[%thread_id_x, %arg3]
          %2003 = arith.addi %9, %2002 overflow<nsw> : index
          %2004 = arith.select %7, %2003, %c1073741823 : index
          %2005 = vector.load %11[%2004] : memref<?xf16, #amdgpu.address_space<fat_raw_buffer>>, vector<1xf16>
          %2006 = affine.apply #map47()[%arg3, %thread_id_x]
          %2007 = arith.addi %19, %2006 overflow<nsw> : index
          %2008 = arith.index_cast %2007 : index to i32
          %2009 = vector.broadcast %2008 : i32 to vector<8xi32>
          %2010 = arith.addi %2009, %cst_0 : vector<8xi32>
          %2011 = arith.index_cast %2010 : vector<8xi32> to vector<8xindex>
          %2012 = arith.select %17, %2011, %cst_1 : vector<8xi1>, vector<8xindex>
          %2013 = vector.extract %2012[0] : index from vector<8xindex>
          %2014 = vector.load %21[%2013] : memref<?xf16, #amdgpu.address_space<fat_raw_buffer>>, vector<8xf16>
          %2015 = arith.addi %32, %2006 overflow<nsw> : index
          %2016 = arith.index_cast %2015 : index to i32
          %2017 = vector.broadcast %2016 : i32 to vector<8xi32>
          %2018 = arith.addi %2017, %cst_0 : vector<8xi32>
          %2019 = arith.index_cast %2018 : vector<8xi32> to vector<8xindex>
          %2020 = arith.select %31, %2019, %cst_1 : vector<8xi1>, vector<8xindex>
          %2021 = vector.extract %2020[0] : index from vector<8xindex>
          %2022 = vector.load %21[%2021] : memref<?xf16, #amdgpu.address_space<fat_raw_buffer>>, vector<8xf16>
          %2023 = arith.addi %44, %2006 overflow<nsw> : index
          %2024 = arith.index_cast %2023 : index to i32
          %2025 = vector.broadcast %2024 : i32 to vector<8xi32>
          %2026 = arith.addi %2025, %cst_0 : vector<8xi32>
          %2027 = arith.index_cast %2026 : vector<8xi32> to vector<8xindex>
          %2028 = arith.select %43, %2027, %cst_1 : vector<8xi1>, vector<8xindex>
          %2029 = vector.extract %2028[0] : index from vector<8xindex>
          %2030 = vector.load %21[%2029] : memref<?xf16, #amdgpu.address_space<fat_raw_buffer>>, vector<8xf16>
          %2031 = arith.addi %56, %2006 overflow<nsw> : index
          %2032 = arith.index_cast %2031 : index to i32
          %2033 = vector.broadcast %2032 : i32 to vector<8xi32>
          %2034 = arith.addi %2033, %cst_0 : vector<8xi32>
          %2035 = arith.index_cast %2034 : vector<8xi32> to vector<8xindex>
          %2036 = arith.select %55, %2035, %cst_1 : vector<8xi1>, vector<8xindex>
          %2037 = vector.extract %2036[0] : index from vector<8xindex>
          %2038 = vector.load %21[%2037] : memref<?xf16, #amdgpu.address_space<fat_raw_buffer>>, vector<8xf16>
          %2039 = arith.addi %68, %2006 overflow<nsw> : index
          %2040 = arith.index_cast %2039 : index to i32
          %2041 = vector.broadcast %2040 : i32 to vector<8xi32>
          %2042 = arith.addi %2041, %cst_0 : vector<8xi32>
          %2043 = arith.index_cast %2042 : vector<8xi32> to vector<8xindex>
          %2044 = arith.select %67, %2043, %cst_1 : vector<8xi1>, vector<8xindex>
          %2045 = vector.extract %2044[0] : index from vector<8xindex>
          %2046 = vector.load %21[%2045] : memref<?xf16, #amdgpu.address_space<fat_raw_buffer>>, vector<8xf16>
          %2047 = arith.addi %80, %2006 overflow<nsw> : index
          %2048 = arith.index_cast %2047 : index to i32
          %2049 = vector.broadcast %2048 : i32 to vector<8xi32>
          %2050 = arith.addi %2049, %cst_0 : vector<8xi32>
          %2051 = arith.index_cast %2050 : vector<8xi32> to vector<8xindex>
          %2052 = arith.select %79, %2051, %cst_1 : vector<8xi1>, vector<8xindex>
          %2053 = vector.extract %2052[0] : index from vector<8xindex>
          %2054 = vector.load %21[%2053] : memref<?xf16, #amdgpu.address_space<fat_raw_buffer>>, vector<8xf16>
          %2055 = amdgpu.mfma %2000 * %1954 + %arg4 {blocks = 1 : i32, k = 8 : i32, m = 32 : i32, n = 32 : i32} blgp =  none : vector<4xf16>, vector<4xf16>, vector<16xf32>
          %2056 = amdgpu.mfma %2001 * %1955 + %2055 {blocks = 1 : i32, k = 8 : i32, m = 32 : i32, n = 32 : i32} blgp =  none : vector<4xf16>, vector<4xf16>, vector<16xf32>
          %2057 = amdgpu.mfma %2000 * %1956 + %arg5 {blocks = 1 : i32, k = 8 : i32, m = 32 : i32, n = 32 : i32} blgp =  none : vector<4xf16>, vector<4xf16>, vector<16xf32>
          %2058 = amdgpu.mfma %2001 * %1957 + %2057 {blocks = 1 : i32, k = 8 : i32, m = 32 : i32, n = 32 : i32} blgp =  none : vector<4xf16>, vector<4xf16>, vector<16xf32>
          %2059 = amdgpu.mfma %2000 * %1958 + %arg6 {blocks = 1 : i32, k = 8 : i32, m = 32 : i32, n = 32 : i32} blgp =  none : vector<4xf16>, vector<4xf16>, vector<16xf32>
          %2060 = amdgpu.mfma %2001 * %1959 + %2059 {blocks = 1 : i32, k = 8 : i32, m = 32 : i32, n = 32 : i32} blgp =  none : vector<4xf16>, vector<4xf16>, vector<16xf32>
          %2061 = amdgpu.mfma %2000 * %1960 + %arg7 {blocks = 1 : i32, k = 8 : i32, m = 32 : i32, n = 32 : i32} blgp =  none : vector<4xf16>, vector<4xf16>, vector<16xf32>
          %2062 = amdgpu.mfma %2001 * %1961 + %2061 {blocks = 1 : i32, k = 8 : i32, m = 32 : i32, n = 32 : i32} blgp =  none : vector<4xf16>, vector<4xf16>, vector<16xf32>
          %2063 = amdgpu.mfma %2000 * %1962 + %arg8 {blocks = 1 : i32, k = 8 : i32, m = 32 : i32, n = 32 : i32} blgp =  none : vector<4xf16>, vector<4xf16>, vector<16xf32>
          %2064 = amdgpu.mfma %2001 * %1963 + %2063 {blocks = 1 : i32, k = 8 : i32, m = 32 : i32, n = 32 : i32} blgp =  none : vector<4xf16>, vector<4xf16>, vector<16xf32>
          %2065 = amdgpu.mfma %2000 * %1964 + %arg9 {blocks = 1 : i32, k = 8 : i32, m = 32 : i32, n = 32 : i32} blgp =  none : vector<4xf16>, vector<4xf16>, vector<16xf32>
          %2066 = amdgpu.mfma %2001 * %1965 + %2065 {blocks = 1 : i32, k = 8 : i32, m = 32 : i32, n = 32 : i32} blgp =  none : vector<4xf16>, vector<4xf16>, vector<16xf32>
          %2067 = amdgpu.mfma %2000 * %1966 + %arg10 {blocks = 1 : i32, k = 8 : i32, m = 32 : i32, n = 32 : i32} blgp =  none : vector<4xf16>, vector<4xf16>, vector<16xf32>
          %2068 = amdgpu.mfma %2001 * %1967 + %2067 {blocks = 1 : i32, k = 8 : i32, m = 32 : i32, n = 32 : i32} blgp =  none : vector<4xf16>, vector<4xf16>, vector<16xf32>
          %2069 = amdgpu.mfma %2000 * %1968 + %arg11 {blocks = 1 : i32, k = 8 : i32, m = 32 : i32, n = 32 : i32} blgp =  none : vector<4xf16>, vector<4xf16>, vector<16xf32>
          %2070 = amdgpu.mfma %2001 * %1969 + %2069 {blocks = 1 : i32, k = 8 : i32, m = 32 : i32, n = 32 : i32} blgp =  none : vector<4xf16>, vector<4xf16>, vector<16xf32>
          %2071 = amdgpu.mfma %2000 * %1970 + %arg12 {blocks = 1 : i32, k = 8 : i32, m = 32 : i32, n = 32 : i32} blgp =  none : vector<4xf16>, vector<4xf16>, vector<16xf32>
          %2072 = amdgpu.mfma %2001 * %1971 + %2071 {blocks = 1 : i32, k = 8 : i32, m = 32 : i32, n = 32 : i32} blgp =  none : vector<4xf16>, vector<4xf16>, vector<16xf32>
          %2073 = amdgpu.mfma %2000 * %1972 + %arg13 {blocks = 1 : i32, k = 8 : i32, m = 32 : i32, n = 32 : i32} blgp =  none : vector<4xf16>, vector<4xf16>, vector<16xf32>
          %2074 = amdgpu.mfma %2001 * %1973 + %2073 {blocks = 1 : i32, k = 8 : i32, m = 32 : i32, n = 32 : i32} blgp =  none : vector<4xf16>, vector<4xf16>, vector<16xf32>
          %2075 = amdgpu.mfma %2000 * %1974 + %arg14 {blocks = 1 : i32, k = 8 : i32, m = 32 : i32, n = 32 : i32} blgp =  none : vector<4xf16>, vector<4xf16>, vector<16xf32>
          %2076 = amdgpu.mfma %2001 * %1975 + %2075 {blocks = 1 : i32, k = 8 : i32, m = 32 : i32, n = 32 : i32} blgp =  none : vector<4xf16>, vector<4xf16>, vector<16xf32>
          %2077 = amdgpu.mfma %2000 * %1976 + %arg15 {blocks = 1 : i32, k = 8 : i32, m = 32 : i32, n = 32 : i32} blgp =  none : vector<4xf16>, vector<4xf16>, vector<16xf32>
          %2078 = amdgpu.mfma %2001 * %1977 + %2077 {blocks = 1 : i32, k = 8 : i32, m = 32 : i32, n = 32 : i32} blgp =  none : vector<4xf16>, vector<4xf16>, vector<16xf32>
          %2079 = amdgpu.mfma %2000 * %1978 + %arg16 {blocks = 1 : i32, k = 8 : i32, m = 32 : i32, n = 32 : i32} blgp =  none : vector<4xf16>, vector<4xf16>, vector<16xf32>
          %2080 = amdgpu.mfma %2001 * %1979 + %2079 {blocks = 1 : i32, k = 8 : i32, m = 32 : i32, n = 32 : i32} blgp =  none : vector<4xf16>, vector<4xf16>, vector<16xf32>
          %2081 = amdgpu.mfma %2000 * %1980 + %arg17 {blocks = 1 : i32, k = 8 : i32, m = 32 : i32, n = 32 : i32} blgp =  none : vector<4xf16>, vector<4xf16>, vector<16xf32>
          %2082 = amdgpu.mfma %2001 * %1981 + %2081 {blocks = 1 : i32, k = 8 : i32, m = 32 : i32, n = 32 : i32} blgp =  none : vector<4xf16>, vector<4xf16>, vector<16xf32>
          %2083 = amdgpu.mfma %2000 * %1982 + %arg18 {blocks = 1 : i32, k = 8 : i32, m = 32 : i32, n = 32 : i32} blgp =  none : vector<4xf16>, vector<4xf16>, vector<16xf32>
          %2084 = amdgpu.mfma %2001 * %1983 + %2083 {blocks = 1 : i32, k = 8 : i32, m = 32 : i32, n = 32 : i32} blgp =  none : vector<4xf16>, vector<4xf16>, vector<16xf32>
          %2085 = amdgpu.mfma %2000 * %1984 + %arg19 {blocks = 1 : i32, k = 8 : i32, m = 32 : i32, n = 32 : i32} blgp =  none : vector<4xf16>, vector<4xf16>, vector<16xf32>
          %2086 = amdgpu.mfma %2001 * %1985 + %2085 {blocks = 1 : i32, k = 8 : i32, m = 32 : i32, n = 32 : i32} blgp =  none : vector<4xf16>, vector<4xf16>, vector<16xf32>
          %2087 = amdgpu.mfma %2000 * %1986 + %arg20 {blocks = 1 : i32, k = 8 : i32, m = 32 : i32, n = 32 : i32} blgp =  none : vector<4xf16>, vector<4xf16>, vector<16xf32>
          %2088 = amdgpu.mfma %2001 * %1987 + %2087 {blocks = 1 : i32, k = 8 : i32, m = 32 : i32, n = 32 : i32} blgp =  none : vector<4xf16>, vector<4xf16>, vector<16xf32>
          %2089 = amdgpu.mfma %2000 * %1988 + %arg21 {blocks = 1 : i32, k = 8 : i32, m = 32 : i32, n = 32 : i32} blgp =  none : vector<4xf16>, vector<4xf16>, vector<16xf32>
          %2090 = amdgpu.mfma %2001 * %1989 + %2089 {blocks = 1 : i32, k = 8 : i32, m = 32 : i32, n = 32 : i32} blgp =  none : vector<4xf16>, vector<4xf16>, vector<16xf32>
          %2091 = amdgpu.mfma %2000 * %1990 + %arg22 {blocks = 1 : i32, k = 8 : i32, m = 32 : i32, n = 32 : i32} blgp =  none : vector<4xf16>, vector<4xf16>, vector<16xf32>
          %2092 = amdgpu.mfma %2001 * %1991 + %2091 {blocks = 1 : i32, k = 8 : i32, m = 32 : i32, n = 32 : i32} blgp =  none : vector<4xf16>, vector<4xf16>, vector<16xf32>
          %2093 = amdgpu.mfma %2000 * %1992 + %arg23 {blocks = 1 : i32, k = 8 : i32, m = 32 : i32, n = 32 : i32} blgp =  none : vector<4xf16>, vector<4xf16>, vector<16xf32>
          %2094 = amdgpu.mfma %2001 * %1993 + %2093 {blocks = 1 : i32, k = 8 : i32, m = 32 : i32, n = 32 : i32} blgp =  none : vector<4xf16>, vector<4xf16>, vector<16xf32>
          %2095 = amdgpu.mfma %2000 * %1994 + %arg24 {blocks = 1 : i32, k = 8 : i32, m = 32 : i32, n = 32 : i32} blgp =  none : vector<4xf16>, vector<4xf16>, vector<16xf32>
          %2096 = amdgpu.mfma %2001 * %1995 + %2095 {blocks = 1 : i32, k = 8 : i32, m = 32 : i32, n = 32 : i32} blgp =  none : vector<4xf16>, vector<4xf16>, vector<16xf32>
          %2097 = amdgpu.mfma %2000 * %1996 + %arg25 {blocks = 1 : i32, k = 8 : i32, m = 32 : i32, n = 32 : i32} blgp =  none : vector<4xf16>, vector<4xf16>, vector<16xf32>
          %2098 = amdgpu.mfma %2001 * %1997 + %2097 {blocks = 1 : i32, k = 8 : i32, m = 32 : i32, n = 32 : i32} blgp =  none : vector<4xf16>, vector<4xf16>, vector<16xf32>
          %2099 = amdgpu.mfma %2000 * %1998 + %arg26 {blocks = 1 : i32, k = 8 : i32, m = 32 : i32, n = 32 : i32} blgp =  none : vector<4xf16>, vector<4xf16>, vector<16xf32>
          %2100 = amdgpu.mfma %2001 * %1999 + %2099 {blocks = 1 : i32, k = 8 : i32, m = 32 : i32, n = 32 : i32} blgp =  none : vector<4xf16>, vector<4xf16>, vector<16xf32>
          amdgpu.lds_barrier
          vector.maskedstore %view_3[%91, %8], %93, %2005 : memref<16x20xf16, #gpu.address_space<workgroup>>, vector<1xi1>, vector<1xf16>
          vector.maskedstore %view[%96, %18], %98, %2014 : memref<1448x20xf16, #gpu.address_space<workgroup>>, vector<8xi1>, vector<8xf16>
          vector.maskedstore %view[%99, %18], %101, %2022 : memref<1448x20xf16, #gpu.address_space<workgroup>>, vector<8xi1>, vector<8xf16>
          vector.maskedstore %view[%102, %18], %104, %2030 : memref<1448x20xf16, #gpu.address_space<workgroup>>, vector<8xi1>, vector<8xf16>
          vector.maskedstore %view[%105, %18], %107, %2038 : memref<1448x20xf16, #gpu.address_space<workgroup>>, vector<8xi1>, vector<8xf16>
          vector.maskedstore %view[%108, %18], %110, %2046 : memref<1448x20xf16, #gpu.address_space<workgroup>>, vector<8xi1>, vector<8xf16>
          vector.maskedstore %view[%111, %18], %113, %2054 : memref<1448x20xf16, #gpu.address_space<workgroup>>, vector<8xi1>, vector<8xf16>
          scf.yield %2056, %2058, %2060, %2062, %2064, %2066, %2068, %2070, %2072, %2074, %2076, %2078, %2080, %2082, %2084, %2086, %2088, %2090, %2092, %2094, %2096, %2098, %2100 : vector<16xf32>, vector<16xf32>, vector<16xf32>, vector<16xf32>, vector<16xf32>, vector<16xf32>, vector<16xf32>, vector<16xf32>, vector<16xf32>, vector<16xf32>, vector<16xf32>, vector<16xf32>, vector<16xf32>, vector<16xf32>, vector<16xf32>, vector<16xf32>, vector<16xf32>, vector<16xf32>, vector<16xf32>, vector<16xf32>, vector<16xf32>, vector<16xf32>, vector<16xf32>
        }
        amdgpu.lds_barrier
        %189 = affine.apply #map20()[%thread_id_x, %thread_id_y]
        %190 = arith.cmpi slt, %189, %95 : index
        %191 = vector.broadcast %190 : i1 to vector<4xi1>
        %192 = affine.apply #map21()[%thread_id_x]
        %193 = vector.maskedload %view[%189, %192], %191, %cst : memref<1448x20xf16, #gpu.address_space<workgroup>>, vector<4xi1>, vector<4xf16> into vector<4xf16>
        %194 = affine.apply #map22()[%thread_id_x]
        %195 = vector.maskedload %view[%189, %194], %191, %cst : memref<1448x20xf16, #gpu.address_space<workgroup>>, vector<4xi1>, vector<4xf16> into vector<4xf16>
        %196 = affine.apply #map23()[%thread_id_x, %thread_id_y]
        %197 = arith.cmpi slt, %196, %95 : index
        %198 = vector.broadcast %197 : i1 to vector<4xi1>
        %199 = vector.maskedload %view[%196, %192], %198, %cst : memref<1448x20xf16, #gpu.address_space<workgroup>>, vector<4xi1>, vector<4xf16> into vector<4xf16>
        %200 = vector.maskedload %view[%196, %194], %198, %cst : memref<1448x20xf16, #gpu.address_space<workgroup>>, vector<4xi1>, vector<4xf16> into vector<4xf16>
        %201 = affine.apply #map24()[%thread_id_x, %thread_id_y]
        %202 = arith.cmpi slt, %201, %95 : index
        %203 = vector.broadcast %202 : i1 to vector<4xi1>
        %204 = vector.maskedload %view[%201, %192], %203, %cst : memref<1448x20xf16, #gpu.address_space<workgroup>>, vector<4xi1>, vector<4xf16> into vector<4xf16>
        %205 = vector.maskedload %view[%201, %194], %203, %cst : memref<1448x20xf16, #gpu.address_space<workgroup>>, vector<4xi1>, vector<4xf16> into vector<4xf16>
        %206 = affine.apply #map25()[%thread_id_x, %thread_id_y]
        %207 = arith.cmpi slt, %206, %95 : index
        %208 = vector.broadcast %207 : i1 to vector<4xi1>
        %209 = vector.maskedload %view[%206, %192], %208, %cst : memref<1448x20xf16, #gpu.address_space<workgroup>>, vector<4xi1>, vector<4xf16> into vector<4xf16>
        %210 = vector.maskedload %view[%206, %194], %208, %cst : memref<1448x20xf16, #gpu.address_space<workgroup>>, vector<4xi1>, vector<4xf16> into vector<4xf16>
        %211 = affine.apply #map26()[%thread_id_x, %thread_id_y]
        %212 = arith.cmpi slt, %211, %95 : index
        %213 = vector.broadcast %212 : i1 to vector<4xi1>
        %214 = vector.maskedload %view[%211, %192], %213, %cst : memref<1448x20xf16, #gpu.address_space<workgroup>>, vector<4xi1>, vector<4xf16> into vector<4xf16>
        %215 = vector.maskedload %view[%211, %194], %213, %cst : memref<1448x20xf16, #gpu.address_space<workgroup>>, vector<4xi1>, vector<4xf16> into vector<4xf16>
        %216 = affine.apply #map27()[%thread_id_x, %thread_id_y]
        %217 = arith.cmpi slt, %216, %95 : index
        %218 = vector.broadcast %217 : i1 to vector<4xi1>
        %219 = vector.maskedload %view[%216, %192], %218, %cst : memref<1448x20xf16, #gpu.address_space<workgroup>>, vector<4xi1>, vector<4xf16> into vector<4xf16>
        %220 = vector.maskedload %view[%216, %194], %218, %cst : memref<1448x20xf16, #gpu.address_space<workgroup>>, vector<4xi1>, vector<4xf16> into vector<4xf16>
        %221 = affine.apply #map28()[%thread_id_x, %thread_id_y]
        %222 = arith.cmpi slt, %221, %95 : index
        %223 = vector.broadcast %222 : i1 to vector<4xi1>
        %224 = vector.maskedload %view[%221, %192], %223, %cst : memref<1448x20xf16, #gpu.address_space<workgroup>>, vector<4xi1>, vector<4xf16> into vector<4xf16>
        %225 = vector.maskedload %view[%221, %194], %223, %cst : memref<1448x20xf16, #gpu.address_space<workgroup>>, vector<4xi1>, vector<4xf16> into vector<4xf16>
        %226 = affine.apply #map29()[%thread_id_x, %thread_id_y]
        %227 = arith.cmpi slt, %226, %95 : index
        %228 = vector.broadcast %227 : i1 to vector<4xi1>
        %229 = vector.maskedload %view[%226, %192], %228, %cst : memref<1448x20xf16, #gpu.address_space<workgroup>>, vector<4xi1>, vector<4xf16> into vector<4xf16>
        %230 = vector.maskedload %view[%226, %194], %228, %cst : memref<1448x20xf16, #gpu.address_space<workgroup>>, vector<4xi1>, vector<4xf16> into vector<4xf16>
        %231 = affine.apply #map30()[%thread_id_x, %thread_id_y]
        %232 = arith.cmpi slt, %231, %95 : index
        %233 = vector.broadcast %232 : i1 to vector<4xi1>
        %234 = vector.maskedload %view[%231, %192], %233, %cst : memref<1448x20xf16, #gpu.address_space<workgroup>>, vector<4xi1>, vector<4xf16> into vector<4xf16>
        %235 = vector.maskedload %view[%231, %194], %233, %cst : memref<1448x20xf16, #gpu.address_space<workgroup>>, vector<4xi1>, vector<4xf16> into vector<4xf16>
        %236 = affine.apply #map31()[%thread_id_x, %thread_id_y]
        %237 = arith.cmpi slt, %236, %95 : index
        %238 = vector.broadcast %237 : i1 to vector<4xi1>
        %239 = vector.maskedload %view[%236, %192], %238, %cst : memref<1448x20xf16, #gpu.address_space<workgroup>>, vector<4xi1>, vector<4xf16> into vector<4xf16>
        %240 = vector.maskedload %view[%236, %194], %238, %cst : memref<1448x20xf16, #gpu.address_space<workgroup>>, vector<4xi1>, vector<4xf16> into vector<4xf16>
        %241 = affine.apply #map32()[%thread_id_x, %thread_id_y]
        %242 = arith.cmpi slt, %241, %95 : index
        %243 = vector.broadcast %242 : i1 to vector<4xi1>
        %244 = vector.maskedload %view[%241, %192], %243, %cst : memref<1448x20xf16, #gpu.address_space<workgroup>>, vector<4xi1>, vector<4xf16> into vector<4xf16>
        %245 = vector.maskedload %view[%241, %194], %243, %cst : memref<1448x20xf16, #gpu.address_space<workgroup>>, vector<4xi1>, vector<4xf16> into vector<4xf16>
        %246 = affine.apply #map33()[%thread_id_x, %thread_id_y]
        %247 = arith.cmpi slt, %246, %95 : index
        %248 = vector.broadcast %247 : i1 to vector<4xi1>
        %249 = vector.maskedload %view[%246, %192], %248, %cst : memref<1448x20xf16, #gpu.address_space<workgroup>>, vector<4xi1>, vector<4xf16> into vector<4xf16>
        %250 = vector.maskedload %view[%246, %194], %248, %cst : memref<1448x20xf16, #gpu.address_space<workgroup>>, vector<4xi1>, vector<4xf16> into vector<4xf16>
        %251 = affine.apply #map34()[%thread_id_x, %thread_id_y]
        %252 = arith.cmpi slt, %251, %95 : index
        %253 = vector.broadcast %252 : i1 to vector<4xi1>
        %254 = vector.maskedload %view[%251, %192], %253, %cst : memref<1448x20xf16, #gpu.address_space<workgroup>>, vector<4xi1>, vector<4xf16> into vector<4xf16>
        %255 = vector.maskedload %view[%251, %194], %253, %cst : memref<1448x20xf16, #gpu.address_space<workgroup>>, vector<4xi1>, vector<4xf16> into vector<4xf16>
        %256 = affine.apply #map35()[%thread_id_x, %thread_id_y]
        %257 = arith.cmpi slt, %256, %95 : index
        %258 = vector.broadcast %257 : i1 to vector<4xi1>
        %259 = vector.maskedload %view[%256, %192], %258, %cst : memref<1448x20xf16, #gpu.address_space<workgroup>>, vector<4xi1>, vector<4xf16> into vector<4xf16>
        %260 = vector.maskedload %view[%256, %194], %258, %cst : memref<1448x20xf16, #gpu.address_space<workgroup>>, vector<4xi1>, vector<4xf16> into vector<4xf16>
        %261 = affine.apply #map36()[%thread_id_x, %thread_id_y]
        %262 = arith.cmpi slt, %261, %95 : index
        %263 = vector.broadcast %262 : i1 to vector<4xi1>
        %264 = vector.maskedload %view[%261, %192], %263, %cst : memref<1448x20xf16, #gpu.address_space<workgroup>>, vector<4xi1>, vector<4xf16> into vector<4xf16>
        %265 = vector.maskedload %view[%261, %194], %263, %cst : memref<1448x20xf16, #gpu.address_space<workgroup>>, vector<4xi1>, vector<4xf16> into vector<4xf16>
        %266 = affine.apply #map37()[%thread_id_x, %thread_id_y]
        %267 = arith.cmpi slt, %266, %95 : index
        %268 = vector.broadcast %267 : i1 to vector<4xi1>
        %269 = vector.maskedload %view[%266, %192], %268, %cst : memref<1448x20xf16, #gpu.address_space<workgroup>>, vector<4xi1>, vector<4xf16> into vector<4xf16>
        %270 = vector.maskedload %view[%266, %194], %268, %cst : memref<1448x20xf16, #gpu.address_space<workgroup>>, vector<4xi1>, vector<4xf16> into vector<4xf16>
        %271 = affine.apply #map38()[%thread_id_x, %thread_id_y]
        %272 = arith.cmpi slt, %271, %95 : index
        %273 = vector.broadcast %272 : i1 to vector<4xi1>
        %274 = vector.maskedload %view[%271, %192], %273, %cst : memref<1448x20xf16, #gpu.address_space<workgroup>>, vector<4xi1>, vector<4xf16> into vector<4xf16>
        %275 = vector.maskedload %view[%271, %194], %273, %cst : memref<1448x20xf16, #gpu.address_space<workgroup>>, vector<4xi1>, vector<4xf16> into vector<4xf16>
        %276 = affine.apply #map39()[%thread_id_x, %thread_id_y]
        %277 = arith.cmpi slt, %276, %95 : index
        %278 = vector.broadcast %277 : i1 to vector<4xi1>
        %279 = vector.maskedload %view[%276, %192], %278, %cst : memref<1448x20xf16, #gpu.address_space<workgroup>>, vector<4xi1>, vector<4xf16> into vector<4xf16>
        %280 = vector.maskedload %view[%276, %194], %278, %cst : memref<1448x20xf16, #gpu.address_space<workgroup>>, vector<4xi1>, vector<4xf16> into vector<4xf16>
        %281 = affine.apply #map40()[%thread_id_x, %thread_id_y]
        %282 = arith.cmpi slt, %281, %95 : index
        %283 = vector.broadcast %282 : i1 to vector<4xi1>
        %284 = vector.maskedload %view[%281, %192], %283, %cst : memref<1448x20xf16, #gpu.address_space<workgroup>>, vector<4xi1>, vector<4xf16> into vector<4xf16>
        %285 = vector.maskedload %view[%281, %194], %283, %cst : memref<1448x20xf16, #gpu.address_space<workgroup>>, vector<4xi1>, vector<4xf16> into vector<4xf16>
        %286 = affine.apply #map41()[%thread_id_x, %thread_id_y]
        %287 = arith.cmpi slt, %286, %95 : index
        %288 = vector.broadcast %287 : i1 to vector<4xi1>
        %289 = vector.maskedload %view[%286, %192], %288, %cst : memref<1448x20xf16, #gpu.address_space<workgroup>>, vector<4xi1>, vector<4xf16> into vector<4xf16>
        %290 = vector.maskedload %view[%286, %194], %288, %cst : memref<1448x20xf16, #gpu.address_space<workgroup>>, vector<4xi1>, vector<4xf16> into vector<4xf16>
        %291 = affine.apply #map42()[%thread_id_x, %thread_id_y]
        %292 = arith.cmpi slt, %291, %95 : index
        %293 = vector.broadcast %292 : i1 to vector<4xi1>
        %294 = vector.maskedload %view[%291, %192], %293, %cst : memref<1448x20xf16, #gpu.address_space<workgroup>>, vector<4xi1>, vector<4xf16> into vector<4xf16>
        %295 = vector.maskedload %view[%291, %194], %293, %cst : memref<1448x20xf16, #gpu.address_space<workgroup>>, vector<4xi1>, vector<4xf16> into vector<4xf16>
        %296 = affine.apply #map43()[%thread_id_x, %thread_id_y]
        %297 = arith.cmpi slt, %296, %95 : index
        %298 = vector.broadcast %297 : i1 to vector<4xi1>
        %299 = vector.maskedload %view[%296, %192], %298, %cst : memref<1448x20xf16, #gpu.address_space<workgroup>>, vector<4xi1>, vector<4xf16> into vector<4xf16>
        %300 = vector.maskedload %view[%296, %194], %298, %cst : memref<1448x20xf16, #gpu.address_space<workgroup>>, vector<4xi1>, vector<4xf16> into vector<4xf16>
        %301 = affine.apply #map44()[%thread_id_x, %thread_id_y]
        %302 = arith.cmpi slt, %301, %95 : index
        %303 = vector.broadcast %302 : i1 to vector<4xi1>
        %304 = vector.maskedload %view[%301, %192], %303, %cst : memref<1448x20xf16, #gpu.address_space<workgroup>>, vector<4xi1>, vector<4xf16> into vector<4xf16>
        %305 = vector.maskedload %view[%301, %194], %303, %cst : memref<1448x20xf16, #gpu.address_space<workgroup>>, vector<4xi1>, vector<4xf16> into vector<4xf16>
        %306 = affine.apply #map45()[%thread_id_x]
        %307 = arith.cmpi slt, %306, %90 : index
        %308 = vector.broadcast %307 : i1 to vector<4xi1>
        %309 = vector.maskedload %view_3[%306, %192], %308, %cst : memref<16x20xf16, #gpu.address_space<workgroup>>, vector<4xi1>, vector<4xf16> into vector<4xf16>
        %310 = vector.maskedload %view_3[%306, %194], %308, %cst : memref<16x20xf16, #gpu.address_space<workgroup>>, vector<4xi1>, vector<4xf16> into vector<4xf16>
        %311 = amdgpu.mfma %309 * %193 + %188#0 {blocks = 1 : i32, k = 8 : i32, m = 32 : i32, n = 32 : i32} blgp =  none : vector<4xf16>, vector<4xf16>, vector<16xf32>
        %312 = amdgpu.mfma %310 * %195 + %311 {blocks = 1 : i32, k = 8 : i32, m = 32 : i32, n = 32 : i32} blgp =  none : vector<4xf16>, vector<4xf16>, vector<16xf32>
        %313 = amdgpu.mfma %309 * %199 + %188#1 {blocks = 1 : i32, k = 8 : i32, m = 32 : i32, n = 32 : i32} blgp =  none : vector<4xf16>, vector<4xf16>, vector<16xf32>
        %314 = amdgpu.mfma %310 * %200 + %313 {blocks = 1 : i32, k = 8 : i32, m = 32 : i32, n = 32 : i32} blgp =  none : vector<4xf16>, vector<4xf16>, vector<16xf32>
        %315 = amdgpu.mfma %309 * %204 + %188#2 {blocks = 1 : i32, k = 8 : i32, m = 32 : i32, n = 32 : i32} blgp =  none : vector<4xf16>, vector<4xf16>, vector<16xf32>
        %316 = amdgpu.mfma %310 * %205 + %315 {blocks = 1 : i32, k = 8 : i32, m = 32 : i32, n = 32 : i32} blgp =  none : vector<4xf16>, vector<4xf16>, vector<16xf32>
        %317 = amdgpu.mfma %309 * %209 + %188#3 {blocks = 1 : i32, k = 8 : i32, m = 32 : i32, n = 32 : i32} blgp =  none : vector<4xf16>, vector<4xf16>, vector<16xf32>
        %318 = amdgpu.mfma %310 * %210 + %317 {blocks = 1 : i32, k = 8 : i32, m = 32 : i32, n = 32 : i32} blgp =  none : vector<4xf16>, vector<4xf16>, vector<16xf32>
        %319 = amdgpu.mfma %309 * %214 + %188#4 {blocks = 1 : i32, k = 8 : i32, m = 32 : i32, n = 32 : i32} blgp =  none : vector<4xf16>, vector<4xf16>, vector<16xf32>
        %320 = amdgpu.mfma %310 * %215 + %319 {blocks = 1 : i32, k = 8 : i32, m = 32 : i32, n = 32 : i32} blgp =  none : vector<4xf16>, vector<4xf16>, vector<16xf32>
        %321 = amdgpu.mfma %309 * %219 + %188#5 {blocks = 1 : i32, k = 8 : i32, m = 32 : i32, n = 32 : i32} blgp =  none : vector<4xf16>, vector<4xf16>, vector<16xf32>
        %322 = amdgpu.mfma %310 * %220 + %321 {blocks = 1 : i32, k = 8 : i32, m = 32 : i32, n = 32 : i32} blgp =  none : vector<4xf16>, vector<4xf16>, vector<16xf32>
        %323 = amdgpu.mfma %309 * %224 + %188#6 {blocks = 1 : i32, k = 8 : i32, m = 32 : i32, n = 32 : i32} blgp =  none : vector<4xf16>, vector<4xf16>, vector<16xf32>
        %324 = amdgpu.mfma %310 * %225 + %323 {blocks = 1 : i32, k = 8 : i32, m = 32 : i32, n = 32 : i32} blgp =  none : vector<4xf16>, vector<4xf16>, vector<16xf32>
        %325 = amdgpu.mfma %309 * %229 + %188#7 {blocks = 1 : i32, k = 8 : i32, m = 32 : i32, n = 32 : i32} blgp =  none : vector<4xf16>, vector<4xf16>, vector<16xf32>
        %326 = amdgpu.mfma %310 * %230 + %325 {blocks = 1 : i32, k = 8 : i32, m = 32 : i32, n = 32 : i32} blgp =  none : vector<4xf16>, vector<4xf16>, vector<16xf32>
        %327 = amdgpu.mfma %309 * %234 + %188#8 {blocks = 1 : i32, k = 8 : i32, m = 32 : i32, n = 32 : i32} blgp =  none : vector<4xf16>, vector<4xf16>, vector<16xf32>
        %328 = amdgpu.mfma %310 * %235 + %327 {blocks = 1 : i32, k = 8 : i32, m = 32 : i32, n = 32 : i32} blgp =  none : vector<4xf16>, vector<4xf16>, vector<16xf32>
        %329 = amdgpu.mfma %309 * %239 + %188#9 {blocks = 1 : i32, k = 8 : i32, m = 32 : i32, n = 32 : i32} blgp =  none : vector<4xf16>, vector<4xf16>, vector<16xf32>
        %330 = amdgpu.mfma %310 * %240 + %329 {blocks = 1 : i32, k = 8 : i32, m = 32 : i32, n = 32 : i32} blgp =  none : vector<4xf16>, vector<4xf16>, vector<16xf32>
        %331 = amdgpu.mfma %309 * %244 + %188#10 {blocks = 1 : i32, k = 8 : i32, m = 32 : i32, n = 32 : i32} blgp =  none : vector<4xf16>, vector<4xf16>, vector<16xf32>
        %332 = amdgpu.mfma %310 * %245 + %331 {blocks = 1 : i32, k = 8 : i32, m = 32 : i32, n = 32 : i32} blgp =  none : vector<4xf16>, vector<4xf16>, vector<16xf32>
        %333 = amdgpu.mfma %309 * %249 + %188#11 {blocks = 1 : i32, k = 8 : i32, m = 32 : i32, n = 32 : i32} blgp =  none : vector<4xf16>, vector<4xf16>, vector<16xf32>
        %334 = amdgpu.mfma %310 * %250 + %333 {blocks = 1 : i32, k = 8 : i32, m = 32 : i32, n = 32 : i32} blgp =  none : vector<4xf16>, vector<4xf16>, vector<16xf32>
        %335 = amdgpu.mfma %309 * %254 + %188#12 {blocks = 1 : i32, k = 8 : i32, m = 32 : i32, n = 32 : i32} blgp =  none : vector<4xf16>, vector<4xf16>, vector<16xf32>
        %336 = amdgpu.mfma %310 * %255 + %335 {blocks = 1 : i32, k = 8 : i32, m = 32 : i32, n = 32 : i32} blgp =  none : vector<4xf16>, vector<4xf16>, vector<16xf32>
        %337 = amdgpu.mfma %309 * %259 + %188#13 {blocks = 1 : i32, k = 8 : i32, m = 32 : i32, n = 32 : i32} blgp =  none : vector<4xf16>, vector<4xf16>, vector<16xf32>
        %338 = amdgpu.mfma %310 * %260 + %337 {blocks = 1 : i32, k = 8 : i32, m = 32 : i32, n = 32 : i32} blgp =  none : vector<4xf16>, vector<4xf16>, vector<16xf32>
        %339 = amdgpu.mfma %309 * %264 + %188#14 {blocks = 1 : i32, k = 8 : i32, m = 32 : i32, n = 32 : i32} blgp =  none : vector<4xf16>, vector<4xf16>, vector<16xf32>
        %340 = amdgpu.mfma %310 * %265 + %339 {blocks = 1 : i32, k = 8 : i32, m = 32 : i32, n = 32 : i32} blgp =  none : vector<4xf16>, vector<4xf16>, vector<16xf32>
        %341 = amdgpu.mfma %309 * %269 + %188#15 {blocks = 1 : i32, k = 8 : i32, m = 32 : i32, n = 32 : i32} blgp =  none : vector<4xf16>, vector<4xf16>, vector<16xf32>
        %342 = amdgpu.mfma %310 * %270 + %341 {blocks = 1 : i32, k = 8 : i32, m = 32 : i32, n = 32 : i32} blgp =  none : vector<4xf16>, vector<4xf16>, vector<16xf32>
        %343 = amdgpu.mfma %309 * %274 + %188#16 {blocks = 1 : i32, k = 8 : i32, m = 32 : i32, n = 32 : i32} blgp =  none : vector<4xf16>, vector<4xf16>, vector<16xf32>
        %344 = amdgpu.mfma %310 * %275 + %343 {blocks = 1 : i32, k = 8 : i32, m = 32 : i32, n = 32 : i32} blgp =  none : vector<4xf16>, vector<4xf16>, vector<16xf32>
        %345 = amdgpu.mfma %309 * %279 + %188#17 {blocks = 1 : i32, k = 8 : i32, m = 32 : i32, n = 32 : i32} blgp =  none : vector<4xf16>, vector<4xf16>, vector<16xf32>
        %346 = amdgpu.mfma %310 * %280 + %345 {blocks = 1 : i32, k = 8 : i32, m = 32 : i32, n = 32 : i32} blgp =  none : vector<4xf16>, vector<4xf16>, vector<16xf32>
        %347 = amdgpu.mfma %309 * %284 + %188#18 {blocks = 1 : i32, k = 8 : i32, m = 32 : i32, n = 32 : i32} blgp =  none : vector<4xf16>, vector<4xf16>, vector<16xf32>
        %348 = amdgpu.mfma %310 * %285 + %347 {blocks = 1 : i32, k = 8 : i32, m = 32 : i32, n = 32 : i32} blgp =  none : vector<4xf16>, vector<4xf16>, vector<16xf32>
        %349 = amdgpu.mfma %309 * %289 + %188#19 {blocks = 1 : i32, k = 8 : i32, m = 32 : i32, n = 32 : i32} blgp =  none : vector<4xf16>, vector<4xf16>, vector<16xf32>
        %350 = amdgpu.mfma %310 * %290 + %349 {blocks = 1 : i32, k = 8 : i32, m = 32 : i32, n = 32 : i32} blgp =  none : vector<4xf16>, vector<4xf16>, vector<16xf32>
        %351 = amdgpu.mfma %309 * %294 + %188#20 {blocks = 1 : i32, k = 8 : i32, m = 32 : i32, n = 32 : i32} blgp =  none : vector<4xf16>, vector<4xf16>, vector<16xf32>
        %352 = amdgpu.mfma %310 * %295 + %351 {blocks = 1 : i32, k = 8 : i32, m = 32 : i32, n = 32 : i32} blgp =  none : vector<4xf16>, vector<4xf16>, vector<16xf32>
        %353 = amdgpu.mfma %309 * %299 + %188#21 {blocks = 1 : i32, k = 8 : i32, m = 32 : i32, n = 32 : i32} blgp =  none : vector<4xf16>, vector<4xf16>, vector<16xf32>
        %354 = amdgpu.mfma %310 * %300 + %353 {blocks = 1 : i32, k = 8 : i32, m = 32 : i32, n = 32 : i32} blgp =  none : vector<4xf16>, vector<4xf16>, vector<16xf32>
        %355 = amdgpu.mfma %309 * %304 + %188#22 {blocks = 1 : i32, k = 8 : i32, m = 32 : i32, n = 32 : i32} blgp =  none : vector<4xf16>, vector<4xf16>, vector<16xf32>
        %356 = amdgpu.mfma %310 * %305 + %355 {blocks = 1 : i32, k = 8 : i32, m = 32 : i32, n = 32 : i32} blgp =  none : vector<4xf16>, vector<4xf16>, vector<16xf32>
        %357 = vector.extract_strided_slice %312 {offsets = [0], sizes = [1], strides = [1]} : vector<16xf32> to vector<1xf32>
        %358 = stream.binding.subspan %arg2[%c0] : !stream.binding -> memref<641x2880xf32, strided<[2880, 1], offset: ?>>
        %359 = affine.apply #map48()[%block_id_y, %thread_id_y]
        %360 = affine.apply #map49()[%block_id_y]
        %361 = arith.minsi %359, %360 : index
        %362 = arith.minsi %361, %c2880 : index
        %363 = affine.apply #map50()[%thread_id_x, %block_id_y, %block_id_x, %2, %5, %thread_id_y]
        %364 = arith.cmpi slt, %363, %362 : index
        %365 = affine.apply #map51()[%block_id_x, %thread_id_x]
        %366 = affine.apply #map52()[%block_id_x]
        %367 = arith.minsi %365, %366 : index
        %368 = arith.minsi %367, %c641 : index
        %369 = affine.apply #map53()[%block_id_y, %block_id_x, %2, %2, %5, %thread_id_x]
        %370 = arith.cmpi slt, %369, %368 : index
        %371 = arith.andi %364, %370 : i1
        %372 = affine.apply #map54()[%block_id_y, %block_id_x, %2, %2, %5]
        %373 = affine.apply #map55()[%block_id_y, %block_id_x, %2, %5]
        %374 = affine.apply #map56()[%thread_id_x]
        %375 = arith.muli %372, %c2880 overflow<nsw> : index
        %376 = arith.muli %374, %c2880 overflow<nsw> : index
        %377 = arith.addi %375, %373 overflow<nsw> : index
        %378 = arith.addi %376, %189 overflow<nsw> : index
        %base_buffer_9, %offset_10, %sizes_11:2, %strides_12:2 = memref.extract_strided_metadata %358 : memref<641x2880xf32, strided<[2880, 1], offset: ?>> -> memref<f32>, index, index, index, index, index
        %379 = arith.addi %377, %offset_10 overflow<nsw> : index
        %reinterpret_cast_13 = memref.reinterpret_cast %358 to offset: [%379], sizes: [%c536870910], strides: [1] : memref<641x2880xf32, strided<[2880, 1], offset: ?>> to memref<?xf32, strided<[1], offset: ?>>
        %380 = amdgpu.fat_raw_buffer_cast %reinterpret_cast_13 validBytes(%c2147483643_i32) cacheSwizzleStride(%c2880_i14) resetOffset : memref<?xf32, strided<[1], offset: ?>> to memref<?xf32, #amdgpu.address_space<fat_raw_buffer>>
        %381 = arith.select %371, %378, %c536870911 : index
        vector.store %357, %380[%381] : memref<?xf32, #amdgpu.address_space<fat_raw_buffer>>, vector<1xf32>
        %382 = vector.extract_strided_slice %312 {offsets = [1], sizes = [1], strides = [1]} : vector<16xf32> to vector<1xf32>
        %383 = affine.apply #map57()[%block_id_y, %block_id_x, %2, %2, %5, %thread_id_x]
        %384 = arith.cmpi slt, %383, %368 : index
        %385 = arith.andi %364, %384 : i1
        %386 = affine.apply #map58()[%thread_id_x]
        %387 = arith.muli %386, %c2880 overflow<nsw> : index
        %388 = arith.addi %387, %189 overflow<nsw> : index
        %389 = arith.select %385, %388, %c536870911 : index
        vector.store %382, %380[%389] : memref<?xf32, #amdgpu.address_space<fat_raw_buffer>>, vector<1xf32>
        %390 = vector.extract_strided_slice %312 {offsets = [2], sizes = [1], strides = [1]} : vector<16xf32> to vector<1xf32>
        %391 = affine.apply #map59()[%block_id_y, %block_id_x, %2, %2, %5, %thread_id_x]
        %392 = arith.cmpi slt, %391, %368 : index
        %393 = arith.andi %364, %392 : i1
        %394 = affine.apply #map60()[%thread_id_x]
        %395 = arith.muli %394, %c2880 overflow<nsw> : index
        %396 = arith.addi %395, %189 overflow<nsw> : index
        %397 = arith.select %393, %396, %c536870911 : index
        vector.store %390, %380[%397] : memref<?xf32, #amdgpu.address_space<fat_raw_buffer>>, vector<1xf32>
        %398 = vector.extract_strided_slice %312 {offsets = [3], sizes = [1], strides = [1]} : vector<16xf32> to vector<1xf32>
        %399 = affine.apply #map61()[%block_id_y, %block_id_x, %2, %2, %5, %thread_id_x]
        %400 = arith.cmpi slt, %399, %368 : index
        %401 = arith.andi %364, %400 : i1
        %402 = affine.apply #map62()[%thread_id_x]
        %403 = arith.muli %402, %c2880 overflow<nsw> : index
        %404 = arith.addi %403, %189 overflow<nsw> : index
        %405 = arith.select %401, %404, %c536870911 : index
        vector.store %398, %380[%405] : memref<?xf32, #amdgpu.address_space<fat_raw_buffer>>, vector<1xf32>
        %406 = vector.extract_strided_slice %312 {offsets = [4], sizes = [1], strides = [1]} : vector<16xf32> to vector<1xf32>
        %407 = affine.apply #map63()[%block_id_y, %block_id_x, %2, %2, %5, %thread_id_x]
        %408 = arith.cmpi slt, %407, %368 : index
        %409 = arith.andi %364, %408 : i1
        %410 = affine.apply #map64()[%thread_id_x]
        %411 = arith.muli %410, %c2880 overflow<nsw> : index
        %412 = arith.addi %411, %189 overflow<nsw> : index
        %413 = arith.select %409, %412, %c536870911 : index
        vector.store %406, %380[%413] : memref<?xf32, #amdgpu.address_space<fat_raw_buffer>>, vector<1xf32>
        %414 = vector.extract_strided_slice %312 {offsets = [5], sizes = [1], strides = [1]} : vector<16xf32> to vector<1xf32>
        %415 = affine.apply #map65()[%block_id_y, %block_id_x, %2, %2, %5, %thread_id_x]
        %416 = arith.cmpi slt, %415, %368 : index
        %417 = arith.andi %364, %416 : i1
        %418 = affine.apply #map66()[%thread_id_x]
        %419 = arith.muli %418, %c2880 overflow<nsw> : index
        %420 = arith.addi %419, %189 overflow<nsw> : index
        %421 = arith.select %417, %420, %c536870911 : index
        vector.store %414, %380[%421] : memref<?xf32, #amdgpu.address_space<fat_raw_buffer>>, vector<1xf32>
        %422 = vector.extract_strided_slice %312 {offsets = [6], sizes = [1], strides = [1]} : vector<16xf32> to vector<1xf32>
        %423 = affine.apply #map67()[%block_id_y, %block_id_x, %2, %2, %5, %thread_id_x]
        %424 = arith.cmpi slt, %423, %368 : index
        %425 = arith.andi %364, %424 : i1
        %426 = affine.apply #map68()[%thread_id_x]
        %427 = arith.muli %426, %c2880 overflow<nsw> : index
        %428 = arith.addi %427, %189 overflow<nsw> : index
        %429 = arith.select %425, %428, %c536870911 : index
        vector.store %422, %380[%429] : memref<?xf32, #amdgpu.address_space<fat_raw_buffer>>, vector<1xf32>
        %430 = vector.extract_strided_slice %312 {offsets = [7], sizes = [1], strides = [1]} : vector<16xf32> to vector<1xf32>
        %431 = affine.apply #map69()[%block_id_y, %block_id_x, %2, %2, %5, %thread_id_x]
        %432 = arith.cmpi slt, %431, %368 : index
        %433 = arith.andi %364, %432 : i1
        %434 = affine.apply #map70()[%thread_id_x]
        %435 = arith.muli %434, %c2880 overflow<nsw> : index
        %436 = arith.addi %435, %189 overflow<nsw> : index
        %437 = arith.select %433, %436, %c536870911 : index
        vector.store %430, %380[%437] : memref<?xf32, #amdgpu.address_space<fat_raw_buffer>>, vector<1xf32>
        %438 = vector.extract_strided_slice %312 {offsets = [8], sizes = [1], strides = [1]} : vector<16xf32> to vector<1xf32>
        %439 = affine.apply #map71()[%block_id_y, %block_id_x, %2, %2, %5, %thread_id_x]
        %440 = arith.cmpi slt, %439, %368 : index
        %441 = arith.andi %364, %440 : i1
        %442 = affine.apply #map72()[%thread_id_x]
        %443 = arith.muli %442, %c2880 overflow<nsw> : index
        %444 = arith.addi %443, %189 overflow<nsw> : index
        %445 = arith.select %441, %444, %c536870911 : index
        vector.store %438, %380[%445] : memref<?xf32, #amdgpu.address_space<fat_raw_buffer>>, vector<1xf32>
        %446 = vector.extract_strided_slice %312 {offsets = [9], sizes = [1], strides = [1]} : vector<16xf32> to vector<1xf32>
        %447 = affine.apply #map73()[%block_id_y, %block_id_x, %2, %2, %5, %thread_id_x]
        %448 = arith.cmpi slt, %447, %368 : index
        %449 = arith.andi %364, %448 : i1
        %450 = affine.apply #map74()[%thread_id_x]
        %451 = arith.muli %450, %c2880 overflow<nsw> : index
        %452 = arith.addi %451, %189 overflow<nsw> : index
        %453 = arith.select %449, %452, %c536870911 : index
        vector.store %446, %380[%453] : memref<?xf32, #amdgpu.address_space<fat_raw_buffer>>, vector<1xf32>
        %454 = vector.extract_strided_slice %312 {offsets = [10], sizes = [1], strides = [1]} : vector<16xf32> to vector<1xf32>
        %455 = affine.apply #map75()[%block_id_y, %block_id_x, %2, %2, %5, %thread_id_x]
        %456 = arith.cmpi slt, %455, %368 : index
        %457 = arith.andi %364, %456 : i1
        %458 = affine.apply #map76()[%thread_id_x]
        %459 = arith.muli %458, %c2880 overflow<nsw> : index
        %460 = arith.addi %459, %189 overflow<nsw> : index
        %461 = arith.select %457, %460, %c536870911 : index
        vector.store %454, %380[%461] : memref<?xf32, #amdgpu.address_space<fat_raw_buffer>>, vector<1xf32>
        %462 = vector.extract_strided_slice %312 {offsets = [11], sizes = [1], strides = [1]} : vector<16xf32> to vector<1xf32>
        %463 = affine.apply #map77()[%block_id_y, %block_id_x, %2, %2, %5, %thread_id_x]
        %464 = arith.cmpi slt, %463, %368 : index
        %465 = arith.andi %364, %464 : i1
        %466 = affine.apply #map78()[%thread_id_x]
        %467 = arith.muli %466, %c2880 overflow<nsw> : index
        %468 = arith.addi %467, %189 overflow<nsw> : index
        %469 = arith.select %465, %468, %c536870911 : index
        vector.store %462, %380[%469] : memref<?xf32, #amdgpu.address_space<fat_raw_buffer>>, vector<1xf32>
        %470 = vector.extract_strided_slice %312 {offsets = [12], sizes = [1], strides = [1]} : vector<16xf32> to vector<1xf32>
        %471 = affine.apply #map79()[%block_id_y, %block_id_x, %2, %2, %5, %thread_id_x]
        %472 = arith.cmpi slt, %471, %368 : index
        %473 = arith.andi %364, %472 : i1
        %474 = affine.apply #map80()[%thread_id_x]
        %475 = arith.muli %474, %c2880 overflow<nsw> : index
        %476 = arith.addi %475, %189 overflow<nsw> : index
        %477 = arith.select %473, %476, %c536870911 : index
        vector.store %470, %380[%477] : memref<?xf32, #amdgpu.address_space<fat_raw_buffer>>, vector<1xf32>
        %478 = vector.extract_strided_slice %312 {offsets = [13], sizes = [1], strides = [1]} : vector<16xf32> to vector<1xf32>
        %479 = affine.apply #map81()[%block_id_y, %block_id_x, %2, %2, %5, %thread_id_x]
        %480 = arith.cmpi slt, %479, %368 : index
        %481 = arith.andi %364, %480 : i1
        %482 = affine.apply #map82()[%thread_id_x]
        %483 = arith.muli %482, %c2880 overflow<nsw> : index
        %484 = arith.addi %483, %189 overflow<nsw> : index
        %485 = arith.select %481, %484, %c536870911 : index
        vector.store %478, %380[%485] : memref<?xf32, #amdgpu.address_space<fat_raw_buffer>>, vector<1xf32>
        %486 = vector.extract_strided_slice %312 {offsets = [14], sizes = [1], strides = [1]} : vector<16xf32> to vector<1xf32>
        %487 = affine.apply #map83()[%block_id_y, %block_id_x, %2, %2, %5, %thread_id_x]
        %488 = arith.cmpi slt, %487, %368 : index
        %489 = arith.andi %364, %488 : i1
        %490 = affine.apply #map84()[%thread_id_x]
        %491 = arith.muli %490, %c2880 overflow<nsw> : index
        %492 = arith.addi %491, %189 overflow<nsw> : index
        %493 = arith.select %489, %492, %c536870911 : index
        vector.store %486, %380[%493] : memref<?xf32, #amdgpu.address_space<fat_raw_buffer>>, vector<1xf32>
        %494 = vector.extract_strided_slice %312 {offsets = [15], sizes = [1], strides = [1]} : vector<16xf32> to vector<1xf32>
        %495 = affine.apply #map85()[%block_id_y, %block_id_x, %2, %2, %5, %thread_id_x]
        %496 = arith.cmpi slt, %495, %368 : index
        %497 = arith.andi %364, %496 : i1
        %498 = affine.apply #map86()[%thread_id_x]
        %499 = arith.muli %498, %c2880 overflow<nsw> : index
        %500 = arith.addi %499, %189 overflow<nsw> : index
        %501 = arith.select %497, %500, %c536870911 : index
        vector.store %494, %380[%501] : memref<?xf32, #amdgpu.address_space<fat_raw_buffer>>, vector<1xf32>
        %502 = vector.extract_strided_slice %314 {offsets = [0], sizes = [1], strides = [1]} : vector<16xf32> to vector<1xf32>
        %503 = affine.apply #map87()[%thread_id_x, %block_id_y, %block_id_x, %2, %5, %thread_id_y]
        %504 = arith.cmpi slt, %503, %362 : index
        %505 = arith.andi %504, %370 : i1
        %506 = arith.addi %376, %196 overflow<nsw> : index
        %507 = arith.select %505, %506, %c536870911 : index
        vector.store %502, %380[%507] : memref<?xf32, #amdgpu.address_space<fat_raw_buffer>>, vector<1xf32>
        %508 = vector.extract_strided_slice %314 {offsets = [1], sizes = [1], strides = [1]} : vector<16xf32> to vector<1xf32>
        %509 = arith.andi %504, %384 : i1
        %510 = arith.addi %387, %196 overflow<nsw> : index
        %511 = arith.select %509, %510, %c536870911 : index
        vector.store %508, %380[%511] : memref<?xf32, #amdgpu.address_space<fat_raw_buffer>>, vector<1xf32>
        %512 = vector.extract_strided_slice %314 {offsets = [2], sizes = [1], strides = [1]} : vector<16xf32> to vector<1xf32>
        %513 = arith.andi %504, %392 : i1
        %514 = arith.addi %395, %196 overflow<nsw> : index
        %515 = arith.select %513, %514, %c536870911 : index
        vector.store %512, %380[%515] : memref<?xf32, #amdgpu.address_space<fat_raw_buffer>>, vector<1xf32>
        %516 = vector.extract_strided_slice %314 {offsets = [3], sizes = [1], strides = [1]} : vector<16xf32> to vector<1xf32>
        %517 = arith.andi %504, %400 : i1
        %518 = arith.addi %403, %196 overflow<nsw> : index
        %519 = arith.select %517, %518, %c536870911 : index
        vector.store %516, %380[%519] : memref<?xf32, #amdgpu.address_space<fat_raw_buffer>>, vector<1xf32>
        %520 = vector.extract_strided_slice %314 {offsets = [4], sizes = [1], strides = [1]} : vector<16xf32> to vector<1xf32>
        %521 = arith.andi %504, %408 : i1
        %522 = arith.addi %411, %196 overflow<nsw> : index
        %523 = arith.select %521, %522, %c536870911 : index
        vector.store %520, %380[%523] : memref<?xf32, #amdgpu.address_space<fat_raw_buffer>>, vector<1xf32>
        %524 = vector.extract_strided_slice %314 {offsets = [5], sizes = [1], strides = [1]} : vector<16xf32> to vector<1xf32>
        %525 = arith.andi %504, %416 : i1
        %526 = arith.addi %419, %196 overflow<nsw> : index
        %527 = arith.select %525, %526, %c536870911 : index
        vector.store %524, %380[%527] : memref<?xf32, #amdgpu.address_space<fat_raw_buffer>>, vector<1xf32>
        %528 = vector.extract_strided_slice %314 {offsets = [6], sizes = [1], strides = [1]} : vector<16xf32> to vector<1xf32>
        %529 = arith.andi %504, %424 : i1
        %530 = arith.addi %427, %196 overflow<nsw> : index
        %531 = arith.select %529, %530, %c536870911 : index
        vector.store %528, %380[%531] : memref<?xf32, #amdgpu.address_space<fat_raw_buffer>>, vector<1xf32>
        %532 = vector.extract_strided_slice %314 {offsets = [7], sizes = [1], strides = [1]} : vector<16xf32> to vector<1xf32>
        %533 = arith.andi %504, %432 : i1
        %534 = arith.addi %435, %196 overflow<nsw> : index
        %535 = arith.select %533, %534, %c536870911 : index
        vector.store %532, %380[%535] : memref<?xf32, #amdgpu.address_space<fat_raw_buffer>>, vector<1xf32>
        %536 = vector.extract_strided_slice %314 {offsets = [8], sizes = [1], strides = [1]} : vector<16xf32> to vector<1xf32>
        %537 = arith.andi %504, %440 : i1
        %538 = arith.addi %443, %196 overflow<nsw> : index
        %539 = arith.select %537, %538, %c536870911 : index
        vector.store %536, %380[%539] : memref<?xf32, #amdgpu.address_space<fat_raw_buffer>>, vector<1xf32>
        %540 = vector.extract_strided_slice %314 {offsets = [9], sizes = [1], strides = [1]} : vector<16xf32> to vector<1xf32>
        %541 = arith.andi %504, %448 : i1
        %542 = arith.addi %451, %196 overflow<nsw> : index
        %543 = arith.select %541, %542, %c536870911 : index
        vector.store %540, %380[%543] : memref<?xf32, #amdgpu.address_space<fat_raw_buffer>>, vector<1xf32>
        %544 = vector.extract_strided_slice %314 {offsets = [10], sizes = [1], strides = [1]} : vector<16xf32> to vector<1xf32>
        %545 = arith.andi %504, %456 : i1
        %546 = arith.addi %459, %196 overflow<nsw> : index
        %547 = arith.select %545, %546, %c536870911 : index
        vector.store %544, %380[%547] : memref<?xf32, #amdgpu.address_space<fat_raw_buffer>>, vector<1xf32>
        %548 = vector.extract_strided_slice %314 {offsets = [11], sizes = [1], strides = [1]} : vector<16xf32> to vector<1xf32>
        %549 = arith.andi %504, %464 : i1
        %550 = arith.addi %467, %196 overflow<nsw> : index
        %551 = arith.select %549, %550, %c536870911 : index
        vector.store %548, %380[%551] : memref<?xf32, #amdgpu.address_space<fat_raw_buffer>>, vector<1xf32>
        %552 = vector.extract_strided_slice %314 {offsets = [12], sizes = [1], strides = [1]} : vector<16xf32> to vector<1xf32>
        %553 = arith.andi %504, %472 : i1
        %554 = arith.addi %475, %196 overflow<nsw> : index
        %555 = arith.select %553, %554, %c536870911 : index
        vector.store %552, %380[%555] : memref<?xf32, #amdgpu.address_space<fat_raw_buffer>>, vector<1xf32>
        %556 = vector.extract_strided_slice %314 {offsets = [13], sizes = [1], strides = [1]} : vector<16xf32> to vector<1xf32>
        %557 = arith.andi %504, %480 : i1
        %558 = arith.addi %483, %196 overflow<nsw> : index
        %559 = arith.select %557, %558, %c536870911 : index
        vector.store %556, %380[%559] : memref<?xf32, #amdgpu.address_space<fat_raw_buffer>>, vector<1xf32>
        %560 = vector.extract_strided_slice %314 {offsets = [14], sizes = [1], strides = [1]} : vector<16xf32> to vector<1xf32>
        %561 = arith.andi %504, %488 : i1
        %562 = arith.addi %491, %196 overflow<nsw> : index
        %563 = arith.select %561, %562, %c536870911 : index
        vector.store %560, %380[%563] : memref<?xf32, #amdgpu.address_space<fat_raw_buffer>>, vector<1xf32>
        %564 = vector.extract_strided_slice %314 {offsets = [15], sizes = [1], strides = [1]} : vector<16xf32> to vector<1xf32>
        %565 = arith.andi %504, %496 : i1
        %566 = arith.addi %499, %196 overflow<nsw> : index
        %567 = arith.select %565, %566, %c536870911 : index
        vector.store %564, %380[%567] : memref<?xf32, #amdgpu.address_space<fat_raw_buffer>>, vector<1xf32>
        %568 = vector.extract_strided_slice %316 {offsets = [0], sizes = [1], strides = [1]} : vector<16xf32> to vector<1xf32>
        %569 = affine.apply #map88()[%thread_id_x, %block_id_y, %block_id_x, %2, %5, %thread_id_y]
        %570 = arith.cmpi slt, %569, %362 : index
        %571 = arith.andi %570, %370 : i1
        %572 = arith.addi %376, %201 overflow<nsw> : index
        %573 = arith.select %571, %572, %c536870911 : index
        vector.store %568, %380[%573] : memref<?xf32, #amdgpu.address_space<fat_raw_buffer>>, vector<1xf32>
        %574 = vector.extract_strided_slice %316 {offsets = [1], sizes = [1], strides = [1]} : vector<16xf32> to vector<1xf32>
        %575 = arith.andi %570, %384 : i1
        %576 = arith.addi %387, %201 overflow<nsw> : index
        %577 = arith.select %575, %576, %c536870911 : index
        vector.store %574, %380[%577] : memref<?xf32, #amdgpu.address_space<fat_raw_buffer>>, vector<1xf32>
        %578 = vector.extract_strided_slice %316 {offsets = [2], sizes = [1], strides = [1]} : vector<16xf32> to vector<1xf32>
        %579 = arith.andi %570, %392 : i1
        %580 = arith.addi %395, %201 overflow<nsw> : index
        %581 = arith.select %579, %580, %c536870911 : index
        vector.store %578, %380[%581] : memref<?xf32, #amdgpu.address_space<fat_raw_buffer>>, vector<1xf32>
        %582 = vector.extract_strided_slice %316 {offsets = [3], sizes = [1], strides = [1]} : vector<16xf32> to vector<1xf32>
        %583 = arith.andi %570, %400 : i1
        %584 = arith.addi %403, %201 overflow<nsw> : index
        %585 = arith.select %583, %584, %c536870911 : index
        vector.store %582, %380[%585] : memref<?xf32, #amdgpu.address_space<fat_raw_buffer>>, vector<1xf32>
        %586 = vector.extract_strided_slice %316 {offsets = [4], sizes = [1], strides = [1]} : vector<16xf32> to vector<1xf32>
        %587 = arith.andi %570, %408 : i1
        %588 = arith.addi %411, %201 overflow<nsw> : index
        %589 = arith.select %587, %588, %c536870911 : index
        vector.store %586, %380[%589] : memref<?xf32, #amdgpu.address_space<fat_raw_buffer>>, vector<1xf32>
        %590 = vector.extract_strided_slice %316 {offsets = [5], sizes = [1], strides = [1]} : vector<16xf32> to vector<1xf32>
        %591 = arith.andi %570, %416 : i1
        %592 = arith.addi %419, %201 overflow<nsw> : index
        %593 = arith.select %591, %592, %c536870911 : index
        vector.store %590, %380[%593] : memref<?xf32, #amdgpu.address_space<fat_raw_buffer>>, vector<1xf32>
        %594 = vector.extract_strided_slice %316 {offsets = [6], sizes = [1], strides = [1]} : vector<16xf32> to vector<1xf32>
        %595 = arith.andi %570, %424 : i1
        %596 = arith.addi %427, %201 overflow<nsw> : index
        %597 = arith.select %595, %596, %c536870911 : index
        vector.store %594, %380[%597] : memref<?xf32, #amdgpu.address_space<fat_raw_buffer>>, vector<1xf32>
        %598 = vector.extract_strided_slice %316 {offsets = [7], sizes = [1], strides = [1]} : vector<16xf32> to vector<1xf32>
        %599 = arith.andi %570, %432 : i1
        %600 = arith.addi %435, %201 overflow<nsw> : index
        %601 = arith.select %599, %600, %c536870911 : index
        vector.store %598, %380[%601] : memref<?xf32, #amdgpu.address_space<fat_raw_buffer>>, vector<1xf32>
        %602 = vector.extract_strided_slice %316 {offsets = [8], sizes = [1], strides = [1]} : vector<16xf32> to vector<1xf32>
        %603 = arith.andi %570, %440 : i1
        %604 = arith.addi %443, %201 overflow<nsw> : index
        %605 = arith.select %603, %604, %c536870911 : index
        vector.store %602, %380[%605] : memref<?xf32, #amdgpu.address_space<fat_raw_buffer>>, vector<1xf32>
        %606 = vector.extract_strided_slice %316 {offsets = [9], sizes = [1], strides = [1]} : vector<16xf32> to vector<1xf32>
        %607 = arith.andi %570, %448 : i1
        %608 = arith.addi %451, %201 overflow<nsw> : index
        %609 = arith.select %607, %608, %c536870911 : index
        vector.store %606, %380[%609] : memref<?xf32, #amdgpu.address_space<fat_raw_buffer>>, vector<1xf32>
        %610 = vector.extract_strided_slice %316 {offsets = [10], sizes = [1], strides = [1]} : vector<16xf32> to vector<1xf32>
        %611 = arith.andi %570, %456 : i1
        %612 = arith.addi %459, %201 overflow<nsw> : index
        %613 = arith.select %611, %612, %c536870911 : index
        vector.store %610, %380[%613] : memref<?xf32, #amdgpu.address_space<fat_raw_buffer>>, vector<1xf32>
        %614 = vector.extract_strided_slice %316 {offsets = [11], sizes = [1], strides = [1]} : vector<16xf32> to vector<1xf32>
        %615 = arith.andi %570, %464 : i1
        %616 = arith.addi %467, %201 overflow<nsw> : index
        %617 = arith.select %615, %616, %c536870911 : index
        vector.store %614, %380[%617] : memref<?xf32, #amdgpu.address_space<fat_raw_buffer>>, vector<1xf32>
        %618 = vector.extract_strided_slice %316 {offsets = [12], sizes = [1], strides = [1]} : vector<16xf32> to vector<1xf32>
        %619 = arith.andi %570, %472 : i1
        %620 = arith.addi %475, %201 overflow<nsw> : index
        %621 = arith.select %619, %620, %c536870911 : index
        vector.store %618, %380[%621] : memref<?xf32, #amdgpu.address_space<fat_raw_buffer>>, vector<1xf32>
        %622 = vector.extract_strided_slice %316 {offsets = [13], sizes = [1], strides = [1]} : vector<16xf32> to vector<1xf32>
        %623 = arith.andi %570, %480 : i1
        %624 = arith.addi %483, %201 overflow<nsw> : index
        %625 = arith.select %623, %624, %c536870911 : index
        vector.store %622, %380[%625] : memref<?xf32, #amdgpu.address_space<fat_raw_buffer>>, vector<1xf32>
        %626 = vector.extract_strided_slice %316 {offsets = [14], sizes = [1], strides = [1]} : vector<16xf32> to vector<1xf32>
        %627 = arith.andi %570, %488 : i1
        %628 = arith.addi %491, %201 overflow<nsw> : index
        %629 = arith.select %627, %628, %c536870911 : index
        vector.store %626, %380[%629] : memref<?xf32, #amdgpu.address_space<fat_raw_buffer>>, vector<1xf32>
        %630 = vector.extract_strided_slice %316 {offsets = [15], sizes = [1], strides = [1]} : vector<16xf32> to vector<1xf32>
        %631 = arith.andi %570, %496 : i1
        %632 = arith.addi %499, %201 overflow<nsw> : index
        %633 = arith.select %631, %632, %c536870911 : index
        vector.store %630, %380[%633] : memref<?xf32, #amdgpu.address_space<fat_raw_buffer>>, vector<1xf32>
        %634 = vector.extract_strided_slice %318 {offsets = [0], sizes = [1], strides = [1]} : vector<16xf32> to vector<1xf32>
        %635 = affine.apply #map89()[%thread_id_x, %block_id_y, %block_id_x, %2, %5, %thread_id_y]
        %636 = arith.cmpi slt, %635, %362 : index
        %637 = arith.andi %636, %370 : i1
        %638 = arith.addi %376, %206 overflow<nsw> : index
        %639 = arith.select %637, %638, %c536870911 : index
        vector.store %634, %380[%639] : memref<?xf32, #amdgpu.address_space<fat_raw_buffer>>, vector<1xf32>
        %640 = vector.extract_strided_slice %318 {offsets = [1], sizes = [1], strides = [1]} : vector<16xf32> to vector<1xf32>
        %641 = arith.andi %636, %384 : i1
        %642 = arith.addi %387, %206 overflow<nsw> : index
        %643 = arith.select %641, %642, %c536870911 : index
        vector.store %640, %380[%643] : memref<?xf32, #amdgpu.address_space<fat_raw_buffer>>, vector<1xf32>
        %644 = vector.extract_strided_slice %318 {offsets = [2], sizes = [1], strides = [1]} : vector<16xf32> to vector<1xf32>
        %645 = arith.andi %636, %392 : i1
        %646 = arith.addi %395, %206 overflow<nsw> : index
        %647 = arith.select %645, %646, %c536870911 : index
        vector.store %644, %380[%647] : memref<?xf32, #amdgpu.address_space<fat_raw_buffer>>, vector<1xf32>
        %648 = vector.extract_strided_slice %318 {offsets = [3], sizes = [1], strides = [1]} : vector<16xf32> to vector<1xf32>
        %649 = arith.andi %636, %400 : i1
        %650 = arith.addi %403, %206 overflow<nsw> : index
        %651 = arith.select %649, %650, %c536870911 : index
        vector.store %648, %380[%651] : memref<?xf32, #amdgpu.address_space<fat_raw_buffer>>, vector<1xf32>
        %652 = vector.extract_strided_slice %318 {offsets = [4], sizes = [1], strides = [1]} : vector<16xf32> to vector<1xf32>
        %653 = arith.andi %636, %408 : i1
        %654 = arith.addi %411, %206 overflow<nsw> : index
        %655 = arith.select %653, %654, %c536870911 : index
        vector.store %652, %380[%655] : memref<?xf32, #amdgpu.address_space<fat_raw_buffer>>, vector<1xf32>
        %656 = vector.extract_strided_slice %318 {offsets = [5], sizes = [1], strides = [1]} : vector<16xf32> to vector<1xf32>
        %657 = arith.andi %636, %416 : i1
        %658 = arith.addi %419, %206 overflow<nsw> : index
        %659 = arith.select %657, %658, %c536870911 : index
        vector.store %656, %380[%659] : memref<?xf32, #amdgpu.address_space<fat_raw_buffer>>, vector<1xf32>
        %660 = vector.extract_strided_slice %318 {offsets = [6], sizes = [1], strides = [1]} : vector<16xf32> to vector<1xf32>
        %661 = arith.andi %636, %424 : i1
        %662 = arith.addi %427, %206 overflow<nsw> : index
        %663 = arith.select %661, %662, %c536870911 : index
        vector.store %660, %380[%663] : memref<?xf32, #amdgpu.address_space<fat_raw_buffer>>, vector<1xf32>
        %664 = vector.extract_strided_slice %318 {offsets = [7], sizes = [1], strides = [1]} : vector<16xf32> to vector<1xf32>
        %665 = arith.andi %636, %432 : i1
        %666 = arith.addi %435, %206 overflow<nsw> : index
        %667 = arith.select %665, %666, %c536870911 : index
        vector.store %664, %380[%667] : memref<?xf32, #amdgpu.address_space<fat_raw_buffer>>, vector<1xf32>
        %668 = vector.extract_strided_slice %318 {offsets = [8], sizes = [1], strides = [1]} : vector<16xf32> to vector<1xf32>
        %669 = arith.andi %636, %440 : i1
        %670 = arith.addi %443, %206 overflow<nsw> : index
        %671 = arith.select %669, %670, %c536870911 : index
        vector.store %668, %380[%671] : memref<?xf32, #amdgpu.address_space<fat_raw_buffer>>, vector<1xf32>
        %672 = vector.extract_strided_slice %318 {offsets = [9], sizes = [1], strides = [1]} : vector<16xf32> to vector<1xf32>
        %673 = arith.andi %636, %448 : i1
        %674 = arith.addi %451, %206 overflow<nsw> : index
        %675 = arith.select %673, %674, %c536870911 : index
        vector.store %672, %380[%675] : memref<?xf32, #amdgpu.address_space<fat_raw_buffer>>, vector<1xf32>
        %676 = vector.extract_strided_slice %318 {offsets = [10], sizes = [1], strides = [1]} : vector<16xf32> to vector<1xf32>
        %677 = arith.andi %636, %456 : i1
        %678 = arith.addi %459, %206 overflow<nsw> : index
        %679 = arith.select %677, %678, %c536870911 : index
        vector.store %676, %380[%679] : memref<?xf32, #amdgpu.address_space<fat_raw_buffer>>, vector<1xf32>
        %680 = vector.extract_strided_slice %318 {offsets = [11], sizes = [1], strides = [1]} : vector<16xf32> to vector<1xf32>
        %681 = arith.andi %636, %464 : i1
        %682 = arith.addi %467, %206 overflow<nsw> : index
        %683 = arith.select %681, %682, %c536870911 : index
        vector.store %680, %380[%683] : memref<?xf32, #amdgpu.address_space<fat_raw_buffer>>, vector<1xf32>
        %684 = vector.extract_strided_slice %318 {offsets = [12], sizes = [1], strides = [1]} : vector<16xf32> to vector<1xf32>
        %685 = arith.andi %636, %472 : i1
        %686 = arith.addi %475, %206 overflow<nsw> : index
        %687 = arith.select %685, %686, %c536870911 : index
        vector.store %684, %380[%687] : memref<?xf32, #amdgpu.address_space<fat_raw_buffer>>, vector<1xf32>
        %688 = vector.extract_strided_slice %318 {offsets = [13], sizes = [1], strides = [1]} : vector<16xf32> to vector<1xf32>
        %689 = arith.andi %636, %480 : i1
        %690 = arith.addi %483, %206 overflow<nsw> : index
        %691 = arith.select %689, %690, %c536870911 : index
        vector.store %688, %380[%691] : memref<?xf32, #amdgpu.address_space<fat_raw_buffer>>, vector<1xf32>
        %692 = vector.extract_strided_slice %318 {offsets = [14], sizes = [1], strides = [1]} : vector<16xf32> to vector<1xf32>
        %693 = arith.andi %636, %488 : i1
        %694 = arith.addi %491, %206 overflow<nsw> : index
        %695 = arith.select %693, %694, %c536870911 : index
        vector.store %692, %380[%695] : memref<?xf32, #amdgpu.address_space<fat_raw_buffer>>, vector<1xf32>
        %696 = vector.extract_strided_slice %318 {offsets = [15], sizes = [1], strides = [1]} : vector<16xf32> to vector<1xf32>
        %697 = arith.andi %636, %496 : i1
        %698 = arith.addi %499, %206 overflow<nsw> : index
        %699 = arith.select %697, %698, %c536870911 : index
        vector.store %696, %380[%699] : memref<?xf32, #amdgpu.address_space<fat_raw_buffer>>, vector<1xf32>
        %700 = vector.extract_strided_slice %320 {offsets = [0], sizes = [1], strides = [1]} : vector<16xf32> to vector<1xf32>
        %701 = affine.apply #map90()[%thread_id_x, %block_id_y, %block_id_x, %2, %5, %thread_id_y]
        %702 = arith.cmpi slt, %701, %362 : index
        %703 = arith.andi %702, %370 : i1
        %704 = arith.addi %376, %211 overflow<nsw> : index
        %705 = arith.select %703, %704, %c536870911 : index
        vector.store %700, %380[%705] : memref<?xf32, #amdgpu.address_space<fat_raw_buffer>>, vector<1xf32>
        %706 = vector.extract_strided_slice %320 {offsets = [1], sizes = [1], strides = [1]} : vector<16xf32> to vector<1xf32>
        %707 = arith.andi %702, %384 : i1
        %708 = arith.addi %387, %211 overflow<nsw> : index
        %709 = arith.select %707, %708, %c536870911 : index
        vector.store %706, %380[%709] : memref<?xf32, #amdgpu.address_space<fat_raw_buffer>>, vector<1xf32>
        %710 = vector.extract_strided_slice %320 {offsets = [2], sizes = [1], strides = [1]} : vector<16xf32> to vector<1xf32>
        %711 = arith.andi %702, %392 : i1
        %712 = arith.addi %395, %211 overflow<nsw> : index
        %713 = arith.select %711, %712, %c536870911 : index
        vector.store %710, %380[%713] : memref<?xf32, #amdgpu.address_space<fat_raw_buffer>>, vector<1xf32>
        %714 = vector.extract_strided_slice %320 {offsets = [3], sizes = [1], strides = [1]} : vector<16xf32> to vector<1xf32>
        %715 = arith.andi %702, %400 : i1
        %716 = arith.addi %403, %211 overflow<nsw> : index
        %717 = arith.select %715, %716, %c536870911 : index
        vector.store %714, %380[%717] : memref<?xf32, #amdgpu.address_space<fat_raw_buffer>>, vector<1xf32>
        %718 = vector.extract_strided_slice %320 {offsets = [4], sizes = [1], strides = [1]} : vector<16xf32> to vector<1xf32>
        %719 = arith.andi %702, %408 : i1
        %720 = arith.addi %411, %211 overflow<nsw> : index
        %721 = arith.select %719, %720, %c536870911 : index
        vector.store %718, %380[%721] : memref<?xf32, #amdgpu.address_space<fat_raw_buffer>>, vector<1xf32>
        %722 = vector.extract_strided_slice %320 {offsets = [5], sizes = [1], strides = [1]} : vector<16xf32> to vector<1xf32>
        %723 = arith.andi %702, %416 : i1
        %724 = arith.addi %419, %211 overflow<nsw> : index
        %725 = arith.select %723, %724, %c536870911 : index
        vector.store %722, %380[%725] : memref<?xf32, #amdgpu.address_space<fat_raw_buffer>>, vector<1xf32>
        %726 = vector.extract_strided_slice %320 {offsets = [6], sizes = [1], strides = [1]} : vector<16xf32> to vector<1xf32>
        %727 = arith.andi %702, %424 : i1
        %728 = arith.addi %427, %211 overflow<nsw> : index
        %729 = arith.select %727, %728, %c536870911 : index
        vector.store %726, %380[%729] : memref<?xf32, #amdgpu.address_space<fat_raw_buffer>>, vector<1xf32>
        %730 = vector.extract_strided_slice %320 {offsets = [7], sizes = [1], strides = [1]} : vector<16xf32> to vector<1xf32>
        %731 = arith.andi %702, %432 : i1
        %732 = arith.addi %435, %211 overflow<nsw> : index
        %733 = arith.select %731, %732, %c536870911 : index
        vector.store %730, %380[%733] : memref<?xf32, #amdgpu.address_space<fat_raw_buffer>>, vector<1xf32>
        %734 = vector.extract_strided_slice %320 {offsets = [8], sizes = [1], strides = [1]} : vector<16xf32> to vector<1xf32>
        %735 = arith.andi %702, %440 : i1
        %736 = arith.addi %443, %211 overflow<nsw> : index
        %737 = arith.select %735, %736, %c536870911 : index
        vector.store %734, %380[%737] : memref<?xf32, #amdgpu.address_space<fat_raw_buffer>>, vector<1xf32>
        %738 = vector.extract_strided_slice %320 {offsets = [9], sizes = [1], strides = [1]} : vector<16xf32> to vector<1xf32>
        %739 = arith.andi %702, %448 : i1
        %740 = arith.addi %451, %211 overflow<nsw> : index
        %741 = arith.select %739, %740, %c536870911 : index
        vector.store %738, %380[%741] : memref<?xf32, #amdgpu.address_space<fat_raw_buffer>>, vector<1xf32>
        %742 = vector.extract_strided_slice %320 {offsets = [10], sizes = [1], strides = [1]} : vector<16xf32> to vector<1xf32>
        %743 = arith.andi %702, %456 : i1
        %744 = arith.addi %459, %211 overflow<nsw> : index
        %745 = arith.select %743, %744, %c536870911 : index
        vector.store %742, %380[%745] : memref<?xf32, #amdgpu.address_space<fat_raw_buffer>>, vector<1xf32>
        %746 = vector.extract_strided_slice %320 {offsets = [11], sizes = [1], strides = [1]} : vector<16xf32> to vector<1xf32>
        %747 = arith.andi %702, %464 : i1
        %748 = arith.addi %467, %211 overflow<nsw> : index
        %749 = arith.select %747, %748, %c536870911 : index
        vector.store %746, %380[%749] : memref<?xf32, #amdgpu.address_space<fat_raw_buffer>>, vector<1xf32>
        %750 = vector.extract_strided_slice %320 {offsets = [12], sizes = [1], strides = [1]} : vector<16xf32> to vector<1xf32>
        %751 = arith.andi %702, %472 : i1
        %752 = arith.addi %475, %211 overflow<nsw> : index
        %753 = arith.select %751, %752, %c536870911 : index
        vector.store %750, %380[%753] : memref<?xf32, #amdgpu.address_space<fat_raw_buffer>>, vector<1xf32>
        %754 = vector.extract_strided_slice %320 {offsets = [13], sizes = [1], strides = [1]} : vector<16xf32> to vector<1xf32>
        %755 = arith.andi %702, %480 : i1
        %756 = arith.addi %483, %211 overflow<nsw> : index
        %757 = arith.select %755, %756, %c536870911 : index
        vector.store %754, %380[%757] : memref<?xf32, #amdgpu.address_space<fat_raw_buffer>>, vector<1xf32>
        %758 = vector.extract_strided_slice %320 {offsets = [14], sizes = [1], strides = [1]} : vector<16xf32> to vector<1xf32>
        %759 = arith.andi %702, %488 : i1
        %760 = arith.addi %491, %211 overflow<nsw> : index
        %761 = arith.select %759, %760, %c536870911 : index
        vector.store %758, %380[%761] : memref<?xf32, #amdgpu.address_space<fat_raw_buffer>>, vector<1xf32>
        %762 = vector.extract_strided_slice %320 {offsets = [15], sizes = [1], strides = [1]} : vector<16xf32> to vector<1xf32>
        %763 = arith.andi %702, %496 : i1
        %764 = arith.addi %499, %211 overflow<nsw> : index
        %765 = arith.select %763, %764, %c536870911 : index
        vector.store %762, %380[%765] : memref<?xf32, #amdgpu.address_space<fat_raw_buffer>>, vector<1xf32>
        %766 = vector.extract_strided_slice %322 {offsets = [0], sizes = [1], strides = [1]} : vector<16xf32> to vector<1xf32>
        %767 = affine.apply #map91()[%thread_id_x, %block_id_y, %block_id_x, %2, %5, %thread_id_y]
        %768 = arith.cmpi slt, %767, %362 : index
        %769 = arith.andi %768, %370 : i1
        %770 = arith.addi %376, %216 overflow<nsw> : index
        %771 = arith.select %769, %770, %c536870911 : index
        vector.store %766, %380[%771] : memref<?xf32, #amdgpu.address_space<fat_raw_buffer>>, vector<1xf32>
        %772 = vector.extract_strided_slice %322 {offsets = [1], sizes = [1], strides = [1]} : vector<16xf32> to vector<1xf32>
        %773 = arith.andi %768, %384 : i1
        %774 = arith.addi %387, %216 overflow<nsw> : index
        %775 = arith.select %773, %774, %c536870911 : index
        vector.store %772, %380[%775] : memref<?xf32, #amdgpu.address_space<fat_raw_buffer>>, vector<1xf32>
        %776 = vector.extract_strided_slice %322 {offsets = [2], sizes = [1], strides = [1]} : vector<16xf32> to vector<1xf32>
        %777 = arith.andi %768, %392 : i1
        %778 = arith.addi %395, %216 overflow<nsw> : index
        %779 = arith.select %777, %778, %c536870911 : index
        vector.store %776, %380[%779] : memref<?xf32, #amdgpu.address_space<fat_raw_buffer>>, vector<1xf32>
        %780 = vector.extract_strided_slice %322 {offsets = [3], sizes = [1], strides = [1]} : vector<16xf32> to vector<1xf32>
        %781 = arith.andi %768, %400 : i1
        %782 = arith.addi %403, %216 overflow<nsw> : index
        %783 = arith.select %781, %782, %c536870911 : index
        vector.store %780, %380[%783] : memref<?xf32, #amdgpu.address_space<fat_raw_buffer>>, vector<1xf32>
        %784 = vector.extract_strided_slice %322 {offsets = [4], sizes = [1], strides = [1]} : vector<16xf32> to vector<1xf32>
        %785 = arith.andi %768, %408 : i1
        %786 = arith.addi %411, %216 overflow<nsw> : index
        %787 = arith.select %785, %786, %c536870911 : index
        vector.store %784, %380[%787] : memref<?xf32, #amdgpu.address_space<fat_raw_buffer>>, vector<1xf32>
        %788 = vector.extract_strided_slice %322 {offsets = [5], sizes = [1], strides = [1]} : vector<16xf32> to vector<1xf32>
        %789 = arith.andi %768, %416 : i1
        %790 = arith.addi %419, %216 overflow<nsw> : index
        %791 = arith.select %789, %790, %c536870911 : index
        vector.store %788, %380[%791] : memref<?xf32, #amdgpu.address_space<fat_raw_buffer>>, vector<1xf32>
        %792 = vector.extract_strided_slice %322 {offsets = [6], sizes = [1], strides = [1]} : vector<16xf32> to vector<1xf32>
        %793 = arith.andi %768, %424 : i1
        %794 = arith.addi %427, %216 overflow<nsw> : index
        %795 = arith.select %793, %794, %c536870911 : index
        vector.store %792, %380[%795] : memref<?xf32, #amdgpu.address_space<fat_raw_buffer>>, vector<1xf32>
        %796 = vector.extract_strided_slice %322 {offsets = [7], sizes = [1], strides = [1]} : vector<16xf32> to vector<1xf32>
        %797 = arith.andi %768, %432 : i1
        %798 = arith.addi %435, %216 overflow<nsw> : index
        %799 = arith.select %797, %798, %c536870911 : index
        vector.store %796, %380[%799] : memref<?xf32, #amdgpu.address_space<fat_raw_buffer>>, vector<1xf32>
        %800 = vector.extract_strided_slice %322 {offsets = [8], sizes = [1], strides = [1]} : vector<16xf32> to vector<1xf32>
        %801 = arith.andi %768, %440 : i1
        %802 = arith.addi %443, %216 overflow<nsw> : index
        %803 = arith.select %801, %802, %c536870911 : index
        vector.store %800, %380[%803] : memref<?xf32, #amdgpu.address_space<fat_raw_buffer>>, vector<1xf32>
        %804 = vector.extract_strided_slice %322 {offsets = [9], sizes = [1], strides = [1]} : vector<16xf32> to vector<1xf32>
        %805 = arith.andi %768, %448 : i1
        %806 = arith.addi %451, %216 overflow<nsw> : index
        %807 = arith.select %805, %806, %c536870911 : index
        vector.store %804, %380[%807] : memref<?xf32, #amdgpu.address_space<fat_raw_buffer>>, vector<1xf32>
        %808 = vector.extract_strided_slice %322 {offsets = [10], sizes = [1], strides = [1]} : vector<16xf32> to vector<1xf32>
        %809 = arith.andi %768, %456 : i1
        %810 = arith.addi %459, %216 overflow<nsw> : index
        %811 = arith.select %809, %810, %c536870911 : index
        vector.store %808, %380[%811] : memref<?xf32, #amdgpu.address_space<fat_raw_buffer>>, vector<1xf32>
        %812 = vector.extract_strided_slice %322 {offsets = [11], sizes = [1], strides = [1]} : vector<16xf32> to vector<1xf32>
        %813 = arith.andi %768, %464 : i1
        %814 = arith.addi %467, %216 overflow<nsw> : index
        %815 = arith.select %813, %814, %c536870911 : index
        vector.store %812, %380[%815] : memref<?xf32, #amdgpu.address_space<fat_raw_buffer>>, vector<1xf32>
        %816 = vector.extract_strided_slice %322 {offsets = [12], sizes = [1], strides = [1]} : vector<16xf32> to vector<1xf32>
        %817 = arith.andi %768, %472 : i1
        %818 = arith.addi %475, %216 overflow<nsw> : index
        %819 = arith.select %817, %818, %c536870911 : index
        vector.store %816, %380[%819] : memref<?xf32, #amdgpu.address_space<fat_raw_buffer>>, vector<1xf32>
        %820 = vector.extract_strided_slice %322 {offsets = [13], sizes = [1], strides = [1]} : vector<16xf32> to vector<1xf32>
        %821 = arith.andi %768, %480 : i1
        %822 = arith.addi %483, %216 overflow<nsw> : index
        %823 = arith.select %821, %822, %c536870911 : index
        vector.store %820, %380[%823] : memref<?xf32, #amdgpu.address_space<fat_raw_buffer>>, vector<1xf32>
        %824 = vector.extract_strided_slice %322 {offsets = [14], sizes = [1], strides = [1]} : vector<16xf32> to vector<1xf32>
        %825 = arith.andi %768, %488 : i1
        %826 = arith.addi %491, %216 overflow<nsw> : index
        %827 = arith.select %825, %826, %c536870911 : index
        vector.store %824, %380[%827] : memref<?xf32, #amdgpu.address_space<fat_raw_buffer>>, vector<1xf32>
        %828 = vector.extract_strided_slice %322 {offsets = [15], sizes = [1], strides = [1]} : vector<16xf32> to vector<1xf32>
        %829 = arith.andi %768, %496 : i1
        %830 = arith.addi %499, %216 overflow<nsw> : index
        %831 = arith.select %829, %830, %c536870911 : index
        vector.store %828, %380[%831] : memref<?xf32, #amdgpu.address_space<fat_raw_buffer>>, vector<1xf32>
        %832 = vector.extract_strided_slice %324 {offsets = [0], sizes = [1], strides = [1]} : vector<16xf32> to vector<1xf32>
        %833 = affine.apply #map92()[%thread_id_x, %block_id_y, %block_id_x, %2, %5, %thread_id_y]
        %834 = arith.cmpi slt, %833, %362 : index
        %835 = arith.andi %834, %370 : i1
        %836 = arith.addi %376, %221 overflow<nsw> : index
        %837 = arith.select %835, %836, %c536870911 : index
        vector.store %832, %380[%837] : memref<?xf32, #amdgpu.address_space<fat_raw_buffer>>, vector<1xf32>
        %838 = vector.extract_strided_slice %324 {offsets = [1], sizes = [1], strides = [1]} : vector<16xf32> to vector<1xf32>
        %839 = arith.andi %834, %384 : i1
        %840 = arith.addi %387, %221 overflow<nsw> : index
        %841 = arith.select %839, %840, %c536870911 : index
        vector.store %838, %380[%841] : memref<?xf32, #amdgpu.address_space<fat_raw_buffer>>, vector<1xf32>
        %842 = vector.extract_strided_slice %324 {offsets = [2], sizes = [1], strides = [1]} : vector<16xf32> to vector<1xf32>
        %843 = arith.andi %834, %392 : i1
        %844 = arith.addi %395, %221 overflow<nsw> : index
        %845 = arith.select %843, %844, %c536870911 : index
        vector.store %842, %380[%845] : memref<?xf32, #amdgpu.address_space<fat_raw_buffer>>, vector<1xf32>
        %846 = vector.extract_strided_slice %324 {offsets = [3], sizes = [1], strides = [1]} : vector<16xf32> to vector<1xf32>
        %847 = arith.andi %834, %400 : i1
        %848 = arith.addi %403, %221 overflow<nsw> : index
        %849 = arith.select %847, %848, %c536870911 : index
        vector.store %846, %380[%849] : memref<?xf32, #amdgpu.address_space<fat_raw_buffer>>, vector<1xf32>
        %850 = vector.extract_strided_slice %324 {offsets = [4], sizes = [1], strides = [1]} : vector<16xf32> to vector<1xf32>
        %851 = arith.andi %834, %408 : i1
        %852 = arith.addi %411, %221 overflow<nsw> : index
        %853 = arith.select %851, %852, %c536870911 : index
        vector.store %850, %380[%853] : memref<?xf32, #amdgpu.address_space<fat_raw_buffer>>, vector<1xf32>
        %854 = vector.extract_strided_slice %324 {offsets = [5], sizes = [1], strides = [1]} : vector<16xf32> to vector<1xf32>
        %855 = arith.andi %834, %416 : i1
        %856 = arith.addi %419, %221 overflow<nsw> : index
        %857 = arith.select %855, %856, %c536870911 : index
        vector.store %854, %380[%857] : memref<?xf32, #amdgpu.address_space<fat_raw_buffer>>, vector<1xf32>
        %858 = vector.extract_strided_slice %324 {offsets = [6], sizes = [1], strides = [1]} : vector<16xf32> to vector<1xf32>
        %859 = arith.andi %834, %424 : i1
        %860 = arith.addi %427, %221 overflow<nsw> : index
        %861 = arith.select %859, %860, %c536870911 : index
        vector.store %858, %380[%861] : memref<?xf32, #amdgpu.address_space<fat_raw_buffer>>, vector<1xf32>
        %862 = vector.extract_strided_slice %324 {offsets = [7], sizes = [1], strides = [1]} : vector<16xf32> to vector<1xf32>
        %863 = arith.andi %834, %432 : i1
        %864 = arith.addi %435, %221 overflow<nsw> : index
        %865 = arith.select %863, %864, %c536870911 : index
        vector.store %862, %380[%865] : memref<?xf32, #amdgpu.address_space<fat_raw_buffer>>, vector<1xf32>
        %866 = vector.extract_strided_slice %324 {offsets = [8], sizes = [1], strides = [1]} : vector<16xf32> to vector<1xf32>
        %867 = arith.andi %834, %440 : i1
        %868 = arith.addi %443, %221 overflow<nsw> : index
        %869 = arith.select %867, %868, %c536870911 : index
        vector.store %866, %380[%869] : memref<?xf32, #amdgpu.address_space<fat_raw_buffer>>, vector<1xf32>
        %870 = vector.extract_strided_slice %324 {offsets = [9], sizes = [1], strides = [1]} : vector<16xf32> to vector<1xf32>
        %871 = arith.andi %834, %448 : i1
        %872 = arith.addi %451, %221 overflow<nsw> : index
        %873 = arith.select %871, %872, %c536870911 : index
        vector.store %870, %380[%873] : memref<?xf32, #amdgpu.address_space<fat_raw_buffer>>, vector<1xf32>
        %874 = vector.extract_strided_slice %324 {offsets = [10], sizes = [1], strides = [1]} : vector<16xf32> to vector<1xf32>
        %875 = arith.andi %834, %456 : i1
        %876 = arith.addi %459, %221 overflow<nsw> : index
        %877 = arith.select %875, %876, %c536870911 : index
        vector.store %874, %380[%877] : memref<?xf32, #amdgpu.address_space<fat_raw_buffer>>, vector<1xf32>
        %878 = vector.extract_strided_slice %324 {offsets = [11], sizes = [1], strides = [1]} : vector<16xf32> to vector<1xf32>
        %879 = arith.andi %834, %464 : i1
        %880 = arith.addi %467, %221 overflow<nsw> : index
        %881 = arith.select %879, %880, %c536870911 : index
        vector.store %878, %380[%881] : memref<?xf32, #amdgpu.address_space<fat_raw_buffer>>, vector<1xf32>
        %882 = vector.extract_strided_slice %324 {offsets = [12], sizes = [1], strides = [1]} : vector<16xf32> to vector<1xf32>
        %883 = arith.andi %834, %472 : i1
        %884 = arith.addi %475, %221 overflow<nsw> : index
        %885 = arith.select %883, %884, %c536870911 : index
        vector.store %882, %380[%885] : memref<?xf32, #amdgpu.address_space<fat_raw_buffer>>, vector<1xf32>
        %886 = vector.extract_strided_slice %324 {offsets = [13], sizes = [1], strides = [1]} : vector<16xf32> to vector<1xf32>
        %887 = arith.andi %834, %480 : i1
        %888 = arith.addi %483, %221 overflow<nsw> : index
        %889 = arith.select %887, %888, %c536870911 : index
        vector.store %886, %380[%889] : memref<?xf32, #amdgpu.address_space<fat_raw_buffer>>, vector<1xf32>
        %890 = vector.extract_strided_slice %324 {offsets = [14], sizes = [1], strides = [1]} : vector<16xf32> to vector<1xf32>
        %891 = arith.andi %834, %488 : i1
        %892 = arith.addi %491, %221 overflow<nsw> : index
        %893 = arith.select %891, %892, %c536870911 : index
        vector.store %890, %380[%893] : memref<?xf32, #amdgpu.address_space<fat_raw_buffer>>, vector<1xf32>
        %894 = vector.extract_strided_slice %324 {offsets = [15], sizes = [1], strides = [1]} : vector<16xf32> to vector<1xf32>
        %895 = arith.andi %834, %496 : i1
        %896 = arith.addi %499, %221 overflow<nsw> : index
        %897 = arith.select %895, %896, %c536870911 : index
        vector.store %894, %380[%897] : memref<?xf32, #amdgpu.address_space<fat_raw_buffer>>, vector<1xf32>
        %898 = vector.extract_strided_slice %326 {offsets = [0], sizes = [1], strides = [1]} : vector<16xf32> to vector<1xf32>
        %899 = affine.apply #map93()[%thread_id_x, %block_id_y, %block_id_x, %2, %5, %thread_id_y]
        %900 = arith.cmpi slt, %899, %362 : index
        %901 = arith.andi %900, %370 : i1
        %902 = arith.addi %376, %226 overflow<nsw> : index
        %903 = arith.select %901, %902, %c536870911 : index
        vector.store %898, %380[%903] : memref<?xf32, #amdgpu.address_space<fat_raw_buffer>>, vector<1xf32>
        %904 = vector.extract_strided_slice %326 {offsets = [1], sizes = [1], strides = [1]} : vector<16xf32> to vector<1xf32>
        %905 = arith.andi %900, %384 : i1
        %906 = arith.addi %387, %226 overflow<nsw> : index
        %907 = arith.select %905, %906, %c536870911 : index
        vector.store %904, %380[%907] : memref<?xf32, #amdgpu.address_space<fat_raw_buffer>>, vector<1xf32>
        %908 = vector.extract_strided_slice %326 {offsets = [2], sizes = [1], strides = [1]} : vector<16xf32> to vector<1xf32>
        %909 = arith.andi %900, %392 : i1
        %910 = arith.addi %395, %226 overflow<nsw> : index
        %911 = arith.select %909, %910, %c536870911 : index
        vector.store %908, %380[%911] : memref<?xf32, #amdgpu.address_space<fat_raw_buffer>>, vector<1xf32>
        %912 = vector.extract_strided_slice %326 {offsets = [3], sizes = [1], strides = [1]} : vector<16xf32> to vector<1xf32>
        %913 = arith.andi %900, %400 : i1
        %914 = arith.addi %403, %226 overflow<nsw> : index
        %915 = arith.select %913, %914, %c536870911 : index
        vector.store %912, %380[%915] : memref<?xf32, #amdgpu.address_space<fat_raw_buffer>>, vector<1xf32>
        %916 = vector.extract_strided_slice %326 {offsets = [4], sizes = [1], strides = [1]} : vector<16xf32> to vector<1xf32>
        %917 = arith.andi %900, %408 : i1
        %918 = arith.addi %411, %226 overflow<nsw> : index
        %919 = arith.select %917, %918, %c536870911 : index
        vector.store %916, %380[%919] : memref<?xf32, #amdgpu.address_space<fat_raw_buffer>>, vector<1xf32>
        %920 = vector.extract_strided_slice %326 {offsets = [5], sizes = [1], strides = [1]} : vector<16xf32> to vector<1xf32>
        %921 = arith.andi %900, %416 : i1
        %922 = arith.addi %419, %226 overflow<nsw> : index
        %923 = arith.select %921, %922, %c536870911 : index
        vector.store %920, %380[%923] : memref<?xf32, #amdgpu.address_space<fat_raw_buffer>>, vector<1xf32>
        %924 = vector.extract_strided_slice %326 {offsets = [6], sizes = [1], strides = [1]} : vector<16xf32> to vector<1xf32>
        %925 = arith.andi %900, %424 : i1
        %926 = arith.addi %427, %226 overflow<nsw> : index
        %927 = arith.select %925, %926, %c536870911 : index
        vector.store %924, %380[%927] : memref<?xf32, #amdgpu.address_space<fat_raw_buffer>>, vector<1xf32>
        %928 = vector.extract_strided_slice %326 {offsets = [7], sizes = [1], strides = [1]} : vector<16xf32> to vector<1xf32>
        %929 = arith.andi %900, %432 : i1
        %930 = arith.addi %435, %226 overflow<nsw> : index
        %931 = arith.select %929, %930, %c536870911 : index
        vector.store %928, %380[%931] : memref<?xf32, #amdgpu.address_space<fat_raw_buffer>>, vector<1xf32>
        %932 = vector.extract_strided_slice %326 {offsets = [8], sizes = [1], strides = [1]} : vector<16xf32> to vector<1xf32>
        %933 = arith.andi %900, %440 : i1
        %934 = arith.addi %443, %226 overflow<nsw> : index
        %935 = arith.select %933, %934, %c536870911 : index
        vector.store %932, %380[%935] : memref<?xf32, #amdgpu.address_space<fat_raw_buffer>>, vector<1xf32>
        %936 = vector.extract_strided_slice %326 {offsets = [9], sizes = [1], strides = [1]} : vector<16xf32> to vector<1xf32>
        %937 = arith.andi %900, %448 : i1
        %938 = arith.addi %451, %226 overflow<nsw> : index
        %939 = arith.select %937, %938, %c536870911 : index
        vector.store %936, %380[%939] : memref<?xf32, #amdgpu.address_space<fat_raw_buffer>>, vector<1xf32>
        %940 = vector.extract_strided_slice %326 {offsets = [10], sizes = [1], strides = [1]} : vector<16xf32> to vector<1xf32>
        %941 = arith.andi %900, %456 : i1
        %942 = arith.addi %459, %226 overflow<nsw> : index
        %943 = arith.select %941, %942, %c536870911 : index
        vector.store %940, %380[%943] : memref<?xf32, #amdgpu.address_space<fat_raw_buffer>>, vector<1xf32>
        %944 = vector.extract_strided_slice %326 {offsets = [11], sizes = [1], strides = [1]} : vector<16xf32> to vector<1xf32>
        %945 = arith.andi %900, %464 : i1
        %946 = arith.addi %467, %226 overflow<nsw> : index
        %947 = arith.select %945, %946, %c536870911 : index
        vector.store %944, %380[%947] : memref<?xf32, #amdgpu.address_space<fat_raw_buffer>>, vector<1xf32>
        %948 = vector.extract_strided_slice %326 {offsets = [12], sizes = [1], strides = [1]} : vector<16xf32> to vector<1xf32>
        %949 = arith.andi %900, %472 : i1
        %950 = arith.addi %475, %226 overflow<nsw> : index
        %951 = arith.select %949, %950, %c536870911 : index
        vector.store %948, %380[%951] : memref<?xf32, #amdgpu.address_space<fat_raw_buffer>>, vector<1xf32>
        %952 = vector.extract_strided_slice %326 {offsets = [13], sizes = [1], strides = [1]} : vector<16xf32> to vector<1xf32>
        %953 = arith.andi %900, %480 : i1
        %954 = arith.addi %483, %226 overflow<nsw> : index
        %955 = arith.select %953, %954, %c536870911 : index
        vector.store %952, %380[%955] : memref<?xf32, #amdgpu.address_space<fat_raw_buffer>>, vector<1xf32>
        %956 = vector.extract_strided_slice %326 {offsets = [14], sizes = [1], strides = [1]} : vector<16xf32> to vector<1xf32>
        %957 = arith.andi %900, %488 : i1
        %958 = arith.addi %491, %226 overflow<nsw> : index
        %959 = arith.select %957, %958, %c536870911 : index
        vector.store %956, %380[%959] : memref<?xf32, #amdgpu.address_space<fat_raw_buffer>>, vector<1xf32>
        %960 = vector.extract_strided_slice %326 {offsets = [15], sizes = [1], strides = [1]} : vector<16xf32> to vector<1xf32>
        %961 = arith.andi %900, %496 : i1
        %962 = arith.addi %499, %226 overflow<nsw> : index
        %963 = arith.select %961, %962, %c536870911 : index
        vector.store %960, %380[%963] : memref<?xf32, #amdgpu.address_space<fat_raw_buffer>>, vector<1xf32>
        %964 = vector.extract_strided_slice %328 {offsets = [0], sizes = [1], strides = [1]} : vector<16xf32> to vector<1xf32>
        %965 = affine.apply #map94()[%thread_id_x, %block_id_y, %block_id_x, %2, %5, %thread_id_y]
        %966 = arith.cmpi slt, %965, %362 : index
        %967 = arith.andi %966, %370 : i1
        %968 = arith.addi %376, %231 overflow<nsw> : index
        %969 = arith.select %967, %968, %c536870911 : index
        vector.store %964, %380[%969] : memref<?xf32, #amdgpu.address_space<fat_raw_buffer>>, vector<1xf32>
        %970 = vector.extract_strided_slice %328 {offsets = [1], sizes = [1], strides = [1]} : vector<16xf32> to vector<1xf32>
        %971 = arith.andi %966, %384 : i1
        %972 = arith.addi %387, %231 overflow<nsw> : index
        %973 = arith.select %971, %972, %c536870911 : index
        vector.store %970, %380[%973] : memref<?xf32, #amdgpu.address_space<fat_raw_buffer>>, vector<1xf32>
        %974 = vector.extract_strided_slice %328 {offsets = [2], sizes = [1], strides = [1]} : vector<16xf32> to vector<1xf32>
        %975 = arith.andi %966, %392 : i1
        %976 = arith.addi %395, %231 overflow<nsw> : index
        %977 = arith.select %975, %976, %c536870911 : index
        vector.store %974, %380[%977] : memref<?xf32, #amdgpu.address_space<fat_raw_buffer>>, vector<1xf32>
        %978 = vector.extract_strided_slice %328 {offsets = [3], sizes = [1], strides = [1]} : vector<16xf32> to vector<1xf32>
        %979 = arith.andi %966, %400 : i1
        %980 = arith.addi %403, %231 overflow<nsw> : index
        %981 = arith.select %979, %980, %c536870911 : index
        vector.store %978, %380[%981] : memref<?xf32, #amdgpu.address_space<fat_raw_buffer>>, vector<1xf32>
        %982 = vector.extract_strided_slice %328 {offsets = [4], sizes = [1], strides = [1]} : vector<16xf32> to vector<1xf32>
        %983 = arith.andi %966, %408 : i1
        %984 = arith.addi %411, %231 overflow<nsw> : index
        %985 = arith.select %983, %984, %c536870911 : index
        vector.store %982, %380[%985] : memref<?xf32, #amdgpu.address_space<fat_raw_buffer>>, vector<1xf32>
        %986 = vector.extract_strided_slice %328 {offsets = [5], sizes = [1], strides = [1]} : vector<16xf32> to vector<1xf32>
        %987 = arith.andi %966, %416 : i1
        %988 = arith.addi %419, %231 overflow<nsw> : index
        %989 = arith.select %987, %988, %c536870911 : index
        vector.store %986, %380[%989] : memref<?xf32, #amdgpu.address_space<fat_raw_buffer>>, vector<1xf32>
        %990 = vector.extract_strided_slice %328 {offsets = [6], sizes = [1], strides = [1]} : vector<16xf32> to vector<1xf32>
        %991 = arith.andi %966, %424 : i1
        %992 = arith.addi %427, %231 overflow<nsw> : index
        %993 = arith.select %991, %992, %c536870911 : index
        vector.store %990, %380[%993] : memref<?xf32, #amdgpu.address_space<fat_raw_buffer>>, vector<1xf32>
        %994 = vector.extract_strided_slice %328 {offsets = [7], sizes = [1], strides = [1]} : vector<16xf32> to vector<1xf32>
        %995 = arith.andi %966, %432 : i1
        %996 = arith.addi %435, %231 overflow<nsw> : index
        %997 = arith.select %995, %996, %c536870911 : index
        vector.store %994, %380[%997] : memref<?xf32, #amdgpu.address_space<fat_raw_buffer>>, vector<1xf32>
        %998 = vector.extract_strided_slice %328 {offsets = [8], sizes = [1], strides = [1]} : vector<16xf32> to vector<1xf32>
        %999 = arith.andi %966, %440 : i1
        %1000 = arith.addi %443, %231 overflow<nsw> : index
        %1001 = arith.select %999, %1000, %c536870911 : index
        vector.store %998, %380[%1001] : memref<?xf32, #amdgpu.address_space<fat_raw_buffer>>, vector<1xf32>
        %1002 = vector.extract_strided_slice %328 {offsets = [9], sizes = [1], strides = [1]} : vector<16xf32> to vector<1xf32>
        %1003 = arith.andi %966, %448 : i1
        %1004 = arith.addi %451, %231 overflow<nsw> : index
        %1005 = arith.select %1003, %1004, %c536870911 : index
        vector.store %1002, %380[%1005] : memref<?xf32, #amdgpu.address_space<fat_raw_buffer>>, vector<1xf32>
        %1006 = vector.extract_strided_slice %328 {offsets = [10], sizes = [1], strides = [1]} : vector<16xf32> to vector<1xf32>
        %1007 = arith.andi %966, %456 : i1
        %1008 = arith.addi %459, %231 overflow<nsw> : index
        %1009 = arith.select %1007, %1008, %c536870911 : index
        vector.store %1006, %380[%1009] : memref<?xf32, #amdgpu.address_space<fat_raw_buffer>>, vector<1xf32>
        %1010 = vector.extract_strided_slice %328 {offsets = [11], sizes = [1], strides = [1]} : vector<16xf32> to vector<1xf32>
        %1011 = arith.andi %966, %464 : i1
        %1012 = arith.addi %467, %231 overflow<nsw> : index
        %1013 = arith.select %1011, %1012, %c536870911 : index
        vector.store %1010, %380[%1013] : memref<?xf32, #amdgpu.address_space<fat_raw_buffer>>, vector<1xf32>
        %1014 = vector.extract_strided_slice %328 {offsets = [12], sizes = [1], strides = [1]} : vector<16xf32> to vector<1xf32>
        %1015 = arith.andi %966, %472 : i1
        %1016 = arith.addi %475, %231 overflow<nsw> : index
        %1017 = arith.select %1015, %1016, %c536870911 : index
        vector.store %1014, %380[%1017] : memref<?xf32, #amdgpu.address_space<fat_raw_buffer>>, vector<1xf32>
        %1018 = vector.extract_strided_slice %328 {offsets = [13], sizes = [1], strides = [1]} : vector<16xf32> to vector<1xf32>
        %1019 = arith.andi %966, %480 : i1
        %1020 = arith.addi %483, %231 overflow<nsw> : index
        %1021 = arith.select %1019, %1020, %c536870911 : index
        vector.store %1018, %380[%1021] : memref<?xf32, #amdgpu.address_space<fat_raw_buffer>>, vector<1xf32>
        %1022 = vector.extract_strided_slice %328 {offsets = [14], sizes = [1], strides = [1]} : vector<16xf32> to vector<1xf32>
        %1023 = arith.andi %966, %488 : i1
        %1024 = arith.addi %491, %231 overflow<nsw> : index
        %1025 = arith.select %1023, %1024, %c536870911 : index
        vector.store %1022, %380[%1025] : memref<?xf32, #amdgpu.address_space<fat_raw_buffer>>, vector<1xf32>
        %1026 = vector.extract_strided_slice %328 {offsets = [15], sizes = [1], strides = [1]} : vector<16xf32> to vector<1xf32>
        %1027 = arith.andi %966, %496 : i1
        %1028 = arith.addi %499, %231 overflow<nsw> : index
        %1029 = arith.select %1027, %1028, %c536870911 : index
        vector.store %1026, %380[%1029] : memref<?xf32, #amdgpu.address_space<fat_raw_buffer>>, vector<1xf32>
        %1030 = vector.extract_strided_slice %330 {offsets = [0], sizes = [1], strides = [1]} : vector<16xf32> to vector<1xf32>
        %1031 = affine.apply #map95()[%thread_id_x, %block_id_y, %block_id_x, %2, %5, %thread_id_y]
        %1032 = arith.cmpi slt, %1031, %362 : index
        %1033 = arith.andi %1032, %370 : i1
        %1034 = arith.addi %376, %236 overflow<nsw> : index
        %1035 = arith.select %1033, %1034, %c536870911 : index
        vector.store %1030, %380[%1035] : memref<?xf32, #amdgpu.address_space<fat_raw_buffer>>, vector<1xf32>
        %1036 = vector.extract_strided_slice %330 {offsets = [1], sizes = [1], strides = [1]} : vector<16xf32> to vector<1xf32>
        %1037 = arith.andi %1032, %384 : i1
        %1038 = arith.addi %387, %236 overflow<nsw> : index
        %1039 = arith.select %1037, %1038, %c536870911 : index
        vector.store %1036, %380[%1039] : memref<?xf32, #amdgpu.address_space<fat_raw_buffer>>, vector<1xf32>
        %1040 = vector.extract_strided_slice %330 {offsets = [2], sizes = [1], strides = [1]} : vector<16xf32> to vector<1xf32>
        %1041 = arith.andi %1032, %392 : i1
        %1042 = arith.addi %395, %236 overflow<nsw> : index
        %1043 = arith.select %1041, %1042, %c536870911 : index
        vector.store %1040, %380[%1043] : memref<?xf32, #amdgpu.address_space<fat_raw_buffer>>, vector<1xf32>
        %1044 = vector.extract_strided_slice %330 {offsets = [3], sizes = [1], strides = [1]} : vector<16xf32> to vector<1xf32>
        %1045 = arith.andi %1032, %400 : i1
        %1046 = arith.addi %403, %236 overflow<nsw> : index
        %1047 = arith.select %1045, %1046, %c536870911 : index
        vector.store %1044, %380[%1047] : memref<?xf32, #amdgpu.address_space<fat_raw_buffer>>, vector<1xf32>
        %1048 = vector.extract_strided_slice %330 {offsets = [4], sizes = [1], strides = [1]} : vector<16xf32> to vector<1xf32>
        %1049 = arith.andi %1032, %408 : i1
        %1050 = arith.addi %411, %236 overflow<nsw> : index
        %1051 = arith.select %1049, %1050, %c536870911 : index
        vector.store %1048, %380[%1051] : memref<?xf32, #amdgpu.address_space<fat_raw_buffer>>, vector<1xf32>
        %1052 = vector.extract_strided_slice %330 {offsets = [5], sizes = [1], strides = [1]} : vector<16xf32> to vector<1xf32>
        %1053 = arith.andi %1032, %416 : i1
        %1054 = arith.addi %419, %236 overflow<nsw> : index
        %1055 = arith.select %1053, %1054, %c536870911 : index
        vector.store %1052, %380[%1055] : memref<?xf32, #amdgpu.address_space<fat_raw_buffer>>, vector<1xf32>
        %1056 = vector.extract_strided_slice %330 {offsets = [6], sizes = [1], strides = [1]} : vector<16xf32> to vector<1xf32>
        %1057 = arith.andi %1032, %424 : i1
        %1058 = arith.addi %427, %236 overflow<nsw> : index
        %1059 = arith.select %1057, %1058, %c536870911 : index
        vector.store %1056, %380[%1059] : memref<?xf32, #amdgpu.address_space<fat_raw_buffer>>, vector<1xf32>
        %1060 = vector.extract_strided_slice %330 {offsets = [7], sizes = [1], strides = [1]} : vector<16xf32> to vector<1xf32>
        %1061 = arith.andi %1032, %432 : i1
        %1062 = arith.addi %435, %236 overflow<nsw> : index
        %1063 = arith.select %1061, %1062, %c536870911 : index
        vector.store %1060, %380[%1063] : memref<?xf32, #amdgpu.address_space<fat_raw_buffer>>, vector<1xf32>
        %1064 = vector.extract_strided_slice %330 {offsets = [8], sizes = [1], strides = [1]} : vector<16xf32> to vector<1xf32>
        %1065 = arith.andi %1032, %440 : i1
        %1066 = arith.addi %443, %236 overflow<nsw> : index
        %1067 = arith.select %1065, %1066, %c536870911 : index
        vector.store %1064, %380[%1067] : memref<?xf32, #amdgpu.address_space<fat_raw_buffer>>, vector<1xf32>
        %1068 = vector.extract_strided_slice %330 {offsets = [9], sizes = [1], strides = [1]} : vector<16xf32> to vector<1xf32>
        %1069 = arith.andi %1032, %448 : i1
        %1070 = arith.addi %451, %236 overflow<nsw> : index
        %1071 = arith.select %1069, %1070, %c536870911 : index
        vector.store %1068, %380[%1071] : memref<?xf32, #amdgpu.address_space<fat_raw_buffer>>, vector<1xf32>
        %1072 = vector.extract_strided_slice %330 {offsets = [10], sizes = [1], strides = [1]} : vector<16xf32> to vector<1xf32>
        %1073 = arith.andi %1032, %456 : i1
        %1074 = arith.addi %459, %236 overflow<nsw> : index
        %1075 = arith.select %1073, %1074, %c536870911 : index
        vector.store %1072, %380[%1075] : memref<?xf32, #amdgpu.address_space<fat_raw_buffer>>, vector<1xf32>
        %1076 = vector.extract_strided_slice %330 {offsets = [11], sizes = [1], strides = [1]} : vector<16xf32> to vector<1xf32>
        %1077 = arith.andi %1032, %464 : i1
        %1078 = arith.addi %467, %236 overflow<nsw> : index
        %1079 = arith.select %1077, %1078, %c536870911 : index
        vector.store %1076, %380[%1079] : memref<?xf32, #amdgpu.address_space<fat_raw_buffer>>, vector<1xf32>
        %1080 = vector.extract_strided_slice %330 {offsets = [12], sizes = [1], strides = [1]} : vector<16xf32> to vector<1xf32>
        %1081 = arith.andi %1032, %472 : i1
        %1082 = arith.addi %475, %236 overflow<nsw> : index
        %1083 = arith.select %1081, %1082, %c536870911 : index
        vector.store %1080, %380[%1083] : memref<?xf32, #amdgpu.address_space<fat_raw_buffer>>, vector<1xf32>
        %1084 = vector.extract_strided_slice %330 {offsets = [13], sizes = [1], strides = [1]} : vector<16xf32> to vector<1xf32>
        %1085 = arith.andi %1032, %480 : i1
        %1086 = arith.addi %483, %236 overflow<nsw> : index
        %1087 = arith.select %1085, %1086, %c536870911 : index
        vector.store %1084, %380[%1087] : memref<?xf32, #amdgpu.address_space<fat_raw_buffer>>, vector<1xf32>
        %1088 = vector.extract_strided_slice %330 {offsets = [14], sizes = [1], strides = [1]} : vector<16xf32> to vector<1xf32>
        %1089 = arith.andi %1032, %488 : i1
        %1090 = arith.addi %491, %236 overflow<nsw> : index
        %1091 = arith.select %1089, %1090, %c536870911 : index
        vector.store %1088, %380[%1091] : memref<?xf32, #amdgpu.address_space<fat_raw_buffer>>, vector<1xf32>
        %1092 = vector.extract_strided_slice %330 {offsets = [15], sizes = [1], strides = [1]} : vector<16xf32> to vector<1xf32>
        %1093 = arith.andi %1032, %496 : i1
        %1094 = arith.addi %499, %236 overflow<nsw> : index
        %1095 = arith.select %1093, %1094, %c536870911 : index
        vector.store %1092, %380[%1095] : memref<?xf32, #amdgpu.address_space<fat_raw_buffer>>, vector<1xf32>
        %1096 = vector.extract_strided_slice %332 {offsets = [0], sizes = [1], strides = [1]} : vector<16xf32> to vector<1xf32>
        %1097 = affine.apply #map96()[%thread_id_x, %block_id_y, %block_id_x, %2, %5, %thread_id_y]
        %1098 = arith.cmpi slt, %1097, %362 : index
        %1099 = arith.andi %1098, %370 : i1
        %1100 = arith.addi %376, %241 overflow<nsw> : index
        %1101 = arith.select %1099, %1100, %c536870911 : index
        vector.store %1096, %380[%1101] : memref<?xf32, #amdgpu.address_space<fat_raw_buffer>>, vector<1xf32>
        %1102 = vector.extract_strided_slice %332 {offsets = [1], sizes = [1], strides = [1]} : vector<16xf32> to vector<1xf32>
        %1103 = arith.andi %1098, %384 : i1
        %1104 = arith.addi %387, %241 overflow<nsw> : index
        %1105 = arith.select %1103, %1104, %c536870911 : index
        vector.store %1102, %380[%1105] : memref<?xf32, #amdgpu.address_space<fat_raw_buffer>>, vector<1xf32>
        %1106 = vector.extract_strided_slice %332 {offsets = [2], sizes = [1], strides = [1]} : vector<16xf32> to vector<1xf32>
        %1107 = arith.andi %1098, %392 : i1
        %1108 = arith.addi %395, %241 overflow<nsw> : index
        %1109 = arith.select %1107, %1108, %c536870911 : index
        vector.store %1106, %380[%1109] : memref<?xf32, #amdgpu.address_space<fat_raw_buffer>>, vector<1xf32>
        %1110 = vector.extract_strided_slice %332 {offsets = [3], sizes = [1], strides = [1]} : vector<16xf32> to vector<1xf32>
        %1111 = arith.andi %1098, %400 : i1
        %1112 = arith.addi %403, %241 overflow<nsw> : index
        %1113 = arith.select %1111, %1112, %c536870911 : index
        vector.store %1110, %380[%1113] : memref<?xf32, #amdgpu.address_space<fat_raw_buffer>>, vector<1xf32>
        %1114 = vector.extract_strided_slice %332 {offsets = [4], sizes = [1], strides = [1]} : vector<16xf32> to vector<1xf32>
        %1115 = arith.andi %1098, %408 : i1
        %1116 = arith.addi %411, %241 overflow<nsw> : index
        %1117 = arith.select %1115, %1116, %c536870911 : index
        vector.store %1114, %380[%1117] : memref<?xf32, #amdgpu.address_space<fat_raw_buffer>>, vector<1xf32>
        %1118 = vector.extract_strided_slice %332 {offsets = [5], sizes = [1], strides = [1]} : vector<16xf32> to vector<1xf32>
        %1119 = arith.andi %1098, %416 : i1
        %1120 = arith.addi %419, %241 overflow<nsw> : index
        %1121 = arith.select %1119, %1120, %c536870911 : index
        vector.store %1118, %380[%1121] : memref<?xf32, #amdgpu.address_space<fat_raw_buffer>>, vector<1xf32>
        %1122 = vector.extract_strided_slice %332 {offsets = [6], sizes = [1], strides = [1]} : vector<16xf32> to vector<1xf32>
        %1123 = arith.andi %1098, %424 : i1
        %1124 = arith.addi %427, %241 overflow<nsw> : index
        %1125 = arith.select %1123, %1124, %c536870911 : index
        vector.store %1122, %380[%1125] : memref<?xf32, #amdgpu.address_space<fat_raw_buffer>>, vector<1xf32>
        %1126 = vector.extract_strided_slice %332 {offsets = [7], sizes = [1], strides = [1]} : vector<16xf32> to vector<1xf32>
        %1127 = arith.andi %1098, %432 : i1
        %1128 = arith.addi %435, %241 overflow<nsw> : index
        %1129 = arith.select %1127, %1128, %c536870911 : index
        vector.store %1126, %380[%1129] : memref<?xf32, #amdgpu.address_space<fat_raw_buffer>>, vector<1xf32>
        %1130 = vector.extract_strided_slice %332 {offsets = [8], sizes = [1], strides = [1]} : vector<16xf32> to vector<1xf32>
        %1131 = arith.andi %1098, %440 : i1
        %1132 = arith.addi %443, %241 overflow<nsw> : index
        %1133 = arith.select %1131, %1132, %c536870911 : index
        vector.store %1130, %380[%1133] : memref<?xf32, #amdgpu.address_space<fat_raw_buffer>>, vector<1xf32>
        %1134 = vector.extract_strided_slice %332 {offsets = [9], sizes = [1], strides = [1]} : vector<16xf32> to vector<1xf32>
        %1135 = arith.andi %1098, %448 : i1
        %1136 = arith.addi %451, %241 overflow<nsw> : index
        %1137 = arith.select %1135, %1136, %c536870911 : index
        vector.store %1134, %380[%1137] : memref<?xf32, #amdgpu.address_space<fat_raw_buffer>>, vector<1xf32>
        %1138 = vector.extract_strided_slice %332 {offsets = [10], sizes = [1], strides = [1]} : vector<16xf32> to vector<1xf32>
        %1139 = arith.andi %1098, %456 : i1
        %1140 = arith.addi %459, %241 overflow<nsw> : index
        %1141 = arith.select %1139, %1140, %c536870911 : index
        vector.store %1138, %380[%1141] : memref<?xf32, #amdgpu.address_space<fat_raw_buffer>>, vector<1xf32>
        %1142 = vector.extract_strided_slice %332 {offsets = [11], sizes = [1], strides = [1]} : vector<16xf32> to vector<1xf32>
        %1143 = arith.andi %1098, %464 : i1
        %1144 = arith.addi %467, %241 overflow<nsw> : index
        %1145 = arith.select %1143, %1144, %c536870911 : index
        vector.store %1142, %380[%1145] : memref<?xf32, #amdgpu.address_space<fat_raw_buffer>>, vector<1xf32>
        %1146 = vector.extract_strided_slice %332 {offsets = [12], sizes = [1], strides = [1]} : vector<16xf32> to vector<1xf32>
        %1147 = arith.andi %1098, %472 : i1
        %1148 = arith.addi %475, %241 overflow<nsw> : index
        %1149 = arith.select %1147, %1148, %c536870911 : index
        vector.store %1146, %380[%1149] : memref<?xf32, #amdgpu.address_space<fat_raw_buffer>>, vector<1xf32>
        %1150 = vector.extract_strided_slice %332 {offsets = [13], sizes = [1], strides = [1]} : vector<16xf32> to vector<1xf32>
        %1151 = arith.andi %1098, %480 : i1
        %1152 = arith.addi %483, %241 overflow<nsw> : index
        %1153 = arith.select %1151, %1152, %c536870911 : index
        vector.store %1150, %380[%1153] : memref<?xf32, #amdgpu.address_space<fat_raw_buffer>>, vector<1xf32>
…
        %1460 = vector.extract_strided_slice %342 {offsets = [8], sizes = [1], strides = [1]} : vector<16xf32> to vector<1xf32>
        %1461 = arith.andi %1428, %440 : i1
        %1462 = arith.addi %443, %266 overflow<nsw> : index
        %1463 = arith.select %1461, %1462, %c536870911 : index
        vector.store %1460, %380[%1463] : memref<?xf32, #amdgpu.address_space<fat_raw_buffer>>, vector<1xf32>
        %1464 = vector.extract_strided_slice %342 {offsets = [9], sizes = [1], strides = [1]} : vector<16xf32> to vector<1xf32>
        %1465 = arith.andi %1428, %448 : i1
        %1466 = arith.addi %451, %266 overflow<nsw> : index
        %1467 = arith.select %1465, %1466, %c536870911 : index
        vector.store %1464, %380[%1467] : memref<?xf32, #amdgpu.address_space<fat_raw_buffer>>, vector<1xf32>
        %1468 = vector.extract_strided_slice %342 {offsets = [10], sizes = [1], strides = [1]} : vector<16xf32> to vector<1xf32>
        %1469 = arith.andi %1428, %456 : i1
        %1470 = arith.addi %459, %266 overflow<nsw> : index
        %1471 = arith.select %1469, %1470, %c536870911 : index
        vector.store %1468, %380[%1471] : memref<?xf32, #amdgpu.address_space<fat_raw_buffer>>, vector<1xf32>
        %1472 = vector.extract_strided_slice %342 {offsets = [11], sizes = [1], strides = [1]} : vector<16xf32> to vector<1xf32>
        %1473 = arith.andi %1428, %464 : i1
        %1474 = arith.addi %467, %266 overflow<nsw> : index
        %1475 = arith.select %1473, %1474, %c536870911 : index
        vector.store %1472, %380[%1475] : memref<?xf32, #amdgpu.address_space<fat_raw_buffer>>, vector<1xf32>
        %1476 = vector.extract_strided_slice %342 {offsets = [12], sizes = [1], strides = [1]} : vector<16xf32> to vector<1xf32>
        %1477 = arith.andi %1428, %472 : i1
        %1478 = arith.addi %475, %266 overflow<nsw> : index
        %1479 = arith.select %1477, %1478, %c536870911 : index
        vector.store %1476, %380[%1479] : memref<?xf32, #amdgpu.address_space<fat_raw_buffer>>, vector<1xf32>
        %1480 = vector.extract_strided_slice %342 {offsets = [13], sizes = [1], strides = [1]} : vector<16xf32> to vector<1xf32>
        %1481 = arith.andi %1428, %480 : i1
        %1482 = arith.addi %483, %266 overflow<nsw> : index
        %1483 = arith.select %1481, %1482, %c536870911 : index
        vector.store %1480, %380[%1483] : memref<?xf32, #amdgpu.address_space<fat_raw_buffer>>, vector<1xf32>
        %1484 = vector.extract_strided_slice %342 {offsets = [14], sizes = [1], strides = [1]} : vector<16xf32> to vector<1xf32>
        %1485 = arith.andi %1428, %488 : i1
        %1486 = arith.addi %491, %266 overflow<nsw> : index
        %1487 = arith.select %1485, %1486, %c536870911 : index
        vector.store %1484, %380[%1487] : memref<?xf32, #amdgpu.address_space<fat_raw_buffer>>, vector<1xf32>
        %1488 = vector.extract_strided_slice %342 {offsets = [15], sizes = [1], strides = [1]} : vector<16xf32> to vector<1xf32>
        %1489 = arith.andi %1428, %496 : i1
        %1490 = arith.addi %499, %266 overflow<nsw> : index
        %1491 = arith.select %1489, %1490, %c536870911 : index
        vector.store %1488, %380[%1491] : memref<?xf32, #amdgpu.address_space<fat_raw_buffer>>, vector<1xf32>
        %1492 = vector.extract_strided_slice %344 {offsets = [0], sizes = [1], strides = [1]} : vector<16xf32> to vector<1xf32>
        %1493 = affine.apply #map102()[%thread_id_x, %block_id_y, %block_id_x, %2, %5, %thread_id_y]
        %1494 = arith.cmpi slt, %1493, %362 : index
        %1495 = arith.andi %1494, %370 : i1
        %1496 = arith.addi %376, %271 overflow<nsw> : index
        %1497 = arith.select %1495, %1496, %c536870911 : index
        vector.store %1492, %380[%1497] : memref<?xf32, #amdgpu.address_space<fat_raw_buffer>>, vector<1xf32>
        %1498 = vector.extract_strided_slice %344 {offsets = [1], sizes = [1], strides = [1]} : vector<16xf32> to vector<1xf32>
        %1499 = arith.andi %1494, %384 : i1
        %1500 = arith.addi %387, %271 overflow<nsw> : index
        %1501 = arith.select %1499, %1500, %c536870911 : index
        vector.store %1498, %380[%1501] : memref<?xf32, #amdgpu.address_space<fat_raw_buffer>>, vector<1xf32>
        %1502 = vector.extract_strided_slice %344 {offsets = [2], sizes = [1], strides = [1]} : vector<16xf32> to vector<1xf32>
        %1503 = arith.andi %1494, %392 : i1
        %1504 = arith.addi %395, %271 overflow<nsw> : index
        %1505 = arith.select %1503, %1504, %c536870911 : index
        vector.store %1502, %380[%1505] : memref<?xf32, #amdgpu.address_space<fat_raw_buffer>>, vector<1xf32>
        %1506 = vector.extract_strided_slice %344 {offsets = [3], sizes = [1], strides = [1]} : vector<16xf32> to vector<1xf32>
        %1507 = arith.andi %1494, %400 : i1
        %1508 = arith.addi %403, %271 overflow<nsw> : index
        %1509 = arith.select %1507, %1508, %c536870911 : index
        vector.store %1506, %380[%1509] : memref<?xf32, #amdgpu.address_space<fat_raw_buffer>>, vector<1xf32>
        %1510 = vector.extract_strided_slice %344 {offsets = [4], sizes = [1], strides = [1]} : vector<16xf32> to vector<1xf32>
        %1511 = arith.andi %1494, %408 : i1
        %1512 = arith.addi %411, %271 overflow<nsw> : index
        %1513 = arith.select %1511, %1512, %c536870911 : index
        vector.store %1510, %380[%1513] : memref<?xf32, #amdgpu.address_space<fat_raw_buffer>>, vector<1xf32>
        %1514 = vector.extract_strided_slice %344 {offsets = [5], sizes = [1], strides = [1]} : vector<16xf32> to vector<1xf32>
        %1515 = arith.andi %1494, %416 : i1
        %1516 = arith.addi %419, %271 overflow<nsw> : index
        %1517 = arith.select %1515, %1516, %c536870911 : index
        vector.store %1514, %380[%1517] : memref<?xf32, #amdgpu.address_space<fat_raw_buffer>>, vector<1xf32>
        %1518 = vector.extract_strided_slice %344 {offsets = [6], sizes = [1], strides = [1]} : vector<16xf32> to vector<1xf32>
        %1519 = arith.andi %1494, %424 : i1
        %1520 = arith.addi %427, %271 overflow<nsw> : index
        %1521 = arith.select %1519, %1520, %c536870911 : index
        vector.store %1518, %380[%1521] : memref<?xf32, #amdgpu.address_space<fat_raw_buffer>>, vector<1xf32>
        %1522 = vector.extract_strided_slice %344 {offsets = [7], sizes = [1], strides = [1]} : vector<16xf32> to vector<1xf32>
        %1523 = arith.andi %1494, %432 : i1
        %1524 = arith.addi %435, %271 overflow<nsw> : index
        %1525 = arith.select %1523, %1524, %c536870911 : index
        vector.store %1522, %380[%1525] : memref<?xf32, #amdgpu.address_space<fat_raw_buffer>>, vector<1xf32>
        %1526 = vector.extract_strided_slice %344 {offsets = [8], sizes = [1], strides = [1]} : vector<16xf32> to vector<1xf32>
        %1527 = arith.andi %1494, %440 : i1
        %1528 = arith.addi %443, %271 overflow<nsw> : index
        %1529 = arith.select %1527, %1528, %c536870911 : index
        vector.store %1526, %380[%1529] : memref<?xf32, #amdgpu.address_space<fat_raw_buffer>>, vector<1xf32>
        %1530 = vector.extract_strided_slice %344 {offsets = [9], sizes = [1], strides = [1]} : vector<16xf32> to vector<1xf32>
        %1531 = arith.andi %1494, %448 : i1
        %1532 = arith.addi %451, %271 overflow<nsw> : index
        %1533 = arith.select %1531, %1532, %c536870911 : index
        vector.store %1530, %380[%1533] : memref<?xf32, #amdgpu.address_space<fat_raw_buffer>>, vector<1xf32>
        %1534 = vector.extract_strided_slice %344 {offsets = [10], sizes = [1], strides = [1]} : vector<16xf32> to vector<1xf32>
        %1535 = arith.andi %1494, %456 : i1
        %1536 = arith.addi %459, %271 overflow<nsw> : index
        %1537 = arith.select %1535, %1536, %c536870911 : index
        vector.store %1534, %380[%1537] : memref<?xf32, #amdgpu.address_space<fat_raw_buffer>>, vector<1xf32>
        %1538 = vector.extract_strided_slice %344 {offsets = [11], sizes = [1], strides = [1]} : vector<16xf32> to vector<1xf32>
        %1539 = arith.andi %1494, %464 : i1
        %1540 = arith.addi %467, %271 overflow<nsw> : index
        %1541 = arith.select %1539, %1540, %c536870911 : index
        vector.store %1538, %380[%1541] : memref<?xf32, #amdgpu.address_space<fat_raw_buffer>>, vector<1xf32>
        %1542 = vector.extract_strided_slice %344 {offsets = [12], sizes = [1], strides = [1]} : vector<16xf32> to vector<1xf32>
        %1543 = arith.andi %1494, %472 : i1
        %1544 = arith.addi %475, %271 overflow<nsw> : index
        %1545 = arith.select %1543, %1544, %c536870911 : index
        vector.store %1542, %380[%1545] : memref<?xf32, #amdgpu.address_space<fat_raw_buffer>>, vector<1xf32>
        %1546 = vector.extract_strided_slice %344 {offsets = [13], sizes = [1], strides = [1]} : vector<16xf32> to vector<1xf32>
        %1547 = arith.andi %1494, %480 : i1
        %1548 = arith.addi %483, %271 overflow<nsw> : index
        %1549 = arith.select %1547, %1548, %c536870911 : index
        vector.store %1546, %380[%1549] : memref<?xf32, #amdgpu.address_space<fat_raw_buffer>>, vector<1xf32>
        %1550 = vector.extract_strided_slice %344 {offsets = [14], sizes = [1], strides = [1]} : vector<16xf32> to vector<1xf32>
        %1551 = arith.andi %1494, %488 : i1
        %1552 = arith.addi %491, %271 overflow<nsw> : index
        %1553 = arith.select %1551, %1552, %c536870911 : index
        vector.store %1550, %380[%1553] : memref<?xf32, #amdgpu.address_space<fat_raw_buffer>>, vector<1xf32>
        %1554 = vector.extract_strided_slice %344 {offsets = [15], sizes = [1], strides = [1]} : vector<16xf32> to vector<1xf32>
        %1555 = arith.andi %1494, %496 : i1
        %1556 = arith.addi %499, %271 overflow<nsw> : index
        %1557 = arith.select %1555, %1556, %c536870911 : index
        vector.store %1554, %380[%1557] : memref<?xf32, #amdgpu.address_space<fat_raw_buffer>>, vector<1xf32>
        %1558 = vector.extract_strided_slice %346 {offsets = [0], sizes = [1], strides = [1]} : vector<16xf32> to vector<1xf32>
        %1559 = affine.apply #map103()[%thread_id_x, %block_id_y, %block_id_x, %2, %5, %thread_id_y]
        %1560 = arith.cmpi slt, %1559, %362 : index
        %1561 = arith.andi %1560, %370 : i1
        %1562 = arith.addi %376, %276 overflow<nsw> : index
        %1563 = arith.select %1561, %1562, %c536870911 : index
        vector.store %1558, %380[%1563] : memref<?xf32, #amdgpu.address_space<fat_raw_buffer>>, vector<1xf32>
        %1564 = vector.extract_strided_slice %346 {offsets = [1], sizes = [1], strides = [1]} : vector<16xf32> to vector<1xf32>
        %1565 = arith.andi %1560, %384 : i1
        %1566 = arith.addi %387, %276 overflow<nsw> : index
        %1567 = arith.select %1565, %1566, %c536870911 : index
        vector.store %1564, %380[%1567] : memref<?xf32, #amdgpu.address_space<fat_raw_buffer>>, vector<1xf32>
        %1568 = vector.extract_strided_slice %346 {offsets = [2], sizes = [1], strides = [1]} : vector<16xf32> to vector<1xf32>
        %1569 = arith.andi %1560, %392 : i1
        %1570 = arith.addi %395, %276 overflow<nsw> : index
        %1571 = arith.select %1569, %1570, %c536870911 : index
        vector.store %1568, %380[%1571] : memref<?xf32, #amdgpu.address_space<fat_raw_buffer>>, vector<1xf32>
        %1572 = vector.extract_strided_slice %346 {offsets = [3], sizes = [1], strides = [1]} : vector<16xf32> to vector<1xf32>
        %1573 = arith.andi %1560, %400 : i1
        %1574 = arith.addi %403, %276 overflow<nsw> : index
        %1575 = arith.select %1573, %1574, %c536870911 : index
        vector.store %1572, %380[%1575] : memref<?xf32, #amdgpu.address_space<fat_raw_buffer>>, vector<1xf32>
        %1576 = vector.extract_strided_slice %346 {offsets = [4], sizes = [1], strides = [1]} : vector<16xf32> to vector<1xf32>
        %1577 = arith.andi %1560, %408 : i1
        %1578 = arith.addi %411, %276 overflow<nsw> : index
        %1579 = arith.select %1577, %1578, %c536870911 : index
        vector.store %1576, %380[%1579] : memref<?xf32, #amdgpu.address_space<fat_raw_buffer>>, vector<1xf32>
        %1580 = vector.extract_strided_slice %346 {offsets = [5], sizes = [1], strides = [1]} : vector<16xf32> to vector<1xf32>
        %1581 = arith.andi %1560, %416 : i1
        %1582 = arith.addi %419, %276 overflow<nsw> : index
        %1583 = arith.select %1581, %1582, %c536870911 : index
        vector.store %1580, %380[%1583] : memref<?xf32, #amdgpu.address_space<fat_raw_buffer>>, vector<1xf32>
        %1584 = vector.extract_strided_slice %346 {offsets = [6], sizes = [1], strides = [1]} : vector<16xf32> to vector<1xf32>
        %1585 = arith.andi %1560, %424 : i1
        %1586 = arith.addi %427, %276 overflow<nsw> : index
        %1587 = arith.select %1585, %1586, %c536870911 : index
        vector.store %1584, %380[%1587] : memref<?xf32, #amdgpu.address_space<fat_raw_buffer>>, vector<1xf32>
        %1588 = vector.extract_strided_slice %346 {offsets = [7], sizes = [1], strides = [1]} : vector<16xf32> to vector<1xf32>
        %1589 = arith.andi %1560, %432 : i1
        %1590 = arith.addi %435, %276 overflow<nsw> : index
        %1591 = arith.select %1589, %1590, %c536870911 : index
        vector.store %1588, %380[%1591] : memref<?xf32, #amdgpu.address_space<fat_raw_buffer>>, vector<1xf32>
        %1592 = vector.extract_strided_slice %346 {offsets = [8], sizes = [1], strides = [1]} : vector<16xf32> to vector<1xf32>
        %1593 = arith.andi %1560, %440 : i1
        %1594 = arith.addi %443, %276 overflow<nsw> : index
        %1595 = arith.select %1593, %1594, %c536870911 : index
        vector.store %1592, %380[%1595] : memref<?xf32, #amdgpu.address_space<fat_raw_buffer>>, vector<1xf32>
        %1596 = vector.extract_strided_slice %346 {offsets = [9], sizes = [1], strides = [1]} : vector<16xf32> to vector<1xf32>
        %1597 = arith.andi %1560, %448 : i1
        %1598 = arith.addi %451, %276 overflow<nsw> : index
        %1599 = arith.select %1597, %1598, %c536870911 : index
        vector.store %1596, %380[%1599] : memref<?xf32, #amdgpu.address_space<fat_raw_buffer>>, vector<1xf32>
        %1600 = vector.extract_strided_slice %346 {offsets = [10], sizes = [1], strides = [1]} : vector<16xf32> to vector<1xf32>
        %1601 = arith.andi %1560, %456 : i1
        %1602 = arith.addi %459, %276 overflow<nsw> : index
        %1603 = arith.select %1601, %1602, %c536870911 : index
        vector.store %1600, %380[%1603] : memref<?xf32, #amdgpu.address_space<fat_raw_buffer>>, vector<1xf32>
        %1604 = vector.extract_strided_slice %346 {offsets = [11], sizes = [1], strides = [1]} : vector<16xf32> to vector<1xf32>
        %1605 = arith.andi %1560, %464 : i1
        %1606 = arith.addi %467, %276 overflow<nsw> : index
        %1607 = arith.select %1605, %1606, %c536870911 : index
        vector.store %1604, %380[%1607] : memref<?xf32, #amdgpu.address_space<fat_raw_buffer>>, vector<1xf32>
        %1608 = vector.extract_strided_slice %346 {offsets = [12], sizes = [1], strides = [1]} : vector<16xf32> to vector<1xf32>
        %1609 = arith.andi %1560, %472 : i1
        %1610 = arith.addi %475, %276 overflow<nsw> : index
        %1611 = arith.select %1609, %1610, %c536870911 : index
        vector.store %1608, %380[%1611] : memref<?xf32, #amdgpu.address_space<fat_raw_buffer>>, vector<1xf32>
        %1612 = vector.extract_strided_slice %346 {offsets = [13], sizes = [1], strides = [1]} : vector<16xf32> to vector<1xf32>
        %1613 = arith.andi %1560, %480 : i1
        %1614 = arith.addi %483, %276 overflow<nsw> : index
        %1615 = arith.select %1613, %1614, %c536870911 : index
        vector.store %1612, %380[%1615] : memref<?xf32, #amdgpu.address_space<fat_raw_buffer>>, vector<1xf32>
        %1616 = vector.extract_strided_slice %346 {offsets = [14], sizes = [1], strides = [1]} : vector<16xf32> to vector<1xf32>
        %1617 = arith.andi %1560, %488 : i1
        %1618 = arith.addi %491, %276 overflow<nsw> : index
        %1619 = arith.select %1617, %1618, %c536870911 : index
        vector.store %1616, %380[%1619] : memref<?xf32, #amdgpu.address_space<fat_raw_buffer>>, vector<1xf32>
        %1620 = vector.extract_strided_slice %346 {offsets = [15], sizes = [1], strides = [1]} : vector<16xf32> to vector<1xf32>
        %1621 = arith.andi %1560, %496 : i1
        %1622 = arith.addi %499, %276 overflow<nsw> : index
        %1623 = arith.select %1621, %1622, %c536870911 : index
        vector.store %1620, %380[%1623] : memref<?xf32, #amdgpu.address_space<fat_raw_buffer>>, vector<1xf32>
        %1624 = vector.extract_strided_slice %348 {offsets = [0], sizes = [1], strides = [1]} : vector<16xf32> to vector<1xf32>
        %1625 = affine.apply #map104()[%thread_id_x, %block_id_y, %block_id_x, %2, %5, %thread_id_y]
        %1626 = arith.cmpi slt, %1625, %362 : index
        %1627 = arith.andi %1626, %370 : i1
        %1628 = arith.addi %376, %281 overflow<nsw> : index
        %1629 = arith.select %1627, %1628, %c536870911 : index
        vector.store %1624, %380[%1629] : memref<?xf32, #amdgpu.address_space<fat_raw_buffer>>, vector<1xf32>
        %1630 = vector.extract_strided_slice %348 {offsets = [1], sizes = [1], strides = [1]} : vector<16xf32> to vector<1xf32>
        %1631 = arith.andi %1626, %384 : i1
        %1632 = arith.addi %387, %281 overflow<nsw> : index
        %1633 = arith.select %1631, %1632, %c536870911 : index
        vector.store %1630, %380[%1633] : memref<?xf32, #amdgpu.address_space<fat_raw_buffer>>, vector<1xf32>
        %1634 = vector.extract_strided_slice %348 {offsets = [2], sizes = [1], strides = [1]} : vector<16xf32> to vector<1xf32>
        %1635 = arith.andi %1626, %392 : i1
        %1636 = arith.addi %395, %281 overflow<nsw> : index
        %1637 = arith.select %1635, %1636, %c536870911 : index
        vector.store %1634, %380[%1637] : memref<?xf32, #amdgpu.address_space<fat_raw_buffer>>, vector<1xf32>
        %1638 = vector.extract_strided_slice %348 {offsets = [3], sizes = [1], strides = [1]} : vector<16xf32> to vector<1xf32>
        %1639 = arith.andi %1626, %400 : i1
        %1640 = arith.addi %403, %281 overflow<nsw> : index
        %1641 = arith.select %1639, %1640, %c536870911 : index
        vector.store %1638, %380[%1641] : memref<?xf32, #amdgpu.address_space<fat_raw_buffer>>, vector<1xf32>
        %1642 = vector.extract_strided_slice %348 {offsets = [4], sizes = [1], strides = [1]} : vector<16xf32> to vector<1xf32>
        %1643 = arith.andi %1626, %408 : i1
        %1644 = arith.addi %411, %281 overflow<nsw> : index
        %1645 = arith.select %1643, %1644, %c536870911 : index
        vector.store %1642, %380[%1645] : memref<?xf32, #amdgpu.address_space<fat_raw_buffer>>, vector<1xf32>
        %1646 = vector.extract_strided_slice %348 {offsets = [5], sizes = [1], strides = [1]} : vector<16xf32> to vector<1xf32>
        %1647 = arith.andi %1626, %416 : i1
        %1648 = arith.addi %419, %281 overflow<nsw> : index
        %1649 = arith.select %1647, %1648, %c536870911 : index
        vector.store %1646, %380[%1649] : memref<?xf32, #amdgpu.address_space<fat_raw_buffer>>, vector<1xf32>
        %1650 = vector.extract_strided_slice %348 {offsets = [6], sizes = [1], strides = [1]} : vector<16xf32> to vector<1xf32>
        %1651 = arith.andi %1626, %424 : i1
        %1652 = arith.addi %427, %281 overflow<nsw> : index
        %1653 = arith.select %1651, %1652, %c536870911 : index
        vector.store %1650, %380[%1653] : memref<?xf32, #amdgpu.address_space<fat_raw_buffer>>, vector<1xf32>
        %1654 = vector.extract_strided_slice %348 {offsets = [7], sizes = [1], strides = [1]} : vector<16xf32> to vector<1xf32>
        %1655 = arith.andi %1626, %432 : i1
        %1656 = arith.addi %435, %281 overflow<nsw> : index
        %1657 = arith.select %1655, %1656, %c536870911 : index
        vector.store %1654, %380[%1657] : memref<?xf32, #amdgpu.address_space<fat_raw_buffer>>, vector<1xf32>
        %1658 = vector.extract_strided_slice %348 {offsets = [8], sizes = [1], strides = [1]} : vector<16xf32> to vector<1xf32>
        %1659 = arith.andi %1626, %440 : i1
        %1660 = arith.addi %443, %281 overflow<nsw> : index
        %1661 = arith.select %1659, %1660, %c536870911 : index
        vector.store %1658, %380[%1661] : memref<?xf32, #amdgpu.address_space<fat_raw_buffer>>, vector<1xf32>
        %1662 = vector.extract_strided_slice %348 {offsets = [9], sizes = [1], strides = [1]} : vector<16xf32> to vector<1xf32>
        %1663 = arith.andi %1626, %448 : i1
        %1664 = arith.addi %451, %281 overflow<nsw> : index
        %1665 = arith.select %1663, %1664, %c536870911 : index
        vector.store %1662, %380[%1665] : memref<?xf32, #amdgpu.address_space<fat_raw_buffer>>, vector<1xf32>
        %1666 = vector.extract_strided_slice %348 {offsets = [10], sizes = [1], strides = [1]} : vector<16xf32> to vector<1xf32>
        %1667 = arith.andi %1626, %456 : i1
        %1668 = arith.addi %459, %281 overflow<nsw> : index
        %1669 = arith.select %1667, %1668, %c536870911 : index
        vector.store %1666, %380[%1669] : memref<?xf32, #amdgpu.address_space<fat_raw_buffer>>, vector<1xf32>
        %1670 = vector.extract_strided_slice %348 {offsets = [11], sizes = [1], strides = [1]} : vector<16xf32> to vector<1xf32>
        %1671 = arith.andi %1626, %464 : i1
        %1672 = arith.addi %467, %281 overflow<nsw> : index
        %1673 = arith.select %1671, %1672, %c536870911 : index
        vector.store %1670, %380[%1673] : memref<?xf32, #amdgpu.address_space<fat_raw_buffer>>, vector<1xf32>
        %1674 = vector.extract_strided_slice %348 {offsets = [12], sizes = [1], strides = [1]} : vector<16xf32> to vector<1xf32>
        %1675 = arith.andi %1626, %472 : i1
        %1676 = arith.addi %475, %281 overflow<nsw> : index
        %1677 = arith.select %1675, %1676, %c536870911 : index
        vector.store %1674, %380[%1677] : memref<?xf32, #amdgpu.address_space<fat_raw_buffer>>, vector<1xf32>
        %1678 = vector.extract_strided_slice %348 {offsets = [13], sizes = [1], strides = [1]} : vector<16xf32> to vector<1xf32>
        %1679 = arith.andi %1626, %480 : i1
        %1680 = arith.addi %483, %281 overflow<nsw> : index
        %1681 = arith.select %1679, %1680, %c536870911 : index
        vector.store %1678, %380[%1681] : memref<?xf32, #amdgpu.address_space<fat_raw_buffer>>, vector<1xf32>
        %1682 = vector.extract_strided_slice %348 {offsets = [14], sizes = [1], strides = [1]} : vector<16xf32> to vector<1xf32>
        %1683 = arith.andi %1626, %488 : i1
        %1684 = arith.addi %491, %281 overflow<nsw> : index
        %1685 = arith.select %1683, %1684, %c536870911 : index
        vector.store %1682, %380[%1685] : memref<?xf32, #amdgpu.address_space<fat_raw_buffer>>, vector<1xf32>
        %1686 = vector.extract_strided_slice %348 {offsets = [15], sizes = [1], strides = [1]} : vector<16xf32> to vector<1xf32>
        %1687 = arith.andi %1626, %496 : i1
        %1688 = arith.addi %499, %281 overflow<nsw> : index
        %1689 = arith.select %1687, %1688, %c536870911 : index
        vector.store %1686, %380[%1689] : memref<?xf32, #amdgpu.address_space<fat_raw_buffer>>, vector<1xf32>
        %1690 = vector.extract_strided_slice %350 {offsets = [0], sizes = [1], strides = [1]} : vector<16xf32> to vector<1xf32>
        %1691 = affine.apply #map105()[%thread_id_x, %block_id_y, %block_id_x, %2, %5, %thread_id_y]
        %1692 = arith.cmpi slt, %1691, %362 : index
        %1693 = arith.andi %1692, %370 : i1
        %1694 = arith.addi %376, %286 overflow<nsw> : index
        %1695 = arith.select %1693, %1694, %c536870911 : index
        vector.store %1690, %380[%1695] : memref<?xf32, #amdgpu.address_space<fat_raw_buffer>>, vector<1xf32>
        %1696 = vector.extract_strided_slice %350 {offsets = [1], sizes = [1], strides = [1]} : vector<16xf32> to vector<1xf32>
        %1697 = arith.andi %1692, %384 : i1
        %1698 = arith.addi %387, %286 overflow<nsw> : index
        %1699 = arith.select %1697, %1698, %c536870911 : index
        vector.store %1696, %380[%1699] : memref<?xf32, #amdgpu.address_space<fat_raw_buffer>>, vector<1xf32>
        %1700 = vector.extract_strided_slice %350 {offsets = [2], sizes = [1], strides = [1]} : vector<16xf32> to vector<1xf32>
        %1701 = arith.andi %1692, %392 : i1
        %1702 = arith.addi %395, %286 overflow<nsw> : index
        %1703 = arith.select %1701, %1702, %c536870911 : index
        vector.store %1700, %380[%1703] : memref<?xf32, #amdgpu.address_space<fat_raw_buffer>>, vector<1xf32>
        %1704 = vector.extract_strided_slice %350 {offsets = [3], sizes = [1], strides = [1]} : vector<16xf32> to vector<1xf32>
        %1705 = arith.andi %1692, %400 : i1
        %1706 = arith.addi %403, %286 overflow<nsw> : index
        %1707 = arith.select %1705, %1706, %c536870911 : index
        vector.store %1704, %380[%1707] : memref<?xf32, #amdgpu.address_space<fat_raw_buffer>>, vector<1xf32>
        %1708 = vector.extract_strided_slice %350 {offsets = [4], sizes = [1], strides = [1]} : vector<16xf32> to vector<1xf32>
        %1709 = arith.andi %1692, %408 : i1
        %1710 = arith.addi %411, %286 overflow<nsw> : index
        %1711 = arith.select %1709, %1710, %c536870911 : index
        vector.store %1708, %380[%1711] : memref<?xf32, #amdgpu.address_space<fat_raw_buffer>>, vector<1xf32>
        %1712 = vector.extract_strided_slice %350 {offsets = [5], sizes = [1], strides = [1]} : vector<16xf32> to vector<1xf32>
        %1713 = arith.andi %1692, %416 : i1
        %1714 = arith.addi %419, %286 overflow<nsw> : index
        %1715 = arith.select %1713, %1714, %c536870911 : index
        vector.store %1712, %380[%1715] : memref<?xf32, #amdgpu.address_space<fat_raw_buffer>>, vector<1xf32>
        %1716 = vector.extract_strided_slice %350 {offsets = [6], sizes = [1], strides = [1]} : vector<16xf32> to vector<1xf32>
        %1717 = arith.andi %1692, %424 : i1
        %1718 = arith.addi %427, %286 overflow<nsw> : index
        %1719 = arith.select %1717, %1718, %c536870911 : index
        vector.store %1716, %380[%1719] : memref<?xf32, #amdgpu.address_space<fat_raw_buffer>>, vector<1xf32>
        %1720 = vector.extract_strided_slice %350 {offsets = [7], sizes = [1], strides = [1]} : vector<16xf32> to vector<1xf32>
        %1721 = arith.andi %1692, %432 : i1
        %1722 = arith.addi %435, %286 overflow<nsw> : index
        %1723 = arith.select %1721, %1722, %c536870911 : index
        vector.store %1720, %380[%1723] : memref<?xf32, #amdgpu.address_space<fat_raw_buffer>>, vector<1xf32>
        %1724 = vector.extract_strided_slice %350 {offsets = [8], sizes = [1], strides = [1]} : vector<16xf32> to vector<1xf32>
        %1725 = arith.andi %1692, %440 : i1
        %1726 = arith.addi %443, %286 overflow<nsw> : index
        %1727 = arith.select %1725, %1726, %c536870911 : index
        vector.store %1724, %380[%1727] : memref<?xf32, #amdgpu.address_space<fat_raw_buffer>>, vector<1xf32>
        %1728 = vector.extract_strided_slice %350 {offsets = [9], sizes = [1], strides = [1]} : vector<16xf32> to vector<1xf32>
        %1729 = arith.andi %1692, %448 : i1
        %1730 = arith.addi %451, %286 overflow<nsw> : index
        %1731 = arith.select %1729, %1730, %c536870911 : index
        vector.store %1728, %380[%1731] : memref<?xf32, #amdgpu.address_space<fat_raw_buffer>>, vector<1xf32>
        %1732 = vector.extract_strided_slice %350 {offsets = [10], sizes = [1], strides = [1]} : vector<16xf32> to vector<1xf32>
        %1733 = arith.andi %1692, %456 : i1
        %1734 = arith.addi %459, %286 overflow<nsw> : index
        %1735 = arith.select %1733, %1734, %c536870911 : index
        vector.store %1732, %380[%1735] : memref<?xf32, #amdgpu.address_space<fat_raw_buffer>>, vector<1xf32>
        %1736 = vector.extract_strided_slice %350 {offsets = [11], sizes = [1], strides = [1]} : vector<16xf32> to vector<1xf32>
        %1737 = arith.andi %1692, %464 : i1
        %1738 = arith.addi %467, %286 overflow<nsw> : index
        %1739 = arith.select %1737, %1738, %c536870911 : index
        vector.store %1736, %380[%1739] : memref<?xf32, #amdgpu.address_space<fat_raw_buffer>>, vector<1xf32>
        %1740 = vector.extract_strided_slice %350 {offsets = [12], sizes = [1], strides = [1]} : vector<16xf32> to vector<1xf32>
        %1741 = arith.andi %1692, %472 : i1
        %1742 = arith.addi %475, %286 overflow<nsw> : index
        %1743 = arith.select %1741, %1742, %c536870911 : index
        vector.store %1740, %380[%1743] : memref<?xf32, #amdgpu.address_space<fat_raw_buffer>>, vector<1xf32>
        %1744 = vector.extract_strided_slice %350 {offsets = [13], sizes = [1], strides = [1]} : vector<16xf32> to vector<1xf32>
        %1745 = arith.andi %1692, %480 : i1
        %1746 = arith.addi %483, %286 overflow<nsw> : index
        %1747 = arith.select %1745, %1746, %c536870911 : index
        vector.store %1744, %380[%1747] : memref<?xf32, #amdgpu.address_space<fat_raw_buffer>>, vector<1xf32>
        %1748 = vector.extract_strided_slice %350 {offsets = [14], sizes = [1], strides = [1]} : vector<16xf32> to vector<1xf32>
        %1749 = arith.andi %1692, %488 : i1
        %1750 = arith.addi %491, %286 overflow<nsw> : index
        %1751 = arith.select %1749, %1750, %c536870911 : index
        vector.store %1748, %380[%1751] : memref<?xf32, #amdgpu.address_space<fat_raw_buffer>>, vector<1xf32>
        %1752 = vector.extract_strided_slice %350 {offsets = [15], sizes = [1], strides = [1]} : vector<16xf32> to vector<1xf32>
        %1753 = arith.andi %1692, %496 : i1
        %1754 = arith.addi %499, %286 overflow<nsw> : index
        %1755 = arith.select %1753, %1754, %c536870911 : index
        vector.store %1752, %380[%1755] : memref<?xf32, #amdgpu.address_space<fat_raw_buffer>>, vector<1xf32>
        %1756 = vector.extract_strided_slice %352 {offsets = [0], sizes = [1], strides = [1]} : vector<16xf32> to vector<1xf32>
        %1757 = affine.apply #map106()[%thread_id_x, %block_id_y, %block_id_x, %2, %5, %thread_id_y]
        %1758 = arith.cmpi slt, %1757, %362 : index
        %1759 = arith.andi %1758, %370 : i1
        %1760 = arith.addi %376, %291 overflow<nsw> : index
        %1761 = arith.select %1759, %1760, %c536870911 : index
        vector.store %1756, %380[%1761] : memref<?xf32, #amdgpu.address_space<fat_raw_buffer>>, vector<1xf32>
        %1762 = vector.extract_strided_slice %352 {offsets = [1], sizes = [1], strides = [1]} : vector<16xf32> to vector<1xf32>
        %1763 = arith.andi %1758, %384 : i1
        %1764 = arith.addi %387, %291 overflow<nsw> : index
        %1765 = arith.select %1763, %1764, %c536870911 : index
        vector.store %1762, %380[%1765] : memref<?xf32, #amdgpu.address_space<fat_raw_buffer>>, vector<1xf32>
        %1766 = vector.extract_strided_slice %352 {offsets = [2], sizes = [1], strides = [1]} : vector<16xf32> to vector<1xf32>
        %1767 = arith.andi %1758, %392 : i1
        %1768 = arith.addi %395, %291 overflow<nsw> : index
        %1769 = arith.select %1767, %1768, %c536870911 : index
        vector.store %1766, %380[%1769] : memref<?xf32, #amdgpu.address_space<fat_raw_buffer>>, vector<1xf32>
        %1770 = vector.extract_strided_slice %352 {offsets = [3], sizes = [1], strides = [1]} : vector<16xf32> to vector<1xf32>
        %1771 = arith.andi %1758, %400 : i1
        %1772 = arith.addi %403, %291 overflow<nsw> : index
        %1773 = arith.select %1771, %1772, %c536870911 : index
        vector.store %1770, %380[%1773] : memref<?xf32, #amdgpu.address_space<fat_raw_buffer>>, vector<1xf32>
        %1774 = vector.extract_strided_slice %352 {offsets = [4], sizes = [1], strides = [1]} : vector<16xf32> to vector<1xf32>
        %1775 = arith.andi %1758, %408 : i1
        %1776 = arith.addi %411, %291 overflow<nsw> : index
        %1777 = arith.select %1775, %1776, %c536870911 : index
        vector.store %1774, %380[%1777] : memref<?xf32, #amdgpu.address_space<fat_raw_buffer>>, vector<1xf32>
        %1778 = vector.extract_strided_slice %352 {offsets = [5], sizes = [1], strides = [1]} : vector<16xf32> to vector<1xf32>
        %1779 = arith.andi %1758, %416 : i1
        %1780 = arith.addi %419, %291 overflow<nsw> : index
        %1781 = arith.select %1779, %1780, %c536870911 : index
        vector.store %1778, %380[%1781] : memref<?xf32, #amdgpu.address_space<fat_raw_buffer>>, vector<1xf32>
        %1782 = vector.extract_strided_slice %352 {offsets = [6], sizes = [1], strides = [1]} : vector<16xf32> to vector<1xf32>
        %1783 = arith.andi %1758, %424 : i1
        %1784 = arith.addi %427, %291 overflow<nsw> : index
        %1785 = arith.select %1783, %1784, %c536870911 : index
        vector.store %1782, %380[%1785] : memref<?xf32, #amdgpu.address_space<fat_raw_buffer>>, vector<1xf32>
        %1786 = vector.extract_strided_slice %352 {offsets = [7], sizes = [1], strides = [1]} : vector<16xf32> to vector<1xf32>
        %1787 = arith.andi %1758, %432 : i1
        %1788 = arith.addi %435, %291 overflow<nsw> : index
        %1789 = arith.select %1787, %1788, %c536870911 : index
        vector.store %1786, %380[%1789] : memref<?xf32, #amdgpu.address_space<fat_raw_buffer>>, vector<1xf32>
        %1790 = vector.extract_strided_slice %352 {offsets = [8], sizes = [1], strides = [1]} : vector<16xf32> to vector<1xf32>
        %1791 = arith.andi %1758, %440 : i1
        %1792 = arith.addi %443, %291 overflow<nsw> : index
        %1793 = arith.select %1791, %1792, %c536870911 : index
        vector.store %1790, %380[%1793] : memref<?xf32, #amdgpu.address_space<fat_raw_buffer>>, vector<1xf32>
        %1794 = vector.extract_strided_slice %352 {offsets = [9], sizes = [1], strides = [1]} : vector<16xf32> to vector<1xf32>
        %1795 = arith.andi %1758, %448 : i1
        %1796 = arith.addi %451, %291 overflow<nsw> : index
        %1797 = arith.select %1795, %1796, %c536870911 : index
        vector.store %1794, %380[%1797] : memref<?xf32, #amdgpu.address_space<fat_raw_buffer>>, vector<1xf32>
        %1798 = vector.extract_strided_slice %352 {offsets = [10], sizes = [1], strides = [1]} : vector<16xf32> to vector<1xf32>
        %1799 = arith.andi %1758, %456 : i1
        %1800 = arith.addi %459, %291 overflow<nsw> : index
        %1801 = arith.select %1799, %1800, %c536870911 : index
        vector.store %1798, %380[%1801] : memref<?xf32, #amdgpu.address_space<fat_raw_buffer>>, vector<1xf32>
        %1802 = vector.extract_strided_slice %352 {offsets = [11], sizes = [1], strides = [1]} : vector<16xf32> to vector<1xf32>
        %1803 = arith.andi %1758, %464 : i1
        %1804 = arith.addi %467, %291 overflow<nsw> : index
        %1805 = arith.select %1803, %1804, %c536870911 : index
        vector.store %1802, %380[%1805] : memref<?xf32, #amdgpu.address_space<fat_raw_buffer>>, vector<1xf32>
        %1806 = vector.extract_strided_slice %352 {offsets = [12], sizes = [1], strides = [1]} : vector<16xf32> to vector<1xf32>
        %1807 = arith.andi %1758, %472 : i1
        %1808 = arith.addi %475, %291 overflow<nsw> : index
        %1809 = arith.select %1807, %1808, %c536870911 : index
        vector.store %1806, %380[%1809] : memref<?xf32, #amdgpu.address_space<fat_raw_buffer>>, vector<1xf32>
        %1810 = vector.extract_strided_slice %352 {offsets = [13], sizes = [1], strides = [1]} : vector<16xf32> to vector<1xf32>
        %1811 = arith.andi %1758, %480 : i1
        %1812 = arith.addi %483, %291 overflow<nsw> : index
        %1813 = arith.select %1811, %1812, %c536870911 : index
        vector.store %1810, %380[%1813] : memref<?xf32, #amdgpu.address_space<fat_raw_buffer>>, vector<1xf32>
        %1814 = vector.extract_strided_slice %352 {offsets = [14], sizes = [1], strides = [1]} : vector<16xf32> to vector<1xf32>
        %1815 = arith.andi %1758, %488 : i1
        %1816 = arith.addi %491, %291 overflow<nsw> : index
        %1817 = arith.select %1815, %1816, %c536870911 : index
        vector.store %1814, %380[%1817] : memref<?xf32, #amdgpu.address_space<fat_raw_buffer>>, vector<1xf32>
        %1818 = vector.extract_strided_slice %352 {offsets = [15], sizes = [1], strides = [1]} : vector<16xf32> to vector<1xf32>
        %1819 = arith.andi %1758, %496 : i1
        %1820 = arith.addi %499, %291 overflow<nsw> : index
        %1821 = arith.select %1819, %1820, %c536870911 : index
        vector.store %1818, %380[%1821] : memref<?xf32, #amdgpu.address_space<fat_raw_buffer>>, vector<1xf32>
        %1822 = vector.extract_strided_slice %354 {offsets = [0], sizes = [1], strides = [1]} : vector<16xf32> to vector<1xf32>
        %1823 = affine.apply #map107()[%thread_id_x, %block_id_y, %block_id_x, %2, %5, %thread_id_y]
        %1824 = arith.cmpi slt, %1823, %362 : index
        %1825 = arith.andi %1824, %370 : i1
        %1826 = arith.addi %376, %296 overflow<nsw> : index
        %1827 = arith.select %1825, %1826, %c536870911 : index
        vector.store %1822, %380[%1827] : memref<?xf32, #amdgpu.address_space<fat_raw_buffer>>, vector<1xf32>
        %1828 = vector.extract_strided_slice %354 {offsets = [1], sizes = [1], strides = [1]} : vector<16xf32> to vector<1xf32>
        %1829 = arith.andi %1824, %384 : i1
        %1830 = arith.addi %387, %296 overflow<nsw> : index
        %1831 = arith.select %1829, %1830, %c536870911 : index
        vector.store %1828, %380[%1831] : memref<?xf32, #amdgpu.address_space<fat_raw_buffer>>, vector<1xf32>
        %1832 = vector.extract_strided_slice %354 {offsets = [2], sizes = [1], strides = [1]} : vector<16xf32> to vector<1xf32>
        %1833 = arith.andi %1824, %392 : i1
        %1834 = arith.addi %395, %296 overflow<nsw> : index
        %1835 = arith.select %1833, %1834, %c536870911 : index
        vector.store %1832, %380[%1835] : memref<?xf32, #amdgpu.address_space<fat_raw_buffer>>, vector<1xf32>
        %1836 = vector.extract_strided_slice %354 {offsets = [3], sizes = [1], strides = [1]} : vector<16xf32> to vector<1xf32>
        %1837 = arith.andi %1824, %400 : i1
        %1838 = arith.addi %403, %296 overflow<nsw> : index
        %1839 = arith.select %1837, %1838, %c536870911 : index
        vector.store %1836, %380[%1839] : memref<?xf32, #amdgpu.address_space<fat_raw_buffer>>, vector<1xf32>
        %1840 = vector.extract_strided_slice %354 {offsets = [4], sizes = [1], strides = [1]} : vector<16xf32> to vector<1xf32>
        %1841 = arith.andi %1824, %408 : i1
        %1842 = arith.addi %411, %296 overflow<nsw> : index
        %1843 = arith.select %1841, %1842, %c536870911 : index
        vector.store %1840, %380[%1843] : memref<?xf32, #amdgpu.address_space<fat_raw_buffer>>, vector<1xf32>
        %1844 = vector.extract_strided_slice %354 {offsets = [5], sizes = [1], strides = [1]} : vector<16xf32> to vector<1xf32>
        %1845 = arith.andi %1824, %416 : i1
        %1846 = arith.addi %419, %296 overflow<nsw> : index
        %1847 = arith.select %1845, %1846, %c536870911 : index
        vector.store %1844, %380[%1847] : memref<?xf32, #amdgpu.address_space<fat_raw_buffer>>, vector<1xf32>
        %1848 = vector.extract_strided_slice %354 {offsets = [6], sizes = [1], strides = [1]} : vector<16xf32> to vector<1xf32>
        %1849 = arith.andi %1824, %424 : i1
        %1850 = arith.addi %427, %296 overflow<nsw> : index
        %1851 = arith.select %1849, %1850, %c536870911 : index
        vector.store %1848, %380[%1851] : memref<?xf32, #amdgpu.address_space<fat_raw_buffer>>, vector<1xf32>
        %1852 = vector.extract_strided_slice %354 {offsets = [7], sizes = [1], strides = [1]} : vector<16xf32> to vector<1xf32>
        %1853 = arith.andi %1824, %432 : i1
        %1854 = arith.addi %435, %296 overflow<nsw> : index
        %1855 = arith.select %1853, %1854, %c536870911 : index
        vector.store %1852, %380[%1855] : memref<?xf32, #amdgpu.address_space<fat_raw_buffer>>, vector<1xf32>
        %1856 = vector.extract_strided_slice %354 {offsets = [8], sizes = [1], strides = [1]} : vector<16xf32> to vector<1xf32>
        %1857 = arith.andi %1824, %440 : i1
        %1858 = arith.addi %443, %296 overflow<nsw> : index
        %1859 = arith.select %1857, %1858, %c536870911 : index
        vector.store %1856, %380[%1859] : memref<?xf32, #amdgpu.address_space<fat_raw_buffer>>, vector<1xf32>
        %1860 = vector.extract_strided_slice %354 {offsets = [9], sizes = [1], strides = [1]} : vector<16xf32> to vector<1xf32>
        %1861 = arith.andi %1824, %448 : i1
        %1862 = arith.addi %451, %296 overflow<nsw> : index
        %1863 = arith.select %1861, %1862, %c536870911 : index
        vector.store %1860, %380[%1863] : memref<?xf32, #amdgpu.address_space<fat_raw_buffer>>, vector<1xf32>
        %1864 = vector.extract_strided_slice %354 {offsets = [10], sizes = [1], strides = [1]} : vector<16xf32> to vector<1xf32>
        %1865 = arith.andi %1824, %456 : i1
        %1866 = arith.addi %459, %296 overflow<nsw> : index
        %1867 = arith.select %1865, %1866, %c536870911 : index
        vector.store %1864, %380[%1867] : memref<?xf32, #amdgpu.address_space<fat_raw_buffer>>, vector<1xf32>
        %1868 = vector.extract_strided_slice %354 {offsets = [11], sizes = [1], strides = [1]} : vector<16xf32> to vector<1xf32>
        %1869 = arith.andi %1824, %464 : i1
        %1870 = arith.addi %467, %296 overflow<nsw> : index
        %1871 = arith.select %1869, %1870, %c536870911 : index
        vector.store %1868, %380[%1871] : memref<?xf32, #amdgpu.address_space<fat_raw_buffer>>, vector<1xf32>
        %1872 = vector.extract_strided_slice %354 {offsets = [12], sizes = [1], strides = [1]} : vector<16xf32> to vector<1xf32>
        %1873 = arith.andi %1824, %472 : i1
        %1874 = arith.addi %475, %296 overflow<nsw> : index
        %1875 = arith.select %1873, %1874, %c536870911 : index
        vector.store %1872, %380[%1875] : memref<?xf32, #amdgpu.address_space<fat_raw_buffer>>, vector<1xf32>
        %1876 = vector.extract_strided_slice %354 {offsets = [13], sizes = [1], strides = [1]} : vector<16xf32> to vector<1xf32>
        %1877 = arith.andi %1824, %480 : i1
        %1878 = arith.addi %483, %296 overflow<nsw> : index
        %1879 = arith.select %1877, %1878, %c536870911 : index
        vector.store %1876, %380[%1879] : memref<?xf32, #amdgpu.address_space<fat_raw_buffer>>, vector<1xf32>
        %1880 = vector.extract_strided_slice %354 {offsets = [14], sizes = [1], strides = [1]} : vector<16xf32> to vector<1xf32>
        %1881 = arith.andi %1824, %488 : i1
        %1882 = arith.addi %491, %296 overflow<nsw> : index
        %1883 = arith.select %1881, %1882, %c536870911 : index
        vector.store %1880, %380[%1883] : memref<?xf32, #amdgpu.address_space<fat_raw_buffer>>, vector<1xf32>
        %1884 = vector.extract_strided_slice %354 {offsets = [15], sizes = [1], strides = [1]} : vector<16xf32> to vector<1xf32>
        %1885 = arith.andi %1824, %496 : i1
        %1886 = arith.addi %499, %296 overflow<nsw> : index
        %1887 = arith.select %1885, %1886, %c536870911 : index
        vector.store %1884, %380[%1887] : memref<?xf32, #amdgpu.address_space<fat_raw_buffer>>, vector<1xf32>
        %1888 = vector.extract_strided_slice %356 {offsets = [0], sizes = [1], strides = [1]} : vector<16xf32> to vector<1xf32>
        %1889 = affine.apply #map108()[%thread_id_x, %block_id_y, %block_id_x, %2, %5, %thread_id_y]
        %1890 = arith.cmpi slt, %1889, %362 : index
        %1891 = arith.andi %1890, %370 : i1
        %1892 = arith.addi %376, %301 overflow<nsw> : index
        %1893 = arith.select %1891, %1892, %c536870911 : index
        vector.store %1888, %380[%1893] : memref<?xf32, #amdgpu.address_space<fat_raw_buffer>>, vector<1xf32>
        %1894 = vector.extract_strided_slice %356 {offsets = [1], sizes = [1], strides = [1]} : vector<16xf32> to vector<1xf32>
        %1895 = arith.andi %1890, %384 : i1
        %1896 = arith.addi %387, %301 overflow<nsw> : index
        %1897 = arith.select %1895, %1896, %c536870911 : index
        vector.store %1894, %380[%1897] : memref<?xf32, #amdgpu.address_space<fat_raw_buffer>>, vector<1xf32>
        %1898 = vector.extract_strided_slice %356 {offsets = [2], sizes = [1], strides = [1]} : vector<16xf32> to vector<1xf32>
        %1899 = arith.andi %1890, %392 : i1
        %1900 = arith.addi %395, %301 overflow<nsw> : index
        %1901 = arith.select %1899, %1900, %c536870911 : index
        vector.store %1898, %380[%1901] : memref<?xf32, #amdgpu.address_space<fat_raw_buffer>>, vector<1xf32>
        %1902 = vector.extract_strided_slice %356 {offsets = [3], sizes = [1], strides = [1]} : vector<16xf32> to vector<1xf32>
        %1903 = arith.andi %1890, %400 : i1
        %1904 = arith.addi %403, %301 overflow<nsw> : index
        %1905 = arith.select %1903, %1904, %c536870911 : index
        vector.store %1902, %380[%1905] : memref<?xf32, #amdgpu.address_space<fat_raw_buffer>>, vector<1xf32>
        %1906 = vector.extract_strided_slice %356 {offsets = [4], sizes = [1], strides = [1]} : vector<16xf32> to vector<1xf32>
        %1907 = arith.andi %1890, %408 : i1
        %1908 = arith.addi %411, %301 overflow<nsw> : index
        %1909 = arith.select %1907, %1908, %c536870911 : index
        vector.store %1906, %380[%1909] : memref<?xf32, #amdgpu.address_space<fat_raw_buffer>>, vector<1xf32>
        %1910 = vector.extract_strided_slice %356 {offsets = [5], sizes = [1], strides = [1]} : vector<16xf32> to vector<1xf32>
        %1911 = arith.andi %1890, %416 : i1
        %1912 = arith.addi %419, %301 overflow<nsw> : index
        %1913 = arith.select %1911, %1912, %c536870911 : index
        vector.store %1910, %380[%1913] : memref<?xf32, #amdgpu.address_space<fat_raw_buffer>>, vector<1xf32>
        %1914 = vector.extract_strided_slice %356 {offsets = [6], sizes = [1], strides = [1]} : vector<16xf32> to vector<1xf32>
        %1915 = arith.andi %1890, %424 : i1
        %1916 = arith.addi %427, %301 overflow<nsw> : index
        %1917 = arith.select %1915, %1916, %c536870911 : index
        vector.store %1914, %380[%1917] : memref<?xf32, #amdgpu.address_space<fat_raw_buffer>>, vector<1xf32>
        %1918 = vector.extract_strided_slice %356 {offsets = [7], sizes = [1], strides = [1]} : vector<16xf32> to vector<1xf32>
        %1919 = arith.andi %1890, %432 : i1
        %1920 = arith.addi %435, %301 overflow<nsw> : index
        %1921 = arith.select %1919, %1920, %c536870911 : index
        vector.store %1918, %380[%1921] : memref<?xf32, #amdgpu.address_space<fat_raw_buffer>>, vector<1xf32>
        %1922 = vector.extract_strided_slice %356 {offsets = [8], sizes = [1], strides = [1]} : vector<16xf32> to vector<1xf32>
        %1923 = arith.andi %1890, %440 : i1
        %1924 = arith.addi %443, %301 overflow<nsw> : index
        %1925 = arith.select %1923, %1924, %c536870911 : index
        vector.store %1922, %380[%1925] : memref<?xf32, #amdgpu.address_space<fat_raw_buffer>>, vector<1xf32>
        %1926 = vector.extract_strided_slice %356 {offsets = [9], sizes = [1], strides = [1]} : vector<16xf32> to vector<1xf32>
        %1927 = arith.andi %1890, %448 : i1
        %1928 = arith.addi %451, %301 overflow<nsw> : index
        %1929 = arith.select %1927, %1928, %c536870911 : index
        vector.store %1926, %380[%1929] : memref<?xf32, #amdgpu.address_space<fat_raw_buffer>>, vector<1xf32>
        %1930 = vector.extract_strided_slice %356 {offsets = [10], sizes = [1], strides = [1]} : vector<16xf32> to vector<1xf32>
        %1931 = arith.andi %1890, %456 : i1
        %1932 = arith.addi %459, %301 overflow<nsw> : index
        %1933 = arith.select %1931, %1932, %c536870911 : index
        vector.store %1930, %380[%1933] : memref<?xf32, #amdgpu.address_space<fat_raw_buffer>>, vector<1xf32>
        %1934 = vector.extract_strided_slice %356 {offsets = [11], sizes = [1], strides = [1]} : vector<16xf32> to vector<1xf32>
        %1935 = arith.andi %1890, %464 : i1
        %1936 = arith.addi %467, %301 overflow<nsw> : index
        %1937 = arith.select %1935, %1936, %c536870911 : index
        vector.store %1934, %380[%1937] : memref<?xf32, #amdgpu.address_space<fat_raw_buffer>>, vector<1xf32>
        %1938 = vector.extract_strided_slice %356 {offsets = [12], sizes = [1], strides = [1]} : vector<16xf32> to vector<1xf32>
        %1939 = arith.andi %1890, %472 : i1
        %1940 = arith.addi %475, %301 overflow<nsw> : index
        %1941 = arith.select %1939, %1940, %c536870911 : index
        vector.store %1938, %380[%1941] : memref<?xf32, #amdgpu.address_space<fat_raw_buffer>>, vector<1xf32>
        %1942 = vector.extract_strided_slice %356 {offsets = [13], sizes = [1], strides = [1]} : vector<16xf32> to vector<1xf32>
        %1943 = arith.andi %1890, %480 : i1
        %1944 = arith.addi %483, %301 overflow<nsw> : index
        %1945 = arith.select %1943, %1944, %c536870911 : index
        vector.store %1942, %380[%1945] : memref<?xf32, #amdgpu.address_space<fat_raw_buffer>>, vector<1xf32>
        %1946 = vector.extract_strided_slice %356 {offsets = [14], sizes = [1], strides = [1]} : vector<16xf32> to vector<1xf32>
        %1947 = arith.andi %1890, %488 : i1
        %1948 = arith.addi %491, %301 overflow<nsw> : index
        %1949 = arith.select %1947, %1948, %c536870911 : index
        vector.store %1946, %380[%1949] : memref<?xf32, #amdgpu.address_space<fat_raw_buffer>>, vector<1xf32>
        %1950 = vector.extract_strided_slice %356 {offsets = [15], sizes = [1], strides = [1]} : vector<16xf32> to vector<1xf32>
        %1951 = arith.andi %1890, %496 : i1
        %1952 = arith.addi %499, %301 overflow<nsw> : index
        %1953 = arith.select %1951, %1952, %c536870911 : index
        vector.store %1950, %380[%1953] : memref<?xf32, #amdgpu.address_space<fat_raw_buffer>>, vector<1xf32>
        return
      }
    }
  }
  func.func @isolated_benchmark(%arg0: tensor<641x4096xf16>, %arg1: tensor<2880x4096xf16>, %arg2: tensor<641x2880xf32>) -> tensor<641x2880xf32> {
    %0 = flow.dispatch @gemm::@gemm(%arg0, %arg1, %arg2) : (tensor<641x4096xf16>, tensor<2880x4096xf16>, tensor<641x2880xf32>) -> %arg2
    return %0 : tensor<641x2880xf32>
  }
}
