#map = affine_map<()[s0, s1] -> ((s0 * 41 + s1) mod 8)>
#map1 = affine_map<()[s0, s1] -> (s0 * 16 + (s1 floordiv 64) * 4 + 4)>
#map2 = affine_map<()[s0, s1, s2, s3] -> (s0 + s1 * 3280 + s2 * 80 - (s0 floordiv 16) * 16 - ((s1 * 41 + s2) floordiv 8) * 640 + ((s3 + (s1 * 41 + s2) floordiv 8) floordiv 2) * 16 + (s0 floordiv 64) * 4)>
#map3 = affine_map<()[s0] -> (((s0 mod 64) floordiv 16) * 4)>
#map4 = affine_map<()[s0, s1, s2, s3, s4] -> (s1 * 128 + s4 * 1448 + s0 floordiv 2 - ((s1 * 128 + s0 floordiv 2) floordiv 1448) * 1448 + ((s2 * 41 + s3) floordiv 8) * 1448 - ((s4 + (s2 * 41 + s3) floordiv 8) floordiv 2) * 2896)>
#map5 = affine_map<()[s0] -> (s0 * 8 - (s0 floordiv 2) * 16)>
#map6 = affine_map<()[s0, s1, s2, s3, s4] -> (s1 * 128 + s4 * 1448 + s0 floordiv 2 - ((s1 * 128 + s0 floordiv 2 + 256) floordiv 1448) * 1448 + ((s2 * 41 + s3) floordiv 8) * 1448 - ((s4 + (s2 * 41 + s3) floordiv 8) floordiv 2) * 2896 + 256)>
#map7 = affine_map<()[s0, s1, s2, s3, s4] -> (s1 * 128 + s4 * 1448 + s0 floordiv 2 - ((s1 * 128 + s0 floordiv 2 + 512) floordiv 1448) * 1448 + ((s2 * 41 + s3) floordiv 8) * 1448 - ((s4 + (s2 * 41 + s3) floordiv 8) floordiv 2) * 2896 + 512)>
#map8 = affine_map<()[s0, s1, s2, s3, s4] -> (s1 * 128 + s4 * 1448 + s0 floordiv 2 - ((s1 * 128 + s0 floordiv 2 + 768) floordiv 1448) * 1448 + ((s2 * 41 + s3) floordiv 8) * 1448 - ((s4 + (s2 * 41 + s3) floordiv 8) floordiv 2) * 2896 + 768)>
#map9 = affine_map<()[s0, s1, s2, s3, s4] -> (s1 * 128 + s4 * 1448 + s0 floordiv 2 - ((s1 * 128 + s0 floordiv 2 + 1024) floordiv 1448) * 1448 + ((s2 * 41 + s3) floordiv 8) * 1448 - ((s4 + (s2 * 41 + s3) floordiv 8) floordiv 2) * 2896 + 1024)>
#map10 = affine_map<()[s0, s1, s2, s3, s4] -> (s1 * 128 + s4 * 1448 + s0 floordiv 2 - ((s1 * 128 + s0 floordiv 2 + 1280) floordiv 1448) * 1448 + ((s2 * 41 + s3) floordiv 8) * 1448 - ((s4 + (s2 * 41 + s3) floordiv 8) floordiv 2) * 2896 + 1280)>
#map11 = affine_map<()[s0] -> ((s0 floordiv 64) * 4 + 4)>
#map12 = affine_map<()[s0] -> (s0 mod 16 + (s0 floordiv 64) * 4)>
#map13 = affine_map<()[s0] -> (s0 * 724 + 724)>
#map14 = affine_map<()[s0, s1] -> ((s1 * 128 + s0 floordiv 2) mod 1448)>
#map15 = affine_map<()[s0, s1] -> (s1 * 128 + s0 floordiv 2 - ((s1 * 128 + s0 floordiv 2 + 256) floordiv 1448) * 1448 + 256)>
#map16 = affine_map<()[s0, s1] -> (s1 * 128 + s0 floordiv 2 - ((s1 * 128 + s0 floordiv 2 + 512) floordiv 1448) * 1448 + 512)>
#map17 = affine_map<()[s0, s1] -> (s1 * 128 + s0 floordiv 2 - ((s1 * 128 + s0 floordiv 2 + 768) floordiv 1448) * 1448 + 768)>
#map18 = affine_map<()[s0, s1] -> (s1 * 128 + s0 floordiv 2 - ((s1 * 128 + s0 floordiv 2 + 1024) floordiv 1448) * 1448 + 1024)>
#map19 = affine_map<()[s0, s1] -> (s1 * 128 + s0 floordiv 2 - ((s1 * 128 + s0 floordiv 2 + 1280) floordiv 1448) * 1448 + 1280)>
#map20 = affine_map<()[s0, s1] -> (s0 + s1 * 724 - (s0 floordiv 16) * 16)>
#map21 = affine_map<()[s0, s1] -> (s0 + s1 * 724 - (s0 floordiv 16) * 16 + 16)>
#map22 = affine_map<()[s0, s1] -> (s0 + s1 * 724 - (s0 floordiv 16) * 16 + 32)>
#map23 = affine_map<()[s0, s1] -> (s0 + s1 * 724 - (s0 floordiv 16) * 16 + 48)>
#map24 = affine_map<()[s0, s1] -> (s0 + s1 * 724 - (s0 floordiv 16) * 16 + 64)>
#map25 = affine_map<()[s0, s1] -> (s0 + s1 * 724 - (s0 floordiv 16) * 16 + 80)>
#map26 = affine_map<()[s0, s1] -> (s0 + s1 * 724 - (s0 floordiv 16) * 16 + 96)>
#map27 = affine_map<()[s0, s1] -> (s0 + s1 * 724 - (s0 floordiv 16) * 16 + 112)>
#map28 = affine_map<()[s0, s1] -> (s0 + s1 * 724 - (s0 floordiv 16) * 16 + 128)>
#map29 = affine_map<()[s0, s1] -> (s0 + s1 * 724 - (s0 floordiv 16) * 16 + 144)>
#map30 = affine_map<()[s0, s1] -> (s0 + s1 * 724 - (s0 floordiv 16) * 16 + 160)>
#map31 = affine_map<()[s0, s1] -> (s0 + s1 * 724 - (s0 floordiv 16) * 16 + 176)>
#map32 = affine_map<()[s0, s1] -> (s0 + s1 * 724 - (s0 floordiv 16) * 16 + 192)>
#map33 = affine_map<()[s0, s1] -> (s0 + s1 * 724 - (s0 floordiv 16) * 16 + 208)>
#map34 = affine_map<()[s0, s1] -> (s0 + s1 * 724 - (s0 floordiv 16) * 16 + 224)>
#map35 = affine_map<()[s0, s1] -> (s0 + s1 * 724 - (s0 floordiv 16) * 16 + 240)>
#map36 = affine_map<()[s0, s1] -> (s0 + s1 * 724 - (s0 floordiv 16) * 16 + 256)>
#map37 = affine_map<()[s0, s1] -> (s0 + s1 * 724 - (s0 floordiv 16) * 16 + 272)>
#map38 = affine_map<()[s0, s1] -> (s0 + s1 * 724 - (s0 floordiv 16) * 16 + 288)>
#map39 = affine_map<()[s0, s1] -> (s0 + s1 * 724 - (s0 floordiv 16) * 16 + 304)>
#map40 = affine_map<()[s0, s1] -> (s0 + s1 * 724 - (s0 floordiv 16) * 16 + 320)>
#map41 = affine_map<()[s0, s1] -> (s0 + s1 * 724 - (s0 floordiv 16) * 16 + 336)>
#map42 = affine_map<()[s0, s1] -> (s0 + s1 * 724 - (s0 floordiv 16) * 16 + 352)>
#map43 = affine_map<()[s0, s1] -> (s0 + s1 * 724 - (s0 floordiv 16) * 16 + 368)>
#map44 = affine_map<()[s0, s1] -> (s0 + s1 * 724 - (s0 floordiv 16) * 16 + 384)>
#map45 = affine_map<()[s0, s1] -> (s0 + s1 * 724 - (s0 floordiv 16) * 16 + 400)>
#map46 = affine_map<()[s0, s1] -> (s0 + s1 * 724 - (s0 floordiv 16) * 16 + 416)>
#map47 = affine_map<()[s0, s1] -> (s0 + s1 * 724 - (s0 floordiv 16) * 16 + 432)>
#map48 = affine_map<()[s0, s1] -> (s0 + s1 * 724 - (s0 floordiv 16) * 16 + 448)>
#map49 = affine_map<()[s0, s1] -> (s0 + s1 * 724 - (s0 floordiv 16) * 16 + 464)>
#map50 = affine_map<()[s0, s1] -> (s0 + s1 * 724 - (s0 floordiv 16) * 16 + 480)>
#map51 = affine_map<()[s0, s1] -> (s0 + s1 * 724 - (s0 floordiv 16) * 16 + 496)>
#map52 = affine_map<()[s0, s1] -> (s0 + s1 * 724 - (s0 floordiv 16) * 16 + 512)>
#map53 = affine_map<()[s0, s1] -> (s0 + s1 * 724 - (s0 floordiv 16) * 16 + 528)>
#map54 = affine_map<()[s0, s1] -> (s0 + s1 * 724 - (s0 floordiv 16) * 16 + 544)>
#map55 = affine_map<()[s0, s1] -> (s0 + s1 * 724 - (s0 floordiv 16) * 16 + 560)>
#map56 = affine_map<()[s0, s1] -> (s0 + s1 * 724 - (s0 floordiv 16) * 16 + 576)>
#map57 = affine_map<()[s0, s1] -> (s0 + s1 * 724 - (s0 floordiv 16) * 16 + 592)>
#map58 = affine_map<()[s0, s1] -> (s0 + s1 * 724 - (s0 floordiv 16) * 16 + 608)>
#map59 = affine_map<()[s0, s1] -> (s0 + s1 * 724 - (s0 floordiv 16) * 16 + 624)>
#map60 = affine_map<()[s0, s1] -> (s0 + s1 * 724 - (s0 floordiv 16) * 16 + 640)>
#map61 = affine_map<()[s0, s1] -> (s0 + s1 * 724 - (s0 floordiv 16) * 16 + 656)>
#map62 = affine_map<()[s0, s1] -> (s0 + s1 * 724 - (s0 floordiv 16) * 16 + 672)>
#map63 = affine_map<()[s0, s1] -> (s0 + s1 * 724 - (s0 floordiv 16) * 16 + 688)>
#map64 = affine_map<()[s0, s1] -> (s0 + s1 * 724 - (s0 floordiv 16) * 16 + 704)>
#map65 = affine_map<()[s0, s1] -> (s0 + s1 * 724 - (s0 floordiv 16) * 16 + 720)>
#map66 = affine_map<()[s0, s1] -> (s0 * 16 + ((s1 mod 64) floordiv 16) * 4 + 16)>
#map67 = affine_map<()[s0, s1] -> (s0 * 16 + s1 * 8 - (s1 floordiv 2) * 16 + 16)>
#map68 = affine_map<()[s0, s1] -> (s0 * 1448 + s1 * 724 + 724)>
#map69 = affine_map<()[s0] -> (s0 * 1448 + 1448)>
#map70 = affine_map<()[s0, s1, s2, s3, s4] -> (s0 + s3 * 1448 + s4 * 724 - (s0 floordiv 16) * 16 + ((s1 * 41 + s2) floordiv 8) * 1448 - ((s3 + (s1 * 41 + s2) floordiv 8) floordiv 2) * 2896)>
#map71 = affine_map<()[s0, s1, s2, s3] -> (s0 * 3280 + s1 * 80 - ((s0 * 41 + s1) floordiv 8) * 640 + ((s2 + (s0 * 41 + s1) floordiv 8) floordiv 2) * 16 + (s3 floordiv 64) * 4 + ((s3 mod 64) floordiv 16) * 4)>
#map72 = affine_map<()[s0, s1, s2] -> (s0 * 3280 + s1 * 80 - ((s0 * 41 + s1) floordiv 8) * 640 + ((s2 + (s0 * 41 + s1) floordiv 8) floordiv 2) * 16)>
#map73 = affine_map<()[s0, s1, s2] -> (s2 * 1448 + ((s0 * 41 + s1) floordiv 8) * 1448 - ((s2 + (s0 * 41 + s1) floordiv 8) floordiv 2) * 2896)>
#map74 = affine_map<()[s0] -> ((s0 floordiv 64) * 4 + ((s0 mod 64) floordiv 16) * 4)>
#map75 = affine_map<()[s0, s1, s2, s3] -> (s0 * 3280 + s1 * 80 - ((s0 * 41 + s1) floordiv 8) * 640 + ((s2 + (s0 * 41 + s1) floordiv 8) floordiv 2) * 16 + (s3 floordiv 64) * 4 + ((s3 mod 64) floordiv 16) * 4 + 1)>
#map76 = affine_map<()[s0] -> ((s0 floordiv 64) * 4 + ((s0 mod 64) floordiv 16) * 4 + 1)>
#map77 = affine_map<()[s0, s1, s2, s3] -> (s0 * 3280 + s1 * 80 - ((s0 * 41 + s1) floordiv 8) * 640 + ((s2 + (s0 * 41 + s1) floordiv 8) floordiv 2) * 16 + (s3 floordiv 64) * 4 + ((s3 mod 64) floordiv 16) * 4 + 2)>
#map78 = affine_map<()[s0] -> ((s0 floordiv 64) * 4 + ((s0 mod 64) floordiv 16) * 4 + 2)>
#map79 = affine_map<()[s0, s1, s2, s3] -> (s0 * 3280 + s1 * 80 - ((s0 * 41 + s1) floordiv 8) * 640 + ((s2 + (s0 * 41 + s1) floordiv 8) floordiv 2) * 16 + (s3 floordiv 64) * 4 + ((s3 mod 64) floordiv 16) * 4 + 3)>
#map80 = affine_map<()[s0] -> ((s0 floordiv 64) * 4 + ((s0 mod 64) floordiv 16) * 4 + 3)>
#map81 = affine_map<()[s0, s1, s2, s3, s4] -> (s0 + s3 * 1448 + s4 * 724 - (s0 floordiv 16) * 16 + ((s1 * 41 + s2) floordiv 8) * 1448 - ((s3 + (s1 * 41 + s2) floordiv 8) floordiv 2) * 2896 + 16)>
#map82 = affine_map<()[s0, s1, s2, s3, s4] -> (s0 + s3 * 1448 + s4 * 724 - (s0 floordiv 16) * 16 + ((s1 * 41 + s2) floordiv 8) * 1448 - ((s3 + (s1 * 41 + s2) floordiv 8) floordiv 2) * 2896 + 32)>
#map83 = affine_map<()[s0, s1, s2, s3, s4] -> (s0 + s3 * 1448 + s4 * 724 - (s0 floordiv 16) * 16 + ((s1 * 41 + s2) floordiv 8) * 1448 - ((s3 + (s1 * 41 + s2) floordiv 8) floordiv 2) * 2896 + 48)>
#map84 = affine_map<()[s0, s1, s2, s3, s4] -> (s0 + s3 * 1448 + s4 * 724 - (s0 floordiv 16) * 16 + ((s1 * 41 + s2) floordiv 8) * 1448 - ((s3 + (s1 * 41 + s2) floordiv 8) floordiv 2) * 2896 + 64)>
#map85 = affine_map<()[s0, s1, s2, s3, s4] -> (s0 + s3 * 1448 + s4 * 724 - (s0 floordiv 16) * 16 + ((s1 * 41 + s2) floordiv 8) * 1448 - ((s3 + (s1 * 41 + s2) floordiv 8) floordiv 2) * 2896 + 80)>
#map86 = affine_map<()[s0, s1, s2, s3, s4] -> (s0 + s3 * 1448 + s4 * 724 - (s0 floordiv 16) * 16 + ((s1 * 41 + s2) floordiv 8) * 1448 - ((s3 + (s1 * 41 + s2) floordiv 8) floordiv 2) * 2896 + 96)>
#map87 = affine_map<()[s0, s1, s2, s3, s4] -> (s0 + s3 * 1448 + s4 * 724 - (s0 floordiv 16) * 16 + ((s1 * 41 + s2) floordiv 8) * 1448 - ((s3 + (s1 * 41 + s2) floordiv 8) floordiv 2) * 2896 + 112)>
#map88 = affine_map<()[s0, s1, s2, s3, s4] -> (s0 + s3 * 1448 + s4 * 724 - (s0 floordiv 16) * 16 + ((s1 * 41 + s2) floordiv 8) * 1448 - ((s3 + (s1 * 41 + s2) floordiv 8) floordiv 2) * 2896 + 128)>
#map89 = affine_map<()[s0, s1, s2, s3, s4] -> (s0 + s3 * 1448 + s4 * 724 - (s0 floordiv 16) * 16 + ((s1 * 41 + s2) floordiv 8) * 1448 - ((s3 + (s1 * 41 + s2) floordiv 8) floordiv 2) * 2896 + 144)>
#map90 = affine_map<()[s0, s1, s2, s3, s4] -> (s0 + s3 * 1448 + s4 * 724 - (s0 floordiv 16) * 16 + ((s1 * 41 + s2) floordiv 8) * 1448 - ((s3 + (s1 * 41 + s2) floordiv 8) floordiv 2) * 2896 + 160)>
#map91 = affine_map<()[s0, s1, s2, s3, s4] -> (s0 + s3 * 1448 + s4 * 724 - (s0 floordiv 16) * 16 + ((s1 * 41 + s2) floordiv 8) * 1448 - ((s3 + (s1 * 41 + s2) floordiv 8) floordiv 2) * 2896 + 176)>
#map92 = affine_map<()[s0, s1, s2, s3, s4] -> (s0 + s3 * 1448 + s4 * 724 - (s0 floordiv 16) * 16 + ((s1 * 41 + s2) floordiv 8) * 1448 - ((s3 + (s1 * 41 + s2) floordiv 8) floordiv 2) * 2896 + 192)>
#map93 = affine_map<()[s0, s1, s2, s3, s4] -> (s0 + s3 * 1448 + s4 * 724 - (s0 floordiv 16) * 16 + ((s1 * 41 + s2) floordiv 8) * 1448 - ((s3 + (s1 * 41 + s2) floordiv 8) floordiv 2) * 2896 + 208)>
#map94 = affine_map<()[s0, s1, s2, s3, s4] -> (s0 + s3 * 1448 + s4 * 724 - (s0 floordiv 16) * 16 + ((s1 * 41 + s2) floordiv 8) * 1448 - ((s3 + (s1 * 41 + s2) floordiv 8) floordiv 2) * 2896 + 224)>
#map95 = affine_map<()[s0, s1, s2, s3, s4] -> (s0 + s3 * 1448 + s4 * 724 - (s0 floordiv 16) * 16 + ((s1 * 41 + s2) floordiv 8) * 1448 - ((s3 + (s1 * 41 + s2) floordiv 8) floordiv 2) * 2896 + 240)>
#map96 = affine_map<()[s0, s1, s2, s3, s4] -> (s0 + s3 * 1448 + s4 * 724 - (s0 floordiv 16) * 16 + ((s1 * 41 + s2) floordiv 8) * 1448 - ((s3 + (s1 * 41 + s2) floordiv 8) floordiv 2) * 2896 + 256)>
#map97 = affine_map<()[s0, s1, s2, s3, s4] -> (s0 + s3 * 1448 + s4 * 724 - (s0 floordiv 16) * 16 + ((s1 * 41 + s2) floordiv 8) * 1448 - ((s3 + (s1 * 41 + s2) floordiv 8) floordiv 2) * 2896 + 272)>
#map98 = affine_map<()[s0, s1, s2, s3, s4] -> (s0 + s3 * 1448 + s4 * 724 - (s0 floordiv 16) * 16 + ((s1 * 41 + s2) floordiv 8) * 1448 - ((s3 + (s1 * 41 + s2) floordiv 8) floordiv 2) * 2896 + 288)>
#map99 = affine_map<()[s0, s1, s2, s3, s4] -> (s0 + s3 * 1448 + s4 * 724 - (s0 floordiv 16) * 16 + ((s1 * 41 + s2) floordiv 8) * 1448 - ((s3 + (s1 * 41 + s2) floordiv 8) floordiv 2) * 2896 + 304)>
#map100 = affine_map<()[s0, s1, s2, s3, s4] -> (s0 + s3 * 1448 + s4 * 724 - (s0 floordiv 16) * 16 + ((s1 * 41 + s2) floordiv 8) * 1448 - ((s3 + (s1 * 41 + s2) floordiv 8) floordiv 2) * 2896 + 320)>
#map101 = affine_map<()[s0, s1, s2, s3, s4] -> (s0 + s3 * 1448 + s4 * 724 - (s0 floordiv 16) * 16 + ((s1 * 41 + s2) floordiv 8) * 1448 - ((s3 + (s1 * 41 + s2) floordiv 8) floordiv 2) * 2896 + 336)>
#map102 = affine_map<()[s0, s1, s2, s3, s4] -> (s0 + s3 * 1448 + s4 * 724 - (s0 floordiv 16) * 16 + ((s1 * 41 + s2) floordiv 8) * 1448 - ((s3 + (s1 * 41 + s2) floordiv 8) floordiv 2) * 2896 + 352)>
#map103 = affine_map<()[s0, s1, s2, s3, s4] -> (s0 + s3 * 1448 + s4 * 724 - (s0 floordiv 16) * 16 + ((s1 * 41 + s2) floordiv 8) * 1448 - ((s3 + (s1 * 41 + s2) floordiv 8) floordiv 2) * 2896 + 368)>
#map104 = affine_map<()[s0, s1, s2, s3, s4] -> (s0 + s3 * 1448 + s4 * 724 - (s0 floordiv 16) * 16 + ((s1 * 41 + s2) floordiv 8) * 1448 - ((s3 + (s1 * 41 + s2) floordiv 8) floordiv 2) * 2896 + 384)>
#map105 = affine_map<()[s0, s1, s2, s3, s4] -> (s0 + s3 * 1448 + s4 * 724 - (s0 floordiv 16) * 16 + ((s1 * 41 + s2) floordiv 8) * 1448 - ((s3 + (s1 * 41 + s2) floordiv 8) floordiv 2) * 2896 + 400)>
#map106 = affine_map<()[s0, s1, s2, s3, s4] -> (s0 + s3 * 1448 + s4 * 724 - (s0 floordiv 16) * 16 + ((s1 * 41 + s2) floordiv 8) * 1448 - ((s3 + (s1 * 41 + s2) floordiv 8) floordiv 2) * 2896 + 416)>
#map107 = affine_map<()[s0, s1, s2, s3, s4] -> (s0 + s3 * 1448 + s4 * 724 - (s0 floordiv 16) * 16 + ((s1 * 41 + s2) floordiv 8) * 1448 - ((s3 + (s1 * 41 + s2) floordiv 8) floordiv 2) * 2896 + 432)>
#map108 = affine_map<()[s0, s1, s2, s3, s4] -> (s0 + s3 * 1448 + s4 * 724 - (s0 floordiv 16) * 16 + ((s1 * 41 + s2) floordiv 8) * 1448 - ((s3 + (s1 * 41 + s2) floordiv 8) floordiv 2) * 2896 + 448)>
#map109 = affine_map<()[s0, s1, s2, s3, s4] -> (s0 + s3 * 1448 + s4 * 724 - (s0 floordiv 16) * 16 + ((s1 * 41 + s2) floordiv 8) * 1448 - ((s3 + (s1 * 41 + s2) floordiv 8) floordiv 2) * 2896 + 464)>
#map110 = affine_map<()[s0, s1, s2, s3, s4] -> (s0 + s3 * 1448 + s4 * 724 - (s0 floordiv 16) * 16 + ((s1 * 41 + s2) floordiv 8) * 1448 - ((s3 + (s1 * 41 + s2) floordiv 8) floordiv 2) * 2896 + 480)>
#map111 = affine_map<()[s0, s1, s2, s3, s4] -> (s0 + s3 * 1448 + s4 * 724 - (s0 floordiv 16) * 16 + ((s1 * 41 + s2) floordiv 8) * 1448 - ((s3 + (s1 * 41 + s2) floordiv 8) floordiv 2) * 2896 + 496)>
#map112 = affine_map<()[s0, s1, s2, s3, s4] -> (s0 + s3 * 1448 + s4 * 724 - (s0 floordiv 16) * 16 + ((s1 * 41 + s2) floordiv 8) * 1448 - ((s3 + (s1 * 41 + s2) floordiv 8) floordiv 2) * 2896 + 512)>
#map113 = affine_map<()[s0, s1, s2, s3, s4] -> (s0 + s3 * 1448 + s4 * 724 - (s0 floordiv 16) * 16 + ((s1 * 41 + s2) floordiv 8) * 1448 - ((s3 + (s1 * 41 + s2) floordiv 8) floordiv 2) * 2896 + 528)>
#map114 = affine_map<()[s0, s1, s2, s3, s4] -> (s0 + s3 * 1448 + s4 * 724 - (s0 floordiv 16) * 16 + ((s1 * 41 + s2) floordiv 8) * 1448 - ((s3 + (s1 * 41 + s2) floordiv 8) floordiv 2) * 2896 + 544)>
#map115 = affine_map<()[s0, s1, s2, s3, s4] -> (s0 + s3 * 1448 + s4 * 724 - (s0 floordiv 16) * 16 + ((s1 * 41 + s2) floordiv 8) * 1448 - ((s3 + (s1 * 41 + s2) floordiv 8) floordiv 2) * 2896 + 560)>
#map116 = affine_map<()[s0, s1, s2, s3, s4] -> (s0 + s3 * 1448 + s4 * 724 - (s0 floordiv 16) * 16 + ((s1 * 41 + s2) floordiv 8) * 1448 - ((s3 + (s1 * 41 + s2) floordiv 8) floordiv 2) * 2896 + 576)>
#map117 = affine_map<()[s0, s1, s2, s3, s4] -> (s0 + s3 * 1448 + s4 * 724 - (s0 floordiv 16) * 16 + ((s1 * 41 + s2) floordiv 8) * 1448 - ((s3 + (s1 * 41 + s2) floordiv 8) floordiv 2) * 2896 + 592)>
#map118 = affine_map<()[s0, s1, s2, s3, s4] -> (s0 + s3 * 1448 + s4 * 724 - (s0 floordiv 16) * 16 + ((s1 * 41 + s2) floordiv 8) * 1448 - ((s3 + (s1 * 41 + s2) floordiv 8) floordiv 2) * 2896 + 608)>
#map119 = affine_map<()[s0, s1, s2, s3, s4] -> (s0 + s3 * 1448 + s4 * 724 - (s0 floordiv 16) * 16 + ((s1 * 41 + s2) floordiv 8) * 1448 - ((s3 + (s1 * 41 + s2) floordiv 8) floordiv 2) * 2896 + 624)>
#map120 = affine_map<()[s0, s1, s2, s3, s4] -> (s0 + s3 * 1448 + s4 * 724 - (s0 floordiv 16) * 16 + ((s1 * 41 + s2) floordiv 8) * 1448 - ((s3 + (s1 * 41 + s2) floordiv 8) floordiv 2) * 2896 + 640)>
#map121 = affine_map<()[s0, s1, s2, s3, s4] -> (s0 + s3 * 1448 + s4 * 724 - (s0 floordiv 16) * 16 + ((s1 * 41 + s2) floordiv 8) * 1448 - ((s3 + (s1 * 41 + s2) floordiv 8) floordiv 2) * 2896 + 656)>
#map122 = affine_map<()[s0, s1, s2, s3, s4] -> (s0 + s3 * 1448 + s4 * 724 - (s0 floordiv 16) * 16 + ((s1 * 41 + s2) floordiv 8) * 1448 - ((s3 + (s1 * 41 + s2) floordiv 8) floordiv 2) * 2896 + 672)>
#map123 = affine_map<()[s0, s1, s2, s3, s4] -> (s0 + s3 * 1448 + s4 * 724 - (s0 floordiv 16) * 16 + ((s1 * 41 + s2) floordiv 8) * 1448 - ((s3 + (s1 * 41 + s2) floordiv 8) floordiv 2) * 2896 + 688)>
#map124 = affine_map<()[s0, s1, s2, s3, s4] -> (s0 + s3 * 1448 + s4 * 724 - (s0 floordiv 16) * 16 + ((s1 * 41 + s2) floordiv 8) * 1448 - ((s3 + (s1 * 41 + s2) floordiv 8) floordiv 2) * 2896 + 704)>
#map125 = affine_map<()[s0, s1, s2, s3, s4] -> (s0 + s3 * 1448 + s4 * 724 - (s0 floordiv 16) * 16 + ((s1 * 41 + s2) floordiv 8) * 1448 - ((s3 + (s1 * 41 + s2) floordiv 8) floordiv 2) * 2896 + 720)>
#translation = #iree_codegen.translation_info<pipeline = None workgroup_size = [256, 2, 1] subgroup_size = 64>
module attributes {transform.with_named_sequence} {
  stream.executable private @gemm {
    stream.executable.export public @gemm workgroups() -> (index, index, index) {
      %c41 = arith.constant 41 : index
      %c2 = arith.constant 2 : index
      %c1 = arith.constant 1 : index
      stream.return %c41, %c2, %c1 : index, index, index
    }
    builtin.module {
      func.func @gemm(%arg0: !stream.binding, %arg1: !stream.binding, %arg2: !stream.binding) attributes {translation_info = #translation} {
        %c2880_i14 = arith.constant 2880 : i14
        %cst = arith.constant dense<0.000000e+00> : vector<4xf16>
        %cst_0 = arith.constant dense<[0, 1, 2, 3, 4, 5, 6, 7]> : vector<8xi32>
        %cst_1 = arith.constant dense<1073741823> : vector<8xindex>
        %cst_2 = arith.constant dense<[0, 1, 2, 3]> : vector<4xi32>
        %cst_3 = arith.constant dense<1073741823> : vector<4xindex>
        %c4096_i14 = arith.constant 4096 : i14
        %c536870911 = arith.constant 536870911 : index
        %c2147483643_i32 = arith.constant 2147483643 : i32
        %c536870910 = arith.constant 536870910 : index
        %c255 = arith.constant 255 : index
        %c2880 = arith.constant 2880 : index
        %c1448 = arith.constant 1448 : index
        %c2147483645_i32 = arith.constant 2147483645 : i32
        %c1073741822 = arith.constant 1073741822 : index
        %c4096 = arith.constant 4096 : index
        %c641 = arith.constant 641 : index
        %c2 = arith.constant 2 : index
        %c16 = arith.constant 16 : index
        %c1 = arith.constant 1 : index
        %c57920 = arith.constant 57920 : index
        %c0 = arith.constant 0 : index
        %cst_4 = arith.constant dense<0.000000e+00> : vector<4xf32>
        %block_id_x = gpu.block_id  x upper_bound 41
        %block_id_y = gpu.block_id  y upper_bound 2
        %thread_id_x = gpu.thread_id  x upper_bound 256
        %thread_id_y = gpu.thread_id  y upper_bound 2
        %alloc = memref.alloc() : memref<58560xi8, #gpu.address_space<workgroup>>
        %view = memref.view %alloc[%c0][] : memref<58560xi8, #gpu.address_space<workgroup>> to memref<1448x20xf16, #gpu.address_space<workgroup>>
        %view_5 = memref.view %alloc[%c57920][] : memref<58560xi8, #gpu.address_space<workgroup>> to memref<16x20xf16, #gpu.address_space<workgroup>>
        %0 = stream.binding.subspan %arg0[%c0] : !stream.binding -> memref<641x4096xf16, strided<[4096, 1], offset: ?>>
        %1 = affine.apply #map()[%block_id_y, %block_id_x]
        %2 = arith.minsi %1, %c2 : index
        %3 = affine.apply #map1()[%block_id_x, %thread_id_x]
        %4 = arith.minsi %3, %c641 : index
        %5 = affine.apply #map2()[%thread_id_x, %block_id_y, %block_id_x, %2]
        %6 = arith.cmpi slt, %5, %4 : index
        %7 = vector.broadcast %6 : i1 to vector<4xi1>
        %8 = affine.apply #map3()[%thread_id_x]
        %9 = arith.muli %5, %c4096 overflow<nsw> : index
        %10 = arith.addi %9, %8 overflow<nsw> : index
        %base_buffer, %offset, %sizes:2, %strides:2 = memref.extract_strided_metadata %0 : memref<641x4096xf16, strided<[4096, 1], offset: ?>> -> memref<f16>, index, index, index, index, index
        %reinterpret_cast = memref.reinterpret_cast %0 to offset: [%offset], sizes: [%c1073741822], strides: [1] : memref<641x4096xf16, strided<[4096, 1], offset: ?>> to memref<?xf16, strided<[1], offset: ?>>
        %11 = amdgpu.fat_raw_buffer_cast %reinterpret_cast validBytes(%c2147483645_i32) cacheSwizzleStride(%c4096_i14) resetOffset : memref<?xf16, strided<[1], offset: ?>> to memref<?xf16, #amdgpu.address_space<fat_raw_buffer>>
        %12 = arith.index_cast %10 : index to i32
        %13 = vector.broadcast %12 : i32 to vector<4xi32>
        %14 = arith.addi %13, %cst_2 : vector<4xi32>
        %15 = arith.index_cast %14 : vector<4xi32> to vector<4xindex>
        %16 = arith.select %7, %15, %cst_3 : vector<4xi1>, vector<4xindex>
        %17 = vector.extract %16[0] : index from vector<4xindex>
        %18 = vector.load %11[%17] : memref<?xf16, #amdgpu.address_space<fat_raw_buffer>>, vector<4xf16>
        %19 = stream.binding.subspan %arg1[%c0] : !stream.binding -> memref<2880x4096xf16, strided<[4096, 1], offset: ?>>
        %20 = affine.apply #map4()[%thread_id_x, %thread_id_y, %block_id_y, %block_id_x, %2]
        %21 = arith.cmpi slt, %20, %c2880 : index
        %22 = vector.broadcast %21 : i1 to vector<8xi1>
        %23 = affine.apply #map5()[%thread_id_x]
        %24 = arith.muli %20, %c4096 overflow<nsw> : index
        %25 = arith.addi %24, %23 overflow<nsw> : index
        %base_buffer_6, %offset_7, %sizes_8:2, %strides_9:2 = memref.extract_strided_metadata %19 : memref<2880x4096xf16, strided<[4096, 1], offset: ?>> -> memref<f16>, index, index, index, index, index
        %reinterpret_cast_10 = memref.reinterpret_cast %19 to offset: [%offset_7], sizes: [%c1073741822], strides: [1] : memref<2880x4096xf16, strided<[4096, 1], offset: ?>> to memref<?xf16, strided<[1], offset: ?>>
        %26 = amdgpu.fat_raw_buffer_cast %reinterpret_cast_10 validBytes(%c2147483645_i32) cacheSwizzleStride(%c4096_i14) resetOffset : memref<?xf16, strided<[1], offset: ?>> to memref<?xf16, #amdgpu.address_space<fat_raw_buffer>>
        %27 = arith.index_cast %25 : index to i32
        %28 = vector.broadcast %27 : i32 to vector<8xi32>
        %29 = arith.addi %28, %cst_0 : vector<8xi32>
        %30 = arith.index_cast %29 : vector<8xi32> to vector<8xindex>
        %31 = arith.select %22, %30, %cst_1 : vector<8xi1>, vector<8xindex>
        %32 = vector.extract %31[0] : index from vector<8xindex>
        %33 = vector.load %26[%32] : memref<?xf16, #amdgpu.address_space<fat_raw_buffer>>, vector<8xf16>
        %34 = affine.apply #map6()[%thread_id_x, %thread_id_y, %block_id_y, %block_id_x, %2]
        %35 = arith.cmpi slt, %34, %c2880 : index
        %36 = vector.broadcast %35 : i1 to vector<8xi1>
        %37 = arith.muli %34, %c4096 overflow<nsw> : index
        %38 = arith.addi %37, %23 overflow<nsw> : index
        %39 = arith.index_cast %38 : index to i32
        %40 = vector.broadcast %39 : i32 to vector<8xi32>
        %41 = arith.addi %40, %cst_0 : vector<8xi32>
        %42 = arith.index_cast %41 : vector<8xi32> to vector<8xindex>
        %43 = arith.select %36, %42, %cst_1 : vector<8xi1>, vector<8xindex>
        %44 = vector.extract %43[0] : index from vector<8xindex>
        %45 = vector.load %26[%44] : memref<?xf16, #amdgpu.address_space<fat_raw_buffer>>, vector<8xf16>
        %46 = affine.apply #map7()[%thread_id_x, %thread_id_y, %block_id_y, %block_id_x, %2]
        %47 = arith.cmpi slt, %46, %c2880 : index
        %48 = vector.broadcast %47 : i1 to vector<8xi1>
        %49 = arith.muli %46, %c4096 overflow<nsw> : index
        %50 = arith.addi %49, %23 overflow<nsw> : index
        %51 = arith.index_cast %50 : index to i32
        %52 = vector.broadcast %51 : i32 to vector<8xi32>
        %53 = arith.addi %52, %cst_0 : vector<8xi32>
        %54 = arith.index_cast %53 : vector<8xi32> to vector<8xindex>
        %55 = arith.select %48, %54, %cst_1 : vector<8xi1>, vector<8xindex>
        %56 = vector.extract %55[0] : index from vector<8xindex>
        %57 = vector.load %26[%56] : memref<?xf16, #amdgpu.address_space<fat_raw_buffer>>, vector<8xf16>
        %58 = affine.apply #map8()[%thread_id_x, %thread_id_y, %block_id_y, %block_id_x, %2]
        %59 = arith.cmpi slt, %58, %c2880 : index
        %60 = vector.broadcast %59 : i1 to vector<8xi1>
        %61 = arith.muli %58, %c4096 overflow<nsw> : index
        %62 = arith.addi %61, %23 overflow<nsw> : index
        %63 = arith.index_cast %62 : index to i32
        %64 = vector.broadcast %63 : i32 to vector<8xi32>
        %65 = arith.addi %64, %cst_0 : vector<8xi32>
        %66 = arith.index_cast %65 : vector<8xi32> to vector<8xindex>
        %67 = arith.select %60, %66, %cst_1 : vector<8xi1>, vector<8xindex>
        %68 = vector.extract %67[0] : index from vector<8xindex>
        %69 = vector.load %26[%68] : memref<?xf16, #amdgpu.address_space<fat_raw_buffer>>, vector<8xf16>
        %70 = affine.apply #map9()[%thread_id_x, %thread_id_y, %block_id_y, %block_id_x, %2]
        %71 = arith.cmpi slt, %70, %c2880 : index
        %72 = vector.broadcast %71 : i1 to vector<8xi1>
        %73 = arith.muli %70, %c4096 overflow<nsw> : index
        %74 = arith.addi %73, %23 overflow<nsw> : index
        %75 = arith.index_cast %74 : index to i32
        %76 = vector.broadcast %75 : i32 to vector<8xi32>
        %77 = arith.addi %76, %cst_0 : vector<8xi32>
        %78 = arith.index_cast %77 : vector<8xi32> to vector<8xindex>
        %79 = arith.select %72, %78, %cst_1 : vector<8xi1>, vector<8xindex>
        %80 = vector.extract %79[0] : index from vector<8xindex>
        %81 = vector.load %26[%80] : memref<?xf16, #amdgpu.address_space<fat_raw_buffer>>, vector<8xf16>
        %82 = affine.apply #map10()[%thread_id_x, %thread_id_y, %block_id_y, %block_id_x, %2]
        %83 = arith.cmpi slt, %82, %c2880 : index
        %84 = vector.broadcast %83 : i1 to vector<8xi1>
        %85 = arith.muli %82, %c4096 overflow<nsw> : index
        %86 = arith.addi %85, %23 overflow<nsw> : index
        %87 = arith.index_cast %86 : index to i32
        %88 = vector.broadcast %87 : i32 to vector<8xi32>
        %89 = arith.addi %88, %cst_0 : vector<8xi32>
        %90 = arith.index_cast %89 : vector<8xi32> to vector<8xindex>
        %91 = arith.select %84, %90, %cst_1 : vector<8xi1>, vector<8xindex>
        %92 = vector.extract %91[0] : index from vector<8xindex>
        %93 = vector.load %26[%92] : memref<?xf16, #amdgpu.address_space<fat_raw_buffer>>, vector<8xf16>
        %94 = affine.apply #map11()[%thread_id_x]
        %95 = arith.minsi %94, %c16 : index
        %96 = affine.apply #map12()[%thread_id_x]
        %97 = arith.cmpi slt, %96, %95 : index
        %98 = vector.broadcast %97 : i1 to vector<4xi1>
        vector.maskedstore %view_5[%96, %8], %98, %18 : memref<16x20xf16, #gpu.address_space<workgroup>>, vector<4xi1>, vector<4xf16>
        %99 = affine.apply #map13()[%thread_id_y]
        %100 = arith.minsi %99, %c1448 : index
        %101 = affine.apply #map14()[%thread_id_x, %thread_id_y]
        %102 = arith.cmpi slt, %101, %100 : index
        %103 = vector.broadcast %102 : i1 to vector<8xi1>
        vector.maskedstore %view[%101, %23], %103, %33 : memref<1448x20xf16, #gpu.address_space<workgroup>>, vector<8xi1>, vector<8xf16>
        %104 = affine.apply #map15()[%thread_id_x, %thread_id_y]
        %105 = arith.cmpi slt, %104, %100 : index
        %106 = vector.broadcast %105 : i1 to vector<8xi1>
        vector.maskedstore %view[%104, %23], %106, %45 : memref<1448x20xf16, #gpu.address_space<workgroup>>, vector<8xi1>, vector<8xf16>
        %107 = affine.apply #map16()[%thread_id_x, %thread_id_y]
        %108 = arith.cmpi slt, %107, %100 : index
        %109 = vector.broadcast %108 : i1 to vector<8xi1>
        vector.maskedstore %view[%107, %23], %109, %57 : memref<1448x20xf16, #gpu.address_space<workgroup>>, vector<8xi1>, vector<8xf16>
        %110 = affine.apply #map17()[%thread_id_x, %thread_id_y]
        %111 = arith.cmpi slt, %110, %100 : index
        %112 = vector.broadcast %111 : i1 to vector<8xi1>
        vector.maskedstore %view[%110, %23], %112, %69 : memref<1448x20xf16, #gpu.address_space<workgroup>>, vector<8xi1>, vector<8xf16>
        %113 = affine.apply #map18()[%thread_id_x, %thread_id_y]
        %114 = arith.cmpi slt, %113, %100 : index
        %115 = vector.broadcast %114 : i1 to vector<8xi1>
        vector.maskedstore %view[%113, %23], %115, %81 : memref<1448x20xf16, #gpu.address_space<workgroup>>, vector<8xi1>, vector<8xf16>
        %116 = affine.apply #map19()[%thread_id_x, %thread_id_y]
        %117 = arith.cmpi slt, %116, %100 : index
        %118 = vector.broadcast %117 : i1 to vector<8xi1>
        vector.maskedstore %view[%116, %23], %118, %93 : memref<1448x20xf16, #gpu.address_space<workgroup>>, vector<8xi1>, vector<8xf16>
        %119 = affine.apply #map20()[%thread_id_x, %thread_id_y]
        %120 = arith.cmpi slt, %119, %100 : index
        %121 = vector.broadcast %120 : i1 to vector<4xi1>
        %122 = affine.apply #map21()[%thread_id_x, %thread_id_y]
        %123 = arith.cmpi slt, %122, %100 : index
        %124 = vector.broadcast %123 : i1 to vector<4xi1>
        %125 = affine.apply #map22()[%thread_id_x, %thread_id_y]
        %126 = arith.cmpi slt, %125, %100 : index
        %127 = vector.broadcast %126 : i1 to vector<4xi1>
        %128 = affine.apply #map23()[%thread_id_x, %thread_id_y]
        %129 = arith.cmpi slt, %128, %100 : index
        %130 = vector.broadcast %129 : i1 to vector<4xi1>
        %131 = affine.apply #map24()[%thread_id_x, %thread_id_y]
        %132 = arith.cmpi slt, %131, %100 : index
        %133 = vector.broadcast %132 : i1 to vector<4xi1>
        %134 = affine.apply #map25()[%thread_id_x, %thread_id_y]
        %135 = arith.cmpi slt, %134, %100 : index
        %136 = vector.broadcast %135 : i1 to vector<4xi1>
        %137 = affine.apply #map26()[%thread_id_x, %thread_id_y]
        %138 = arith.cmpi slt, %137, %100 : index
        %139 = vector.broadcast %138 : i1 to vector<4xi1>
        %140 = affine.apply #map27()[%thread_id_x, %thread_id_y]
        %141 = arith.cmpi slt, %140, %100 : index
        %142 = vector.broadcast %141 : i1 to vector<4xi1>
        %143 = affine.apply #map28()[%thread_id_x, %thread_id_y]
        %144 = arith.cmpi slt, %143, %100 : index
        %145 = vector.broadcast %144 : i1 to vector<4xi1>
        %146 = affine.apply #map29()[%thread_id_x, %thread_id_y]
        %147 = arith.cmpi slt, %146, %100 : index
        %148 = vector.broadcast %147 : i1 to vector<4xi1>
        %149 = affine.apply #map30()[%thread_id_x, %thread_id_y]
        %150 = arith.cmpi slt, %149, %100 : index
        %151 = vector.broadcast %150 : i1 to vector<4xi1>
        %152 = affine.apply #map31()[%thread_id_x, %thread_id_y]
        %153 = arith.cmpi slt, %152, %100 : index
        %154 = vector.broadcast %153 : i1 to vector<4xi1>
        %155 = affine.apply #map32()[%thread_id_x, %thread_id_y]
        %156 = arith.cmpi slt, %155, %100 : index
        %157 = vector.broadcast %156 : i1 to vector<4xi1>
        %158 = affine.apply #map33()[%thread_id_x, %thread_id_y]
        %159 = arith.cmpi slt, %158, %100 : index
        %160 = vector.broadcast %159 : i1 to vector<4xi1>
        %161 = affine.apply #map34()[%thread_id_x, %thread_id_y]
        %162 = arith.cmpi slt, %161, %100 : index
        %163 = vector.broadcast %162 : i1 to vector<4xi1>
        %164 = affine.apply #map35()[%thread_id_x, %thread_id_y]
        %165 = arith.cmpi slt, %164, %100 : index
        %166 = vector.broadcast %165 : i1 to vector<4xi1>
        %167 = affine.apply #map36()[%thread_id_x, %thread_id_y]
        %168 = arith.cmpi slt, %167, %100 : index
        %169 = vector.broadcast %168 : i1 to vector<4xi1>
        %170 = affine.apply #map37()[%thread_id_x, %thread_id_y]
        %171 = arith.cmpi slt, %170, %100 : index
        %172 = vector.broadcast %171 : i1 to vector<4xi1>
        %173 = affine.apply #map38()[%thread_id_x, %thread_id_y]
        %174 = arith.cmpi slt, %173, %100 : index
        %175 = vector.broadcast %174 : i1 to vector<4xi1>
        %176 = affine.apply #map39()[%thread_id_x, %thread_id_y]
        %177 = arith.cmpi slt, %176, %100 : index
        %178 = vector.broadcast %177 : i1 to vector<4xi1>
        %179 = affine.apply #map40()[%thread_id_x, %thread_id_y]
        %180 = arith.cmpi slt, %179, %100 : index
        %181 = vector.broadcast %180 : i1 to vector<4xi1>
        %182 = affine.apply #map41()[%thread_id_x, %thread_id_y]
        %183 = arith.cmpi slt, %182, %100 : index
        %184 = vector.broadcast %183 : i1 to vector<4xi1>
        %185 = affine.apply #map42()[%thread_id_x, %thread_id_y]
        %186 = arith.cmpi slt, %185, %100 : index
        %187 = vector.broadcast %186 : i1 to vector<4xi1>
        %188 = affine.apply #map43()[%thread_id_x, %thread_id_y]
        %189 = arith.cmpi slt, %188, %100 : index
        %190 = vector.broadcast %189 : i1 to vector<4xi1>
        %191 = affine.apply #map44()[%thread_id_x, %thread_id_y]
        %192 = arith.cmpi slt, %191, %100 : index
        %193 = vector.broadcast %192 : i1 to vector<4xi1>
        %194 = affine.apply #map45()[%thread_id_x, %thread_id_y]
        %195 = arith.cmpi slt, %194, %100 : index
        %196 = vector.broadcast %195 : i1 to vector<4xi1>
        %197 = affine.apply #map46()[%thread_id_x, %thread_id_y]
        %198 = arith.cmpi slt, %197, %100 : index
        %199 = vector.broadcast %198 : i1 to vector<4xi1>
        %200 = affine.apply #map47()[%thread_id_x, %thread_id_y]
        %201 = arith.cmpi slt, %200, %100 : index
        %202 = vector.broadcast %201 : i1 to vector<4xi1>
        %203 = affine.apply #map48()[%thread_id_x, %thread_id_y]
        %204 = arith.cmpi slt, %203, %100 : index
        %205 = vector.broadcast %204 : i1 to vector<4xi1>
        %206 = affine.apply #map49()[%thread_id_x, %thread_id_y]
        %207 = arith.cmpi slt, %206, %100 : index
        %208 = vector.broadcast %207 : i1 to vector<4xi1>
        %209 = affine.apply #map50()[%thread_id_x, %thread_id_y]
        %210 = arith.cmpi slt, %209, %100 : index
        %211 = vector.broadcast %210 : i1 to vector<4xi1>
        %212 = affine.apply #map51()[%thread_id_x, %thread_id_y]
        %213 = arith.cmpi slt, %212, %100 : index
        %214 = vector.broadcast %213 : i1 to vector<4xi1>
        %215 = affine.apply #map52()[%thread_id_x, %thread_id_y]
        %216 = arith.cmpi slt, %215, %100 : index
        %217 = vector.broadcast %216 : i1 to vector<4xi1>
        %218 = affine.apply #map53()[%thread_id_x, %thread_id_y]
        %219 = arith.cmpi slt, %218, %100 : index
        %220 = vector.broadcast %219 : i1 to vector<4xi1>
        %221 = affine.apply #map54()[%thread_id_x, %thread_id_y]
        %222 = arith.cmpi slt, %221, %100 : index
        %223 = vector.broadcast %222 : i1 to vector<4xi1>
        %224 = affine.apply #map55()[%thread_id_x, %thread_id_y]
        %225 = arith.cmpi slt, %224, %100 : index
        %226 = vector.broadcast %225 : i1 to vector<4xi1>
        %227 = affine.apply #map56()[%thread_id_x, %thread_id_y]
        %228 = arith.cmpi slt, %227, %100 : index
        %229 = vector.broadcast %228 : i1 to vector<4xi1>
        %230 = affine.apply #map57()[%thread_id_x, %thread_id_y]
        %231 = arith.cmpi slt, %230, %100 : index
        %232 = vector.broadcast %231 : i1 to vector<4xi1>
        %233 = affine.apply #map58()[%thread_id_x, %thread_id_y]
        %234 = arith.cmpi slt, %233, %100 : index
        %235 = vector.broadcast %234 : i1 to vector<4xi1>
        %236 = affine.apply #map59()[%thread_id_x, %thread_id_y]
        %237 = arith.cmpi slt, %236, %100 : index
        %238 = vector.broadcast %237 : i1 to vector<4xi1>
        %239 = affine.apply #map60()[%thread_id_x, %thread_id_y]
        %240 = arith.cmpi slt, %239, %100 : index
        %241 = vector.broadcast %240 : i1 to vector<4xi1>
        %242 = affine.apply #map61()[%thread_id_x, %thread_id_y]
        %243 = arith.cmpi slt, %242, %100 : index
        %244 = vector.broadcast %243 : i1 to vector<4xi1>
        %245 = affine.apply #map62()[%thread_id_x, %thread_id_y]
        %246 = arith.cmpi slt, %245, %100 : index
        %247 = vector.broadcast %246 : i1 to vector<4xi1>
        %248 = affine.apply #map63()[%thread_id_x, %thread_id_y]
        %249 = arith.cmpi slt, %248, %100 : index
        %250 = vector.broadcast %249 : i1 to vector<4xi1>
        %251 = affine.apply #map64()[%thread_id_x, %thread_id_y]
        %252 = arith.cmpi slt, %251, %100 : index
        %253 = vector.broadcast %252 : i1 to vector<4xi1>
        %254 = affine.apply #map65()[%thread_id_x, %thread_id_y]
        %255 = arith.cmpi slt, %254, %100 : index
        %256 = vector.broadcast %255 : i1 to vector<4xi1>
        %257:46 = scf.for %arg3 = %c0 to %c255 step %c1 iter_args(%arg4 = %cst_4, %arg5 = %cst_4, %arg6 = %cst_4, %arg7 = %cst_4, %arg8 = %cst_4, %arg9 = %cst_4, %arg10 = %cst_4, %arg11 = %cst_4, %arg12 = %cst_4, %arg13 = %cst_4, %arg14 = %cst_4, %arg15 = %cst_4, %arg16 = %cst_4, %arg17 = %cst_4, %arg18 = %cst_4, %arg19 = %cst_4, %arg20 = %cst_4, %arg21 = %cst_4, %arg22 = %cst_4, %arg23 = %cst_4, %arg24 = %cst_4, %arg25 = %cst_4, %arg26 = %cst_4, %arg27 = %cst_4, %arg28 = %cst_4, %arg29 = %cst_4, %arg30 = %cst_4, %arg31 = %cst_4, %arg32 = %cst_4, %arg33 = %cst_4, %arg34 = %cst_4, %arg35 = %cst_4, %arg36 = %cst_4, %arg37 = %cst_4, %arg38 = %cst_4, %arg39 = %cst_4, %arg40 = %cst_4, %arg41 = %cst_4, %arg42 = %cst_4, %arg43 = %cst_4, %arg44 = %cst_4, %arg45 = %cst_4, %arg46 = %cst_4, %arg47 = %cst_4, %arg48 = %cst_4, %arg49 = %cst_4) -> (vector<4xf32>, vector<4xf32>, vector<4xf32>, vector<4xf32>, vector<4xf32>, vector<4xf32>, vector<4xf32>, vector<4xf32>, vector<4xf32>, vector<4xf32>, vector<4xf32>, vector<4xf32>, vector<4xf32>, vector<4xf32>, vector<4xf32>, vector<4xf32>, vector<4xf32>, vector<4xf32>, vector<4xf32>, vector<4xf32>, vector<4xf32>, vector<4xf32>, vector<4xf32>, vector<4xf32>, vector<4xf32>, vector<4xf32>, vector<4xf32>, vector<4xf32>, vector<4xf32>, vector<4xf32>, vector<4xf32>, vector<4xf32>, vector<4xf32>, vector<4xf32>, vector<4xf32>, vector<4xf32>, vector<4xf32>, vector<4xf32>, vector<4xf32>, vector<4xf32>, vector<4xf32>, vector<4xf32>, vector<4xf32>, vector<4xf32>, vector<4xf32>, vector<4xf32>) {
          amdgpu.lds_barrier
          %1344 = vector.maskedload %view[%119, %8], %121, %cst : memref<1448x20xf16, #gpu.address_space<workgroup>>, vector<4xi1>, vector<4xf16> into vector<4xf16>
          %1345 = vector.maskedload %view[%122, %8], %124, %cst : memref<1448x20xf16, #gpu.address_space<workgroup>>, vector<4xi1>, vector<4xf16> into vector<4xf16>
          %1346 = vector.maskedload %view[%125, %8], %127, %cst : memref<1448x20xf16, #gpu.address_space<workgroup>>, vector<4xi1>, vector<4xf16> into vector<4xf16>
          %1347 = vector.maskedload %view[%128, %8], %130, %cst : memref<1448x20xf16, #gpu.address_space<workgroup>>, vector<4xi1>, vector<4xf16> into vector<4xf16>
          %1348 = vector.maskedload %view[%131, %8], %133, %cst : memref<1448x20xf16, #gpu.address_space<workgroup>>, vector<4xi1>, vector<4xf16> into vector<4xf16>
          %1349 = vector.maskedload %view[%134, %8], %136, %cst : memref<1448x20xf16, #gpu.address_space<workgroup>>, vector<4xi1>, vector<4xf16> into vector<4xf16>
          %1350 = vector.maskedload %view[%137, %8], %139, %cst : memref<1448x20xf16, #gpu.address_space<workgroup>>, vector<4xi1>, vector<4xf16> into vector<4xf16>
          %1351 = vector.maskedload %view[%140, %8], %142, %cst : memref<1448x20xf16, #gpu.address_space<workgroup>>, vector<4xi1>, vector<4xf16> into vector<4xf16>
          %1352 = vector.maskedload %view[%143, %8], %145, %cst : memref<1448x20xf16, #gpu.address_space<workgroup>>, vector<4xi1>, vector<4xf16> into vector<4xf16>
          %1353 = vector.maskedload %view[%146, %8], %148, %cst : memref<1448x20xf16, #gpu.address_space<workgroup>>, vector<4xi1>, vector<4xf16> into vector<4xf16>
          %1354 = vector.maskedload %view[%149, %8], %151, %cst : memref<1448x20xf16, #gpu.address_space<workgroup>>, vector<4xi1>, vector<4xf16> into vector<4xf16>
          %1355 = vector.maskedload %view[%152, %8], %154, %cst : memref<1448x20xf16, #gpu.address_space<workgroup>>, vector<4xi1>, vector<4xf16> into vector<4xf16>
          %1356 = vector.maskedload %view[%155, %8], %157, %cst : memref<1448x20xf16, #gpu.address_space<workgroup>>, vector<4xi1>, vector<4xf16> into vector<4xf16>
          %1357 = vector.maskedload %view[%158, %8], %160, %cst : memref<1448x20xf16, #gpu.address_space<workgroup>>, vector<4xi1>, vector<4xf16> into vector<4xf16>
          %1358 = vector.maskedload %view[%161, %8], %163, %cst : memref<1448x20xf16, #gpu.address_space<workgroup>>, vector<4xi1>, vector<4xf16> into vector<4xf16>
          %1359 = vector.maskedload %view[%164, %8], %166, %cst : memref<1448x20xf16, #gpu.address_space<workgroup>>, vector<4xi1>, vector<4xf16> into vector<4xf16>
          %1360 = vector.maskedload %view[%167, %8], %169, %cst : memref<1448x20xf16, #gpu.address_space<workgroup>>, vector<4xi1>, vector<4xf16> into vector<4xf16>
          %1361 = vector.maskedload %view[%170, %8], %172, %cst : memref<1448x20xf16, #gpu.address_space<workgroup>>, vector<4xi1>, vector<4xf16> into vector<4xf16>
          %1362 = vector.maskedload %view[%173, %8], %175, %cst : memref<1448x20xf16, #gpu.address_space<workgroup>>, vector<4xi1>, vector<4xf16> into vector<4xf16>
          %1363 = vector.maskedload %view[%176, %8], %178, %cst : memref<1448x20xf16, #gpu.address_space<workgroup>>, vector<4xi1>, vector<4xf16> into vector<4xf16>
          %1364 = vector.maskedload %view[%179, %8], %181, %cst : memref<1448x20xf16, #gpu.address_space<workgroup>>, vector<4xi1>, vector<4xf16> into vector<4xf16>
          %1365 = vector.maskedload %view[%182, %8], %184, %cst : memref<1448x20xf16, #gpu.address_space<workgroup>>, vector<4xi1>, vector<4xf16> into vector<4xf16>
          %1366 = vector.maskedload %view[%185, %8], %187, %cst : memref<1448x20xf16, #gpu.address_space<workgroup>>, vector<4xi1>, vector<4xf16> into vector<4xf16>
          %1367 = vector.maskedload %view[%188, %8], %190, %cst : memref<1448x20xf16, #gpu.address_space<workgroup>>, vector<4xi1>, vector<4xf16> into vector<4xf16>
          %1368 = vector.maskedload %view[%191, %8], %193, %cst : memref<1448x20xf16, #gpu.address_space<workgroup>>, vector<4xi1>, vector<4xf16> into vector<4xf16>
          %1369 = vector.maskedload %view[%194, %8], %196, %cst : memref<1448x20xf16, #gpu.address_space<workgroup>>, vector<4xi1>, vector<4xf16> into vector<4xf16>
          %1370 = vector.maskedload %view[%197, %8], %199, %cst : memref<1448x20xf16, #gpu.address_space<workgroup>>, vector<4xi1>, vector<4xf16> into vector<4xf16>
          %1371 = vector.maskedload %view[%200, %8], %202, %cst : memref<1448x20xf16, #gpu.address_space<workgroup>>, vector<4xi1>, vector<4xf16> into vector<4xf16>
          %1372 = vector.maskedload %view[%203, %8], %205, %cst : memref<1448x20xf16, #gpu.address_space<workgroup>>, vector<4xi1>, vector<4xf16> into vector<4xf16>
          %1373 = vector.maskedload %view[%206, %8], %208, %cst : memref<1448x20xf16, #gpu.address_space<workgroup>>, vector<4xi1>, vector<4xf16> into vector<4xf16>
          %1374 = vector.maskedload %view[%209, %8], %211, %cst : memref<1448x20xf16, #gpu.address_space<workgroup>>, vector<4xi1>, vector<4xf16> into vector<4xf16>
          %1375 = vector.maskedload %view[%212, %8], %214, %cst : memref<1448x20xf16, #gpu.address_space<workgroup>>, vector<4xi1>, vector<4xf16> into vector<4xf16>
          %1376 = vector.maskedload %view[%215, %8], %217, %cst : memref<1448x20xf16, #gpu.address_space<workgroup>>, vector<4xi1>, vector<4xf16> into vector<4xf16>
          %1377 = vector.maskedload %view[%218, %8], %220, %cst : memref<1448x20xf16, #gpu.address_space<workgroup>>, vector<4xi1>, vector<4xf16> into vector<4xf16>
          %1378 = vector.maskedload %view[%221, %8], %223, %cst : memref<1448x20xf16, #gpu.address_space<workgroup>>, vector<4xi1>, vector<4xf16> into vector<4xf16>
          %1379 = vector.maskedload %view[%224, %8], %226, %cst : memref<1448x20xf16, #gpu.address_space<workgroup>>, vector<4xi1>, vector<4xf16> into vector<4xf16>
          %1380 = vector.maskedload %view[%227, %8], %229, %cst : memref<1448x20xf16, #gpu.address_space<workgroup>>, vector<4xi1>, vector<4xf16> into vector<4xf16>
          %1381 = vector.maskedload %view[%230, %8], %232, %cst : memref<1448x20xf16, #gpu.address_space<workgroup>>, vector<4xi1>, vector<4xf16> into vector<4xf16>
          %1382 = vector.maskedload %view[%233, %8], %235, %cst : memref<1448x20xf16, #gpu.address_space<workgroup>>, vector<4xi1>, vector<4xf16> into vector<4xf16>
          %1383 = vector.maskedload %view[%236, %8], %238, %cst : memref<1448x20xf16, #gpu.address_space<workgroup>>, vector<4xi1>, vector<4xf16> into vector<4xf16>
          %1384 = vector.maskedload %view[%239, %8], %241, %cst : memref<1448x20xf16, #gpu.address_space<workgroup>>, vector<4xi1>, vector<4xf16> into vector<4xf16>
          %1385 = vector.maskedload %view[%242, %8], %244, %cst : memref<1448x20xf16, #gpu.address_space<workgroup>>, vector<4xi1>, vector<4xf16> into vector<4xf16>
          %1386 = vector.maskedload %view[%245, %8], %247, %cst : memref<1448x20xf16, #gpu.address_space<workgroup>>, vector<4xi1>, vector<4xf16> into vector<4xf16>
          %1387 = vector.maskedload %view[%248, %8], %250, %cst : memref<1448x20xf16, #gpu.address_space<workgroup>>, vector<4xi1>, vector<4xf16> into vector<4xf16>
          %1388 = vector.maskedload %view[%251, %8], %253, %cst : memref<1448x20xf16, #gpu.address_space<workgroup>>, vector<4xi1>, vector<4xf16> into vector<4xf16>
          %1389 = vector.maskedload %view[%254, %8], %256, %cst : memref<1448x20xf16, #gpu.address_space<workgroup>>, vector<4xi1>, vector<4xf16> into vector<4xf16>
          %1390 = vector.maskedload %view_5[%96, %8], %98, %cst : memref<16x20xf16, #gpu.address_space<workgroup>>, vector<4xi1>, vector<4xf16> into vector<4xf16>
          %1391 = affine.apply #map66()[%arg3, %thread_id_x]
          %1392 = arith.addi %9, %1391 overflow<nsw> : index
          %1393 = arith.index_cast %1392 : index to i32
          %1394 = vector.broadcast %1393 : i32 to vector<4xi32>
          %1395 = arith.addi %1394, %cst_2 : vector<4xi32>
          %1396 = arith.index_cast %1395 : vector<4xi32> to vector<4xindex>
          %1397 = arith.select %7, %1396, %cst_3 : vector<4xi1>, vector<4xindex>
          %1398 = vector.extract %1397[0] : index from vector<4xindex>
          %1399 = vector.load %11[%1398] : memref<?xf16, #amdgpu.address_space<fat_raw_buffer>>, vector<4xf16>
          %1400 = affine.apply #map67()[%arg3, %thread_id_x]
          %1401 = arith.addi %24, %1400 overflow<nsw> : index
          %1402 = arith.index_cast %1401 : index to i32
          %1403 = vector.broadcast %1402 : i32 to vector<8xi32>
          %1404 = arith.addi %1403, %cst_0 : vector<8xi32>
          %1405 = arith.index_cast %1404 : vector<8xi32> to vector<8xindex>
          %1406 = arith.select %22, %1405, %cst_1 : vector<8xi1>, vector<8xindex>
          %1407 = vector.extract %1406[0] : index from vector<8xindex>
          %1408 = vector.load %26[%1407] : memref<?xf16, #amdgpu.address_space<fat_raw_buffer>>, vector<8xf16>
          %1409 = arith.addi %37, %1400 overflow<nsw> : index
          %1410 = arith.index_cast %1409 : index to i32
          %1411 = vector.broadcast %1410 : i32 to vector<8xi32>
          %1412 = arith.addi %1411, %cst_0 : vector<8xi32>
          %1413 = arith.index_cast %1412 : vector<8xi32> to vector<8xindex>
          %1414 = arith.select %36, %1413, %cst_1 : vector<8xi1>, vector<8xindex>
          %1415 = vector.extract %1414[0] : index from vector<8xindex>
          %1416 = vector.load %26[%1415] : memref<?xf16, #amdgpu.address_space<fat_raw_buffer>>, vector<8xf16>
          %1417 = arith.addi %49, %1400 overflow<nsw> : index
          %1418 = arith.index_cast %1417 : index to i32
          %1419 = vector.broadcast %1418 : i32 to vector<8xi32>
          %1420 = arith.addi %1419, %cst_0 : vector<8xi32>
          %1421 = arith.index_cast %1420 : vector<8xi32> to vector<8xindex>
          %1422 = arith.select %48, %1421, %cst_1 : vector<8xi1>, vector<8xindex>
          %1423 = vector.extract %1422[0] : index from vector<8xindex>
          %1424 = vector.load %26[%1423] : memref<?xf16, #amdgpu.address_space<fat_raw_buffer>>, vector<8xf16>
          %1425 = arith.addi %61, %1400 overflow<nsw> : index
          %1426 = arith.index_cast %1425 : index to i32
          %1427 = vector.broadcast %1426 : i32 to vector<8xi32>
          %1428 = arith.addi %1427, %cst_0 : vector<8xi32>
          %1429 = arith.index_cast %1428 : vector<8xi32> to vector<8xindex>
          %1430 = arith.select %60, %1429, %cst_1 : vector<8xi1>, vector<8xindex>
          %1431 = vector.extract %1430[0] : index from vector<8xindex>
          %1432 = vector.load %26[%1431] : memref<?xf16, #amdgpu.address_space<fat_raw_buffer>>, vector<8xf16>
          %1433 = arith.addi %73, %1400 overflow<nsw> : index
          %1434 = arith.index_cast %1433 : index to i32
          %1435 = vector.broadcast %1434 : i32 to vector<8xi32>
          %1436 = arith.addi %1435, %cst_0 : vector<8xi32>
          %1437 = arith.index_cast %1436 : vector<8xi32> to vector<8xindex>
          %1438 = arith.select %72, %1437, %cst_1 : vector<8xi1>, vector<8xindex>
          %1439 = vector.extract %1438[0] : index from vector<8xindex>
          %1440 = vector.load %26[%1439] : memref<?xf16, #amdgpu.address_space<fat_raw_buffer>>, vector<8xf16>
          %1441 = arith.addi %85, %1400 overflow<nsw> : index
          %1442 = arith.index_cast %1441 : index to i32
          %1443 = vector.broadcast %1442 : i32 to vector<8xi32>
          %1444 = arith.addi %1443, %cst_0 : vector<8xi32>
          %1445 = arith.index_cast %1444 : vector<8xi32> to vector<8xindex>
          %1446 = arith.select %84, %1445, %cst_1 : vector<8xi1>, vector<8xindex>
          %1447 = vector.extract %1446[0] : index from vector<8xindex>
          %1448 = vector.load %26[%1447] : memref<?xf16, #amdgpu.address_space<fat_raw_buffer>>, vector<8xf16>
          %1449 = amdgpu.mfma %1390 * %1344 + %arg4 {blocks = 1 : i32, k = 16 : i32, m = 16 : i32, n = 16 : i32} blgp =  none : vector<4xf16>, vector<4xf16>, vector<4xf32>
          %1450 = amdgpu.mfma %1390 * %1345 + %arg5 {blocks = 1 : i32, k = 16 : i32, m = 16 : i32, n = 16 : i32} blgp =  none : vector<4xf16>, vector<4xf16>, vector<4xf32>
          %1451 = amdgpu.mfma %1390 * %1346 + %arg6 {blocks = 1 : i32, k = 16 : i32, m = 16 : i32, n = 16 : i32} blgp =  none : vector<4xf16>, vector<4xf16>, vector<4xf32>
          %1452 = amdgpu.mfma %1390 * %1347 + %arg7 {blocks = 1 : i32, k = 16 : i32, m = 16 : i32, n = 16 : i32} blgp =  none : vector<4xf16>, vector<4xf16>, vector<4xf32>
          %1453 = amdgpu.mfma %1390 * %1348 + %arg8 {blocks = 1 : i32, k = 16 : i32, m = 16 : i32, n = 16 : i32} blgp =  none : vector<4xf16>, vector<4xf16>, vector<4xf32>
          %1454 = amdgpu.mfma %1390 * %1349 + %arg9 {blocks = 1 : i32, k = 16 : i32, m = 16 : i32, n = 16 : i32} blgp =  none : vector<4xf16>, vector<4xf16>, vector<4xf32>
          %1455 = amdgpu.mfma %1390 * %1350 + %arg10 {blocks = 1 : i32, k = 16 : i32, m = 16 : i32, n = 16 : i32} blgp =  none : vector<4xf16>, vector<4xf16>, vector<4xf32>
          %1456 = amdgpu.mfma %1390 * %1351 + %arg11 {blocks = 1 : i32, k = 16 : i32, m = 16 : i32, n = 16 : i32} blgp =  none : vector<4xf16>, vector<4xf16>, vector<4xf32>
          %1457 = amdgpu.mfma %1390 * %1352 + %arg12 {blocks = 1 : i32, k = 16 : i32, m = 16 : i32, n = 16 : i32} blgp =  none : vector<4xf16>, vector<4xf16>, vector<4xf32>
          %1458 = amdgpu.mfma %1390 * %1353 + %arg13 {blocks = 1 : i32, k = 16 : i32, m = 16 : i32, n = 16 : i32} blgp =  none : vector<4xf16>, vector<4xf16>, vector<4xf32>
          %1459 = amdgpu.mfma %1390 * %1354 + %arg14 {blocks = 1 : i32, k = 16 : i32, m = 16 : i32, n = 16 : i32} blgp =  none : vector<4xf16>, vector<4xf16>, vector<4xf32>
          %1460 = amdgpu.mfma %1390 * %1355 + %arg15 {blocks = 1 : i32, k = 16 : i32, m = 16 : i32, n = 16 : i32} blgp =  none : vector<4xf16>, vector<4xf16>, vector<4xf32>
          %1461 = amdgpu.mfma %1390 * %1356 + %arg16 {blocks = 1 : i32, k = 16 : i32, m = 16 : i32, n = 16 : i32} blgp =  none : vector<4xf16>, vector<4xf16>, vector<4xf32>
          %1462 = amdgpu.mfma %1390 * %1357 + %arg17 {blocks = 1 : i32, k = 16 : i32, m = 16 : i32, n = 16 : i32} blgp =  none : vector<4xf16>, vector<4xf16>, vector<4xf32>
          %1463 = amdgpu.mfma %1390 * %1358 + %arg18 {blocks = 1 : i32, k = 16 : i32, m = 16 : i32, n = 16 : i32} blgp =  none : vector<4xf16>, vector<4xf16>, vector<4xf32>
          %1464 = amdgpu.mfma %1390 * %1359 + %arg19 {blocks = 1 : i32, k = 16 : i32, m = 16 : i32, n = 16 : i32} blgp =  none : vector<4xf16>, vector<4xf16>, vector<4xf32>
          %1465 = amdgpu.mfma %1390 * %1360 + %arg20 {blocks = 1 : i32, k = 16 : i32, m = 16 : i32, n = 16 : i32} blgp =  none : vector<4xf16>, vector<4xf16>, vector<4xf32>
          %1466 = amdgpu.mfma %1390 * %1361 + %arg21 {blocks = 1 : i32, k = 16 : i32, m = 16 : i32, n = 16 : i32} blgp =  none : vector<4xf16>, vector<4xf16>, vector<4xf32>
          %1467 = amdgpu.mfma %1390 * %1362 + %arg22 {blocks = 1 : i32, k = 16 : i32, m = 16 : i32, n = 16 : i32} blgp =  none : vector<4xf16>, vector<4xf16>, vector<4xf32>
          %1468 = amdgpu.mfma %1390 * %1363 + %arg23 {blocks = 1 : i32, k = 16 : i32, m = 16 : i32, n = 16 : i32} blgp =  none : vector<4xf16>, vector<4xf16>, vector<4xf32>
          %1469 = amdgpu.mfma %1390 * %1364 + %arg24 {blocks = 1 : i32, k = 16 : i32, m = 16 : i32, n = 16 : i32} blgp =  none : vector<4xf16>, vector<4xf16>, vector<4xf32>
          %1470 = amdgpu.mfma %1390 * %1365 + %arg25 {blocks = 1 : i32, k = 16 : i32, m = 16 : i32, n = 16 : i32} blgp =  none : vector<4xf16>, vector<4xf16>, vector<4xf32>
          %1471 = amdgpu.mfma %1390 * %1366 + %arg26 {blocks = 1 : i32, k = 16 : i32, m = 16 : i32, n = 16 : i32} blgp =  none : vector<4xf16>, vector<4xf16>, vector<4xf32>
          %1472 = amdgpu.mfma %1390 * %1367 + %arg27 {blocks = 1 : i32, k = 16 : i32, m = 16 : i32, n = 16 : i32} blgp =  none : vector<4xf16>, vector<4xf16>, vector<4xf32>
          %1473 = amdgpu.mfma %1390 * %1368 + %arg28 {blocks = 1 : i32, k = 16 : i32, m = 16 : i32, n = 16 : i32} blgp =  none : vector<4xf16>, vector<4xf16>, vector<4xf32>
          %1474 = amdgpu.mfma %1390 * %1369 + %arg29 {blocks = 1 : i32, k = 16 : i32, m = 16 : i32, n = 16 : i32} blgp =  none : vector<4xf16>, vector<4xf16>, vector<4xf32>
          %1475 = amdgpu.mfma %1390 * %1370 + %arg30 {blocks = 1 : i32, k = 16 : i32, m = 16 : i32, n = 16 : i32} blgp =  none : vector<4xf16>, vector<4xf16>, vector<4xf32>
          %1476 = amdgpu.mfma %1390 * %1371 + %arg31 {blocks = 1 : i32, k = 16 : i32, m = 16 : i32, n = 16 : i32} blgp =  none : vector<4xf16>, vector<4xf16>, vector<4xf32>
          %1477 = amdgpu.mfma %1390 * %1372 + %arg32 {blocks = 1 : i32, k = 16 : i32, m = 16 : i32, n = 16 : i32} blgp =  none : vector<4xf16>, vector<4xf16>, vector<4xf32>
          %1478 = amdgpu.mfma %1390 * %1373 + %arg33 {blocks = 1 : i32, k = 16 : i32, m = 16 : i32, n = 16 : i32} blgp =  none : vector<4xf16>, vector<4xf16>, vector<4xf32>
          %1479 = amdgpu.mfma %1390 * %1374 + %arg34 {blocks = 1 : i32, k = 16 : i32, m = 16 : i32, n = 16 : i32} blgp =  none : vector<4xf16>, vector<4xf16>, vector<4xf32>
          %1480 = amdgpu.mfma %1390 * %1375 + %arg35 {blocks = 1 : i32, k = 16 : i32, m = 16 : i32, n = 16 : i32} blgp =  none : vector<4xf16>, vector<4xf16>, vector<4xf32>
          %1481 = amdgpu.mfma %1390 * %1376 + %arg36 {blocks = 1 : i32, k = 16 : i32, m = 16 : i32, n = 16 : i32} blgp =  none : vector<4xf16>, vector<4xf16>, vector<4xf32>
          %1482 = amdgpu.mfma %1390 * %1377 + %arg37 {blocks = 1 : i32, k = 16 : i32, m = 16 : i32, n = 16 : i32} blgp =  none : vector<4xf16>, vector<4xf16>, vector<4xf32>
          %1483 = amdgpu.mfma %1390 * %1378 + %arg38 {blocks = 1 : i32, k = 16 : i32, m = 16 : i32, n = 16 : i32} blgp =  none : vector<4xf16>, vector<4xf16>, vector<4xf32>
          %1484 = amdgpu.mfma %1390 * %1379 + %arg39 {blocks = 1 : i32, k = 16 : i32, m = 16 : i32, n = 16 : i32} blgp =  none : vector<4xf16>, vector<4xf16>, vector<4xf32>
          %1485 = amdgpu.mfma %1390 * %1380 + %arg40 {blocks = 1 : i32, k = 16 : i32, m = 16 : i32, n = 16 : i32} blgp =  none : vector<4xf16>, vector<4xf16>, vector<4xf32>
          %1486 = amdgpu.mfma %1390 * %1381 + %arg41 {blocks = 1 : i32, k = 16 : i32, m = 16 : i32, n = 16 : i32} blgp =  none : vector<4xf16>, vector<4xf16>, vector<4xf32>
          %1487 = amdgpu.mfma %1390 * %1382 + %arg42 {blocks = 1 : i32, k = 16 : i32, m = 16 : i32, n = 16 : i32} blgp =  none : vector<4xf16>, vector<4xf16>, vector<4xf32>
          %1488 = amdgpu.mfma %1390 * %1383 + %arg43 {blocks = 1 : i32, k = 16 : i32, m = 16 : i32, n = 16 : i32} blgp =  none : vector<4xf16>, vector<4xf16>, vector<4xf32>
          %1489 = amdgpu.mfma %1390 * %1384 + %arg44 {blocks = 1 : i32, k = 16 : i32, m = 16 : i32, n = 16 : i32} blgp =  none : vector<4xf16>, vector<4xf16>, vector<4xf32>
          %1490 = amdgpu.mfma %1390 * %1385 + %arg45 {blocks = 1 : i32, k = 16 : i32, m = 16 : i32, n = 16 : i32} blgp =  none : vector<4xf16>, vector<4xf16>, vector<4xf32>
          %1491 = amdgpu.mfma %1390 * %1386 + %arg46 {blocks = 1 : i32, k = 16 : i32, m = 16 : i32, n = 16 : i32} blgp =  none : vector<4xf16>, vector<4xf16>, vector<4xf32>
          %1492 = amdgpu.mfma %1390 * %1387 + %arg47 {blocks = 1 : i32, k = 16 : i32, m = 16 : i32, n = 16 : i32} blgp =  none : vector<4xf16>, vector<4xf16>, vector<4xf32>
          %1493 = amdgpu.mfma %1390 * %1388 + %arg48 {blocks = 1 : i32, k = 16 : i32, m = 16 : i32, n = 16 : i32} blgp =  none : vector<4xf16>, vector<4xf16>, vector<4xf32>
          %1494 = amdgpu.mfma %1390 * %1389 + %arg49 {blocks = 1 : i32, k = 16 : i32, m = 16 : i32, n = 16 : i32} blgp =  none : vector<4xf16>, vector<4xf16>, vector<4xf32>
          amdgpu.lds_barrier
          vector.maskedstore %view_5[%96, %8], %98, %1399 : memref<16x20xf16, #gpu.address_space<workgroup>>, vector<4xi1>, vector<4xf16>
          vector.maskedstore %view[%101, %23], %103, %1408 : memref<1448x20xf16, #gpu.address_space<workgroup>>, vector<8xi1>, vector<8xf16>
          vector.maskedstore %view[%104, %23], %106, %1416 : memref<1448x20xf16, #gpu.address_space<workgroup>>, vector<8xi1>, vector<8xf16>
          vector.maskedstore %view[%107, %23], %109, %1424 : memref<1448x20xf16, #gpu.address_space<workgroup>>, vector<8xi1>, vector<8xf16>
          vector.maskedstore %view[%110, %23], %112, %1432 : memref<1448x20xf16, #gpu.address_space<workgroup>>, vector<8xi1>, vector<8xf16>
          vector.maskedstore %view[%113, %23], %115, %1440 : memref<1448x20xf16, #gpu.address_space<workgroup>>, vector<8xi1>, vector<8xf16>
          vector.maskedstore %view[%116, %23], %118, %1448 : memref<1448x20xf16, #gpu.address_space<workgroup>>, vector<8xi1>, vector<8xf16>
          scf.yield %1449, %1450, %1451, %1452, %1453, %1454, %1455, %1456, %1457, %1458, %1459, %1460, %1461, %1462, %1463, %1464, %1465, %1466, %1467, %1468, %1469, %1470, %1471, %1472, %1473, %1474, %1475, %1476, %1477, %1478, %1479, %1480, %1481, %1482, %1483, %1484, %1485, %1486, %1487, %1488, %1489, %1490, %1491, %1492, %1493, %1494 : vector<4xf32>, vector<4xf32>, vector<4xf32>, vector<4xf32>, vector<4xf32>, vector<4xf32>, vector<4xf32>, vector<4xf32>, vector<4xf32>, vector<4xf32>, vector<4xf32>, vector<4xf32>, vector<4xf32>, vector<4xf32>, vector<4xf32>, vector<4xf32>, vector<4xf32>, vector<4xf32>, vector<4xf32>, vector<4xf32>, vector<4xf32>, vector<4xf32>, vector<4xf32>, vector<4xf32>, vector<4xf32>, vector<4xf32>, vector<4xf32>, vector<4xf32>, vector<4xf32>, vector<4xf32>, vector<4xf32>, vector<4xf32>, vector<4xf32>, vector<4xf32>, vector<4xf32>, vector<4xf32>, vector<4xf32>, vector<4xf32>, vector<4xf32>, vector<4xf32>, vector<4xf32>, vector<4xf32>, vector<4xf32>, vector<4xf32>, vector<4xf32>, vector<4xf32>
        }
        amdgpu.lds_barrier
        %258 = affine.apply #map20()[%thread_id_x, %thread_id_y]
        %259 = arith.cmpi slt, %258, %100 : index
        %260 = vector.broadcast %259 : i1 to vector<4xi1>
        %261 = vector.maskedload %view[%258, %8], %260, %cst : memref<1448x20xf16, #gpu.address_space<workgroup>>, vector<4xi1>, vector<4xf16> into vector<4xf16>
        %262 = affine.apply #map21()[%thread_id_x, %thread_id_y]
        %263 = arith.cmpi slt, %262, %100 : index
        %264 = vector.broadcast %263 : i1 to vector<4xi1>
        %265 = vector.maskedload %view[%262, %8], %264, %cst : memref<1448x20xf16, #gpu.address_space<workgroup>>, vector<4xi1>, vector<4xf16> into vector<4xf16>
        %266 = affine.apply #map22()[%thread_id_x, %thread_id_y]
        %267 = arith.cmpi slt, %266, %100 : index
        %268 = vector.broadcast %267 : i1 to vector<4xi1>
        %269 = vector.maskedload %view[%266, %8], %268, %cst : memref<1448x20xf16, #gpu.address_space<workgroup>>, vector<4xi1>, vector<4xf16> into vector<4xf16>
        %270 = affine.apply #map23()[%thread_id_x, %thread_id_y]
        %271 = arith.cmpi slt, %270, %100 : index
        %272 = vector.broadcast %271 : i1 to vector<4xi1>
        %273 = vector.maskedload %view[%270, %8], %272, %cst : memref<1448x20xf16, #gpu.address_space<workgroup>>, vector<4xi1>, vector<4xf16> into vector<4xf16>
        %274 = affine.apply #map24()[%thread_id_x, %thread_id_y]
        %275 = arith.cmpi slt, %274, %100 : index
        %276 = vector.broadcast %275 : i1 to vector<4xi1>
        %277 = vector.maskedload %view[%274, %8], %276, %cst : memref<1448x20xf16, #gpu.address_space<workgroup>>, vector<4xi1>, vector<4xf16> into vector<4xf16>
        %278 = affine.apply #map25()[%thread_id_x, %thread_id_y]
        %279 = arith.cmpi slt, %278, %100 : index
        %280 = vector.broadcast %279 : i1 to vector<4xi1>
        %281 = vector.maskedload %view[%278, %8], %280, %cst : memref<1448x20xf16, #gpu.address_space<workgroup>>, vector<4xi1>, vector<4xf16> into vector<4xf16>
        %282 = affine.apply #map26()[%thread_id_x, %thread_id_y]
        %283 = arith.cmpi slt, %282, %100 : index
        %284 = vector.broadcast %283 : i1 to vector<4xi1>
        %285 = vector.maskedload %view[%282, %8], %284, %cst : memref<1448x20xf16, #gpu.address_space<workgroup>>, vector<4xi1>, vector<4xf16> into vector<4xf16>
        %286 = affine.apply #map27()[%thread_id_x, %thread_id_y]
        %287 = arith.cmpi slt, %286, %100 : index
        %288 = vector.broadcast %287 : i1 to vector<4xi1>
        %289 = vector.maskedload %view[%286, %8], %288, %cst : memref<1448x20xf16, #gpu.address_space<workgroup>>, vector<4xi1>, vector<4xf16> into vector<4xf16>
        %290 = affine.apply #map28()[%thread_id_x, %thread_id_y]
        %291 = arith.cmpi slt, %290, %100 : index
        %292 = vector.broadcast %291 : i1 to vector<4xi1>
        %293 = vector.maskedload %view[%290, %8], %292, %cst : memref<1448x20xf16, #gpu.address_space<workgroup>>, vector<4xi1>, vector<4xf16> into vector<4xf16>
        %294 = affine.apply #map29()[%thread_id_x, %thread_id_y]
        %295 = arith.cmpi slt, %294, %100 : index
        %296 = vector.broadcast %295 : i1 to vector<4xi1>
        %297 = vector.maskedload %view[%294, %8], %296, %cst : memref<1448x20xf16, #gpu.address_space<workgroup>>, vector<4xi1>, vector<4xf16> into vector<4xf16>
        %298 = affine.apply #map30()[%thread_id_x, %thread_id_y]
        %299 = arith.cmpi slt, %298, %100 : index
        %300 = vector.broadcast %299 : i1 to vector<4xi1>
        %301 = vector.maskedload %view[%298, %8], %300, %cst : memref<1448x20xf16, #gpu.address_space<workgroup>>, vector<4xi1>, vector<4xf16> into vector<4xf16>
        %302 = affine.apply #map31()[%thread_id_x, %thread_id_y]
        %303 = arith.cmpi slt, %302, %100 : index
        %304 = vector.broadcast %303 : i1 to vector<4xi1>
        %305 = vector.maskedload %view[%302, %8], %304, %cst : memref<1448x20xf16, #gpu.address_space<workgroup>>, vector<4xi1>, vector<4xf16> into vector<4xf16>
        %306 = affine.apply #map32()[%thread_id_x, %thread_id_y]
        %307 = arith.cmpi slt, %306, %100 : index
        %308 = vector.broadcast %307 : i1 to vector<4xi1>
        %309 = vector.maskedload %view[%306, %8], %308, %cst : memref<1448x20xf16, #gpu.address_space<workgroup>>, vector<4xi1>, vector<4xf16> into vector<4xf16>
        %310 = affine.apply #map33()[%thread_id_x, %thread_id_y]
        %311 = arith.cmpi slt, %310, %100 : index
        %312 = vector.broadcast %311 : i1 to vector<4xi1>
        %313 = vector.maskedload %view[%310, %8], %312, %cst : memref<1448x20xf16, #gpu.address_space<workgroup>>, vector<4xi1>, vector<4xf16> into vector<4xf16>
        %314 = affine.apply #map34()[%thread_id_x, %thread_id_y]
        %315 = arith.cmpi slt, %314, %100 : index
        %316 = vector.broadcast %315 : i1 to vector<4xi1>
        %317 = vector.maskedload %view[%314, %8], %316, %cst : memref<1448x20xf16, #gpu.address_space<workgroup>>, vector<4xi1>, vector<4xf16> into vector<4xf16>
        %318 = affine.apply #map35()[%thread_id_x, %thread_id_y]
        %319 = arith.cmpi slt, %318, %100 : index
        %320 = vector.broadcast %319 : i1 to vector<4xi1>
        %321 = vector.maskedload %view[%318, %8], %320, %cst : memref<1448x20xf16, #gpu.address_space<workgroup>>, vector<4xi1>, vector<4xf16> into vector<4xf16>
        %322 = affine.apply #map36()[%thread_id_x, %thread_id_y]
        %323 = arith.cmpi slt, %322, %100 : index
        %324 = vector.broadcast %323 : i1 to vector<4xi1>
        %325 = vector.maskedload %view[%322, %8], %324, %cst : memref<1448x20xf16, #gpu.address_space<workgroup>>, vector<4xi1>, vector<4xf16> into vector<4xf16>
        %326 = affine.apply #map37()[%thread_id_x, %thread_id_y]
        %327 = arith.cmpi slt, %326, %100 : index
        %328 = vector.broadcast %327 : i1 to vector<4xi1>
        %329 = vector.maskedload %view[%326, %8], %328, %cst : memref<1448x20xf16, #gpu.address_space<workgroup>>, vector<4xi1>, vector<4xf16> into vector<4xf16>
        %330 = affine.apply #map38()[%thread_id_x, %thread_id_y]
        %331 = arith.cmpi slt, %330, %100 : index
        %332 = vector.broadcast %331 : i1 to vector<4xi1>
        %333 = vector.maskedload %view[%330, %8], %332, %cst : memref<1448x20xf16, #gpu.address_space<workgroup>>, vector<4xi1>, vector<4xf16> into vector<4xf16>
        %334 = affine.apply #map39()[%thread_id_x, %thread_id_y]
        %335 = arith.cmpi slt, %334, %100 : index
        %336 = vector.broadcast %335 : i1 to vector<4xi1>
        %337 = vector.maskedload %view[%334, %8], %336, %cst : memref<1448x20xf16, #gpu.address_space<workgroup>>, vector<4xi1>, vector<4xf16> into vector<4xf16>
        %338 = affine.apply #map40()[%thread_id_x, %thread_id_y]
        %339 = arith.cmpi slt, %338, %100 : index
        %340 = vector.broadcast %339 : i1 to vector<4xi1>
        %341 = vector.maskedload %view[%338, %8], %340, %cst : memref<1448x20xf16, #gpu.address_space<workgroup>>, vector<4xi1>, vector<4xf16> into vector<4xf16>
        %342 = affine.apply #map41()[%thread_id_x, %thread_id_y]
        %343 = arith.cmpi slt, %342, %100 : index
        %344 = vector.broadcast %343 : i1 to vector<4xi1>
        %345 = vector.maskedload %view[%342, %8], %344, %cst : memref<1448x20xf16, #gpu.address_space<workgroup>>, vector<4xi1>, vector<4xf16> into vector<4xf16>
        %346 = affine.apply #map42()[%thread_id_x, %thread_id_y]
        %347 = arith.cmpi slt, %346, %100 : index
        %348 = vector.broadcast %347 : i1 to vector<4xi1>
        %349 = vector.maskedload %view[%346, %8], %348, %cst : memref<1448x20xf16, #gpu.address_space<workgroup>>, vector<4xi1>, vector<4xf16> into vector<4xf16>
        %350 = affine.apply #map43()[%thread_id_x, %thread_id_y]
        %351 = arith.cmpi slt, %350, %100 : index
        %352 = vector.broadcast %351 : i1 to vector<4xi1>
        %353 = vector.maskedload %view[%350, %8], %352, %cst : memref<1448x20xf16, #gpu.address_space<workgroup>>, vector<4xi1>, vector<4xf16> into vector<4xf16>
        %354 = affine.apply #map44()[%thread_id_x, %thread_id_y]
        %355 = arith.cmpi slt, %354, %100 : index
        %356 = vector.broadcast %355 : i1 to vector<4xi1>
        %357 = vector.maskedload %view[%354, %8], %356, %cst : memref<1448x20xf16, #gpu.address_space<workgroup>>, vector<4xi1>, vector<4xf16> into vector<4xf16>
        %358 = affine.apply #map45()[%thread_id_x, %thread_id_y]
        %359 = arith.cmpi slt, %358, %100 : index
        %360 = vector.broadcast %359 : i1 to vector<4xi1>
        %361 = vector.maskedload %view[%358, %8], %360, %cst : memref<1448x20xf16, #gpu.address_space<workgroup>>, vector<4xi1>, vector<4xf16> into vector<4xf16>
        %362 = affine.apply #map46()[%thread_id_x, %thread_id_y]
        %363 = arith.cmpi slt, %362, %100 : index
        %364 = vector.broadcast %363 : i1 to vector<4xi1>
        %365 = vector.maskedload %view[%362, %8], %364, %cst : memref<1448x20xf16, #gpu.address_space<workgroup>>, vector<4xi1>, vector<4xf16> into vector<4xf16>
        %366 = affine.apply #map47()[%thread_id_x, %thread_id_y]
        %367 = arith.cmpi slt, %366, %100 : index
        %368 = vector.broadcast %367 : i1 to vector<4xi1>
        %369 = vector.maskedload %view[%366, %8], %368, %cst : memref<1448x20xf16, #gpu.address_space<workgroup>>, vector<4xi1>, vector<4xf16> into vector<4xf16>
        %370 = affine.apply #map48()[%thread_id_x, %thread_id_y]
        %371 = arith.cmpi slt, %370, %100 : index
        %372 = vector.broadcast %371 : i1 to vector<4xi1>
        %373 = vector.maskedload %view[%370, %8], %372, %cst : memref<1448x20xf16, #gpu.address_space<workgroup>>, vector<4xi1>, vector<4xf16> into vector<4xf16>
        %374 = affine.apply #map49()[%thread_id_x, %thread_id_y]
        %375 = arith.cmpi slt, %374, %100 : index
        %376 = vector.broadcast %375 : i1 to vector<4xi1>
        %377 = vector.maskedload %view[%374, %8], %376, %cst : memref<1448x20xf16, #gpu.address_space<workgroup>>, vector<4xi1>, vector<4xf16> into vector<4xf16>
        %378 = affine.apply #map50()[%thread_id_x, %thread_id_y]
        %379 = arith.cmpi slt, %378, %100 : index
        %380 = vector.broadcast %379 : i1 to vector<4xi1>
        %381 = vector.maskedload %view[%378, %8], %380, %cst : memref<1448x20xf16, #gpu.address_space<workgroup>>, vector<4xi1>, vector<4xf16> into vector<4xf16>
        %382 = affine.apply #map51()[%thread_id_x, %thread_id_y]
        %383 = arith.cmpi slt, %382, %100 : index
        %384 = vector.broadcast %383 : i1 to vector<4xi1>
        %385 = vector.maskedload %view[%382, %8], %384, %cst : memref<1448x20xf16, #gpu.address_space<workgroup>>, vector<4xi1>, vector<4xf16> into vector<4xf16>
        %386 = affine.apply #map52()[%thread_id_x, %thread_id_y]
        %387 = arith.cmpi slt, %386, %100 : index
        %388 = vector.broadcast %387 : i1 to vector<4xi1>
        %389 = vector.maskedload %view[%386, %8], %388, %cst : memref<1448x20xf16, #gpu.address_space<workgroup>>, vector<4xi1>, vector<4xf16> into vector<4xf16>
        %390 = affine.apply #map53()[%thread_id_x, %thread_id_y]
        %391 = arith.cmpi slt, %390, %100 : index
        %392 = vector.broadcast %391 : i1 to vector<4xi1>
        %393 = vector.maskedload %view[%390, %8], %392, %cst : memref<1448x20xf16, #gpu.address_space<workgroup>>, vector<4xi1>, vector<4xf16> into vector<4xf16>
        %394 = affine.apply #map54()[%thread_id_x, %thread_id_y]
        %395 = arith.cmpi slt, %394, %100 : index
        %396 = vector.broadcast %395 : i1 to vector<4xi1>
        %397 = vector.maskedload %view[%394, %8], %396, %cst : memref<1448x20xf16, #gpu.address_space<workgroup>>, vector<4xi1>, vector<4xf16> into vector<4xf16>
        %398 = affine.apply #map55()[%thread_id_x, %thread_id_y]
        %399 = arith.cmpi slt, %398, %100 : index
        %400 = vector.broadcast %399 : i1 to vector<4xi1>
        %401 = vector.maskedload %view[%398, %8], %400, %cst : memref<1448x20xf16, #gpu.address_space<workgroup>>, vector<4xi1>, vector<4xf16> into vector<4xf16>
        %402 = affine.apply #map56()[%thread_id_x, %thread_id_y]
        %403 = arith.cmpi slt, %402, %100 : index
        %404 = vector.broadcast %403 : i1 to vector<4xi1>
        %405 = vector.maskedload %view[%402, %8], %404, %cst : memref<1448x20xf16, #gpu.address_space<workgroup>>, vector<4xi1>, vector<4xf16> into vector<4xf16>
        %406 = affine.apply #map57()[%thread_id_x, %thread_id_y]
        %407 = arith.cmpi slt, %406, %100 : index
        %408 = vector.broadcast %407 : i1 to vector<4xi1>
        %409 = vector.maskedload %view[%406, %8], %408, %cst : memref<1448x20xf16, #gpu.address_space<workgroup>>, vector<4xi1>, vector<4xf16> into vector<4xf16>
        %410 = affine.apply #map58()[%thread_id_x, %thread_id_y]
        %411 = arith.cmpi slt, %410, %100 : index
        %412 = vector.broadcast %411 : i1 to vector<4xi1>
        %413 = vector.maskedload %view[%410, %8], %412, %cst : memref<1448x20xf16, #gpu.address_space<workgroup>>, vector<4xi1>, vector<4xf16> into vector<4xf16>
        %414 = affine.apply #map59()[%thread_id_x, %thread_id_y]
        %415 = arith.cmpi slt, %414, %100 : index
        %416 = vector.broadcast %415 : i1 to vector<4xi1>
        %417 = vector.maskedload %view[%414, %8], %416, %cst : memref<1448x20xf16, #gpu.address_space<workgroup>>, vector<4xi1>, vector<4xf16> into vector<4xf16>
        %418 = affine.apply #map60()[%thread_id_x, %thread_id_y]
        %419 = arith.cmpi slt, %418, %100 : index
        %420 = vector.broadcast %419 : i1 to vector<4xi1>
        %421 = vector.maskedload %view[%418, %8], %420, %cst : memref<1448x20xf16, #gpu.address_space<workgroup>>, vector<4xi1>, vector<4xf16> into vector<4xf16>
        %422 = affine.apply #map61()[%thread_id_x, %thread_id_y]
        %423 = arith.cmpi slt, %422, %100 : index
        %424 = vector.broadcast %423 : i1 to vector<4xi1>
        %425 = vector.maskedload %view[%422, %8], %424, %cst : memref<1448x20xf16, #gpu.address_space<workgroup>>, vector<4xi1>, vector<4xf16> into vector<4xf16>
        %426 = affine.apply #map62()[%thread_id_x, %thread_id_y]
        %427 = arith.cmpi slt, %426, %100 : index
        %428 = vector.broadcast %427 : i1 to vector<4xi1>
        %429 = vector.maskedload %view[%426, %8], %428, %cst : memref<1448x20xf16, #gpu.address_space<workgroup>>, vector<4xi1>, vector<4xf16> into vector<4xf16>
        %430 = affine.apply #map63()[%thread_id_x, %thread_id_y]
        %431 = arith.cmpi slt, %430, %100 : index
        %432 = vector.broadcast %431 : i1 to vector<4xi1>
        %433 = vector.maskedload %view[%430, %8], %432, %cst : memref<1448x20xf16, #gpu.address_space<workgroup>>, vector<4xi1>, vector<4xf16> into vector<4xf16>
        %434 = affine.apply #map64()[%thread_id_x, %thread_id_y]
        %435 = arith.cmpi slt, %434, %100 : index
        %436 = vector.broadcast %435 : i1 to vector<4xi1>
        %437 = vector.maskedload %view[%434, %8], %436, %cst : memref<1448x20xf16, #gpu.address_space<workgroup>>, vector<4xi1>, vector<4xf16> into vector<4xf16>
        %438 = affine.apply #map65()[%thread_id_x, %thread_id_y]
        %439 = arith.cmpi slt, %438, %100 : index
        %440 = vector.broadcast %439 : i1 to vector<4xi1>
        %441 = vector.maskedload %view[%438, %8], %440, %cst : memref<1448x20xf16, #gpu.address_space<workgroup>>, vector<4xi1>, vector<4xf16> into vector<4xf16>
        %442 = vector.maskedload %view_5[%96, %8], %98, %cst : memref<16x20xf16, #gpu.address_space<workgroup>>, vector<4xi1>, vector<4xf16> into vector<4xf16>
        %443 = amdgpu.mfma %442 * %261 + %257#0 {blocks = 1 : i32, k = 16 : i32, m = 16 : i32, n = 16 : i32} blgp =  none : vector<4xf16>, vector<4xf16>, vector<4xf32>
        %444 = amdgpu.mfma %442 * %265 + %257#1 {blocks = 1 : i32, k = 16 : i32, m = 16 : i32, n = 16 : i32} blgp =  none : vector<4xf16>, vector<4xf16>, vector<4xf32>
        %445 = amdgpu.mfma %442 * %269 + %257#2 {blocks = 1 : i32, k = 16 : i32, m = 16 : i32, n = 16 : i32} blgp =  none : vector<4xf16>, vector<4xf16>, vector<4xf32>
        %446 = amdgpu.mfma %442 * %273 + %257#3 {blocks = 1 : i32, k = 16 : i32, m = 16 : i32, n = 16 : i32} blgp =  none : vector<4xf16>, vector<4xf16>, vector<4xf32>
        %447 = amdgpu.mfma %442 * %277 + %257#4 {blocks = 1 : i32, k = 16 : i32, m = 16 : i32, n = 16 : i32} blgp =  none : vector<4xf16>, vector<4xf16>, vector<4xf32>
        %448 = amdgpu.mfma %442 * %281 + %257#5 {blocks = 1 : i32, k = 16 : i32, m = 16 : i32, n = 16 : i32} blgp =  none : vector<4xf16>, vector<4xf16>, vector<4xf32>
        %449 = amdgpu.mfma %442 * %285 + %257#6 {blocks = 1 : i32, k = 16 : i32, m = 16 : i32, n = 16 : i32} blgp =  none : vector<4xf16>, vector<4xf16>, vector<4xf32>
        %450 = amdgpu.mfma %442 * %289 + %257#7 {blocks = 1 : i32, k = 16 : i32, m = 16 : i32, n = 16 : i32} blgp =  none : vector<4xf16>, vector<4xf16>, vector<4xf32>
        %451 = amdgpu.mfma %442 * %293 + %257#8 {blocks = 1 : i32, k = 16 : i32, m = 16 : i32, n = 16 : i32} blgp =  none : vector<4xf16>, vector<4xf16>, vector<4xf32>
        %452 = amdgpu.mfma %442 * %297 + %257#9 {blocks = 1 : i32, k = 16 : i32, m = 16 : i32, n = 16 : i32} blgp =  none : vector<4xf16>, vector<4xf16>, vector<4xf32>
        %453 = amdgpu.mfma %442 * %301 + %257#10 {blocks = 1 : i32, k = 16 : i32, m = 16 : i32, n = 16 : i32} blgp =  none : vector<4xf16>, vector<4xf16>, vector<4xf32>
        %454 = amdgpu.mfma %442 * %305 + %257#11 {blocks = 1 : i32, k = 16 : i32, m = 16 : i32, n = 16 : i32} blgp =  none : vector<4xf16>, vector<4xf16>, vector<4xf32>
        %455 = amdgpu.mfma %442 * %309 + %257#12 {blocks = 1 : i32, k = 16 : i32, m = 16 : i32, n = 16 : i32} blgp =  none : vector<4xf16>, vector<4xf16>, vector<4xf32>
        %456 = amdgpu.mfma %442 * %313 + %257#13 {blocks = 1 : i32, k = 16 : i32, m = 16 : i32, n = 16 : i32} blgp =  none : vector<4xf16>, vector<4xf16>, vector<4xf32>
        %457 = amdgpu.mfma %442 * %317 + %257#14 {blocks = 1 : i32, k = 16 : i32, m = 16 : i32, n = 16 : i32} blgp =  none : vector<4xf16>, vector<4xf16>, vector<4xf32>
        %458 = amdgpu.mfma %442 * %321 + %257#15 {blocks = 1 : i32, k = 16 : i32, m = 16 : i32, n = 16 : i32} blgp =  none : vector<4xf16>, vector<4xf16>, vector<4xf32>
        %459 = amdgpu.mfma %442 * %325 + %257#16 {blocks = 1 : i32, k = 16 : i32, m = 16 : i32, n = 16 : i32} blgp =  none : vector<4xf16>, vector<4xf16>, vector<4xf32>
        %460 = amdgpu.mfma %442 * %329 + %257#17 {blocks = 1 : i32, k = 16 : i32, m = 16 : i32, n = 16 : i32} blgp =  none : vector<4xf16>, vector<4xf16>, vector<4xf32>
        %461 = amdgpu.mfma %442 * %333 + %257#18 {blocks = 1 : i32, k = 16 : i32, m = 16 : i32, n = 16 : i32} blgp =  none : vector<4xf16>, vector<4xf16>, vector<4xf32>
        %462 = amdgpu.mfma %442 * %337 + %257#19 {blocks = 1 : i32, k = 16 : i32, m = 16 : i32, n = 16 : i32} blgp =  none : vector<4xf16>, vector<4xf16>, vector<4xf32>
        %463 = amdgpu.mfma %442 * %341 + %257#20 {blocks = 1 : i32, k = 16 : i32, m = 16 : i32, n = 16 : i32} blgp =  none : vector<4xf16>, vector<4xf16>, vector<4xf32>
        %464 = amdgpu.mfma %442 * %345 + %257#21 {blocks = 1 : i32, k = 16 : i32, m = 16 : i32, n = 16 : i32} blgp =  none : vector<4xf16>, vector<4xf16>, vector<4xf32>
        %465 = amdgpu.mfma %442 * %349 + %257#22 {blocks = 1 : i32, k = 16 : i32, m = 16 : i32, n = 16 : i32} blgp =  none : vector<4xf16>, vector<4xf16>, vector<4xf32>
        %466 = amdgpu.mfma %442 * %353 + %257#23 {blocks = 1 : i32, k = 16 : i32, m = 16 : i32, n = 16 : i32} blgp =  none : vector<4xf16>, vector<4xf16>, vector<4xf32>
        %467 = amdgpu.mfma %442 * %357 + %257#24 {blocks = 1 : i32, k = 16 : i32, m = 16 : i32, n = 16 : i32} blgp =  none : vector<4xf16>, vector<4xf16>, vector<4xf32>
        %468 = amdgpu.mfma %442 * %361 + %257#25 {blocks = 1 : i32, k = 16 : i32, m = 16 : i32, n = 16 : i32} blgp =  none : vector<4xf16>, vector<4xf16>, vector<4xf32>
        %469 = amdgpu.mfma %442 * %365 + %257#26 {blocks = 1 : i32, k = 16 : i32, m = 16 : i32, n = 16 : i32} blgp =  none : vector<4xf16>, vector<4xf16>, vector<4xf32>
        %470 = amdgpu.mfma %442 * %369 + %257#27 {blocks = 1 : i32, k = 16 : i32, m = 16 : i32, n = 16 : i32} blgp =  none : vector<4xf16>, vector<4xf16>, vector<4xf32>
        %471 = amdgpu.mfma %442 * %373 + %257#28 {blocks = 1 : i32, k = 16 : i32, m = 16 : i32, n = 16 : i32} blgp =  none : vector<4xf16>, vector<4xf16>, vector<4xf32>
        %472 = amdgpu.mfma %442 * %377 + %257#29 {blocks = 1 : i32, k = 16 : i32, m = 16 : i32, n = 16 : i32} blgp =  none : vector<4xf16>, vector<4xf16>, vector<4xf32>
        %473 = amdgpu.mfma %442 * %381 + %257#30 {blocks = 1 : i32, k = 16 : i32, m = 16 : i32, n = 16 : i32} blgp =  none : vector<4xf16>, vector<4xf16>, vector<4xf32>
        %474 = amdgpu.mfma %442 * %385 + %257#31 {blocks = 1 : i32, k = 16 : i32, m = 16 : i32, n = 16 : i32} blgp =  none : vector<4xf16>, vector<4xf16>, vector<4xf32>
        %475 = amdgpu.mfma %442 * %389 + %257#32 {blocks = 1 : i32, k = 16 : i32, m = 16 : i32, n = 16 : i32} blgp =  none : vector<4xf16>, vector<4xf16>, vector<4xf32>
        %476 = amdgpu.mfma %442 * %393 + %257#33 {blocks = 1 : i32, k = 16 : i32, m = 16 : i32, n = 16 : i32} blgp =  none : vector<4xf16>, vector<4xf16>, vector<4xf32>
        %477 = amdgpu.mfma %442 * %397 + %257#34 {blocks = 1 : i32, k = 16 : i32, m = 16 : i32, n = 16 : i32} blgp =  none : vector<4xf16>, vector<4xf16>, vector<4xf32>
        %478 = amdgpu.mfma %442 * %401 + %257#35 {blocks = 1 : i32, k = 16 : i32, m = 16 : i32, n = 16 : i32} blgp =  none : vector<4xf16>, vector<4xf16>, vector<4xf32>
        %479 = amdgpu.mfma %442 * %405 + %257#36 {blocks = 1 : i32, k = 16 : i32, m = 16 : i32, n = 16 : i32} blgp =  none : vector<4xf16>, vector<4xf16>, vector<4xf32>
        %480 = amdgpu.mfma %442 * %409 + %257#37 {blocks = 1 : i32, k = 16 : i32, m = 16 : i32, n = 16 : i32} blgp =  none : vector<4xf16>, vector<4xf16>, vector<4xf32>
        %481 = amdgpu.mfma %442 * %413 + %257#38 {blocks = 1 : i32, k = 16 : i32, m = 16 : i32, n = 16 : i32} blgp =  none : vector<4xf16>, vector<4xf16>, vector<4xf32>
        %482 = amdgpu.mfma %442 * %417 + %257#39 {blocks = 1 : i32, k = 16 : i32, m = 16 : i32, n = 16 : i32} blgp =  none : vector<4xf16>, vector<4xf16>, vector<4xf32>
        %483 = amdgpu.mfma %442 * %421 + %257#40 {blocks = 1 : i32, k = 16 : i32, m = 16 : i32, n = 16 : i32} blgp =  none : vector<4xf16>, vector<4xf16>, vector<4xf32>
        %484 = amdgpu.mfma %442 * %425 + %257#41 {blocks = 1 : i32, k = 16 : i32, m = 16 : i32, n = 16 : i32} blgp =  none : vector<4xf16>, vector<4xf16>, vector<4xf32>
        %485 = amdgpu.mfma %442 * %429 + %257#42 {blocks = 1 : i32, k = 16 : i32, m = 16 : i32, n = 16 : i32} blgp =  none : vector<4xf16>, vector<4xf16>, vector<4xf32>
        %486 = amdgpu.mfma %442 * %433 + %257#43 {blocks = 1 : i32, k = 16 : i32, m = 16 : i32, n = 16 : i32} blgp =  none : vector<4xf16>, vector<4xf16>, vector<4xf32>
        %487 = amdgpu.mfma %442 * %437 + %257#44 {blocks = 1 : i32, k = 16 : i32, m = 16 : i32, n = 16 : i32} blgp =  none : vector<4xf16>, vector<4xf16>, vector<4xf32>
        %488 = amdgpu.mfma %442 * %441 + %257#45 {blocks = 1 : i32, k = 16 : i32, m = 16 : i32, n = 16 : i32} blgp =  none : vector<4xf16>, vector<4xf16>, vector<4xf32>
        %489 = vector.extract_strided_slice %443 {offsets = [0], sizes = [1], strides = [1]} : vector<4xf32> to vector<1xf32>
        %490 = stream.binding.subspan %arg2[%c0] : !stream.binding -> memref<641x2880xf32, strided<[2880, 1], offset: ?>>
        %491 = affine.apply #map68()[%block_id_y, %thread_id_y]
        %492 = affine.apply #map69()[%block_id_y]
        %493 = arith.minsi %491, %492 : index
        %494 = arith.minsi %493, %c2880 : index
        %495 = affine.apply #map70()[%thread_id_x, %block_id_y, %block_id_x, %2, %thread_id_y]
        %496 = arith.cmpi slt, %495, %494 : index
        %497 = affine.apply #map71()[%block_id_y, %block_id_x, %2, %thread_id_x]
        %498 = arith.cmpi slt, %497, %4 : index
        %499 = arith.andi %496, %498 : i1
        %500 = affine.apply #map72()[%block_id_y, %block_id_x, %2]
        %501 = affine.apply #map73()[%block_id_y, %block_id_x, %2]
        %502 = affine.apply #map74()[%thread_id_x]
        %503 = arith.muli %500, %c2880 overflow<nsw> : index
        %504 = arith.muli %502, %c2880 overflow<nsw> : index
        %505 = arith.addi %503, %501 overflow<nsw> : index
        %506 = arith.addi %504, %258 overflow<nsw> : index
        %base_buffer_11, %offset_12, %sizes_13:2, %strides_14:2 = memref.extract_strided_metadata %490 : memref<641x2880xf32, strided<[2880, 1], offset: ?>> -> memref<f32>, index, index, index, index, index
        %507 = arith.addi %505, %offset_12 overflow<nsw> : index
        %reinterpret_cast_15 = memref.reinterpret_cast %490 to offset: [%507], sizes: [%c536870910], strides: [1] : memref<641x2880xf32, strided<[2880, 1], offset: ?>> to memref<?xf32, strided<[1], offset: ?>>
        %508 = amdgpu.fat_raw_buffer_cast %reinterpret_cast_15 validBytes(%c2147483643_i32) cacheSwizzleStride(%c2880_i14) resetOffset : memref<?xf32, strided<[1], offset: ?>> to memref<?xf32, #amdgpu.address_space<fat_raw_buffer>>
        %509 = arith.select %499, %506, %c536870911 : index
        vector.store %489, %508[%509] : memref<?xf32, #amdgpu.address_space<fat_raw_buffer>>, vector<1xf32>
        %510 = vector.extract_strided_slice %443 {offsets = [1], sizes = [1], strides = [1]} : vector<4xf32> to vector<1xf32>
        %511 = affine.apply #map75()[%block_id_y, %block_id_x, %2, %thread_id_x]
        %512 = arith.cmpi slt, %511, %4 : index
        %513 = arith.andi %496, %512 : i1
        %514 = affine.apply #map76()[%thread_id_x]
        %515 = arith.muli %514, %c2880 overflow<nsw> : index
        %516 = arith.addi %515, %258 overflow<nsw> : index
        %517 = arith.select %513, %516, %c536870911 : index
        vector.store %510, %508[%517] : memref<?xf32, #amdgpu.address_space<fat_raw_buffer>>, vector<1xf32>
        %518 = vector.extract_strided_slice %443 {offsets = [2], sizes = [1], strides = [1]} : vector<4xf32> to vector<1xf32>
        %519 = affine.apply #map77()[%block_id_y, %block_id_x, %2, %thread_id_x]
        %520 = arith.cmpi slt, %519, %4 : index
        %521 = arith.andi %496, %520 : i1
        %522 = affine.apply #map78()[%thread_id_x]
        %523 = arith.muli %522, %c2880 overflow<nsw> : index
        %524 = arith.addi %523, %258 overflow<nsw> : index
        %525 = arith.select %521, %524, %c536870911 : index
        vector.store %518, %508[%525] : memref<?xf32, #amdgpu.address_space<fat_raw_buffer>>, vector<1xf32>
        %526 = vector.extract_strided_slice %443 {offsets = [3], sizes = [1], strides = [1]} : vector<4xf32> to vector<1xf32>
        %527 = affine.apply #map79()[%block_id_y, %block_id_x, %2, %thread_id_x]
        %528 = arith.cmpi slt, %527, %4 : index
        %529 = arith.andi %496, %528 : i1
        %530 = affine.apply #map80()[%thread_id_x]
        %531 = arith.muli %530, %c2880 overflow<nsw> : index
        %532 = arith.addi %531, %258 overflow<nsw> : index
        %533 = arith.select %529, %532, %c536870911 : index
        vector.store %526, %508[%533] : memref<?xf32, #amdgpu.address_space<fat_raw_buffer>>, vector<1xf32>
        %534 = vector.extract_strided_slice %444 {offsets = [0], sizes = [1], strides = [1]} : vector<4xf32> to vector<1xf32>
        %535 = affine.apply #map81()[%thread_id_x, %block_id_y, %block_id_x, %2, %thread_id_y]
        %536 = arith.cmpi slt, %535, %494 : index
        %537 = arith.andi %536, %498 : i1
        %538 = arith.addi %504, %262 overflow<nsw> : index
        %539 = arith.select %537, %538, %c536870911 : index
        vector.store %534, %508[%539] : memref<?xf32, #amdgpu.address_space<fat_raw_buffer>>, vector<1xf32>
        %540 = vector.extract_strided_slice %444 {offsets = [1], sizes = [1], strides = [1]} : vector<4xf32> to vector<1xf32>
        %541 = arith.andi %536, %512 : i1
        %542 = arith.addi %515, %262 overflow<nsw> : index
        %543 = arith.select %541, %542, %c536870911 : index
        vector.store %540, %508[%543] : memref<?xf32, #amdgpu.address_space<fat_raw_buffer>>, vector<1xf32>
        %544 = vector.extract_strided_slice %444 {offsets = [2], sizes = [1], strides = [1]} : vector<4xf32> to vector<1xf32>
        %545 = arith.andi %536, %520 : i1
        %546 = arith.addi %523, %262 overflow<nsw> : index
        %547 = arith.select %545, %546, %c536870911 : index
        vector.store %544, %508[%547] : memref<?xf32, #amdgpu.address_space<fat_raw_buffer>>, vector<1xf32>
        %548 = vector.extract_strided_slice %444 {offsets = [3], sizes = [1], strides = [1]} : vector<4xf32> to vector<1xf32>
        %549 = arith.andi %536, %528 : i1
        %550 = arith.addi %531, %262 overflow<nsw> : index
        %551 = arith.select %549, %550, %c536870911 : index
        vector.store %548, %508[%551] : memref<?xf32, #amdgpu.address_space<fat_raw_buffer>>, vector<1xf32>
        %552 = vector.extract_strided_slice %445 {offsets = [0], sizes = [1], strides = [1]} : vector<4xf32> to vector<1xf32>
        %553 = affine.apply #map82()[%thread_id_x, %block_id_y, %block_id_x, %2, %thread_id_y]
        %554 = arith.cmpi slt, %553, %494 : index
        %555 = arith.andi %554, %498 : i1
        %556 = arith.addi %504, %266 overflow<nsw> : index
        %557 = arith.select %555, %556, %c536870911 : index
        vector.store %552, %508[%557] : memref<?xf32, #amdgpu.address_space<fat_raw_buffer>>, vector<1xf32>
        %558 = vector.extract_strided_slice %445 {offsets = [1], sizes = [1], strides = [1]} : vector<4xf32> to vector<1xf32>
        %559 = arith.andi %554, %512 : i1
        %560 = arith.addi %515, %266 overflow<nsw> : index
        %561 = arith.select %559, %560, %c536870911 : index
        vector.store %558, %508[%561] : memref<?xf32, #amdgpu.address_space<fat_raw_buffer>>, vector<1xf32>
        %562 = vector.extract_strided_slice %445 {offsets = [2], sizes = [1], strides = [1]} : vector<4xf32> to vector<1xf32>
        %563 = arith.andi %554, %520 : i1
        %564 = arith.addi %523, %266 overflow<nsw> : index
        %565 = arith.select %563, %564, %c536870911 : index
        vector.store %562, %508[%565] : memref<?xf32, #amdgpu.address_space<fat_raw_buffer>>, vector<1xf32>
        %566 = vector.extract_strided_slice %445 {offsets = [3], sizes = [1], strides = [1]} : vector<4xf32> to vector<1xf32>
        %567 = arith.andi %554, %528 : i1
        %568 = arith.addi %531, %266 overflow<nsw> : index
        %569 = arith.select %567, %568, %c536870911 : index
        vector.store %566, %508[%569] : memref<?xf32, #amdgpu.address_space<fat_raw_buffer>>, vector<1xf32>
        %570 = vector.extract_strided_slice %446 {offsets = [0], sizes = [1], strides = [1]} : vector<4xf32> to vector<1xf32>
        %571 = affine.apply #map83()[%thread_id_x, %block_id_y, %block_id_x, %2, %thread_id_y]
        %572 = arith.cmpi slt, %571, %494 : index
        %573 = arith.andi %572, %498 : i1
        %574 = arith.addi %504, %270 overflow<nsw> : index
        %575 = arith.select %573, %574, %c536870911 : index
        vector.store %570, %508[%575] : memref<?xf32, #amdgpu.address_space<fat_raw_buffer>>, vector<1xf32>
        %576 = vector.extract_strided_slice %446 {offsets = [1], sizes = [1], strides = [1]} : vector<4xf32> to vector<1xf32>
        %577 = arith.andi %572, %512 : i1
        %578 = arith.addi %515, %270 overflow<nsw> : index
        %579 = arith.select %577, %578, %c536870911 : index
        vector.store %576, %508[%579] : memref<?xf32, #amdgpu.address_space<fat_raw_buffer>>, vector<1xf32>
        %580 = vector.extract_strided_slice %446 {offsets = [2], sizes = [1], strides = [1]} : vector<4xf32> to vector<1xf32>
        %581 = arith.andi %572, %520 : i1
        %582 = arith.addi %523, %270 overflow<nsw> : index
        %583 = arith.select %581, %582, %c536870911 : index
        vector.store %580, %508[%583] : memref<?xf32, #amdgpu.address_space<fat_raw_buffer>>, vector<1xf32>
        %584 = vector.extract_strided_slice %446 {offsets = [3], sizes = [1], strides = [1]} : vector<4xf32> to vector<1xf32>
        %585 = arith.andi %572, %528 : i1
        %586 = arith.addi %531, %270 overflow<nsw> : index
        %587 = arith.select %585, %586, %c536870911 : index
        vector.store %584, %508[%587] : memref<?xf32, #amdgpu.address_space<fat_raw_buffer>>, vector<1xf32>
        %588 = vector.extract_strided_slice %447 {offsets = [0], sizes = [1], strides = [1]} : vector<4xf32> to vector<1xf32>
        %589 = affine.apply #map84()[%thread_id_x, %block_id_y, %block_id_x, %2, %thread_id_y]
        %590 = arith.cmpi slt, %589, %494 : index
        %591 = arith.andi %590, %498 : i1
        %592 = arith.addi %504, %274 overflow<nsw> : index
        %593 = arith.select %591, %592, %c536870911 : index
        vector.store %588, %508[%593] : memref<?xf32, #amdgpu.address_space<fat_raw_buffer>>, vector<1xf32>
        %594 = vector.extract_strided_slice %447 {offsets = [1], sizes = [1], strides = [1]} : vector<4xf32> to vector<1xf32>
        %595 = arith.andi %590, %512 : i1
        %596 = arith.addi %515, %274 overflow<nsw> : index
        %597 = arith.select %595, %596, %c536870911 : index
        vector.store %594, %508[%597] : memref<?xf32, #amdgpu.address_space<fat_raw_buffer>>, vector<1xf32>
        %598 = vector.extract_strided_slice %447 {offsets = [2], sizes = [1], strides = [1]} : vector<4xf32> to vector<1xf32>
        %599 = arith.andi %590, %520 : i1
        %600 = arith.addi %523, %274 overflow<nsw> : index
        %601 = arith.select %599, %600, %c536870911 : index
        vector.store %598, %508[%601] : memref<?xf32, #amdgpu.address_space<fat_raw_buffer>>, vector<1xf32>
        %602 = vector.extract_strided_slice %447 {offsets = [3], sizes = [1], strides = [1]} : vector<4xf32> to vector<1xf32>
        %603 = arith.andi %590, %528 : i1
        %604 = arith.addi %531, %274 overflow<nsw> : index
        %605 = arith.select %603, %604, %c536870911 : index
        vector.store %602, %508[%605] : memref<?xf32, #amdgpu.address_space<fat_raw_buffer>>, vector<1xf32>
        %606 = vector.extract_strided_slice %448 {offsets = [0], sizes = [1], strides = [1]} : vector<4xf32> to vector<1xf32>
        %607 = affine.apply #map85()[%thread_id_x, %block_id_y, %block_id_x, %2, %thread_id_y]
        %608 = arith.cmpi slt, %607, %494 : index
        %609 = arith.andi %608, %498 : i1
        %610 = arith.addi %504, %278 overflow<nsw> : index
        %611 = arith.select %609, %610, %c536870911 : index
        vector.store %606, %508[%611] : memref<?xf32, #amdgpu.address_space<fat_raw_buffer>>, vector<1xf32>
        %612 = vector.extract_strided_slice %448 {offsets = [1], sizes = [1], strides = [1]} : vector<4xf32> to vector<1xf32>
        %613 = arith.andi %608, %512 : i1
        %614 = arith.addi %515, %278 overflow<nsw> : index
        %615 = arith.select %613, %614, %c536870911 : index
        vector.store %612, %508[%615] : memref<?xf32, #amdgpu.address_space<fat_raw_buffer>>, vector<1xf32>
        %616 = vector.extract_strided_slice %448 {offsets = [2], sizes = [1], strides = [1]} : vector<4xf32> to vector<1xf32>
        %617 = arith.andi %608, %520 : i1
        %618 = arith.addi %523, %278 overflow<nsw> : index
        %619 = arith.select %617, %618, %c536870911 : index
        vector.store %616, %508[%619] : memref<?xf32, #amdgpu.address_space<fat_raw_buffer>>, vector<1xf32>
        %620 = vector.extract_strided_slice %448 {offsets = [3], sizes = [1], strides = [1]} : vector<4xf32> to vector<1xf32>
        %621 = arith.andi %608, %528 : i1
        %622 = arith.addi %531, %278 overflow<nsw> : index
        %623 = arith.select %621, %622, %c536870911 : index
        vector.store %620, %508[%623] : memref<?xf32, #amdgpu.address_space<fat_raw_buffer>>, vector<1xf32>
        %624 = vector.extract_strided_slice %449 {offsets = [0], sizes = [1], strides = [1]} : vector<4xf32> to vector<1xf32>
        %625 = affine.apply #map86()[%thread_id_x, %block_id_y, %block_id_x, %2, %thread_id_y]
        %626 = arith.cmpi slt, %625, %494 : index
        %627 = arith.andi %626, %498 : i1
        %628 = arith.addi %504, %282 overflow<nsw> : index
        %629 = arith.select %627, %628, %c536870911 : index
        vector.store %624, %508[%629] : memref<?xf32, #amdgpu.address_space<fat_raw_buffer>>, vector<1xf32>
        %630 = vector.extract_strided_slice %449 {offsets = [1], sizes = [1], strides = [1]} : vector<4xf32> to vector<1xf32>
        %631 = arith.andi %626, %512 : i1
        %632 = arith.addi %515, %282 overflow<nsw> : index
        %633 = arith.select %631, %632, %c536870911 : index
        vector.store %630, %508[%633] : memref<?xf32, #amdgpu.address_space<fat_raw_buffer>>, vector<1xf32>
        %634 = vector.extract_strided_slice %449 {offsets = [2], sizes = [1], strides = [1]} : vector<4xf32> to vector<1xf32>
        %635 = arith.andi %626, %520 : i1
        %636 = arith.addi %523, %282 overflow<nsw> : index
        %637 = arith.select %635, %636, %c536870911 : index
        vector.store %634, %508[%637] : memref<?xf32, #amdgpu.address_space<fat_raw_buffer>>, vector<1xf32>
        %638 = vector.extract_strided_slice %449 {offsets = [3], sizes = [1], strides = [1]} : vector<4xf32> to vector<1xf32>
        %639 = arith.andi %626, %528 : i1
        %640 = arith.addi %531, %282 overflow<nsw> : index
        %641 = arith.select %639, %640, %c536870911 : index
        vector.store %638, %508[%641] : memref<?xf32, #amdgpu.address_space<fat_raw_buffer>>, vector<1xf32>
        %642 = vector.extract_strided_slice %450 {offsets = [0], sizes = [1], strides = [1]} : vector<4xf32> to vector<1xf32>
        %643 = affine.apply #map87()[%thread_id_x, %block_id_y, %block_id_x, %2, %thread_id_y]
        %644 = arith.cmpi slt, %643, %494 : index
        %645 = arith.andi %644, %498 : i1
        %646 = arith.addi %504, %286 overflow<nsw> : index
        %647 = arith.select %645, %646, %c536870911 : index
        vector.store %642, %508[%647] : memref<?xf32, #amdgpu.address_space<fat_raw_buffer>>, vector<1xf32>
        %648 = vector.extract_strided_slice %450 {offsets = [1], sizes = [1], strides = [1]} : vector<4xf32> to vector<1xf32>
        %649 = arith.andi %644, %512 : i1
        %650 = arith.addi %515, %286 overflow<nsw> : index
        %651 = arith.select %649, %650, %c536870911 : index
        vector.store %648, %508[%651] : memref<?xf32, #amdgpu.address_space<fat_raw_buffer>>, vector<1xf32>
        %652 = vector.extract_strided_slice %450 {offsets = [2], sizes = [1], strides = [1]} : vector<4xf32> to vector<1xf32>
        %653 = arith.andi %644, %520 : i1
        %654 = arith.addi %523, %286 overflow<nsw> : index
        %655 = arith.select %653, %654, %c536870911 : index
        vector.store %652, %508[%655] : memref<?xf32, #amdgpu.address_space<fat_raw_buffer>>, vector<1xf32>
        %656 = vector.extract_strided_slice %450 {offsets = [3], sizes = [1], strides = [1]} : vector<4xf32> to vector<1xf32>
        %657 = arith.andi %644, %528 : i1
        %658 = arith.addi %531, %286 overflow<nsw> : index
        %659 = arith.select %657, %658, %c536870911 : index
        vector.store %656, %508[%659] : memref<?xf32, #amdgpu.address_space<fat_raw_buffer>>, vector<1xf32>
        %660 = vector.extract_strided_slice %451 {offsets = [0], sizes = [1], strides = [1]} : vector<4xf32> to vector<1xf32>
        %661 = affine.apply #map88()[%thread_id_x, %block_id_y, %block_id_x, %2, %thread_id_y]
        %662 = arith.cmpi slt, %661, %494 : index
        %663 = arith.andi %662, %498 : i1
        %664 = arith.addi %504, %290 overflow<nsw> : index
        %665 = arith.select %663, %664, %c536870911 : index
        vector.store %660, %508[%665] : memref<?xf32, #amdgpu.address_space<fat_raw_buffer>>, vector<1xf32>
        %666 = vector.extract_strided_slice %451 {offsets = [1], sizes = [1], strides = [1]} : vector<4xf32> to vector<1xf32>
        %667 = arith.andi %662, %512 : i1
        %668 = arith.addi %515, %290 overflow<nsw> : index
        %669 = arith.select %667, %668, %c536870911 : index
        vector.store %666, %508[%669] : memref<?xf32, #amdgpu.address_space<fat_raw_buffer>>, vector<1xf32>
        %670 = vector.extract_strided_slice %451 {offsets = [2], sizes = [1], strides = [1]} : vector<4xf32> to vector<1xf32>
        %671 = arith.andi %662, %520 : i1
        %672 = arith.addi %523, %290 overflow<nsw> : index
        %673 = arith.select %671, %672, %c536870911 : index
        vector.store %670, %508[%673] : memref<?xf32, #amdgpu.address_space<fat_raw_buffer>>, vector<1xf32>
        %674 = vector.extract_strided_slice %451 {offsets = [3], sizes = [1], strides = [1]} : vector<4xf32> to vector<1xf32>
        %675 = arith.andi %662, %528 : i1
        %676 = arith.addi %531, %290 overflow<nsw> : index
        %677 = arith.select %675, %676, %c536870911 : index
        vector.store %674, %508[%677] : memref<?xf32, #amdgpu.address_space<fat_raw_buffer>>, vector<1xf32>
        %678 = vector.extract_strided_slice %452 {offsets = [0], sizes = [1], strides = [1]} : vector<4xf32> to vector<1xf32>
        %679 = affine.apply #map89()[%thread_id_x, %block_id_y, %block_id_x, %2, %thread_id_y]
        %680 = arith.cmpi slt, %679, %494 : index
        %681 = arith.andi %680, %498 : i1
        %682 = arith.addi %504, %294 overflow<nsw> : index
        %683 = arith.select %681, %682, %c536870911 : index
        vector.store %678, %508[%683] : memref<?xf32, #amdgpu.address_space<fat_raw_buffer>>, vector<1xf32>
        %684 = vector.extract_strided_slice %452 {offsets = [1], sizes = [1], strides = [1]} : vector<4xf32> to vector<1xf32>
        %685 = arith.andi %680, %512 : i1
        %686 = arith.addi %515, %294 overflow<nsw> : index
        %687 = arith.select %685, %686, %c536870911 : index
        vector.store %684, %508[%687] : memref<?xf32, #amdgpu.address_space<fat_raw_buffer>>, vector<1xf32>
        %688 = vector.extract_strided_slice %452 {offsets = [2], sizes = [1], strides = [1]} : vector<4xf32> to vector<1xf32>
        %689 = arith.andi %680, %520 : i1
        %690 = arith.addi %523, %294 overflow<nsw> : index
        %691 = arith.select %689, %690, %c536870911 : index
        vector.store %688, %508[%691] : memref<?xf32, #amdgpu.address_space<fat_raw_buffer>>, vector<1xf32>
        %692 = vector.extract_strided_slice %452 {offsets = [3], sizes = [1], strides = [1]} : vector<4xf32> to vector<1xf32>
        %693 = arith.andi %680, %528 : i1
        %694 = arith.addi %531, %294 overflow<nsw> : index
        %695 = arith.select %693, %694, %c536870911 : index
        vector.store %692, %508[%695] : memref<?xf32, #amdgpu.address_space<fat_raw_buffer>>, vector<1xf32>
        %696 = vector.extract_strided_slice %453 {offsets = [0], sizes = [1], strides = [1]} : vector<4xf32> to vector<1xf32>
        %697 = affine.apply #map90()[%thread_id_x, %block_id_y, %block_id_x, %2, %thread_id_y]
        %698 = arith.cmpi slt, %697, %494 : index
        %699 = arith.andi %698, %498 : i1
        %700 = arith.addi %504, %298 overflow<nsw> : index
        %701 = arith.select %699, %700, %c536870911 : index
        vector.store %696, %508[%701] : memref<?xf32, #amdgpu.address_space<fat_raw_buffer>>, vector<1xf32>
        %702 = vector.extract_strided_slice %453 {offsets = [1], sizes = [1], strides = [1]} : vector<4xf32> to vector<1xf32>
        %703 = arith.andi %698, %512 : i1
        %704 = arith.addi %515, %298 overflow<nsw> : index
        %705 = arith.select %703, %704, %c536870911 : index
        vector.store %702, %508[%705] : memref<?xf32, #amdgpu.address_space<fat_raw_buffer>>, vector<1xf32>
        %706 = vector.extract_strided_slice %453 {offsets = [2], sizes = [1], strides = [1]} : vector<4xf32> to vector<1xf32>
        %707 = arith.andi %698, %520 : i1
        %708 = arith.addi %523, %298 overflow<nsw> : index
        %709 = arith.select %707, %708, %c536870911 : index
        vector.store %706, %508[%709] : memref<?xf32, #amdgpu.address_space<fat_raw_buffer>>, vector<1xf32>
        %710 = vector.extract_strided_slice %453 {offsets = [3], sizes = [1], strides = [1]} : vector<4xf32> to vector<1xf32>
        %711 = arith.andi %698, %528 : i1
        %712 = arith.addi %531, %298 overflow<nsw> : index
        %713 = arith.select %711, %712, %c536870911 : index
        vector.store %710, %508[%713] : memref<?xf32, #amdgpu.address_space<fat_raw_buffer>>, vector<1xf32>
        %714 = vector.extract_strided_slice %454 {offsets = [0], sizes = [1], strides = [1]} : vector<4xf32> to vector<1xf32>
        %715 = affine.apply #map91()[%thread_id_x, %block_id_y, %block_id_x, %2, %thread_id_y]
        %716 = arith.cmpi slt, %715, %494 : index
        %717 = arith.andi %716, %498 : i1
        %718 = arith.addi %504, %302 overflow<nsw> : index
        %719 = arith.select %717, %718, %c536870911 : index
        vector.store %714, %508[%719] : memref<?xf32, #amdgpu.address_space<fat_raw_buffer>>, vector<1xf32>
        %720 = vector.extract_strided_slice %454 {offsets = [1], sizes = [1], strides = [1]} : vector<4xf32> to vector<1xf32>
        %721 = arith.andi %716, %512 : i1
        %722 = arith.addi %515, %302 overflow<nsw> : index
        %723 = arith.select %721, %722, %c536870911 : index
        vector.store %720, %508[%723] : memref<?xf32, #amdgpu.address_space<fat_raw_buffer>>, vector<1xf32>
        %724 = vector.extract_strided_slice %454 {offsets = [2], sizes = [1], strides = [1]} : vector<4xf32> to vector<1xf32>
        %725 = arith.andi %716, %520 : i1
        %726 = arith.addi %523, %302 overflow<nsw> : index
        %727 = arith.select %725, %726, %c536870911 : index
        vector.store %724, %508[%727] : memref<?xf32, #amdgpu.address_space<fat_raw_buffer>>, vector<1xf32>
        %728 = vector.extract_strided_slice %454 {offsets = [3], sizes = [1], strides = [1]} : vector<4xf32> to vector<1xf32>
        %729 = arith.andi %716, %528 : i1
        %730 = arith.addi %531, %302 overflow<nsw> : index
        %731 = arith.select %729, %730, %c536870911 : index
        vector.store %728, %508[%731] : memref<?xf32, #amdgpu.address_space<fat_raw_buffer>>, vector<1xf32>
        %732 = vector.extract_strided_slice %455 {offsets = [0], sizes = [1], strides = [1]} : vector<4xf32> to vector<1xf32>
        %733 = affine.apply #map92()[%thread_id_x, %block_id_y, %block_id_x, %2, %thread_id_y]
        %734 = arith.cmpi slt, %733, %494 : index
        %735 = arith.andi %734, %498 : i1
        %736 = arith.addi %504, %306 overflow<nsw> : index
        %737 = arith.select %735, %736, %c536870911 : index
        vector.store %732, %508[%737] : memref<?xf32, #amdgpu.address_space<fat_raw_buffer>>, vector<1xf32>
        %738 = vector.extract_strided_slice %455 {offsets = [1], sizes = [1], strides = [1]} : vector<4xf32> to vector<1xf32>
        %739 = arith.andi %734, %512 : i1
        %740 = arith.addi %515, %306 overflow<nsw> : index
        %741 = arith.select %739, %740, %c536870911 : index
        vector.store %738, %508[%741] : memref<?xf32, #amdgpu.address_space<fat_raw_buffer>>, vector<1xf32>
        %742 = vector.extract_strided_slice %455 {offsets = [2], sizes = [1], strides = [1]} : vector<4xf32> to vector<1xf32>
        %743 = arith.andi %734, %520 : i1
        %744 = arith.addi %523, %306 overflow<nsw> : index
        %745 = arith.select %743, %744, %c536870911 : index
        vector.store %742, %508[%745] : memref<?xf32, #amdgpu.address_space<fat_raw_buffer>>, vector<1xf32>
        %746 = vector.extract_strided_slice %455 {offsets = [3], sizes = [1], strides = [1]} : vector<4xf32> to vector<1xf32>
        %747 = arith.andi %734, %528 : i1
        %748 = arith.addi %531, %306 overflow<nsw> : index
        %749 = arith.select %747, %748, %c536870911 : index
        vector.store %746, %508[%749] : memref<?xf32, #amdgpu.address_space<fat_raw_buffer>>, vector<1xf32>
        %750 = vector.extract_strided_slice %456 {offsets = [0], sizes = [1], strides = [1]} : vector<4xf32> to vector<1xf32>
        %751 = affine.apply #map93()[%thread_id_x, %block_id_y, %block_id_x, %2, %thread_id_y]
        %752 = arith.cmpi slt, %751, %494 : index
        %753 = arith.andi %752, %498 : i1
        %754 = arith.addi %504, %310 overflow<nsw> : index
        %755 = arith.select %753, %754, %c536870911 : index
        vector.store %750, %508[%755] : memref<?xf32, #amdgpu.address_space<fat_raw_buffer>>, vector<1xf32>
        %756 = vector.extract_strided_slice %456 {offsets = [1], sizes = [1], strides = [1]} : vector<4xf32> to vector<1xf32>
        %757 = arith.andi %752, %512 : i1
        %758 = arith.addi %515, %310 overflow<nsw> : index
        %759 = arith.select %757, %758, %c536870911 : index
        vector.store %756, %508[%759] : memref<?xf32, #amdgpu.address_space<fat_raw_buffer>>, vector<1xf32>
        %760 = vector.extract_strided_slice %456 {offsets = [2], sizes = [1], strides = [1]} : vector<4xf32> to vector<1xf32>
        %761 = arith.andi %752, %520 : i1
        %762 = arith.addi %523, %310 overflow<nsw> : index
        %763 = arith.select %761, %762, %c536870911 : index
        vector.store %760, %508[%763] : memref<?xf32, #amdgpu.address_space<fat_raw_buffer>>, vector<1xf32>
        %764 = vector.extract_strided_slice %456 {offsets = [3], sizes = [1], strides = [1]} : vector<4xf32> to vector<1xf32>
        %765 = arith.andi %752, %528 : i1
        %766 = arith.addi %531, %310 overflow<nsw> : index
        %767 = arith.select %765, %766, %c536870911 : index
        vector.store %764, %508[%767] : memref<?xf32, #amdgpu.address_space<fat_raw_buffer>>, vector<1xf32>
        %768 = vector.extract_strided_slice %457 {offsets = [0], sizes = [1], strides = [1]} : vector<4xf32> to vector<1xf32>
        %769 = affine.apply #map94()[%thread_id_x, %block_id_y, %block_id_x, %2, %thread_id_y]
        %770 = arith.cmpi slt, %769, %494 : index
        %771 = arith.andi %770, %498 : i1
        %772 = arith.addi %504, %314 overflow<nsw> : index
        %773 = arith.select %771, %772, %c536870911 : index
        vector.store %768, %508[%773] : memref<?xf32, #amdgpu.address_space<fat_raw_buffer>>, vector<1xf32>
        %774 = vector.extract_strided_slice %457 {offsets = [1], sizes = [1], strides = [1]} : vector<4xf32> to vector<1xf32>
        %775 = arith.andi %770, %512 : i1
        %776 = arith.addi %515, %314 overflow<nsw> : index
        %777 = arith.select %775, %776, %c536870911 : index
        vector.store %774, %508[%777] : memref<?xf32, #amdgpu.address_space<fat_raw_buffer>>, vector<1xf32>
        %778 = vector.extract_strided_slice %457 {offsets = [2], sizes = [1], strides = [1]} : vector<4xf32> to vector<1xf32>
        %779 = arith.andi %770, %520 : i1
        %780 = arith.addi %523, %314 overflow<nsw> : index
        %781 = arith.select %779, %780, %c536870911 : index
        vector.store %778, %508[%781] : memref<?xf32, #amdgpu.address_space<fat_raw_buffer>>, vector<1xf32>
        %782 = vector.extract_strided_slice %457 {offsets = [3], sizes = [1], strides = [1]} : vector<4xf32> to vector<1xf32>
        %783 = arith.andi %770, %528 : i1
        %784 = arith.addi %531, %314 overflow<nsw> : index
        %785 = arith.select %783, %784, %c536870911 : index
        vector.store %782, %508[%785] : memref<?xf32, #amdgpu.address_space<fat_raw_buffer>>, vector<1xf32>
        %786 = vector.extract_strided_slice %458 {offsets = [0], sizes = [1], strides = [1]} : vector<4xf32> to vector<1xf32>
        %787 = affine.apply #map95()[%thread_id_x, %block_id_y, %block_id_x, %2, %thread_id_y]
        %788 = arith.cmpi slt, %787, %494 : index
        %789 = arith.andi %788, %498 : i1
        %790 = arith.addi %504, %318 overflow<nsw> : index
        %791 = arith.select %789, %790, %c536870911 : index
        vector.store %786, %508[%791] : memref<?xf32, #amdgpu.address_space<fat_raw_buffer>>, vector<1xf32>
        %792 = vector.extract_strided_slice %458 {offsets = [1], sizes = [1], strides = [1]} : vector<4xf32> to vector<1xf32>
        %793 = arith.andi %788, %512 : i1
        %794 = arith.addi %515, %318 overflow<nsw> : index
        %795 = arith.select %793, %794, %c536870911 : index
        vector.store %792, %508[%795] : memref<?xf32, #amdgpu.address_space<fat_raw_buffer>>, vector<1xf32>
        %796 = vector.extract_strided_slice %458 {offsets = [2], sizes = [1], strides = [1]} : vector<4xf32> to vector<1xf32>
        %797 = arith.andi %788, %520 : i1
        %798 = arith.addi %523, %318 overflow<nsw> : index
        %799 = arith.select %797, %798, %c536870911 : index
        vector.store %796, %508[%799] : memref<?xf32, #amdgpu.address_space<fat_raw_buffer>>, vector<1xf32>
        %800 = vector.extract_strided_slice %458 {offsets = [3], sizes = [1], strides = [1]} : vector<4xf32> to vector<1xf32>
        %801 = arith.andi %788, %528 : i1
        %802 = arith.addi %531, %318 overflow<nsw> : index
        %803 = arith.select %801, %802, %c536870911 : index
        vector.store %800, %508[%803] : memref<?xf32, #amdgpu.address_space<fat_raw_buffer>>, vector<1xf32>
        %804 = vector.extract_strided_slice %459 {offsets = [0], sizes = [1], strides = [1]} : vector<4xf32> to vector<1xf32>
        %805 = affine.apply #map96()[%thread_id_x, %block_id_y, %block_id_x, %2, %thread_id_y]
        %806 = arith.cmpi slt, %805, %494 : index
        %807 = arith.andi %806, %498 : i1
        %808 = arith.addi %504, %322 overflow<nsw> : index
        %809 = arith.select %807, %808, %c536870911 : index
        vector.store %804, %508[%809] : memref<?xf32, #amdgpu.address_space<fat_raw_buffer>>, vector<1xf32>
        %810 = vector.extract_strided_slice %459 {offsets = [1], sizes = [1], strides = [1]} : vector<4xf32> to vector<1xf32>
        %811 = arith.andi %806, %512 : i1
        %812 = arith.addi %515, %322 overflow<nsw> : index
        %813 = arith.select %811, %812, %c536870911 : index
        vector.store %810, %508[%813] : memref<?xf32, #amdgpu.address_space<fat_raw_buffer>>, vector<1xf32>
        %814 = vector.extract_strided_slice %459 {offsets = [2], sizes = [1], strides = [1]} : vector<4xf32> to vector<1xf32>
        %815 = arith.andi %806, %520 : i1
        %816 = arith.addi %523, %322 overflow<nsw> : index
        %817 = arith.select %815, %816, %c536870911 : index
        vector.store %814, %508[%817] : memref<?xf32, #amdgpu.address_space<fat_raw_buffer>>, vector<1xf32>
        %818 = vector.extract_strided_slice %459 {offsets = [3], sizes = [1], strides = [1]} : vector<4xf32> to vector<1xf32>
        %819 = arith.andi %806, %528 : i1
        %820 = arith.addi %531, %322 overflow<nsw> : index
        %821 = arith.select %819, %820, %c536870911 : index
        vector.store %818, %508[%821] : memref<?xf32, #amdgpu.address_space<fat_raw_buffer>>, vector<1xf32>
        %822 = vector.extract_strided_slice %460 {offsets = [0], sizes = [1], strides = [1]} : vector<4xf32> to vector<1xf32>
        %823 = affine.apply #map97()[%thread_id_x, %block_id_y, %block_id_x, %2, %thread_id_y]
        %824 = arith.cmpi slt, %823, %494 : index
        %825 = arith.andi %824, %498 : i1
        %826 = arith.addi %504, %326 overflow<nsw> : index
        %827 = arith.select %825, %826, %c536870911 : index
        vector.store %822, %508[%827] : memref<?xf32, #amdgpu.address_space<fat_raw_buffer>>, vector<1xf32>
        %828 = vector.extract_strided_slice %460 {offsets = [1], sizes = [1], strides = [1]} : vector<4xf32> to vector<1xf32>
        %829 = arith.andi %824, %512 : i1
        %830 = arith.addi %515, %326 overflow<nsw> : index
        %831 = arith.select %829, %830, %c536870911 : index
        vector.store %828, %508[%831] : memref<?xf32, #amdgpu.address_space<fat_raw_buffer>>, vector<1xf32>
        %832 = vector.extract_strided_slice %460 {offsets = [2], sizes = [1], strides = [1]} : vector<4xf32> to vector<1xf32>
        %833 = arith.andi %824, %520 : i1
        %834 = arith.addi %523, %326 overflow<nsw> : index
        %835 = arith.select %833, %834, %c536870911 : index
        vector.store %832, %508[%835] : memref<?xf32, #amdgpu.address_space<fat_raw_buffer>>, vector<1xf32>
        %836 = vector.extract_strided_slice %460 {offsets = [3], sizes = [1], strides = [1]} : vector<4xf32> to vector<1xf32>
        %837 = arith.andi %824, %528 : i1
        %838 = arith.addi %531, %326 overflow<nsw> : index
        %839 = arith.select %837, %838, %c536870911 : index
        vector.store %836, %508[%839] : memref<?xf32, #amdgpu.address_space<fat_raw_buffer>>, vector<1xf32>
        %840 = vector.extract_strided_slice %461 {offsets = [0], sizes = [1], strides = [1]} : vector<4xf32> to vector<1xf32>
        %841 = affine.apply #map98()[%thread_id_x, %block_id_y, %block_id_x, %2, %thread_id_y]
        %842 = arith.cmpi slt, %841, %494 : index
        %843 = arith.andi %842, %498 : i1
        %844 = arith.addi %504, %330 overflow<nsw> : index
        %845 = arith.select %843, %844, %c536870911 : index
        vector.store %840, %508[%845] : memref<?xf32, #amdgpu.address_space<fat_raw_buffer>>, vector<1xf32>
        %846 = vector.extract_strided_slice %461 {offsets = [1], sizes = [1], strides = [1]} : vector<4xf32> to vector<1xf32>
        %847 = arith.andi %842, %512 : i1
        %848 = arith.addi %515, %330 overflow<nsw> : index
        %849 = arith.select %847, %848, %c536870911 : index
        vector.store %846, %508[%849] : memref<?xf32, #amdgpu.address_space<fat_raw_buffer>>, vector<1xf32>
        %850 = vector.extract_strided_slice %461 {offsets = [2], sizes = [1], strides = [1]} : vector<4xf32> to vector<1xf32>
        %851 = arith.andi %842, %520 : i1
        %852 = arith.addi %523, %330 overflow<nsw> : index
        %853 = arith.select %851, %852, %c536870911 : index
        vector.store %850, %508[%853] : memref<?xf32, #amdgpu.address_space<fat_raw_buffer>>, vector<1xf32>
        %854 = vector.extract_strided_slice %461 {offsets = [3], sizes = [1], strides = [1]} : vector<4xf32> to vector<1xf32>
        %855 = arith.andi %842, %528 : i1
        %856 = arith.addi %531, %330 overflow<nsw> : index
        %857 = arith.select %855, %856, %c536870911 : index
        vector.store %854, %508[%857] : memref<?xf32, #amdgpu.address_space<fat_raw_buffer>>, vector<1xf32>
        %858 = vector.extract_strided_slice %462 {offsets = [0], sizes = [1], strides = [1]} : vector<4xf32> to vector<1xf32>
        %859 = affine.apply #map99()[%thread_id_x, %block_id_y, %block_id_x, %2, %thread_id_y]
        %860 = arith.cmpi slt, %859, %494 : index
        %861 = arith.andi %860, %498 : i1
        %862 = arith.addi %504, %334 overflow<nsw> : index
        %863 = arith.select %861, %862, %c536870911 : index
        vector.store %858, %508[%863] : memref<?xf32, #amdgpu.address_space<fat_raw_buffer>>, vector<1xf32>
        %864 = vector.extract_strided_slice %462 {offsets = [1], sizes = [1], strides = [1]} : vector<4xf32> to vector<1xf32>
        %865 = arith.andi %860, %512 : i1
        %866 = arith.addi %515, %334 overflow<nsw> : index
        %867 = arith.select %865, %866, %c536870911 : index
        vector.store %864, %508[%867] : memref<?xf32, #amdgpu.address_space<fat_raw_buffer>>, vector<1xf32>
        %868 = vector.extract_strided_slice %462 {offsets = [2], sizes = [1], strides = [1]} : vector<4xf32> to vector<1xf32>
        %869 = arith.andi %860, %520 : i1
        %870 = arith.addi %523, %334 overflow<nsw> : index
        %871 = arith.select %869, %870, %c536870911 : index
        vector.store %868, %508[%871] : memref<?xf32, #amdgpu.address_space<fat_raw_buffer>>, vector<1xf32>
        %872 = vector.extract_strided_slice %462 {offsets = [3], sizes = [1], strides = [1]} : vector<4xf32> to vector<1xf32>
        %873 = arith.andi %860, %528 : i1
        %874 = arith.addi %531, %334 overflow<nsw> : index
        %875 = arith.select %873, %874, %c536870911 : index
        vector.store %872, %508[%875] : memref<?xf32, #amdgpu.address_space<fat_raw_buffer>>, vector<1xf32>
        %876 = vector.extract_strided_slice %463 {offsets = [0], sizes = [1], strides = [1]} : vector<4xf32> to vector<1xf32>
        %877 = affine.apply #map100()[%thread_id_x, %block_id_y, %block_id_x, %2, %thread_id_y]
        %878 = arith.cmpi slt, %877, %494 : index
        %879 = arith.andi %878, %498 : i1
        %880 = arith.addi %504, %338 overflow<nsw> : index
        %881 = arith.select %879, %880, %c536870911 : index
        vector.store %876, %508[%881] : memref<?xf32, #amdgpu.address_space<fat_raw_buffer>>, vector<1xf32>
        %882 = vector.extract_strided_slice %463 {offsets = [1], sizes = [1], strides = [1]} : vector<4xf32> to vector<1xf32>
        %883 = arith.andi %878, %512 : i1
        %884 = arith.addi %515, %338 overflow<nsw> : index
        %885 = arith.select %883, %884, %c536870911 : index
        vector.store %882, %508[%885] : memref<?xf32, #amdgpu.address_space<fat_raw_buffer>>, vector<1xf32>
        %886 = vector.extract_strided_slice %463 {offsets = [2], sizes = [1], strides = [1]} : vector<4xf32> to vector<1xf32>
        %887 = arith.andi %878, %520 : i1
        %888 = arith.addi %523, %338 overflow<nsw> : index
        %889 = arith.select %887, %888, %c536870911 : index
        vector.store %886, %508[%889] : memref<?xf32, #amdgpu.address_space<fat_raw_buffer>>, vector<1xf32>
        %890 = vector.extract_strided_slice %463 {offsets = [3], sizes = [1], strides = [1]} : vector<4xf32> to vector<1xf32>
        %891 = arith.andi %878, %528 : i1
        %892 = arith.addi %531, %338 overflow<nsw> : index
        %893 = arith.select %891, %892, %c536870911 : index
        vector.store %890, %508[%893] : memref<?xf32, #amdgpu.address_space<fat_raw_buffer>>, vector<1xf32>
        %894 = vector.extract_strided_slice %464 {offsets = [0], sizes = [1], strides = [1]} : vector<4xf32> to vector<1xf32>
        %895 = affine.apply #map101()[%thread_id_x, %block_id_y, %block_id_x, %2, %thread_id_y]
        %896 = arith.cmpi slt, %895, %494 : index
        %897 = arith.andi %896, %498 : i1
        %898 = arith.addi %504, %342 overflow<nsw> : index
        %899 = arith.select %897, %898, %c536870911 : index
        vector.store %894, %508[%899] : memref<?xf32, #amdgpu.address_space<fat_raw_buffer>>, vector<1xf32>
        %900 = vector.extract_strided_slice %464 {offsets = [1], sizes = [1], strides = [1]} : vector<4xf32> to vector<1xf32>
        %901 = arith.andi %896, %512 : i1
        %902 = arith.addi %515, %342 overflow<nsw> : index
        %903 = arith.select %901, %902, %c536870911 : index
        vector.store %900, %508[%903] : memref<?xf32, #amdgpu.address_space<fat_raw_buffer>>, vector<1xf32>
        %904 = vector.extract_strided_slice %464 {offsets = [2], sizes = [1], strides = [1]} : vector<4xf32> to vector<1xf32>
        %905 = arith.andi %896, %520 : i1
        %906 = arith.addi %523, %342 overflow<nsw> : index
        %907 = arith.select %905, %906, %c536870911 : index
        vector.store %904, %508[%907] : memref<?xf32, #amdgpu.address_space<fat_raw_buffer>>, vector<1xf32>
        %908 = vector.extract_strided_slice %464 {offsets = [3], sizes = [1], strides = [1]} : vector<4xf32> to vector<1xf32>
        %909 = arith.andi %896, %528 : i1
        %910 = arith.addi %531, %342 overflow<nsw> : index
        %911 = arith.select %909, %910, %c536870911 : index
        vector.store %908, %508[%911] : memref<?xf32, #amdgpu.address_space<fat_raw_buffer>>, vector<1xf32>
        %912 = vector.extract_strided_slice %465 {offsets = [0], sizes = [1], strides = [1]} : vector<4xf32> to vector<1xf32>
        %913 = affine.apply #map102()[%thread_id_x, %block_id_y, %block_id_x, %2, %thread_id_y]
        %914 = arith.cmpi slt, %913, %494 : index
        %915 = arith.andi %914, %498 : i1
        %916 = arith.addi %504, %346 overflow<nsw> : index
        %917 = arith.select %915, %916, %c536870911 : index
        vector.store %912, %508[%917] : memref<?xf32, #amdgpu.address_space<fat_raw_buffer>>, vector<1xf32>
        %918 = vector.extract_strided_slice %465 {offsets = [1], sizes = [1], strides = [1]} : vector<4xf32> to vector<1xf32>
        %919 = arith.andi %914, %512 : i1
        %920 = arith.addi %515, %346 overflow<nsw> : index
        %921 = arith.select %919, %920, %c536870911 : index
        vector.store %918, %508[%921] : memref<?xf32, #amdgpu.address_space<fat_raw_buffer>>, vector<1xf32>
        %922 = vector.extract_strided_slice %465 {offsets = [2], sizes = [1], strides = [1]} : vector<4xf32> to vector<1xf32>
        %923 = arith.andi %914, %520 : i1
        %924 = arith.addi %523, %346 overflow<nsw> : index
        %925 = arith.select %923, %924, %c536870911 : index
        vector.store %922, %508[%925] : memref<?xf32, #amdgpu.address_space<fat_raw_buffer>>, vector<1xf32>
        %926 = vector.extract_strided_slice %465 {offsets = [3], sizes = [1], strides = [1]} : vector<4xf32> to vector<1xf32>
        %927 = arith.andi %914, %528 : i1
        %928 = arith.addi %531, %346 overflow<nsw> : index
        %929 = arith.select %927, %928, %c536870911 : index
        vector.store %926, %508[%929] : memref<?xf32, #amdgpu.address_space<fat_raw_buffer>>, vector<1xf32>
        %930 = vector.extract_strided_slice %466 {offsets = [0], sizes = [1], strides = [1]} : vector<4xf32> to vector<1xf32>
        %931 = affine.apply #map103()[%thread_id_x, %block_id_y, %block_id_x, %2, %thread_id_y]
        %932 = arith.cmpi slt, %931, %494 : index
        %933 = arith.andi %932, %498 : i1
        %934 = arith.addi %504, %350 overflow<nsw> : index
        %935 = arith.select %933, %934, %c536870911 : index
        vector.store %930, %508[%935] : memref<?xf32, #amdgpu.address_space<fat_raw_buffer>>, vector<1xf32>
        %936 = vector.extract_strided_slice %466 {offsets = [1], sizes = [1], strides = [1]} : vector<4xf32> to vector<1xf32>
        %937 = arith.andi %932, %512 : i1
        %938 = arith.addi %515, %350 overflow<nsw> : index
        %939 = arith.select %937, %938, %c536870911 : index
        vector.store %936, %508[%939] : memref<?xf32, #amdgpu.address_space<fat_raw_buffer>>, vector<1xf32>
        %940 = vector.extract_strided_slice %466 {offsets = [2], sizes = [1], strides = [1]} : vector<4xf32> to vector<1xf32>
        %941 = arith.andi %932, %520 : i1
        %942 = arith.addi %523, %350 overflow<nsw> : index
        %943 = arith.select %941, %942, %c536870911 : index
        vector.store %940, %508[%943] : memref<?xf32, #amdgpu.address_space<fat_raw_buffer>>, vector<1xf32>
        %944 = vector.extract_strided_slice %466 {offsets = [3], sizes = [1], strides = [1]} : vector<4xf32> to vector<1xf32>
        %945 = arith.andi %932, %528 : i1
        %946 = arith.addi %531, %350 overflow<nsw> : index
        %947 = arith.select %945, %946, %c536870911 : index
        vector.store %944, %508[%947] : memref<?xf32, #amdgpu.address_space<fat_raw_buffer>>, vector<1xf32>
        %948 = vector.extract_strided_slice %467 {offsets = [0], sizes = [1], strides = [1]} : vector<4xf32> to vector<1xf32>
        %949 = affine.apply #map104()[%thread_id_x, %block_id_y, %block_id_x, %2, %thread_id_y]
        %950 = arith.cmpi slt, %949, %494 : index
        %951 = arith.andi %950, %498 : i1
        %952 = arith.addi %504, %354 overflow<nsw> : index
        %953 = arith.select %951, %952, %c536870911 : index
        vector.store %948, %508[%953] : memref<?xf32, #amdgpu.address_space<fat_raw_buffer>>, vector<1xf32>
        %954 = vector.extract_strided_slice %467 {offsets = [1], sizes = [1], strides = [1]} : vector<4xf32> to vector<1xf32>
        %955 = arith.andi %950, %512 : i1
        %956 = arith.addi %515, %354 overflow<nsw> : index
        %957 = arith.select %955, %956, %c536870911 : index
        vector.store %954, %508[%957] : memref<?xf32, #amdgpu.address_space<fat_raw_buffer>>, vector<1xf32>
        %958 = vector.extract_strided_slice %467 {offsets = [2], sizes = [1], strides = [1]} : vector<4xf32> to vector<1xf32>
        %959 = arith.andi %950, %520 : i1
        %960 = arith.addi %523, %354 overflow<nsw> : index
        %961 = arith.select %959, %960, %c536870911 : index
        vector.store %958, %508[%961] : memref<?xf32, #amdgpu.address_space<fat_raw_buffer>>, vector<1xf32>
        %962 = vector.extract_strided_slice %467 {offsets = [3], sizes = [1], strides = [1]} : vector<4xf32> to vector<1xf32>
        %963 = arith.andi %950, %528 : i1
        %964 = arith.addi %531, %354 overflow<nsw> : index
        %965 = arith.select %963, %964, %c536870911 : index
        vector.store %962, %508[%965] : memref<?xf32, #amdgpu.address_space<fat_raw_buffer>>, vector<1xf32>
        %966 = vector.extract_strided_slice %468 {offsets = [0], sizes = [1], strides = [1]} : vector<4xf32> to vector<1xf32>
        %967 = affine.apply #map105()[%thread_id_x, %block_id_y, %block_id_x, %2, %thread_id_y]
        %968 = arith.cmpi slt, %967, %494 : index
        %969 = arith.andi %968, %498 : i1
        %970 = arith.addi %504, %358 overflow<nsw> : index
        %971 = arith.select %969, %970, %c536870911 : index
        vector.store %966, %508[%971] : memref<?xf32, #amdgpu.address_space<fat_raw_buffer>>, vector<1xf32>
        %972 = vector.extract_strided_slice %468 {offsets = [1], sizes = [1], strides = [1]} : vector<4xf32> to vector<1xf32>
        %973 = arith.andi %968, %512 : i1
        %974 = arith.addi %515, %358 overflow<nsw> : index
        %975 = arith.select %973, %974, %c536870911 : index
        vector.store %972, %508[%975] : memref<?xf32, #amdgpu.address_space<fat_raw_buffer>>, vector<1xf32>
        %976 = vector.extract_strided_slice %468 {offsets = [2], sizes = [1], strides = [1]} : vector<4xf32> to vector<1xf32>
        %977 = arith.andi %968, %520 : i1
        %978 = arith.addi %523, %358 overflow<nsw> : index
        %979 = arith.select %977, %978, %c536870911 : index
        vector.store %976, %508[%979] : memref<?xf32, #amdgpu.address_space<fat_raw_buffer>>, vector<1xf32>
        %980 = vector.extract_strided_slice %468 {offsets = [3], sizes = [1], strides = [1]} : vector<4xf32> to vector<1xf32>
        %981 = arith.andi %968, %528 : i1
        %982 = arith.addi %531, %358 overflow<nsw> : index
        %983 = arith.select %981, %982, %c536870911 : index
        vector.store %980, %508[%983] : memref<?xf32, #amdgpu.address_space<fat_raw_buffer>>, vector<1xf32>
        %984 = vector.extract_strided_slice %469 {offsets = [0], sizes = [1], strides = [1]} : vector<4xf32> to vector<1xf32>
        %985 = affine.apply #map106()[%thread_id_x, %block_id_y, %block_id_x, %2, %thread_id_y]
        %986 = arith.cmpi slt, %985, %494 : index
        %987 = arith.andi %986, %498 : i1
        %988 = arith.addi %504, %362 overflow<nsw> : index
        %989 = arith.select %987, %988, %c536870911 : index
        vector.store %984, %508[%989] : memref<?xf32, #amdgpu.address_space<fat_raw_buffer>>, vector<1xf32>
        %990 = vector.extract_strided_slice %469 {offsets = [1], sizes = [1], strides = [1]} : vector<4xf32> to vector<1xf32>
        %991 = arith.andi %986, %512 : i1
        %992 = arith.addi %515, %362 overflow<nsw> : index
        %993 = arith.select %991, %992, %c536870911 : index
        vector.store %990, %508[%993] : memref<?xf32, #amdgpu.address_space<fat_raw_buffer>>, vector<1xf32>
        %994 = vector.extract_strided_slice %469 {offsets = [2], sizes = [1], strides = [1]} : vector<4xf32> to vector<1xf32>
        %995 = arith.andi %986, %520 : i1
        %996 = arith.addi %523, %362 overflow<nsw> : index
        %997 = arith.select %995, %996, %c536870911 : index
        vector.store %994, %508[%997] : memref<?xf32, #amdgpu.address_space<fat_raw_buffer>>, vector<1xf32>
        %998 = vector.extract_strided_slice %469 {offsets = [3], sizes = [1], strides = [1]} : vector<4xf32> to vector<1xf32>
        %999 = arith.andi %986, %528 : i1
        %1000 = arith.addi %531, %362 overflow<nsw> : index
        %1001 = arith.select %999, %1000, %c536870911 : index
        vector.store %998, %508[%1001] : memref<?xf32, #amdgpu.address_space<fat_raw_buffer>>, vector<1xf32>
        %1002 = vector.extract_strided_slice %470 {offsets = [0], sizes = [1], strides = [1]} : vector<4xf32> to vector<1xf32>
        %1003 = affine.apply #map107()[%thread_id_x, %block_id_y, %block_id_x, %2, %thread_id_y]
        %1004 = arith.cmpi slt, %1003, %494 : index
        %1005 = arith.andi %1004, %498 : i1
        %1006 = arith.addi %504, %366 overflow<nsw> : index
        %1007 = arith.select %1005, %1006, %c536870911 : index
        vector.store %1002, %508[%1007] : memref<?xf32, #amdgpu.address_space<fat_raw_buffer>>, vector<1xf32>
        %1008 = vector.extract_strided_slice %470 {offsets = [1], sizes = [1], strides = [1]} : vector<4xf32> to vector<1xf32>
        %1009 = arith.andi %1004, %512 : i1
        %1010 = arith.addi %515, %366 overflow<nsw> : index
        %1011 = arith.select %1009, %1010, %c536870911 : index
        vector.store %1008, %508[%1011] : memref<?xf32, #amdgpu.address_space<fat_raw_buffer>>, vector<1xf32>
        %1012 = vector.extract_strided_slice %470 {offsets = [2], sizes = [1], strides = [1]} : vector<4xf32> to vector<1xf32>
        %1013 = arith.andi %1004, %520 : i1
        %1014 = arith.addi %523, %366 overflow<nsw> : index
        %1015 = arith.select %1013, %1014, %c536870911 : index
        vector.store %1012, %508[%1015] : memref<?xf32, #amdgpu.address_space<fat_raw_buffer>>, vector<1xf32>
        %1016 = vector.extract_strided_slice %470 {offsets = [3], sizes = [1], strides = [1]} : vector<4xf32> to vector<1xf32>
        %1017 = arith.andi %1004, %528 : i1
        %1018 = arith.addi %531, %366 overflow<nsw> : index
        %1019 = arith.select %1017, %1018, %c536870911 : index
        vector.store %1016, %508[%1019] : memref<?xf32, #amdgpu.address_space<fat_raw_buffer>>, vector<1xf32>
        %1020 = vector.extract_strided_slice %471 {offsets = [0], sizes = [1], strides = [1]} : vector<4xf32> to vector<1xf32>
        %1021 = affine.apply #map108()[%thread_id_x, %block_id_y, %block_id_x, %2, %thread_id_y]
        %1022 = arith.cmpi slt, %1021, %494 : index
        %1023 = arith.andi %1022, %498 : i1
        %1024 = arith.addi %504, %370 overflow<nsw> : index
        %1025 = arith.select %1023, %1024, %c536870911 : index
        vector.store %1020, %508[%1025] : memref<?xf32, #amdgpu.address_space<fat_raw_buffer>>, vector<1xf32>
        %1026 = vector.extract_strided_slice %471 {offsets = [1], sizes = [1], strides = [1]} : vector<4xf32> to vector<1xf32>
        %1027 = arith.andi %1022, %512 : i1
        %1028 = arith.addi %515, %370 overflow<nsw> : index
        %1029 = arith.select %1027, %1028, %c536870911 : index
        vector.store %1026, %508[%1029] : memref<?xf32, #amdgpu.address_space<fat_raw_buffer>>, vector<1xf32>
        %1030 = vector.extract_strided_slice %471 {offsets = [2], sizes = [1], strides = [1]} : vector<4xf32> to vector<1xf32>
        %1031 = arith.andi %1022, %520 : i1
        %1032 = arith.addi %523, %370 overflow<nsw> : index
        %1033 = arith.select %1031, %1032, %c536870911 : index
        vector.store %1030, %508[%1033] : memref<?xf32, #amdgpu.address_space<fat_raw_buffer>>, vector<1xf32>
        %1034 = vector.extract_strided_slice %471 {offsets = [3], sizes = [1], strides = [1]} : vector<4xf32> to vector<1xf32>
        %1035 = arith.andi %1022, %528 : i1
        %1036 = arith.addi %531, %370 overflow<nsw> : index
        %1037 = arith.select %1035, %1036, %c536870911 : index
        vector.store %1034, %508[%1037] : memref<?xf32, #amdgpu.address_space<fat_raw_buffer>>, vector<1xf32>
        %1038 = vector.extract_strided_slice %472 {offsets = [0], sizes = [1], strides = [1]} : vector<4xf32> to vector<1xf32>
        %1039 = affine.apply #map109()[%thread_id_x, %block_id_y, %block_id_x, %2, %thread_id_y]
        %1040 = arith.cmpi slt, %1039, %494 : index
        %1041 = arith.andi %1040, %498 : i1
        %1042 = arith.addi %504, %374 overflow<nsw> : index
        %1043 = arith.select %1041, %1042, %c536870911 : index
        vector.store %1038, %508[%1043] : memref<?xf32, #amdgpu.address_space<fat_raw_buffer>>, vector<1xf32>
        %1044 = vector.extract_strided_slice %472 {offsets = [1], sizes = [1], strides = [1]} : vector<4xf32> to vector<1xf32>
        %1045 = arith.andi %1040, %512 : i1
        %1046 = arith.addi %515, %374 overflow<nsw> : index
        %1047 = arith.select %1045, %1046, %c536870911 : index
        vector.store %1044, %508[%1047] : memref<?xf32, #amdgpu.address_space<fat_raw_buffer>>, vector<1xf32>
        %1048 = vector.extract_strided_slice %472 {offsets = [2], sizes = [1], strides = [1]} : vector<4xf32> to vector<1xf32>
        %1049 = arith.andi %1040, %520 : i1
        %1050 = arith.addi %523, %374 overflow<nsw> : index
        %1051 = arith.select %1049, %1050, %c536870911 : index
        vector.store %1048, %508[%1051] : memref<?xf32, #amdgpu.address_space<fat_raw_buffer>>, vector<1xf32>
        %1052 = vector.extract_strided_slice %472 {offsets = [3], sizes = [1], strides = [1]} : vector<4xf32> to vector<1xf32>
        %1053 = arith.andi %1040, %528 : i1
        %1054 = arith.addi %531, %374 overflow<nsw> : index
        %1055 = arith.select %1053, %1054, %c536870911 : index
        vector.store %1052, %508[%1055] : memref<?xf32, #amdgpu.address_space<fat_raw_buffer>>, vector<1xf32>
        %1056 = vector.extract_strided_slice %473 {offsets = [0], sizes = [1], strides = [1]} : vector<4xf32> to vector<1xf32>
        %1057 = affine.apply #map110()[%thread_id_x, %block_id_y, %block_id_x, %2, %thread_id_y]
        %1058 = arith.cmpi slt, %1057, %494 : index
        %1059 = arith.andi %1058, %498 : i1
        %1060 = arith.addi %504, %378 overflow<nsw> : index
        %1061 = arith.select %1059, %1060, %c536870911 : index
        vector.store %1056, %508[%1061] : memref<?xf32, #amdgpu.address_space<fat_raw_buffer>>, vector<1xf32>
        %1062 = vector.extract_strided_slice %473 {offsets = [1], sizes = [1], strides = [1]} : vector<4xf32> to vector<1xf32>
        %1063 = arith.andi %1058, %512 : i1
        %1064 = arith.addi %515, %378 overflow<nsw> : index
        %1065 = arith.select %1063, %1064, %c536870911 : index
        vector.store %1062, %508[%1065] : memref<?xf32, #amdgpu.address_space<fat_raw_buffer>>, vector<1xf32>
        %1066 = vector.extract_strided_slice %473 {offsets = [2], sizes = [1], strides = [1]} : vector<4xf32> to vector<1xf32>
        %1067 = arith.andi %1058, %520 : i1
        %1068 = arith.addi %523, %378 overflow<nsw> : index
        %1069 = arith.select %1067, %1068, %c536870911 : index
        vector.store %1066, %508[%1069] : memref<?xf32, #amdgpu.address_space<fat_raw_buffer>>, vector<1xf32>
        %1070 = vector.extract_strided_slice %473 {offsets = [3], sizes = [1], strides = [1]} : vector<4xf32> to vector<1xf32>
        %1071 = arith.andi %1058, %528 : i1
        %1072 = arith.addi %531, %378 overflow<nsw> : index
        %1073 = arith.select %1071, %1072, %c536870911 : index
        vector.store %1070, %508[%1073] : memref<?xf32, #amdgpu.address_space<fat_raw_buffer>>, vector<1xf32>
        %1074 = vector.extract_strided_slice %474 {offsets = [0], sizes = [1], strides = [1]} : vector<4xf32> to vector<1xf32>
        %1075 = affine.apply #map111()[%thread_id_x, %block_id_y, %block_id_x, %2, %thread_id_y]
        %1076 = arith.cmpi slt, %1075, %494 : index
        %1077 = arith.andi %1076, %498 : i1
        %1078 = arith.addi %504, %382 overflow<nsw> : index
        %1079 = arith.select %1077, %1078, %c536870911 : index
        vector.store %1074, %508[%1079] : memref<?xf32, #amdgpu.address_space<fat_raw_buffer>>, vector<1xf32>
        %1080 = vector.extract_strided_slice %474 {offsets = [1], sizes = [1], strides = [1]} : vector<4xf32> to vector<1xf32>
        %1081 = arith.andi %1076, %512 : i1
        %1082 = arith.addi %515, %382 overflow<nsw> : index
        %1083 = arith.select %1081, %1082, %c536870911 : index
        vector.store %1080, %508[%1083] : memref<?xf32, #amdgpu.address_space<fat_raw_buffer>>, vector<1xf32>
        %1084 = vector.extract_strided_slice %474 {offsets = [2], sizes = [1], strides = [1]} : vector<4xf32> to vector<1xf32>
        %1085 = arith.andi %1076, %520 : i1
        %1086 = arith.addi %523, %382 overflow<nsw> : index
        %1087 = arith.select %1085, %1086, %c536870911 : index
        vector.store %1084, %508[%1087] : memref<?xf32, #amdgpu.address_space<fat_raw_buffer>>, vector<1xf32>
        %1088 = vector.extract_strided_slice %474 {offsets = [3], sizes = [1], strides = [1]} : vector<4xf32> to vector<1xf32>
        %1089 = arith.andi %1076, %528 : i1
        %1090 = arith.addi %531, %382 overflow<nsw> : index
        %1091 = arith.select %1089, %1090, %c536870911 : index
        vector.store %1088, %508[%1091] : memref<?xf32, #amdgpu.address_space<fat_raw_buffer>>, vector<1xf32>
        %1092 = vector.extract_strided_slice %475 {offsets = [0], sizes = [1], strides = [1]} : vector<4xf32> to vector<1xf32>
        %1093 = affine.apply #map112()[%thread_id_x, %block_id_y, %block_id_x, %2, %thread_id_y]
        %1094 = arith.cmpi slt, %1093, %494 : index
        %1095 = arith.andi %1094, %498 : i1
        %1096 = arith.addi %504, %386 overflow<nsw> : index
        %1097 = arith.select %1095, %1096, %c536870911 : index
        vector.store %1092, %508[%1097] : memref<?xf32, #amdgpu.address_space<fat_raw_buffer>>, vector<1xf32>
        %1098 = vector.extract_strided_slice %475 {offsets = [1], sizes = [1], strides = [1]} : vector<4xf32> to vector<1xf32>
        %1099 = arith.andi %1094, %512 : i1
        %1100 = arith.addi %515, %386 overflow<nsw> : index
        %1101 = arith.select %1099, %1100, %c536870911 : index
        vector.store %1098, %508[%1101] : memref<?xf32, #amdgpu.address_space<fat_raw_buffer>>, vector<1xf32>
        %1102 = vector.extract_strided_slice %475 {offsets = [2], sizes = [1], strides = [1]} : vector<4xf32> to vector<1xf32>
        %1103 = arith.andi %1094, %520 : i1
        %1104 = arith.addi %523, %386 overflow<nsw> : index
        %1105 = arith.select %1103, %1104, %c536870911 : index
        vector.store %1102, %508[%1105] : memref<?xf32, #amdgpu.address_space<fat_raw_buffer>>, vector<1xf32>
        %1106 = vector.extract_strided_slice %475 {offsets = [3], sizes = [1], strides = [1]} : vector<4xf32> to vector<1xf32>
        %1107 = arith.andi %1094, %528 : i1
        %1108 = arith.addi %531, %386 overflow<nsw> : index
        %1109 = arith.select %1107, %1108, %c536870911 : index
        vector.store %1106, %508[%1109] : memref<?xf32, #amdgpu.address_space<fat_raw_buffer>>, vector<1xf32>
        %1110 = vector.extract_strided_slice %476 {offsets = [0], sizes = [1], strides = [1]} : vector<4xf32> to vector<1xf32>
        %1111 = affine.apply #map113()[%thread_id_x, %block_id_y, %block_id_x, %2, %thread_id_y]
        %1112 = arith.cmpi slt, %1111, %494 : index
        %1113 = arith.andi %1112, %498 : i1
        %1114 = arith.addi %504, %390 overflow<nsw> : index
        %1115 = arith.select %1113, %1114, %c536870911 : index
        vector.store %1110, %508[%1115] : memref<?xf32, #amdgpu.address_space<fat_raw_buffer>>, vector<1xf32>
        %1116 = vector.extract_strided_slice %476 {offsets = [1], sizes = [1], strides = [1]} : vector<4xf32> to vector<1xf32>
        %1117 = arith.andi %1112, %512 : i1
        %1118 = arith.addi %515, %390 overflow<nsw> : index
        %1119 = arith.select %1117, %1118, %c536870911 : index
        vector.store %1116, %508[%1119] : memref<?xf32, #amdgpu.address_space<fat_raw_buffer>>, vector<1xf32>
        %1120 = vector.extract_strided_slice %476 {offsets = [2], sizes = [1], strides = [1]} : vector<4xf32> to vector<1xf32>
        %1121 = arith.andi %1112, %520 : i1
        %1122 = arith.addi %523, %390 overflow<nsw> : index
        %1123 = arith.select %1121, %1122, %c536870911 : index
        vector.store %1120, %508[%1123] : memref<?xf32, #amdgpu.address_space<fat_raw_buffer>>, vector<1xf32>
        %1124 = vector.extract_strided_slice %476 {offsets = [3], sizes = [1], strides = [1]} : vector<4xf32> to vector<1xf32>
        %1125 = arith.andi %1112, %528 : i1
        %1126 = arith.addi %531, %390 overflow<nsw> : index
        %1127 = arith.select %1125, %1126, %c536870911 : index
        vector.store %1124, %508[%1127] : memref<?xf32, #amdgpu.address_space<fat_raw_buffer>>, vector<1xf32>
        %1128 = vector.extract_strided_slice %477 {offsets = [0], sizes = [1], strides = [1]} : vector<4xf32> to vector<1xf32>
        %1129 = affine.apply #map114()[%thread_id_x, %block_id_y, %block_id_x, %2, %thread_id_y]
        %1130 = arith.cmpi slt, %1129, %494 : index
        %1131 = arith.andi %1130, %498 : i1
        %1132 = arith.addi %504, %394 overflow<nsw> : index
        %1133 = arith.select %1131, %1132, %c536870911 : index
        vector.store %1128, %508[%1133] : memref<?xf32, #amdgpu.address_space<fat_raw_buffer>>, vector<1xf32>
        %1134 = vector.extract_strided_slice %477 {offsets = [1], sizes = [1], strides = [1]} : vector<4xf32> to vector<1xf32>
        %1135 = arith.andi %1130, %512 : i1
        %1136 = arith.addi %515, %394 overflow<nsw> : index
        %1137 = arith.select %1135, %1136, %c536870911 : index
        vector.store %1134, %508[%1137] : memref<?xf32, #amdgpu.address_space<fat_raw_buffer>>, vector<1xf32>
        %1138 = vector.extract_strided_slice %477 {offsets = [2], sizes = [1], strides = [1]} : vector<4xf32> to vector<1xf32>
        %1139 = arith.andi %1130, %520 : i1
        %1140 = arith.addi %523, %394 overflow<nsw> : index
        %1141 = arith.select %1139, %1140, %c536870911 : index
        vector.store %1138, %508[%1141] : memref<?xf32, #amdgpu.address_space<fat_raw_buffer>>, vector<1xf32>
        %1142 = vector.extract_strided_slice %477 {offsets = [3], sizes = [1], strides = [1]} : vector<4xf32> to vector<1xf32>
        %1143 = arith.andi %1130, %528 : i1
        %1144 = arith.addi %531, %394 overflow<nsw> : index
        %1145 = arith.select %1143, %1144, %c536870911 : index
        vector.store %1142, %508[%1145] : memref<?xf32, #amdgpu.address_space<fat_raw_buffer>>, vector<1xf32>
        %1146 = vector.extract_strided_slice %478 {offsets = [0], sizes = [1], strides = [1]} : vector<4xf32> to vector<1xf32>
        %1147 = affine.apply #map115()[%thread_id_x, %block_id_y, %block_id_x, %2, %thread_id_y]
        %1148 = arith.cmpi slt, %1147, %494 : index
        %1149 = arith.andi %1148, %498 : i1
        %1150 = arith.addi %504, %398 overflow<nsw> : index
        %1151 = arith.select %1149, %1150, %c536870911 : index
        vector.store %1146, %508[%1151] : memref<?xf32, #amdgpu.address_space<fat_raw_buffer>>, vector<1xf32>
        %1152 = vector.extract_strided_slice %478 {offsets = [1], sizes = [1], strides = [1]} : vector<4xf32> to vector<1xf32>
        %1153 = arith.andi %1148, %512 : i1
        %1154 = arith.addi %515, %398 overflow<nsw> : index
        %1155 = arith.select %1153, %1154, %c536870911 : index
        vector.store %1152, %508[%1155] : memref<?xf32, #amdgpu.address_space<fat_raw_buffer>>, vector<1xf32>
        %1156 = vector.extract_strided_slice %478 {offsets = [2], sizes = [1], strides = [1]} : vector<4xf32> to vector<1xf32>
        %1157 = arith.andi %1148, %520 : i1
        %1158 = arith.addi %523, %398 overflow<nsw> : index
        %1159 = arith.select %1157, %1158, %c536870911 : index
        vector.store %1156, %508[%1159] : memref<?xf32, #amdgpu.address_space<fat_raw_buffer>>, vector<1xf32>
        %1160 = vector.extract_strided_slice %478 {offsets = [3], sizes = [1], strides = [1]} : vector<4xf32> to vector<1xf32>
        %1161 = arith.andi %1148, %528 : i1
        %1162 = arith.addi %531, %398 overflow<nsw> : index
        %1163 = arith.select %1161, %1162, %c536870911 : index
        vector.store %1160, %508[%1163] : memref<?xf32, #amdgpu.address_space<fat_raw_buffer>>, vector<1xf32>
        %1164 = vector.extract_strided_slice %479 {offsets = [0], sizes = [1], strides = [1]} : vector<4xf32> to vector<1xf32>
        %1165 = affine.apply #map116()[%thread_id_x, %block_id_y, %block_id_x, %2, %thread_id_y]
        %1166 = arith.cmpi slt, %1165, %494 : index
        %1167 = arith.andi %1166, %498 : i1
        %1168 = arith.addi %504, %402 overflow<nsw> : index
        %1169 = arith.select %1167, %1168, %c536870911 : index
        vector.store %1164, %508[%1169] : memref<?xf32, #amdgpu.address_space<fat_raw_buffer>>, vector<1xf32>
        %1170 = vector.extract_strided_slice %479 {offsets = [1], sizes = [1], strides = [1]} : vector<4xf32> to vector<1xf32>
        %1171 = arith.andi %1166, %512 : i1
        %1172 = arith.addi %515, %402 overflow<nsw> : index
        %1173 = arith.select %1171, %1172, %c536870911 : index
        vector.store %1170, %508[%1173] : memref<?xf32, #amdgpu.address_space<fat_raw_buffer>>, vector<1xf32>
        %1174 = vector.extract_strided_slice %479 {offsets = [2], sizes = [1], strides = [1]} : vector<4xf32> to vector<1xf32>
        %1175 = arith.andi %1166, %520 : i1
        %1176 = arith.addi %523, %402 overflow<nsw> : index
        %1177 = arith.select %1175, %1176, %c536870911 : index
        vector.store %1174, %508[%1177] : memref<?xf32, #amdgpu.address_space<fat_raw_buffer>>, vector<1xf32>
        %1178 = vector.extract_strided_slice %479 {offsets = [3], sizes = [1], strides = [1]} : vector<4xf32> to vector<1xf32>
        %1179 = arith.andi %1166, %528 : i1
        %1180 = arith.addi %531, %402 overflow<nsw> : index
        %1181 = arith.select %1179, %1180, %c536870911 : index
        vector.store %1178, %508[%1181] : memref<?xf32, #amdgpu.address_space<fat_raw_buffer>>, vector<1xf32>
        %1182 = vector.extract_strided_slice %480 {offsets = [0], sizes = [1], strides = [1]} : vector<4xf32> to vector<1xf32>
        %1183 = affine.apply #map117()[%thread_id_x, %block_id_y, %block_id_x, %2, %thread_id_y]
        %1184 = arith.cmpi slt, %1183, %494 : index
        %1185 = arith.andi %1184, %498 : i1
        %1186 = arith.addi %504, %406 overflow<nsw> : index
        %1187 = arith.select %1185, %1186, %c536870911 : index
        vector.store %1182, %508[%1187] : memref<?xf32, #amdgpu.address_space<fat_raw_buffer>>, vector<1xf32>
        %1188 = vector.extract_strided_slice %480 {offsets = [1], sizes = [1], strides = [1]} : vector<4xf32> to vector<1xf32>
        %1189 = arith.andi %1184, %512 : i1
        %1190 = arith.addi %515, %406 overflow<nsw> : index
        %1191 = arith.select %1189, %1190, %c536870911 : index
        vector.store %1188, %508[%1191] : memref<?xf32, #amdgpu.address_space<fat_raw_buffer>>, vector<1xf32>
        %1192 = vector.extract_strided_slice %480 {offsets = [2], sizes = [1], strides = [1]} : vector<4xf32> to vector<1xf32>
        %1193 = arith.andi %1184, %520 : i1
        %1194 = arith.addi %523, %406 overflow<nsw> : index
        %1195 = arith.select %1193, %1194, %c536870911 : index
        vector.store %1192, %508[%1195] : memref<?xf32, #amdgpu.address_space<fat_raw_buffer>>, vector<1xf32>
        %1196 = vector.extract_strided_slice %480 {offsets = [3], sizes = [1], strides = [1]} : vector<4xf32> to vector<1xf32>
        %1197 = arith.andi %1184, %528 : i1
        %1198 = arith.addi %531, %406 overflow<nsw> : index
        %1199 = arith.select %1197, %1198, %c536870911 : index
        vector.store %1196, %508[%1199] : memref<?xf32, #amdgpu.address_space<fat_raw_buffer>>, vector<1xf32>
        %1200 = vector.extract_strided_slice %481 {offsets = [0], sizes = [1], strides = [1]} : vector<4xf32> to vector<1xf32>
        %1201 = affine.apply #map118()[%thread_id_x, %block_id_y, %block_id_x, %2, %thread_id_y]
        %1202 = arith.cmpi slt, %1201, %494 : index
        %1203 = arith.andi %1202, %498 : i1
        %1204 = arith.addi %504, %410 overflow<nsw> : index
        %1205 = arith.select %1203, %1204, %c536870911 : index
        vector.store %1200, %508[%1205] : memref<?xf32, #amdgpu.address_space<fat_raw_buffer>>, vector<1xf32>
        %1206 = vector.extract_strided_slice %481 {offsets = [1], sizes = [1], strides = [1]} : vector<4xf32> to vector<1xf32>
        %1207 = arith.andi %1202, %512 : i1
        %1208 = arith.addi %515, %410 overflow<nsw> : index
        %1209 = arith.select %1207, %1208, %c536870911 : index
        vector.store %1206, %508[%1209] : memref<?xf32, #amdgpu.address_space<fat_raw_buffer>>, vector<1xf32>
        %1210 = vector.extract_strided_slice %481 {offsets = [2], sizes = [1], strides = [1]} : vector<4xf32> to vector<1xf32>
        %1211 = arith.andi %1202, %520 : i1
        %1212 = arith.addi %523, %410 overflow<nsw> : index
        %1213 = arith.select %1211, %1212, %c536870911 : index
        vector.store %1210, %508[%1213] : memref<?xf32, #amdgpu.address_space<fat_raw_buffer>>, vector<1xf32>
        %1214 = vector.extract_strided_slice %481 {offsets = [3], sizes = [1], strides = [1]} : vector<4xf32> to vector<1xf32>
        %1215 = arith.andi %1202, %528 : i1
        %1216 = arith.addi %531, %410 overflow<nsw> : index
        %1217 = arith.select %1215, %1216, %c536870911 : index
        vector.store %1214, %508[%1217] : memref<?xf32, #amdgpu.address_space<fat_raw_buffer>>, vector<1xf32>
        %1218 = vector.extract_strided_slice %482 {offsets = [0], sizes = [1], strides = [1]} : vector<4xf32> to vector<1xf32>
        %1219 = affine.apply #map119()[%thread_id_x, %block_id_y, %block_id_x, %2, %thread_id_y]
        %1220 = arith.cmpi slt, %1219, %494 : index
        %1221 = arith.andi %1220, %498 : i1
        %1222 = arith.addi %504, %414 overflow<nsw> : index
        %1223 = arith.select %1221, %1222, %c536870911 : index
        vector.store %1218, %508[%1223] : memref<?xf32, #amdgpu.address_space<fat_raw_buffer>>, vector<1xf32>
        %1224 = vector.extract_strided_slice %482 {offsets = [1], sizes = [1], strides = [1]} : vector<4xf32> to vector<1xf32>
        %1225 = arith.andi %1220, %512 : i1
        %1226 = arith.addi %515, %414 overflow<nsw> : index
        %1227 = arith.select %1225, %1226, %c536870911 : index
        vector.store %1224, %508[%1227] : memref<?xf32, #amdgpu.address_space<fat_raw_buffer>>, vector<1xf32>
        %1228 = vector.extract_strided_slice %482 {offsets = [2], sizes = [1], strides = [1]} : vector<4xf32> to vector<1xf32>
        %1229 = arith.andi %1220, %520 : i1
        %1230 = arith.addi %523, %414 overflow<nsw> : index
        %1231 = arith.select %1229, %1230, %c536870911 : index
        vector.store %1228, %508[%1231] : memref<?xf32, #amdgpu.address_space<fat_raw_buffer>>, vector<1xf32>
        %1232 = vector.extract_strided_slice %482 {offsets = [3], sizes = [1], strides = [1]} : vector<4xf32> to vector<1xf32>
        %1233 = arith.andi %1220, %528 : i1
        %1234 = arith.addi %531, %414 overflow<nsw> : index
        %1235 = arith.select %1233, %1234, %c536870911 : index
        vector.store %1232, %508[%1235] : memref<?xf32, #amdgpu.address_space<fat_raw_buffer>>, vector<1xf32>
        %1236 = vector.extract_strided_slice %483 {offsets = [0], sizes = [1], strides = [1]} : vector<4xf32> to vector<1xf32>
        %1237 = affine.apply #map120()[%thread_id_x, %block_id_y, %block_id_x, %2, %thread_id_y]
        %1238 = arith.cmpi slt, %1237, %494 : index
        %1239 = arith.andi %1238, %498 : i1
        %1240 = arith.addi %504, %418 overflow<nsw> : index
        %1241 = arith.select %1239, %1240, %c536870911 : index
        vector.store %1236, %508[%1241] : memref<?xf32, #amdgpu.address_space<fat_raw_buffer>>, vector<1xf32>
        %1242 = vector.extract_strided_slice %483 {offsets = [1], sizes = [1], strides = [1]} : vector<4xf32> to vector<1xf32>
        %1243 = arith.andi %1238, %512 : i1
        %1244 = arith.addi %515, %418 overflow<nsw> : index
        %1245 = arith.select %1243, %1244, %c536870911 : index
        vector.store %1242, %508[%1245] : memref<?xf32, #amdgpu.address_space<fat_raw_buffer>>, vector<1xf32>
        %1246 = vector.extract_strided_slice %483 {offsets = [2], sizes = [1], strides = [1]} : vector<4xf32> to vector<1xf32>
        %1247 = arith.andi %1238, %520 : i1
        %1248 = arith.addi %523, %418 overflow<nsw> : index
        %1249 = arith.select %1247, %1248, %c536870911 : index
        vector.store %1246, %508[%1249] : memref<?xf32, #amdgpu.address_space<fat_raw_buffer>>, vector<1xf32>
        %1250 = vector.extract_strided_slice %483 {offsets = [3], sizes = [1], strides = [1]} : vector<4xf32> to vector<1xf32>
        %1251 = arith.andi %1238, %528 : i1
        %1252 = arith.addi %531, %418 overflow<nsw> : index
        %1253 = arith.select %1251, %1252, %c536870911 : index
        vector.store %1250, %508[%1253] : memref<?xf32, #amdgpu.address_space<fat_raw_buffer>>, vector<1xf32>
        %1254 = vector.extract_strided_slice %484 {offsets = [0], sizes = [1], strides = [1]} : vector<4xf32> to vector<1xf32>
        %1255 = affine.apply #map121()[%thread_id_x, %block_id_y, %block_id_x, %2, %thread_id_y]
        %1256 = arith.cmpi slt, %1255, %494 : index
        %1257 = arith.andi %1256, %498 : i1
        %1258 = arith.addi %504, %422 overflow<nsw> : index
        %1259 = arith.select %1257, %1258, %c536870911 : index
        vector.store %1254, %508[%1259] : memref<?xf32, #amdgpu.address_space<fat_raw_buffer>>, vector<1xf32>
        %1260 = vector.extract_strided_slice %484 {offsets = [1], sizes = [1], strides = [1]} : vector<4xf32> to vector<1xf32>
        %1261 = arith.andi %1256, %512 : i1
        %1262 = arith.addi %515, %422 overflow<nsw> : index
        %1263 = arith.select %1261, %1262, %c536870911 : index
        vector.store %1260, %508[%1263] : memref<?xf32, #amdgpu.address_space<fat_raw_buffer>>, vector<1xf32>
        %1264 = vector.extract_strided_slice %484 {offsets = [2], sizes = [1], strides = [1]} : vector<4xf32> to vector<1xf32>
        %1265 = arith.andi %1256, %520 : i1
        %1266 = arith.addi %523, %422 overflow<nsw> : index
        %1267 = arith.select %1265, %1266, %c536870911 : index
        vector.store %1264, %508[%1267] : memref<?xf32, #amdgpu.address_space<fat_raw_buffer>>, vector<1xf32>
        %1268 = vector.extract_strided_slice %484 {offsets = [3], sizes = [1], strides = [1]} : vector<4xf32> to vector<1xf32>
        %1269 = arith.andi %1256, %528 : i1
        %1270 = arith.addi %531, %422 overflow<nsw> : index
        %1271 = arith.select %1269, %1270, %c536870911 : index
        vector.store %1268, %508[%1271] : memref<?xf32, #amdgpu.address_space<fat_raw_buffer>>, vector<1xf32>
        %1272 = vector.extract_strided_slice %485 {offsets = [0], sizes = [1], strides = [1]} : vector<4xf32> to vector<1xf32>
        %1273 = affine.apply #map122()[%thread_id_x, %block_id_y, %block_id_x, %2, %thread_id_y]
        %1274 = arith.cmpi slt, %1273, %494 : index
        %1275 = arith.andi %1274, %498 : i1
        %1276 = arith.addi %504, %426 overflow<nsw> : index
        %1277 = arith.select %1275, %1276, %c536870911 : index
        vector.store %1272, %508[%1277] : memref<?xf32, #amdgpu.address_space<fat_raw_buffer>>, vector<1xf32>
        %1278 = vector.extract_strided_slice %485 {offsets = [1], sizes = [1], strides = [1]} : vector<4xf32> to vector<1xf32>
        %1279 = arith.andi %1274, %512 : i1
        %1280 = arith.addi %515, %426 overflow<nsw> : index
        %1281 = arith.select %1279, %1280, %c536870911 : index
        vector.store %1278, %508[%1281] : memref<?xf32, #amdgpu.address_space<fat_raw_buffer>>, vector<1xf32>
        %1282 = vector.extract_strided_slice %485 {offsets = [2], sizes = [1], strides = [1]} : vector<4xf32> to vector<1xf32>
        %1283 = arith.andi %1274, %520 : i1
        %1284 = arith.addi %523, %426 overflow<nsw> : index
        %1285 = arith.select %1283, %1284, %c536870911 : index
        vector.store %1282, %508[%1285] : memref<?xf32, #amdgpu.address_space<fat_raw_buffer>>, vector<1xf32>
        %1286 = vector.extract_strided_slice %485 {offsets = [3], sizes = [1], strides = [1]} : vector<4xf32> to vector<1xf32>
        %1287 = arith.andi %1274, %528 : i1
        %1288 = arith.addi %531, %426 overflow<nsw> : index
        %1289 = arith.select %1287, %1288, %c536870911 : index
        vector.store %1286, %508[%1289] : memref<?xf32, #amdgpu.address_space<fat_raw_buffer>>, vector<1xf32>
        %1290 = vector.extract_strided_slice %486 {offsets = [0], sizes = [1], strides = [1]} : vector<4xf32> to vector<1xf32>
        %1291 = affine.apply #map123()[%thread_id_x, %block_id_y, %block_id_x, %2, %thread_id_y]
        %1292 = arith.cmpi slt, %1291, %494 : index
        %1293 = arith.andi %1292, %498 : i1
        %1294 = arith.addi %504, %430 overflow<nsw> : index
        %1295 = arith.select %1293, %1294, %c536870911 : index
        vector.store %1290, %508[%1295] : memref<?xf32, #amdgpu.address_space<fat_raw_buffer>>, vector<1xf32>
        %1296 = vector.extract_strided_slice %486 {offsets = [1], sizes = [1], strides = [1]} : vector<4xf32> to vector<1xf32>
        %1297 = arith.andi %1292, %512 : i1
        %1298 = arith.addi %515, %430 overflow<nsw> : index
        %1299 = arith.select %1297, %1298, %c536870911 : index
        vector.store %1296, %508[%1299] : memref<?xf32, #amdgpu.address_space<fat_raw_buffer>>, vector<1xf32>
        %1300 = vector.extract_strided_slice %486 {offsets = [2], sizes = [1], strides = [1]} : vector<4xf32> to vector<1xf32>
        %1301 = arith.andi %1292, %520 : i1
        %1302 = arith.addi %523, %430 overflow<nsw> : index
        %1303 = arith.select %1301, %1302, %c536870911 : index
        vector.store %1300, %508[%1303] : memref<?xf32, #amdgpu.address_space<fat_raw_buffer>>, vector<1xf32>
        %1304 = vector.extract_strided_slice %486 {offsets = [3], sizes = [1], strides = [1]} : vector<4xf32> to vector<1xf32>
        %1305 = arith.andi %1292, %528 : i1
        %1306 = arith.addi %531, %430 overflow<nsw> : index
        %1307 = arith.select %1305, %1306, %c536870911 : index
        vector.store %1304, %508[%1307] : memref<?xf32, #amdgpu.address_space<fat_raw_buffer>>, vector<1xf32>
        %1308 = vector.extract_strided_slice %487 {offsets = [0], sizes = [1], strides = [1]} : vector<4xf32> to vector<1xf32>
        %1309 = affine.apply #map124()[%thread_id_x, %block_id_y, %block_id_x, %2, %thread_id_y]
        %1310 = arith.cmpi slt, %1309, %494 : index
        %1311 = arith.andi %1310, %498 : i1
        %1312 = arith.addi %504, %434 overflow<nsw> : index
        %1313 = arith.select %1311, %1312, %c536870911 : index
        vector.store %1308, %508[%1313] : memref<?xf32, #amdgpu.address_space<fat_raw_buffer>>, vector<1xf32>
        %1314 = vector.extract_strided_slice %487 {offsets = [1], sizes = [1], strides = [1]} : vector<4xf32> to vector<1xf32>
        %1315 = arith.andi %1310, %512 : i1
        %1316 = arith.addi %515, %434 overflow<nsw> : index
        %1317 = arith.select %1315, %1316, %c536870911 : index
        vector.store %1314, %508[%1317] : memref<?xf32, #amdgpu.address_space<fat_raw_buffer>>, vector<1xf32>
        %1318 = vector.extract_strided_slice %487 {offsets = [2], sizes = [1], strides = [1]} : vector<4xf32> to vector<1xf32>
        %1319 = arith.andi %1310, %520 : i1
        %1320 = arith.addi %523, %434 overflow<nsw> : index
        %1321 = arith.select %1319, %1320, %c536870911 : index
        vector.store %1318, %508[%1321] : memref<?xf32, #amdgpu.address_space<fat_raw_buffer>>, vector<1xf32>
        %1322 = vector.extract_strided_slice %487 {offsets = [3], sizes = [1], strides = [1]} : vector<4xf32> to vector<1xf32>
        %1323 = arith.andi %1310, %528 : i1
        %1324 = arith.addi %531, %434 overflow<nsw> : index
        %1325 = arith.select %1323, %1324, %c536870911 : index
        vector.store %1322, %508[%1325] : memref<?xf32, #amdgpu.address_space<fat_raw_buffer>>, vector<1xf32>
        %1326 = vector.extract_strided_slice %488 {offsets = [0], sizes = [1], strides = [1]} : vector<4xf32> to vector<1xf32>
        %1327 = affine.apply #map125()[%thread_id_x, %block_id_y, %block_id_x, %2, %thread_id_y]
        %1328 = arith.cmpi slt, %1327, %494 : index
        %1329 = arith.andi %1328, %498 : i1
        %1330 = arith.addi %504, %438 overflow<nsw> : index
        %1331 = arith.select %1329, %1330, %c536870911 : index
        vector.store %1326, %508[%1331] : memref<?xf32, #amdgpu.address_space<fat_raw_buffer>>, vector<1xf32>
        %1332 = vector.extract_strided_slice %488 {offsets = [1], sizes = [1], strides = [1]} : vector<4xf32> to vector<1xf32>
        %1333 = arith.andi %1328, %512 : i1
        %1334 = arith.addi %515, %438 overflow<nsw> : index
        %1335 = arith.select %1333, %1334, %c536870911 : index
        vector.store %1332, %508[%1335] : memref<?xf32, #amdgpu.address_space<fat_raw_buffer>>, vector<1xf32>
        %1336 = vector.extract_strided_slice %488 {offsets = [2], sizes = [1], strides = [1]} : vector<4xf32> to vector<1xf32>
        %1337 = arith.andi %1328, %520 : i1
        %1338 = arith.addi %523, %438 overflow<nsw> : index
        %1339 = arith.select %1337, %1338, %c536870911 : index
        vector.store %1336, %508[%1339] : memref<?xf32, #amdgpu.address_space<fat_raw_buffer>>, vector<1xf32>
        %1340 = vector.extract_strided_slice %488 {offsets = [3], sizes = [1], strides = [1]} : vector<4xf32> to vector<1xf32>
        %1341 = arith.andi %1328, %528 : i1
        %1342 = arith.addi %531, %438 overflow<nsw> : index
        %1343 = arith.select %1341, %1342, %c536870911 : index
        vector.store %1340, %508[%1343] : memref<?xf32, #amdgpu.address_space<fat_raw_buffer>>, vector<1xf32>
        return
      }
    }
  }
  func.func @isolated_benchmark(%arg0: tensor<641x4096xf16>, %arg1: tensor<2880x4096xf16>, %arg2: tensor<641x2880xf32>) -> tensor<641x2880xf32> {
    %0 = flow.dispatch @gemm::@gemm(%arg0, %arg1, %arg2) : (tensor<641x4096xf16>, tensor<2880x4096xf16>, tensor<641x2880xf32>) -> %arg2
    return %0 : tensor<641x2880xf32>
  }
}
