#map = affine_map<()[s0, s1] -> (((s0 * 821762 + s1 * 641 - ((s0 * 1282 + s1) floordiv 8) * 5127) floordiv 644) * -161 + 1282)>
#map1 = affine_map<()[s0, s1] -> (s0 * 16 + (s1 floordiv 64) * 4 + 4)>
#map2 = affine_map<()[s0] -> (s0 * 16 + 16)>
#map3 = affine_map<()[s0, s1, s2, s3] -> (s0 mod 32 + (s0 floordiv 64) * 4 + ((s1 * 821762 + s2 * 641 - ((s1 * 1282 + s2) floordiv 8) * 5127) floordiv 644) * 2576 + (((s1 * 821762 + s2 * 641 - ((s1 * 1282 + s2) floordiv 8) * 5127) mod 644) mod s3) * 16)>
#map4 = affine_map<()[s0] -> (((s0 mod 64) floordiv 32) * 8)>
#map5 = affine_map<()[s0, s1, s2, s3, s4] -> (s0 floordiv 2 + s1 * 128 - ((s1 * 128 + s0 floordiv 2) floordiv 732) * 732 + (((s2 * 821762 + s3 * 641 - ((s2 * 1282 + s3) floordiv 8) * 5127) mod 644) floordiv s4) * 732)>
#map6 = affine_map<()[s0] -> (s0 * 8 - (s0 floordiv 2) * 16)>
#map7 = affine_map<()[s0, s1, s2, s3, s4] -> (s0 floordiv 2 + s1 * 128 - ((s1 * 128 + s0 floordiv 2 + 256) floordiv 732) * 732 + (((s2 * 821762 + s3 * 641 - ((s2 * 1282 + s3) floordiv 8) * 5127) mod 644) floordiv s4) * 732 + 256)>
#map8 = affine_map<()[s0, s1, s2, s3, s4] -> (s0 floordiv 2 + s1 * 128 - ((s1 * 128 + s0 floordiv 2 + 512) floordiv 732) * 732 + (((s2 * 821762 + s3 * 641 - ((s2 * 1282 + s3) floordiv 8) * 5127) mod 644) floordiv s4) * 732 + 512)>
#map9 = affine_map<()[s0] -> ((s0 floordiv 64) * 4 + 4)>
#map10 = affine_map<()[s0] -> (s0 mod 32 + (s0 floordiv 64) * 4)>
#map11 = affine_map<()[s0] -> (s0 * 366 + 366)>
#map12 = affine_map<()[s0, s1] -> ((s1 * 128 + s0 floordiv 2) mod 732)>
#map13 = affine_map<()[s0, s1] -> (s1 * 128 + s0 floordiv 2 - ((s1 * 128 + s0 floordiv 2 + 256) floordiv 732) * 732 + 256)>
#map14 = affine_map<()[s0, s1] -> (s1 * 128 + s0 floordiv 2 - ((s1 * 128 + s0 floordiv 2 + 512) floordiv 732) * 732 + 512)>
#map15 = affine_map<()[s0, s1] -> (s0 + s1 * 366 - (s0 floordiv 32) * 32)>
#map16 = affine_map<()[s0, s1] -> (s0 + s1 * 366 - (s0 floordiv 32) * 32 + 32)>
#map17 = affine_map<()[s0, s1] -> (s0 + s1 * 366 - (s0 floordiv 32) * 32 + 64)>
#map18 = affine_map<()[s0, s1] -> (s0 + s1 * 366 - (s0 floordiv 32) * 32 + 96)>
#map19 = affine_map<()[s0, s1] -> (s0 + s1 * 366 - (s0 floordiv 32) * 32 + 128)>
#map20 = affine_map<()[s0, s1] -> (s0 + s1 * 366 - (s0 floordiv 32) * 32 + 160)>
#map21 = affine_map<()[s0, s1] -> (s0 + s1 * 366 - (s0 floordiv 32) * 32 + 192)>
#map22 = affine_map<()[s0, s1] -> (s0 + s1 * 366 - (s0 floordiv 32) * 32 + 224)>
#map23 = affine_map<()[s0, s1] -> (s0 + s1 * 366 - (s0 floordiv 32) * 32 + 256)>
#map24 = affine_map<()[s0, s1] -> (s0 + s1 * 366 - (s0 floordiv 32) * 32 + 288)>
#map25 = affine_map<()[s0, s1] -> (s0 + s1 * 366 - (s0 floordiv 32) * 32 + 320)>
#map26 = affine_map<()[s0, s1] -> (s0 + s1 * 366 - (s0 floordiv 32) * 32 + 352)>
#map27 = affine_map<()[s0, s1] -> (s0 * 16 + ((s1 mod 64) floordiv 32) * 8 + 16)>
#map28 = affine_map<()[s0, s1] -> (s0 * 16 + s1 * 8 - (s1 floordiv 2) * 16 + 16)>
#map29 = affine_map<()[s0, s1] -> (s0 * 732 + s1 * 366 + 366)>
#map30 = affine_map<()[s0] -> (s0 * 732 + 732)>
#map31 = affine_map<()[s0, s1, s2, s3, s4] -> (s0 mod 32 + s4 * 366 + (((s1 * 821762 + s2 * 641 - ((s1 * 1282 + s2) floordiv 8) * 5127) mod 644) floordiv s3) * 732)>
#map32 = affine_map<()[s0, s1, s2, s3] -> ((s3 floordiv 64) * 4 + ((s0 * 821762 + s1 * 641 - ((s0 * 1282 + s1) floordiv 8) * 5127) floordiv 644) * 2576 + (((s0 * 821762 + s1 * 641 - ((s0 * 1282 + s1) floordiv 8) * 5127) mod 644) mod s2) * 16 + ((s3 mod 64) floordiv 32) * 4)>
#map33 = affine_map<()[s0, s1, s2] -> (((s0 * 821762 + s1 * 641 - ((s0 * 1282 + s1) floordiv 8) * 5127) floordiv 644) * 2576 + (((s0 * 821762 + s1 * 641 - ((s0 * 1282 + s1) floordiv 8) * 5127) mod 644) mod s2) * 16)>
#map34 = affine_map<()[s0, s1, s2] -> ((((s0 * 821762 + s1 * 641 - ((s0 * 1282 + s1) floordiv 8) * 5127) mod 644) floordiv s2) * 732)>
#map35 = affine_map<()[s0] -> ((s0 floordiv 64) * 4 + ((s0 mod 64) floordiv 32) * 4)>
#map36 = affine_map<()[s0, s1, s2, s3] -> ((s3 floordiv 64) * 4 + ((s0 * 821762 + s1 * 641 - ((s0 * 1282 + s1) floordiv 8) * 5127) floordiv 644) * 2576 + (((s0 * 821762 + s1 * 641 - ((s0 * 1282 + s1) floordiv 8) * 5127) mod 644) mod s2) * 16 + ((s3 mod 64) floordiv 32) * 4 + 1)>
#map37 = affine_map<()[s0] -> ((s0 floordiv 64) * 4 + ((s0 mod 64) floordiv 32) * 4 + 1)>
#map38 = affine_map<()[s0, s1, s2, s3] -> ((s3 floordiv 64) * 4 + ((s0 * 821762 + s1 * 641 - ((s0 * 1282 + s1) floordiv 8) * 5127) floordiv 644) * 2576 + (((s0 * 821762 + s1 * 641 - ((s0 * 1282 + s1) floordiv 8) * 5127) mod 644) mod s2) * 16 + ((s3 mod 64) floordiv 32) * 4 + 2)>
#map39 = affine_map<()[s0] -> ((s0 floordiv 64) * 4 + ((s0 mod 64) floordiv 32) * 4 + 2)>
#map40 = affine_map<()[s0, s1, s2, s3] -> ((s3 floordiv 64) * 4 + ((s0 * 821762 + s1 * 641 - ((s0 * 1282 + s1) floordiv 8) * 5127) floordiv 644) * 2576 + (((s0 * 821762 + s1 * 641 - ((s0 * 1282 + s1) floordiv 8) * 5127) mod 644) mod s2) * 16 + ((s3 mod 64) floordiv 32) * 4 + 3)>
#map41 = affine_map<()[s0] -> ((s0 floordiv 64) * 4 + ((s0 mod 64) floordiv 32) * 4 + 3)>
#map42 = affine_map<()[s0, s1, s2, s3] -> ((s3 floordiv 64) * 4 + ((s0 * 821762 + s1 * 641 - ((s0 * 1282 + s1) floordiv 8) * 5127) floordiv 644) * 2576 + (((s0 * 821762 + s1 * 641 - ((s0 * 1282 + s1) floordiv 8) * 5127) mod 644) mod s2) * 16 + ((s3 mod 64) floordiv 32) * 4 + 8)>
#map43 = affine_map<()[s0] -> ((s0 floordiv 64) * 4 + ((s0 mod 64) floordiv 32) * 4 + 8)>
#map44 = affine_map<()[s0, s1, s2, s3] -> ((s3 floordiv 64) * 4 + ((s0 * 821762 + s1 * 641 - ((s0 * 1282 + s1) floordiv 8) * 5127) floordiv 644) * 2576 + (((s0 * 821762 + s1 * 641 - ((s0 * 1282 + s1) floordiv 8) * 5127) mod 644) mod s2) * 16 + ((s3 mod 64) floordiv 32) * 4 + 9)>
#map45 = affine_map<()[s0] -> ((s0 floordiv 64) * 4 + ((s0 mod 64) floordiv 32) * 4 + 9)>
#map46 = affine_map<()[s0, s1, s2, s3] -> ((s3 floordiv 64) * 4 + ((s0 * 821762 + s1 * 641 - ((s0 * 1282 + s1) floordiv 8) * 5127) floordiv 644) * 2576 + (((s0 * 821762 + s1 * 641 - ((s0 * 1282 + s1) floordiv 8) * 5127) mod 644) mod s2) * 16 + ((s3 mod 64) floordiv 32) * 4 + 10)>
#map47 = affine_map<()[s0] -> ((s0 floordiv 64) * 4 + ((s0 mod 64) floordiv 32) * 4 + 10)>
#map48 = affine_map<()[s0, s1, s2, s3] -> ((s3 floordiv 64) * 4 + ((s0 * 821762 + s1 * 641 - ((s0 * 1282 + s1) floordiv 8) * 5127) floordiv 644) * 2576 + (((s0 * 821762 + s1 * 641 - ((s0 * 1282 + s1) floordiv 8) * 5127) mod 644) mod s2) * 16 + ((s3 mod 64) floordiv 32) * 4 + 11)>
#map49 = affine_map<()[s0] -> ((s0 floordiv 64) * 4 + ((s0 mod 64) floordiv 32) * 4 + 11)>
#map50 = affine_map<()[s0, s1, s2, s3] -> ((s3 floordiv 64) * 4 + ((s0 * 821762 + s1 * 641 - ((s0 * 1282 + s1) floordiv 8) * 5127) floordiv 644) * 2576 + (((s0 * 821762 + s1 * 641 - ((s0 * 1282 + s1) floordiv 8) * 5127) mod 644) mod s2) * 16 + ((s3 mod 64) floordiv 32) * 4 + 16)>
#map51 = affine_map<()[s0] -> ((s0 floordiv 64) * 4 + ((s0 mod 64) floordiv 32) * 4 + 16)>
#map52 = affine_map<()[s0, s1, s2, s3] -> ((s3 floordiv 64) * 4 + ((s0 * 821762 + s1 * 641 - ((s0 * 1282 + s1) floordiv 8) * 5127) floordiv 644) * 2576 + (((s0 * 821762 + s1 * 641 - ((s0 * 1282 + s1) floordiv 8) * 5127) mod 644) mod s2) * 16 + ((s3 mod 64) floordiv 32) * 4 + 17)>
#map53 = affine_map<()[s0] -> ((s0 floordiv 64) * 4 + ((s0 mod 64) floordiv 32) * 4 + 17)>
#map54 = affine_map<()[s0, s1, s2, s3] -> ((s3 floordiv 64) * 4 + ((s0 * 821762 + s1 * 641 - ((s0 * 1282 + s1) floordiv 8) * 5127) floordiv 644) * 2576 + (((s0 * 821762 + s1 * 641 - ((s0 * 1282 + s1) floordiv 8) * 5127) mod 644) mod s2) * 16 + ((s3 mod 64) floordiv 32) * 4 + 18)>
#map55 = affine_map<()[s0] -> ((s0 floordiv 64) * 4 + ((s0 mod 64) floordiv 32) * 4 + 18)>
#map56 = affine_map<()[s0, s1, s2, s3] -> ((s3 floordiv 64) * 4 + ((s0 * 821762 + s1 * 641 - ((s0 * 1282 + s1) floordiv 8) * 5127) floordiv 644) * 2576 + (((s0 * 821762 + s1 * 641 - ((s0 * 1282 + s1) floordiv 8) * 5127) mod 644) mod s2) * 16 + ((s3 mod 64) floordiv 32) * 4 + 19)>
#map57 = affine_map<()[s0] -> ((s0 floordiv 64) * 4 + ((s0 mod 64) floordiv 32) * 4 + 19)>
#map58 = affine_map<()[s0, s1, s2, s3] -> ((s3 floordiv 64) * 4 + ((s0 * 821762 + s1 * 641 - ((s0 * 1282 + s1) floordiv 8) * 5127) floordiv 644) * 2576 + (((s0 * 821762 + s1 * 641 - ((s0 * 1282 + s1) floordiv 8) * 5127) mod 644) mod s2) * 16 + ((s3 mod 64) floordiv 32) * 4 + 24)>
#map59 = affine_map<()[s0] -> ((s0 floordiv 64) * 4 + ((s0 mod 64) floordiv 32) * 4 + 24)>
#map60 = affine_map<()[s0, s1, s2, s3] -> ((s3 floordiv 64) * 4 + ((s0 * 821762 + s1 * 641 - ((s0 * 1282 + s1) floordiv 8) * 5127) floordiv 644) * 2576 + (((s0 * 821762 + s1 * 641 - ((s0 * 1282 + s1) floordiv 8) * 5127) mod 644) mod s2) * 16 + ((s3 mod 64) floordiv 32) * 4 + 25)>
#map61 = affine_map<()[s0] -> ((s0 floordiv 64) * 4 + ((s0 mod 64) floordiv 32) * 4 + 25)>
#map62 = affine_map<()[s0, s1, s2, s3] -> ((s3 floordiv 64) * 4 + ((s0 * 821762 + s1 * 641 - ((s0 * 1282 + s1) floordiv 8) * 5127) floordiv 644) * 2576 + (((s0 * 821762 + s1 * 641 - ((s0 * 1282 + s1) floordiv 8) * 5127) mod 644) mod s2) * 16 + ((s3 mod 64) floordiv 32) * 4 + 26)>
#map63 = affine_map<()[s0] -> ((s0 floordiv 64) * 4 + ((s0 mod 64) floordiv 32) * 4 + 26)>
#map64 = affine_map<()[s0, s1, s2, s3] -> ((s3 floordiv 64) * 4 + ((s0 * 821762 + s1 * 641 - ((s0 * 1282 + s1) floordiv 8) * 5127) floordiv 644) * 2576 + (((s0 * 821762 + s1 * 641 - ((s0 * 1282 + s1) floordiv 8) * 5127) mod 644) mod s2) * 16 + ((s3 mod 64) floordiv 32) * 4 + 27)>
#map65 = affine_map<()[s0] -> ((s0 floordiv 64) * 4 + ((s0 mod 64) floordiv 32) * 4 + 27)>
#map66 = affine_map<()[s0, s1, s2, s3, s4] -> (s0 mod 32 + s4 * 366 + (((s1 * 821762 + s2 * 641 - ((s1 * 1282 + s2) floordiv 8) * 5127) mod 644) floordiv s3) * 732 + 32)>
#map67 = affine_map<()[s0, s1, s2, s3, s4] -> (s0 mod 32 + s4 * 366 + (((s1 * 821762 + s2 * 641 - ((s1 * 1282 + s2) floordiv 8) * 5127) mod 644) floordiv s3) * 732 + 64)>
#map68 = affine_map<()[s0, s1, s2, s3, s4] -> (s0 mod 32 + s4 * 366 + (((s1 * 821762 + s2 * 641 - ((s1 * 1282 + s2) floordiv 8) * 5127) mod 644) floordiv s3) * 732 + 96)>
#map69 = affine_map<()[s0, s1, s2, s3, s4] -> (s0 mod 32 + s4 * 366 + (((s1 * 821762 + s2 * 641 - ((s1 * 1282 + s2) floordiv 8) * 5127) mod 644) floordiv s3) * 732 + 128)>
#map70 = affine_map<()[s0, s1, s2, s3, s4] -> (s0 mod 32 + s4 * 366 + (((s1 * 821762 + s2 * 641 - ((s1 * 1282 + s2) floordiv 8) * 5127) mod 644) floordiv s3) * 732 + 160)>
#map71 = affine_map<()[s0, s1, s2, s3, s4] -> (s0 mod 32 + s4 * 366 + (((s1 * 821762 + s2 * 641 - ((s1 * 1282 + s2) floordiv 8) * 5127) mod 644) floordiv s3) * 732 + 192)>
#map72 = affine_map<()[s0, s1, s2, s3, s4] -> (s0 mod 32 + s4 * 366 + (((s1 * 821762 + s2 * 641 - ((s1 * 1282 + s2) floordiv 8) * 5127) mod 644) floordiv s3) * 732 + 224)>
#map73 = affine_map<()[s0, s1, s2, s3, s4] -> (s0 mod 32 + s4 * 366 + (((s1 * 821762 + s2 * 641 - ((s1 * 1282 + s2) floordiv 8) * 5127) mod 644) floordiv s3) * 732 + 256)>
#map74 = affine_map<()[s0, s1, s2, s3, s4] -> (s0 mod 32 + s4 * 366 + (((s1 * 821762 + s2 * 641 - ((s1 * 1282 + s2) floordiv 8) * 5127) mod 644) floordiv s3) * 732 + 288)>
#map75 = affine_map<()[s0, s1, s2, s3, s4] -> (s0 mod 32 + s4 * 366 + (((s1 * 821762 + s2 * 641 - ((s1 * 1282 + s2) floordiv 8) * 5127) mod 644) floordiv s3) * 732 + 320)>
#map76 = affine_map<()[s0, s1, s2, s3, s4] -> (s0 mod 32 + s4 * 366 + (((s1 * 821762 + s2 * 641 - ((s1 * 1282 + s2) floordiv 8) * 5127) mod 644) floordiv s3) * 732 + 352)>
#translation = #iree_codegen.translation_info<pipeline = None workgroup_size = [256, 2, 1] subgroup_size = 64>
module attributes {transform.with_named_sequence} {
  stream.executable private @gemm {
    stream.executable.export public @gemm workgroups() -> (index, index, index) {
      %c1282 = arith.constant 1282 : index
      %c4 = arith.constant 4 : index
      %c1 = arith.constant 1 : index
      stream.return %c1282, %c4, %c1 : index, index, index
    }
    builtin.module {
      func.func @gemm(%arg0: !stream.binding, %arg1: !stream.binding, %arg2: !stream.binding) attributes {translation_info = #translation} {
        %cst = arith.constant dense<0.000000e+00> : vector<8xf16>
        %cst_0 = arith.constant dense<[0, 1, 2, 3, 4, 5, 6, 7]> : vector<8xi32>
        %cst_1 = arith.constant dense<1073741823> : vector<8xindex>
        %c2880_i14 = arith.constant 2880 : i14
        %c536870911 = arith.constant 536870911 : index
        %c2147483643_i32 = arith.constant 2147483643 : i32
        %c536870910 = arith.constant 536870910 : index
        %c179 = arith.constant 179 : index
        %c732 = arith.constant 732 : index
        %c2147483645_i32 = arith.constant 2147483645 : i32
        %c1073741822 = arith.constant 1073741822 : index
        %c2880 = arith.constant 2880 : index
        %c161 = arith.constant 161 : index
        %c16 = arith.constant 16 : index
        %c1 = arith.constant 1 : index
        %c29280 = arith.constant 29280 : index
        %c0 = arith.constant 0 : index
        %cst_2 = arith.constant dense<0.000000e+00> : vector<16xf32>
        %block_id_x = gpu.block_id  x upper_bound 1282
        %block_id_y = gpu.block_id  y upper_bound 4
        %thread_id_x = gpu.thread_id  x upper_bound 256
        %thread_id_y = gpu.thread_id  y upper_bound 2
        %alloc = memref.alloc() : memref<29920xi8, #gpu.address_space<workgroup>>
        %view = memref.view %alloc[%c0][] : memref<29920xi8, #gpu.address_space<workgroup>> to memref<732x20xf16, #gpu.address_space<workgroup>>
        %view_3 = memref.view %alloc[%c29280][] : memref<29920xi8, #gpu.address_space<workgroup>> to memref<16x20xf16, #gpu.address_space<workgroup>>
        %0 = stream.binding.subspan %arg0[%c0] : !stream.binding -> memref<20512x2880xf16, strided<[2880, 1], offset: ?>>
        %1 = affine.apply #map()[%block_id_y, %block_id_x]
        %2 = arith.minsi %1, %c161 : index
        %3 = arith.maxsi %2, %c1 : index
        %4 = affine.apply #map1()[%block_id_x, %thread_id_x]
        %5 = affine.apply #map2()[%block_id_x]
        %6 = arith.minsi %4, %5 : index
        %7 = affine.apply #map3()[%thread_id_x, %block_id_y, %block_id_x, %3]
        %8 = arith.cmpi slt, %7, %6 : index
        %9 = vector.broadcast %8 : i1 to vector<8xi1>
        %10 = affine.apply #map4()[%thread_id_x]
        %11 = arith.muli %7, %c2880 overflow<nsw> : index
        %12 = arith.addi %11, %10 overflow<nsw> : index
        %base_buffer, %offset, %sizes:2, %strides:2 = memref.extract_strided_metadata %0 : memref<20512x2880xf16, strided<[2880, 1], offset: ?>> -> memref<f16>, index, index, index, index, index
        %reinterpret_cast = memref.reinterpret_cast %0 to offset: [%offset], sizes: [%c1073741822], strides: [1] : memref<20512x2880xf16, strided<[2880, 1], offset: ?>> to memref<?xf16, strided<[1], offset: ?>>
        %13 = amdgpu.fat_raw_buffer_cast %reinterpret_cast validBytes(%c2147483645_i32) cacheSwizzleStride(%c2880_i14) resetOffset : memref<?xf16, strided<[1], offset: ?>> to memref<?xf16, #amdgpu.address_space<fat_raw_buffer>>
        %14 = arith.index_cast %12 : index to i32
        %15 = vector.broadcast %14 : i32 to vector<8xi32>
        %16 = arith.addi %15, %cst_0 : vector<8xi32>
        %17 = arith.index_cast %16 : vector<8xi32> to vector<8xindex>
        %18 = arith.select %9, %17, %cst_1 : vector<8xi1>, vector<8xindex>
        %19 = vector.extract %18[0] : index from vector<8xindex>
        %20 = vector.load %13[%19] : memref<?xf16, #amdgpu.address_space<fat_raw_buffer>>, vector<8xf16>
        %21 = stream.binding.subspan %arg1[%c0] : !stream.binding -> memref<2880x2880xf16, strided<[2880, 1], offset: ?>>
        %22 = affine.apply #map5()[%thread_id_x, %thread_id_y, %block_id_y, %block_id_x, %3]
        %23 = arith.cmpi slt, %22, %c2880 : index
        %24 = vector.broadcast %23 : i1 to vector<8xi1>
        %25 = affine.apply #map6()[%thread_id_x]
        %26 = arith.muli %22, %c2880 overflow<nsw> : index
        %27 = arith.addi %26, %25 overflow<nsw> : index
        %base_buffer_4, %offset_5, %sizes_6:2, %strides_7:2 = memref.extract_strided_metadata %21 : memref<2880x2880xf16, strided<[2880, 1], offset: ?>> -> memref<f16>, index, index, index, index, index
        %reinterpret_cast_8 = memref.reinterpret_cast %21 to offset: [%offset_5], sizes: [%c1073741822], strides: [1] : memref<2880x2880xf16, strided<[2880, 1], offset: ?>> to memref<?xf16, strided<[1], offset: ?>>
        %28 = amdgpu.fat_raw_buffer_cast %reinterpret_cast_8 validBytes(%c2147483645_i32) cacheSwizzleStride(%c2880_i14) resetOffset : memref<?xf16, strided<[1], offset: ?>> to memref<?xf16, #amdgpu.address_space<fat_raw_buffer>>
        %29 = arith.index_cast %27 : index to i32
        %30 = vector.broadcast %29 : i32 to vector<8xi32>
        %31 = arith.addi %30, %cst_0 : vector<8xi32>
        %32 = arith.index_cast %31 : vector<8xi32> to vector<8xindex>
        %33 = arith.select %24, %32, %cst_1 : vector<8xi1>, vector<8xindex>
        %34 = vector.extract %33[0] : index from vector<8xindex>
        %35 = vector.load %28[%34] : memref<?xf16, #amdgpu.address_space<fat_raw_buffer>>, vector<8xf16>
        %36 = affine.apply #map7()[%thread_id_x, %thread_id_y, %block_id_y, %block_id_x, %3]
        %37 = arith.cmpi slt, %36, %c2880 : index
        %38 = vector.broadcast %37 : i1 to vector<8xi1>
        %39 = arith.muli %36, %c2880 overflow<nsw> : index
        %40 = arith.addi %39, %25 overflow<nsw> : index
        %41 = arith.index_cast %40 : index to i32
        %42 = vector.broadcast %41 : i32 to vector<8xi32>
        %43 = arith.addi %42, %cst_0 : vector<8xi32>
        %44 = arith.index_cast %43 : vector<8xi32> to vector<8xindex>
        %45 = arith.select %38, %44, %cst_1 : vector<8xi1>, vector<8xindex>
        %46 = vector.extract %45[0] : index from vector<8xindex>
        %47 = vector.load %28[%46] : memref<?xf16, #amdgpu.address_space<fat_raw_buffer>>, vector<8xf16>
        %48 = affine.apply #map8()[%thread_id_x, %thread_id_y, %block_id_y, %block_id_x, %3]
        %49 = arith.cmpi slt, %48, %c2880 : index
        %50 = vector.broadcast %49 : i1 to vector<8xi1>
        %51 = arith.muli %48, %c2880 overflow<nsw> : index
        %52 = arith.addi %51, %25 overflow<nsw> : index
        %53 = arith.index_cast %52 : index to i32
        %54 = vector.broadcast %53 : i32 to vector<8xi32>
        %55 = arith.addi %54, %cst_0 : vector<8xi32>
        %56 = arith.index_cast %55 : vector<8xi32> to vector<8xindex>
        %57 = arith.select %50, %56, %cst_1 : vector<8xi1>, vector<8xindex>
        %58 = vector.extract %57[0] : index from vector<8xindex>
        %59 = vector.load %28[%58] : memref<?xf16, #amdgpu.address_space<fat_raw_buffer>>, vector<8xf16>
        %60 = affine.apply #map9()[%thread_id_x]
        %61 = arith.minsi %60, %c16 : index
        %62 = affine.apply #map10()[%thread_id_x]
        %63 = arith.cmpi slt, %62, %61 : index
        %64 = vector.broadcast %63 : i1 to vector<8xi1>
        vector.maskedstore %view_3[%62, %10], %64, %20 : memref<16x20xf16, #gpu.address_space<workgroup>>, vector<8xi1>, vector<8xf16>
        %65 = affine.apply #map11()[%thread_id_y]
        %66 = arith.minsi %65, %c732 : index
        %67 = affine.apply #map12()[%thread_id_x, %thread_id_y]
        %68 = arith.cmpi slt, %67, %66 : index
        %69 = vector.broadcast %68 : i1 to vector<8xi1>
        vector.maskedstore %view[%67, %25], %69, %35 : memref<732x20xf16, #gpu.address_space<workgroup>>, vector<8xi1>, vector<8xf16>
        %70 = affine.apply #map13()[%thread_id_x, %thread_id_y]
        %71 = arith.cmpi slt, %70, %66 : index
        %72 = vector.broadcast %71 : i1 to vector<8xi1>
        vector.maskedstore %view[%70, %25], %72, %47 : memref<732x20xf16, #gpu.address_space<workgroup>>, vector<8xi1>, vector<8xf16>
        %73 = affine.apply #map14()[%thread_id_x, %thread_id_y]
        %74 = arith.cmpi slt, %73, %66 : index
        %75 = vector.broadcast %74 : i1 to vector<8xi1>
        vector.maskedstore %view[%73, %25], %75, %59 : memref<732x20xf16, #gpu.address_space<workgroup>>, vector<8xi1>, vector<8xf16>
        %76 = affine.apply #map15()[%thread_id_x, %thread_id_y]
        %77 = arith.cmpi slt, %76, %66 : index
        %78 = vector.broadcast %77 : i1 to vector<8xi1>
        %79 = affine.apply #map16()[%thread_id_x, %thread_id_y]
        %80 = arith.cmpi slt, %79, %66 : index
        %81 = vector.broadcast %80 : i1 to vector<8xi1>
        %82 = affine.apply #map17()[%thread_id_x, %thread_id_y]
        %83 = arith.cmpi slt, %82, %66 : index
        %84 = vector.broadcast %83 : i1 to vector<8xi1>
        %85 = affine.apply #map18()[%thread_id_x, %thread_id_y]
        %86 = arith.cmpi slt, %85, %66 : index
        %87 = vector.broadcast %86 : i1 to vector<8xi1>
        %88 = affine.apply #map19()[%thread_id_x, %thread_id_y]
        %89 = arith.cmpi slt, %88, %66 : index
        %90 = vector.broadcast %89 : i1 to vector<8xi1>
        %91 = affine.apply #map20()[%thread_id_x, %thread_id_y]
        %92 = arith.cmpi slt, %91, %66 : index
        %93 = vector.broadcast %92 : i1 to vector<8xi1>
        %94 = affine.apply #map21()[%thread_id_x, %thread_id_y]
        %95 = arith.cmpi slt, %94, %66 : index
        %96 = vector.broadcast %95 : i1 to vector<8xi1>
        %97 = affine.apply #map22()[%thread_id_x, %thread_id_y]
        %98 = arith.cmpi slt, %97, %66 : index
        %99 = vector.broadcast %98 : i1 to vector<8xi1>
        %100 = affine.apply #map23()[%thread_id_x, %thread_id_y]
        %101 = arith.cmpi slt, %100, %66 : index
        %102 = vector.broadcast %101 : i1 to vector<8xi1>
        %103 = affine.apply #map24()[%thread_id_x, %thread_id_y]
        %104 = arith.cmpi slt, %103, %66 : index
        %105 = vector.broadcast %104 : i1 to vector<8xi1>
        %106 = affine.apply #map25()[%thread_id_x, %thread_id_y]
        %107 = arith.cmpi slt, %106, %66 : index
        %108 = vector.broadcast %107 : i1 to vector<8xi1>
        %109 = affine.apply #map26()[%thread_id_x, %thread_id_y]
        %110 = arith.cmpi slt, %109, %66 : index
        %111 = vector.broadcast %110 : i1 to vector<8xi1>
        %112:12 = scf.for %arg3 = %c0 to %c179 step %c1 iter_args(%arg4 = %cst_2, %arg5 = %cst_2, %arg6 = %cst_2, %arg7 = %cst_2, %arg8 = %cst_2, %arg9 = %cst_2, %arg10 = %cst_2, %arg11 = %cst_2, %arg12 = %cst_2, %arg13 = %cst_2, %arg14 = %cst_2, %arg15 = %cst_2) -> (vector<16xf32>, vector<16xf32>, vector<16xf32>, vector<16xf32>, vector<16xf32>, vector<16xf32>, vector<16xf32>, vector<16xf32>, vector<16xf32>, vector<16xf32>, vector<16xf32>, vector<16xf32>) {
          amdgpu.lds_barrier
          %1079 = vector.maskedload %view[%76, %10], %78, %cst : memref<732x20xf16, #gpu.address_space<workgroup>>, vector<8xi1>, vector<8xf16> into vector<8xf16>
          %1080 = vector.maskedload %view[%79, %10], %81, %cst : memref<732x20xf16, #gpu.address_space<workgroup>>, vector<8xi1>, vector<8xf16> into vector<8xf16>
          %1081 = vector.maskedload %view[%82, %10], %84, %cst : memref<732x20xf16, #gpu.address_space<workgroup>>, vector<8xi1>, vector<8xf16> into vector<8xf16>
          %1082 = vector.maskedload %view[%85, %10], %87, %cst : memref<732x20xf16, #gpu.address_space<workgroup>>, vector<8xi1>, vector<8xf16> into vector<8xf16>
          %1083 = vector.maskedload %view[%88, %10], %90, %cst : memref<732x20xf16, #gpu.address_space<workgroup>>, vector<8xi1>, vector<8xf16> into vector<8xf16>
          %1084 = vector.maskedload %view[%91, %10], %93, %cst : memref<732x20xf16, #gpu.address_space<workgroup>>, vector<8xi1>, vector<8xf16> into vector<8xf16>
          %1085 = vector.maskedload %view[%94, %10], %96, %cst : memref<732x20xf16, #gpu.address_space<workgroup>>, vector<8xi1>, vector<8xf16> into vector<8xf16>
          %1086 = vector.maskedload %view[%97, %10], %99, %cst : memref<732x20xf16, #gpu.address_space<workgroup>>, vector<8xi1>, vector<8xf16> into vector<8xf16>
          %1087 = vector.maskedload %view[%100, %10], %102, %cst : memref<732x20xf16, #gpu.address_space<workgroup>>, vector<8xi1>, vector<8xf16> into vector<8xf16>
          %1088 = vector.maskedload %view[%103, %10], %105, %cst : memref<732x20xf16, #gpu.address_space<workgroup>>, vector<8xi1>, vector<8xf16> into vector<8xf16>
          %1089 = vector.maskedload %view[%106, %10], %108, %cst : memref<732x20xf16, #gpu.address_space<workgroup>>, vector<8xi1>, vector<8xf16> into vector<8xf16>
          %1090 = vector.maskedload %view[%109, %10], %111, %cst : memref<732x20xf16, #gpu.address_space<workgroup>>, vector<8xi1>, vector<8xf16> into vector<8xf16>
          %1091 = vector.maskedload %view_3[%62, %10], %64, %cst : memref<16x20xf16, #gpu.address_space<workgroup>>, vector<8xi1>, vector<8xf16> into vector<8xf16>
          %1092 = affine.apply #map27()[%arg3, %thread_id_x]
          %1093 = arith.addi %11, %1092 overflow<nsw> : index
          %1094 = arith.index_cast %1093 : index to i32
          %1095 = vector.broadcast %1094 : i32 to vector<8xi32>
          %1096 = arith.addi %1095, %cst_0 : vector<8xi32>
          %1097 = arith.index_cast %1096 : vector<8xi32> to vector<8xindex>
          %1098 = arith.select %9, %1097, %cst_1 : vector<8xi1>, vector<8xindex>
          %1099 = vector.extract %1098[0] : index from vector<8xindex>
          %1100 = vector.load %13[%1099] : memref<?xf16, #amdgpu.address_space<fat_raw_buffer>>, vector<8xf16>
          %1101 = affine.apply #map28()[%arg3, %thread_id_x]
          %1102 = arith.addi %26, %1101 overflow<nsw> : index
          %1103 = arith.index_cast %1102 : index to i32
          %1104 = vector.broadcast %1103 : i32 to vector<8xi32>
          %1105 = arith.addi %1104, %cst_0 : vector<8xi32>
          %1106 = arith.index_cast %1105 : vector<8xi32> to vector<8xindex>
          %1107 = arith.select %24, %1106, %cst_1 : vector<8xi1>, vector<8xindex>
          %1108 = vector.extract %1107[0] : index from vector<8xindex>
          %1109 = vector.load %28[%1108] : memref<?xf16, #amdgpu.address_space<fat_raw_buffer>>, vector<8xf16>
          %1110 = arith.addi %39, %1101 overflow<nsw> : index
          %1111 = arith.index_cast %1110 : index to i32
          %1112 = vector.broadcast %1111 : i32 to vector<8xi32>
          %1113 = arith.addi %1112, %cst_0 : vector<8xi32>
          %1114 = arith.index_cast %1113 : vector<8xi32> to vector<8xindex>
          %1115 = arith.select %38, %1114, %cst_1 : vector<8xi1>, vector<8xindex>
          %1116 = vector.extract %1115[0] : index from vector<8xindex>
          %1117 = vector.load %28[%1116] : memref<?xf16, #amdgpu.address_space<fat_raw_buffer>>, vector<8xf16>
          %1118 = arith.addi %51, %1101 overflow<nsw> : index
          %1119 = arith.index_cast %1118 : index to i32
          %1120 = vector.broadcast %1119 : i32 to vector<8xi32>
          %1121 = arith.addi %1120, %cst_0 : vector<8xi32>
          %1122 = arith.index_cast %1121 : vector<8xi32> to vector<8xindex>
          %1123 = arith.select %50, %1122, %cst_1 : vector<8xi1>, vector<8xindex>
          %1124 = vector.extract %1123[0] : index from vector<8xindex>
          %1125 = vector.load %28[%1124] : memref<?xf16, #amdgpu.address_space<fat_raw_buffer>>, vector<8xf16>
          %1126 = vector.extract_strided_slice %1091 {offsets = [0], sizes = [4], strides = [1]} : vector<8xf16> to vector<4xf16>
          %1127 = vector.extract_strided_slice %1079 {offsets = [0], sizes = [4], strides = [1]} : vector<8xf16> to vector<4xf16>
          %1128 = amdgpu.mfma %1126 * %1127 + %arg4 {blocks = 1 : i32, k = 8 : i32, m = 32 : i32, n = 32 : i32} blgp =  none : vector<4xf16>, vector<4xf16>, vector<16xf32>
          %1129 = vector.extract_strided_slice %1091 {offsets = [4], sizes = [4], strides = [1]} : vector<8xf16> to vector<4xf16>
          %1130 = vector.extract_strided_slice %1079 {offsets = [4], sizes = [4], strides = [1]} : vector<8xf16> to vector<4xf16>
          %1131 = amdgpu.mfma %1129 * %1130 + %1128 {blocks = 1 : i32, k = 8 : i32, m = 32 : i32, n = 32 : i32} blgp =  none : vector<4xf16>, vector<4xf16>, vector<16xf32>
          %1132 = vector.extract_strided_slice %1080 {offsets = [0], sizes = [4], strides = [1]} : vector<8xf16> to vector<4xf16>
          %1133 = amdgpu.mfma %1126 * %1132 + %arg5 {blocks = 1 : i32, k = 8 : i32, m = 32 : i32, n = 32 : i32} blgp =  none : vector<4xf16>, vector<4xf16>, vector<16xf32>
          %1134 = vector.extract_strided_slice %1080 {offsets = [4], sizes = [4], strides = [1]} : vector<8xf16> to vector<4xf16>
          %1135 = amdgpu.mfma %1129 * %1134 + %1133 {blocks = 1 : i32, k = 8 : i32, m = 32 : i32, n = 32 : i32} blgp =  none : vector<4xf16>, vector<4xf16>, vector<16xf32>
          %1136 = vector.extract_strided_slice %1081 {offsets = [0], sizes = [4], strides = [1]} : vector<8xf16> to vector<4xf16>
          %1137 = amdgpu.mfma %1126 * %1136 + %arg6 {blocks = 1 : i32, k = 8 : i32, m = 32 : i32, n = 32 : i32} blgp =  none : vector<4xf16>, vector<4xf16>, vector<16xf32>
          %1138 = vector.extract_strided_slice %1081 {offsets = [4], sizes = [4], strides = [1]} : vector<8xf16> to vector<4xf16>
          %1139 = amdgpu.mfma %1129 * %1138 + %1137 {blocks = 1 : i32, k = 8 : i32, m = 32 : i32, n = 32 : i32} blgp =  none : vector<4xf16>, vector<4xf16>, vector<16xf32>
          %1140 = vector.extract_strided_slice %1082 {offsets = [0], sizes = [4], strides = [1]} : vector<8xf16> to vector<4xf16>
          %1141 = amdgpu.mfma %1126 * %1140 + %arg7 {blocks = 1 : i32, k = 8 : i32, m = 32 : i32, n = 32 : i32} blgp =  none : vector<4xf16>, vector<4xf16>, vector<16xf32>
          %1142 = vector.extract_strided_slice %1082 {offsets = [4], sizes = [4], strides = [1]} : vector<8xf16> to vector<4xf16>
          %1143 = amdgpu.mfma %1129 * %1142 + %1141 {blocks = 1 : i32, k = 8 : i32, m = 32 : i32, n = 32 : i32} blgp =  none : vector<4xf16>, vector<4xf16>, vector<16xf32>
          %1144 = vector.extract_strided_slice %1083 {offsets = [0], sizes = [4], strides = [1]} : vector<8xf16> to vector<4xf16>
          %1145 = amdgpu.mfma %1126 * %1144 + %arg8 {blocks = 1 : i32, k = 8 : i32, m = 32 : i32, n = 32 : i32} blgp =  none : vector<4xf16>, vector<4xf16>, vector<16xf32>
          %1146 = vector.extract_strided_slice %1083 {offsets = [4], sizes = [4], strides = [1]} : vector<8xf16> to vector<4xf16>
          %1147 = amdgpu.mfma %1129 * %1146 + %1145 {blocks = 1 : i32, k = 8 : i32, m = 32 : i32, n = 32 : i32} blgp =  none : vector<4xf16>, vector<4xf16>, vector<16xf32>
          %1148 = vector.extract_strided_slice %1084 {offsets = [0], sizes = [4], strides = [1]} : vector<8xf16> to vector<4xf16>
          %1149 = amdgpu.mfma %1126 * %1148 + %arg9 {blocks = 1 : i32, k = 8 : i32, m = 32 : i32, n = 32 : i32} blgp =  none : vector<4xf16>, vector<4xf16>, vector<16xf32>
          %1150 = vector.extract_strided_slice %1084 {offsets = [4], sizes = [4], strides = [1]} : vector<8xf16> to vector<4xf16>
          %1151 = amdgpu.mfma %1129 * %1150 + %1149 {blocks = 1 : i32, k = 8 : i32, m = 32 : i32, n = 32 : i32} blgp =  none : vector<4xf16>, vector<4xf16>, vector<16xf32>
          %1152 = vector.extract_strided_slice %1085 {offsets = [0], sizes = [4], strides = [1]} : vector<8xf16> to vector<4xf16>
          %1153 = amdgpu.mfma %1126 * %1152 + %arg10 {blocks = 1 : i32, k = 8 : i32, m = 32 : i32, n = 32 : i32} blgp =  none : vector<4xf16>, vector<4xf16>, vector<16xf32>
          %1154 = vector.extract_strided_slice %1085 {offsets = [4], sizes = [4], strides = [1]} : vector<8xf16> to vector<4xf16>
          %1155 = amdgpu.mfma %1129 * %1154 + %1153 {blocks = 1 : i32, k = 8 : i32, m = 32 : i32, n = 32 : i32} blgp =  none : vector<4xf16>, vector<4xf16>, vector<16xf32>
          %1156 = vector.extract_strided_slice %1086 {offsets = [0], sizes = [4], strides = [1]} : vector<8xf16> to vector<4xf16>
          %1157 = amdgpu.mfma %1126 * %1156 + %arg11 {blocks = 1 : i32, k = 8 : i32, m = 32 : i32, n = 32 : i32} blgp =  none : vector<4xf16>, vector<4xf16>, vector<16xf32>
          %1158 = vector.extract_strided_slice %1086 {offsets = [4], sizes = [4], strides = [1]} : vector<8xf16> to vector<4xf16>
          %1159 = amdgpu.mfma %1129 * %1158 + %1157 {blocks = 1 : i32, k = 8 : i32, m = 32 : i32, n = 32 : i32} blgp =  none : vector<4xf16>, vector<4xf16>, vector<16xf32>
          %1160 = vector.extract_strided_slice %1087 {offsets = [0], sizes = [4], strides = [1]} : vector<8xf16> to vector<4xf16>
          %1161 = amdgpu.mfma %1126 * %1160 + %arg12 {blocks = 1 : i32, k = 8 : i32, m = 32 : i32, n = 32 : i32} blgp =  none : vector<4xf16>, vector<4xf16>, vector<16xf32>
          %1162 = vector.extract_strided_slice %1087 {offsets = [4], sizes = [4], strides = [1]} : vector<8xf16> to vector<4xf16>
          %1163 = amdgpu.mfma %1129 * %1162 + %1161 {blocks = 1 : i32, k = 8 : i32, m = 32 : i32, n = 32 : i32} blgp =  none : vector<4xf16>, vector<4xf16>, vector<16xf32>
          %1164 = vector.extract_strided_slice %1088 {offsets = [0], sizes = [4], strides = [1]} : vector<8xf16> to vector<4xf16>
          %1165 = amdgpu.mfma %1126 * %1164 + %arg13 {blocks = 1 : i32, k = 8 : i32, m = 32 : i32, n = 32 : i32} blgp =  none : vector<4xf16>, vector<4xf16>, vector<16xf32>
          %1166 = vector.extract_strided_slice %1088 {offsets = [4], sizes = [4], strides = [1]} : vector<8xf16> to vector<4xf16>
          %1167 = amdgpu.mfma %1129 * %1166 + %1165 {blocks = 1 : i32, k = 8 : i32, m = 32 : i32, n = 32 : i32} blgp =  none : vector<4xf16>, vector<4xf16>, vector<16xf32>
          %1168 = vector.extract_strided_slice %1089 {offsets = [0], sizes = [4], strides = [1]} : vector<8xf16> to vector<4xf16>
          %1169 = amdgpu.mfma %1126 * %1168 + %arg14 {blocks = 1 : i32, k = 8 : i32, m = 32 : i32, n = 32 : i32} blgp =  none : vector<4xf16>, vector<4xf16>, vector<16xf32>
          %1170 = vector.extract_strided_slice %1089 {offsets = [4], sizes = [4], strides = [1]} : vector<8xf16> to vector<4xf16>
          %1171 = amdgpu.mfma %1129 * %1170 + %1169 {blocks = 1 : i32, k = 8 : i32, m = 32 : i32, n = 32 : i32} blgp =  none : vector<4xf16>, vector<4xf16>, vector<16xf32>
          %1172 = vector.extract_strided_slice %1090 {offsets = [0], sizes = [4], strides = [1]} : vector<8xf16> to vector<4xf16>
          %1173 = amdgpu.mfma %1126 * %1172 + %arg15 {blocks = 1 : i32, k = 8 : i32, m = 32 : i32, n = 32 : i32} blgp =  none : vector<4xf16>, vector<4xf16>, vector<16xf32>
          %1174 = vector.extract_strided_slice %1090 {offsets = [4], sizes = [4], strides = [1]} : vector<8xf16> to vector<4xf16>
          %1175 = amdgpu.mfma %1129 * %1174 + %1173 {blocks = 1 : i32, k = 8 : i32, m = 32 : i32, n = 32 : i32} blgp =  none : vector<4xf16>, vector<4xf16>, vector<16xf32>
          amdgpu.lds_barrier
          vector.maskedstore %view_3[%62, %10], %64, %1100 : memref<16x20xf16, #gpu.address_space<workgroup>>, vector<8xi1>, vector<8xf16>
          vector.maskedstore %view[%67, %25], %69, %1109 : memref<732x20xf16, #gpu.address_space<workgroup>>, vector<8xi1>, vector<8xf16>
          vector.maskedstore %view[%70, %25], %72, %1117 : memref<732x20xf16, #gpu.address_space<workgroup>>, vector<8xi1>, vector<8xf16>
          vector.maskedstore %view[%73, %25], %75, %1125 : memref<732x20xf16, #gpu.address_space<workgroup>>, vector<8xi1>, vector<8xf16>
          scf.yield %1131, %1135, %1139, %1143, %1147, %1151, %1155, %1159, %1163, %1167, %1171, %1175 : vector<16xf32>, vector<16xf32>, vector<16xf32>, vector<16xf32>, vector<16xf32>, vector<16xf32>, vector<16xf32>, vector<16xf32>, vector<16xf32>, vector<16xf32>, vector<16xf32>, vector<16xf32>
        }
        amdgpu.lds_barrier
        %113 = affine.apply #map15()[%thread_id_x, %thread_id_y]
        %114 = arith.cmpi slt, %113, %66 : index
        %115 = vector.broadcast %114 : i1 to vector<8xi1>
        %116 = vector.maskedload %view[%113, %10], %115, %cst : memref<732x20xf16, #gpu.address_space<workgroup>>, vector<8xi1>, vector<8xf16> into vector<8xf16>
        %117 = affine.apply #map16()[%thread_id_x, %thread_id_y]
        %118 = arith.cmpi slt, %117, %66 : index
        %119 = vector.broadcast %118 : i1 to vector<8xi1>
        %120 = vector.maskedload %view[%117, %10], %119, %cst : memref<732x20xf16, #gpu.address_space<workgroup>>, vector<8xi1>, vector<8xf16> into vector<8xf16>
        %121 = affine.apply #map17()[%thread_id_x, %thread_id_y]
        %122 = arith.cmpi slt, %121, %66 : index
        %123 = vector.broadcast %122 : i1 to vector<8xi1>
        %124 = vector.maskedload %view[%121, %10], %123, %cst : memref<732x20xf16, #gpu.address_space<workgroup>>, vector<8xi1>, vector<8xf16> into vector<8xf16>
        %125 = affine.apply #map18()[%thread_id_x, %thread_id_y]
        %126 = arith.cmpi slt, %125, %66 : index
        %127 = vector.broadcast %126 : i1 to vector<8xi1>
        %128 = vector.maskedload %view[%125, %10], %127, %cst : memref<732x20xf16, #gpu.address_space<workgroup>>, vector<8xi1>, vector<8xf16> into vector<8xf16>
        %129 = affine.apply #map19()[%thread_id_x, %thread_id_y]
        %130 = arith.cmpi slt, %129, %66 : index
        %131 = vector.broadcast %130 : i1 to vector<8xi1>
        %132 = vector.maskedload %view[%129, %10], %131, %cst : memref<732x20xf16, #gpu.address_space<workgroup>>, vector<8xi1>, vector<8xf16> into vector<8xf16>
        %133 = affine.apply #map20()[%thread_id_x, %thread_id_y]
        %134 = arith.cmpi slt, %133, %66 : index
        %135 = vector.broadcast %134 : i1 to vector<8xi1>
        %136 = vector.maskedload %view[%133, %10], %135, %cst : memref<732x20xf16, #gpu.address_space<workgroup>>, vector<8xi1>, vector<8xf16> into vector<8xf16>
        %137 = affine.apply #map21()[%thread_id_x, %thread_id_y]
        %138 = arith.cmpi slt, %137, %66 : index
        %139 = vector.broadcast %138 : i1 to vector<8xi1>
        %140 = vector.maskedload %view[%137, %10], %139, %cst : memref<732x20xf16, #gpu.address_space<workgroup>>, vector<8xi1>, vector<8xf16> into vector<8xf16>
        %141 = affine.apply #map22()[%thread_id_x, %thread_id_y]
        %142 = arith.cmpi slt, %141, %66 : index
        %143 = vector.broadcast %142 : i1 to vector<8xi1>
        %144 = vector.maskedload %view[%141, %10], %143, %cst : memref<732x20xf16, #gpu.address_space<workgroup>>, vector<8xi1>, vector<8xf16> into vector<8xf16>
        %145 = affine.apply #map23()[%thread_id_x, %thread_id_y]
        %146 = arith.cmpi slt, %145, %66 : index
        %147 = vector.broadcast %146 : i1 to vector<8xi1>
        %148 = vector.maskedload %view[%145, %10], %147, %cst : memref<732x20xf16, #gpu.address_space<workgroup>>, vector<8xi1>, vector<8xf16> into vector<8xf16>
        %149 = affine.apply #map24()[%thread_id_x, %thread_id_y]
        %150 = arith.cmpi slt, %149, %66 : index
        %151 = vector.broadcast %150 : i1 to vector<8xi1>
        %152 = vector.maskedload %view[%149, %10], %151, %cst : memref<732x20xf16, #gpu.address_space<workgroup>>, vector<8xi1>, vector<8xf16> into vector<8xf16>
        %153 = affine.apply #map25()[%thread_id_x, %thread_id_y]
        %154 = arith.cmpi slt, %153, %66 : index
        %155 = vector.broadcast %154 : i1 to vector<8xi1>
        %156 = vector.maskedload %view[%153, %10], %155, %cst : memref<732x20xf16, #gpu.address_space<workgroup>>, vector<8xi1>, vector<8xf16> into vector<8xf16>
        %157 = affine.apply #map26()[%thread_id_x, %thread_id_y]
        %158 = arith.cmpi slt, %157, %66 : index
        %159 = vector.broadcast %158 : i1 to vector<8xi1>
        %160 = vector.maskedload %view[%157, %10], %159, %cst : memref<732x20xf16, #gpu.address_space<workgroup>>, vector<8xi1>, vector<8xf16> into vector<8xf16>
        %161 = vector.maskedload %view_3[%62, %10], %64, %cst : memref<16x20xf16, #gpu.address_space<workgroup>>, vector<8xi1>, vector<8xf16> into vector<8xf16>
        %162 = vector.extract_strided_slice %161 {offsets = [0], sizes = [4], strides = [1]} : vector<8xf16> to vector<4xf16>
        %163 = vector.extract_strided_slice %116 {offsets = [0], sizes = [4], strides = [1]} : vector<8xf16> to vector<4xf16>
        %164 = amdgpu.mfma %162 * %163 + %112#0 {blocks = 1 : i32, k = 8 : i32, m = 32 : i32, n = 32 : i32} blgp =  none : vector<4xf16>, vector<4xf16>, vector<16xf32>
        %165 = vector.extract_strided_slice %161 {offsets = [4], sizes = [4], strides = [1]} : vector<8xf16> to vector<4xf16>
        %166 = vector.extract_strided_slice %116 {offsets = [4], sizes = [4], strides = [1]} : vector<8xf16> to vector<4xf16>
        %167 = amdgpu.mfma %165 * %166 + %164 {blocks = 1 : i32, k = 8 : i32, m = 32 : i32, n = 32 : i32} blgp =  none : vector<4xf16>, vector<4xf16>, vector<16xf32>
        %168 = vector.extract_strided_slice %120 {offsets = [0], sizes = [4], strides = [1]} : vector<8xf16> to vector<4xf16>
        %169 = amdgpu.mfma %162 * %168 + %112#1 {blocks = 1 : i32, k = 8 : i32, m = 32 : i32, n = 32 : i32} blgp =  none : vector<4xf16>, vector<4xf16>, vector<16xf32>
        %170 = vector.extract_strided_slice %120 {offsets = [4], sizes = [4], strides = [1]} : vector<8xf16> to vector<4xf16>
        %171 = amdgpu.mfma %165 * %170 + %169 {blocks = 1 : i32, k = 8 : i32, m = 32 : i32, n = 32 : i32} blgp =  none : vector<4xf16>, vector<4xf16>, vector<16xf32>
        %172 = vector.extract_strided_slice %124 {offsets = [0], sizes = [4], strides = [1]} : vector<8xf16> to vector<4xf16>
        %173 = amdgpu.mfma %162 * %172 + %112#2 {blocks = 1 : i32, k = 8 : i32, m = 32 : i32, n = 32 : i32} blgp =  none : vector<4xf16>, vector<4xf16>, vector<16xf32>
        %174 = vector.extract_strided_slice %124 {offsets = [4], sizes = [4], strides = [1]} : vector<8xf16> to vector<4xf16>
        %175 = amdgpu.mfma %165 * %174 + %173 {blocks = 1 : i32, k = 8 : i32, m = 32 : i32, n = 32 : i32} blgp =  none : vector<4xf16>, vector<4xf16>, vector<16xf32>
        %176 = vector.extract_strided_slice %128 {offsets = [0], sizes = [4], strides = [1]} : vector<8xf16> to vector<4xf16>
        %177 = amdgpu.mfma %162 * %176 + %112#3 {blocks = 1 : i32, k = 8 : i32, m = 32 : i32, n = 32 : i32} blgp =  none : vector<4xf16>, vector<4xf16>, vector<16xf32>
        %178 = vector.extract_strided_slice %128 {offsets = [4], sizes = [4], strides = [1]} : vector<8xf16> to vector<4xf16>
        %179 = amdgpu.mfma %165 * %178 + %177 {blocks = 1 : i32, k = 8 : i32, m = 32 : i32, n = 32 : i32} blgp =  none : vector<4xf16>, vector<4xf16>, vector<16xf32>
        %180 = vector.extract_strided_slice %132 {offsets = [0], sizes = [4], strides = [1]} : vector<8xf16> to vector<4xf16>
        %181 = amdgpu.mfma %162 * %180 + %112#4 {blocks = 1 : i32, k = 8 : i32, m = 32 : i32, n = 32 : i32} blgp =  none : vector<4xf16>, vector<4xf16>, vector<16xf32>
        %182 = vector.extract_strided_slice %132 {offsets = [4], sizes = [4], strides = [1]} : vector<8xf16> to vector<4xf16>
        %183 = amdgpu.mfma %165 * %182 + %181 {blocks = 1 : i32, k = 8 : i32, m = 32 : i32, n = 32 : i32} blgp =  none : vector<4xf16>, vector<4xf16>, vector<16xf32>
        %184 = vector.extract_strided_slice %136 {offsets = [0], sizes = [4], strides = [1]} : vector<8xf16> to vector<4xf16>
        %185 = amdgpu.mfma %162 * %184 + %112#5 {blocks = 1 : i32, k = 8 : i32, m = 32 : i32, n = 32 : i32} blgp =  none : vector<4xf16>, vector<4xf16>, vector<16xf32>
        %186 = vector.extract_strided_slice %136 {offsets = [4], sizes = [4], strides = [1]} : vector<8xf16> to vector<4xf16>
        %187 = amdgpu.mfma %165 * %186 + %185 {blocks = 1 : i32, k = 8 : i32, m = 32 : i32, n = 32 : i32} blgp =  none : vector<4xf16>, vector<4xf16>, vector<16xf32>
        %188 = vector.extract_strided_slice %140 {offsets = [0], sizes = [4], strides = [1]} : vector<8xf16> to vector<4xf16>
        %189 = amdgpu.mfma %162 * %188 + %112#6 {blocks = 1 : i32, k = 8 : i32, m = 32 : i32, n = 32 : i32} blgp =  none : vector<4xf16>, vector<4xf16>, vector<16xf32>
        %190 = vector.extract_strided_slice %140 {offsets = [4], sizes = [4], strides = [1]} : vector<8xf16> to vector<4xf16>
        %191 = amdgpu.mfma %165 * %190 + %189 {blocks = 1 : i32, k = 8 : i32, m = 32 : i32, n = 32 : i32} blgp =  none : vector<4xf16>, vector<4xf16>, vector<16xf32>
        %192 = vector.extract_strided_slice %144 {offsets = [0], sizes = [4], strides = [1]} : vector<8xf16> to vector<4xf16>
        %193 = amdgpu.mfma %162 * %192 + %112#7 {blocks = 1 : i32, k = 8 : i32, m = 32 : i32, n = 32 : i32} blgp =  none : vector<4xf16>, vector<4xf16>, vector<16xf32>
        %194 = vector.extract_strided_slice %144 {offsets = [4], sizes = [4], strides = [1]} : vector<8xf16> to vector<4xf16>
        %195 = amdgpu.mfma %165 * %194 + %193 {blocks = 1 : i32, k = 8 : i32, m = 32 : i32, n = 32 : i32} blgp =  none : vector<4xf16>, vector<4xf16>, vector<16xf32>
        %196 = vector.extract_strided_slice %148 {offsets = [0], sizes = [4], strides = [1]} : vector<8xf16> to vector<4xf16>
        %197 = amdgpu.mfma %162 * %196 + %112#8 {blocks = 1 : i32, k = 8 : i32, m = 32 : i32, n = 32 : i32} blgp =  none : vector<4xf16>, vector<4xf16>, vector<16xf32>
        %198 = vector.extract_strided_slice %148 {offsets = [4], sizes = [4], strides = [1]} : vector<8xf16> to vector<4xf16>
        %199 = amdgpu.mfma %165 * %198 + %197 {blocks = 1 : i32, k = 8 : i32, m = 32 : i32, n = 32 : i32} blgp =  none : vector<4xf16>, vector<4xf16>, vector<16xf32>
        %200 = vector.extract_strided_slice %152 {offsets = [0], sizes = [4], strides = [1]} : vector<8xf16> to vector<4xf16>
        %201 = amdgpu.mfma %162 * %200 + %112#9 {blocks = 1 : i32, k = 8 : i32, m = 32 : i32, n = 32 : i32} blgp =  none : vector<4xf16>, vector<4xf16>, vector<16xf32>
        %202 = vector.extract_strided_slice %152 {offsets = [4], sizes = [4], strides = [1]} : vector<8xf16> to vector<4xf16>
        %203 = amdgpu.mfma %165 * %202 + %201 {blocks = 1 : i32, k = 8 : i32, m = 32 : i32, n = 32 : i32} blgp =  none : vector<4xf16>, vector<4xf16>, vector<16xf32>
        %204 = vector.extract_strided_slice %156 {offsets = [0], sizes = [4], strides = [1]} : vector<8xf16> to vector<4xf16>
        %205 = amdgpu.mfma %162 * %204 + %112#10 {blocks = 1 : i32, k = 8 : i32, m = 32 : i32, n = 32 : i32} blgp =  none : vector<4xf16>, vector<4xf16>, vector<16xf32>
        %206 = vector.extract_strided_slice %156 {offsets = [4], sizes = [4], strides = [1]} : vector<8xf16> to vector<4xf16>
        %207 = amdgpu.mfma %165 * %206 + %205 {blocks = 1 : i32, k = 8 : i32, m = 32 : i32, n = 32 : i32} blgp =  none : vector<4xf16>, vector<4xf16>, vector<16xf32>
        %208 = vector.extract_strided_slice %160 {offsets = [0], sizes = [4], strides = [1]} : vector<8xf16> to vector<4xf16>
        %209 = amdgpu.mfma %162 * %208 + %112#11 {blocks = 1 : i32, k = 8 : i32, m = 32 : i32, n = 32 : i32} blgp =  none : vector<4xf16>, vector<4xf16>, vector<16xf32>
        %210 = vector.extract_strided_slice %160 {offsets = [4], sizes = [4], strides = [1]} : vector<8xf16> to vector<4xf16>
        %211 = amdgpu.mfma %165 * %210 + %209 {blocks = 1 : i32, k = 8 : i32, m = 32 : i32, n = 32 : i32} blgp =  none : vector<4xf16>, vector<4xf16>, vector<16xf32>
        %212 = vector.extract_strided_slice %167 {offsets = [0], sizes = [1], strides = [1]} : vector<16xf32> to vector<1xf32>
        %213 = stream.binding.subspan %arg2[%c0] : !stream.binding -> memref<20512x2880xf32, strided<[2880, 1], offset: ?>>
        %214 = affine.apply #map29()[%block_id_y, %thread_id_y]
        %215 = affine.apply #map30()[%block_id_y]
        %216 = arith.minsi %214, %215 : index
        %217 = arith.minsi %216, %c2880 : index
        %218 = affine.apply #map31()[%thread_id_x, %block_id_y, %block_id_x, %3, %thread_id_y]
        %219 = arith.cmpi slt, %218, %217 : index
        %220 = affine.apply #map32()[%block_id_y, %block_id_x, %3, %thread_id_x]
        %221 = arith.cmpi slt, %220, %6 : index
        %222 = arith.andi %219, %221 : i1
        %223 = affine.apply #map33()[%block_id_y, %block_id_x, %3]
        %224 = affine.apply #map34()[%block_id_y, %block_id_x, %3]
        %225 = affine.apply #map35()[%thread_id_x]
        %226 = arith.muli %223, %c2880 overflow<nsw> : index
        %227 = arith.muli %225, %c2880 overflow<nsw> : index
        %228 = arith.addi %226, %224 overflow<nsw> : index
        %229 = arith.addi %227, %113 overflow<nsw> : index
        %base_buffer_9, %offset_10, %sizes_11:2, %strides_12:2 = memref.extract_strided_metadata %213 : memref<20512x2880xf32, strided<[2880, 1], offset: ?>> -> memref<f32>, index, index, index, index, index
        %230 = arith.addi %228, %offset_10 overflow<nsw> : index
        %reinterpret_cast_13 = memref.reinterpret_cast %213 to offset: [%230], sizes: [%c536870910], strides: [1] : memref<20512x2880xf32, strided<[2880, 1], offset: ?>> to memref<?xf32, strided<[1], offset: ?>>
        %231 = amdgpu.fat_raw_buffer_cast %reinterpret_cast_13 validBytes(%c2147483643_i32) cacheSwizzleStride(%c2880_i14) resetOffset : memref<?xf32, strided<[1], offset: ?>> to memref<?xf32, #amdgpu.address_space<fat_raw_buffer>>
        %232 = arith.select %222, %229, %c536870911 : index
        vector.store %212, %231[%232] : memref<?xf32, #amdgpu.address_space<fat_raw_buffer>>, vector<1xf32>
        %233 = vector.extract_strided_slice %167 {offsets = [1], sizes = [1], strides = [1]} : vector<16xf32> to vector<1xf32>
        %234 = affine.apply #map36()[%block_id_y, %block_id_x, %3, %thread_id_x]
        %235 = arith.cmpi slt, %234, %6 : index
        %236 = arith.andi %219, %235 : i1
        %237 = affine.apply #map37()[%thread_id_x]
        %238 = arith.muli %237, %c2880 overflow<nsw> : index
        %239 = arith.addi %238, %113 overflow<nsw> : index
        %240 = arith.select %236, %239, %c536870911 : index
        vector.store %233, %231[%240] : memref<?xf32, #amdgpu.address_space<fat_raw_buffer>>, vector<1xf32>
        %241 = vector.extract_strided_slice %167 {offsets = [2], sizes = [1], strides = [1]} : vector<16xf32> to vector<1xf32>
        %242 = affine.apply #map38()[%block_id_y, %block_id_x, %3, %thread_id_x]
        %243 = arith.cmpi slt, %242, %6 : index
        %244 = arith.andi %219, %243 : i1
        %245 = affine.apply #map39()[%thread_id_x]
        %246 = arith.muli %245, %c2880 overflow<nsw> : index
        %247 = arith.addi %246, %113 overflow<nsw> : index
        %248 = arith.select %244, %247, %c536870911 : index
        vector.store %241, %231[%248] : memref<?xf32, #amdgpu.address_space<fat_raw_buffer>>, vector<1xf32>
        %249 = vector.extract_strided_slice %167 {offsets = [3], sizes = [1], strides = [1]} : vector<16xf32> to vector<1xf32>
        %250 = affine.apply #map40()[%block_id_y, %block_id_x, %3, %thread_id_x]
        %251 = arith.cmpi slt, %250, %6 : index
        %252 = arith.andi %219, %251 : i1
        %253 = affine.apply #map41()[%thread_id_x]
        %254 = arith.muli %253, %c2880 overflow<nsw> : index
        %255 = arith.addi %254, %113 overflow<nsw> : index
        %256 = arith.select %252, %255, %c536870911 : index
        vector.store %249, %231[%256] : memref<?xf32, #amdgpu.address_space<fat_raw_buffer>>, vector<1xf32>
        %257 = vector.extract_strided_slice %167 {offsets = [4], sizes = [1], strides = [1]} : vector<16xf32> to vector<1xf32>
        %258 = affine.apply #map42()[%block_id_y, %block_id_x, %3, %thread_id_x]
        %259 = arith.cmpi slt, %258, %6 : index
        %260 = arith.andi %219, %259 : i1
        %261 = affine.apply #map43()[%thread_id_x]
        %262 = arith.muli %261, %c2880 overflow<nsw> : index
        %263 = arith.addi %262, %113 overflow<nsw> : index
        %264 = arith.select %260, %263, %c536870911 : index
        vector.store %257, %231[%264] : memref<?xf32, #amdgpu.address_space<fat_raw_buffer>>, vector<1xf32>
        %265 = vector.extract_strided_slice %167 {offsets = [5], sizes = [1], strides = [1]} : vector<16xf32> to vector<1xf32>
        %266 = affine.apply #map44()[%block_id_y, %block_id_x, %3, %thread_id_x]
        %267 = arith.cmpi slt, %266, %6 : index
        %268 = arith.andi %219, %267 : i1
        %269 = affine.apply #map45()[%thread_id_x]
        %270 = arith.muli %269, %c2880 overflow<nsw> : index
        %271 = arith.addi %270, %113 overflow<nsw> : index
        %272 = arith.select %268, %271, %c536870911 : index
        vector.store %265, %231[%272] : memref<?xf32, #amdgpu.address_space<fat_raw_buffer>>, vector<1xf32>
        %273 = vector.extract_strided_slice %167 {offsets = [6], sizes = [1], strides = [1]} : vector<16xf32> to vector<1xf32>
        %274 = affine.apply #map46()[%block_id_y, %block_id_x, %3, %thread_id_x]
        %275 = arith.cmpi slt, %274, %6 : index
        %276 = arith.andi %219, %275 : i1
        %277 = affine.apply #map47()[%thread_id_x]
        %278 = arith.muli %277, %c2880 overflow<nsw> : index
        %279 = arith.addi %278, %113 overflow<nsw> : index
        %280 = arith.select %276, %279, %c536870911 : index
        vector.store %273, %231[%280] : memref<?xf32, #amdgpu.address_space<fat_raw_buffer>>, vector<1xf32>
        %281 = vector.extract_strided_slice %167 {offsets = [7], sizes = [1], strides = [1]} : vector<16xf32> to vector<1xf32>
        %282 = affine.apply #map48()[%block_id_y, %block_id_x, %3, %thread_id_x]
        %283 = arith.cmpi slt, %282, %6 : index
        %284 = arith.andi %219, %283 : i1
        %285 = affine.apply #map49()[%thread_id_x]
        %286 = arith.muli %285, %c2880 overflow<nsw> : index
        %287 = arith.addi %286, %113 overflow<nsw> : index
        %288 = arith.select %284, %287, %c536870911 : index
        vector.store %281, %231[%288] : memref<?xf32, #amdgpu.address_space<fat_raw_buffer>>, vector<1xf32>
        %289 = vector.extract_strided_slice %167 {offsets = [8], sizes = [1], strides = [1]} : vector<16xf32> to vector<1xf32>
        %290 = affine.apply #map50()[%block_id_y, %block_id_x, %3, %thread_id_x]
        %291 = arith.cmpi slt, %290, %6 : index
        %292 = arith.andi %219, %291 : i1
        %293 = affine.apply #map51()[%thread_id_x]
        %294 = arith.muli %293, %c2880 overflow<nsw> : index
        %295 = arith.addi %294, %113 overflow<nsw> : index
        %296 = arith.select %292, %295, %c536870911 : index
        vector.store %289, %231[%296] : memref<?xf32, #amdgpu.address_space<fat_raw_buffer>>, vector<1xf32>
        %297 = vector.extract_strided_slice %167 {offsets = [9], sizes = [1], strides = [1]} : vector<16xf32> to vector<1xf32>
        %298 = affine.apply #map52()[%block_id_y, %block_id_x, %3, %thread_id_x]
        %299 = arith.cmpi slt, %298, %6 : index
        %300 = arith.andi %219, %299 : i1
        %301 = affine.apply #map53()[%thread_id_x]
        %302 = arith.muli %301, %c2880 overflow<nsw> : index
        %303 = arith.addi %302, %113 overflow<nsw> : index
        %304 = arith.select %300, %303, %c536870911 : index
        vector.store %297, %231[%304] : memref<?xf32, #amdgpu.address_space<fat_raw_buffer>>, vector<1xf32>
        %305 = vector.extract_strided_slice %167 {offsets = [10], sizes = [1], strides = [1]} : vector<16xf32> to vector<1xf32>
        %306 = affine.apply #map54()[%block_id_y, %block_id_x, %3, %thread_id_x]
        %307 = arith.cmpi slt, %306, %6 : index
        %308 = arith.andi %219, %307 : i1
        %309 = affine.apply #map55()[%thread_id_x]
        %310 = arith.muli %309, %c2880 overflow<nsw> : index
        %311 = arith.addi %310, %113 overflow<nsw> : index
        %312 = arith.select %308, %311, %c536870911 : index
        vector.store %305, %231[%312] : memref<?xf32, #amdgpu.address_space<fat_raw_buffer>>, vector<1xf32>
        %313 = vector.extract_strided_slice %167 {offsets = [11], sizes = [1], strides = [1]} : vector<16xf32> to vector<1xf32>
        %314 = affine.apply #map56()[%block_id_y, %block_id_x, %3, %thread_id_x]
        %315 = arith.cmpi slt, %314, %6 : index
        %316 = arith.andi %219, %315 : i1
        %317 = affine.apply #map57()[%thread_id_x]
        %318 = arith.muli %317, %c2880 overflow<nsw> : index
        %319 = arith.addi %318, %113 overflow<nsw> : index
        %320 = arith.select %316, %319, %c536870911 : index
        vector.store %313, %231[%320] : memref<?xf32, #amdgpu.address_space<fat_raw_buffer>>, vector<1xf32>
        %321 = vector.extract_strided_slice %167 {offsets = [12], sizes = [1], strides = [1]} : vector<16xf32> to vector<1xf32>
        %322 = affine.apply #map58()[%block_id_y, %block_id_x, %3, %thread_id_x]
        %323 = arith.cmpi slt, %322, %6 : index
        %324 = arith.andi %219, %323 : i1
        %325 = affine.apply #map59()[%thread_id_x]
        %326 = arith.muli %325, %c2880 overflow<nsw> : index
        %327 = arith.addi %326, %113 overflow<nsw> : index
        %328 = arith.select %324, %327, %c536870911 : index
        vector.store %321, %231[%328] : memref<?xf32, #amdgpu.address_space<fat_raw_buffer>>, vector<1xf32>
        %329 = vector.extract_strided_slice %167 {offsets = [13], sizes = [1], strides = [1]} : vector<16xf32> to vector<1xf32>
        %330 = affine.apply #map60()[%block_id_y, %block_id_x, %3, %thread_id_x]
        %331 = arith.cmpi slt, %330, %6 : index
        %332 = arith.andi %219, %331 : i1
        %333 = affine.apply #map61()[%thread_id_x]
        %334 = arith.muli %333, %c2880 overflow<nsw> : index
        %335 = arith.addi %334, %113 overflow<nsw> : index
        %336 = arith.select %332, %335, %c536870911 : index
        vector.store %329, %231[%336] : memref<?xf32, #amdgpu.address_space<fat_raw_buffer>>, vector<1xf32>
        %337 = vector.extract_strided_slice %167 {offsets = [14], sizes = [1], strides = [1]} : vector<16xf32> to vector<1xf32>
        %338 = affine.apply #map62()[%block_id_y, %block_id_x, %3, %thread_id_x]
        %339 = arith.cmpi slt, %338, %6 : index
        %340 = arith.andi %219, %339 : i1
        %341 = affine.apply #map63()[%thread_id_x]
        %342 = arith.muli %341, %c2880 overflow<nsw> : index
        %343 = arith.addi %342, %113 overflow<nsw> : index
        %344 = arith.select %340, %343, %c536870911 : index
        vector.store %337, %231[%344] : memref<?xf32, #amdgpu.address_space<fat_raw_buffer>>, vector<1xf32>
        %345 = vector.extract_strided_slice %167 {offsets = [15], sizes = [1], strides = [1]} : vector<16xf32> to vector<1xf32>
        %346 = affine.apply #map64()[%block_id_y, %block_id_x, %3, %thread_id_x]
        %347 = arith.cmpi slt, %346, %6 : index
        %348 = arith.andi %219, %347 : i1
        %349 = affine.apply #map65()[%thread_id_x]
        %350 = arith.muli %349, %c2880 overflow<nsw> : index
        %351 = arith.addi %350, %113 overflow<nsw> : index
        %352 = arith.select %348, %351, %c536870911 : index
        vector.store %345, %231[%352] : memref<?xf32, #amdgpu.address_space<fat_raw_buffer>>, vector<1xf32>
        %353 = vector.extract_strided_slice %171 {offsets = [0], sizes = [1], strides = [1]} : vector<16xf32> to vector<1xf32>
        %354 = affine.apply #map66()[%thread_id_x, %block_id_y, %block_id_x, %3, %thread_id_y]
        %355 = arith.cmpi slt, %354, %217 : index
        %356 = arith.andi %355, %221 : i1
        %357 = arith.addi %227, %117 overflow<nsw> : index
        %358 = arith.select %356, %357, %c536870911 : index
        vector.store %353, %231[%358] : memref<?xf32, #amdgpu.address_space<fat_raw_buffer>>, vector<1xf32>
        %359 = vector.extract_strided_slice %171 {offsets = [1], sizes = [1], strides = [1]} : vector<16xf32> to vector<1xf32>
        %360 = arith.andi %355, %235 : i1
        %361 = arith.addi %238, %117 overflow<nsw> : index
        %362 = arith.select %360, %361, %c536870911 : index
        vector.store %359, %231[%362] : memref<?xf32, #amdgpu.address_space<fat_raw_buffer>>, vector<1xf32>
        %363 = vector.extract_strided_slice %171 {offsets = [2], sizes = [1], strides = [1]} : vector<16xf32> to vector<1xf32>
        %364 = arith.andi %355, %243 : i1
        %365 = arith.addi %246, %117 overflow<nsw> : index
        %366 = arith.select %364, %365, %c536870911 : index
        vector.store %363, %231[%366] : memref<?xf32, #amdgpu.address_space<fat_raw_buffer>>, vector<1xf32>
        %367 = vector.extract_strided_slice %171 {offsets = [3], sizes = [1], strides = [1]} : vector<16xf32> to vector<1xf32>
        %368 = arith.andi %355, %251 : i1
        %369 = arith.addi %254, %117 overflow<nsw> : index
        %370 = arith.select %368, %369, %c536870911 : index
        vector.store %367, %231[%370] : memref<?xf32, #amdgpu.address_space<fat_raw_buffer>>, vector<1xf32>
        %371 = vector.extract_strided_slice %171 {offsets = [4], sizes = [1], strides = [1]} : vector<16xf32> to vector<1xf32>
        %372 = arith.andi %355, %259 : i1
        %373 = arith.addi %262, %117 overflow<nsw> : index
        %374 = arith.select %372, %373, %c536870911 : index
        vector.store %371, %231[%374] : memref<?xf32, #amdgpu.address_space<fat_raw_buffer>>, vector<1xf32>
        %375 = vector.extract_strided_slice %171 {offsets = [5], sizes = [1], strides = [1]} : vector<16xf32> to vector<1xf32>
        %376 = arith.andi %355, %267 : i1
        %377 = arith.addi %270, %117 overflow<nsw> : index
        %378 = arith.select %376, %377, %c536870911 : index
        vector.store %375, %231[%378] : memref<?xf32, #amdgpu.address_space<fat_raw_buffer>>, vector<1xf32>
        %379 = vector.extract_strided_slice %171 {offsets = [6], sizes = [1], strides = [1]} : vector<16xf32> to vector<1xf32>
        %380 = arith.andi %355, %275 : i1
        %381 = arith.addi %278, %117 overflow<nsw> : index
        %382 = arith.select %380, %381, %c536870911 : index
        vector.store %379, %231[%382] : memref<?xf32, #amdgpu.address_space<fat_raw_buffer>>, vector<1xf32>
        %383 = vector.extract_strided_slice %171 {offsets = [7], sizes = [1], strides = [1]} : vector<16xf32> to vector<1xf32>
        %384 = arith.andi %355, %283 : i1
        %385 = arith.addi %286, %117 overflow<nsw> : index
        %386 = arith.select %384, %385, %c536870911 : index
        vector.store %383, %231[%386] : memref<?xf32, #amdgpu.address_space<fat_raw_buffer>>, vector<1xf32>
        %387 = vector.extract_strided_slice %171 {offsets = [8], sizes = [1], strides = [1]} : vector<16xf32> to vector<1xf32>
        %388 = arith.andi %355, %291 : i1
        %389 = arith.addi %294, %117 overflow<nsw> : index
        %390 = arith.select %388, %389, %c536870911 : index
        vector.store %387, %231[%390] : memref<?xf32, #amdgpu.address_space<fat_raw_buffer>>, vector<1xf32>
        %391 = vector.extract_strided_slice %171 {offsets = [9], sizes = [1], strides = [1]} : vector<16xf32> to vector<1xf32>
        %392 = arith.andi %355, %299 : i1
        %393 = arith.addi %302, %117 overflow<nsw> : index
        %394 = arith.select %392, %393, %c536870911 : index
        vector.store %391, %231[%394] : memref<?xf32, #amdgpu.address_space<fat_raw_buffer>>, vector<1xf32>
        %395 = vector.extract_strided_slice %171 {offsets = [10], sizes = [1], strides = [1]} : vector<16xf32> to vector<1xf32>
        %396 = arith.andi %355, %307 : i1
        %397 = arith.addi %310, %117 overflow<nsw> : index
        %398 = arith.select %396, %397, %c536870911 : index
        vector.store %395, %231[%398] : memref<?xf32, #amdgpu.address_space<fat_raw_buffer>>, vector<1xf32>
        %399 = vector.extract_strided_slice %171 {offsets = [11], sizes = [1], strides = [1]} : vector<16xf32> to vector<1xf32>
        %400 = arith.andi %355, %315 : i1
        %401 = arith.addi %318, %117 overflow<nsw> : index
        %402 = arith.select %400, %401, %c536870911 : index
        vector.store %399, %231[%402] : memref<?xf32, #amdgpu.address_space<fat_raw_buffer>>, vector<1xf32>
        %403 = vector.extract_strided_slice %171 {offsets = [12], sizes = [1], strides = [1]} : vector<16xf32> to vector<1xf32>
        %404 = arith.andi %355, %323 : i1
        %405 = arith.addi %326, %117 overflow<nsw> : index
        %406 = arith.select %404, %405, %c536870911 : index
        vector.store %403, %231[%406] : memref<?xf32, #amdgpu.address_space<fat_raw_buffer>>, vector<1xf32>
        %407 = vector.extract_strided_slice %171 {offsets = [13], sizes = [1], strides = [1]} : vector<16xf32> to vector<1xf32>
        %408 = arith.andi %355, %331 : i1
        %409 = arith.addi %334, %117 overflow<nsw> : index
        %410 = arith.select %408, %409, %c536870911 : index
        vector.store %407, %231[%410] : memref<?xf32, #amdgpu.address_space<fat_raw_buffer>>, vector<1xf32>
        %411 = vector.extract_strided_slice %171 {offsets = [14], sizes = [1], strides = [1]} : vector<16xf32> to vector<1xf32>
        %412 = arith.andi %355, %339 : i1
        %413 = arith.addi %342, %117 overflow<nsw> : index
        %414 = arith.select %412, %413, %c536870911 : index
        vector.store %411, %231[%414] : memref<?xf32, #amdgpu.address_space<fat_raw_buffer>>, vector<1xf32>
        %415 = vector.extract_strided_slice %171 {offsets = [15], sizes = [1], strides = [1]} : vector<16xf32> to vector<1xf32>
        %416 = arith.andi %355, %347 : i1
        %417 = arith.addi %350, %117 overflow<nsw> : index
        %418 = arith.select %416, %417, %c536870911 : index
        vector.store %415, %231[%418] : memref<?xf32, #amdgpu.address_space<fat_raw_buffer>>, vector<1xf32>
        %419 = vector.extract_strided_slice %175 {offsets = [0], sizes = [1], strides = [1]} : vector<16xf32> to vector<1xf32>
        %420 = affine.apply #map67()[%thread_id_x, %block_id_y, %block_id_x, %3, %thread_id_y]
        %421 = arith.cmpi slt, %420, %217 : index
        %422 = arith.andi %421, %221 : i1
        %423 = arith.addi %227, %121 overflow<nsw> : index
        %424 = arith.select %422, %423, %c536870911 : index
        vector.store %419, %231[%424] : memref<?xf32, #amdgpu.address_space<fat_raw_buffer>>, vector<1xf32>
        %425 = vector.extract_strided_slice %175 {offsets = [1], sizes = [1], strides = [1]} : vector<16xf32> to vector<1xf32>
        %426 = arith.andi %421, %235 : i1
        %427 = arith.addi %238, %121 overflow<nsw> : index
        %428 = arith.select %426, %427, %c536870911 : index
        vector.store %425, %231[%428] : memref<?xf32, #amdgpu.address_space<fat_raw_buffer>>, vector<1xf32>
        %429 = vector.extract_strided_slice %175 {offsets = [2], sizes = [1], strides = [1]} : vector<16xf32> to vector<1xf32>
        %430 = arith.andi %421, %243 : i1
        %431 = arith.addi %246, %121 overflow<nsw> : index
        %432 = arith.select %430, %431, %c536870911 : index
        vector.store %429, %231[%432] : memref<?xf32, #amdgpu.address_space<fat_raw_buffer>>, vector<1xf32>
        %433 = vector.extract_strided_slice %175 {offsets = [3], sizes = [1], strides = [1]} : vector<16xf32> to vector<1xf32>
        %434 = arith.andi %421, %251 : i1
        %435 = arith.addi %254, %121 overflow<nsw> : index
        %436 = arith.select %434, %435, %c536870911 : index
        vector.store %433, %231[%436] : memref<?xf32, #amdgpu.address_space<fat_raw_buffer>>, vector<1xf32>
        %437 = vector.extract_strided_slice %175 {offsets = [4], sizes = [1], strides = [1]} : vector<16xf32> to vector<1xf32>
        %438 = arith.andi %421, %259 : i1
        %439 = arith.addi %262, %121 overflow<nsw> : index
        %440 = arith.select %438, %439, %c536870911 : index
        vector.store %437, %231[%440] : memref<?xf32, #amdgpu.address_space<fat_raw_buffer>>, vector<1xf32>
        %441 = vector.extract_strided_slice %175 {offsets = [5], sizes = [1], strides = [1]} : vector<16xf32> to vector<1xf32>
        %442 = arith.andi %421, %267 : i1
        %443 = arith.addi %270, %121 overflow<nsw> : index
        %444 = arith.select %442, %443, %c536870911 : index
        vector.store %441, %231[%444] : memref<?xf32, #amdgpu.address_space<fat_raw_buffer>>, vector<1xf32>
        %445 = vector.extract_strided_slice %175 {offsets = [6], sizes = [1], strides = [1]} : vector<16xf32> to vector<1xf32>
        %446 = arith.andi %421, %275 : i1
        %447 = arith.addi %278, %121 overflow<nsw> : index
        %448 = arith.select %446, %447, %c536870911 : index
        vector.store %445, %231[%448] : memref<?xf32, #amdgpu.address_space<fat_raw_buffer>>, vector<1xf32>
        %449 = vector.extract_strided_slice %175 {offsets = [7], sizes = [1], strides = [1]} : vector<16xf32> to vector<1xf32>
        %450 = arith.andi %421, %283 : i1
        %451 = arith.addi %286, %121 overflow<nsw> : index
        %452 = arith.select %450, %451, %c536870911 : index
        vector.store %449, %231[%452] : memref<?xf32, #amdgpu.address_space<fat_raw_buffer>>, vector<1xf32>
        %453 = vector.extract_strided_slice %175 {offsets = [8], sizes = [1], strides = [1]} : vector<16xf32> to vector<1xf32>
        %454 = arith.andi %421, %291 : i1
        %455 = arith.addi %294, %121 overflow<nsw> : index
        %456 = arith.select %454, %455, %c536870911 : index
        vector.store %453, %231[%456] : memref<?xf32, #amdgpu.address_space<fat_raw_buffer>>, vector<1xf32>
        %457 = vector.extract_strided_slice %175 {offsets = [9], sizes = [1], strides = [1]} : vector<16xf32> to vector<1xf32>
        %458 = arith.andi %421, %299 : i1
        %459 = arith.addi %302, %121 overflow<nsw> : index
        %460 = arith.select %458, %459, %c536870911 : index
        vector.store %457, %231[%460] : memref<?xf32, #amdgpu.address_space<fat_raw_buffer>>, vector<1xf32>
        %461 = vector.extract_strided_slice %175 {offsets = [10], sizes = [1], strides = [1]} : vector<16xf32> to vector<1xf32>
        %462 = arith.andi %421, %307 : i1
        %463 = arith.addi %310, %121 overflow<nsw> : index
        %464 = arith.select %462, %463, %c536870911 : index
        vector.store %461, %231[%464] : memref<?xf32, #amdgpu.address_space<fat_raw_buffer>>, vector<1xf32>
        %465 = vector.extract_strided_slice %175 {offsets = [11], sizes = [1], strides = [1]} : vector<16xf32> to vector<1xf32>
        %466 = arith.andi %421, %315 : i1
        %467 = arith.addi %318, %121 overflow<nsw> : index
        %468 = arith.select %466, %467, %c536870911 : index
        vector.store %465, %231[%468] : memref<?xf32, #amdgpu.address_space<fat_raw_buffer>>, vector<1xf32>
        %469 = vector.extract_strided_slice %175 {offsets = [12], sizes = [1], strides = [1]} : vector<16xf32> to vector<1xf32>
        %470 = arith.andi %421, %323 : i1
        %471 = arith.addi %326, %121 overflow<nsw> : index
        %472 = arith.select %470, %471, %c536870911 : index
        vector.store %469, %231[%472] : memref<?xf32, #amdgpu.address_space<fat_raw_buffer>>, vector<1xf32>
        %473 = vector.extract_strided_slice %175 {offsets = [13], sizes = [1], strides = [1]} : vector<16xf32> to vector<1xf32>
        %474 = arith.andi %421, %331 : i1
        %475 = arith.addi %334, %121 overflow<nsw> : index
        %476 = arith.select %474, %475, %c536870911 : index
        vector.store %473, %231[%476] : memref<?xf32, #amdgpu.address_space<fat_raw_buffer>>, vector<1xf32>
        %477 = vector.extract_strided_slice %175 {offsets = [14], sizes = [1], strides = [1]} : vector<16xf32> to vector<1xf32>
        %478 = arith.andi %421, %339 : i1
        %479 = arith.addi %342, %121 overflow<nsw> : index
        %480 = arith.select %478, %479, %c536870911 : index
        vector.store %477, %231[%480] : memref<?xf32, #amdgpu.address_space<fat_raw_buffer>>, vector<1xf32>
        %481 = vector.extract_strided_slice %175 {offsets = [15], sizes = [1], strides = [1]} : vector<16xf32> to vector<1xf32>
        %482 = arith.andi %421, %347 : i1
        %483 = arith.addi %350, %121 overflow<nsw> : index
        %484 = arith.select %482, %483, %c536870911 : index
        vector.store %481, %231[%484] : memref<?xf32, #amdgpu.address_space<fat_raw_buffer>>, vector<1xf32>
        %485 = vector.extract_strided_slice %179 {offsets = [0], sizes = [1], strides = [1]} : vector<16xf32> to vector<1xf32>
        %486 = affine.apply #map68()[%thread_id_x, %block_id_y, %block_id_x, %3, %thread_id_y]
        %487 = arith.cmpi slt, %486, %217 : index
        %488 = arith.andi %487, %221 : i1
        %489 = arith.addi %227, %125 overflow<nsw> : index
        %490 = arith.select %488, %489, %c536870911 : index
        vector.store %485, %231[%490] : memref<?xf32, #amdgpu.address_space<fat_raw_buffer>>, vector<1xf32>
        %491 = vector.extract_strided_slice %179 {offsets = [1], sizes = [1], strides = [1]} : vector<16xf32> to vector<1xf32>
        %492 = arith.andi %487, %235 : i1
        %493 = arith.addi %238, %125 overflow<nsw> : index
        %494 = arith.select %492, %493, %c536870911 : index
        vector.store %491, %231[%494] : memref<?xf32, #amdgpu.address_space<fat_raw_buffer>>, vector<1xf32>
        %495 = vector.extract_strided_slice %179 {offsets = [2], sizes = [1], strides = [1]} : vector<16xf32> to vector<1xf32>
        %496 = arith.andi %487, %243 : i1
        %497 = arith.addi %246, %125 overflow<nsw> : index
        %498 = arith.select %496, %497, %c536870911 : index
        vector.store %495, %231[%498] : memref<?xf32, #amdgpu.address_space<fat_raw_buffer>>, vector<1xf32>
        %499 = vector.extract_strided_slice %179 {offsets = [3], sizes = [1], strides = [1]} : vector<16xf32> to vector<1xf32>
        %500 = arith.andi %487, %251 : i1
        %501 = arith.addi %254, %125 overflow<nsw> : index
        %502 = arith.select %500, %501, %c536870911 : index
        vector.store %499, %231[%502] : memref<?xf32, #amdgpu.address_space<fat_raw_buffer>>, vector<1xf32>
        %503 = vector.extract_strided_slice %179 {offsets = [4], sizes = [1], strides = [1]} : vector<16xf32> to vector<1xf32>
        %504 = arith.andi %487, %259 : i1
        %505 = arith.addi %262, %125 overflow<nsw> : index
        %506 = arith.select %504, %505, %c536870911 : index
        vector.store %503, %231[%506] : memref<?xf32, #amdgpu.address_space<fat_raw_buffer>>, vector<1xf32>
        %507 = vector.extract_strided_slice %179 {offsets = [5], sizes = [1], strides = [1]} : vector<16xf32> to vector<1xf32>
        %508 = arith.andi %487, %267 : i1
        %509 = arith.addi %270, %125 overflow<nsw> : index
        %510 = arith.select %508, %509, %c536870911 : index
        vector.store %507, %231[%510] : memref<?xf32, #amdgpu.address_space<fat_raw_buffer>>, vector<1xf32>
        %511 = vector.extract_strided_slice %179 {offsets = [6], sizes = [1], strides = [1]} : vector<16xf32> to vector<1xf32>
        %512 = arith.andi %487, %275 : i1
        %513 = arith.addi %278, %125 overflow<nsw> : index
        %514 = arith.select %512, %513, %c536870911 : index
        vector.store %511, %231[%514] : memref<?xf32, #amdgpu.address_space<fat_raw_buffer>>, vector<1xf32>
        %515 = vector.extract_strided_slice %179 {offsets = [7], sizes = [1], strides = [1]} : vector<16xf32> to vector<1xf32>
        %516 = arith.andi %487, %283 : i1
        %517 = arith.addi %286, %125 overflow<nsw> : index
        %518 = arith.select %516, %517, %c536870911 : index
        vector.store %515, %231[%518] : memref<?xf32, #amdgpu.address_space<fat_raw_buffer>>, vector<1xf32>
        %519 = vector.extract_strided_slice %179 {offsets = [8], sizes = [1], strides = [1]} : vector<16xf32> to vector<1xf32>
        %520 = arith.andi %487, %291 : i1
        %521 = arith.addi %294, %125 overflow<nsw> : index
        %522 = arith.select %520, %521, %c536870911 : index
        vector.store %519, %231[%522] : memref<?xf32, #amdgpu.address_space<fat_raw_buffer>>, vector<1xf32>
        %523 = vector.extract_strided_slice %179 {offsets = [9], sizes = [1], strides = [1]} : vector<16xf32> to vector<1xf32>
        %524 = arith.andi %487, %299 : i1
        %525 = arith.addi %302, %125 overflow<nsw> : index
        %526 = arith.select %524, %525, %c536870911 : index
        vector.store %523, %231[%526] : memref<?xf32, #amdgpu.address_space<fat_raw_buffer>>, vector<1xf32>
        %527 = vector.extract_strided_slice %179 {offsets = [10], sizes = [1], strides = [1]} : vector<16xf32> to vector<1xf32>
        %528 = arith.andi %487, %307 : i1
        %529 = arith.addi %310, %125 overflow<nsw> : index
        %530 = arith.select %528, %529, %c536870911 : index
        vector.store %527, %231[%530] : memref<?xf32, #amdgpu.address_space<fat_raw_buffer>>, vector<1xf32>
        %531 = vector.extract_strided_slice %179 {offsets = [11], sizes = [1], strides = [1]} : vector<16xf32> to vector<1xf32>
        %532 = arith.andi %487, %315 : i1
        %533 = arith.addi %318, %125 overflow<nsw> : index
        %534 = arith.select %532, %533, %c536870911 : index
        vector.store %531, %231[%534] : memref<?xf32, #amdgpu.address_space<fat_raw_buffer>>, vector<1xf32>
        %535 = vector.extract_strided_slice %179 {offsets = [12], sizes = [1], strides = [1]} : vector<16xf32> to vector<1xf32>
        %536 = arith.andi %487, %323 : i1
        %537 = arith.addi %326, %125 overflow<nsw> : index
        %538 = arith.select %536, %537, %c536870911 : index
        vector.store %535, %231[%538] : memref<?xf32, #amdgpu.address_space<fat_raw_buffer>>, vector<1xf32>
        %539 = vector.extract_strided_slice %179 {offsets = [13], sizes = [1], strides = [1]} : vector<16xf32> to vector<1xf32>
        %540 = arith.andi %487, %331 : i1
        %541 = arith.addi %334, %125 overflow<nsw> : index
        %542 = arith.select %540, %541, %c536870911 : index
        vector.store %539, %231[%542] : memref<?xf32, #amdgpu.address_space<fat_raw_buffer>>, vector<1xf32>
        %543 = vector.extract_strided_slice %179 {offsets = [14], sizes = [1], strides = [1]} : vector<16xf32> to vector<1xf32>
        %544 = arith.andi %487, %339 : i1
        %545 = arith.addi %342, %125 overflow<nsw> : index
        %546 = arith.select %544, %545, %c536870911 : index
        vector.store %543, %231[%546] : memref<?xf32, #amdgpu.address_space<fat_raw_buffer>>, vector<1xf32>
        %547 = vector.extract_strided_slice %179 {offsets = [15], sizes = [1], strides = [1]} : vector<16xf32> to vector<1xf32>
        %548 = arith.andi %487, %347 : i1
        %549 = arith.addi %350, %125 overflow<nsw> : index
        %550 = arith.select %548, %549, %c536870911 : index
        vector.store %547, %231[%550] : memref<?xf32, #amdgpu.address_space<fat_raw_buffer>>, vector<1xf32>
        %551 = vector.extract_strided_slice %183 {offsets = [0], sizes = [1], strides = [1]} : vector<16xf32> to vector<1xf32>
        %552 = affine.apply #map69()[%thread_id_x, %block_id_y, %block_id_x, %3, %thread_id_y]
        %553 = arith.cmpi slt, %552, %217 : index
        %554 = arith.andi %553, %221 : i1
        %555 = arith.addi %227, %129 overflow<nsw> : index
        %556 = arith.select %554, %555, %c536870911 : index
        vector.store %551, %231[%556] : memref<?xf32, #amdgpu.address_space<fat_raw_buffer>>, vector<1xf32>
        %557 = vector.extract_strided_slice %183 {offsets = [1], sizes = [1], strides = [1]} : vector<16xf32> to vector<1xf32>
        %558 = arith.andi %553, %235 : i1
        %559 = arith.addi %238, %129 overflow<nsw> : index
        %560 = arith.select %558, %559, %c536870911 : index
        vector.store %557, %231[%560] : memref<?xf32, #amdgpu.address_space<fat_raw_buffer>>, vector<1xf32>
        %561 = vector.extract_strided_slice %183 {offsets = [2], sizes = [1], strides = [1]} : vector<16xf32> to vector<1xf32>
        %562 = arith.andi %553, %243 : i1
        %563 = arith.addi %246, %129 overflow<nsw> : index
        %564 = arith.select %562, %563, %c536870911 : index
        vector.store %561, %231[%564] : memref<?xf32, #amdgpu.address_space<fat_raw_buffer>>, vector<1xf32>
        %565 = vector.extract_strided_slice %183 {offsets = [3], sizes = [1], strides = [1]} : vector<16xf32> to vector<1xf32>
        %566 = arith.andi %553, %251 : i1
        %567 = arith.addi %254, %129 overflow<nsw> : index
        %568 = arith.select %566, %567, %c536870911 : index
        vector.store %565, %231[%568] : memref<?xf32, #amdgpu.address_space<fat_raw_buffer>>, vector<1xf32>
        %569 = vector.extract_strided_slice %183 {offsets = [4], sizes = [1], strides = [1]} : vector<16xf32> to vector<1xf32>
        %570 = arith.andi %553, %259 : i1
        %571 = arith.addi %262, %129 overflow<nsw> : index
        %572 = arith.select %570, %571, %c536870911 : index
        vector.store %569, %231[%572] : memref<?xf32, #amdgpu.address_space<fat_raw_buffer>>, vector<1xf32>
        %573 = vector.extract_strided_slice %183 {offsets = [5], sizes = [1], strides = [1]} : vector<16xf32> to vector<1xf32>
        %574 = arith.andi %553, %267 : i1
        %575 = arith.addi %270, %129 overflow<nsw> : index
        %576 = arith.select %574, %575, %c536870911 : index
        vector.store %573, %231[%576] : memref<?xf32, #amdgpu.address_space<fat_raw_buffer>>, vector<1xf32>
        %577 = vector.extract_strided_slice %183 {offsets = [6], sizes = [1], strides = [1]} : vector<16xf32> to vector<1xf32>
        %578 = arith.andi %553, %275 : i1
        %579 = arith.addi %278, %129 overflow<nsw> : index
        %580 = arith.select %578, %579, %c536870911 : index
        vector.store %577, %231[%580] : memref<?xf32, #amdgpu.address_space<fat_raw_buffer>>, vector<1xf32>
        %581 = vector.extract_strided_slice %183 {offsets = [7], sizes = [1], strides = [1]} : vector<16xf32> to vector<1xf32>
        %582 = arith.andi %553, %283 : i1
        %583 = arith.addi %286, %129 overflow<nsw> : index
        %584 = arith.select %582, %583, %c536870911 : index
        vector.store %581, %231[%584] : memref<?xf32, #amdgpu.address_space<fat_raw_buffer>>, vector<1xf32>
        %585 = vector.extract_strided_slice %183 {offsets = [8], sizes = [1], strides = [1]} : vector<16xf32> to vector<1xf32>
        %586 = arith.andi %553, %291 : i1
        %587 = arith.addi %294, %129 overflow<nsw> : index
        %588 = arith.select %586, %587, %c536870911 : index
        vector.store %585, %231[%588] : memref<?xf32, #amdgpu.address_space<fat_raw_buffer>>, vector<1xf32>
        %589 = vector.extract_strided_slice %183 {offsets = [9], sizes = [1], strides = [1]} : vector<16xf32> to vector<1xf32>
        %590 = arith.andi %553, %299 : i1
        %591 = arith.addi %302, %129 overflow<nsw> : index
        %592 = arith.select %590, %591, %c536870911 : index
        vector.store %589, %231[%592] : memref<?xf32, #amdgpu.address_space<fat_raw_buffer>>, vector<1xf32>
        %593 = vector.extract_strided_slice %183 {offsets = [10], sizes = [1], strides = [1]} : vector<16xf32> to vector<1xf32>
        %594 = arith.andi %553, %307 : i1
        %595 = arith.addi %310, %129 overflow<nsw> : index
        %596 = arith.select %594, %595, %c536870911 : index
        vector.store %593, %231[%596] : memref<?xf32, #amdgpu.address_space<fat_raw_buffer>>, vector<1xf32>
        %597 = vector.extract_strided_slice %183 {offsets = [11], sizes = [1], strides = [1]} : vector<16xf32> to vector<1xf32>
        %598 = arith.andi %553, %315 : i1
        %599 = arith.addi %318, %129 overflow<nsw> : index
        %600 = arith.select %598, %599, %c536870911 : index
        vector.store %597, %231[%600] : memref<?xf32, #amdgpu.address_space<fat_raw_buffer>>, vector<1xf32>
        %601 = vector.extract_strided_slice %183 {offsets = [12], sizes = [1], strides = [1]} : vector<16xf32> to vector<1xf32>
        %602 = arith.andi %553, %323 : i1
        %603 = arith.addi %326, %129 overflow<nsw> : index
        %604 = arith.select %602, %603, %c536870911 : index
        vector.store %601, %231[%604] : memref<?xf32, #amdgpu.address_space<fat_raw_buffer>>, vector<1xf32>
        %605 = vector.extract_strided_slice %183 {offsets = [13], sizes = [1], strides = [1]} : vector<16xf32> to vector<1xf32>
        %606 = arith.andi %553, %331 : i1
        %607 = arith.addi %334, %129 overflow<nsw> : index
        %608 = arith.select %606, %607, %c536870911 : index
        vector.store %605, %231[%608] : memref<?xf32, #amdgpu.address_space<fat_raw_buffer>>, vector<1xf32>
        %609 = vector.extract_strided_slice %183 {offsets = [14], sizes = [1], strides = [1]} : vector<16xf32> to vector<1xf32>
        %610 = arith.andi %553, %339 : i1
        %611 = arith.addi %342, %129 overflow<nsw> : index
        %612 = arith.select %610, %611, %c536870911 : index
        vector.store %609, %231[%612] : memref<?xf32, #amdgpu.address_space<fat_raw_buffer>>, vector<1xf32>
        %613 = vector.extract_strided_slice %183 {offsets = [15], sizes = [1], strides = [1]} : vector<16xf32> to vector<1xf32>
        %614 = arith.andi %553, %347 : i1
        %615 = arith.addi %350, %129 overflow<nsw> : index
        %616 = arith.select %614, %615, %c536870911 : index
        vector.store %613, %231[%616] : memref<?xf32, #amdgpu.address_space<fat_raw_buffer>>, vector<1xf32>
        %617 = vector.extract_strided_slice %187 {offsets = [0], sizes = [1], strides = [1]} : vector<16xf32> to vector<1xf32>
        %618 = affine.apply #map70()[%thread_id_x, %block_id_y, %block_id_x, %3, %thread_id_y]
        %619 = arith.cmpi slt, %618, %217 : index
        %620 = arith.andi %619, %221 : i1
        %621 = arith.addi %227, %133 overflow<nsw> : index
        %622 = arith.select %620, %621, %c536870911 : index
        vector.store %617, %231[%622] : memref<?xf32, #amdgpu.address_space<fat_raw_buffer>>, vector<1xf32>
        %623 = vector.extract_strided_slice %187 {offsets = [1], sizes = [1], strides = [1]} : vector<16xf32> to vector<1xf32>
        %624 = arith.andi %619, %235 : i1
        %625 = arith.addi %238, %133 overflow<nsw> : index
        %626 = arith.select %624, %625, %c536870911 : index
        vector.store %623, %231[%626] : memref<?xf32, #amdgpu.address_space<fat_raw_buffer>>, vector<1xf32>
        %627 = vector.extract_strided_slice %187 {offsets = [2], sizes = [1], strides = [1]} : vector<16xf32> to vector<1xf32>
        %628 = arith.andi %619, %243 : i1
        %629 = arith.addi %246, %133 overflow<nsw> : index
        %630 = arith.select %628, %629, %c536870911 : index
        vector.store %627, %231[%630] : memref<?xf32, #amdgpu.address_space<fat_raw_buffer>>, vector<1xf32>
        %631 = vector.extract_strided_slice %187 {offsets = [3], sizes = [1], strides = [1]} : vector<16xf32> to vector<1xf32>
        %632 = arith.andi %619, %251 : i1
        %633 = arith.addi %254, %133 overflow<nsw> : index
        %634 = arith.select %632, %633, %c536870911 : index
        vector.store %631, %231[%634] : memref<?xf32, #amdgpu.address_space<fat_raw_buffer>>, vector<1xf32>
        %635 = vector.extract_strided_slice %187 {offsets = [4], sizes = [1], strides = [1]} : vector<16xf32> to vector<1xf32>
        %636 = arith.andi %619, %259 : i1
        %637 = arith.addi %262, %133 overflow<nsw> : index
        %638 = arith.select %636, %637, %c536870911 : index
        vector.store %635, %231[%638] : memref<?xf32, #amdgpu.address_space<fat_raw_buffer>>, vector<1xf32>
        %639 = vector.extract_strided_slice %187 {offsets = [5], sizes = [1], strides = [1]} : vector<16xf32> to vector<1xf32>
        %640 = arith.andi %619, %267 : i1
        %641 = arith.addi %270, %133 overflow<nsw> : index
        %642 = arith.select %640, %641, %c536870911 : index
        vector.store %639, %231[%642] : memref<?xf32, #amdgpu.address_space<fat_raw_buffer>>, vector<1xf32>
        %643 = vector.extract_strided_slice %187 {offsets = [6], sizes = [1], strides = [1]} : vector<16xf32> to vector<1xf32>
        %644 = arith.andi %619, %275 : i1
        %645 = arith.addi %278, %133 overflow<nsw> : index
        %646 = arith.select %644, %645, %c536870911 : index
        vector.store %643, %231[%646] : memref<?xf32, #amdgpu.address_space<fat_raw_buffer>>, vector<1xf32>
        %647 = vector.extract_strided_slice %187 {offsets = [7], sizes = [1], strides = [1]} : vector<16xf32> to vector<1xf32>
        %648 = arith.andi %619, %283 : i1
        %649 = arith.addi %286, %133 overflow<nsw> : index
        %650 = arith.select %648, %649, %c536870911 : index
        vector.store %647, %231[%650] : memref<?xf32, #amdgpu.address_space<fat_raw_buffer>>, vector<1xf32>
        %651 = vector.extract_strided_slice %187 {offsets = [8], sizes = [1], strides = [1]} : vector<16xf32> to vector<1xf32>
        %652 = arith.andi %619, %291 : i1
        %653 = arith.addi %294, %133 overflow<nsw> : index
        %654 = arith.select %652, %653, %c536870911 : index
        vector.store %651, %231[%654] : memref<?xf32, #amdgpu.address_space<fat_raw_buffer>>, vector<1xf32>
        %655 = vector.extract_strided_slice %187 {offsets = [9], sizes = [1], strides = [1]} : vector<16xf32> to vector<1xf32>
        %656 = arith.andi %619, %299 : i1
        %657 = arith.addi %302, %133 overflow<nsw> : index
        %658 = arith.select %656, %657, %c536870911 : index
        vector.store %655, %231[%658] : memref<?xf32, #amdgpu.address_space<fat_raw_buffer>>, vector<1xf32>
        %659 = vector.extract_strided_slice %187 {offsets = [10], sizes = [1], strides = [1]} : vector<16xf32> to vector<1xf32>
        %660 = arith.andi %619, %307 : i1
        %661 = arith.addi %310, %133 overflow<nsw> : index
        %662 = arith.select %660, %661, %c536870911 : index
        vector.store %659, %231[%662] : memref<?xf32, #amdgpu.address_space<fat_raw_buffer>>, vector<1xf32>
        %663 = vector.extract_strided_slice %187 {offsets = [11], sizes = [1], strides = [1]} : vector<16xf32> to vector<1xf32>
        %664 = arith.andi %619, %315 : i1
        %665 = arith.addi %318, %133 overflow<nsw> : index
        %666 = arith.select %664, %665, %c536870911 : index
        vector.store %663, %231[%666] : memref<?xf32, #amdgpu.address_space<fat_raw_buffer>>, vector<1xf32>
        %667 = vector.extract_strided_slice %187 {offsets = [12], sizes = [1], strides = [1]} : vector<16xf32> to vector<1xf32>
        %668 = arith.andi %619, %323 : i1
        %669 = arith.addi %326, %133 overflow<nsw> : index
        %670 = arith.select %668, %669, %c536870911 : index
        vector.store %667, %231[%670] : memref<?xf32, #amdgpu.address_space<fat_raw_buffer>>, vector<1xf32>
        %671 = vector.extract_strided_slice %187 {offsets = [13], sizes = [1], strides = [1]} : vector<16xf32> to vector<1xf32>
        %672 = arith.andi %619, %331 : i1
        %673 = arith.addi %334, %133 overflow<nsw> : index
        %674 = arith.select %672, %673, %c536870911 : index
        vector.store %671, %231[%674] : memref<?xf32, #amdgpu.address_space<fat_raw_buffer>>, vector<1xf32>
        %675 = vector.extract_strided_slice %187 {offsets = [14], sizes = [1], strides = [1]} : vector<16xf32> to vector<1xf32>
        %676 = arith.andi %619, %339 : i1
        %677 = arith.addi %342, %133 overflow<nsw> : index
        %678 = arith.select %676, %677, %c536870911 : index
        vector.store %675, %231[%678] : memref<?xf32, #amdgpu.address_space<fat_raw_buffer>>, vector<1xf32>
        %679 = vector.extract_strided_slice %187 {offsets = [15], sizes = [1], strides = [1]} : vector<16xf32> to vector<1xf32>
        %680 = arith.andi %619, %347 : i1
        %681 = arith.addi %350, %133 overflow<nsw> : index
        %682 = arith.select %680, %681, %c536870911 : index
        vector.store %679, %231[%682] : memref<?xf32, #amdgpu.address_space<fat_raw_buffer>>, vector<1xf32>
        %683 = vector.extract_strided_slice %191 {offsets = [0], sizes = [1], strides = [1]} : vector<16xf32> to vector<1xf32>
        %684 = affine.apply #map71()[%thread_id_x, %block_id_y, %block_id_x, %3, %thread_id_y]
        %685 = arith.cmpi slt, %684, %217 : index
        %686 = arith.andi %685, %221 : i1
        %687 = arith.addi %227, %137 overflow<nsw> : index
        %688 = arith.select %686, %687, %c536870911 : index
        vector.store %683, %231[%688] : memref<?xf32, #amdgpu.address_space<fat_raw_buffer>>, vector<1xf32>
        %689 = vector.extract_strided_slice %191 {offsets = [1], sizes = [1], strides = [1]} : vector<16xf32> to vector<1xf32>
        %690 = arith.andi %685, %235 : i1
        %691 = arith.addi %238, %137 overflow<nsw> : index
        %692 = arith.select %690, %691, %c536870911 : index
        vector.store %689, %231[%692] : memref<?xf32, #amdgpu.address_space<fat_raw_buffer>>, vector<1xf32>
        %693 = vector.extract_strided_slice %191 {offsets = [2], sizes = [1], strides = [1]} : vector<16xf32> to vector<1xf32>
        %694 = arith.andi %685, %243 : i1
        %695 = arith.addi %246, %137 overflow<nsw> : index
        %696 = arith.select %694, %695, %c536870911 : index
        vector.store %693, %231[%696] : memref<?xf32, #amdgpu.address_space<fat_raw_buffer>>, vector<1xf32>
        %697 = vector.extract_strided_slice %191 {offsets = [3], sizes = [1], strides = [1]} : vector<16xf32> to vector<1xf32>
        %698 = arith.andi %685, %251 : i1
        %699 = arith.addi %254, %137 overflow<nsw> : index
        %700 = arith.select %698, %699, %c536870911 : index
        vector.store %697, %231[%700] : memref<?xf32, #amdgpu.address_space<fat_raw_buffer>>, vector<1xf32>
        %701 = vector.extract_strided_slice %191 {offsets = [4], sizes = [1], strides = [1]} : vector<16xf32> to vector<1xf32>
        %702 = arith.andi %685, %259 : i1
        %703 = arith.addi %262, %137 overflow<nsw> : index
        %704 = arith.select %702, %703, %c536870911 : index
        vector.store %701, %231[%704] : memref<?xf32, #amdgpu.address_space<fat_raw_buffer>>, vector<1xf32>
        %705 = vector.extract_strided_slice %191 {offsets = [5], sizes = [1], strides = [1]} : vector<16xf32> to vector<1xf32>
        %706 = arith.andi %685, %267 : i1
        %707 = arith.addi %270, %137 overflow<nsw> : index
        %708 = arith.select %706, %707, %c536870911 : index
        vector.store %705, %231[%708] : memref<?xf32, #amdgpu.address_space<fat_raw_buffer>>, vector<1xf32>
        %709 = vector.extract_strided_slice %191 {offsets = [6], sizes = [1], strides = [1]} : vector<16xf32> to vector<1xf32>
        %710 = arith.andi %685, %275 : i1
        %711 = arith.addi %278, %137 overflow<nsw> : index
        %712 = arith.select %710, %711, %c536870911 : index
        vector.store %709, %231[%712] : memref<?xf32, #amdgpu.address_space<fat_raw_buffer>>, vector<1xf32>
        %713 = vector.extract_strided_slice %191 {offsets = [7], sizes = [1], strides = [1]} : vector<16xf32> to vector<1xf32>
        %714 = arith.andi %685, %283 : i1
        %715 = arith.addi %286, %137 overflow<nsw> : index
        %716 = arith.select %714, %715, %c536870911 : index
        vector.store %713, %231[%716] : memref<?xf32, #amdgpu.address_space<fat_raw_buffer>>, vector<1xf32>
        %717 = vector.extract_strided_slice %191 {offsets = [8], sizes = [1], strides = [1]} : vector<16xf32> to vector<1xf32>
        %718 = arith.andi %685, %291 : i1
        %719 = arith.addi %294, %137 overflow<nsw> : index
        %720 = arith.select %718, %719, %c536870911 : index
        vector.store %717, %231[%720] : memref<?xf32, #amdgpu.address_space<fat_raw_buffer>>, vector<1xf32>
        %721 = vector.extract_strided_slice %191 {offsets = [9], sizes = [1], strides = [1]} : vector<16xf32> to vector<1xf32>
        %722 = arith.andi %685, %299 : i1
        %723 = arith.addi %302, %137 overflow<nsw> : index
        %724 = arith.select %722, %723, %c536870911 : index
        vector.store %721, %231[%724] : memref<?xf32, #amdgpu.address_space<fat_raw_buffer>>, vector<1xf32>
        %725 = vector.extract_strided_slice %191 {offsets = [10], sizes = [1], strides = [1]} : vector<16xf32> to vector<1xf32>
        %726 = arith.andi %685, %307 : i1
        %727 = arith.addi %310, %137 overflow<nsw> : index
        %728 = arith.select %726, %727, %c536870911 : index
        vector.store %725, %231[%728] : memref<?xf32, #amdgpu.address_space<fat_raw_buffer>>, vector<1xf32>
        %729 = vector.extract_strided_slice %191 {offsets = [11], sizes = [1], strides = [1]} : vector<16xf32> to vector<1xf32>
        %730 = arith.andi %685, %315 : i1
        %731 = arith.addi %318, %137 overflow<nsw> : index
        %732 = arith.select %730, %731, %c536870911 : index
        vector.store %729, %231[%732] : memref<?xf32, #amdgpu.address_space<fat_raw_buffer>>, vector<1xf32>
        %733 = vector.extract_strided_slice %191 {offsets = [12], sizes = [1], strides = [1]} : vector<16xf32> to vector<1xf32>
        %734 = arith.andi %685, %323 : i1
        %735 = arith.addi %326, %137 overflow<nsw> : index
        %736 = arith.select %734, %735, %c536870911 : index
        vector.store %733, %231[%736] : memref<?xf32, #amdgpu.address_space<fat_raw_buffer>>, vector<1xf32>
        %737 = vector.extract_strided_slice %191 {offsets = [13], sizes = [1], strides = [1]} : vector<16xf32> to vector<1xf32>
        %738 = arith.andi %685, %331 : i1
        %739 = arith.addi %334, %137 overflow<nsw> : index
        %740 = arith.select %738, %739, %c536870911 : index
        vector.store %737, %231[%740] : memref<?xf32, #amdgpu.address_space<fat_raw_buffer>>, vector<1xf32>
        %741 = vector.extract_strided_slice %191 {offsets = [14], sizes = [1], strides = [1]} : vector<16xf32> to vector<1xf32>
        %742 = arith.andi %685, %339 : i1
        %743 = arith.addi %342, %137 overflow<nsw> : index
        %744 = arith.select %742, %743, %c536870911 : index
        vector.store %741, %231[%744] : memref<?xf32, #amdgpu.address_space<fat_raw_buffer>>, vector<1xf32>
        %745 = vector.extract_strided_slice %191 {offsets = [15], sizes = [1], strides = [1]} : vector<16xf32> to vector<1xf32>
        %746 = arith.andi %685, %347 : i1
        %747 = arith.addi %350, %137 overflow<nsw> : index
        %748 = arith.select %746, %747, %c536870911 : index
        vector.store %745, %231[%748] : memref<?xf32, #amdgpu.address_space<fat_raw_buffer>>, vector<1xf32>
        %749 = vector.extract_strided_slice %195 {offsets = [0], sizes = [1], strides = [1]} : vector<16xf32> to vector<1xf32>
        %750 = affine.apply #map72()[%thread_id_x, %block_id_y, %block_id_x, %3, %thread_id_y]
        %751 = arith.cmpi slt, %750, %217 : index
        %752 = arith.andi %751, %221 : i1
        %753 = arith.addi %227, %141 overflow<nsw> : index
        %754 = arith.select %752, %753, %c536870911 : index
        vector.store %749, %231[%754] : memref<?xf32, #amdgpu.address_space<fat_raw_buffer>>, vector<1xf32>
        %755 = vector.extract_strided_slice %195 {offsets = [1], sizes = [1], strides = [1]} : vector<16xf32> to vector<1xf32>
        %756 = arith.andi %751, %235 : i1
        %757 = arith.addi %238, %141 overflow<nsw> : index
        %758 = arith.select %756, %757, %c536870911 : index
        vector.store %755, %231[%758] : memref<?xf32, #amdgpu.address_space<fat_raw_buffer>>, vector<1xf32>
        %759 = vector.extract_strided_slice %195 {offsets = [2], sizes = [1], strides = [1]} : vector<16xf32> to vector<1xf32>
        %760 = arith.andi %751, %243 : i1
        %761 = arith.addi %246, %141 overflow<nsw> : index
        %762 = arith.select %760, %761, %c536870911 : index
        vector.store %759, %231[%762] : memref<?xf32, #amdgpu.address_space<fat_raw_buffer>>, vector<1xf32>
        %763 = vector.extract_strided_slice %195 {offsets = [3], sizes = [1], strides = [1]} : vector<16xf32> to vector<1xf32>
        %764 = arith.andi %751, %251 : i1
        %765 = arith.addi %254, %141 overflow<nsw> : index
        %766 = arith.select %764, %765, %c536870911 : index
        vector.store %763, %231[%766] : memref<?xf32, #amdgpu.address_space<fat_raw_buffer>>, vector<1xf32>
        %767 = vector.extract_strided_slice %195 {offsets = [4], sizes = [1], strides = [1]} : vector<16xf32> to vector<1xf32>
        %768 = arith.andi %751, %259 : i1
        %769 = arith.addi %262, %141 overflow<nsw> : index
        %770 = arith.select %768, %769, %c536870911 : index
        vector.store %767, %231[%770] : memref<?xf32, #amdgpu.address_space<fat_raw_buffer>>, vector<1xf32>
        %771 = vector.extract_strided_slice %195 {offsets = [5], sizes = [1], strides = [1]} : vector<16xf32> to vector<1xf32>
        %772 = arith.andi %751, %267 : i1
        %773 = arith.addi %270, %141 overflow<nsw> : index
        %774 = arith.select %772, %773, %c536870911 : index
        vector.store %771, %231[%774] : memref<?xf32, #amdgpu.address_space<fat_raw_buffer>>, vector<1xf32>
        %775 = vector.extract_strided_slice %195 {offsets = [6], sizes = [1], strides = [1]} : vector<16xf32> to vector<1xf32>
        %776 = arith.andi %751, %275 : i1
        %777 = arith.addi %278, %141 overflow<nsw> : index
        %778 = arith.select %776, %777, %c536870911 : index
        vector.store %775, %231[%778] : memref<?xf32, #amdgpu.address_space<fat_raw_buffer>>, vector<1xf32>
        %779 = vector.extract_strided_slice %195 {offsets = [7], sizes = [1], strides = [1]} : vector<16xf32> to vector<1xf32>
        %780 = arith.andi %751, %283 : i1
        %781 = arith.addi %286, %141 overflow<nsw> : index
        %782 = arith.select %780, %781, %c536870911 : index
        vector.store %779, %231[%782] : memref<?xf32, #amdgpu.address_space<fat_raw_buffer>>, vector<1xf32>
        %783 = vector.extract_strided_slice %195 {offsets = [8], sizes = [1], strides = [1]} : vector<16xf32> to vector<1xf32>
        %784 = arith.andi %751, %291 : i1
        %785 = arith.addi %294, %141 overflow<nsw> : index
        %786 = arith.select %784, %785, %c536870911 : index
        vector.store %783, %231[%786] : memref<?xf32, #amdgpu.address_space<fat_raw_buffer>>, vector<1xf32>
        %787 = vector.extract_strided_slice %195 {offsets = [9], sizes = [1], strides = [1]} : vector<16xf32> to vector<1xf32>
        %788 = arith.andi %751, %299 : i1
        %789 = arith.addi %302, %141 overflow<nsw> : index
        %790 = arith.select %788, %789, %c536870911 : index
        vector.store %787, %231[%790] : memref<?xf32, #amdgpu.address_space<fat_raw_buffer>>, vector<1xf32>
        %791 = vector.extract_strided_slice %195 {offsets = [10], sizes = [1], strides = [1]} : vector<16xf32> to vector<1xf32>
        %792 = arith.andi %751, %307 : i1
        %793 = arith.addi %310, %141 overflow<nsw> : index
        %794 = arith.select %792, %793, %c536870911 : index
        vector.store %791, %231[%794] : memref<?xf32, #amdgpu.address_space<fat_raw_buffer>>, vector<1xf32>
        %795 = vector.extract_strided_slice %195 {offsets = [11], sizes = [1], strides = [1]} : vector<16xf32> to vector<1xf32>
        %796 = arith.andi %751, %315 : i1
        %797 = arith.addi %318, %141 overflow<nsw> : index
        %798 = arith.select %796, %797, %c536870911 : index
        vector.store %795, %231[%798] : memref<?xf32, #amdgpu.address_space<fat_raw_buffer>>, vector<1xf32>
        %799 = vector.extract_strided_slice %195 {offsets = [12], sizes = [1], strides = [1]} : vector<16xf32> to vector<1xf32>
        %800 = arith.andi %751, %323 : i1
        %801 = arith.addi %326, %141 overflow<nsw> : index
        %802 = arith.select %800, %801, %c536870911 : index
        vector.store %799, %231[%802] : memref<?xf32, #amdgpu.address_space<fat_raw_buffer>>, vector<1xf32>
        %803 = vector.extract_strided_slice %195 {offsets = [13], sizes = [1], strides = [1]} : vector<16xf32> to vector<1xf32>
        %804 = arith.andi %751, %331 : i1
        %805 = arith.addi %334, %141 overflow<nsw> : index
        %806 = arith.select %804, %805, %c536870911 : index
        vector.store %803, %231[%806] : memref<?xf32, #amdgpu.address_space<fat_raw_buffer>>, vector<1xf32>
        %807 = vector.extract_strided_slice %195 {offsets = [14], sizes = [1], strides = [1]} : vector<16xf32> to vector<1xf32>
        %808 = arith.andi %751, %339 : i1
        %809 = arith.addi %342, %141 overflow<nsw> : index
        %810 = arith.select %808, %809, %c536870911 : index
        vector.store %807, %231[%810] : memref<?xf32, #amdgpu.address_space<fat_raw_buffer>>, vector<1xf32>
        %811 = vector.extract_strided_slice %195 {offsets = [15], sizes = [1], strides = [1]} : vector<16xf32> to vector<1xf32>
        %812 = arith.andi %751, %347 : i1
        %813 = arith.addi %350, %141 overflow<nsw> : index
        %814 = arith.select %812, %813, %c536870911 : index
        vector.store %811, %231[%814] : memref<?xf32, #amdgpu.address_space<fat_raw_buffer>>, vector<1xf32>
        %815 = vector.extract_strided_slice %199 {offsets = [0], sizes = [1], strides = [1]} : vector<16xf32> to vector<1xf32>
        %816 = affine.apply #map73()[%thread_id_x, %block_id_y, %block_id_x, %3, %thread_id_y]
        %817 = arith.cmpi slt, %816, %217 : index
        %818 = arith.andi %817, %221 : i1
        %819 = arith.addi %227, %145 overflow<nsw> : index
        %820 = arith.select %818, %819, %c536870911 : index
        vector.store %815, %231[%820] : memref<?xf32, #amdgpu.address_space<fat_raw_buffer>>, vector<1xf32>
        %821 = vector.extract_strided_slice %199 {offsets = [1], sizes = [1], strides = [1]} : vector<16xf32> to vector<1xf32>
        %822 = arith.andi %817, %235 : i1
        %823 = arith.addi %238, %145 overflow<nsw> : index
        %824 = arith.select %822, %823, %c536870911 : index
        vector.store %821, %231[%824] : memref<?xf32, #amdgpu.address_space<fat_raw_buffer>>, vector<1xf32>
        %825 = vector.extract_strided_slice %199 {offsets = [2], sizes = [1], strides = [1]} : vector<16xf32> to vector<1xf32>
        %826 = arith.andi %817, %243 : i1
        %827 = arith.addi %246, %145 overflow<nsw> : index
        %828 = arith.select %826, %827, %c536870911 : index
        vector.store %825, %231[%828] : memref<?xf32, #amdgpu.address_space<fat_raw_buffer>>, vector<1xf32>
        %829 = vector.extract_strided_slice %199 {offsets = [3], sizes = [1], strides = [1]} : vector<16xf32> to vector<1xf32>
        %830 = arith.andi %817, %251 : i1
        %831 = arith.addi %254, %145 overflow<nsw> : index
        %832 = arith.select %830, %831, %c536870911 : index
        vector.store %829, %231[%832] : memref<?xf32, #amdgpu.address_space<fat_raw_buffer>>, vector<1xf32>
        %833 = vector.extract_strided_slice %199 {offsets = [4], sizes = [1], strides = [1]} : vector<16xf32> to vector<1xf32>
        %834 = arith.andi %817, %259 : i1
        %835 = arith.addi %262, %145 overflow<nsw> : index
        %836 = arith.select %834, %835, %c536870911 : index
        vector.store %833, %231[%836] : memref<?xf32, #amdgpu.address_space<fat_raw_buffer>>, vector<1xf32>
        %837 = vector.extract_strided_slice %199 {offsets = [5], sizes = [1], strides = [1]} : vector<16xf32> to vector<1xf32>
        %838 = arith.andi %817, %267 : i1
        %839 = arith.addi %270, %145 overflow<nsw> : index
        %840 = arith.select %838, %839, %c536870911 : index
        vector.store %837, %231[%840] : memref<?xf32, #amdgpu.address_space<fat_raw_buffer>>, vector<1xf32>
        %841 = vector.extract_strided_slice %199 {offsets = [6], sizes = [1], strides = [1]} : vector<16xf32> to vector<1xf32>
        %842 = arith.andi %817, %275 : i1
        %843 = arith.addi %278, %145 overflow<nsw> : index
        %844 = arith.select %842, %843, %c536870911 : index
        vector.store %841, %231[%844] : memref<?xf32, #amdgpu.address_space<fat_raw_buffer>>, vector<1xf32>
        %845 = vector.extract_strided_slice %199 {offsets = [7], sizes = [1], strides = [1]} : vector<16xf32> to vector<1xf32>
        %846 = arith.andi %817, %283 : i1
        %847 = arith.addi %286, %145 overflow<nsw> : index
        %848 = arith.select %846, %847, %c536870911 : index
        vector.store %845, %231[%848] : memref<?xf32, #amdgpu.address_space<fat_raw_buffer>>, vector<1xf32>
        %849 = vector.extract_strided_slice %199 {offsets = [8], sizes = [1], strides = [1]} : vector<16xf32> to vector<1xf32>
        %850 = arith.andi %817, %291 : i1
        %851 = arith.addi %294, %145 overflow<nsw> : index
        %852 = arith.select %850, %851, %c536870911 : index
        vector.store %849, %231[%852] : memref<?xf32, #amdgpu.address_space<fat_raw_buffer>>, vector<1xf32>
        %853 = vector.extract_strided_slice %199 {offsets = [9], sizes = [1], strides = [1]} : vector<16xf32> to vector<1xf32>
        %854 = arith.andi %817, %299 : i1
        %855 = arith.addi %302, %145 overflow<nsw> : index
        %856 = arith.select %854, %855, %c536870911 : index
        vector.store %853, %231[%856] : memref<?xf32, #amdgpu.address_space<fat_raw_buffer>>, vector<1xf32>
        %857 = vector.extract_strided_slice %199 {offsets = [10], sizes = [1], strides = [1]} : vector<16xf32> to vector<1xf32>
        %858 = arith.andi %817, %307 : i1
        %859 = arith.addi %310, %145 overflow<nsw> : index
        %860 = arith.select %858, %859, %c536870911 : index
        vector.store %857, %231[%860] : memref<?xf32, #amdgpu.address_space<fat_raw_buffer>>, vector<1xf32>
        %861 = vector.extract_strided_slice %199 {offsets = [11], sizes = [1], strides = [1]} : vector<16xf32> to vector<1xf32>
        %862 = arith.andi %817, %315 : i1
        %863 = arith.addi %318, %145 overflow<nsw> : index
        %864 = arith.select %862, %863, %c536870911 : index
        vector.store %861, %231[%864] : memref<?xf32, #amdgpu.address_space<fat_raw_buffer>>, vector<1xf32>
        %865 = vector.extract_strided_slice %199 {offsets = [12], sizes = [1], strides = [1]} : vector<16xf32> to vector<1xf32>
        %866 = arith.andi %817, %323 : i1
        %867 = arith.addi %326, %145 overflow<nsw> : index
        %868 = arith.select %866, %867, %c536870911 : index
        vector.store %865, %231[%868] : memref<?xf32, #amdgpu.address_space<fat_raw_buffer>>, vector<1xf32>
        %869 = vector.extract_strided_slice %199 {offsets = [13], sizes = [1], strides = [1]} : vector<16xf32> to vector<1xf32>
        %870 = arith.andi %817, %331 : i1
        %871 = arith.addi %334, %145 overflow<nsw> : index
        %872 = arith.select %870, %871, %c536870911 : index
        vector.store %869, %231[%872] : memref<?xf32, #amdgpu.address_space<fat_raw_buffer>>, vector<1xf32>
        %873 = vector.extract_strided_slice %199 {offsets = [14], sizes = [1], strides = [1]} : vector<16xf32> to vector<1xf32>
        %874 = arith.andi %817, %339 : i1
        %875 = arith.addi %342, %145 overflow<nsw> : index
        %876 = arith.select %874, %875, %c536870911 : index
        vector.store %873, %231[%876] : memref<?xf32, #amdgpu.address_space<fat_raw_buffer>>, vector<1xf32>
        %877 = vector.extract_strided_slice %199 {offsets = [15], sizes = [1], strides = [1]} : vector<16xf32> to vector<1xf32>
        %878 = arith.andi %817, %347 : i1
        %879 = arith.addi %350, %145 overflow<nsw> : index
        %880 = arith.select %878, %879, %c536870911 : index
        vector.store %877, %231[%880] : memref<?xf32, #amdgpu.address_space<fat_raw_buffer>>, vector<1xf32>
        %881 = vector.extract_strided_slice %203 {offsets = [0], sizes = [1], strides = [1]} : vector<16xf32> to vector<1xf32>
        %882 = affine.apply #map74()[%thread_id_x, %block_id_y, %block_id_x, %3, %thread_id_y]
        %883 = arith.cmpi slt, %882, %217 : index
        %884 = arith.andi %883, %221 : i1
        %885 = arith.addi %227, %149 overflow<nsw> : index
        %886 = arith.select %884, %885, %c536870911 : index
        vector.store %881, %231[%886] : memref<?xf32, #amdgpu.address_space<fat_raw_buffer>>, vector<1xf32>
        %887 = vector.extract_strided_slice %203 {offsets = [1], sizes = [1], strides = [1]} : vector<16xf32> to vector<1xf32>
        %888 = arith.andi %883, %235 : i1
        %889 = arith.addi %238, %149 overflow<nsw> : index
        %890 = arith.select %888, %889, %c536870911 : index
        vector.store %887, %231[%890] : memref<?xf32, #amdgpu.address_space<fat_raw_buffer>>, vector<1xf32>
        %891 = vector.extract_strided_slice %203 {offsets = [2], sizes = [1], strides = [1]} : vector<16xf32> to vector<1xf32>
        %892 = arith.andi %883, %243 : i1
        %893 = arith.addi %246, %149 overflow<nsw> : index
        %894 = arith.select %892, %893, %c536870911 : index
        vector.store %891, %231[%894] : memref<?xf32, #amdgpu.address_space<fat_raw_buffer>>, vector<1xf32>
        %895 = vector.extract_strided_slice %203 {offsets = [3], sizes = [1], strides = [1]} : vector<16xf32> to vector<1xf32>
        %896 = arith.andi %883, %251 : i1
        %897 = arith.addi %254, %149 overflow<nsw> : index
        %898 = arith.select %896, %897, %c536870911 : index
        vector.store %895, %231[%898] : memref<?xf32, #amdgpu.address_space<fat_raw_buffer>>, vector<1xf32>
        %899 = vector.extract_strided_slice %203 {offsets = [4], sizes = [1], strides = [1]} : vector<16xf32> to vector<1xf32>
        %900 = arith.andi %883, %259 : i1
        %901 = arith.addi %262, %149 overflow<nsw> : index
        %902 = arith.select %900, %901, %c536870911 : index
        vector.store %899, %231[%902] : memref<?xf32, #amdgpu.address_space<fat_raw_buffer>>, vector<1xf32>
        %903 = vector.extract_strided_slice %203 {offsets = [5], sizes = [1], strides = [1]} : vector<16xf32> to vector<1xf32>
        %904 = arith.andi %883, %267 : i1
        %905 = arith.addi %270, %149 overflow<nsw> : index
        %906 = arith.select %904, %905, %c536870911 : index
        vector.store %903, %231[%906] : memref<?xf32, #amdgpu.address_space<fat_raw_buffer>>, vector<1xf32>
        %907 = vector.extract_strided_slice %203 {offsets = [6], sizes = [1], strides = [1]} : vector<16xf32> to vector<1xf32>
        %908 = arith.andi %883, %275 : i1
        %909 = arith.addi %278, %149 overflow<nsw> : index
        %910 = arith.select %908, %909, %c536870911 : index
        vector.store %907, %231[%910] : memref<?xf32, #amdgpu.address_space<fat_raw_buffer>>, vector<1xf32>
        %911 = vector.extract_strided_slice %203 {offsets = [7], sizes = [1], strides = [1]} : vector<16xf32> to vector<1xf32>
        %912 = arith.andi %883, %283 : i1
        %913 = arith.addi %286, %149 overflow<nsw> : index
        %914 = arith.select %912, %913, %c536870911 : index
        vector.store %911, %231[%914] : memref<?xf32, #amdgpu.address_space<fat_raw_buffer>>, vector<1xf32>
        %915 = vector.extract_strided_slice %203 {offsets = [8], sizes = [1], strides = [1]} : vector<16xf32> to vector<1xf32>
        %916 = arith.andi %883, %291 : i1
        %917 = arith.addi %294, %149 overflow<nsw> : index
        %918 = arith.select %916, %917, %c536870911 : index
        vector.store %915, %231[%918] : memref<?xf32, #amdgpu.address_space<fat_raw_buffer>>, vector<1xf32>
        %919 = vector.extract_strided_slice %203 {offsets = [9], sizes = [1], strides = [1]} : vector<16xf32> to vector<1xf32>
        %920 = arith.andi %883, %299 : i1
        %921 = arith.addi %302, %149 overflow<nsw> : index
        %922 = arith.select %920, %921, %c536870911 : index
        vector.store %919, %231[%922] : memref<?xf32, #amdgpu.address_space<fat_raw_buffer>>, vector<1xf32>
        %923 = vector.extract_strided_slice %203 {offsets = [10], sizes = [1], strides = [1]} : vector<16xf32> to vector<1xf32>
        %924 = arith.andi %883, %307 : i1
        %925 = arith.addi %310, %149 overflow<nsw> : index
        %926 = arith.select %924, %925, %c536870911 : index
        vector.store %923, %231[%926] : memref<?xf32, #amdgpu.address_space<fat_raw_buffer>>, vector<1xf32>
        %927 = vector.extract_strided_slice %203 {offsets = [11], sizes = [1], strides = [1]} : vector<16xf32> to vector<1xf32>
        %928 = arith.andi %883, %315 : i1
        %929 = arith.addi %318, %149 overflow<nsw> : index
        %930 = arith.select %928, %929, %c536870911 : index
        vector.store %927, %231[%930] : memref<?xf32, #amdgpu.address_space<fat_raw_buffer>>, vector<1xf32>
        %931 = vector.extract_strided_slice %203 {offsets = [12], sizes = [1], strides = [1]} : vector<16xf32> to vector<1xf32>
        %932 = arith.andi %883, %323 : i1
        %933 = arith.addi %326, %149 overflow<nsw> : index
        %934 = arith.select %932, %933, %c536870911 : index
        vector.store %931, %231[%934] : memref<?xf32, #amdgpu.address_space<fat_raw_buffer>>, vector<1xf32>
        %935 = vector.extract_strided_slice %203 {offsets = [13], sizes = [1], strides = [1]} : vector<16xf32> to vector<1xf32>
        %936 = arith.andi %883, %331 : i1
        %937 = arith.addi %334, %149 overflow<nsw> : index
        %938 = arith.select %936, %937, %c536870911 : index
        vector.store %935, %231[%938] : memref<?xf32, #amdgpu.address_space<fat_raw_buffer>>, vector<1xf32>
        %939 = vector.extract_strided_slice %203 {offsets = [14], sizes = [1], strides = [1]} : vector<16xf32> to vector<1xf32>
        %940 = arith.andi %883, %339 : i1
        %941 = arith.addi %342, %149 overflow<nsw> : index
        %942 = arith.select %940, %941, %c536870911 : index
        vector.store %939, %231[%942] : memref<?xf32, #amdgpu.address_space<fat_raw_buffer>>, vector<1xf32>
        %943 = vector.extract_strided_slice %203 {offsets = [15], sizes = [1], strides = [1]} : vector<16xf32> to vector<1xf32>
        %944 = arith.andi %883, %347 : i1
        %945 = arith.addi %350, %149 overflow<nsw> : index
        %946 = arith.select %944, %945, %c536870911 : index
        vector.store %943, %231[%946] : memref<?xf32, #amdgpu.address_space<fat_raw_buffer>>, vector<1xf32>
        %947 = vector.extract_strided_slice %207 {offsets = [0], sizes = [1], strides = [1]} : vector<16xf32> to vector<1xf32>
        %948 = affine.apply #map75()[%thread_id_x, %block_id_y, %block_id_x, %3, %thread_id_y]
        %949 = arith.cmpi slt, %948, %217 : index
        %950 = arith.andi %949, %221 : i1
        %951 = arith.addi %227, %153 overflow<nsw> : index
        %952 = arith.select %950, %951, %c536870911 : index
        vector.store %947, %231[%952] : memref<?xf32, #amdgpu.address_space<fat_raw_buffer>>, vector<1xf32>
        %953 = vector.extract_strided_slice %207 {offsets = [1], sizes = [1], strides = [1]} : vector<16xf32> to vector<1xf32>
        %954 = arith.andi %949, %235 : i1
        %955 = arith.addi %238, %153 overflow<nsw> : index
        %956 = arith.select %954, %955, %c536870911 : index
        vector.store %953, %231[%956] : memref<?xf32, #amdgpu.address_space<fat_raw_buffer>>, vector<1xf32>
        %957 = vector.extract_strided_slice %207 {offsets = [2], sizes = [1], strides = [1]} : vector<16xf32> to vector<1xf32>
        %958 = arith.andi %949, %243 : i1
        %959 = arith.addi %246, %153 overflow<nsw> : index
        %960 = arith.select %958, %959, %c536870911 : index
        vector.store %957, %231[%960] : memref<?xf32, #amdgpu.address_space<fat_raw_buffer>>, vector<1xf32>
        %961 = vector.extract_strided_slice %207 {offsets = [3], sizes = [1], strides = [1]} : vector<16xf32> to vector<1xf32>
        %962 = arith.andi %949, %251 : i1
        %963 = arith.addi %254, %153 overflow<nsw> : index
        %964 = arith.select %962, %963, %c536870911 : index
        vector.store %961, %231[%964] : memref<?xf32, #amdgpu.address_space<fat_raw_buffer>>, vector<1xf32>
        %965 = vector.extract_strided_slice %207 {offsets = [4], sizes = [1], strides = [1]} : vector<16xf32> to vector<1xf32>
        %966 = arith.andi %949, %259 : i1
        %967 = arith.addi %262, %153 overflow<nsw> : index
        %968 = arith.select %966, %967, %c536870911 : index
        vector.store %965, %231[%968] : memref<?xf32, #amdgpu.address_space<fat_raw_buffer>>, vector<1xf32>
        %969 = vector.extract_strided_slice %207 {offsets = [5], sizes = [1], strides = [1]} : vector<16xf32> to vector<1xf32>
        %970 = arith.andi %949, %267 : i1
        %971 = arith.addi %270, %153 overflow<nsw> : index
        %972 = arith.select %970, %971, %c536870911 : index
        vector.store %969, %231[%972] : memref<?xf32, #amdgpu.address_space<fat_raw_buffer>>, vector<1xf32>
        %973 = vector.extract_strided_slice %207 {offsets = [6], sizes = [1], strides = [1]} : vector<16xf32> to vector<1xf32>
        %974 = arith.andi %949, %275 : i1
        %975 = arith.addi %278, %153 overflow<nsw> : index
        %976 = arith.select %974, %975, %c536870911 : index
        vector.store %973, %231[%976] : memref<?xf32, #amdgpu.address_space<fat_raw_buffer>>, vector<1xf32>
        %977 = vector.extract_strided_slice %207 {offsets = [7], sizes = [1], strides = [1]} : vector<16xf32> to vector<1xf32>
        %978 = arith.andi %949, %283 : i1
        %979 = arith.addi %286, %153 overflow<nsw> : index
        %980 = arith.select %978, %979, %c536870911 : index
        vector.store %977, %231[%980] : memref<?xf32, #amdgpu.address_space<fat_raw_buffer>>, vector<1xf32>
        %981 = vector.extract_strided_slice %207 {offsets = [8], sizes = [1], strides = [1]} : vector<16xf32> to vector<1xf32>
        %982 = arith.andi %949, %291 : i1
        %983 = arith.addi %294, %153 overflow<nsw> : index
        %984 = arith.select %982, %983, %c536870911 : index
        vector.store %981, %231[%984] : memref<?xf32, #amdgpu.address_space<fat_raw_buffer>>, vector<1xf32>
        %985 = vector.extract_strided_slice %207 {offsets = [9], sizes = [1], strides = [1]} : vector<16xf32> to vector<1xf32>
        %986 = arith.andi %949, %299 : i1
        %987 = arith.addi %302, %153 overflow<nsw> : index
        %988 = arith.select %986, %987, %c536870911 : index
        vector.store %985, %231[%988] : memref<?xf32, #amdgpu.address_space<fat_raw_buffer>>, vector<1xf32>
        %989 = vector.extract_strided_slice %207 {offsets = [10], sizes = [1], strides = [1]} : vector<16xf32> to vector<1xf32>
        %990 = arith.andi %949, %307 : i1
        %991 = arith.addi %310, %153 overflow<nsw> : index
        %992 = arith.select %990, %991, %c536870911 : index
        vector.store %989, %231[%992] : memref<?xf32, #amdgpu.address_space<fat_raw_buffer>>, vector<1xf32>
        %993 = vector.extract_strided_slice %207 {offsets = [11], sizes = [1], strides = [1]} : vector<16xf32> to vector<1xf32>
        %994 = arith.andi %949, %315 : i1
        %995 = arith.addi %318, %153 overflow<nsw> : index
        %996 = arith.select %994, %995, %c536870911 : index
        vector.store %993, %231[%996] : memref<?xf32, #amdgpu.address_space<fat_raw_buffer>>, vector<1xf32>
        %997 = vector.extract_strided_slice %207 {offsets = [12], sizes = [1], strides = [1]} : vector<16xf32> to vector<1xf32>
        %998 = arith.andi %949, %323 : i1
        %999 = arith.addi %326, %153 overflow<nsw> : index
        %1000 = arith.select %998, %999, %c536870911 : index
        vector.store %997, %231[%1000] : memref<?xf32, #amdgpu.address_space<fat_raw_buffer>>, vector<1xf32>
        %1001 = vector.extract_strided_slice %207 {offsets = [13], sizes = [1], strides = [1]} : vector<16xf32> to vector<1xf32>
        %1002 = arith.andi %949, %331 : i1
        %1003 = arith.addi %334, %153 overflow<nsw> : index
        %1004 = arith.select %1002, %1003, %c536870911 : index
        vector.store %1001, %231[%1004] : memref<?xf32, #amdgpu.address_space<fat_raw_buffer>>, vector<1xf32>
        %1005 = vector.extract_strided_slice %207 {offsets = [14], sizes = [1], strides = [1]} : vector<16xf32> to vector<1xf32>
        %1006 = arith.andi %949, %339 : i1
        %1007 = arith.addi %342, %153 overflow<nsw> : index
        %1008 = arith.select %1006, %1007, %c536870911 : index
        vector.store %1005, %231[%1008] : memref<?xf32, #amdgpu.address_space<fat_raw_buffer>>, vector<1xf32>
        %1009 = vector.extract_strided_slice %207 {offsets = [15], sizes = [1], strides = [1]} : vector<16xf32> to vector<1xf32>
        %1010 = arith.andi %949, %347 : i1
        %1011 = arith.addi %350, %153 overflow<nsw> : index
        %1012 = arith.select %1010, %1011, %c536870911 : index
        vector.store %1009, %231[%1012] : memref<?xf32, #amdgpu.address_space<fat_raw_buffer>>, vector<1xf32>
        %1013 = vector.extract_strided_slice %211 {offsets = [0], sizes = [1], strides = [1]} : vector<16xf32> to vector<1xf32>
        %1014 = affine.apply #map76()[%thread_id_x, %block_id_y, %block_id_x, %3, %thread_id_y]
        %1015 = arith.cmpi slt, %1014, %217 : index
        %1016 = arith.andi %1015, %221 : i1
        %1017 = arith.addi %227, %157 overflow<nsw> : index
        %1018 = arith.select %1016, %1017, %c536870911 : index
        vector.store %1013, %231[%1018] : memref<?xf32, #amdgpu.address_space<fat_raw_buffer>>, vector<1xf32>
        %1019 = vector.extract_strided_slice %211 {offsets = [1], sizes = [1], strides = [1]} : vector<16xf32> to vector<1xf32>
        %1020 = arith.andi %1015, %235 : i1
        %1021 = arith.addi %238, %157 overflow<nsw> : index
        %1022 = arith.select %1020, %1021, %c536870911 : index
        vector.store %1019, %231[%1022] : memref<?xf32, #amdgpu.address_space<fat_raw_buffer>>, vector<1xf32>
        %1023 = vector.extract_strided_slice %211 {offsets = [2], sizes = [1], strides = [1]} : vector<16xf32> to vector<1xf32>
        %1024 = arith.andi %1015, %243 : i1
        %1025 = arith.addi %246, %157 overflow<nsw> : index
        %1026 = arith.select %1024, %1025, %c536870911 : index
        vector.store %1023, %231[%1026] : memref<?xf32, #amdgpu.address_space<fat_raw_buffer>>, vector<1xf32>
        %1027 = vector.extract_strided_slice %211 {offsets = [3], sizes = [1], strides = [1]} : vector<16xf32> to vector<1xf32>
        %1028 = arith.andi %1015, %251 : i1
        %1029 = arith.addi %254, %157 overflow<nsw> : index
        %1030 = arith.select %1028, %1029, %c536870911 : index
        vector.store %1027, %231[%1030] : memref<?xf32, #amdgpu.address_space<fat_raw_buffer>>, vector<1xf32>
        %1031 = vector.extract_strided_slice %211 {offsets = [4], sizes = [1], strides = [1]} : vector<16xf32> to vector<1xf32>
        %1032 = arith.andi %1015, %259 : i1
        %1033 = arith.addi %262, %157 overflow<nsw> : index
        %1034 = arith.select %1032, %1033, %c536870911 : index
        vector.store %1031, %231[%1034] : memref<?xf32, #amdgpu.address_space<fat_raw_buffer>>, vector<1xf32>
        %1035 = vector.extract_strided_slice %211 {offsets = [5], sizes = [1], strides = [1]} : vector<16xf32> to vector<1xf32>
        %1036 = arith.andi %1015, %267 : i1
        %1037 = arith.addi %270, %157 overflow<nsw> : index
        %1038 = arith.select %1036, %1037, %c536870911 : index
        vector.store %1035, %231[%1038] : memref<?xf32, #amdgpu.address_space<fat_raw_buffer>>, vector<1xf32>
        %1039 = vector.extract_strided_slice %211 {offsets = [6], sizes = [1], strides = [1]} : vector<16xf32> to vector<1xf32>
        %1040 = arith.andi %1015, %275 : i1
        %1041 = arith.addi %278, %157 overflow<nsw> : index
        %1042 = arith.select %1040, %1041, %c536870911 : index
        vector.store %1039, %231[%1042] : memref<?xf32, #amdgpu.address_space<fat_raw_buffer>>, vector<1xf32>
        %1043 = vector.extract_strided_slice %211 {offsets = [7], sizes = [1], strides = [1]} : vector<16xf32> to vector<1xf32>
        %1044 = arith.andi %1015, %283 : i1
        %1045 = arith.addi %286, %157 overflow<nsw> : index
        %1046 = arith.select %1044, %1045, %c536870911 : index
        vector.store %1043, %231[%1046] : memref<?xf32, #amdgpu.address_space<fat_raw_buffer>>, vector<1xf32>
        %1047 = vector.extract_strided_slice %211 {offsets = [8], sizes = [1], strides = [1]} : vector<16xf32> to vector<1xf32>
        %1048 = arith.andi %1015, %291 : i1
        %1049 = arith.addi %294, %157 overflow<nsw> : index
        %1050 = arith.select %1048, %1049, %c536870911 : index
        vector.store %1047, %231[%1050] : memref<?xf32, #amdgpu.address_space<fat_raw_buffer>>, vector<1xf32>
        %1051 = vector.extract_strided_slice %211 {offsets = [9], sizes = [1], strides = [1]} : vector<16xf32> to vector<1xf32>
        %1052 = arith.andi %1015, %299 : i1
        %1053 = arith.addi %302, %157 overflow<nsw> : index
        %1054 = arith.select %1052, %1053, %c536870911 : index
        vector.store %1051, %231[%1054] : memref<?xf32, #amdgpu.address_space<fat_raw_buffer>>, vector<1xf32>
        %1055 = vector.extract_strided_slice %211 {offsets = [10], sizes = [1], strides = [1]} : vector<16xf32> to vector<1xf32>
        %1056 = arith.andi %1015, %307 : i1
        %1057 = arith.addi %310, %157 overflow<nsw> : index
        %1058 = arith.select %1056, %1057, %c536870911 : index
        vector.store %1055, %231[%1058] : memref<?xf32, #amdgpu.address_space<fat_raw_buffer>>, vector<1xf32>
        %1059 = vector.extract_strided_slice %211 {offsets = [11], sizes = [1], strides = [1]} : vector<16xf32> to vector<1xf32>
        %1060 = arith.andi %1015, %315 : i1
        %1061 = arith.addi %318, %157 overflow<nsw> : index
        %1062 = arith.select %1060, %1061, %c536870911 : index
        vector.store %1059, %231[%1062] : memref<?xf32, #amdgpu.address_space<fat_raw_buffer>>, vector<1xf32>
        %1063 = vector.extract_strided_slice %211 {offsets = [12], sizes = [1], strides = [1]} : vector<16xf32> to vector<1xf32>
        %1064 = arith.andi %1015, %323 : i1
        %1065 = arith.addi %326, %157 overflow<nsw> : index
        %1066 = arith.select %1064, %1065, %c536870911 : index
        vector.store %1063, %231[%1066] : memref<?xf32, #amdgpu.address_space<fat_raw_buffer>>, vector<1xf32>
        %1067 = vector.extract_strided_slice %211 {offsets = [13], sizes = [1], strides = [1]} : vector<16xf32> to vector<1xf32>
        %1068 = arith.andi %1015, %331 : i1
        %1069 = arith.addi %334, %157 overflow<nsw> : index
        %1070 = arith.select %1068, %1069, %c536870911 : index
        vector.store %1067, %231[%1070] : memref<?xf32, #amdgpu.address_space<fat_raw_buffer>>, vector<1xf32>
        %1071 = vector.extract_strided_slice %211 {offsets = [14], sizes = [1], strides = [1]} : vector<16xf32> to vector<1xf32>
        %1072 = arith.andi %1015, %339 : i1
        %1073 = arith.addi %342, %157 overflow<nsw> : index
        %1074 = arith.select %1072, %1073, %c536870911 : index
        vector.store %1071, %231[%1074] : memref<?xf32, #amdgpu.address_space<fat_raw_buffer>>, vector<1xf32>
        %1075 = vector.extract_strided_slice %211 {offsets = [15], sizes = [1], strides = [1]} : vector<16xf32> to vector<1xf32>
        %1076 = arith.andi %1015, %347 : i1
        %1077 = arith.addi %350, %157 overflow<nsw> : index
        %1078 = arith.select %1076, %1077, %c536870911 : index
        vector.store %1075, %231[%1078] : memref<?xf32, #amdgpu.address_space<fat_raw_buffer>>, vector<1xf32>
        return
      }
    }
  }
  func.func @isolated_benchmark(%arg0: tensor<20512x2880xf16>, %arg1: tensor<2880x2880xf16>, %arg2: tensor<20512x2880xf32>) -> tensor<20512x2880xf32> {
    %0 = flow.dispatch @gemm::@gemm(%arg0, %arg1, %arg2) : (tensor<20512x2880xf16>, tensor<2880x2880xf16>, tensor<20512x2880xf32>) -> %arg2
    return %0 : tensor<20512x2880xf32>
  }
}
