#map = affine_map<()[s0, s1] -> ((s0 * 41 + s1) mod 8)>
#map1 = affine_map<()[s0, s1, s2, s3] -> (s1 * 3280 + s2 * 80 + (s0 floordiv 16) mod 16 - ((s1 * 41 + s2) floordiv 8) * 640 + ((s3 + (s1 * 41 + s2) floordiv 8) floordiv 2) * 16)>
#map2 = affine_map<()[s0] -> (s0 mod 16)>
#map3 = affine_map<()[s0, s1, s2, s3, s4] -> (s1 * 128 + s4 * 1448 + s0 floordiv 2 - ((s1 * 128 + s0 floordiv 2) floordiv 1448) * 1448 + ((s2 * 41 + s3) floordiv 8) * 1448 - ((s4 + (s2 * 41 + s3) floordiv 8) floordiv 2) * 2896)>
#map4 = affine_map<()[s0] -> (s0 * 8 - (s0 floordiv 2) * 16)>
#map5 = affine_map<()[s0, s1, s2, s3, s4] -> (s1 * 128 + s4 * 1448 + s0 floordiv 2 - ((s1 * 128 + s0 floordiv 2 + 256) floordiv 1448) * 1448 + ((s2 * 41 + s3) floordiv 8) * 1448 - ((s4 + (s2 * 41 + s3) floordiv 8) floordiv 2) * 2896 + 256)>
#map6 = affine_map<()[s0, s1, s2, s3, s4] -> (s1 * 128 + s4 * 1448 + s0 floordiv 2 - ((s1 * 128 + s0 floordiv 2 + 512) floordiv 1448) * 1448 + ((s2 * 41 + s3) floordiv 8) * 1448 - ((s4 + (s2 * 41 + s3) floordiv 8) floordiv 2) * 2896 + 512)>
#map7 = affine_map<()[s0, s1, s2, s3, s4] -> (s1 * 128 + s4 * 1448 + s0 floordiv 2 - ((s1 * 128 + s0 floordiv 2 + 768) floordiv 1448) * 1448 + ((s2 * 41 + s3) floordiv 8) * 1448 - ((s4 + (s2 * 41 + s3) floordiv 8) floordiv 2) * 2896 + 768)>
#map8 = affine_map<()[s0, s1, s2, s3, s4] -> (s1 * 128 + s4 * 1448 + s0 floordiv 2 - ((s1 * 128 + s0 floordiv 2 + 1024) floordiv 1448) * 1448 + ((s2 * 41 + s3) floordiv 8) * 1448 - ((s4 + (s2 * 41 + s3) floordiv 8) floordiv 2) * 2896 + 1024)>
#map9 = affine_map<()[s0, s1, s2, s3, s4] -> (s1 * 128 + s4 * 1448 + s0 floordiv 2 - ((s1 * 128 + s0 floordiv 2 + 1280) floordiv 1448) * 1448 + ((s2 * 41 + s3) floordiv 8) * 1448 - ((s4 + (s2 * 41 + s3) floordiv 8) floordiv 2) * 2896 + 1280)>
#map10 = affine_map<()[s0] -> ((s0 floordiv 64) * 4 + 4)>
#map11 = affine_map<()[s0] -> ((s0 floordiv 16) mod 16)>
#map12 = affine_map<()[s0] -> (s0 * 724 + 724)>
#map13 = affine_map<()[s0, s1] -> ((s1 * 128 + s0 floordiv 2) mod 1448)>
#map14 = affine_map<()[s0, s1] -> (s1 * 128 + s0 floordiv 2 - ((s1 * 128 + s0 floordiv 2 + 256) floordiv 1448) * 1448 + 256)>
#map15 = affine_map<()[s0, s1] -> (s1 * 128 + s0 floordiv 2 - ((s1 * 128 + s0 floordiv 2 + 512) floordiv 1448) * 1448 + 512)>
#map16 = affine_map<()[s0, s1] -> (s1 * 128 + s0 floordiv 2 - ((s1 * 128 + s0 floordiv 2 + 768) floordiv 1448) * 1448 + 768)>
#map17 = affine_map<()[s0, s1] -> (s1 * 128 + s0 floordiv 2 - ((s1 * 128 + s0 floordiv 2 + 1024) floordiv 1448) * 1448 + 1024)>
#map18 = affine_map<()[s0, s1] -> (s1 * 128 + s0 floordiv 2 - ((s1 * 128 + s0 floordiv 2 + 1280) floordiv 1448) * 1448 + 1280)>
#map19 = affine_map<()[s0, s1] -> (s0 + s1 * 724 - (s0 floordiv 32) * 32)>
#map20 = affine_map<()[s0] -> (((s0 mod 64) floordiv 32) * 4)>
#map21 = affine_map<()[s0] -> (((s0 mod 64) floordiv 32) * 4 + 8)>
#map22 = affine_map<()[s0, s1] -> (s0 + s1 * 724 - (s0 floordiv 32) * 32 + 32)>
#map23 = affine_map<()[s0, s1] -> (s0 + s1 * 724 - (s0 floordiv 32) * 32 + 64)>
#map24 = affine_map<()[s0, s1] -> (s0 + s1 * 724 - (s0 floordiv 32) * 32 + 96)>
#map25 = affine_map<()[s0, s1] -> (s0 + s1 * 724 - (s0 floordiv 32) * 32 + 128)>
#map26 = affine_map<()[s0, s1] -> (s0 + s1 * 724 - (s0 floordiv 32) * 32 + 160)>
#map27 = affine_map<()[s0, s1] -> (s0 + s1 * 724 - (s0 floordiv 32) * 32 + 192)>
#map28 = affine_map<()[s0, s1] -> (s0 + s1 * 724 - (s0 floordiv 32) * 32 + 224)>
#map29 = affine_map<()[s0, s1] -> (s0 + s1 * 724 - (s0 floordiv 32) * 32 + 256)>
#map30 = affine_map<()[s0, s1] -> (s0 + s1 * 724 - (s0 floordiv 32) * 32 + 288)>
#map31 = affine_map<()[s0, s1] -> (s0 + s1 * 724 - (s0 floordiv 32) * 32 + 320)>
#map32 = affine_map<()[s0, s1] -> (s0 + s1 * 724 - (s0 floordiv 32) * 32 + 352)>
#map33 = affine_map<()[s0, s1] -> (s0 + s1 * 724 - (s0 floordiv 32) * 32 + 384)>
#map34 = affine_map<()[s0, s1] -> (s0 + s1 * 724 - (s0 floordiv 32) * 32 + 416)>
#map35 = affine_map<()[s0, s1] -> (s0 + s1 * 724 - (s0 floordiv 32) * 32 + 448)>
#map36 = affine_map<()[s0, s1] -> (s0 + s1 * 724 - (s0 floordiv 32) * 32 + 480)>
#map37 = affine_map<()[s0, s1] -> (s0 + s1 * 724 - (s0 floordiv 32) * 32 + 512)>
#map38 = affine_map<()[s0, s1] -> (s0 + s1 * 724 - (s0 floordiv 32) * 32 + 544)>
#map39 = affine_map<()[s0, s1] -> (s0 + s1 * 724 - (s0 floordiv 32) * 32 + 576)>
#map40 = affine_map<()[s0, s1] -> (s0 + s1 * 724 - (s0 floordiv 32) * 32 + 608)>
#map41 = affine_map<()[s0, s1] -> (s0 + s1 * 724 - (s0 floordiv 32) * 32 + 640)>
#map42 = affine_map<()[s0, s1] -> (s0 + s1 * 724 - (s0 floordiv 32) * 32 + 672)>
#map43 = affine_map<()[s0, s1] -> (s0 + s1 * 724 - (s0 floordiv 32) * 32 + 704)>
#map44 = affine_map<()[s0] -> (s0 mod 32 + (s0 floordiv 64) * 4)>
#map45 = affine_map<()[s0, s1] -> (s0 + s1 * 16 - (s0 floordiv 16) * 16 + 16)>
#map46 = affine_map<()[s0, s1] -> (s0 * 16 + s1 * 8 - (s1 floordiv 2) * 16 + 16)>
#map47 = affine_map<()[s0, s1] -> (s0 * 1448 + s1 * 724 + 724)>
#map48 = affine_map<()[s0] -> (s0 * 1448 + 1448)>
#map49 = affine_map<()[s0, s1, s2, s3, s4] -> (s0 + s3 * 1448 + s4 * 724 - (s0 floordiv 32) * 32 + ((s1 * 41 + s2) floordiv 8) * 1448 - ((s3 + (s1 * 41 + s2) floordiv 8) floordiv 2) * 2896)>
#map50 = affine_map<()[s0, s1] -> (s0 * 16 + (s1 floordiv 64) * 4 + 4)>
#map51 = affine_map<()[s0] -> (s0 * 16 + 16)>
#map52 = affine_map<()[s0, s1, s2, s3] -> (s0 * 3280 + s1 * 80 - ((s0 * 41 + s1) floordiv 8) * 640 + ((s2 + (s0 * 41 + s1) floordiv 8) floordiv 2) * 16 + (s3 floordiv 64) * 4 + ((s3 mod 64) floordiv 32) * 4)>
#map53 = affine_map<()[s0, s1, s2] -> (s0 * 3280 + s1 * 80 - ((s0 * 41 + s1) floordiv 8) * 640 + ((s2 + (s0 * 41 + s1) floordiv 8) floordiv 2) * 16)>
#map54 = affine_map<()[s0, s1, s2] -> (s2 * 1448 + ((s0 * 41 + s1) floordiv 8) * 1448 - ((s2 + (s0 * 41 + s1) floordiv 8) floordiv 2) * 2896)>
#map55 = affine_map<()[s0] -> ((s0 floordiv 64) * 4 + ((s0 mod 64) floordiv 32) * 4)>
#map56 = affine_map<()[s0, s1, s2, s3] -> (s0 * 3280 + s1 * 80 - ((s0 * 41 + s1) floordiv 8) * 640 + ((s2 + (s0 * 41 + s1) floordiv 8) floordiv 2) * 16 + (s3 floordiv 64) * 4 + ((s3 mod 64) floordiv 32) * 4 + 1)>
#map57 = affine_map<()[s0] -> ((s0 floordiv 64) * 4 + ((s0 mod 64) floordiv 32) * 4 + 1)>
#map58 = affine_map<()[s0, s1, s2, s3] -> (s0 * 3280 + s1 * 80 - ((s0 * 41 + s1) floordiv 8) * 640 + ((s2 + (s0 * 41 + s1) floordiv 8) floordiv 2) * 16 + (s3 floordiv 64) * 4 + ((s3 mod 64) floordiv 32) * 4 + 2)>
#map59 = affine_map<()[s0] -> ((s0 floordiv 64) * 4 + ((s0 mod 64) floordiv 32) * 4 + 2)>
#map60 = affine_map<()[s0, s1, s2, s3] -> (s0 * 3280 + s1 * 80 - ((s0 * 41 + s1) floordiv 8) * 640 + ((s2 + (s0 * 41 + s1) floordiv 8) floordiv 2) * 16 + (s3 floordiv 64) * 4 + ((s3 mod 64) floordiv 32) * 4 + 3)>
#map61 = affine_map<()[s0] -> ((s0 floordiv 64) * 4 + ((s0 mod 64) floordiv 32) * 4 + 3)>
#map62 = affine_map<()[s0, s1, s2, s3] -> (s0 * 3280 + s1 * 80 - ((s0 * 41 + s1) floordiv 8) * 640 + ((s2 + (s0 * 41 + s1) floordiv 8) floordiv 2) * 16 + (s3 floordiv 64) * 4 + ((s3 mod 64) floordiv 32) * 4 + 8)>
#map63 = affine_map<()[s0] -> ((s0 floordiv 64) * 4 + ((s0 mod 64) floordiv 32) * 4 + 8)>
#map64 = affine_map<()[s0, s1, s2, s3] -> (s0 * 3280 + s1 * 80 - ((s0 * 41 + s1) floordiv 8) * 640 + ((s2 + (s0 * 41 + s1) floordiv 8) floordiv 2) * 16 + (s3 floordiv 64) * 4 + ((s3 mod 64) floordiv 32) * 4 + 9)>
#map65 = affine_map<()[s0] -> ((s0 floordiv 64) * 4 + ((s0 mod 64) floordiv 32) * 4 + 9)>
#map66 = affine_map<()[s0, s1, s2, s3] -> (s0 * 3280 + s1 * 80 - ((s0 * 41 + s1) floordiv 8) * 640 + ((s2 + (s0 * 41 + s1) floordiv 8) floordiv 2) * 16 + (s3 floordiv 64) * 4 + ((s3 mod 64) floordiv 32) * 4 + 10)>
#map67 = affine_map<()[s0] -> ((s0 floordiv 64) * 4 + ((s0 mod 64) floordiv 32) * 4 + 10)>
#map68 = affine_map<()[s0, s1, s2, s3] -> (s0 * 3280 + s1 * 80 - ((s0 * 41 + s1) floordiv 8) * 640 + ((s2 + (s0 * 41 + s1) floordiv 8) floordiv 2) * 16 + (s3 floordiv 64) * 4 + ((s3 mod 64) floordiv 32) * 4 + 11)>
#map69 = affine_map<()[s0] -> ((s0 floordiv 64) * 4 + ((s0 mod 64) floordiv 32) * 4 + 11)>
#map70 = affine_map<()[s0, s1, s2, s3] -> (s0 * 3280 + s1 * 80 - ((s0 * 41 + s1) floordiv 8) * 640 + ((s2 + (s0 * 41 + s1) floordiv 8) floordiv 2) * 16 + (s3 floordiv 64) * 4 + ((s3 mod 64) floordiv 32) * 4 + 16)>
#map71 = affine_map<()[s0] -> ((s0 floordiv 64) * 4 + ((s0 mod 64) floordiv 32) * 4 + 16)>
#map72 = affine_map<()[s0, s1, s2, s3] -> (s0 * 3280 + s1 * 80 - ((s0 * 41 + s1) floordiv 8) * 640 + ((s2 + (s0 * 41 + s1) floordiv 8) floordiv 2) * 16 + (s3 floordiv 64) * 4 + ((s3 mod 64) floordiv 32) * 4 + 17)>
#map73 = affine_map<()[s0] -> ((s0 floordiv 64) * 4 + ((s0 mod 64) floordiv 32) * 4 + 17)>
#map74 = affine_map<()[s0, s1, s2, s3] -> (s0 * 3280 + s1 * 80 - ((s0 * 41 + s1) floordiv 8) * 640 + ((s2 + (s0 * 41 + s1) floordiv 8) floordiv 2) * 16 + (s3 floordiv 64) * 4 + ((s3 mod 64) floordiv 32) * 4 + 18)>
#map75 = affine_map<()[s0] -> ((s0 floordiv 64) * 4 + ((s0 mod 64) floordiv 32) * 4 + 18)>
#map76 = affine_map<()[s0, s1, s2, s3] -> (s0 * 3280 + s1 * 80 - ((s0 * 41 + s1) floordiv 8) * 640 + ((s2 + (s0 * 41 + s1) floordiv 8) floordiv 2) * 16 + (s3 floordiv 64) * 4 + ((s3 mod 64) floordiv 32) * 4 + 19)>
#map77 = affine_map<()[s0] -> ((s0 floordiv 64) * 4 + ((s0 mod 64) floordiv 32) * 4 + 19)>
#map78 = affine_map<()[s0, s1, s2, s3] -> (s0 * 3280 + s1 * 80 - ((s0 * 41 + s1) floordiv 8) * 640 + ((s2 + (s0 * 41 + s1) floordiv 8) floordiv 2) * 16 + (s3 floordiv 64) * 4 + ((s3 mod 64) floordiv 32) * 4 + 24)>
#map79 = affine_map<()[s0] -> ((s0 floordiv 64) * 4 + ((s0 mod 64) floordiv 32) * 4 + 24)>
#map80 = affine_map<()[s0, s1, s2, s3] -> (s0 * 3280 + s1 * 80 - ((s0 * 41 + s1) floordiv 8) * 640 + ((s2 + (s0 * 41 + s1) floordiv 8) floordiv 2) * 16 + (s3 floordiv 64) * 4 + ((s3 mod 64) floordiv 32) * 4 + 25)>
#map81 = affine_map<()[s0] -> ((s0 floordiv 64) * 4 + ((s0 mod 64) floordiv 32) * 4 + 25)>
#map82 = affine_map<()[s0, s1, s2, s3] -> (s0 * 3280 + s1 * 80 - ((s0 * 41 + s1) floordiv 8) * 640 + ((s2 + (s0 * 41 + s1) floordiv 8) floordiv 2) * 16 + (s3 floordiv 64) * 4 + ((s3 mod 64) floordiv 32) * 4 + 26)>
#map83 = affine_map<()[s0] -> ((s0 floordiv 64) * 4 + ((s0 mod 64) floordiv 32) * 4 + 26)>
#map84 = affine_map<()[s0, s1, s2, s3] -> (s0 * 3280 + s1 * 80 - ((s0 * 41 + s1) floordiv 8) * 640 + ((s2 + (s0 * 41 + s1) floordiv 8) floordiv 2) * 16 + (s3 floordiv 64) * 4 + ((s3 mod 64) floordiv 32) * 4 + 27)>
#map85 = affine_map<()[s0] -> ((s0 floordiv 64) * 4 + ((s0 mod 64) floordiv 32) * 4 + 27)>
#map86 = affine_map<()[s0, s1, s2, s3, s4] -> (s0 + s3 * 1448 + s4 * 724 - (s0 floordiv 32) * 32 + ((s1 * 41 + s2) floordiv 8) * 1448 - ((s3 + (s1 * 41 + s2) floordiv 8) floordiv 2) * 2896 + 32)>
#map87 = affine_map<()[s0, s1, s2, s3, s4] -> (s0 + s3 * 1448 + s4 * 724 - (s0 floordiv 32) * 32 + ((s1 * 41 + s2) floordiv 8) * 1448 - ((s3 + (s1 * 41 + s2) floordiv 8) floordiv 2) * 2896 + 64)>
#map88 = affine_map<()[s0, s1, s2, s3, s4] -> (s0 + s3 * 1448 + s4 * 724 - (s0 floordiv 32) * 32 + ((s1 * 41 + s2) floordiv 8) * 1448 - ((s3 + (s1 * 41 + s2) floordiv 8) floordiv 2) * 2896 + 96)>
#map89 = affine_map<()[s0, s1, s2, s3, s4] -> (s0 + s3 * 1448 + s4 * 724 - (s0 floordiv 32) * 32 + ((s1 * 41 + s2) floordiv 8) * 1448 - ((s3 + (s1 * 41 + s2) floordiv 8) floordiv 2) * 2896 + 128)>
#map90 = affine_map<()[s0, s1, s2, s3, s4] -> (s0 + s3 * 1448 + s4 * 724 - (s0 floordiv 32) * 32 + ((s1 * 41 + s2) floordiv 8) * 1448 - ((s3 + (s1 * 41 + s2) floordiv 8) floordiv 2) * 2896 + 160)>
#map91 = affine_map<()[s0, s1, s2, s3, s4] -> (s0 + s3 * 1448 + s4 * 724 - (s0 floordiv 32) * 32 + ((s1 * 41 + s2) floordiv 8) * 1448 - ((s3 + (s1 * 41 + s2) floordiv 8) floordiv 2) * 2896 + 192)>
#map92 = affine_map<()[s0, s1, s2, s3, s4] -> (s0 + s3 * 1448 + s4 * 724 - (s0 floordiv 32) * 32 + ((s1 * 41 + s2) floordiv 8) * 1448 - ((s3 + (s1 * 41 + s2) floordiv 8) floordiv 2) * 2896 + 224)>
#map93 = affine_map<()[s0, s1, s2, s3, s4] -> (s0 + s3 * 1448 + s4 * 724 - (s0 floordiv 32) * 32 + ((s1 * 41 + s2) floordiv 8) * 1448 - ((s3 + (s1 * 41 + s2) floordiv 8) floordiv 2) * 2896 + 256)>
#map94 = affine_map<()[s0, s1, s2, s3, s4] -> (s0 + s3 * 1448 + s4 * 724 - (s0 floordiv 32) * 32 + ((s1 * 41 + s2) floordiv 8) * 1448 - ((s3 + (s1 * 41 + s2) floordiv 8) floordiv 2) * 2896 + 288)>
#map95 = affine_map<()[s0, s1, s2, s3, s4] -> (s0 + s3 * 1448 + s4 * 724 - (s0 floordiv 32) * 32 + ((s1 * 41 + s2) floordiv 8) * 1448 - ((s3 + (s1 * 41 + s2) floordiv 8) floordiv 2) * 2896 + 320)>
#map96 = affine_map<()[s0, s1, s2, s3, s4] -> (s0 + s3 * 1448 + s4 * 724 - (s0 floordiv 32) * 32 + ((s1 * 41 + s2) floordiv 8) * 1448 - ((s3 + (s1 * 41 + s2) floordiv 8) floordiv 2) * 2896 + 352)>
#map97 = affine_map<()[s0, s1, s2, s3, s4] -> (s0 + s3 * 1448 + s4 * 724 - (s0 floordiv 32) * 32 + ((s1 * 41 + s2) floordiv 8) * 1448 - ((s3 + (s1 * 41 + s2) floordiv 8) floordiv 2) * 2896 + 384)>
#map98 = affine_map<()[s0, s1, s2, s3, s4] -> (s0 + s3 * 1448 + s4 * 724 - (s0 floordiv 32) * 32 + ((s1 * 41 + s2) floordiv 8) * 1448 - ((s3 + (s1 * 41 + s2) floordiv 8) floordiv 2) * 2896 + 416)>
#map99 = affine_map<()[s0, s1, s2, s3, s4] -> (s0 + s3 * 1448 + s4 * 724 - (s0 floordiv 32) * 32 + ((s1 * 41 + s2) floordiv 8) * 1448 - ((s3 + (s1 * 41 + s2) floordiv 8) floordiv 2) * 2896 + 448)>
#map100 = affine_map<()[s0, s1, s2, s3, s4] -> (s0 + s3 * 1448 + s4 * 724 - (s0 floordiv 32) * 32 + ((s1 * 41 + s2) floordiv 8) * 1448 - ((s3 + (s1 * 41 + s2) floordiv 8) floordiv 2) * 2896 + 480)>
#map101 = affine_map<()[s0, s1, s2, s3, s4] -> (s0 + s3 * 1448 + s4 * 724 - (s0 floordiv 32) * 32 + ((s1 * 41 + s2) floordiv 8) * 1448 - ((s3 + (s1 * 41 + s2) floordiv 8) floordiv 2) * 2896 + 512)>
#map102 = affine_map<()[s0, s1, s2, s3, s4] -> (s0 + s3 * 1448 + s4 * 724 - (s0 floordiv 32) * 32 + ((s1 * 41 + s2) floordiv 8) * 1448 - ((s3 + (s1 * 41 + s2) floordiv 8) floordiv 2) * 2896 + 544)>
#map103 = affine_map<()[s0, s1, s2, s3, s4] -> (s0 + s3 * 1448 + s4 * 724 - (s0 floordiv 32) * 32 + ((s1 * 41 + s2) floordiv 8) * 1448 - ((s3 + (s1 * 41 + s2) floordiv 8) floordiv 2) * 2896 + 576)>
#map104 = affine_map<()[s0, s1, s2, s3, s4] -> (s0 + s3 * 1448 + s4 * 724 - (s0 floordiv 32) * 32 + ((s1 * 41 + s2) floordiv 8) * 1448 - ((s3 + (s1 * 41 + s2) floordiv 8) floordiv 2) * 2896 + 608)>
#map105 = affine_map<()[s0, s1, s2, s3, s4] -> (s0 + s3 * 1448 + s4 * 724 - (s0 floordiv 32) * 32 + ((s1 * 41 + s2) floordiv 8) * 1448 - ((s3 + (s1 * 41 + s2) floordiv 8) floordiv 2) * 2896 + 640)>
#map106 = affine_map<()[s0, s1, s2, s3, s4] -> (s0 + s3 * 1448 + s4 * 724 - (s0 floordiv 32) * 32 + ((s1 * 41 + s2) floordiv 8) * 1448 - ((s3 + (s1 * 41 + s2) floordiv 8) floordiv 2) * 2896 + 672)>
#map107 = affine_map<()[s0, s1, s2, s3, s4] -> (s0 + s3 * 1448 + s4 * 724 - (s0 floordiv 32) * 32 + ((s1 * 41 + s2) floordiv 8) * 1448 - ((s3 + (s1 * 41 + s2) floordiv 8) floordiv 2) * 2896 + 704)>
#translation = #iree_codegen.translation_info<pipeline = None workgroup_size = [256, 2, 1] subgroup_size = 64>
module attributes {transform.with_named_sequence} {
  stream.executable private @gemm {
    stream.executable.export public @gemm workgroups() -> (index, index, index) {
      %c41 = arith.constant 41 : index
      %c2 = arith.constant 2 : index
      %c1 = arith.constant 1 : index
      stream.return %c41, %c2, %c1 : index, index, index
    }
    builtin.module {
      func.func @gemm(%arg0: !stream.binding, %arg1: !stream.binding, %arg2: !stream.binding) attributes {translation_info = #translation} {
        %c536870911 = arith.constant 536870911 : index
        %c2880_i14 = arith.constant 2880 : i14
        %cst = arith.constant dense<0.000000e+00> : vector<4xf16>
        %cst_0 = arith.constant dense<[0, 1, 2, 3, 4, 5, 6, 7]> : vector<8xi32>
        %cst_1 = arith.constant dense<1073741823> : vector<8xindex>
        %c4096_i14 = arith.constant 4096 : i14
        %c2147483643_i32 = arith.constant 2147483643 : i32
        %c536870910 = arith.constant 536870910 : index
        %c255 = arith.constant 255 : index
        %c2880 = arith.constant 2880 : index
        %c1448 = arith.constant 1448 : index
        %c1073741823 = arith.constant 1073741823 : index
        %c2147483645_i32 = arith.constant 2147483645 : i32
        %c1073741822 = arith.constant 1073741822 : index
        %c4096 = arith.constant 4096 : index
        %c641 = arith.constant 641 : index
        %c2 = arith.constant 2 : index
        %c1 = arith.constant 1 : index
        %c16 = arith.constant 16 : index
        %c57920 = arith.constant 57920 : index
        %c0 = arith.constant 0 : index
        %cst_2 = arith.constant dense<0.000000e+00> : vector<16xf32>
        %block_id_x = gpu.block_id  x upper_bound 41
        %block_id_y = gpu.block_id  y upper_bound 2
        %thread_id_x = gpu.thread_id  x upper_bound 256
        %thread_id_y = gpu.thread_id  y upper_bound 2
        %alloc = memref.alloc() : memref<58560xi8, #gpu.address_space<workgroup>>
        %view = memref.view %alloc[%c0][] : memref<58560xi8, #gpu.address_space<workgroup>> to memref<1448x20xf16, #gpu.address_space<workgroup>>
        %view_3 = memref.view %alloc[%c57920][] : memref<58560xi8, #gpu.address_space<workgroup>> to memref<16x20xf16, #gpu.address_space<workgroup>>
        %0 = stream.binding.subspan %arg0[%c0] : !stream.binding -> memref<641x4096xf16, strided<[4096, 1], offset: ?>>
        %1 = affine.apply #map()[%block_id_y, %block_id_x]
        %2 = arith.minsi %1, %c2 : index
        %3 = affine.apply #map1()[%thread_id_x, %block_id_y, %block_id_x, %2]
        %4 = arith.cmpi slt, %3, %c641 : index
        %5 = affine.apply #map2()[%thread_id_x]
        %6 = arith.muli %3, %c4096 overflow<nsw> : index
        %7 = arith.addi %6, %5 overflow<nsw> : index
        %base_buffer, %offset, %sizes:2, %strides:2 = memref.extract_strided_metadata %0 : memref<641x4096xf16, strided<[4096, 1], offset: ?>> -> memref<f16>, index, index, index, index, index
        %reinterpret_cast = memref.reinterpret_cast %0 to offset: [%offset], sizes: [%c1073741822], strides: [1] : memref<641x4096xf16, strided<[4096, 1], offset: ?>> to memref<?xf16, strided<[1], offset: ?>>
        %8 = amdgpu.fat_raw_buffer_cast %reinterpret_cast validBytes(%c2147483645_i32) cacheSwizzleStride(%c4096_i14) resetOffset : memref<?xf16, strided<[1], offset: ?>> to memref<?xf16, #amdgpu.address_space<fat_raw_buffer>>
        %9 = arith.select %4, %7, %c1073741823 : index
        %10 = vector.load %8[%9] : memref<?xf16, #amdgpu.address_space<fat_raw_buffer>>, vector<1xf16>
        %11 = stream.binding.subspan %arg1[%c0] : !stream.binding -> memref<2880x4096xf16, strided<[4096, 1], offset: ?>>
        %12 = affine.apply #map3()[%thread_id_x, %thread_id_y, %block_id_y, %block_id_x, %2]
        %13 = arith.cmpi slt, %12, %c2880 : index
        %14 = vector.broadcast %13 : i1 to vector<8xi1>
        %15 = affine.apply #map4()[%thread_id_x]
        %16 = arith.muli %12, %c4096 overflow<nsw> : index
        %17 = arith.addi %16, %15 overflow<nsw> : index
        %base_buffer_4, %offset_5, %sizes_6:2, %strides_7:2 = memref.extract_strided_metadata %11 : memref<2880x4096xf16, strided<[4096, 1], offset: ?>> -> memref<f16>, index, index, index, index, index
        %reinterpret_cast_8 = memref.reinterpret_cast %11 to offset: [%offset_5], sizes: [%c1073741822], strides: [1] : memref<2880x4096xf16, strided<[4096, 1], offset: ?>> to memref<?xf16, strided<[1], offset: ?>>
        %18 = amdgpu.fat_raw_buffer_cast %reinterpret_cast_8 validBytes(%c2147483645_i32) cacheSwizzleStride(%c4096_i14) resetOffset : memref<?xf16, strided<[1], offset: ?>> to memref<?xf16, #amdgpu.address_space<fat_raw_buffer>>
        %19 = arith.index_cast %17 : index to i32
        %20 = vector.broadcast %19 : i32 to vector<8xi32>
        %21 = arith.addi %20, %cst_0 : vector<8xi32>
        %22 = arith.index_cast %21 : vector<8xi32> to vector<8xindex>
        %23 = arith.select %14, %22, %cst_1 : vector<8xi1>, vector<8xindex>
        %24 = vector.extract %23[0] : index from vector<8xindex>
        %25 = vector.load %18[%24] : memref<?xf16, #amdgpu.address_space<fat_raw_buffer>>, vector<8xf16>
        %26 = affine.apply #map5()[%thread_id_x, %thread_id_y, %block_id_y, %block_id_x, %2]
        %27 = arith.cmpi slt, %26, %c2880 : index
        %28 = vector.broadcast %27 : i1 to vector<8xi1>
        %29 = arith.muli %26, %c4096 overflow<nsw> : index
        %30 = arith.addi %29, %15 overflow<nsw> : index
        %31 = arith.index_cast %30 : index to i32
        %32 = vector.broadcast %31 : i32 to vector<8xi32>
        %33 = arith.addi %32, %cst_0 : vector<8xi32>
        %34 = arith.index_cast %33 : vector<8xi32> to vector<8xindex>
        %35 = arith.select %28, %34, %cst_1 : vector<8xi1>, vector<8xindex>
        %36 = vector.extract %35[0] : index from vector<8xindex>
        %37 = vector.load %18[%36] : memref<?xf16, #amdgpu.address_space<fat_raw_buffer>>, vector<8xf16>
        %38 = affine.apply #map6()[%thread_id_x, %thread_id_y, %block_id_y, %block_id_x, %2]
        %39 = arith.cmpi slt, %38, %c2880 : index
        %40 = vector.broadcast %39 : i1 to vector<8xi1>
        %41 = arith.muli %38, %c4096 overflow<nsw> : index
        %42 = arith.addi %41, %15 overflow<nsw> : index
        %43 = arith.index_cast %42 : index to i32
        %44 = vector.broadcast %43 : i32 to vector<8xi32>
        %45 = arith.addi %44, %cst_0 : vector<8xi32>
        %46 = arith.index_cast %45 : vector<8xi32> to vector<8xindex>
        %47 = arith.select %40, %46, %cst_1 : vector<8xi1>, vector<8xindex>
        %48 = vector.extract %47[0] : index from vector<8xindex>
        %49 = vector.load %18[%48] : memref<?xf16, #amdgpu.address_space<fat_raw_buffer>>, vector<8xf16>
        %50 = affine.apply #map7()[%thread_id_x, %thread_id_y, %block_id_y, %block_id_x, %2]
        %51 = arith.cmpi slt, %50, %c2880 : index
        %52 = vector.broadcast %51 : i1 to vector<8xi1>
        %53 = arith.muli %50, %c4096 overflow<nsw> : index
        %54 = arith.addi %53, %15 overflow<nsw> : index
        %55 = arith.index_cast %54 : index to i32
        %56 = vector.broadcast %55 : i32 to vector<8xi32>
        %57 = arith.addi %56, %cst_0 : vector<8xi32>
        %58 = arith.index_cast %57 : vector<8xi32> to vector<8xindex>
        %59 = arith.select %52, %58, %cst_1 : vector<8xi1>, vector<8xindex>
        %60 = vector.extract %59[0] : index from vector<8xindex>
        %61 = vector.load %18[%60] : memref<?xf16, #amdgpu.address_space<fat_raw_buffer>>, vector<8xf16>
        %62 = affine.apply #map8()[%thread_id_x, %thread_id_y, %block_id_y, %block_id_x, %2]
        %63 = arith.cmpi slt, %62, %c2880 : index
        %64 = vector.broadcast %63 : i1 to vector<8xi1>
        %65 = arith.muli %62, %c4096 overflow<nsw> : index
        %66 = arith.addi %65, %15 overflow<nsw> : index
        %67 = arith.index_cast %66 : index to i32
        %68 = vector.broadcast %67 : i32 to vector<8xi32>
        %69 = arith.addi %68, %cst_0 : vector<8xi32>
        %70 = arith.index_cast %69 : vector<8xi32> to vector<8xindex>
        %71 = arith.select %64, %70, %cst_1 : vector<8xi1>, vector<8xindex>
        %72 = vector.extract %71[0] : index from vector<8xindex>
        %73 = vector.load %18[%72] : memref<?xf16, #amdgpu.address_space<fat_raw_buffer>>, vector<8xf16>
        %74 = affine.apply #map9()[%thread_id_x, %thread_id_y, %block_id_y, %block_id_x, %2]
        %75 = arith.cmpi slt, %74, %c2880 : index
        %76 = vector.broadcast %75 : i1 to vector<8xi1>
        %77 = arith.muli %74, %c4096 overflow<nsw> : index
        %78 = arith.addi %77, %15 overflow<nsw> : index
        %79 = arith.index_cast %78 : index to i32
        %80 = vector.broadcast %79 : i32 to vector<8xi32>
        %81 = arith.addi %80, %cst_0 : vector<8xi32>
        %82 = arith.index_cast %81 : vector<8xi32> to vector<8xindex>
        %83 = arith.select %76, %82, %cst_1 : vector<8xi1>, vector<8xindex>
        %84 = vector.extract %83[0] : index from vector<8xindex>
        %85 = vector.load %18[%84] : memref<?xf16, #amdgpu.address_space<fat_raw_buffer>>, vector<8xf16>
        %86 = affine.apply #map10()[%thread_id_x]
        %87 = arith.minsi %86, %c16 : index
        %88 = affine.apply #map11()[%thread_id_x]
        %89 = arith.cmpi slt, %88, %87 : index
        %90 = vector.broadcast %89 : i1 to vector<1xi1>
        vector.maskedstore %view_3[%88, %5], %90, %10 : memref<16x20xf16, #gpu.address_space<workgroup>>, vector<1xi1>, vector<1xf16>
        %91 = affine.apply #map12()[%thread_id_y]
        %92 = arith.minsi %91, %c1448 : index
        %93 = affine.apply #map13()[%thread_id_x, %thread_id_y]
        %94 = arith.cmpi slt, %93, %92 : index
        %95 = vector.broadcast %94 : i1 to vector<8xi1>
        vector.maskedstore %view[%93, %15], %95, %25 : memref<1448x20xf16, #gpu.address_space<workgroup>>, vector<8xi1>, vector<8xf16>
        %96 = affine.apply #map14()[%thread_id_x, %thread_id_y]
        %97 = arith.cmpi slt, %96, %92 : index
        %98 = vector.broadcast %97 : i1 to vector<8xi1>
        vector.maskedstore %view[%96, %15], %98, %37 : memref<1448x20xf16, #gpu.address_space<workgroup>>, vector<8xi1>, vector<8xf16>
        %99 = affine.apply #map15()[%thread_id_x, %thread_id_y]
        %100 = arith.cmpi slt, %99, %92 : index
        %101 = vector.broadcast %100 : i1 to vector<8xi1>
        vector.maskedstore %view[%99, %15], %101, %49 : memref<1448x20xf16, #gpu.address_space<workgroup>>, vector<8xi1>, vector<8xf16>
        %102 = affine.apply #map16()[%thread_id_x, %thread_id_y]
        %103 = arith.cmpi slt, %102, %92 : index
        %104 = vector.broadcast %103 : i1 to vector<8xi1>
        vector.maskedstore %view[%102, %15], %104, %61 : memref<1448x20xf16, #gpu.address_space<workgroup>>, vector<8xi1>, vector<8xf16>
        %105 = affine.apply #map17()[%thread_id_x, %thread_id_y]
        %106 = arith.cmpi slt, %105, %92 : index
        %107 = vector.broadcast %106 : i1 to vector<8xi1>
        vector.maskedstore %view[%105, %15], %107, %73 : memref<1448x20xf16, #gpu.address_space<workgroup>>, vector<8xi1>, vector<8xf16>
        %108 = affine.apply #map18()[%thread_id_x, %thread_id_y]
        %109 = arith.cmpi slt, %108, %92 : index
        %110 = vector.broadcast %109 : i1 to vector<8xi1>
        vector.maskedstore %view[%108, %15], %110, %85 : memref<1448x20xf16, #gpu.address_space<workgroup>>, vector<8xi1>, vector<8xf16>
        %111 = affine.apply #map19()[%thread_id_x, %thread_id_y]
        %112 = arith.cmpi slt, %111, %92 : index
        %113 = vector.broadcast %112 : i1 to vector<4xi1>
        %114 = affine.apply #map20()[%thread_id_x]
        %115 = affine.apply #map21()[%thread_id_x]
        %116 = affine.apply #map22()[%thread_id_x, %thread_id_y]
        %117 = arith.cmpi slt, %116, %92 : index
        %118 = vector.broadcast %117 : i1 to vector<4xi1>
        %119 = affine.apply #map23()[%thread_id_x, %thread_id_y]
        %120 = arith.cmpi slt, %119, %92 : index
        %121 = vector.broadcast %120 : i1 to vector<4xi1>
        %122 = affine.apply #map24()[%thread_id_x, %thread_id_y]
        %123 = arith.cmpi slt, %122, %92 : index
        %124 = vector.broadcast %123 : i1 to vector<4xi1>
        %125 = affine.apply #map25()[%thread_id_x, %thread_id_y]
        %126 = arith.cmpi slt, %125, %92 : index
        %127 = vector.broadcast %126 : i1 to vector<4xi1>
        %128 = affine.apply #map26()[%thread_id_x, %thread_id_y]
        %129 = arith.cmpi slt, %128, %92 : index
        %130 = vector.broadcast %129 : i1 to vector<4xi1>
        %131 = affine.apply #map27()[%thread_id_x, %thread_id_y]
        %132 = arith.cmpi slt, %131, %92 : index
        %133 = vector.broadcast %132 : i1 to vector<4xi1>
        %134 = affine.apply #map28()[%thread_id_x, %thread_id_y]
        %135 = arith.cmpi slt, %134, %92 : index
        %136 = vector.broadcast %135 : i1 to vector<4xi1>
        %137 = affine.apply #map29()[%thread_id_x, %thread_id_y]
        %138 = arith.cmpi slt, %137, %92 : index
        %139 = vector.broadcast %138 : i1 to vector<4xi1>
        %140 = affine.apply #map30()[%thread_id_x, %thread_id_y]
        %141 = arith.cmpi slt, %140, %92 : index
        %142 = vector.broadcast %141 : i1 to vector<4xi1>
        %143 = affine.apply #map31()[%thread_id_x, %thread_id_y]
        %144 = arith.cmpi slt, %143, %92 : index
        %145 = vector.broadcast %144 : i1 to vector<4xi1>
        %146 = affine.apply #map32()[%thread_id_x, %thread_id_y]
        %147 = arith.cmpi slt, %146, %92 : index
        %148 = vector.broadcast %147 : i1 to vector<4xi1>
        %149 = affine.apply #map33()[%thread_id_x, %thread_id_y]
        %150 = arith.cmpi slt, %149, %92 : index
        %151 = vector.broadcast %150 : i1 to vector<4xi1>
        %152 = affine.apply #map34()[%thread_id_x, %thread_id_y]
        %153 = arith.cmpi slt, %152, %92 : index
        %154 = vector.broadcast %153 : i1 to vector<4xi1>
        %155 = affine.apply #map35()[%thread_id_x, %thread_id_y]
        %156 = arith.cmpi slt, %155, %92 : index
        %157 = vector.broadcast %156 : i1 to vector<4xi1>
        %158 = affine.apply #map36()[%thread_id_x, %thread_id_y]
        %159 = arith.cmpi slt, %158, %92 : index
        %160 = vector.broadcast %159 : i1 to vector<4xi1>
        %161 = affine.apply #map37()[%thread_id_x, %thread_id_y]
        %162 = arith.cmpi slt, %161, %92 : index
        %163 = vector.broadcast %162 : i1 to vector<4xi1>
        %164 = affine.apply #map38()[%thread_id_x, %thread_id_y]
        %165 = arith.cmpi slt, %164, %92 : index
        %166 = vector.broadcast %165 : i1 to vector<4xi1>
        %167 = affine.apply #map39()[%thread_id_x, %thread_id_y]
        %168 = arith.cmpi slt, %167, %92 : index
        %169 = vector.broadcast %168 : i1 to vector<4xi1>
        %170 = affine.apply #map40()[%thread_id_x, %thread_id_y]
        %171 = arith.cmpi slt, %170, %92 : index
        %172 = vector.broadcast %171 : i1 to vector<4xi1>
        %173 = affine.apply #map41()[%thread_id_x, %thread_id_y]
        %174 = arith.cmpi slt, %173, %92 : index
        %175 = vector.broadcast %174 : i1 to vector<4xi1>
        %176 = affine.apply #map42()[%thread_id_x, %thread_id_y]
        %177 = arith.cmpi slt, %176, %92 : index
        %178 = vector.broadcast %177 : i1 to vector<4xi1>
        %179 = affine.apply #map43()[%thread_id_x, %thread_id_y]
        %180 = arith.cmpi slt, %179, %92 : index
        %181 = vector.broadcast %180 : i1 to vector<4xi1>
        %182 = affine.apply #map44()[%thread_id_x]
        %183 = arith.cmpi slt, %182, %87 : index
        %184 = vector.broadcast %183 : i1 to vector<4xi1>
        %185:23 = scf.for %arg3 = %c0 to %c255 step %c1 iter_args(%arg4 = %cst_2, %arg5 = %cst_2, %arg6 = %cst_2, %arg7 = %cst_2, %arg8 = %cst_2, %arg9 = %cst_2, %arg10 = %cst_2, %arg11 = %cst_2, %arg12 = %cst_2, %arg13 = %cst_2, %arg14 = %cst_2, %arg15 = %cst_2, %arg16 = %cst_2, %arg17 = %cst_2, %arg18 = %cst_2, %arg19 = %cst_2, %arg20 = %cst_2, %arg21 = %cst_2, %arg22 = %cst_2, %arg23 = %cst_2, %arg24 = %cst_2, %arg25 = %cst_2, %arg26 = %cst_2) -> (vector<16xf32>, vector<16xf32>, vector<16xf32>, vector<16xf32>, vector<16xf32>, vector<16xf32>, vector<16xf32>, vector<16xf32>, vector<16xf32>, vector<16xf32>, vector<16xf32>, vector<16xf32>, vector<16xf32>, vector<16xf32>, vector<16xf32>, vector<16xf32>, vector<16xf32>, vector<16xf32>, vector<16xf32>, vector<16xf32>, vector<16xf32>, vector<16xf32>, vector<16xf32>) {
          amdgpu.lds_barrier
          %1951 = vector.maskedload %view[%111, %114], %113, %cst : memref<1448x20xf16, #gpu.address_space<workgroup>>, vector<4xi1>, vector<4xf16> into vector<4xf16>
          %1952 = vector.maskedload %view[%111, %115], %113, %cst : memref<1448x20xf16, #gpu.address_space<workgroup>>, vector<4xi1>, vector<4xf16> into vector<4xf16>
          %1953 = vector.maskedload %view[%116, %114], %118, %cst : memref<1448x20xf16, #gpu.address_space<workgroup>>, vector<4xi1>, vector<4xf16> into vector<4xf16>
          %1954 = vector.maskedload %view[%116, %115], %118, %cst : memref<1448x20xf16, #gpu.address_space<workgroup>>, vector<4xi1>, vector<4xf16> into vector<4xf16>
          %1955 = vector.maskedload %view[%119, %114], %121, %cst : memref<1448x20xf16, #gpu.address_space<workgroup>>, vector<4xi1>, vector<4xf16> into vector<4xf16>
          %1956 = vector.maskedload %view[%119, %115], %121, %cst : memref<1448x20xf16, #gpu.address_space<workgroup>>, vector<4xi1>, vector<4xf16> into vector<4xf16>
          %1957 = vector.maskedload %view[%122, %114], %124, %cst : memref<1448x20xf16, #gpu.address_space<workgroup>>, vector<4xi1>, vector<4xf16> into vector<4xf16>
          %1958 = vector.maskedload %view[%122, %115], %124, %cst : memref<1448x20xf16, #gpu.address_space<workgroup>>, vector<4xi1>, vector<4xf16> into vector<4xf16>
          %1959 = vector.maskedload %view[%125, %114], %127, %cst : memref<1448x20xf16, #gpu.address_space<workgroup>>, vector<4xi1>, vector<4xf16> into vector<4xf16>
          %1960 = vector.maskedload %view[%125, %115], %127, %cst : memref<1448x20xf16, #gpu.address_space<workgroup>>, vector<4xi1>, vector<4xf16> into vector<4xf16>
          %1961 = vector.maskedload %view[%128, %114], %130, %cst : memref<1448x20xf16, #gpu.address_space<workgroup>>, vector<4xi1>, vector<4xf16> into vector<4xf16>
          %1962 = vector.maskedload %view[%128, %115], %130, %cst : memref<1448x20xf16, #gpu.address_space<workgroup>>, vector<4xi1>, vector<4xf16> into vector<4xf16>
          %1963 = vector.maskedload %view[%131, %114], %133, %cst : memref<1448x20xf16, #gpu.address_space<workgroup>>, vector<4xi1>, vector<4xf16> into vector<4xf16>
          %1964 = vector.maskedload %view[%131, %115], %133, %cst : memref<1448x20xf16, #gpu.address_space<workgroup>>, vector<4xi1>, vector<4xf16> into vector<4xf16>
          %1965 = vector.maskedload %view[%134, %114], %136, %cst : memref<1448x20xf16, #gpu.address_space<workgroup>>, vector<4xi1>, vector<4xf16> into vector<4xf16>
          %1966 = vector.maskedload %view[%134, %115], %136, %cst : memref<1448x20xf16, #gpu.address_space<workgroup>>, vector<4xi1>, vector<4xf16> into vector<4xf16>
          %1967 = vector.maskedload %view[%137, %114], %139, %cst : memref<1448x20xf16, #gpu.address_space<workgroup>>, vector<4xi1>, vector<4xf16> into vector<4xf16>
          %1968 = vector.maskedload %view[%137, %115], %139, %cst : memref<1448x20xf16, #gpu.address_space<workgroup>>, vector<4xi1>, vector<4xf16> into vector<4xf16>
          %1969 = vector.maskedload %view[%140, %114], %142, %cst : memref<1448x20xf16, #gpu.address_space<workgroup>>, vector<4xi1>, vector<4xf16> into vector<4xf16>
          %1970 = vector.maskedload %view[%140, %115], %142, %cst : memref<1448x20xf16, #gpu.address_space<workgroup>>, vector<4xi1>, vector<4xf16> into vector<4xf16>
          %1971 = vector.maskedload %view[%143, %114], %145, %cst : memref<1448x20xf16, #gpu.address_space<workgroup>>, vector<4xi1>, vector<4xf16> into vector<4xf16>
          %1972 = vector.maskedload %view[%143, %115], %145, %cst : memref<1448x20xf16, #gpu.address_space<workgroup>>, vector<4xi1>, vector<4xf16> into vector<4xf16>
          %1973 = vector.maskedload %view[%146, %114], %148, %cst : memref<1448x20xf16, #gpu.address_space<workgroup>>, vector<4xi1>, vector<4xf16> into vector<4xf16>
          %1974 = vector.maskedload %view[%146, %115], %148, %cst : memref<1448x20xf16, #gpu.address_space<workgroup>>, vector<4xi1>, vector<4xf16> into vector<4xf16>
          %1975 = vector.maskedload %view[%149, %114], %151, %cst : memref<1448x20xf16, #gpu.address_space<workgroup>>, vector<4xi1>, vector<4xf16> into vector<4xf16>
          %1976 = vector.maskedload %view[%149, %115], %151, %cst : memref<1448x20xf16, #gpu.address_space<workgroup>>, vector<4xi1>, vector<4xf16> into vector<4xf16>
          %1977 = vector.maskedload %view[%152, %114], %154, %cst : memref<1448x20xf16, #gpu.address_space<workgroup>>, vector<4xi1>, vector<4xf16> into vector<4xf16>
          %1978 = vector.maskedload %view[%152, %115], %154, %cst : memref<1448x20xf16, #gpu.address_space<workgroup>>, vector<4xi1>, vector<4xf16> into vector<4xf16>
          %1979 = vector.maskedload %view[%155, %114], %157, %cst : memref<1448x20xf16, #gpu.address_space<workgroup>>, vector<4xi1>, vector<4xf16> into vector<4xf16>
          %1980 = vector.maskedload %view[%155, %115], %157, %cst : memref<1448x20xf16, #gpu.address_space<workgroup>>, vector<4xi1>, vector<4xf16> into vector<4xf16>
          %1981 = vector.maskedload %view[%158, %114], %160, %cst : memref<1448x20xf16, #gpu.address_space<workgroup>>, vector<4xi1>, vector<4xf16> into vector<4xf16>
          %1982 = vector.maskedload %view[%158, %115], %160, %cst : memref<1448x20xf16, #gpu.address_space<workgroup>>, vector<4xi1>, vector<4xf16> into vector<4xf16>
          %1983 = vector.maskedload %view[%161, %114], %163, %cst : memref<1448x20xf16, #gpu.address_space<workgroup>>, vector<4xi1>, vector<4xf16> into vector<4xf16>
          %1984 = vector.maskedload %view[%161, %115], %163, %cst : memref<1448x20xf16, #gpu.address_space<workgroup>>, vector<4xi1>, vector<4xf16> into vector<4xf16>
          %1985 = vector.maskedload %view[%164, %114], %166, %cst : memref<1448x20xf16, #gpu.address_space<workgroup>>, vector<4xi1>, vector<4xf16> into vector<4xf16>
          %1986 = vector.maskedload %view[%164, %115], %166, %cst : memref<1448x20xf16, #gpu.address_space<workgroup>>, vector<4xi1>, vector<4xf16> into vector<4xf16>
          %1987 = vector.maskedload %view[%167, %114], %169, %cst : memref<1448x20xf16, #gpu.address_space<workgroup>>, vector<4xi1>, vector<4xf16> into vector<4xf16>
          %1988 = vector.maskedload %view[%167, %115], %169, %cst : memref<1448x20xf16, #gpu.address_space<workgroup>>, vector<4xi1>, vector<4xf16> into vector<4xf16>
          %1989 = vector.maskedload %view[%170, %114], %172, %cst : memref<1448x20xf16, #gpu.address_space<workgroup>>, vector<4xi1>, vector<4xf16> into vector<4xf16>
          %1990 = vector.maskedload %view[%170, %115], %172, %cst : memref<1448x20xf16, #gpu.address_space<workgroup>>, vector<4xi1>, vector<4xf16> into vector<4xf16>
          %1991 = vector.maskedload %view[%173, %114], %175, %cst : memref<1448x20xf16, #gpu.address_space<workgroup>>, vector<4xi1>, vector<4xf16> into vector<4xf16>
          %1992 = vector.maskedload %view[%173, %115], %175, %cst : memref<1448x20xf16, #gpu.address_space<workgroup>>, vector<4xi1>, vector<4xf16> into vector<4xf16>
          %1993 = vector.maskedload %view[%176, %114], %178, %cst : memref<1448x20xf16, #gpu.address_space<workgroup>>, vector<4xi1>, vector<4xf16> into vector<4xf16>
          %1994 = vector.maskedload %view[%176, %115], %178, %cst : memref<1448x20xf16, #gpu.address_space<workgroup>>, vector<4xi1>, vector<4xf16> into vector<4xf16>
          %1995 = vector.maskedload %view[%179, %114], %181, %cst : memref<1448x20xf16, #gpu.address_space<workgroup>>, vector<4xi1>, vector<4xf16> into vector<4xf16>
          %1996 = vector.maskedload %view[%179, %115], %181, %cst : memref<1448x20xf16, #gpu.address_space<workgroup>>, vector<4xi1>, vector<4xf16> into vector<4xf16>
          %1997 = vector.maskedload %view_3[%182, %114], %184, %cst : memref<16x20xf16, #gpu.address_space<workgroup>>, vector<4xi1>, vector<4xf16> into vector<4xf16>
          %1998 = vector.maskedload %view_3[%182, %115], %184, %cst : memref<16x20xf16, #gpu.address_space<workgroup>>, vector<4xi1>, vector<4xf16> into vector<4xf16>
          %1999 = affine.apply #map45()[%thread_id_x, %arg3]
          %2000 = arith.addi %6, %1999 overflow<nsw> : index
          %2001 = arith.select %4, %2000, %c1073741823 : index
          %2002 = vector.load %8[%2001] : memref<?xf16, #amdgpu.address_space<fat_raw_buffer>>, vector<1xf16>
          %2003 = affine.apply #map46()[%arg3, %thread_id_x]
          %2004 = arith.addi %16, %2003 overflow<nsw> : index
          %2005 = arith.index_cast %2004 : index to i32
          %2006 = vector.broadcast %2005 : i32 to vector<8xi32>
          %2007 = arith.addi %2006, %cst_0 : vector<8xi32>
          %2008 = arith.index_cast %2007 : vector<8xi32> to vector<8xindex>
          %2009 = arith.select %14, %2008, %cst_1 : vector<8xi1>, vector<8xindex>
          %2010 = vector.extract %2009[0] : index from vector<8xindex>
          %2011 = vector.load %18[%2010] : memref<?xf16, #amdgpu.address_space<fat_raw_buffer>>, vector<8xf16>
          %2012 = arith.addi %29, %2003 overflow<nsw> : index
          %2013 = arith.index_cast %2012 : index to i32
          %2014 = vector.broadcast %2013 : i32 to vector<8xi32>
          %2015 = arith.addi %2014, %cst_0 : vector<8xi32>
          %2016 = arith.index_cast %2015 : vector<8xi32> to vector<8xindex>
          %2017 = arith.select %28, %2016, %cst_1 : vector<8xi1>, vector<8xindex>
          %2018 = vector.extract %2017[0] : index from vector<8xindex>
          %2019 = vector.load %18[%2018] : memref<?xf16, #amdgpu.address_space<fat_raw_buffer>>, vector<8xf16>
          %2020 = arith.addi %41, %2003 overflow<nsw> : index
          %2021 = arith.index_cast %2020 : index to i32
          %2022 = vector.broadcast %2021 : i32 to vector<8xi32>
          %2023 = arith.addi %2022, %cst_0 : vector<8xi32>
          %2024 = arith.index_cast %2023 : vector<8xi32> to vector<8xindex>
          %2025 = arith.select %40, %2024, %cst_1 : vector<8xi1>, vector<8xindex>
          %2026 = vector.extract %2025[0] : index from vector<8xindex>
          %2027 = vector.load %18[%2026] : memref<?xf16, #amdgpu.address_space<fat_raw_buffer>>, vector<8xf16>
          %2028 = arith.addi %53, %2003 overflow<nsw> : index
          %2029 = arith.index_cast %2028 : index to i32
          %2030 = vector.broadcast %2029 : i32 to vector<8xi32>
          %2031 = arith.addi %2030, %cst_0 : vector<8xi32>
          %2032 = arith.index_cast %2031 : vector<8xi32> to vector<8xindex>
          %2033 = arith.select %52, %2032, %cst_1 : vector<8xi1>, vector<8xindex>
          %2034 = vector.extract %2033[0] : index from vector<8xindex>
          %2035 = vector.load %18[%2034] : memref<?xf16, #amdgpu.address_space<fat_raw_buffer>>, vector<8xf16>
          %2036 = arith.addi %65, %2003 overflow<nsw> : index
          %2037 = arith.index_cast %2036 : index to i32
          %2038 = vector.broadcast %2037 : i32 to vector<8xi32>
          %2039 = arith.addi %2038, %cst_0 : vector<8xi32>
          %2040 = arith.index_cast %2039 : vector<8xi32> to vector<8xindex>
          %2041 = arith.select %64, %2040, %cst_1 : vector<8xi1>, vector<8xindex>
          %2042 = vector.extract %2041[0] : index from vector<8xindex>
          %2043 = vector.load %18[%2042] : memref<?xf16, #amdgpu.address_space<fat_raw_buffer>>, vector<8xf16>
          %2044 = arith.addi %77, %2003 overflow<nsw> : index
          %2045 = arith.index_cast %2044 : index to i32
          %2046 = vector.broadcast %2045 : i32 to vector<8xi32>
          %2047 = arith.addi %2046, %cst_0 : vector<8xi32>
          %2048 = arith.index_cast %2047 : vector<8xi32> to vector<8xindex>
          %2049 = arith.select %76, %2048, %cst_1 : vector<8xi1>, vector<8xindex>
          %2050 = vector.extract %2049[0] : index from vector<8xindex>
          %2051 = vector.load %18[%2050] : memref<?xf16, #amdgpu.address_space<fat_raw_buffer>>, vector<8xf16>
          %2052 = amdgpu.mfma %1997 * %1951 + %arg4 {blocks = 1 : i32, k = 8 : i32, m = 32 : i32, n = 32 : i32} blgp =  none : vector<4xf16>, vector<4xf16>, vector<16xf32>
          %2053 = amdgpu.mfma %1998 * %1952 + %2052 {blocks = 1 : i32, k = 8 : i32, m = 32 : i32, n = 32 : i32} blgp =  none : vector<4xf16>, vector<4xf16>, vector<16xf32>
          %2054 = amdgpu.mfma %1997 * %1953 + %arg5 {blocks = 1 : i32, k = 8 : i32, m = 32 : i32, n = 32 : i32} blgp =  none : vector<4xf16>, vector<4xf16>, vector<16xf32>
          %2055 = amdgpu.mfma %1998 * %1954 + %2054 {blocks = 1 : i32, k = 8 : i32, m = 32 : i32, n = 32 : i32} blgp =  none : vector<4xf16>, vector<4xf16>, vector<16xf32>
          %2056 = amdgpu.mfma %1997 * %1955 + %arg6 {blocks = 1 : i32, k = 8 : i32, m = 32 : i32, n = 32 : i32} blgp =  none : vector<4xf16>, vector<4xf16>, vector<16xf32>
          %2057 = amdgpu.mfma %1998 * %1956 + %2056 {blocks = 1 : i32, k = 8 : i32, m = 32 : i32, n = 32 : i32} blgp =  none : vector<4xf16>, vector<4xf16>, vector<16xf32>
          %2058 = amdgpu.mfma %1997 * %1957 + %arg7 {blocks = 1 : i32, k = 8 : i32, m = 32 : i32, n = 32 : i32} blgp =  none : vector<4xf16>, vector<4xf16>, vector<16xf32>
          %2059 = amdgpu.mfma %1998 * %1958 + %2058 {blocks = 1 : i32, k = 8 : i32, m = 32 : i32, n = 32 : i32} blgp =  none : vector<4xf16>, vector<4xf16>, vector<16xf32>
          %2060 = amdgpu.mfma %1997 * %1959 + %arg8 {blocks = 1 : i32, k = 8 : i32, m = 32 : i32, n = 32 : i32} blgp =  none : vector<4xf16>, vector<4xf16>, vector<16xf32>
          %2061 = amdgpu.mfma %1998 * %1960 + %2060 {blocks = 1 : i32, k = 8 : i32, m = 32 : i32, n = 32 : i32} blgp =  none : vector<4xf16>, vector<4xf16>, vector<16xf32>
          %2062 = amdgpu.mfma %1997 * %1961 + %arg9 {blocks = 1 : i32, k = 8 : i32, m = 32 : i32, n = 32 : i32} blgp =  none : vector<4xf16>, vector<4xf16>, vector<16xf32>
          %2063 = amdgpu.mfma %1998 * %1962 + %2062 {blocks = 1 : i32, k = 8 : i32, m = 32 : i32, n = 32 : i32} blgp =  none : vector<4xf16>, vector<4xf16>, vector<16xf32>
          %2064 = amdgpu.mfma %1997 * %1963 + %arg10 {blocks = 1 : i32, k = 8 : i32, m = 32 : i32, n = 32 : i32} blgp =  none : vector<4xf16>, vector<4xf16>, vector<16xf32>
          %2065 = amdgpu.mfma %1998 * %1964 + %2064 {blocks = 1 : i32, k = 8 : i32, m = 32 : i32, n = 32 : i32} blgp =  none : vector<4xf16>, vector<4xf16>, vector<16xf32>
          %2066 = amdgpu.mfma %1997 * %1965 + %arg11 {blocks = 1 : i32, k = 8 : i32, m = 32 : i32, n = 32 : i32} blgp =  none : vector<4xf16>, vector<4xf16>, vector<16xf32>
          %2067 = amdgpu.mfma %1998 * %1966 + %2066 {blocks = 1 : i32, k = 8 : i32, m = 32 : i32, n = 32 : i32} blgp =  none : vector<4xf16>, vector<4xf16>, vector<16xf32>
          %2068 = amdgpu.mfma %1997 * %1967 + %arg12 {blocks = 1 : i32, k = 8 : i32, m = 32 : i32, n = 32 : i32} blgp =  none : vector<4xf16>, vector<4xf16>, vector<16xf32>
          %2069 = amdgpu.mfma %1998 * %1968 + %2068 {blocks = 1 : i32, k = 8 : i32, m = 32 : i32, n = 32 : i32} blgp =  none : vector<4xf16>, vector<4xf16>, vector<16xf32>
          %2070 = amdgpu.mfma %1997 * %1969 + %arg13 {blocks = 1 : i32, k = 8 : i32, m = 32 : i32, n = 32 : i32} blgp =  none : vector<4xf16>, vector<4xf16>, vector<16xf32>
          %2071 = amdgpu.mfma %1998 * %1970 + %2070 {blocks = 1 : i32, k = 8 : i32, m = 32 : i32, n = 32 : i32} blgp =  none : vector<4xf16>, vector<4xf16>, vector<16xf32>
          %2072 = amdgpu.mfma %1997 * %1971 + %arg14 {blocks = 1 : i32, k = 8 : i32, m = 32 : i32, n = 32 : i32} blgp =  none : vector<4xf16>, vector<4xf16>, vector<16xf32>
          %2073 = amdgpu.mfma %1998 * %1972 + %2072 {blocks = 1 : i32, k = 8 : i32, m = 32 : i32, n = 32 : i32} blgp =  none : vector<4xf16>, vector<4xf16>, vector<16xf32>
          %2074 = amdgpu.mfma %1997 * %1973 + %arg15 {blocks = 1 : i32, k = 8 : i32, m = 32 : i32, n = 32 : i32} blgp =  none : vector<4xf16>, vector<4xf16>, vector<16xf32>
          %2075 = amdgpu.mfma %1998 * %1974 + %2074 {blocks = 1 : i32, k = 8 : i32, m = 32 : i32, n = 32 : i32} blgp =  none : vector<4xf16>, vector<4xf16>, vector<16xf32>
          %2076 = amdgpu.mfma %1997 * %1975 + %arg16 {blocks = 1 : i32, k = 8 : i32, m = 32 : i32, n = 32 : i32} blgp =  none : vector<4xf16>, vector<4xf16>, vector<16xf32>
          %2077 = amdgpu.mfma %1998 * %1976 + %2076 {blocks = 1 : i32, k = 8 : i32, m = 32 : i32, n = 32 : i32} blgp =  none : vector<4xf16>, vector<4xf16>, vector<16xf32>
          %2078 = amdgpu.mfma %1997 * %1977 + %arg17 {blocks = 1 : i32, k = 8 : i32, m = 32 : i32, n = 32 : i32} blgp =  none : vector<4xf16>, vector<4xf16>, vector<16xf32>
          %2079 = amdgpu.mfma %1998 * %1978 + %2078 {blocks = 1 : i32, k = 8 : i32, m = 32 : i32, n = 32 : i32} blgp =  none : vector<4xf16>, vector<4xf16>, vector<16xf32>
          %2080 = amdgpu.mfma %1997 * %1979 + %arg18 {blocks = 1 : i32, k = 8 : i32, m = 32 : i32, n = 32 : i32} blgp =  none : vector<4xf16>, vector<4xf16>, vector<16xf32>
          %2081 = amdgpu.mfma %1998 * %1980 + %2080 {blocks = 1 : i32, k = 8 : i32, m = 32 : i32, n = 32 : i32} blgp =  none : vector<4xf16>, vector<4xf16>, vector<16xf32>
          %2082 = amdgpu.mfma %1997 * %1981 + %arg19 {blocks = 1 : i32, k = 8 : i32, m = 32 : i32, n = 32 : i32} blgp =  none : vector<4xf16>, vector<4xf16>, vector<16xf32>
          %2083 = amdgpu.mfma %1998 * %1982 + %2082 {blocks = 1 : i32, k = 8 : i32, m = 32 : i32, n = 32 : i32} blgp =  none : vector<4xf16>, vector<4xf16>, vector<16xf32>
          %2084 = amdgpu.mfma %1997 * %1983 + %arg20 {blocks = 1 : i32, k = 8 : i32, m = 32 : i32, n = 32 : i32} blgp =  none : vector<4xf16>, vector<4xf16>, vector<16xf32>
          %2085 = amdgpu.mfma %1998 * %1984 + %2084 {blocks = 1 : i32, k = 8 : i32, m = 32 : i32, n = 32 : i32} blgp =  none : vector<4xf16>, vector<4xf16>, vector<16xf32>
          %2086 = amdgpu.mfma %1997 * %1985 + %arg21 {blocks = 1 : i32, k = 8 : i32, m = 32 : i32, n = 32 : i32} blgp =  none : vector<4xf16>, vector<4xf16>, vector<16xf32>
          %2087 = amdgpu.mfma %1998 * %1986 + %2086 {blocks = 1 : i32, k = 8 : i32, m = 32 : i32, n = 32 : i32} blgp =  none : vector<4xf16>, vector<4xf16>, vector<16xf32>
          %2088 = amdgpu.mfma %1997 * %1987 + %arg22 {blocks = 1 : i32, k = 8 : i32, m = 32 : i32, n = 32 : i32} blgp =  none : vector<4xf16>, vector<4xf16>, vector<16xf32>
          %2089 = amdgpu.mfma %1998 * %1988 + %2088 {blocks = 1 : i32, k = 8 : i32, m = 32 : i32, n = 32 : i32} blgp =  none : vector<4xf16>, vector<4xf16>, vector<16xf32>
          %2090 = amdgpu.mfma %1997 * %1989 + %arg23 {blocks = 1 : i32, k = 8 : i32, m = 32 : i32, n = 32 : i32} blgp =  none : vector<4xf16>, vector<4xf16>, vector<16xf32>
          %2091 = amdgpu.mfma %1998 * %1990 + %2090 {blocks = 1 : i32, k = 8 : i32, m = 32 : i32, n = 32 : i32} blgp =  none : vector<4xf16>, vector<4xf16>, vector<16xf32>
          %2092 = amdgpu.mfma %1997 * %1991 + %arg24 {blocks = 1 : i32, k = 8 : i32, m = 32 : i32, n = 32 : i32} blgp =  none : vector<4xf16>, vector<4xf16>, vector<16xf32>
          %2093 = amdgpu.mfma %1998 * %1992 + %2092 {blocks = 1 : i32, k = 8 : i32, m = 32 : i32, n = 32 : i32} blgp =  none : vector<4xf16>, vector<4xf16>, vector<16xf32>
          %2094 = amdgpu.mfma %1997 * %1993 + %arg25 {blocks = 1 : i32, k = 8 : i32, m = 32 : i32, n = 32 : i32} blgp =  none : vector<4xf16>, vector<4xf16>, vector<16xf32>
          %2095 = amdgpu.mfma %1998 * %1994 + %2094 {blocks = 1 : i32, k = 8 : i32, m = 32 : i32, n = 32 : i32} blgp =  none : vector<4xf16>, vector<4xf16>, vector<16xf32>
          %2096 = amdgpu.mfma %1997 * %1995 + %arg26 {blocks = 1 : i32, k = 8 : i32, m = 32 : i32, n = 32 : i32} blgp =  none : vector<4xf16>, vector<4xf16>, vector<16xf32>
          %2097 = amdgpu.mfma %1998 * %1996 + %2096 {blocks = 1 : i32, k = 8 : i32, m = 32 : i32, n = 32 : i32} blgp =  none : vector<4xf16>, vector<4xf16>, vector<16xf32>
          amdgpu.lds_barrier
          vector.maskedstore %view_3[%88, %5], %90, %2002 : memref<16x20xf16, #gpu.address_space<workgroup>>, vector<1xi1>, vector<1xf16>
          vector.maskedstore %view[%93, %15], %95, %2011 : memref<1448x20xf16, #gpu.address_space<workgroup>>, vector<8xi1>, vector<8xf16>
          vector.maskedstore %view[%96, %15], %98, %2019 : memref<1448x20xf16, #gpu.address_space<workgroup>>, vector<8xi1>, vector<8xf16>
          vector.maskedstore %view[%99, %15], %101, %2027 : memref<1448x20xf16, #gpu.address_space<workgroup>>, vector<8xi1>, vector<8xf16>
          vector.maskedstore %view[%102, %15], %104, %2035 : memref<1448x20xf16, #gpu.address_space<workgroup>>, vector<8xi1>, vector<8xf16>
          vector.maskedstore %view[%105, %15], %107, %2043 : memref<1448x20xf16, #gpu.address_space<workgroup>>, vector<8xi1>, vector<8xf16>
          vector.maskedstore %view[%108, %15], %110, %2051 : memref<1448x20xf16, #gpu.address_space<workgroup>>, vector<8xi1>, vector<8xf16>
          scf.yield %2053, %2055, %2057, %2059, %2061, %2063, %2065, %2067, %2069, %2071, %2073, %2075, %2077, %2079, %2081, %2083, %2085, %2087, %2089, %2091, %2093, %2095, %2097 : vector<16xf32>, vector<16xf32>, vector<16xf32>, vector<16xf32>, vector<16xf32>, vector<16xf32>, vector<16xf32>, vector<16xf32>, vector<16xf32>, vector<16xf32>, vector<16xf32>, vector<16xf32>, vector<16xf32>, vector<16xf32>, vector<16xf32>, vector<16xf32>, vector<16xf32>, vector<16xf32>, vector<16xf32>, vector<16xf32>, vector<16xf32>, vector<16xf32>, vector<16xf32>
        }
        amdgpu.lds_barrier
        %186 = affine.apply #map19()[%thread_id_x, %thread_id_y]
        %187 = arith.cmpi slt, %186, %92 : index
        %188 = vector.broadcast %187 : i1 to vector<4xi1>
        %189 = affine.apply #map20()[%thread_id_x]
        %190 = vector.maskedload %view[%186, %189], %188, %cst : memref<1448x20xf16, #gpu.address_space<workgroup>>, vector<4xi1>, vector<4xf16> into vector<4xf16>
        %191 = affine.apply #map21()[%thread_id_x]
        %192 = vector.maskedload %view[%186, %191], %188, %cst : memref<1448x20xf16, #gpu.address_space<workgroup>>, vector<4xi1>, vector<4xf16> into vector<4xf16>
        %193 = affine.apply #map22()[%thread_id_x, %thread_id_y]
        %194 = arith.cmpi slt, %193, %92 : index
        %195 = vector.broadcast %194 : i1 to vector<4xi1>
        %196 = vector.maskedload %view[%193, %189], %195, %cst : memref<1448x20xf16, #gpu.address_space<workgroup>>, vector<4xi1>, vector<4xf16> into vector<4xf16>
        %197 = vector.maskedload %view[%193, %191], %195, %cst : memref<1448x20xf16, #gpu.address_space<workgroup>>, vector<4xi1>, vector<4xf16> into vector<4xf16>
        %198 = affine.apply #map23()[%thread_id_x, %thread_id_y]
        %199 = arith.cmpi slt, %198, %92 : index
        %200 = vector.broadcast %199 : i1 to vector<4xi1>
        %201 = vector.maskedload %view[%198, %189], %200, %cst : memref<1448x20xf16, #gpu.address_space<workgroup>>, vector<4xi1>, vector<4xf16> into vector<4xf16>
        %202 = vector.maskedload %view[%198, %191], %200, %cst : memref<1448x20xf16, #gpu.address_space<workgroup>>, vector<4xi1>, vector<4xf16> into vector<4xf16>
        %203 = affine.apply #map24()[%thread_id_x, %thread_id_y]
        %204 = arith.cmpi slt, %203, %92 : index
        %205 = vector.broadcast %204 : i1 to vector<4xi1>
        %206 = vector.maskedload %view[%203, %189], %205, %cst : memref<1448x20xf16, #gpu.address_space<workgroup>>, vector<4xi1>, vector<4xf16> into vector<4xf16>
        %207 = vector.maskedload %view[%203, %191], %205, %cst : memref<1448x20xf16, #gpu.address_space<workgroup>>, vector<4xi1>, vector<4xf16> into vector<4xf16>
        %208 = affine.apply #map25()[%thread_id_x, %thread_id_y]
        %209 = arith.cmpi slt, %208, %92 : index
        %210 = vector.broadcast %209 : i1 to vector<4xi1>
        %211 = vector.maskedload %view[%208, %189], %210, %cst : memref<1448x20xf16, #gpu.address_space<workgroup>>, vector<4xi1>, vector<4xf16> into vector<4xf16>
        %212 = vector.maskedload %view[%208, %191], %210, %cst : memref<1448x20xf16, #gpu.address_space<workgroup>>, vector<4xi1>, vector<4xf16> into vector<4xf16>
        %213 = affine.apply #map26()[%thread_id_x, %thread_id_y]
        %214 = arith.cmpi slt, %213, %92 : index
        %215 = vector.broadcast %214 : i1 to vector<4xi1>
        %216 = vector.maskedload %view[%213, %189], %215, %cst : memref<1448x20xf16, #gpu.address_space<workgroup>>, vector<4xi1>, vector<4xf16> into vector<4xf16>
        %217 = vector.maskedload %view[%213, %191], %215, %cst : memref<1448x20xf16, #gpu.address_space<workgroup>>, vector<4xi1>, vector<4xf16> into vector<4xf16>
        %218 = affine.apply #map27()[%thread_id_x, %thread_id_y]
        %219 = arith.cmpi slt, %218, %92 : index
        %220 = vector.broadcast %219 : i1 to vector<4xi1>
        %221 = vector.maskedload %view[%218, %189], %220, %cst : memref<1448x20xf16, #gpu.address_space<workgroup>>, vector<4xi1>, vector<4xf16> into vector<4xf16>
        %222 = vector.maskedload %view[%218, %191], %220, %cst : memref<1448x20xf16, #gpu.address_space<workgroup>>, vector<4xi1>, vector<4xf16> into vector<4xf16>
        %223 = affine.apply #map28()[%thread_id_x, %thread_id_y]
        %224 = arith.cmpi slt, %223, %92 : index
        %225 = vector.broadcast %224 : i1 to vector<4xi1>
        %226 = vector.maskedload %view[%223, %189], %225, %cst : memref<1448x20xf16, #gpu.address_space<workgroup>>, vector<4xi1>, vector<4xf16> into vector<4xf16>
        %227 = vector.maskedload %view[%223, %191], %225, %cst : memref<1448x20xf16, #gpu.address_space<workgroup>>, vector<4xi1>, vector<4xf16> into vector<4xf16>
        %228 = affine.apply #map29()[%thread_id_x, %thread_id_y]
        %229 = arith.cmpi slt, %228, %92 : index
        %230 = vector.broadcast %229 : i1 to vector<4xi1>
        %231 = vector.maskedload %view[%228, %189], %230, %cst : memref<1448x20xf16, #gpu.address_space<workgroup>>, vector<4xi1>, vector<4xf16> into vector<4xf16>
        %232 = vector.maskedload %view[%228, %191], %230, %cst : memref<1448x20xf16, #gpu.address_space<workgroup>>, vector<4xi1>, vector<4xf16> into vector<4xf16>
        %233 = affine.apply #map30()[%thread_id_x, %thread_id_y]
        %234 = arith.cmpi slt, %233, %92 : index
        %235 = vector.broadcast %234 : i1 to vector<4xi1>
        %236 = vector.maskedload %view[%233, %189], %235, %cst : memref<1448x20xf16, #gpu.address_space<workgroup>>, vector<4xi1>, vector<4xf16> into vector<4xf16>
        %237 = vector.maskedload %view[%233, %191], %235, %cst : memref<1448x20xf16, #gpu.address_space<workgroup>>, vector<4xi1>, vector<4xf16> into vector<4xf16>
        %238 = affine.apply #map31()[%thread_id_x, %thread_id_y]
        %239 = arith.cmpi slt, %238, %92 : index
        %240 = vector.broadcast %239 : i1 to vector<4xi1>
        %241 = vector.maskedload %view[%238, %189], %240, %cst : memref<1448x20xf16, #gpu.address_space<workgroup>>, vector<4xi1>, vector<4xf16> into vector<4xf16>
        %242 = vector.maskedload %view[%238, %191], %240, %cst : memref<1448x20xf16, #gpu.address_space<workgroup>>, vector<4xi1>, vector<4xf16> into vector<4xf16>
        %243 = affine.apply #map32()[%thread_id_x, %thread_id_y]
        %244 = arith.cmpi slt, %243, %92 : index
        %245 = vector.broadcast %244 : i1 to vector<4xi1>
        %246 = vector.maskedload %view[%243, %189], %245, %cst : memref<1448x20xf16, #gpu.address_space<workgroup>>, vector<4xi1>, vector<4xf16> into vector<4xf16>
        %247 = vector.maskedload %view[%243, %191], %245, %cst : memref<1448x20xf16, #gpu.address_space<workgroup>>, vector<4xi1>, vector<4xf16> into vector<4xf16>
        %248 = affine.apply #map33()[%thread_id_x, %thread_id_y]
        %249 = arith.cmpi slt, %248, %92 : index
        %250 = vector.broadcast %249 : i1 to vector<4xi1>
        %251 = vector.maskedload %view[%248, %189], %250, %cst : memref<1448x20xf16, #gpu.address_space<workgroup>>, vector<4xi1>, vector<4xf16> into vector<4xf16>
        %252 = vector.maskedload %view[%248, %191], %250, %cst : memref<1448x20xf16, #gpu.address_space<workgroup>>, vector<4xi1>, vector<4xf16> into vector<4xf16>
        %253 = affine.apply #map34()[%thread_id_x, %thread_id_y]
        %254 = arith.cmpi slt, %253, %92 : index
        %255 = vector.broadcast %254 : i1 to vector<4xi1>
        %256 = vector.maskedload %view[%253, %189], %255, %cst : memref<1448x20xf16, #gpu.address_space<workgroup>>, vector<4xi1>, vector<4xf16> into vector<4xf16>
        %257 = vector.maskedload %view[%253, %191], %255, %cst : memref<1448x20xf16, #gpu.address_space<workgroup>>, vector<4xi1>, vector<4xf16> into vector<4xf16>
        %258 = affine.apply #map35()[%thread_id_x, %thread_id_y]
        %259 = arith.cmpi slt, %258, %92 : index
        %260 = vector.broadcast %259 : i1 to vector<4xi1>
        %261 = vector.maskedload %view[%258, %189], %260, %cst : memref<1448x20xf16, #gpu.address_space<workgroup>>, vector<4xi1>, vector<4xf16> into vector<4xf16>
        %262 = vector.maskedload %view[%258, %191], %260, %cst : memref<1448x20xf16, #gpu.address_space<workgroup>>, vector<4xi1>, vector<4xf16> into vector<4xf16>
        %263 = affine.apply #map36()[%thread_id_x, %thread_id_y]
        %264 = arith.cmpi slt, %263, %92 : index
        %265 = vector.broadcast %264 : i1 to vector<4xi1>
        %266 = vector.maskedload %view[%263, %189], %265, %cst : memref<1448x20xf16, #gpu.address_space<workgroup>>, vector<4xi1>, vector<4xf16> into vector<4xf16>
        %267 = vector.maskedload %view[%263, %191], %265, %cst : memref<1448x20xf16, #gpu.address_space<workgroup>>, vector<4xi1>, vector<4xf16> into vector<4xf16>
        %268 = affine.apply #map37()[%thread_id_x, %thread_id_y]
        %269 = arith.cmpi slt, %268, %92 : index
        %270 = vector.broadcast %269 : i1 to vector<4xi1>
        %271 = vector.maskedload %view[%268, %189], %270, %cst : memref<1448x20xf16, #gpu.address_space<workgroup>>, vector<4xi1>, vector<4xf16> into vector<4xf16>
        %272 = vector.maskedload %view[%268, %191], %270, %cst : memref<1448x20xf16, #gpu.address_space<workgroup>>, vector<4xi1>, vector<4xf16> into vector<4xf16>
        %273 = affine.apply #map38()[%thread_id_x, %thread_id_y]
        %274 = arith.cmpi slt, %273, %92 : index
        %275 = vector.broadcast %274 : i1 to vector<4xi1>
        %276 = vector.maskedload %view[%273, %189], %275, %cst : memref<1448x20xf16, #gpu.address_space<workgroup>>, vector<4xi1>, vector<4xf16> into vector<4xf16>
        %277 = vector.maskedload %view[%273, %191], %275, %cst : memref<1448x20xf16, #gpu.address_space<workgroup>>, vector<4xi1>, vector<4xf16> into vector<4xf16>
        %278 = affine.apply #map39()[%thread_id_x, %thread_id_y]
        %279 = arith.cmpi slt, %278, %92 : index
        %280 = vector.broadcast %279 : i1 to vector<4xi1>
        %281 = vector.maskedload %view[%278, %189], %280, %cst : memref<1448x20xf16, #gpu.address_space<workgroup>>, vector<4xi1>, vector<4xf16> into vector<4xf16>
        %282 = vector.maskedload %view[%278, %191], %280, %cst : memref<1448x20xf16, #gpu.address_space<workgroup>>, vector<4xi1>, vector<4xf16> into vector<4xf16>
        %283 = affine.apply #map40()[%thread_id_x, %thread_id_y]
        %284 = arith.cmpi slt, %283, %92 : index
        %285 = vector.broadcast %284 : i1 to vector<4xi1>
        %286 = vector.maskedload %view[%283, %189], %285, %cst : memref<1448x20xf16, #gpu.address_space<workgroup>>, vector<4xi1>, vector<4xf16> into vector<4xf16>
        %287 = vector.maskedload %view[%283, %191], %285, %cst : memref<1448x20xf16, #gpu.address_space<workgroup>>, vector<4xi1>, vector<4xf16> into vector<4xf16>
        %288 = affine.apply #map41()[%thread_id_x, %thread_id_y]
        %289 = arith.cmpi slt, %288, %92 : index
        %290 = vector.broadcast %289 : i1 to vector<4xi1>
        %291 = vector.maskedload %view[%288, %189], %290, %cst : memref<1448x20xf16, #gpu.address_space<workgroup>>, vector<4xi1>, vector<4xf16> into vector<4xf16>
        %292 = vector.maskedload %view[%288, %191], %290, %cst : memref<1448x20xf16, #gpu.address_space<workgroup>>, vector<4xi1>, vector<4xf16> into vector<4xf16>
        %293 = affine.apply #map42()[%thread_id_x, %thread_id_y]
        %294 = arith.cmpi slt, %293, %92 : index
        %295 = vector.broadcast %294 : i1 to vector<4xi1>
        %296 = vector.maskedload %view[%293, %189], %295, %cst : memref<1448x20xf16, #gpu.address_space<workgroup>>, vector<4xi1>, vector<4xf16> into vector<4xf16>
        %297 = vector.maskedload %view[%293, %191], %295, %cst : memref<1448x20xf16, #gpu.address_space<workgroup>>, vector<4xi1>, vector<4xf16> into vector<4xf16>
        %298 = affine.apply #map43()[%thread_id_x, %thread_id_y]
        %299 = arith.cmpi slt, %298, %92 : index
        %300 = vector.broadcast %299 : i1 to vector<4xi1>
        %301 = vector.maskedload %view[%298, %189], %300, %cst : memref<1448x20xf16, #gpu.address_space<workgroup>>, vector<4xi1>, vector<4xf16> into vector<4xf16>
        %302 = vector.maskedload %view[%298, %191], %300, %cst : memref<1448x20xf16, #gpu.address_space<workgroup>>, vector<4xi1>, vector<4xf16> into vector<4xf16>
        %303 = affine.apply #map44()[%thread_id_x]
        %304 = arith.cmpi slt, %303, %87 : index
        %305 = vector.broadcast %304 : i1 to vector<4xi1>
        %306 = vector.maskedload %view_3[%303, %189], %305, %cst : memref<16x20xf16, #gpu.address_space<workgroup>>, vector<4xi1>, vector<4xf16> into vector<4xf16>
        %307 = vector.maskedload %view_3[%303, %191], %305, %cst : memref<16x20xf16, #gpu.address_space<workgroup>>, vector<4xi1>, vector<4xf16> into vector<4xf16>
        %308 = amdgpu.mfma %306 * %190 + %185#0 {blocks = 1 : i32, k = 8 : i32, m = 32 : i32, n = 32 : i32} blgp =  none : vector<4xf16>, vector<4xf16>, vector<16xf32>
        %309 = amdgpu.mfma %307 * %192 + %308 {blocks = 1 : i32, k = 8 : i32, m = 32 : i32, n = 32 : i32} blgp =  none : vector<4xf16>, vector<4xf16>, vector<16xf32>
        %310 = amdgpu.mfma %306 * %196 + %185#1 {blocks = 1 : i32, k = 8 : i32, m = 32 : i32, n = 32 : i32} blgp =  none : vector<4xf16>, vector<4xf16>, vector<16xf32>
        %311 = amdgpu.mfma %307 * %197 + %310 {blocks = 1 : i32, k = 8 : i32, m = 32 : i32, n = 32 : i32} blgp =  none : vector<4xf16>, vector<4xf16>, vector<16xf32>
        %312 = amdgpu.mfma %306 * %201 + %185#2 {blocks = 1 : i32, k = 8 : i32, m = 32 : i32, n = 32 : i32} blgp =  none : vector<4xf16>, vector<4xf16>, vector<16xf32>
        %313 = amdgpu.mfma %307 * %202 + %312 {blocks = 1 : i32, k = 8 : i32, m = 32 : i32, n = 32 : i32} blgp =  none : vector<4xf16>, vector<4xf16>, vector<16xf32>
        %314 = amdgpu.mfma %306 * %206 + %185#3 {blocks = 1 : i32, k = 8 : i32, m = 32 : i32, n = 32 : i32} blgp =  none : vector<4xf16>, vector<4xf16>, vector<16xf32>
        %315 = amdgpu.mfma %307 * %207 + %314 {blocks = 1 : i32, k = 8 : i32, m = 32 : i32, n = 32 : i32} blgp =  none : vector<4xf16>, vector<4xf16>, vector<16xf32>
        %316 = amdgpu.mfma %306 * %211 + %185#4 {blocks = 1 : i32, k = 8 : i32, m = 32 : i32, n = 32 : i32} blgp =  none : vector<4xf16>, vector<4xf16>, vector<16xf32>
        %317 = amdgpu.mfma %307 * %212 + %316 {blocks = 1 : i32, k = 8 : i32, m = 32 : i32, n = 32 : i32} blgp =  none : vector<4xf16>, vector<4xf16>, vector<16xf32>
        %318 = amdgpu.mfma %306 * %216 + %185#5 {blocks = 1 : i32, k = 8 : i32, m = 32 : i32, n = 32 : i32} blgp =  none : vector<4xf16>, vector<4xf16>, vector<16xf32>
        %319 = amdgpu.mfma %307 * %217 + %318 {blocks = 1 : i32, k = 8 : i32, m = 32 : i32, n = 32 : i32} blgp =  none : vector<4xf16>, vector<4xf16>, vector<16xf32>
        %320 = amdgpu.mfma %306 * %221 + %185#6 {blocks = 1 : i32, k = 8 : i32, m = 32 : i32, n = 32 : i32} blgp =  none : vector<4xf16>, vector<4xf16>, vector<16xf32>
        %321 = amdgpu.mfma %307 * %222 + %320 {blocks = 1 : i32, k = 8 : i32, m = 32 : i32, n = 32 : i32} blgp =  none : vector<4xf16>, vector<4xf16>, vector<16xf32>
        %322 = amdgpu.mfma %306 * %226 + %185#7 {blocks = 1 : i32, k = 8 : i32, m = 32 : i32, n = 32 : i32} blgp =  none : vector<4xf16>, vector<4xf16>, vector<16xf32>
        %323 = amdgpu.mfma %307 * %227 + %322 {blocks = 1 : i32, k = 8 : i32, m = 32 : i32, n = 32 : i32} blgp =  none : vector<4xf16>, vector<4xf16>, vector<16xf32>
        %324 = amdgpu.mfma %306 * %231 + %185#8 {blocks = 1 : i32, k = 8 : i32, m = 32 : i32, n = 32 : i32} blgp =  none : vector<4xf16>, vector<4xf16>, vector<16xf32>
        %325 = amdgpu.mfma %307 * %232 + %324 {blocks = 1 : i32, k = 8 : i32, m = 32 : i32, n = 32 : i32} blgp =  none : vector<4xf16>, vector<4xf16>, vector<16xf32>
        %326 = amdgpu.mfma %306 * %236 + %185#9 {blocks = 1 : i32, k = 8 : i32, m = 32 : i32, n = 32 : i32} blgp =  none : vector<4xf16>, vector<4xf16>, vector<16xf32>
        %327 = amdgpu.mfma %307 * %237 + %326 {blocks = 1 : i32, k = 8 : i32, m = 32 : i32, n = 32 : i32} blgp =  none : vector<4xf16>, vector<4xf16>, vector<16xf32>
        %328 = amdgpu.mfma %306 * %241 + %185#10 {blocks = 1 : i32, k = 8 : i32, m = 32 : i32, n = 32 : i32} blgp =  none : vector<4xf16>, vector<4xf16>, vector<16xf32>
        %329 = amdgpu.mfma %307 * %242 + %328 {blocks = 1 : i32, k = 8 : i32, m = 32 : i32, n = 32 : i32} blgp =  none : vector<4xf16>, vector<4xf16>, vector<16xf32>
        %330 = amdgpu.mfma %306 * %246 + %185#11 {blocks = 1 : i32, k = 8 : i32, m = 32 : i32, n = 32 : i32} blgp =  none : vector<4xf16>, vector<4xf16>, vector<16xf32>
        %331 = amdgpu.mfma %307 * %247 + %330 {blocks = 1 : i32, k = 8 : i32, m = 32 : i32, n = 32 : i32} blgp =  none : vector<4xf16>, vector<4xf16>, vector<16xf32>
        %332 = amdgpu.mfma %306 * %251 + %185#12 {blocks = 1 : i32, k = 8 : i32, m = 32 : i32, n = 32 : i32} blgp =  none : vector<4xf16>, vector<4xf16>, vector<16xf32>
        %333 = amdgpu.mfma %307 * %252 + %332 {blocks = 1 : i32, k = 8 : i32, m = 32 : i32, n = 32 : i32} blgp =  none : vector<4xf16>, vector<4xf16>, vector<16xf32>
        %334 = amdgpu.mfma %306 * %256 + %185#13 {blocks = 1 : i32, k = 8 : i32, m = 32 : i32, n = 32 : i32} blgp =  none : vector<4xf16>, vector<4xf16>, vector<16xf32>
        %335 = amdgpu.mfma %307 * %257 + %334 {blocks = 1 : i32, k = 8 : i32, m = 32 : i32, n = 32 : i32} blgp =  none : vector<4xf16>, vector<4xf16>, vector<16xf32>
        %336 = amdgpu.mfma %306 * %261 + %185#14 {blocks = 1 : i32, k = 8 : i32, m = 32 : i32, n = 32 : i32} blgp =  none : vector<4xf16>, vector<4xf16>, vector<16xf32>
        %337 = amdgpu.mfma %307 * %262 + %336 {blocks = 1 : i32, k = 8 : i32, m = 32 : i32, n = 32 : i32} blgp =  none : vector<4xf16>, vector<4xf16>, vector<16xf32>
        %338 = amdgpu.mfma %306 * %266 + %185#15 {blocks = 1 : i32, k = 8 : i32, m = 32 : i32, n = 32 : i32} blgp =  none : vector<4xf16>, vector<4xf16>, vector<16xf32>
        %339 = amdgpu.mfma %307 * %267 + %338 {blocks = 1 : i32, k = 8 : i32, m = 32 : i32, n = 32 : i32} blgp =  none : vector<4xf16>, vector<4xf16>, vector<16xf32>
        %340 = amdgpu.mfma %306 * %271 + %185#16 {blocks = 1 : i32, k = 8 : i32, m = 32 : i32, n = 32 : i32} blgp =  none : vector<4xf16>, vector<4xf16>, vector<16xf32>
        %341 = amdgpu.mfma %307 * %272 + %340 {blocks = 1 : i32, k = 8 : i32, m = 32 : i32, n = 32 : i32} blgp =  none : vector<4xf16>, vector<4xf16>, vector<16xf32>
        %342 = amdgpu.mfma %306 * %276 + %185#17 {blocks = 1 : i32, k = 8 : i32, m = 32 : i32, n = 32 : i32} blgp =  none : vector<4xf16>, vector<4xf16>, vector<16xf32>
        %343 = amdgpu.mfma %307 * %277 + %342 {blocks = 1 : i32, k = 8 : i32, m = 32 : i32, n = 32 : i32} blgp =  none : vector<4xf16>, vector<4xf16>, vector<16xf32>
        %344 = amdgpu.mfma %306 * %281 + %185#18 {blocks = 1 : i32, k = 8 : i32, m = 32 : i32, n = 32 : i32} blgp =  none : vector<4xf16>, vector<4xf16>, vector<16xf32>
        %345 = amdgpu.mfma %307 * %282 + %344 {blocks = 1 : i32, k = 8 : i32, m = 32 : i32, n = 32 : i32} blgp =  none : vector<4xf16>, vector<4xf16>, vector<16xf32>
        %346 = amdgpu.mfma %306 * %286 + %185#19 {blocks = 1 : i32, k = 8 : i32, m = 32 : i32, n = 32 : i32} blgp =  none : vector<4xf16>, vector<4xf16>, vector<16xf32>
        %347 = amdgpu.mfma %307 * %287 + %346 {blocks = 1 : i32, k = 8 : i32, m = 32 : i32, n = 32 : i32} blgp =  none : vector<4xf16>, vector<4xf16>, vector<16xf32>
        %348 = amdgpu.mfma %306 * %291 + %185#20 {blocks = 1 : i32, k = 8 : i32, m = 32 : i32, n = 32 : i32} blgp =  none : vector<4xf16>, vector<4xf16>, vector<16xf32>
        %349 = amdgpu.mfma %307 * %292 + %348 {blocks = 1 : i32, k = 8 : i32, m = 32 : i32, n = 32 : i32} blgp =  none : vector<4xf16>, vector<4xf16>, vector<16xf32>
        %350 = amdgpu.mfma %306 * %296 + %185#21 {blocks = 1 : i32, k = 8 : i32, m = 32 : i32, n = 32 : i32} blgp =  none : vector<4xf16>, vector<4xf16>, vector<16xf32>
        %351 = amdgpu.mfma %307 * %297 + %350 {blocks = 1 : i32, k = 8 : i32, m = 32 : i32, n = 32 : i32} blgp =  none : vector<4xf16>, vector<4xf16>, vector<16xf32>
        %352 = amdgpu.mfma %306 * %301 + %185#22 {blocks = 1 : i32, k = 8 : i32, m = 32 : i32, n = 32 : i32} blgp =  none : vector<4xf16>, vector<4xf16>, vector<16xf32>
        %353 = amdgpu.mfma %307 * %302 + %352 {blocks = 1 : i32, k = 8 : i32, m = 32 : i32, n = 32 : i32} blgp =  none : vector<4xf16>, vector<4xf16>, vector<16xf32>
        %354 = vector.extract_strided_slice %309 {offsets = [0], sizes = [1], strides = [1]} : vector<16xf32> to vector<1xf32>
        %355 = stream.binding.subspan %arg2[%c0] : !stream.binding -> memref<641x2880xf32, strided<[2880, 1], offset: ?>>
        %356 = affine.apply #map47()[%block_id_y, %thread_id_y]
        %357 = affine.apply #map48()[%block_id_y]
        %358 = arith.minsi %356, %357 : index
        %359 = arith.minsi %358, %c2880 : index
        %360 = affine.apply #map49()[%thread_id_x, %block_id_y, %block_id_x, %2, %thread_id_y]
        %361 = arith.cmpi slt, %360, %359 : index
        %362 = affine.apply #map50()[%block_id_x, %thread_id_x]
        %363 = affine.apply #map51()[%block_id_x]
        %364 = arith.minsi %362, %363 : index
        %365 = arith.minsi %364, %c641 : index
        %366 = affine.apply #map52()[%block_id_y, %block_id_x, %2, %thread_id_x]
        %367 = arith.cmpi slt, %366, %365 : index
        %368 = arith.andi %361, %367 : i1
        %369 = affine.apply #map53()[%block_id_y, %block_id_x, %2]
        %370 = affine.apply #map54()[%block_id_y, %block_id_x, %2]
        %371 = affine.apply #map55()[%thread_id_x]
        %372 = arith.muli %369, %c2880 overflow<nsw> : index
        %373 = arith.muli %371, %c2880 overflow<nsw> : index
        %374 = arith.addi %372, %370 overflow<nsw> : index
        %375 = arith.addi %373, %186 overflow<nsw> : index
        %base_buffer_9, %offset_10, %sizes_11:2, %strides_12:2 = memref.extract_strided_metadata %355 : memref<641x2880xf32, strided<[2880, 1], offset: ?>> -> memref<f32>, index, index, index, index, index
        %376 = arith.addi %374, %offset_10 overflow<nsw> : index
        %reinterpret_cast_13 = memref.reinterpret_cast %355 to offset: [%376], sizes: [%c536870910], strides: [1] : memref<641x2880xf32, strided<[2880, 1], offset: ?>> to memref<?xf32, strided<[1], offset: ?>>
        %377 = amdgpu.fat_raw_buffer_cast %reinterpret_cast_13 validBytes(%c2147483643_i32) cacheSwizzleStride(%c2880_i14) resetOffset : memref<?xf32, strided<[1], offset: ?>> to memref<?xf32, #amdgpu.address_space<fat_raw_buffer>>
        %378 = arith.select %368, %375, %c536870911 : index
        vector.store %354, %377[%378] : memref<?xf32, #amdgpu.address_space<fat_raw_buffer>>, vector<1xf32>
        %379 = vector.extract_strided_slice %309 {offsets = [1], sizes = [1], strides = [1]} : vector<16xf32> to vector<1xf32>
        %380 = affine.apply #map56()[%block_id_y, %block_id_x, %2, %thread_id_x]
        %381 = arith.cmpi slt, %380, %365 : index
        %382 = arith.andi %361, %381 : i1
        %383 = affine.apply #map57()[%thread_id_x]
        %384 = arith.muli %383, %c2880 overflow<nsw> : index
        %385 = arith.addi %384, %186 overflow<nsw> : index
        %386 = arith.select %382, %385, %c536870911 : index
        vector.store %379, %377[%386] : memref<?xf32, #amdgpu.address_space<fat_raw_buffer>>, vector<1xf32>
        %387 = vector.extract_strided_slice %309 {offsets = [2], sizes = [1], strides = [1]} : vector<16xf32> to vector<1xf32>
        %388 = affine.apply #map58()[%block_id_y, %block_id_x, %2, %thread_id_x]
        %389 = arith.cmpi slt, %388, %365 : index
        %390 = arith.andi %361, %389 : i1
        %391 = affine.apply #map59()[%thread_id_x]
        %392 = arith.muli %391, %c2880 overflow<nsw> : index
        %393 = arith.addi %392, %186 overflow<nsw> : index
        %394 = arith.select %390, %393, %c536870911 : index
        vector.store %387, %377[%394] : memref<?xf32, #amdgpu.address_space<fat_raw_buffer>>, vector<1xf32>
        %395 = vector.extract_strided_slice %309 {offsets = [3], sizes = [1], strides = [1]} : vector<16xf32> to vector<1xf32>
        %396 = affine.apply #map60()[%block_id_y, %block_id_x, %2, %thread_id_x]
        %397 = arith.cmpi slt, %396, %365 : index
        %398 = arith.andi %361, %397 : i1
        %399 = affine.apply #map61()[%thread_id_x]
        %400 = arith.muli %399, %c2880 overflow<nsw> : index
        %401 = arith.addi %400, %186 overflow<nsw> : index
        %402 = arith.select %398, %401, %c536870911 : index
        vector.store %395, %377[%402] : memref<?xf32, #amdgpu.address_space<fat_raw_buffer>>, vector<1xf32>
        %403 = vector.extract_strided_slice %309 {offsets = [4], sizes = [1], strides = [1]} : vector<16xf32> to vector<1xf32>
        %404 = affine.apply #map62()[%block_id_y, %block_id_x, %2, %thread_id_x]
        %405 = arith.cmpi slt, %404, %365 : index
        %406 = arith.andi %361, %405 : i1
        %407 = affine.apply #map63()[%thread_id_x]
        %408 = arith.muli %407, %c2880 overflow<nsw> : index
        %409 = arith.addi %408, %186 overflow<nsw> : index
        %410 = arith.select %406, %409, %c536870911 : index
        vector.store %403, %377[%410] : memref<?xf32, #amdgpu.address_space<fat_raw_buffer>>, vector<1xf32>
        %411 = vector.extract_strided_slice %309 {offsets = [5], sizes = [1], strides = [1]} : vector<16xf32> to vector<1xf32>
        %412 = affine.apply #map64()[%block_id_y, %block_id_x, %2, %thread_id_x]
        %413 = arith.cmpi slt, %412, %365 : index
        %414 = arith.andi %361, %413 : i1
        %415 = affine.apply #map65()[%thread_id_x]
        %416 = arith.muli %415, %c2880 overflow<nsw> : index
        %417 = arith.addi %416, %186 overflow<nsw> : index
        %418 = arith.select %414, %417, %c536870911 : index
        vector.store %411, %377[%418] : memref<?xf32, #amdgpu.address_space<fat_raw_buffer>>, vector<1xf32>
        %419 = vector.extract_strided_slice %309 {offsets = [6], sizes = [1], strides = [1]} : vector<16xf32> to vector<1xf32>
        %420 = affine.apply #map66()[%block_id_y, %block_id_x, %2, %thread_id_x]
        %421 = arith.cmpi slt, %420, %365 : index
        %422 = arith.andi %361, %421 : i1
        %423 = affine.apply #map67()[%thread_id_x]
        %424 = arith.muli %423, %c2880 overflow<nsw> : index
        %425 = arith.addi %424, %186 overflow<nsw> : index
        %426 = arith.select %422, %425, %c536870911 : index
        vector.store %419, %377[%426] : memref<?xf32, #amdgpu.address_space<fat_raw_buffer>>, vector<1xf32>
        %427 = vector.extract_strided_slice %309 {offsets = [7], sizes = [1], strides = [1]} : vector<16xf32> to vector<1xf32>
        %428 = affine.apply #map68()[%block_id_y, %block_id_x, %2, %thread_id_x]
        %429 = arith.cmpi slt, %428, %365 : index
        %430 = arith.andi %361, %429 : i1
        %431 = affine.apply #map69()[%thread_id_x]
        %432 = arith.muli %431, %c2880 overflow<nsw> : index
        %433 = arith.addi %432, %186 overflow<nsw> : index
        %434 = arith.select %430, %433, %c536870911 : index
        vector.store %427, %377[%434] : memref<?xf32, #amdgpu.address_space<fat_raw_buffer>>, vector<1xf32>
        %435 = vector.extract_strided_slice %309 {offsets = [8], sizes = [1], strides = [1]} : vector<16xf32> to vector<1xf32>
        %436 = affine.apply #map70()[%block_id_y, %block_id_x, %2, %thread_id_x]
        %437 = arith.cmpi slt, %436, %365 : index
        %438 = arith.andi %361, %437 : i1
        %439 = affine.apply #map71()[%thread_id_x]
        %440 = arith.muli %439, %c2880 overflow<nsw> : index
        %441 = arith.addi %440, %186 overflow<nsw> : index
        %442 = arith.select %438, %441, %c536870911 : index
        vector.store %435, %377[%442] : memref<?xf32, #amdgpu.address_space<fat_raw_buffer>>, vector<1xf32>
        %443 = vector.extract_strided_slice %309 {offsets = [9], sizes = [1], strides = [1]} : vector<16xf32> to vector<1xf32>
        %444 = affine.apply #map72()[%block_id_y, %block_id_x, %2, %thread_id_x]
        %445 = arith.cmpi slt, %444, %365 : index
        %446 = arith.andi %361, %445 : i1
        %447 = affine.apply #map73()[%thread_id_x]
        %448 = arith.muli %447, %c2880 overflow<nsw> : index
        %449 = arith.addi %448, %186 overflow<nsw> : index
        %450 = arith.select %446, %449, %c536870911 : index
        vector.store %443, %377[%450] : memref<?xf32, #amdgpu.address_space<fat_raw_buffer>>, vector<1xf32>
        %451 = vector.extract_strided_slice %309 {offsets = [10], sizes = [1], strides = [1]} : vector<16xf32> to vector<1xf32>
        %452 = affine.apply #map74()[%block_id_y, %block_id_x, %2, %thread_id_x]
        %453 = arith.cmpi slt, %452, %365 : index
        %454 = arith.andi %361, %453 : i1
        %455 = affine.apply #map75()[%thread_id_x]
        %456 = arith.muli %455, %c2880 overflow<nsw> : index
        %457 = arith.addi %456, %186 overflow<nsw> : index
        %458 = arith.select %454, %457, %c536870911 : index
        vector.store %451, %377[%458] : memref<?xf32, #amdgpu.address_space<fat_raw_buffer>>, vector<1xf32>
        %459 = vector.extract_strided_slice %309 {offsets = [11], sizes = [1], strides = [1]} : vector<16xf32> to vector<1xf32>
        %460 = affine.apply #map76()[%block_id_y, %block_id_x, %2, %thread_id_x]
        %461 = arith.cmpi slt, %460, %365 : index
        %462 = arith.andi %361, %461 : i1
        %463 = affine.apply #map77()[%thread_id_x]
        %464 = arith.muli %463, %c2880 overflow<nsw> : index
        %465 = arith.addi %464, %186 overflow<nsw> : index
        %466 = arith.select %462, %465, %c536870911 : index
        vector.store %459, %377[%466] : memref<?xf32, #amdgpu.address_space<fat_raw_buffer>>, vector<1xf32>
        %467 = vector.extract_strided_slice %309 {offsets = [12], sizes = [1], strides = [1]} : vector<16xf32> to vector<1xf32>
        %468 = affine.apply #map78()[%block_id_y, %block_id_x, %2, %thread_id_x]
        %469 = arith.cmpi slt, %468, %365 : index
        %470 = arith.andi %361, %469 : i1
        %471 = affine.apply #map79()[%thread_id_x]
        %472 = arith.muli %471, %c2880 overflow<nsw> : index
        %473 = arith.addi %472, %186 overflow<nsw> : index
        %474 = arith.select %470, %473, %c536870911 : index
        vector.store %467, %377[%474] : memref<?xf32, #amdgpu.address_space<fat_raw_buffer>>, vector<1xf32>
        %475 = vector.extract_strided_slice %309 {offsets = [13], sizes = [1], strides = [1]} : vector<16xf32> to vector<1xf32>
        %476 = affine.apply #map80()[%block_id_y, %block_id_x, %2, %thread_id_x]
        %477 = arith.cmpi slt, %476, %365 : index
        %478 = arith.andi %361, %477 : i1
        %479 = affine.apply #map81()[%thread_id_x]
        %480 = arith.muli %479, %c2880 overflow<nsw> : index
        %481 = arith.addi %480, %186 overflow<nsw> : index
        %482 = arith.select %478, %481, %c536870911 : index
        vector.store %475, %377[%482] : memref<?xf32, #amdgpu.address_space<fat_raw_buffer>>, vector<1xf32>
        %483 = vector.extract_strided_slice %309 {offsets = [14], sizes = [1], strides = [1]} : vector<16xf32> to vector<1xf32>
        %484 = affine.apply #map82()[%block_id_y, %block_id_x, %2, %thread_id_x]
        %485 = arith.cmpi slt, %484, %365 : index
        %486 = arith.andi %361, %485 : i1
        %487 = affine.apply #map83()[%thread_id_x]
        %488 = arith.muli %487, %c2880 overflow<nsw> : index
        %489 = arith.addi %488, %186 overflow<nsw> : index
        %490 = arith.select %486, %489, %c536870911 : index
        vector.store %483, %377[%490] : memref<?xf32, #amdgpu.address_space<fat_raw_buffer>>, vector<1xf32>
        %491 = vector.extract_strided_slice %309 {offsets = [15], sizes = [1], strides = [1]} : vector<16xf32> to vector<1xf32>
        %492 = affine.apply #map84()[%block_id_y, %block_id_x, %2, %thread_id_x]
        %493 = arith.cmpi slt, %492, %365 : index
        %494 = arith.andi %361, %493 : i1
        %495 = affine.apply #map85()[%thread_id_x]
        %496 = arith.muli %495, %c2880 overflow<nsw> : index
        %497 = arith.addi %496, %186 overflow<nsw> : index
        %498 = arith.select %494, %497, %c536870911 : index
        vector.store %491, %377[%498] : memref<?xf32, #amdgpu.address_space<fat_raw_buffer>>, vector<1xf32>
        %499 = vector.extract_strided_slice %311 {offsets = [0], sizes = [1], strides = [1]} : vector<16xf32> to vector<1xf32>
        %500 = affine.apply #map86()[%thread_id_x, %block_id_y, %block_id_x, %2, %thread_id_y]
        %501 = arith.cmpi slt, %500, %359 : index
        %502 = arith.andi %501, %367 : i1
        %503 = arith.addi %373, %193 overflow<nsw> : index
        %504 = arith.select %502, %503, %c536870911 : index
        vector.store %499, %377[%504] : memref<?xf32, #amdgpu.address_space<fat_raw_buffer>>, vector<1xf32>
        %505 = vector.extract_strided_slice %311 {offsets = [1], sizes = [1], strides = [1]} : vector<16xf32> to vector<1xf32>
        %506 = arith.andi %501, %381 : i1
        %507 = arith.addi %384, %193 overflow<nsw> : index
        %508 = arith.select %506, %507, %c536870911 : index
        vector.store %505, %377[%508] : memref<?xf32, #amdgpu.address_space<fat_raw_buffer>>, vector<1xf32>
        %509 = vector.extract_strided_slice %311 {offsets = [2], sizes = [1], strides = [1]} : vector<16xf32> to vector<1xf32>
        %510 = arith.andi %501, %389 : i1
        %511 = arith.addi %392, %193 overflow<nsw> : index
        %512 = arith.select %510, %511, %c536870911 : index
        vector.store %509, %377[%512] : memref<?xf32, #amdgpu.address_space<fat_raw_buffer>>, vector<1xf32>
        %513 = vector.extract_strided_slice %311 {offsets = [3], sizes = [1], strides = [1]} : vector<16xf32> to vector<1xf32>
        %514 = arith.andi %501, %397 : i1
        %515 = arith.addi %400, %193 overflow<nsw> : index
        %516 = arith.select %514, %515, %c536870911 : index
        vector.store %513, %377[%516] : memref<?xf32, #amdgpu.address_space<fat_raw_buffer>>, vector<1xf32>
        %517 = vector.extract_strided_slice %311 {offsets = [4], sizes = [1], strides = [1]} : vector<16xf32> to vector<1xf32>
        %518 = arith.andi %501, %405 : i1
        %519 = arith.addi %408, %193 overflow<nsw> : index
        %520 = arith.select %518, %519, %c536870911 : index
        vector.store %517, %377[%520] : memref<?xf32, #amdgpu.address_space<fat_raw_buffer>>, vector<1xf32>
        %521 = vector.extract_strided_slice %311 {offsets = [5], sizes = [1], strides = [1]} : vector<16xf32> to vector<1xf32>
        %522 = arith.andi %501, %413 : i1
        %523 = arith.addi %416, %193 overflow<nsw> : index
        %524 = arith.select %522, %523, %c536870911 : index
        vector.store %521, %377[%524] : memref<?xf32, #amdgpu.address_space<fat_raw_buffer>>, vector<1xf32>
        %525 = vector.extract_strided_slice %311 {offsets = [6], sizes = [1], strides = [1]} : vector<16xf32> to vector<1xf32>
        %526 = arith.andi %501, %421 : i1
        %527 = arith.addi %424, %193 overflow<nsw> : index
        %528 = arith.select %526, %527, %c536870911 : index
        vector.store %525, %377[%528] : memref<?xf32, #amdgpu.address_space<fat_raw_buffer>>, vector<1xf32>
        %529 = vector.extract_strided_slice %311 {offsets = [7], sizes = [1], strides = [1]} : vector<16xf32> to vector<1xf32>
        %530 = arith.andi %501, %429 : i1
        %531 = arith.addi %432, %193 overflow<nsw> : index
        %532 = arith.select %530, %531, %c536870911 : index
        vector.store %529, %377[%532] : memref<?xf32, #amdgpu.address_space<fat_raw_buffer>>, vector<1xf32>
        %533 = vector.extract_strided_slice %311 {offsets = [8], sizes = [1], strides = [1]} : vector<16xf32> to vector<1xf32>
        %534 = arith.andi %501, %437 : i1
        %535 = arith.addi %440, %193 overflow<nsw> : index
        %536 = arith.select %534, %535, %c536870911 : index
        vector.store %533, %377[%536] : memref<?xf32, #amdgpu.address_space<fat_raw_buffer>>, vector<1xf32>
        %537 = vector.extract_strided_slice %311 {offsets = [9], sizes = [1], strides = [1]} : vector<16xf32> to vector<1xf32>
        %538 = arith.andi %501, %445 : i1
        %539 = arith.addi %448, %193 overflow<nsw> : index
        %540 = arith.select %538, %539, %c536870911 : index
        vector.store %537, %377[%540] : memref<?xf32, #amdgpu.address_space<fat_raw_buffer>>, vector<1xf32>
        %541 = vector.extract_strided_slice %311 {offsets = [10], sizes = [1], strides = [1]} : vector<16xf32> to vector<1xf32>
        %542 = arith.andi %501, %453 : i1
        %543 = arith.addi %456, %193 overflow<nsw> : index
        %544 = arith.select %542, %543, %c536870911 : index
        vector.store %541, %377[%544] : memref<?xf32, #amdgpu.address_space<fat_raw_buffer>>, vector<1xf32>
        %545 = vector.extract_strided_slice %311 {offsets = [11], sizes = [1], strides = [1]} : vector<16xf32> to vector<1xf32>
        %546 = arith.andi %501, %461 : i1
        %547 = arith.addi %464, %193 overflow<nsw> : index
        %548 = arith.select %546, %547, %c536870911 : index
        vector.store %545, %377[%548] : memref<?xf32, #amdgpu.address_space<fat_raw_buffer>>, vector<1xf32>
        %549 = vector.extract_strided_slice %311 {offsets = [12], sizes = [1], strides = [1]} : vector<16xf32> to vector<1xf32>
        %550 = arith.andi %501, %469 : i1
        %551 = arith.addi %472, %193 overflow<nsw> : index
        %552 = arith.select %550, %551, %c536870911 : index
        vector.store %549, %377[%552] : memref<?xf32, #amdgpu.address_space<fat_raw_buffer>>, vector<1xf32>
        %553 = vector.extract_strided_slice %311 {offsets = [13], sizes = [1], strides = [1]} : vector<16xf32> to vector<1xf32>
        %554 = arith.andi %501, %477 : i1
        %555 = arith.addi %480, %193 overflow<nsw> : index
        %556 = arith.select %554, %555, %c536870911 : index
        vector.store %553, %377[%556] : memref<?xf32, #amdgpu.address_space<fat_raw_buffer>>, vector<1xf32>
        %557 = vector.extract_strided_slice %311 {offsets = [14], sizes = [1], strides = [1]} : vector<16xf32> to vector<1xf32>
        %558 = arith.andi %501, %485 : i1
        %559 = arith.addi %488, %193 overflow<nsw> : index
        %560 = arith.select %558, %559, %c536870911 : index
        vector.store %557, %377[%560] : memref<?xf32, #amdgpu.address_space<fat_raw_buffer>>, vector<1xf32>
        %561 = vector.extract_strided_slice %311 {offsets = [15], sizes = [1], strides = [1]} : vector<16xf32> to vector<1xf32>
        %562 = arith.andi %501, %493 : i1
        %563 = arith.addi %496, %193 overflow<nsw> : index
        %564 = arith.select %562, %563, %c536870911 : index
        vector.store %561, %377[%564] : memref<?xf32, #amdgpu.address_space<fat_raw_buffer>>, vector<1xf32>
        %565 = vector.extract_strided_slice %313 {offsets = [0], sizes = [1], strides = [1]} : vector<16xf32> to vector<1xf32>
        %566 = affine.apply #map87()[%thread_id_x, %block_id_y, %block_id_x, %2, %thread_id_y]
        %567 = arith.cmpi slt, %566, %359 : index
        %568 = arith.andi %567, %367 : i1
        %569 = arith.addi %373, %198 overflow<nsw> : index
        %570 = arith.select %568, %569, %c536870911 : index
        vector.store %565, %377[%570] : memref<?xf32, #amdgpu.address_space<fat_raw_buffer>>, vector<1xf32>
        %571 = vector.extract_strided_slice %313 {offsets = [1], sizes = [1], strides = [1]} : vector<16xf32> to vector<1xf32>
        %572 = arith.andi %567, %381 : i1
        %573 = arith.addi %384, %198 overflow<nsw> : index
        %574 = arith.select %572, %573, %c536870911 : index
        vector.store %571, %377[%574] : memref<?xf32, #amdgpu.address_space<fat_raw_buffer>>, vector<1xf32>
        %575 = vector.extract_strided_slice %313 {offsets = [2], sizes = [1], strides = [1]} : vector<16xf32> to vector<1xf32>
        %576 = arith.andi %567, %389 : i1
        %577 = arith.addi %392, %198 overflow<nsw> : index
        %578 = arith.select %576, %577, %c536870911 : index
        vector.store %575, %377[%578] : memref<?xf32, #amdgpu.address_space<fat_raw_buffer>>, vector<1xf32>
        %579 = vector.extract_strided_slice %313 {offsets = [3], sizes = [1], strides = [1]} : vector<16xf32> to vector<1xf32>
        %580 = arith.andi %567, %397 : i1
        %581 = arith.addi %400, %198 overflow<nsw> : index
        %582 = arith.select %580, %581, %c536870911 : index
        vector.store %579, %377[%582] : memref<?xf32, #amdgpu.address_space<fat_raw_buffer>>, vector<1xf32>
        %583 = vector.extract_strided_slice %313 {offsets = [4], sizes = [1], strides = [1]} : vector<16xf32> to vector<1xf32>
        %584 = arith.andi %567, %405 : i1
        %585 = arith.addi %408, %198 overflow<nsw> : index
        %586 = arith.select %584, %585, %c536870911 : index
        vector.store %583, %377[%586] : memref<?xf32, #amdgpu.address_space<fat_raw_buffer>>, vector<1xf32>
        %587 = vector.extract_strided_slice %313 {offsets = [5], sizes = [1], strides = [1]} : vector<16xf32> to vector<1xf32>
        %588 = arith.andi %567, %413 : i1
        %589 = arith.addi %416, %198 overflow<nsw> : index
        %590 = arith.select %588, %589, %c536870911 : index
        vector.store %587, %377[%590] : memref<?xf32, #amdgpu.address_space<fat_raw_buffer>>, vector<1xf32>
        %591 = vector.extract_strided_slice %313 {offsets = [6], sizes = [1], strides = [1]} : vector<16xf32> to vector<1xf32>
        %592 = arith.andi %567, %421 : i1
        %593 = arith.addi %424, %198 overflow<nsw> : index
        %594 = arith.select %592, %593, %c536870911 : index
        vector.store %591, %377[%594] : memref<?xf32, #amdgpu.address_space<fat_raw_buffer>>, vector<1xf32>
        %595 = vector.extract_strided_slice %313 {offsets = [7], sizes = [1], strides = [1]} : vector<16xf32> to vector<1xf32>
        %596 = arith.andi %567, %429 : i1
        %597 = arith.addi %432, %198 overflow<nsw> : index
        %598 = arith.select %596, %597, %c536870911 : index
        vector.store %595, %377[%598] : memref<?xf32, #amdgpu.address_space<fat_raw_buffer>>, vector<1xf32>
        %599 = vector.extract_strided_slice %313 {offsets = [8], sizes = [1], strides = [1]} : vector<16xf32> to vector<1xf32>
        %600 = arith.andi %567, %437 : i1
        %601 = arith.addi %440, %198 overflow<nsw> : index
        %602 = arith.select %600, %601, %c536870911 : index
        vector.store %599, %377[%602] : memref<?xf32, #amdgpu.address_space<fat_raw_buffer>>, vector<1xf32>
        %603 = vector.extract_strided_slice %313 {offsets = [9], sizes = [1], strides = [1]} : vector<16xf32> to vector<1xf32>
        %604 = arith.andi %567, %445 : i1
        %605 = arith.addi %448, %198 overflow<nsw> : index
        %606 = arith.select %604, %605, %c536870911 : index
        vector.store %603, %377[%606] : memref<?xf32, #amdgpu.address_space<fat_raw_buffer>>, vector<1xf32>
        %607 = vector.extract_strided_slice %313 {offsets = [10], sizes = [1], strides = [1]} : vector<16xf32> to vector<1xf32>
        %608 = arith.andi %567, %453 : i1
        %609 = arith.addi %456, %198 overflow<nsw> : index
        %610 = arith.select %608, %609, %c536870911 : index
        vector.store %607, %377[%610] : memref<?xf32, #amdgpu.address_space<fat_raw_buffer>>, vector<1xf32>
        %611 = vector.extract_strided_slice %313 {offsets = [11], sizes = [1], strides = [1]} : vector<16xf32> to vector<1xf32>
        %612 = arith.andi %567, %461 : i1
        %613 = arith.addi %464, %198 overflow<nsw> : index
        %614 = arith.select %612, %613, %c536870911 : index
        vector.store %611, %377[%614] : memref<?xf32, #amdgpu.address_space<fat_raw_buffer>>, vector<1xf32>
        %615 = vector.extract_strided_slice %313 {offsets = [12], sizes = [1], strides = [1]} : vector<16xf32> to vector<1xf32>
        %616 = arith.andi %567, %469 : i1
        %617 = arith.addi %472, %198 overflow<nsw> : index
        %618 = arith.select %616, %617, %c536870911 : index
        vector.store %615, %377[%618] : memref<?xf32, #amdgpu.address_space<fat_raw_buffer>>, vector<1xf32>
        %619 = vector.extract_strided_slice %313 {offsets = [13], sizes = [1], strides = [1]} : vector<16xf32> to vector<1xf32>
        %620 = arith.andi %567, %477 : i1
        %621 = arith.addi %480, %198 overflow<nsw> : index
        %622 = arith.select %620, %621, %c536870911 : index
        vector.store %619, %377[%622] : memref<?xf32, #amdgpu.address_space<fat_raw_buffer>>, vector<1xf32>
        %623 = vector.extract_strided_slice %313 {offsets = [14], sizes = [1], strides = [1]} : vector<16xf32> to vector<1xf32>
        %624 = arith.andi %567, %485 : i1
        %625 = arith.addi %488, %198 overflow<nsw> : index
        %626 = arith.select %624, %625, %c536870911 : index
        vector.store %623, %377[%626] : memref<?xf32, #amdgpu.address_space<fat_raw_buffer>>, vector<1xf32>
        %627 = vector.extract_strided_slice %313 {offsets = [15], sizes = [1], strides = [1]} : vector<16xf32> to vector<1xf32>
        %628 = arith.andi %567, %493 : i1
        %629 = arith.addi %496, %198 overflow<nsw> : index
        %630 = arith.select %628, %629, %c536870911 : index
        vector.store %627, %377[%630] : memref<?xf32, #amdgpu.address_space<fat_raw_buffer>>, vector<1xf32>
        %631 = vector.extract_strided_slice %315 {offsets = [0], sizes = [1], strides = [1]} : vector<16xf32> to vector<1xf32>
        %632 = affine.apply #map88()[%thread_id_x, %block_id_y, %block_id_x, %2, %thread_id_y]
        %633 = arith.cmpi slt, %632, %359 : index
        %634 = arith.andi %633, %367 : i1
        %635 = arith.addi %373, %203 overflow<nsw> : index
        %636 = arith.select %634, %635, %c536870911 : index
        vector.store %631, %377[%636] : memref<?xf32, #amdgpu.address_space<fat_raw_buffer>>, vector<1xf32>
        %637 = vector.extract_strided_slice %315 {offsets = [1], sizes = [1], strides = [1]} : vector<16xf32> to vector<1xf32>
        %638 = arith.andi %633, %381 : i1
        %639 = arith.addi %384, %203 overflow<nsw> : index
        %640 = arith.select %638, %639, %c536870911 : index
        vector.store %637, %377[%640] : memref<?xf32, #amdgpu.address_space<fat_raw_buffer>>, vector<1xf32>
        %641 = vector.extract_strided_slice %315 {offsets = [2], sizes = [1], strides = [1]} : vector<16xf32> to vector<1xf32>
        %642 = arith.andi %633, %389 : i1
        %643 = arith.addi %392, %203 overflow<nsw> : index
        %644 = arith.select %642, %643, %c536870911 : index
        vector.store %641, %377[%644] : memref<?xf32, #amdgpu.address_space<fat_raw_buffer>>, vector<1xf32>
        %645 = vector.extract_strided_slice %315 {offsets = [3], sizes = [1], strides = [1]} : vector<16xf32> to vector<1xf32>
        %646 = arith.andi %633, %397 : i1
        %647 = arith.addi %400, %203 overflow<nsw> : index
        %648 = arith.select %646, %647, %c536870911 : index
        vector.store %645, %377[%648] : memref<?xf32, #amdgpu.address_space<fat_raw_buffer>>, vector<1xf32>
        %649 = vector.extract_strided_slice %315 {offsets = [4], sizes = [1], strides = [1]} : vector<16xf32> to vector<1xf32>
        %650 = arith.andi %633, %405 : i1
        %651 = arith.addi %408, %203 overflow<nsw> : index
        %652 = arith.select %650, %651, %c536870911 : index
        vector.store %649, %377[%652] : memref<?xf32, #amdgpu.address_space<fat_raw_buffer>>, vector<1xf32>
        %653 = vector.extract_strided_slice %315 {offsets = [5], sizes = [1], strides = [1]} : vector<16xf32> to vector<1xf32>
        %654 = arith.andi %633, %413 : i1
        %655 = arith.addi %416, %203 overflow<nsw> : index
        %656 = arith.select %654, %655, %c536870911 : index
        vector.store %653, %377[%656] : memref<?xf32, #amdgpu.address_space<fat_raw_buffer>>, vector<1xf32>
        %657 = vector.extract_strided_slice %315 {offsets = [6], sizes = [1], strides = [1]} : vector<16xf32> to vector<1xf32>
        %658 = arith.andi %633, %421 : i1
        %659 = arith.addi %424, %203 overflow<nsw> : index
        %660 = arith.select %658, %659, %c536870911 : index
        vector.store %657, %377[%660] : memref<?xf32, #amdgpu.address_space<fat_raw_buffer>>, vector<1xf32>
        %661 = vector.extract_strided_slice %315 {offsets = [7], sizes = [1], strides = [1]} : vector<16xf32> to vector<1xf32>
        %662 = arith.andi %633, %429 : i1
        %663 = arith.addi %432, %203 overflow<nsw> : index
        %664 = arith.select %662, %663, %c536870911 : index
        vector.store %661, %377[%664] : memref<?xf32, #amdgpu.address_space<fat_raw_buffer>>, vector<1xf32>
        %665 = vector.extract_strided_slice %315 {offsets = [8], sizes = [1], strides = [1]} : vector<16xf32> to vector<1xf32>
        %666 = arith.andi %633, %437 : i1
        %667 = arith.addi %440, %203 overflow<nsw> : index
        %668 = arith.select %666, %667, %c536870911 : index
        vector.store %665, %377[%668] : memref<?xf32, #amdgpu.address_space<fat_raw_buffer>>, vector<1xf32>
        %669 = vector.extract_strided_slice %315 {offsets = [9], sizes = [1], strides = [1]} : vector<16xf32> to vector<1xf32>
        %670 = arith.andi %633, %445 : i1
        %671 = arith.addi %448, %203 overflow<nsw> : index
        %672 = arith.select %670, %671, %c536870911 : index
        vector.store %669, %377[%672] : memref<?xf32, #amdgpu.address_space<fat_raw_buffer>>, vector<1xf32>
        %673 = vector.extract_strided_slice %315 {offsets = [10], sizes = [1], strides = [1]} : vector<16xf32> to vector<1xf32>
        %674 = arith.andi %633, %453 : i1
        %675 = arith.addi %456, %203 overflow<nsw> : index
        %676 = arith.select %674, %675, %c536870911 : index
        vector.store %673, %377[%676] : memref<?xf32, #amdgpu.address_space<fat_raw_buffer>>, vector<1xf32>
        %677 = vector.extract_strided_slice %315 {offsets = [11], sizes = [1], strides = [1]} : vector<16xf32> to vector<1xf32>
        %678 = arith.andi %633, %461 : i1
        %679 = arith.addi %464, %203 overflow<nsw> : index
        %680 = arith.select %678, %679, %c536870911 : index
        vector.store %677, %377[%680] : memref<?xf32, #amdgpu.address_space<fat_raw_buffer>>, vector<1xf32>
        %681 = vector.extract_strided_slice %315 {offsets = [12], sizes = [1], strides = [1]} : vector<16xf32> to vector<1xf32>
        %682 = arith.andi %633, %469 : i1
        %683 = arith.addi %472, %203 overflow<nsw> : index
        %684 = arith.select %682, %683, %c536870911 : index
        vector.store %681, %377[%684] : memref<?xf32, #amdgpu.address_space<fat_raw_buffer>>, vector<1xf32>
        %685 = vector.extract_strided_slice %315 {offsets = [13], sizes = [1], strides = [1]} : vector<16xf32> to vector<1xf32>
        %686 = arith.andi %633, %477 : i1
        %687 = arith.addi %480, %203 overflow<nsw> : index
        %688 = arith.select %686, %687, %c536870911 : index
        vector.store %685, %377[%688] : memref<?xf32, #amdgpu.address_space<fat_raw_buffer>>, vector<1xf32>
        %689 = vector.extract_strided_slice %315 {offsets = [14], sizes = [1], strides = [1]} : vector<16xf32> to vector<1xf32>
        %690 = arith.andi %633, %485 : i1
        %691 = arith.addi %488, %203 overflow<nsw> : index
        %692 = arith.select %690, %691, %c536870911 : index
        vector.store %689, %377[%692] : memref<?xf32, #amdgpu.address_space<fat_raw_buffer>>, vector<1xf32>
        %693 = vector.extract_strided_slice %315 {offsets = [15], sizes = [1], strides = [1]} : vector<16xf32> to vector<1xf32>
        %694 = arith.andi %633, %493 : i1
        %695 = arith.addi %496, %203 overflow<nsw> : index
        %696 = arith.select %694, %695, %c536870911 : index
        vector.store %693, %377[%696] : memref<?xf32, #amdgpu.address_space<fat_raw_buffer>>, vector<1xf32>
        %697 = vector.extract_strided_slice %317 {offsets = [0], sizes = [1], strides = [1]} : vector<16xf32> to vector<1xf32>
        %698 = affine.apply #map89()[%thread_id_x, %block_id_y, %block_id_x, %2, %thread_id_y]
        %699 = arith.cmpi slt, %698, %359 : index
        %700 = arith.andi %699, %367 : i1
        %701 = arith.addi %373, %208 overflow<nsw> : index
        %702 = arith.select %700, %701, %c536870911 : index
        vector.store %697, %377[%702] : memref<?xf32, #amdgpu.address_space<fat_raw_buffer>>, vector<1xf32>
        %703 = vector.extract_strided_slice %317 {offsets = [1], sizes = [1], strides = [1]} : vector<16xf32> to vector<1xf32>
        %704 = arith.andi %699, %381 : i1
        %705 = arith.addi %384, %208 overflow<nsw> : index
        %706 = arith.select %704, %705, %c536870911 : index
        vector.store %703, %377[%706] : memref<?xf32, #amdgpu.address_space<fat_raw_buffer>>, vector<1xf32>
        %707 = vector.extract_strided_slice %317 {offsets = [2], sizes = [1], strides = [1]} : vector<16xf32> to vector<1xf32>
        %708 = arith.andi %699, %389 : i1
        %709 = arith.addi %392, %208 overflow<nsw> : index
        %710 = arith.select %708, %709, %c536870911 : index
        vector.store %707, %377[%710] : memref<?xf32, #amdgpu.address_space<fat_raw_buffer>>, vector<1xf32>
        %711 = vector.extract_strided_slice %317 {offsets = [3], sizes = [1], strides = [1]} : vector<16xf32> to vector<1xf32>
        %712 = arith.andi %699, %397 : i1
        %713 = arith.addi %400, %208 overflow<nsw> : index
        %714 = arith.select %712, %713, %c536870911 : index
        vector.store %711, %377[%714] : memref<?xf32, #amdgpu.address_space<fat_raw_buffer>>, vector<1xf32>
        %715 = vector.extract_strided_slice %317 {offsets = [4], sizes = [1], strides = [1]} : vector<16xf32> to vector<1xf32>
        %716 = arith.andi %699, %405 : i1
        %717 = arith.addi %408, %208 overflow<nsw> : index
        %718 = arith.select %716, %717, %c536870911 : index
        vector.store %715, %377[%718] : memref<?xf32, #amdgpu.address_space<fat_raw_buffer>>, vector<1xf32>
        %719 = vector.extract_strided_slice %317 {offsets = [5], sizes = [1], strides = [1]} : vector<16xf32> to vector<1xf32>
        %720 = arith.andi %699, %413 : i1
        %721 = arith.addi %416, %208 overflow<nsw> : index
        %722 = arith.select %720, %721, %c536870911 : index
        vector.store %719, %377[%722] : memref<?xf32, #amdgpu.address_space<fat_raw_buffer>>, vector<1xf32>
        %723 = vector.extract_strided_slice %317 {offsets = [6], sizes = [1], strides = [1]} : vector<16xf32> to vector<1xf32>
        %724 = arith.andi %699, %421 : i1
        %725 = arith.addi %424, %208 overflow<nsw> : index
        %726 = arith.select %724, %725, %c536870911 : index
        vector.store %723, %377[%726] : memref<?xf32, #amdgpu.address_space<fat_raw_buffer>>, vector<1xf32>
        %727 = vector.extract_strided_slice %317 {offsets = [7], sizes = [1], strides = [1]} : vector<16xf32> to vector<1xf32>
        %728 = arith.andi %699, %429 : i1
        %729 = arith.addi %432, %208 overflow<nsw> : index
        %730 = arith.select %728, %729, %c536870911 : index
        vector.store %727, %377[%730] : memref<?xf32, #amdgpu.address_space<fat_raw_buffer>>, vector<1xf32>
        %731 = vector.extract_strided_slice %317 {offsets = [8], sizes = [1], strides = [1]} : vector<16xf32> to vector<1xf32>
        %732 = arith.andi %699, %437 : i1
        %733 = arith.addi %440, %208 overflow<nsw> : index
        %734 = arith.select %732, %733, %c536870911 : index
        vector.store %731, %377[%734] : memref<?xf32, #amdgpu.address_space<fat_raw_buffer>>, vector<1xf32>
        %735 = vector.extract_strided_slice %317 {offsets = [9], sizes = [1], strides = [1]} : vector<16xf32> to vector<1xf32>
        %736 = arith.andi %699, %445 : i1
        %737 = arith.addi %448, %208 overflow<nsw> : index
        %738 = arith.select %736, %737, %c536870911 : index
        vector.store %735, %377[%738] : memref<?xf32, #amdgpu.address_space<fat_raw_buffer>>, vector<1xf32>
        %739 = vector.extract_strided_slice %317 {offsets = [10], sizes = [1], strides = [1]} : vector<16xf32> to vector<1xf32>
        %740 = arith.andi %699, %453 : i1
        %741 = arith.addi %456, %208 overflow<nsw> : index
        %742 = arith.select %740, %741, %c536870911 : index
        vector.store %739, %377[%742] : memref<?xf32, #amdgpu.address_space<fat_raw_buffer>>, vector<1xf32>
        %743 = vector.extract_strided_slice %317 {offsets = [11], sizes = [1], strides = [1]} : vector<16xf32> to vector<1xf32>
        %744 = arith.andi %699, %461 : i1
        %745 = arith.addi %464, %208 overflow<nsw> : index
        %746 = arith.select %744, %745, %c536870911 : index
        vector.store %743, %377[%746] : memref<?xf32, #amdgpu.address_space<fat_raw_buffer>>, vector<1xf32>
        %747 = vector.extract_strided_slice %317 {offsets = [12], sizes = [1], strides = [1]} : vector<16xf32> to vector<1xf32>
        %748 = arith.andi %699, %469 : i1
        %749 = arith.addi %472, %208 overflow<nsw> : index
        %750 = arith.select %748, %749, %c536870911 : index
        vector.store %747, %377[%750] : memref<?xf32, #amdgpu.address_space<fat_raw_buffer>>, vector<1xf32>
        %751 = vector.extract_strided_slice %317 {offsets = [13], sizes = [1], strides = [1]} : vector<16xf32> to vector<1xf32>
        %752 = arith.andi %699, %477 : i1
        %753 = arith.addi %480, %208 overflow<nsw> : index
        %754 = arith.select %752, %753, %c536870911 : index
        vector.store %751, %377[%754] : memref<?xf32, #amdgpu.address_space<fat_raw_buffer>>, vector<1xf32>
        %755 = vector.extract_strided_slice %317 {offsets = [14], sizes = [1], strides = [1]} : vector<16xf32> to vector<1xf32>
        %756 = arith.andi %699, %485 : i1
        %757 = arith.addi %488, %208 overflow<nsw> : index
        %758 = arith.select %756, %757, %c536870911 : index
        vector.store %755, %377[%758] : memref<?xf32, #amdgpu.address_space<fat_raw_buffer>>, vector<1xf32>
        %759 = vector.extract_strided_slice %317 {offsets = [15], sizes = [1], strides = [1]} : vector<16xf32> to vector<1xf32>
        %760 = arith.andi %699, %493 : i1
        %761 = arith.addi %496, %208 overflow<nsw> : index
        %762 = arith.select %760, %761, %c536870911 : index
        vector.store %759, %377[%762] : memref<?xf32, #amdgpu.address_space<fat_raw_buffer>>, vector<1xf32>
        %763 = vector.extract_strided_slice %319 {offsets = [0], sizes = [1], strides = [1]} : vector<16xf32> to vector<1xf32>
        %764 = affine.apply #map90()[%thread_id_x, %block_id_y, %block_id_x, %2, %thread_id_y]
        %765 = arith.cmpi slt, %764, %359 : index
        %766 = arith.andi %765, %367 : i1
        %767 = arith.addi %373, %213 overflow<nsw> : index
        %768 = arith.select %766, %767, %c536870911 : index
        vector.store %763, %377[%768] : memref<?xf32, #amdgpu.address_space<fat_raw_buffer>>, vector<1xf32>
        %769 = vector.extract_strided_slice %319 {offsets = [1], sizes = [1], strides = [1]} : vector<16xf32> to vector<1xf32>
        %770 = arith.andi %765, %381 : i1
        %771 = arith.addi %384, %213 overflow<nsw> : index
        %772 = arith.select %770, %771, %c536870911 : index
        vector.store %769, %377[%772] : memref<?xf32, #amdgpu.address_space<fat_raw_buffer>>, vector<1xf32>
        %773 = vector.extract_strided_slice %319 {offsets = [2], sizes = [1], strides = [1]} : vector<16xf32> to vector<1xf32>
        %774 = arith.andi %765, %389 : i1
        %775 = arith.addi %392, %213 overflow<nsw> : index
        %776 = arith.select %774, %775, %c536870911 : index
        vector.store %773, %377[%776] : memref<?xf32, #amdgpu.address_space<fat_raw_buffer>>, vector<1xf32>
        %777 = vector.extract_strided_slice %319 {offsets = [3], sizes = [1], strides = [1]} : vector<16xf32> to vector<1xf32>
        %778 = arith.andi %765, %397 : i1
        %779 = arith.addi %400, %213 overflow<nsw> : index
        %780 = arith.select %778, %779, %c536870911 : index
        vector.store %777, %377[%780] : memref<?xf32, #amdgpu.address_space<fat_raw_buffer>>, vector<1xf32>
        %781 = vector.extract_strided_slice %319 {offsets = [4], sizes = [1], strides = [1]} : vector<16xf32> to vector<1xf32>
        %782 = arith.andi %765, %405 : i1
        %783 = arith.addi %408, %213 overflow<nsw> : index
        %784 = arith.select %782, %783, %c536870911 : index
        vector.store %781, %377[%784] : memref<?xf32, #amdgpu.address_space<fat_raw_buffer>>, vector<1xf32>
        %785 = vector.extract_strided_slice %319 {offsets = [5], sizes = [1], strides = [1]} : vector<16xf32> to vector<1xf32>
        %786 = arith.andi %765, %413 : i1
        %787 = arith.addi %416, %213 overflow<nsw> : index
        %788 = arith.select %786, %787, %c536870911 : index
        vector.store %785, %377[%788] : memref<?xf32, #amdgpu.address_space<fat_raw_buffer>>, vector<1xf32>
        %789 = vector.extract_strided_slice %319 {offsets = [6], sizes = [1], strides = [1]} : vector<16xf32> to vector<1xf32>
        %790 = arith.andi %765, %421 : i1
        %791 = arith.addi %424, %213 overflow<nsw> : index
        %792 = arith.select %790, %791, %c536870911 : index
        vector.store %789, %377[%792] : memref<?xf32, #amdgpu.address_space<fat_raw_buffer>>, vector<1xf32>
        %793 = vector.extract_strided_slice %319 {offsets = [7], sizes = [1], strides = [1]} : vector<16xf32> to vector<1xf32>
        %794 = arith.andi %765, %429 : i1
        %795 = arith.addi %432, %213 overflow<nsw> : index
        %796 = arith.select %794, %795, %c536870911 : index
        vector.store %793, %377[%796] : memref<?xf32, #amdgpu.address_space<fat_raw_buffer>>, vector<1xf32>
        %797 = vector.extract_strided_slice %319 {offsets = [8], sizes = [1], strides = [1]} : vector<16xf32> to vector<1xf32>
        %798 = arith.andi %765, %437 : i1
        %799 = arith.addi %440, %213 overflow<nsw> : index
        %800 = arith.select %798, %799, %c536870911 : index
        vector.store %797, %377[%800] : memref<?xf32, #amdgpu.address_space<fat_raw_buffer>>, vector<1xf32>
        %801 = vector.extract_strided_slice %319 {offsets = [9], sizes = [1], strides = [1]} : vector<16xf32> to vector<1xf32>
        %802 = arith.andi %765, %445 : i1
        %803 = arith.addi %448, %213 overflow<nsw> : index
        %804 = arith.select %802, %803, %c536870911 : index
        vector.store %801, %377[%804] : memref<?xf32, #amdgpu.address_space<fat_raw_buffer>>, vector<1xf32>
        %805 = vector.extract_strided_slice %319 {offsets = [10], sizes = [1], strides = [1]} : vector<16xf32> to vector<1xf32>
        %806 = arith.andi %765, %453 : i1
        %807 = arith.addi %456, %213 overflow<nsw> : index
        %808 = arith.select %806, %807, %c536870911 : index
        vector.store %805, %377[%808] : memref<?xf32, #amdgpu.address_space<fat_raw_buffer>>, vector<1xf32>
        %809 = vector.extract_strided_slice %319 {offsets = [11], sizes = [1], strides = [1]} : vector<16xf32> to vector<1xf32>
        %810 = arith.andi %765, %461 : i1
        %811 = arith.addi %464, %213 overflow<nsw> : index
        %812 = arith.select %810, %811, %c536870911 : index
        vector.store %809, %377[%812] : memref<?xf32, #amdgpu.address_space<fat_raw_buffer>>, vector<1xf32>
        %813 = vector.extract_strided_slice %319 {offsets = [12], sizes = [1], strides = [1]} : vector<16xf32> to vector<1xf32>
        %814 = arith.andi %765, %469 : i1
        %815 = arith.addi %472, %213 overflow<nsw> : index
        %816 = arith.select %814, %815, %c536870911 : index
        vector.store %813, %377[%816] : memref<?xf32, #amdgpu.address_space<fat_raw_buffer>>, vector<1xf32>
        %817 = vector.extract_strided_slice %319 {offsets = [13], sizes = [1], strides = [1]} : vector<16xf32> to vector<1xf32>
        %818 = arith.andi %765, %477 : i1
        %819 = arith.addi %480, %213 overflow<nsw> : index
        %820 = arith.select %818, %819, %c536870911 : index
        vector.store %817, %377[%820] : memref<?xf32, #amdgpu.address_space<fat_raw_buffer>>, vector<1xf32>
        %821 = vector.extract_strided_slice %319 {offsets = [14], sizes = [1], strides = [1]} : vector<16xf32> to vector<1xf32>
        %822 = arith.andi %765, %485 : i1
        %823 = arith.addi %488, %213 overflow<nsw> : index
        %824 = arith.select %822, %823, %c536870911 : index
        vector.store %821, %377[%824] : memref<?xf32, #amdgpu.address_space<fat_raw_buffer>>, vector<1xf32>
        %825 = vector.extract_strided_slice %319 {offsets = [15], sizes = [1], strides = [1]} : vector<16xf32> to vector<1xf32>
        %826 = arith.andi %765, %493 : i1
        %827 = arith.addi %496, %213 overflow<nsw> : index
        %828 = arith.select %826, %827, %c536870911 : index
        vector.store %825, %377[%828] : memref<?xf32, #amdgpu.address_space<fat_raw_buffer>>, vector<1xf32>
        %829 = vector.extract_strided_slice %321 {offsets = [0], sizes = [1], strides = [1]} : vector<16xf32> to vector<1xf32>
        %830 = affine.apply #map91()[%thread_id_x, %block_id_y, %block_id_x, %2, %thread_id_y]
        %831 = arith.cmpi slt, %830, %359 : index
        %832 = arith.andi %831, %367 : i1
        %833 = arith.addi %373, %218 overflow<nsw> : index
        %834 = arith.select %832, %833, %c536870911 : index
        vector.store %829, %377[%834] : memref<?xf32, #amdgpu.address_space<fat_raw_buffer>>, vector<1xf32>
        %835 = vector.extract_strided_slice %321 {offsets = [1], sizes = [1], strides = [1]} : vector<16xf32> to vector<1xf32>
        %836 = arith.andi %831, %381 : i1
        %837 = arith.addi %384, %218 overflow<nsw> : index
        %838 = arith.select %836, %837, %c536870911 : index
        vector.store %835, %377[%838] : memref<?xf32, #amdgpu.address_space<fat_raw_buffer>>, vector<1xf32>
        %839 = vector.extract_strided_slice %321 {offsets = [2], sizes = [1], strides = [1]} : vector<16xf32> to vector<1xf32>
        %840 = arith.andi %831, %389 : i1
        %841 = arith.addi %392, %218 overflow<nsw> : index
        %842 = arith.select %840, %841, %c536870911 : index
        vector.store %839, %377[%842] : memref<?xf32, #amdgpu.address_space<fat_raw_buffer>>, vector<1xf32>
        %843 = vector.extract_strided_slice %321 {offsets = [3], sizes = [1], strides = [1]} : vector<16xf32> to vector<1xf32>
        %844 = arith.andi %831, %397 : i1
        %845 = arith.addi %400, %218 overflow<nsw> : index
        %846 = arith.select %844, %845, %c536870911 : index
        vector.store %843, %377[%846] : memref<?xf32, #amdgpu.address_space<fat_raw_buffer>>, vector<1xf32>
        %847 = vector.extract_strided_slice %321 {offsets = [4], sizes = [1], strides = [1]} : vector<16xf32> to vector<1xf32>
        %848 = arith.andi %831, %405 : i1
        %849 = arith.addi %408, %218 overflow<nsw> : index
        %850 = arith.select %848, %849, %c536870911 : index
        vector.store %847, %377[%850] : memref<?xf32, #amdgpu.address_space<fat_raw_buffer>>, vector<1xf32>
        %851 = vector.extract_strided_slice %321 {offsets = [5], sizes = [1], strides = [1]} : vector<16xf32> to vector<1xf32>
        %852 = arith.andi %831, %413 : i1
        %853 = arith.addi %416, %218 overflow<nsw> : index
        %854 = arith.select %852, %853, %c536870911 : index
        vector.store %851, %377[%854] : memref<?xf32, #amdgpu.address_space<fat_raw_buffer>>, vector<1xf32>
        %855 = vector.extract_strided_slice %321 {offsets = [6], sizes = [1], strides = [1]} : vector<16xf32> to vector<1xf32>
        %856 = arith.andi %831, %421 : i1
        %857 = arith.addi %424, %218 overflow<nsw> : index
        %858 = arith.select %856, %857, %c536870911 : index
        vector.store %855, %377[%858] : memref<?xf32, #amdgpu.address_space<fat_raw_buffer>>, vector<1xf32>
        %859 = vector.extract_strided_slice %321 {offsets = [7], sizes = [1], strides = [1]} : vector<16xf32> to vector<1xf32>
        %860 = arith.andi %831, %429 : i1
        %861 = arith.addi %432, %218 overflow<nsw> : index
        %862 = arith.select %860, %861, %c536870911 : index
        vector.store %859, %377[%862] : memref<?xf32, #amdgpu.address_space<fat_raw_buffer>>, vector<1xf32>
        %863 = vector.extract_strided_slice %321 {offsets = [8], sizes = [1], strides = [1]} : vector<16xf32> to vector<1xf32>
        %864 = arith.andi %831, %437 : i1
        %865 = arith.addi %440, %218 overflow<nsw> : index
        %866 = arith.select %864, %865, %c536870911 : index
        vector.store %863, %377[%866] : memref<?xf32, #amdgpu.address_space<fat_raw_buffer>>, vector<1xf32>
        %867 = vector.extract_strided_slice %321 {offsets = [9], sizes = [1], strides = [1]} : vector<16xf32> to vector<1xf32>
        %868 = arith.andi %831, %445 : i1
        %869 = arith.addi %448, %218 overflow<nsw> : index
        %870 = arith.select %868, %869, %c536870911 : index
        vector.store %867, %377[%870] : memref<?xf32, #amdgpu.address_space<fat_raw_buffer>>, vector<1xf32>
        %871 = vector.extract_strided_slice %321 {offsets = [10], sizes = [1], strides = [1]} : vector<16xf32> to vector<1xf32>
        %872 = arith.andi %831, %453 : i1
        %873 = arith.addi %456, %218 overflow<nsw> : index
        %874 = arith.select %872, %873, %c536870911 : index
        vector.store %871, %377[%874] : memref<?xf32, #amdgpu.address_space<fat_raw_buffer>>, vector<1xf32>
        %875 = vector.extract_strided_slice %321 {offsets = [11], sizes = [1], strides = [1]} : vector<16xf32> to vector<1xf32>
        %876 = arith.andi %831, %461 : i1
        %877 = arith.addi %464, %218 overflow<nsw> : index
        %878 = arith.select %876, %877, %c536870911 : index
        vector.store %875, %377[%878] : memref<?xf32, #amdgpu.address_space<fat_raw_buffer>>, vector<1xf32>
        %879 = vector.extract_strided_slice %321 {offsets = [12], sizes = [1], strides = [1]} : vector<16xf32> to vector<1xf32>
        %880 = arith.andi %831, %469 : i1
        %881 = arith.addi %472, %218 overflow<nsw> : index
        %882 = arith.select %880, %881, %c536870911 : index
        vector.store %879, %377[%882] : memref<?xf32, #amdgpu.address_space<fat_raw_buffer>>, vector<1xf32>
        %883 = vector.extract_strided_slice %321 {offsets = [13], sizes = [1], strides = [1]} : vector<16xf32> to vector<1xf32>
        %884 = arith.andi %831, %477 : i1
        %885 = arith.addi %480, %218 overflow<nsw> : index
        %886 = arith.select %884, %885, %c536870911 : index
        vector.store %883, %377[%886] : memref<?xf32, #amdgpu.address_space<fat_raw_buffer>>, vector<1xf32>
        %887 = vector.extract_strided_slice %321 {offsets = [14], sizes = [1], strides = [1]} : vector<16xf32> to vector<1xf32>
        %888 = arith.andi %831, %485 : i1
        %889 = arith.addi %488, %218 overflow<nsw> : index
        %890 = arith.select %888, %889, %c536870911 : index
        vector.store %887, %377[%890] : memref<?xf32, #amdgpu.address_space<fat_raw_buffer>>, vector<1xf32>
        %891 = vector.extract_strided_slice %321 {offsets = [15], sizes = [1], strides = [1]} : vector<16xf32> to vector<1xf32>
        %892 = arith.andi %831, %493 : i1
        %893 = arith.addi %496, %218 overflow<nsw> : index
        %894 = arith.select %892, %893, %c536870911 : index
        vector.store %891, %377[%894] : memref<?xf32, #amdgpu.address_space<fat_raw_buffer>>, vector<1xf32>
        %895 = vector.extract_strided_slice %323 {offsets = [0], sizes = [1], strides = [1]} : vector<16xf32> to vector<1xf32>
        %896 = affine.apply #map92()[%thread_id_x, %block_id_y, %block_id_x, %2, %thread_id_y]
        %897 = arith.cmpi slt, %896, %359 : index
        %898 = arith.andi %897, %367 : i1
        %899 = arith.addi %373, %223 overflow<nsw> : index
        %900 = arith.select %898, %899, %c536870911 : index
        vector.store %895, %377[%900] : memref<?xf32, #amdgpu.address_space<fat_raw_buffer>>, vector<1xf32>
        %901 = vector.extract_strided_slice %323 {offsets = [1], sizes = [1], strides = [1]} : vector<16xf32> to vector<1xf32>
        %902 = arith.andi %897, %381 : i1
        %903 = arith.addi %384, %223 overflow<nsw> : index
        %904 = arith.select %902, %903, %c536870911 : index
        vector.store %901, %377[%904] : memref<?xf32, #amdgpu.address_space<fat_raw_buffer>>, vector<1xf32>
        %905 = vector.extract_strided_slice %323 {offsets = [2], sizes = [1], strides = [1]} : vector<16xf32> to vector<1xf32>
        %906 = arith.andi %897, %389 : i1
        %907 = arith.addi %392, %223 overflow<nsw> : index
        %908 = arith.select %906, %907, %c536870911 : index
        vector.store %905, %377[%908] : memref<?xf32, #amdgpu.address_space<fat_raw_buffer>>, vector<1xf32>
        %909 = vector.extract_strided_slice %323 {offsets = [3], sizes = [1], strides = [1]} : vector<16xf32> to vector<1xf32>
        %910 = arith.andi %897, %397 : i1
        %911 = arith.addi %400, %223 overflow<nsw> : index
        %912 = arith.select %910, %911, %c536870911 : index
        vector.store %909, %377[%912] : memref<?xf32, #amdgpu.address_space<fat_raw_buffer>>, vector<1xf32>
        %913 = vector.extract_strided_slice %323 {offsets = [4], sizes = [1], strides = [1]} : vector<16xf32> to vector<1xf32>
        %914 = arith.andi %897, %405 : i1
        %915 = arith.addi %408, %223 overflow<nsw> : index
        %916 = arith.select %914, %915, %c536870911 : index
        vector.store %913, %377[%916] : memref<?xf32, #amdgpu.address_space<fat_raw_buffer>>, vector<1xf32>
        %917 = vector.extract_strided_slice %323 {offsets = [5], sizes = [1], strides = [1]} : vector<16xf32> to vector<1xf32>
        %918 = arith.andi %897, %413 : i1
        %919 = arith.addi %416, %223 overflow<nsw> : index
        %920 = arith.select %918, %919, %c536870911 : index
        vector.store %917, %377[%920] : memref<?xf32, #amdgpu.address_space<fat_raw_buffer>>, vector<1xf32>
        %921 = vector.extract_strided_slice %323 {offsets = [6], sizes = [1], strides = [1]} : vector<16xf32> to vector<1xf32>
        %922 = arith.andi %897, %421 : i1
        %923 = arith.addi %424, %223 overflow<nsw> : index
        %924 = arith.select %922, %923, %c536870911 : index
        vector.store %921, %377[%924] : memref<?xf32, #amdgpu.address_space<fat_raw_buffer>>, vector<1xf32>
        %925 = vector.extract_strided_slice %323 {offsets = [7], sizes = [1], strides = [1]} : vector<16xf32> to vector<1xf32>
        %926 = arith.andi %897, %429 : i1
        %927 = arith.addi %432, %223 overflow<nsw> : index
        %928 = arith.select %926, %927, %c536870911 : index
        vector.store %925, %377[%928] : memref<?xf32, #amdgpu.address_space<fat_raw_buffer>>, vector<1xf32>
        %929 = vector.extract_strided_slice %323 {offsets = [8], sizes = [1], strides = [1]} : vector<16xf32> to vector<1xf32>
        %930 = arith.andi %897, %437 : i1
        %931 = arith.addi %440, %223 overflow<nsw> : index
        %932 = arith.select %930, %931, %c536870911 : index
        vector.store %929, %377[%932] : memref<?xf32, #amdgpu.address_space<fat_raw_buffer>>, vector<1xf32>
        %933 = vector.extract_strided_slice %323 {offsets = [9], sizes = [1], strides = [1]} : vector<16xf32> to vector<1xf32>
        %934 = arith.andi %897, %445 : i1
        %935 = arith.addi %448, %223 overflow<nsw> : index
        %936 = arith.select %934, %935, %c536870911 : index
        vector.store %933, %377[%936] : memref<?xf32, #amdgpu.address_space<fat_raw_buffer>>, vector<1xf32>
        %937 = vector.extract_strided_slice %323 {offsets = [10], sizes = [1], strides = [1]} : vector<16xf32> to vector<1xf32>
        %938 = arith.andi %897, %453 : i1
        %939 = arith.addi %456, %223 overflow<nsw> : index
        %940 = arith.select %938, %939, %c536870911 : index
        vector.store %937, %377[%940] : memref<?xf32, #amdgpu.address_space<fat_raw_buffer>>, vector<1xf32>
        %941 = vector.extract_strided_slice %323 {offsets = [11], sizes = [1], strides = [1]} : vector<16xf32> to vector<1xf32>
        %942 = arith.andi %897, %461 : i1
        %943 = arith.addi %464, %223 overflow<nsw> : index
        %944 = arith.select %942, %943, %c536870911 : index
        vector.store %941, %377[%944] : memref<?xf32, #amdgpu.address_space<fat_raw_buffer>>, vector<1xf32>
        %945 = vector.extract_strided_slice %323 {offsets = [12], sizes = [1], strides = [1]} : vector<16xf32> to vector<1xf32>
        %946 = arith.andi %897, %469 : i1
        %947 = arith.addi %472, %223 overflow<nsw> : index
        %948 = arith.select %946, %947, %c536870911 : index
        vector.store %945, %377[%948] : memref<?xf32, #amdgpu.address_space<fat_raw_buffer>>, vector<1xf32>
        %949 = vector.extract_strided_slice %323 {offsets = [13], sizes = [1], strides = [1]} : vector<16xf32> to vector<1xf32>
        %950 = arith.andi %897, %477 : i1
        %951 = arith.addi %480, %223 overflow<nsw> : index
        %952 = arith.select %950, %951, %c536870911 : index
        vector.store %949, %377[%952] : memref<?xf32, #amdgpu.address_space<fat_raw_buffer>>, vector<1xf32>
        %953 = vector.extract_strided_slice %323 {offsets = [14], sizes = [1], strides = [1]} : vector<16xf32> to vector<1xf32>
        %954 = arith.andi %897, %485 : i1
        %955 = arith.addi %488, %223 overflow<nsw> : index
        %956 = arith.select %954, %955, %c536870911 : index
        vector.store %953, %377[%956] : memref<?xf32, #amdgpu.address_space<fat_raw_buffer>>, vector<1xf32>
        %957 = vector.extract_strided_slice %323 {offsets = [15], sizes = [1], strides = [1]} : vector<16xf32> to vector<1xf32>
        %958 = arith.andi %897, %493 : i1
        %959 = arith.addi %496, %223 overflow<nsw> : index
        %960 = arith.select %958, %959, %c536870911 : index
        vector.store %957, %377[%960] : memref<?xf32, #amdgpu.address_space<fat_raw_buffer>>, vector<1xf32>
        %961 = vector.extract_strided_slice %325 {offsets = [0], sizes = [1], strides = [1]} : vector<16xf32> to vector<1xf32>
        %962 = affine.apply #map93()[%thread_id_x, %block_id_y, %block_id_x, %2, %thread_id_y]
        %963 = arith.cmpi slt, %962, %359 : index
        %964 = arith.andi %963, %367 : i1
        %965 = arith.addi %373, %228 overflow<nsw> : index
        %966 = arith.select %964, %965, %c536870911 : index
        vector.store %961, %377[%966] : memref<?xf32, #amdgpu.address_space<fat_raw_buffer>>, vector<1xf32>
        %967 = vector.extract_strided_slice %325 {offsets = [1], sizes = [1], strides = [1]} : vector<16xf32> to vector<1xf32>
        %968 = arith.andi %963, %381 : i1
        %969 = arith.addi %384, %228 overflow<nsw> : index
        %970 = arith.select %968, %969, %c536870911 : index
        vector.store %967, %377[%970] : memref<?xf32, #amdgpu.address_space<fat_raw_buffer>>, vector<1xf32>
        %971 = vector.extract_strided_slice %325 {offsets = [2], sizes = [1], strides = [1]} : vector<16xf32> to vector<1xf32>
        %972 = arith.andi %963, %389 : i1
        %973 = arith.addi %392, %228 overflow<nsw> : index
        %974 = arith.select %972, %973, %c536870911 : index
        vector.store %971, %377[%974] : memref<?xf32, #amdgpu.address_space<fat_raw_buffer>>, vector<1xf32>
        %975 = vector.extract_strided_slice %325 {offsets = [3], sizes = [1], strides = [1]} : vector<16xf32> to vector<1xf32>
        %976 = arith.andi %963, %397 : i1
        %977 = arith.addi %400, %228 overflow<nsw> : index
        %978 = arith.select %976, %977, %c536870911 : index
        vector.store %975, %377[%978] : memref<?xf32, #amdgpu.address_space<fat_raw_buffer>>, vector<1xf32>
        %979 = vector.extract_strided_slice %325 {offsets = [4], sizes = [1], strides = [1]} : vector<16xf32> to vector<1xf32>
        %980 = arith.andi %963, %405 : i1
        %981 = arith.addi %408, %228 overflow<nsw> : index
        %982 = arith.select %980, %981, %c536870911 : index
        vector.store %979, %377[%982] : memref<?xf32, #amdgpu.address_space<fat_raw_buffer>>, vector<1xf32>
        %983 = vector.extract_strided_slice %325 {offsets = [5], sizes = [1], strides = [1]} : vector<16xf32> to vector<1xf32>
        %984 = arith.andi %963, %413 : i1
        %985 = arith.addi %416, %228 overflow<nsw> : index
        %986 = arith.select %984, %985, %c536870911 : index
        vector.store %983, %377[%986] : memref<?xf32, #amdgpu.address_space<fat_raw_buffer>>, vector<1xf32>
        %987 = vector.extract_strided_slice %325 {offsets = [6], sizes = [1], strides = [1]} : vector<16xf32> to vector<1xf32>
        %988 = arith.andi %963, %421 : i1
        %989 = arith.addi %424, %228 overflow<nsw> : index
        %990 = arith.select %988, %989, %c536870911 : index
        vector.store %987, %377[%990] : memref<?xf32, #amdgpu.address_space<fat_raw_buffer>>, vector<1xf32>
        %991 = vector.extract_strided_slice %325 {offsets = [7], sizes = [1], strides = [1]} : vector<16xf32> to vector<1xf32>
        %992 = arith.andi %963, %429 : i1
        %993 = arith.addi %432, %228 overflow<nsw> : index
        %994 = arith.select %992, %993, %c536870911 : index
        vector.store %991, %377[%994] : memref<?xf32, #amdgpu.address_space<fat_raw_buffer>>, vector<1xf32>
        %995 = vector.extract_strided_slice %325 {offsets = [8], sizes = [1], strides = [1]} : vector<16xf32> to vector<1xf32>
        %996 = arith.andi %963, %437 : i1
        %997 = arith.addi %440, %228 overflow<nsw> : index
        %998 = arith.select %996, %997, %c536870911 : index
        vector.store %995, %377[%998] : memref<?xf32, #amdgpu.address_space<fat_raw_buffer>>, vector<1xf32>
        %999 = vector.extract_strided_slice %325 {offsets = [9], sizes = [1], strides = [1]} : vector<16xf32> to vector<1xf32>
        %1000 = arith.andi %963, %445 : i1
        %1001 = arith.addi %448, %228 overflow<nsw> : index
        %1002 = arith.select %1000, %1001, %c536870911 : index
        vector.store %999, %377[%1002] : memref<?xf32, #amdgpu.address_space<fat_raw_buffer>>, vector<1xf32>
        %1003 = vector.extract_strided_slice %325 {offsets = [10], sizes = [1], strides = [1]} : vector<16xf32> to vector<1xf32>
        %1004 = arith.andi %963, %453 : i1
        %1005 = arith.addi %456, %228 overflow<nsw> : index
        %1006 = arith.select %1004, %1005, %c536870911 : index
        vector.store %1003, %377[%1006] : memref<?xf32, #amdgpu.address_space<fat_raw_buffer>>, vector<1xf32>
        %1007 = vector.extract_strided_slice %325 {offsets = [11], sizes = [1], strides = [1]} : vector<16xf32> to vector<1xf32>
        %1008 = arith.andi %963, %461 : i1
        %1009 = arith.addi %464, %228 overflow<nsw> : index
        %1010 = arith.select %1008, %1009, %c536870911 : index
        vector.store %1007, %377[%1010] : memref<?xf32, #amdgpu.address_space<fat_raw_buffer>>, vector<1xf32>
        %1011 = vector.extract_strided_slice %325 {offsets = [12], sizes = [1], strides = [1]} : vector<16xf32> to vector<1xf32>
        %1012 = arith.andi %963, %469 : i1
        %1013 = arith.addi %472, %228 overflow<nsw> : index
        %1014 = arith.select %1012, %1013, %c536870911 : index
        vector.store %1011, %377[%1014] : memref<?xf32, #amdgpu.address_space<fat_raw_buffer>>, vector<1xf32>
        %1015 = vector.extract_strided_slice %325 {offsets = [13], sizes = [1], strides = [1]} : vector<16xf32> to vector<1xf32>
        %1016 = arith.andi %963, %477 : i1
        %1017 = arith.addi %480, %228 overflow<nsw> : index
        %1018 = arith.select %1016, %1017, %c536870911 : index
        vector.store %1015, %377[%1018] : memref<?xf32, #amdgpu.address_space<fat_raw_buffer>>, vector<1xf32>
        %1019 = vector.extract_strided_slice %325 {offsets = [14], sizes = [1], strides = [1]} : vector<16xf32> to vector<1xf32>
        %1020 = arith.andi %963, %485 : i1
        %1021 = arith.addi %488, %228 overflow<nsw> : index
        %1022 = arith.select %1020, %1021, %c536870911 : index
        vector.store %1019, %377[%1022] : memref<?xf32, #amdgpu.address_space<fat_raw_buffer>>, vector<1xf32>
        %1023 = vector.extract_strided_slice %325 {offsets = [15], sizes = [1], strides = [1]} : vector<16xf32> to vector<1xf32>
        %1024 = arith.andi %963, %493 : i1
        %1025 = arith.addi %496, %228 overflow<nsw> : index
        %1026 = arith.select %1024, %1025, %c536870911 : index
        vector.store %1023, %377[%1026] : memref<?xf32, #amdgpu.address_space<fat_raw_buffer>>, vector<1xf32>
        %1027 = vector.extract_strided_slice %327 {offsets = [0], sizes = [1], strides = [1]} : vector<16xf32> to vector<1xf32>
        %1028 = affine.apply #map94()[%thread_id_x, %block_id_y, %block_id_x, %2, %thread_id_y]
        %1029 = arith.cmpi slt, %1028, %359 : index
        %1030 = arith.andi %1029, %367 : i1
        %1031 = arith.addi %373, %233 overflow<nsw> : index
        %1032 = arith.select %1030, %1031, %c536870911 : index
        vector.store %1027, %377[%1032] : memref<?xf32, #amdgpu.address_space<fat_raw_buffer>>, vector<1xf32>
        %1033 = vector.extract_strided_slice %327 {offsets = [1], sizes = [1], strides = [1]} : vector<16xf32> to vector<1xf32>
        %1034 = arith.andi %1029, %381 : i1
        %1035 = arith.addi %384, %233 overflow<nsw> : index
        %1036 = arith.select %1034, %1035, %c536870911 : index
        vector.store %1033, %377[%1036] : memref<?xf32, #amdgpu.address_space<fat_raw_buffer>>, vector<1xf32>
        %1037 = vector.extract_strided_slice %327 {offsets = [2], sizes = [1], strides = [1]} : vector<16xf32> to vector<1xf32>
        %1038 = arith.andi %1029, %389 : i1
        %1039 = arith.addi %392, %233 overflow<nsw> : index
        %1040 = arith.select %1038, %1039, %c536870911 : index
        vector.store %1037, %377[%1040] : memref<?xf32, #amdgpu.address_space<fat_raw_buffer>>, vector<1xf32>
        %1041 = vector.extract_strided_slice %327 {offsets = [3], sizes = [1], strides = [1]} : vector<16xf32> to vector<1xf32>
        %1042 = arith.andi %1029, %397 : i1
        %1043 = arith.addi %400, %233 overflow<nsw> : index
        %1044 = arith.select %1042, %1043, %c536870911 : index
        vector.store %1041, %377[%1044] : memref<?xf32, #amdgpu.address_space<fat_raw_buffer>>, vector<1xf32>
        %1045 = vector.extract_strided_slice %327 {offsets = [4], sizes = [1], strides = [1]} : vector<16xf32> to vector<1xf32>
        %1046 = arith.andi %1029, %405 : i1
        %1047 = arith.addi %408, %233 overflow<nsw> : index
        %1048 = arith.select %1046, %1047, %c536870911 : index
        vector.store %1045, %377[%1048] : memref<?xf32, #amdgpu.address_space<fat_raw_buffer>>, vector<1xf32>
        %1049 = vector.extract_strided_slice %327 {offsets = [5], sizes = [1], strides = [1]} : vector<16xf32> to vector<1xf32>
        %1050 = arith.andi %1029, %413 : i1
        %1051 = arith.addi %416, %233 overflow<nsw> : index
        %1052 = arith.select %1050, %1051, %c536870911 : index
        vector.store %1049, %377[%1052] : memref<?xf32, #amdgpu.address_space<fat_raw_buffer>>, vector<1xf32>
        %1053 = vector.extract_strided_slice %327 {offsets = [6], sizes = [1], strides = [1]} : vector<16xf32> to vector<1xf32>
        %1054 = arith.andi %1029, %421 : i1
        %1055 = arith.addi %424, %233 overflow<nsw> : index
        %1056 = arith.select %1054, %1055, %c536870911 : index
        vector.store %1053, %377[%1056] : memref<?xf32, #amdgpu.address_space<fat_raw_buffer>>, vector<1xf32>
        %1057 = vector.extract_strided_slice %327 {offsets = [7], sizes = [1], strides = [1]} : vector<16xf32> to vector<1xf32>
        %1058 = arith.andi %1029, %429 : i1
        %1059 = arith.addi %432, %233 overflow<nsw> : index
        %1060 = arith.select %1058, %1059, %c536870911 : index
        vector.store %1057, %377[%1060] : memref<?xf32, #amdgpu.address_space<fat_raw_buffer>>, vector<1xf32>
        %1061 = vector.extract_strided_slice %327 {offsets = [8], sizes = [1], strides = [1]} : vector<16xf32> to vector<1xf32>
        %1062 = arith.andi %1029, %437 : i1
        %1063 = arith.addi %440, %233 overflow<nsw> : index
        %1064 = arith.select %1062, %1063, %c536870911 : index
        vector.store %1061, %377[%1064] : memref<?xf32, #amdgpu.address_space<fat_raw_buffer>>, vector<1xf32>
        %1065 = vector.extract_strided_slice %327 {offsets = [9], sizes = [1], strides = [1]} : vector<16xf32> to vector<1xf32>
        %1066 = arith.andi %1029, %445 : i1
        %1067 = arith.addi %448, %233 overflow<nsw> : index
        %1068 = arith.select %1066, %1067, %c536870911 : index
        vector.store %1065, %377[%1068] : memref<?xf32, #amdgpu.address_space<fat_raw_buffer>>, vector<1xf32>
        %1069 = vector.extract_strided_slice %327 {offsets = [10], sizes = [1], strides = [1]} : vector<16xf32> to vector<1xf32>
        %1070 = arith.andi %1029, %453 : i1
        %1071 = arith.addi %456, %233 overflow<nsw> : index
        %1072 = arith.select %1070, %1071, %c536870911 : index
        vector.store %1069, %377[%1072] : memref<?xf32, #amdgpu.address_space<fat_raw_buffer>>, vector<1xf32>
        %1073 = vector.extract_strided_slice %327 {offsets = [11], sizes = [1], strides = [1]} : vector<16xf32> to vector<1xf32>
        %1074 = arith.andi %1029, %461 : i1
        %1075 = arith.addi %464, %233 overflow<nsw> : index
        %1076 = arith.select %1074, %1075, %c536870911 : index
        vector.store %1073, %377[%1076] : memref<?xf32, #amdgpu.address_space<fat_raw_buffer>>, vector<1xf32>
        %1077 = vector.extract_strided_slice %327 {offsets = [12], sizes = [1], strides = [1]} : vector<16xf32> to vector<1xf32>
        %1078 = arith.andi %1029, %469 : i1
        %1079 = arith.addi %472, %233 overflow<nsw> : index
        %1080 = arith.select %1078, %1079, %c536870911 : index
        vector.store %1077, %377[%1080] : memref<?xf32, #amdgpu.address_space<fat_raw_buffer>>, vector<1xf32>
        %1081 = vector.extract_strided_slice %327 {offsets = [13], sizes = [1], strides = [1]} : vector<16xf32> to vector<1xf32>
        %1082 = arith.andi %1029, %477 : i1
        %1083 = arith.addi %480, %233 overflow<nsw> : index
        %1084 = arith.select %1082, %1083, %c536870911 : index
        vector.store %1081, %377[%1084] : memref<?xf32, #amdgpu.address_space<fat_raw_buffer>>, vector<1xf32>
        %1085 = vector.extract_strided_slice %327 {offsets = [14], sizes = [1], strides = [1]} : vector<16xf32> to vector<1xf32>
        %1086 = arith.andi %1029, %485 : i1
        %1087 = arith.addi %488, %233 overflow<nsw> : index
        %1088 = arith.select %1086, %1087, %c536870911 : index
        vector.store %1085, %377[%1088] : memref<?xf32, #amdgpu.address_space<fat_raw_buffer>>, vector<1xf32>
        %1089 = vector.extract_strided_slice %327 {offsets = [15], sizes = [1], strides = [1]} : vector<16xf32> to vector<1xf32>
        %1090 = arith.andi %1029, %493 : i1
        %1091 = arith.addi %496, %233 overflow<nsw> : index
        %1092 = arith.select %1090, %1091, %c536870911 : index
        vector.store %1089, %377[%1092] : memref<?xf32, #amdgpu.address_space<fat_raw_buffer>>, vector<1xf32>
        %1093 = vector.extract_strided_slice %329 {offsets = [0], sizes = [1], strides = [1]} : vector<16xf32> to vector<1xf32>
        %1094 = affine.apply #map95()[%thread_id_x, %block_id_y, %block_id_x, %2, %thread_id_y]
        %1095 = arith.cmpi slt, %1094, %359 : index
        %1096 = arith.andi %1095, %367 : i1
        %1097 = arith.addi %373, %238 overflow<nsw> : index
        %1098 = arith.select %1096, %1097, %c536870911 : index
        vector.store %1093, %377[%1098] : memref<?xf32, #amdgpu.address_space<fat_raw_buffer>>, vector<1xf32>
        %1099 = vector.extract_strided_slice %329 {offsets = [1], sizes = [1], strides = [1]} : vector<16xf32> to vector<1xf32>
        %1100 = arith.andi %1095, %381 : i1
        %1101 = arith.addi %384, %238 overflow<nsw> : index
        %1102 = arith.select %1100, %1101, %c536870911 : index
        vector.store %1099, %377[%1102] : memref<?xf32, #amdgpu.address_space<fat_raw_buffer>>, vector<1xf32>
        %1103 = vector.extract_strided_slice %329 {offsets = [2], sizes = [1], strides = [1]} : vector<16xf32> to vector<1xf32>
        %1104 = arith.andi %1095, %389 : i1
        %1105 = arith.addi %392, %238 overflow<nsw> : index
        %1106 = arith.select %1104, %1105, %c536870911 : index
        vector.store %1103, %377[%1106] : memref<?xf32, #amdgpu.address_space<fat_raw_buffer>>, vector<1xf32>
        %1107 = vector.extract_strided_slice %329 {offsets = [3], sizes = [1], strides = [1]} : vector<16xf32> to vector<1xf32>
        %1108 = arith.andi %1095, %397 : i1
        %1109 = arith.addi %400, %238 overflow<nsw> : index
        %1110 = arith.select %1108, %1109, %c536870911 : index
        vector.store %1107, %377[%1110] : memref<?xf32, #amdgpu.address_space<fat_raw_buffer>>, vector<1xf32>
        %1111 = vector.extract_strided_slice %329 {offsets = [4], sizes = [1], strides = [1]} : vector<16xf32> to vector<1xf32>
        %1112 = arith.andi %1095, %405 : i1
        %1113 = arith.addi %408, %238 overflow<nsw> : index
        %1114 = arith.select %1112, %1113, %c536870911 : index
        vector.store %1111, %377[%1114] : memref<?xf32, #amdgpu.address_space<fat_raw_buffer>>, vector<1xf32>
        %1115 = vector.extract_strided_slice %329 {offsets = [5], sizes = [1], strides = [1]} : vector<16xf32> to vector<1xf32>
        %1116 = arith.andi %1095, %413 : i1
        %1117 = arith.addi %416, %238 overflow<nsw> : index
        %1118 = arith.select %1116, %1117, %c536870911 : index
        vector.store %1115, %377[%1118] : memref<?xf32, #amdgpu.address_space<fat_raw_buffer>>, vector<1xf32>
        %1119 = vector.extract_strided_slice %329 {offsets = [6], sizes = [1], strides = [1]} : vector<16xf32> to vector<1xf32>
        %1120 = arith.andi %1095, %421 : i1
        %1121 = arith.addi %424, %238 overflow<nsw> : index
        %1122 = arith.select %1120, %1121, %c536870911 : index
        vector.store %1119, %377[%1122] : memref<?xf32, #amdgpu.address_space<fat_raw_buffer>>, vector<1xf32>
        %1123 = vector.extract_strided_slice %329 {offsets = [7], sizes = [1], strides = [1]} : vector<16xf32> to vector<1xf32>
        %1124 = arith.andi %1095, %429 : i1
        %1125 = arith.addi %432, %238 overflow<nsw> : index
        %1126 = arith.select %1124, %1125, %c536870911 : index
        vector.store %1123, %377[%1126] : memref<?xf32, #amdgpu.address_space<fat_raw_buffer>>, vector<1xf32>
        %1127 = vector.extract_strided_slice %329 {offsets = [8], sizes = [1], strides = [1]} : vector<16xf32> to vector<1xf32>
        %1128 = arith.andi %1095, %437 : i1
        %1129 = arith.addi %440, %238 overflow<nsw> : index
        %1130 = arith.select %1128, %1129, %c536870911 : index
        vector.store %1127, %377[%1130] : memref<?xf32, #amdgpu.address_space<fat_raw_buffer>>, vector<1xf32>
        %1131 = vector.extract_strided_slice %329 {offsets = [9], sizes = [1], strides = [1]} : vector<16xf32> to vector<1xf32>
        %1132 = arith.andi %1095, %445 : i1
        %1133 = arith.addi %448, %238 overflow<nsw> : index
        %1134 = arith.select %1132, %1133, %c536870911 : index
        vector.store %1131, %377[%1134] : memref<?xf32, #amdgpu.address_space<fat_raw_buffer>>, vector<1xf32>
        %1135 = vector.extract_strided_slice %329 {offsets = [10], sizes = [1], strides = [1]} : vector<16xf32> to vector<1xf32>
        %1136 = arith.andi %1095, %453 : i1
        %1137 = arith.addi %456, %238 overflow<nsw> : index
        %1138 = arith.select %1136, %1137, %c536870911 : index
        vector.store %1135, %377[%1138] : memref<?xf32, #amdgpu.address_space<fat_raw_buffer>>, vector<1xf32>
        %1139 = vector.extract_strided_slice %329 {offsets = [11], sizes = [1], strides = [1]} : vector<16xf32> to vector<1xf32>
        %1140 = arith.andi %1095, %461 : i1
        %1141 = arith.addi %464, %238 overflow<nsw> : index
        %1142 = arith.select %1140, %1141, %c536870911 : index
        vector.store %1139, %377[%1142] : memref<?xf32, #amdgpu.address_space<fat_raw_buffer>>, vector<1xf32>
        %1143 = vector.extract_strided_slice %329 {offsets = [12], sizes = [1], strides = [1]} : vector<16xf32> to vector<1xf32>
        %1144 = arith.andi %1095, %469 : i1
        %1145 = arith.addi %472, %238 overflow<nsw> : index
        %1146 = arith.select %1144, %1145, %c536870911 : index
        vector.store %1143, %377[%1146] : memref<?xf32, #amdgpu.address_space<fat_raw_buffer>>, vector<1xf32>
        %1147 = vector.extract_strided_slice %329 {offsets = [13], sizes = [1], strides = [1]} : vector<16xf32> to vector<1xf32>
        %1148 = arith.andi %1095, %477 : i1
        %1149 = arith.addi %480, %238 overflow<nsw> : index
        %1150 = arith.select %1148, %1149, %c536870911 : index
        vector.store %1147, %377[%1150] : memref<?xf32, #amdgpu.address_space<fat_raw_buffer>>, vector<1xf32>
        %1151 = vector.extract_strided_slice %329 {offsets = [14], sizes = [1], strides = [1]} : vector<16xf32> to vector<1xf32>
        %1152 = arith.andi %1095, %485 : i1
        %1153 = arith.addi %488, %238 overflow<nsw> : index
        %1154 = arith.select %1152, %1153, %c536870911 : index
        vector.store %1151, %377[%1154] : memref<?xf32, #amdgpu.address_space<fat_raw_buffer>>, vector<1xf32>
        %1155 = vector.extract_strided_slice %329 {offsets = [15], sizes = [1], strides = [1]} : vector<16xf32> to vector<1xf32>
        %1156 = arith.andi %1095, %493 : i1
        %1157 = arith.addi %496, %238 overflow<nsw> : index
        %1158 = arith.select %1156, %1157, %c536870911 : index
        vector.store %1155, %377[%1158] : memref<?xf32, #amdgpu.address_space<fat_raw_buffer>>, vector<1xf32>
        %1159 = vector.extract_strided_slice %331 {offsets = [0], sizes = [1], strides = [1]} : vector<16xf32> to vector<1xf32>
        %1160 = affine.apply #map96()[%thread_id_x, %block_id_y, %block_id_x, %2, %thread_id_y]
        %1161 = arith.cmpi slt, %1160, %359 : index
        %1162 = arith.andi %1161, %367 : i1
…
        %1457 = vector.extract_strided_slice %339 {offsets = [8], sizes = [1], strides = [1]} : vector<16xf32> to vector<1xf32>
        %1458 = arith.andi %1425, %437 : i1
        %1459 = arith.addi %440, %263 overflow<nsw> : index
        %1460 = arith.select %1458, %1459, %c536870911 : index
        vector.store %1457, %377[%1460] : memref<?xf32, #amdgpu.address_space<fat_raw_buffer>>, vector<1xf32>
        %1461 = vector.extract_strided_slice %339 {offsets = [9], sizes = [1], strides = [1]} : vector<16xf32> to vector<1xf32>
        %1462 = arith.andi %1425, %445 : i1
        %1463 = arith.addi %448, %263 overflow<nsw> : index
        %1464 = arith.select %1462, %1463, %c536870911 : index
        vector.store %1461, %377[%1464] : memref<?xf32, #amdgpu.address_space<fat_raw_buffer>>, vector<1xf32>
        %1465 = vector.extract_strided_slice %339 {offsets = [10], sizes = [1], strides = [1]} : vector<16xf32> to vector<1xf32>
        %1466 = arith.andi %1425, %453 : i1
        %1467 = arith.addi %456, %263 overflow<nsw> : index
        %1468 = arith.select %1466, %1467, %c536870911 : index
        vector.store %1465, %377[%1468] : memref<?xf32, #amdgpu.address_space<fat_raw_buffer>>, vector<1xf32>
        %1469 = vector.extract_strided_slice %339 {offsets = [11], sizes = [1], strides = [1]} : vector<16xf32> to vector<1xf32>
        %1470 = arith.andi %1425, %461 : i1
        %1471 = arith.addi %464, %263 overflow<nsw> : index
        %1472 = arith.select %1470, %1471, %c536870911 : index
        vector.store %1469, %377[%1472] : memref<?xf32, #amdgpu.address_space<fat_raw_buffer>>, vector<1xf32>
        %1473 = vector.extract_strided_slice %339 {offsets = [12], sizes = [1], strides = [1]} : vector<16xf32> to vector<1xf32>
        %1474 = arith.andi %1425, %469 : i1
        %1475 = arith.addi %472, %263 overflow<nsw> : index
        %1476 = arith.select %1474, %1475, %c536870911 : index
        vector.store %1473, %377[%1476] : memref<?xf32, #amdgpu.address_space<fat_raw_buffer>>, vector<1xf32>
        %1477 = vector.extract_strided_slice %339 {offsets = [13], sizes = [1], strides = [1]} : vector<16xf32> to vector<1xf32>
        %1478 = arith.andi %1425, %477 : i1
        %1479 = arith.addi %480, %263 overflow<nsw> : index
        %1480 = arith.select %1478, %1479, %c536870911 : index
        vector.store %1477, %377[%1480] : memref<?xf32, #amdgpu.address_space<fat_raw_buffer>>, vector<1xf32>
        %1481 = vector.extract_strided_slice %339 {offsets = [14], sizes = [1], strides = [1]} : vector<16xf32> to vector<1xf32>
        %1482 = arith.andi %1425, %485 : i1
        %1483 = arith.addi %488, %263 overflow<nsw> : index
        %1484 = arith.select %1482, %1483, %c536870911 : index
        vector.store %1481, %377[%1484] : memref<?xf32, #amdgpu.address_space<fat_raw_buffer>>, vector<1xf32>
        %1485 = vector.extract_strided_slice %339 {offsets = [15], sizes = [1], strides = [1]} : vector<16xf32> to vector<1xf32>
        %1486 = arith.andi %1425, %493 : i1
        %1487 = arith.addi %496, %263 overflow<nsw> : index
        %1488 = arith.select %1486, %1487, %c536870911 : index
        vector.store %1485, %377[%1488] : memref<?xf32, #amdgpu.address_space<fat_raw_buffer>>, vector<1xf32>
        %1489 = vector.extract_strided_slice %341 {offsets = [0], sizes = [1], strides = [1]} : vector<16xf32> to vector<1xf32>
        %1490 = affine.apply #map101()[%thread_id_x, %block_id_y, %block_id_x, %2, %thread_id_y]
        %1491 = arith.cmpi slt, %1490, %359 : index
        %1492 = arith.andi %1491, %367 : i1
        %1493 = arith.addi %373, %268 overflow<nsw> : index
        %1494 = arith.select %1492, %1493, %c536870911 : index
        vector.store %1489, %377[%1494] : memref<?xf32, #amdgpu.address_space<fat_raw_buffer>>, vector<1xf32>
        %1495 = vector.extract_strided_slice %341 {offsets = [1], sizes = [1], strides = [1]} : vector<16xf32> to vector<1xf32>
        %1496 = arith.andi %1491, %381 : i1
        %1497 = arith.addi %384, %268 overflow<nsw> : index
        %1498 = arith.select %1496, %1497, %c536870911 : index
        vector.store %1495, %377[%1498] : memref<?xf32, #amdgpu.address_space<fat_raw_buffer>>, vector<1xf32>
        %1499 = vector.extract_strided_slice %341 {offsets = [2], sizes = [1], strides = [1]} : vector<16xf32> to vector<1xf32>
        %1500 = arith.andi %1491, %389 : i1
        %1501 = arith.addi %392, %268 overflow<nsw> : index
        %1502 = arith.select %1500, %1501, %c536870911 : index
        vector.store %1499, %377[%1502] : memref<?xf32, #amdgpu.address_space<fat_raw_buffer>>, vector<1xf32>
        %1503 = vector.extract_strided_slice %341 {offsets = [3], sizes = [1], strides = [1]} : vector<16xf32> to vector<1xf32>
        %1504 = arith.andi %1491, %397 : i1
        %1505 = arith.addi %400, %268 overflow<nsw> : index
        %1506 = arith.select %1504, %1505, %c536870911 : index
        vector.store %1503, %377[%1506] : memref<?xf32, #amdgpu.address_space<fat_raw_buffer>>, vector<1xf32>
        %1507 = vector.extract_strided_slice %341 {offsets = [4], sizes = [1], strides = [1]} : vector<16xf32> to vector<1xf32>
        %1508 = arith.andi %1491, %405 : i1
        %1509 = arith.addi %408, %268 overflow<nsw> : index
        %1510 = arith.select %1508, %1509, %c536870911 : index
        vector.store %1507, %377[%1510] : memref<?xf32, #amdgpu.address_space<fat_raw_buffer>>, vector<1xf32>
        %1511 = vector.extract_strided_slice %341 {offsets = [5], sizes = [1], strides = [1]} : vector<16xf32> to vector<1xf32>
        %1512 = arith.andi %1491, %413 : i1
        %1513 = arith.addi %416, %268 overflow<nsw> : index
        %1514 = arith.select %1512, %1513, %c536870911 : index
        vector.store %1511, %377[%1514] : memref<?xf32, #amdgpu.address_space<fat_raw_buffer>>, vector<1xf32>
        %1515 = vector.extract_strided_slice %341 {offsets = [6], sizes = [1], strides = [1]} : vector<16xf32> to vector<1xf32>
        %1516 = arith.andi %1491, %421 : i1
        %1517 = arith.addi %424, %268 overflow<nsw> : index
        %1518 = arith.select %1516, %1517, %c536870911 : index
        vector.store %1515, %377[%1518] : memref<?xf32, #amdgpu.address_space<fat_raw_buffer>>, vector<1xf32>
        %1519 = vector.extract_strided_slice %341 {offsets = [7], sizes = [1], strides = [1]} : vector<16xf32> to vector<1xf32>
        %1520 = arith.andi %1491, %429 : i1
        %1521 = arith.addi %432, %268 overflow<nsw> : index
        %1522 = arith.select %1520, %1521, %c536870911 : index
        vector.store %1519, %377[%1522] : memref<?xf32, #amdgpu.address_space<fat_raw_buffer>>, vector<1xf32>
        %1523 = vector.extract_strided_slice %341 {offsets = [8], sizes = [1], strides = [1]} : vector<16xf32> to vector<1xf32>
        %1524 = arith.andi %1491, %437 : i1
        %1525 = arith.addi %440, %268 overflow<nsw> : index
        %1526 = arith.select %1524, %1525, %c536870911 : index
        vector.store %1523, %377[%1526] : memref<?xf32, #amdgpu.address_space<fat_raw_buffer>>, vector<1xf32>
        %1527 = vector.extract_strided_slice %341 {offsets = [9], sizes = [1], strides = [1]} : vector<16xf32> to vector<1xf32>
        %1528 = arith.andi %1491, %445 : i1
        %1529 = arith.addi %448, %268 overflow<nsw> : index
        %1530 = arith.select %1528, %1529, %c536870911 : index
        vector.store %1527, %377[%1530] : memref<?xf32, #amdgpu.address_space<fat_raw_buffer>>, vector<1xf32>
        %1531 = vector.extract_strided_slice %341 {offsets = [10], sizes = [1], strides = [1]} : vector<16xf32> to vector<1xf32>
        %1532 = arith.andi %1491, %453 : i1
        %1533 = arith.addi %456, %268 overflow<nsw> : index
        %1534 = arith.select %1532, %1533, %c536870911 : index
        vector.store %1531, %377[%1534] : memref<?xf32, #amdgpu.address_space<fat_raw_buffer>>, vector<1xf32>
        %1535 = vector.extract_strided_slice %341 {offsets = [11], sizes = [1], strides = [1]} : vector<16xf32> to vector<1xf32>
        %1536 = arith.andi %1491, %461 : i1
        %1537 = arith.addi %464, %268 overflow<nsw> : index
        %1538 = arith.select %1536, %1537, %c536870911 : index
        vector.store %1535, %377[%1538] : memref<?xf32, #amdgpu.address_space<fat_raw_buffer>>, vector<1xf32>
        %1539 = vector.extract_strided_slice %341 {offsets = [12], sizes = [1], strides = [1]} : vector<16xf32> to vector<1xf32>
        %1540 = arith.andi %1491, %469 : i1
        %1541 = arith.addi %472, %268 overflow<nsw> : index
        %1542 = arith.select %1540, %1541, %c536870911 : index
        vector.store %1539, %377[%1542] : memref<?xf32, #amdgpu.address_space<fat_raw_buffer>>, vector<1xf32>
        %1543 = vector.extract_strided_slice %341 {offsets = [13], sizes = [1], strides = [1]} : vector<16xf32> to vector<1xf32>
        %1544 = arith.andi %1491, %477 : i1
        %1545 = arith.addi %480, %268 overflow<nsw> : index
        %1546 = arith.select %1544, %1545, %c536870911 : index
        vector.store %1543, %377[%1546] : memref<?xf32, #amdgpu.address_space<fat_raw_buffer>>, vector<1xf32>
        %1547 = vector.extract_strided_slice %341 {offsets = [14], sizes = [1], strides = [1]} : vector<16xf32> to vector<1xf32>
        %1548 = arith.andi %1491, %485 : i1
        %1549 = arith.addi %488, %268 overflow<nsw> : index
        %1550 = arith.select %1548, %1549, %c536870911 : index
        vector.store %1547, %377[%1550] : memref<?xf32, #amdgpu.address_space<fat_raw_buffer>>, vector<1xf32>
        %1551 = vector.extract_strided_slice %341 {offsets = [15], sizes = [1], strides = [1]} : vector<16xf32> to vector<1xf32>
        %1552 = arith.andi %1491, %493 : i1
        %1553 = arith.addi %496, %268 overflow<nsw> : index
        %1554 = arith.select %1552, %1553, %c536870911 : index
        vector.store %1551, %377[%1554] : memref<?xf32, #amdgpu.address_space<fat_raw_buffer>>, vector<1xf32>
        %1555 = vector.extract_strided_slice %343 {offsets = [0], sizes = [1], strides = [1]} : vector<16xf32> to vector<1xf32>
        %1556 = affine.apply #map102()[%thread_id_x, %block_id_y, %block_id_x, %2, %thread_id_y]
        %1557 = arith.cmpi slt, %1556, %359 : index
        %1558 = arith.andi %1557, %367 : i1
        %1559 = arith.addi %373, %273 overflow<nsw> : index
        %1560 = arith.select %1558, %1559, %c536870911 : index
        vector.store %1555, %377[%1560] : memref<?xf32, #amdgpu.address_space<fat_raw_buffer>>, vector<1xf32>
        %1561 = vector.extract_strided_slice %343 {offsets = [1], sizes = [1], strides = [1]} : vector<16xf32> to vector<1xf32>
        %1562 = arith.andi %1557, %381 : i1
        %1563 = arith.addi %384, %273 overflow<nsw> : index
        %1564 = arith.select %1562, %1563, %c536870911 : index
        vector.store %1561, %377[%1564] : memref<?xf32, #amdgpu.address_space<fat_raw_buffer>>, vector<1xf32>
        %1565 = vector.extract_strided_slice %343 {offsets = [2], sizes = [1], strides = [1]} : vector<16xf32> to vector<1xf32>
        %1566 = arith.andi %1557, %389 : i1
        %1567 = arith.addi %392, %273 overflow<nsw> : index
        %1568 = arith.select %1566, %1567, %c536870911 : index
        vector.store %1565, %377[%1568] : memref<?xf32, #amdgpu.address_space<fat_raw_buffer>>, vector<1xf32>
        %1569 = vector.extract_strided_slice %343 {offsets = [3], sizes = [1], strides = [1]} : vector<16xf32> to vector<1xf32>
        %1570 = arith.andi %1557, %397 : i1
        %1571 = arith.addi %400, %273 overflow<nsw> : index
        %1572 = arith.select %1570, %1571, %c536870911 : index
        vector.store %1569, %377[%1572] : memref<?xf32, #amdgpu.address_space<fat_raw_buffer>>, vector<1xf32>
        %1573 = vector.extract_strided_slice %343 {offsets = [4], sizes = [1], strides = [1]} : vector<16xf32> to vector<1xf32>
        %1574 = arith.andi %1557, %405 : i1
        %1575 = arith.addi %408, %273 overflow<nsw> : index
        %1576 = arith.select %1574, %1575, %c536870911 : index
        vector.store %1573, %377[%1576] : memref<?xf32, #amdgpu.address_space<fat_raw_buffer>>, vector<1xf32>
        %1577 = vector.extract_strided_slice %343 {offsets = [5], sizes = [1], strides = [1]} : vector<16xf32> to vector<1xf32>
        %1578 = arith.andi %1557, %413 : i1
        %1579 = arith.addi %416, %273 overflow<nsw> : index
        %1580 = arith.select %1578, %1579, %c536870911 : index
        vector.store %1577, %377[%1580] : memref<?xf32, #amdgpu.address_space<fat_raw_buffer>>, vector<1xf32>
        %1581 = vector.extract_strided_slice %343 {offsets = [6], sizes = [1], strides = [1]} : vector<16xf32> to vector<1xf32>
        %1582 = arith.andi %1557, %421 : i1
        %1583 = arith.addi %424, %273 overflow<nsw> : index
        %1584 = arith.select %1582, %1583, %c536870911 : index
        vector.store %1581, %377[%1584] : memref<?xf32, #amdgpu.address_space<fat_raw_buffer>>, vector<1xf32>
        %1585 = vector.extract_strided_slice %343 {offsets = [7], sizes = [1], strides = [1]} : vector<16xf32> to vector<1xf32>
        %1586 = arith.andi %1557, %429 : i1
        %1587 = arith.addi %432, %273 overflow<nsw> : index
        %1588 = arith.select %1586, %1587, %c536870911 : index
        vector.store %1585, %377[%1588] : memref<?xf32, #amdgpu.address_space<fat_raw_buffer>>, vector<1xf32>
        %1589 = vector.extract_strided_slice %343 {offsets = [8], sizes = [1], strides = [1]} : vector<16xf32> to vector<1xf32>
        %1590 = arith.andi %1557, %437 : i1
        %1591 = arith.addi %440, %273 overflow<nsw> : index
        %1592 = arith.select %1590, %1591, %c536870911 : index
        vector.store %1589, %377[%1592] : memref<?xf32, #amdgpu.address_space<fat_raw_buffer>>, vector<1xf32>
        %1593 = vector.extract_strided_slice %343 {offsets = [9], sizes = [1], strides = [1]} : vector<16xf32> to vector<1xf32>
        %1594 = arith.andi %1557, %445 : i1
        %1595 = arith.addi %448, %273 overflow<nsw> : index
        %1596 = arith.select %1594, %1595, %c536870911 : index
        vector.store %1593, %377[%1596] : memref<?xf32, #amdgpu.address_space<fat_raw_buffer>>, vector<1xf32>
        %1597 = vector.extract_strided_slice %343 {offsets = [10], sizes = [1], strides = [1]} : vector<16xf32> to vector<1xf32>
        %1598 = arith.andi %1557, %453 : i1
        %1599 = arith.addi %456, %273 overflow<nsw> : index
        %1600 = arith.select %1598, %1599, %c536870911 : index
        vector.store %1597, %377[%1600] : memref<?xf32, #amdgpu.address_space<fat_raw_buffer>>, vector<1xf32>
        %1601 = vector.extract_strided_slice %343 {offsets = [11], sizes = [1], strides = [1]} : vector<16xf32> to vector<1xf32>
        %1602 = arith.andi %1557, %461 : i1
        %1603 = arith.addi %464, %273 overflow<nsw> : index
        %1604 = arith.select %1602, %1603, %c536870911 : index
        vector.store %1601, %377[%1604] : memref<?xf32, #amdgpu.address_space<fat_raw_buffer>>, vector<1xf32>
        %1605 = vector.extract_strided_slice %343 {offsets = [12], sizes = [1], strides = [1]} : vector<16xf32> to vector<1xf32>
        %1606 = arith.andi %1557, %469 : i1
        %1607 = arith.addi %472, %273 overflow<nsw> : index
        %1608 = arith.select %1606, %1607, %c536870911 : index
        vector.store %1605, %377[%1608] : memref<?xf32, #amdgpu.address_space<fat_raw_buffer>>, vector<1xf32>
        %1609 = vector.extract_strided_slice %343 {offsets = [13], sizes = [1], strides = [1]} : vector<16xf32> to vector<1xf32>
        %1610 = arith.andi %1557, %477 : i1
        %1611 = arith.addi %480, %273 overflow<nsw> : index
        %1612 = arith.select %1610, %1611, %c536870911 : index
        vector.store %1609, %377[%1612] : memref<?xf32, #amdgpu.address_space<fat_raw_buffer>>, vector<1xf32>
        %1613 = vector.extract_strided_slice %343 {offsets = [14], sizes = [1], strides = [1]} : vector<16xf32> to vector<1xf32>
        %1614 = arith.andi %1557, %485 : i1
        %1615 = arith.addi %488, %273 overflow<nsw> : index
        %1616 = arith.select %1614, %1615, %c536870911 : index
        vector.store %1613, %377[%1616] : memref<?xf32, #amdgpu.address_space<fat_raw_buffer>>, vector<1xf32>
        %1617 = vector.extract_strided_slice %343 {offsets = [15], sizes = [1], strides = [1]} : vector<16xf32> to vector<1xf32>
        %1618 = arith.andi %1557, %493 : i1
        %1619 = arith.addi %496, %273 overflow<nsw> : index
        %1620 = arith.select %1618, %1619, %c536870911 : index
        vector.store %1617, %377[%1620] : memref<?xf32, #amdgpu.address_space<fat_raw_buffer>>, vector<1xf32>
        %1621 = vector.extract_strided_slice %345 {offsets = [0], sizes = [1], strides = [1]} : vector<16xf32> to vector<1xf32>
        %1622 = affine.apply #map103()[%thread_id_x, %block_id_y, %block_id_x, %2, %thread_id_y]
        %1623 = arith.cmpi slt, %1622, %359 : index
        %1624 = arith.andi %1623, %367 : i1
        %1625 = arith.addi %373, %278 overflow<nsw> : index
        %1626 = arith.select %1624, %1625, %c536870911 : index
        vector.store %1621, %377[%1626] : memref<?xf32, #amdgpu.address_space<fat_raw_buffer>>, vector<1xf32>
        %1627 = vector.extract_strided_slice %345 {offsets = [1], sizes = [1], strides = [1]} : vector<16xf32> to vector<1xf32>
        %1628 = arith.andi %1623, %381 : i1
        %1629 = arith.addi %384, %278 overflow<nsw> : index
        %1630 = arith.select %1628, %1629, %c536870911 : index
        vector.store %1627, %377[%1630] : memref<?xf32, #amdgpu.address_space<fat_raw_buffer>>, vector<1xf32>
        %1631 = vector.extract_strided_slice %345 {offsets = [2], sizes = [1], strides = [1]} : vector<16xf32> to vector<1xf32>
        %1632 = arith.andi %1623, %389 : i1
        %1633 = arith.addi %392, %278 overflow<nsw> : index
        %1634 = arith.select %1632, %1633, %c536870911 : index
        vector.store %1631, %377[%1634] : memref<?xf32, #amdgpu.address_space<fat_raw_buffer>>, vector<1xf32>
        %1635 = vector.extract_strided_slice %345 {offsets = [3], sizes = [1], strides = [1]} : vector<16xf32> to vector<1xf32>
        %1636 = arith.andi %1623, %397 : i1
        %1637 = arith.addi %400, %278 overflow<nsw> : index
        %1638 = arith.select %1636, %1637, %c536870911 : index
        vector.store %1635, %377[%1638] : memref<?xf32, #amdgpu.address_space<fat_raw_buffer>>, vector<1xf32>
        %1639 = vector.extract_strided_slice %345 {offsets = [4], sizes = [1], strides = [1]} : vector<16xf32> to vector<1xf32>
        %1640 = arith.andi %1623, %405 : i1
        %1641 = arith.addi %408, %278 overflow<nsw> : index
        %1642 = arith.select %1640, %1641, %c536870911 : index
        vector.store %1639, %377[%1642] : memref<?xf32, #amdgpu.address_space<fat_raw_buffer>>, vector<1xf32>
        %1643 = vector.extract_strided_slice %345 {offsets = [5], sizes = [1], strides = [1]} : vector<16xf32> to vector<1xf32>
        %1644 = arith.andi %1623, %413 : i1
        %1645 = arith.addi %416, %278 overflow<nsw> : index
        %1646 = arith.select %1644, %1645, %c536870911 : index
        vector.store %1643, %377[%1646] : memref<?xf32, #amdgpu.address_space<fat_raw_buffer>>, vector<1xf32>
        %1647 = vector.extract_strided_slice %345 {offsets = [6], sizes = [1], strides = [1]} : vector<16xf32> to vector<1xf32>
        %1648 = arith.andi %1623, %421 : i1
        %1649 = arith.addi %424, %278 overflow<nsw> : index
        %1650 = arith.select %1648, %1649, %c536870911 : index
        vector.store %1647, %377[%1650] : memref<?xf32, #amdgpu.address_space<fat_raw_buffer>>, vector<1xf32>
        %1651 = vector.extract_strided_slice %345 {offsets = [7], sizes = [1], strides = [1]} : vector<16xf32> to vector<1xf32>
        %1652 = arith.andi %1623, %429 : i1
        %1653 = arith.addi %432, %278 overflow<nsw> : index
        %1654 = arith.select %1652, %1653, %c536870911 : index
        vector.store %1651, %377[%1654] : memref<?xf32, #amdgpu.address_space<fat_raw_buffer>>, vector<1xf32>
        %1655 = vector.extract_strided_slice %345 {offsets = [8], sizes = [1], strides = [1]} : vector<16xf32> to vector<1xf32>
        %1656 = arith.andi %1623, %437 : i1
        %1657 = arith.addi %440, %278 overflow<nsw> : index
        %1658 = arith.select %1656, %1657, %c536870911 : index
        vector.store %1655, %377[%1658] : memref<?xf32, #amdgpu.address_space<fat_raw_buffer>>, vector<1xf32>
        %1659 = vector.extract_strided_slice %345 {offsets = [9], sizes = [1], strides = [1]} : vector<16xf32> to vector<1xf32>
        %1660 = arith.andi %1623, %445 : i1
        %1661 = arith.addi %448, %278 overflow<nsw> : index
        %1662 = arith.select %1660, %1661, %c536870911 : index
        vector.store %1659, %377[%1662] : memref<?xf32, #amdgpu.address_space<fat_raw_buffer>>, vector<1xf32>
        %1663 = vector.extract_strided_slice %345 {offsets = [10], sizes = [1], strides = [1]} : vector<16xf32> to vector<1xf32>
        %1664 = arith.andi %1623, %453 : i1
        %1665 = arith.addi %456, %278 overflow<nsw> : index
        %1666 = arith.select %1664, %1665, %c536870911 : index
        vector.store %1663, %377[%1666] : memref<?xf32, #amdgpu.address_space<fat_raw_buffer>>, vector<1xf32>
        %1667 = vector.extract_strided_slice %345 {offsets = [11], sizes = [1], strides = [1]} : vector<16xf32> to vector<1xf32>
        %1668 = arith.andi %1623, %461 : i1
        %1669 = arith.addi %464, %278 overflow<nsw> : index
        %1670 = arith.select %1668, %1669, %c536870911 : index
        vector.store %1667, %377[%1670] : memref<?xf32, #amdgpu.address_space<fat_raw_buffer>>, vector<1xf32>
        %1671 = vector.extract_strided_slice %345 {offsets = [12], sizes = [1], strides = [1]} : vector<16xf32> to vector<1xf32>
        %1672 = arith.andi %1623, %469 : i1
        %1673 = arith.addi %472, %278 overflow<nsw> : index
        %1674 = arith.select %1672, %1673, %c536870911 : index
        vector.store %1671, %377[%1674] : memref<?xf32, #amdgpu.address_space<fat_raw_buffer>>, vector<1xf32>
        %1675 = vector.extract_strided_slice %345 {offsets = [13], sizes = [1], strides = [1]} : vector<16xf32> to vector<1xf32>
        %1676 = arith.andi %1623, %477 : i1
        %1677 = arith.addi %480, %278 overflow<nsw> : index
        %1678 = arith.select %1676, %1677, %c536870911 : index
        vector.store %1675, %377[%1678] : memref<?xf32, #amdgpu.address_space<fat_raw_buffer>>, vector<1xf32>
        %1679 = vector.extract_strided_slice %345 {offsets = [14], sizes = [1], strides = [1]} : vector<16xf32> to vector<1xf32>
        %1680 = arith.andi %1623, %485 : i1
        %1681 = arith.addi %488, %278 overflow<nsw> : index
        %1682 = arith.select %1680, %1681, %c536870911 : index
        vector.store %1679, %377[%1682] : memref<?xf32, #amdgpu.address_space<fat_raw_buffer>>, vector<1xf32>
        %1683 = vector.extract_strided_slice %345 {offsets = [15], sizes = [1], strides = [1]} : vector<16xf32> to vector<1xf32>
        %1684 = arith.andi %1623, %493 : i1
        %1685 = arith.addi %496, %278 overflow<nsw> : index
        %1686 = arith.select %1684, %1685, %c536870911 : index
        vector.store %1683, %377[%1686] : memref<?xf32, #amdgpu.address_space<fat_raw_buffer>>, vector<1xf32>
        %1687 = vector.extract_strided_slice %347 {offsets = [0], sizes = [1], strides = [1]} : vector<16xf32> to vector<1xf32>
        %1688 = affine.apply #map104()[%thread_id_x, %block_id_y, %block_id_x, %2, %thread_id_y]
        %1689 = arith.cmpi slt, %1688, %359 : index
        %1690 = arith.andi %1689, %367 : i1
        %1691 = arith.addi %373, %283 overflow<nsw> : index
        %1692 = arith.select %1690, %1691, %c536870911 : index
        vector.store %1687, %377[%1692] : memref<?xf32, #amdgpu.address_space<fat_raw_buffer>>, vector<1xf32>
        %1693 = vector.extract_strided_slice %347 {offsets = [1], sizes = [1], strides = [1]} : vector<16xf32> to vector<1xf32>
        %1694 = arith.andi %1689, %381 : i1
        %1695 = arith.addi %384, %283 overflow<nsw> : index
        %1696 = arith.select %1694, %1695, %c536870911 : index
        vector.store %1693, %377[%1696] : memref<?xf32, #amdgpu.address_space<fat_raw_buffer>>, vector<1xf32>
        %1697 = vector.extract_strided_slice %347 {offsets = [2], sizes = [1], strides = [1]} : vector<16xf32> to vector<1xf32>
        %1698 = arith.andi %1689, %389 : i1
        %1699 = arith.addi %392, %283 overflow<nsw> : index
        %1700 = arith.select %1698, %1699, %c536870911 : index
        vector.store %1697, %377[%1700] : memref<?xf32, #amdgpu.address_space<fat_raw_buffer>>, vector<1xf32>
        %1701 = vector.extract_strided_slice %347 {offsets = [3], sizes = [1], strides = [1]} : vector<16xf32> to vector<1xf32>
        %1702 = arith.andi %1689, %397 : i1
        %1703 = arith.addi %400, %283 overflow<nsw> : index
        %1704 = arith.select %1702, %1703, %c536870911 : index
        vector.store %1701, %377[%1704] : memref<?xf32, #amdgpu.address_space<fat_raw_buffer>>, vector<1xf32>
        %1705 = vector.extract_strided_slice %347 {offsets = [4], sizes = [1], strides = [1]} : vector<16xf32> to vector<1xf32>
        %1706 = arith.andi %1689, %405 : i1
        %1707 = arith.addi %408, %283 overflow<nsw> : index
        %1708 = arith.select %1706, %1707, %c536870911 : index
        vector.store %1705, %377[%1708] : memref<?xf32, #amdgpu.address_space<fat_raw_buffer>>, vector<1xf32>
        %1709 = vector.extract_strided_slice %347 {offsets = [5], sizes = [1], strides = [1]} : vector<16xf32> to vector<1xf32>
        %1710 = arith.andi %1689, %413 : i1
        %1711 = arith.addi %416, %283 overflow<nsw> : index
        %1712 = arith.select %1710, %1711, %c536870911 : index
        vector.store %1709, %377[%1712] : memref<?xf32, #amdgpu.address_space<fat_raw_buffer>>, vector<1xf32>
        %1713 = vector.extract_strided_slice %347 {offsets = [6], sizes = [1], strides = [1]} : vector<16xf32> to vector<1xf32>
        %1714 = arith.andi %1689, %421 : i1
        %1715 = arith.addi %424, %283 overflow<nsw> : index
        %1716 = arith.select %1714, %1715, %c536870911 : index
        vector.store %1713, %377[%1716] : memref<?xf32, #amdgpu.address_space<fat_raw_buffer>>, vector<1xf32>
        %1717 = vector.extract_strided_slice %347 {offsets = [7], sizes = [1], strides = [1]} : vector<16xf32> to vector<1xf32>
        %1718 = arith.andi %1689, %429 : i1
        %1719 = arith.addi %432, %283 overflow<nsw> : index
        %1720 = arith.select %1718, %1719, %c536870911 : index
        vector.store %1717, %377[%1720] : memref<?xf32, #amdgpu.address_space<fat_raw_buffer>>, vector<1xf32>
        %1721 = vector.extract_strided_slice %347 {offsets = [8], sizes = [1], strides = [1]} : vector<16xf32> to vector<1xf32>
        %1722 = arith.andi %1689, %437 : i1
        %1723 = arith.addi %440, %283 overflow<nsw> : index
        %1724 = arith.select %1722, %1723, %c536870911 : index
        vector.store %1721, %377[%1724] : memref<?xf32, #amdgpu.address_space<fat_raw_buffer>>, vector<1xf32>
        %1725 = vector.extract_strided_slice %347 {offsets = [9], sizes = [1], strides = [1]} : vector<16xf32> to vector<1xf32>
        %1726 = arith.andi %1689, %445 : i1
        %1727 = arith.addi %448, %283 overflow<nsw> : index
        %1728 = arith.select %1726, %1727, %c536870911 : index
        vector.store %1725, %377[%1728] : memref<?xf32, #amdgpu.address_space<fat_raw_buffer>>, vector<1xf32>
        %1729 = vector.extract_strided_slice %347 {offsets = [10], sizes = [1], strides = [1]} : vector<16xf32> to vector<1xf32>
        %1730 = arith.andi %1689, %453 : i1
        %1731 = arith.addi %456, %283 overflow<nsw> : index
        %1732 = arith.select %1730, %1731, %c536870911 : index
        vector.store %1729, %377[%1732] : memref<?xf32, #amdgpu.address_space<fat_raw_buffer>>, vector<1xf32>
        %1733 = vector.extract_strided_slice %347 {offsets = [11], sizes = [1], strides = [1]} : vector<16xf32> to vector<1xf32>
        %1734 = arith.andi %1689, %461 : i1
        %1735 = arith.addi %464, %283 overflow<nsw> : index
        %1736 = arith.select %1734, %1735, %c536870911 : index
        vector.store %1733, %377[%1736] : memref<?xf32, #amdgpu.address_space<fat_raw_buffer>>, vector<1xf32>
        %1737 = vector.extract_strided_slice %347 {offsets = [12], sizes = [1], strides = [1]} : vector<16xf32> to vector<1xf32>
        %1738 = arith.andi %1689, %469 : i1
        %1739 = arith.addi %472, %283 overflow<nsw> : index
        %1740 = arith.select %1738, %1739, %c536870911 : index
        vector.store %1737, %377[%1740] : memref<?xf32, #amdgpu.address_space<fat_raw_buffer>>, vector<1xf32>
        %1741 = vector.extract_strided_slice %347 {offsets = [13], sizes = [1], strides = [1]} : vector<16xf32> to vector<1xf32>
        %1742 = arith.andi %1689, %477 : i1
        %1743 = arith.addi %480, %283 overflow<nsw> : index
        %1744 = arith.select %1742, %1743, %c536870911 : index
        vector.store %1741, %377[%1744] : memref<?xf32, #amdgpu.address_space<fat_raw_buffer>>, vector<1xf32>
        %1745 = vector.extract_strided_slice %347 {offsets = [14], sizes = [1], strides = [1]} : vector<16xf32> to vector<1xf32>
        %1746 = arith.andi %1689, %485 : i1
        %1747 = arith.addi %488, %283 overflow<nsw> : index
        %1748 = arith.select %1746, %1747, %c536870911 : index
        vector.store %1745, %377[%1748] : memref<?xf32, #amdgpu.address_space<fat_raw_buffer>>, vector<1xf32>
        %1749 = vector.extract_strided_slice %347 {offsets = [15], sizes = [1], strides = [1]} : vector<16xf32> to vector<1xf32>
        %1750 = arith.andi %1689, %493 : i1
        %1751 = arith.addi %496, %283 overflow<nsw> : index
        %1752 = arith.select %1750, %1751, %c536870911 : index
        vector.store %1749, %377[%1752] : memref<?xf32, #amdgpu.address_space<fat_raw_buffer>>, vector<1xf32>
        %1753 = vector.extract_strided_slice %349 {offsets = [0], sizes = [1], strides = [1]} : vector<16xf32> to vector<1xf32>
        %1754 = affine.apply #map105()[%thread_id_x, %block_id_y, %block_id_x, %2, %thread_id_y]
        %1755 = arith.cmpi slt, %1754, %359 : index
        %1756 = arith.andi %1755, %367 : i1
        %1757 = arith.addi %373, %288 overflow<nsw> : index
        %1758 = arith.select %1756, %1757, %c536870911 : index
        vector.store %1753, %377[%1758] : memref<?xf32, #amdgpu.address_space<fat_raw_buffer>>, vector<1xf32>
        %1759 = vector.extract_strided_slice %349 {offsets = [1], sizes = [1], strides = [1]} : vector<16xf32> to vector<1xf32>
        %1760 = arith.andi %1755, %381 : i1
        %1761 = arith.addi %384, %288 overflow<nsw> : index
        %1762 = arith.select %1760, %1761, %c536870911 : index
        vector.store %1759, %377[%1762] : memref<?xf32, #amdgpu.address_space<fat_raw_buffer>>, vector<1xf32>
        %1763 = vector.extract_strided_slice %349 {offsets = [2], sizes = [1], strides = [1]} : vector<16xf32> to vector<1xf32>
        %1764 = arith.andi %1755, %389 : i1
        %1765 = arith.addi %392, %288 overflow<nsw> : index
        %1766 = arith.select %1764, %1765, %c536870911 : index
        vector.store %1763, %377[%1766] : memref<?xf32, #amdgpu.address_space<fat_raw_buffer>>, vector<1xf32>
        %1767 = vector.extract_strided_slice %349 {offsets = [3], sizes = [1], strides = [1]} : vector<16xf32> to vector<1xf32>
        %1768 = arith.andi %1755, %397 : i1
        %1769 = arith.addi %400, %288 overflow<nsw> : index
        %1770 = arith.select %1768, %1769, %c536870911 : index
        vector.store %1767, %377[%1770] : memref<?xf32, #amdgpu.address_space<fat_raw_buffer>>, vector<1xf32>
        %1771 = vector.extract_strided_slice %349 {offsets = [4], sizes = [1], strides = [1]} : vector<16xf32> to vector<1xf32>
        %1772 = arith.andi %1755, %405 : i1
        %1773 = arith.addi %408, %288 overflow<nsw> : index
        %1774 = arith.select %1772, %1773, %c536870911 : index
        vector.store %1771, %377[%1774] : memref<?xf32, #amdgpu.address_space<fat_raw_buffer>>, vector<1xf32>
        %1775 = vector.extract_strided_slice %349 {offsets = [5], sizes = [1], strides = [1]} : vector<16xf32> to vector<1xf32>
        %1776 = arith.andi %1755, %413 : i1
        %1777 = arith.addi %416, %288 overflow<nsw> : index
        %1778 = arith.select %1776, %1777, %c536870911 : index
        vector.store %1775, %377[%1778] : memref<?xf32, #amdgpu.address_space<fat_raw_buffer>>, vector<1xf32>
        %1779 = vector.extract_strided_slice %349 {offsets = [6], sizes = [1], strides = [1]} : vector<16xf32> to vector<1xf32>
        %1780 = arith.andi %1755, %421 : i1
        %1781 = arith.addi %424, %288 overflow<nsw> : index
        %1782 = arith.select %1780, %1781, %c536870911 : index
        vector.store %1779, %377[%1782] : memref<?xf32, #amdgpu.address_space<fat_raw_buffer>>, vector<1xf32>
        %1783 = vector.extract_strided_slice %349 {offsets = [7], sizes = [1], strides = [1]} : vector<16xf32> to vector<1xf32>
        %1784 = arith.andi %1755, %429 : i1
        %1785 = arith.addi %432, %288 overflow<nsw> : index
        %1786 = arith.select %1784, %1785, %c536870911 : index
        vector.store %1783, %377[%1786] : memref<?xf32, #amdgpu.address_space<fat_raw_buffer>>, vector<1xf32>
        %1787 = vector.extract_strided_slice %349 {offsets = [8], sizes = [1], strides = [1]} : vector<16xf32> to vector<1xf32>
        %1788 = arith.andi %1755, %437 : i1
        %1789 = arith.addi %440, %288 overflow<nsw> : index
        %1790 = arith.select %1788, %1789, %c536870911 : index
        vector.store %1787, %377[%1790] : memref<?xf32, #amdgpu.address_space<fat_raw_buffer>>, vector<1xf32>
        %1791 = vector.extract_strided_slice %349 {offsets = [9], sizes = [1], strides = [1]} : vector<16xf32> to vector<1xf32>
        %1792 = arith.andi %1755, %445 : i1
        %1793 = arith.addi %448, %288 overflow<nsw> : index
        %1794 = arith.select %1792, %1793, %c536870911 : index
        vector.store %1791, %377[%1794] : memref<?xf32, #amdgpu.address_space<fat_raw_buffer>>, vector<1xf32>
        %1795 = vector.extract_strided_slice %349 {offsets = [10], sizes = [1], strides = [1]} : vector<16xf32> to vector<1xf32>
        %1796 = arith.andi %1755, %453 : i1
        %1797 = arith.addi %456, %288 overflow<nsw> : index
        %1798 = arith.select %1796, %1797, %c536870911 : index
        vector.store %1795, %377[%1798] : memref<?xf32, #amdgpu.address_space<fat_raw_buffer>>, vector<1xf32>
        %1799 = vector.extract_strided_slice %349 {offsets = [11], sizes = [1], strides = [1]} : vector<16xf32> to vector<1xf32>
        %1800 = arith.andi %1755, %461 : i1
        %1801 = arith.addi %464, %288 overflow<nsw> : index
        %1802 = arith.select %1800, %1801, %c536870911 : index
        vector.store %1799, %377[%1802] : memref<?xf32, #amdgpu.address_space<fat_raw_buffer>>, vector<1xf32>
        %1803 = vector.extract_strided_slice %349 {offsets = [12], sizes = [1], strides = [1]} : vector<16xf32> to vector<1xf32>
        %1804 = arith.andi %1755, %469 : i1
        %1805 = arith.addi %472, %288 overflow<nsw> : index
        %1806 = arith.select %1804, %1805, %c536870911 : index
        vector.store %1803, %377[%1806] : memref<?xf32, #amdgpu.address_space<fat_raw_buffer>>, vector<1xf32>
        %1807 = vector.extract_strided_slice %349 {offsets = [13], sizes = [1], strides = [1]} : vector<16xf32> to vector<1xf32>
        %1808 = arith.andi %1755, %477 : i1
        %1809 = arith.addi %480, %288 overflow<nsw> : index
        %1810 = arith.select %1808, %1809, %c536870911 : index
        vector.store %1807, %377[%1810] : memref<?xf32, #amdgpu.address_space<fat_raw_buffer>>, vector<1xf32>
        %1811 = vector.extract_strided_slice %349 {offsets = [14], sizes = [1], strides = [1]} : vector<16xf32> to vector<1xf32>
        %1812 = arith.andi %1755, %485 : i1
        %1813 = arith.addi %488, %288 overflow<nsw> : index
        %1814 = arith.select %1812, %1813, %c536870911 : index
        vector.store %1811, %377[%1814] : memref<?xf32, #amdgpu.address_space<fat_raw_buffer>>, vector<1xf32>
        %1815 = vector.extract_strided_slice %349 {offsets = [15], sizes = [1], strides = [1]} : vector<16xf32> to vector<1xf32>
        %1816 = arith.andi %1755, %493 : i1
        %1817 = arith.addi %496, %288 overflow<nsw> : index
        %1818 = arith.select %1816, %1817, %c536870911 : index
        vector.store %1815, %377[%1818] : memref<?xf32, #amdgpu.address_space<fat_raw_buffer>>, vector<1xf32>
        %1819 = vector.extract_strided_slice %351 {offsets = [0], sizes = [1], strides = [1]} : vector<16xf32> to vector<1xf32>
        %1820 = affine.apply #map106()[%thread_id_x, %block_id_y, %block_id_x, %2, %thread_id_y]
        %1821 = arith.cmpi slt, %1820, %359 : index
        %1822 = arith.andi %1821, %367 : i1
        %1823 = arith.addi %373, %293 overflow<nsw> : index
        %1824 = arith.select %1822, %1823, %c536870911 : index
        vector.store %1819, %377[%1824] : memref<?xf32, #amdgpu.address_space<fat_raw_buffer>>, vector<1xf32>
        %1825 = vector.extract_strided_slice %351 {offsets = [1], sizes = [1], strides = [1]} : vector<16xf32> to vector<1xf32>
        %1826 = arith.andi %1821, %381 : i1
        %1827 = arith.addi %384, %293 overflow<nsw> : index
        %1828 = arith.select %1826, %1827, %c536870911 : index
        vector.store %1825, %377[%1828] : memref<?xf32, #amdgpu.address_space<fat_raw_buffer>>, vector<1xf32>
        %1829 = vector.extract_strided_slice %351 {offsets = [2], sizes = [1], strides = [1]} : vector<16xf32> to vector<1xf32>
        %1830 = arith.andi %1821, %389 : i1
        %1831 = arith.addi %392, %293 overflow<nsw> : index
        %1832 = arith.select %1830, %1831, %c536870911 : index
        vector.store %1829, %377[%1832] : memref<?xf32, #amdgpu.address_space<fat_raw_buffer>>, vector<1xf32>
        %1833 = vector.extract_strided_slice %351 {offsets = [3], sizes = [1], strides = [1]} : vector<16xf32> to vector<1xf32>
        %1834 = arith.andi %1821, %397 : i1
        %1835 = arith.addi %400, %293 overflow<nsw> : index
        %1836 = arith.select %1834, %1835, %c536870911 : index
        vector.store %1833, %377[%1836] : memref<?xf32, #amdgpu.address_space<fat_raw_buffer>>, vector<1xf32>
        %1837 = vector.extract_strided_slice %351 {offsets = [4], sizes = [1], strides = [1]} : vector<16xf32> to vector<1xf32>
        %1838 = arith.andi %1821, %405 : i1
        %1839 = arith.addi %408, %293 overflow<nsw> : index
        %1840 = arith.select %1838, %1839, %c536870911 : index
        vector.store %1837, %377[%1840] : memref<?xf32, #amdgpu.address_space<fat_raw_buffer>>, vector<1xf32>
        %1841 = vector.extract_strided_slice %351 {offsets = [5], sizes = [1], strides = [1]} : vector<16xf32> to vector<1xf32>
        %1842 = arith.andi %1821, %413 : i1
        %1843 = arith.addi %416, %293 overflow<nsw> : index
        %1844 = arith.select %1842, %1843, %c536870911 : index
        vector.store %1841, %377[%1844] : memref<?xf32, #amdgpu.address_space<fat_raw_buffer>>, vector<1xf32>
        %1845 = vector.extract_strided_slice %351 {offsets = [6], sizes = [1], strides = [1]} : vector<16xf32> to vector<1xf32>
        %1846 = arith.andi %1821, %421 : i1
        %1847 = arith.addi %424, %293 overflow<nsw> : index
        %1848 = arith.select %1846, %1847, %c536870911 : index
        vector.store %1845, %377[%1848] : memref<?xf32, #amdgpu.address_space<fat_raw_buffer>>, vector<1xf32>
        %1849 = vector.extract_strided_slice %351 {offsets = [7], sizes = [1], strides = [1]} : vector<16xf32> to vector<1xf32>
        %1850 = arith.andi %1821, %429 : i1
        %1851 = arith.addi %432, %293 overflow<nsw> : index
        %1852 = arith.select %1850, %1851, %c536870911 : index
        vector.store %1849, %377[%1852] : memref<?xf32, #amdgpu.address_space<fat_raw_buffer>>, vector<1xf32>
        %1853 = vector.extract_strided_slice %351 {offsets = [8], sizes = [1], strides = [1]} : vector<16xf32> to vector<1xf32>
        %1854 = arith.andi %1821, %437 : i1
        %1855 = arith.addi %440, %293 overflow<nsw> : index
        %1856 = arith.select %1854, %1855, %c536870911 : index
        vector.store %1853, %377[%1856] : memref<?xf32, #amdgpu.address_space<fat_raw_buffer>>, vector<1xf32>
        %1857 = vector.extract_strided_slice %351 {offsets = [9], sizes = [1], strides = [1]} : vector<16xf32> to vector<1xf32>
        %1858 = arith.andi %1821, %445 : i1
        %1859 = arith.addi %448, %293 overflow<nsw> : index
        %1860 = arith.select %1858, %1859, %c536870911 : index
        vector.store %1857, %377[%1860] : memref<?xf32, #amdgpu.address_space<fat_raw_buffer>>, vector<1xf32>
        %1861 = vector.extract_strided_slice %351 {offsets = [10], sizes = [1], strides = [1]} : vector<16xf32> to vector<1xf32>
        %1862 = arith.andi %1821, %453 : i1
        %1863 = arith.addi %456, %293 overflow<nsw> : index
        %1864 = arith.select %1862, %1863, %c536870911 : index
        vector.store %1861, %377[%1864] : memref<?xf32, #amdgpu.address_space<fat_raw_buffer>>, vector<1xf32>
        %1865 = vector.extract_strided_slice %351 {offsets = [11], sizes = [1], strides = [1]} : vector<16xf32> to vector<1xf32>
        %1866 = arith.andi %1821, %461 : i1
        %1867 = arith.addi %464, %293 overflow<nsw> : index
        %1868 = arith.select %1866, %1867, %c536870911 : index
        vector.store %1865, %377[%1868] : memref<?xf32, #amdgpu.address_space<fat_raw_buffer>>, vector<1xf32>
        %1869 = vector.extract_strided_slice %351 {offsets = [12], sizes = [1], strides = [1]} : vector<16xf32> to vector<1xf32>
        %1870 = arith.andi %1821, %469 : i1
        %1871 = arith.addi %472, %293 overflow<nsw> : index
        %1872 = arith.select %1870, %1871, %c536870911 : index
        vector.store %1869, %377[%1872] : memref<?xf32, #amdgpu.address_space<fat_raw_buffer>>, vector<1xf32>
        %1873 = vector.extract_strided_slice %351 {offsets = [13], sizes = [1], strides = [1]} : vector<16xf32> to vector<1xf32>
        %1874 = arith.andi %1821, %477 : i1
        %1875 = arith.addi %480, %293 overflow<nsw> : index
        %1876 = arith.select %1874, %1875, %c536870911 : index
        vector.store %1873, %377[%1876] : memref<?xf32, #amdgpu.address_space<fat_raw_buffer>>, vector<1xf32>
        %1877 = vector.extract_strided_slice %351 {offsets = [14], sizes = [1], strides = [1]} : vector<16xf32> to vector<1xf32>
        %1878 = arith.andi %1821, %485 : i1
        %1879 = arith.addi %488, %293 overflow<nsw> : index
        %1880 = arith.select %1878, %1879, %c536870911 : index
        vector.store %1877, %377[%1880] : memref<?xf32, #amdgpu.address_space<fat_raw_buffer>>, vector<1xf32>
        %1881 = vector.extract_strided_slice %351 {offsets = [15], sizes = [1], strides = [1]} : vector<16xf32> to vector<1xf32>
        %1882 = arith.andi %1821, %493 : i1
        %1883 = arith.addi %496, %293 overflow<nsw> : index
        %1884 = arith.select %1882, %1883, %c536870911 : index
        vector.store %1881, %377[%1884] : memref<?xf32, #amdgpu.address_space<fat_raw_buffer>>, vector<1xf32>
        %1885 = vector.extract_strided_slice %353 {offsets = [0], sizes = [1], strides = [1]} : vector<16xf32> to vector<1xf32>
        %1886 = affine.apply #map107()[%thread_id_x, %block_id_y, %block_id_x, %2, %thread_id_y]
        %1887 = arith.cmpi slt, %1886, %359 : index
        %1888 = arith.andi %1887, %367 : i1
        %1889 = arith.addi %373, %298 overflow<nsw> : index
        %1890 = arith.select %1888, %1889, %c536870911 : index
        vector.store %1885, %377[%1890] : memref<?xf32, #amdgpu.address_space<fat_raw_buffer>>, vector<1xf32>
        %1891 = vector.extract_strided_slice %353 {offsets = [1], sizes = [1], strides = [1]} : vector<16xf32> to vector<1xf32>
        %1892 = arith.andi %1887, %381 : i1
        %1893 = arith.addi %384, %298 overflow<nsw> : index
        %1894 = arith.select %1892, %1893, %c536870911 : index
        vector.store %1891, %377[%1894] : memref<?xf32, #amdgpu.address_space<fat_raw_buffer>>, vector<1xf32>
        %1895 = vector.extract_strided_slice %353 {offsets = [2], sizes = [1], strides = [1]} : vector<16xf32> to vector<1xf32>
        %1896 = arith.andi %1887, %389 : i1
        %1897 = arith.addi %392, %298 overflow<nsw> : index
        %1898 = arith.select %1896, %1897, %c536870911 : index
        vector.store %1895, %377[%1898] : memref<?xf32, #amdgpu.address_space<fat_raw_buffer>>, vector<1xf32>
        %1899 = vector.extract_strided_slice %353 {offsets = [3], sizes = [1], strides = [1]} : vector<16xf32> to vector<1xf32>
        %1900 = arith.andi %1887, %397 : i1
        %1901 = arith.addi %400, %298 overflow<nsw> : index
        %1902 = arith.select %1900, %1901, %c536870911 : index
        vector.store %1899, %377[%1902] : memref<?xf32, #amdgpu.address_space<fat_raw_buffer>>, vector<1xf32>
        %1903 = vector.extract_strided_slice %353 {offsets = [4], sizes = [1], strides = [1]} : vector<16xf32> to vector<1xf32>
        %1904 = arith.andi %1887, %405 : i1
        %1905 = arith.addi %408, %298 overflow<nsw> : index
        %1906 = arith.select %1904, %1905, %c536870911 : index
        vector.store %1903, %377[%1906] : memref<?xf32, #amdgpu.address_space<fat_raw_buffer>>, vector<1xf32>
        %1907 = vector.extract_strided_slice %353 {offsets = [5], sizes = [1], strides = [1]} : vector<16xf32> to vector<1xf32>
        %1908 = arith.andi %1887, %413 : i1
        %1909 = arith.addi %416, %298 overflow<nsw> : index
        %1910 = arith.select %1908, %1909, %c536870911 : index
        vector.store %1907, %377[%1910] : memref<?xf32, #amdgpu.address_space<fat_raw_buffer>>, vector<1xf32>
        %1911 = vector.extract_strided_slice %353 {offsets = [6], sizes = [1], strides = [1]} : vector<16xf32> to vector<1xf32>
        %1912 = arith.andi %1887, %421 : i1
        %1913 = arith.addi %424, %298 overflow<nsw> : index
        %1914 = arith.select %1912, %1913, %c536870911 : index
        vector.store %1911, %377[%1914] : memref<?xf32, #amdgpu.address_space<fat_raw_buffer>>, vector<1xf32>
        %1915 = vector.extract_strided_slice %353 {offsets = [7], sizes = [1], strides = [1]} : vector<16xf32> to vector<1xf32>
        %1916 = arith.andi %1887, %429 : i1
        %1917 = arith.addi %432, %298 overflow<nsw> : index
        %1918 = arith.select %1916, %1917, %c536870911 : index
        vector.store %1915, %377[%1918] : memref<?xf32, #amdgpu.address_space<fat_raw_buffer>>, vector<1xf32>
        %1919 = vector.extract_strided_slice %353 {offsets = [8], sizes = [1], strides = [1]} : vector<16xf32> to vector<1xf32>
        %1920 = arith.andi %1887, %437 : i1
        %1921 = arith.addi %440, %298 overflow<nsw> : index
        %1922 = arith.select %1920, %1921, %c536870911 : index
        vector.store %1919, %377[%1922] : memref<?xf32, #amdgpu.address_space<fat_raw_buffer>>, vector<1xf32>
        %1923 = vector.extract_strided_slice %353 {offsets = [9], sizes = [1], strides = [1]} : vector<16xf32> to vector<1xf32>
        %1924 = arith.andi %1887, %445 : i1
        %1925 = arith.addi %448, %298 overflow<nsw> : index
        %1926 = arith.select %1924, %1925, %c536870911 : index
        vector.store %1923, %377[%1926] : memref<?xf32, #amdgpu.address_space<fat_raw_buffer>>, vector<1xf32>
        %1927 = vector.extract_strided_slice %353 {offsets = [10], sizes = [1], strides = [1]} : vector<16xf32> to vector<1xf32>
        %1928 = arith.andi %1887, %453 : i1
        %1929 = arith.addi %456, %298 overflow<nsw> : index
        %1930 = arith.select %1928, %1929, %c536870911 : index
        vector.store %1927, %377[%1930] : memref<?xf32, #amdgpu.address_space<fat_raw_buffer>>, vector<1xf32>
        %1931 = vector.extract_strided_slice %353 {offsets = [11], sizes = [1], strides = [1]} : vector<16xf32> to vector<1xf32>
        %1932 = arith.andi %1887, %461 : i1
        %1933 = arith.addi %464, %298 overflow<nsw> : index
        %1934 = arith.select %1932, %1933, %c536870911 : index
        vector.store %1931, %377[%1934] : memref<?xf32, #amdgpu.address_space<fat_raw_buffer>>, vector<1xf32>
        %1935 = vector.extract_strided_slice %353 {offsets = [12], sizes = [1], strides = [1]} : vector<16xf32> to vector<1xf32>
        %1936 = arith.andi %1887, %469 : i1
        %1937 = arith.addi %472, %298 overflow<nsw> : index
        %1938 = arith.select %1936, %1937, %c536870911 : index
        vector.store %1935, %377[%1938] : memref<?xf32, #amdgpu.address_space<fat_raw_buffer>>, vector<1xf32>
        %1939 = vector.extract_strided_slice %353 {offsets = [13], sizes = [1], strides = [1]} : vector<16xf32> to vector<1xf32>
        %1940 = arith.andi %1887, %477 : i1
        %1941 = arith.addi %480, %298 overflow<nsw> : index
        %1942 = arith.select %1940, %1941, %c536870911 : index
        vector.store %1939, %377[%1942] : memref<?xf32, #amdgpu.address_space<fat_raw_buffer>>, vector<1xf32>
        %1943 = vector.extract_strided_slice %353 {offsets = [14], sizes = [1], strides = [1]} : vector<16xf32> to vector<1xf32>
        %1944 = arith.andi %1887, %485 : i1
        %1945 = arith.addi %488, %298 overflow<nsw> : index
        %1946 = arith.select %1944, %1945, %c536870911 : index
        vector.store %1943, %377[%1946] : memref<?xf32, #amdgpu.address_space<fat_raw_buffer>>, vector<1xf32>
        %1947 = vector.extract_strided_slice %353 {offsets = [15], sizes = [1], strides = [1]} : vector<16xf32> to vector<1xf32>
        %1948 = arith.andi %1887, %493 : i1
        %1949 = arith.addi %496, %298 overflow<nsw> : index
        %1950 = arith.select %1948, %1949, %c536870911 : index
        vector.store %1947, %377[%1950] : memref<?xf32, #amdgpu.address_space<fat_raw_buffer>>, vector<1xf32>
        return
      }
    }
  }
  func.func @isolated_benchmark(%arg0: tensor<641x4096xf16>, %arg1: tensor<2880x4096xf16>, %arg2: tensor<641x2880xf32>) -> tensor<641x2880xf32> {
    %0 = flow.dispatch @gemm::@gemm(%arg0, %arg1, %arg2) : (tensor<641x4096xf16>, tensor<2880x4096xf16>, tensor<641x2880xf32>) -> %arg2
    return %0 : tensor<641x2880xf32>
  }
}
