#map = affine_map<()[s0, s1] -> ((s0 * 2 + s1) mod 8)>
#map1 = affine_map<()[s0, s1, s2, s3, s4] -> ((s1 * 128 + s0 floordiv 2) mod 704 + ((s4 + (s2 + s3 * 2) floordiv 8) floordiv 2) * 704)>
#map2 = affine_map<()[s0] -> (s0 * 8 - (s0 floordiv 2) * 16)>
#map3 = affine_map<()[s0, s1, s2, s3, s4] -> (s1 * 128 + s0 floordiv 2 - ((s1 * 128 + s0 floordiv 2 + 256) floordiv 704) * 704 + ((s4 + (s2 + s3 * 2) floordiv 8) floordiv 2) * 704 + 256)>
#map4 = affine_map<()[s0, s1, s2, s3, s4] -> (s1 * 128 + s0 floordiv 2 - ((s1 * 128 + s0 floordiv 2 + 512) floordiv 704) * 704 + ((s4 + (s2 + s3 * 2) floordiv 8) floordiv 2) * 704 + 512)>
#map5 = affine_map<()[s0, s1, s2, s3, s4] -> (s1 * 128 + s4 * 772 + s0 floordiv 2 - ((s1 * 128 + s0 floordiv 2) floordiv 772) * 772 + ((s2 + s3 * 2) floordiv 8) * 772 - ((s4 + (s2 + s3 * 2) floordiv 8) floordiv 2) * 1544)>
#map6 = affine_map<()[s0, s1, s2, s3, s4] -> (s1 * 128 + s4 * 772 + s0 floordiv 2 - ((s1 * 128 + s0 floordiv 2 + 256) floordiv 772) * 772 + ((s2 + s3 * 2) floordiv 8) * 772 - ((s4 + (s2 + s3 * 2) floordiv 8) floordiv 2) * 1544 + 256)>
#map7 = affine_map<()[s0, s1, s2, s3, s4] -> (s1 * 128 + s4 * 772 + s0 floordiv 2 - ((s1 * 128 + s0 floordiv 2 + 512) floordiv 772) * 772 + ((s2 + s3 * 2) floordiv 8) * 772 - ((s4 + (s2 + s3 * 2) floordiv 8) floordiv 2) * 1544 + 512)>
#map8 = affine_map<()[s0, s1, s2, s3, s4] -> (s1 * 128 + s4 * 772 + s0 floordiv 2 - ((s1 * 128 + s0 floordiv 2 + 768) floordiv 772) * 772 + ((s2 + s3 * 2) floordiv 8) * 772 - ((s4 + (s2 + s3 * 2) floordiv 8) floordiv 2) * 1544 + 768)>
#map9 = affine_map<()[s0] -> ((s0 floordiv 64) * 176 + 176)>
#map10 = affine_map<()[s0, s1] -> ((s1 * 128 + s0 floordiv 2) mod 704)>
#map11 = affine_map<()[s0, s1] -> (s1 * 128 + s0 floordiv 2 - ((s1 * 128 + s0 floordiv 2 + 256) floordiv 704) * 704 + 256)>
#map12 = affine_map<()[s0, s1] -> (s1 * 128 + s0 floordiv 2 - ((s1 * 128 + s0 floordiv 2 + 512) floordiv 704) * 704 + 512)>
#map13 = affine_map<()[s0] -> (s0 * 386 + 386)>
#map14 = affine_map<()[s0, s1] -> ((s1 * 128 + s0 floordiv 2) mod 772)>
#map15 = affine_map<()[s0, s1] -> (s1 * 128 + s0 floordiv 2 - ((s1 * 128 + s0 floordiv 2 + 256) floordiv 772) * 772 + 256)>
#map16 = affine_map<()[s0, s1] -> (s1 * 128 + s0 floordiv 2 - ((s1 * 128 + s0 floordiv 2 + 512) floordiv 772) * 772 + 512)>
#map17 = affine_map<()[s0, s1] -> (s1 * 128 + s0 floordiv 2 - ((s1 * 128 + s0 floordiv 2 + 768) floordiv 772) * 772 + 768)>
#map18 = affine_map<()[s0, s1] -> (s0 + s1 * 386 - (s0 floordiv 32) * 32)>
#map19 = affine_map<()[s0] -> (((s0 mod 64) floordiv 32) * 4)>
#map20 = affine_map<()[s0] -> (((s0 mod 64) floordiv 32) * 4 + 8)>
#map21 = affine_map<()[s0, s1] -> (s0 + s1 * 386 - (s0 floordiv 32) * 32 + 32)>
#map22 = affine_map<()[s0, s1] -> (s0 + s1 * 386 - (s0 floordiv 32) * 32 + 64)>
#map23 = affine_map<()[s0, s1] -> (s0 + s1 * 386 - (s0 floordiv 32) * 32 + 96)>
#map24 = affine_map<()[s0, s1] -> (s0 + s1 * 386 - (s0 floordiv 32) * 32 + 128)>
#map25 = affine_map<()[s0, s1] -> (s0 + s1 * 386 - (s0 floordiv 32) * 32 + 160)>
#map26 = affine_map<()[s0, s1] -> (s0 + s1 * 386 - (s0 floordiv 32) * 32 + 192)>
#map27 = affine_map<()[s0, s1] -> (s0 + s1 * 386 - (s0 floordiv 32) * 32 + 224)>
#map28 = affine_map<()[s0, s1] -> (s0 + s1 * 386 - (s0 floordiv 32) * 32 + 256)>
#map29 = affine_map<()[s0, s1] -> (s0 + s1 * 386 - (s0 floordiv 32) * 32 + 288)>
#map30 = affine_map<()[s0, s1] -> (s0 + s1 * 386 - (s0 floordiv 32) * 32 + 320)>
#map31 = affine_map<()[s0, s1] -> (s0 + s1 * 386 - (s0 floordiv 32) * 32 + 352)>
#map32 = affine_map<()[s0, s1] -> (s0 + s1 * 386 - (s0 floordiv 32) * 32 + 384)>
#map33 = affine_map<()[s0] -> (s0 mod 32 + (s0 floordiv 64) * 176)>
#map34 = affine_map<()[s0] -> (s0 mod 32 + (s0 floordiv 64) * 176 + 32)>
#map35 = affine_map<()[s0] -> (s0 mod 32 + (s0 floordiv 64) * 176 + 64)>
#map36 = affine_map<()[s0] -> (s0 mod 32 + (s0 floordiv 64) * 176 + 96)>
#map37 = affine_map<()[s0] -> (s0 mod 32 + (s0 floordiv 64) * 176 + 128)>
#map38 = affine_map<()[s0] -> (s0 mod 32 + (s0 floordiv 64) * 176 + 160)>
#map39 = affine_map<()[s0, s1] -> (s0 * 16 + s1 * 8 - (s1 floordiv 2) * 16 + 16)>
#map40 = affine_map<()[s0, s1] -> (s0 * 772 + s1 * 386 + 386)>
#map41 = affine_map<()[s0] -> (s0 * 772 + 772)>
#map42 = affine_map<()[s0, s1, s2, s3, s4] -> (s0 + s3 * 772 + s4 * 386 - (s0 floordiv 32) * 32 + ((s1 + s2 * 2) floordiv 8) * 772 - ((s3 + (s1 + s2 * 2) floordiv 8) floordiv 2) * 1544)>
#map43 = affine_map<()[s0, s1] -> (s0 * 704 + (s1 floordiv 64) * 176 + 176)>
#map44 = affine_map<()[s0, s1, s2, s3] -> (((s2 + (s0 + s1 * 2) floordiv 8) floordiv 2) * 704 + (s3 floordiv 64) * 176 + ((s3 mod 64) floordiv 32) * 4)>
#map45 = affine_map<()[s0, s1, s2] -> (((s2 + (s0 + s1 * 2) floordiv 8) floordiv 2) * 704)>
#map46 = affine_map<()[s0, s1, s2] -> (s2 * 772 + ((s0 + s1 * 2) floordiv 8) * 772 - ((s2 + (s0 + s1 * 2) floordiv 8) floordiv 2) * 1544)>
#map47 = affine_map<()[s0] -> ((s0 floordiv 64) * 176 + ((s0 mod 64) floordiv 32) * 4)>
#map48 = affine_map<()[s0, s1, s2, s3] -> (((s2 + (s0 + s1 * 2) floordiv 8) floordiv 2) * 704 + (s3 floordiv 64) * 176 + ((s3 mod 64) floordiv 32) * 4 + 1)>
#map49 = affine_map<()[s0] -> ((s0 floordiv 64) * 176 + ((s0 mod 64) floordiv 32) * 4 + 1)>
#map50 = affine_map<()[s0, s1, s2, s3] -> (((s2 + (s0 + s1 * 2) floordiv 8) floordiv 2) * 704 + (s3 floordiv 64) * 176 + ((s3 mod 64) floordiv 32) * 4 + 2)>
#map51 = affine_map<()[s0] -> ((s0 floordiv 64) * 176 + ((s0 mod 64) floordiv 32) * 4 + 2)>
#map52 = affine_map<()[s0, s1, s2, s3] -> (((s2 + (s0 + s1 * 2) floordiv 8) floordiv 2) * 704 + (s3 floordiv 64) * 176 + ((s3 mod 64) floordiv 32) * 4 + 3)>
#map53 = affine_map<()[s0] -> ((s0 floordiv 64) * 176 + ((s0 mod 64) floordiv 32) * 4 + 3)>
#map54 = affine_map<()[s0, s1, s2, s3] -> (((s2 + (s0 + s1 * 2) floordiv 8) floordiv 2) * 704 + (s3 floordiv 64) * 176 + ((s3 mod 64) floordiv 32) * 4 + 8)>
#map55 = affine_map<()[s0] -> ((s0 floordiv 64) * 176 + ((s0 mod 64) floordiv 32) * 4 + 8)>
#map56 = affine_map<()[s0, s1, s2, s3] -> (((s2 + (s0 + s1 * 2) floordiv 8) floordiv 2) * 704 + (s3 floordiv 64) * 176 + ((s3 mod 64) floordiv 32) * 4 + 9)>
#map57 = affine_map<()[s0] -> ((s0 floordiv 64) * 176 + ((s0 mod 64) floordiv 32) * 4 + 9)>
#map58 = affine_map<()[s0, s1, s2, s3] -> (((s2 + (s0 + s1 * 2) floordiv 8) floordiv 2) * 704 + (s3 floordiv 64) * 176 + ((s3 mod 64) floordiv 32) * 4 + 10)>
#map59 = affine_map<()[s0] -> ((s0 floordiv 64) * 176 + ((s0 mod 64) floordiv 32) * 4 + 10)>
#map60 = affine_map<()[s0, s1, s2, s3] -> (((s2 + (s0 + s1 * 2) floordiv 8) floordiv 2) * 704 + (s3 floordiv 64) * 176 + ((s3 mod 64) floordiv 32) * 4 + 11)>
#map61 = affine_map<()[s0] -> ((s0 floordiv 64) * 176 + ((s0 mod 64) floordiv 32) * 4 + 11)>
#map62 = affine_map<()[s0, s1, s2, s3] -> (((s2 + (s0 + s1 * 2) floordiv 8) floordiv 2) * 704 + (s3 floordiv 64) * 176 + ((s3 mod 64) floordiv 32) * 4 + 16)>
#map63 = affine_map<()[s0] -> ((s0 floordiv 64) * 176 + ((s0 mod 64) floordiv 32) * 4 + 16)>
#map64 = affine_map<()[s0, s1, s2, s3] -> (((s2 + (s0 + s1 * 2) floordiv 8) floordiv 2) * 704 + (s3 floordiv 64) * 176 + ((s3 mod 64) floordiv 32) * 4 + 17)>
#map65 = affine_map<()[s0] -> ((s0 floordiv 64) * 176 + ((s0 mod 64) floordiv 32) * 4 + 17)>
#map66 = affine_map<()[s0, s1, s2, s3] -> (((s2 + (s0 + s1 * 2) floordiv 8) floordiv 2) * 704 + (s3 floordiv 64) * 176 + ((s3 mod 64) floordiv 32) * 4 + 18)>
#map67 = affine_map<()[s0] -> ((s0 floordiv 64) * 176 + ((s0 mod 64) floordiv 32) * 4 + 18)>
#map68 = affine_map<()[s0, s1, s2, s3] -> (((s2 + (s0 + s1 * 2) floordiv 8) floordiv 2) * 704 + (s3 floordiv 64) * 176 + ((s3 mod 64) floordiv 32) * 4 + 19)>
#map69 = affine_map<()[s0] -> ((s0 floordiv 64) * 176 + ((s0 mod 64) floordiv 32) * 4 + 19)>
#map70 = affine_map<()[s0, s1, s2, s3] -> (((s2 + (s0 + s1 * 2) floordiv 8) floordiv 2) * 704 + (s3 floordiv 64) * 176 + ((s3 mod 64) floordiv 32) * 4 + 24)>
#map71 = affine_map<()[s0] -> ((s0 floordiv 64) * 176 + ((s0 mod 64) floordiv 32) * 4 + 24)>
#map72 = affine_map<()[s0, s1, s2, s3] -> (((s2 + (s0 + s1 * 2) floordiv 8) floordiv 2) * 704 + (s3 floordiv 64) * 176 + ((s3 mod 64) floordiv 32) * 4 + 25)>
#map73 = affine_map<()[s0] -> ((s0 floordiv 64) * 176 + ((s0 mod 64) floordiv 32) * 4 + 25)>
#map74 = affine_map<()[s0, s1, s2, s3] -> (((s2 + (s0 + s1 * 2) floordiv 8) floordiv 2) * 704 + (s3 floordiv 64) * 176 + ((s3 mod 64) floordiv 32) * 4 + 26)>
#map75 = affine_map<()[s0] -> ((s0 floordiv 64) * 176 + ((s0 mod 64) floordiv 32) * 4 + 26)>
#map76 = affine_map<()[s0, s1, s2, s3] -> (((s2 + (s0 + s1 * 2) floordiv 8) floordiv 2) * 704 + (s3 floordiv 64) * 176 + ((s3 mod 64) floordiv 32) * 4 + 27)>
#map77 = affine_map<()[s0] -> ((s0 floordiv 64) * 176 + ((s0 mod 64) floordiv 32) * 4 + 27)>
#map78 = affine_map<()[s0, s1, s2, s3, s4] -> (s0 + s3 * 772 + s4 * 386 - (s0 floordiv 32) * 32 + ((s1 + s2 * 2) floordiv 8) * 772 - ((s3 + (s1 + s2 * 2) floordiv 8) floordiv 2) * 1544 + 32)>
#map79 = affine_map<()[s0, s1, s2, s3, s4] -> (s0 + s3 * 772 + s4 * 386 - (s0 floordiv 32) * 32 + ((s1 + s2 * 2) floordiv 8) * 772 - ((s3 + (s1 + s2 * 2) floordiv 8) floordiv 2) * 1544 + 64)>
#map80 = affine_map<()[s0, s1, s2, s3, s4] -> (s0 + s3 * 772 + s4 * 386 - (s0 floordiv 32) * 32 + ((s1 + s2 * 2) floordiv 8) * 772 - ((s3 + (s1 + s2 * 2) floordiv 8) floordiv 2) * 1544 + 96)>
#map81 = affine_map<()[s0, s1, s2, s3, s4] -> (s0 + s3 * 772 + s4 * 386 - (s0 floordiv 32) * 32 + ((s1 + s2 * 2) floordiv 8) * 772 - ((s3 + (s1 + s2 * 2) floordiv 8) floordiv 2) * 1544 + 128)>
#map82 = affine_map<()[s0, s1, s2, s3, s4] -> (s0 + s3 * 772 + s4 * 386 - (s0 floordiv 32) * 32 + ((s1 + s2 * 2) floordiv 8) * 772 - ((s3 + (s1 + s2 * 2) floordiv 8) floordiv 2) * 1544 + 160)>
#map83 = affine_map<()[s0, s1, s2, s3, s4] -> (s0 + s3 * 772 + s4 * 386 - (s0 floordiv 32) * 32 + ((s1 + s2 * 2) floordiv 8) * 772 - ((s3 + (s1 + s2 * 2) floordiv 8) floordiv 2) * 1544 + 192)>
#map84 = affine_map<()[s0, s1, s2, s3, s4] -> (s0 + s3 * 772 + s4 * 386 - (s0 floordiv 32) * 32 + ((s1 + s2 * 2) floordiv 8) * 772 - ((s3 + (s1 + s2 * 2) floordiv 8) floordiv 2) * 1544 + 224)>
#map85 = affine_map<()[s0, s1, s2, s3, s4] -> (s0 + s3 * 772 + s4 * 386 - (s0 floordiv 32) * 32 + ((s1 + s2 * 2) floordiv 8) * 772 - ((s3 + (s1 + s2 * 2) floordiv 8) floordiv 2) * 1544 + 256)>
#map86 = affine_map<()[s0, s1, s2, s3, s4] -> (s0 + s3 * 772 + s4 * 386 - (s0 floordiv 32) * 32 + ((s1 + s2 * 2) floordiv 8) * 772 - ((s3 + (s1 + s2 * 2) floordiv 8) floordiv 2) * 1544 + 288)>
#map87 = affine_map<()[s0, s1, s2, s3, s4] -> (s0 + s3 * 772 + s4 * 386 - (s0 floordiv 32) * 32 + ((s1 + s2 * 2) floordiv 8) * 772 - ((s3 + (s1 + s2 * 2) floordiv 8) floordiv 2) * 1544 + 320)>
#map88 = affine_map<()[s0, s1, s2, s3, s4] -> (s0 + s3 * 772 + s4 * 386 - (s0 floordiv 32) * 32 + ((s1 + s2 * 2) floordiv 8) * 772 - ((s3 + (s1 + s2 * 2) floordiv 8) floordiv 2) * 1544 + 352)>
#map89 = affine_map<()[s0, s1, s2, s3, s4] -> (s0 + s3 * 772 + s4 * 386 - (s0 floordiv 32) * 32 + ((s1 + s2 * 2) floordiv 8) * 772 - ((s3 + (s1 + s2 * 2) floordiv 8) floordiv 2) * 1544 + 384)>
#map90 = affine_map<()[s0, s1, s2, s3] -> (((s2 + (s0 + s1 * 2) floordiv 8) floordiv 2) * 704 + (s3 floordiv 64) * 176 + ((s3 mod 64) floordiv 32) * 4 + 32)>
#map91 = affine_map<()[s0] -> ((s0 floordiv 64) * 176 + ((s0 mod 64) floordiv 32) * 4 + 32)>
#map92 = affine_map<()[s0, s1, s2, s3] -> (((s2 + (s0 + s1 * 2) floordiv 8) floordiv 2) * 704 + (s3 floordiv 64) * 176 + ((s3 mod 64) floordiv 32) * 4 + 33)>
#map93 = affine_map<()[s0] -> ((s0 floordiv 64) * 176 + ((s0 mod 64) floordiv 32) * 4 + 33)>
#map94 = affine_map<()[s0, s1, s2, s3] -> (((s2 + (s0 + s1 * 2) floordiv 8) floordiv 2) * 704 + (s3 floordiv 64) * 176 + ((s3 mod 64) floordiv 32) * 4 + 34)>
#map95 = affine_map<()[s0] -> ((s0 floordiv 64) * 176 + ((s0 mod 64) floordiv 32) * 4 + 34)>
#map96 = affine_map<()[s0, s1, s2, s3] -> (((s2 + (s0 + s1 * 2) floordiv 8) floordiv 2) * 704 + (s3 floordiv 64) * 176 + ((s3 mod 64) floordiv 32) * 4 + 35)>
#map97 = affine_map<()[s0] -> ((s0 floordiv 64) * 176 + ((s0 mod 64) floordiv 32) * 4 + 35)>
#map98 = affine_map<()[s0, s1, s2, s3] -> (((s2 + (s0 + s1 * 2) floordiv 8) floordiv 2) * 704 + (s3 floordiv 64) * 176 + ((s3 mod 64) floordiv 32) * 4 + 40)>
#map99 = affine_map<()[s0] -> ((s0 floordiv 64) * 176 + ((s0 mod 64) floordiv 32) * 4 + 40)>
#map100 = affine_map<()[s0, s1, s2, s3] -> (((s2 + (s0 + s1 * 2) floordiv 8) floordiv 2) * 704 + (s3 floordiv 64) * 176 + ((s3 mod 64) floordiv 32) * 4 + 41)>
#map101 = affine_map<()[s0] -> ((s0 floordiv 64) * 176 + ((s0 mod 64) floordiv 32) * 4 + 41)>
#map102 = affine_map<()[s0, s1, s2, s3] -> (((s2 + (s0 + s1 * 2) floordiv 8) floordiv 2) * 704 + (s3 floordiv 64) * 176 + ((s3 mod 64) floordiv 32) * 4 + 42)>
#map103 = affine_map<()[s0] -> ((s0 floordiv 64) * 176 + ((s0 mod 64) floordiv 32) * 4 + 42)>
#map104 = affine_map<()[s0, s1, s2, s3] -> (((s2 + (s0 + s1 * 2) floordiv 8) floordiv 2) * 704 + (s3 floordiv 64) * 176 + ((s3 mod 64) floordiv 32) * 4 + 43)>
#map105 = affine_map<()[s0] -> ((s0 floordiv 64) * 176 + ((s0 mod 64) floordiv 32) * 4 + 43)>
#map106 = affine_map<()[s0, s1, s2, s3] -> (((s2 + (s0 + s1 * 2) floordiv 8) floordiv 2) * 704 + (s3 floordiv 64) * 176 + ((s3 mod 64) floordiv 32) * 4 + 48)>
#map107 = affine_map<()[s0] -> ((s0 floordiv 64) * 176 + ((s0 mod 64) floordiv 32) * 4 + 48)>
#map108 = affine_map<()[s0, s1, s2, s3] -> (((s2 + (s0 + s1 * 2) floordiv 8) floordiv 2) * 704 + (s3 floordiv 64) * 176 + ((s3 mod 64) floordiv 32) * 4 + 49)>
#map109 = affine_map<()[s0] -> ((s0 floordiv 64) * 176 + ((s0 mod 64) floordiv 32) * 4 + 49)>
#map110 = affine_map<()[s0, s1, s2, s3] -> (((s2 + (s0 + s1 * 2) floordiv 8) floordiv 2) * 704 + (s3 floordiv 64) * 176 + ((s3 mod 64) floordiv 32) * 4 + 50)>
#map111 = affine_map<()[s0] -> ((s0 floordiv 64) * 176 + ((s0 mod 64) floordiv 32) * 4 + 50)>
#map112 = affine_map<()[s0, s1, s2, s3] -> (((s2 + (s0 + s1 * 2) floordiv 8) floordiv 2) * 704 + (s3 floordiv 64) * 176 + ((s3 mod 64) floordiv 32) * 4 + 51)>
#map113 = affine_map<()[s0] -> ((s0 floordiv 64) * 176 + ((s0 mod 64) floordiv 32) * 4 + 51)>
#map114 = affine_map<()[s0, s1, s2, s3] -> (((s2 + (s0 + s1 * 2) floordiv 8) floordiv 2) * 704 + (s3 floordiv 64) * 176 + ((s3 mod 64) floordiv 32) * 4 + 56)>
#map115 = affine_map<()[s0] -> ((s0 floordiv 64) * 176 + ((s0 mod 64) floordiv 32) * 4 + 56)>
#map116 = affine_map<()[s0, s1, s2, s3] -> (((s2 + (s0 + s1 * 2) floordiv 8) floordiv 2) * 704 + (s3 floordiv 64) * 176 + ((s3 mod 64) floordiv 32) * 4 + 57)>
#map117 = affine_map<()[s0] -> ((s0 floordiv 64) * 176 + ((s0 mod 64) floordiv 32) * 4 + 57)>
#map118 = affine_map<()[s0, s1, s2, s3] -> (((s2 + (s0 + s1 * 2) floordiv 8) floordiv 2) * 704 + (s3 floordiv 64) * 176 + ((s3 mod 64) floordiv 32) * 4 + 58)>
#map119 = affine_map<()[s0] -> ((s0 floordiv 64) * 176 + ((s0 mod 64) floordiv 32) * 4 + 58)>
#map120 = affine_map<()[s0, s1, s2, s3] -> (((s2 + (s0 + s1 * 2) floordiv 8) floordiv 2) * 704 + (s3 floordiv 64) * 176 + ((s3 mod 64) floordiv 32) * 4 + 59)>
#map121 = affine_map<()[s0] -> ((s0 floordiv 64) * 176 + ((s0 mod 64) floordiv 32) * 4 + 59)>
#map122 = affine_map<()[s0, s1, s2, s3] -> (((s2 + (s0 + s1 * 2) floordiv 8) floordiv 2) * 704 + (s3 floordiv 64) * 176 + ((s3 mod 64) floordiv 32) * 4 + 64)>
#map123 = affine_map<()[s0] -> ((s0 floordiv 64) * 176 + ((s0 mod 64) floordiv 32) * 4 + 64)>
#map124 = affine_map<()[s0, s1, s2, s3] -> (((s2 + (s0 + s1 * 2) floordiv 8) floordiv 2) * 704 + (s3 floordiv 64) * 176 + ((s3 mod 64) floordiv 32) * 4 + 65)>
#map125 = affine_map<()[s0] -> ((s0 floordiv 64) * 176 + ((s0 mod 64) floordiv 32) * 4 + 65)>
#map126 = affine_map<()[s0, s1, s2, s3] -> (((s2 + (s0 + s1 * 2) floordiv 8) floordiv 2) * 704 + (s3 floordiv 64) * 176 + ((s3 mod 64) floordiv 32) * 4 + 66)>
#map127 = affine_map<()[s0] -> ((s0 floordiv 64) * 176 + ((s0 mod 64) floordiv 32) * 4 + 66)>
#map128 = affine_map<()[s0, s1, s2, s3] -> (((s2 + (s0 + s1 * 2) floordiv 8) floordiv 2) * 704 + (s3 floordiv 64) * 176 + ((s3 mod 64) floordiv 32) * 4 + 67)>
#map129 = affine_map<()[s0] -> ((s0 floordiv 64) * 176 + ((s0 mod 64) floordiv 32) * 4 + 67)>
#map130 = affine_map<()[s0, s1, s2, s3] -> (((s2 + (s0 + s1 * 2) floordiv 8) floordiv 2) * 704 + (s3 floordiv 64) * 176 + ((s3 mod 64) floordiv 32) * 4 + 72)>
#map131 = affine_map<()[s0] -> ((s0 floordiv 64) * 176 + ((s0 mod 64) floordiv 32) * 4 + 72)>
#map132 = affine_map<()[s0, s1, s2, s3] -> (((s2 + (s0 + s1 * 2) floordiv 8) floordiv 2) * 704 + (s3 floordiv 64) * 176 + ((s3 mod 64) floordiv 32) * 4 + 73)>
#map133 = affine_map<()[s0] -> ((s0 floordiv 64) * 176 + ((s0 mod 64) floordiv 32) * 4 + 73)>
#map134 = affine_map<()[s0, s1, s2, s3] -> (((s2 + (s0 + s1 * 2) floordiv 8) floordiv 2) * 704 + (s3 floordiv 64) * 176 + ((s3 mod 64) floordiv 32) * 4 + 74)>
#map135 = affine_map<()[s0] -> ((s0 floordiv 64) * 176 + ((s0 mod 64) floordiv 32) * 4 + 74)>
#map136 = affine_map<()[s0, s1, s2, s3] -> (((s2 + (s0 + s1 * 2) floordiv 8) floordiv 2) * 704 + (s3 floordiv 64) * 176 + ((s3 mod 64) floordiv 32) * 4 + 75)>
#map137 = affine_map<()[s0] -> ((s0 floordiv 64) * 176 + ((s0 mod 64) floordiv 32) * 4 + 75)>
#map138 = affine_map<()[s0, s1, s2, s3] -> (((s2 + (s0 + s1 * 2) floordiv 8) floordiv 2) * 704 + (s3 floordiv 64) * 176 + ((s3 mod 64) floordiv 32) * 4 + 80)>
#map139 = affine_map<()[s0] -> ((s0 floordiv 64) * 176 + ((s0 mod 64) floordiv 32) * 4 + 80)>
#map140 = affine_map<()[s0, s1, s2, s3] -> (((s2 + (s0 + s1 * 2) floordiv 8) floordiv 2) * 704 + (s3 floordiv 64) * 176 + ((s3 mod 64) floordiv 32) * 4 + 81)>
#map141 = affine_map<()[s0] -> ((s0 floordiv 64) * 176 + ((s0 mod 64) floordiv 32) * 4 + 81)>
#map142 = affine_map<()[s0, s1, s2, s3] -> (((s2 + (s0 + s1 * 2) floordiv 8) floordiv 2) * 704 + (s3 floordiv 64) * 176 + ((s3 mod 64) floordiv 32) * 4 + 82)>
#map143 = affine_map<()[s0] -> ((s0 floordiv 64) * 176 + ((s0 mod 64) floordiv 32) * 4 + 82)>
#map144 = affine_map<()[s0, s1, s2, s3] -> (((s2 + (s0 + s1 * 2) floordiv 8) floordiv 2) * 704 + (s3 floordiv 64) * 176 + ((s3 mod 64) floordiv 32) * 4 + 83)>
#map145 = affine_map<()[s0] -> ((s0 floordiv 64) * 176 + ((s0 mod 64) floordiv 32) * 4 + 83)>
#map146 = affine_map<()[s0, s1, s2, s3] -> (((s2 + (s0 + s1 * 2) floordiv 8) floordiv 2) * 704 + (s3 floordiv 64) * 176 + ((s3 mod 64) floordiv 32) * 4 + 88)>
#map147 = affine_map<()[s0] -> ((s0 floordiv 64) * 176 + ((s0 mod 64) floordiv 32) * 4 + 88)>
#map148 = affine_map<()[s0, s1, s2, s3] -> (((s2 + (s0 + s1 * 2) floordiv 8) floordiv 2) * 704 + (s3 floordiv 64) * 176 + ((s3 mod 64) floordiv 32) * 4 + 89)>
#map149 = affine_map<()[s0] -> ((s0 floordiv 64) * 176 + ((s0 mod 64) floordiv 32) * 4 + 89)>
#map150 = affine_map<()[s0, s1, s2, s3] -> (((s2 + (s0 + s1 * 2) floordiv 8) floordiv 2) * 704 + (s3 floordiv 64) * 176 + ((s3 mod 64) floordiv 32) * 4 + 90)>
#map151 = affine_map<()[s0] -> ((s0 floordiv 64) * 176 + ((s0 mod 64) floordiv 32) * 4 + 90)>
#map152 = affine_map<()[s0, s1, s2, s3] -> (((s2 + (s0 + s1 * 2) floordiv 8) floordiv 2) * 704 + (s3 floordiv 64) * 176 + ((s3 mod 64) floordiv 32) * 4 + 91)>
#map153 = affine_map<()[s0] -> ((s0 floordiv 64) * 176 + ((s0 mod 64) floordiv 32) * 4 + 91)>
#map154 = affine_map<()[s0, s1, s2, s3] -> (((s2 + (s0 + s1 * 2) floordiv 8) floordiv 2) * 704 + (s3 floordiv 64) * 176 + ((s3 mod 64) floordiv 32) * 4 + 96)>
#map155 = affine_map<()[s0] -> ((s0 floordiv 64) * 176 + ((s0 mod 64) floordiv 32) * 4 + 96)>
#map156 = affine_map<()[s0, s1, s2, s3] -> (((s2 + (s0 + s1 * 2) floordiv 8) floordiv 2) * 704 + (s3 floordiv 64) * 176 + ((s3 mod 64) floordiv 32) * 4 + 97)>
#map157 = affine_map<()[s0] -> ((s0 floordiv 64) * 176 + ((s0 mod 64) floordiv 32) * 4 + 97)>
#map158 = affine_map<()[s0, s1, s2, s3] -> (((s2 + (s0 + s1 * 2) floordiv 8) floordiv 2) * 704 + (s3 floordiv 64) * 176 + ((s3 mod 64) floordiv 32) * 4 + 98)>
#map159 = affine_map<()[s0] -> ((s0 floordiv 64) * 176 + ((s0 mod 64) floordiv 32) * 4 + 98)>
#map160 = affine_map<()[s0, s1, s2, s3] -> (((s2 + (s0 + s1 * 2) floordiv 8) floordiv 2) * 704 + (s3 floordiv 64) * 176 + ((s3 mod 64) floordiv 32) * 4 + 99)>
#map161 = affine_map<()[s0] -> ((s0 floordiv 64) * 176 + ((s0 mod 64) floordiv 32) * 4 + 99)>
#map162 = affine_map<()[s0, s1, s2, s3] -> (((s2 + (s0 + s1 * 2) floordiv 8) floordiv 2) * 704 + (s3 floordiv 64) * 176 + ((s3 mod 64) floordiv 32) * 4 + 104)>
#map163 = affine_map<()[s0] -> ((s0 floordiv 64) * 176 + ((s0 mod 64) floordiv 32) * 4 + 104)>
#map164 = affine_map<()[s0, s1, s2, s3] -> (((s2 + (s0 + s1 * 2) floordiv 8) floordiv 2) * 704 + (s3 floordiv 64) * 176 + ((s3 mod 64) floordiv 32) * 4 + 105)>
#map165 = affine_map<()[s0] -> ((s0 floordiv 64) * 176 + ((s0 mod 64) floordiv 32) * 4 + 105)>
#map166 = affine_map<()[s0, s1, s2, s3] -> (((s2 + (s0 + s1 * 2) floordiv 8) floordiv 2) * 704 + (s3 floordiv 64) * 176 + ((s3 mod 64) floordiv 32) * 4 + 106)>
#map167 = affine_map<()[s0] -> ((s0 floordiv 64) * 176 + ((s0 mod 64) floordiv 32) * 4 + 106)>
#map168 = affine_map<()[s0, s1, s2, s3] -> (((s2 + (s0 + s1 * 2) floordiv 8) floordiv 2) * 704 + (s3 floordiv 64) * 176 + ((s3 mod 64) floordiv 32) * 4 + 107)>
#map169 = affine_map<()[s0] -> ((s0 floordiv 64) * 176 + ((s0 mod 64) floordiv 32) * 4 + 107)>
#map170 = affine_map<()[s0, s1, s2, s3] -> (((s2 + (s0 + s1 * 2) floordiv 8) floordiv 2) * 704 + (s3 floordiv 64) * 176 + ((s3 mod 64) floordiv 32) * 4 + 112)>
#map171 = affine_map<()[s0] -> ((s0 floordiv 64) * 176 + ((s0 mod 64) floordiv 32) * 4 + 112)>
#map172 = affine_map<()[s0, s1, s2, s3] -> (((s2 + (s0 + s1 * 2) floordiv 8) floordiv 2) * 704 + (s3 floordiv 64) * 176 + ((s3 mod 64) floordiv 32) * 4 + 113)>
#map173 = affine_map<()[s0] -> ((s0 floordiv 64) * 176 + ((s0 mod 64) floordiv 32) * 4 + 113)>
#map174 = affine_map<()[s0, s1, s2, s3] -> (((s2 + (s0 + s1 * 2) floordiv 8) floordiv 2) * 704 + (s3 floordiv 64) * 176 + ((s3 mod 64) floordiv 32) * 4 + 114)>
#map175 = affine_map<()[s0] -> ((s0 floordiv 64) * 176 + ((s0 mod 64) floordiv 32) * 4 + 114)>
#map176 = affine_map<()[s0, s1, s2, s3] -> (((s2 + (s0 + s1 * 2) floordiv 8) floordiv 2) * 704 + (s3 floordiv 64) * 176 + ((s3 mod 64) floordiv 32) * 4 + 115)>
#map177 = affine_map<()[s0] -> ((s0 floordiv 64) * 176 + ((s0 mod 64) floordiv 32) * 4 + 115)>
#map178 = affine_map<()[s0, s1, s2, s3] -> (((s2 + (s0 + s1 * 2) floordiv 8) floordiv 2) * 704 + (s3 floordiv 64) * 176 + ((s3 mod 64) floordiv 32) * 4 + 120)>
#map179 = affine_map<()[s0] -> ((s0 floordiv 64) * 176 + ((s0 mod 64) floordiv 32) * 4 + 120)>
#map180 = affine_map<()[s0, s1, s2, s3] -> (((s2 + (s0 + s1 * 2) floordiv 8) floordiv 2) * 704 + (s3 floordiv 64) * 176 + ((s3 mod 64) floordiv 32) * 4 + 121)>
#map181 = affine_map<()[s0] -> ((s0 floordiv 64) * 176 + ((s0 mod 64) floordiv 32) * 4 + 121)>
#map182 = affine_map<()[s0, s1, s2, s3] -> (((s2 + (s0 + s1 * 2) floordiv 8) floordiv 2) * 704 + (s3 floordiv 64) * 176 + ((s3 mod 64) floordiv 32) * 4 + 122)>
#map183 = affine_map<()[s0] -> ((s0 floordiv 64) * 176 + ((s0 mod 64) floordiv 32) * 4 + 122)>
#map184 = affine_map<()[s0, s1, s2, s3] -> (((s2 + (s0 + s1 * 2) floordiv 8) floordiv 2) * 704 + (s3 floordiv 64) * 176 + ((s3 mod 64) floordiv 32) * 4 + 123)>
#map185 = affine_map<()[s0] -> ((s0 floordiv 64) * 176 + ((s0 mod 64) floordiv 32) * 4 + 123)>
#map186 = affine_map<()[s0, s1, s2, s3] -> (((s2 + (s0 + s1 * 2) floordiv 8) floordiv 2) * 704 + (s3 floordiv 64) * 176 + ((s3 mod 64) floordiv 32) * 4 + 128)>
#map187 = affine_map<()[s0] -> ((s0 floordiv 64) * 176 + ((s0 mod 64) floordiv 32) * 4 + 128)>
#map188 = affine_map<()[s0, s1, s2, s3] -> (((s2 + (s0 + s1 * 2) floordiv 8) floordiv 2) * 704 + (s3 floordiv 64) * 176 + ((s3 mod 64) floordiv 32) * 4 + 129)>
#map189 = affine_map<()[s0] -> ((s0 floordiv 64) * 176 + ((s0 mod 64) floordiv 32) * 4 + 129)>
#map190 = affine_map<()[s0, s1, s2, s3] -> (((s2 + (s0 + s1 * 2) floordiv 8) floordiv 2) * 704 + (s3 floordiv 64) * 176 + ((s3 mod 64) floordiv 32) * 4 + 130)>
#map191 = affine_map<()[s0] -> ((s0 floordiv 64) * 176 + ((s0 mod 64) floordiv 32) * 4 + 130)>
#map192 = affine_map<()[s0, s1, s2, s3] -> (((s2 + (s0 + s1 * 2) floordiv 8) floordiv 2) * 704 + (s3 floordiv 64) * 176 + ((s3 mod 64) floordiv 32) * 4 + 131)>
#map193 = affine_map<()[s0] -> ((s0 floordiv 64) * 176 + ((s0 mod 64) floordiv 32) * 4 + 131)>
#map194 = affine_map<()[s0, s1, s2, s3] -> (((s2 + (s0 + s1 * 2) floordiv 8) floordiv 2) * 704 + (s3 floordiv 64) * 176 + ((s3 mod 64) floordiv 32) * 4 + 136)>
#map195 = affine_map<()[s0] -> ((s0 floordiv 64) * 176 + ((s0 mod 64) floordiv 32) * 4 + 136)>
#map196 = affine_map<()[s0, s1, s2, s3] -> (((s2 + (s0 + s1 * 2) floordiv 8) floordiv 2) * 704 + (s3 floordiv 64) * 176 + ((s3 mod 64) floordiv 32) * 4 + 137)>
#map197 = affine_map<()[s0] -> ((s0 floordiv 64) * 176 + ((s0 mod 64) floordiv 32) * 4 + 137)>
#map198 = affine_map<()[s0, s1, s2, s3] -> (((s2 + (s0 + s1 * 2) floordiv 8) floordiv 2) * 704 + (s3 floordiv 64) * 176 + ((s3 mod 64) floordiv 32) * 4 + 138)>
#map199 = affine_map<()[s0] -> ((s0 floordiv 64) * 176 + ((s0 mod 64) floordiv 32) * 4 + 138)>
#map200 = affine_map<()[s0, s1, s2, s3] -> (((s2 + (s0 + s1 * 2) floordiv 8) floordiv 2) * 704 + (s3 floordiv 64) * 176 + ((s3 mod 64) floordiv 32) * 4 + 139)>
#map201 = affine_map<()[s0] -> ((s0 floordiv 64) * 176 + ((s0 mod 64) floordiv 32) * 4 + 139)>
#map202 = affine_map<()[s0, s1, s2, s3] -> (((s2 + (s0 + s1 * 2) floordiv 8) floordiv 2) * 704 + (s3 floordiv 64) * 176 + ((s3 mod 64) floordiv 32) * 4 + 144)>
#map203 = affine_map<()[s0] -> ((s0 floordiv 64) * 176 + ((s0 mod 64) floordiv 32) * 4 + 144)>
#map204 = affine_map<()[s0, s1, s2, s3] -> (((s2 + (s0 + s1 * 2) floordiv 8) floordiv 2) * 704 + (s3 floordiv 64) * 176 + ((s3 mod 64) floordiv 32) * 4 + 145)>
#map205 = affine_map<()[s0] -> ((s0 floordiv 64) * 176 + ((s0 mod 64) floordiv 32) * 4 + 145)>
#map206 = affine_map<()[s0, s1, s2, s3] -> (((s2 + (s0 + s1 * 2) floordiv 8) floordiv 2) * 704 + (s3 floordiv 64) * 176 + ((s3 mod 64) floordiv 32) * 4 + 146)>
#map207 = affine_map<()[s0] -> ((s0 floordiv 64) * 176 + ((s0 mod 64) floordiv 32) * 4 + 146)>
#map208 = affine_map<()[s0, s1, s2, s3] -> (((s2 + (s0 + s1 * 2) floordiv 8) floordiv 2) * 704 + (s3 floordiv 64) * 176 + ((s3 mod 64) floordiv 32) * 4 + 147)>
#map209 = affine_map<()[s0] -> ((s0 floordiv 64) * 176 + ((s0 mod 64) floordiv 32) * 4 + 147)>
#map210 = affine_map<()[s0, s1, s2, s3] -> (((s2 + (s0 + s1 * 2) floordiv 8) floordiv 2) * 704 + (s3 floordiv 64) * 176 + ((s3 mod 64) floordiv 32) * 4 + 152)>
#map211 = affine_map<()[s0] -> ((s0 floordiv 64) * 176 + ((s0 mod 64) floordiv 32) * 4 + 152)>
#map212 = affine_map<()[s0, s1, s2, s3] -> (((s2 + (s0 + s1 * 2) floordiv 8) floordiv 2) * 704 + (s3 floordiv 64) * 176 + ((s3 mod 64) floordiv 32) * 4 + 153)>
#map213 = affine_map<()[s0] -> ((s0 floordiv 64) * 176 + ((s0 mod 64) floordiv 32) * 4 + 153)>
#map214 = affine_map<()[s0, s1, s2, s3] -> (((s2 + (s0 + s1 * 2) floordiv 8) floordiv 2) * 704 + (s3 floordiv 64) * 176 + ((s3 mod 64) floordiv 32) * 4 + 154)>
#map215 = affine_map<()[s0] -> ((s0 floordiv 64) * 176 + ((s0 mod 64) floordiv 32) * 4 + 154)>
#map216 = affine_map<()[s0, s1, s2, s3] -> (((s2 + (s0 + s1 * 2) floordiv 8) floordiv 2) * 704 + (s3 floordiv 64) * 176 + ((s3 mod 64) floordiv 32) * 4 + 155)>
#map217 = affine_map<()[s0] -> ((s0 floordiv 64) * 176 + ((s0 mod 64) floordiv 32) * 4 + 155)>
#map218 = affine_map<()[s0, s1, s2, s3] -> (((s2 + (s0 + s1 * 2) floordiv 8) floordiv 2) * 704 + (s3 floordiv 64) * 176 + ((s3 mod 64) floordiv 32) * 4 + 160)>
#map219 = affine_map<()[s0] -> ((s0 floordiv 64) * 176 + ((s0 mod 64) floordiv 32) * 4 + 160)>
#map220 = affine_map<()[s0, s1, s2, s3] -> (((s2 + (s0 + s1 * 2) floordiv 8) floordiv 2) * 704 + (s3 floordiv 64) * 176 + ((s3 mod 64) floordiv 32) * 4 + 161)>
#map221 = affine_map<()[s0] -> ((s0 floordiv 64) * 176 + ((s0 mod 64) floordiv 32) * 4 + 161)>
#map222 = affine_map<()[s0, s1, s2, s3] -> (((s2 + (s0 + s1 * 2) floordiv 8) floordiv 2) * 704 + (s3 floordiv 64) * 176 + ((s3 mod 64) floordiv 32) * 4 + 162)>
#map223 = affine_map<()[s0] -> ((s0 floordiv 64) * 176 + ((s0 mod 64) floordiv 32) * 4 + 162)>
#map224 = affine_map<()[s0, s1, s2, s3] -> (((s2 + (s0 + s1 * 2) floordiv 8) floordiv 2) * 704 + (s3 floordiv 64) * 176 + ((s3 mod 64) floordiv 32) * 4 + 163)>
#map225 = affine_map<()[s0] -> ((s0 floordiv 64) * 176 + ((s0 mod 64) floordiv 32) * 4 + 163)>
#map226 = affine_map<()[s0, s1, s2, s3] -> (((s2 + (s0 + s1 * 2) floordiv 8) floordiv 2) * 704 + (s3 floordiv 64) * 176 + ((s3 mod 64) floordiv 32) * 4 + 168)>
#map227 = affine_map<()[s0] -> ((s0 floordiv 64) * 176 + ((s0 mod 64) floordiv 32) * 4 + 168)>
#map228 = affine_map<()[s0, s1, s2, s3] -> (((s2 + (s0 + s1 * 2) floordiv 8) floordiv 2) * 704 + (s3 floordiv 64) * 176 + ((s3 mod 64) floordiv 32) * 4 + 169)>
#map229 = affine_map<()[s0] -> ((s0 floordiv 64) * 176 + ((s0 mod 64) floordiv 32) * 4 + 169)>
#map230 = affine_map<()[s0, s1, s2, s3] -> (((s2 + (s0 + s1 * 2) floordiv 8) floordiv 2) * 704 + (s3 floordiv 64) * 176 + ((s3 mod 64) floordiv 32) * 4 + 170)>
#map231 = affine_map<()[s0] -> ((s0 floordiv 64) * 176 + ((s0 mod 64) floordiv 32) * 4 + 170)>
#map232 = affine_map<()[s0, s1, s2, s3] -> (((s2 + (s0 + s1 * 2) floordiv 8) floordiv 2) * 704 + (s3 floordiv 64) * 176 + ((s3 mod 64) floordiv 32) * 4 + 171)>
#map233 = affine_map<()[s0] -> ((s0 floordiv 64) * 176 + ((s0 mod 64) floordiv 32) * 4 + 171)>
#map234 = affine_map<()[s0, s1, s2, s3] -> (((s2 + (s0 + s1 * 2) floordiv 8) floordiv 2) * 704 + (s3 floordiv 64) * 176 + ((s3 mod 64) floordiv 32) * 4 + 176)>
#map235 = affine_map<()[s0] -> ((s0 floordiv 64) * 176 + ((s0 mod 64) floordiv 32) * 4 + 176)>
#map236 = affine_map<()[s0, s1, s2, s3] -> (((s2 + (s0 + s1 * 2) floordiv 8) floordiv 2) * 704 + (s3 floordiv 64) * 176 + ((s3 mod 64) floordiv 32) * 4 + 177)>
#map237 = affine_map<()[s0] -> ((s0 floordiv 64) * 176 + ((s0 mod 64) floordiv 32) * 4 + 177)>
#map238 = affine_map<()[s0, s1, s2, s3] -> (((s2 + (s0 + s1 * 2) floordiv 8) floordiv 2) * 704 + (s3 floordiv 64) * 176 + ((s3 mod 64) floordiv 32) * 4 + 178)>
#map239 = affine_map<()[s0] -> ((s0 floordiv 64) * 176 + ((s0 mod 64) floordiv 32) * 4 + 178)>
#map240 = affine_map<()[s0, s1, s2, s3] -> (((s2 + (s0 + s1 * 2) floordiv 8) floordiv 2) * 704 + (s3 floordiv 64) * 176 + ((s3 mod 64) floordiv 32) * 4 + 179)>
#map241 = affine_map<()[s0] -> ((s0 floordiv 64) * 176 + ((s0 mod 64) floordiv 32) * 4 + 179)>
#map242 = affine_map<()[s0, s1, s2, s3] -> (((s2 + (s0 + s1 * 2) floordiv 8) floordiv 2) * 704 + (s3 floordiv 64) * 176 + ((s3 mod 64) floordiv 32) * 4 + 184)>
#map243 = affine_map<()[s0] -> ((s0 floordiv 64) * 176 + ((s0 mod 64) floordiv 32) * 4 + 184)>
#map244 = affine_map<()[s0, s1, s2, s3] -> (((s2 + (s0 + s1 * 2) floordiv 8) floordiv 2) * 704 + (s3 floordiv 64) * 176 + ((s3 mod 64) floordiv 32) * 4 + 185)>
#map245 = affine_map<()[s0] -> ((s0 floordiv 64) * 176 + ((s0 mod 64) floordiv 32) * 4 + 185)>
#map246 = affine_map<()[s0, s1, s2, s3] -> (((s2 + (s0 + s1 * 2) floordiv 8) floordiv 2) * 704 + (s3 floordiv 64) * 176 + ((s3 mod 64) floordiv 32) * 4 + 186)>
#map247 = affine_map<()[s0] -> ((s0 floordiv 64) * 176 + ((s0 mod 64) floordiv 32) * 4 + 186)>
#map248 = affine_map<()[s0, s1, s2, s3] -> (((s2 + (s0 + s1 * 2) floordiv 8) floordiv 2) * 704 + (s3 floordiv 64) * 176 + ((s3 mod 64) floordiv 32) * 4 + 187)>
#map249 = affine_map<()[s0] -> ((s0 floordiv 64) * 176 + ((s0 mod 64) floordiv 32) * 4 + 187)>
#translation = #iree_codegen.translation_info<pipeline = None workgroup_size = [256, 2, 1] subgroup_size = 64>
module attributes {transform.with_named_sequence} {
  stream.executable private @gemm {
    stream.executable.export public @gemm workgroups() -> (index, index, index) {
      %c2 = arith.constant 2 : index
      %c1 = arith.constant 1 : index
      stream.return %c2, %c2, %c1 : index, index, index
    }
    builtin.module {
      func.func @gemm(%arg0: !stream.binding, %arg1: !stream.binding, %arg2: !stream.binding) attributes {translation_info = #translation} {
        %c1024_i14 = arith.constant 1024 : i14
        %cst = arith.constant dense<0.000000e+00> : vector<4xf16>
        %cst_0 = arith.constant dense<[0, 1, 2, 3, 4, 5, 6, 7]> : vector<8xi32>
        %cst_1 = arith.constant dense<1073741823> : vector<8xindex>
        %c4096_i14 = arith.constant 4096 : i14
        %c536870911 = arith.constant 536870911 : index
        %c2147483643_i32 = arith.constant 2147483643 : i32
        %c536870910 = arith.constant 536870910 : index
        %c255 = arith.constant 255 : index
        %c1024 = arith.constant 1024 : index
        %c772 = arith.constant 772 : index
        %c2147483645_i32 = arith.constant 2147483645 : i32
        %c1073741822 = arith.constant 1073741822 : index
        %c4096 = arith.constant 4096 : index
        %c706 = arith.constant 706 : index
        %c4 = arith.constant 4 : index
        %c1 = arith.constant 1 : index
        %c704 = arith.constant 704 : index
        %c30880 = arith.constant 30880 : index
        %c0 = arith.constant 0 : index
        %cst_2 = arith.constant dense<0.000000e+00> : vector<16xf32>
        %block_id_x = gpu.block_id  x upper_bound 2
        %block_id_y = gpu.block_id  y upper_bound 2
        %thread_id_x = gpu.thread_id  x upper_bound 256
        %thread_id_y = gpu.thread_id  y upper_bound 2
        %alloc = memref.alloc() : memref<59040xi8, #gpu.address_space<workgroup>>
        %view = memref.view %alloc[%c0][] : memref<59040xi8, #gpu.address_space<workgroup>> to memref<772x20xf16, #gpu.address_space<workgroup>>
        %view_3 = memref.view %alloc[%c30880][] : memref<59040xi8, #gpu.address_space<workgroup>> to memref<704x20xf16, #gpu.address_space<workgroup>>
        %0 = stream.binding.subspan %arg0[%c0] : !stream.binding -> memref<706x4096xf16, strided<[4096, 1], offset: ?>>
        %1 = affine.apply #map()[%block_id_y, %block_id_x]
        %2 = arith.minsi %1, %c4 : index
        %3 = affine.apply #map1()[%thread_id_x, %thread_id_y, %block_id_x, %block_id_y, %2]
        %4 = arith.cmpi slt, %3, %c706 : index
        %5 = vector.broadcast %4 : i1 to vector<8xi1>
        %6 = affine.apply #map2()[%thread_id_x]
        %7 = arith.muli %3, %c4096 overflow<nsw> : index
        %8 = arith.addi %7, %6 overflow<nsw> : index
        %base_buffer, %offset, %sizes:2, %strides:2 = memref.extract_strided_metadata %0 : memref<706x4096xf16, strided<[4096, 1], offset: ?>> -> memref<f16>, index, index, index, index, index
        %reinterpret_cast = memref.reinterpret_cast %0 to offset: [%offset], sizes: [%c1073741822], strides: [1] : memref<706x4096xf16, strided<[4096, 1], offset: ?>> to memref<?xf16, strided<[1], offset: ?>>
        %9 = amdgpu.fat_raw_buffer_cast %reinterpret_cast validBytes(%c2147483645_i32) cacheSwizzleStride(%c4096_i14) resetOffset : memref<?xf16, strided<[1], offset: ?>> to memref<?xf16, #amdgpu.address_space<fat_raw_buffer>>
        %10 = arith.index_cast %8 : index to i32
        %11 = vector.broadcast %10 : i32 to vector<8xi32>
        %12 = arith.addi %11, %cst_0 : vector<8xi32>
        %13 = arith.index_cast %12 : vector<8xi32> to vector<8xindex>
        %14 = arith.select %5, %13, %cst_1 : vector<8xi1>, vector<8xindex>
        %15 = vector.extract %14[0] : index from vector<8xindex>
        %16 = vector.load %9[%15] : memref<?xf16, #amdgpu.address_space<fat_raw_buffer>>, vector<8xf16>
        %17 = affine.apply #map3()[%thread_id_x, %thread_id_y, %block_id_x, %block_id_y, %2]
        %18 = arith.cmpi slt, %17, %c706 : index
        %19 = vector.broadcast %18 : i1 to vector<8xi1>
        %20 = arith.muli %17, %c4096 overflow<nsw> : index
        %21 = arith.addi %20, %6 overflow<nsw> : index
        %22 = arith.index_cast %21 : index to i32
        %23 = vector.broadcast %22 : i32 to vector<8xi32>
        %24 = arith.addi %23, %cst_0 : vector<8xi32>
        %25 = arith.index_cast %24 : vector<8xi32> to vector<8xindex>
        %26 = arith.select %19, %25, %cst_1 : vector<8xi1>, vector<8xindex>
        %27 = vector.extract %26[0] : index from vector<8xindex>
        %28 = vector.load %9[%27] : memref<?xf16, #amdgpu.address_space<fat_raw_buffer>>, vector<8xf16>
        %29 = affine.apply #map4()[%thread_id_x, %thread_id_y, %block_id_x, %block_id_y, %2]
        %30 = arith.cmpi slt, %29, %c706 : index
        %31 = vector.broadcast %30 : i1 to vector<8xi1>
        %32 = arith.muli %29, %c4096 overflow<nsw> : index
        %33 = arith.addi %32, %6 overflow<nsw> : index
        %34 = arith.index_cast %33 : index to i32
        %35 = vector.broadcast %34 : i32 to vector<8xi32>
        %36 = arith.addi %35, %cst_0 : vector<8xi32>
        %37 = arith.index_cast %36 : vector<8xi32> to vector<8xindex>
        %38 = arith.select %31, %37, %cst_1 : vector<8xi1>, vector<8xindex>
        %39 = vector.extract %38[0] : index from vector<8xindex>
        %40 = vector.load %9[%39] : memref<?xf16, #amdgpu.address_space<fat_raw_buffer>>, vector<8xf16>
        %41 = stream.binding.subspan %arg1[%c0] : !stream.binding -> memref<1024x4096xf16, strided<[4096, 1], offset: ?>>
        %42 = affine.apply #map5()[%thread_id_x, %thread_id_y, %block_id_x, %block_id_y, %2]
        %43 = arith.cmpi slt, %42, %c1024 : index
        %44 = vector.broadcast %43 : i1 to vector<8xi1>
        %45 = arith.muli %42, %c4096 overflow<nsw> : index
        %46 = arith.addi %45, %6 overflow<nsw> : index
        %base_buffer_4, %offset_5, %sizes_6:2, %strides_7:2 = memref.extract_strided_metadata %41 : memref<1024x4096xf16, strided<[4096, 1], offset: ?>> -> memref<f16>, index, index, index, index, index
        %reinterpret_cast_8 = memref.reinterpret_cast %41 to offset: [%offset_5], sizes: [%c1073741822], strides: [1] : memref<1024x4096xf16, strided<[4096, 1], offset: ?>> to memref<?xf16, strided<[1], offset: ?>>
        %47 = amdgpu.fat_raw_buffer_cast %reinterpret_cast_8 validBytes(%c2147483645_i32) cacheSwizzleStride(%c4096_i14) resetOffset : memref<?xf16, strided<[1], offset: ?>> to memref<?xf16, #amdgpu.address_space<fat_raw_buffer>>
        %48 = arith.index_cast %46 : index to i32
        %49 = vector.broadcast %48 : i32 to vector<8xi32>
        %50 = arith.addi %49, %cst_0 : vector<8xi32>
        %51 = arith.index_cast %50 : vector<8xi32> to vector<8xindex>
        %52 = arith.select %44, %51, %cst_1 : vector<8xi1>, vector<8xindex>
        %53 = vector.extract %52[0] : index from vector<8xindex>
        %54 = vector.load %47[%53] : memref<?xf16, #amdgpu.address_space<fat_raw_buffer>>, vector<8xf16>
        %55 = affine.apply #map6()[%thread_id_x, %thread_id_y, %block_id_x, %block_id_y, %2]
        %56 = arith.cmpi slt, %55, %c1024 : index
        %57 = vector.broadcast %56 : i1 to vector<8xi1>
        %58 = arith.muli %55, %c4096 overflow<nsw> : index
        %59 = arith.addi %58, %6 overflow<nsw> : index
        %60 = arith.index_cast %59 : index to i32
        %61 = vector.broadcast %60 : i32 to vector<8xi32>
        %62 = arith.addi %61, %cst_0 : vector<8xi32>
        %63 = arith.index_cast %62 : vector<8xi32> to vector<8xindex>
        %64 = arith.select %57, %63, %cst_1 : vector<8xi1>, vector<8xindex>
        %65 = vector.extract %64[0] : index from vector<8xindex>
        %66 = vector.load %47[%65] : memref<?xf16, #amdgpu.address_space<fat_raw_buffer>>, vector<8xf16>
        %67 = affine.apply #map7()[%thread_id_x, %thread_id_y, %block_id_x, %block_id_y, %2]
        %68 = arith.cmpi slt, %67, %c1024 : index
        %69 = vector.broadcast %68 : i1 to vector<8xi1>
        %70 = arith.muli %67, %c4096 overflow<nsw> : index
        %71 = arith.addi %70, %6 overflow<nsw> : index
        %72 = arith.index_cast %71 : index to i32
        %73 = vector.broadcast %72 : i32 to vector<8xi32>
        %74 = arith.addi %73, %cst_0 : vector<8xi32>
        %75 = arith.index_cast %74 : vector<8xi32> to vector<8xindex>
        %76 = arith.select %69, %75, %cst_1 : vector<8xi1>, vector<8xindex>
        %77 = vector.extract %76[0] : index from vector<8xindex>
        %78 = vector.load %47[%77] : memref<?xf16, #amdgpu.address_space<fat_raw_buffer>>, vector<8xf16>
        %79 = affine.apply #map8()[%thread_id_x, %thread_id_y, %block_id_x, %block_id_y, %2]
        %80 = arith.cmpi slt, %79, %c1024 : index
        %81 = vector.broadcast %80 : i1 to vector<8xi1>
        %82 = arith.muli %79, %c4096 overflow<nsw> : index
        %83 = arith.addi %82, %6 overflow<nsw> : index
        %84 = arith.index_cast %83 : index to i32
        %85 = vector.broadcast %84 : i32 to vector<8xi32>
        %86 = arith.addi %85, %cst_0 : vector<8xi32>
        %87 = arith.index_cast %86 : vector<8xi32> to vector<8xindex>
        %88 = arith.select %81, %87, %cst_1 : vector<8xi1>, vector<8xindex>
        %89 = vector.extract %88[0] : index from vector<8xindex>
        %90 = vector.load %47[%89] : memref<?xf16, #amdgpu.address_space<fat_raw_buffer>>, vector<8xf16>
        %91 = affine.apply #map9()[%thread_id_x]
        %92 = arith.minsi %91, %c704 : index
        %93 = affine.apply #map10()[%thread_id_x, %thread_id_y]
        %94 = arith.cmpi slt, %93, %92 : index
        %95 = vector.broadcast %94 : i1 to vector<8xi1>
        vector.maskedstore %view_3[%93, %6], %95, %16 : memref<704x20xf16, #gpu.address_space<workgroup>>, vector<8xi1>, vector<8xf16>
        %96 = affine.apply #map11()[%thread_id_x, %thread_id_y]
        %97 = arith.cmpi slt, %96, %92 : index
        %98 = vector.broadcast %97 : i1 to vector<8xi1>
        vector.maskedstore %view_3[%96, %6], %98, %28 : memref<704x20xf16, #gpu.address_space<workgroup>>, vector<8xi1>, vector<8xf16>
        %99 = affine.apply #map12()[%thread_id_x, %thread_id_y]
        %100 = arith.cmpi slt, %99, %92 : index
        %101 = vector.broadcast %100 : i1 to vector<8xi1>
        vector.maskedstore %view_3[%99, %6], %101, %40 : memref<704x20xf16, #gpu.address_space<workgroup>>, vector<8xi1>, vector<8xf16>
        %102 = affine.apply #map13()[%thread_id_y]
        %103 = arith.minsi %102, %c772 : index
        %104 = affine.apply #map14()[%thread_id_x, %thread_id_y]
        %105 = arith.cmpi slt, %104, %103 : index
        %106 = vector.broadcast %105 : i1 to vector<8xi1>
        vector.maskedstore %view[%104, %6], %106, %54 : memref<772x20xf16, #gpu.address_space<workgroup>>, vector<8xi1>, vector<8xf16>
        %107 = affine.apply #map15()[%thread_id_x, %thread_id_y]
        %108 = arith.cmpi slt, %107, %103 : index
        %109 = vector.broadcast %108 : i1 to vector<8xi1>
        vector.maskedstore %view[%107, %6], %109, %66 : memref<772x20xf16, #gpu.address_space<workgroup>>, vector<8xi1>, vector<8xf16>
        %110 = affine.apply #map16()[%thread_id_x, %thread_id_y]
        %111 = arith.cmpi slt, %110, %103 : index
        %112 = vector.broadcast %111 : i1 to vector<8xi1>
        vector.maskedstore %view[%110, %6], %112, %78 : memref<772x20xf16, #gpu.address_space<workgroup>>, vector<8xi1>, vector<8xf16>
        %113 = affine.apply #map17()[%thread_id_x, %thread_id_y]
        %114 = arith.cmpi slt, %113, %103 : index
        %115 = vector.broadcast %114 : i1 to vector<8xi1>
        vector.maskedstore %view[%113, %6], %115, %90 : memref<772x20xf16, #gpu.address_space<workgroup>>, vector<8xi1>, vector<8xf16>
        %116 = affine.apply #map18()[%thread_id_x, %thread_id_y]
        %117 = arith.cmpi slt, %116, %103 : index
        %118 = vector.broadcast %117 : i1 to vector<4xi1>
        %119 = affine.apply #map19()[%thread_id_x]
        %120 = affine.apply #map20()[%thread_id_x]
        %121 = affine.apply #map21()[%thread_id_x, %thread_id_y]
        %122 = arith.cmpi slt, %121, %103 : index
        %123 = vector.broadcast %122 : i1 to vector<4xi1>
        %124 = affine.apply #map22()[%thread_id_x, %thread_id_y]
        %125 = arith.cmpi slt, %124, %103 : index
        %126 = vector.broadcast %125 : i1 to vector<4xi1>
        %127 = affine.apply #map23()[%thread_id_x, %thread_id_y]
        %128 = arith.cmpi slt, %127, %103 : index
        %129 = vector.broadcast %128 : i1 to vector<4xi1>
        %130 = affine.apply #map24()[%thread_id_x, %thread_id_y]
        %131 = arith.cmpi slt, %130, %103 : index
        %132 = vector.broadcast %131 : i1 to vector<4xi1>
        %133 = affine.apply #map25()[%thread_id_x, %thread_id_y]
        %134 = arith.cmpi slt, %133, %103 : index
        %135 = vector.broadcast %134 : i1 to vector<4xi1>
        %136 = affine.apply #map26()[%thread_id_x, %thread_id_y]
        %137 = arith.cmpi slt, %136, %103 : index
        %138 = vector.broadcast %137 : i1 to vector<4xi1>
        %139 = affine.apply #map27()[%thread_id_x, %thread_id_y]
        %140 = arith.cmpi slt, %139, %103 : index
        %141 = vector.broadcast %140 : i1 to vector<4xi1>
        %142 = affine.apply #map28()[%thread_id_x, %thread_id_y]
        %143 = arith.cmpi slt, %142, %103 : index
        %144 = vector.broadcast %143 : i1 to vector<4xi1>
        %145 = affine.apply #map29()[%thread_id_x, %thread_id_y]
        %146 = arith.cmpi slt, %145, %103 : index
        %147 = vector.broadcast %146 : i1 to vector<4xi1>
        %148 = affine.apply #map30()[%thread_id_x, %thread_id_y]
        %149 = arith.cmpi slt, %148, %103 : index
        %150 = vector.broadcast %149 : i1 to vector<4xi1>
        %151 = affine.apply #map31()[%thread_id_x, %thread_id_y]
        %152 = arith.cmpi slt, %151, %103 : index
        %153 = vector.broadcast %152 : i1 to vector<4xi1>
        %154 = affine.apply #map32()[%thread_id_x, %thread_id_y]
        %155 = arith.cmpi slt, %154, %103 : index
        %156 = vector.broadcast %155 : i1 to vector<4xi1>
        %157 = affine.apply #map33()[%thread_id_x]
        %158 = arith.cmpi slt, %157, %92 : index
        %159 = vector.broadcast %158 : i1 to vector<4xi1>
        %160 = affine.apply #map34()[%thread_id_x]
        %161 = arith.cmpi slt, %160, %92 : index
        %162 = vector.broadcast %161 : i1 to vector<4xi1>
        %163 = affine.apply #map35()[%thread_id_x]
        %164 = arith.cmpi slt, %163, %92 : index
        %165 = vector.broadcast %164 : i1 to vector<4xi1>
        %166 = affine.apply #map36()[%thread_id_x]
        %167 = arith.cmpi slt, %166, %92 : index
        %168 = vector.broadcast %167 : i1 to vector<4xi1>
        %169 = affine.apply #map37()[%thread_id_x]
        %170 = arith.cmpi slt, %169, %92 : index
        %171 = vector.broadcast %170 : i1 to vector<4xi1>
        %172 = affine.apply #map38()[%thread_id_x]
        %173 = arith.cmpi slt, %172, %92 : index
        %174 = vector.broadcast %173 : i1 to vector<4xi1>
        %175:78 = scf.for %arg3 = %c0 to %c255 step %c1 iter_args(%arg4 = %cst_2, %arg5 = %cst_2, %arg6 = %cst_2, %arg7 = %cst_2, %arg8 = %cst_2, %arg9 = %cst_2, %arg10 = %cst_2, %arg11 = %cst_2, %arg12 = %cst_2, %arg13 = %cst_2, %arg14 = %cst_2, %arg15 = %cst_2, %arg16 = %cst_2, %arg17 = %cst_2, %arg18 = %cst_2, %arg19 = %cst_2, %arg20 = %cst_2, %arg21 = %cst_2, %arg22 = %cst_2, %arg23 = %cst_2, %arg24 = %cst_2, %arg25 = %cst_2, %arg26 = %cst_2, %arg27 = %cst_2, %arg28 = %cst_2, %arg29 = %cst_2, %arg30 = %cst_2, %arg31 = %cst_2, %arg32 = %cst_2, %arg33 = %cst_2, %arg34 = %cst_2, %arg35 = %cst_2, %arg36 = %cst_2, %arg37 = %cst_2, %arg38 = %cst_2, %arg39 = %cst_2, %arg40 = %cst_2, %arg41 = %cst_2, %arg42 = %cst_2, %arg43 = %cst_2, %arg44 = %cst_2, %arg45 = %cst_2, %arg46 = %cst_2, %arg47 = %cst_2, %arg48 = %cst_2, %arg49 = %cst_2, %arg50 = %cst_2, %arg51 = %cst_2, %arg52 = %cst_2, %arg53 = %cst_2, %arg54 = %cst_2, %arg55 = %cst_2, %arg56 = %cst_2, %arg57 = %cst_2, %arg58 = %cst_2, %arg59 = %cst_2, %arg60 = %cst_2, %arg61 = %cst_2, %arg62 = %cst_2, %arg63 = %cst_2, %arg64 = %cst_2, %arg65 = %cst_2, %arg66 = %cst_2, %arg67 = %cst_2, %arg68 = %cst_2, %arg69 = %cst_2, %arg70 = %cst_2, %arg71 = %cst_2, %arg72 = %cst_2, %arg73 = %cst_2, %arg74 = %cst_2, %arg75 = %cst_2, %arg76 = %cst_2, %arg77 = %cst_2, %arg78 = %cst_2, %arg79 = %cst_2, %arg80 = %cst_2, %arg81 = %cst_2) -> (vector<16xf32>, vector<16xf32>, vector<16xf32>, vector<16xf32>, vector<16xf32>, vector<16xf32>, vector<16xf32>, vector<16xf32>, vector<16xf32>, vector<16xf32>, vector<16xf32>, vector<16xf32>, vector<16xf32>, vector<16xf32>, vector<16xf32>, vector<16xf32>, vector<16xf32>, vector<16xf32>, vector<16xf32>, vector<16xf32>, vector<16xf32>, vector<16xf32>, vector<16xf32>, vector<16xf32>, vector<16xf32>, vector<16xf32>, vector<16xf32>, vector<16xf32>, vector<16xf32>, vector<16xf32>, vector<16xf32>, vector<16xf32>, vector<16xf32>, vector<16xf32>, vector<16xf32>, vector<16xf32>, vector<16xf32>, vector<16xf32>, vector<16xf32>, vector<16xf32>, vector<16xf32>, vector<16xf32>, vector<16xf32>, vector<16xf32>, vector<16xf32>, vector<16xf32>, vector<16xf32>, vector<16xf32>, vector<16xf32>, vector<16xf32>, vector<16xf32>, vector<16xf32>, vector<16xf32>, vector<16xf32>, vector<16xf32>, vector<16xf32>, vector<16xf32>, vector<16xf32>, vector<16xf32>, vector<16xf32>, vector<16xf32>, vector<16xf32>, vector<16xf32>, vector<16xf32>, vector<16xf32>, vector<16xf32>, vector<16xf32>, vector<16xf32>, vector<16xf32>, vector<16xf32>, vector<16xf32>, vector<16xf32>, vector<16xf32>, vector<16xf32>, vector<16xf32>, vector<16xf32>, vector<16xf32>, vector<16xf32>) {
          amdgpu.lds_barrier
          %5844 = vector.maskedload %view[%116, %119], %118, %cst : memref<772x20xf16, #gpu.address_space<workgroup>>, vector<4xi1>, vector<4xf16> into vector<4xf16>
          %5845 = vector.maskedload %view[%116, %120], %118, %cst : memref<772x20xf16, #gpu.address_space<workgroup>>, vector<4xi1>, vector<4xf16> into vector<4xf16>
          %5846 = vector.maskedload %view[%121, %119], %123, %cst : memref<772x20xf16, #gpu.address_space<workgroup>>, vector<4xi1>, vector<4xf16> into vector<4xf16>
          %5847 = vector.maskedload %view[%121, %120], %123, %cst : memref<772x20xf16, #gpu.address_space<workgroup>>, vector<4xi1>, vector<4xf16> into vector<4xf16>
          %5848 = vector.maskedload %view[%124, %119], %126, %cst : memref<772x20xf16, #gpu.address_space<workgroup>>, vector<4xi1>, vector<4xf16> into vector<4xf16>
          %5849 = vector.maskedload %view[%124, %120], %126, %cst : memref<772x20xf16, #gpu.address_space<workgroup>>, vector<4xi1>, vector<4xf16> into vector<4xf16>
          %5850 = vector.maskedload %view[%127, %119], %129, %cst : memref<772x20xf16, #gpu.address_space<workgroup>>, vector<4xi1>, vector<4xf16> into vector<4xf16>
          %5851 = vector.maskedload %view[%127, %120], %129, %cst : memref<772x20xf16, #gpu.address_space<workgroup>>, vector<4xi1>, vector<4xf16> into vector<4xf16>
          %5852 = vector.maskedload %view[%130, %119], %132, %cst : memref<772x20xf16, #gpu.address_space<workgroup>>, vector<4xi1>, vector<4xf16> into vector<4xf16>
          %5853 = vector.maskedload %view[%130, %120], %132, %cst : memref<772x20xf16, #gpu.address_space<workgroup>>, vector<4xi1>, vector<4xf16> into vector<4xf16>
          %5854 = vector.maskedload %view[%133, %119], %135, %cst : memref<772x20xf16, #gpu.address_space<workgroup>>, vector<4xi1>, vector<4xf16> into vector<4xf16>
          %5855 = vector.maskedload %view[%133, %120], %135, %cst : memref<772x20xf16, #gpu.address_space<workgroup>>, vector<4xi1>, vector<4xf16> into vector<4xf16>
          %5856 = vector.maskedload %view[%136, %119], %138, %cst : memref<772x20xf16, #gpu.address_space<workgroup>>, vector<4xi1>, vector<4xf16> into vector<4xf16>
          %5857 = vector.maskedload %view[%136, %120], %138, %cst : memref<772x20xf16, #gpu.address_space<workgroup>>, vector<4xi1>, vector<4xf16> into vector<4xf16>
          %5858 = vector.maskedload %view[%139, %119], %141, %cst : memref<772x20xf16, #gpu.address_space<workgroup>>, vector<4xi1>, vector<4xf16> into vector<4xf16>
          %5859 = vector.maskedload %view[%139, %120], %141, %cst : memref<772x20xf16, #gpu.address_space<workgroup>>, vector<4xi1>, vector<4xf16> into vector<4xf16>
          %5860 = vector.maskedload %view[%142, %119], %144, %cst : memref<772x20xf16, #gpu.address_space<workgroup>>, vector<4xi1>, vector<4xf16> into vector<4xf16>
          %5861 = vector.maskedload %view[%142, %120], %144, %cst : memref<772x20xf16, #gpu.address_space<workgroup>>, vector<4xi1>, vector<4xf16> into vector<4xf16>
          %5862 = vector.maskedload %view[%145, %119], %147, %cst : memref<772x20xf16, #gpu.address_space<workgroup>>, vector<4xi1>, vector<4xf16> into vector<4xf16>
          %5863 = vector.maskedload %view[%145, %120], %147, %cst : memref<772x20xf16, #gpu.address_space<workgroup>>, vector<4xi1>, vector<4xf16> into vector<4xf16>
          %5864 = vector.maskedload %view[%148, %119], %150, %cst : memref<772x20xf16, #gpu.address_space<workgroup>>, vector<4xi1>, vector<4xf16> into vector<4xf16>
          %5865 = vector.maskedload %view[%148, %120], %150, %cst : memref<772x20xf16, #gpu.address_space<workgroup>>, vector<4xi1>, vector<4xf16> into vector<4xf16>
          %5866 = vector.maskedload %view[%151, %119], %153, %cst : memref<772x20xf16, #gpu.address_space<workgroup>>, vector<4xi1>, vector<4xf16> into vector<4xf16>
          %5867 = vector.maskedload %view[%151, %120], %153, %cst : memref<772x20xf16, #gpu.address_space<workgroup>>, vector<4xi1>, vector<4xf16> into vector<4xf16>
          %5868 = vector.maskedload %view[%154, %119], %156, %cst : memref<772x20xf16, #gpu.address_space<workgroup>>, vector<4xi1>, vector<4xf16> into vector<4xf16>
          %5869 = vector.maskedload %view[%154, %120], %156, %cst : memref<772x20xf16, #gpu.address_space<workgroup>>, vector<4xi1>, vector<4xf16> into vector<4xf16>
          %5870 = vector.maskedload %view_3[%157, %119], %159, %cst : memref<704x20xf16, #gpu.address_space<workgroup>>, vector<4xi1>, vector<4xf16> into vector<4xf16>
          %5871 = vector.maskedload %view_3[%157, %120], %159, %cst : memref<704x20xf16, #gpu.address_space<workgroup>>, vector<4xi1>, vector<4xf16> into vector<4xf16>
          %5872 = vector.maskedload %view_3[%160, %119], %162, %cst : memref<704x20xf16, #gpu.address_space<workgroup>>, vector<4xi1>, vector<4xf16> into vector<4xf16>
          %5873 = vector.maskedload %view_3[%160, %120], %162, %cst : memref<704x20xf16, #gpu.address_space<workgroup>>, vector<4xi1>, vector<4xf16> into vector<4xf16>
          %5874 = vector.maskedload %view_3[%163, %119], %165, %cst : memref<704x20xf16, #gpu.address_space<workgroup>>, vector<4xi1>, vector<4xf16> into vector<4xf16>
          %5875 = vector.maskedload %view_3[%163, %120], %165, %cst : memref<704x20xf16, #gpu.address_space<workgroup>>, vector<4xi1>, vector<4xf16> into vector<4xf16>
          %5876 = vector.maskedload %view_3[%166, %119], %168, %cst : memref<704x20xf16, #gpu.address_space<workgroup>>, vector<4xi1>, vector<4xf16> into vector<4xf16>
          %5877 = vector.maskedload %view_3[%166, %120], %168, %cst : memref<704x20xf16, #gpu.address_space<workgroup>>, vector<4xi1>, vector<4xf16> into vector<4xf16>
          %5878 = vector.maskedload %view_3[%169, %119], %171, %cst : memref<704x20xf16, #gpu.address_space<workgroup>>, vector<4xi1>, vector<4xf16> into vector<4xf16>
          %5879 = vector.maskedload %view_3[%169, %120], %171, %cst : memref<704x20xf16, #gpu.address_space<workgroup>>, vector<4xi1>, vector<4xf16> into vector<4xf16>
          %5880 = vector.maskedload %view_3[%172, %119], %174, %cst : memref<704x20xf16, #gpu.address_space<workgroup>>, vector<4xi1>, vector<4xf16> into vector<4xf16>
          %5881 = vector.maskedload %view_3[%172, %120], %174, %cst : memref<704x20xf16, #gpu.address_space<workgroup>>, vector<4xi1>, vector<4xf16> into vector<4xf16>
          %5882 = affine.apply #map39()[%arg3, %thread_id_x]
          %5883 = arith.addi %7, %5882 overflow<nsw> : index
          %5884 = arith.index_cast %5883 : index to i32
          %5885 = vector.broadcast %5884 : i32 to vector<8xi32>
          %5886 = arith.addi %5885, %cst_0 : vector<8xi32>
          %5887 = arith.index_cast %5886 : vector<8xi32> to vector<8xindex>
          %5888 = arith.select %5, %5887, %cst_1 : vector<8xi1>, vector<8xindex>
          %5889 = vector.extract %5888[0] : index from vector<8xindex>
          %5890 = vector.load %9[%5889] : memref<?xf16, #amdgpu.address_space<fat_raw_buffer>>, vector<8xf16>
          %5891 = arith.addi %20, %5882 overflow<nsw> : index
          %5892 = arith.index_cast %5891 : index to i32
          %5893 = vector.broadcast %5892 : i32 to vector<8xi32>
          %5894 = arith.addi %5893, %cst_0 : vector<8xi32>
          %5895 = arith.index_cast %5894 : vector<8xi32> to vector<8xindex>
          %5896 = arith.select %19, %5895, %cst_1 : vector<8xi1>, vector<8xindex>
          %5897 = vector.extract %5896[0] : index from vector<8xindex>
          %5898 = vector.load %9[%5897] : memref<?xf16, #amdgpu.address_space<fat_raw_buffer>>, vector<8xf16>
          %5899 = arith.addi %32, %5882 overflow<nsw> : index
          %5900 = arith.index_cast %5899 : index to i32
          %5901 = vector.broadcast %5900 : i32 to vector<8xi32>
          %5902 = arith.addi %5901, %cst_0 : vector<8xi32>
          %5903 = arith.index_cast %5902 : vector<8xi32> to vector<8xindex>
          %5904 = arith.select %31, %5903, %cst_1 : vector<8xi1>, vector<8xindex>
          %5905 = vector.extract %5904[0] : index from vector<8xindex>
          %5906 = vector.load %9[%5905] : memref<?xf16, #amdgpu.address_space<fat_raw_buffer>>, vector<8xf16>
          %5907 = arith.addi %45, %5882 overflow<nsw> : index
          %5908 = arith.index_cast %5907 : index to i32
          %5909 = vector.broadcast %5908 : i32 to vector<8xi32>
          %5910 = arith.addi %5909, %cst_0 : vector<8xi32>
          %5911 = arith.index_cast %5910 : vector<8xi32> to vector<8xindex>
          %5912 = arith.select %44, %5911, %cst_1 : vector<8xi1>, vector<8xindex>
          %5913 = vector.extract %5912[0] : index from vector<8xindex>
          %5914 = vector.load %47[%5913] : memref<?xf16, #amdgpu.address_space<fat_raw_buffer>>, vector<8xf16>
          %5915 = arith.addi %58, %5882 overflow<nsw> : index
          %5916 = arith.index_cast %5915 : index to i32
          %5917 = vector.broadcast %5916 : i32 to vector<8xi32>
          %5918 = arith.addi %5917, %cst_0 : vector<8xi32>
          %5919 = arith.index_cast %5918 : vector<8xi32> to vector<8xindex>
          %5920 = arith.select %57, %5919, %cst_1 : vector<8xi1>, vector<8xindex>
          %5921 = vector.extract %5920[0] : index from vector<8xindex>
          %5922 = vector.load %47[%5921] : memref<?xf16, #amdgpu.address_space<fat_raw_buffer>>, vector<8xf16>
          %5923 = arith.addi %70, %5882 overflow<nsw> : index
          %5924 = arith.index_cast %5923 : index to i32
          %5925 = vector.broadcast %5924 : i32 to vector<8xi32>
          %5926 = arith.addi %5925, %cst_0 : vector<8xi32>
          %5927 = arith.index_cast %5926 : vector<8xi32> to vector<8xindex>
          %5928 = arith.select %69, %5927, %cst_1 : vector<8xi1>, vector<8xindex>
          %5929 = vector.extract %5928[0] : index from vector<8xindex>
          %5930 = vector.load %47[%5929] : memref<?xf16, #amdgpu.address_space<fat_raw_buffer>>, vector<8xf16>
          %5931 = arith.addi %82, %5882 overflow<nsw> : index
          %5932 = arith.index_cast %5931 : index to i32
          %5933 = vector.broadcast %5932 : i32 to vector<8xi32>
          %5934 = arith.addi %5933, %cst_0 : vector<8xi32>
          %5935 = arith.index_cast %5934 : vector<8xi32> to vector<8xindex>
          %5936 = arith.select %81, %5935, %cst_1 : vector<8xi1>, vector<8xindex>
          %5937 = vector.extract %5936[0] : index from vector<8xindex>
          %5938 = vector.load %47[%5937] : memref<?xf16, #amdgpu.address_space<fat_raw_buffer>>, vector<8xf16>
          %5939 = amdgpu.mfma %5870 * %5844 + %arg4 {blocks = 1 : i32, k = 8 : i32, m = 32 : i32, n = 32 : i32} blgp =  none : vector<4xf16>, vector<4xf16>, vector<16xf32>
          %5940 = amdgpu.mfma %5871 * %5845 + %5939 {blocks = 1 : i32, k = 8 : i32, m = 32 : i32, n = 32 : i32} blgp =  none : vector<4xf16>, vector<4xf16>, vector<16xf32>
          %5941 = amdgpu.mfma %5870 * %5846 + %arg5 {blocks = 1 : i32, k = 8 : i32, m = 32 : i32, n = 32 : i32} blgp =  none : vector<4xf16>, vector<4xf16>, vector<16xf32>
          %5942 = amdgpu.mfma %5871 * %5847 + %5941 {blocks = 1 : i32, k = 8 : i32, m = 32 : i32, n = 32 : i32} blgp =  none : vector<4xf16>, vector<4xf16>, vector<16xf32>
          %5943 = amdgpu.mfma %5870 * %5848 + %arg6 {blocks = 1 : i32, k = 8 : i32, m = 32 : i32, n = 32 : i32} blgp =  none : vector<4xf16>, vector<4xf16>, vector<16xf32>
          %5944 = amdgpu.mfma %5871 * %5849 + %5943 {blocks = 1 : i32, k = 8 : i32, m = 32 : i32, n = 32 : i32} blgp =  none : vector<4xf16>, vector<4xf16>, vector<16xf32>
          %5945 = amdgpu.mfma %5870 * %5850 + %arg7 {blocks = 1 : i32, k = 8 : i32, m = 32 : i32, n = 32 : i32} blgp =  none : vector<4xf16>, vector<4xf16>, vector<16xf32>
          %5946 = amdgpu.mfma %5871 * %5851 + %5945 {blocks = 1 : i32, k = 8 : i32, m = 32 : i32, n = 32 : i32} blgp =  none : vector<4xf16>, vector<4xf16>, vector<16xf32>
          %5947 = amdgpu.mfma %5870 * %5852 + %arg8 {blocks = 1 : i32, k = 8 : i32, m = 32 : i32, n = 32 : i32} blgp =  none : vector<4xf16>, vector<4xf16>, vector<16xf32>
          %5948 = amdgpu.mfma %5871 * %5853 + %5947 {blocks = 1 : i32, k = 8 : i32, m = 32 : i32, n = 32 : i32} blgp =  none : vector<4xf16>, vector<4xf16>, vector<16xf32>
          %5949 = amdgpu.mfma %5870 * %5854 + %arg9 {blocks = 1 : i32, k = 8 : i32, m = 32 : i32, n = 32 : i32} blgp =  none : vector<4xf16>, vector<4xf16>, vector<16xf32>
          %5950 = amdgpu.mfma %5871 * %5855 + %5949 {blocks = 1 : i32, k = 8 : i32, m = 32 : i32, n = 32 : i32} blgp =  none : vector<4xf16>, vector<4xf16>, vector<16xf32>
          %5951 = amdgpu.mfma %5870 * %5856 + %arg10 {blocks = 1 : i32, k = 8 : i32, m = 32 : i32, n = 32 : i32} blgp =  none : vector<4xf16>, vector<4xf16>, vector<16xf32>
          %5952 = amdgpu.mfma %5871 * %5857 + %5951 {blocks = 1 : i32, k = 8 : i32, m = 32 : i32, n = 32 : i32} blgp =  none : vector<4xf16>, vector<4xf16>, vector<16xf32>
          %5953 = amdgpu.mfma %5870 * %5858 + %arg11 {blocks = 1 : i32, k = 8 : i32, m = 32 : i32, n = 32 : i32} blgp =  none : vector<4xf16>, vector<4xf16>, vector<16xf32>
          %5954 = amdgpu.mfma %5871 * %5859 + %5953 {blocks = 1 : i32, k = 8 : i32, m = 32 : i32, n = 32 : i32} blgp =  none : vector<4xf16>, vector<4xf16>, vector<16xf32>
          %5955 = amdgpu.mfma %5870 * %5860 + %arg12 {blocks = 1 : i32, k = 8 : i32, m = 32 : i32, n = 32 : i32} blgp =  none : vector<4xf16>, vector<4xf16>, vector<16xf32>
          %5956 = amdgpu.mfma %5871 * %5861 + %5955 {blocks = 1 : i32, k = 8 : i32, m = 32 : i32, n = 32 : i32} blgp =  none : vector<4xf16>, vector<4xf16>, vector<16xf32>
          %5957 = amdgpu.mfma %5870 * %5862 + %arg13 {blocks = 1 : i32, k = 8 : i32, m = 32 : i32, n = 32 : i32} blgp =  none : vector<4xf16>, vector<4xf16>, vector<16xf32>
          %5958 = amdgpu.mfma %5871 * %5863 + %5957 {blocks = 1 : i32, k = 8 : i32, m = 32 : i32, n = 32 : i32} blgp =  none : vector<4xf16>, vector<4xf16>, vector<16xf32>
          %5959 = amdgpu.mfma %5870 * %5864 + %arg14 {blocks = 1 : i32, k = 8 : i32, m = 32 : i32, n = 32 : i32} blgp =  none : vector<4xf16>, vector<4xf16>, vector<16xf32>
          %5960 = amdgpu.mfma %5871 * %5865 + %5959 {blocks = 1 : i32, k = 8 : i32, m = 32 : i32, n = 32 : i32} blgp =  none : vector<4xf16>, vector<4xf16>, vector<16xf32>
          %5961 = amdgpu.mfma %5870 * %5866 + %arg15 {blocks = 1 : i32, k = 8 : i32, m = 32 : i32, n = 32 : i32} blgp =  none : vector<4xf16>, vector<4xf16>, vector<16xf32>
          %5962 = amdgpu.mfma %5871 * %5867 + %5961 {blocks = 1 : i32, k = 8 : i32, m = 32 : i32, n = 32 : i32} blgp =  none : vector<4xf16>, vector<4xf16>, vector<16xf32>
          %5963 = amdgpu.mfma %5870 * %5868 + %arg16 {blocks = 1 : i32, k = 8 : i32, m = 32 : i32, n = 32 : i32} blgp =  none : vector<4xf16>, vector<4xf16>, vector<16xf32>
          %5964 = amdgpu.mfma %5871 * %5869 + %5963 {blocks = 1 : i32, k = 8 : i32, m = 32 : i32, n = 32 : i32} blgp =  none : vector<4xf16>, vector<4xf16>, vector<16xf32>
          %5965 = amdgpu.mfma %5872 * %5844 + %arg17 {blocks = 1 : i32, k = 8 : i32, m = 32 : i32, n = 32 : i32} blgp =  none : vector<4xf16>, vector<4xf16>, vector<16xf32>
          %5966 = amdgpu.mfma %5873 * %5845 + %5965 {blocks = 1 : i32, k = 8 : i32, m = 32 : i32, n = 32 : i32} blgp =  none : vector<4xf16>, vector<4xf16>, vector<16xf32>
          %5967 = amdgpu.mfma %5872 * %5846 + %arg18 {blocks = 1 : i32, k = 8 : i32, m = 32 : i32, n = 32 : i32} blgp =  none : vector<4xf16>, vector<4xf16>, vector<16xf32>
          %5968 = amdgpu.mfma %5873 * %5847 + %5967 {blocks = 1 : i32, k = 8 : i32, m = 32 : i32, n = 32 : i32} blgp =  none : vector<4xf16>, vector<4xf16>, vector<16xf32>
          %5969 = amdgpu.mfma %5872 * %5848 + %arg19 {blocks = 1 : i32, k = 8 : i32, m = 32 : i32, n = 32 : i32} blgp =  none : vector<4xf16>, vector<4xf16>, vector<16xf32>
          %5970 = amdgpu.mfma %5873 * %5849 + %5969 {blocks = 1 : i32, k = 8 : i32, m = 32 : i32, n = 32 : i32} blgp =  none : vector<4xf16>, vector<4xf16>, vector<16xf32>
          %5971 = amdgpu.mfma %5872 * %5850 + %arg20 {blocks = 1 : i32, k = 8 : i32, m = 32 : i32, n = 32 : i32} blgp =  none : vector<4xf16>, vector<4xf16>, vector<16xf32>
          %5972 = amdgpu.mfma %5873 * %5851 + %5971 {blocks = 1 : i32, k = 8 : i32, m = 32 : i32, n = 32 : i32} blgp =  none : vector<4xf16>, vector<4xf16>, vector<16xf32>
          %5973 = amdgpu.mfma %5872 * %5852 + %arg21 {blocks = 1 : i32, k = 8 : i32, m = 32 : i32, n = 32 : i32} blgp =  none : vector<4xf16>, vector<4xf16>, vector<16xf32>
          %5974 = amdgpu.mfma %5873 * %5853 + %5973 {blocks = 1 : i32, k = 8 : i32, m = 32 : i32, n = 32 : i32} blgp =  none : vector<4xf16>, vector<4xf16>, vector<16xf32>
          %5975 = amdgpu.mfma %5872 * %5854 + %arg22 {blocks = 1 : i32, k = 8 : i32, m = 32 : i32, n = 32 : i32} blgp =  none : vector<4xf16>, vector<4xf16>, vector<16xf32>
          %5976 = amdgpu.mfma %5873 * %5855 + %5975 {blocks = 1 : i32, k = 8 : i32, m = 32 : i32, n = 32 : i32} blgp =  none : vector<4xf16>, vector<4xf16>, vector<16xf32>
          %5977 = amdgpu.mfma %5872 * %5856 + %arg23 {blocks = 1 : i32, k = 8 : i32, m = 32 : i32, n = 32 : i32} blgp =  none : vector<4xf16>, vector<4xf16>, vector<16xf32>
          %5978 = amdgpu.mfma %5873 * %5857 + %5977 {blocks = 1 : i32, k = 8 : i32, m = 32 : i32, n = 32 : i32} blgp =  none : vector<4xf16>, vector<4xf16>, vector<16xf32>
          %5979 = amdgpu.mfma %5872 * %5858 + %arg24 {blocks = 1 : i32, k = 8 : i32, m = 32 : i32, n = 32 : i32} blgp =  none : vector<4xf16>, vector<4xf16>, vector<16xf32>
          %5980 = amdgpu.mfma %5873 * %5859 + %5979 {blocks = 1 : i32, k = 8 : i32, m = 32 : i32, n = 32 : i32} blgp =  none : vector<4xf16>, vector<4xf16>, vector<16xf32>
          %5981 = amdgpu.mfma %5872 * %5860 + %arg25 {blocks = 1 : i32, k = 8 : i32, m = 32 : i32, n = 32 : i32} blgp =  none : vector<4xf16>, vector<4xf16>, vector<16xf32>
          %5982 = amdgpu.mfma %5873 * %5861 + %5981 {blocks = 1 : i32, k = 8 : i32, m = 32 : i32, n = 32 : i32} blgp =  none : vector<4xf16>, vector<4xf16>, vector<16xf32>
          %5983 = amdgpu.mfma %5872 * %5862 + %arg26 {blocks = 1 : i32, k = 8 : i32, m = 32 : i32, n = 32 : i32} blgp =  none : vector<4xf16>, vector<4xf16>, vector<16xf32>
          %5984 = amdgpu.mfma %5873 * %5863 + %5983 {blocks = 1 : i32, k = 8 : i32, m = 32 : i32, n = 32 : i32} blgp =  none : vector<4xf16>, vector<4xf16>, vector<16xf32>
          %5985 = amdgpu.mfma %5872 * %5864 + %arg27 {blocks = 1 : i32, k = 8 : i32, m = 32 : i32, n = 32 : i32} blgp =  none : vector<4xf16>, vector<4xf16>, vector<16xf32>
          %5986 = amdgpu.mfma %5873 * %5865 + %5985 {blocks = 1 : i32, k = 8 : i32, m = 32 : i32, n = 32 : i32} blgp =  none : vector<4xf16>, vector<4xf16>, vector<16xf32>
          %5987 = amdgpu.mfma %5872 * %5866 + %arg28 {blocks = 1 : i32, k = 8 : i32, m = 32 : i32, n = 32 : i32} blgp =  none : vector<4xf16>, vector<4xf16>, vector<16xf32>
          %5988 = amdgpu.mfma %5873 * %5867 + %5987 {blocks = 1 : i32, k = 8 : i32, m = 32 : i32, n = 32 : i32} blgp =  none : vector<4xf16>, vector<4xf16>, vector<16xf32>
          %5989 = amdgpu.mfma %5872 * %5868 + %arg29 {blocks = 1 : i32, k = 8 : i32, m = 32 : i32, n = 32 : i32} blgp =  none : vector<4xf16>, vector<4xf16>, vector<16xf32>
          %5990 = amdgpu.mfma %5873 * %5869 + %5989 {blocks = 1 : i32, k = 8 : i32, m = 32 : i32, n = 32 : i32} blgp =  none : vector<4xf16>, vector<4xf16>, vector<16xf32>
          %5991 = amdgpu.mfma %5874 * %5844 + %arg30 {blocks = 1 : i32, k = 8 : i32, m = 32 : i32, n = 32 : i32} blgp =  none : vector<4xf16>, vector<4xf16>, vector<16xf32>
          %5992 = amdgpu.mfma %5875 * %5845 + %5991 {blocks = 1 : i32, k = 8 : i32, m = 32 : i32, n = 32 : i32} blgp =  none : vector<4xf16>, vector<4xf16>, vector<16xf32>
          %5993 = amdgpu.mfma %5874 * %5846 + %arg31 {blocks = 1 : i32, k = 8 : i32, m = 32 : i32, n = 32 : i32} blgp =  none : vector<4xf16>, vector<4xf16>, vector<16xf32>
          %5994 = amdgpu.mfma %5875 * %5847 + %5993 {blocks = 1 : i32, k = 8 : i32, m = 32 : i32, n = 32 : i32} blgp =  none : vector<4xf16>, vector<4xf16>, vector<16xf32>
          %5995 = amdgpu.mfma %5874 * %5848 + %arg32 {blocks = 1 : i32, k = 8 : i32, m = 32 : i32, n = 32 : i32} blgp =  none : vector<4xf16>, vector<4xf16>, vector<16xf32>
          %5996 = amdgpu.mfma %5875 * %5849 + %5995 {blocks = 1 : i32, k = 8 : i32, m = 32 : i32, n = 32 : i32} blgp =  none : vector<4xf16>, vector<4xf16>, vector<16xf32>
          %5997 = amdgpu.mfma %5874 * %5850 + %arg33 {blocks = 1 : i32, k = 8 : i32, m = 32 : i32, n = 32 : i32} blgp =  none : vector<4xf16>, vector<4xf16>, vector<16xf32>
          %5998 = amdgpu.mfma %5875 * %5851 + %5997 {blocks = 1 : i32, k = 8 : i32, m = 32 : i32, n = 32 : i32} blgp =  none : vector<4xf16>, vector<4xf16>, vector<16xf32>
          %5999 = amdgpu.mfma %5874 * %5852 + %arg34 {blocks = 1 : i32, k = 8 : i32, m = 32 : i32, n = 32 : i32} blgp =  none : vector<4xf16>, vector<4xf16>, vector<16xf32>
          %6000 = amdgpu.mfma %5875 * %5853 + %5999 {blocks = 1 : i32, k = 8 : i32, m = 32 : i32, n = 32 : i32} blgp =  none : vector<4xf16>, vector<4xf16>, vector<16xf32>
          %6001 = amdgpu.mfma %5874 * %5854 + %arg35 {blocks = 1 : i32, k = 8 : i32, m = 32 : i32, n = 32 : i32} blgp =  none : vector<4xf16>, vector<4xf16>, vector<16xf32>
          %6002 = amdgpu.mfma %5875 * %5855 + %6001 {blocks = 1 : i32, k = 8 : i32, m = 32 : i32, n = 32 : i32} blgp =  none : vector<4xf16>, vector<4xf16>, vector<16xf32>
          %6003 = amdgpu.mfma %5874 * %5856 + %arg36 {blocks = 1 : i32, k = 8 : i32, m = 32 : i32, n = 32 : i32} blgp =  none : vector<4xf16>, vector<4xf16>, vector<16xf32>
          %6004 = amdgpu.mfma %5875 * %5857 + %6003 {blocks = 1 : i32, k = 8 : i32, m = 32 : i32, n = 32 : i32} blgp =  none : vector<4xf16>, vector<4xf16>, vector<16xf32>
          %6005 = amdgpu.mfma %5874 * %5858 + %arg37 {blocks = 1 : i32, k = 8 : i32, m = 32 : i32, n = 32 : i32} blgp =  none : vector<4xf16>, vector<4xf16>, vector<16xf32>
          %6006 = amdgpu.mfma %5875 * %5859 + %6005 {blocks = 1 : i32, k = 8 : i32, m = 32 : i32, n = 32 : i32} blgp =  none : vector<4xf16>, vector<4xf16>, vector<16xf32>
          %6007 = amdgpu.mfma %5874 * %5860 + %arg38 {blocks = 1 : i32, k = 8 : i32, m = 32 : i32, n = 32 : i32} blgp =  none : vector<4xf16>, vector<4xf16>, vector<16xf32>
          %6008 = amdgpu.mfma %5875 * %5861 + %6007 {blocks = 1 : i32, k = 8 : i32, m = 32 : i32, n = 32 : i32} blgp =  none : vector<4xf16>, vector<4xf16>, vector<16xf32>
          %6009 = amdgpu.mfma %5874 * %5862 + %arg39 {blocks = 1 : i32, k = 8 : i32, m = 32 : i32, n = 32 : i32} blgp =  none : vector<4xf16>, vector<4xf16>, vector<16xf32>
          %6010 = amdgpu.mfma %5875 * %5863 + %6009 {blocks = 1 : i32, k = 8 : i32, m = 32 : i32, n = 32 : i32} blgp =  none : vector<4xf16>, vector<4xf16>, vector<16xf32>
          %6011 = amdgpu.mfma %5874 * %5864 + %arg40 {blocks = 1 : i32, k = 8 : i32, m = 32 : i32, n = 32 : i32} blgp =  none : vector<4xf16>, vector<4xf16>, vector<16xf32>
          %6012 = amdgpu.mfma %5875 * %5865 + %6011 {blocks = 1 : i32, k = 8 : i32, m = 32 : i32, n = 32 : i32} blgp =  none : vector<4xf16>, vector<4xf16>, vector<16xf32>
          %6013 = amdgpu.mfma %5874 * %5866 + %arg41 {blocks = 1 : i32, k = 8 : i32, m = 32 : i32, n = 32 : i32} blgp =  none : vector<4xf16>, vector<4xf16>, vector<16xf32>
          %6014 = amdgpu.mfma %5875 * %5867 + %6013 {blocks = 1 : i32, k = 8 : i32, m = 32 : i32, n = 32 : i32} blgp =  none : vector<4xf16>, vector<4xf16>, vector<16xf32>
          %6015 = amdgpu.mfma %5874 * %5868 + %arg42 {blocks = 1 : i32, k = 8 : i32, m = 32 : i32, n = 32 : i32} blgp =  none : vector<4xf16>, vector<4xf16>, vector<16xf32>
          %6016 = amdgpu.mfma %5875 * %5869 + %6015 {blocks = 1 : i32, k = 8 : i32, m = 32 : i32, n = 32 : i32} blgp =  none : vector<4xf16>, vector<4xf16>, vector<16xf32>
          %6017 = amdgpu.mfma %5876 * %5844 + %arg43 {blocks = 1 : i32, k = 8 : i32, m = 32 : i32, n = 32 : i32} blgp =  none : vector<4xf16>, vector<4xf16>, vector<16xf32>
          %6018 = amdgpu.mfma %5877 * %5845 + %6017 {blocks = 1 : i32, k = 8 : i32, m = 32 : i32, n = 32 : i32} blgp =  none : vector<4xf16>, vector<4xf16>, vector<16xf32>
          %6019 = amdgpu.mfma %5876 * %5846 + %arg44 {blocks = 1 : i32, k = 8 : i32, m = 32 : i32, n = 32 : i32} blgp =  none : vector<4xf16>, vector<4xf16>, vector<16xf32>
          %6020 = amdgpu.mfma %5877 * %5847 + %6019 {blocks = 1 : i32, k = 8 : i32, m = 32 : i32, n = 32 : i32} blgp =  none : vector<4xf16>, vector<4xf16>, vector<16xf32>
          %6021 = amdgpu.mfma %5876 * %5848 + %arg45 {blocks = 1 : i32, k = 8 : i32, m = 32 : i32, n = 32 : i32} blgp =  none : vector<4xf16>, vector<4xf16>, vector<16xf32>
          %6022 = amdgpu.mfma %5877 * %5849 + %6021 {blocks = 1 : i32, k = 8 : i32, m = 32 : i32, n = 32 : i32} blgp =  none : vector<4xf16>, vector<4xf16>, vector<16xf32>
          %6023 = amdgpu.mfma %5876 * %5850 + %arg46 {blocks = 1 : i32, k = 8 : i32, m = 32 : i32, n = 32 : i32} blgp =  none : vector<4xf16>, vector<4xf16>, vector<16xf32>
          %6024 = amdgpu.mfma %5877 * %5851 + %6023 {blocks = 1 : i32, k = 8 : i32, m = 32 : i32, n = 32 : i32} blgp =  none : vector<4xf16>, vector<4xf16>, vector<16xf32>
          %6025 = amdgpu.mfma %5876 * %5852 + %arg47 {blocks = 1 : i32, k = 8 : i32, m = 32 : i32, n = 32 : i32} blgp =  none : vector<4xf16>, vector<4xf16>, vector<16xf32>
          %6026 = amdgpu.mfma %5877 * %5853 + %6025 {blocks = 1 : i32, k = 8 : i32, m = 32 : i32, n = 32 : i32} blgp =  none : vector<4xf16>, vector<4xf16>, vector<16xf32>
          %6027 = amdgpu.mfma %5876 * %5854 + %arg48 {blocks = 1 : i32, k = 8 : i32, m = 32 : i32, n = 32 : i32} blgp =  none : vector<4xf16>, vector<4xf16>, vector<16xf32>
          %6028 = amdgpu.mfma %5877 * %5855 + %6027 {blocks = 1 : i32, k = 8 : i32, m = 32 : i32, n = 32 : i32} blgp =  none : vector<4xf16>, vector<4xf16>, vector<16xf32>
          %6029 = amdgpu.mfma %5876 * %5856 + %arg49 {blocks = 1 : i32, k = 8 : i32, m = 32 : i32, n = 32 : i32} blgp =  none : vector<4xf16>, vector<4xf16>, vector<16xf32>
          %6030 = amdgpu.mfma %5877 * %5857 + %6029 {blocks = 1 : i32, k = 8 : i32, m = 32 : i32, n = 32 : i32} blgp =  none : vector<4xf16>, vector<4xf16>, vector<16xf32>
          %6031 = amdgpu.mfma %5876 * %5858 + %arg50 {blocks = 1 : i32, k = 8 : i32, m = 32 : i32, n = 32 : i32} blgp =  none : vector<4xf16>, vector<4xf16>, vector<16xf32>
          %6032 = amdgpu.mfma %5877 * %5859 + %6031 {blocks = 1 : i32, k = 8 : i32, m = 32 : i32, n = 32 : i32} blgp =  none : vector<4xf16>, vector<4xf16>, vector<16xf32>
          %6033 = amdgpu.mfma %5876 * %5860 + %arg51 {blocks = 1 : i32, k = 8 : i32, m = 32 : i32, n = 32 : i32} blgp =  none : vector<4xf16>, vector<4xf16>, vector<16xf32>
          %6034 = amdgpu.mfma %5877 * %5861 + %6033 {blocks = 1 : i32, k = 8 : i32, m = 32 : i32, n = 32 : i32} blgp =  none : vector<4xf16>, vector<4xf16>, vector<16xf32>
          %6035 = amdgpu.mfma %5876 * %5862 + %arg52 {blocks = 1 : i32, k = 8 : i32, m = 32 : i32, n = 32 : i32} blgp =  none : vector<4xf16>, vector<4xf16>, vector<16xf32>
          %6036 = amdgpu.mfma %5877 * %5863 + %6035 {blocks = 1 : i32, k = 8 : i32, m = 32 : i32, n = 32 : i32} blgp =  none : vector<4xf16>, vector<4xf16>, vector<16xf32>
          %6037 = amdgpu.mfma %5876 * %5864 + %arg53 {blocks = 1 : i32, k = 8 : i32, m = 32 : i32, n = 32 : i32} blgp =  none : vector<4xf16>, vector<4xf16>, vector<16xf32>
          %6038 = amdgpu.mfma %5877 * %5865 + %6037 {blocks = 1 : i32, k = 8 : i32, m = 32 : i32, n = 32 : i32} blgp =  none : vector<4xf16>, vector<4xf16>, vector<16xf32>
          %6039 = amdgpu.mfma %5876 * %5866 + %arg54 {blocks = 1 : i32, k = 8 : i32, m = 32 : i32, n = 32 : i32} blgp =  none : vector<4xf16>, vector<4xf16>, vector<16xf32>
          %6040 = amdgpu.mfma %5877 * %5867 + %6039 {blocks = 1 : i32, k = 8 : i32, m = 32 : i32, n = 32 : i32} blgp =  none : vector<4xf16>, vector<4xf16>, vector<16xf32>
          %6041 = amdgpu.mfma %5876 * %5868 + %arg55 {blocks = 1 : i32, k = 8 : i32, m = 32 : i32, n = 32 : i32} blgp =  none : vector<4xf16>, vector<4xf16>, vector<16xf32>
          %6042 = amdgpu.mfma %5877 * %5869 + %6041 {blocks = 1 : i32, k = 8 : i32, m = 32 : i32, n = 32 : i32} blgp =  none : vector<4xf16>, vector<4xf16>, vector<16xf32>
          %6043 = amdgpu.mfma %5878 * %5844 + %arg56 {blocks = 1 : i32, k = 8 : i32, m = 32 : i32, n = 32 : i32} blgp =  none : vector<4xf16>, vector<4xf16>, vector<16xf32>
          %6044 = amdgpu.mfma %5879 * %5845 + %6043 {blocks = 1 : i32, k = 8 : i32, m = 32 : i32, n = 32 : i32} blgp =  none : vector<4xf16>, vector<4xf16>, vector<16xf32>
          %6045 = amdgpu.mfma %5878 * %5846 + %arg57 {blocks = 1 : i32, k = 8 : i32, m = 32 : i32, n = 32 : i32} blgp =  none : vector<4xf16>, vector<4xf16>, vector<16xf32>
          %6046 = amdgpu.mfma %5879 * %5847 + %6045 {blocks = 1 : i32, k = 8 : i32, m = 32 : i32, n = 32 : i32} blgp =  none : vector<4xf16>, vector<4xf16>, vector<16xf32>
          %6047 = amdgpu.mfma %5878 * %5848 + %arg58 {blocks = 1 : i32, k = 8 : i32, m = 32 : i32, n = 32 : i32} blgp =  none : vector<4xf16>, vector<4xf16>, vector<16xf32>
          %6048 = amdgpu.mfma %5879 * %5849 + %6047 {blocks = 1 : i32, k = 8 : i32, m = 32 : i32, n = 32 : i32} blgp =  none : vector<4xf16>, vector<4xf16>, vector<16xf32>
          %6049 = amdgpu.mfma %5878 * %5850 + %arg59 {blocks = 1 : i32, k = 8 : i32, m = 32 : i32, n = 32 : i32} blgp =  none : vector<4xf16>, vector<4xf16>, vector<16xf32>
          %6050 = amdgpu.mfma %5879 * %5851 + %6049 {blocks = 1 : i32, k = 8 : i32, m = 32 : i32, n = 32 : i32} blgp =  none : vector<4xf16>, vector<4xf16>, vector<16xf32>
          %6051 = amdgpu.mfma %5878 * %5852 + %arg60 {blocks = 1 : i32, k = 8 : i32, m = 32 : i32, n = 32 : i32} blgp =  none : vector<4xf16>, vector<4xf16>, vector<16xf32>
          %6052 = amdgpu.mfma %5879 * %5853 + %6051 {blocks = 1 : i32, k = 8 : i32, m = 32 : i32, n = 32 : i32} blgp =  none : vector<4xf16>, vector<4xf16>, vector<16xf32>
          %6053 = amdgpu.mfma %5878 * %5854 + %arg61 {blocks = 1 : i32, k = 8 : i32, m = 32 : i32, n = 32 : i32} blgp =  none : vector<4xf16>, vector<4xf16>, vector<16xf32>
          %6054 = amdgpu.mfma %5879 * %5855 + %6053 {blocks = 1 : i32, k = 8 : i32, m = 32 : i32, n = 32 : i32} blgp =  none : vector<4xf16>, vector<4xf16>, vector<16xf32>
          %6055 = amdgpu.mfma %5878 * %5856 + %arg62 {blocks = 1 : i32, k = 8 : i32, m = 32 : i32, n = 32 : i32} blgp =  none : vector<4xf16>, vector<4xf16>, vector<16xf32>
          %6056 = amdgpu.mfma %5879 * %5857 + %6055 {blocks = 1 : i32, k = 8 : i32, m = 32 : i32, n = 32 : i32} blgp =  none : vector<4xf16>, vector<4xf16>, vector<16xf32>
          %6057 = amdgpu.mfma %5878 * %5858 + %arg63 {blocks = 1 : i32, k = 8 : i32, m = 32 : i32, n = 32 : i32} blgp =  none : vector<4xf16>, vector<4xf16>, vector<16xf32>
          %6058 = amdgpu.mfma %5879 * %5859 + %6057 {blocks = 1 : i32, k = 8 : i32, m = 32 : i32, n = 32 : i32} blgp =  none : vector<4xf16>, vector<4xf16>, vector<16xf32>
          %6059 = amdgpu.mfma %5878 * %5860 + %arg64 {blocks = 1 : i32, k = 8 : i32, m = 32 : i32, n = 32 : i32} blgp =  none : vector<4xf16>, vector<4xf16>, vector<16xf32>
          %6060 = amdgpu.mfma %5879 * %5861 + %6059 {blocks = 1 : i32, k = 8 : i32, m = 32 : i32, n = 32 : i32} blgp =  none : vector<4xf16>, vector<4xf16>, vector<16xf32>
          %6061 = amdgpu.mfma %5878 * %5862 + %arg65 {blocks = 1 : i32, k = 8 : i32, m = 32 : i32, n = 32 : i32} blgp =  none : vector<4xf16>, vector<4xf16>, vector<16xf32>
          %6062 = amdgpu.mfma %5879 * %5863 + %6061 {blocks = 1 : i32, k = 8 : i32, m = 32 : i32, n = 32 : i32} blgp =  none : vector<4xf16>, vector<4xf16>, vector<16xf32>
          %6063 = amdgpu.mfma %5878 * %5864 + %arg66 {blocks = 1 : i32, k = 8 : i32, m = 32 : i32, n = 32 : i32} blgp =  none : vector<4xf16>, vector<4xf16>, vector<16xf32>
          %6064 = amdgpu.mfma %5879 * %5865 + %6063 {blocks = 1 : i32, k = 8 : i32, m = 32 : i32, n = 32 : i32} blgp =  none : vector<4xf16>, vector<4xf16>, vector<16xf32>
          %6065 = amdgpu.mfma %5878 * %5866 + %arg67 {blocks = 1 : i32, k = 8 : i32, m = 32 : i32, n = 32 : i32} blgp =  none : vector<4xf16>, vector<4xf16>, vector<16xf32>
          %6066 = amdgpu.mfma %5879 * %5867 + %6065 {blocks = 1 : i32, k = 8 : i32, m = 32 : i32, n = 32 : i32} blgp =  none : vector<4xf16>, vector<4xf16>, vector<16xf32>
          %6067 = amdgpu.mfma %5878 * %5868 + %arg68 {blocks = 1 : i32, k = 8 : i32, m = 32 : i32, n = 32 : i32} blgp =  none : vector<4xf16>, vector<4xf16>, vector<16xf32>
          %6068 = amdgpu.mfma %5879 * %5869 + %6067 {blocks = 1 : i32, k = 8 : i32, m = 32 : i32, n = 32 : i32} blgp =  none : vector<4xf16>, vector<4xf16>, vector<16xf32>
          %6069 = amdgpu.mfma %5880 * %5844 + %arg69 {blocks = 1 : i32, k = 8 : i32, m = 32 : i32, n = 32 : i32} blgp =  none : vector<4xf16>, vector<4xf16>, vector<16xf32>
          %6070 = amdgpu.mfma %5881 * %5845 + %6069 {blocks = 1 : i32, k = 8 : i32, m = 32 : i32, n = 32 : i32} blgp =  none : vector<4xf16>, vector<4xf16>, vector<16xf32>
          %6071 = amdgpu.mfma %5880 * %5846 + %arg70 {blocks = 1 : i32, k = 8 : i32, m = 32 : i32, n = 32 : i32} blgp =  none : vector<4xf16>, vector<4xf16>, vector<16xf32>
          %6072 = amdgpu.mfma %5881 * %5847 + %6071 {blocks = 1 : i32, k = 8 : i32, m = 32 : i32, n = 32 : i32} blgp =  none : vector<4xf16>, vector<4xf16>, vector<16xf32>
          %6073 = amdgpu.mfma %5880 * %5848 + %arg71 {blocks = 1 : i32, k = 8 : i32, m = 32 : i32, n = 32 : i32} blgp =  none : vector<4xf16>, vector<4xf16>, vector<16xf32>
          %6074 = amdgpu.mfma %5881 * %5849 + %6073 {blocks = 1 : i32, k = 8 : i32, m = 32 : i32, n = 32 : i32} blgp =  none : vector<4xf16>, vector<4xf16>, vector<16xf32>
          %6075 = amdgpu.mfma %5880 * %5850 + %arg72 {blocks = 1 : i32, k = 8 : i32, m = 32 : i32, n = 32 : i32} blgp =  none : vector<4xf16>, vector<4xf16>, vector<16xf32>
          %6076 = amdgpu.mfma %5881 * %5851 + %6075 {blocks = 1 : i32, k = 8 : i32, m = 32 : i32, n = 32 : i32} blgp =  none : vector<4xf16>, vector<4xf16>, vector<16xf32>
          %6077 = amdgpu.mfma %5880 * %5852 + %arg73 {blocks = 1 : i32, k = 8 : i32, m = 32 : i32, n = 32 : i32} blgp =  none : vector<4xf16>, vector<4xf16>, vector<16xf32>
          %6078 = amdgpu.mfma %5881 * %5853 + %6077 {blocks = 1 : i32, k = 8 : i32, m = 32 : i32, n = 32 : i32} blgp =  none : vector<4xf16>, vector<4xf16>, vector<16xf32>
          %6079 = amdgpu.mfma %5880 * %5854 + %arg74 {blocks = 1 : i32, k = 8 : i32, m = 32 : i32, n = 32 : i32} blgp =  none : vector<4xf16>, vector<4xf16>, vector<16xf32>
          %6080 = amdgpu.mfma %5881 * %5855 + %6079 {blocks = 1 : i32, k = 8 : i32, m = 32 : i32, n = 32 : i32} blgp =  none : vector<4xf16>, vector<4xf16>, vector<16xf32>
          %6081 = amdgpu.mfma %5880 * %5856 + %arg75 {blocks = 1 : i32, k = 8 : i32, m = 32 : i32, n = 32 : i32} blgp =  none : vector<4xf16>, vector<4xf16>, vector<16xf32>
          %6082 = amdgpu.mfma %5881 * %5857 + %6081 {blocks = 1 : i32, k = 8 : i32, m = 32 : i32, n = 32 : i32} blgp =  none : vector<4xf16>, vector<4xf16>, vector<16xf32>
          %6083 = amdgpu.mfma %5880 * %5858 + %arg76 {blocks = 1 : i32, k = 8 : i32, m = 32 : i32, n = 32 : i32} blgp =  none : vector<4xf16>, vector<4xf16>, vector<16xf32>
          %6084 = amdgpu.mfma %5881 * %5859 + %6083 {blocks = 1 : i32, k = 8 : i32, m = 32 : i32, n = 32 : i32} blgp =  none : vector<4xf16>, vector<4xf16>, vector<16xf32>
          %6085 = amdgpu.mfma %5880 * %5860 + %arg77 {blocks = 1 : i32, k = 8 : i32, m = 32 : i32, n = 32 : i32} blgp =  none : vector<4xf16>, vector<4xf16>, vector<16xf32>
          %6086 = amdgpu.mfma %5881 * %5861 + %6085 {blocks = 1 : i32, k = 8 : i32, m = 32 : i32, n = 32 : i32} blgp =  none : vector<4xf16>, vector<4xf16>, vector<16xf32>
          %6087 = amdgpu.mfma %5880 * %5862 + %arg78 {blocks = 1 : i32, k = 8 : i32, m = 32 : i32, n = 32 : i32} blgp =  none : vector<4xf16>, vector<4xf16>, vector<16xf32>
          %6088 = amdgpu.mfma %5881 * %5863 + %6087 {blocks = 1 : i32, k = 8 : i32, m = 32 : i32, n = 32 : i32} blgp =  none : vector<4xf16>, vector<4xf16>, vector<16xf32>
          %6089 = amdgpu.mfma %5880 * %5864 + %arg79 {blocks = 1 : i32, k = 8 : i32, m = 32 : i32, n = 32 : i32} blgp =  none : vector<4xf16>, vector<4xf16>, vector<16xf32>
          %6090 = amdgpu.mfma %5881 * %5865 + %6089 {blocks = 1 : i32, k = 8 : i32, m = 32 : i32, n = 32 : i32} blgp =  none : vector<4xf16>, vector<4xf16>, vector<16xf32>
          %6091 = amdgpu.mfma %5880 * %5866 + %arg80 {blocks = 1 : i32, k = 8 : i32, m = 32 : i32, n = 32 : i32} blgp =  none : vector<4xf16>, vector<4xf16>, vector<16xf32>
          %6092 = amdgpu.mfma %5881 * %5867 + %6091 {blocks = 1 : i32, k = 8 : i32, m = 32 : i32, n = 32 : i32} blgp =  none : vector<4xf16>, vector<4xf16>, vector<16xf32>
          %6093 = amdgpu.mfma %5880 * %5868 + %arg81 {blocks = 1 : i32, k = 8 : i32, m = 32 : i32, n = 32 : i32} blgp =  none : vector<4xf16>, vector<4xf16>, vector<16xf32>
          %6094 = amdgpu.mfma %5881 * %5869 + %6093 {blocks = 1 : i32, k = 8 : i32, m = 32 : i32, n = 32 : i32} blgp =  none : vector<4xf16>, vector<4xf16>, vector<16xf32>
          amdgpu.lds_barrier
          vector.maskedstore %view_3[%93, %6], %95, %5890 : memref<704x20xf16, #gpu.address_space<workgroup>>, vector<8xi1>, vector<8xf16>
          vector.maskedstore %view_3[%96, %6], %98, %5898 : memref<704x20xf16, #gpu.address_space<workgroup>>, vector<8xi1>, vector<8xf16>
          vector.maskedstore %view_3[%99, %6], %101, %5906 : memref<704x20xf16, #gpu.address_space<workgroup>>, vector<8xi1>, vector<8xf16>
          vector.maskedstore %view[%104, %6], %106, %5914 : memref<772x20xf16, #gpu.address_space<workgroup>>, vector<8xi1>, vector<8xf16>
          vector.maskedstore %view[%107, %6], %109, %5922 : memref<772x20xf16, #gpu.address_space<workgroup>>, vector<8xi1>, vector<8xf16>
          vector.maskedstore %view[%110, %6], %112, %5930 : memref<772x20xf16, #gpu.address_space<workgroup>>, vector<8xi1>, vector<8xf16>
          vector.maskedstore %view[%113, %6], %115, %5938 : memref<772x20xf16, #gpu.address_space<workgroup>>, vector<8xi1>, vector<8xf16>
          scf.yield %5940, %5942, %5944, %5946, %5948, %5950, %5952, %5954, %5956, %5958, %5960, %5962, %5964, %5966, %5968, %5970, %5972, %5974, %5976, %5978, %5980, %5982, %5984, %5986, %5988, %5990, %5992, %5994, %5996, %5998, %6000, %6002, %6004, %6006, %6008, %6010, %6012, %6014, %6016, %6018, %6020, %6022, %6024, %6026, %6028, %6030, %6032, %6034, %6036, %6038, %6040, %6042, %6044, %6046, %6048, %6050, %6052, %6054, %6056, %6058, %6060, %6062, %6064, %6066, %6068, %6070, %6072, %6074, %6076, %6078, %6080, %6082, %6084, %6086, %6088, %6090, %6092, %6094 : vector<16xf32>, vector<16xf32>, vector<16xf32>, vector<16xf32>, vector<16xf32>, vector<16xf32>, vector<16xf32>, vector<16xf32>, vector<16xf32>, vector<16xf32>, vector<16xf32>, vector<16xf32>, vector<16xf32>, vector<16xf32>, vector<16xf32>, vector<16xf32>, vector<16xf32>, vector<16xf32>, vector<16xf32>, vector<16xf32>, vector<16xf32>, vector<16xf32>, vector<16xf32>, vector<16xf32>, vector<16xf32>, vector<16xf32>, vector<16xf32>, vector<16xf32>, vector<16xf32>, vector<16xf32>, vector<16xf32>, vector<16xf32>, vector<16xf32>, vector<16xf32>, vector<16xf32>, vector<16xf32>, vector<16xf32>, vector<16xf32>, vector<16xf32>, vector<16xf32>, vector<16xf32>, vector<16xf32>, vector<16xf32>, vector<16xf32>, vector<16xf32>, vector<16xf32>, vector<16xf32>, vector<16xf32>, vector<16xf32>, vector<16xf32>, vector<16xf32>, vector<16xf32>, vector<16xf32>, vector<16xf32>, vector<16xf32>, vector<16xf32>, vector<16xf32>, vector<16xf32>, vector<16xf32>, vector<16xf32>, vector<16xf32>, vector<16xf32>, vector<16xf32>, vector<16xf32>, vector<16xf32>, vector<16xf32>, vector<16xf32>, vector<16xf32>, vector<16xf32>, vector<16xf32>, vector<16xf32>, vector<16xf32>, vector<16xf32>, vector<16xf32>, vector<16xf32>, vector<16xf32>, vector<16xf32>, vector<16xf32>
        }
        amdgpu.lds_barrier
        %176 = affine.apply #map18()[%thread_id_x, %thread_id_y]
        %177 = arith.cmpi slt, %176, %103 : index
        %178 = vector.broadcast %177 : i1 to vector<4xi1>
        %179 = affine.apply #map19()[%thread_id_x]
        %180 = vector.maskedload %view[%176, %179], %178, %cst : memref<772x20xf16, #gpu.address_space<workgroup>>, vector<4xi1>, vector<4xf16> into vector<4xf16>
        %181 = affine.apply #map20()[%thread_id_x]
        %182 = vector.maskedload %view[%176, %181], %178, %cst : memref<772x20xf16, #gpu.address_space<workgroup>>, vector<4xi1>, vector<4xf16> into vector<4xf16>
        %183 = affine.apply #map21()[%thread_id_x, %thread_id_y]
        %184 = arith.cmpi slt, %183, %103 : index
        %185 = vector.broadcast %184 : i1 to vector<4xi1>
        %186 = vector.maskedload %view[%183, %179], %185, %cst : memref<772x20xf16, #gpu.address_space<workgroup>>, vector<4xi1>, vector<4xf16> into vector<4xf16>
        %187 = vector.maskedload %view[%183, %181], %185, %cst : memref<772x20xf16, #gpu.address_space<workgroup>>, vector<4xi1>, vector<4xf16> into vector<4xf16>
        %188 = affine.apply #map22()[%thread_id_x, %thread_id_y]
        %189 = arith.cmpi slt, %188, %103 : index
        %190 = vector.broadcast %189 : i1 to vector<4xi1>
        %191 = vector.maskedload %view[%188, %179], %190, %cst : memref<772x20xf16, #gpu.address_space<workgroup>>, vector<4xi1>, vector<4xf16> into vector<4xf16>
        %192 = vector.maskedload %view[%188, %181], %190, %cst : memref<772x20xf16, #gpu.address_space<workgroup>>, vector<4xi1>, vector<4xf16> into vector<4xf16>
        %193 = affine.apply #map23()[%thread_id_x, %thread_id_y]
        %194 = arith.cmpi slt, %193, %103 : index
        %195 = vector.broadcast %194 : i1 to vector<4xi1>
        %196 = vector.maskedload %view[%193, %179], %195, %cst : memref<772x20xf16, #gpu.address_space<workgroup>>, vector<4xi1>, vector<4xf16> into vector<4xf16>
        %197 = vector.maskedload %view[%193, %181], %195, %cst : memref<772x20xf16, #gpu.address_space<workgroup>>, vector<4xi1>, vector<4xf16> into vector<4xf16>
        %198 = affine.apply #map24()[%thread_id_x, %thread_id_y]
        %199 = arith.cmpi slt, %198, %103 : index
        %200 = vector.broadcast %199 : i1 to vector<4xi1>
        %201 = vector.maskedload %view[%198, %179], %200, %cst : memref<772x20xf16, #gpu.address_space<workgroup>>, vector<4xi1>, vector<4xf16> into vector<4xf16>
        %202 = vector.maskedload %view[%198, %181], %200, %cst : memref<772x20xf16, #gpu.address_space<workgroup>>, vector<4xi1>, vector<4xf16> into vector<4xf16>
        %203 = affine.apply #map25()[%thread_id_x, %thread_id_y]
        %204 = arith.cmpi slt, %203, %103 : index
        %205 = vector.broadcast %204 : i1 to vector<4xi1>
        %206 = vector.maskedload %view[%203, %179], %205, %cst : memref<772x20xf16, #gpu.address_space<workgroup>>, vector<4xi1>, vector<4xf16> into vector<4xf16>
        %207 = vector.maskedload %view[%203, %181], %205, %cst : memref<772x20xf16, #gpu.address_space<workgroup>>, vector<4xi1>, vector<4xf16> into vector<4xf16>
        %208 = affine.apply #map26()[%thread_id_x, %thread_id_y]
        %209 = arith.cmpi slt, %208, %103 : index
        %210 = vector.broadcast %209 : i1 to vector<4xi1>
        %211 = vector.maskedload %view[%208, %179], %210, %cst : memref<772x20xf16, #gpu.address_space<workgroup>>, vector<4xi1>, vector<4xf16> into vector<4xf16>
        %212 = vector.maskedload %view[%208, %181], %210, %cst : memref<772x20xf16, #gpu.address_space<workgroup>>, vector<4xi1>, vector<4xf16> into vector<4xf16>
        %213 = affine.apply #map27()[%thread_id_x, %thread_id_y]
        %214 = arith.cmpi slt, %213, %103 : index
        %215 = vector.broadcast %214 : i1 to vector<4xi1>
        %216 = vector.maskedload %view[%213, %179], %215, %cst : memref<772x20xf16, #gpu.address_space<workgroup>>, vector<4xi1>, vector<4xf16> into vector<4xf16>
        %217 = vector.maskedload %view[%213, %181], %215, %cst : memref<772x20xf16, #gpu.address_space<workgroup>>, vector<4xi1>, vector<4xf16> into vector<4xf16>
        %218 = affine.apply #map28()[%thread_id_x, %thread_id_y]
        %219 = arith.cmpi slt, %218, %103 : index
        %220 = vector.broadcast %219 : i1 to vector<4xi1>
        %221 = vector.maskedload %view[%218, %179], %220, %cst : memref<772x20xf16, #gpu.address_space<workgroup>>, vector<4xi1>, vector<4xf16> into vector<4xf16>
        %222 = vector.maskedload %view[%218, %181], %220, %cst : memref<772x20xf16, #gpu.address_space<workgroup>>, vector<4xi1>, vector<4xf16> into vector<4xf16>
        %223 = affine.apply #map29()[%thread_id_x, %thread_id_y]
        %224 = arith.cmpi slt, %223, %103 : index
        %225 = vector.broadcast %224 : i1 to vector<4xi1>
        %226 = vector.maskedload %view[%223, %179], %225, %cst : memref<772x20xf16, #gpu.address_space<workgroup>>, vector<4xi1>, vector<4xf16> into vector<4xf16>
        %227 = vector.maskedload %view[%223, %181], %225, %cst : memref<772x20xf16, #gpu.address_space<workgroup>>, vector<4xi1>, vector<4xf16> into vector<4xf16>
        %228 = affine.apply #map30()[%thread_id_x, %thread_id_y]
        %229 = arith.cmpi slt, %228, %103 : index
        %230 = vector.broadcast %229 : i1 to vector<4xi1>
        %231 = vector.maskedload %view[%228, %179], %230, %cst : memref<772x20xf16, #gpu.address_space<workgroup>>, vector<4xi1>, vector<4xf16> into vector<4xf16>
        %232 = vector.maskedload %view[%228, %181], %230, %cst : memref<772x20xf16, #gpu.address_space<workgroup>>, vector<4xi1>, vector<4xf16> into vector<4xf16>
        %233 = affine.apply #map31()[%thread_id_x, %thread_id_y]
        %234 = arith.cmpi slt, %233, %103 : index
        %235 = vector.broadcast %234 : i1 to vector<4xi1>
        %236 = vector.maskedload %view[%233, %179], %235, %cst : memref<772x20xf16, #gpu.address_space<workgroup>>, vector<4xi1>, vector<4xf16> into vector<4xf16>
        %237 = vector.maskedload %view[%233, %181], %235, %cst : memref<772x20xf16, #gpu.address_space<workgroup>>, vector<4xi1>, vector<4xf16> into vector<4xf16>
        %238 = affine.apply #map32()[%thread_id_x, %thread_id_y]
        %239 = arith.cmpi slt, %238, %103 : index
        %240 = vector.broadcast %239 : i1 to vector<4xi1>
        %241 = vector.maskedload %view[%238, %179], %240, %cst : memref<772x20xf16, #gpu.address_space<workgroup>>, vector<4xi1>, vector<4xf16> into vector<4xf16>
        %242 = vector.maskedload %view[%238, %181], %240, %cst : memref<772x20xf16, #gpu.address_space<workgroup>>, vector<4xi1>, vector<4xf16> into vector<4xf16>
        %243 = affine.apply #map33()[%thread_id_x]
        %244 = arith.cmpi slt, %243, %92 : index
        %245 = vector.broadcast %244 : i1 to vector<4xi1>
        %246 = vector.maskedload %view_3[%243, %179], %245, %cst : memref<704x20xf16, #gpu.address_space<workgroup>>, vector<4xi1>, vector<4xf16> into vector<4xf16>
        %247 = vector.maskedload %view_3[%243, %181], %245, %cst : memref<704x20xf16, #gpu.address_space<workgroup>>, vector<4xi1>, vector<4xf16> into vector<4xf16>
        %248 = affine.apply #map34()[%thread_id_x]
        %249 = arith.cmpi slt, %248, %92 : index
        %250 = vector.broadcast %249 : i1 to vector<4xi1>
        %251 = vector.maskedload %view_3[%248, %179], %250, %cst : memref<704x20xf16, #gpu.address_space<workgroup>>, vector<4xi1>, vector<4xf16> into vector<4xf16>
        %252 = vector.maskedload %view_3[%248, %181], %250, %cst : memref<704x20xf16, #gpu.address_space<workgroup>>, vector<4xi1>, vector<4xf16> into vector<4xf16>
        %253 = affine.apply #map35()[%thread_id_x]
        %254 = arith.cmpi slt, %253, %92 : index
        %255 = vector.broadcast %254 : i1 to vector<4xi1>
        %256 = vector.maskedload %view_3[%253, %179], %255, %cst : memref<704x20xf16, #gpu.address_space<workgroup>>, vector<4xi1>, vector<4xf16> into vector<4xf16>
        %257 = vector.maskedload %view_3[%253, %181], %255, %cst : memref<704x20xf16, #gpu.address_space<workgroup>>, vector<4xi1>, vector<4xf16> into vector<4xf16>
        %258 = affine.apply #map36()[%thread_id_x]
        %259 = arith.cmpi slt, %258, %92 : index
        %260 = vector.broadcast %259 : i1 to vector<4xi1>
        %261 = vector.maskedload %view_3[%258, %179], %260, %cst : memref<704x20xf16, #gpu.address_space<workgroup>>, vector<4xi1>, vector<4xf16> into vector<4xf16>
        %262 = vector.maskedload %view_3[%258, %181], %260, %cst : memref<704x20xf16, #gpu.address_space<workgroup>>, vector<4xi1>, vector<4xf16> into vector<4xf16>
        %263 = affine.apply #map37()[%thread_id_x]
        %264 = arith.cmpi slt, %263, %92 : index
        %265 = vector.broadcast %264 : i1 to vector<4xi1>
        %266 = vector.maskedload %view_3[%263, %179], %265, %cst : memref<704x20xf16, #gpu.address_space<workgroup>>, vector<4xi1>, vector<4xf16> into vector<4xf16>
        %267 = vector.maskedload %view_3[%263, %181], %265, %cst : memref<704x20xf16, #gpu.address_space<workgroup>>, vector<4xi1>, vector<4xf16> into vector<4xf16>
        %268 = affine.apply #map38()[%thread_id_x]
        %269 = arith.cmpi slt, %268, %92 : index
        %270 = vector.broadcast %269 : i1 to vector<4xi1>
        %271 = vector.maskedload %view_3[%268, %179], %270, %cst : memref<704x20xf16, #gpu.address_space<workgroup>>, vector<4xi1>, vector<4xf16> into vector<4xf16>
        %272 = vector.maskedload %view_3[%268, %181], %270, %cst : memref<704x20xf16, #gpu.address_space<workgroup>>, vector<4xi1>, vector<4xf16> into vector<4xf16>
        %273 = amdgpu.mfma %246 * %180 + %175#0 {blocks = 1 : i32, k = 8 : i32, m = 32 : i32, n = 32 : i32} blgp =  none : vector<4xf16>, vector<4xf16>, vector<16xf32>
        %274 = amdgpu.mfma %247 * %182 + %273 {blocks = 1 : i32, k = 8 : i32, m = 32 : i32, n = 32 : i32} blgp =  none : vector<4xf16>, vector<4xf16>, vector<16xf32>
        %275 = amdgpu.mfma %246 * %186 + %175#1 {blocks = 1 : i32, k = 8 : i32, m = 32 : i32, n = 32 : i32} blgp =  none : vector<4xf16>, vector<4xf16>, vector<16xf32>
        %276 = amdgpu.mfma %247 * %187 + %275 {blocks = 1 : i32, k = 8 : i32, m = 32 : i32, n = 32 : i32} blgp =  none : vector<4xf16>, vector<4xf16>, vector<16xf32>
        %277 = amdgpu.mfma %246 * %191 + %175#2 {blocks = 1 : i32, k = 8 : i32, m = 32 : i32, n = 32 : i32} blgp =  none : vector<4xf16>, vector<4xf16>, vector<16xf32>
        %278 = amdgpu.mfma %247 * %192 + %277 {blocks = 1 : i32, k = 8 : i32, m = 32 : i32, n = 32 : i32} blgp =  none : vector<4xf16>, vector<4xf16>, vector<16xf32>
        %279 = amdgpu.mfma %246 * %196 + %175#3 {blocks = 1 : i32, k = 8 : i32, m = 32 : i32, n = 32 : i32} blgp =  none : vector<4xf16>, vector<4xf16>, vector<16xf32>
        %280 = amdgpu.mfma %247 * %197 + %279 {blocks = 1 : i32, k = 8 : i32, m = 32 : i32, n = 32 : i32} blgp =  none : vector<4xf16>, vector<4xf16>, vector<16xf32>
        %281 = amdgpu.mfma %246 * %201 + %175#4 {blocks = 1 : i32, k = 8 : i32, m = 32 : i32, n = 32 : i32} blgp =  none : vector<4xf16>, vector<4xf16>, vector<16xf32>
        %282 = amdgpu.mfma %247 * %202 + %281 {blocks = 1 : i32, k = 8 : i32, m = 32 : i32, n = 32 : i32} blgp =  none : vector<4xf16>, vector<4xf16>, vector<16xf32>
        %283 = amdgpu.mfma %246 * %206 + %175#5 {blocks = 1 : i32, k = 8 : i32, m = 32 : i32, n = 32 : i32} blgp =  none : vector<4xf16>, vector<4xf16>, vector<16xf32>
        %284 = amdgpu.mfma %247 * %207 + %283 {blocks = 1 : i32, k = 8 : i32, m = 32 : i32, n = 32 : i32} blgp =  none : vector<4xf16>, vector<4xf16>, vector<16xf32>
        %285 = amdgpu.mfma %246 * %211 + %175#6 {blocks = 1 : i32, k = 8 : i32, m = 32 : i32, n = 32 : i32} blgp =  none : vector<4xf16>, vector<4xf16>, vector<16xf32>
        %286 = amdgpu.mfma %247 * %212 + %285 {blocks = 1 : i32, k = 8 : i32, m = 32 : i32, n = 32 : i32} blgp =  none : vector<4xf16>, vector<4xf16>, vector<16xf32>
        %287 = amdgpu.mfma %246 * %216 + %175#7 {blocks = 1 : i32, k = 8 : i32, m = 32 : i32, n = 32 : i32} blgp =  none : vector<4xf16>, vector<4xf16>, vector<16xf32>
        %288 = amdgpu.mfma %247 * %217 + %287 {blocks = 1 : i32, k = 8 : i32, m = 32 : i32, n = 32 : i32} blgp =  none : vector<4xf16>, vector<4xf16>, vector<16xf32>
        %289 = amdgpu.mfma %246 * %221 + %175#8 {blocks = 1 : i32, k = 8 : i32, m = 32 : i32, n = 32 : i32} blgp =  none : vector<4xf16>, vector<4xf16>, vector<16xf32>
        %290 = amdgpu.mfma %247 * %222 + %289 {blocks = 1 : i32, k = 8 : i32, m = 32 : i32, n = 32 : i32} blgp =  none : vector<4xf16>, vector<4xf16>, vector<16xf32>
        %291 = amdgpu.mfma %246 * %226 + %175#9 {blocks = 1 : i32, k = 8 : i32, m = 32 : i32, n = 32 : i32} blgp =  none : vector<4xf16>, vector<4xf16>, vector<16xf32>
        %292 = amdgpu.mfma %247 * %227 + %291 {blocks = 1 : i32, k = 8 : i32, m = 32 : i32, n = 32 : i32} blgp =  none : vector<4xf16>, vector<4xf16>, vector<16xf32>
        %293 = amdgpu.mfma %246 * %231 + %175#10 {blocks = 1 : i32, k = 8 : i32, m = 32 : i32, n = 32 : i32} blgp =  none : vector<4xf16>, vector<4xf16>, vector<16xf32>
        %294 = amdgpu.mfma %247 * %232 + %293 {blocks = 1 : i32, k = 8 : i32, m = 32 : i32, n = 32 : i32} blgp =  none : vector<4xf16>, vector<4xf16>, vector<16xf32>
        %295 = amdgpu.mfma %246 * %236 + %175#11 {blocks = 1 : i32, k = 8 : i32, m = 32 : i32, n = 32 : i32} blgp =  none : vector<4xf16>, vector<4xf16>, vector<16xf32>
        %296 = amdgpu.mfma %247 * %237 + %295 {blocks = 1 : i32, k = 8 : i32, m = 32 : i32, n = 32 : i32} blgp =  none : vector<4xf16>, vector<4xf16>, vector<16xf32>
        %297 = amdgpu.mfma %246 * %241 + %175#12 {blocks = 1 : i32, k = 8 : i32, m = 32 : i32, n = 32 : i32} blgp =  none : vector<4xf16>, vector<4xf16>, vector<16xf32>
        %298 = amdgpu.mfma %247 * %242 + %297 {blocks = 1 : i32, k = 8 : i32, m = 32 : i32, n = 32 : i32} blgp =  none : vector<4xf16>, vector<4xf16>, vector<16xf32>
        %299 = amdgpu.mfma %251 * %180 + %175#13 {blocks = 1 : i32, k = 8 : i32, m = 32 : i32, n = 32 : i32} blgp =  none : vector<4xf16>, vector<4xf16>, vector<16xf32>
        %300 = amdgpu.mfma %252 * %182 + %299 {blocks = 1 : i32, k = 8 : i32, m = 32 : i32, n = 32 : i32} blgp =  none : vector<4xf16>, vector<4xf16>, vector<16xf32>
        %301 = amdgpu.mfma %251 * %186 + %175#14 {blocks = 1 : i32, k = 8 : i32, m = 32 : i32, n = 32 : i32} blgp =  none : vector<4xf16>, vector<4xf16>, vector<16xf32>
        %302 = amdgpu.mfma %252 * %187 + %301 {blocks = 1 : i32, k = 8 : i32, m = 32 : i32, n = 32 : i32} blgp =  none : vector<4xf16>, vector<4xf16>, vector<16xf32>
        %303 = amdgpu.mfma %251 * %191 + %175#15 {blocks = 1 : i32, k = 8 : i32, m = 32 : i32, n = 32 : i32} blgp =  none : vector<4xf16>, vector<4xf16>, vector<16xf32>
        %304 = amdgpu.mfma %252 * %192 + %303 {blocks = 1 : i32, k = 8 : i32, m = 32 : i32, n = 32 : i32} blgp =  none : vector<4xf16>, vector<4xf16>, vector<16xf32>
        %305 = amdgpu.mfma %251 * %196 + %175#16 {blocks = 1 : i32, k = 8 : i32, m = 32 : i32, n = 32 : i32} blgp =  none : vector<4xf16>, vector<4xf16>, vector<16xf32>
        %306 = amdgpu.mfma %252 * %197 + %305 {blocks = 1 : i32, k = 8 : i32, m = 32 : i32, n = 32 : i32} blgp =  none : vector<4xf16>, vector<4xf16>, vector<16xf32>
        %307 = amdgpu.mfma %251 * %201 + %175#17 {blocks = 1 : i32, k = 8 : i32, m = 32 : i32, n = 32 : i32} blgp =  none : vector<4xf16>, vector<4xf16>, vector<16xf32>
        %308 = amdgpu.mfma %252 * %202 + %307 {blocks = 1 : i32, k = 8 : i32, m = 32 : i32, n = 32 : i32} blgp =  none : vector<4xf16>, vector<4xf16>, vector<16xf32>
        %309 = amdgpu.mfma %251 * %206 + %175#18 {blocks = 1 : i32, k = 8 : i32, m = 32 : i32, n = 32 : i32} blgp =  none : vector<4xf16>, vector<4xf16>, vector<16xf32>
        %310 = amdgpu.mfma %252 * %207 + %309 {blocks = 1 : i32, k = 8 : i32, m = 32 : i32, n = 32 : i32} blgp =  none : vector<4xf16>, vector<4xf16>, vector<16xf32>
        %311 = amdgpu.mfma %251 * %211 + %175#19 {blocks = 1 : i32, k = 8 : i32, m = 32 : i32, n = 32 : i32} blgp =  none : vector<4xf16>, vector<4xf16>, vector<16xf32>
        %312 = amdgpu.mfma %252 * %212 + %311 {blocks = 1 : i32, k = 8 : i32, m = 32 : i32, n = 32 : i32} blgp =  none : vector<4xf16>, vector<4xf16>, vector<16xf32>
        %313 = amdgpu.mfma %251 * %216 + %175#20 {blocks = 1 : i32, k = 8 : i32, m = 32 : i32, n = 32 : i32} blgp =  none : vector<4xf16>, vector<4xf16>, vector<16xf32>
        %314 = amdgpu.mfma %252 * %217 + %313 {blocks = 1 : i32, k = 8 : i32, m = 32 : i32, n = 32 : i32} blgp =  none : vector<4xf16>, vector<4xf16>, vector<16xf32>
        %315 = amdgpu.mfma %251 * %221 + %175#21 {blocks = 1 : i32, k = 8 : i32, m = 32 : i32, n = 32 : i32} blgp =  none : vector<4xf16>, vector<4xf16>, vector<16xf32>
        %316 = amdgpu.mfma %252 * %222 + %315 {blocks = 1 : i32, k = 8 : i32, m = 32 : i32, n = 32 : i32} blgp =  none : vector<4xf16>, vector<4xf16>, vector<16xf32>
        %317 = amdgpu.mfma %251 * %226 + %175#22 {blocks = 1 : i32, k = 8 : i32, m = 32 : i32, n = 32 : i32} blgp =  none : vector<4xf16>, vector<4xf16>, vector<16xf32>
        %318 = amdgpu.mfma %252 * %227 + %317 {blocks = 1 : i32, k = 8 : i32, m = 32 : i32, n = 32 : i32} blgp =  none : vector<4xf16>, vector<4xf16>, vector<16xf32>
        %319 = amdgpu.mfma %251 * %231 + %175#23 {blocks = 1 : i32, k = 8 : i32, m = 32 : i32, n = 32 : i32} blgp =  none : vector<4xf16>, vector<4xf16>, vector<16xf32>
        %320 = amdgpu.mfma %252 * %232 + %319 {blocks = 1 : i32, k = 8 : i32, m = 32 : i32, n = 32 : i32} blgp =  none : vector<4xf16>, vector<4xf16>, vector<16xf32>
        %321 = amdgpu.mfma %251 * %236 + %175#24 {blocks = 1 : i32, k = 8 : i32, m = 32 : i32, n = 32 : i32} blgp =  none : vector<4xf16>, vector<4xf16>, vector<16xf32>
        %322 = amdgpu.mfma %252 * %237 + %321 {blocks = 1 : i32, k = 8 : i32, m = 32 : i32, n = 32 : i32} blgp =  none : vector<4xf16>, vector<4xf16>, vector<16xf32>
        %323 = amdgpu.mfma %251 * %241 + %175#25 {blocks = 1 : i32, k = 8 : i32, m = 32 : i32, n = 32 : i32} blgp =  none : vector<4xf16>, vector<4xf16>, vector<16xf32>
        %324 = amdgpu.mfma %252 * %242 + %323 {blocks = 1 : i32, k = 8 : i32, m = 32 : i32, n = 32 : i32} blgp =  none : vector<4xf16>, vector<4xf16>, vector<16xf32>
        %325 = amdgpu.mfma %256 * %180 + %175#26 {blocks = 1 : i32, k = 8 : i32, m = 32 : i32, n = 32 : i32} blgp =  none : vector<4xf16>, vector<4xf16>, vector<16xf32>
        %326 = amdgpu.mfma %257 * %182 + %325 {blocks = 1 : i32, k = 8 : i32, m = 32 : i32, n = 32 : i32} blgp =  none : vector<4xf16>, vector<4xf16>, vector<16xf32>
        %327 = amdgpu.mfma %256 * %186 + %175#27 {blocks = 1 : i32, k = 8 : i32, m = 32 : i32, n = 32 : i32} blgp =  none : vector<4xf16>, vector<4xf16>, vector<16xf32>
        %328 = amdgpu.mfma %257 * %187 + %327 {blocks = 1 : i32, k = 8 : i32, m = 32 : i32, n = 32 : i32} blgp =  none : vector<4xf16>, vector<4xf16>, vector<16xf32>
        %329 = amdgpu.mfma %256 * %191 + %175#28 {blocks = 1 : i32, k = 8 : i32, m = 32 : i32, n = 32 : i32} blgp =  none : vector<4xf16>, vector<4xf16>, vector<16xf32>
        %330 = amdgpu.mfma %257 * %192 + %329 {blocks = 1 : i32, k = 8 : i32, m = 32 : i32, n = 32 : i32} blgp =  none : vector<4xf16>, vector<4xf16>, vector<16xf32>
        %331 = amdgpu.mfma %256 * %196 + %175#29 {blocks = 1 : i32, k = 8 : i32, m = 32 : i32, n = 32 : i32} blgp =  none : vector<4xf16>, vector<4xf16>, vector<16xf32>
        %332 = amdgpu.mfma %257 * %197 + %331 {blocks = 1 : i32, k = 8 : i32, m = 32 : i32, n = 32 : i32} blgp =  none : vector<4xf16>, vector<4xf16>, vector<16xf32>
        %333 = amdgpu.mfma %256 * %201 + %175#30 {blocks = 1 : i32, k = 8 : i32, m = 32 : i32, n = 32 : i32} blgp =  none : vector<4xf16>, vector<4xf16>, vector<16xf32>
        %334 = amdgpu.mfma %257 * %202 + %333 {blocks = 1 : i32, k = 8 : i32, m = 32 : i32, n = 32 : i32} blgp =  none : vector<4xf16>, vector<4xf16>, vector<16xf32>
        %335 = amdgpu.mfma %256 * %206 + %175#31 {blocks = 1 : i32, k = 8 : i32, m = 32 : i32, n = 32 : i32} blgp =  none : vector<4xf16>, vector<4xf16>, vector<16xf32>
        %336 = amdgpu.mfma %257 * %207 + %335 {blocks = 1 : i32, k = 8 : i32, m = 32 : i32, n = 32 : i32} blgp =  none : vector<4xf16>, vector<4xf16>, vector<16xf32>
        %337 = amdgpu.mfma %256 * %211 + %175#32 {blocks = 1 : i32, k = 8 : i32, m = 32 : i32, n = 32 : i32} blgp =  none : vector<4xf16>, vector<4xf16>, vector<16xf32>
        %338 = amdgpu.mfma %257 * %212 + %337 {blocks = 1 : i32, k = 8 : i32, m = 32 : i32, n = 32 : i32} blgp =  none : vector<4xf16>, vector<4xf16>, vector<16xf32>
        %339 = amdgpu.mfma %256 * %216 + %175#33 {blocks = 1 : i32, k = 8 : i32, m = 32 : i32, n = 32 : i32} blgp =  none : vector<4xf16>, vector<4xf16>, vector<16xf32>
        %340 = amdgpu.mfma %257 * %217 + %339 {blocks = 1 : i32, k = 8 : i32, m = 32 : i32, n = 32 : i32} blgp =  none : vector<4xf16>, vector<4xf16>, vector<16xf32>
        %341 = amdgpu.mfma %256 * %221 + %175#34 {blocks = 1 : i32, k = 8 : i32, m = 32 : i32, n = 32 : i32} blgp =  none : vector<4xf16>, vector<4xf16>, vector<16xf32>
        %342 = amdgpu.mfma %257 * %222 + %341 {blocks = 1 : i32, k = 8 : i32, m = 32 : i32, n = 32 : i32} blgp =  none : vector<4xf16>, vector<4xf16>, vector<16xf32>
        %343 = amdgpu.mfma %256 * %226 + %175#35 {blocks = 1 : i32, k = 8 : i32, m = 32 : i32, n = 32 : i32} blgp =  none : vector<4xf16>, vector<4xf16>, vector<16xf32>
        %344 = amdgpu.mfma %257 * %227 + %343 {blocks = 1 : i32, k = 8 : i32, m = 32 : i32, n = 32 : i32} blgp =  none : vector<4xf16>, vector<4xf16>, vector<16xf32>
        %345 = amdgpu.mfma %256 * %231 + %175#36 {blocks = 1 : i32, k = 8 : i32, m = 32 : i32, n = 32 : i32} blgp =  none : vector<4xf16>, vector<4xf16>, vector<16xf32>
        %346 = amdgpu.mfma %257 * %232 + %345 {blocks = 1 : i32, k = 8 : i32, m = 32 : i32, n = 32 : i32} blgp =  none : vector<4xf16>, vector<4xf16>, vector<16xf32>
        %347 = amdgpu.mfma %256 * %236 + %175#37 {blocks = 1 : i32, k = 8 : i32, m = 32 : i32, n = 32 : i32} blgp =  none : vector<4xf16>, vector<4xf16>, vector<16xf32>
        %348 = amdgpu.mfma %257 * %237 + %347 {blocks = 1 : i32, k = 8 : i32, m = 32 : i32, n = 32 : i32} blgp =  none : vector<4xf16>, vector<4xf16>, vector<16xf32>
        %349 = amdgpu.mfma %256 * %241 + %175#38 {blocks = 1 : i32, k = 8 : i32, m = 32 : i32, n = 32 : i32} blgp =  none : vector<4xf16>, vector<4xf16>, vector<16xf32>
        %350 = amdgpu.mfma %257 * %242 + %349 {blocks = 1 : i32, k = 8 : i32, m = 32 : i32, n = 32 : i32} blgp =  none : vector<4xf16>, vector<4xf16>, vector<16xf32>
        %351 = amdgpu.mfma %261 * %180 + %175#39 {blocks = 1 : i32, k = 8 : i32, m = 32 : i32, n = 32 : i32} blgp =  none : vector<4xf16>, vector<4xf16>, vector<16xf32>
        %352 = amdgpu.mfma %262 * %182 + %351 {blocks = 1 : i32, k = 8 : i32, m = 32 : i32, n = 32 : i32} blgp =  none : vector<4xf16>, vector<4xf16>, vector<16xf32>
        %353 = amdgpu.mfma %261 * %186 + %175#40 {blocks = 1 : i32, k = 8 : i32, m = 32 : i32, n = 32 : i32} blgp =  none : vector<4xf16>, vector<4xf16>, vector<16xf32>
        %354 = amdgpu.mfma %262 * %187 + %353 {blocks = 1 : i32, k = 8 : i32, m = 32 : i32, n = 32 : i32} blgp =  none : vector<4xf16>, vector<4xf16>, vector<16xf32>
        %355 = amdgpu.mfma %261 * %191 + %175#41 {blocks = 1 : i32, k = 8 : i32, m = 32 : i32, n = 32 : i32} blgp =  none : vector<4xf16>, vector<4xf16>, vector<16xf32>
        %356 = amdgpu.mfma %262 * %192 + %355 {blocks = 1 : i32, k = 8 : i32, m = 32 : i32, n = 32 : i32} blgp =  none : vector<4xf16>, vector<4xf16>, vector<16xf32>
        %357 = amdgpu.mfma %261 * %196 + %175#42 {blocks = 1 : i32, k = 8 : i32, m = 32 : i32, n = 32 : i32} blgp =  none : vector<4xf16>, vector<4xf16>, vector<16xf32>
        %358 = amdgpu.mfma %262 * %197 + %357 {blocks = 1 : i32, k = 8 : i32, m = 32 : i32, n = 32 : i32} blgp =  none : vector<4xf16>, vector<4xf16>, vector<16xf32>
        %359 = amdgpu.mfma %261 * %201 + %175#43 {blocks = 1 : i32, k = 8 : i32, m = 32 : i32, n = 32 : i32} blgp =  none : vector<4xf16>, vector<4xf16>, vector<16xf32>
        %360 = amdgpu.mfma %262 * %202 + %359 {blocks = 1 : i32, k = 8 : i32, m = 32 : i32, n = 32 : i32} blgp =  none : vector<4xf16>, vector<4xf16>, vector<16xf32>
        %361 = amdgpu.mfma %261 * %206 + %175#44 {blocks = 1 : i32, k = 8 : i32, m = 32 : i32, n = 32 : i32} blgp =  none : vector<4xf16>, vector<4xf16>, vector<16xf32>
        %362 = amdgpu.mfma %262 * %207 + %361 {blocks = 1 : i32, k = 8 : i32, m = 32 : i32, n = 32 : i32} blgp =  none : vector<4xf16>, vector<4xf16>, vector<16xf32>
        %363 = amdgpu.mfma %261 * %211 + %175#45 {blocks = 1 : i32, k = 8 : i32, m = 32 : i32, n = 32 : i32} blgp =  none : vector<4xf16>, vector<4xf16>, vector<16xf32>
        %364 = amdgpu.mfma %262 * %212 + %363 {blocks = 1 : i32, k = 8 : i32, m = 32 : i32, n = 32 : i32} blgp =  none : vector<4xf16>, vector<4xf16>, vector<16xf32>
        %365 = amdgpu.mfma %261 * %216 + %175#46 {blocks = 1 : i32, k = 8 : i32, m = 32 : i32, n = 32 : i32} blgp =  none : vector<4xf16>, vector<4xf16>, vector<16xf32>
        %366 = amdgpu.mfma %262 * %217 + %365 {blocks = 1 : i32, k = 8 : i32, m = 32 : i32, n = 32 : i32} blgp =  none : vector<4xf16>, vector<4xf16>, vector<16xf32>
        %367 = amdgpu.mfma %261 * %221 + %175#47 {blocks = 1 : i32, k = 8 : i32, m = 32 : i32, n = 32 : i32} blgp =  none : vector<4xf16>, vector<4xf16>, vector<16xf32>
        %368 = amdgpu.mfma %262 * %222 + %367 {blocks = 1 : i32, k = 8 : i32, m = 32 : i32, n = 32 : i32} blgp =  none : vector<4xf16>, vector<4xf16>, vector<16xf32>
        %369 = amdgpu.mfma %261 * %226 + %175#48 {blocks = 1 : i32, k = 8 : i32, m = 32 : i32, n = 32 : i32} blgp =  none : vector<4xf16>, vector<4xf16>, vector<16xf32>
        %370 = amdgpu.mfma %262 * %227 + %369 {blocks = 1 : i32, k = 8 : i32, m = 32 : i32, n = 32 : i32} blgp =  none : vector<4xf16>, vector<4xf16>, vector<16xf32>
        %371 = amdgpu.mfma %261 * %231 + %175#49 {blocks = 1 : i32, k = 8 : i32, m = 32 : i32, n = 32 : i32} blgp =  none : vector<4xf16>, vector<4xf16>, vector<16xf32>
        %372 = amdgpu.mfma %262 * %232 + %371 {blocks = 1 : i32, k = 8 : i32, m = 32 : i32, n = 32 : i32} blgp =  none : vector<4xf16>, vector<4xf16>, vector<16xf32>
        %373 = amdgpu.mfma %261 * %236 + %175#50 {blocks = 1 : i32, k = 8 : i32, m = 32 : i32, n = 32 : i32} blgp =  none : vector<4xf16>, vector<4xf16>, vector<16xf32>
        %374 = amdgpu.mfma %262 * %237 + %373 {blocks = 1 : i32, k = 8 : i32, m = 32 : i32, n = 32 : i32} blgp =  none : vector<4xf16>, vector<4xf16>, vector<16xf32>
        %375 = amdgpu.mfma %261 * %241 + %175#51 {blocks = 1 : i32, k = 8 : i32, m = 32 : i32, n = 32 : i32} blgp =  none : vector<4xf16>, vector<4xf16>, vector<16xf32>
        %376 = amdgpu.mfma %262 * %242 + %375 {blocks = 1 : i32, k = 8 : i32, m = 32 : i32, n = 32 : i32} blgp =  none : vector<4xf16>, vector<4xf16>, vector<16xf32>
        %377 = amdgpu.mfma %266 * %180 + %175#52 {blocks = 1 : i32, k = 8 : i32, m = 32 : i32, n = 32 : i32} blgp =  none : vector<4xf16>, vector<4xf16>, vector<16xf32>
        %378 = amdgpu.mfma %267 * %182 + %377 {blocks = 1 : i32, k = 8 : i32, m = 32 : i32, n = 32 : i32} blgp =  none : vector<4xf16>, vector<4xf16>, vector<16xf32>
        %379 = amdgpu.mfma %266 * %186 + %175#53 {blocks = 1 : i32, k = 8 : i32, m = 32 : i32, n = 32 : i32} blgp =  none : vector<4xf16>, vector<4xf16>, vector<16xf32>
        %380 = amdgpu.mfma %267 * %187 + %379 {blocks = 1 : i32, k = 8 : i32, m = 32 : i32, n = 32 : i32} blgp =  none : vector<4xf16>, vector<4xf16>, vector<16xf32>
        %381 = amdgpu.mfma %266 * %191 + %175#54 {blocks = 1 : i32, k = 8 : i32, m = 32 : i32, n = 32 : i32} blgp =  none : vector<4xf16>, vector<4xf16>, vector<16xf32>
        %382 = amdgpu.mfma %267 * %192 + %381 {blocks = 1 : i32, k = 8 : i32, m = 32 : i32, n = 32 : i32} blgp =  none : vector<4xf16>, vector<4xf16>, vector<16xf32>
        %383 = amdgpu.mfma %266 * %196 + %175#55 {blocks = 1 : i32, k = 8 : i32, m = 32 : i32, n = 32 : i32} blgp =  none : vector<4xf16>, vector<4xf16>, vector<16xf32>
        %384 = amdgpu.mfma %267 * %197 + %383 {blocks = 1 : i32, k = 8 : i32, m = 32 : i32, n = 32 : i32} blgp =  none : vector<4xf16>, vector<4xf16>, vector<16xf32>
        %385 = amdgpu.mfma %266 * %201 + %175#56 {blocks = 1 : i32, k = 8 : i32, m = 32 : i32, n = 32 : i32} blgp =  none : vector<4xf16>, vector<4xf16>, vector<16xf32>
        %386 = amdgpu.mfma %267 * %202 + %385 {blocks = 1 : i32, k = 8 : i32, m = 32 : i32, n = 32 : i32} blgp =  none : vector<4xf16>, vector<4xf16>, vector<16xf32>
        %387 = amdgpu.mfma %266 * %206 + %175#57 {blocks = 1 : i32, k = 8 : i32, m = 32 : i32, n = 32 : i32} blgp =  none : vector<4xf16>, vector<4xf16>, vector<16xf32>
        %388 = amdgpu.mfma %267 * %207 + %387 {blocks = 1 : i32, k = 8 : i32, m = 32 : i32, n = 32 : i32} blgp =  none : vector<4xf16>, vector<4xf16>, vector<16xf32>
        %389 = amdgpu.mfma %266 * %211 + %175#58 {blocks = 1 : i32, k = 8 : i32, m = 32 : i32, n = 32 : i32} blgp =  none : vector<4xf16>, vector<4xf16>, vector<16xf32>
        %390 = amdgpu.mfma %267 * %212 + %389 {blocks = 1 : i32, k = 8 : i32, m = 32 : i32, n = 32 : i32} blgp =  none : vector<4xf16>, vector<4xf16>, vector<16xf32>
        %391 = amdgpu.mfma %266 * %216 + %175#59 {blocks = 1 : i32, k = 8 : i32, m = 32 : i32, n = 32 : i32} blgp =  none : vector<4xf16>, vector<4xf16>, vector<16xf32>
        %392 = amdgpu.mfma %267 * %217 + %391 {blocks = 1 : i32, k = 8 : i32, m = 32 : i32, n = 32 : i32} blgp =  none : vector<4xf16>, vector<4xf16>, vector<16xf32>
        %393 = amdgpu.mfma %266 * %221 + %175#60 {blocks = 1 : i32, k = 8 : i32, m = 32 : i32, n = 32 : i32} blgp =  none : vector<4xf16>, vector<4xf16>, vector<16xf32>
        %394 = amdgpu.mfma %267 * %222 + %393 {blocks = 1 : i32, k = 8 : i32, m = 32 : i32, n = 32 : i32} blgp =  none : vector<4xf16>, vector<4xf16>, vector<16xf32>
        %395 = amdgpu.mfma %266 * %226 + %175#61 {blocks = 1 : i32, k = 8 : i32, m = 32 : i32, n = 32 : i32} blgp =  none : vector<4xf16>, vector<4xf16>, vector<16xf32>
        %396 = amdgpu.mfma %267 * %227 + %395 {blocks = 1 : i32, k = 8 : i32, m = 32 : i32, n = 32 : i32} blgp =  none : vector<4xf16>, vector<4xf16>, vector<16xf32>
        %397 = amdgpu.mfma %266 * %231 + %175#62 {blocks = 1 : i32, k = 8 : i32, m = 32 : i32, n = 32 : i32} blgp =  none : vector<4xf16>, vector<4xf16>, vector<16xf32>
        %398 = amdgpu.mfma %267 * %232 + %397 {blocks = 1 : i32, k = 8 : i32, m = 32 : i32, n = 32 : i32} blgp =  none : vector<4xf16>, vector<4xf16>, vector<16xf32>
        %399 = amdgpu.mfma %266 * %236 + %175#63 {blocks = 1 : i32, k = 8 : i32, m = 32 : i32, n = 32 : i32} blgp =  none : vector<4xf16>, vector<4xf16>, vector<16xf32>
        %400 = amdgpu.mfma %267 * %237 + %399 {blocks = 1 : i32, k = 8 : i32, m = 32 : i32, n = 32 : i32} blgp =  none : vector<4xf16>, vector<4xf16>, vector<16xf32>
        %401 = amdgpu.mfma %266 * %241 + %175#64 {blocks = 1 : i32, k = 8 : i32, m = 32 : i32, n = 32 : i32} blgp =  none : vector<4xf16>, vector<4xf16>, vector<16xf32>
        %402 = amdgpu.mfma %267 * %242 + %401 {blocks = 1 : i32, k = 8 : i32, m = 32 : i32, n = 32 : i32} blgp =  none : vector<4xf16>, vector<4xf16>, vector<16xf32>
        %403 = amdgpu.mfma %271 * %180 + %175#65 {blocks = 1 : i32, k = 8 : i32, m = 32 : i32, n = 32 : i32} blgp =  none : vector<4xf16>, vector<4xf16>, vector<16xf32>
        %404 = amdgpu.mfma %272 * %182 + %403 {blocks = 1 : i32, k = 8 : i32, m = 32 : i32, n = 32 : i32} blgp =  none : vector<4xf16>, vector<4xf16>, vector<16xf32>
        %405 = amdgpu.mfma %271 * %186 + %175#66 {blocks = 1 : i32, k = 8 : i32, m = 32 : i32, n = 32 : i32} blgp =  none : vector<4xf16>, vector<4xf16>, vector<16xf32>
        %406 = amdgpu.mfma %272 * %187 + %405 {blocks = 1 : i32, k = 8 : i32, m = 32 : i32, n = 32 : i32} blgp =  none : vector<4xf16>, vector<4xf16>, vector<16xf32>
        %407 = amdgpu.mfma %271 * %191 + %175#67 {blocks = 1 : i32, k = 8 : i32, m = 32 : i32, n = 32 : i32} blgp =  none : vector<4xf16>, vector<4xf16>, vector<16xf32>
        %408 = amdgpu.mfma %272 * %192 + %407 {blocks = 1 : i32, k = 8 : i32, m = 32 : i32, n = 32 : i32} blgp =  none : vector<4xf16>, vector<4xf16>, vector<16xf32>
        %409 = amdgpu.mfma %271 * %196 + %175#68 {blocks = 1 : i32, k = 8 : i32, m = 32 : i32, n = 32 : i32} blgp =  none : vector<4xf16>, vector<4xf16>, vector<16xf32>
        %410 = amdgpu.mfma %272 * %197 + %409 {blocks = 1 : i32, k = 8 : i32, m = 32 : i32, n = 32 : i32} blgp =  none : vector<4xf16>, vector<4xf16>, vector<16xf32>
        %411 = amdgpu.mfma %271 * %201 + %175#69 {blocks = 1 : i32, k = 8 : i32, m = 32 : i32, n = 32 : i32} blgp =  none : vector<4xf16>, vector<4xf16>, vector<16xf32>
        %412 = amdgpu.mfma %272 * %202 + %411 {blocks = 1 : i32, k = 8 : i32, m = 32 : i32, n = 32 : i32} blgp =  none : vector<4xf16>, vector<4xf16>, vector<16xf32>
        %413 = amdgpu.mfma %271 * %206 + %175#70 {blocks = 1 : i32, k = 8 : i32, m = 32 : i32, n = 32 : i32} blgp =  none : vector<4xf16>, vector<4xf16>, vector<16xf32>
        %414 = amdgpu.mfma %272 * %207 + %413 {blocks = 1 : i32, k = 8 : i32, m = 32 : i32, n = 32 : i32} blgp =  none : vector<4xf16>, vector<4xf16>, vector<16xf32>
        %415 = amdgpu.mfma %271 * %211 + %175#71 {blocks = 1 : i32, k = 8 : i32, m = 32 : i32, n = 32 : i32} blgp =  none : vector<4xf16>, vector<4xf16>, vector<16xf32>
        %416 = amdgpu.mfma %272 * %212 + %415 {blocks = 1 : i32, k = 8 : i32, m = 32 : i32, n = 32 : i32} blgp =  none : vector<4xf16>, vector<4xf16>, vector<16xf32>
        %417 = amdgpu.mfma %271 * %216 + %175#72 {blocks = 1 : i32, k = 8 : i32, m = 32 : i32, n = 32 : i32} blgp =  none : vector<4xf16>, vector<4xf16>, vector<16xf32>
        %418 = amdgpu.mfma %272 * %217 + %417 {blocks = 1 : i32, k = 8 : i32, m = 32 : i32, n = 32 : i32} blgp =  none : vector<4xf16>, vector<4xf16>, vector<16xf32>
        %419 = amdgpu.mfma %271 * %221 + %175#73 {blocks = 1 : i32, k = 8 : i32, m = 32 : i32, n = 32 : i32} blgp =  none : vector<4xf16>, vector<4xf16>, vector<16xf32>
        %420 = amdgpu.mfma %272 * %222 + %419 {blocks = 1 : i32, k = 8 : i32, m = 32 : i32, n = 32 : i32} blgp =  none : vector<4xf16>, vector<4xf16>, vector<16xf32>
        %421 = amdgpu.mfma %271 * %226 + %175#74 {blocks = 1 : i32, k = 8 : i32, m = 32 : i32, n = 32 : i32} blgp =  none : vector<4xf16>, vector<4xf16>, vector<16xf32>
        %422 = amdgpu.mfma %272 * %227 + %421 {blocks = 1 : i32, k = 8 : i32, m = 32 : i32, n = 32 : i32} blgp =  none : vector<4xf16>, vector<4xf16>, vector<16xf32>
        %423 = amdgpu.mfma %271 * %231 + %175#75 {blocks = 1 : i32, k = 8 : i32, m = 32 : i32, n = 32 : i32} blgp =  none : vector<4xf16>, vector<4xf16>, vector<16xf32>
        %424 = amdgpu.mfma %272 * %232 + %423 {blocks = 1 : i32, k = 8 : i32, m = 32 : i32, n = 32 : i32} blgp =  none : vector<4xf16>, vector<4xf16>, vector<16xf32>
        %425 = amdgpu.mfma %271 * %236 + %175#76 {blocks = 1 : i32, k = 8 : i32, m = 32 : i32, n = 32 : i32} blgp =  none : vector<4xf16>, vector<4xf16>, vector<16xf32>
        %426 = amdgpu.mfma %272 * %237 + %425 {blocks = 1 : i32, k = 8 : i32, m = 32 : i32, n = 32 : i32} blgp =  none : vector<4xf16>, vector<4xf16>, vector<16xf32>
        %427 = amdgpu.mfma %271 * %241 + %175#77 {blocks = 1 : i32, k = 8 : i32, m = 32 : i32, n = 32 : i32} blgp =  none : vector<4xf16>, vector<4xf16>, vector<16xf32>
        %428 = amdgpu.mfma %272 * %242 + %427 {blocks = 1 : i32, k = 8 : i32, m = 32 : i32, n = 32 : i32} blgp =  none : vector<4xf16>, vector<4xf16>, vector<16xf32>
        %429 = vector.extract_strided_slice %274 {offsets = [0], sizes = [1], strides = [1]} : vector<16xf32> to vector<1xf32>
        %430 = stream.binding.subspan %arg2[%c0] : !stream.binding -> memref<706x1024xf32, strided<[1024, 1], offset: ?>>
        %431 = affine.apply #map40()[%block_id_y, %thread_id_y]
        %432 = affine.apply #map41()[%block_id_y]
        %433 = arith.minsi %431, %432 : index
        %434 = arith.minsi %433, %c1024 : index
        %435 = affine.apply #map42()[%thread_id_x, %block_id_x, %block_id_y, %2, %thread_id_y]
        %436 = arith.cmpi slt, %435, %434 : index
        %437 = affine.apply #map43()[%block_id_x, %thread_id_x]
        %438 = arith.minsi %437, %c706 : index
        %439 = affine.apply #map44()[%block_id_x, %block_id_y, %2, %thread_id_x]
        %440 = arith.cmpi slt, %439, %438 : index
        %441 = arith.andi %436, %440 : i1
        %442 = affine.apply #map45()[%block_id_x, %block_id_y, %2]
        %443 = affine.apply #map46()[%block_id_x, %block_id_y, %2]
        %444 = affine.apply #map47()[%thread_id_x]
        %445 = arith.muli %442, %c1024 overflow<nsw> : index
        %446 = arith.muli %444, %c1024 overflow<nsw> : index
        %447 = arith.addi %445, %443 overflow<nsw> : index
        %448 = arith.addi %446, %176 overflow<nsw> : index
        %base_buffer_9, %offset_10, %sizes_11:2, %strides_12:2 = memref.extract_strided_metadata %430 : memref<706x1024xf32, strided<[1024, 1], offset: ?>> -> memref<f32>, index, index, index, index, index
        %449 = arith.addi %447, %offset_10 overflow<nsw> : index
        %reinterpret_cast_13 = memref.reinterpret_cast %430 to offset: [%449], sizes: [%c536870910], strides: [1] : memref<706x1024xf32, strided<[1024, 1], offset: ?>> to memref<?xf32, strided<[1], offset: ?>>
        %450 = amdgpu.fat_raw_buffer_cast %reinterpret_cast_13 validBytes(%c2147483643_i32) cacheSwizzleStride(%c1024_i14) resetOffset : memref<?xf32, strided<[1], offset: ?>> to memref<?xf32, #amdgpu.address_space<fat_raw_buffer>>
        %451 = arith.select %441, %448, %c536870911 : index
        vector.store %429, %450[%451] : memref<?xf32, #amdgpu.address_space<fat_raw_buffer>>, vector<1xf32>
        %452 = vector.extract_strided_slice %274 {offsets = [1], sizes = [1], strides = [1]} : vector<16xf32> to vector<1xf32>
        %453 = affine.apply #map48()[%block_id_x, %block_id_y, %2, %thread_id_x]
        %454 = arith.cmpi slt, %453, %438 : index
        %455 = arith.andi %436, %454 : i1
        %456 = affine.apply #map49()[%thread_id_x]
        %457 = arith.muli %456, %c1024 overflow<nsw> : index
        %458 = arith.addi %457, %176 overflow<nsw> : index
        %459 = arith.select %455, %458, %c536870911 : index
        vector.store %452, %450[%459] : memref<?xf32, #amdgpu.address_space<fat_raw_buffer>>, vector<1xf32>
        %460 = vector.extract_strided_slice %274 {offsets = [2], sizes = [1], strides = [1]} : vector<16xf32> to vector<1xf32>
        %461 = affine.apply #map50()[%block_id_x, %block_id_y, %2, %thread_id_x]
        %462 = arith.cmpi slt, %461, %438 : index
        %463 = arith.andi %436, %462 : i1
        %464 = affine.apply #map51()[%thread_id_x]
        %465 = arith.muli %464, %c1024 overflow<nsw> : index
        %466 = arith.addi %465, %176 overflow<nsw> : index
        %467 = arith.select %463, %466, %c536870911 : index
        vector.store %460, %450[%467] : memref<?xf32, #amdgpu.address_space<fat_raw_buffer>>, vector<1xf32>
        %468 = vector.extract_strided_slice %274 {offsets = [3], sizes = [1], strides = [1]} : vector<16xf32> to vector<1xf32>
        %469 = affine.apply #map52()[%block_id_x, %block_id_y, %2, %thread_id_x]
        %470 = arith.cmpi slt, %469, %438 : index
        %471 = arith.andi %436, %470 : i1
        %472 = affine.apply #map53()[%thread_id_x]
        %473 = arith.muli %472, %c1024 overflow<nsw> : index
        %474 = arith.addi %473, %176 overflow<nsw> : index
        %475 = arith.select %471, %474, %c536870911 : index
        vector.store %468, %450[%475] : memref<?xf32, #amdgpu.address_space<fat_raw_buffer>>, vector<1xf32>
        %476 = vector.extract_strided_slice %274 {offsets = [4], sizes = [1], strides = [1]} : vector<16xf32> to vector<1xf32>
        %477 = affine.apply #map54()[%block_id_x, %block_id_y, %2, %thread_id_x]
        %478 = arith.cmpi slt, %477, %438 : index
        %479 = arith.andi %436, %478 : i1
        %480 = affine.apply #map55()[%thread_id_x]
        %481 = arith.muli %480, %c1024 overflow<nsw> : index
        %482 = arith.addi %481, %176 overflow<nsw> : index
        %483 = arith.select %479, %482, %c536870911 : index
        vector.store %476, %450[%483] : memref<?xf32, #amdgpu.address_space<fat_raw_buffer>>, vector<1xf32>
        %484 = vector.extract_strided_slice %274 {offsets = [5], sizes = [1], strides = [1]} : vector<16xf32> to vector<1xf32>
        %485 = affine.apply #map56()[%block_id_x, %block_id_y, %2, %thread_id_x]
        %486 = arith.cmpi slt, %485, %438 : index
        %487 = arith.andi %436, %486 : i1
        %488 = affine.apply #map57()[%thread_id_x]
        %489 = arith.muli %488, %c1024 overflow<nsw> : index
        %490 = arith.addi %489, %176 overflow<nsw> : index
        %491 = arith.select %487, %490, %c536870911 : index
        vector.store %484, %450[%491] : memref<?xf32, #amdgpu.address_space<fat_raw_buffer>>, vector<1xf32>
        %492 = vector.extract_strided_slice %274 {offsets = [6], sizes = [1], strides = [1]} : vector<16xf32> to vector<1xf32>
        %493 = affine.apply #map58()[%block_id_x, %block_id_y, %2, %thread_id_x]
        %494 = arith.cmpi slt, %493, %438 : index
        %495 = arith.andi %436, %494 : i1
        %496 = affine.apply #map59()[%thread_id_x]
        %497 = arith.muli %496, %c1024 overflow<nsw> : index
        %498 = arith.addi %497, %176 overflow<nsw> : index
        %499 = arith.select %495, %498, %c536870911 : index
        vector.store %492, %450[%499] : memref<?xf32, #amdgpu.address_space<fat_raw_buffer>>, vector<1xf32>
        %500 = vector.extract_strided_slice %274 {offsets = [7], sizes = [1], strides = [1]} : vector<16xf32> to vector<1xf32>
        %501 = affine.apply #map60()[%block_id_x, %block_id_y, %2, %thread_id_x]
        %502 = arith.cmpi slt, %501, %438 : index
        %503 = arith.andi %436, %502 : i1
        %504 = affine.apply #map61()[%thread_id_x]
        %505 = arith.muli %504, %c1024 overflow<nsw> : index
        %506 = arith.addi %505, %176 overflow<nsw> : index
        %507 = arith.select %503, %506, %c536870911 : index
        vector.store %500, %450[%507] : memref<?xf32, #amdgpu.address_space<fat_raw_buffer>>, vector<1xf32>
        %508 = vector.extract_strided_slice %274 {offsets = [8], sizes = [1], strides = [1]} : vector<16xf32> to vector<1xf32>
        %509 = affine.apply #map62()[%block_id_x, %block_id_y, %2, %thread_id_x]
        %510 = arith.cmpi slt, %509, %438 : index
        %511 = arith.andi %436, %510 : i1
        %512 = affine.apply #map63()[%thread_id_x]
        %513 = arith.muli %512, %c1024 overflow<nsw> : index
        %514 = arith.addi %513, %176 overflow<nsw> : index
        %515 = arith.select %511, %514, %c536870911 : index
        vector.store %508, %450[%515] : memref<?xf32, #amdgpu.address_space<fat_raw_buffer>>, vector<1xf32>
        %516 = vector.extract_strided_slice %274 {offsets = [9], sizes = [1], strides = [1]} : vector<16xf32> to vector<1xf32>
        %517 = affine.apply #map64()[%block_id_x, %block_id_y, %2, %thread_id_x]
        %518 = arith.cmpi slt, %517, %438 : index
        %519 = arith.andi %436, %518 : i1
        %520 = affine.apply #map65()[%thread_id_x]
        %521 = arith.muli %520, %c1024 overflow<nsw> : index
        %522 = arith.addi %521, %176 overflow<nsw> : index
        %523 = arith.select %519, %522, %c536870911 : index
        vector.store %516, %450[%523] : memref<?xf32, #amdgpu.address_space<fat_raw_buffer>>, vector<1xf32>
        %524 = vector.extract_strided_slice %274 {offsets = [10], sizes = [1], strides = [1]} : vector<16xf32> to vector<1xf32>
        %525 = affine.apply #map66()[%block_id_x, %block_id_y, %2, %thread_id_x]
        %526 = arith.cmpi slt, %525, %438 : index
        %527 = arith.andi %436, %526 : i1
        %528 = affine.apply #map67()[%thread_id_x]
        %529 = arith.muli %528, %c1024 overflow<nsw> : index
        %530 = arith.addi %529, %176 overflow<nsw> : index
        %531 = arith.select %527, %530, %c536870911 : index
        vector.store %524, %450[%531] : memref<?xf32, #amdgpu.address_space<fat_raw_buffer>>, vector<1xf32>
        %532 = vector.extract_strided_slice %274 {offsets = [11], sizes = [1], strides = [1]} : vector<16xf32> to vector<1xf32>
        %533 = affine.apply #map68()[%block_id_x, %block_id_y, %2, %thread_id_x]
        %534 = arith.cmpi slt, %533, %438 : index
        %535 = arith.andi %436, %534 : i1
        %536 = affine.apply #map69()[%thread_id_x]
        %537 = arith.muli %536, %c1024 overflow<nsw> : index
        %538 = arith.addi %537, %176 overflow<nsw> : index
        %539 = arith.select %535, %538, %c536870911 : index
        vector.store %532, %450[%539] : memref<?xf32, #amdgpu.address_space<fat_raw_buffer>>, vector<1xf32>
        %540 = vector.extract_strided_slice %274 {offsets = [12], sizes = [1], strides = [1]} : vector<16xf32> to vector<1xf32>
        %541 = affine.apply #map70()[%block_id_x, %block_id_y, %2, %thread_id_x]
        %542 = arith.cmpi slt, %541, %438 : index
        %543 = arith.andi %436, %542 : i1
        %544 = affine.apply #map71()[%thread_id_x]
        %545 = arith.muli %544, %c1024 overflow<nsw> : index
        %546 = arith.addi %545, %176 overflow<nsw> : index
        %547 = arith.select %543, %546, %c536870911 : index
        vector.store %540, %450[%547] : memref<?xf32, #amdgpu.address_space<fat_raw_buffer>>, vector<1xf32>
        %548 = vector.extract_strided_slice %274 {offsets = [13], sizes = [1], strides = [1]} : vector<16xf32> to vector<1xf32>
        %549 = affine.apply #map72()[%block_id_x, %block_id_y, %2, %thread_id_x]
        %550 = arith.cmpi slt, %549, %438 : index
        %551 = arith.andi %436, %550 : i1
        %552 = affine.apply #map73()[%thread_id_x]
        %553 = arith.muli %552, %c1024 overflow<nsw> : index
        %554 = arith.addi %553, %176 overflow<nsw> : index
        %555 = arith.select %551, %554, %c536870911 : index
        vector.store %548, %450[%555] : memref<?xf32, #amdgpu.address_space<fat_raw_buffer>>, vector<1xf32>
        %556 = vector.extract_strided_slice %274 {offsets = [14], sizes = [1], strides = [1]} : vector<16xf32> to vector<1xf32>
        %557 = affine.apply #map74()[%block_id_x, %block_id_y, %2, %thread_id_x]
        %558 = arith.cmpi slt, %557, %438 : index
        %559 = arith.andi %436, %558 : i1
        %560 = affine.apply #map75()[%thread_id_x]
        %561 = arith.muli %560, %c1024 overflow<nsw> : index
        %562 = arith.addi %561, %176 overflow<nsw> : index
        %563 = arith.select %559, %562, %c536870911 : index
        vector.store %556, %450[%563] : memref<?xf32, #amdgpu.address_space<fat_raw_buffer>>, vector<1xf32>
        %564 = vector.extract_strided_slice %274 {offsets = [15], sizes = [1], strides = [1]} : vector<16xf32> to vector<1xf32>
        %565 = affine.apply #map76()[%block_id_x, %block_id_y, %2, %thread_id_x]
        %566 = arith.cmpi slt, %565, %438 : index
        %567 = arith.andi %436, %566 : i1
        %568 = affine.apply #map77()[%thread_id_x]
        %569 = arith.muli %568, %c1024 overflow<nsw> : index
        %570 = arith.addi %569, %176 overflow<nsw> : index
        %571 = arith.select %567, %570, %c536870911 : index
        vector.store %564, %450[%571] : memref<?xf32, #amdgpu.address_space<fat_raw_buffer>>, vector<1xf32>
        %572 = vector.extract_strided_slice %276 {offsets = [0], sizes = [1], strides = [1]} : vector<16xf32> to vector<1xf32>
        %573 = affine.apply #map78()[%thread_id_x, %block_id_x, %block_id_y, %2, %thread_id_y]
        %574 = arith.cmpi slt, %573, %434 : index
        %575 = arith.andi %574, %440 : i1
        %576 = arith.addi %446, %183 overflow<nsw> : index
        %577 = arith.select %575, %576, %c536870911 : index
        vector.store %572, %450[%577] : memref<?xf32, #amdgpu.address_space<fat_raw_buffer>>, vector<1xf32>
        %578 = vector.extract_strided_slice %276 {offsets = [1], sizes = [1], strides = [1]} : vector<16xf32> to vector<1xf32>
        %579 = arith.andi %574, %454 : i1
        %580 = arith.addi %457, %183 overflow<nsw> : index
        %581 = arith.select %579, %580, %c536870911 : index
        vector.store %578, %450[%581] : memref<?xf32, #amdgpu.address_space<fat_raw_buffer>>, vector<1xf32>
        %582 = vector.extract_strided_slice %276 {offsets = [2], sizes = [1], strides = [1]} : vector<16xf32> to vector<1xf32>
        %583 = arith.andi %574, %462 : i1
        %584 = arith.addi %465, %183 overflow<nsw> : index
        %585 = arith.select %583, %584, %c536870911 : index
        vector.store %582, %450[%585] : memref<?xf32, #amdgpu.address_space<fat_raw_buffer>>, vector<1xf32>
        %586 = vector.extract_strided_slice %276 {offsets = [3], sizes = [1], strides = [1]} : vector<16xf32> to vector<1xf32>
        %587 = arith.andi %574, %470 : i1
        %588 = arith.addi %473, %183 overflow<nsw> : index
        %589 = arith.select %587, %588, %c536870911 : index
        vector.store %586, %450[%589] : memref<?xf32, #amdgpu.address_space<fat_raw_buffer>>, vector<1xf32>
        %590 = vector.extract_strided_slice %276 {offsets = [4], sizes = [1], strides = [1]} : vector<16xf32> to vector<1xf32>
        %591 = arith.andi %574, %478 : i1
        %592 = arith.addi %481, %183 overflow<nsw> : index
        %593 = arith.select %591, %592, %c536870911 : index
        vector.store %590, %450[%593] : memref<?xf32, #amdgpu.address_space<fat_raw_buffer>>, vector<1xf32>
        %594 = vector.extract_strided_slice %276 {offsets = [5], sizes = [1], strides = [1]} : vector<16xf32> to vector<1xf32>
        %595 = arith.andi %574, %486 : i1
        %596 = arith.addi %489, %183 overflow<nsw> : index
        %597 = arith.select %595, %596, %c536870911 : index
        vector.store %594, %450[%597] : memref<?xf32, #amdgpu.address_space<fat_raw_buffer>>, vector<1xf32>
        %598 = vector.extract_strided_slice %276 {offsets = [6], sizes = [1], strides = [1]} : vector<16xf32> to vector<1xf32>
        %599 = arith.andi %574, %494 : i1
        %600 = arith.addi %497, %183 overflow<nsw> : index
        %601 = arith.select %599, %600, %c536870911 : index
        vector.store %598, %450[%601] : memref<?xf32, #amdgpu.address_space<fat_raw_buffer>>, vector<1xf32>
        %602 = vector.extract_strided_slice %276 {offsets = [7], sizes = [1], strides = [1]} : vector<16xf32> to vector<1xf32>
        %603 = arith.andi %574, %502 : i1
        %604 = arith.addi %505, %183 overflow<nsw> : index
        %605 = arith.select %603, %604, %c536870911 : index
        vector.store %602, %450[%605] : memref<?xf32, #amdgpu.address_space<fat_raw_buffer>>, vector<1xf32>
        %606 = vector.extract_strided_slice %276 {offsets = [8], sizes = [1], strides = [1]} : vector<16xf32> to vector<1xf32>
        %607 = arith.andi %574, %510 : i1
        %608 = arith.addi %513, %183 overflow<nsw> : index
        %609 = arith.select %607, %608, %c536870911 : index
        vector.store %606, %450[%609] : memref<?xf32, #amdgpu.address_space<fat_raw_buffer>>, vector<1xf32>
        %610 = vector.extract_strided_slice %276 {offsets = [9], sizes = [1], strides = [1]} : vector<16xf32> to vector<1xf32>
        %611 = arith.andi %574, %518 : i1
        %612 = arith.addi %521, %183 overflow<nsw> : index
        %613 = arith.select %611, %612, %c536870911 : index
        vector.store %610, %450[%613] : memref<?xf32, #amdgpu.address_space<fat_raw_buffer>>, vector<1xf32>
        %614 = vector.extract_strided_slice %276 {offsets = [10], sizes = [1], strides = [1]} : vector<16xf32> to vector<1xf32>
        %615 = arith.andi %574, %526 : i1
        %616 = arith.addi %529, %183 overflow<nsw> : index
        %617 = arith.select %615, %616, %c536870911 : index
        vector.store %614, %450[%617] : memref<?xf32, #amdgpu.address_space<fat_raw_buffer>>, vector<1xf32>
        %618 = vector.extract_strided_slice %276 {offsets = [11], sizes = [1], strides = [1]} : vector<16xf32> to vector<1xf32>
        %619 = arith.andi %574, %534 : i1
        %620 = arith.addi %537, %183 overflow<nsw> : index
        %621 = arith.select %619, %620, %c536870911 : index
        vector.store %618, %450[%621] : memref<?xf32, #amdgpu.address_space<fat_raw_buffer>>, vector<1xf32>
        %622 = vector.extract_strided_slice %276 {offsets = [12], sizes = [1], strides = [1]} : vector<16xf32> to vector<1xf32>
        %623 = arith.andi %574, %542 : i1
        %624 = arith.addi %545, %183 overflow<nsw> : index
        %625 = arith.select %623, %624, %c536870911 : index
        vector.store %622, %450[%625] : memref<?xf32, #amdgpu.address_space<fat_raw_buffer>>, vector<1xf32>
        %626 = vector.extract_strided_slice %276 {offsets = [13], sizes = [1], strides = [1]} : vector<16xf32> to vector<1xf32>
        %627 = arith.andi %574, %550 : i1
        %628 = arith.addi %553, %183 overflow<nsw> : index
        %629 = arith.select %627, %628, %c536870911 : index
        vector.store %626, %450[%629] : memref<?xf32, #amdgpu.address_space<fat_raw_buffer>>, vector<1xf32>
        %630 = vector.extract_strided_slice %276 {offsets = [14], sizes = [1], strides = [1]} : vector<16xf32> to vector<1xf32>
        %631 = arith.andi %574, %558 : i1
        %632 = arith.addi %561, %183 overflow<nsw> : index
        %633 = arith.select %631, %632, %c536870911 : index
        vector.store %630, %450[%633] : memref<?xf32, #amdgpu.address_space<fat_raw_buffer>>, vector<1xf32>
        %634 = vector.extract_strided_slice %276 {offsets = [15], sizes = [1], strides = [1]} : vector<16xf32> to vector<1xf32>
        %635 = arith.andi %574, %566 : i1
        %636 = arith.addi %569, %183 overflow<nsw> : index
        %637 = arith.select %635, %636, %c536870911 : index
        vector.store %634, %450[%637] : memref<?xf32, #amdgpu.address_space<fat_raw_buffer>>, vector<1xf32>
        %638 = vector.extract_strided_slice %278 {offsets = [0], sizes = [1], strides = [1]} : vector<16xf32> to vector<1xf32>
        %639 = affine.apply #map79()[%thread_id_x, %block_id_x, %block_id_y, %2, %thread_id_y]
        %640 = arith.cmpi slt, %639, %434 : index
        %641 = arith.andi %640, %440 : i1
        %642 = arith.addi %446, %188 overflow<nsw> : index
        %643 = arith.select %641, %642, %c536870911 : index
        vector.store %638, %450[%643] : memref<?xf32, #amdgpu.address_space<fat_raw_buffer>>, vector<1xf32>
        %644 = vector.extract_strided_slice %278 {offsets = [1], sizes = [1], strides = [1]} : vector<16xf32> to vector<1xf32>
        %645 = arith.andi %640, %454 : i1
        %646 = arith.addi %457, %188 overflow<nsw> : index
        %647 = arith.select %645, %646, %c536870911 : index
        vector.store %644, %450[%647] : memref<?xf32, #amdgpu.address_space<fat_raw_buffer>>, vector<1xf32>
        %648 = vector.extract_strided_slice %278 {offsets = [2], sizes = [1], strides = [1]} : vector<16xf32> to vector<1xf32>
        %649 = arith.andi %640, %462 : i1
        %650 = arith.addi %465, %188 overflow<nsw> : index
        %651 = arith.select %649, %650, %c536870911 : index
        vector.store %648, %450[%651] : memref<?xf32, #amdgpu.address_space<fat_raw_buffer>>, vector<1xf32>
        %652 = vector.extract_strided_slice %278 {offsets = [3], sizes = [1], strides = [1]} : vector<16xf32> to vector<1xf32>
        %653 = arith.andi %640, %470 : i1
        %654 = arith.addi %473, %188 overflow<nsw> : index
        %655 = arith.select %653, %654, %c536870911 : index
        vector.store %652, %450[%655] : memref<?xf32, #amdgpu.address_space<fat_raw_buffer>>, vector<1xf32>
        %656 = vector.extract_strided_slice %278 {offsets = [4], sizes = [1], strides = [1]} : vector<16xf32> to vector<1xf32>
        %657 = arith.andi %640, %478 : i1
        %658 = arith.addi %481, %188 overflow<nsw> : index
        %659 = arith.select %657, %658, %c536870911 : index
        vector.store %656, %450[%659] : memref<?xf32, #amdgpu.address_space<fat_raw_buffer>>, vector<1xf32>
        %660 = vector.extract_strided_slice %278 {offsets = [5], sizes = [1], strides = [1]} : vector<16xf32> to vector<1xf32>
        %661 = arith.andi %640, %486 : i1
        %662 = arith.addi %489, %188 overflow<nsw> : index
        %663 = arith.select %661, %662, %c536870911 : index
        vector.store %660, %450[%663] : memref<?xf32, #amdgpu.address_space<fat_raw_buffer>>, vector<1xf32>
        %664 = vector.extract_strided_slice %278 {offsets = [6], sizes = [1], strides = [1]} : vector<16xf32> to vector<1xf32>
        %665 = arith.andi %640, %494 : i1
        %666 = arith.addi %497, %188 overflow<nsw> : index
        %667 = arith.select %665, %666, %c536870911 : index
        vector.store %664, %450[%667] : memref<?xf32, #amdgpu.address_space<fat_raw_buffer>>, vector<1xf32>
        %668 = vector.extract_strided_slice %278 {offsets = [7], sizes = [1], strides = [1]} : vector<16xf32> to vector<1xf32>
        %669 = arith.andi %640, %502 : i1
        %670 = arith.addi %505, %188 overflow<nsw> : index
        %671 = arith.select %669, %670, %c536870911 : index
        vector.store %668, %450[%671] : memref<?xf32, #amdgpu.address_space<fat_raw_buffer>>, vector<1xf32>
        %672 = vector.extract_strided_slice %278 {offsets = [8], sizes = [1], strides = [1]} : vector<16xf32> to vector<1xf32>
        %673 = arith.andi %640, %510 : i1
        %674 = arith.addi %513, %188 overflow<nsw> : index
        %675 = arith.select %673, %674, %c536870911 : index
        vector.store %672, %450[%675] : memref<?xf32, #amdgpu.address_space<fat_raw_buffer>>, vector<1xf32>
        %676 = vector.extract_strided_slice %278 {offsets = [9], sizes = [1], strides = [1]} : vector<16xf32> to vector<1xf32>
        %677 = arith.andi %640, %518 : i1
        %678 = arith.addi %521, %188 overflow<nsw> : index
        %679 = arith.select %677, %678, %c536870911 : index
        vector.store %676, %450[%679] : memref<?xf32, #amdgpu.address_space<fat_raw_buffer>>, vector<1xf32>
        %680 = vector.extract_strided_slice %278 {offsets = [10], sizes = [1], strides = [1]} : vector<16xf32> to vector<1xf32>
        %681 = arith.andi %640, %526 : i1
        %682 = arith.addi %529, %188 overflow<nsw> : index
        %683 = arith.select %681, %682, %c536870911 : index
        vector.store %680, %450[%683] : memref<?xf32, #amdgpu.address_space<fat_raw_buffer>>, vector<1xf32>
        %684 = vector.extract_strided_slice %278 {offsets = [11], sizes = [1], strides = [1]} : vector<16xf32> to vector<1xf32>
        %685 = arith.andi %640, %534 : i1
        %686 = arith.addi %537, %188 overflow<nsw> : index
        %687 = arith.select %685, %686, %c536870911 : index
        vector.store %684, %450[%687] : memref<?xf32, #amdgpu.address_space<fat_raw_buffer>>, vector<1xf32>
        %688 = vector.extract_strided_slice %278 {offsets = [12], sizes = [1], strides = [1]} : vector<16xf32> to vector<1xf32>
        %689 = arith.andi %640, %542 : i1
        %690 = arith.addi %545, %188 overflow<nsw> : index
        %691 = arith.select %689, %690, %c536870911 : index
        vector.store %688, %450[%691] : memref<?xf32, #amdgpu.address_space<fat_raw_buffer>>, vector<1xf32>
        %692 = vector.extract_strided_slice %278 {offsets = [13], sizes = [1], strides = [1]} : vector<16xf32> to vector<1xf32>
        %693 = arith.andi %640, %550 : i1
        %694 = arith.addi %553, %188 overflow<nsw> : index
        %695 = arith.select %693, %694, %c536870911 : index
        vector.store %692, %450[%695] : memref<?xf32, #amdgpu.address_space<fat_raw_buffer>>, vector<1xf32>
        %696 = vector.extract_strided_slice %278 {offsets = [14], sizes = [1], strides = [1]} : vector<16xf32> to vector<1xf32>
        %697 = arith.andi %640, %558 : i1
        %698 = arith.addi %561, %188 overflow<nsw> : index
        %699 = arith.select %697, %698, %c536870911 : index
        vector.store %696, %450[%699] : memref<?xf32, #amdgpu.address_space<fat_raw_buffer>>, vector<1xf32>
        %700 = vector.extract_strided_slice %278 {offsets = [15], sizes = [1], strides = [1]} : vector<16xf32> to vector<1xf32>
        %701 = arith.andi %640, %566 : i1
        %702 = arith.addi %569, %188 overflow<nsw> : index
        %703 = arith.select %701, %702, %c536870911 : index
        vector.store %700, %450[%703] : memref<?xf32, #amdgpu.address_space<fat_raw_buffer>>, vector<1xf32>
        %704 = vector.extract_strided_slice %280 {offsets = [0], sizes = [1], strides = [1]} : vector<16xf32> to vector<1xf32>
        %705 = affine.apply #map80()[%thread_id_x, %block_id_x, %block_id_y, %2, %thread_id_y]
        %706 = arith.cmpi slt, %705, %434 : index
…
        %5356 = vector.extract_strided_slice %414 {offsets = [6], sizes = [1], strides = [1]} : vector<16xf32> to vector<1xf32>
        %5357 = arith.andi %838, %4998 : i1
        %5358 = arith.addi %5001, %203 overflow<nsw> : index
        %5359 = arith.select %5357, %5358, %c536870911 : index
        vector.store %5356, %450[%5359] : memref<?xf32, #amdgpu.address_space<fat_raw_buffer>>, vector<1xf32>
        %5360 = vector.extract_strided_slice %414 {offsets = [7], sizes = [1], strides = [1]} : vector<16xf32> to vector<1xf32>
        %5361 = arith.andi %838, %5006 : i1
        %5362 = arith.addi %5009, %203 overflow<nsw> : index
        %5363 = arith.select %5361, %5362, %c536870911 : index
        vector.store %5360, %450[%5363] : memref<?xf32, #amdgpu.address_space<fat_raw_buffer>>, vector<1xf32>
        %5364 = vector.extract_strided_slice %414 {offsets = [8], sizes = [1], strides = [1]} : vector<16xf32> to vector<1xf32>
        %5365 = arith.andi %838, %5014 : i1
        %5366 = arith.addi %5017, %203 overflow<nsw> : index
        %5367 = arith.select %5365, %5366, %c536870911 : index
        vector.store %5364, %450[%5367] : memref<?xf32, #amdgpu.address_space<fat_raw_buffer>>, vector<1xf32>
        %5368 = vector.extract_strided_slice %414 {offsets = [9], sizes = [1], strides = [1]} : vector<16xf32> to vector<1xf32>
        %5369 = arith.andi %838, %5022 : i1
        %5370 = arith.addi %5025, %203 overflow<nsw> : index
        %5371 = arith.select %5369, %5370, %c536870911 : index
        vector.store %5368, %450[%5371] : memref<?xf32, #amdgpu.address_space<fat_raw_buffer>>, vector<1xf32>
        %5372 = vector.extract_strided_slice %414 {offsets = [10], sizes = [1], strides = [1]} : vector<16xf32> to vector<1xf32>
        %5373 = arith.andi %838, %5030 : i1
        %5374 = arith.addi %5033, %203 overflow<nsw> : index
        %5375 = arith.select %5373, %5374, %c536870911 : index
        vector.store %5372, %450[%5375] : memref<?xf32, #amdgpu.address_space<fat_raw_buffer>>, vector<1xf32>
        %5376 = vector.extract_strided_slice %414 {offsets = [11], sizes = [1], strides = [1]} : vector<16xf32> to vector<1xf32>
        %5377 = arith.andi %838, %5038 : i1
        %5378 = arith.addi %5041, %203 overflow<nsw> : index
        %5379 = arith.select %5377, %5378, %c536870911 : index
        vector.store %5376, %450[%5379] : memref<?xf32, #amdgpu.address_space<fat_raw_buffer>>, vector<1xf32>
        %5380 = vector.extract_strided_slice %414 {offsets = [12], sizes = [1], strides = [1]} : vector<16xf32> to vector<1xf32>
        %5381 = arith.andi %838, %5046 : i1
        %5382 = arith.addi %5049, %203 overflow<nsw> : index
        %5383 = arith.select %5381, %5382, %c536870911 : index
        vector.store %5380, %450[%5383] : memref<?xf32, #amdgpu.address_space<fat_raw_buffer>>, vector<1xf32>
        %5384 = vector.extract_strided_slice %414 {offsets = [13], sizes = [1], strides = [1]} : vector<16xf32> to vector<1xf32>
        %5385 = arith.andi %838, %5054 : i1
        %5386 = arith.addi %5057, %203 overflow<nsw> : index
        %5387 = arith.select %5385, %5386, %c536870911 : index
        vector.store %5384, %450[%5387] : memref<?xf32, #amdgpu.address_space<fat_raw_buffer>>, vector<1xf32>
        %5388 = vector.extract_strided_slice %414 {offsets = [14], sizes = [1], strides = [1]} : vector<16xf32> to vector<1xf32>
        %5389 = arith.andi %838, %5062 : i1
        %5390 = arith.addi %5065, %203 overflow<nsw> : index
        %5391 = arith.select %5389, %5390, %c536870911 : index
        vector.store %5388, %450[%5391] : memref<?xf32, #amdgpu.address_space<fat_raw_buffer>>, vector<1xf32>
        %5392 = vector.extract_strided_slice %414 {offsets = [15], sizes = [1], strides = [1]} : vector<16xf32> to vector<1xf32>
        %5393 = arith.andi %838, %5070 : i1
        %5394 = arith.addi %5073, %203 overflow<nsw> : index
        %5395 = arith.select %5393, %5394, %c536870911 : index
        vector.store %5392, %450[%5395] : memref<?xf32, #amdgpu.address_space<fat_raw_buffer>>, vector<1xf32>
        %5396 = vector.extract_strided_slice %416 {offsets = [0], sizes = [1], strides = [1]} : vector<16xf32> to vector<1xf32>
        %5397 = arith.andi %904, %4950 : i1
        %5398 = arith.addi %4953, %208 overflow<nsw> : index
        %5399 = arith.select %5397, %5398, %c536870911 : index
        vector.store %5396, %450[%5399] : memref<?xf32, #amdgpu.address_space<fat_raw_buffer>>, vector<1xf32>
        %5400 = vector.extract_strided_slice %416 {offsets = [1], sizes = [1], strides = [1]} : vector<16xf32> to vector<1xf32>
        %5401 = arith.andi %904, %4958 : i1
        %5402 = arith.addi %4961, %208 overflow<nsw> : index
        %5403 = arith.select %5401, %5402, %c536870911 : index
        vector.store %5400, %450[%5403] : memref<?xf32, #amdgpu.address_space<fat_raw_buffer>>, vector<1xf32>
        %5404 = vector.extract_strided_slice %416 {offsets = [2], sizes = [1], strides = [1]} : vector<16xf32> to vector<1xf32>
        %5405 = arith.andi %904, %4966 : i1
        %5406 = arith.addi %4969, %208 overflow<nsw> : index
        %5407 = arith.select %5405, %5406, %c536870911 : index
        vector.store %5404, %450[%5407] : memref<?xf32, #amdgpu.address_space<fat_raw_buffer>>, vector<1xf32>
        %5408 = vector.extract_strided_slice %416 {offsets = [3], sizes = [1], strides = [1]} : vector<16xf32> to vector<1xf32>
        %5409 = arith.andi %904, %4974 : i1
        %5410 = arith.addi %4977, %208 overflow<nsw> : index
        %5411 = arith.select %5409, %5410, %c536870911 : index
        vector.store %5408, %450[%5411] : memref<?xf32, #amdgpu.address_space<fat_raw_buffer>>, vector<1xf32>
        %5412 = vector.extract_strided_slice %416 {offsets = [4], sizes = [1], strides = [1]} : vector<16xf32> to vector<1xf32>
        %5413 = arith.andi %904, %4982 : i1
        %5414 = arith.addi %4985, %208 overflow<nsw> : index
        %5415 = arith.select %5413, %5414, %c536870911 : index
        vector.store %5412, %450[%5415] : memref<?xf32, #amdgpu.address_space<fat_raw_buffer>>, vector<1xf32>
        %5416 = vector.extract_strided_slice %416 {offsets = [5], sizes = [1], strides = [1]} : vector<16xf32> to vector<1xf32>
        %5417 = arith.andi %904, %4990 : i1
        %5418 = arith.addi %4993, %208 overflow<nsw> : index
        %5419 = arith.select %5417, %5418, %c536870911 : index
        vector.store %5416, %450[%5419] : memref<?xf32, #amdgpu.address_space<fat_raw_buffer>>, vector<1xf32>
        %5420 = vector.extract_strided_slice %416 {offsets = [6], sizes = [1], strides = [1]} : vector<16xf32> to vector<1xf32>
        %5421 = arith.andi %904, %4998 : i1
        %5422 = arith.addi %5001, %208 overflow<nsw> : index
        %5423 = arith.select %5421, %5422, %c536870911 : index
        vector.store %5420, %450[%5423] : memref<?xf32, #amdgpu.address_space<fat_raw_buffer>>, vector<1xf32>
        %5424 = vector.extract_strided_slice %416 {offsets = [7], sizes = [1], strides = [1]} : vector<16xf32> to vector<1xf32>
        %5425 = arith.andi %904, %5006 : i1
        %5426 = arith.addi %5009, %208 overflow<nsw> : index
        %5427 = arith.select %5425, %5426, %c536870911 : index
        vector.store %5424, %450[%5427] : memref<?xf32, #amdgpu.address_space<fat_raw_buffer>>, vector<1xf32>
        %5428 = vector.extract_strided_slice %416 {offsets = [8], sizes = [1], strides = [1]} : vector<16xf32> to vector<1xf32>
        %5429 = arith.andi %904, %5014 : i1
        %5430 = arith.addi %5017, %208 overflow<nsw> : index
        %5431 = arith.select %5429, %5430, %c536870911 : index
        vector.store %5428, %450[%5431] : memref<?xf32, #amdgpu.address_space<fat_raw_buffer>>, vector<1xf32>
        %5432 = vector.extract_strided_slice %416 {offsets = [9], sizes = [1], strides = [1]} : vector<16xf32> to vector<1xf32>
        %5433 = arith.andi %904, %5022 : i1
        %5434 = arith.addi %5025, %208 overflow<nsw> : index
        %5435 = arith.select %5433, %5434, %c536870911 : index
        vector.store %5432, %450[%5435] : memref<?xf32, #amdgpu.address_space<fat_raw_buffer>>, vector<1xf32>
        %5436 = vector.extract_strided_slice %416 {offsets = [10], sizes = [1], strides = [1]} : vector<16xf32> to vector<1xf32>
        %5437 = arith.andi %904, %5030 : i1
        %5438 = arith.addi %5033, %208 overflow<nsw> : index
        %5439 = arith.select %5437, %5438, %c536870911 : index
        vector.store %5436, %450[%5439] : memref<?xf32, #amdgpu.address_space<fat_raw_buffer>>, vector<1xf32>
        %5440 = vector.extract_strided_slice %416 {offsets = [11], sizes = [1], strides = [1]} : vector<16xf32> to vector<1xf32>
        %5441 = arith.andi %904, %5038 : i1
        %5442 = arith.addi %5041, %208 overflow<nsw> : index
        %5443 = arith.select %5441, %5442, %c536870911 : index
        vector.store %5440, %450[%5443] : memref<?xf32, #amdgpu.address_space<fat_raw_buffer>>, vector<1xf32>
        %5444 = vector.extract_strided_slice %416 {offsets = [12], sizes = [1], strides = [1]} : vector<16xf32> to vector<1xf32>
        %5445 = arith.andi %904, %5046 : i1
        %5446 = arith.addi %5049, %208 overflow<nsw> : index
        %5447 = arith.select %5445, %5446, %c536870911 : index
        vector.store %5444, %450[%5447] : memref<?xf32, #amdgpu.address_space<fat_raw_buffer>>, vector<1xf32>
        %5448 = vector.extract_strided_slice %416 {offsets = [13], sizes = [1], strides = [1]} : vector<16xf32> to vector<1xf32>
        %5449 = arith.andi %904, %5054 : i1
        %5450 = arith.addi %5057, %208 overflow<nsw> : index
        %5451 = arith.select %5449, %5450, %c536870911 : index
        vector.store %5448, %450[%5451] : memref<?xf32, #amdgpu.address_space<fat_raw_buffer>>, vector<1xf32>
        %5452 = vector.extract_strided_slice %416 {offsets = [14], sizes = [1], strides = [1]} : vector<16xf32> to vector<1xf32>
        %5453 = arith.andi %904, %5062 : i1
        %5454 = arith.addi %5065, %208 overflow<nsw> : index
        %5455 = arith.select %5453, %5454, %c536870911 : index
        vector.store %5452, %450[%5455] : memref<?xf32, #amdgpu.address_space<fat_raw_buffer>>, vector<1xf32>
        %5456 = vector.extract_strided_slice %416 {offsets = [15], sizes = [1], strides = [1]} : vector<16xf32> to vector<1xf32>
        %5457 = arith.andi %904, %5070 : i1
        %5458 = arith.addi %5073, %208 overflow<nsw> : index
        %5459 = arith.select %5457, %5458, %c536870911 : index
        vector.store %5456, %450[%5459] : memref<?xf32, #amdgpu.address_space<fat_raw_buffer>>, vector<1xf32>
        %5460 = vector.extract_strided_slice %418 {offsets = [0], sizes = [1], strides = [1]} : vector<16xf32> to vector<1xf32>
        %5461 = arith.andi %970, %4950 : i1
        %5462 = arith.addi %4953, %213 overflow<nsw> : index
        %5463 = arith.select %5461, %5462, %c536870911 : index
        vector.store %5460, %450[%5463] : memref<?xf32, #amdgpu.address_space<fat_raw_buffer>>, vector<1xf32>
        %5464 = vector.extract_strided_slice %418 {offsets = [1], sizes = [1], strides = [1]} : vector<16xf32> to vector<1xf32>
        %5465 = arith.andi %970, %4958 : i1
        %5466 = arith.addi %4961, %213 overflow<nsw> : index
        %5467 = arith.select %5465, %5466, %c536870911 : index
        vector.store %5464, %450[%5467] : memref<?xf32, #amdgpu.address_space<fat_raw_buffer>>, vector<1xf32>
        %5468 = vector.extract_strided_slice %418 {offsets = [2], sizes = [1], strides = [1]} : vector<16xf32> to vector<1xf32>
        %5469 = arith.andi %970, %4966 : i1
        %5470 = arith.addi %4969, %213 overflow<nsw> : index
        %5471 = arith.select %5469, %5470, %c536870911 : index
        vector.store %5468, %450[%5471] : memref<?xf32, #amdgpu.address_space<fat_raw_buffer>>, vector<1xf32>
        %5472 = vector.extract_strided_slice %418 {offsets = [3], sizes = [1], strides = [1]} : vector<16xf32> to vector<1xf32>
        %5473 = arith.andi %970, %4974 : i1
        %5474 = arith.addi %4977, %213 overflow<nsw> : index
        %5475 = arith.select %5473, %5474, %c536870911 : index
        vector.store %5472, %450[%5475] : memref<?xf32, #amdgpu.address_space<fat_raw_buffer>>, vector<1xf32>
        %5476 = vector.extract_strided_slice %418 {offsets = [4], sizes = [1], strides = [1]} : vector<16xf32> to vector<1xf32>
        %5477 = arith.andi %970, %4982 : i1
        %5478 = arith.addi %4985, %213 overflow<nsw> : index
        %5479 = arith.select %5477, %5478, %c536870911 : index
        vector.store %5476, %450[%5479] : memref<?xf32, #amdgpu.address_space<fat_raw_buffer>>, vector<1xf32>
        %5480 = vector.extract_strided_slice %418 {offsets = [5], sizes = [1], strides = [1]} : vector<16xf32> to vector<1xf32>
        %5481 = arith.andi %970, %4990 : i1
        %5482 = arith.addi %4993, %213 overflow<nsw> : index
        %5483 = arith.select %5481, %5482, %c536870911 : index
        vector.store %5480, %450[%5483] : memref<?xf32, #amdgpu.address_space<fat_raw_buffer>>, vector<1xf32>
        %5484 = vector.extract_strided_slice %418 {offsets = [6], sizes = [1], strides = [1]} : vector<16xf32> to vector<1xf32>
        %5485 = arith.andi %970, %4998 : i1
        %5486 = arith.addi %5001, %213 overflow<nsw> : index
        %5487 = arith.select %5485, %5486, %c536870911 : index
        vector.store %5484, %450[%5487] : memref<?xf32, #amdgpu.address_space<fat_raw_buffer>>, vector<1xf32>
        %5488 = vector.extract_strided_slice %418 {offsets = [7], sizes = [1], strides = [1]} : vector<16xf32> to vector<1xf32>
        %5489 = arith.andi %970, %5006 : i1
        %5490 = arith.addi %5009, %213 overflow<nsw> : index
        %5491 = arith.select %5489, %5490, %c536870911 : index
        vector.store %5488, %450[%5491] : memref<?xf32, #amdgpu.address_space<fat_raw_buffer>>, vector<1xf32>
        %5492 = vector.extract_strided_slice %418 {offsets = [8], sizes = [1], strides = [1]} : vector<16xf32> to vector<1xf32>
        %5493 = arith.andi %970, %5014 : i1
        %5494 = arith.addi %5017, %213 overflow<nsw> : index
        %5495 = arith.select %5493, %5494, %c536870911 : index
        vector.store %5492, %450[%5495] : memref<?xf32, #amdgpu.address_space<fat_raw_buffer>>, vector<1xf32>
        %5496 = vector.extract_strided_slice %418 {offsets = [9], sizes = [1], strides = [1]} : vector<16xf32> to vector<1xf32>
        %5497 = arith.andi %970, %5022 : i1
        %5498 = arith.addi %5025, %213 overflow<nsw> : index
        %5499 = arith.select %5497, %5498, %c536870911 : index
        vector.store %5496, %450[%5499] : memref<?xf32, #amdgpu.address_space<fat_raw_buffer>>, vector<1xf32>
        %5500 = vector.extract_strided_slice %418 {offsets = [10], sizes = [1], strides = [1]} : vector<16xf32> to vector<1xf32>
        %5501 = arith.andi %970, %5030 : i1
        %5502 = arith.addi %5033, %213 overflow<nsw> : index
        %5503 = arith.select %5501, %5502, %c536870911 : index
        vector.store %5500, %450[%5503] : memref<?xf32, #amdgpu.address_space<fat_raw_buffer>>, vector<1xf32>
        %5504 = vector.extract_strided_slice %418 {offsets = [11], sizes = [1], strides = [1]} : vector<16xf32> to vector<1xf32>
        %5505 = arith.andi %970, %5038 : i1
        %5506 = arith.addi %5041, %213 overflow<nsw> : index
        %5507 = arith.select %5505, %5506, %c536870911 : index
        vector.store %5504, %450[%5507] : memref<?xf32, #amdgpu.address_space<fat_raw_buffer>>, vector<1xf32>
        %5508 = vector.extract_strided_slice %418 {offsets = [12], sizes = [1], strides = [1]} : vector<16xf32> to vector<1xf32>
        %5509 = arith.andi %970, %5046 : i1
        %5510 = arith.addi %5049, %213 overflow<nsw> : index
        %5511 = arith.select %5509, %5510, %c536870911 : index
        vector.store %5508, %450[%5511] : memref<?xf32, #amdgpu.address_space<fat_raw_buffer>>, vector<1xf32>
        %5512 = vector.extract_strided_slice %418 {offsets = [13], sizes = [1], strides = [1]} : vector<16xf32> to vector<1xf32>
        %5513 = arith.andi %970, %5054 : i1
        %5514 = arith.addi %5057, %213 overflow<nsw> : index
        %5515 = arith.select %5513, %5514, %c536870911 : index
        vector.store %5512, %450[%5515] : memref<?xf32, #amdgpu.address_space<fat_raw_buffer>>, vector<1xf32>
        %5516 = vector.extract_strided_slice %418 {offsets = [14], sizes = [1], strides = [1]} : vector<16xf32> to vector<1xf32>
        %5517 = arith.andi %970, %5062 : i1
        %5518 = arith.addi %5065, %213 overflow<nsw> : index
        %5519 = arith.select %5517, %5518, %c536870911 : index
        vector.store %5516, %450[%5519] : memref<?xf32, #amdgpu.address_space<fat_raw_buffer>>, vector<1xf32>
        %5520 = vector.extract_strided_slice %418 {offsets = [15], sizes = [1], strides = [1]} : vector<16xf32> to vector<1xf32>
        %5521 = arith.andi %970, %5070 : i1
        %5522 = arith.addi %5073, %213 overflow<nsw> : index
        %5523 = arith.select %5521, %5522, %c536870911 : index
        vector.store %5520, %450[%5523] : memref<?xf32, #amdgpu.address_space<fat_raw_buffer>>, vector<1xf32>
        %5524 = vector.extract_strided_slice %420 {offsets = [0], sizes = [1], strides = [1]} : vector<16xf32> to vector<1xf32>
        %5525 = arith.andi %1036, %4950 : i1
        %5526 = arith.addi %4953, %218 overflow<nsw> : index
        %5527 = arith.select %5525, %5526, %c536870911 : index
        vector.store %5524, %450[%5527] : memref<?xf32, #amdgpu.address_space<fat_raw_buffer>>, vector<1xf32>
        %5528 = vector.extract_strided_slice %420 {offsets = [1], sizes = [1], strides = [1]} : vector<16xf32> to vector<1xf32>
        %5529 = arith.andi %1036, %4958 : i1
        %5530 = arith.addi %4961, %218 overflow<nsw> : index
        %5531 = arith.select %5529, %5530, %c536870911 : index
        vector.store %5528, %450[%5531] : memref<?xf32, #amdgpu.address_space<fat_raw_buffer>>, vector<1xf32>
        %5532 = vector.extract_strided_slice %420 {offsets = [2], sizes = [1], strides = [1]} : vector<16xf32> to vector<1xf32>
        %5533 = arith.andi %1036, %4966 : i1
        %5534 = arith.addi %4969, %218 overflow<nsw> : index
        %5535 = arith.select %5533, %5534, %c536870911 : index
        vector.store %5532, %450[%5535] : memref<?xf32, #amdgpu.address_space<fat_raw_buffer>>, vector<1xf32>
        %5536 = vector.extract_strided_slice %420 {offsets = [3], sizes = [1], strides = [1]} : vector<16xf32> to vector<1xf32>
        %5537 = arith.andi %1036, %4974 : i1
        %5538 = arith.addi %4977, %218 overflow<nsw> : index
        %5539 = arith.select %5537, %5538, %c536870911 : index
        vector.store %5536, %450[%5539] : memref<?xf32, #amdgpu.address_space<fat_raw_buffer>>, vector<1xf32>
        %5540 = vector.extract_strided_slice %420 {offsets = [4], sizes = [1], strides = [1]} : vector<16xf32> to vector<1xf32>
        %5541 = arith.andi %1036, %4982 : i1
        %5542 = arith.addi %4985, %218 overflow<nsw> : index
        %5543 = arith.select %5541, %5542, %c536870911 : index
        vector.store %5540, %450[%5543] : memref<?xf32, #amdgpu.address_space<fat_raw_buffer>>, vector<1xf32>
        %5544 = vector.extract_strided_slice %420 {offsets = [5], sizes = [1], strides = [1]} : vector<16xf32> to vector<1xf32>
        %5545 = arith.andi %1036, %4990 : i1
        %5546 = arith.addi %4993, %218 overflow<nsw> : index
        %5547 = arith.select %5545, %5546, %c536870911 : index
        vector.store %5544, %450[%5547] : memref<?xf32, #amdgpu.address_space<fat_raw_buffer>>, vector<1xf32>
        %5548 = vector.extract_strided_slice %420 {offsets = [6], sizes = [1], strides = [1]} : vector<16xf32> to vector<1xf32>
        %5549 = arith.andi %1036, %4998 : i1
        %5550 = arith.addi %5001, %218 overflow<nsw> : index
        %5551 = arith.select %5549, %5550, %c536870911 : index
        vector.store %5548, %450[%5551] : memref<?xf32, #amdgpu.address_space<fat_raw_buffer>>, vector<1xf32>
        %5552 = vector.extract_strided_slice %420 {offsets = [7], sizes = [1], strides = [1]} : vector<16xf32> to vector<1xf32>
        %5553 = arith.andi %1036, %5006 : i1
        %5554 = arith.addi %5009, %218 overflow<nsw> : index
        %5555 = arith.select %5553, %5554, %c536870911 : index
        vector.store %5552, %450[%5555] : memref<?xf32, #amdgpu.address_space<fat_raw_buffer>>, vector<1xf32>
        %5556 = vector.extract_strided_slice %420 {offsets = [8], sizes = [1], strides = [1]} : vector<16xf32> to vector<1xf32>
        %5557 = arith.andi %1036, %5014 : i1
        %5558 = arith.addi %5017, %218 overflow<nsw> : index
        %5559 = arith.select %5557, %5558, %c536870911 : index
        vector.store %5556, %450[%5559] : memref<?xf32, #amdgpu.address_space<fat_raw_buffer>>, vector<1xf32>
        %5560 = vector.extract_strided_slice %420 {offsets = [9], sizes = [1], strides = [1]} : vector<16xf32> to vector<1xf32>
        %5561 = arith.andi %1036, %5022 : i1
        %5562 = arith.addi %5025, %218 overflow<nsw> : index
        %5563 = arith.select %5561, %5562, %c536870911 : index
        vector.store %5560, %450[%5563] : memref<?xf32, #amdgpu.address_space<fat_raw_buffer>>, vector<1xf32>
        %5564 = vector.extract_strided_slice %420 {offsets = [10], sizes = [1], strides = [1]} : vector<16xf32> to vector<1xf32>
        %5565 = arith.andi %1036, %5030 : i1
        %5566 = arith.addi %5033, %218 overflow<nsw> : index
        %5567 = arith.select %5565, %5566, %c536870911 : index
        vector.store %5564, %450[%5567] : memref<?xf32, #amdgpu.address_space<fat_raw_buffer>>, vector<1xf32>
        %5568 = vector.extract_strided_slice %420 {offsets = [11], sizes = [1], strides = [1]} : vector<16xf32> to vector<1xf32>
        %5569 = arith.andi %1036, %5038 : i1
        %5570 = arith.addi %5041, %218 overflow<nsw> : index
        %5571 = arith.select %5569, %5570, %c536870911 : index
        vector.store %5568, %450[%5571] : memref<?xf32, #amdgpu.address_space<fat_raw_buffer>>, vector<1xf32>
        %5572 = vector.extract_strided_slice %420 {offsets = [12], sizes = [1], strides = [1]} : vector<16xf32> to vector<1xf32>
        %5573 = arith.andi %1036, %5046 : i1
        %5574 = arith.addi %5049, %218 overflow<nsw> : index
        %5575 = arith.select %5573, %5574, %c536870911 : index
        vector.store %5572, %450[%5575] : memref<?xf32, #amdgpu.address_space<fat_raw_buffer>>, vector<1xf32>
        %5576 = vector.extract_strided_slice %420 {offsets = [13], sizes = [1], strides = [1]} : vector<16xf32> to vector<1xf32>
        %5577 = arith.andi %1036, %5054 : i1
        %5578 = arith.addi %5057, %218 overflow<nsw> : index
        %5579 = arith.select %5577, %5578, %c536870911 : index
        vector.store %5576, %450[%5579] : memref<?xf32, #amdgpu.address_space<fat_raw_buffer>>, vector<1xf32>
        %5580 = vector.extract_strided_slice %420 {offsets = [14], sizes = [1], strides = [1]} : vector<16xf32> to vector<1xf32>
        %5581 = arith.andi %1036, %5062 : i1
        %5582 = arith.addi %5065, %218 overflow<nsw> : index
        %5583 = arith.select %5581, %5582, %c536870911 : index
        vector.store %5580, %450[%5583] : memref<?xf32, #amdgpu.address_space<fat_raw_buffer>>, vector<1xf32>
        %5584 = vector.extract_strided_slice %420 {offsets = [15], sizes = [1], strides = [1]} : vector<16xf32> to vector<1xf32>
        %5585 = arith.andi %1036, %5070 : i1
        %5586 = arith.addi %5073, %218 overflow<nsw> : index
        %5587 = arith.select %5585, %5586, %c536870911 : index
        vector.store %5584, %450[%5587] : memref<?xf32, #amdgpu.address_space<fat_raw_buffer>>, vector<1xf32>
        %5588 = vector.extract_strided_slice %422 {offsets = [0], sizes = [1], strides = [1]} : vector<16xf32> to vector<1xf32>
        %5589 = arith.andi %1102, %4950 : i1
        %5590 = arith.addi %4953, %223 overflow<nsw> : index
        %5591 = arith.select %5589, %5590, %c536870911 : index
        vector.store %5588, %450[%5591] : memref<?xf32, #amdgpu.address_space<fat_raw_buffer>>, vector<1xf32>
        %5592 = vector.extract_strided_slice %422 {offsets = [1], sizes = [1], strides = [1]} : vector<16xf32> to vector<1xf32>
        %5593 = arith.andi %1102, %4958 : i1
        %5594 = arith.addi %4961, %223 overflow<nsw> : index
        %5595 = arith.select %5593, %5594, %c536870911 : index
        vector.store %5592, %450[%5595] : memref<?xf32, #amdgpu.address_space<fat_raw_buffer>>, vector<1xf32>
        %5596 = vector.extract_strided_slice %422 {offsets = [2], sizes = [1], strides = [1]} : vector<16xf32> to vector<1xf32>
        %5597 = arith.andi %1102, %4966 : i1
        %5598 = arith.addi %4969, %223 overflow<nsw> : index
        %5599 = arith.select %5597, %5598, %c536870911 : index
        vector.store %5596, %450[%5599] : memref<?xf32, #amdgpu.address_space<fat_raw_buffer>>, vector<1xf32>
        %5600 = vector.extract_strided_slice %422 {offsets = [3], sizes = [1], strides = [1]} : vector<16xf32> to vector<1xf32>
        %5601 = arith.andi %1102, %4974 : i1
        %5602 = arith.addi %4977, %223 overflow<nsw> : index
        %5603 = arith.select %5601, %5602, %c536870911 : index
        vector.store %5600, %450[%5603] : memref<?xf32, #amdgpu.address_space<fat_raw_buffer>>, vector<1xf32>
        %5604 = vector.extract_strided_slice %422 {offsets = [4], sizes = [1], strides = [1]} : vector<16xf32> to vector<1xf32>
        %5605 = arith.andi %1102, %4982 : i1
        %5606 = arith.addi %4985, %223 overflow<nsw> : index
        %5607 = arith.select %5605, %5606, %c536870911 : index
        vector.store %5604, %450[%5607] : memref<?xf32, #amdgpu.address_space<fat_raw_buffer>>, vector<1xf32>
        %5608 = vector.extract_strided_slice %422 {offsets = [5], sizes = [1], strides = [1]} : vector<16xf32> to vector<1xf32>
        %5609 = arith.andi %1102, %4990 : i1
        %5610 = arith.addi %4993, %223 overflow<nsw> : index
        %5611 = arith.select %5609, %5610, %c536870911 : index
        vector.store %5608, %450[%5611] : memref<?xf32, #amdgpu.address_space<fat_raw_buffer>>, vector<1xf32>
        %5612 = vector.extract_strided_slice %422 {offsets = [6], sizes = [1], strides = [1]} : vector<16xf32> to vector<1xf32>
        %5613 = arith.andi %1102, %4998 : i1
        %5614 = arith.addi %5001, %223 overflow<nsw> : index
        %5615 = arith.select %5613, %5614, %c536870911 : index
        vector.store %5612, %450[%5615] : memref<?xf32, #amdgpu.address_space<fat_raw_buffer>>, vector<1xf32>
        %5616 = vector.extract_strided_slice %422 {offsets = [7], sizes = [1], strides = [1]} : vector<16xf32> to vector<1xf32>
        %5617 = arith.andi %1102, %5006 : i1
        %5618 = arith.addi %5009, %223 overflow<nsw> : index
        %5619 = arith.select %5617, %5618, %c536870911 : index
        vector.store %5616, %450[%5619] : memref<?xf32, #amdgpu.address_space<fat_raw_buffer>>, vector<1xf32>
        %5620 = vector.extract_strided_slice %422 {offsets = [8], sizes = [1], strides = [1]} : vector<16xf32> to vector<1xf32>
        %5621 = arith.andi %1102, %5014 : i1
        %5622 = arith.addi %5017, %223 overflow<nsw> : index
        %5623 = arith.select %5621, %5622, %c536870911 : index
        vector.store %5620, %450[%5623] : memref<?xf32, #amdgpu.address_space<fat_raw_buffer>>, vector<1xf32>
        %5624 = vector.extract_strided_slice %422 {offsets = [9], sizes = [1], strides = [1]} : vector<16xf32> to vector<1xf32>
        %5625 = arith.andi %1102, %5022 : i1
        %5626 = arith.addi %5025, %223 overflow<nsw> : index
        %5627 = arith.select %5625, %5626, %c536870911 : index
        vector.store %5624, %450[%5627] : memref<?xf32, #amdgpu.address_space<fat_raw_buffer>>, vector<1xf32>
        %5628 = vector.extract_strided_slice %422 {offsets = [10], sizes = [1], strides = [1]} : vector<16xf32> to vector<1xf32>
        %5629 = arith.andi %1102, %5030 : i1
        %5630 = arith.addi %5033, %223 overflow<nsw> : index
        %5631 = arith.select %5629, %5630, %c536870911 : index
        vector.store %5628, %450[%5631] : memref<?xf32, #amdgpu.address_space<fat_raw_buffer>>, vector<1xf32>
        %5632 = vector.extract_strided_slice %422 {offsets = [11], sizes = [1], strides = [1]} : vector<16xf32> to vector<1xf32>
        %5633 = arith.andi %1102, %5038 : i1
        %5634 = arith.addi %5041, %223 overflow<nsw> : index
        %5635 = arith.select %5633, %5634, %c536870911 : index
        vector.store %5632, %450[%5635] : memref<?xf32, #amdgpu.address_space<fat_raw_buffer>>, vector<1xf32>
        %5636 = vector.extract_strided_slice %422 {offsets = [12], sizes = [1], strides = [1]} : vector<16xf32> to vector<1xf32>
        %5637 = arith.andi %1102, %5046 : i1
        %5638 = arith.addi %5049, %223 overflow<nsw> : index
        %5639 = arith.select %5637, %5638, %c536870911 : index
        vector.store %5636, %450[%5639] : memref<?xf32, #amdgpu.address_space<fat_raw_buffer>>, vector<1xf32>
        %5640 = vector.extract_strided_slice %422 {offsets = [13], sizes = [1], strides = [1]} : vector<16xf32> to vector<1xf32>
        %5641 = arith.andi %1102, %5054 : i1
        %5642 = arith.addi %5057, %223 overflow<nsw> : index
        %5643 = arith.select %5641, %5642, %c536870911 : index
        vector.store %5640, %450[%5643] : memref<?xf32, #amdgpu.address_space<fat_raw_buffer>>, vector<1xf32>
        %5644 = vector.extract_strided_slice %422 {offsets = [14], sizes = [1], strides = [1]} : vector<16xf32> to vector<1xf32>
        %5645 = arith.andi %1102, %5062 : i1
        %5646 = arith.addi %5065, %223 overflow<nsw> : index
        %5647 = arith.select %5645, %5646, %c536870911 : index
        vector.store %5644, %450[%5647] : memref<?xf32, #amdgpu.address_space<fat_raw_buffer>>, vector<1xf32>
        %5648 = vector.extract_strided_slice %422 {offsets = [15], sizes = [1], strides = [1]} : vector<16xf32> to vector<1xf32>
        %5649 = arith.andi %1102, %5070 : i1
        %5650 = arith.addi %5073, %223 overflow<nsw> : index
        %5651 = arith.select %5649, %5650, %c536870911 : index
        vector.store %5648, %450[%5651] : memref<?xf32, #amdgpu.address_space<fat_raw_buffer>>, vector<1xf32>
        %5652 = vector.extract_strided_slice %424 {offsets = [0], sizes = [1], strides = [1]} : vector<16xf32> to vector<1xf32>
        %5653 = arith.andi %1168, %4950 : i1
        %5654 = arith.addi %4953, %228 overflow<nsw> : index
        %5655 = arith.select %5653, %5654, %c536870911 : index
        vector.store %5652, %450[%5655] : memref<?xf32, #amdgpu.address_space<fat_raw_buffer>>, vector<1xf32>
        %5656 = vector.extract_strided_slice %424 {offsets = [1], sizes = [1], strides = [1]} : vector<16xf32> to vector<1xf32>
        %5657 = arith.andi %1168, %4958 : i1
        %5658 = arith.addi %4961, %228 overflow<nsw> : index
        %5659 = arith.select %5657, %5658, %c536870911 : index
        vector.store %5656, %450[%5659] : memref<?xf32, #amdgpu.address_space<fat_raw_buffer>>, vector<1xf32>
        %5660 = vector.extract_strided_slice %424 {offsets = [2], sizes = [1], strides = [1]} : vector<16xf32> to vector<1xf32>
        %5661 = arith.andi %1168, %4966 : i1
        %5662 = arith.addi %4969, %228 overflow<nsw> : index
        %5663 = arith.select %5661, %5662, %c536870911 : index
        vector.store %5660, %450[%5663] : memref<?xf32, #amdgpu.address_space<fat_raw_buffer>>, vector<1xf32>
        %5664 = vector.extract_strided_slice %424 {offsets = [3], sizes = [1], strides = [1]} : vector<16xf32> to vector<1xf32>
        %5665 = arith.andi %1168, %4974 : i1
        %5666 = arith.addi %4977, %228 overflow<nsw> : index
        %5667 = arith.select %5665, %5666, %c536870911 : index
        vector.store %5664, %450[%5667] : memref<?xf32, #amdgpu.address_space<fat_raw_buffer>>, vector<1xf32>
        %5668 = vector.extract_strided_slice %424 {offsets = [4], sizes = [1], strides = [1]} : vector<16xf32> to vector<1xf32>
        %5669 = arith.andi %1168, %4982 : i1
        %5670 = arith.addi %4985, %228 overflow<nsw> : index
        %5671 = arith.select %5669, %5670, %c536870911 : index
        vector.store %5668, %450[%5671] : memref<?xf32, #amdgpu.address_space<fat_raw_buffer>>, vector<1xf32>
        %5672 = vector.extract_strided_slice %424 {offsets = [5], sizes = [1], strides = [1]} : vector<16xf32> to vector<1xf32>
        %5673 = arith.andi %1168, %4990 : i1
        %5674 = arith.addi %4993, %228 overflow<nsw> : index
        %5675 = arith.select %5673, %5674, %c536870911 : index
        vector.store %5672, %450[%5675] : memref<?xf32, #amdgpu.address_space<fat_raw_buffer>>, vector<1xf32>
        %5676 = vector.extract_strided_slice %424 {offsets = [6], sizes = [1], strides = [1]} : vector<16xf32> to vector<1xf32>
        %5677 = arith.andi %1168, %4998 : i1
        %5678 = arith.addi %5001, %228 overflow<nsw> : index
        %5679 = arith.select %5677, %5678, %c536870911 : index
        vector.store %5676, %450[%5679] : memref<?xf32, #amdgpu.address_space<fat_raw_buffer>>, vector<1xf32>
        %5680 = vector.extract_strided_slice %424 {offsets = [7], sizes = [1], strides = [1]} : vector<16xf32> to vector<1xf32>
        %5681 = arith.andi %1168, %5006 : i1
        %5682 = arith.addi %5009, %228 overflow<nsw> : index
        %5683 = arith.select %5681, %5682, %c536870911 : index
        vector.store %5680, %450[%5683] : memref<?xf32, #amdgpu.address_space<fat_raw_buffer>>, vector<1xf32>
        %5684 = vector.extract_strided_slice %424 {offsets = [8], sizes = [1], strides = [1]} : vector<16xf32> to vector<1xf32>
        %5685 = arith.andi %1168, %5014 : i1
        %5686 = arith.addi %5017, %228 overflow<nsw> : index
        %5687 = arith.select %5685, %5686, %c536870911 : index
        vector.store %5684, %450[%5687] : memref<?xf32, #amdgpu.address_space<fat_raw_buffer>>, vector<1xf32>
        %5688 = vector.extract_strided_slice %424 {offsets = [9], sizes = [1], strides = [1]} : vector<16xf32> to vector<1xf32>
        %5689 = arith.andi %1168, %5022 : i1
        %5690 = arith.addi %5025, %228 overflow<nsw> : index
        %5691 = arith.select %5689, %5690, %c536870911 : index
        vector.store %5688, %450[%5691] : memref<?xf32, #amdgpu.address_space<fat_raw_buffer>>, vector<1xf32>
        %5692 = vector.extract_strided_slice %424 {offsets = [10], sizes = [1], strides = [1]} : vector<16xf32> to vector<1xf32>
        %5693 = arith.andi %1168, %5030 : i1
        %5694 = arith.addi %5033, %228 overflow<nsw> : index
        %5695 = arith.select %5693, %5694, %c536870911 : index
        vector.store %5692, %450[%5695] : memref<?xf32, #amdgpu.address_space<fat_raw_buffer>>, vector<1xf32>
        %5696 = vector.extract_strided_slice %424 {offsets = [11], sizes = [1], strides = [1]} : vector<16xf32> to vector<1xf32>
        %5697 = arith.andi %1168, %5038 : i1
        %5698 = arith.addi %5041, %228 overflow<nsw> : index
        %5699 = arith.select %5697, %5698, %c536870911 : index
        vector.store %5696, %450[%5699] : memref<?xf32, #amdgpu.address_space<fat_raw_buffer>>, vector<1xf32>
        %5700 = vector.extract_strided_slice %424 {offsets = [12], sizes = [1], strides = [1]} : vector<16xf32> to vector<1xf32>
        %5701 = arith.andi %1168, %5046 : i1
        %5702 = arith.addi %5049, %228 overflow<nsw> : index
        %5703 = arith.select %5701, %5702, %c536870911 : index
        vector.store %5700, %450[%5703] : memref<?xf32, #amdgpu.address_space<fat_raw_buffer>>, vector<1xf32>
        %5704 = vector.extract_strided_slice %424 {offsets = [13], sizes = [1], strides = [1]} : vector<16xf32> to vector<1xf32>
        %5705 = arith.andi %1168, %5054 : i1
        %5706 = arith.addi %5057, %228 overflow<nsw> : index
        %5707 = arith.select %5705, %5706, %c536870911 : index
        vector.store %5704, %450[%5707] : memref<?xf32, #amdgpu.address_space<fat_raw_buffer>>, vector<1xf32>
        %5708 = vector.extract_strided_slice %424 {offsets = [14], sizes = [1], strides = [1]} : vector<16xf32> to vector<1xf32>
        %5709 = arith.andi %1168, %5062 : i1
        %5710 = arith.addi %5065, %228 overflow<nsw> : index
        %5711 = arith.select %5709, %5710, %c536870911 : index
        vector.store %5708, %450[%5711] : memref<?xf32, #amdgpu.address_space<fat_raw_buffer>>, vector<1xf32>
        %5712 = vector.extract_strided_slice %424 {offsets = [15], sizes = [1], strides = [1]} : vector<16xf32> to vector<1xf32>
        %5713 = arith.andi %1168, %5070 : i1
        %5714 = arith.addi %5073, %228 overflow<nsw> : index
        %5715 = arith.select %5713, %5714, %c536870911 : index
        vector.store %5712, %450[%5715] : memref<?xf32, #amdgpu.address_space<fat_raw_buffer>>, vector<1xf32>
        %5716 = vector.extract_strided_slice %426 {offsets = [0], sizes = [1], strides = [1]} : vector<16xf32> to vector<1xf32>
        %5717 = arith.andi %1234, %4950 : i1
        %5718 = arith.addi %4953, %233 overflow<nsw> : index
        %5719 = arith.select %5717, %5718, %c536870911 : index
        vector.store %5716, %450[%5719] : memref<?xf32, #amdgpu.address_space<fat_raw_buffer>>, vector<1xf32>
        %5720 = vector.extract_strided_slice %426 {offsets = [1], sizes = [1], strides = [1]} : vector<16xf32> to vector<1xf32>
        %5721 = arith.andi %1234, %4958 : i1
        %5722 = arith.addi %4961, %233 overflow<nsw> : index
        %5723 = arith.select %5721, %5722, %c536870911 : index
        vector.store %5720, %450[%5723] : memref<?xf32, #amdgpu.address_space<fat_raw_buffer>>, vector<1xf32>
        %5724 = vector.extract_strided_slice %426 {offsets = [2], sizes = [1], strides = [1]} : vector<16xf32> to vector<1xf32>
        %5725 = arith.andi %1234, %4966 : i1
        %5726 = arith.addi %4969, %233 overflow<nsw> : index
        %5727 = arith.select %5725, %5726, %c536870911 : index
        vector.store %5724, %450[%5727] : memref<?xf32, #amdgpu.address_space<fat_raw_buffer>>, vector<1xf32>
        %5728 = vector.extract_strided_slice %426 {offsets = [3], sizes = [1], strides = [1]} : vector<16xf32> to vector<1xf32>
        %5729 = arith.andi %1234, %4974 : i1
        %5730 = arith.addi %4977, %233 overflow<nsw> : index
        %5731 = arith.select %5729, %5730, %c536870911 : index
        vector.store %5728, %450[%5731] : memref<?xf32, #amdgpu.address_space<fat_raw_buffer>>, vector<1xf32>
        %5732 = vector.extract_strided_slice %426 {offsets = [4], sizes = [1], strides = [1]} : vector<16xf32> to vector<1xf32>
        %5733 = arith.andi %1234, %4982 : i1
        %5734 = arith.addi %4985, %233 overflow<nsw> : index
        %5735 = arith.select %5733, %5734, %c536870911 : index
        vector.store %5732, %450[%5735] : memref<?xf32, #amdgpu.address_space<fat_raw_buffer>>, vector<1xf32>
        %5736 = vector.extract_strided_slice %426 {offsets = [5], sizes = [1], strides = [1]} : vector<16xf32> to vector<1xf32>
        %5737 = arith.andi %1234, %4990 : i1
        %5738 = arith.addi %4993, %233 overflow<nsw> : index
        %5739 = arith.select %5737, %5738, %c536870911 : index
        vector.store %5736, %450[%5739] : memref<?xf32, #amdgpu.address_space<fat_raw_buffer>>, vector<1xf32>
        %5740 = vector.extract_strided_slice %426 {offsets = [6], sizes = [1], strides = [1]} : vector<16xf32> to vector<1xf32>
        %5741 = arith.andi %1234, %4998 : i1
        %5742 = arith.addi %5001, %233 overflow<nsw> : index
        %5743 = arith.select %5741, %5742, %c536870911 : index
        vector.store %5740, %450[%5743] : memref<?xf32, #amdgpu.address_space<fat_raw_buffer>>, vector<1xf32>
        %5744 = vector.extract_strided_slice %426 {offsets = [7], sizes = [1], strides = [1]} : vector<16xf32> to vector<1xf32>
        %5745 = arith.andi %1234, %5006 : i1
        %5746 = arith.addi %5009, %233 overflow<nsw> : index
        %5747 = arith.select %5745, %5746, %c536870911 : index
        vector.store %5744, %450[%5747] : memref<?xf32, #amdgpu.address_space<fat_raw_buffer>>, vector<1xf32>
        %5748 = vector.extract_strided_slice %426 {offsets = [8], sizes = [1], strides = [1]} : vector<16xf32> to vector<1xf32>
        %5749 = arith.andi %1234, %5014 : i1
        %5750 = arith.addi %5017, %233 overflow<nsw> : index
        %5751 = arith.select %5749, %5750, %c536870911 : index
        vector.store %5748, %450[%5751] : memref<?xf32, #amdgpu.address_space<fat_raw_buffer>>, vector<1xf32>
        %5752 = vector.extract_strided_slice %426 {offsets = [9], sizes = [1], strides = [1]} : vector<16xf32> to vector<1xf32>
        %5753 = arith.andi %1234, %5022 : i1
        %5754 = arith.addi %5025, %233 overflow<nsw> : index
        %5755 = arith.select %5753, %5754, %c536870911 : index
        vector.store %5752, %450[%5755] : memref<?xf32, #amdgpu.address_space<fat_raw_buffer>>, vector<1xf32>
        %5756 = vector.extract_strided_slice %426 {offsets = [10], sizes = [1], strides = [1]} : vector<16xf32> to vector<1xf32>
        %5757 = arith.andi %1234, %5030 : i1
        %5758 = arith.addi %5033, %233 overflow<nsw> : index
        %5759 = arith.select %5757, %5758, %c536870911 : index
        vector.store %5756, %450[%5759] : memref<?xf32, #amdgpu.address_space<fat_raw_buffer>>, vector<1xf32>
        %5760 = vector.extract_strided_slice %426 {offsets = [11], sizes = [1], strides = [1]} : vector<16xf32> to vector<1xf32>
        %5761 = arith.andi %1234, %5038 : i1
        %5762 = arith.addi %5041, %233 overflow<nsw> : index
        %5763 = arith.select %5761, %5762, %c536870911 : index
        vector.store %5760, %450[%5763] : memref<?xf32, #amdgpu.address_space<fat_raw_buffer>>, vector<1xf32>
        %5764 = vector.extract_strided_slice %426 {offsets = [12], sizes = [1], strides = [1]} : vector<16xf32> to vector<1xf32>
        %5765 = arith.andi %1234, %5046 : i1
        %5766 = arith.addi %5049, %233 overflow<nsw> : index
        %5767 = arith.select %5765, %5766, %c536870911 : index
        vector.store %5764, %450[%5767] : memref<?xf32, #amdgpu.address_space<fat_raw_buffer>>, vector<1xf32>
        %5768 = vector.extract_strided_slice %426 {offsets = [13], sizes = [1], strides = [1]} : vector<16xf32> to vector<1xf32>
        %5769 = arith.andi %1234, %5054 : i1
        %5770 = arith.addi %5057, %233 overflow<nsw> : index
        %5771 = arith.select %5769, %5770, %c536870911 : index
        vector.store %5768, %450[%5771] : memref<?xf32, #amdgpu.address_space<fat_raw_buffer>>, vector<1xf32>
        %5772 = vector.extract_strided_slice %426 {offsets = [14], sizes = [1], strides = [1]} : vector<16xf32> to vector<1xf32>
        %5773 = arith.andi %1234, %5062 : i1
        %5774 = arith.addi %5065, %233 overflow<nsw> : index
        %5775 = arith.select %5773, %5774, %c536870911 : index
        vector.store %5772, %450[%5775] : memref<?xf32, #amdgpu.address_space<fat_raw_buffer>>, vector<1xf32>
        %5776 = vector.extract_strided_slice %426 {offsets = [15], sizes = [1], strides = [1]} : vector<16xf32> to vector<1xf32>
        %5777 = arith.andi %1234, %5070 : i1
        %5778 = arith.addi %5073, %233 overflow<nsw> : index
        %5779 = arith.select %5777, %5778, %c536870911 : index
        vector.store %5776, %450[%5779] : memref<?xf32, #amdgpu.address_space<fat_raw_buffer>>, vector<1xf32>
        %5780 = vector.extract_strided_slice %428 {offsets = [0], sizes = [1], strides = [1]} : vector<16xf32> to vector<1xf32>
        %5781 = arith.andi %1300, %4950 : i1
        %5782 = arith.addi %4953, %238 overflow<nsw> : index
        %5783 = arith.select %5781, %5782, %c536870911 : index
        vector.store %5780, %450[%5783] : memref<?xf32, #amdgpu.address_space<fat_raw_buffer>>, vector<1xf32>
        %5784 = vector.extract_strided_slice %428 {offsets = [1], sizes = [1], strides = [1]} : vector<16xf32> to vector<1xf32>
        %5785 = arith.andi %1300, %4958 : i1
        %5786 = arith.addi %4961, %238 overflow<nsw> : index
        %5787 = arith.select %5785, %5786, %c536870911 : index
        vector.store %5784, %450[%5787] : memref<?xf32, #amdgpu.address_space<fat_raw_buffer>>, vector<1xf32>
        %5788 = vector.extract_strided_slice %428 {offsets = [2], sizes = [1], strides = [1]} : vector<16xf32> to vector<1xf32>
        %5789 = arith.andi %1300, %4966 : i1
        %5790 = arith.addi %4969, %238 overflow<nsw> : index
        %5791 = arith.select %5789, %5790, %c536870911 : index
        vector.store %5788, %450[%5791] : memref<?xf32, #amdgpu.address_space<fat_raw_buffer>>, vector<1xf32>
        %5792 = vector.extract_strided_slice %428 {offsets = [3], sizes = [1], strides = [1]} : vector<16xf32> to vector<1xf32>
        %5793 = arith.andi %1300, %4974 : i1
        %5794 = arith.addi %4977, %238 overflow<nsw> : index
        %5795 = arith.select %5793, %5794, %c536870911 : index
        vector.store %5792, %450[%5795] : memref<?xf32, #amdgpu.address_space<fat_raw_buffer>>, vector<1xf32>
        %5796 = vector.extract_strided_slice %428 {offsets = [4], sizes = [1], strides = [1]} : vector<16xf32> to vector<1xf32>
        %5797 = arith.andi %1300, %4982 : i1
        %5798 = arith.addi %4985, %238 overflow<nsw> : index
        %5799 = arith.select %5797, %5798, %c536870911 : index
        vector.store %5796, %450[%5799] : memref<?xf32, #amdgpu.address_space<fat_raw_buffer>>, vector<1xf32>
        %5800 = vector.extract_strided_slice %428 {offsets = [5], sizes = [1], strides = [1]} : vector<16xf32> to vector<1xf32>
        %5801 = arith.andi %1300, %4990 : i1
        %5802 = arith.addi %4993, %238 overflow<nsw> : index
        %5803 = arith.select %5801, %5802, %c536870911 : index
        vector.store %5800, %450[%5803] : memref<?xf32, #amdgpu.address_space<fat_raw_buffer>>, vector<1xf32>
        %5804 = vector.extract_strided_slice %428 {offsets = [6], sizes = [1], strides = [1]} : vector<16xf32> to vector<1xf32>
        %5805 = arith.andi %1300, %4998 : i1
        %5806 = arith.addi %5001, %238 overflow<nsw> : index
        %5807 = arith.select %5805, %5806, %c536870911 : index
        vector.store %5804, %450[%5807] : memref<?xf32, #amdgpu.address_space<fat_raw_buffer>>, vector<1xf32>
        %5808 = vector.extract_strided_slice %428 {offsets = [7], sizes = [1], strides = [1]} : vector<16xf32> to vector<1xf32>
        %5809 = arith.andi %1300, %5006 : i1
        %5810 = arith.addi %5009, %238 overflow<nsw> : index
        %5811 = arith.select %5809, %5810, %c536870911 : index
        vector.store %5808, %450[%5811] : memref<?xf32, #amdgpu.address_space<fat_raw_buffer>>, vector<1xf32>
        %5812 = vector.extract_strided_slice %428 {offsets = [8], sizes = [1], strides = [1]} : vector<16xf32> to vector<1xf32>
        %5813 = arith.andi %1300, %5014 : i1
        %5814 = arith.addi %5017, %238 overflow<nsw> : index
        %5815 = arith.select %5813, %5814, %c536870911 : index
        vector.store %5812, %450[%5815] : memref<?xf32, #amdgpu.address_space<fat_raw_buffer>>, vector<1xf32>
        %5816 = vector.extract_strided_slice %428 {offsets = [9], sizes = [1], strides = [1]} : vector<16xf32> to vector<1xf32>
        %5817 = arith.andi %1300, %5022 : i1
        %5818 = arith.addi %5025, %238 overflow<nsw> : index
        %5819 = arith.select %5817, %5818, %c536870911 : index
        vector.store %5816, %450[%5819] : memref<?xf32, #amdgpu.address_space<fat_raw_buffer>>, vector<1xf32>
        %5820 = vector.extract_strided_slice %428 {offsets = [10], sizes = [1], strides = [1]} : vector<16xf32> to vector<1xf32>
        %5821 = arith.andi %1300, %5030 : i1
        %5822 = arith.addi %5033, %238 overflow<nsw> : index
        %5823 = arith.select %5821, %5822, %c536870911 : index
        vector.store %5820, %450[%5823] : memref<?xf32, #amdgpu.address_space<fat_raw_buffer>>, vector<1xf32>
        %5824 = vector.extract_strided_slice %428 {offsets = [11], sizes = [1], strides = [1]} : vector<16xf32> to vector<1xf32>
        %5825 = arith.andi %1300, %5038 : i1
        %5826 = arith.addi %5041, %238 overflow<nsw> : index
        %5827 = arith.select %5825, %5826, %c536870911 : index
        vector.store %5824, %450[%5827] : memref<?xf32, #amdgpu.address_space<fat_raw_buffer>>, vector<1xf32>
        %5828 = vector.extract_strided_slice %428 {offsets = [12], sizes = [1], strides = [1]} : vector<16xf32> to vector<1xf32>
        %5829 = arith.andi %1300, %5046 : i1
        %5830 = arith.addi %5049, %238 overflow<nsw> : index
        %5831 = arith.select %5829, %5830, %c536870911 : index
        vector.store %5828, %450[%5831] : memref<?xf32, #amdgpu.address_space<fat_raw_buffer>>, vector<1xf32>
        %5832 = vector.extract_strided_slice %428 {offsets = [13], sizes = [1], strides = [1]} : vector<16xf32> to vector<1xf32>
        %5833 = arith.andi %1300, %5054 : i1
        %5834 = arith.addi %5057, %238 overflow<nsw> : index
        %5835 = arith.select %5833, %5834, %c536870911 : index
        vector.store %5832, %450[%5835] : memref<?xf32, #amdgpu.address_space<fat_raw_buffer>>, vector<1xf32>
        %5836 = vector.extract_strided_slice %428 {offsets = [14], sizes = [1], strides = [1]} : vector<16xf32> to vector<1xf32>
        %5837 = arith.andi %1300, %5062 : i1
        %5838 = arith.addi %5065, %238 overflow<nsw> : index
        %5839 = arith.select %5837, %5838, %c536870911 : index
        vector.store %5836, %450[%5839] : memref<?xf32, #amdgpu.address_space<fat_raw_buffer>>, vector<1xf32>
        %5840 = vector.extract_strided_slice %428 {offsets = [15], sizes = [1], strides = [1]} : vector<16xf32> to vector<1xf32>
        %5841 = arith.andi %1300, %5070 : i1
        %5842 = arith.addi %5073, %238 overflow<nsw> : index
        %5843 = arith.select %5841, %5842, %c536870911 : index
        vector.store %5840, %450[%5843] : memref<?xf32, #amdgpu.address_space<fat_raw_buffer>>, vector<1xf32>
        return
      }
    }
  }
  func.func @isolated_benchmark(%arg0: tensor<706x4096xf16>, %arg1: tensor<1024x4096xf16>, %arg2: tensor<706x1024xf32>) -> tensor<706x1024xf32> {
    %0 = flow.dispatch @gemm::@gemm(%arg0, %arg1, %arg2) : (tensor<706x4096xf16>, tensor<1024x4096xf16>, tensor<706x1024xf32>) -> %arg2
    return %0 : tensor<706x1024xf32>
  }
}
