#map = affine_map<()[s0, s1, s2, s3] -> ((s1 * 128 + s0 floordiv 2) mod 532 + ((s2 + s3 * 2 - ((s2 + s3 * 2) floordiv 8) * 7) floordiv 4) * 532)>
#map1 = affine_map<()[s0] -> (s0 * 8 - (s0 floordiv 2) * 16)>
#map2 = affine_map<()[s0, s1, s2, s3] -> (s1 * 128 + s0 floordiv 2 - ((s1 * 128 + s0 floordiv 2 + 256) floordiv 532) * 532 + ((s2 + s3 * 2 - ((s2 + s3 * 2) floordiv 8) * 7) floordiv 4) * 532 + 256)>
#map3 = affine_map<()[s0, s1, s2, s3] -> (s1 * 128 + s0 floordiv 2 - ((s1 * 128 + s0 floordiv 2 + 512) floordiv 532) * 532 + ((s2 + s3 * 2 - ((s2 + s3 * 2) floordiv 8) * 7) floordiv 4) * 532 + 512)>
#map4 = affine_map<()[s0, s1, s2, s3] -> (s1 * 128 + s2 * 1036 + s3 * 2072 + s0 floordiv 2 - ((s1 * 128 + s0 floordiv 2) floordiv 1036) * 1036 + ((s2 + s3 * 2) floordiv 8) * 1036 - ((s2 + s3 * 2 + (s2 + s3 * 2) floordiv 8) floordiv 4) * 4144)>
#map5 = affine_map<()[s0, s1, s2, s3] -> (s1 * 128 + s2 * 1036 + s3 * 2072 + s0 floordiv 2 - ((s1 * 128 + s0 floordiv 2 + 256) floordiv 1036) * 1036 + ((s2 + s3 * 2) floordiv 8) * 1036 - ((s2 + s3 * 2 + (s2 + s3 * 2) floordiv 8) floordiv 4) * 4144 + 256)>
#map6 = affine_map<()[s0, s1, s2, s3] -> (s1 * 128 + s2 * 1036 + s3 * 2072 + s0 floordiv 2 - ((s1 * 128 + s0 floordiv 2 + 512) floordiv 1036) * 1036 + ((s2 + s3 * 2) floordiv 8) * 1036 - ((s2 + s3 * 2 + (s2 + s3 * 2) floordiv 8) floordiv 4) * 4144 + 512)>
#map7 = affine_map<()[s0, s1, s2, s3] -> (s1 * 128 + s2 * 1036 + s3 * 2072 + s0 floordiv 2 - ((s1 * 128 + s0 floordiv 2 + 768) floordiv 1036) * 1036 + ((s2 + s3 * 2) floordiv 8) * 1036 - ((s2 + s3 * 2 + (s2 + s3 * 2) floordiv 8) floordiv 4) * 4144 + 768)>
#map8 = affine_map<()[s0, s1, s2, s3] -> (s1 * 128 + s2 * 1036 + s3 * 2072 + s0 floordiv 2 - ((s1 * 128 + s0 floordiv 2 + 1024) floordiv 1036) * 1036 + ((s2 + s3 * 2) floordiv 8) * 1036 - ((s2 + s3 * 2 + (s2 + s3 * 2) floordiv 8) floordiv 4) * 4144 + 1024)>
#map9 = affine_map<()[s0] -> ((s0 floordiv 64) * 133 + 133)>
#map10 = affine_map<()[s0, s1] -> ((s1 * 128 + s0 floordiv 2) mod 532)>
#map11 = affine_map<()[s0, s1] -> (s1 * 128 + s0 floordiv 2 - ((s1 * 128 + s0 floordiv 2 + 256) floordiv 532) * 532 + 256)>
#map12 = affine_map<()[s0, s1] -> (s1 * 128 + s0 floordiv 2 - ((s1 * 128 + s0 floordiv 2 + 512) floordiv 532) * 532 + 512)>
#map13 = affine_map<()[s0] -> (s0 * 518 + 518)>
#map14 = affine_map<()[s0, s1] -> ((s1 * 128 + s0 floordiv 2) mod 1036)>
#map15 = affine_map<()[s0, s1] -> (s1 * 128 + s0 floordiv 2 - ((s1 * 128 + s0 floordiv 2 + 256) floordiv 1036) * 1036 + 256)>
#map16 = affine_map<()[s0, s1] -> (s1 * 128 + s0 floordiv 2 - ((s1 * 128 + s0 floordiv 2 + 512) floordiv 1036) * 1036 + 512)>
#map17 = affine_map<()[s0, s1] -> (s1 * 128 + s0 floordiv 2 - ((s1 * 128 + s0 floordiv 2 + 768) floordiv 1036) * 1036 + 768)>
#map18 = affine_map<()[s0, s1] -> (s1 * 128 + s0 floordiv 2 - ((s1 * 128 + s0 floordiv 2 + 1024) floordiv 1036) * 1036 + 1024)>
#map19 = affine_map<()[s0, s1] -> (s0 + s1 * 518 - (s0 floordiv 32) * 32)>
#map20 = affine_map<()[s0] -> (((s0 mod 64) floordiv 32) * 8)>
#map21 = affine_map<()[s0, s1] -> (s0 + s1 * 518 - (s0 floordiv 32) * 32 + 32)>
#map22 = affine_map<()[s0, s1] -> (s0 + s1 * 518 - (s0 floordiv 32) * 32 + 64)>
#map23 = affine_map<()[s0, s1] -> (s0 + s1 * 518 - (s0 floordiv 32) * 32 + 96)>
#map24 = affine_map<()[s0, s1] -> (s0 + s1 * 518 - (s0 floordiv 32) * 32 + 128)>
#map25 = affine_map<()[s0, s1] -> (s0 + s1 * 518 - (s0 floordiv 32) * 32 + 160)>
#map26 = affine_map<()[s0, s1] -> (s0 + s1 * 518 - (s0 floordiv 32) * 32 + 192)>
#map27 = affine_map<()[s0, s1] -> (s0 + s1 * 518 - (s0 floordiv 32) * 32 + 224)>
#map28 = affine_map<()[s0, s1] -> (s0 + s1 * 518 - (s0 floordiv 32) * 32 + 256)>
#map29 = affine_map<()[s0, s1] -> (s0 + s1 * 518 - (s0 floordiv 32) * 32 + 288)>
#map30 = affine_map<()[s0, s1] -> (s0 + s1 * 518 - (s0 floordiv 32) * 32 + 320)>
#map31 = affine_map<()[s0, s1] -> (s0 + s1 * 518 - (s0 floordiv 32) * 32 + 352)>
#map32 = affine_map<()[s0, s1] -> (s0 + s1 * 518 - (s0 floordiv 32) * 32 + 384)>
#map33 = affine_map<()[s0, s1] -> (s0 + s1 * 518 - (s0 floordiv 32) * 32 + 416)>
#map34 = affine_map<()[s0, s1] -> (s0 + s1 * 518 - (s0 floordiv 32) * 32 + 448)>
#map35 = affine_map<()[s0, s1] -> (s0 + s1 * 518 - (s0 floordiv 32) * 32 + 480)>
#map36 = affine_map<()[s0, s1] -> (s0 + s1 * 518 - (s0 floordiv 32) * 32 + 512)>
#map37 = affine_map<()[s0] -> (s0 mod 32 + (s0 floordiv 64) * 133)>
#map38 = affine_map<()[s0] -> (s0 mod 32 + (s0 floordiv 64) * 133 + 32)>
#map39 = affine_map<()[s0] -> (s0 mod 32 + (s0 floordiv 64) * 133 + 64)>
#map40 = affine_map<()[s0] -> (s0 mod 32 + (s0 floordiv 64) * 133 + 96)>
#map41 = affine_map<()[s0] -> (s0 mod 32 + (s0 floordiv 64) * 133 + 128)>
#map42 = affine_map<()[s0, s1] -> (s0 * 16 + s1 * 8 - (s1 floordiv 2) * 16 + 16)>
#map43 = affine_map<()[s0, s1] -> (s0 * 1036 + s1 * 518 + 518)>
#map44 = affine_map<()[s0] -> (s0 * 1036 + 1036)>
#map45 = affine_map<()[s0, s1, s2, s3] -> (s0 + s1 * 1036 + s2 * 2072 + s3 * 518 - (s0 floordiv 32) * 32 + ((s1 + s2 * 2) floordiv 8) * 1036 - ((s1 + s2 * 2 + (s1 + s2 * 2) floordiv 8) floordiv 4) * 4144)>
#map46 = affine_map<()[s0, s1] -> (s0 * 532 + (s1 floordiv 64) * 133 + 133)>
#map47 = affine_map<()[s0] -> (s0 * 532 + 532)>
#map48 = affine_map<()[s0, s1, s2] -> (((s0 + s1 * 2 - ((s0 + s1 * 2) floordiv 8) * 7) floordiv 4) * 532 + (s2 floordiv 64) * 133 + ((s2 mod 64) floordiv 32) * 4)>
#map49 = affine_map<()[s0, s1] -> (((s0 + s1 * 2 - ((s0 + s1 * 2) floordiv 8) * 7) floordiv 4) * 532)>
#map50 = affine_map<()[s0, s1] -> (s0 * 1036 + s1 * 2072 + ((s0 + s1 * 2) floordiv 8) * 1036 - ((s0 + s1 * 2 + (s0 + s1 * 2) floordiv 8) floordiv 4) * 4144)>
#map51 = affine_map<()[s0] -> ((s0 floordiv 64) * 133 + ((s0 mod 64) floordiv 32) * 4)>
#map52 = affine_map<()[s0, s1, s2] -> (((s0 + s1 * 2 - ((s0 + s1 * 2) floordiv 8) * 7) floordiv 4) * 532 + (s2 floordiv 64) * 133 + ((s2 mod 64) floordiv 32) * 4 + 1)>
#map53 = affine_map<()[s0] -> ((s0 floordiv 64) * 133 + ((s0 mod 64) floordiv 32) * 4 + 1)>
#map54 = affine_map<()[s0, s1, s2] -> (((s0 + s1 * 2 - ((s0 + s1 * 2) floordiv 8) * 7) floordiv 4) * 532 + (s2 floordiv 64) * 133 + ((s2 mod 64) floordiv 32) * 4 + 2)>
#map55 = affine_map<()[s0] -> ((s0 floordiv 64) * 133 + ((s0 mod 64) floordiv 32) * 4 + 2)>
#map56 = affine_map<()[s0, s1, s2] -> (((s0 + s1 * 2 - ((s0 + s1 * 2) floordiv 8) * 7) floordiv 4) * 532 + (s2 floordiv 64) * 133 + ((s2 mod 64) floordiv 32) * 4 + 3)>
#map57 = affine_map<()[s0] -> ((s0 floordiv 64) * 133 + ((s0 mod 64) floordiv 32) * 4 + 3)>
#map58 = affine_map<()[s0, s1, s2] -> (((s0 + s1 * 2 - ((s0 + s1 * 2) floordiv 8) * 7) floordiv 4) * 532 + (s2 floordiv 64) * 133 + ((s2 mod 64) floordiv 32) * 4 + 8)>
#map59 = affine_map<()[s0] -> ((s0 floordiv 64) * 133 + ((s0 mod 64) floordiv 32) * 4 + 8)>
#map60 = affine_map<()[s0, s1, s2] -> (((s0 + s1 * 2 - ((s0 + s1 * 2) floordiv 8) * 7) floordiv 4) * 532 + (s2 floordiv 64) * 133 + ((s2 mod 64) floordiv 32) * 4 + 9)>
#map61 = affine_map<()[s0] -> ((s0 floordiv 64) * 133 + ((s0 mod 64) floordiv 32) * 4 + 9)>
#map62 = affine_map<()[s0, s1, s2] -> (((s0 + s1 * 2 - ((s0 + s1 * 2) floordiv 8) * 7) floordiv 4) * 532 + (s2 floordiv 64) * 133 + ((s2 mod 64) floordiv 32) * 4 + 10)>
#map63 = affine_map<()[s0] -> ((s0 floordiv 64) * 133 + ((s0 mod 64) floordiv 32) * 4 + 10)>
#map64 = affine_map<()[s0, s1, s2] -> (((s0 + s1 * 2 - ((s0 + s1 * 2) floordiv 8) * 7) floordiv 4) * 532 + (s2 floordiv 64) * 133 + ((s2 mod 64) floordiv 32) * 4 + 11)>
#map65 = affine_map<()[s0] -> ((s0 floordiv 64) * 133 + ((s0 mod 64) floordiv 32) * 4 + 11)>
#map66 = affine_map<()[s0, s1, s2] -> (((s0 + s1 * 2 - ((s0 + s1 * 2) floordiv 8) * 7) floordiv 4) * 532 + (s2 floordiv 64) * 133 + ((s2 mod 64) floordiv 32) * 4 + 16)>
#map67 = affine_map<()[s0] -> ((s0 floordiv 64) * 133 + ((s0 mod 64) floordiv 32) * 4 + 16)>
#map68 = affine_map<()[s0, s1, s2] -> (((s0 + s1 * 2 - ((s0 + s1 * 2) floordiv 8) * 7) floordiv 4) * 532 + (s2 floordiv 64) * 133 + ((s2 mod 64) floordiv 32) * 4 + 17)>
#map69 = affine_map<()[s0] -> ((s0 floordiv 64) * 133 + ((s0 mod 64) floordiv 32) * 4 + 17)>
#map70 = affine_map<()[s0, s1, s2] -> (((s0 + s1 * 2 - ((s0 + s1 * 2) floordiv 8) * 7) floordiv 4) * 532 + (s2 floordiv 64) * 133 + ((s2 mod 64) floordiv 32) * 4 + 18)>
#map71 = affine_map<()[s0] -> ((s0 floordiv 64) * 133 + ((s0 mod 64) floordiv 32) * 4 + 18)>
#map72 = affine_map<()[s0, s1, s2] -> (((s0 + s1 * 2 - ((s0 + s1 * 2) floordiv 8) * 7) floordiv 4) * 532 + (s2 floordiv 64) * 133 + ((s2 mod 64) floordiv 32) * 4 + 19)>
#map73 = affine_map<()[s0] -> ((s0 floordiv 64) * 133 + ((s0 mod 64) floordiv 32) * 4 + 19)>
#map74 = affine_map<()[s0, s1, s2] -> (((s0 + s1 * 2 - ((s0 + s1 * 2) floordiv 8) * 7) floordiv 4) * 532 + (s2 floordiv 64) * 133 + ((s2 mod 64) floordiv 32) * 4 + 24)>
#map75 = affine_map<()[s0] -> ((s0 floordiv 64) * 133 + ((s0 mod 64) floordiv 32) * 4 + 24)>
#map76 = affine_map<()[s0, s1, s2] -> (((s0 + s1 * 2 - ((s0 + s1 * 2) floordiv 8) * 7) floordiv 4) * 532 + (s2 floordiv 64) * 133 + ((s2 mod 64) floordiv 32) * 4 + 25)>
#map77 = affine_map<()[s0] -> ((s0 floordiv 64) * 133 + ((s0 mod 64) floordiv 32) * 4 + 25)>
#map78 = affine_map<()[s0, s1, s2] -> (((s0 + s1 * 2 - ((s0 + s1 * 2) floordiv 8) * 7) floordiv 4) * 532 + (s2 floordiv 64) * 133 + ((s2 mod 64) floordiv 32) * 4 + 26)>
#map79 = affine_map<()[s0] -> ((s0 floordiv 64) * 133 + ((s0 mod 64) floordiv 32) * 4 + 26)>
#map80 = affine_map<()[s0, s1, s2] -> (((s0 + s1 * 2 - ((s0 + s1 * 2) floordiv 8) * 7) floordiv 4) * 532 + (s2 floordiv 64) * 133 + ((s2 mod 64) floordiv 32) * 4 + 27)>
#map81 = affine_map<()[s0] -> ((s0 floordiv 64) * 133 + ((s0 mod 64) floordiv 32) * 4 + 27)>
#map82 = affine_map<()[s0, s1, s2, s3] -> (s0 + s1 * 1036 + s2 * 2072 + s3 * 518 - (s0 floordiv 32) * 32 + ((s1 + s2 * 2) floordiv 8) * 1036 - ((s1 + s2 * 2 + (s1 + s2 * 2) floordiv 8) floordiv 4) * 4144 + 32)>
#map83 = affine_map<()[s0, s1, s2, s3] -> (s0 + s1 * 1036 + s2 * 2072 + s3 * 518 - (s0 floordiv 32) * 32 + ((s1 + s2 * 2) floordiv 8) * 1036 - ((s1 + s2 * 2 + (s1 + s2 * 2) floordiv 8) floordiv 4) * 4144 + 64)>
#map84 = affine_map<()[s0, s1, s2, s3] -> (s0 + s1 * 1036 + s2 * 2072 + s3 * 518 - (s0 floordiv 32) * 32 + ((s1 + s2 * 2) floordiv 8) * 1036 - ((s1 + s2 * 2 + (s1 + s2 * 2) floordiv 8) floordiv 4) * 4144 + 96)>
#map85 = affine_map<()[s0, s1, s2, s3] -> (s0 + s1 * 1036 + s2 * 2072 + s3 * 518 - (s0 floordiv 32) * 32 + ((s1 + s2 * 2) floordiv 8) * 1036 - ((s1 + s2 * 2 + (s1 + s2 * 2) floordiv 8) floordiv 4) * 4144 + 128)>
#map86 = affine_map<()[s0, s1, s2, s3] -> (s0 + s1 * 1036 + s2 * 2072 + s3 * 518 - (s0 floordiv 32) * 32 + ((s1 + s2 * 2) floordiv 8) * 1036 - ((s1 + s2 * 2 + (s1 + s2 * 2) floordiv 8) floordiv 4) * 4144 + 160)>
#map87 = affine_map<()[s0, s1, s2, s3] -> (s0 + s1 * 1036 + s2 * 2072 + s3 * 518 - (s0 floordiv 32) * 32 + ((s1 + s2 * 2) floordiv 8) * 1036 - ((s1 + s2 * 2 + (s1 + s2 * 2) floordiv 8) floordiv 4) * 4144 + 192)>
#map88 = affine_map<()[s0, s1, s2, s3] -> (s0 + s1 * 1036 + s2 * 2072 + s3 * 518 - (s0 floordiv 32) * 32 + ((s1 + s2 * 2) floordiv 8) * 1036 - ((s1 + s2 * 2 + (s1 + s2 * 2) floordiv 8) floordiv 4) * 4144 + 224)>
#map89 = affine_map<()[s0, s1, s2, s3] -> (s0 + s1 * 1036 + s2 * 2072 + s3 * 518 - (s0 floordiv 32) * 32 + ((s1 + s2 * 2) floordiv 8) * 1036 - ((s1 + s2 * 2 + (s1 + s2 * 2) floordiv 8) floordiv 4) * 4144 + 256)>
#map90 = affine_map<()[s0, s1, s2, s3] -> (s0 + s1 * 1036 + s2 * 2072 + s3 * 518 - (s0 floordiv 32) * 32 + ((s1 + s2 * 2) floordiv 8) * 1036 - ((s1 + s2 * 2 + (s1 + s2 * 2) floordiv 8) floordiv 4) * 4144 + 288)>
#map91 = affine_map<()[s0, s1, s2, s3] -> (s0 + s1 * 1036 + s2 * 2072 + s3 * 518 - (s0 floordiv 32) * 32 + ((s1 + s2 * 2) floordiv 8) * 1036 - ((s1 + s2 * 2 + (s1 + s2 * 2) floordiv 8) floordiv 4) * 4144 + 320)>
#map92 = affine_map<()[s0, s1, s2, s3] -> (s0 + s1 * 1036 + s2 * 2072 + s3 * 518 - (s0 floordiv 32) * 32 + ((s1 + s2 * 2) floordiv 8) * 1036 - ((s1 + s2 * 2 + (s1 + s2 * 2) floordiv 8) floordiv 4) * 4144 + 352)>
#map93 = affine_map<()[s0, s1, s2, s3] -> (s0 + s1 * 1036 + s2 * 2072 + s3 * 518 - (s0 floordiv 32) * 32 + ((s1 + s2 * 2) floordiv 8) * 1036 - ((s1 + s2 * 2 + (s1 + s2 * 2) floordiv 8) floordiv 4) * 4144 + 384)>
#map94 = affine_map<()[s0, s1, s2, s3] -> (s0 + s1 * 1036 + s2 * 2072 + s3 * 518 - (s0 floordiv 32) * 32 + ((s1 + s2 * 2) floordiv 8) * 1036 - ((s1 + s2 * 2 + (s1 + s2 * 2) floordiv 8) floordiv 4) * 4144 + 416)>
#map95 = affine_map<()[s0, s1, s2, s3] -> (s0 + s1 * 1036 + s2 * 2072 + s3 * 518 - (s0 floordiv 32) * 32 + ((s1 + s2 * 2) floordiv 8) * 1036 - ((s1 + s2 * 2 + (s1 + s2 * 2) floordiv 8) floordiv 4) * 4144 + 448)>
#map96 = affine_map<()[s0, s1, s2, s3] -> (s0 + s1 * 1036 + s2 * 2072 + s3 * 518 - (s0 floordiv 32) * 32 + ((s1 + s2 * 2) floordiv 8) * 1036 - ((s1 + s2 * 2 + (s1 + s2 * 2) floordiv 8) floordiv 4) * 4144 + 480)>
#map97 = affine_map<()[s0, s1, s2, s3] -> (s0 + s1 * 1036 + s2 * 2072 + s3 * 518 - (s0 floordiv 32) * 32 + ((s1 + s2 * 2) floordiv 8) * 1036 - ((s1 + s2 * 2 + (s1 + s2 * 2) floordiv 8) floordiv 4) * 4144 + 512)>
#map98 = affine_map<()[s0, s1, s2] -> (((s0 + s1 * 2 - ((s0 + s1 * 2) floordiv 8) * 7) floordiv 4) * 532 + (s2 floordiv 64) * 133 + ((s2 mod 64) floordiv 32) * 4 + 32)>
#map99 = affine_map<()[s0] -> ((s0 floordiv 64) * 133 + ((s0 mod 64) floordiv 32) * 4 + 32)>
#map100 = affine_map<()[s0, s1, s2] -> (((s0 + s1 * 2 - ((s0 + s1 * 2) floordiv 8) * 7) floordiv 4) * 532 + (s2 floordiv 64) * 133 + ((s2 mod 64) floordiv 32) * 4 + 33)>
#map101 = affine_map<()[s0] -> ((s0 floordiv 64) * 133 + ((s0 mod 64) floordiv 32) * 4 + 33)>
#map102 = affine_map<()[s0, s1, s2] -> (((s0 + s1 * 2 - ((s0 + s1 * 2) floordiv 8) * 7) floordiv 4) * 532 + (s2 floordiv 64) * 133 + ((s2 mod 64) floordiv 32) * 4 + 34)>
#map103 = affine_map<()[s0] -> ((s0 floordiv 64) * 133 + ((s0 mod 64) floordiv 32) * 4 + 34)>
#map104 = affine_map<()[s0, s1, s2] -> (((s0 + s1 * 2 - ((s0 + s1 * 2) floordiv 8) * 7) floordiv 4) * 532 + (s2 floordiv 64) * 133 + ((s2 mod 64) floordiv 32) * 4 + 35)>
#map105 = affine_map<()[s0] -> ((s0 floordiv 64) * 133 + ((s0 mod 64) floordiv 32) * 4 + 35)>
#map106 = affine_map<()[s0, s1, s2] -> (((s0 + s1 * 2 - ((s0 + s1 * 2) floordiv 8) * 7) floordiv 4) * 532 + (s2 floordiv 64) * 133 + ((s2 mod 64) floordiv 32) * 4 + 40)>
#map107 = affine_map<()[s0] -> ((s0 floordiv 64) * 133 + ((s0 mod 64) floordiv 32) * 4 + 40)>
#map108 = affine_map<()[s0, s1, s2] -> (((s0 + s1 * 2 - ((s0 + s1 * 2) floordiv 8) * 7) floordiv 4) * 532 + (s2 floordiv 64) * 133 + ((s2 mod 64) floordiv 32) * 4 + 41)>
#map109 = affine_map<()[s0] -> ((s0 floordiv 64) * 133 + ((s0 mod 64) floordiv 32) * 4 + 41)>
#map110 = affine_map<()[s0, s1, s2] -> (((s0 + s1 * 2 - ((s0 + s1 * 2) floordiv 8) * 7) floordiv 4) * 532 + (s2 floordiv 64) * 133 + ((s2 mod 64) floordiv 32) * 4 + 42)>
#map111 = affine_map<()[s0] -> ((s0 floordiv 64) * 133 + ((s0 mod 64) floordiv 32) * 4 + 42)>
#map112 = affine_map<()[s0, s1, s2] -> (((s0 + s1 * 2 - ((s0 + s1 * 2) floordiv 8) * 7) floordiv 4) * 532 + (s2 floordiv 64) * 133 + ((s2 mod 64) floordiv 32) * 4 + 43)>
#map113 = affine_map<()[s0] -> ((s0 floordiv 64) * 133 + ((s0 mod 64) floordiv 32) * 4 + 43)>
#map114 = affine_map<()[s0, s1, s2] -> (((s0 + s1 * 2 - ((s0 + s1 * 2) floordiv 8) * 7) floordiv 4) * 532 + (s2 floordiv 64) * 133 + ((s2 mod 64) floordiv 32) * 4 + 48)>
#map115 = affine_map<()[s0] -> ((s0 floordiv 64) * 133 + ((s0 mod 64) floordiv 32) * 4 + 48)>
#map116 = affine_map<()[s0, s1, s2] -> (((s0 + s1 * 2 - ((s0 + s1 * 2) floordiv 8) * 7) floordiv 4) * 532 + (s2 floordiv 64) * 133 + ((s2 mod 64) floordiv 32) * 4 + 49)>
#map117 = affine_map<()[s0] -> ((s0 floordiv 64) * 133 + ((s0 mod 64) floordiv 32) * 4 + 49)>
#map118 = affine_map<()[s0, s1, s2] -> (((s0 + s1 * 2 - ((s0 + s1 * 2) floordiv 8) * 7) floordiv 4) * 532 + (s2 floordiv 64) * 133 + ((s2 mod 64) floordiv 32) * 4 + 50)>
#map119 = affine_map<()[s0] -> ((s0 floordiv 64) * 133 + ((s0 mod 64) floordiv 32) * 4 + 50)>
#map120 = affine_map<()[s0, s1, s2] -> (((s0 + s1 * 2 - ((s0 + s1 * 2) floordiv 8) * 7) floordiv 4) * 532 + (s2 floordiv 64) * 133 + ((s2 mod 64) floordiv 32) * 4 + 51)>
#map121 = affine_map<()[s0] -> ((s0 floordiv 64) * 133 + ((s0 mod 64) floordiv 32) * 4 + 51)>
#map122 = affine_map<()[s0, s1, s2] -> (((s0 + s1 * 2 - ((s0 + s1 * 2) floordiv 8) * 7) floordiv 4) * 532 + (s2 floordiv 64) * 133 + ((s2 mod 64) floordiv 32) * 4 + 56)>
#map123 = affine_map<()[s0] -> ((s0 floordiv 64) * 133 + ((s0 mod 64) floordiv 32) * 4 + 56)>
#map124 = affine_map<()[s0, s1, s2] -> (((s0 + s1 * 2 - ((s0 + s1 * 2) floordiv 8) * 7) floordiv 4) * 532 + (s2 floordiv 64) * 133 + ((s2 mod 64) floordiv 32) * 4 + 57)>
#map125 = affine_map<()[s0] -> ((s0 floordiv 64) * 133 + ((s0 mod 64) floordiv 32) * 4 + 57)>
#map126 = affine_map<()[s0, s1, s2] -> (((s0 + s1 * 2 - ((s0 + s1 * 2) floordiv 8) * 7) floordiv 4) * 532 + (s2 floordiv 64) * 133 + ((s2 mod 64) floordiv 32) * 4 + 58)>
#map127 = affine_map<()[s0] -> ((s0 floordiv 64) * 133 + ((s0 mod 64) floordiv 32) * 4 + 58)>
#map128 = affine_map<()[s0, s1, s2] -> (((s0 + s1 * 2 - ((s0 + s1 * 2) floordiv 8) * 7) floordiv 4) * 532 + (s2 floordiv 64) * 133 + ((s2 mod 64) floordiv 32) * 4 + 59)>
#map129 = affine_map<()[s0] -> ((s0 floordiv 64) * 133 + ((s0 mod 64) floordiv 32) * 4 + 59)>
#map130 = affine_map<()[s0, s1, s2] -> (((s0 + s1 * 2 - ((s0 + s1 * 2) floordiv 8) * 7) floordiv 4) * 532 + (s2 floordiv 64) * 133 + ((s2 mod 64) floordiv 32) * 4 + 64)>
#map131 = affine_map<()[s0] -> ((s0 floordiv 64) * 133 + ((s0 mod 64) floordiv 32) * 4 + 64)>
#map132 = affine_map<()[s0, s1, s2] -> (((s0 + s1 * 2 - ((s0 + s1 * 2) floordiv 8) * 7) floordiv 4) * 532 + (s2 floordiv 64) * 133 + ((s2 mod 64) floordiv 32) * 4 + 65)>
#map133 = affine_map<()[s0] -> ((s0 floordiv 64) * 133 + ((s0 mod 64) floordiv 32) * 4 + 65)>
#map134 = affine_map<()[s0, s1, s2] -> (((s0 + s1 * 2 - ((s0 + s1 * 2) floordiv 8) * 7) floordiv 4) * 532 + (s2 floordiv 64) * 133 + ((s2 mod 64) floordiv 32) * 4 + 66)>
#map135 = affine_map<()[s0] -> ((s0 floordiv 64) * 133 + ((s0 mod 64) floordiv 32) * 4 + 66)>
#map136 = affine_map<()[s0, s1, s2] -> (((s0 + s1 * 2 - ((s0 + s1 * 2) floordiv 8) * 7) floordiv 4) * 532 + (s2 floordiv 64) * 133 + ((s2 mod 64) floordiv 32) * 4 + 67)>
#map137 = affine_map<()[s0] -> ((s0 floordiv 64) * 133 + ((s0 mod 64) floordiv 32) * 4 + 67)>
#map138 = affine_map<()[s0, s1, s2] -> (((s0 + s1 * 2 - ((s0 + s1 * 2) floordiv 8) * 7) floordiv 4) * 532 + (s2 floordiv 64) * 133 + ((s2 mod 64) floordiv 32) * 4 + 72)>
#map139 = affine_map<()[s0] -> ((s0 floordiv 64) * 133 + ((s0 mod 64) floordiv 32) * 4 + 72)>
#map140 = affine_map<()[s0, s1, s2] -> (((s0 + s1 * 2 - ((s0 + s1 * 2) floordiv 8) * 7) floordiv 4) * 532 + (s2 floordiv 64) * 133 + ((s2 mod 64) floordiv 32) * 4 + 73)>
#map141 = affine_map<()[s0] -> ((s0 floordiv 64) * 133 + ((s0 mod 64) floordiv 32) * 4 + 73)>
#map142 = affine_map<()[s0, s1, s2] -> (((s0 + s1 * 2 - ((s0 + s1 * 2) floordiv 8) * 7) floordiv 4) * 532 + (s2 floordiv 64) * 133 + ((s2 mod 64) floordiv 32) * 4 + 74)>
#map143 = affine_map<()[s0] -> ((s0 floordiv 64) * 133 + ((s0 mod 64) floordiv 32) * 4 + 74)>
#map144 = affine_map<()[s0, s1, s2] -> (((s0 + s1 * 2 - ((s0 + s1 * 2) floordiv 8) * 7) floordiv 4) * 532 + (s2 floordiv 64) * 133 + ((s2 mod 64) floordiv 32) * 4 + 75)>
#map145 = affine_map<()[s0] -> ((s0 floordiv 64) * 133 + ((s0 mod 64) floordiv 32) * 4 + 75)>
#map146 = affine_map<()[s0, s1, s2] -> (((s0 + s1 * 2 - ((s0 + s1 * 2) floordiv 8) * 7) floordiv 4) * 532 + (s2 floordiv 64) * 133 + ((s2 mod 64) floordiv 32) * 4 + 80)>
#map147 = affine_map<()[s0] -> ((s0 floordiv 64) * 133 + ((s0 mod 64) floordiv 32) * 4 + 80)>
#map148 = affine_map<()[s0, s1, s2] -> (((s0 + s1 * 2 - ((s0 + s1 * 2) floordiv 8) * 7) floordiv 4) * 532 + (s2 floordiv 64) * 133 + ((s2 mod 64) floordiv 32) * 4 + 81)>
#map149 = affine_map<()[s0] -> ((s0 floordiv 64) * 133 + ((s0 mod 64) floordiv 32) * 4 + 81)>
#map150 = affine_map<()[s0, s1, s2] -> (((s0 + s1 * 2 - ((s0 + s1 * 2) floordiv 8) * 7) floordiv 4) * 532 + (s2 floordiv 64) * 133 + ((s2 mod 64) floordiv 32) * 4 + 82)>
#map151 = affine_map<()[s0] -> ((s0 floordiv 64) * 133 + ((s0 mod 64) floordiv 32) * 4 + 82)>
#map152 = affine_map<()[s0, s1, s2] -> (((s0 + s1 * 2 - ((s0 + s1 * 2) floordiv 8) * 7) floordiv 4) * 532 + (s2 floordiv 64) * 133 + ((s2 mod 64) floordiv 32) * 4 + 83)>
#map153 = affine_map<()[s0] -> ((s0 floordiv 64) * 133 + ((s0 mod 64) floordiv 32) * 4 + 83)>
#map154 = affine_map<()[s0, s1, s2] -> (((s0 + s1 * 2 - ((s0 + s1 * 2) floordiv 8) * 7) floordiv 4) * 532 + (s2 floordiv 64) * 133 + ((s2 mod 64) floordiv 32) * 4 + 88)>
#map155 = affine_map<()[s0] -> ((s0 floordiv 64) * 133 + ((s0 mod 64) floordiv 32) * 4 + 88)>
#map156 = affine_map<()[s0, s1, s2] -> (((s0 + s1 * 2 - ((s0 + s1 * 2) floordiv 8) * 7) floordiv 4) * 532 + (s2 floordiv 64) * 133 + ((s2 mod 64) floordiv 32) * 4 + 89)>
#map157 = affine_map<()[s0] -> ((s0 floordiv 64) * 133 + ((s0 mod 64) floordiv 32) * 4 + 89)>
#map158 = affine_map<()[s0, s1, s2] -> (((s0 + s1 * 2 - ((s0 + s1 * 2) floordiv 8) * 7) floordiv 4) * 532 + (s2 floordiv 64) * 133 + ((s2 mod 64) floordiv 32) * 4 + 90)>
#map159 = affine_map<()[s0] -> ((s0 floordiv 64) * 133 + ((s0 mod 64) floordiv 32) * 4 + 90)>
#map160 = affine_map<()[s0, s1, s2] -> (((s0 + s1 * 2 - ((s0 + s1 * 2) floordiv 8) * 7) floordiv 4) * 532 + (s2 floordiv 64) * 133 + ((s2 mod 64) floordiv 32) * 4 + 91)>
#map161 = affine_map<()[s0] -> ((s0 floordiv 64) * 133 + ((s0 mod 64) floordiv 32) * 4 + 91)>
#map162 = affine_map<()[s0, s1, s2] -> (((s0 + s1 * 2 - ((s0 + s1 * 2) floordiv 8) * 7) floordiv 4) * 532 + (s2 floordiv 64) * 133 + ((s2 mod 64) floordiv 32) * 4 + 96)>
#map163 = affine_map<()[s0] -> ((s0 floordiv 64) * 133 + ((s0 mod 64) floordiv 32) * 4 + 96)>
#map164 = affine_map<()[s0, s1, s2] -> (((s0 + s1 * 2 - ((s0 + s1 * 2) floordiv 8) * 7) floordiv 4) * 532 + (s2 floordiv 64) * 133 + ((s2 mod 64) floordiv 32) * 4 + 97)>
#map165 = affine_map<()[s0] -> ((s0 floordiv 64) * 133 + ((s0 mod 64) floordiv 32) * 4 + 97)>
#map166 = affine_map<()[s0, s1, s2] -> (((s0 + s1 * 2 - ((s0 + s1 * 2) floordiv 8) * 7) floordiv 4) * 532 + (s2 floordiv 64) * 133 + ((s2 mod 64) floordiv 32) * 4 + 98)>
#map167 = affine_map<()[s0] -> ((s0 floordiv 64) * 133 + ((s0 mod 64) floordiv 32) * 4 + 98)>
#map168 = affine_map<()[s0, s1, s2] -> (((s0 + s1 * 2 - ((s0 + s1 * 2) floordiv 8) * 7) floordiv 4) * 532 + (s2 floordiv 64) * 133 + ((s2 mod 64) floordiv 32) * 4 + 99)>
#map169 = affine_map<()[s0] -> ((s0 floordiv 64) * 133 + ((s0 mod 64) floordiv 32) * 4 + 99)>
#map170 = affine_map<()[s0, s1, s2] -> (((s0 + s1 * 2 - ((s0 + s1 * 2) floordiv 8) * 7) floordiv 4) * 532 + (s2 floordiv 64) * 133 + ((s2 mod 64) floordiv 32) * 4 + 104)>
#map171 = affine_map<()[s0] -> ((s0 floordiv 64) * 133 + ((s0 mod 64) floordiv 32) * 4 + 104)>
#map172 = affine_map<()[s0, s1, s2] -> (((s0 + s1 * 2 - ((s0 + s1 * 2) floordiv 8) * 7) floordiv 4) * 532 + (s2 floordiv 64) * 133 + ((s2 mod 64) floordiv 32) * 4 + 105)>
#map173 = affine_map<()[s0] -> ((s0 floordiv 64) * 133 + ((s0 mod 64) floordiv 32) * 4 + 105)>
#map174 = affine_map<()[s0, s1, s2] -> (((s0 + s1 * 2 - ((s0 + s1 * 2) floordiv 8) * 7) floordiv 4) * 532 + (s2 floordiv 64) * 133 + ((s2 mod 64) floordiv 32) * 4 + 106)>
#map175 = affine_map<()[s0] -> ((s0 floordiv 64) * 133 + ((s0 mod 64) floordiv 32) * 4 + 106)>
#map176 = affine_map<()[s0, s1, s2] -> (((s0 + s1 * 2 - ((s0 + s1 * 2) floordiv 8) * 7) floordiv 4) * 532 + (s2 floordiv 64) * 133 + ((s2 mod 64) floordiv 32) * 4 + 107)>
#map177 = affine_map<()[s0] -> ((s0 floordiv 64) * 133 + ((s0 mod 64) floordiv 32) * 4 + 107)>
#map178 = affine_map<()[s0, s1, s2] -> (((s0 + s1 * 2 - ((s0 + s1 * 2) floordiv 8) * 7) floordiv 4) * 532 + (s2 floordiv 64) * 133 + ((s2 mod 64) floordiv 32) * 4 + 112)>
#map179 = affine_map<()[s0] -> ((s0 floordiv 64) * 133 + ((s0 mod 64) floordiv 32) * 4 + 112)>
#map180 = affine_map<()[s0, s1, s2] -> (((s0 + s1 * 2 - ((s0 + s1 * 2) floordiv 8) * 7) floordiv 4) * 532 + (s2 floordiv 64) * 133 + ((s2 mod 64) floordiv 32) * 4 + 113)>
#map181 = affine_map<()[s0] -> ((s0 floordiv 64) * 133 + ((s0 mod 64) floordiv 32) * 4 + 113)>
#map182 = affine_map<()[s0, s1, s2] -> (((s0 + s1 * 2 - ((s0 + s1 * 2) floordiv 8) * 7) floordiv 4) * 532 + (s2 floordiv 64) * 133 + ((s2 mod 64) floordiv 32) * 4 + 114)>
#map183 = affine_map<()[s0] -> ((s0 floordiv 64) * 133 + ((s0 mod 64) floordiv 32) * 4 + 114)>
#map184 = affine_map<()[s0, s1, s2] -> (((s0 + s1 * 2 - ((s0 + s1 * 2) floordiv 8) * 7) floordiv 4) * 532 + (s2 floordiv 64) * 133 + ((s2 mod 64) floordiv 32) * 4 + 115)>
#map185 = affine_map<()[s0] -> ((s0 floordiv 64) * 133 + ((s0 mod 64) floordiv 32) * 4 + 115)>
#map186 = affine_map<()[s0, s1, s2] -> (((s0 + s1 * 2 - ((s0 + s1 * 2) floordiv 8) * 7) floordiv 4) * 532 + (s2 floordiv 64) * 133 + ((s2 mod 64) floordiv 32) * 4 + 120)>
#map187 = affine_map<()[s0] -> ((s0 floordiv 64) * 133 + ((s0 mod 64) floordiv 32) * 4 + 120)>
#map188 = affine_map<()[s0, s1, s2] -> (((s0 + s1 * 2 - ((s0 + s1 * 2) floordiv 8) * 7) floordiv 4) * 532 + (s2 floordiv 64) * 133 + ((s2 mod 64) floordiv 32) * 4 + 121)>
#map189 = affine_map<()[s0] -> ((s0 floordiv 64) * 133 + ((s0 mod 64) floordiv 32) * 4 + 121)>
#map190 = affine_map<()[s0, s1, s2] -> (((s0 + s1 * 2 - ((s0 + s1 * 2) floordiv 8) * 7) floordiv 4) * 532 + (s2 floordiv 64) * 133 + ((s2 mod 64) floordiv 32) * 4 + 122)>
#map191 = affine_map<()[s0] -> ((s0 floordiv 64) * 133 + ((s0 mod 64) floordiv 32) * 4 + 122)>
#map192 = affine_map<()[s0, s1, s2] -> (((s0 + s1 * 2 - ((s0 + s1 * 2) floordiv 8) * 7) floordiv 4) * 532 + (s2 floordiv 64) * 133 + ((s2 mod 64) floordiv 32) * 4 + 123)>
#map193 = affine_map<()[s0] -> ((s0 floordiv 64) * 133 + ((s0 mod 64) floordiv 32) * 4 + 123)>
#map194 = affine_map<()[s0, s1, s2] -> (((s0 + s1 * 2 - ((s0 + s1 * 2) floordiv 8) * 7) floordiv 4) * 532 + (s2 floordiv 64) * 133 + ((s2 mod 64) floordiv 32) * 4 + 128)>
#map195 = affine_map<()[s0] -> ((s0 floordiv 64) * 133 + ((s0 mod 64) floordiv 32) * 4 + 128)>
#map196 = affine_map<()[s0, s1, s2] -> (((s0 + s1 * 2 - ((s0 + s1 * 2) floordiv 8) * 7) floordiv 4) * 532 + (s2 floordiv 64) * 133 + ((s2 mod 64) floordiv 32) * 4 + 129)>
#map197 = affine_map<()[s0] -> ((s0 floordiv 64) * 133 + ((s0 mod 64) floordiv 32) * 4 + 129)>
#map198 = affine_map<()[s0, s1, s2] -> (((s0 + s1 * 2 - ((s0 + s1 * 2) floordiv 8) * 7) floordiv 4) * 532 + (s2 floordiv 64) * 133 + ((s2 mod 64) floordiv 32) * 4 + 130)>
#map199 = affine_map<()[s0] -> ((s0 floordiv 64) * 133 + ((s0 mod 64) floordiv 32) * 4 + 130)>
#map200 = affine_map<()[s0, s1, s2] -> (((s0 + s1 * 2 - ((s0 + s1 * 2) floordiv 8) * 7) floordiv 4) * 532 + (s2 floordiv 64) * 133 + ((s2 mod 64) floordiv 32) * 4 + 131)>
#map201 = affine_map<()[s0] -> ((s0 floordiv 64) * 133 + ((s0 mod 64) floordiv 32) * 4 + 131)>
#map202 = affine_map<()[s0, s1, s2] -> (((s0 + s1 * 2 - ((s0 + s1 * 2) floordiv 8) * 7) floordiv 4) * 532 + (s2 floordiv 64) * 133 + ((s2 mod 64) floordiv 32) * 4 + 136)>
#map203 = affine_map<()[s0] -> ((s0 floordiv 64) * 133 + ((s0 mod 64) floordiv 32) * 4 + 136)>
#map204 = affine_map<()[s0, s1, s2] -> (((s0 + s1 * 2 - ((s0 + s1 * 2) floordiv 8) * 7) floordiv 4) * 532 + (s2 floordiv 64) * 133 + ((s2 mod 64) floordiv 32) * 4 + 137)>
#map205 = affine_map<()[s0] -> ((s0 floordiv 64) * 133 + ((s0 mod 64) floordiv 32) * 4 + 137)>
#map206 = affine_map<()[s0, s1, s2] -> (((s0 + s1 * 2 - ((s0 + s1 * 2) floordiv 8) * 7) floordiv 4) * 532 + (s2 floordiv 64) * 133 + ((s2 mod 64) floordiv 32) * 4 + 138)>
#map207 = affine_map<()[s0] -> ((s0 floordiv 64) * 133 + ((s0 mod 64) floordiv 32) * 4 + 138)>
#map208 = affine_map<()[s0, s1, s2] -> (((s0 + s1 * 2 - ((s0 + s1 * 2) floordiv 8) * 7) floordiv 4) * 532 + (s2 floordiv 64) * 133 + ((s2 mod 64) floordiv 32) * 4 + 139)>
#map209 = affine_map<()[s0] -> ((s0 floordiv 64) * 133 + ((s0 mod 64) floordiv 32) * 4 + 139)>
#map210 = affine_map<()[s0, s1, s2] -> (((s0 + s1 * 2 - ((s0 + s1 * 2) floordiv 8) * 7) floordiv 4) * 532 + (s2 floordiv 64) * 133 + ((s2 mod 64) floordiv 32) * 4 + 144)>
#map211 = affine_map<()[s0] -> ((s0 floordiv 64) * 133 + ((s0 mod 64) floordiv 32) * 4 + 144)>
#map212 = affine_map<()[s0, s1, s2] -> (((s0 + s1 * 2 - ((s0 + s1 * 2) floordiv 8) * 7) floordiv 4) * 532 + (s2 floordiv 64) * 133 + ((s2 mod 64) floordiv 32) * 4 + 145)>
#map213 = affine_map<()[s0] -> ((s0 floordiv 64) * 133 + ((s0 mod 64) floordiv 32) * 4 + 145)>
#map214 = affine_map<()[s0, s1, s2] -> (((s0 + s1 * 2 - ((s0 + s1 * 2) floordiv 8) * 7) floordiv 4) * 532 + (s2 floordiv 64) * 133 + ((s2 mod 64) floordiv 32) * 4 + 146)>
#map215 = affine_map<()[s0] -> ((s0 floordiv 64) * 133 + ((s0 mod 64) floordiv 32) * 4 + 146)>
#map216 = affine_map<()[s0, s1, s2] -> (((s0 + s1 * 2 - ((s0 + s1 * 2) floordiv 8) * 7) floordiv 4) * 532 + (s2 floordiv 64) * 133 + ((s2 mod 64) floordiv 32) * 4 + 147)>
#map217 = affine_map<()[s0] -> ((s0 floordiv 64) * 133 + ((s0 mod 64) floordiv 32) * 4 + 147)>
#map218 = affine_map<()[s0, s1, s2] -> (((s0 + s1 * 2 - ((s0 + s1 * 2) floordiv 8) * 7) floordiv 4) * 532 + (s2 floordiv 64) * 133 + ((s2 mod 64) floordiv 32) * 4 + 152)>
#map219 = affine_map<()[s0] -> ((s0 floordiv 64) * 133 + ((s0 mod 64) floordiv 32) * 4 + 152)>
#map220 = affine_map<()[s0, s1, s2] -> (((s0 + s1 * 2 - ((s0 + s1 * 2) floordiv 8) * 7) floordiv 4) * 532 + (s2 floordiv 64) * 133 + ((s2 mod 64) floordiv 32) * 4 + 153)>
#map221 = affine_map<()[s0] -> ((s0 floordiv 64) * 133 + ((s0 mod 64) floordiv 32) * 4 + 153)>
#map222 = affine_map<()[s0, s1, s2] -> (((s0 + s1 * 2 - ((s0 + s1 * 2) floordiv 8) * 7) floordiv 4) * 532 + (s2 floordiv 64) * 133 + ((s2 mod 64) floordiv 32) * 4 + 154)>
#map223 = affine_map<()[s0] -> ((s0 floordiv 64) * 133 + ((s0 mod 64) floordiv 32) * 4 + 154)>
#map224 = affine_map<()[s0, s1, s2] -> (((s0 + s1 * 2 - ((s0 + s1 * 2) floordiv 8) * 7) floordiv 4) * 532 + (s2 floordiv 64) * 133 + ((s2 mod 64) floordiv 32) * 4 + 155)>
#map225 = affine_map<()[s0] -> ((s0 floordiv 64) * 133 + ((s0 mod 64) floordiv 32) * 4 + 155)>
#translation = #iree_codegen.translation_info<pipeline = None workgroup_size = [256, 2, 1] subgroup_size = 64>
module attributes {transform.with_named_sequence} {
  stream.executable private @gemm {
    stream.executable.export public @gemm workgroups() -> (index, index, index) {
      %c2 = arith.constant 2 : index
      %c4 = arith.constant 4 : index
      %c1 = arith.constant 1 : index
      stream.return %c2, %c4, %c1 : index, index, index
    }
    builtin.module {
      func.func @gemm(%arg0: !stream.binding, %arg1: !stream.binding, %arg2: !stream.binding) attributes {translation_info = #translation} {
        %c4096_i14 = arith.constant 4096 : i14
        %cst = arith.constant dense<0.000000e+00> : vector<8xf16>
        %cst_0 = arith.constant dense<[0, 1, 2, 3, 4, 5, 6, 7]> : vector<8xi32>
        %cst_1 = arith.constant dense<1073741823> : vector<8xindex>
        %c536870911 = arith.constant 536870911 : index
        %c2147483643_i32 = arith.constant 2147483643 : i32
        %c536870910 = arith.constant 536870910 : index
        %c895 = arith.constant 895 : index
        %c4096 = arith.constant 4096 : index
        %c1036 = arith.constant 1036 : index
        %c2147483645_i32 = arith.constant 2147483645 : i32
        %c1073741822 = arith.constant 1073741822 : index
        %c14336 = arith.constant 14336 : index
        %c706 = arith.constant 706 : index
        %c1 = arith.constant 1 : index
        %c532 = arith.constant 532 : index
        %c41440 = arith.constant 41440 : index
        %c0 = arith.constant 0 : index
        %cst_2 = arith.constant dense<0.000000e+00> : vector<16xf32>
        %block_id_x = gpu.block_id  x upper_bound 2
        %block_id_y = gpu.block_id  y upper_bound 4
        %thread_id_x = gpu.thread_id  x upper_bound 256
        %thread_id_y = gpu.thread_id  y upper_bound 2
        %alloc = memref.alloc() : memref<62720xi8, #gpu.address_space<workgroup>>
        %view = memref.view %alloc[%c0][] : memref<62720xi8, #gpu.address_space<workgroup>> to memref<1036x20xf16, #gpu.address_space<workgroup>>
        %view_3 = memref.view %alloc[%c41440][] : memref<62720xi8, #gpu.address_space<workgroup>> to memref<532x20xf16, #gpu.address_space<workgroup>>
        %0 = stream.binding.subspan %arg0[%c0] : !stream.binding -> memref<706x14336xf16, strided<[14336, 1], offset: ?>>
        %1 = affine.apply #map()[%thread_id_x, %thread_id_y, %block_id_x, %block_id_y]
        %2 = arith.cmpi slt, %1, %c706 : index
        %3 = vector.broadcast %2 : i1 to vector<8xi1>
        %4 = affine.apply #map1()[%thread_id_x]
        %5 = arith.muli %1, %c14336 overflow<nsw> : index
        %6 = arith.addi %5, %4 overflow<nsw> : index
        %base_buffer, %offset, %sizes:2, %strides:2 = memref.extract_strided_metadata %0 : memref<706x14336xf16, strided<[14336, 1], offset: ?>> -> memref<f16>, index, index, index, index, index
        %reinterpret_cast = memref.reinterpret_cast %0 to offset: [%offset], sizes: [%c1073741822], strides: [1] : memref<706x14336xf16, strided<[14336, 1], offset: ?>> to memref<?xf16, strided<[1], offset: ?>>
        %7 = amdgpu.fat_raw_buffer_cast %reinterpret_cast validBytes(%c2147483645_i32) resetOffset : memref<?xf16, strided<[1], offset: ?>> to memref<?xf16, #amdgpu.address_space<fat_raw_buffer>>
        %8 = arith.index_cast %6 : index to i32
        %9 = vector.broadcast %8 : i32 to vector<8xi32>
        %10 = arith.addi %9, %cst_0 : vector<8xi32>
        %11 = arith.index_cast %10 : vector<8xi32> to vector<8xindex>
        %12 = arith.select %3, %11, %cst_1 : vector<8xi1>, vector<8xindex>
        %13 = vector.extract %12[0] : index from vector<8xindex>
        %14 = vector.load %7[%13] : memref<?xf16, #amdgpu.address_space<fat_raw_buffer>>, vector<8xf16>
        %15 = affine.apply #map2()[%thread_id_x, %thread_id_y, %block_id_x, %block_id_y]
        %16 = arith.cmpi slt, %15, %c706 : index
        %17 = vector.broadcast %16 : i1 to vector<8xi1>
        %18 = arith.muli %15, %c14336 overflow<nsw> : index
        %19 = arith.addi %18, %4 overflow<nsw> : index
        %20 = arith.index_cast %19 : index to i32
        %21 = vector.broadcast %20 : i32 to vector<8xi32>
        %22 = arith.addi %21, %cst_0 : vector<8xi32>
        %23 = arith.index_cast %22 : vector<8xi32> to vector<8xindex>
        %24 = arith.select %17, %23, %cst_1 : vector<8xi1>, vector<8xindex>
        %25 = vector.extract %24[0] : index from vector<8xindex>
        %26 = vector.load %7[%25] : memref<?xf16, #amdgpu.address_space<fat_raw_buffer>>, vector<8xf16>
        %27 = affine.apply #map3()[%thread_id_x, %thread_id_y, %block_id_x, %block_id_y]
        %28 = arith.cmpi slt, %27, %c706 : index
        %29 = vector.broadcast %28 : i1 to vector<8xi1>
        %30 = arith.muli %27, %c14336 overflow<nsw> : index
        %31 = arith.addi %30, %4 overflow<nsw> : index
        %32 = arith.index_cast %31 : index to i32
        %33 = vector.broadcast %32 : i32 to vector<8xi32>
        %34 = arith.addi %33, %cst_0 : vector<8xi32>
        %35 = arith.index_cast %34 : vector<8xi32> to vector<8xindex>
        %36 = arith.select %29, %35, %cst_1 : vector<8xi1>, vector<8xindex>
        %37 = vector.extract %36[0] : index from vector<8xindex>
        %38 = vector.load %7[%37] : memref<?xf16, #amdgpu.address_space<fat_raw_buffer>>, vector<8xf16>
        %39 = stream.binding.subspan %arg1[%c0] : !stream.binding -> memref<4096x14336xf16, strided<[14336, 1], offset: ?>>
        %40 = affine.apply #map4()[%thread_id_x, %thread_id_y, %block_id_x, %block_id_y]
        %41 = arith.cmpi slt, %40, %c4096 : index
        %42 = vector.broadcast %41 : i1 to vector<8xi1>
        %43 = arith.muli %40, %c14336 overflow<nsw> : index
        %44 = arith.addi %43, %4 overflow<nsw> : index
        %base_buffer_4, %offset_5, %sizes_6:2, %strides_7:2 = memref.extract_strided_metadata %39 : memref<4096x14336xf16, strided<[14336, 1], offset: ?>> -> memref<f16>, index, index, index, index, index
        %reinterpret_cast_8 = memref.reinterpret_cast %39 to offset: [%offset_5], sizes: [%c1073741822], strides: [1] : memref<4096x14336xf16, strided<[14336, 1], offset: ?>> to memref<?xf16, strided<[1], offset: ?>>
        %45 = amdgpu.fat_raw_buffer_cast %reinterpret_cast_8 validBytes(%c2147483645_i32) resetOffset : memref<?xf16, strided<[1], offset: ?>> to memref<?xf16, #amdgpu.address_space<fat_raw_buffer>>
        %46 = arith.index_cast %44 : index to i32
        %47 = vector.broadcast %46 : i32 to vector<8xi32>
        %48 = arith.addi %47, %cst_0 : vector<8xi32>
        %49 = arith.index_cast %48 : vector<8xi32> to vector<8xindex>
        %50 = arith.select %42, %49, %cst_1 : vector<8xi1>, vector<8xindex>
        %51 = vector.extract %50[0] : index from vector<8xindex>
        %52 = vector.load %45[%51] : memref<?xf16, #amdgpu.address_space<fat_raw_buffer>>, vector<8xf16>
        %53 = affine.apply #map5()[%thread_id_x, %thread_id_y, %block_id_x, %block_id_y]
        %54 = arith.cmpi slt, %53, %c4096 : index
        %55 = vector.broadcast %54 : i1 to vector<8xi1>
        %56 = arith.muli %53, %c14336 overflow<nsw> : index
        %57 = arith.addi %56, %4 overflow<nsw> : index
        %58 = arith.index_cast %57 : index to i32
        %59 = vector.broadcast %58 : i32 to vector<8xi32>
        %60 = arith.addi %59, %cst_0 : vector<8xi32>
        %61 = arith.index_cast %60 : vector<8xi32> to vector<8xindex>
        %62 = arith.select %55, %61, %cst_1 : vector<8xi1>, vector<8xindex>
        %63 = vector.extract %62[0] : index from vector<8xindex>
        %64 = vector.load %45[%63] : memref<?xf16, #amdgpu.address_space<fat_raw_buffer>>, vector<8xf16>
        %65 = affine.apply #map6()[%thread_id_x, %thread_id_y, %block_id_x, %block_id_y]
        %66 = arith.cmpi slt, %65, %c4096 : index
        %67 = vector.broadcast %66 : i1 to vector<8xi1>
        %68 = arith.muli %65, %c14336 overflow<nsw> : index
        %69 = arith.addi %68, %4 overflow<nsw> : index
        %70 = arith.index_cast %69 : index to i32
        %71 = vector.broadcast %70 : i32 to vector<8xi32>
        %72 = arith.addi %71, %cst_0 : vector<8xi32>
        %73 = arith.index_cast %72 : vector<8xi32> to vector<8xindex>
        %74 = arith.select %67, %73, %cst_1 : vector<8xi1>, vector<8xindex>
        %75 = vector.extract %74[0] : index from vector<8xindex>
        %76 = vector.load %45[%75] : memref<?xf16, #amdgpu.address_space<fat_raw_buffer>>, vector<8xf16>
        %77 = affine.apply #map7()[%thread_id_x, %thread_id_y, %block_id_x, %block_id_y]
        %78 = arith.cmpi slt, %77, %c4096 : index
        %79 = vector.broadcast %78 : i1 to vector<8xi1>
        %80 = arith.muli %77, %c14336 overflow<nsw> : index
        %81 = arith.addi %80, %4 overflow<nsw> : index
        %82 = arith.index_cast %81 : index to i32
        %83 = vector.broadcast %82 : i32 to vector<8xi32>
        %84 = arith.addi %83, %cst_0 : vector<8xi32>
        %85 = arith.index_cast %84 : vector<8xi32> to vector<8xindex>
        %86 = arith.select %79, %85, %cst_1 : vector<8xi1>, vector<8xindex>
        %87 = vector.extract %86[0] : index from vector<8xindex>
        %88 = vector.load %45[%87] : memref<?xf16, #amdgpu.address_space<fat_raw_buffer>>, vector<8xf16>
        %89 = affine.apply #map8()[%thread_id_x, %thread_id_y, %block_id_x, %block_id_y]
        %90 = arith.cmpi slt, %89, %c4096 : index
        %91 = vector.broadcast %90 : i1 to vector<8xi1>
        %92 = arith.muli %89, %c14336 overflow<nsw> : index
        %93 = arith.addi %92, %4 overflow<nsw> : index
        %94 = arith.index_cast %93 : index to i32
        %95 = vector.broadcast %94 : i32 to vector<8xi32>
        %96 = arith.addi %95, %cst_0 : vector<8xi32>
        %97 = arith.index_cast %96 : vector<8xi32> to vector<8xindex>
        %98 = arith.select %91, %97, %cst_1 : vector<8xi1>, vector<8xindex>
        %99 = vector.extract %98[0] : index from vector<8xindex>
        %100 = vector.load %45[%99] : memref<?xf16, #amdgpu.address_space<fat_raw_buffer>>, vector<8xf16>
        %101 = affine.apply #map9()[%thread_id_x]
        %102 = arith.minsi %101, %c532 : index
        %103 = affine.apply #map10()[%thread_id_x, %thread_id_y]
        %104 = arith.cmpi slt, %103, %102 : index
        %105 = vector.broadcast %104 : i1 to vector<8xi1>
        vector.maskedstore %view_3[%103, %4], %105, %14 : memref<532x20xf16, #gpu.address_space<workgroup>>, vector<8xi1>, vector<8xf16>
        %106 = affine.apply #map11()[%thread_id_x, %thread_id_y]
        %107 = arith.cmpi slt, %106, %102 : index
        %108 = vector.broadcast %107 : i1 to vector<8xi1>
        vector.maskedstore %view_3[%106, %4], %108, %26 : memref<532x20xf16, #gpu.address_space<workgroup>>, vector<8xi1>, vector<8xf16>
        %109 = affine.apply #map12()[%thread_id_x, %thread_id_y]
        %110 = arith.cmpi slt, %109, %102 : index
        %111 = vector.broadcast %110 : i1 to vector<8xi1>
        vector.maskedstore %view_3[%109, %4], %111, %38 : memref<532x20xf16, #gpu.address_space<workgroup>>, vector<8xi1>, vector<8xf16>
        %112 = affine.apply #map13()[%thread_id_y]
        %113 = arith.minsi %112, %c1036 : index
        %114 = affine.apply #map14()[%thread_id_x, %thread_id_y]
        %115 = arith.cmpi slt, %114, %113 : index
        %116 = vector.broadcast %115 : i1 to vector<8xi1>
        vector.maskedstore %view[%114, %4], %116, %52 : memref<1036x20xf16, #gpu.address_space<workgroup>>, vector<8xi1>, vector<8xf16>
        %117 = affine.apply #map15()[%thread_id_x, %thread_id_y]
        %118 = arith.cmpi slt, %117, %113 : index
        %119 = vector.broadcast %118 : i1 to vector<8xi1>
        vector.maskedstore %view[%117, %4], %119, %64 : memref<1036x20xf16, #gpu.address_space<workgroup>>, vector<8xi1>, vector<8xf16>
        %120 = affine.apply #map16()[%thread_id_x, %thread_id_y]
        %121 = arith.cmpi slt, %120, %113 : index
        %122 = vector.broadcast %121 : i1 to vector<8xi1>
        vector.maskedstore %view[%120, %4], %122, %76 : memref<1036x20xf16, #gpu.address_space<workgroup>>, vector<8xi1>, vector<8xf16>
        %123 = affine.apply #map17()[%thread_id_x, %thread_id_y]
        %124 = arith.cmpi slt, %123, %113 : index
        %125 = vector.broadcast %124 : i1 to vector<8xi1>
        vector.maskedstore %view[%123, %4], %125, %88 : memref<1036x20xf16, #gpu.address_space<workgroup>>, vector<8xi1>, vector<8xf16>
        %126 = affine.apply #map18()[%thread_id_x, %thread_id_y]
        %127 = arith.cmpi slt, %126, %113 : index
        %128 = vector.broadcast %127 : i1 to vector<8xi1>
        vector.maskedstore %view[%126, %4], %128, %100 : memref<1036x20xf16, #gpu.address_space<workgroup>>, vector<8xi1>, vector<8xf16>
        %129 = affine.apply #map19()[%thread_id_x, %thread_id_y]
        %130 = arith.cmpi slt, %129, %113 : index
        %131 = vector.broadcast %130 : i1 to vector<8xi1>
        %132 = affine.apply #map20()[%thread_id_x]
        %133 = affine.apply #map21()[%thread_id_x, %thread_id_y]
        %134 = arith.cmpi slt, %133, %113 : index
        %135 = vector.broadcast %134 : i1 to vector<8xi1>
        %136 = affine.apply #map22()[%thread_id_x, %thread_id_y]
        %137 = arith.cmpi slt, %136, %113 : index
        %138 = vector.broadcast %137 : i1 to vector<8xi1>
        %139 = affine.apply #map23()[%thread_id_x, %thread_id_y]
        %140 = arith.cmpi slt, %139, %113 : index
        %141 = vector.broadcast %140 : i1 to vector<8xi1>
        %142 = affine.apply #map24()[%thread_id_x, %thread_id_y]
        %143 = arith.cmpi slt, %142, %113 : index
        %144 = vector.broadcast %143 : i1 to vector<8xi1>
        %145 = affine.apply #map25()[%thread_id_x, %thread_id_y]
        %146 = arith.cmpi slt, %145, %113 : index
        %147 = vector.broadcast %146 : i1 to vector<8xi1>
        %148 = affine.apply #map26()[%thread_id_x, %thread_id_y]
        %149 = arith.cmpi slt, %148, %113 : index
        %150 = vector.broadcast %149 : i1 to vector<8xi1>
        %151 = affine.apply #map27()[%thread_id_x, %thread_id_y]
        %152 = arith.cmpi slt, %151, %113 : index
        %153 = vector.broadcast %152 : i1 to vector<8xi1>
        %154 = affine.apply #map28()[%thread_id_x, %thread_id_y]
        %155 = arith.cmpi slt, %154, %113 : index
        %156 = vector.broadcast %155 : i1 to vector<8xi1>
        %157 = affine.apply #map29()[%thread_id_x, %thread_id_y]
        %158 = arith.cmpi slt, %157, %113 : index
        %159 = vector.broadcast %158 : i1 to vector<8xi1>
        %160 = affine.apply #map30()[%thread_id_x, %thread_id_y]
        %161 = arith.cmpi slt, %160, %113 : index
        %162 = vector.broadcast %161 : i1 to vector<8xi1>
        %163 = affine.apply #map31()[%thread_id_x, %thread_id_y]
        %164 = arith.cmpi slt, %163, %113 : index
        %165 = vector.broadcast %164 : i1 to vector<8xi1>
        %166 = affine.apply #map32()[%thread_id_x, %thread_id_y]
        %167 = arith.cmpi slt, %166, %113 : index
        %168 = vector.broadcast %167 : i1 to vector<8xi1>
        %169 = affine.apply #map33()[%thread_id_x, %thread_id_y]
        %170 = arith.cmpi slt, %169, %113 : index
        %171 = vector.broadcast %170 : i1 to vector<8xi1>
        %172 = affine.apply #map34()[%thread_id_x, %thread_id_y]
        %173 = arith.cmpi slt, %172, %113 : index
        %174 = vector.broadcast %173 : i1 to vector<8xi1>
        %175 = affine.apply #map35()[%thread_id_x, %thread_id_y]
        %176 = arith.cmpi slt, %175, %113 : index
        %177 = vector.broadcast %176 : i1 to vector<8xi1>
        %178 = affine.apply #map36()[%thread_id_x, %thread_id_y]
        %179 = arith.cmpi slt, %178, %113 : index
        %180 = vector.broadcast %179 : i1 to vector<8xi1>
        %181 = affine.apply #map37()[%thread_id_x]
        %182 = arith.cmpi slt, %181, %102 : index
        %183 = vector.broadcast %182 : i1 to vector<8xi1>
        %184 = affine.apply #map38()[%thread_id_x]
        %185 = arith.cmpi slt, %184, %102 : index
        %186 = vector.broadcast %185 : i1 to vector<8xi1>
        %187 = affine.apply #map39()[%thread_id_x]
        %188 = arith.cmpi slt, %187, %102 : index
        %189 = vector.broadcast %188 : i1 to vector<8xi1>
        %190 = affine.apply #map40()[%thread_id_x]
        %191 = arith.cmpi slt, %190, %102 : index
        %192 = vector.broadcast %191 : i1 to vector<8xi1>
        %193 = affine.apply #map41()[%thread_id_x]
        %194 = arith.cmpi slt, %193, %102 : index
        %195 = vector.broadcast %194 : i1 to vector<8xi1>
        %196:85 = scf.for %arg3 = %c0 to %c895 step %c1 iter_args(%arg4 = %cst_2, %arg5 = %cst_2, %arg6 = %cst_2, %arg7 = %cst_2, %arg8 = %cst_2, %arg9 = %cst_2, %arg10 = %cst_2, %arg11 = %cst_2, %arg12 = %cst_2, %arg13 = %cst_2, %arg14 = %cst_2, %arg15 = %cst_2, %arg16 = %cst_2, %arg17 = %cst_2, %arg18 = %cst_2, %arg19 = %cst_2, %arg20 = %cst_2, %arg21 = %cst_2, %arg22 = %cst_2, %arg23 = %cst_2, %arg24 = %cst_2, %arg25 = %cst_2, %arg26 = %cst_2, %arg27 = %cst_2, %arg28 = %cst_2, %arg29 = %cst_2, %arg30 = %cst_2, %arg31 = %cst_2, %arg32 = %cst_2, %arg33 = %cst_2, %arg34 = %cst_2, %arg35 = %cst_2, %arg36 = %cst_2, %arg37 = %cst_2, %arg38 = %cst_2, %arg39 = %cst_2, %arg40 = %cst_2, %arg41 = %cst_2, %arg42 = %cst_2, %arg43 = %cst_2, %arg44 = %cst_2, %arg45 = %cst_2, %arg46 = %cst_2, %arg47 = %cst_2, %arg48 = %cst_2, %arg49 = %cst_2, %arg50 = %cst_2, %arg51 = %cst_2, %arg52 = %cst_2, %arg53 = %cst_2, %arg54 = %cst_2, %arg55 = %cst_2, %arg56 = %cst_2, %arg57 = %cst_2, %arg58 = %cst_2, %arg59 = %cst_2, %arg60 = %cst_2, %arg61 = %cst_2, %arg62 = %cst_2, %arg63 = %cst_2, %arg64 = %cst_2, %arg65 = %cst_2, %arg66 = %cst_2, %arg67 = %cst_2, %arg68 = %cst_2, %arg69 = %cst_2, %arg70 = %cst_2, %arg71 = %cst_2, %arg72 = %cst_2, %arg73 = %cst_2, %arg74 = %cst_2, %arg75 = %cst_2, %arg76 = %cst_2, %arg77 = %cst_2, %arg78 = %cst_2, %arg79 = %cst_2, %arg80 = %cst_2, %arg81 = %cst_2, %arg82 = %cst_2, %arg83 = %cst_2, %arg84 = %cst_2, %arg85 = %cst_2, %arg86 = %cst_2, %arg87 = %cst_2, %arg88 = %cst_2) -> (vector<16xf32>, vector<16xf32>, vector<16xf32>, vector<16xf32>, vector<16xf32>, vector<16xf32>, vector<16xf32>, vector<16xf32>, vector<16xf32>, vector<16xf32>, vector<16xf32>, vector<16xf32>, vector<16xf32>, vector<16xf32>, vector<16xf32>, vector<16xf32>, vector<16xf32>, vector<16xf32>, vector<16xf32>, vector<16xf32>, vector<16xf32>, vector<16xf32>, vector<16xf32>, vector<16xf32>, vector<16xf32>, vector<16xf32>, vector<16xf32>, vector<16xf32>, vector<16xf32>, vector<16xf32>, vector<16xf32>, vector<16xf32>, vector<16xf32>, vector<16xf32>, vector<16xf32>, vector<16xf32>, vector<16xf32>, vector<16xf32>, vector<16xf32>, vector<16xf32>, vector<16xf32>, vector<16xf32>, vector<16xf32>, vector<16xf32>, vector<16xf32>, vector<16xf32>, vector<16xf32>, vector<16xf32>, vector<16xf32>, vector<16xf32>, vector<16xf32>, vector<16xf32>, vector<16xf32>, vector<16xf32>, vector<16xf32>, vector<16xf32>, vector<16xf32>, vector<16xf32>, vector<16xf32>, vector<16xf32>, vector<16xf32>, vector<16xf32>, vector<16xf32>, vector<16xf32>, vector<16xf32>, vector<16xf32>, vector<16xf32>, vector<16xf32>, vector<16xf32>, vector<16xf32>, vector<16xf32>, vector<16xf32>, vector<16xf32>, vector<16xf32>, vector<16xf32>, vector<16xf32>, vector<16xf32>, vector<16xf32>, vector<16xf32>, vector<16xf32>, vector<16xf32>, vector<16xf32>, vector<16xf32>, vector<16xf32>, vector<16xf32>) {
          amdgpu.lds_barrier
          %6309 = vector.maskedload %view[%129, %132], %131, %cst : memref<1036x20xf16, #gpu.address_space<workgroup>>, vector<8xi1>, vector<8xf16> into vector<8xf16>
          %6310 = vector.maskedload %view[%133, %132], %135, %cst : memref<1036x20xf16, #gpu.address_space<workgroup>>, vector<8xi1>, vector<8xf16> into vector<8xf16>
          %6311 = vector.maskedload %view[%136, %132], %138, %cst : memref<1036x20xf16, #gpu.address_space<workgroup>>, vector<8xi1>, vector<8xf16> into vector<8xf16>
          %6312 = vector.maskedload %view[%139, %132], %141, %cst : memref<1036x20xf16, #gpu.address_space<workgroup>>, vector<8xi1>, vector<8xf16> into vector<8xf16>
          %6313 = vector.maskedload %view[%142, %132], %144, %cst : memref<1036x20xf16, #gpu.address_space<workgroup>>, vector<8xi1>, vector<8xf16> into vector<8xf16>
          %6314 = vector.maskedload %view[%145, %132], %147, %cst : memref<1036x20xf16, #gpu.address_space<workgroup>>, vector<8xi1>, vector<8xf16> into vector<8xf16>
          %6315 = vector.maskedload %view[%148, %132], %150, %cst : memref<1036x20xf16, #gpu.address_space<workgroup>>, vector<8xi1>, vector<8xf16> into vector<8xf16>
          %6316 = vector.maskedload %view[%151, %132], %153, %cst : memref<1036x20xf16, #gpu.address_space<workgroup>>, vector<8xi1>, vector<8xf16> into vector<8xf16>
          %6317 = vector.maskedload %view[%154, %132], %156, %cst : memref<1036x20xf16, #gpu.address_space<workgroup>>, vector<8xi1>, vector<8xf16> into vector<8xf16>
          %6318 = vector.maskedload %view[%157, %132], %159, %cst : memref<1036x20xf16, #gpu.address_space<workgroup>>, vector<8xi1>, vector<8xf16> into vector<8xf16>
          %6319 = vector.maskedload %view[%160, %132], %162, %cst : memref<1036x20xf16, #gpu.address_space<workgroup>>, vector<8xi1>, vector<8xf16> into vector<8xf16>
          %6320 = vector.maskedload %view[%163, %132], %165, %cst : memref<1036x20xf16, #gpu.address_space<workgroup>>, vector<8xi1>, vector<8xf16> into vector<8xf16>
          %6321 = vector.maskedload %view[%166, %132], %168, %cst : memref<1036x20xf16, #gpu.address_space<workgroup>>, vector<8xi1>, vector<8xf16> into vector<8xf16>
          %6322 = vector.maskedload %view[%169, %132], %171, %cst : memref<1036x20xf16, #gpu.address_space<workgroup>>, vector<8xi1>, vector<8xf16> into vector<8xf16>
          %6323 = vector.maskedload %view[%172, %132], %174, %cst : memref<1036x20xf16, #gpu.address_space<workgroup>>, vector<8xi1>, vector<8xf16> into vector<8xf16>
          %6324 = vector.maskedload %view[%175, %132], %177, %cst : memref<1036x20xf16, #gpu.address_space<workgroup>>, vector<8xi1>, vector<8xf16> into vector<8xf16>
          %6325 = vector.maskedload %view[%178, %132], %180, %cst : memref<1036x20xf16, #gpu.address_space<workgroup>>, vector<8xi1>, vector<8xf16> into vector<8xf16>
          %6326 = vector.maskedload %view_3[%181, %132], %183, %cst : memref<532x20xf16, #gpu.address_space<workgroup>>, vector<8xi1>, vector<8xf16> into vector<8xf16>
          %6327 = vector.maskedload %view_3[%184, %132], %186, %cst : memref<532x20xf16, #gpu.address_space<workgroup>>, vector<8xi1>, vector<8xf16> into vector<8xf16>
          %6328 = vector.maskedload %view_3[%187, %132], %189, %cst : memref<532x20xf16, #gpu.address_space<workgroup>>, vector<8xi1>, vector<8xf16> into vector<8xf16>
          %6329 = vector.maskedload %view_3[%190, %132], %192, %cst : memref<532x20xf16, #gpu.address_space<workgroup>>, vector<8xi1>, vector<8xf16> into vector<8xf16>
          %6330 = vector.maskedload %view_3[%193, %132], %195, %cst : memref<532x20xf16, #gpu.address_space<workgroup>>, vector<8xi1>, vector<8xf16> into vector<8xf16>
          %6331 = affine.apply #map42()[%arg3, %thread_id_x]
          %6332 = arith.addi %5, %6331 overflow<nsw> : index
          %6333 = arith.index_cast %6332 : index to i32
          %6334 = vector.broadcast %6333 : i32 to vector<8xi32>
          %6335 = arith.addi %6334, %cst_0 : vector<8xi32>
          %6336 = arith.index_cast %6335 : vector<8xi32> to vector<8xindex>
          %6337 = arith.select %3, %6336, %cst_1 : vector<8xi1>, vector<8xindex>
          %6338 = vector.extract %6337[0] : index from vector<8xindex>
          %6339 = vector.load %7[%6338] : memref<?xf16, #amdgpu.address_space<fat_raw_buffer>>, vector<8xf16>
          %6340 = arith.addi %18, %6331 overflow<nsw> : index
          %6341 = arith.index_cast %6340 : index to i32
          %6342 = vector.broadcast %6341 : i32 to vector<8xi32>
          %6343 = arith.addi %6342, %cst_0 : vector<8xi32>
          %6344 = arith.index_cast %6343 : vector<8xi32> to vector<8xindex>
          %6345 = arith.select %17, %6344, %cst_1 : vector<8xi1>, vector<8xindex>
          %6346 = vector.extract %6345[0] : index from vector<8xindex>
          %6347 = vector.load %7[%6346] : memref<?xf16, #amdgpu.address_space<fat_raw_buffer>>, vector<8xf16>
          %6348 = arith.addi %30, %6331 overflow<nsw> : index
          %6349 = arith.index_cast %6348 : index to i32
          %6350 = vector.broadcast %6349 : i32 to vector<8xi32>
          %6351 = arith.addi %6350, %cst_0 : vector<8xi32>
          %6352 = arith.index_cast %6351 : vector<8xi32> to vector<8xindex>
          %6353 = arith.select %29, %6352, %cst_1 : vector<8xi1>, vector<8xindex>
          %6354 = vector.extract %6353[0] : index from vector<8xindex>
          %6355 = vector.load %7[%6354] : memref<?xf16, #amdgpu.address_space<fat_raw_buffer>>, vector<8xf16>
          %6356 = arith.addi %43, %6331 overflow<nsw> : index
          %6357 = arith.index_cast %6356 : index to i32
          %6358 = vector.broadcast %6357 : i32 to vector<8xi32>
          %6359 = arith.addi %6358, %cst_0 : vector<8xi32>
          %6360 = arith.index_cast %6359 : vector<8xi32> to vector<8xindex>
          %6361 = arith.select %42, %6360, %cst_1 : vector<8xi1>, vector<8xindex>
          %6362 = vector.extract %6361[0] : index from vector<8xindex>
          %6363 = vector.load %45[%6362] : memref<?xf16, #amdgpu.address_space<fat_raw_buffer>>, vector<8xf16>
          %6364 = arith.addi %56, %6331 overflow<nsw> : index
          %6365 = arith.index_cast %6364 : index to i32
          %6366 = vector.broadcast %6365 : i32 to vector<8xi32>
          %6367 = arith.addi %6366, %cst_0 : vector<8xi32>
          %6368 = arith.index_cast %6367 : vector<8xi32> to vector<8xindex>
          %6369 = arith.select %55, %6368, %cst_1 : vector<8xi1>, vector<8xindex>
          %6370 = vector.extract %6369[0] : index from vector<8xindex>
          %6371 = vector.load %45[%6370] : memref<?xf16, #amdgpu.address_space<fat_raw_buffer>>, vector<8xf16>
          %6372 = arith.addi %68, %6331 overflow<nsw> : index
          %6373 = arith.index_cast %6372 : index to i32
          %6374 = vector.broadcast %6373 : i32 to vector<8xi32>
          %6375 = arith.addi %6374, %cst_0 : vector<8xi32>
          %6376 = arith.index_cast %6375 : vector<8xi32> to vector<8xindex>
          %6377 = arith.select %67, %6376, %cst_1 : vector<8xi1>, vector<8xindex>
          %6378 = vector.extract %6377[0] : index from vector<8xindex>
          %6379 = vector.load %45[%6378] : memref<?xf16, #amdgpu.address_space<fat_raw_buffer>>, vector<8xf16>
          %6380 = arith.addi %80, %6331 overflow<nsw> : index
          %6381 = arith.index_cast %6380 : index to i32
          %6382 = vector.broadcast %6381 : i32 to vector<8xi32>
          %6383 = arith.addi %6382, %cst_0 : vector<8xi32>
          %6384 = arith.index_cast %6383 : vector<8xi32> to vector<8xindex>
          %6385 = arith.select %79, %6384, %cst_1 : vector<8xi1>, vector<8xindex>
          %6386 = vector.extract %6385[0] : index from vector<8xindex>
          %6387 = vector.load %45[%6386] : memref<?xf16, #amdgpu.address_space<fat_raw_buffer>>, vector<8xf16>
          %6388 = arith.addi %92, %6331 overflow<nsw> : index
          %6389 = arith.index_cast %6388 : index to i32
          %6390 = vector.broadcast %6389 : i32 to vector<8xi32>
          %6391 = arith.addi %6390, %cst_0 : vector<8xi32>
          %6392 = arith.index_cast %6391 : vector<8xi32> to vector<8xindex>
          %6393 = arith.select %91, %6392, %cst_1 : vector<8xi1>, vector<8xindex>
          %6394 = vector.extract %6393[0] : index from vector<8xindex>
          %6395 = vector.load %45[%6394] : memref<?xf16, #amdgpu.address_space<fat_raw_buffer>>, vector<8xf16>
          %6396 = vector.extract_strided_slice %6326 {offsets = [0], sizes = [4], strides = [1]} : vector<8xf16> to vector<4xf16>
          %6397 = vector.extract_strided_slice %6309 {offsets = [0], sizes = [4], strides = [1]} : vector<8xf16> to vector<4xf16>
          %6398 = amdgpu.mfma %6396 * %6397 + %arg4 {blocks = 1 : i32, k = 8 : i32, m = 32 : i32, n = 32 : i32} blgp =  none : vector<4xf16>, vector<4xf16>, vector<16xf32>
          %6399 = vector.extract_strided_slice %6326 {offsets = [4], sizes = [4], strides = [1]} : vector<8xf16> to vector<4xf16>
          %6400 = vector.extract_strided_slice %6309 {offsets = [4], sizes = [4], strides = [1]} : vector<8xf16> to vector<4xf16>
          %6401 = amdgpu.mfma %6399 * %6400 + %6398 {blocks = 1 : i32, k = 8 : i32, m = 32 : i32, n = 32 : i32} blgp =  none : vector<4xf16>, vector<4xf16>, vector<16xf32>
          %6402 = vector.extract_strided_slice %6310 {offsets = [0], sizes = [4], strides = [1]} : vector<8xf16> to vector<4xf16>
          %6403 = amdgpu.mfma %6396 * %6402 + %arg5 {blocks = 1 : i32, k = 8 : i32, m = 32 : i32, n = 32 : i32} blgp =  none : vector<4xf16>, vector<4xf16>, vector<16xf32>
          %6404 = vector.extract_strided_slice %6310 {offsets = [4], sizes = [4], strides = [1]} : vector<8xf16> to vector<4xf16>
          %6405 = amdgpu.mfma %6399 * %6404 + %6403 {blocks = 1 : i32, k = 8 : i32, m = 32 : i32, n = 32 : i32} blgp =  none : vector<4xf16>, vector<4xf16>, vector<16xf32>
          %6406 = vector.extract_strided_slice %6311 {offsets = [0], sizes = [4], strides = [1]} : vector<8xf16> to vector<4xf16>
          %6407 = amdgpu.mfma %6396 * %6406 + %arg6 {blocks = 1 : i32, k = 8 : i32, m = 32 : i32, n = 32 : i32} blgp =  none : vector<4xf16>, vector<4xf16>, vector<16xf32>
          %6408 = vector.extract_strided_slice %6311 {offsets = [4], sizes = [4], strides = [1]} : vector<8xf16> to vector<4xf16>
          %6409 = amdgpu.mfma %6399 * %6408 + %6407 {blocks = 1 : i32, k = 8 : i32, m = 32 : i32, n = 32 : i32} blgp =  none : vector<4xf16>, vector<4xf16>, vector<16xf32>
          %6410 = vector.extract_strided_slice %6312 {offsets = [0], sizes = [4], strides = [1]} : vector<8xf16> to vector<4xf16>
          %6411 = amdgpu.mfma %6396 * %6410 + %arg7 {blocks = 1 : i32, k = 8 : i32, m = 32 : i32, n = 32 : i32} blgp =  none : vector<4xf16>, vector<4xf16>, vector<16xf32>
          %6412 = vector.extract_strided_slice %6312 {offsets = [4], sizes = [4], strides = [1]} : vector<8xf16> to vector<4xf16>
          %6413 = amdgpu.mfma %6399 * %6412 + %6411 {blocks = 1 : i32, k = 8 : i32, m = 32 : i32, n = 32 : i32} blgp =  none : vector<4xf16>, vector<4xf16>, vector<16xf32>
          %6414 = vector.extract_strided_slice %6313 {offsets = [0], sizes = [4], strides = [1]} : vector<8xf16> to vector<4xf16>
          %6415 = amdgpu.mfma %6396 * %6414 + %arg8 {blocks = 1 : i32, k = 8 : i32, m = 32 : i32, n = 32 : i32} blgp =  none : vector<4xf16>, vector<4xf16>, vector<16xf32>
          %6416 = vector.extract_strided_slice %6313 {offsets = [4], sizes = [4], strides = [1]} : vector<8xf16> to vector<4xf16>
          %6417 = amdgpu.mfma %6399 * %6416 + %6415 {blocks = 1 : i32, k = 8 : i32, m = 32 : i32, n = 32 : i32} blgp =  none : vector<4xf16>, vector<4xf16>, vector<16xf32>
          %6418 = vector.extract_strided_slice %6314 {offsets = [0], sizes = [4], strides = [1]} : vector<8xf16> to vector<4xf16>
          %6419 = amdgpu.mfma %6396 * %6418 + %arg9 {blocks = 1 : i32, k = 8 : i32, m = 32 : i32, n = 32 : i32} blgp =  none : vector<4xf16>, vector<4xf16>, vector<16xf32>
          %6420 = vector.extract_strided_slice %6314 {offsets = [4], sizes = [4], strides = [1]} : vector<8xf16> to vector<4xf16>
          %6421 = amdgpu.mfma %6399 * %6420 + %6419 {blocks = 1 : i32, k = 8 : i32, m = 32 : i32, n = 32 : i32} blgp =  none : vector<4xf16>, vector<4xf16>, vector<16xf32>
          %6422 = vector.extract_strided_slice %6315 {offsets = [0], sizes = [4], strides = [1]} : vector<8xf16> to vector<4xf16>
          %6423 = amdgpu.mfma %6396 * %6422 + %arg10 {blocks = 1 : i32, k = 8 : i32, m = 32 : i32, n = 32 : i32} blgp =  none : vector<4xf16>, vector<4xf16>, vector<16xf32>
          %6424 = vector.extract_strided_slice %6315 {offsets = [4], sizes = [4], strides = [1]} : vector<8xf16> to vector<4xf16>
          %6425 = amdgpu.mfma %6399 * %6424 + %6423 {blocks = 1 : i32, k = 8 : i32, m = 32 : i32, n = 32 : i32} blgp =  none : vector<4xf16>, vector<4xf16>, vector<16xf32>
          %6426 = vector.extract_strided_slice %6316 {offsets = [0], sizes = [4], strides = [1]} : vector<8xf16> to vector<4xf16>
          %6427 = amdgpu.mfma %6396 * %6426 + %arg11 {blocks = 1 : i32, k = 8 : i32, m = 32 : i32, n = 32 : i32} blgp =  none : vector<4xf16>, vector<4xf16>, vector<16xf32>
          %6428 = vector.extract_strided_slice %6316 {offsets = [4], sizes = [4], strides = [1]} : vector<8xf16> to vector<4xf16>
          %6429 = amdgpu.mfma %6399 * %6428 + %6427 {blocks = 1 : i32, k = 8 : i32, m = 32 : i32, n = 32 : i32} blgp =  none : vector<4xf16>, vector<4xf16>, vector<16xf32>
          %6430 = vector.extract_strided_slice %6317 {offsets = [0], sizes = [4], strides = [1]} : vector<8xf16> to vector<4xf16>
          %6431 = amdgpu.mfma %6396 * %6430 + %arg12 {blocks = 1 : i32, k = 8 : i32, m = 32 : i32, n = 32 : i32} blgp =  none : vector<4xf16>, vector<4xf16>, vector<16xf32>
          %6432 = vector.extract_strided_slice %6317 {offsets = [4], sizes = [4], strides = [1]} : vector<8xf16> to vector<4xf16>
          %6433 = amdgpu.mfma %6399 * %6432 + %6431 {blocks = 1 : i32, k = 8 : i32, m = 32 : i32, n = 32 : i32} blgp =  none : vector<4xf16>, vector<4xf16>, vector<16xf32>
          %6434 = vector.extract_strided_slice %6318 {offsets = [0], sizes = [4], strides = [1]} : vector<8xf16> to vector<4xf16>
          %6435 = amdgpu.mfma %6396 * %6434 + %arg13 {blocks = 1 : i32, k = 8 : i32, m = 32 : i32, n = 32 : i32} blgp =  none : vector<4xf16>, vector<4xf16>, vector<16xf32>
          %6436 = vector.extract_strided_slice %6318 {offsets = [4], sizes = [4], strides = [1]} : vector<8xf16> to vector<4xf16>
          %6437 = amdgpu.mfma %6399 * %6436 + %6435 {blocks = 1 : i32, k = 8 : i32, m = 32 : i32, n = 32 : i32} blgp =  none : vector<4xf16>, vector<4xf16>, vector<16xf32>
          %6438 = vector.extract_strided_slice %6319 {offsets = [0], sizes = [4], strides = [1]} : vector<8xf16> to vector<4xf16>
          %6439 = amdgpu.mfma %6396 * %6438 + %arg14 {blocks = 1 : i32, k = 8 : i32, m = 32 : i32, n = 32 : i32} blgp =  none : vector<4xf16>, vector<4xf16>, vector<16xf32>
          %6440 = vector.extract_strided_slice %6319 {offsets = [4], sizes = [4], strides = [1]} : vector<8xf16> to vector<4xf16>
          %6441 = amdgpu.mfma %6399 * %6440 + %6439 {blocks = 1 : i32, k = 8 : i32, m = 32 : i32, n = 32 : i32} blgp =  none : vector<4xf16>, vector<4xf16>, vector<16xf32>
          %6442 = vector.extract_strided_slice %6320 {offsets = [0], sizes = [4], strides = [1]} : vector<8xf16> to vector<4xf16>
          %6443 = amdgpu.mfma %6396 * %6442 + %arg15 {blocks = 1 : i32, k = 8 : i32, m = 32 : i32, n = 32 : i32} blgp =  none : vector<4xf16>, vector<4xf16>, vector<16xf32>
          %6444 = vector.extract_strided_slice %6320 {offsets = [4], sizes = [4], strides = [1]} : vector<8xf16> to vector<4xf16>
          %6445 = amdgpu.mfma %6399 * %6444 + %6443 {blocks = 1 : i32, k = 8 : i32, m = 32 : i32, n = 32 : i32} blgp =  none : vector<4xf16>, vector<4xf16>, vector<16xf32>
          %6446 = vector.extract_strided_slice %6321 {offsets = [0], sizes = [4], strides = [1]} : vector<8xf16> to vector<4xf16>
          %6447 = amdgpu.mfma %6396 * %6446 + %arg16 {blocks = 1 : i32, k = 8 : i32, m = 32 : i32, n = 32 : i32} blgp =  none : vector<4xf16>, vector<4xf16>, vector<16xf32>
          %6448 = vector.extract_strided_slice %6321 {offsets = [4], sizes = [4], strides = [1]} : vector<8xf16> to vector<4xf16>
          %6449 = amdgpu.mfma %6399 * %6448 + %6447 {blocks = 1 : i32, k = 8 : i32, m = 32 : i32, n = 32 : i32} blgp =  none : vector<4xf16>, vector<4xf16>, vector<16xf32>
          %6450 = vector.extract_strided_slice %6322 {offsets = [0], sizes = [4], strides = [1]} : vector<8xf16> to vector<4xf16>
          %6451 = amdgpu.mfma %6396 * %6450 + %arg17 {blocks = 1 : i32, k = 8 : i32, m = 32 : i32, n = 32 : i32} blgp =  none : vector<4xf16>, vector<4xf16>, vector<16xf32>
          %6452 = vector.extract_strided_slice %6322 {offsets = [4], sizes = [4], strides = [1]} : vector<8xf16> to vector<4xf16>
          %6453 = amdgpu.mfma %6399 * %6452 + %6451 {blocks = 1 : i32, k = 8 : i32, m = 32 : i32, n = 32 : i32} blgp =  none : vector<4xf16>, vector<4xf16>, vector<16xf32>
          %6454 = vector.extract_strided_slice %6323 {offsets = [0], sizes = [4], strides = [1]} : vector<8xf16> to vector<4xf16>
          %6455 = amdgpu.mfma %6396 * %6454 + %arg18 {blocks = 1 : i32, k = 8 : i32, m = 32 : i32, n = 32 : i32} blgp =  none : vector<4xf16>, vector<4xf16>, vector<16xf32>
          %6456 = vector.extract_strided_slice %6323 {offsets = [4], sizes = [4], strides = [1]} : vector<8xf16> to vector<4xf16>
          %6457 = amdgpu.mfma %6399 * %6456 + %6455 {blocks = 1 : i32, k = 8 : i32, m = 32 : i32, n = 32 : i32} blgp =  none : vector<4xf16>, vector<4xf16>, vector<16xf32>
          %6458 = vector.extract_strided_slice %6324 {offsets = [0], sizes = [4], strides = [1]} : vector<8xf16> to vector<4xf16>
          %6459 = amdgpu.mfma %6396 * %6458 + %arg19 {blocks = 1 : i32, k = 8 : i32, m = 32 : i32, n = 32 : i32} blgp =  none : vector<4xf16>, vector<4xf16>, vector<16xf32>
          %6460 = vector.extract_strided_slice %6324 {offsets = [4], sizes = [4], strides = [1]} : vector<8xf16> to vector<4xf16>
          %6461 = amdgpu.mfma %6399 * %6460 + %6459 {blocks = 1 : i32, k = 8 : i32, m = 32 : i32, n = 32 : i32} blgp =  none : vector<4xf16>, vector<4xf16>, vector<16xf32>
          %6462 = vector.extract_strided_slice %6325 {offsets = [0], sizes = [4], strides = [1]} : vector<8xf16> to vector<4xf16>
          %6463 = amdgpu.mfma %6396 * %6462 + %arg20 {blocks = 1 : i32, k = 8 : i32, m = 32 : i32, n = 32 : i32} blgp =  none : vector<4xf16>, vector<4xf16>, vector<16xf32>
          %6464 = vector.extract_strided_slice %6325 {offsets = [4], sizes = [4], strides = [1]} : vector<8xf16> to vector<4xf16>
          %6465 = amdgpu.mfma %6399 * %6464 + %6463 {blocks = 1 : i32, k = 8 : i32, m = 32 : i32, n = 32 : i32} blgp =  none : vector<4xf16>, vector<4xf16>, vector<16xf32>
          %6466 = vector.extract_strided_slice %6327 {offsets = [0], sizes = [4], strides = [1]} : vector<8xf16> to vector<4xf16>
          %6467 = amdgpu.mfma %6466 * %6397 + %arg21 {blocks = 1 : i32, k = 8 : i32, m = 32 : i32, n = 32 : i32} blgp =  none : vector<4xf16>, vector<4xf16>, vector<16xf32>
          %6468 = vector.extract_strided_slice %6327 {offsets = [4], sizes = [4], strides = [1]} : vector<8xf16> to vector<4xf16>
          %6469 = amdgpu.mfma %6468 * %6400 + %6467 {blocks = 1 : i32, k = 8 : i32, m = 32 : i32, n = 32 : i32} blgp =  none : vector<4xf16>, vector<4xf16>, vector<16xf32>
          %6470 = amdgpu.mfma %6466 * %6402 + %arg22 {blocks = 1 : i32, k = 8 : i32, m = 32 : i32, n = 32 : i32} blgp =  none : vector<4xf16>, vector<4xf16>, vector<16xf32>
          %6471 = amdgpu.mfma %6468 * %6404 + %6470 {blocks = 1 : i32, k = 8 : i32, m = 32 : i32, n = 32 : i32} blgp =  none : vector<4xf16>, vector<4xf16>, vector<16xf32>
          %6472 = amdgpu.mfma %6466 * %6406 + %arg23 {blocks = 1 : i32, k = 8 : i32, m = 32 : i32, n = 32 : i32} blgp =  none : vector<4xf16>, vector<4xf16>, vector<16xf32>
          %6473 = amdgpu.mfma %6468 * %6408 + %6472 {blocks = 1 : i32, k = 8 : i32, m = 32 : i32, n = 32 : i32} blgp =  none : vector<4xf16>, vector<4xf16>, vector<16xf32>
          %6474 = amdgpu.mfma %6466 * %6410 + %arg24 {blocks = 1 : i32, k = 8 : i32, m = 32 : i32, n = 32 : i32} blgp =  none : vector<4xf16>, vector<4xf16>, vector<16xf32>
          %6475 = amdgpu.mfma %6468 * %6412 + %6474 {blocks = 1 : i32, k = 8 : i32, m = 32 : i32, n = 32 : i32} blgp =  none : vector<4xf16>, vector<4xf16>, vector<16xf32>
          %6476 = amdgpu.mfma %6466 * %6414 + %arg25 {blocks = 1 : i32, k = 8 : i32, m = 32 : i32, n = 32 : i32} blgp =  none : vector<4xf16>, vector<4xf16>, vector<16xf32>
          %6477 = amdgpu.mfma %6468 * %6416 + %6476 {blocks = 1 : i32, k = 8 : i32, m = 32 : i32, n = 32 : i32} blgp =  none : vector<4xf16>, vector<4xf16>, vector<16xf32>
          %6478 = amdgpu.mfma %6466 * %6418 + %arg26 {blocks = 1 : i32, k = 8 : i32, m = 32 : i32, n = 32 : i32} blgp =  none : vector<4xf16>, vector<4xf16>, vector<16xf32>
          %6479 = amdgpu.mfma %6468 * %6420 + %6478 {blocks = 1 : i32, k = 8 : i32, m = 32 : i32, n = 32 : i32} blgp =  none : vector<4xf16>, vector<4xf16>, vector<16xf32>
          %6480 = amdgpu.mfma %6466 * %6422 + %arg27 {blocks = 1 : i32, k = 8 : i32, m = 32 : i32, n = 32 : i32} blgp =  none : vector<4xf16>, vector<4xf16>, vector<16xf32>
          %6481 = amdgpu.mfma %6468 * %6424 + %6480 {blocks = 1 : i32, k = 8 : i32, m = 32 : i32, n = 32 : i32} blgp =  none : vector<4xf16>, vector<4xf16>, vector<16xf32>
          %6482 = amdgpu.mfma %6466 * %6426 + %arg28 {blocks = 1 : i32, k = 8 : i32, m = 32 : i32, n = 32 : i32} blgp =  none : vector<4xf16>, vector<4xf16>, vector<16xf32>
          %6483 = amdgpu.mfma %6468 * %6428 + %6482 {blocks = 1 : i32, k = 8 : i32, m = 32 : i32, n = 32 : i32} blgp =  none : vector<4xf16>, vector<4xf16>, vector<16xf32>
          %6484 = amdgpu.mfma %6466 * %6430 + %arg29 {blocks = 1 : i32, k = 8 : i32, m = 32 : i32, n = 32 : i32} blgp =  none : vector<4xf16>, vector<4xf16>, vector<16xf32>
          %6485 = amdgpu.mfma %6468 * %6432 + %6484 {blocks = 1 : i32, k = 8 : i32, m = 32 : i32, n = 32 : i32} blgp =  none : vector<4xf16>, vector<4xf16>, vector<16xf32>
          %6486 = amdgpu.mfma %6466 * %6434 + %arg30 {blocks = 1 : i32, k = 8 : i32, m = 32 : i32, n = 32 : i32} blgp =  none : vector<4xf16>, vector<4xf16>, vector<16xf32>
          %6487 = amdgpu.mfma %6468 * %6436 + %6486 {blocks = 1 : i32, k = 8 : i32, m = 32 : i32, n = 32 : i32} blgp =  none : vector<4xf16>, vector<4xf16>, vector<16xf32>
          %6488 = amdgpu.mfma %6466 * %6438 + %arg31 {blocks = 1 : i32, k = 8 : i32, m = 32 : i32, n = 32 : i32} blgp =  none : vector<4xf16>, vector<4xf16>, vector<16xf32>
          %6489 = amdgpu.mfma %6468 * %6440 + %6488 {blocks = 1 : i32, k = 8 : i32, m = 32 : i32, n = 32 : i32} blgp =  none : vector<4xf16>, vector<4xf16>, vector<16xf32>
          %6490 = amdgpu.mfma %6466 * %6442 + %arg32 {blocks = 1 : i32, k = 8 : i32, m = 32 : i32, n = 32 : i32} blgp =  none : vector<4xf16>, vector<4xf16>, vector<16xf32>
          %6491 = amdgpu.mfma %6468 * %6444 + %6490 {blocks = 1 : i32, k = 8 : i32, m = 32 : i32, n = 32 : i32} blgp =  none : vector<4xf16>, vector<4xf16>, vector<16xf32>
          %6492 = amdgpu.mfma %6466 * %6446 + %arg33 {blocks = 1 : i32, k = 8 : i32, m = 32 : i32, n = 32 : i32} blgp =  none : vector<4xf16>, vector<4xf16>, vector<16xf32>
          %6493 = amdgpu.mfma %6468 * %6448 + %6492 {blocks = 1 : i32, k = 8 : i32, m = 32 : i32, n = 32 : i32} blgp =  none : vector<4xf16>, vector<4xf16>, vector<16xf32>
          %6494 = amdgpu.mfma %6466 * %6450 + %arg34 {blocks = 1 : i32, k = 8 : i32, m = 32 : i32, n = 32 : i32} blgp =  none : vector<4xf16>, vector<4xf16>, vector<16xf32>
          %6495 = amdgpu.mfma %6468 * %6452 + %6494 {blocks = 1 : i32, k = 8 : i32, m = 32 : i32, n = 32 : i32} blgp =  none : vector<4xf16>, vector<4xf16>, vector<16xf32>
          %6496 = amdgpu.mfma %6466 * %6454 + %arg35 {blocks = 1 : i32, k = 8 : i32, m = 32 : i32, n = 32 : i32} blgp =  none : vector<4xf16>, vector<4xf16>, vector<16xf32>
          %6497 = amdgpu.mfma %6468 * %6456 + %6496 {blocks = 1 : i32, k = 8 : i32, m = 32 : i32, n = 32 : i32} blgp =  none : vector<4xf16>, vector<4xf16>, vector<16xf32>
          %6498 = amdgpu.mfma %6466 * %6458 + %arg36 {blocks = 1 : i32, k = 8 : i32, m = 32 : i32, n = 32 : i32} blgp =  none : vector<4xf16>, vector<4xf16>, vector<16xf32>
          %6499 = amdgpu.mfma %6468 * %6460 + %6498 {blocks = 1 : i32, k = 8 : i32, m = 32 : i32, n = 32 : i32} blgp =  none : vector<4xf16>, vector<4xf16>, vector<16xf32>
          %6500 = amdgpu.mfma %6466 * %6462 + %arg37 {blocks = 1 : i32, k = 8 : i32, m = 32 : i32, n = 32 : i32} blgp =  none : vector<4xf16>, vector<4xf16>, vector<16xf32>
          %6501 = amdgpu.mfma %6468 * %6464 + %6500 {blocks = 1 : i32, k = 8 : i32, m = 32 : i32, n = 32 : i32} blgp =  none : vector<4xf16>, vector<4xf16>, vector<16xf32>
          %6502 = vector.extract_strided_slice %6328 {offsets = [0], sizes = [4], strides = [1]} : vector<8xf16> to vector<4xf16>
          %6503 = amdgpu.mfma %6502 * %6397 + %arg38 {blocks = 1 : i32, k = 8 : i32, m = 32 : i32, n = 32 : i32} blgp =  none : vector<4xf16>, vector<4xf16>, vector<16xf32>
          %6504 = vector.extract_strided_slice %6328 {offsets = [4], sizes = [4], strides = [1]} : vector<8xf16> to vector<4xf16>
          %6505 = amdgpu.mfma %6504 * %6400 + %6503 {blocks = 1 : i32, k = 8 : i32, m = 32 : i32, n = 32 : i32} blgp =  none : vector<4xf16>, vector<4xf16>, vector<16xf32>
          %6506 = amdgpu.mfma %6502 * %6402 + %arg39 {blocks = 1 : i32, k = 8 : i32, m = 32 : i32, n = 32 : i32} blgp =  none : vector<4xf16>, vector<4xf16>, vector<16xf32>
          %6507 = amdgpu.mfma %6504 * %6404 + %6506 {blocks = 1 : i32, k = 8 : i32, m = 32 : i32, n = 32 : i32} blgp =  none : vector<4xf16>, vector<4xf16>, vector<16xf32>
          %6508 = amdgpu.mfma %6502 * %6406 + %arg40 {blocks = 1 : i32, k = 8 : i32, m = 32 : i32, n = 32 : i32} blgp =  none : vector<4xf16>, vector<4xf16>, vector<16xf32>
          %6509 = amdgpu.mfma %6504 * %6408 + %6508 {blocks = 1 : i32, k = 8 : i32, m = 32 : i32, n = 32 : i32} blgp =  none : vector<4xf16>, vector<4xf16>, vector<16xf32>
          %6510 = amdgpu.mfma %6502 * %6410 + %arg41 {blocks = 1 : i32, k = 8 : i32, m = 32 : i32, n = 32 : i32} blgp =  none : vector<4xf16>, vector<4xf16>, vector<16xf32>
          %6511 = amdgpu.mfma %6504 * %6412 + %6510 {blocks = 1 : i32, k = 8 : i32, m = 32 : i32, n = 32 : i32} blgp =  none : vector<4xf16>, vector<4xf16>, vector<16xf32>
          %6512 = amdgpu.mfma %6502 * %6414 + %arg42 {blocks = 1 : i32, k = 8 : i32, m = 32 : i32, n = 32 : i32} blgp =  none : vector<4xf16>, vector<4xf16>, vector<16xf32>
          %6513 = amdgpu.mfma %6504 * %6416 + %6512 {blocks = 1 : i32, k = 8 : i32, m = 32 : i32, n = 32 : i32} blgp =  none : vector<4xf16>, vector<4xf16>, vector<16xf32>
          %6514 = amdgpu.mfma %6502 * %6418 + %arg43 {blocks = 1 : i32, k = 8 : i32, m = 32 : i32, n = 32 : i32} blgp =  none : vector<4xf16>, vector<4xf16>, vector<16xf32>
          %6515 = amdgpu.mfma %6504 * %6420 + %6514 {blocks = 1 : i32, k = 8 : i32, m = 32 : i32, n = 32 : i32} blgp =  none : vector<4xf16>, vector<4xf16>, vector<16xf32>
          %6516 = amdgpu.mfma %6502 * %6422 + %arg44 {blocks = 1 : i32, k = 8 : i32, m = 32 : i32, n = 32 : i32} blgp =  none : vector<4xf16>, vector<4xf16>, vector<16xf32>
          %6517 = amdgpu.mfma %6504 * %6424 + %6516 {blocks = 1 : i32, k = 8 : i32, m = 32 : i32, n = 32 : i32} blgp =  none : vector<4xf16>, vector<4xf16>, vector<16xf32>
          %6518 = amdgpu.mfma %6502 * %6426 + %arg45 {blocks = 1 : i32, k = 8 : i32, m = 32 : i32, n = 32 : i32} blgp =  none : vector<4xf16>, vector<4xf16>, vector<16xf32>
          %6519 = amdgpu.mfma %6504 * %6428 + %6518 {blocks = 1 : i32, k = 8 : i32, m = 32 : i32, n = 32 : i32} blgp =  none : vector<4xf16>, vector<4xf16>, vector<16xf32>
          %6520 = amdgpu.mfma %6502 * %6430 + %arg46 {blocks = 1 : i32, k = 8 : i32, m = 32 : i32, n = 32 : i32} blgp =  none : vector<4xf16>, vector<4xf16>, vector<16xf32>
          %6521 = amdgpu.mfma %6504 * %6432 + %6520 {blocks = 1 : i32, k = 8 : i32, m = 32 : i32, n = 32 : i32} blgp =  none : vector<4xf16>, vector<4xf16>, vector<16xf32>
          %6522 = amdgpu.mfma %6502 * %6434 + %arg47 {blocks = 1 : i32, k = 8 : i32, m = 32 : i32, n = 32 : i32} blgp =  none : vector<4xf16>, vector<4xf16>, vector<16xf32>
          %6523 = amdgpu.mfma %6504 * %6436 + %6522 {blocks = 1 : i32, k = 8 : i32, m = 32 : i32, n = 32 : i32} blgp =  none : vector<4xf16>, vector<4xf16>, vector<16xf32>
          %6524 = amdgpu.mfma %6502 * %6438 + %arg48 {blocks = 1 : i32, k = 8 : i32, m = 32 : i32, n = 32 : i32} blgp =  none : vector<4xf16>, vector<4xf16>, vector<16xf32>
          %6525 = amdgpu.mfma %6504 * %6440 + %6524 {blocks = 1 : i32, k = 8 : i32, m = 32 : i32, n = 32 : i32} blgp =  none : vector<4xf16>, vector<4xf16>, vector<16xf32>
          %6526 = amdgpu.mfma %6502 * %6442 + %arg49 {blocks = 1 : i32, k = 8 : i32, m = 32 : i32, n = 32 : i32} blgp =  none : vector<4xf16>, vector<4xf16>, vector<16xf32>
          %6527 = amdgpu.mfma %6504 * %6444 + %6526 {blocks = 1 : i32, k = 8 : i32, m = 32 : i32, n = 32 : i32} blgp =  none : vector<4xf16>, vector<4xf16>, vector<16xf32>
          %6528 = amdgpu.mfma %6502 * %6446 + %arg50 {blocks = 1 : i32, k = 8 : i32, m = 32 : i32, n = 32 : i32} blgp =  none : vector<4xf16>, vector<4xf16>, vector<16xf32>
          %6529 = amdgpu.mfma %6504 * %6448 + %6528 {blocks = 1 : i32, k = 8 : i32, m = 32 : i32, n = 32 : i32} blgp =  none : vector<4xf16>, vector<4xf16>, vector<16xf32>
          %6530 = amdgpu.mfma %6502 * %6450 + %arg51 {blocks = 1 : i32, k = 8 : i32, m = 32 : i32, n = 32 : i32} blgp =  none : vector<4xf16>, vector<4xf16>, vector<16xf32>
          %6531 = amdgpu.mfma %6504 * %6452 + %6530 {blocks = 1 : i32, k = 8 : i32, m = 32 : i32, n = 32 : i32} blgp =  none : vector<4xf16>, vector<4xf16>, vector<16xf32>
          %6532 = amdgpu.mfma %6502 * %6454 + %arg52 {blocks = 1 : i32, k = 8 : i32, m = 32 : i32, n = 32 : i32} blgp =  none : vector<4xf16>, vector<4xf16>, vector<16xf32>
          %6533 = amdgpu.mfma %6504 * %6456 + %6532 {blocks = 1 : i32, k = 8 : i32, m = 32 : i32, n = 32 : i32} blgp =  none : vector<4xf16>, vector<4xf16>, vector<16xf32>
          %6534 = amdgpu.mfma %6502 * %6458 + %arg53 {blocks = 1 : i32, k = 8 : i32, m = 32 : i32, n = 32 : i32} blgp =  none : vector<4xf16>, vector<4xf16>, vector<16xf32>
          %6535 = amdgpu.mfma %6504 * %6460 + %6534 {blocks = 1 : i32, k = 8 : i32, m = 32 : i32, n = 32 : i32} blgp =  none : vector<4xf16>, vector<4xf16>, vector<16xf32>
          %6536 = amdgpu.mfma %6502 * %6462 + %arg54 {blocks = 1 : i32, k = 8 : i32, m = 32 : i32, n = 32 : i32} blgp =  none : vector<4xf16>, vector<4xf16>, vector<16xf32>
          %6537 = amdgpu.mfma %6504 * %6464 + %6536 {blocks = 1 : i32, k = 8 : i32, m = 32 : i32, n = 32 : i32} blgp =  none : vector<4xf16>, vector<4xf16>, vector<16xf32>
          %6538 = vector.extract_strided_slice %6329 {offsets = [0], sizes = [4], strides = [1]} : vector<8xf16> to vector<4xf16>
          %6539 = amdgpu.mfma %6538 * %6397 + %arg55 {blocks = 1 : i32, k = 8 : i32, m = 32 : i32, n = 32 : i32} blgp =  none : vector<4xf16>, vector<4xf16>, vector<16xf32>
          %6540 = vector.extract_strided_slice %6329 {offsets = [4], sizes = [4], strides = [1]} : vector<8xf16> to vector<4xf16>
          %6541 = amdgpu.mfma %6540 * %6400 + %6539 {blocks = 1 : i32, k = 8 : i32, m = 32 : i32, n = 32 : i32} blgp =  none : vector<4xf16>, vector<4xf16>, vector<16xf32>
          %6542 = amdgpu.mfma %6538 * %6402 + %arg56 {blocks = 1 : i32, k = 8 : i32, m = 32 : i32, n = 32 : i32} blgp =  none : vector<4xf16>, vector<4xf16>, vector<16xf32>
          %6543 = amdgpu.mfma %6540 * %6404 + %6542 {blocks = 1 : i32, k = 8 : i32, m = 32 : i32, n = 32 : i32} blgp =  none : vector<4xf16>, vector<4xf16>, vector<16xf32>
          %6544 = amdgpu.mfma %6538 * %6406 + %arg57 {blocks = 1 : i32, k = 8 : i32, m = 32 : i32, n = 32 : i32} blgp =  none : vector<4xf16>, vector<4xf16>, vector<16xf32>
          %6545 = amdgpu.mfma %6540 * %6408 + %6544 {blocks = 1 : i32, k = 8 : i32, m = 32 : i32, n = 32 : i32} blgp =  none : vector<4xf16>, vector<4xf16>, vector<16xf32>
          %6546 = amdgpu.mfma %6538 * %6410 + %arg58 {blocks = 1 : i32, k = 8 : i32, m = 32 : i32, n = 32 : i32} blgp =  none : vector<4xf16>, vector<4xf16>, vector<16xf32>
          %6547 = amdgpu.mfma %6540 * %6412 + %6546 {blocks = 1 : i32, k = 8 : i32, m = 32 : i32, n = 32 : i32} blgp =  none : vector<4xf16>, vector<4xf16>, vector<16xf32>
          %6548 = amdgpu.mfma %6538 * %6414 + %arg59 {blocks = 1 : i32, k = 8 : i32, m = 32 : i32, n = 32 : i32} blgp =  none : vector<4xf16>, vector<4xf16>, vector<16xf32>
          %6549 = amdgpu.mfma %6540 * %6416 + %6548 {blocks = 1 : i32, k = 8 : i32, m = 32 : i32, n = 32 : i32} blgp =  none : vector<4xf16>, vector<4xf16>, vector<16xf32>
          %6550 = amdgpu.mfma %6538 * %6418 + %arg60 {blocks = 1 : i32, k = 8 : i32, m = 32 : i32, n = 32 : i32} blgp =  none : vector<4xf16>, vector<4xf16>, vector<16xf32>
          %6551 = amdgpu.mfma %6540 * %6420 + %6550 {blocks = 1 : i32, k = 8 : i32, m = 32 : i32, n = 32 : i32} blgp =  none : vector<4xf16>, vector<4xf16>, vector<16xf32>
          %6552 = amdgpu.mfma %6538 * %6422 + %arg61 {blocks = 1 : i32, k = 8 : i32, m = 32 : i32, n = 32 : i32} blgp =  none : vector<4xf16>, vector<4xf16>, vector<16xf32>
          %6553 = amdgpu.mfma %6540 * %6424 + %6552 {blocks = 1 : i32, k = 8 : i32, m = 32 : i32, n = 32 : i32} blgp =  none : vector<4xf16>, vector<4xf16>, vector<16xf32>
          %6554 = amdgpu.mfma %6538 * %6426 + %arg62 {blocks = 1 : i32, k = 8 : i32, m = 32 : i32, n = 32 : i32} blgp =  none : vector<4xf16>, vector<4xf16>, vector<16xf32>
          %6555 = amdgpu.mfma %6540 * %6428 + %6554 {blocks = 1 : i32, k = 8 : i32, m = 32 : i32, n = 32 : i32} blgp =  none : vector<4xf16>, vector<4xf16>, vector<16xf32>
          %6556 = amdgpu.mfma %6538 * %6430 + %arg63 {blocks = 1 : i32, k = 8 : i32, m = 32 : i32, n = 32 : i32} blgp =  none : vector<4xf16>, vector<4xf16>, vector<16xf32>
          %6557 = amdgpu.mfma %6540 * %6432 + %6556 {blocks = 1 : i32, k = 8 : i32, m = 32 : i32, n = 32 : i32} blgp =  none : vector<4xf16>, vector<4xf16>, vector<16xf32>
          %6558 = amdgpu.mfma %6538 * %6434 + %arg64 {blocks = 1 : i32, k = 8 : i32, m = 32 : i32, n = 32 : i32} blgp =  none : vector<4xf16>, vector<4xf16>, vector<16xf32>
          %6559 = amdgpu.mfma %6540 * %6436 + %6558 {blocks = 1 : i32, k = 8 : i32, m = 32 : i32, n = 32 : i32} blgp =  none : vector<4xf16>, vector<4xf16>, vector<16xf32>
          %6560 = amdgpu.mfma %6538 * %6438 + %arg65 {blocks = 1 : i32, k = 8 : i32, m = 32 : i32, n = 32 : i32} blgp =  none : vector<4xf16>, vector<4xf16>, vector<16xf32>
          %6561 = amdgpu.mfma %6540 * %6440 + %6560 {blocks = 1 : i32, k = 8 : i32, m = 32 : i32, n = 32 : i32} blgp =  none : vector<4xf16>, vector<4xf16>, vector<16xf32>
          %6562 = amdgpu.mfma %6538 * %6442 + %arg66 {blocks = 1 : i32, k = 8 : i32, m = 32 : i32, n = 32 : i32} blgp =  none : vector<4xf16>, vector<4xf16>, vector<16xf32>
          %6563 = amdgpu.mfma %6540 * %6444 + %6562 {blocks = 1 : i32, k = 8 : i32, m = 32 : i32, n = 32 : i32} blgp =  none : vector<4xf16>, vector<4xf16>, vector<16xf32>
          %6564 = amdgpu.mfma %6538 * %6446 + %arg67 {blocks = 1 : i32, k = 8 : i32, m = 32 : i32, n = 32 : i32} blgp =  none : vector<4xf16>, vector<4xf16>, vector<16xf32>
          %6565 = amdgpu.mfma %6540 * %6448 + %6564 {blocks = 1 : i32, k = 8 : i32, m = 32 : i32, n = 32 : i32} blgp =  none : vector<4xf16>, vector<4xf16>, vector<16xf32>
          %6566 = amdgpu.mfma %6538 * %6450 + %arg68 {blocks = 1 : i32, k = 8 : i32, m = 32 : i32, n = 32 : i32} blgp =  none : vector<4xf16>, vector<4xf16>, vector<16xf32>
          %6567 = amdgpu.mfma %6540 * %6452 + %6566 {blocks = 1 : i32, k = 8 : i32, m = 32 : i32, n = 32 : i32} blgp =  none : vector<4xf16>, vector<4xf16>, vector<16xf32>
          %6568 = amdgpu.mfma %6538 * %6454 + %arg69 {blocks = 1 : i32, k = 8 : i32, m = 32 : i32, n = 32 : i32} blgp =  none : vector<4xf16>, vector<4xf16>, vector<16xf32>
          %6569 = amdgpu.mfma %6540 * %6456 + %6568 {blocks = 1 : i32, k = 8 : i32, m = 32 : i32, n = 32 : i32} blgp =  none : vector<4xf16>, vector<4xf16>, vector<16xf32>
          %6570 = amdgpu.mfma %6538 * %6458 + %arg70 {blocks = 1 : i32, k = 8 : i32, m = 32 : i32, n = 32 : i32} blgp =  none : vector<4xf16>, vector<4xf16>, vector<16xf32>
          %6571 = amdgpu.mfma %6540 * %6460 + %6570 {blocks = 1 : i32, k = 8 : i32, m = 32 : i32, n = 32 : i32} blgp =  none : vector<4xf16>, vector<4xf16>, vector<16xf32>
          %6572 = amdgpu.mfma %6538 * %6462 + %arg71 {blocks = 1 : i32, k = 8 : i32, m = 32 : i32, n = 32 : i32} blgp =  none : vector<4xf16>, vector<4xf16>, vector<16xf32>
          %6573 = amdgpu.mfma %6540 * %6464 + %6572 {blocks = 1 : i32, k = 8 : i32, m = 32 : i32, n = 32 : i32} blgp =  none : vector<4xf16>, vector<4xf16>, vector<16xf32>
          %6574 = vector.extract_strided_slice %6330 {offsets = [0], sizes = [4], strides = [1]} : vector<8xf16> to vector<4xf16>
          %6575 = amdgpu.mfma %6574 * %6397 + %arg72 {blocks = 1 : i32, k = 8 : i32, m = 32 : i32, n = 32 : i32} blgp =  none : vector<4xf16>, vector<4xf16>, vector<16xf32>
          %6576 = vector.extract_strided_slice %6330 {offsets = [4], sizes = [4], strides = [1]} : vector<8xf16> to vector<4xf16>
          %6577 = amdgpu.mfma %6576 * %6400 + %6575 {blocks = 1 : i32, k = 8 : i32, m = 32 : i32, n = 32 : i32} blgp =  none : vector<4xf16>, vector<4xf16>, vector<16xf32>
          %6578 = amdgpu.mfma %6574 * %6402 + %arg73 {blocks = 1 : i32, k = 8 : i32, m = 32 : i32, n = 32 : i32} blgp =  none : vector<4xf16>, vector<4xf16>, vector<16xf32>
          %6579 = amdgpu.mfma %6576 * %6404 + %6578 {blocks = 1 : i32, k = 8 : i32, m = 32 : i32, n = 32 : i32} blgp =  none : vector<4xf16>, vector<4xf16>, vector<16xf32>
          %6580 = amdgpu.mfma %6574 * %6406 + %arg74 {blocks = 1 : i32, k = 8 : i32, m = 32 : i32, n = 32 : i32} blgp =  none : vector<4xf16>, vector<4xf16>, vector<16xf32>
          %6581 = amdgpu.mfma %6576 * %6408 + %6580 {blocks = 1 : i32, k = 8 : i32, m = 32 : i32, n = 32 : i32} blgp =  none : vector<4xf16>, vector<4xf16>, vector<16xf32>
          %6582 = amdgpu.mfma %6574 * %6410 + %arg75 {blocks = 1 : i32, k = 8 : i32, m = 32 : i32, n = 32 : i32} blgp =  none : vector<4xf16>, vector<4xf16>, vector<16xf32>
          %6583 = amdgpu.mfma %6576 * %6412 + %6582 {blocks = 1 : i32, k = 8 : i32, m = 32 : i32, n = 32 : i32} blgp =  none : vector<4xf16>, vector<4xf16>, vector<16xf32>
          %6584 = amdgpu.mfma %6574 * %6414 + %arg76 {blocks = 1 : i32, k = 8 : i32, m = 32 : i32, n = 32 : i32} blgp =  none : vector<4xf16>, vector<4xf16>, vector<16xf32>
          %6585 = amdgpu.mfma %6576 * %6416 + %6584 {blocks = 1 : i32, k = 8 : i32, m = 32 : i32, n = 32 : i32} blgp =  none : vector<4xf16>, vector<4xf16>, vector<16xf32>
          %6586 = amdgpu.mfma %6574 * %6418 + %arg77 {blocks = 1 : i32, k = 8 : i32, m = 32 : i32, n = 32 : i32} blgp =  none : vector<4xf16>, vector<4xf16>, vector<16xf32>
          %6587 = amdgpu.mfma %6576 * %6420 + %6586 {blocks = 1 : i32, k = 8 : i32, m = 32 : i32, n = 32 : i32} blgp =  none : vector<4xf16>, vector<4xf16>, vector<16xf32>
          %6588 = amdgpu.mfma %6574 * %6422 + %arg78 {blocks = 1 : i32, k = 8 : i32, m = 32 : i32, n = 32 : i32} blgp =  none : vector<4xf16>, vector<4xf16>, vector<16xf32>
          %6589 = amdgpu.mfma %6576 * %6424 + %6588 {blocks = 1 : i32, k = 8 : i32, m = 32 : i32, n = 32 : i32} blgp =  none : vector<4xf16>, vector<4xf16>, vector<16xf32>
          %6590 = amdgpu.mfma %6574 * %6426 + %arg79 {blocks = 1 : i32, k = 8 : i32, m = 32 : i32, n = 32 : i32} blgp =  none : vector<4xf16>, vector<4xf16>, vector<16xf32>
          %6591 = amdgpu.mfma %6576 * %6428 + %6590 {blocks = 1 : i32, k = 8 : i32, m = 32 : i32, n = 32 : i32} blgp =  none : vector<4xf16>, vector<4xf16>, vector<16xf32>
          %6592 = amdgpu.mfma %6574 * %6430 + %arg80 {blocks = 1 : i32, k = 8 : i32, m = 32 : i32, n = 32 : i32} blgp =  none : vector<4xf16>, vector<4xf16>, vector<16xf32>
          %6593 = amdgpu.mfma %6576 * %6432 + %6592 {blocks = 1 : i32, k = 8 : i32, m = 32 : i32, n = 32 : i32} blgp =  none : vector<4xf16>, vector<4xf16>, vector<16xf32>
          %6594 = amdgpu.mfma %6574 * %6434 + %arg81 {blocks = 1 : i32, k = 8 : i32, m = 32 : i32, n = 32 : i32} blgp =  none : vector<4xf16>, vector<4xf16>, vector<16xf32>
          %6595 = amdgpu.mfma %6576 * %6436 + %6594 {blocks = 1 : i32, k = 8 : i32, m = 32 : i32, n = 32 : i32} blgp =  none : vector<4xf16>, vector<4xf16>, vector<16xf32>
          %6596 = amdgpu.mfma %6574 * %6438 + %arg82 {blocks = 1 : i32, k = 8 : i32, m = 32 : i32, n = 32 : i32} blgp =  none : vector<4xf16>, vector<4xf16>, vector<16xf32>
          %6597 = amdgpu.mfma %6576 * %6440 + %6596 {blocks = 1 : i32, k = 8 : i32, m = 32 : i32, n = 32 : i32} blgp =  none : vector<4xf16>, vector<4xf16>, vector<16xf32>
          %6598 = amdgpu.mfma %6574 * %6442 + %arg83 {blocks = 1 : i32, k = 8 : i32, m = 32 : i32, n = 32 : i32} blgp =  none : vector<4xf16>, vector<4xf16>, vector<16xf32>
          %6599 = amdgpu.mfma %6576 * %6444 + %6598 {blocks = 1 : i32, k = 8 : i32, m = 32 : i32, n = 32 : i32} blgp =  none : vector<4xf16>, vector<4xf16>, vector<16xf32>
          %6600 = amdgpu.mfma %6574 * %6446 + %arg84 {blocks = 1 : i32, k = 8 : i32, m = 32 : i32, n = 32 : i32} blgp =  none : vector<4xf16>, vector<4xf16>, vector<16xf32>
          %6601 = amdgpu.mfma %6576 * %6448 + %6600 {blocks = 1 : i32, k = 8 : i32, m = 32 : i32, n = 32 : i32} blgp =  none : vector<4xf16>, vector<4xf16>, vector<16xf32>
          %6602 = amdgpu.mfma %6574 * %6450 + %arg85 {blocks = 1 : i32, k = 8 : i32, m = 32 : i32, n = 32 : i32} blgp =  none : vector<4xf16>, vector<4xf16>, vector<16xf32>
          %6603 = amdgpu.mfma %6576 * %6452 + %6602 {blocks = 1 : i32, k = 8 : i32, m = 32 : i32, n = 32 : i32} blgp =  none : vector<4xf16>, vector<4xf16>, vector<16xf32>
          %6604 = amdgpu.mfma %6574 * %6454 + %arg86 {blocks = 1 : i32, k = 8 : i32, m = 32 : i32, n = 32 : i32} blgp =  none : vector<4xf16>, vector<4xf16>, vector<16xf32>
          %6605 = amdgpu.mfma %6576 * %6456 + %6604 {blocks = 1 : i32, k = 8 : i32, m = 32 : i32, n = 32 : i32} blgp =  none : vector<4xf16>, vector<4xf16>, vector<16xf32>
          %6606 = amdgpu.mfma %6574 * %6458 + %arg87 {blocks = 1 : i32, k = 8 : i32, m = 32 : i32, n = 32 : i32} blgp =  none : vector<4xf16>, vector<4xf16>, vector<16xf32>
          %6607 = amdgpu.mfma %6576 * %6460 + %6606 {blocks = 1 : i32, k = 8 : i32, m = 32 : i32, n = 32 : i32} blgp =  none : vector<4xf16>, vector<4xf16>, vector<16xf32>
          %6608 = amdgpu.mfma %6574 * %6462 + %arg88 {blocks = 1 : i32, k = 8 : i32, m = 32 : i32, n = 32 : i32} blgp =  none : vector<4xf16>, vector<4xf16>, vector<16xf32>
          %6609 = amdgpu.mfma %6576 * %6464 + %6608 {blocks = 1 : i32, k = 8 : i32, m = 32 : i32, n = 32 : i32} blgp =  none : vector<4xf16>, vector<4xf16>, vector<16xf32>
          amdgpu.lds_barrier
          vector.maskedstore %view_3[%103, %4], %105, %6339 : memref<532x20xf16, #gpu.address_space<workgroup>>, vector<8xi1>, vector<8xf16>
          vector.maskedstore %view_3[%106, %4], %108, %6347 : memref<532x20xf16, #gpu.address_space<workgroup>>, vector<8xi1>, vector<8xf16>
          vector.maskedstore %view_3[%109, %4], %111, %6355 : memref<532x20xf16, #gpu.address_space<workgroup>>, vector<8xi1>, vector<8xf16>
          vector.maskedstore %view[%114, %4], %116, %6363 : memref<1036x20xf16, #gpu.address_space<workgroup>>, vector<8xi1>, vector<8xf16>
          vector.maskedstore %view[%117, %4], %119, %6371 : memref<1036x20xf16, #gpu.address_space<workgroup>>, vector<8xi1>, vector<8xf16>
          vector.maskedstore %view[%120, %4], %122, %6379 : memref<1036x20xf16, #gpu.address_space<workgroup>>, vector<8xi1>, vector<8xf16>
          vector.maskedstore %view[%123, %4], %125, %6387 : memref<1036x20xf16, #gpu.address_space<workgroup>>, vector<8xi1>, vector<8xf16>
          vector.maskedstore %view[%126, %4], %128, %6395 : memref<1036x20xf16, #gpu.address_space<workgroup>>, vector<8xi1>, vector<8xf16>
          scf.yield %6401, %6405, %6409, %6413, %6417, %6421, %6425, %6429, %6433, %6437, %6441, %6445, %6449, %6453, %6457, %6461, %6465, %6469, %6471, %6473, %6475, %6477, %6479, %6481, %6483, %6485, %6487, %6489, %6491, %6493, %6495, %6497, %6499, %6501, %6505, %6507, %6509, %6511, %6513, %6515, %6517, %6519, %6521, %6523, %6525, %6527, %6529, %6531, %6533, %6535, %6537, %6541, %6543, %6545, %6547, %6549, %6551, %6553, %6555, %6557, %6559, %6561, %6563, %6565, %6567, %6569, %6571, %6573, %6577, %6579, %6581, %6583, %6585, %6587, %6589, %6591, %6593, %6595, %6597, %6599, %6601, %6603, %6605, %6607, %6609 : vector<16xf32>, vector<16xf32>, vector<16xf32>, vector<16xf32>, vector<16xf32>, vector<16xf32>, vector<16xf32>, vector<16xf32>, vector<16xf32>, vector<16xf32>, vector<16xf32>, vector<16xf32>, vector<16xf32>, vector<16xf32>, vector<16xf32>, vector<16xf32>, vector<16xf32>, vector<16xf32>, vector<16xf32>, vector<16xf32>, vector<16xf32>, vector<16xf32>, vector<16xf32>, vector<16xf32>, vector<16xf32>, vector<16xf32>, vector<16xf32>, vector<16xf32>, vector<16xf32>, vector<16xf32>, vector<16xf32>, vector<16xf32>, vector<16xf32>, vector<16xf32>, vector<16xf32>, vector<16xf32>, vector<16xf32>, vector<16xf32>, vector<16xf32>, vector<16xf32>, vector<16xf32>, vector<16xf32>, vector<16xf32>, vector<16xf32>, vector<16xf32>, vector<16xf32>, vector<16xf32>, vector<16xf32>, vector<16xf32>, vector<16xf32>, vector<16xf32>, vector<16xf32>, vector<16xf32>, vector<16xf32>, vector<16xf32>, vector<16xf32>, vector<16xf32>, vector<16xf32>, vector<16xf32>, vector<16xf32>, vector<16xf32>, vector<16xf32>, vector<16xf32>, vector<16xf32>, vector<16xf32>, vector<16xf32>, vector<16xf32>, vector<16xf32>, vector<16xf32>, vector<16xf32>, vector<16xf32>, vector<16xf32>, vector<16xf32>, vector<16xf32>, vector<16xf32>, vector<16xf32>, vector<16xf32>, vector<16xf32>, vector<16xf32>, vector<16xf32>, vector<16xf32>, vector<16xf32>, vector<16xf32>, vector<16xf32>, vector<16xf32>
        }
        amdgpu.lds_barrier
        %197 = affine.apply #map19()[%thread_id_x, %thread_id_y]
        %198 = arith.cmpi slt, %197, %113 : index
        %199 = vector.broadcast %198 : i1 to vector<8xi1>
        %200 = affine.apply #map20()[%thread_id_x]
        %201 = vector.maskedload %view[%197, %200], %199, %cst : memref<1036x20xf16, #gpu.address_space<workgroup>>, vector<8xi1>, vector<8xf16> into vector<8xf16>
        %202 = affine.apply #map21()[%thread_id_x, %thread_id_y]
        %203 = arith.cmpi slt, %202, %113 : index
        %204 = vector.broadcast %203 : i1 to vector<8xi1>
        %205 = vector.maskedload %view[%202, %200], %204, %cst : memref<1036x20xf16, #gpu.address_space<workgroup>>, vector<8xi1>, vector<8xf16> into vector<8xf16>
        %206 = affine.apply #map22()[%thread_id_x, %thread_id_y]
        %207 = arith.cmpi slt, %206, %113 : index
        %208 = vector.broadcast %207 : i1 to vector<8xi1>
        %209 = vector.maskedload %view[%206, %200], %208, %cst : memref<1036x20xf16, #gpu.address_space<workgroup>>, vector<8xi1>, vector<8xf16> into vector<8xf16>
        %210 = affine.apply #map23()[%thread_id_x, %thread_id_y]
        %211 = arith.cmpi slt, %210, %113 : index
        %212 = vector.broadcast %211 : i1 to vector<8xi1>
        %213 = vector.maskedload %view[%210, %200], %212, %cst : memref<1036x20xf16, #gpu.address_space<workgroup>>, vector<8xi1>, vector<8xf16> into vector<8xf16>
        %214 = affine.apply #map24()[%thread_id_x, %thread_id_y]
        %215 = arith.cmpi slt, %214, %113 : index
        %216 = vector.broadcast %215 : i1 to vector<8xi1>
        %217 = vector.maskedload %view[%214, %200], %216, %cst : memref<1036x20xf16, #gpu.address_space<workgroup>>, vector<8xi1>, vector<8xf16> into vector<8xf16>
        %218 = affine.apply #map25()[%thread_id_x, %thread_id_y]
        %219 = arith.cmpi slt, %218, %113 : index
        %220 = vector.broadcast %219 : i1 to vector<8xi1>
        %221 = vector.maskedload %view[%218, %200], %220, %cst : memref<1036x20xf16, #gpu.address_space<workgroup>>, vector<8xi1>, vector<8xf16> into vector<8xf16>
        %222 = affine.apply #map26()[%thread_id_x, %thread_id_y]
        %223 = arith.cmpi slt, %222, %113 : index
        %224 = vector.broadcast %223 : i1 to vector<8xi1>
        %225 = vector.maskedload %view[%222, %200], %224, %cst : memref<1036x20xf16, #gpu.address_space<workgroup>>, vector<8xi1>, vector<8xf16> into vector<8xf16>
        %226 = affine.apply #map27()[%thread_id_x, %thread_id_y]
        %227 = arith.cmpi slt, %226, %113 : index
        %228 = vector.broadcast %227 : i1 to vector<8xi1>
        %229 = vector.maskedload %view[%226, %200], %228, %cst : memref<1036x20xf16, #gpu.address_space<workgroup>>, vector<8xi1>, vector<8xf16> into vector<8xf16>
        %230 = affine.apply #map28()[%thread_id_x, %thread_id_y]
        %231 = arith.cmpi slt, %230, %113 : index
        %232 = vector.broadcast %231 : i1 to vector<8xi1>
        %233 = vector.maskedload %view[%230, %200], %232, %cst : memref<1036x20xf16, #gpu.address_space<workgroup>>, vector<8xi1>, vector<8xf16> into vector<8xf16>
        %234 = affine.apply #map29()[%thread_id_x, %thread_id_y]
        %235 = arith.cmpi slt, %234, %113 : index
        %236 = vector.broadcast %235 : i1 to vector<8xi1>
        %237 = vector.maskedload %view[%234, %200], %236, %cst : memref<1036x20xf16, #gpu.address_space<workgroup>>, vector<8xi1>, vector<8xf16> into vector<8xf16>
        %238 = affine.apply #map30()[%thread_id_x, %thread_id_y]
        %239 = arith.cmpi slt, %238, %113 : index
        %240 = vector.broadcast %239 : i1 to vector<8xi1>
        %241 = vector.maskedload %view[%238, %200], %240, %cst : memref<1036x20xf16, #gpu.address_space<workgroup>>, vector<8xi1>, vector<8xf16> into vector<8xf16>
        %242 = affine.apply #map31()[%thread_id_x, %thread_id_y]
        %243 = arith.cmpi slt, %242, %113 : index
        %244 = vector.broadcast %243 : i1 to vector<8xi1>
        %245 = vector.maskedload %view[%242, %200], %244, %cst : memref<1036x20xf16, #gpu.address_space<workgroup>>, vector<8xi1>, vector<8xf16> into vector<8xf16>
        %246 = affine.apply #map32()[%thread_id_x, %thread_id_y]
        %247 = arith.cmpi slt, %246, %113 : index
        %248 = vector.broadcast %247 : i1 to vector<8xi1>
        %249 = vector.maskedload %view[%246, %200], %248, %cst : memref<1036x20xf16, #gpu.address_space<workgroup>>, vector<8xi1>, vector<8xf16> into vector<8xf16>
        %250 = affine.apply #map33()[%thread_id_x, %thread_id_y]
        %251 = arith.cmpi slt, %250, %113 : index
        %252 = vector.broadcast %251 : i1 to vector<8xi1>
        %253 = vector.maskedload %view[%250, %200], %252, %cst : memref<1036x20xf16, #gpu.address_space<workgroup>>, vector<8xi1>, vector<8xf16> into vector<8xf16>
        %254 = affine.apply #map34()[%thread_id_x, %thread_id_y]
        %255 = arith.cmpi slt, %254, %113 : index
        %256 = vector.broadcast %255 : i1 to vector<8xi1>
        %257 = vector.maskedload %view[%254, %200], %256, %cst : memref<1036x20xf16, #gpu.address_space<workgroup>>, vector<8xi1>, vector<8xf16> into vector<8xf16>
        %258 = affine.apply #map35()[%thread_id_x, %thread_id_y]
        %259 = arith.cmpi slt, %258, %113 : index
        %260 = vector.broadcast %259 : i1 to vector<8xi1>
        %261 = vector.maskedload %view[%258, %200], %260, %cst : memref<1036x20xf16, #gpu.address_space<workgroup>>, vector<8xi1>, vector<8xf16> into vector<8xf16>
        %262 = affine.apply #map36()[%thread_id_x, %thread_id_y]
        %263 = arith.cmpi slt, %262, %113 : index
        %264 = vector.broadcast %263 : i1 to vector<8xi1>
        %265 = vector.maskedload %view[%262, %200], %264, %cst : memref<1036x20xf16, #gpu.address_space<workgroup>>, vector<8xi1>, vector<8xf16> into vector<8xf16>
        %266 = affine.apply #map37()[%thread_id_x]
        %267 = arith.cmpi slt, %266, %102 : index
        %268 = vector.broadcast %267 : i1 to vector<8xi1>
        %269 = vector.maskedload %view_3[%266, %200], %268, %cst : memref<532x20xf16, #gpu.address_space<workgroup>>, vector<8xi1>, vector<8xf16> into vector<8xf16>
        %270 = affine.apply #map38()[%thread_id_x]
        %271 = arith.cmpi slt, %270, %102 : index
        %272 = vector.broadcast %271 : i1 to vector<8xi1>
        %273 = vector.maskedload %view_3[%270, %200], %272, %cst : memref<532x20xf16, #gpu.address_space<workgroup>>, vector<8xi1>, vector<8xf16> into vector<8xf16>
        %274 = affine.apply #map39()[%thread_id_x]
        %275 = arith.cmpi slt, %274, %102 : index
        %276 = vector.broadcast %275 : i1 to vector<8xi1>
        %277 = vector.maskedload %view_3[%274, %200], %276, %cst : memref<532x20xf16, #gpu.address_space<workgroup>>, vector<8xi1>, vector<8xf16> into vector<8xf16>
        %278 = affine.apply #map40()[%thread_id_x]
        %279 = arith.cmpi slt, %278, %102 : index
        %280 = vector.broadcast %279 : i1 to vector<8xi1>
        %281 = vector.maskedload %view_3[%278, %200], %280, %cst : memref<532x20xf16, #gpu.address_space<workgroup>>, vector<8xi1>, vector<8xf16> into vector<8xf16>
        %282 = affine.apply #map41()[%thread_id_x]
        %283 = arith.cmpi slt, %282, %102 : index
        %284 = vector.broadcast %283 : i1 to vector<8xi1>
        %285 = vector.maskedload %view_3[%282, %200], %284, %cst : memref<532x20xf16, #gpu.address_space<workgroup>>, vector<8xi1>, vector<8xf16> into vector<8xf16>
        %286 = vector.extract_strided_slice %269 {offsets = [0], sizes = [4], strides = [1]} : vector<8xf16> to vector<4xf16>
        %287 = vector.extract_strided_slice %201 {offsets = [0], sizes = [4], strides = [1]} : vector<8xf16> to vector<4xf16>
        %288 = amdgpu.mfma %286 * %287 + %196#0 {blocks = 1 : i32, k = 8 : i32, m = 32 : i32, n = 32 : i32} blgp =  none : vector<4xf16>, vector<4xf16>, vector<16xf32>
        %289 = vector.extract_strided_slice %269 {offsets = [4], sizes = [4], strides = [1]} : vector<8xf16> to vector<4xf16>
        %290 = vector.extract_strided_slice %201 {offsets = [4], sizes = [4], strides = [1]} : vector<8xf16> to vector<4xf16>
        %291 = amdgpu.mfma %289 * %290 + %288 {blocks = 1 : i32, k = 8 : i32, m = 32 : i32, n = 32 : i32} blgp =  none : vector<4xf16>, vector<4xf16>, vector<16xf32>
        %292 = vector.extract_strided_slice %205 {offsets = [0], sizes = [4], strides = [1]} : vector<8xf16> to vector<4xf16>
        %293 = amdgpu.mfma %286 * %292 + %196#1 {blocks = 1 : i32, k = 8 : i32, m = 32 : i32, n = 32 : i32} blgp =  none : vector<4xf16>, vector<4xf16>, vector<16xf32>
        %294 = vector.extract_strided_slice %205 {offsets = [4], sizes = [4], strides = [1]} : vector<8xf16> to vector<4xf16>
        %295 = amdgpu.mfma %289 * %294 + %293 {blocks = 1 : i32, k = 8 : i32, m = 32 : i32, n = 32 : i32} blgp =  none : vector<4xf16>, vector<4xf16>, vector<16xf32>
        %296 = vector.extract_strided_slice %209 {offsets = [0], sizes = [4], strides = [1]} : vector<8xf16> to vector<4xf16>
        %297 = amdgpu.mfma %286 * %296 + %196#2 {blocks = 1 : i32, k = 8 : i32, m = 32 : i32, n = 32 : i32} blgp =  none : vector<4xf16>, vector<4xf16>, vector<16xf32>
        %298 = vector.extract_strided_slice %209 {offsets = [4], sizes = [4], strides = [1]} : vector<8xf16> to vector<4xf16>
        %299 = amdgpu.mfma %289 * %298 + %297 {blocks = 1 : i32, k = 8 : i32, m = 32 : i32, n = 32 : i32} blgp =  none : vector<4xf16>, vector<4xf16>, vector<16xf32>
        %300 = vector.extract_strided_slice %213 {offsets = [0], sizes = [4], strides = [1]} : vector<8xf16> to vector<4xf16>
        %301 = amdgpu.mfma %286 * %300 + %196#3 {blocks = 1 : i32, k = 8 : i32, m = 32 : i32, n = 32 : i32} blgp =  none : vector<4xf16>, vector<4xf16>, vector<16xf32>
        %302 = vector.extract_strided_slice %213 {offsets = [4], sizes = [4], strides = [1]} : vector<8xf16> to vector<4xf16>
        %303 = amdgpu.mfma %289 * %302 + %301 {blocks = 1 : i32, k = 8 : i32, m = 32 : i32, n = 32 : i32} blgp =  none : vector<4xf16>, vector<4xf16>, vector<16xf32>
        %304 = vector.extract_strided_slice %217 {offsets = [0], sizes = [4], strides = [1]} : vector<8xf16> to vector<4xf16>
        %305 = amdgpu.mfma %286 * %304 + %196#4 {blocks = 1 : i32, k = 8 : i32, m = 32 : i32, n = 32 : i32} blgp =  none : vector<4xf16>, vector<4xf16>, vector<16xf32>
        %306 = vector.extract_strided_slice %217 {offsets = [4], sizes = [4], strides = [1]} : vector<8xf16> to vector<4xf16>
        %307 = amdgpu.mfma %289 * %306 + %305 {blocks = 1 : i32, k = 8 : i32, m = 32 : i32, n = 32 : i32} blgp =  none : vector<4xf16>, vector<4xf16>, vector<16xf32>
        %308 = vector.extract_strided_slice %221 {offsets = [0], sizes = [4], strides = [1]} : vector<8xf16> to vector<4xf16>
        %309 = amdgpu.mfma %286 * %308 + %196#5 {blocks = 1 : i32, k = 8 : i32, m = 32 : i32, n = 32 : i32} blgp =  none : vector<4xf16>, vector<4xf16>, vector<16xf32>
        %310 = vector.extract_strided_slice %221 {offsets = [4], sizes = [4], strides = [1]} : vector<8xf16> to vector<4xf16>
        %311 = amdgpu.mfma %289 * %310 + %309 {blocks = 1 : i32, k = 8 : i32, m = 32 : i32, n = 32 : i32} blgp =  none : vector<4xf16>, vector<4xf16>, vector<16xf32>
        %312 = vector.extract_strided_slice %225 {offsets = [0], sizes = [4], strides = [1]} : vector<8xf16> to vector<4xf16>
        %313 = amdgpu.mfma %286 * %312 + %196#6 {blocks = 1 : i32, k = 8 : i32, m = 32 : i32, n = 32 : i32} blgp =  none : vector<4xf16>, vector<4xf16>, vector<16xf32>
        %314 = vector.extract_strided_slice %225 {offsets = [4], sizes = [4], strides = [1]} : vector<8xf16> to vector<4xf16>
        %315 = amdgpu.mfma %289 * %314 + %313 {blocks = 1 : i32, k = 8 : i32, m = 32 : i32, n = 32 : i32} blgp =  none : vector<4xf16>, vector<4xf16>, vector<16xf32>
        %316 = vector.extract_strided_slice %229 {offsets = [0], sizes = [4], strides = [1]} : vector<8xf16> to vector<4xf16>
        %317 = amdgpu.mfma %286 * %316 + %196#7 {blocks = 1 : i32, k = 8 : i32, m = 32 : i32, n = 32 : i32} blgp =  none : vector<4xf16>, vector<4xf16>, vector<16xf32>
        %318 = vector.extract_strided_slice %229 {offsets = [4], sizes = [4], strides = [1]} : vector<8xf16> to vector<4xf16>
        %319 = amdgpu.mfma %289 * %318 + %317 {blocks = 1 : i32, k = 8 : i32, m = 32 : i32, n = 32 : i32} blgp =  none : vector<4xf16>, vector<4xf16>, vector<16xf32>
        %320 = vector.extract_strided_slice %233 {offsets = [0], sizes = [4], strides = [1]} : vector<8xf16> to vector<4xf16>
        %321 = amdgpu.mfma %286 * %320 + %196#8 {blocks = 1 : i32, k = 8 : i32, m = 32 : i32, n = 32 : i32} blgp =  none : vector<4xf16>, vector<4xf16>, vector<16xf32>
        %322 = vector.extract_strided_slice %233 {offsets = [4], sizes = [4], strides = [1]} : vector<8xf16> to vector<4xf16>
        %323 = amdgpu.mfma %289 * %322 + %321 {blocks = 1 : i32, k = 8 : i32, m = 32 : i32, n = 32 : i32} blgp =  none : vector<4xf16>, vector<4xf16>, vector<16xf32>
        %324 = vector.extract_strided_slice %237 {offsets = [0], sizes = [4], strides = [1]} : vector<8xf16> to vector<4xf16>
        %325 = amdgpu.mfma %286 * %324 + %196#9 {blocks = 1 : i32, k = 8 : i32, m = 32 : i32, n = 32 : i32} blgp =  none : vector<4xf16>, vector<4xf16>, vector<16xf32>
        %326 = vector.extract_strided_slice %237 {offsets = [4], sizes = [4], strides = [1]} : vector<8xf16> to vector<4xf16>
        %327 = amdgpu.mfma %289 * %326 + %325 {blocks = 1 : i32, k = 8 : i32, m = 32 : i32, n = 32 : i32} blgp =  none : vector<4xf16>, vector<4xf16>, vector<16xf32>
        %328 = vector.extract_strided_slice %241 {offsets = [0], sizes = [4], strides = [1]} : vector<8xf16> to vector<4xf16>
        %329 = amdgpu.mfma %286 * %328 + %196#10 {blocks = 1 : i32, k = 8 : i32, m = 32 : i32, n = 32 : i32} blgp =  none : vector<4xf16>, vector<4xf16>, vector<16xf32>
        %330 = vector.extract_strided_slice %241 {offsets = [4], sizes = [4], strides = [1]} : vector<8xf16> to vector<4xf16>
        %331 = amdgpu.mfma %289 * %330 + %329 {blocks = 1 : i32, k = 8 : i32, m = 32 : i32, n = 32 : i32} blgp =  none : vector<4xf16>, vector<4xf16>, vector<16xf32>
        %332 = vector.extract_strided_slice %245 {offsets = [0], sizes = [4], strides = [1]} : vector<8xf16> to vector<4xf16>
        %333 = amdgpu.mfma %286 * %332 + %196#11 {blocks = 1 : i32, k = 8 : i32, m = 32 : i32, n = 32 : i32} blgp =  none : vector<4xf16>, vector<4xf16>, vector<16xf32>
        %334 = vector.extract_strided_slice %245 {offsets = [4], sizes = [4], strides = [1]} : vector<8xf16> to vector<4xf16>
        %335 = amdgpu.mfma %289 * %334 + %333 {blocks = 1 : i32, k = 8 : i32, m = 32 : i32, n = 32 : i32} blgp =  none : vector<4xf16>, vector<4xf16>, vector<16xf32>
        %336 = vector.extract_strided_slice %249 {offsets = [0], sizes = [4], strides = [1]} : vector<8xf16> to vector<4xf16>
        %337 = amdgpu.mfma %286 * %336 + %196#12 {blocks = 1 : i32, k = 8 : i32, m = 32 : i32, n = 32 : i32} blgp =  none : vector<4xf16>, vector<4xf16>, vector<16xf32>
        %338 = vector.extract_strided_slice %249 {offsets = [4], sizes = [4], strides = [1]} : vector<8xf16> to vector<4xf16>
        %339 = amdgpu.mfma %289 * %338 + %337 {blocks = 1 : i32, k = 8 : i32, m = 32 : i32, n = 32 : i32} blgp =  none : vector<4xf16>, vector<4xf16>, vector<16xf32>
        %340 = vector.extract_strided_slice %253 {offsets = [0], sizes = [4], strides = [1]} : vector<8xf16> to vector<4xf16>
        %341 = amdgpu.mfma %286 * %340 + %196#13 {blocks = 1 : i32, k = 8 : i32, m = 32 : i32, n = 32 : i32} blgp =  none : vector<4xf16>, vector<4xf16>, vector<16xf32>
        %342 = vector.extract_strided_slice %253 {offsets = [4], sizes = [4], strides = [1]} : vector<8xf16> to vector<4xf16>
        %343 = amdgpu.mfma %289 * %342 + %341 {blocks = 1 : i32, k = 8 : i32, m = 32 : i32, n = 32 : i32} blgp =  none : vector<4xf16>, vector<4xf16>, vector<16xf32>
        %344 = vector.extract_strided_slice %257 {offsets = [0], sizes = [4], strides = [1]} : vector<8xf16> to vector<4xf16>
        %345 = amdgpu.mfma %286 * %344 + %196#14 {blocks = 1 : i32, k = 8 : i32, m = 32 : i32, n = 32 : i32} blgp =  none : vector<4xf16>, vector<4xf16>, vector<16xf32>
        %346 = vector.extract_strided_slice %257 {offsets = [4], sizes = [4], strides = [1]} : vector<8xf16> to vector<4xf16>
        %347 = amdgpu.mfma %289 * %346 + %345 {blocks = 1 : i32, k = 8 : i32, m = 32 : i32, n = 32 : i32} blgp =  none : vector<4xf16>, vector<4xf16>, vector<16xf32>
        %348 = vector.extract_strided_slice %261 {offsets = [0], sizes = [4], strides = [1]} : vector<8xf16> to vector<4xf16>
        %349 = amdgpu.mfma %286 * %348 + %196#15 {blocks = 1 : i32, k = 8 : i32, m = 32 : i32, n = 32 : i32} blgp =  none : vector<4xf16>, vector<4xf16>, vector<16xf32>
        %350 = vector.extract_strided_slice %261 {offsets = [4], sizes = [4], strides = [1]} : vector<8xf16> to vector<4xf16>
        %351 = amdgpu.mfma %289 * %350 + %349 {blocks = 1 : i32, k = 8 : i32, m = 32 : i32, n = 32 : i32} blgp =  none : vector<4xf16>, vector<4xf16>, vector<16xf32>
        %352 = vector.extract_strided_slice %265 {offsets = [0], sizes = [4], strides = [1]} : vector<8xf16> to vector<4xf16>
        %353 = amdgpu.mfma %286 * %352 + %196#16 {blocks = 1 : i32, k = 8 : i32, m = 32 : i32, n = 32 : i32} blgp =  none : vector<4xf16>, vector<4xf16>, vector<16xf32>
        %354 = vector.extract_strided_slice %265 {offsets = [4], sizes = [4], strides = [1]} : vector<8xf16> to vector<4xf16>
        %355 = amdgpu.mfma %289 * %354 + %353 {blocks = 1 : i32, k = 8 : i32, m = 32 : i32, n = 32 : i32} blgp =  none : vector<4xf16>, vector<4xf16>, vector<16xf32>
        %356 = vector.extract_strided_slice %273 {offsets = [0], sizes = [4], strides = [1]} : vector<8xf16> to vector<4xf16>
        %357 = amdgpu.mfma %356 * %287 + %196#17 {blocks = 1 : i32, k = 8 : i32, m = 32 : i32, n = 32 : i32} blgp =  none : vector<4xf16>, vector<4xf16>, vector<16xf32>
        %358 = vector.extract_strided_slice %273 {offsets = [4], sizes = [4], strides = [1]} : vector<8xf16> to vector<4xf16>
        %359 = amdgpu.mfma %358 * %290 + %357 {blocks = 1 : i32, k = 8 : i32, m = 32 : i32, n = 32 : i32} blgp =  none : vector<4xf16>, vector<4xf16>, vector<16xf32>
        %360 = amdgpu.mfma %356 * %292 + %196#18 {blocks = 1 : i32, k = 8 : i32, m = 32 : i32, n = 32 : i32} blgp =  none : vector<4xf16>, vector<4xf16>, vector<16xf32>
        %361 = amdgpu.mfma %358 * %294 + %360 {blocks = 1 : i32, k = 8 : i32, m = 32 : i32, n = 32 : i32} blgp =  none : vector<4xf16>, vector<4xf16>, vector<16xf32>
        %362 = amdgpu.mfma %356 * %296 + %196#19 {blocks = 1 : i32, k = 8 : i32, m = 32 : i32, n = 32 : i32} blgp =  none : vector<4xf16>, vector<4xf16>, vector<16xf32>
        %363 = amdgpu.mfma %358 * %298 + %362 {blocks = 1 : i32, k = 8 : i32, m = 32 : i32, n = 32 : i32} blgp =  none : vector<4xf16>, vector<4xf16>, vector<16xf32>
        %364 = amdgpu.mfma %356 * %300 + %196#20 {blocks = 1 : i32, k = 8 : i32, m = 32 : i32, n = 32 : i32} blgp =  none : vector<4xf16>, vector<4xf16>, vector<16xf32>
        %365 = amdgpu.mfma %358 * %302 + %364 {blocks = 1 : i32, k = 8 : i32, m = 32 : i32, n = 32 : i32} blgp =  none : vector<4xf16>, vector<4xf16>, vector<16xf32>
        %366 = amdgpu.mfma %356 * %304 + %196#21 {blocks = 1 : i32, k = 8 : i32, m = 32 : i32, n = 32 : i32} blgp =  none : vector<4xf16>, vector<4xf16>, vector<16xf32>
        %367 = amdgpu.mfma %358 * %306 + %366 {blocks = 1 : i32, k = 8 : i32, m = 32 : i32, n = 32 : i32} blgp =  none : vector<4xf16>, vector<4xf16>, vector<16xf32>
        %368 = amdgpu.mfma %356 * %308 + %196#22 {blocks = 1 : i32, k = 8 : i32, m = 32 : i32, n = 32 : i32} blgp =  none : vector<4xf16>, vector<4xf16>, vector<16xf32>
        %369 = amdgpu.mfma %358 * %310 + %368 {blocks = 1 : i32, k = 8 : i32, m = 32 : i32, n = 32 : i32} blgp =  none : vector<4xf16>, vector<4xf16>, vector<16xf32>
        %370 = amdgpu.mfma %356 * %312 + %196#23 {blocks = 1 : i32, k = 8 : i32, m = 32 : i32, n = 32 : i32} blgp =  none : vector<4xf16>, vector<4xf16>, vector<16xf32>
        %371 = amdgpu.mfma %358 * %314 + %370 {blocks = 1 : i32, k = 8 : i32, m = 32 : i32, n = 32 : i32} blgp =  none : vector<4xf16>, vector<4xf16>, vector<16xf32>
        %372 = amdgpu.mfma %356 * %316 + %196#24 {blocks = 1 : i32, k = 8 : i32, m = 32 : i32, n = 32 : i32} blgp =  none : vector<4xf16>, vector<4xf16>, vector<16xf32>
        %373 = amdgpu.mfma %358 * %318 + %372 {blocks = 1 : i32, k = 8 : i32, m = 32 : i32, n = 32 : i32} blgp =  none : vector<4xf16>, vector<4xf16>, vector<16xf32>
        %374 = amdgpu.mfma %356 * %320 + %196#25 {blocks = 1 : i32, k = 8 : i32, m = 32 : i32, n = 32 : i32} blgp =  none : vector<4xf16>, vector<4xf16>, vector<16xf32>
        %375 = amdgpu.mfma %358 * %322 + %374 {blocks = 1 : i32, k = 8 : i32, m = 32 : i32, n = 32 : i32} blgp =  none : vector<4xf16>, vector<4xf16>, vector<16xf32>
        %376 = amdgpu.mfma %356 * %324 + %196#26 {blocks = 1 : i32, k = 8 : i32, m = 32 : i32, n = 32 : i32} blgp =  none : vector<4xf16>, vector<4xf16>, vector<16xf32>
        %377 = amdgpu.mfma %358 * %326 + %376 {blocks = 1 : i32, k = 8 : i32, m = 32 : i32, n = 32 : i32} blgp =  none : vector<4xf16>, vector<4xf16>, vector<16xf32>
        %378 = amdgpu.mfma %356 * %328 + %196#27 {blocks = 1 : i32, k = 8 : i32, m = 32 : i32, n = 32 : i32} blgp =  none : vector<4xf16>, vector<4xf16>, vector<16xf32>
        %379 = amdgpu.mfma %358 * %330 + %378 {blocks = 1 : i32, k = 8 : i32, m = 32 : i32, n = 32 : i32} blgp =  none : vector<4xf16>, vector<4xf16>, vector<16xf32>
        %380 = amdgpu.mfma %356 * %332 + %196#28 {blocks = 1 : i32, k = 8 : i32, m = 32 : i32, n = 32 : i32} blgp =  none : vector<4xf16>, vector<4xf16>, vector<16xf32>
        %381 = amdgpu.mfma %358 * %334 + %380 {blocks = 1 : i32, k = 8 : i32, m = 32 : i32, n = 32 : i32} blgp =  none : vector<4xf16>, vector<4xf16>, vector<16xf32>
        %382 = amdgpu.mfma %356 * %336 + %196#29 {blocks = 1 : i32, k = 8 : i32, m = 32 : i32, n = 32 : i32} blgp =  none : vector<4xf16>, vector<4xf16>, vector<16xf32>
        %383 = amdgpu.mfma %358 * %338 + %382 {blocks = 1 : i32, k = 8 : i32, m = 32 : i32, n = 32 : i32} blgp =  none : vector<4xf16>, vector<4xf16>, vector<16xf32>
        %384 = amdgpu.mfma %356 * %340 + %196#30 {blocks = 1 : i32, k = 8 : i32, m = 32 : i32, n = 32 : i32} blgp =  none : vector<4xf16>, vector<4xf16>, vector<16xf32>
        %385 = amdgpu.mfma %358 * %342 + %384 {blocks = 1 : i32, k = 8 : i32, m = 32 : i32, n = 32 : i32} blgp =  none : vector<4xf16>, vector<4xf16>, vector<16xf32>
        %386 = amdgpu.mfma %356 * %344 + %196#31 {blocks = 1 : i32, k = 8 : i32, m = 32 : i32, n = 32 : i32} blgp =  none : vector<4xf16>, vector<4xf16>, vector<16xf32>
        %387 = amdgpu.mfma %358 * %346 + %386 {blocks = 1 : i32, k = 8 : i32, m = 32 : i32, n = 32 : i32} blgp =  none : vector<4xf16>, vector<4xf16>, vector<16xf32>
        %388 = amdgpu.mfma %356 * %348 + %196#32 {blocks = 1 : i32, k = 8 : i32, m = 32 : i32, n = 32 : i32} blgp =  none : vector<4xf16>, vector<4xf16>, vector<16xf32>
        %389 = amdgpu.mfma %358 * %350 + %388 {blocks = 1 : i32, k = 8 : i32, m = 32 : i32, n = 32 : i32} blgp =  none : vector<4xf16>, vector<4xf16>, vector<16xf32>
        %390 = amdgpu.mfma %356 * %352 + %196#33 {blocks = 1 : i32, k = 8 : i32, m = 32 : i32, n = 32 : i32} blgp =  none : vector<4xf16>, vector<4xf16>, vector<16xf32>
        %391 = amdgpu.mfma %358 * %354 + %390 {blocks = 1 : i32, k = 8 : i32, m = 32 : i32, n = 32 : i32} blgp =  none : vector<4xf16>, vector<4xf16>, vector<16xf32>
        %392 = vector.extract_strided_slice %277 {offsets = [0], sizes = [4], strides = [1]} : vector<8xf16> to vector<4xf16>
        %393 = amdgpu.mfma %392 * %287 + %196#34 {blocks = 1 : i32, k = 8 : i32, m = 32 : i32, n = 32 : i32} blgp =  none : vector<4xf16>, vector<4xf16>, vector<16xf32>
        %394 = vector.extract_strided_slice %277 {offsets = [4], sizes = [4], strides = [1]} : vector<8xf16> to vector<4xf16>
        %395 = amdgpu.mfma %394 * %290 + %393 {blocks = 1 : i32, k = 8 : i32, m = 32 : i32, n = 32 : i32} blgp =  none : vector<4xf16>, vector<4xf16>, vector<16xf32>
        %396 = amdgpu.mfma %392 * %292 + %196#35 {blocks = 1 : i32, k = 8 : i32, m = 32 : i32, n = 32 : i32} blgp =  none : vector<4xf16>, vector<4xf16>, vector<16xf32>
        %397 = amdgpu.mfma %394 * %294 + %396 {blocks = 1 : i32, k = 8 : i32, m = 32 : i32, n = 32 : i32} blgp =  none : vector<4xf16>, vector<4xf16>, vector<16xf32>
        %398 = amdgpu.mfma %392 * %296 + %196#36 {blocks = 1 : i32, k = 8 : i32, m = 32 : i32, n = 32 : i32} blgp =  none : vector<4xf16>, vector<4xf16>, vector<16xf32>
        %399 = amdgpu.mfma %394 * %298 + %398 {blocks = 1 : i32, k = 8 : i32, m = 32 : i32, n = 32 : i32} blgp =  none : vector<4xf16>, vector<4xf16>, vector<16xf32>
        %400 = amdgpu.mfma %392 * %300 + %196#37 {blocks = 1 : i32, k = 8 : i32, m = 32 : i32, n = 32 : i32} blgp =  none : vector<4xf16>, vector<4xf16>, vector<16xf32>
        %401 = amdgpu.mfma %394 * %302 + %400 {blocks = 1 : i32, k = 8 : i32, m = 32 : i32, n = 32 : i32} blgp =  none : vector<4xf16>, vector<4xf16>, vector<16xf32>
        %402 = amdgpu.mfma %392 * %304 + %196#38 {blocks = 1 : i32, k = 8 : i32, m = 32 : i32, n = 32 : i32} blgp =  none : vector<4xf16>, vector<4xf16>, vector<16xf32>
        %403 = amdgpu.mfma %394 * %306 + %402 {blocks = 1 : i32, k = 8 : i32, m = 32 : i32, n = 32 : i32} blgp =  none : vector<4xf16>, vector<4xf16>, vector<16xf32>
        %404 = amdgpu.mfma %392 * %308 + %196#39 {blocks = 1 : i32, k = 8 : i32, m = 32 : i32, n = 32 : i32} blgp =  none : vector<4xf16>, vector<4xf16>, vector<16xf32>
        %405 = amdgpu.mfma %394 * %310 + %404 {blocks = 1 : i32, k = 8 : i32, m = 32 : i32, n = 32 : i32} blgp =  none : vector<4xf16>, vector<4xf16>, vector<16xf32>
        %406 = amdgpu.mfma %392 * %312 + %196#40 {blocks = 1 : i32, k = 8 : i32, m = 32 : i32, n = 32 : i32} blgp =  none : vector<4xf16>, vector<4xf16>, vector<16xf32>
        %407 = amdgpu.mfma %394 * %314 + %406 {blocks = 1 : i32, k = 8 : i32, m = 32 : i32, n = 32 : i32} blgp =  none : vector<4xf16>, vector<4xf16>, vector<16xf32>
        %408 = amdgpu.mfma %392 * %316 + %196#41 {blocks = 1 : i32, k = 8 : i32, m = 32 : i32, n = 32 : i32} blgp =  none : vector<4xf16>, vector<4xf16>, vector<16xf32>
        %409 = amdgpu.mfma %394 * %318 + %408 {blocks = 1 : i32, k = 8 : i32, m = 32 : i32, n = 32 : i32} blgp =  none : vector<4xf16>, vector<4xf16>, vector<16xf32>
        %410 = amdgpu.mfma %392 * %320 + %196#42 {blocks = 1 : i32, k = 8 : i32, m = 32 : i32, n = 32 : i32} blgp =  none : vector<4xf16>, vector<4xf16>, vector<16xf32>
        %411 = amdgpu.mfma %394 * %322 + %410 {blocks = 1 : i32, k = 8 : i32, m = 32 : i32, n = 32 : i32} blgp =  none : vector<4xf16>, vector<4xf16>, vector<16xf32>
        %412 = amdgpu.mfma %392 * %324 + %196#43 {blocks = 1 : i32, k = 8 : i32, m = 32 : i32, n = 32 : i32} blgp =  none : vector<4xf16>, vector<4xf16>, vector<16xf32>
        %413 = amdgpu.mfma %394 * %326 + %412 {blocks = 1 : i32, k = 8 : i32, m = 32 : i32, n = 32 : i32} blgp =  none : vector<4xf16>, vector<4xf16>, vector<16xf32>
        %414 = amdgpu.mfma %392 * %328 + %196#44 {blocks = 1 : i32, k = 8 : i32, m = 32 : i32, n = 32 : i32} blgp =  none : vector<4xf16>, vector<4xf16>, vector<16xf32>
        %415 = amdgpu.mfma %394 * %330 + %414 {blocks = 1 : i32, k = 8 : i32, m = 32 : i32, n = 32 : i32} blgp =  none : vector<4xf16>, vector<4xf16>, vector<16xf32>
        %416 = amdgpu.mfma %392 * %332 + %196#45 {blocks = 1 : i32, k = 8 : i32, m = 32 : i32, n = 32 : i32} blgp =  none : vector<4xf16>, vector<4xf16>, vector<16xf32>
        %417 = amdgpu.mfma %394 * %334 + %416 {blocks = 1 : i32, k = 8 : i32, m = 32 : i32, n = 32 : i32} blgp =  none : vector<4xf16>, vector<4xf16>, vector<16xf32>
        %418 = amdgpu.mfma %392 * %336 + %196#46 {blocks = 1 : i32, k = 8 : i32, m = 32 : i32, n = 32 : i32} blgp =  none : vector<4xf16>, vector<4xf16>, vector<16xf32>
        %419 = amdgpu.mfma %394 * %338 + %418 {blocks = 1 : i32, k = 8 : i32, m = 32 : i32, n = 32 : i32} blgp =  none : vector<4xf16>, vector<4xf16>, vector<16xf32>
        %420 = amdgpu.mfma %392 * %340 + %196#47 {blocks = 1 : i32, k = 8 : i32, m = 32 : i32, n = 32 : i32} blgp =  none : vector<4xf16>, vector<4xf16>, vector<16xf32>
        %421 = amdgpu.mfma %394 * %342 + %420 {blocks = 1 : i32, k = 8 : i32, m = 32 : i32, n = 32 : i32} blgp =  none : vector<4xf16>, vector<4xf16>, vector<16xf32>
        %422 = amdgpu.mfma %392 * %344 + %196#48 {blocks = 1 : i32, k = 8 : i32, m = 32 : i32, n = 32 : i32} blgp =  none : vector<4xf16>, vector<4xf16>, vector<16xf32>
        %423 = amdgpu.mfma %394 * %346 + %422 {blocks = 1 : i32, k = 8 : i32, m = 32 : i32, n = 32 : i32} blgp =  none : vector<4xf16>, vector<4xf16>, vector<16xf32>
        %424 = amdgpu.mfma %392 * %348 + %196#49 {blocks = 1 : i32, k = 8 : i32, m = 32 : i32, n = 32 : i32} blgp =  none : vector<4xf16>, vector<4xf16>, vector<16xf32>
        %425 = amdgpu.mfma %394 * %350 + %424 {blocks = 1 : i32, k = 8 : i32, m = 32 : i32, n = 32 : i32} blgp =  none : vector<4xf16>, vector<4xf16>, vector<16xf32>
        %426 = amdgpu.mfma %392 * %352 + %196#50 {blocks = 1 : i32, k = 8 : i32, m = 32 : i32, n = 32 : i32} blgp =  none : vector<4xf16>, vector<4xf16>, vector<16xf32>
        %427 = amdgpu.mfma %394 * %354 + %426 {blocks = 1 : i32, k = 8 : i32, m = 32 : i32, n = 32 : i32} blgp =  none : vector<4xf16>, vector<4xf16>, vector<16xf32>
        %428 = vector.extract_strided_slice %281 {offsets = [0], sizes = [4], strides = [1]} : vector<8xf16> to vector<4xf16>
        %429 = amdgpu.mfma %428 * %287 + %196#51 {blocks = 1 : i32, k = 8 : i32, m = 32 : i32, n = 32 : i32} blgp =  none : vector<4xf16>, vector<4xf16>, vector<16xf32>
        %430 = vector.extract_strided_slice %281 {offsets = [4], sizes = [4], strides = [1]} : vector<8xf16> to vector<4xf16>
        %431 = amdgpu.mfma %430 * %290 + %429 {blocks = 1 : i32, k = 8 : i32, m = 32 : i32, n = 32 : i32} blgp =  none : vector<4xf16>, vector<4xf16>, vector<16xf32>
        %432 = amdgpu.mfma %428 * %292 + %196#52 {blocks = 1 : i32, k = 8 : i32, m = 32 : i32, n = 32 : i32} blgp =  none : vector<4xf16>, vector<4xf16>, vector<16xf32>
        %433 = amdgpu.mfma %430 * %294 + %432 {blocks = 1 : i32, k = 8 : i32, m = 32 : i32, n = 32 : i32} blgp =  none : vector<4xf16>, vector<4xf16>, vector<16xf32>
        %434 = amdgpu.mfma %428 * %296 + %196#53 {blocks = 1 : i32, k = 8 : i32, m = 32 : i32, n = 32 : i32} blgp =  none : vector<4xf16>, vector<4xf16>, vector<16xf32>
        %435 = amdgpu.mfma %430 * %298 + %434 {blocks = 1 : i32, k = 8 : i32, m = 32 : i32, n = 32 : i32} blgp =  none : vector<4xf16>, vector<4xf16>, vector<16xf32>
        %436 = amdgpu.mfma %428 * %300 + %196#54 {blocks = 1 : i32, k = 8 : i32, m = 32 : i32, n = 32 : i32} blgp =  none : vector<4xf16>, vector<4xf16>, vector<16xf32>
        %437 = amdgpu.mfma %430 * %302 + %436 {blocks = 1 : i32, k = 8 : i32, m = 32 : i32, n = 32 : i32} blgp =  none : vector<4xf16>, vector<4xf16>, vector<16xf32>
        %438 = amdgpu.mfma %428 * %304 + %196#55 {blocks = 1 : i32, k = 8 : i32, m = 32 : i32, n = 32 : i32} blgp =  none : vector<4xf16>, vector<4xf16>, vector<16xf32>
        %439 = amdgpu.mfma %430 * %306 + %438 {blocks = 1 : i32, k = 8 : i32, m = 32 : i32, n = 32 : i32} blgp =  none : vector<4xf16>, vector<4xf16>, vector<16xf32>
        %440 = amdgpu.mfma %428 * %308 + %196#56 {blocks = 1 : i32, k = 8 : i32, m = 32 : i32, n = 32 : i32} blgp =  none : vector<4xf16>, vector<4xf16>, vector<16xf32>
        %441 = amdgpu.mfma %430 * %310 + %440 {blocks = 1 : i32, k = 8 : i32, m = 32 : i32, n = 32 : i32} blgp =  none : vector<4xf16>, vector<4xf16>, vector<16xf32>
        %442 = amdgpu.mfma %428 * %312 + %196#57 {blocks = 1 : i32, k = 8 : i32, m = 32 : i32, n = 32 : i32} blgp =  none : vector<4xf16>, vector<4xf16>, vector<16xf32>
        %443 = amdgpu.mfma %430 * %314 + %442 {blocks = 1 : i32, k = 8 : i32, m = 32 : i32, n = 32 : i32} blgp =  none : vector<4xf16>, vector<4xf16>, vector<16xf32>
        %444 = amdgpu.mfma %428 * %316 + %196#58 {blocks = 1 : i32, k = 8 : i32, m = 32 : i32, n = 32 : i32} blgp =  none : vector<4xf16>, vector<4xf16>, vector<16xf32>
        %445 = amdgpu.mfma %430 * %318 + %444 {blocks = 1 : i32, k = 8 : i32, m = 32 : i32, n = 32 : i32} blgp =  none : vector<4xf16>, vector<4xf16>, vector<16xf32>
        %446 = amdgpu.mfma %428 * %320 + %196#59 {blocks = 1 : i32, k = 8 : i32, m = 32 : i32, n = 32 : i32} blgp =  none : vector<4xf16>, vector<4xf16>, vector<16xf32>
        %447 = amdgpu.mfma %430 * %322 + %446 {blocks = 1 : i32, k = 8 : i32, m = 32 : i32, n = 32 : i32} blgp =  none : vector<4xf16>, vector<4xf16>, vector<16xf32>
        %448 = amdgpu.mfma %428 * %324 + %196#60 {blocks = 1 : i32, k = 8 : i32, m = 32 : i32, n = 32 : i32} blgp =  none : vector<4xf16>, vector<4xf16>, vector<16xf32>
        %449 = amdgpu.mfma %430 * %326 + %448 {blocks = 1 : i32, k = 8 : i32, m = 32 : i32, n = 32 : i32} blgp =  none : vector<4xf16>, vector<4xf16>, vector<16xf32>
        %450 = amdgpu.mfma %428 * %328 + %196#61 {blocks = 1 : i32, k = 8 : i32, m = 32 : i32, n = 32 : i32} blgp =  none : vector<4xf16>, vector<4xf16>, vector<16xf32>
        %451 = amdgpu.mfma %430 * %330 + %450 {blocks = 1 : i32, k = 8 : i32, m = 32 : i32, n = 32 : i32} blgp =  none : vector<4xf16>, vector<4xf16>, vector<16xf32>
        %452 = amdgpu.mfma %428 * %332 + %196#62 {blocks = 1 : i32, k = 8 : i32, m = 32 : i32, n = 32 : i32} blgp =  none : vector<4xf16>, vector<4xf16>, vector<16xf32>
        %453 = amdgpu.mfma %430 * %334 + %452 {blocks = 1 : i32, k = 8 : i32, m = 32 : i32, n = 32 : i32} blgp =  none : vector<4xf16>, vector<4xf16>, vector<16xf32>
        %454 = amdgpu.mfma %428 * %336 + %196#63 {blocks = 1 : i32, k = 8 : i32, m = 32 : i32, n = 32 : i32} blgp =  none : vector<4xf16>, vector<4xf16>, vector<16xf32>
        %455 = amdgpu.mfma %430 * %338 + %454 {blocks = 1 : i32, k = 8 : i32, m = 32 : i32, n = 32 : i32} blgp =  none : vector<4xf16>, vector<4xf16>, vector<16xf32>
        %456 = amdgpu.mfma %428 * %340 + %196#64 {blocks = 1 : i32, k = 8 : i32, m = 32 : i32, n = 32 : i32} blgp =  none : vector<4xf16>, vector<4xf16>, vector<16xf32>
        %457 = amdgpu.mfma %430 * %342 + %456 {blocks = 1 : i32, k = 8 : i32, m = 32 : i32, n = 32 : i32} blgp =  none : vector<4xf16>, vector<4xf16>, vector<16xf32>
        %458 = amdgpu.mfma %428 * %344 + %196#65 {blocks = 1 : i32, k = 8 : i32, m = 32 : i32, n = 32 : i32} blgp =  none : vector<4xf16>, vector<4xf16>, vector<16xf32>
        %459 = amdgpu.mfma %430 * %346 + %458 {blocks = 1 : i32, k = 8 : i32, m = 32 : i32, n = 32 : i32} blgp =  none : vector<4xf16>, vector<4xf16>, vector<16xf32>
        %460 = amdgpu.mfma %428 * %348 + %196#66 {blocks = 1 : i32, k = 8 : i32, m = 32 : i32, n = 32 : i32} blgp =  none : vector<4xf16>, vector<4xf16>, vector<16xf32>
        %461 = amdgpu.mfma %430 * %350 + %460 {blocks = 1 : i32, k = 8 : i32, m = 32 : i32, n = 32 : i32} blgp =  none : vector<4xf16>, vector<4xf16>, vector<16xf32>
        %462 = amdgpu.mfma %428 * %352 + %196#67 {blocks = 1 : i32, k = 8 : i32, m = 32 : i32, n = 32 : i32} blgp =  none : vector<4xf16>, vector<4xf16>, vector<16xf32>
        %463 = amdgpu.mfma %430 * %354 + %462 {blocks = 1 : i32, k = 8 : i32, m = 32 : i32, n = 32 : i32} blgp =  none : vector<4xf16>, vector<4xf16>, vector<16xf32>
        %464 = vector.extract_strided_slice %285 {offsets = [0], sizes = [4], strides = [1]} : vector<8xf16> to vector<4xf16>
        %465 = amdgpu.mfma %464 * %287 + %196#68 {blocks = 1 : i32, k = 8 : i32, m = 32 : i32, n = 32 : i32} blgp =  none : vector<4xf16>, vector<4xf16>, vector<16xf32>
        %466 = vector.extract_strided_slice %285 {offsets = [4], sizes = [4], strides = [1]} : vector<8xf16> to vector<4xf16>
        %467 = amdgpu.mfma %466 * %290 + %465 {blocks = 1 : i32, k = 8 : i32, m = 32 : i32, n = 32 : i32} blgp =  none : vector<4xf16>, vector<4xf16>, vector<16xf32>
        %468 = amdgpu.mfma %464 * %292 + %196#69 {blocks = 1 : i32, k = 8 : i32, m = 32 : i32, n = 32 : i32} blgp =  none : vector<4xf16>, vector<4xf16>, vector<16xf32>
        %469 = amdgpu.mfma %466 * %294 + %468 {blocks = 1 : i32, k = 8 : i32, m = 32 : i32, n = 32 : i32} blgp =  none : vector<4xf16>, vector<4xf16>, vector<16xf32>
        %470 = amdgpu.mfma %464 * %296 + %196#70 {blocks = 1 : i32, k = 8 : i32, m = 32 : i32, n = 32 : i32} blgp =  none : vector<4xf16>, vector<4xf16>, vector<16xf32>
        %471 = amdgpu.mfma %466 * %298 + %470 {blocks = 1 : i32, k = 8 : i32, m = 32 : i32, n = 32 : i32} blgp =  none : vector<4xf16>, vector<4xf16>, vector<16xf32>
        %472 = amdgpu.mfma %464 * %300 + %196#71 {blocks = 1 : i32, k = 8 : i32, m = 32 : i32, n = 32 : i32} blgp =  none : vector<4xf16>, vector<4xf16>, vector<16xf32>
        %473 = amdgpu.mfma %466 * %302 + %472 {blocks = 1 : i32, k = 8 : i32, m = 32 : i32, n = 32 : i32} blgp =  none : vector<4xf16>, vector<4xf16>, vector<16xf32>
        %474 = amdgpu.mfma %464 * %304 + %196#72 {blocks = 1 : i32, k = 8 : i32, m = 32 : i32, n = 32 : i32} blgp =  none : vector<4xf16>, vector<4xf16>, vector<16xf32>
        %475 = amdgpu.mfma %466 * %306 + %474 {blocks = 1 : i32, k = 8 : i32, m = 32 : i32, n = 32 : i32} blgp =  none : vector<4xf16>, vector<4xf16>, vector<16xf32>
        %476 = amdgpu.mfma %464 * %308 + %196#73 {blocks = 1 : i32, k = 8 : i32, m = 32 : i32, n = 32 : i32} blgp =  none : vector<4xf16>, vector<4xf16>, vector<16xf32>
        %477 = amdgpu.mfma %466 * %310 + %476 {blocks = 1 : i32, k = 8 : i32, m = 32 : i32, n = 32 : i32} blgp =  none : vector<4xf16>, vector<4xf16>, vector<16xf32>
        %478 = amdgpu.mfma %464 * %312 + %196#74 {blocks = 1 : i32, k = 8 : i32, m = 32 : i32, n = 32 : i32} blgp =  none : vector<4xf16>, vector<4xf16>, vector<16xf32>
        %479 = amdgpu.mfma %466 * %314 + %478 {blocks = 1 : i32, k = 8 : i32, m = 32 : i32, n = 32 : i32} blgp =  none : vector<4xf16>, vector<4xf16>, vector<16xf32>
        %480 = amdgpu.mfma %464 * %316 + %196#75 {blocks = 1 : i32, k = 8 : i32, m = 32 : i32, n = 32 : i32} blgp =  none : vector<4xf16>, vector<4xf16>, vector<16xf32>
        %481 = amdgpu.mfma %466 * %318 + %480 {blocks = 1 : i32, k = 8 : i32, m = 32 : i32, n = 32 : i32} blgp =  none : vector<4xf16>, vector<4xf16>, vector<16xf32>
        %482 = amdgpu.mfma %464 * %320 + %196#76 {blocks = 1 : i32, k = 8 : i32, m = 32 : i32, n = 32 : i32} blgp =  none : vector<4xf16>, vector<4xf16>, vector<16xf32>
        %483 = amdgpu.mfma %466 * %322 + %482 {blocks = 1 : i32, k = 8 : i32, m = 32 : i32, n = 32 : i32} blgp =  none : vector<4xf16>, vector<4xf16>, vector<16xf32>
        %484 = amdgpu.mfma %464 * %324 + %196#77 {blocks = 1 : i32, k = 8 : i32, m = 32 : i32, n = 32 : i32} blgp =  none : vector<4xf16>, vector<4xf16>, vector<16xf32>
        %485 = amdgpu.mfma %466 * %326 + %484 {blocks = 1 : i32, k = 8 : i32, m = 32 : i32, n = 32 : i32} blgp =  none : vector<4xf16>, vector<4xf16>, vector<16xf32>
        %486 = amdgpu.mfma %464 * %328 + %196#78 {blocks = 1 : i32, k = 8 : i32, m = 32 : i32, n = 32 : i32} blgp =  none : vector<4xf16>, vector<4xf16>, vector<16xf32>
        %487 = amdgpu.mfma %466 * %330 + %486 {blocks = 1 : i32, k = 8 : i32, m = 32 : i32, n = 32 : i32} blgp =  none : vector<4xf16>, vector<4xf16>, vector<16xf32>
        %488 = amdgpu.mfma %464 * %332 + %196#79 {blocks = 1 : i32, k = 8 : i32, m = 32 : i32, n = 32 : i32} blgp =  none : vector<4xf16>, vector<4xf16>, vector<16xf32>
        %489 = amdgpu.mfma %466 * %334 + %488 {blocks = 1 : i32, k = 8 : i32, m = 32 : i32, n = 32 : i32} blgp =  none : vector<4xf16>, vector<4xf16>, vector<16xf32>
        %490 = amdgpu.mfma %464 * %336 + %196#80 {blocks = 1 : i32, k = 8 : i32, m = 32 : i32, n = 32 : i32} blgp =  none : vector<4xf16>, vector<4xf16>, vector<16xf32>
        %491 = amdgpu.mfma %466 * %338 + %490 {blocks = 1 : i32, k = 8 : i32, m = 32 : i32, n = 32 : i32} blgp =  none : vector<4xf16>, vector<4xf16>, vector<16xf32>
        %492 = amdgpu.mfma %464 * %340 + %196#81 {blocks = 1 : i32, k = 8 : i32, m = 32 : i32, n = 32 : i32} blgp =  none : vector<4xf16>, vector<4xf16>, vector<16xf32>
        %493 = amdgpu.mfma %466 * %342 + %492 {blocks = 1 : i32, k = 8 : i32, m = 32 : i32, n = 32 : i32} blgp =  none : vector<4xf16>, vector<4xf16>, vector<16xf32>
        %494 = amdgpu.mfma %464 * %344 + %196#82 {blocks = 1 : i32, k = 8 : i32, m = 32 : i32, n = 32 : i32} blgp =  none : vector<4xf16>, vector<4xf16>, vector<16xf32>
        %495 = amdgpu.mfma %466 * %346 + %494 {blocks = 1 : i32, k = 8 : i32, m = 32 : i32, n = 32 : i32} blgp =  none : vector<4xf16>, vector<4xf16>, vector<16xf32>
        %496 = amdgpu.mfma %464 * %348 + %196#83 {blocks = 1 : i32, k = 8 : i32, m = 32 : i32, n = 32 : i32} blgp =  none : vector<4xf16>, vector<4xf16>, vector<16xf32>
        %497 = amdgpu.mfma %466 * %350 + %496 {blocks = 1 : i32, k = 8 : i32, m = 32 : i32, n = 32 : i32} blgp =  none : vector<4xf16>, vector<4xf16>, vector<16xf32>
        %498 = amdgpu.mfma %464 * %352 + %196#84 {blocks = 1 : i32, k = 8 : i32, m = 32 : i32, n = 32 : i32} blgp =  none : vector<4xf16>, vector<4xf16>, vector<16xf32>
        %499 = amdgpu.mfma %466 * %354 + %498 {blocks = 1 : i32, k = 8 : i32, m = 32 : i32, n = 32 : i32} blgp =  none : vector<4xf16>, vector<4xf16>, vector<16xf32>
        %500 = vector.extract_strided_slice %291 {offsets = [0], sizes = [1], strides = [1]} : vector<16xf32> to vector<1xf32>
        %501 = stream.binding.subspan %arg2[%c0] : !stream.binding -> memref<706x4096xf32, strided<[4096, 1], offset: ?>>
        %502 = affine.apply #map43()[%block_id_y, %thread_id_y]
        %503 = affine.apply #map44()[%block_id_y]
        %504 = arith.minsi %502, %503 : index
        %505 = arith.minsi %504, %c4096 : index
        %506 = affine.apply #map45()[%thread_id_x, %block_id_x, %block_id_y, %thread_id_y]
        %507 = arith.cmpi slt, %506, %505 : index
        %508 = affine.apply #map46()[%block_id_x, %thread_id_x]
        %509 = affine.apply #map47()[%block_id_x]
        %510 = arith.minsi %508, %509 : index
        %511 = arith.minsi %510, %c706 : index
        %512 = affine.apply #map48()[%block_id_x, %block_id_y, %thread_id_x]
        %513 = arith.cmpi slt, %512, %511 : index
        %514 = arith.andi %507, %513 : i1
        %515 = affine.apply #map49()[%block_id_x, %block_id_y]
        %516 = affine.apply #map50()[%block_id_x, %block_id_y]
        %517 = affine.apply #map51()[%thread_id_x]
        %518 = arith.muli %515, %c4096 overflow<nsw> : index
        %519 = arith.muli %517, %c4096 overflow<nsw> : index
        %520 = arith.addi %518, %516 overflow<nsw> : index
        %521 = arith.addi %519, %197 overflow<nsw> : index
        %base_buffer_9, %offset_10, %sizes_11:2, %strides_12:2 = memref.extract_strided_metadata %501 : memref<706x4096xf32, strided<[4096, 1], offset: ?>> -> memref<f32>, index, index, index, index, index
        %522 = arith.addi %520, %offset_10 overflow<nsw> : index
        %reinterpret_cast_13 = memref.reinterpret_cast %501 to offset: [%522], sizes: [%c536870910], strides: [1] : memref<706x4096xf32, strided<[4096, 1], offset: ?>> to memref<?xf32, strided<[1], offset: ?>>
        %523 = amdgpu.fat_raw_buffer_cast %reinterpret_cast_13 validBytes(%c2147483643_i32) cacheSwizzleStride(%c4096_i14) resetOffset : memref<?xf32, strided<[1], offset: ?>> to memref<?xf32, #amdgpu.address_space<fat_raw_buffer>>
        %524 = arith.select %514, %521, %c536870911 : index
        vector.store %500, %523[%524] : memref<?xf32, #amdgpu.address_space<fat_raw_buffer>>, vector<1xf32>
        %525 = vector.extract_strided_slice %291 {offsets = [1], sizes = [1], strides = [1]} : vector<16xf32> to vector<1xf32>
        %526 = affine.apply #map52()[%block_id_x, %block_id_y, %thread_id_x]
        %527 = arith.cmpi slt, %526, %511 : index
        %528 = arith.andi %507, %527 : i1
        %529 = affine.apply #map53()[%thread_id_x]
        %530 = arith.muli %529, %c4096 overflow<nsw> : index
        %531 = arith.addi %530, %197 overflow<nsw> : index
        %532 = arith.select %528, %531, %c536870911 : index
        vector.store %525, %523[%532] : memref<?xf32, #amdgpu.address_space<fat_raw_buffer>>, vector<1xf32>
        %533 = vector.extract_strided_slice %291 {offsets = [2], sizes = [1], strides = [1]} : vector<16xf32> to vector<1xf32>
        %534 = affine.apply #map54()[%block_id_x, %block_id_y, %thread_id_x]
        %535 = arith.cmpi slt, %534, %511 : index
        %536 = arith.andi %507, %535 : i1
        %537 = affine.apply #map55()[%thread_id_x]
        %538 = arith.muli %537, %c4096 overflow<nsw> : index
        %539 = arith.addi %538, %197 overflow<nsw> : index
        %540 = arith.select %536, %539, %c536870911 : index
        vector.store %533, %523[%540] : memref<?xf32, #amdgpu.address_space<fat_raw_buffer>>, vector<1xf32>
        %541 = vector.extract_strided_slice %291 {offsets = [3], sizes = [1], strides = [1]} : vector<16xf32> to vector<1xf32>
        %542 = affine.apply #map56()[%block_id_x, %block_id_y, %thread_id_x]
        %543 = arith.cmpi slt, %542, %511 : index
        %544 = arith.andi %507, %543 : i1
        %545 = affine.apply #map57()[%thread_id_x]
        %546 = arith.muli %545, %c4096 overflow<nsw> : index
        %547 = arith.addi %546, %197 overflow<nsw> : index
        %548 = arith.select %544, %547, %c536870911 : index
        vector.store %541, %523[%548] : memref<?xf32, #amdgpu.address_space<fat_raw_buffer>>, vector<1xf32>
        %549 = vector.extract_strided_slice %291 {offsets = [4], sizes = [1], strides = [1]} : vector<16xf32> to vector<1xf32>
        %550 = affine.apply #map58()[%block_id_x, %block_id_y, %thread_id_x]
        %551 = arith.cmpi slt, %550, %511 : index
        %552 = arith.andi %507, %551 : i1
        %553 = affine.apply #map59()[%thread_id_x]
        %554 = arith.muli %553, %c4096 overflow<nsw> : index
        %555 = arith.addi %554, %197 overflow<nsw> : index
        %556 = arith.select %552, %555, %c536870911 : index
        vector.store %549, %523[%556] : memref<?xf32, #amdgpu.address_space<fat_raw_buffer>>, vector<1xf32>
        %557 = vector.extract_strided_slice %291 {offsets = [5], sizes = [1], strides = [1]} : vector<16xf32> to vector<1xf32>
        %558 = affine.apply #map60()[%block_id_x, %block_id_y, %thread_id_x]
        %559 = arith.cmpi slt, %558, %511 : index
        %560 = arith.andi %507, %559 : i1
        %561 = affine.apply #map61()[%thread_id_x]
        %562 = arith.muli %561, %c4096 overflow<nsw> : index
        %563 = arith.addi %562, %197 overflow<nsw> : index
        %564 = arith.select %560, %563, %c536870911 : index
        vector.store %557, %523[%564] : memref<?xf32, #amdgpu.address_space<fat_raw_buffer>>, vector<1xf32>
        %565 = vector.extract_strided_slice %291 {offsets = [6], sizes = [1], strides = [1]} : vector<16xf32> to vector<1xf32>
        %566 = affine.apply #map62()[%block_id_x, %block_id_y, %thread_id_x]
        %567 = arith.cmpi slt, %566, %511 : index
        %568 = arith.andi %507, %567 : i1
        %569 = affine.apply #map63()[%thread_id_x]
        %570 = arith.muli %569, %c4096 overflow<nsw> : index
        %571 = arith.addi %570, %197 overflow<nsw> : index
        %572 = arith.select %568, %571, %c536870911 : index
        vector.store %565, %523[%572] : memref<?xf32, #amdgpu.address_space<fat_raw_buffer>>, vector<1xf32>
        %573 = vector.extract_strided_slice %291 {offsets = [7], sizes = [1], strides = [1]} : vector<16xf32> to vector<1xf32>
        %574 = affine.apply #map64()[%block_id_x, %block_id_y, %thread_id_x]
        %575 = arith.cmpi slt, %574, %511 : index
        %576 = arith.andi %507, %575 : i1
        %577 = affine.apply #map65()[%thread_id_x]
        %578 = arith.muli %577, %c4096 overflow<nsw> : index
        %579 = arith.addi %578, %197 overflow<nsw> : index
        %580 = arith.select %576, %579, %c536870911 : index
        vector.store %573, %523[%580] : memref<?xf32, #amdgpu.address_space<fat_raw_buffer>>, vector<1xf32>
        %581 = vector.extract_strided_slice %291 {offsets = [8], sizes = [1], strides = [1]} : vector<16xf32> to vector<1xf32>
        %582 = affine.apply #map66()[%block_id_x, %block_id_y, %thread_id_x]
        %583 = arith.cmpi slt, %582, %511 : index
        %584 = arith.andi %507, %583 : i1
        %585 = affine.apply #map67()[%thread_id_x]
        %586 = arith.muli %585, %c4096 overflow<nsw> : index
        %587 = arith.addi %586, %197 overflow<nsw> : index
        %588 = arith.select %584, %587, %c536870911 : index
        vector.store %581, %523[%588] : memref<?xf32, #amdgpu.address_space<fat_raw_buffer>>, vector<1xf32>
        %589 = vector.extract_strided_slice %291 {offsets = [9], sizes = [1], strides = [1]} : vector<16xf32> to vector<1xf32>
        %590 = affine.apply #map68()[%block_id_x, %block_id_y, %thread_id_x]
        %591 = arith.cmpi slt, %590, %511 : index
        %592 = arith.andi %507, %591 : i1
        %593 = affine.apply #map69()[%thread_id_x]
        %594 = arith.muli %593, %c4096 overflow<nsw> : index
        %595 = arith.addi %594, %197 overflow<nsw> : index
        %596 = arith.select %592, %595, %c536870911 : index
        vector.store %589, %523[%596] : memref<?xf32, #amdgpu.address_space<fat_raw_buffer>>, vector<1xf32>
        %597 = vector.extract_strided_slice %291 {offsets = [10], sizes = [1], strides = [1]} : vector<16xf32> to vector<1xf32>
        %598 = affine.apply #map70()[%block_id_x, %block_id_y, %thread_id_x]
        %599 = arith.cmpi slt, %598, %511 : index
        %600 = arith.andi %507, %599 : i1
        %601 = affine.apply #map71()[%thread_id_x]
        %602 = arith.muli %601, %c4096 overflow<nsw> : index
        %603 = arith.addi %602, %197 overflow<nsw> : index
        %604 = arith.select %600, %603, %c536870911 : index
        vector.store %597, %523[%604] : memref<?xf32, #amdgpu.address_space<fat_raw_buffer>>, vector<1xf32>
        %605 = vector.extract_strided_slice %291 {offsets = [11], sizes = [1], strides = [1]} : vector<16xf32> to vector<1xf32>
        %606 = affine.apply #map72()[%block_id_x, %block_id_y, %thread_id_x]
        %607 = arith.cmpi slt, %606, %511 : index
        %608 = arith.andi %507, %607 : i1
        %609 = affine.apply #map73()[%thread_id_x]
        %610 = arith.muli %609, %c4096 overflow<nsw> : index
        %611 = arith.addi %610, %197 overflow<nsw> : index
        %612 = arith.select %608, %611, %c536870911 : index
        vector.store %605, %523[%612] : memref<?xf32, #amdgpu.address_space<fat_raw_buffer>>, vector<1xf32>
        %613 = vector.extract_strided_slice %291 {offsets = [12], sizes = [1], strides = [1]} : vector<16xf32> to vector<1xf32>
        %614 = affine.apply #map74()[%block_id_x, %block_id_y, %thread_id_x]
        %615 = arith.cmpi slt, %614, %511 : index
        %616 = arith.andi %507, %615 : i1
        %617 = affine.apply #map75()[%thread_id_x]
        %618 = arith.muli %617, %c4096 overflow<nsw> : index
        %619 = arith.addi %618, %197 overflow<nsw> : index
        %620 = arith.select %616, %619, %c536870911 : index
        vector.store %613, %523[%620] : memref<?xf32, #amdgpu.address_space<fat_raw_buffer>>, vector<1xf32>
        %621 = vector.extract_strided_slice %291 {offsets = [13], sizes = [1], strides = [1]} : vector<16xf32> to vector<1xf32>
        %622 = affine.apply #map76()[%block_id_x, %block_id_y, %thread_id_x]
        %623 = arith.cmpi slt, %622, %511 : index
        %624 = arith.andi %507, %623 : i1
        %625 = affine.apply #map77()[%thread_id_x]
        %626 = arith.muli %625, %c4096 overflow<nsw> : index
        %627 = arith.addi %626, %197 overflow<nsw> : index
        %628 = arith.select %624, %627, %c536870911 : index
        vector.store %621, %523[%628] : memref<?xf32, #amdgpu.address_space<fat_raw_buffer>>, vector<1xf32>
        %629 = vector.extract_strided_slice %291 {offsets = [14], sizes = [1], strides = [1]} : vector<16xf32> to vector<1xf32>
        %630 = affine.apply #map78()[%block_id_x, %block_id_y, %thread_id_x]
        %631 = arith.cmpi slt, %630, %511 : index
        %632 = arith.andi %507, %631 : i1
        %633 = affine.apply #map79()[%thread_id_x]
        %634 = arith.muli %633, %c4096 overflow<nsw> : index
        %635 = arith.addi %634, %197 overflow<nsw> : index
        %636 = arith.select %632, %635, %c536870911 : index
        vector.store %629, %523[%636] : memref<?xf32, #amdgpu.address_space<fat_raw_buffer>>, vector<1xf32>
        %637 = vector.extract_strided_slice %291 {offsets = [15], sizes = [1], strides = [1]} : vector<16xf32> to vector<1xf32>
        %638 = affine.apply #map80()[%block_id_x, %block_id_y, %thread_id_x]
        %639 = arith.cmpi slt, %638, %511 : index
        %640 = arith.andi %507, %639 : i1
        %641 = affine.apply #map81()[%thread_id_x]
        %642 = arith.muli %641, %c4096 overflow<nsw> : index
        %643 = arith.addi %642, %197 overflow<nsw> : index
        %644 = arith.select %640, %643, %c536870911 : index
        vector.store %637, %523[%644] : memref<?xf32, #amdgpu.address_space<fat_raw_buffer>>, vector<1xf32>
        %645 = vector.extract_strided_slice %295 {offsets = [0], sizes = [1], strides = [1]} : vector<16xf32> to vector<1xf32>
        %646 = affine.apply #map82()[%thread_id_x, %block_id_x, %block_id_y, %thread_id_y]
        %647 = arith.cmpi slt, %646, %505 : index
        %648 = arith.andi %647, %513 : i1
        %649 = arith.addi %519, %202 overflow<nsw> : index
        %650 = arith.select %648, %649, %c536870911 : index
        vector.store %645, %523[%650] : memref<?xf32, #amdgpu.address_space<fat_raw_buffer>>, vector<1xf32>
        %651 = vector.extract_strided_slice %295 {offsets = [1], sizes = [1], strides = [1]} : vector<16xf32> to vector<1xf32>
        %652 = arith.andi %647, %527 : i1
        %653 = arith.addi %530, %202 overflow<nsw> : index
        %654 = arith.select %652, %653, %c536870911 : index
…
        %5821 = vector.extract_strided_slice %485 {offsets = [6], sizes = [1], strides = [1]} : vector<16xf32> to vector<1xf32>
        %5822 = arith.andi %1175, %5207 : i1
        %5823 = arith.addi %5210, %234 overflow<nsw> : index
        %5824 = arith.select %5822, %5823, %c536870911 : index
        vector.store %5821, %523[%5824] : memref<?xf32, #amdgpu.address_space<fat_raw_buffer>>, vector<1xf32>
        %5825 = vector.extract_strided_slice %485 {offsets = [7], sizes = [1], strides = [1]} : vector<16xf32> to vector<1xf32>
        %5826 = arith.andi %1175, %5215 : i1
        %5827 = arith.addi %5218, %234 overflow<nsw> : index
        %5828 = arith.select %5826, %5827, %c536870911 : index
        vector.store %5825, %523[%5828] : memref<?xf32, #amdgpu.address_space<fat_raw_buffer>>, vector<1xf32>
        %5829 = vector.extract_strided_slice %485 {offsets = [8], sizes = [1], strides = [1]} : vector<16xf32> to vector<1xf32>
        %5830 = arith.andi %1175, %5223 : i1
        %5831 = arith.addi %5226, %234 overflow<nsw> : index
        %5832 = arith.select %5830, %5831, %c536870911 : index
        vector.store %5829, %523[%5832] : memref<?xf32, #amdgpu.address_space<fat_raw_buffer>>, vector<1xf32>
        %5833 = vector.extract_strided_slice %485 {offsets = [9], sizes = [1], strides = [1]} : vector<16xf32> to vector<1xf32>
        %5834 = arith.andi %1175, %5231 : i1
        %5835 = arith.addi %5234, %234 overflow<nsw> : index
        %5836 = arith.select %5834, %5835, %c536870911 : index
        vector.store %5833, %523[%5836] : memref<?xf32, #amdgpu.address_space<fat_raw_buffer>>, vector<1xf32>
        %5837 = vector.extract_strided_slice %485 {offsets = [10], sizes = [1], strides = [1]} : vector<16xf32> to vector<1xf32>
        %5838 = arith.andi %1175, %5239 : i1
        %5839 = arith.addi %5242, %234 overflow<nsw> : index
        %5840 = arith.select %5838, %5839, %c536870911 : index
        vector.store %5837, %523[%5840] : memref<?xf32, #amdgpu.address_space<fat_raw_buffer>>, vector<1xf32>
        %5841 = vector.extract_strided_slice %485 {offsets = [11], sizes = [1], strides = [1]} : vector<16xf32> to vector<1xf32>
        %5842 = arith.andi %1175, %5247 : i1
        %5843 = arith.addi %5250, %234 overflow<nsw> : index
        %5844 = arith.select %5842, %5843, %c536870911 : index
        vector.store %5841, %523[%5844] : memref<?xf32, #amdgpu.address_space<fat_raw_buffer>>, vector<1xf32>
        %5845 = vector.extract_strided_slice %485 {offsets = [12], sizes = [1], strides = [1]} : vector<16xf32> to vector<1xf32>
        %5846 = arith.andi %1175, %5255 : i1
        %5847 = arith.addi %5258, %234 overflow<nsw> : index
        %5848 = arith.select %5846, %5847, %c536870911 : index
        vector.store %5845, %523[%5848] : memref<?xf32, #amdgpu.address_space<fat_raw_buffer>>, vector<1xf32>
        %5849 = vector.extract_strided_slice %485 {offsets = [13], sizes = [1], strides = [1]} : vector<16xf32> to vector<1xf32>
        %5850 = arith.andi %1175, %5263 : i1
        %5851 = arith.addi %5266, %234 overflow<nsw> : index
        %5852 = arith.select %5850, %5851, %c536870911 : index
        vector.store %5849, %523[%5852] : memref<?xf32, #amdgpu.address_space<fat_raw_buffer>>, vector<1xf32>
        %5853 = vector.extract_strided_slice %485 {offsets = [14], sizes = [1], strides = [1]} : vector<16xf32> to vector<1xf32>
        %5854 = arith.andi %1175, %5271 : i1
        %5855 = arith.addi %5274, %234 overflow<nsw> : index
        %5856 = arith.select %5854, %5855, %c536870911 : index
        vector.store %5853, %523[%5856] : memref<?xf32, #amdgpu.address_space<fat_raw_buffer>>, vector<1xf32>
        %5857 = vector.extract_strided_slice %485 {offsets = [15], sizes = [1], strides = [1]} : vector<16xf32> to vector<1xf32>
        %5858 = arith.andi %1175, %5279 : i1
        %5859 = arith.addi %5282, %234 overflow<nsw> : index
        %5860 = arith.select %5858, %5859, %c536870911 : index
        vector.store %5857, %523[%5860] : memref<?xf32, #amdgpu.address_space<fat_raw_buffer>>, vector<1xf32>
        %5861 = vector.extract_strided_slice %487 {offsets = [0], sizes = [1], strides = [1]} : vector<16xf32> to vector<1xf32>
        %5862 = arith.andi %1241, %5159 : i1
        %5863 = arith.addi %5162, %238 overflow<nsw> : index
        %5864 = arith.select %5862, %5863, %c536870911 : index
        vector.store %5861, %523[%5864] : memref<?xf32, #amdgpu.address_space<fat_raw_buffer>>, vector<1xf32>
        %5865 = vector.extract_strided_slice %487 {offsets = [1], sizes = [1], strides = [1]} : vector<16xf32> to vector<1xf32>
        %5866 = arith.andi %1241, %5167 : i1
        %5867 = arith.addi %5170, %238 overflow<nsw> : index
        %5868 = arith.select %5866, %5867, %c536870911 : index
        vector.store %5865, %523[%5868] : memref<?xf32, #amdgpu.address_space<fat_raw_buffer>>, vector<1xf32>
        %5869 = vector.extract_strided_slice %487 {offsets = [2], sizes = [1], strides = [1]} : vector<16xf32> to vector<1xf32>
        %5870 = arith.andi %1241, %5175 : i1
        %5871 = arith.addi %5178, %238 overflow<nsw> : index
        %5872 = arith.select %5870, %5871, %c536870911 : index
        vector.store %5869, %523[%5872] : memref<?xf32, #amdgpu.address_space<fat_raw_buffer>>, vector<1xf32>
        %5873 = vector.extract_strided_slice %487 {offsets = [3], sizes = [1], strides = [1]} : vector<16xf32> to vector<1xf32>
        %5874 = arith.andi %1241, %5183 : i1
        %5875 = arith.addi %5186, %238 overflow<nsw> : index
        %5876 = arith.select %5874, %5875, %c536870911 : index
        vector.store %5873, %523[%5876] : memref<?xf32, #amdgpu.address_space<fat_raw_buffer>>, vector<1xf32>
        %5877 = vector.extract_strided_slice %487 {offsets = [4], sizes = [1], strides = [1]} : vector<16xf32> to vector<1xf32>
        %5878 = arith.andi %1241, %5191 : i1
        %5879 = arith.addi %5194, %238 overflow<nsw> : index
        %5880 = arith.select %5878, %5879, %c536870911 : index
        vector.store %5877, %523[%5880] : memref<?xf32, #amdgpu.address_space<fat_raw_buffer>>, vector<1xf32>
        %5881 = vector.extract_strided_slice %487 {offsets = [5], sizes = [1], strides = [1]} : vector<16xf32> to vector<1xf32>
        %5882 = arith.andi %1241, %5199 : i1
        %5883 = arith.addi %5202, %238 overflow<nsw> : index
        %5884 = arith.select %5882, %5883, %c536870911 : index
        vector.store %5881, %523[%5884] : memref<?xf32, #amdgpu.address_space<fat_raw_buffer>>, vector<1xf32>
        %5885 = vector.extract_strided_slice %487 {offsets = [6], sizes = [1], strides = [1]} : vector<16xf32> to vector<1xf32>
        %5886 = arith.andi %1241, %5207 : i1
        %5887 = arith.addi %5210, %238 overflow<nsw> : index
        %5888 = arith.select %5886, %5887, %c536870911 : index
        vector.store %5885, %523[%5888] : memref<?xf32, #amdgpu.address_space<fat_raw_buffer>>, vector<1xf32>
        %5889 = vector.extract_strided_slice %487 {offsets = [7], sizes = [1], strides = [1]} : vector<16xf32> to vector<1xf32>
        %5890 = arith.andi %1241, %5215 : i1
        %5891 = arith.addi %5218, %238 overflow<nsw> : index
        %5892 = arith.select %5890, %5891, %c536870911 : index
        vector.store %5889, %523[%5892] : memref<?xf32, #amdgpu.address_space<fat_raw_buffer>>, vector<1xf32>
        %5893 = vector.extract_strided_slice %487 {offsets = [8], sizes = [1], strides = [1]} : vector<16xf32> to vector<1xf32>
        %5894 = arith.andi %1241, %5223 : i1
        %5895 = arith.addi %5226, %238 overflow<nsw> : index
        %5896 = arith.select %5894, %5895, %c536870911 : index
        vector.store %5893, %523[%5896] : memref<?xf32, #amdgpu.address_space<fat_raw_buffer>>, vector<1xf32>
        %5897 = vector.extract_strided_slice %487 {offsets = [9], sizes = [1], strides = [1]} : vector<16xf32> to vector<1xf32>
        %5898 = arith.andi %1241, %5231 : i1
        %5899 = arith.addi %5234, %238 overflow<nsw> : index
        %5900 = arith.select %5898, %5899, %c536870911 : index
        vector.store %5897, %523[%5900] : memref<?xf32, #amdgpu.address_space<fat_raw_buffer>>, vector<1xf32>
        %5901 = vector.extract_strided_slice %487 {offsets = [10], sizes = [1], strides = [1]} : vector<16xf32> to vector<1xf32>
        %5902 = arith.andi %1241, %5239 : i1
        %5903 = arith.addi %5242, %238 overflow<nsw> : index
        %5904 = arith.select %5902, %5903, %c536870911 : index
        vector.store %5901, %523[%5904] : memref<?xf32, #amdgpu.address_space<fat_raw_buffer>>, vector<1xf32>
        %5905 = vector.extract_strided_slice %487 {offsets = [11], sizes = [1], strides = [1]} : vector<16xf32> to vector<1xf32>
        %5906 = arith.andi %1241, %5247 : i1
        %5907 = arith.addi %5250, %238 overflow<nsw> : index
        %5908 = arith.select %5906, %5907, %c536870911 : index
        vector.store %5905, %523[%5908] : memref<?xf32, #amdgpu.address_space<fat_raw_buffer>>, vector<1xf32>
        %5909 = vector.extract_strided_slice %487 {offsets = [12], sizes = [1], strides = [1]} : vector<16xf32> to vector<1xf32>
        %5910 = arith.andi %1241, %5255 : i1
        %5911 = arith.addi %5258, %238 overflow<nsw> : index
        %5912 = arith.select %5910, %5911, %c536870911 : index
        vector.store %5909, %523[%5912] : memref<?xf32, #amdgpu.address_space<fat_raw_buffer>>, vector<1xf32>
        %5913 = vector.extract_strided_slice %487 {offsets = [13], sizes = [1], strides = [1]} : vector<16xf32> to vector<1xf32>
        %5914 = arith.andi %1241, %5263 : i1
        %5915 = arith.addi %5266, %238 overflow<nsw> : index
        %5916 = arith.select %5914, %5915, %c536870911 : index
        vector.store %5913, %523[%5916] : memref<?xf32, #amdgpu.address_space<fat_raw_buffer>>, vector<1xf32>
        %5917 = vector.extract_strided_slice %487 {offsets = [14], sizes = [1], strides = [1]} : vector<16xf32> to vector<1xf32>
        %5918 = arith.andi %1241, %5271 : i1
        %5919 = arith.addi %5274, %238 overflow<nsw> : index
        %5920 = arith.select %5918, %5919, %c536870911 : index
        vector.store %5917, %523[%5920] : memref<?xf32, #amdgpu.address_space<fat_raw_buffer>>, vector<1xf32>
        %5921 = vector.extract_strided_slice %487 {offsets = [15], sizes = [1], strides = [1]} : vector<16xf32> to vector<1xf32>
        %5922 = arith.andi %1241, %5279 : i1
        %5923 = arith.addi %5282, %238 overflow<nsw> : index
        %5924 = arith.select %5922, %5923, %c536870911 : index
        vector.store %5921, %523[%5924] : memref<?xf32, #amdgpu.address_space<fat_raw_buffer>>, vector<1xf32>
        %5925 = vector.extract_strided_slice %489 {offsets = [0], sizes = [1], strides = [1]} : vector<16xf32> to vector<1xf32>
        %5926 = arith.andi %1307, %5159 : i1
        %5927 = arith.addi %5162, %242 overflow<nsw> : index
        %5928 = arith.select %5926, %5927, %c536870911 : index
        vector.store %5925, %523[%5928] : memref<?xf32, #amdgpu.address_space<fat_raw_buffer>>, vector<1xf32>
        %5929 = vector.extract_strided_slice %489 {offsets = [1], sizes = [1], strides = [1]} : vector<16xf32> to vector<1xf32>
        %5930 = arith.andi %1307, %5167 : i1
        %5931 = arith.addi %5170, %242 overflow<nsw> : index
        %5932 = arith.select %5930, %5931, %c536870911 : index
        vector.store %5929, %523[%5932] : memref<?xf32, #amdgpu.address_space<fat_raw_buffer>>, vector<1xf32>
        %5933 = vector.extract_strided_slice %489 {offsets = [2], sizes = [1], strides = [1]} : vector<16xf32> to vector<1xf32>
        %5934 = arith.andi %1307, %5175 : i1
        %5935 = arith.addi %5178, %242 overflow<nsw> : index
        %5936 = arith.select %5934, %5935, %c536870911 : index
        vector.store %5933, %523[%5936] : memref<?xf32, #amdgpu.address_space<fat_raw_buffer>>, vector<1xf32>
        %5937 = vector.extract_strided_slice %489 {offsets = [3], sizes = [1], strides = [1]} : vector<16xf32> to vector<1xf32>
        %5938 = arith.andi %1307, %5183 : i1
        %5939 = arith.addi %5186, %242 overflow<nsw> : index
        %5940 = arith.select %5938, %5939, %c536870911 : index
        vector.store %5937, %523[%5940] : memref<?xf32, #amdgpu.address_space<fat_raw_buffer>>, vector<1xf32>
        %5941 = vector.extract_strided_slice %489 {offsets = [4], sizes = [1], strides = [1]} : vector<16xf32> to vector<1xf32>
        %5942 = arith.andi %1307, %5191 : i1
        %5943 = arith.addi %5194, %242 overflow<nsw> : index
        %5944 = arith.select %5942, %5943, %c536870911 : index
        vector.store %5941, %523[%5944] : memref<?xf32, #amdgpu.address_space<fat_raw_buffer>>, vector<1xf32>
        %5945 = vector.extract_strided_slice %489 {offsets = [5], sizes = [1], strides = [1]} : vector<16xf32> to vector<1xf32>
        %5946 = arith.andi %1307, %5199 : i1
        %5947 = arith.addi %5202, %242 overflow<nsw> : index
        %5948 = arith.select %5946, %5947, %c536870911 : index
        vector.store %5945, %523[%5948] : memref<?xf32, #amdgpu.address_space<fat_raw_buffer>>, vector<1xf32>
        %5949 = vector.extract_strided_slice %489 {offsets = [6], sizes = [1], strides = [1]} : vector<16xf32> to vector<1xf32>
        %5950 = arith.andi %1307, %5207 : i1
        %5951 = arith.addi %5210, %242 overflow<nsw> : index
        %5952 = arith.select %5950, %5951, %c536870911 : index
        vector.store %5949, %523[%5952] : memref<?xf32, #amdgpu.address_space<fat_raw_buffer>>, vector<1xf32>
        %5953 = vector.extract_strided_slice %489 {offsets = [7], sizes = [1], strides = [1]} : vector<16xf32> to vector<1xf32>
        %5954 = arith.andi %1307, %5215 : i1
        %5955 = arith.addi %5218, %242 overflow<nsw> : index
        %5956 = arith.select %5954, %5955, %c536870911 : index
        vector.store %5953, %523[%5956] : memref<?xf32, #amdgpu.address_space<fat_raw_buffer>>, vector<1xf32>
        %5957 = vector.extract_strided_slice %489 {offsets = [8], sizes = [1], strides = [1]} : vector<16xf32> to vector<1xf32>
        %5958 = arith.andi %1307, %5223 : i1
        %5959 = arith.addi %5226, %242 overflow<nsw> : index
        %5960 = arith.select %5958, %5959, %c536870911 : index
        vector.store %5957, %523[%5960] : memref<?xf32, #amdgpu.address_space<fat_raw_buffer>>, vector<1xf32>
        %5961 = vector.extract_strided_slice %489 {offsets = [9], sizes = [1], strides = [1]} : vector<16xf32> to vector<1xf32>
        %5962 = arith.andi %1307, %5231 : i1
        %5963 = arith.addi %5234, %242 overflow<nsw> : index
        %5964 = arith.select %5962, %5963, %c536870911 : index
        vector.store %5961, %523[%5964] : memref<?xf32, #amdgpu.address_space<fat_raw_buffer>>, vector<1xf32>
        %5965 = vector.extract_strided_slice %489 {offsets = [10], sizes = [1], strides = [1]} : vector<16xf32> to vector<1xf32>
        %5966 = arith.andi %1307, %5239 : i1
        %5967 = arith.addi %5242, %242 overflow<nsw> : index
        %5968 = arith.select %5966, %5967, %c536870911 : index
        vector.store %5965, %523[%5968] : memref<?xf32, #amdgpu.address_space<fat_raw_buffer>>, vector<1xf32>
        %5969 = vector.extract_strided_slice %489 {offsets = [11], sizes = [1], strides = [1]} : vector<16xf32> to vector<1xf32>
        %5970 = arith.andi %1307, %5247 : i1
        %5971 = arith.addi %5250, %242 overflow<nsw> : index
        %5972 = arith.select %5970, %5971, %c536870911 : index
        vector.store %5969, %523[%5972] : memref<?xf32, #amdgpu.address_space<fat_raw_buffer>>, vector<1xf32>
        %5973 = vector.extract_strided_slice %489 {offsets = [12], sizes = [1], strides = [1]} : vector<16xf32> to vector<1xf32>
        %5974 = arith.andi %1307, %5255 : i1
        %5975 = arith.addi %5258, %242 overflow<nsw> : index
        %5976 = arith.select %5974, %5975, %c536870911 : index
        vector.store %5973, %523[%5976] : memref<?xf32, #amdgpu.address_space<fat_raw_buffer>>, vector<1xf32>
        %5977 = vector.extract_strided_slice %489 {offsets = [13], sizes = [1], strides = [1]} : vector<16xf32> to vector<1xf32>
        %5978 = arith.andi %1307, %5263 : i1
        %5979 = arith.addi %5266, %242 overflow<nsw> : index
        %5980 = arith.select %5978, %5979, %c536870911 : index
        vector.store %5977, %523[%5980] : memref<?xf32, #amdgpu.address_space<fat_raw_buffer>>, vector<1xf32>
        %5981 = vector.extract_strided_slice %489 {offsets = [14], sizes = [1], strides = [1]} : vector<16xf32> to vector<1xf32>
        %5982 = arith.andi %1307, %5271 : i1
        %5983 = arith.addi %5274, %242 overflow<nsw> : index
        %5984 = arith.select %5982, %5983, %c536870911 : index
        vector.store %5981, %523[%5984] : memref<?xf32, #amdgpu.address_space<fat_raw_buffer>>, vector<1xf32>
        %5985 = vector.extract_strided_slice %489 {offsets = [15], sizes = [1], strides = [1]} : vector<16xf32> to vector<1xf32>
        %5986 = arith.andi %1307, %5279 : i1
        %5987 = arith.addi %5282, %242 overflow<nsw> : index
        %5988 = arith.select %5986, %5987, %c536870911 : index
        vector.store %5985, %523[%5988] : memref<?xf32, #amdgpu.address_space<fat_raw_buffer>>, vector<1xf32>
        %5989 = vector.extract_strided_slice %491 {offsets = [0], sizes = [1], strides = [1]} : vector<16xf32> to vector<1xf32>
        %5990 = arith.andi %1373, %5159 : i1
        %5991 = arith.addi %5162, %246 overflow<nsw> : index
        %5992 = arith.select %5990, %5991, %c536870911 : index
        vector.store %5989, %523[%5992] : memref<?xf32, #amdgpu.address_space<fat_raw_buffer>>, vector<1xf32>
        %5993 = vector.extract_strided_slice %491 {offsets = [1], sizes = [1], strides = [1]} : vector<16xf32> to vector<1xf32>
        %5994 = arith.andi %1373, %5167 : i1
        %5995 = arith.addi %5170, %246 overflow<nsw> : index
        %5996 = arith.select %5994, %5995, %c536870911 : index
        vector.store %5993, %523[%5996] : memref<?xf32, #amdgpu.address_space<fat_raw_buffer>>, vector<1xf32>
        %5997 = vector.extract_strided_slice %491 {offsets = [2], sizes = [1], strides = [1]} : vector<16xf32> to vector<1xf32>
        %5998 = arith.andi %1373, %5175 : i1
        %5999 = arith.addi %5178, %246 overflow<nsw> : index
        %6000 = arith.select %5998, %5999, %c536870911 : index
        vector.store %5997, %523[%6000] : memref<?xf32, #amdgpu.address_space<fat_raw_buffer>>, vector<1xf32>
        %6001 = vector.extract_strided_slice %491 {offsets = [3], sizes = [1], strides = [1]} : vector<16xf32> to vector<1xf32>
        %6002 = arith.andi %1373, %5183 : i1
        %6003 = arith.addi %5186, %246 overflow<nsw> : index
        %6004 = arith.select %6002, %6003, %c536870911 : index
        vector.store %6001, %523[%6004] : memref<?xf32, #amdgpu.address_space<fat_raw_buffer>>, vector<1xf32>
        %6005 = vector.extract_strided_slice %491 {offsets = [4], sizes = [1], strides = [1]} : vector<16xf32> to vector<1xf32>
        %6006 = arith.andi %1373, %5191 : i1
        %6007 = arith.addi %5194, %246 overflow<nsw> : index
        %6008 = arith.select %6006, %6007, %c536870911 : index
        vector.store %6005, %523[%6008] : memref<?xf32, #amdgpu.address_space<fat_raw_buffer>>, vector<1xf32>
        %6009 = vector.extract_strided_slice %491 {offsets = [5], sizes = [1], strides = [1]} : vector<16xf32> to vector<1xf32>
        %6010 = arith.andi %1373, %5199 : i1
        %6011 = arith.addi %5202, %246 overflow<nsw> : index
        %6012 = arith.select %6010, %6011, %c536870911 : index
        vector.store %6009, %523[%6012] : memref<?xf32, #amdgpu.address_space<fat_raw_buffer>>, vector<1xf32>
        %6013 = vector.extract_strided_slice %491 {offsets = [6], sizes = [1], strides = [1]} : vector<16xf32> to vector<1xf32>
        %6014 = arith.andi %1373, %5207 : i1
        %6015 = arith.addi %5210, %246 overflow<nsw> : index
        %6016 = arith.select %6014, %6015, %c536870911 : index
        vector.store %6013, %523[%6016] : memref<?xf32, #amdgpu.address_space<fat_raw_buffer>>, vector<1xf32>
        %6017 = vector.extract_strided_slice %491 {offsets = [7], sizes = [1], strides = [1]} : vector<16xf32> to vector<1xf32>
        %6018 = arith.andi %1373, %5215 : i1
        %6019 = arith.addi %5218, %246 overflow<nsw> : index
        %6020 = arith.select %6018, %6019, %c536870911 : index
        vector.store %6017, %523[%6020] : memref<?xf32, #amdgpu.address_space<fat_raw_buffer>>, vector<1xf32>
        %6021 = vector.extract_strided_slice %491 {offsets = [8], sizes = [1], strides = [1]} : vector<16xf32> to vector<1xf32>
        %6022 = arith.andi %1373, %5223 : i1
        %6023 = arith.addi %5226, %246 overflow<nsw> : index
        %6024 = arith.select %6022, %6023, %c536870911 : index
        vector.store %6021, %523[%6024] : memref<?xf32, #amdgpu.address_space<fat_raw_buffer>>, vector<1xf32>
        %6025 = vector.extract_strided_slice %491 {offsets = [9], sizes = [1], strides = [1]} : vector<16xf32> to vector<1xf32>
        %6026 = arith.andi %1373, %5231 : i1
        %6027 = arith.addi %5234, %246 overflow<nsw> : index
        %6028 = arith.select %6026, %6027, %c536870911 : index
        vector.store %6025, %523[%6028] : memref<?xf32, #amdgpu.address_space<fat_raw_buffer>>, vector<1xf32>
        %6029 = vector.extract_strided_slice %491 {offsets = [10], sizes = [1], strides = [1]} : vector<16xf32> to vector<1xf32>
        %6030 = arith.andi %1373, %5239 : i1
        %6031 = arith.addi %5242, %246 overflow<nsw> : index
        %6032 = arith.select %6030, %6031, %c536870911 : index
        vector.store %6029, %523[%6032] : memref<?xf32, #amdgpu.address_space<fat_raw_buffer>>, vector<1xf32>
        %6033 = vector.extract_strided_slice %491 {offsets = [11], sizes = [1], strides = [1]} : vector<16xf32> to vector<1xf32>
        %6034 = arith.andi %1373, %5247 : i1
        %6035 = arith.addi %5250, %246 overflow<nsw> : index
        %6036 = arith.select %6034, %6035, %c536870911 : index
        vector.store %6033, %523[%6036] : memref<?xf32, #amdgpu.address_space<fat_raw_buffer>>, vector<1xf32>
        %6037 = vector.extract_strided_slice %491 {offsets = [12], sizes = [1], strides = [1]} : vector<16xf32> to vector<1xf32>
        %6038 = arith.andi %1373, %5255 : i1
        %6039 = arith.addi %5258, %246 overflow<nsw> : index
        %6040 = arith.select %6038, %6039, %c536870911 : index
        vector.store %6037, %523[%6040] : memref<?xf32, #amdgpu.address_space<fat_raw_buffer>>, vector<1xf32>
        %6041 = vector.extract_strided_slice %491 {offsets = [13], sizes = [1], strides = [1]} : vector<16xf32> to vector<1xf32>
        %6042 = arith.andi %1373, %5263 : i1
        %6043 = arith.addi %5266, %246 overflow<nsw> : index
        %6044 = arith.select %6042, %6043, %c536870911 : index
        vector.store %6041, %523[%6044] : memref<?xf32, #amdgpu.address_space<fat_raw_buffer>>, vector<1xf32>
        %6045 = vector.extract_strided_slice %491 {offsets = [14], sizes = [1], strides = [1]} : vector<16xf32> to vector<1xf32>
        %6046 = arith.andi %1373, %5271 : i1
        %6047 = arith.addi %5274, %246 overflow<nsw> : index
        %6048 = arith.select %6046, %6047, %c536870911 : index
        vector.store %6045, %523[%6048] : memref<?xf32, #amdgpu.address_space<fat_raw_buffer>>, vector<1xf32>
        %6049 = vector.extract_strided_slice %491 {offsets = [15], sizes = [1], strides = [1]} : vector<16xf32> to vector<1xf32>
        %6050 = arith.andi %1373, %5279 : i1
        %6051 = arith.addi %5282, %246 overflow<nsw> : index
        %6052 = arith.select %6050, %6051, %c536870911 : index
        vector.store %6049, %523[%6052] : memref<?xf32, #amdgpu.address_space<fat_raw_buffer>>, vector<1xf32>
        %6053 = vector.extract_strided_slice %493 {offsets = [0], sizes = [1], strides = [1]} : vector<16xf32> to vector<1xf32>
        %6054 = arith.andi %1439, %5159 : i1
        %6055 = arith.addi %5162, %250 overflow<nsw> : index
        %6056 = arith.select %6054, %6055, %c536870911 : index
        vector.store %6053, %523[%6056] : memref<?xf32, #amdgpu.address_space<fat_raw_buffer>>, vector<1xf32>
        %6057 = vector.extract_strided_slice %493 {offsets = [1], sizes = [1], strides = [1]} : vector<16xf32> to vector<1xf32>
        %6058 = arith.andi %1439, %5167 : i1
        %6059 = arith.addi %5170, %250 overflow<nsw> : index
        %6060 = arith.select %6058, %6059, %c536870911 : index
        vector.store %6057, %523[%6060] : memref<?xf32, #amdgpu.address_space<fat_raw_buffer>>, vector<1xf32>
        %6061 = vector.extract_strided_slice %493 {offsets = [2], sizes = [1], strides = [1]} : vector<16xf32> to vector<1xf32>
        %6062 = arith.andi %1439, %5175 : i1
        %6063 = arith.addi %5178, %250 overflow<nsw> : index
        %6064 = arith.select %6062, %6063, %c536870911 : index
        vector.store %6061, %523[%6064] : memref<?xf32, #amdgpu.address_space<fat_raw_buffer>>, vector<1xf32>
        %6065 = vector.extract_strided_slice %493 {offsets = [3], sizes = [1], strides = [1]} : vector<16xf32> to vector<1xf32>
        %6066 = arith.andi %1439, %5183 : i1
        %6067 = arith.addi %5186, %250 overflow<nsw> : index
        %6068 = arith.select %6066, %6067, %c536870911 : index
        vector.store %6065, %523[%6068] : memref<?xf32, #amdgpu.address_space<fat_raw_buffer>>, vector<1xf32>
        %6069 = vector.extract_strided_slice %493 {offsets = [4], sizes = [1], strides = [1]} : vector<16xf32> to vector<1xf32>
        %6070 = arith.andi %1439, %5191 : i1
        %6071 = arith.addi %5194, %250 overflow<nsw> : index
        %6072 = arith.select %6070, %6071, %c536870911 : index
        vector.store %6069, %523[%6072] : memref<?xf32, #amdgpu.address_space<fat_raw_buffer>>, vector<1xf32>
        %6073 = vector.extract_strided_slice %493 {offsets = [5], sizes = [1], strides = [1]} : vector<16xf32> to vector<1xf32>
        %6074 = arith.andi %1439, %5199 : i1
        %6075 = arith.addi %5202, %250 overflow<nsw> : index
        %6076 = arith.select %6074, %6075, %c536870911 : index
        vector.store %6073, %523[%6076] : memref<?xf32, #amdgpu.address_space<fat_raw_buffer>>, vector<1xf32>
        %6077 = vector.extract_strided_slice %493 {offsets = [6], sizes = [1], strides = [1]} : vector<16xf32> to vector<1xf32>
        %6078 = arith.andi %1439, %5207 : i1
        %6079 = arith.addi %5210, %250 overflow<nsw> : index
        %6080 = arith.select %6078, %6079, %c536870911 : index
        vector.store %6077, %523[%6080] : memref<?xf32, #amdgpu.address_space<fat_raw_buffer>>, vector<1xf32>
        %6081 = vector.extract_strided_slice %493 {offsets = [7], sizes = [1], strides = [1]} : vector<16xf32> to vector<1xf32>
        %6082 = arith.andi %1439, %5215 : i1
        %6083 = arith.addi %5218, %250 overflow<nsw> : index
        %6084 = arith.select %6082, %6083, %c536870911 : index
        vector.store %6081, %523[%6084] : memref<?xf32, #amdgpu.address_space<fat_raw_buffer>>, vector<1xf32>
        %6085 = vector.extract_strided_slice %493 {offsets = [8], sizes = [1], strides = [1]} : vector<16xf32> to vector<1xf32>
        %6086 = arith.andi %1439, %5223 : i1
        %6087 = arith.addi %5226, %250 overflow<nsw> : index
        %6088 = arith.select %6086, %6087, %c536870911 : index
        vector.store %6085, %523[%6088] : memref<?xf32, #amdgpu.address_space<fat_raw_buffer>>, vector<1xf32>
        %6089 = vector.extract_strided_slice %493 {offsets = [9], sizes = [1], strides = [1]} : vector<16xf32> to vector<1xf32>
        %6090 = arith.andi %1439, %5231 : i1
        %6091 = arith.addi %5234, %250 overflow<nsw> : index
        %6092 = arith.select %6090, %6091, %c536870911 : index
        vector.store %6089, %523[%6092] : memref<?xf32, #amdgpu.address_space<fat_raw_buffer>>, vector<1xf32>
        %6093 = vector.extract_strided_slice %493 {offsets = [10], sizes = [1], strides = [1]} : vector<16xf32> to vector<1xf32>
        %6094 = arith.andi %1439, %5239 : i1
        %6095 = arith.addi %5242, %250 overflow<nsw> : index
        %6096 = arith.select %6094, %6095, %c536870911 : index
        vector.store %6093, %523[%6096] : memref<?xf32, #amdgpu.address_space<fat_raw_buffer>>, vector<1xf32>
        %6097 = vector.extract_strided_slice %493 {offsets = [11], sizes = [1], strides = [1]} : vector<16xf32> to vector<1xf32>
        %6098 = arith.andi %1439, %5247 : i1
        %6099 = arith.addi %5250, %250 overflow<nsw> : index
        %6100 = arith.select %6098, %6099, %c536870911 : index
        vector.store %6097, %523[%6100] : memref<?xf32, #amdgpu.address_space<fat_raw_buffer>>, vector<1xf32>
        %6101 = vector.extract_strided_slice %493 {offsets = [12], sizes = [1], strides = [1]} : vector<16xf32> to vector<1xf32>
        %6102 = arith.andi %1439, %5255 : i1
        %6103 = arith.addi %5258, %250 overflow<nsw> : index
        %6104 = arith.select %6102, %6103, %c536870911 : index
        vector.store %6101, %523[%6104] : memref<?xf32, #amdgpu.address_space<fat_raw_buffer>>, vector<1xf32>
        %6105 = vector.extract_strided_slice %493 {offsets = [13], sizes = [1], strides = [1]} : vector<16xf32> to vector<1xf32>
        %6106 = arith.andi %1439, %5263 : i1
        %6107 = arith.addi %5266, %250 overflow<nsw> : index
        %6108 = arith.select %6106, %6107, %c536870911 : index
        vector.store %6105, %523[%6108] : memref<?xf32, #amdgpu.address_space<fat_raw_buffer>>, vector<1xf32>
        %6109 = vector.extract_strided_slice %493 {offsets = [14], sizes = [1], strides = [1]} : vector<16xf32> to vector<1xf32>
        %6110 = arith.andi %1439, %5271 : i1
        %6111 = arith.addi %5274, %250 overflow<nsw> : index
        %6112 = arith.select %6110, %6111, %c536870911 : index
        vector.store %6109, %523[%6112] : memref<?xf32, #amdgpu.address_space<fat_raw_buffer>>, vector<1xf32>
        %6113 = vector.extract_strided_slice %493 {offsets = [15], sizes = [1], strides = [1]} : vector<16xf32> to vector<1xf32>
        %6114 = arith.andi %1439, %5279 : i1
        %6115 = arith.addi %5282, %250 overflow<nsw> : index
        %6116 = arith.select %6114, %6115, %c536870911 : index
        vector.store %6113, %523[%6116] : memref<?xf32, #amdgpu.address_space<fat_raw_buffer>>, vector<1xf32>
        %6117 = vector.extract_strided_slice %495 {offsets = [0], sizes = [1], strides = [1]} : vector<16xf32> to vector<1xf32>
        %6118 = arith.andi %1505, %5159 : i1
        %6119 = arith.addi %5162, %254 overflow<nsw> : index
        %6120 = arith.select %6118, %6119, %c536870911 : index
        vector.store %6117, %523[%6120] : memref<?xf32, #amdgpu.address_space<fat_raw_buffer>>, vector<1xf32>
        %6121 = vector.extract_strided_slice %495 {offsets = [1], sizes = [1], strides = [1]} : vector<16xf32> to vector<1xf32>
        %6122 = arith.andi %1505, %5167 : i1
        %6123 = arith.addi %5170, %254 overflow<nsw> : index
        %6124 = arith.select %6122, %6123, %c536870911 : index
        vector.store %6121, %523[%6124] : memref<?xf32, #amdgpu.address_space<fat_raw_buffer>>, vector<1xf32>
        %6125 = vector.extract_strided_slice %495 {offsets = [2], sizes = [1], strides = [1]} : vector<16xf32> to vector<1xf32>
        %6126 = arith.andi %1505, %5175 : i1
        %6127 = arith.addi %5178, %254 overflow<nsw> : index
        %6128 = arith.select %6126, %6127, %c536870911 : index
        vector.store %6125, %523[%6128] : memref<?xf32, #amdgpu.address_space<fat_raw_buffer>>, vector<1xf32>
        %6129 = vector.extract_strided_slice %495 {offsets = [3], sizes = [1], strides = [1]} : vector<16xf32> to vector<1xf32>
        %6130 = arith.andi %1505, %5183 : i1
        %6131 = arith.addi %5186, %254 overflow<nsw> : index
        %6132 = arith.select %6130, %6131, %c536870911 : index
        vector.store %6129, %523[%6132] : memref<?xf32, #amdgpu.address_space<fat_raw_buffer>>, vector<1xf32>
        %6133 = vector.extract_strided_slice %495 {offsets = [4], sizes = [1], strides = [1]} : vector<16xf32> to vector<1xf32>
        %6134 = arith.andi %1505, %5191 : i1
        %6135 = arith.addi %5194, %254 overflow<nsw> : index
        %6136 = arith.select %6134, %6135, %c536870911 : index
        vector.store %6133, %523[%6136] : memref<?xf32, #amdgpu.address_space<fat_raw_buffer>>, vector<1xf32>
        %6137 = vector.extract_strided_slice %495 {offsets = [5], sizes = [1], strides = [1]} : vector<16xf32> to vector<1xf32>
        %6138 = arith.andi %1505, %5199 : i1
        %6139 = arith.addi %5202, %254 overflow<nsw> : index
        %6140 = arith.select %6138, %6139, %c536870911 : index
        vector.store %6137, %523[%6140] : memref<?xf32, #amdgpu.address_space<fat_raw_buffer>>, vector<1xf32>
        %6141 = vector.extract_strided_slice %495 {offsets = [6], sizes = [1], strides = [1]} : vector<16xf32> to vector<1xf32>
        %6142 = arith.andi %1505, %5207 : i1
        %6143 = arith.addi %5210, %254 overflow<nsw> : index
        %6144 = arith.select %6142, %6143, %c536870911 : index
        vector.store %6141, %523[%6144] : memref<?xf32, #amdgpu.address_space<fat_raw_buffer>>, vector<1xf32>
        %6145 = vector.extract_strided_slice %495 {offsets = [7], sizes = [1], strides = [1]} : vector<16xf32> to vector<1xf32>
        %6146 = arith.andi %1505, %5215 : i1
        %6147 = arith.addi %5218, %254 overflow<nsw> : index
        %6148 = arith.select %6146, %6147, %c536870911 : index
        vector.store %6145, %523[%6148] : memref<?xf32, #amdgpu.address_space<fat_raw_buffer>>, vector<1xf32>
        %6149 = vector.extract_strided_slice %495 {offsets = [8], sizes = [1], strides = [1]} : vector<16xf32> to vector<1xf32>
        %6150 = arith.andi %1505, %5223 : i1
        %6151 = arith.addi %5226, %254 overflow<nsw> : index
        %6152 = arith.select %6150, %6151, %c536870911 : index
        vector.store %6149, %523[%6152] : memref<?xf32, #amdgpu.address_space<fat_raw_buffer>>, vector<1xf32>
        %6153 = vector.extract_strided_slice %495 {offsets = [9], sizes = [1], strides = [1]} : vector<16xf32> to vector<1xf32>
        %6154 = arith.andi %1505, %5231 : i1
        %6155 = arith.addi %5234, %254 overflow<nsw> : index
        %6156 = arith.select %6154, %6155, %c536870911 : index
        vector.store %6153, %523[%6156] : memref<?xf32, #amdgpu.address_space<fat_raw_buffer>>, vector<1xf32>
        %6157 = vector.extract_strided_slice %495 {offsets = [10], sizes = [1], strides = [1]} : vector<16xf32> to vector<1xf32>
        %6158 = arith.andi %1505, %5239 : i1
        %6159 = arith.addi %5242, %254 overflow<nsw> : index
        %6160 = arith.select %6158, %6159, %c536870911 : index
        vector.store %6157, %523[%6160] : memref<?xf32, #amdgpu.address_space<fat_raw_buffer>>, vector<1xf32>
        %6161 = vector.extract_strided_slice %495 {offsets = [11], sizes = [1], strides = [1]} : vector<16xf32> to vector<1xf32>
        %6162 = arith.andi %1505, %5247 : i1
        %6163 = arith.addi %5250, %254 overflow<nsw> : index
        %6164 = arith.select %6162, %6163, %c536870911 : index
        vector.store %6161, %523[%6164] : memref<?xf32, #amdgpu.address_space<fat_raw_buffer>>, vector<1xf32>
        %6165 = vector.extract_strided_slice %495 {offsets = [12], sizes = [1], strides = [1]} : vector<16xf32> to vector<1xf32>
        %6166 = arith.andi %1505, %5255 : i1
        %6167 = arith.addi %5258, %254 overflow<nsw> : index
        %6168 = arith.select %6166, %6167, %c536870911 : index
        vector.store %6165, %523[%6168] : memref<?xf32, #amdgpu.address_space<fat_raw_buffer>>, vector<1xf32>
        %6169 = vector.extract_strided_slice %495 {offsets = [13], sizes = [1], strides = [1]} : vector<16xf32> to vector<1xf32>
        %6170 = arith.andi %1505, %5263 : i1
        %6171 = arith.addi %5266, %254 overflow<nsw> : index
        %6172 = arith.select %6170, %6171, %c536870911 : index
        vector.store %6169, %523[%6172] : memref<?xf32, #amdgpu.address_space<fat_raw_buffer>>, vector<1xf32>
        %6173 = vector.extract_strided_slice %495 {offsets = [14], sizes = [1], strides = [1]} : vector<16xf32> to vector<1xf32>
        %6174 = arith.andi %1505, %5271 : i1
        %6175 = arith.addi %5274, %254 overflow<nsw> : index
        %6176 = arith.select %6174, %6175, %c536870911 : index
        vector.store %6173, %523[%6176] : memref<?xf32, #amdgpu.address_space<fat_raw_buffer>>, vector<1xf32>
        %6177 = vector.extract_strided_slice %495 {offsets = [15], sizes = [1], strides = [1]} : vector<16xf32> to vector<1xf32>
        %6178 = arith.andi %1505, %5279 : i1
        %6179 = arith.addi %5282, %254 overflow<nsw> : index
        %6180 = arith.select %6178, %6179, %c536870911 : index
        vector.store %6177, %523[%6180] : memref<?xf32, #amdgpu.address_space<fat_raw_buffer>>, vector<1xf32>
        %6181 = vector.extract_strided_slice %497 {offsets = [0], sizes = [1], strides = [1]} : vector<16xf32> to vector<1xf32>
        %6182 = arith.andi %1571, %5159 : i1
        %6183 = arith.addi %5162, %258 overflow<nsw> : index
        %6184 = arith.select %6182, %6183, %c536870911 : index
        vector.store %6181, %523[%6184] : memref<?xf32, #amdgpu.address_space<fat_raw_buffer>>, vector<1xf32>
        %6185 = vector.extract_strided_slice %497 {offsets = [1], sizes = [1], strides = [1]} : vector<16xf32> to vector<1xf32>
        %6186 = arith.andi %1571, %5167 : i1
        %6187 = arith.addi %5170, %258 overflow<nsw> : index
        %6188 = arith.select %6186, %6187, %c536870911 : index
        vector.store %6185, %523[%6188] : memref<?xf32, #amdgpu.address_space<fat_raw_buffer>>, vector<1xf32>
        %6189 = vector.extract_strided_slice %497 {offsets = [2], sizes = [1], strides = [1]} : vector<16xf32> to vector<1xf32>
        %6190 = arith.andi %1571, %5175 : i1
        %6191 = arith.addi %5178, %258 overflow<nsw> : index
        %6192 = arith.select %6190, %6191, %c536870911 : index
        vector.store %6189, %523[%6192] : memref<?xf32, #amdgpu.address_space<fat_raw_buffer>>, vector<1xf32>
        %6193 = vector.extract_strided_slice %497 {offsets = [3], sizes = [1], strides = [1]} : vector<16xf32> to vector<1xf32>
        %6194 = arith.andi %1571, %5183 : i1
        %6195 = arith.addi %5186, %258 overflow<nsw> : index
        %6196 = arith.select %6194, %6195, %c536870911 : index
        vector.store %6193, %523[%6196] : memref<?xf32, #amdgpu.address_space<fat_raw_buffer>>, vector<1xf32>
        %6197 = vector.extract_strided_slice %497 {offsets = [4], sizes = [1], strides = [1]} : vector<16xf32> to vector<1xf32>
        %6198 = arith.andi %1571, %5191 : i1
        %6199 = arith.addi %5194, %258 overflow<nsw> : index
        %6200 = arith.select %6198, %6199, %c536870911 : index
        vector.store %6197, %523[%6200] : memref<?xf32, #amdgpu.address_space<fat_raw_buffer>>, vector<1xf32>
        %6201 = vector.extract_strided_slice %497 {offsets = [5], sizes = [1], strides = [1]} : vector<16xf32> to vector<1xf32>
        %6202 = arith.andi %1571, %5199 : i1
        %6203 = arith.addi %5202, %258 overflow<nsw> : index
        %6204 = arith.select %6202, %6203, %c536870911 : index
        vector.store %6201, %523[%6204] : memref<?xf32, #amdgpu.address_space<fat_raw_buffer>>, vector<1xf32>
        %6205 = vector.extract_strided_slice %497 {offsets = [6], sizes = [1], strides = [1]} : vector<16xf32> to vector<1xf32>
        %6206 = arith.andi %1571, %5207 : i1
        %6207 = arith.addi %5210, %258 overflow<nsw> : index
        %6208 = arith.select %6206, %6207, %c536870911 : index
        vector.store %6205, %523[%6208] : memref<?xf32, #amdgpu.address_space<fat_raw_buffer>>, vector<1xf32>
        %6209 = vector.extract_strided_slice %497 {offsets = [7], sizes = [1], strides = [1]} : vector<16xf32> to vector<1xf32>
        %6210 = arith.andi %1571, %5215 : i1
        %6211 = arith.addi %5218, %258 overflow<nsw> : index
        %6212 = arith.select %6210, %6211, %c536870911 : index
        vector.store %6209, %523[%6212] : memref<?xf32, #amdgpu.address_space<fat_raw_buffer>>, vector<1xf32>
        %6213 = vector.extract_strided_slice %497 {offsets = [8], sizes = [1], strides = [1]} : vector<16xf32> to vector<1xf32>
        %6214 = arith.andi %1571, %5223 : i1
        %6215 = arith.addi %5226, %258 overflow<nsw> : index
        %6216 = arith.select %6214, %6215, %c536870911 : index
        vector.store %6213, %523[%6216] : memref<?xf32, #amdgpu.address_space<fat_raw_buffer>>, vector<1xf32>
        %6217 = vector.extract_strided_slice %497 {offsets = [9], sizes = [1], strides = [1]} : vector<16xf32> to vector<1xf32>
        %6218 = arith.andi %1571, %5231 : i1
        %6219 = arith.addi %5234, %258 overflow<nsw> : index
        %6220 = arith.select %6218, %6219, %c536870911 : index
        vector.store %6217, %523[%6220] : memref<?xf32, #amdgpu.address_space<fat_raw_buffer>>, vector<1xf32>
        %6221 = vector.extract_strided_slice %497 {offsets = [10], sizes = [1], strides = [1]} : vector<16xf32> to vector<1xf32>
        %6222 = arith.andi %1571, %5239 : i1
        %6223 = arith.addi %5242, %258 overflow<nsw> : index
        %6224 = arith.select %6222, %6223, %c536870911 : index
        vector.store %6221, %523[%6224] : memref<?xf32, #amdgpu.address_space<fat_raw_buffer>>, vector<1xf32>
        %6225 = vector.extract_strided_slice %497 {offsets = [11], sizes = [1], strides = [1]} : vector<16xf32> to vector<1xf32>
        %6226 = arith.andi %1571, %5247 : i1
        %6227 = arith.addi %5250, %258 overflow<nsw> : index
        %6228 = arith.select %6226, %6227, %c536870911 : index
        vector.store %6225, %523[%6228] : memref<?xf32, #amdgpu.address_space<fat_raw_buffer>>, vector<1xf32>
        %6229 = vector.extract_strided_slice %497 {offsets = [12], sizes = [1], strides = [1]} : vector<16xf32> to vector<1xf32>
        %6230 = arith.andi %1571, %5255 : i1
        %6231 = arith.addi %5258, %258 overflow<nsw> : index
        %6232 = arith.select %6230, %6231, %c536870911 : index
        vector.store %6229, %523[%6232] : memref<?xf32, #amdgpu.address_space<fat_raw_buffer>>, vector<1xf32>
        %6233 = vector.extract_strided_slice %497 {offsets = [13], sizes = [1], strides = [1]} : vector<16xf32> to vector<1xf32>
        %6234 = arith.andi %1571, %5263 : i1
        %6235 = arith.addi %5266, %258 overflow<nsw> : index
        %6236 = arith.select %6234, %6235, %c536870911 : index
        vector.store %6233, %523[%6236] : memref<?xf32, #amdgpu.address_space<fat_raw_buffer>>, vector<1xf32>
        %6237 = vector.extract_strided_slice %497 {offsets = [14], sizes = [1], strides = [1]} : vector<16xf32> to vector<1xf32>
        %6238 = arith.andi %1571, %5271 : i1
        %6239 = arith.addi %5274, %258 overflow<nsw> : index
        %6240 = arith.select %6238, %6239, %c536870911 : index
        vector.store %6237, %523[%6240] : memref<?xf32, #amdgpu.address_space<fat_raw_buffer>>, vector<1xf32>
        %6241 = vector.extract_strided_slice %497 {offsets = [15], sizes = [1], strides = [1]} : vector<16xf32> to vector<1xf32>
        %6242 = arith.andi %1571, %5279 : i1
        %6243 = arith.addi %5282, %258 overflow<nsw> : index
        %6244 = arith.select %6242, %6243, %c536870911 : index
        vector.store %6241, %523[%6244] : memref<?xf32, #amdgpu.address_space<fat_raw_buffer>>, vector<1xf32>
        %6245 = vector.extract_strided_slice %499 {offsets = [0], sizes = [1], strides = [1]} : vector<16xf32> to vector<1xf32>
        %6246 = arith.andi %1637, %5159 : i1
        %6247 = arith.addi %5162, %262 overflow<nsw> : index
        %6248 = arith.select %6246, %6247, %c536870911 : index
        vector.store %6245, %523[%6248] : memref<?xf32, #amdgpu.address_space<fat_raw_buffer>>, vector<1xf32>
        %6249 = vector.extract_strided_slice %499 {offsets = [1], sizes = [1], strides = [1]} : vector<16xf32> to vector<1xf32>
        %6250 = arith.andi %1637, %5167 : i1
        %6251 = arith.addi %5170, %262 overflow<nsw> : index
        %6252 = arith.select %6250, %6251, %c536870911 : index
        vector.store %6249, %523[%6252] : memref<?xf32, #amdgpu.address_space<fat_raw_buffer>>, vector<1xf32>
        %6253 = vector.extract_strided_slice %499 {offsets = [2], sizes = [1], strides = [1]} : vector<16xf32> to vector<1xf32>
        %6254 = arith.andi %1637, %5175 : i1
        %6255 = arith.addi %5178, %262 overflow<nsw> : index
        %6256 = arith.select %6254, %6255, %c536870911 : index
        vector.store %6253, %523[%6256] : memref<?xf32, #amdgpu.address_space<fat_raw_buffer>>, vector<1xf32>
        %6257 = vector.extract_strided_slice %499 {offsets = [3], sizes = [1], strides = [1]} : vector<16xf32> to vector<1xf32>
        %6258 = arith.andi %1637, %5183 : i1
        %6259 = arith.addi %5186, %262 overflow<nsw> : index
        %6260 = arith.select %6258, %6259, %c536870911 : index
        vector.store %6257, %523[%6260] : memref<?xf32, #amdgpu.address_space<fat_raw_buffer>>, vector<1xf32>
        %6261 = vector.extract_strided_slice %499 {offsets = [4], sizes = [1], strides = [1]} : vector<16xf32> to vector<1xf32>
        %6262 = arith.andi %1637, %5191 : i1
        %6263 = arith.addi %5194, %262 overflow<nsw> : index
        %6264 = arith.select %6262, %6263, %c536870911 : index
        vector.store %6261, %523[%6264] : memref<?xf32, #amdgpu.address_space<fat_raw_buffer>>, vector<1xf32>
        %6265 = vector.extract_strided_slice %499 {offsets = [5], sizes = [1], strides = [1]} : vector<16xf32> to vector<1xf32>
        %6266 = arith.andi %1637, %5199 : i1
        %6267 = arith.addi %5202, %262 overflow<nsw> : index
        %6268 = arith.select %6266, %6267, %c536870911 : index
        vector.store %6265, %523[%6268] : memref<?xf32, #amdgpu.address_space<fat_raw_buffer>>, vector<1xf32>
        %6269 = vector.extract_strided_slice %499 {offsets = [6], sizes = [1], strides = [1]} : vector<16xf32> to vector<1xf32>
        %6270 = arith.andi %1637, %5207 : i1
        %6271 = arith.addi %5210, %262 overflow<nsw> : index
        %6272 = arith.select %6270, %6271, %c536870911 : index
        vector.store %6269, %523[%6272] : memref<?xf32, #amdgpu.address_space<fat_raw_buffer>>, vector<1xf32>
        %6273 = vector.extract_strided_slice %499 {offsets = [7], sizes = [1], strides = [1]} : vector<16xf32> to vector<1xf32>
        %6274 = arith.andi %1637, %5215 : i1
        %6275 = arith.addi %5218, %262 overflow<nsw> : index
        %6276 = arith.select %6274, %6275, %c536870911 : index
        vector.store %6273, %523[%6276] : memref<?xf32, #amdgpu.address_space<fat_raw_buffer>>, vector<1xf32>
        %6277 = vector.extract_strided_slice %499 {offsets = [8], sizes = [1], strides = [1]} : vector<16xf32> to vector<1xf32>
        %6278 = arith.andi %1637, %5223 : i1
        %6279 = arith.addi %5226, %262 overflow<nsw> : index
        %6280 = arith.select %6278, %6279, %c536870911 : index
        vector.store %6277, %523[%6280] : memref<?xf32, #amdgpu.address_space<fat_raw_buffer>>, vector<1xf32>
        %6281 = vector.extract_strided_slice %499 {offsets = [9], sizes = [1], strides = [1]} : vector<16xf32> to vector<1xf32>
        %6282 = arith.andi %1637, %5231 : i1
        %6283 = arith.addi %5234, %262 overflow<nsw> : index
        %6284 = arith.select %6282, %6283, %c536870911 : index
        vector.store %6281, %523[%6284] : memref<?xf32, #amdgpu.address_space<fat_raw_buffer>>, vector<1xf32>
        %6285 = vector.extract_strided_slice %499 {offsets = [10], sizes = [1], strides = [1]} : vector<16xf32> to vector<1xf32>
        %6286 = arith.andi %1637, %5239 : i1
        %6287 = arith.addi %5242, %262 overflow<nsw> : index
        %6288 = arith.select %6286, %6287, %c536870911 : index
        vector.store %6285, %523[%6288] : memref<?xf32, #amdgpu.address_space<fat_raw_buffer>>, vector<1xf32>
        %6289 = vector.extract_strided_slice %499 {offsets = [11], sizes = [1], strides = [1]} : vector<16xf32> to vector<1xf32>
        %6290 = arith.andi %1637, %5247 : i1
        %6291 = arith.addi %5250, %262 overflow<nsw> : index
        %6292 = arith.select %6290, %6291, %c536870911 : index
        vector.store %6289, %523[%6292] : memref<?xf32, #amdgpu.address_space<fat_raw_buffer>>, vector<1xf32>
        %6293 = vector.extract_strided_slice %499 {offsets = [12], sizes = [1], strides = [1]} : vector<16xf32> to vector<1xf32>
        %6294 = arith.andi %1637, %5255 : i1
        %6295 = arith.addi %5258, %262 overflow<nsw> : index
        %6296 = arith.select %6294, %6295, %c536870911 : index
        vector.store %6293, %523[%6296] : memref<?xf32, #amdgpu.address_space<fat_raw_buffer>>, vector<1xf32>
        %6297 = vector.extract_strided_slice %499 {offsets = [13], sizes = [1], strides = [1]} : vector<16xf32> to vector<1xf32>
        %6298 = arith.andi %1637, %5263 : i1
        %6299 = arith.addi %5266, %262 overflow<nsw> : index
        %6300 = arith.select %6298, %6299, %c536870911 : index
        vector.store %6297, %523[%6300] : memref<?xf32, #amdgpu.address_space<fat_raw_buffer>>, vector<1xf32>
        %6301 = vector.extract_strided_slice %499 {offsets = [14], sizes = [1], strides = [1]} : vector<16xf32> to vector<1xf32>
        %6302 = arith.andi %1637, %5271 : i1
        %6303 = arith.addi %5274, %262 overflow<nsw> : index
        %6304 = arith.select %6302, %6303, %c536870911 : index
        vector.store %6301, %523[%6304] : memref<?xf32, #amdgpu.address_space<fat_raw_buffer>>, vector<1xf32>
        %6305 = vector.extract_strided_slice %499 {offsets = [15], sizes = [1], strides = [1]} : vector<16xf32> to vector<1xf32>
        %6306 = arith.andi %1637, %5279 : i1
        %6307 = arith.addi %5282, %262 overflow<nsw> : index
        %6308 = arith.select %6306, %6307, %c536870911 : index
        vector.store %6305, %523[%6308] : memref<?xf32, #amdgpu.address_space<fat_raw_buffer>>, vector<1xf32>
        return
      }
    }
  }
  func.func @isolated_benchmark(%arg0: tensor<706x14336xf16>, %arg1: tensor<4096x14336xf16>, %arg2: tensor<706x4096xf32>) -> tensor<706x4096xf32> {
    %0 = flow.dispatch @gemm::@gemm(%arg0, %arg1, %arg2) : (tensor<706x14336xf16>, tensor<4096x14336xf16>, tensor<706x4096xf32>) -> %arg2
    return %0 : tensor<706x4096xf32>
  }
}
