#map = affine_map<()[s0, s1] -> ((s0 * 2 + s1) mod 8)>
#map1 = affine_map<()[s0, s1, s2, s3, s4] -> ((s1 * 128 + s0 floordiv 2) mod 564 + ((s4 + (s2 + s3 * 2) floordiv 8) floordiv 2) * 564)>
#map2 = affine_map<()[s0] -> (s0 * 8 - (s0 floordiv 2) * 16)>
#map3 = affine_map<()[s0, s1, s2, s3, s4] -> (s1 * 128 + s0 floordiv 2 - ((s1 * 128 + s0 floordiv 2 + 256) floordiv 564) * 564 + ((s4 + (s2 + s3 * 2) floordiv 8) floordiv 2) * 564 + 256)>
#map4 = affine_map<()[s0, s1, s2, s3, s4] -> (s1 * 128 + s0 floordiv 2 - ((s1 * 128 + s0 floordiv 2 + 512) floordiv 564) * 564 + ((s4 + (s2 + s3 * 2) floordiv 8) floordiv 2) * 564 + 512)>
#map5 = affine_map<()[s0, s1, s2, s3, s4] -> (s1 * 128 + s4 * 772 + s0 floordiv 2 - ((s1 * 128 + s0 floordiv 2) floordiv 772) * 772 + ((s2 + s3 * 2) floordiv 8) * 772 - ((s4 + (s2 + s3 * 2) floordiv 8) floordiv 2) * 1544)>
#map6 = affine_map<()[s0, s1, s2, s3, s4] -> (s1 * 128 + s4 * 772 + s0 floordiv 2 - ((s1 * 128 + s0 floordiv 2 + 256) floordiv 772) * 772 + ((s2 + s3 * 2) floordiv 8) * 772 - ((s4 + (s2 + s3 * 2) floordiv 8) floordiv 2) * 1544 + 256)>
#map7 = affine_map<()[s0, s1, s2, s3, s4] -> (s1 * 128 + s4 * 772 + s0 floordiv 2 - ((s1 * 128 + s0 floordiv 2 + 512) floordiv 772) * 772 + ((s2 + s3 * 2) floordiv 8) * 772 - ((s4 + (s2 + s3 * 2) floordiv 8) floordiv 2) * 1544 + 512)>
#map8 = affine_map<()[s0, s1, s2, s3, s4] -> (s1 * 128 + s4 * 772 + s0 floordiv 2 - ((s1 * 128 + s0 floordiv 2 + 768) floordiv 772) * 772 + ((s2 + s3 * 2) floordiv 8) * 772 - ((s4 + (s2 + s3 * 2) floordiv 8) floordiv 2) * 1544 + 768)>
#map9 = affine_map<()[s0] -> ((s0 floordiv 64) * 141 + 141)>
#map10 = affine_map<()[s0, s1] -> ((s1 * 128 + s0 floordiv 2) mod 564)>
#map11 = affine_map<()[s0, s1] -> (s1 * 128 + s0 floordiv 2 - ((s1 * 128 + s0 floordiv 2 + 256) floordiv 564) * 564 + 256)>
#map12 = affine_map<()[s0, s1] -> (s1 * 128 + s0 floordiv 2 - ((s1 * 128 + s0 floordiv 2 + 512) floordiv 564) * 564 + 512)>
#map13 = affine_map<()[s0] -> (s0 * 386 + 386)>
#map14 = affine_map<()[s0, s1] -> ((s1 * 128 + s0 floordiv 2) mod 772)>
#map15 = affine_map<()[s0, s1] -> (s1 * 128 + s0 floordiv 2 - ((s1 * 128 + s0 floordiv 2 + 256) floordiv 772) * 772 + 256)>
#map16 = affine_map<()[s0, s1] -> (s1 * 128 + s0 floordiv 2 - ((s1 * 128 + s0 floordiv 2 + 512) floordiv 772) * 772 + 512)>
#map17 = affine_map<()[s0, s1] -> (s1 * 128 + s0 floordiv 2 - ((s1 * 128 + s0 floordiv 2 + 768) floordiv 772) * 772 + 768)>
#map18 = affine_map<()[s0, s1] -> (s0 + s1 * 386 - (s0 floordiv 32) * 32)>
#map19 = affine_map<()[s0] -> (((s0 mod 64) floordiv 32) * 8)>
#map20 = affine_map<()[s0, s1] -> (s0 + s1 * 386 - (s0 floordiv 32) * 32 + 32)>
#map21 = affine_map<()[s0, s1] -> (s0 + s1 * 386 - (s0 floordiv 32) * 32 + 64)>
#map22 = affine_map<()[s0, s1] -> (s0 + s1 * 386 - (s0 floordiv 32) * 32 + 96)>
#map23 = affine_map<()[s0, s1] -> (s0 + s1 * 386 - (s0 floordiv 32) * 32 + 128)>
#map24 = affine_map<()[s0, s1] -> (s0 + s1 * 386 - (s0 floordiv 32) * 32 + 160)>
#map25 = affine_map<()[s0, s1] -> (s0 + s1 * 386 - (s0 floordiv 32) * 32 + 192)>
#map26 = affine_map<()[s0, s1] -> (s0 + s1 * 386 - (s0 floordiv 32) * 32 + 224)>
#map27 = affine_map<()[s0, s1] -> (s0 + s1 * 386 - (s0 floordiv 32) * 32 + 256)>
#map28 = affine_map<()[s0, s1] -> (s0 + s1 * 386 - (s0 floordiv 32) * 32 + 288)>
#map29 = affine_map<()[s0, s1] -> (s0 + s1 * 386 - (s0 floordiv 32) * 32 + 320)>
#map30 = affine_map<()[s0, s1] -> (s0 + s1 * 386 - (s0 floordiv 32) * 32 + 352)>
#map31 = affine_map<()[s0, s1] -> (s0 + s1 * 386 - (s0 floordiv 32) * 32 + 384)>
#map32 = affine_map<()[s0] -> (s0 mod 32 + (s0 floordiv 64) * 141)>
#map33 = affine_map<()[s0] -> (s0 mod 32 + (s0 floordiv 64) * 141 + 32)>
#map34 = affine_map<()[s0] -> (s0 mod 32 + (s0 floordiv 64) * 141 + 64)>
#map35 = affine_map<()[s0] -> (s0 mod 32 + (s0 floordiv 64) * 141 + 96)>
#map36 = affine_map<()[s0] -> (s0 mod 32 + (s0 floordiv 64) * 141 + 128)>
#map37 = affine_map<()[s0, s1] -> (s0 * 16 + s1 * 8 - (s1 floordiv 2) * 16 + 16)>
#map38 = affine_map<()[s0, s1] -> (s0 * 772 + s1 * 386 + 386)>
#map39 = affine_map<()[s0] -> (s0 * 772 + 772)>
#map40 = affine_map<()[s0, s1, s2, s3, s4] -> (s0 + s3 * 772 + s4 * 386 - (s0 floordiv 32) * 32 + ((s1 + s2 * 2) floordiv 8) * 772 - ((s3 + (s1 + s2 * 2) floordiv 8) floordiv 2) * 1544)>
#map41 = affine_map<()[s0, s1] -> (s0 * 564 + (s1 floordiv 64) * 141 + 141)>
#map42 = affine_map<()[s0] -> (s0 * 564 + 564)>
#map43 = affine_map<()[s0, s1, s2, s3] -> (((s2 + (s0 + s1 * 2) floordiv 8) floordiv 2) * 564 + (s3 floordiv 64) * 141 + ((s3 mod 64) floordiv 32) * 4)>
#map44 = affine_map<()[s0, s1, s2] -> (((s2 + (s0 + s1 * 2) floordiv 8) floordiv 2) * 564)>
#map45 = affine_map<()[s0, s1, s2] -> (s2 * 772 + ((s0 + s1 * 2) floordiv 8) * 772 - ((s2 + (s0 + s1 * 2) floordiv 8) floordiv 2) * 1544)>
#map46 = affine_map<()[s0] -> ((s0 floordiv 64) * 141 + ((s0 mod 64) floordiv 32) * 4)>
#map47 = affine_map<()[s0, s1, s2, s3] -> (((s2 + (s0 + s1 * 2) floordiv 8) floordiv 2) * 564 + (s3 floordiv 64) * 141 + ((s3 mod 64) floordiv 32) * 4 + 1)>
#map48 = affine_map<()[s0] -> ((s0 floordiv 64) * 141 + ((s0 mod 64) floordiv 32) * 4 + 1)>
#map49 = affine_map<()[s0, s1, s2, s3] -> (((s2 + (s0 + s1 * 2) floordiv 8) floordiv 2) * 564 + (s3 floordiv 64) * 141 + ((s3 mod 64) floordiv 32) * 4 + 2)>
#map50 = affine_map<()[s0] -> ((s0 floordiv 64) * 141 + ((s0 mod 64) floordiv 32) * 4 + 2)>
#map51 = affine_map<()[s0, s1, s2, s3] -> (((s2 + (s0 + s1 * 2) floordiv 8) floordiv 2) * 564 + (s3 floordiv 64) * 141 + ((s3 mod 64) floordiv 32) * 4 + 3)>
#map52 = affine_map<()[s0] -> ((s0 floordiv 64) * 141 + ((s0 mod 64) floordiv 32) * 4 + 3)>
#map53 = affine_map<()[s0, s1, s2, s3] -> (((s2 + (s0 + s1 * 2) floordiv 8) floordiv 2) * 564 + (s3 floordiv 64) * 141 + ((s3 mod 64) floordiv 32) * 4 + 8)>
#map54 = affine_map<()[s0] -> ((s0 floordiv 64) * 141 + ((s0 mod 64) floordiv 32) * 4 + 8)>
#map55 = affine_map<()[s0, s1, s2, s3] -> (((s2 + (s0 + s1 * 2) floordiv 8) floordiv 2) * 564 + (s3 floordiv 64) * 141 + ((s3 mod 64) floordiv 32) * 4 + 9)>
#map56 = affine_map<()[s0] -> ((s0 floordiv 64) * 141 + ((s0 mod 64) floordiv 32) * 4 + 9)>
#map57 = affine_map<()[s0, s1, s2, s3] -> (((s2 + (s0 + s1 * 2) floordiv 8) floordiv 2) * 564 + (s3 floordiv 64) * 141 + ((s3 mod 64) floordiv 32) * 4 + 10)>
#map58 = affine_map<()[s0] -> ((s0 floordiv 64) * 141 + ((s0 mod 64) floordiv 32) * 4 + 10)>
#map59 = affine_map<()[s0, s1, s2, s3] -> (((s2 + (s0 + s1 * 2) floordiv 8) floordiv 2) * 564 + (s3 floordiv 64) * 141 + ((s3 mod 64) floordiv 32) * 4 + 11)>
#map60 = affine_map<()[s0] -> ((s0 floordiv 64) * 141 + ((s0 mod 64) floordiv 32) * 4 + 11)>
#map61 = affine_map<()[s0, s1, s2, s3] -> (((s2 + (s0 + s1 * 2) floordiv 8) floordiv 2) * 564 + (s3 floordiv 64) * 141 + ((s3 mod 64) floordiv 32) * 4 + 16)>
#map62 = affine_map<()[s0] -> ((s0 floordiv 64) * 141 + ((s0 mod 64) floordiv 32) * 4 + 16)>
#map63 = affine_map<()[s0, s1, s2, s3] -> (((s2 + (s0 + s1 * 2) floordiv 8) floordiv 2) * 564 + (s3 floordiv 64) * 141 + ((s3 mod 64) floordiv 32) * 4 + 17)>
#map64 = affine_map<()[s0] -> ((s0 floordiv 64) * 141 + ((s0 mod 64) floordiv 32) * 4 + 17)>
#map65 = affine_map<()[s0, s1, s2, s3] -> (((s2 + (s0 + s1 * 2) floordiv 8) floordiv 2) * 564 + (s3 floordiv 64) * 141 + ((s3 mod 64) floordiv 32) * 4 + 18)>
#map66 = affine_map<()[s0] -> ((s0 floordiv 64) * 141 + ((s0 mod 64) floordiv 32) * 4 + 18)>
#map67 = affine_map<()[s0, s1, s2, s3] -> (((s2 + (s0 + s1 * 2) floordiv 8) floordiv 2) * 564 + (s3 floordiv 64) * 141 + ((s3 mod 64) floordiv 32) * 4 + 19)>
#map68 = affine_map<()[s0] -> ((s0 floordiv 64) * 141 + ((s0 mod 64) floordiv 32) * 4 + 19)>
#map69 = affine_map<()[s0, s1, s2, s3] -> (((s2 + (s0 + s1 * 2) floordiv 8) floordiv 2) * 564 + (s3 floordiv 64) * 141 + ((s3 mod 64) floordiv 32) * 4 + 24)>
#map70 = affine_map<()[s0] -> ((s0 floordiv 64) * 141 + ((s0 mod 64) floordiv 32) * 4 + 24)>
#map71 = affine_map<()[s0, s1, s2, s3] -> (((s2 + (s0 + s1 * 2) floordiv 8) floordiv 2) * 564 + (s3 floordiv 64) * 141 + ((s3 mod 64) floordiv 32) * 4 + 25)>
#map72 = affine_map<()[s0] -> ((s0 floordiv 64) * 141 + ((s0 mod 64) floordiv 32) * 4 + 25)>
#map73 = affine_map<()[s0, s1, s2, s3] -> (((s2 + (s0 + s1 * 2) floordiv 8) floordiv 2) * 564 + (s3 floordiv 64) * 141 + ((s3 mod 64) floordiv 32) * 4 + 26)>
#map74 = affine_map<()[s0] -> ((s0 floordiv 64) * 141 + ((s0 mod 64) floordiv 32) * 4 + 26)>
#map75 = affine_map<()[s0, s1, s2, s3] -> (((s2 + (s0 + s1 * 2) floordiv 8) floordiv 2) * 564 + (s3 floordiv 64) * 141 + ((s3 mod 64) floordiv 32) * 4 + 27)>
#map76 = affine_map<()[s0] -> ((s0 floordiv 64) * 141 + ((s0 mod 64) floordiv 32) * 4 + 27)>
#map77 = affine_map<()[s0, s1, s2, s3, s4] -> (s0 + s3 * 772 + s4 * 386 - (s0 floordiv 32) * 32 + ((s1 + s2 * 2) floordiv 8) * 772 - ((s3 + (s1 + s2 * 2) floordiv 8) floordiv 2) * 1544 + 32)>
#map78 = affine_map<()[s0, s1, s2, s3, s4] -> (s0 + s3 * 772 + s4 * 386 - (s0 floordiv 32) * 32 + ((s1 + s2 * 2) floordiv 8) * 772 - ((s3 + (s1 + s2 * 2) floordiv 8) floordiv 2) * 1544 + 64)>
#map79 = affine_map<()[s0, s1, s2, s3, s4] -> (s0 + s3 * 772 + s4 * 386 - (s0 floordiv 32) * 32 + ((s1 + s2 * 2) floordiv 8) * 772 - ((s3 + (s1 + s2 * 2) floordiv 8) floordiv 2) * 1544 + 96)>
#map80 = affine_map<()[s0, s1, s2, s3, s4] -> (s0 + s3 * 772 + s4 * 386 - (s0 floordiv 32) * 32 + ((s1 + s2 * 2) floordiv 8) * 772 - ((s3 + (s1 + s2 * 2) floordiv 8) floordiv 2) * 1544 + 128)>
#map81 = affine_map<()[s0, s1, s2, s3, s4] -> (s0 + s3 * 772 + s4 * 386 - (s0 floordiv 32) * 32 + ((s1 + s2 * 2) floordiv 8) * 772 - ((s3 + (s1 + s2 * 2) floordiv 8) floordiv 2) * 1544 + 160)>
#map82 = affine_map<()[s0, s1, s2, s3, s4] -> (s0 + s3 * 772 + s4 * 386 - (s0 floordiv 32) * 32 + ((s1 + s2 * 2) floordiv 8) * 772 - ((s3 + (s1 + s2 * 2) floordiv 8) floordiv 2) * 1544 + 192)>
#map83 = affine_map<()[s0, s1, s2, s3, s4] -> (s0 + s3 * 772 + s4 * 386 - (s0 floordiv 32) * 32 + ((s1 + s2 * 2) floordiv 8) * 772 - ((s3 + (s1 + s2 * 2) floordiv 8) floordiv 2) * 1544 + 224)>
#map84 = affine_map<()[s0, s1, s2, s3, s4] -> (s0 + s3 * 772 + s4 * 386 - (s0 floordiv 32) * 32 + ((s1 + s2 * 2) floordiv 8) * 772 - ((s3 + (s1 + s2 * 2) floordiv 8) floordiv 2) * 1544 + 256)>
#map85 = affine_map<()[s0, s1, s2, s3, s4] -> (s0 + s3 * 772 + s4 * 386 - (s0 floordiv 32) * 32 + ((s1 + s2 * 2) floordiv 8) * 772 - ((s3 + (s1 + s2 * 2) floordiv 8) floordiv 2) * 1544 + 288)>
#map86 = affine_map<()[s0, s1, s2, s3, s4] -> (s0 + s3 * 772 + s4 * 386 - (s0 floordiv 32) * 32 + ((s1 + s2 * 2) floordiv 8) * 772 - ((s3 + (s1 + s2 * 2) floordiv 8) floordiv 2) * 1544 + 320)>
#map87 = affine_map<()[s0, s1, s2, s3, s4] -> (s0 + s3 * 772 + s4 * 386 - (s0 floordiv 32) * 32 + ((s1 + s2 * 2) floordiv 8) * 772 - ((s3 + (s1 + s2 * 2) floordiv 8) floordiv 2) * 1544 + 352)>
#map88 = affine_map<()[s0, s1, s2, s3, s4] -> (s0 + s3 * 772 + s4 * 386 - (s0 floordiv 32) * 32 + ((s1 + s2 * 2) floordiv 8) * 772 - ((s3 + (s1 + s2 * 2) floordiv 8) floordiv 2) * 1544 + 384)>
#map89 = affine_map<()[s0, s1, s2, s3] -> (((s2 + (s0 + s1 * 2) floordiv 8) floordiv 2) * 564 + (s3 floordiv 64) * 141 + ((s3 mod 64) floordiv 32) * 4 + 32)>
#map90 = affine_map<()[s0] -> ((s0 floordiv 64) * 141 + ((s0 mod 64) floordiv 32) * 4 + 32)>
#map91 = affine_map<()[s0, s1, s2, s3] -> (((s2 + (s0 + s1 * 2) floordiv 8) floordiv 2) * 564 + (s3 floordiv 64) * 141 + ((s3 mod 64) floordiv 32) * 4 + 33)>
#map92 = affine_map<()[s0] -> ((s0 floordiv 64) * 141 + ((s0 mod 64) floordiv 32) * 4 + 33)>
#map93 = affine_map<()[s0, s1, s2, s3] -> (((s2 + (s0 + s1 * 2) floordiv 8) floordiv 2) * 564 + (s3 floordiv 64) * 141 + ((s3 mod 64) floordiv 32) * 4 + 34)>
#map94 = affine_map<()[s0] -> ((s0 floordiv 64) * 141 + ((s0 mod 64) floordiv 32) * 4 + 34)>
#map95 = affine_map<()[s0, s1, s2, s3] -> (((s2 + (s0 + s1 * 2) floordiv 8) floordiv 2) * 564 + (s3 floordiv 64) * 141 + ((s3 mod 64) floordiv 32) * 4 + 35)>
#map96 = affine_map<()[s0] -> ((s0 floordiv 64) * 141 + ((s0 mod 64) floordiv 32) * 4 + 35)>
#map97 = affine_map<()[s0, s1, s2, s3] -> (((s2 + (s0 + s1 * 2) floordiv 8) floordiv 2) * 564 + (s3 floordiv 64) * 141 + ((s3 mod 64) floordiv 32) * 4 + 40)>
#map98 = affine_map<()[s0] -> ((s0 floordiv 64) * 141 + ((s0 mod 64) floordiv 32) * 4 + 40)>
#map99 = affine_map<()[s0, s1, s2, s3] -> (((s2 + (s0 + s1 * 2) floordiv 8) floordiv 2) * 564 + (s3 floordiv 64) * 141 + ((s3 mod 64) floordiv 32) * 4 + 41)>
#map100 = affine_map<()[s0] -> ((s0 floordiv 64) * 141 + ((s0 mod 64) floordiv 32) * 4 + 41)>
#map101 = affine_map<()[s0, s1, s2, s3] -> (((s2 + (s0 + s1 * 2) floordiv 8) floordiv 2) * 564 + (s3 floordiv 64) * 141 + ((s3 mod 64) floordiv 32) * 4 + 42)>
#map102 = affine_map<()[s0] -> ((s0 floordiv 64) * 141 + ((s0 mod 64) floordiv 32) * 4 + 42)>
#map103 = affine_map<()[s0, s1, s2, s3] -> (((s2 + (s0 + s1 * 2) floordiv 8) floordiv 2) * 564 + (s3 floordiv 64) * 141 + ((s3 mod 64) floordiv 32) * 4 + 43)>
#map104 = affine_map<()[s0] -> ((s0 floordiv 64) * 141 + ((s0 mod 64) floordiv 32) * 4 + 43)>
#map105 = affine_map<()[s0, s1, s2, s3] -> (((s2 + (s0 + s1 * 2) floordiv 8) floordiv 2) * 564 + (s3 floordiv 64) * 141 + ((s3 mod 64) floordiv 32) * 4 + 48)>
#map106 = affine_map<()[s0] -> ((s0 floordiv 64) * 141 + ((s0 mod 64) floordiv 32) * 4 + 48)>
#map107 = affine_map<()[s0, s1, s2, s3] -> (((s2 + (s0 + s1 * 2) floordiv 8) floordiv 2) * 564 + (s3 floordiv 64) * 141 + ((s3 mod 64) floordiv 32) * 4 + 49)>
#map108 = affine_map<()[s0] -> ((s0 floordiv 64) * 141 + ((s0 mod 64) floordiv 32) * 4 + 49)>
#map109 = affine_map<()[s0, s1, s2, s3] -> (((s2 + (s0 + s1 * 2) floordiv 8) floordiv 2) * 564 + (s3 floordiv 64) * 141 + ((s3 mod 64) floordiv 32) * 4 + 50)>
#map110 = affine_map<()[s0] -> ((s0 floordiv 64) * 141 + ((s0 mod 64) floordiv 32) * 4 + 50)>
#map111 = affine_map<()[s0, s1, s2, s3] -> (((s2 + (s0 + s1 * 2) floordiv 8) floordiv 2) * 564 + (s3 floordiv 64) * 141 + ((s3 mod 64) floordiv 32) * 4 + 51)>
#map112 = affine_map<()[s0] -> ((s0 floordiv 64) * 141 + ((s0 mod 64) floordiv 32) * 4 + 51)>
#map113 = affine_map<()[s0, s1, s2, s3] -> (((s2 + (s0 + s1 * 2) floordiv 8) floordiv 2) * 564 + (s3 floordiv 64) * 141 + ((s3 mod 64) floordiv 32) * 4 + 56)>
#map114 = affine_map<()[s0] -> ((s0 floordiv 64) * 141 + ((s0 mod 64) floordiv 32) * 4 + 56)>
#map115 = affine_map<()[s0, s1, s2, s3] -> (((s2 + (s0 + s1 * 2) floordiv 8) floordiv 2) * 564 + (s3 floordiv 64) * 141 + ((s3 mod 64) floordiv 32) * 4 + 57)>
#map116 = affine_map<()[s0] -> ((s0 floordiv 64) * 141 + ((s0 mod 64) floordiv 32) * 4 + 57)>
#map117 = affine_map<()[s0, s1, s2, s3] -> (((s2 + (s0 + s1 * 2) floordiv 8) floordiv 2) * 564 + (s3 floordiv 64) * 141 + ((s3 mod 64) floordiv 32) * 4 + 58)>
#map118 = affine_map<()[s0] -> ((s0 floordiv 64) * 141 + ((s0 mod 64) floordiv 32) * 4 + 58)>
#map119 = affine_map<()[s0, s1, s2, s3] -> (((s2 + (s0 + s1 * 2) floordiv 8) floordiv 2) * 564 + (s3 floordiv 64) * 141 + ((s3 mod 64) floordiv 32) * 4 + 59)>
#map120 = affine_map<()[s0] -> ((s0 floordiv 64) * 141 + ((s0 mod 64) floordiv 32) * 4 + 59)>
#map121 = affine_map<()[s0, s1, s2, s3] -> (((s2 + (s0 + s1 * 2) floordiv 8) floordiv 2) * 564 + (s3 floordiv 64) * 141 + ((s3 mod 64) floordiv 32) * 4 + 64)>
#map122 = affine_map<()[s0] -> ((s0 floordiv 64) * 141 + ((s0 mod 64) floordiv 32) * 4 + 64)>
#map123 = affine_map<()[s0, s1, s2, s3] -> (((s2 + (s0 + s1 * 2) floordiv 8) floordiv 2) * 564 + (s3 floordiv 64) * 141 + ((s3 mod 64) floordiv 32) * 4 + 65)>
#map124 = affine_map<()[s0] -> ((s0 floordiv 64) * 141 + ((s0 mod 64) floordiv 32) * 4 + 65)>
#map125 = affine_map<()[s0, s1, s2, s3] -> (((s2 + (s0 + s1 * 2) floordiv 8) floordiv 2) * 564 + (s3 floordiv 64) * 141 + ((s3 mod 64) floordiv 32) * 4 + 66)>
#map126 = affine_map<()[s0] -> ((s0 floordiv 64) * 141 + ((s0 mod 64) floordiv 32) * 4 + 66)>
#map127 = affine_map<()[s0, s1, s2, s3] -> (((s2 + (s0 + s1 * 2) floordiv 8) floordiv 2) * 564 + (s3 floordiv 64) * 141 + ((s3 mod 64) floordiv 32) * 4 + 67)>
#map128 = affine_map<()[s0] -> ((s0 floordiv 64) * 141 + ((s0 mod 64) floordiv 32) * 4 + 67)>
#map129 = affine_map<()[s0, s1, s2, s3] -> (((s2 + (s0 + s1 * 2) floordiv 8) floordiv 2) * 564 + (s3 floordiv 64) * 141 + ((s3 mod 64) floordiv 32) * 4 + 72)>
#map130 = affine_map<()[s0] -> ((s0 floordiv 64) * 141 + ((s0 mod 64) floordiv 32) * 4 + 72)>
#map131 = affine_map<()[s0, s1, s2, s3] -> (((s2 + (s0 + s1 * 2) floordiv 8) floordiv 2) * 564 + (s3 floordiv 64) * 141 + ((s3 mod 64) floordiv 32) * 4 + 73)>
#map132 = affine_map<()[s0] -> ((s0 floordiv 64) * 141 + ((s0 mod 64) floordiv 32) * 4 + 73)>
#map133 = affine_map<()[s0, s1, s2, s3] -> (((s2 + (s0 + s1 * 2) floordiv 8) floordiv 2) * 564 + (s3 floordiv 64) * 141 + ((s3 mod 64) floordiv 32) * 4 + 74)>
#map134 = affine_map<()[s0] -> ((s0 floordiv 64) * 141 + ((s0 mod 64) floordiv 32) * 4 + 74)>
#map135 = affine_map<()[s0, s1, s2, s3] -> (((s2 + (s0 + s1 * 2) floordiv 8) floordiv 2) * 564 + (s3 floordiv 64) * 141 + ((s3 mod 64) floordiv 32) * 4 + 75)>
#map136 = affine_map<()[s0] -> ((s0 floordiv 64) * 141 + ((s0 mod 64) floordiv 32) * 4 + 75)>
#map137 = affine_map<()[s0, s1, s2, s3] -> (((s2 + (s0 + s1 * 2) floordiv 8) floordiv 2) * 564 + (s3 floordiv 64) * 141 + ((s3 mod 64) floordiv 32) * 4 + 80)>
#map138 = affine_map<()[s0] -> ((s0 floordiv 64) * 141 + ((s0 mod 64) floordiv 32) * 4 + 80)>
#map139 = affine_map<()[s0, s1, s2, s3] -> (((s2 + (s0 + s1 * 2) floordiv 8) floordiv 2) * 564 + (s3 floordiv 64) * 141 + ((s3 mod 64) floordiv 32) * 4 + 81)>
#map140 = affine_map<()[s0] -> ((s0 floordiv 64) * 141 + ((s0 mod 64) floordiv 32) * 4 + 81)>
#map141 = affine_map<()[s0, s1, s2, s3] -> (((s2 + (s0 + s1 * 2) floordiv 8) floordiv 2) * 564 + (s3 floordiv 64) * 141 + ((s3 mod 64) floordiv 32) * 4 + 82)>
#map142 = affine_map<()[s0] -> ((s0 floordiv 64) * 141 + ((s0 mod 64) floordiv 32) * 4 + 82)>
#map143 = affine_map<()[s0, s1, s2, s3] -> (((s2 + (s0 + s1 * 2) floordiv 8) floordiv 2) * 564 + (s3 floordiv 64) * 141 + ((s3 mod 64) floordiv 32) * 4 + 83)>
#map144 = affine_map<()[s0] -> ((s0 floordiv 64) * 141 + ((s0 mod 64) floordiv 32) * 4 + 83)>
#map145 = affine_map<()[s0, s1, s2, s3] -> (((s2 + (s0 + s1 * 2) floordiv 8) floordiv 2) * 564 + (s3 floordiv 64) * 141 + ((s3 mod 64) floordiv 32) * 4 + 88)>
#map146 = affine_map<()[s0] -> ((s0 floordiv 64) * 141 + ((s0 mod 64) floordiv 32) * 4 + 88)>
#map147 = affine_map<()[s0, s1, s2, s3] -> (((s2 + (s0 + s1 * 2) floordiv 8) floordiv 2) * 564 + (s3 floordiv 64) * 141 + ((s3 mod 64) floordiv 32) * 4 + 89)>
#map148 = affine_map<()[s0] -> ((s0 floordiv 64) * 141 + ((s0 mod 64) floordiv 32) * 4 + 89)>
#map149 = affine_map<()[s0, s1, s2, s3] -> (((s2 + (s0 + s1 * 2) floordiv 8) floordiv 2) * 564 + (s3 floordiv 64) * 141 + ((s3 mod 64) floordiv 32) * 4 + 90)>
#map150 = affine_map<()[s0] -> ((s0 floordiv 64) * 141 + ((s0 mod 64) floordiv 32) * 4 + 90)>
#map151 = affine_map<()[s0, s1, s2, s3] -> (((s2 + (s0 + s1 * 2) floordiv 8) floordiv 2) * 564 + (s3 floordiv 64) * 141 + ((s3 mod 64) floordiv 32) * 4 + 91)>
#map152 = affine_map<()[s0] -> ((s0 floordiv 64) * 141 + ((s0 mod 64) floordiv 32) * 4 + 91)>
#map153 = affine_map<()[s0, s1, s2, s3] -> (((s2 + (s0 + s1 * 2) floordiv 8) floordiv 2) * 564 + (s3 floordiv 64) * 141 + ((s3 mod 64) floordiv 32) * 4 + 96)>
#map154 = affine_map<()[s0] -> ((s0 floordiv 64) * 141 + ((s0 mod 64) floordiv 32) * 4 + 96)>
#map155 = affine_map<()[s0, s1, s2, s3] -> (((s2 + (s0 + s1 * 2) floordiv 8) floordiv 2) * 564 + (s3 floordiv 64) * 141 + ((s3 mod 64) floordiv 32) * 4 + 97)>
#map156 = affine_map<()[s0] -> ((s0 floordiv 64) * 141 + ((s0 mod 64) floordiv 32) * 4 + 97)>
#map157 = affine_map<()[s0, s1, s2, s3] -> (((s2 + (s0 + s1 * 2) floordiv 8) floordiv 2) * 564 + (s3 floordiv 64) * 141 + ((s3 mod 64) floordiv 32) * 4 + 98)>
#map158 = affine_map<()[s0] -> ((s0 floordiv 64) * 141 + ((s0 mod 64) floordiv 32) * 4 + 98)>
#map159 = affine_map<()[s0, s1, s2, s3] -> (((s2 + (s0 + s1 * 2) floordiv 8) floordiv 2) * 564 + (s3 floordiv 64) * 141 + ((s3 mod 64) floordiv 32) * 4 + 99)>
#map160 = affine_map<()[s0] -> ((s0 floordiv 64) * 141 + ((s0 mod 64) floordiv 32) * 4 + 99)>
#map161 = affine_map<()[s0, s1, s2, s3] -> (((s2 + (s0 + s1 * 2) floordiv 8) floordiv 2) * 564 + (s3 floordiv 64) * 141 + ((s3 mod 64) floordiv 32) * 4 + 104)>
#map162 = affine_map<()[s0] -> ((s0 floordiv 64) * 141 + ((s0 mod 64) floordiv 32) * 4 + 104)>
#map163 = affine_map<()[s0, s1, s2, s3] -> (((s2 + (s0 + s1 * 2) floordiv 8) floordiv 2) * 564 + (s3 floordiv 64) * 141 + ((s3 mod 64) floordiv 32) * 4 + 105)>
#map164 = affine_map<()[s0] -> ((s0 floordiv 64) * 141 + ((s0 mod 64) floordiv 32) * 4 + 105)>
#map165 = affine_map<()[s0, s1, s2, s3] -> (((s2 + (s0 + s1 * 2) floordiv 8) floordiv 2) * 564 + (s3 floordiv 64) * 141 + ((s3 mod 64) floordiv 32) * 4 + 106)>
#map166 = affine_map<()[s0] -> ((s0 floordiv 64) * 141 + ((s0 mod 64) floordiv 32) * 4 + 106)>
#map167 = affine_map<()[s0, s1, s2, s3] -> (((s2 + (s0 + s1 * 2) floordiv 8) floordiv 2) * 564 + (s3 floordiv 64) * 141 + ((s3 mod 64) floordiv 32) * 4 + 107)>
#map168 = affine_map<()[s0] -> ((s0 floordiv 64) * 141 + ((s0 mod 64) floordiv 32) * 4 + 107)>
#map169 = affine_map<()[s0, s1, s2, s3] -> (((s2 + (s0 + s1 * 2) floordiv 8) floordiv 2) * 564 + (s3 floordiv 64) * 141 + ((s3 mod 64) floordiv 32) * 4 + 112)>
#map170 = affine_map<()[s0] -> ((s0 floordiv 64) * 141 + ((s0 mod 64) floordiv 32) * 4 + 112)>
#map171 = affine_map<()[s0, s1, s2, s3] -> (((s2 + (s0 + s1 * 2) floordiv 8) floordiv 2) * 564 + (s3 floordiv 64) * 141 + ((s3 mod 64) floordiv 32) * 4 + 113)>
#map172 = affine_map<()[s0] -> ((s0 floordiv 64) * 141 + ((s0 mod 64) floordiv 32) * 4 + 113)>
#map173 = affine_map<()[s0, s1, s2, s3] -> (((s2 + (s0 + s1 * 2) floordiv 8) floordiv 2) * 564 + (s3 floordiv 64) * 141 + ((s3 mod 64) floordiv 32) * 4 + 114)>
#map174 = affine_map<()[s0] -> ((s0 floordiv 64) * 141 + ((s0 mod 64) floordiv 32) * 4 + 114)>
#map175 = affine_map<()[s0, s1, s2, s3] -> (((s2 + (s0 + s1 * 2) floordiv 8) floordiv 2) * 564 + (s3 floordiv 64) * 141 + ((s3 mod 64) floordiv 32) * 4 + 115)>
#map176 = affine_map<()[s0] -> ((s0 floordiv 64) * 141 + ((s0 mod 64) floordiv 32) * 4 + 115)>
#map177 = affine_map<()[s0, s1, s2, s3] -> (((s2 + (s0 + s1 * 2) floordiv 8) floordiv 2) * 564 + (s3 floordiv 64) * 141 + ((s3 mod 64) floordiv 32) * 4 + 120)>
#map178 = affine_map<()[s0] -> ((s0 floordiv 64) * 141 + ((s0 mod 64) floordiv 32) * 4 + 120)>
#map179 = affine_map<()[s0, s1, s2, s3] -> (((s2 + (s0 + s1 * 2) floordiv 8) floordiv 2) * 564 + (s3 floordiv 64) * 141 + ((s3 mod 64) floordiv 32) * 4 + 121)>
#map180 = affine_map<()[s0] -> ((s0 floordiv 64) * 141 + ((s0 mod 64) floordiv 32) * 4 + 121)>
#map181 = affine_map<()[s0, s1, s2, s3] -> (((s2 + (s0 + s1 * 2) floordiv 8) floordiv 2) * 564 + (s3 floordiv 64) * 141 + ((s3 mod 64) floordiv 32) * 4 + 122)>
#map182 = affine_map<()[s0] -> ((s0 floordiv 64) * 141 + ((s0 mod 64) floordiv 32) * 4 + 122)>
#map183 = affine_map<()[s0, s1, s2, s3] -> (((s2 + (s0 + s1 * 2) floordiv 8) floordiv 2) * 564 + (s3 floordiv 64) * 141 + ((s3 mod 64) floordiv 32) * 4 + 123)>
#map184 = affine_map<()[s0] -> ((s0 floordiv 64) * 141 + ((s0 mod 64) floordiv 32) * 4 + 123)>
#map185 = affine_map<()[s0, s1, s2, s3] -> (((s2 + (s0 + s1 * 2) floordiv 8) floordiv 2) * 564 + (s3 floordiv 64) * 141 + ((s3 mod 64) floordiv 32) * 4 + 128)>
#map186 = affine_map<()[s0] -> ((s0 floordiv 64) * 141 + ((s0 mod 64) floordiv 32) * 4 + 128)>
#map187 = affine_map<()[s0, s1, s2, s3] -> (((s2 + (s0 + s1 * 2) floordiv 8) floordiv 2) * 564 + (s3 floordiv 64) * 141 + ((s3 mod 64) floordiv 32) * 4 + 129)>
#map188 = affine_map<()[s0] -> ((s0 floordiv 64) * 141 + ((s0 mod 64) floordiv 32) * 4 + 129)>
#map189 = affine_map<()[s0, s1, s2, s3] -> (((s2 + (s0 + s1 * 2) floordiv 8) floordiv 2) * 564 + (s3 floordiv 64) * 141 + ((s3 mod 64) floordiv 32) * 4 + 130)>
#map190 = affine_map<()[s0] -> ((s0 floordiv 64) * 141 + ((s0 mod 64) floordiv 32) * 4 + 130)>
#map191 = affine_map<()[s0, s1, s2, s3] -> (((s2 + (s0 + s1 * 2) floordiv 8) floordiv 2) * 564 + (s3 floordiv 64) * 141 + ((s3 mod 64) floordiv 32) * 4 + 131)>
#map192 = affine_map<()[s0] -> ((s0 floordiv 64) * 141 + ((s0 mod 64) floordiv 32) * 4 + 131)>
#map193 = affine_map<()[s0, s1, s2, s3] -> (((s2 + (s0 + s1 * 2) floordiv 8) floordiv 2) * 564 + (s3 floordiv 64) * 141 + ((s3 mod 64) floordiv 32) * 4 + 136)>
#map194 = affine_map<()[s0] -> ((s0 floordiv 64) * 141 + ((s0 mod 64) floordiv 32) * 4 + 136)>
#map195 = affine_map<()[s0, s1, s2, s3] -> (((s2 + (s0 + s1 * 2) floordiv 8) floordiv 2) * 564 + (s3 floordiv 64) * 141 + ((s3 mod 64) floordiv 32) * 4 + 137)>
#map196 = affine_map<()[s0] -> ((s0 floordiv 64) * 141 + ((s0 mod 64) floordiv 32) * 4 + 137)>
#map197 = affine_map<()[s0, s1, s2, s3] -> (((s2 + (s0 + s1 * 2) floordiv 8) floordiv 2) * 564 + (s3 floordiv 64) * 141 + ((s3 mod 64) floordiv 32) * 4 + 138)>
#map198 = affine_map<()[s0] -> ((s0 floordiv 64) * 141 + ((s0 mod 64) floordiv 32) * 4 + 138)>
#map199 = affine_map<()[s0, s1, s2, s3] -> (((s2 + (s0 + s1 * 2) floordiv 8) floordiv 2) * 564 + (s3 floordiv 64) * 141 + ((s3 mod 64) floordiv 32) * 4 + 139)>
#map200 = affine_map<()[s0] -> ((s0 floordiv 64) * 141 + ((s0 mod 64) floordiv 32) * 4 + 139)>
#map201 = affine_map<()[s0, s1, s2, s3] -> (((s2 + (s0 + s1 * 2) floordiv 8) floordiv 2) * 564 + (s3 floordiv 64) * 141 + ((s3 mod 64) floordiv 32) * 4 + 144)>
#map202 = affine_map<()[s0] -> ((s0 floordiv 64) * 141 + ((s0 mod 64) floordiv 32) * 4 + 144)>
#map203 = affine_map<()[s0, s1, s2, s3] -> (((s2 + (s0 + s1 * 2) floordiv 8) floordiv 2) * 564 + (s3 floordiv 64) * 141 + ((s3 mod 64) floordiv 32) * 4 + 145)>
#map204 = affine_map<()[s0] -> ((s0 floordiv 64) * 141 + ((s0 mod 64) floordiv 32) * 4 + 145)>
#map205 = affine_map<()[s0, s1, s2, s3] -> (((s2 + (s0 + s1 * 2) floordiv 8) floordiv 2) * 564 + (s3 floordiv 64) * 141 + ((s3 mod 64) floordiv 32) * 4 + 146)>
#map206 = affine_map<()[s0] -> ((s0 floordiv 64) * 141 + ((s0 mod 64) floordiv 32) * 4 + 146)>
#map207 = affine_map<()[s0, s1, s2, s3] -> (((s2 + (s0 + s1 * 2) floordiv 8) floordiv 2) * 564 + (s3 floordiv 64) * 141 + ((s3 mod 64) floordiv 32) * 4 + 147)>
#map208 = affine_map<()[s0] -> ((s0 floordiv 64) * 141 + ((s0 mod 64) floordiv 32) * 4 + 147)>
#map209 = affine_map<()[s0, s1, s2, s3] -> (((s2 + (s0 + s1 * 2) floordiv 8) floordiv 2) * 564 + (s3 floordiv 64) * 141 + ((s3 mod 64) floordiv 32) * 4 + 152)>
#map210 = affine_map<()[s0] -> ((s0 floordiv 64) * 141 + ((s0 mod 64) floordiv 32) * 4 + 152)>
#map211 = affine_map<()[s0, s1, s2, s3] -> (((s2 + (s0 + s1 * 2) floordiv 8) floordiv 2) * 564 + (s3 floordiv 64) * 141 + ((s3 mod 64) floordiv 32) * 4 + 153)>
#map212 = affine_map<()[s0] -> ((s0 floordiv 64) * 141 + ((s0 mod 64) floordiv 32) * 4 + 153)>
#map213 = affine_map<()[s0, s1, s2, s3] -> (((s2 + (s0 + s1 * 2) floordiv 8) floordiv 2) * 564 + (s3 floordiv 64) * 141 + ((s3 mod 64) floordiv 32) * 4 + 154)>
#map214 = affine_map<()[s0] -> ((s0 floordiv 64) * 141 + ((s0 mod 64) floordiv 32) * 4 + 154)>
#map215 = affine_map<()[s0, s1, s2, s3] -> (((s2 + (s0 + s1 * 2) floordiv 8) floordiv 2) * 564 + (s3 floordiv 64) * 141 + ((s3 mod 64) floordiv 32) * 4 + 155)>
#map216 = affine_map<()[s0] -> ((s0 floordiv 64) * 141 + ((s0 mod 64) floordiv 32) * 4 + 155)>
#translation = #iree_codegen.translation_info<pipeline = None workgroup_size = [256, 2, 1] subgroup_size = 64>
module attributes {transform.with_named_sequence} {
  stream.executable private @gemm {
    stream.executable.export public @gemm workgroups() -> (index, index, index) {
      %c2 = arith.constant 2 : index
      %c1 = arith.constant 1 : index
      stream.return %c2, %c2, %c1 : index, index, index
    }
    builtin.module {
      func.func @gemm(%arg0: !stream.binding, %arg1: !stream.binding, %arg2: !stream.binding) attributes {translation_info = #translation} {
        %c1024_i14 = arith.constant 1024 : i14
        %cst = arith.constant dense<0.000000e+00> : vector<8xf16>
        %cst_0 = arith.constant dense<[0, 1, 2, 3, 4, 5, 6, 7]> : vector<8xi32>
        %cst_1 = arith.constant dense<1073741823> : vector<8xindex>
        %c4096_i14 = arith.constant 4096 : i14
        %c536870911 = arith.constant 536870911 : index
        %c2147483643_i32 = arith.constant 2147483643 : i32
        %c536870910 = arith.constant 536870910 : index
        %c255 = arith.constant 255 : index
        %c1024 = arith.constant 1024 : index
        %c772 = arith.constant 772 : index
        %c2147483645_i32 = arith.constant 2147483645 : i32
        %c1073741822 = arith.constant 1073741822 : index
        %c4096 = arith.constant 4096 : index
        %c642 = arith.constant 642 : index
        %c4 = arith.constant 4 : index
        %c1 = arith.constant 1 : index
        %c564 = arith.constant 564 : index
        %c30880 = arith.constant 30880 : index
        %c0 = arith.constant 0 : index
        %cst_2 = arith.constant dense<0.000000e+00> : vector<16xf32>
        %block_id_x = gpu.block_id  x upper_bound 2
        %block_id_y = gpu.block_id  y upper_bound 2
        %thread_id_x = gpu.thread_id  x upper_bound 256
        %thread_id_y = gpu.thread_id  y upper_bound 2
        %alloc = memref.alloc() : memref<53440xi8, #gpu.address_space<workgroup>>
        %view = memref.view %alloc[%c0][] : memref<53440xi8, #gpu.address_space<workgroup>> to memref<772x20xf16, #gpu.address_space<workgroup>>
        %view_3 = memref.view %alloc[%c30880][] : memref<53440xi8, #gpu.address_space<workgroup>> to memref<564x20xf16, #gpu.address_space<workgroup>>
        %0 = stream.binding.subspan %arg0[%c0] : !stream.binding -> memref<642x4096xf16, strided<[4096, 1], offset: ?>>
        %1 = affine.apply #map()[%block_id_y, %block_id_x]
        %2 = arith.minsi %1, %c4 : index
        %3 = affine.apply #map1()[%thread_id_x, %thread_id_y, %block_id_x, %block_id_y, %2]
        %4 = arith.cmpi slt, %3, %c642 : index
        %5 = vector.broadcast %4 : i1 to vector<8xi1>
        %6 = affine.apply #map2()[%thread_id_x]
        %7 = arith.muli %3, %c4096 overflow<nsw> : index
        %8 = arith.addi %7, %6 overflow<nsw> : index
        %base_buffer, %offset, %sizes:2, %strides:2 = memref.extract_strided_metadata %0 : memref<642x4096xf16, strided<[4096, 1], offset: ?>> -> memref<f16>, index, index, index, index, index
        %reinterpret_cast = memref.reinterpret_cast %0 to offset: [%offset], sizes: [%c1073741822], strides: [1] : memref<642x4096xf16, strided<[4096, 1], offset: ?>> to memref<?xf16, strided<[1], offset: ?>>
        %9 = amdgpu.fat_raw_buffer_cast %reinterpret_cast validBytes(%c2147483645_i32) cacheSwizzleStride(%c4096_i14) resetOffset : memref<?xf16, strided<[1], offset: ?>> to memref<?xf16, #amdgpu.address_space<fat_raw_buffer>>
        %10 = arith.index_cast %8 : index to i32
        %11 = vector.broadcast %10 : i32 to vector<8xi32>
        %12 = arith.addi %11, %cst_0 : vector<8xi32>
        %13 = arith.index_cast %12 : vector<8xi32> to vector<8xindex>
        %14 = arith.select %5, %13, %cst_1 : vector<8xi1>, vector<8xindex>
        %15 = vector.extract %14[0] : index from vector<8xindex>
        %16 = vector.load %9[%15] : memref<?xf16, #amdgpu.address_space<fat_raw_buffer>>, vector<8xf16>
        %17 = affine.apply #map3()[%thread_id_x, %thread_id_y, %block_id_x, %block_id_y, %2]
        %18 = arith.cmpi slt, %17, %c642 : index
        %19 = vector.broadcast %18 : i1 to vector<8xi1>
        %20 = arith.muli %17, %c4096 overflow<nsw> : index
        %21 = arith.addi %20, %6 overflow<nsw> : index
        %22 = arith.index_cast %21 : index to i32
        %23 = vector.broadcast %22 : i32 to vector<8xi32>
        %24 = arith.addi %23, %cst_0 : vector<8xi32>
        %25 = arith.index_cast %24 : vector<8xi32> to vector<8xindex>
        %26 = arith.select %19, %25, %cst_1 : vector<8xi1>, vector<8xindex>
        %27 = vector.extract %26[0] : index from vector<8xindex>
        %28 = vector.load %9[%27] : memref<?xf16, #amdgpu.address_space<fat_raw_buffer>>, vector<8xf16>
        %29 = affine.apply #map4()[%thread_id_x, %thread_id_y, %block_id_x, %block_id_y, %2]
        %30 = arith.cmpi slt, %29, %c642 : index
        %31 = vector.broadcast %30 : i1 to vector<8xi1>
        %32 = arith.muli %29, %c4096 overflow<nsw> : index
        %33 = arith.addi %32, %6 overflow<nsw> : index
        %34 = arith.index_cast %33 : index to i32
        %35 = vector.broadcast %34 : i32 to vector<8xi32>
        %36 = arith.addi %35, %cst_0 : vector<8xi32>
        %37 = arith.index_cast %36 : vector<8xi32> to vector<8xindex>
        %38 = arith.select %31, %37, %cst_1 : vector<8xi1>, vector<8xindex>
        %39 = vector.extract %38[0] : index from vector<8xindex>
        %40 = vector.load %9[%39] : memref<?xf16, #amdgpu.address_space<fat_raw_buffer>>, vector<8xf16>
        %41 = stream.binding.subspan %arg1[%c0] : !stream.binding -> memref<1024x4096xf16, strided<[4096, 1], offset: ?>>
        %42 = affine.apply #map5()[%thread_id_x, %thread_id_y, %block_id_x, %block_id_y, %2]
        %43 = arith.cmpi slt, %42, %c1024 : index
        %44 = vector.broadcast %43 : i1 to vector<8xi1>
        %45 = arith.muli %42, %c4096 overflow<nsw> : index
        %46 = arith.addi %45, %6 overflow<nsw> : index
        %base_buffer_4, %offset_5, %sizes_6:2, %strides_7:2 = memref.extract_strided_metadata %41 : memref<1024x4096xf16, strided<[4096, 1], offset: ?>> -> memref<f16>, index, index, index, index, index
        %reinterpret_cast_8 = memref.reinterpret_cast %41 to offset: [%offset_5], sizes: [%c1073741822], strides: [1] : memref<1024x4096xf16, strided<[4096, 1], offset: ?>> to memref<?xf16, strided<[1], offset: ?>>
        %47 = amdgpu.fat_raw_buffer_cast %reinterpret_cast_8 validBytes(%c2147483645_i32) cacheSwizzleStride(%c4096_i14) resetOffset : memref<?xf16, strided<[1], offset: ?>> to memref<?xf16, #amdgpu.address_space<fat_raw_buffer>>
        %48 = arith.index_cast %46 : index to i32
        %49 = vector.broadcast %48 : i32 to vector<8xi32>
        %50 = arith.addi %49, %cst_0 : vector<8xi32>
        %51 = arith.index_cast %50 : vector<8xi32> to vector<8xindex>
        %52 = arith.select %44, %51, %cst_1 : vector<8xi1>, vector<8xindex>
        %53 = vector.extract %52[0] : index from vector<8xindex>
        %54 = vector.load %47[%53] : memref<?xf16, #amdgpu.address_space<fat_raw_buffer>>, vector<8xf16>
        %55 = affine.apply #map6()[%thread_id_x, %thread_id_y, %block_id_x, %block_id_y, %2]
        %56 = arith.cmpi slt, %55, %c1024 : index
        %57 = vector.broadcast %56 : i1 to vector<8xi1>
        %58 = arith.muli %55, %c4096 overflow<nsw> : index
        %59 = arith.addi %58, %6 overflow<nsw> : index
        %60 = arith.index_cast %59 : index to i32
        %61 = vector.broadcast %60 : i32 to vector<8xi32>
        %62 = arith.addi %61, %cst_0 : vector<8xi32>
        %63 = arith.index_cast %62 : vector<8xi32> to vector<8xindex>
        %64 = arith.select %57, %63, %cst_1 : vector<8xi1>, vector<8xindex>
        %65 = vector.extract %64[0] : index from vector<8xindex>
        %66 = vector.load %47[%65] : memref<?xf16, #amdgpu.address_space<fat_raw_buffer>>, vector<8xf16>
        %67 = affine.apply #map7()[%thread_id_x, %thread_id_y, %block_id_x, %block_id_y, %2]
        %68 = arith.cmpi slt, %67, %c1024 : index
        %69 = vector.broadcast %68 : i1 to vector<8xi1>
        %70 = arith.muli %67, %c4096 overflow<nsw> : index
        %71 = arith.addi %70, %6 overflow<nsw> : index
        %72 = arith.index_cast %71 : index to i32
        %73 = vector.broadcast %72 : i32 to vector<8xi32>
        %74 = arith.addi %73, %cst_0 : vector<8xi32>
        %75 = arith.index_cast %74 : vector<8xi32> to vector<8xindex>
        %76 = arith.select %69, %75, %cst_1 : vector<8xi1>, vector<8xindex>
        %77 = vector.extract %76[0] : index from vector<8xindex>
        %78 = vector.load %47[%77] : memref<?xf16, #amdgpu.address_space<fat_raw_buffer>>, vector<8xf16>
        %79 = affine.apply #map8()[%thread_id_x, %thread_id_y, %block_id_x, %block_id_y, %2]
        %80 = arith.cmpi slt, %79, %c1024 : index
        %81 = vector.broadcast %80 : i1 to vector<8xi1>
        %82 = arith.muli %79, %c4096 overflow<nsw> : index
        %83 = arith.addi %82, %6 overflow<nsw> : index
        %84 = arith.index_cast %83 : index to i32
        %85 = vector.broadcast %84 : i32 to vector<8xi32>
        %86 = arith.addi %85, %cst_0 : vector<8xi32>
        %87 = arith.index_cast %86 : vector<8xi32> to vector<8xindex>
        %88 = arith.select %81, %87, %cst_1 : vector<8xi1>, vector<8xindex>
        %89 = vector.extract %88[0] : index from vector<8xindex>
        %90 = vector.load %47[%89] : memref<?xf16, #amdgpu.address_space<fat_raw_buffer>>, vector<8xf16>
        %91 = affine.apply #map9()[%thread_id_x]
        %92 = arith.minsi %91, %c564 : index
        %93 = affine.apply #map10()[%thread_id_x, %thread_id_y]
        %94 = arith.cmpi slt, %93, %92 : index
        %95 = vector.broadcast %94 : i1 to vector<8xi1>
        vector.maskedstore %view_3[%93, %6], %95, %16 : memref<564x20xf16, #gpu.address_space<workgroup>>, vector<8xi1>, vector<8xf16>
        %96 = affine.apply #map11()[%thread_id_x, %thread_id_y]
        %97 = arith.cmpi slt, %96, %92 : index
        %98 = vector.broadcast %97 : i1 to vector<8xi1>
        vector.maskedstore %view_3[%96, %6], %98, %28 : memref<564x20xf16, #gpu.address_space<workgroup>>, vector<8xi1>, vector<8xf16>
        %99 = affine.apply #map12()[%thread_id_x, %thread_id_y]
        %100 = arith.cmpi slt, %99, %92 : index
        %101 = vector.broadcast %100 : i1 to vector<8xi1>
        vector.maskedstore %view_3[%99, %6], %101, %40 : memref<564x20xf16, #gpu.address_space<workgroup>>, vector<8xi1>, vector<8xf16>
        %102 = affine.apply #map13()[%thread_id_y]
        %103 = arith.minsi %102, %c772 : index
        %104 = affine.apply #map14()[%thread_id_x, %thread_id_y]
        %105 = arith.cmpi slt, %104, %103 : index
        %106 = vector.broadcast %105 : i1 to vector<8xi1>
        vector.maskedstore %view[%104, %6], %106, %54 : memref<772x20xf16, #gpu.address_space<workgroup>>, vector<8xi1>, vector<8xf16>
        %107 = affine.apply #map15()[%thread_id_x, %thread_id_y]
        %108 = arith.cmpi slt, %107, %103 : index
        %109 = vector.broadcast %108 : i1 to vector<8xi1>
        vector.maskedstore %view[%107, %6], %109, %66 : memref<772x20xf16, #gpu.address_space<workgroup>>, vector<8xi1>, vector<8xf16>
        %110 = affine.apply #map16()[%thread_id_x, %thread_id_y]
        %111 = arith.cmpi slt, %110, %103 : index
        %112 = vector.broadcast %111 : i1 to vector<8xi1>
        vector.maskedstore %view[%110, %6], %112, %78 : memref<772x20xf16, #gpu.address_space<workgroup>>, vector<8xi1>, vector<8xf16>
        %113 = affine.apply #map17()[%thread_id_x, %thread_id_y]
        %114 = arith.cmpi slt, %113, %103 : index
        %115 = vector.broadcast %114 : i1 to vector<8xi1>
        vector.maskedstore %view[%113, %6], %115, %90 : memref<772x20xf16, #gpu.address_space<workgroup>>, vector<8xi1>, vector<8xf16>
        %116 = affine.apply #map18()[%thread_id_x, %thread_id_y]
        %117 = arith.cmpi slt, %116, %103 : index
        %118 = vector.broadcast %117 : i1 to vector<8xi1>
        %119 = affine.apply #map19()[%thread_id_x]
        %120 = affine.apply #map20()[%thread_id_x, %thread_id_y]
        %121 = arith.cmpi slt, %120, %103 : index
        %122 = vector.broadcast %121 : i1 to vector<8xi1>
        %123 = affine.apply #map21()[%thread_id_x, %thread_id_y]
        %124 = arith.cmpi slt, %123, %103 : index
        %125 = vector.broadcast %124 : i1 to vector<8xi1>
        %126 = affine.apply #map22()[%thread_id_x, %thread_id_y]
        %127 = arith.cmpi slt, %126, %103 : index
        %128 = vector.broadcast %127 : i1 to vector<8xi1>
        %129 = affine.apply #map23()[%thread_id_x, %thread_id_y]
        %130 = arith.cmpi slt, %129, %103 : index
        %131 = vector.broadcast %130 : i1 to vector<8xi1>
        %132 = affine.apply #map24()[%thread_id_x, %thread_id_y]
        %133 = arith.cmpi slt, %132, %103 : index
        %134 = vector.broadcast %133 : i1 to vector<8xi1>
        %135 = affine.apply #map25()[%thread_id_x, %thread_id_y]
        %136 = arith.cmpi slt, %135, %103 : index
        %137 = vector.broadcast %136 : i1 to vector<8xi1>
        %138 = affine.apply #map26()[%thread_id_x, %thread_id_y]
        %139 = arith.cmpi slt, %138, %103 : index
        %140 = vector.broadcast %139 : i1 to vector<8xi1>
        %141 = affine.apply #map27()[%thread_id_x, %thread_id_y]
        %142 = arith.cmpi slt, %141, %103 : index
        %143 = vector.broadcast %142 : i1 to vector<8xi1>
        %144 = affine.apply #map28()[%thread_id_x, %thread_id_y]
        %145 = arith.cmpi slt, %144, %103 : index
        %146 = vector.broadcast %145 : i1 to vector<8xi1>
        %147 = affine.apply #map29()[%thread_id_x, %thread_id_y]
        %148 = arith.cmpi slt, %147, %103 : index
        %149 = vector.broadcast %148 : i1 to vector<8xi1>
        %150 = affine.apply #map30()[%thread_id_x, %thread_id_y]
        %151 = arith.cmpi slt, %150, %103 : index
        %152 = vector.broadcast %151 : i1 to vector<8xi1>
        %153 = affine.apply #map31()[%thread_id_x, %thread_id_y]
        %154 = arith.cmpi slt, %153, %103 : index
        %155 = vector.broadcast %154 : i1 to vector<8xi1>
        %156 = affine.apply #map32()[%thread_id_x]
        %157 = arith.cmpi slt, %156, %92 : index
        %158 = vector.broadcast %157 : i1 to vector<8xi1>
        %159 = affine.apply #map33()[%thread_id_x]
        %160 = arith.cmpi slt, %159, %92 : index
        %161 = vector.broadcast %160 : i1 to vector<8xi1>
        %162 = affine.apply #map34()[%thread_id_x]
        %163 = arith.cmpi slt, %162, %92 : index
        %164 = vector.broadcast %163 : i1 to vector<8xi1>
        %165 = affine.apply #map35()[%thread_id_x]
        %166 = arith.cmpi slt, %165, %92 : index
        %167 = vector.broadcast %166 : i1 to vector<8xi1>
        %168 = affine.apply #map36()[%thread_id_x]
        %169 = arith.cmpi slt, %168, %92 : index
        %170 = vector.broadcast %169 : i1 to vector<8xi1>
        %171:65 = scf.for %arg3 = %c0 to %c255 step %c1 iter_args(%arg4 = %cst_2, %arg5 = %cst_2, %arg6 = %cst_2, %arg7 = %cst_2, %arg8 = %cst_2, %arg9 = %cst_2, %arg10 = %cst_2, %arg11 = %cst_2, %arg12 = %cst_2, %arg13 = %cst_2, %arg14 = %cst_2, %arg15 = %cst_2, %arg16 = %cst_2, %arg17 = %cst_2, %arg18 = %cst_2, %arg19 = %cst_2, %arg20 = %cst_2, %arg21 = %cst_2, %arg22 = %cst_2, %arg23 = %cst_2, %arg24 = %cst_2, %arg25 = %cst_2, %arg26 = %cst_2, %arg27 = %cst_2, %arg28 = %cst_2, %arg29 = %cst_2, %arg30 = %cst_2, %arg31 = %cst_2, %arg32 = %cst_2, %arg33 = %cst_2, %arg34 = %cst_2, %arg35 = %cst_2, %arg36 = %cst_2, %arg37 = %cst_2, %arg38 = %cst_2, %arg39 = %cst_2, %arg40 = %cst_2, %arg41 = %cst_2, %arg42 = %cst_2, %arg43 = %cst_2, %arg44 = %cst_2, %arg45 = %cst_2, %arg46 = %cst_2, %arg47 = %cst_2, %arg48 = %cst_2, %arg49 = %cst_2, %arg50 = %cst_2, %arg51 = %cst_2, %arg52 = %cst_2, %arg53 = %cst_2, %arg54 = %cst_2, %arg55 = %cst_2, %arg56 = %cst_2, %arg57 = %cst_2, %arg58 = %cst_2, %arg59 = %cst_2, %arg60 = %cst_2, %arg61 = %cst_2, %arg62 = %cst_2, %arg63 = %cst_2, %arg64 = %cst_2, %arg65 = %cst_2, %arg66 = %cst_2, %arg67 = %cst_2, %arg68 = %cst_2) -> (vector<16xf32>, vector<16xf32>, vector<16xf32>, vector<16xf32>, vector<16xf32>, vector<16xf32>, vector<16xf32>, vector<16xf32>, vector<16xf32>, vector<16xf32>, vector<16xf32>, vector<16xf32>, vector<16xf32>, vector<16xf32>, vector<16xf32>, vector<16xf32>, vector<16xf32>, vector<16xf32>, vector<16xf32>, vector<16xf32>, vector<16xf32>, vector<16xf32>, vector<16xf32>, vector<16xf32>, vector<16xf32>, vector<16xf32>, vector<16xf32>, vector<16xf32>, vector<16xf32>, vector<16xf32>, vector<16xf32>, vector<16xf32>, vector<16xf32>, vector<16xf32>, vector<16xf32>, vector<16xf32>, vector<16xf32>, vector<16xf32>, vector<16xf32>, vector<16xf32>, vector<16xf32>, vector<16xf32>, vector<16xf32>, vector<16xf32>, vector<16xf32>, vector<16xf32>, vector<16xf32>, vector<16xf32>, vector<16xf32>, vector<16xf32>, vector<16xf32>, vector<16xf32>, vector<16xf32>, vector<16xf32>, vector<16xf32>, vector<16xf32>, vector<16xf32>, vector<16xf32>, vector<16xf32>, vector<16xf32>, vector<16xf32>, vector<16xf32>, vector<16xf32>, vector<16xf32>, vector<16xf32>) {
          amdgpu.lds_barrier
          %4932 = vector.maskedload %view[%116, %119], %118, %cst : memref<772x20xf16, #gpu.address_space<workgroup>>, vector<8xi1>, vector<8xf16> into vector<8xf16>
          %4933 = vector.maskedload %view[%120, %119], %122, %cst : memref<772x20xf16, #gpu.address_space<workgroup>>, vector<8xi1>, vector<8xf16> into vector<8xf16>
          %4934 = vector.maskedload %view[%123, %119], %125, %cst : memref<772x20xf16, #gpu.address_space<workgroup>>, vector<8xi1>, vector<8xf16> into vector<8xf16>
          %4935 = vector.maskedload %view[%126, %119], %128, %cst : memref<772x20xf16, #gpu.address_space<workgroup>>, vector<8xi1>, vector<8xf16> into vector<8xf16>
          %4936 = vector.maskedload %view[%129, %119], %131, %cst : memref<772x20xf16, #gpu.address_space<workgroup>>, vector<8xi1>, vector<8xf16> into vector<8xf16>
          %4937 = vector.maskedload %view[%132, %119], %134, %cst : memref<772x20xf16, #gpu.address_space<workgroup>>, vector<8xi1>, vector<8xf16> into vector<8xf16>
          %4938 = vector.maskedload %view[%135, %119], %137, %cst : memref<772x20xf16, #gpu.address_space<workgroup>>, vector<8xi1>, vector<8xf16> into vector<8xf16>
          %4939 = vector.maskedload %view[%138, %119], %140, %cst : memref<772x20xf16, #gpu.address_space<workgroup>>, vector<8xi1>, vector<8xf16> into vector<8xf16>
          %4940 = vector.maskedload %view[%141, %119], %143, %cst : memref<772x20xf16, #gpu.address_space<workgroup>>, vector<8xi1>, vector<8xf16> into vector<8xf16>
          %4941 = vector.maskedload %view[%144, %119], %146, %cst : memref<772x20xf16, #gpu.address_space<workgroup>>, vector<8xi1>, vector<8xf16> into vector<8xf16>
          %4942 = vector.maskedload %view[%147, %119], %149, %cst : memref<772x20xf16, #gpu.address_space<workgroup>>, vector<8xi1>, vector<8xf16> into vector<8xf16>
          %4943 = vector.maskedload %view[%150, %119], %152, %cst : memref<772x20xf16, #gpu.address_space<workgroup>>, vector<8xi1>, vector<8xf16> into vector<8xf16>
          %4944 = vector.maskedload %view[%153, %119], %155, %cst : memref<772x20xf16, #gpu.address_space<workgroup>>, vector<8xi1>, vector<8xf16> into vector<8xf16>
          %4945 = vector.maskedload %view_3[%156, %119], %158, %cst : memref<564x20xf16, #gpu.address_space<workgroup>>, vector<8xi1>, vector<8xf16> into vector<8xf16>
          %4946 = vector.maskedload %view_3[%159, %119], %161, %cst : memref<564x20xf16, #gpu.address_space<workgroup>>, vector<8xi1>, vector<8xf16> into vector<8xf16>
          %4947 = vector.maskedload %view_3[%162, %119], %164, %cst : memref<564x20xf16, #gpu.address_space<workgroup>>, vector<8xi1>, vector<8xf16> into vector<8xf16>
          %4948 = vector.maskedload %view_3[%165, %119], %167, %cst : memref<564x20xf16, #gpu.address_space<workgroup>>, vector<8xi1>, vector<8xf16> into vector<8xf16>
          %4949 = vector.maskedload %view_3[%168, %119], %170, %cst : memref<564x20xf16, #gpu.address_space<workgroup>>, vector<8xi1>, vector<8xf16> into vector<8xf16>
          %4950 = affine.apply #map37()[%arg3, %thread_id_x]
          %4951 = arith.addi %7, %4950 overflow<nsw> : index
          %4952 = arith.index_cast %4951 : index to i32
          %4953 = vector.broadcast %4952 : i32 to vector<8xi32>
          %4954 = arith.addi %4953, %cst_0 : vector<8xi32>
          %4955 = arith.index_cast %4954 : vector<8xi32> to vector<8xindex>
          %4956 = arith.select %5, %4955, %cst_1 : vector<8xi1>, vector<8xindex>
          %4957 = vector.extract %4956[0] : index from vector<8xindex>
          %4958 = vector.load %9[%4957] : memref<?xf16, #amdgpu.address_space<fat_raw_buffer>>, vector<8xf16>
          %4959 = arith.addi %20, %4950 overflow<nsw> : index
          %4960 = arith.index_cast %4959 : index to i32
          %4961 = vector.broadcast %4960 : i32 to vector<8xi32>
          %4962 = arith.addi %4961, %cst_0 : vector<8xi32>
          %4963 = arith.index_cast %4962 : vector<8xi32> to vector<8xindex>
          %4964 = arith.select %19, %4963, %cst_1 : vector<8xi1>, vector<8xindex>
          %4965 = vector.extract %4964[0] : index from vector<8xindex>
          %4966 = vector.load %9[%4965] : memref<?xf16, #amdgpu.address_space<fat_raw_buffer>>, vector<8xf16>
          %4967 = arith.addi %32, %4950 overflow<nsw> : index
          %4968 = arith.index_cast %4967 : index to i32
          %4969 = vector.broadcast %4968 : i32 to vector<8xi32>
          %4970 = arith.addi %4969, %cst_0 : vector<8xi32>
          %4971 = arith.index_cast %4970 : vector<8xi32> to vector<8xindex>
          %4972 = arith.select %31, %4971, %cst_1 : vector<8xi1>, vector<8xindex>
          %4973 = vector.extract %4972[0] : index from vector<8xindex>
          %4974 = vector.load %9[%4973] : memref<?xf16, #amdgpu.address_space<fat_raw_buffer>>, vector<8xf16>
          %4975 = arith.addi %45, %4950 overflow<nsw> : index
          %4976 = arith.index_cast %4975 : index to i32
          %4977 = vector.broadcast %4976 : i32 to vector<8xi32>
          %4978 = arith.addi %4977, %cst_0 : vector<8xi32>
          %4979 = arith.index_cast %4978 : vector<8xi32> to vector<8xindex>
          %4980 = arith.select %44, %4979, %cst_1 : vector<8xi1>, vector<8xindex>
          %4981 = vector.extract %4980[0] : index from vector<8xindex>
          %4982 = vector.load %47[%4981] : memref<?xf16, #amdgpu.address_space<fat_raw_buffer>>, vector<8xf16>
          %4983 = arith.addi %58, %4950 overflow<nsw> : index
          %4984 = arith.index_cast %4983 : index to i32
          %4985 = vector.broadcast %4984 : i32 to vector<8xi32>
          %4986 = arith.addi %4985, %cst_0 : vector<8xi32>
          %4987 = arith.index_cast %4986 : vector<8xi32> to vector<8xindex>
          %4988 = arith.select %57, %4987, %cst_1 : vector<8xi1>, vector<8xindex>
          %4989 = vector.extract %4988[0] : index from vector<8xindex>
          %4990 = vector.load %47[%4989] : memref<?xf16, #amdgpu.address_space<fat_raw_buffer>>, vector<8xf16>
          %4991 = arith.addi %70, %4950 overflow<nsw> : index
          %4992 = arith.index_cast %4991 : index to i32
          %4993 = vector.broadcast %4992 : i32 to vector<8xi32>
          %4994 = arith.addi %4993, %cst_0 : vector<8xi32>
          %4995 = arith.index_cast %4994 : vector<8xi32> to vector<8xindex>
          %4996 = arith.select %69, %4995, %cst_1 : vector<8xi1>, vector<8xindex>
          %4997 = vector.extract %4996[0] : index from vector<8xindex>
          %4998 = vector.load %47[%4997] : memref<?xf16, #amdgpu.address_space<fat_raw_buffer>>, vector<8xf16>
          %4999 = arith.addi %82, %4950 overflow<nsw> : index
          %5000 = arith.index_cast %4999 : index to i32
          %5001 = vector.broadcast %5000 : i32 to vector<8xi32>
          %5002 = arith.addi %5001, %cst_0 : vector<8xi32>
          %5003 = arith.index_cast %5002 : vector<8xi32> to vector<8xindex>
          %5004 = arith.select %81, %5003, %cst_1 : vector<8xi1>, vector<8xindex>
          %5005 = vector.extract %5004[0] : index from vector<8xindex>
          %5006 = vector.load %47[%5005] : memref<?xf16, #amdgpu.address_space<fat_raw_buffer>>, vector<8xf16>
          %5007 = vector.extract_strided_slice %4945 {offsets = [0], sizes = [4], strides = [1]} : vector<8xf16> to vector<4xf16>
          %5008 = vector.extract_strided_slice %4932 {offsets = [0], sizes = [4], strides = [1]} : vector<8xf16> to vector<4xf16>
          %5009 = amdgpu.mfma %5007 * %5008 + %arg4 {blocks = 1 : i32, k = 8 : i32, m = 32 : i32, n = 32 : i32} blgp =  none : vector<4xf16>, vector<4xf16>, vector<16xf32>
          %5010 = vector.extract_strided_slice %4945 {offsets = [4], sizes = [4], strides = [1]} : vector<8xf16> to vector<4xf16>
          %5011 = vector.extract_strided_slice %4932 {offsets = [4], sizes = [4], strides = [1]} : vector<8xf16> to vector<4xf16>
          %5012 = amdgpu.mfma %5010 * %5011 + %5009 {blocks = 1 : i32, k = 8 : i32, m = 32 : i32, n = 32 : i32} blgp =  none : vector<4xf16>, vector<4xf16>, vector<16xf32>
          %5013 = vector.extract_strided_slice %4933 {offsets = [0], sizes = [4], strides = [1]} : vector<8xf16> to vector<4xf16>
          %5014 = amdgpu.mfma %5007 * %5013 + %arg5 {blocks = 1 : i32, k = 8 : i32, m = 32 : i32, n = 32 : i32} blgp =  none : vector<4xf16>, vector<4xf16>, vector<16xf32>
          %5015 = vector.extract_strided_slice %4933 {offsets = [4], sizes = [4], strides = [1]} : vector<8xf16> to vector<4xf16>
          %5016 = amdgpu.mfma %5010 * %5015 + %5014 {blocks = 1 : i32, k = 8 : i32, m = 32 : i32, n = 32 : i32} blgp =  none : vector<4xf16>, vector<4xf16>, vector<16xf32>
          %5017 = vector.extract_strided_slice %4934 {offsets = [0], sizes = [4], strides = [1]} : vector<8xf16> to vector<4xf16>
          %5018 = amdgpu.mfma %5007 * %5017 + %arg6 {blocks = 1 : i32, k = 8 : i32, m = 32 : i32, n = 32 : i32} blgp =  none : vector<4xf16>, vector<4xf16>, vector<16xf32>
          %5019 = vector.extract_strided_slice %4934 {offsets = [4], sizes = [4], strides = [1]} : vector<8xf16> to vector<4xf16>
          %5020 = amdgpu.mfma %5010 * %5019 + %5018 {blocks = 1 : i32, k = 8 : i32, m = 32 : i32, n = 32 : i32} blgp =  none : vector<4xf16>, vector<4xf16>, vector<16xf32>
          %5021 = vector.extract_strided_slice %4935 {offsets = [0], sizes = [4], strides = [1]} : vector<8xf16> to vector<4xf16>
          %5022 = amdgpu.mfma %5007 * %5021 + %arg7 {blocks = 1 : i32, k = 8 : i32, m = 32 : i32, n = 32 : i32} blgp =  none : vector<4xf16>, vector<4xf16>, vector<16xf32>
          %5023 = vector.extract_strided_slice %4935 {offsets = [4], sizes = [4], strides = [1]} : vector<8xf16> to vector<4xf16>
          %5024 = amdgpu.mfma %5010 * %5023 + %5022 {blocks = 1 : i32, k = 8 : i32, m = 32 : i32, n = 32 : i32} blgp =  none : vector<4xf16>, vector<4xf16>, vector<16xf32>
          %5025 = vector.extract_strided_slice %4936 {offsets = [0], sizes = [4], strides = [1]} : vector<8xf16> to vector<4xf16>
          %5026 = amdgpu.mfma %5007 * %5025 + %arg8 {blocks = 1 : i32, k = 8 : i32, m = 32 : i32, n = 32 : i32} blgp =  none : vector<4xf16>, vector<4xf16>, vector<16xf32>
          %5027 = vector.extract_strided_slice %4936 {offsets = [4], sizes = [4], strides = [1]} : vector<8xf16> to vector<4xf16>
          %5028 = amdgpu.mfma %5010 * %5027 + %5026 {blocks = 1 : i32, k = 8 : i32, m = 32 : i32, n = 32 : i32} blgp =  none : vector<4xf16>, vector<4xf16>, vector<16xf32>
          %5029 = vector.extract_strided_slice %4937 {offsets = [0], sizes = [4], strides = [1]} : vector<8xf16> to vector<4xf16>
          %5030 = amdgpu.mfma %5007 * %5029 + %arg9 {blocks = 1 : i32, k = 8 : i32, m = 32 : i32, n = 32 : i32} blgp =  none : vector<4xf16>, vector<4xf16>, vector<16xf32>
          %5031 = vector.extract_strided_slice %4937 {offsets = [4], sizes = [4], strides = [1]} : vector<8xf16> to vector<4xf16>
          %5032 = amdgpu.mfma %5010 * %5031 + %5030 {blocks = 1 : i32, k = 8 : i32, m = 32 : i32, n = 32 : i32} blgp =  none : vector<4xf16>, vector<4xf16>, vector<16xf32>
          %5033 = vector.extract_strided_slice %4938 {offsets = [0], sizes = [4], strides = [1]} : vector<8xf16> to vector<4xf16>
          %5034 = amdgpu.mfma %5007 * %5033 + %arg10 {blocks = 1 : i32, k = 8 : i32, m = 32 : i32, n = 32 : i32} blgp =  none : vector<4xf16>, vector<4xf16>, vector<16xf32>
          %5035 = vector.extract_strided_slice %4938 {offsets = [4], sizes = [4], strides = [1]} : vector<8xf16> to vector<4xf16>
          %5036 = amdgpu.mfma %5010 * %5035 + %5034 {blocks = 1 : i32, k = 8 : i32, m = 32 : i32, n = 32 : i32} blgp =  none : vector<4xf16>, vector<4xf16>, vector<16xf32>
          %5037 = vector.extract_strided_slice %4939 {offsets = [0], sizes = [4], strides = [1]} : vector<8xf16> to vector<4xf16>
          %5038 = amdgpu.mfma %5007 * %5037 + %arg11 {blocks = 1 : i32, k = 8 : i32, m = 32 : i32, n = 32 : i32} blgp =  none : vector<4xf16>, vector<4xf16>, vector<16xf32>
          %5039 = vector.extract_strided_slice %4939 {offsets = [4], sizes = [4], strides = [1]} : vector<8xf16> to vector<4xf16>
          %5040 = amdgpu.mfma %5010 * %5039 + %5038 {blocks = 1 : i32, k = 8 : i32, m = 32 : i32, n = 32 : i32} blgp =  none : vector<4xf16>, vector<4xf16>, vector<16xf32>
          %5041 = vector.extract_strided_slice %4940 {offsets = [0], sizes = [4], strides = [1]} : vector<8xf16> to vector<4xf16>
          %5042 = amdgpu.mfma %5007 * %5041 + %arg12 {blocks = 1 : i32, k = 8 : i32, m = 32 : i32, n = 32 : i32} blgp =  none : vector<4xf16>, vector<4xf16>, vector<16xf32>
          %5043 = vector.extract_strided_slice %4940 {offsets = [4], sizes = [4], strides = [1]} : vector<8xf16> to vector<4xf16>
          %5044 = amdgpu.mfma %5010 * %5043 + %5042 {blocks = 1 : i32, k = 8 : i32, m = 32 : i32, n = 32 : i32} blgp =  none : vector<4xf16>, vector<4xf16>, vector<16xf32>
          %5045 = vector.extract_strided_slice %4941 {offsets = [0], sizes = [4], strides = [1]} : vector<8xf16> to vector<4xf16>
          %5046 = amdgpu.mfma %5007 * %5045 + %arg13 {blocks = 1 : i32, k = 8 : i32, m = 32 : i32, n = 32 : i32} blgp =  none : vector<4xf16>, vector<4xf16>, vector<16xf32>
          %5047 = vector.extract_strided_slice %4941 {offsets = [4], sizes = [4], strides = [1]} : vector<8xf16> to vector<4xf16>
          %5048 = amdgpu.mfma %5010 * %5047 + %5046 {blocks = 1 : i32, k = 8 : i32, m = 32 : i32, n = 32 : i32} blgp =  none : vector<4xf16>, vector<4xf16>, vector<16xf32>
          %5049 = vector.extract_strided_slice %4942 {offsets = [0], sizes = [4], strides = [1]} : vector<8xf16> to vector<4xf16>
          %5050 = amdgpu.mfma %5007 * %5049 + %arg14 {blocks = 1 : i32, k = 8 : i32, m = 32 : i32, n = 32 : i32} blgp =  none : vector<4xf16>, vector<4xf16>, vector<16xf32>
          %5051 = vector.extract_strided_slice %4942 {offsets = [4], sizes = [4], strides = [1]} : vector<8xf16> to vector<4xf16>
          %5052 = amdgpu.mfma %5010 * %5051 + %5050 {blocks = 1 : i32, k = 8 : i32, m = 32 : i32, n = 32 : i32} blgp =  none : vector<4xf16>, vector<4xf16>, vector<16xf32>
          %5053 = vector.extract_strided_slice %4943 {offsets = [0], sizes = [4], strides = [1]} : vector<8xf16> to vector<4xf16>
          %5054 = amdgpu.mfma %5007 * %5053 + %arg15 {blocks = 1 : i32, k = 8 : i32, m = 32 : i32, n = 32 : i32} blgp =  none : vector<4xf16>, vector<4xf16>, vector<16xf32>
          %5055 = vector.extract_strided_slice %4943 {offsets = [4], sizes = [4], strides = [1]} : vector<8xf16> to vector<4xf16>
          %5056 = amdgpu.mfma %5010 * %5055 + %5054 {blocks = 1 : i32, k = 8 : i32, m = 32 : i32, n = 32 : i32} blgp =  none : vector<4xf16>, vector<4xf16>, vector<16xf32>
          %5057 = vector.extract_strided_slice %4944 {offsets = [0], sizes = [4], strides = [1]} : vector<8xf16> to vector<4xf16>
          %5058 = amdgpu.mfma %5007 * %5057 + %arg16 {blocks = 1 : i32, k = 8 : i32, m = 32 : i32, n = 32 : i32} blgp =  none : vector<4xf16>, vector<4xf16>, vector<16xf32>
          %5059 = vector.extract_strided_slice %4944 {offsets = [4], sizes = [4], strides = [1]} : vector<8xf16> to vector<4xf16>
          %5060 = amdgpu.mfma %5010 * %5059 + %5058 {blocks = 1 : i32, k = 8 : i32, m = 32 : i32, n = 32 : i32} blgp =  none : vector<4xf16>, vector<4xf16>, vector<16xf32>
          %5061 = vector.extract_strided_slice %4946 {offsets = [0], sizes = [4], strides = [1]} : vector<8xf16> to vector<4xf16>
          %5062 = amdgpu.mfma %5061 * %5008 + %arg17 {blocks = 1 : i32, k = 8 : i32, m = 32 : i32, n = 32 : i32} blgp =  none : vector<4xf16>, vector<4xf16>, vector<16xf32>
          %5063 = vector.extract_strided_slice %4946 {offsets = [4], sizes = [4], strides = [1]} : vector<8xf16> to vector<4xf16>
          %5064 = amdgpu.mfma %5063 * %5011 + %5062 {blocks = 1 : i32, k = 8 : i32, m = 32 : i32, n = 32 : i32} blgp =  none : vector<4xf16>, vector<4xf16>, vector<16xf32>
          %5065 = amdgpu.mfma %5061 * %5013 + %arg18 {blocks = 1 : i32, k = 8 : i32, m = 32 : i32, n = 32 : i32} blgp =  none : vector<4xf16>, vector<4xf16>, vector<16xf32>
          %5066 = amdgpu.mfma %5063 * %5015 + %5065 {blocks = 1 : i32, k = 8 : i32, m = 32 : i32, n = 32 : i32} blgp =  none : vector<4xf16>, vector<4xf16>, vector<16xf32>
          %5067 = amdgpu.mfma %5061 * %5017 + %arg19 {blocks = 1 : i32, k = 8 : i32, m = 32 : i32, n = 32 : i32} blgp =  none : vector<4xf16>, vector<4xf16>, vector<16xf32>
          %5068 = amdgpu.mfma %5063 * %5019 + %5067 {blocks = 1 : i32, k = 8 : i32, m = 32 : i32, n = 32 : i32} blgp =  none : vector<4xf16>, vector<4xf16>, vector<16xf32>
          %5069 = amdgpu.mfma %5061 * %5021 + %arg20 {blocks = 1 : i32, k = 8 : i32, m = 32 : i32, n = 32 : i32} blgp =  none : vector<4xf16>, vector<4xf16>, vector<16xf32>
          %5070 = amdgpu.mfma %5063 * %5023 + %5069 {blocks = 1 : i32, k = 8 : i32, m = 32 : i32, n = 32 : i32} blgp =  none : vector<4xf16>, vector<4xf16>, vector<16xf32>
          %5071 = amdgpu.mfma %5061 * %5025 + %arg21 {blocks = 1 : i32, k = 8 : i32, m = 32 : i32, n = 32 : i32} blgp =  none : vector<4xf16>, vector<4xf16>, vector<16xf32>
          %5072 = amdgpu.mfma %5063 * %5027 + %5071 {blocks = 1 : i32, k = 8 : i32, m = 32 : i32, n = 32 : i32} blgp =  none : vector<4xf16>, vector<4xf16>, vector<16xf32>
          %5073 = amdgpu.mfma %5061 * %5029 + %arg22 {blocks = 1 : i32, k = 8 : i32, m = 32 : i32, n = 32 : i32} blgp =  none : vector<4xf16>, vector<4xf16>, vector<16xf32>
          %5074 = amdgpu.mfma %5063 * %5031 + %5073 {blocks = 1 : i32, k = 8 : i32, m = 32 : i32, n = 32 : i32} blgp =  none : vector<4xf16>, vector<4xf16>, vector<16xf32>
          %5075 = amdgpu.mfma %5061 * %5033 + %arg23 {blocks = 1 : i32, k = 8 : i32, m = 32 : i32, n = 32 : i32} blgp =  none : vector<4xf16>, vector<4xf16>, vector<16xf32>
          %5076 = amdgpu.mfma %5063 * %5035 + %5075 {blocks = 1 : i32, k = 8 : i32, m = 32 : i32, n = 32 : i32} blgp =  none : vector<4xf16>, vector<4xf16>, vector<16xf32>
          %5077 = amdgpu.mfma %5061 * %5037 + %arg24 {blocks = 1 : i32, k = 8 : i32, m = 32 : i32, n = 32 : i32} blgp =  none : vector<4xf16>, vector<4xf16>, vector<16xf32>
          %5078 = amdgpu.mfma %5063 * %5039 + %5077 {blocks = 1 : i32, k = 8 : i32, m = 32 : i32, n = 32 : i32} blgp =  none : vector<4xf16>, vector<4xf16>, vector<16xf32>
          %5079 = amdgpu.mfma %5061 * %5041 + %arg25 {blocks = 1 : i32, k = 8 : i32, m = 32 : i32, n = 32 : i32} blgp =  none : vector<4xf16>, vector<4xf16>, vector<16xf32>
          %5080 = amdgpu.mfma %5063 * %5043 + %5079 {blocks = 1 : i32, k = 8 : i32, m = 32 : i32, n = 32 : i32} blgp =  none : vector<4xf16>, vector<4xf16>, vector<16xf32>
          %5081 = amdgpu.mfma %5061 * %5045 + %arg26 {blocks = 1 : i32, k = 8 : i32, m = 32 : i32, n = 32 : i32} blgp =  none : vector<4xf16>, vector<4xf16>, vector<16xf32>
          %5082 = amdgpu.mfma %5063 * %5047 + %5081 {blocks = 1 : i32, k = 8 : i32, m = 32 : i32, n = 32 : i32} blgp =  none : vector<4xf16>, vector<4xf16>, vector<16xf32>
          %5083 = amdgpu.mfma %5061 * %5049 + %arg27 {blocks = 1 : i32, k = 8 : i32, m = 32 : i32, n = 32 : i32} blgp =  none : vector<4xf16>, vector<4xf16>, vector<16xf32>
          %5084 = amdgpu.mfma %5063 * %5051 + %5083 {blocks = 1 : i32, k = 8 : i32, m = 32 : i32, n = 32 : i32} blgp =  none : vector<4xf16>, vector<4xf16>, vector<16xf32>
          %5085 = amdgpu.mfma %5061 * %5053 + %arg28 {blocks = 1 : i32, k = 8 : i32, m = 32 : i32, n = 32 : i32} blgp =  none : vector<4xf16>, vector<4xf16>, vector<16xf32>
          %5086 = amdgpu.mfma %5063 * %5055 + %5085 {blocks = 1 : i32, k = 8 : i32, m = 32 : i32, n = 32 : i32} blgp =  none : vector<4xf16>, vector<4xf16>, vector<16xf32>
          %5087 = amdgpu.mfma %5061 * %5057 + %arg29 {blocks = 1 : i32, k = 8 : i32, m = 32 : i32, n = 32 : i32} blgp =  none : vector<4xf16>, vector<4xf16>, vector<16xf32>
          %5088 = amdgpu.mfma %5063 * %5059 + %5087 {blocks = 1 : i32, k = 8 : i32, m = 32 : i32, n = 32 : i32} blgp =  none : vector<4xf16>, vector<4xf16>, vector<16xf32>
          %5089 = vector.extract_strided_slice %4947 {offsets = [0], sizes = [4], strides = [1]} : vector<8xf16> to vector<4xf16>
          %5090 = amdgpu.mfma %5089 * %5008 + %arg30 {blocks = 1 : i32, k = 8 : i32, m = 32 : i32, n = 32 : i32} blgp =  none : vector<4xf16>, vector<4xf16>, vector<16xf32>
          %5091 = vector.extract_strided_slice %4947 {offsets = [4], sizes = [4], strides = [1]} : vector<8xf16> to vector<4xf16>
          %5092 = amdgpu.mfma %5091 * %5011 + %5090 {blocks = 1 : i32, k = 8 : i32, m = 32 : i32, n = 32 : i32} blgp =  none : vector<4xf16>, vector<4xf16>, vector<16xf32>
          %5093 = amdgpu.mfma %5089 * %5013 + %arg31 {blocks = 1 : i32, k = 8 : i32, m = 32 : i32, n = 32 : i32} blgp =  none : vector<4xf16>, vector<4xf16>, vector<16xf32>
          %5094 = amdgpu.mfma %5091 * %5015 + %5093 {blocks = 1 : i32, k = 8 : i32, m = 32 : i32, n = 32 : i32} blgp =  none : vector<4xf16>, vector<4xf16>, vector<16xf32>
          %5095 = amdgpu.mfma %5089 * %5017 + %arg32 {blocks = 1 : i32, k = 8 : i32, m = 32 : i32, n = 32 : i32} blgp =  none : vector<4xf16>, vector<4xf16>, vector<16xf32>
          %5096 = amdgpu.mfma %5091 * %5019 + %5095 {blocks = 1 : i32, k = 8 : i32, m = 32 : i32, n = 32 : i32} blgp =  none : vector<4xf16>, vector<4xf16>, vector<16xf32>
          %5097 = amdgpu.mfma %5089 * %5021 + %arg33 {blocks = 1 : i32, k = 8 : i32, m = 32 : i32, n = 32 : i32} blgp =  none : vector<4xf16>, vector<4xf16>, vector<16xf32>
          %5098 = amdgpu.mfma %5091 * %5023 + %5097 {blocks = 1 : i32, k = 8 : i32, m = 32 : i32, n = 32 : i32} blgp =  none : vector<4xf16>, vector<4xf16>, vector<16xf32>
          %5099 = amdgpu.mfma %5089 * %5025 + %arg34 {blocks = 1 : i32, k = 8 : i32, m = 32 : i32, n = 32 : i32} blgp =  none : vector<4xf16>, vector<4xf16>, vector<16xf32>
          %5100 = amdgpu.mfma %5091 * %5027 + %5099 {blocks = 1 : i32, k = 8 : i32, m = 32 : i32, n = 32 : i32} blgp =  none : vector<4xf16>, vector<4xf16>, vector<16xf32>
          %5101 = amdgpu.mfma %5089 * %5029 + %arg35 {blocks = 1 : i32, k = 8 : i32, m = 32 : i32, n = 32 : i32} blgp =  none : vector<4xf16>, vector<4xf16>, vector<16xf32>
          %5102 = amdgpu.mfma %5091 * %5031 + %5101 {blocks = 1 : i32, k = 8 : i32, m = 32 : i32, n = 32 : i32} blgp =  none : vector<4xf16>, vector<4xf16>, vector<16xf32>
          %5103 = amdgpu.mfma %5089 * %5033 + %arg36 {blocks = 1 : i32, k = 8 : i32, m = 32 : i32, n = 32 : i32} blgp =  none : vector<4xf16>, vector<4xf16>, vector<16xf32>
          %5104 = amdgpu.mfma %5091 * %5035 + %5103 {blocks = 1 : i32, k = 8 : i32, m = 32 : i32, n = 32 : i32} blgp =  none : vector<4xf16>, vector<4xf16>, vector<16xf32>
          %5105 = amdgpu.mfma %5089 * %5037 + %arg37 {blocks = 1 : i32, k = 8 : i32, m = 32 : i32, n = 32 : i32} blgp =  none : vector<4xf16>, vector<4xf16>, vector<16xf32>
          %5106 = amdgpu.mfma %5091 * %5039 + %5105 {blocks = 1 : i32, k = 8 : i32, m = 32 : i32, n = 32 : i32} blgp =  none : vector<4xf16>, vector<4xf16>, vector<16xf32>
          %5107 = amdgpu.mfma %5089 * %5041 + %arg38 {blocks = 1 : i32, k = 8 : i32, m = 32 : i32, n = 32 : i32} blgp =  none : vector<4xf16>, vector<4xf16>, vector<16xf32>
          %5108 = amdgpu.mfma %5091 * %5043 + %5107 {blocks = 1 : i32, k = 8 : i32, m = 32 : i32, n = 32 : i32} blgp =  none : vector<4xf16>, vector<4xf16>, vector<16xf32>
          %5109 = amdgpu.mfma %5089 * %5045 + %arg39 {blocks = 1 : i32, k = 8 : i32, m = 32 : i32, n = 32 : i32} blgp =  none : vector<4xf16>, vector<4xf16>, vector<16xf32>
          %5110 = amdgpu.mfma %5091 * %5047 + %5109 {blocks = 1 : i32, k = 8 : i32, m = 32 : i32, n = 32 : i32} blgp =  none : vector<4xf16>, vector<4xf16>, vector<16xf32>
          %5111 = amdgpu.mfma %5089 * %5049 + %arg40 {blocks = 1 : i32, k = 8 : i32, m = 32 : i32, n = 32 : i32} blgp =  none : vector<4xf16>, vector<4xf16>, vector<16xf32>
          %5112 = amdgpu.mfma %5091 * %5051 + %5111 {blocks = 1 : i32, k = 8 : i32, m = 32 : i32, n = 32 : i32} blgp =  none : vector<4xf16>, vector<4xf16>, vector<16xf32>
          %5113 = amdgpu.mfma %5089 * %5053 + %arg41 {blocks = 1 : i32, k = 8 : i32, m = 32 : i32, n = 32 : i32} blgp =  none : vector<4xf16>, vector<4xf16>, vector<16xf32>
          %5114 = amdgpu.mfma %5091 * %5055 + %5113 {blocks = 1 : i32, k = 8 : i32, m = 32 : i32, n = 32 : i32} blgp =  none : vector<4xf16>, vector<4xf16>, vector<16xf32>
          %5115 = amdgpu.mfma %5089 * %5057 + %arg42 {blocks = 1 : i32, k = 8 : i32, m = 32 : i32, n = 32 : i32} blgp =  none : vector<4xf16>, vector<4xf16>, vector<16xf32>
          %5116 = amdgpu.mfma %5091 * %5059 + %5115 {blocks = 1 : i32, k = 8 : i32, m = 32 : i32, n = 32 : i32} blgp =  none : vector<4xf16>, vector<4xf16>, vector<16xf32>
          %5117 = vector.extract_strided_slice %4948 {offsets = [0], sizes = [4], strides = [1]} : vector<8xf16> to vector<4xf16>
          %5118 = amdgpu.mfma %5117 * %5008 + %arg43 {blocks = 1 : i32, k = 8 : i32, m = 32 : i32, n = 32 : i32} blgp =  none : vector<4xf16>, vector<4xf16>, vector<16xf32>
          %5119 = vector.extract_strided_slice %4948 {offsets = [4], sizes = [4], strides = [1]} : vector<8xf16> to vector<4xf16>
          %5120 = amdgpu.mfma %5119 * %5011 + %5118 {blocks = 1 : i32, k = 8 : i32, m = 32 : i32, n = 32 : i32} blgp =  none : vector<4xf16>, vector<4xf16>, vector<16xf32>
          %5121 = amdgpu.mfma %5117 * %5013 + %arg44 {blocks = 1 : i32, k = 8 : i32, m = 32 : i32, n = 32 : i32} blgp =  none : vector<4xf16>, vector<4xf16>, vector<16xf32>
          %5122 = amdgpu.mfma %5119 * %5015 + %5121 {blocks = 1 : i32, k = 8 : i32, m = 32 : i32, n = 32 : i32} blgp =  none : vector<4xf16>, vector<4xf16>, vector<16xf32>
          %5123 = amdgpu.mfma %5117 * %5017 + %arg45 {blocks = 1 : i32, k = 8 : i32, m = 32 : i32, n = 32 : i32} blgp =  none : vector<4xf16>, vector<4xf16>, vector<16xf32>
          %5124 = amdgpu.mfma %5119 * %5019 + %5123 {blocks = 1 : i32, k = 8 : i32, m = 32 : i32, n = 32 : i32} blgp =  none : vector<4xf16>, vector<4xf16>, vector<16xf32>
          %5125 = amdgpu.mfma %5117 * %5021 + %arg46 {blocks = 1 : i32, k = 8 : i32, m = 32 : i32, n = 32 : i32} blgp =  none : vector<4xf16>, vector<4xf16>, vector<16xf32>
          %5126 = amdgpu.mfma %5119 * %5023 + %5125 {blocks = 1 : i32, k = 8 : i32, m = 32 : i32, n = 32 : i32} blgp =  none : vector<4xf16>, vector<4xf16>, vector<16xf32>
          %5127 = amdgpu.mfma %5117 * %5025 + %arg47 {blocks = 1 : i32, k = 8 : i32, m = 32 : i32, n = 32 : i32} blgp =  none : vector<4xf16>, vector<4xf16>, vector<16xf32>
          %5128 = amdgpu.mfma %5119 * %5027 + %5127 {blocks = 1 : i32, k = 8 : i32, m = 32 : i32, n = 32 : i32} blgp =  none : vector<4xf16>, vector<4xf16>, vector<16xf32>
          %5129 = amdgpu.mfma %5117 * %5029 + %arg48 {blocks = 1 : i32, k = 8 : i32, m = 32 : i32, n = 32 : i32} blgp =  none : vector<4xf16>, vector<4xf16>, vector<16xf32>
          %5130 = amdgpu.mfma %5119 * %5031 + %5129 {blocks = 1 : i32, k = 8 : i32, m = 32 : i32, n = 32 : i32} blgp =  none : vector<4xf16>, vector<4xf16>, vector<16xf32>
          %5131 = amdgpu.mfma %5117 * %5033 + %arg49 {blocks = 1 : i32, k = 8 : i32, m = 32 : i32, n = 32 : i32} blgp =  none : vector<4xf16>, vector<4xf16>, vector<16xf32>
          %5132 = amdgpu.mfma %5119 * %5035 + %5131 {blocks = 1 : i32, k = 8 : i32, m = 32 : i32, n = 32 : i32} blgp =  none : vector<4xf16>, vector<4xf16>, vector<16xf32>
          %5133 = amdgpu.mfma %5117 * %5037 + %arg50 {blocks = 1 : i32, k = 8 : i32, m = 32 : i32, n = 32 : i32} blgp =  none : vector<4xf16>, vector<4xf16>, vector<16xf32>
          %5134 = amdgpu.mfma %5119 * %5039 + %5133 {blocks = 1 : i32, k = 8 : i32, m = 32 : i32, n = 32 : i32} blgp =  none : vector<4xf16>, vector<4xf16>, vector<16xf32>
          %5135 = amdgpu.mfma %5117 * %5041 + %arg51 {blocks = 1 : i32, k = 8 : i32, m = 32 : i32, n = 32 : i32} blgp =  none : vector<4xf16>, vector<4xf16>, vector<16xf32>
          %5136 = amdgpu.mfma %5119 * %5043 + %5135 {blocks = 1 : i32, k = 8 : i32, m = 32 : i32, n = 32 : i32} blgp =  none : vector<4xf16>, vector<4xf16>, vector<16xf32>
          %5137 = amdgpu.mfma %5117 * %5045 + %arg52 {blocks = 1 : i32, k = 8 : i32, m = 32 : i32, n = 32 : i32} blgp =  none : vector<4xf16>, vector<4xf16>, vector<16xf32>
          %5138 = amdgpu.mfma %5119 * %5047 + %5137 {blocks = 1 : i32, k = 8 : i32, m = 32 : i32, n = 32 : i32} blgp =  none : vector<4xf16>, vector<4xf16>, vector<16xf32>
          %5139 = amdgpu.mfma %5117 * %5049 + %arg53 {blocks = 1 : i32, k = 8 : i32, m = 32 : i32, n = 32 : i32} blgp =  none : vector<4xf16>, vector<4xf16>, vector<16xf32>
          %5140 = amdgpu.mfma %5119 * %5051 + %5139 {blocks = 1 : i32, k = 8 : i32, m = 32 : i32, n = 32 : i32} blgp =  none : vector<4xf16>, vector<4xf16>, vector<16xf32>
          %5141 = amdgpu.mfma %5117 * %5053 + %arg54 {blocks = 1 : i32, k = 8 : i32, m = 32 : i32, n = 32 : i32} blgp =  none : vector<4xf16>, vector<4xf16>, vector<16xf32>
          %5142 = amdgpu.mfma %5119 * %5055 + %5141 {blocks = 1 : i32, k = 8 : i32, m = 32 : i32, n = 32 : i32} blgp =  none : vector<4xf16>, vector<4xf16>, vector<16xf32>
          %5143 = amdgpu.mfma %5117 * %5057 + %arg55 {blocks = 1 : i32, k = 8 : i32, m = 32 : i32, n = 32 : i32} blgp =  none : vector<4xf16>, vector<4xf16>, vector<16xf32>
          %5144 = amdgpu.mfma %5119 * %5059 + %5143 {blocks = 1 : i32, k = 8 : i32, m = 32 : i32, n = 32 : i32} blgp =  none : vector<4xf16>, vector<4xf16>, vector<16xf32>
          %5145 = vector.extract_strided_slice %4949 {offsets = [0], sizes = [4], strides = [1]} : vector<8xf16> to vector<4xf16>
          %5146 = amdgpu.mfma %5145 * %5008 + %arg56 {blocks = 1 : i32, k = 8 : i32, m = 32 : i32, n = 32 : i32} blgp =  none : vector<4xf16>, vector<4xf16>, vector<16xf32>
          %5147 = vector.extract_strided_slice %4949 {offsets = [4], sizes = [4], strides = [1]} : vector<8xf16> to vector<4xf16>
          %5148 = amdgpu.mfma %5147 * %5011 + %5146 {blocks = 1 : i32, k = 8 : i32, m = 32 : i32, n = 32 : i32} blgp =  none : vector<4xf16>, vector<4xf16>, vector<16xf32>
          %5149 = amdgpu.mfma %5145 * %5013 + %arg57 {blocks = 1 : i32, k = 8 : i32, m = 32 : i32, n = 32 : i32} blgp =  none : vector<4xf16>, vector<4xf16>, vector<16xf32>
          %5150 = amdgpu.mfma %5147 * %5015 + %5149 {blocks = 1 : i32, k = 8 : i32, m = 32 : i32, n = 32 : i32} blgp =  none : vector<4xf16>, vector<4xf16>, vector<16xf32>
          %5151 = amdgpu.mfma %5145 * %5017 + %arg58 {blocks = 1 : i32, k = 8 : i32, m = 32 : i32, n = 32 : i32} blgp =  none : vector<4xf16>, vector<4xf16>, vector<16xf32>
          %5152 = amdgpu.mfma %5147 * %5019 + %5151 {blocks = 1 : i32, k = 8 : i32, m = 32 : i32, n = 32 : i32} blgp =  none : vector<4xf16>, vector<4xf16>, vector<16xf32>
          %5153 = amdgpu.mfma %5145 * %5021 + %arg59 {blocks = 1 : i32, k = 8 : i32, m = 32 : i32, n = 32 : i32} blgp =  none : vector<4xf16>, vector<4xf16>, vector<16xf32>
          %5154 = amdgpu.mfma %5147 * %5023 + %5153 {blocks = 1 : i32, k = 8 : i32, m = 32 : i32, n = 32 : i32} blgp =  none : vector<4xf16>, vector<4xf16>, vector<16xf32>
          %5155 = amdgpu.mfma %5145 * %5025 + %arg60 {blocks = 1 : i32, k = 8 : i32, m = 32 : i32, n = 32 : i32} blgp =  none : vector<4xf16>, vector<4xf16>, vector<16xf32>
          %5156 = amdgpu.mfma %5147 * %5027 + %5155 {blocks = 1 : i32, k = 8 : i32, m = 32 : i32, n = 32 : i32} blgp =  none : vector<4xf16>, vector<4xf16>, vector<16xf32>
          %5157 = amdgpu.mfma %5145 * %5029 + %arg61 {blocks = 1 : i32, k = 8 : i32, m = 32 : i32, n = 32 : i32} blgp =  none : vector<4xf16>, vector<4xf16>, vector<16xf32>
          %5158 = amdgpu.mfma %5147 * %5031 + %5157 {blocks = 1 : i32, k = 8 : i32, m = 32 : i32, n = 32 : i32} blgp =  none : vector<4xf16>, vector<4xf16>, vector<16xf32>
          %5159 = amdgpu.mfma %5145 * %5033 + %arg62 {blocks = 1 : i32, k = 8 : i32, m = 32 : i32, n = 32 : i32} blgp =  none : vector<4xf16>, vector<4xf16>, vector<16xf32>
          %5160 = amdgpu.mfma %5147 * %5035 + %5159 {blocks = 1 : i32, k = 8 : i32, m = 32 : i32, n = 32 : i32} blgp =  none : vector<4xf16>, vector<4xf16>, vector<16xf32>
          %5161 = amdgpu.mfma %5145 * %5037 + %arg63 {blocks = 1 : i32, k = 8 : i32, m = 32 : i32, n = 32 : i32} blgp =  none : vector<4xf16>, vector<4xf16>, vector<16xf32>
          %5162 = amdgpu.mfma %5147 * %5039 + %5161 {blocks = 1 : i32, k = 8 : i32, m = 32 : i32, n = 32 : i32} blgp =  none : vector<4xf16>, vector<4xf16>, vector<16xf32>
          %5163 = amdgpu.mfma %5145 * %5041 + %arg64 {blocks = 1 : i32, k = 8 : i32, m = 32 : i32, n = 32 : i32} blgp =  none : vector<4xf16>, vector<4xf16>, vector<16xf32>
          %5164 = amdgpu.mfma %5147 * %5043 + %5163 {blocks = 1 : i32, k = 8 : i32, m = 32 : i32, n = 32 : i32} blgp =  none : vector<4xf16>, vector<4xf16>, vector<16xf32>
          %5165 = amdgpu.mfma %5145 * %5045 + %arg65 {blocks = 1 : i32, k = 8 : i32, m = 32 : i32, n = 32 : i32} blgp =  none : vector<4xf16>, vector<4xf16>, vector<16xf32>
          %5166 = amdgpu.mfma %5147 * %5047 + %5165 {blocks = 1 : i32, k = 8 : i32, m = 32 : i32, n = 32 : i32} blgp =  none : vector<4xf16>, vector<4xf16>, vector<16xf32>
          %5167 = amdgpu.mfma %5145 * %5049 + %arg66 {blocks = 1 : i32, k = 8 : i32, m = 32 : i32, n = 32 : i32} blgp =  none : vector<4xf16>, vector<4xf16>, vector<16xf32>
          %5168 = amdgpu.mfma %5147 * %5051 + %5167 {blocks = 1 : i32, k = 8 : i32, m = 32 : i32, n = 32 : i32} blgp =  none : vector<4xf16>, vector<4xf16>, vector<16xf32>
          %5169 = amdgpu.mfma %5145 * %5053 + %arg67 {blocks = 1 : i32, k = 8 : i32, m = 32 : i32, n = 32 : i32} blgp =  none : vector<4xf16>, vector<4xf16>, vector<16xf32>
          %5170 = amdgpu.mfma %5147 * %5055 + %5169 {blocks = 1 : i32, k = 8 : i32, m = 32 : i32, n = 32 : i32} blgp =  none : vector<4xf16>, vector<4xf16>, vector<16xf32>
          %5171 = amdgpu.mfma %5145 * %5057 + %arg68 {blocks = 1 : i32, k = 8 : i32, m = 32 : i32, n = 32 : i32} blgp =  none : vector<4xf16>, vector<4xf16>, vector<16xf32>
          %5172 = amdgpu.mfma %5147 * %5059 + %5171 {blocks = 1 : i32, k = 8 : i32, m = 32 : i32, n = 32 : i32} blgp =  none : vector<4xf16>, vector<4xf16>, vector<16xf32>
          amdgpu.lds_barrier
          vector.maskedstore %view_3[%93, %6], %95, %4958 : memref<564x20xf16, #gpu.address_space<workgroup>>, vector<8xi1>, vector<8xf16>
          vector.maskedstore %view_3[%96, %6], %98, %4966 : memref<564x20xf16, #gpu.address_space<workgroup>>, vector<8xi1>, vector<8xf16>
          vector.maskedstore %view_3[%99, %6], %101, %4974 : memref<564x20xf16, #gpu.address_space<workgroup>>, vector<8xi1>, vector<8xf16>
          vector.maskedstore %view[%104, %6], %106, %4982 : memref<772x20xf16, #gpu.address_space<workgroup>>, vector<8xi1>, vector<8xf16>
          vector.maskedstore %view[%107, %6], %109, %4990 : memref<772x20xf16, #gpu.address_space<workgroup>>, vector<8xi1>, vector<8xf16>
          vector.maskedstore %view[%110, %6], %112, %4998 : memref<772x20xf16, #gpu.address_space<workgroup>>, vector<8xi1>, vector<8xf16>
          vector.maskedstore %view[%113, %6], %115, %5006 : memref<772x20xf16, #gpu.address_space<workgroup>>, vector<8xi1>, vector<8xf16>
          scf.yield %5012, %5016, %5020, %5024, %5028, %5032, %5036, %5040, %5044, %5048, %5052, %5056, %5060, %5064, %5066, %5068, %5070, %5072, %5074, %5076, %5078, %5080, %5082, %5084, %5086, %5088, %5092, %5094, %5096, %5098, %5100, %5102, %5104, %5106, %5108, %5110, %5112, %5114, %5116, %5120, %5122, %5124, %5126, %5128, %5130, %5132, %5134, %5136, %5138, %5140, %5142, %5144, %5148, %5150, %5152, %5154, %5156, %5158, %5160, %5162, %5164, %5166, %5168, %5170, %5172 : vector<16xf32>, vector<16xf32>, vector<16xf32>, vector<16xf32>, vector<16xf32>, vector<16xf32>, vector<16xf32>, vector<16xf32>, vector<16xf32>, vector<16xf32>, vector<16xf32>, vector<16xf32>, vector<16xf32>, vector<16xf32>, vector<16xf32>, vector<16xf32>, vector<16xf32>, vector<16xf32>, vector<16xf32>, vector<16xf32>, vector<16xf32>, vector<16xf32>, vector<16xf32>, vector<16xf32>, vector<16xf32>, vector<16xf32>, vector<16xf32>, vector<16xf32>, vector<16xf32>, vector<16xf32>, vector<16xf32>, vector<16xf32>, vector<16xf32>, vector<16xf32>, vector<16xf32>, vector<16xf32>, vector<16xf32>, vector<16xf32>, vector<16xf32>, vector<16xf32>, vector<16xf32>, vector<16xf32>, vector<16xf32>, vector<16xf32>, vector<16xf32>, vector<16xf32>, vector<16xf32>, vector<16xf32>, vector<16xf32>, vector<16xf32>, vector<16xf32>, vector<16xf32>, vector<16xf32>, vector<16xf32>, vector<16xf32>, vector<16xf32>, vector<16xf32>, vector<16xf32>, vector<16xf32>, vector<16xf32>, vector<16xf32>, vector<16xf32>, vector<16xf32>, vector<16xf32>, vector<16xf32>
        }
        amdgpu.lds_barrier
        %172 = affine.apply #map18()[%thread_id_x, %thread_id_y]
        %173 = arith.cmpi slt, %172, %103 : index
        %174 = vector.broadcast %173 : i1 to vector<8xi1>
        %175 = affine.apply #map19()[%thread_id_x]
        %176 = vector.maskedload %view[%172, %175], %174, %cst : memref<772x20xf16, #gpu.address_space<workgroup>>, vector<8xi1>, vector<8xf16> into vector<8xf16>
        %177 = affine.apply #map20()[%thread_id_x, %thread_id_y]
        %178 = arith.cmpi slt, %177, %103 : index
        %179 = vector.broadcast %178 : i1 to vector<8xi1>
        %180 = vector.maskedload %view[%177, %175], %179, %cst : memref<772x20xf16, #gpu.address_space<workgroup>>, vector<8xi1>, vector<8xf16> into vector<8xf16>
        %181 = affine.apply #map21()[%thread_id_x, %thread_id_y]
        %182 = arith.cmpi slt, %181, %103 : index
        %183 = vector.broadcast %182 : i1 to vector<8xi1>
        %184 = vector.maskedload %view[%181, %175], %183, %cst : memref<772x20xf16, #gpu.address_space<workgroup>>, vector<8xi1>, vector<8xf16> into vector<8xf16>
        %185 = affine.apply #map22()[%thread_id_x, %thread_id_y]
        %186 = arith.cmpi slt, %185, %103 : index
        %187 = vector.broadcast %186 : i1 to vector<8xi1>
        %188 = vector.maskedload %view[%185, %175], %187, %cst : memref<772x20xf16, #gpu.address_space<workgroup>>, vector<8xi1>, vector<8xf16> into vector<8xf16>
        %189 = affine.apply #map23()[%thread_id_x, %thread_id_y]
        %190 = arith.cmpi slt, %189, %103 : index
        %191 = vector.broadcast %190 : i1 to vector<8xi1>
        %192 = vector.maskedload %view[%189, %175], %191, %cst : memref<772x20xf16, #gpu.address_space<workgroup>>, vector<8xi1>, vector<8xf16> into vector<8xf16>
        %193 = affine.apply #map24()[%thread_id_x, %thread_id_y]
        %194 = arith.cmpi slt, %193, %103 : index
        %195 = vector.broadcast %194 : i1 to vector<8xi1>
        %196 = vector.maskedload %view[%193, %175], %195, %cst : memref<772x20xf16, #gpu.address_space<workgroup>>, vector<8xi1>, vector<8xf16> into vector<8xf16>
        %197 = affine.apply #map25()[%thread_id_x, %thread_id_y]
        %198 = arith.cmpi slt, %197, %103 : index
        %199 = vector.broadcast %198 : i1 to vector<8xi1>
        %200 = vector.maskedload %view[%197, %175], %199, %cst : memref<772x20xf16, #gpu.address_space<workgroup>>, vector<8xi1>, vector<8xf16> into vector<8xf16>
        %201 = affine.apply #map26()[%thread_id_x, %thread_id_y]
        %202 = arith.cmpi slt, %201, %103 : index
        %203 = vector.broadcast %202 : i1 to vector<8xi1>
        %204 = vector.maskedload %view[%201, %175], %203, %cst : memref<772x20xf16, #gpu.address_space<workgroup>>, vector<8xi1>, vector<8xf16> into vector<8xf16>
        %205 = affine.apply #map27()[%thread_id_x, %thread_id_y]
        %206 = arith.cmpi slt, %205, %103 : index
        %207 = vector.broadcast %206 : i1 to vector<8xi1>
        %208 = vector.maskedload %view[%205, %175], %207, %cst : memref<772x20xf16, #gpu.address_space<workgroup>>, vector<8xi1>, vector<8xf16> into vector<8xf16>
        %209 = affine.apply #map28()[%thread_id_x, %thread_id_y]
        %210 = arith.cmpi slt, %209, %103 : index
        %211 = vector.broadcast %210 : i1 to vector<8xi1>
        %212 = vector.maskedload %view[%209, %175], %211, %cst : memref<772x20xf16, #gpu.address_space<workgroup>>, vector<8xi1>, vector<8xf16> into vector<8xf16>
        %213 = affine.apply #map29()[%thread_id_x, %thread_id_y]
        %214 = arith.cmpi slt, %213, %103 : index
        %215 = vector.broadcast %214 : i1 to vector<8xi1>
        %216 = vector.maskedload %view[%213, %175], %215, %cst : memref<772x20xf16, #gpu.address_space<workgroup>>, vector<8xi1>, vector<8xf16> into vector<8xf16>
        %217 = affine.apply #map30()[%thread_id_x, %thread_id_y]
        %218 = arith.cmpi slt, %217, %103 : index
        %219 = vector.broadcast %218 : i1 to vector<8xi1>
        %220 = vector.maskedload %view[%217, %175], %219, %cst : memref<772x20xf16, #gpu.address_space<workgroup>>, vector<8xi1>, vector<8xf16> into vector<8xf16>
        %221 = affine.apply #map31()[%thread_id_x, %thread_id_y]
        %222 = arith.cmpi slt, %221, %103 : index
        %223 = vector.broadcast %222 : i1 to vector<8xi1>
        %224 = vector.maskedload %view[%221, %175], %223, %cst : memref<772x20xf16, #gpu.address_space<workgroup>>, vector<8xi1>, vector<8xf16> into vector<8xf16>
        %225 = affine.apply #map32()[%thread_id_x]
        %226 = arith.cmpi slt, %225, %92 : index
        %227 = vector.broadcast %226 : i1 to vector<8xi1>
        %228 = vector.maskedload %view_3[%225, %175], %227, %cst : memref<564x20xf16, #gpu.address_space<workgroup>>, vector<8xi1>, vector<8xf16> into vector<8xf16>
        %229 = affine.apply #map33()[%thread_id_x]
        %230 = arith.cmpi slt, %229, %92 : index
        %231 = vector.broadcast %230 : i1 to vector<8xi1>
        %232 = vector.maskedload %view_3[%229, %175], %231, %cst : memref<564x20xf16, #gpu.address_space<workgroup>>, vector<8xi1>, vector<8xf16> into vector<8xf16>
        %233 = affine.apply #map34()[%thread_id_x]
        %234 = arith.cmpi slt, %233, %92 : index
        %235 = vector.broadcast %234 : i1 to vector<8xi1>
        %236 = vector.maskedload %view_3[%233, %175], %235, %cst : memref<564x20xf16, #gpu.address_space<workgroup>>, vector<8xi1>, vector<8xf16> into vector<8xf16>
        %237 = affine.apply #map35()[%thread_id_x]
        %238 = arith.cmpi slt, %237, %92 : index
        %239 = vector.broadcast %238 : i1 to vector<8xi1>
        %240 = vector.maskedload %view_3[%237, %175], %239, %cst : memref<564x20xf16, #gpu.address_space<workgroup>>, vector<8xi1>, vector<8xf16> into vector<8xf16>
        %241 = affine.apply #map36()[%thread_id_x]
        %242 = arith.cmpi slt, %241, %92 : index
        %243 = vector.broadcast %242 : i1 to vector<8xi1>
        %244 = vector.maskedload %view_3[%241, %175], %243, %cst : memref<564x20xf16, #gpu.address_space<workgroup>>, vector<8xi1>, vector<8xf16> into vector<8xf16>
        %245 = vector.extract_strided_slice %228 {offsets = [0], sizes = [4], strides = [1]} : vector<8xf16> to vector<4xf16>
        %246 = vector.extract_strided_slice %176 {offsets = [0], sizes = [4], strides = [1]} : vector<8xf16> to vector<4xf16>
        %247 = amdgpu.mfma %245 * %246 + %171#0 {blocks = 1 : i32, k = 8 : i32, m = 32 : i32, n = 32 : i32} blgp =  none : vector<4xf16>, vector<4xf16>, vector<16xf32>
        %248 = vector.extract_strided_slice %228 {offsets = [4], sizes = [4], strides = [1]} : vector<8xf16> to vector<4xf16>
        %249 = vector.extract_strided_slice %176 {offsets = [4], sizes = [4], strides = [1]} : vector<8xf16> to vector<4xf16>
        %250 = amdgpu.mfma %248 * %249 + %247 {blocks = 1 : i32, k = 8 : i32, m = 32 : i32, n = 32 : i32} blgp =  none : vector<4xf16>, vector<4xf16>, vector<16xf32>
        %251 = vector.extract_strided_slice %180 {offsets = [0], sizes = [4], strides = [1]} : vector<8xf16> to vector<4xf16>
        %252 = amdgpu.mfma %245 * %251 + %171#1 {blocks = 1 : i32, k = 8 : i32, m = 32 : i32, n = 32 : i32} blgp =  none : vector<4xf16>, vector<4xf16>, vector<16xf32>
        %253 = vector.extract_strided_slice %180 {offsets = [4], sizes = [4], strides = [1]} : vector<8xf16> to vector<4xf16>
        %254 = amdgpu.mfma %248 * %253 + %252 {blocks = 1 : i32, k = 8 : i32, m = 32 : i32, n = 32 : i32} blgp =  none : vector<4xf16>, vector<4xf16>, vector<16xf32>
        %255 = vector.extract_strided_slice %184 {offsets = [0], sizes = [4], strides = [1]} : vector<8xf16> to vector<4xf16>
        %256 = amdgpu.mfma %245 * %255 + %171#2 {blocks = 1 : i32, k = 8 : i32, m = 32 : i32, n = 32 : i32} blgp =  none : vector<4xf16>, vector<4xf16>, vector<16xf32>
        %257 = vector.extract_strided_slice %184 {offsets = [4], sizes = [4], strides = [1]} : vector<8xf16> to vector<4xf16>
        %258 = amdgpu.mfma %248 * %257 + %256 {blocks = 1 : i32, k = 8 : i32, m = 32 : i32, n = 32 : i32} blgp =  none : vector<4xf16>, vector<4xf16>, vector<16xf32>
        %259 = vector.extract_strided_slice %188 {offsets = [0], sizes = [4], strides = [1]} : vector<8xf16> to vector<4xf16>
        %260 = amdgpu.mfma %245 * %259 + %171#3 {blocks = 1 : i32, k = 8 : i32, m = 32 : i32, n = 32 : i32} blgp =  none : vector<4xf16>, vector<4xf16>, vector<16xf32>
        %261 = vector.extract_strided_slice %188 {offsets = [4], sizes = [4], strides = [1]} : vector<8xf16> to vector<4xf16>
        %262 = amdgpu.mfma %248 * %261 + %260 {blocks = 1 : i32, k = 8 : i32, m = 32 : i32, n = 32 : i32} blgp =  none : vector<4xf16>, vector<4xf16>, vector<16xf32>
        %263 = vector.extract_strided_slice %192 {offsets = [0], sizes = [4], strides = [1]} : vector<8xf16> to vector<4xf16>
        %264 = amdgpu.mfma %245 * %263 + %171#4 {blocks = 1 : i32, k = 8 : i32, m = 32 : i32, n = 32 : i32} blgp =  none : vector<4xf16>, vector<4xf16>, vector<16xf32>
        %265 = vector.extract_strided_slice %192 {offsets = [4], sizes = [4], strides = [1]} : vector<8xf16> to vector<4xf16>
        %266 = amdgpu.mfma %248 * %265 + %264 {blocks = 1 : i32, k = 8 : i32, m = 32 : i32, n = 32 : i32} blgp =  none : vector<4xf16>, vector<4xf16>, vector<16xf32>
        %267 = vector.extract_strided_slice %196 {offsets = [0], sizes = [4], strides = [1]} : vector<8xf16> to vector<4xf16>
        %268 = amdgpu.mfma %245 * %267 + %171#5 {blocks = 1 : i32, k = 8 : i32, m = 32 : i32, n = 32 : i32} blgp =  none : vector<4xf16>, vector<4xf16>, vector<16xf32>
        %269 = vector.extract_strided_slice %196 {offsets = [4], sizes = [4], strides = [1]} : vector<8xf16> to vector<4xf16>
        %270 = amdgpu.mfma %248 * %269 + %268 {blocks = 1 : i32, k = 8 : i32, m = 32 : i32, n = 32 : i32} blgp =  none : vector<4xf16>, vector<4xf16>, vector<16xf32>
        %271 = vector.extract_strided_slice %200 {offsets = [0], sizes = [4], strides = [1]} : vector<8xf16> to vector<4xf16>
        %272 = amdgpu.mfma %245 * %271 + %171#6 {blocks = 1 : i32, k = 8 : i32, m = 32 : i32, n = 32 : i32} blgp =  none : vector<4xf16>, vector<4xf16>, vector<16xf32>
        %273 = vector.extract_strided_slice %200 {offsets = [4], sizes = [4], strides = [1]} : vector<8xf16> to vector<4xf16>
        %274 = amdgpu.mfma %248 * %273 + %272 {blocks = 1 : i32, k = 8 : i32, m = 32 : i32, n = 32 : i32} blgp =  none : vector<4xf16>, vector<4xf16>, vector<16xf32>
        %275 = vector.extract_strided_slice %204 {offsets = [0], sizes = [4], strides = [1]} : vector<8xf16> to vector<4xf16>
        %276 = amdgpu.mfma %245 * %275 + %171#7 {blocks = 1 : i32, k = 8 : i32, m = 32 : i32, n = 32 : i32} blgp =  none : vector<4xf16>, vector<4xf16>, vector<16xf32>
        %277 = vector.extract_strided_slice %204 {offsets = [4], sizes = [4], strides = [1]} : vector<8xf16> to vector<4xf16>
        %278 = amdgpu.mfma %248 * %277 + %276 {blocks = 1 : i32, k = 8 : i32, m = 32 : i32, n = 32 : i32} blgp =  none : vector<4xf16>, vector<4xf16>, vector<16xf32>
        %279 = vector.extract_strided_slice %208 {offsets = [0], sizes = [4], strides = [1]} : vector<8xf16> to vector<4xf16>
        %280 = amdgpu.mfma %245 * %279 + %171#8 {blocks = 1 : i32, k = 8 : i32, m = 32 : i32, n = 32 : i32} blgp =  none : vector<4xf16>, vector<4xf16>, vector<16xf32>
        %281 = vector.extract_strided_slice %208 {offsets = [4], sizes = [4], strides = [1]} : vector<8xf16> to vector<4xf16>
        %282 = amdgpu.mfma %248 * %281 + %280 {blocks = 1 : i32, k = 8 : i32, m = 32 : i32, n = 32 : i32} blgp =  none : vector<4xf16>, vector<4xf16>, vector<16xf32>
        %283 = vector.extract_strided_slice %212 {offsets = [0], sizes = [4], strides = [1]} : vector<8xf16> to vector<4xf16>
        %284 = amdgpu.mfma %245 * %283 + %171#9 {blocks = 1 : i32, k = 8 : i32, m = 32 : i32, n = 32 : i32} blgp =  none : vector<4xf16>, vector<4xf16>, vector<16xf32>
        %285 = vector.extract_strided_slice %212 {offsets = [4], sizes = [4], strides = [1]} : vector<8xf16> to vector<4xf16>
        %286 = amdgpu.mfma %248 * %285 + %284 {blocks = 1 : i32, k = 8 : i32, m = 32 : i32, n = 32 : i32} blgp =  none : vector<4xf16>, vector<4xf16>, vector<16xf32>
        %287 = vector.extract_strided_slice %216 {offsets = [0], sizes = [4], strides = [1]} : vector<8xf16> to vector<4xf16>
        %288 = amdgpu.mfma %245 * %287 + %171#10 {blocks = 1 : i32, k = 8 : i32, m = 32 : i32, n = 32 : i32} blgp =  none : vector<4xf16>, vector<4xf16>, vector<16xf32>
        %289 = vector.extract_strided_slice %216 {offsets = [4], sizes = [4], strides = [1]} : vector<8xf16> to vector<4xf16>
        %290 = amdgpu.mfma %248 * %289 + %288 {blocks = 1 : i32, k = 8 : i32, m = 32 : i32, n = 32 : i32} blgp =  none : vector<4xf16>, vector<4xf16>, vector<16xf32>
        %291 = vector.extract_strided_slice %220 {offsets = [0], sizes = [4], strides = [1]} : vector<8xf16> to vector<4xf16>
        %292 = amdgpu.mfma %245 * %291 + %171#11 {blocks = 1 : i32, k = 8 : i32, m = 32 : i32, n = 32 : i32} blgp =  none : vector<4xf16>, vector<4xf16>, vector<16xf32>
        %293 = vector.extract_strided_slice %220 {offsets = [4], sizes = [4], strides = [1]} : vector<8xf16> to vector<4xf16>
        %294 = amdgpu.mfma %248 * %293 + %292 {blocks = 1 : i32, k = 8 : i32, m = 32 : i32, n = 32 : i32} blgp =  none : vector<4xf16>, vector<4xf16>, vector<16xf32>
        %295 = vector.extract_strided_slice %224 {offsets = [0], sizes = [4], strides = [1]} : vector<8xf16> to vector<4xf16>
        %296 = amdgpu.mfma %245 * %295 + %171#12 {blocks = 1 : i32, k = 8 : i32, m = 32 : i32, n = 32 : i32} blgp =  none : vector<4xf16>, vector<4xf16>, vector<16xf32>
        %297 = vector.extract_strided_slice %224 {offsets = [4], sizes = [4], strides = [1]} : vector<8xf16> to vector<4xf16>
        %298 = amdgpu.mfma %248 * %297 + %296 {blocks = 1 : i32, k = 8 : i32, m = 32 : i32, n = 32 : i32} blgp =  none : vector<4xf16>, vector<4xf16>, vector<16xf32>
        %299 = vector.extract_strided_slice %232 {offsets = [0], sizes = [4], strides = [1]} : vector<8xf16> to vector<4xf16>
        %300 = amdgpu.mfma %299 * %246 + %171#13 {blocks = 1 : i32, k = 8 : i32, m = 32 : i32, n = 32 : i32} blgp =  none : vector<4xf16>, vector<4xf16>, vector<16xf32>
        %301 = vector.extract_strided_slice %232 {offsets = [4], sizes = [4], strides = [1]} : vector<8xf16> to vector<4xf16>
        %302 = amdgpu.mfma %301 * %249 + %300 {blocks = 1 : i32, k = 8 : i32, m = 32 : i32, n = 32 : i32} blgp =  none : vector<4xf16>, vector<4xf16>, vector<16xf32>
        %303 = amdgpu.mfma %299 * %251 + %171#14 {blocks = 1 : i32, k = 8 : i32, m = 32 : i32, n = 32 : i32} blgp =  none : vector<4xf16>, vector<4xf16>, vector<16xf32>
        %304 = amdgpu.mfma %301 * %253 + %303 {blocks = 1 : i32, k = 8 : i32, m = 32 : i32, n = 32 : i32} blgp =  none : vector<4xf16>, vector<4xf16>, vector<16xf32>
        %305 = amdgpu.mfma %299 * %255 + %171#15 {blocks = 1 : i32, k = 8 : i32, m = 32 : i32, n = 32 : i32} blgp =  none : vector<4xf16>, vector<4xf16>, vector<16xf32>
        %306 = amdgpu.mfma %301 * %257 + %305 {blocks = 1 : i32, k = 8 : i32, m = 32 : i32, n = 32 : i32} blgp =  none : vector<4xf16>, vector<4xf16>, vector<16xf32>
        %307 = amdgpu.mfma %299 * %259 + %171#16 {blocks = 1 : i32, k = 8 : i32, m = 32 : i32, n = 32 : i32} blgp =  none : vector<4xf16>, vector<4xf16>, vector<16xf32>
        %308 = amdgpu.mfma %301 * %261 + %307 {blocks = 1 : i32, k = 8 : i32, m = 32 : i32, n = 32 : i32} blgp =  none : vector<4xf16>, vector<4xf16>, vector<16xf32>
        %309 = amdgpu.mfma %299 * %263 + %171#17 {blocks = 1 : i32, k = 8 : i32, m = 32 : i32, n = 32 : i32} blgp =  none : vector<4xf16>, vector<4xf16>, vector<16xf32>
        %310 = amdgpu.mfma %301 * %265 + %309 {blocks = 1 : i32, k = 8 : i32, m = 32 : i32, n = 32 : i32} blgp =  none : vector<4xf16>, vector<4xf16>, vector<16xf32>
        %311 = amdgpu.mfma %299 * %267 + %171#18 {blocks = 1 : i32, k = 8 : i32, m = 32 : i32, n = 32 : i32} blgp =  none : vector<4xf16>, vector<4xf16>, vector<16xf32>
        %312 = amdgpu.mfma %301 * %269 + %311 {blocks = 1 : i32, k = 8 : i32, m = 32 : i32, n = 32 : i32} blgp =  none : vector<4xf16>, vector<4xf16>, vector<16xf32>
        %313 = amdgpu.mfma %299 * %271 + %171#19 {blocks = 1 : i32, k = 8 : i32, m = 32 : i32, n = 32 : i32} blgp =  none : vector<4xf16>, vector<4xf16>, vector<16xf32>
        %314 = amdgpu.mfma %301 * %273 + %313 {blocks = 1 : i32, k = 8 : i32, m = 32 : i32, n = 32 : i32} blgp =  none : vector<4xf16>, vector<4xf16>, vector<16xf32>
        %315 = amdgpu.mfma %299 * %275 + %171#20 {blocks = 1 : i32, k = 8 : i32, m = 32 : i32, n = 32 : i32} blgp =  none : vector<4xf16>, vector<4xf16>, vector<16xf32>
        %316 = amdgpu.mfma %301 * %277 + %315 {blocks = 1 : i32, k = 8 : i32, m = 32 : i32, n = 32 : i32} blgp =  none : vector<4xf16>, vector<4xf16>, vector<16xf32>
        %317 = amdgpu.mfma %299 * %279 + %171#21 {blocks = 1 : i32, k = 8 : i32, m = 32 : i32, n = 32 : i32} blgp =  none : vector<4xf16>, vector<4xf16>, vector<16xf32>
        %318 = amdgpu.mfma %301 * %281 + %317 {blocks = 1 : i32, k = 8 : i32, m = 32 : i32, n = 32 : i32} blgp =  none : vector<4xf16>, vector<4xf16>, vector<16xf32>
        %319 = amdgpu.mfma %299 * %283 + %171#22 {blocks = 1 : i32, k = 8 : i32, m = 32 : i32, n = 32 : i32} blgp =  none : vector<4xf16>, vector<4xf16>, vector<16xf32>
        %320 = amdgpu.mfma %301 * %285 + %319 {blocks = 1 : i32, k = 8 : i32, m = 32 : i32, n = 32 : i32} blgp =  none : vector<4xf16>, vector<4xf16>, vector<16xf32>
        %321 = amdgpu.mfma %299 * %287 + %171#23 {blocks = 1 : i32, k = 8 : i32, m = 32 : i32, n = 32 : i32} blgp =  none : vector<4xf16>, vector<4xf16>, vector<16xf32>
        %322 = amdgpu.mfma %301 * %289 + %321 {blocks = 1 : i32, k = 8 : i32, m = 32 : i32, n = 32 : i32} blgp =  none : vector<4xf16>, vector<4xf16>, vector<16xf32>
        %323 = amdgpu.mfma %299 * %291 + %171#24 {blocks = 1 : i32, k = 8 : i32, m = 32 : i32, n = 32 : i32} blgp =  none : vector<4xf16>, vector<4xf16>, vector<16xf32>
        %324 = amdgpu.mfma %301 * %293 + %323 {blocks = 1 : i32, k = 8 : i32, m = 32 : i32, n = 32 : i32} blgp =  none : vector<4xf16>, vector<4xf16>, vector<16xf32>
        %325 = amdgpu.mfma %299 * %295 + %171#25 {blocks = 1 : i32, k = 8 : i32, m = 32 : i32, n = 32 : i32} blgp =  none : vector<4xf16>, vector<4xf16>, vector<16xf32>
        %326 = amdgpu.mfma %301 * %297 + %325 {blocks = 1 : i32, k = 8 : i32, m = 32 : i32, n = 32 : i32} blgp =  none : vector<4xf16>, vector<4xf16>, vector<16xf32>
        %327 = vector.extract_strided_slice %236 {offsets = [0], sizes = [4], strides = [1]} : vector<8xf16> to vector<4xf16>
        %328 = amdgpu.mfma %327 * %246 + %171#26 {blocks = 1 : i32, k = 8 : i32, m = 32 : i32, n = 32 : i32} blgp =  none : vector<4xf16>, vector<4xf16>, vector<16xf32>
        %329 = vector.extract_strided_slice %236 {offsets = [4], sizes = [4], strides = [1]} : vector<8xf16> to vector<4xf16>
        %330 = amdgpu.mfma %329 * %249 + %328 {blocks = 1 : i32, k = 8 : i32, m = 32 : i32, n = 32 : i32} blgp =  none : vector<4xf16>, vector<4xf16>, vector<16xf32>
        %331 = amdgpu.mfma %327 * %251 + %171#27 {blocks = 1 : i32, k = 8 : i32, m = 32 : i32, n = 32 : i32} blgp =  none : vector<4xf16>, vector<4xf16>, vector<16xf32>
        %332 = amdgpu.mfma %329 * %253 + %331 {blocks = 1 : i32, k = 8 : i32, m = 32 : i32, n = 32 : i32} blgp =  none : vector<4xf16>, vector<4xf16>, vector<16xf32>
        %333 = amdgpu.mfma %327 * %255 + %171#28 {blocks = 1 : i32, k = 8 : i32, m = 32 : i32, n = 32 : i32} blgp =  none : vector<4xf16>, vector<4xf16>, vector<16xf32>
        %334 = amdgpu.mfma %329 * %257 + %333 {blocks = 1 : i32, k = 8 : i32, m = 32 : i32, n = 32 : i32} blgp =  none : vector<4xf16>, vector<4xf16>, vector<16xf32>
        %335 = amdgpu.mfma %327 * %259 + %171#29 {blocks = 1 : i32, k = 8 : i32, m = 32 : i32, n = 32 : i32} blgp =  none : vector<4xf16>, vector<4xf16>, vector<16xf32>
        %336 = amdgpu.mfma %329 * %261 + %335 {blocks = 1 : i32, k = 8 : i32, m = 32 : i32, n = 32 : i32} blgp =  none : vector<4xf16>, vector<4xf16>, vector<16xf32>
        %337 = amdgpu.mfma %327 * %263 + %171#30 {blocks = 1 : i32, k = 8 : i32, m = 32 : i32, n = 32 : i32} blgp =  none : vector<4xf16>, vector<4xf16>, vector<16xf32>
        %338 = amdgpu.mfma %329 * %265 + %337 {blocks = 1 : i32, k = 8 : i32, m = 32 : i32, n = 32 : i32} blgp =  none : vector<4xf16>, vector<4xf16>, vector<16xf32>
        %339 = amdgpu.mfma %327 * %267 + %171#31 {blocks = 1 : i32, k = 8 : i32, m = 32 : i32, n = 32 : i32} blgp =  none : vector<4xf16>, vector<4xf16>, vector<16xf32>
        %340 = amdgpu.mfma %329 * %269 + %339 {blocks = 1 : i32, k = 8 : i32, m = 32 : i32, n = 32 : i32} blgp =  none : vector<4xf16>, vector<4xf16>, vector<16xf32>
        %341 = amdgpu.mfma %327 * %271 + %171#32 {blocks = 1 : i32, k = 8 : i32, m = 32 : i32, n = 32 : i32} blgp =  none : vector<4xf16>, vector<4xf16>, vector<16xf32>
        %342 = amdgpu.mfma %329 * %273 + %341 {blocks = 1 : i32, k = 8 : i32, m = 32 : i32, n = 32 : i32} blgp =  none : vector<4xf16>, vector<4xf16>, vector<16xf32>
        %343 = amdgpu.mfma %327 * %275 + %171#33 {blocks = 1 : i32, k = 8 : i32, m = 32 : i32, n = 32 : i32} blgp =  none : vector<4xf16>, vector<4xf16>, vector<16xf32>
        %344 = amdgpu.mfma %329 * %277 + %343 {blocks = 1 : i32, k = 8 : i32, m = 32 : i32, n = 32 : i32} blgp =  none : vector<4xf16>, vector<4xf16>, vector<16xf32>
        %345 = amdgpu.mfma %327 * %279 + %171#34 {blocks = 1 : i32, k = 8 : i32, m = 32 : i32, n = 32 : i32} blgp =  none : vector<4xf16>, vector<4xf16>, vector<16xf32>
        %346 = amdgpu.mfma %329 * %281 + %345 {blocks = 1 : i32, k = 8 : i32, m = 32 : i32, n = 32 : i32} blgp =  none : vector<4xf16>, vector<4xf16>, vector<16xf32>
        %347 = amdgpu.mfma %327 * %283 + %171#35 {blocks = 1 : i32, k = 8 : i32, m = 32 : i32, n = 32 : i32} blgp =  none : vector<4xf16>, vector<4xf16>, vector<16xf32>
        %348 = amdgpu.mfma %329 * %285 + %347 {blocks = 1 : i32, k = 8 : i32, m = 32 : i32, n = 32 : i32} blgp =  none : vector<4xf16>, vector<4xf16>, vector<16xf32>
        %349 = amdgpu.mfma %327 * %287 + %171#36 {blocks = 1 : i32, k = 8 : i32, m = 32 : i32, n = 32 : i32} blgp =  none : vector<4xf16>, vector<4xf16>, vector<16xf32>
        %350 = amdgpu.mfma %329 * %289 + %349 {blocks = 1 : i32, k = 8 : i32, m = 32 : i32, n = 32 : i32} blgp =  none : vector<4xf16>, vector<4xf16>, vector<16xf32>
        %351 = amdgpu.mfma %327 * %291 + %171#37 {blocks = 1 : i32, k = 8 : i32, m = 32 : i32, n = 32 : i32} blgp =  none : vector<4xf16>, vector<4xf16>, vector<16xf32>
        %352 = amdgpu.mfma %329 * %293 + %351 {blocks = 1 : i32, k = 8 : i32, m = 32 : i32, n = 32 : i32} blgp =  none : vector<4xf16>, vector<4xf16>, vector<16xf32>
        %353 = amdgpu.mfma %327 * %295 + %171#38 {blocks = 1 : i32, k = 8 : i32, m = 32 : i32, n = 32 : i32} blgp =  none : vector<4xf16>, vector<4xf16>, vector<16xf32>
        %354 = amdgpu.mfma %329 * %297 + %353 {blocks = 1 : i32, k = 8 : i32, m = 32 : i32, n = 32 : i32} blgp =  none : vector<4xf16>, vector<4xf16>, vector<16xf32>
        %355 = vector.extract_strided_slice %240 {offsets = [0], sizes = [4], strides = [1]} : vector<8xf16> to vector<4xf16>
        %356 = amdgpu.mfma %355 * %246 + %171#39 {blocks = 1 : i32, k = 8 : i32, m = 32 : i32, n = 32 : i32} blgp =  none : vector<4xf16>, vector<4xf16>, vector<16xf32>
        %357 = vector.extract_strided_slice %240 {offsets = [4], sizes = [4], strides = [1]} : vector<8xf16> to vector<4xf16>
        %358 = amdgpu.mfma %357 * %249 + %356 {blocks = 1 : i32, k = 8 : i32, m = 32 : i32, n = 32 : i32} blgp =  none : vector<4xf16>, vector<4xf16>, vector<16xf32>
        %359 = amdgpu.mfma %355 * %251 + %171#40 {blocks = 1 : i32, k = 8 : i32, m = 32 : i32, n = 32 : i32} blgp =  none : vector<4xf16>, vector<4xf16>, vector<16xf32>
        %360 = amdgpu.mfma %357 * %253 + %359 {blocks = 1 : i32, k = 8 : i32, m = 32 : i32, n = 32 : i32} blgp =  none : vector<4xf16>, vector<4xf16>, vector<16xf32>
        %361 = amdgpu.mfma %355 * %255 + %171#41 {blocks = 1 : i32, k = 8 : i32, m = 32 : i32, n = 32 : i32} blgp =  none : vector<4xf16>, vector<4xf16>, vector<16xf32>
        %362 = amdgpu.mfma %357 * %257 + %361 {blocks = 1 : i32, k = 8 : i32, m = 32 : i32, n = 32 : i32} blgp =  none : vector<4xf16>, vector<4xf16>, vector<16xf32>
        %363 = amdgpu.mfma %355 * %259 + %171#42 {blocks = 1 : i32, k = 8 : i32, m = 32 : i32, n = 32 : i32} blgp =  none : vector<4xf16>, vector<4xf16>, vector<16xf32>
        %364 = amdgpu.mfma %357 * %261 + %363 {blocks = 1 : i32, k = 8 : i32, m = 32 : i32, n = 32 : i32} blgp =  none : vector<4xf16>, vector<4xf16>, vector<16xf32>
        %365 = amdgpu.mfma %355 * %263 + %171#43 {blocks = 1 : i32, k = 8 : i32, m = 32 : i32, n = 32 : i32} blgp =  none : vector<4xf16>, vector<4xf16>, vector<16xf32>
        %366 = amdgpu.mfma %357 * %265 + %365 {blocks = 1 : i32, k = 8 : i32, m = 32 : i32, n = 32 : i32} blgp =  none : vector<4xf16>, vector<4xf16>, vector<16xf32>
        %367 = amdgpu.mfma %355 * %267 + %171#44 {blocks = 1 : i32, k = 8 : i32, m = 32 : i32, n = 32 : i32} blgp =  none : vector<4xf16>, vector<4xf16>, vector<16xf32>
        %368 = amdgpu.mfma %357 * %269 + %367 {blocks = 1 : i32, k = 8 : i32, m = 32 : i32, n = 32 : i32} blgp =  none : vector<4xf16>, vector<4xf16>, vector<16xf32>
        %369 = amdgpu.mfma %355 * %271 + %171#45 {blocks = 1 : i32, k = 8 : i32, m = 32 : i32, n = 32 : i32} blgp =  none : vector<4xf16>, vector<4xf16>, vector<16xf32>
        %370 = amdgpu.mfma %357 * %273 + %369 {blocks = 1 : i32, k = 8 : i32, m = 32 : i32, n = 32 : i32} blgp =  none : vector<4xf16>, vector<4xf16>, vector<16xf32>
        %371 = amdgpu.mfma %355 * %275 + %171#46 {blocks = 1 : i32, k = 8 : i32, m = 32 : i32, n = 32 : i32} blgp =  none : vector<4xf16>, vector<4xf16>, vector<16xf32>
        %372 = amdgpu.mfma %357 * %277 + %371 {blocks = 1 : i32, k = 8 : i32, m = 32 : i32, n = 32 : i32} blgp =  none : vector<4xf16>, vector<4xf16>, vector<16xf32>
        %373 = amdgpu.mfma %355 * %279 + %171#47 {blocks = 1 : i32, k = 8 : i32, m = 32 : i32, n = 32 : i32} blgp =  none : vector<4xf16>, vector<4xf16>, vector<16xf32>
        %374 = amdgpu.mfma %357 * %281 + %373 {blocks = 1 : i32, k = 8 : i32, m = 32 : i32, n = 32 : i32} blgp =  none : vector<4xf16>, vector<4xf16>, vector<16xf32>
        %375 = amdgpu.mfma %355 * %283 + %171#48 {blocks = 1 : i32, k = 8 : i32, m = 32 : i32, n = 32 : i32} blgp =  none : vector<4xf16>, vector<4xf16>, vector<16xf32>
        %376 = amdgpu.mfma %357 * %285 + %375 {blocks = 1 : i32, k = 8 : i32, m = 32 : i32, n = 32 : i32} blgp =  none : vector<4xf16>, vector<4xf16>, vector<16xf32>
        %377 = amdgpu.mfma %355 * %287 + %171#49 {blocks = 1 : i32, k = 8 : i32, m = 32 : i32, n = 32 : i32} blgp =  none : vector<4xf16>, vector<4xf16>, vector<16xf32>
        %378 = amdgpu.mfma %357 * %289 + %377 {blocks = 1 : i32, k = 8 : i32, m = 32 : i32, n = 32 : i32} blgp =  none : vector<4xf16>, vector<4xf16>, vector<16xf32>
        %379 = amdgpu.mfma %355 * %291 + %171#50 {blocks = 1 : i32, k = 8 : i32, m = 32 : i32, n = 32 : i32} blgp =  none : vector<4xf16>, vector<4xf16>, vector<16xf32>
        %380 = amdgpu.mfma %357 * %293 + %379 {blocks = 1 : i32, k = 8 : i32, m = 32 : i32, n = 32 : i32} blgp =  none : vector<4xf16>, vector<4xf16>, vector<16xf32>
        %381 = amdgpu.mfma %355 * %295 + %171#51 {blocks = 1 : i32, k = 8 : i32, m = 32 : i32, n = 32 : i32} blgp =  none : vector<4xf16>, vector<4xf16>, vector<16xf32>
        %382 = amdgpu.mfma %357 * %297 + %381 {blocks = 1 : i32, k = 8 : i32, m = 32 : i32, n = 32 : i32} blgp =  none : vector<4xf16>, vector<4xf16>, vector<16xf32>
        %383 = vector.extract_strided_slice %244 {offsets = [0], sizes = [4], strides = [1]} : vector<8xf16> to vector<4xf16>
        %384 = amdgpu.mfma %383 * %246 + %171#52 {blocks = 1 : i32, k = 8 : i32, m = 32 : i32, n = 32 : i32} blgp =  none : vector<4xf16>, vector<4xf16>, vector<16xf32>
        %385 = vector.extract_strided_slice %244 {offsets = [4], sizes = [4], strides = [1]} : vector<8xf16> to vector<4xf16>
        %386 = amdgpu.mfma %385 * %249 + %384 {blocks = 1 : i32, k = 8 : i32, m = 32 : i32, n = 32 : i32} blgp =  none : vector<4xf16>, vector<4xf16>, vector<16xf32>
        %387 = amdgpu.mfma %383 * %251 + %171#53 {blocks = 1 : i32, k = 8 : i32, m = 32 : i32, n = 32 : i32} blgp =  none : vector<4xf16>, vector<4xf16>, vector<16xf32>
        %388 = amdgpu.mfma %385 * %253 + %387 {blocks = 1 : i32, k = 8 : i32, m = 32 : i32, n = 32 : i32} blgp =  none : vector<4xf16>, vector<4xf16>, vector<16xf32>
        %389 = amdgpu.mfma %383 * %255 + %171#54 {blocks = 1 : i32, k = 8 : i32, m = 32 : i32, n = 32 : i32} blgp =  none : vector<4xf16>, vector<4xf16>, vector<16xf32>
        %390 = amdgpu.mfma %385 * %257 + %389 {blocks = 1 : i32, k = 8 : i32, m = 32 : i32, n = 32 : i32} blgp =  none : vector<4xf16>, vector<4xf16>, vector<16xf32>
        %391 = amdgpu.mfma %383 * %259 + %171#55 {blocks = 1 : i32, k = 8 : i32, m = 32 : i32, n = 32 : i32} blgp =  none : vector<4xf16>, vector<4xf16>, vector<16xf32>
        %392 = amdgpu.mfma %385 * %261 + %391 {blocks = 1 : i32, k = 8 : i32, m = 32 : i32, n = 32 : i32} blgp =  none : vector<4xf16>, vector<4xf16>, vector<16xf32>
        %393 = amdgpu.mfma %383 * %263 + %171#56 {blocks = 1 : i32, k = 8 : i32, m = 32 : i32, n = 32 : i32} blgp =  none : vector<4xf16>, vector<4xf16>, vector<16xf32>
        %394 = amdgpu.mfma %385 * %265 + %393 {blocks = 1 : i32, k = 8 : i32, m = 32 : i32, n = 32 : i32} blgp =  none : vector<4xf16>, vector<4xf16>, vector<16xf32>
        %395 = amdgpu.mfma %383 * %267 + %171#57 {blocks = 1 : i32, k = 8 : i32, m = 32 : i32, n = 32 : i32} blgp =  none : vector<4xf16>, vector<4xf16>, vector<16xf32>
        %396 = amdgpu.mfma %385 * %269 + %395 {blocks = 1 : i32, k = 8 : i32, m = 32 : i32, n = 32 : i32} blgp =  none : vector<4xf16>, vector<4xf16>, vector<16xf32>
        %397 = amdgpu.mfma %383 * %271 + %171#58 {blocks = 1 : i32, k = 8 : i32, m = 32 : i32, n = 32 : i32} blgp =  none : vector<4xf16>, vector<4xf16>, vector<16xf32>
        %398 = amdgpu.mfma %385 * %273 + %397 {blocks = 1 : i32, k = 8 : i32, m = 32 : i32, n = 32 : i32} blgp =  none : vector<4xf16>, vector<4xf16>, vector<16xf32>
        %399 = amdgpu.mfma %383 * %275 + %171#59 {blocks = 1 : i32, k = 8 : i32, m = 32 : i32, n = 32 : i32} blgp =  none : vector<4xf16>, vector<4xf16>, vector<16xf32>
        %400 = amdgpu.mfma %385 * %277 + %399 {blocks = 1 : i32, k = 8 : i32, m = 32 : i32, n = 32 : i32} blgp =  none : vector<4xf16>, vector<4xf16>, vector<16xf32>
        %401 = amdgpu.mfma %383 * %279 + %171#60 {blocks = 1 : i32, k = 8 : i32, m = 32 : i32, n = 32 : i32} blgp =  none : vector<4xf16>, vector<4xf16>, vector<16xf32>
        %402 = amdgpu.mfma %385 * %281 + %401 {blocks = 1 : i32, k = 8 : i32, m = 32 : i32, n = 32 : i32} blgp =  none : vector<4xf16>, vector<4xf16>, vector<16xf32>
        %403 = amdgpu.mfma %383 * %283 + %171#61 {blocks = 1 : i32, k = 8 : i32, m = 32 : i32, n = 32 : i32} blgp =  none : vector<4xf16>, vector<4xf16>, vector<16xf32>
        %404 = amdgpu.mfma %385 * %285 + %403 {blocks = 1 : i32, k = 8 : i32, m = 32 : i32, n = 32 : i32} blgp =  none : vector<4xf16>, vector<4xf16>, vector<16xf32>
        %405 = amdgpu.mfma %383 * %287 + %171#62 {blocks = 1 : i32, k = 8 : i32, m = 32 : i32, n = 32 : i32} blgp =  none : vector<4xf16>, vector<4xf16>, vector<16xf32>
        %406 = amdgpu.mfma %385 * %289 + %405 {blocks = 1 : i32, k = 8 : i32, m = 32 : i32, n = 32 : i32} blgp =  none : vector<4xf16>, vector<4xf16>, vector<16xf32>
        %407 = amdgpu.mfma %383 * %291 + %171#63 {blocks = 1 : i32, k = 8 : i32, m = 32 : i32, n = 32 : i32} blgp =  none : vector<4xf16>, vector<4xf16>, vector<16xf32>
        %408 = amdgpu.mfma %385 * %293 + %407 {blocks = 1 : i32, k = 8 : i32, m = 32 : i32, n = 32 : i32} blgp =  none : vector<4xf16>, vector<4xf16>, vector<16xf32>
        %409 = amdgpu.mfma %383 * %295 + %171#64 {blocks = 1 : i32, k = 8 : i32, m = 32 : i32, n = 32 : i32} blgp =  none : vector<4xf16>, vector<4xf16>, vector<16xf32>
        %410 = amdgpu.mfma %385 * %297 + %409 {blocks = 1 : i32, k = 8 : i32, m = 32 : i32, n = 32 : i32} blgp =  none : vector<4xf16>, vector<4xf16>, vector<16xf32>
        %411 = vector.extract_strided_slice %250 {offsets = [0], sizes = [1], strides = [1]} : vector<16xf32> to vector<1xf32>
        %412 = stream.binding.subspan %arg2[%c0] : !stream.binding -> memref<642x1024xf32, strided<[1024, 1], offset: ?>>
        %413 = affine.apply #map38()[%block_id_y, %thread_id_y]
        %414 = affine.apply #map39()[%block_id_y]
        %415 = arith.minsi %413, %414 : index
        %416 = arith.minsi %415, %c1024 : index
        %417 = affine.apply #map40()[%thread_id_x, %block_id_x, %block_id_y, %2, %thread_id_y]
        %418 = arith.cmpi slt, %417, %416 : index
        %419 = affine.apply #map41()[%block_id_x, %thread_id_x]
        %420 = affine.apply #map42()[%block_id_x]
        %421 = arith.minsi %419, %420 : index
        %422 = arith.minsi %421, %c642 : index
        %423 = affine.apply #map43()[%block_id_x, %block_id_y, %2, %thread_id_x]
        %424 = arith.cmpi slt, %423, %422 : index
        %425 = arith.andi %418, %424 : i1
        %426 = affine.apply #map44()[%block_id_x, %block_id_y, %2]
        %427 = affine.apply #map45()[%block_id_x, %block_id_y, %2]
        %428 = affine.apply #map46()[%thread_id_x]
        %429 = arith.muli %426, %c1024 overflow<nsw> : index
        %430 = arith.muli %428, %c1024 overflow<nsw> : index
        %431 = arith.addi %429, %427 overflow<nsw> : index
        %432 = arith.addi %430, %172 overflow<nsw> : index
        %base_buffer_9, %offset_10, %sizes_11:2, %strides_12:2 = memref.extract_strided_metadata %412 : memref<642x1024xf32, strided<[1024, 1], offset: ?>> -> memref<f32>, index, index, index, index, index
        %433 = arith.addi %431, %offset_10 overflow<nsw> : index
        %reinterpret_cast_13 = memref.reinterpret_cast %412 to offset: [%433], sizes: [%c536870910], strides: [1] : memref<642x1024xf32, strided<[1024, 1], offset: ?>> to memref<?xf32, strided<[1], offset: ?>>
        %434 = amdgpu.fat_raw_buffer_cast %reinterpret_cast_13 validBytes(%c2147483643_i32) cacheSwizzleStride(%c1024_i14) resetOffset : memref<?xf32, strided<[1], offset: ?>> to memref<?xf32, #amdgpu.address_space<fat_raw_buffer>>
        %435 = arith.select %425, %432, %c536870911 : index
        vector.store %411, %434[%435] : memref<?xf32, #amdgpu.address_space<fat_raw_buffer>>, vector<1xf32>
        %436 = vector.extract_strided_slice %250 {offsets = [1], sizes = [1], strides = [1]} : vector<16xf32> to vector<1xf32>
        %437 = affine.apply #map47()[%block_id_x, %block_id_y, %2, %thread_id_x]
        %438 = arith.cmpi slt, %437, %422 : index
        %439 = arith.andi %418, %438 : i1
        %440 = affine.apply #map48()[%thread_id_x]
        %441 = arith.muli %440, %c1024 overflow<nsw> : index
        %442 = arith.addi %441, %172 overflow<nsw> : index
        %443 = arith.select %439, %442, %c536870911 : index
        vector.store %436, %434[%443] : memref<?xf32, #amdgpu.address_space<fat_raw_buffer>>, vector<1xf32>
        %444 = vector.extract_strided_slice %250 {offsets = [2], sizes = [1], strides = [1]} : vector<16xf32> to vector<1xf32>
        %445 = affine.apply #map49()[%block_id_x, %block_id_y, %2, %thread_id_x]
        %446 = arith.cmpi slt, %445, %422 : index
        %447 = arith.andi %418, %446 : i1
        %448 = affine.apply #map50()[%thread_id_x]
        %449 = arith.muli %448, %c1024 overflow<nsw> : index
        %450 = arith.addi %449, %172 overflow<nsw> : index
        %451 = arith.select %447, %450, %c536870911 : index
        vector.store %444, %434[%451] : memref<?xf32, #amdgpu.address_space<fat_raw_buffer>>, vector<1xf32>
        %452 = vector.extract_strided_slice %250 {offsets = [3], sizes = [1], strides = [1]} : vector<16xf32> to vector<1xf32>
        %453 = affine.apply #map51()[%block_id_x, %block_id_y, %2, %thread_id_x]
        %454 = arith.cmpi slt, %453, %422 : index
        %455 = arith.andi %418, %454 : i1
        %456 = affine.apply #map52()[%thread_id_x]
        %457 = arith.muli %456, %c1024 overflow<nsw> : index
        %458 = arith.addi %457, %172 overflow<nsw> : index
        %459 = arith.select %455, %458, %c536870911 : index
        vector.store %452, %434[%459] : memref<?xf32, #amdgpu.address_space<fat_raw_buffer>>, vector<1xf32>
        %460 = vector.extract_strided_slice %250 {offsets = [4], sizes = [1], strides = [1]} : vector<16xf32> to vector<1xf32>
        %461 = affine.apply #map53()[%block_id_x, %block_id_y, %2, %thread_id_x]
        %462 = arith.cmpi slt, %461, %422 : index
        %463 = arith.andi %418, %462 : i1
        %464 = affine.apply #map54()[%thread_id_x]
        %465 = arith.muli %464, %c1024 overflow<nsw> : index
        %466 = arith.addi %465, %172 overflow<nsw> : index
        %467 = arith.select %463, %466, %c536870911 : index
        vector.store %460, %434[%467] : memref<?xf32, #amdgpu.address_space<fat_raw_buffer>>, vector<1xf32>
        %468 = vector.extract_strided_slice %250 {offsets = [5], sizes = [1], strides = [1]} : vector<16xf32> to vector<1xf32>
        %469 = affine.apply #map55()[%block_id_x, %block_id_y, %2, %thread_id_x]
        %470 = arith.cmpi slt, %469, %422 : index
        %471 = arith.andi %418, %470 : i1
        %472 = affine.apply #map56()[%thread_id_x]
        %473 = arith.muli %472, %c1024 overflow<nsw> : index
        %474 = arith.addi %473, %172 overflow<nsw> : index
        %475 = arith.select %471, %474, %c536870911 : index
        vector.store %468, %434[%475] : memref<?xf32, #amdgpu.address_space<fat_raw_buffer>>, vector<1xf32>
        %476 = vector.extract_strided_slice %250 {offsets = [6], sizes = [1], strides = [1]} : vector<16xf32> to vector<1xf32>
        %477 = affine.apply #map57()[%block_id_x, %block_id_y, %2, %thread_id_x]
        %478 = arith.cmpi slt, %477, %422 : index
        %479 = arith.andi %418, %478 : i1
        %480 = affine.apply #map58()[%thread_id_x]
        %481 = arith.muli %480, %c1024 overflow<nsw> : index
        %482 = arith.addi %481, %172 overflow<nsw> : index
        %483 = arith.select %479, %482, %c536870911 : index
        vector.store %476, %434[%483] : memref<?xf32, #amdgpu.address_space<fat_raw_buffer>>, vector<1xf32>
        %484 = vector.extract_strided_slice %250 {offsets = [7], sizes = [1], strides = [1]} : vector<16xf32> to vector<1xf32>
        %485 = affine.apply #map59()[%block_id_x, %block_id_y, %2, %thread_id_x]
        %486 = arith.cmpi slt, %485, %422 : index
        %487 = arith.andi %418, %486 : i1
        %488 = affine.apply #map60()[%thread_id_x]
        %489 = arith.muli %488, %c1024 overflow<nsw> : index
        %490 = arith.addi %489, %172 overflow<nsw> : index
        %491 = arith.select %487, %490, %c536870911 : index
        vector.store %484, %434[%491] : memref<?xf32, #amdgpu.address_space<fat_raw_buffer>>, vector<1xf32>
        %492 = vector.extract_strided_slice %250 {offsets = [8], sizes = [1], strides = [1]} : vector<16xf32> to vector<1xf32>
        %493 = affine.apply #map61()[%block_id_x, %block_id_y, %2, %thread_id_x]
        %494 = arith.cmpi slt, %493, %422 : index
        %495 = arith.andi %418, %494 : i1
        %496 = affine.apply #map62()[%thread_id_x]
        %497 = arith.muli %496, %c1024 overflow<nsw> : index
        %498 = arith.addi %497, %172 overflow<nsw> : index
        %499 = arith.select %495, %498, %c536870911 : index
        vector.store %492, %434[%499] : memref<?xf32, #amdgpu.address_space<fat_raw_buffer>>, vector<1xf32>
        %500 = vector.extract_strided_slice %250 {offsets = [9], sizes = [1], strides = [1]} : vector<16xf32> to vector<1xf32>
        %501 = affine.apply #map63()[%block_id_x, %block_id_y, %2, %thread_id_x]
        %502 = arith.cmpi slt, %501, %422 : index
        %503 = arith.andi %418, %502 : i1
        %504 = affine.apply #map64()[%thread_id_x]
        %505 = arith.muli %504, %c1024 overflow<nsw> : index
        %506 = arith.addi %505, %172 overflow<nsw> : index
        %507 = arith.select %503, %506, %c536870911 : index
        vector.store %500, %434[%507] : memref<?xf32, #amdgpu.address_space<fat_raw_buffer>>, vector<1xf32>
        %508 = vector.extract_strided_slice %250 {offsets = [10], sizes = [1], strides = [1]} : vector<16xf32> to vector<1xf32>
        %509 = affine.apply #map65()[%block_id_x, %block_id_y, %2, %thread_id_x]
        %510 = arith.cmpi slt, %509, %422 : index
        %511 = arith.andi %418, %510 : i1
        %512 = affine.apply #map66()[%thread_id_x]
        %513 = arith.muli %512, %c1024 overflow<nsw> : index
        %514 = arith.addi %513, %172 overflow<nsw> : index
        %515 = arith.select %511, %514, %c536870911 : index
        vector.store %508, %434[%515] : memref<?xf32, #amdgpu.address_space<fat_raw_buffer>>, vector<1xf32>
        %516 = vector.extract_strided_slice %250 {offsets = [11], sizes = [1], strides = [1]} : vector<16xf32> to vector<1xf32>
        %517 = affine.apply #map67()[%block_id_x, %block_id_y, %2, %thread_id_x]
        %518 = arith.cmpi slt, %517, %422 : index
        %519 = arith.andi %418, %518 : i1
        %520 = affine.apply #map68()[%thread_id_x]
        %521 = arith.muli %520, %c1024 overflow<nsw> : index
        %522 = arith.addi %521, %172 overflow<nsw> : index
        %523 = arith.select %519, %522, %c536870911 : index
        vector.store %516, %434[%523] : memref<?xf32, #amdgpu.address_space<fat_raw_buffer>>, vector<1xf32>
        %524 = vector.extract_strided_slice %250 {offsets = [12], sizes = [1], strides = [1]} : vector<16xf32> to vector<1xf32>
        %525 = affine.apply #map69()[%block_id_x, %block_id_y, %2, %thread_id_x]
        %526 = arith.cmpi slt, %525, %422 : index
        %527 = arith.andi %418, %526 : i1
        %528 = affine.apply #map70()[%thread_id_x]
        %529 = arith.muli %528, %c1024 overflow<nsw> : index
        %530 = arith.addi %529, %172 overflow<nsw> : index
        %531 = arith.select %527, %530, %c536870911 : index
        vector.store %524, %434[%531] : memref<?xf32, #amdgpu.address_space<fat_raw_buffer>>, vector<1xf32>
        %532 = vector.extract_strided_slice %250 {offsets = [13], sizes = [1], strides = [1]} : vector<16xf32> to vector<1xf32>
        %533 = affine.apply #map71()[%block_id_x, %block_id_y, %2, %thread_id_x]
        %534 = arith.cmpi slt, %533, %422 : index
        %535 = arith.andi %418, %534 : i1
        %536 = affine.apply #map72()[%thread_id_x]
        %537 = arith.muli %536, %c1024 overflow<nsw> : index
        %538 = arith.addi %537, %172 overflow<nsw> : index
        %539 = arith.select %535, %538, %c536870911 : index
        vector.store %532, %434[%539] : memref<?xf32, #amdgpu.address_space<fat_raw_buffer>>, vector<1xf32>
        %540 = vector.extract_strided_slice %250 {offsets = [14], sizes = [1], strides = [1]} : vector<16xf32> to vector<1xf32>
        %541 = affine.apply #map73()[%block_id_x, %block_id_y, %2, %thread_id_x]
        %542 = arith.cmpi slt, %541, %422 : index
        %543 = arith.andi %418, %542 : i1
        %544 = affine.apply #map74()[%thread_id_x]
        %545 = arith.muli %544, %c1024 overflow<nsw> : index
        %546 = arith.addi %545, %172 overflow<nsw> : index
        %547 = arith.select %543, %546, %c536870911 : index
        vector.store %540, %434[%547] : memref<?xf32, #amdgpu.address_space<fat_raw_buffer>>, vector<1xf32>
        %548 = vector.extract_strided_slice %250 {offsets = [15], sizes = [1], strides = [1]} : vector<16xf32> to vector<1xf32>
        %549 = affine.apply #map75()[%block_id_x, %block_id_y, %2, %thread_id_x]
        %550 = arith.cmpi slt, %549, %422 : index
        %551 = arith.andi %418, %550 : i1
        %552 = affine.apply #map76()[%thread_id_x]
        %553 = arith.muli %552, %c1024 overflow<nsw> : index
        %554 = arith.addi %553, %172 overflow<nsw> : index
        %555 = arith.select %551, %554, %c536870911 : index
        vector.store %548, %434[%555] : memref<?xf32, #amdgpu.address_space<fat_raw_buffer>>, vector<1xf32>
        %556 = vector.extract_strided_slice %254 {offsets = [0], sizes = [1], strides = [1]} : vector<16xf32> to vector<1xf32>
        %557 = affine.apply #map77()[%thread_id_x, %block_id_x, %block_id_y, %2, %thread_id_y]
        %558 = arith.cmpi slt, %557, %416 : index
        %559 = arith.andi %558, %424 : i1
        %560 = arith.addi %430, %177 overflow<nsw> : index
        %561 = arith.select %559, %560, %c536870911 : index
        vector.store %556, %434[%561] : memref<?xf32, #amdgpu.address_space<fat_raw_buffer>>, vector<1xf32>
        %562 = vector.extract_strided_slice %254 {offsets = [1], sizes = [1], strides = [1]} : vector<16xf32> to vector<1xf32>
        %563 = arith.andi %558, %438 : i1
        %564 = arith.addi %441, %177 overflow<nsw> : index
        %565 = arith.select %563, %564, %c536870911 : index
        vector.store %562, %434[%565] : memref<?xf32, #amdgpu.address_space<fat_raw_buffer>>, vector<1xf32>
        %566 = vector.extract_strided_slice %254 {offsets = [2], sizes = [1], strides = [1]} : vector<16xf32> to vector<1xf32>
        %567 = arith.andi %558, %446 : i1
        %568 = arith.addi %449, %177 overflow<nsw> : index
        %569 = arith.select %567, %568, %c536870911 : index
        vector.store %566, %434[%569] : memref<?xf32, #amdgpu.address_space<fat_raw_buffer>>, vector<1xf32>
        %570 = vector.extract_strided_slice %254 {offsets = [3], sizes = [1], strides = [1]} : vector<16xf32> to vector<1xf32>
        %571 = arith.andi %558, %454 : i1
        %572 = arith.addi %457, %177 overflow<nsw> : index
        %573 = arith.select %571, %572, %c536870911 : index
        vector.store %570, %434[%573] : memref<?xf32, #amdgpu.address_space<fat_raw_buffer>>, vector<1xf32>
        %574 = vector.extract_strided_slice %254 {offsets = [4], sizes = [1], strides = [1]} : vector<16xf32> to vector<1xf32>
        %575 = arith.andi %558, %462 : i1
        %576 = arith.addi %465, %177 overflow<nsw> : index
        %577 = arith.select %575, %576, %c536870911 : index
        vector.store %574, %434[%577] : memref<?xf32, #amdgpu.address_space<fat_raw_buffer>>, vector<1xf32>
        %578 = vector.extract_strided_slice %254 {offsets = [5], sizes = [1], strides = [1]} : vector<16xf32> to vector<1xf32>
        %579 = arith.andi %558, %470 : i1
        %580 = arith.addi %473, %177 overflow<nsw> : index
        %581 = arith.select %579, %580, %c536870911 : index
        vector.store %578, %434[%581] : memref<?xf32, #amdgpu.address_space<fat_raw_buffer>>, vector<1xf32>
        %582 = vector.extract_strided_slice %254 {offsets = [6], sizes = [1], strides = [1]} : vector<16xf32> to vector<1xf32>
        %583 = arith.andi %558, %478 : i1
        %584 = arith.addi %481, %177 overflow<nsw> : index
        %585 = arith.select %583, %584, %c536870911 : index
        vector.store %582, %434[%585] : memref<?xf32, #amdgpu.address_space<fat_raw_buffer>>, vector<1xf32>
        %586 = vector.extract_strided_slice %254 {offsets = [7], sizes = [1], strides = [1]} : vector<16xf32> to vector<1xf32>
        %587 = arith.andi %558, %486 : i1
        %588 = arith.addi %489, %177 overflow<nsw> : index
        %589 = arith.select %587, %588, %c536870911 : index
        vector.store %586, %434[%589] : memref<?xf32, #amdgpu.address_space<fat_raw_buffer>>, vector<1xf32>
        %590 = vector.extract_strided_slice %254 {offsets = [8], sizes = [1], strides = [1]} : vector<16xf32> to vector<1xf32>
        %591 = arith.andi %558, %494 : i1
        %592 = arith.addi %497, %177 overflow<nsw> : index
        %593 = arith.select %591, %592, %c536870911 : index
        vector.store %590, %434[%593] : memref<?xf32, #amdgpu.address_space<fat_raw_buffer>>, vector<1xf32>
        %594 = vector.extract_strided_slice %254 {offsets = [9], sizes = [1], strides = [1]} : vector<16xf32> to vector<1xf32>
        %595 = arith.andi %558, %502 : i1
        %596 = arith.addi %505, %177 overflow<nsw> : index
        %597 = arith.select %595, %596, %c536870911 : index
        vector.store %594, %434[%597] : memref<?xf32, #amdgpu.address_space<fat_raw_buffer>>, vector<1xf32>
        %598 = vector.extract_strided_slice %254 {offsets = [10], sizes = [1], strides = [1]} : vector<16xf32> to vector<1xf32>
        %599 = arith.andi %558, %510 : i1
        %600 = arith.addi %513, %177 overflow<nsw> : index
        %601 = arith.select %599, %600, %c536870911 : index
        vector.store %598, %434[%601] : memref<?xf32, #amdgpu.address_space<fat_raw_buffer>>, vector<1xf32>
        %602 = vector.extract_strided_slice %254 {offsets = [11], sizes = [1], strides = [1]} : vector<16xf32> to vector<1xf32>
        %603 = arith.andi %558, %518 : i1
        %604 = arith.addi %521, %177 overflow<nsw> : index
        %605 = arith.select %603, %604, %c536870911 : index
        vector.store %602, %434[%605] : memref<?xf32, #amdgpu.address_space<fat_raw_buffer>>, vector<1xf32>
        %606 = vector.extract_strided_slice %254 {offsets = [12], sizes = [1], strides = [1]} : vector<16xf32> to vector<1xf32>
        %607 = arith.andi %558, %526 : i1
        %608 = arith.addi %529, %177 overflow<nsw> : index
        %609 = arith.select %607, %608, %c536870911 : index
        vector.store %606, %434[%609] : memref<?xf32, #amdgpu.address_space<fat_raw_buffer>>, vector<1xf32>
        %610 = vector.extract_strided_slice %254 {offsets = [13], sizes = [1], strides = [1]} : vector<16xf32> to vector<1xf32>
        %611 = arith.andi %558, %534 : i1
        %612 = arith.addi %537, %177 overflow<nsw> : index
        %613 = arith.select %611, %612, %c536870911 : index
        vector.store %610, %434[%613] : memref<?xf32, #amdgpu.address_space<fat_raw_buffer>>, vector<1xf32>
        %614 = vector.extract_strided_slice %254 {offsets = [14], sizes = [1], strides = [1]} : vector<16xf32> to vector<1xf32>
        %615 = arith.andi %558, %542 : i1
        %616 = arith.addi %545, %177 overflow<nsw> : index
        %617 = arith.select %615, %616, %c536870911 : index
        vector.store %614, %434[%617] : memref<?xf32, #amdgpu.address_space<fat_raw_buffer>>, vector<1xf32>
        %618 = vector.extract_strided_slice %254 {offsets = [15], sizes = [1], strides = [1]} : vector<16xf32> to vector<1xf32>
        %619 = arith.andi %558, %550 : i1
        %620 = arith.addi %553, %177 overflow<nsw> : index
        %621 = arith.select %619, %620, %c536870911 : index
        vector.store %618, %434[%621] : memref<?xf32, #amdgpu.address_space<fat_raw_buffer>>, vector<1xf32>
        %622 = vector.extract_strided_slice %258 {offsets = [0], sizes = [1], strides = [1]} : vector<16xf32> to vector<1xf32>
        %623 = affine.apply #map78()[%thread_id_x, %block_id_x, %block_id_y, %2, %thread_id_y]
        %624 = arith.cmpi slt, %623, %416 : index
        %625 = arith.andi %624, %424 : i1
        %626 = arith.addi %430, %181 overflow<nsw> : index
        %627 = arith.select %625, %626, %c536870911 : index
        vector.store %622, %434[%627] : memref<?xf32, #amdgpu.address_space<fat_raw_buffer>>, vector<1xf32>
        %628 = vector.extract_strided_slice %258 {offsets = [1], sizes = [1], strides = [1]} : vector<16xf32> to vector<1xf32>
        %629 = arith.andi %624, %438 : i1
        %630 = arith.addi %441, %181 overflow<nsw> : index
        %631 = arith.select %629, %630, %c536870911 : index
        vector.store %628, %434[%631] : memref<?xf32, #amdgpu.address_space<fat_raw_buffer>>, vector<1xf32>
        %632 = vector.extract_strided_slice %258 {offsets = [2], sizes = [1], strides = [1]} : vector<16xf32> to vector<1xf32>
        %633 = arith.andi %624, %446 : i1
        %634 = arith.addi %449, %181 overflow<nsw> : index
        %635 = arith.select %633, %634, %c536870911 : index
        vector.store %632, %434[%635] : memref<?xf32, #amdgpu.address_space<fat_raw_buffer>>, vector<1xf32>
        %636 = vector.extract_strided_slice %258 {offsets = [3], sizes = [1], strides = [1]} : vector<16xf32> to vector<1xf32>
        %637 = arith.andi %624, %454 : i1
        %638 = arith.addi %457, %181 overflow<nsw> : index
        %639 = arith.select %637, %638, %c536870911 : index
        vector.store %636, %434[%639] : memref<?xf32, #amdgpu.address_space<fat_raw_buffer>>, vector<1xf32>
        %640 = vector.extract_strided_slice %258 {offsets = [4], sizes = [1], strides = [1]} : vector<16xf32> to vector<1xf32>
        %641 = arith.andi %624, %462 : i1
        %642 = arith.addi %465, %181 overflow<nsw> : index
        %643 = arith.select %641, %642, %c536870911 : index
        vector.store %640, %434[%643] : memref<?xf32, #amdgpu.address_space<fat_raw_buffer>>, vector<1xf32>
        %644 = vector.extract_strided_slice %258 {offsets = [5], sizes = [1], strides = [1]} : vector<16xf32> to vector<1xf32>
        %645 = arith.andi %624, %470 : i1
        %646 = arith.addi %473, %181 overflow<nsw> : index
        %647 = arith.select %645, %646, %c536870911 : index
        vector.store %644, %434[%647] : memref<?xf32, #amdgpu.address_space<fat_raw_buffer>>, vector<1xf32>
        %648 = vector.extract_strided_slice %258 {offsets = [6], sizes = [1], strides = [1]} : vector<16xf32> to vector<1xf32>
        %649 = arith.andi %624, %478 : i1
        %650 = arith.addi %481, %181 overflow<nsw> : index
        %651 = arith.select %649, %650, %c536870911 : index
        vector.store %648, %434[%651] : memref<?xf32, #amdgpu.address_space<fat_raw_buffer>>, vector<1xf32>
        %652 = vector.extract_strided_slice %258 {offsets = [7], sizes = [1], strides = [1]} : vector<16xf32> to vector<1xf32>
        %653 = arith.andi %624, %486 : i1
        %654 = arith.addi %489, %181 overflow<nsw> : index
        %655 = arith.select %653, %654, %c536870911 : index
        vector.store %652, %434[%655] : memref<?xf32, #amdgpu.address_space<fat_raw_buffer>>, vector<1xf32>
        %656 = vector.extract_strided_slice %258 {offsets = [8], sizes = [1], strides = [1]} : vector<16xf32> to vector<1xf32>
        %657 = arith.andi %624, %494 : i1
        %658 = arith.addi %497, %181 overflow<nsw> : index
        %659 = arith.select %657, %658, %c536870911 : index
        vector.store %656, %434[%659] : memref<?xf32, #amdgpu.address_space<fat_raw_buffer>>, vector<1xf32>
        %660 = vector.extract_strided_slice %258 {offsets = [9], sizes = [1], strides = [1]} : vector<16xf32> to vector<1xf32>
        %661 = arith.andi %624, %502 : i1
        %662 = arith.addi %505, %181 overflow<nsw> : index
        %663 = arith.select %661, %662, %c536870911 : index
        vector.store %660, %434[%663] : memref<?xf32, #amdgpu.address_space<fat_raw_buffer>>, vector<1xf32>
        %664 = vector.extract_strided_slice %258 {offsets = [10], sizes = [1], strides = [1]} : vector<16xf32> to vector<1xf32>
        %665 = arith.andi %624, %510 : i1
        %666 = arith.addi %513, %181 overflow<nsw> : index
        %667 = arith.select %665, %666, %c536870911 : index
        vector.store %664, %434[%667] : memref<?xf32, #amdgpu.address_space<fat_raw_buffer>>, vector<1xf32>
        %668 = vector.extract_strided_slice %258 {offsets = [11], sizes = [1], strides = [1]} : vector<16xf32> to vector<1xf32>
        %669 = arith.andi %624, %518 : i1
        %670 = arith.addi %521, %181 overflow<nsw> : index
        %671 = arith.select %669, %670, %c536870911 : index
        vector.store %668, %434[%671] : memref<?xf32, #amdgpu.address_space<fat_raw_buffer>>, vector<1xf32>
        %672 = vector.extract_strided_slice %258 {offsets = [12], sizes = [1], strides = [1]} : vector<16xf32> to vector<1xf32>
        %673 = arith.andi %624, %526 : i1
        %674 = arith.addi %529, %181 overflow<nsw> : index
        %675 = arith.select %673, %674, %c536870911 : index
        vector.store %672, %434[%675] : memref<?xf32, #amdgpu.address_space<fat_raw_buffer>>, vector<1xf32>
        %676 = vector.extract_strided_slice %258 {offsets = [13], sizes = [1], strides = [1]} : vector<16xf32> to vector<1xf32>
        %677 = arith.andi %624, %534 : i1
        %678 = arith.addi %537, %181 overflow<nsw> : index
        %679 = arith.select %677, %678, %c536870911 : index
        vector.store %676, %434[%679] : memref<?xf32, #amdgpu.address_space<fat_raw_buffer>>, vector<1xf32>
        %680 = vector.extract_strided_slice %258 {offsets = [14], sizes = [1], strides = [1]} : vector<16xf32> to vector<1xf32>
        %681 = arith.andi %624, %542 : i1
        %682 = arith.addi %545, %181 overflow<nsw> : index
        %683 = arith.select %681, %682, %c536870911 : index
        vector.store %680, %434[%683] : memref<?xf32, #amdgpu.address_space<fat_raw_buffer>>, vector<1xf32>
        %684 = vector.extract_strided_slice %258 {offsets = [15], sizes = [1], strides = [1]} : vector<16xf32> to vector<1xf32>
        %685 = arith.andi %624, %550 : i1
        %686 = arith.addi %553, %181 overflow<nsw> : index
        %687 = arith.select %685, %686, %c536870911 : index
        vector.store %684, %434[%687] : memref<?xf32, #amdgpu.address_space<fat_raw_buffer>>, vector<1xf32>
        %688 = vector.extract_strided_slice %262 {offsets = [0], sizes = [1], strides = [1]} : vector<16xf32> to vector<1xf32>
        %689 = affine.apply #map79()[%thread_id_x, %block_id_x, %block_id_y, %2, %thread_id_y]
        %690 = arith.cmpi slt, %689, %416 : index
        %691 = arith.andi %690, %424 : i1
        %692 = arith.addi %430, %185 overflow<nsw> : index
        %693 = arith.select %691, %692, %c536870911 : index
        vector.store %688, %434[%693] : memref<?xf32, #amdgpu.address_space<fat_raw_buffer>>, vector<1xf32>
        %694 = vector.extract_strided_slice %262 {offsets = [1], sizes = [1], strides = [1]} : vector<16xf32> to vector<1xf32>
        %695 = arith.andi %690, %438 : i1
        %696 = arith.addi %441, %185 overflow<nsw> : index
        %697 = arith.select %695, %696, %c536870911 : index
        vector.store %694, %434[%697] : memref<?xf32, #amdgpu.address_space<fat_raw_buffer>>, vector<1xf32>
        %698 = vector.extract_strided_slice %262 {offsets = [2], sizes = [1], strides = [1]} : vector<16xf32> to vector<1xf32>
        %699 = arith.andi %690, %446 : i1
        %700 = arith.addi %449, %185 overflow<nsw> : index
        %701 = arith.select %699, %700, %c536870911 : index
        vector.store %698, %434[%701] : memref<?xf32, #amdgpu.address_space<fat_raw_buffer>>, vector<1xf32>
        %702 = vector.extract_strided_slice %262 {offsets = [3], sizes = [1], strides = [1]} : vector<16xf32> to vector<1xf32>
        %703 = arith.andi %690, %454 : i1
        %704 = arith.addi %457, %185 overflow<nsw> : index
        %705 = arith.select %703, %704, %c536870911 : index
        vector.store %702, %434[%705] : memref<?xf32, #amdgpu.address_space<fat_raw_buffer>>, vector<1xf32>
        %706 = vector.extract_strided_slice %262 {offsets = [4], sizes = [1], strides = [1]} : vector<16xf32> to vector<1xf32>
        %707 = arith.andi %690, %462 : i1
        %708 = arith.addi %465, %185 overflow<nsw> : index
        %709 = arith.select %707, %708, %c536870911 : index
        vector.store %706, %434[%709] : memref<?xf32, #amdgpu.address_space<fat_raw_buffer>>, vector<1xf32>
        %710 = vector.extract_strided_slice %262 {offsets = [5], sizes = [1], strides = [1]} : vector<16xf32> to vector<1xf32>
        %711 = arith.andi %690, %470 : i1
        %712 = arith.addi %473, %185 overflow<nsw> : index
        %713 = arith.select %711, %712, %c536870911 : index
        vector.store %710, %434[%713] : memref<?xf32, #amdgpu.address_space<fat_raw_buffer>>, vector<1xf32>
        %714 = vector.extract_strided_slice %262 {offsets = [6], sizes = [1], strides = [1]} : vector<16xf32> to vector<1xf32>
        %715 = arith.andi %690, %478 : i1
        %716 = arith.addi %481, %185 overflow<nsw> : index
        %717 = arith.select %715, %716, %c536870911 : index
        vector.store %714, %434[%717] : memref<?xf32, #amdgpu.address_space<fat_raw_buffer>>, vector<1xf32>
        %718 = vector.extract_strided_slice %262 {offsets = [7], sizes = [1], strides = [1]} : vector<16xf32> to vector<1xf32>
        %719 = arith.andi %690, %486 : i1
        %720 = arith.addi %489, %185 overflow<nsw> : index
        %721 = arith.select %719, %720, %c536870911 : index
        vector.store %718, %434[%721] : memref<?xf32, #amdgpu.address_space<fat_raw_buffer>>, vector<1xf32>
        %722 = vector.extract_strided_slice %262 {offsets = [8], sizes = [1], strides = [1]} : vector<16xf32> to vector<1xf32>
        %723 = arith.andi %690, %494 : i1
        %724 = arith.addi %497, %185 overflow<nsw> : index
        %725 = arith.select %723, %724, %c536870911 : index
        vector.store %722, %434[%725] : memref<?xf32, #amdgpu.address_space<fat_raw_buffer>>, vector<1xf32>
        %726 = vector.extract_strided_slice %262 {offsets = [9], sizes = [1], strides = [1]} : vector<16xf32> to vector<1xf32>
        %727 = arith.andi %690, %502 : i1
        %728 = arith.addi %505, %185 overflow<nsw> : index
        %729 = arith.select %727, %728, %c536870911 : index
        vector.store %726, %434[%729] : memref<?xf32, #amdgpu.address_space<fat_raw_buffer>>, vector<1xf32>
        %730 = vector.extract_strided_slice %262 {offsets = [10], sizes = [1], strides = [1]} : vector<16xf32> to vector<1xf32>
        %731 = arith.andi %690, %510 : i1
        %732 = arith.addi %513, %185 overflow<nsw> : index
        %733 = arith.select %731, %732, %c536870911 : index
        vector.store %730, %434[%733] : memref<?xf32, #amdgpu.address_space<fat_raw_buffer>>, vector<1xf32>
        %734 = vector.extract_strided_slice %262 {offsets = [11], sizes = [1], strides = [1]} : vector<16xf32> to vector<1xf32>
        %735 = arith.andi %690, %518 : i1
        %736 = arith.addi %521, %185 overflow<nsw> : index
        %737 = arith.select %735, %736, %c536870911 : index
        vector.store %734, %434[%737] : memref<?xf32, #amdgpu.address_space<fat_raw_buffer>>, vector<1xf32>
        %738 = vector.extract_strided_slice %262 {offsets = [12], sizes = [1], strides = [1]} : vector<16xf32> to vector<1xf32>
        %739 = arith.andi %690, %526 : i1
        %740 = arith.addi %529, %185 overflow<nsw> : index
        %741 = arith.select %739, %740, %c536870911 : index
        vector.store %738, %434[%741] : memref<?xf32, #amdgpu.address_space<fat_raw_buffer>>, vector<1xf32>
        %742 = vector.extract_strided_slice %262 {offsets = [13], sizes = [1], strides = [1]} : vector<16xf32> to vector<1xf32>
        %743 = arith.andi %690, %534 : i1
        %744 = arith.addi %537, %185 overflow<nsw> : index
        %745 = arith.select %743, %744, %c536870911 : index
        vector.store %742, %434[%745] : memref<?xf32, #amdgpu.address_space<fat_raw_buffer>>, vector<1xf32>
        %746 = vector.extract_strided_slice %262 {offsets = [14], sizes = [1], strides = [1]} : vector<16xf32> to vector<1xf32>
        %747 = arith.andi %690, %542 : i1
        %748 = arith.addi %545, %185 overflow<nsw> : index
        %749 = arith.select %747, %748, %c536870911 : index
        vector.store %746, %434[%749] : memref<?xf32, #amdgpu.address_space<fat_raw_buffer>>, vector<1xf32>
        %750 = vector.extract_strided_slice %262 {offsets = [15], sizes = [1], strides = [1]} : vector<16xf32> to vector<1xf32>
        %751 = arith.andi %690, %550 : i1
        %752 = arith.addi %553, %185 overflow<nsw> : index
        %753 = arith.select %751, %752, %c536870911 : index
        vector.store %750, %434[%753] : memref<?xf32, #amdgpu.address_space<fat_raw_buffer>>, vector<1xf32>
        %754 = vector.extract_strided_slice %266 {offsets = [0], sizes = [1], strides = [1]} : vector<16xf32> to vector<1xf32>
        %755 = affine.apply #map80()[%thread_id_x, %block_id_x, %block_id_y, %2, %thread_id_y]
        %756 = arith.cmpi slt, %755, %416 : index
        %757 = arith.andi %756, %424 : i1
        %758 = arith.addi %430, %189 overflow<nsw> : index
        %759 = arith.select %757, %758, %c536870911 : index
        vector.store %754, %434[%759] : memref<?xf32, #amdgpu.address_space<fat_raw_buffer>>, vector<1xf32>
        %760 = vector.extract_strided_slice %266 {offsets = [1], sizes = [1], strides = [1]} : vector<16xf32> to vector<1xf32>
        %761 = arith.andi %756, %438 : i1
        %762 = arith.addi %441, %189 overflow<nsw> : index
        %763 = arith.select %761, %762, %c536870911 : index
        vector.store %760, %434[%763] : memref<?xf32, #amdgpu.address_space<fat_raw_buffer>>, vector<1xf32>
        %764 = vector.extract_strided_slice %266 {offsets = [2], sizes = [1], strides = [1]} : vector<16xf32> to vector<1xf32>
        %765 = arith.andi %756, %446 : i1
        %766 = arith.addi %449, %189 overflow<nsw> : index
        %767 = arith.select %765, %766, %c536870911 : index
        vector.store %764, %434[%767] : memref<?xf32, #amdgpu.address_space<fat_raw_buffer>>, vector<1xf32>
        %768 = vector.extract_strided_slice %266 {offsets = [3], sizes = [1], strides = [1]} : vector<16xf32> to vector<1xf32>
        %769 = arith.andi %756, %454 : i1
        %770 = arith.addi %457, %189 overflow<nsw> : index
        %771 = arith.select %769, %770, %c536870911 : index
        vector.store %768, %434[%771] : memref<?xf32, #amdgpu.address_space<fat_raw_buffer>>, vector<1xf32>
        %772 = vector.extract_strided_slice %266 {offsets = [4], sizes = [1], strides = [1]} : vector<16xf32> to vector<1xf32>
        %773 = arith.andi %756, %462 : i1
        %774 = arith.addi %465, %189 overflow<nsw> : index
        %775 = arith.select %773, %774, %c536870911 : index
        vector.store %772, %434[%775] : memref<?xf32, #amdgpu.address_space<fat_raw_buffer>>, vector<1xf32>
        %776 = vector.extract_strided_slice %266 {offsets = [5], sizes = [1], strides = [1]} : vector<16xf32> to vector<1xf32>
        %777 = arith.andi %756, %470 : i1
        %778 = arith.addi %473, %189 overflow<nsw> : index
        %779 = arith.select %777, %778, %c536870911 : index
        vector.store %776, %434[%779] : memref<?xf32, #amdgpu.address_space<fat_raw_buffer>>, vector<1xf32>
        %780 = vector.extract_strided_slice %266 {offsets = [6], sizes = [1], strides = [1]} : vector<16xf32> to vector<1xf32>
        %781 = arith.andi %756, %478 : i1
        %782 = arith.addi %481, %189 overflow<nsw> : index
        %783 = arith.select %781, %782, %c536870911 : index
        vector.store %780, %434[%783] : memref<?xf32, #amdgpu.address_space<fat_raw_buffer>>, vector<1xf32>
        %784 = vector.extract_strided_slice %266 {offsets = [7], sizes = [1], strides = [1]} : vector<16xf32> to vector<1xf32>
        %785 = arith.andi %756, %486 : i1
        %786 = arith.addi %489, %189 overflow<nsw> : index
        %787 = arith.select %785, %786, %c536870911 : index
        vector.store %784, %434[%787] : memref<?xf32, #amdgpu.address_space<fat_raw_buffer>>, vector<1xf32>
        %788 = vector.extract_strided_slice %266 {offsets = [8], sizes = [1], strides = [1]} : vector<16xf32> to vector<1xf32>
        %789 = arith.andi %756, %494 : i1
        %790 = arith.addi %497, %189 overflow<nsw> : index
        %791 = arith.select %789, %790, %c536870911 : index
        vector.store %788, %434[%791] : memref<?xf32, #amdgpu.address_space<fat_raw_buffer>>, vector<1xf32>
        %792 = vector.extract_strided_slice %266 {offsets = [9], sizes = [1], strides = [1]} : vector<16xf32> to vector<1xf32>
        %793 = arith.andi %756, %502 : i1
        %794 = arith.addi %505, %189 overflow<nsw> : index
        %795 = arith.select %793, %794, %c536870911 : index
        vector.store %792, %434[%795] : memref<?xf32, #amdgpu.address_space<fat_raw_buffer>>, vector<1xf32>
        %796 = vector.extract_strided_slice %266 {offsets = [10], sizes = [1], strides = [1]} : vector<16xf32> to vector<1xf32>
        %797 = arith.andi %756, %510 : i1
        %798 = arith.addi %513, %189 overflow<nsw> : index
        %799 = arith.select %797, %798, %c536870911 : index
        vector.store %796, %434[%799] : memref<?xf32, #amdgpu.address_space<fat_raw_buffer>>, vector<1xf32>
        %800 = vector.extract_strided_slice %266 {offsets = [11], sizes = [1], strides = [1]} : vector<16xf32> to vector<1xf32>
        %801 = arith.andi %756, %518 : i1
        %802 = arith.addi %521, %189 overflow<nsw> : index
        %803 = arith.select %801, %802, %c536870911 : index
        vector.store %800, %434[%803] : memref<?xf32, #amdgpu.address_space<fat_raw_buffer>>, vector<1xf32>
        %804 = vector.extract_strided_slice %266 {offsets = [12], sizes = [1], strides = [1]} : vector<16xf32> to vector<1xf32>
        %805 = arith.andi %756, %526 : i1
        %806 = arith.addi %529, %189 overflow<nsw> : index
        %807 = arith.select %805, %806, %c536870911 : index
…
        %4444 = vector.extract_strided_slice %396 {offsets = [6], sizes = [1], strides = [1]} : vector<16xf32> to vector<1xf32>
        %4445 = arith.andi %822, %4086 : i1
        %4446 = arith.addi %4089, %193 overflow<nsw> : index
        %4447 = arith.select %4445, %4446, %c536870911 : index
        vector.store %4444, %434[%4447] : memref<?xf32, #amdgpu.address_space<fat_raw_buffer>>, vector<1xf32>
        %4448 = vector.extract_strided_slice %396 {offsets = [7], sizes = [1], strides = [1]} : vector<16xf32> to vector<1xf32>
        %4449 = arith.andi %822, %4094 : i1
        %4450 = arith.addi %4097, %193 overflow<nsw> : index
        %4451 = arith.select %4449, %4450, %c536870911 : index
        vector.store %4448, %434[%4451] : memref<?xf32, #amdgpu.address_space<fat_raw_buffer>>, vector<1xf32>
        %4452 = vector.extract_strided_slice %396 {offsets = [8], sizes = [1], strides = [1]} : vector<16xf32> to vector<1xf32>
        %4453 = arith.andi %822, %4102 : i1
        %4454 = arith.addi %4105, %193 overflow<nsw> : index
        %4455 = arith.select %4453, %4454, %c536870911 : index
        vector.store %4452, %434[%4455] : memref<?xf32, #amdgpu.address_space<fat_raw_buffer>>, vector<1xf32>
        %4456 = vector.extract_strided_slice %396 {offsets = [9], sizes = [1], strides = [1]} : vector<16xf32> to vector<1xf32>
        %4457 = arith.andi %822, %4110 : i1
        %4458 = arith.addi %4113, %193 overflow<nsw> : index
        %4459 = arith.select %4457, %4458, %c536870911 : index
        vector.store %4456, %434[%4459] : memref<?xf32, #amdgpu.address_space<fat_raw_buffer>>, vector<1xf32>
        %4460 = vector.extract_strided_slice %396 {offsets = [10], sizes = [1], strides = [1]} : vector<16xf32> to vector<1xf32>
        %4461 = arith.andi %822, %4118 : i1
        %4462 = arith.addi %4121, %193 overflow<nsw> : index
        %4463 = arith.select %4461, %4462, %c536870911 : index
        vector.store %4460, %434[%4463] : memref<?xf32, #amdgpu.address_space<fat_raw_buffer>>, vector<1xf32>
        %4464 = vector.extract_strided_slice %396 {offsets = [11], sizes = [1], strides = [1]} : vector<16xf32> to vector<1xf32>
        %4465 = arith.andi %822, %4126 : i1
        %4466 = arith.addi %4129, %193 overflow<nsw> : index
        %4467 = arith.select %4465, %4466, %c536870911 : index
        vector.store %4464, %434[%4467] : memref<?xf32, #amdgpu.address_space<fat_raw_buffer>>, vector<1xf32>
        %4468 = vector.extract_strided_slice %396 {offsets = [12], sizes = [1], strides = [1]} : vector<16xf32> to vector<1xf32>
        %4469 = arith.andi %822, %4134 : i1
        %4470 = arith.addi %4137, %193 overflow<nsw> : index
        %4471 = arith.select %4469, %4470, %c536870911 : index
        vector.store %4468, %434[%4471] : memref<?xf32, #amdgpu.address_space<fat_raw_buffer>>, vector<1xf32>
        %4472 = vector.extract_strided_slice %396 {offsets = [13], sizes = [1], strides = [1]} : vector<16xf32> to vector<1xf32>
        %4473 = arith.andi %822, %4142 : i1
        %4474 = arith.addi %4145, %193 overflow<nsw> : index
        %4475 = arith.select %4473, %4474, %c536870911 : index
        vector.store %4472, %434[%4475] : memref<?xf32, #amdgpu.address_space<fat_raw_buffer>>, vector<1xf32>
        %4476 = vector.extract_strided_slice %396 {offsets = [14], sizes = [1], strides = [1]} : vector<16xf32> to vector<1xf32>
        %4477 = arith.andi %822, %4150 : i1
        %4478 = arith.addi %4153, %193 overflow<nsw> : index
        %4479 = arith.select %4477, %4478, %c536870911 : index
        vector.store %4476, %434[%4479] : memref<?xf32, #amdgpu.address_space<fat_raw_buffer>>, vector<1xf32>
        %4480 = vector.extract_strided_slice %396 {offsets = [15], sizes = [1], strides = [1]} : vector<16xf32> to vector<1xf32>
        %4481 = arith.andi %822, %4158 : i1
        %4482 = arith.addi %4161, %193 overflow<nsw> : index
        %4483 = arith.select %4481, %4482, %c536870911 : index
        vector.store %4480, %434[%4483] : memref<?xf32, #amdgpu.address_space<fat_raw_buffer>>, vector<1xf32>
        %4484 = vector.extract_strided_slice %398 {offsets = [0], sizes = [1], strides = [1]} : vector<16xf32> to vector<1xf32>
        %4485 = arith.andi %888, %4038 : i1
        %4486 = arith.addi %4041, %197 overflow<nsw> : index
        %4487 = arith.select %4485, %4486, %c536870911 : index
        vector.store %4484, %434[%4487] : memref<?xf32, #amdgpu.address_space<fat_raw_buffer>>, vector<1xf32>
        %4488 = vector.extract_strided_slice %398 {offsets = [1], sizes = [1], strides = [1]} : vector<16xf32> to vector<1xf32>
        %4489 = arith.andi %888, %4046 : i1
        %4490 = arith.addi %4049, %197 overflow<nsw> : index
        %4491 = arith.select %4489, %4490, %c536870911 : index
        vector.store %4488, %434[%4491] : memref<?xf32, #amdgpu.address_space<fat_raw_buffer>>, vector<1xf32>
        %4492 = vector.extract_strided_slice %398 {offsets = [2], sizes = [1], strides = [1]} : vector<16xf32> to vector<1xf32>
        %4493 = arith.andi %888, %4054 : i1
        %4494 = arith.addi %4057, %197 overflow<nsw> : index
        %4495 = arith.select %4493, %4494, %c536870911 : index
        vector.store %4492, %434[%4495] : memref<?xf32, #amdgpu.address_space<fat_raw_buffer>>, vector<1xf32>
        %4496 = vector.extract_strided_slice %398 {offsets = [3], sizes = [1], strides = [1]} : vector<16xf32> to vector<1xf32>
        %4497 = arith.andi %888, %4062 : i1
        %4498 = arith.addi %4065, %197 overflow<nsw> : index
        %4499 = arith.select %4497, %4498, %c536870911 : index
        vector.store %4496, %434[%4499] : memref<?xf32, #amdgpu.address_space<fat_raw_buffer>>, vector<1xf32>
        %4500 = vector.extract_strided_slice %398 {offsets = [4], sizes = [1], strides = [1]} : vector<16xf32> to vector<1xf32>
        %4501 = arith.andi %888, %4070 : i1
        %4502 = arith.addi %4073, %197 overflow<nsw> : index
        %4503 = arith.select %4501, %4502, %c536870911 : index
        vector.store %4500, %434[%4503] : memref<?xf32, #amdgpu.address_space<fat_raw_buffer>>, vector<1xf32>
        %4504 = vector.extract_strided_slice %398 {offsets = [5], sizes = [1], strides = [1]} : vector<16xf32> to vector<1xf32>
        %4505 = arith.andi %888, %4078 : i1
        %4506 = arith.addi %4081, %197 overflow<nsw> : index
        %4507 = arith.select %4505, %4506, %c536870911 : index
        vector.store %4504, %434[%4507] : memref<?xf32, #amdgpu.address_space<fat_raw_buffer>>, vector<1xf32>
        %4508 = vector.extract_strided_slice %398 {offsets = [6], sizes = [1], strides = [1]} : vector<16xf32> to vector<1xf32>
        %4509 = arith.andi %888, %4086 : i1
        %4510 = arith.addi %4089, %197 overflow<nsw> : index
        %4511 = arith.select %4509, %4510, %c536870911 : index
        vector.store %4508, %434[%4511] : memref<?xf32, #amdgpu.address_space<fat_raw_buffer>>, vector<1xf32>
        %4512 = vector.extract_strided_slice %398 {offsets = [7], sizes = [1], strides = [1]} : vector<16xf32> to vector<1xf32>
        %4513 = arith.andi %888, %4094 : i1
        %4514 = arith.addi %4097, %197 overflow<nsw> : index
        %4515 = arith.select %4513, %4514, %c536870911 : index
        vector.store %4512, %434[%4515] : memref<?xf32, #amdgpu.address_space<fat_raw_buffer>>, vector<1xf32>
        %4516 = vector.extract_strided_slice %398 {offsets = [8], sizes = [1], strides = [1]} : vector<16xf32> to vector<1xf32>
        %4517 = arith.andi %888, %4102 : i1
        %4518 = arith.addi %4105, %197 overflow<nsw> : index
        %4519 = arith.select %4517, %4518, %c536870911 : index
        vector.store %4516, %434[%4519] : memref<?xf32, #amdgpu.address_space<fat_raw_buffer>>, vector<1xf32>
        %4520 = vector.extract_strided_slice %398 {offsets = [9], sizes = [1], strides = [1]} : vector<16xf32> to vector<1xf32>
        %4521 = arith.andi %888, %4110 : i1
        %4522 = arith.addi %4113, %197 overflow<nsw> : index
        %4523 = arith.select %4521, %4522, %c536870911 : index
        vector.store %4520, %434[%4523] : memref<?xf32, #amdgpu.address_space<fat_raw_buffer>>, vector<1xf32>
        %4524 = vector.extract_strided_slice %398 {offsets = [10], sizes = [1], strides = [1]} : vector<16xf32> to vector<1xf32>
        %4525 = arith.andi %888, %4118 : i1
        %4526 = arith.addi %4121, %197 overflow<nsw> : index
        %4527 = arith.select %4525, %4526, %c536870911 : index
        vector.store %4524, %434[%4527] : memref<?xf32, #amdgpu.address_space<fat_raw_buffer>>, vector<1xf32>
        %4528 = vector.extract_strided_slice %398 {offsets = [11], sizes = [1], strides = [1]} : vector<16xf32> to vector<1xf32>
        %4529 = arith.andi %888, %4126 : i1
        %4530 = arith.addi %4129, %197 overflow<nsw> : index
        %4531 = arith.select %4529, %4530, %c536870911 : index
        vector.store %4528, %434[%4531] : memref<?xf32, #amdgpu.address_space<fat_raw_buffer>>, vector<1xf32>
        %4532 = vector.extract_strided_slice %398 {offsets = [12], sizes = [1], strides = [1]} : vector<16xf32> to vector<1xf32>
        %4533 = arith.andi %888, %4134 : i1
        %4534 = arith.addi %4137, %197 overflow<nsw> : index
        %4535 = arith.select %4533, %4534, %c536870911 : index
        vector.store %4532, %434[%4535] : memref<?xf32, #amdgpu.address_space<fat_raw_buffer>>, vector<1xf32>
        %4536 = vector.extract_strided_slice %398 {offsets = [13], sizes = [1], strides = [1]} : vector<16xf32> to vector<1xf32>
        %4537 = arith.andi %888, %4142 : i1
        %4538 = arith.addi %4145, %197 overflow<nsw> : index
        %4539 = arith.select %4537, %4538, %c536870911 : index
        vector.store %4536, %434[%4539] : memref<?xf32, #amdgpu.address_space<fat_raw_buffer>>, vector<1xf32>
        %4540 = vector.extract_strided_slice %398 {offsets = [14], sizes = [1], strides = [1]} : vector<16xf32> to vector<1xf32>
        %4541 = arith.andi %888, %4150 : i1
        %4542 = arith.addi %4153, %197 overflow<nsw> : index
        %4543 = arith.select %4541, %4542, %c536870911 : index
        vector.store %4540, %434[%4543] : memref<?xf32, #amdgpu.address_space<fat_raw_buffer>>, vector<1xf32>
        %4544 = vector.extract_strided_slice %398 {offsets = [15], sizes = [1], strides = [1]} : vector<16xf32> to vector<1xf32>
        %4545 = arith.andi %888, %4158 : i1
        %4546 = arith.addi %4161, %197 overflow<nsw> : index
        %4547 = arith.select %4545, %4546, %c536870911 : index
        vector.store %4544, %434[%4547] : memref<?xf32, #amdgpu.address_space<fat_raw_buffer>>, vector<1xf32>
        %4548 = vector.extract_strided_slice %400 {offsets = [0], sizes = [1], strides = [1]} : vector<16xf32> to vector<1xf32>
        %4549 = arith.andi %954, %4038 : i1
        %4550 = arith.addi %4041, %201 overflow<nsw> : index
        %4551 = arith.select %4549, %4550, %c536870911 : index
        vector.store %4548, %434[%4551] : memref<?xf32, #amdgpu.address_space<fat_raw_buffer>>, vector<1xf32>
        %4552 = vector.extract_strided_slice %400 {offsets = [1], sizes = [1], strides = [1]} : vector<16xf32> to vector<1xf32>
        %4553 = arith.andi %954, %4046 : i1
        %4554 = arith.addi %4049, %201 overflow<nsw> : index
        %4555 = arith.select %4553, %4554, %c536870911 : index
        vector.store %4552, %434[%4555] : memref<?xf32, #amdgpu.address_space<fat_raw_buffer>>, vector<1xf32>
        %4556 = vector.extract_strided_slice %400 {offsets = [2], sizes = [1], strides = [1]} : vector<16xf32> to vector<1xf32>
        %4557 = arith.andi %954, %4054 : i1
        %4558 = arith.addi %4057, %201 overflow<nsw> : index
        %4559 = arith.select %4557, %4558, %c536870911 : index
        vector.store %4556, %434[%4559] : memref<?xf32, #amdgpu.address_space<fat_raw_buffer>>, vector<1xf32>
        %4560 = vector.extract_strided_slice %400 {offsets = [3], sizes = [1], strides = [1]} : vector<16xf32> to vector<1xf32>
        %4561 = arith.andi %954, %4062 : i1
        %4562 = arith.addi %4065, %201 overflow<nsw> : index
        %4563 = arith.select %4561, %4562, %c536870911 : index
        vector.store %4560, %434[%4563] : memref<?xf32, #amdgpu.address_space<fat_raw_buffer>>, vector<1xf32>
        %4564 = vector.extract_strided_slice %400 {offsets = [4], sizes = [1], strides = [1]} : vector<16xf32> to vector<1xf32>
        %4565 = arith.andi %954, %4070 : i1
        %4566 = arith.addi %4073, %201 overflow<nsw> : index
        %4567 = arith.select %4565, %4566, %c536870911 : index
        vector.store %4564, %434[%4567] : memref<?xf32, #amdgpu.address_space<fat_raw_buffer>>, vector<1xf32>
        %4568 = vector.extract_strided_slice %400 {offsets = [5], sizes = [1], strides = [1]} : vector<16xf32> to vector<1xf32>
        %4569 = arith.andi %954, %4078 : i1
        %4570 = arith.addi %4081, %201 overflow<nsw> : index
        %4571 = arith.select %4569, %4570, %c536870911 : index
        vector.store %4568, %434[%4571] : memref<?xf32, #amdgpu.address_space<fat_raw_buffer>>, vector<1xf32>
        %4572 = vector.extract_strided_slice %400 {offsets = [6], sizes = [1], strides = [1]} : vector<16xf32> to vector<1xf32>
        %4573 = arith.andi %954, %4086 : i1
        %4574 = arith.addi %4089, %201 overflow<nsw> : index
        %4575 = arith.select %4573, %4574, %c536870911 : index
        vector.store %4572, %434[%4575] : memref<?xf32, #amdgpu.address_space<fat_raw_buffer>>, vector<1xf32>
        %4576 = vector.extract_strided_slice %400 {offsets = [7], sizes = [1], strides = [1]} : vector<16xf32> to vector<1xf32>
        %4577 = arith.andi %954, %4094 : i1
        %4578 = arith.addi %4097, %201 overflow<nsw> : index
        %4579 = arith.select %4577, %4578, %c536870911 : index
        vector.store %4576, %434[%4579] : memref<?xf32, #amdgpu.address_space<fat_raw_buffer>>, vector<1xf32>
        %4580 = vector.extract_strided_slice %400 {offsets = [8], sizes = [1], strides = [1]} : vector<16xf32> to vector<1xf32>
        %4581 = arith.andi %954, %4102 : i1
        %4582 = arith.addi %4105, %201 overflow<nsw> : index
        %4583 = arith.select %4581, %4582, %c536870911 : index
        vector.store %4580, %434[%4583] : memref<?xf32, #amdgpu.address_space<fat_raw_buffer>>, vector<1xf32>
        %4584 = vector.extract_strided_slice %400 {offsets = [9], sizes = [1], strides = [1]} : vector<16xf32> to vector<1xf32>
        %4585 = arith.andi %954, %4110 : i1
        %4586 = arith.addi %4113, %201 overflow<nsw> : index
        %4587 = arith.select %4585, %4586, %c536870911 : index
        vector.store %4584, %434[%4587] : memref<?xf32, #amdgpu.address_space<fat_raw_buffer>>, vector<1xf32>
        %4588 = vector.extract_strided_slice %400 {offsets = [10], sizes = [1], strides = [1]} : vector<16xf32> to vector<1xf32>
        %4589 = arith.andi %954, %4118 : i1
        %4590 = arith.addi %4121, %201 overflow<nsw> : index
        %4591 = arith.select %4589, %4590, %c536870911 : index
        vector.store %4588, %434[%4591] : memref<?xf32, #amdgpu.address_space<fat_raw_buffer>>, vector<1xf32>
        %4592 = vector.extract_strided_slice %400 {offsets = [11], sizes = [1], strides = [1]} : vector<16xf32> to vector<1xf32>
        %4593 = arith.andi %954, %4126 : i1
        %4594 = arith.addi %4129, %201 overflow<nsw> : index
        %4595 = arith.select %4593, %4594, %c536870911 : index
        vector.store %4592, %434[%4595] : memref<?xf32, #amdgpu.address_space<fat_raw_buffer>>, vector<1xf32>
        %4596 = vector.extract_strided_slice %400 {offsets = [12], sizes = [1], strides = [1]} : vector<16xf32> to vector<1xf32>
        %4597 = arith.andi %954, %4134 : i1
        %4598 = arith.addi %4137, %201 overflow<nsw> : index
        %4599 = arith.select %4597, %4598, %c536870911 : index
        vector.store %4596, %434[%4599] : memref<?xf32, #amdgpu.address_space<fat_raw_buffer>>, vector<1xf32>
        %4600 = vector.extract_strided_slice %400 {offsets = [13], sizes = [1], strides = [1]} : vector<16xf32> to vector<1xf32>
        %4601 = arith.andi %954, %4142 : i1
        %4602 = arith.addi %4145, %201 overflow<nsw> : index
        %4603 = arith.select %4601, %4602, %c536870911 : index
        vector.store %4600, %434[%4603] : memref<?xf32, #amdgpu.address_space<fat_raw_buffer>>, vector<1xf32>
        %4604 = vector.extract_strided_slice %400 {offsets = [14], sizes = [1], strides = [1]} : vector<16xf32> to vector<1xf32>
        %4605 = arith.andi %954, %4150 : i1
        %4606 = arith.addi %4153, %201 overflow<nsw> : index
        %4607 = arith.select %4605, %4606, %c536870911 : index
        vector.store %4604, %434[%4607] : memref<?xf32, #amdgpu.address_space<fat_raw_buffer>>, vector<1xf32>
        %4608 = vector.extract_strided_slice %400 {offsets = [15], sizes = [1], strides = [1]} : vector<16xf32> to vector<1xf32>
        %4609 = arith.andi %954, %4158 : i1
        %4610 = arith.addi %4161, %201 overflow<nsw> : index
        %4611 = arith.select %4609, %4610, %c536870911 : index
        vector.store %4608, %434[%4611] : memref<?xf32, #amdgpu.address_space<fat_raw_buffer>>, vector<1xf32>
        %4612 = vector.extract_strided_slice %402 {offsets = [0], sizes = [1], strides = [1]} : vector<16xf32> to vector<1xf32>
        %4613 = arith.andi %1020, %4038 : i1
        %4614 = arith.addi %4041, %205 overflow<nsw> : index
        %4615 = arith.select %4613, %4614, %c536870911 : index
        vector.store %4612, %434[%4615] : memref<?xf32, #amdgpu.address_space<fat_raw_buffer>>, vector<1xf32>
        %4616 = vector.extract_strided_slice %402 {offsets = [1], sizes = [1], strides = [1]} : vector<16xf32> to vector<1xf32>
        %4617 = arith.andi %1020, %4046 : i1
        %4618 = arith.addi %4049, %205 overflow<nsw> : index
        %4619 = arith.select %4617, %4618, %c536870911 : index
        vector.store %4616, %434[%4619] : memref<?xf32, #amdgpu.address_space<fat_raw_buffer>>, vector<1xf32>
        %4620 = vector.extract_strided_slice %402 {offsets = [2], sizes = [1], strides = [1]} : vector<16xf32> to vector<1xf32>
        %4621 = arith.andi %1020, %4054 : i1
        %4622 = arith.addi %4057, %205 overflow<nsw> : index
        %4623 = arith.select %4621, %4622, %c536870911 : index
        vector.store %4620, %434[%4623] : memref<?xf32, #amdgpu.address_space<fat_raw_buffer>>, vector<1xf32>
        %4624 = vector.extract_strided_slice %402 {offsets = [3], sizes = [1], strides = [1]} : vector<16xf32> to vector<1xf32>
        %4625 = arith.andi %1020, %4062 : i1
        %4626 = arith.addi %4065, %205 overflow<nsw> : index
        %4627 = arith.select %4625, %4626, %c536870911 : index
        vector.store %4624, %434[%4627] : memref<?xf32, #amdgpu.address_space<fat_raw_buffer>>, vector<1xf32>
        %4628 = vector.extract_strided_slice %402 {offsets = [4], sizes = [1], strides = [1]} : vector<16xf32> to vector<1xf32>
        %4629 = arith.andi %1020, %4070 : i1
        %4630 = arith.addi %4073, %205 overflow<nsw> : index
        %4631 = arith.select %4629, %4630, %c536870911 : index
        vector.store %4628, %434[%4631] : memref<?xf32, #amdgpu.address_space<fat_raw_buffer>>, vector<1xf32>
        %4632 = vector.extract_strided_slice %402 {offsets = [5], sizes = [1], strides = [1]} : vector<16xf32> to vector<1xf32>
        %4633 = arith.andi %1020, %4078 : i1
        %4634 = arith.addi %4081, %205 overflow<nsw> : index
        %4635 = arith.select %4633, %4634, %c536870911 : index
        vector.store %4632, %434[%4635] : memref<?xf32, #amdgpu.address_space<fat_raw_buffer>>, vector<1xf32>
        %4636 = vector.extract_strided_slice %402 {offsets = [6], sizes = [1], strides = [1]} : vector<16xf32> to vector<1xf32>
        %4637 = arith.andi %1020, %4086 : i1
        %4638 = arith.addi %4089, %205 overflow<nsw> : index
        %4639 = arith.select %4637, %4638, %c536870911 : index
        vector.store %4636, %434[%4639] : memref<?xf32, #amdgpu.address_space<fat_raw_buffer>>, vector<1xf32>
        %4640 = vector.extract_strided_slice %402 {offsets = [7], sizes = [1], strides = [1]} : vector<16xf32> to vector<1xf32>
        %4641 = arith.andi %1020, %4094 : i1
        %4642 = arith.addi %4097, %205 overflow<nsw> : index
        %4643 = arith.select %4641, %4642, %c536870911 : index
        vector.store %4640, %434[%4643] : memref<?xf32, #amdgpu.address_space<fat_raw_buffer>>, vector<1xf32>
        %4644 = vector.extract_strided_slice %402 {offsets = [8], sizes = [1], strides = [1]} : vector<16xf32> to vector<1xf32>
        %4645 = arith.andi %1020, %4102 : i1
        %4646 = arith.addi %4105, %205 overflow<nsw> : index
        %4647 = arith.select %4645, %4646, %c536870911 : index
        vector.store %4644, %434[%4647] : memref<?xf32, #amdgpu.address_space<fat_raw_buffer>>, vector<1xf32>
        %4648 = vector.extract_strided_slice %402 {offsets = [9], sizes = [1], strides = [1]} : vector<16xf32> to vector<1xf32>
        %4649 = arith.andi %1020, %4110 : i1
        %4650 = arith.addi %4113, %205 overflow<nsw> : index
        %4651 = arith.select %4649, %4650, %c536870911 : index
        vector.store %4648, %434[%4651] : memref<?xf32, #amdgpu.address_space<fat_raw_buffer>>, vector<1xf32>
        %4652 = vector.extract_strided_slice %402 {offsets = [10], sizes = [1], strides = [1]} : vector<16xf32> to vector<1xf32>
        %4653 = arith.andi %1020, %4118 : i1
        %4654 = arith.addi %4121, %205 overflow<nsw> : index
        %4655 = arith.select %4653, %4654, %c536870911 : index
        vector.store %4652, %434[%4655] : memref<?xf32, #amdgpu.address_space<fat_raw_buffer>>, vector<1xf32>
        %4656 = vector.extract_strided_slice %402 {offsets = [11], sizes = [1], strides = [1]} : vector<16xf32> to vector<1xf32>
        %4657 = arith.andi %1020, %4126 : i1
        %4658 = arith.addi %4129, %205 overflow<nsw> : index
        %4659 = arith.select %4657, %4658, %c536870911 : index
        vector.store %4656, %434[%4659] : memref<?xf32, #amdgpu.address_space<fat_raw_buffer>>, vector<1xf32>
        %4660 = vector.extract_strided_slice %402 {offsets = [12], sizes = [1], strides = [1]} : vector<16xf32> to vector<1xf32>
        %4661 = arith.andi %1020, %4134 : i1
        %4662 = arith.addi %4137, %205 overflow<nsw> : index
        %4663 = arith.select %4661, %4662, %c536870911 : index
        vector.store %4660, %434[%4663] : memref<?xf32, #amdgpu.address_space<fat_raw_buffer>>, vector<1xf32>
        %4664 = vector.extract_strided_slice %402 {offsets = [13], sizes = [1], strides = [1]} : vector<16xf32> to vector<1xf32>
        %4665 = arith.andi %1020, %4142 : i1
        %4666 = arith.addi %4145, %205 overflow<nsw> : index
        %4667 = arith.select %4665, %4666, %c536870911 : index
        vector.store %4664, %434[%4667] : memref<?xf32, #amdgpu.address_space<fat_raw_buffer>>, vector<1xf32>
        %4668 = vector.extract_strided_slice %402 {offsets = [14], sizes = [1], strides = [1]} : vector<16xf32> to vector<1xf32>
        %4669 = arith.andi %1020, %4150 : i1
        %4670 = arith.addi %4153, %205 overflow<nsw> : index
        %4671 = arith.select %4669, %4670, %c536870911 : index
        vector.store %4668, %434[%4671] : memref<?xf32, #amdgpu.address_space<fat_raw_buffer>>, vector<1xf32>
        %4672 = vector.extract_strided_slice %402 {offsets = [15], sizes = [1], strides = [1]} : vector<16xf32> to vector<1xf32>
        %4673 = arith.andi %1020, %4158 : i1
        %4674 = arith.addi %4161, %205 overflow<nsw> : index
        %4675 = arith.select %4673, %4674, %c536870911 : index
        vector.store %4672, %434[%4675] : memref<?xf32, #amdgpu.address_space<fat_raw_buffer>>, vector<1xf32>
        %4676 = vector.extract_strided_slice %404 {offsets = [0], sizes = [1], strides = [1]} : vector<16xf32> to vector<1xf32>
        %4677 = arith.andi %1086, %4038 : i1
        %4678 = arith.addi %4041, %209 overflow<nsw> : index
        %4679 = arith.select %4677, %4678, %c536870911 : index
        vector.store %4676, %434[%4679] : memref<?xf32, #amdgpu.address_space<fat_raw_buffer>>, vector<1xf32>
        %4680 = vector.extract_strided_slice %404 {offsets = [1], sizes = [1], strides = [1]} : vector<16xf32> to vector<1xf32>
        %4681 = arith.andi %1086, %4046 : i1
        %4682 = arith.addi %4049, %209 overflow<nsw> : index
        %4683 = arith.select %4681, %4682, %c536870911 : index
        vector.store %4680, %434[%4683] : memref<?xf32, #amdgpu.address_space<fat_raw_buffer>>, vector<1xf32>
        %4684 = vector.extract_strided_slice %404 {offsets = [2], sizes = [1], strides = [1]} : vector<16xf32> to vector<1xf32>
        %4685 = arith.andi %1086, %4054 : i1
        %4686 = arith.addi %4057, %209 overflow<nsw> : index
        %4687 = arith.select %4685, %4686, %c536870911 : index
        vector.store %4684, %434[%4687] : memref<?xf32, #amdgpu.address_space<fat_raw_buffer>>, vector<1xf32>
        %4688 = vector.extract_strided_slice %404 {offsets = [3], sizes = [1], strides = [1]} : vector<16xf32> to vector<1xf32>
        %4689 = arith.andi %1086, %4062 : i1
        %4690 = arith.addi %4065, %209 overflow<nsw> : index
        %4691 = arith.select %4689, %4690, %c536870911 : index
        vector.store %4688, %434[%4691] : memref<?xf32, #amdgpu.address_space<fat_raw_buffer>>, vector<1xf32>
        %4692 = vector.extract_strided_slice %404 {offsets = [4], sizes = [1], strides = [1]} : vector<16xf32> to vector<1xf32>
        %4693 = arith.andi %1086, %4070 : i1
        %4694 = arith.addi %4073, %209 overflow<nsw> : index
        %4695 = arith.select %4693, %4694, %c536870911 : index
        vector.store %4692, %434[%4695] : memref<?xf32, #amdgpu.address_space<fat_raw_buffer>>, vector<1xf32>
        %4696 = vector.extract_strided_slice %404 {offsets = [5], sizes = [1], strides = [1]} : vector<16xf32> to vector<1xf32>
        %4697 = arith.andi %1086, %4078 : i1
        %4698 = arith.addi %4081, %209 overflow<nsw> : index
        %4699 = arith.select %4697, %4698, %c536870911 : index
        vector.store %4696, %434[%4699] : memref<?xf32, #amdgpu.address_space<fat_raw_buffer>>, vector<1xf32>
        %4700 = vector.extract_strided_slice %404 {offsets = [6], sizes = [1], strides = [1]} : vector<16xf32> to vector<1xf32>
        %4701 = arith.andi %1086, %4086 : i1
        %4702 = arith.addi %4089, %209 overflow<nsw> : index
        %4703 = arith.select %4701, %4702, %c536870911 : index
        vector.store %4700, %434[%4703] : memref<?xf32, #amdgpu.address_space<fat_raw_buffer>>, vector<1xf32>
        %4704 = vector.extract_strided_slice %404 {offsets = [7], sizes = [1], strides = [1]} : vector<16xf32> to vector<1xf32>
        %4705 = arith.andi %1086, %4094 : i1
        %4706 = arith.addi %4097, %209 overflow<nsw> : index
        %4707 = arith.select %4705, %4706, %c536870911 : index
        vector.store %4704, %434[%4707] : memref<?xf32, #amdgpu.address_space<fat_raw_buffer>>, vector<1xf32>
        %4708 = vector.extract_strided_slice %404 {offsets = [8], sizes = [1], strides = [1]} : vector<16xf32> to vector<1xf32>
        %4709 = arith.andi %1086, %4102 : i1
        %4710 = arith.addi %4105, %209 overflow<nsw> : index
        %4711 = arith.select %4709, %4710, %c536870911 : index
        vector.store %4708, %434[%4711] : memref<?xf32, #amdgpu.address_space<fat_raw_buffer>>, vector<1xf32>
        %4712 = vector.extract_strided_slice %404 {offsets = [9], sizes = [1], strides = [1]} : vector<16xf32> to vector<1xf32>
        %4713 = arith.andi %1086, %4110 : i1
        %4714 = arith.addi %4113, %209 overflow<nsw> : index
        %4715 = arith.select %4713, %4714, %c536870911 : index
        vector.store %4712, %434[%4715] : memref<?xf32, #amdgpu.address_space<fat_raw_buffer>>, vector<1xf32>
        %4716 = vector.extract_strided_slice %404 {offsets = [10], sizes = [1], strides = [1]} : vector<16xf32> to vector<1xf32>
        %4717 = arith.andi %1086, %4118 : i1
        %4718 = arith.addi %4121, %209 overflow<nsw> : index
        %4719 = arith.select %4717, %4718, %c536870911 : index
        vector.store %4716, %434[%4719] : memref<?xf32, #amdgpu.address_space<fat_raw_buffer>>, vector<1xf32>
        %4720 = vector.extract_strided_slice %404 {offsets = [11], sizes = [1], strides = [1]} : vector<16xf32> to vector<1xf32>
        %4721 = arith.andi %1086, %4126 : i1
        %4722 = arith.addi %4129, %209 overflow<nsw> : index
        %4723 = arith.select %4721, %4722, %c536870911 : index
        vector.store %4720, %434[%4723] : memref<?xf32, #amdgpu.address_space<fat_raw_buffer>>, vector<1xf32>
        %4724 = vector.extract_strided_slice %404 {offsets = [12], sizes = [1], strides = [1]} : vector<16xf32> to vector<1xf32>
        %4725 = arith.andi %1086, %4134 : i1
        %4726 = arith.addi %4137, %209 overflow<nsw> : index
        %4727 = arith.select %4725, %4726, %c536870911 : index
        vector.store %4724, %434[%4727] : memref<?xf32, #amdgpu.address_space<fat_raw_buffer>>, vector<1xf32>
        %4728 = vector.extract_strided_slice %404 {offsets = [13], sizes = [1], strides = [1]} : vector<16xf32> to vector<1xf32>
        %4729 = arith.andi %1086, %4142 : i1
        %4730 = arith.addi %4145, %209 overflow<nsw> : index
        %4731 = arith.select %4729, %4730, %c536870911 : index
        vector.store %4728, %434[%4731] : memref<?xf32, #amdgpu.address_space<fat_raw_buffer>>, vector<1xf32>
        %4732 = vector.extract_strided_slice %404 {offsets = [14], sizes = [1], strides = [1]} : vector<16xf32> to vector<1xf32>
        %4733 = arith.andi %1086, %4150 : i1
        %4734 = arith.addi %4153, %209 overflow<nsw> : index
        %4735 = arith.select %4733, %4734, %c536870911 : index
        vector.store %4732, %434[%4735] : memref<?xf32, #amdgpu.address_space<fat_raw_buffer>>, vector<1xf32>
        %4736 = vector.extract_strided_slice %404 {offsets = [15], sizes = [1], strides = [1]} : vector<16xf32> to vector<1xf32>
        %4737 = arith.andi %1086, %4158 : i1
        %4738 = arith.addi %4161, %209 overflow<nsw> : index
        %4739 = arith.select %4737, %4738, %c536870911 : index
        vector.store %4736, %434[%4739] : memref<?xf32, #amdgpu.address_space<fat_raw_buffer>>, vector<1xf32>
        %4740 = vector.extract_strided_slice %406 {offsets = [0], sizes = [1], strides = [1]} : vector<16xf32> to vector<1xf32>
        %4741 = arith.andi %1152, %4038 : i1
        %4742 = arith.addi %4041, %213 overflow<nsw> : index
        %4743 = arith.select %4741, %4742, %c536870911 : index
        vector.store %4740, %434[%4743] : memref<?xf32, #amdgpu.address_space<fat_raw_buffer>>, vector<1xf32>
        %4744 = vector.extract_strided_slice %406 {offsets = [1], sizes = [1], strides = [1]} : vector<16xf32> to vector<1xf32>
        %4745 = arith.andi %1152, %4046 : i1
        %4746 = arith.addi %4049, %213 overflow<nsw> : index
        %4747 = arith.select %4745, %4746, %c536870911 : index
        vector.store %4744, %434[%4747] : memref<?xf32, #amdgpu.address_space<fat_raw_buffer>>, vector<1xf32>
        %4748 = vector.extract_strided_slice %406 {offsets = [2], sizes = [1], strides = [1]} : vector<16xf32> to vector<1xf32>
        %4749 = arith.andi %1152, %4054 : i1
        %4750 = arith.addi %4057, %213 overflow<nsw> : index
        %4751 = arith.select %4749, %4750, %c536870911 : index
        vector.store %4748, %434[%4751] : memref<?xf32, #amdgpu.address_space<fat_raw_buffer>>, vector<1xf32>
        %4752 = vector.extract_strided_slice %406 {offsets = [3], sizes = [1], strides = [1]} : vector<16xf32> to vector<1xf32>
        %4753 = arith.andi %1152, %4062 : i1
        %4754 = arith.addi %4065, %213 overflow<nsw> : index
        %4755 = arith.select %4753, %4754, %c536870911 : index
        vector.store %4752, %434[%4755] : memref<?xf32, #amdgpu.address_space<fat_raw_buffer>>, vector<1xf32>
        %4756 = vector.extract_strided_slice %406 {offsets = [4], sizes = [1], strides = [1]} : vector<16xf32> to vector<1xf32>
        %4757 = arith.andi %1152, %4070 : i1
        %4758 = arith.addi %4073, %213 overflow<nsw> : index
        %4759 = arith.select %4757, %4758, %c536870911 : index
        vector.store %4756, %434[%4759] : memref<?xf32, #amdgpu.address_space<fat_raw_buffer>>, vector<1xf32>
        %4760 = vector.extract_strided_slice %406 {offsets = [5], sizes = [1], strides = [1]} : vector<16xf32> to vector<1xf32>
        %4761 = arith.andi %1152, %4078 : i1
        %4762 = arith.addi %4081, %213 overflow<nsw> : index
        %4763 = arith.select %4761, %4762, %c536870911 : index
        vector.store %4760, %434[%4763] : memref<?xf32, #amdgpu.address_space<fat_raw_buffer>>, vector<1xf32>
        %4764 = vector.extract_strided_slice %406 {offsets = [6], sizes = [1], strides = [1]} : vector<16xf32> to vector<1xf32>
        %4765 = arith.andi %1152, %4086 : i1
        %4766 = arith.addi %4089, %213 overflow<nsw> : index
        %4767 = arith.select %4765, %4766, %c536870911 : index
        vector.store %4764, %434[%4767] : memref<?xf32, #amdgpu.address_space<fat_raw_buffer>>, vector<1xf32>
        %4768 = vector.extract_strided_slice %406 {offsets = [7], sizes = [1], strides = [1]} : vector<16xf32> to vector<1xf32>
        %4769 = arith.andi %1152, %4094 : i1
        %4770 = arith.addi %4097, %213 overflow<nsw> : index
        %4771 = arith.select %4769, %4770, %c536870911 : index
        vector.store %4768, %434[%4771] : memref<?xf32, #amdgpu.address_space<fat_raw_buffer>>, vector<1xf32>
        %4772 = vector.extract_strided_slice %406 {offsets = [8], sizes = [1], strides = [1]} : vector<16xf32> to vector<1xf32>
        %4773 = arith.andi %1152, %4102 : i1
        %4774 = arith.addi %4105, %213 overflow<nsw> : index
        %4775 = arith.select %4773, %4774, %c536870911 : index
        vector.store %4772, %434[%4775] : memref<?xf32, #amdgpu.address_space<fat_raw_buffer>>, vector<1xf32>
        %4776 = vector.extract_strided_slice %406 {offsets = [9], sizes = [1], strides = [1]} : vector<16xf32> to vector<1xf32>
        %4777 = arith.andi %1152, %4110 : i1
        %4778 = arith.addi %4113, %213 overflow<nsw> : index
        %4779 = arith.select %4777, %4778, %c536870911 : index
        vector.store %4776, %434[%4779] : memref<?xf32, #amdgpu.address_space<fat_raw_buffer>>, vector<1xf32>
        %4780 = vector.extract_strided_slice %406 {offsets = [10], sizes = [1], strides = [1]} : vector<16xf32> to vector<1xf32>
        %4781 = arith.andi %1152, %4118 : i1
        %4782 = arith.addi %4121, %213 overflow<nsw> : index
        %4783 = arith.select %4781, %4782, %c536870911 : index
        vector.store %4780, %434[%4783] : memref<?xf32, #amdgpu.address_space<fat_raw_buffer>>, vector<1xf32>
        %4784 = vector.extract_strided_slice %406 {offsets = [11], sizes = [1], strides = [1]} : vector<16xf32> to vector<1xf32>
        %4785 = arith.andi %1152, %4126 : i1
        %4786 = arith.addi %4129, %213 overflow<nsw> : index
        %4787 = arith.select %4785, %4786, %c536870911 : index
        vector.store %4784, %434[%4787] : memref<?xf32, #amdgpu.address_space<fat_raw_buffer>>, vector<1xf32>
        %4788 = vector.extract_strided_slice %406 {offsets = [12], sizes = [1], strides = [1]} : vector<16xf32> to vector<1xf32>
        %4789 = arith.andi %1152, %4134 : i1
        %4790 = arith.addi %4137, %213 overflow<nsw> : index
        %4791 = arith.select %4789, %4790, %c536870911 : index
        vector.store %4788, %434[%4791] : memref<?xf32, #amdgpu.address_space<fat_raw_buffer>>, vector<1xf32>
        %4792 = vector.extract_strided_slice %406 {offsets = [13], sizes = [1], strides = [1]} : vector<16xf32> to vector<1xf32>
        %4793 = arith.andi %1152, %4142 : i1
        %4794 = arith.addi %4145, %213 overflow<nsw> : index
        %4795 = arith.select %4793, %4794, %c536870911 : index
        vector.store %4792, %434[%4795] : memref<?xf32, #amdgpu.address_space<fat_raw_buffer>>, vector<1xf32>
        %4796 = vector.extract_strided_slice %406 {offsets = [14], sizes = [1], strides = [1]} : vector<16xf32> to vector<1xf32>
        %4797 = arith.andi %1152, %4150 : i1
        %4798 = arith.addi %4153, %213 overflow<nsw> : index
        %4799 = arith.select %4797, %4798, %c536870911 : index
        vector.store %4796, %434[%4799] : memref<?xf32, #amdgpu.address_space<fat_raw_buffer>>, vector<1xf32>
        %4800 = vector.extract_strided_slice %406 {offsets = [15], sizes = [1], strides = [1]} : vector<16xf32> to vector<1xf32>
        %4801 = arith.andi %1152, %4158 : i1
        %4802 = arith.addi %4161, %213 overflow<nsw> : index
        %4803 = arith.select %4801, %4802, %c536870911 : index
        vector.store %4800, %434[%4803] : memref<?xf32, #amdgpu.address_space<fat_raw_buffer>>, vector<1xf32>
        %4804 = vector.extract_strided_slice %408 {offsets = [0], sizes = [1], strides = [1]} : vector<16xf32> to vector<1xf32>
        %4805 = arith.andi %1218, %4038 : i1
        %4806 = arith.addi %4041, %217 overflow<nsw> : index
        %4807 = arith.select %4805, %4806, %c536870911 : index
        vector.store %4804, %434[%4807] : memref<?xf32, #amdgpu.address_space<fat_raw_buffer>>, vector<1xf32>
        %4808 = vector.extract_strided_slice %408 {offsets = [1], sizes = [1], strides = [1]} : vector<16xf32> to vector<1xf32>
        %4809 = arith.andi %1218, %4046 : i1
        %4810 = arith.addi %4049, %217 overflow<nsw> : index
        %4811 = arith.select %4809, %4810, %c536870911 : index
        vector.store %4808, %434[%4811] : memref<?xf32, #amdgpu.address_space<fat_raw_buffer>>, vector<1xf32>
        %4812 = vector.extract_strided_slice %408 {offsets = [2], sizes = [1], strides = [1]} : vector<16xf32> to vector<1xf32>
        %4813 = arith.andi %1218, %4054 : i1
        %4814 = arith.addi %4057, %217 overflow<nsw> : index
        %4815 = arith.select %4813, %4814, %c536870911 : index
        vector.store %4812, %434[%4815] : memref<?xf32, #amdgpu.address_space<fat_raw_buffer>>, vector<1xf32>
        %4816 = vector.extract_strided_slice %408 {offsets = [3], sizes = [1], strides = [1]} : vector<16xf32> to vector<1xf32>
        %4817 = arith.andi %1218, %4062 : i1
        %4818 = arith.addi %4065, %217 overflow<nsw> : index
        %4819 = arith.select %4817, %4818, %c536870911 : index
        vector.store %4816, %434[%4819] : memref<?xf32, #amdgpu.address_space<fat_raw_buffer>>, vector<1xf32>
        %4820 = vector.extract_strided_slice %408 {offsets = [4], sizes = [1], strides = [1]} : vector<16xf32> to vector<1xf32>
        %4821 = arith.andi %1218, %4070 : i1
        %4822 = arith.addi %4073, %217 overflow<nsw> : index
        %4823 = arith.select %4821, %4822, %c536870911 : index
        vector.store %4820, %434[%4823] : memref<?xf32, #amdgpu.address_space<fat_raw_buffer>>, vector<1xf32>
        %4824 = vector.extract_strided_slice %408 {offsets = [5], sizes = [1], strides = [1]} : vector<16xf32> to vector<1xf32>
        %4825 = arith.andi %1218, %4078 : i1
        %4826 = arith.addi %4081, %217 overflow<nsw> : index
        %4827 = arith.select %4825, %4826, %c536870911 : index
        vector.store %4824, %434[%4827] : memref<?xf32, #amdgpu.address_space<fat_raw_buffer>>, vector<1xf32>
        %4828 = vector.extract_strided_slice %408 {offsets = [6], sizes = [1], strides = [1]} : vector<16xf32> to vector<1xf32>
        %4829 = arith.andi %1218, %4086 : i1
        %4830 = arith.addi %4089, %217 overflow<nsw> : index
        %4831 = arith.select %4829, %4830, %c536870911 : index
        vector.store %4828, %434[%4831] : memref<?xf32, #amdgpu.address_space<fat_raw_buffer>>, vector<1xf32>
        %4832 = vector.extract_strided_slice %408 {offsets = [7], sizes = [1], strides = [1]} : vector<16xf32> to vector<1xf32>
        %4833 = arith.andi %1218, %4094 : i1
        %4834 = arith.addi %4097, %217 overflow<nsw> : index
        %4835 = arith.select %4833, %4834, %c536870911 : index
        vector.store %4832, %434[%4835] : memref<?xf32, #amdgpu.address_space<fat_raw_buffer>>, vector<1xf32>
        %4836 = vector.extract_strided_slice %408 {offsets = [8], sizes = [1], strides = [1]} : vector<16xf32> to vector<1xf32>
        %4837 = arith.andi %1218, %4102 : i1
        %4838 = arith.addi %4105, %217 overflow<nsw> : index
        %4839 = arith.select %4837, %4838, %c536870911 : index
        vector.store %4836, %434[%4839] : memref<?xf32, #amdgpu.address_space<fat_raw_buffer>>, vector<1xf32>
        %4840 = vector.extract_strided_slice %408 {offsets = [9], sizes = [1], strides = [1]} : vector<16xf32> to vector<1xf32>
        %4841 = arith.andi %1218, %4110 : i1
        %4842 = arith.addi %4113, %217 overflow<nsw> : index
        %4843 = arith.select %4841, %4842, %c536870911 : index
        vector.store %4840, %434[%4843] : memref<?xf32, #amdgpu.address_space<fat_raw_buffer>>, vector<1xf32>
        %4844 = vector.extract_strided_slice %408 {offsets = [10], sizes = [1], strides = [1]} : vector<16xf32> to vector<1xf32>
        %4845 = arith.andi %1218, %4118 : i1
        %4846 = arith.addi %4121, %217 overflow<nsw> : index
        %4847 = arith.select %4845, %4846, %c536870911 : index
        vector.store %4844, %434[%4847] : memref<?xf32, #amdgpu.address_space<fat_raw_buffer>>, vector<1xf32>
        %4848 = vector.extract_strided_slice %408 {offsets = [11], sizes = [1], strides = [1]} : vector<16xf32> to vector<1xf32>
        %4849 = arith.andi %1218, %4126 : i1
        %4850 = arith.addi %4129, %217 overflow<nsw> : index
        %4851 = arith.select %4849, %4850, %c536870911 : index
        vector.store %4848, %434[%4851] : memref<?xf32, #amdgpu.address_space<fat_raw_buffer>>, vector<1xf32>
        %4852 = vector.extract_strided_slice %408 {offsets = [12], sizes = [1], strides = [1]} : vector<16xf32> to vector<1xf32>
        %4853 = arith.andi %1218, %4134 : i1
        %4854 = arith.addi %4137, %217 overflow<nsw> : index
        %4855 = arith.select %4853, %4854, %c536870911 : index
        vector.store %4852, %434[%4855] : memref<?xf32, #amdgpu.address_space<fat_raw_buffer>>, vector<1xf32>
        %4856 = vector.extract_strided_slice %408 {offsets = [13], sizes = [1], strides = [1]} : vector<16xf32> to vector<1xf32>
        %4857 = arith.andi %1218, %4142 : i1
        %4858 = arith.addi %4145, %217 overflow<nsw> : index
        %4859 = arith.select %4857, %4858, %c536870911 : index
        vector.store %4856, %434[%4859] : memref<?xf32, #amdgpu.address_space<fat_raw_buffer>>, vector<1xf32>
        %4860 = vector.extract_strided_slice %408 {offsets = [14], sizes = [1], strides = [1]} : vector<16xf32> to vector<1xf32>
        %4861 = arith.andi %1218, %4150 : i1
        %4862 = arith.addi %4153, %217 overflow<nsw> : index
        %4863 = arith.select %4861, %4862, %c536870911 : index
        vector.store %4860, %434[%4863] : memref<?xf32, #amdgpu.address_space<fat_raw_buffer>>, vector<1xf32>
        %4864 = vector.extract_strided_slice %408 {offsets = [15], sizes = [1], strides = [1]} : vector<16xf32> to vector<1xf32>
        %4865 = arith.andi %1218, %4158 : i1
        %4866 = arith.addi %4161, %217 overflow<nsw> : index
        %4867 = arith.select %4865, %4866, %c536870911 : index
        vector.store %4864, %434[%4867] : memref<?xf32, #amdgpu.address_space<fat_raw_buffer>>, vector<1xf32>
        %4868 = vector.extract_strided_slice %410 {offsets = [0], sizes = [1], strides = [1]} : vector<16xf32> to vector<1xf32>
        %4869 = arith.andi %1284, %4038 : i1
        %4870 = arith.addi %4041, %221 overflow<nsw> : index
        %4871 = arith.select %4869, %4870, %c536870911 : index
        vector.store %4868, %434[%4871] : memref<?xf32, #amdgpu.address_space<fat_raw_buffer>>, vector<1xf32>
        %4872 = vector.extract_strided_slice %410 {offsets = [1], sizes = [1], strides = [1]} : vector<16xf32> to vector<1xf32>
        %4873 = arith.andi %1284, %4046 : i1
        %4874 = arith.addi %4049, %221 overflow<nsw> : index
        %4875 = arith.select %4873, %4874, %c536870911 : index
        vector.store %4872, %434[%4875] : memref<?xf32, #amdgpu.address_space<fat_raw_buffer>>, vector<1xf32>
        %4876 = vector.extract_strided_slice %410 {offsets = [2], sizes = [1], strides = [1]} : vector<16xf32> to vector<1xf32>
        %4877 = arith.andi %1284, %4054 : i1
        %4878 = arith.addi %4057, %221 overflow<nsw> : index
        %4879 = arith.select %4877, %4878, %c536870911 : index
        vector.store %4876, %434[%4879] : memref<?xf32, #amdgpu.address_space<fat_raw_buffer>>, vector<1xf32>
        %4880 = vector.extract_strided_slice %410 {offsets = [3], sizes = [1], strides = [1]} : vector<16xf32> to vector<1xf32>
        %4881 = arith.andi %1284, %4062 : i1
        %4882 = arith.addi %4065, %221 overflow<nsw> : index
        %4883 = arith.select %4881, %4882, %c536870911 : index
        vector.store %4880, %434[%4883] : memref<?xf32, #amdgpu.address_space<fat_raw_buffer>>, vector<1xf32>
        %4884 = vector.extract_strided_slice %410 {offsets = [4], sizes = [1], strides = [1]} : vector<16xf32> to vector<1xf32>
        %4885 = arith.andi %1284, %4070 : i1
        %4886 = arith.addi %4073, %221 overflow<nsw> : index
        %4887 = arith.select %4885, %4886, %c536870911 : index
        vector.store %4884, %434[%4887] : memref<?xf32, #amdgpu.address_space<fat_raw_buffer>>, vector<1xf32>
        %4888 = vector.extract_strided_slice %410 {offsets = [5], sizes = [1], strides = [1]} : vector<16xf32> to vector<1xf32>
        %4889 = arith.andi %1284, %4078 : i1
        %4890 = arith.addi %4081, %221 overflow<nsw> : index
        %4891 = arith.select %4889, %4890, %c536870911 : index
        vector.store %4888, %434[%4891] : memref<?xf32, #amdgpu.address_space<fat_raw_buffer>>, vector<1xf32>
        %4892 = vector.extract_strided_slice %410 {offsets = [6], sizes = [1], strides = [1]} : vector<16xf32> to vector<1xf32>
        %4893 = arith.andi %1284, %4086 : i1
        %4894 = arith.addi %4089, %221 overflow<nsw> : index
        %4895 = arith.select %4893, %4894, %c536870911 : index
        vector.store %4892, %434[%4895] : memref<?xf32, #amdgpu.address_space<fat_raw_buffer>>, vector<1xf32>
        %4896 = vector.extract_strided_slice %410 {offsets = [7], sizes = [1], strides = [1]} : vector<16xf32> to vector<1xf32>
        %4897 = arith.andi %1284, %4094 : i1
        %4898 = arith.addi %4097, %221 overflow<nsw> : index
        %4899 = arith.select %4897, %4898, %c536870911 : index
        vector.store %4896, %434[%4899] : memref<?xf32, #amdgpu.address_space<fat_raw_buffer>>, vector<1xf32>
        %4900 = vector.extract_strided_slice %410 {offsets = [8], sizes = [1], strides = [1]} : vector<16xf32> to vector<1xf32>
        %4901 = arith.andi %1284, %4102 : i1
        %4902 = arith.addi %4105, %221 overflow<nsw> : index
        %4903 = arith.select %4901, %4902, %c536870911 : index
        vector.store %4900, %434[%4903] : memref<?xf32, #amdgpu.address_space<fat_raw_buffer>>, vector<1xf32>
        %4904 = vector.extract_strided_slice %410 {offsets = [9], sizes = [1], strides = [1]} : vector<16xf32> to vector<1xf32>
        %4905 = arith.andi %1284, %4110 : i1
        %4906 = arith.addi %4113, %221 overflow<nsw> : index
        %4907 = arith.select %4905, %4906, %c536870911 : index
        vector.store %4904, %434[%4907] : memref<?xf32, #amdgpu.address_space<fat_raw_buffer>>, vector<1xf32>
        %4908 = vector.extract_strided_slice %410 {offsets = [10], sizes = [1], strides = [1]} : vector<16xf32> to vector<1xf32>
        %4909 = arith.andi %1284, %4118 : i1
        %4910 = arith.addi %4121, %221 overflow<nsw> : index
        %4911 = arith.select %4909, %4910, %c536870911 : index
        vector.store %4908, %434[%4911] : memref<?xf32, #amdgpu.address_space<fat_raw_buffer>>, vector<1xf32>
        %4912 = vector.extract_strided_slice %410 {offsets = [11], sizes = [1], strides = [1]} : vector<16xf32> to vector<1xf32>
        %4913 = arith.andi %1284, %4126 : i1
        %4914 = arith.addi %4129, %221 overflow<nsw> : index
        %4915 = arith.select %4913, %4914, %c536870911 : index
        vector.store %4912, %434[%4915] : memref<?xf32, #amdgpu.address_space<fat_raw_buffer>>, vector<1xf32>
        %4916 = vector.extract_strided_slice %410 {offsets = [12], sizes = [1], strides = [1]} : vector<16xf32> to vector<1xf32>
        %4917 = arith.andi %1284, %4134 : i1
        %4918 = arith.addi %4137, %221 overflow<nsw> : index
        %4919 = arith.select %4917, %4918, %c536870911 : index
        vector.store %4916, %434[%4919] : memref<?xf32, #amdgpu.address_space<fat_raw_buffer>>, vector<1xf32>
        %4920 = vector.extract_strided_slice %410 {offsets = [13], sizes = [1], strides = [1]} : vector<16xf32> to vector<1xf32>
        %4921 = arith.andi %1284, %4142 : i1
        %4922 = arith.addi %4145, %221 overflow<nsw> : index
        %4923 = arith.select %4921, %4922, %c536870911 : index
        vector.store %4920, %434[%4923] : memref<?xf32, #amdgpu.address_space<fat_raw_buffer>>, vector<1xf32>
        %4924 = vector.extract_strided_slice %410 {offsets = [14], sizes = [1], strides = [1]} : vector<16xf32> to vector<1xf32>
        %4925 = arith.andi %1284, %4150 : i1
        %4926 = arith.addi %4153, %221 overflow<nsw> : index
        %4927 = arith.select %4925, %4926, %c536870911 : index
        vector.store %4924, %434[%4927] : memref<?xf32, #amdgpu.address_space<fat_raw_buffer>>, vector<1xf32>
        %4928 = vector.extract_strided_slice %410 {offsets = [15], sizes = [1], strides = [1]} : vector<16xf32> to vector<1xf32>
        %4929 = arith.andi %1284, %4158 : i1
        %4930 = arith.addi %4161, %221 overflow<nsw> : index
        %4931 = arith.select %4929, %4930, %c536870911 : index
        vector.store %4928, %434[%4931] : memref<?xf32, #amdgpu.address_space<fat_raw_buffer>>, vector<1xf32>
        return
      }
    }
  }
  func.func @isolated_benchmark(%arg0: tensor<642x4096xf16>, %arg1: tensor<1024x4096xf16>, %arg2: tensor<642x1024xf32>) -> tensor<642x1024xf32> {
    %0 = flow.dispatch @gemm::@gemm(%arg0, %arg1, %arg2) : (tensor<642x4096xf16>, tensor<1024x4096xf16>, tensor<642x1024xf32>) -> %arg2
    return %0 : tensor<642x1024xf32>
  }
}
