#map = affine_map<()[s0, s1] -> (((s0 * 8 + s1 * 32 - ((s0 + s1 * 4) floordiv 8) * 63) floordiv 48) * -3 + 4)>
#map1 = affine_map<()[s0, s1, s2, s3, s4] -> ((s1 * 96 + (s0 * 3) floordiv 8) mod 172 + ((s2 * 8 + s3 * 32 - ((s2 + s3 * 4) floordiv 8) * 63) floordiv 48) * 516 + (((s2 * 8 + s3 * 32 - ((s2 + s3 * 4) floordiv 8) * 63) mod 48) mod s4) * 172)>
#map2 = affine_map<()[s0] -> (s0 * 6 - ((s0 * 3) floordiv 8) * 16)>
#map3 = affine_map<()[s0, s1, s2, s3, s4] -> (s0 floordiv 2 + s1 * 128 - ((s1 * 128 + s0 floordiv 2) floordiv 528) * 528 + (((s2 * 8 + s3 * 32 - ((s2 + s3 * 4) floordiv 8) * 63) mod 48) floordiv s4) * 528)>
#map4 = affine_map<()[s0] -> (s0 * 8 - (s0 floordiv 2) * 16)>
#map5 = affine_map<()[s0, s1, s2, s3, s4] -> (s0 floordiv 2 + s1 * 128 - ((s1 * 128 + s0 floordiv 2 + 256) floordiv 528) * 528 + (((s2 * 8 + s3 * 32 - ((s2 + s3 * 4) floordiv 8) * 63) mod 48) floordiv s4) * 528 + 256)>
#map6 = affine_map<()[s0, s1, s2, s3, s4] -> (s0 floordiv 2 + s1 * 128 - ((s1 * 128 + s0 floordiv 2 + 512) floordiv 528) * 528 + (((s2 * 8 + s3 * 32 - ((s2 + s3 * 4) floordiv 8) * 63) mod 48) floordiv s4) * 528 + 512)>
#map7 = affine_map<()[s0] -> ((s0 floordiv 64) * 43 + 43)>
#map8 = affine_map<()[s0, s1] -> ((s1 * 96 + (s0 * 3) floordiv 8) mod 172)>
#map9 = affine_map<()[s0] -> (s0 * 264 + 264)>
#map10 = affine_map<()[s0, s1] -> ((s1 * 128 + s0 floordiv 2) mod 528)>
#map11 = affine_map<()[s0, s1] -> (s1 * 128 + s0 floordiv 2 - ((s1 * 128 + s0 floordiv 2 + 256) floordiv 528) * 528 + 256)>
#map12 = affine_map<()[s0, s1] -> (s1 * 128 + s0 floordiv 2 - ((s1 * 128 + s0 floordiv 2 + 512) floordiv 528) * 528 + 512)>
#map13 = affine_map<()[s0, s1] -> (s0 + s1 * 264 - (s0 floordiv 16) * 16)>
#map14 = affine_map<()[s0] -> (((s0 mod 64) floordiv 16) * 4)>
#map15 = affine_map<()[s0, s1] -> (s0 + s1 * 264 - (s0 floordiv 16) * 16 + 16)>
#map16 = affine_map<()[s0, s1] -> (s0 + s1 * 264 - (s0 floordiv 16) * 16 + 32)>
#map17 = affine_map<()[s0, s1] -> (s0 + s1 * 264 - (s0 floordiv 16) * 16 + 48)>
#map18 = affine_map<()[s0, s1] -> (s0 + s1 * 264 - (s0 floordiv 16) * 16 + 64)>
#map19 = affine_map<()[s0, s1] -> (s0 + s1 * 264 - (s0 floordiv 16) * 16 + 80)>
#map20 = affine_map<()[s0, s1] -> (s0 + s1 * 264 - (s0 floordiv 16) * 16 + 96)>
#map21 = affine_map<()[s0, s1] -> (s0 + s1 * 264 - (s0 floordiv 16) * 16 + 112)>
#map22 = affine_map<()[s0, s1] -> (s0 + s1 * 264 - (s0 floordiv 16) * 16 + 128)>
#map23 = affine_map<()[s0, s1] -> (s0 + s1 * 264 - (s0 floordiv 16) * 16 + 144)>
#map24 = affine_map<()[s0, s1] -> (s0 + s1 * 264 - (s0 floordiv 16) * 16 + 160)>
#map25 = affine_map<()[s0, s1] -> (s0 + s1 * 264 - (s0 floordiv 16) * 16 + 176)>
#map26 = affine_map<()[s0, s1] -> (s0 + s1 * 264 - (s0 floordiv 16) * 16 + 192)>
#map27 = affine_map<()[s0, s1] -> (s0 + s1 * 264 - (s0 floordiv 16) * 16 + 208)>
#map28 = affine_map<()[s0, s1] -> (s0 + s1 * 264 - (s0 floordiv 16) * 16 + 224)>
#map29 = affine_map<()[s0, s1] -> (s0 + s1 * 264 - (s0 floordiv 16) * 16 + 240)>
#map30 = affine_map<()[s0, s1] -> (s0 + s1 * 264 - (s0 floordiv 16) * 16 + 256)>
#map31 = affine_map<()[s0] -> (s0 mod 16 + (s0 floordiv 64) * 43)>
#map32 = affine_map<()[s0] -> (s0 mod 16 + (s0 floordiv 64) * 43 + 16)>
#map33 = affine_map<()[s0] -> (s0 mod 16 + (s0 floordiv 64) * 43 + 32)>
#map34 = affine_map<()[s0, s1] -> (s0 * 16 + s1 * 6 - ((s1 * 3) floordiv 8) * 16 + 16)>
#map35 = affine_map<()[s0, s1] -> (s0 * 16 + s1 * 8 - (s1 floordiv 2) * 16 + 16)>
#map36 = affine_map<()[s0, s1] -> (s0 * 528 + s1 * 264 + 264)>
#map37 = affine_map<()[s0, s1, s2, s3, s4] -> (s0 mod 16 + s4 * 264 + (((s1 * 8 + s2 * 32 - ((s1 + s2 * 4) floordiv 8) * 63) mod 48) floordiv s3) * 528)>
#map38 = affine_map<()[s0, s1] -> (s0 * 172 + (s1 floordiv 64) * 43 + 43)>
#map39 = affine_map<()[s0] -> (s0 * 172 + 172)>
#map40 = affine_map<()[s0, s1, s2, s3] -> ((s3 floordiv 64) * 43 + ((s0 * 8 + s1 * 32 - ((s0 + s1 * 4) floordiv 8) * 63) floordiv 48) * 516 + (((s0 * 8 + s1 * 32 - ((s0 + s1 * 4) floordiv 8) * 63) mod 48) mod s2) * 172 + ((s3 mod 64) floordiv 16) * 4)>
#map41 = affine_map<()[s0, s1, s2] -> (((s0 * 8 + s1 * 32 - ((s0 + s1 * 4) floordiv 8) * 63) floordiv 48) * 516 + (((s0 * 8 + s1 * 32 - ((s0 + s1 * 4) floordiv 8) * 63) mod 48) mod s2) * 172)>
#map42 = affine_map<()[s0, s1, s2] -> ((((s0 * 8 + s1 * 32 - ((s0 + s1 * 4) floordiv 8) * 63) mod 48) floordiv s2) * 528)>
#map43 = affine_map<()[s0] -> ((s0 floordiv 64) * 43 + ((s0 mod 64) floordiv 16) * 4)>
#map44 = affine_map<()[s0, s1, s2, s3] -> ((s3 floordiv 64) * 43 + ((s0 * 8 + s1 * 32 - ((s0 + s1 * 4) floordiv 8) * 63) floordiv 48) * 516 + (((s0 * 8 + s1 * 32 - ((s0 + s1 * 4) floordiv 8) * 63) mod 48) mod s2) * 172 + ((s3 mod 64) floordiv 16) * 4 + 1)>
#map45 = affine_map<()[s0] -> ((s0 floordiv 64) * 43 + ((s0 mod 64) floordiv 16) * 4 + 1)>
#map46 = affine_map<()[s0, s1, s2, s3] -> ((s3 floordiv 64) * 43 + ((s0 * 8 + s1 * 32 - ((s0 + s1 * 4) floordiv 8) * 63) floordiv 48) * 516 + (((s0 * 8 + s1 * 32 - ((s0 + s1 * 4) floordiv 8) * 63) mod 48) mod s2) * 172 + ((s3 mod 64) floordiv 16) * 4 + 2)>
#map47 = affine_map<()[s0] -> ((s0 floordiv 64) * 43 + ((s0 mod 64) floordiv 16) * 4 + 2)>
#map48 = affine_map<()[s0, s1, s2, s3] -> ((s3 floordiv 64) * 43 + ((s0 * 8 + s1 * 32 - ((s0 + s1 * 4) floordiv 8) * 63) floordiv 48) * 516 + (((s0 * 8 + s1 * 32 - ((s0 + s1 * 4) floordiv 8) * 63) mod 48) mod s2) * 172 + ((s3 mod 64) floordiv 16) * 4 + 3)>
#map49 = affine_map<()[s0] -> ((s0 floordiv 64) * 43 + ((s0 mod 64) floordiv 16) * 4 + 3)>
#map50 = affine_map<()[s0, s1, s2, s3, s4] -> (s0 mod 16 + s4 * 264 + (((s1 * 8 + s2 * 32 - ((s1 + s2 * 4) floordiv 8) * 63) mod 48) floordiv s3) * 528 + 16)>
#map51 = affine_map<()[s0, s1, s2, s3, s4] -> (s0 mod 16 + s4 * 264 + (((s1 * 8 + s2 * 32 - ((s1 + s2 * 4) floordiv 8) * 63) mod 48) floordiv s3) * 528 + 32)>
#map52 = affine_map<()[s0, s1, s2, s3, s4] -> (s0 mod 16 + s4 * 264 + (((s1 * 8 + s2 * 32 - ((s1 + s2 * 4) floordiv 8) * 63) mod 48) floordiv s3) * 528 + 48)>
#map53 = affine_map<()[s0, s1, s2, s3, s4] -> (s0 mod 16 + s4 * 264 + (((s1 * 8 + s2 * 32 - ((s1 + s2 * 4) floordiv 8) * 63) mod 48) floordiv s3) * 528 + 64)>
#map54 = affine_map<()[s0, s1, s2, s3, s4] -> (s0 mod 16 + s4 * 264 + (((s1 * 8 + s2 * 32 - ((s1 + s2 * 4) floordiv 8) * 63) mod 48) floordiv s3) * 528 + 80)>
#map55 = affine_map<()[s0, s1, s2, s3, s4] -> (s0 mod 16 + s4 * 264 + (((s1 * 8 + s2 * 32 - ((s1 + s2 * 4) floordiv 8) * 63) mod 48) floordiv s3) * 528 + 96)>
#map56 = affine_map<()[s0, s1, s2, s3, s4] -> (s0 mod 16 + s4 * 264 + (((s1 * 8 + s2 * 32 - ((s1 + s2 * 4) floordiv 8) * 63) mod 48) floordiv s3) * 528 + 112)>
#map57 = affine_map<()[s0, s1, s2, s3, s4] -> (s0 mod 16 + s4 * 264 + (((s1 * 8 + s2 * 32 - ((s1 + s2 * 4) floordiv 8) * 63) mod 48) floordiv s3) * 528 + 128)>
#map58 = affine_map<()[s0, s1, s2, s3, s4] -> (s0 mod 16 + s4 * 264 + (((s1 * 8 + s2 * 32 - ((s1 + s2 * 4) floordiv 8) * 63) mod 48) floordiv s3) * 528 + 144)>
#map59 = affine_map<()[s0, s1, s2, s3, s4] -> (s0 mod 16 + s4 * 264 + (((s1 * 8 + s2 * 32 - ((s1 + s2 * 4) floordiv 8) * 63) mod 48) floordiv s3) * 528 + 160)>
#map60 = affine_map<()[s0, s1, s2, s3, s4] -> (s0 mod 16 + s4 * 264 + (((s1 * 8 + s2 * 32 - ((s1 + s2 * 4) floordiv 8) * 63) mod 48) floordiv s3) * 528 + 176)>
#map61 = affine_map<()[s0, s1, s2, s3, s4] -> (s0 mod 16 + s4 * 264 + (((s1 * 8 + s2 * 32 - ((s1 + s2 * 4) floordiv 8) * 63) mod 48) floordiv s3) * 528 + 192)>
#map62 = affine_map<()[s0, s1, s2, s3, s4] -> (s0 mod 16 + s4 * 264 + (((s1 * 8 + s2 * 32 - ((s1 + s2 * 4) floordiv 8) * 63) mod 48) floordiv s3) * 528 + 208)>
#map63 = affine_map<()[s0, s1, s2, s3, s4] -> (s0 mod 16 + s4 * 264 + (((s1 * 8 + s2 * 32 - ((s1 + s2 * 4) floordiv 8) * 63) mod 48) floordiv s3) * 528 + 224)>
#map64 = affine_map<()[s0, s1, s2, s3, s4] -> (s0 mod 16 + s4 * 264 + (((s1 * 8 + s2 * 32 - ((s1 + s2 * 4) floordiv 8) * 63) mod 48) floordiv s3) * 528 + 240)>
#map65 = affine_map<()[s0, s1, s2, s3, s4] -> (s0 mod 16 + s4 * 264 + (((s1 * 8 + s2 * 32 - ((s1 + s2 * 4) floordiv 8) * 63) mod 48) floordiv s3) * 528 + 256)>
#map66 = affine_map<()[s0, s1, s2, s3] -> ((s3 floordiv 64) * 43 + ((s0 * 8 + s1 * 32 - ((s0 + s1 * 4) floordiv 8) * 63) floordiv 48) * 516 + (((s0 * 8 + s1 * 32 - ((s0 + s1 * 4) floordiv 8) * 63) mod 48) mod s2) * 172 + ((s3 mod 64) floordiv 16) * 4 + 16)>
#map67 = affine_map<()[s0] -> ((s0 floordiv 64) * 43 + ((s0 mod 64) floordiv 16) * 4 + 16)>
#map68 = affine_map<()[s0, s1, s2, s3] -> ((s3 floordiv 64) * 43 + ((s0 * 8 + s1 * 32 - ((s0 + s1 * 4) floordiv 8) * 63) floordiv 48) * 516 + (((s0 * 8 + s1 * 32 - ((s0 + s1 * 4) floordiv 8) * 63) mod 48) mod s2) * 172 + ((s3 mod 64) floordiv 16) * 4 + 17)>
#map69 = affine_map<()[s0] -> ((s0 floordiv 64) * 43 + ((s0 mod 64) floordiv 16) * 4 + 17)>
#map70 = affine_map<()[s0, s1, s2, s3] -> ((s3 floordiv 64) * 43 + ((s0 * 8 + s1 * 32 - ((s0 + s1 * 4) floordiv 8) * 63) floordiv 48) * 516 + (((s0 * 8 + s1 * 32 - ((s0 + s1 * 4) floordiv 8) * 63) mod 48) mod s2) * 172 + ((s3 mod 64) floordiv 16) * 4 + 18)>
#map71 = affine_map<()[s0] -> ((s0 floordiv 64) * 43 + ((s0 mod 64) floordiv 16) * 4 + 18)>
#map72 = affine_map<()[s0, s1, s2, s3] -> ((s3 floordiv 64) * 43 + ((s0 * 8 + s1 * 32 - ((s0 + s1 * 4) floordiv 8) * 63) floordiv 48) * 516 + (((s0 * 8 + s1 * 32 - ((s0 + s1 * 4) floordiv 8) * 63) mod 48) mod s2) * 172 + ((s3 mod 64) floordiv 16) * 4 + 19)>
#map73 = affine_map<()[s0] -> ((s0 floordiv 64) * 43 + ((s0 mod 64) floordiv 16) * 4 + 19)>
#map74 = affine_map<()[s0, s1, s2, s3] -> ((s3 floordiv 64) * 43 + ((s0 * 8 + s1 * 32 - ((s0 + s1 * 4) floordiv 8) * 63) floordiv 48) * 516 + (((s0 * 8 + s1 * 32 - ((s0 + s1 * 4) floordiv 8) * 63) mod 48) mod s2) * 172 + ((s3 mod 64) floordiv 16) * 4 + 32)>
#map75 = affine_map<()[s0] -> ((s0 floordiv 64) * 43 + ((s0 mod 64) floordiv 16) * 4 + 32)>
#map76 = affine_map<()[s0, s1, s2, s3] -> ((s3 floordiv 64) * 43 + ((s0 * 8 + s1 * 32 - ((s0 + s1 * 4) floordiv 8) * 63) floordiv 48) * 516 + (((s0 * 8 + s1 * 32 - ((s0 + s1 * 4) floordiv 8) * 63) mod 48) mod s2) * 172 + ((s3 mod 64) floordiv 16) * 4 + 33)>
#map77 = affine_map<()[s0] -> ((s0 floordiv 64) * 43 + ((s0 mod 64) floordiv 16) * 4 + 33)>
#map78 = affine_map<()[s0, s1, s2, s3] -> ((s3 floordiv 64) * 43 + ((s0 * 8 + s1 * 32 - ((s0 + s1 * 4) floordiv 8) * 63) floordiv 48) * 516 + (((s0 * 8 + s1 * 32 - ((s0 + s1 * 4) floordiv 8) * 63) mod 48) mod s2) * 172 + ((s3 mod 64) floordiv 16) * 4 + 34)>
#map79 = affine_map<()[s0] -> ((s0 floordiv 64) * 43 + ((s0 mod 64) floordiv 16) * 4 + 34)>
#map80 = affine_map<()[s0, s1, s2, s3] -> ((s3 floordiv 64) * 43 + ((s0 * 8 + s1 * 32 - ((s0 + s1 * 4) floordiv 8) * 63) floordiv 48) * 516 + (((s0 * 8 + s1 * 32 - ((s0 + s1 * 4) floordiv 8) * 63) mod 48) mod s2) * 172 + ((s3 mod 64) floordiv 16) * 4 + 35)>
#map81 = affine_map<()[s0] -> ((s0 floordiv 64) * 43 + ((s0 mod 64) floordiv 16) * 4 + 35)>
#translation = #iree_codegen.translation_info<pipeline = None workgroup_size = [256, 2, 1] subgroup_size = 64>
module attributes {transform.with_named_sequence} {
  stream.executable private @gemm {
    stream.executable.export public @gemm workgroups() -> (index, index, index) {
      %c4 = arith.constant 4 : index
      %c16 = arith.constant 16 : index
      %c1 = arith.constant 1 : index
      stream.return %c4, %c16, %c1 : index, index, index
    }
    builtin.module {
      func.func @gemm(%arg0: !stream.binding, %arg1: !stream.binding, %arg2: !stream.binding) attributes {translation_info = #translation} {
        %cst = arith.constant dense<0.000000e+00> : vector<4xf16>
        %cst_0 = arith.constant dense<[0, 1, 2, 3, 4, 5, 6, 7]> : vector<8xi32>
        %cst_1 = arith.constant dense<1073741823> : vector<8xindex>
        %cst_2 = arith.constant dense<[0, 1, 2, 3, 4, 5]> : vector<6xi32>
        %cst_3 = arith.constant dense<1073741823> : vector<6xindex>
        %c-8192_i14 = arith.constant -8192 : i14
        %c536870911 = arith.constant 536870911 : index
        %c2147483643_i32 = arith.constant 2147483643 : i32
        %c536870910 = arith.constant 536870910 : index
        %c511 = arith.constant 511 : index
        %c528 = arith.constant 528 : index
        %c2147483645_i32 = arith.constant 2147483645 : i32
        %c1073741822 = arith.constant 1073741822 : index
        %c8192 = arith.constant 8192 : index
        %c642 = arith.constant 642 : index
        %c3 = arith.constant 3 : index
        %c1 = arith.constant 1 : index
        %c172 = arith.constant 172 : index
        %c21120 = arith.constant 21120 : index
        %c0 = arith.constant 0 : index
        %cst_4 = arith.constant dense<0.000000e+00> : vector<4xf32>
        %block_id_x = gpu.block_id  x upper_bound 4
        %block_id_y = gpu.block_id  y upper_bound 16
        %thread_id_x = gpu.thread_id  x upper_bound 256
        %thread_id_y = gpu.thread_id  y upper_bound 2
        %alloc = memref.alloc() : memref<28000xi8, #gpu.address_space<workgroup>>
        %view = memref.view %alloc[%c0][] : memref<28000xi8, #gpu.address_space<workgroup>> to memref<528x20xf16, #gpu.address_space<workgroup>>
        %view_5 = memref.view %alloc[%c21120][] : memref<28000xi8, #gpu.address_space<workgroup>> to memref<172x20xf16, #gpu.address_space<workgroup>>
        %0 = stream.binding.subspan %arg0[%c0] : !stream.binding -> memref<642x8192xf16, strided<[8192, 1], offset: ?>>
        %1 = affine.apply #map()[%block_id_x, %block_id_y]
        %2 = arith.minsi %1, %c3 : index
        %3 = arith.maxsi %2, %c1 : index
        %4 = affine.apply #map1()[%thread_id_x, %thread_id_y, %block_id_x, %block_id_y, %3]
        %5 = arith.cmpi slt, %4, %c642 : index
        %6 = vector.broadcast %5 : i1 to vector<6xi1>
        %7 = affine.apply #map2()[%thread_id_x]
        %8 = arith.muli %4, %c8192 overflow<nsw> : index
        %9 = arith.addi %8, %7 overflow<nsw> : index
        %base_buffer, %offset, %sizes:2, %strides:2 = memref.extract_strided_metadata %0 : memref<642x8192xf16, strided<[8192, 1], offset: ?>> -> memref<f16>, index, index, index, index, index
        %reinterpret_cast = memref.reinterpret_cast %0 to offset: [%offset], sizes: [%c1073741822], strides: [1] : memref<642x8192xf16, strided<[8192, 1], offset: ?>> to memref<?xf16, strided<[1], offset: ?>>
        %10 = amdgpu.fat_raw_buffer_cast %reinterpret_cast validBytes(%c2147483645_i32) cacheSwizzleStride(%c-8192_i14) resetOffset : memref<?xf16, strided<[1], offset: ?>> to memref<?xf16, #amdgpu.address_space<fat_raw_buffer>>
        %11 = arith.index_cast %9 : index to i32
        %12 = vector.broadcast %11 : i32 to vector<6xi32>
        %13 = arith.addi %12, %cst_2 : vector<6xi32>
        %14 = arith.index_cast %13 : vector<6xi32> to vector<6xindex>
        %15 = arith.select %6, %14, %cst_3 : vector<6xi1>, vector<6xindex>
        %16 = vector.extract %15[0] : index from vector<6xindex>
        %17 = vector.load %10[%16] : memref<?xf16, #amdgpu.address_space<fat_raw_buffer>>, vector<6xf16>
        %18 = stream.binding.subspan %arg1[%c0] : !stream.binding -> memref<8192x8192xf16, strided<[8192, 1], offset: ?>>
        %19 = affine.apply #map3()[%thread_id_x, %thread_id_y, %block_id_x, %block_id_y, %3]
        %20 = arith.cmpi slt, %19, %c8192 : index
        %21 = vector.broadcast %20 : i1 to vector<8xi1>
        %22 = affine.apply #map4()[%thread_id_x]
        %23 = arith.muli %19, %c8192 overflow<nsw> : index
        %24 = arith.addi %23, %22 overflow<nsw> : index
        %base_buffer_6, %offset_7, %sizes_8:2, %strides_9:2 = memref.extract_strided_metadata %18 : memref<8192x8192xf16, strided<[8192, 1], offset: ?>> -> memref<f16>, index, index, index, index, index
        %reinterpret_cast_10 = memref.reinterpret_cast %18 to offset: [%offset_7], sizes: [%c1073741822], strides: [1] : memref<8192x8192xf16, strided<[8192, 1], offset: ?>> to memref<?xf16, strided<[1], offset: ?>>
        %25 = amdgpu.fat_raw_buffer_cast %reinterpret_cast_10 validBytes(%c2147483645_i32) cacheSwizzleStride(%c-8192_i14) resetOffset : memref<?xf16, strided<[1], offset: ?>> to memref<?xf16, #amdgpu.address_space<fat_raw_buffer>>
        %26 = arith.index_cast %24 : index to i32
        %27 = vector.broadcast %26 : i32 to vector<8xi32>
        %28 = arith.addi %27, %cst_0 : vector<8xi32>
        %29 = arith.index_cast %28 : vector<8xi32> to vector<8xindex>
        %30 = arith.select %21, %29, %cst_1 : vector<8xi1>, vector<8xindex>
        %31 = vector.extract %30[0] : index from vector<8xindex>
        %32 = vector.load %25[%31] : memref<?xf16, #amdgpu.address_space<fat_raw_buffer>>, vector<8xf16>
        %33 = affine.apply #map5()[%thread_id_x, %thread_id_y, %block_id_x, %block_id_y, %3]
        %34 = arith.cmpi slt, %33, %c8192 : index
        %35 = vector.broadcast %34 : i1 to vector<8xi1>
        %36 = arith.muli %33, %c8192 overflow<nsw> : index
        %37 = arith.addi %36, %22 overflow<nsw> : index
        %38 = arith.index_cast %37 : index to i32
        %39 = vector.broadcast %38 : i32 to vector<8xi32>
        %40 = arith.addi %39, %cst_0 : vector<8xi32>
        %41 = arith.index_cast %40 : vector<8xi32> to vector<8xindex>
        %42 = arith.select %35, %41, %cst_1 : vector<8xi1>, vector<8xindex>
        %43 = vector.extract %42[0] : index from vector<8xindex>
        %44 = vector.load %25[%43] : memref<?xf16, #amdgpu.address_space<fat_raw_buffer>>, vector<8xf16>
        %45 = affine.apply #map6()[%thread_id_x, %thread_id_y, %block_id_x, %block_id_y, %3]
        %46 = arith.cmpi slt, %45, %c8192 : index
        %47 = vector.broadcast %46 : i1 to vector<8xi1>
        %48 = arith.muli %45, %c8192 overflow<nsw> : index
        %49 = arith.addi %48, %22 overflow<nsw> : index
        %50 = arith.index_cast %49 : index to i32
        %51 = vector.broadcast %50 : i32 to vector<8xi32>
        %52 = arith.addi %51, %cst_0 : vector<8xi32>
        %53 = arith.index_cast %52 : vector<8xi32> to vector<8xindex>
        %54 = arith.select %47, %53, %cst_1 : vector<8xi1>, vector<8xindex>
        %55 = vector.extract %54[0] : index from vector<8xindex>
        %56 = vector.load %25[%55] : memref<?xf16, #amdgpu.address_space<fat_raw_buffer>>, vector<8xf16>
        %57 = affine.apply #map7()[%thread_id_x]
        %58 = arith.minsi %57, %c172 : index
        %59 = affine.apply #map8()[%thread_id_x, %thread_id_y]
        %60 = arith.cmpi slt, %59, %58 : index
        %61 = vector.broadcast %60 : i1 to vector<6xi1>
        vector.maskedstore %view_5[%59, %7], %61, %17 : memref<172x20xf16, #gpu.address_space<workgroup>>, vector<6xi1>, vector<6xf16>
        %62 = affine.apply #map9()[%thread_id_y]
        %63 = arith.minsi %62, %c528 : index
        %64 = affine.apply #map10()[%thread_id_x, %thread_id_y]
        %65 = arith.cmpi slt, %64, %63 : index
        %66 = vector.broadcast %65 : i1 to vector<8xi1>
        vector.maskedstore %view[%64, %22], %66, %32 : memref<528x20xf16, #gpu.address_space<workgroup>>, vector<8xi1>, vector<8xf16>
        %67 = affine.apply #map11()[%thread_id_x, %thread_id_y]
        %68 = arith.cmpi slt, %67, %63 : index
        %69 = vector.broadcast %68 : i1 to vector<8xi1>
        vector.maskedstore %view[%67, %22], %69, %44 : memref<528x20xf16, #gpu.address_space<workgroup>>, vector<8xi1>, vector<8xf16>
        %70 = affine.apply #map12()[%thread_id_x, %thread_id_y]
        %71 = arith.cmpi slt, %70, %63 : index
        %72 = vector.broadcast %71 : i1 to vector<8xi1>
        vector.maskedstore %view[%70, %22], %72, %56 : memref<528x20xf16, #gpu.address_space<workgroup>>, vector<8xi1>, vector<8xf16>
        %73 = affine.apply #map13()[%thread_id_x, %thread_id_y]
        %74 = arith.cmpi slt, %73, %63 : index
        %75 = vector.broadcast %74 : i1 to vector<4xi1>
        %76 = affine.apply #map14()[%thread_id_x]
        %77 = affine.apply #map15()[%thread_id_x, %thread_id_y]
        %78 = arith.cmpi slt, %77, %63 : index
        %79 = vector.broadcast %78 : i1 to vector<4xi1>
        %80 = affine.apply #map16()[%thread_id_x, %thread_id_y]
        %81 = arith.cmpi slt, %80, %63 : index
        %82 = vector.broadcast %81 : i1 to vector<4xi1>
        %83 = affine.apply #map17()[%thread_id_x, %thread_id_y]
        %84 = arith.cmpi slt, %83, %63 : index
        %85 = vector.broadcast %84 : i1 to vector<4xi1>
        %86 = affine.apply #map18()[%thread_id_x, %thread_id_y]
        %87 = arith.cmpi slt, %86, %63 : index
        %88 = vector.broadcast %87 : i1 to vector<4xi1>
        %89 = affine.apply #map19()[%thread_id_x, %thread_id_y]
        %90 = arith.cmpi slt, %89, %63 : index
        %91 = vector.broadcast %90 : i1 to vector<4xi1>
        %92 = affine.apply #map20()[%thread_id_x, %thread_id_y]
        %93 = arith.cmpi slt, %92, %63 : index
        %94 = vector.broadcast %93 : i1 to vector<4xi1>
        %95 = affine.apply #map21()[%thread_id_x, %thread_id_y]
        %96 = arith.cmpi slt, %95, %63 : index
        %97 = vector.broadcast %96 : i1 to vector<4xi1>
        %98 = affine.apply #map22()[%thread_id_x, %thread_id_y]
        %99 = arith.cmpi slt, %98, %63 : index
        %100 = vector.broadcast %99 : i1 to vector<4xi1>
        %101 = affine.apply #map23()[%thread_id_x, %thread_id_y]
        %102 = arith.cmpi slt, %101, %63 : index
        %103 = vector.broadcast %102 : i1 to vector<4xi1>
        %104 = affine.apply #map24()[%thread_id_x, %thread_id_y]
        %105 = arith.cmpi slt, %104, %63 : index
        %106 = vector.broadcast %105 : i1 to vector<4xi1>
        %107 = affine.apply #map25()[%thread_id_x, %thread_id_y]
        %108 = arith.cmpi slt, %107, %63 : index
        %109 = vector.broadcast %108 : i1 to vector<4xi1>
        %110 = affine.apply #map26()[%thread_id_x, %thread_id_y]
        %111 = arith.cmpi slt, %110, %63 : index
        %112 = vector.broadcast %111 : i1 to vector<4xi1>
        %113 = affine.apply #map27()[%thread_id_x, %thread_id_y]
        %114 = arith.cmpi slt, %113, %63 : index
        %115 = vector.broadcast %114 : i1 to vector<4xi1>
        %116 = affine.apply #map28()[%thread_id_x, %thread_id_y]
        %117 = arith.cmpi slt, %116, %63 : index
        %118 = vector.broadcast %117 : i1 to vector<4xi1>
        %119 = affine.apply #map29()[%thread_id_x, %thread_id_y]
        %120 = arith.cmpi slt, %119, %63 : index
        %121 = vector.broadcast %120 : i1 to vector<4xi1>
        %122 = affine.apply #map30()[%thread_id_x, %thread_id_y]
        %123 = arith.cmpi slt, %122, %63 : index
        %124 = vector.broadcast %123 : i1 to vector<4xi1>
        %125 = affine.apply #map31()[%thread_id_x]
        %126 = arith.cmpi slt, %125, %58 : index
        %127 = vector.broadcast %126 : i1 to vector<4xi1>
        %128 = affine.apply #map32()[%thread_id_x]
        %129 = arith.cmpi slt, %128, %58 : index
        %130 = vector.broadcast %129 : i1 to vector<4xi1>
        %131 = affine.apply #map33()[%thread_id_x]
        %132 = arith.cmpi slt, %131, %58 : index
        %133 = vector.broadcast %132 : i1 to vector<4xi1>
        %134:51 = scf.for %arg3 = %c0 to %c511 step %c1 iter_args(%arg4 = %cst_4, %arg5 = %cst_4, %arg6 = %cst_4, %arg7 = %cst_4, %arg8 = %cst_4, %arg9 = %cst_4, %arg10 = %cst_4, %arg11 = %cst_4, %arg12 = %cst_4, %arg13 = %cst_4, %arg14 = %cst_4, %arg15 = %cst_4, %arg16 = %cst_4, %arg17 = %cst_4, %arg18 = %cst_4, %arg19 = %cst_4, %arg20 = %cst_4, %arg21 = %cst_4, %arg22 = %cst_4, %arg23 = %cst_4, %arg24 = %cst_4, %arg25 = %cst_4, %arg26 = %cst_4, %arg27 = %cst_4, %arg28 = %cst_4, %arg29 = %cst_4, %arg30 = %cst_4, %arg31 = %cst_4, %arg32 = %cst_4, %arg33 = %cst_4, %arg34 = %cst_4, %arg35 = %cst_4, %arg36 = %cst_4, %arg37 = %cst_4, %arg38 = %cst_4, %arg39 = %cst_4, %arg40 = %cst_4, %arg41 = %cst_4, %arg42 = %cst_4, %arg43 = %cst_4, %arg44 = %cst_4, %arg45 = %cst_4, %arg46 = %cst_4, %arg47 = %cst_4, %arg48 = %cst_4, %arg49 = %cst_4, %arg50 = %cst_4, %arg51 = %cst_4, %arg52 = %cst_4, %arg53 = %cst_4, %arg54 = %cst_4) -> (vector<4xf32>, vector<4xf32>, vector<4xf32>, vector<4xf32>, vector<4xf32>, vector<4xf32>, vector<4xf32>, vector<4xf32>, vector<4xf32>, vector<4xf32>, vector<4xf32>, vector<4xf32>, vector<4xf32>, vector<4xf32>, vector<4xf32>, vector<4xf32>, vector<4xf32>, vector<4xf32>, vector<4xf32>, vector<4xf32>, vector<4xf32>, vector<4xf32>, vector<4xf32>, vector<4xf32>, vector<4xf32>, vector<4xf32>, vector<4xf32>, vector<4xf32>, vector<4xf32>, vector<4xf32>, vector<4xf32>, vector<4xf32>, vector<4xf32>, vector<4xf32>, vector<4xf32>, vector<4xf32>, vector<4xf32>, vector<4xf32>, vector<4xf32>, vector<4xf32>, vector<4xf32>, vector<4xf32>, vector<4xf32>, vector<4xf32>, vector<4xf32>, vector<4xf32>, vector<4xf32>, vector<4xf32>, vector<4xf32>, vector<4xf32>, vector<4xf32>) {
          amdgpu.lds_barrier
          %1178 = vector.maskedload %view[%73, %76], %75, %cst : memref<528x20xf16, #gpu.address_space<workgroup>>, vector<4xi1>, vector<4xf16> into vector<4xf16>
          %1179 = vector.maskedload %view[%77, %76], %79, %cst : memref<528x20xf16, #gpu.address_space<workgroup>>, vector<4xi1>, vector<4xf16> into vector<4xf16>
          %1180 = vector.maskedload %view[%80, %76], %82, %cst : memref<528x20xf16, #gpu.address_space<workgroup>>, vector<4xi1>, vector<4xf16> into vector<4xf16>
          %1181 = vector.maskedload %view[%83, %76], %85, %cst : memref<528x20xf16, #gpu.address_space<workgroup>>, vector<4xi1>, vector<4xf16> into vector<4xf16>
          %1182 = vector.maskedload %view[%86, %76], %88, %cst : memref<528x20xf16, #gpu.address_space<workgroup>>, vector<4xi1>, vector<4xf16> into vector<4xf16>
          %1183 = vector.maskedload %view[%89, %76], %91, %cst : memref<528x20xf16, #gpu.address_space<workgroup>>, vector<4xi1>, vector<4xf16> into vector<4xf16>
          %1184 = vector.maskedload %view[%92, %76], %94, %cst : memref<528x20xf16, #gpu.address_space<workgroup>>, vector<4xi1>, vector<4xf16> into vector<4xf16>
          %1185 = vector.maskedload %view[%95, %76], %97, %cst : memref<528x20xf16, #gpu.address_space<workgroup>>, vector<4xi1>, vector<4xf16> into vector<4xf16>
          %1186 = vector.maskedload %view[%98, %76], %100, %cst : memref<528x20xf16, #gpu.address_space<workgroup>>, vector<4xi1>, vector<4xf16> into vector<4xf16>
          %1187 = vector.maskedload %view[%101, %76], %103, %cst : memref<528x20xf16, #gpu.address_space<workgroup>>, vector<4xi1>, vector<4xf16> into vector<4xf16>
          %1188 = vector.maskedload %view[%104, %76], %106, %cst : memref<528x20xf16, #gpu.address_space<workgroup>>, vector<4xi1>, vector<4xf16> into vector<4xf16>
          %1189 = vector.maskedload %view[%107, %76], %109, %cst : memref<528x20xf16, #gpu.address_space<workgroup>>, vector<4xi1>, vector<4xf16> into vector<4xf16>
          %1190 = vector.maskedload %view[%110, %76], %112, %cst : memref<528x20xf16, #gpu.address_space<workgroup>>, vector<4xi1>, vector<4xf16> into vector<4xf16>
          %1191 = vector.maskedload %view[%113, %76], %115, %cst : memref<528x20xf16, #gpu.address_space<workgroup>>, vector<4xi1>, vector<4xf16> into vector<4xf16>
          %1192 = vector.maskedload %view[%116, %76], %118, %cst : memref<528x20xf16, #gpu.address_space<workgroup>>, vector<4xi1>, vector<4xf16> into vector<4xf16>
          %1193 = vector.maskedload %view[%119, %76], %121, %cst : memref<528x20xf16, #gpu.address_space<workgroup>>, vector<4xi1>, vector<4xf16> into vector<4xf16>
          %1194 = vector.maskedload %view[%122, %76], %124, %cst : memref<528x20xf16, #gpu.address_space<workgroup>>, vector<4xi1>, vector<4xf16> into vector<4xf16>
          %1195 = vector.maskedload %view_5[%125, %76], %127, %cst : memref<172x20xf16, #gpu.address_space<workgroup>>, vector<4xi1>, vector<4xf16> into vector<4xf16>
          %1196 = vector.maskedload %view_5[%128, %76], %130, %cst : memref<172x20xf16, #gpu.address_space<workgroup>>, vector<4xi1>, vector<4xf16> into vector<4xf16>
          %1197 = vector.maskedload %view_5[%131, %76], %133, %cst : memref<172x20xf16, #gpu.address_space<workgroup>>, vector<4xi1>, vector<4xf16> into vector<4xf16>
          %1198 = affine.apply #map34()[%arg3, %thread_id_x]
          %1199 = arith.addi %8, %1198 overflow<nsw> : index
          %1200 = arith.index_cast %1199 : index to i32
          %1201 = vector.broadcast %1200 : i32 to vector<6xi32>
          %1202 = arith.addi %1201, %cst_2 : vector<6xi32>
          %1203 = arith.index_cast %1202 : vector<6xi32> to vector<6xindex>
          %1204 = arith.select %6, %1203, %cst_3 : vector<6xi1>, vector<6xindex>
          %1205 = vector.extract %1204[0] : index from vector<6xindex>
          %1206 = vector.load %10[%1205] : memref<?xf16, #amdgpu.address_space<fat_raw_buffer>>, vector<6xf16>
          %1207 = affine.apply #map35()[%arg3, %thread_id_x]
          %1208 = arith.addi %23, %1207 overflow<nsw> : index
          %1209 = arith.index_cast %1208 : index to i32
          %1210 = vector.broadcast %1209 : i32 to vector<8xi32>
          %1211 = arith.addi %1210, %cst_0 : vector<8xi32>
          %1212 = arith.index_cast %1211 : vector<8xi32> to vector<8xindex>
          %1213 = arith.select %21, %1212, %cst_1 : vector<8xi1>, vector<8xindex>
          %1214 = vector.extract %1213[0] : index from vector<8xindex>
          %1215 = vector.load %25[%1214] : memref<?xf16, #amdgpu.address_space<fat_raw_buffer>>, vector<8xf16>
          %1216 = arith.addi %36, %1207 overflow<nsw> : index
          %1217 = arith.index_cast %1216 : index to i32
          %1218 = vector.broadcast %1217 : i32 to vector<8xi32>
          %1219 = arith.addi %1218, %cst_0 : vector<8xi32>
          %1220 = arith.index_cast %1219 : vector<8xi32> to vector<8xindex>
          %1221 = arith.select %35, %1220, %cst_1 : vector<8xi1>, vector<8xindex>
          %1222 = vector.extract %1221[0] : index from vector<8xindex>
          %1223 = vector.load %25[%1222] : memref<?xf16, #amdgpu.address_space<fat_raw_buffer>>, vector<8xf16>
          %1224 = arith.addi %48, %1207 overflow<nsw> : index
          %1225 = arith.index_cast %1224 : index to i32
          %1226 = vector.broadcast %1225 : i32 to vector<8xi32>
          %1227 = arith.addi %1226, %cst_0 : vector<8xi32>
          %1228 = arith.index_cast %1227 : vector<8xi32> to vector<8xindex>
          %1229 = arith.select %47, %1228, %cst_1 : vector<8xi1>, vector<8xindex>
          %1230 = vector.extract %1229[0] : index from vector<8xindex>
          %1231 = vector.load %25[%1230] : memref<?xf16, #amdgpu.address_space<fat_raw_buffer>>, vector<8xf16>
          %1232 = amdgpu.mfma %1195 * %1178 + %arg4 {blocks = 1 : i32, k = 16 : i32, m = 16 : i32, n = 16 : i32} blgp =  none : vector<4xf16>, vector<4xf16>, vector<4xf32>
          %1233 = amdgpu.mfma %1195 * %1179 + %arg5 {blocks = 1 : i32, k = 16 : i32, m = 16 : i32, n = 16 : i32} blgp =  none : vector<4xf16>, vector<4xf16>, vector<4xf32>
          %1234 = amdgpu.mfma %1195 * %1180 + %arg6 {blocks = 1 : i32, k = 16 : i32, m = 16 : i32, n = 16 : i32} blgp =  none : vector<4xf16>, vector<4xf16>, vector<4xf32>
          %1235 = amdgpu.mfma %1195 * %1181 + %arg7 {blocks = 1 : i32, k = 16 : i32, m = 16 : i32, n = 16 : i32} blgp =  none : vector<4xf16>, vector<4xf16>, vector<4xf32>
          %1236 = amdgpu.mfma %1195 * %1182 + %arg8 {blocks = 1 : i32, k = 16 : i32, m = 16 : i32, n = 16 : i32} blgp =  none : vector<4xf16>, vector<4xf16>, vector<4xf32>
          %1237 = amdgpu.mfma %1195 * %1183 + %arg9 {blocks = 1 : i32, k = 16 : i32, m = 16 : i32, n = 16 : i32} blgp =  none : vector<4xf16>, vector<4xf16>, vector<4xf32>
          %1238 = amdgpu.mfma %1195 * %1184 + %arg10 {blocks = 1 : i32, k = 16 : i32, m = 16 : i32, n = 16 : i32} blgp =  none : vector<4xf16>, vector<4xf16>, vector<4xf32>
          %1239 = amdgpu.mfma %1195 * %1185 + %arg11 {blocks = 1 : i32, k = 16 : i32, m = 16 : i32, n = 16 : i32} blgp =  none : vector<4xf16>, vector<4xf16>, vector<4xf32>
          %1240 = amdgpu.mfma %1195 * %1186 + %arg12 {blocks = 1 : i32, k = 16 : i32, m = 16 : i32, n = 16 : i32} blgp =  none : vector<4xf16>, vector<4xf16>, vector<4xf32>
          %1241 = amdgpu.mfma %1195 * %1187 + %arg13 {blocks = 1 : i32, k = 16 : i32, m = 16 : i32, n = 16 : i32} blgp =  none : vector<4xf16>, vector<4xf16>, vector<4xf32>
          %1242 = amdgpu.mfma %1195 * %1188 + %arg14 {blocks = 1 : i32, k = 16 : i32, m = 16 : i32, n = 16 : i32} blgp =  none : vector<4xf16>, vector<4xf16>, vector<4xf32>
          %1243 = amdgpu.mfma %1195 * %1189 + %arg15 {blocks = 1 : i32, k = 16 : i32, m = 16 : i32, n = 16 : i32} blgp =  none : vector<4xf16>, vector<4xf16>, vector<4xf32>
          %1244 = amdgpu.mfma %1195 * %1190 + %arg16 {blocks = 1 : i32, k = 16 : i32, m = 16 : i32, n = 16 : i32} blgp =  none : vector<4xf16>, vector<4xf16>, vector<4xf32>
          %1245 = amdgpu.mfma %1195 * %1191 + %arg17 {blocks = 1 : i32, k = 16 : i32, m = 16 : i32, n = 16 : i32} blgp =  none : vector<4xf16>, vector<4xf16>, vector<4xf32>
          %1246 = amdgpu.mfma %1195 * %1192 + %arg18 {blocks = 1 : i32, k = 16 : i32, m = 16 : i32, n = 16 : i32} blgp =  none : vector<4xf16>, vector<4xf16>, vector<4xf32>
          %1247 = amdgpu.mfma %1195 * %1193 + %arg19 {blocks = 1 : i32, k = 16 : i32, m = 16 : i32, n = 16 : i32} blgp =  none : vector<4xf16>, vector<4xf16>, vector<4xf32>
          %1248 = amdgpu.mfma %1195 * %1194 + %arg20 {blocks = 1 : i32, k = 16 : i32, m = 16 : i32, n = 16 : i32} blgp =  none : vector<4xf16>, vector<4xf16>, vector<4xf32>
          %1249 = amdgpu.mfma %1196 * %1178 + %arg21 {blocks = 1 : i32, k = 16 : i32, m = 16 : i32, n = 16 : i32} blgp =  none : vector<4xf16>, vector<4xf16>, vector<4xf32>
          %1250 = amdgpu.mfma %1196 * %1179 + %arg22 {blocks = 1 : i32, k = 16 : i32, m = 16 : i32, n = 16 : i32} blgp =  none : vector<4xf16>, vector<4xf16>, vector<4xf32>
          %1251 = amdgpu.mfma %1196 * %1180 + %arg23 {blocks = 1 : i32, k = 16 : i32, m = 16 : i32, n = 16 : i32} blgp =  none : vector<4xf16>, vector<4xf16>, vector<4xf32>
          %1252 = amdgpu.mfma %1196 * %1181 + %arg24 {blocks = 1 : i32, k = 16 : i32, m = 16 : i32, n = 16 : i32} blgp =  none : vector<4xf16>, vector<4xf16>, vector<4xf32>
          %1253 = amdgpu.mfma %1196 * %1182 + %arg25 {blocks = 1 : i32, k = 16 : i32, m = 16 : i32, n = 16 : i32} blgp =  none : vector<4xf16>, vector<4xf16>, vector<4xf32>
          %1254 = amdgpu.mfma %1196 * %1183 + %arg26 {blocks = 1 : i32, k = 16 : i32, m = 16 : i32, n = 16 : i32} blgp =  none : vector<4xf16>, vector<4xf16>, vector<4xf32>
          %1255 = amdgpu.mfma %1196 * %1184 + %arg27 {blocks = 1 : i32, k = 16 : i32, m = 16 : i32, n = 16 : i32} blgp =  none : vector<4xf16>, vector<4xf16>, vector<4xf32>
          %1256 = amdgpu.mfma %1196 * %1185 + %arg28 {blocks = 1 : i32, k = 16 : i32, m = 16 : i32, n = 16 : i32} blgp =  none : vector<4xf16>, vector<4xf16>, vector<4xf32>
          %1257 = amdgpu.mfma %1196 * %1186 + %arg29 {blocks = 1 : i32, k = 16 : i32, m = 16 : i32, n = 16 : i32} blgp =  none : vector<4xf16>, vector<4xf16>, vector<4xf32>
          %1258 = amdgpu.mfma %1196 * %1187 + %arg30 {blocks = 1 : i32, k = 16 : i32, m = 16 : i32, n = 16 : i32} blgp =  none : vector<4xf16>, vector<4xf16>, vector<4xf32>
          %1259 = amdgpu.mfma %1196 * %1188 + %arg31 {blocks = 1 : i32, k = 16 : i32, m = 16 : i32, n = 16 : i32} blgp =  none : vector<4xf16>, vector<4xf16>, vector<4xf32>
          %1260 = amdgpu.mfma %1196 * %1189 + %arg32 {blocks = 1 : i32, k = 16 : i32, m = 16 : i32, n = 16 : i32} blgp =  none : vector<4xf16>, vector<4xf16>, vector<4xf32>
          %1261 = amdgpu.mfma %1196 * %1190 + %arg33 {blocks = 1 : i32, k = 16 : i32, m = 16 : i32, n = 16 : i32} blgp =  none : vector<4xf16>, vector<4xf16>, vector<4xf32>
          %1262 = amdgpu.mfma %1196 * %1191 + %arg34 {blocks = 1 : i32, k = 16 : i32, m = 16 : i32, n = 16 : i32} blgp =  none : vector<4xf16>, vector<4xf16>, vector<4xf32>
          %1263 = amdgpu.mfma %1196 * %1192 + %arg35 {blocks = 1 : i32, k = 16 : i32, m = 16 : i32, n = 16 : i32} blgp =  none : vector<4xf16>, vector<4xf16>, vector<4xf32>
          %1264 = amdgpu.mfma %1196 * %1193 + %arg36 {blocks = 1 : i32, k = 16 : i32, m = 16 : i32, n = 16 : i32} blgp =  none : vector<4xf16>, vector<4xf16>, vector<4xf32>
          %1265 = amdgpu.mfma %1196 * %1194 + %arg37 {blocks = 1 : i32, k = 16 : i32, m = 16 : i32, n = 16 : i32} blgp =  none : vector<4xf16>, vector<4xf16>, vector<4xf32>
          %1266 = amdgpu.mfma %1197 * %1178 + %arg38 {blocks = 1 : i32, k = 16 : i32, m = 16 : i32, n = 16 : i32} blgp =  none : vector<4xf16>, vector<4xf16>, vector<4xf32>
          %1267 = amdgpu.mfma %1197 * %1179 + %arg39 {blocks = 1 : i32, k = 16 : i32, m = 16 : i32, n = 16 : i32} blgp =  none : vector<4xf16>, vector<4xf16>, vector<4xf32>
          %1268 = amdgpu.mfma %1197 * %1180 + %arg40 {blocks = 1 : i32, k = 16 : i32, m = 16 : i32, n = 16 : i32} blgp =  none : vector<4xf16>, vector<4xf16>, vector<4xf32>
          %1269 = amdgpu.mfma %1197 * %1181 + %arg41 {blocks = 1 : i32, k = 16 : i32, m = 16 : i32, n = 16 : i32} blgp =  none : vector<4xf16>, vector<4xf16>, vector<4xf32>
          %1270 = amdgpu.mfma %1197 * %1182 + %arg42 {blocks = 1 : i32, k = 16 : i32, m = 16 : i32, n = 16 : i32} blgp =  none : vector<4xf16>, vector<4xf16>, vector<4xf32>
          %1271 = amdgpu.mfma %1197 * %1183 + %arg43 {blocks = 1 : i32, k = 16 : i32, m = 16 : i32, n = 16 : i32} blgp =  none : vector<4xf16>, vector<4xf16>, vector<4xf32>
          %1272 = amdgpu.mfma %1197 * %1184 + %arg44 {blocks = 1 : i32, k = 16 : i32, m = 16 : i32, n = 16 : i32} blgp =  none : vector<4xf16>, vector<4xf16>, vector<4xf32>
          %1273 = amdgpu.mfma %1197 * %1185 + %arg45 {blocks = 1 : i32, k = 16 : i32, m = 16 : i32, n = 16 : i32} blgp =  none : vector<4xf16>, vector<4xf16>, vector<4xf32>
          %1274 = amdgpu.mfma %1197 * %1186 + %arg46 {blocks = 1 : i32, k = 16 : i32, m = 16 : i32, n = 16 : i32} blgp =  none : vector<4xf16>, vector<4xf16>, vector<4xf32>
          %1275 = amdgpu.mfma %1197 * %1187 + %arg47 {blocks = 1 : i32, k = 16 : i32, m = 16 : i32, n = 16 : i32} blgp =  none : vector<4xf16>, vector<4xf16>, vector<4xf32>
          %1276 = amdgpu.mfma %1197 * %1188 + %arg48 {blocks = 1 : i32, k = 16 : i32, m = 16 : i32, n = 16 : i32} blgp =  none : vector<4xf16>, vector<4xf16>, vector<4xf32>
          %1277 = amdgpu.mfma %1197 * %1189 + %arg49 {blocks = 1 : i32, k = 16 : i32, m = 16 : i32, n = 16 : i32} blgp =  none : vector<4xf16>, vector<4xf16>, vector<4xf32>
          %1278 = amdgpu.mfma %1197 * %1190 + %arg50 {blocks = 1 : i32, k = 16 : i32, m = 16 : i32, n = 16 : i32} blgp =  none : vector<4xf16>, vector<4xf16>, vector<4xf32>
          %1279 = amdgpu.mfma %1197 * %1191 + %arg51 {blocks = 1 : i32, k = 16 : i32, m = 16 : i32, n = 16 : i32} blgp =  none : vector<4xf16>, vector<4xf16>, vector<4xf32>
          %1280 = amdgpu.mfma %1197 * %1192 + %arg52 {blocks = 1 : i32, k = 16 : i32, m = 16 : i32, n = 16 : i32} blgp =  none : vector<4xf16>, vector<4xf16>, vector<4xf32>
          %1281 = amdgpu.mfma %1197 * %1193 + %arg53 {blocks = 1 : i32, k = 16 : i32, m = 16 : i32, n = 16 : i32} blgp =  none : vector<4xf16>, vector<4xf16>, vector<4xf32>
          %1282 = amdgpu.mfma %1197 * %1194 + %arg54 {blocks = 1 : i32, k = 16 : i32, m = 16 : i32, n = 16 : i32} blgp =  none : vector<4xf16>, vector<4xf16>, vector<4xf32>
          amdgpu.lds_barrier
          vector.maskedstore %view_5[%59, %7], %61, %1206 : memref<172x20xf16, #gpu.address_space<workgroup>>, vector<6xi1>, vector<6xf16>
          vector.maskedstore %view[%64, %22], %66, %1215 : memref<528x20xf16, #gpu.address_space<workgroup>>, vector<8xi1>, vector<8xf16>
          vector.maskedstore %view[%67, %22], %69, %1223 : memref<528x20xf16, #gpu.address_space<workgroup>>, vector<8xi1>, vector<8xf16>
          vector.maskedstore %view[%70, %22], %72, %1231 : memref<528x20xf16, #gpu.address_space<workgroup>>, vector<8xi1>, vector<8xf16>
          scf.yield %1232, %1233, %1234, %1235, %1236, %1237, %1238, %1239, %1240, %1241, %1242, %1243, %1244, %1245, %1246, %1247, %1248, %1249, %1250, %1251, %1252, %1253, %1254, %1255, %1256, %1257, %1258, %1259, %1260, %1261, %1262, %1263, %1264, %1265, %1266, %1267, %1268, %1269, %1270, %1271, %1272, %1273, %1274, %1275, %1276, %1277, %1278, %1279, %1280, %1281, %1282 : vector<4xf32>, vector<4xf32>, vector<4xf32>, vector<4xf32>, vector<4xf32>, vector<4xf32>, vector<4xf32>, vector<4xf32>, vector<4xf32>, vector<4xf32>, vector<4xf32>, vector<4xf32>, vector<4xf32>, vector<4xf32>, vector<4xf32>, vector<4xf32>, vector<4xf32>, vector<4xf32>, vector<4xf32>, vector<4xf32>, vector<4xf32>, vector<4xf32>, vector<4xf32>, vector<4xf32>, vector<4xf32>, vector<4xf32>, vector<4xf32>, vector<4xf32>, vector<4xf32>, vector<4xf32>, vector<4xf32>, vector<4xf32>, vector<4xf32>, vector<4xf32>, vector<4xf32>, vector<4xf32>, vector<4xf32>, vector<4xf32>, vector<4xf32>, vector<4xf32>, vector<4xf32>, vector<4xf32>, vector<4xf32>, vector<4xf32>, vector<4xf32>, vector<4xf32>, vector<4xf32>, vector<4xf32>, vector<4xf32>, vector<4xf32>, vector<4xf32>
        }
        amdgpu.lds_barrier
        %135 = affine.apply #map13()[%thread_id_x, %thread_id_y]
        %136 = arith.cmpi slt, %135, %63 : index
        %137 = vector.broadcast %136 : i1 to vector<4xi1>
        %138 = affine.apply #map14()[%thread_id_x]
        %139 = vector.maskedload %view[%135, %138], %137, %cst : memref<528x20xf16, #gpu.address_space<workgroup>>, vector<4xi1>, vector<4xf16> into vector<4xf16>
        %140 = affine.apply #map15()[%thread_id_x, %thread_id_y]
        %141 = arith.cmpi slt, %140, %63 : index
        %142 = vector.broadcast %141 : i1 to vector<4xi1>
        %143 = vector.maskedload %view[%140, %138], %142, %cst : memref<528x20xf16, #gpu.address_space<workgroup>>, vector<4xi1>, vector<4xf16> into vector<4xf16>
        %144 = affine.apply #map16()[%thread_id_x, %thread_id_y]
        %145 = arith.cmpi slt, %144, %63 : index
        %146 = vector.broadcast %145 : i1 to vector<4xi1>
        %147 = vector.maskedload %view[%144, %138], %146, %cst : memref<528x20xf16, #gpu.address_space<workgroup>>, vector<4xi1>, vector<4xf16> into vector<4xf16>
        %148 = affine.apply #map17()[%thread_id_x, %thread_id_y]
        %149 = arith.cmpi slt, %148, %63 : index
        %150 = vector.broadcast %149 : i1 to vector<4xi1>
        %151 = vector.maskedload %view[%148, %138], %150, %cst : memref<528x20xf16, #gpu.address_space<workgroup>>, vector<4xi1>, vector<4xf16> into vector<4xf16>
        %152 = affine.apply #map18()[%thread_id_x, %thread_id_y]
        %153 = arith.cmpi slt, %152, %63 : index
        %154 = vector.broadcast %153 : i1 to vector<4xi1>
        %155 = vector.maskedload %view[%152, %138], %154, %cst : memref<528x20xf16, #gpu.address_space<workgroup>>, vector<4xi1>, vector<4xf16> into vector<4xf16>
        %156 = affine.apply #map19()[%thread_id_x, %thread_id_y]
        %157 = arith.cmpi slt, %156, %63 : index
        %158 = vector.broadcast %157 : i1 to vector<4xi1>
        %159 = vector.maskedload %view[%156, %138], %158, %cst : memref<528x20xf16, #gpu.address_space<workgroup>>, vector<4xi1>, vector<4xf16> into vector<4xf16>
        %160 = affine.apply #map20()[%thread_id_x, %thread_id_y]
        %161 = arith.cmpi slt, %160, %63 : index
        %162 = vector.broadcast %161 : i1 to vector<4xi1>
        %163 = vector.maskedload %view[%160, %138], %162, %cst : memref<528x20xf16, #gpu.address_space<workgroup>>, vector<4xi1>, vector<4xf16> into vector<4xf16>
        %164 = affine.apply #map21()[%thread_id_x, %thread_id_y]
        %165 = arith.cmpi slt, %164, %63 : index
        %166 = vector.broadcast %165 : i1 to vector<4xi1>
        %167 = vector.maskedload %view[%164, %138], %166, %cst : memref<528x20xf16, #gpu.address_space<workgroup>>, vector<4xi1>, vector<4xf16> into vector<4xf16>
        %168 = affine.apply #map22()[%thread_id_x, %thread_id_y]
        %169 = arith.cmpi slt, %168, %63 : index
        %170 = vector.broadcast %169 : i1 to vector<4xi1>
        %171 = vector.maskedload %view[%168, %138], %170, %cst : memref<528x20xf16, #gpu.address_space<workgroup>>, vector<4xi1>, vector<4xf16> into vector<4xf16>
        %172 = affine.apply #map23()[%thread_id_x, %thread_id_y]
        %173 = arith.cmpi slt, %172, %63 : index
        %174 = vector.broadcast %173 : i1 to vector<4xi1>
        %175 = vector.maskedload %view[%172, %138], %174, %cst : memref<528x20xf16, #gpu.address_space<workgroup>>, vector<4xi1>, vector<4xf16> into vector<4xf16>
        %176 = affine.apply #map24()[%thread_id_x, %thread_id_y]
        %177 = arith.cmpi slt, %176, %63 : index
        %178 = vector.broadcast %177 : i1 to vector<4xi1>
        %179 = vector.maskedload %view[%176, %138], %178, %cst : memref<528x20xf16, #gpu.address_space<workgroup>>, vector<4xi1>, vector<4xf16> into vector<4xf16>
        %180 = affine.apply #map25()[%thread_id_x, %thread_id_y]
        %181 = arith.cmpi slt, %180, %63 : index
        %182 = vector.broadcast %181 : i1 to vector<4xi1>
        %183 = vector.maskedload %view[%180, %138], %182, %cst : memref<528x20xf16, #gpu.address_space<workgroup>>, vector<4xi1>, vector<4xf16> into vector<4xf16>
        %184 = affine.apply #map26()[%thread_id_x, %thread_id_y]
        %185 = arith.cmpi slt, %184, %63 : index
        %186 = vector.broadcast %185 : i1 to vector<4xi1>
        %187 = vector.maskedload %view[%184, %138], %186, %cst : memref<528x20xf16, #gpu.address_space<workgroup>>, vector<4xi1>, vector<4xf16> into vector<4xf16>
        %188 = affine.apply #map27()[%thread_id_x, %thread_id_y]
        %189 = arith.cmpi slt, %188, %63 : index
        %190 = vector.broadcast %189 : i1 to vector<4xi1>
        %191 = vector.maskedload %view[%188, %138], %190, %cst : memref<528x20xf16, #gpu.address_space<workgroup>>, vector<4xi1>, vector<4xf16> into vector<4xf16>
        %192 = affine.apply #map28()[%thread_id_x, %thread_id_y]
        %193 = arith.cmpi slt, %192, %63 : index
        %194 = vector.broadcast %193 : i1 to vector<4xi1>
        %195 = vector.maskedload %view[%192, %138], %194, %cst : memref<528x20xf16, #gpu.address_space<workgroup>>, vector<4xi1>, vector<4xf16> into vector<4xf16>
        %196 = affine.apply #map29()[%thread_id_x, %thread_id_y]
        %197 = arith.cmpi slt, %196, %63 : index
        %198 = vector.broadcast %197 : i1 to vector<4xi1>
        %199 = vector.maskedload %view[%196, %138], %198, %cst : memref<528x20xf16, #gpu.address_space<workgroup>>, vector<4xi1>, vector<4xf16> into vector<4xf16>
        %200 = affine.apply #map30()[%thread_id_x, %thread_id_y]
        %201 = arith.cmpi slt, %200, %63 : index
        %202 = vector.broadcast %201 : i1 to vector<4xi1>
        %203 = vector.maskedload %view[%200, %138], %202, %cst : memref<528x20xf16, #gpu.address_space<workgroup>>, vector<4xi1>, vector<4xf16> into vector<4xf16>
        %204 = affine.apply #map31()[%thread_id_x]
        %205 = arith.cmpi slt, %204, %58 : index
        %206 = vector.broadcast %205 : i1 to vector<4xi1>
        %207 = vector.maskedload %view_5[%204, %138], %206, %cst : memref<172x20xf16, #gpu.address_space<workgroup>>, vector<4xi1>, vector<4xf16> into vector<4xf16>
        %208 = affine.apply #map32()[%thread_id_x]
        %209 = arith.cmpi slt, %208, %58 : index
        %210 = vector.broadcast %209 : i1 to vector<4xi1>
        %211 = vector.maskedload %view_5[%208, %138], %210, %cst : memref<172x20xf16, #gpu.address_space<workgroup>>, vector<4xi1>, vector<4xf16> into vector<4xf16>
        %212 = affine.apply #map33()[%thread_id_x]
        %213 = arith.cmpi slt, %212, %58 : index
        %214 = vector.broadcast %213 : i1 to vector<4xi1>
        %215 = vector.maskedload %view_5[%212, %138], %214, %cst : memref<172x20xf16, #gpu.address_space<workgroup>>, vector<4xi1>, vector<4xf16> into vector<4xf16>
        %216 = amdgpu.mfma %207 * %139 + %134#0 {blocks = 1 : i32, k = 16 : i32, m = 16 : i32, n = 16 : i32} blgp =  none : vector<4xf16>, vector<4xf16>, vector<4xf32>
        %217 = amdgpu.mfma %207 * %143 + %134#1 {blocks = 1 : i32, k = 16 : i32, m = 16 : i32, n = 16 : i32} blgp =  none : vector<4xf16>, vector<4xf16>, vector<4xf32>
        %218 = amdgpu.mfma %207 * %147 + %134#2 {blocks = 1 : i32, k = 16 : i32, m = 16 : i32, n = 16 : i32} blgp =  none : vector<4xf16>, vector<4xf16>, vector<4xf32>
        %219 = amdgpu.mfma %207 * %151 + %134#3 {blocks = 1 : i32, k = 16 : i32, m = 16 : i32, n = 16 : i32} blgp =  none : vector<4xf16>, vector<4xf16>, vector<4xf32>
        %220 = amdgpu.mfma %207 * %155 + %134#4 {blocks = 1 : i32, k = 16 : i32, m = 16 : i32, n = 16 : i32} blgp =  none : vector<4xf16>, vector<4xf16>, vector<4xf32>
        %221 = amdgpu.mfma %207 * %159 + %134#5 {blocks = 1 : i32, k = 16 : i32, m = 16 : i32, n = 16 : i32} blgp =  none : vector<4xf16>, vector<4xf16>, vector<4xf32>
        %222 = amdgpu.mfma %207 * %163 + %134#6 {blocks = 1 : i32, k = 16 : i32, m = 16 : i32, n = 16 : i32} blgp =  none : vector<4xf16>, vector<4xf16>, vector<4xf32>
        %223 = amdgpu.mfma %207 * %167 + %134#7 {blocks = 1 : i32, k = 16 : i32, m = 16 : i32, n = 16 : i32} blgp =  none : vector<4xf16>, vector<4xf16>, vector<4xf32>
        %224 = amdgpu.mfma %207 * %171 + %134#8 {blocks = 1 : i32, k = 16 : i32, m = 16 : i32, n = 16 : i32} blgp =  none : vector<4xf16>, vector<4xf16>, vector<4xf32>
        %225 = amdgpu.mfma %207 * %175 + %134#9 {blocks = 1 : i32, k = 16 : i32, m = 16 : i32, n = 16 : i32} blgp =  none : vector<4xf16>, vector<4xf16>, vector<4xf32>
        %226 = amdgpu.mfma %207 * %179 + %134#10 {blocks = 1 : i32, k = 16 : i32, m = 16 : i32, n = 16 : i32} blgp =  none : vector<4xf16>, vector<4xf16>, vector<4xf32>
        %227 = amdgpu.mfma %207 * %183 + %134#11 {blocks = 1 : i32, k = 16 : i32, m = 16 : i32, n = 16 : i32} blgp =  none : vector<4xf16>, vector<4xf16>, vector<4xf32>
        %228 = amdgpu.mfma %207 * %187 + %134#12 {blocks = 1 : i32, k = 16 : i32, m = 16 : i32, n = 16 : i32} blgp =  none : vector<4xf16>, vector<4xf16>, vector<4xf32>
        %229 = amdgpu.mfma %207 * %191 + %134#13 {blocks = 1 : i32, k = 16 : i32, m = 16 : i32, n = 16 : i32} blgp =  none : vector<4xf16>, vector<4xf16>, vector<4xf32>
        %230 = amdgpu.mfma %207 * %195 + %134#14 {blocks = 1 : i32, k = 16 : i32, m = 16 : i32, n = 16 : i32} blgp =  none : vector<4xf16>, vector<4xf16>, vector<4xf32>
        %231 = amdgpu.mfma %207 * %199 + %134#15 {blocks = 1 : i32, k = 16 : i32, m = 16 : i32, n = 16 : i32} blgp =  none : vector<4xf16>, vector<4xf16>, vector<4xf32>
        %232 = amdgpu.mfma %207 * %203 + %134#16 {blocks = 1 : i32, k = 16 : i32, m = 16 : i32, n = 16 : i32} blgp =  none : vector<4xf16>, vector<4xf16>, vector<4xf32>
        %233 = amdgpu.mfma %211 * %139 + %134#17 {blocks = 1 : i32, k = 16 : i32, m = 16 : i32, n = 16 : i32} blgp =  none : vector<4xf16>, vector<4xf16>, vector<4xf32>
        %234 = amdgpu.mfma %211 * %143 + %134#18 {blocks = 1 : i32, k = 16 : i32, m = 16 : i32, n = 16 : i32} blgp =  none : vector<4xf16>, vector<4xf16>, vector<4xf32>
        %235 = amdgpu.mfma %211 * %147 + %134#19 {blocks = 1 : i32, k = 16 : i32, m = 16 : i32, n = 16 : i32} blgp =  none : vector<4xf16>, vector<4xf16>, vector<4xf32>
        %236 = amdgpu.mfma %211 * %151 + %134#20 {blocks = 1 : i32, k = 16 : i32, m = 16 : i32, n = 16 : i32} blgp =  none : vector<4xf16>, vector<4xf16>, vector<4xf32>
        %237 = amdgpu.mfma %211 * %155 + %134#21 {blocks = 1 : i32, k = 16 : i32, m = 16 : i32, n = 16 : i32} blgp =  none : vector<4xf16>, vector<4xf16>, vector<4xf32>
        %238 = amdgpu.mfma %211 * %159 + %134#22 {blocks = 1 : i32, k = 16 : i32, m = 16 : i32, n = 16 : i32} blgp =  none : vector<4xf16>, vector<4xf16>, vector<4xf32>
        %239 = amdgpu.mfma %211 * %163 + %134#23 {blocks = 1 : i32, k = 16 : i32, m = 16 : i32, n = 16 : i32} blgp =  none : vector<4xf16>, vector<4xf16>, vector<4xf32>
        %240 = amdgpu.mfma %211 * %167 + %134#24 {blocks = 1 : i32, k = 16 : i32, m = 16 : i32, n = 16 : i32} blgp =  none : vector<4xf16>, vector<4xf16>, vector<4xf32>
        %241 = amdgpu.mfma %211 * %171 + %134#25 {blocks = 1 : i32, k = 16 : i32, m = 16 : i32, n = 16 : i32} blgp =  none : vector<4xf16>, vector<4xf16>, vector<4xf32>
        %242 = amdgpu.mfma %211 * %175 + %134#26 {blocks = 1 : i32, k = 16 : i32, m = 16 : i32, n = 16 : i32} blgp =  none : vector<4xf16>, vector<4xf16>, vector<4xf32>
        %243 = amdgpu.mfma %211 * %179 + %134#27 {blocks = 1 : i32, k = 16 : i32, m = 16 : i32, n = 16 : i32} blgp =  none : vector<4xf16>, vector<4xf16>, vector<4xf32>
        %244 = amdgpu.mfma %211 * %183 + %134#28 {blocks = 1 : i32, k = 16 : i32, m = 16 : i32, n = 16 : i32} blgp =  none : vector<4xf16>, vector<4xf16>, vector<4xf32>
        %245 = amdgpu.mfma %211 * %187 + %134#29 {blocks = 1 : i32, k = 16 : i32, m = 16 : i32, n = 16 : i32} blgp =  none : vector<4xf16>, vector<4xf16>, vector<4xf32>
        %246 = amdgpu.mfma %211 * %191 + %134#30 {blocks = 1 : i32, k = 16 : i32, m = 16 : i32, n = 16 : i32} blgp =  none : vector<4xf16>, vector<4xf16>, vector<4xf32>
        %247 = amdgpu.mfma %211 * %195 + %134#31 {blocks = 1 : i32, k = 16 : i32, m = 16 : i32, n = 16 : i32} blgp =  none : vector<4xf16>, vector<4xf16>, vector<4xf32>
        %248 = amdgpu.mfma %211 * %199 + %134#32 {blocks = 1 : i32, k = 16 : i32, m = 16 : i32, n = 16 : i32} blgp =  none : vector<4xf16>, vector<4xf16>, vector<4xf32>
        %249 = amdgpu.mfma %211 * %203 + %134#33 {blocks = 1 : i32, k = 16 : i32, m = 16 : i32, n = 16 : i32} blgp =  none : vector<4xf16>, vector<4xf16>, vector<4xf32>
        %250 = amdgpu.mfma %215 * %139 + %134#34 {blocks = 1 : i32, k = 16 : i32, m = 16 : i32, n = 16 : i32} blgp =  none : vector<4xf16>, vector<4xf16>, vector<4xf32>
        %251 = amdgpu.mfma %215 * %143 + %134#35 {blocks = 1 : i32, k = 16 : i32, m = 16 : i32, n = 16 : i32} blgp =  none : vector<4xf16>, vector<4xf16>, vector<4xf32>
        %252 = amdgpu.mfma %215 * %147 + %134#36 {blocks = 1 : i32, k = 16 : i32, m = 16 : i32, n = 16 : i32} blgp =  none : vector<4xf16>, vector<4xf16>, vector<4xf32>
        %253 = amdgpu.mfma %215 * %151 + %134#37 {blocks = 1 : i32, k = 16 : i32, m = 16 : i32, n = 16 : i32} blgp =  none : vector<4xf16>, vector<4xf16>, vector<4xf32>
        %254 = amdgpu.mfma %215 * %155 + %134#38 {blocks = 1 : i32, k = 16 : i32, m = 16 : i32, n = 16 : i32} blgp =  none : vector<4xf16>, vector<4xf16>, vector<4xf32>
        %255 = amdgpu.mfma %215 * %159 + %134#39 {blocks = 1 : i32, k = 16 : i32, m = 16 : i32, n = 16 : i32} blgp =  none : vector<4xf16>, vector<4xf16>, vector<4xf32>
        %256 = amdgpu.mfma %215 * %163 + %134#40 {blocks = 1 : i32, k = 16 : i32, m = 16 : i32, n = 16 : i32} blgp =  none : vector<4xf16>, vector<4xf16>, vector<4xf32>
        %257 = amdgpu.mfma %215 * %167 + %134#41 {blocks = 1 : i32, k = 16 : i32, m = 16 : i32, n = 16 : i32} blgp =  none : vector<4xf16>, vector<4xf16>, vector<4xf32>
        %258 = amdgpu.mfma %215 * %171 + %134#42 {blocks = 1 : i32, k = 16 : i32, m = 16 : i32, n = 16 : i32} blgp =  none : vector<4xf16>, vector<4xf16>, vector<4xf32>
        %259 = amdgpu.mfma %215 * %175 + %134#43 {blocks = 1 : i32, k = 16 : i32, m = 16 : i32, n = 16 : i32} blgp =  none : vector<4xf16>, vector<4xf16>, vector<4xf32>
        %260 = amdgpu.mfma %215 * %179 + %134#44 {blocks = 1 : i32, k = 16 : i32, m = 16 : i32, n = 16 : i32} blgp =  none : vector<4xf16>, vector<4xf16>, vector<4xf32>
        %261 = amdgpu.mfma %215 * %183 + %134#45 {blocks = 1 : i32, k = 16 : i32, m = 16 : i32, n = 16 : i32} blgp =  none : vector<4xf16>, vector<4xf16>, vector<4xf32>
        %262 = amdgpu.mfma %215 * %187 + %134#46 {blocks = 1 : i32, k = 16 : i32, m = 16 : i32, n = 16 : i32} blgp =  none : vector<4xf16>, vector<4xf16>, vector<4xf32>
        %263 = amdgpu.mfma %215 * %191 + %134#47 {blocks = 1 : i32, k = 16 : i32, m = 16 : i32, n = 16 : i32} blgp =  none : vector<4xf16>, vector<4xf16>, vector<4xf32>
        %264 = amdgpu.mfma %215 * %195 + %134#48 {blocks = 1 : i32, k = 16 : i32, m = 16 : i32, n = 16 : i32} blgp =  none : vector<4xf16>, vector<4xf16>, vector<4xf32>
        %265 = amdgpu.mfma %215 * %199 + %134#49 {blocks = 1 : i32, k = 16 : i32, m = 16 : i32, n = 16 : i32} blgp =  none : vector<4xf16>, vector<4xf16>, vector<4xf32>
        %266 = amdgpu.mfma %215 * %203 + %134#50 {blocks = 1 : i32, k = 16 : i32, m = 16 : i32, n = 16 : i32} blgp =  none : vector<4xf16>, vector<4xf16>, vector<4xf32>
        %267 = vector.extract_strided_slice %216 {offsets = [0], sizes = [1], strides = [1]} : vector<4xf32> to vector<1xf32>
        %268 = stream.binding.subspan %arg2[%c0] : !stream.binding -> memref<642x8192xf32, strided<[8192, 1], offset: ?>>
        %269 = affine.apply #map36()[%block_id_y, %thread_id_y]
        %270 = arith.minsi %269, %c8192 : index
        %271 = affine.apply #map37()[%thread_id_x, %block_id_x, %block_id_y, %3, %thread_id_y]
        %272 = arith.cmpi slt, %271, %270 : index
        %273 = affine.apply #map38()[%block_id_x, %thread_id_x]
        %274 = affine.apply #map39()[%block_id_x]
        %275 = arith.minsi %273, %274 : index
        %276 = arith.minsi %275, %c642 : index
        %277 = affine.apply #map40()[%block_id_x, %block_id_y, %3, %thread_id_x]
        %278 = arith.cmpi slt, %277, %276 : index
        %279 = arith.andi %272, %278 : i1
        %280 = affine.apply #map41()[%block_id_x, %block_id_y, %3]
        %281 = affine.apply #map42()[%block_id_x, %block_id_y, %3]
        %282 = affine.apply #map43()[%thread_id_x]
        %283 = arith.muli %280, %c8192 overflow<nsw> : index
        %284 = arith.muli %282, %c8192 overflow<nsw> : index
        %285 = arith.addi %283, %281 overflow<nsw> : index
        %286 = arith.addi %284, %135 overflow<nsw> : index
        %base_buffer_11, %offset_12, %sizes_13:2, %strides_14:2 = memref.extract_strided_metadata %268 : memref<642x8192xf32, strided<[8192, 1], offset: ?>> -> memref<f32>, index, index, index, index, index
        %287 = arith.addi %285, %offset_12 overflow<nsw> : index
        %reinterpret_cast_15 = memref.reinterpret_cast %268 to offset: [%287], sizes: [%c536870910], strides: [1] : memref<642x8192xf32, strided<[8192, 1], offset: ?>> to memref<?xf32, strided<[1], offset: ?>>
        %288 = amdgpu.fat_raw_buffer_cast %reinterpret_cast_15 validBytes(%c2147483643_i32) cacheSwizzleStride(%c-8192_i14) resetOffset : memref<?xf32, strided<[1], offset: ?>> to memref<?xf32, #amdgpu.address_space<fat_raw_buffer>>
        %289 = arith.select %279, %286, %c536870911 : index
        vector.store %267, %288[%289] : memref<?xf32, #amdgpu.address_space<fat_raw_buffer>>, vector<1xf32>
        %290 = vector.extract_strided_slice %216 {offsets = [1], sizes = [1], strides = [1]} : vector<4xf32> to vector<1xf32>
        %291 = affine.apply #map44()[%block_id_x, %block_id_y, %3, %thread_id_x]
        %292 = arith.cmpi slt, %291, %276 : index
        %293 = arith.andi %272, %292 : i1
        %294 = affine.apply #map45()[%thread_id_x]
        %295 = arith.muli %294, %c8192 overflow<nsw> : index
        %296 = arith.addi %295, %135 overflow<nsw> : index
        %297 = arith.select %293, %296, %c536870911 : index
        vector.store %290, %288[%297] : memref<?xf32, #amdgpu.address_space<fat_raw_buffer>>, vector<1xf32>
        %298 = vector.extract_strided_slice %216 {offsets = [2], sizes = [1], strides = [1]} : vector<4xf32> to vector<1xf32>
        %299 = affine.apply #map46()[%block_id_x, %block_id_y, %3, %thread_id_x]
        %300 = arith.cmpi slt, %299, %276 : index
        %301 = arith.andi %272, %300 : i1
        %302 = affine.apply #map47()[%thread_id_x]
        %303 = arith.muli %302, %c8192 overflow<nsw> : index
        %304 = arith.addi %303, %135 overflow<nsw> : index
        %305 = arith.select %301, %304, %c536870911 : index
        vector.store %298, %288[%305] : memref<?xf32, #amdgpu.address_space<fat_raw_buffer>>, vector<1xf32>
        %306 = vector.extract_strided_slice %216 {offsets = [3], sizes = [1], strides = [1]} : vector<4xf32> to vector<1xf32>
        %307 = affine.apply #map48()[%block_id_x, %block_id_y, %3, %thread_id_x]
        %308 = arith.cmpi slt, %307, %276 : index
        %309 = arith.andi %272, %308 : i1
        %310 = affine.apply #map49()[%thread_id_x]
        %311 = arith.muli %310, %c8192 overflow<nsw> : index
        %312 = arith.addi %311, %135 overflow<nsw> : index
        %313 = arith.select %309, %312, %c536870911 : index
        vector.store %306, %288[%313] : memref<?xf32, #amdgpu.address_space<fat_raw_buffer>>, vector<1xf32>
        %314 = vector.extract_strided_slice %217 {offsets = [0], sizes = [1], strides = [1]} : vector<4xf32> to vector<1xf32>
        %315 = affine.apply #map50()[%thread_id_x, %block_id_x, %block_id_y, %3, %thread_id_y]
        %316 = arith.cmpi slt, %315, %270 : index
        %317 = arith.andi %316, %278 : i1
        %318 = arith.addi %284, %140 overflow<nsw> : index
        %319 = arith.select %317, %318, %c536870911 : index
        vector.store %314, %288[%319] : memref<?xf32, #amdgpu.address_space<fat_raw_buffer>>, vector<1xf32>
        %320 = vector.extract_strided_slice %217 {offsets = [1], sizes = [1], strides = [1]} : vector<4xf32> to vector<1xf32>
        %321 = arith.andi %316, %292 : i1
        %322 = arith.addi %295, %140 overflow<nsw> : index
        %323 = arith.select %321, %322, %c536870911 : index
        vector.store %320, %288[%323] : memref<?xf32, #amdgpu.address_space<fat_raw_buffer>>, vector<1xf32>
        %324 = vector.extract_strided_slice %217 {offsets = [2], sizes = [1], strides = [1]} : vector<4xf32> to vector<1xf32>
        %325 = arith.andi %316, %300 : i1
        %326 = arith.addi %303, %140 overflow<nsw> : index
        %327 = arith.select %325, %326, %c536870911 : index
        vector.store %324, %288[%327] : memref<?xf32, #amdgpu.address_space<fat_raw_buffer>>, vector<1xf32>
        %328 = vector.extract_strided_slice %217 {offsets = [3], sizes = [1], strides = [1]} : vector<4xf32> to vector<1xf32>
        %329 = arith.andi %316, %308 : i1
        %330 = arith.addi %311, %140 overflow<nsw> : index
        %331 = arith.select %329, %330, %c536870911 : index
        vector.store %328, %288[%331] : memref<?xf32, #amdgpu.address_space<fat_raw_buffer>>, vector<1xf32>
        %332 = vector.extract_strided_slice %218 {offsets = [0], sizes = [1], strides = [1]} : vector<4xf32> to vector<1xf32>
        %333 = affine.apply #map51()[%thread_id_x, %block_id_x, %block_id_y, %3, %thread_id_y]
        %334 = arith.cmpi slt, %333, %270 : index
        %335 = arith.andi %334, %278 : i1
        %336 = arith.addi %284, %144 overflow<nsw> : index
        %337 = arith.select %335, %336, %c536870911 : index
        vector.store %332, %288[%337] : memref<?xf32, #amdgpu.address_space<fat_raw_buffer>>, vector<1xf32>
        %338 = vector.extract_strided_slice %218 {offsets = [1], sizes = [1], strides = [1]} : vector<4xf32> to vector<1xf32>
        %339 = arith.andi %334, %292 : i1
        %340 = arith.addi %295, %144 overflow<nsw> : index
        %341 = arith.select %339, %340, %c536870911 : index
        vector.store %338, %288[%341] : memref<?xf32, #amdgpu.address_space<fat_raw_buffer>>, vector<1xf32>
        %342 = vector.extract_strided_slice %218 {offsets = [2], sizes = [1], strides = [1]} : vector<4xf32> to vector<1xf32>
        %343 = arith.andi %334, %300 : i1
        %344 = arith.addi %303, %144 overflow<nsw> : index
        %345 = arith.select %343, %344, %c536870911 : index
        vector.store %342, %288[%345] : memref<?xf32, #amdgpu.address_space<fat_raw_buffer>>, vector<1xf32>
        %346 = vector.extract_strided_slice %218 {offsets = [3], sizes = [1], strides = [1]} : vector<4xf32> to vector<1xf32>
        %347 = arith.andi %334, %308 : i1
        %348 = arith.addi %311, %144 overflow<nsw> : index
        %349 = arith.select %347, %348, %c536870911 : index
        vector.store %346, %288[%349] : memref<?xf32, #amdgpu.address_space<fat_raw_buffer>>, vector<1xf32>
        %350 = vector.extract_strided_slice %219 {offsets = [0], sizes = [1], strides = [1]} : vector<4xf32> to vector<1xf32>
        %351 = affine.apply #map52()[%thread_id_x, %block_id_x, %block_id_y, %3, %thread_id_y]
        %352 = arith.cmpi slt, %351, %270 : index
        %353 = arith.andi %352, %278 : i1
        %354 = arith.addi %284, %148 overflow<nsw> : index
        %355 = arith.select %353, %354, %c536870911 : index
        vector.store %350, %288[%355] : memref<?xf32, #amdgpu.address_space<fat_raw_buffer>>, vector<1xf32>
        %356 = vector.extract_strided_slice %219 {offsets = [1], sizes = [1], strides = [1]} : vector<4xf32> to vector<1xf32>
        %357 = arith.andi %352, %292 : i1
        %358 = arith.addi %295, %148 overflow<nsw> : index
        %359 = arith.select %357, %358, %c536870911 : index
        vector.store %356, %288[%359] : memref<?xf32, #amdgpu.address_space<fat_raw_buffer>>, vector<1xf32>
        %360 = vector.extract_strided_slice %219 {offsets = [2], sizes = [1], strides = [1]} : vector<4xf32> to vector<1xf32>
        %361 = arith.andi %352, %300 : i1
        %362 = arith.addi %303, %148 overflow<nsw> : index
        %363 = arith.select %361, %362, %c536870911 : index
        vector.store %360, %288[%363] : memref<?xf32, #amdgpu.address_space<fat_raw_buffer>>, vector<1xf32>
        %364 = vector.extract_strided_slice %219 {offsets = [3], sizes = [1], strides = [1]} : vector<4xf32> to vector<1xf32>
        %365 = arith.andi %352, %308 : i1
        %366 = arith.addi %311, %148 overflow<nsw> : index
        %367 = arith.select %365, %366, %c536870911 : index
        vector.store %364, %288[%367] : memref<?xf32, #amdgpu.address_space<fat_raw_buffer>>, vector<1xf32>
        %368 = vector.extract_strided_slice %220 {offsets = [0], sizes = [1], strides = [1]} : vector<4xf32> to vector<1xf32>
        %369 = affine.apply #map53()[%thread_id_x, %block_id_x, %block_id_y, %3, %thread_id_y]
        %370 = arith.cmpi slt, %369, %270 : index
        %371 = arith.andi %370, %278 : i1
        %372 = arith.addi %284, %152 overflow<nsw> : index
        %373 = arith.select %371, %372, %c536870911 : index
        vector.store %368, %288[%373] : memref<?xf32, #amdgpu.address_space<fat_raw_buffer>>, vector<1xf32>
        %374 = vector.extract_strided_slice %220 {offsets = [1], sizes = [1], strides = [1]} : vector<4xf32> to vector<1xf32>
        %375 = arith.andi %370, %292 : i1
        %376 = arith.addi %295, %152 overflow<nsw> : index
        %377 = arith.select %375, %376, %c536870911 : index
        vector.store %374, %288[%377] : memref<?xf32, #amdgpu.address_space<fat_raw_buffer>>, vector<1xf32>
        %378 = vector.extract_strided_slice %220 {offsets = [2], sizes = [1], strides = [1]} : vector<4xf32> to vector<1xf32>
        %379 = arith.andi %370, %300 : i1
        %380 = arith.addi %303, %152 overflow<nsw> : index
        %381 = arith.select %379, %380, %c536870911 : index
        vector.store %378, %288[%381] : memref<?xf32, #amdgpu.address_space<fat_raw_buffer>>, vector<1xf32>
        %382 = vector.extract_strided_slice %220 {offsets = [3], sizes = [1], strides = [1]} : vector<4xf32> to vector<1xf32>
        %383 = arith.andi %370, %308 : i1
        %384 = arith.addi %311, %152 overflow<nsw> : index
        %385 = arith.select %383, %384, %c536870911 : index
        vector.store %382, %288[%385] : memref<?xf32, #amdgpu.address_space<fat_raw_buffer>>, vector<1xf32>
        %386 = vector.extract_strided_slice %221 {offsets = [0], sizes = [1], strides = [1]} : vector<4xf32> to vector<1xf32>
        %387 = affine.apply #map54()[%thread_id_x, %block_id_x, %block_id_y, %3, %thread_id_y]
        %388 = arith.cmpi slt, %387, %270 : index
        %389 = arith.andi %388, %278 : i1
        %390 = arith.addi %284, %156 overflow<nsw> : index
        %391 = arith.select %389, %390, %c536870911 : index
        vector.store %386, %288[%391] : memref<?xf32, #amdgpu.address_space<fat_raw_buffer>>, vector<1xf32>
        %392 = vector.extract_strided_slice %221 {offsets = [1], sizes = [1], strides = [1]} : vector<4xf32> to vector<1xf32>
        %393 = arith.andi %388, %292 : i1
        %394 = arith.addi %295, %156 overflow<nsw> : index
        %395 = arith.select %393, %394, %c536870911 : index
        vector.store %392, %288[%395] : memref<?xf32, #amdgpu.address_space<fat_raw_buffer>>, vector<1xf32>
        %396 = vector.extract_strided_slice %221 {offsets = [2], sizes = [1], strides = [1]} : vector<4xf32> to vector<1xf32>
        %397 = arith.andi %388, %300 : i1
        %398 = arith.addi %303, %156 overflow<nsw> : index
        %399 = arith.select %397, %398, %c536870911 : index
        vector.store %396, %288[%399] : memref<?xf32, #amdgpu.address_space<fat_raw_buffer>>, vector<1xf32>
        %400 = vector.extract_strided_slice %221 {offsets = [3], sizes = [1], strides = [1]} : vector<4xf32> to vector<1xf32>
        %401 = arith.andi %388, %308 : i1
        %402 = arith.addi %311, %156 overflow<nsw> : index
        %403 = arith.select %401, %402, %c536870911 : index
        vector.store %400, %288[%403] : memref<?xf32, #amdgpu.address_space<fat_raw_buffer>>, vector<1xf32>
        %404 = vector.extract_strided_slice %222 {offsets = [0], sizes = [1], strides = [1]} : vector<4xf32> to vector<1xf32>
        %405 = affine.apply #map55()[%thread_id_x, %block_id_x, %block_id_y, %3, %thread_id_y]
        %406 = arith.cmpi slt, %405, %270 : index
        %407 = arith.andi %406, %278 : i1
        %408 = arith.addi %284, %160 overflow<nsw> : index
        %409 = arith.select %407, %408, %c536870911 : index
        vector.store %404, %288[%409] : memref<?xf32, #amdgpu.address_space<fat_raw_buffer>>, vector<1xf32>
        %410 = vector.extract_strided_slice %222 {offsets = [1], sizes = [1], strides = [1]} : vector<4xf32> to vector<1xf32>
        %411 = arith.andi %406, %292 : i1
        %412 = arith.addi %295, %160 overflow<nsw> : index
        %413 = arith.select %411, %412, %c536870911 : index
        vector.store %410, %288[%413] : memref<?xf32, #amdgpu.address_space<fat_raw_buffer>>, vector<1xf32>
        %414 = vector.extract_strided_slice %222 {offsets = [2], sizes = [1], strides = [1]} : vector<4xf32> to vector<1xf32>
        %415 = arith.andi %406, %300 : i1
        %416 = arith.addi %303, %160 overflow<nsw> : index
        %417 = arith.select %415, %416, %c536870911 : index
        vector.store %414, %288[%417] : memref<?xf32, #amdgpu.address_space<fat_raw_buffer>>, vector<1xf32>
        %418 = vector.extract_strided_slice %222 {offsets = [3], sizes = [1], strides = [1]} : vector<4xf32> to vector<1xf32>
        %419 = arith.andi %406, %308 : i1
        %420 = arith.addi %311, %160 overflow<nsw> : index
        %421 = arith.select %419, %420, %c536870911 : index
        vector.store %418, %288[%421] : memref<?xf32, #amdgpu.address_space<fat_raw_buffer>>, vector<1xf32>
        %422 = vector.extract_strided_slice %223 {offsets = [0], sizes = [1], strides = [1]} : vector<4xf32> to vector<1xf32>
        %423 = affine.apply #map56()[%thread_id_x, %block_id_x, %block_id_y, %3, %thread_id_y]
        %424 = arith.cmpi slt, %423, %270 : index
        %425 = arith.andi %424, %278 : i1
        %426 = arith.addi %284, %164 overflow<nsw> : index
        %427 = arith.select %425, %426, %c536870911 : index
        vector.store %422, %288[%427] : memref<?xf32, #amdgpu.address_space<fat_raw_buffer>>, vector<1xf32>
        %428 = vector.extract_strided_slice %223 {offsets = [1], sizes = [1], strides = [1]} : vector<4xf32> to vector<1xf32>
        %429 = arith.andi %424, %292 : i1
        %430 = arith.addi %295, %164 overflow<nsw> : index
        %431 = arith.select %429, %430, %c536870911 : index
        vector.store %428, %288[%431] : memref<?xf32, #amdgpu.address_space<fat_raw_buffer>>, vector<1xf32>
        %432 = vector.extract_strided_slice %223 {offsets = [2], sizes = [1], strides = [1]} : vector<4xf32> to vector<1xf32>
        %433 = arith.andi %424, %300 : i1
        %434 = arith.addi %303, %164 overflow<nsw> : index
        %435 = arith.select %433, %434, %c536870911 : index
        vector.store %432, %288[%435] : memref<?xf32, #amdgpu.address_space<fat_raw_buffer>>, vector<1xf32>
        %436 = vector.extract_strided_slice %223 {offsets = [3], sizes = [1], strides = [1]} : vector<4xf32> to vector<1xf32>
        %437 = arith.andi %424, %308 : i1
        %438 = arith.addi %311, %164 overflow<nsw> : index
        %439 = arith.select %437, %438, %c536870911 : index
        vector.store %436, %288[%439] : memref<?xf32, #amdgpu.address_space<fat_raw_buffer>>, vector<1xf32>
        %440 = vector.extract_strided_slice %224 {offsets = [0], sizes = [1], strides = [1]} : vector<4xf32> to vector<1xf32>
        %441 = affine.apply #map57()[%thread_id_x, %block_id_x, %block_id_y, %3, %thread_id_y]
        %442 = arith.cmpi slt, %441, %270 : index
        %443 = arith.andi %442, %278 : i1
        %444 = arith.addi %284, %168 overflow<nsw> : index
        %445 = arith.select %443, %444, %c536870911 : index
        vector.store %440, %288[%445] : memref<?xf32, #amdgpu.address_space<fat_raw_buffer>>, vector<1xf32>
        %446 = vector.extract_strided_slice %224 {offsets = [1], sizes = [1], strides = [1]} : vector<4xf32> to vector<1xf32>
        %447 = arith.andi %442, %292 : i1
        %448 = arith.addi %295, %168 overflow<nsw> : index
        %449 = arith.select %447, %448, %c536870911 : index
        vector.store %446, %288[%449] : memref<?xf32, #amdgpu.address_space<fat_raw_buffer>>, vector<1xf32>
        %450 = vector.extract_strided_slice %224 {offsets = [2], sizes = [1], strides = [1]} : vector<4xf32> to vector<1xf32>
        %451 = arith.andi %442, %300 : i1
        %452 = arith.addi %303, %168 overflow<nsw> : index
        %453 = arith.select %451, %452, %c536870911 : index
        vector.store %450, %288[%453] : memref<?xf32, #amdgpu.address_space<fat_raw_buffer>>, vector<1xf32>
        %454 = vector.extract_strided_slice %224 {offsets = [3], sizes = [1], strides = [1]} : vector<4xf32> to vector<1xf32>
        %455 = arith.andi %442, %308 : i1
        %456 = arith.addi %311, %168 overflow<nsw> : index
        %457 = arith.select %455, %456, %c536870911 : index
        vector.store %454, %288[%457] : memref<?xf32, #amdgpu.address_space<fat_raw_buffer>>, vector<1xf32>
        %458 = vector.extract_strided_slice %225 {offsets = [0], sizes = [1], strides = [1]} : vector<4xf32> to vector<1xf32>
        %459 = affine.apply #map58()[%thread_id_x, %block_id_x, %block_id_y, %3, %thread_id_y]
        %460 = arith.cmpi slt, %459, %270 : index
        %461 = arith.andi %460, %278 : i1
        %462 = arith.addi %284, %172 overflow<nsw> : index
        %463 = arith.select %461, %462, %c536870911 : index
        vector.store %458, %288[%463] : memref<?xf32, #amdgpu.address_space<fat_raw_buffer>>, vector<1xf32>
        %464 = vector.extract_strided_slice %225 {offsets = [1], sizes = [1], strides = [1]} : vector<4xf32> to vector<1xf32>
        %465 = arith.andi %460, %292 : i1
        %466 = arith.addi %295, %172 overflow<nsw> : index
        %467 = arith.select %465, %466, %c536870911 : index
        vector.store %464, %288[%467] : memref<?xf32, #amdgpu.address_space<fat_raw_buffer>>, vector<1xf32>
        %468 = vector.extract_strided_slice %225 {offsets = [2], sizes = [1], strides = [1]} : vector<4xf32> to vector<1xf32>
        %469 = arith.andi %460, %300 : i1
        %470 = arith.addi %303, %172 overflow<nsw> : index
        %471 = arith.select %469, %470, %c536870911 : index
        vector.store %468, %288[%471] : memref<?xf32, #amdgpu.address_space<fat_raw_buffer>>, vector<1xf32>
        %472 = vector.extract_strided_slice %225 {offsets = [3], sizes = [1], strides = [1]} : vector<4xf32> to vector<1xf32>
        %473 = arith.andi %460, %308 : i1
        %474 = arith.addi %311, %172 overflow<nsw> : index
        %475 = arith.select %473, %474, %c536870911 : index
        vector.store %472, %288[%475] : memref<?xf32, #amdgpu.address_space<fat_raw_buffer>>, vector<1xf32>
        %476 = vector.extract_strided_slice %226 {offsets = [0], sizes = [1], strides = [1]} : vector<4xf32> to vector<1xf32>
        %477 = affine.apply #map59()[%thread_id_x, %block_id_x, %block_id_y, %3, %thread_id_y]
        %478 = arith.cmpi slt, %477, %270 : index
        %479 = arith.andi %478, %278 : i1
        %480 = arith.addi %284, %176 overflow<nsw> : index
        %481 = arith.select %479, %480, %c536870911 : index
        vector.store %476, %288[%481] : memref<?xf32, #amdgpu.address_space<fat_raw_buffer>>, vector<1xf32>
        %482 = vector.extract_strided_slice %226 {offsets = [1], sizes = [1], strides = [1]} : vector<4xf32> to vector<1xf32>
        %483 = arith.andi %478, %292 : i1
        %484 = arith.addi %295, %176 overflow<nsw> : index
        %485 = arith.select %483, %484, %c536870911 : index
        vector.store %482, %288[%485] : memref<?xf32, #amdgpu.address_space<fat_raw_buffer>>, vector<1xf32>
        %486 = vector.extract_strided_slice %226 {offsets = [2], sizes = [1], strides = [1]} : vector<4xf32> to vector<1xf32>
        %487 = arith.andi %478, %300 : i1
        %488 = arith.addi %303, %176 overflow<nsw> : index
        %489 = arith.select %487, %488, %c536870911 : index
        vector.store %486, %288[%489] : memref<?xf32, #amdgpu.address_space<fat_raw_buffer>>, vector<1xf32>
        %490 = vector.extract_strided_slice %226 {offsets = [3], sizes = [1], strides = [1]} : vector<4xf32> to vector<1xf32>
        %491 = arith.andi %478, %308 : i1
        %492 = arith.addi %311, %176 overflow<nsw> : index
        %493 = arith.select %491, %492, %c536870911 : index
        vector.store %490, %288[%493] : memref<?xf32, #amdgpu.address_space<fat_raw_buffer>>, vector<1xf32>
        %494 = vector.extract_strided_slice %227 {offsets = [0], sizes = [1], strides = [1]} : vector<4xf32> to vector<1xf32>
        %495 = affine.apply #map60()[%thread_id_x, %block_id_x, %block_id_y, %3, %thread_id_y]
        %496 = arith.cmpi slt, %495, %270 : index
        %497 = arith.andi %496, %278 : i1
        %498 = arith.addi %284, %180 overflow<nsw> : index
        %499 = arith.select %497, %498, %c536870911 : index
        vector.store %494, %288[%499] : memref<?xf32, #amdgpu.address_space<fat_raw_buffer>>, vector<1xf32>
        %500 = vector.extract_strided_slice %227 {offsets = [1], sizes = [1], strides = [1]} : vector<4xf32> to vector<1xf32>
        %501 = arith.andi %496, %292 : i1
        %502 = arith.addi %295, %180 overflow<nsw> : index
        %503 = arith.select %501, %502, %c536870911 : index
        vector.store %500, %288[%503] : memref<?xf32, #amdgpu.address_space<fat_raw_buffer>>, vector<1xf32>
        %504 = vector.extract_strided_slice %227 {offsets = [2], sizes = [1], strides = [1]} : vector<4xf32> to vector<1xf32>
        %505 = arith.andi %496, %300 : i1
        %506 = arith.addi %303, %180 overflow<nsw> : index
        %507 = arith.select %505, %506, %c536870911 : index
        vector.store %504, %288[%507] : memref<?xf32, #amdgpu.address_space<fat_raw_buffer>>, vector<1xf32>
        %508 = vector.extract_strided_slice %227 {offsets = [3], sizes = [1], strides = [1]} : vector<4xf32> to vector<1xf32>
        %509 = arith.andi %496, %308 : i1
        %510 = arith.addi %311, %180 overflow<nsw> : index
        %511 = arith.select %509, %510, %c536870911 : index
        vector.store %508, %288[%511] : memref<?xf32, #amdgpu.address_space<fat_raw_buffer>>, vector<1xf32>
        %512 = vector.extract_strided_slice %228 {offsets = [0], sizes = [1], strides = [1]} : vector<4xf32> to vector<1xf32>
        %513 = affine.apply #map61()[%thread_id_x, %block_id_x, %block_id_y, %3, %thread_id_y]
        %514 = arith.cmpi slt, %513, %270 : index
        %515 = arith.andi %514, %278 : i1
        %516 = arith.addi %284, %184 overflow<nsw> : index
        %517 = arith.select %515, %516, %c536870911 : index
        vector.store %512, %288[%517] : memref<?xf32, #amdgpu.address_space<fat_raw_buffer>>, vector<1xf32>
        %518 = vector.extract_strided_slice %228 {offsets = [1], sizes = [1], strides = [1]} : vector<4xf32> to vector<1xf32>
        %519 = arith.andi %514, %292 : i1
        %520 = arith.addi %295, %184 overflow<nsw> : index
        %521 = arith.select %519, %520, %c536870911 : index
        vector.store %518, %288[%521] : memref<?xf32, #amdgpu.address_space<fat_raw_buffer>>, vector<1xf32>
        %522 = vector.extract_strided_slice %228 {offsets = [2], sizes = [1], strides = [1]} : vector<4xf32> to vector<1xf32>
        %523 = arith.andi %514, %300 : i1
        %524 = arith.addi %303, %184 overflow<nsw> : index
        %525 = arith.select %523, %524, %c536870911 : index
        vector.store %522, %288[%525] : memref<?xf32, #amdgpu.address_space<fat_raw_buffer>>, vector<1xf32>
        %526 = vector.extract_strided_slice %228 {offsets = [3], sizes = [1], strides = [1]} : vector<4xf32> to vector<1xf32>
        %527 = arith.andi %514, %308 : i1
        %528 = arith.addi %311, %184 overflow<nsw> : index
        %529 = arith.select %527, %528, %c536870911 : index
        vector.store %526, %288[%529] : memref<?xf32, #amdgpu.address_space<fat_raw_buffer>>, vector<1xf32>
        %530 = vector.extract_strided_slice %229 {offsets = [0], sizes = [1], strides = [1]} : vector<4xf32> to vector<1xf32>
        %531 = affine.apply #map62()[%thread_id_x, %block_id_x, %block_id_y, %3, %thread_id_y]
        %532 = arith.cmpi slt, %531, %270 : index
        %533 = arith.andi %532, %278 : i1
        %534 = arith.addi %284, %188 overflow<nsw> : index
        %535 = arith.select %533, %534, %c536870911 : index
        vector.store %530, %288[%535] : memref<?xf32, #amdgpu.address_space<fat_raw_buffer>>, vector<1xf32>
        %536 = vector.extract_strided_slice %229 {offsets = [1], sizes = [1], strides = [1]} : vector<4xf32> to vector<1xf32>
        %537 = arith.andi %532, %292 : i1
        %538 = arith.addi %295, %188 overflow<nsw> : index
        %539 = arith.select %537, %538, %c536870911 : index
        vector.store %536, %288[%539] : memref<?xf32, #amdgpu.address_space<fat_raw_buffer>>, vector<1xf32>
        %540 = vector.extract_strided_slice %229 {offsets = [2], sizes = [1], strides = [1]} : vector<4xf32> to vector<1xf32>
        %541 = arith.andi %532, %300 : i1
        %542 = arith.addi %303, %188 overflow<nsw> : index
        %543 = arith.select %541, %542, %c536870911 : index
        vector.store %540, %288[%543] : memref<?xf32, #amdgpu.address_space<fat_raw_buffer>>, vector<1xf32>
        %544 = vector.extract_strided_slice %229 {offsets = [3], sizes = [1], strides = [1]} : vector<4xf32> to vector<1xf32>
        %545 = arith.andi %532, %308 : i1
        %546 = arith.addi %311, %188 overflow<nsw> : index
        %547 = arith.select %545, %546, %c536870911 : index
        vector.store %544, %288[%547] : memref<?xf32, #amdgpu.address_space<fat_raw_buffer>>, vector<1xf32>
        %548 = vector.extract_strided_slice %230 {offsets = [0], sizes = [1], strides = [1]} : vector<4xf32> to vector<1xf32>
        %549 = affine.apply #map63()[%thread_id_x, %block_id_x, %block_id_y, %3, %thread_id_y]
        %550 = arith.cmpi slt, %549, %270 : index
        %551 = arith.andi %550, %278 : i1
        %552 = arith.addi %284, %192 overflow<nsw> : index
        %553 = arith.select %551, %552, %c536870911 : index
        vector.store %548, %288[%553] : memref<?xf32, #amdgpu.address_space<fat_raw_buffer>>, vector<1xf32>
        %554 = vector.extract_strided_slice %230 {offsets = [1], sizes = [1], strides = [1]} : vector<4xf32> to vector<1xf32>
        %555 = arith.andi %550, %292 : i1
        %556 = arith.addi %295, %192 overflow<nsw> : index
        %557 = arith.select %555, %556, %c536870911 : index
        vector.store %554, %288[%557] : memref<?xf32, #amdgpu.address_space<fat_raw_buffer>>, vector<1xf32>
        %558 = vector.extract_strided_slice %230 {offsets = [2], sizes = [1], strides = [1]} : vector<4xf32> to vector<1xf32>
        %559 = arith.andi %550, %300 : i1
        %560 = arith.addi %303, %192 overflow<nsw> : index
        %561 = arith.select %559, %560, %c536870911 : index
        vector.store %558, %288[%561] : memref<?xf32, #amdgpu.address_space<fat_raw_buffer>>, vector<1xf32>
        %562 = vector.extract_strided_slice %230 {offsets = [3], sizes = [1], strides = [1]} : vector<4xf32> to vector<1xf32>
        %563 = arith.andi %550, %308 : i1
        %564 = arith.addi %311, %192 overflow<nsw> : index
        %565 = arith.select %563, %564, %c536870911 : index
        vector.store %562, %288[%565] : memref<?xf32, #amdgpu.address_space<fat_raw_buffer>>, vector<1xf32>
        %566 = vector.extract_strided_slice %231 {offsets = [0], sizes = [1], strides = [1]} : vector<4xf32> to vector<1xf32>
        %567 = affine.apply #map64()[%thread_id_x, %block_id_x, %block_id_y, %3, %thread_id_y]
        %568 = arith.cmpi slt, %567, %270 : index
        %569 = arith.andi %568, %278 : i1
        %570 = arith.addi %284, %196 overflow<nsw> : index
        %571 = arith.select %569, %570, %c536870911 : index
        vector.store %566, %288[%571] : memref<?xf32, #amdgpu.address_space<fat_raw_buffer>>, vector<1xf32>
        %572 = vector.extract_strided_slice %231 {offsets = [1], sizes = [1], strides = [1]} : vector<4xf32> to vector<1xf32>
        %573 = arith.andi %568, %292 : i1
        %574 = arith.addi %295, %196 overflow<nsw> : index
        %575 = arith.select %573, %574, %c536870911 : index
        vector.store %572, %288[%575] : memref<?xf32, #amdgpu.address_space<fat_raw_buffer>>, vector<1xf32>
        %576 = vector.extract_strided_slice %231 {offsets = [2], sizes = [1], strides = [1]} : vector<4xf32> to vector<1xf32>
        %577 = arith.andi %568, %300 : i1
        %578 = arith.addi %303, %196 overflow<nsw> : index
        %579 = arith.select %577, %578, %c536870911 : index
        vector.store %576, %288[%579] : memref<?xf32, #amdgpu.address_space<fat_raw_buffer>>, vector<1xf32>
        %580 = vector.extract_strided_slice %231 {offsets = [3], sizes = [1], strides = [1]} : vector<4xf32> to vector<1xf32>
        %581 = arith.andi %568, %308 : i1
        %582 = arith.addi %311, %196 overflow<nsw> : index
        %583 = arith.select %581, %582, %c536870911 : index
        vector.store %580, %288[%583] : memref<?xf32, #amdgpu.address_space<fat_raw_buffer>>, vector<1xf32>
        %584 = vector.extract_strided_slice %232 {offsets = [0], sizes = [1], strides = [1]} : vector<4xf32> to vector<1xf32>
        %585 = affine.apply #map65()[%thread_id_x, %block_id_x, %block_id_y, %3, %thread_id_y]
        %586 = arith.cmpi slt, %585, %270 : index
        %587 = arith.andi %586, %278 : i1
        %588 = arith.addi %284, %200 overflow<nsw> : index
        %589 = arith.select %587, %588, %c536870911 : index
        vector.store %584, %288[%589] : memref<?xf32, #amdgpu.address_space<fat_raw_buffer>>, vector<1xf32>
        %590 = vector.extract_strided_slice %232 {offsets = [1], sizes = [1], strides = [1]} : vector<4xf32> to vector<1xf32>
        %591 = arith.andi %586, %292 : i1
        %592 = arith.addi %295, %200 overflow<nsw> : index
        %593 = arith.select %591, %592, %c536870911 : index
        vector.store %590, %288[%593] : memref<?xf32, #amdgpu.address_space<fat_raw_buffer>>, vector<1xf32>
        %594 = vector.extract_strided_slice %232 {offsets = [2], sizes = [1], strides = [1]} : vector<4xf32> to vector<1xf32>
        %595 = arith.andi %586, %300 : i1
        %596 = arith.addi %303, %200 overflow<nsw> : index
        %597 = arith.select %595, %596, %c536870911 : index
        vector.store %594, %288[%597] : memref<?xf32, #amdgpu.address_space<fat_raw_buffer>>, vector<1xf32>
        %598 = vector.extract_strided_slice %232 {offsets = [3], sizes = [1], strides = [1]} : vector<4xf32> to vector<1xf32>
        %599 = arith.andi %586, %308 : i1
        %600 = arith.addi %311, %200 overflow<nsw> : index
        %601 = arith.select %599, %600, %c536870911 : index
        vector.store %598, %288[%601] : memref<?xf32, #amdgpu.address_space<fat_raw_buffer>>, vector<1xf32>
        %602 = vector.extract_strided_slice %233 {offsets = [0], sizes = [1], strides = [1]} : vector<4xf32> to vector<1xf32>
        %603 = affine.apply #map66()[%block_id_x, %block_id_y, %3, %thread_id_x]
        %604 = arith.cmpi slt, %603, %276 : index
        %605 = arith.andi %272, %604 : i1
        %606 = affine.apply #map67()[%thread_id_x]
        %607 = arith.muli %606, %c8192 overflow<nsw> : index
        %608 = arith.addi %607, %135 overflow<nsw> : index
        %609 = arith.select %605, %608, %c536870911 : index
        vector.store %602, %288[%609] : memref<?xf32, #amdgpu.address_space<fat_raw_buffer>>, vector<1xf32>
        %610 = vector.extract_strided_slice %233 {offsets = [1], sizes = [1], strides = [1]} : vector<4xf32> to vector<1xf32>
        %611 = affine.apply #map68()[%block_id_x, %block_id_y, %3, %thread_id_x]
        %612 = arith.cmpi slt, %611, %276 : index
        %613 = arith.andi %272, %612 : i1
        %614 = affine.apply #map69()[%thread_id_x]
        %615 = arith.muli %614, %c8192 overflow<nsw> : index
        %616 = arith.addi %615, %135 overflow<nsw> : index
        %617 = arith.select %613, %616, %c536870911 : index
        vector.store %610, %288[%617] : memref<?xf32, #amdgpu.address_space<fat_raw_buffer>>, vector<1xf32>
        %618 = vector.extract_strided_slice %233 {offsets = [2], sizes = [1], strides = [1]} : vector<4xf32> to vector<1xf32>
        %619 = affine.apply #map70()[%block_id_x, %block_id_y, %3, %thread_id_x]
        %620 = arith.cmpi slt, %619, %276 : index
        %621 = arith.andi %272, %620 : i1
        %622 = affine.apply #map71()[%thread_id_x]
        %623 = arith.muli %622, %c8192 overflow<nsw> : index
        %624 = arith.addi %623, %135 overflow<nsw> : index
        %625 = arith.select %621, %624, %c536870911 : index
        vector.store %618, %288[%625] : memref<?xf32, #amdgpu.address_space<fat_raw_buffer>>, vector<1xf32>
        %626 = vector.extract_strided_slice %233 {offsets = [3], sizes = [1], strides = [1]} : vector<4xf32> to vector<1xf32>
        %627 = affine.apply #map72()[%block_id_x, %block_id_y, %3, %thread_id_x]
        %628 = arith.cmpi slt, %627, %276 : index
        %629 = arith.andi %272, %628 : i1
        %630 = affine.apply #map73()[%thread_id_x]
        %631 = arith.muli %630, %c8192 overflow<nsw> : index
        %632 = arith.addi %631, %135 overflow<nsw> : index
        %633 = arith.select %629, %632, %c536870911 : index
        vector.store %626, %288[%633] : memref<?xf32, #amdgpu.address_space<fat_raw_buffer>>, vector<1xf32>
        %634 = vector.extract_strided_slice %234 {offsets = [0], sizes = [1], strides = [1]} : vector<4xf32> to vector<1xf32>
        %635 = arith.andi %316, %604 : i1
        %636 = arith.addi %607, %140 overflow<nsw> : index
        %637 = arith.select %635, %636, %c536870911 : index
        vector.store %634, %288[%637] : memref<?xf32, #amdgpu.address_space<fat_raw_buffer>>, vector<1xf32>
        %638 = vector.extract_strided_slice %234 {offsets = [1], sizes = [1], strides = [1]} : vector<4xf32> to vector<1xf32>
        %639 = arith.andi %316, %612 : i1
        %640 = arith.addi %615, %140 overflow<nsw> : index
        %641 = arith.select %639, %640, %c536870911 : index
        vector.store %638, %288[%641] : memref<?xf32, #amdgpu.address_space<fat_raw_buffer>>, vector<1xf32>
        %642 = vector.extract_strided_slice %234 {offsets = [2], sizes = [1], strides = [1]} : vector<4xf32> to vector<1xf32>
        %643 = arith.andi %316, %620 : i1
        %644 = arith.addi %623, %140 overflow<nsw> : index
        %645 = arith.select %643, %644, %c536870911 : index
        vector.store %642, %288[%645] : memref<?xf32, #amdgpu.address_space<fat_raw_buffer>>, vector<1xf32>
        %646 = vector.extract_strided_slice %234 {offsets = [3], sizes = [1], strides = [1]} : vector<4xf32> to vector<1xf32>
        %647 = arith.andi %316, %628 : i1
        %648 = arith.addi %631, %140 overflow<nsw> : index
        %649 = arith.select %647, %648, %c536870911 : index
        vector.store %646, %288[%649] : memref<?xf32, #amdgpu.address_space<fat_raw_buffer>>, vector<1xf32>
        %650 = vector.extract_strided_slice %235 {offsets = [0], sizes = [1], strides = [1]} : vector<4xf32> to vector<1xf32>
        %651 = arith.andi %334, %604 : i1
        %652 = arith.addi %607, %144 overflow<nsw> : index
        %653 = arith.select %651, %652, %c536870911 : index
        vector.store %650, %288[%653] : memref<?xf32, #amdgpu.address_space<fat_raw_buffer>>, vector<1xf32>
        %654 = vector.extract_strided_slice %235 {offsets = [1], sizes = [1], strides = [1]} : vector<4xf32> to vector<1xf32>
        %655 = arith.andi %334, %612 : i1
        %656 = arith.addi %615, %144 overflow<nsw> : index
        %657 = arith.select %655, %656, %c536870911 : index
        vector.store %654, %288[%657] : memref<?xf32, #amdgpu.address_space<fat_raw_buffer>>, vector<1xf32>
        %658 = vector.extract_strided_slice %235 {offsets = [2], sizes = [1], strides = [1]} : vector<4xf32> to vector<1xf32>
        %659 = arith.andi %334, %620 : i1
        %660 = arith.addi %623, %144 overflow<nsw> : index
        %661 = arith.select %659, %660, %c536870911 : index
        vector.store %658, %288[%661] : memref<?xf32, #amdgpu.address_space<fat_raw_buffer>>, vector<1xf32>
        %662 = vector.extract_strided_slice %235 {offsets = [3], sizes = [1], strides = [1]} : vector<4xf32> to vector<1xf32>
        %663 = arith.andi %334, %628 : i1
        %664 = arith.addi %631, %144 overflow<nsw> : index
        %665 = arith.select %663, %664, %c536870911 : index
        vector.store %662, %288[%665] : memref<?xf32, #amdgpu.address_space<fat_raw_buffer>>, vector<1xf32>
        %666 = vector.extract_strided_slice %236 {offsets = [0], sizes = [1], strides = [1]} : vector<4xf32> to vector<1xf32>
        %667 = arith.andi %352, %604 : i1
        %668 = arith.addi %607, %148 overflow<nsw> : index
        %669 = arith.select %667, %668, %c536870911 : index
        vector.store %666, %288[%669] : memref<?xf32, #amdgpu.address_space<fat_raw_buffer>>, vector<1xf32>
        %670 = vector.extract_strided_slice %236 {offsets = [1], sizes = [1], strides = [1]} : vector<4xf32> to vector<1xf32>
        %671 = arith.andi %352, %612 : i1
        %672 = arith.addi %615, %148 overflow<nsw> : index
        %673 = arith.select %671, %672, %c536870911 : index
        vector.store %670, %288[%673] : memref<?xf32, #amdgpu.address_space<fat_raw_buffer>>, vector<1xf32>
        %674 = vector.extract_strided_slice %236 {offsets = [2], sizes = [1], strides = [1]} : vector<4xf32> to vector<1xf32>
        %675 = arith.andi %352, %620 : i1
        %676 = arith.addi %623, %148 overflow<nsw> : index
        %677 = arith.select %675, %676, %c536870911 : index
        vector.store %674, %288[%677] : memref<?xf32, #amdgpu.address_space<fat_raw_buffer>>, vector<1xf32>
        %678 = vector.extract_strided_slice %236 {offsets = [3], sizes = [1], strides = [1]} : vector<4xf32> to vector<1xf32>
        %679 = arith.andi %352, %628 : i1
        %680 = arith.addi %631, %148 overflow<nsw> : index
        %681 = arith.select %679, %680, %c536870911 : index
        vector.store %678, %288[%681] : memref<?xf32, #amdgpu.address_space<fat_raw_buffer>>, vector<1xf32>
        %682 = vector.extract_strided_slice %237 {offsets = [0], sizes = [1], strides = [1]} : vector<4xf32> to vector<1xf32>
        %683 = arith.andi %370, %604 : i1
        %684 = arith.addi %607, %152 overflow<nsw> : index
        %685 = arith.select %683, %684, %c536870911 : index
        vector.store %682, %288[%685] : memref<?xf32, #amdgpu.address_space<fat_raw_buffer>>, vector<1xf32>
        %686 = vector.extract_strided_slice %237 {offsets = [1], sizes = [1], strides = [1]} : vector<4xf32> to vector<1xf32>
        %687 = arith.andi %370, %612 : i1
        %688 = arith.addi %615, %152 overflow<nsw> : index
        %689 = arith.select %687, %688, %c536870911 : index
        vector.store %686, %288[%689] : memref<?xf32, #amdgpu.address_space<fat_raw_buffer>>, vector<1xf32>
        %690 = vector.extract_strided_slice %237 {offsets = [2], sizes = [1], strides = [1]} : vector<4xf32> to vector<1xf32>
        %691 = arith.andi %370, %620 : i1
        %692 = arith.addi %623, %152 overflow<nsw> : index
        %693 = arith.select %691, %692, %c536870911 : index
        vector.store %690, %288[%693] : memref<?xf32, #amdgpu.address_space<fat_raw_buffer>>, vector<1xf32>
        %694 = vector.extract_strided_slice %237 {offsets = [3], sizes = [1], strides = [1]} : vector<4xf32> to vector<1xf32>
        %695 = arith.andi %370, %628 : i1
        %696 = arith.addi %631, %152 overflow<nsw> : index
        %697 = arith.select %695, %696, %c536870911 : index
        vector.store %694, %288[%697] : memref<?xf32, #amdgpu.address_space<fat_raw_buffer>>, vector<1xf32>
        %698 = vector.extract_strided_slice %238 {offsets = [0], sizes = [1], strides = [1]} : vector<4xf32> to vector<1xf32>
        %699 = arith.andi %388, %604 : i1
        %700 = arith.addi %607, %156 overflow<nsw> : index
        %701 = arith.select %699, %700, %c536870911 : index
        vector.store %698, %288[%701] : memref<?xf32, #amdgpu.address_space<fat_raw_buffer>>, vector<1xf32>
        %702 = vector.extract_strided_slice %238 {offsets = [1], sizes = [1], strides = [1]} : vector<4xf32> to vector<1xf32>
        %703 = arith.andi %388, %612 : i1
        %704 = arith.addi %615, %156 overflow<nsw> : index
        %705 = arith.select %703, %704, %c536870911 : index
        vector.store %702, %288[%705] : memref<?xf32, #amdgpu.address_space<fat_raw_buffer>>, vector<1xf32>
        %706 = vector.extract_strided_slice %238 {offsets = [2], sizes = [1], strides = [1]} : vector<4xf32> to vector<1xf32>
        %707 = arith.andi %388, %620 : i1
        %708 = arith.addi %623, %156 overflow<nsw> : index
        %709 = arith.select %707, %708, %c536870911 : index
        vector.store %706, %288[%709] : memref<?xf32, #amdgpu.address_space<fat_raw_buffer>>, vector<1xf32>
        %710 = vector.extract_strided_slice %238 {offsets = [3], sizes = [1], strides = [1]} : vector<4xf32> to vector<1xf32>
        %711 = arith.andi %388, %628 : i1
        %712 = arith.addi %631, %156 overflow<nsw> : index
        %713 = arith.select %711, %712, %c536870911 : index
        vector.store %710, %288[%713] : memref<?xf32, #amdgpu.address_space<fat_raw_buffer>>, vector<1xf32>
        %714 = vector.extract_strided_slice %239 {offsets = [0], sizes = [1], strides = [1]} : vector<4xf32> to vector<1xf32>
        %715 = arith.andi %406, %604 : i1
        %716 = arith.addi %607, %160 overflow<nsw> : index
        %717 = arith.select %715, %716, %c536870911 : index
        vector.store %714, %288[%717] : memref<?xf32, #amdgpu.address_space<fat_raw_buffer>>, vector<1xf32>
        %718 = vector.extract_strided_slice %239 {offsets = [1], sizes = [1], strides = [1]} : vector<4xf32> to vector<1xf32>
        %719 = arith.andi %406, %612 : i1
        %720 = arith.addi %615, %160 overflow<nsw> : index
        %721 = arith.select %719, %720, %c536870911 : index
        vector.store %718, %288[%721] : memref<?xf32, #amdgpu.address_space<fat_raw_buffer>>, vector<1xf32>
        %722 = vector.extract_strided_slice %239 {offsets = [2], sizes = [1], strides = [1]} : vector<4xf32> to vector<1xf32>
        %723 = arith.andi %406, %620 : i1
        %724 = arith.addi %623, %160 overflow<nsw> : index
        %725 = arith.select %723, %724, %c536870911 : index
        vector.store %722, %288[%725] : memref<?xf32, #amdgpu.address_space<fat_raw_buffer>>, vector<1xf32>
        %726 = vector.extract_strided_slice %239 {offsets = [3], sizes = [1], strides = [1]} : vector<4xf32> to vector<1xf32>
        %727 = arith.andi %406, %628 : i1
        %728 = arith.addi %631, %160 overflow<nsw> : index
        %729 = arith.select %727, %728, %c536870911 : index
        vector.store %726, %288[%729] : memref<?xf32, #amdgpu.address_space<fat_raw_buffer>>, vector<1xf32>
        %730 = vector.extract_strided_slice %240 {offsets = [0], sizes = [1], strides = [1]} : vector<4xf32> to vector<1xf32>
        %731 = arith.andi %424, %604 : i1
        %732 = arith.addi %607, %164 overflow<nsw> : index
        %733 = arith.select %731, %732, %c536870911 : index
        vector.store %730, %288[%733] : memref<?xf32, #amdgpu.address_space<fat_raw_buffer>>, vector<1xf32>
        %734 = vector.extract_strided_slice %240 {offsets = [1], sizes = [1], strides = [1]} : vector<4xf32> to vector<1xf32>
        %735 = arith.andi %424, %612 : i1
        %736 = arith.addi %615, %164 overflow<nsw> : index
        %737 = arith.select %735, %736, %c536870911 : index
        vector.store %734, %288[%737] : memref<?xf32, #amdgpu.address_space<fat_raw_buffer>>, vector<1xf32>
        %738 = vector.extract_strided_slice %240 {offsets = [2], sizes = [1], strides = [1]} : vector<4xf32> to vector<1xf32>
        %739 = arith.andi %424, %620 : i1
        %740 = arith.addi %623, %164 overflow<nsw> : index
        %741 = arith.select %739, %740, %c536870911 : index
        vector.store %738, %288[%741] : memref<?xf32, #amdgpu.address_space<fat_raw_buffer>>, vector<1xf32>
        %742 = vector.extract_strided_slice %240 {offsets = [3], sizes = [1], strides = [1]} : vector<4xf32> to vector<1xf32>
        %743 = arith.andi %424, %628 : i1
        %744 = arith.addi %631, %164 overflow<nsw> : index
        %745 = arith.select %743, %744, %c536870911 : index
        vector.store %742, %288[%745] : memref<?xf32, #amdgpu.address_space<fat_raw_buffer>>, vector<1xf32>
        %746 = vector.extract_strided_slice %241 {offsets = [0], sizes = [1], strides = [1]} : vector<4xf32> to vector<1xf32>
        %747 = arith.andi %442, %604 : i1
        %748 = arith.addi %607, %168 overflow<nsw> : index
        %749 = arith.select %747, %748, %c536870911 : index
        vector.store %746, %288[%749] : memref<?xf32, #amdgpu.address_space<fat_raw_buffer>>, vector<1xf32>
        %750 = vector.extract_strided_slice %241 {offsets = [1], sizes = [1], strides = [1]} : vector<4xf32> to vector<1xf32>
        %751 = arith.andi %442, %612 : i1
        %752 = arith.addi %615, %168 overflow<nsw> : index
        %753 = arith.select %751, %752, %c536870911 : index
        vector.store %750, %288[%753] : memref<?xf32, #amdgpu.address_space<fat_raw_buffer>>, vector<1xf32>
        %754 = vector.extract_strided_slice %241 {offsets = [2], sizes = [1], strides = [1]} : vector<4xf32> to vector<1xf32>
        %755 = arith.andi %442, %620 : i1
        %756 = arith.addi %623, %168 overflow<nsw> : index
        %757 = arith.select %755, %756, %c536870911 : index
        vector.store %754, %288[%757] : memref<?xf32, #amdgpu.address_space<fat_raw_buffer>>, vector<1xf32>
        %758 = vector.extract_strided_slice %241 {offsets = [3], sizes = [1], strides = [1]} : vector<4xf32> to vector<1xf32>
        %759 = arith.andi %442, %628 : i1
        %760 = arith.addi %631, %168 overflow<nsw> : index
        %761 = arith.select %759, %760, %c536870911 : index
        vector.store %758, %288[%761] : memref<?xf32, #amdgpu.address_space<fat_raw_buffer>>, vector<1xf32>
        %762 = vector.extract_strided_slice %242 {offsets = [0], sizes = [1], strides = [1]} : vector<4xf32> to vector<1xf32>
        %763 = arith.andi %460, %604 : i1
        %764 = arith.addi %607, %172 overflow<nsw> : index
        %765 = arith.select %763, %764, %c536870911 : index
        vector.store %762, %288[%765] : memref<?xf32, #amdgpu.address_space<fat_raw_buffer>>, vector<1xf32>
        %766 = vector.extract_strided_slice %242 {offsets = [1], sizes = [1], strides = [1]} : vector<4xf32> to vector<1xf32>
        %767 = arith.andi %460, %612 : i1
        %768 = arith.addi %615, %172 overflow<nsw> : index
        %769 = arith.select %767, %768, %c536870911 : index
        vector.store %766, %288[%769] : memref<?xf32, #amdgpu.address_space<fat_raw_buffer>>, vector<1xf32>
        %770 = vector.extract_strided_slice %242 {offsets = [2], sizes = [1], strides = [1]} : vector<4xf32> to vector<1xf32>
        %771 = arith.andi %460, %620 : i1
        %772 = arith.addi %623, %172 overflow<nsw> : index
        %773 = arith.select %771, %772, %c536870911 : index
        vector.store %770, %288[%773] : memref<?xf32, #amdgpu.address_space<fat_raw_buffer>>, vector<1xf32>
        %774 = vector.extract_strided_slice %242 {offsets = [3], sizes = [1], strides = [1]} : vector<4xf32> to vector<1xf32>
        %775 = arith.andi %460, %628 : i1
        %776 = arith.addi %631, %172 overflow<nsw> : index
        %777 = arith.select %775, %776, %c536870911 : index
        vector.store %774, %288[%777] : memref<?xf32, #amdgpu.address_space<fat_raw_buffer>>, vector<1xf32>
        %778 = vector.extract_strided_slice %243 {offsets = [0], sizes = [1], strides = [1]} : vector<4xf32> to vector<1xf32>
        %779 = arith.andi %478, %604 : i1
        %780 = arith.addi %607, %176 overflow<nsw> : index
        %781 = arith.select %779, %780, %c536870911 : index
        vector.store %778, %288[%781] : memref<?xf32, #amdgpu.address_space<fat_raw_buffer>>, vector<1xf32>
        %782 = vector.extract_strided_slice %243 {offsets = [1], sizes = [1], strides = [1]} : vector<4xf32> to vector<1xf32>
        %783 = arith.andi %478, %612 : i1
        %784 = arith.addi %615, %176 overflow<nsw> : index
        %785 = arith.select %783, %784, %c536870911 : index
        vector.store %782, %288[%785] : memref<?xf32, #amdgpu.address_space<fat_raw_buffer>>, vector<1xf32>
        %786 = vector.extract_strided_slice %243 {offsets = [2], sizes = [1], strides = [1]} : vector<4xf32> to vector<1xf32>
        %787 = arith.andi %478, %620 : i1
        %788 = arith.addi %623, %176 overflow<nsw> : index
        %789 = arith.select %787, %788, %c536870911 : index
        vector.store %786, %288[%789] : memref<?xf32, #amdgpu.address_space<fat_raw_buffer>>, vector<1xf32>
        %790 = vector.extract_strided_slice %243 {offsets = [3], sizes = [1], strides = [1]} : vector<4xf32> to vector<1xf32>
        %791 = arith.andi %478, %628 : i1
        %792 = arith.addi %631, %176 overflow<nsw> : index
        %793 = arith.select %791, %792, %c536870911 : index
        vector.store %790, %288[%793] : memref<?xf32, #amdgpu.address_space<fat_raw_buffer>>, vector<1xf32>
        %794 = vector.extract_strided_slice %244 {offsets = [0], sizes = [1], strides = [1]} : vector<4xf32> to vector<1xf32>
        %795 = arith.andi %496, %604 : i1
        %796 = arith.addi %607, %180 overflow<nsw> : index
        %797 = arith.select %795, %796, %c536870911 : index
        vector.store %794, %288[%797] : memref<?xf32, #amdgpu.address_space<fat_raw_buffer>>, vector<1xf32>
        %798 = vector.extract_strided_slice %244 {offsets = [1], sizes = [1], strides = [1]} : vector<4xf32> to vector<1xf32>
        %799 = arith.andi %496, %612 : i1
        %800 = arith.addi %615, %180 overflow<nsw> : index
        %801 = arith.select %799, %800, %c536870911 : index
        vector.store %798, %288[%801] : memref<?xf32, #amdgpu.address_space<fat_raw_buffer>>, vector<1xf32>
        %802 = vector.extract_strided_slice %244 {offsets = [2], sizes = [1], strides = [1]} : vector<4xf32> to vector<1xf32>
        %803 = arith.andi %496, %620 : i1
        %804 = arith.addi %623, %180 overflow<nsw> : index
        %805 = arith.select %803, %804, %c536870911 : index
        vector.store %802, %288[%805] : memref<?xf32, #amdgpu.address_space<fat_raw_buffer>>, vector<1xf32>
        %806 = vector.extract_strided_slice %244 {offsets = [3], sizes = [1], strides = [1]} : vector<4xf32> to vector<1xf32>
        %807 = arith.andi %496, %628 : i1
        %808 = arith.addi %631, %180 overflow<nsw> : index
        %809 = arith.select %807, %808, %c536870911 : index
        vector.store %806, %288[%809] : memref<?xf32, #amdgpu.address_space<fat_raw_buffer>>, vector<1xf32>
        %810 = vector.extract_strided_slice %245 {offsets = [0], sizes = [1], strides = [1]} : vector<4xf32> to vector<1xf32>
        %811 = arith.andi %514, %604 : i1
        %812 = arith.addi %607, %184 overflow<nsw> : index
        %813 = arith.select %811, %812, %c536870911 : index
        vector.store %810, %288[%813] : memref<?xf32, #amdgpu.address_space<fat_raw_buffer>>, vector<1xf32>
        %814 = vector.extract_strided_slice %245 {offsets = [1], sizes = [1], strides = [1]} : vector<4xf32> to vector<1xf32>
        %815 = arith.andi %514, %612 : i1
        %816 = arith.addi %615, %184 overflow<nsw> : index
        %817 = arith.select %815, %816, %c536870911 : index
        vector.store %814, %288[%817] : memref<?xf32, #amdgpu.address_space<fat_raw_buffer>>, vector<1xf32>
        %818 = vector.extract_strided_slice %245 {offsets = [2], sizes = [1], strides = [1]} : vector<4xf32> to vector<1xf32>
        %819 = arith.andi %514, %620 : i1
        %820 = arith.addi %623, %184 overflow<nsw> : index
        %821 = arith.select %819, %820, %c536870911 : index
        vector.store %818, %288[%821] : memref<?xf32, #amdgpu.address_space<fat_raw_buffer>>, vector<1xf32>
        %822 = vector.extract_strided_slice %245 {offsets = [3], sizes = [1], strides = [1]} : vector<4xf32> to vector<1xf32>
        %823 = arith.andi %514, %628 : i1
        %824 = arith.addi %631, %184 overflow<nsw> : index
        %825 = arith.select %823, %824, %c536870911 : index
        vector.store %822, %288[%825] : memref<?xf32, #amdgpu.address_space<fat_raw_buffer>>, vector<1xf32>
        %826 = vector.extract_strided_slice %246 {offsets = [0], sizes = [1], strides = [1]} : vector<4xf32> to vector<1xf32>
        %827 = arith.andi %532, %604 : i1
        %828 = arith.addi %607, %188 overflow<nsw> : index
        %829 = arith.select %827, %828, %c536870911 : index
        vector.store %826, %288[%829] : memref<?xf32, #amdgpu.address_space<fat_raw_buffer>>, vector<1xf32>
        %830 = vector.extract_strided_slice %246 {offsets = [1], sizes = [1], strides = [1]} : vector<4xf32> to vector<1xf32>
        %831 = arith.andi %532, %612 : i1
        %832 = arith.addi %615, %188 overflow<nsw> : index
        %833 = arith.select %831, %832, %c536870911 : index
        vector.store %830, %288[%833] : memref<?xf32, #amdgpu.address_space<fat_raw_buffer>>, vector<1xf32>
        %834 = vector.extract_strided_slice %246 {offsets = [2], sizes = [1], strides = [1]} : vector<4xf32> to vector<1xf32>
        %835 = arith.andi %532, %620 : i1
        %836 = arith.addi %623, %188 overflow<nsw> : index
        %837 = arith.select %835, %836, %c536870911 : index
        vector.store %834, %288[%837] : memref<?xf32, #amdgpu.address_space<fat_raw_buffer>>, vector<1xf32>
        %838 = vector.extract_strided_slice %246 {offsets = [3], sizes = [1], strides = [1]} : vector<4xf32> to vector<1xf32>
        %839 = arith.andi %532, %628 : i1
        %840 = arith.addi %631, %188 overflow<nsw> : index
        %841 = arith.select %839, %840, %c536870911 : index
        vector.store %838, %288[%841] : memref<?xf32, #amdgpu.address_space<fat_raw_buffer>>, vector<1xf32>
        %842 = vector.extract_strided_slice %247 {offsets = [0], sizes = [1], strides = [1]} : vector<4xf32> to vector<1xf32>
        %843 = arith.andi %550, %604 : i1
        %844 = arith.addi %607, %192 overflow<nsw> : index
        %845 = arith.select %843, %844, %c536870911 : index
        vector.store %842, %288[%845] : memref<?xf32, #amdgpu.address_space<fat_raw_buffer>>, vector<1xf32>
        %846 = vector.extract_strided_slice %247 {offsets = [1], sizes = [1], strides = [1]} : vector<4xf32> to vector<1xf32>
        %847 = arith.andi %550, %612 : i1
        %848 = arith.addi %615, %192 overflow<nsw> : index
        %849 = arith.select %847, %848, %c536870911 : index
        vector.store %846, %288[%849] : memref<?xf32, #amdgpu.address_space<fat_raw_buffer>>, vector<1xf32>
        %850 = vector.extract_strided_slice %247 {offsets = [2], sizes = [1], strides = [1]} : vector<4xf32> to vector<1xf32>
        %851 = arith.andi %550, %620 : i1
        %852 = arith.addi %623, %192 overflow<nsw> : index
        %853 = arith.select %851, %852, %c536870911 : index
        vector.store %850, %288[%853] : memref<?xf32, #amdgpu.address_space<fat_raw_buffer>>, vector<1xf32>
        %854 = vector.extract_strided_slice %247 {offsets = [3], sizes = [1], strides = [1]} : vector<4xf32> to vector<1xf32>
        %855 = arith.andi %550, %628 : i1
        %856 = arith.addi %631, %192 overflow<nsw> : index
        %857 = arith.select %855, %856, %c536870911 : index
        vector.store %854, %288[%857] : memref<?xf32, #amdgpu.address_space<fat_raw_buffer>>, vector<1xf32>
        %858 = vector.extract_strided_slice %248 {offsets = [0], sizes = [1], strides = [1]} : vector<4xf32> to vector<1xf32>
        %859 = arith.andi %568, %604 : i1
        %860 = arith.addi %607, %196 overflow<nsw> : index
        %861 = arith.select %859, %860, %c536870911 : index
        vector.store %858, %288[%861] : memref<?xf32, #amdgpu.address_space<fat_raw_buffer>>, vector<1xf32>
        %862 = vector.extract_strided_slice %248 {offsets = [1], sizes = [1], strides = [1]} : vector<4xf32> to vector<1xf32>
        %863 = arith.andi %568, %612 : i1
        %864 = arith.addi %615, %196 overflow<nsw> : index
        %865 = arith.select %863, %864, %c536870911 : index
        vector.store %862, %288[%865] : memref<?xf32, #amdgpu.address_space<fat_raw_buffer>>, vector<1xf32>
        %866 = vector.extract_strided_slice %248 {offsets = [2], sizes = [1], strides = [1]} : vector<4xf32> to vector<1xf32>
        %867 = arith.andi %568, %620 : i1
        %868 = arith.addi %623, %196 overflow<nsw> : index
        %869 = arith.select %867, %868, %c536870911 : index
        vector.store %866, %288[%869] : memref<?xf32, #amdgpu.address_space<fat_raw_buffer>>, vector<1xf32>
        %870 = vector.extract_strided_slice %248 {offsets = [3], sizes = [1], strides = [1]} : vector<4xf32> to vector<1xf32>
        %871 = arith.andi %568, %628 : i1
        %872 = arith.addi %631, %196 overflow<nsw> : index
        %873 = arith.select %871, %872, %c536870911 : index
        vector.store %870, %288[%873] : memref<?xf32, #amdgpu.address_space<fat_raw_buffer>>, vector<1xf32>
        %874 = vector.extract_strided_slice %249 {offsets = [0], sizes = [1], strides = [1]} : vector<4xf32> to vector<1xf32>
        %875 = arith.andi %586, %604 : i1
        %876 = arith.addi %607, %200 overflow<nsw> : index
        %877 = arith.select %875, %876, %c536870911 : index
        vector.store %874, %288[%877] : memref<?xf32, #amdgpu.address_space<fat_raw_buffer>>, vector<1xf32>
        %878 = vector.extract_strided_slice %249 {offsets = [1], sizes = [1], strides = [1]} : vector<4xf32> to vector<1xf32>
        %879 = arith.andi %586, %612 : i1
        %880 = arith.addi %615, %200 overflow<nsw> : index
        %881 = arith.select %879, %880, %c536870911 : index
        vector.store %878, %288[%881] : memref<?xf32, #amdgpu.address_space<fat_raw_buffer>>, vector<1xf32>
        %882 = vector.extract_strided_slice %249 {offsets = [2], sizes = [1], strides = [1]} : vector<4xf32> to vector<1xf32>
        %883 = arith.andi %586, %620 : i1
        %884 = arith.addi %623, %200 overflow<nsw> : index
        %885 = arith.select %883, %884, %c536870911 : index
        vector.store %882, %288[%885] : memref<?xf32, #amdgpu.address_space<fat_raw_buffer>>, vector<1xf32>
        %886 = vector.extract_strided_slice %249 {offsets = [3], sizes = [1], strides = [1]} : vector<4xf32> to vector<1xf32>
        %887 = arith.andi %586, %628 : i1
        %888 = arith.addi %631, %200 overflow<nsw> : index
        %889 = arith.select %887, %888, %c536870911 : index
        vector.store %886, %288[%889] : memref<?xf32, #amdgpu.address_space<fat_raw_buffer>>, vector<1xf32>
        %890 = vector.extract_strided_slice %250 {offsets = [0], sizes = [1], strides = [1]} : vector<4xf32> to vector<1xf32>
        %891 = affine.apply #map74()[%block_id_x, %block_id_y, %3, %thread_id_x]
        %892 = arith.cmpi slt, %891, %276 : index
        %893 = arith.andi %272, %892 : i1
        %894 = affine.apply #map75()[%thread_id_x]
        %895 = arith.muli %894, %c8192 overflow<nsw> : index
        %896 = arith.addi %895, %135 overflow<nsw> : index
        %897 = arith.select %893, %896, %c536870911 : index
        vector.store %890, %288[%897] : memref<?xf32, #amdgpu.address_space<fat_raw_buffer>>, vector<1xf32>
        %898 = vector.extract_strided_slice %250 {offsets = [1], sizes = [1], strides = [1]} : vector<4xf32> to vector<1xf32>
        %899 = affine.apply #map76()[%block_id_x, %block_id_y, %3, %thread_id_x]
        %900 = arith.cmpi slt, %899, %276 : index
        %901 = arith.andi %272, %900 : i1
        %902 = affine.apply #map77()[%thread_id_x]
        %903 = arith.muli %902, %c8192 overflow<nsw> : index
        %904 = arith.addi %903, %135 overflow<nsw> : index
        %905 = arith.select %901, %904, %c536870911 : index
        vector.store %898, %288[%905] : memref<?xf32, #amdgpu.address_space<fat_raw_buffer>>, vector<1xf32>
        %906 = vector.extract_strided_slice %250 {offsets = [2], sizes = [1], strides = [1]} : vector<4xf32> to vector<1xf32>
        %907 = affine.apply #map78()[%block_id_x, %block_id_y, %3, %thread_id_x]
        %908 = arith.cmpi slt, %907, %276 : index
        %909 = arith.andi %272, %908 : i1
        %910 = affine.apply #map79()[%thread_id_x]
        %911 = arith.muli %910, %c8192 overflow<nsw> : index
        %912 = arith.addi %911, %135 overflow<nsw> : index
        %913 = arith.select %909, %912, %c536870911 : index
        vector.store %906, %288[%913] : memref<?xf32, #amdgpu.address_space<fat_raw_buffer>>, vector<1xf32>
        %914 = vector.extract_strided_slice %250 {offsets = [3], sizes = [1], strides = [1]} : vector<4xf32> to vector<1xf32>
        %915 = affine.apply #map80()[%block_id_x, %block_id_y, %3, %thread_id_x]
        %916 = arith.cmpi slt, %915, %276 : index
        %917 = arith.andi %272, %916 : i1
        %918 = affine.apply #map81()[%thread_id_x]
        %919 = arith.muli %918, %c8192 overflow<nsw> : index
        %920 = arith.addi %919, %135 overflow<nsw> : index
        %921 = arith.select %917, %920, %c536870911 : index
        vector.store %914, %288[%921] : memref<?xf32, #amdgpu.address_space<fat_raw_buffer>>, vector<1xf32>
        %922 = vector.extract_strided_slice %251 {offsets = [0], sizes = [1], strides = [1]} : vector<4xf32> to vector<1xf32>
        %923 = arith.andi %316, %892 : i1
        %924 = arith.addi %895, %140 overflow<nsw> : index
        %925 = arith.select %923, %924, %c536870911 : index
        vector.store %922, %288[%925] : memref<?xf32, #amdgpu.address_space<fat_raw_buffer>>, vector<1xf32>
        %926 = vector.extract_strided_slice %251 {offsets = [1], sizes = [1], strides = [1]} : vector<4xf32> to vector<1xf32>
        %927 = arith.andi %316, %900 : i1
        %928 = arith.addi %903, %140 overflow<nsw> : index
        %929 = arith.select %927, %928, %c536870911 : index
        vector.store %926, %288[%929] : memref<?xf32, #amdgpu.address_space<fat_raw_buffer>>, vector<1xf32>
        %930 = vector.extract_strided_slice %251 {offsets = [2], sizes = [1], strides = [1]} : vector<4xf32> to vector<1xf32>
        %931 = arith.andi %316, %908 : i1
        %932 = arith.addi %911, %140 overflow<nsw> : index
        %933 = arith.select %931, %932, %c536870911 : index
        vector.store %930, %288[%933] : memref<?xf32, #amdgpu.address_space<fat_raw_buffer>>, vector<1xf32>
        %934 = vector.extract_strided_slice %251 {offsets = [3], sizes = [1], strides = [1]} : vector<4xf32> to vector<1xf32>
        %935 = arith.andi %316, %916 : i1
        %936 = arith.addi %919, %140 overflow<nsw> : index
        %937 = arith.select %935, %936, %c536870911 : index
        vector.store %934, %288[%937] : memref<?xf32, #amdgpu.address_space<fat_raw_buffer>>, vector<1xf32>
        %938 = vector.extract_strided_slice %252 {offsets = [0], sizes = [1], strides = [1]} : vector<4xf32> to vector<1xf32>
        %939 = arith.andi %334, %892 : i1
        %940 = arith.addi %895, %144 overflow<nsw> : index
        %941 = arith.select %939, %940, %c536870911 : index
        vector.store %938, %288[%941] : memref<?xf32, #amdgpu.address_space<fat_raw_buffer>>, vector<1xf32>
        %942 = vector.extract_strided_slice %252 {offsets = [1], sizes = [1], strides = [1]} : vector<4xf32> to vector<1xf32>
        %943 = arith.andi %334, %900 : i1
        %944 = arith.addi %903, %144 overflow<nsw> : index
        %945 = arith.select %943, %944, %c536870911 : index
        vector.store %942, %288[%945] : memref<?xf32, #amdgpu.address_space<fat_raw_buffer>>, vector<1xf32>
        %946 = vector.extract_strided_slice %252 {offsets = [2], sizes = [1], strides = [1]} : vector<4xf32> to vector<1xf32>
        %947 = arith.andi %334, %908 : i1
        %948 = arith.addi %911, %144 overflow<nsw> : index
        %949 = arith.select %947, %948, %c536870911 : index
        vector.store %946, %288[%949] : memref<?xf32, #amdgpu.address_space<fat_raw_buffer>>, vector<1xf32>
        %950 = vector.extract_strided_slice %252 {offsets = [3], sizes = [1], strides = [1]} : vector<4xf32> to vector<1xf32>
        %951 = arith.andi %334, %916 : i1
        %952 = arith.addi %919, %144 overflow<nsw> : index
        %953 = arith.select %951, %952, %c536870911 : index
        vector.store %950, %288[%953] : memref<?xf32, #amdgpu.address_space<fat_raw_buffer>>, vector<1xf32>
        %954 = vector.extract_strided_slice %253 {offsets = [0], sizes = [1], strides = [1]} : vector<4xf32> to vector<1xf32>
        %955 = arith.andi %352, %892 : i1
        %956 = arith.addi %895, %148 overflow<nsw> : index
        %957 = arith.select %955, %956, %c536870911 : index
        vector.store %954, %288[%957] : memref<?xf32, #amdgpu.address_space<fat_raw_buffer>>, vector<1xf32>
        %958 = vector.extract_strided_slice %253 {offsets = [1], sizes = [1], strides = [1]} : vector<4xf32> to vector<1xf32>
        %959 = arith.andi %352, %900 : i1
        %960 = arith.addi %903, %148 overflow<nsw> : index
        %961 = arith.select %959, %960, %c536870911 : index
        vector.store %958, %288[%961] : memref<?xf32, #amdgpu.address_space<fat_raw_buffer>>, vector<1xf32>
        %962 = vector.extract_strided_slice %253 {offsets = [2], sizes = [1], strides = [1]} : vector<4xf32> to vector<1xf32>
        %963 = arith.andi %352, %908 : i1
        %964 = arith.addi %911, %148 overflow<nsw> : index
        %965 = arith.select %963, %964, %c536870911 : index
        vector.store %962, %288[%965] : memref<?xf32, #amdgpu.address_space<fat_raw_buffer>>, vector<1xf32>
        %966 = vector.extract_strided_slice %253 {offsets = [3], sizes = [1], strides = [1]} : vector<4xf32> to vector<1xf32>
        %967 = arith.andi %352, %916 : i1
        %968 = arith.addi %919, %148 overflow<nsw> : index
        %969 = arith.select %967, %968, %c536870911 : index
        vector.store %966, %288[%969] : memref<?xf32, #amdgpu.address_space<fat_raw_buffer>>, vector<1xf32>
        %970 = vector.extract_strided_slice %254 {offsets = [0], sizes = [1], strides = [1]} : vector<4xf32> to vector<1xf32>
        %971 = arith.andi %370, %892 : i1
        %972 = arith.addi %895, %152 overflow<nsw> : index
        %973 = arith.select %971, %972, %c536870911 : index
        vector.store %970, %288[%973] : memref<?xf32, #amdgpu.address_space<fat_raw_buffer>>, vector<1xf32>
        %974 = vector.extract_strided_slice %254 {offsets = [1], sizes = [1], strides = [1]} : vector<4xf32> to vector<1xf32>
        %975 = arith.andi %370, %900 : i1
        %976 = arith.addi %903, %152 overflow<nsw> : index
        %977 = arith.select %975, %976, %c536870911 : index
        vector.store %974, %288[%977] : memref<?xf32, #amdgpu.address_space<fat_raw_buffer>>, vector<1xf32>
        %978 = vector.extract_strided_slice %254 {offsets = [2], sizes = [1], strides = [1]} : vector<4xf32> to vector<1xf32>
        %979 = arith.andi %370, %908 : i1
        %980 = arith.addi %911, %152 overflow<nsw> : index
        %981 = arith.select %979, %980, %c536870911 : index
        vector.store %978, %288[%981] : memref<?xf32, #amdgpu.address_space<fat_raw_buffer>>, vector<1xf32>
        %982 = vector.extract_strided_slice %254 {offsets = [3], sizes = [1], strides = [1]} : vector<4xf32> to vector<1xf32>
        %983 = arith.andi %370, %916 : i1
        %984 = arith.addi %919, %152 overflow<nsw> : index
        %985 = arith.select %983, %984, %c536870911 : index
        vector.store %982, %288[%985] : memref<?xf32, #amdgpu.address_space<fat_raw_buffer>>, vector<1xf32>
        %986 = vector.extract_strided_slice %255 {offsets = [0], sizes = [1], strides = [1]} : vector<4xf32> to vector<1xf32>
        %987 = arith.andi %388, %892 : i1
        %988 = arith.addi %895, %156 overflow<nsw> : index
        %989 = arith.select %987, %988, %c536870911 : index
        vector.store %986, %288[%989] : memref<?xf32, #amdgpu.address_space<fat_raw_buffer>>, vector<1xf32>
        %990 = vector.extract_strided_slice %255 {offsets = [1], sizes = [1], strides = [1]} : vector<4xf32> to vector<1xf32>
        %991 = arith.andi %388, %900 : i1
        %992 = arith.addi %903, %156 overflow<nsw> : index
        %993 = arith.select %991, %992, %c536870911 : index
        vector.store %990, %288[%993] : memref<?xf32, #amdgpu.address_space<fat_raw_buffer>>, vector<1xf32>
        %994 = vector.extract_strided_slice %255 {offsets = [2], sizes = [1], strides = [1]} : vector<4xf32> to vector<1xf32>
        %995 = arith.andi %388, %908 : i1
        %996 = arith.addi %911, %156 overflow<nsw> : index
        %997 = arith.select %995, %996, %c536870911 : index
        vector.store %994, %288[%997] : memref<?xf32, #amdgpu.address_space<fat_raw_buffer>>, vector<1xf32>
        %998 = vector.extract_strided_slice %255 {offsets = [3], sizes = [1], strides = [1]} : vector<4xf32> to vector<1xf32>
        %999 = arith.andi %388, %916 : i1
        %1000 = arith.addi %919, %156 overflow<nsw> : index
        %1001 = arith.select %999, %1000, %c536870911 : index
        vector.store %998, %288[%1001] : memref<?xf32, #amdgpu.address_space<fat_raw_buffer>>, vector<1xf32>
        %1002 = vector.extract_strided_slice %256 {offsets = [0], sizes = [1], strides = [1]} : vector<4xf32> to vector<1xf32>
        %1003 = arith.andi %406, %892 : i1
        %1004 = arith.addi %895, %160 overflow<nsw> : index
        %1005 = arith.select %1003, %1004, %c536870911 : index
        vector.store %1002, %288[%1005] : memref<?xf32, #amdgpu.address_space<fat_raw_buffer>>, vector<1xf32>
        %1006 = vector.extract_strided_slice %256 {offsets = [1], sizes = [1], strides = [1]} : vector<4xf32> to vector<1xf32>
        %1007 = arith.andi %406, %900 : i1
        %1008 = arith.addi %903, %160 overflow<nsw> : index
        %1009 = arith.select %1007, %1008, %c536870911 : index
        vector.store %1006, %288[%1009] : memref<?xf32, #amdgpu.address_space<fat_raw_buffer>>, vector<1xf32>
        %1010 = vector.extract_strided_slice %256 {offsets = [2], sizes = [1], strides = [1]} : vector<4xf32> to vector<1xf32>
        %1011 = arith.andi %406, %908 : i1
        %1012 = arith.addi %911, %160 overflow<nsw> : index
        %1013 = arith.select %1011, %1012, %c536870911 : index
        vector.store %1010, %288[%1013] : memref<?xf32, #amdgpu.address_space<fat_raw_buffer>>, vector<1xf32>
        %1014 = vector.extract_strided_slice %256 {offsets = [3], sizes = [1], strides = [1]} : vector<4xf32> to vector<1xf32>
        %1015 = arith.andi %406, %916 : i1
        %1016 = arith.addi %919, %160 overflow<nsw> : index
        %1017 = arith.select %1015, %1016, %c536870911 : index
        vector.store %1014, %288[%1017] : memref<?xf32, #amdgpu.address_space<fat_raw_buffer>>, vector<1xf32>
        %1018 = vector.extract_strided_slice %257 {offsets = [0], sizes = [1], strides = [1]} : vector<4xf32> to vector<1xf32>
        %1019 = arith.andi %424, %892 : i1
        %1020 = arith.addi %895, %164 overflow<nsw> : index
        %1021 = arith.select %1019, %1020, %c536870911 : index
        vector.store %1018, %288[%1021] : memref<?xf32, #amdgpu.address_space<fat_raw_buffer>>, vector<1xf32>
        %1022 = vector.extract_strided_slice %257 {offsets = [1], sizes = [1], strides = [1]} : vector<4xf32> to vector<1xf32>
        %1023 = arith.andi %424, %900 : i1
        %1024 = arith.addi %903, %164 overflow<nsw> : index
        %1025 = arith.select %1023, %1024, %c536870911 : index
        vector.store %1022, %288[%1025] : memref<?xf32, #amdgpu.address_space<fat_raw_buffer>>, vector<1xf32>
        %1026 = vector.extract_strided_slice %257 {offsets = [2], sizes = [1], strides = [1]} : vector<4xf32> to vector<1xf32>
        %1027 = arith.andi %424, %908 : i1
        %1028 = arith.addi %911, %164 overflow<nsw> : index
        %1029 = arith.select %1027, %1028, %c536870911 : index
        vector.store %1026, %288[%1029] : memref<?xf32, #amdgpu.address_space<fat_raw_buffer>>, vector<1xf32>
        %1030 = vector.extract_strided_slice %257 {offsets = [3], sizes = [1], strides = [1]} : vector<4xf32> to vector<1xf32>
        %1031 = arith.andi %424, %916 : i1
        %1032 = arith.addi %919, %164 overflow<nsw> : index
        %1033 = arith.select %1031, %1032, %c536870911 : index
        vector.store %1030, %288[%1033] : memref<?xf32, #amdgpu.address_space<fat_raw_buffer>>, vector<1xf32>
        %1034 = vector.extract_strided_slice %258 {offsets = [0], sizes = [1], strides = [1]} : vector<4xf32> to vector<1xf32>
        %1035 = arith.andi %442, %892 : i1
        %1036 = arith.addi %895, %168 overflow<nsw> : index
        %1037 = arith.select %1035, %1036, %c536870911 : index
        vector.store %1034, %288[%1037] : memref<?xf32, #amdgpu.address_space<fat_raw_buffer>>, vector<1xf32>
        %1038 = vector.extract_strided_slice %258 {offsets = [1], sizes = [1], strides = [1]} : vector<4xf32> to vector<1xf32>
        %1039 = arith.andi %442, %900 : i1
        %1040 = arith.addi %903, %168 overflow<nsw> : index
        %1041 = arith.select %1039, %1040, %c536870911 : index
        vector.store %1038, %288[%1041] : memref<?xf32, #amdgpu.address_space<fat_raw_buffer>>, vector<1xf32>
        %1042 = vector.extract_strided_slice %258 {offsets = [2], sizes = [1], strides = [1]} : vector<4xf32> to vector<1xf32>
        %1043 = arith.andi %442, %908 : i1
        %1044 = arith.addi %911, %168 overflow<nsw> : index
        %1045 = arith.select %1043, %1044, %c536870911 : index
        vector.store %1042, %288[%1045] : memref<?xf32, #amdgpu.address_space<fat_raw_buffer>>, vector<1xf32>
        %1046 = vector.extract_strided_slice %258 {offsets = [3], sizes = [1], strides = [1]} : vector<4xf32> to vector<1xf32>
        %1047 = arith.andi %442, %916 : i1
        %1048 = arith.addi %919, %168 overflow<nsw> : index
        %1049 = arith.select %1047, %1048, %c536870911 : index
        vector.store %1046, %288[%1049] : memref<?xf32, #amdgpu.address_space<fat_raw_buffer>>, vector<1xf32>
        %1050 = vector.extract_strided_slice %259 {offsets = [0], sizes = [1], strides = [1]} : vector<4xf32> to vector<1xf32>
        %1051 = arith.andi %460, %892 : i1
        %1052 = arith.addi %895, %172 overflow<nsw> : index
        %1053 = arith.select %1051, %1052, %c536870911 : index
        vector.store %1050, %288[%1053] : memref<?xf32, #amdgpu.address_space<fat_raw_buffer>>, vector<1xf32>
        %1054 = vector.extract_strided_slice %259 {offsets = [1], sizes = [1], strides = [1]} : vector<4xf32> to vector<1xf32>
        %1055 = arith.andi %460, %900 : i1
        %1056 = arith.addi %903, %172 overflow<nsw> : index
        %1057 = arith.select %1055, %1056, %c536870911 : index
        vector.store %1054, %288[%1057] : memref<?xf32, #amdgpu.address_space<fat_raw_buffer>>, vector<1xf32>
        %1058 = vector.extract_strided_slice %259 {offsets = [2], sizes = [1], strides = [1]} : vector<4xf32> to vector<1xf32>
        %1059 = arith.andi %460, %908 : i1
        %1060 = arith.addi %911, %172 overflow<nsw> : index
        %1061 = arith.select %1059, %1060, %c536870911 : index
        vector.store %1058, %288[%1061] : memref<?xf32, #amdgpu.address_space<fat_raw_buffer>>, vector<1xf32>
        %1062 = vector.extract_strided_slice %259 {offsets = [3], sizes = [1], strides = [1]} : vector<4xf32> to vector<1xf32>
        %1063 = arith.andi %460, %916 : i1
        %1064 = arith.addi %919, %172 overflow<nsw> : index
        %1065 = arith.select %1063, %1064, %c536870911 : index
        vector.store %1062, %288[%1065] : memref<?xf32, #amdgpu.address_space<fat_raw_buffer>>, vector<1xf32>
        %1066 = vector.extract_strided_slice %260 {offsets = [0], sizes = [1], strides = [1]} : vector<4xf32> to vector<1xf32>
        %1067 = arith.andi %478, %892 : i1
        %1068 = arith.addi %895, %176 overflow<nsw> : index
        %1069 = arith.select %1067, %1068, %c536870911 : index
        vector.store %1066, %288[%1069] : memref<?xf32, #amdgpu.address_space<fat_raw_buffer>>, vector<1xf32>
        %1070 = vector.extract_strided_slice %260 {offsets = [1], sizes = [1], strides = [1]} : vector<4xf32> to vector<1xf32>
        %1071 = arith.andi %478, %900 : i1
        %1072 = arith.addi %903, %176 overflow<nsw> : index
        %1073 = arith.select %1071, %1072, %c536870911 : index
        vector.store %1070, %288[%1073] : memref<?xf32, #amdgpu.address_space<fat_raw_buffer>>, vector<1xf32>
        %1074 = vector.extract_strided_slice %260 {offsets = [2], sizes = [1], strides = [1]} : vector<4xf32> to vector<1xf32>
        %1075 = arith.andi %478, %908 : i1
        %1076 = arith.addi %911, %176 overflow<nsw> : index
        %1077 = arith.select %1075, %1076, %c536870911 : index
        vector.store %1074, %288[%1077] : memref<?xf32, #amdgpu.address_space<fat_raw_buffer>>, vector<1xf32>
        %1078 = vector.extract_strided_slice %260 {offsets = [3], sizes = [1], strides = [1]} : vector<4xf32> to vector<1xf32>
        %1079 = arith.andi %478, %916 : i1
        %1080 = arith.addi %919, %176 overflow<nsw> : index
        %1081 = arith.select %1079, %1080, %c536870911 : index
        vector.store %1078, %288[%1081] : memref<?xf32, #amdgpu.address_space<fat_raw_buffer>>, vector<1xf32>
        %1082 = vector.extract_strided_slice %261 {offsets = [0], sizes = [1], strides = [1]} : vector<4xf32> to vector<1xf32>
        %1083 = arith.andi %496, %892 : i1
        %1084 = arith.addi %895, %180 overflow<nsw> : index
        %1085 = arith.select %1083, %1084, %c536870911 : index
        vector.store %1082, %288[%1085] : memref<?xf32, #amdgpu.address_space<fat_raw_buffer>>, vector<1xf32>
        %1086 = vector.extract_strided_slice %261 {offsets = [1], sizes = [1], strides = [1]} : vector<4xf32> to vector<1xf32>
        %1087 = arith.andi %496, %900 : i1
        %1088 = arith.addi %903, %180 overflow<nsw> : index
        %1089 = arith.select %1087, %1088, %c536870911 : index
        vector.store %1086, %288[%1089] : memref<?xf32, #amdgpu.address_space<fat_raw_buffer>>, vector<1xf32>
        %1090 = vector.extract_strided_slice %261 {offsets = [2], sizes = [1], strides = [1]} : vector<4xf32> to vector<1xf32>
        %1091 = arith.andi %496, %908 : i1
        %1092 = arith.addi %911, %180 overflow<nsw> : index
        %1093 = arith.select %1091, %1092, %c536870911 : index
        vector.store %1090, %288[%1093] : memref<?xf32, #amdgpu.address_space<fat_raw_buffer>>, vector<1xf32>
        %1094 = vector.extract_strided_slice %261 {offsets = [3], sizes = [1], strides = [1]} : vector<4xf32> to vector<1xf32>
        %1095 = arith.andi %496, %916 : i1
        %1096 = arith.addi %919, %180 overflow<nsw> : index
        %1097 = arith.select %1095, %1096, %c536870911 : index
        vector.store %1094, %288[%1097] : memref<?xf32, #amdgpu.address_space<fat_raw_buffer>>, vector<1xf32>
        %1098 = vector.extract_strided_slice %262 {offsets = [0], sizes = [1], strides = [1]} : vector<4xf32> to vector<1xf32>
        %1099 = arith.andi %514, %892 : i1
        %1100 = arith.addi %895, %184 overflow<nsw> : index
        %1101 = arith.select %1099, %1100, %c536870911 : index
        vector.store %1098, %288[%1101] : memref<?xf32, #amdgpu.address_space<fat_raw_buffer>>, vector<1xf32>
        %1102 = vector.extract_strided_slice %262 {offsets = [1], sizes = [1], strides = [1]} : vector<4xf32> to vector<1xf32>
        %1103 = arith.andi %514, %900 : i1
        %1104 = arith.addi %903, %184 overflow<nsw> : index
        %1105 = arith.select %1103, %1104, %c536870911 : index
        vector.store %1102, %288[%1105] : memref<?xf32, #amdgpu.address_space<fat_raw_buffer>>, vector<1xf32>
        %1106 = vector.extract_strided_slice %262 {offsets = [2], sizes = [1], strides = [1]} : vector<4xf32> to vector<1xf32>
        %1107 = arith.andi %514, %908 : i1
        %1108 = arith.addi %911, %184 overflow<nsw> : index
        %1109 = arith.select %1107, %1108, %c536870911 : index
        vector.store %1106, %288[%1109] : memref<?xf32, #amdgpu.address_space<fat_raw_buffer>>, vector<1xf32>
        %1110 = vector.extract_strided_slice %262 {offsets = [3], sizes = [1], strides = [1]} : vector<4xf32> to vector<1xf32>
        %1111 = arith.andi %514, %916 : i1
        %1112 = arith.addi %919, %184 overflow<nsw> : index
        %1113 = arith.select %1111, %1112, %c536870911 : index
        vector.store %1110, %288[%1113] : memref<?xf32, #amdgpu.address_space<fat_raw_buffer>>, vector<1xf32>
        %1114 = vector.extract_strided_slice %263 {offsets = [0], sizes = [1], strides = [1]} : vector<4xf32> to vector<1xf32>
        %1115 = arith.andi %532, %892 : i1
        %1116 = arith.addi %895, %188 overflow<nsw> : index
        %1117 = arith.select %1115, %1116, %c536870911 : index
        vector.store %1114, %288[%1117] : memref<?xf32, #amdgpu.address_space<fat_raw_buffer>>, vector<1xf32>
        %1118 = vector.extract_strided_slice %263 {offsets = [1], sizes = [1], strides = [1]} : vector<4xf32> to vector<1xf32>
        %1119 = arith.andi %532, %900 : i1
        %1120 = arith.addi %903, %188 overflow<nsw> : index
        %1121 = arith.select %1119, %1120, %c536870911 : index
        vector.store %1118, %288[%1121] : memref<?xf32, #amdgpu.address_space<fat_raw_buffer>>, vector<1xf32>
        %1122 = vector.extract_strided_slice %263 {offsets = [2], sizes = [1], strides = [1]} : vector<4xf32> to vector<1xf32>
        %1123 = arith.andi %532, %908 : i1
        %1124 = arith.addi %911, %188 overflow<nsw> : index
        %1125 = arith.select %1123, %1124, %c536870911 : index
        vector.store %1122, %288[%1125] : memref<?xf32, #amdgpu.address_space<fat_raw_buffer>>, vector<1xf32>
        %1126 = vector.extract_strided_slice %263 {offsets = [3], sizes = [1], strides = [1]} : vector<4xf32> to vector<1xf32>
        %1127 = arith.andi %532, %916 : i1
        %1128 = arith.addi %919, %188 overflow<nsw> : index
        %1129 = arith.select %1127, %1128, %c536870911 : index
        vector.store %1126, %288[%1129] : memref<?xf32, #amdgpu.address_space<fat_raw_buffer>>, vector<1xf32>
        %1130 = vector.extract_strided_slice %264 {offsets = [0], sizes = [1], strides = [1]} : vector<4xf32> to vector<1xf32>
        %1131 = arith.andi %550, %892 : i1
        %1132 = arith.addi %895, %192 overflow<nsw> : index
        %1133 = arith.select %1131, %1132, %c536870911 : index
        vector.store %1130, %288[%1133] : memref<?xf32, #amdgpu.address_space<fat_raw_buffer>>, vector<1xf32>
        %1134 = vector.extract_strided_slice %264 {offsets = [1], sizes = [1], strides = [1]} : vector<4xf32> to vector<1xf32>
        %1135 = arith.andi %550, %900 : i1
        %1136 = arith.addi %903, %192 overflow<nsw> : index
        %1137 = arith.select %1135, %1136, %c536870911 : index
        vector.store %1134, %288[%1137] : memref<?xf32, #amdgpu.address_space<fat_raw_buffer>>, vector<1xf32>
        %1138 = vector.extract_strided_slice %264 {offsets = [2], sizes = [1], strides = [1]} : vector<4xf32> to vector<1xf32>
        %1139 = arith.andi %550, %908 : i1
        %1140 = arith.addi %911, %192 overflow<nsw> : index
        %1141 = arith.select %1139, %1140, %c536870911 : index
        vector.store %1138, %288[%1141] : memref<?xf32, #amdgpu.address_space<fat_raw_buffer>>, vector<1xf32>
        %1142 = vector.extract_strided_slice %264 {offsets = [3], sizes = [1], strides = [1]} : vector<4xf32> to vector<1xf32>
        %1143 = arith.andi %550, %916 : i1
        %1144 = arith.addi %919, %192 overflow<nsw> : index
        %1145 = arith.select %1143, %1144, %c536870911 : index
        vector.store %1142, %288[%1145] : memref<?xf32, #amdgpu.address_space<fat_raw_buffer>>, vector<1xf32>
        %1146 = vector.extract_strided_slice %265 {offsets = [0], sizes = [1], strides = [1]} : vector<4xf32> to vector<1xf32>
        %1147 = arith.andi %568, %892 : i1
        %1148 = arith.addi %895, %196 overflow<nsw> : index
        %1149 = arith.select %1147, %1148, %c536870911 : index
        vector.store %1146, %288[%1149] : memref<?xf32, #amdgpu.address_space<fat_raw_buffer>>, vector<1xf32>
        %1150 = vector.extract_strided_slice %265 {offsets = [1], sizes = [1], strides = [1]} : vector<4xf32> to vector<1xf32>
        %1151 = arith.andi %568, %900 : i1
        %1152 = arith.addi %903, %196 overflow<nsw> : index
        %1153 = arith.select %1151, %1152, %c536870911 : index
        vector.store %1150, %288[%1153] : memref<?xf32, #amdgpu.address_space<fat_raw_buffer>>, vector<1xf32>
        %1154 = vector.extract_strided_slice %265 {offsets = [2], sizes = [1], strides = [1]} : vector<4xf32> to vector<1xf32>
        %1155 = arith.andi %568, %908 : i1
        %1156 = arith.addi %911, %196 overflow<nsw> : index
        %1157 = arith.select %1155, %1156, %c536870911 : index
        vector.store %1154, %288[%1157] : memref<?xf32, #amdgpu.address_space<fat_raw_buffer>>, vector<1xf32>
        %1158 = vector.extract_strided_slice %265 {offsets = [3], sizes = [1], strides = [1]} : vector<4xf32> to vector<1xf32>
        %1159 = arith.andi %568, %916 : i1
        %1160 = arith.addi %919, %196 overflow<nsw> : index
        %1161 = arith.select %1159, %1160, %c536870911 : index
        vector.store %1158, %288[%1161] : memref<?xf32, #amdgpu.address_space<fat_raw_buffer>>, vector<1xf32>
        %1162 = vector.extract_strided_slice %266 {offsets = [0], sizes = [1], strides = [1]} : vector<4xf32> to vector<1xf32>
        %1163 = arith.andi %586, %892 : i1
        %1164 = arith.addi %895, %200 overflow<nsw> : index
        %1165 = arith.select %1163, %1164, %c536870911 : index
        vector.store %1162, %288[%1165] : memref<?xf32, #amdgpu.address_space<fat_raw_buffer>>, vector<1xf32>
        %1166 = vector.extract_strided_slice %266 {offsets = [1], sizes = [1], strides = [1]} : vector<4xf32> to vector<1xf32>
        %1167 = arith.andi %586, %900 : i1
        %1168 = arith.addi %903, %200 overflow<nsw> : index
        %1169 = arith.select %1167, %1168, %c536870911 : index
        vector.store %1166, %288[%1169] : memref<?xf32, #amdgpu.address_space<fat_raw_buffer>>, vector<1xf32>
        %1170 = vector.extract_strided_slice %266 {offsets = [2], sizes = [1], strides = [1]} : vector<4xf32> to vector<1xf32>
        %1171 = arith.andi %586, %908 : i1
        %1172 = arith.addi %911, %200 overflow<nsw> : index
        %1173 = arith.select %1171, %1172, %c536870911 : index
        vector.store %1170, %288[%1173] : memref<?xf32, #amdgpu.address_space<fat_raw_buffer>>, vector<1xf32>
        %1174 = vector.extract_strided_slice %266 {offsets = [3], sizes = [1], strides = [1]} : vector<4xf32> to vector<1xf32>
        %1175 = arith.andi %586, %916 : i1
        %1176 = arith.addi %919, %200 overflow<nsw> : index
        %1177 = arith.select %1175, %1176, %c536870911 : index
        vector.store %1174, %288[%1177] : memref<?xf32, #amdgpu.address_space<fat_raw_buffer>>, vector<1xf32>
        return
      }
    }
  }
  func.func @isolated_benchmark(%arg0: tensor<642x8192xf16>, %arg1: tensor<8192x8192xf16>, %arg2: tensor<642x8192xf32>) -> tensor<642x8192xf32> {
    %0 = flow.dispatch @gemm::@gemm(%arg0, %arg1, %arg2) : (tensor<642x8192xf16>, tensor<8192x8192xf16>, tensor<642x8192xf32>) -> %arg2
    return %0 : tensor<642x8192xf32>
  }
}
