#map = affine_map<()[s0, s1] -> (((s0 * 49 + s1 * 7 - ((s0 * 7 + s1) floordiv 8) * 55) floordiv 40) * -5 + 7)>
#map1 = affine_map<()[s0, s1, s2, s3, s4] -> ((s1 * 48 + (s0 * 3) floordiv 16) mod 96 + ((s2 * 49 + s3 * 7 - ((s2 * 7 + s3) floordiv 8) * 55) floordiv 40) * 480 + (((s2 * 49 + s3 * 7 - ((s2 * 7 + s3) floordiv 8) * 55) mod 40) mod s4) * 96)>
#map2 = affine_map<()[s0] -> ((s0 * 3) mod 16)>
#map3 = affine_map<()[s0, s1, s2, s3, s4] -> (s0 floordiv 2 + s1 * 128 - ((s1 * 128 + s0 floordiv 2) floordiv 526) * 526 + (((s2 * 49 + s3 * 7 - ((s2 * 7 + s3) floordiv 8) * 55) mod 40) floordiv s4) * 526)>
#map4 = affine_map<()[s0] -> (s0 * 8 - (s0 floordiv 2) * 16)>
#map5 = affine_map<()[s0, s1, s2, s3, s4] -> (s0 floordiv 2 + s1 * 128 - ((s1 * 128 + s0 floordiv 2 + 256) floordiv 526) * 526 + (((s2 * 49 + s3 * 7 - ((s2 * 7 + s3) floordiv 8) * 55) mod 40) floordiv s4) * 526 + 256)>
#map6 = affine_map<()[s0, s1, s2, s3, s4] -> (s0 floordiv 2 + s1 * 128 - ((s1 * 128 + s0 floordiv 2 + 512) floordiv 526) * 526 + (((s2 * 49 + s3 * 7 - ((s2 * 7 + s3) floordiv 8) * 55) mod 40) floordiv s4) * 526 + 512)>
#map7 = affine_map<()[s0] -> ((s0 floordiv 64) * 24 + 24)>
#map8 = affine_map<()[s0, s1] -> ((s1 * 48 + (s0 * 3) floordiv 16) mod 96)>
#map9 = affine_map<()[s0] -> (s0 * 263 + 263)>
#map10 = affine_map<()[s0, s1] -> ((s1 * 128 + s0 floordiv 2) mod 526)>
#map11 = affine_map<()[s0, s1] -> (s1 * 128 + s0 floordiv 2 - ((s1 * 128 + s0 floordiv 2 + 256) floordiv 526) * 526 + 256)>
#map12 = affine_map<()[s0, s1] -> (s1 * 128 + s0 floordiv 2 - ((s1 * 128 + s0 floordiv 2 + 512) floordiv 526) * 526 + 512)>
#map13 = affine_map<()[s0, s1] -> (s0 + s1 * 263 - (s0 floordiv 32) * 32)>
#map14 = affine_map<()[s0] -> (((s0 mod 64) floordiv 32) * 4)>
#map15 = affine_map<()[s0] -> (((s0 mod 64) floordiv 32) * 4 + 8)>
#map16 = affine_map<()[s0, s1] -> (s0 + s1 * 263 - (s0 floordiv 32) * 32 + 32)>
#map17 = affine_map<()[s0, s1] -> (s0 + s1 * 263 - (s0 floordiv 32) * 32 + 64)>
#map18 = affine_map<()[s0, s1] -> (s0 + s1 * 263 - (s0 floordiv 32) * 32 + 96)>
#map19 = affine_map<()[s0, s1] -> (s0 + s1 * 263 - (s0 floordiv 32) * 32 + 128)>
#map20 = affine_map<()[s0, s1] -> (s0 + s1 * 263 - (s0 floordiv 32) * 32 + 160)>
#map21 = affine_map<()[s0, s1] -> (s0 + s1 * 263 - (s0 floordiv 32) * 32 + 192)>
#map22 = affine_map<()[s0, s1] -> (s0 + s1 * 263 - (s0 floordiv 32) * 32 + 224)>
#map23 = affine_map<()[s0, s1] -> (s0 + s1 * 263 - (s0 floordiv 32) * 32 + 256)>
#map24 = affine_map<()[s0] -> (s0 mod 32 + (s0 floordiv 64) * 24)>
#map25 = affine_map<()[s0, s1] -> (s0 * 3 + s1 * 16 - ((s0 * 3) floordiv 16) * 16 + 16)>
#map26 = affine_map<()[s0, s1] -> (s0 * 16 + s1 * 8 - (s1 floordiv 2) * 16 + 16)>
#map27 = affine_map<()[s0, s1] -> (s0 * 526 + s1 * 263 + 263)>
#map28 = affine_map<()[s0] -> (s0 * 526 + 526)>
#map29 = affine_map<()[s0, s1, s2, s3, s4] -> (s0 mod 32 + s4 * 263 + (((s1 * 49 + s2 * 7 - ((s1 * 7 + s2) floordiv 8) * 55) mod 40) floordiv s3) * 526)>
#map30 = affine_map<()[s0, s1] -> (s0 * 96 + (s1 floordiv 64) * 24 + 24)>
#map31 = affine_map<()[s0, s1, s2, s3] -> ((s3 floordiv 64) * 24 + ((s0 * 49 + s1 * 7 - ((s0 * 7 + s1) floordiv 8) * 55) floordiv 40) * 480 + (((s0 * 49 + s1 * 7 - ((s0 * 7 + s1) floordiv 8) * 55) mod 40) mod s2) * 96 + ((s3 mod 64) floordiv 32) * 4)>
#map32 = affine_map<()[s0, s1, s2] -> (((s0 * 49 + s1 * 7 - ((s0 * 7 + s1) floordiv 8) * 55) floordiv 40) * 480 + (((s0 * 49 + s1 * 7 - ((s0 * 7 + s1) floordiv 8) * 55) mod 40) mod s2) * 96)>
#map33 = affine_map<()[s0, s1, s2] -> ((((s0 * 49 + s1 * 7 - ((s0 * 7 + s1) floordiv 8) * 55) mod 40) floordiv s2) * 526)>
#map34 = affine_map<()[s0] -> ((s0 floordiv 64) * 24 + ((s0 mod 64) floordiv 32) * 4)>
#map35 = affine_map<()[s0, s1, s2, s3] -> ((s3 floordiv 64) * 24 + ((s0 * 49 + s1 * 7 - ((s0 * 7 + s1) floordiv 8) * 55) floordiv 40) * 480 + (((s0 * 49 + s1 * 7 - ((s0 * 7 + s1) floordiv 8) * 55) mod 40) mod s2) * 96 + ((s3 mod 64) floordiv 32) * 4 + 1)>
#map36 = affine_map<()[s0] -> ((s0 floordiv 64) * 24 + ((s0 mod 64) floordiv 32) * 4 + 1)>
#map37 = affine_map<()[s0, s1, s2, s3] -> ((s3 floordiv 64) * 24 + ((s0 * 49 + s1 * 7 - ((s0 * 7 + s1) floordiv 8) * 55) floordiv 40) * 480 + (((s0 * 49 + s1 * 7 - ((s0 * 7 + s1) floordiv 8) * 55) mod 40) mod s2) * 96 + ((s3 mod 64) floordiv 32) * 4 + 2)>
#map38 = affine_map<()[s0] -> ((s0 floordiv 64) * 24 + ((s0 mod 64) floordiv 32) * 4 + 2)>
#map39 = affine_map<()[s0, s1, s2, s3] -> ((s3 floordiv 64) * 24 + ((s0 * 49 + s1 * 7 - ((s0 * 7 + s1) floordiv 8) * 55) floordiv 40) * 480 + (((s0 * 49 + s1 * 7 - ((s0 * 7 + s1) floordiv 8) * 55) mod 40) mod s2) * 96 + ((s3 mod 64) floordiv 32) * 4 + 3)>
#map40 = affine_map<()[s0] -> ((s0 floordiv 64) * 24 + ((s0 mod 64) floordiv 32) * 4 + 3)>
#map41 = affine_map<()[s0, s1, s2, s3] -> ((s3 floordiv 64) * 24 + ((s0 * 49 + s1 * 7 - ((s0 * 7 + s1) floordiv 8) * 55) floordiv 40) * 480 + (((s0 * 49 + s1 * 7 - ((s0 * 7 + s1) floordiv 8) * 55) mod 40) mod s2) * 96 + ((s3 mod 64) floordiv 32) * 4 + 8)>
#map42 = affine_map<()[s0] -> ((s0 floordiv 64) * 24 + ((s0 mod 64) floordiv 32) * 4 + 8)>
#map43 = affine_map<()[s0, s1, s2, s3] -> ((s3 floordiv 64) * 24 + ((s0 * 49 + s1 * 7 - ((s0 * 7 + s1) floordiv 8) * 55) floordiv 40) * 480 + (((s0 * 49 + s1 * 7 - ((s0 * 7 + s1) floordiv 8) * 55) mod 40) mod s2) * 96 + ((s3 mod 64) floordiv 32) * 4 + 9)>
#map44 = affine_map<()[s0] -> ((s0 floordiv 64) * 24 + ((s0 mod 64) floordiv 32) * 4 + 9)>
#map45 = affine_map<()[s0, s1, s2, s3] -> ((s3 floordiv 64) * 24 + ((s0 * 49 + s1 * 7 - ((s0 * 7 + s1) floordiv 8) * 55) floordiv 40) * 480 + (((s0 * 49 + s1 * 7 - ((s0 * 7 + s1) floordiv 8) * 55) mod 40) mod s2) * 96 + ((s3 mod 64) floordiv 32) * 4 + 10)>
#map46 = affine_map<()[s0] -> ((s0 floordiv 64) * 24 + ((s0 mod 64) floordiv 32) * 4 + 10)>
#map47 = affine_map<()[s0, s1, s2, s3] -> ((s3 floordiv 64) * 24 + ((s0 * 49 + s1 * 7 - ((s0 * 7 + s1) floordiv 8) * 55) floordiv 40) * 480 + (((s0 * 49 + s1 * 7 - ((s0 * 7 + s1) floordiv 8) * 55) mod 40) mod s2) * 96 + ((s3 mod 64) floordiv 32) * 4 + 11)>
#map48 = affine_map<()[s0] -> ((s0 floordiv 64) * 24 + ((s0 mod 64) floordiv 32) * 4 + 11)>
#map49 = affine_map<()[s0, s1, s2, s3] -> ((s3 floordiv 64) * 24 + ((s0 * 49 + s1 * 7 - ((s0 * 7 + s1) floordiv 8) * 55) floordiv 40) * 480 + (((s0 * 49 + s1 * 7 - ((s0 * 7 + s1) floordiv 8) * 55) mod 40) mod s2) * 96 + ((s3 mod 64) floordiv 32) * 4 + 16)>
#map50 = affine_map<()[s0] -> ((s0 floordiv 64) * 24 + ((s0 mod 64) floordiv 32) * 4 + 16)>
#map51 = affine_map<()[s0, s1, s2, s3] -> ((s3 floordiv 64) * 24 + ((s0 * 49 + s1 * 7 - ((s0 * 7 + s1) floordiv 8) * 55) floordiv 40) * 480 + (((s0 * 49 + s1 * 7 - ((s0 * 7 + s1) floordiv 8) * 55) mod 40) mod s2) * 96 + ((s3 mod 64) floordiv 32) * 4 + 17)>
#map52 = affine_map<()[s0] -> ((s0 floordiv 64) * 24 + ((s0 mod 64) floordiv 32) * 4 + 17)>
#map53 = affine_map<()[s0, s1, s2, s3] -> ((s3 floordiv 64) * 24 + ((s0 * 49 + s1 * 7 - ((s0 * 7 + s1) floordiv 8) * 55) floordiv 40) * 480 + (((s0 * 49 + s1 * 7 - ((s0 * 7 + s1) floordiv 8) * 55) mod 40) mod s2) * 96 + ((s3 mod 64) floordiv 32) * 4 + 18)>
#map54 = affine_map<()[s0] -> ((s0 floordiv 64) * 24 + ((s0 mod 64) floordiv 32) * 4 + 18)>
#map55 = affine_map<()[s0, s1, s2, s3] -> ((s3 floordiv 64) * 24 + ((s0 * 49 + s1 * 7 - ((s0 * 7 + s1) floordiv 8) * 55) floordiv 40) * 480 + (((s0 * 49 + s1 * 7 - ((s0 * 7 + s1) floordiv 8) * 55) mod 40) mod s2) * 96 + ((s3 mod 64) floordiv 32) * 4 + 19)>
#map56 = affine_map<()[s0] -> ((s0 floordiv 64) * 24 + ((s0 mod 64) floordiv 32) * 4 + 19)>
#map57 = affine_map<()[s0, s1, s2, s3] -> ((s3 floordiv 64) * 24 + ((s0 * 49 + s1 * 7 - ((s0 * 7 + s1) floordiv 8) * 55) floordiv 40) * 480 + (((s0 * 49 + s1 * 7 - ((s0 * 7 + s1) floordiv 8) * 55) mod 40) mod s2) * 96 + ((s3 mod 64) floordiv 32) * 4 + 24)>
#map58 = affine_map<()[s0] -> ((s0 floordiv 64) * 24 + ((s0 mod 64) floordiv 32) * 4 + 24)>
#map59 = affine_map<()[s0, s1, s2, s3] -> ((s3 floordiv 64) * 24 + ((s0 * 49 + s1 * 7 - ((s0 * 7 + s1) floordiv 8) * 55) floordiv 40) * 480 + (((s0 * 49 + s1 * 7 - ((s0 * 7 + s1) floordiv 8) * 55) mod 40) mod s2) * 96 + ((s3 mod 64) floordiv 32) * 4 + 25)>
#map60 = affine_map<()[s0] -> ((s0 floordiv 64) * 24 + ((s0 mod 64) floordiv 32) * 4 + 25)>
#map61 = affine_map<()[s0, s1, s2, s3] -> ((s3 floordiv 64) * 24 + ((s0 * 49 + s1 * 7 - ((s0 * 7 + s1) floordiv 8) * 55) floordiv 40) * 480 + (((s0 * 49 + s1 * 7 - ((s0 * 7 + s1) floordiv 8) * 55) mod 40) mod s2) * 96 + ((s3 mod 64) floordiv 32) * 4 + 26)>
#map62 = affine_map<()[s0] -> ((s0 floordiv 64) * 24 + ((s0 mod 64) floordiv 32) * 4 + 26)>
#map63 = affine_map<()[s0, s1, s2, s3] -> ((s3 floordiv 64) * 24 + ((s0 * 49 + s1 * 7 - ((s0 * 7 + s1) floordiv 8) * 55) floordiv 40) * 480 + (((s0 * 49 + s1 * 7 - ((s0 * 7 + s1) floordiv 8) * 55) mod 40) mod s2) * 96 + ((s3 mod 64) floordiv 32) * 4 + 27)>
#map64 = affine_map<()[s0] -> ((s0 floordiv 64) * 24 + ((s0 mod 64) floordiv 32) * 4 + 27)>
#map65 = affine_map<()[s0, s1, s2, s3, s4] -> (s0 mod 32 + s4 * 263 + (((s1 * 49 + s2 * 7 - ((s1 * 7 + s2) floordiv 8) * 55) mod 40) floordiv s3) * 526 + 32)>
#map66 = affine_map<()[s0, s1, s2, s3, s4] -> (s0 mod 32 + s4 * 263 + (((s1 * 49 + s2 * 7 - ((s1 * 7 + s2) floordiv 8) * 55) mod 40) floordiv s3) * 526 + 64)>
#map67 = affine_map<()[s0, s1, s2, s3, s4] -> (s0 mod 32 + s4 * 263 + (((s1 * 49 + s2 * 7 - ((s1 * 7 + s2) floordiv 8) * 55) mod 40) floordiv s3) * 526 + 96)>
#map68 = affine_map<()[s0, s1, s2, s3, s4] -> (s0 mod 32 + s4 * 263 + (((s1 * 49 + s2 * 7 - ((s1 * 7 + s2) floordiv 8) * 55) mod 40) floordiv s3) * 526 + 128)>
#map69 = affine_map<()[s0, s1, s2, s3, s4] -> (s0 mod 32 + s4 * 263 + (((s1 * 49 + s2 * 7 - ((s1 * 7 + s2) floordiv 8) * 55) mod 40) floordiv s3) * 526 + 160)>
#map70 = affine_map<()[s0, s1, s2, s3, s4] -> (s0 mod 32 + s4 * 263 + (((s1 * 49 + s2 * 7 - ((s1 * 7 + s2) floordiv 8) * 55) mod 40) floordiv s3) * 526 + 192)>
#map71 = affine_map<()[s0, s1, s2, s3, s4] -> (s0 mod 32 + s4 * 263 + (((s1 * 49 + s2 * 7 - ((s1 * 7 + s2) floordiv 8) * 55) mod 40) floordiv s3) * 526 + 224)>
#map72 = affine_map<()[s0, s1, s2, s3, s4] -> (s0 mod 32 + s4 * 263 + (((s1 * 49 + s2 * 7 - ((s1 * 7 + s2) floordiv 8) * 55) mod 40) floordiv s3) * 526 + 256)>
#translation = #iree_codegen.translation_info<pipeline = None workgroup_size = [256, 2, 1] subgroup_size = 64>
module attributes {transform.with_named_sequence} {
  stream.executable private @gemm {
    stream.executable.export public @gemm workgroups() -> (index, index, index) {
      %c7 = arith.constant 7 : index
      %c8 = arith.constant 8 : index
      %c1 = arith.constant 1 : index
      stream.return %c7, %c8, %c1 : index, index, index
    }
    builtin.module {
      func.func @gemm(%arg0: !stream.binding, %arg1: !stream.binding, %arg2: !stream.binding) attributes {translation_info = #translation} {
        %c4096_i14 = arith.constant 4096 : i14
        %cst = arith.constant dense<0.000000e+00> : vector<4xf16>
        %cst_0 = arith.constant dense<[0, 1, 2, 3, 4, 5, 6, 7]> : vector<8xi32>
        %cst_1 = arith.constant dense<1073741823> : vector<8xindex>
        %cst_2 = arith.constant dense<[0, 1, 2]> : vector<3xi32>
        %cst_3 = arith.constant dense<1073741823> : vector<3xindex>
        %c536870911 = arith.constant 536870911 : index
        %c2147483643_i32 = arith.constant 2147483643 : i32
        %c536870910 = arith.constant 536870910 : index
        %c895 = arith.constant 895 : index
        %c4096 = arith.constant 4096 : index
        %c526 = arith.constant 526 : index
        %c2147483645_i32 = arith.constant 2147483645 : i32
        %c1073741822 = arith.constant 1073741822 : index
        %c14336 = arith.constant 14336 : index
        %c642 = arith.constant 642 : index
        %c5 = arith.constant 5 : index
        %c1 = arith.constant 1 : index
        %c96 = arith.constant 96 : index
        %c21040 = arith.constant 21040 : index
        %c0 = arith.constant 0 : index
        %cst_4 = arith.constant dense<0.000000e+00> : vector<16xf32>
        %block_id_x = gpu.block_id  x upper_bound 7
        %block_id_y = gpu.block_id  y upper_bound 8
        %thread_id_x = gpu.thread_id  x upper_bound 256
        %thread_id_y = gpu.thread_id  y upper_bound 2
        %alloc = memref.alloc() : memref<24880xi8, #gpu.address_space<workgroup>>
        %view = memref.view %alloc[%c0][] : memref<24880xi8, #gpu.address_space<workgroup>> to memref<526x20xf16, #gpu.address_space<workgroup>>
        %view_5 = memref.view %alloc[%c21040][] : memref<24880xi8, #gpu.address_space<workgroup>> to memref<96x20xf16, #gpu.address_space<workgroup>>
        %0 = stream.binding.subspan %arg0[%c0] : !stream.binding -> memref<642x14336xf16, strided<[14336, 1], offset: ?>>
        %1 = affine.apply #map()[%block_id_y, %block_id_x]
        %2 = arith.minsi %1, %c5 : index
        %3 = arith.maxsi %2, %c1 : index
        %4 = affine.apply #map1()[%thread_id_x, %thread_id_y, %block_id_y, %block_id_x, %3]
        %5 = arith.cmpi slt, %4, %c642 : index
        %6 = vector.broadcast %5 : i1 to vector<3xi1>
        %7 = affine.apply #map2()[%thread_id_x]
        %8 = arith.muli %4, %c14336 overflow<nsw> : index
        %9 = arith.addi %8, %7 overflow<nsw> : index
        %base_buffer, %offset, %sizes:2, %strides:2 = memref.extract_strided_metadata %0 : memref<642x14336xf16, strided<[14336, 1], offset: ?>> -> memref<f16>, index, index, index, index, index
        %reinterpret_cast = memref.reinterpret_cast %0 to offset: [%offset], sizes: [%c1073741822], strides: [1] : memref<642x14336xf16, strided<[14336, 1], offset: ?>> to memref<?xf16, strided<[1], offset: ?>>
        %10 = amdgpu.fat_raw_buffer_cast %reinterpret_cast validBytes(%c2147483645_i32) resetOffset : memref<?xf16, strided<[1], offset: ?>> to memref<?xf16, #amdgpu.address_space<fat_raw_buffer>>
        %11 = arith.index_cast %9 : index to i32
        %12 = vector.broadcast %11 : i32 to vector<3xi32>
        %13 = arith.addi %12, %cst_2 : vector<3xi32>
        %14 = arith.index_cast %13 : vector<3xi32> to vector<3xindex>
        %15 = arith.select %6, %14, %cst_3 : vector<3xi1>, vector<3xindex>
        %16 = vector.extract %15[0] : index from vector<3xindex>
        %17 = vector.load %10[%16] : memref<?xf16, #amdgpu.address_space<fat_raw_buffer>>, vector<3xf16>
        %18 = stream.binding.subspan %arg1[%c0] : !stream.binding -> memref<4096x14336xf16, strided<[14336, 1], offset: ?>>
        %19 = affine.apply #map3()[%thread_id_x, %thread_id_y, %block_id_y, %block_id_x, %3]
        %20 = arith.cmpi slt, %19, %c4096 : index
        %21 = vector.broadcast %20 : i1 to vector<8xi1>
        %22 = affine.apply #map4()[%thread_id_x]
        %23 = arith.muli %19, %c14336 overflow<nsw> : index
        %24 = arith.addi %23, %22 overflow<nsw> : index
        %base_buffer_6, %offset_7, %sizes_8:2, %strides_9:2 = memref.extract_strided_metadata %18 : memref<4096x14336xf16, strided<[14336, 1], offset: ?>> -> memref<f16>, index, index, index, index, index
        %reinterpret_cast_10 = memref.reinterpret_cast %18 to offset: [%offset_7], sizes: [%c1073741822], strides: [1] : memref<4096x14336xf16, strided<[14336, 1], offset: ?>> to memref<?xf16, strided<[1], offset: ?>>
        %25 = amdgpu.fat_raw_buffer_cast %reinterpret_cast_10 validBytes(%c2147483645_i32) resetOffset : memref<?xf16, strided<[1], offset: ?>> to memref<?xf16, #amdgpu.address_space<fat_raw_buffer>>
        %26 = arith.index_cast %24 : index to i32
        %27 = vector.broadcast %26 : i32 to vector<8xi32>
        %28 = arith.addi %27, %cst_0 : vector<8xi32>
        %29 = arith.index_cast %28 : vector<8xi32> to vector<8xindex>
        %30 = arith.select %21, %29, %cst_1 : vector<8xi1>, vector<8xindex>
        %31 = vector.extract %30[0] : index from vector<8xindex>
        %32 = vector.load %25[%31] : memref<?xf16, #amdgpu.address_space<fat_raw_buffer>>, vector<8xf16>
        %33 = affine.apply #map5()[%thread_id_x, %thread_id_y, %block_id_y, %block_id_x, %3]
        %34 = arith.cmpi slt, %33, %c4096 : index
        %35 = vector.broadcast %34 : i1 to vector<8xi1>
        %36 = arith.muli %33, %c14336 overflow<nsw> : index
        %37 = arith.addi %36, %22 overflow<nsw> : index
        %38 = arith.index_cast %37 : index to i32
        %39 = vector.broadcast %38 : i32 to vector<8xi32>
        %40 = arith.addi %39, %cst_0 : vector<8xi32>
        %41 = arith.index_cast %40 : vector<8xi32> to vector<8xindex>
        %42 = arith.select %35, %41, %cst_1 : vector<8xi1>, vector<8xindex>
        %43 = vector.extract %42[0] : index from vector<8xindex>
        %44 = vector.load %25[%43] : memref<?xf16, #amdgpu.address_space<fat_raw_buffer>>, vector<8xf16>
        %45 = affine.apply #map6()[%thread_id_x, %thread_id_y, %block_id_y, %block_id_x, %3]
        %46 = arith.cmpi slt, %45, %c4096 : index
        %47 = vector.broadcast %46 : i1 to vector<8xi1>
        %48 = arith.muli %45, %c14336 overflow<nsw> : index
        %49 = arith.addi %48, %22 overflow<nsw> : index
        %50 = arith.index_cast %49 : index to i32
        %51 = vector.broadcast %50 : i32 to vector<8xi32>
        %52 = arith.addi %51, %cst_0 : vector<8xi32>
        %53 = arith.index_cast %52 : vector<8xi32> to vector<8xindex>
        %54 = arith.select %47, %53, %cst_1 : vector<8xi1>, vector<8xindex>
        %55 = vector.extract %54[0] : index from vector<8xindex>
        %56 = vector.load %25[%55] : memref<?xf16, #amdgpu.address_space<fat_raw_buffer>>, vector<8xf16>
        %57 = affine.apply #map7()[%thread_id_x]
        %58 = arith.minsi %57, %c96 : index
        %59 = affine.apply #map8()[%thread_id_x, %thread_id_y]
        %60 = arith.cmpi slt, %59, %58 : index
        %61 = vector.broadcast %60 : i1 to vector<3xi1>
        vector.maskedstore %view_5[%59, %7], %61, %17 : memref<96x20xf16, #gpu.address_space<workgroup>>, vector<3xi1>, vector<3xf16>
        %62 = affine.apply #map9()[%thread_id_y]
        %63 = arith.minsi %62, %c526 : index
        %64 = affine.apply #map10()[%thread_id_x, %thread_id_y]
        %65 = arith.cmpi slt, %64, %63 : index
        %66 = vector.broadcast %65 : i1 to vector<8xi1>
        vector.maskedstore %view[%64, %22], %66, %32 : memref<526x20xf16, #gpu.address_space<workgroup>>, vector<8xi1>, vector<8xf16>
        %67 = affine.apply #map11()[%thread_id_x, %thread_id_y]
        %68 = arith.cmpi slt, %67, %63 : index
        %69 = vector.broadcast %68 : i1 to vector<8xi1>
        vector.maskedstore %view[%67, %22], %69, %44 : memref<526x20xf16, #gpu.address_space<workgroup>>, vector<8xi1>, vector<8xf16>
        %70 = affine.apply #map12()[%thread_id_x, %thread_id_y]
        %71 = arith.cmpi slt, %70, %63 : index
        %72 = vector.broadcast %71 : i1 to vector<8xi1>
        vector.maskedstore %view[%70, %22], %72, %56 : memref<526x20xf16, #gpu.address_space<workgroup>>, vector<8xi1>, vector<8xf16>
        %73 = affine.apply #map13()[%thread_id_x, %thread_id_y]
        %74 = arith.cmpi slt, %73, %63 : index
        %75 = vector.broadcast %74 : i1 to vector<4xi1>
        %76 = affine.apply #map14()[%thread_id_x]
        %77 = affine.apply #map15()[%thread_id_x]
        %78 = affine.apply #map16()[%thread_id_x, %thread_id_y]
        %79 = arith.cmpi slt, %78, %63 : index
        %80 = vector.broadcast %79 : i1 to vector<4xi1>
        %81 = affine.apply #map17()[%thread_id_x, %thread_id_y]
        %82 = arith.cmpi slt, %81, %63 : index
        %83 = vector.broadcast %82 : i1 to vector<4xi1>
        %84 = affine.apply #map18()[%thread_id_x, %thread_id_y]
        %85 = arith.cmpi slt, %84, %63 : index
        %86 = vector.broadcast %85 : i1 to vector<4xi1>
        %87 = affine.apply #map19()[%thread_id_x, %thread_id_y]
        %88 = arith.cmpi slt, %87, %63 : index
        %89 = vector.broadcast %88 : i1 to vector<4xi1>
        %90 = affine.apply #map20()[%thread_id_x, %thread_id_y]
        %91 = arith.cmpi slt, %90, %63 : index
        %92 = vector.broadcast %91 : i1 to vector<4xi1>
        %93 = affine.apply #map21()[%thread_id_x, %thread_id_y]
        %94 = arith.cmpi slt, %93, %63 : index
        %95 = vector.broadcast %94 : i1 to vector<4xi1>
        %96 = affine.apply #map22()[%thread_id_x, %thread_id_y]
        %97 = arith.cmpi slt, %96, %63 : index
        %98 = vector.broadcast %97 : i1 to vector<4xi1>
        %99 = affine.apply #map23()[%thread_id_x, %thread_id_y]
        %100 = arith.cmpi slt, %99, %63 : index
        %101 = vector.broadcast %100 : i1 to vector<4xi1>
        %102 = affine.apply #map24()[%thread_id_x]
        %103 = arith.cmpi slt, %102, %58 : index
        %104 = vector.broadcast %103 : i1 to vector<4xi1>
        %105:9 = scf.for %arg3 = %c0 to %c895 step %c1 iter_args(%arg4 = %cst_4, %arg5 = %cst_4, %arg6 = %cst_4, %arg7 = %cst_4, %arg8 = %cst_4, %arg9 = %cst_4, %arg10 = %cst_4, %arg11 = %cst_4, %arg12 = %cst_4) -> (vector<16xf32>, vector<16xf32>, vector<16xf32>, vector<16xf32>, vector<16xf32>, vector<16xf32>, vector<16xf32>, vector<16xf32>, vector<16xf32>) {
          amdgpu.lds_barrier
          %847 = vector.maskedload %view[%73, %76], %75, %cst : memref<526x20xf16, #gpu.address_space<workgroup>>, vector<4xi1>, vector<4xf16> into vector<4xf16>
          %848 = vector.maskedload %view[%73, %77], %75, %cst : memref<526x20xf16, #gpu.address_space<workgroup>>, vector<4xi1>, vector<4xf16> into vector<4xf16>
          %849 = vector.maskedload %view[%78, %76], %80, %cst : memref<526x20xf16, #gpu.address_space<workgroup>>, vector<4xi1>, vector<4xf16> into vector<4xf16>
          %850 = vector.maskedload %view[%78, %77], %80, %cst : memref<526x20xf16, #gpu.address_space<workgroup>>, vector<4xi1>, vector<4xf16> into vector<4xf16>
          %851 = vector.maskedload %view[%81, %76], %83, %cst : memref<526x20xf16, #gpu.address_space<workgroup>>, vector<4xi1>, vector<4xf16> into vector<4xf16>
          %852 = vector.maskedload %view[%81, %77], %83, %cst : memref<526x20xf16, #gpu.address_space<workgroup>>, vector<4xi1>, vector<4xf16> into vector<4xf16>
          %853 = vector.maskedload %view[%84, %76], %86, %cst : memref<526x20xf16, #gpu.address_space<workgroup>>, vector<4xi1>, vector<4xf16> into vector<4xf16>
          %854 = vector.maskedload %view[%84, %77], %86, %cst : memref<526x20xf16, #gpu.address_space<workgroup>>, vector<4xi1>, vector<4xf16> into vector<4xf16>
          %855 = vector.maskedload %view[%87, %76], %89, %cst : memref<526x20xf16, #gpu.address_space<workgroup>>, vector<4xi1>, vector<4xf16> into vector<4xf16>
          %856 = vector.maskedload %view[%87, %77], %89, %cst : memref<526x20xf16, #gpu.address_space<workgroup>>, vector<4xi1>, vector<4xf16> into vector<4xf16>
          %857 = vector.maskedload %view[%90, %76], %92, %cst : memref<526x20xf16, #gpu.address_space<workgroup>>, vector<4xi1>, vector<4xf16> into vector<4xf16>
          %858 = vector.maskedload %view[%90, %77], %92, %cst : memref<526x20xf16, #gpu.address_space<workgroup>>, vector<4xi1>, vector<4xf16> into vector<4xf16>
          %859 = vector.maskedload %view[%93, %76], %95, %cst : memref<526x20xf16, #gpu.address_space<workgroup>>, vector<4xi1>, vector<4xf16> into vector<4xf16>
          %860 = vector.maskedload %view[%93, %77], %95, %cst : memref<526x20xf16, #gpu.address_space<workgroup>>, vector<4xi1>, vector<4xf16> into vector<4xf16>
          %861 = vector.maskedload %view[%96, %76], %98, %cst : memref<526x20xf16, #gpu.address_space<workgroup>>, vector<4xi1>, vector<4xf16> into vector<4xf16>
          %862 = vector.maskedload %view[%96, %77], %98, %cst : memref<526x20xf16, #gpu.address_space<workgroup>>, vector<4xi1>, vector<4xf16> into vector<4xf16>
          %863 = vector.maskedload %view[%99, %76], %101, %cst : memref<526x20xf16, #gpu.address_space<workgroup>>, vector<4xi1>, vector<4xf16> into vector<4xf16>
          %864 = vector.maskedload %view[%99, %77], %101, %cst : memref<526x20xf16, #gpu.address_space<workgroup>>, vector<4xi1>, vector<4xf16> into vector<4xf16>
          %865 = vector.maskedload %view_5[%102, %76], %104, %cst : memref<96x20xf16, #gpu.address_space<workgroup>>, vector<4xi1>, vector<4xf16> into vector<4xf16>
          %866 = vector.maskedload %view_5[%102, %77], %104, %cst : memref<96x20xf16, #gpu.address_space<workgroup>>, vector<4xi1>, vector<4xf16> into vector<4xf16>
          %867 = affine.apply #map25()[%thread_id_x, %arg3]
          %868 = arith.addi %8, %867 overflow<nsw> : index
          %869 = arith.index_cast %868 : index to i32
          %870 = vector.broadcast %869 : i32 to vector<3xi32>
          %871 = arith.addi %870, %cst_2 : vector<3xi32>
          %872 = arith.index_cast %871 : vector<3xi32> to vector<3xindex>
          %873 = arith.select %6, %872, %cst_3 : vector<3xi1>, vector<3xindex>
          %874 = vector.extract %873[0] : index from vector<3xindex>
          %875 = vector.load %10[%874] : memref<?xf16, #amdgpu.address_space<fat_raw_buffer>>, vector<3xf16>
          %876 = affine.apply #map26()[%arg3, %thread_id_x]
          %877 = arith.addi %23, %876 overflow<nsw> : index
          %878 = arith.index_cast %877 : index to i32
          %879 = vector.broadcast %878 : i32 to vector<8xi32>
          %880 = arith.addi %879, %cst_0 : vector<8xi32>
          %881 = arith.index_cast %880 : vector<8xi32> to vector<8xindex>
          %882 = arith.select %21, %881, %cst_1 : vector<8xi1>, vector<8xindex>
          %883 = vector.extract %882[0] : index from vector<8xindex>
          %884 = vector.load %25[%883] : memref<?xf16, #amdgpu.address_space<fat_raw_buffer>>, vector<8xf16>
          %885 = arith.addi %36, %876 overflow<nsw> : index
          %886 = arith.index_cast %885 : index to i32
          %887 = vector.broadcast %886 : i32 to vector<8xi32>
          %888 = arith.addi %887, %cst_0 : vector<8xi32>
          %889 = arith.index_cast %888 : vector<8xi32> to vector<8xindex>
          %890 = arith.select %35, %889, %cst_1 : vector<8xi1>, vector<8xindex>
          %891 = vector.extract %890[0] : index from vector<8xindex>
          %892 = vector.load %25[%891] : memref<?xf16, #amdgpu.address_space<fat_raw_buffer>>, vector<8xf16>
          %893 = arith.addi %48, %876 overflow<nsw> : index
          %894 = arith.index_cast %893 : index to i32
          %895 = vector.broadcast %894 : i32 to vector<8xi32>
          %896 = arith.addi %895, %cst_0 : vector<8xi32>
          %897 = arith.index_cast %896 : vector<8xi32> to vector<8xindex>
          %898 = arith.select %47, %897, %cst_1 : vector<8xi1>, vector<8xindex>
          %899 = vector.extract %898[0] : index from vector<8xindex>
          %900 = vector.load %25[%899] : memref<?xf16, #amdgpu.address_space<fat_raw_buffer>>, vector<8xf16>
          %901 = amdgpu.mfma %865 * %847 + %arg4 {blocks = 1 : i32, k = 8 : i32, m = 32 : i32, n = 32 : i32} blgp =  none : vector<4xf16>, vector<4xf16>, vector<16xf32>
          %902 = amdgpu.mfma %866 * %848 + %901 {blocks = 1 : i32, k = 8 : i32, m = 32 : i32, n = 32 : i32} blgp =  none : vector<4xf16>, vector<4xf16>, vector<16xf32>
          %903 = amdgpu.mfma %865 * %849 + %arg5 {blocks = 1 : i32, k = 8 : i32, m = 32 : i32, n = 32 : i32} blgp =  none : vector<4xf16>, vector<4xf16>, vector<16xf32>
          %904 = amdgpu.mfma %866 * %850 + %903 {blocks = 1 : i32, k = 8 : i32, m = 32 : i32, n = 32 : i32} blgp =  none : vector<4xf16>, vector<4xf16>, vector<16xf32>
          %905 = amdgpu.mfma %865 * %851 + %arg6 {blocks = 1 : i32, k = 8 : i32, m = 32 : i32, n = 32 : i32} blgp =  none : vector<4xf16>, vector<4xf16>, vector<16xf32>
          %906 = amdgpu.mfma %866 * %852 + %905 {blocks = 1 : i32, k = 8 : i32, m = 32 : i32, n = 32 : i32} blgp =  none : vector<4xf16>, vector<4xf16>, vector<16xf32>
          %907 = amdgpu.mfma %865 * %853 + %arg7 {blocks = 1 : i32, k = 8 : i32, m = 32 : i32, n = 32 : i32} blgp =  none : vector<4xf16>, vector<4xf16>, vector<16xf32>
          %908 = amdgpu.mfma %866 * %854 + %907 {blocks = 1 : i32, k = 8 : i32, m = 32 : i32, n = 32 : i32} blgp =  none : vector<4xf16>, vector<4xf16>, vector<16xf32>
          %909 = amdgpu.mfma %865 * %855 + %arg8 {blocks = 1 : i32, k = 8 : i32, m = 32 : i32, n = 32 : i32} blgp =  none : vector<4xf16>, vector<4xf16>, vector<16xf32>
          %910 = amdgpu.mfma %866 * %856 + %909 {blocks = 1 : i32, k = 8 : i32, m = 32 : i32, n = 32 : i32} blgp =  none : vector<4xf16>, vector<4xf16>, vector<16xf32>
          %911 = amdgpu.mfma %865 * %857 + %arg9 {blocks = 1 : i32, k = 8 : i32, m = 32 : i32, n = 32 : i32} blgp =  none : vector<4xf16>, vector<4xf16>, vector<16xf32>
          %912 = amdgpu.mfma %866 * %858 + %911 {blocks = 1 : i32, k = 8 : i32, m = 32 : i32, n = 32 : i32} blgp =  none : vector<4xf16>, vector<4xf16>, vector<16xf32>
          %913 = amdgpu.mfma %865 * %859 + %arg10 {blocks = 1 : i32, k = 8 : i32, m = 32 : i32, n = 32 : i32} blgp =  none : vector<4xf16>, vector<4xf16>, vector<16xf32>
          %914 = amdgpu.mfma %866 * %860 + %913 {blocks = 1 : i32, k = 8 : i32, m = 32 : i32, n = 32 : i32} blgp =  none : vector<4xf16>, vector<4xf16>, vector<16xf32>
          %915 = amdgpu.mfma %865 * %861 + %arg11 {blocks = 1 : i32, k = 8 : i32, m = 32 : i32, n = 32 : i32} blgp =  none : vector<4xf16>, vector<4xf16>, vector<16xf32>
          %916 = amdgpu.mfma %866 * %862 + %915 {blocks = 1 : i32, k = 8 : i32, m = 32 : i32, n = 32 : i32} blgp =  none : vector<4xf16>, vector<4xf16>, vector<16xf32>
          %917 = amdgpu.mfma %865 * %863 + %arg12 {blocks = 1 : i32, k = 8 : i32, m = 32 : i32, n = 32 : i32} blgp =  none : vector<4xf16>, vector<4xf16>, vector<16xf32>
          %918 = amdgpu.mfma %866 * %864 + %917 {blocks = 1 : i32, k = 8 : i32, m = 32 : i32, n = 32 : i32} blgp =  none : vector<4xf16>, vector<4xf16>, vector<16xf32>
          amdgpu.lds_barrier
          vector.maskedstore %view_5[%59, %7], %61, %875 : memref<96x20xf16, #gpu.address_space<workgroup>>, vector<3xi1>, vector<3xf16>
          vector.maskedstore %view[%64, %22], %66, %884 : memref<526x20xf16, #gpu.address_space<workgroup>>, vector<8xi1>, vector<8xf16>
          vector.maskedstore %view[%67, %22], %69, %892 : memref<526x20xf16, #gpu.address_space<workgroup>>, vector<8xi1>, vector<8xf16>
          vector.maskedstore %view[%70, %22], %72, %900 : memref<526x20xf16, #gpu.address_space<workgroup>>, vector<8xi1>, vector<8xf16>
          scf.yield %902, %904, %906, %908, %910, %912, %914, %916, %918 : vector<16xf32>, vector<16xf32>, vector<16xf32>, vector<16xf32>, vector<16xf32>, vector<16xf32>, vector<16xf32>, vector<16xf32>, vector<16xf32>
        }
        amdgpu.lds_barrier
        %106 = affine.apply #map13()[%thread_id_x, %thread_id_y]
        %107 = arith.cmpi slt, %106, %63 : index
        %108 = vector.broadcast %107 : i1 to vector<4xi1>
        %109 = affine.apply #map14()[%thread_id_x]
        %110 = vector.maskedload %view[%106, %109], %108, %cst : memref<526x20xf16, #gpu.address_space<workgroup>>, vector<4xi1>, vector<4xf16> into vector<4xf16>
        %111 = affine.apply #map15()[%thread_id_x]
        %112 = vector.maskedload %view[%106, %111], %108, %cst : memref<526x20xf16, #gpu.address_space<workgroup>>, vector<4xi1>, vector<4xf16> into vector<4xf16>
        %113 = affine.apply #map16()[%thread_id_x, %thread_id_y]
        %114 = arith.cmpi slt, %113, %63 : index
        %115 = vector.broadcast %114 : i1 to vector<4xi1>
        %116 = vector.maskedload %view[%113, %109], %115, %cst : memref<526x20xf16, #gpu.address_space<workgroup>>, vector<4xi1>, vector<4xf16> into vector<4xf16>
        %117 = vector.maskedload %view[%113, %111], %115, %cst : memref<526x20xf16, #gpu.address_space<workgroup>>, vector<4xi1>, vector<4xf16> into vector<4xf16>
        %118 = affine.apply #map17()[%thread_id_x, %thread_id_y]
        %119 = arith.cmpi slt, %118, %63 : index
        %120 = vector.broadcast %119 : i1 to vector<4xi1>
        %121 = vector.maskedload %view[%118, %109], %120, %cst : memref<526x20xf16, #gpu.address_space<workgroup>>, vector<4xi1>, vector<4xf16> into vector<4xf16>
        %122 = vector.maskedload %view[%118, %111], %120, %cst : memref<526x20xf16, #gpu.address_space<workgroup>>, vector<4xi1>, vector<4xf16> into vector<4xf16>
        %123 = affine.apply #map18()[%thread_id_x, %thread_id_y]
        %124 = arith.cmpi slt, %123, %63 : index
        %125 = vector.broadcast %124 : i1 to vector<4xi1>
        %126 = vector.maskedload %view[%123, %109], %125, %cst : memref<526x20xf16, #gpu.address_space<workgroup>>, vector<4xi1>, vector<4xf16> into vector<4xf16>
        %127 = vector.maskedload %view[%123, %111], %125, %cst : memref<526x20xf16, #gpu.address_space<workgroup>>, vector<4xi1>, vector<4xf16> into vector<4xf16>
        %128 = affine.apply #map19()[%thread_id_x, %thread_id_y]
        %129 = arith.cmpi slt, %128, %63 : index
        %130 = vector.broadcast %129 : i1 to vector<4xi1>
        %131 = vector.maskedload %view[%128, %109], %130, %cst : memref<526x20xf16, #gpu.address_space<workgroup>>, vector<4xi1>, vector<4xf16> into vector<4xf16>
        %132 = vector.maskedload %view[%128, %111], %130, %cst : memref<526x20xf16, #gpu.address_space<workgroup>>, vector<4xi1>, vector<4xf16> into vector<4xf16>
        %133 = affine.apply #map20()[%thread_id_x, %thread_id_y]
        %134 = arith.cmpi slt, %133, %63 : index
        %135 = vector.broadcast %134 : i1 to vector<4xi1>
        %136 = vector.maskedload %view[%133, %109], %135, %cst : memref<526x20xf16, #gpu.address_space<workgroup>>, vector<4xi1>, vector<4xf16> into vector<4xf16>
        %137 = vector.maskedload %view[%133, %111], %135, %cst : memref<526x20xf16, #gpu.address_space<workgroup>>, vector<4xi1>, vector<4xf16> into vector<4xf16>
        %138 = affine.apply #map21()[%thread_id_x, %thread_id_y]
        %139 = arith.cmpi slt, %138, %63 : index
        %140 = vector.broadcast %139 : i1 to vector<4xi1>
        %141 = vector.maskedload %view[%138, %109], %140, %cst : memref<526x20xf16, #gpu.address_space<workgroup>>, vector<4xi1>, vector<4xf16> into vector<4xf16>
        %142 = vector.maskedload %view[%138, %111], %140, %cst : memref<526x20xf16, #gpu.address_space<workgroup>>, vector<4xi1>, vector<4xf16> into vector<4xf16>
        %143 = affine.apply #map22()[%thread_id_x, %thread_id_y]
        %144 = arith.cmpi slt, %143, %63 : index
        %145 = vector.broadcast %144 : i1 to vector<4xi1>
        %146 = vector.maskedload %view[%143, %109], %145, %cst : memref<526x20xf16, #gpu.address_space<workgroup>>, vector<4xi1>, vector<4xf16> into vector<4xf16>
        %147 = vector.maskedload %view[%143, %111], %145, %cst : memref<526x20xf16, #gpu.address_space<workgroup>>, vector<4xi1>, vector<4xf16> into vector<4xf16>
        %148 = affine.apply #map23()[%thread_id_x, %thread_id_y]
        %149 = arith.cmpi slt, %148, %63 : index
        %150 = vector.broadcast %149 : i1 to vector<4xi1>
        %151 = vector.maskedload %view[%148, %109], %150, %cst : memref<526x20xf16, #gpu.address_space<workgroup>>, vector<4xi1>, vector<4xf16> into vector<4xf16>
        %152 = vector.maskedload %view[%148, %111], %150, %cst : memref<526x20xf16, #gpu.address_space<workgroup>>, vector<4xi1>, vector<4xf16> into vector<4xf16>
        %153 = affine.apply #map24()[%thread_id_x]
        %154 = arith.cmpi slt, %153, %58 : index
        %155 = vector.broadcast %154 : i1 to vector<4xi1>
        %156 = vector.maskedload %view_5[%153, %109], %155, %cst : memref<96x20xf16, #gpu.address_space<workgroup>>, vector<4xi1>, vector<4xf16> into vector<4xf16>
        %157 = vector.maskedload %view_5[%153, %111], %155, %cst : memref<96x20xf16, #gpu.address_space<workgroup>>, vector<4xi1>, vector<4xf16> into vector<4xf16>
        %158 = amdgpu.mfma %156 * %110 + %105#0 {blocks = 1 : i32, k = 8 : i32, m = 32 : i32, n = 32 : i32} blgp =  none : vector<4xf16>, vector<4xf16>, vector<16xf32>
        %159 = amdgpu.mfma %157 * %112 + %158 {blocks = 1 : i32, k = 8 : i32, m = 32 : i32, n = 32 : i32} blgp =  none : vector<4xf16>, vector<4xf16>, vector<16xf32>
        %160 = amdgpu.mfma %156 * %116 + %105#1 {blocks = 1 : i32, k = 8 : i32, m = 32 : i32, n = 32 : i32} blgp =  none : vector<4xf16>, vector<4xf16>, vector<16xf32>
        %161 = amdgpu.mfma %157 * %117 + %160 {blocks = 1 : i32, k = 8 : i32, m = 32 : i32, n = 32 : i32} blgp =  none : vector<4xf16>, vector<4xf16>, vector<16xf32>
        %162 = amdgpu.mfma %156 * %121 + %105#2 {blocks = 1 : i32, k = 8 : i32, m = 32 : i32, n = 32 : i32} blgp =  none : vector<4xf16>, vector<4xf16>, vector<16xf32>
        %163 = amdgpu.mfma %157 * %122 + %162 {blocks = 1 : i32, k = 8 : i32, m = 32 : i32, n = 32 : i32} blgp =  none : vector<4xf16>, vector<4xf16>, vector<16xf32>
        %164 = amdgpu.mfma %156 * %126 + %105#3 {blocks = 1 : i32, k = 8 : i32, m = 32 : i32, n = 32 : i32} blgp =  none : vector<4xf16>, vector<4xf16>, vector<16xf32>
        %165 = amdgpu.mfma %157 * %127 + %164 {blocks = 1 : i32, k = 8 : i32, m = 32 : i32, n = 32 : i32} blgp =  none : vector<4xf16>, vector<4xf16>, vector<16xf32>
        %166 = amdgpu.mfma %156 * %131 + %105#4 {blocks = 1 : i32, k = 8 : i32, m = 32 : i32, n = 32 : i32} blgp =  none : vector<4xf16>, vector<4xf16>, vector<16xf32>
        %167 = amdgpu.mfma %157 * %132 + %166 {blocks = 1 : i32, k = 8 : i32, m = 32 : i32, n = 32 : i32} blgp =  none : vector<4xf16>, vector<4xf16>, vector<16xf32>
        %168 = amdgpu.mfma %156 * %136 + %105#5 {blocks = 1 : i32, k = 8 : i32, m = 32 : i32, n = 32 : i32} blgp =  none : vector<4xf16>, vector<4xf16>, vector<16xf32>
        %169 = amdgpu.mfma %157 * %137 + %168 {blocks = 1 : i32, k = 8 : i32, m = 32 : i32, n = 32 : i32} blgp =  none : vector<4xf16>, vector<4xf16>, vector<16xf32>
        %170 = amdgpu.mfma %156 * %141 + %105#6 {blocks = 1 : i32, k = 8 : i32, m = 32 : i32, n = 32 : i32} blgp =  none : vector<4xf16>, vector<4xf16>, vector<16xf32>
        %171 = amdgpu.mfma %157 * %142 + %170 {blocks = 1 : i32, k = 8 : i32, m = 32 : i32, n = 32 : i32} blgp =  none : vector<4xf16>, vector<4xf16>, vector<16xf32>
        %172 = amdgpu.mfma %156 * %146 + %105#7 {blocks = 1 : i32, k = 8 : i32, m = 32 : i32, n = 32 : i32} blgp =  none : vector<4xf16>, vector<4xf16>, vector<16xf32>
        %173 = amdgpu.mfma %157 * %147 + %172 {blocks = 1 : i32, k = 8 : i32, m = 32 : i32, n = 32 : i32} blgp =  none : vector<4xf16>, vector<4xf16>, vector<16xf32>
        %174 = amdgpu.mfma %156 * %151 + %105#8 {blocks = 1 : i32, k = 8 : i32, m = 32 : i32, n = 32 : i32} blgp =  none : vector<4xf16>, vector<4xf16>, vector<16xf32>
        %175 = amdgpu.mfma %157 * %152 + %174 {blocks = 1 : i32, k = 8 : i32, m = 32 : i32, n = 32 : i32} blgp =  none : vector<4xf16>, vector<4xf16>, vector<16xf32>
        %176 = vector.extract_strided_slice %159 {offsets = [0], sizes = [1], strides = [1]} : vector<16xf32> to vector<1xf32>
        %177 = stream.binding.subspan %arg2[%c0] : !stream.binding -> memref<642x4096xf32, strided<[4096, 1], offset: ?>>
        %178 = affine.apply #map27()[%block_id_y, %thread_id_y]
        %179 = affine.apply #map28()[%block_id_y]
        %180 = arith.minsi %178, %179 : index
        %181 = arith.minsi %180, %c4096 : index
        %182 = affine.apply #map29()[%thread_id_x, %block_id_y, %block_id_x, %3, %thread_id_y]
        %183 = arith.cmpi slt, %182, %181 : index
        %184 = affine.apply #map30()[%block_id_x, %thread_id_x]
        %185 = arith.minsi %184, %c642 : index
        %186 = affine.apply #map31()[%block_id_y, %block_id_x, %3, %thread_id_x]
        %187 = arith.cmpi slt, %186, %185 : index
        %188 = arith.andi %183, %187 : i1
        %189 = affine.apply #map32()[%block_id_y, %block_id_x, %3]
        %190 = affine.apply #map33()[%block_id_y, %block_id_x, %3]
        %191 = affine.apply #map34()[%thread_id_x]
        %192 = arith.muli %189, %c4096 overflow<nsw> : index
        %193 = arith.muli %191, %c4096 overflow<nsw> : index
        %194 = arith.addi %192, %190 overflow<nsw> : index
        %195 = arith.addi %193, %106 overflow<nsw> : index
        %base_buffer_11, %offset_12, %sizes_13:2, %strides_14:2 = memref.extract_strided_metadata %177 : memref<642x4096xf32, strided<[4096, 1], offset: ?>> -> memref<f32>, index, index, index, index, index
        %196 = arith.addi %194, %offset_12 overflow<nsw> : index
        %reinterpret_cast_15 = memref.reinterpret_cast %177 to offset: [%196], sizes: [%c536870910], strides: [1] : memref<642x4096xf32, strided<[4096, 1], offset: ?>> to memref<?xf32, strided<[1], offset: ?>>
        %197 = amdgpu.fat_raw_buffer_cast %reinterpret_cast_15 validBytes(%c2147483643_i32) cacheSwizzleStride(%c4096_i14) resetOffset : memref<?xf32, strided<[1], offset: ?>> to memref<?xf32, #amdgpu.address_space<fat_raw_buffer>>
        %198 = arith.select %188, %195, %c536870911 : index
        vector.store %176, %197[%198] : memref<?xf32, #amdgpu.address_space<fat_raw_buffer>>, vector<1xf32>
        %199 = vector.extract_strided_slice %159 {offsets = [1], sizes = [1], strides = [1]} : vector<16xf32> to vector<1xf32>
        %200 = affine.apply #map35()[%block_id_y, %block_id_x, %3, %thread_id_x]
        %201 = arith.cmpi slt, %200, %185 : index
        %202 = arith.andi %183, %201 : i1
        %203 = affine.apply #map36()[%thread_id_x]
        %204 = arith.muli %203, %c4096 overflow<nsw> : index
        %205 = arith.addi %204, %106 overflow<nsw> : index
        %206 = arith.select %202, %205, %c536870911 : index
        vector.store %199, %197[%206] : memref<?xf32, #amdgpu.address_space<fat_raw_buffer>>, vector<1xf32>
        %207 = vector.extract_strided_slice %159 {offsets = [2], sizes = [1], strides = [1]} : vector<16xf32> to vector<1xf32>
        %208 = affine.apply #map37()[%block_id_y, %block_id_x, %3, %thread_id_x]
        %209 = arith.cmpi slt, %208, %185 : index
        %210 = arith.andi %183, %209 : i1
        %211 = affine.apply #map38()[%thread_id_x]
        %212 = arith.muli %211, %c4096 overflow<nsw> : index
        %213 = arith.addi %212, %106 overflow<nsw> : index
        %214 = arith.select %210, %213, %c536870911 : index
        vector.store %207, %197[%214] : memref<?xf32, #amdgpu.address_space<fat_raw_buffer>>, vector<1xf32>
        %215 = vector.extract_strided_slice %159 {offsets = [3], sizes = [1], strides = [1]} : vector<16xf32> to vector<1xf32>
        %216 = affine.apply #map39()[%block_id_y, %block_id_x, %3, %thread_id_x]
        %217 = arith.cmpi slt, %216, %185 : index
        %218 = arith.andi %183, %217 : i1
        %219 = affine.apply #map40()[%thread_id_x]
        %220 = arith.muli %219, %c4096 overflow<nsw> : index
        %221 = arith.addi %220, %106 overflow<nsw> : index
        %222 = arith.select %218, %221, %c536870911 : index
        vector.store %215, %197[%222] : memref<?xf32, #amdgpu.address_space<fat_raw_buffer>>, vector<1xf32>
        %223 = vector.extract_strided_slice %159 {offsets = [4], sizes = [1], strides = [1]} : vector<16xf32> to vector<1xf32>
        %224 = affine.apply #map41()[%block_id_y, %block_id_x, %3, %thread_id_x]
        %225 = arith.cmpi slt, %224, %185 : index
        %226 = arith.andi %183, %225 : i1
        %227 = affine.apply #map42()[%thread_id_x]
        %228 = arith.muli %227, %c4096 overflow<nsw> : index
        %229 = arith.addi %228, %106 overflow<nsw> : index
        %230 = arith.select %226, %229, %c536870911 : index
        vector.store %223, %197[%230] : memref<?xf32, #amdgpu.address_space<fat_raw_buffer>>, vector<1xf32>
        %231 = vector.extract_strided_slice %159 {offsets = [5], sizes = [1], strides = [1]} : vector<16xf32> to vector<1xf32>
        %232 = affine.apply #map43()[%block_id_y, %block_id_x, %3, %thread_id_x]
        %233 = arith.cmpi slt, %232, %185 : index
        %234 = arith.andi %183, %233 : i1
        %235 = affine.apply #map44()[%thread_id_x]
        %236 = arith.muli %235, %c4096 overflow<nsw> : index
        %237 = arith.addi %236, %106 overflow<nsw> : index
        %238 = arith.select %234, %237, %c536870911 : index
        vector.store %231, %197[%238] : memref<?xf32, #amdgpu.address_space<fat_raw_buffer>>, vector<1xf32>
        %239 = vector.extract_strided_slice %159 {offsets = [6], sizes = [1], strides = [1]} : vector<16xf32> to vector<1xf32>
        %240 = affine.apply #map45()[%block_id_y, %block_id_x, %3, %thread_id_x]
        %241 = arith.cmpi slt, %240, %185 : index
        %242 = arith.andi %183, %241 : i1
        %243 = affine.apply #map46()[%thread_id_x]
        %244 = arith.muli %243, %c4096 overflow<nsw> : index
        %245 = arith.addi %244, %106 overflow<nsw> : index
        %246 = arith.select %242, %245, %c536870911 : index
        vector.store %239, %197[%246] : memref<?xf32, #amdgpu.address_space<fat_raw_buffer>>, vector<1xf32>
        %247 = vector.extract_strided_slice %159 {offsets = [7], sizes = [1], strides = [1]} : vector<16xf32> to vector<1xf32>
        %248 = affine.apply #map47()[%block_id_y, %block_id_x, %3, %thread_id_x]
        %249 = arith.cmpi slt, %248, %185 : index
        %250 = arith.andi %183, %249 : i1
        %251 = affine.apply #map48()[%thread_id_x]
        %252 = arith.muli %251, %c4096 overflow<nsw> : index
        %253 = arith.addi %252, %106 overflow<nsw> : index
        %254 = arith.select %250, %253, %c536870911 : index
        vector.store %247, %197[%254] : memref<?xf32, #amdgpu.address_space<fat_raw_buffer>>, vector<1xf32>
        %255 = vector.extract_strided_slice %159 {offsets = [8], sizes = [1], strides = [1]} : vector<16xf32> to vector<1xf32>
        %256 = affine.apply #map49()[%block_id_y, %block_id_x, %3, %thread_id_x]
        %257 = arith.cmpi slt, %256, %185 : index
        %258 = arith.andi %183, %257 : i1
        %259 = affine.apply #map50()[%thread_id_x]
        %260 = arith.muli %259, %c4096 overflow<nsw> : index
        %261 = arith.addi %260, %106 overflow<nsw> : index
        %262 = arith.select %258, %261, %c536870911 : index
        vector.store %255, %197[%262] : memref<?xf32, #amdgpu.address_space<fat_raw_buffer>>, vector<1xf32>
        %263 = vector.extract_strided_slice %159 {offsets = [9], sizes = [1], strides = [1]} : vector<16xf32> to vector<1xf32>
        %264 = affine.apply #map51()[%block_id_y, %block_id_x, %3, %thread_id_x]
        %265 = arith.cmpi slt, %264, %185 : index
        %266 = arith.andi %183, %265 : i1
        %267 = affine.apply #map52()[%thread_id_x]
        %268 = arith.muli %267, %c4096 overflow<nsw> : index
        %269 = arith.addi %268, %106 overflow<nsw> : index
        %270 = arith.select %266, %269, %c536870911 : index
        vector.store %263, %197[%270] : memref<?xf32, #amdgpu.address_space<fat_raw_buffer>>, vector<1xf32>
        %271 = vector.extract_strided_slice %159 {offsets = [10], sizes = [1], strides = [1]} : vector<16xf32> to vector<1xf32>
        %272 = affine.apply #map53()[%block_id_y, %block_id_x, %3, %thread_id_x]
        %273 = arith.cmpi slt, %272, %185 : index
        %274 = arith.andi %183, %273 : i1
        %275 = affine.apply #map54()[%thread_id_x]
        %276 = arith.muli %275, %c4096 overflow<nsw> : index
        %277 = arith.addi %276, %106 overflow<nsw> : index
        %278 = arith.select %274, %277, %c536870911 : index
        vector.store %271, %197[%278] : memref<?xf32, #amdgpu.address_space<fat_raw_buffer>>, vector<1xf32>
        %279 = vector.extract_strided_slice %159 {offsets = [11], sizes = [1], strides = [1]} : vector<16xf32> to vector<1xf32>
        %280 = affine.apply #map55()[%block_id_y, %block_id_x, %3, %thread_id_x]
        %281 = arith.cmpi slt, %280, %185 : index
        %282 = arith.andi %183, %281 : i1
        %283 = affine.apply #map56()[%thread_id_x]
        %284 = arith.muli %283, %c4096 overflow<nsw> : index
        %285 = arith.addi %284, %106 overflow<nsw> : index
        %286 = arith.select %282, %285, %c536870911 : index
        vector.store %279, %197[%286] : memref<?xf32, #amdgpu.address_space<fat_raw_buffer>>, vector<1xf32>
        %287 = vector.extract_strided_slice %159 {offsets = [12], sizes = [1], strides = [1]} : vector<16xf32> to vector<1xf32>
        %288 = affine.apply #map57()[%block_id_y, %block_id_x, %3, %thread_id_x]
        %289 = arith.cmpi slt, %288, %185 : index
        %290 = arith.andi %183, %289 : i1
        %291 = affine.apply #map58()[%thread_id_x]
        %292 = arith.muli %291, %c4096 overflow<nsw> : index
        %293 = arith.addi %292, %106 overflow<nsw> : index
        %294 = arith.select %290, %293, %c536870911 : index
        vector.store %287, %197[%294] : memref<?xf32, #amdgpu.address_space<fat_raw_buffer>>, vector<1xf32>
        %295 = vector.extract_strided_slice %159 {offsets = [13], sizes = [1], strides = [1]} : vector<16xf32> to vector<1xf32>
        %296 = affine.apply #map59()[%block_id_y, %block_id_x, %3, %thread_id_x]
        %297 = arith.cmpi slt, %296, %185 : index
        %298 = arith.andi %183, %297 : i1
        %299 = affine.apply #map60()[%thread_id_x]
        %300 = arith.muli %299, %c4096 overflow<nsw> : index
        %301 = arith.addi %300, %106 overflow<nsw> : index
        %302 = arith.select %298, %301, %c536870911 : index
        vector.store %295, %197[%302] : memref<?xf32, #amdgpu.address_space<fat_raw_buffer>>, vector<1xf32>
        %303 = vector.extract_strided_slice %159 {offsets = [14], sizes = [1], strides = [1]} : vector<16xf32> to vector<1xf32>
        %304 = affine.apply #map61()[%block_id_y, %block_id_x, %3, %thread_id_x]
        %305 = arith.cmpi slt, %304, %185 : index
        %306 = arith.andi %183, %305 : i1
        %307 = affine.apply #map62()[%thread_id_x]
        %308 = arith.muli %307, %c4096 overflow<nsw> : index
        %309 = arith.addi %308, %106 overflow<nsw> : index
        %310 = arith.select %306, %309, %c536870911 : index
        vector.store %303, %197[%310] : memref<?xf32, #amdgpu.address_space<fat_raw_buffer>>, vector<1xf32>
        %311 = vector.extract_strided_slice %159 {offsets = [15], sizes = [1], strides = [1]} : vector<16xf32> to vector<1xf32>
        %312 = affine.apply #map63()[%block_id_y, %block_id_x, %3, %thread_id_x]
        %313 = arith.cmpi slt, %312, %185 : index
        %314 = arith.andi %183, %313 : i1
        %315 = affine.apply #map64()[%thread_id_x]
        %316 = arith.muli %315, %c4096 overflow<nsw> : index
        %317 = arith.addi %316, %106 overflow<nsw> : index
        %318 = arith.select %314, %317, %c536870911 : index
        vector.store %311, %197[%318] : memref<?xf32, #amdgpu.address_space<fat_raw_buffer>>, vector<1xf32>
        %319 = vector.extract_strided_slice %161 {offsets = [0], sizes = [1], strides = [1]} : vector<16xf32> to vector<1xf32>
        %320 = affine.apply #map65()[%thread_id_x, %block_id_y, %block_id_x, %3, %thread_id_y]
        %321 = arith.cmpi slt, %320, %181 : index
        %322 = arith.andi %321, %187 : i1
        %323 = arith.addi %193, %113 overflow<nsw> : index
        %324 = arith.select %322, %323, %c536870911 : index
        vector.store %319, %197[%324] : memref<?xf32, #amdgpu.address_space<fat_raw_buffer>>, vector<1xf32>
        %325 = vector.extract_strided_slice %161 {offsets = [1], sizes = [1], strides = [1]} : vector<16xf32> to vector<1xf32>
        %326 = arith.andi %321, %201 : i1
        %327 = arith.addi %204, %113 overflow<nsw> : index
        %328 = arith.select %326, %327, %c536870911 : index
        vector.store %325, %197[%328] : memref<?xf32, #amdgpu.address_space<fat_raw_buffer>>, vector<1xf32>
        %329 = vector.extract_strided_slice %161 {offsets = [2], sizes = [1], strides = [1]} : vector<16xf32> to vector<1xf32>
        %330 = arith.andi %321, %209 : i1
        %331 = arith.addi %212, %113 overflow<nsw> : index
        %332 = arith.select %330, %331, %c536870911 : index
        vector.store %329, %197[%332] : memref<?xf32, #amdgpu.address_space<fat_raw_buffer>>, vector<1xf32>
        %333 = vector.extract_strided_slice %161 {offsets = [3], sizes = [1], strides = [1]} : vector<16xf32> to vector<1xf32>
        %334 = arith.andi %321, %217 : i1
        %335 = arith.addi %220, %113 overflow<nsw> : index
        %336 = arith.select %334, %335, %c536870911 : index
        vector.store %333, %197[%336] : memref<?xf32, #amdgpu.address_space<fat_raw_buffer>>, vector<1xf32>
        %337 = vector.extract_strided_slice %161 {offsets = [4], sizes = [1], strides = [1]} : vector<16xf32> to vector<1xf32>
        %338 = arith.andi %321, %225 : i1
        %339 = arith.addi %228, %113 overflow<nsw> : index
        %340 = arith.select %338, %339, %c536870911 : index
        vector.store %337, %197[%340] : memref<?xf32, #amdgpu.address_space<fat_raw_buffer>>, vector<1xf32>
        %341 = vector.extract_strided_slice %161 {offsets = [5], sizes = [1], strides = [1]} : vector<16xf32> to vector<1xf32>
        %342 = arith.andi %321, %233 : i1
        %343 = arith.addi %236, %113 overflow<nsw> : index
        %344 = arith.select %342, %343, %c536870911 : index
        vector.store %341, %197[%344] : memref<?xf32, #amdgpu.address_space<fat_raw_buffer>>, vector<1xf32>
        %345 = vector.extract_strided_slice %161 {offsets = [6], sizes = [1], strides = [1]} : vector<16xf32> to vector<1xf32>
        %346 = arith.andi %321, %241 : i1
        %347 = arith.addi %244, %113 overflow<nsw> : index
        %348 = arith.select %346, %347, %c536870911 : index
        vector.store %345, %197[%348] : memref<?xf32, #amdgpu.address_space<fat_raw_buffer>>, vector<1xf32>
        %349 = vector.extract_strided_slice %161 {offsets = [7], sizes = [1], strides = [1]} : vector<16xf32> to vector<1xf32>
        %350 = arith.andi %321, %249 : i1
        %351 = arith.addi %252, %113 overflow<nsw> : index
        %352 = arith.select %350, %351, %c536870911 : index
        vector.store %349, %197[%352] : memref<?xf32, #amdgpu.address_space<fat_raw_buffer>>, vector<1xf32>
        %353 = vector.extract_strided_slice %161 {offsets = [8], sizes = [1], strides = [1]} : vector<16xf32> to vector<1xf32>
        %354 = arith.andi %321, %257 : i1
        %355 = arith.addi %260, %113 overflow<nsw> : index
        %356 = arith.select %354, %355, %c536870911 : index
        vector.store %353, %197[%356] : memref<?xf32, #amdgpu.address_space<fat_raw_buffer>>, vector<1xf32>
        %357 = vector.extract_strided_slice %161 {offsets = [9], sizes = [1], strides = [1]} : vector<16xf32> to vector<1xf32>
        %358 = arith.andi %321, %265 : i1
        %359 = arith.addi %268, %113 overflow<nsw> : index
        %360 = arith.select %358, %359, %c536870911 : index
        vector.store %357, %197[%360] : memref<?xf32, #amdgpu.address_space<fat_raw_buffer>>, vector<1xf32>
        %361 = vector.extract_strided_slice %161 {offsets = [10], sizes = [1], strides = [1]} : vector<16xf32> to vector<1xf32>
        %362 = arith.andi %321, %273 : i1
        %363 = arith.addi %276, %113 overflow<nsw> : index
        %364 = arith.select %362, %363, %c536870911 : index
        vector.store %361, %197[%364] : memref<?xf32, #amdgpu.address_space<fat_raw_buffer>>, vector<1xf32>
        %365 = vector.extract_strided_slice %161 {offsets = [11], sizes = [1], strides = [1]} : vector<16xf32> to vector<1xf32>
        %366 = arith.andi %321, %281 : i1
        %367 = arith.addi %284, %113 overflow<nsw> : index
        %368 = arith.select %366, %367, %c536870911 : index
        vector.store %365, %197[%368] : memref<?xf32, #amdgpu.address_space<fat_raw_buffer>>, vector<1xf32>
        %369 = vector.extract_strided_slice %161 {offsets = [12], sizes = [1], strides = [1]} : vector<16xf32> to vector<1xf32>
        %370 = arith.andi %321, %289 : i1
        %371 = arith.addi %292, %113 overflow<nsw> : index
        %372 = arith.select %370, %371, %c536870911 : index
        vector.store %369, %197[%372] : memref<?xf32, #amdgpu.address_space<fat_raw_buffer>>, vector<1xf32>
        %373 = vector.extract_strided_slice %161 {offsets = [13], sizes = [1], strides = [1]} : vector<16xf32> to vector<1xf32>
        %374 = arith.andi %321, %297 : i1
        %375 = arith.addi %300, %113 overflow<nsw> : index
        %376 = arith.select %374, %375, %c536870911 : index
        vector.store %373, %197[%376] : memref<?xf32, #amdgpu.address_space<fat_raw_buffer>>, vector<1xf32>
        %377 = vector.extract_strided_slice %161 {offsets = [14], sizes = [1], strides = [1]} : vector<16xf32> to vector<1xf32>
        %378 = arith.andi %321, %305 : i1
        %379 = arith.addi %308, %113 overflow<nsw> : index
        %380 = arith.select %378, %379, %c536870911 : index
        vector.store %377, %197[%380] : memref<?xf32, #amdgpu.address_space<fat_raw_buffer>>, vector<1xf32>
        %381 = vector.extract_strided_slice %161 {offsets = [15], sizes = [1], strides = [1]} : vector<16xf32> to vector<1xf32>
        %382 = arith.andi %321, %313 : i1
        %383 = arith.addi %316, %113 overflow<nsw> : index
        %384 = arith.select %382, %383, %c536870911 : index
        vector.store %381, %197[%384] : memref<?xf32, #amdgpu.address_space<fat_raw_buffer>>, vector<1xf32>
        %385 = vector.extract_strided_slice %163 {offsets = [0], sizes = [1], strides = [1]} : vector<16xf32> to vector<1xf32>
        %386 = affine.apply #map66()[%thread_id_x, %block_id_y, %block_id_x, %3, %thread_id_y]
        %387 = arith.cmpi slt, %386, %181 : index
        %388 = arith.andi %387, %187 : i1
        %389 = arith.addi %193, %118 overflow<nsw> : index
        %390 = arith.select %388, %389, %c536870911 : index
        vector.store %385, %197[%390] : memref<?xf32, #amdgpu.address_space<fat_raw_buffer>>, vector<1xf32>
        %391 = vector.extract_strided_slice %163 {offsets = [1], sizes = [1], strides = [1]} : vector<16xf32> to vector<1xf32>
        %392 = arith.andi %387, %201 : i1
        %393 = arith.addi %204, %118 overflow<nsw> : index
        %394 = arith.select %392, %393, %c536870911 : index
        vector.store %391, %197[%394] : memref<?xf32, #amdgpu.address_space<fat_raw_buffer>>, vector<1xf32>
        %395 = vector.extract_strided_slice %163 {offsets = [2], sizes = [1], strides = [1]} : vector<16xf32> to vector<1xf32>
        %396 = arith.andi %387, %209 : i1
        %397 = arith.addi %212, %118 overflow<nsw> : index
        %398 = arith.select %396, %397, %c536870911 : index
        vector.store %395, %197[%398] : memref<?xf32, #amdgpu.address_space<fat_raw_buffer>>, vector<1xf32>
        %399 = vector.extract_strided_slice %163 {offsets = [3], sizes = [1], strides = [1]} : vector<16xf32> to vector<1xf32>
        %400 = arith.andi %387, %217 : i1
        %401 = arith.addi %220, %118 overflow<nsw> : index
        %402 = arith.select %400, %401, %c536870911 : index
        vector.store %399, %197[%402] : memref<?xf32, #amdgpu.address_space<fat_raw_buffer>>, vector<1xf32>
        %403 = vector.extract_strided_slice %163 {offsets = [4], sizes = [1], strides = [1]} : vector<16xf32> to vector<1xf32>
        %404 = arith.andi %387, %225 : i1
        %405 = arith.addi %228, %118 overflow<nsw> : index
        %406 = arith.select %404, %405, %c536870911 : index
        vector.store %403, %197[%406] : memref<?xf32, #amdgpu.address_space<fat_raw_buffer>>, vector<1xf32>
        %407 = vector.extract_strided_slice %163 {offsets = [5], sizes = [1], strides = [1]} : vector<16xf32> to vector<1xf32>
        %408 = arith.andi %387, %233 : i1
        %409 = arith.addi %236, %118 overflow<nsw> : index
        %410 = arith.select %408, %409, %c536870911 : index
        vector.store %407, %197[%410] : memref<?xf32, #amdgpu.address_space<fat_raw_buffer>>, vector<1xf32>
        %411 = vector.extract_strided_slice %163 {offsets = [6], sizes = [1], strides = [1]} : vector<16xf32> to vector<1xf32>
        %412 = arith.andi %387, %241 : i1
        %413 = arith.addi %244, %118 overflow<nsw> : index
        %414 = arith.select %412, %413, %c536870911 : index
        vector.store %411, %197[%414] : memref<?xf32, #amdgpu.address_space<fat_raw_buffer>>, vector<1xf32>
        %415 = vector.extract_strided_slice %163 {offsets = [7], sizes = [1], strides = [1]} : vector<16xf32> to vector<1xf32>
        %416 = arith.andi %387, %249 : i1
        %417 = arith.addi %252, %118 overflow<nsw> : index
        %418 = arith.select %416, %417, %c536870911 : index
        vector.store %415, %197[%418] : memref<?xf32, #amdgpu.address_space<fat_raw_buffer>>, vector<1xf32>
        %419 = vector.extract_strided_slice %163 {offsets = [8], sizes = [1], strides = [1]} : vector<16xf32> to vector<1xf32>
        %420 = arith.andi %387, %257 : i1
        %421 = arith.addi %260, %118 overflow<nsw> : index
        %422 = arith.select %420, %421, %c536870911 : index
        vector.store %419, %197[%422] : memref<?xf32, #amdgpu.address_space<fat_raw_buffer>>, vector<1xf32>
        %423 = vector.extract_strided_slice %163 {offsets = [9], sizes = [1], strides = [1]} : vector<16xf32> to vector<1xf32>
        %424 = arith.andi %387, %265 : i1
        %425 = arith.addi %268, %118 overflow<nsw> : index
        %426 = arith.select %424, %425, %c536870911 : index
        vector.store %423, %197[%426] : memref<?xf32, #amdgpu.address_space<fat_raw_buffer>>, vector<1xf32>
        %427 = vector.extract_strided_slice %163 {offsets = [10], sizes = [1], strides = [1]} : vector<16xf32> to vector<1xf32>
        %428 = arith.andi %387, %273 : i1
        %429 = arith.addi %276, %118 overflow<nsw> : index
        %430 = arith.select %428, %429, %c536870911 : index
        vector.store %427, %197[%430] : memref<?xf32, #amdgpu.address_space<fat_raw_buffer>>, vector<1xf32>
        %431 = vector.extract_strided_slice %163 {offsets = [11], sizes = [1], strides = [1]} : vector<16xf32> to vector<1xf32>
        %432 = arith.andi %387, %281 : i1
        %433 = arith.addi %284, %118 overflow<nsw> : index
        %434 = arith.select %432, %433, %c536870911 : index
        vector.store %431, %197[%434] : memref<?xf32, #amdgpu.address_space<fat_raw_buffer>>, vector<1xf32>
        %435 = vector.extract_strided_slice %163 {offsets = [12], sizes = [1], strides = [1]} : vector<16xf32> to vector<1xf32>
        %436 = arith.andi %387, %289 : i1
        %437 = arith.addi %292, %118 overflow<nsw> : index
        %438 = arith.select %436, %437, %c536870911 : index
        vector.store %435, %197[%438] : memref<?xf32, #amdgpu.address_space<fat_raw_buffer>>, vector<1xf32>
        %439 = vector.extract_strided_slice %163 {offsets = [13], sizes = [1], strides = [1]} : vector<16xf32> to vector<1xf32>
        %440 = arith.andi %387, %297 : i1
        %441 = arith.addi %300, %118 overflow<nsw> : index
        %442 = arith.select %440, %441, %c536870911 : index
        vector.store %439, %197[%442] : memref<?xf32, #amdgpu.address_space<fat_raw_buffer>>, vector<1xf32>
        %443 = vector.extract_strided_slice %163 {offsets = [14], sizes = [1], strides = [1]} : vector<16xf32> to vector<1xf32>
        %444 = arith.andi %387, %305 : i1
        %445 = arith.addi %308, %118 overflow<nsw> : index
        %446 = arith.select %444, %445, %c536870911 : index
        vector.store %443, %197[%446] : memref<?xf32, #amdgpu.address_space<fat_raw_buffer>>, vector<1xf32>
        %447 = vector.extract_strided_slice %163 {offsets = [15], sizes = [1], strides = [1]} : vector<16xf32> to vector<1xf32>
        %448 = arith.andi %387, %313 : i1
        %449 = arith.addi %316, %118 overflow<nsw> : index
        %450 = arith.select %448, %449, %c536870911 : index
        vector.store %447, %197[%450] : memref<?xf32, #amdgpu.address_space<fat_raw_buffer>>, vector<1xf32>
        %451 = vector.extract_strided_slice %165 {offsets = [0], sizes = [1], strides = [1]} : vector<16xf32> to vector<1xf32>
        %452 = affine.apply #map67()[%thread_id_x, %block_id_y, %block_id_x, %3, %thread_id_y]
        %453 = arith.cmpi slt, %452, %181 : index
        %454 = arith.andi %453, %187 : i1
        %455 = arith.addi %193, %123 overflow<nsw> : index
        %456 = arith.select %454, %455, %c536870911 : index
        vector.store %451, %197[%456] : memref<?xf32, #amdgpu.address_space<fat_raw_buffer>>, vector<1xf32>
        %457 = vector.extract_strided_slice %165 {offsets = [1], sizes = [1], strides = [1]} : vector<16xf32> to vector<1xf32>
        %458 = arith.andi %453, %201 : i1
        %459 = arith.addi %204, %123 overflow<nsw> : index
        %460 = arith.select %458, %459, %c536870911 : index
        vector.store %457, %197[%460] : memref<?xf32, #amdgpu.address_space<fat_raw_buffer>>, vector<1xf32>
        %461 = vector.extract_strided_slice %165 {offsets = [2], sizes = [1], strides = [1]} : vector<16xf32> to vector<1xf32>
        %462 = arith.andi %453, %209 : i1
        %463 = arith.addi %212, %123 overflow<nsw> : index
        %464 = arith.select %462, %463, %c536870911 : index
        vector.store %461, %197[%464] : memref<?xf32, #amdgpu.address_space<fat_raw_buffer>>, vector<1xf32>
        %465 = vector.extract_strided_slice %165 {offsets = [3], sizes = [1], strides = [1]} : vector<16xf32> to vector<1xf32>
        %466 = arith.andi %453, %217 : i1
        %467 = arith.addi %220, %123 overflow<nsw> : index
        %468 = arith.select %466, %467, %c536870911 : index
        vector.store %465, %197[%468] : memref<?xf32, #amdgpu.address_space<fat_raw_buffer>>, vector<1xf32>
        %469 = vector.extract_strided_slice %165 {offsets = [4], sizes = [1], strides = [1]} : vector<16xf32> to vector<1xf32>
        %470 = arith.andi %453, %225 : i1
        %471 = arith.addi %228, %123 overflow<nsw> : index
        %472 = arith.select %470, %471, %c536870911 : index
        vector.store %469, %197[%472] : memref<?xf32, #amdgpu.address_space<fat_raw_buffer>>, vector<1xf32>
        %473 = vector.extract_strided_slice %165 {offsets = [5], sizes = [1], strides = [1]} : vector<16xf32> to vector<1xf32>
        %474 = arith.andi %453, %233 : i1
        %475 = arith.addi %236, %123 overflow<nsw> : index
        %476 = arith.select %474, %475, %c536870911 : index
        vector.store %473, %197[%476] : memref<?xf32, #amdgpu.address_space<fat_raw_buffer>>, vector<1xf32>
        %477 = vector.extract_strided_slice %165 {offsets = [6], sizes = [1], strides = [1]} : vector<16xf32> to vector<1xf32>
        %478 = arith.andi %453, %241 : i1
        %479 = arith.addi %244, %123 overflow<nsw> : index
        %480 = arith.select %478, %479, %c536870911 : index
        vector.store %477, %197[%480] : memref<?xf32, #amdgpu.address_space<fat_raw_buffer>>, vector<1xf32>
        %481 = vector.extract_strided_slice %165 {offsets = [7], sizes = [1], strides = [1]} : vector<16xf32> to vector<1xf32>
        %482 = arith.andi %453, %249 : i1
        %483 = arith.addi %252, %123 overflow<nsw> : index
        %484 = arith.select %482, %483, %c536870911 : index
        vector.store %481, %197[%484] : memref<?xf32, #amdgpu.address_space<fat_raw_buffer>>, vector<1xf32>
        %485 = vector.extract_strided_slice %165 {offsets = [8], sizes = [1], strides = [1]} : vector<16xf32> to vector<1xf32>
        %486 = arith.andi %453, %257 : i1
        %487 = arith.addi %260, %123 overflow<nsw> : index
        %488 = arith.select %486, %487, %c536870911 : index
        vector.store %485, %197[%488] : memref<?xf32, #amdgpu.address_space<fat_raw_buffer>>, vector<1xf32>
        %489 = vector.extract_strided_slice %165 {offsets = [9], sizes = [1], strides = [1]} : vector<16xf32> to vector<1xf32>
        %490 = arith.andi %453, %265 : i1
        %491 = arith.addi %268, %123 overflow<nsw> : index
        %492 = arith.select %490, %491, %c536870911 : index
        vector.store %489, %197[%492] : memref<?xf32, #amdgpu.address_space<fat_raw_buffer>>, vector<1xf32>
        %493 = vector.extract_strided_slice %165 {offsets = [10], sizes = [1], strides = [1]} : vector<16xf32> to vector<1xf32>
        %494 = arith.andi %453, %273 : i1
        %495 = arith.addi %276, %123 overflow<nsw> : index
        %496 = arith.select %494, %495, %c536870911 : index
        vector.store %493, %197[%496] : memref<?xf32, #amdgpu.address_space<fat_raw_buffer>>, vector<1xf32>
        %497 = vector.extract_strided_slice %165 {offsets = [11], sizes = [1], strides = [1]} : vector<16xf32> to vector<1xf32>
        %498 = arith.andi %453, %281 : i1
        %499 = arith.addi %284, %123 overflow<nsw> : index
        %500 = arith.select %498, %499, %c536870911 : index
        vector.store %497, %197[%500] : memref<?xf32, #amdgpu.address_space<fat_raw_buffer>>, vector<1xf32>
        %501 = vector.extract_strided_slice %165 {offsets = [12], sizes = [1], strides = [1]} : vector<16xf32> to vector<1xf32>
        %502 = arith.andi %453, %289 : i1
        %503 = arith.addi %292, %123 overflow<nsw> : index
        %504 = arith.select %502, %503, %c536870911 : index
        vector.store %501, %197[%504] : memref<?xf32, #amdgpu.address_space<fat_raw_buffer>>, vector<1xf32>
        %505 = vector.extract_strided_slice %165 {offsets = [13], sizes = [1], strides = [1]} : vector<16xf32> to vector<1xf32>
        %506 = arith.andi %453, %297 : i1
        %507 = arith.addi %300, %123 overflow<nsw> : index
        %508 = arith.select %506, %507, %c536870911 : index
        vector.store %505, %197[%508] : memref<?xf32, #amdgpu.address_space<fat_raw_buffer>>, vector<1xf32>
        %509 = vector.extract_strided_slice %165 {offsets = [14], sizes = [1], strides = [1]} : vector<16xf32> to vector<1xf32>
        %510 = arith.andi %453, %305 : i1
        %511 = arith.addi %308, %123 overflow<nsw> : index
        %512 = arith.select %510, %511, %c536870911 : index
        vector.store %509, %197[%512] : memref<?xf32, #amdgpu.address_space<fat_raw_buffer>>, vector<1xf32>
        %513 = vector.extract_strided_slice %165 {offsets = [15], sizes = [1], strides = [1]} : vector<16xf32> to vector<1xf32>
        %514 = arith.andi %453, %313 : i1
        %515 = arith.addi %316, %123 overflow<nsw> : index
        %516 = arith.select %514, %515, %c536870911 : index
        vector.store %513, %197[%516] : memref<?xf32, #amdgpu.address_space<fat_raw_buffer>>, vector<1xf32>
        %517 = vector.extract_strided_slice %167 {offsets = [0], sizes = [1], strides = [1]} : vector<16xf32> to vector<1xf32>
        %518 = affine.apply #map68()[%thread_id_x, %block_id_y, %block_id_x, %3, %thread_id_y]
        %519 = arith.cmpi slt, %518, %181 : index
        %520 = arith.andi %519, %187 : i1
        %521 = arith.addi %193, %128 overflow<nsw> : index
        %522 = arith.select %520, %521, %c536870911 : index
        vector.store %517, %197[%522] : memref<?xf32, #amdgpu.address_space<fat_raw_buffer>>, vector<1xf32>
        %523 = vector.extract_strided_slice %167 {offsets = [1], sizes = [1], strides = [1]} : vector<16xf32> to vector<1xf32>
        %524 = arith.andi %519, %201 : i1
        %525 = arith.addi %204, %128 overflow<nsw> : index
        %526 = arith.select %524, %525, %c536870911 : index
        vector.store %523, %197[%526] : memref<?xf32, #amdgpu.address_space<fat_raw_buffer>>, vector<1xf32>
        %527 = vector.extract_strided_slice %167 {offsets = [2], sizes = [1], strides = [1]} : vector<16xf32> to vector<1xf32>
        %528 = arith.andi %519, %209 : i1
        %529 = arith.addi %212, %128 overflow<nsw> : index
        %530 = arith.select %528, %529, %c536870911 : index
        vector.store %527, %197[%530] : memref<?xf32, #amdgpu.address_space<fat_raw_buffer>>, vector<1xf32>
        %531 = vector.extract_strided_slice %167 {offsets = [3], sizes = [1], strides = [1]} : vector<16xf32> to vector<1xf32>
        %532 = arith.andi %519, %217 : i1
        %533 = arith.addi %220, %128 overflow<nsw> : index
        %534 = arith.select %532, %533, %c536870911 : index
        vector.store %531, %197[%534] : memref<?xf32, #amdgpu.address_space<fat_raw_buffer>>, vector<1xf32>
        %535 = vector.extract_strided_slice %167 {offsets = [4], sizes = [1], strides = [1]} : vector<16xf32> to vector<1xf32>
        %536 = arith.andi %519, %225 : i1
        %537 = arith.addi %228, %128 overflow<nsw> : index
        %538 = arith.select %536, %537, %c536870911 : index
        vector.store %535, %197[%538] : memref<?xf32, #amdgpu.address_space<fat_raw_buffer>>, vector<1xf32>
        %539 = vector.extract_strided_slice %167 {offsets = [5], sizes = [1], strides = [1]} : vector<16xf32> to vector<1xf32>
        %540 = arith.andi %519, %233 : i1
        %541 = arith.addi %236, %128 overflow<nsw> : index
        %542 = arith.select %540, %541, %c536870911 : index
        vector.store %539, %197[%542] : memref<?xf32, #amdgpu.address_space<fat_raw_buffer>>, vector<1xf32>
        %543 = vector.extract_strided_slice %167 {offsets = [6], sizes = [1], strides = [1]} : vector<16xf32> to vector<1xf32>
        %544 = arith.andi %519, %241 : i1
        %545 = arith.addi %244, %128 overflow<nsw> : index
        %546 = arith.select %544, %545, %c536870911 : index
        vector.store %543, %197[%546] : memref<?xf32, #amdgpu.address_space<fat_raw_buffer>>, vector<1xf32>
        %547 = vector.extract_strided_slice %167 {offsets = [7], sizes = [1], strides = [1]} : vector<16xf32> to vector<1xf32>
        %548 = arith.andi %519, %249 : i1
        %549 = arith.addi %252, %128 overflow<nsw> : index
        %550 = arith.select %548, %549, %c536870911 : index
        vector.store %547, %197[%550] : memref<?xf32, #amdgpu.address_space<fat_raw_buffer>>, vector<1xf32>
        %551 = vector.extract_strided_slice %167 {offsets = [8], sizes = [1], strides = [1]} : vector<16xf32> to vector<1xf32>
        %552 = arith.andi %519, %257 : i1
        %553 = arith.addi %260, %128 overflow<nsw> : index
        %554 = arith.select %552, %553, %c536870911 : index
        vector.store %551, %197[%554] : memref<?xf32, #amdgpu.address_space<fat_raw_buffer>>, vector<1xf32>
        %555 = vector.extract_strided_slice %167 {offsets = [9], sizes = [1], strides = [1]} : vector<16xf32> to vector<1xf32>
        %556 = arith.andi %519, %265 : i1
        %557 = arith.addi %268, %128 overflow<nsw> : index
        %558 = arith.select %556, %557, %c536870911 : index
        vector.store %555, %197[%558] : memref<?xf32, #amdgpu.address_space<fat_raw_buffer>>, vector<1xf32>
        %559 = vector.extract_strided_slice %167 {offsets = [10], sizes = [1], strides = [1]} : vector<16xf32> to vector<1xf32>
        %560 = arith.andi %519, %273 : i1
        %561 = arith.addi %276, %128 overflow<nsw> : index
        %562 = arith.select %560, %561, %c536870911 : index
        vector.store %559, %197[%562] : memref<?xf32, #amdgpu.address_space<fat_raw_buffer>>, vector<1xf32>
        %563 = vector.extract_strided_slice %167 {offsets = [11], sizes = [1], strides = [1]} : vector<16xf32> to vector<1xf32>
        %564 = arith.andi %519, %281 : i1
        %565 = arith.addi %284, %128 overflow<nsw> : index
        %566 = arith.select %564, %565, %c536870911 : index
        vector.store %563, %197[%566] : memref<?xf32, #amdgpu.address_space<fat_raw_buffer>>, vector<1xf32>
        %567 = vector.extract_strided_slice %167 {offsets = [12], sizes = [1], strides = [1]} : vector<16xf32> to vector<1xf32>
        %568 = arith.andi %519, %289 : i1
        %569 = arith.addi %292, %128 overflow<nsw> : index
        %570 = arith.select %568, %569, %c536870911 : index
        vector.store %567, %197[%570] : memref<?xf32, #amdgpu.address_space<fat_raw_buffer>>, vector<1xf32>
        %571 = vector.extract_strided_slice %167 {offsets = [13], sizes = [1], strides = [1]} : vector<16xf32> to vector<1xf32>
        %572 = arith.andi %519, %297 : i1
        %573 = arith.addi %300, %128 overflow<nsw> : index
        %574 = arith.select %572, %573, %c536870911 : index
        vector.store %571, %197[%574] : memref<?xf32, #amdgpu.address_space<fat_raw_buffer>>, vector<1xf32>
        %575 = vector.extract_strided_slice %167 {offsets = [14], sizes = [1], strides = [1]} : vector<16xf32> to vector<1xf32>
        %576 = arith.andi %519, %305 : i1
        %577 = arith.addi %308, %128 overflow<nsw> : index
        %578 = arith.select %576, %577, %c536870911 : index
        vector.store %575, %197[%578] : memref<?xf32, #amdgpu.address_space<fat_raw_buffer>>, vector<1xf32>
        %579 = vector.extract_strided_slice %167 {offsets = [15], sizes = [1], strides = [1]} : vector<16xf32> to vector<1xf32>
        %580 = arith.andi %519, %313 : i1
        %581 = arith.addi %316, %128 overflow<nsw> : index
        %582 = arith.select %580, %581, %c536870911 : index
        vector.store %579, %197[%582] : memref<?xf32, #amdgpu.address_space<fat_raw_buffer>>, vector<1xf32>
        %583 = vector.extract_strided_slice %169 {offsets = [0], sizes = [1], strides = [1]} : vector<16xf32> to vector<1xf32>
        %584 = affine.apply #map69()[%thread_id_x, %block_id_y, %block_id_x, %3, %thread_id_y]
        %585 = arith.cmpi slt, %584, %181 : index
        %586 = arith.andi %585, %187 : i1
        %587 = arith.addi %193, %133 overflow<nsw> : index
        %588 = arith.select %586, %587, %c536870911 : index
        vector.store %583, %197[%588] : memref<?xf32, #amdgpu.address_space<fat_raw_buffer>>, vector<1xf32>
        %589 = vector.extract_strided_slice %169 {offsets = [1], sizes = [1], strides = [1]} : vector<16xf32> to vector<1xf32>
        %590 = arith.andi %585, %201 : i1
        %591 = arith.addi %204, %133 overflow<nsw> : index
        %592 = arith.select %590, %591, %c536870911 : index
        vector.store %589, %197[%592] : memref<?xf32, #amdgpu.address_space<fat_raw_buffer>>, vector<1xf32>
        %593 = vector.extract_strided_slice %169 {offsets = [2], sizes = [1], strides = [1]} : vector<16xf32> to vector<1xf32>
        %594 = arith.andi %585, %209 : i1
        %595 = arith.addi %212, %133 overflow<nsw> : index
        %596 = arith.select %594, %595, %c536870911 : index
        vector.store %593, %197[%596] : memref<?xf32, #amdgpu.address_space<fat_raw_buffer>>, vector<1xf32>
        %597 = vector.extract_strided_slice %169 {offsets = [3], sizes = [1], strides = [1]} : vector<16xf32> to vector<1xf32>
        %598 = arith.andi %585, %217 : i1
        %599 = arith.addi %220, %133 overflow<nsw> : index
        %600 = arith.select %598, %599, %c536870911 : index
        vector.store %597, %197[%600] : memref<?xf32, #amdgpu.address_space<fat_raw_buffer>>, vector<1xf32>
        %601 = vector.extract_strided_slice %169 {offsets = [4], sizes = [1], strides = [1]} : vector<16xf32> to vector<1xf32>
        %602 = arith.andi %585, %225 : i1
        %603 = arith.addi %228, %133 overflow<nsw> : index
        %604 = arith.select %602, %603, %c536870911 : index
        vector.store %601, %197[%604] : memref<?xf32, #amdgpu.address_space<fat_raw_buffer>>, vector<1xf32>
        %605 = vector.extract_strided_slice %169 {offsets = [5], sizes = [1], strides = [1]} : vector<16xf32> to vector<1xf32>
        %606 = arith.andi %585, %233 : i1
        %607 = arith.addi %236, %133 overflow<nsw> : index
        %608 = arith.select %606, %607, %c536870911 : index
        vector.store %605, %197[%608] : memref<?xf32, #amdgpu.address_space<fat_raw_buffer>>, vector<1xf32>
        %609 = vector.extract_strided_slice %169 {offsets = [6], sizes = [1], strides = [1]} : vector<16xf32> to vector<1xf32>
        %610 = arith.andi %585, %241 : i1
        %611 = arith.addi %244, %133 overflow<nsw> : index
        %612 = arith.select %610, %611, %c536870911 : index
        vector.store %609, %197[%612] : memref<?xf32, #amdgpu.address_space<fat_raw_buffer>>, vector<1xf32>
        %613 = vector.extract_strided_slice %169 {offsets = [7], sizes = [1], strides = [1]} : vector<16xf32> to vector<1xf32>
        %614 = arith.andi %585, %249 : i1
        %615 = arith.addi %252, %133 overflow<nsw> : index
        %616 = arith.select %614, %615, %c536870911 : index
        vector.store %613, %197[%616] : memref<?xf32, #amdgpu.address_space<fat_raw_buffer>>, vector<1xf32>
        %617 = vector.extract_strided_slice %169 {offsets = [8], sizes = [1], strides = [1]} : vector<16xf32> to vector<1xf32>
        %618 = arith.andi %585, %257 : i1
        %619 = arith.addi %260, %133 overflow<nsw> : index
        %620 = arith.select %618, %619, %c536870911 : index
        vector.store %617, %197[%620] : memref<?xf32, #amdgpu.address_space<fat_raw_buffer>>, vector<1xf32>
        %621 = vector.extract_strided_slice %169 {offsets = [9], sizes = [1], strides = [1]} : vector<16xf32> to vector<1xf32>
        %622 = arith.andi %585, %265 : i1
        %623 = arith.addi %268, %133 overflow<nsw> : index
        %624 = arith.select %622, %623, %c536870911 : index
        vector.store %621, %197[%624] : memref<?xf32, #amdgpu.address_space<fat_raw_buffer>>, vector<1xf32>
        %625 = vector.extract_strided_slice %169 {offsets = [10], sizes = [1], strides = [1]} : vector<16xf32> to vector<1xf32>
        %626 = arith.andi %585, %273 : i1
        %627 = arith.addi %276, %133 overflow<nsw> : index
        %628 = arith.select %626, %627, %c536870911 : index
        vector.store %625, %197[%628] : memref<?xf32, #amdgpu.address_space<fat_raw_buffer>>, vector<1xf32>
        %629 = vector.extract_strided_slice %169 {offsets = [11], sizes = [1], strides = [1]} : vector<16xf32> to vector<1xf32>
        %630 = arith.andi %585, %281 : i1
        %631 = arith.addi %284, %133 overflow<nsw> : index
        %632 = arith.select %630, %631, %c536870911 : index
        vector.store %629, %197[%632] : memref<?xf32, #amdgpu.address_space<fat_raw_buffer>>, vector<1xf32>
        %633 = vector.extract_strided_slice %169 {offsets = [12], sizes = [1], strides = [1]} : vector<16xf32> to vector<1xf32>
        %634 = arith.andi %585, %289 : i1
        %635 = arith.addi %292, %133 overflow<nsw> : index
        %636 = arith.select %634, %635, %c536870911 : index
        vector.store %633, %197[%636] : memref<?xf32, #amdgpu.address_space<fat_raw_buffer>>, vector<1xf32>
        %637 = vector.extract_strided_slice %169 {offsets = [13], sizes = [1], strides = [1]} : vector<16xf32> to vector<1xf32>
        %638 = arith.andi %585, %297 : i1
        %639 = arith.addi %300, %133 overflow<nsw> : index
        %640 = arith.select %638, %639, %c536870911 : index
        vector.store %637, %197[%640] : memref<?xf32, #amdgpu.address_space<fat_raw_buffer>>, vector<1xf32>
        %641 = vector.extract_strided_slice %169 {offsets = [14], sizes = [1], strides = [1]} : vector<16xf32> to vector<1xf32>
        %642 = arith.andi %585, %305 : i1
        %643 = arith.addi %308, %133 overflow<nsw> : index
        %644 = arith.select %642, %643, %c536870911 : index
        vector.store %641, %197[%644] : memref<?xf32, #amdgpu.address_space<fat_raw_buffer>>, vector<1xf32>
        %645 = vector.extract_strided_slice %169 {offsets = [15], sizes = [1], strides = [1]} : vector<16xf32> to vector<1xf32>
        %646 = arith.andi %585, %313 : i1
        %647 = arith.addi %316, %133 overflow<nsw> : index
        %648 = arith.select %646, %647, %c536870911 : index
        vector.store %645, %197[%648] : memref<?xf32, #amdgpu.address_space<fat_raw_buffer>>, vector<1xf32>
        %649 = vector.extract_strided_slice %171 {offsets = [0], sizes = [1], strides = [1]} : vector<16xf32> to vector<1xf32>
        %650 = affine.apply #map70()[%thread_id_x, %block_id_y, %block_id_x, %3, %thread_id_y]
        %651 = arith.cmpi slt, %650, %181 : index
        %652 = arith.andi %651, %187 : i1
        %653 = arith.addi %193, %138 overflow<nsw> : index
        %654 = arith.select %652, %653, %c536870911 : index
        vector.store %649, %197[%654] : memref<?xf32, #amdgpu.address_space<fat_raw_buffer>>, vector<1xf32>
        %655 = vector.extract_strided_slice %171 {offsets = [1], sizes = [1], strides = [1]} : vector<16xf32> to vector<1xf32>
        %656 = arith.andi %651, %201 : i1
        %657 = arith.addi %204, %138 overflow<nsw> : index
        %658 = arith.select %656, %657, %c536870911 : index
        vector.store %655, %197[%658] : memref<?xf32, #amdgpu.address_space<fat_raw_buffer>>, vector<1xf32>
        %659 = vector.extract_strided_slice %171 {offsets = [2], sizes = [1], strides = [1]} : vector<16xf32> to vector<1xf32>
        %660 = arith.andi %651, %209 : i1
        %661 = arith.addi %212, %138 overflow<nsw> : index
        %662 = arith.select %660, %661, %c536870911 : index
        vector.store %659, %197[%662] : memref<?xf32, #amdgpu.address_space<fat_raw_buffer>>, vector<1xf32>
        %663 = vector.extract_strided_slice %171 {offsets = [3], sizes = [1], strides = [1]} : vector<16xf32> to vector<1xf32>
        %664 = arith.andi %651, %217 : i1
        %665 = arith.addi %220, %138 overflow<nsw> : index
        %666 = arith.select %664, %665, %c536870911 : index
        vector.store %663, %197[%666] : memref<?xf32, #amdgpu.address_space<fat_raw_buffer>>, vector<1xf32>
        %667 = vector.extract_strided_slice %171 {offsets = [4], sizes = [1], strides = [1]} : vector<16xf32> to vector<1xf32>
        %668 = arith.andi %651, %225 : i1
        %669 = arith.addi %228, %138 overflow<nsw> : index
        %670 = arith.select %668, %669, %c536870911 : index
        vector.store %667, %197[%670] : memref<?xf32, #amdgpu.address_space<fat_raw_buffer>>, vector<1xf32>
        %671 = vector.extract_strided_slice %171 {offsets = [5], sizes = [1], strides = [1]} : vector<16xf32> to vector<1xf32>
        %672 = arith.andi %651, %233 : i1
        %673 = arith.addi %236, %138 overflow<nsw> : index
        %674 = arith.select %672, %673, %c536870911 : index
        vector.store %671, %197[%674] : memref<?xf32, #amdgpu.address_space<fat_raw_buffer>>, vector<1xf32>
        %675 = vector.extract_strided_slice %171 {offsets = [6], sizes = [1], strides = [1]} : vector<16xf32> to vector<1xf32>
        %676 = arith.andi %651, %241 : i1
        %677 = arith.addi %244, %138 overflow<nsw> : index
        %678 = arith.select %676, %677, %c536870911 : index
        vector.store %675, %197[%678] : memref<?xf32, #amdgpu.address_space<fat_raw_buffer>>, vector<1xf32>
        %679 = vector.extract_strided_slice %171 {offsets = [7], sizes = [1], strides = [1]} : vector<16xf32> to vector<1xf32>
        %680 = arith.andi %651, %249 : i1
        %681 = arith.addi %252, %138 overflow<nsw> : index
        %682 = arith.select %680, %681, %c536870911 : index
        vector.store %679, %197[%682] : memref<?xf32, #amdgpu.address_space<fat_raw_buffer>>, vector<1xf32>
        %683 = vector.extract_strided_slice %171 {offsets = [8], sizes = [1], strides = [1]} : vector<16xf32> to vector<1xf32>
        %684 = arith.andi %651, %257 : i1
        %685 = arith.addi %260, %138 overflow<nsw> : index
        %686 = arith.select %684, %685, %c536870911 : index
        vector.store %683, %197[%686] : memref<?xf32, #amdgpu.address_space<fat_raw_buffer>>, vector<1xf32>
        %687 = vector.extract_strided_slice %171 {offsets = [9], sizes = [1], strides = [1]} : vector<16xf32> to vector<1xf32>
        %688 = arith.andi %651, %265 : i1
        %689 = arith.addi %268, %138 overflow<nsw> : index
        %690 = arith.select %688, %689, %c536870911 : index
        vector.store %687, %197[%690] : memref<?xf32, #amdgpu.address_space<fat_raw_buffer>>, vector<1xf32>
        %691 = vector.extract_strided_slice %171 {offsets = [10], sizes = [1], strides = [1]} : vector<16xf32> to vector<1xf32>
        %692 = arith.andi %651, %273 : i1
        %693 = arith.addi %276, %138 overflow<nsw> : index
        %694 = arith.select %692, %693, %c536870911 : index
        vector.store %691, %197[%694] : memref<?xf32, #amdgpu.address_space<fat_raw_buffer>>, vector<1xf32>
        %695 = vector.extract_strided_slice %171 {offsets = [11], sizes = [1], strides = [1]} : vector<16xf32> to vector<1xf32>
        %696 = arith.andi %651, %281 : i1
        %697 = arith.addi %284, %138 overflow<nsw> : index
        %698 = arith.select %696, %697, %c536870911 : index
        vector.store %695, %197[%698] : memref<?xf32, #amdgpu.address_space<fat_raw_buffer>>, vector<1xf32>
        %699 = vector.extract_strided_slice %171 {offsets = [12], sizes = [1], strides = [1]} : vector<16xf32> to vector<1xf32>
        %700 = arith.andi %651, %289 : i1
        %701 = arith.addi %292, %138 overflow<nsw> : index
        %702 = arith.select %700, %701, %c536870911 : index
        vector.store %699, %197[%702] : memref<?xf32, #amdgpu.address_space<fat_raw_buffer>>, vector<1xf32>
        %703 = vector.extract_strided_slice %171 {offsets = [13], sizes = [1], strides = [1]} : vector<16xf32> to vector<1xf32>
        %704 = arith.andi %651, %297 : i1
        %705 = arith.addi %300, %138 overflow<nsw> : index
        %706 = arith.select %704, %705, %c536870911 : index
        vector.store %703, %197[%706] : memref<?xf32, #amdgpu.address_space<fat_raw_buffer>>, vector<1xf32>
        %707 = vector.extract_strided_slice %171 {offsets = [14], sizes = [1], strides = [1]} : vector<16xf32> to vector<1xf32>
        %708 = arith.andi %651, %305 : i1
        %709 = arith.addi %308, %138 overflow<nsw> : index
        %710 = arith.select %708, %709, %c536870911 : index
        vector.store %707, %197[%710] : memref<?xf32, #amdgpu.address_space<fat_raw_buffer>>, vector<1xf32>
        %711 = vector.extract_strided_slice %171 {offsets = [15], sizes = [1], strides = [1]} : vector<16xf32> to vector<1xf32>
        %712 = arith.andi %651, %313 : i1
        %713 = arith.addi %316, %138 overflow<nsw> : index
        %714 = arith.select %712, %713, %c536870911 : index
        vector.store %711, %197[%714] : memref<?xf32, #amdgpu.address_space<fat_raw_buffer>>, vector<1xf32>
        %715 = vector.extract_strided_slice %173 {offsets = [0], sizes = [1], strides = [1]} : vector<16xf32> to vector<1xf32>
        %716 = affine.apply #map71()[%thread_id_x, %block_id_y, %block_id_x, %3, %thread_id_y]
        %717 = arith.cmpi slt, %716, %181 : index
        %718 = arith.andi %717, %187 : i1
        %719 = arith.addi %193, %143 overflow<nsw> : index
        %720 = arith.select %718, %719, %c536870911 : index
        vector.store %715, %197[%720] : memref<?xf32, #amdgpu.address_space<fat_raw_buffer>>, vector<1xf32>
        %721 = vector.extract_strided_slice %173 {offsets = [1], sizes = [1], strides = [1]} : vector<16xf32> to vector<1xf32>
        %722 = arith.andi %717, %201 : i1
        %723 = arith.addi %204, %143 overflow<nsw> : index
        %724 = arith.select %722, %723, %c536870911 : index
        vector.store %721, %197[%724] : memref<?xf32, #amdgpu.address_space<fat_raw_buffer>>, vector<1xf32>
        %725 = vector.extract_strided_slice %173 {offsets = [2], sizes = [1], strides = [1]} : vector<16xf32> to vector<1xf32>
        %726 = arith.andi %717, %209 : i1
        %727 = arith.addi %212, %143 overflow<nsw> : index
        %728 = arith.select %726, %727, %c536870911 : index
        vector.store %725, %197[%728] : memref<?xf32, #amdgpu.address_space<fat_raw_buffer>>, vector<1xf32>
        %729 = vector.extract_strided_slice %173 {offsets = [3], sizes = [1], strides = [1]} : vector<16xf32> to vector<1xf32>
        %730 = arith.andi %717, %217 : i1
        %731 = arith.addi %220, %143 overflow<nsw> : index
        %732 = arith.select %730, %731, %c536870911 : index
        vector.store %729, %197[%732] : memref<?xf32, #amdgpu.address_space<fat_raw_buffer>>, vector<1xf32>
        %733 = vector.extract_strided_slice %173 {offsets = [4], sizes = [1], strides = [1]} : vector<16xf32> to vector<1xf32>
        %734 = arith.andi %717, %225 : i1
        %735 = arith.addi %228, %143 overflow<nsw> : index
        %736 = arith.select %734, %735, %c536870911 : index
        vector.store %733, %197[%736] : memref<?xf32, #amdgpu.address_space<fat_raw_buffer>>, vector<1xf32>
        %737 = vector.extract_strided_slice %173 {offsets = [5], sizes = [1], strides = [1]} : vector<16xf32> to vector<1xf32>
        %738 = arith.andi %717, %233 : i1
        %739 = arith.addi %236, %143 overflow<nsw> : index
        %740 = arith.select %738, %739, %c536870911 : index
        vector.store %737, %197[%740] : memref<?xf32, #amdgpu.address_space<fat_raw_buffer>>, vector<1xf32>
        %741 = vector.extract_strided_slice %173 {offsets = [6], sizes = [1], strides = [1]} : vector<16xf32> to vector<1xf32>
        %742 = arith.andi %717, %241 : i1
        %743 = arith.addi %244, %143 overflow<nsw> : index
        %744 = arith.select %742, %743, %c536870911 : index
        vector.store %741, %197[%744] : memref<?xf32, #amdgpu.address_space<fat_raw_buffer>>, vector<1xf32>
        %745 = vector.extract_strided_slice %173 {offsets = [7], sizes = [1], strides = [1]} : vector<16xf32> to vector<1xf32>
        %746 = arith.andi %717, %249 : i1
        %747 = arith.addi %252, %143 overflow<nsw> : index
        %748 = arith.select %746, %747, %c536870911 : index
        vector.store %745, %197[%748] : memref<?xf32, #amdgpu.address_space<fat_raw_buffer>>, vector<1xf32>
        %749 = vector.extract_strided_slice %173 {offsets = [8], sizes = [1], strides = [1]} : vector<16xf32> to vector<1xf32>
        %750 = arith.andi %717, %257 : i1
        %751 = arith.addi %260, %143 overflow<nsw> : index
        %752 = arith.select %750, %751, %c536870911 : index
        vector.store %749, %197[%752] : memref<?xf32, #amdgpu.address_space<fat_raw_buffer>>, vector<1xf32>
        %753 = vector.extract_strided_slice %173 {offsets = [9], sizes = [1], strides = [1]} : vector<16xf32> to vector<1xf32>
        %754 = arith.andi %717, %265 : i1
        %755 = arith.addi %268, %143 overflow<nsw> : index
        %756 = arith.select %754, %755, %c536870911 : index
        vector.store %753, %197[%756] : memref<?xf32, #amdgpu.address_space<fat_raw_buffer>>, vector<1xf32>
        %757 = vector.extract_strided_slice %173 {offsets = [10], sizes = [1], strides = [1]} : vector<16xf32> to vector<1xf32>
        %758 = arith.andi %717, %273 : i1
        %759 = arith.addi %276, %143 overflow<nsw> : index
        %760 = arith.select %758, %759, %c536870911 : index
        vector.store %757, %197[%760] : memref<?xf32, #amdgpu.address_space<fat_raw_buffer>>, vector<1xf32>
        %761 = vector.extract_strided_slice %173 {offsets = [11], sizes = [1], strides = [1]} : vector<16xf32> to vector<1xf32>
        %762 = arith.andi %717, %281 : i1
        %763 = arith.addi %284, %143 overflow<nsw> : index
        %764 = arith.select %762, %763, %c536870911 : index
        vector.store %761, %197[%764] : memref<?xf32, #amdgpu.address_space<fat_raw_buffer>>, vector<1xf32>
        %765 = vector.extract_strided_slice %173 {offsets = [12], sizes = [1], strides = [1]} : vector<16xf32> to vector<1xf32>
        %766 = arith.andi %717, %289 : i1
        %767 = arith.addi %292, %143 overflow<nsw> : index
        %768 = arith.select %766, %767, %c536870911 : index
        vector.store %765, %197[%768] : memref<?xf32, #amdgpu.address_space<fat_raw_buffer>>, vector<1xf32>
        %769 = vector.extract_strided_slice %173 {offsets = [13], sizes = [1], strides = [1]} : vector<16xf32> to vector<1xf32>
        %770 = arith.andi %717, %297 : i1
        %771 = arith.addi %300, %143 overflow<nsw> : index
        %772 = arith.select %770, %771, %c536870911 : index
        vector.store %769, %197[%772] : memref<?xf32, #amdgpu.address_space<fat_raw_buffer>>, vector<1xf32>
        %773 = vector.extract_strided_slice %173 {offsets = [14], sizes = [1], strides = [1]} : vector<16xf32> to vector<1xf32>
        %774 = arith.andi %717, %305 : i1
        %775 = arith.addi %308, %143 overflow<nsw> : index
        %776 = arith.select %774, %775, %c536870911 : index
        vector.store %773, %197[%776] : memref<?xf32, #amdgpu.address_space<fat_raw_buffer>>, vector<1xf32>
        %777 = vector.extract_strided_slice %173 {offsets = [15], sizes = [1], strides = [1]} : vector<16xf32> to vector<1xf32>
        %778 = arith.andi %717, %313 : i1
        %779 = arith.addi %316, %143 overflow<nsw> : index
        %780 = arith.select %778, %779, %c536870911 : index
        vector.store %777, %197[%780] : memref<?xf32, #amdgpu.address_space<fat_raw_buffer>>, vector<1xf32>
        %781 = vector.extract_strided_slice %175 {offsets = [0], sizes = [1], strides = [1]} : vector<16xf32> to vector<1xf32>
        %782 = affine.apply #map72()[%thread_id_x, %block_id_y, %block_id_x, %3, %thread_id_y]
        %783 = arith.cmpi slt, %782, %181 : index
        %784 = arith.andi %783, %187 : i1
        %785 = arith.addi %193, %148 overflow<nsw> : index
        %786 = arith.select %784, %785, %c536870911 : index
        vector.store %781, %197[%786] : memref<?xf32, #amdgpu.address_space<fat_raw_buffer>>, vector<1xf32>
        %787 = vector.extract_strided_slice %175 {offsets = [1], sizes = [1], strides = [1]} : vector<16xf32> to vector<1xf32>
        %788 = arith.andi %783, %201 : i1
        %789 = arith.addi %204, %148 overflow<nsw> : index
        %790 = arith.select %788, %789, %c536870911 : index
        vector.store %787, %197[%790] : memref<?xf32, #amdgpu.address_space<fat_raw_buffer>>, vector<1xf32>
        %791 = vector.extract_strided_slice %175 {offsets = [2], sizes = [1], strides = [1]} : vector<16xf32> to vector<1xf32>
        %792 = arith.andi %783, %209 : i1
        %793 = arith.addi %212, %148 overflow<nsw> : index
        %794 = arith.select %792, %793, %c536870911 : index
        vector.store %791, %197[%794] : memref<?xf32, #amdgpu.address_space<fat_raw_buffer>>, vector<1xf32>
        %795 = vector.extract_strided_slice %175 {offsets = [3], sizes = [1], strides = [1]} : vector<16xf32> to vector<1xf32>
        %796 = arith.andi %783, %217 : i1
        %797 = arith.addi %220, %148 overflow<nsw> : index
        %798 = arith.select %796, %797, %c536870911 : index
        vector.store %795, %197[%798] : memref<?xf32, #amdgpu.address_space<fat_raw_buffer>>, vector<1xf32>
        %799 = vector.extract_strided_slice %175 {offsets = [4], sizes = [1], strides = [1]} : vector<16xf32> to vector<1xf32>
        %800 = arith.andi %783, %225 : i1
        %801 = arith.addi %228, %148 overflow<nsw> : index
        %802 = arith.select %800, %801, %c536870911 : index
        vector.store %799, %197[%802] : memref<?xf32, #amdgpu.address_space<fat_raw_buffer>>, vector<1xf32>
        %803 = vector.extract_strided_slice %175 {offsets = [5], sizes = [1], strides = [1]} : vector<16xf32> to vector<1xf32>
        %804 = arith.andi %783, %233 : i1
        %805 = arith.addi %236, %148 overflow<nsw> : index
        %806 = arith.select %804, %805, %c536870911 : index
        vector.store %803, %197[%806] : memref<?xf32, #amdgpu.address_space<fat_raw_buffer>>, vector<1xf32>
        %807 = vector.extract_strided_slice %175 {offsets = [6], sizes = [1], strides = [1]} : vector<16xf32> to vector<1xf32>
        %808 = arith.andi %783, %241 : i1
        %809 = arith.addi %244, %148 overflow<nsw> : index
        %810 = arith.select %808, %809, %c536870911 : index
        vector.store %807, %197[%810] : memref<?xf32, #amdgpu.address_space<fat_raw_buffer>>, vector<1xf32>
        %811 = vector.extract_strided_slice %175 {offsets = [7], sizes = [1], strides = [1]} : vector<16xf32> to vector<1xf32>
        %812 = arith.andi %783, %249 : i1
        %813 = arith.addi %252, %148 overflow<nsw> : index
        %814 = arith.select %812, %813, %c536870911 : index
        vector.store %811, %197[%814] : memref<?xf32, #amdgpu.address_space<fat_raw_buffer>>, vector<1xf32>
        %815 = vector.extract_strided_slice %175 {offsets = [8], sizes = [1], strides = [1]} : vector<16xf32> to vector<1xf32>
        %816 = arith.andi %783, %257 : i1
        %817 = arith.addi %260, %148 overflow<nsw> : index
        %818 = arith.select %816, %817, %c536870911 : index
        vector.store %815, %197[%818] : memref<?xf32, #amdgpu.address_space<fat_raw_buffer>>, vector<1xf32>
        %819 = vector.extract_strided_slice %175 {offsets = [9], sizes = [1], strides = [1]} : vector<16xf32> to vector<1xf32>
        %820 = arith.andi %783, %265 : i1
        %821 = arith.addi %268, %148 overflow<nsw> : index
        %822 = arith.select %820, %821, %c536870911 : index
        vector.store %819, %197[%822] : memref<?xf32, #amdgpu.address_space<fat_raw_buffer>>, vector<1xf32>
        %823 = vector.extract_strided_slice %175 {offsets = [10], sizes = [1], strides = [1]} : vector<16xf32> to vector<1xf32>
        %824 = arith.andi %783, %273 : i1
        %825 = arith.addi %276, %148 overflow<nsw> : index
        %826 = arith.select %824, %825, %c536870911 : index
        vector.store %823, %197[%826] : memref<?xf32, #amdgpu.address_space<fat_raw_buffer>>, vector<1xf32>
        %827 = vector.extract_strided_slice %175 {offsets = [11], sizes = [1], strides = [1]} : vector<16xf32> to vector<1xf32>
        %828 = arith.andi %783, %281 : i1
        %829 = arith.addi %284, %148 overflow<nsw> : index
        %830 = arith.select %828, %829, %c536870911 : index
        vector.store %827, %197[%830] : memref<?xf32, #amdgpu.address_space<fat_raw_buffer>>, vector<1xf32>
        %831 = vector.extract_strided_slice %175 {offsets = [12], sizes = [1], strides = [1]} : vector<16xf32> to vector<1xf32>
        %832 = arith.andi %783, %289 : i1
        %833 = arith.addi %292, %148 overflow<nsw> : index
        %834 = arith.select %832, %833, %c536870911 : index
        vector.store %831, %197[%834] : memref<?xf32, #amdgpu.address_space<fat_raw_buffer>>, vector<1xf32>
        %835 = vector.extract_strided_slice %175 {offsets = [13], sizes = [1], strides = [1]} : vector<16xf32> to vector<1xf32>
        %836 = arith.andi %783, %297 : i1
        %837 = arith.addi %300, %148 overflow<nsw> : index
        %838 = arith.select %836, %837, %c536870911 : index
        vector.store %835, %197[%838] : memref<?xf32, #amdgpu.address_space<fat_raw_buffer>>, vector<1xf32>
        %839 = vector.extract_strided_slice %175 {offsets = [14], sizes = [1], strides = [1]} : vector<16xf32> to vector<1xf32>
        %840 = arith.andi %783, %305 : i1
        %841 = arith.addi %308, %148 overflow<nsw> : index
        %842 = arith.select %840, %841, %c536870911 : index
        vector.store %839, %197[%842] : memref<?xf32, #amdgpu.address_space<fat_raw_buffer>>, vector<1xf32>
        %843 = vector.extract_strided_slice %175 {offsets = [15], sizes = [1], strides = [1]} : vector<16xf32> to vector<1xf32>
        %844 = arith.andi %783, %313 : i1
        %845 = arith.addi %316, %148 overflow<nsw> : index
        %846 = arith.select %844, %845, %c536870911 : index
        vector.store %843, %197[%846] : memref<?xf32, #amdgpu.address_space<fat_raw_buffer>>, vector<1xf32>
        return
      }
    }
  }
  func.func @isolated_benchmark(%arg0: tensor<642x14336xf16>, %arg1: tensor<4096x14336xf16>, %arg2: tensor<642x4096xf32>) -> tensor<642x4096xf32> {
    %0 = flow.dispatch @gemm::@gemm(%arg0, %arg1, %arg2) : (tensor<642x14336xf16>, tensor<4096x14336xf16>, tensor<642x4096xf32>) -> %arg2
    return %0 : tensor<642x4096xf32>
  }
}
