#map = affine_map<()[s0, s1] -> ((s0 * 2 + s1) mod 8)>
#map1 = affine_map<()[s0, s1, s2, s3, s4] -> ((s1 * 128 + s0 floordiv 2) mod 328 + ((s4 + (s2 + s3 * 2) floordiv 8) floordiv 3) * 328)>
#map2 = affine_map<()[s0] -> (s0 * 8 - (s0 floordiv 2) * 16)>
#map3 = affine_map<()[s0, s1, s2, s3, s4] -> (s1 * 128 + s0 floordiv 2 - ((s1 * 128 + s0 floordiv 2 + 256) floordiv 328) * 328 + ((s4 + (s2 + s3 * 2) floordiv 8) floordiv 3) * 328 + 256)>
#map4 = affine_map<()[s0, s1, s2, s3, s4] -> (s1 * 128 + s4 * 1090 + s0 floordiv 2 - ((s1 * 128 + s0 floordiv 2) floordiv 1090) * 1090 + ((s2 + s3 * 2) floordiv 8) * 1090 - ((s4 + (s2 + s3 * 2) floordiv 8) floordiv 3) * 3270)>
#map5 = affine_map<()[s0, s1, s2, s3, s4] -> (s1 * 128 + s4 * 1090 + s0 floordiv 2 - ((s1 * 128 + s0 floordiv 2 + 256) floordiv 1090) * 1090 + ((s2 + s3 * 2) floordiv 8) * 1090 - ((s4 + (s2 + s3 * 2) floordiv 8) floordiv 3) * 3270 + 256)>
#map6 = affine_map<()[s0, s1, s2, s3, s4] -> (s1 * 128 + s4 * 1090 + s0 floordiv 2 - ((s1 * 128 + s0 floordiv 2 + 512) floordiv 1090) * 1090 + ((s2 + s3 * 2) floordiv 8) * 1090 - ((s4 + (s2 + s3 * 2) floordiv 8) floordiv 3) * 3270 + 512)>
#map7 = affine_map<()[s0, s1, s2, s3, s4] -> (s1 * 128 + s4 * 1090 + s0 floordiv 2 - ((s1 * 128 + s0 floordiv 2 + 768) floordiv 1090) * 1090 + ((s2 + s3 * 2) floordiv 8) * 1090 - ((s4 + (s2 + s3 * 2) floordiv 8) floordiv 3) * 3270 + 768)>
#map8 = affine_map<()[s0, s1, s2, s3, s4] -> (s1 * 128 + s4 * 1090 + s0 floordiv 2 - ((s1 * 128 + s0 floordiv 2 + 1024) floordiv 1090) * 1090 + ((s2 + s3 * 2) floordiv 8) * 1090 - ((s4 + (s2 + s3 * 2) floordiv 8) floordiv 3) * 3270 + 1024)>
#map9 = affine_map<()[s0] -> ((s0 floordiv 64) * 82 + 82)>
#map10 = affine_map<()[s0, s1] -> ((s1 * 128 + s0 floordiv 2) mod 328)>
#map11 = affine_map<()[s0, s1] -> (s1 * 128 + s0 floordiv 2 - ((s1 * 128 + s0 floordiv 2 + 256) floordiv 328) * 328 + 256)>
#map12 = affine_map<()[s0] -> (s0 * 545 + 545)>
#map13 = affine_map<()[s0, s1] -> ((s1 * 128 + s0 floordiv 2) mod 1090)>
#map14 = affine_map<()[s0, s1] -> (s1 * 128 + s0 floordiv 2 - ((s1 * 128 + s0 floordiv 2 + 256) floordiv 1090) * 1090 + 256)>
#map15 = affine_map<()[s0, s1] -> (s1 * 128 + s0 floordiv 2 - ((s1 * 128 + s0 floordiv 2 + 512) floordiv 1090) * 1090 + 512)>
#map16 = affine_map<()[s0, s1] -> (s1 * 128 + s0 floordiv 2 - ((s1 * 128 + s0 floordiv 2 + 768) floordiv 1090) * 1090 + 768)>
#map17 = affine_map<()[s0, s1] -> (s1 * 128 + s0 floordiv 2 - ((s1 * 128 + s0 floordiv 2 + 1024) floordiv 1090) * 1090 + 1024)>
#map18 = affine_map<()[s0, s1] -> (s0 + s1 * 545 - (s0 floordiv 32) * 32)>
#map19 = affine_map<()[s0] -> (((s0 mod 64) floordiv 32) * 8)>
#map20 = affine_map<()[s0, s1] -> (s0 + s1 * 545 - (s0 floordiv 32) * 32 + 32)>
#map21 = affine_map<()[s0, s1] -> (s0 + s1 * 545 - (s0 floordiv 32) * 32 + 64)>
#map22 = affine_map<()[s0, s1] -> (s0 + s1 * 545 - (s0 floordiv 32) * 32 + 96)>
#map23 = affine_map<()[s0, s1] -> (s0 + s1 * 545 - (s0 floordiv 32) * 32 + 128)>
#map24 = affine_map<()[s0, s1] -> (s0 + s1 * 545 - (s0 floordiv 32) * 32 + 160)>
#map25 = affine_map<()[s0, s1] -> (s0 + s1 * 545 - (s0 floordiv 32) * 32 + 192)>
#map26 = affine_map<()[s0, s1] -> (s0 + s1 * 545 - (s0 floordiv 32) * 32 + 224)>
#map27 = affine_map<()[s0, s1] -> (s0 + s1 * 545 - (s0 floordiv 32) * 32 + 256)>
#map28 = affine_map<()[s0, s1] -> (s0 + s1 * 545 - (s0 floordiv 32) * 32 + 288)>
#map29 = affine_map<()[s0, s1] -> (s0 + s1 * 545 - (s0 floordiv 32) * 32 + 320)>
#map30 = affine_map<()[s0, s1] -> (s0 + s1 * 545 - (s0 floordiv 32) * 32 + 352)>
#map31 = affine_map<()[s0, s1] -> (s0 + s1 * 545 - (s0 floordiv 32) * 32 + 384)>
#map32 = affine_map<()[s0, s1] -> (s0 + s1 * 545 - (s0 floordiv 32) * 32 + 416)>
#map33 = affine_map<()[s0, s1] -> (s0 + s1 * 545 - (s0 floordiv 32) * 32 + 448)>
#map34 = affine_map<()[s0, s1] -> (s0 + s1 * 545 - (s0 floordiv 32) * 32 + 480)>
#map35 = affine_map<()[s0, s1] -> (s0 + s1 * 545 - (s0 floordiv 32) * 32 + 512)>
#map36 = affine_map<()[s0, s1] -> (s0 + s1 * 545 - (s0 floordiv 32) * 32 + 544)>
#map37 = affine_map<()[s0] -> (s0 mod 32 + (s0 floordiv 64) * 82)>
#map38 = affine_map<()[s0] -> (s0 mod 32 + (s0 floordiv 64) * 82 + 32)>
#map39 = affine_map<()[s0] -> (s0 mod 32 + (s0 floordiv 64) * 82 + 64)>
#map40 = affine_map<()[s0, s1] -> (s0 * 16 + s1 * 8 - (s1 floordiv 2) * 16 + 16)>
#map41 = affine_map<()[s0, s1] -> (s0 * 1090 + s1 * 545 + 545)>
#map42 = affine_map<()[s0] -> (s0 * 1090 + 1090)>
#map43 = affine_map<()[s0, s1, s2, s3, s4] -> (s0 + s3 * 1090 + s4 * 545 - (s0 floordiv 32) * 32 + ((s1 + s2 * 2) floordiv 8) * 1090 - ((s3 + (s1 + s2 * 2) floordiv 8) floordiv 3) * 3270)>
#map44 = affine_map<()[s0, s1] -> (s0 * 328 + (s1 floordiv 64) * 82 + 82)>
#map45 = affine_map<()[s0] -> (s0 * 328 + 328)>
#map46 = affine_map<()[s0, s1, s2, s3] -> (((s2 + (s0 + s1 * 2) floordiv 8) floordiv 3) * 328 + (s3 floordiv 64) * 82 + ((s3 mod 64) floordiv 32) * 4)>
#map47 = affine_map<()[s0, s1, s2] -> (((s2 + (s0 + s1 * 2) floordiv 8) floordiv 3) * 328)>
#map48 = affine_map<()[s0, s1, s2] -> (s2 * 1090 + ((s0 + s1 * 2) floordiv 8) * 1090 - ((s2 + (s0 + s1 * 2) floordiv 8) floordiv 3) * 3270)>
#map49 = affine_map<()[s0] -> ((s0 floordiv 64) * 82 + ((s0 mod 64) floordiv 32) * 4)>
#map50 = affine_map<()[s0, s1, s2, s3] -> (((s2 + (s0 + s1 * 2) floordiv 8) floordiv 3) * 328 + (s3 floordiv 64) * 82 + ((s3 mod 64) floordiv 32) * 4 + 1)>
#map51 = affine_map<()[s0] -> ((s0 floordiv 64) * 82 + ((s0 mod 64) floordiv 32) * 4 + 1)>
#map52 = affine_map<()[s0, s1, s2, s3] -> (((s2 + (s0 + s1 * 2) floordiv 8) floordiv 3) * 328 + (s3 floordiv 64) * 82 + ((s3 mod 64) floordiv 32) * 4 + 2)>
#map53 = affine_map<()[s0] -> ((s0 floordiv 64) * 82 + ((s0 mod 64) floordiv 32) * 4 + 2)>
#map54 = affine_map<()[s0, s1, s2, s3] -> (((s2 + (s0 + s1 * 2) floordiv 8) floordiv 3) * 328 + (s3 floordiv 64) * 82 + ((s3 mod 64) floordiv 32) * 4 + 3)>
#map55 = affine_map<()[s0] -> ((s0 floordiv 64) * 82 + ((s0 mod 64) floordiv 32) * 4 + 3)>
#map56 = affine_map<()[s0, s1, s2, s3] -> (((s2 + (s0 + s1 * 2) floordiv 8) floordiv 3) * 328 + (s3 floordiv 64) * 82 + ((s3 mod 64) floordiv 32) * 4 + 8)>
#map57 = affine_map<()[s0] -> ((s0 floordiv 64) * 82 + ((s0 mod 64) floordiv 32) * 4 + 8)>
#map58 = affine_map<()[s0, s1, s2, s3] -> (((s2 + (s0 + s1 * 2) floordiv 8) floordiv 3) * 328 + (s3 floordiv 64) * 82 + ((s3 mod 64) floordiv 32) * 4 + 9)>
#map59 = affine_map<()[s0] -> ((s0 floordiv 64) * 82 + ((s0 mod 64) floordiv 32) * 4 + 9)>
#map60 = affine_map<()[s0, s1, s2, s3] -> (((s2 + (s0 + s1 * 2) floordiv 8) floordiv 3) * 328 + (s3 floordiv 64) * 82 + ((s3 mod 64) floordiv 32) * 4 + 10)>
#map61 = affine_map<()[s0] -> ((s0 floordiv 64) * 82 + ((s0 mod 64) floordiv 32) * 4 + 10)>
#map62 = affine_map<()[s0, s1, s2, s3] -> (((s2 + (s0 + s1 * 2) floordiv 8) floordiv 3) * 328 + (s3 floordiv 64) * 82 + ((s3 mod 64) floordiv 32) * 4 + 11)>
#map63 = affine_map<()[s0] -> ((s0 floordiv 64) * 82 + ((s0 mod 64) floordiv 32) * 4 + 11)>
#map64 = affine_map<()[s0, s1, s2, s3] -> (((s2 + (s0 + s1 * 2) floordiv 8) floordiv 3) * 328 + (s3 floordiv 64) * 82 + ((s3 mod 64) floordiv 32) * 4 + 16)>
#map65 = affine_map<()[s0] -> ((s0 floordiv 64) * 82 + ((s0 mod 64) floordiv 32) * 4 + 16)>
#map66 = affine_map<()[s0, s1, s2, s3] -> (((s2 + (s0 + s1 * 2) floordiv 8) floordiv 3) * 328 + (s3 floordiv 64) * 82 + ((s3 mod 64) floordiv 32) * 4 + 17)>
#map67 = affine_map<()[s0] -> ((s0 floordiv 64) * 82 + ((s0 mod 64) floordiv 32) * 4 + 17)>
#map68 = affine_map<()[s0, s1, s2, s3] -> (((s2 + (s0 + s1 * 2) floordiv 8) floordiv 3) * 328 + (s3 floordiv 64) * 82 + ((s3 mod 64) floordiv 32) * 4 + 18)>
#map69 = affine_map<()[s0] -> ((s0 floordiv 64) * 82 + ((s0 mod 64) floordiv 32) * 4 + 18)>
#map70 = affine_map<()[s0, s1, s2, s3] -> (((s2 + (s0 + s1 * 2) floordiv 8) floordiv 3) * 328 + (s3 floordiv 64) * 82 + ((s3 mod 64) floordiv 32) * 4 + 19)>
#map71 = affine_map<()[s0] -> ((s0 floordiv 64) * 82 + ((s0 mod 64) floordiv 32) * 4 + 19)>
#map72 = affine_map<()[s0, s1, s2, s3] -> (((s2 + (s0 + s1 * 2) floordiv 8) floordiv 3) * 328 + (s3 floordiv 64) * 82 + ((s3 mod 64) floordiv 32) * 4 + 24)>
#map73 = affine_map<()[s0] -> ((s0 floordiv 64) * 82 + ((s0 mod 64) floordiv 32) * 4 + 24)>
#map74 = affine_map<()[s0, s1, s2, s3] -> (((s2 + (s0 + s1 * 2) floordiv 8) floordiv 3) * 328 + (s3 floordiv 64) * 82 + ((s3 mod 64) floordiv 32) * 4 + 25)>
#map75 = affine_map<()[s0] -> ((s0 floordiv 64) * 82 + ((s0 mod 64) floordiv 32) * 4 + 25)>
#map76 = affine_map<()[s0, s1, s2, s3] -> (((s2 + (s0 + s1 * 2) floordiv 8) floordiv 3) * 328 + (s3 floordiv 64) * 82 + ((s3 mod 64) floordiv 32) * 4 + 26)>
#map77 = affine_map<()[s0] -> ((s0 floordiv 64) * 82 + ((s0 mod 64) floordiv 32) * 4 + 26)>
#map78 = affine_map<()[s0, s1, s2, s3] -> (((s2 + (s0 + s1 * 2) floordiv 8) floordiv 3) * 328 + (s3 floordiv 64) * 82 + ((s3 mod 64) floordiv 32) * 4 + 27)>
#map79 = affine_map<()[s0] -> ((s0 floordiv 64) * 82 + ((s0 mod 64) floordiv 32) * 4 + 27)>
#map80 = affine_map<()[s0, s1, s2, s3, s4] -> (s0 + s3 * 1090 + s4 * 545 - (s0 floordiv 32) * 32 + ((s1 + s2 * 2) floordiv 8) * 1090 - ((s3 + (s1 + s2 * 2) floordiv 8) floordiv 3) * 3270 + 32)>
#map81 = affine_map<()[s0, s1, s2, s3, s4] -> (s0 + s3 * 1090 + s4 * 545 - (s0 floordiv 32) * 32 + ((s1 + s2 * 2) floordiv 8) * 1090 - ((s3 + (s1 + s2 * 2) floordiv 8) floordiv 3) * 3270 + 64)>
#map82 = affine_map<()[s0, s1, s2, s3, s4] -> (s0 + s3 * 1090 + s4 * 545 - (s0 floordiv 32) * 32 + ((s1 + s2 * 2) floordiv 8) * 1090 - ((s3 + (s1 + s2 * 2) floordiv 8) floordiv 3) * 3270 + 96)>
#map83 = affine_map<()[s0, s1, s2, s3, s4] -> (s0 + s3 * 1090 + s4 * 545 - (s0 floordiv 32) * 32 + ((s1 + s2 * 2) floordiv 8) * 1090 - ((s3 + (s1 + s2 * 2) floordiv 8) floordiv 3) * 3270 + 128)>
#map84 = affine_map<()[s0, s1, s2, s3, s4] -> (s0 + s3 * 1090 + s4 * 545 - (s0 floordiv 32) * 32 + ((s1 + s2 * 2) floordiv 8) * 1090 - ((s3 + (s1 + s2 * 2) floordiv 8) floordiv 3) * 3270 + 160)>
#map85 = affine_map<()[s0, s1, s2, s3, s4] -> (s0 + s3 * 1090 + s4 * 545 - (s0 floordiv 32) * 32 + ((s1 + s2 * 2) floordiv 8) * 1090 - ((s3 + (s1 + s2 * 2) floordiv 8) floordiv 3) * 3270 + 192)>
#map86 = affine_map<()[s0, s1, s2, s3, s4] -> (s0 + s3 * 1090 + s4 * 545 - (s0 floordiv 32) * 32 + ((s1 + s2 * 2) floordiv 8) * 1090 - ((s3 + (s1 + s2 * 2) floordiv 8) floordiv 3) * 3270 + 224)>
#map87 = affine_map<()[s0, s1, s2, s3, s4] -> (s0 + s3 * 1090 + s4 * 545 - (s0 floordiv 32) * 32 + ((s1 + s2 * 2) floordiv 8) * 1090 - ((s3 + (s1 + s2 * 2) floordiv 8) floordiv 3) * 3270 + 256)>
#map88 = affine_map<()[s0, s1, s2, s3, s4] -> (s0 + s3 * 1090 + s4 * 545 - (s0 floordiv 32) * 32 + ((s1 + s2 * 2) floordiv 8) * 1090 - ((s3 + (s1 + s2 * 2) floordiv 8) floordiv 3) * 3270 + 288)>
#map89 = affine_map<()[s0, s1, s2, s3, s4] -> (s0 + s3 * 1090 + s4 * 545 - (s0 floordiv 32) * 32 + ((s1 + s2 * 2) floordiv 8) * 1090 - ((s3 + (s1 + s2 * 2) floordiv 8) floordiv 3) * 3270 + 320)>
#map90 = affine_map<()[s0, s1, s2, s3, s4] -> (s0 + s3 * 1090 + s4 * 545 - (s0 floordiv 32) * 32 + ((s1 + s2 * 2) floordiv 8) * 1090 - ((s3 + (s1 + s2 * 2) floordiv 8) floordiv 3) * 3270 + 352)>
#map91 = affine_map<()[s0, s1, s2, s3, s4] -> (s0 + s3 * 1090 + s4 * 545 - (s0 floordiv 32) * 32 + ((s1 + s2 * 2) floordiv 8) * 1090 - ((s3 + (s1 + s2 * 2) floordiv 8) floordiv 3) * 3270 + 384)>
#map92 = affine_map<()[s0, s1, s2, s3, s4] -> (s0 + s3 * 1090 + s4 * 545 - (s0 floordiv 32) * 32 + ((s1 + s2 * 2) floordiv 8) * 1090 - ((s3 + (s1 + s2 * 2) floordiv 8) floordiv 3) * 3270 + 416)>
#map93 = affine_map<()[s0, s1, s2, s3, s4] -> (s0 + s3 * 1090 + s4 * 545 - (s0 floordiv 32) * 32 + ((s1 + s2 * 2) floordiv 8) * 1090 - ((s3 + (s1 + s2 * 2) floordiv 8) floordiv 3) * 3270 + 448)>
#map94 = affine_map<()[s0, s1, s2, s3, s4] -> (s0 + s3 * 1090 + s4 * 545 - (s0 floordiv 32) * 32 + ((s1 + s2 * 2) floordiv 8) * 1090 - ((s3 + (s1 + s2 * 2) floordiv 8) floordiv 3) * 3270 + 480)>
#map95 = affine_map<()[s0, s1, s2, s3, s4] -> (s0 + s3 * 1090 + s4 * 545 - (s0 floordiv 32) * 32 + ((s1 + s2 * 2) floordiv 8) * 1090 - ((s3 + (s1 + s2 * 2) floordiv 8) floordiv 3) * 3270 + 512)>
#map96 = affine_map<()[s0, s1, s2, s3, s4] -> (s0 + s3 * 1090 + s4 * 545 - (s0 floordiv 32) * 32 + ((s1 + s2 * 2) floordiv 8) * 1090 - ((s3 + (s1 + s2 * 2) floordiv 8) floordiv 3) * 3270 + 544)>
#map97 = affine_map<()[s0, s1, s2, s3] -> (((s2 + (s0 + s1 * 2) floordiv 8) floordiv 3) * 328 + (s3 floordiv 64) * 82 + ((s3 mod 64) floordiv 32) * 4 + 32)>
#map98 = affine_map<()[s0] -> ((s0 floordiv 64) * 82 + ((s0 mod 64) floordiv 32) * 4 + 32)>
#map99 = affine_map<()[s0, s1, s2, s3] -> (((s2 + (s0 + s1 * 2) floordiv 8) floordiv 3) * 328 + (s3 floordiv 64) * 82 + ((s3 mod 64) floordiv 32) * 4 + 33)>
#map100 = affine_map<()[s0] -> ((s0 floordiv 64) * 82 + ((s0 mod 64) floordiv 32) * 4 + 33)>
#map101 = affine_map<()[s0, s1, s2, s3] -> (((s2 + (s0 + s1 * 2) floordiv 8) floordiv 3) * 328 + (s3 floordiv 64) * 82 + ((s3 mod 64) floordiv 32) * 4 + 34)>
#map102 = affine_map<()[s0] -> ((s0 floordiv 64) * 82 + ((s0 mod 64) floordiv 32) * 4 + 34)>
#map103 = affine_map<()[s0, s1, s2, s3] -> (((s2 + (s0 + s1 * 2) floordiv 8) floordiv 3) * 328 + (s3 floordiv 64) * 82 + ((s3 mod 64) floordiv 32) * 4 + 35)>
#map104 = affine_map<()[s0] -> ((s0 floordiv 64) * 82 + ((s0 mod 64) floordiv 32) * 4 + 35)>
#map105 = affine_map<()[s0, s1, s2, s3] -> (((s2 + (s0 + s1 * 2) floordiv 8) floordiv 3) * 328 + (s3 floordiv 64) * 82 + ((s3 mod 64) floordiv 32) * 4 + 40)>
#map106 = affine_map<()[s0] -> ((s0 floordiv 64) * 82 + ((s0 mod 64) floordiv 32) * 4 + 40)>
#map107 = affine_map<()[s0, s1, s2, s3] -> (((s2 + (s0 + s1 * 2) floordiv 8) floordiv 3) * 328 + (s3 floordiv 64) * 82 + ((s3 mod 64) floordiv 32) * 4 + 41)>
#map108 = affine_map<()[s0] -> ((s0 floordiv 64) * 82 + ((s0 mod 64) floordiv 32) * 4 + 41)>
#map109 = affine_map<()[s0, s1, s2, s3] -> (((s2 + (s0 + s1 * 2) floordiv 8) floordiv 3) * 328 + (s3 floordiv 64) * 82 + ((s3 mod 64) floordiv 32) * 4 + 42)>
#map110 = affine_map<()[s0] -> ((s0 floordiv 64) * 82 + ((s0 mod 64) floordiv 32) * 4 + 42)>
#map111 = affine_map<()[s0, s1, s2, s3] -> (((s2 + (s0 + s1 * 2) floordiv 8) floordiv 3) * 328 + (s3 floordiv 64) * 82 + ((s3 mod 64) floordiv 32) * 4 + 43)>
#map112 = affine_map<()[s0] -> ((s0 floordiv 64) * 82 + ((s0 mod 64) floordiv 32) * 4 + 43)>
#map113 = affine_map<()[s0, s1, s2, s3] -> (((s2 + (s0 + s1 * 2) floordiv 8) floordiv 3) * 328 + (s3 floordiv 64) * 82 + ((s3 mod 64) floordiv 32) * 4 + 48)>
#map114 = affine_map<()[s0] -> ((s0 floordiv 64) * 82 + ((s0 mod 64) floordiv 32) * 4 + 48)>
#map115 = affine_map<()[s0, s1, s2, s3] -> (((s2 + (s0 + s1 * 2) floordiv 8) floordiv 3) * 328 + (s3 floordiv 64) * 82 + ((s3 mod 64) floordiv 32) * 4 + 49)>
#map116 = affine_map<()[s0] -> ((s0 floordiv 64) * 82 + ((s0 mod 64) floordiv 32) * 4 + 49)>
#map117 = affine_map<()[s0, s1, s2, s3] -> (((s2 + (s0 + s1 * 2) floordiv 8) floordiv 3) * 328 + (s3 floordiv 64) * 82 + ((s3 mod 64) floordiv 32) * 4 + 50)>
#map118 = affine_map<()[s0] -> ((s0 floordiv 64) * 82 + ((s0 mod 64) floordiv 32) * 4 + 50)>
#map119 = affine_map<()[s0, s1, s2, s3] -> (((s2 + (s0 + s1 * 2) floordiv 8) floordiv 3) * 328 + (s3 floordiv 64) * 82 + ((s3 mod 64) floordiv 32) * 4 + 51)>
#map120 = affine_map<()[s0] -> ((s0 floordiv 64) * 82 + ((s0 mod 64) floordiv 32) * 4 + 51)>
#map121 = affine_map<()[s0, s1, s2, s3] -> (((s2 + (s0 + s1 * 2) floordiv 8) floordiv 3) * 328 + (s3 floordiv 64) * 82 + ((s3 mod 64) floordiv 32) * 4 + 56)>
#map122 = affine_map<()[s0] -> ((s0 floordiv 64) * 82 + ((s0 mod 64) floordiv 32) * 4 + 56)>
#map123 = affine_map<()[s0, s1, s2, s3] -> (((s2 + (s0 + s1 * 2) floordiv 8) floordiv 3) * 328 + (s3 floordiv 64) * 82 + ((s3 mod 64) floordiv 32) * 4 + 57)>
#map124 = affine_map<()[s0] -> ((s0 floordiv 64) * 82 + ((s0 mod 64) floordiv 32) * 4 + 57)>
#map125 = affine_map<()[s0, s1, s2, s3] -> (((s2 + (s0 + s1 * 2) floordiv 8) floordiv 3) * 328 + (s3 floordiv 64) * 82 + ((s3 mod 64) floordiv 32) * 4 + 58)>
#map126 = affine_map<()[s0] -> ((s0 floordiv 64) * 82 + ((s0 mod 64) floordiv 32) * 4 + 58)>
#map127 = affine_map<()[s0, s1, s2, s3] -> (((s2 + (s0 + s1 * 2) floordiv 8) floordiv 3) * 328 + (s3 floordiv 64) * 82 + ((s3 mod 64) floordiv 32) * 4 + 59)>
#map128 = affine_map<()[s0] -> ((s0 floordiv 64) * 82 + ((s0 mod 64) floordiv 32) * 4 + 59)>
#map129 = affine_map<()[s0, s1, s2, s3] -> (((s2 + (s0 + s1 * 2) floordiv 8) floordiv 3) * 328 + (s3 floordiv 64) * 82 + ((s3 mod 64) floordiv 32) * 4 + 64)>
#map130 = affine_map<()[s0] -> ((s0 floordiv 64) * 82 + ((s0 mod 64) floordiv 32) * 4 + 64)>
#map131 = affine_map<()[s0, s1, s2, s3] -> (((s2 + (s0 + s1 * 2) floordiv 8) floordiv 3) * 328 + (s3 floordiv 64) * 82 + ((s3 mod 64) floordiv 32) * 4 + 65)>
#map132 = affine_map<()[s0] -> ((s0 floordiv 64) * 82 + ((s0 mod 64) floordiv 32) * 4 + 65)>
#map133 = affine_map<()[s0, s1, s2, s3] -> (((s2 + (s0 + s1 * 2) floordiv 8) floordiv 3) * 328 + (s3 floordiv 64) * 82 + ((s3 mod 64) floordiv 32) * 4 + 66)>
#map134 = affine_map<()[s0] -> ((s0 floordiv 64) * 82 + ((s0 mod 64) floordiv 32) * 4 + 66)>
#map135 = affine_map<()[s0, s1, s2, s3] -> (((s2 + (s0 + s1 * 2) floordiv 8) floordiv 3) * 328 + (s3 floordiv 64) * 82 + ((s3 mod 64) floordiv 32) * 4 + 67)>
#map136 = affine_map<()[s0] -> ((s0 floordiv 64) * 82 + ((s0 mod 64) floordiv 32) * 4 + 67)>
#map137 = affine_map<()[s0, s1, s2, s3] -> (((s2 + (s0 + s1 * 2) floordiv 8) floordiv 3) * 328 + (s3 floordiv 64) * 82 + ((s3 mod 64) floordiv 32) * 4 + 72)>
#map138 = affine_map<()[s0] -> ((s0 floordiv 64) * 82 + ((s0 mod 64) floordiv 32) * 4 + 72)>
#map139 = affine_map<()[s0, s1, s2, s3] -> (((s2 + (s0 + s1 * 2) floordiv 8) floordiv 3) * 328 + (s3 floordiv 64) * 82 + ((s3 mod 64) floordiv 32) * 4 + 73)>
#map140 = affine_map<()[s0] -> ((s0 floordiv 64) * 82 + ((s0 mod 64) floordiv 32) * 4 + 73)>
#map141 = affine_map<()[s0, s1, s2, s3] -> (((s2 + (s0 + s1 * 2) floordiv 8) floordiv 3) * 328 + (s3 floordiv 64) * 82 + ((s3 mod 64) floordiv 32) * 4 + 74)>
#map142 = affine_map<()[s0] -> ((s0 floordiv 64) * 82 + ((s0 mod 64) floordiv 32) * 4 + 74)>
#map143 = affine_map<()[s0, s1, s2, s3] -> (((s2 + (s0 + s1 * 2) floordiv 8) floordiv 3) * 328 + (s3 floordiv 64) * 82 + ((s3 mod 64) floordiv 32) * 4 + 75)>
#map144 = affine_map<()[s0] -> ((s0 floordiv 64) * 82 + ((s0 mod 64) floordiv 32) * 4 + 75)>
#map145 = affine_map<()[s0, s1, s2, s3] -> (((s2 + (s0 + s1 * 2) floordiv 8) floordiv 3) * 328 + (s3 floordiv 64) * 82 + ((s3 mod 64) floordiv 32) * 4 + 80)>
#map146 = affine_map<()[s0] -> ((s0 floordiv 64) * 82 + ((s0 mod 64) floordiv 32) * 4 + 80)>
#map147 = affine_map<()[s0, s1, s2, s3] -> (((s2 + (s0 + s1 * 2) floordiv 8) floordiv 3) * 328 + (s3 floordiv 64) * 82 + ((s3 mod 64) floordiv 32) * 4 + 81)>
#map148 = affine_map<()[s0] -> ((s0 floordiv 64) * 82 + ((s0 mod 64) floordiv 32) * 4 + 81)>
#map149 = affine_map<()[s0, s1, s2, s3] -> (((s2 + (s0 + s1 * 2) floordiv 8) floordiv 3) * 328 + (s3 floordiv 64) * 82 + ((s3 mod 64) floordiv 32) * 4 + 82)>
#map150 = affine_map<()[s0] -> ((s0 floordiv 64) * 82 + ((s0 mod 64) floordiv 32) * 4 + 82)>
#map151 = affine_map<()[s0, s1, s2, s3] -> (((s2 + (s0 + s1 * 2) floordiv 8) floordiv 3) * 328 + (s3 floordiv 64) * 82 + ((s3 mod 64) floordiv 32) * 4 + 83)>
#map152 = affine_map<()[s0] -> ((s0 floordiv 64) * 82 + ((s0 mod 64) floordiv 32) * 4 + 83)>
#map153 = affine_map<()[s0, s1, s2, s3] -> (((s2 + (s0 + s1 * 2) floordiv 8) floordiv 3) * 328 + (s3 floordiv 64) * 82 + ((s3 mod 64) floordiv 32) * 4 + 88)>
#map154 = affine_map<()[s0] -> ((s0 floordiv 64) * 82 + ((s0 mod 64) floordiv 32) * 4 + 88)>
#map155 = affine_map<()[s0, s1, s2, s3] -> (((s2 + (s0 + s1 * 2) floordiv 8) floordiv 3) * 328 + (s3 floordiv 64) * 82 + ((s3 mod 64) floordiv 32) * 4 + 89)>
#map156 = affine_map<()[s0] -> ((s0 floordiv 64) * 82 + ((s0 mod 64) floordiv 32) * 4 + 89)>
#map157 = affine_map<()[s0, s1, s2, s3] -> (((s2 + (s0 + s1 * 2) floordiv 8) floordiv 3) * 328 + (s3 floordiv 64) * 82 + ((s3 mod 64) floordiv 32) * 4 + 90)>
#map158 = affine_map<()[s0] -> ((s0 floordiv 64) * 82 + ((s0 mod 64) floordiv 32) * 4 + 90)>
#map159 = affine_map<()[s0, s1, s2, s3] -> (((s2 + (s0 + s1 * 2) floordiv 8) floordiv 3) * 328 + (s3 floordiv 64) * 82 + ((s3 mod 64) floordiv 32) * 4 + 91)>
#map160 = affine_map<()[s0] -> ((s0 floordiv 64) * 82 + ((s0 mod 64) floordiv 32) * 4 + 91)>
#translation = #iree_codegen.translation_info<pipeline = None workgroup_size = [256, 2, 1] subgroup_size = 64>
module attributes {transform.with_named_sequence} {
  stream.executable private @gemm {
    stream.executable.export public @gemm workgroups() -> (index, index, index) {
      %c2 = arith.constant 2 : index
      %c3 = arith.constant 3 : index
      %c1 = arith.constant 1 : index
      stream.return %c2, %c3, %c1 : index, index, index
    }
    builtin.module {
      func.func @gemm(%arg0: !stream.binding, %arg1: !stream.binding, %arg2: !stream.binding) attributes {translation_info = #translation} {
        %c2880_i14 = arith.constant 2880 : i14
        %cst = arith.constant dense<0.000000e+00> : vector<8xf16>
        %cst_0 = arith.constant dense<[0, 1, 2, 3, 4, 5, 6, 7]> : vector<8xi32>
        %cst_1 = arith.constant dense<1073741823> : vector<8xindex>
        %c4096_i14 = arith.constant 4096 : i14
        %c536870911 = arith.constant 536870911 : index
        %c2147483643_i32 = arith.constant 2147483643 : i32
        %c536870910 = arith.constant 536870910 : index
        %c255 = arith.constant 255 : index
        %c2880 = arith.constant 2880 : index
        %c1090 = arith.constant 1090 : index
        %c2147483645_i32 = arith.constant 2147483645 : i32
        %c1073741822 = arith.constant 1073741822 : index
        %c4096 = arith.constant 4096 : index
        %c641 = arith.constant 641 : index
        %c6 = arith.constant 6 : index
        %c1 = arith.constant 1 : index
        %c328 = arith.constant 328 : index
        %c43600 = arith.constant 43600 : index
        %c0 = arith.constant 0 : index
        %cst_2 = arith.constant dense<0.000000e+00> : vector<16xf32>
        %block_id_x = gpu.block_id  x upper_bound 2
        %block_id_y = gpu.block_id  y upper_bound 3
        %thread_id_x = gpu.thread_id  x upper_bound 256
        %thread_id_y = gpu.thread_id  y upper_bound 2
        %alloc = memref.alloc() : memref<56720xi8, #gpu.address_space<workgroup>>
        %view = memref.view %alloc[%c0][] : memref<56720xi8, #gpu.address_space<workgroup>> to memref<1090x20xf16, #gpu.address_space<workgroup>>
        %view_3 = memref.view %alloc[%c43600][] : memref<56720xi8, #gpu.address_space<workgroup>> to memref<328x20xf16, #gpu.address_space<workgroup>>
        %0 = stream.binding.subspan %arg0[%c0] : !stream.binding -> memref<641x4096xf16, strided<[4096, 1], offset: ?>>
        %1 = affine.apply #map()[%block_id_y, %block_id_x]
        %2 = arith.minsi %1, %c6 : index
        %3 = affine.apply #map1()[%thread_id_x, %thread_id_y, %block_id_x, %block_id_y, %2]
        %4 = arith.cmpi slt, %3, %c641 : index
        %5 = vector.broadcast %4 : i1 to vector<8xi1>
        %6 = affine.apply #map2()[%thread_id_x]
        %7 = arith.muli %3, %c4096 overflow<nsw> : index
        %8 = arith.addi %7, %6 overflow<nsw> : index
        %base_buffer, %offset, %sizes:2, %strides:2 = memref.extract_strided_metadata %0 : memref<641x4096xf16, strided<[4096, 1], offset: ?>> -> memref<f16>, index, index, index, index, index
        %reinterpret_cast = memref.reinterpret_cast %0 to offset: [%offset], sizes: [%c1073741822], strides: [1] : memref<641x4096xf16, strided<[4096, 1], offset: ?>> to memref<?xf16, strided<[1], offset: ?>>
        %9 = amdgpu.fat_raw_buffer_cast %reinterpret_cast validBytes(%c2147483645_i32) cacheSwizzleStride(%c4096_i14) resetOffset : memref<?xf16, strided<[1], offset: ?>> to memref<?xf16, #amdgpu.address_space<fat_raw_buffer>>
        %10 = arith.index_cast %8 : index to i32
        %11 = vector.broadcast %10 : i32 to vector<8xi32>
        %12 = arith.addi %11, %cst_0 : vector<8xi32>
        %13 = arith.index_cast %12 : vector<8xi32> to vector<8xindex>
        %14 = arith.select %5, %13, %cst_1 : vector<8xi1>, vector<8xindex>
        %15 = vector.extract %14[0] : index from vector<8xindex>
        %16 = vector.load %9[%15] : memref<?xf16, #amdgpu.address_space<fat_raw_buffer>>, vector<8xf16>
        %17 = affine.apply #map3()[%thread_id_x, %thread_id_y, %block_id_x, %block_id_y, %2]
        %18 = arith.cmpi slt, %17, %c641 : index
        %19 = vector.broadcast %18 : i1 to vector<8xi1>
        %20 = arith.muli %17, %c4096 overflow<nsw> : index
        %21 = arith.addi %20, %6 overflow<nsw> : index
        %22 = arith.index_cast %21 : index to i32
        %23 = vector.broadcast %22 : i32 to vector<8xi32>
        %24 = arith.addi %23, %cst_0 : vector<8xi32>
        %25 = arith.index_cast %24 : vector<8xi32> to vector<8xindex>
        %26 = arith.select %19, %25, %cst_1 : vector<8xi1>, vector<8xindex>
        %27 = vector.extract %26[0] : index from vector<8xindex>
        %28 = vector.load %9[%27] : memref<?xf16, #amdgpu.address_space<fat_raw_buffer>>, vector<8xf16>
        %29 = stream.binding.subspan %arg1[%c0] : !stream.binding -> memref<2880x4096xf16, strided<[4096, 1], offset: ?>>
        %30 = affine.apply #map4()[%thread_id_x, %thread_id_y, %block_id_x, %block_id_y, %2]
        %31 = arith.cmpi slt, %30, %c2880 : index
        %32 = vector.broadcast %31 : i1 to vector<8xi1>
        %33 = arith.muli %30, %c4096 overflow<nsw> : index
        %34 = arith.addi %33, %6 overflow<nsw> : index
        %base_buffer_4, %offset_5, %sizes_6:2, %strides_7:2 = memref.extract_strided_metadata %29 : memref<2880x4096xf16, strided<[4096, 1], offset: ?>> -> memref<f16>, index, index, index, index, index
        %reinterpret_cast_8 = memref.reinterpret_cast %29 to offset: [%offset_5], sizes: [%c1073741822], strides: [1] : memref<2880x4096xf16, strided<[4096, 1], offset: ?>> to memref<?xf16, strided<[1], offset: ?>>
        %35 = amdgpu.fat_raw_buffer_cast %reinterpret_cast_8 validBytes(%c2147483645_i32) cacheSwizzleStride(%c4096_i14) resetOffset : memref<?xf16, strided<[1], offset: ?>> to memref<?xf16, #amdgpu.address_space<fat_raw_buffer>>
        %36 = arith.index_cast %34 : index to i32
        %37 = vector.broadcast %36 : i32 to vector<8xi32>
        %38 = arith.addi %37, %cst_0 : vector<8xi32>
        %39 = arith.index_cast %38 : vector<8xi32> to vector<8xindex>
        %40 = arith.select %32, %39, %cst_1 : vector<8xi1>, vector<8xindex>
        %41 = vector.extract %40[0] : index from vector<8xindex>
        %42 = vector.load %35[%41] : memref<?xf16, #amdgpu.address_space<fat_raw_buffer>>, vector<8xf16>
        %43 = affine.apply #map5()[%thread_id_x, %thread_id_y, %block_id_x, %block_id_y, %2]
        %44 = arith.cmpi slt, %43, %c2880 : index
        %45 = vector.broadcast %44 : i1 to vector<8xi1>
        %46 = arith.muli %43, %c4096 overflow<nsw> : index
        %47 = arith.addi %46, %6 overflow<nsw> : index
        %48 = arith.index_cast %47 : index to i32
        %49 = vector.broadcast %48 : i32 to vector<8xi32>
        %50 = arith.addi %49, %cst_0 : vector<8xi32>
        %51 = arith.index_cast %50 : vector<8xi32> to vector<8xindex>
        %52 = arith.select %45, %51, %cst_1 : vector<8xi1>, vector<8xindex>
        %53 = vector.extract %52[0] : index from vector<8xindex>
        %54 = vector.load %35[%53] : memref<?xf16, #amdgpu.address_space<fat_raw_buffer>>, vector<8xf16>
        %55 = affine.apply #map6()[%thread_id_x, %thread_id_y, %block_id_x, %block_id_y, %2]
        %56 = arith.cmpi slt, %55, %c2880 : index
        %57 = vector.broadcast %56 : i1 to vector<8xi1>
        %58 = arith.muli %55, %c4096 overflow<nsw> : index
        %59 = arith.addi %58, %6 overflow<nsw> : index
        %60 = arith.index_cast %59 : index to i32
        %61 = vector.broadcast %60 : i32 to vector<8xi32>
        %62 = arith.addi %61, %cst_0 : vector<8xi32>
        %63 = arith.index_cast %62 : vector<8xi32> to vector<8xindex>
        %64 = arith.select %57, %63, %cst_1 : vector<8xi1>, vector<8xindex>
        %65 = vector.extract %64[0] : index from vector<8xindex>
        %66 = vector.load %35[%65] : memref<?xf16, #amdgpu.address_space<fat_raw_buffer>>, vector<8xf16>
        %67 = affine.apply #map7()[%thread_id_x, %thread_id_y, %block_id_x, %block_id_y, %2]
        %68 = arith.cmpi slt, %67, %c2880 : index
        %69 = vector.broadcast %68 : i1 to vector<8xi1>
        %70 = arith.muli %67, %c4096 overflow<nsw> : index
        %71 = arith.addi %70, %6 overflow<nsw> : index
        %72 = arith.index_cast %71 : index to i32
        %73 = vector.broadcast %72 : i32 to vector<8xi32>
        %74 = arith.addi %73, %cst_0 : vector<8xi32>
        %75 = arith.index_cast %74 : vector<8xi32> to vector<8xindex>
        %76 = arith.select %69, %75, %cst_1 : vector<8xi1>, vector<8xindex>
        %77 = vector.extract %76[0] : index from vector<8xindex>
        %78 = vector.load %35[%77] : memref<?xf16, #amdgpu.address_space<fat_raw_buffer>>, vector<8xf16>
        %79 = affine.apply #map8()[%thread_id_x, %thread_id_y, %block_id_x, %block_id_y, %2]
        %80 = arith.cmpi slt, %79, %c2880 : index
        %81 = vector.broadcast %80 : i1 to vector<8xi1>
        %82 = arith.muli %79, %c4096 overflow<nsw> : index
        %83 = arith.addi %82, %6 overflow<nsw> : index
        %84 = arith.index_cast %83 : index to i32
        %85 = vector.broadcast %84 : i32 to vector<8xi32>
        %86 = arith.addi %85, %cst_0 : vector<8xi32>
        %87 = arith.index_cast %86 : vector<8xi32> to vector<8xindex>
        %88 = arith.select %81, %87, %cst_1 : vector<8xi1>, vector<8xindex>
        %89 = vector.extract %88[0] : index from vector<8xindex>
        %90 = vector.load %35[%89] : memref<?xf16, #amdgpu.address_space<fat_raw_buffer>>, vector<8xf16>
        %91 = affine.apply #map9()[%thread_id_x]
        %92 = arith.minsi %91, %c328 : index
        %93 = affine.apply #map10()[%thread_id_x, %thread_id_y]
        %94 = arith.cmpi slt, %93, %92 : index
        %95 = vector.broadcast %94 : i1 to vector<8xi1>
        vector.maskedstore %view_3[%93, %6], %95, %16 : memref<328x20xf16, #gpu.address_space<workgroup>>, vector<8xi1>, vector<8xf16>
        %96 = affine.apply #map11()[%thread_id_x, %thread_id_y]
        %97 = arith.cmpi slt, %96, %92 : index
        %98 = vector.broadcast %97 : i1 to vector<8xi1>
        vector.maskedstore %view_3[%96, %6], %98, %28 : memref<328x20xf16, #gpu.address_space<workgroup>>, vector<8xi1>, vector<8xf16>
        %99 = affine.apply #map12()[%thread_id_y]
        %100 = arith.minsi %99, %c1090 : index
        %101 = affine.apply #map13()[%thread_id_x, %thread_id_y]
        %102 = arith.cmpi slt, %101, %100 : index
        %103 = vector.broadcast %102 : i1 to vector<8xi1>
        vector.maskedstore %view[%101, %6], %103, %42 : memref<1090x20xf16, #gpu.address_space<workgroup>>, vector<8xi1>, vector<8xf16>
        %104 = affine.apply #map14()[%thread_id_x, %thread_id_y]
        %105 = arith.cmpi slt, %104, %100 : index
        %106 = vector.broadcast %105 : i1 to vector<8xi1>
        vector.maskedstore %view[%104, %6], %106, %54 : memref<1090x20xf16, #gpu.address_space<workgroup>>, vector<8xi1>, vector<8xf16>
        %107 = affine.apply #map15()[%thread_id_x, %thread_id_y]
        %108 = arith.cmpi slt, %107, %100 : index
        %109 = vector.broadcast %108 : i1 to vector<8xi1>
        vector.maskedstore %view[%107, %6], %109, %66 : memref<1090x20xf16, #gpu.address_space<workgroup>>, vector<8xi1>, vector<8xf16>
        %110 = affine.apply #map16()[%thread_id_x, %thread_id_y]
        %111 = arith.cmpi slt, %110, %100 : index
        %112 = vector.broadcast %111 : i1 to vector<8xi1>
        vector.maskedstore %view[%110, %6], %112, %78 : memref<1090x20xf16, #gpu.address_space<workgroup>>, vector<8xi1>, vector<8xf16>
        %113 = affine.apply #map17()[%thread_id_x, %thread_id_y]
        %114 = arith.cmpi slt, %113, %100 : index
        %115 = vector.broadcast %114 : i1 to vector<8xi1>
        vector.maskedstore %view[%113, %6], %115, %90 : memref<1090x20xf16, #gpu.address_space<workgroup>>, vector<8xi1>, vector<8xf16>
        %116 = affine.apply #map18()[%thread_id_x, %thread_id_y]
        %117 = arith.cmpi slt, %116, %100 : index
        %118 = vector.broadcast %117 : i1 to vector<8xi1>
        %119 = affine.apply #map19()[%thread_id_x]
        %120 = affine.apply #map20()[%thread_id_x, %thread_id_y]
        %121 = arith.cmpi slt, %120, %100 : index
        %122 = vector.broadcast %121 : i1 to vector<8xi1>
        %123 = affine.apply #map21()[%thread_id_x, %thread_id_y]
        %124 = arith.cmpi slt, %123, %100 : index
        %125 = vector.broadcast %124 : i1 to vector<8xi1>
        %126 = affine.apply #map22()[%thread_id_x, %thread_id_y]
        %127 = arith.cmpi slt, %126, %100 : index
        %128 = vector.broadcast %127 : i1 to vector<8xi1>
        %129 = affine.apply #map23()[%thread_id_x, %thread_id_y]
        %130 = arith.cmpi slt, %129, %100 : index
        %131 = vector.broadcast %130 : i1 to vector<8xi1>
        %132 = affine.apply #map24()[%thread_id_x, %thread_id_y]
        %133 = arith.cmpi slt, %132, %100 : index
        %134 = vector.broadcast %133 : i1 to vector<8xi1>
        %135 = affine.apply #map25()[%thread_id_x, %thread_id_y]
        %136 = arith.cmpi slt, %135, %100 : index
        %137 = vector.broadcast %136 : i1 to vector<8xi1>
        %138 = affine.apply #map26()[%thread_id_x, %thread_id_y]
        %139 = arith.cmpi slt, %138, %100 : index
        %140 = vector.broadcast %139 : i1 to vector<8xi1>
        %141 = affine.apply #map27()[%thread_id_x, %thread_id_y]
        %142 = arith.cmpi slt, %141, %100 : index
        %143 = vector.broadcast %142 : i1 to vector<8xi1>
        %144 = affine.apply #map28()[%thread_id_x, %thread_id_y]
        %145 = arith.cmpi slt, %144, %100 : index
        %146 = vector.broadcast %145 : i1 to vector<8xi1>
        %147 = affine.apply #map29()[%thread_id_x, %thread_id_y]
        %148 = arith.cmpi slt, %147, %100 : index
        %149 = vector.broadcast %148 : i1 to vector<8xi1>
        %150 = affine.apply #map30()[%thread_id_x, %thread_id_y]
        %151 = arith.cmpi slt, %150, %100 : index
        %152 = vector.broadcast %151 : i1 to vector<8xi1>
        %153 = affine.apply #map31()[%thread_id_x, %thread_id_y]
        %154 = arith.cmpi slt, %153, %100 : index
        %155 = vector.broadcast %154 : i1 to vector<8xi1>
        %156 = affine.apply #map32()[%thread_id_x, %thread_id_y]
        %157 = arith.cmpi slt, %156, %100 : index
        %158 = vector.broadcast %157 : i1 to vector<8xi1>
        %159 = affine.apply #map33()[%thread_id_x, %thread_id_y]
        %160 = arith.cmpi slt, %159, %100 : index
        %161 = vector.broadcast %160 : i1 to vector<8xi1>
        %162 = affine.apply #map34()[%thread_id_x, %thread_id_y]
        %163 = arith.cmpi slt, %162, %100 : index
        %164 = vector.broadcast %163 : i1 to vector<8xi1>
        %165 = affine.apply #map35()[%thread_id_x, %thread_id_y]
        %166 = arith.cmpi slt, %165, %100 : index
        %167 = vector.broadcast %166 : i1 to vector<8xi1>
        %168 = affine.apply #map36()[%thread_id_x, %thread_id_y]
        %169 = arith.cmpi slt, %168, %100 : index
        %170 = vector.broadcast %169 : i1 to vector<8xi1>
        %171 = affine.apply #map37()[%thread_id_x]
        %172 = arith.cmpi slt, %171, %92 : index
        %173 = vector.broadcast %172 : i1 to vector<8xi1>
        %174 = affine.apply #map38()[%thread_id_x]
        %175 = arith.cmpi slt, %174, %92 : index
        %176 = vector.broadcast %175 : i1 to vector<8xi1>
        %177 = affine.apply #map39()[%thread_id_x]
        %178 = arith.cmpi slt, %177, %92 : index
        %179 = vector.broadcast %178 : i1 to vector<8xi1>
        %180:54 = scf.for %arg3 = %c0 to %c255 step %c1 iter_args(%arg4 = %cst_2, %arg5 = %cst_2, %arg6 = %cst_2, %arg7 = %cst_2, %arg8 = %cst_2, %arg9 = %cst_2, %arg10 = %cst_2, %arg11 = %cst_2, %arg12 = %cst_2, %arg13 = %cst_2, %arg14 = %cst_2, %arg15 = %cst_2, %arg16 = %cst_2, %arg17 = %cst_2, %arg18 = %cst_2, %arg19 = %cst_2, %arg20 = %cst_2, %arg21 = %cst_2, %arg22 = %cst_2, %arg23 = %cst_2, %arg24 = %cst_2, %arg25 = %cst_2, %arg26 = %cst_2, %arg27 = %cst_2, %arg28 = %cst_2, %arg29 = %cst_2, %arg30 = %cst_2, %arg31 = %cst_2, %arg32 = %cst_2, %arg33 = %cst_2, %arg34 = %cst_2, %arg35 = %cst_2, %arg36 = %cst_2, %arg37 = %cst_2, %arg38 = %cst_2, %arg39 = %cst_2, %arg40 = %cst_2, %arg41 = %cst_2, %arg42 = %cst_2, %arg43 = %cst_2, %arg44 = %cst_2, %arg45 = %cst_2, %arg46 = %cst_2, %arg47 = %cst_2, %arg48 = %cst_2, %arg49 = %cst_2, %arg50 = %cst_2, %arg51 = %cst_2, %arg52 = %cst_2, %arg53 = %cst_2, %arg54 = %cst_2, %arg55 = %cst_2, %arg56 = %cst_2, %arg57 = %cst_2) -> (vector<16xf32>, vector<16xf32>, vector<16xf32>, vector<16xf32>, vector<16xf32>, vector<16xf32>, vector<16xf32>, vector<16xf32>, vector<16xf32>, vector<16xf32>, vector<16xf32>, vector<16xf32>, vector<16xf32>, vector<16xf32>, vector<16xf32>, vector<16xf32>, vector<16xf32>, vector<16xf32>, vector<16xf32>, vector<16xf32>, vector<16xf32>, vector<16xf32>, vector<16xf32>, vector<16xf32>, vector<16xf32>, vector<16xf32>, vector<16xf32>, vector<16xf32>, vector<16xf32>, vector<16xf32>, vector<16xf32>, vector<16xf32>, vector<16xf32>, vector<16xf32>, vector<16xf32>, vector<16xf32>, vector<16xf32>, vector<16xf32>, vector<16xf32>, vector<16xf32>, vector<16xf32>, vector<16xf32>, vector<16xf32>, vector<16xf32>, vector<16xf32>, vector<16xf32>, vector<16xf32>, vector<16xf32>, vector<16xf32>, vector<16xf32>, vector<16xf32>, vector<16xf32>, vector<16xf32>, vector<16xf32>) {
          amdgpu.lds_barrier
          %4115 = vector.maskedload %view[%116, %119], %118, %cst : memref<1090x20xf16, #gpu.address_space<workgroup>>, vector<8xi1>, vector<8xf16> into vector<8xf16>
          %4116 = vector.maskedload %view[%120, %119], %122, %cst : memref<1090x20xf16, #gpu.address_space<workgroup>>, vector<8xi1>, vector<8xf16> into vector<8xf16>
          %4117 = vector.maskedload %view[%123, %119], %125, %cst : memref<1090x20xf16, #gpu.address_space<workgroup>>, vector<8xi1>, vector<8xf16> into vector<8xf16>
          %4118 = vector.maskedload %view[%126, %119], %128, %cst : memref<1090x20xf16, #gpu.address_space<workgroup>>, vector<8xi1>, vector<8xf16> into vector<8xf16>
          %4119 = vector.maskedload %view[%129, %119], %131, %cst : memref<1090x20xf16, #gpu.address_space<workgroup>>, vector<8xi1>, vector<8xf16> into vector<8xf16>
          %4120 = vector.maskedload %view[%132, %119], %134, %cst : memref<1090x20xf16, #gpu.address_space<workgroup>>, vector<8xi1>, vector<8xf16> into vector<8xf16>
          %4121 = vector.maskedload %view[%135, %119], %137, %cst : memref<1090x20xf16, #gpu.address_space<workgroup>>, vector<8xi1>, vector<8xf16> into vector<8xf16>
          %4122 = vector.maskedload %view[%138, %119], %140, %cst : memref<1090x20xf16, #gpu.address_space<workgroup>>, vector<8xi1>, vector<8xf16> into vector<8xf16>
          %4123 = vector.maskedload %view[%141, %119], %143, %cst : memref<1090x20xf16, #gpu.address_space<workgroup>>, vector<8xi1>, vector<8xf16> into vector<8xf16>
          %4124 = vector.maskedload %view[%144, %119], %146, %cst : memref<1090x20xf16, #gpu.address_space<workgroup>>, vector<8xi1>, vector<8xf16> into vector<8xf16>
          %4125 = vector.maskedload %view[%147, %119], %149, %cst : memref<1090x20xf16, #gpu.address_space<workgroup>>, vector<8xi1>, vector<8xf16> into vector<8xf16>
          %4126 = vector.maskedload %view[%150, %119], %152, %cst : memref<1090x20xf16, #gpu.address_space<workgroup>>, vector<8xi1>, vector<8xf16> into vector<8xf16>
          %4127 = vector.maskedload %view[%153, %119], %155, %cst : memref<1090x20xf16, #gpu.address_space<workgroup>>, vector<8xi1>, vector<8xf16> into vector<8xf16>
          %4128 = vector.maskedload %view[%156, %119], %158, %cst : memref<1090x20xf16, #gpu.address_space<workgroup>>, vector<8xi1>, vector<8xf16> into vector<8xf16>
          %4129 = vector.maskedload %view[%159, %119], %161, %cst : memref<1090x20xf16, #gpu.address_space<workgroup>>, vector<8xi1>, vector<8xf16> into vector<8xf16>
          %4130 = vector.maskedload %view[%162, %119], %164, %cst : memref<1090x20xf16, #gpu.address_space<workgroup>>, vector<8xi1>, vector<8xf16> into vector<8xf16>
          %4131 = vector.maskedload %view[%165, %119], %167, %cst : memref<1090x20xf16, #gpu.address_space<workgroup>>, vector<8xi1>, vector<8xf16> into vector<8xf16>
          %4132 = vector.maskedload %view[%168, %119], %170, %cst : memref<1090x20xf16, #gpu.address_space<workgroup>>, vector<8xi1>, vector<8xf16> into vector<8xf16>
          %4133 = vector.maskedload %view_3[%171, %119], %173, %cst : memref<328x20xf16, #gpu.address_space<workgroup>>, vector<8xi1>, vector<8xf16> into vector<8xf16>
          %4134 = vector.maskedload %view_3[%174, %119], %176, %cst : memref<328x20xf16, #gpu.address_space<workgroup>>, vector<8xi1>, vector<8xf16> into vector<8xf16>
          %4135 = vector.maskedload %view_3[%177, %119], %179, %cst : memref<328x20xf16, #gpu.address_space<workgroup>>, vector<8xi1>, vector<8xf16> into vector<8xf16>
          %4136 = affine.apply #map40()[%arg3, %thread_id_x]
          %4137 = arith.addi %7, %4136 overflow<nsw> : index
          %4138 = arith.index_cast %4137 : index to i32
          %4139 = vector.broadcast %4138 : i32 to vector<8xi32>
          %4140 = arith.addi %4139, %cst_0 : vector<8xi32>
          %4141 = arith.index_cast %4140 : vector<8xi32> to vector<8xindex>
          %4142 = arith.select %5, %4141, %cst_1 : vector<8xi1>, vector<8xindex>
          %4143 = vector.extract %4142[0] : index from vector<8xindex>
          %4144 = vector.load %9[%4143] : memref<?xf16, #amdgpu.address_space<fat_raw_buffer>>, vector<8xf16>
          %4145 = arith.addi %20, %4136 overflow<nsw> : index
          %4146 = arith.index_cast %4145 : index to i32
          %4147 = vector.broadcast %4146 : i32 to vector<8xi32>
          %4148 = arith.addi %4147, %cst_0 : vector<8xi32>
          %4149 = arith.index_cast %4148 : vector<8xi32> to vector<8xindex>
          %4150 = arith.select %19, %4149, %cst_1 : vector<8xi1>, vector<8xindex>
          %4151 = vector.extract %4150[0] : index from vector<8xindex>
          %4152 = vector.load %9[%4151] : memref<?xf16, #amdgpu.address_space<fat_raw_buffer>>, vector<8xf16>
          %4153 = arith.addi %33, %4136 overflow<nsw> : index
          %4154 = arith.index_cast %4153 : index to i32
          %4155 = vector.broadcast %4154 : i32 to vector<8xi32>
          %4156 = arith.addi %4155, %cst_0 : vector<8xi32>
          %4157 = arith.index_cast %4156 : vector<8xi32> to vector<8xindex>
          %4158 = arith.select %32, %4157, %cst_1 : vector<8xi1>, vector<8xindex>
          %4159 = vector.extract %4158[0] : index from vector<8xindex>
          %4160 = vector.load %35[%4159] : memref<?xf16, #amdgpu.address_space<fat_raw_buffer>>, vector<8xf16>
          %4161 = arith.addi %46, %4136 overflow<nsw> : index
          %4162 = arith.index_cast %4161 : index to i32
          %4163 = vector.broadcast %4162 : i32 to vector<8xi32>
          %4164 = arith.addi %4163, %cst_0 : vector<8xi32>
          %4165 = arith.index_cast %4164 : vector<8xi32> to vector<8xindex>
          %4166 = arith.select %45, %4165, %cst_1 : vector<8xi1>, vector<8xindex>
          %4167 = vector.extract %4166[0] : index from vector<8xindex>
          %4168 = vector.load %35[%4167] : memref<?xf16, #amdgpu.address_space<fat_raw_buffer>>, vector<8xf16>
          %4169 = arith.addi %58, %4136 overflow<nsw> : index
          %4170 = arith.index_cast %4169 : index to i32
          %4171 = vector.broadcast %4170 : i32 to vector<8xi32>
          %4172 = arith.addi %4171, %cst_0 : vector<8xi32>
          %4173 = arith.index_cast %4172 : vector<8xi32> to vector<8xindex>
          %4174 = arith.select %57, %4173, %cst_1 : vector<8xi1>, vector<8xindex>
          %4175 = vector.extract %4174[0] : index from vector<8xindex>
          %4176 = vector.load %35[%4175] : memref<?xf16, #amdgpu.address_space<fat_raw_buffer>>, vector<8xf16>
          %4177 = arith.addi %70, %4136 overflow<nsw> : index
          %4178 = arith.index_cast %4177 : index to i32
          %4179 = vector.broadcast %4178 : i32 to vector<8xi32>
          %4180 = arith.addi %4179, %cst_0 : vector<8xi32>
          %4181 = arith.index_cast %4180 : vector<8xi32> to vector<8xindex>
          %4182 = arith.select %69, %4181, %cst_1 : vector<8xi1>, vector<8xindex>
          %4183 = vector.extract %4182[0] : index from vector<8xindex>
          %4184 = vector.load %35[%4183] : memref<?xf16, #amdgpu.address_space<fat_raw_buffer>>, vector<8xf16>
          %4185 = arith.addi %82, %4136 overflow<nsw> : index
          %4186 = arith.index_cast %4185 : index to i32
          %4187 = vector.broadcast %4186 : i32 to vector<8xi32>
          %4188 = arith.addi %4187, %cst_0 : vector<8xi32>
          %4189 = arith.index_cast %4188 : vector<8xi32> to vector<8xindex>
          %4190 = arith.select %81, %4189, %cst_1 : vector<8xi1>, vector<8xindex>
          %4191 = vector.extract %4190[0] : index from vector<8xindex>
          %4192 = vector.load %35[%4191] : memref<?xf16, #amdgpu.address_space<fat_raw_buffer>>, vector<8xf16>
          %4193 = vector.extract_strided_slice %4133 {offsets = [0], sizes = [4], strides = [1]} : vector<8xf16> to vector<4xf16>
          %4194 = vector.extract_strided_slice %4115 {offsets = [0], sizes = [4], strides = [1]} : vector<8xf16> to vector<4xf16>
          %4195 = amdgpu.mfma %4193 * %4194 + %arg4 {blocks = 1 : i32, k = 8 : i32, m = 32 : i32, n = 32 : i32} blgp =  none : vector<4xf16>, vector<4xf16>, vector<16xf32>
          %4196 = vector.extract_strided_slice %4133 {offsets = [4], sizes = [4], strides = [1]} : vector<8xf16> to vector<4xf16>
          %4197 = vector.extract_strided_slice %4115 {offsets = [4], sizes = [4], strides = [1]} : vector<8xf16> to vector<4xf16>
          %4198 = amdgpu.mfma %4196 * %4197 + %4195 {blocks = 1 : i32, k = 8 : i32, m = 32 : i32, n = 32 : i32} blgp =  none : vector<4xf16>, vector<4xf16>, vector<16xf32>
          %4199 = vector.extract_strided_slice %4116 {offsets = [0], sizes = [4], strides = [1]} : vector<8xf16> to vector<4xf16>
          %4200 = amdgpu.mfma %4193 * %4199 + %arg5 {blocks = 1 : i32, k = 8 : i32, m = 32 : i32, n = 32 : i32} blgp =  none : vector<4xf16>, vector<4xf16>, vector<16xf32>
          %4201 = vector.extract_strided_slice %4116 {offsets = [4], sizes = [4], strides = [1]} : vector<8xf16> to vector<4xf16>
          %4202 = amdgpu.mfma %4196 * %4201 + %4200 {blocks = 1 : i32, k = 8 : i32, m = 32 : i32, n = 32 : i32} blgp =  none : vector<4xf16>, vector<4xf16>, vector<16xf32>
          %4203 = vector.extract_strided_slice %4117 {offsets = [0], sizes = [4], strides = [1]} : vector<8xf16> to vector<4xf16>
          %4204 = amdgpu.mfma %4193 * %4203 + %arg6 {blocks = 1 : i32, k = 8 : i32, m = 32 : i32, n = 32 : i32} blgp =  none : vector<4xf16>, vector<4xf16>, vector<16xf32>
          %4205 = vector.extract_strided_slice %4117 {offsets = [4], sizes = [4], strides = [1]} : vector<8xf16> to vector<4xf16>
          %4206 = amdgpu.mfma %4196 * %4205 + %4204 {blocks = 1 : i32, k = 8 : i32, m = 32 : i32, n = 32 : i32} blgp =  none : vector<4xf16>, vector<4xf16>, vector<16xf32>
          %4207 = vector.extract_strided_slice %4118 {offsets = [0], sizes = [4], strides = [1]} : vector<8xf16> to vector<4xf16>
          %4208 = amdgpu.mfma %4193 * %4207 + %arg7 {blocks = 1 : i32, k = 8 : i32, m = 32 : i32, n = 32 : i32} blgp =  none : vector<4xf16>, vector<4xf16>, vector<16xf32>
          %4209 = vector.extract_strided_slice %4118 {offsets = [4], sizes = [4], strides = [1]} : vector<8xf16> to vector<4xf16>
          %4210 = amdgpu.mfma %4196 * %4209 + %4208 {blocks = 1 : i32, k = 8 : i32, m = 32 : i32, n = 32 : i32} blgp =  none : vector<4xf16>, vector<4xf16>, vector<16xf32>
          %4211 = vector.extract_strided_slice %4119 {offsets = [0], sizes = [4], strides = [1]} : vector<8xf16> to vector<4xf16>
          %4212 = amdgpu.mfma %4193 * %4211 + %arg8 {blocks = 1 : i32, k = 8 : i32, m = 32 : i32, n = 32 : i32} blgp =  none : vector<4xf16>, vector<4xf16>, vector<16xf32>
          %4213 = vector.extract_strided_slice %4119 {offsets = [4], sizes = [4], strides = [1]} : vector<8xf16> to vector<4xf16>
          %4214 = amdgpu.mfma %4196 * %4213 + %4212 {blocks = 1 : i32, k = 8 : i32, m = 32 : i32, n = 32 : i32} blgp =  none : vector<4xf16>, vector<4xf16>, vector<16xf32>
          %4215 = vector.extract_strided_slice %4120 {offsets = [0], sizes = [4], strides = [1]} : vector<8xf16> to vector<4xf16>
          %4216 = amdgpu.mfma %4193 * %4215 + %arg9 {blocks = 1 : i32, k = 8 : i32, m = 32 : i32, n = 32 : i32} blgp =  none : vector<4xf16>, vector<4xf16>, vector<16xf32>
          %4217 = vector.extract_strided_slice %4120 {offsets = [4], sizes = [4], strides = [1]} : vector<8xf16> to vector<4xf16>
          %4218 = amdgpu.mfma %4196 * %4217 + %4216 {blocks = 1 : i32, k = 8 : i32, m = 32 : i32, n = 32 : i32} blgp =  none : vector<4xf16>, vector<4xf16>, vector<16xf32>
          %4219 = vector.extract_strided_slice %4121 {offsets = [0], sizes = [4], strides = [1]} : vector<8xf16> to vector<4xf16>
          %4220 = amdgpu.mfma %4193 * %4219 + %arg10 {blocks = 1 : i32, k = 8 : i32, m = 32 : i32, n = 32 : i32} blgp =  none : vector<4xf16>, vector<4xf16>, vector<16xf32>
          %4221 = vector.extract_strided_slice %4121 {offsets = [4], sizes = [4], strides = [1]} : vector<8xf16> to vector<4xf16>
          %4222 = amdgpu.mfma %4196 * %4221 + %4220 {blocks = 1 : i32, k = 8 : i32, m = 32 : i32, n = 32 : i32} blgp =  none : vector<4xf16>, vector<4xf16>, vector<16xf32>
          %4223 = vector.extract_strided_slice %4122 {offsets = [0], sizes = [4], strides = [1]} : vector<8xf16> to vector<4xf16>
          %4224 = amdgpu.mfma %4193 * %4223 + %arg11 {blocks = 1 : i32, k = 8 : i32, m = 32 : i32, n = 32 : i32} blgp =  none : vector<4xf16>, vector<4xf16>, vector<16xf32>
          %4225 = vector.extract_strided_slice %4122 {offsets = [4], sizes = [4], strides = [1]} : vector<8xf16> to vector<4xf16>
          %4226 = amdgpu.mfma %4196 * %4225 + %4224 {blocks = 1 : i32, k = 8 : i32, m = 32 : i32, n = 32 : i32} blgp =  none : vector<4xf16>, vector<4xf16>, vector<16xf32>
          %4227 = vector.extract_strided_slice %4123 {offsets = [0], sizes = [4], strides = [1]} : vector<8xf16> to vector<4xf16>
          %4228 = amdgpu.mfma %4193 * %4227 + %arg12 {blocks = 1 : i32, k = 8 : i32, m = 32 : i32, n = 32 : i32} blgp =  none : vector<4xf16>, vector<4xf16>, vector<16xf32>
          %4229 = vector.extract_strided_slice %4123 {offsets = [4], sizes = [4], strides = [1]} : vector<8xf16> to vector<4xf16>
          %4230 = amdgpu.mfma %4196 * %4229 + %4228 {blocks = 1 : i32, k = 8 : i32, m = 32 : i32, n = 32 : i32} blgp =  none : vector<4xf16>, vector<4xf16>, vector<16xf32>
          %4231 = vector.extract_strided_slice %4124 {offsets = [0], sizes = [4], strides = [1]} : vector<8xf16> to vector<4xf16>
          %4232 = amdgpu.mfma %4193 * %4231 + %arg13 {blocks = 1 : i32, k = 8 : i32, m = 32 : i32, n = 32 : i32} blgp =  none : vector<4xf16>, vector<4xf16>, vector<16xf32>
          %4233 = vector.extract_strided_slice %4124 {offsets = [4], sizes = [4], strides = [1]} : vector<8xf16> to vector<4xf16>
          %4234 = amdgpu.mfma %4196 * %4233 + %4232 {blocks = 1 : i32, k = 8 : i32, m = 32 : i32, n = 32 : i32} blgp =  none : vector<4xf16>, vector<4xf16>, vector<16xf32>
          %4235 = vector.extract_strided_slice %4125 {offsets = [0], sizes = [4], strides = [1]} : vector<8xf16> to vector<4xf16>
          %4236 = amdgpu.mfma %4193 * %4235 + %arg14 {blocks = 1 : i32, k = 8 : i32, m = 32 : i32, n = 32 : i32} blgp =  none : vector<4xf16>, vector<4xf16>, vector<16xf32>
          %4237 = vector.extract_strided_slice %4125 {offsets = [4], sizes = [4], strides = [1]} : vector<8xf16> to vector<4xf16>
          %4238 = amdgpu.mfma %4196 * %4237 + %4236 {blocks = 1 : i32, k = 8 : i32, m = 32 : i32, n = 32 : i32} blgp =  none : vector<4xf16>, vector<4xf16>, vector<16xf32>
          %4239 = vector.extract_strided_slice %4126 {offsets = [0], sizes = [4], strides = [1]} : vector<8xf16> to vector<4xf16>
          %4240 = amdgpu.mfma %4193 * %4239 + %arg15 {blocks = 1 : i32, k = 8 : i32, m = 32 : i32, n = 32 : i32} blgp =  none : vector<4xf16>, vector<4xf16>, vector<16xf32>
          %4241 = vector.extract_strided_slice %4126 {offsets = [4], sizes = [4], strides = [1]} : vector<8xf16> to vector<4xf16>
          %4242 = amdgpu.mfma %4196 * %4241 + %4240 {blocks = 1 : i32, k = 8 : i32, m = 32 : i32, n = 32 : i32} blgp =  none : vector<4xf16>, vector<4xf16>, vector<16xf32>
          %4243 = vector.extract_strided_slice %4127 {offsets = [0], sizes = [4], strides = [1]} : vector<8xf16> to vector<4xf16>
          %4244 = amdgpu.mfma %4193 * %4243 + %arg16 {blocks = 1 : i32, k = 8 : i32, m = 32 : i32, n = 32 : i32} blgp =  none : vector<4xf16>, vector<4xf16>, vector<16xf32>
          %4245 = vector.extract_strided_slice %4127 {offsets = [4], sizes = [4], strides = [1]} : vector<8xf16> to vector<4xf16>
          %4246 = amdgpu.mfma %4196 * %4245 + %4244 {blocks = 1 : i32, k = 8 : i32, m = 32 : i32, n = 32 : i32} blgp =  none : vector<4xf16>, vector<4xf16>, vector<16xf32>
          %4247 = vector.extract_strided_slice %4128 {offsets = [0], sizes = [4], strides = [1]} : vector<8xf16> to vector<4xf16>
          %4248 = amdgpu.mfma %4193 * %4247 + %arg17 {blocks = 1 : i32, k = 8 : i32, m = 32 : i32, n = 32 : i32} blgp =  none : vector<4xf16>, vector<4xf16>, vector<16xf32>
          %4249 = vector.extract_strided_slice %4128 {offsets = [4], sizes = [4], strides = [1]} : vector<8xf16> to vector<4xf16>
          %4250 = amdgpu.mfma %4196 * %4249 + %4248 {blocks = 1 : i32, k = 8 : i32, m = 32 : i32, n = 32 : i32} blgp =  none : vector<4xf16>, vector<4xf16>, vector<16xf32>
          %4251 = vector.extract_strided_slice %4129 {offsets = [0], sizes = [4], strides = [1]} : vector<8xf16> to vector<4xf16>
          %4252 = amdgpu.mfma %4193 * %4251 + %arg18 {blocks = 1 : i32, k = 8 : i32, m = 32 : i32, n = 32 : i32} blgp =  none : vector<4xf16>, vector<4xf16>, vector<16xf32>
          %4253 = vector.extract_strided_slice %4129 {offsets = [4], sizes = [4], strides = [1]} : vector<8xf16> to vector<4xf16>
          %4254 = amdgpu.mfma %4196 * %4253 + %4252 {blocks = 1 : i32, k = 8 : i32, m = 32 : i32, n = 32 : i32} blgp =  none : vector<4xf16>, vector<4xf16>, vector<16xf32>
          %4255 = vector.extract_strided_slice %4130 {offsets = [0], sizes = [4], strides = [1]} : vector<8xf16> to vector<4xf16>
          %4256 = amdgpu.mfma %4193 * %4255 + %arg19 {blocks = 1 : i32, k = 8 : i32, m = 32 : i32, n = 32 : i32} blgp =  none : vector<4xf16>, vector<4xf16>, vector<16xf32>
          %4257 = vector.extract_strided_slice %4130 {offsets = [4], sizes = [4], strides = [1]} : vector<8xf16> to vector<4xf16>
          %4258 = amdgpu.mfma %4196 * %4257 + %4256 {blocks = 1 : i32, k = 8 : i32, m = 32 : i32, n = 32 : i32} blgp =  none : vector<4xf16>, vector<4xf16>, vector<16xf32>
          %4259 = vector.extract_strided_slice %4131 {offsets = [0], sizes = [4], strides = [1]} : vector<8xf16> to vector<4xf16>
          %4260 = amdgpu.mfma %4193 * %4259 + %arg20 {blocks = 1 : i32, k = 8 : i32, m = 32 : i32, n = 32 : i32} blgp =  none : vector<4xf16>, vector<4xf16>, vector<16xf32>
          %4261 = vector.extract_strided_slice %4131 {offsets = [4], sizes = [4], strides = [1]} : vector<8xf16> to vector<4xf16>
          %4262 = amdgpu.mfma %4196 * %4261 + %4260 {blocks = 1 : i32, k = 8 : i32, m = 32 : i32, n = 32 : i32} blgp =  none : vector<4xf16>, vector<4xf16>, vector<16xf32>
          %4263 = vector.extract_strided_slice %4132 {offsets = [0], sizes = [4], strides = [1]} : vector<8xf16> to vector<4xf16>
          %4264 = amdgpu.mfma %4193 * %4263 + %arg21 {blocks = 1 : i32, k = 8 : i32, m = 32 : i32, n = 32 : i32} blgp =  none : vector<4xf16>, vector<4xf16>, vector<16xf32>
          %4265 = vector.extract_strided_slice %4132 {offsets = [4], sizes = [4], strides = [1]} : vector<8xf16> to vector<4xf16>
          %4266 = amdgpu.mfma %4196 * %4265 + %4264 {blocks = 1 : i32, k = 8 : i32, m = 32 : i32, n = 32 : i32} blgp =  none : vector<4xf16>, vector<4xf16>, vector<16xf32>
          %4267 = vector.extract_strided_slice %4134 {offsets = [0], sizes = [4], strides = [1]} : vector<8xf16> to vector<4xf16>
          %4268 = amdgpu.mfma %4267 * %4194 + %arg22 {blocks = 1 : i32, k = 8 : i32, m = 32 : i32, n = 32 : i32} blgp =  none : vector<4xf16>, vector<4xf16>, vector<16xf32>
          %4269 = vector.extract_strided_slice %4134 {offsets = [4], sizes = [4], strides = [1]} : vector<8xf16> to vector<4xf16>
          %4270 = amdgpu.mfma %4269 * %4197 + %4268 {blocks = 1 : i32, k = 8 : i32, m = 32 : i32, n = 32 : i32} blgp =  none : vector<4xf16>, vector<4xf16>, vector<16xf32>
          %4271 = amdgpu.mfma %4267 * %4199 + %arg23 {blocks = 1 : i32, k = 8 : i32, m = 32 : i32, n = 32 : i32} blgp =  none : vector<4xf16>, vector<4xf16>, vector<16xf32>
          %4272 = amdgpu.mfma %4269 * %4201 + %4271 {blocks = 1 : i32, k = 8 : i32, m = 32 : i32, n = 32 : i32} blgp =  none : vector<4xf16>, vector<4xf16>, vector<16xf32>
          %4273 = amdgpu.mfma %4267 * %4203 + %arg24 {blocks = 1 : i32, k = 8 : i32, m = 32 : i32, n = 32 : i32} blgp =  none : vector<4xf16>, vector<4xf16>, vector<16xf32>
          %4274 = amdgpu.mfma %4269 * %4205 + %4273 {blocks = 1 : i32, k = 8 : i32, m = 32 : i32, n = 32 : i32} blgp =  none : vector<4xf16>, vector<4xf16>, vector<16xf32>
          %4275 = amdgpu.mfma %4267 * %4207 + %arg25 {blocks = 1 : i32, k = 8 : i32, m = 32 : i32, n = 32 : i32} blgp =  none : vector<4xf16>, vector<4xf16>, vector<16xf32>
          %4276 = amdgpu.mfma %4269 * %4209 + %4275 {blocks = 1 : i32, k = 8 : i32, m = 32 : i32, n = 32 : i32} blgp =  none : vector<4xf16>, vector<4xf16>, vector<16xf32>
          %4277 = amdgpu.mfma %4267 * %4211 + %arg26 {blocks = 1 : i32, k = 8 : i32, m = 32 : i32, n = 32 : i32} blgp =  none : vector<4xf16>, vector<4xf16>, vector<16xf32>
          %4278 = amdgpu.mfma %4269 * %4213 + %4277 {blocks = 1 : i32, k = 8 : i32, m = 32 : i32, n = 32 : i32} blgp =  none : vector<4xf16>, vector<4xf16>, vector<16xf32>
          %4279 = amdgpu.mfma %4267 * %4215 + %arg27 {blocks = 1 : i32, k = 8 : i32, m = 32 : i32, n = 32 : i32} blgp =  none : vector<4xf16>, vector<4xf16>, vector<16xf32>
          %4280 = amdgpu.mfma %4269 * %4217 + %4279 {blocks = 1 : i32, k = 8 : i32, m = 32 : i32, n = 32 : i32} blgp =  none : vector<4xf16>, vector<4xf16>, vector<16xf32>
          %4281 = amdgpu.mfma %4267 * %4219 + %arg28 {blocks = 1 : i32, k = 8 : i32, m = 32 : i32, n = 32 : i32} blgp =  none : vector<4xf16>, vector<4xf16>, vector<16xf32>
          %4282 = amdgpu.mfma %4269 * %4221 + %4281 {blocks = 1 : i32, k = 8 : i32, m = 32 : i32, n = 32 : i32} blgp =  none : vector<4xf16>, vector<4xf16>, vector<16xf32>
          %4283 = amdgpu.mfma %4267 * %4223 + %arg29 {blocks = 1 : i32, k = 8 : i32, m = 32 : i32, n = 32 : i32} blgp =  none : vector<4xf16>, vector<4xf16>, vector<16xf32>
          %4284 = amdgpu.mfma %4269 * %4225 + %4283 {blocks = 1 : i32, k = 8 : i32, m = 32 : i32, n = 32 : i32} blgp =  none : vector<4xf16>, vector<4xf16>, vector<16xf32>
          %4285 = amdgpu.mfma %4267 * %4227 + %arg30 {blocks = 1 : i32, k = 8 : i32, m = 32 : i32, n = 32 : i32} blgp =  none : vector<4xf16>, vector<4xf16>, vector<16xf32>
          %4286 = amdgpu.mfma %4269 * %4229 + %4285 {blocks = 1 : i32, k = 8 : i32, m = 32 : i32, n = 32 : i32} blgp =  none : vector<4xf16>, vector<4xf16>, vector<16xf32>
          %4287 = amdgpu.mfma %4267 * %4231 + %arg31 {blocks = 1 : i32, k = 8 : i32, m = 32 : i32, n = 32 : i32} blgp =  none : vector<4xf16>, vector<4xf16>, vector<16xf32>
          %4288 = amdgpu.mfma %4269 * %4233 + %4287 {blocks = 1 : i32, k = 8 : i32, m = 32 : i32, n = 32 : i32} blgp =  none : vector<4xf16>, vector<4xf16>, vector<16xf32>
          %4289 = amdgpu.mfma %4267 * %4235 + %arg32 {blocks = 1 : i32, k = 8 : i32, m = 32 : i32, n = 32 : i32} blgp =  none : vector<4xf16>, vector<4xf16>, vector<16xf32>
          %4290 = amdgpu.mfma %4269 * %4237 + %4289 {blocks = 1 : i32, k = 8 : i32, m = 32 : i32, n = 32 : i32} blgp =  none : vector<4xf16>, vector<4xf16>, vector<16xf32>
          %4291 = amdgpu.mfma %4267 * %4239 + %arg33 {blocks = 1 : i32, k = 8 : i32, m = 32 : i32, n = 32 : i32} blgp =  none : vector<4xf16>, vector<4xf16>, vector<16xf32>
          %4292 = amdgpu.mfma %4269 * %4241 + %4291 {blocks = 1 : i32, k = 8 : i32, m = 32 : i32, n = 32 : i32} blgp =  none : vector<4xf16>, vector<4xf16>, vector<16xf32>
          %4293 = amdgpu.mfma %4267 * %4243 + %arg34 {blocks = 1 : i32, k = 8 : i32, m = 32 : i32, n = 32 : i32} blgp =  none : vector<4xf16>, vector<4xf16>, vector<16xf32>
          %4294 = amdgpu.mfma %4269 * %4245 + %4293 {blocks = 1 : i32, k = 8 : i32, m = 32 : i32, n = 32 : i32} blgp =  none : vector<4xf16>, vector<4xf16>, vector<16xf32>
          %4295 = amdgpu.mfma %4267 * %4247 + %arg35 {blocks = 1 : i32, k = 8 : i32, m = 32 : i32, n = 32 : i32} blgp =  none : vector<4xf16>, vector<4xf16>, vector<16xf32>
          %4296 = amdgpu.mfma %4269 * %4249 + %4295 {blocks = 1 : i32, k = 8 : i32, m = 32 : i32, n = 32 : i32} blgp =  none : vector<4xf16>, vector<4xf16>, vector<16xf32>
          %4297 = amdgpu.mfma %4267 * %4251 + %arg36 {blocks = 1 : i32, k = 8 : i32, m = 32 : i32, n = 32 : i32} blgp =  none : vector<4xf16>, vector<4xf16>, vector<16xf32>
          %4298 = amdgpu.mfma %4269 * %4253 + %4297 {blocks = 1 : i32, k = 8 : i32, m = 32 : i32, n = 32 : i32} blgp =  none : vector<4xf16>, vector<4xf16>, vector<16xf32>
          %4299 = amdgpu.mfma %4267 * %4255 + %arg37 {blocks = 1 : i32, k = 8 : i32, m = 32 : i32, n = 32 : i32} blgp =  none : vector<4xf16>, vector<4xf16>, vector<16xf32>
          %4300 = amdgpu.mfma %4269 * %4257 + %4299 {blocks = 1 : i32, k = 8 : i32, m = 32 : i32, n = 32 : i32} blgp =  none : vector<4xf16>, vector<4xf16>, vector<16xf32>
          %4301 = amdgpu.mfma %4267 * %4259 + %arg38 {blocks = 1 : i32, k = 8 : i32, m = 32 : i32, n = 32 : i32} blgp =  none : vector<4xf16>, vector<4xf16>, vector<16xf32>
          %4302 = amdgpu.mfma %4269 * %4261 + %4301 {blocks = 1 : i32, k = 8 : i32, m = 32 : i32, n = 32 : i32} blgp =  none : vector<4xf16>, vector<4xf16>, vector<16xf32>
          %4303 = amdgpu.mfma %4267 * %4263 + %arg39 {blocks = 1 : i32, k = 8 : i32, m = 32 : i32, n = 32 : i32} blgp =  none : vector<4xf16>, vector<4xf16>, vector<16xf32>
          %4304 = amdgpu.mfma %4269 * %4265 + %4303 {blocks = 1 : i32, k = 8 : i32, m = 32 : i32, n = 32 : i32} blgp =  none : vector<4xf16>, vector<4xf16>, vector<16xf32>
          %4305 = vector.extract_strided_slice %4135 {offsets = [0], sizes = [4], strides = [1]} : vector<8xf16> to vector<4xf16>
          %4306 = amdgpu.mfma %4305 * %4194 + %arg40 {blocks = 1 : i32, k = 8 : i32, m = 32 : i32, n = 32 : i32} blgp =  none : vector<4xf16>, vector<4xf16>, vector<16xf32>
          %4307 = vector.extract_strided_slice %4135 {offsets = [4], sizes = [4], strides = [1]} : vector<8xf16> to vector<4xf16>
          %4308 = amdgpu.mfma %4307 * %4197 + %4306 {blocks = 1 : i32, k = 8 : i32, m = 32 : i32, n = 32 : i32} blgp =  none : vector<4xf16>, vector<4xf16>, vector<16xf32>
          %4309 = amdgpu.mfma %4305 * %4199 + %arg41 {blocks = 1 : i32, k = 8 : i32, m = 32 : i32, n = 32 : i32} blgp =  none : vector<4xf16>, vector<4xf16>, vector<16xf32>
          %4310 = amdgpu.mfma %4307 * %4201 + %4309 {blocks = 1 : i32, k = 8 : i32, m = 32 : i32, n = 32 : i32} blgp =  none : vector<4xf16>, vector<4xf16>, vector<16xf32>
          %4311 = amdgpu.mfma %4305 * %4203 + %arg42 {blocks = 1 : i32, k = 8 : i32, m = 32 : i32, n = 32 : i32} blgp =  none : vector<4xf16>, vector<4xf16>, vector<16xf32>
          %4312 = amdgpu.mfma %4307 * %4205 + %4311 {blocks = 1 : i32, k = 8 : i32, m = 32 : i32, n = 32 : i32} blgp =  none : vector<4xf16>, vector<4xf16>, vector<16xf32>
          %4313 = amdgpu.mfma %4305 * %4207 + %arg43 {blocks = 1 : i32, k = 8 : i32, m = 32 : i32, n = 32 : i32} blgp =  none : vector<4xf16>, vector<4xf16>, vector<16xf32>
          %4314 = amdgpu.mfma %4307 * %4209 + %4313 {blocks = 1 : i32, k = 8 : i32, m = 32 : i32, n = 32 : i32} blgp =  none : vector<4xf16>, vector<4xf16>, vector<16xf32>
          %4315 = amdgpu.mfma %4305 * %4211 + %arg44 {blocks = 1 : i32, k = 8 : i32, m = 32 : i32, n = 32 : i32} blgp =  none : vector<4xf16>, vector<4xf16>, vector<16xf32>
          %4316 = amdgpu.mfma %4307 * %4213 + %4315 {blocks = 1 : i32, k = 8 : i32, m = 32 : i32, n = 32 : i32} blgp =  none : vector<4xf16>, vector<4xf16>, vector<16xf32>
          %4317 = amdgpu.mfma %4305 * %4215 + %arg45 {blocks = 1 : i32, k = 8 : i32, m = 32 : i32, n = 32 : i32} blgp =  none : vector<4xf16>, vector<4xf16>, vector<16xf32>
          %4318 = amdgpu.mfma %4307 * %4217 + %4317 {blocks = 1 : i32, k = 8 : i32, m = 32 : i32, n = 32 : i32} blgp =  none : vector<4xf16>, vector<4xf16>, vector<16xf32>
          %4319 = amdgpu.mfma %4305 * %4219 + %arg46 {blocks = 1 : i32, k = 8 : i32, m = 32 : i32, n = 32 : i32} blgp =  none : vector<4xf16>, vector<4xf16>, vector<16xf32>
          %4320 = amdgpu.mfma %4307 * %4221 + %4319 {blocks = 1 : i32, k = 8 : i32, m = 32 : i32, n = 32 : i32} blgp =  none : vector<4xf16>, vector<4xf16>, vector<16xf32>
          %4321 = amdgpu.mfma %4305 * %4223 + %arg47 {blocks = 1 : i32, k = 8 : i32, m = 32 : i32, n = 32 : i32} blgp =  none : vector<4xf16>, vector<4xf16>, vector<16xf32>
          %4322 = amdgpu.mfma %4307 * %4225 + %4321 {blocks = 1 : i32, k = 8 : i32, m = 32 : i32, n = 32 : i32} blgp =  none : vector<4xf16>, vector<4xf16>, vector<16xf32>
          %4323 = amdgpu.mfma %4305 * %4227 + %arg48 {blocks = 1 : i32, k = 8 : i32, m = 32 : i32, n = 32 : i32} blgp =  none : vector<4xf16>, vector<4xf16>, vector<16xf32>
          %4324 = amdgpu.mfma %4307 * %4229 + %4323 {blocks = 1 : i32, k = 8 : i32, m = 32 : i32, n = 32 : i32} blgp =  none : vector<4xf16>, vector<4xf16>, vector<16xf32>
          %4325 = amdgpu.mfma %4305 * %4231 + %arg49 {blocks = 1 : i32, k = 8 : i32, m = 32 : i32, n = 32 : i32} blgp =  none : vector<4xf16>, vector<4xf16>, vector<16xf32>
          %4326 = amdgpu.mfma %4307 * %4233 + %4325 {blocks = 1 : i32, k = 8 : i32, m = 32 : i32, n = 32 : i32} blgp =  none : vector<4xf16>, vector<4xf16>, vector<16xf32>
          %4327 = amdgpu.mfma %4305 * %4235 + %arg50 {blocks = 1 : i32, k = 8 : i32, m = 32 : i32, n = 32 : i32} blgp =  none : vector<4xf16>, vector<4xf16>, vector<16xf32>
          %4328 = amdgpu.mfma %4307 * %4237 + %4327 {blocks = 1 : i32, k = 8 : i32, m = 32 : i32, n = 32 : i32} blgp =  none : vector<4xf16>, vector<4xf16>, vector<16xf32>
          %4329 = amdgpu.mfma %4305 * %4239 + %arg51 {blocks = 1 : i32, k = 8 : i32, m = 32 : i32, n = 32 : i32} blgp =  none : vector<4xf16>, vector<4xf16>, vector<16xf32>
          %4330 = amdgpu.mfma %4307 * %4241 + %4329 {blocks = 1 : i32, k = 8 : i32, m = 32 : i32, n = 32 : i32} blgp =  none : vector<4xf16>, vector<4xf16>, vector<16xf32>
          %4331 = amdgpu.mfma %4305 * %4243 + %arg52 {blocks = 1 : i32, k = 8 : i32, m = 32 : i32, n = 32 : i32} blgp =  none : vector<4xf16>, vector<4xf16>, vector<16xf32>
          %4332 = amdgpu.mfma %4307 * %4245 + %4331 {blocks = 1 : i32, k = 8 : i32, m = 32 : i32, n = 32 : i32} blgp =  none : vector<4xf16>, vector<4xf16>, vector<16xf32>
          %4333 = amdgpu.mfma %4305 * %4247 + %arg53 {blocks = 1 : i32, k = 8 : i32, m = 32 : i32, n = 32 : i32} blgp =  none : vector<4xf16>, vector<4xf16>, vector<16xf32>
          %4334 = amdgpu.mfma %4307 * %4249 + %4333 {blocks = 1 : i32, k = 8 : i32, m = 32 : i32, n = 32 : i32} blgp =  none : vector<4xf16>, vector<4xf16>, vector<16xf32>
          %4335 = amdgpu.mfma %4305 * %4251 + %arg54 {blocks = 1 : i32, k = 8 : i32, m = 32 : i32, n = 32 : i32} blgp =  none : vector<4xf16>, vector<4xf16>, vector<16xf32>
          %4336 = amdgpu.mfma %4307 * %4253 + %4335 {blocks = 1 : i32, k = 8 : i32, m = 32 : i32, n = 32 : i32} blgp =  none : vector<4xf16>, vector<4xf16>, vector<16xf32>
          %4337 = amdgpu.mfma %4305 * %4255 + %arg55 {blocks = 1 : i32, k = 8 : i32, m = 32 : i32, n = 32 : i32} blgp =  none : vector<4xf16>, vector<4xf16>, vector<16xf32>
          %4338 = amdgpu.mfma %4307 * %4257 + %4337 {blocks = 1 : i32, k = 8 : i32, m = 32 : i32, n = 32 : i32} blgp =  none : vector<4xf16>, vector<4xf16>, vector<16xf32>
          %4339 = amdgpu.mfma %4305 * %4259 + %arg56 {blocks = 1 : i32, k = 8 : i32, m = 32 : i32, n = 32 : i32} blgp =  none : vector<4xf16>, vector<4xf16>, vector<16xf32>
          %4340 = amdgpu.mfma %4307 * %4261 + %4339 {blocks = 1 : i32, k = 8 : i32, m = 32 : i32, n = 32 : i32} blgp =  none : vector<4xf16>, vector<4xf16>, vector<16xf32>
          %4341 = amdgpu.mfma %4305 * %4263 + %arg57 {blocks = 1 : i32, k = 8 : i32, m = 32 : i32, n = 32 : i32} blgp =  none : vector<4xf16>, vector<4xf16>, vector<16xf32>
          %4342 = amdgpu.mfma %4307 * %4265 + %4341 {blocks = 1 : i32, k = 8 : i32, m = 32 : i32, n = 32 : i32} blgp =  none : vector<4xf16>, vector<4xf16>, vector<16xf32>
          amdgpu.lds_barrier
          vector.maskedstore %view_3[%93, %6], %95, %4144 : memref<328x20xf16, #gpu.address_space<workgroup>>, vector<8xi1>, vector<8xf16>
          vector.maskedstore %view_3[%96, %6], %98, %4152 : memref<328x20xf16, #gpu.address_space<workgroup>>, vector<8xi1>, vector<8xf16>
          vector.maskedstore %view[%101, %6], %103, %4160 : memref<1090x20xf16, #gpu.address_space<workgroup>>, vector<8xi1>, vector<8xf16>
          vector.maskedstore %view[%104, %6], %106, %4168 : memref<1090x20xf16, #gpu.address_space<workgroup>>, vector<8xi1>, vector<8xf16>
          vector.maskedstore %view[%107, %6], %109, %4176 : memref<1090x20xf16, #gpu.address_space<workgroup>>, vector<8xi1>, vector<8xf16>
          vector.maskedstore %view[%110, %6], %112, %4184 : memref<1090x20xf16, #gpu.address_space<workgroup>>, vector<8xi1>, vector<8xf16>
          vector.maskedstore %view[%113, %6], %115, %4192 : memref<1090x20xf16, #gpu.address_space<workgroup>>, vector<8xi1>, vector<8xf16>
          scf.yield %4198, %4202, %4206, %4210, %4214, %4218, %4222, %4226, %4230, %4234, %4238, %4242, %4246, %4250, %4254, %4258, %4262, %4266, %4270, %4272, %4274, %4276, %4278, %4280, %4282, %4284, %4286, %4288, %4290, %4292, %4294, %4296, %4298, %4300, %4302, %4304, %4308, %4310, %4312, %4314, %4316, %4318, %4320, %4322, %4324, %4326, %4328, %4330, %4332, %4334, %4336, %4338, %4340, %4342 : vector<16xf32>, vector<16xf32>, vector<16xf32>, vector<16xf32>, vector<16xf32>, vector<16xf32>, vector<16xf32>, vector<16xf32>, vector<16xf32>, vector<16xf32>, vector<16xf32>, vector<16xf32>, vector<16xf32>, vector<16xf32>, vector<16xf32>, vector<16xf32>, vector<16xf32>, vector<16xf32>, vector<16xf32>, vector<16xf32>, vector<16xf32>, vector<16xf32>, vector<16xf32>, vector<16xf32>, vector<16xf32>, vector<16xf32>, vector<16xf32>, vector<16xf32>, vector<16xf32>, vector<16xf32>, vector<16xf32>, vector<16xf32>, vector<16xf32>, vector<16xf32>, vector<16xf32>, vector<16xf32>, vector<16xf32>, vector<16xf32>, vector<16xf32>, vector<16xf32>, vector<16xf32>, vector<16xf32>, vector<16xf32>, vector<16xf32>, vector<16xf32>, vector<16xf32>, vector<16xf32>, vector<16xf32>, vector<16xf32>, vector<16xf32>, vector<16xf32>, vector<16xf32>, vector<16xf32>, vector<16xf32>
        }
        amdgpu.lds_barrier
        %181 = affine.apply #map18()[%thread_id_x, %thread_id_y]
        %182 = arith.cmpi slt, %181, %100 : index
        %183 = vector.broadcast %182 : i1 to vector<8xi1>
        %184 = affine.apply #map19()[%thread_id_x]
        %185 = vector.maskedload %view[%181, %184], %183, %cst : memref<1090x20xf16, #gpu.address_space<workgroup>>, vector<8xi1>, vector<8xf16> into vector<8xf16>
        %186 = affine.apply #map20()[%thread_id_x, %thread_id_y]
        %187 = arith.cmpi slt, %186, %100 : index
        %188 = vector.broadcast %187 : i1 to vector<8xi1>
        %189 = vector.maskedload %view[%186, %184], %188, %cst : memref<1090x20xf16, #gpu.address_space<workgroup>>, vector<8xi1>, vector<8xf16> into vector<8xf16>
        %190 = affine.apply #map21()[%thread_id_x, %thread_id_y]
        %191 = arith.cmpi slt, %190, %100 : index
        %192 = vector.broadcast %191 : i1 to vector<8xi1>
        %193 = vector.maskedload %view[%190, %184], %192, %cst : memref<1090x20xf16, #gpu.address_space<workgroup>>, vector<8xi1>, vector<8xf16> into vector<8xf16>
        %194 = affine.apply #map22()[%thread_id_x, %thread_id_y]
        %195 = arith.cmpi slt, %194, %100 : index
        %196 = vector.broadcast %195 : i1 to vector<8xi1>
        %197 = vector.maskedload %view[%194, %184], %196, %cst : memref<1090x20xf16, #gpu.address_space<workgroup>>, vector<8xi1>, vector<8xf16> into vector<8xf16>
        %198 = affine.apply #map23()[%thread_id_x, %thread_id_y]
        %199 = arith.cmpi slt, %198, %100 : index
        %200 = vector.broadcast %199 : i1 to vector<8xi1>
        %201 = vector.maskedload %view[%198, %184], %200, %cst : memref<1090x20xf16, #gpu.address_space<workgroup>>, vector<8xi1>, vector<8xf16> into vector<8xf16>
        %202 = affine.apply #map24()[%thread_id_x, %thread_id_y]
        %203 = arith.cmpi slt, %202, %100 : index
        %204 = vector.broadcast %203 : i1 to vector<8xi1>
        %205 = vector.maskedload %view[%202, %184], %204, %cst : memref<1090x20xf16, #gpu.address_space<workgroup>>, vector<8xi1>, vector<8xf16> into vector<8xf16>
        %206 = affine.apply #map25()[%thread_id_x, %thread_id_y]
        %207 = arith.cmpi slt, %206, %100 : index
        %208 = vector.broadcast %207 : i1 to vector<8xi1>
        %209 = vector.maskedload %view[%206, %184], %208, %cst : memref<1090x20xf16, #gpu.address_space<workgroup>>, vector<8xi1>, vector<8xf16> into vector<8xf16>
        %210 = affine.apply #map26()[%thread_id_x, %thread_id_y]
        %211 = arith.cmpi slt, %210, %100 : index
        %212 = vector.broadcast %211 : i1 to vector<8xi1>
        %213 = vector.maskedload %view[%210, %184], %212, %cst : memref<1090x20xf16, #gpu.address_space<workgroup>>, vector<8xi1>, vector<8xf16> into vector<8xf16>
        %214 = affine.apply #map27()[%thread_id_x, %thread_id_y]
        %215 = arith.cmpi slt, %214, %100 : index
        %216 = vector.broadcast %215 : i1 to vector<8xi1>
        %217 = vector.maskedload %view[%214, %184], %216, %cst : memref<1090x20xf16, #gpu.address_space<workgroup>>, vector<8xi1>, vector<8xf16> into vector<8xf16>
        %218 = affine.apply #map28()[%thread_id_x, %thread_id_y]
        %219 = arith.cmpi slt, %218, %100 : index
        %220 = vector.broadcast %219 : i1 to vector<8xi1>
        %221 = vector.maskedload %view[%218, %184], %220, %cst : memref<1090x20xf16, #gpu.address_space<workgroup>>, vector<8xi1>, vector<8xf16> into vector<8xf16>
        %222 = affine.apply #map29()[%thread_id_x, %thread_id_y]
        %223 = arith.cmpi slt, %222, %100 : index
        %224 = vector.broadcast %223 : i1 to vector<8xi1>
        %225 = vector.maskedload %view[%222, %184], %224, %cst : memref<1090x20xf16, #gpu.address_space<workgroup>>, vector<8xi1>, vector<8xf16> into vector<8xf16>
        %226 = affine.apply #map30()[%thread_id_x, %thread_id_y]
        %227 = arith.cmpi slt, %226, %100 : index
        %228 = vector.broadcast %227 : i1 to vector<8xi1>
        %229 = vector.maskedload %view[%226, %184], %228, %cst : memref<1090x20xf16, #gpu.address_space<workgroup>>, vector<8xi1>, vector<8xf16> into vector<8xf16>
        %230 = affine.apply #map31()[%thread_id_x, %thread_id_y]
        %231 = arith.cmpi slt, %230, %100 : index
        %232 = vector.broadcast %231 : i1 to vector<8xi1>
        %233 = vector.maskedload %view[%230, %184], %232, %cst : memref<1090x20xf16, #gpu.address_space<workgroup>>, vector<8xi1>, vector<8xf16> into vector<8xf16>
        %234 = affine.apply #map32()[%thread_id_x, %thread_id_y]
        %235 = arith.cmpi slt, %234, %100 : index
        %236 = vector.broadcast %235 : i1 to vector<8xi1>
        %237 = vector.maskedload %view[%234, %184], %236, %cst : memref<1090x20xf16, #gpu.address_space<workgroup>>, vector<8xi1>, vector<8xf16> into vector<8xf16>
        %238 = affine.apply #map33()[%thread_id_x, %thread_id_y]
        %239 = arith.cmpi slt, %238, %100 : index
        %240 = vector.broadcast %239 : i1 to vector<8xi1>
        %241 = vector.maskedload %view[%238, %184], %240, %cst : memref<1090x20xf16, #gpu.address_space<workgroup>>, vector<8xi1>, vector<8xf16> into vector<8xf16>
        %242 = affine.apply #map34()[%thread_id_x, %thread_id_y]
        %243 = arith.cmpi slt, %242, %100 : index
        %244 = vector.broadcast %243 : i1 to vector<8xi1>
        %245 = vector.maskedload %view[%242, %184], %244, %cst : memref<1090x20xf16, #gpu.address_space<workgroup>>, vector<8xi1>, vector<8xf16> into vector<8xf16>
        %246 = affine.apply #map35()[%thread_id_x, %thread_id_y]
        %247 = arith.cmpi slt, %246, %100 : index
        %248 = vector.broadcast %247 : i1 to vector<8xi1>
        %249 = vector.maskedload %view[%246, %184], %248, %cst : memref<1090x20xf16, #gpu.address_space<workgroup>>, vector<8xi1>, vector<8xf16> into vector<8xf16>
        %250 = affine.apply #map36()[%thread_id_x, %thread_id_y]
        %251 = arith.cmpi slt, %250, %100 : index
        %252 = vector.broadcast %251 : i1 to vector<8xi1>
        %253 = vector.maskedload %view[%250, %184], %252, %cst : memref<1090x20xf16, #gpu.address_space<workgroup>>, vector<8xi1>, vector<8xf16> into vector<8xf16>
        %254 = affine.apply #map37()[%thread_id_x]
        %255 = arith.cmpi slt, %254, %92 : index
        %256 = vector.broadcast %255 : i1 to vector<8xi1>
        %257 = vector.maskedload %view_3[%254, %184], %256, %cst : memref<328x20xf16, #gpu.address_space<workgroup>>, vector<8xi1>, vector<8xf16> into vector<8xf16>
        %258 = affine.apply #map38()[%thread_id_x]
        %259 = arith.cmpi slt, %258, %92 : index
        %260 = vector.broadcast %259 : i1 to vector<8xi1>
        %261 = vector.maskedload %view_3[%258, %184], %260, %cst : memref<328x20xf16, #gpu.address_space<workgroup>>, vector<8xi1>, vector<8xf16> into vector<8xf16>
        %262 = affine.apply #map39()[%thread_id_x]
        %263 = arith.cmpi slt, %262, %92 : index
        %264 = vector.broadcast %263 : i1 to vector<8xi1>
        %265 = vector.maskedload %view_3[%262, %184], %264, %cst : memref<328x20xf16, #gpu.address_space<workgroup>>, vector<8xi1>, vector<8xf16> into vector<8xf16>
        %266 = vector.extract_strided_slice %257 {offsets = [0], sizes = [4], strides = [1]} : vector<8xf16> to vector<4xf16>
        %267 = vector.extract_strided_slice %185 {offsets = [0], sizes = [4], strides = [1]} : vector<8xf16> to vector<4xf16>
        %268 = amdgpu.mfma %266 * %267 + %180#0 {blocks = 1 : i32, k = 8 : i32, m = 32 : i32, n = 32 : i32} blgp =  none : vector<4xf16>, vector<4xf16>, vector<16xf32>
        %269 = vector.extract_strided_slice %257 {offsets = [4], sizes = [4], strides = [1]} : vector<8xf16> to vector<4xf16>
        %270 = vector.extract_strided_slice %185 {offsets = [4], sizes = [4], strides = [1]} : vector<8xf16> to vector<4xf16>
        %271 = amdgpu.mfma %269 * %270 + %268 {blocks = 1 : i32, k = 8 : i32, m = 32 : i32, n = 32 : i32} blgp =  none : vector<4xf16>, vector<4xf16>, vector<16xf32>
        %272 = vector.extract_strided_slice %189 {offsets = [0], sizes = [4], strides = [1]} : vector<8xf16> to vector<4xf16>
        %273 = amdgpu.mfma %266 * %272 + %180#1 {blocks = 1 : i32, k = 8 : i32, m = 32 : i32, n = 32 : i32} blgp =  none : vector<4xf16>, vector<4xf16>, vector<16xf32>
        %274 = vector.extract_strided_slice %189 {offsets = [4], sizes = [4], strides = [1]} : vector<8xf16> to vector<4xf16>
        %275 = amdgpu.mfma %269 * %274 + %273 {blocks = 1 : i32, k = 8 : i32, m = 32 : i32, n = 32 : i32} blgp =  none : vector<4xf16>, vector<4xf16>, vector<16xf32>
        %276 = vector.extract_strided_slice %193 {offsets = [0], sizes = [4], strides = [1]} : vector<8xf16> to vector<4xf16>
        %277 = amdgpu.mfma %266 * %276 + %180#2 {blocks = 1 : i32, k = 8 : i32, m = 32 : i32, n = 32 : i32} blgp =  none : vector<4xf16>, vector<4xf16>, vector<16xf32>
        %278 = vector.extract_strided_slice %193 {offsets = [4], sizes = [4], strides = [1]} : vector<8xf16> to vector<4xf16>
        %279 = amdgpu.mfma %269 * %278 + %277 {blocks = 1 : i32, k = 8 : i32, m = 32 : i32, n = 32 : i32} blgp =  none : vector<4xf16>, vector<4xf16>, vector<16xf32>
        %280 = vector.extract_strided_slice %197 {offsets = [0], sizes = [4], strides = [1]} : vector<8xf16> to vector<4xf16>
        %281 = amdgpu.mfma %266 * %280 + %180#3 {blocks = 1 : i32, k = 8 : i32, m = 32 : i32, n = 32 : i32} blgp =  none : vector<4xf16>, vector<4xf16>, vector<16xf32>
        %282 = vector.extract_strided_slice %197 {offsets = [4], sizes = [4], strides = [1]} : vector<8xf16> to vector<4xf16>
        %283 = amdgpu.mfma %269 * %282 + %281 {blocks = 1 : i32, k = 8 : i32, m = 32 : i32, n = 32 : i32} blgp =  none : vector<4xf16>, vector<4xf16>, vector<16xf32>
        %284 = vector.extract_strided_slice %201 {offsets = [0], sizes = [4], strides = [1]} : vector<8xf16> to vector<4xf16>
        %285 = amdgpu.mfma %266 * %284 + %180#4 {blocks = 1 : i32, k = 8 : i32, m = 32 : i32, n = 32 : i32} blgp =  none : vector<4xf16>, vector<4xf16>, vector<16xf32>
        %286 = vector.extract_strided_slice %201 {offsets = [4], sizes = [4], strides = [1]} : vector<8xf16> to vector<4xf16>
        %287 = amdgpu.mfma %269 * %286 + %285 {blocks = 1 : i32, k = 8 : i32, m = 32 : i32, n = 32 : i32} blgp =  none : vector<4xf16>, vector<4xf16>, vector<16xf32>
        %288 = vector.extract_strided_slice %205 {offsets = [0], sizes = [4], strides = [1]} : vector<8xf16> to vector<4xf16>
        %289 = amdgpu.mfma %266 * %288 + %180#5 {blocks = 1 : i32, k = 8 : i32, m = 32 : i32, n = 32 : i32} blgp =  none : vector<4xf16>, vector<4xf16>, vector<16xf32>
        %290 = vector.extract_strided_slice %205 {offsets = [4], sizes = [4], strides = [1]} : vector<8xf16> to vector<4xf16>
        %291 = amdgpu.mfma %269 * %290 + %289 {blocks = 1 : i32, k = 8 : i32, m = 32 : i32, n = 32 : i32} blgp =  none : vector<4xf16>, vector<4xf16>, vector<16xf32>
        %292 = vector.extract_strided_slice %209 {offsets = [0], sizes = [4], strides = [1]} : vector<8xf16> to vector<4xf16>
        %293 = amdgpu.mfma %266 * %292 + %180#6 {blocks = 1 : i32, k = 8 : i32, m = 32 : i32, n = 32 : i32} blgp =  none : vector<4xf16>, vector<4xf16>, vector<16xf32>
        %294 = vector.extract_strided_slice %209 {offsets = [4], sizes = [4], strides = [1]} : vector<8xf16> to vector<4xf16>
        %295 = amdgpu.mfma %269 * %294 + %293 {blocks = 1 : i32, k = 8 : i32, m = 32 : i32, n = 32 : i32} blgp =  none : vector<4xf16>, vector<4xf16>, vector<16xf32>
        %296 = vector.extract_strided_slice %213 {offsets = [0], sizes = [4], strides = [1]} : vector<8xf16> to vector<4xf16>
        %297 = amdgpu.mfma %266 * %296 + %180#7 {blocks = 1 : i32, k = 8 : i32, m = 32 : i32, n = 32 : i32} blgp =  none : vector<4xf16>, vector<4xf16>, vector<16xf32>
        %298 = vector.extract_strided_slice %213 {offsets = [4], sizes = [4], strides = [1]} : vector<8xf16> to vector<4xf16>
        %299 = amdgpu.mfma %269 * %298 + %297 {blocks = 1 : i32, k = 8 : i32, m = 32 : i32, n = 32 : i32} blgp =  none : vector<4xf16>, vector<4xf16>, vector<16xf32>
        %300 = vector.extract_strided_slice %217 {offsets = [0], sizes = [4], strides = [1]} : vector<8xf16> to vector<4xf16>
        %301 = amdgpu.mfma %266 * %300 + %180#8 {blocks = 1 : i32, k = 8 : i32, m = 32 : i32, n = 32 : i32} blgp =  none : vector<4xf16>, vector<4xf16>, vector<16xf32>
        %302 = vector.extract_strided_slice %217 {offsets = [4], sizes = [4], strides = [1]} : vector<8xf16> to vector<4xf16>
        %303 = amdgpu.mfma %269 * %302 + %301 {blocks = 1 : i32, k = 8 : i32, m = 32 : i32, n = 32 : i32} blgp =  none : vector<4xf16>, vector<4xf16>, vector<16xf32>
        %304 = vector.extract_strided_slice %221 {offsets = [0], sizes = [4], strides = [1]} : vector<8xf16> to vector<4xf16>
        %305 = amdgpu.mfma %266 * %304 + %180#9 {blocks = 1 : i32, k = 8 : i32, m = 32 : i32, n = 32 : i32} blgp =  none : vector<4xf16>, vector<4xf16>, vector<16xf32>
        %306 = vector.extract_strided_slice %221 {offsets = [4], sizes = [4], strides = [1]} : vector<8xf16> to vector<4xf16>
        %307 = amdgpu.mfma %269 * %306 + %305 {blocks = 1 : i32, k = 8 : i32, m = 32 : i32, n = 32 : i32} blgp =  none : vector<4xf16>, vector<4xf16>, vector<16xf32>
        %308 = vector.extract_strided_slice %225 {offsets = [0], sizes = [4], strides = [1]} : vector<8xf16> to vector<4xf16>
        %309 = amdgpu.mfma %266 * %308 + %180#10 {blocks = 1 : i32, k = 8 : i32, m = 32 : i32, n = 32 : i32} blgp =  none : vector<4xf16>, vector<4xf16>, vector<16xf32>
        %310 = vector.extract_strided_slice %225 {offsets = [4], sizes = [4], strides = [1]} : vector<8xf16> to vector<4xf16>
        %311 = amdgpu.mfma %269 * %310 + %309 {blocks = 1 : i32, k = 8 : i32, m = 32 : i32, n = 32 : i32} blgp =  none : vector<4xf16>, vector<4xf16>, vector<16xf32>
        %312 = vector.extract_strided_slice %229 {offsets = [0], sizes = [4], strides = [1]} : vector<8xf16> to vector<4xf16>
        %313 = amdgpu.mfma %266 * %312 + %180#11 {blocks = 1 : i32, k = 8 : i32, m = 32 : i32, n = 32 : i32} blgp =  none : vector<4xf16>, vector<4xf16>, vector<16xf32>
        %314 = vector.extract_strided_slice %229 {offsets = [4], sizes = [4], strides = [1]} : vector<8xf16> to vector<4xf16>
        %315 = amdgpu.mfma %269 * %314 + %313 {blocks = 1 : i32, k = 8 : i32, m = 32 : i32, n = 32 : i32} blgp =  none : vector<4xf16>, vector<4xf16>, vector<16xf32>
        %316 = vector.extract_strided_slice %233 {offsets = [0], sizes = [4], strides = [1]} : vector<8xf16> to vector<4xf16>
        %317 = amdgpu.mfma %266 * %316 + %180#12 {blocks = 1 : i32, k = 8 : i32, m = 32 : i32, n = 32 : i32} blgp =  none : vector<4xf16>, vector<4xf16>, vector<16xf32>
        %318 = vector.extract_strided_slice %233 {offsets = [4], sizes = [4], strides = [1]} : vector<8xf16> to vector<4xf16>
        %319 = amdgpu.mfma %269 * %318 + %317 {blocks = 1 : i32, k = 8 : i32, m = 32 : i32, n = 32 : i32} blgp =  none : vector<4xf16>, vector<4xf16>, vector<16xf32>
        %320 = vector.extract_strided_slice %237 {offsets = [0], sizes = [4], strides = [1]} : vector<8xf16> to vector<4xf16>
        %321 = amdgpu.mfma %266 * %320 + %180#13 {blocks = 1 : i32, k = 8 : i32, m = 32 : i32, n = 32 : i32} blgp =  none : vector<4xf16>, vector<4xf16>, vector<16xf32>
        %322 = vector.extract_strided_slice %237 {offsets = [4], sizes = [4], strides = [1]} : vector<8xf16> to vector<4xf16>
        %323 = amdgpu.mfma %269 * %322 + %321 {blocks = 1 : i32, k = 8 : i32, m = 32 : i32, n = 32 : i32} blgp =  none : vector<4xf16>, vector<4xf16>, vector<16xf32>
        %324 = vector.extract_strided_slice %241 {offsets = [0], sizes = [4], strides = [1]} : vector<8xf16> to vector<4xf16>
        %325 = amdgpu.mfma %266 * %324 + %180#14 {blocks = 1 : i32, k = 8 : i32, m = 32 : i32, n = 32 : i32} blgp =  none : vector<4xf16>, vector<4xf16>, vector<16xf32>
        %326 = vector.extract_strided_slice %241 {offsets = [4], sizes = [4], strides = [1]} : vector<8xf16> to vector<4xf16>
        %327 = amdgpu.mfma %269 * %326 + %325 {blocks = 1 : i32, k = 8 : i32, m = 32 : i32, n = 32 : i32} blgp =  none : vector<4xf16>, vector<4xf16>, vector<16xf32>
        %328 = vector.extract_strided_slice %245 {offsets = [0], sizes = [4], strides = [1]} : vector<8xf16> to vector<4xf16>
        %329 = amdgpu.mfma %266 * %328 + %180#15 {blocks = 1 : i32, k = 8 : i32, m = 32 : i32, n = 32 : i32} blgp =  none : vector<4xf16>, vector<4xf16>, vector<16xf32>
        %330 = vector.extract_strided_slice %245 {offsets = [4], sizes = [4], strides = [1]} : vector<8xf16> to vector<4xf16>
        %331 = amdgpu.mfma %269 * %330 + %329 {blocks = 1 : i32, k = 8 : i32, m = 32 : i32, n = 32 : i32} blgp =  none : vector<4xf16>, vector<4xf16>, vector<16xf32>
        %332 = vector.extract_strided_slice %249 {offsets = [0], sizes = [4], strides = [1]} : vector<8xf16> to vector<4xf16>
        %333 = amdgpu.mfma %266 * %332 + %180#16 {blocks = 1 : i32, k = 8 : i32, m = 32 : i32, n = 32 : i32} blgp =  none : vector<4xf16>, vector<4xf16>, vector<16xf32>
        %334 = vector.extract_strided_slice %249 {offsets = [4], sizes = [4], strides = [1]} : vector<8xf16> to vector<4xf16>
        %335 = amdgpu.mfma %269 * %334 + %333 {blocks = 1 : i32, k = 8 : i32, m = 32 : i32, n = 32 : i32} blgp =  none : vector<4xf16>, vector<4xf16>, vector<16xf32>
        %336 = vector.extract_strided_slice %253 {offsets = [0], sizes = [4], strides = [1]} : vector<8xf16> to vector<4xf16>
        %337 = amdgpu.mfma %266 * %336 + %180#17 {blocks = 1 : i32, k = 8 : i32, m = 32 : i32, n = 32 : i32} blgp =  none : vector<4xf16>, vector<4xf16>, vector<16xf32>
        %338 = vector.extract_strided_slice %253 {offsets = [4], sizes = [4], strides = [1]} : vector<8xf16> to vector<4xf16>
        %339 = amdgpu.mfma %269 * %338 + %337 {blocks = 1 : i32, k = 8 : i32, m = 32 : i32, n = 32 : i32} blgp =  none : vector<4xf16>, vector<4xf16>, vector<16xf32>
        %340 = vector.extract_strided_slice %261 {offsets = [0], sizes = [4], strides = [1]} : vector<8xf16> to vector<4xf16>
        %341 = amdgpu.mfma %340 * %267 + %180#18 {blocks = 1 : i32, k = 8 : i32, m = 32 : i32, n = 32 : i32} blgp =  none : vector<4xf16>, vector<4xf16>, vector<16xf32>
        %342 = vector.extract_strided_slice %261 {offsets = [4], sizes = [4], strides = [1]} : vector<8xf16> to vector<4xf16>
        %343 = amdgpu.mfma %342 * %270 + %341 {blocks = 1 : i32, k = 8 : i32, m = 32 : i32, n = 32 : i32} blgp =  none : vector<4xf16>, vector<4xf16>, vector<16xf32>
        %344 = amdgpu.mfma %340 * %272 + %180#19 {blocks = 1 : i32, k = 8 : i32, m = 32 : i32, n = 32 : i32} blgp =  none : vector<4xf16>, vector<4xf16>, vector<16xf32>
        %345 = amdgpu.mfma %342 * %274 + %344 {blocks = 1 : i32, k = 8 : i32, m = 32 : i32, n = 32 : i32} blgp =  none : vector<4xf16>, vector<4xf16>, vector<16xf32>
        %346 = amdgpu.mfma %340 * %276 + %180#20 {blocks = 1 : i32, k = 8 : i32, m = 32 : i32, n = 32 : i32} blgp =  none : vector<4xf16>, vector<4xf16>, vector<16xf32>
        %347 = amdgpu.mfma %342 * %278 + %346 {blocks = 1 : i32, k = 8 : i32, m = 32 : i32, n = 32 : i32} blgp =  none : vector<4xf16>, vector<4xf16>, vector<16xf32>
        %348 = amdgpu.mfma %340 * %280 + %180#21 {blocks = 1 : i32, k = 8 : i32, m = 32 : i32, n = 32 : i32} blgp =  none : vector<4xf16>, vector<4xf16>, vector<16xf32>
        %349 = amdgpu.mfma %342 * %282 + %348 {blocks = 1 : i32, k = 8 : i32, m = 32 : i32, n = 32 : i32} blgp =  none : vector<4xf16>, vector<4xf16>, vector<16xf32>
        %350 = amdgpu.mfma %340 * %284 + %180#22 {blocks = 1 : i32, k = 8 : i32, m = 32 : i32, n = 32 : i32} blgp =  none : vector<4xf16>, vector<4xf16>, vector<16xf32>
        %351 = amdgpu.mfma %342 * %286 + %350 {blocks = 1 : i32, k = 8 : i32, m = 32 : i32, n = 32 : i32} blgp =  none : vector<4xf16>, vector<4xf16>, vector<16xf32>
        %352 = amdgpu.mfma %340 * %288 + %180#23 {blocks = 1 : i32, k = 8 : i32, m = 32 : i32, n = 32 : i32} blgp =  none : vector<4xf16>, vector<4xf16>, vector<16xf32>
        %353 = amdgpu.mfma %342 * %290 + %352 {blocks = 1 : i32, k = 8 : i32, m = 32 : i32, n = 32 : i32} blgp =  none : vector<4xf16>, vector<4xf16>, vector<16xf32>
        %354 = amdgpu.mfma %340 * %292 + %180#24 {blocks = 1 : i32, k = 8 : i32, m = 32 : i32, n = 32 : i32} blgp =  none : vector<4xf16>, vector<4xf16>, vector<16xf32>
        %355 = amdgpu.mfma %342 * %294 + %354 {blocks = 1 : i32, k = 8 : i32, m = 32 : i32, n = 32 : i32} blgp =  none : vector<4xf16>, vector<4xf16>, vector<16xf32>
        %356 = amdgpu.mfma %340 * %296 + %180#25 {blocks = 1 : i32, k = 8 : i32, m = 32 : i32, n = 32 : i32} blgp =  none : vector<4xf16>, vector<4xf16>, vector<16xf32>
        %357 = amdgpu.mfma %342 * %298 + %356 {blocks = 1 : i32, k = 8 : i32, m = 32 : i32, n = 32 : i32} blgp =  none : vector<4xf16>, vector<4xf16>, vector<16xf32>
        %358 = amdgpu.mfma %340 * %300 + %180#26 {blocks = 1 : i32, k = 8 : i32, m = 32 : i32, n = 32 : i32} blgp =  none : vector<4xf16>, vector<4xf16>, vector<16xf32>
        %359 = amdgpu.mfma %342 * %302 + %358 {blocks = 1 : i32, k = 8 : i32, m = 32 : i32, n = 32 : i32} blgp =  none : vector<4xf16>, vector<4xf16>, vector<16xf32>
        %360 = amdgpu.mfma %340 * %304 + %180#27 {blocks = 1 : i32, k = 8 : i32, m = 32 : i32, n = 32 : i32} blgp =  none : vector<4xf16>, vector<4xf16>, vector<16xf32>
        %361 = amdgpu.mfma %342 * %306 + %360 {blocks = 1 : i32, k = 8 : i32, m = 32 : i32, n = 32 : i32} blgp =  none : vector<4xf16>, vector<4xf16>, vector<16xf32>
        %362 = amdgpu.mfma %340 * %308 + %180#28 {blocks = 1 : i32, k = 8 : i32, m = 32 : i32, n = 32 : i32} blgp =  none : vector<4xf16>, vector<4xf16>, vector<16xf32>
        %363 = amdgpu.mfma %342 * %310 + %362 {blocks = 1 : i32, k = 8 : i32, m = 32 : i32, n = 32 : i32} blgp =  none : vector<4xf16>, vector<4xf16>, vector<16xf32>
        %364 = amdgpu.mfma %340 * %312 + %180#29 {blocks = 1 : i32, k = 8 : i32, m = 32 : i32, n = 32 : i32} blgp =  none : vector<4xf16>, vector<4xf16>, vector<16xf32>
        %365 = amdgpu.mfma %342 * %314 + %364 {blocks = 1 : i32, k = 8 : i32, m = 32 : i32, n = 32 : i32} blgp =  none : vector<4xf16>, vector<4xf16>, vector<16xf32>
        %366 = amdgpu.mfma %340 * %316 + %180#30 {blocks = 1 : i32, k = 8 : i32, m = 32 : i32, n = 32 : i32} blgp =  none : vector<4xf16>, vector<4xf16>, vector<16xf32>
        %367 = amdgpu.mfma %342 * %318 + %366 {blocks = 1 : i32, k = 8 : i32, m = 32 : i32, n = 32 : i32} blgp =  none : vector<4xf16>, vector<4xf16>, vector<16xf32>
        %368 = amdgpu.mfma %340 * %320 + %180#31 {blocks = 1 : i32, k = 8 : i32, m = 32 : i32, n = 32 : i32} blgp =  none : vector<4xf16>, vector<4xf16>, vector<16xf32>
        %369 = amdgpu.mfma %342 * %322 + %368 {blocks = 1 : i32, k = 8 : i32, m = 32 : i32, n = 32 : i32} blgp =  none : vector<4xf16>, vector<4xf16>, vector<16xf32>
        %370 = amdgpu.mfma %340 * %324 + %180#32 {blocks = 1 : i32, k = 8 : i32, m = 32 : i32, n = 32 : i32} blgp =  none : vector<4xf16>, vector<4xf16>, vector<16xf32>
        %371 = amdgpu.mfma %342 * %326 + %370 {blocks = 1 : i32, k = 8 : i32, m = 32 : i32, n = 32 : i32} blgp =  none : vector<4xf16>, vector<4xf16>, vector<16xf32>
        %372 = amdgpu.mfma %340 * %328 + %180#33 {blocks = 1 : i32, k = 8 : i32, m = 32 : i32, n = 32 : i32} blgp =  none : vector<4xf16>, vector<4xf16>, vector<16xf32>
        %373 = amdgpu.mfma %342 * %330 + %372 {blocks = 1 : i32, k = 8 : i32, m = 32 : i32, n = 32 : i32} blgp =  none : vector<4xf16>, vector<4xf16>, vector<16xf32>
        %374 = amdgpu.mfma %340 * %332 + %180#34 {blocks = 1 : i32, k = 8 : i32, m = 32 : i32, n = 32 : i32} blgp =  none : vector<4xf16>, vector<4xf16>, vector<16xf32>
        %375 = amdgpu.mfma %342 * %334 + %374 {blocks = 1 : i32, k = 8 : i32, m = 32 : i32, n = 32 : i32} blgp =  none : vector<4xf16>, vector<4xf16>, vector<16xf32>
        %376 = amdgpu.mfma %340 * %336 + %180#35 {blocks = 1 : i32, k = 8 : i32, m = 32 : i32, n = 32 : i32} blgp =  none : vector<4xf16>, vector<4xf16>, vector<16xf32>
        %377 = amdgpu.mfma %342 * %338 + %376 {blocks = 1 : i32, k = 8 : i32, m = 32 : i32, n = 32 : i32} blgp =  none : vector<4xf16>, vector<4xf16>, vector<16xf32>
        %378 = vector.extract_strided_slice %265 {offsets = [0], sizes = [4], strides = [1]} : vector<8xf16> to vector<4xf16>
        %379 = amdgpu.mfma %378 * %267 + %180#36 {blocks = 1 : i32, k = 8 : i32, m = 32 : i32, n = 32 : i32} blgp =  none : vector<4xf16>, vector<4xf16>, vector<16xf32>
        %380 = vector.extract_strided_slice %265 {offsets = [4], sizes = [4], strides = [1]} : vector<8xf16> to vector<4xf16>
        %381 = amdgpu.mfma %380 * %270 + %379 {blocks = 1 : i32, k = 8 : i32, m = 32 : i32, n = 32 : i32} blgp =  none : vector<4xf16>, vector<4xf16>, vector<16xf32>
        %382 = amdgpu.mfma %378 * %272 + %180#37 {blocks = 1 : i32, k = 8 : i32, m = 32 : i32, n = 32 : i32} blgp =  none : vector<4xf16>, vector<4xf16>, vector<16xf32>
        %383 = amdgpu.mfma %380 * %274 + %382 {blocks = 1 : i32, k = 8 : i32, m = 32 : i32, n = 32 : i32} blgp =  none : vector<4xf16>, vector<4xf16>, vector<16xf32>
        %384 = amdgpu.mfma %378 * %276 + %180#38 {blocks = 1 : i32, k = 8 : i32, m = 32 : i32, n = 32 : i32} blgp =  none : vector<4xf16>, vector<4xf16>, vector<16xf32>
        %385 = amdgpu.mfma %380 * %278 + %384 {blocks = 1 : i32, k = 8 : i32, m = 32 : i32, n = 32 : i32} blgp =  none : vector<4xf16>, vector<4xf16>, vector<16xf32>
        %386 = amdgpu.mfma %378 * %280 + %180#39 {blocks = 1 : i32, k = 8 : i32, m = 32 : i32, n = 32 : i32} blgp =  none : vector<4xf16>, vector<4xf16>, vector<16xf32>
        %387 = amdgpu.mfma %380 * %282 + %386 {blocks = 1 : i32, k = 8 : i32, m = 32 : i32, n = 32 : i32} blgp =  none : vector<4xf16>, vector<4xf16>, vector<16xf32>
        %388 = amdgpu.mfma %378 * %284 + %180#40 {blocks = 1 : i32, k = 8 : i32, m = 32 : i32, n = 32 : i32} blgp =  none : vector<4xf16>, vector<4xf16>, vector<16xf32>
        %389 = amdgpu.mfma %380 * %286 + %388 {blocks = 1 : i32, k = 8 : i32, m = 32 : i32, n = 32 : i32} blgp =  none : vector<4xf16>, vector<4xf16>, vector<16xf32>
        %390 = amdgpu.mfma %378 * %288 + %180#41 {blocks = 1 : i32, k = 8 : i32, m = 32 : i32, n = 32 : i32} blgp =  none : vector<4xf16>, vector<4xf16>, vector<16xf32>
        %391 = amdgpu.mfma %380 * %290 + %390 {blocks = 1 : i32, k = 8 : i32, m = 32 : i32, n = 32 : i32} blgp =  none : vector<4xf16>, vector<4xf16>, vector<16xf32>
        %392 = amdgpu.mfma %378 * %292 + %180#42 {blocks = 1 : i32, k = 8 : i32, m = 32 : i32, n = 32 : i32} blgp =  none : vector<4xf16>, vector<4xf16>, vector<16xf32>
        %393 = amdgpu.mfma %380 * %294 + %392 {blocks = 1 : i32, k = 8 : i32, m = 32 : i32, n = 32 : i32} blgp =  none : vector<4xf16>, vector<4xf16>, vector<16xf32>
        %394 = amdgpu.mfma %378 * %296 + %180#43 {blocks = 1 : i32, k = 8 : i32, m = 32 : i32, n = 32 : i32} blgp =  none : vector<4xf16>, vector<4xf16>, vector<16xf32>
        %395 = amdgpu.mfma %380 * %298 + %394 {blocks = 1 : i32, k = 8 : i32, m = 32 : i32, n = 32 : i32} blgp =  none : vector<4xf16>, vector<4xf16>, vector<16xf32>
        %396 = amdgpu.mfma %378 * %300 + %180#44 {blocks = 1 : i32, k = 8 : i32, m = 32 : i32, n = 32 : i32} blgp =  none : vector<4xf16>, vector<4xf16>, vector<16xf32>
        %397 = amdgpu.mfma %380 * %302 + %396 {blocks = 1 : i32, k = 8 : i32, m = 32 : i32, n = 32 : i32} blgp =  none : vector<4xf16>, vector<4xf16>, vector<16xf32>
        %398 = amdgpu.mfma %378 * %304 + %180#45 {blocks = 1 : i32, k = 8 : i32, m = 32 : i32, n = 32 : i32} blgp =  none : vector<4xf16>, vector<4xf16>, vector<16xf32>
        %399 = amdgpu.mfma %380 * %306 + %398 {blocks = 1 : i32, k = 8 : i32, m = 32 : i32, n = 32 : i32} blgp =  none : vector<4xf16>, vector<4xf16>, vector<16xf32>
        %400 = amdgpu.mfma %378 * %308 + %180#46 {blocks = 1 : i32, k = 8 : i32, m = 32 : i32, n = 32 : i32} blgp =  none : vector<4xf16>, vector<4xf16>, vector<16xf32>
        %401 = amdgpu.mfma %380 * %310 + %400 {blocks = 1 : i32, k = 8 : i32, m = 32 : i32, n = 32 : i32} blgp =  none : vector<4xf16>, vector<4xf16>, vector<16xf32>
        %402 = amdgpu.mfma %378 * %312 + %180#47 {blocks = 1 : i32, k = 8 : i32, m = 32 : i32, n = 32 : i32} blgp =  none : vector<4xf16>, vector<4xf16>, vector<16xf32>
        %403 = amdgpu.mfma %380 * %314 + %402 {blocks = 1 : i32, k = 8 : i32, m = 32 : i32, n = 32 : i32} blgp =  none : vector<4xf16>, vector<4xf16>, vector<16xf32>
        %404 = amdgpu.mfma %378 * %316 + %180#48 {blocks = 1 : i32, k = 8 : i32, m = 32 : i32, n = 32 : i32} blgp =  none : vector<4xf16>, vector<4xf16>, vector<16xf32>
        %405 = amdgpu.mfma %380 * %318 + %404 {blocks = 1 : i32, k = 8 : i32, m = 32 : i32, n = 32 : i32} blgp =  none : vector<4xf16>, vector<4xf16>, vector<16xf32>
        %406 = amdgpu.mfma %378 * %320 + %180#49 {blocks = 1 : i32, k = 8 : i32, m = 32 : i32, n = 32 : i32} blgp =  none : vector<4xf16>, vector<4xf16>, vector<16xf32>
        %407 = amdgpu.mfma %380 * %322 + %406 {blocks = 1 : i32, k = 8 : i32, m = 32 : i32, n = 32 : i32} blgp =  none : vector<4xf16>, vector<4xf16>, vector<16xf32>
        %408 = amdgpu.mfma %378 * %324 + %180#50 {blocks = 1 : i32, k = 8 : i32, m = 32 : i32, n = 32 : i32} blgp =  none : vector<4xf16>, vector<4xf16>, vector<16xf32>
        %409 = amdgpu.mfma %380 * %326 + %408 {blocks = 1 : i32, k = 8 : i32, m = 32 : i32, n = 32 : i32} blgp =  none : vector<4xf16>, vector<4xf16>, vector<16xf32>
        %410 = amdgpu.mfma %378 * %328 + %180#51 {blocks = 1 : i32, k = 8 : i32, m = 32 : i32, n = 32 : i32} blgp =  none : vector<4xf16>, vector<4xf16>, vector<16xf32>
        %411 = amdgpu.mfma %380 * %330 + %410 {blocks = 1 : i32, k = 8 : i32, m = 32 : i32, n = 32 : i32} blgp =  none : vector<4xf16>, vector<4xf16>, vector<16xf32>
        %412 = amdgpu.mfma %378 * %332 + %180#52 {blocks = 1 : i32, k = 8 : i32, m = 32 : i32, n = 32 : i32} blgp =  none : vector<4xf16>, vector<4xf16>, vector<16xf32>
        %413 = amdgpu.mfma %380 * %334 + %412 {blocks = 1 : i32, k = 8 : i32, m = 32 : i32, n = 32 : i32} blgp =  none : vector<4xf16>, vector<4xf16>, vector<16xf32>
        %414 = amdgpu.mfma %378 * %336 + %180#53 {blocks = 1 : i32, k = 8 : i32, m = 32 : i32, n = 32 : i32} blgp =  none : vector<4xf16>, vector<4xf16>, vector<16xf32>
        %415 = amdgpu.mfma %380 * %338 + %414 {blocks = 1 : i32, k = 8 : i32, m = 32 : i32, n = 32 : i32} blgp =  none : vector<4xf16>, vector<4xf16>, vector<16xf32>
        %416 = vector.extract_strided_slice %271 {offsets = [0], sizes = [1], strides = [1]} : vector<16xf32> to vector<1xf32>
        %417 = stream.binding.subspan %arg2[%c0] : !stream.binding -> memref<641x2880xf32, strided<[2880, 1], offset: ?>>
        %418 = affine.apply #map41()[%block_id_y, %thread_id_y]
        %419 = affine.apply #map42()[%block_id_y]
        %420 = arith.minsi %418, %419 : index
        %421 = arith.minsi %420, %c2880 : index
        %422 = affine.apply #map43()[%thread_id_x, %block_id_x, %block_id_y, %2, %thread_id_y]
        %423 = arith.cmpi slt, %422, %421 : index
        %424 = affine.apply #map44()[%block_id_x, %thread_id_x]
        %425 = affine.apply #map45()[%block_id_x]
        %426 = arith.minsi %424, %425 : index
        %427 = arith.minsi %426, %c641 : index
        %428 = affine.apply #map46()[%block_id_x, %block_id_y, %2, %thread_id_x]
        %429 = arith.cmpi slt, %428, %427 : index
        %430 = arith.andi %423, %429 : i1
        %431 = affine.apply #map47()[%block_id_x, %block_id_y, %2]
        %432 = affine.apply #map48()[%block_id_x, %block_id_y, %2]
        %433 = affine.apply #map49()[%thread_id_x]
        %434 = arith.muli %431, %c2880 overflow<nsw> : index
        %435 = arith.muli %433, %c2880 overflow<nsw> : index
        %436 = arith.addi %434, %432 overflow<nsw> : index
        %437 = arith.addi %435, %181 overflow<nsw> : index
        %base_buffer_9, %offset_10, %sizes_11:2, %strides_12:2 = memref.extract_strided_metadata %417 : memref<641x2880xf32, strided<[2880, 1], offset: ?>> -> memref<f32>, index, index, index, index, index
        %438 = arith.addi %436, %offset_10 overflow<nsw> : index
        %reinterpret_cast_13 = memref.reinterpret_cast %417 to offset: [%438], sizes: [%c536870910], strides: [1] : memref<641x2880xf32, strided<[2880, 1], offset: ?>> to memref<?xf32, strided<[1], offset: ?>>
        %439 = amdgpu.fat_raw_buffer_cast %reinterpret_cast_13 validBytes(%c2147483643_i32) cacheSwizzleStride(%c2880_i14) resetOffset : memref<?xf32, strided<[1], offset: ?>> to memref<?xf32, #amdgpu.address_space<fat_raw_buffer>>
        %440 = arith.select %430, %437, %c536870911 : index
        vector.store %416, %439[%440] : memref<?xf32, #amdgpu.address_space<fat_raw_buffer>>, vector<1xf32>
        %441 = vector.extract_strided_slice %271 {offsets = [1], sizes = [1], strides = [1]} : vector<16xf32> to vector<1xf32>
        %442 = affine.apply #map50()[%block_id_x, %block_id_y, %2, %thread_id_x]
        %443 = arith.cmpi slt, %442, %427 : index
        %444 = arith.andi %423, %443 : i1
        %445 = affine.apply #map51()[%thread_id_x]
        %446 = arith.muli %445, %c2880 overflow<nsw> : index
        %447 = arith.addi %446, %181 overflow<nsw> : index
        %448 = arith.select %444, %447, %c536870911 : index
        vector.store %441, %439[%448] : memref<?xf32, #amdgpu.address_space<fat_raw_buffer>>, vector<1xf32>
        %449 = vector.extract_strided_slice %271 {offsets = [2], sizes = [1], strides = [1]} : vector<16xf32> to vector<1xf32>
        %450 = affine.apply #map52()[%block_id_x, %block_id_y, %2, %thread_id_x]
        %451 = arith.cmpi slt, %450, %427 : index
        %452 = arith.andi %423, %451 : i1
        %453 = affine.apply #map53()[%thread_id_x]
        %454 = arith.muli %453, %c2880 overflow<nsw> : index
        %455 = arith.addi %454, %181 overflow<nsw> : index
        %456 = arith.select %452, %455, %c536870911 : index
        vector.store %449, %439[%456] : memref<?xf32, #amdgpu.address_space<fat_raw_buffer>>, vector<1xf32>
        %457 = vector.extract_strided_slice %271 {offsets = [3], sizes = [1], strides = [1]} : vector<16xf32> to vector<1xf32>
        %458 = affine.apply #map54()[%block_id_x, %block_id_y, %2, %thread_id_x]
        %459 = arith.cmpi slt, %458, %427 : index
        %460 = arith.andi %423, %459 : i1
        %461 = affine.apply #map55()[%thread_id_x]
        %462 = arith.muli %461, %c2880 overflow<nsw> : index
        %463 = arith.addi %462, %181 overflow<nsw> : index
        %464 = arith.select %460, %463, %c536870911 : index
        vector.store %457, %439[%464] : memref<?xf32, #amdgpu.address_space<fat_raw_buffer>>, vector<1xf32>
        %465 = vector.extract_strided_slice %271 {offsets = [4], sizes = [1], strides = [1]} : vector<16xf32> to vector<1xf32>
        %466 = affine.apply #map56()[%block_id_x, %block_id_y, %2, %thread_id_x]
        %467 = arith.cmpi slt, %466, %427 : index
        %468 = arith.andi %423, %467 : i1
        %469 = affine.apply #map57()[%thread_id_x]
        %470 = arith.muli %469, %c2880 overflow<nsw> : index
        %471 = arith.addi %470, %181 overflow<nsw> : index
        %472 = arith.select %468, %471, %c536870911 : index
        vector.store %465, %439[%472] : memref<?xf32, #amdgpu.address_space<fat_raw_buffer>>, vector<1xf32>
        %473 = vector.extract_strided_slice %271 {offsets = [5], sizes = [1], strides = [1]} : vector<16xf32> to vector<1xf32>
        %474 = affine.apply #map58()[%block_id_x, %block_id_y, %2, %thread_id_x]
        %475 = arith.cmpi slt, %474, %427 : index
        %476 = arith.andi %423, %475 : i1
        %477 = affine.apply #map59()[%thread_id_x]
        %478 = arith.muli %477, %c2880 overflow<nsw> : index
        %479 = arith.addi %478, %181 overflow<nsw> : index
        %480 = arith.select %476, %479, %c536870911 : index
        vector.store %473, %439[%480] : memref<?xf32, #amdgpu.address_space<fat_raw_buffer>>, vector<1xf32>
        %481 = vector.extract_strided_slice %271 {offsets = [6], sizes = [1], strides = [1]} : vector<16xf32> to vector<1xf32>
        %482 = affine.apply #map60()[%block_id_x, %block_id_y, %2, %thread_id_x]
        %483 = arith.cmpi slt, %482, %427 : index
        %484 = arith.andi %423, %483 : i1
        %485 = affine.apply #map61()[%thread_id_x]
        %486 = arith.muli %485, %c2880 overflow<nsw> : index
        %487 = arith.addi %486, %181 overflow<nsw> : index
        %488 = arith.select %484, %487, %c536870911 : index
        vector.store %481, %439[%488] : memref<?xf32, #amdgpu.address_space<fat_raw_buffer>>, vector<1xf32>
        %489 = vector.extract_strided_slice %271 {offsets = [7], sizes = [1], strides = [1]} : vector<16xf32> to vector<1xf32>
        %490 = affine.apply #map62()[%block_id_x, %block_id_y, %2, %thread_id_x]
        %491 = arith.cmpi slt, %490, %427 : index
        %492 = arith.andi %423, %491 : i1
        %493 = affine.apply #map63()[%thread_id_x]
        %494 = arith.muli %493, %c2880 overflow<nsw> : index
        %495 = arith.addi %494, %181 overflow<nsw> : index
        %496 = arith.select %492, %495, %c536870911 : index
        vector.store %489, %439[%496] : memref<?xf32, #amdgpu.address_space<fat_raw_buffer>>, vector<1xf32>
        %497 = vector.extract_strided_slice %271 {offsets = [8], sizes = [1], strides = [1]} : vector<16xf32> to vector<1xf32>
        %498 = affine.apply #map64()[%block_id_x, %block_id_y, %2, %thread_id_x]
        %499 = arith.cmpi slt, %498, %427 : index
        %500 = arith.andi %423, %499 : i1
        %501 = affine.apply #map65()[%thread_id_x]
        %502 = arith.muli %501, %c2880 overflow<nsw> : index
        %503 = arith.addi %502, %181 overflow<nsw> : index
        %504 = arith.select %500, %503, %c536870911 : index
        vector.store %497, %439[%504] : memref<?xf32, #amdgpu.address_space<fat_raw_buffer>>, vector<1xf32>
        %505 = vector.extract_strided_slice %271 {offsets = [9], sizes = [1], strides = [1]} : vector<16xf32> to vector<1xf32>
        %506 = affine.apply #map66()[%block_id_x, %block_id_y, %2, %thread_id_x]
        %507 = arith.cmpi slt, %506, %427 : index
        %508 = arith.andi %423, %507 : i1
        %509 = affine.apply #map67()[%thread_id_x]
        %510 = arith.muli %509, %c2880 overflow<nsw> : index
        %511 = arith.addi %510, %181 overflow<nsw> : index
        %512 = arith.select %508, %511, %c536870911 : index
        vector.store %505, %439[%512] : memref<?xf32, #amdgpu.address_space<fat_raw_buffer>>, vector<1xf32>
        %513 = vector.extract_strided_slice %271 {offsets = [10], sizes = [1], strides = [1]} : vector<16xf32> to vector<1xf32>
        %514 = affine.apply #map68()[%block_id_x, %block_id_y, %2, %thread_id_x]
        %515 = arith.cmpi slt, %514, %427 : index
        %516 = arith.andi %423, %515 : i1
        %517 = affine.apply #map69()[%thread_id_x]
        %518 = arith.muli %517, %c2880 overflow<nsw> : index
        %519 = arith.addi %518, %181 overflow<nsw> : index
        %520 = arith.select %516, %519, %c536870911 : index
        vector.store %513, %439[%520] : memref<?xf32, #amdgpu.address_space<fat_raw_buffer>>, vector<1xf32>
        %521 = vector.extract_strided_slice %271 {offsets = [11], sizes = [1], strides = [1]} : vector<16xf32> to vector<1xf32>
        %522 = affine.apply #map70()[%block_id_x, %block_id_y, %2, %thread_id_x]
        %523 = arith.cmpi slt, %522, %427 : index
        %524 = arith.andi %423, %523 : i1
        %525 = affine.apply #map71()[%thread_id_x]
        %526 = arith.muli %525, %c2880 overflow<nsw> : index
        %527 = arith.addi %526, %181 overflow<nsw> : index
        %528 = arith.select %524, %527, %c536870911 : index
        vector.store %521, %439[%528] : memref<?xf32, #amdgpu.address_space<fat_raw_buffer>>, vector<1xf32>
        %529 = vector.extract_strided_slice %271 {offsets = [12], sizes = [1], strides = [1]} : vector<16xf32> to vector<1xf32>
        %530 = affine.apply #map72()[%block_id_x, %block_id_y, %2, %thread_id_x]
        %531 = arith.cmpi slt, %530, %427 : index
        %532 = arith.andi %423, %531 : i1
        %533 = affine.apply #map73()[%thread_id_x]
        %534 = arith.muli %533, %c2880 overflow<nsw> : index
        %535 = arith.addi %534, %181 overflow<nsw> : index
        %536 = arith.select %532, %535, %c536870911 : index
        vector.store %529, %439[%536] : memref<?xf32, #amdgpu.address_space<fat_raw_buffer>>, vector<1xf32>
        %537 = vector.extract_strided_slice %271 {offsets = [13], sizes = [1], strides = [1]} : vector<16xf32> to vector<1xf32>
        %538 = affine.apply #map74()[%block_id_x, %block_id_y, %2, %thread_id_x]
        %539 = arith.cmpi slt, %538, %427 : index
        %540 = arith.andi %423, %539 : i1
        %541 = affine.apply #map75()[%thread_id_x]
        %542 = arith.muli %541, %c2880 overflow<nsw> : index
        %543 = arith.addi %542, %181 overflow<nsw> : index
        %544 = arith.select %540, %543, %c536870911 : index
        vector.store %537, %439[%544] : memref<?xf32, #amdgpu.address_space<fat_raw_buffer>>, vector<1xf32>
        %545 = vector.extract_strided_slice %271 {offsets = [14], sizes = [1], strides = [1]} : vector<16xf32> to vector<1xf32>
        %546 = affine.apply #map76()[%block_id_x, %block_id_y, %2, %thread_id_x]
        %547 = arith.cmpi slt, %546, %427 : index
        %548 = arith.andi %423, %547 : i1
        %549 = affine.apply #map77()[%thread_id_x]
        %550 = arith.muli %549, %c2880 overflow<nsw> : index
        %551 = arith.addi %550, %181 overflow<nsw> : index
        %552 = arith.select %548, %551, %c536870911 : index
        vector.store %545, %439[%552] : memref<?xf32, #amdgpu.address_space<fat_raw_buffer>>, vector<1xf32>
        %553 = vector.extract_strided_slice %271 {offsets = [15], sizes = [1], strides = [1]} : vector<16xf32> to vector<1xf32>
        %554 = affine.apply #map78()[%block_id_x, %block_id_y, %2, %thread_id_x]
        %555 = arith.cmpi slt, %554, %427 : index
        %556 = arith.andi %423, %555 : i1
        %557 = affine.apply #map79()[%thread_id_x]
        %558 = arith.muli %557, %c2880 overflow<nsw> : index
        %559 = arith.addi %558, %181 overflow<nsw> : index
        %560 = arith.select %556, %559, %c536870911 : index
        vector.store %553, %439[%560] : memref<?xf32, #amdgpu.address_space<fat_raw_buffer>>, vector<1xf32>
        %561 = vector.extract_strided_slice %275 {offsets = [0], sizes = [1], strides = [1]} : vector<16xf32> to vector<1xf32>
        %562 = affine.apply #map80()[%thread_id_x, %block_id_x, %block_id_y, %2, %thread_id_y]
        %563 = arith.cmpi slt, %562, %421 : index
        %564 = arith.andi %563, %429 : i1
        %565 = arith.addi %435, %186 overflow<nsw> : index
        %566 = arith.select %564, %565, %c536870911 : index
        vector.store %561, %439[%566] : memref<?xf32, #amdgpu.address_space<fat_raw_buffer>>, vector<1xf32>
        %567 = vector.extract_strided_slice %275 {offsets = [1], sizes = [1], strides = [1]} : vector<16xf32> to vector<1xf32>
        %568 = arith.andi %563, %443 : i1
        %569 = arith.addi %446, %186 overflow<nsw> : index
        %570 = arith.select %568, %569, %c536870911 : index
        vector.store %567, %439[%570] : memref<?xf32, #amdgpu.address_space<fat_raw_buffer>>, vector<1xf32>
        %571 = vector.extract_strided_slice %275 {offsets = [2], sizes = [1], strides = [1]} : vector<16xf32> to vector<1xf32>
        %572 = arith.andi %563, %451 : i1
        %573 = arith.addi %454, %186 overflow<nsw> : index
        %574 = arith.select %572, %573, %c536870911 : index
        vector.store %571, %439[%574] : memref<?xf32, #amdgpu.address_space<fat_raw_buffer>>, vector<1xf32>
        %575 = vector.extract_strided_slice %275 {offsets = [3], sizes = [1], strides = [1]} : vector<16xf32> to vector<1xf32>
        %576 = arith.andi %563, %459 : i1
        %577 = arith.addi %462, %186 overflow<nsw> : index
        %578 = arith.select %576, %577, %c536870911 : index
        vector.store %575, %439[%578] : memref<?xf32, #amdgpu.address_space<fat_raw_buffer>>, vector<1xf32>
        %579 = vector.extract_strided_slice %275 {offsets = [4], sizes = [1], strides = [1]} : vector<16xf32> to vector<1xf32>
        %580 = arith.andi %563, %467 : i1
        %581 = arith.addi %470, %186 overflow<nsw> : index
        %582 = arith.select %580, %581, %c536870911 : index
        vector.store %579, %439[%582] : memref<?xf32, #amdgpu.address_space<fat_raw_buffer>>, vector<1xf32>
        %583 = vector.extract_strided_slice %275 {offsets = [5], sizes = [1], strides = [1]} : vector<16xf32> to vector<1xf32>
        %584 = arith.andi %563, %475 : i1
        %585 = arith.addi %478, %186 overflow<nsw> : index
        %586 = arith.select %584, %585, %c536870911 : index
        vector.store %583, %439[%586] : memref<?xf32, #amdgpu.address_space<fat_raw_buffer>>, vector<1xf32>
        %587 = vector.extract_strided_slice %275 {offsets = [6], sizes = [1], strides = [1]} : vector<16xf32> to vector<1xf32>
        %588 = arith.andi %563, %483 : i1
        %589 = arith.addi %486, %186 overflow<nsw> : index
        %590 = arith.select %588, %589, %c536870911 : index
        vector.store %587, %439[%590] : memref<?xf32, #amdgpu.address_space<fat_raw_buffer>>, vector<1xf32>
        %591 = vector.extract_strided_slice %275 {offsets = [7], sizes = [1], strides = [1]} : vector<16xf32> to vector<1xf32>
        %592 = arith.andi %563, %491 : i1
        %593 = arith.addi %494, %186 overflow<nsw> : index
        %594 = arith.select %592, %593, %c536870911 : index
        vector.store %591, %439[%594] : memref<?xf32, #amdgpu.address_space<fat_raw_buffer>>, vector<1xf32>
        %595 = vector.extract_strided_slice %275 {offsets = [8], sizes = [1], strides = [1]} : vector<16xf32> to vector<1xf32>
        %596 = arith.andi %563, %499 : i1
        %597 = arith.addi %502, %186 overflow<nsw> : index
        %598 = arith.select %596, %597, %c536870911 : index
        vector.store %595, %439[%598] : memref<?xf32, #amdgpu.address_space<fat_raw_buffer>>, vector<1xf32>
        %599 = vector.extract_strided_slice %275 {offsets = [9], sizes = [1], strides = [1]} : vector<16xf32> to vector<1xf32>
        %600 = arith.andi %563, %507 : i1
        %601 = arith.addi %510, %186 overflow<nsw> : index
        %602 = arith.select %600, %601, %c536870911 : index
        vector.store %599, %439[%602] : memref<?xf32, #amdgpu.address_space<fat_raw_buffer>>, vector<1xf32>
        %603 = vector.extract_strided_slice %275 {offsets = [10], sizes = [1], strides = [1]} : vector<16xf32> to vector<1xf32>
        %604 = arith.andi %563, %515 : i1
        %605 = arith.addi %518, %186 overflow<nsw> : index
        %606 = arith.select %604, %605, %c536870911 : index
        vector.store %603, %439[%606] : memref<?xf32, #amdgpu.address_space<fat_raw_buffer>>, vector<1xf32>
        %607 = vector.extract_strided_slice %275 {offsets = [11], sizes = [1], strides = [1]} : vector<16xf32> to vector<1xf32>
        %608 = arith.andi %563, %523 : i1
        %609 = arith.addi %526, %186 overflow<nsw> : index
        %610 = arith.select %608, %609, %c536870911 : index
        vector.store %607, %439[%610] : memref<?xf32, #amdgpu.address_space<fat_raw_buffer>>, vector<1xf32>
        %611 = vector.extract_strided_slice %275 {offsets = [12], sizes = [1], strides = [1]} : vector<16xf32> to vector<1xf32>
        %612 = arith.andi %563, %531 : i1
        %613 = arith.addi %534, %186 overflow<nsw> : index
        %614 = arith.select %612, %613, %c536870911 : index
        vector.store %611, %439[%614] : memref<?xf32, #amdgpu.address_space<fat_raw_buffer>>, vector<1xf32>
        %615 = vector.extract_strided_slice %275 {offsets = [13], sizes = [1], strides = [1]} : vector<16xf32> to vector<1xf32>
        %616 = arith.andi %563, %539 : i1
        %617 = arith.addi %542, %186 overflow<nsw> : index
        %618 = arith.select %616, %617, %c536870911 : index
        vector.store %615, %439[%618] : memref<?xf32, #amdgpu.address_space<fat_raw_buffer>>, vector<1xf32>
        %619 = vector.extract_strided_slice %275 {offsets = [14], sizes = [1], strides = [1]} : vector<16xf32> to vector<1xf32>
        %620 = arith.andi %563, %547 : i1
        %621 = arith.addi %550, %186 overflow<nsw> : index
        %622 = arith.select %620, %621, %c536870911 : index
        vector.store %619, %439[%622] : memref<?xf32, #amdgpu.address_space<fat_raw_buffer>>, vector<1xf32>
        %623 = vector.extract_strided_slice %275 {offsets = [15], sizes = [1], strides = [1]} : vector<16xf32> to vector<1xf32>
        %624 = arith.andi %563, %555 : i1
        %625 = arith.addi %558, %186 overflow<nsw> : index
        %626 = arith.select %624, %625, %c536870911 : index
        vector.store %623, %439[%626] : memref<?xf32, #amdgpu.address_space<fat_raw_buffer>>, vector<1xf32>
        %627 = vector.extract_strided_slice %279 {offsets = [0], sizes = [1], strides = [1]} : vector<16xf32> to vector<1xf32>
        %628 = affine.apply #map81()[%thread_id_x, %block_id_x, %block_id_y, %2, %thread_id_y]
        %629 = arith.cmpi slt, %628, %421 : index
        %630 = arith.andi %629, %429 : i1
        %631 = arith.addi %435, %190 overflow<nsw> : index
        %632 = arith.select %630, %631, %c536870911 : index
        vector.store %627, %439[%632] : memref<?xf32, #amdgpu.address_space<fat_raw_buffer>>, vector<1xf32>
        %633 = vector.extract_strided_slice %279 {offsets = [1], sizes = [1], strides = [1]} : vector<16xf32> to vector<1xf32>
        %634 = arith.andi %629, %443 : i1
        %635 = arith.addi %446, %190 overflow<nsw> : index
        %636 = arith.select %634, %635, %c536870911 : index
        vector.store %633, %439[%636] : memref<?xf32, #amdgpu.address_space<fat_raw_buffer>>, vector<1xf32>
        %637 = vector.extract_strided_slice %279 {offsets = [2], sizes = [1], strides = [1]} : vector<16xf32> to vector<1xf32>
        %638 = arith.andi %629, %451 : i1
        %639 = arith.addi %454, %190 overflow<nsw> : index
        %640 = arith.select %638, %639, %c536870911 : index
        vector.store %637, %439[%640] : memref<?xf32, #amdgpu.address_space<fat_raw_buffer>>, vector<1xf32>
        %641 = vector.extract_strided_slice %279 {offsets = [3], sizes = [1], strides = [1]} : vector<16xf32> to vector<1xf32>
        %642 = arith.andi %629, %459 : i1
        %643 = arith.addi %462, %190 overflow<nsw> : index
        %644 = arith.select %642, %643, %c536870911 : index
        vector.store %641, %439[%644] : memref<?xf32, #amdgpu.address_space<fat_raw_buffer>>, vector<1xf32>
        %645 = vector.extract_strided_slice %279 {offsets = [4], sizes = [1], strides = [1]} : vector<16xf32> to vector<1xf32>
        %646 = arith.andi %629, %467 : i1
        %647 = arith.addi %470, %190 overflow<nsw> : index
        %648 = arith.select %646, %647, %c536870911 : index
        vector.store %645, %439[%648] : memref<?xf32, #amdgpu.address_space<fat_raw_buffer>>, vector<1xf32>
        %649 = vector.extract_strided_slice %279 {offsets = [5], sizes = [1], strides = [1]} : vector<16xf32> to vector<1xf32>
        %650 = arith.andi %629, %475 : i1
        %651 = arith.addi %478, %190 overflow<nsw> : index
        %652 = arith.select %650, %651, %c536870911 : index
        vector.store %649, %439[%652] : memref<?xf32, #amdgpu.address_space<fat_raw_buffer>>, vector<1xf32>
        %653 = vector.extract_strided_slice %279 {offsets = [6], sizes = [1], strides = [1]} : vector<16xf32> to vector<1xf32>
        %654 = arith.andi %629, %483 : i1
        %655 = arith.addi %486, %190 overflow<nsw> : index
        %656 = arith.select %654, %655, %c536870911 : index
        vector.store %653, %439[%656] : memref<?xf32, #amdgpu.address_space<fat_raw_buffer>>, vector<1xf32>
        %657 = vector.extract_strided_slice %279 {offsets = [7], sizes = [1], strides = [1]} : vector<16xf32> to vector<1xf32>
        %658 = arith.andi %629, %491 : i1
        %659 = arith.addi %494, %190 overflow<nsw> : index
        %660 = arith.select %658, %659, %c536870911 : index
        vector.store %657, %439[%660] : memref<?xf32, #amdgpu.address_space<fat_raw_buffer>>, vector<1xf32>
        %661 = vector.extract_strided_slice %279 {offsets = [8], sizes = [1], strides = [1]} : vector<16xf32> to vector<1xf32>
        %662 = arith.andi %629, %499 : i1
        %663 = arith.addi %502, %190 overflow<nsw> : index
        %664 = arith.select %662, %663, %c536870911 : index
        vector.store %661, %439[%664] : memref<?xf32, #amdgpu.address_space<fat_raw_buffer>>, vector<1xf32>
        %665 = vector.extract_strided_slice %279 {offsets = [9], sizes = [1], strides = [1]} : vector<16xf32> to vector<1xf32>
        %666 = arith.andi %629, %507 : i1
        %667 = arith.addi %510, %190 overflow<nsw> : index
        %668 = arith.select %666, %667, %c536870911 : index
        vector.store %665, %439[%668] : memref<?xf32, #amdgpu.address_space<fat_raw_buffer>>, vector<1xf32>
        %669 = vector.extract_strided_slice %279 {offsets = [10], sizes = [1], strides = [1]} : vector<16xf32> to vector<1xf32>
        %670 = arith.andi %629, %515 : i1
        %671 = arith.addi %518, %190 overflow<nsw> : index
        %672 = arith.select %670, %671, %c536870911 : index
        vector.store %669, %439[%672] : memref<?xf32, #amdgpu.address_space<fat_raw_buffer>>, vector<1xf32>
        %673 = vector.extract_strided_slice %279 {offsets = [11], sizes = [1], strides = [1]} : vector<16xf32> to vector<1xf32>
        %674 = arith.andi %629, %523 : i1
        %675 = arith.addi %526, %190 overflow<nsw> : index
        %676 = arith.select %674, %675, %c536870911 : index
        vector.store %673, %439[%676] : memref<?xf32, #amdgpu.address_space<fat_raw_buffer>>, vector<1xf32>
        %677 = vector.extract_strided_slice %279 {offsets = [12], sizes = [1], strides = [1]} : vector<16xf32> to vector<1xf32>
        %678 = arith.andi %629, %531 : i1
        %679 = arith.addi %534, %190 overflow<nsw> : index
        %680 = arith.select %678, %679, %c536870911 : index
        vector.store %677, %439[%680] : memref<?xf32, #amdgpu.address_space<fat_raw_buffer>>, vector<1xf32>
        %681 = vector.extract_strided_slice %279 {offsets = [13], sizes = [1], strides = [1]} : vector<16xf32> to vector<1xf32>
        %682 = arith.andi %629, %539 : i1
        %683 = arith.addi %542, %190 overflow<nsw> : index
        %684 = arith.select %682, %683, %c536870911 : index
        vector.store %681, %439[%684] : memref<?xf32, #amdgpu.address_space<fat_raw_buffer>>, vector<1xf32>
        %685 = vector.extract_strided_slice %279 {offsets = [14], sizes = [1], strides = [1]} : vector<16xf32> to vector<1xf32>
        %686 = arith.andi %629, %547 : i1
        %687 = arith.addi %550, %190 overflow<nsw> : index
        %688 = arith.select %686, %687, %c536870911 : index
        vector.store %685, %439[%688] : memref<?xf32, #amdgpu.address_space<fat_raw_buffer>>, vector<1xf32>
        %689 = vector.extract_strided_slice %279 {offsets = [15], sizes = [1], strides = [1]} : vector<16xf32> to vector<1xf32>
        %690 = arith.andi %629, %555 : i1
        %691 = arith.addi %558, %190 overflow<nsw> : index
        %692 = arith.select %690, %691, %c536870911 : index
        vector.store %689, %439[%692] : memref<?xf32, #amdgpu.address_space<fat_raw_buffer>>, vector<1xf32>
        %693 = vector.extract_strided_slice %283 {offsets = [0], sizes = [1], strides = [1]} : vector<16xf32> to vector<1xf32>
        %694 = affine.apply #map82()[%thread_id_x, %block_id_x, %block_id_y, %2, %thread_id_y]
        %695 = arith.cmpi slt, %694, %421 : index
        %696 = arith.andi %695, %429 : i1
        %697 = arith.addi %435, %194 overflow<nsw> : index
        %698 = arith.select %696, %697, %c536870911 : index
        vector.store %693, %439[%698] : memref<?xf32, #amdgpu.address_space<fat_raw_buffer>>, vector<1xf32>
        %699 = vector.extract_strided_slice %283 {offsets = [1], sizes = [1], strides = [1]} : vector<16xf32> to vector<1xf32>
        %700 = arith.andi %695, %443 : i1
        %701 = arith.addi %446, %194 overflow<nsw> : index
        %702 = arith.select %700, %701, %c536870911 : index
        vector.store %699, %439[%702] : memref<?xf32, #amdgpu.address_space<fat_raw_buffer>>, vector<1xf32>
        %703 = vector.extract_strided_slice %283 {offsets = [2], sizes = [1], strides = [1]} : vector<16xf32> to vector<1xf32>
        %704 = arith.andi %695, %451 : i1
        %705 = arith.addi %454, %194 overflow<nsw> : index
        %706 = arith.select %704, %705, %c536870911 : index
        vector.store %703, %439[%706] : memref<?xf32, #amdgpu.address_space<fat_raw_buffer>>, vector<1xf32>
        %707 = vector.extract_strided_slice %283 {offsets = [3], sizes = [1], strides = [1]} : vector<16xf32> to vector<1xf32>
        %708 = arith.andi %695, %459 : i1
        %709 = arith.addi %462, %194 overflow<nsw> : index
        %710 = arith.select %708, %709, %c536870911 : index
        vector.store %707, %439[%710] : memref<?xf32, #amdgpu.address_space<fat_raw_buffer>>, vector<1xf32>
        %711 = vector.extract_strided_slice %283 {offsets = [4], sizes = [1], strides = [1]} : vector<16xf32> to vector<1xf32>
        %712 = arith.andi %695, %467 : i1
        %713 = arith.addi %470, %194 overflow<nsw> : index
        %714 = arith.select %712, %713, %c536870911 : index
        vector.store %711, %439[%714] : memref<?xf32, #amdgpu.address_space<fat_raw_buffer>>, vector<1xf32>
        %715 = vector.extract_strided_slice %283 {offsets = [5], sizes = [1], strides = [1]} : vector<16xf32> to vector<1xf32>
        %716 = arith.andi %695, %475 : i1
        %717 = arith.addi %478, %194 overflow<nsw> : index
        %718 = arith.select %716, %717, %c536870911 : index
        vector.store %715, %439[%718] : memref<?xf32, #amdgpu.address_space<fat_raw_buffer>>, vector<1xf32>
        %719 = vector.extract_strided_slice %283 {offsets = [6], sizes = [1], strides = [1]} : vector<16xf32> to vector<1xf32>
        %720 = arith.andi %695, %483 : i1
        %721 = arith.addi %486, %194 overflow<nsw> : index
        %722 = arith.select %720, %721, %c536870911 : index
        vector.store %719, %439[%722] : memref<?xf32, #amdgpu.address_space<fat_raw_buffer>>, vector<1xf32>
        %723 = vector.extract_strided_slice %283 {offsets = [7], sizes = [1], strides = [1]} : vector<16xf32> to vector<1xf32>
        %724 = arith.andi %695, %491 : i1
        %725 = arith.addi %494, %194 overflow<nsw> : index
        %726 = arith.select %724, %725, %c536870911 : index
        vector.store %723, %439[%726] : memref<?xf32, #amdgpu.address_space<fat_raw_buffer>>, vector<1xf32>
        %727 = vector.extract_strided_slice %283 {offsets = [8], sizes = [1], strides = [1]} : vector<16xf32> to vector<1xf32>
        %728 = arith.andi %695, %499 : i1
        %729 = arith.addi %502, %194 overflow<nsw> : index
        %730 = arith.select %728, %729, %c536870911 : index
        vector.store %727, %439[%730] : memref<?xf32, #amdgpu.address_space<fat_raw_buffer>>, vector<1xf32>
        %731 = vector.extract_strided_slice %283 {offsets = [9], sizes = [1], strides = [1]} : vector<16xf32> to vector<1xf32>
        %732 = arith.andi %695, %507 : i1
        %733 = arith.addi %510, %194 overflow<nsw> : index
        %734 = arith.select %732, %733, %c536870911 : index
        vector.store %731, %439[%734] : memref<?xf32, #amdgpu.address_space<fat_raw_buffer>>, vector<1xf32>
        %735 = vector.extract_strided_slice %283 {offsets = [10], sizes = [1], strides = [1]} : vector<16xf32> to vector<1xf32>
        %736 = arith.andi %695, %515 : i1
        %737 = arith.addi %518, %194 overflow<nsw> : index
        %738 = arith.select %736, %737, %c536870911 : index
        vector.store %735, %439[%738] : memref<?xf32, #amdgpu.address_space<fat_raw_buffer>>, vector<1xf32>
        %739 = vector.extract_strided_slice %283 {offsets = [11], sizes = [1], strides = [1]} : vector<16xf32> to vector<1xf32>
        %740 = arith.andi %695, %523 : i1
        %741 = arith.addi %526, %194 overflow<nsw> : index
        %742 = arith.select %740, %741, %c536870911 : index
        vector.store %739, %439[%742] : memref<?xf32, #amdgpu.address_space<fat_raw_buffer>>, vector<1xf32>
        %743 = vector.extract_strided_slice %283 {offsets = [12], sizes = [1], strides = [1]} : vector<16xf32> to vector<1xf32>
        %744 = arith.andi %695, %531 : i1
        %745 = arith.addi %534, %194 overflow<nsw> : index
        %746 = arith.select %744, %745, %c536870911 : index
        vector.store %743, %439[%746] : memref<?xf32, #amdgpu.address_space<fat_raw_buffer>>, vector<1xf32>
        %747 = vector.extract_strided_slice %283 {offsets = [13], sizes = [1], strides = [1]} : vector<16xf32> to vector<1xf32>
        %748 = arith.andi %695, %539 : i1
        %749 = arith.addi %542, %194 overflow<nsw> : index
        %750 = arith.select %748, %749, %c536870911 : index
        vector.store %747, %439[%750] : memref<?xf32, #amdgpu.address_space<fat_raw_buffer>>, vector<1xf32>
        %751 = vector.extract_strided_slice %283 {offsets = [14], sizes = [1], strides = [1]} : vector<16xf32> to vector<1xf32>
        %752 = arith.andi %695, %547 : i1
        %753 = arith.addi %550, %194 overflow<nsw> : index
        %754 = arith.select %752, %753, %c536870911 : index
        vector.store %751, %439[%754] : memref<?xf32, #amdgpu.address_space<fat_raw_buffer>>, vector<1xf32>
        %755 = vector.extract_strided_slice %283 {offsets = [15], sizes = [1], strides = [1]} : vector<16xf32> to vector<1xf32>
        %756 = arith.andi %695, %555 : i1
        %757 = arith.addi %558, %194 overflow<nsw> : index
        %758 = arith.select %756, %757, %c536870911 : index
        vector.store %755, %439[%758] : memref<?xf32, #amdgpu.address_space<fat_raw_buffer>>, vector<1xf32>
        %759 = vector.extract_strided_slice %287 {offsets = [0], sizes = [1], strides = [1]} : vector<16xf32> to vector<1xf32>
        %760 = affine.apply #map83()[%thread_id_x, %block_id_x, %block_id_y, %2, %thread_id_y]
        %761 = arith.cmpi slt, %760, %421 : index
        %762 = arith.andi %761, %429 : i1
        %763 = arith.addi %435, %198 overflow<nsw> : index
        %764 = arith.select %762, %763, %c536870911 : index
        vector.store %759, %439[%764] : memref<?xf32, #amdgpu.address_space<fat_raw_buffer>>, vector<1xf32>
        %765 = vector.extract_strided_slice %287 {offsets = [1], sizes = [1], strides = [1]} : vector<16xf32> to vector<1xf32>
        %766 = arith.andi %761, %443 : i1
        %767 = arith.addi %446, %198 overflow<nsw> : index
        %768 = arith.select %766, %767, %c536870911 : index
        vector.store %765, %439[%768] : memref<?xf32, #amdgpu.address_space<fat_raw_buffer>>, vector<1xf32>
        %769 = vector.extract_strided_slice %287 {offsets = [2], sizes = [1], strides = [1]} : vector<16xf32> to vector<1xf32>
        %770 = arith.andi %761, %451 : i1
        %771 = arith.addi %454, %198 overflow<nsw> : index
        %772 = arith.select %770, %771, %c536870911 : index
        vector.store %769, %439[%772] : memref<?xf32, #amdgpu.address_space<fat_raw_buffer>>, vector<1xf32>
        %773 = vector.extract_strided_slice %287 {offsets = [3], sizes = [1], strides = [1]} : vector<16xf32> to vector<1xf32>
        %774 = arith.andi %761, %459 : i1
        %775 = arith.addi %462, %198 overflow<nsw> : index
        %776 = arith.select %774, %775, %c536870911 : index
        vector.store %773, %439[%776] : memref<?xf32, #amdgpu.address_space<fat_raw_buffer>>, vector<1xf32>
        %777 = vector.extract_strided_slice %287 {offsets = [4], sizes = [1], strides = [1]} : vector<16xf32> to vector<1xf32>
        %778 = arith.andi %761, %467 : i1
        %779 = arith.addi %470, %198 overflow<nsw> : index
        %780 = arith.select %778, %779, %c536870911 : index
        vector.store %777, %439[%780] : memref<?xf32, #amdgpu.address_space<fat_raw_buffer>>, vector<1xf32>
        %781 = vector.extract_strided_slice %287 {offsets = [5], sizes = [1], strides = [1]} : vector<16xf32> to vector<1xf32>
        %782 = arith.andi %761, %475 : i1
        %783 = arith.addi %478, %198 overflow<nsw> : index
        %784 = arith.select %782, %783, %c536870911 : index
        vector.store %781, %439[%784] : memref<?xf32, #amdgpu.address_space<fat_raw_buffer>>, vector<1xf32>
        %785 = vector.extract_strided_slice %287 {offsets = [6], sizes = [1], strides = [1]} : vector<16xf32> to vector<1xf32>
        %786 = arith.andi %761, %483 : i1
        %787 = arith.addi %486, %198 overflow<nsw> : index
        %788 = arith.select %786, %787, %c536870911 : index
        vector.store %785, %439[%788] : memref<?xf32, #amdgpu.address_space<fat_raw_buffer>>, vector<1xf32>
        %789 = vector.extract_strided_slice %287 {offsets = [7], sizes = [1], strides = [1]} : vector<16xf32> to vector<1xf32>
        %790 = arith.andi %761, %491 : i1
        %791 = arith.addi %494, %198 overflow<nsw> : index
        %792 = arith.select %790, %791, %c536870911 : index
        vector.store %789, %439[%792] : memref<?xf32, #amdgpu.address_space<fat_raw_buffer>>, vector<1xf32>
        %793 = vector.extract_strided_slice %287 {offsets = [8], sizes = [1], strides = [1]} : vector<16xf32> to vector<1xf32>
        %794 = arith.andi %761, %499 : i1
        %795 = arith.addi %502, %198 overflow<nsw> : index
        %796 = arith.select %794, %795, %c536870911 : index
        vector.store %793, %439[%796] : memref<?xf32, #amdgpu.address_space<fat_raw_buffer>>, vector<1xf32>
        %797 = vector.extract_strided_slice %287 {offsets = [9], sizes = [1], strides = [1]} : vector<16xf32> to vector<1xf32>
        %798 = arith.andi %761, %507 : i1
        %799 = arith.addi %510, %198 overflow<nsw> : index
        %800 = arith.select %798, %799, %c536870911 : index
        vector.store %797, %439[%800] : memref<?xf32, #amdgpu.address_space<fat_raw_buffer>>, vector<1xf32>
        %801 = vector.extract_strided_slice %287 {offsets = [10], sizes = [1], strides = [1]} : vector<16xf32> to vector<1xf32>
        %802 = arith.andi %761, %515 : i1
        %803 = arith.addi %518, %198 overflow<nsw> : index
        %804 = arith.select %802, %803, %c536870911 : index
        vector.store %801, %439[%804] : memref<?xf32, #amdgpu.address_space<fat_raw_buffer>>, vector<1xf32>
        %805 = vector.extract_strided_slice %287 {offsets = [11], sizes = [1], strides = [1]} : vector<16xf32> to vector<1xf32>
        %806 = arith.andi %761, %523 : i1
        %807 = arith.addi %526, %198 overflow<nsw> : index
        %808 = arith.select %806, %807, %c536870911 : index
        vector.store %805, %439[%808] : memref<?xf32, #amdgpu.address_space<fat_raw_buffer>>, vector<1xf32>
        %809 = vector.extract_strided_slice %287 {offsets = [12], sizes = [1], strides = [1]} : vector<16xf32> to vector<1xf32>
        %810 = arith.andi %761, %531 : i1
        %811 = arith.addi %534, %198 overflow<nsw> : index
        %812 = arith.select %810, %811, %c536870911 : index
        vector.store %809, %439[%812] : memref<?xf32, #amdgpu.address_space<fat_raw_buffer>>, vector<1xf32>
        %813 = vector.extract_strided_slice %287 {offsets = [13], sizes = [1], strides = [1]} : vector<16xf32> to vector<1xf32>
        %814 = arith.andi %761, %539 : i1
        %815 = arith.addi %542, %198 overflow<nsw> : index
        %816 = arith.select %814, %815, %c536870911 : index
        vector.store %813, %439[%816] : memref<?xf32, #amdgpu.address_space<fat_raw_buffer>>, vector<1xf32>
        %817 = vector.extract_strided_slice %287 {offsets = [14], sizes = [1], strides = [1]} : vector<16xf32> to vector<1xf32>
        %818 = arith.andi %761, %547 : i1
        %819 = arith.addi %550, %198 overflow<nsw> : index
        %820 = arith.select %818, %819, %c536870911 : index
        vector.store %817, %439[%820] : memref<?xf32, #amdgpu.address_space<fat_raw_buffer>>, vector<1xf32>
        %821 = vector.extract_strided_slice %287 {offsets = [15], sizes = [1], strides = [1]} : vector<16xf32> to vector<1xf32>
        %822 = arith.andi %761, %555 : i1
        %823 = arith.addi %558, %198 overflow<nsw> : index
        %824 = arith.select %822, %823, %c536870911 : index
        vector.store %821, %439[%824] : memref<?xf32, #amdgpu.address_space<fat_raw_buffer>>, vector<1xf32>
        %825 = vector.extract_strided_slice %291 {offsets = [0], sizes = [1], strides = [1]} : vector<16xf32> to vector<1xf32>
        %826 = affine.apply #map84()[%thread_id_x, %block_id_x, %block_id_y, %2, %thread_id_y]
        %827 = arith.cmpi slt, %826, %421 : index
        %828 = arith.andi %827, %429 : i1
        %829 = arith.addi %435, %202 overflow<nsw> : index
        %830 = arith.select %828, %829, %c536870911 : index
        vector.store %825, %439[%830] : memref<?xf32, #amdgpu.address_space<fat_raw_buffer>>, vector<1xf32>
        %831 = vector.extract_strided_slice %291 {offsets = [1], sizes = [1], strides = [1]} : vector<16xf32> to vector<1xf32>
        %832 = arith.andi %827, %443 : i1
        %833 = arith.addi %446, %202 overflow<nsw> : index
        %834 = arith.select %832, %833, %c536870911 : index
        vector.store %831, %439[%834] : memref<?xf32, #amdgpu.address_space<fat_raw_buffer>>, vector<1xf32>
        %835 = vector.extract_strided_slice %291 {offsets = [2], sizes = [1], strides = [1]} : vector<16xf32> to vector<1xf32>
        %836 = arith.andi %827, %451 : i1
        %837 = arith.addi %454, %202 overflow<nsw> : index
        %838 = arith.select %836, %837, %c536870911 : index
        vector.store %835, %439[%838] : memref<?xf32, #amdgpu.address_space<fat_raw_buffer>>, vector<1xf32>
        %839 = vector.extract_strided_slice %291 {offsets = [3], sizes = [1], strides = [1]} : vector<16xf32> to vector<1xf32>
        %840 = arith.andi %827, %459 : i1
        %841 = arith.addi %462, %202 overflow<nsw> : index
        %842 = arith.select %840, %841, %c536870911 : index
        vector.store %839, %439[%842] : memref<?xf32, #amdgpu.address_space<fat_raw_buffer>>, vector<1xf32>
        %843 = vector.extract_strided_slice %291 {offsets = [4], sizes = [1], strides = [1]} : vector<16xf32> to vector<1xf32>
        %844 = arith.andi %827, %467 : i1
        %845 = arith.addi %470, %202 overflow<nsw> : index
        %846 = arith.select %844, %845, %c536870911 : index
        vector.store %843, %439[%846] : memref<?xf32, #amdgpu.address_space<fat_raw_buffer>>, vector<1xf32>
        %847 = vector.extract_strided_slice %291 {offsets = [5], sizes = [1], strides = [1]} : vector<16xf32> to vector<1xf32>
        %848 = arith.andi %827, %475 : i1
        %849 = arith.addi %478, %202 overflow<nsw> : index
        %850 = arith.select %848, %849, %c536870911 : index
        vector.store %847, %439[%850] : memref<?xf32, #amdgpu.address_space<fat_raw_buffer>>, vector<1xf32>
        %851 = vector.extract_strided_slice %291 {offsets = [6], sizes = [1], strides = [1]} : vector<16xf32> to vector<1xf32>
        %852 = arith.andi %827, %483 : i1
        %853 = arith.addi %486, %202 overflow<nsw> : index
        %854 = arith.select %852, %853, %c536870911 : index
        vector.store %851, %439[%854] : memref<?xf32, #amdgpu.address_space<fat_raw_buffer>>, vector<1xf32>
        %855 = vector.extract_strided_slice %291 {offsets = [7], sizes = [1], strides = [1]} : vector<16xf32> to vector<1xf32>
        %856 = arith.andi %827, %491 : i1
        %857 = arith.addi %494, %202 overflow<nsw> : index
        %858 = arith.select %856, %857, %c536870911 : index
        vector.store %855, %439[%858] : memref<?xf32, #amdgpu.address_space<fat_raw_buffer>>, vector<1xf32>
        %859 = vector.extract_strided_slice %291 {offsets = [8], sizes = [1], strides = [1]} : vector<16xf32> to vector<1xf32>
        %860 = arith.andi %827, %499 : i1
        %861 = arith.addi %502, %202 overflow<nsw> : index
        %862 = arith.select %860, %861, %c536870911 : index
        vector.store %859, %439[%862] : memref<?xf32, #amdgpu.address_space<fat_raw_buffer>>, vector<1xf32>
        %863 = vector.extract_strided_slice %291 {offsets = [9], sizes = [1], strides = [1]} : vector<16xf32> to vector<1xf32>
        %864 = arith.andi %827, %507 : i1
        %865 = arith.addi %510, %202 overflow<nsw> : index
        %866 = arith.select %864, %865, %c536870911 : index
        vector.store %863, %439[%866] : memref<?xf32, #amdgpu.address_space<fat_raw_buffer>>, vector<1xf32>
        %867 = vector.extract_strided_slice %291 {offsets = [10], sizes = [1], strides = [1]} : vector<16xf32> to vector<1xf32>
        %868 = arith.andi %827, %515 : i1
        %869 = arith.addi %518, %202 overflow<nsw> : index
        %870 = arith.select %868, %869, %c536870911 : index
        vector.store %867, %439[%870] : memref<?xf32, #amdgpu.address_space<fat_raw_buffer>>, vector<1xf32>
        %871 = vector.extract_strided_slice %291 {offsets = [11], sizes = [1], strides = [1]} : vector<16xf32> to vector<1xf32>
        %872 = arith.andi %827, %523 : i1
        %873 = arith.addi %526, %202 overflow<nsw> : index
        %874 = arith.select %872, %873, %c536870911 : index
        vector.store %871, %439[%874] : memref<?xf32, #amdgpu.address_space<fat_raw_buffer>>, vector<1xf32>
        %875 = vector.extract_strided_slice %291 {offsets = [12], sizes = [1], strides = [1]} : vector<16xf32> to vector<1xf32>
        %876 = arith.andi %827, %531 : i1
        %877 = arith.addi %534, %202 overflow<nsw> : index
        %878 = arith.select %876, %877, %c536870911 : index
        vector.store %875, %439[%878] : memref<?xf32, #amdgpu.address_space<fat_raw_buffer>>, vector<1xf32>
        %879 = vector.extract_strided_slice %291 {offsets = [13], sizes = [1], strides = [1]} : vector<16xf32> to vector<1xf32>
        %880 = arith.andi %827, %539 : i1
        %881 = arith.addi %542, %202 overflow<nsw> : index
        %882 = arith.select %880, %881, %c536870911 : index
        vector.store %879, %439[%882] : memref<?xf32, #amdgpu.address_space<fat_raw_buffer>>, vector<1xf32>
        %883 = vector.extract_strided_slice %291 {offsets = [14], sizes = [1], strides = [1]} : vector<16xf32> to vector<1xf32>
        %884 = arith.andi %827, %547 : i1
        %885 = arith.addi %550, %202 overflow<nsw> : index
        %886 = arith.select %884, %885, %c536870911 : index
        vector.store %883, %439[%886] : memref<?xf32, #amdgpu.address_space<fat_raw_buffer>>, vector<1xf32>
        %887 = vector.extract_strided_slice %291 {offsets = [15], sizes = [1], strides = [1]} : vector<16xf32> to vector<1xf32>
        %888 = arith.andi %827, %555 : i1
        %889 = arith.addi %558, %202 overflow<nsw> : index
        %890 = arith.select %888, %889, %c536870911 : index
        vector.store %887, %439[%890] : memref<?xf32, #amdgpu.address_space<fat_raw_buffer>>, vector<1xf32>
        %891 = vector.extract_strided_slice %295 {offsets = [0], sizes = [1], strides = [1]} : vector<16xf32> to vector<1xf32>
        %892 = affine.apply #map85()[%thread_id_x, %block_id_x, %block_id_y, %2, %thread_id_y]
        %893 = arith.cmpi slt, %892, %421 : index
        %894 = arith.andi %893, %429 : i1
        %895 = arith.addi %435, %206 overflow<nsw> : index
        %896 = arith.select %894, %895, %c536870911 : index
        vector.store %891, %439[%896] : memref<?xf32, #amdgpu.address_space<fat_raw_buffer>>, vector<1xf32>
        %897 = vector.extract_strided_slice %295 {offsets = [1], sizes = [1], strides = [1]} : vector<16xf32> to vector<1xf32>
        %898 = arith.andi %893, %443 : i1
        %899 = arith.addi %446, %206 overflow<nsw> : index
        %900 = arith.select %898, %899, %c536870911 : index
        vector.store %897, %439[%900] : memref<?xf32, #amdgpu.address_space<fat_raw_buffer>>, vector<1xf32>
        %901 = vector.extract_strided_slice %295 {offsets = [2], sizes = [1], strides = [1]} : vector<16xf32> to vector<1xf32>
        %902 = arith.andi %893, %451 : i1
        %903 = arith.addi %454, %206 overflow<nsw> : index
        %904 = arith.select %902, %903, %c536870911 : index
        vector.store %901, %439[%904] : memref<?xf32, #amdgpu.address_space<fat_raw_buffer>>, vector<1xf32>
        %905 = vector.extract_strided_slice %295 {offsets = [3], sizes = [1], strides = [1]} : vector<16xf32> to vector<1xf32>
        %906 = arith.andi %893, %459 : i1
        %907 = arith.addi %462, %206 overflow<nsw> : index
        %908 = arith.select %906, %907, %c536870911 : index
        vector.store %905, %439[%908] : memref<?xf32, #amdgpu.address_space<fat_raw_buffer>>, vector<1xf32>
        %909 = vector.extract_strided_slice %295 {offsets = [4], sizes = [1], strides = [1]} : vector<16xf32> to vector<1xf32>
        %910 = arith.andi %893, %467 : i1
        %911 = arith.addi %470, %206 overflow<nsw> : index
        %912 = arith.select %910, %911, %c536870911 : index
        vector.store %909, %439[%912] : memref<?xf32, #amdgpu.address_space<fat_raw_buffer>>, vector<1xf32>
        %913 = vector.extract_strided_slice %295 {offsets = [5], sizes = [1], strides = [1]} : vector<16xf32> to vector<1xf32>
        %914 = arith.andi %893, %475 : i1
        %915 = arith.addi %478, %206 overflow<nsw> : index
        %916 = arith.select %914, %915, %c536870911 : index
        vector.store %913, %439[%916] : memref<?xf32, #amdgpu.address_space<fat_raw_buffer>>, vector<1xf32>
        %917 = vector.extract_strided_slice %295 {offsets = [6], sizes = [1], strides = [1]} : vector<16xf32> to vector<1xf32>
        %918 = arith.andi %893, %483 : i1
        %919 = arith.addi %486, %206 overflow<nsw> : index
        %920 = arith.select %918, %919, %c536870911 : index
        vector.store %917, %439[%920] : memref<?xf32, #amdgpu.address_space<fat_raw_buffer>>, vector<1xf32>
        %921 = vector.extract_strided_slice %295 {offsets = [7], sizes = [1], strides = [1]} : vector<16xf32> to vector<1xf32>
        %922 = arith.andi %893, %491 : i1
        %923 = arith.addi %494, %206 overflow<nsw> : index
        %924 = arith.select %922, %923, %c536870911 : index
        vector.store %921, %439[%924] : memref<?xf32, #amdgpu.address_space<fat_raw_buffer>>, vector<1xf32>
        %925 = vector.extract_strided_slice %295 {offsets = [8], sizes = [1], strides = [1]} : vector<16xf32> to vector<1xf32>
        %926 = arith.andi %893, %499 : i1
        %927 = arith.addi %502, %206 overflow<nsw> : index
…
        %3627 = vector.extract_strided_slice %401 {offsets = [6], sizes = [1], strides = [1]} : vector<16xf32> to vector<1xf32>
        %3628 = arith.andi %1157, %2949 : i1
        %3629 = arith.addi %2952, %222 overflow<nsw> : index
        %3630 = arith.select %3628, %3629, %c536870911 : index
        vector.store %3627, %439[%3630] : memref<?xf32, #amdgpu.address_space<fat_raw_buffer>>, vector<1xf32>
        %3631 = vector.extract_strided_slice %401 {offsets = [7], sizes = [1], strides = [1]} : vector<16xf32> to vector<1xf32>
        %3632 = arith.andi %1157, %2957 : i1
        %3633 = arith.addi %2960, %222 overflow<nsw> : index
        %3634 = arith.select %3632, %3633, %c536870911 : index
        vector.store %3631, %439[%3634] : memref<?xf32, #amdgpu.address_space<fat_raw_buffer>>, vector<1xf32>
        %3635 = vector.extract_strided_slice %401 {offsets = [8], sizes = [1], strides = [1]} : vector<16xf32> to vector<1xf32>
        %3636 = arith.andi %1157, %2965 : i1
        %3637 = arith.addi %2968, %222 overflow<nsw> : index
        %3638 = arith.select %3636, %3637, %c536870911 : index
        vector.store %3635, %439[%3638] : memref<?xf32, #amdgpu.address_space<fat_raw_buffer>>, vector<1xf32>
        %3639 = vector.extract_strided_slice %401 {offsets = [9], sizes = [1], strides = [1]} : vector<16xf32> to vector<1xf32>
        %3640 = arith.andi %1157, %2973 : i1
        %3641 = arith.addi %2976, %222 overflow<nsw> : index
        %3642 = arith.select %3640, %3641, %c536870911 : index
        vector.store %3639, %439[%3642] : memref<?xf32, #amdgpu.address_space<fat_raw_buffer>>, vector<1xf32>
        %3643 = vector.extract_strided_slice %401 {offsets = [10], sizes = [1], strides = [1]} : vector<16xf32> to vector<1xf32>
        %3644 = arith.andi %1157, %2981 : i1
        %3645 = arith.addi %2984, %222 overflow<nsw> : index
        %3646 = arith.select %3644, %3645, %c536870911 : index
        vector.store %3643, %439[%3646] : memref<?xf32, #amdgpu.address_space<fat_raw_buffer>>, vector<1xf32>
        %3647 = vector.extract_strided_slice %401 {offsets = [11], sizes = [1], strides = [1]} : vector<16xf32> to vector<1xf32>
        %3648 = arith.andi %1157, %2989 : i1
        %3649 = arith.addi %2992, %222 overflow<nsw> : index
        %3650 = arith.select %3648, %3649, %c536870911 : index
        vector.store %3647, %439[%3650] : memref<?xf32, #amdgpu.address_space<fat_raw_buffer>>, vector<1xf32>
        %3651 = vector.extract_strided_slice %401 {offsets = [12], sizes = [1], strides = [1]} : vector<16xf32> to vector<1xf32>
        %3652 = arith.andi %1157, %2997 : i1
        %3653 = arith.addi %3000, %222 overflow<nsw> : index
        %3654 = arith.select %3652, %3653, %c536870911 : index
        vector.store %3651, %439[%3654] : memref<?xf32, #amdgpu.address_space<fat_raw_buffer>>, vector<1xf32>
        %3655 = vector.extract_strided_slice %401 {offsets = [13], sizes = [1], strides = [1]} : vector<16xf32> to vector<1xf32>
        %3656 = arith.andi %1157, %3005 : i1
        %3657 = arith.addi %3008, %222 overflow<nsw> : index
        %3658 = arith.select %3656, %3657, %c536870911 : index
        vector.store %3655, %439[%3658] : memref<?xf32, #amdgpu.address_space<fat_raw_buffer>>, vector<1xf32>
        %3659 = vector.extract_strided_slice %401 {offsets = [14], sizes = [1], strides = [1]} : vector<16xf32> to vector<1xf32>
        %3660 = arith.andi %1157, %3013 : i1
        %3661 = arith.addi %3016, %222 overflow<nsw> : index
        %3662 = arith.select %3660, %3661, %c536870911 : index
        vector.store %3659, %439[%3662] : memref<?xf32, #amdgpu.address_space<fat_raw_buffer>>, vector<1xf32>
        %3663 = vector.extract_strided_slice %401 {offsets = [15], sizes = [1], strides = [1]} : vector<16xf32> to vector<1xf32>
        %3664 = arith.andi %1157, %3021 : i1
        %3665 = arith.addi %3024, %222 overflow<nsw> : index
        %3666 = arith.select %3664, %3665, %c536870911 : index
        vector.store %3663, %439[%3666] : memref<?xf32, #amdgpu.address_space<fat_raw_buffer>>, vector<1xf32>
        %3667 = vector.extract_strided_slice %403 {offsets = [0], sizes = [1], strides = [1]} : vector<16xf32> to vector<1xf32>
        %3668 = arith.andi %1223, %2901 : i1
        %3669 = arith.addi %2904, %226 overflow<nsw> : index
        %3670 = arith.select %3668, %3669, %c536870911 : index
        vector.store %3667, %439[%3670] : memref<?xf32, #amdgpu.address_space<fat_raw_buffer>>, vector<1xf32>
        %3671 = vector.extract_strided_slice %403 {offsets = [1], sizes = [1], strides = [1]} : vector<16xf32> to vector<1xf32>
        %3672 = arith.andi %1223, %2909 : i1
        %3673 = arith.addi %2912, %226 overflow<nsw> : index
        %3674 = arith.select %3672, %3673, %c536870911 : index
        vector.store %3671, %439[%3674] : memref<?xf32, #amdgpu.address_space<fat_raw_buffer>>, vector<1xf32>
        %3675 = vector.extract_strided_slice %403 {offsets = [2], sizes = [1], strides = [1]} : vector<16xf32> to vector<1xf32>
        %3676 = arith.andi %1223, %2917 : i1
        %3677 = arith.addi %2920, %226 overflow<nsw> : index
        %3678 = arith.select %3676, %3677, %c536870911 : index
        vector.store %3675, %439[%3678] : memref<?xf32, #amdgpu.address_space<fat_raw_buffer>>, vector<1xf32>
        %3679 = vector.extract_strided_slice %403 {offsets = [3], sizes = [1], strides = [1]} : vector<16xf32> to vector<1xf32>
        %3680 = arith.andi %1223, %2925 : i1
        %3681 = arith.addi %2928, %226 overflow<nsw> : index
        %3682 = arith.select %3680, %3681, %c536870911 : index
        vector.store %3679, %439[%3682] : memref<?xf32, #amdgpu.address_space<fat_raw_buffer>>, vector<1xf32>
        %3683 = vector.extract_strided_slice %403 {offsets = [4], sizes = [1], strides = [1]} : vector<16xf32> to vector<1xf32>
        %3684 = arith.andi %1223, %2933 : i1
        %3685 = arith.addi %2936, %226 overflow<nsw> : index
        %3686 = arith.select %3684, %3685, %c536870911 : index
        vector.store %3683, %439[%3686] : memref<?xf32, #amdgpu.address_space<fat_raw_buffer>>, vector<1xf32>
        %3687 = vector.extract_strided_slice %403 {offsets = [5], sizes = [1], strides = [1]} : vector<16xf32> to vector<1xf32>
        %3688 = arith.andi %1223, %2941 : i1
        %3689 = arith.addi %2944, %226 overflow<nsw> : index
        %3690 = arith.select %3688, %3689, %c536870911 : index
        vector.store %3687, %439[%3690] : memref<?xf32, #amdgpu.address_space<fat_raw_buffer>>, vector<1xf32>
        %3691 = vector.extract_strided_slice %403 {offsets = [6], sizes = [1], strides = [1]} : vector<16xf32> to vector<1xf32>
        %3692 = arith.andi %1223, %2949 : i1
        %3693 = arith.addi %2952, %226 overflow<nsw> : index
        %3694 = arith.select %3692, %3693, %c536870911 : index
        vector.store %3691, %439[%3694] : memref<?xf32, #amdgpu.address_space<fat_raw_buffer>>, vector<1xf32>
        %3695 = vector.extract_strided_slice %403 {offsets = [7], sizes = [1], strides = [1]} : vector<16xf32> to vector<1xf32>
        %3696 = arith.andi %1223, %2957 : i1
        %3697 = arith.addi %2960, %226 overflow<nsw> : index
        %3698 = arith.select %3696, %3697, %c536870911 : index
        vector.store %3695, %439[%3698] : memref<?xf32, #amdgpu.address_space<fat_raw_buffer>>, vector<1xf32>
        %3699 = vector.extract_strided_slice %403 {offsets = [8], sizes = [1], strides = [1]} : vector<16xf32> to vector<1xf32>
        %3700 = arith.andi %1223, %2965 : i1
        %3701 = arith.addi %2968, %226 overflow<nsw> : index
        %3702 = arith.select %3700, %3701, %c536870911 : index
        vector.store %3699, %439[%3702] : memref<?xf32, #amdgpu.address_space<fat_raw_buffer>>, vector<1xf32>
        %3703 = vector.extract_strided_slice %403 {offsets = [9], sizes = [1], strides = [1]} : vector<16xf32> to vector<1xf32>
        %3704 = arith.andi %1223, %2973 : i1
        %3705 = arith.addi %2976, %226 overflow<nsw> : index
        %3706 = arith.select %3704, %3705, %c536870911 : index
        vector.store %3703, %439[%3706] : memref<?xf32, #amdgpu.address_space<fat_raw_buffer>>, vector<1xf32>
        %3707 = vector.extract_strided_slice %403 {offsets = [10], sizes = [1], strides = [1]} : vector<16xf32> to vector<1xf32>
        %3708 = arith.andi %1223, %2981 : i1
        %3709 = arith.addi %2984, %226 overflow<nsw> : index
        %3710 = arith.select %3708, %3709, %c536870911 : index
        vector.store %3707, %439[%3710] : memref<?xf32, #amdgpu.address_space<fat_raw_buffer>>, vector<1xf32>
        %3711 = vector.extract_strided_slice %403 {offsets = [11], sizes = [1], strides = [1]} : vector<16xf32> to vector<1xf32>
        %3712 = arith.andi %1223, %2989 : i1
        %3713 = arith.addi %2992, %226 overflow<nsw> : index
        %3714 = arith.select %3712, %3713, %c536870911 : index
        vector.store %3711, %439[%3714] : memref<?xf32, #amdgpu.address_space<fat_raw_buffer>>, vector<1xf32>
        %3715 = vector.extract_strided_slice %403 {offsets = [12], sizes = [1], strides = [1]} : vector<16xf32> to vector<1xf32>
        %3716 = arith.andi %1223, %2997 : i1
        %3717 = arith.addi %3000, %226 overflow<nsw> : index
        %3718 = arith.select %3716, %3717, %c536870911 : index
        vector.store %3715, %439[%3718] : memref<?xf32, #amdgpu.address_space<fat_raw_buffer>>, vector<1xf32>
        %3719 = vector.extract_strided_slice %403 {offsets = [13], sizes = [1], strides = [1]} : vector<16xf32> to vector<1xf32>
        %3720 = arith.andi %1223, %3005 : i1
        %3721 = arith.addi %3008, %226 overflow<nsw> : index
        %3722 = arith.select %3720, %3721, %c536870911 : index
        vector.store %3719, %439[%3722] : memref<?xf32, #amdgpu.address_space<fat_raw_buffer>>, vector<1xf32>
        %3723 = vector.extract_strided_slice %403 {offsets = [14], sizes = [1], strides = [1]} : vector<16xf32> to vector<1xf32>
        %3724 = arith.andi %1223, %3013 : i1
        %3725 = arith.addi %3016, %226 overflow<nsw> : index
        %3726 = arith.select %3724, %3725, %c536870911 : index
        vector.store %3723, %439[%3726] : memref<?xf32, #amdgpu.address_space<fat_raw_buffer>>, vector<1xf32>
        %3727 = vector.extract_strided_slice %403 {offsets = [15], sizes = [1], strides = [1]} : vector<16xf32> to vector<1xf32>
        %3728 = arith.andi %1223, %3021 : i1
        %3729 = arith.addi %3024, %226 overflow<nsw> : index
        %3730 = arith.select %3728, %3729, %c536870911 : index
        vector.store %3727, %439[%3730] : memref<?xf32, #amdgpu.address_space<fat_raw_buffer>>, vector<1xf32>
        %3731 = vector.extract_strided_slice %405 {offsets = [0], sizes = [1], strides = [1]} : vector<16xf32> to vector<1xf32>
        %3732 = arith.andi %1289, %2901 : i1
        %3733 = arith.addi %2904, %230 overflow<nsw> : index
        %3734 = arith.select %3732, %3733, %c536870911 : index
        vector.store %3731, %439[%3734] : memref<?xf32, #amdgpu.address_space<fat_raw_buffer>>, vector<1xf32>
        %3735 = vector.extract_strided_slice %405 {offsets = [1], sizes = [1], strides = [1]} : vector<16xf32> to vector<1xf32>
        %3736 = arith.andi %1289, %2909 : i1
        %3737 = arith.addi %2912, %230 overflow<nsw> : index
        %3738 = arith.select %3736, %3737, %c536870911 : index
        vector.store %3735, %439[%3738] : memref<?xf32, #amdgpu.address_space<fat_raw_buffer>>, vector<1xf32>
        %3739 = vector.extract_strided_slice %405 {offsets = [2], sizes = [1], strides = [1]} : vector<16xf32> to vector<1xf32>
        %3740 = arith.andi %1289, %2917 : i1
        %3741 = arith.addi %2920, %230 overflow<nsw> : index
        %3742 = arith.select %3740, %3741, %c536870911 : index
        vector.store %3739, %439[%3742] : memref<?xf32, #amdgpu.address_space<fat_raw_buffer>>, vector<1xf32>
        %3743 = vector.extract_strided_slice %405 {offsets = [3], sizes = [1], strides = [1]} : vector<16xf32> to vector<1xf32>
        %3744 = arith.andi %1289, %2925 : i1
        %3745 = arith.addi %2928, %230 overflow<nsw> : index
        %3746 = arith.select %3744, %3745, %c536870911 : index
        vector.store %3743, %439[%3746] : memref<?xf32, #amdgpu.address_space<fat_raw_buffer>>, vector<1xf32>
        %3747 = vector.extract_strided_slice %405 {offsets = [4], sizes = [1], strides = [1]} : vector<16xf32> to vector<1xf32>
        %3748 = arith.andi %1289, %2933 : i1
        %3749 = arith.addi %2936, %230 overflow<nsw> : index
        %3750 = arith.select %3748, %3749, %c536870911 : index
        vector.store %3747, %439[%3750] : memref<?xf32, #amdgpu.address_space<fat_raw_buffer>>, vector<1xf32>
        %3751 = vector.extract_strided_slice %405 {offsets = [5], sizes = [1], strides = [1]} : vector<16xf32> to vector<1xf32>
        %3752 = arith.andi %1289, %2941 : i1
        %3753 = arith.addi %2944, %230 overflow<nsw> : index
        %3754 = arith.select %3752, %3753, %c536870911 : index
        vector.store %3751, %439[%3754] : memref<?xf32, #amdgpu.address_space<fat_raw_buffer>>, vector<1xf32>
        %3755 = vector.extract_strided_slice %405 {offsets = [6], sizes = [1], strides = [1]} : vector<16xf32> to vector<1xf32>
        %3756 = arith.andi %1289, %2949 : i1
        %3757 = arith.addi %2952, %230 overflow<nsw> : index
        %3758 = arith.select %3756, %3757, %c536870911 : index
        vector.store %3755, %439[%3758] : memref<?xf32, #amdgpu.address_space<fat_raw_buffer>>, vector<1xf32>
        %3759 = vector.extract_strided_slice %405 {offsets = [7], sizes = [1], strides = [1]} : vector<16xf32> to vector<1xf32>
        %3760 = arith.andi %1289, %2957 : i1
        %3761 = arith.addi %2960, %230 overflow<nsw> : index
        %3762 = arith.select %3760, %3761, %c536870911 : index
        vector.store %3759, %439[%3762] : memref<?xf32, #amdgpu.address_space<fat_raw_buffer>>, vector<1xf32>
        %3763 = vector.extract_strided_slice %405 {offsets = [8], sizes = [1], strides = [1]} : vector<16xf32> to vector<1xf32>
        %3764 = arith.andi %1289, %2965 : i1
        %3765 = arith.addi %2968, %230 overflow<nsw> : index
        %3766 = arith.select %3764, %3765, %c536870911 : index
        vector.store %3763, %439[%3766] : memref<?xf32, #amdgpu.address_space<fat_raw_buffer>>, vector<1xf32>
        %3767 = vector.extract_strided_slice %405 {offsets = [9], sizes = [1], strides = [1]} : vector<16xf32> to vector<1xf32>
        %3768 = arith.andi %1289, %2973 : i1
        %3769 = arith.addi %2976, %230 overflow<nsw> : index
        %3770 = arith.select %3768, %3769, %c536870911 : index
        vector.store %3767, %439[%3770] : memref<?xf32, #amdgpu.address_space<fat_raw_buffer>>, vector<1xf32>
        %3771 = vector.extract_strided_slice %405 {offsets = [10], sizes = [1], strides = [1]} : vector<16xf32> to vector<1xf32>
        %3772 = arith.andi %1289, %2981 : i1
        %3773 = arith.addi %2984, %230 overflow<nsw> : index
        %3774 = arith.select %3772, %3773, %c536870911 : index
        vector.store %3771, %439[%3774] : memref<?xf32, #amdgpu.address_space<fat_raw_buffer>>, vector<1xf32>
        %3775 = vector.extract_strided_slice %405 {offsets = [11], sizes = [1], strides = [1]} : vector<16xf32> to vector<1xf32>
        %3776 = arith.andi %1289, %2989 : i1
        %3777 = arith.addi %2992, %230 overflow<nsw> : index
        %3778 = arith.select %3776, %3777, %c536870911 : index
        vector.store %3775, %439[%3778] : memref<?xf32, #amdgpu.address_space<fat_raw_buffer>>, vector<1xf32>
        %3779 = vector.extract_strided_slice %405 {offsets = [12], sizes = [1], strides = [1]} : vector<16xf32> to vector<1xf32>
        %3780 = arith.andi %1289, %2997 : i1
        %3781 = arith.addi %3000, %230 overflow<nsw> : index
        %3782 = arith.select %3780, %3781, %c536870911 : index
        vector.store %3779, %439[%3782] : memref<?xf32, #amdgpu.address_space<fat_raw_buffer>>, vector<1xf32>
        %3783 = vector.extract_strided_slice %405 {offsets = [13], sizes = [1], strides = [1]} : vector<16xf32> to vector<1xf32>
        %3784 = arith.andi %1289, %3005 : i1
        %3785 = arith.addi %3008, %230 overflow<nsw> : index
        %3786 = arith.select %3784, %3785, %c536870911 : index
        vector.store %3783, %439[%3786] : memref<?xf32, #amdgpu.address_space<fat_raw_buffer>>, vector<1xf32>
        %3787 = vector.extract_strided_slice %405 {offsets = [14], sizes = [1], strides = [1]} : vector<16xf32> to vector<1xf32>
        %3788 = arith.andi %1289, %3013 : i1
        %3789 = arith.addi %3016, %230 overflow<nsw> : index
        %3790 = arith.select %3788, %3789, %c536870911 : index
        vector.store %3787, %439[%3790] : memref<?xf32, #amdgpu.address_space<fat_raw_buffer>>, vector<1xf32>
        %3791 = vector.extract_strided_slice %405 {offsets = [15], sizes = [1], strides = [1]} : vector<16xf32> to vector<1xf32>
        %3792 = arith.andi %1289, %3021 : i1
        %3793 = arith.addi %3024, %230 overflow<nsw> : index
        %3794 = arith.select %3792, %3793, %c536870911 : index
        vector.store %3791, %439[%3794] : memref<?xf32, #amdgpu.address_space<fat_raw_buffer>>, vector<1xf32>
        %3795 = vector.extract_strided_slice %407 {offsets = [0], sizes = [1], strides = [1]} : vector<16xf32> to vector<1xf32>
        %3796 = arith.andi %1355, %2901 : i1
        %3797 = arith.addi %2904, %234 overflow<nsw> : index
        %3798 = arith.select %3796, %3797, %c536870911 : index
        vector.store %3795, %439[%3798] : memref<?xf32, #amdgpu.address_space<fat_raw_buffer>>, vector<1xf32>
        %3799 = vector.extract_strided_slice %407 {offsets = [1], sizes = [1], strides = [1]} : vector<16xf32> to vector<1xf32>
        %3800 = arith.andi %1355, %2909 : i1
        %3801 = arith.addi %2912, %234 overflow<nsw> : index
        %3802 = arith.select %3800, %3801, %c536870911 : index
        vector.store %3799, %439[%3802] : memref<?xf32, #amdgpu.address_space<fat_raw_buffer>>, vector<1xf32>
        %3803 = vector.extract_strided_slice %407 {offsets = [2], sizes = [1], strides = [1]} : vector<16xf32> to vector<1xf32>
        %3804 = arith.andi %1355, %2917 : i1
        %3805 = arith.addi %2920, %234 overflow<nsw> : index
        %3806 = arith.select %3804, %3805, %c536870911 : index
        vector.store %3803, %439[%3806] : memref<?xf32, #amdgpu.address_space<fat_raw_buffer>>, vector<1xf32>
        %3807 = vector.extract_strided_slice %407 {offsets = [3], sizes = [1], strides = [1]} : vector<16xf32> to vector<1xf32>
        %3808 = arith.andi %1355, %2925 : i1
        %3809 = arith.addi %2928, %234 overflow<nsw> : index
        %3810 = arith.select %3808, %3809, %c536870911 : index
        vector.store %3807, %439[%3810] : memref<?xf32, #amdgpu.address_space<fat_raw_buffer>>, vector<1xf32>
        %3811 = vector.extract_strided_slice %407 {offsets = [4], sizes = [1], strides = [1]} : vector<16xf32> to vector<1xf32>
        %3812 = arith.andi %1355, %2933 : i1
        %3813 = arith.addi %2936, %234 overflow<nsw> : index
        %3814 = arith.select %3812, %3813, %c536870911 : index
        vector.store %3811, %439[%3814] : memref<?xf32, #amdgpu.address_space<fat_raw_buffer>>, vector<1xf32>
        %3815 = vector.extract_strided_slice %407 {offsets = [5], sizes = [1], strides = [1]} : vector<16xf32> to vector<1xf32>
        %3816 = arith.andi %1355, %2941 : i1
        %3817 = arith.addi %2944, %234 overflow<nsw> : index
        %3818 = arith.select %3816, %3817, %c536870911 : index
        vector.store %3815, %439[%3818] : memref<?xf32, #amdgpu.address_space<fat_raw_buffer>>, vector<1xf32>
        %3819 = vector.extract_strided_slice %407 {offsets = [6], sizes = [1], strides = [1]} : vector<16xf32> to vector<1xf32>
        %3820 = arith.andi %1355, %2949 : i1
        %3821 = arith.addi %2952, %234 overflow<nsw> : index
        %3822 = arith.select %3820, %3821, %c536870911 : index
        vector.store %3819, %439[%3822] : memref<?xf32, #amdgpu.address_space<fat_raw_buffer>>, vector<1xf32>
        %3823 = vector.extract_strided_slice %407 {offsets = [7], sizes = [1], strides = [1]} : vector<16xf32> to vector<1xf32>
        %3824 = arith.andi %1355, %2957 : i1
        %3825 = arith.addi %2960, %234 overflow<nsw> : index
        %3826 = arith.select %3824, %3825, %c536870911 : index
        vector.store %3823, %439[%3826] : memref<?xf32, #amdgpu.address_space<fat_raw_buffer>>, vector<1xf32>
        %3827 = vector.extract_strided_slice %407 {offsets = [8], sizes = [1], strides = [1]} : vector<16xf32> to vector<1xf32>
        %3828 = arith.andi %1355, %2965 : i1
        %3829 = arith.addi %2968, %234 overflow<nsw> : index
        %3830 = arith.select %3828, %3829, %c536870911 : index
        vector.store %3827, %439[%3830] : memref<?xf32, #amdgpu.address_space<fat_raw_buffer>>, vector<1xf32>
        %3831 = vector.extract_strided_slice %407 {offsets = [9], sizes = [1], strides = [1]} : vector<16xf32> to vector<1xf32>
        %3832 = arith.andi %1355, %2973 : i1
        %3833 = arith.addi %2976, %234 overflow<nsw> : index
        %3834 = arith.select %3832, %3833, %c536870911 : index
        vector.store %3831, %439[%3834] : memref<?xf32, #amdgpu.address_space<fat_raw_buffer>>, vector<1xf32>
        %3835 = vector.extract_strided_slice %407 {offsets = [10], sizes = [1], strides = [1]} : vector<16xf32> to vector<1xf32>
        %3836 = arith.andi %1355, %2981 : i1
        %3837 = arith.addi %2984, %234 overflow<nsw> : index
        %3838 = arith.select %3836, %3837, %c536870911 : index
        vector.store %3835, %439[%3838] : memref<?xf32, #amdgpu.address_space<fat_raw_buffer>>, vector<1xf32>
        %3839 = vector.extract_strided_slice %407 {offsets = [11], sizes = [1], strides = [1]} : vector<16xf32> to vector<1xf32>
        %3840 = arith.andi %1355, %2989 : i1
        %3841 = arith.addi %2992, %234 overflow<nsw> : index
        %3842 = arith.select %3840, %3841, %c536870911 : index
        vector.store %3839, %439[%3842] : memref<?xf32, #amdgpu.address_space<fat_raw_buffer>>, vector<1xf32>
        %3843 = vector.extract_strided_slice %407 {offsets = [12], sizes = [1], strides = [1]} : vector<16xf32> to vector<1xf32>
        %3844 = arith.andi %1355, %2997 : i1
        %3845 = arith.addi %3000, %234 overflow<nsw> : index
        %3846 = arith.select %3844, %3845, %c536870911 : index
        vector.store %3843, %439[%3846] : memref<?xf32, #amdgpu.address_space<fat_raw_buffer>>, vector<1xf32>
        %3847 = vector.extract_strided_slice %407 {offsets = [13], sizes = [1], strides = [1]} : vector<16xf32> to vector<1xf32>
        %3848 = arith.andi %1355, %3005 : i1
        %3849 = arith.addi %3008, %234 overflow<nsw> : index
        %3850 = arith.select %3848, %3849, %c536870911 : index
        vector.store %3847, %439[%3850] : memref<?xf32, #amdgpu.address_space<fat_raw_buffer>>, vector<1xf32>
        %3851 = vector.extract_strided_slice %407 {offsets = [14], sizes = [1], strides = [1]} : vector<16xf32> to vector<1xf32>
        %3852 = arith.andi %1355, %3013 : i1
        %3853 = arith.addi %3016, %234 overflow<nsw> : index
        %3854 = arith.select %3852, %3853, %c536870911 : index
        vector.store %3851, %439[%3854] : memref<?xf32, #amdgpu.address_space<fat_raw_buffer>>, vector<1xf32>
        %3855 = vector.extract_strided_slice %407 {offsets = [15], sizes = [1], strides = [1]} : vector<16xf32> to vector<1xf32>
        %3856 = arith.andi %1355, %3021 : i1
        %3857 = arith.addi %3024, %234 overflow<nsw> : index
        %3858 = arith.select %3856, %3857, %c536870911 : index
        vector.store %3855, %439[%3858] : memref<?xf32, #amdgpu.address_space<fat_raw_buffer>>, vector<1xf32>
        %3859 = vector.extract_strided_slice %409 {offsets = [0], sizes = [1], strides = [1]} : vector<16xf32> to vector<1xf32>
        %3860 = arith.andi %1421, %2901 : i1
        %3861 = arith.addi %2904, %238 overflow<nsw> : index
        %3862 = arith.select %3860, %3861, %c536870911 : index
        vector.store %3859, %439[%3862] : memref<?xf32, #amdgpu.address_space<fat_raw_buffer>>, vector<1xf32>
        %3863 = vector.extract_strided_slice %409 {offsets = [1], sizes = [1], strides = [1]} : vector<16xf32> to vector<1xf32>
        %3864 = arith.andi %1421, %2909 : i1
        %3865 = arith.addi %2912, %238 overflow<nsw> : index
        %3866 = arith.select %3864, %3865, %c536870911 : index
        vector.store %3863, %439[%3866] : memref<?xf32, #amdgpu.address_space<fat_raw_buffer>>, vector<1xf32>
        %3867 = vector.extract_strided_slice %409 {offsets = [2], sizes = [1], strides = [1]} : vector<16xf32> to vector<1xf32>
        %3868 = arith.andi %1421, %2917 : i1
        %3869 = arith.addi %2920, %238 overflow<nsw> : index
        %3870 = arith.select %3868, %3869, %c536870911 : index
        vector.store %3867, %439[%3870] : memref<?xf32, #amdgpu.address_space<fat_raw_buffer>>, vector<1xf32>
        %3871 = vector.extract_strided_slice %409 {offsets = [3], sizes = [1], strides = [1]} : vector<16xf32> to vector<1xf32>
        %3872 = arith.andi %1421, %2925 : i1
        %3873 = arith.addi %2928, %238 overflow<nsw> : index
        %3874 = arith.select %3872, %3873, %c536870911 : index
        vector.store %3871, %439[%3874] : memref<?xf32, #amdgpu.address_space<fat_raw_buffer>>, vector<1xf32>
        %3875 = vector.extract_strided_slice %409 {offsets = [4], sizes = [1], strides = [1]} : vector<16xf32> to vector<1xf32>
        %3876 = arith.andi %1421, %2933 : i1
        %3877 = arith.addi %2936, %238 overflow<nsw> : index
        %3878 = arith.select %3876, %3877, %c536870911 : index
        vector.store %3875, %439[%3878] : memref<?xf32, #amdgpu.address_space<fat_raw_buffer>>, vector<1xf32>
        %3879 = vector.extract_strided_slice %409 {offsets = [5], sizes = [1], strides = [1]} : vector<16xf32> to vector<1xf32>
        %3880 = arith.andi %1421, %2941 : i1
        %3881 = arith.addi %2944, %238 overflow<nsw> : index
        %3882 = arith.select %3880, %3881, %c536870911 : index
        vector.store %3879, %439[%3882] : memref<?xf32, #amdgpu.address_space<fat_raw_buffer>>, vector<1xf32>
        %3883 = vector.extract_strided_slice %409 {offsets = [6], sizes = [1], strides = [1]} : vector<16xf32> to vector<1xf32>
        %3884 = arith.andi %1421, %2949 : i1
        %3885 = arith.addi %2952, %238 overflow<nsw> : index
        %3886 = arith.select %3884, %3885, %c536870911 : index
        vector.store %3883, %439[%3886] : memref<?xf32, #amdgpu.address_space<fat_raw_buffer>>, vector<1xf32>
        %3887 = vector.extract_strided_slice %409 {offsets = [7], sizes = [1], strides = [1]} : vector<16xf32> to vector<1xf32>
        %3888 = arith.andi %1421, %2957 : i1
        %3889 = arith.addi %2960, %238 overflow<nsw> : index
        %3890 = arith.select %3888, %3889, %c536870911 : index
        vector.store %3887, %439[%3890] : memref<?xf32, #amdgpu.address_space<fat_raw_buffer>>, vector<1xf32>
        %3891 = vector.extract_strided_slice %409 {offsets = [8], sizes = [1], strides = [1]} : vector<16xf32> to vector<1xf32>
        %3892 = arith.andi %1421, %2965 : i1
        %3893 = arith.addi %2968, %238 overflow<nsw> : index
        %3894 = arith.select %3892, %3893, %c536870911 : index
        vector.store %3891, %439[%3894] : memref<?xf32, #amdgpu.address_space<fat_raw_buffer>>, vector<1xf32>
        %3895 = vector.extract_strided_slice %409 {offsets = [9], sizes = [1], strides = [1]} : vector<16xf32> to vector<1xf32>
        %3896 = arith.andi %1421, %2973 : i1
        %3897 = arith.addi %2976, %238 overflow<nsw> : index
        %3898 = arith.select %3896, %3897, %c536870911 : index
        vector.store %3895, %439[%3898] : memref<?xf32, #amdgpu.address_space<fat_raw_buffer>>, vector<1xf32>
        %3899 = vector.extract_strided_slice %409 {offsets = [10], sizes = [1], strides = [1]} : vector<16xf32> to vector<1xf32>
        %3900 = arith.andi %1421, %2981 : i1
        %3901 = arith.addi %2984, %238 overflow<nsw> : index
        %3902 = arith.select %3900, %3901, %c536870911 : index
        vector.store %3899, %439[%3902] : memref<?xf32, #amdgpu.address_space<fat_raw_buffer>>, vector<1xf32>
        %3903 = vector.extract_strided_slice %409 {offsets = [11], sizes = [1], strides = [1]} : vector<16xf32> to vector<1xf32>
        %3904 = arith.andi %1421, %2989 : i1
        %3905 = arith.addi %2992, %238 overflow<nsw> : index
        %3906 = arith.select %3904, %3905, %c536870911 : index
        vector.store %3903, %439[%3906] : memref<?xf32, #amdgpu.address_space<fat_raw_buffer>>, vector<1xf32>
        %3907 = vector.extract_strided_slice %409 {offsets = [12], sizes = [1], strides = [1]} : vector<16xf32> to vector<1xf32>
        %3908 = arith.andi %1421, %2997 : i1
        %3909 = arith.addi %3000, %238 overflow<nsw> : index
        %3910 = arith.select %3908, %3909, %c536870911 : index
        vector.store %3907, %439[%3910] : memref<?xf32, #amdgpu.address_space<fat_raw_buffer>>, vector<1xf32>
        %3911 = vector.extract_strided_slice %409 {offsets = [13], sizes = [1], strides = [1]} : vector<16xf32> to vector<1xf32>
        %3912 = arith.andi %1421, %3005 : i1
        %3913 = arith.addi %3008, %238 overflow<nsw> : index
        %3914 = arith.select %3912, %3913, %c536870911 : index
        vector.store %3911, %439[%3914] : memref<?xf32, #amdgpu.address_space<fat_raw_buffer>>, vector<1xf32>
        %3915 = vector.extract_strided_slice %409 {offsets = [14], sizes = [1], strides = [1]} : vector<16xf32> to vector<1xf32>
        %3916 = arith.andi %1421, %3013 : i1
        %3917 = arith.addi %3016, %238 overflow<nsw> : index
        %3918 = arith.select %3916, %3917, %c536870911 : index
        vector.store %3915, %439[%3918] : memref<?xf32, #amdgpu.address_space<fat_raw_buffer>>, vector<1xf32>
        %3919 = vector.extract_strided_slice %409 {offsets = [15], sizes = [1], strides = [1]} : vector<16xf32> to vector<1xf32>
        %3920 = arith.andi %1421, %3021 : i1
        %3921 = arith.addi %3024, %238 overflow<nsw> : index
        %3922 = arith.select %3920, %3921, %c536870911 : index
        vector.store %3919, %439[%3922] : memref<?xf32, #amdgpu.address_space<fat_raw_buffer>>, vector<1xf32>
        %3923 = vector.extract_strided_slice %411 {offsets = [0], sizes = [1], strides = [1]} : vector<16xf32> to vector<1xf32>
        %3924 = arith.andi %1487, %2901 : i1
        %3925 = arith.addi %2904, %242 overflow<nsw> : index
        %3926 = arith.select %3924, %3925, %c536870911 : index
        vector.store %3923, %439[%3926] : memref<?xf32, #amdgpu.address_space<fat_raw_buffer>>, vector<1xf32>
        %3927 = vector.extract_strided_slice %411 {offsets = [1], sizes = [1], strides = [1]} : vector<16xf32> to vector<1xf32>
        %3928 = arith.andi %1487, %2909 : i1
        %3929 = arith.addi %2912, %242 overflow<nsw> : index
        %3930 = arith.select %3928, %3929, %c536870911 : index
        vector.store %3927, %439[%3930] : memref<?xf32, #amdgpu.address_space<fat_raw_buffer>>, vector<1xf32>
        %3931 = vector.extract_strided_slice %411 {offsets = [2], sizes = [1], strides = [1]} : vector<16xf32> to vector<1xf32>
        %3932 = arith.andi %1487, %2917 : i1
        %3933 = arith.addi %2920, %242 overflow<nsw> : index
        %3934 = arith.select %3932, %3933, %c536870911 : index
        vector.store %3931, %439[%3934] : memref<?xf32, #amdgpu.address_space<fat_raw_buffer>>, vector<1xf32>
        %3935 = vector.extract_strided_slice %411 {offsets = [3], sizes = [1], strides = [1]} : vector<16xf32> to vector<1xf32>
        %3936 = arith.andi %1487, %2925 : i1
        %3937 = arith.addi %2928, %242 overflow<nsw> : index
        %3938 = arith.select %3936, %3937, %c536870911 : index
        vector.store %3935, %439[%3938] : memref<?xf32, #amdgpu.address_space<fat_raw_buffer>>, vector<1xf32>
        %3939 = vector.extract_strided_slice %411 {offsets = [4], sizes = [1], strides = [1]} : vector<16xf32> to vector<1xf32>
        %3940 = arith.andi %1487, %2933 : i1
        %3941 = arith.addi %2936, %242 overflow<nsw> : index
        %3942 = arith.select %3940, %3941, %c536870911 : index
        vector.store %3939, %439[%3942] : memref<?xf32, #amdgpu.address_space<fat_raw_buffer>>, vector<1xf32>
        %3943 = vector.extract_strided_slice %411 {offsets = [5], sizes = [1], strides = [1]} : vector<16xf32> to vector<1xf32>
        %3944 = arith.andi %1487, %2941 : i1
        %3945 = arith.addi %2944, %242 overflow<nsw> : index
        %3946 = arith.select %3944, %3945, %c536870911 : index
        vector.store %3943, %439[%3946] : memref<?xf32, #amdgpu.address_space<fat_raw_buffer>>, vector<1xf32>
        %3947 = vector.extract_strided_slice %411 {offsets = [6], sizes = [1], strides = [1]} : vector<16xf32> to vector<1xf32>
        %3948 = arith.andi %1487, %2949 : i1
        %3949 = arith.addi %2952, %242 overflow<nsw> : index
        %3950 = arith.select %3948, %3949, %c536870911 : index
        vector.store %3947, %439[%3950] : memref<?xf32, #amdgpu.address_space<fat_raw_buffer>>, vector<1xf32>
        %3951 = vector.extract_strided_slice %411 {offsets = [7], sizes = [1], strides = [1]} : vector<16xf32> to vector<1xf32>
        %3952 = arith.andi %1487, %2957 : i1
        %3953 = arith.addi %2960, %242 overflow<nsw> : index
        %3954 = arith.select %3952, %3953, %c536870911 : index
        vector.store %3951, %439[%3954] : memref<?xf32, #amdgpu.address_space<fat_raw_buffer>>, vector<1xf32>
        %3955 = vector.extract_strided_slice %411 {offsets = [8], sizes = [1], strides = [1]} : vector<16xf32> to vector<1xf32>
        %3956 = arith.andi %1487, %2965 : i1
        %3957 = arith.addi %2968, %242 overflow<nsw> : index
        %3958 = arith.select %3956, %3957, %c536870911 : index
        vector.store %3955, %439[%3958] : memref<?xf32, #amdgpu.address_space<fat_raw_buffer>>, vector<1xf32>
        %3959 = vector.extract_strided_slice %411 {offsets = [9], sizes = [1], strides = [1]} : vector<16xf32> to vector<1xf32>
        %3960 = arith.andi %1487, %2973 : i1
        %3961 = arith.addi %2976, %242 overflow<nsw> : index
        %3962 = arith.select %3960, %3961, %c536870911 : index
        vector.store %3959, %439[%3962] : memref<?xf32, #amdgpu.address_space<fat_raw_buffer>>, vector<1xf32>
        %3963 = vector.extract_strided_slice %411 {offsets = [10], sizes = [1], strides = [1]} : vector<16xf32> to vector<1xf32>
        %3964 = arith.andi %1487, %2981 : i1
        %3965 = arith.addi %2984, %242 overflow<nsw> : index
        %3966 = arith.select %3964, %3965, %c536870911 : index
        vector.store %3963, %439[%3966] : memref<?xf32, #amdgpu.address_space<fat_raw_buffer>>, vector<1xf32>
        %3967 = vector.extract_strided_slice %411 {offsets = [11], sizes = [1], strides = [1]} : vector<16xf32> to vector<1xf32>
        %3968 = arith.andi %1487, %2989 : i1
        %3969 = arith.addi %2992, %242 overflow<nsw> : index
        %3970 = arith.select %3968, %3969, %c536870911 : index
        vector.store %3967, %439[%3970] : memref<?xf32, #amdgpu.address_space<fat_raw_buffer>>, vector<1xf32>
        %3971 = vector.extract_strided_slice %411 {offsets = [12], sizes = [1], strides = [1]} : vector<16xf32> to vector<1xf32>
        %3972 = arith.andi %1487, %2997 : i1
        %3973 = arith.addi %3000, %242 overflow<nsw> : index
        %3974 = arith.select %3972, %3973, %c536870911 : index
        vector.store %3971, %439[%3974] : memref<?xf32, #amdgpu.address_space<fat_raw_buffer>>, vector<1xf32>
        %3975 = vector.extract_strided_slice %411 {offsets = [13], sizes = [1], strides = [1]} : vector<16xf32> to vector<1xf32>
        %3976 = arith.andi %1487, %3005 : i1
        %3977 = arith.addi %3008, %242 overflow<nsw> : index
        %3978 = arith.select %3976, %3977, %c536870911 : index
        vector.store %3975, %439[%3978] : memref<?xf32, #amdgpu.address_space<fat_raw_buffer>>, vector<1xf32>
        %3979 = vector.extract_strided_slice %411 {offsets = [14], sizes = [1], strides = [1]} : vector<16xf32> to vector<1xf32>
        %3980 = arith.andi %1487, %3013 : i1
        %3981 = arith.addi %3016, %242 overflow<nsw> : index
        %3982 = arith.select %3980, %3981, %c536870911 : index
        vector.store %3979, %439[%3982] : memref<?xf32, #amdgpu.address_space<fat_raw_buffer>>, vector<1xf32>
        %3983 = vector.extract_strided_slice %411 {offsets = [15], sizes = [1], strides = [1]} : vector<16xf32> to vector<1xf32>
        %3984 = arith.andi %1487, %3021 : i1
        %3985 = arith.addi %3024, %242 overflow<nsw> : index
        %3986 = arith.select %3984, %3985, %c536870911 : index
        vector.store %3983, %439[%3986] : memref<?xf32, #amdgpu.address_space<fat_raw_buffer>>, vector<1xf32>
        %3987 = vector.extract_strided_slice %413 {offsets = [0], sizes = [1], strides = [1]} : vector<16xf32> to vector<1xf32>
        %3988 = arith.andi %1553, %2901 : i1
        %3989 = arith.addi %2904, %246 overflow<nsw> : index
        %3990 = arith.select %3988, %3989, %c536870911 : index
        vector.store %3987, %439[%3990] : memref<?xf32, #amdgpu.address_space<fat_raw_buffer>>, vector<1xf32>
        %3991 = vector.extract_strided_slice %413 {offsets = [1], sizes = [1], strides = [1]} : vector<16xf32> to vector<1xf32>
        %3992 = arith.andi %1553, %2909 : i1
        %3993 = arith.addi %2912, %246 overflow<nsw> : index
        %3994 = arith.select %3992, %3993, %c536870911 : index
        vector.store %3991, %439[%3994] : memref<?xf32, #amdgpu.address_space<fat_raw_buffer>>, vector<1xf32>
        %3995 = vector.extract_strided_slice %413 {offsets = [2], sizes = [1], strides = [1]} : vector<16xf32> to vector<1xf32>
        %3996 = arith.andi %1553, %2917 : i1
        %3997 = arith.addi %2920, %246 overflow<nsw> : index
        %3998 = arith.select %3996, %3997, %c536870911 : index
        vector.store %3995, %439[%3998] : memref<?xf32, #amdgpu.address_space<fat_raw_buffer>>, vector<1xf32>
        %3999 = vector.extract_strided_slice %413 {offsets = [3], sizes = [1], strides = [1]} : vector<16xf32> to vector<1xf32>
        %4000 = arith.andi %1553, %2925 : i1
        %4001 = arith.addi %2928, %246 overflow<nsw> : index
        %4002 = arith.select %4000, %4001, %c536870911 : index
        vector.store %3999, %439[%4002] : memref<?xf32, #amdgpu.address_space<fat_raw_buffer>>, vector<1xf32>
        %4003 = vector.extract_strided_slice %413 {offsets = [4], sizes = [1], strides = [1]} : vector<16xf32> to vector<1xf32>
        %4004 = arith.andi %1553, %2933 : i1
        %4005 = arith.addi %2936, %246 overflow<nsw> : index
        %4006 = arith.select %4004, %4005, %c536870911 : index
        vector.store %4003, %439[%4006] : memref<?xf32, #amdgpu.address_space<fat_raw_buffer>>, vector<1xf32>
        %4007 = vector.extract_strided_slice %413 {offsets = [5], sizes = [1], strides = [1]} : vector<16xf32> to vector<1xf32>
        %4008 = arith.andi %1553, %2941 : i1
        %4009 = arith.addi %2944, %246 overflow<nsw> : index
        %4010 = arith.select %4008, %4009, %c536870911 : index
        vector.store %4007, %439[%4010] : memref<?xf32, #amdgpu.address_space<fat_raw_buffer>>, vector<1xf32>
        %4011 = vector.extract_strided_slice %413 {offsets = [6], sizes = [1], strides = [1]} : vector<16xf32> to vector<1xf32>
        %4012 = arith.andi %1553, %2949 : i1
        %4013 = arith.addi %2952, %246 overflow<nsw> : index
        %4014 = arith.select %4012, %4013, %c536870911 : index
        vector.store %4011, %439[%4014] : memref<?xf32, #amdgpu.address_space<fat_raw_buffer>>, vector<1xf32>
        %4015 = vector.extract_strided_slice %413 {offsets = [7], sizes = [1], strides = [1]} : vector<16xf32> to vector<1xf32>
        %4016 = arith.andi %1553, %2957 : i1
        %4017 = arith.addi %2960, %246 overflow<nsw> : index
        %4018 = arith.select %4016, %4017, %c536870911 : index
        vector.store %4015, %439[%4018] : memref<?xf32, #amdgpu.address_space<fat_raw_buffer>>, vector<1xf32>
        %4019 = vector.extract_strided_slice %413 {offsets = [8], sizes = [1], strides = [1]} : vector<16xf32> to vector<1xf32>
        %4020 = arith.andi %1553, %2965 : i1
        %4021 = arith.addi %2968, %246 overflow<nsw> : index
        %4022 = arith.select %4020, %4021, %c536870911 : index
        vector.store %4019, %439[%4022] : memref<?xf32, #amdgpu.address_space<fat_raw_buffer>>, vector<1xf32>
        %4023 = vector.extract_strided_slice %413 {offsets = [9], sizes = [1], strides = [1]} : vector<16xf32> to vector<1xf32>
        %4024 = arith.andi %1553, %2973 : i1
        %4025 = arith.addi %2976, %246 overflow<nsw> : index
        %4026 = arith.select %4024, %4025, %c536870911 : index
        vector.store %4023, %439[%4026] : memref<?xf32, #amdgpu.address_space<fat_raw_buffer>>, vector<1xf32>
        %4027 = vector.extract_strided_slice %413 {offsets = [10], sizes = [1], strides = [1]} : vector<16xf32> to vector<1xf32>
        %4028 = arith.andi %1553, %2981 : i1
        %4029 = arith.addi %2984, %246 overflow<nsw> : index
        %4030 = arith.select %4028, %4029, %c536870911 : index
        vector.store %4027, %439[%4030] : memref<?xf32, #amdgpu.address_space<fat_raw_buffer>>, vector<1xf32>
        %4031 = vector.extract_strided_slice %413 {offsets = [11], sizes = [1], strides = [1]} : vector<16xf32> to vector<1xf32>
        %4032 = arith.andi %1553, %2989 : i1
        %4033 = arith.addi %2992, %246 overflow<nsw> : index
        %4034 = arith.select %4032, %4033, %c536870911 : index
        vector.store %4031, %439[%4034] : memref<?xf32, #amdgpu.address_space<fat_raw_buffer>>, vector<1xf32>
        %4035 = vector.extract_strided_slice %413 {offsets = [12], sizes = [1], strides = [1]} : vector<16xf32> to vector<1xf32>
        %4036 = arith.andi %1553, %2997 : i1
        %4037 = arith.addi %3000, %246 overflow<nsw> : index
        %4038 = arith.select %4036, %4037, %c536870911 : index
        vector.store %4035, %439[%4038] : memref<?xf32, #amdgpu.address_space<fat_raw_buffer>>, vector<1xf32>
        %4039 = vector.extract_strided_slice %413 {offsets = [13], sizes = [1], strides = [1]} : vector<16xf32> to vector<1xf32>
        %4040 = arith.andi %1553, %3005 : i1
        %4041 = arith.addi %3008, %246 overflow<nsw> : index
        %4042 = arith.select %4040, %4041, %c536870911 : index
        vector.store %4039, %439[%4042] : memref<?xf32, #amdgpu.address_space<fat_raw_buffer>>, vector<1xf32>
        %4043 = vector.extract_strided_slice %413 {offsets = [14], sizes = [1], strides = [1]} : vector<16xf32> to vector<1xf32>
        %4044 = arith.andi %1553, %3013 : i1
        %4045 = arith.addi %3016, %246 overflow<nsw> : index
        %4046 = arith.select %4044, %4045, %c536870911 : index
        vector.store %4043, %439[%4046] : memref<?xf32, #amdgpu.address_space<fat_raw_buffer>>, vector<1xf32>
        %4047 = vector.extract_strided_slice %413 {offsets = [15], sizes = [1], strides = [1]} : vector<16xf32> to vector<1xf32>
        %4048 = arith.andi %1553, %3021 : i1
        %4049 = arith.addi %3024, %246 overflow<nsw> : index
        %4050 = arith.select %4048, %4049, %c536870911 : index
        vector.store %4047, %439[%4050] : memref<?xf32, #amdgpu.address_space<fat_raw_buffer>>, vector<1xf32>
        %4051 = vector.extract_strided_slice %415 {offsets = [0], sizes = [1], strides = [1]} : vector<16xf32> to vector<1xf32>
        %4052 = arith.andi %1619, %2901 : i1
        %4053 = arith.addi %2904, %250 overflow<nsw> : index
        %4054 = arith.select %4052, %4053, %c536870911 : index
        vector.store %4051, %439[%4054] : memref<?xf32, #amdgpu.address_space<fat_raw_buffer>>, vector<1xf32>
        %4055 = vector.extract_strided_slice %415 {offsets = [1], sizes = [1], strides = [1]} : vector<16xf32> to vector<1xf32>
        %4056 = arith.andi %1619, %2909 : i1
        %4057 = arith.addi %2912, %250 overflow<nsw> : index
        %4058 = arith.select %4056, %4057, %c536870911 : index
        vector.store %4055, %439[%4058] : memref<?xf32, #amdgpu.address_space<fat_raw_buffer>>, vector<1xf32>
        %4059 = vector.extract_strided_slice %415 {offsets = [2], sizes = [1], strides = [1]} : vector<16xf32> to vector<1xf32>
        %4060 = arith.andi %1619, %2917 : i1
        %4061 = arith.addi %2920, %250 overflow<nsw> : index
        %4062 = arith.select %4060, %4061, %c536870911 : index
        vector.store %4059, %439[%4062] : memref<?xf32, #amdgpu.address_space<fat_raw_buffer>>, vector<1xf32>
        %4063 = vector.extract_strided_slice %415 {offsets = [3], sizes = [1], strides = [1]} : vector<16xf32> to vector<1xf32>
        %4064 = arith.andi %1619, %2925 : i1
        %4065 = arith.addi %2928, %250 overflow<nsw> : index
        %4066 = arith.select %4064, %4065, %c536870911 : index
        vector.store %4063, %439[%4066] : memref<?xf32, #amdgpu.address_space<fat_raw_buffer>>, vector<1xf32>
        %4067 = vector.extract_strided_slice %415 {offsets = [4], sizes = [1], strides = [1]} : vector<16xf32> to vector<1xf32>
        %4068 = arith.andi %1619, %2933 : i1
        %4069 = arith.addi %2936, %250 overflow<nsw> : index
        %4070 = arith.select %4068, %4069, %c536870911 : index
        vector.store %4067, %439[%4070] : memref<?xf32, #amdgpu.address_space<fat_raw_buffer>>, vector<1xf32>
        %4071 = vector.extract_strided_slice %415 {offsets = [5], sizes = [1], strides = [1]} : vector<16xf32> to vector<1xf32>
        %4072 = arith.andi %1619, %2941 : i1
        %4073 = arith.addi %2944, %250 overflow<nsw> : index
        %4074 = arith.select %4072, %4073, %c536870911 : index
        vector.store %4071, %439[%4074] : memref<?xf32, #amdgpu.address_space<fat_raw_buffer>>, vector<1xf32>
        %4075 = vector.extract_strided_slice %415 {offsets = [6], sizes = [1], strides = [1]} : vector<16xf32> to vector<1xf32>
        %4076 = arith.andi %1619, %2949 : i1
        %4077 = arith.addi %2952, %250 overflow<nsw> : index
        %4078 = arith.select %4076, %4077, %c536870911 : index
        vector.store %4075, %439[%4078] : memref<?xf32, #amdgpu.address_space<fat_raw_buffer>>, vector<1xf32>
        %4079 = vector.extract_strided_slice %415 {offsets = [7], sizes = [1], strides = [1]} : vector<16xf32> to vector<1xf32>
        %4080 = arith.andi %1619, %2957 : i1
        %4081 = arith.addi %2960, %250 overflow<nsw> : index
        %4082 = arith.select %4080, %4081, %c536870911 : index
        vector.store %4079, %439[%4082] : memref<?xf32, #amdgpu.address_space<fat_raw_buffer>>, vector<1xf32>
        %4083 = vector.extract_strided_slice %415 {offsets = [8], sizes = [1], strides = [1]} : vector<16xf32> to vector<1xf32>
        %4084 = arith.andi %1619, %2965 : i1
        %4085 = arith.addi %2968, %250 overflow<nsw> : index
        %4086 = arith.select %4084, %4085, %c536870911 : index
        vector.store %4083, %439[%4086] : memref<?xf32, #amdgpu.address_space<fat_raw_buffer>>, vector<1xf32>
        %4087 = vector.extract_strided_slice %415 {offsets = [9], sizes = [1], strides = [1]} : vector<16xf32> to vector<1xf32>
        %4088 = arith.andi %1619, %2973 : i1
        %4089 = arith.addi %2976, %250 overflow<nsw> : index
        %4090 = arith.select %4088, %4089, %c536870911 : index
        vector.store %4087, %439[%4090] : memref<?xf32, #amdgpu.address_space<fat_raw_buffer>>, vector<1xf32>
        %4091 = vector.extract_strided_slice %415 {offsets = [10], sizes = [1], strides = [1]} : vector<16xf32> to vector<1xf32>
        %4092 = arith.andi %1619, %2981 : i1
        %4093 = arith.addi %2984, %250 overflow<nsw> : index
        %4094 = arith.select %4092, %4093, %c536870911 : index
        vector.store %4091, %439[%4094] : memref<?xf32, #amdgpu.address_space<fat_raw_buffer>>, vector<1xf32>
        %4095 = vector.extract_strided_slice %415 {offsets = [11], sizes = [1], strides = [1]} : vector<16xf32> to vector<1xf32>
        %4096 = arith.andi %1619, %2989 : i1
        %4097 = arith.addi %2992, %250 overflow<nsw> : index
        %4098 = arith.select %4096, %4097, %c536870911 : index
        vector.store %4095, %439[%4098] : memref<?xf32, #amdgpu.address_space<fat_raw_buffer>>, vector<1xf32>
        %4099 = vector.extract_strided_slice %415 {offsets = [12], sizes = [1], strides = [1]} : vector<16xf32> to vector<1xf32>
        %4100 = arith.andi %1619, %2997 : i1
        %4101 = arith.addi %3000, %250 overflow<nsw> : index
        %4102 = arith.select %4100, %4101, %c536870911 : index
        vector.store %4099, %439[%4102] : memref<?xf32, #amdgpu.address_space<fat_raw_buffer>>, vector<1xf32>
        %4103 = vector.extract_strided_slice %415 {offsets = [13], sizes = [1], strides = [1]} : vector<16xf32> to vector<1xf32>
        %4104 = arith.andi %1619, %3005 : i1
        %4105 = arith.addi %3008, %250 overflow<nsw> : index
        %4106 = arith.select %4104, %4105, %c536870911 : index
        vector.store %4103, %439[%4106] : memref<?xf32, #amdgpu.address_space<fat_raw_buffer>>, vector<1xf32>
        %4107 = vector.extract_strided_slice %415 {offsets = [14], sizes = [1], strides = [1]} : vector<16xf32> to vector<1xf32>
        %4108 = arith.andi %1619, %3013 : i1
        %4109 = arith.addi %3016, %250 overflow<nsw> : index
        %4110 = arith.select %4108, %4109, %c536870911 : index
        vector.store %4107, %439[%4110] : memref<?xf32, #amdgpu.address_space<fat_raw_buffer>>, vector<1xf32>
        %4111 = vector.extract_strided_slice %415 {offsets = [15], sizes = [1], strides = [1]} : vector<16xf32> to vector<1xf32>
        %4112 = arith.andi %1619, %3021 : i1
        %4113 = arith.addi %3024, %250 overflow<nsw> : index
        %4114 = arith.select %4112, %4113, %c536870911 : index
        vector.store %4111, %439[%4114] : memref<?xf32, #amdgpu.address_space<fat_raw_buffer>>, vector<1xf32>
        return
      }
    }
  }
  func.func @isolated_benchmark(%arg0: tensor<641x4096xf16>, %arg1: tensor<2880x4096xf16>, %arg2: tensor<641x2880xf32>) -> tensor<641x2880xf32> {
    %0 = flow.dispatch @gemm::@gemm(%arg0, %arg1, %arg2) : (tensor<641x4096xf16>, tensor<2880x4096xf16>, tensor<641x2880xf32>) -> %arg2
    return %0 : tensor<641x2880xf32>
  }
}
