#map = affine_map<()[s0, s1] -> ((s0 * 2048 + s1 * 8) mod 79)>
#map1 = affine_map<()[s0, s1] -> (((s0 * 13 + s1 - (s0 floordiv 8) * 103) floordiv 104) * -8 + 8)>
#map2 = affine_map<()[s0, s1, s2, s3, s4] -> (((s0 * 2048 + s1 * 8) floordiv 79) mod 144 + ((s2 * 13 + s3 - (s2 floordiv 8) * 103) floordiv 104) * 1152 + (((s2 * 13 + s3 - (s2 floordiv 8) * 103) mod 104) mod s4) * 144)>
#map3 = affine_map<()[s0, s1] -> (s0 * 2048 + s1 * 8 - ((s0 * 2048 + s1 * 8 + 67) floordiv 79) * 79 + 67)>
#map4 = affine_map<()[s0, s1, s2, s3, s4] -> (((s0 * 2048 + s1 * 8 + 4096) floordiv 79) mod 144 + ((s2 * 13 + s3 - (s2 floordiv 8) * 103) floordiv 104) * 1152 + (((s2 * 13 + s3 - (s2 floordiv 8) * 103) mod 104) mod s4) * 144)>
#map5 = affine_map<()[s0, s1] -> (s0 * 2048 + s1 * 8 - ((s0 * 2048 + s1 * 8 + 55) floordiv 79) * 79 + 55)>
#map6 = affine_map<()[s0, s1, s2, s3, s4] -> (((s0 * 2048 + s1 * 8 + 8192) floordiv 79) mod 144 + ((s2 * 13 + s3 - (s2 floordiv 8) * 103) floordiv 104) * 1152 + (((s2 * 13 + s3 - (s2 floordiv 8) * 103) mod 104) mod s4) * 144)>
#map7 = affine_map<()[s0, s1, s2, s3, s4] -> (((s0 * 2048 + s1 * 8) floordiv 79) mod 80 + (((s2 * 13 + s3 - (s2 floordiv 8) * 103) mod 104) floordiv s4) * 80)>
#map8 = affine_map<()[s0, s1, s2, s3, s4] -> (((s0 * 2048 + s1 * 8 + 4096) floordiv 79) mod 80 + (((s2 * 13 + s3 - (s2 floordiv 8) * 103) mod 104) floordiv s4) * 80)>
#map9 = affine_map<()[s0] -> ((s0 floordiv 64) * 36 + 36)>
#map10 = affine_map<()[s0, s1] -> (((s0 * 2048 + s1 * 8) floordiv 79) mod 144)>
#map11 = affine_map<()[s0, s1] -> (((s0 * 2048 + s1 * 8 + 4096) floordiv 79) mod 144)>
#map12 = affine_map<()[s0, s1] -> (((s0 * 2048 + s1 * 8 + 8192) floordiv 79) mod 144)>
#map13 = affine_map<()[s0] -> (s0 * 40 + 40)>
#map14 = affine_map<()[s0, s1] -> (((s0 * 2048 + s1 * 8) floordiv 79) mod 80)>
#map15 = affine_map<()[s0, s1] -> (((s0 * 2048 + s1 * 8 + 4096) floordiv 79) mod 80)>
#map16 = affine_map<()[s0] -> (((s0 mod 64) floordiv 32) * 4)>
#map17 = affine_map<()[s0, s1] -> (s0 + s1 * 40 - (s0 floordiv 32) * 32)>
#map18 = affine_map<()[s0] -> (((s0 mod 64) floordiv 32) * 4 + 8)>
#map19 = affine_map<()[s0] -> (((s0 mod 64) floordiv 32) * 4 + 16)>
#map20 = affine_map<()[s0] -> (((s0 mod 64) floordiv 32) * 4 + 24)>
#map21 = affine_map<()[s0] -> (((s0 mod 64) floordiv 32) * 4 + 32)>
#map22 = affine_map<()[s0] -> (((s0 mod 64) floordiv 32) * 4 + 40)>
#map23 = affine_map<()[s0] -> (((s0 mod 64) floordiv 32) * 4 + 48)>
#map24 = affine_map<()[s0] -> (((s0 mod 64) floordiv 32) * 4 + 56)>
#map25 = affine_map<()[s0] -> (((s0 mod 64) floordiv 32) * 4 + 64)>
#map26 = affine_map<()[s0] -> (((s0 mod 64) floordiv 32) * 4 + 72)>
#map27 = affine_map<()[s0, s1] -> (s0 + s1 * 40 - (s0 floordiv 32) * 32 + 32)>
#map28 = affine_map<()[s0] -> (s0 mod 32 + (s0 floordiv 64) * 36)>
#map29 = affine_map<()[s0] -> (s0 mod 32 + (s0 floordiv 64) * 36 + 32)>
#map30 = affine_map<()[s0, s1, s2] -> (s0 * 2048 + s1 * 8 + s2 * 79 - ((s0 * 2048 + s1 * 8) floordiv 79) * 79)>
#map31 = affine_map<()[s0, s1, s2] -> (s0 * 2048 + s1 * 8 + s2 * 79 - ((s0 * 2048 + s1 * 8) floordiv 79) * 79 + 79)>
#map32 = affine_map<()[s0, s1, s2] -> (s0 * 2048 + s1 * 8 + s2 * 79 - ((s0 * 2048 + s1 * 8 + 67) floordiv 79) * 79 + 67)>
#map33 = affine_map<()[s0, s1, s2] -> (s0 * 2048 + s1 * 8 + s2 * 79 - ((s0 * 2048 + s1 * 8 + 67) floordiv 79) * 79 + 146)>
#map34 = affine_map<()[s0, s1, s2] -> (s0 * 2048 + s1 * 8 + s2 * 79 - ((s0 * 2048 + s1 * 8 + 55) floordiv 79) * 79 + 55)>
#map35 = affine_map<()[s0, s1, s2] -> (s0 * 2048 + s1 * 8 + s2 * 79 - ((s0 * 2048 + s1 * 8 + 55) floordiv 79) * 79 + 134)>
#map36 = affine_map<()[s0, s1] -> (s0 * 80 + s1 * 40 + 40)>
#map37 = affine_map<()[s0] -> (s0 * 80 + 80)>
#map38 = affine_map<()[s0, s1, s2, s3, s4] -> (s0 mod 32 + s4 * 40 + (((s1 * 13 + s2 - (s1 floordiv 8) * 103) mod 104) floordiv s3) * 80)>
#map39 = affine_map<()[s0, s1] -> (s0 * 144 + (s1 floordiv 64) * 36 + 36)>
#map40 = affine_map<()[s0] -> (s0 * 144 + 144)>
#map41 = affine_map<()[s0, s1, s2, s3] -> ((s3 floordiv 64) * 36 + ((s0 * 13 + s1 - (s0 floordiv 8) * 103) floordiv 104) * 1152 + (((s0 * 13 + s1 - (s0 floordiv 8) * 103) mod 104) mod s2) * 144 + ((s3 mod 64) floordiv 32) * 4)>
#map42 = affine_map<()[s0, s1, s2] -> (((s0 * 13 + s1 - (s0 floordiv 8) * 103) floordiv 104) * 1152 + (((s0 * 13 + s1 - (s0 floordiv 8) * 103) mod 104) mod s2) * 144)>
#map43 = affine_map<()[s0, s1, s2] -> ((((s0 * 13 + s1 - (s0 floordiv 8) * 103) mod 104) floordiv s2) * 80)>
#map44 = affine_map<()[s0] -> ((s0 floordiv 64) * 36 + ((s0 mod 64) floordiv 32) * 4)>
#map45 = affine_map<()[s0, s1, s2, s3] -> ((s3 floordiv 64) * 36 + ((s0 * 13 + s1 - (s0 floordiv 8) * 103) floordiv 104) * 1152 + (((s0 * 13 + s1 - (s0 floordiv 8) * 103) mod 104) mod s2) * 144 + ((s3 mod 64) floordiv 32) * 4 + 1)>
#map46 = affine_map<()[s0] -> ((s0 floordiv 64) * 36 + ((s0 mod 64) floordiv 32) * 4 + 1)>
#map47 = affine_map<()[s0, s1, s2, s3] -> ((s3 floordiv 64) * 36 + ((s0 * 13 + s1 - (s0 floordiv 8) * 103) floordiv 104) * 1152 + (((s0 * 13 + s1 - (s0 floordiv 8) * 103) mod 104) mod s2) * 144 + ((s3 mod 64) floordiv 32) * 4 + 2)>
#map48 = affine_map<()[s0] -> ((s0 floordiv 64) * 36 + ((s0 mod 64) floordiv 32) * 4 + 2)>
#map49 = affine_map<()[s0, s1, s2, s3] -> ((s3 floordiv 64) * 36 + ((s0 * 13 + s1 - (s0 floordiv 8) * 103) floordiv 104) * 1152 + (((s0 * 13 + s1 - (s0 floordiv 8) * 103) mod 104) mod s2) * 144 + ((s3 mod 64) floordiv 32) * 4 + 3)>
#map50 = affine_map<()[s0] -> ((s0 floordiv 64) * 36 + ((s0 mod 64) floordiv 32) * 4 + 3)>
#map51 = affine_map<()[s0, s1, s2, s3] -> ((s3 floordiv 64) * 36 + ((s0 * 13 + s1 - (s0 floordiv 8) * 103) floordiv 104) * 1152 + (((s0 * 13 + s1 - (s0 floordiv 8) * 103) mod 104) mod s2) * 144 + ((s3 mod 64) floordiv 32) * 4 + 8)>
#map52 = affine_map<()[s0] -> ((s0 floordiv 64) * 36 + ((s0 mod 64) floordiv 32) * 4 + 8)>
#map53 = affine_map<()[s0, s1, s2, s3] -> ((s3 floordiv 64) * 36 + ((s0 * 13 + s1 - (s0 floordiv 8) * 103) floordiv 104) * 1152 + (((s0 * 13 + s1 - (s0 floordiv 8) * 103) mod 104) mod s2) * 144 + ((s3 mod 64) floordiv 32) * 4 + 9)>
#map54 = affine_map<()[s0] -> ((s0 floordiv 64) * 36 + ((s0 mod 64) floordiv 32) * 4 + 9)>
#map55 = affine_map<()[s0, s1, s2, s3] -> ((s3 floordiv 64) * 36 + ((s0 * 13 + s1 - (s0 floordiv 8) * 103) floordiv 104) * 1152 + (((s0 * 13 + s1 - (s0 floordiv 8) * 103) mod 104) mod s2) * 144 + ((s3 mod 64) floordiv 32) * 4 + 10)>
#map56 = affine_map<()[s0] -> ((s0 floordiv 64) * 36 + ((s0 mod 64) floordiv 32) * 4 + 10)>
#map57 = affine_map<()[s0, s1, s2, s3] -> ((s3 floordiv 64) * 36 + ((s0 * 13 + s1 - (s0 floordiv 8) * 103) floordiv 104) * 1152 + (((s0 * 13 + s1 - (s0 floordiv 8) * 103) mod 104) mod s2) * 144 + ((s3 mod 64) floordiv 32) * 4 + 11)>
#map58 = affine_map<()[s0] -> ((s0 floordiv 64) * 36 + ((s0 mod 64) floordiv 32) * 4 + 11)>
#map59 = affine_map<()[s0, s1, s2, s3] -> ((s3 floordiv 64) * 36 + ((s0 * 13 + s1 - (s0 floordiv 8) * 103) floordiv 104) * 1152 + (((s0 * 13 + s1 - (s0 floordiv 8) * 103) mod 104) mod s2) * 144 + ((s3 mod 64) floordiv 32) * 4 + 16)>
#map60 = affine_map<()[s0] -> ((s0 floordiv 64) * 36 + ((s0 mod 64) floordiv 32) * 4 + 16)>
#map61 = affine_map<()[s0, s1, s2, s3] -> ((s3 floordiv 64) * 36 + ((s0 * 13 + s1 - (s0 floordiv 8) * 103) floordiv 104) * 1152 + (((s0 * 13 + s1 - (s0 floordiv 8) * 103) mod 104) mod s2) * 144 + ((s3 mod 64) floordiv 32) * 4 + 17)>
#map62 = affine_map<()[s0] -> ((s0 floordiv 64) * 36 + ((s0 mod 64) floordiv 32) * 4 + 17)>
#map63 = affine_map<()[s0, s1, s2, s3] -> ((s3 floordiv 64) * 36 + ((s0 * 13 + s1 - (s0 floordiv 8) * 103) floordiv 104) * 1152 + (((s0 * 13 + s1 - (s0 floordiv 8) * 103) mod 104) mod s2) * 144 + ((s3 mod 64) floordiv 32) * 4 + 18)>
#map64 = affine_map<()[s0] -> ((s0 floordiv 64) * 36 + ((s0 mod 64) floordiv 32) * 4 + 18)>
#map65 = affine_map<()[s0, s1, s2, s3] -> ((s3 floordiv 64) * 36 + ((s0 * 13 + s1 - (s0 floordiv 8) * 103) floordiv 104) * 1152 + (((s0 * 13 + s1 - (s0 floordiv 8) * 103) mod 104) mod s2) * 144 + ((s3 mod 64) floordiv 32) * 4 + 19)>
#map66 = affine_map<()[s0] -> ((s0 floordiv 64) * 36 + ((s0 mod 64) floordiv 32) * 4 + 19)>
#map67 = affine_map<()[s0, s1, s2, s3] -> ((s3 floordiv 64) * 36 + ((s0 * 13 + s1 - (s0 floordiv 8) * 103) floordiv 104) * 1152 + (((s0 * 13 + s1 - (s0 floordiv 8) * 103) mod 104) mod s2) * 144 + ((s3 mod 64) floordiv 32) * 4 + 24)>
#map68 = affine_map<()[s0] -> ((s0 floordiv 64) * 36 + ((s0 mod 64) floordiv 32) * 4 + 24)>
#map69 = affine_map<()[s0, s1, s2, s3] -> ((s3 floordiv 64) * 36 + ((s0 * 13 + s1 - (s0 floordiv 8) * 103) floordiv 104) * 1152 + (((s0 * 13 + s1 - (s0 floordiv 8) * 103) mod 104) mod s2) * 144 + ((s3 mod 64) floordiv 32) * 4 + 25)>
#map70 = affine_map<()[s0] -> ((s0 floordiv 64) * 36 + ((s0 mod 64) floordiv 32) * 4 + 25)>
#map71 = affine_map<()[s0, s1, s2, s3] -> ((s3 floordiv 64) * 36 + ((s0 * 13 + s1 - (s0 floordiv 8) * 103) floordiv 104) * 1152 + (((s0 * 13 + s1 - (s0 floordiv 8) * 103) mod 104) mod s2) * 144 + ((s3 mod 64) floordiv 32) * 4 + 26)>
#map72 = affine_map<()[s0] -> ((s0 floordiv 64) * 36 + ((s0 mod 64) floordiv 32) * 4 + 26)>
#map73 = affine_map<()[s0, s1, s2, s3] -> ((s3 floordiv 64) * 36 + ((s0 * 13 + s1 - (s0 floordiv 8) * 103) floordiv 104) * 1152 + (((s0 * 13 + s1 - (s0 floordiv 8) * 103) mod 104) mod s2) * 144 + ((s3 mod 64) floordiv 32) * 4 + 27)>
#map74 = affine_map<()[s0] -> ((s0 floordiv 64) * 36 + ((s0 mod 64) floordiv 32) * 4 + 27)>
#map75 = affine_map<()[s0, s1, s2, s3, s4] -> (s0 mod 32 + s4 * 40 + (((s1 * 13 + s2 - (s1 floordiv 8) * 103) mod 104) floordiv s3) * 80 + 32)>
#map76 = affine_map<()[s0, s1, s2, s3] -> ((s3 floordiv 64) * 36 + ((s0 * 13 + s1 - (s0 floordiv 8) * 103) floordiv 104) * 1152 + (((s0 * 13 + s1 - (s0 floordiv 8) * 103) mod 104) mod s2) * 144 + ((s3 mod 64) floordiv 32) * 4 + 32)>
#map77 = affine_map<()[s0] -> ((s0 floordiv 64) * 36 + ((s0 mod 64) floordiv 32) * 4 + 32)>
#map78 = affine_map<()[s0, s1, s2, s3] -> ((s3 floordiv 64) * 36 + ((s0 * 13 + s1 - (s0 floordiv 8) * 103) floordiv 104) * 1152 + (((s0 * 13 + s1 - (s0 floordiv 8) * 103) mod 104) mod s2) * 144 + ((s3 mod 64) floordiv 32) * 4 + 33)>
#map79 = affine_map<()[s0] -> ((s0 floordiv 64) * 36 + ((s0 mod 64) floordiv 32) * 4 + 33)>
#map80 = affine_map<()[s0, s1, s2, s3] -> ((s3 floordiv 64) * 36 + ((s0 * 13 + s1 - (s0 floordiv 8) * 103) floordiv 104) * 1152 + (((s0 * 13 + s1 - (s0 floordiv 8) * 103) mod 104) mod s2) * 144 + ((s3 mod 64) floordiv 32) * 4 + 34)>
#map81 = affine_map<()[s0] -> ((s0 floordiv 64) * 36 + ((s0 mod 64) floordiv 32) * 4 + 34)>
#map82 = affine_map<()[s0, s1, s2, s3] -> ((s3 floordiv 64) * 36 + ((s0 * 13 + s1 - (s0 floordiv 8) * 103) floordiv 104) * 1152 + (((s0 * 13 + s1 - (s0 floordiv 8) * 103) mod 104) mod s2) * 144 + ((s3 mod 64) floordiv 32) * 4 + 35)>
#map83 = affine_map<()[s0] -> ((s0 floordiv 64) * 36 + ((s0 mod 64) floordiv 32) * 4 + 35)>
#map84 = affine_map<()[s0, s1, s2, s3] -> ((s3 floordiv 64) * 36 + ((s0 * 13 + s1 - (s0 floordiv 8) * 103) floordiv 104) * 1152 + (((s0 * 13 + s1 - (s0 floordiv 8) * 103) mod 104) mod s2) * 144 + ((s3 mod 64) floordiv 32) * 4 + 40)>
#map85 = affine_map<()[s0] -> ((s0 floordiv 64) * 36 + ((s0 mod 64) floordiv 32) * 4 + 40)>
#map86 = affine_map<()[s0, s1, s2, s3] -> ((s3 floordiv 64) * 36 + ((s0 * 13 + s1 - (s0 floordiv 8) * 103) floordiv 104) * 1152 + (((s0 * 13 + s1 - (s0 floordiv 8) * 103) mod 104) mod s2) * 144 + ((s3 mod 64) floordiv 32) * 4 + 41)>
#map87 = affine_map<()[s0] -> ((s0 floordiv 64) * 36 + ((s0 mod 64) floordiv 32) * 4 + 41)>
#map88 = affine_map<()[s0, s1, s2, s3] -> ((s3 floordiv 64) * 36 + ((s0 * 13 + s1 - (s0 floordiv 8) * 103) floordiv 104) * 1152 + (((s0 * 13 + s1 - (s0 floordiv 8) * 103) mod 104) mod s2) * 144 + ((s3 mod 64) floordiv 32) * 4 + 42)>
#map89 = affine_map<()[s0] -> ((s0 floordiv 64) * 36 + ((s0 mod 64) floordiv 32) * 4 + 42)>
#map90 = affine_map<()[s0, s1, s2, s3] -> ((s3 floordiv 64) * 36 + ((s0 * 13 + s1 - (s0 floordiv 8) * 103) floordiv 104) * 1152 + (((s0 * 13 + s1 - (s0 floordiv 8) * 103) mod 104) mod s2) * 144 + ((s3 mod 64) floordiv 32) * 4 + 43)>
#map91 = affine_map<()[s0] -> ((s0 floordiv 64) * 36 + ((s0 mod 64) floordiv 32) * 4 + 43)>
#map92 = affine_map<()[s0, s1, s2, s3] -> ((s3 floordiv 64) * 36 + ((s0 * 13 + s1 - (s0 floordiv 8) * 103) floordiv 104) * 1152 + (((s0 * 13 + s1 - (s0 floordiv 8) * 103) mod 104) mod s2) * 144 + ((s3 mod 64) floordiv 32) * 4 + 48)>
#map93 = affine_map<()[s0] -> ((s0 floordiv 64) * 36 + ((s0 mod 64) floordiv 32) * 4 + 48)>
#map94 = affine_map<()[s0, s1, s2, s3] -> ((s3 floordiv 64) * 36 + ((s0 * 13 + s1 - (s0 floordiv 8) * 103) floordiv 104) * 1152 + (((s0 * 13 + s1 - (s0 floordiv 8) * 103) mod 104) mod s2) * 144 + ((s3 mod 64) floordiv 32) * 4 + 49)>
#map95 = affine_map<()[s0] -> ((s0 floordiv 64) * 36 + ((s0 mod 64) floordiv 32) * 4 + 49)>
#map96 = affine_map<()[s0, s1, s2, s3] -> ((s3 floordiv 64) * 36 + ((s0 * 13 + s1 - (s0 floordiv 8) * 103) floordiv 104) * 1152 + (((s0 * 13 + s1 - (s0 floordiv 8) * 103) mod 104) mod s2) * 144 + ((s3 mod 64) floordiv 32) * 4 + 50)>
#map97 = affine_map<()[s0] -> ((s0 floordiv 64) * 36 + ((s0 mod 64) floordiv 32) * 4 + 50)>
#map98 = affine_map<()[s0, s1, s2, s3] -> ((s3 floordiv 64) * 36 + ((s0 * 13 + s1 - (s0 floordiv 8) * 103) floordiv 104) * 1152 + (((s0 * 13 + s1 - (s0 floordiv 8) * 103) mod 104) mod s2) * 144 + ((s3 mod 64) floordiv 32) * 4 + 51)>
#map99 = affine_map<()[s0] -> ((s0 floordiv 64) * 36 + ((s0 mod 64) floordiv 32) * 4 + 51)>
#map100 = affine_map<()[s0, s1, s2, s3] -> ((s3 floordiv 64) * 36 + ((s0 * 13 + s1 - (s0 floordiv 8) * 103) floordiv 104) * 1152 + (((s0 * 13 + s1 - (s0 floordiv 8) * 103) mod 104) mod s2) * 144 + ((s3 mod 64) floordiv 32) * 4 + 56)>
#map101 = affine_map<()[s0] -> ((s0 floordiv 64) * 36 + ((s0 mod 64) floordiv 32) * 4 + 56)>
#map102 = affine_map<()[s0, s1, s2, s3] -> ((s3 floordiv 64) * 36 + ((s0 * 13 + s1 - (s0 floordiv 8) * 103) floordiv 104) * 1152 + (((s0 * 13 + s1 - (s0 floordiv 8) * 103) mod 104) mod s2) * 144 + ((s3 mod 64) floordiv 32) * 4 + 57)>
#map103 = affine_map<()[s0] -> ((s0 floordiv 64) * 36 + ((s0 mod 64) floordiv 32) * 4 + 57)>
#map104 = affine_map<()[s0, s1, s2, s3] -> ((s3 floordiv 64) * 36 + ((s0 * 13 + s1 - (s0 floordiv 8) * 103) floordiv 104) * 1152 + (((s0 * 13 + s1 - (s0 floordiv 8) * 103) mod 104) mod s2) * 144 + ((s3 mod 64) floordiv 32) * 4 + 58)>
#map105 = affine_map<()[s0] -> ((s0 floordiv 64) * 36 + ((s0 mod 64) floordiv 32) * 4 + 58)>
#map106 = affine_map<()[s0, s1, s2, s3] -> ((s3 floordiv 64) * 36 + ((s0 * 13 + s1 - (s0 floordiv 8) * 103) floordiv 104) * 1152 + (((s0 * 13 + s1 - (s0 floordiv 8) * 103) mod 104) mod s2) * 144 + ((s3 mod 64) floordiv 32) * 4 + 59)>
#map107 = affine_map<()[s0] -> ((s0 floordiv 64) * 36 + ((s0 mod 64) floordiv 32) * 4 + 59)>
#translation = #iree_codegen.translation_info<pipeline = None workgroup_size = [256, 2, 1] subgroup_size = 64>
module attributes {transform.with_named_sequence} {
  stream.executable private @gemm {
    stream.executable.export public @gemm workgroups() -> (index, index, index) {
      %c8 = arith.constant 8 : index
      %c13 = arith.constant 13 : index
      %c1 = arith.constant 1 : index
      stream.return %c8, %c13, %c1 : index, index, index
    }
    builtin.module {
      func.func @gemm(%arg0: !stream.binding, %arg1: !stream.binding, %arg2: !stream.binding) attributes {translation_info = #translation} {
        %cst = arith.constant dense<72> : vector<4xindex>
        %cst_0 = arith.constant dense<64> : vector<4xindex>
        %cst_1 = arith.constant dense<56> : vector<4xindex>
        %cst_2 = arith.constant dense<48> : vector<4xindex>
        %cst_3 = arith.constant dense<40> : vector<4xindex>
        %cst_4 = arith.constant dense<32> : vector<4xindex>
        %cst_5 = arith.constant dense<24> : vector<4xindex>
        %cst_6 = arith.constant dense<16> : vector<4xindex>
        %cst_7 = arith.constant dense<8> : vector<4xindex>
        %cst_8 = arith.constant dense<0.000000e+00> : vector<4xf16>
        %cst_9 = arith.constant dense<79> : vector<4xindex>
        %cst_10 = arith.constant dense<79> : vector<8xindex>
        %cst_11 = arith.constant dense<[0, 1, 2, 3, 4, 5, 6, 7]> : vector<8xi32>
        %cst_12 = arith.constant dense<1073741823> : vector<8xindex>
        %c1024_i14 = arith.constant 1024 : i14
        %cst_13 = arith.constant dense<1024> : vector<8xindex>
        %c536870911 = arith.constant 536870911 : index
        %c2147483643_i32 = arith.constant 2147483643 : i32
        %c536870910 = arith.constant 536870910 : index
        %cst_14 = arith.constant dense<[0, 1, 2, 3]> : vector<4xindex>
        %c12 = arith.constant 12 : index
        %c80 = arith.constant 80 : index
        %c2147483645_i32 = arith.constant 2147483645 : i32
        %c1073741822 = arith.constant 1073741822 : index
        %c1 = arith.constant 1 : index
        %c144 = arith.constant 144 : index
        %c1024 = arith.constant 1024 : index
        %cst_15 = arith.constant dense<[0, 1, 2, 3, 4, 5, 6, 7]> : vector<8xindex>
        %c0 = arith.constant 0 : index
        %c23904 = arith.constant 23904 : index
        %cst_16 = arith.constant dense<0.000000e+00> : vector<16xf32>
        %block_id_x = gpu.block_id  x upper_bound 8
        %block_id_y = gpu.block_id  y upper_bound 13
        %thread_id_x = gpu.thread_id  x upper_bound 256
        %thread_id_y = gpu.thread_id  y upper_bound 2
        %alloc = memref.alloc() : memref<37184xi8, #gpu.address_space<workgroup>>
        %view = memref.view %alloc[%c23904][] : memref<37184xi8, #gpu.address_space<workgroup>> to memref<80x83xf16, #gpu.address_space<workgroup>>
        %view_17 = memref.view %alloc[%c0][] : memref<37184xi8, #gpu.address_space<workgroup>> to memref<144x83xf16, #gpu.address_space<workgroup>>
        %0 = stream.binding.subspan %arg0[%c0] : !stream.binding -> memref<1024x1024xf16, strided<[1024, 1], offset: ?>>
        %1 = affine.apply #map()[%thread_id_y, %thread_id_x]
        %2 = vector.broadcast %1 : index to vector<8xindex>
        %3 = arith.addi %2, %cst_15 overflow<nsw, nuw> : vector<8xindex>
        %4 = arith.cmpi slt, %3, %cst_13 : vector<8xindex>
        %5 = affine.apply #map1()[%block_id_x, %block_id_y]
        %6 = arith.maxsi %5, %c1 : index
        %7 = affine.apply #map2()[%thread_id_y, %thread_id_x, %block_id_x, %block_id_y, %6]
        %8 = arith.cmpi slt, %7, %c1024 : index
        %9 = vector.broadcast %8 : i1 to vector<8xi1>
        %10 = arith.andi %4, %9 : vector<8xi1>
        %11 = arith.muli %7, %c1024 overflow<nsw> : index
        %12 = arith.addi %11, %1 overflow<nsw> : index
        %base_buffer, %offset, %sizes:2, %strides:2 = memref.extract_strided_metadata %0 : memref<1024x1024xf16, strided<[1024, 1], offset: ?>> -> memref<f16>, index, index, index, index, index
        %reinterpret_cast = memref.reinterpret_cast %0 to offset: [%offset], sizes: [%c1073741822], strides: [1] : memref<1024x1024xf16, strided<[1024, 1], offset: ?>> to memref<?xf16, strided<[1], offset: ?>>
        %13 = amdgpu.fat_raw_buffer_cast %reinterpret_cast validBytes(%c2147483645_i32) cacheSwizzleStride(%c1024_i14) resetOffset : memref<?xf16, strided<[1], offset: ?>> to memref<?xf16, #amdgpu.address_space<fat_raw_buffer>>
        %14 = arith.index_cast %12 : index to i32
        %15 = vector.broadcast %14 : i32 to vector<8xi32>
        %16 = arith.addi %15, %cst_11 : vector<8xi32>
        %17 = arith.index_cast %16 : vector<8xi32> to vector<8xindex>
        %18 = arith.select %10, %17, %cst_12 : vector<8xi1>, vector<8xindex>
        %19 = vector.extract %18[0] : index from vector<8xindex>
        %20 = memref.load %13[%19] : memref<?xf16, #amdgpu.address_space<fat_raw_buffer>>
        %21 = vector.extract %18[1] : index from vector<8xindex>
        %22 = memref.load %13[%21] : memref<?xf16, #amdgpu.address_space<fat_raw_buffer>>
        %23 = vector.extract %18[2] : index from vector<8xindex>
        %24 = memref.load %13[%23] : memref<?xf16, #amdgpu.address_space<fat_raw_buffer>>
        %25 = vector.extract %18[3] : index from vector<8xindex>
        %26 = memref.load %13[%25] : memref<?xf16, #amdgpu.address_space<fat_raw_buffer>>
        %27 = vector.extract %18[4] : index from vector<8xindex>
        %28 = memref.load %13[%27] : memref<?xf16, #amdgpu.address_space<fat_raw_buffer>>
        %29 = vector.extract %18[5] : index from vector<8xindex>
        %30 = memref.load %13[%29] : memref<?xf16, #amdgpu.address_space<fat_raw_buffer>>
        %31 = vector.extract %18[6] : index from vector<8xindex>
        %32 = memref.load %13[%31] : memref<?xf16, #amdgpu.address_space<fat_raw_buffer>>
        %33 = vector.extract %18[7] : index from vector<8xindex>
        %34 = memref.load %13[%33] : memref<?xf16, #amdgpu.address_space<fat_raw_buffer>>
        %35 = vector.from_elements %20, %22, %24, %26, %28, %30, %32, %34 : vector<8xf16>
        %36 = affine.apply #map3()[%thread_id_y, %thread_id_x]
        %37 = vector.broadcast %36 : index to vector<8xindex>
        %38 = arith.addi %37, %cst_15 overflow<nsw, nuw> : vector<8xindex>
        %39 = arith.cmpi slt, %38, %cst_13 : vector<8xindex>
        %40 = affine.apply #map4()[%thread_id_y, %thread_id_x, %block_id_x, %block_id_y, %6]
        %41 = arith.cmpi slt, %40, %c1024 : index
        %42 = vector.broadcast %41 : i1 to vector<8xi1>
        %43 = arith.andi %39, %42 : vector<8xi1>
        %44 = arith.muli %40, %c1024 overflow<nsw> : index
        %45 = arith.addi %44, %36 overflow<nsw> : index
        %46 = arith.index_cast %45 : index to i32
        %47 = vector.broadcast %46 : i32 to vector<8xi32>
        %48 = arith.addi %47, %cst_11 : vector<8xi32>
        %49 = arith.index_cast %48 : vector<8xi32> to vector<8xindex>
        %50 = arith.select %43, %49, %cst_12 : vector<8xi1>, vector<8xindex>
        %51 = vector.extract %50[0] : index from vector<8xindex>
        %52 = memref.load %13[%51] : memref<?xf16, #amdgpu.address_space<fat_raw_buffer>>
        %53 = vector.extract %50[1] : index from vector<8xindex>
        %54 = memref.load %13[%53] : memref<?xf16, #amdgpu.address_space<fat_raw_buffer>>
        %55 = vector.extract %50[2] : index from vector<8xindex>
        %56 = memref.load %13[%55] : memref<?xf16, #amdgpu.address_space<fat_raw_buffer>>
        %57 = vector.extract %50[3] : index from vector<8xindex>
        %58 = memref.load %13[%57] : memref<?xf16, #amdgpu.address_space<fat_raw_buffer>>
        %59 = vector.extract %50[4] : index from vector<8xindex>
        %60 = memref.load %13[%59] : memref<?xf16, #amdgpu.address_space<fat_raw_buffer>>
        %61 = vector.extract %50[5] : index from vector<8xindex>
        %62 = memref.load %13[%61] : memref<?xf16, #amdgpu.address_space<fat_raw_buffer>>
        %63 = vector.extract %50[6] : index from vector<8xindex>
        %64 = memref.load %13[%63] : memref<?xf16, #amdgpu.address_space<fat_raw_buffer>>
        %65 = vector.extract %50[7] : index from vector<8xindex>
        %66 = memref.load %13[%65] : memref<?xf16, #amdgpu.address_space<fat_raw_buffer>>
        %67 = vector.from_elements %52, %54, %56, %58, %60, %62, %64, %66 : vector<8xf16>
        %68 = affine.apply #map5()[%thread_id_y, %thread_id_x]
        %69 = vector.broadcast %68 : index to vector<8xindex>
        %70 = arith.addi %69, %cst_15 overflow<nsw, nuw> : vector<8xindex>
        %71 = arith.cmpi slt, %70, %cst_13 : vector<8xindex>
        %72 = affine.apply #map6()[%thread_id_y, %thread_id_x, %block_id_x, %block_id_y, %6]
        %73 = arith.cmpi slt, %72, %c1024 : index
        %74 = vector.broadcast %73 : i1 to vector<8xi1>
        %75 = arith.andi %71, %74 : vector<8xi1>
        %76 = arith.muli %72, %c1024 overflow<nsw> : index
        %77 = arith.addi %76, %68 overflow<nsw> : index
        %78 = arith.index_cast %77 : index to i32
        %79 = vector.broadcast %78 : i32 to vector<8xi32>
        %80 = arith.addi %79, %cst_11 : vector<8xi32>
        %81 = arith.index_cast %80 : vector<8xi32> to vector<8xindex>
        %82 = arith.select %75, %81, %cst_12 : vector<8xi1>, vector<8xindex>
        %83 = vector.extract %82[0] : index from vector<8xindex>
        %84 = memref.load %13[%83] : memref<?xf16, #amdgpu.address_space<fat_raw_buffer>>
        %85 = vector.extract %82[1] : index from vector<8xindex>
        %86 = memref.load %13[%85] : memref<?xf16, #amdgpu.address_space<fat_raw_buffer>>
        %87 = vector.extract %82[2] : index from vector<8xindex>
        %88 = memref.load %13[%87] : memref<?xf16, #amdgpu.address_space<fat_raw_buffer>>
        %89 = vector.extract %82[3] : index from vector<8xindex>
        %90 = memref.load %13[%89] : memref<?xf16, #amdgpu.address_space<fat_raw_buffer>>
        %91 = vector.extract %82[4] : index from vector<8xindex>
        %92 = memref.load %13[%91] : memref<?xf16, #amdgpu.address_space<fat_raw_buffer>>
        %93 = vector.extract %82[5] : index from vector<8xindex>
        %94 = memref.load %13[%93] : memref<?xf16, #amdgpu.address_space<fat_raw_buffer>>
        %95 = vector.extract %82[6] : index from vector<8xindex>
        %96 = memref.load %13[%95] : memref<?xf16, #amdgpu.address_space<fat_raw_buffer>>
        %97 = vector.extract %82[7] : index from vector<8xindex>
        %98 = memref.load %13[%97] : memref<?xf16, #amdgpu.address_space<fat_raw_buffer>>
        %99 = vector.from_elements %84, %86, %88, %90, %92, %94, %96, %98 : vector<8xf16>
        %100 = stream.binding.subspan %arg1[%c0] : !stream.binding -> memref<1024x1024xf16, strided<[1024, 1], offset: ?>>
        %101 = affine.apply #map7()[%thread_id_y, %thread_id_x, %block_id_x, %block_id_y, %6]
        %102 = arith.cmpi slt, %101, %c1024 : index
        %103 = vector.broadcast %102 : i1 to vector<8xi1>
        %104 = arith.andi %4, %103 : vector<8xi1>
        %105 = arith.muli %101, %c1024 overflow<nsw> : index
        %106 = arith.addi %105, %1 overflow<nsw> : index
        %base_buffer_18, %offset_19, %sizes_20:2, %strides_21:2 = memref.extract_strided_metadata %100 : memref<1024x1024xf16, strided<[1024, 1], offset: ?>> -> memref<f16>, index, index, index, index, index
        %reinterpret_cast_22 = memref.reinterpret_cast %100 to offset: [%offset_19], sizes: [%c1073741822], strides: [1] : memref<1024x1024xf16, strided<[1024, 1], offset: ?>> to memref<?xf16, strided<[1], offset: ?>>
        %107 = amdgpu.fat_raw_buffer_cast %reinterpret_cast_22 validBytes(%c2147483645_i32) cacheSwizzleStride(%c1024_i14) resetOffset : memref<?xf16, strided<[1], offset: ?>> to memref<?xf16, #amdgpu.address_space<fat_raw_buffer>>
        %108 = arith.index_cast %106 : index to i32
        %109 = vector.broadcast %108 : i32 to vector<8xi32>
        %110 = arith.addi %109, %cst_11 : vector<8xi32>
        %111 = arith.index_cast %110 : vector<8xi32> to vector<8xindex>
        %112 = arith.select %104, %111, %cst_12 : vector<8xi1>, vector<8xindex>
        %113 = vector.extract %112[0] : index from vector<8xindex>
        %114 = memref.load %107[%113] : memref<?xf16, #amdgpu.address_space<fat_raw_buffer>>
        %115 = vector.extract %112[1] : index from vector<8xindex>
        %116 = memref.load %107[%115] : memref<?xf16, #amdgpu.address_space<fat_raw_buffer>>
        %117 = vector.extract %112[2] : index from vector<8xindex>
        %118 = memref.load %107[%117] : memref<?xf16, #amdgpu.address_space<fat_raw_buffer>>
        %119 = vector.extract %112[3] : index from vector<8xindex>
        %120 = memref.load %107[%119] : memref<?xf16, #amdgpu.address_space<fat_raw_buffer>>
        %121 = vector.extract %112[4] : index from vector<8xindex>
        %122 = memref.load %107[%121] : memref<?xf16, #amdgpu.address_space<fat_raw_buffer>>
        %123 = vector.extract %112[5] : index from vector<8xindex>
        %124 = memref.load %107[%123] : memref<?xf16, #amdgpu.address_space<fat_raw_buffer>>
        %125 = vector.extract %112[6] : index from vector<8xindex>
        %126 = memref.load %107[%125] : memref<?xf16, #amdgpu.address_space<fat_raw_buffer>>
        %127 = vector.extract %112[7] : index from vector<8xindex>
        %128 = memref.load %107[%127] : memref<?xf16, #amdgpu.address_space<fat_raw_buffer>>
        %129 = vector.from_elements %114, %116, %118, %120, %122, %124, %126, %128 : vector<8xf16>
        %130 = affine.apply #map8()[%thread_id_y, %thread_id_x, %block_id_x, %block_id_y, %6]
        %131 = arith.cmpi slt, %130, %c1024 : index
        %132 = vector.broadcast %131 : i1 to vector<8xi1>
        %133 = arith.andi %39, %132 : vector<8xi1>
        %134 = arith.muli %130, %c1024 overflow<nsw> : index
        %135 = arith.addi %134, %36 overflow<nsw> : index
        %136 = arith.index_cast %135 : index to i32
        %137 = vector.broadcast %136 : i32 to vector<8xi32>
        %138 = arith.addi %137, %cst_11 : vector<8xi32>
        %139 = arith.index_cast %138 : vector<8xi32> to vector<8xindex>
        %140 = arith.select %133, %139, %cst_12 : vector<8xi1>, vector<8xindex>
        %141 = vector.extract %140[0] : index from vector<8xindex>
        %142 = memref.load %107[%141] : memref<?xf16, #amdgpu.address_space<fat_raw_buffer>>
        %143 = vector.extract %140[1] : index from vector<8xindex>
        %144 = memref.load %107[%143] : memref<?xf16, #amdgpu.address_space<fat_raw_buffer>>
        %145 = vector.extract %140[2] : index from vector<8xindex>
        %146 = memref.load %107[%145] : memref<?xf16, #amdgpu.address_space<fat_raw_buffer>>
        %147 = vector.extract %140[3] : index from vector<8xindex>
        %148 = memref.load %107[%147] : memref<?xf16, #amdgpu.address_space<fat_raw_buffer>>
        %149 = vector.extract %140[4] : index from vector<8xindex>
        %150 = memref.load %107[%149] : memref<?xf16, #amdgpu.address_space<fat_raw_buffer>>
        %151 = vector.extract %140[5] : index from vector<8xindex>
        %152 = memref.load %107[%151] : memref<?xf16, #amdgpu.address_space<fat_raw_buffer>>
        %153 = vector.extract %140[6] : index from vector<8xindex>
        %154 = memref.load %107[%153] : memref<?xf16, #amdgpu.address_space<fat_raw_buffer>>
        %155 = vector.extract %140[7] : index from vector<8xindex>
        %156 = memref.load %107[%155] : memref<?xf16, #amdgpu.address_space<fat_raw_buffer>>
        %157 = vector.from_elements %142, %144, %146, %148, %150, %152, %154, %156 : vector<8xf16>
        %158 = arith.cmpi slt, %3, %cst_10 : vector<8xindex>
        %159 = affine.apply #map9()[%thread_id_x]
        %160 = arith.minsi %159, %c144 : index
        %161 = affine.apply #map10()[%thread_id_y, %thread_id_x]
        %162 = arith.cmpi slt, %161, %160 : index
        %163 = vector.broadcast %162 : i1 to vector<8xi1>
        %164 = arith.andi %158, %163 : vector<8xi1>
        vector.maskedstore %view_17[%161, %1], %164, %35 : memref<144x83xf16, #gpu.address_space<workgroup>>, vector<8xi1>, vector<8xf16>
        %165 = arith.cmpi slt, %38, %cst_10 : vector<8xindex>
        %166 = affine.apply #map11()[%thread_id_y, %thread_id_x]
        %167 = arith.cmpi slt, %166, %160 : index
        %168 = vector.broadcast %167 : i1 to vector<8xi1>
        %169 = arith.andi %165, %168 : vector<8xi1>
        vector.maskedstore %view_17[%166, %36], %169, %67 : memref<144x83xf16, #gpu.address_space<workgroup>>, vector<8xi1>, vector<8xf16>
        %170 = arith.cmpi slt, %70, %cst_10 : vector<8xindex>
        %171 = affine.apply #map12()[%thread_id_y, %thread_id_x]
        %172 = arith.cmpi slt, %171, %160 : index
        %173 = vector.broadcast %172 : i1 to vector<8xi1>
        %174 = arith.andi %170, %173 : vector<8xi1>
        vector.maskedstore %view_17[%171, %68], %174, %99 : memref<144x83xf16, #gpu.address_space<workgroup>>, vector<8xi1>, vector<8xf16>
        %175 = affine.apply #map13()[%thread_id_y]
        %176 = arith.minsi %175, %c80 : index
        %177 = affine.apply #map14()[%thread_id_y, %thread_id_x]
        %178 = arith.cmpi slt, %177, %176 : index
        %179 = vector.broadcast %178 : i1 to vector<8xi1>
        %180 = arith.andi %158, %179 : vector<8xi1>
        vector.maskedstore %view[%177, %1], %180, %129 : memref<80x83xf16, #gpu.address_space<workgroup>>, vector<8xi1>, vector<8xf16>
        %181 = affine.apply #map15()[%thread_id_y, %thread_id_x]
        %182 = arith.cmpi slt, %181, %176 : index
        %183 = vector.broadcast %182 : i1 to vector<8xi1>
        %184 = arith.andi %165, %183 : vector<8xi1>
        vector.maskedstore %view[%181, %36], %184, %157 : memref<80x83xf16, #gpu.address_space<workgroup>>, vector<8xi1>, vector<8xf16>
        %185 = affine.apply #map16()[%thread_id_x]
        %186 = vector.broadcast %185 : index to vector<4xindex>
        %187 = arith.addi %186, %cst_14 overflow<nsw, nuw> : vector<4xindex>
        %188 = arith.cmpi slt, %187, %cst_9 : vector<4xindex>
        %189 = affine.apply #map17()[%thread_id_x, %thread_id_y]
        %190 = arith.cmpi slt, %189, %176 : index
        %191 = vector.broadcast %190 : i1 to vector<4xi1>
        %192 = arith.andi %188, %191 : vector<4xi1>
        %193 = arith.addi %187, %cst_7 overflow<nsw, nuw> : vector<4xindex>
        %194 = arith.cmpi slt, %193, %cst_9 : vector<4xindex>
        %195 = arith.andi %194, %191 : vector<4xi1>
        %196 = affine.apply #map18()[%thread_id_x]
        %197 = arith.addi %187, %cst_6 overflow<nsw, nuw> : vector<4xindex>
        %198 = arith.cmpi slt, %197, %cst_9 : vector<4xindex>
        %199 = arith.andi %198, %191 : vector<4xi1>
        %200 = affine.apply #map19()[%thread_id_x]
        %201 = arith.addi %187, %cst_5 overflow<nsw, nuw> : vector<4xindex>
        %202 = arith.cmpi slt, %201, %cst_9 : vector<4xindex>
        %203 = arith.andi %202, %191 : vector<4xi1>
        %204 = affine.apply #map20()[%thread_id_x]
        %205 = arith.addi %187, %cst_4 overflow<nsw, nuw> : vector<4xindex>
        %206 = arith.cmpi slt, %205, %cst_9 : vector<4xindex>
        %207 = arith.andi %206, %191 : vector<4xi1>
        %208 = affine.apply #map21()[%thread_id_x]
        %209 = arith.addi %187, %cst_3 overflow<nsw, nuw> : vector<4xindex>
        %210 = arith.cmpi slt, %209, %cst_9 : vector<4xindex>
        %211 = arith.andi %210, %191 : vector<4xi1>
        %212 = affine.apply #map22()[%thread_id_x]
        %213 = arith.addi %187, %cst_2 overflow<nsw, nuw> : vector<4xindex>
        %214 = arith.cmpi slt, %213, %cst_9 : vector<4xindex>
        %215 = arith.andi %214, %191 : vector<4xi1>
        %216 = affine.apply #map23()[%thread_id_x]
        %217 = arith.addi %187, %cst_1 overflow<nsw, nuw> : vector<4xindex>
        %218 = arith.cmpi slt, %217, %cst_9 : vector<4xindex>
        %219 = arith.andi %218, %191 : vector<4xi1>
        %220 = affine.apply #map24()[%thread_id_x]
        %221 = arith.addi %187, %cst_0 overflow<nsw, nuw> : vector<4xindex>
        %222 = arith.cmpi slt, %221, %cst_9 : vector<4xindex>
        %223 = arith.andi %222, %191 : vector<4xi1>
        %224 = affine.apply #map25()[%thread_id_x]
        %225 = arith.addi %187, %cst overflow<nsw, nuw> : vector<4xindex>
        %226 = arith.cmpi slt, %225, %cst_9 : vector<4xindex>
        %227 = arith.andi %226, %191 : vector<4xi1>
        %228 = affine.apply #map26()[%thread_id_x]
        %229 = affine.apply #map27()[%thread_id_x, %thread_id_y]
        %230 = arith.cmpi slt, %229, %176 : index
        %231 = vector.broadcast %230 : i1 to vector<4xi1>
        %232 = arith.andi %188, %231 : vector<4xi1>
        %233 = arith.andi %194, %231 : vector<4xi1>
        %234 = arith.andi %198, %231 : vector<4xi1>
        %235 = arith.andi %202, %231 : vector<4xi1>
        %236 = arith.andi %206, %231 : vector<4xi1>
        %237 = arith.andi %210, %231 : vector<4xi1>
        %238 = arith.andi %214, %231 : vector<4xi1>
        %239 = arith.andi %218, %231 : vector<4xi1>
        %240 = arith.andi %222, %231 : vector<4xi1>
        %241 = arith.andi %226, %231 : vector<4xi1>
        %242 = affine.apply #map28()[%thread_id_x]
        %243 = arith.cmpi slt, %242, %160 : index
        %244 = vector.broadcast %243 : i1 to vector<4xi1>
        %245 = arith.andi %188, %244 : vector<4xi1>
        %246 = arith.andi %194, %244 : vector<4xi1>
        %247 = arith.andi %198, %244 : vector<4xi1>
        %248 = arith.andi %202, %244 : vector<4xi1>
        %249 = arith.andi %206, %244 : vector<4xi1>
        %250 = arith.andi %210, %244 : vector<4xi1>
        %251 = arith.andi %214, %244 : vector<4xi1>
        %252 = arith.andi %218, %244 : vector<4xi1>
        %253 = arith.andi %222, %244 : vector<4xi1>
        %254 = arith.andi %226, %244 : vector<4xi1>
        %255 = affine.apply #map29()[%thread_id_x]
        %256 = arith.cmpi slt, %255, %160 : index
        %257 = vector.broadcast %256 : i1 to vector<4xi1>
        %258 = arith.andi %188, %257 : vector<4xi1>
        %259 = arith.andi %194, %257 : vector<4xi1>
        %260 = arith.andi %198, %257 : vector<4xi1>
        %261 = arith.andi %202, %257 : vector<4xi1>
        %262 = arith.andi %206, %257 : vector<4xi1>
        %263 = arith.andi %210, %257 : vector<4xi1>
        %264 = arith.andi %214, %257 : vector<4xi1>
        %265 = arith.andi %218, %257 : vector<4xi1>
        %266 = arith.andi %222, %257 : vector<4xi1>
        %267 = arith.andi %226, %257 : vector<4xi1>
        %268:4 = scf.for %arg3 = %c0 to %c12 step %c1 iter_args(%arg4 = %cst_16, %arg5 = %cst_16, %arg6 = %cst_16, %arg7 = %cst_16) -> (vector<16xf32>, vector<16xf32>, vector<16xf32>, vector<16xf32>) {
          amdgpu.lds_barrier
          %835 = vector.maskedload %view[%189, %185], %192, %cst_8 : memref<80x83xf16, #gpu.address_space<workgroup>>, vector<4xi1>, vector<4xf16> into vector<4xf16>
          %836 = vector.maskedload %view[%189, %196], %195, %cst_8 : memref<80x83xf16, #gpu.address_space<workgroup>>, vector<4xi1>, vector<4xf16> into vector<4xf16>
          %837 = vector.maskedload %view[%189, %200], %199, %cst_8 : memref<80x83xf16, #gpu.address_space<workgroup>>, vector<4xi1>, vector<4xf16> into vector<4xf16>
          %838 = vector.maskedload %view[%189, %204], %203, %cst_8 : memref<80x83xf16, #gpu.address_space<workgroup>>, vector<4xi1>, vector<4xf16> into vector<4xf16>
          %839 = vector.maskedload %view[%189, %208], %207, %cst_8 : memref<80x83xf16, #gpu.address_space<workgroup>>, vector<4xi1>, vector<4xf16> into vector<4xf16>
          %840 = vector.maskedload %view[%189, %212], %211, %cst_8 : memref<80x83xf16, #gpu.address_space<workgroup>>, vector<4xi1>, vector<4xf16> into vector<4xf16>
          %841 = vector.maskedload %view[%189, %216], %215, %cst_8 : memref<80x83xf16, #gpu.address_space<workgroup>>, vector<4xi1>, vector<4xf16> into vector<4xf16>
          %842 = vector.maskedload %view[%189, %220], %219, %cst_8 : memref<80x83xf16, #gpu.address_space<workgroup>>, vector<4xi1>, vector<4xf16> into vector<4xf16>
          %843 = vector.maskedload %view[%189, %224], %223, %cst_8 : memref<80x83xf16, #gpu.address_space<workgroup>>, vector<4xi1>, vector<4xf16> into vector<4xf16>
          %844 = vector.maskedload %view[%189, %228], %227, %cst_8 : memref<80x83xf16, #gpu.address_space<workgroup>>, vector<4xi1>, vector<4xf16> into vector<4xf16>
          %845 = vector.maskedload %view[%229, %185], %232, %cst_8 : memref<80x83xf16, #gpu.address_space<workgroup>>, vector<4xi1>, vector<4xf16> into vector<4xf16>
          %846 = vector.maskedload %view[%229, %196], %233, %cst_8 : memref<80x83xf16, #gpu.address_space<workgroup>>, vector<4xi1>, vector<4xf16> into vector<4xf16>
          %847 = vector.maskedload %view[%229, %200], %234, %cst_8 : memref<80x83xf16, #gpu.address_space<workgroup>>, vector<4xi1>, vector<4xf16> into vector<4xf16>
          %848 = vector.maskedload %view[%229, %204], %235, %cst_8 : memref<80x83xf16, #gpu.address_space<workgroup>>, vector<4xi1>, vector<4xf16> into vector<4xf16>
          %849 = vector.maskedload %view[%229, %208], %236, %cst_8 : memref<80x83xf16, #gpu.address_space<workgroup>>, vector<4xi1>, vector<4xf16> into vector<4xf16>
          %850 = vector.maskedload %view[%229, %212], %237, %cst_8 : memref<80x83xf16, #gpu.address_space<workgroup>>, vector<4xi1>, vector<4xf16> into vector<4xf16>
          %851 = vector.maskedload %view[%229, %216], %238, %cst_8 : memref<80x83xf16, #gpu.address_space<workgroup>>, vector<4xi1>, vector<4xf16> into vector<4xf16>
          %852 = vector.maskedload %view[%229, %220], %239, %cst_8 : memref<80x83xf16, #gpu.address_space<workgroup>>, vector<4xi1>, vector<4xf16> into vector<4xf16>
          %853 = vector.maskedload %view[%229, %224], %240, %cst_8 : memref<80x83xf16, #gpu.address_space<workgroup>>, vector<4xi1>, vector<4xf16> into vector<4xf16>
          %854 = vector.maskedload %view[%229, %228], %241, %cst_8 : memref<80x83xf16, #gpu.address_space<workgroup>>, vector<4xi1>, vector<4xf16> into vector<4xf16>
          %855 = vector.maskedload %view_17[%242, %185], %245, %cst_8 : memref<144x83xf16, #gpu.address_space<workgroup>>, vector<4xi1>, vector<4xf16> into vector<4xf16>
          %856 = vector.maskedload %view_17[%242, %196], %246, %cst_8 : memref<144x83xf16, #gpu.address_space<workgroup>>, vector<4xi1>, vector<4xf16> into vector<4xf16>
          %857 = vector.maskedload %view_17[%242, %200], %247, %cst_8 : memref<144x83xf16, #gpu.address_space<workgroup>>, vector<4xi1>, vector<4xf16> into vector<4xf16>
          %858 = vector.maskedload %view_17[%242, %204], %248, %cst_8 : memref<144x83xf16, #gpu.address_space<workgroup>>, vector<4xi1>, vector<4xf16> into vector<4xf16>
          %859 = vector.maskedload %view_17[%242, %208], %249, %cst_8 : memref<144x83xf16, #gpu.address_space<workgroup>>, vector<4xi1>, vector<4xf16> into vector<4xf16>
          %860 = vector.maskedload %view_17[%242, %212], %250, %cst_8 : memref<144x83xf16, #gpu.address_space<workgroup>>, vector<4xi1>, vector<4xf16> into vector<4xf16>
          %861 = vector.maskedload %view_17[%242, %216], %251, %cst_8 : memref<144x83xf16, #gpu.address_space<workgroup>>, vector<4xi1>, vector<4xf16> into vector<4xf16>
          %862 = vector.maskedload %view_17[%242, %220], %252, %cst_8 : memref<144x83xf16, #gpu.address_space<workgroup>>, vector<4xi1>, vector<4xf16> into vector<4xf16>
          %863 = vector.maskedload %view_17[%242, %224], %253, %cst_8 : memref<144x83xf16, #gpu.address_space<workgroup>>, vector<4xi1>, vector<4xf16> into vector<4xf16>
          %864 = vector.maskedload %view_17[%242, %228], %254, %cst_8 : memref<144x83xf16, #gpu.address_space<workgroup>>, vector<4xi1>, vector<4xf16> into vector<4xf16>
          %865 = vector.maskedload %view_17[%255, %185], %258, %cst_8 : memref<144x83xf16, #gpu.address_space<workgroup>>, vector<4xi1>, vector<4xf16> into vector<4xf16>
          %866 = vector.maskedload %view_17[%255, %196], %259, %cst_8 : memref<144x83xf16, #gpu.address_space<workgroup>>, vector<4xi1>, vector<4xf16> into vector<4xf16>
          %867 = vector.maskedload %view_17[%255, %200], %260, %cst_8 : memref<144x83xf16, #gpu.address_space<workgroup>>, vector<4xi1>, vector<4xf16> into vector<4xf16>
          %868 = vector.maskedload %view_17[%255, %204], %261, %cst_8 : memref<144x83xf16, #gpu.address_space<workgroup>>, vector<4xi1>, vector<4xf16> into vector<4xf16>
          %869 = vector.maskedload %view_17[%255, %208], %262, %cst_8 : memref<144x83xf16, #gpu.address_space<workgroup>>, vector<4xi1>, vector<4xf16> into vector<4xf16>
          %870 = vector.maskedload %view_17[%255, %212], %263, %cst_8 : memref<144x83xf16, #gpu.address_space<workgroup>>, vector<4xi1>, vector<4xf16> into vector<4xf16>
          %871 = vector.maskedload %view_17[%255, %216], %264, %cst_8 : memref<144x83xf16, #gpu.address_space<workgroup>>, vector<4xi1>, vector<4xf16> into vector<4xf16>
          %872 = vector.maskedload %view_17[%255, %220], %265, %cst_8 : memref<144x83xf16, #gpu.address_space<workgroup>>, vector<4xi1>, vector<4xf16> into vector<4xf16>
          %873 = vector.maskedload %view_17[%255, %224], %266, %cst_8 : memref<144x83xf16, #gpu.address_space<workgroup>>, vector<4xi1>, vector<4xf16> into vector<4xf16>
          %874 = vector.maskedload %view_17[%255, %228], %267, %cst_8 : memref<144x83xf16, #gpu.address_space<workgroup>>, vector<4xi1>, vector<4xf16> into vector<4xf16>
          %875 = affine.apply #map30()[%thread_id_y, %thread_id_x, %arg3]
          %876 = vector.broadcast %875 : index to vector<8xindex>
          %877 = arith.addi %876, %cst_15 overflow<nsw, nuw> : vector<8xindex>
          %878 = arith.addi %877, %cst_10 overflow<nsw, nuw> : vector<8xindex>
          %879 = arith.cmpi slt, %878, %cst_13 : vector<8xindex>
          %880 = arith.andi %879, %9 : vector<8xi1>
          %881 = affine.apply #map31()[%thread_id_y, %thread_id_x, %arg3]
          %882 = arith.addi %11, %881 overflow<nsw> : index
          %883 = arith.index_cast %882 : index to i32
          %884 = vector.broadcast %883 : i32 to vector<8xi32>
          %885 = arith.addi %884, %cst_11 : vector<8xi32>
          %886 = arith.index_cast %885 : vector<8xi32> to vector<8xindex>
          %887 = arith.select %880, %886, %cst_12 : vector<8xi1>, vector<8xindex>
          %888 = vector.extract %887[0] : index from vector<8xindex>
          %889 = memref.load %13[%888] : memref<?xf16, #amdgpu.address_space<fat_raw_buffer>>
          %890 = vector.extract %887[1] : index from vector<8xindex>
          %891 = memref.load %13[%890] : memref<?xf16, #amdgpu.address_space<fat_raw_buffer>>
          %892 = vector.extract %887[2] : index from vector<8xindex>
          %893 = memref.load %13[%892] : memref<?xf16, #amdgpu.address_space<fat_raw_buffer>>
          %894 = vector.extract %887[3] : index from vector<8xindex>
          %895 = memref.load %13[%894] : memref<?xf16, #amdgpu.address_space<fat_raw_buffer>>
          %896 = vector.extract %887[4] : index from vector<8xindex>
          %897 = memref.load %13[%896] : memref<?xf16, #amdgpu.address_space<fat_raw_buffer>>
          %898 = vector.extract %887[5] : index from vector<8xindex>
          %899 = memref.load %13[%898] : memref<?xf16, #amdgpu.address_space<fat_raw_buffer>>
          %900 = vector.extract %887[6] : index from vector<8xindex>
          %901 = memref.load %13[%900] : memref<?xf16, #amdgpu.address_space<fat_raw_buffer>>
          %902 = vector.extract %887[7] : index from vector<8xindex>
          %903 = memref.load %13[%902] : memref<?xf16, #amdgpu.address_space<fat_raw_buffer>>
          %904 = vector.from_elements %889, %891, %893, %895, %897, %899, %901, %903 : vector<8xf16>
          %905 = affine.apply #map32()[%thread_id_y, %thread_id_x, %arg3]
          %906 = vector.broadcast %905 : index to vector<8xindex>
          %907 = arith.addi %906, %cst_15 overflow<nsw, nuw> : vector<8xindex>
          %908 = arith.addi %907, %cst_10 overflow<nsw, nuw> : vector<8xindex>
          %909 = arith.cmpi slt, %908, %cst_13 : vector<8xindex>
          %910 = arith.andi %909, %42 : vector<8xi1>
          %911 = affine.apply #map33()[%thread_id_y, %thread_id_x, %arg3]
          %912 = arith.addi %44, %911 overflow<nsw> : index
          %913 = arith.index_cast %912 : index to i32
          %914 = vector.broadcast %913 : i32 to vector<8xi32>
          %915 = arith.addi %914, %cst_11 : vector<8xi32>
          %916 = arith.index_cast %915 : vector<8xi32> to vector<8xindex>
          %917 = arith.select %910, %916, %cst_12 : vector<8xi1>, vector<8xindex>
          %918 = vector.extract %917[0] : index from vector<8xindex>
          %919 = memref.load %13[%918] : memref<?xf16, #amdgpu.address_space<fat_raw_buffer>>
          %920 = vector.extract %917[1] : index from vector<8xindex>
          %921 = memref.load %13[%920] : memref<?xf16, #amdgpu.address_space<fat_raw_buffer>>
          %922 = vector.extract %917[2] : index from vector<8xindex>
          %923 = memref.load %13[%922] : memref<?xf16, #amdgpu.address_space<fat_raw_buffer>>
          %924 = vector.extract %917[3] : index from vector<8xindex>
          %925 = memref.load %13[%924] : memref<?xf16, #amdgpu.address_space<fat_raw_buffer>>
          %926 = vector.extract %917[4] : index from vector<8xindex>
          %927 = memref.load %13[%926] : memref<?xf16, #amdgpu.address_space<fat_raw_buffer>>
          %928 = vector.extract %917[5] : index from vector<8xindex>
          %929 = memref.load %13[%928] : memref<?xf16, #amdgpu.address_space<fat_raw_buffer>>
          %930 = vector.extract %917[6] : index from vector<8xindex>
          %931 = memref.load %13[%930] : memref<?xf16, #amdgpu.address_space<fat_raw_buffer>>
          %932 = vector.extract %917[7] : index from vector<8xindex>
          %933 = memref.load %13[%932] : memref<?xf16, #amdgpu.address_space<fat_raw_buffer>>
          %934 = vector.from_elements %919, %921, %923, %925, %927, %929, %931, %933 : vector<8xf16>
          %935 = affine.apply #map34()[%thread_id_y, %thread_id_x, %arg3]
          %936 = vector.broadcast %935 : index to vector<8xindex>
          %937 = arith.addi %936, %cst_15 overflow<nsw, nuw> : vector<8xindex>
          %938 = arith.addi %937, %cst_10 overflow<nsw, nuw> : vector<8xindex>
          %939 = arith.cmpi slt, %938, %cst_13 : vector<8xindex>
          %940 = arith.andi %939, %74 : vector<8xi1>
          %941 = affine.apply #map35()[%thread_id_y, %thread_id_x, %arg3]
          %942 = arith.addi %76, %941 overflow<nsw> : index
          %943 = arith.index_cast %942 : index to i32
          %944 = vector.broadcast %943 : i32 to vector<8xi32>
          %945 = arith.addi %944, %cst_11 : vector<8xi32>
          %946 = arith.index_cast %945 : vector<8xi32> to vector<8xindex>
          %947 = arith.select %940, %946, %cst_12 : vector<8xi1>, vector<8xindex>
          %948 = vector.extract %947[0] : index from vector<8xindex>
          %949 = memref.load %13[%948] : memref<?xf16, #amdgpu.address_space<fat_raw_buffer>>
          %950 = vector.extract %947[1] : index from vector<8xindex>
          %951 = memref.load %13[%950] : memref<?xf16, #amdgpu.address_space<fat_raw_buffer>>
          %952 = vector.extract %947[2] : index from vector<8xindex>
          %953 = memref.load %13[%952] : memref<?xf16, #amdgpu.address_space<fat_raw_buffer>>
          %954 = vector.extract %947[3] : index from vector<8xindex>
          %955 = memref.load %13[%954] : memref<?xf16, #amdgpu.address_space<fat_raw_buffer>>
          %956 = vector.extract %947[4] : index from vector<8xindex>
          %957 = memref.load %13[%956] : memref<?xf16, #amdgpu.address_space<fat_raw_buffer>>
          %958 = vector.extract %947[5] : index from vector<8xindex>
          %959 = memref.load %13[%958] : memref<?xf16, #amdgpu.address_space<fat_raw_buffer>>
          %960 = vector.extract %947[6] : index from vector<8xindex>
          %961 = memref.load %13[%960] : memref<?xf16, #amdgpu.address_space<fat_raw_buffer>>
          %962 = vector.extract %947[7] : index from vector<8xindex>
          %963 = memref.load %13[%962] : memref<?xf16, #amdgpu.address_space<fat_raw_buffer>>
          %964 = vector.from_elements %949, %951, %953, %955, %957, %959, %961, %963 : vector<8xf16>
          %965 = arith.andi %879, %103 : vector<8xi1>
          %966 = arith.addi %105, %881 overflow<nsw> : index
          %967 = arith.index_cast %966 : index to i32
          %968 = vector.broadcast %967 : i32 to vector<8xi32>
          %969 = arith.addi %968, %cst_11 : vector<8xi32>
          %970 = arith.index_cast %969 : vector<8xi32> to vector<8xindex>
          %971 = arith.select %965, %970, %cst_12 : vector<8xi1>, vector<8xindex>
          %972 = vector.extract %971[0] : index from vector<8xindex>
          %973 = memref.load %107[%972] : memref<?xf16, #amdgpu.address_space<fat_raw_buffer>>
          %974 = vector.extract %971[1] : index from vector<8xindex>
          %975 = memref.load %107[%974] : memref<?xf16, #amdgpu.address_space<fat_raw_buffer>>
          %976 = vector.extract %971[2] : index from vector<8xindex>
          %977 = memref.load %107[%976] : memref<?xf16, #amdgpu.address_space<fat_raw_buffer>>
          %978 = vector.extract %971[3] : index from vector<8xindex>
          %979 = memref.load %107[%978] : memref<?xf16, #amdgpu.address_space<fat_raw_buffer>>
          %980 = vector.extract %971[4] : index from vector<8xindex>
          %981 = memref.load %107[%980] : memref<?xf16, #amdgpu.address_space<fat_raw_buffer>>
          %982 = vector.extract %971[5] : index from vector<8xindex>
          %983 = memref.load %107[%982] : memref<?xf16, #amdgpu.address_space<fat_raw_buffer>>
          %984 = vector.extract %971[6] : index from vector<8xindex>
          %985 = memref.load %107[%984] : memref<?xf16, #amdgpu.address_space<fat_raw_buffer>>
          %986 = vector.extract %971[7] : index from vector<8xindex>
          %987 = memref.load %107[%986] : memref<?xf16, #amdgpu.address_space<fat_raw_buffer>>
          %988 = vector.from_elements %973, %975, %977, %979, %981, %983, %985, %987 : vector<8xf16>
          %989 = arith.andi %909, %132 : vector<8xi1>
          %990 = arith.addi %134, %911 overflow<nsw> : index
          %991 = arith.index_cast %990 : index to i32
          %992 = vector.broadcast %991 : i32 to vector<8xi32>
          %993 = arith.addi %992, %cst_11 : vector<8xi32>
          %994 = arith.index_cast %993 : vector<8xi32> to vector<8xindex>
          %995 = arith.select %989, %994, %cst_12 : vector<8xi1>, vector<8xindex>
          %996 = vector.extract %995[0] : index from vector<8xindex>
          %997 = memref.load %107[%996] : memref<?xf16, #amdgpu.address_space<fat_raw_buffer>>
          %998 = vector.extract %995[1] : index from vector<8xindex>
          %999 = memref.load %107[%998] : memref<?xf16, #amdgpu.address_space<fat_raw_buffer>>
          %1000 = vector.extract %995[2] : index from vector<8xindex>
          %1001 = memref.load %107[%1000] : memref<?xf16, #amdgpu.address_space<fat_raw_buffer>>
          %1002 = vector.extract %995[3] : index from vector<8xindex>
          %1003 = memref.load %107[%1002] : memref<?xf16, #amdgpu.address_space<fat_raw_buffer>>
          %1004 = vector.extract %995[4] : index from vector<8xindex>
          %1005 = memref.load %107[%1004] : memref<?xf16, #amdgpu.address_space<fat_raw_buffer>>
          %1006 = vector.extract %995[5] : index from vector<8xindex>
          %1007 = memref.load %107[%1006] : memref<?xf16, #amdgpu.address_space<fat_raw_buffer>>
          %1008 = vector.extract %995[6] : index from vector<8xindex>
          %1009 = memref.load %107[%1008] : memref<?xf16, #amdgpu.address_space<fat_raw_buffer>>
          %1010 = vector.extract %995[7] : index from vector<8xindex>
          %1011 = memref.load %107[%1010] : memref<?xf16, #amdgpu.address_space<fat_raw_buffer>>
          %1012 = vector.from_elements %997, %999, %1001, %1003, %1005, %1007, %1009, %1011 : vector<8xf16>
          %1013 = amdgpu.mfma %855 * %835 + %arg4 {blocks = 1 : i32, k = 8 : i32, m = 32 : i32, n = 32 : i32} blgp =  none : vector<4xf16>, vector<4xf16>, vector<16xf32>
          %1014 = amdgpu.mfma %856 * %836 + %1013 {blocks = 1 : i32, k = 8 : i32, m = 32 : i32, n = 32 : i32} blgp =  none : vector<4xf16>, vector<4xf16>, vector<16xf32>
          %1015 = amdgpu.mfma %857 * %837 + %1014 {blocks = 1 : i32, k = 8 : i32, m = 32 : i32, n = 32 : i32} blgp =  none : vector<4xf16>, vector<4xf16>, vector<16xf32>
          %1016 = amdgpu.mfma %858 * %838 + %1015 {blocks = 1 : i32, k = 8 : i32, m = 32 : i32, n = 32 : i32} blgp =  none : vector<4xf16>, vector<4xf16>, vector<16xf32>
          %1017 = amdgpu.mfma %859 * %839 + %1016 {blocks = 1 : i32, k = 8 : i32, m = 32 : i32, n = 32 : i32} blgp =  none : vector<4xf16>, vector<4xf16>, vector<16xf32>
          %1018 = amdgpu.mfma %860 * %840 + %1017 {blocks = 1 : i32, k = 8 : i32, m = 32 : i32, n = 32 : i32} blgp =  none : vector<4xf16>, vector<4xf16>, vector<16xf32>
          %1019 = amdgpu.mfma %861 * %841 + %1018 {blocks = 1 : i32, k = 8 : i32, m = 32 : i32, n = 32 : i32} blgp =  none : vector<4xf16>, vector<4xf16>, vector<16xf32>
          %1020 = amdgpu.mfma %862 * %842 + %1019 {blocks = 1 : i32, k = 8 : i32, m = 32 : i32, n = 32 : i32} blgp =  none : vector<4xf16>, vector<4xf16>, vector<16xf32>
          %1021 = amdgpu.mfma %863 * %843 + %1020 {blocks = 1 : i32, k = 8 : i32, m = 32 : i32, n = 32 : i32} blgp =  none : vector<4xf16>, vector<4xf16>, vector<16xf32>
          %1022 = amdgpu.mfma %864 * %844 + %1021 {blocks = 1 : i32, k = 8 : i32, m = 32 : i32, n = 32 : i32} blgp =  none : vector<4xf16>, vector<4xf16>, vector<16xf32>
          %1023 = amdgpu.mfma %855 * %845 + %arg5 {blocks = 1 : i32, k = 8 : i32, m = 32 : i32, n = 32 : i32} blgp =  none : vector<4xf16>, vector<4xf16>, vector<16xf32>
          %1024 = amdgpu.mfma %856 * %846 + %1023 {blocks = 1 : i32, k = 8 : i32, m = 32 : i32, n = 32 : i32} blgp =  none : vector<4xf16>, vector<4xf16>, vector<16xf32>
          %1025 = amdgpu.mfma %857 * %847 + %1024 {blocks = 1 : i32, k = 8 : i32, m = 32 : i32, n = 32 : i32} blgp =  none : vector<4xf16>, vector<4xf16>, vector<16xf32>
          %1026 = amdgpu.mfma %858 * %848 + %1025 {blocks = 1 : i32, k = 8 : i32, m = 32 : i32, n = 32 : i32} blgp =  none : vector<4xf16>, vector<4xf16>, vector<16xf32>
          %1027 = amdgpu.mfma %859 * %849 + %1026 {blocks = 1 : i32, k = 8 : i32, m = 32 : i32, n = 32 : i32} blgp =  none : vector<4xf16>, vector<4xf16>, vector<16xf32>
          %1028 = amdgpu.mfma %860 * %850 + %1027 {blocks = 1 : i32, k = 8 : i32, m = 32 : i32, n = 32 : i32} blgp =  none : vector<4xf16>, vector<4xf16>, vector<16xf32>
          %1029 = amdgpu.mfma %861 * %851 + %1028 {blocks = 1 : i32, k = 8 : i32, m = 32 : i32, n = 32 : i32} blgp =  none : vector<4xf16>, vector<4xf16>, vector<16xf32>
          %1030 = amdgpu.mfma %862 * %852 + %1029 {blocks = 1 : i32, k = 8 : i32, m = 32 : i32, n = 32 : i32} blgp =  none : vector<4xf16>, vector<4xf16>, vector<16xf32>
          %1031 = amdgpu.mfma %863 * %853 + %1030 {blocks = 1 : i32, k = 8 : i32, m = 32 : i32, n = 32 : i32} blgp =  none : vector<4xf16>, vector<4xf16>, vector<16xf32>
          %1032 = amdgpu.mfma %864 * %854 + %1031 {blocks = 1 : i32, k = 8 : i32, m = 32 : i32, n = 32 : i32} blgp =  none : vector<4xf16>, vector<4xf16>, vector<16xf32>
          %1033 = amdgpu.mfma %865 * %835 + %arg6 {blocks = 1 : i32, k = 8 : i32, m = 32 : i32, n = 32 : i32} blgp =  none : vector<4xf16>, vector<4xf16>, vector<16xf32>
          %1034 = amdgpu.mfma %866 * %836 + %1033 {blocks = 1 : i32, k = 8 : i32, m = 32 : i32, n = 32 : i32} blgp =  none : vector<4xf16>, vector<4xf16>, vector<16xf32>
          %1035 = amdgpu.mfma %867 * %837 + %1034 {blocks = 1 : i32, k = 8 : i32, m = 32 : i32, n = 32 : i32} blgp =  none : vector<4xf16>, vector<4xf16>, vector<16xf32>
          %1036 = amdgpu.mfma %868 * %838 + %1035 {blocks = 1 : i32, k = 8 : i32, m = 32 : i32, n = 32 : i32} blgp =  none : vector<4xf16>, vector<4xf16>, vector<16xf32>
          %1037 = amdgpu.mfma %869 * %839 + %1036 {blocks = 1 : i32, k = 8 : i32, m = 32 : i32, n = 32 : i32} blgp =  none : vector<4xf16>, vector<4xf16>, vector<16xf32>
          %1038 = amdgpu.mfma %870 * %840 + %1037 {blocks = 1 : i32, k = 8 : i32, m = 32 : i32, n = 32 : i32} blgp =  none : vector<4xf16>, vector<4xf16>, vector<16xf32>
          %1039 = amdgpu.mfma %871 * %841 + %1038 {blocks = 1 : i32, k = 8 : i32, m = 32 : i32, n = 32 : i32} blgp =  none : vector<4xf16>, vector<4xf16>, vector<16xf32>
          %1040 = amdgpu.mfma %872 * %842 + %1039 {blocks = 1 : i32, k = 8 : i32, m = 32 : i32, n = 32 : i32} blgp =  none : vector<4xf16>, vector<4xf16>, vector<16xf32>
          %1041 = amdgpu.mfma %873 * %843 + %1040 {blocks = 1 : i32, k = 8 : i32, m = 32 : i32, n = 32 : i32} blgp =  none : vector<4xf16>, vector<4xf16>, vector<16xf32>
          %1042 = amdgpu.mfma %874 * %844 + %1041 {blocks = 1 : i32, k = 8 : i32, m = 32 : i32, n = 32 : i32} blgp =  none : vector<4xf16>, vector<4xf16>, vector<16xf32>
          %1043 = amdgpu.mfma %865 * %845 + %arg7 {blocks = 1 : i32, k = 8 : i32, m = 32 : i32, n = 32 : i32} blgp =  none : vector<4xf16>, vector<4xf16>, vector<16xf32>
          %1044 = amdgpu.mfma %866 * %846 + %1043 {blocks = 1 : i32, k = 8 : i32, m = 32 : i32, n = 32 : i32} blgp =  none : vector<4xf16>, vector<4xf16>, vector<16xf32>
          %1045 = amdgpu.mfma %867 * %847 + %1044 {blocks = 1 : i32, k = 8 : i32, m = 32 : i32, n = 32 : i32} blgp =  none : vector<4xf16>, vector<4xf16>, vector<16xf32>
          %1046 = amdgpu.mfma %868 * %848 + %1045 {blocks = 1 : i32, k = 8 : i32, m = 32 : i32, n = 32 : i32} blgp =  none : vector<4xf16>, vector<4xf16>, vector<16xf32>
          %1047 = amdgpu.mfma %869 * %849 + %1046 {blocks = 1 : i32, k = 8 : i32, m = 32 : i32, n = 32 : i32} blgp =  none : vector<4xf16>, vector<4xf16>, vector<16xf32>
          %1048 = amdgpu.mfma %870 * %850 + %1047 {blocks = 1 : i32, k = 8 : i32, m = 32 : i32, n = 32 : i32} blgp =  none : vector<4xf16>, vector<4xf16>, vector<16xf32>
          %1049 = amdgpu.mfma %871 * %851 + %1048 {blocks = 1 : i32, k = 8 : i32, m = 32 : i32, n = 32 : i32} blgp =  none : vector<4xf16>, vector<4xf16>, vector<16xf32>
          %1050 = amdgpu.mfma %872 * %852 + %1049 {blocks = 1 : i32, k = 8 : i32, m = 32 : i32, n = 32 : i32} blgp =  none : vector<4xf16>, vector<4xf16>, vector<16xf32>
          %1051 = amdgpu.mfma %873 * %853 + %1050 {blocks = 1 : i32, k = 8 : i32, m = 32 : i32, n = 32 : i32} blgp =  none : vector<4xf16>, vector<4xf16>, vector<16xf32>
          %1052 = amdgpu.mfma %874 * %854 + %1051 {blocks = 1 : i32, k = 8 : i32, m = 32 : i32, n = 32 : i32} blgp =  none : vector<4xf16>, vector<4xf16>, vector<16xf32>
          amdgpu.lds_barrier
          vector.maskedstore %view_17[%161, %1], %164, %904 : memref<144x83xf16, #gpu.address_space<workgroup>>, vector<8xi1>, vector<8xf16>
          vector.maskedstore %view_17[%166, %36], %169, %934 : memref<144x83xf16, #gpu.address_space<workgroup>>, vector<8xi1>, vector<8xf16>
          vector.maskedstore %view_17[%171, %68], %174, %964 : memref<144x83xf16, #gpu.address_space<workgroup>>, vector<8xi1>, vector<8xf16>
          vector.maskedstore %view[%177, %1], %180, %988 : memref<80x83xf16, #gpu.address_space<workgroup>>, vector<8xi1>, vector<8xf16>
          vector.maskedstore %view[%181, %36], %184, %1012 : memref<80x83xf16, #gpu.address_space<workgroup>>, vector<8xi1>, vector<8xf16>
          scf.yield %1022, %1032, %1042, %1052 : vector<16xf32>, vector<16xf32>, vector<16xf32>, vector<16xf32>
        }
        amdgpu.lds_barrier
        %269 = affine.apply #map16()[%thread_id_x]
        %270 = vector.broadcast %269 : index to vector<4xindex>
        %271 = arith.addi %270, %cst_14 overflow<nsw, nuw> : vector<4xindex>
        %272 = arith.cmpi slt, %271, %cst_9 : vector<4xindex>
        %273 = affine.apply #map17()[%thread_id_x, %thread_id_y]
        %274 = arith.cmpi slt, %273, %176 : index
        %275 = vector.broadcast %274 : i1 to vector<4xi1>
        %276 = arith.andi %272, %275 : vector<4xi1>
        %277 = vector.maskedload %view[%273, %269], %276, %cst_8 : memref<80x83xf16, #gpu.address_space<workgroup>>, vector<4xi1>, vector<4xf16> into vector<4xf16>
        %278 = arith.addi %271, %cst_7 overflow<nsw, nuw> : vector<4xindex>
        %279 = arith.cmpi slt, %278, %cst_9 : vector<4xindex>
        %280 = arith.andi %279, %275 : vector<4xi1>
        %281 = affine.apply #map18()[%thread_id_x]
        %282 = vector.maskedload %view[%273, %281], %280, %cst_8 : memref<80x83xf16, #gpu.address_space<workgroup>>, vector<4xi1>, vector<4xf16> into vector<4xf16>
        %283 = arith.addi %271, %cst_6 overflow<nsw, nuw> : vector<4xindex>
        %284 = arith.cmpi slt, %283, %cst_9 : vector<4xindex>
        %285 = arith.andi %284, %275 : vector<4xi1>
        %286 = affine.apply #map19()[%thread_id_x]
        %287 = vector.maskedload %view[%273, %286], %285, %cst_8 : memref<80x83xf16, #gpu.address_space<workgroup>>, vector<4xi1>, vector<4xf16> into vector<4xf16>
        %288 = arith.addi %271, %cst_5 overflow<nsw, nuw> : vector<4xindex>
        %289 = arith.cmpi slt, %288, %cst_9 : vector<4xindex>
        %290 = arith.andi %289, %275 : vector<4xi1>
        %291 = affine.apply #map20()[%thread_id_x]
        %292 = vector.maskedload %view[%273, %291], %290, %cst_8 : memref<80x83xf16, #gpu.address_space<workgroup>>, vector<4xi1>, vector<4xf16> into vector<4xf16>
        %293 = arith.addi %271, %cst_4 overflow<nsw, nuw> : vector<4xindex>
        %294 = arith.cmpi slt, %293, %cst_9 : vector<4xindex>
        %295 = arith.andi %294, %275 : vector<4xi1>
        %296 = affine.apply #map21()[%thread_id_x]
        %297 = vector.maskedload %view[%273, %296], %295, %cst_8 : memref<80x83xf16, #gpu.address_space<workgroup>>, vector<4xi1>, vector<4xf16> into vector<4xf16>
        %298 = arith.addi %271, %cst_3 overflow<nsw, nuw> : vector<4xindex>
        %299 = arith.cmpi slt, %298, %cst_9 : vector<4xindex>
        %300 = arith.andi %299, %275 : vector<4xi1>
        %301 = affine.apply #map22()[%thread_id_x]
        %302 = vector.maskedload %view[%273, %301], %300, %cst_8 : memref<80x83xf16, #gpu.address_space<workgroup>>, vector<4xi1>, vector<4xf16> into vector<4xf16>
        %303 = arith.addi %271, %cst_2 overflow<nsw, nuw> : vector<4xindex>
        %304 = arith.cmpi slt, %303, %cst_9 : vector<4xindex>
        %305 = arith.andi %304, %275 : vector<4xi1>
        %306 = affine.apply #map23()[%thread_id_x]
        %307 = vector.maskedload %view[%273, %306], %305, %cst_8 : memref<80x83xf16, #gpu.address_space<workgroup>>, vector<4xi1>, vector<4xf16> into vector<4xf16>
        %308 = arith.addi %271, %cst_1 overflow<nsw, nuw> : vector<4xindex>
        %309 = arith.cmpi slt, %308, %cst_9 : vector<4xindex>
        %310 = arith.andi %309, %275 : vector<4xi1>
        %311 = affine.apply #map24()[%thread_id_x]
        %312 = vector.maskedload %view[%273, %311], %310, %cst_8 : memref<80x83xf16, #gpu.address_space<workgroup>>, vector<4xi1>, vector<4xf16> into vector<4xf16>
        %313 = arith.addi %271, %cst_0 overflow<nsw, nuw> : vector<4xindex>
        %314 = arith.cmpi slt, %313, %cst_9 : vector<4xindex>
        %315 = arith.andi %314, %275 : vector<4xi1>
        %316 = affine.apply #map25()[%thread_id_x]
        %317 = vector.maskedload %view[%273, %316], %315, %cst_8 : memref<80x83xf16, #gpu.address_space<workgroup>>, vector<4xi1>, vector<4xf16> into vector<4xf16>
        %318 = arith.addi %271, %cst overflow<nsw, nuw> : vector<4xindex>
        %319 = arith.cmpi slt, %318, %cst_9 : vector<4xindex>
        %320 = arith.andi %319, %275 : vector<4xi1>
        %321 = affine.apply #map26()[%thread_id_x]
        %322 = vector.maskedload %view[%273, %321], %320, %cst_8 : memref<80x83xf16, #gpu.address_space<workgroup>>, vector<4xi1>, vector<4xf16> into vector<4xf16>
        %323 = affine.apply #map27()[%thread_id_x, %thread_id_y]
        %324 = arith.cmpi slt, %323, %176 : index
        %325 = vector.broadcast %324 : i1 to vector<4xi1>
        %326 = arith.andi %272, %325 : vector<4xi1>
        %327 = vector.maskedload %view[%323, %269], %326, %cst_8 : memref<80x83xf16, #gpu.address_space<workgroup>>, vector<4xi1>, vector<4xf16> into vector<4xf16>
        %328 = arith.andi %279, %325 : vector<4xi1>
        %329 = vector.maskedload %view[%323, %281], %328, %cst_8 : memref<80x83xf16, #gpu.address_space<workgroup>>, vector<4xi1>, vector<4xf16> into vector<4xf16>
        %330 = arith.andi %284, %325 : vector<4xi1>
        %331 = vector.maskedload %view[%323, %286], %330, %cst_8 : memref<80x83xf16, #gpu.address_space<workgroup>>, vector<4xi1>, vector<4xf16> into vector<4xf16>
        %332 = arith.andi %289, %325 : vector<4xi1>
        %333 = vector.maskedload %view[%323, %291], %332, %cst_8 : memref<80x83xf16, #gpu.address_space<workgroup>>, vector<4xi1>, vector<4xf16> into vector<4xf16>
        %334 = arith.andi %294, %325 : vector<4xi1>
        %335 = vector.maskedload %view[%323, %296], %334, %cst_8 : memref<80x83xf16, #gpu.address_space<workgroup>>, vector<4xi1>, vector<4xf16> into vector<4xf16>
        %336 = arith.andi %299, %325 : vector<4xi1>
        %337 = vector.maskedload %view[%323, %301], %336, %cst_8 : memref<80x83xf16, #gpu.address_space<workgroup>>, vector<4xi1>, vector<4xf16> into vector<4xf16>
        %338 = arith.andi %304, %325 : vector<4xi1>
        %339 = vector.maskedload %view[%323, %306], %338, %cst_8 : memref<80x83xf16, #gpu.address_space<workgroup>>, vector<4xi1>, vector<4xf16> into vector<4xf16>
        %340 = arith.andi %309, %325 : vector<4xi1>
        %341 = vector.maskedload %view[%323, %311], %340, %cst_8 : memref<80x83xf16, #gpu.address_space<workgroup>>, vector<4xi1>, vector<4xf16> into vector<4xf16>
        %342 = arith.andi %314, %325 : vector<4xi1>
        %343 = vector.maskedload %view[%323, %316], %342, %cst_8 : memref<80x83xf16, #gpu.address_space<workgroup>>, vector<4xi1>, vector<4xf16> into vector<4xf16>
        %344 = arith.andi %319, %325 : vector<4xi1>
        %345 = vector.maskedload %view[%323, %321], %344, %cst_8 : memref<80x83xf16, #gpu.address_space<workgroup>>, vector<4xi1>, vector<4xf16> into vector<4xf16>
        %346 = affine.apply #map28()[%thread_id_x]
        %347 = arith.cmpi slt, %346, %160 : index
        %348 = vector.broadcast %347 : i1 to vector<4xi1>
        %349 = arith.andi %272, %348 : vector<4xi1>
        %350 = vector.maskedload %view_17[%346, %269], %349, %cst_8 : memref<144x83xf16, #gpu.address_space<workgroup>>, vector<4xi1>, vector<4xf16> into vector<4xf16>
        %351 = arith.andi %279, %348 : vector<4xi1>
        %352 = vector.maskedload %view_17[%346, %281], %351, %cst_8 : memref<144x83xf16, #gpu.address_space<workgroup>>, vector<4xi1>, vector<4xf16> into vector<4xf16>
        %353 = arith.andi %284, %348 : vector<4xi1>
        %354 = vector.maskedload %view_17[%346, %286], %353, %cst_8 : memref<144x83xf16, #gpu.address_space<workgroup>>, vector<4xi1>, vector<4xf16> into vector<4xf16>
        %355 = arith.andi %289, %348 : vector<4xi1>
        %356 = vector.maskedload %view_17[%346, %291], %355, %cst_8 : memref<144x83xf16, #gpu.address_space<workgroup>>, vector<4xi1>, vector<4xf16> into vector<4xf16>
        %357 = arith.andi %294, %348 : vector<4xi1>
        %358 = vector.maskedload %view_17[%346, %296], %357, %cst_8 : memref<144x83xf16, #gpu.address_space<workgroup>>, vector<4xi1>, vector<4xf16> into vector<4xf16>
        %359 = arith.andi %299, %348 : vector<4xi1>
        %360 = vector.maskedload %view_17[%346, %301], %359, %cst_8 : memref<144x83xf16, #gpu.address_space<workgroup>>, vector<4xi1>, vector<4xf16> into vector<4xf16>
        %361 = arith.andi %304, %348 : vector<4xi1>
        %362 = vector.maskedload %view_17[%346, %306], %361, %cst_8 : memref<144x83xf16, #gpu.address_space<workgroup>>, vector<4xi1>, vector<4xf16> into vector<4xf16>
        %363 = arith.andi %309, %348 : vector<4xi1>
        %364 = vector.maskedload %view_17[%346, %311], %363, %cst_8 : memref<144x83xf16, #gpu.address_space<workgroup>>, vector<4xi1>, vector<4xf16> into vector<4xf16>
        %365 = arith.andi %314, %348 : vector<4xi1>
        %366 = vector.maskedload %view_17[%346, %316], %365, %cst_8 : memref<144x83xf16, #gpu.address_space<workgroup>>, vector<4xi1>, vector<4xf16> into vector<4xf16>
        %367 = arith.andi %319, %348 : vector<4xi1>
        %368 = vector.maskedload %view_17[%346, %321], %367, %cst_8 : memref<144x83xf16, #gpu.address_space<workgroup>>, vector<4xi1>, vector<4xf16> into vector<4xf16>
        %369 = affine.apply #map29()[%thread_id_x]
        %370 = arith.cmpi slt, %369, %160 : index
        %371 = vector.broadcast %370 : i1 to vector<4xi1>
        %372 = arith.andi %272, %371 : vector<4xi1>
        %373 = vector.maskedload %view_17[%369, %269], %372, %cst_8 : memref<144x83xf16, #gpu.address_space<workgroup>>, vector<4xi1>, vector<4xf16> into vector<4xf16>
        %374 = arith.andi %279, %371 : vector<4xi1>
        %375 = vector.maskedload %view_17[%369, %281], %374, %cst_8 : memref<144x83xf16, #gpu.address_space<workgroup>>, vector<4xi1>, vector<4xf16> into vector<4xf16>
        %376 = arith.andi %284, %371 : vector<4xi1>
        %377 = vector.maskedload %view_17[%369, %286], %376, %cst_8 : memref<144x83xf16, #gpu.address_space<workgroup>>, vector<4xi1>, vector<4xf16> into vector<4xf16>
        %378 = arith.andi %289, %371 : vector<4xi1>
        %379 = vector.maskedload %view_17[%369, %291], %378, %cst_8 : memref<144x83xf16, #gpu.address_space<workgroup>>, vector<4xi1>, vector<4xf16> into vector<4xf16>
        %380 = arith.andi %294, %371 : vector<4xi1>
        %381 = vector.maskedload %view_17[%369, %296], %380, %cst_8 : memref<144x83xf16, #gpu.address_space<workgroup>>, vector<4xi1>, vector<4xf16> into vector<4xf16>
        %382 = arith.andi %299, %371 : vector<4xi1>
        %383 = vector.maskedload %view_17[%369, %301], %382, %cst_8 : memref<144x83xf16, #gpu.address_space<workgroup>>, vector<4xi1>, vector<4xf16> into vector<4xf16>
        %384 = arith.andi %304, %371 : vector<4xi1>
        %385 = vector.maskedload %view_17[%369, %306], %384, %cst_8 : memref<144x83xf16, #gpu.address_space<workgroup>>, vector<4xi1>, vector<4xf16> into vector<4xf16>
        %386 = arith.andi %309, %371 : vector<4xi1>
        %387 = vector.maskedload %view_17[%369, %311], %386, %cst_8 : memref<144x83xf16, #gpu.address_space<workgroup>>, vector<4xi1>, vector<4xf16> into vector<4xf16>
        %388 = arith.andi %314, %371 : vector<4xi1>
        %389 = vector.maskedload %view_17[%369, %316], %388, %cst_8 : memref<144x83xf16, #gpu.address_space<workgroup>>, vector<4xi1>, vector<4xf16> into vector<4xf16>
        %390 = arith.andi %319, %371 : vector<4xi1>
        %391 = vector.maskedload %view_17[%369, %321], %390, %cst_8 : memref<144x83xf16, #gpu.address_space<workgroup>>, vector<4xi1>, vector<4xf16> into vector<4xf16>
        %392 = amdgpu.mfma %350 * %277 + %268#0 {blocks = 1 : i32, k = 8 : i32, m = 32 : i32, n = 32 : i32} blgp =  none : vector<4xf16>, vector<4xf16>, vector<16xf32>
        %393 = amdgpu.mfma %352 * %282 + %392 {blocks = 1 : i32, k = 8 : i32, m = 32 : i32, n = 32 : i32} blgp =  none : vector<4xf16>, vector<4xf16>, vector<16xf32>
        %394 = amdgpu.mfma %354 * %287 + %393 {blocks = 1 : i32, k = 8 : i32, m = 32 : i32, n = 32 : i32} blgp =  none : vector<4xf16>, vector<4xf16>, vector<16xf32>
        %395 = amdgpu.mfma %356 * %292 + %394 {blocks = 1 : i32, k = 8 : i32, m = 32 : i32, n = 32 : i32} blgp =  none : vector<4xf16>, vector<4xf16>, vector<16xf32>
        %396 = amdgpu.mfma %358 * %297 + %395 {blocks = 1 : i32, k = 8 : i32, m = 32 : i32, n = 32 : i32} blgp =  none : vector<4xf16>, vector<4xf16>, vector<16xf32>
        %397 = amdgpu.mfma %360 * %302 + %396 {blocks = 1 : i32, k = 8 : i32, m = 32 : i32, n = 32 : i32} blgp =  none : vector<4xf16>, vector<4xf16>, vector<16xf32>
        %398 = amdgpu.mfma %362 * %307 + %397 {blocks = 1 : i32, k = 8 : i32, m = 32 : i32, n = 32 : i32} blgp =  none : vector<4xf16>, vector<4xf16>, vector<16xf32>
        %399 = amdgpu.mfma %364 * %312 + %398 {blocks = 1 : i32, k = 8 : i32, m = 32 : i32, n = 32 : i32} blgp =  none : vector<4xf16>, vector<4xf16>, vector<16xf32>
        %400 = amdgpu.mfma %366 * %317 + %399 {blocks = 1 : i32, k = 8 : i32, m = 32 : i32, n = 32 : i32} blgp =  none : vector<4xf16>, vector<4xf16>, vector<16xf32>
        %401 = amdgpu.mfma %368 * %322 + %400 {blocks = 1 : i32, k = 8 : i32, m = 32 : i32, n = 32 : i32} blgp =  none : vector<4xf16>, vector<4xf16>, vector<16xf32>
        %402 = amdgpu.mfma %350 * %327 + %268#1 {blocks = 1 : i32, k = 8 : i32, m = 32 : i32, n = 32 : i32} blgp =  none : vector<4xf16>, vector<4xf16>, vector<16xf32>
        %403 = amdgpu.mfma %352 * %329 + %402 {blocks = 1 : i32, k = 8 : i32, m = 32 : i32, n = 32 : i32} blgp =  none : vector<4xf16>, vector<4xf16>, vector<16xf32>
        %404 = amdgpu.mfma %354 * %331 + %403 {blocks = 1 : i32, k = 8 : i32, m = 32 : i32, n = 32 : i32} blgp =  none : vector<4xf16>, vector<4xf16>, vector<16xf32>
        %405 = amdgpu.mfma %356 * %333 + %404 {blocks = 1 : i32, k = 8 : i32, m = 32 : i32, n = 32 : i32} blgp =  none : vector<4xf16>, vector<4xf16>, vector<16xf32>
        %406 = amdgpu.mfma %358 * %335 + %405 {blocks = 1 : i32, k = 8 : i32, m = 32 : i32, n = 32 : i32} blgp =  none : vector<4xf16>, vector<4xf16>, vector<16xf32>
        %407 = amdgpu.mfma %360 * %337 + %406 {blocks = 1 : i32, k = 8 : i32, m = 32 : i32, n = 32 : i32} blgp =  none : vector<4xf16>, vector<4xf16>, vector<16xf32>
        %408 = amdgpu.mfma %362 * %339 + %407 {blocks = 1 : i32, k = 8 : i32, m = 32 : i32, n = 32 : i32} blgp =  none : vector<4xf16>, vector<4xf16>, vector<16xf32>
        %409 = amdgpu.mfma %364 * %341 + %408 {blocks = 1 : i32, k = 8 : i32, m = 32 : i32, n = 32 : i32} blgp =  none : vector<4xf16>, vector<4xf16>, vector<16xf32>
        %410 = amdgpu.mfma %366 * %343 + %409 {blocks = 1 : i32, k = 8 : i32, m = 32 : i32, n = 32 : i32} blgp =  none : vector<4xf16>, vector<4xf16>, vector<16xf32>
        %411 = amdgpu.mfma %368 * %345 + %410 {blocks = 1 : i32, k = 8 : i32, m = 32 : i32, n = 32 : i32} blgp =  none : vector<4xf16>, vector<4xf16>, vector<16xf32>
        %412 = amdgpu.mfma %373 * %277 + %268#2 {blocks = 1 : i32, k = 8 : i32, m = 32 : i32, n = 32 : i32} blgp =  none : vector<4xf16>, vector<4xf16>, vector<16xf32>
        %413 = amdgpu.mfma %375 * %282 + %412 {blocks = 1 : i32, k = 8 : i32, m = 32 : i32, n = 32 : i32} blgp =  none : vector<4xf16>, vector<4xf16>, vector<16xf32>
        %414 = amdgpu.mfma %377 * %287 + %413 {blocks = 1 : i32, k = 8 : i32, m = 32 : i32, n = 32 : i32} blgp =  none : vector<4xf16>, vector<4xf16>, vector<16xf32>
        %415 = amdgpu.mfma %379 * %292 + %414 {blocks = 1 : i32, k = 8 : i32, m = 32 : i32, n = 32 : i32} blgp =  none : vector<4xf16>, vector<4xf16>, vector<16xf32>
        %416 = amdgpu.mfma %381 * %297 + %415 {blocks = 1 : i32, k = 8 : i32, m = 32 : i32, n = 32 : i32} blgp =  none : vector<4xf16>, vector<4xf16>, vector<16xf32>
        %417 = amdgpu.mfma %383 * %302 + %416 {blocks = 1 : i32, k = 8 : i32, m = 32 : i32, n = 32 : i32} blgp =  none : vector<4xf16>, vector<4xf16>, vector<16xf32>
        %418 = amdgpu.mfma %385 * %307 + %417 {blocks = 1 : i32, k = 8 : i32, m = 32 : i32, n = 32 : i32} blgp =  none : vector<4xf16>, vector<4xf16>, vector<16xf32>
        %419 = amdgpu.mfma %387 * %312 + %418 {blocks = 1 : i32, k = 8 : i32, m = 32 : i32, n = 32 : i32} blgp =  none : vector<4xf16>, vector<4xf16>, vector<16xf32>
        %420 = amdgpu.mfma %389 * %317 + %419 {blocks = 1 : i32, k = 8 : i32, m = 32 : i32, n = 32 : i32} blgp =  none : vector<4xf16>, vector<4xf16>, vector<16xf32>
        %421 = amdgpu.mfma %391 * %322 + %420 {blocks = 1 : i32, k = 8 : i32, m = 32 : i32, n = 32 : i32} blgp =  none : vector<4xf16>, vector<4xf16>, vector<16xf32>
        %422 = amdgpu.mfma %373 * %327 + %268#3 {blocks = 1 : i32, k = 8 : i32, m = 32 : i32, n = 32 : i32} blgp =  none : vector<4xf16>, vector<4xf16>, vector<16xf32>
        %423 = amdgpu.mfma %375 * %329 + %422 {blocks = 1 : i32, k = 8 : i32, m = 32 : i32, n = 32 : i32} blgp =  none : vector<4xf16>, vector<4xf16>, vector<16xf32>
        %424 = amdgpu.mfma %377 * %331 + %423 {blocks = 1 : i32, k = 8 : i32, m = 32 : i32, n = 32 : i32} blgp =  none : vector<4xf16>, vector<4xf16>, vector<16xf32>
        %425 = amdgpu.mfma %379 * %333 + %424 {blocks = 1 : i32, k = 8 : i32, m = 32 : i32, n = 32 : i32} blgp =  none : vector<4xf16>, vector<4xf16>, vector<16xf32>
        %426 = amdgpu.mfma %381 * %335 + %425 {blocks = 1 : i32, k = 8 : i32, m = 32 : i32, n = 32 : i32} blgp =  none : vector<4xf16>, vector<4xf16>, vector<16xf32>
        %427 = amdgpu.mfma %383 * %337 + %426 {blocks = 1 : i32, k = 8 : i32, m = 32 : i32, n = 32 : i32} blgp =  none : vector<4xf16>, vector<4xf16>, vector<16xf32>
        %428 = amdgpu.mfma %385 * %339 + %427 {blocks = 1 : i32, k = 8 : i32, m = 32 : i32, n = 32 : i32} blgp =  none : vector<4xf16>, vector<4xf16>, vector<16xf32>
        %429 = amdgpu.mfma %387 * %341 + %428 {blocks = 1 : i32, k = 8 : i32, m = 32 : i32, n = 32 : i32} blgp =  none : vector<4xf16>, vector<4xf16>, vector<16xf32>
        %430 = amdgpu.mfma %389 * %343 + %429 {blocks = 1 : i32, k = 8 : i32, m = 32 : i32, n = 32 : i32} blgp =  none : vector<4xf16>, vector<4xf16>, vector<16xf32>
        %431 = amdgpu.mfma %391 * %345 + %430 {blocks = 1 : i32, k = 8 : i32, m = 32 : i32, n = 32 : i32} blgp =  none : vector<4xf16>, vector<4xf16>, vector<16xf32>
        %432 = vector.extract_strided_slice %401 {offsets = [0], sizes = [1], strides = [1]} : vector<16xf32> to vector<1xf32>
        %433 = stream.binding.subspan %arg2[%c0] : !stream.binding -> memref<1024x1024xf32, strided<[1024, 1], offset: ?>>
        %434 = affine.apply #map36()[%block_id_y, %thread_id_y]
        %435 = affine.apply #map37()[%block_id_y]
        %436 = arith.minsi %434, %435 : index
        %437 = arith.minsi %436, %c1024 : index
        %438 = affine.apply #map38()[%thread_id_x, %block_id_x, %block_id_y, %6, %thread_id_y]
        %439 = arith.cmpi slt, %438, %437 : index
        %440 = affine.apply #map39()[%block_id_x, %thread_id_x]
        %441 = affine.apply #map40()[%block_id_x]
        %442 = arith.minsi %440, %441 : index
        %443 = arith.minsi %442, %c1024 : index
        %444 = affine.apply #map41()[%block_id_x, %block_id_y, %6, %thread_id_x]
        %445 = arith.cmpi slt, %444, %443 : index
        %446 = arith.andi %439, %445 : i1
        %447 = affine.apply #map42()[%block_id_x, %block_id_y, %6]
        %448 = affine.apply #map43()[%block_id_x, %block_id_y, %6]
        %449 = affine.apply #map44()[%thread_id_x]
        %450 = arith.muli %447, %c1024 overflow<nsw> : index
        %451 = arith.muli %449, %c1024 overflow<nsw> : index
        %452 = arith.addi %450, %448 overflow<nsw> : index
        %453 = arith.addi %451, %273 overflow<nsw> : index
        %base_buffer_23, %offset_24, %sizes_25:2, %strides_26:2 = memref.extract_strided_metadata %433 : memref<1024x1024xf32, strided<[1024, 1], offset: ?>> -> memref<f32>, index, index, index, index, index
        %454 = arith.addi %452, %offset_24 overflow<nsw> : index
        %reinterpret_cast_27 = memref.reinterpret_cast %433 to offset: [%454], sizes: [%c536870910], strides: [1] : memref<1024x1024xf32, strided<[1024, 1], offset: ?>> to memref<?xf32, strided<[1], offset: ?>>
        %455 = amdgpu.fat_raw_buffer_cast %reinterpret_cast_27 validBytes(%c2147483643_i32) cacheSwizzleStride(%c1024_i14) resetOffset : memref<?xf32, strided<[1], offset: ?>> to memref<?xf32, #amdgpu.address_space<fat_raw_buffer>>
        %456 = arith.select %446, %453, %c536870911 : index
        vector.store %432, %455[%456] : memref<?xf32, #amdgpu.address_space<fat_raw_buffer>>, vector<1xf32>
        %457 = vector.extract_strided_slice %401 {offsets = [1], sizes = [1], strides = [1]} : vector<16xf32> to vector<1xf32>
        %458 = affine.apply #map45()[%block_id_x, %block_id_y, %6, %thread_id_x]
        %459 = arith.cmpi slt, %458, %443 : index
        %460 = arith.andi %439, %459 : i1
        %461 = affine.apply #map46()[%thread_id_x]
        %462 = arith.muli %461, %c1024 overflow<nsw> : index
        %463 = arith.addi %462, %273 overflow<nsw> : index
        %464 = arith.select %460, %463, %c536870911 : index
        vector.store %457, %455[%464] : memref<?xf32, #amdgpu.address_space<fat_raw_buffer>>, vector<1xf32>
        %465 = vector.extract_strided_slice %401 {offsets = [2], sizes = [1], strides = [1]} : vector<16xf32> to vector<1xf32>
        %466 = affine.apply #map47()[%block_id_x, %block_id_y, %6, %thread_id_x]
        %467 = arith.cmpi slt, %466, %443 : index
        %468 = arith.andi %439, %467 : i1
        %469 = affine.apply #map48()[%thread_id_x]
        %470 = arith.muli %469, %c1024 overflow<nsw> : index
        %471 = arith.addi %470, %273 overflow<nsw> : index
        %472 = arith.select %468, %471, %c536870911 : index
        vector.store %465, %455[%472] : memref<?xf32, #amdgpu.address_space<fat_raw_buffer>>, vector<1xf32>
        %473 = vector.extract_strided_slice %401 {offsets = [3], sizes = [1], strides = [1]} : vector<16xf32> to vector<1xf32>
        %474 = affine.apply #map49()[%block_id_x, %block_id_y, %6, %thread_id_x]
        %475 = arith.cmpi slt, %474, %443 : index
        %476 = arith.andi %439, %475 : i1
        %477 = affine.apply #map50()[%thread_id_x]
        %478 = arith.muli %477, %c1024 overflow<nsw> : index
        %479 = arith.addi %478, %273 overflow<nsw> : index
        %480 = arith.select %476, %479, %c536870911 : index
        vector.store %473, %455[%480] : memref<?xf32, #amdgpu.address_space<fat_raw_buffer>>, vector<1xf32>
        %481 = vector.extract_strided_slice %401 {offsets = [4], sizes = [1], strides = [1]} : vector<16xf32> to vector<1xf32>
        %482 = affine.apply #map51()[%block_id_x, %block_id_y, %6, %thread_id_x]
        %483 = arith.cmpi slt, %482, %443 : index
        %484 = arith.andi %439, %483 : i1
        %485 = affine.apply #map52()[%thread_id_x]
        %486 = arith.muli %485, %c1024 overflow<nsw> : index
        %487 = arith.addi %486, %273 overflow<nsw> : index
        %488 = arith.select %484, %487, %c536870911 : index
        vector.store %481, %455[%488] : memref<?xf32, #amdgpu.address_space<fat_raw_buffer>>, vector<1xf32>
        %489 = vector.extract_strided_slice %401 {offsets = [5], sizes = [1], strides = [1]} : vector<16xf32> to vector<1xf32>
        %490 = affine.apply #map53()[%block_id_x, %block_id_y, %6, %thread_id_x]
        %491 = arith.cmpi slt, %490, %443 : index
        %492 = arith.andi %439, %491 : i1
        %493 = affine.apply #map54()[%thread_id_x]
        %494 = arith.muli %493, %c1024 overflow<nsw> : index
        %495 = arith.addi %494, %273 overflow<nsw> : index
        %496 = arith.select %492, %495, %c536870911 : index
        vector.store %489, %455[%496] : memref<?xf32, #amdgpu.address_space<fat_raw_buffer>>, vector<1xf32>
        %497 = vector.extract_strided_slice %401 {offsets = [6], sizes = [1], strides = [1]} : vector<16xf32> to vector<1xf32>
        %498 = affine.apply #map55()[%block_id_x, %block_id_y, %6, %thread_id_x]
        %499 = arith.cmpi slt, %498, %443 : index
        %500 = arith.andi %439, %499 : i1
        %501 = affine.apply #map56()[%thread_id_x]
        %502 = arith.muli %501, %c1024 overflow<nsw> : index
        %503 = arith.addi %502, %273 overflow<nsw> : index
        %504 = arith.select %500, %503, %c536870911 : index
        vector.store %497, %455[%504] : memref<?xf32, #amdgpu.address_space<fat_raw_buffer>>, vector<1xf32>
        %505 = vector.extract_strided_slice %401 {offsets = [7], sizes = [1], strides = [1]} : vector<16xf32> to vector<1xf32>
        %506 = affine.apply #map57()[%block_id_x, %block_id_y, %6, %thread_id_x]
        %507 = arith.cmpi slt, %506, %443 : index
        %508 = arith.andi %439, %507 : i1
        %509 = affine.apply #map58()[%thread_id_x]
        %510 = arith.muli %509, %c1024 overflow<nsw> : index
        %511 = arith.addi %510, %273 overflow<nsw> : index
        %512 = arith.select %508, %511, %c536870911 : index
        vector.store %505, %455[%512] : memref<?xf32, #amdgpu.address_space<fat_raw_buffer>>, vector<1xf32>
        %513 = vector.extract_strided_slice %401 {offsets = [8], sizes = [1], strides = [1]} : vector<16xf32> to vector<1xf32>
        %514 = affine.apply #map59()[%block_id_x, %block_id_y, %6, %thread_id_x]
        %515 = arith.cmpi slt, %514, %443 : index
        %516 = arith.andi %439, %515 : i1
        %517 = affine.apply #map60()[%thread_id_x]
        %518 = arith.muli %517, %c1024 overflow<nsw> : index
        %519 = arith.addi %518, %273 overflow<nsw> : index
        %520 = arith.select %516, %519, %c536870911 : index
        vector.store %513, %455[%520] : memref<?xf32, #amdgpu.address_space<fat_raw_buffer>>, vector<1xf32>
        %521 = vector.extract_strided_slice %401 {offsets = [9], sizes = [1], strides = [1]} : vector<16xf32> to vector<1xf32>
        %522 = affine.apply #map61()[%block_id_x, %block_id_y, %6, %thread_id_x]
        %523 = arith.cmpi slt, %522, %443 : index
        %524 = arith.andi %439, %523 : i1
        %525 = affine.apply #map62()[%thread_id_x]
        %526 = arith.muli %525, %c1024 overflow<nsw> : index
        %527 = arith.addi %526, %273 overflow<nsw> : index
        %528 = arith.select %524, %527, %c536870911 : index
        vector.store %521, %455[%528] : memref<?xf32, #amdgpu.address_space<fat_raw_buffer>>, vector<1xf32>
        %529 = vector.extract_strided_slice %401 {offsets = [10], sizes = [1], strides = [1]} : vector<16xf32> to vector<1xf32>
        %530 = affine.apply #map63()[%block_id_x, %block_id_y, %6, %thread_id_x]
        %531 = arith.cmpi slt, %530, %443 : index
        %532 = arith.andi %439, %531 : i1
        %533 = affine.apply #map64()[%thread_id_x]
        %534 = arith.muli %533, %c1024 overflow<nsw> : index
        %535 = arith.addi %534, %273 overflow<nsw> : index
        %536 = arith.select %532, %535, %c536870911 : index
        vector.store %529, %455[%536] : memref<?xf32, #amdgpu.address_space<fat_raw_buffer>>, vector<1xf32>
        %537 = vector.extract_strided_slice %401 {offsets = [11], sizes = [1], strides = [1]} : vector<16xf32> to vector<1xf32>
        %538 = affine.apply #map65()[%block_id_x, %block_id_y, %6, %thread_id_x]
        %539 = arith.cmpi slt, %538, %443 : index
        %540 = arith.andi %439, %539 : i1
        %541 = affine.apply #map66()[%thread_id_x]
        %542 = arith.muli %541, %c1024 overflow<nsw> : index
        %543 = arith.addi %542, %273 overflow<nsw> : index
        %544 = arith.select %540, %543, %c536870911 : index
        vector.store %537, %455[%544] : memref<?xf32, #amdgpu.address_space<fat_raw_buffer>>, vector<1xf32>
        %545 = vector.extract_strided_slice %401 {offsets = [12], sizes = [1], strides = [1]} : vector<16xf32> to vector<1xf32>
        %546 = affine.apply #map67()[%block_id_x, %block_id_y, %6, %thread_id_x]
        %547 = arith.cmpi slt, %546, %443 : index
        %548 = arith.andi %439, %547 : i1
        %549 = affine.apply #map68()[%thread_id_x]
        %550 = arith.muli %549, %c1024 overflow<nsw> : index
        %551 = arith.addi %550, %273 overflow<nsw> : index
        %552 = arith.select %548, %551, %c536870911 : index
        vector.store %545, %455[%552] : memref<?xf32, #amdgpu.address_space<fat_raw_buffer>>, vector<1xf32>
        %553 = vector.extract_strided_slice %401 {offsets = [13], sizes = [1], strides = [1]} : vector<16xf32> to vector<1xf32>
        %554 = affine.apply #map69()[%block_id_x, %block_id_y, %6, %thread_id_x]
        %555 = arith.cmpi slt, %554, %443 : index
        %556 = arith.andi %439, %555 : i1
        %557 = affine.apply #map70()[%thread_id_x]
        %558 = arith.muli %557, %c1024 overflow<nsw> : index
        %559 = arith.addi %558, %273 overflow<nsw> : index
        %560 = arith.select %556, %559, %c536870911 : index
        vector.store %553, %455[%560] : memref<?xf32, #amdgpu.address_space<fat_raw_buffer>>, vector<1xf32>
        %561 = vector.extract_strided_slice %401 {offsets = [14], sizes = [1], strides = [1]} : vector<16xf32> to vector<1xf32>
        %562 = affine.apply #map71()[%block_id_x, %block_id_y, %6, %thread_id_x]
        %563 = arith.cmpi slt, %562, %443 : index
        %564 = arith.andi %439, %563 : i1
        %565 = affine.apply #map72()[%thread_id_x]
        %566 = arith.muli %565, %c1024 overflow<nsw> : index
        %567 = arith.addi %566, %273 overflow<nsw> : index
        %568 = arith.select %564, %567, %c536870911 : index
        vector.store %561, %455[%568] : memref<?xf32, #amdgpu.address_space<fat_raw_buffer>>, vector<1xf32>
        %569 = vector.extract_strided_slice %401 {offsets = [15], sizes = [1], strides = [1]} : vector<16xf32> to vector<1xf32>
        %570 = affine.apply #map73()[%block_id_x, %block_id_y, %6, %thread_id_x]
        %571 = arith.cmpi slt, %570, %443 : index
        %572 = arith.andi %439, %571 : i1
        %573 = affine.apply #map74()[%thread_id_x]
        %574 = arith.muli %573, %c1024 overflow<nsw> : index
        %575 = arith.addi %574, %273 overflow<nsw> : index
        %576 = arith.select %572, %575, %c536870911 : index
        vector.store %569, %455[%576] : memref<?xf32, #amdgpu.address_space<fat_raw_buffer>>, vector<1xf32>
        %577 = vector.extract_strided_slice %411 {offsets = [0], sizes = [1], strides = [1]} : vector<16xf32> to vector<1xf32>
        %578 = affine.apply #map75()[%thread_id_x, %block_id_x, %block_id_y, %6, %thread_id_y]
        %579 = arith.cmpi slt, %578, %437 : index
        %580 = arith.andi %579, %445 : i1
        %581 = arith.addi %451, %323 overflow<nsw> : index
        %582 = arith.select %580, %581, %c536870911 : index
        vector.store %577, %455[%582] : memref<?xf32, #amdgpu.address_space<fat_raw_buffer>>, vector<1xf32>
        %583 = vector.extract_strided_slice %411 {offsets = [1], sizes = [1], strides = [1]} : vector<16xf32> to vector<1xf32>
        %584 = arith.andi %579, %459 : i1
        %585 = arith.addi %462, %323 overflow<nsw> : index
        %586 = arith.select %584, %585, %c536870911 : index
        vector.store %583, %455[%586] : memref<?xf32, #amdgpu.address_space<fat_raw_buffer>>, vector<1xf32>
        %587 = vector.extract_strided_slice %411 {offsets = [2], sizes = [1], strides = [1]} : vector<16xf32> to vector<1xf32>
        %588 = arith.andi %579, %467 : i1
        %589 = arith.addi %470, %323 overflow<nsw> : index
        %590 = arith.select %588, %589, %c536870911 : index
        vector.store %587, %455[%590] : memref<?xf32, #amdgpu.address_space<fat_raw_buffer>>, vector<1xf32>
        %591 = vector.extract_strided_slice %411 {offsets = [3], sizes = [1], strides = [1]} : vector<16xf32> to vector<1xf32>
        %592 = arith.andi %579, %475 : i1
        %593 = arith.addi %478, %323 overflow<nsw> : index
        %594 = arith.select %592, %593, %c536870911 : index
        vector.store %591, %455[%594] : memref<?xf32, #amdgpu.address_space<fat_raw_buffer>>, vector<1xf32>
        %595 = vector.extract_strided_slice %411 {offsets = [4], sizes = [1], strides = [1]} : vector<16xf32> to vector<1xf32>
        %596 = arith.andi %579, %483 : i1
        %597 = arith.addi %486, %323 overflow<nsw> : index
        %598 = arith.select %596, %597, %c536870911 : index
        vector.store %595, %455[%598] : memref<?xf32, #amdgpu.address_space<fat_raw_buffer>>, vector<1xf32>
        %599 = vector.extract_strided_slice %411 {offsets = [5], sizes = [1], strides = [1]} : vector<16xf32> to vector<1xf32>
        %600 = arith.andi %579, %491 : i1
        %601 = arith.addi %494, %323 overflow<nsw> : index
        %602 = arith.select %600, %601, %c536870911 : index
        vector.store %599, %455[%602] : memref<?xf32, #amdgpu.address_space<fat_raw_buffer>>, vector<1xf32>
        %603 = vector.extract_strided_slice %411 {offsets = [6], sizes = [1], strides = [1]} : vector<16xf32> to vector<1xf32>
        %604 = arith.andi %579, %499 : i1
        %605 = arith.addi %502, %323 overflow<nsw> : index
        %606 = arith.select %604, %605, %c536870911 : index
        vector.store %603, %455[%606] : memref<?xf32, #amdgpu.address_space<fat_raw_buffer>>, vector<1xf32>
        %607 = vector.extract_strided_slice %411 {offsets = [7], sizes = [1], strides = [1]} : vector<16xf32> to vector<1xf32>
        %608 = arith.andi %579, %507 : i1
        %609 = arith.addi %510, %323 overflow<nsw> : index
        %610 = arith.select %608, %609, %c536870911 : index
        vector.store %607, %455[%610] : memref<?xf32, #amdgpu.address_space<fat_raw_buffer>>, vector<1xf32>
        %611 = vector.extract_strided_slice %411 {offsets = [8], sizes = [1], strides = [1]} : vector<16xf32> to vector<1xf32>
        %612 = arith.andi %579, %515 : i1
        %613 = arith.addi %518, %323 overflow<nsw> : index
        %614 = arith.select %612, %613, %c536870911 : index
        vector.store %611, %455[%614] : memref<?xf32, #amdgpu.address_space<fat_raw_buffer>>, vector<1xf32>
        %615 = vector.extract_strided_slice %411 {offsets = [9], sizes = [1], strides = [1]} : vector<16xf32> to vector<1xf32>
        %616 = arith.andi %579, %523 : i1
        %617 = arith.addi %526, %323 overflow<nsw> : index
        %618 = arith.select %616, %617, %c536870911 : index
        vector.store %615, %455[%618] : memref<?xf32, #amdgpu.address_space<fat_raw_buffer>>, vector<1xf32>
        %619 = vector.extract_strided_slice %411 {offsets = [10], sizes = [1], strides = [1]} : vector<16xf32> to vector<1xf32>
        %620 = arith.andi %579, %531 : i1
        %621 = arith.addi %534, %323 overflow<nsw> : index
        %622 = arith.select %620, %621, %c536870911 : index
        vector.store %619, %455[%622] : memref<?xf32, #amdgpu.address_space<fat_raw_buffer>>, vector<1xf32>
        %623 = vector.extract_strided_slice %411 {offsets = [11], sizes = [1], strides = [1]} : vector<16xf32> to vector<1xf32>
        %624 = arith.andi %579, %539 : i1
        %625 = arith.addi %542, %323 overflow<nsw> : index
        %626 = arith.select %624, %625, %c536870911 : index
        vector.store %623, %455[%626] : memref<?xf32, #amdgpu.address_space<fat_raw_buffer>>, vector<1xf32>
        %627 = vector.extract_strided_slice %411 {offsets = [12], sizes = [1], strides = [1]} : vector<16xf32> to vector<1xf32>
        %628 = arith.andi %579, %547 : i1
        %629 = arith.addi %550, %323 overflow<nsw> : index
        %630 = arith.select %628, %629, %c536870911 : index
        vector.store %627, %455[%630] : memref<?xf32, #amdgpu.address_space<fat_raw_buffer>>, vector<1xf32>
        %631 = vector.extract_strided_slice %411 {offsets = [13], sizes = [1], strides = [1]} : vector<16xf32> to vector<1xf32>
        %632 = arith.andi %579, %555 : i1
        %633 = arith.addi %558, %323 overflow<nsw> : index
        %634 = arith.select %632, %633, %c536870911 : index
        vector.store %631, %455[%634] : memref<?xf32, #amdgpu.address_space<fat_raw_buffer>>, vector<1xf32>
        %635 = vector.extract_strided_slice %411 {offsets = [14], sizes = [1], strides = [1]} : vector<16xf32> to vector<1xf32>
        %636 = arith.andi %579, %563 : i1
        %637 = arith.addi %566, %323 overflow<nsw> : index
        %638 = arith.select %636, %637, %c536870911 : index
        vector.store %635, %455[%638] : memref<?xf32, #amdgpu.address_space<fat_raw_buffer>>, vector<1xf32>
        %639 = vector.extract_strided_slice %411 {offsets = [15], sizes = [1], strides = [1]} : vector<16xf32> to vector<1xf32>
        %640 = arith.andi %579, %571 : i1
        %641 = arith.addi %574, %323 overflow<nsw> : index
        %642 = arith.select %640, %641, %c536870911 : index
        vector.store %639, %455[%642] : memref<?xf32, #amdgpu.address_space<fat_raw_buffer>>, vector<1xf32>
        %643 = vector.extract_strided_slice %421 {offsets = [0], sizes = [1], strides = [1]} : vector<16xf32> to vector<1xf32>
        %644 = affine.apply #map76()[%block_id_x, %block_id_y, %6, %thread_id_x]
        %645 = arith.cmpi slt, %644, %443 : index
        %646 = arith.andi %439, %645 : i1
        %647 = affine.apply #map77()[%thread_id_x]
        %648 = arith.muli %647, %c1024 overflow<nsw> : index
        %649 = arith.addi %648, %273 overflow<nsw> : index
        %650 = arith.select %646, %649, %c536870911 : index
        vector.store %643, %455[%650] : memref<?xf32, #amdgpu.address_space<fat_raw_buffer>>, vector<1xf32>
        %651 = vector.extract_strided_slice %421 {offsets = [1], sizes = [1], strides = [1]} : vector<16xf32> to vector<1xf32>
        %652 = affine.apply #map78()[%block_id_x, %block_id_y, %6, %thread_id_x]
        %653 = arith.cmpi slt, %652, %443 : index
        %654 = arith.andi %439, %653 : i1
        %655 = affine.apply #map79()[%thread_id_x]
        %656 = arith.muli %655, %c1024 overflow<nsw> : index
        %657 = arith.addi %656, %273 overflow<nsw> : index
        %658 = arith.select %654, %657, %c536870911 : index
        vector.store %651, %455[%658] : memref<?xf32, #amdgpu.address_space<fat_raw_buffer>>, vector<1xf32>
        %659 = vector.extract_strided_slice %421 {offsets = [2], sizes = [1], strides = [1]} : vector<16xf32> to vector<1xf32>
        %660 = affine.apply #map80()[%block_id_x, %block_id_y, %6, %thread_id_x]
        %661 = arith.cmpi slt, %660, %443 : index
        %662 = arith.andi %439, %661 : i1
        %663 = affine.apply #map81()[%thread_id_x]
        %664 = arith.muli %663, %c1024 overflow<nsw> : index
        %665 = arith.addi %664, %273 overflow<nsw> : index
        %666 = arith.select %662, %665, %c536870911 : index
        vector.store %659, %455[%666] : memref<?xf32, #amdgpu.address_space<fat_raw_buffer>>, vector<1xf32>
        %667 = vector.extract_strided_slice %421 {offsets = [3], sizes = [1], strides = [1]} : vector<16xf32> to vector<1xf32>
        %668 = affine.apply #map82()[%block_id_x, %block_id_y, %6, %thread_id_x]
        %669 = arith.cmpi slt, %668, %443 : index
        %670 = arith.andi %439, %669 : i1
        %671 = affine.apply #map83()[%thread_id_x]
        %672 = arith.muli %671, %c1024 overflow<nsw> : index
        %673 = arith.addi %672, %273 overflow<nsw> : index
        %674 = arith.select %670, %673, %c536870911 : index
        vector.store %667, %455[%674] : memref<?xf32, #amdgpu.address_space<fat_raw_buffer>>, vector<1xf32>
        %675 = vector.extract_strided_slice %421 {offsets = [4], sizes = [1], strides = [1]} : vector<16xf32> to vector<1xf32>
        %676 = affine.apply #map84()[%block_id_x, %block_id_y, %6, %thread_id_x]
        %677 = arith.cmpi slt, %676, %443 : index
        %678 = arith.andi %439, %677 : i1
        %679 = affine.apply #map85()[%thread_id_x]
        %680 = arith.muli %679, %c1024 overflow<nsw> : index
        %681 = arith.addi %680, %273 overflow<nsw> : index
        %682 = arith.select %678, %681, %c536870911 : index
        vector.store %675, %455[%682] : memref<?xf32, #amdgpu.address_space<fat_raw_buffer>>, vector<1xf32>
        %683 = vector.extract_strided_slice %421 {offsets = [5], sizes = [1], strides = [1]} : vector<16xf32> to vector<1xf32>
        %684 = affine.apply #map86()[%block_id_x, %block_id_y, %6, %thread_id_x]
        %685 = arith.cmpi slt, %684, %443 : index
        %686 = arith.andi %439, %685 : i1
        %687 = affine.apply #map87()[%thread_id_x]
        %688 = arith.muli %687, %c1024 overflow<nsw> : index
        %689 = arith.addi %688, %273 overflow<nsw> : index
        %690 = arith.select %686, %689, %c536870911 : index
        vector.store %683, %455[%690] : memref<?xf32, #amdgpu.address_space<fat_raw_buffer>>, vector<1xf32>
        %691 = vector.extract_strided_slice %421 {offsets = [6], sizes = [1], strides = [1]} : vector<16xf32> to vector<1xf32>
        %692 = affine.apply #map88()[%block_id_x, %block_id_y, %6, %thread_id_x]
        %693 = arith.cmpi slt, %692, %443 : index
        %694 = arith.andi %439, %693 : i1
        %695 = affine.apply #map89()[%thread_id_x]
        %696 = arith.muli %695, %c1024 overflow<nsw> : index
        %697 = arith.addi %696, %273 overflow<nsw> : index
        %698 = arith.select %694, %697, %c536870911 : index
        vector.store %691, %455[%698] : memref<?xf32, #amdgpu.address_space<fat_raw_buffer>>, vector<1xf32>
        %699 = vector.extract_strided_slice %421 {offsets = [7], sizes = [1], strides = [1]} : vector<16xf32> to vector<1xf32>
        %700 = affine.apply #map90()[%block_id_x, %block_id_y, %6, %thread_id_x]
        %701 = arith.cmpi slt, %700, %443 : index
        %702 = arith.andi %439, %701 : i1
        %703 = affine.apply #map91()[%thread_id_x]
        %704 = arith.muli %703, %c1024 overflow<nsw> : index
        %705 = arith.addi %704, %273 overflow<nsw> : index
        %706 = arith.select %702, %705, %c536870911 : index
        vector.store %699, %455[%706] : memref<?xf32, #amdgpu.address_space<fat_raw_buffer>>, vector<1xf32>
        %707 = vector.extract_strided_slice %421 {offsets = [8], sizes = [1], strides = [1]} : vector<16xf32> to vector<1xf32>
        %708 = affine.apply #map92()[%block_id_x, %block_id_y, %6, %thread_id_x]
        %709 = arith.cmpi slt, %708, %443 : index
        %710 = arith.andi %439, %709 : i1
        %711 = affine.apply #map93()[%thread_id_x]
        %712 = arith.muli %711, %c1024 overflow<nsw> : index
        %713 = arith.addi %712, %273 overflow<nsw> : index
        %714 = arith.select %710, %713, %c536870911 : index
        vector.store %707, %455[%714] : memref<?xf32, #amdgpu.address_space<fat_raw_buffer>>, vector<1xf32>
        %715 = vector.extract_strided_slice %421 {offsets = [9], sizes = [1], strides = [1]} : vector<16xf32> to vector<1xf32>
        %716 = affine.apply #map94()[%block_id_x, %block_id_y, %6, %thread_id_x]
        %717 = arith.cmpi slt, %716, %443 : index
        %718 = arith.andi %439, %717 : i1
        %719 = affine.apply #map95()[%thread_id_x]
        %720 = arith.muli %719, %c1024 overflow<nsw> : index
        %721 = arith.addi %720, %273 overflow<nsw> : index
        %722 = arith.select %718, %721, %c536870911 : index
        vector.store %715, %455[%722] : memref<?xf32, #amdgpu.address_space<fat_raw_buffer>>, vector<1xf32>
        %723 = vector.extract_strided_slice %421 {offsets = [10], sizes = [1], strides = [1]} : vector<16xf32> to vector<1xf32>
        %724 = affine.apply #map96()[%block_id_x, %block_id_y, %6, %thread_id_x]
        %725 = arith.cmpi slt, %724, %443 : index
        %726 = arith.andi %439, %725 : i1
        %727 = affine.apply #map97()[%thread_id_x]
        %728 = arith.muli %727, %c1024 overflow<nsw> : index
        %729 = arith.addi %728, %273 overflow<nsw> : index
        %730 = arith.select %726, %729, %c536870911 : index
        vector.store %723, %455[%730] : memref<?xf32, #amdgpu.address_space<fat_raw_buffer>>, vector<1xf32>
        %731 = vector.extract_strided_slice %421 {offsets = [11], sizes = [1], strides = [1]} : vector<16xf32> to vector<1xf32>
        %732 = affine.apply #map98()[%block_id_x, %block_id_y, %6, %thread_id_x]
        %733 = arith.cmpi slt, %732, %443 : index
        %734 = arith.andi %439, %733 : i1
        %735 = affine.apply #map99()[%thread_id_x]
        %736 = arith.muli %735, %c1024 overflow<nsw> : index
        %737 = arith.addi %736, %273 overflow<nsw> : index
        %738 = arith.select %734, %737, %c536870911 : index
        vector.store %731, %455[%738] : memref<?xf32, #amdgpu.address_space<fat_raw_buffer>>, vector<1xf32>
        %739 = vector.extract_strided_slice %421 {offsets = [12], sizes = [1], strides = [1]} : vector<16xf32> to vector<1xf32>
        %740 = affine.apply #map100()[%block_id_x, %block_id_y, %6, %thread_id_x]
        %741 = arith.cmpi slt, %740, %443 : index
        %742 = arith.andi %439, %741 : i1
        %743 = affine.apply #map101()[%thread_id_x]
        %744 = arith.muli %743, %c1024 overflow<nsw> : index
        %745 = arith.addi %744, %273 overflow<nsw> : index
        %746 = arith.select %742, %745, %c536870911 : index
        vector.store %739, %455[%746] : memref<?xf32, #amdgpu.address_space<fat_raw_buffer>>, vector<1xf32>
        %747 = vector.extract_strided_slice %421 {offsets = [13], sizes = [1], strides = [1]} : vector<16xf32> to vector<1xf32>
        %748 = affine.apply #map102()[%block_id_x, %block_id_y, %6, %thread_id_x]
        %749 = arith.cmpi slt, %748, %443 : index
        %750 = arith.andi %439, %749 : i1
        %751 = affine.apply #map103()[%thread_id_x]
        %752 = arith.muli %751, %c1024 overflow<nsw> : index
        %753 = arith.addi %752, %273 overflow<nsw> : index
        %754 = arith.select %750, %753, %c536870911 : index
        vector.store %747, %455[%754] : memref<?xf32, #amdgpu.address_space<fat_raw_buffer>>, vector<1xf32>
        %755 = vector.extract_strided_slice %421 {offsets = [14], sizes = [1], strides = [1]} : vector<16xf32> to vector<1xf32>
        %756 = affine.apply #map104()[%block_id_x, %block_id_y, %6, %thread_id_x]
        %757 = arith.cmpi slt, %756, %443 : index
        %758 = arith.andi %439, %757 : i1
        %759 = affine.apply #map105()[%thread_id_x]
        %760 = arith.muli %759, %c1024 overflow<nsw> : index
        %761 = arith.addi %760, %273 overflow<nsw> : index
        %762 = arith.select %758, %761, %c536870911 : index
        vector.store %755, %455[%762] : memref<?xf32, #amdgpu.address_space<fat_raw_buffer>>, vector<1xf32>
        %763 = vector.extract_strided_slice %421 {offsets = [15], sizes = [1], strides = [1]} : vector<16xf32> to vector<1xf32>
        %764 = affine.apply #map106()[%block_id_x, %block_id_y, %6, %thread_id_x]
        %765 = arith.cmpi slt, %764, %443 : index
        %766 = arith.andi %439, %765 : i1
        %767 = affine.apply #map107()[%thread_id_x]
        %768 = arith.muli %767, %c1024 overflow<nsw> : index
        %769 = arith.addi %768, %273 overflow<nsw> : index
        %770 = arith.select %766, %769, %c536870911 : index
        vector.store %763, %455[%770] : memref<?xf32, #amdgpu.address_space<fat_raw_buffer>>, vector<1xf32>
        %771 = vector.extract_strided_slice %431 {offsets = [0], sizes = [1], strides = [1]} : vector<16xf32> to vector<1xf32>
        %772 = arith.andi %579, %645 : i1
        %773 = arith.addi %648, %323 overflow<nsw> : index
        %774 = arith.select %772, %773, %c536870911 : index
        vector.store %771, %455[%774] : memref<?xf32, #amdgpu.address_space<fat_raw_buffer>>, vector<1xf32>
        %775 = vector.extract_strided_slice %431 {offsets = [1], sizes = [1], strides = [1]} : vector<16xf32> to vector<1xf32>
        %776 = arith.andi %579, %653 : i1
        %777 = arith.addi %656, %323 overflow<nsw> : index
        %778 = arith.select %776, %777, %c536870911 : index
        vector.store %775, %455[%778] : memref<?xf32, #amdgpu.address_space<fat_raw_buffer>>, vector<1xf32>
        %779 = vector.extract_strided_slice %431 {offsets = [2], sizes = [1], strides = [1]} : vector<16xf32> to vector<1xf32>
        %780 = arith.andi %579, %661 : i1
        %781 = arith.addi %664, %323 overflow<nsw> : index
        %782 = arith.select %780, %781, %c536870911 : index
        vector.store %779, %455[%782] : memref<?xf32, #amdgpu.address_space<fat_raw_buffer>>, vector<1xf32>
        %783 = vector.extract_strided_slice %431 {offsets = [3], sizes = [1], strides = [1]} : vector<16xf32> to vector<1xf32>
        %784 = arith.andi %579, %669 : i1
        %785 = arith.addi %672, %323 overflow<nsw> : index
        %786 = arith.select %784, %785, %c536870911 : index
        vector.store %783, %455[%786] : memref<?xf32, #amdgpu.address_space<fat_raw_buffer>>, vector<1xf32>
        %787 = vector.extract_strided_slice %431 {offsets = [4], sizes = [1], strides = [1]} : vector<16xf32> to vector<1xf32>
        %788 = arith.andi %579, %677 : i1
        %789 = arith.addi %680, %323 overflow<nsw> : index
        %790 = arith.select %788, %789, %c536870911 : index
        vector.store %787, %455[%790] : memref<?xf32, #amdgpu.address_space<fat_raw_buffer>>, vector<1xf32>
        %791 = vector.extract_strided_slice %431 {offsets = [5], sizes = [1], strides = [1]} : vector<16xf32> to vector<1xf32>
        %792 = arith.andi %579, %685 : i1
        %793 = arith.addi %688, %323 overflow<nsw> : index
        %794 = arith.select %792, %793, %c536870911 : index
        vector.store %791, %455[%794] : memref<?xf32, #amdgpu.address_space<fat_raw_buffer>>, vector<1xf32>
        %795 = vector.extract_strided_slice %431 {offsets = [6], sizes = [1], strides = [1]} : vector<16xf32> to vector<1xf32>
        %796 = arith.andi %579, %693 : i1
        %797 = arith.addi %696, %323 overflow<nsw> : index
        %798 = arith.select %796, %797, %c536870911 : index
        vector.store %795, %455[%798] : memref<?xf32, #amdgpu.address_space<fat_raw_buffer>>, vector<1xf32>
        %799 = vector.extract_strided_slice %431 {offsets = [7], sizes = [1], strides = [1]} : vector<16xf32> to vector<1xf32>
        %800 = arith.andi %579, %701 : i1
        %801 = arith.addi %704, %323 overflow<nsw> : index
        %802 = arith.select %800, %801, %c536870911 : index
        vector.store %799, %455[%802] : memref<?xf32, #amdgpu.address_space<fat_raw_buffer>>, vector<1xf32>
        %803 = vector.extract_strided_slice %431 {offsets = [8], sizes = [1], strides = [1]} : vector<16xf32> to vector<1xf32>
        %804 = arith.andi %579, %709 : i1
        %805 = arith.addi %712, %323 overflow<nsw> : index
        %806 = arith.select %804, %805, %c536870911 : index
        vector.store %803, %455[%806] : memref<?xf32, #amdgpu.address_space<fat_raw_buffer>>, vector<1xf32>
        %807 = vector.extract_strided_slice %431 {offsets = [9], sizes = [1], strides = [1]} : vector<16xf32> to vector<1xf32>
        %808 = arith.andi %579, %717 : i1
        %809 = arith.addi %720, %323 overflow<nsw> : index
        %810 = arith.select %808, %809, %c536870911 : index
        vector.store %807, %455[%810] : memref<?xf32, #amdgpu.address_space<fat_raw_buffer>>, vector<1xf32>
        %811 = vector.extract_strided_slice %431 {offsets = [10], sizes = [1], strides = [1]} : vector<16xf32> to vector<1xf32>
        %812 = arith.andi %579, %725 : i1
        %813 = arith.addi %728, %323 overflow<nsw> : index
        %814 = arith.select %812, %813, %c536870911 : index
        vector.store %811, %455[%814] : memref<?xf32, #amdgpu.address_space<fat_raw_buffer>>, vector<1xf32>
        %815 = vector.extract_strided_slice %431 {offsets = [11], sizes = [1], strides = [1]} : vector<16xf32> to vector<1xf32>
        %816 = arith.andi %579, %733 : i1
        %817 = arith.addi %736, %323 overflow<nsw> : index
        %818 = arith.select %816, %817, %c536870911 : index
        vector.store %815, %455[%818] : memref<?xf32, #amdgpu.address_space<fat_raw_buffer>>, vector<1xf32>
        %819 = vector.extract_strided_slice %431 {offsets = [12], sizes = [1], strides = [1]} : vector<16xf32> to vector<1xf32>
        %820 = arith.andi %579, %741 : i1
        %821 = arith.addi %744, %323 overflow<nsw> : index
        %822 = arith.select %820, %821, %c536870911 : index
        vector.store %819, %455[%822] : memref<?xf32, #amdgpu.address_space<fat_raw_buffer>>, vector<1xf32>
        %823 = vector.extract_strided_slice %431 {offsets = [13], sizes = [1], strides = [1]} : vector<16xf32> to vector<1xf32>
        %824 = arith.andi %579, %749 : i1
        %825 = arith.addi %752, %323 overflow<nsw> : index
        %826 = arith.select %824, %825, %c536870911 : index
        vector.store %823, %455[%826] : memref<?xf32, #amdgpu.address_space<fat_raw_buffer>>, vector<1xf32>
        %827 = vector.extract_strided_slice %431 {offsets = [14], sizes = [1], strides = [1]} : vector<16xf32> to vector<1xf32>
        %828 = arith.andi %579, %757 : i1
        %829 = arith.addi %760, %323 overflow<nsw> : index
        %830 = arith.select %828, %829, %c536870911 : index
        vector.store %827, %455[%830] : memref<?xf32, #amdgpu.address_space<fat_raw_buffer>>, vector<1xf32>
        %831 = vector.extract_strided_slice %431 {offsets = [15], sizes = [1], strides = [1]} : vector<16xf32> to vector<1xf32>
        %832 = arith.andi %579, %765 : i1
        %833 = arith.addi %768, %323 overflow<nsw> : index
        %834 = arith.select %832, %833, %c536870911 : index
        vector.store %831, %455[%834] : memref<?xf32, #amdgpu.address_space<fat_raw_buffer>>, vector<1xf32>
        return
      }
    }
  }
  func.func @isolated_benchmark(%arg0: tensor<1024x1024xf16>, %arg1: tensor<1024x1024xf16>, %arg2: tensor<1024x1024xf32>) -> tensor<1024x1024xf32> {
    %0 = flow.dispatch @gemm::@gemm(%arg0, %arg1, %arg2) : (tensor<1024x1024xf16>, tensor<1024x1024xf16>, tensor<1024x1024xf32>) -> %arg2
    return %0 : tensor<1024x1024xf32>
  }
}
