#map = affine_map<()[s0, s1] -> ((s0 * 41 + s1) mod 8)>
#map1 = affine_map<()[s0, s1, s2] -> (((s0 * 410 + s1 * 10 + s2 - ((s0 * 41 + s1) floordiv 8) * 79) floordiv 42) * -21 + 41)>
#map2 = affine_map<()[s0, s1] -> (s0 * 16 + (s1 floordiv 64) * 4 + 4)>
#map3 = affine_map<()[s0, s1, s2, s3, s4, s5] -> (s0 mod 16 + (s0 floordiv 64) * 4 + ((s1 * 410 + s2 * 10 + s3 - ((s1 * 41 + s2) floordiv 8) * 79) floordiv 42) * 336 + (((s1 * 410 + s2 * 10 + s4 - ((s1 * 41 + s2) floordiv 8) * 79) mod 42) mod s5) * 16)>
#map4 = affine_map<()[s0] -> (((s0 mod 64) floordiv 16) * 4)>
#map5 = affine_map<()[s0, s1, s2, s3, s4, s5] -> (s0 floordiv 2 + s1 * 128 - ((s1 * 128 + s0 floordiv 2) floordiv 1448) * 1448 + (((s2 * 410 + s3 * 10 + s4 - ((s2 * 41 + s3) floordiv 8) * 79) mod 42) floordiv s5) * 1448)>
#map6 = affine_map<()[s0] -> (s0 * 8 - (s0 floordiv 2) * 16)>
#map7 = affine_map<()[s0, s1, s2, s3, s4, s5] -> (s0 floordiv 2 + s1 * 128 - ((s1 * 128 + s0 floordiv 2 + 256) floordiv 1448) * 1448 + (((s2 * 410 + s3 * 10 + s4 - ((s2 * 41 + s3) floordiv 8) * 79) mod 42) floordiv s5) * 1448 + 256)>
#map8 = affine_map<()[s0, s1, s2, s3, s4, s5] -> (s0 floordiv 2 + s1 * 128 - ((s1 * 128 + s0 floordiv 2 + 512) floordiv 1448) * 1448 + (((s2 * 410 + s3 * 10 + s4 - ((s2 * 41 + s3) floordiv 8) * 79) mod 42) floordiv s5) * 1448 + 512)>
#map9 = affine_map<()[s0, s1, s2, s3, s4, s5] -> (s0 floordiv 2 + s1 * 128 - ((s1 * 128 + s0 floordiv 2 + 768) floordiv 1448) * 1448 + (((s2 * 410 + s3 * 10 + s4 - ((s2 * 41 + s3) floordiv 8) * 79) mod 42) floordiv s5) * 1448 + 768)>
#map10 = affine_map<()[s0, s1, s2, s3, s4, s5] -> (s0 floordiv 2 + s1 * 128 - ((s1 * 128 + s0 floordiv 2 + 1024) floordiv 1448) * 1448 + (((s2 * 410 + s3 * 10 + s4 - ((s2 * 41 + s3) floordiv 8) * 79) mod 42) floordiv s5) * 1448 + 1024)>
#map11 = affine_map<()[s0, s1, s2, s3, s4, s5] -> (s0 floordiv 2 + s1 * 128 - ((s1 * 128 + s0 floordiv 2 + 1280) floordiv 1448) * 1448 + (((s2 * 410 + s3 * 10 + s4 - ((s2 * 41 + s3) floordiv 8) * 79) mod 42) floordiv s5) * 1448 + 1280)>
#map12 = affine_map<()[s0] -> ((s0 floordiv 64) * 4 + 4)>
#map13 = affine_map<()[s0] -> (s0 mod 16 + (s0 floordiv 64) * 4)>
#map14 = affine_map<()[s0] -> (s0 * 724 + 724)>
#map15 = affine_map<()[s0, s1] -> ((s1 * 128 + s0 floordiv 2) mod 1448)>
#map16 = affine_map<()[s0, s1] -> (s1 * 128 + s0 floordiv 2 - ((s1 * 128 + s0 floordiv 2 + 256) floordiv 1448) * 1448 + 256)>
#map17 = affine_map<()[s0, s1] -> (s1 * 128 + s0 floordiv 2 - ((s1 * 128 + s0 floordiv 2 + 512) floordiv 1448) * 1448 + 512)>
#map18 = affine_map<()[s0, s1] -> (s1 * 128 + s0 floordiv 2 - ((s1 * 128 + s0 floordiv 2 + 768) floordiv 1448) * 1448 + 768)>
#map19 = affine_map<()[s0, s1] -> (s1 * 128 + s0 floordiv 2 - ((s1 * 128 + s0 floordiv 2 + 1024) floordiv 1448) * 1448 + 1024)>
#map20 = affine_map<()[s0, s1] -> (s1 * 128 + s0 floordiv 2 - ((s1 * 128 + s0 floordiv 2 + 1280) floordiv 1448) * 1448 + 1280)>
#map21 = affine_map<()[s0, s1] -> (s0 + s1 * 724 - (s0 floordiv 16) * 16)>
#map22 = affine_map<()[s0, s1] -> (s0 + s1 * 724 - (s0 floordiv 16) * 16 + 16)>
#map23 = affine_map<()[s0, s1] -> (s0 + s1 * 724 - (s0 floordiv 16) * 16 + 32)>
#map24 = affine_map<()[s0, s1] -> (s0 + s1 * 724 - (s0 floordiv 16) * 16 + 48)>
#map25 = affine_map<()[s0, s1] -> (s0 + s1 * 724 - (s0 floordiv 16) * 16 + 64)>
#map26 = affine_map<()[s0, s1] -> (s0 + s1 * 724 - (s0 floordiv 16) * 16 + 80)>
#map27 = affine_map<()[s0, s1] -> (s0 + s1 * 724 - (s0 floordiv 16) * 16 + 96)>
#map28 = affine_map<()[s0, s1] -> (s0 + s1 * 724 - (s0 floordiv 16) * 16 + 112)>
#map29 = affine_map<()[s0, s1] -> (s0 + s1 * 724 - (s0 floordiv 16) * 16 + 128)>
#map30 = affine_map<()[s0, s1] -> (s0 + s1 * 724 - (s0 floordiv 16) * 16 + 144)>
#map31 = affine_map<()[s0, s1] -> (s0 + s1 * 724 - (s0 floordiv 16) * 16 + 160)>
#map32 = affine_map<()[s0, s1] -> (s0 + s1 * 724 - (s0 floordiv 16) * 16 + 176)>
#map33 = affine_map<()[s0, s1] -> (s0 + s1 * 724 - (s0 floordiv 16) * 16 + 192)>
#map34 = affine_map<()[s0, s1] -> (s0 + s1 * 724 - (s0 floordiv 16) * 16 + 208)>
#map35 = affine_map<()[s0, s1] -> (s0 + s1 * 724 - (s0 floordiv 16) * 16 + 224)>
#map36 = affine_map<()[s0, s1] -> (s0 + s1 * 724 - (s0 floordiv 16) * 16 + 240)>
#map37 = affine_map<()[s0, s1] -> (s0 + s1 * 724 - (s0 floordiv 16) * 16 + 256)>
#map38 = affine_map<()[s0, s1] -> (s0 + s1 * 724 - (s0 floordiv 16) * 16 + 272)>
#map39 = affine_map<()[s0, s1] -> (s0 + s1 * 724 - (s0 floordiv 16) * 16 + 288)>
#map40 = affine_map<()[s0, s1] -> (s0 + s1 * 724 - (s0 floordiv 16) * 16 + 304)>
#map41 = affine_map<()[s0, s1] -> (s0 + s1 * 724 - (s0 floordiv 16) * 16 + 320)>
#map42 = affine_map<()[s0, s1] -> (s0 + s1 * 724 - (s0 floordiv 16) * 16 + 336)>
#map43 = affine_map<()[s0, s1] -> (s0 + s1 * 724 - (s0 floordiv 16) * 16 + 352)>
#map44 = affine_map<()[s0, s1] -> (s0 + s1 * 724 - (s0 floordiv 16) * 16 + 368)>
#map45 = affine_map<()[s0, s1] -> (s0 + s1 * 724 - (s0 floordiv 16) * 16 + 384)>
#map46 = affine_map<()[s0, s1] -> (s0 + s1 * 724 - (s0 floordiv 16) * 16 + 400)>
#map47 = affine_map<()[s0, s1] -> (s0 + s1 * 724 - (s0 floordiv 16) * 16 + 416)>
#map48 = affine_map<()[s0, s1] -> (s0 + s1 * 724 - (s0 floordiv 16) * 16 + 432)>
#map49 = affine_map<()[s0, s1] -> (s0 + s1 * 724 - (s0 floordiv 16) * 16 + 448)>
#map50 = affine_map<()[s0, s1] -> (s0 + s1 * 724 - (s0 floordiv 16) * 16 + 464)>
#map51 = affine_map<()[s0, s1] -> (s0 + s1 * 724 - (s0 floordiv 16) * 16 + 480)>
#map52 = affine_map<()[s0, s1] -> (s0 + s1 * 724 - (s0 floordiv 16) * 16 + 496)>
#map53 = affine_map<()[s0, s1] -> (s0 + s1 * 724 - (s0 floordiv 16) * 16 + 512)>
#map54 = affine_map<()[s0, s1] -> (s0 + s1 * 724 - (s0 floordiv 16) * 16 + 528)>
#map55 = affine_map<()[s0, s1] -> (s0 + s1 * 724 - (s0 floordiv 16) * 16 + 544)>
#map56 = affine_map<()[s0, s1] -> (s0 + s1 * 724 - (s0 floordiv 16) * 16 + 560)>
#map57 = affine_map<()[s0, s1] -> (s0 + s1 * 724 - (s0 floordiv 16) * 16 + 576)>
#map58 = affine_map<()[s0, s1] -> (s0 + s1 * 724 - (s0 floordiv 16) * 16 + 592)>
#map59 = affine_map<()[s0, s1] -> (s0 + s1 * 724 - (s0 floordiv 16) * 16 + 608)>
#map60 = affine_map<()[s0, s1] -> (s0 + s1 * 724 - (s0 floordiv 16) * 16 + 624)>
#map61 = affine_map<()[s0, s1] -> (s0 + s1 * 724 - (s0 floordiv 16) * 16 + 640)>
#map62 = affine_map<()[s0, s1] -> (s0 + s1 * 724 - (s0 floordiv 16) * 16 + 656)>
#map63 = affine_map<()[s0, s1] -> (s0 + s1 * 724 - (s0 floordiv 16) * 16 + 672)>
#map64 = affine_map<()[s0, s1] -> (s0 + s1 * 724 - (s0 floordiv 16) * 16 + 688)>
#map65 = affine_map<()[s0, s1] -> (s0 + s1 * 724 - (s0 floordiv 16) * 16 + 704)>
#map66 = affine_map<()[s0, s1] -> (s0 + s1 * 724 - (s0 floordiv 16) * 16 + 720)>
#map67 = affine_map<()[s0, s1] -> (s0 * 16 + ((s1 mod 64) floordiv 16) * 4 + 16)>
#map68 = affine_map<()[s0, s1] -> (s0 * 16 + s1 * 8 - (s1 floordiv 2) * 16 + 16)>
#map69 = affine_map<()[s0, s1] -> (s0 * 1448 + s1 * 724 + 724)>
#map70 = affine_map<()[s0] -> (s0 * 1448 + 1448)>
#map71 = affine_map<()[s0, s1, s2, s3, s4, s5] -> (s0 mod 16 + s5 * 724 + (((s1 * 410 + s2 * 10 + s3 - ((s1 * 41 + s2) floordiv 8) * 79) mod 42) floordiv s4) * 1448)>
#map72 = affine_map<()[s0, s1, s2, s3, s4, s5] -> ((s5 floordiv 64) * 4 + ((s0 * 410 + s1 * 10 + s2 - ((s0 * 41 + s1) floordiv 8) * 79) floordiv 42) * 336 + (((s0 * 410 + s1 * 10 + s3 - ((s0 * 41 + s1) floordiv 8) * 79) mod 42) mod s4) * 16 + ((s5 mod 64) floordiv 16) * 4)>
#map73 = affine_map<()[s0, s1, s2, s3, s4] -> (((s0 * 410 + s1 * 10 + s2 - ((s0 * 41 + s1) floordiv 8) * 79) floordiv 42) * 336 + (((s0 * 410 + s1 * 10 + s3 - ((s0 * 41 + s1) floordiv 8) * 79) mod 42) mod s4) * 16)>
#map74 = affine_map<()[s0, s1, s2, s3] -> ((((s0 * 410 + s1 * 10 + s2 - ((s0 * 41 + s1) floordiv 8) * 79) mod 42) floordiv s3) * 1448)>
#map75 = affine_map<()[s0] -> ((s0 floordiv 64) * 4 + ((s0 mod 64) floordiv 16) * 4)>
#map76 = affine_map<()[s0, s1, s2, s3, s4, s5] -> ((s5 floordiv 64) * 4 + ((s0 * 410 + s1 * 10 + s2 - ((s0 * 41 + s1) floordiv 8) * 79) floordiv 42) * 336 + (((s0 * 410 + s1 * 10 + s3 - ((s0 * 41 + s1) floordiv 8) * 79) mod 42) mod s4) * 16 + ((s5 mod 64) floordiv 16) * 4 + 1)>
#map77 = affine_map<()[s0] -> ((s0 floordiv 64) * 4 + ((s0 mod 64) floordiv 16) * 4 + 1)>
#map78 = affine_map<()[s0, s1, s2, s3, s4, s5] -> ((s5 floordiv 64) * 4 + ((s0 * 410 + s1 * 10 + s2 - ((s0 * 41 + s1) floordiv 8) * 79) floordiv 42) * 336 + (((s0 * 410 + s1 * 10 + s3 - ((s0 * 41 + s1) floordiv 8) * 79) mod 42) mod s4) * 16 + ((s5 mod 64) floordiv 16) * 4 + 2)>
#map79 = affine_map<()[s0] -> ((s0 floordiv 64) * 4 + ((s0 mod 64) floordiv 16) * 4 + 2)>
#map80 = affine_map<()[s0, s1, s2, s3, s4, s5] -> ((s5 floordiv 64) * 4 + ((s0 * 410 + s1 * 10 + s2 - ((s0 * 41 + s1) floordiv 8) * 79) floordiv 42) * 336 + (((s0 * 410 + s1 * 10 + s3 - ((s0 * 41 + s1) floordiv 8) * 79) mod 42) mod s4) * 16 + ((s5 mod 64) floordiv 16) * 4 + 3)>
#map81 = affine_map<()[s0] -> ((s0 floordiv 64) * 4 + ((s0 mod 64) floordiv 16) * 4 + 3)>
#map82 = affine_map<()[s0, s1, s2, s3, s4, s5] -> (s0 mod 16 + s5 * 724 + (((s1 * 410 + s2 * 10 + s3 - ((s1 * 41 + s2) floordiv 8) * 79) mod 42) floordiv s4) * 1448 + 16)>
#map83 = affine_map<()[s0, s1, s2, s3, s4, s5] -> (s0 mod 16 + s5 * 724 + (((s1 * 410 + s2 * 10 + s3 - ((s1 * 41 + s2) floordiv 8) * 79) mod 42) floordiv s4) * 1448 + 32)>
#map84 = affine_map<()[s0, s1, s2, s3, s4, s5] -> (s0 mod 16 + s5 * 724 + (((s1 * 410 + s2 * 10 + s3 - ((s1 * 41 + s2) floordiv 8) * 79) mod 42) floordiv s4) * 1448 + 48)>
#map85 = affine_map<()[s0, s1, s2, s3, s4, s5] -> (s0 mod 16 + s5 * 724 + (((s1 * 410 + s2 * 10 + s3 - ((s1 * 41 + s2) floordiv 8) * 79) mod 42) floordiv s4) * 1448 + 64)>
#map86 = affine_map<()[s0, s1, s2, s3, s4, s5] -> (s0 mod 16 + s5 * 724 + (((s1 * 410 + s2 * 10 + s3 - ((s1 * 41 + s2) floordiv 8) * 79) mod 42) floordiv s4) * 1448 + 80)>
#map87 = affine_map<()[s0, s1, s2, s3, s4, s5] -> (s0 mod 16 + s5 * 724 + (((s1 * 410 + s2 * 10 + s3 - ((s1 * 41 + s2) floordiv 8) * 79) mod 42) floordiv s4) * 1448 + 96)>
#map88 = affine_map<()[s0, s1, s2, s3, s4, s5] -> (s0 mod 16 + s5 * 724 + (((s1 * 410 + s2 * 10 + s3 - ((s1 * 41 + s2) floordiv 8) * 79) mod 42) floordiv s4) * 1448 + 112)>
#map89 = affine_map<()[s0, s1, s2, s3, s4, s5] -> (s0 mod 16 + s5 * 724 + (((s1 * 410 + s2 * 10 + s3 - ((s1 * 41 + s2) floordiv 8) * 79) mod 42) floordiv s4) * 1448 + 128)>
#map90 = affine_map<()[s0, s1, s2, s3, s4, s5] -> (s0 mod 16 + s5 * 724 + (((s1 * 410 + s2 * 10 + s3 - ((s1 * 41 + s2) floordiv 8) * 79) mod 42) floordiv s4) * 1448 + 144)>
#map91 = affine_map<()[s0, s1, s2, s3, s4, s5] -> (s0 mod 16 + s5 * 724 + (((s1 * 410 + s2 * 10 + s3 - ((s1 * 41 + s2) floordiv 8) * 79) mod 42) floordiv s4) * 1448 + 160)>
#map92 = affine_map<()[s0, s1, s2, s3, s4, s5] -> (s0 mod 16 + s5 * 724 + (((s1 * 410 + s2 * 10 + s3 - ((s1 * 41 + s2) floordiv 8) * 79) mod 42) floordiv s4) * 1448 + 176)>
#map93 = affine_map<()[s0, s1, s2, s3, s4, s5] -> (s0 mod 16 + s5 * 724 + (((s1 * 410 + s2 * 10 + s3 - ((s1 * 41 + s2) floordiv 8) * 79) mod 42) floordiv s4) * 1448 + 192)>
#map94 = affine_map<()[s0, s1, s2, s3, s4, s5] -> (s0 mod 16 + s5 * 724 + (((s1 * 410 + s2 * 10 + s3 - ((s1 * 41 + s2) floordiv 8) * 79) mod 42) floordiv s4) * 1448 + 208)>
#map95 = affine_map<()[s0, s1, s2, s3, s4, s5] -> (s0 mod 16 + s5 * 724 + (((s1 * 410 + s2 * 10 + s3 - ((s1 * 41 + s2) floordiv 8) * 79) mod 42) floordiv s4) * 1448 + 224)>
#map96 = affine_map<()[s0, s1, s2, s3, s4, s5] -> (s0 mod 16 + s5 * 724 + (((s1 * 410 + s2 * 10 + s3 - ((s1 * 41 + s2) floordiv 8) * 79) mod 42) floordiv s4) * 1448 + 240)>
#map97 = affine_map<()[s0, s1, s2, s3, s4, s5] -> (s0 mod 16 + s5 * 724 + (((s1 * 410 + s2 * 10 + s3 - ((s1 * 41 + s2) floordiv 8) * 79) mod 42) floordiv s4) * 1448 + 256)>
#map98 = affine_map<()[s0, s1, s2, s3, s4, s5] -> (s0 mod 16 + s5 * 724 + (((s1 * 410 + s2 * 10 + s3 - ((s1 * 41 + s2) floordiv 8) * 79) mod 42) floordiv s4) * 1448 + 272)>
#map99 = affine_map<()[s0, s1, s2, s3, s4, s5] -> (s0 mod 16 + s5 * 724 + (((s1 * 410 + s2 * 10 + s3 - ((s1 * 41 + s2) floordiv 8) * 79) mod 42) floordiv s4) * 1448 + 288)>
#map100 = affine_map<()[s0, s1, s2, s3, s4, s5] -> (s0 mod 16 + s5 * 724 + (((s1 * 410 + s2 * 10 + s3 - ((s1 * 41 + s2) floordiv 8) * 79) mod 42) floordiv s4) * 1448 + 304)>
#map101 = affine_map<()[s0, s1, s2, s3, s4, s5] -> (s0 mod 16 + s5 * 724 + (((s1 * 410 + s2 * 10 + s3 - ((s1 * 41 + s2) floordiv 8) * 79) mod 42) floordiv s4) * 1448 + 320)>
#map102 = affine_map<()[s0, s1, s2, s3, s4, s5] -> (s0 mod 16 + s5 * 724 + (((s1 * 410 + s2 * 10 + s3 - ((s1 * 41 + s2) floordiv 8) * 79) mod 42) floordiv s4) * 1448 + 336)>
#map103 = affine_map<()[s0, s1, s2, s3, s4, s5] -> (s0 mod 16 + s5 * 724 + (((s1 * 410 + s2 * 10 + s3 - ((s1 * 41 + s2) floordiv 8) * 79) mod 42) floordiv s4) * 1448 + 352)>
#map104 = affine_map<()[s0, s1, s2, s3, s4, s5] -> (s0 mod 16 + s5 * 724 + (((s1 * 410 + s2 * 10 + s3 - ((s1 * 41 + s2) floordiv 8) * 79) mod 42) floordiv s4) * 1448 + 368)>
#map105 = affine_map<()[s0, s1, s2, s3, s4, s5] -> (s0 mod 16 + s5 * 724 + (((s1 * 410 + s2 * 10 + s3 - ((s1 * 41 + s2) floordiv 8) * 79) mod 42) floordiv s4) * 1448 + 384)>
#map106 = affine_map<()[s0, s1, s2, s3, s4, s5] -> (s0 mod 16 + s5 * 724 + (((s1 * 410 + s2 * 10 + s3 - ((s1 * 41 + s2) floordiv 8) * 79) mod 42) floordiv s4) * 1448 + 400)>
#map107 = affine_map<()[s0, s1, s2, s3, s4, s5] -> (s0 mod 16 + s5 * 724 + (((s1 * 410 + s2 * 10 + s3 - ((s1 * 41 + s2) floordiv 8) * 79) mod 42) floordiv s4) * 1448 + 416)>
#map108 = affine_map<()[s0, s1, s2, s3, s4, s5] -> (s0 mod 16 + s5 * 724 + (((s1 * 410 + s2 * 10 + s3 - ((s1 * 41 + s2) floordiv 8) * 79) mod 42) floordiv s4) * 1448 + 432)>
#map109 = affine_map<()[s0, s1, s2, s3, s4, s5] -> (s0 mod 16 + s5 * 724 + (((s1 * 410 + s2 * 10 + s3 - ((s1 * 41 + s2) floordiv 8) * 79) mod 42) floordiv s4) * 1448 + 448)>
#map110 = affine_map<()[s0, s1, s2, s3, s4, s5] -> (s0 mod 16 + s5 * 724 + (((s1 * 410 + s2 * 10 + s3 - ((s1 * 41 + s2) floordiv 8) * 79) mod 42) floordiv s4) * 1448 + 464)>
#map111 = affine_map<()[s0, s1, s2, s3, s4, s5] -> (s0 mod 16 + s5 * 724 + (((s1 * 410 + s2 * 10 + s3 - ((s1 * 41 + s2) floordiv 8) * 79) mod 42) floordiv s4) * 1448 + 480)>
#map112 = affine_map<()[s0, s1, s2, s3, s4, s5] -> (s0 mod 16 + s5 * 724 + (((s1 * 410 + s2 * 10 + s3 - ((s1 * 41 + s2) floordiv 8) * 79) mod 42) floordiv s4) * 1448 + 496)>
#map113 = affine_map<()[s0, s1, s2, s3, s4, s5] -> (s0 mod 16 + s5 * 724 + (((s1 * 410 + s2 * 10 + s3 - ((s1 * 41 + s2) floordiv 8) * 79) mod 42) floordiv s4) * 1448 + 512)>
#map114 = affine_map<()[s0, s1, s2, s3, s4, s5] -> (s0 mod 16 + s5 * 724 + (((s1 * 410 + s2 * 10 + s3 - ((s1 * 41 + s2) floordiv 8) * 79) mod 42) floordiv s4) * 1448 + 528)>
#map115 = affine_map<()[s0, s1, s2, s3, s4, s5] -> (s0 mod 16 + s5 * 724 + (((s1 * 410 + s2 * 10 + s3 - ((s1 * 41 + s2) floordiv 8) * 79) mod 42) floordiv s4) * 1448 + 544)>
#map116 = affine_map<()[s0, s1, s2, s3, s4, s5] -> (s0 mod 16 + s5 * 724 + (((s1 * 410 + s2 * 10 + s3 - ((s1 * 41 + s2) floordiv 8) * 79) mod 42) floordiv s4) * 1448 + 560)>
#map117 = affine_map<()[s0, s1, s2, s3, s4, s5] -> (s0 mod 16 + s5 * 724 + (((s1 * 410 + s2 * 10 + s3 - ((s1 * 41 + s2) floordiv 8) * 79) mod 42) floordiv s4) * 1448 + 576)>
#map118 = affine_map<()[s0, s1, s2, s3, s4, s5] -> (s0 mod 16 + s5 * 724 + (((s1 * 410 + s2 * 10 + s3 - ((s1 * 41 + s2) floordiv 8) * 79) mod 42) floordiv s4) * 1448 + 592)>
#map119 = affine_map<()[s0, s1, s2, s3, s4, s5] -> (s0 mod 16 + s5 * 724 + (((s1 * 410 + s2 * 10 + s3 - ((s1 * 41 + s2) floordiv 8) * 79) mod 42) floordiv s4) * 1448 + 608)>
#map120 = affine_map<()[s0, s1, s2, s3, s4, s5] -> (s0 mod 16 + s5 * 724 + (((s1 * 410 + s2 * 10 + s3 - ((s1 * 41 + s2) floordiv 8) * 79) mod 42) floordiv s4) * 1448 + 624)>
#map121 = affine_map<()[s0, s1, s2, s3, s4, s5] -> (s0 mod 16 + s5 * 724 + (((s1 * 410 + s2 * 10 + s3 - ((s1 * 41 + s2) floordiv 8) * 79) mod 42) floordiv s4) * 1448 + 640)>
#map122 = affine_map<()[s0, s1, s2, s3, s4, s5] -> (s0 mod 16 + s5 * 724 + (((s1 * 410 + s2 * 10 + s3 - ((s1 * 41 + s2) floordiv 8) * 79) mod 42) floordiv s4) * 1448 + 656)>
#map123 = affine_map<()[s0, s1, s2, s3, s4, s5] -> (s0 mod 16 + s5 * 724 + (((s1 * 410 + s2 * 10 + s3 - ((s1 * 41 + s2) floordiv 8) * 79) mod 42) floordiv s4) * 1448 + 672)>
#map124 = affine_map<()[s0, s1, s2, s3, s4, s5] -> (s0 mod 16 + s5 * 724 + (((s1 * 410 + s2 * 10 + s3 - ((s1 * 41 + s2) floordiv 8) * 79) mod 42) floordiv s4) * 1448 + 688)>
#map125 = affine_map<()[s0, s1, s2, s3, s4, s5] -> (s0 mod 16 + s5 * 724 + (((s1 * 410 + s2 * 10 + s3 - ((s1 * 41 + s2) floordiv 8) * 79) mod 42) floordiv s4) * 1448 + 704)>
#map126 = affine_map<()[s0, s1, s2, s3, s4, s5] -> (s0 mod 16 + s5 * 724 + (((s1 * 410 + s2 * 10 + s3 - ((s1 * 41 + s2) floordiv 8) * 79) mod 42) floordiv s4) * 1448 + 720)>
#translation = #iree_codegen.translation_info<pipeline = None workgroup_size = [256, 2, 1] subgroup_size = 64>
module attributes {transform.with_named_sequence} {
  stream.executable private @gemm {
    stream.executable.export public @gemm workgroups() -> (index, index, index) {
      %c41 = arith.constant 41 : index
      %c2 = arith.constant 2 : index
      %c1 = arith.constant 1 : index
      stream.return %c41, %c2, %c1 : index, index, index
    }
    builtin.module {
      func.func @gemm(%arg0: !stream.binding, %arg1: !stream.binding, %arg2: !stream.binding) attributes {translation_info = #translation} {
        %c2880_i14 = arith.constant 2880 : i14
        %cst = arith.constant dense<0.000000e+00> : vector<4xf16>
        %cst_0 = arith.constant dense<[0, 1, 2, 3, 4, 5, 6, 7]> : vector<8xi32>
        %cst_1 = arith.constant dense<1073741823> : vector<8xindex>
        %cst_2 = arith.constant dense<[0, 1, 2, 3]> : vector<4xi32>
        %cst_3 = arith.constant dense<1073741823> : vector<4xindex>
        %c4096_i14 = arith.constant 4096 : i14
        %c536870911 = arith.constant 536870911 : index
        %c2147483643_i32 = arith.constant 2147483643 : i32
        %c536870910 = arith.constant 536870910 : index
        %c255 = arith.constant 255 : index
        %c2880 = arith.constant 2880 : index
        %c1448 = arith.constant 1448 : index
        %c2147483645_i32 = arith.constant 2147483645 : i32
        %c1073741822 = arith.constant 1073741822 : index
        %c4096 = arith.constant 4096 : index
        %c641 = arith.constant 641 : index
        %c21 = arith.constant 21 : index
        %c2 = arith.constant 2 : index
        %c16 = arith.constant 16 : index
        %c1 = arith.constant 1 : index
        %c57920 = arith.constant 57920 : index
        %c0 = arith.constant 0 : index
        %cst_4 = arith.constant dense<0.000000e+00> : vector<4xf32>
        %block_id_x = gpu.block_id  x upper_bound 41
        %block_id_y = gpu.block_id  y upper_bound 2
        %thread_id_x = gpu.thread_id  x upper_bound 256
        %thread_id_y = gpu.thread_id  y upper_bound 2
        %alloc = memref.alloc() : memref<58560xi8, #gpu.address_space<workgroup>>
        %view = memref.view %alloc[%c0][] : memref<58560xi8, #gpu.address_space<workgroup>> to memref<1448x20xf16, #gpu.address_space<workgroup>>
        %view_5 = memref.view %alloc[%c57920][] : memref<58560xi8, #gpu.address_space<workgroup>> to memref<16x20xf16, #gpu.address_space<workgroup>>
        %0 = stream.binding.subspan %arg0[%c0] : !stream.binding -> memref<641x4096xf16, strided<[4096, 1], offset: ?>>
        %1 = affine.apply #map()[%block_id_y, %block_id_x]
        %2 = arith.minsi %1, %c2 : index
        %3 = affine.apply #map1()[%block_id_y, %block_id_x, %2]
        %4 = arith.minsi %3, %c21 : index
        %5 = arith.maxsi %4, %c1 : index
        %6 = affine.apply #map2()[%block_id_x, %thread_id_x]
        %7 = arith.minsi %6, %c641 : index
        %8 = affine.apply #map3()[%thread_id_x, %block_id_y, %block_id_x, %2, %2, %5]
        %9 = arith.cmpi slt, %8, %7 : index
        %10 = vector.broadcast %9 : i1 to vector<4xi1>
        %11 = affine.apply #map4()[%thread_id_x]
        %12 = arith.muli %8, %c4096 overflow<nsw> : index
        %13 = arith.addi %12, %11 overflow<nsw> : index
        %base_buffer, %offset, %sizes:2, %strides:2 = memref.extract_strided_metadata %0 : memref<641x4096xf16, strided<[4096, 1], offset: ?>> -> memref<f16>, index, index, index, index, index
        %reinterpret_cast = memref.reinterpret_cast %0 to offset: [%offset], sizes: [%c1073741822], strides: [1] : memref<641x4096xf16, strided<[4096, 1], offset: ?>> to memref<?xf16, strided<[1], offset: ?>>
        %14 = amdgpu.fat_raw_buffer_cast %reinterpret_cast validBytes(%c2147483645_i32) cacheSwizzleStride(%c4096_i14) resetOffset : memref<?xf16, strided<[1], offset: ?>> to memref<?xf16, #amdgpu.address_space<fat_raw_buffer>>
        %15 = arith.index_cast %13 : index to i32
        %16 = vector.broadcast %15 : i32 to vector<4xi32>
        %17 = arith.addi %16, %cst_2 : vector<4xi32>
        %18 = arith.index_cast %17 : vector<4xi32> to vector<4xindex>
        %19 = arith.select %10, %18, %cst_3 : vector<4xi1>, vector<4xindex>
        %20 = vector.extract %19[0] : index from vector<4xindex>
        %21 = vector.load %14[%20] : memref<?xf16, #amdgpu.address_space<fat_raw_buffer>>, vector<4xf16>
        %22 = stream.binding.subspan %arg1[%c0] : !stream.binding -> memref<2880x4096xf16, strided<[4096, 1], offset: ?>>
        %23 = affine.apply #map5()[%thread_id_x, %thread_id_y, %block_id_y, %block_id_x, %2, %5]
        %24 = arith.cmpi slt, %23, %c2880 : index
        %25 = vector.broadcast %24 : i1 to vector<8xi1>
        %26 = affine.apply #map6()[%thread_id_x]
        %27 = arith.muli %23, %c4096 overflow<nsw> : index
        %28 = arith.addi %27, %26 overflow<nsw> : index
        %base_buffer_6, %offset_7, %sizes_8:2, %strides_9:2 = memref.extract_strided_metadata %22 : memref<2880x4096xf16, strided<[4096, 1], offset: ?>> -> memref<f16>, index, index, index, index, index
        %reinterpret_cast_10 = memref.reinterpret_cast %22 to offset: [%offset_7], sizes: [%c1073741822], strides: [1] : memref<2880x4096xf16, strided<[4096, 1], offset: ?>> to memref<?xf16, strided<[1], offset: ?>>
        %29 = amdgpu.fat_raw_buffer_cast %reinterpret_cast_10 validBytes(%c2147483645_i32) cacheSwizzleStride(%c4096_i14) resetOffset : memref<?xf16, strided<[1], offset: ?>> to memref<?xf16, #amdgpu.address_space<fat_raw_buffer>>
        %30 = arith.index_cast %28 : index to i32
        %31 = vector.broadcast %30 : i32 to vector<8xi32>
        %32 = arith.addi %31, %cst_0 : vector<8xi32>
        %33 = arith.index_cast %32 : vector<8xi32> to vector<8xindex>
        %34 = arith.select %25, %33, %cst_1 : vector<8xi1>, vector<8xindex>
        %35 = vector.extract %34[0] : index from vector<8xindex>
        %36 = vector.load %29[%35] : memref<?xf16, #amdgpu.address_space<fat_raw_buffer>>, vector<8xf16>
        %37 = affine.apply #map7()[%thread_id_x, %thread_id_y, %block_id_y, %block_id_x, %2, %5]
        %38 = arith.cmpi slt, %37, %c2880 : index
        %39 = vector.broadcast %38 : i1 to vector<8xi1>
        %40 = arith.muli %37, %c4096 overflow<nsw> : index
        %41 = arith.addi %40, %26 overflow<nsw> : index
        %42 = arith.index_cast %41 : index to i32
        %43 = vector.broadcast %42 : i32 to vector<8xi32>
        %44 = arith.addi %43, %cst_0 : vector<8xi32>
        %45 = arith.index_cast %44 : vector<8xi32> to vector<8xindex>
        %46 = arith.select %39, %45, %cst_1 : vector<8xi1>, vector<8xindex>
        %47 = vector.extract %46[0] : index from vector<8xindex>
        %48 = vector.load %29[%47] : memref<?xf16, #amdgpu.address_space<fat_raw_buffer>>, vector<8xf16>
        %49 = affine.apply #map8()[%thread_id_x, %thread_id_y, %block_id_y, %block_id_x, %2, %5]
        %50 = arith.cmpi slt, %49, %c2880 : index
        %51 = vector.broadcast %50 : i1 to vector<8xi1>
        %52 = arith.muli %49, %c4096 overflow<nsw> : index
        %53 = arith.addi %52, %26 overflow<nsw> : index
        %54 = arith.index_cast %53 : index to i32
        %55 = vector.broadcast %54 : i32 to vector<8xi32>
        %56 = arith.addi %55, %cst_0 : vector<8xi32>
        %57 = arith.index_cast %56 : vector<8xi32> to vector<8xindex>
        %58 = arith.select %51, %57, %cst_1 : vector<8xi1>, vector<8xindex>
        %59 = vector.extract %58[0] : index from vector<8xindex>
        %60 = vector.load %29[%59] : memref<?xf16, #amdgpu.address_space<fat_raw_buffer>>, vector<8xf16>
        %61 = affine.apply #map9()[%thread_id_x, %thread_id_y, %block_id_y, %block_id_x, %2, %5]
        %62 = arith.cmpi slt, %61, %c2880 : index
        %63 = vector.broadcast %62 : i1 to vector<8xi1>
        %64 = arith.muli %61, %c4096 overflow<nsw> : index
        %65 = arith.addi %64, %26 overflow<nsw> : index
        %66 = arith.index_cast %65 : index to i32
        %67 = vector.broadcast %66 : i32 to vector<8xi32>
        %68 = arith.addi %67, %cst_0 : vector<8xi32>
        %69 = arith.index_cast %68 : vector<8xi32> to vector<8xindex>
        %70 = arith.select %63, %69, %cst_1 : vector<8xi1>, vector<8xindex>
        %71 = vector.extract %70[0] : index from vector<8xindex>
        %72 = vector.load %29[%71] : memref<?xf16, #amdgpu.address_space<fat_raw_buffer>>, vector<8xf16>
        %73 = affine.apply #map10()[%thread_id_x, %thread_id_y, %block_id_y, %block_id_x, %2, %5]
        %74 = arith.cmpi slt, %73, %c2880 : index
        %75 = vector.broadcast %74 : i1 to vector<8xi1>
        %76 = arith.muli %73, %c4096 overflow<nsw> : index
        %77 = arith.addi %76, %26 overflow<nsw> : index
        %78 = arith.index_cast %77 : index to i32
        %79 = vector.broadcast %78 : i32 to vector<8xi32>
        %80 = arith.addi %79, %cst_0 : vector<8xi32>
        %81 = arith.index_cast %80 : vector<8xi32> to vector<8xindex>
        %82 = arith.select %75, %81, %cst_1 : vector<8xi1>, vector<8xindex>
        %83 = vector.extract %82[0] : index from vector<8xindex>
        %84 = vector.load %29[%83] : memref<?xf16, #amdgpu.address_space<fat_raw_buffer>>, vector<8xf16>
        %85 = affine.apply #map11()[%thread_id_x, %thread_id_y, %block_id_y, %block_id_x, %2, %5]
        %86 = arith.cmpi slt, %85, %c2880 : index
        %87 = vector.broadcast %86 : i1 to vector<8xi1>
        %88 = arith.muli %85, %c4096 overflow<nsw> : index
        %89 = arith.addi %88, %26 overflow<nsw> : index
        %90 = arith.index_cast %89 : index to i32
        %91 = vector.broadcast %90 : i32 to vector<8xi32>
        %92 = arith.addi %91, %cst_0 : vector<8xi32>
        %93 = arith.index_cast %92 : vector<8xi32> to vector<8xindex>
        %94 = arith.select %87, %93, %cst_1 : vector<8xi1>, vector<8xindex>
        %95 = vector.extract %94[0] : index from vector<8xindex>
        %96 = vector.load %29[%95] : memref<?xf16, #amdgpu.address_space<fat_raw_buffer>>, vector<8xf16>
        %97 = affine.apply #map12()[%thread_id_x]
        %98 = arith.minsi %97, %c16 : index
        %99 = affine.apply #map13()[%thread_id_x]
        %100 = arith.cmpi slt, %99, %98 : index
        %101 = vector.broadcast %100 : i1 to vector<4xi1>
        vector.maskedstore %view_5[%99, %11], %101, %21 : memref<16x20xf16, #gpu.address_space<workgroup>>, vector<4xi1>, vector<4xf16>
        %102 = affine.apply #map14()[%thread_id_y]
        %103 = arith.minsi %102, %c1448 : index
        %104 = affine.apply #map15()[%thread_id_x, %thread_id_y]
        %105 = arith.cmpi slt, %104, %103 : index
        %106 = vector.broadcast %105 : i1 to vector<8xi1>
        vector.maskedstore %view[%104, %26], %106, %36 : memref<1448x20xf16, #gpu.address_space<workgroup>>, vector<8xi1>, vector<8xf16>
        %107 = affine.apply #map16()[%thread_id_x, %thread_id_y]
        %108 = arith.cmpi slt, %107, %103 : index
        %109 = vector.broadcast %108 : i1 to vector<8xi1>
        vector.maskedstore %view[%107, %26], %109, %48 : memref<1448x20xf16, #gpu.address_space<workgroup>>, vector<8xi1>, vector<8xf16>
        %110 = affine.apply #map17()[%thread_id_x, %thread_id_y]
        %111 = arith.cmpi slt, %110, %103 : index
        %112 = vector.broadcast %111 : i1 to vector<8xi1>
        vector.maskedstore %view[%110, %26], %112, %60 : memref<1448x20xf16, #gpu.address_space<workgroup>>, vector<8xi1>, vector<8xf16>
        %113 = affine.apply #map18()[%thread_id_x, %thread_id_y]
        %114 = arith.cmpi slt, %113, %103 : index
        %115 = vector.broadcast %114 : i1 to vector<8xi1>
        vector.maskedstore %view[%113, %26], %115, %72 : memref<1448x20xf16, #gpu.address_space<workgroup>>, vector<8xi1>, vector<8xf16>
        %116 = affine.apply #map19()[%thread_id_x, %thread_id_y]
        %117 = arith.cmpi slt, %116, %103 : index
        %118 = vector.broadcast %117 : i1 to vector<8xi1>
        vector.maskedstore %view[%116, %26], %118, %84 : memref<1448x20xf16, #gpu.address_space<workgroup>>, vector<8xi1>, vector<8xf16>
        %119 = affine.apply #map20()[%thread_id_x, %thread_id_y]
        %120 = arith.cmpi slt, %119, %103 : index
        %121 = vector.broadcast %120 : i1 to vector<8xi1>
        vector.maskedstore %view[%119, %26], %121, %96 : memref<1448x20xf16, #gpu.address_space<workgroup>>, vector<8xi1>, vector<8xf16>
        %122 = affine.apply #map21()[%thread_id_x, %thread_id_y]
        %123 = arith.cmpi slt, %122, %103 : index
        %124 = vector.broadcast %123 : i1 to vector<4xi1>
        %125 = affine.apply #map22()[%thread_id_x, %thread_id_y]
        %126 = arith.cmpi slt, %125, %103 : index
        %127 = vector.broadcast %126 : i1 to vector<4xi1>
        %128 = affine.apply #map23()[%thread_id_x, %thread_id_y]
        %129 = arith.cmpi slt, %128, %103 : index
        %130 = vector.broadcast %129 : i1 to vector<4xi1>
        %131 = affine.apply #map24()[%thread_id_x, %thread_id_y]
        %132 = arith.cmpi slt, %131, %103 : index
        %133 = vector.broadcast %132 : i1 to vector<4xi1>
        %134 = affine.apply #map25()[%thread_id_x, %thread_id_y]
        %135 = arith.cmpi slt, %134, %103 : index
        %136 = vector.broadcast %135 : i1 to vector<4xi1>
        %137 = affine.apply #map26()[%thread_id_x, %thread_id_y]
        %138 = arith.cmpi slt, %137, %103 : index
        %139 = vector.broadcast %138 : i1 to vector<4xi1>
        %140 = affine.apply #map27()[%thread_id_x, %thread_id_y]
        %141 = arith.cmpi slt, %140, %103 : index
        %142 = vector.broadcast %141 : i1 to vector<4xi1>
        %143 = affine.apply #map28()[%thread_id_x, %thread_id_y]
        %144 = arith.cmpi slt, %143, %103 : index
        %145 = vector.broadcast %144 : i1 to vector<4xi1>
        %146 = affine.apply #map29()[%thread_id_x, %thread_id_y]
        %147 = arith.cmpi slt, %146, %103 : index
        %148 = vector.broadcast %147 : i1 to vector<4xi1>
        %149 = affine.apply #map30()[%thread_id_x, %thread_id_y]
        %150 = arith.cmpi slt, %149, %103 : index
        %151 = vector.broadcast %150 : i1 to vector<4xi1>
        %152 = affine.apply #map31()[%thread_id_x, %thread_id_y]
        %153 = arith.cmpi slt, %152, %103 : index
        %154 = vector.broadcast %153 : i1 to vector<4xi1>
        %155 = affine.apply #map32()[%thread_id_x, %thread_id_y]
        %156 = arith.cmpi slt, %155, %103 : index
        %157 = vector.broadcast %156 : i1 to vector<4xi1>
        %158 = affine.apply #map33()[%thread_id_x, %thread_id_y]
        %159 = arith.cmpi slt, %158, %103 : index
        %160 = vector.broadcast %159 : i1 to vector<4xi1>
        %161 = affine.apply #map34()[%thread_id_x, %thread_id_y]
        %162 = arith.cmpi slt, %161, %103 : index
        %163 = vector.broadcast %162 : i1 to vector<4xi1>
        %164 = affine.apply #map35()[%thread_id_x, %thread_id_y]
        %165 = arith.cmpi slt, %164, %103 : index
        %166 = vector.broadcast %165 : i1 to vector<4xi1>
        %167 = affine.apply #map36()[%thread_id_x, %thread_id_y]
        %168 = arith.cmpi slt, %167, %103 : index
        %169 = vector.broadcast %168 : i1 to vector<4xi1>
        %170 = affine.apply #map37()[%thread_id_x, %thread_id_y]
        %171 = arith.cmpi slt, %170, %103 : index
        %172 = vector.broadcast %171 : i1 to vector<4xi1>
        %173 = affine.apply #map38()[%thread_id_x, %thread_id_y]
        %174 = arith.cmpi slt, %173, %103 : index
        %175 = vector.broadcast %174 : i1 to vector<4xi1>
        %176 = affine.apply #map39()[%thread_id_x, %thread_id_y]
        %177 = arith.cmpi slt, %176, %103 : index
        %178 = vector.broadcast %177 : i1 to vector<4xi1>
        %179 = affine.apply #map40()[%thread_id_x, %thread_id_y]
        %180 = arith.cmpi slt, %179, %103 : index
        %181 = vector.broadcast %180 : i1 to vector<4xi1>
        %182 = affine.apply #map41()[%thread_id_x, %thread_id_y]
        %183 = arith.cmpi slt, %182, %103 : index
        %184 = vector.broadcast %183 : i1 to vector<4xi1>
        %185 = affine.apply #map42()[%thread_id_x, %thread_id_y]
        %186 = arith.cmpi slt, %185, %103 : index
        %187 = vector.broadcast %186 : i1 to vector<4xi1>
        %188 = affine.apply #map43()[%thread_id_x, %thread_id_y]
        %189 = arith.cmpi slt, %188, %103 : index
        %190 = vector.broadcast %189 : i1 to vector<4xi1>
        %191 = affine.apply #map44()[%thread_id_x, %thread_id_y]
        %192 = arith.cmpi slt, %191, %103 : index
        %193 = vector.broadcast %192 : i1 to vector<4xi1>
        %194 = affine.apply #map45()[%thread_id_x, %thread_id_y]
        %195 = arith.cmpi slt, %194, %103 : index
        %196 = vector.broadcast %195 : i1 to vector<4xi1>
        %197 = affine.apply #map46()[%thread_id_x, %thread_id_y]
        %198 = arith.cmpi slt, %197, %103 : index
        %199 = vector.broadcast %198 : i1 to vector<4xi1>
        %200 = affine.apply #map47()[%thread_id_x, %thread_id_y]
        %201 = arith.cmpi slt, %200, %103 : index
        %202 = vector.broadcast %201 : i1 to vector<4xi1>
        %203 = affine.apply #map48()[%thread_id_x, %thread_id_y]
        %204 = arith.cmpi slt, %203, %103 : index
        %205 = vector.broadcast %204 : i1 to vector<4xi1>
        %206 = affine.apply #map49()[%thread_id_x, %thread_id_y]
        %207 = arith.cmpi slt, %206, %103 : index
        %208 = vector.broadcast %207 : i1 to vector<4xi1>
        %209 = affine.apply #map50()[%thread_id_x, %thread_id_y]
        %210 = arith.cmpi slt, %209, %103 : index
        %211 = vector.broadcast %210 : i1 to vector<4xi1>
        %212 = affine.apply #map51()[%thread_id_x, %thread_id_y]
        %213 = arith.cmpi slt, %212, %103 : index
        %214 = vector.broadcast %213 : i1 to vector<4xi1>
        %215 = affine.apply #map52()[%thread_id_x, %thread_id_y]
        %216 = arith.cmpi slt, %215, %103 : index
        %217 = vector.broadcast %216 : i1 to vector<4xi1>
        %218 = affine.apply #map53()[%thread_id_x, %thread_id_y]
        %219 = arith.cmpi slt, %218, %103 : index
        %220 = vector.broadcast %219 : i1 to vector<4xi1>
        %221 = affine.apply #map54()[%thread_id_x, %thread_id_y]
        %222 = arith.cmpi slt, %221, %103 : index
        %223 = vector.broadcast %222 : i1 to vector<4xi1>
        %224 = affine.apply #map55()[%thread_id_x, %thread_id_y]
        %225 = arith.cmpi slt, %224, %103 : index
        %226 = vector.broadcast %225 : i1 to vector<4xi1>
        %227 = affine.apply #map56()[%thread_id_x, %thread_id_y]
        %228 = arith.cmpi slt, %227, %103 : index
        %229 = vector.broadcast %228 : i1 to vector<4xi1>
        %230 = affine.apply #map57()[%thread_id_x, %thread_id_y]
        %231 = arith.cmpi slt, %230, %103 : index
        %232 = vector.broadcast %231 : i1 to vector<4xi1>
        %233 = affine.apply #map58()[%thread_id_x, %thread_id_y]
        %234 = arith.cmpi slt, %233, %103 : index
        %235 = vector.broadcast %234 : i1 to vector<4xi1>
        %236 = affine.apply #map59()[%thread_id_x, %thread_id_y]
        %237 = arith.cmpi slt, %236, %103 : index
        %238 = vector.broadcast %237 : i1 to vector<4xi1>
        %239 = affine.apply #map60()[%thread_id_x, %thread_id_y]
        %240 = arith.cmpi slt, %239, %103 : index
        %241 = vector.broadcast %240 : i1 to vector<4xi1>
        %242 = affine.apply #map61()[%thread_id_x, %thread_id_y]
        %243 = arith.cmpi slt, %242, %103 : index
        %244 = vector.broadcast %243 : i1 to vector<4xi1>
        %245 = affine.apply #map62()[%thread_id_x, %thread_id_y]
        %246 = arith.cmpi slt, %245, %103 : index
        %247 = vector.broadcast %246 : i1 to vector<4xi1>
        %248 = affine.apply #map63()[%thread_id_x, %thread_id_y]
        %249 = arith.cmpi slt, %248, %103 : index
        %250 = vector.broadcast %249 : i1 to vector<4xi1>
        %251 = affine.apply #map64()[%thread_id_x, %thread_id_y]
        %252 = arith.cmpi slt, %251, %103 : index
        %253 = vector.broadcast %252 : i1 to vector<4xi1>
        %254 = affine.apply #map65()[%thread_id_x, %thread_id_y]
        %255 = arith.cmpi slt, %254, %103 : index
        %256 = vector.broadcast %255 : i1 to vector<4xi1>
        %257 = affine.apply #map66()[%thread_id_x, %thread_id_y]
        %258 = arith.cmpi slt, %257, %103 : index
        %259 = vector.broadcast %258 : i1 to vector<4xi1>
        %260:46 = scf.for %arg3 = %c0 to %c255 step %c1 iter_args(%arg4 = %cst_4, %arg5 = %cst_4, %arg6 = %cst_4, %arg7 = %cst_4, %arg8 = %cst_4, %arg9 = %cst_4, %arg10 = %cst_4, %arg11 = %cst_4, %arg12 = %cst_4, %arg13 = %cst_4, %arg14 = %cst_4, %arg15 = %cst_4, %arg16 = %cst_4, %arg17 = %cst_4, %arg18 = %cst_4, %arg19 = %cst_4, %arg20 = %cst_4, %arg21 = %cst_4, %arg22 = %cst_4, %arg23 = %cst_4, %arg24 = %cst_4, %arg25 = %cst_4, %arg26 = %cst_4, %arg27 = %cst_4, %arg28 = %cst_4, %arg29 = %cst_4, %arg30 = %cst_4, %arg31 = %cst_4, %arg32 = %cst_4, %arg33 = %cst_4, %arg34 = %cst_4, %arg35 = %cst_4, %arg36 = %cst_4, %arg37 = %cst_4, %arg38 = %cst_4, %arg39 = %cst_4, %arg40 = %cst_4, %arg41 = %cst_4, %arg42 = %cst_4, %arg43 = %cst_4, %arg44 = %cst_4, %arg45 = %cst_4, %arg46 = %cst_4, %arg47 = %cst_4, %arg48 = %cst_4, %arg49 = %cst_4) -> (vector<4xf32>, vector<4xf32>, vector<4xf32>, vector<4xf32>, vector<4xf32>, vector<4xf32>, vector<4xf32>, vector<4xf32>, vector<4xf32>, vector<4xf32>, vector<4xf32>, vector<4xf32>, vector<4xf32>, vector<4xf32>, vector<4xf32>, vector<4xf32>, vector<4xf32>, vector<4xf32>, vector<4xf32>, vector<4xf32>, vector<4xf32>, vector<4xf32>, vector<4xf32>, vector<4xf32>, vector<4xf32>, vector<4xf32>, vector<4xf32>, vector<4xf32>, vector<4xf32>, vector<4xf32>, vector<4xf32>, vector<4xf32>, vector<4xf32>, vector<4xf32>, vector<4xf32>, vector<4xf32>, vector<4xf32>, vector<4xf32>, vector<4xf32>, vector<4xf32>, vector<4xf32>, vector<4xf32>, vector<4xf32>, vector<4xf32>, vector<4xf32>, vector<4xf32>) {
          amdgpu.lds_barrier
          %1347 = vector.maskedload %view[%122, %11], %124, %cst : memref<1448x20xf16, #gpu.address_space<workgroup>>, vector<4xi1>, vector<4xf16> into vector<4xf16>
          %1348 = vector.maskedload %view[%125, %11], %127, %cst : memref<1448x20xf16, #gpu.address_space<workgroup>>, vector<4xi1>, vector<4xf16> into vector<4xf16>
          %1349 = vector.maskedload %view[%128, %11], %130, %cst : memref<1448x20xf16, #gpu.address_space<workgroup>>, vector<4xi1>, vector<4xf16> into vector<4xf16>
          %1350 = vector.maskedload %view[%131, %11], %133, %cst : memref<1448x20xf16, #gpu.address_space<workgroup>>, vector<4xi1>, vector<4xf16> into vector<4xf16>
          %1351 = vector.maskedload %view[%134, %11], %136, %cst : memref<1448x20xf16, #gpu.address_space<workgroup>>, vector<4xi1>, vector<4xf16> into vector<4xf16>
          %1352 = vector.maskedload %view[%137, %11], %139, %cst : memref<1448x20xf16, #gpu.address_space<workgroup>>, vector<4xi1>, vector<4xf16> into vector<4xf16>
          %1353 = vector.maskedload %view[%140, %11], %142, %cst : memref<1448x20xf16, #gpu.address_space<workgroup>>, vector<4xi1>, vector<4xf16> into vector<4xf16>
          %1354 = vector.maskedload %view[%143, %11], %145, %cst : memref<1448x20xf16, #gpu.address_space<workgroup>>, vector<4xi1>, vector<4xf16> into vector<4xf16>
          %1355 = vector.maskedload %view[%146, %11], %148, %cst : memref<1448x20xf16, #gpu.address_space<workgroup>>, vector<4xi1>, vector<4xf16> into vector<4xf16>
          %1356 = vector.maskedload %view[%149, %11], %151, %cst : memref<1448x20xf16, #gpu.address_space<workgroup>>, vector<4xi1>, vector<4xf16> into vector<4xf16>
          %1357 = vector.maskedload %view[%152, %11], %154, %cst : memref<1448x20xf16, #gpu.address_space<workgroup>>, vector<4xi1>, vector<4xf16> into vector<4xf16>
          %1358 = vector.maskedload %view[%155, %11], %157, %cst : memref<1448x20xf16, #gpu.address_space<workgroup>>, vector<4xi1>, vector<4xf16> into vector<4xf16>
          %1359 = vector.maskedload %view[%158, %11], %160, %cst : memref<1448x20xf16, #gpu.address_space<workgroup>>, vector<4xi1>, vector<4xf16> into vector<4xf16>
          %1360 = vector.maskedload %view[%161, %11], %163, %cst : memref<1448x20xf16, #gpu.address_space<workgroup>>, vector<4xi1>, vector<4xf16> into vector<4xf16>
          %1361 = vector.maskedload %view[%164, %11], %166, %cst : memref<1448x20xf16, #gpu.address_space<workgroup>>, vector<4xi1>, vector<4xf16> into vector<4xf16>
          %1362 = vector.maskedload %view[%167, %11], %169, %cst : memref<1448x20xf16, #gpu.address_space<workgroup>>, vector<4xi1>, vector<4xf16> into vector<4xf16>
          %1363 = vector.maskedload %view[%170, %11], %172, %cst : memref<1448x20xf16, #gpu.address_space<workgroup>>, vector<4xi1>, vector<4xf16> into vector<4xf16>
          %1364 = vector.maskedload %view[%173, %11], %175, %cst : memref<1448x20xf16, #gpu.address_space<workgroup>>, vector<4xi1>, vector<4xf16> into vector<4xf16>
          %1365 = vector.maskedload %view[%176, %11], %178, %cst : memref<1448x20xf16, #gpu.address_space<workgroup>>, vector<4xi1>, vector<4xf16> into vector<4xf16>
          %1366 = vector.maskedload %view[%179, %11], %181, %cst : memref<1448x20xf16, #gpu.address_space<workgroup>>, vector<4xi1>, vector<4xf16> into vector<4xf16>
          %1367 = vector.maskedload %view[%182, %11], %184, %cst : memref<1448x20xf16, #gpu.address_space<workgroup>>, vector<4xi1>, vector<4xf16> into vector<4xf16>
          %1368 = vector.maskedload %view[%185, %11], %187, %cst : memref<1448x20xf16, #gpu.address_space<workgroup>>, vector<4xi1>, vector<4xf16> into vector<4xf16>
          %1369 = vector.maskedload %view[%188, %11], %190, %cst : memref<1448x20xf16, #gpu.address_space<workgroup>>, vector<4xi1>, vector<4xf16> into vector<4xf16>
          %1370 = vector.maskedload %view[%191, %11], %193, %cst : memref<1448x20xf16, #gpu.address_space<workgroup>>, vector<4xi1>, vector<4xf16> into vector<4xf16>
          %1371 = vector.maskedload %view[%194, %11], %196, %cst : memref<1448x20xf16, #gpu.address_space<workgroup>>, vector<4xi1>, vector<4xf16> into vector<4xf16>
          %1372 = vector.maskedload %view[%197, %11], %199, %cst : memref<1448x20xf16, #gpu.address_space<workgroup>>, vector<4xi1>, vector<4xf16> into vector<4xf16>
          %1373 = vector.maskedload %view[%200, %11], %202, %cst : memref<1448x20xf16, #gpu.address_space<workgroup>>, vector<4xi1>, vector<4xf16> into vector<4xf16>
          %1374 = vector.maskedload %view[%203, %11], %205, %cst : memref<1448x20xf16, #gpu.address_space<workgroup>>, vector<4xi1>, vector<4xf16> into vector<4xf16>
          %1375 = vector.maskedload %view[%206, %11], %208, %cst : memref<1448x20xf16, #gpu.address_space<workgroup>>, vector<4xi1>, vector<4xf16> into vector<4xf16>
          %1376 = vector.maskedload %view[%209, %11], %211, %cst : memref<1448x20xf16, #gpu.address_space<workgroup>>, vector<4xi1>, vector<4xf16> into vector<4xf16>
          %1377 = vector.maskedload %view[%212, %11], %214, %cst : memref<1448x20xf16, #gpu.address_space<workgroup>>, vector<4xi1>, vector<4xf16> into vector<4xf16>
          %1378 = vector.maskedload %view[%215, %11], %217, %cst : memref<1448x20xf16, #gpu.address_space<workgroup>>, vector<4xi1>, vector<4xf16> into vector<4xf16>
          %1379 = vector.maskedload %view[%218, %11], %220, %cst : memref<1448x20xf16, #gpu.address_space<workgroup>>, vector<4xi1>, vector<4xf16> into vector<4xf16>
          %1380 = vector.maskedload %view[%221, %11], %223, %cst : memref<1448x20xf16, #gpu.address_space<workgroup>>, vector<4xi1>, vector<4xf16> into vector<4xf16>
          %1381 = vector.maskedload %view[%224, %11], %226, %cst : memref<1448x20xf16, #gpu.address_space<workgroup>>, vector<4xi1>, vector<4xf16> into vector<4xf16>
          %1382 = vector.maskedload %view[%227, %11], %229, %cst : memref<1448x20xf16, #gpu.address_space<workgroup>>, vector<4xi1>, vector<4xf16> into vector<4xf16>
          %1383 = vector.maskedload %view[%230, %11], %232, %cst : memref<1448x20xf16, #gpu.address_space<workgroup>>, vector<4xi1>, vector<4xf16> into vector<4xf16>
          %1384 = vector.maskedload %view[%233, %11], %235, %cst : memref<1448x20xf16, #gpu.address_space<workgroup>>, vector<4xi1>, vector<4xf16> into vector<4xf16>
          %1385 = vector.maskedload %view[%236, %11], %238, %cst : memref<1448x20xf16, #gpu.address_space<workgroup>>, vector<4xi1>, vector<4xf16> into vector<4xf16>
          %1386 = vector.maskedload %view[%239, %11], %241, %cst : memref<1448x20xf16, #gpu.address_space<workgroup>>, vector<4xi1>, vector<4xf16> into vector<4xf16>
          %1387 = vector.maskedload %view[%242, %11], %244, %cst : memref<1448x20xf16, #gpu.address_space<workgroup>>, vector<4xi1>, vector<4xf16> into vector<4xf16>
          %1388 = vector.maskedload %view[%245, %11], %247, %cst : memref<1448x20xf16, #gpu.address_space<workgroup>>, vector<4xi1>, vector<4xf16> into vector<4xf16>
          %1389 = vector.maskedload %view[%248, %11], %250, %cst : memref<1448x20xf16, #gpu.address_space<workgroup>>, vector<4xi1>, vector<4xf16> into vector<4xf16>
          %1390 = vector.maskedload %view[%251, %11], %253, %cst : memref<1448x20xf16, #gpu.address_space<workgroup>>, vector<4xi1>, vector<4xf16> into vector<4xf16>
          %1391 = vector.maskedload %view[%254, %11], %256, %cst : memref<1448x20xf16, #gpu.address_space<workgroup>>, vector<4xi1>, vector<4xf16> into vector<4xf16>
          %1392 = vector.maskedload %view[%257, %11], %259, %cst : memref<1448x20xf16, #gpu.address_space<workgroup>>, vector<4xi1>, vector<4xf16> into vector<4xf16>
          %1393 = vector.maskedload %view_5[%99, %11], %101, %cst : memref<16x20xf16, #gpu.address_space<workgroup>>, vector<4xi1>, vector<4xf16> into vector<4xf16>
          %1394 = affine.apply #map67()[%arg3, %thread_id_x]
          %1395 = arith.addi %12, %1394 overflow<nsw> : index
          %1396 = arith.index_cast %1395 : index to i32
          %1397 = vector.broadcast %1396 : i32 to vector<4xi32>
          %1398 = arith.addi %1397, %cst_2 : vector<4xi32>
          %1399 = arith.index_cast %1398 : vector<4xi32> to vector<4xindex>
          %1400 = arith.select %10, %1399, %cst_3 : vector<4xi1>, vector<4xindex>
          %1401 = vector.extract %1400[0] : index from vector<4xindex>
          %1402 = vector.load %14[%1401] : memref<?xf16, #amdgpu.address_space<fat_raw_buffer>>, vector<4xf16>
          %1403 = affine.apply #map68()[%arg3, %thread_id_x]
          %1404 = arith.addi %27, %1403 overflow<nsw> : index
          %1405 = arith.index_cast %1404 : index to i32
          %1406 = vector.broadcast %1405 : i32 to vector<8xi32>
          %1407 = arith.addi %1406, %cst_0 : vector<8xi32>
          %1408 = arith.index_cast %1407 : vector<8xi32> to vector<8xindex>
          %1409 = arith.select %25, %1408, %cst_1 : vector<8xi1>, vector<8xindex>
          %1410 = vector.extract %1409[0] : index from vector<8xindex>
          %1411 = vector.load %29[%1410] : memref<?xf16, #amdgpu.address_space<fat_raw_buffer>>, vector<8xf16>
          %1412 = arith.addi %40, %1403 overflow<nsw> : index
          %1413 = arith.index_cast %1412 : index to i32
          %1414 = vector.broadcast %1413 : i32 to vector<8xi32>
          %1415 = arith.addi %1414, %cst_0 : vector<8xi32>
          %1416 = arith.index_cast %1415 : vector<8xi32> to vector<8xindex>
          %1417 = arith.select %39, %1416, %cst_1 : vector<8xi1>, vector<8xindex>
          %1418 = vector.extract %1417[0] : index from vector<8xindex>
          %1419 = vector.load %29[%1418] : memref<?xf16, #amdgpu.address_space<fat_raw_buffer>>, vector<8xf16>
          %1420 = arith.addi %52, %1403 overflow<nsw> : index
          %1421 = arith.index_cast %1420 : index to i32
          %1422 = vector.broadcast %1421 : i32 to vector<8xi32>
          %1423 = arith.addi %1422, %cst_0 : vector<8xi32>
          %1424 = arith.index_cast %1423 : vector<8xi32> to vector<8xindex>
          %1425 = arith.select %51, %1424, %cst_1 : vector<8xi1>, vector<8xindex>
          %1426 = vector.extract %1425[0] : index from vector<8xindex>
          %1427 = vector.load %29[%1426] : memref<?xf16, #amdgpu.address_space<fat_raw_buffer>>, vector<8xf16>
          %1428 = arith.addi %64, %1403 overflow<nsw> : index
          %1429 = arith.index_cast %1428 : index to i32
          %1430 = vector.broadcast %1429 : i32 to vector<8xi32>
          %1431 = arith.addi %1430, %cst_0 : vector<8xi32>
          %1432 = arith.index_cast %1431 : vector<8xi32> to vector<8xindex>
          %1433 = arith.select %63, %1432, %cst_1 : vector<8xi1>, vector<8xindex>
          %1434 = vector.extract %1433[0] : index from vector<8xindex>
          %1435 = vector.load %29[%1434] : memref<?xf16, #amdgpu.address_space<fat_raw_buffer>>, vector<8xf16>
          %1436 = arith.addi %76, %1403 overflow<nsw> : index
          %1437 = arith.index_cast %1436 : index to i32
          %1438 = vector.broadcast %1437 : i32 to vector<8xi32>
          %1439 = arith.addi %1438, %cst_0 : vector<8xi32>
          %1440 = arith.index_cast %1439 : vector<8xi32> to vector<8xindex>
          %1441 = arith.select %75, %1440, %cst_1 : vector<8xi1>, vector<8xindex>
          %1442 = vector.extract %1441[0] : index from vector<8xindex>
          %1443 = vector.load %29[%1442] : memref<?xf16, #amdgpu.address_space<fat_raw_buffer>>, vector<8xf16>
          %1444 = arith.addi %88, %1403 overflow<nsw> : index
          %1445 = arith.index_cast %1444 : index to i32
          %1446 = vector.broadcast %1445 : i32 to vector<8xi32>
          %1447 = arith.addi %1446, %cst_0 : vector<8xi32>
          %1448 = arith.index_cast %1447 : vector<8xi32> to vector<8xindex>
          %1449 = arith.select %87, %1448, %cst_1 : vector<8xi1>, vector<8xindex>
          %1450 = vector.extract %1449[0] : index from vector<8xindex>
          %1451 = vector.load %29[%1450] : memref<?xf16, #amdgpu.address_space<fat_raw_buffer>>, vector<8xf16>
          %1452 = amdgpu.mfma %1393 * %1347 + %arg4 {blocks = 1 : i32, k = 16 : i32, m = 16 : i32, n = 16 : i32} blgp =  none : vector<4xf16>, vector<4xf16>, vector<4xf32>
          %1453 = amdgpu.mfma %1393 * %1348 + %arg5 {blocks = 1 : i32, k = 16 : i32, m = 16 : i32, n = 16 : i32} blgp =  none : vector<4xf16>, vector<4xf16>, vector<4xf32>
          %1454 = amdgpu.mfma %1393 * %1349 + %arg6 {blocks = 1 : i32, k = 16 : i32, m = 16 : i32, n = 16 : i32} blgp =  none : vector<4xf16>, vector<4xf16>, vector<4xf32>
          %1455 = amdgpu.mfma %1393 * %1350 + %arg7 {blocks = 1 : i32, k = 16 : i32, m = 16 : i32, n = 16 : i32} blgp =  none : vector<4xf16>, vector<4xf16>, vector<4xf32>
          %1456 = amdgpu.mfma %1393 * %1351 + %arg8 {blocks = 1 : i32, k = 16 : i32, m = 16 : i32, n = 16 : i32} blgp =  none : vector<4xf16>, vector<4xf16>, vector<4xf32>
          %1457 = amdgpu.mfma %1393 * %1352 + %arg9 {blocks = 1 : i32, k = 16 : i32, m = 16 : i32, n = 16 : i32} blgp =  none : vector<4xf16>, vector<4xf16>, vector<4xf32>
          %1458 = amdgpu.mfma %1393 * %1353 + %arg10 {blocks = 1 : i32, k = 16 : i32, m = 16 : i32, n = 16 : i32} blgp =  none : vector<4xf16>, vector<4xf16>, vector<4xf32>
          %1459 = amdgpu.mfma %1393 * %1354 + %arg11 {blocks = 1 : i32, k = 16 : i32, m = 16 : i32, n = 16 : i32} blgp =  none : vector<4xf16>, vector<4xf16>, vector<4xf32>
          %1460 = amdgpu.mfma %1393 * %1355 + %arg12 {blocks = 1 : i32, k = 16 : i32, m = 16 : i32, n = 16 : i32} blgp =  none : vector<4xf16>, vector<4xf16>, vector<4xf32>
          %1461 = amdgpu.mfma %1393 * %1356 + %arg13 {blocks = 1 : i32, k = 16 : i32, m = 16 : i32, n = 16 : i32} blgp =  none : vector<4xf16>, vector<4xf16>, vector<4xf32>
          %1462 = amdgpu.mfma %1393 * %1357 + %arg14 {blocks = 1 : i32, k = 16 : i32, m = 16 : i32, n = 16 : i32} blgp =  none : vector<4xf16>, vector<4xf16>, vector<4xf32>
          %1463 = amdgpu.mfma %1393 * %1358 + %arg15 {blocks = 1 : i32, k = 16 : i32, m = 16 : i32, n = 16 : i32} blgp =  none : vector<4xf16>, vector<4xf16>, vector<4xf32>
          %1464 = amdgpu.mfma %1393 * %1359 + %arg16 {blocks = 1 : i32, k = 16 : i32, m = 16 : i32, n = 16 : i32} blgp =  none : vector<4xf16>, vector<4xf16>, vector<4xf32>
          %1465 = amdgpu.mfma %1393 * %1360 + %arg17 {blocks = 1 : i32, k = 16 : i32, m = 16 : i32, n = 16 : i32} blgp =  none : vector<4xf16>, vector<4xf16>, vector<4xf32>
          %1466 = amdgpu.mfma %1393 * %1361 + %arg18 {blocks = 1 : i32, k = 16 : i32, m = 16 : i32, n = 16 : i32} blgp =  none : vector<4xf16>, vector<4xf16>, vector<4xf32>
          %1467 = amdgpu.mfma %1393 * %1362 + %arg19 {blocks = 1 : i32, k = 16 : i32, m = 16 : i32, n = 16 : i32} blgp =  none : vector<4xf16>, vector<4xf16>, vector<4xf32>
          %1468 = amdgpu.mfma %1393 * %1363 + %arg20 {blocks = 1 : i32, k = 16 : i32, m = 16 : i32, n = 16 : i32} blgp =  none : vector<4xf16>, vector<4xf16>, vector<4xf32>
          %1469 = amdgpu.mfma %1393 * %1364 + %arg21 {blocks = 1 : i32, k = 16 : i32, m = 16 : i32, n = 16 : i32} blgp =  none : vector<4xf16>, vector<4xf16>, vector<4xf32>
          %1470 = amdgpu.mfma %1393 * %1365 + %arg22 {blocks = 1 : i32, k = 16 : i32, m = 16 : i32, n = 16 : i32} blgp =  none : vector<4xf16>, vector<4xf16>, vector<4xf32>
          %1471 = amdgpu.mfma %1393 * %1366 + %arg23 {blocks = 1 : i32, k = 16 : i32, m = 16 : i32, n = 16 : i32} blgp =  none : vector<4xf16>, vector<4xf16>, vector<4xf32>
          %1472 = amdgpu.mfma %1393 * %1367 + %arg24 {blocks = 1 : i32, k = 16 : i32, m = 16 : i32, n = 16 : i32} blgp =  none : vector<4xf16>, vector<4xf16>, vector<4xf32>
          %1473 = amdgpu.mfma %1393 * %1368 + %arg25 {blocks = 1 : i32, k = 16 : i32, m = 16 : i32, n = 16 : i32} blgp =  none : vector<4xf16>, vector<4xf16>, vector<4xf32>
          %1474 = amdgpu.mfma %1393 * %1369 + %arg26 {blocks = 1 : i32, k = 16 : i32, m = 16 : i32, n = 16 : i32} blgp =  none : vector<4xf16>, vector<4xf16>, vector<4xf32>
          %1475 = amdgpu.mfma %1393 * %1370 + %arg27 {blocks = 1 : i32, k = 16 : i32, m = 16 : i32, n = 16 : i32} blgp =  none : vector<4xf16>, vector<4xf16>, vector<4xf32>
          %1476 = amdgpu.mfma %1393 * %1371 + %arg28 {blocks = 1 : i32, k = 16 : i32, m = 16 : i32, n = 16 : i32} blgp =  none : vector<4xf16>, vector<4xf16>, vector<4xf32>
          %1477 = amdgpu.mfma %1393 * %1372 + %arg29 {blocks = 1 : i32, k = 16 : i32, m = 16 : i32, n = 16 : i32} blgp =  none : vector<4xf16>, vector<4xf16>, vector<4xf32>
          %1478 = amdgpu.mfma %1393 * %1373 + %arg30 {blocks = 1 : i32, k = 16 : i32, m = 16 : i32, n = 16 : i32} blgp =  none : vector<4xf16>, vector<4xf16>, vector<4xf32>
          %1479 = amdgpu.mfma %1393 * %1374 + %arg31 {blocks = 1 : i32, k = 16 : i32, m = 16 : i32, n = 16 : i32} blgp =  none : vector<4xf16>, vector<4xf16>, vector<4xf32>
          %1480 = amdgpu.mfma %1393 * %1375 + %arg32 {blocks = 1 : i32, k = 16 : i32, m = 16 : i32, n = 16 : i32} blgp =  none : vector<4xf16>, vector<4xf16>, vector<4xf32>
          %1481 = amdgpu.mfma %1393 * %1376 + %arg33 {blocks = 1 : i32, k = 16 : i32, m = 16 : i32, n = 16 : i32} blgp =  none : vector<4xf16>, vector<4xf16>, vector<4xf32>
          %1482 = amdgpu.mfma %1393 * %1377 + %arg34 {blocks = 1 : i32, k = 16 : i32, m = 16 : i32, n = 16 : i32} blgp =  none : vector<4xf16>, vector<4xf16>, vector<4xf32>
          %1483 = amdgpu.mfma %1393 * %1378 + %arg35 {blocks = 1 : i32, k = 16 : i32, m = 16 : i32, n = 16 : i32} blgp =  none : vector<4xf16>, vector<4xf16>, vector<4xf32>
          %1484 = amdgpu.mfma %1393 * %1379 + %arg36 {blocks = 1 : i32, k = 16 : i32, m = 16 : i32, n = 16 : i32} blgp =  none : vector<4xf16>, vector<4xf16>, vector<4xf32>
          %1485 = amdgpu.mfma %1393 * %1380 + %arg37 {blocks = 1 : i32, k = 16 : i32, m = 16 : i32, n = 16 : i32} blgp =  none : vector<4xf16>, vector<4xf16>, vector<4xf32>
          %1486 = amdgpu.mfma %1393 * %1381 + %arg38 {blocks = 1 : i32, k = 16 : i32, m = 16 : i32, n = 16 : i32} blgp =  none : vector<4xf16>, vector<4xf16>, vector<4xf32>
          %1487 = amdgpu.mfma %1393 * %1382 + %arg39 {blocks = 1 : i32, k = 16 : i32, m = 16 : i32, n = 16 : i32} blgp =  none : vector<4xf16>, vector<4xf16>, vector<4xf32>
          %1488 = amdgpu.mfma %1393 * %1383 + %arg40 {blocks = 1 : i32, k = 16 : i32, m = 16 : i32, n = 16 : i32} blgp =  none : vector<4xf16>, vector<4xf16>, vector<4xf32>
          %1489 = amdgpu.mfma %1393 * %1384 + %arg41 {blocks = 1 : i32, k = 16 : i32, m = 16 : i32, n = 16 : i32} blgp =  none : vector<4xf16>, vector<4xf16>, vector<4xf32>
          %1490 = amdgpu.mfma %1393 * %1385 + %arg42 {blocks = 1 : i32, k = 16 : i32, m = 16 : i32, n = 16 : i32} blgp =  none : vector<4xf16>, vector<4xf16>, vector<4xf32>
          %1491 = amdgpu.mfma %1393 * %1386 + %arg43 {blocks = 1 : i32, k = 16 : i32, m = 16 : i32, n = 16 : i32} blgp =  none : vector<4xf16>, vector<4xf16>, vector<4xf32>
          %1492 = amdgpu.mfma %1393 * %1387 + %arg44 {blocks = 1 : i32, k = 16 : i32, m = 16 : i32, n = 16 : i32} blgp =  none : vector<4xf16>, vector<4xf16>, vector<4xf32>
          %1493 = amdgpu.mfma %1393 * %1388 + %arg45 {blocks = 1 : i32, k = 16 : i32, m = 16 : i32, n = 16 : i32} blgp =  none : vector<4xf16>, vector<4xf16>, vector<4xf32>
          %1494 = amdgpu.mfma %1393 * %1389 + %arg46 {blocks = 1 : i32, k = 16 : i32, m = 16 : i32, n = 16 : i32} blgp =  none : vector<4xf16>, vector<4xf16>, vector<4xf32>
          %1495 = amdgpu.mfma %1393 * %1390 + %arg47 {blocks = 1 : i32, k = 16 : i32, m = 16 : i32, n = 16 : i32} blgp =  none : vector<4xf16>, vector<4xf16>, vector<4xf32>
          %1496 = amdgpu.mfma %1393 * %1391 + %arg48 {blocks = 1 : i32, k = 16 : i32, m = 16 : i32, n = 16 : i32} blgp =  none : vector<4xf16>, vector<4xf16>, vector<4xf32>
          %1497 = amdgpu.mfma %1393 * %1392 + %arg49 {blocks = 1 : i32, k = 16 : i32, m = 16 : i32, n = 16 : i32} blgp =  none : vector<4xf16>, vector<4xf16>, vector<4xf32>
          amdgpu.lds_barrier
          vector.maskedstore %view_5[%99, %11], %101, %1402 : memref<16x20xf16, #gpu.address_space<workgroup>>, vector<4xi1>, vector<4xf16>
          vector.maskedstore %view[%104, %26], %106, %1411 : memref<1448x20xf16, #gpu.address_space<workgroup>>, vector<8xi1>, vector<8xf16>
          vector.maskedstore %view[%107, %26], %109, %1419 : memref<1448x20xf16, #gpu.address_space<workgroup>>, vector<8xi1>, vector<8xf16>
          vector.maskedstore %view[%110, %26], %112, %1427 : memref<1448x20xf16, #gpu.address_space<workgroup>>, vector<8xi1>, vector<8xf16>
          vector.maskedstore %view[%113, %26], %115, %1435 : memref<1448x20xf16, #gpu.address_space<workgroup>>, vector<8xi1>, vector<8xf16>
          vector.maskedstore %view[%116, %26], %118, %1443 : memref<1448x20xf16, #gpu.address_space<workgroup>>, vector<8xi1>, vector<8xf16>
          vector.maskedstore %view[%119, %26], %121, %1451 : memref<1448x20xf16, #gpu.address_space<workgroup>>, vector<8xi1>, vector<8xf16>
          scf.yield %1452, %1453, %1454, %1455, %1456, %1457, %1458, %1459, %1460, %1461, %1462, %1463, %1464, %1465, %1466, %1467, %1468, %1469, %1470, %1471, %1472, %1473, %1474, %1475, %1476, %1477, %1478, %1479, %1480, %1481, %1482, %1483, %1484, %1485, %1486, %1487, %1488, %1489, %1490, %1491, %1492, %1493, %1494, %1495, %1496, %1497 : vector<4xf32>, vector<4xf32>, vector<4xf32>, vector<4xf32>, vector<4xf32>, vector<4xf32>, vector<4xf32>, vector<4xf32>, vector<4xf32>, vector<4xf32>, vector<4xf32>, vector<4xf32>, vector<4xf32>, vector<4xf32>, vector<4xf32>, vector<4xf32>, vector<4xf32>, vector<4xf32>, vector<4xf32>, vector<4xf32>, vector<4xf32>, vector<4xf32>, vector<4xf32>, vector<4xf32>, vector<4xf32>, vector<4xf32>, vector<4xf32>, vector<4xf32>, vector<4xf32>, vector<4xf32>, vector<4xf32>, vector<4xf32>, vector<4xf32>, vector<4xf32>, vector<4xf32>, vector<4xf32>, vector<4xf32>, vector<4xf32>, vector<4xf32>, vector<4xf32>, vector<4xf32>, vector<4xf32>, vector<4xf32>, vector<4xf32>, vector<4xf32>, vector<4xf32>
        }
        amdgpu.lds_barrier
        %261 = affine.apply #map21()[%thread_id_x, %thread_id_y]
        %262 = arith.cmpi slt, %261, %103 : index
        %263 = vector.broadcast %262 : i1 to vector<4xi1>
        %264 = vector.maskedload %view[%261, %11], %263, %cst : memref<1448x20xf16, #gpu.address_space<workgroup>>, vector<4xi1>, vector<4xf16> into vector<4xf16>
        %265 = affine.apply #map22()[%thread_id_x, %thread_id_y]
        %266 = arith.cmpi slt, %265, %103 : index
        %267 = vector.broadcast %266 : i1 to vector<4xi1>
        %268 = vector.maskedload %view[%265, %11], %267, %cst : memref<1448x20xf16, #gpu.address_space<workgroup>>, vector<4xi1>, vector<4xf16> into vector<4xf16>
        %269 = affine.apply #map23()[%thread_id_x, %thread_id_y]
        %270 = arith.cmpi slt, %269, %103 : index
        %271 = vector.broadcast %270 : i1 to vector<4xi1>
        %272 = vector.maskedload %view[%269, %11], %271, %cst : memref<1448x20xf16, #gpu.address_space<workgroup>>, vector<4xi1>, vector<4xf16> into vector<4xf16>
        %273 = affine.apply #map24()[%thread_id_x, %thread_id_y]
        %274 = arith.cmpi slt, %273, %103 : index
        %275 = vector.broadcast %274 : i1 to vector<4xi1>
        %276 = vector.maskedload %view[%273, %11], %275, %cst : memref<1448x20xf16, #gpu.address_space<workgroup>>, vector<4xi1>, vector<4xf16> into vector<4xf16>
        %277 = affine.apply #map25()[%thread_id_x, %thread_id_y]
        %278 = arith.cmpi slt, %277, %103 : index
        %279 = vector.broadcast %278 : i1 to vector<4xi1>
        %280 = vector.maskedload %view[%277, %11], %279, %cst : memref<1448x20xf16, #gpu.address_space<workgroup>>, vector<4xi1>, vector<4xf16> into vector<4xf16>
        %281 = affine.apply #map26()[%thread_id_x, %thread_id_y]
        %282 = arith.cmpi slt, %281, %103 : index
        %283 = vector.broadcast %282 : i1 to vector<4xi1>
        %284 = vector.maskedload %view[%281, %11], %283, %cst : memref<1448x20xf16, #gpu.address_space<workgroup>>, vector<4xi1>, vector<4xf16> into vector<4xf16>
        %285 = affine.apply #map27()[%thread_id_x, %thread_id_y]
        %286 = arith.cmpi slt, %285, %103 : index
        %287 = vector.broadcast %286 : i1 to vector<4xi1>
        %288 = vector.maskedload %view[%285, %11], %287, %cst : memref<1448x20xf16, #gpu.address_space<workgroup>>, vector<4xi1>, vector<4xf16> into vector<4xf16>
        %289 = affine.apply #map28()[%thread_id_x, %thread_id_y]
        %290 = arith.cmpi slt, %289, %103 : index
        %291 = vector.broadcast %290 : i1 to vector<4xi1>
        %292 = vector.maskedload %view[%289, %11], %291, %cst : memref<1448x20xf16, #gpu.address_space<workgroup>>, vector<4xi1>, vector<4xf16> into vector<4xf16>
        %293 = affine.apply #map29()[%thread_id_x, %thread_id_y]
        %294 = arith.cmpi slt, %293, %103 : index
        %295 = vector.broadcast %294 : i1 to vector<4xi1>
        %296 = vector.maskedload %view[%293, %11], %295, %cst : memref<1448x20xf16, #gpu.address_space<workgroup>>, vector<4xi1>, vector<4xf16> into vector<4xf16>
        %297 = affine.apply #map30()[%thread_id_x, %thread_id_y]
        %298 = arith.cmpi slt, %297, %103 : index
        %299 = vector.broadcast %298 : i1 to vector<4xi1>
        %300 = vector.maskedload %view[%297, %11], %299, %cst : memref<1448x20xf16, #gpu.address_space<workgroup>>, vector<4xi1>, vector<4xf16> into vector<4xf16>
        %301 = affine.apply #map31()[%thread_id_x, %thread_id_y]
        %302 = arith.cmpi slt, %301, %103 : index
        %303 = vector.broadcast %302 : i1 to vector<4xi1>
        %304 = vector.maskedload %view[%301, %11], %303, %cst : memref<1448x20xf16, #gpu.address_space<workgroup>>, vector<4xi1>, vector<4xf16> into vector<4xf16>
        %305 = affine.apply #map32()[%thread_id_x, %thread_id_y]
        %306 = arith.cmpi slt, %305, %103 : index
        %307 = vector.broadcast %306 : i1 to vector<4xi1>
        %308 = vector.maskedload %view[%305, %11], %307, %cst : memref<1448x20xf16, #gpu.address_space<workgroup>>, vector<4xi1>, vector<4xf16> into vector<4xf16>
        %309 = affine.apply #map33()[%thread_id_x, %thread_id_y]
        %310 = arith.cmpi slt, %309, %103 : index
        %311 = vector.broadcast %310 : i1 to vector<4xi1>
        %312 = vector.maskedload %view[%309, %11], %311, %cst : memref<1448x20xf16, #gpu.address_space<workgroup>>, vector<4xi1>, vector<4xf16> into vector<4xf16>
        %313 = affine.apply #map34()[%thread_id_x, %thread_id_y]
        %314 = arith.cmpi slt, %313, %103 : index
        %315 = vector.broadcast %314 : i1 to vector<4xi1>
        %316 = vector.maskedload %view[%313, %11], %315, %cst : memref<1448x20xf16, #gpu.address_space<workgroup>>, vector<4xi1>, vector<4xf16> into vector<4xf16>
        %317 = affine.apply #map35()[%thread_id_x, %thread_id_y]
        %318 = arith.cmpi slt, %317, %103 : index
        %319 = vector.broadcast %318 : i1 to vector<4xi1>
        %320 = vector.maskedload %view[%317, %11], %319, %cst : memref<1448x20xf16, #gpu.address_space<workgroup>>, vector<4xi1>, vector<4xf16> into vector<4xf16>
        %321 = affine.apply #map36()[%thread_id_x, %thread_id_y]
        %322 = arith.cmpi slt, %321, %103 : index
        %323 = vector.broadcast %322 : i1 to vector<4xi1>
        %324 = vector.maskedload %view[%321, %11], %323, %cst : memref<1448x20xf16, #gpu.address_space<workgroup>>, vector<4xi1>, vector<4xf16> into vector<4xf16>
        %325 = affine.apply #map37()[%thread_id_x, %thread_id_y]
        %326 = arith.cmpi slt, %325, %103 : index
        %327 = vector.broadcast %326 : i1 to vector<4xi1>
        %328 = vector.maskedload %view[%325, %11], %327, %cst : memref<1448x20xf16, #gpu.address_space<workgroup>>, vector<4xi1>, vector<4xf16> into vector<4xf16>
        %329 = affine.apply #map38()[%thread_id_x, %thread_id_y]
        %330 = arith.cmpi slt, %329, %103 : index
        %331 = vector.broadcast %330 : i1 to vector<4xi1>
        %332 = vector.maskedload %view[%329, %11], %331, %cst : memref<1448x20xf16, #gpu.address_space<workgroup>>, vector<4xi1>, vector<4xf16> into vector<4xf16>
        %333 = affine.apply #map39()[%thread_id_x, %thread_id_y]
        %334 = arith.cmpi slt, %333, %103 : index
        %335 = vector.broadcast %334 : i1 to vector<4xi1>
        %336 = vector.maskedload %view[%333, %11], %335, %cst : memref<1448x20xf16, #gpu.address_space<workgroup>>, vector<4xi1>, vector<4xf16> into vector<4xf16>
        %337 = affine.apply #map40()[%thread_id_x, %thread_id_y]
        %338 = arith.cmpi slt, %337, %103 : index
        %339 = vector.broadcast %338 : i1 to vector<4xi1>
        %340 = vector.maskedload %view[%337, %11], %339, %cst : memref<1448x20xf16, #gpu.address_space<workgroup>>, vector<4xi1>, vector<4xf16> into vector<4xf16>
        %341 = affine.apply #map41()[%thread_id_x, %thread_id_y]
        %342 = arith.cmpi slt, %341, %103 : index
        %343 = vector.broadcast %342 : i1 to vector<4xi1>
        %344 = vector.maskedload %view[%341, %11], %343, %cst : memref<1448x20xf16, #gpu.address_space<workgroup>>, vector<4xi1>, vector<4xf16> into vector<4xf16>
        %345 = affine.apply #map42()[%thread_id_x, %thread_id_y]
        %346 = arith.cmpi slt, %345, %103 : index
        %347 = vector.broadcast %346 : i1 to vector<4xi1>
        %348 = vector.maskedload %view[%345, %11], %347, %cst : memref<1448x20xf16, #gpu.address_space<workgroup>>, vector<4xi1>, vector<4xf16> into vector<4xf16>
        %349 = affine.apply #map43()[%thread_id_x, %thread_id_y]
        %350 = arith.cmpi slt, %349, %103 : index
        %351 = vector.broadcast %350 : i1 to vector<4xi1>
        %352 = vector.maskedload %view[%349, %11], %351, %cst : memref<1448x20xf16, #gpu.address_space<workgroup>>, vector<4xi1>, vector<4xf16> into vector<4xf16>
        %353 = affine.apply #map44()[%thread_id_x, %thread_id_y]
        %354 = arith.cmpi slt, %353, %103 : index
        %355 = vector.broadcast %354 : i1 to vector<4xi1>
        %356 = vector.maskedload %view[%353, %11], %355, %cst : memref<1448x20xf16, #gpu.address_space<workgroup>>, vector<4xi1>, vector<4xf16> into vector<4xf16>
        %357 = affine.apply #map45()[%thread_id_x, %thread_id_y]
        %358 = arith.cmpi slt, %357, %103 : index
        %359 = vector.broadcast %358 : i1 to vector<4xi1>
        %360 = vector.maskedload %view[%357, %11], %359, %cst : memref<1448x20xf16, #gpu.address_space<workgroup>>, vector<4xi1>, vector<4xf16> into vector<4xf16>
        %361 = affine.apply #map46()[%thread_id_x, %thread_id_y]
        %362 = arith.cmpi slt, %361, %103 : index
        %363 = vector.broadcast %362 : i1 to vector<4xi1>
        %364 = vector.maskedload %view[%361, %11], %363, %cst : memref<1448x20xf16, #gpu.address_space<workgroup>>, vector<4xi1>, vector<4xf16> into vector<4xf16>
        %365 = affine.apply #map47()[%thread_id_x, %thread_id_y]
        %366 = arith.cmpi slt, %365, %103 : index
        %367 = vector.broadcast %366 : i1 to vector<4xi1>
        %368 = vector.maskedload %view[%365, %11], %367, %cst : memref<1448x20xf16, #gpu.address_space<workgroup>>, vector<4xi1>, vector<4xf16> into vector<4xf16>
        %369 = affine.apply #map48()[%thread_id_x, %thread_id_y]
        %370 = arith.cmpi slt, %369, %103 : index
        %371 = vector.broadcast %370 : i1 to vector<4xi1>
        %372 = vector.maskedload %view[%369, %11], %371, %cst : memref<1448x20xf16, #gpu.address_space<workgroup>>, vector<4xi1>, vector<4xf16> into vector<4xf16>
        %373 = affine.apply #map49()[%thread_id_x, %thread_id_y]
        %374 = arith.cmpi slt, %373, %103 : index
        %375 = vector.broadcast %374 : i1 to vector<4xi1>
        %376 = vector.maskedload %view[%373, %11], %375, %cst : memref<1448x20xf16, #gpu.address_space<workgroup>>, vector<4xi1>, vector<4xf16> into vector<4xf16>
        %377 = affine.apply #map50()[%thread_id_x, %thread_id_y]
        %378 = arith.cmpi slt, %377, %103 : index
        %379 = vector.broadcast %378 : i1 to vector<4xi1>
        %380 = vector.maskedload %view[%377, %11], %379, %cst : memref<1448x20xf16, #gpu.address_space<workgroup>>, vector<4xi1>, vector<4xf16> into vector<4xf16>
        %381 = affine.apply #map51()[%thread_id_x, %thread_id_y]
        %382 = arith.cmpi slt, %381, %103 : index
        %383 = vector.broadcast %382 : i1 to vector<4xi1>
        %384 = vector.maskedload %view[%381, %11], %383, %cst : memref<1448x20xf16, #gpu.address_space<workgroup>>, vector<4xi1>, vector<4xf16> into vector<4xf16>
        %385 = affine.apply #map52()[%thread_id_x, %thread_id_y]
        %386 = arith.cmpi slt, %385, %103 : index
        %387 = vector.broadcast %386 : i1 to vector<4xi1>
        %388 = vector.maskedload %view[%385, %11], %387, %cst : memref<1448x20xf16, #gpu.address_space<workgroup>>, vector<4xi1>, vector<4xf16> into vector<4xf16>
        %389 = affine.apply #map53()[%thread_id_x, %thread_id_y]
        %390 = arith.cmpi slt, %389, %103 : index
        %391 = vector.broadcast %390 : i1 to vector<4xi1>
        %392 = vector.maskedload %view[%389, %11], %391, %cst : memref<1448x20xf16, #gpu.address_space<workgroup>>, vector<4xi1>, vector<4xf16> into vector<4xf16>
        %393 = affine.apply #map54()[%thread_id_x, %thread_id_y]
        %394 = arith.cmpi slt, %393, %103 : index
        %395 = vector.broadcast %394 : i1 to vector<4xi1>
        %396 = vector.maskedload %view[%393, %11], %395, %cst : memref<1448x20xf16, #gpu.address_space<workgroup>>, vector<4xi1>, vector<4xf16> into vector<4xf16>
        %397 = affine.apply #map55()[%thread_id_x, %thread_id_y]
        %398 = arith.cmpi slt, %397, %103 : index
        %399 = vector.broadcast %398 : i1 to vector<4xi1>
        %400 = vector.maskedload %view[%397, %11], %399, %cst : memref<1448x20xf16, #gpu.address_space<workgroup>>, vector<4xi1>, vector<4xf16> into vector<4xf16>
        %401 = affine.apply #map56()[%thread_id_x, %thread_id_y]
        %402 = arith.cmpi slt, %401, %103 : index
        %403 = vector.broadcast %402 : i1 to vector<4xi1>
        %404 = vector.maskedload %view[%401, %11], %403, %cst : memref<1448x20xf16, #gpu.address_space<workgroup>>, vector<4xi1>, vector<4xf16> into vector<4xf16>
        %405 = affine.apply #map57()[%thread_id_x, %thread_id_y]
        %406 = arith.cmpi slt, %405, %103 : index
        %407 = vector.broadcast %406 : i1 to vector<4xi1>
        %408 = vector.maskedload %view[%405, %11], %407, %cst : memref<1448x20xf16, #gpu.address_space<workgroup>>, vector<4xi1>, vector<4xf16> into vector<4xf16>
        %409 = affine.apply #map58()[%thread_id_x, %thread_id_y]
        %410 = arith.cmpi slt, %409, %103 : index
        %411 = vector.broadcast %410 : i1 to vector<4xi1>
        %412 = vector.maskedload %view[%409, %11], %411, %cst : memref<1448x20xf16, #gpu.address_space<workgroup>>, vector<4xi1>, vector<4xf16> into vector<4xf16>
        %413 = affine.apply #map59()[%thread_id_x, %thread_id_y]
        %414 = arith.cmpi slt, %413, %103 : index
        %415 = vector.broadcast %414 : i1 to vector<4xi1>
        %416 = vector.maskedload %view[%413, %11], %415, %cst : memref<1448x20xf16, #gpu.address_space<workgroup>>, vector<4xi1>, vector<4xf16> into vector<4xf16>
        %417 = affine.apply #map60()[%thread_id_x, %thread_id_y]
        %418 = arith.cmpi slt, %417, %103 : index
        %419 = vector.broadcast %418 : i1 to vector<4xi1>
        %420 = vector.maskedload %view[%417, %11], %419, %cst : memref<1448x20xf16, #gpu.address_space<workgroup>>, vector<4xi1>, vector<4xf16> into vector<4xf16>
        %421 = affine.apply #map61()[%thread_id_x, %thread_id_y]
        %422 = arith.cmpi slt, %421, %103 : index
        %423 = vector.broadcast %422 : i1 to vector<4xi1>
        %424 = vector.maskedload %view[%421, %11], %423, %cst : memref<1448x20xf16, #gpu.address_space<workgroup>>, vector<4xi1>, vector<4xf16> into vector<4xf16>
        %425 = affine.apply #map62()[%thread_id_x, %thread_id_y]
        %426 = arith.cmpi slt, %425, %103 : index
        %427 = vector.broadcast %426 : i1 to vector<4xi1>
        %428 = vector.maskedload %view[%425, %11], %427, %cst : memref<1448x20xf16, #gpu.address_space<workgroup>>, vector<4xi1>, vector<4xf16> into vector<4xf16>
        %429 = affine.apply #map63()[%thread_id_x, %thread_id_y]
        %430 = arith.cmpi slt, %429, %103 : index
        %431 = vector.broadcast %430 : i1 to vector<4xi1>
        %432 = vector.maskedload %view[%429, %11], %431, %cst : memref<1448x20xf16, #gpu.address_space<workgroup>>, vector<4xi1>, vector<4xf16> into vector<4xf16>
        %433 = affine.apply #map64()[%thread_id_x, %thread_id_y]
        %434 = arith.cmpi slt, %433, %103 : index
        %435 = vector.broadcast %434 : i1 to vector<4xi1>
        %436 = vector.maskedload %view[%433, %11], %435, %cst : memref<1448x20xf16, #gpu.address_space<workgroup>>, vector<4xi1>, vector<4xf16> into vector<4xf16>
        %437 = affine.apply #map65()[%thread_id_x, %thread_id_y]
        %438 = arith.cmpi slt, %437, %103 : index
        %439 = vector.broadcast %438 : i1 to vector<4xi1>
        %440 = vector.maskedload %view[%437, %11], %439, %cst : memref<1448x20xf16, #gpu.address_space<workgroup>>, vector<4xi1>, vector<4xf16> into vector<4xf16>
        %441 = affine.apply #map66()[%thread_id_x, %thread_id_y]
        %442 = arith.cmpi slt, %441, %103 : index
        %443 = vector.broadcast %442 : i1 to vector<4xi1>
        %444 = vector.maskedload %view[%441, %11], %443, %cst : memref<1448x20xf16, #gpu.address_space<workgroup>>, vector<4xi1>, vector<4xf16> into vector<4xf16>
        %445 = vector.maskedload %view_5[%99, %11], %101, %cst : memref<16x20xf16, #gpu.address_space<workgroup>>, vector<4xi1>, vector<4xf16> into vector<4xf16>
        %446 = amdgpu.mfma %445 * %264 + %260#0 {blocks = 1 : i32, k = 16 : i32, m = 16 : i32, n = 16 : i32} blgp =  none : vector<4xf16>, vector<4xf16>, vector<4xf32>
        %447 = amdgpu.mfma %445 * %268 + %260#1 {blocks = 1 : i32, k = 16 : i32, m = 16 : i32, n = 16 : i32} blgp =  none : vector<4xf16>, vector<4xf16>, vector<4xf32>
        %448 = amdgpu.mfma %445 * %272 + %260#2 {blocks = 1 : i32, k = 16 : i32, m = 16 : i32, n = 16 : i32} blgp =  none : vector<4xf16>, vector<4xf16>, vector<4xf32>
        %449 = amdgpu.mfma %445 * %276 + %260#3 {blocks = 1 : i32, k = 16 : i32, m = 16 : i32, n = 16 : i32} blgp =  none : vector<4xf16>, vector<4xf16>, vector<4xf32>
        %450 = amdgpu.mfma %445 * %280 + %260#4 {blocks = 1 : i32, k = 16 : i32, m = 16 : i32, n = 16 : i32} blgp =  none : vector<4xf16>, vector<4xf16>, vector<4xf32>
        %451 = amdgpu.mfma %445 * %284 + %260#5 {blocks = 1 : i32, k = 16 : i32, m = 16 : i32, n = 16 : i32} blgp =  none : vector<4xf16>, vector<4xf16>, vector<4xf32>
        %452 = amdgpu.mfma %445 * %288 + %260#6 {blocks = 1 : i32, k = 16 : i32, m = 16 : i32, n = 16 : i32} blgp =  none : vector<4xf16>, vector<4xf16>, vector<4xf32>
        %453 = amdgpu.mfma %445 * %292 + %260#7 {blocks = 1 : i32, k = 16 : i32, m = 16 : i32, n = 16 : i32} blgp =  none : vector<4xf16>, vector<4xf16>, vector<4xf32>
        %454 = amdgpu.mfma %445 * %296 + %260#8 {blocks = 1 : i32, k = 16 : i32, m = 16 : i32, n = 16 : i32} blgp =  none : vector<4xf16>, vector<4xf16>, vector<4xf32>
        %455 = amdgpu.mfma %445 * %300 + %260#9 {blocks = 1 : i32, k = 16 : i32, m = 16 : i32, n = 16 : i32} blgp =  none : vector<4xf16>, vector<4xf16>, vector<4xf32>
        %456 = amdgpu.mfma %445 * %304 + %260#10 {blocks = 1 : i32, k = 16 : i32, m = 16 : i32, n = 16 : i32} blgp =  none : vector<4xf16>, vector<4xf16>, vector<4xf32>
        %457 = amdgpu.mfma %445 * %308 + %260#11 {blocks = 1 : i32, k = 16 : i32, m = 16 : i32, n = 16 : i32} blgp =  none : vector<4xf16>, vector<4xf16>, vector<4xf32>
        %458 = amdgpu.mfma %445 * %312 + %260#12 {blocks = 1 : i32, k = 16 : i32, m = 16 : i32, n = 16 : i32} blgp =  none : vector<4xf16>, vector<4xf16>, vector<4xf32>
        %459 = amdgpu.mfma %445 * %316 + %260#13 {blocks = 1 : i32, k = 16 : i32, m = 16 : i32, n = 16 : i32} blgp =  none : vector<4xf16>, vector<4xf16>, vector<4xf32>
        %460 = amdgpu.mfma %445 * %320 + %260#14 {blocks = 1 : i32, k = 16 : i32, m = 16 : i32, n = 16 : i32} blgp =  none : vector<4xf16>, vector<4xf16>, vector<4xf32>
        %461 = amdgpu.mfma %445 * %324 + %260#15 {blocks = 1 : i32, k = 16 : i32, m = 16 : i32, n = 16 : i32} blgp =  none : vector<4xf16>, vector<4xf16>, vector<4xf32>
        %462 = amdgpu.mfma %445 * %328 + %260#16 {blocks = 1 : i32, k = 16 : i32, m = 16 : i32, n = 16 : i32} blgp =  none : vector<4xf16>, vector<4xf16>, vector<4xf32>
        %463 = amdgpu.mfma %445 * %332 + %260#17 {blocks = 1 : i32, k = 16 : i32, m = 16 : i32, n = 16 : i32} blgp =  none : vector<4xf16>, vector<4xf16>, vector<4xf32>
        %464 = amdgpu.mfma %445 * %336 + %260#18 {blocks = 1 : i32, k = 16 : i32, m = 16 : i32, n = 16 : i32} blgp =  none : vector<4xf16>, vector<4xf16>, vector<4xf32>
        %465 = amdgpu.mfma %445 * %340 + %260#19 {blocks = 1 : i32, k = 16 : i32, m = 16 : i32, n = 16 : i32} blgp =  none : vector<4xf16>, vector<4xf16>, vector<4xf32>
        %466 = amdgpu.mfma %445 * %344 + %260#20 {blocks = 1 : i32, k = 16 : i32, m = 16 : i32, n = 16 : i32} blgp =  none : vector<4xf16>, vector<4xf16>, vector<4xf32>
        %467 = amdgpu.mfma %445 * %348 + %260#21 {blocks = 1 : i32, k = 16 : i32, m = 16 : i32, n = 16 : i32} blgp =  none : vector<4xf16>, vector<4xf16>, vector<4xf32>
        %468 = amdgpu.mfma %445 * %352 + %260#22 {blocks = 1 : i32, k = 16 : i32, m = 16 : i32, n = 16 : i32} blgp =  none : vector<4xf16>, vector<4xf16>, vector<4xf32>
        %469 = amdgpu.mfma %445 * %356 + %260#23 {blocks = 1 : i32, k = 16 : i32, m = 16 : i32, n = 16 : i32} blgp =  none : vector<4xf16>, vector<4xf16>, vector<4xf32>
        %470 = amdgpu.mfma %445 * %360 + %260#24 {blocks = 1 : i32, k = 16 : i32, m = 16 : i32, n = 16 : i32} blgp =  none : vector<4xf16>, vector<4xf16>, vector<4xf32>
        %471 = amdgpu.mfma %445 * %364 + %260#25 {blocks = 1 : i32, k = 16 : i32, m = 16 : i32, n = 16 : i32} blgp =  none : vector<4xf16>, vector<4xf16>, vector<4xf32>
        %472 = amdgpu.mfma %445 * %368 + %260#26 {blocks = 1 : i32, k = 16 : i32, m = 16 : i32, n = 16 : i32} blgp =  none : vector<4xf16>, vector<4xf16>, vector<4xf32>
        %473 = amdgpu.mfma %445 * %372 + %260#27 {blocks = 1 : i32, k = 16 : i32, m = 16 : i32, n = 16 : i32} blgp =  none : vector<4xf16>, vector<4xf16>, vector<4xf32>
        %474 = amdgpu.mfma %445 * %376 + %260#28 {blocks = 1 : i32, k = 16 : i32, m = 16 : i32, n = 16 : i32} blgp =  none : vector<4xf16>, vector<4xf16>, vector<4xf32>
        %475 = amdgpu.mfma %445 * %380 + %260#29 {blocks = 1 : i32, k = 16 : i32, m = 16 : i32, n = 16 : i32} blgp =  none : vector<4xf16>, vector<4xf16>, vector<4xf32>
        %476 = amdgpu.mfma %445 * %384 + %260#30 {blocks = 1 : i32, k = 16 : i32, m = 16 : i32, n = 16 : i32} blgp =  none : vector<4xf16>, vector<4xf16>, vector<4xf32>
        %477 = amdgpu.mfma %445 * %388 + %260#31 {blocks = 1 : i32, k = 16 : i32, m = 16 : i32, n = 16 : i32} blgp =  none : vector<4xf16>, vector<4xf16>, vector<4xf32>
        %478 = amdgpu.mfma %445 * %392 + %260#32 {blocks = 1 : i32, k = 16 : i32, m = 16 : i32, n = 16 : i32} blgp =  none : vector<4xf16>, vector<4xf16>, vector<4xf32>
        %479 = amdgpu.mfma %445 * %396 + %260#33 {blocks = 1 : i32, k = 16 : i32, m = 16 : i32, n = 16 : i32} blgp =  none : vector<4xf16>, vector<4xf16>, vector<4xf32>
        %480 = amdgpu.mfma %445 * %400 + %260#34 {blocks = 1 : i32, k = 16 : i32, m = 16 : i32, n = 16 : i32} blgp =  none : vector<4xf16>, vector<4xf16>, vector<4xf32>
        %481 = amdgpu.mfma %445 * %404 + %260#35 {blocks = 1 : i32, k = 16 : i32, m = 16 : i32, n = 16 : i32} blgp =  none : vector<4xf16>, vector<4xf16>, vector<4xf32>
        %482 = amdgpu.mfma %445 * %408 + %260#36 {blocks = 1 : i32, k = 16 : i32, m = 16 : i32, n = 16 : i32} blgp =  none : vector<4xf16>, vector<4xf16>, vector<4xf32>
        %483 = amdgpu.mfma %445 * %412 + %260#37 {blocks = 1 : i32, k = 16 : i32, m = 16 : i32, n = 16 : i32} blgp =  none : vector<4xf16>, vector<4xf16>, vector<4xf32>
        %484 = amdgpu.mfma %445 * %416 + %260#38 {blocks = 1 : i32, k = 16 : i32, m = 16 : i32, n = 16 : i32} blgp =  none : vector<4xf16>, vector<4xf16>, vector<4xf32>
        %485 = amdgpu.mfma %445 * %420 + %260#39 {blocks = 1 : i32, k = 16 : i32, m = 16 : i32, n = 16 : i32} blgp =  none : vector<4xf16>, vector<4xf16>, vector<4xf32>
        %486 = amdgpu.mfma %445 * %424 + %260#40 {blocks = 1 : i32, k = 16 : i32, m = 16 : i32, n = 16 : i32} blgp =  none : vector<4xf16>, vector<4xf16>, vector<4xf32>
        %487 = amdgpu.mfma %445 * %428 + %260#41 {blocks = 1 : i32, k = 16 : i32, m = 16 : i32, n = 16 : i32} blgp =  none : vector<4xf16>, vector<4xf16>, vector<4xf32>
        %488 = amdgpu.mfma %445 * %432 + %260#42 {blocks = 1 : i32, k = 16 : i32, m = 16 : i32, n = 16 : i32} blgp =  none : vector<4xf16>, vector<4xf16>, vector<4xf32>
        %489 = amdgpu.mfma %445 * %436 + %260#43 {blocks = 1 : i32, k = 16 : i32, m = 16 : i32, n = 16 : i32} blgp =  none : vector<4xf16>, vector<4xf16>, vector<4xf32>
        %490 = amdgpu.mfma %445 * %440 + %260#44 {blocks = 1 : i32, k = 16 : i32, m = 16 : i32, n = 16 : i32} blgp =  none : vector<4xf16>, vector<4xf16>, vector<4xf32>
        %491 = amdgpu.mfma %445 * %444 + %260#45 {blocks = 1 : i32, k = 16 : i32, m = 16 : i32, n = 16 : i32} blgp =  none : vector<4xf16>, vector<4xf16>, vector<4xf32>
        %492 = vector.extract_strided_slice %446 {offsets = [0], sizes = [1], strides = [1]} : vector<4xf32> to vector<1xf32>
        %493 = stream.binding.subspan %arg2[%c0] : !stream.binding -> memref<641x2880xf32, strided<[2880, 1], offset: ?>>
        %494 = affine.apply #map69()[%block_id_y, %thread_id_y]
        %495 = affine.apply #map70()[%block_id_y]
        %496 = arith.minsi %494, %495 : index
        %497 = arith.minsi %496, %c2880 : index
        %498 = affine.apply #map71()[%thread_id_x, %block_id_y, %block_id_x, %2, %5, %thread_id_y]
        %499 = arith.cmpi slt, %498, %497 : index
        %500 = affine.apply #map72()[%block_id_y, %block_id_x, %2, %2, %5, %thread_id_x]
        %501 = arith.cmpi slt, %500, %7 : index
        %502 = arith.andi %499, %501 : i1
        %503 = affine.apply #map73()[%block_id_y, %block_id_x, %2, %2, %5]
        %504 = affine.apply #map74()[%block_id_y, %block_id_x, %2, %5]
        %505 = affine.apply #map75()[%thread_id_x]
        %506 = arith.muli %503, %c2880 overflow<nsw> : index
        %507 = arith.muli %505, %c2880 overflow<nsw> : index
        %508 = arith.addi %506, %504 overflow<nsw> : index
        %509 = arith.addi %507, %261 overflow<nsw> : index
        %base_buffer_11, %offset_12, %sizes_13:2, %strides_14:2 = memref.extract_strided_metadata %493 : memref<641x2880xf32, strided<[2880, 1], offset: ?>> -> memref<f32>, index, index, index, index, index
        %510 = arith.addi %508, %offset_12 overflow<nsw> : index
        %reinterpret_cast_15 = memref.reinterpret_cast %493 to offset: [%510], sizes: [%c536870910], strides: [1] : memref<641x2880xf32, strided<[2880, 1], offset: ?>> to memref<?xf32, strided<[1], offset: ?>>
        %511 = amdgpu.fat_raw_buffer_cast %reinterpret_cast_15 validBytes(%c2147483643_i32) cacheSwizzleStride(%c2880_i14) resetOffset : memref<?xf32, strided<[1], offset: ?>> to memref<?xf32, #amdgpu.address_space<fat_raw_buffer>>
        %512 = arith.select %502, %509, %c536870911 : index
        vector.store %492, %511[%512] : memref<?xf32, #amdgpu.address_space<fat_raw_buffer>>, vector<1xf32>
        %513 = vector.extract_strided_slice %446 {offsets = [1], sizes = [1], strides = [1]} : vector<4xf32> to vector<1xf32>
        %514 = affine.apply #map76()[%block_id_y, %block_id_x, %2, %2, %5, %thread_id_x]
        %515 = arith.cmpi slt, %514, %7 : index
        %516 = arith.andi %499, %515 : i1
        %517 = affine.apply #map77()[%thread_id_x]
        %518 = arith.muli %517, %c2880 overflow<nsw> : index
        %519 = arith.addi %518, %261 overflow<nsw> : index
        %520 = arith.select %516, %519, %c536870911 : index
        vector.store %513, %511[%520] : memref<?xf32, #amdgpu.address_space<fat_raw_buffer>>, vector<1xf32>
        %521 = vector.extract_strided_slice %446 {offsets = [2], sizes = [1], strides = [1]} : vector<4xf32> to vector<1xf32>
        %522 = affine.apply #map78()[%block_id_y, %block_id_x, %2, %2, %5, %thread_id_x]
        %523 = arith.cmpi slt, %522, %7 : index
        %524 = arith.andi %499, %523 : i1
        %525 = affine.apply #map79()[%thread_id_x]
        %526 = arith.muli %525, %c2880 overflow<nsw> : index
        %527 = arith.addi %526, %261 overflow<nsw> : index
        %528 = arith.select %524, %527, %c536870911 : index
        vector.store %521, %511[%528] : memref<?xf32, #amdgpu.address_space<fat_raw_buffer>>, vector<1xf32>
        %529 = vector.extract_strided_slice %446 {offsets = [3], sizes = [1], strides = [1]} : vector<4xf32> to vector<1xf32>
        %530 = affine.apply #map80()[%block_id_y, %block_id_x, %2, %2, %5, %thread_id_x]
        %531 = arith.cmpi slt, %530, %7 : index
        %532 = arith.andi %499, %531 : i1
        %533 = affine.apply #map81()[%thread_id_x]
        %534 = arith.muli %533, %c2880 overflow<nsw> : index
        %535 = arith.addi %534, %261 overflow<nsw> : index
        %536 = arith.select %532, %535, %c536870911 : index
        vector.store %529, %511[%536] : memref<?xf32, #amdgpu.address_space<fat_raw_buffer>>, vector<1xf32>
        %537 = vector.extract_strided_slice %447 {offsets = [0], sizes = [1], strides = [1]} : vector<4xf32> to vector<1xf32>
        %538 = affine.apply #map82()[%thread_id_x, %block_id_y, %block_id_x, %2, %5, %thread_id_y]
        %539 = arith.cmpi slt, %538, %497 : index
        %540 = arith.andi %539, %501 : i1
        %541 = arith.addi %507, %265 overflow<nsw> : index
        %542 = arith.select %540, %541, %c536870911 : index
        vector.store %537, %511[%542] : memref<?xf32, #amdgpu.address_space<fat_raw_buffer>>, vector<1xf32>
        %543 = vector.extract_strided_slice %447 {offsets = [1], sizes = [1], strides = [1]} : vector<4xf32> to vector<1xf32>
        %544 = arith.andi %539, %515 : i1
        %545 = arith.addi %518, %265 overflow<nsw> : index
        %546 = arith.select %544, %545, %c536870911 : index
        vector.store %543, %511[%546] : memref<?xf32, #amdgpu.address_space<fat_raw_buffer>>, vector<1xf32>
        %547 = vector.extract_strided_slice %447 {offsets = [2], sizes = [1], strides = [1]} : vector<4xf32> to vector<1xf32>
        %548 = arith.andi %539, %523 : i1
        %549 = arith.addi %526, %265 overflow<nsw> : index
        %550 = arith.select %548, %549, %c536870911 : index
        vector.store %547, %511[%550] : memref<?xf32, #amdgpu.address_space<fat_raw_buffer>>, vector<1xf32>
        %551 = vector.extract_strided_slice %447 {offsets = [3], sizes = [1], strides = [1]} : vector<4xf32> to vector<1xf32>
        %552 = arith.andi %539, %531 : i1
        %553 = arith.addi %534, %265 overflow<nsw> : index
        %554 = arith.select %552, %553, %c536870911 : index
        vector.store %551, %511[%554] : memref<?xf32, #amdgpu.address_space<fat_raw_buffer>>, vector<1xf32>
        %555 = vector.extract_strided_slice %448 {offsets = [0], sizes = [1], strides = [1]} : vector<4xf32> to vector<1xf32>
        %556 = affine.apply #map83()[%thread_id_x, %block_id_y, %block_id_x, %2, %5, %thread_id_y]
        %557 = arith.cmpi slt, %556, %497 : index
        %558 = arith.andi %557, %501 : i1
        %559 = arith.addi %507, %269 overflow<nsw> : index
        %560 = arith.select %558, %559, %c536870911 : index
        vector.store %555, %511[%560] : memref<?xf32, #amdgpu.address_space<fat_raw_buffer>>, vector<1xf32>
        %561 = vector.extract_strided_slice %448 {offsets = [1], sizes = [1], strides = [1]} : vector<4xf32> to vector<1xf32>
        %562 = arith.andi %557, %515 : i1
        %563 = arith.addi %518, %269 overflow<nsw> : index
        %564 = arith.select %562, %563, %c536870911 : index
        vector.store %561, %511[%564] : memref<?xf32, #amdgpu.address_space<fat_raw_buffer>>, vector<1xf32>
        %565 = vector.extract_strided_slice %448 {offsets = [2], sizes = [1], strides = [1]} : vector<4xf32> to vector<1xf32>
        %566 = arith.andi %557, %523 : i1
        %567 = arith.addi %526, %269 overflow<nsw> : index
        %568 = arith.select %566, %567, %c536870911 : index
        vector.store %565, %511[%568] : memref<?xf32, #amdgpu.address_space<fat_raw_buffer>>, vector<1xf32>
        %569 = vector.extract_strided_slice %448 {offsets = [3], sizes = [1], strides = [1]} : vector<4xf32> to vector<1xf32>
        %570 = arith.andi %557, %531 : i1
        %571 = arith.addi %534, %269 overflow<nsw> : index
        %572 = arith.select %570, %571, %c536870911 : index
        vector.store %569, %511[%572] : memref<?xf32, #amdgpu.address_space<fat_raw_buffer>>, vector<1xf32>
        %573 = vector.extract_strided_slice %449 {offsets = [0], sizes = [1], strides = [1]} : vector<4xf32> to vector<1xf32>
        %574 = affine.apply #map84()[%thread_id_x, %block_id_y, %block_id_x, %2, %5, %thread_id_y]
        %575 = arith.cmpi slt, %574, %497 : index
        %576 = arith.andi %575, %501 : i1
        %577 = arith.addi %507, %273 overflow<nsw> : index
        %578 = arith.select %576, %577, %c536870911 : index
        vector.store %573, %511[%578] : memref<?xf32, #amdgpu.address_space<fat_raw_buffer>>, vector<1xf32>
        %579 = vector.extract_strided_slice %449 {offsets = [1], sizes = [1], strides = [1]} : vector<4xf32> to vector<1xf32>
        %580 = arith.andi %575, %515 : i1
        %581 = arith.addi %518, %273 overflow<nsw> : index
        %582 = arith.select %580, %581, %c536870911 : index
        vector.store %579, %511[%582] : memref<?xf32, #amdgpu.address_space<fat_raw_buffer>>, vector<1xf32>
        %583 = vector.extract_strided_slice %449 {offsets = [2], sizes = [1], strides = [1]} : vector<4xf32> to vector<1xf32>
        %584 = arith.andi %575, %523 : i1
        %585 = arith.addi %526, %273 overflow<nsw> : index
        %586 = arith.select %584, %585, %c536870911 : index
        vector.store %583, %511[%586] : memref<?xf32, #amdgpu.address_space<fat_raw_buffer>>, vector<1xf32>
        %587 = vector.extract_strided_slice %449 {offsets = [3], sizes = [1], strides = [1]} : vector<4xf32> to vector<1xf32>
        %588 = arith.andi %575, %531 : i1
        %589 = arith.addi %534, %273 overflow<nsw> : index
        %590 = arith.select %588, %589, %c536870911 : index
        vector.store %587, %511[%590] : memref<?xf32, #amdgpu.address_space<fat_raw_buffer>>, vector<1xf32>
        %591 = vector.extract_strided_slice %450 {offsets = [0], sizes = [1], strides = [1]} : vector<4xf32> to vector<1xf32>
        %592 = affine.apply #map85()[%thread_id_x, %block_id_y, %block_id_x, %2, %5, %thread_id_y]
        %593 = arith.cmpi slt, %592, %497 : index
        %594 = arith.andi %593, %501 : i1
        %595 = arith.addi %507, %277 overflow<nsw> : index
        %596 = arith.select %594, %595, %c536870911 : index
        vector.store %591, %511[%596] : memref<?xf32, #amdgpu.address_space<fat_raw_buffer>>, vector<1xf32>
        %597 = vector.extract_strided_slice %450 {offsets = [1], sizes = [1], strides = [1]} : vector<4xf32> to vector<1xf32>
        %598 = arith.andi %593, %515 : i1
        %599 = arith.addi %518, %277 overflow<nsw> : index
        %600 = arith.select %598, %599, %c536870911 : index
        vector.store %597, %511[%600] : memref<?xf32, #amdgpu.address_space<fat_raw_buffer>>, vector<1xf32>
        %601 = vector.extract_strided_slice %450 {offsets = [2], sizes = [1], strides = [1]} : vector<4xf32> to vector<1xf32>
        %602 = arith.andi %593, %523 : i1
        %603 = arith.addi %526, %277 overflow<nsw> : index
        %604 = arith.select %602, %603, %c536870911 : index
        vector.store %601, %511[%604] : memref<?xf32, #amdgpu.address_space<fat_raw_buffer>>, vector<1xf32>
        %605 = vector.extract_strided_slice %450 {offsets = [3], sizes = [1], strides = [1]} : vector<4xf32> to vector<1xf32>
        %606 = arith.andi %593, %531 : i1
        %607 = arith.addi %534, %277 overflow<nsw> : index
        %608 = arith.select %606, %607, %c536870911 : index
        vector.store %605, %511[%608] : memref<?xf32, #amdgpu.address_space<fat_raw_buffer>>, vector<1xf32>
        %609 = vector.extract_strided_slice %451 {offsets = [0], sizes = [1], strides = [1]} : vector<4xf32> to vector<1xf32>
        %610 = affine.apply #map86()[%thread_id_x, %block_id_y, %block_id_x, %2, %5, %thread_id_y]
        %611 = arith.cmpi slt, %610, %497 : index
        %612 = arith.andi %611, %501 : i1
        %613 = arith.addi %507, %281 overflow<nsw> : index
        %614 = arith.select %612, %613, %c536870911 : index
        vector.store %609, %511[%614] : memref<?xf32, #amdgpu.address_space<fat_raw_buffer>>, vector<1xf32>
        %615 = vector.extract_strided_slice %451 {offsets = [1], sizes = [1], strides = [1]} : vector<4xf32> to vector<1xf32>
        %616 = arith.andi %611, %515 : i1
        %617 = arith.addi %518, %281 overflow<nsw> : index
        %618 = arith.select %616, %617, %c536870911 : index
        vector.store %615, %511[%618] : memref<?xf32, #amdgpu.address_space<fat_raw_buffer>>, vector<1xf32>
        %619 = vector.extract_strided_slice %451 {offsets = [2], sizes = [1], strides = [1]} : vector<4xf32> to vector<1xf32>
        %620 = arith.andi %611, %523 : i1
        %621 = arith.addi %526, %281 overflow<nsw> : index
        %622 = arith.select %620, %621, %c536870911 : index
        vector.store %619, %511[%622] : memref<?xf32, #amdgpu.address_space<fat_raw_buffer>>, vector<1xf32>
        %623 = vector.extract_strided_slice %451 {offsets = [3], sizes = [1], strides = [1]} : vector<4xf32> to vector<1xf32>
        %624 = arith.andi %611, %531 : i1
        %625 = arith.addi %534, %281 overflow<nsw> : index
        %626 = arith.select %624, %625, %c536870911 : index
        vector.store %623, %511[%626] : memref<?xf32, #amdgpu.address_space<fat_raw_buffer>>, vector<1xf32>
        %627 = vector.extract_strided_slice %452 {offsets = [0], sizes = [1], strides = [1]} : vector<4xf32> to vector<1xf32>
        %628 = affine.apply #map87()[%thread_id_x, %block_id_y, %block_id_x, %2, %5, %thread_id_y]
        %629 = arith.cmpi slt, %628, %497 : index
        %630 = arith.andi %629, %501 : i1
        %631 = arith.addi %507, %285 overflow<nsw> : index
        %632 = arith.select %630, %631, %c536870911 : index
        vector.store %627, %511[%632] : memref<?xf32, #amdgpu.address_space<fat_raw_buffer>>, vector<1xf32>
        %633 = vector.extract_strided_slice %452 {offsets = [1], sizes = [1], strides = [1]} : vector<4xf32> to vector<1xf32>
        %634 = arith.andi %629, %515 : i1
        %635 = arith.addi %518, %285 overflow<nsw> : index
        %636 = arith.select %634, %635, %c536870911 : index
        vector.store %633, %511[%636] : memref<?xf32, #amdgpu.address_space<fat_raw_buffer>>, vector<1xf32>
        %637 = vector.extract_strided_slice %452 {offsets = [2], sizes = [1], strides = [1]} : vector<4xf32> to vector<1xf32>
        %638 = arith.andi %629, %523 : i1
        %639 = arith.addi %526, %285 overflow<nsw> : index
        %640 = arith.select %638, %639, %c536870911 : index
        vector.store %637, %511[%640] : memref<?xf32, #amdgpu.address_space<fat_raw_buffer>>, vector<1xf32>
        %641 = vector.extract_strided_slice %452 {offsets = [3], sizes = [1], strides = [1]} : vector<4xf32> to vector<1xf32>
        %642 = arith.andi %629, %531 : i1
        %643 = arith.addi %534, %285 overflow<nsw> : index
        %644 = arith.select %642, %643, %c536870911 : index
        vector.store %641, %511[%644] : memref<?xf32, #amdgpu.address_space<fat_raw_buffer>>, vector<1xf32>
        %645 = vector.extract_strided_slice %453 {offsets = [0], sizes = [1], strides = [1]} : vector<4xf32> to vector<1xf32>
        %646 = affine.apply #map88()[%thread_id_x, %block_id_y, %block_id_x, %2, %5, %thread_id_y]
        %647 = arith.cmpi slt, %646, %497 : index
        %648 = arith.andi %647, %501 : i1
        %649 = arith.addi %507, %289 overflow<nsw> : index
        %650 = arith.select %648, %649, %c536870911 : index
        vector.store %645, %511[%650] : memref<?xf32, #amdgpu.address_space<fat_raw_buffer>>, vector<1xf32>
        %651 = vector.extract_strided_slice %453 {offsets = [1], sizes = [1], strides = [1]} : vector<4xf32> to vector<1xf32>
        %652 = arith.andi %647, %515 : i1
        %653 = arith.addi %518, %289 overflow<nsw> : index
        %654 = arith.select %652, %653, %c536870911 : index
        vector.store %651, %511[%654] : memref<?xf32, #amdgpu.address_space<fat_raw_buffer>>, vector<1xf32>
        %655 = vector.extract_strided_slice %453 {offsets = [2], sizes = [1], strides = [1]} : vector<4xf32> to vector<1xf32>
        %656 = arith.andi %647, %523 : i1
        %657 = arith.addi %526, %289 overflow<nsw> : index
        %658 = arith.select %656, %657, %c536870911 : index
        vector.store %655, %511[%658] : memref<?xf32, #amdgpu.address_space<fat_raw_buffer>>, vector<1xf32>
        %659 = vector.extract_strided_slice %453 {offsets = [3], sizes = [1], strides = [1]} : vector<4xf32> to vector<1xf32>
        %660 = arith.andi %647, %531 : i1
        %661 = arith.addi %534, %289 overflow<nsw> : index
        %662 = arith.select %660, %661, %c536870911 : index
        vector.store %659, %511[%662] : memref<?xf32, #amdgpu.address_space<fat_raw_buffer>>, vector<1xf32>
        %663 = vector.extract_strided_slice %454 {offsets = [0], sizes = [1], strides = [1]} : vector<4xf32> to vector<1xf32>
        %664 = affine.apply #map89()[%thread_id_x, %block_id_y, %block_id_x, %2, %5, %thread_id_y]
        %665 = arith.cmpi slt, %664, %497 : index
        %666 = arith.andi %665, %501 : i1
        %667 = arith.addi %507, %293 overflow<nsw> : index
        %668 = arith.select %666, %667, %c536870911 : index
        vector.store %663, %511[%668] : memref<?xf32, #amdgpu.address_space<fat_raw_buffer>>, vector<1xf32>
        %669 = vector.extract_strided_slice %454 {offsets = [1], sizes = [1], strides = [1]} : vector<4xf32> to vector<1xf32>
        %670 = arith.andi %665, %515 : i1
        %671 = arith.addi %518, %293 overflow<nsw> : index
        %672 = arith.select %670, %671, %c536870911 : index
        vector.store %669, %511[%672] : memref<?xf32, #amdgpu.address_space<fat_raw_buffer>>, vector<1xf32>
        %673 = vector.extract_strided_slice %454 {offsets = [2], sizes = [1], strides = [1]} : vector<4xf32> to vector<1xf32>
        %674 = arith.andi %665, %523 : i1
        %675 = arith.addi %526, %293 overflow<nsw> : index
        %676 = arith.select %674, %675, %c536870911 : index
        vector.store %673, %511[%676] : memref<?xf32, #amdgpu.address_space<fat_raw_buffer>>, vector<1xf32>
        %677 = vector.extract_strided_slice %454 {offsets = [3], sizes = [1], strides = [1]} : vector<4xf32> to vector<1xf32>
        %678 = arith.andi %665, %531 : i1
        %679 = arith.addi %534, %293 overflow<nsw> : index
        %680 = arith.select %678, %679, %c536870911 : index
        vector.store %677, %511[%680] : memref<?xf32, #amdgpu.address_space<fat_raw_buffer>>, vector<1xf32>
        %681 = vector.extract_strided_slice %455 {offsets = [0], sizes = [1], strides = [1]} : vector<4xf32> to vector<1xf32>
        %682 = affine.apply #map90()[%thread_id_x, %block_id_y, %block_id_x, %2, %5, %thread_id_y]
        %683 = arith.cmpi slt, %682, %497 : index
        %684 = arith.andi %683, %501 : i1
        %685 = arith.addi %507, %297 overflow<nsw> : index
        %686 = arith.select %684, %685, %c536870911 : index
        vector.store %681, %511[%686] : memref<?xf32, #amdgpu.address_space<fat_raw_buffer>>, vector<1xf32>
        %687 = vector.extract_strided_slice %455 {offsets = [1], sizes = [1], strides = [1]} : vector<4xf32> to vector<1xf32>
        %688 = arith.andi %683, %515 : i1
        %689 = arith.addi %518, %297 overflow<nsw> : index
        %690 = arith.select %688, %689, %c536870911 : index
        vector.store %687, %511[%690] : memref<?xf32, #amdgpu.address_space<fat_raw_buffer>>, vector<1xf32>
        %691 = vector.extract_strided_slice %455 {offsets = [2], sizes = [1], strides = [1]} : vector<4xf32> to vector<1xf32>
        %692 = arith.andi %683, %523 : i1
        %693 = arith.addi %526, %297 overflow<nsw> : index
        %694 = arith.select %692, %693, %c536870911 : index
        vector.store %691, %511[%694] : memref<?xf32, #amdgpu.address_space<fat_raw_buffer>>, vector<1xf32>
        %695 = vector.extract_strided_slice %455 {offsets = [3], sizes = [1], strides = [1]} : vector<4xf32> to vector<1xf32>
        %696 = arith.andi %683, %531 : i1
        %697 = arith.addi %534, %297 overflow<nsw> : index
        %698 = arith.select %696, %697, %c536870911 : index
        vector.store %695, %511[%698] : memref<?xf32, #amdgpu.address_space<fat_raw_buffer>>, vector<1xf32>
        %699 = vector.extract_strided_slice %456 {offsets = [0], sizes = [1], strides = [1]} : vector<4xf32> to vector<1xf32>
        %700 = affine.apply #map91()[%thread_id_x, %block_id_y, %block_id_x, %2, %5, %thread_id_y]
        %701 = arith.cmpi slt, %700, %497 : index
        %702 = arith.andi %701, %501 : i1
        %703 = arith.addi %507, %301 overflow<nsw> : index
        %704 = arith.select %702, %703, %c536870911 : index
        vector.store %699, %511[%704] : memref<?xf32, #amdgpu.address_space<fat_raw_buffer>>, vector<1xf32>
        %705 = vector.extract_strided_slice %456 {offsets = [1], sizes = [1], strides = [1]} : vector<4xf32> to vector<1xf32>
        %706 = arith.andi %701, %515 : i1
        %707 = arith.addi %518, %301 overflow<nsw> : index
        %708 = arith.select %706, %707, %c536870911 : index
        vector.store %705, %511[%708] : memref<?xf32, #amdgpu.address_space<fat_raw_buffer>>, vector<1xf32>
        %709 = vector.extract_strided_slice %456 {offsets = [2], sizes = [1], strides = [1]} : vector<4xf32> to vector<1xf32>
        %710 = arith.andi %701, %523 : i1
        %711 = arith.addi %526, %301 overflow<nsw> : index
        %712 = arith.select %710, %711, %c536870911 : index
        vector.store %709, %511[%712] : memref<?xf32, #amdgpu.address_space<fat_raw_buffer>>, vector<1xf32>
        %713 = vector.extract_strided_slice %456 {offsets = [3], sizes = [1], strides = [1]} : vector<4xf32> to vector<1xf32>
        %714 = arith.andi %701, %531 : i1
        %715 = arith.addi %534, %301 overflow<nsw> : index
        %716 = arith.select %714, %715, %c536870911 : index
        vector.store %713, %511[%716] : memref<?xf32, #amdgpu.address_space<fat_raw_buffer>>, vector<1xf32>
        %717 = vector.extract_strided_slice %457 {offsets = [0], sizes = [1], strides = [1]} : vector<4xf32> to vector<1xf32>
        %718 = affine.apply #map92()[%thread_id_x, %block_id_y, %block_id_x, %2, %5, %thread_id_y]
        %719 = arith.cmpi slt, %718, %497 : index
        %720 = arith.andi %719, %501 : i1
        %721 = arith.addi %507, %305 overflow<nsw> : index
        %722 = arith.select %720, %721, %c536870911 : index
        vector.store %717, %511[%722] : memref<?xf32, #amdgpu.address_space<fat_raw_buffer>>, vector<1xf32>
        %723 = vector.extract_strided_slice %457 {offsets = [1], sizes = [1], strides = [1]} : vector<4xf32> to vector<1xf32>
        %724 = arith.andi %719, %515 : i1
        %725 = arith.addi %518, %305 overflow<nsw> : index
        %726 = arith.select %724, %725, %c536870911 : index
        vector.store %723, %511[%726] : memref<?xf32, #amdgpu.address_space<fat_raw_buffer>>, vector<1xf32>
        %727 = vector.extract_strided_slice %457 {offsets = [2], sizes = [1], strides = [1]} : vector<4xf32> to vector<1xf32>
        %728 = arith.andi %719, %523 : i1
        %729 = arith.addi %526, %305 overflow<nsw> : index
        %730 = arith.select %728, %729, %c536870911 : index
        vector.store %727, %511[%730] : memref<?xf32, #amdgpu.address_space<fat_raw_buffer>>, vector<1xf32>
        %731 = vector.extract_strided_slice %457 {offsets = [3], sizes = [1], strides = [1]} : vector<4xf32> to vector<1xf32>
        %732 = arith.andi %719, %531 : i1
        %733 = arith.addi %534, %305 overflow<nsw> : index
        %734 = arith.select %732, %733, %c536870911 : index
        vector.store %731, %511[%734] : memref<?xf32, #amdgpu.address_space<fat_raw_buffer>>, vector<1xf32>
        %735 = vector.extract_strided_slice %458 {offsets = [0], sizes = [1], strides = [1]} : vector<4xf32> to vector<1xf32>
        %736 = affine.apply #map93()[%thread_id_x, %block_id_y, %block_id_x, %2, %5, %thread_id_y]
        %737 = arith.cmpi slt, %736, %497 : index
        %738 = arith.andi %737, %501 : i1
        %739 = arith.addi %507, %309 overflow<nsw> : index
        %740 = arith.select %738, %739, %c536870911 : index
        vector.store %735, %511[%740] : memref<?xf32, #amdgpu.address_space<fat_raw_buffer>>, vector<1xf32>
        %741 = vector.extract_strided_slice %458 {offsets = [1], sizes = [1], strides = [1]} : vector<4xf32> to vector<1xf32>
        %742 = arith.andi %737, %515 : i1
        %743 = arith.addi %518, %309 overflow<nsw> : index
        %744 = arith.select %742, %743, %c536870911 : index
        vector.store %741, %511[%744] : memref<?xf32, #amdgpu.address_space<fat_raw_buffer>>, vector<1xf32>
        %745 = vector.extract_strided_slice %458 {offsets = [2], sizes = [1], strides = [1]} : vector<4xf32> to vector<1xf32>
        %746 = arith.andi %737, %523 : i1
        %747 = arith.addi %526, %309 overflow<nsw> : index
        %748 = arith.select %746, %747, %c536870911 : index
        vector.store %745, %511[%748] : memref<?xf32, #amdgpu.address_space<fat_raw_buffer>>, vector<1xf32>
        %749 = vector.extract_strided_slice %458 {offsets = [3], sizes = [1], strides = [1]} : vector<4xf32> to vector<1xf32>
        %750 = arith.andi %737, %531 : i1
        %751 = arith.addi %534, %309 overflow<nsw> : index
        %752 = arith.select %750, %751, %c536870911 : index
        vector.store %749, %511[%752] : memref<?xf32, #amdgpu.address_space<fat_raw_buffer>>, vector<1xf32>
        %753 = vector.extract_strided_slice %459 {offsets = [0], sizes = [1], strides = [1]} : vector<4xf32> to vector<1xf32>
        %754 = affine.apply #map94()[%thread_id_x, %block_id_y, %block_id_x, %2, %5, %thread_id_y]
        %755 = arith.cmpi slt, %754, %497 : index
        %756 = arith.andi %755, %501 : i1
        %757 = arith.addi %507, %313 overflow<nsw> : index
        %758 = arith.select %756, %757, %c536870911 : index
        vector.store %753, %511[%758] : memref<?xf32, #amdgpu.address_space<fat_raw_buffer>>, vector<1xf32>
        %759 = vector.extract_strided_slice %459 {offsets = [1], sizes = [1], strides = [1]} : vector<4xf32> to vector<1xf32>
        %760 = arith.andi %755, %515 : i1
        %761 = arith.addi %518, %313 overflow<nsw> : index
        %762 = arith.select %760, %761, %c536870911 : index
        vector.store %759, %511[%762] : memref<?xf32, #amdgpu.address_space<fat_raw_buffer>>, vector<1xf32>
        %763 = vector.extract_strided_slice %459 {offsets = [2], sizes = [1], strides = [1]} : vector<4xf32> to vector<1xf32>
        %764 = arith.andi %755, %523 : i1
        %765 = arith.addi %526, %313 overflow<nsw> : index
        %766 = arith.select %764, %765, %c536870911 : index
        vector.store %763, %511[%766] : memref<?xf32, #amdgpu.address_space<fat_raw_buffer>>, vector<1xf32>
        %767 = vector.extract_strided_slice %459 {offsets = [3], sizes = [1], strides = [1]} : vector<4xf32> to vector<1xf32>
        %768 = arith.andi %755, %531 : i1
        %769 = arith.addi %534, %313 overflow<nsw> : index
        %770 = arith.select %768, %769, %c536870911 : index
        vector.store %767, %511[%770] : memref<?xf32, #amdgpu.address_space<fat_raw_buffer>>, vector<1xf32>
        %771 = vector.extract_strided_slice %460 {offsets = [0], sizes = [1], strides = [1]} : vector<4xf32> to vector<1xf32>
        %772 = affine.apply #map95()[%thread_id_x, %block_id_y, %block_id_x, %2, %5, %thread_id_y]
        %773 = arith.cmpi slt, %772, %497 : index
        %774 = arith.andi %773, %501 : i1
        %775 = arith.addi %507, %317 overflow<nsw> : index
        %776 = arith.select %774, %775, %c536870911 : index
        vector.store %771, %511[%776] : memref<?xf32, #amdgpu.address_space<fat_raw_buffer>>, vector<1xf32>
        %777 = vector.extract_strided_slice %460 {offsets = [1], sizes = [1], strides = [1]} : vector<4xf32> to vector<1xf32>
        %778 = arith.andi %773, %515 : i1
        %779 = arith.addi %518, %317 overflow<nsw> : index
        %780 = arith.select %778, %779, %c536870911 : index
        vector.store %777, %511[%780] : memref<?xf32, #amdgpu.address_space<fat_raw_buffer>>, vector<1xf32>
        %781 = vector.extract_strided_slice %460 {offsets = [2], sizes = [1], strides = [1]} : vector<4xf32> to vector<1xf32>
        %782 = arith.andi %773, %523 : i1
        %783 = arith.addi %526, %317 overflow<nsw> : index
        %784 = arith.select %782, %783, %c536870911 : index
        vector.store %781, %511[%784] : memref<?xf32, #amdgpu.address_space<fat_raw_buffer>>, vector<1xf32>
        %785 = vector.extract_strided_slice %460 {offsets = [3], sizes = [1], strides = [1]} : vector<4xf32> to vector<1xf32>
        %786 = arith.andi %773, %531 : i1
        %787 = arith.addi %534, %317 overflow<nsw> : index
        %788 = arith.select %786, %787, %c536870911 : index
        vector.store %785, %511[%788] : memref<?xf32, #amdgpu.address_space<fat_raw_buffer>>, vector<1xf32>
        %789 = vector.extract_strided_slice %461 {offsets = [0], sizes = [1], strides = [1]} : vector<4xf32> to vector<1xf32>
        %790 = affine.apply #map96()[%thread_id_x, %block_id_y, %block_id_x, %2, %5, %thread_id_y]
        %791 = arith.cmpi slt, %790, %497 : index
        %792 = arith.andi %791, %501 : i1
        %793 = arith.addi %507, %321 overflow<nsw> : index
        %794 = arith.select %792, %793, %c536870911 : index
        vector.store %789, %511[%794] : memref<?xf32, #amdgpu.address_space<fat_raw_buffer>>, vector<1xf32>
        %795 = vector.extract_strided_slice %461 {offsets = [1], sizes = [1], strides = [1]} : vector<4xf32> to vector<1xf32>
        %796 = arith.andi %791, %515 : i1
        %797 = arith.addi %518, %321 overflow<nsw> : index
        %798 = arith.select %796, %797, %c536870911 : index
        vector.store %795, %511[%798] : memref<?xf32, #amdgpu.address_space<fat_raw_buffer>>, vector<1xf32>
        %799 = vector.extract_strided_slice %461 {offsets = [2], sizes = [1], strides = [1]} : vector<4xf32> to vector<1xf32>
        %800 = arith.andi %791, %523 : i1
        %801 = arith.addi %526, %321 overflow<nsw> : index
        %802 = arith.select %800, %801, %c536870911 : index
        vector.store %799, %511[%802] : memref<?xf32, #amdgpu.address_space<fat_raw_buffer>>, vector<1xf32>
        %803 = vector.extract_strided_slice %461 {offsets = [3], sizes = [1], strides = [1]} : vector<4xf32> to vector<1xf32>
        %804 = arith.andi %791, %531 : i1
        %805 = arith.addi %534, %321 overflow<nsw> : index
        %806 = arith.select %804, %805, %c536870911 : index
        vector.store %803, %511[%806] : memref<?xf32, #amdgpu.address_space<fat_raw_buffer>>, vector<1xf32>
        %807 = vector.extract_strided_slice %462 {offsets = [0], sizes = [1], strides = [1]} : vector<4xf32> to vector<1xf32>
        %808 = affine.apply #map97()[%thread_id_x, %block_id_y, %block_id_x, %2, %5, %thread_id_y]
        %809 = arith.cmpi slt, %808, %497 : index
        %810 = arith.andi %809, %501 : i1
        %811 = arith.addi %507, %325 overflow<nsw> : index
        %812 = arith.select %810, %811, %c536870911 : index
        vector.store %807, %511[%812] : memref<?xf32, #amdgpu.address_space<fat_raw_buffer>>, vector<1xf32>
        %813 = vector.extract_strided_slice %462 {offsets = [1], sizes = [1], strides = [1]} : vector<4xf32> to vector<1xf32>
        %814 = arith.andi %809, %515 : i1
        %815 = arith.addi %518, %325 overflow<nsw> : index
        %816 = arith.select %814, %815, %c536870911 : index
        vector.store %813, %511[%816] : memref<?xf32, #amdgpu.address_space<fat_raw_buffer>>, vector<1xf32>
        %817 = vector.extract_strided_slice %462 {offsets = [2], sizes = [1], strides = [1]} : vector<4xf32> to vector<1xf32>
        %818 = arith.andi %809, %523 : i1
        %819 = arith.addi %526, %325 overflow<nsw> : index
        %820 = arith.select %818, %819, %c536870911 : index
        vector.store %817, %511[%820] : memref<?xf32, #amdgpu.address_space<fat_raw_buffer>>, vector<1xf32>
        %821 = vector.extract_strided_slice %462 {offsets = [3], sizes = [1], strides = [1]} : vector<4xf32> to vector<1xf32>
        %822 = arith.andi %809, %531 : i1
        %823 = arith.addi %534, %325 overflow<nsw> : index
        %824 = arith.select %822, %823, %c536870911 : index
        vector.store %821, %511[%824] : memref<?xf32, #amdgpu.address_space<fat_raw_buffer>>, vector<1xf32>
        %825 = vector.extract_strided_slice %463 {offsets = [0], sizes = [1], strides = [1]} : vector<4xf32> to vector<1xf32>
        %826 = affine.apply #map98()[%thread_id_x, %block_id_y, %block_id_x, %2, %5, %thread_id_y]
        %827 = arith.cmpi slt, %826, %497 : index
        %828 = arith.andi %827, %501 : i1
        %829 = arith.addi %507, %329 overflow<nsw> : index
        %830 = arith.select %828, %829, %c536870911 : index
        vector.store %825, %511[%830] : memref<?xf32, #amdgpu.address_space<fat_raw_buffer>>, vector<1xf32>
        %831 = vector.extract_strided_slice %463 {offsets = [1], sizes = [1], strides = [1]} : vector<4xf32> to vector<1xf32>
        %832 = arith.andi %827, %515 : i1
        %833 = arith.addi %518, %329 overflow<nsw> : index
        %834 = arith.select %832, %833, %c536870911 : index
        vector.store %831, %511[%834] : memref<?xf32, #amdgpu.address_space<fat_raw_buffer>>, vector<1xf32>
        %835 = vector.extract_strided_slice %463 {offsets = [2], sizes = [1], strides = [1]} : vector<4xf32> to vector<1xf32>
        %836 = arith.andi %827, %523 : i1
        %837 = arith.addi %526, %329 overflow<nsw> : index
        %838 = arith.select %836, %837, %c536870911 : index
        vector.store %835, %511[%838] : memref<?xf32, #amdgpu.address_space<fat_raw_buffer>>, vector<1xf32>
        %839 = vector.extract_strided_slice %463 {offsets = [3], sizes = [1], strides = [1]} : vector<4xf32> to vector<1xf32>
        %840 = arith.andi %827, %531 : i1
        %841 = arith.addi %534, %329 overflow<nsw> : index
        %842 = arith.select %840, %841, %c536870911 : index
        vector.store %839, %511[%842] : memref<?xf32, #amdgpu.address_space<fat_raw_buffer>>, vector<1xf32>
        %843 = vector.extract_strided_slice %464 {offsets = [0], sizes = [1], strides = [1]} : vector<4xf32> to vector<1xf32>
        %844 = affine.apply #map99()[%thread_id_x, %block_id_y, %block_id_x, %2, %5, %thread_id_y]
        %845 = arith.cmpi slt, %844, %497 : index
        %846 = arith.andi %845, %501 : i1
        %847 = arith.addi %507, %333 overflow<nsw> : index
        %848 = arith.select %846, %847, %c536870911 : index
        vector.store %843, %511[%848] : memref<?xf32, #amdgpu.address_space<fat_raw_buffer>>, vector<1xf32>
        %849 = vector.extract_strided_slice %464 {offsets = [1], sizes = [1], strides = [1]} : vector<4xf32> to vector<1xf32>
        %850 = arith.andi %845, %515 : i1
        %851 = arith.addi %518, %333 overflow<nsw> : index
        %852 = arith.select %850, %851, %c536870911 : index
        vector.store %849, %511[%852] : memref<?xf32, #amdgpu.address_space<fat_raw_buffer>>, vector<1xf32>
        %853 = vector.extract_strided_slice %464 {offsets = [2], sizes = [1], strides = [1]} : vector<4xf32> to vector<1xf32>
        %854 = arith.andi %845, %523 : i1
        %855 = arith.addi %526, %333 overflow<nsw> : index
        %856 = arith.select %854, %855, %c536870911 : index
        vector.store %853, %511[%856] : memref<?xf32, #amdgpu.address_space<fat_raw_buffer>>, vector<1xf32>
        %857 = vector.extract_strided_slice %464 {offsets = [3], sizes = [1], strides = [1]} : vector<4xf32> to vector<1xf32>
        %858 = arith.andi %845, %531 : i1
        %859 = arith.addi %534, %333 overflow<nsw> : index
        %860 = arith.select %858, %859, %c536870911 : index
        vector.store %857, %511[%860] : memref<?xf32, #amdgpu.address_space<fat_raw_buffer>>, vector<1xf32>
        %861 = vector.extract_strided_slice %465 {offsets = [0], sizes = [1], strides = [1]} : vector<4xf32> to vector<1xf32>
        %862 = affine.apply #map100()[%thread_id_x, %block_id_y, %block_id_x, %2, %5, %thread_id_y]
        %863 = arith.cmpi slt, %862, %497 : index
        %864 = arith.andi %863, %501 : i1
        %865 = arith.addi %507, %337 overflow<nsw> : index
        %866 = arith.select %864, %865, %c536870911 : index
        vector.store %861, %511[%866] : memref<?xf32, #amdgpu.address_space<fat_raw_buffer>>, vector<1xf32>
        %867 = vector.extract_strided_slice %465 {offsets = [1], sizes = [1], strides = [1]} : vector<4xf32> to vector<1xf32>
        %868 = arith.andi %863, %515 : i1
        %869 = arith.addi %518, %337 overflow<nsw> : index
        %870 = arith.select %868, %869, %c536870911 : index
        vector.store %867, %511[%870] : memref<?xf32, #amdgpu.address_space<fat_raw_buffer>>, vector<1xf32>
        %871 = vector.extract_strided_slice %465 {offsets = [2], sizes = [1], strides = [1]} : vector<4xf32> to vector<1xf32>
        %872 = arith.andi %863, %523 : i1
        %873 = arith.addi %526, %337 overflow<nsw> : index
        %874 = arith.select %872, %873, %c536870911 : index
        vector.store %871, %511[%874] : memref<?xf32, #amdgpu.address_space<fat_raw_buffer>>, vector<1xf32>
        %875 = vector.extract_strided_slice %465 {offsets = [3], sizes = [1], strides = [1]} : vector<4xf32> to vector<1xf32>
        %876 = arith.andi %863, %531 : i1
        %877 = arith.addi %534, %337 overflow<nsw> : index
        %878 = arith.select %876, %877, %c536870911 : index
        vector.store %875, %511[%878] : memref<?xf32, #amdgpu.address_space<fat_raw_buffer>>, vector<1xf32>
        %879 = vector.extract_strided_slice %466 {offsets = [0], sizes = [1], strides = [1]} : vector<4xf32> to vector<1xf32>
        %880 = affine.apply #map101()[%thread_id_x, %block_id_y, %block_id_x, %2, %5, %thread_id_y]
        %881 = arith.cmpi slt, %880, %497 : index
        %882 = arith.andi %881, %501 : i1
        %883 = arith.addi %507, %341 overflow<nsw> : index
        %884 = arith.select %882, %883, %c536870911 : index
        vector.store %879, %511[%884] : memref<?xf32, #amdgpu.address_space<fat_raw_buffer>>, vector<1xf32>
        %885 = vector.extract_strided_slice %466 {offsets = [1], sizes = [1], strides = [1]} : vector<4xf32> to vector<1xf32>
        %886 = arith.andi %881, %515 : i1
        %887 = arith.addi %518, %341 overflow<nsw> : index
        %888 = arith.select %886, %887, %c536870911 : index
        vector.store %885, %511[%888] : memref<?xf32, #amdgpu.address_space<fat_raw_buffer>>, vector<1xf32>
        %889 = vector.extract_strided_slice %466 {offsets = [2], sizes = [1], strides = [1]} : vector<4xf32> to vector<1xf32>
        %890 = arith.andi %881, %523 : i1
        %891 = arith.addi %526, %341 overflow<nsw> : index
        %892 = arith.select %890, %891, %c536870911 : index
        vector.store %889, %511[%892] : memref<?xf32, #amdgpu.address_space<fat_raw_buffer>>, vector<1xf32>
        %893 = vector.extract_strided_slice %466 {offsets = [3], sizes = [1], strides = [1]} : vector<4xf32> to vector<1xf32>
        %894 = arith.andi %881, %531 : i1
        %895 = arith.addi %534, %341 overflow<nsw> : index
        %896 = arith.select %894, %895, %c536870911 : index
        vector.store %893, %511[%896] : memref<?xf32, #amdgpu.address_space<fat_raw_buffer>>, vector<1xf32>
        %897 = vector.extract_strided_slice %467 {offsets = [0], sizes = [1], strides = [1]} : vector<4xf32> to vector<1xf32>
        %898 = affine.apply #map102()[%thread_id_x, %block_id_y, %block_id_x, %2, %5, %thread_id_y]
        %899 = arith.cmpi slt, %898, %497 : index
        %900 = arith.andi %899, %501 : i1
        %901 = arith.addi %507, %345 overflow<nsw> : index
        %902 = arith.select %900, %901, %c536870911 : index
        vector.store %897, %511[%902] : memref<?xf32, #amdgpu.address_space<fat_raw_buffer>>, vector<1xf32>
        %903 = vector.extract_strided_slice %467 {offsets = [1], sizes = [1], strides = [1]} : vector<4xf32> to vector<1xf32>
        %904 = arith.andi %899, %515 : i1
        %905 = arith.addi %518, %345 overflow<nsw> : index
        %906 = arith.select %904, %905, %c536870911 : index
        vector.store %903, %511[%906] : memref<?xf32, #amdgpu.address_space<fat_raw_buffer>>, vector<1xf32>
        %907 = vector.extract_strided_slice %467 {offsets = [2], sizes = [1], strides = [1]} : vector<4xf32> to vector<1xf32>
        %908 = arith.andi %899, %523 : i1
        %909 = arith.addi %526, %345 overflow<nsw> : index
        %910 = arith.select %908, %909, %c536870911 : index
        vector.store %907, %511[%910] : memref<?xf32, #amdgpu.address_space<fat_raw_buffer>>, vector<1xf32>
        %911 = vector.extract_strided_slice %467 {offsets = [3], sizes = [1], strides = [1]} : vector<4xf32> to vector<1xf32>
        %912 = arith.andi %899, %531 : i1
        %913 = arith.addi %534, %345 overflow<nsw> : index
        %914 = arith.select %912, %913, %c536870911 : index
        vector.store %911, %511[%914] : memref<?xf32, #amdgpu.address_space<fat_raw_buffer>>, vector<1xf32>
        %915 = vector.extract_strided_slice %468 {offsets = [0], sizes = [1], strides = [1]} : vector<4xf32> to vector<1xf32>
        %916 = affine.apply #map103()[%thread_id_x, %block_id_y, %block_id_x, %2, %5, %thread_id_y]
        %917 = arith.cmpi slt, %916, %497 : index
        %918 = arith.andi %917, %501 : i1
        %919 = arith.addi %507, %349 overflow<nsw> : index
        %920 = arith.select %918, %919, %c536870911 : index
        vector.store %915, %511[%920] : memref<?xf32, #amdgpu.address_space<fat_raw_buffer>>, vector<1xf32>
        %921 = vector.extract_strided_slice %468 {offsets = [1], sizes = [1], strides = [1]} : vector<4xf32> to vector<1xf32>
        %922 = arith.andi %917, %515 : i1
        %923 = arith.addi %518, %349 overflow<nsw> : index
        %924 = arith.select %922, %923, %c536870911 : index
        vector.store %921, %511[%924] : memref<?xf32, #amdgpu.address_space<fat_raw_buffer>>, vector<1xf32>
        %925 = vector.extract_strided_slice %468 {offsets = [2], sizes = [1], strides = [1]} : vector<4xf32> to vector<1xf32>
        %926 = arith.andi %917, %523 : i1
        %927 = arith.addi %526, %349 overflow<nsw> : index
        %928 = arith.select %926, %927, %c536870911 : index
        vector.store %925, %511[%928] : memref<?xf32, #amdgpu.address_space<fat_raw_buffer>>, vector<1xf32>
        %929 = vector.extract_strided_slice %468 {offsets = [3], sizes = [1], strides = [1]} : vector<4xf32> to vector<1xf32>
        %930 = arith.andi %917, %531 : i1
        %931 = arith.addi %534, %349 overflow<nsw> : index
        %932 = arith.select %930, %931, %c536870911 : index
        vector.store %929, %511[%932] : memref<?xf32, #amdgpu.address_space<fat_raw_buffer>>, vector<1xf32>
        %933 = vector.extract_strided_slice %469 {offsets = [0], sizes = [1], strides = [1]} : vector<4xf32> to vector<1xf32>
        %934 = affine.apply #map104()[%thread_id_x, %block_id_y, %block_id_x, %2, %5, %thread_id_y]
        %935 = arith.cmpi slt, %934, %497 : index
        %936 = arith.andi %935, %501 : i1
        %937 = arith.addi %507, %353 overflow<nsw> : index
        %938 = arith.select %936, %937, %c536870911 : index
        vector.store %933, %511[%938] : memref<?xf32, #amdgpu.address_space<fat_raw_buffer>>, vector<1xf32>
        %939 = vector.extract_strided_slice %469 {offsets = [1], sizes = [1], strides = [1]} : vector<4xf32> to vector<1xf32>
        %940 = arith.andi %935, %515 : i1
        %941 = arith.addi %518, %353 overflow<nsw> : index
        %942 = arith.select %940, %941, %c536870911 : index
        vector.store %939, %511[%942] : memref<?xf32, #amdgpu.address_space<fat_raw_buffer>>, vector<1xf32>
        %943 = vector.extract_strided_slice %469 {offsets = [2], sizes = [1], strides = [1]} : vector<4xf32> to vector<1xf32>
        %944 = arith.andi %935, %523 : i1
        %945 = arith.addi %526, %353 overflow<nsw> : index
        %946 = arith.select %944, %945, %c536870911 : index
        vector.store %943, %511[%946] : memref<?xf32, #amdgpu.address_space<fat_raw_buffer>>, vector<1xf32>
        %947 = vector.extract_strided_slice %469 {offsets = [3], sizes = [1], strides = [1]} : vector<4xf32> to vector<1xf32>
        %948 = arith.andi %935, %531 : i1
        %949 = arith.addi %534, %353 overflow<nsw> : index
        %950 = arith.select %948, %949, %c536870911 : index
        vector.store %947, %511[%950] : memref<?xf32, #amdgpu.address_space<fat_raw_buffer>>, vector<1xf32>
        %951 = vector.extract_strided_slice %470 {offsets = [0], sizes = [1], strides = [1]} : vector<4xf32> to vector<1xf32>
        %952 = affine.apply #map105()[%thread_id_x, %block_id_y, %block_id_x, %2, %5, %thread_id_y]
        %953 = arith.cmpi slt, %952, %497 : index
        %954 = arith.andi %953, %501 : i1
        %955 = arith.addi %507, %357 overflow<nsw> : index
        %956 = arith.select %954, %955, %c536870911 : index
        vector.store %951, %511[%956] : memref<?xf32, #amdgpu.address_space<fat_raw_buffer>>, vector<1xf32>
        %957 = vector.extract_strided_slice %470 {offsets = [1], sizes = [1], strides = [1]} : vector<4xf32> to vector<1xf32>
        %958 = arith.andi %953, %515 : i1
        %959 = arith.addi %518, %357 overflow<nsw> : index
        %960 = arith.select %958, %959, %c536870911 : index
        vector.store %957, %511[%960] : memref<?xf32, #amdgpu.address_space<fat_raw_buffer>>, vector<1xf32>
        %961 = vector.extract_strided_slice %470 {offsets = [2], sizes = [1], strides = [1]} : vector<4xf32> to vector<1xf32>
        %962 = arith.andi %953, %523 : i1
        %963 = arith.addi %526, %357 overflow<nsw> : index
        %964 = arith.select %962, %963, %c536870911 : index
        vector.store %961, %511[%964] : memref<?xf32, #amdgpu.address_space<fat_raw_buffer>>, vector<1xf32>
        %965 = vector.extract_strided_slice %470 {offsets = [3], sizes = [1], strides = [1]} : vector<4xf32> to vector<1xf32>
        %966 = arith.andi %953, %531 : i1
        %967 = arith.addi %534, %357 overflow<nsw> : index
        %968 = arith.select %966, %967, %c536870911 : index
        vector.store %965, %511[%968] : memref<?xf32, #amdgpu.address_space<fat_raw_buffer>>, vector<1xf32>
        %969 = vector.extract_strided_slice %471 {offsets = [0], sizes = [1], strides = [1]} : vector<4xf32> to vector<1xf32>
        %970 = affine.apply #map106()[%thread_id_x, %block_id_y, %block_id_x, %2, %5, %thread_id_y]
        %971 = arith.cmpi slt, %970, %497 : index
        %972 = arith.andi %971, %501 : i1
        %973 = arith.addi %507, %361 overflow<nsw> : index
        %974 = arith.select %972, %973, %c536870911 : index
        vector.store %969, %511[%974] : memref<?xf32, #amdgpu.address_space<fat_raw_buffer>>, vector<1xf32>
        %975 = vector.extract_strided_slice %471 {offsets = [1], sizes = [1], strides = [1]} : vector<4xf32> to vector<1xf32>
        %976 = arith.andi %971, %515 : i1
        %977 = arith.addi %518, %361 overflow<nsw> : index
        %978 = arith.select %976, %977, %c536870911 : index
        vector.store %975, %511[%978] : memref<?xf32, #amdgpu.address_space<fat_raw_buffer>>, vector<1xf32>
        %979 = vector.extract_strided_slice %471 {offsets = [2], sizes = [1], strides = [1]} : vector<4xf32> to vector<1xf32>
        %980 = arith.andi %971, %523 : i1
        %981 = arith.addi %526, %361 overflow<nsw> : index
        %982 = arith.select %980, %981, %c536870911 : index
        vector.store %979, %511[%982] : memref<?xf32, #amdgpu.address_space<fat_raw_buffer>>, vector<1xf32>
        %983 = vector.extract_strided_slice %471 {offsets = [3], sizes = [1], strides = [1]} : vector<4xf32> to vector<1xf32>
        %984 = arith.andi %971, %531 : i1
        %985 = arith.addi %534, %361 overflow<nsw> : index
        %986 = arith.select %984, %985, %c536870911 : index
        vector.store %983, %511[%986] : memref<?xf32, #amdgpu.address_space<fat_raw_buffer>>, vector<1xf32>
        %987 = vector.extract_strided_slice %472 {offsets = [0], sizes = [1], strides = [1]} : vector<4xf32> to vector<1xf32>
        %988 = affine.apply #map107()[%thread_id_x, %block_id_y, %block_id_x, %2, %5, %thread_id_y]
        %989 = arith.cmpi slt, %988, %497 : index
        %990 = arith.andi %989, %501 : i1
        %991 = arith.addi %507, %365 overflow<nsw> : index
        %992 = arith.select %990, %991, %c536870911 : index
        vector.store %987, %511[%992] : memref<?xf32, #amdgpu.address_space<fat_raw_buffer>>, vector<1xf32>
        %993 = vector.extract_strided_slice %472 {offsets = [1], sizes = [1], strides = [1]} : vector<4xf32> to vector<1xf32>
        %994 = arith.andi %989, %515 : i1
        %995 = arith.addi %518, %365 overflow<nsw> : index
        %996 = arith.select %994, %995, %c536870911 : index
        vector.store %993, %511[%996] : memref<?xf32, #amdgpu.address_space<fat_raw_buffer>>, vector<1xf32>
        %997 = vector.extract_strided_slice %472 {offsets = [2], sizes = [1], strides = [1]} : vector<4xf32> to vector<1xf32>
        %998 = arith.andi %989, %523 : i1
        %999 = arith.addi %526, %365 overflow<nsw> : index
        %1000 = arith.select %998, %999, %c536870911 : index
        vector.store %997, %511[%1000] : memref<?xf32, #amdgpu.address_space<fat_raw_buffer>>, vector<1xf32>
        %1001 = vector.extract_strided_slice %472 {offsets = [3], sizes = [1], strides = [1]} : vector<4xf32> to vector<1xf32>
        %1002 = arith.andi %989, %531 : i1
        %1003 = arith.addi %534, %365 overflow<nsw> : index
        %1004 = arith.select %1002, %1003, %c536870911 : index
        vector.store %1001, %511[%1004] : memref<?xf32, #amdgpu.address_space<fat_raw_buffer>>, vector<1xf32>
        %1005 = vector.extract_strided_slice %473 {offsets = [0], sizes = [1], strides = [1]} : vector<4xf32> to vector<1xf32>
        %1006 = affine.apply #map108()[%thread_id_x, %block_id_y, %block_id_x, %2, %5, %thread_id_y]
        %1007 = arith.cmpi slt, %1006, %497 : index
        %1008 = arith.andi %1007, %501 : i1
        %1009 = arith.addi %507, %369 overflow<nsw> : index
        %1010 = arith.select %1008, %1009, %c536870911 : index
        vector.store %1005, %511[%1010] : memref<?xf32, #amdgpu.address_space<fat_raw_buffer>>, vector<1xf32>
        %1011 = vector.extract_strided_slice %473 {offsets = [1], sizes = [1], strides = [1]} : vector<4xf32> to vector<1xf32>
        %1012 = arith.andi %1007, %515 : i1
        %1013 = arith.addi %518, %369 overflow<nsw> : index
        %1014 = arith.select %1012, %1013, %c536870911 : index
        vector.store %1011, %511[%1014] : memref<?xf32, #amdgpu.address_space<fat_raw_buffer>>, vector<1xf32>
        %1015 = vector.extract_strided_slice %473 {offsets = [2], sizes = [1], strides = [1]} : vector<4xf32> to vector<1xf32>
        %1016 = arith.andi %1007, %523 : i1
        %1017 = arith.addi %526, %369 overflow<nsw> : index
        %1018 = arith.select %1016, %1017, %c536870911 : index
        vector.store %1015, %511[%1018] : memref<?xf32, #amdgpu.address_space<fat_raw_buffer>>, vector<1xf32>
        %1019 = vector.extract_strided_slice %473 {offsets = [3], sizes = [1], strides = [1]} : vector<4xf32> to vector<1xf32>
        %1020 = arith.andi %1007, %531 : i1
        %1021 = arith.addi %534, %369 overflow<nsw> : index
        %1022 = arith.select %1020, %1021, %c536870911 : index
        vector.store %1019, %511[%1022] : memref<?xf32, #amdgpu.address_space<fat_raw_buffer>>, vector<1xf32>
        %1023 = vector.extract_strided_slice %474 {offsets = [0], sizes = [1], strides = [1]} : vector<4xf32> to vector<1xf32>
        %1024 = affine.apply #map109()[%thread_id_x, %block_id_y, %block_id_x, %2, %5, %thread_id_y]
        %1025 = arith.cmpi slt, %1024, %497 : index
        %1026 = arith.andi %1025, %501 : i1
        %1027 = arith.addi %507, %373 overflow<nsw> : index
        %1028 = arith.select %1026, %1027, %c536870911 : index
        vector.store %1023, %511[%1028] : memref<?xf32, #amdgpu.address_space<fat_raw_buffer>>, vector<1xf32>
        %1029 = vector.extract_strided_slice %474 {offsets = [1], sizes = [1], strides = [1]} : vector<4xf32> to vector<1xf32>
        %1030 = arith.andi %1025, %515 : i1
        %1031 = arith.addi %518, %373 overflow<nsw> : index
        %1032 = arith.select %1030, %1031, %c536870911 : index
        vector.store %1029, %511[%1032] : memref<?xf32, #amdgpu.address_space<fat_raw_buffer>>, vector<1xf32>
        %1033 = vector.extract_strided_slice %474 {offsets = [2], sizes = [1], strides = [1]} : vector<4xf32> to vector<1xf32>
        %1034 = arith.andi %1025, %523 : i1
        %1035 = arith.addi %526, %373 overflow<nsw> : index
        %1036 = arith.select %1034, %1035, %c536870911 : index
        vector.store %1033, %511[%1036] : memref<?xf32, #amdgpu.address_space<fat_raw_buffer>>, vector<1xf32>
        %1037 = vector.extract_strided_slice %474 {offsets = [3], sizes = [1], strides = [1]} : vector<4xf32> to vector<1xf32>
        %1038 = arith.andi %1025, %531 : i1
        %1039 = arith.addi %534, %373 overflow<nsw> : index
        %1040 = arith.select %1038, %1039, %c536870911 : index
        vector.store %1037, %511[%1040] : memref<?xf32, #amdgpu.address_space<fat_raw_buffer>>, vector<1xf32>
        %1041 = vector.extract_strided_slice %475 {offsets = [0], sizes = [1], strides = [1]} : vector<4xf32> to vector<1xf32>
        %1042 = affine.apply #map110()[%thread_id_x, %block_id_y, %block_id_x, %2, %5, %thread_id_y]
        %1043 = arith.cmpi slt, %1042, %497 : index
        %1044 = arith.andi %1043, %501 : i1
        %1045 = arith.addi %507, %377 overflow<nsw> : index
        %1046 = arith.select %1044, %1045, %c536870911 : index
        vector.store %1041, %511[%1046] : memref<?xf32, #amdgpu.address_space<fat_raw_buffer>>, vector<1xf32>
        %1047 = vector.extract_strided_slice %475 {offsets = [1], sizes = [1], strides = [1]} : vector<4xf32> to vector<1xf32>
        %1048 = arith.andi %1043, %515 : i1
        %1049 = arith.addi %518, %377 overflow<nsw> : index
        %1050 = arith.select %1048, %1049, %c536870911 : index
        vector.store %1047, %511[%1050] : memref<?xf32, #amdgpu.address_space<fat_raw_buffer>>, vector<1xf32>
        %1051 = vector.extract_strided_slice %475 {offsets = [2], sizes = [1], strides = [1]} : vector<4xf32> to vector<1xf32>
        %1052 = arith.andi %1043, %523 : i1
        %1053 = arith.addi %526, %377 overflow<nsw> : index
        %1054 = arith.select %1052, %1053, %c536870911 : index
        vector.store %1051, %511[%1054] : memref<?xf32, #amdgpu.address_space<fat_raw_buffer>>, vector<1xf32>
        %1055 = vector.extract_strided_slice %475 {offsets = [3], sizes = [1], strides = [1]} : vector<4xf32> to vector<1xf32>
        %1056 = arith.andi %1043, %531 : i1
        %1057 = arith.addi %534, %377 overflow<nsw> : index
        %1058 = arith.select %1056, %1057, %c536870911 : index
        vector.store %1055, %511[%1058] : memref<?xf32, #amdgpu.address_space<fat_raw_buffer>>, vector<1xf32>
        %1059 = vector.extract_strided_slice %476 {offsets = [0], sizes = [1], strides = [1]} : vector<4xf32> to vector<1xf32>
        %1060 = affine.apply #map111()[%thread_id_x, %block_id_y, %block_id_x, %2, %5, %thread_id_y]
        %1061 = arith.cmpi slt, %1060, %497 : index
        %1062 = arith.andi %1061, %501 : i1
        %1063 = arith.addi %507, %381 overflow<nsw> : index
        %1064 = arith.select %1062, %1063, %c536870911 : index
        vector.store %1059, %511[%1064] : memref<?xf32, #amdgpu.address_space<fat_raw_buffer>>, vector<1xf32>
        %1065 = vector.extract_strided_slice %476 {offsets = [1], sizes = [1], strides = [1]} : vector<4xf32> to vector<1xf32>
        %1066 = arith.andi %1061, %515 : i1
        %1067 = arith.addi %518, %381 overflow<nsw> : index
        %1068 = arith.select %1066, %1067, %c536870911 : index
        vector.store %1065, %511[%1068] : memref<?xf32, #amdgpu.address_space<fat_raw_buffer>>, vector<1xf32>
        %1069 = vector.extract_strided_slice %476 {offsets = [2], sizes = [1], strides = [1]} : vector<4xf32> to vector<1xf32>
        %1070 = arith.andi %1061, %523 : i1
        %1071 = arith.addi %526, %381 overflow<nsw> : index
        %1072 = arith.select %1070, %1071, %c536870911 : index
        vector.store %1069, %511[%1072] : memref<?xf32, #amdgpu.address_space<fat_raw_buffer>>, vector<1xf32>
        %1073 = vector.extract_strided_slice %476 {offsets = [3], sizes = [1], strides = [1]} : vector<4xf32> to vector<1xf32>
        %1074 = arith.andi %1061, %531 : i1
        %1075 = arith.addi %534, %381 overflow<nsw> : index
        %1076 = arith.select %1074, %1075, %c536870911 : index
        vector.store %1073, %511[%1076] : memref<?xf32, #amdgpu.address_space<fat_raw_buffer>>, vector<1xf32>
        %1077 = vector.extract_strided_slice %477 {offsets = [0], sizes = [1], strides = [1]} : vector<4xf32> to vector<1xf32>
        %1078 = affine.apply #map112()[%thread_id_x, %block_id_y, %block_id_x, %2, %5, %thread_id_y]
        %1079 = arith.cmpi slt, %1078, %497 : index
        %1080 = arith.andi %1079, %501 : i1
        %1081 = arith.addi %507, %385 overflow<nsw> : index
        %1082 = arith.select %1080, %1081, %c536870911 : index
        vector.store %1077, %511[%1082] : memref<?xf32, #amdgpu.address_space<fat_raw_buffer>>, vector<1xf32>
        %1083 = vector.extract_strided_slice %477 {offsets = [1], sizes = [1], strides = [1]} : vector<4xf32> to vector<1xf32>
        %1084 = arith.andi %1079, %515 : i1
        %1085 = arith.addi %518, %385 overflow<nsw> : index
        %1086 = arith.select %1084, %1085, %c536870911 : index
        vector.store %1083, %511[%1086] : memref<?xf32, #amdgpu.address_space<fat_raw_buffer>>, vector<1xf32>
        %1087 = vector.extract_strided_slice %477 {offsets = [2], sizes = [1], strides = [1]} : vector<4xf32> to vector<1xf32>
        %1088 = arith.andi %1079, %523 : i1
        %1089 = arith.addi %526, %385 overflow<nsw> : index
        %1090 = arith.select %1088, %1089, %c536870911 : index
        vector.store %1087, %511[%1090] : memref<?xf32, #amdgpu.address_space<fat_raw_buffer>>, vector<1xf32>
        %1091 = vector.extract_strided_slice %477 {offsets = [3], sizes = [1], strides = [1]} : vector<4xf32> to vector<1xf32>
        %1092 = arith.andi %1079, %531 : i1
        %1093 = arith.addi %534, %385 overflow<nsw> : index
        %1094 = arith.select %1092, %1093, %c536870911 : index
        vector.store %1091, %511[%1094] : memref<?xf32, #amdgpu.address_space<fat_raw_buffer>>, vector<1xf32>
        %1095 = vector.extract_strided_slice %478 {offsets = [0], sizes = [1], strides = [1]} : vector<4xf32> to vector<1xf32>
        %1096 = affine.apply #map113()[%thread_id_x, %block_id_y, %block_id_x, %2, %5, %thread_id_y]
        %1097 = arith.cmpi slt, %1096, %497 : index
        %1098 = arith.andi %1097, %501 : i1
        %1099 = arith.addi %507, %389 overflow<nsw> : index
        %1100 = arith.select %1098, %1099, %c536870911 : index
        vector.store %1095, %511[%1100] : memref<?xf32, #amdgpu.address_space<fat_raw_buffer>>, vector<1xf32>
        %1101 = vector.extract_strided_slice %478 {offsets = [1], sizes = [1], strides = [1]} : vector<4xf32> to vector<1xf32>
        %1102 = arith.andi %1097, %515 : i1
        %1103 = arith.addi %518, %389 overflow<nsw> : index
        %1104 = arith.select %1102, %1103, %c536870911 : index
        vector.store %1101, %511[%1104] : memref<?xf32, #amdgpu.address_space<fat_raw_buffer>>, vector<1xf32>
        %1105 = vector.extract_strided_slice %478 {offsets = [2], sizes = [1], strides = [1]} : vector<4xf32> to vector<1xf32>
        %1106 = arith.andi %1097, %523 : i1
        %1107 = arith.addi %526, %389 overflow<nsw> : index
        %1108 = arith.select %1106, %1107, %c536870911 : index
        vector.store %1105, %511[%1108] : memref<?xf32, #amdgpu.address_space<fat_raw_buffer>>, vector<1xf32>
        %1109 = vector.extract_strided_slice %478 {offsets = [3], sizes = [1], strides = [1]} : vector<4xf32> to vector<1xf32>
        %1110 = arith.andi %1097, %531 : i1
        %1111 = arith.addi %534, %389 overflow<nsw> : index
        %1112 = arith.select %1110, %1111, %c536870911 : index
        vector.store %1109, %511[%1112] : memref<?xf32, #amdgpu.address_space<fat_raw_buffer>>, vector<1xf32>
        %1113 = vector.extract_strided_slice %479 {offsets = [0], sizes = [1], strides = [1]} : vector<4xf32> to vector<1xf32>
        %1114 = affine.apply #map114()[%thread_id_x, %block_id_y, %block_id_x, %2, %5, %thread_id_y]
        %1115 = arith.cmpi slt, %1114, %497 : index
        %1116 = arith.andi %1115, %501 : i1
        %1117 = arith.addi %507, %393 overflow<nsw> : index
        %1118 = arith.select %1116, %1117, %c536870911 : index
        vector.store %1113, %511[%1118] : memref<?xf32, #amdgpu.address_space<fat_raw_buffer>>, vector<1xf32>
        %1119 = vector.extract_strided_slice %479 {offsets = [1], sizes = [1], strides = [1]} : vector<4xf32> to vector<1xf32>
        %1120 = arith.andi %1115, %515 : i1
        %1121 = arith.addi %518, %393 overflow<nsw> : index
        %1122 = arith.select %1120, %1121, %c536870911 : index
        vector.store %1119, %511[%1122] : memref<?xf32, #amdgpu.address_space<fat_raw_buffer>>, vector<1xf32>
        %1123 = vector.extract_strided_slice %479 {offsets = [2], sizes = [1], strides = [1]} : vector<4xf32> to vector<1xf32>
        %1124 = arith.andi %1115, %523 : i1
        %1125 = arith.addi %526, %393 overflow<nsw> : index
        %1126 = arith.select %1124, %1125, %c536870911 : index
        vector.store %1123, %511[%1126] : memref<?xf32, #amdgpu.address_space<fat_raw_buffer>>, vector<1xf32>
        %1127 = vector.extract_strided_slice %479 {offsets = [3], sizes = [1], strides = [1]} : vector<4xf32> to vector<1xf32>
        %1128 = arith.andi %1115, %531 : i1
        %1129 = arith.addi %534, %393 overflow<nsw> : index
        %1130 = arith.select %1128, %1129, %c536870911 : index
        vector.store %1127, %511[%1130] : memref<?xf32, #amdgpu.address_space<fat_raw_buffer>>, vector<1xf32>
        %1131 = vector.extract_strided_slice %480 {offsets = [0], sizes = [1], strides = [1]} : vector<4xf32> to vector<1xf32>
        %1132 = affine.apply #map115()[%thread_id_x, %block_id_y, %block_id_x, %2, %5, %thread_id_y]
        %1133 = arith.cmpi slt, %1132, %497 : index
        %1134 = arith.andi %1133, %501 : i1
        %1135 = arith.addi %507, %397 overflow<nsw> : index
        %1136 = arith.select %1134, %1135, %c536870911 : index
        vector.store %1131, %511[%1136] : memref<?xf32, #amdgpu.address_space<fat_raw_buffer>>, vector<1xf32>
        %1137 = vector.extract_strided_slice %480 {offsets = [1], sizes = [1], strides = [1]} : vector<4xf32> to vector<1xf32>
        %1138 = arith.andi %1133, %515 : i1
        %1139 = arith.addi %518, %397 overflow<nsw> : index
        %1140 = arith.select %1138, %1139, %c536870911 : index
        vector.store %1137, %511[%1140] : memref<?xf32, #amdgpu.address_space<fat_raw_buffer>>, vector<1xf32>
        %1141 = vector.extract_strided_slice %480 {offsets = [2], sizes = [1], strides = [1]} : vector<4xf32> to vector<1xf32>
        %1142 = arith.andi %1133, %523 : i1
        %1143 = arith.addi %526, %397 overflow<nsw> : index
        %1144 = arith.select %1142, %1143, %c536870911 : index
        vector.store %1141, %511[%1144] : memref<?xf32, #amdgpu.address_space<fat_raw_buffer>>, vector<1xf32>
        %1145 = vector.extract_strided_slice %480 {offsets = [3], sizes = [1], strides = [1]} : vector<4xf32> to vector<1xf32>
        %1146 = arith.andi %1133, %531 : i1
        %1147 = arith.addi %534, %397 overflow<nsw> : index
        %1148 = arith.select %1146, %1147, %c536870911 : index
        vector.store %1145, %511[%1148] : memref<?xf32, #amdgpu.address_space<fat_raw_buffer>>, vector<1xf32>
        %1149 = vector.extract_strided_slice %481 {offsets = [0], sizes = [1], strides = [1]} : vector<4xf32> to vector<1xf32>
        %1150 = affine.apply #map116()[%thread_id_x, %block_id_y, %block_id_x, %2, %5, %thread_id_y]
        %1151 = arith.cmpi slt, %1150, %497 : index
        %1152 = arith.andi %1151, %501 : i1
        %1153 = arith.addi %507, %401 overflow<nsw> : index
        %1154 = arith.select %1152, %1153, %c536870911 : index
        vector.store %1149, %511[%1154] : memref<?xf32, #amdgpu.address_space<fat_raw_buffer>>, vector<1xf32>
        %1155 = vector.extract_strided_slice %481 {offsets = [1], sizes = [1], strides = [1]} : vector<4xf32> to vector<1xf32>
        %1156 = arith.andi %1151, %515 : i1
        %1157 = arith.addi %518, %401 overflow<nsw> : index
        %1158 = arith.select %1156, %1157, %c536870911 : index
        vector.store %1155, %511[%1158] : memref<?xf32, #amdgpu.address_space<fat_raw_buffer>>, vector<1xf32>
        %1159 = vector.extract_strided_slice %481 {offsets = [2], sizes = [1], strides = [1]} : vector<4xf32> to vector<1xf32>
        %1160 = arith.andi %1151, %523 : i1
        %1161 = arith.addi %526, %401 overflow<nsw> : index
        %1162 = arith.select %1160, %1161, %c536870911 : index
        vector.store %1159, %511[%1162] : memref<?xf32, #amdgpu.address_space<fat_raw_buffer>>, vector<1xf32>
        %1163 = vector.extract_strided_slice %481 {offsets = [3], sizes = [1], strides = [1]} : vector<4xf32> to vector<1xf32>
        %1164 = arith.andi %1151, %531 : i1
        %1165 = arith.addi %534, %401 overflow<nsw> : index
        %1166 = arith.select %1164, %1165, %c536870911 : index
        vector.store %1163, %511[%1166] : memref<?xf32, #amdgpu.address_space<fat_raw_buffer>>, vector<1xf32>
        %1167 = vector.extract_strided_slice %482 {offsets = [0], sizes = [1], strides = [1]} : vector<4xf32> to vector<1xf32>
        %1168 = affine.apply #map117()[%thread_id_x, %block_id_y, %block_id_x, %2, %5, %thread_id_y]
        %1169 = arith.cmpi slt, %1168, %497 : index
        %1170 = arith.andi %1169, %501 : i1
        %1171 = arith.addi %507, %405 overflow<nsw> : index
        %1172 = arith.select %1170, %1171, %c536870911 : index
        vector.store %1167, %511[%1172] : memref<?xf32, #amdgpu.address_space<fat_raw_buffer>>, vector<1xf32>
        %1173 = vector.extract_strided_slice %482 {offsets = [1], sizes = [1], strides = [1]} : vector<4xf32> to vector<1xf32>
        %1174 = arith.andi %1169, %515 : i1
        %1175 = arith.addi %518, %405 overflow<nsw> : index
        %1176 = arith.select %1174, %1175, %c536870911 : index
        vector.store %1173, %511[%1176] : memref<?xf32, #amdgpu.address_space<fat_raw_buffer>>, vector<1xf32>
        %1177 = vector.extract_strided_slice %482 {offsets = [2], sizes = [1], strides = [1]} : vector<4xf32> to vector<1xf32>
        %1178 = arith.andi %1169, %523 : i1
        %1179 = arith.addi %526, %405 overflow<nsw> : index
        %1180 = arith.select %1178, %1179, %c536870911 : index
        vector.store %1177, %511[%1180] : memref<?xf32, #amdgpu.address_space<fat_raw_buffer>>, vector<1xf32>
        %1181 = vector.extract_strided_slice %482 {offsets = [3], sizes = [1], strides = [1]} : vector<4xf32> to vector<1xf32>
        %1182 = arith.andi %1169, %531 : i1
        %1183 = arith.addi %534, %405 overflow<nsw> : index
        %1184 = arith.select %1182, %1183, %c536870911 : index
        vector.store %1181, %511[%1184] : memref<?xf32, #amdgpu.address_space<fat_raw_buffer>>, vector<1xf32>
        %1185 = vector.extract_strided_slice %483 {offsets = [0], sizes = [1], strides = [1]} : vector<4xf32> to vector<1xf32>
        %1186 = affine.apply #map118()[%thread_id_x, %block_id_y, %block_id_x, %2, %5, %thread_id_y]
        %1187 = arith.cmpi slt, %1186, %497 : index
        %1188 = arith.andi %1187, %501 : i1
        %1189 = arith.addi %507, %409 overflow<nsw> : index
        %1190 = arith.select %1188, %1189, %c536870911 : index
        vector.store %1185, %511[%1190] : memref<?xf32, #amdgpu.address_space<fat_raw_buffer>>, vector<1xf32>
        %1191 = vector.extract_strided_slice %483 {offsets = [1], sizes = [1], strides = [1]} : vector<4xf32> to vector<1xf32>
        %1192 = arith.andi %1187, %515 : i1
        %1193 = arith.addi %518, %409 overflow<nsw> : index
        %1194 = arith.select %1192, %1193, %c536870911 : index
        vector.store %1191, %511[%1194] : memref<?xf32, #amdgpu.address_space<fat_raw_buffer>>, vector<1xf32>
        %1195 = vector.extract_strided_slice %483 {offsets = [2], sizes = [1], strides = [1]} : vector<4xf32> to vector<1xf32>
        %1196 = arith.andi %1187, %523 : i1
        %1197 = arith.addi %526, %409 overflow<nsw> : index
        %1198 = arith.select %1196, %1197, %c536870911 : index
        vector.store %1195, %511[%1198] : memref<?xf32, #amdgpu.address_space<fat_raw_buffer>>, vector<1xf32>
        %1199 = vector.extract_strided_slice %483 {offsets = [3], sizes = [1], strides = [1]} : vector<4xf32> to vector<1xf32>
        %1200 = arith.andi %1187, %531 : i1
        %1201 = arith.addi %534, %409 overflow<nsw> : index
        %1202 = arith.select %1200, %1201, %c536870911 : index
        vector.store %1199, %511[%1202] : memref<?xf32, #amdgpu.address_space<fat_raw_buffer>>, vector<1xf32>
        %1203 = vector.extract_strided_slice %484 {offsets = [0], sizes = [1], strides = [1]} : vector<4xf32> to vector<1xf32>
        %1204 = affine.apply #map119()[%thread_id_x, %block_id_y, %block_id_x, %2, %5, %thread_id_y]
        %1205 = arith.cmpi slt, %1204, %497 : index
        %1206 = arith.andi %1205, %501 : i1
        %1207 = arith.addi %507, %413 overflow<nsw> : index
        %1208 = arith.select %1206, %1207, %c536870911 : index
        vector.store %1203, %511[%1208] : memref<?xf32, #amdgpu.address_space<fat_raw_buffer>>, vector<1xf32>
        %1209 = vector.extract_strided_slice %484 {offsets = [1], sizes = [1], strides = [1]} : vector<4xf32> to vector<1xf32>
        %1210 = arith.andi %1205, %515 : i1
        %1211 = arith.addi %518, %413 overflow<nsw> : index
        %1212 = arith.select %1210, %1211, %c536870911 : index
        vector.store %1209, %511[%1212] : memref<?xf32, #amdgpu.address_space<fat_raw_buffer>>, vector<1xf32>
        %1213 = vector.extract_strided_slice %484 {offsets = [2], sizes = [1], strides = [1]} : vector<4xf32> to vector<1xf32>
        %1214 = arith.andi %1205, %523 : i1
        %1215 = arith.addi %526, %413 overflow<nsw> : index
        %1216 = arith.select %1214, %1215, %c536870911 : index
        vector.store %1213, %511[%1216] : memref<?xf32, #amdgpu.address_space<fat_raw_buffer>>, vector<1xf32>
        %1217 = vector.extract_strided_slice %484 {offsets = [3], sizes = [1], strides = [1]} : vector<4xf32> to vector<1xf32>
        %1218 = arith.andi %1205, %531 : i1
        %1219 = arith.addi %534, %413 overflow<nsw> : index
        %1220 = arith.select %1218, %1219, %c536870911 : index
        vector.store %1217, %511[%1220] : memref<?xf32, #amdgpu.address_space<fat_raw_buffer>>, vector<1xf32>
        %1221 = vector.extract_strided_slice %485 {offsets = [0], sizes = [1], strides = [1]} : vector<4xf32> to vector<1xf32>
        %1222 = affine.apply #map120()[%thread_id_x, %block_id_y, %block_id_x, %2, %5, %thread_id_y]
        %1223 = arith.cmpi slt, %1222, %497 : index
        %1224 = arith.andi %1223, %501 : i1
        %1225 = arith.addi %507, %417 overflow<nsw> : index
        %1226 = arith.select %1224, %1225, %c536870911 : index
        vector.store %1221, %511[%1226] : memref<?xf32, #amdgpu.address_space<fat_raw_buffer>>, vector<1xf32>
        %1227 = vector.extract_strided_slice %485 {offsets = [1], sizes = [1], strides = [1]} : vector<4xf32> to vector<1xf32>
        %1228 = arith.andi %1223, %515 : i1
        %1229 = arith.addi %518, %417 overflow<nsw> : index
        %1230 = arith.select %1228, %1229, %c536870911 : index
        vector.store %1227, %511[%1230] : memref<?xf32, #amdgpu.address_space<fat_raw_buffer>>, vector<1xf32>
        %1231 = vector.extract_strided_slice %485 {offsets = [2], sizes = [1], strides = [1]} : vector<4xf32> to vector<1xf32>
        %1232 = arith.andi %1223, %523 : i1
        %1233 = arith.addi %526, %417 overflow<nsw> : index
        %1234 = arith.select %1232, %1233, %c536870911 : index
        vector.store %1231, %511[%1234] : memref<?xf32, #amdgpu.address_space<fat_raw_buffer>>, vector<1xf32>
        %1235 = vector.extract_strided_slice %485 {offsets = [3], sizes = [1], strides = [1]} : vector<4xf32> to vector<1xf32>
        %1236 = arith.andi %1223, %531 : i1
        %1237 = arith.addi %534, %417 overflow<nsw> : index
        %1238 = arith.select %1236, %1237, %c536870911 : index
        vector.store %1235, %511[%1238] : memref<?xf32, #amdgpu.address_space<fat_raw_buffer>>, vector<1xf32>
        %1239 = vector.extract_strided_slice %486 {offsets = [0], sizes = [1], strides = [1]} : vector<4xf32> to vector<1xf32>
        %1240 = affine.apply #map121()[%thread_id_x, %block_id_y, %block_id_x, %2, %5, %thread_id_y]
        %1241 = arith.cmpi slt, %1240, %497 : index
        %1242 = arith.andi %1241, %501 : i1
        %1243 = arith.addi %507, %421 overflow<nsw> : index
        %1244 = arith.select %1242, %1243, %c536870911 : index
        vector.store %1239, %511[%1244] : memref<?xf32, #amdgpu.address_space<fat_raw_buffer>>, vector<1xf32>
        %1245 = vector.extract_strided_slice %486 {offsets = [1], sizes = [1], strides = [1]} : vector<4xf32> to vector<1xf32>
        %1246 = arith.andi %1241, %515 : i1
        %1247 = arith.addi %518, %421 overflow<nsw> : index
        %1248 = arith.select %1246, %1247, %c536870911 : index
        vector.store %1245, %511[%1248] : memref<?xf32, #amdgpu.address_space<fat_raw_buffer>>, vector<1xf32>
        %1249 = vector.extract_strided_slice %486 {offsets = [2], sizes = [1], strides = [1]} : vector<4xf32> to vector<1xf32>
        %1250 = arith.andi %1241, %523 : i1
        %1251 = arith.addi %526, %421 overflow<nsw> : index
        %1252 = arith.select %1250, %1251, %c536870911 : index
        vector.store %1249, %511[%1252] : memref<?xf32, #amdgpu.address_space<fat_raw_buffer>>, vector<1xf32>
        %1253 = vector.extract_strided_slice %486 {offsets = [3], sizes = [1], strides = [1]} : vector<4xf32> to vector<1xf32>
        %1254 = arith.andi %1241, %531 : i1
        %1255 = arith.addi %534, %421 overflow<nsw> : index
        %1256 = arith.select %1254, %1255, %c536870911 : index
        vector.store %1253, %511[%1256] : memref<?xf32, #amdgpu.address_space<fat_raw_buffer>>, vector<1xf32>
        %1257 = vector.extract_strided_slice %487 {offsets = [0], sizes = [1], strides = [1]} : vector<4xf32> to vector<1xf32>
        %1258 = affine.apply #map122()[%thread_id_x, %block_id_y, %block_id_x, %2, %5, %thread_id_y]
        %1259 = arith.cmpi slt, %1258, %497 : index
        %1260 = arith.andi %1259, %501 : i1
        %1261 = arith.addi %507, %425 overflow<nsw> : index
        %1262 = arith.select %1260, %1261, %c536870911 : index
        vector.store %1257, %511[%1262] : memref<?xf32, #amdgpu.address_space<fat_raw_buffer>>, vector<1xf32>
        %1263 = vector.extract_strided_slice %487 {offsets = [1], sizes = [1], strides = [1]} : vector<4xf32> to vector<1xf32>
        %1264 = arith.andi %1259, %515 : i1
        %1265 = arith.addi %518, %425 overflow<nsw> : index
        %1266 = arith.select %1264, %1265, %c536870911 : index
        vector.store %1263, %511[%1266] : memref<?xf32, #amdgpu.address_space<fat_raw_buffer>>, vector<1xf32>
        %1267 = vector.extract_strided_slice %487 {offsets = [2], sizes = [1], strides = [1]} : vector<4xf32> to vector<1xf32>
        %1268 = arith.andi %1259, %523 : i1
        %1269 = arith.addi %526, %425 overflow<nsw> : index
        %1270 = arith.select %1268, %1269, %c536870911 : index
        vector.store %1267, %511[%1270] : memref<?xf32, #amdgpu.address_space<fat_raw_buffer>>, vector<1xf32>
        %1271 = vector.extract_strided_slice %487 {offsets = [3], sizes = [1], strides = [1]} : vector<4xf32> to vector<1xf32>
        %1272 = arith.andi %1259, %531 : i1
        %1273 = arith.addi %534, %425 overflow<nsw> : index
        %1274 = arith.select %1272, %1273, %c536870911 : index
        vector.store %1271, %511[%1274] : memref<?xf32, #amdgpu.address_space<fat_raw_buffer>>, vector<1xf32>
        %1275 = vector.extract_strided_slice %488 {offsets = [0], sizes = [1], strides = [1]} : vector<4xf32> to vector<1xf32>
        %1276 = affine.apply #map123()[%thread_id_x, %block_id_y, %block_id_x, %2, %5, %thread_id_y]
        %1277 = arith.cmpi slt, %1276, %497 : index
        %1278 = arith.andi %1277, %501 : i1
        %1279 = arith.addi %507, %429 overflow<nsw> : index
        %1280 = arith.select %1278, %1279, %c536870911 : index
        vector.store %1275, %511[%1280] : memref<?xf32, #amdgpu.address_space<fat_raw_buffer>>, vector<1xf32>
        %1281 = vector.extract_strided_slice %488 {offsets = [1], sizes = [1], strides = [1]} : vector<4xf32> to vector<1xf32>
        %1282 = arith.andi %1277, %515 : i1
        %1283 = arith.addi %518, %429 overflow<nsw> : index
        %1284 = arith.select %1282, %1283, %c536870911 : index
        vector.store %1281, %511[%1284] : memref<?xf32, #amdgpu.address_space<fat_raw_buffer>>, vector<1xf32>
        %1285 = vector.extract_strided_slice %488 {offsets = [2], sizes = [1], strides = [1]} : vector<4xf32> to vector<1xf32>
        %1286 = arith.andi %1277, %523 : i1
        %1287 = arith.addi %526, %429 overflow<nsw> : index
        %1288 = arith.select %1286, %1287, %c536870911 : index
        vector.store %1285, %511[%1288] : memref<?xf32, #amdgpu.address_space<fat_raw_buffer>>, vector<1xf32>
        %1289 = vector.extract_strided_slice %488 {offsets = [3], sizes = [1], strides = [1]} : vector<4xf32> to vector<1xf32>
        %1290 = arith.andi %1277, %531 : i1
        %1291 = arith.addi %534, %429 overflow<nsw> : index
        %1292 = arith.select %1290, %1291, %c536870911 : index
        vector.store %1289, %511[%1292] : memref<?xf32, #amdgpu.address_space<fat_raw_buffer>>, vector<1xf32>
        %1293 = vector.extract_strided_slice %489 {offsets = [0], sizes = [1], strides = [1]} : vector<4xf32> to vector<1xf32>
        %1294 = affine.apply #map124()[%thread_id_x, %block_id_y, %block_id_x, %2, %5, %thread_id_y]
        %1295 = arith.cmpi slt, %1294, %497 : index
        %1296 = arith.andi %1295, %501 : i1
        %1297 = arith.addi %507, %433 overflow<nsw> : index
        %1298 = arith.select %1296, %1297, %c536870911 : index
        vector.store %1293, %511[%1298] : memref<?xf32, #amdgpu.address_space<fat_raw_buffer>>, vector<1xf32>
        %1299 = vector.extract_strided_slice %489 {offsets = [1], sizes = [1], strides = [1]} : vector<4xf32> to vector<1xf32>
        %1300 = arith.andi %1295, %515 : i1
        %1301 = arith.addi %518, %433 overflow<nsw> : index
        %1302 = arith.select %1300, %1301, %c536870911 : index
        vector.store %1299, %511[%1302] : memref<?xf32, #amdgpu.address_space<fat_raw_buffer>>, vector<1xf32>
        %1303 = vector.extract_strided_slice %489 {offsets = [2], sizes = [1], strides = [1]} : vector<4xf32> to vector<1xf32>
        %1304 = arith.andi %1295, %523 : i1
        %1305 = arith.addi %526, %433 overflow<nsw> : index
        %1306 = arith.select %1304, %1305, %c536870911 : index
        vector.store %1303, %511[%1306] : memref<?xf32, #amdgpu.address_space<fat_raw_buffer>>, vector<1xf32>
        %1307 = vector.extract_strided_slice %489 {offsets = [3], sizes = [1], strides = [1]} : vector<4xf32> to vector<1xf32>
        %1308 = arith.andi %1295, %531 : i1
        %1309 = arith.addi %534, %433 overflow<nsw> : index
        %1310 = arith.select %1308, %1309, %c536870911 : index
        vector.store %1307, %511[%1310] : memref<?xf32, #amdgpu.address_space<fat_raw_buffer>>, vector<1xf32>
        %1311 = vector.extract_strided_slice %490 {offsets = [0], sizes = [1], strides = [1]} : vector<4xf32> to vector<1xf32>
        %1312 = affine.apply #map125()[%thread_id_x, %block_id_y, %block_id_x, %2, %5, %thread_id_y]
        %1313 = arith.cmpi slt, %1312, %497 : index
        %1314 = arith.andi %1313, %501 : i1
        %1315 = arith.addi %507, %437 overflow<nsw> : index
        %1316 = arith.select %1314, %1315, %c536870911 : index
        vector.store %1311, %511[%1316] : memref<?xf32, #amdgpu.address_space<fat_raw_buffer>>, vector<1xf32>
        %1317 = vector.extract_strided_slice %490 {offsets = [1], sizes = [1], strides = [1]} : vector<4xf32> to vector<1xf32>
        %1318 = arith.andi %1313, %515 : i1
        %1319 = arith.addi %518, %437 overflow<nsw> : index
        %1320 = arith.select %1318, %1319, %c536870911 : index
        vector.store %1317, %511[%1320] : memref<?xf32, #amdgpu.address_space<fat_raw_buffer>>, vector<1xf32>
        %1321 = vector.extract_strided_slice %490 {offsets = [2], sizes = [1], strides = [1]} : vector<4xf32> to vector<1xf32>
        %1322 = arith.andi %1313, %523 : i1
        %1323 = arith.addi %526, %437 overflow<nsw> : index
        %1324 = arith.select %1322, %1323, %c536870911 : index
        vector.store %1321, %511[%1324] : memref<?xf32, #amdgpu.address_space<fat_raw_buffer>>, vector<1xf32>
        %1325 = vector.extract_strided_slice %490 {offsets = [3], sizes = [1], strides = [1]} : vector<4xf32> to vector<1xf32>
        %1326 = arith.andi %1313, %531 : i1
        %1327 = arith.addi %534, %437 overflow<nsw> : index
        %1328 = arith.select %1326, %1327, %c536870911 : index
        vector.store %1325, %511[%1328] : memref<?xf32, #amdgpu.address_space<fat_raw_buffer>>, vector<1xf32>
        %1329 = vector.extract_strided_slice %491 {offsets = [0], sizes = [1], strides = [1]} : vector<4xf32> to vector<1xf32>
        %1330 = affine.apply #map126()[%thread_id_x, %block_id_y, %block_id_x, %2, %5, %thread_id_y]
        %1331 = arith.cmpi slt, %1330, %497 : index
        %1332 = arith.andi %1331, %501 : i1
        %1333 = arith.addi %507, %441 overflow<nsw> : index
        %1334 = arith.select %1332, %1333, %c536870911 : index
        vector.store %1329, %511[%1334] : memref<?xf32, #amdgpu.address_space<fat_raw_buffer>>, vector<1xf32>
        %1335 = vector.extract_strided_slice %491 {offsets = [1], sizes = [1], strides = [1]} : vector<4xf32> to vector<1xf32>
        %1336 = arith.andi %1331, %515 : i1
        %1337 = arith.addi %518, %441 overflow<nsw> : index
        %1338 = arith.select %1336, %1337, %c536870911 : index
        vector.store %1335, %511[%1338] : memref<?xf32, #amdgpu.address_space<fat_raw_buffer>>, vector<1xf32>
        %1339 = vector.extract_strided_slice %491 {offsets = [2], sizes = [1], strides = [1]} : vector<4xf32> to vector<1xf32>
        %1340 = arith.andi %1331, %523 : i1
        %1341 = arith.addi %526, %441 overflow<nsw> : index
        %1342 = arith.select %1340, %1341, %c536870911 : index
        vector.store %1339, %511[%1342] : memref<?xf32, #amdgpu.address_space<fat_raw_buffer>>, vector<1xf32>
        %1343 = vector.extract_strided_slice %491 {offsets = [3], sizes = [1], strides = [1]} : vector<4xf32> to vector<1xf32>
        %1344 = arith.andi %1331, %531 : i1
        %1345 = arith.addi %534, %441 overflow<nsw> : index
        %1346 = arith.select %1344, %1345, %c536870911 : index
        vector.store %1343, %511[%1346] : memref<?xf32, #amdgpu.address_space<fat_raw_buffer>>, vector<1xf32>
        return
      }
    }
  }
  func.func @isolated_benchmark(%arg0: tensor<641x4096xf16>, %arg1: tensor<2880x4096xf16>, %arg2: tensor<641x2880xf32>) -> tensor<641x2880xf32> {
    %0 = flow.dispatch @gemm::@gemm(%arg0, %arg1, %arg2) : (tensor<641x4096xf16>, tensor<2880x4096xf16>, tensor<641x2880xf32>) -> %arg2
    return %0 : tensor<641x2880xf32>
  }
}
