#map = affine_map<()[s0, s1] -> (((s0 * 49 + s1 * 7 - ((s0 * 7 + s1) floordiv 8) * 55) floordiv 40) * -5 + 7)>
#map1 = affine_map<()[s0, s1, s2, s3, s4] -> ((s1 * 48 + (s0 * 3) floordiv 16) mod 96 + ((s2 * 49 + s3 * 7 - ((s2 * 7 + s3) floordiv 8) * 55) floordiv 40) * 480 + (((s2 * 49 + s3 * 7 - ((s2 * 7 + s3) floordiv 8) * 55) mod 40) mod s4) * 96)>
#map2 = affine_map<()[s0] -> ((s0 * 3) mod 16)>
#map3 = affine_map<()[s0, s1, s2, s3, s4] -> (s0 floordiv 2 + s1 * 128 - ((s1 * 128 + s0 floordiv 2) floordiv 1038) * 1038 + (((s2 * 49 + s3 * 7 - ((s2 * 7 + s3) floordiv 8) * 55) mod 40) floordiv s4) * 1038)>
#map4 = affine_map<()[s0] -> (s0 * 8 - (s0 floordiv 2) * 16)>
#map5 = affine_map<()[s0, s1, s2, s3, s4] -> (s0 floordiv 2 + s1 * 128 - ((s1 * 128 + s0 floordiv 2 + 256) floordiv 1038) * 1038 + (((s2 * 49 + s3 * 7 - ((s2 * 7 + s3) floordiv 8) * 55) mod 40) floordiv s4) * 1038 + 256)>
#map6 = affine_map<()[s0, s1, s2, s3, s4] -> (s0 floordiv 2 + s1 * 128 - ((s1 * 128 + s0 floordiv 2 + 512) floordiv 1038) * 1038 + (((s2 * 49 + s3 * 7 - ((s2 * 7 + s3) floordiv 8) * 55) mod 40) floordiv s4) * 1038 + 512)>
#map7 = affine_map<()[s0, s1, s2, s3, s4] -> (s0 floordiv 2 + s1 * 128 - ((s1 * 128 + s0 floordiv 2 + 768) floordiv 1038) * 1038 + (((s2 * 49 + s3 * 7 - ((s2 * 7 + s3) floordiv 8) * 55) mod 40) floordiv s4) * 1038 + 768)>
#map8 = affine_map<()[s0, s1, s2, s3, s4] -> (s0 floordiv 2 + s1 * 128 - ((s1 * 128 + s0 floordiv 2 + 1024) floordiv 1038) * 1038 + (((s2 * 49 + s3 * 7 - ((s2 * 7 + s3) floordiv 8) * 55) mod 40) floordiv s4) * 1038 + 1024)>
#map9 = affine_map<()[s0] -> ((s0 floordiv 64) * 24 + 24)>
#map10 = affine_map<()[s0, s1] -> ((s1 * 48 + (s0 * 3) floordiv 16) mod 96)>
#map11 = affine_map<()[s0] -> (s0 * 519 + 519)>
#map12 = affine_map<()[s0, s1] -> ((s1 * 128 + s0 floordiv 2) mod 1038)>
#map13 = affine_map<()[s0, s1] -> (s1 * 128 + s0 floordiv 2 - ((s1 * 128 + s0 floordiv 2 + 256) floordiv 1038) * 1038 + 256)>
#map14 = affine_map<()[s0, s1] -> (s1 * 128 + s0 floordiv 2 - ((s1 * 128 + s0 floordiv 2 + 512) floordiv 1038) * 1038 + 512)>
#map15 = affine_map<()[s0, s1] -> (s1 * 128 + s0 floordiv 2 - ((s1 * 128 + s0 floordiv 2 + 768) floordiv 1038) * 1038 + 768)>
#map16 = affine_map<()[s0, s1] -> (s1 * 128 + s0 floordiv 2 - ((s1 * 128 + s0 floordiv 2 + 1024) floordiv 1038) * 1038 + 1024)>
#map17 = affine_map<()[s0, s1] -> (s0 + s1 * 519 - (s0 floordiv 16) * 16)>
#map18 = affine_map<()[s0] -> (((s0 mod 64) floordiv 16) * 4)>
#map19 = affine_map<()[s0, s1] -> (s0 + s1 * 519 - (s0 floordiv 16) * 16 + 16)>
#map20 = affine_map<()[s0, s1] -> (s0 + s1 * 519 - (s0 floordiv 16) * 16 + 32)>
#map21 = affine_map<()[s0, s1] -> (s0 + s1 * 519 - (s0 floordiv 16) * 16 + 48)>
#map22 = affine_map<()[s0, s1] -> (s0 + s1 * 519 - (s0 floordiv 16) * 16 + 64)>
#map23 = affine_map<()[s0, s1] -> (s0 + s1 * 519 - (s0 floordiv 16) * 16 + 80)>
#map24 = affine_map<()[s0, s1] -> (s0 + s1 * 519 - (s0 floordiv 16) * 16 + 96)>
#map25 = affine_map<()[s0, s1] -> (s0 + s1 * 519 - (s0 floordiv 16) * 16 + 112)>
#map26 = affine_map<()[s0, s1] -> (s0 + s1 * 519 - (s0 floordiv 16) * 16 + 128)>
#map27 = affine_map<()[s0, s1] -> (s0 + s1 * 519 - (s0 floordiv 16) * 16 + 144)>
#map28 = affine_map<()[s0, s1] -> (s0 + s1 * 519 - (s0 floordiv 16) * 16 + 160)>
#map29 = affine_map<()[s0, s1] -> (s0 + s1 * 519 - (s0 floordiv 16) * 16 + 176)>
#map30 = affine_map<()[s0, s1] -> (s0 + s1 * 519 - (s0 floordiv 16) * 16 + 192)>
#map31 = affine_map<()[s0, s1] -> (s0 + s1 * 519 - (s0 floordiv 16) * 16 + 208)>
#map32 = affine_map<()[s0, s1] -> (s0 + s1 * 519 - (s0 floordiv 16) * 16 + 224)>
#map33 = affine_map<()[s0, s1] -> (s0 + s1 * 519 - (s0 floordiv 16) * 16 + 240)>
#map34 = affine_map<()[s0, s1] -> (s0 + s1 * 519 - (s0 floordiv 16) * 16 + 256)>
#map35 = affine_map<()[s0, s1] -> (s0 + s1 * 519 - (s0 floordiv 16) * 16 + 272)>
#map36 = affine_map<()[s0, s1] -> (s0 + s1 * 519 - (s0 floordiv 16) * 16 + 288)>
#map37 = affine_map<()[s0, s1] -> (s0 + s1 * 519 - (s0 floordiv 16) * 16 + 304)>
#map38 = affine_map<()[s0, s1] -> (s0 + s1 * 519 - (s0 floordiv 16) * 16 + 320)>
#map39 = affine_map<()[s0, s1] -> (s0 + s1 * 519 - (s0 floordiv 16) * 16 + 336)>
#map40 = affine_map<()[s0, s1] -> (s0 + s1 * 519 - (s0 floordiv 16) * 16 + 352)>
#map41 = affine_map<()[s0, s1] -> (s0 + s1 * 519 - (s0 floordiv 16) * 16 + 368)>
#map42 = affine_map<()[s0, s1] -> (s0 + s1 * 519 - (s0 floordiv 16) * 16 + 384)>
#map43 = affine_map<()[s0, s1] -> (s0 + s1 * 519 - (s0 floordiv 16) * 16 + 400)>
#map44 = affine_map<()[s0, s1] -> (s0 + s1 * 519 - (s0 floordiv 16) * 16 + 416)>
#map45 = affine_map<()[s0, s1] -> (s0 + s1 * 519 - (s0 floordiv 16) * 16 + 432)>
#map46 = affine_map<()[s0, s1] -> (s0 + s1 * 519 - (s0 floordiv 16) * 16 + 448)>
#map47 = affine_map<()[s0, s1] -> (s0 + s1 * 519 - (s0 floordiv 16) * 16 + 464)>
#map48 = affine_map<()[s0, s1] -> (s0 + s1 * 519 - (s0 floordiv 16) * 16 + 480)>
#map49 = affine_map<()[s0, s1] -> (s0 + s1 * 519 - (s0 floordiv 16) * 16 + 496)>
#map50 = affine_map<()[s0, s1] -> (s0 + s1 * 519 - (s0 floordiv 16) * 16 + 512)>
#map51 = affine_map<()[s0] -> (s0 mod 16 + (s0 floordiv 64) * 24)>
#map52 = affine_map<()[s0] -> (s0 mod 16 + (s0 floordiv 64) * 24 + 16)>
#map53 = affine_map<()[s0, s1] -> (s0 * 3 + s1 * 16 - ((s0 * 3) floordiv 16) * 16 + 16)>
#map54 = affine_map<()[s0, s1] -> (s0 * 16 + s1 * 8 - (s1 floordiv 2) * 16 + 16)>
#map55 = affine_map<()[s0, s1] -> (s0 * 1038 + s1 * 519 + 519)>
#map56 = affine_map<()[s0] -> (s0 * 1038 + 1038)>
#map57 = affine_map<()[s0, s1, s2, s3, s4] -> (s0 mod 16 + s4 * 519 + (((s1 * 49 + s2 * 7 - ((s1 * 7 + s2) floordiv 8) * 55) mod 40) floordiv s3) * 1038)>
#map58 = affine_map<()[s0, s1] -> (s0 * 96 + (s1 floordiv 64) * 24 + 24)>
#map59 = affine_map<()[s0, s1, s2, s3] -> ((s3 floordiv 64) * 24 + ((s0 * 49 + s1 * 7 - ((s0 * 7 + s1) floordiv 8) * 55) floordiv 40) * 480 + (((s0 * 49 + s1 * 7 - ((s0 * 7 + s1) floordiv 8) * 55) mod 40) mod s2) * 96 + ((s3 mod 64) floordiv 16) * 4)>
#map60 = affine_map<()[s0, s1, s2] -> (((s0 * 49 + s1 * 7 - ((s0 * 7 + s1) floordiv 8) * 55) floordiv 40) * 480 + (((s0 * 49 + s1 * 7 - ((s0 * 7 + s1) floordiv 8) * 55) mod 40) mod s2) * 96)>
#map61 = affine_map<()[s0, s1, s2] -> ((((s0 * 49 + s1 * 7 - ((s0 * 7 + s1) floordiv 8) * 55) mod 40) floordiv s2) * 1038)>
#map62 = affine_map<()[s0] -> ((s0 floordiv 64) * 24 + ((s0 mod 64) floordiv 16) * 4)>
#map63 = affine_map<()[s0, s1, s2, s3] -> ((s3 floordiv 64) * 24 + ((s0 * 49 + s1 * 7 - ((s0 * 7 + s1) floordiv 8) * 55) floordiv 40) * 480 + (((s0 * 49 + s1 * 7 - ((s0 * 7 + s1) floordiv 8) * 55) mod 40) mod s2) * 96 + ((s3 mod 64) floordiv 16) * 4 + 1)>
#map64 = affine_map<()[s0] -> ((s0 floordiv 64) * 24 + ((s0 mod 64) floordiv 16) * 4 + 1)>
#map65 = affine_map<()[s0, s1, s2, s3] -> ((s3 floordiv 64) * 24 + ((s0 * 49 + s1 * 7 - ((s0 * 7 + s1) floordiv 8) * 55) floordiv 40) * 480 + (((s0 * 49 + s1 * 7 - ((s0 * 7 + s1) floordiv 8) * 55) mod 40) mod s2) * 96 + ((s3 mod 64) floordiv 16) * 4 + 2)>
#map66 = affine_map<()[s0] -> ((s0 floordiv 64) * 24 + ((s0 mod 64) floordiv 16) * 4 + 2)>
#map67 = affine_map<()[s0, s1, s2, s3] -> ((s3 floordiv 64) * 24 + ((s0 * 49 + s1 * 7 - ((s0 * 7 + s1) floordiv 8) * 55) floordiv 40) * 480 + (((s0 * 49 + s1 * 7 - ((s0 * 7 + s1) floordiv 8) * 55) mod 40) mod s2) * 96 + ((s3 mod 64) floordiv 16) * 4 + 3)>
#map68 = affine_map<()[s0] -> ((s0 floordiv 64) * 24 + ((s0 mod 64) floordiv 16) * 4 + 3)>
#map69 = affine_map<()[s0, s1, s2, s3, s4] -> (s0 mod 16 + s4 * 519 + (((s1 * 49 + s2 * 7 - ((s1 * 7 + s2) floordiv 8) * 55) mod 40) floordiv s3) * 1038 + 16)>
#map70 = affine_map<()[s0, s1, s2, s3, s4] -> (s0 mod 16 + s4 * 519 + (((s1 * 49 + s2 * 7 - ((s1 * 7 + s2) floordiv 8) * 55) mod 40) floordiv s3) * 1038 + 32)>
#map71 = affine_map<()[s0, s1, s2, s3, s4] -> (s0 mod 16 + s4 * 519 + (((s1 * 49 + s2 * 7 - ((s1 * 7 + s2) floordiv 8) * 55) mod 40) floordiv s3) * 1038 + 48)>
#map72 = affine_map<()[s0, s1, s2, s3, s4] -> (s0 mod 16 + s4 * 519 + (((s1 * 49 + s2 * 7 - ((s1 * 7 + s2) floordiv 8) * 55) mod 40) floordiv s3) * 1038 + 64)>
#map73 = affine_map<()[s0, s1, s2, s3, s4] -> (s0 mod 16 + s4 * 519 + (((s1 * 49 + s2 * 7 - ((s1 * 7 + s2) floordiv 8) * 55) mod 40) floordiv s3) * 1038 + 80)>
#map74 = affine_map<()[s0, s1, s2, s3, s4] -> (s0 mod 16 + s4 * 519 + (((s1 * 49 + s2 * 7 - ((s1 * 7 + s2) floordiv 8) * 55) mod 40) floordiv s3) * 1038 + 96)>
#map75 = affine_map<()[s0, s1, s2, s3, s4] -> (s0 mod 16 + s4 * 519 + (((s1 * 49 + s2 * 7 - ((s1 * 7 + s2) floordiv 8) * 55) mod 40) floordiv s3) * 1038 + 112)>
#map76 = affine_map<()[s0, s1, s2, s3, s4] -> (s0 mod 16 + s4 * 519 + (((s1 * 49 + s2 * 7 - ((s1 * 7 + s2) floordiv 8) * 55) mod 40) floordiv s3) * 1038 + 128)>
#map77 = affine_map<()[s0, s1, s2, s3, s4] -> (s0 mod 16 + s4 * 519 + (((s1 * 49 + s2 * 7 - ((s1 * 7 + s2) floordiv 8) * 55) mod 40) floordiv s3) * 1038 + 144)>
#map78 = affine_map<()[s0, s1, s2, s3, s4] -> (s0 mod 16 + s4 * 519 + (((s1 * 49 + s2 * 7 - ((s1 * 7 + s2) floordiv 8) * 55) mod 40) floordiv s3) * 1038 + 160)>
#map79 = affine_map<()[s0, s1, s2, s3, s4] -> (s0 mod 16 + s4 * 519 + (((s1 * 49 + s2 * 7 - ((s1 * 7 + s2) floordiv 8) * 55) mod 40) floordiv s3) * 1038 + 176)>
#map80 = affine_map<()[s0, s1, s2, s3, s4] -> (s0 mod 16 + s4 * 519 + (((s1 * 49 + s2 * 7 - ((s1 * 7 + s2) floordiv 8) * 55) mod 40) floordiv s3) * 1038 + 192)>
#map81 = affine_map<()[s0, s1, s2, s3, s4] -> (s0 mod 16 + s4 * 519 + (((s1 * 49 + s2 * 7 - ((s1 * 7 + s2) floordiv 8) * 55) mod 40) floordiv s3) * 1038 + 208)>
#map82 = affine_map<()[s0, s1, s2, s3, s4] -> (s0 mod 16 + s4 * 519 + (((s1 * 49 + s2 * 7 - ((s1 * 7 + s2) floordiv 8) * 55) mod 40) floordiv s3) * 1038 + 224)>
#map83 = affine_map<()[s0, s1, s2, s3, s4] -> (s0 mod 16 + s4 * 519 + (((s1 * 49 + s2 * 7 - ((s1 * 7 + s2) floordiv 8) * 55) mod 40) floordiv s3) * 1038 + 240)>
#map84 = affine_map<()[s0, s1, s2, s3, s4] -> (s0 mod 16 + s4 * 519 + (((s1 * 49 + s2 * 7 - ((s1 * 7 + s2) floordiv 8) * 55) mod 40) floordiv s3) * 1038 + 256)>
#map85 = affine_map<()[s0, s1, s2, s3, s4] -> (s0 mod 16 + s4 * 519 + (((s1 * 49 + s2 * 7 - ((s1 * 7 + s2) floordiv 8) * 55) mod 40) floordiv s3) * 1038 + 272)>
#map86 = affine_map<()[s0, s1, s2, s3, s4] -> (s0 mod 16 + s4 * 519 + (((s1 * 49 + s2 * 7 - ((s1 * 7 + s2) floordiv 8) * 55) mod 40) floordiv s3) * 1038 + 288)>
#map87 = affine_map<()[s0, s1, s2, s3, s4] -> (s0 mod 16 + s4 * 519 + (((s1 * 49 + s2 * 7 - ((s1 * 7 + s2) floordiv 8) * 55) mod 40) floordiv s3) * 1038 + 304)>
#map88 = affine_map<()[s0, s1, s2, s3, s4] -> (s0 mod 16 + s4 * 519 + (((s1 * 49 + s2 * 7 - ((s1 * 7 + s2) floordiv 8) * 55) mod 40) floordiv s3) * 1038 + 320)>
#map89 = affine_map<()[s0, s1, s2, s3, s4] -> (s0 mod 16 + s4 * 519 + (((s1 * 49 + s2 * 7 - ((s1 * 7 + s2) floordiv 8) * 55) mod 40) floordiv s3) * 1038 + 336)>
#map90 = affine_map<()[s0, s1, s2, s3, s4] -> (s0 mod 16 + s4 * 519 + (((s1 * 49 + s2 * 7 - ((s1 * 7 + s2) floordiv 8) * 55) mod 40) floordiv s3) * 1038 + 352)>
#map91 = affine_map<()[s0, s1, s2, s3, s4] -> (s0 mod 16 + s4 * 519 + (((s1 * 49 + s2 * 7 - ((s1 * 7 + s2) floordiv 8) * 55) mod 40) floordiv s3) * 1038 + 368)>
#map92 = affine_map<()[s0, s1, s2, s3, s4] -> (s0 mod 16 + s4 * 519 + (((s1 * 49 + s2 * 7 - ((s1 * 7 + s2) floordiv 8) * 55) mod 40) floordiv s3) * 1038 + 384)>
#map93 = affine_map<()[s0, s1, s2, s3, s4] -> (s0 mod 16 + s4 * 519 + (((s1 * 49 + s2 * 7 - ((s1 * 7 + s2) floordiv 8) * 55) mod 40) floordiv s3) * 1038 + 400)>
#map94 = affine_map<()[s0, s1, s2, s3, s4] -> (s0 mod 16 + s4 * 519 + (((s1 * 49 + s2 * 7 - ((s1 * 7 + s2) floordiv 8) * 55) mod 40) floordiv s3) * 1038 + 416)>
#map95 = affine_map<()[s0, s1, s2, s3, s4] -> (s0 mod 16 + s4 * 519 + (((s1 * 49 + s2 * 7 - ((s1 * 7 + s2) floordiv 8) * 55) mod 40) floordiv s3) * 1038 + 432)>
#map96 = affine_map<()[s0, s1, s2, s3, s4] -> (s0 mod 16 + s4 * 519 + (((s1 * 49 + s2 * 7 - ((s1 * 7 + s2) floordiv 8) * 55) mod 40) floordiv s3) * 1038 + 448)>
#map97 = affine_map<()[s0, s1, s2, s3, s4] -> (s0 mod 16 + s4 * 519 + (((s1 * 49 + s2 * 7 - ((s1 * 7 + s2) floordiv 8) * 55) mod 40) floordiv s3) * 1038 + 464)>
#map98 = affine_map<()[s0, s1, s2, s3, s4] -> (s0 mod 16 + s4 * 519 + (((s1 * 49 + s2 * 7 - ((s1 * 7 + s2) floordiv 8) * 55) mod 40) floordiv s3) * 1038 + 480)>
#map99 = affine_map<()[s0, s1, s2, s3, s4] -> (s0 mod 16 + s4 * 519 + (((s1 * 49 + s2 * 7 - ((s1 * 7 + s2) floordiv 8) * 55) mod 40) floordiv s3) * 1038 + 496)>
#map100 = affine_map<()[s0, s1, s2, s3, s4] -> (s0 mod 16 + s4 * 519 + (((s1 * 49 + s2 * 7 - ((s1 * 7 + s2) floordiv 8) * 55) mod 40) floordiv s3) * 1038 + 512)>
#map101 = affine_map<()[s0, s1, s2, s3] -> ((s3 floordiv 64) * 24 + ((s0 * 49 + s1 * 7 - ((s0 * 7 + s1) floordiv 8) * 55) floordiv 40) * 480 + (((s0 * 49 + s1 * 7 - ((s0 * 7 + s1) floordiv 8) * 55) mod 40) mod s2) * 96 + ((s3 mod 64) floordiv 16) * 4 + 16)>
#map102 = affine_map<()[s0] -> ((s0 floordiv 64) * 24 + ((s0 mod 64) floordiv 16) * 4 + 16)>
#map103 = affine_map<()[s0, s1, s2, s3] -> ((s3 floordiv 64) * 24 + ((s0 * 49 + s1 * 7 - ((s0 * 7 + s1) floordiv 8) * 55) floordiv 40) * 480 + (((s0 * 49 + s1 * 7 - ((s0 * 7 + s1) floordiv 8) * 55) mod 40) mod s2) * 96 + ((s3 mod 64) floordiv 16) * 4 + 17)>
#map104 = affine_map<()[s0] -> ((s0 floordiv 64) * 24 + ((s0 mod 64) floordiv 16) * 4 + 17)>
#map105 = affine_map<()[s0, s1, s2, s3] -> ((s3 floordiv 64) * 24 + ((s0 * 49 + s1 * 7 - ((s0 * 7 + s1) floordiv 8) * 55) floordiv 40) * 480 + (((s0 * 49 + s1 * 7 - ((s0 * 7 + s1) floordiv 8) * 55) mod 40) mod s2) * 96 + ((s3 mod 64) floordiv 16) * 4 + 18)>
#map106 = affine_map<()[s0] -> ((s0 floordiv 64) * 24 + ((s0 mod 64) floordiv 16) * 4 + 18)>
#map107 = affine_map<()[s0, s1, s2, s3] -> ((s3 floordiv 64) * 24 + ((s0 * 49 + s1 * 7 - ((s0 * 7 + s1) floordiv 8) * 55) floordiv 40) * 480 + (((s0 * 49 + s1 * 7 - ((s0 * 7 + s1) floordiv 8) * 55) mod 40) mod s2) * 96 + ((s3 mod 64) floordiv 16) * 4 + 19)>
#map108 = affine_map<()[s0] -> ((s0 floordiv 64) * 24 + ((s0 mod 64) floordiv 16) * 4 + 19)>
#translation = #iree_codegen.translation_info<pipeline = None workgroup_size = [256, 2, 1] subgroup_size = 64>
module attributes {transform.with_named_sequence} {
  stream.executable private @gemm {
    stream.executable.export public @gemm workgroups() -> (index, index, index) {
      %c7 = arith.constant 7 : index
      %c8 = arith.constant 8 : index
      %c1 = arith.constant 1 : index
      stream.return %c7, %c8, %c1 : index, index, index
    }
    builtin.module {
      func.func @gemm(%arg0: !stream.binding, %arg1: !stream.binding, %arg2: !stream.binding) attributes {translation_info = #translation} {
        %c-8192_i14 = arith.constant -8192 : i14
        %cst = arith.constant dense<0.000000e+00> : vector<4xf16>
        %cst_0 = arith.constant dense<[0, 1, 2, 3, 4, 5, 6, 7]> : vector<8xi32>
        %cst_1 = arith.constant dense<1073741823> : vector<8xindex>
        %cst_2 = arith.constant dense<[0, 1, 2]> : vector<3xi32>
        %cst_3 = arith.constant dense<1073741823> : vector<3xindex>
        %c536870911 = arith.constant 536870911 : index
        %c2147483643_i32 = arith.constant 2147483643 : i32
        %c536870910 = arith.constant 536870910 : index
        %c1791 = arith.constant 1791 : index
        %c8192 = arith.constant 8192 : index
        %c1038 = arith.constant 1038 : index
        %c2147483645_i32 = arith.constant 2147483645 : i32
        %c1073741822 = arith.constant 1073741822 : index
        %c28672 = arith.constant 28672 : index
        %c642 = arith.constant 642 : index
        %c5 = arith.constant 5 : index
        %c1 = arith.constant 1 : index
        %c96 = arith.constant 96 : index
        %c41520 = arith.constant 41520 : index
        %c0 = arith.constant 0 : index
        %cst_4 = arith.constant dense<0.000000e+00> : vector<4xf32>
        %block_id_x = gpu.block_id  x upper_bound 7
        %block_id_y = gpu.block_id  y upper_bound 8
        %thread_id_x = gpu.thread_id  x upper_bound 256
        %thread_id_y = gpu.thread_id  y upper_bound 2
        %alloc = memref.alloc() : memref<45360xi8, #gpu.address_space<workgroup>>
        %view = memref.view %alloc[%c0][] : memref<45360xi8, #gpu.address_space<workgroup>> to memref<1038x20xf16, #gpu.address_space<workgroup>>
        %view_5 = memref.view %alloc[%c41520][] : memref<45360xi8, #gpu.address_space<workgroup>> to memref<96x20xf16, #gpu.address_space<workgroup>>
        %0 = stream.binding.subspan %arg0[%c0] : !stream.binding -> memref<642x28672xf16, strided<[28672, 1], offset: ?>>
        %1 = affine.apply #map()[%block_id_y, %block_id_x]
        %2 = arith.minsi %1, %c5 : index
        %3 = arith.maxsi %2, %c1 : index
        %4 = affine.apply #map1()[%thread_id_x, %thread_id_y, %block_id_y, %block_id_x, %3]
        %5 = arith.cmpi slt, %4, %c642 : index
        %6 = vector.broadcast %5 : i1 to vector<3xi1>
        %7 = affine.apply #map2()[%thread_id_x]
        %8 = arith.muli %4, %c28672 overflow<nsw> : index
        %9 = arith.addi %8, %7 overflow<nsw> : index
        %base_buffer, %offset, %sizes:2, %strides:2 = memref.extract_strided_metadata %0 : memref<642x28672xf16, strided<[28672, 1], offset: ?>> -> memref<f16>, index, index, index, index, index
        %reinterpret_cast = memref.reinterpret_cast %0 to offset: [%offset], sizes: [%c1073741822], strides: [1] : memref<642x28672xf16, strided<[28672, 1], offset: ?>> to memref<?xf16, strided<[1], offset: ?>>
        %10 = amdgpu.fat_raw_buffer_cast %reinterpret_cast validBytes(%c2147483645_i32) resetOffset : memref<?xf16, strided<[1], offset: ?>> to memref<?xf16, #amdgpu.address_space<fat_raw_buffer>>
        %11 = arith.index_cast %9 : index to i32
        %12 = vector.broadcast %11 : i32 to vector<3xi32>
        %13 = arith.addi %12, %cst_2 : vector<3xi32>
        %14 = arith.index_cast %13 : vector<3xi32> to vector<3xindex>
        %15 = arith.select %6, %14, %cst_3 : vector<3xi1>, vector<3xindex>
        %16 = vector.extract %15[0] : index from vector<3xindex>
        %17 = vector.load %10[%16] : memref<?xf16, #amdgpu.address_space<fat_raw_buffer>>, vector<3xf16>
        %18 = stream.binding.subspan %arg1[%c0] : !stream.binding -> memref<8192x28672xf16, strided<[28672, 1], offset: ?>>
        %19 = affine.apply #map3()[%thread_id_x, %thread_id_y, %block_id_y, %block_id_x, %3]
        %20 = arith.cmpi slt, %19, %c8192 : index
        %21 = vector.broadcast %20 : i1 to vector<8xi1>
        %22 = affine.apply #map4()[%thread_id_x]
        %23 = arith.muli %19, %c28672 overflow<nsw> : index
        %24 = arith.addi %23, %22 overflow<nsw> : index
        %base_buffer_6, %offset_7, %sizes_8:2, %strides_9:2 = memref.extract_strided_metadata %18 : memref<8192x28672xf16, strided<[28672, 1], offset: ?>> -> memref<f16>, index, index, index, index, index
        %reinterpret_cast_10 = memref.reinterpret_cast %18 to offset: [%offset_7], sizes: [%c1073741822], strides: [1] : memref<8192x28672xf16, strided<[28672, 1], offset: ?>> to memref<?xf16, strided<[1], offset: ?>>
        %25 = amdgpu.fat_raw_buffer_cast %reinterpret_cast_10 validBytes(%c2147483645_i32) resetOffset : memref<?xf16, strided<[1], offset: ?>> to memref<?xf16, #amdgpu.address_space<fat_raw_buffer>>
        %26 = arith.index_cast %24 : index to i32
        %27 = vector.broadcast %26 : i32 to vector<8xi32>
        %28 = arith.addi %27, %cst_0 : vector<8xi32>
        %29 = arith.index_cast %28 : vector<8xi32> to vector<8xindex>
        %30 = arith.select %21, %29, %cst_1 : vector<8xi1>, vector<8xindex>
        %31 = vector.extract %30[0] : index from vector<8xindex>
        %32 = vector.load %25[%31] : memref<?xf16, #amdgpu.address_space<fat_raw_buffer>>, vector<8xf16>
        %33 = affine.apply #map5()[%thread_id_x, %thread_id_y, %block_id_y, %block_id_x, %3]
        %34 = arith.cmpi slt, %33, %c8192 : index
        %35 = vector.broadcast %34 : i1 to vector<8xi1>
        %36 = arith.muli %33, %c28672 overflow<nsw> : index
        %37 = arith.addi %36, %22 overflow<nsw> : index
        %38 = arith.index_cast %37 : index to i32
        %39 = vector.broadcast %38 : i32 to vector<8xi32>
        %40 = arith.addi %39, %cst_0 : vector<8xi32>
        %41 = arith.index_cast %40 : vector<8xi32> to vector<8xindex>
        %42 = arith.select %35, %41, %cst_1 : vector<8xi1>, vector<8xindex>
        %43 = vector.extract %42[0] : index from vector<8xindex>
        %44 = vector.load %25[%43] : memref<?xf16, #amdgpu.address_space<fat_raw_buffer>>, vector<8xf16>
        %45 = affine.apply #map6()[%thread_id_x, %thread_id_y, %block_id_y, %block_id_x, %3]
        %46 = arith.cmpi slt, %45, %c8192 : index
        %47 = vector.broadcast %46 : i1 to vector<8xi1>
        %48 = arith.muli %45, %c28672 overflow<nsw> : index
        %49 = arith.addi %48, %22 overflow<nsw> : index
        %50 = arith.index_cast %49 : index to i32
        %51 = vector.broadcast %50 : i32 to vector<8xi32>
        %52 = arith.addi %51, %cst_0 : vector<8xi32>
        %53 = arith.index_cast %52 : vector<8xi32> to vector<8xindex>
        %54 = arith.select %47, %53, %cst_1 : vector<8xi1>, vector<8xindex>
        %55 = vector.extract %54[0] : index from vector<8xindex>
        %56 = vector.load %25[%55] : memref<?xf16, #amdgpu.address_space<fat_raw_buffer>>, vector<8xf16>
        %57 = affine.apply #map7()[%thread_id_x, %thread_id_y, %block_id_y, %block_id_x, %3]
        %58 = arith.cmpi slt, %57, %c8192 : index
        %59 = vector.broadcast %58 : i1 to vector<8xi1>
        %60 = arith.muli %57, %c28672 overflow<nsw> : index
        %61 = arith.addi %60, %22 overflow<nsw> : index
        %62 = arith.index_cast %61 : index to i32
        %63 = vector.broadcast %62 : i32 to vector<8xi32>
        %64 = arith.addi %63, %cst_0 : vector<8xi32>
        %65 = arith.index_cast %64 : vector<8xi32> to vector<8xindex>
        %66 = arith.select %59, %65, %cst_1 : vector<8xi1>, vector<8xindex>
        %67 = vector.extract %66[0] : index from vector<8xindex>
        %68 = vector.load %25[%67] : memref<?xf16, #amdgpu.address_space<fat_raw_buffer>>, vector<8xf16>
        %69 = affine.apply #map8()[%thread_id_x, %thread_id_y, %block_id_y, %block_id_x, %3]
        %70 = arith.cmpi slt, %69, %c8192 : index
        %71 = vector.broadcast %70 : i1 to vector<8xi1>
        %72 = arith.muli %69, %c28672 overflow<nsw> : index
        %73 = arith.addi %72, %22 overflow<nsw> : index
        %74 = arith.index_cast %73 : index to i32
        %75 = vector.broadcast %74 : i32 to vector<8xi32>
        %76 = arith.addi %75, %cst_0 : vector<8xi32>
        %77 = arith.index_cast %76 : vector<8xi32> to vector<8xindex>
        %78 = arith.select %71, %77, %cst_1 : vector<8xi1>, vector<8xindex>
        %79 = vector.extract %78[0] : index from vector<8xindex>
        %80 = vector.load %25[%79] : memref<?xf16, #amdgpu.address_space<fat_raw_buffer>>, vector<8xf16>
        %81 = affine.apply #map9()[%thread_id_x]
        %82 = arith.minsi %81, %c96 : index
        %83 = affine.apply #map10()[%thread_id_x, %thread_id_y]
        %84 = arith.cmpi slt, %83, %82 : index
        %85 = vector.broadcast %84 : i1 to vector<3xi1>
        vector.maskedstore %view_5[%83, %7], %85, %17 : memref<96x20xf16, #gpu.address_space<workgroup>>, vector<3xi1>, vector<3xf16>
        %86 = affine.apply #map11()[%thread_id_y]
        %87 = arith.minsi %86, %c1038 : index
        %88 = affine.apply #map12()[%thread_id_x, %thread_id_y]
        %89 = arith.cmpi slt, %88, %87 : index
        %90 = vector.broadcast %89 : i1 to vector<8xi1>
        vector.maskedstore %view[%88, %22], %90, %32 : memref<1038x20xf16, #gpu.address_space<workgroup>>, vector<8xi1>, vector<8xf16>
        %91 = affine.apply #map13()[%thread_id_x, %thread_id_y]
        %92 = arith.cmpi slt, %91, %87 : index
        %93 = vector.broadcast %92 : i1 to vector<8xi1>
        vector.maskedstore %view[%91, %22], %93, %44 : memref<1038x20xf16, #gpu.address_space<workgroup>>, vector<8xi1>, vector<8xf16>
        %94 = affine.apply #map14()[%thread_id_x, %thread_id_y]
        %95 = arith.cmpi slt, %94, %87 : index
        %96 = vector.broadcast %95 : i1 to vector<8xi1>
        vector.maskedstore %view[%94, %22], %96, %56 : memref<1038x20xf16, #gpu.address_space<workgroup>>, vector<8xi1>, vector<8xf16>
        %97 = affine.apply #map15()[%thread_id_x, %thread_id_y]
        %98 = arith.cmpi slt, %97, %87 : index
        %99 = vector.broadcast %98 : i1 to vector<8xi1>
        vector.maskedstore %view[%97, %22], %99, %68 : memref<1038x20xf16, #gpu.address_space<workgroup>>, vector<8xi1>, vector<8xf16>
        %100 = affine.apply #map16()[%thread_id_x, %thread_id_y]
        %101 = arith.cmpi slt, %100, %87 : index
        %102 = vector.broadcast %101 : i1 to vector<8xi1>
        vector.maskedstore %view[%100, %22], %102, %80 : memref<1038x20xf16, #gpu.address_space<workgroup>>, vector<8xi1>, vector<8xf16>
        %103 = affine.apply #map17()[%thread_id_x, %thread_id_y]
        %104 = arith.cmpi slt, %103, %87 : index
        %105 = vector.broadcast %104 : i1 to vector<4xi1>
        %106 = affine.apply #map18()[%thread_id_x]
        %107 = affine.apply #map19()[%thread_id_x, %thread_id_y]
        %108 = arith.cmpi slt, %107, %87 : index
        %109 = vector.broadcast %108 : i1 to vector<4xi1>
        %110 = affine.apply #map20()[%thread_id_x, %thread_id_y]
        %111 = arith.cmpi slt, %110, %87 : index
        %112 = vector.broadcast %111 : i1 to vector<4xi1>
        %113 = affine.apply #map21()[%thread_id_x, %thread_id_y]
        %114 = arith.cmpi slt, %113, %87 : index
        %115 = vector.broadcast %114 : i1 to vector<4xi1>
        %116 = affine.apply #map22()[%thread_id_x, %thread_id_y]
        %117 = arith.cmpi slt, %116, %87 : index
        %118 = vector.broadcast %117 : i1 to vector<4xi1>
        %119 = affine.apply #map23()[%thread_id_x, %thread_id_y]
        %120 = arith.cmpi slt, %119, %87 : index
        %121 = vector.broadcast %120 : i1 to vector<4xi1>
        %122 = affine.apply #map24()[%thread_id_x, %thread_id_y]
        %123 = arith.cmpi slt, %122, %87 : index
        %124 = vector.broadcast %123 : i1 to vector<4xi1>
        %125 = affine.apply #map25()[%thread_id_x, %thread_id_y]
        %126 = arith.cmpi slt, %125, %87 : index
        %127 = vector.broadcast %126 : i1 to vector<4xi1>
        %128 = affine.apply #map26()[%thread_id_x, %thread_id_y]
        %129 = arith.cmpi slt, %128, %87 : index
        %130 = vector.broadcast %129 : i1 to vector<4xi1>
        %131 = affine.apply #map27()[%thread_id_x, %thread_id_y]
        %132 = arith.cmpi slt, %131, %87 : index
        %133 = vector.broadcast %132 : i1 to vector<4xi1>
        %134 = affine.apply #map28()[%thread_id_x, %thread_id_y]
        %135 = arith.cmpi slt, %134, %87 : index
        %136 = vector.broadcast %135 : i1 to vector<4xi1>
        %137 = affine.apply #map29()[%thread_id_x, %thread_id_y]
        %138 = arith.cmpi slt, %137, %87 : index
        %139 = vector.broadcast %138 : i1 to vector<4xi1>
        %140 = affine.apply #map30()[%thread_id_x, %thread_id_y]
        %141 = arith.cmpi slt, %140, %87 : index
        %142 = vector.broadcast %141 : i1 to vector<4xi1>
        %143 = affine.apply #map31()[%thread_id_x, %thread_id_y]
        %144 = arith.cmpi slt, %143, %87 : index
        %145 = vector.broadcast %144 : i1 to vector<4xi1>
        %146 = affine.apply #map32()[%thread_id_x, %thread_id_y]
        %147 = arith.cmpi slt, %146, %87 : index
        %148 = vector.broadcast %147 : i1 to vector<4xi1>
        %149 = affine.apply #map33()[%thread_id_x, %thread_id_y]
        %150 = arith.cmpi slt, %149, %87 : index
        %151 = vector.broadcast %150 : i1 to vector<4xi1>
        %152 = affine.apply #map34()[%thread_id_x, %thread_id_y]
        %153 = arith.cmpi slt, %152, %87 : index
        %154 = vector.broadcast %153 : i1 to vector<4xi1>
        %155 = affine.apply #map35()[%thread_id_x, %thread_id_y]
        %156 = arith.cmpi slt, %155, %87 : index
        %157 = vector.broadcast %156 : i1 to vector<4xi1>
        %158 = affine.apply #map36()[%thread_id_x, %thread_id_y]
        %159 = arith.cmpi slt, %158, %87 : index
        %160 = vector.broadcast %159 : i1 to vector<4xi1>
        %161 = affine.apply #map37()[%thread_id_x, %thread_id_y]
        %162 = arith.cmpi slt, %161, %87 : index
        %163 = vector.broadcast %162 : i1 to vector<4xi1>
        %164 = affine.apply #map38()[%thread_id_x, %thread_id_y]
        %165 = arith.cmpi slt, %164, %87 : index
        %166 = vector.broadcast %165 : i1 to vector<4xi1>
        %167 = affine.apply #map39()[%thread_id_x, %thread_id_y]
        %168 = arith.cmpi slt, %167, %87 : index
        %169 = vector.broadcast %168 : i1 to vector<4xi1>
        %170 = affine.apply #map40()[%thread_id_x, %thread_id_y]
        %171 = arith.cmpi slt, %170, %87 : index
        %172 = vector.broadcast %171 : i1 to vector<4xi1>
        %173 = affine.apply #map41()[%thread_id_x, %thread_id_y]
        %174 = arith.cmpi slt, %173, %87 : index
        %175 = vector.broadcast %174 : i1 to vector<4xi1>
        %176 = affine.apply #map42()[%thread_id_x, %thread_id_y]
        %177 = arith.cmpi slt, %176, %87 : index
        %178 = vector.broadcast %177 : i1 to vector<4xi1>
        %179 = affine.apply #map43()[%thread_id_x, %thread_id_y]
        %180 = arith.cmpi slt, %179, %87 : index
        %181 = vector.broadcast %180 : i1 to vector<4xi1>
        %182 = affine.apply #map44()[%thread_id_x, %thread_id_y]
        %183 = arith.cmpi slt, %182, %87 : index
        %184 = vector.broadcast %183 : i1 to vector<4xi1>
        %185 = affine.apply #map45()[%thread_id_x, %thread_id_y]
        %186 = arith.cmpi slt, %185, %87 : index
        %187 = vector.broadcast %186 : i1 to vector<4xi1>
        %188 = affine.apply #map46()[%thread_id_x, %thread_id_y]
        %189 = arith.cmpi slt, %188, %87 : index
        %190 = vector.broadcast %189 : i1 to vector<4xi1>
        %191 = affine.apply #map47()[%thread_id_x, %thread_id_y]
        %192 = arith.cmpi slt, %191, %87 : index
        %193 = vector.broadcast %192 : i1 to vector<4xi1>
        %194 = affine.apply #map48()[%thread_id_x, %thread_id_y]
        %195 = arith.cmpi slt, %194, %87 : index
        %196 = vector.broadcast %195 : i1 to vector<4xi1>
        %197 = affine.apply #map49()[%thread_id_x, %thread_id_y]
        %198 = arith.cmpi slt, %197, %87 : index
        %199 = vector.broadcast %198 : i1 to vector<4xi1>
        %200 = affine.apply #map50()[%thread_id_x, %thread_id_y]
        %201 = arith.cmpi slt, %200, %87 : index
        %202 = vector.broadcast %201 : i1 to vector<4xi1>
        %203 = affine.apply #map51()[%thread_id_x]
        %204 = arith.cmpi slt, %203, %82 : index
        %205 = vector.broadcast %204 : i1 to vector<4xi1>
        %206 = affine.apply #map52()[%thread_id_x]
        %207 = arith.cmpi slt, %206, %82 : index
        %208 = vector.broadcast %207 : i1 to vector<4xi1>
        %209:66 = scf.for %arg3 = %c0 to %c1791 step %c1 iter_args(%arg4 = %cst_4, %arg5 = %cst_4, %arg6 = %cst_4, %arg7 = %cst_4, %arg8 = %cst_4, %arg9 = %cst_4, %arg10 = %cst_4, %arg11 = %cst_4, %arg12 = %cst_4, %arg13 = %cst_4, %arg14 = %cst_4, %arg15 = %cst_4, %arg16 = %cst_4, %arg17 = %cst_4, %arg18 = %cst_4, %arg19 = %cst_4, %arg20 = %cst_4, %arg21 = %cst_4, %arg22 = %cst_4, %arg23 = %cst_4, %arg24 = %cst_4, %arg25 = %cst_4, %arg26 = %cst_4, %arg27 = %cst_4, %arg28 = %cst_4, %arg29 = %cst_4, %arg30 = %cst_4, %arg31 = %cst_4, %arg32 = %cst_4, %arg33 = %cst_4, %arg34 = %cst_4, %arg35 = %cst_4, %arg36 = %cst_4, %arg37 = %cst_4, %arg38 = %cst_4, %arg39 = %cst_4, %arg40 = %cst_4, %arg41 = %cst_4, %arg42 = %cst_4, %arg43 = %cst_4, %arg44 = %cst_4, %arg45 = %cst_4, %arg46 = %cst_4, %arg47 = %cst_4, %arg48 = %cst_4, %arg49 = %cst_4, %arg50 = %cst_4, %arg51 = %cst_4, %arg52 = %cst_4, %arg53 = %cst_4, %arg54 = %cst_4, %arg55 = %cst_4, %arg56 = %cst_4, %arg57 = %cst_4, %arg58 = %cst_4, %arg59 = %cst_4, %arg60 = %cst_4, %arg61 = %cst_4, %arg62 = %cst_4, %arg63 = %cst_4, %arg64 = %cst_4, %arg65 = %cst_4, %arg66 = %cst_4, %arg67 = %cst_4, %arg68 = %cst_4, %arg69 = %cst_4) -> (vector<4xf32>, vector<4xf32>, vector<4xf32>, vector<4xf32>, vector<4xf32>, vector<4xf32>, vector<4xf32>, vector<4xf32>, vector<4xf32>, vector<4xf32>, vector<4xf32>, vector<4xf32>, vector<4xf32>, vector<4xf32>, vector<4xf32>, vector<4xf32>, vector<4xf32>, vector<4xf32>, vector<4xf32>, vector<4xf32>, vector<4xf32>, vector<4xf32>, vector<4xf32>, vector<4xf32>, vector<4xf32>, vector<4xf32>, vector<4xf32>, vector<4xf32>, vector<4xf32>, vector<4xf32>, vector<4xf32>, vector<4xf32>, vector<4xf32>, vector<4xf32>, vector<4xf32>, vector<4xf32>, vector<4xf32>, vector<4xf32>, vector<4xf32>, vector<4xf32>, vector<4xf32>, vector<4xf32>, vector<4xf32>, vector<4xf32>, vector<4xf32>, vector<4xf32>, vector<4xf32>, vector<4xf32>, vector<4xf32>, vector<4xf32>, vector<4xf32>, vector<4xf32>, vector<4xf32>, vector<4xf32>, vector<4xf32>, vector<4xf32>, vector<4xf32>, vector<4xf32>, vector<4xf32>, vector<4xf32>, vector<4xf32>, vector<4xf32>, vector<4xf32>, vector<4xf32>, vector<4xf32>, vector<4xf32>) {
          amdgpu.lds_barrier
          %1584 = vector.maskedload %view[%103, %106], %105, %cst : memref<1038x20xf16, #gpu.address_space<workgroup>>, vector<4xi1>, vector<4xf16> into vector<4xf16>
          %1585 = vector.maskedload %view[%107, %106], %109, %cst : memref<1038x20xf16, #gpu.address_space<workgroup>>, vector<4xi1>, vector<4xf16> into vector<4xf16>
          %1586 = vector.maskedload %view[%110, %106], %112, %cst : memref<1038x20xf16, #gpu.address_space<workgroup>>, vector<4xi1>, vector<4xf16> into vector<4xf16>
          %1587 = vector.maskedload %view[%113, %106], %115, %cst : memref<1038x20xf16, #gpu.address_space<workgroup>>, vector<4xi1>, vector<4xf16> into vector<4xf16>
          %1588 = vector.maskedload %view[%116, %106], %118, %cst : memref<1038x20xf16, #gpu.address_space<workgroup>>, vector<4xi1>, vector<4xf16> into vector<4xf16>
          %1589 = vector.maskedload %view[%119, %106], %121, %cst : memref<1038x20xf16, #gpu.address_space<workgroup>>, vector<4xi1>, vector<4xf16> into vector<4xf16>
          %1590 = vector.maskedload %view[%122, %106], %124, %cst : memref<1038x20xf16, #gpu.address_space<workgroup>>, vector<4xi1>, vector<4xf16> into vector<4xf16>
          %1591 = vector.maskedload %view[%125, %106], %127, %cst : memref<1038x20xf16, #gpu.address_space<workgroup>>, vector<4xi1>, vector<4xf16> into vector<4xf16>
          %1592 = vector.maskedload %view[%128, %106], %130, %cst : memref<1038x20xf16, #gpu.address_space<workgroup>>, vector<4xi1>, vector<4xf16> into vector<4xf16>
          %1593 = vector.maskedload %view[%131, %106], %133, %cst : memref<1038x20xf16, #gpu.address_space<workgroup>>, vector<4xi1>, vector<4xf16> into vector<4xf16>
          %1594 = vector.maskedload %view[%134, %106], %136, %cst : memref<1038x20xf16, #gpu.address_space<workgroup>>, vector<4xi1>, vector<4xf16> into vector<4xf16>
          %1595 = vector.maskedload %view[%137, %106], %139, %cst : memref<1038x20xf16, #gpu.address_space<workgroup>>, vector<4xi1>, vector<4xf16> into vector<4xf16>
          %1596 = vector.maskedload %view[%140, %106], %142, %cst : memref<1038x20xf16, #gpu.address_space<workgroup>>, vector<4xi1>, vector<4xf16> into vector<4xf16>
          %1597 = vector.maskedload %view[%143, %106], %145, %cst : memref<1038x20xf16, #gpu.address_space<workgroup>>, vector<4xi1>, vector<4xf16> into vector<4xf16>
          %1598 = vector.maskedload %view[%146, %106], %148, %cst : memref<1038x20xf16, #gpu.address_space<workgroup>>, vector<4xi1>, vector<4xf16> into vector<4xf16>
          %1599 = vector.maskedload %view[%149, %106], %151, %cst : memref<1038x20xf16, #gpu.address_space<workgroup>>, vector<4xi1>, vector<4xf16> into vector<4xf16>
          %1600 = vector.maskedload %view[%152, %106], %154, %cst : memref<1038x20xf16, #gpu.address_space<workgroup>>, vector<4xi1>, vector<4xf16> into vector<4xf16>
          %1601 = vector.maskedload %view[%155, %106], %157, %cst : memref<1038x20xf16, #gpu.address_space<workgroup>>, vector<4xi1>, vector<4xf16> into vector<4xf16>
          %1602 = vector.maskedload %view[%158, %106], %160, %cst : memref<1038x20xf16, #gpu.address_space<workgroup>>, vector<4xi1>, vector<4xf16> into vector<4xf16>
          %1603 = vector.maskedload %view[%161, %106], %163, %cst : memref<1038x20xf16, #gpu.address_space<workgroup>>, vector<4xi1>, vector<4xf16> into vector<4xf16>
          %1604 = vector.maskedload %view[%164, %106], %166, %cst : memref<1038x20xf16, #gpu.address_space<workgroup>>, vector<4xi1>, vector<4xf16> into vector<4xf16>
          %1605 = vector.maskedload %view[%167, %106], %169, %cst : memref<1038x20xf16, #gpu.address_space<workgroup>>, vector<4xi1>, vector<4xf16> into vector<4xf16>
          %1606 = vector.maskedload %view[%170, %106], %172, %cst : memref<1038x20xf16, #gpu.address_space<workgroup>>, vector<4xi1>, vector<4xf16> into vector<4xf16>
          %1607 = vector.maskedload %view[%173, %106], %175, %cst : memref<1038x20xf16, #gpu.address_space<workgroup>>, vector<4xi1>, vector<4xf16> into vector<4xf16>
          %1608 = vector.maskedload %view[%176, %106], %178, %cst : memref<1038x20xf16, #gpu.address_space<workgroup>>, vector<4xi1>, vector<4xf16> into vector<4xf16>
          %1609 = vector.maskedload %view[%179, %106], %181, %cst : memref<1038x20xf16, #gpu.address_space<workgroup>>, vector<4xi1>, vector<4xf16> into vector<4xf16>
          %1610 = vector.maskedload %view[%182, %106], %184, %cst : memref<1038x20xf16, #gpu.address_space<workgroup>>, vector<4xi1>, vector<4xf16> into vector<4xf16>
          %1611 = vector.maskedload %view[%185, %106], %187, %cst : memref<1038x20xf16, #gpu.address_space<workgroup>>, vector<4xi1>, vector<4xf16> into vector<4xf16>
          %1612 = vector.maskedload %view[%188, %106], %190, %cst : memref<1038x20xf16, #gpu.address_space<workgroup>>, vector<4xi1>, vector<4xf16> into vector<4xf16>
          %1613 = vector.maskedload %view[%191, %106], %193, %cst : memref<1038x20xf16, #gpu.address_space<workgroup>>, vector<4xi1>, vector<4xf16> into vector<4xf16>
          %1614 = vector.maskedload %view[%194, %106], %196, %cst : memref<1038x20xf16, #gpu.address_space<workgroup>>, vector<4xi1>, vector<4xf16> into vector<4xf16>
          %1615 = vector.maskedload %view[%197, %106], %199, %cst : memref<1038x20xf16, #gpu.address_space<workgroup>>, vector<4xi1>, vector<4xf16> into vector<4xf16>
          %1616 = vector.maskedload %view[%200, %106], %202, %cst : memref<1038x20xf16, #gpu.address_space<workgroup>>, vector<4xi1>, vector<4xf16> into vector<4xf16>
          %1617 = vector.maskedload %view_5[%203, %106], %205, %cst : memref<96x20xf16, #gpu.address_space<workgroup>>, vector<4xi1>, vector<4xf16> into vector<4xf16>
          %1618 = vector.maskedload %view_5[%206, %106], %208, %cst : memref<96x20xf16, #gpu.address_space<workgroup>>, vector<4xi1>, vector<4xf16> into vector<4xf16>
          %1619 = affine.apply #map53()[%thread_id_x, %arg3]
          %1620 = arith.addi %8, %1619 overflow<nsw> : index
          %1621 = arith.index_cast %1620 : index to i32
          %1622 = vector.broadcast %1621 : i32 to vector<3xi32>
          %1623 = arith.addi %1622, %cst_2 : vector<3xi32>
          %1624 = arith.index_cast %1623 : vector<3xi32> to vector<3xindex>
          %1625 = arith.select %6, %1624, %cst_3 : vector<3xi1>, vector<3xindex>
          %1626 = vector.extract %1625[0] : index from vector<3xindex>
          %1627 = vector.load %10[%1626] : memref<?xf16, #amdgpu.address_space<fat_raw_buffer>>, vector<3xf16>
          %1628 = affine.apply #map54()[%arg3, %thread_id_x]
          %1629 = arith.addi %23, %1628 overflow<nsw> : index
          %1630 = arith.index_cast %1629 : index to i32
          %1631 = vector.broadcast %1630 : i32 to vector<8xi32>
          %1632 = arith.addi %1631, %cst_0 : vector<8xi32>
          %1633 = arith.index_cast %1632 : vector<8xi32> to vector<8xindex>
          %1634 = arith.select %21, %1633, %cst_1 : vector<8xi1>, vector<8xindex>
          %1635 = vector.extract %1634[0] : index from vector<8xindex>
          %1636 = vector.load %25[%1635] : memref<?xf16, #amdgpu.address_space<fat_raw_buffer>>, vector<8xf16>
          %1637 = arith.addi %36, %1628 overflow<nsw> : index
          %1638 = arith.index_cast %1637 : index to i32
          %1639 = vector.broadcast %1638 : i32 to vector<8xi32>
          %1640 = arith.addi %1639, %cst_0 : vector<8xi32>
          %1641 = arith.index_cast %1640 : vector<8xi32> to vector<8xindex>
          %1642 = arith.select %35, %1641, %cst_1 : vector<8xi1>, vector<8xindex>
          %1643 = vector.extract %1642[0] : index from vector<8xindex>
          %1644 = vector.load %25[%1643] : memref<?xf16, #amdgpu.address_space<fat_raw_buffer>>, vector<8xf16>
          %1645 = arith.addi %48, %1628 overflow<nsw> : index
          %1646 = arith.index_cast %1645 : index to i32
          %1647 = vector.broadcast %1646 : i32 to vector<8xi32>
          %1648 = arith.addi %1647, %cst_0 : vector<8xi32>
          %1649 = arith.index_cast %1648 : vector<8xi32> to vector<8xindex>
          %1650 = arith.select %47, %1649, %cst_1 : vector<8xi1>, vector<8xindex>
          %1651 = vector.extract %1650[0] : index from vector<8xindex>
          %1652 = vector.load %25[%1651] : memref<?xf16, #amdgpu.address_space<fat_raw_buffer>>, vector<8xf16>
          %1653 = arith.addi %60, %1628 overflow<nsw> : index
          %1654 = arith.index_cast %1653 : index to i32
          %1655 = vector.broadcast %1654 : i32 to vector<8xi32>
          %1656 = arith.addi %1655, %cst_0 : vector<8xi32>
          %1657 = arith.index_cast %1656 : vector<8xi32> to vector<8xindex>
          %1658 = arith.select %59, %1657, %cst_1 : vector<8xi1>, vector<8xindex>
          %1659 = vector.extract %1658[0] : index from vector<8xindex>
          %1660 = vector.load %25[%1659] : memref<?xf16, #amdgpu.address_space<fat_raw_buffer>>, vector<8xf16>
          %1661 = arith.addi %72, %1628 overflow<nsw> : index
          %1662 = arith.index_cast %1661 : index to i32
          %1663 = vector.broadcast %1662 : i32 to vector<8xi32>
          %1664 = arith.addi %1663, %cst_0 : vector<8xi32>
          %1665 = arith.index_cast %1664 : vector<8xi32> to vector<8xindex>
          %1666 = arith.select %71, %1665, %cst_1 : vector<8xi1>, vector<8xindex>
          %1667 = vector.extract %1666[0] : index from vector<8xindex>
          %1668 = vector.load %25[%1667] : memref<?xf16, #amdgpu.address_space<fat_raw_buffer>>, vector<8xf16>
          %1669 = amdgpu.mfma %1617 * %1584 + %arg4 {blocks = 1 : i32, k = 16 : i32, m = 16 : i32, n = 16 : i32} blgp =  none : vector<4xf16>, vector<4xf16>, vector<4xf32>
          %1670 = amdgpu.mfma %1617 * %1585 + %arg5 {blocks = 1 : i32, k = 16 : i32, m = 16 : i32, n = 16 : i32} blgp =  none : vector<4xf16>, vector<4xf16>, vector<4xf32>
          %1671 = amdgpu.mfma %1617 * %1586 + %arg6 {blocks = 1 : i32, k = 16 : i32, m = 16 : i32, n = 16 : i32} blgp =  none : vector<4xf16>, vector<4xf16>, vector<4xf32>
          %1672 = amdgpu.mfma %1617 * %1587 + %arg7 {blocks = 1 : i32, k = 16 : i32, m = 16 : i32, n = 16 : i32} blgp =  none : vector<4xf16>, vector<4xf16>, vector<4xf32>
          %1673 = amdgpu.mfma %1617 * %1588 + %arg8 {blocks = 1 : i32, k = 16 : i32, m = 16 : i32, n = 16 : i32} blgp =  none : vector<4xf16>, vector<4xf16>, vector<4xf32>
          %1674 = amdgpu.mfma %1617 * %1589 + %arg9 {blocks = 1 : i32, k = 16 : i32, m = 16 : i32, n = 16 : i32} blgp =  none : vector<4xf16>, vector<4xf16>, vector<4xf32>
          %1675 = amdgpu.mfma %1617 * %1590 + %arg10 {blocks = 1 : i32, k = 16 : i32, m = 16 : i32, n = 16 : i32} blgp =  none : vector<4xf16>, vector<4xf16>, vector<4xf32>
          %1676 = amdgpu.mfma %1617 * %1591 + %arg11 {blocks = 1 : i32, k = 16 : i32, m = 16 : i32, n = 16 : i32} blgp =  none : vector<4xf16>, vector<4xf16>, vector<4xf32>
          %1677 = amdgpu.mfma %1617 * %1592 + %arg12 {blocks = 1 : i32, k = 16 : i32, m = 16 : i32, n = 16 : i32} blgp =  none : vector<4xf16>, vector<4xf16>, vector<4xf32>
          %1678 = amdgpu.mfma %1617 * %1593 + %arg13 {blocks = 1 : i32, k = 16 : i32, m = 16 : i32, n = 16 : i32} blgp =  none : vector<4xf16>, vector<4xf16>, vector<4xf32>
          %1679 = amdgpu.mfma %1617 * %1594 + %arg14 {blocks = 1 : i32, k = 16 : i32, m = 16 : i32, n = 16 : i32} blgp =  none : vector<4xf16>, vector<4xf16>, vector<4xf32>
          %1680 = amdgpu.mfma %1617 * %1595 + %arg15 {blocks = 1 : i32, k = 16 : i32, m = 16 : i32, n = 16 : i32} blgp =  none : vector<4xf16>, vector<4xf16>, vector<4xf32>
          %1681 = amdgpu.mfma %1617 * %1596 + %arg16 {blocks = 1 : i32, k = 16 : i32, m = 16 : i32, n = 16 : i32} blgp =  none : vector<4xf16>, vector<4xf16>, vector<4xf32>
          %1682 = amdgpu.mfma %1617 * %1597 + %arg17 {blocks = 1 : i32, k = 16 : i32, m = 16 : i32, n = 16 : i32} blgp =  none : vector<4xf16>, vector<4xf16>, vector<4xf32>
          %1683 = amdgpu.mfma %1617 * %1598 + %arg18 {blocks = 1 : i32, k = 16 : i32, m = 16 : i32, n = 16 : i32} blgp =  none : vector<4xf16>, vector<4xf16>, vector<4xf32>
          %1684 = amdgpu.mfma %1617 * %1599 + %arg19 {blocks = 1 : i32, k = 16 : i32, m = 16 : i32, n = 16 : i32} blgp =  none : vector<4xf16>, vector<4xf16>, vector<4xf32>
          %1685 = amdgpu.mfma %1617 * %1600 + %arg20 {blocks = 1 : i32, k = 16 : i32, m = 16 : i32, n = 16 : i32} blgp =  none : vector<4xf16>, vector<4xf16>, vector<4xf32>
          %1686 = amdgpu.mfma %1617 * %1601 + %arg21 {blocks = 1 : i32, k = 16 : i32, m = 16 : i32, n = 16 : i32} blgp =  none : vector<4xf16>, vector<4xf16>, vector<4xf32>
          %1687 = amdgpu.mfma %1617 * %1602 + %arg22 {blocks = 1 : i32, k = 16 : i32, m = 16 : i32, n = 16 : i32} blgp =  none : vector<4xf16>, vector<4xf16>, vector<4xf32>
          %1688 = amdgpu.mfma %1617 * %1603 + %arg23 {blocks = 1 : i32, k = 16 : i32, m = 16 : i32, n = 16 : i32} blgp =  none : vector<4xf16>, vector<4xf16>, vector<4xf32>
          %1689 = amdgpu.mfma %1617 * %1604 + %arg24 {blocks = 1 : i32, k = 16 : i32, m = 16 : i32, n = 16 : i32} blgp =  none : vector<4xf16>, vector<4xf16>, vector<4xf32>
          %1690 = amdgpu.mfma %1617 * %1605 + %arg25 {blocks = 1 : i32, k = 16 : i32, m = 16 : i32, n = 16 : i32} blgp =  none : vector<4xf16>, vector<4xf16>, vector<4xf32>
          %1691 = amdgpu.mfma %1617 * %1606 + %arg26 {blocks = 1 : i32, k = 16 : i32, m = 16 : i32, n = 16 : i32} blgp =  none : vector<4xf16>, vector<4xf16>, vector<4xf32>
          %1692 = amdgpu.mfma %1617 * %1607 + %arg27 {blocks = 1 : i32, k = 16 : i32, m = 16 : i32, n = 16 : i32} blgp =  none : vector<4xf16>, vector<4xf16>, vector<4xf32>
          %1693 = amdgpu.mfma %1617 * %1608 + %arg28 {blocks = 1 : i32, k = 16 : i32, m = 16 : i32, n = 16 : i32} blgp =  none : vector<4xf16>, vector<4xf16>, vector<4xf32>
          %1694 = amdgpu.mfma %1617 * %1609 + %arg29 {blocks = 1 : i32, k = 16 : i32, m = 16 : i32, n = 16 : i32} blgp =  none : vector<4xf16>, vector<4xf16>, vector<4xf32>
          %1695 = amdgpu.mfma %1617 * %1610 + %arg30 {blocks = 1 : i32, k = 16 : i32, m = 16 : i32, n = 16 : i32} blgp =  none : vector<4xf16>, vector<4xf16>, vector<4xf32>
          %1696 = amdgpu.mfma %1617 * %1611 + %arg31 {blocks = 1 : i32, k = 16 : i32, m = 16 : i32, n = 16 : i32} blgp =  none : vector<4xf16>, vector<4xf16>, vector<4xf32>
          %1697 = amdgpu.mfma %1617 * %1612 + %arg32 {blocks = 1 : i32, k = 16 : i32, m = 16 : i32, n = 16 : i32} blgp =  none : vector<4xf16>, vector<4xf16>, vector<4xf32>
          %1698 = amdgpu.mfma %1617 * %1613 + %arg33 {blocks = 1 : i32, k = 16 : i32, m = 16 : i32, n = 16 : i32} blgp =  none : vector<4xf16>, vector<4xf16>, vector<4xf32>
          %1699 = amdgpu.mfma %1617 * %1614 + %arg34 {blocks = 1 : i32, k = 16 : i32, m = 16 : i32, n = 16 : i32} blgp =  none : vector<4xf16>, vector<4xf16>, vector<4xf32>
          %1700 = amdgpu.mfma %1617 * %1615 + %arg35 {blocks = 1 : i32, k = 16 : i32, m = 16 : i32, n = 16 : i32} blgp =  none : vector<4xf16>, vector<4xf16>, vector<4xf32>
          %1701 = amdgpu.mfma %1617 * %1616 + %arg36 {blocks = 1 : i32, k = 16 : i32, m = 16 : i32, n = 16 : i32} blgp =  none : vector<4xf16>, vector<4xf16>, vector<4xf32>
          %1702 = amdgpu.mfma %1618 * %1584 + %arg37 {blocks = 1 : i32, k = 16 : i32, m = 16 : i32, n = 16 : i32} blgp =  none : vector<4xf16>, vector<4xf16>, vector<4xf32>
          %1703 = amdgpu.mfma %1618 * %1585 + %arg38 {blocks = 1 : i32, k = 16 : i32, m = 16 : i32, n = 16 : i32} blgp =  none : vector<4xf16>, vector<4xf16>, vector<4xf32>
          %1704 = amdgpu.mfma %1618 * %1586 + %arg39 {blocks = 1 : i32, k = 16 : i32, m = 16 : i32, n = 16 : i32} blgp =  none : vector<4xf16>, vector<4xf16>, vector<4xf32>
          %1705 = amdgpu.mfma %1618 * %1587 + %arg40 {blocks = 1 : i32, k = 16 : i32, m = 16 : i32, n = 16 : i32} blgp =  none : vector<4xf16>, vector<4xf16>, vector<4xf32>
          %1706 = amdgpu.mfma %1618 * %1588 + %arg41 {blocks = 1 : i32, k = 16 : i32, m = 16 : i32, n = 16 : i32} blgp =  none : vector<4xf16>, vector<4xf16>, vector<4xf32>
          %1707 = amdgpu.mfma %1618 * %1589 + %arg42 {blocks = 1 : i32, k = 16 : i32, m = 16 : i32, n = 16 : i32} blgp =  none : vector<4xf16>, vector<4xf16>, vector<4xf32>
          %1708 = amdgpu.mfma %1618 * %1590 + %arg43 {blocks = 1 : i32, k = 16 : i32, m = 16 : i32, n = 16 : i32} blgp =  none : vector<4xf16>, vector<4xf16>, vector<4xf32>
          %1709 = amdgpu.mfma %1618 * %1591 + %arg44 {blocks = 1 : i32, k = 16 : i32, m = 16 : i32, n = 16 : i32} blgp =  none : vector<4xf16>, vector<4xf16>, vector<4xf32>
          %1710 = amdgpu.mfma %1618 * %1592 + %arg45 {blocks = 1 : i32, k = 16 : i32, m = 16 : i32, n = 16 : i32} blgp =  none : vector<4xf16>, vector<4xf16>, vector<4xf32>
          %1711 = amdgpu.mfma %1618 * %1593 + %arg46 {blocks = 1 : i32, k = 16 : i32, m = 16 : i32, n = 16 : i32} blgp =  none : vector<4xf16>, vector<4xf16>, vector<4xf32>
          %1712 = amdgpu.mfma %1618 * %1594 + %arg47 {blocks = 1 : i32, k = 16 : i32, m = 16 : i32, n = 16 : i32} blgp =  none : vector<4xf16>, vector<4xf16>, vector<4xf32>
          %1713 = amdgpu.mfma %1618 * %1595 + %arg48 {blocks = 1 : i32, k = 16 : i32, m = 16 : i32, n = 16 : i32} blgp =  none : vector<4xf16>, vector<4xf16>, vector<4xf32>
          %1714 = amdgpu.mfma %1618 * %1596 + %arg49 {blocks = 1 : i32, k = 16 : i32, m = 16 : i32, n = 16 : i32} blgp =  none : vector<4xf16>, vector<4xf16>, vector<4xf32>
          %1715 = amdgpu.mfma %1618 * %1597 + %arg50 {blocks = 1 : i32, k = 16 : i32, m = 16 : i32, n = 16 : i32} blgp =  none : vector<4xf16>, vector<4xf16>, vector<4xf32>
          %1716 = amdgpu.mfma %1618 * %1598 + %arg51 {blocks = 1 : i32, k = 16 : i32, m = 16 : i32, n = 16 : i32} blgp =  none : vector<4xf16>, vector<4xf16>, vector<4xf32>
          %1717 = amdgpu.mfma %1618 * %1599 + %arg52 {blocks = 1 : i32, k = 16 : i32, m = 16 : i32, n = 16 : i32} blgp =  none : vector<4xf16>, vector<4xf16>, vector<4xf32>
          %1718 = amdgpu.mfma %1618 * %1600 + %arg53 {blocks = 1 : i32, k = 16 : i32, m = 16 : i32, n = 16 : i32} blgp =  none : vector<4xf16>, vector<4xf16>, vector<4xf32>
          %1719 = amdgpu.mfma %1618 * %1601 + %arg54 {blocks = 1 : i32, k = 16 : i32, m = 16 : i32, n = 16 : i32} blgp =  none : vector<4xf16>, vector<4xf16>, vector<4xf32>
          %1720 = amdgpu.mfma %1618 * %1602 + %arg55 {blocks = 1 : i32, k = 16 : i32, m = 16 : i32, n = 16 : i32} blgp =  none : vector<4xf16>, vector<4xf16>, vector<4xf32>
          %1721 = amdgpu.mfma %1618 * %1603 + %arg56 {blocks = 1 : i32, k = 16 : i32, m = 16 : i32, n = 16 : i32} blgp =  none : vector<4xf16>, vector<4xf16>, vector<4xf32>
          %1722 = amdgpu.mfma %1618 * %1604 + %arg57 {blocks = 1 : i32, k = 16 : i32, m = 16 : i32, n = 16 : i32} blgp =  none : vector<4xf16>, vector<4xf16>, vector<4xf32>
          %1723 = amdgpu.mfma %1618 * %1605 + %arg58 {blocks = 1 : i32, k = 16 : i32, m = 16 : i32, n = 16 : i32} blgp =  none : vector<4xf16>, vector<4xf16>, vector<4xf32>
          %1724 = amdgpu.mfma %1618 * %1606 + %arg59 {blocks = 1 : i32, k = 16 : i32, m = 16 : i32, n = 16 : i32} blgp =  none : vector<4xf16>, vector<4xf16>, vector<4xf32>
          %1725 = amdgpu.mfma %1618 * %1607 + %arg60 {blocks = 1 : i32, k = 16 : i32, m = 16 : i32, n = 16 : i32} blgp =  none : vector<4xf16>, vector<4xf16>, vector<4xf32>
          %1726 = amdgpu.mfma %1618 * %1608 + %arg61 {blocks = 1 : i32, k = 16 : i32, m = 16 : i32, n = 16 : i32} blgp =  none : vector<4xf16>, vector<4xf16>, vector<4xf32>
          %1727 = amdgpu.mfma %1618 * %1609 + %arg62 {blocks = 1 : i32, k = 16 : i32, m = 16 : i32, n = 16 : i32} blgp =  none : vector<4xf16>, vector<4xf16>, vector<4xf32>
          %1728 = amdgpu.mfma %1618 * %1610 + %arg63 {blocks = 1 : i32, k = 16 : i32, m = 16 : i32, n = 16 : i32} blgp =  none : vector<4xf16>, vector<4xf16>, vector<4xf32>
          %1729 = amdgpu.mfma %1618 * %1611 + %arg64 {blocks = 1 : i32, k = 16 : i32, m = 16 : i32, n = 16 : i32} blgp =  none : vector<4xf16>, vector<4xf16>, vector<4xf32>
          %1730 = amdgpu.mfma %1618 * %1612 + %arg65 {blocks = 1 : i32, k = 16 : i32, m = 16 : i32, n = 16 : i32} blgp =  none : vector<4xf16>, vector<4xf16>, vector<4xf32>
          %1731 = amdgpu.mfma %1618 * %1613 + %arg66 {blocks = 1 : i32, k = 16 : i32, m = 16 : i32, n = 16 : i32} blgp =  none : vector<4xf16>, vector<4xf16>, vector<4xf32>
          %1732 = amdgpu.mfma %1618 * %1614 + %arg67 {blocks = 1 : i32, k = 16 : i32, m = 16 : i32, n = 16 : i32} blgp =  none : vector<4xf16>, vector<4xf16>, vector<4xf32>
          %1733 = amdgpu.mfma %1618 * %1615 + %arg68 {blocks = 1 : i32, k = 16 : i32, m = 16 : i32, n = 16 : i32} blgp =  none : vector<4xf16>, vector<4xf16>, vector<4xf32>
          %1734 = amdgpu.mfma %1618 * %1616 + %arg69 {blocks = 1 : i32, k = 16 : i32, m = 16 : i32, n = 16 : i32} blgp =  none : vector<4xf16>, vector<4xf16>, vector<4xf32>
          amdgpu.lds_barrier
          vector.maskedstore %view_5[%83, %7], %85, %1627 : memref<96x20xf16, #gpu.address_space<workgroup>>, vector<3xi1>, vector<3xf16>
          vector.maskedstore %view[%88, %22], %90, %1636 : memref<1038x20xf16, #gpu.address_space<workgroup>>, vector<8xi1>, vector<8xf16>
          vector.maskedstore %view[%91, %22], %93, %1644 : memref<1038x20xf16, #gpu.address_space<workgroup>>, vector<8xi1>, vector<8xf16>
          vector.maskedstore %view[%94, %22], %96, %1652 : memref<1038x20xf16, #gpu.address_space<workgroup>>, vector<8xi1>, vector<8xf16>
          vector.maskedstore %view[%97, %22], %99, %1660 : memref<1038x20xf16, #gpu.address_space<workgroup>>, vector<8xi1>, vector<8xf16>
          vector.maskedstore %view[%100, %22], %102, %1668 : memref<1038x20xf16, #gpu.address_space<workgroup>>, vector<8xi1>, vector<8xf16>
          scf.yield %1669, %1670, %1671, %1672, %1673, %1674, %1675, %1676, %1677, %1678, %1679, %1680, %1681, %1682, %1683, %1684, %1685, %1686, %1687, %1688, %1689, %1690, %1691, %1692, %1693, %1694, %1695, %1696, %1697, %1698, %1699, %1700, %1701, %1702, %1703, %1704, %1705, %1706, %1707, %1708, %1709, %1710, %1711, %1712, %1713, %1714, %1715, %1716, %1717, %1718, %1719, %1720, %1721, %1722, %1723, %1724, %1725, %1726, %1727, %1728, %1729, %1730, %1731, %1732, %1733, %1734 : vector<4xf32>, vector<4xf32>, vector<4xf32>, vector<4xf32>, vector<4xf32>, vector<4xf32>, vector<4xf32>, vector<4xf32>, vector<4xf32>, vector<4xf32>, vector<4xf32>, vector<4xf32>, vector<4xf32>, vector<4xf32>, vector<4xf32>, vector<4xf32>, vector<4xf32>, vector<4xf32>, vector<4xf32>, vector<4xf32>, vector<4xf32>, vector<4xf32>, vector<4xf32>, vector<4xf32>, vector<4xf32>, vector<4xf32>, vector<4xf32>, vector<4xf32>, vector<4xf32>, vector<4xf32>, vector<4xf32>, vector<4xf32>, vector<4xf32>, vector<4xf32>, vector<4xf32>, vector<4xf32>, vector<4xf32>, vector<4xf32>, vector<4xf32>, vector<4xf32>, vector<4xf32>, vector<4xf32>, vector<4xf32>, vector<4xf32>, vector<4xf32>, vector<4xf32>, vector<4xf32>, vector<4xf32>, vector<4xf32>, vector<4xf32>, vector<4xf32>, vector<4xf32>, vector<4xf32>, vector<4xf32>, vector<4xf32>, vector<4xf32>, vector<4xf32>, vector<4xf32>, vector<4xf32>, vector<4xf32>, vector<4xf32>, vector<4xf32>, vector<4xf32>, vector<4xf32>, vector<4xf32>, vector<4xf32>
        }
        amdgpu.lds_barrier
        %210 = affine.apply #map17()[%thread_id_x, %thread_id_y]
        %211 = arith.cmpi slt, %210, %87 : index
        %212 = vector.broadcast %211 : i1 to vector<4xi1>
        %213 = affine.apply #map18()[%thread_id_x]
        %214 = vector.maskedload %view[%210, %213], %212, %cst : memref<1038x20xf16, #gpu.address_space<workgroup>>, vector<4xi1>, vector<4xf16> into vector<4xf16>
        %215 = affine.apply #map19()[%thread_id_x, %thread_id_y]
        %216 = arith.cmpi slt, %215, %87 : index
        %217 = vector.broadcast %216 : i1 to vector<4xi1>
        %218 = vector.maskedload %view[%215, %213], %217, %cst : memref<1038x20xf16, #gpu.address_space<workgroup>>, vector<4xi1>, vector<4xf16> into vector<4xf16>
        %219 = affine.apply #map20()[%thread_id_x, %thread_id_y]
        %220 = arith.cmpi slt, %219, %87 : index
        %221 = vector.broadcast %220 : i1 to vector<4xi1>
        %222 = vector.maskedload %view[%219, %213], %221, %cst : memref<1038x20xf16, #gpu.address_space<workgroup>>, vector<4xi1>, vector<4xf16> into vector<4xf16>
        %223 = affine.apply #map21()[%thread_id_x, %thread_id_y]
        %224 = arith.cmpi slt, %223, %87 : index
        %225 = vector.broadcast %224 : i1 to vector<4xi1>
        %226 = vector.maskedload %view[%223, %213], %225, %cst : memref<1038x20xf16, #gpu.address_space<workgroup>>, vector<4xi1>, vector<4xf16> into vector<4xf16>
        %227 = affine.apply #map22()[%thread_id_x, %thread_id_y]
        %228 = arith.cmpi slt, %227, %87 : index
        %229 = vector.broadcast %228 : i1 to vector<4xi1>
        %230 = vector.maskedload %view[%227, %213], %229, %cst : memref<1038x20xf16, #gpu.address_space<workgroup>>, vector<4xi1>, vector<4xf16> into vector<4xf16>
        %231 = affine.apply #map23()[%thread_id_x, %thread_id_y]
        %232 = arith.cmpi slt, %231, %87 : index
        %233 = vector.broadcast %232 : i1 to vector<4xi1>
        %234 = vector.maskedload %view[%231, %213], %233, %cst : memref<1038x20xf16, #gpu.address_space<workgroup>>, vector<4xi1>, vector<4xf16> into vector<4xf16>
        %235 = affine.apply #map24()[%thread_id_x, %thread_id_y]
        %236 = arith.cmpi slt, %235, %87 : index
        %237 = vector.broadcast %236 : i1 to vector<4xi1>
        %238 = vector.maskedload %view[%235, %213], %237, %cst : memref<1038x20xf16, #gpu.address_space<workgroup>>, vector<4xi1>, vector<4xf16> into vector<4xf16>
        %239 = affine.apply #map25()[%thread_id_x, %thread_id_y]
        %240 = arith.cmpi slt, %239, %87 : index
        %241 = vector.broadcast %240 : i1 to vector<4xi1>
        %242 = vector.maskedload %view[%239, %213], %241, %cst : memref<1038x20xf16, #gpu.address_space<workgroup>>, vector<4xi1>, vector<4xf16> into vector<4xf16>
        %243 = affine.apply #map26()[%thread_id_x, %thread_id_y]
        %244 = arith.cmpi slt, %243, %87 : index
        %245 = vector.broadcast %244 : i1 to vector<4xi1>
        %246 = vector.maskedload %view[%243, %213], %245, %cst : memref<1038x20xf16, #gpu.address_space<workgroup>>, vector<4xi1>, vector<4xf16> into vector<4xf16>
        %247 = affine.apply #map27()[%thread_id_x, %thread_id_y]
        %248 = arith.cmpi slt, %247, %87 : index
        %249 = vector.broadcast %248 : i1 to vector<4xi1>
        %250 = vector.maskedload %view[%247, %213], %249, %cst : memref<1038x20xf16, #gpu.address_space<workgroup>>, vector<4xi1>, vector<4xf16> into vector<4xf16>
        %251 = affine.apply #map28()[%thread_id_x, %thread_id_y]
        %252 = arith.cmpi slt, %251, %87 : index
        %253 = vector.broadcast %252 : i1 to vector<4xi1>
        %254 = vector.maskedload %view[%251, %213], %253, %cst : memref<1038x20xf16, #gpu.address_space<workgroup>>, vector<4xi1>, vector<4xf16> into vector<4xf16>
        %255 = affine.apply #map29()[%thread_id_x, %thread_id_y]
        %256 = arith.cmpi slt, %255, %87 : index
        %257 = vector.broadcast %256 : i1 to vector<4xi1>
        %258 = vector.maskedload %view[%255, %213], %257, %cst : memref<1038x20xf16, #gpu.address_space<workgroup>>, vector<4xi1>, vector<4xf16> into vector<4xf16>
        %259 = affine.apply #map30()[%thread_id_x, %thread_id_y]
        %260 = arith.cmpi slt, %259, %87 : index
        %261 = vector.broadcast %260 : i1 to vector<4xi1>
        %262 = vector.maskedload %view[%259, %213], %261, %cst : memref<1038x20xf16, #gpu.address_space<workgroup>>, vector<4xi1>, vector<4xf16> into vector<4xf16>
        %263 = affine.apply #map31()[%thread_id_x, %thread_id_y]
        %264 = arith.cmpi slt, %263, %87 : index
        %265 = vector.broadcast %264 : i1 to vector<4xi1>
        %266 = vector.maskedload %view[%263, %213], %265, %cst : memref<1038x20xf16, #gpu.address_space<workgroup>>, vector<4xi1>, vector<4xf16> into vector<4xf16>
        %267 = affine.apply #map32()[%thread_id_x, %thread_id_y]
        %268 = arith.cmpi slt, %267, %87 : index
        %269 = vector.broadcast %268 : i1 to vector<4xi1>
        %270 = vector.maskedload %view[%267, %213], %269, %cst : memref<1038x20xf16, #gpu.address_space<workgroup>>, vector<4xi1>, vector<4xf16> into vector<4xf16>
        %271 = affine.apply #map33()[%thread_id_x, %thread_id_y]
        %272 = arith.cmpi slt, %271, %87 : index
        %273 = vector.broadcast %272 : i1 to vector<4xi1>
        %274 = vector.maskedload %view[%271, %213], %273, %cst : memref<1038x20xf16, #gpu.address_space<workgroup>>, vector<4xi1>, vector<4xf16> into vector<4xf16>
        %275 = affine.apply #map34()[%thread_id_x, %thread_id_y]
        %276 = arith.cmpi slt, %275, %87 : index
        %277 = vector.broadcast %276 : i1 to vector<4xi1>
        %278 = vector.maskedload %view[%275, %213], %277, %cst : memref<1038x20xf16, #gpu.address_space<workgroup>>, vector<4xi1>, vector<4xf16> into vector<4xf16>
        %279 = affine.apply #map35()[%thread_id_x, %thread_id_y]
        %280 = arith.cmpi slt, %279, %87 : index
        %281 = vector.broadcast %280 : i1 to vector<4xi1>
        %282 = vector.maskedload %view[%279, %213], %281, %cst : memref<1038x20xf16, #gpu.address_space<workgroup>>, vector<4xi1>, vector<4xf16> into vector<4xf16>
        %283 = affine.apply #map36()[%thread_id_x, %thread_id_y]
        %284 = arith.cmpi slt, %283, %87 : index
        %285 = vector.broadcast %284 : i1 to vector<4xi1>
        %286 = vector.maskedload %view[%283, %213], %285, %cst : memref<1038x20xf16, #gpu.address_space<workgroup>>, vector<4xi1>, vector<4xf16> into vector<4xf16>
        %287 = affine.apply #map37()[%thread_id_x, %thread_id_y]
        %288 = arith.cmpi slt, %287, %87 : index
        %289 = vector.broadcast %288 : i1 to vector<4xi1>
        %290 = vector.maskedload %view[%287, %213], %289, %cst : memref<1038x20xf16, #gpu.address_space<workgroup>>, vector<4xi1>, vector<4xf16> into vector<4xf16>
        %291 = affine.apply #map38()[%thread_id_x, %thread_id_y]
        %292 = arith.cmpi slt, %291, %87 : index
        %293 = vector.broadcast %292 : i1 to vector<4xi1>
        %294 = vector.maskedload %view[%291, %213], %293, %cst : memref<1038x20xf16, #gpu.address_space<workgroup>>, vector<4xi1>, vector<4xf16> into vector<4xf16>
        %295 = affine.apply #map39()[%thread_id_x, %thread_id_y]
        %296 = arith.cmpi slt, %295, %87 : index
        %297 = vector.broadcast %296 : i1 to vector<4xi1>
        %298 = vector.maskedload %view[%295, %213], %297, %cst : memref<1038x20xf16, #gpu.address_space<workgroup>>, vector<4xi1>, vector<4xf16> into vector<4xf16>
        %299 = affine.apply #map40()[%thread_id_x, %thread_id_y]
        %300 = arith.cmpi slt, %299, %87 : index
        %301 = vector.broadcast %300 : i1 to vector<4xi1>
        %302 = vector.maskedload %view[%299, %213], %301, %cst : memref<1038x20xf16, #gpu.address_space<workgroup>>, vector<4xi1>, vector<4xf16> into vector<4xf16>
        %303 = affine.apply #map41()[%thread_id_x, %thread_id_y]
        %304 = arith.cmpi slt, %303, %87 : index
        %305 = vector.broadcast %304 : i1 to vector<4xi1>
        %306 = vector.maskedload %view[%303, %213], %305, %cst : memref<1038x20xf16, #gpu.address_space<workgroup>>, vector<4xi1>, vector<4xf16> into vector<4xf16>
        %307 = affine.apply #map42()[%thread_id_x, %thread_id_y]
        %308 = arith.cmpi slt, %307, %87 : index
        %309 = vector.broadcast %308 : i1 to vector<4xi1>
        %310 = vector.maskedload %view[%307, %213], %309, %cst : memref<1038x20xf16, #gpu.address_space<workgroup>>, vector<4xi1>, vector<4xf16> into vector<4xf16>
        %311 = affine.apply #map43()[%thread_id_x, %thread_id_y]
        %312 = arith.cmpi slt, %311, %87 : index
        %313 = vector.broadcast %312 : i1 to vector<4xi1>
        %314 = vector.maskedload %view[%311, %213], %313, %cst : memref<1038x20xf16, #gpu.address_space<workgroup>>, vector<4xi1>, vector<4xf16> into vector<4xf16>
        %315 = affine.apply #map44()[%thread_id_x, %thread_id_y]
        %316 = arith.cmpi slt, %315, %87 : index
        %317 = vector.broadcast %316 : i1 to vector<4xi1>
        %318 = vector.maskedload %view[%315, %213], %317, %cst : memref<1038x20xf16, #gpu.address_space<workgroup>>, vector<4xi1>, vector<4xf16> into vector<4xf16>
        %319 = affine.apply #map45()[%thread_id_x, %thread_id_y]
        %320 = arith.cmpi slt, %319, %87 : index
        %321 = vector.broadcast %320 : i1 to vector<4xi1>
        %322 = vector.maskedload %view[%319, %213], %321, %cst : memref<1038x20xf16, #gpu.address_space<workgroup>>, vector<4xi1>, vector<4xf16> into vector<4xf16>
        %323 = affine.apply #map46()[%thread_id_x, %thread_id_y]
        %324 = arith.cmpi slt, %323, %87 : index
        %325 = vector.broadcast %324 : i1 to vector<4xi1>
        %326 = vector.maskedload %view[%323, %213], %325, %cst : memref<1038x20xf16, #gpu.address_space<workgroup>>, vector<4xi1>, vector<4xf16> into vector<4xf16>
        %327 = affine.apply #map47()[%thread_id_x, %thread_id_y]
        %328 = arith.cmpi slt, %327, %87 : index
        %329 = vector.broadcast %328 : i1 to vector<4xi1>
        %330 = vector.maskedload %view[%327, %213], %329, %cst : memref<1038x20xf16, #gpu.address_space<workgroup>>, vector<4xi1>, vector<4xf16> into vector<4xf16>
        %331 = affine.apply #map48()[%thread_id_x, %thread_id_y]
        %332 = arith.cmpi slt, %331, %87 : index
        %333 = vector.broadcast %332 : i1 to vector<4xi1>
        %334 = vector.maskedload %view[%331, %213], %333, %cst : memref<1038x20xf16, #gpu.address_space<workgroup>>, vector<4xi1>, vector<4xf16> into vector<4xf16>
        %335 = affine.apply #map49()[%thread_id_x, %thread_id_y]
        %336 = arith.cmpi slt, %335, %87 : index
        %337 = vector.broadcast %336 : i1 to vector<4xi1>
        %338 = vector.maskedload %view[%335, %213], %337, %cst : memref<1038x20xf16, #gpu.address_space<workgroup>>, vector<4xi1>, vector<4xf16> into vector<4xf16>
        %339 = affine.apply #map50()[%thread_id_x, %thread_id_y]
        %340 = arith.cmpi slt, %339, %87 : index
        %341 = vector.broadcast %340 : i1 to vector<4xi1>
        %342 = vector.maskedload %view[%339, %213], %341, %cst : memref<1038x20xf16, #gpu.address_space<workgroup>>, vector<4xi1>, vector<4xf16> into vector<4xf16>
        %343 = affine.apply #map51()[%thread_id_x]
        %344 = arith.cmpi slt, %343, %82 : index
        %345 = vector.broadcast %344 : i1 to vector<4xi1>
        %346 = vector.maskedload %view_5[%343, %213], %345, %cst : memref<96x20xf16, #gpu.address_space<workgroup>>, vector<4xi1>, vector<4xf16> into vector<4xf16>
        %347 = affine.apply #map52()[%thread_id_x]
        %348 = arith.cmpi slt, %347, %82 : index
        %349 = vector.broadcast %348 : i1 to vector<4xi1>
        %350 = vector.maskedload %view_5[%347, %213], %349, %cst : memref<96x20xf16, #gpu.address_space<workgroup>>, vector<4xi1>, vector<4xf16> into vector<4xf16>
        %351 = amdgpu.mfma %346 * %214 + %209#0 {blocks = 1 : i32, k = 16 : i32, m = 16 : i32, n = 16 : i32} blgp =  none : vector<4xf16>, vector<4xf16>, vector<4xf32>
        %352 = amdgpu.mfma %346 * %218 + %209#1 {blocks = 1 : i32, k = 16 : i32, m = 16 : i32, n = 16 : i32} blgp =  none : vector<4xf16>, vector<4xf16>, vector<4xf32>
        %353 = amdgpu.mfma %346 * %222 + %209#2 {blocks = 1 : i32, k = 16 : i32, m = 16 : i32, n = 16 : i32} blgp =  none : vector<4xf16>, vector<4xf16>, vector<4xf32>
        %354 = amdgpu.mfma %346 * %226 + %209#3 {blocks = 1 : i32, k = 16 : i32, m = 16 : i32, n = 16 : i32} blgp =  none : vector<4xf16>, vector<4xf16>, vector<4xf32>
        %355 = amdgpu.mfma %346 * %230 + %209#4 {blocks = 1 : i32, k = 16 : i32, m = 16 : i32, n = 16 : i32} blgp =  none : vector<4xf16>, vector<4xf16>, vector<4xf32>
        %356 = amdgpu.mfma %346 * %234 + %209#5 {blocks = 1 : i32, k = 16 : i32, m = 16 : i32, n = 16 : i32} blgp =  none : vector<4xf16>, vector<4xf16>, vector<4xf32>
        %357 = amdgpu.mfma %346 * %238 + %209#6 {blocks = 1 : i32, k = 16 : i32, m = 16 : i32, n = 16 : i32} blgp =  none : vector<4xf16>, vector<4xf16>, vector<4xf32>
        %358 = amdgpu.mfma %346 * %242 + %209#7 {blocks = 1 : i32, k = 16 : i32, m = 16 : i32, n = 16 : i32} blgp =  none : vector<4xf16>, vector<4xf16>, vector<4xf32>
        %359 = amdgpu.mfma %346 * %246 + %209#8 {blocks = 1 : i32, k = 16 : i32, m = 16 : i32, n = 16 : i32} blgp =  none : vector<4xf16>, vector<4xf16>, vector<4xf32>
        %360 = amdgpu.mfma %346 * %250 + %209#9 {blocks = 1 : i32, k = 16 : i32, m = 16 : i32, n = 16 : i32} blgp =  none : vector<4xf16>, vector<4xf16>, vector<4xf32>
        %361 = amdgpu.mfma %346 * %254 + %209#10 {blocks = 1 : i32, k = 16 : i32, m = 16 : i32, n = 16 : i32} blgp =  none : vector<4xf16>, vector<4xf16>, vector<4xf32>
        %362 = amdgpu.mfma %346 * %258 + %209#11 {blocks = 1 : i32, k = 16 : i32, m = 16 : i32, n = 16 : i32} blgp =  none : vector<4xf16>, vector<4xf16>, vector<4xf32>
        %363 = amdgpu.mfma %346 * %262 + %209#12 {blocks = 1 : i32, k = 16 : i32, m = 16 : i32, n = 16 : i32} blgp =  none : vector<4xf16>, vector<4xf16>, vector<4xf32>
        %364 = amdgpu.mfma %346 * %266 + %209#13 {blocks = 1 : i32, k = 16 : i32, m = 16 : i32, n = 16 : i32} blgp =  none : vector<4xf16>, vector<4xf16>, vector<4xf32>
        %365 = amdgpu.mfma %346 * %270 + %209#14 {blocks = 1 : i32, k = 16 : i32, m = 16 : i32, n = 16 : i32} blgp =  none : vector<4xf16>, vector<4xf16>, vector<4xf32>
        %366 = amdgpu.mfma %346 * %274 + %209#15 {blocks = 1 : i32, k = 16 : i32, m = 16 : i32, n = 16 : i32} blgp =  none : vector<4xf16>, vector<4xf16>, vector<4xf32>
        %367 = amdgpu.mfma %346 * %278 + %209#16 {blocks = 1 : i32, k = 16 : i32, m = 16 : i32, n = 16 : i32} blgp =  none : vector<4xf16>, vector<4xf16>, vector<4xf32>
        %368 = amdgpu.mfma %346 * %282 + %209#17 {blocks = 1 : i32, k = 16 : i32, m = 16 : i32, n = 16 : i32} blgp =  none : vector<4xf16>, vector<4xf16>, vector<4xf32>
        %369 = amdgpu.mfma %346 * %286 + %209#18 {blocks = 1 : i32, k = 16 : i32, m = 16 : i32, n = 16 : i32} blgp =  none : vector<4xf16>, vector<4xf16>, vector<4xf32>
        %370 = amdgpu.mfma %346 * %290 + %209#19 {blocks = 1 : i32, k = 16 : i32, m = 16 : i32, n = 16 : i32} blgp =  none : vector<4xf16>, vector<4xf16>, vector<4xf32>
        %371 = amdgpu.mfma %346 * %294 + %209#20 {blocks = 1 : i32, k = 16 : i32, m = 16 : i32, n = 16 : i32} blgp =  none : vector<4xf16>, vector<4xf16>, vector<4xf32>
        %372 = amdgpu.mfma %346 * %298 + %209#21 {blocks = 1 : i32, k = 16 : i32, m = 16 : i32, n = 16 : i32} blgp =  none : vector<4xf16>, vector<4xf16>, vector<4xf32>
        %373 = amdgpu.mfma %346 * %302 + %209#22 {blocks = 1 : i32, k = 16 : i32, m = 16 : i32, n = 16 : i32} blgp =  none : vector<4xf16>, vector<4xf16>, vector<4xf32>
        %374 = amdgpu.mfma %346 * %306 + %209#23 {blocks = 1 : i32, k = 16 : i32, m = 16 : i32, n = 16 : i32} blgp =  none : vector<4xf16>, vector<4xf16>, vector<4xf32>
        %375 = amdgpu.mfma %346 * %310 + %209#24 {blocks = 1 : i32, k = 16 : i32, m = 16 : i32, n = 16 : i32} blgp =  none : vector<4xf16>, vector<4xf16>, vector<4xf32>
        %376 = amdgpu.mfma %346 * %314 + %209#25 {blocks = 1 : i32, k = 16 : i32, m = 16 : i32, n = 16 : i32} blgp =  none : vector<4xf16>, vector<4xf16>, vector<4xf32>
        %377 = amdgpu.mfma %346 * %318 + %209#26 {blocks = 1 : i32, k = 16 : i32, m = 16 : i32, n = 16 : i32} blgp =  none : vector<4xf16>, vector<4xf16>, vector<4xf32>
        %378 = amdgpu.mfma %346 * %322 + %209#27 {blocks = 1 : i32, k = 16 : i32, m = 16 : i32, n = 16 : i32} blgp =  none : vector<4xf16>, vector<4xf16>, vector<4xf32>
        %379 = amdgpu.mfma %346 * %326 + %209#28 {blocks = 1 : i32, k = 16 : i32, m = 16 : i32, n = 16 : i32} blgp =  none : vector<4xf16>, vector<4xf16>, vector<4xf32>
        %380 = amdgpu.mfma %346 * %330 + %209#29 {blocks = 1 : i32, k = 16 : i32, m = 16 : i32, n = 16 : i32} blgp =  none : vector<4xf16>, vector<4xf16>, vector<4xf32>
        %381 = amdgpu.mfma %346 * %334 + %209#30 {blocks = 1 : i32, k = 16 : i32, m = 16 : i32, n = 16 : i32} blgp =  none : vector<4xf16>, vector<4xf16>, vector<4xf32>
        %382 = amdgpu.mfma %346 * %338 + %209#31 {blocks = 1 : i32, k = 16 : i32, m = 16 : i32, n = 16 : i32} blgp =  none : vector<4xf16>, vector<4xf16>, vector<4xf32>
        %383 = amdgpu.mfma %346 * %342 + %209#32 {blocks = 1 : i32, k = 16 : i32, m = 16 : i32, n = 16 : i32} blgp =  none : vector<4xf16>, vector<4xf16>, vector<4xf32>
        %384 = amdgpu.mfma %350 * %214 + %209#33 {blocks = 1 : i32, k = 16 : i32, m = 16 : i32, n = 16 : i32} blgp =  none : vector<4xf16>, vector<4xf16>, vector<4xf32>
        %385 = amdgpu.mfma %350 * %218 + %209#34 {blocks = 1 : i32, k = 16 : i32, m = 16 : i32, n = 16 : i32} blgp =  none : vector<4xf16>, vector<4xf16>, vector<4xf32>
        %386 = amdgpu.mfma %350 * %222 + %209#35 {blocks = 1 : i32, k = 16 : i32, m = 16 : i32, n = 16 : i32} blgp =  none : vector<4xf16>, vector<4xf16>, vector<4xf32>
        %387 = amdgpu.mfma %350 * %226 + %209#36 {blocks = 1 : i32, k = 16 : i32, m = 16 : i32, n = 16 : i32} blgp =  none : vector<4xf16>, vector<4xf16>, vector<4xf32>
        %388 = amdgpu.mfma %350 * %230 + %209#37 {blocks = 1 : i32, k = 16 : i32, m = 16 : i32, n = 16 : i32} blgp =  none : vector<4xf16>, vector<4xf16>, vector<4xf32>
        %389 = amdgpu.mfma %350 * %234 + %209#38 {blocks = 1 : i32, k = 16 : i32, m = 16 : i32, n = 16 : i32} blgp =  none : vector<4xf16>, vector<4xf16>, vector<4xf32>
        %390 = amdgpu.mfma %350 * %238 + %209#39 {blocks = 1 : i32, k = 16 : i32, m = 16 : i32, n = 16 : i32} blgp =  none : vector<4xf16>, vector<4xf16>, vector<4xf32>
        %391 = amdgpu.mfma %350 * %242 + %209#40 {blocks = 1 : i32, k = 16 : i32, m = 16 : i32, n = 16 : i32} blgp =  none : vector<4xf16>, vector<4xf16>, vector<4xf32>
        %392 = amdgpu.mfma %350 * %246 + %209#41 {blocks = 1 : i32, k = 16 : i32, m = 16 : i32, n = 16 : i32} blgp =  none : vector<4xf16>, vector<4xf16>, vector<4xf32>
        %393 = amdgpu.mfma %350 * %250 + %209#42 {blocks = 1 : i32, k = 16 : i32, m = 16 : i32, n = 16 : i32} blgp =  none : vector<4xf16>, vector<4xf16>, vector<4xf32>
        %394 = amdgpu.mfma %350 * %254 + %209#43 {blocks = 1 : i32, k = 16 : i32, m = 16 : i32, n = 16 : i32} blgp =  none : vector<4xf16>, vector<4xf16>, vector<4xf32>
        %395 = amdgpu.mfma %350 * %258 + %209#44 {blocks = 1 : i32, k = 16 : i32, m = 16 : i32, n = 16 : i32} blgp =  none : vector<4xf16>, vector<4xf16>, vector<4xf32>
        %396 = amdgpu.mfma %350 * %262 + %209#45 {blocks = 1 : i32, k = 16 : i32, m = 16 : i32, n = 16 : i32} blgp =  none : vector<4xf16>, vector<4xf16>, vector<4xf32>
        %397 = amdgpu.mfma %350 * %266 + %209#46 {blocks = 1 : i32, k = 16 : i32, m = 16 : i32, n = 16 : i32} blgp =  none : vector<4xf16>, vector<4xf16>, vector<4xf32>
        %398 = amdgpu.mfma %350 * %270 + %209#47 {blocks = 1 : i32, k = 16 : i32, m = 16 : i32, n = 16 : i32} blgp =  none : vector<4xf16>, vector<4xf16>, vector<4xf32>
        %399 = amdgpu.mfma %350 * %274 + %209#48 {blocks = 1 : i32, k = 16 : i32, m = 16 : i32, n = 16 : i32} blgp =  none : vector<4xf16>, vector<4xf16>, vector<4xf32>
        %400 = amdgpu.mfma %350 * %278 + %209#49 {blocks = 1 : i32, k = 16 : i32, m = 16 : i32, n = 16 : i32} blgp =  none : vector<4xf16>, vector<4xf16>, vector<4xf32>
        %401 = amdgpu.mfma %350 * %282 + %209#50 {blocks = 1 : i32, k = 16 : i32, m = 16 : i32, n = 16 : i32} blgp =  none : vector<4xf16>, vector<4xf16>, vector<4xf32>
        %402 = amdgpu.mfma %350 * %286 + %209#51 {blocks = 1 : i32, k = 16 : i32, m = 16 : i32, n = 16 : i32} blgp =  none : vector<4xf16>, vector<4xf16>, vector<4xf32>
        %403 = amdgpu.mfma %350 * %290 + %209#52 {blocks = 1 : i32, k = 16 : i32, m = 16 : i32, n = 16 : i32} blgp =  none : vector<4xf16>, vector<4xf16>, vector<4xf32>
        %404 = amdgpu.mfma %350 * %294 + %209#53 {blocks = 1 : i32, k = 16 : i32, m = 16 : i32, n = 16 : i32} blgp =  none : vector<4xf16>, vector<4xf16>, vector<4xf32>
        %405 = amdgpu.mfma %350 * %298 + %209#54 {blocks = 1 : i32, k = 16 : i32, m = 16 : i32, n = 16 : i32} blgp =  none : vector<4xf16>, vector<4xf16>, vector<4xf32>
        %406 = amdgpu.mfma %350 * %302 + %209#55 {blocks = 1 : i32, k = 16 : i32, m = 16 : i32, n = 16 : i32} blgp =  none : vector<4xf16>, vector<4xf16>, vector<4xf32>
        %407 = amdgpu.mfma %350 * %306 + %209#56 {blocks = 1 : i32, k = 16 : i32, m = 16 : i32, n = 16 : i32} blgp =  none : vector<4xf16>, vector<4xf16>, vector<4xf32>
        %408 = amdgpu.mfma %350 * %310 + %209#57 {blocks = 1 : i32, k = 16 : i32, m = 16 : i32, n = 16 : i32} blgp =  none : vector<4xf16>, vector<4xf16>, vector<4xf32>
        %409 = amdgpu.mfma %350 * %314 + %209#58 {blocks = 1 : i32, k = 16 : i32, m = 16 : i32, n = 16 : i32} blgp =  none : vector<4xf16>, vector<4xf16>, vector<4xf32>
        %410 = amdgpu.mfma %350 * %318 + %209#59 {blocks = 1 : i32, k = 16 : i32, m = 16 : i32, n = 16 : i32} blgp =  none : vector<4xf16>, vector<4xf16>, vector<4xf32>
        %411 = amdgpu.mfma %350 * %322 + %209#60 {blocks = 1 : i32, k = 16 : i32, m = 16 : i32, n = 16 : i32} blgp =  none : vector<4xf16>, vector<4xf16>, vector<4xf32>
        %412 = amdgpu.mfma %350 * %326 + %209#61 {blocks = 1 : i32, k = 16 : i32, m = 16 : i32, n = 16 : i32} blgp =  none : vector<4xf16>, vector<4xf16>, vector<4xf32>
        %413 = amdgpu.mfma %350 * %330 + %209#62 {blocks = 1 : i32, k = 16 : i32, m = 16 : i32, n = 16 : i32} blgp =  none : vector<4xf16>, vector<4xf16>, vector<4xf32>
        %414 = amdgpu.mfma %350 * %334 + %209#63 {blocks = 1 : i32, k = 16 : i32, m = 16 : i32, n = 16 : i32} blgp =  none : vector<4xf16>, vector<4xf16>, vector<4xf32>
        %415 = amdgpu.mfma %350 * %338 + %209#64 {blocks = 1 : i32, k = 16 : i32, m = 16 : i32, n = 16 : i32} blgp =  none : vector<4xf16>, vector<4xf16>, vector<4xf32>
        %416 = amdgpu.mfma %350 * %342 + %209#65 {blocks = 1 : i32, k = 16 : i32, m = 16 : i32, n = 16 : i32} blgp =  none : vector<4xf16>, vector<4xf16>, vector<4xf32>
        %417 = vector.extract_strided_slice %351 {offsets = [0], sizes = [1], strides = [1]} : vector<4xf32> to vector<1xf32>
        %418 = stream.binding.subspan %arg2[%c0] : !stream.binding -> memref<642x8192xf32, strided<[8192, 1], offset: ?>>
        %419 = affine.apply #map55()[%block_id_y, %thread_id_y]
        %420 = affine.apply #map56()[%block_id_y]
        %421 = arith.minsi %419, %420 : index
        %422 = arith.minsi %421, %c8192 : index
        %423 = affine.apply #map57()[%thread_id_x, %block_id_y, %block_id_x, %3, %thread_id_y]
        %424 = arith.cmpi slt, %423, %422 : index
        %425 = affine.apply #map58()[%block_id_x, %thread_id_x]
        %426 = arith.minsi %425, %c642 : index
        %427 = affine.apply #map59()[%block_id_y, %block_id_x, %3, %thread_id_x]
        %428 = arith.cmpi slt, %427, %426 : index
        %429 = arith.andi %424, %428 : i1
        %430 = affine.apply #map60()[%block_id_y, %block_id_x, %3]
        %431 = affine.apply #map61()[%block_id_y, %block_id_x, %3]
        %432 = affine.apply #map62()[%thread_id_x]
        %433 = arith.muli %430, %c8192 overflow<nsw> : index
        %434 = arith.muli %432, %c8192 overflow<nsw> : index
        %435 = arith.addi %433, %431 overflow<nsw> : index
        %436 = arith.addi %434, %210 overflow<nsw> : index
        %base_buffer_11, %offset_12, %sizes_13:2, %strides_14:2 = memref.extract_strided_metadata %418 : memref<642x8192xf32, strided<[8192, 1], offset: ?>> -> memref<f32>, index, index, index, index, index
        %437 = arith.addi %435, %offset_12 overflow<nsw> : index
        %reinterpret_cast_15 = memref.reinterpret_cast %418 to offset: [%437], sizes: [%c536870910], strides: [1] : memref<642x8192xf32, strided<[8192, 1], offset: ?>> to memref<?xf32, strided<[1], offset: ?>>
        %438 = amdgpu.fat_raw_buffer_cast %reinterpret_cast_15 validBytes(%c2147483643_i32) cacheSwizzleStride(%c-8192_i14) resetOffset : memref<?xf32, strided<[1], offset: ?>> to memref<?xf32, #amdgpu.address_space<fat_raw_buffer>>
        %439 = arith.select %429, %436, %c536870911 : index
        vector.store %417, %438[%439] : memref<?xf32, #amdgpu.address_space<fat_raw_buffer>>, vector<1xf32>
        %440 = vector.extract_strided_slice %351 {offsets = [1], sizes = [1], strides = [1]} : vector<4xf32> to vector<1xf32>
        %441 = affine.apply #map63()[%block_id_y, %block_id_x, %3, %thread_id_x]
        %442 = arith.cmpi slt, %441, %426 : index
        %443 = arith.andi %424, %442 : i1
        %444 = affine.apply #map64()[%thread_id_x]
        %445 = arith.muli %444, %c8192 overflow<nsw> : index
        %446 = arith.addi %445, %210 overflow<nsw> : index
        %447 = arith.select %443, %446, %c536870911 : index
        vector.store %440, %438[%447] : memref<?xf32, #amdgpu.address_space<fat_raw_buffer>>, vector<1xf32>
        %448 = vector.extract_strided_slice %351 {offsets = [2], sizes = [1], strides = [1]} : vector<4xf32> to vector<1xf32>
        %449 = affine.apply #map65()[%block_id_y, %block_id_x, %3, %thread_id_x]
        %450 = arith.cmpi slt, %449, %426 : index
        %451 = arith.andi %424, %450 : i1
        %452 = affine.apply #map66()[%thread_id_x]
        %453 = arith.muli %452, %c8192 overflow<nsw> : index
        %454 = arith.addi %453, %210 overflow<nsw> : index
        %455 = arith.select %451, %454, %c536870911 : index
        vector.store %448, %438[%455] : memref<?xf32, #amdgpu.address_space<fat_raw_buffer>>, vector<1xf32>
        %456 = vector.extract_strided_slice %351 {offsets = [3], sizes = [1], strides = [1]} : vector<4xf32> to vector<1xf32>
        %457 = affine.apply #map67()[%block_id_y, %block_id_x, %3, %thread_id_x]
        %458 = arith.cmpi slt, %457, %426 : index
        %459 = arith.andi %424, %458 : i1
        %460 = affine.apply #map68()[%thread_id_x]
        %461 = arith.muli %460, %c8192 overflow<nsw> : index
        %462 = arith.addi %461, %210 overflow<nsw> : index
        %463 = arith.select %459, %462, %c536870911 : index
        vector.store %456, %438[%463] : memref<?xf32, #amdgpu.address_space<fat_raw_buffer>>, vector<1xf32>
        %464 = vector.extract_strided_slice %352 {offsets = [0], sizes = [1], strides = [1]} : vector<4xf32> to vector<1xf32>
        %465 = affine.apply #map69()[%thread_id_x, %block_id_y, %block_id_x, %3, %thread_id_y]
        %466 = arith.cmpi slt, %465, %422 : index
        %467 = arith.andi %466, %428 : i1
        %468 = arith.addi %434, %215 overflow<nsw> : index
        %469 = arith.select %467, %468, %c536870911 : index
        vector.store %464, %438[%469] : memref<?xf32, #amdgpu.address_space<fat_raw_buffer>>, vector<1xf32>
        %470 = vector.extract_strided_slice %352 {offsets = [1], sizes = [1], strides = [1]} : vector<4xf32> to vector<1xf32>
        %471 = arith.andi %466, %442 : i1
        %472 = arith.addi %445, %215 overflow<nsw> : index
        %473 = arith.select %471, %472, %c536870911 : index
        vector.store %470, %438[%473] : memref<?xf32, #amdgpu.address_space<fat_raw_buffer>>, vector<1xf32>
        %474 = vector.extract_strided_slice %352 {offsets = [2], sizes = [1], strides = [1]} : vector<4xf32> to vector<1xf32>
        %475 = arith.andi %466, %450 : i1
        %476 = arith.addi %453, %215 overflow<nsw> : index
        %477 = arith.select %475, %476, %c536870911 : index
        vector.store %474, %438[%477] : memref<?xf32, #amdgpu.address_space<fat_raw_buffer>>, vector<1xf32>
        %478 = vector.extract_strided_slice %352 {offsets = [3], sizes = [1], strides = [1]} : vector<4xf32> to vector<1xf32>
        %479 = arith.andi %466, %458 : i1
        %480 = arith.addi %461, %215 overflow<nsw> : index
        %481 = arith.select %479, %480, %c536870911 : index
        vector.store %478, %438[%481] : memref<?xf32, #amdgpu.address_space<fat_raw_buffer>>, vector<1xf32>
        %482 = vector.extract_strided_slice %353 {offsets = [0], sizes = [1], strides = [1]} : vector<4xf32> to vector<1xf32>
        %483 = affine.apply #map70()[%thread_id_x, %block_id_y, %block_id_x, %3, %thread_id_y]
        %484 = arith.cmpi slt, %483, %422 : index
        %485 = arith.andi %484, %428 : i1
        %486 = arith.addi %434, %219 overflow<nsw> : index
        %487 = arith.select %485, %486, %c536870911 : index
        vector.store %482, %438[%487] : memref<?xf32, #amdgpu.address_space<fat_raw_buffer>>, vector<1xf32>
        %488 = vector.extract_strided_slice %353 {offsets = [1], sizes = [1], strides = [1]} : vector<4xf32> to vector<1xf32>
        %489 = arith.andi %484, %442 : i1
        %490 = arith.addi %445, %219 overflow<nsw> : index
        %491 = arith.select %489, %490, %c536870911 : index
        vector.store %488, %438[%491] : memref<?xf32, #amdgpu.address_space<fat_raw_buffer>>, vector<1xf32>
        %492 = vector.extract_strided_slice %353 {offsets = [2], sizes = [1], strides = [1]} : vector<4xf32> to vector<1xf32>
        %493 = arith.andi %484, %450 : i1
        %494 = arith.addi %453, %219 overflow<nsw> : index
        %495 = arith.select %493, %494, %c536870911 : index
        vector.store %492, %438[%495] : memref<?xf32, #amdgpu.address_space<fat_raw_buffer>>, vector<1xf32>
        %496 = vector.extract_strided_slice %353 {offsets = [3], sizes = [1], strides = [1]} : vector<4xf32> to vector<1xf32>
        %497 = arith.andi %484, %458 : i1
        %498 = arith.addi %461, %219 overflow<nsw> : index
        %499 = arith.select %497, %498, %c536870911 : index
        vector.store %496, %438[%499] : memref<?xf32, #amdgpu.address_space<fat_raw_buffer>>, vector<1xf32>
        %500 = vector.extract_strided_slice %354 {offsets = [0], sizes = [1], strides = [1]} : vector<4xf32> to vector<1xf32>
        %501 = affine.apply #map71()[%thread_id_x, %block_id_y, %block_id_x, %3, %thread_id_y]
        %502 = arith.cmpi slt, %501, %422 : index
        %503 = arith.andi %502, %428 : i1
        %504 = arith.addi %434, %223 overflow<nsw> : index
        %505 = arith.select %503, %504, %c536870911 : index
        vector.store %500, %438[%505] : memref<?xf32, #amdgpu.address_space<fat_raw_buffer>>, vector<1xf32>
        %506 = vector.extract_strided_slice %354 {offsets = [1], sizes = [1], strides = [1]} : vector<4xf32> to vector<1xf32>
        %507 = arith.andi %502, %442 : i1
        %508 = arith.addi %445, %223 overflow<nsw> : index
        %509 = arith.select %507, %508, %c536870911 : index
        vector.store %506, %438[%509] : memref<?xf32, #amdgpu.address_space<fat_raw_buffer>>, vector<1xf32>
        %510 = vector.extract_strided_slice %354 {offsets = [2], sizes = [1], strides = [1]} : vector<4xf32> to vector<1xf32>
        %511 = arith.andi %502, %450 : i1
        %512 = arith.addi %453, %223 overflow<nsw> : index
        %513 = arith.select %511, %512, %c536870911 : index
        vector.store %510, %438[%513] : memref<?xf32, #amdgpu.address_space<fat_raw_buffer>>, vector<1xf32>
        %514 = vector.extract_strided_slice %354 {offsets = [3], sizes = [1], strides = [1]} : vector<4xf32> to vector<1xf32>
        %515 = arith.andi %502, %458 : i1
        %516 = arith.addi %461, %223 overflow<nsw> : index
        %517 = arith.select %515, %516, %c536870911 : index
        vector.store %514, %438[%517] : memref<?xf32, #amdgpu.address_space<fat_raw_buffer>>, vector<1xf32>
        %518 = vector.extract_strided_slice %355 {offsets = [0], sizes = [1], strides = [1]} : vector<4xf32> to vector<1xf32>
        %519 = affine.apply #map72()[%thread_id_x, %block_id_y, %block_id_x, %3, %thread_id_y]
        %520 = arith.cmpi slt, %519, %422 : index
        %521 = arith.andi %520, %428 : i1
        %522 = arith.addi %434, %227 overflow<nsw> : index
        %523 = arith.select %521, %522, %c536870911 : index
        vector.store %518, %438[%523] : memref<?xf32, #amdgpu.address_space<fat_raw_buffer>>, vector<1xf32>
        %524 = vector.extract_strided_slice %355 {offsets = [1], sizes = [1], strides = [1]} : vector<4xf32> to vector<1xf32>
        %525 = arith.andi %520, %442 : i1
        %526 = arith.addi %445, %227 overflow<nsw> : index
        %527 = arith.select %525, %526, %c536870911 : index
        vector.store %524, %438[%527] : memref<?xf32, #amdgpu.address_space<fat_raw_buffer>>, vector<1xf32>
        %528 = vector.extract_strided_slice %355 {offsets = [2], sizes = [1], strides = [1]} : vector<4xf32> to vector<1xf32>
        %529 = arith.andi %520, %450 : i1
        %530 = arith.addi %453, %227 overflow<nsw> : index
        %531 = arith.select %529, %530, %c536870911 : index
        vector.store %528, %438[%531] : memref<?xf32, #amdgpu.address_space<fat_raw_buffer>>, vector<1xf32>
        %532 = vector.extract_strided_slice %355 {offsets = [3], sizes = [1], strides = [1]} : vector<4xf32> to vector<1xf32>
        %533 = arith.andi %520, %458 : i1
        %534 = arith.addi %461, %227 overflow<nsw> : index
        %535 = arith.select %533, %534, %c536870911 : index
        vector.store %532, %438[%535] : memref<?xf32, #amdgpu.address_space<fat_raw_buffer>>, vector<1xf32>
        %536 = vector.extract_strided_slice %356 {offsets = [0], sizes = [1], strides = [1]} : vector<4xf32> to vector<1xf32>
        %537 = affine.apply #map73()[%thread_id_x, %block_id_y, %block_id_x, %3, %thread_id_y]
        %538 = arith.cmpi slt, %537, %422 : index
        %539 = arith.andi %538, %428 : i1
        %540 = arith.addi %434, %231 overflow<nsw> : index
        %541 = arith.select %539, %540, %c536870911 : index
        vector.store %536, %438[%541] : memref<?xf32, #amdgpu.address_space<fat_raw_buffer>>, vector<1xf32>
        %542 = vector.extract_strided_slice %356 {offsets = [1], sizes = [1], strides = [1]} : vector<4xf32> to vector<1xf32>
        %543 = arith.andi %538, %442 : i1
        %544 = arith.addi %445, %231 overflow<nsw> : index
        %545 = arith.select %543, %544, %c536870911 : index
        vector.store %542, %438[%545] : memref<?xf32, #amdgpu.address_space<fat_raw_buffer>>, vector<1xf32>
        %546 = vector.extract_strided_slice %356 {offsets = [2], sizes = [1], strides = [1]} : vector<4xf32> to vector<1xf32>
        %547 = arith.andi %538, %450 : i1
        %548 = arith.addi %453, %231 overflow<nsw> : index
        %549 = arith.select %547, %548, %c536870911 : index
        vector.store %546, %438[%549] : memref<?xf32, #amdgpu.address_space<fat_raw_buffer>>, vector<1xf32>
        %550 = vector.extract_strided_slice %356 {offsets = [3], sizes = [1], strides = [1]} : vector<4xf32> to vector<1xf32>
        %551 = arith.andi %538, %458 : i1
        %552 = arith.addi %461, %231 overflow<nsw> : index
        %553 = arith.select %551, %552, %c536870911 : index
        vector.store %550, %438[%553] : memref<?xf32, #amdgpu.address_space<fat_raw_buffer>>, vector<1xf32>
        %554 = vector.extract_strided_slice %357 {offsets = [0], sizes = [1], strides = [1]} : vector<4xf32> to vector<1xf32>
        %555 = affine.apply #map74()[%thread_id_x, %block_id_y, %block_id_x, %3, %thread_id_y]
        %556 = arith.cmpi slt, %555, %422 : index
        %557 = arith.andi %556, %428 : i1
        %558 = arith.addi %434, %235 overflow<nsw> : index
        %559 = arith.select %557, %558, %c536870911 : index
        vector.store %554, %438[%559] : memref<?xf32, #amdgpu.address_space<fat_raw_buffer>>, vector<1xf32>
        %560 = vector.extract_strided_slice %357 {offsets = [1], sizes = [1], strides = [1]} : vector<4xf32> to vector<1xf32>
        %561 = arith.andi %556, %442 : i1
        %562 = arith.addi %445, %235 overflow<nsw> : index
        %563 = arith.select %561, %562, %c536870911 : index
        vector.store %560, %438[%563] : memref<?xf32, #amdgpu.address_space<fat_raw_buffer>>, vector<1xf32>
        %564 = vector.extract_strided_slice %357 {offsets = [2], sizes = [1], strides = [1]} : vector<4xf32> to vector<1xf32>
        %565 = arith.andi %556, %450 : i1
        %566 = arith.addi %453, %235 overflow<nsw> : index
        %567 = arith.select %565, %566, %c536870911 : index
        vector.store %564, %438[%567] : memref<?xf32, #amdgpu.address_space<fat_raw_buffer>>, vector<1xf32>
        %568 = vector.extract_strided_slice %357 {offsets = [3], sizes = [1], strides = [1]} : vector<4xf32> to vector<1xf32>
        %569 = arith.andi %556, %458 : i1
        %570 = arith.addi %461, %235 overflow<nsw> : index
        %571 = arith.select %569, %570, %c536870911 : index
        vector.store %568, %438[%571] : memref<?xf32, #amdgpu.address_space<fat_raw_buffer>>, vector<1xf32>
        %572 = vector.extract_strided_slice %358 {offsets = [0], sizes = [1], strides = [1]} : vector<4xf32> to vector<1xf32>
        %573 = affine.apply #map75()[%thread_id_x, %block_id_y, %block_id_x, %3, %thread_id_y]
        %574 = arith.cmpi slt, %573, %422 : index
        %575 = arith.andi %574, %428 : i1
        %576 = arith.addi %434, %239 overflow<nsw> : index
        %577 = arith.select %575, %576, %c536870911 : index
        vector.store %572, %438[%577] : memref<?xf32, #amdgpu.address_space<fat_raw_buffer>>, vector<1xf32>
        %578 = vector.extract_strided_slice %358 {offsets = [1], sizes = [1], strides = [1]} : vector<4xf32> to vector<1xf32>
        %579 = arith.andi %574, %442 : i1
        %580 = arith.addi %445, %239 overflow<nsw> : index
        %581 = arith.select %579, %580, %c536870911 : index
        vector.store %578, %438[%581] : memref<?xf32, #amdgpu.address_space<fat_raw_buffer>>, vector<1xf32>
        %582 = vector.extract_strided_slice %358 {offsets = [2], sizes = [1], strides = [1]} : vector<4xf32> to vector<1xf32>
        %583 = arith.andi %574, %450 : i1
        %584 = arith.addi %453, %239 overflow<nsw> : index
        %585 = arith.select %583, %584, %c536870911 : index
        vector.store %582, %438[%585] : memref<?xf32, #amdgpu.address_space<fat_raw_buffer>>, vector<1xf32>
        %586 = vector.extract_strided_slice %358 {offsets = [3], sizes = [1], strides = [1]} : vector<4xf32> to vector<1xf32>
        %587 = arith.andi %574, %458 : i1
        %588 = arith.addi %461, %239 overflow<nsw> : index
        %589 = arith.select %587, %588, %c536870911 : index
        vector.store %586, %438[%589] : memref<?xf32, #amdgpu.address_space<fat_raw_buffer>>, vector<1xf32>
        %590 = vector.extract_strided_slice %359 {offsets = [0], sizes = [1], strides = [1]} : vector<4xf32> to vector<1xf32>
        %591 = affine.apply #map76()[%thread_id_x, %block_id_y, %block_id_x, %3, %thread_id_y]
        %592 = arith.cmpi slt, %591, %422 : index
        %593 = arith.andi %592, %428 : i1
        %594 = arith.addi %434, %243 overflow<nsw> : index
        %595 = arith.select %593, %594, %c536870911 : index
        vector.store %590, %438[%595] : memref<?xf32, #amdgpu.address_space<fat_raw_buffer>>, vector<1xf32>
        %596 = vector.extract_strided_slice %359 {offsets = [1], sizes = [1], strides = [1]} : vector<4xf32> to vector<1xf32>
        %597 = arith.andi %592, %442 : i1
        %598 = arith.addi %445, %243 overflow<nsw> : index
        %599 = arith.select %597, %598, %c536870911 : index
        vector.store %596, %438[%599] : memref<?xf32, #amdgpu.address_space<fat_raw_buffer>>, vector<1xf32>
        %600 = vector.extract_strided_slice %359 {offsets = [2], sizes = [1], strides = [1]} : vector<4xf32> to vector<1xf32>
        %601 = arith.andi %592, %450 : i1
        %602 = arith.addi %453, %243 overflow<nsw> : index
        %603 = arith.select %601, %602, %c536870911 : index
        vector.store %600, %438[%603] : memref<?xf32, #amdgpu.address_space<fat_raw_buffer>>, vector<1xf32>
        %604 = vector.extract_strided_slice %359 {offsets = [3], sizes = [1], strides = [1]} : vector<4xf32> to vector<1xf32>
        %605 = arith.andi %592, %458 : i1
        %606 = arith.addi %461, %243 overflow<nsw> : index
        %607 = arith.select %605, %606, %c536870911 : index
        vector.store %604, %438[%607] : memref<?xf32, #amdgpu.address_space<fat_raw_buffer>>, vector<1xf32>
        %608 = vector.extract_strided_slice %360 {offsets = [0], sizes = [1], strides = [1]} : vector<4xf32> to vector<1xf32>
        %609 = affine.apply #map77()[%thread_id_x, %block_id_y, %block_id_x, %3, %thread_id_y]
        %610 = arith.cmpi slt, %609, %422 : index
        %611 = arith.andi %610, %428 : i1
        %612 = arith.addi %434, %247 overflow<nsw> : index
        %613 = arith.select %611, %612, %c536870911 : index
        vector.store %608, %438[%613] : memref<?xf32, #amdgpu.address_space<fat_raw_buffer>>, vector<1xf32>
        %614 = vector.extract_strided_slice %360 {offsets = [1], sizes = [1], strides = [1]} : vector<4xf32> to vector<1xf32>
        %615 = arith.andi %610, %442 : i1
        %616 = arith.addi %445, %247 overflow<nsw> : index
        %617 = arith.select %615, %616, %c536870911 : index
        vector.store %614, %438[%617] : memref<?xf32, #amdgpu.address_space<fat_raw_buffer>>, vector<1xf32>
        %618 = vector.extract_strided_slice %360 {offsets = [2], sizes = [1], strides = [1]} : vector<4xf32> to vector<1xf32>
        %619 = arith.andi %610, %450 : i1
        %620 = arith.addi %453, %247 overflow<nsw> : index
        %621 = arith.select %619, %620, %c536870911 : index
        vector.store %618, %438[%621] : memref<?xf32, #amdgpu.address_space<fat_raw_buffer>>, vector<1xf32>
        %622 = vector.extract_strided_slice %360 {offsets = [3], sizes = [1], strides = [1]} : vector<4xf32> to vector<1xf32>
        %623 = arith.andi %610, %458 : i1
        %624 = arith.addi %461, %247 overflow<nsw> : index
        %625 = arith.select %623, %624, %c536870911 : index
        vector.store %622, %438[%625] : memref<?xf32, #amdgpu.address_space<fat_raw_buffer>>, vector<1xf32>
        %626 = vector.extract_strided_slice %361 {offsets = [0], sizes = [1], strides = [1]} : vector<4xf32> to vector<1xf32>
        %627 = affine.apply #map78()[%thread_id_x, %block_id_y, %block_id_x, %3, %thread_id_y]
        %628 = arith.cmpi slt, %627, %422 : index
        %629 = arith.andi %628, %428 : i1
        %630 = arith.addi %434, %251 overflow<nsw> : index
        %631 = arith.select %629, %630, %c536870911 : index
        vector.store %626, %438[%631] : memref<?xf32, #amdgpu.address_space<fat_raw_buffer>>, vector<1xf32>
        %632 = vector.extract_strided_slice %361 {offsets = [1], sizes = [1], strides = [1]} : vector<4xf32> to vector<1xf32>
        %633 = arith.andi %628, %442 : i1
        %634 = arith.addi %445, %251 overflow<nsw> : index
        %635 = arith.select %633, %634, %c536870911 : index
        vector.store %632, %438[%635] : memref<?xf32, #amdgpu.address_space<fat_raw_buffer>>, vector<1xf32>
        %636 = vector.extract_strided_slice %361 {offsets = [2], sizes = [1], strides = [1]} : vector<4xf32> to vector<1xf32>
        %637 = arith.andi %628, %450 : i1
        %638 = arith.addi %453, %251 overflow<nsw> : index
        %639 = arith.select %637, %638, %c536870911 : index
        vector.store %636, %438[%639] : memref<?xf32, #amdgpu.address_space<fat_raw_buffer>>, vector<1xf32>
        %640 = vector.extract_strided_slice %361 {offsets = [3], sizes = [1], strides = [1]} : vector<4xf32> to vector<1xf32>
        %641 = arith.andi %628, %458 : i1
        %642 = arith.addi %461, %251 overflow<nsw> : index
        %643 = arith.select %641, %642, %c536870911 : index
        vector.store %640, %438[%643] : memref<?xf32, #amdgpu.address_space<fat_raw_buffer>>, vector<1xf32>
        %644 = vector.extract_strided_slice %362 {offsets = [0], sizes = [1], strides = [1]} : vector<4xf32> to vector<1xf32>
        %645 = affine.apply #map79()[%thread_id_x, %block_id_y, %block_id_x, %3, %thread_id_y]
        %646 = arith.cmpi slt, %645, %422 : index
        %647 = arith.andi %646, %428 : i1
        %648 = arith.addi %434, %255 overflow<nsw> : index
        %649 = arith.select %647, %648, %c536870911 : index
        vector.store %644, %438[%649] : memref<?xf32, #amdgpu.address_space<fat_raw_buffer>>, vector<1xf32>
        %650 = vector.extract_strided_slice %362 {offsets = [1], sizes = [1], strides = [1]} : vector<4xf32> to vector<1xf32>
        %651 = arith.andi %646, %442 : i1
        %652 = arith.addi %445, %255 overflow<nsw> : index
        %653 = arith.select %651, %652, %c536870911 : index
        vector.store %650, %438[%653] : memref<?xf32, #amdgpu.address_space<fat_raw_buffer>>, vector<1xf32>
        %654 = vector.extract_strided_slice %362 {offsets = [2], sizes = [1], strides = [1]} : vector<4xf32> to vector<1xf32>
        %655 = arith.andi %646, %450 : i1
        %656 = arith.addi %453, %255 overflow<nsw> : index
        %657 = arith.select %655, %656, %c536870911 : index
        vector.store %654, %438[%657] : memref<?xf32, #amdgpu.address_space<fat_raw_buffer>>, vector<1xf32>
        %658 = vector.extract_strided_slice %362 {offsets = [3], sizes = [1], strides = [1]} : vector<4xf32> to vector<1xf32>
        %659 = arith.andi %646, %458 : i1
        %660 = arith.addi %461, %255 overflow<nsw> : index
        %661 = arith.select %659, %660, %c536870911 : index
        vector.store %658, %438[%661] : memref<?xf32, #amdgpu.address_space<fat_raw_buffer>>, vector<1xf32>
        %662 = vector.extract_strided_slice %363 {offsets = [0], sizes = [1], strides = [1]} : vector<4xf32> to vector<1xf32>
        %663 = affine.apply #map80()[%thread_id_x, %block_id_y, %block_id_x, %3, %thread_id_y]
        %664 = arith.cmpi slt, %663, %422 : index
        %665 = arith.andi %664, %428 : i1
        %666 = arith.addi %434, %259 overflow<nsw> : index
        %667 = arith.select %665, %666, %c536870911 : index
        vector.store %662, %438[%667] : memref<?xf32, #amdgpu.address_space<fat_raw_buffer>>, vector<1xf32>
        %668 = vector.extract_strided_slice %363 {offsets = [1], sizes = [1], strides = [1]} : vector<4xf32> to vector<1xf32>
        %669 = arith.andi %664, %442 : i1
        %670 = arith.addi %445, %259 overflow<nsw> : index
        %671 = arith.select %669, %670, %c536870911 : index
        vector.store %668, %438[%671] : memref<?xf32, #amdgpu.address_space<fat_raw_buffer>>, vector<1xf32>
        %672 = vector.extract_strided_slice %363 {offsets = [2], sizes = [1], strides = [1]} : vector<4xf32> to vector<1xf32>
        %673 = arith.andi %664, %450 : i1
        %674 = arith.addi %453, %259 overflow<nsw> : index
        %675 = arith.select %673, %674, %c536870911 : index
        vector.store %672, %438[%675] : memref<?xf32, #amdgpu.address_space<fat_raw_buffer>>, vector<1xf32>
        %676 = vector.extract_strided_slice %363 {offsets = [3], sizes = [1], strides = [1]} : vector<4xf32> to vector<1xf32>
        %677 = arith.andi %664, %458 : i1
        %678 = arith.addi %461, %259 overflow<nsw> : index
        %679 = arith.select %677, %678, %c536870911 : index
        vector.store %676, %438[%679] : memref<?xf32, #amdgpu.address_space<fat_raw_buffer>>, vector<1xf32>
        %680 = vector.extract_strided_slice %364 {offsets = [0], sizes = [1], strides = [1]} : vector<4xf32> to vector<1xf32>
        %681 = affine.apply #map81()[%thread_id_x, %block_id_y, %block_id_x, %3, %thread_id_y]
        %682 = arith.cmpi slt, %681, %422 : index
        %683 = arith.andi %682, %428 : i1
        %684 = arith.addi %434, %263 overflow<nsw> : index
        %685 = arith.select %683, %684, %c536870911 : index
        vector.store %680, %438[%685] : memref<?xf32, #amdgpu.address_space<fat_raw_buffer>>, vector<1xf32>
        %686 = vector.extract_strided_slice %364 {offsets = [1], sizes = [1], strides = [1]} : vector<4xf32> to vector<1xf32>
        %687 = arith.andi %682, %442 : i1
        %688 = arith.addi %445, %263 overflow<nsw> : index
        %689 = arith.select %687, %688, %c536870911 : index
        vector.store %686, %438[%689] : memref<?xf32, #amdgpu.address_space<fat_raw_buffer>>, vector<1xf32>
        %690 = vector.extract_strided_slice %364 {offsets = [2], sizes = [1], strides = [1]} : vector<4xf32> to vector<1xf32>
        %691 = arith.andi %682, %450 : i1
        %692 = arith.addi %453, %263 overflow<nsw> : index
        %693 = arith.select %691, %692, %c536870911 : index
        vector.store %690, %438[%693] : memref<?xf32, #amdgpu.address_space<fat_raw_buffer>>, vector<1xf32>
        %694 = vector.extract_strided_slice %364 {offsets = [3], sizes = [1], strides = [1]} : vector<4xf32> to vector<1xf32>
        %695 = arith.andi %682, %458 : i1
        %696 = arith.addi %461, %263 overflow<nsw> : index
        %697 = arith.select %695, %696, %c536870911 : index
        vector.store %694, %438[%697] : memref<?xf32, #amdgpu.address_space<fat_raw_buffer>>, vector<1xf32>
        %698 = vector.extract_strided_slice %365 {offsets = [0], sizes = [1], strides = [1]} : vector<4xf32> to vector<1xf32>
        %699 = affine.apply #map82()[%thread_id_x, %block_id_y, %block_id_x, %3, %thread_id_y]
        %700 = arith.cmpi slt, %699, %422 : index
        %701 = arith.andi %700, %428 : i1
        %702 = arith.addi %434, %267 overflow<nsw> : index
        %703 = arith.select %701, %702, %c536870911 : index
        vector.store %698, %438[%703] : memref<?xf32, #amdgpu.address_space<fat_raw_buffer>>, vector<1xf32>
        %704 = vector.extract_strided_slice %365 {offsets = [1], sizes = [1], strides = [1]} : vector<4xf32> to vector<1xf32>
        %705 = arith.andi %700, %442 : i1
        %706 = arith.addi %445, %267 overflow<nsw> : index
        %707 = arith.select %705, %706, %c536870911 : index
        vector.store %704, %438[%707] : memref<?xf32, #amdgpu.address_space<fat_raw_buffer>>, vector<1xf32>
        %708 = vector.extract_strided_slice %365 {offsets = [2], sizes = [1], strides = [1]} : vector<4xf32> to vector<1xf32>
        %709 = arith.andi %700, %450 : i1
        %710 = arith.addi %453, %267 overflow<nsw> : index
        %711 = arith.select %709, %710, %c536870911 : index
        vector.store %708, %438[%711] : memref<?xf32, #amdgpu.address_space<fat_raw_buffer>>, vector<1xf32>
        %712 = vector.extract_strided_slice %365 {offsets = [3], sizes = [1], strides = [1]} : vector<4xf32> to vector<1xf32>
        %713 = arith.andi %700, %458 : i1
        %714 = arith.addi %461, %267 overflow<nsw> : index
        %715 = arith.select %713, %714, %c536870911 : index
        vector.store %712, %438[%715] : memref<?xf32, #amdgpu.address_space<fat_raw_buffer>>, vector<1xf32>
        %716 = vector.extract_strided_slice %366 {offsets = [0], sizes = [1], strides = [1]} : vector<4xf32> to vector<1xf32>
        %717 = affine.apply #map83()[%thread_id_x, %block_id_y, %block_id_x, %3, %thread_id_y]
        %718 = arith.cmpi slt, %717, %422 : index
        %719 = arith.andi %718, %428 : i1
        %720 = arith.addi %434, %271 overflow<nsw> : index
        %721 = arith.select %719, %720, %c536870911 : index
        vector.store %716, %438[%721] : memref<?xf32, #amdgpu.address_space<fat_raw_buffer>>, vector<1xf32>
        %722 = vector.extract_strided_slice %366 {offsets = [1], sizes = [1], strides = [1]} : vector<4xf32> to vector<1xf32>
        %723 = arith.andi %718, %442 : i1
        %724 = arith.addi %445, %271 overflow<nsw> : index
        %725 = arith.select %723, %724, %c536870911 : index
        vector.store %722, %438[%725] : memref<?xf32, #amdgpu.address_space<fat_raw_buffer>>, vector<1xf32>
        %726 = vector.extract_strided_slice %366 {offsets = [2], sizes = [1], strides = [1]} : vector<4xf32> to vector<1xf32>
        %727 = arith.andi %718, %450 : i1
        %728 = arith.addi %453, %271 overflow<nsw> : index
        %729 = arith.select %727, %728, %c536870911 : index
        vector.store %726, %438[%729] : memref<?xf32, #amdgpu.address_space<fat_raw_buffer>>, vector<1xf32>
        %730 = vector.extract_strided_slice %366 {offsets = [3], sizes = [1], strides = [1]} : vector<4xf32> to vector<1xf32>
        %731 = arith.andi %718, %458 : i1
        %732 = arith.addi %461, %271 overflow<nsw> : index
        %733 = arith.select %731, %732, %c536870911 : index
        vector.store %730, %438[%733] : memref<?xf32, #amdgpu.address_space<fat_raw_buffer>>, vector<1xf32>
        %734 = vector.extract_strided_slice %367 {offsets = [0], sizes = [1], strides = [1]} : vector<4xf32> to vector<1xf32>
        %735 = affine.apply #map84()[%thread_id_x, %block_id_y, %block_id_x, %3, %thread_id_y]
        %736 = arith.cmpi slt, %735, %422 : index
        %737 = arith.andi %736, %428 : i1
        %738 = arith.addi %434, %275 overflow<nsw> : index
        %739 = arith.select %737, %738, %c536870911 : index
        vector.store %734, %438[%739] : memref<?xf32, #amdgpu.address_space<fat_raw_buffer>>, vector<1xf32>
        %740 = vector.extract_strided_slice %367 {offsets = [1], sizes = [1], strides = [1]} : vector<4xf32> to vector<1xf32>
        %741 = arith.andi %736, %442 : i1
        %742 = arith.addi %445, %275 overflow<nsw> : index
        %743 = arith.select %741, %742, %c536870911 : index
        vector.store %740, %438[%743] : memref<?xf32, #amdgpu.address_space<fat_raw_buffer>>, vector<1xf32>
        %744 = vector.extract_strided_slice %367 {offsets = [2], sizes = [1], strides = [1]} : vector<4xf32> to vector<1xf32>
        %745 = arith.andi %736, %450 : i1
        %746 = arith.addi %453, %275 overflow<nsw> : index
        %747 = arith.select %745, %746, %c536870911 : index
        vector.store %744, %438[%747] : memref<?xf32, #amdgpu.address_space<fat_raw_buffer>>, vector<1xf32>
        %748 = vector.extract_strided_slice %367 {offsets = [3], sizes = [1], strides = [1]} : vector<4xf32> to vector<1xf32>
        %749 = arith.andi %736, %458 : i1
        %750 = arith.addi %461, %275 overflow<nsw> : index
        %751 = arith.select %749, %750, %c536870911 : index
        vector.store %748, %438[%751] : memref<?xf32, #amdgpu.address_space<fat_raw_buffer>>, vector<1xf32>
        %752 = vector.extract_strided_slice %368 {offsets = [0], sizes = [1], strides = [1]} : vector<4xf32> to vector<1xf32>
        %753 = affine.apply #map85()[%thread_id_x, %block_id_y, %block_id_x, %3, %thread_id_y]
        %754 = arith.cmpi slt, %753, %422 : index
        %755 = arith.andi %754, %428 : i1
        %756 = arith.addi %434, %279 overflow<nsw> : index
        %757 = arith.select %755, %756, %c536870911 : index
        vector.store %752, %438[%757] : memref<?xf32, #amdgpu.address_space<fat_raw_buffer>>, vector<1xf32>
        %758 = vector.extract_strided_slice %368 {offsets = [1], sizes = [1], strides = [1]} : vector<4xf32> to vector<1xf32>
        %759 = arith.andi %754, %442 : i1
        %760 = arith.addi %445, %279 overflow<nsw> : index
        %761 = arith.select %759, %760, %c536870911 : index
        vector.store %758, %438[%761] : memref<?xf32, #amdgpu.address_space<fat_raw_buffer>>, vector<1xf32>
        %762 = vector.extract_strided_slice %368 {offsets = [2], sizes = [1], strides = [1]} : vector<4xf32> to vector<1xf32>
        %763 = arith.andi %754, %450 : i1
        %764 = arith.addi %453, %279 overflow<nsw> : index
        %765 = arith.select %763, %764, %c536870911 : index
        vector.store %762, %438[%765] : memref<?xf32, #amdgpu.address_space<fat_raw_buffer>>, vector<1xf32>
        %766 = vector.extract_strided_slice %368 {offsets = [3], sizes = [1], strides = [1]} : vector<4xf32> to vector<1xf32>
        %767 = arith.andi %754, %458 : i1
        %768 = arith.addi %461, %279 overflow<nsw> : index
        %769 = arith.select %767, %768, %c536870911 : index
        vector.store %766, %438[%769] : memref<?xf32, #amdgpu.address_space<fat_raw_buffer>>, vector<1xf32>
        %770 = vector.extract_strided_slice %369 {offsets = [0], sizes = [1], strides = [1]} : vector<4xf32> to vector<1xf32>
        %771 = affine.apply #map86()[%thread_id_x, %block_id_y, %block_id_x, %3, %thread_id_y]
        %772 = arith.cmpi slt, %771, %422 : index
        %773 = arith.andi %772, %428 : i1
        %774 = arith.addi %434, %283 overflow<nsw> : index
        %775 = arith.select %773, %774, %c536870911 : index
        vector.store %770, %438[%775] : memref<?xf32, #amdgpu.address_space<fat_raw_buffer>>, vector<1xf32>
        %776 = vector.extract_strided_slice %369 {offsets = [1], sizes = [1], strides = [1]} : vector<4xf32> to vector<1xf32>
        %777 = arith.andi %772, %442 : i1
        %778 = arith.addi %445, %283 overflow<nsw> : index
        %779 = arith.select %777, %778, %c536870911 : index
        vector.store %776, %438[%779] : memref<?xf32, #amdgpu.address_space<fat_raw_buffer>>, vector<1xf32>
        %780 = vector.extract_strided_slice %369 {offsets = [2], sizes = [1], strides = [1]} : vector<4xf32> to vector<1xf32>
        %781 = arith.andi %772, %450 : i1
        %782 = arith.addi %453, %283 overflow<nsw> : index
        %783 = arith.select %781, %782, %c536870911 : index
        vector.store %780, %438[%783] : memref<?xf32, #amdgpu.address_space<fat_raw_buffer>>, vector<1xf32>
        %784 = vector.extract_strided_slice %369 {offsets = [3], sizes = [1], strides = [1]} : vector<4xf32> to vector<1xf32>
        %785 = arith.andi %772, %458 : i1
        %786 = arith.addi %461, %283 overflow<nsw> : index
        %787 = arith.select %785, %786, %c536870911 : index
        vector.store %784, %438[%787] : memref<?xf32, #amdgpu.address_space<fat_raw_buffer>>, vector<1xf32>
        %788 = vector.extract_strided_slice %370 {offsets = [0], sizes = [1], strides = [1]} : vector<4xf32> to vector<1xf32>
        %789 = affine.apply #map87()[%thread_id_x, %block_id_y, %block_id_x, %3, %thread_id_y]
        %790 = arith.cmpi slt, %789, %422 : index
        %791 = arith.andi %790, %428 : i1
        %792 = arith.addi %434, %287 overflow<nsw> : index
        %793 = arith.select %791, %792, %c536870911 : index
        vector.store %788, %438[%793] : memref<?xf32, #amdgpu.address_space<fat_raw_buffer>>, vector<1xf32>
        %794 = vector.extract_strided_slice %370 {offsets = [1], sizes = [1], strides = [1]} : vector<4xf32> to vector<1xf32>
        %795 = arith.andi %790, %442 : i1
        %796 = arith.addi %445, %287 overflow<nsw> : index
        %797 = arith.select %795, %796, %c536870911 : index
        vector.store %794, %438[%797] : memref<?xf32, #amdgpu.address_space<fat_raw_buffer>>, vector<1xf32>
        %798 = vector.extract_strided_slice %370 {offsets = [2], sizes = [1], strides = [1]} : vector<4xf32> to vector<1xf32>
        %799 = arith.andi %790, %450 : i1
        %800 = arith.addi %453, %287 overflow<nsw> : index
        %801 = arith.select %799, %800, %c536870911 : index
        vector.store %798, %438[%801] : memref<?xf32, #amdgpu.address_space<fat_raw_buffer>>, vector<1xf32>
        %802 = vector.extract_strided_slice %370 {offsets = [3], sizes = [1], strides = [1]} : vector<4xf32> to vector<1xf32>
        %803 = arith.andi %790, %458 : i1
        %804 = arith.addi %461, %287 overflow<nsw> : index
        %805 = arith.select %803, %804, %c536870911 : index
        vector.store %802, %438[%805] : memref<?xf32, #amdgpu.address_space<fat_raw_buffer>>, vector<1xf32>
        %806 = vector.extract_strided_slice %371 {offsets = [0], sizes = [1], strides = [1]} : vector<4xf32> to vector<1xf32>
        %807 = affine.apply #map88()[%thread_id_x, %block_id_y, %block_id_x, %3, %thread_id_y]
        %808 = arith.cmpi slt, %807, %422 : index
        %809 = arith.andi %808, %428 : i1
        %810 = arith.addi %434, %291 overflow<nsw> : index
        %811 = arith.select %809, %810, %c536870911 : index
        vector.store %806, %438[%811] : memref<?xf32, #amdgpu.address_space<fat_raw_buffer>>, vector<1xf32>
        %812 = vector.extract_strided_slice %371 {offsets = [1], sizes = [1], strides = [1]} : vector<4xf32> to vector<1xf32>
        %813 = arith.andi %808, %442 : i1
        %814 = arith.addi %445, %291 overflow<nsw> : index
        %815 = arith.select %813, %814, %c536870911 : index
        vector.store %812, %438[%815] : memref<?xf32, #amdgpu.address_space<fat_raw_buffer>>, vector<1xf32>
        %816 = vector.extract_strided_slice %371 {offsets = [2], sizes = [1], strides = [1]} : vector<4xf32> to vector<1xf32>
        %817 = arith.andi %808, %450 : i1
        %818 = arith.addi %453, %291 overflow<nsw> : index
        %819 = arith.select %817, %818, %c536870911 : index
        vector.store %816, %438[%819] : memref<?xf32, #amdgpu.address_space<fat_raw_buffer>>, vector<1xf32>
        %820 = vector.extract_strided_slice %371 {offsets = [3], sizes = [1], strides = [1]} : vector<4xf32> to vector<1xf32>
        %821 = arith.andi %808, %458 : i1
        %822 = arith.addi %461, %291 overflow<nsw> : index
        %823 = arith.select %821, %822, %c536870911 : index
        vector.store %820, %438[%823] : memref<?xf32, #amdgpu.address_space<fat_raw_buffer>>, vector<1xf32>
        %824 = vector.extract_strided_slice %372 {offsets = [0], sizes = [1], strides = [1]} : vector<4xf32> to vector<1xf32>
        %825 = affine.apply #map89()[%thread_id_x, %block_id_y, %block_id_x, %3, %thread_id_y]
        %826 = arith.cmpi slt, %825, %422 : index
        %827 = arith.andi %826, %428 : i1
        %828 = arith.addi %434, %295 overflow<nsw> : index
        %829 = arith.select %827, %828, %c536870911 : index
        vector.store %824, %438[%829] : memref<?xf32, #amdgpu.address_space<fat_raw_buffer>>, vector<1xf32>
        %830 = vector.extract_strided_slice %372 {offsets = [1], sizes = [1], strides = [1]} : vector<4xf32> to vector<1xf32>
        %831 = arith.andi %826, %442 : i1
        %832 = arith.addi %445, %295 overflow<nsw> : index
        %833 = arith.select %831, %832, %c536870911 : index
        vector.store %830, %438[%833] : memref<?xf32, #amdgpu.address_space<fat_raw_buffer>>, vector<1xf32>
        %834 = vector.extract_strided_slice %372 {offsets = [2], sizes = [1], strides = [1]} : vector<4xf32> to vector<1xf32>
        %835 = arith.andi %826, %450 : i1
        %836 = arith.addi %453, %295 overflow<nsw> : index
        %837 = arith.select %835, %836, %c536870911 : index
        vector.store %834, %438[%837] : memref<?xf32, #amdgpu.address_space<fat_raw_buffer>>, vector<1xf32>
        %838 = vector.extract_strided_slice %372 {offsets = [3], sizes = [1], strides = [1]} : vector<4xf32> to vector<1xf32>
        %839 = arith.andi %826, %458 : i1
        %840 = arith.addi %461, %295 overflow<nsw> : index
        %841 = arith.select %839, %840, %c536870911 : index
        vector.store %838, %438[%841] : memref<?xf32, #amdgpu.address_space<fat_raw_buffer>>, vector<1xf32>
        %842 = vector.extract_strided_slice %373 {offsets = [0], sizes = [1], strides = [1]} : vector<4xf32> to vector<1xf32>
        %843 = affine.apply #map90()[%thread_id_x, %block_id_y, %block_id_x, %3, %thread_id_y]
        %844 = arith.cmpi slt, %843, %422 : index
        %845 = arith.andi %844, %428 : i1
        %846 = arith.addi %434, %299 overflow<nsw> : index
        %847 = arith.select %845, %846, %c536870911 : index
        vector.store %842, %438[%847] : memref<?xf32, #amdgpu.address_space<fat_raw_buffer>>, vector<1xf32>
        %848 = vector.extract_strided_slice %373 {offsets = [1], sizes = [1], strides = [1]} : vector<4xf32> to vector<1xf32>
        %849 = arith.andi %844, %442 : i1
        %850 = arith.addi %445, %299 overflow<nsw> : index
        %851 = arith.select %849, %850, %c536870911 : index
        vector.store %848, %438[%851] : memref<?xf32, #amdgpu.address_space<fat_raw_buffer>>, vector<1xf32>
        %852 = vector.extract_strided_slice %373 {offsets = [2], sizes = [1], strides = [1]} : vector<4xf32> to vector<1xf32>
        %853 = arith.andi %844, %450 : i1
        %854 = arith.addi %453, %299 overflow<nsw> : index
        %855 = arith.select %853, %854, %c536870911 : index
        vector.store %852, %438[%855] : memref<?xf32, #amdgpu.address_space<fat_raw_buffer>>, vector<1xf32>
        %856 = vector.extract_strided_slice %373 {offsets = [3], sizes = [1], strides = [1]} : vector<4xf32> to vector<1xf32>
        %857 = arith.andi %844, %458 : i1
        %858 = arith.addi %461, %299 overflow<nsw> : index
        %859 = arith.select %857, %858, %c536870911 : index
        vector.store %856, %438[%859] : memref<?xf32, #amdgpu.address_space<fat_raw_buffer>>, vector<1xf32>
        %860 = vector.extract_strided_slice %374 {offsets = [0], sizes = [1], strides = [1]} : vector<4xf32> to vector<1xf32>
        %861 = affine.apply #map91()[%thread_id_x, %block_id_y, %block_id_x, %3, %thread_id_y]
        %862 = arith.cmpi slt, %861, %422 : index
        %863 = arith.andi %862, %428 : i1
        %864 = arith.addi %434, %303 overflow<nsw> : index
        %865 = arith.select %863, %864, %c536870911 : index
        vector.store %860, %438[%865] : memref<?xf32, #amdgpu.address_space<fat_raw_buffer>>, vector<1xf32>
        %866 = vector.extract_strided_slice %374 {offsets = [1], sizes = [1], strides = [1]} : vector<4xf32> to vector<1xf32>
        %867 = arith.andi %862, %442 : i1
        %868 = arith.addi %445, %303 overflow<nsw> : index
        %869 = arith.select %867, %868, %c536870911 : index
        vector.store %866, %438[%869] : memref<?xf32, #amdgpu.address_space<fat_raw_buffer>>, vector<1xf32>
        %870 = vector.extract_strided_slice %374 {offsets = [2], sizes = [1], strides = [1]} : vector<4xf32> to vector<1xf32>
        %871 = arith.andi %862, %450 : i1
        %872 = arith.addi %453, %303 overflow<nsw> : index
        %873 = arith.select %871, %872, %c536870911 : index
        vector.store %870, %438[%873] : memref<?xf32, #amdgpu.address_space<fat_raw_buffer>>, vector<1xf32>
        %874 = vector.extract_strided_slice %374 {offsets = [3], sizes = [1], strides = [1]} : vector<4xf32> to vector<1xf32>
        %875 = arith.andi %862, %458 : i1
        %876 = arith.addi %461, %303 overflow<nsw> : index
        %877 = arith.select %875, %876, %c536870911 : index
        vector.store %874, %438[%877] : memref<?xf32, #amdgpu.address_space<fat_raw_buffer>>, vector<1xf32>
        %878 = vector.extract_strided_slice %375 {offsets = [0], sizes = [1], strides = [1]} : vector<4xf32> to vector<1xf32>
        %879 = affine.apply #map92()[%thread_id_x, %block_id_y, %block_id_x, %3, %thread_id_y]
        %880 = arith.cmpi slt, %879, %422 : index
        %881 = arith.andi %880, %428 : i1
        %882 = arith.addi %434, %307 overflow<nsw> : index
        %883 = arith.select %881, %882, %c536870911 : index
        vector.store %878, %438[%883] : memref<?xf32, #amdgpu.address_space<fat_raw_buffer>>, vector<1xf32>
        %884 = vector.extract_strided_slice %375 {offsets = [1], sizes = [1], strides = [1]} : vector<4xf32> to vector<1xf32>
        %885 = arith.andi %880, %442 : i1
        %886 = arith.addi %445, %307 overflow<nsw> : index
        %887 = arith.select %885, %886, %c536870911 : index
        vector.store %884, %438[%887] : memref<?xf32, #amdgpu.address_space<fat_raw_buffer>>, vector<1xf32>
        %888 = vector.extract_strided_slice %375 {offsets = [2], sizes = [1], strides = [1]} : vector<4xf32> to vector<1xf32>
        %889 = arith.andi %880, %450 : i1
        %890 = arith.addi %453, %307 overflow<nsw> : index
        %891 = arith.select %889, %890, %c536870911 : index
        vector.store %888, %438[%891] : memref<?xf32, #amdgpu.address_space<fat_raw_buffer>>, vector<1xf32>
        %892 = vector.extract_strided_slice %375 {offsets = [3], sizes = [1], strides = [1]} : vector<4xf32> to vector<1xf32>
        %893 = arith.andi %880, %458 : i1
        %894 = arith.addi %461, %307 overflow<nsw> : index
        %895 = arith.select %893, %894, %c536870911 : index
        vector.store %892, %438[%895] : memref<?xf32, #amdgpu.address_space<fat_raw_buffer>>, vector<1xf32>
        %896 = vector.extract_strided_slice %376 {offsets = [0], sizes = [1], strides = [1]} : vector<4xf32> to vector<1xf32>
        %897 = affine.apply #map93()[%thread_id_x, %block_id_y, %block_id_x, %3, %thread_id_y]
        %898 = arith.cmpi slt, %897, %422 : index
        %899 = arith.andi %898, %428 : i1
        %900 = arith.addi %434, %311 overflow<nsw> : index
        %901 = arith.select %899, %900, %c536870911 : index
        vector.store %896, %438[%901] : memref<?xf32, #amdgpu.address_space<fat_raw_buffer>>, vector<1xf32>
        %902 = vector.extract_strided_slice %376 {offsets = [1], sizes = [1], strides = [1]} : vector<4xf32> to vector<1xf32>
        %903 = arith.andi %898, %442 : i1
        %904 = arith.addi %445, %311 overflow<nsw> : index
        %905 = arith.select %903, %904, %c536870911 : index
        vector.store %902, %438[%905] : memref<?xf32, #amdgpu.address_space<fat_raw_buffer>>, vector<1xf32>
        %906 = vector.extract_strided_slice %376 {offsets = [2], sizes = [1], strides = [1]} : vector<4xf32> to vector<1xf32>
        %907 = arith.andi %898, %450 : i1
        %908 = arith.addi %453, %311 overflow<nsw> : index
        %909 = arith.select %907, %908, %c536870911 : index
        vector.store %906, %438[%909] : memref<?xf32, #amdgpu.address_space<fat_raw_buffer>>, vector<1xf32>
        %910 = vector.extract_strided_slice %376 {offsets = [3], sizes = [1], strides = [1]} : vector<4xf32> to vector<1xf32>
        %911 = arith.andi %898, %458 : i1
        %912 = arith.addi %461, %311 overflow<nsw> : index
        %913 = arith.select %911, %912, %c536870911 : index
        vector.store %910, %438[%913] : memref<?xf32, #amdgpu.address_space<fat_raw_buffer>>, vector<1xf32>
        %914 = vector.extract_strided_slice %377 {offsets = [0], sizes = [1], strides = [1]} : vector<4xf32> to vector<1xf32>
        %915 = affine.apply #map94()[%thread_id_x, %block_id_y, %block_id_x, %3, %thread_id_y]
        %916 = arith.cmpi slt, %915, %422 : index
        %917 = arith.andi %916, %428 : i1
        %918 = arith.addi %434, %315 overflow<nsw> : index
        %919 = arith.select %917, %918, %c536870911 : index
        vector.store %914, %438[%919] : memref<?xf32, #amdgpu.address_space<fat_raw_buffer>>, vector<1xf32>
        %920 = vector.extract_strided_slice %377 {offsets = [1], sizes = [1], strides = [1]} : vector<4xf32> to vector<1xf32>
        %921 = arith.andi %916, %442 : i1
        %922 = arith.addi %445, %315 overflow<nsw> : index
        %923 = arith.select %921, %922, %c536870911 : index
        vector.store %920, %438[%923] : memref<?xf32, #amdgpu.address_space<fat_raw_buffer>>, vector<1xf32>
        %924 = vector.extract_strided_slice %377 {offsets = [2], sizes = [1], strides = [1]} : vector<4xf32> to vector<1xf32>
        %925 = arith.andi %916, %450 : i1
        %926 = arith.addi %453, %315 overflow<nsw> : index
        %927 = arith.select %925, %926, %c536870911 : index
        vector.store %924, %438[%927] : memref<?xf32, #amdgpu.address_space<fat_raw_buffer>>, vector<1xf32>
        %928 = vector.extract_strided_slice %377 {offsets = [3], sizes = [1], strides = [1]} : vector<4xf32> to vector<1xf32>
        %929 = arith.andi %916, %458 : i1
        %930 = arith.addi %461, %315 overflow<nsw> : index
        %931 = arith.select %929, %930, %c536870911 : index
        vector.store %928, %438[%931] : memref<?xf32, #amdgpu.address_space<fat_raw_buffer>>, vector<1xf32>
        %932 = vector.extract_strided_slice %378 {offsets = [0], sizes = [1], strides = [1]} : vector<4xf32> to vector<1xf32>
        %933 = affine.apply #map95()[%thread_id_x, %block_id_y, %block_id_x, %3, %thread_id_y]
        %934 = arith.cmpi slt, %933, %422 : index
        %935 = arith.andi %934, %428 : i1
        %936 = arith.addi %434, %319 overflow<nsw> : index
        %937 = arith.select %935, %936, %c536870911 : index
        vector.store %932, %438[%937] : memref<?xf32, #amdgpu.address_space<fat_raw_buffer>>, vector<1xf32>
        %938 = vector.extract_strided_slice %378 {offsets = [1], sizes = [1], strides = [1]} : vector<4xf32> to vector<1xf32>
        %939 = arith.andi %934, %442 : i1
        %940 = arith.addi %445, %319 overflow<nsw> : index
        %941 = arith.select %939, %940, %c536870911 : index
        vector.store %938, %438[%941] : memref<?xf32, #amdgpu.address_space<fat_raw_buffer>>, vector<1xf32>
        %942 = vector.extract_strided_slice %378 {offsets = [2], sizes = [1], strides = [1]} : vector<4xf32> to vector<1xf32>
        %943 = arith.andi %934, %450 : i1
        %944 = arith.addi %453, %319 overflow<nsw> : index
        %945 = arith.select %943, %944, %c536870911 : index
        vector.store %942, %438[%945] : memref<?xf32, #amdgpu.address_space<fat_raw_buffer>>, vector<1xf32>
        %946 = vector.extract_strided_slice %378 {offsets = [3], sizes = [1], strides = [1]} : vector<4xf32> to vector<1xf32>
        %947 = arith.andi %934, %458 : i1
        %948 = arith.addi %461, %319 overflow<nsw> : index
        %949 = arith.select %947, %948, %c536870911 : index
        vector.store %946, %438[%949] : memref<?xf32, #amdgpu.address_space<fat_raw_buffer>>, vector<1xf32>
        %950 = vector.extract_strided_slice %379 {offsets = [0], sizes = [1], strides = [1]} : vector<4xf32> to vector<1xf32>
        %951 = affine.apply #map96()[%thread_id_x, %block_id_y, %block_id_x, %3, %thread_id_y]
        %952 = arith.cmpi slt, %951, %422 : index
        %953 = arith.andi %952, %428 : i1
        %954 = arith.addi %434, %323 overflow<nsw> : index
        %955 = arith.select %953, %954, %c536870911 : index
        vector.store %950, %438[%955] : memref<?xf32, #amdgpu.address_space<fat_raw_buffer>>, vector<1xf32>
        %956 = vector.extract_strided_slice %379 {offsets = [1], sizes = [1], strides = [1]} : vector<4xf32> to vector<1xf32>
        %957 = arith.andi %952, %442 : i1
        %958 = arith.addi %445, %323 overflow<nsw> : index
        %959 = arith.select %957, %958, %c536870911 : index
        vector.store %956, %438[%959] : memref<?xf32, #amdgpu.address_space<fat_raw_buffer>>, vector<1xf32>
        %960 = vector.extract_strided_slice %379 {offsets = [2], sizes = [1], strides = [1]} : vector<4xf32> to vector<1xf32>
        %961 = arith.andi %952, %450 : i1
        %962 = arith.addi %453, %323 overflow<nsw> : index
        %963 = arith.select %961, %962, %c536870911 : index
        vector.store %960, %438[%963] : memref<?xf32, #amdgpu.address_space<fat_raw_buffer>>, vector<1xf32>
        %964 = vector.extract_strided_slice %379 {offsets = [3], sizes = [1], strides = [1]} : vector<4xf32> to vector<1xf32>
        %965 = arith.andi %952, %458 : i1
        %966 = arith.addi %461, %323 overflow<nsw> : index
        %967 = arith.select %965, %966, %c536870911 : index
        vector.store %964, %438[%967] : memref<?xf32, #amdgpu.address_space<fat_raw_buffer>>, vector<1xf32>
        %968 = vector.extract_strided_slice %380 {offsets = [0], sizes = [1], strides = [1]} : vector<4xf32> to vector<1xf32>
        %969 = affine.apply #map97()[%thread_id_x, %block_id_y, %block_id_x, %3, %thread_id_y]
        %970 = arith.cmpi slt, %969, %422 : index
        %971 = arith.andi %970, %428 : i1
        %972 = arith.addi %434, %327 overflow<nsw> : index
        %973 = arith.select %971, %972, %c536870911 : index
        vector.store %968, %438[%973] : memref<?xf32, #amdgpu.address_space<fat_raw_buffer>>, vector<1xf32>
        %974 = vector.extract_strided_slice %380 {offsets = [1], sizes = [1], strides = [1]} : vector<4xf32> to vector<1xf32>
        %975 = arith.andi %970, %442 : i1
        %976 = arith.addi %445, %327 overflow<nsw> : index
        %977 = arith.select %975, %976, %c536870911 : index
        vector.store %974, %438[%977] : memref<?xf32, #amdgpu.address_space<fat_raw_buffer>>, vector<1xf32>
        %978 = vector.extract_strided_slice %380 {offsets = [2], sizes = [1], strides = [1]} : vector<4xf32> to vector<1xf32>
        %979 = arith.andi %970, %450 : i1
        %980 = arith.addi %453, %327 overflow<nsw> : index
        %981 = arith.select %979, %980, %c536870911 : index
        vector.store %978, %438[%981] : memref<?xf32, #amdgpu.address_space<fat_raw_buffer>>, vector<1xf32>
        %982 = vector.extract_strided_slice %380 {offsets = [3], sizes = [1], strides = [1]} : vector<4xf32> to vector<1xf32>
        %983 = arith.andi %970, %458 : i1
        %984 = arith.addi %461, %327 overflow<nsw> : index
        %985 = arith.select %983, %984, %c536870911 : index
        vector.store %982, %438[%985] : memref<?xf32, #amdgpu.address_space<fat_raw_buffer>>, vector<1xf32>
        %986 = vector.extract_strided_slice %381 {offsets = [0], sizes = [1], strides = [1]} : vector<4xf32> to vector<1xf32>
        %987 = affine.apply #map98()[%thread_id_x, %block_id_y, %block_id_x, %3, %thread_id_y]
        %988 = arith.cmpi slt, %987, %422 : index
        %989 = arith.andi %988, %428 : i1
        %990 = arith.addi %434, %331 overflow<nsw> : index
        %991 = arith.select %989, %990, %c536870911 : index
        vector.store %986, %438[%991] : memref<?xf32, #amdgpu.address_space<fat_raw_buffer>>, vector<1xf32>
        %992 = vector.extract_strided_slice %381 {offsets = [1], sizes = [1], strides = [1]} : vector<4xf32> to vector<1xf32>
        %993 = arith.andi %988, %442 : i1
        %994 = arith.addi %445, %331 overflow<nsw> : index
        %995 = arith.select %993, %994, %c536870911 : index
        vector.store %992, %438[%995] : memref<?xf32, #amdgpu.address_space<fat_raw_buffer>>, vector<1xf32>
        %996 = vector.extract_strided_slice %381 {offsets = [2], sizes = [1], strides = [1]} : vector<4xf32> to vector<1xf32>
        %997 = arith.andi %988, %450 : i1
        %998 = arith.addi %453, %331 overflow<nsw> : index
        %999 = arith.select %997, %998, %c536870911 : index
        vector.store %996, %438[%999] : memref<?xf32, #amdgpu.address_space<fat_raw_buffer>>, vector<1xf32>
        %1000 = vector.extract_strided_slice %381 {offsets = [3], sizes = [1], strides = [1]} : vector<4xf32> to vector<1xf32>
        %1001 = arith.andi %988, %458 : i1
        %1002 = arith.addi %461, %331 overflow<nsw> : index
        %1003 = arith.select %1001, %1002, %c536870911 : index
        vector.store %1000, %438[%1003] : memref<?xf32, #amdgpu.address_space<fat_raw_buffer>>, vector<1xf32>
        %1004 = vector.extract_strided_slice %382 {offsets = [0], sizes = [1], strides = [1]} : vector<4xf32> to vector<1xf32>
        %1005 = affine.apply #map99()[%thread_id_x, %block_id_y, %block_id_x, %3, %thread_id_y]
        %1006 = arith.cmpi slt, %1005, %422 : index
        %1007 = arith.andi %1006, %428 : i1
        %1008 = arith.addi %434, %335 overflow<nsw> : index
        %1009 = arith.select %1007, %1008, %c536870911 : index
        vector.store %1004, %438[%1009] : memref<?xf32, #amdgpu.address_space<fat_raw_buffer>>, vector<1xf32>
        %1010 = vector.extract_strided_slice %382 {offsets = [1], sizes = [1], strides = [1]} : vector<4xf32> to vector<1xf32>
        %1011 = arith.andi %1006, %442 : i1
        %1012 = arith.addi %445, %335 overflow<nsw> : index
        %1013 = arith.select %1011, %1012, %c536870911 : index
        vector.store %1010, %438[%1013] : memref<?xf32, #amdgpu.address_space<fat_raw_buffer>>, vector<1xf32>
        %1014 = vector.extract_strided_slice %382 {offsets = [2], sizes = [1], strides = [1]} : vector<4xf32> to vector<1xf32>
        %1015 = arith.andi %1006, %450 : i1
        %1016 = arith.addi %453, %335 overflow<nsw> : index
        %1017 = arith.select %1015, %1016, %c536870911 : index
        vector.store %1014, %438[%1017] : memref<?xf32, #amdgpu.address_space<fat_raw_buffer>>, vector<1xf32>
        %1018 = vector.extract_strided_slice %382 {offsets = [3], sizes = [1], strides = [1]} : vector<4xf32> to vector<1xf32>
        %1019 = arith.andi %1006, %458 : i1
        %1020 = arith.addi %461, %335 overflow<nsw> : index
        %1021 = arith.select %1019, %1020, %c536870911 : index
        vector.store %1018, %438[%1021] : memref<?xf32, #amdgpu.address_space<fat_raw_buffer>>, vector<1xf32>
        %1022 = vector.extract_strided_slice %383 {offsets = [0], sizes = [1], strides = [1]} : vector<4xf32> to vector<1xf32>
        %1023 = affine.apply #map100()[%thread_id_x, %block_id_y, %block_id_x, %3, %thread_id_y]
        %1024 = arith.cmpi slt, %1023, %422 : index
        %1025 = arith.andi %1024, %428 : i1
        %1026 = arith.addi %434, %339 overflow<nsw> : index
        %1027 = arith.select %1025, %1026, %c536870911 : index
        vector.store %1022, %438[%1027] : memref<?xf32, #amdgpu.address_space<fat_raw_buffer>>, vector<1xf32>
        %1028 = vector.extract_strided_slice %383 {offsets = [1], sizes = [1], strides = [1]} : vector<4xf32> to vector<1xf32>
        %1029 = arith.andi %1024, %442 : i1
        %1030 = arith.addi %445, %339 overflow<nsw> : index
        %1031 = arith.select %1029, %1030, %c536870911 : index
        vector.store %1028, %438[%1031] : memref<?xf32, #amdgpu.address_space<fat_raw_buffer>>, vector<1xf32>
        %1032 = vector.extract_strided_slice %383 {offsets = [2], sizes = [1], strides = [1]} : vector<4xf32> to vector<1xf32>
        %1033 = arith.andi %1024, %450 : i1
        %1034 = arith.addi %453, %339 overflow<nsw> : index
        %1035 = arith.select %1033, %1034, %c536870911 : index
        vector.store %1032, %438[%1035] : memref<?xf32, #amdgpu.address_space<fat_raw_buffer>>, vector<1xf32>
        %1036 = vector.extract_strided_slice %383 {offsets = [3], sizes = [1], strides = [1]} : vector<4xf32> to vector<1xf32>
        %1037 = arith.andi %1024, %458 : i1
        %1038 = arith.addi %461, %339 overflow<nsw> : index
        %1039 = arith.select %1037, %1038, %c536870911 : index
        vector.store %1036, %438[%1039] : memref<?xf32, #amdgpu.address_space<fat_raw_buffer>>, vector<1xf32>
        %1040 = vector.extract_strided_slice %384 {offsets = [0], sizes = [1], strides = [1]} : vector<4xf32> to vector<1xf32>
        %1041 = affine.apply #map101()[%block_id_y, %block_id_x, %3, %thread_id_x]
        %1042 = arith.cmpi slt, %1041, %426 : index
        %1043 = arith.andi %424, %1042 : i1
        %1044 = affine.apply #map102()[%thread_id_x]
        %1045 = arith.muli %1044, %c8192 overflow<nsw> : index
        %1046 = arith.addi %1045, %210 overflow<nsw> : index
        %1047 = arith.select %1043, %1046, %c536870911 : index
        vector.store %1040, %438[%1047] : memref<?xf32, #amdgpu.address_space<fat_raw_buffer>>, vector<1xf32>
        %1048 = vector.extract_strided_slice %384 {offsets = [1], sizes = [1], strides = [1]} : vector<4xf32> to vector<1xf32>
        %1049 = affine.apply #map103()[%block_id_y, %block_id_x, %3, %thread_id_x]
        %1050 = arith.cmpi slt, %1049, %426 : index
        %1051 = arith.andi %424, %1050 : i1
        %1052 = affine.apply #map104()[%thread_id_x]
        %1053 = arith.muli %1052, %c8192 overflow<nsw> : index
        %1054 = arith.addi %1053, %210 overflow<nsw> : index
        %1055 = arith.select %1051, %1054, %c536870911 : index
        vector.store %1048, %438[%1055] : memref<?xf32, #amdgpu.address_space<fat_raw_buffer>>, vector<1xf32>
        %1056 = vector.extract_strided_slice %384 {offsets = [2], sizes = [1], strides = [1]} : vector<4xf32> to vector<1xf32>
        %1057 = affine.apply #map105()[%block_id_y, %block_id_x, %3, %thread_id_x]
        %1058 = arith.cmpi slt, %1057, %426 : index
        %1059 = arith.andi %424, %1058 : i1
        %1060 = affine.apply #map106()[%thread_id_x]
        %1061 = arith.muli %1060, %c8192 overflow<nsw> : index
        %1062 = arith.addi %1061, %210 overflow<nsw> : index
        %1063 = arith.select %1059, %1062, %c536870911 : index
        vector.store %1056, %438[%1063] : memref<?xf32, #amdgpu.address_space<fat_raw_buffer>>, vector<1xf32>
        %1064 = vector.extract_strided_slice %384 {offsets = [3], sizes = [1], strides = [1]} : vector<4xf32> to vector<1xf32>
        %1065 = affine.apply #map107()[%block_id_y, %block_id_x, %3, %thread_id_x]
        %1066 = arith.cmpi slt, %1065, %426 : index
        %1067 = arith.andi %424, %1066 : i1
        %1068 = affine.apply #map108()[%thread_id_x]
        %1069 = arith.muli %1068, %c8192 overflow<nsw> : index
        %1070 = arith.addi %1069, %210 overflow<nsw> : index
        %1071 = arith.select %1067, %1070, %c536870911 : index
        vector.store %1064, %438[%1071] : memref<?xf32, #amdgpu.address_space<fat_raw_buffer>>, vector<1xf32>
        %1072 = vector.extract_strided_slice %385 {offsets = [0], sizes = [1], strides = [1]} : vector<4xf32> to vector<1xf32>
        %1073 = arith.andi %466, %1042 : i1
        %1074 = arith.addi %1045, %215 overflow<nsw> : index
        %1075 = arith.select %1073, %1074, %c536870911 : index
        vector.store %1072, %438[%1075] : memref<?xf32, #amdgpu.address_space<fat_raw_buffer>>, vector<1xf32>
        %1076 = vector.extract_strided_slice %385 {offsets = [1], sizes = [1], strides = [1]} : vector<4xf32> to vector<1xf32>
        %1077 = arith.andi %466, %1050 : i1
        %1078 = arith.addi %1053, %215 overflow<nsw> : index
        %1079 = arith.select %1077, %1078, %c536870911 : index
        vector.store %1076, %438[%1079] : memref<?xf32, #amdgpu.address_space<fat_raw_buffer>>, vector<1xf32>
        %1080 = vector.extract_strided_slice %385 {offsets = [2], sizes = [1], strides = [1]} : vector<4xf32> to vector<1xf32>
        %1081 = arith.andi %466, %1058 : i1
        %1082 = arith.addi %1061, %215 overflow<nsw> : index
        %1083 = arith.select %1081, %1082, %c536870911 : index
        vector.store %1080, %438[%1083] : memref<?xf32, #amdgpu.address_space<fat_raw_buffer>>, vector<1xf32>
        %1084 = vector.extract_strided_slice %385 {offsets = [3], sizes = [1], strides = [1]} : vector<4xf32> to vector<1xf32>
        %1085 = arith.andi %466, %1066 : i1
        %1086 = arith.addi %1069, %215 overflow<nsw> : index
        %1087 = arith.select %1085, %1086, %c536870911 : index
        vector.store %1084, %438[%1087] : memref<?xf32, #amdgpu.address_space<fat_raw_buffer>>, vector<1xf32>
        %1088 = vector.extract_strided_slice %386 {offsets = [0], sizes = [1], strides = [1]} : vector<4xf32> to vector<1xf32>
        %1089 = arith.andi %484, %1042 : i1
        %1090 = arith.addi %1045, %219 overflow<nsw> : index
        %1091 = arith.select %1089, %1090, %c536870911 : index
        vector.store %1088, %438[%1091] : memref<?xf32, #amdgpu.address_space<fat_raw_buffer>>, vector<1xf32>
        %1092 = vector.extract_strided_slice %386 {offsets = [1], sizes = [1], strides = [1]} : vector<4xf32> to vector<1xf32>
        %1093 = arith.andi %484, %1050 : i1
        %1094 = arith.addi %1053, %219 overflow<nsw> : index
        %1095 = arith.select %1093, %1094, %c536870911 : index
        vector.store %1092, %438[%1095] : memref<?xf32, #amdgpu.address_space<fat_raw_buffer>>, vector<1xf32>
        %1096 = vector.extract_strided_slice %386 {offsets = [2], sizes = [1], strides = [1]} : vector<4xf32> to vector<1xf32>
        %1097 = arith.andi %484, %1058 : i1
        %1098 = arith.addi %1061, %219 overflow<nsw> : index
        %1099 = arith.select %1097, %1098, %c536870911 : index
        vector.store %1096, %438[%1099] : memref<?xf32, #amdgpu.address_space<fat_raw_buffer>>, vector<1xf32>
        %1100 = vector.extract_strided_slice %386 {offsets = [3], sizes = [1], strides = [1]} : vector<4xf32> to vector<1xf32>
        %1101 = arith.andi %484, %1066 : i1
        %1102 = arith.addi %1069, %219 overflow<nsw> : index
        %1103 = arith.select %1101, %1102, %c536870911 : index
        vector.store %1100, %438[%1103] : memref<?xf32, #amdgpu.address_space<fat_raw_buffer>>, vector<1xf32>
        %1104 = vector.extract_strided_slice %387 {offsets = [0], sizes = [1], strides = [1]} : vector<4xf32> to vector<1xf32>
        %1105 = arith.andi %502, %1042 : i1
        %1106 = arith.addi %1045, %223 overflow<nsw> : index
        %1107 = arith.select %1105, %1106, %c536870911 : index
        vector.store %1104, %438[%1107] : memref<?xf32, #amdgpu.address_space<fat_raw_buffer>>, vector<1xf32>
        %1108 = vector.extract_strided_slice %387 {offsets = [1], sizes = [1], strides = [1]} : vector<4xf32> to vector<1xf32>
        %1109 = arith.andi %502, %1050 : i1
        %1110 = arith.addi %1053, %223 overflow<nsw> : index
        %1111 = arith.select %1109, %1110, %c536870911 : index
        vector.store %1108, %438[%1111] : memref<?xf32, #amdgpu.address_space<fat_raw_buffer>>, vector<1xf32>
        %1112 = vector.extract_strided_slice %387 {offsets = [2], sizes = [1], strides = [1]} : vector<4xf32> to vector<1xf32>
        %1113 = arith.andi %502, %1058 : i1
        %1114 = arith.addi %1061, %223 overflow<nsw> : index
        %1115 = arith.select %1113, %1114, %c536870911 : index
        vector.store %1112, %438[%1115] : memref<?xf32, #amdgpu.address_space<fat_raw_buffer>>, vector<1xf32>
        %1116 = vector.extract_strided_slice %387 {offsets = [3], sizes = [1], strides = [1]} : vector<4xf32> to vector<1xf32>
        %1117 = arith.andi %502, %1066 : i1
        %1118 = arith.addi %1069, %223 overflow<nsw> : index
        %1119 = arith.select %1117, %1118, %c536870911 : index
        vector.store %1116, %438[%1119] : memref<?xf32, #amdgpu.address_space<fat_raw_buffer>>, vector<1xf32>
        %1120 = vector.extract_strided_slice %388 {offsets = [0], sizes = [1], strides = [1]} : vector<4xf32> to vector<1xf32>
        %1121 = arith.andi %520, %1042 : i1
        %1122 = arith.addi %1045, %227 overflow<nsw> : index
        %1123 = arith.select %1121, %1122, %c536870911 : index
        vector.store %1120, %438[%1123] : memref<?xf32, #amdgpu.address_space<fat_raw_buffer>>, vector<1xf32>
        %1124 = vector.extract_strided_slice %388 {offsets = [1], sizes = [1], strides = [1]} : vector<4xf32> to vector<1xf32>
        %1125 = arith.andi %520, %1050 : i1
        %1126 = arith.addi %1053, %227 overflow<nsw> : index
        %1127 = arith.select %1125, %1126, %c536870911 : index
        vector.store %1124, %438[%1127] : memref<?xf32, #amdgpu.address_space<fat_raw_buffer>>, vector<1xf32>
        %1128 = vector.extract_strided_slice %388 {offsets = [2], sizes = [1], strides = [1]} : vector<4xf32> to vector<1xf32>
        %1129 = arith.andi %520, %1058 : i1
        %1130 = arith.addi %1061, %227 overflow<nsw> : index
        %1131 = arith.select %1129, %1130, %c536870911 : index
        vector.store %1128, %438[%1131] : memref<?xf32, #amdgpu.address_space<fat_raw_buffer>>, vector<1xf32>
        %1132 = vector.extract_strided_slice %388 {offsets = [3], sizes = [1], strides = [1]} : vector<4xf32> to vector<1xf32>
        %1133 = arith.andi %520, %1066 : i1
        %1134 = arith.addi %1069, %227 overflow<nsw> : index
        %1135 = arith.select %1133, %1134, %c536870911 : index
        vector.store %1132, %438[%1135] : memref<?xf32, #amdgpu.address_space<fat_raw_buffer>>, vector<1xf32>
        %1136 = vector.extract_strided_slice %389 {offsets = [0], sizes = [1], strides = [1]} : vector<4xf32> to vector<1xf32>
        %1137 = arith.andi %538, %1042 : i1
        %1138 = arith.addi %1045, %231 overflow<nsw> : index
        %1139 = arith.select %1137, %1138, %c536870911 : index
        vector.store %1136, %438[%1139] : memref<?xf32, #amdgpu.address_space<fat_raw_buffer>>, vector<1xf32>
        %1140 = vector.extract_strided_slice %389 {offsets = [1], sizes = [1], strides = [1]} : vector<4xf32> to vector<1xf32>
        %1141 = arith.andi %538, %1050 : i1
        %1142 = arith.addi %1053, %231 overflow<nsw> : index
        %1143 = arith.select %1141, %1142, %c536870911 : index
        vector.store %1140, %438[%1143] : memref<?xf32, #amdgpu.address_space<fat_raw_buffer>>, vector<1xf32>
        %1144 = vector.extract_strided_slice %389 {offsets = [2], sizes = [1], strides = [1]} : vector<4xf32> to vector<1xf32>
        %1145 = arith.andi %538, %1058 : i1
        %1146 = arith.addi %1061, %231 overflow<nsw> : index
        %1147 = arith.select %1145, %1146, %c536870911 : index
        vector.store %1144, %438[%1147] : memref<?xf32, #amdgpu.address_space<fat_raw_buffer>>, vector<1xf32>
        %1148 = vector.extract_strided_slice %389 {offsets = [3], sizes = [1], strides = [1]} : vector<4xf32> to vector<1xf32>
        %1149 = arith.andi %538, %1066 : i1
        %1150 = arith.addi %1069, %231 overflow<nsw> : index
        %1151 = arith.select %1149, %1150, %c536870911 : index
        vector.store %1148, %438[%1151] : memref<?xf32, #amdgpu.address_space<fat_raw_buffer>>, vector<1xf32>
        %1152 = vector.extract_strided_slice %390 {offsets = [0], sizes = [1], strides = [1]} : vector<4xf32> to vector<1xf32>
        %1153 = arith.andi %556, %1042 : i1
        %1154 = arith.addi %1045, %235 overflow<nsw> : index
        %1155 = arith.select %1153, %1154, %c536870911 : index
        vector.store %1152, %438[%1155] : memref<?xf32, #amdgpu.address_space<fat_raw_buffer>>, vector<1xf32>
        %1156 = vector.extract_strided_slice %390 {offsets = [1], sizes = [1], strides = [1]} : vector<4xf32> to vector<1xf32>
        %1157 = arith.andi %556, %1050 : i1
        %1158 = arith.addi %1053, %235 overflow<nsw> : index
        %1159 = arith.select %1157, %1158, %c536870911 : index
        vector.store %1156, %438[%1159] : memref<?xf32, #amdgpu.address_space<fat_raw_buffer>>, vector<1xf32>
        %1160 = vector.extract_strided_slice %390 {offsets = [2], sizes = [1], strides = [1]} : vector<4xf32> to vector<1xf32>
        %1161 = arith.andi %556, %1058 : i1
        %1162 = arith.addi %1061, %235 overflow<nsw> : index
        %1163 = arith.select %1161, %1162, %c536870911 : index
        vector.store %1160, %438[%1163] : memref<?xf32, #amdgpu.address_space<fat_raw_buffer>>, vector<1xf32>
        %1164 = vector.extract_strided_slice %390 {offsets = [3], sizes = [1], strides = [1]} : vector<4xf32> to vector<1xf32>
        %1165 = arith.andi %556, %1066 : i1
        %1166 = arith.addi %1069, %235 overflow<nsw> : index
        %1167 = arith.select %1165, %1166, %c536870911 : index
        vector.store %1164, %438[%1167] : memref<?xf32, #amdgpu.address_space<fat_raw_buffer>>, vector<1xf32>
        %1168 = vector.extract_strided_slice %391 {offsets = [0], sizes = [1], strides = [1]} : vector<4xf32> to vector<1xf32>
        %1169 = arith.andi %574, %1042 : i1
        %1170 = arith.addi %1045, %239 overflow<nsw> : index
        %1171 = arith.select %1169, %1170, %c536870911 : index
        vector.store %1168, %438[%1171] : memref<?xf32, #amdgpu.address_space<fat_raw_buffer>>, vector<1xf32>
        %1172 = vector.extract_strided_slice %391 {offsets = [1], sizes = [1], strides = [1]} : vector<4xf32> to vector<1xf32>
        %1173 = arith.andi %574, %1050 : i1
        %1174 = arith.addi %1053, %239 overflow<nsw> : index
        %1175 = arith.select %1173, %1174, %c536870911 : index
        vector.store %1172, %438[%1175] : memref<?xf32, #amdgpu.address_space<fat_raw_buffer>>, vector<1xf32>
        %1176 = vector.extract_strided_slice %391 {offsets = [2], sizes = [1], strides = [1]} : vector<4xf32> to vector<1xf32>
        %1177 = arith.andi %574, %1058 : i1
        %1178 = arith.addi %1061, %239 overflow<nsw> : index
        %1179 = arith.select %1177, %1178, %c536870911 : index
        vector.store %1176, %438[%1179] : memref<?xf32, #amdgpu.address_space<fat_raw_buffer>>, vector<1xf32>
        %1180 = vector.extract_strided_slice %391 {offsets = [3], sizes = [1], strides = [1]} : vector<4xf32> to vector<1xf32>
        %1181 = arith.andi %574, %1066 : i1
        %1182 = arith.addi %1069, %239 overflow<nsw> : index
        %1183 = arith.select %1181, %1182, %c536870911 : index
        vector.store %1180, %438[%1183] : memref<?xf32, #amdgpu.address_space<fat_raw_buffer>>, vector<1xf32>
        %1184 = vector.extract_strided_slice %392 {offsets = [0], sizes = [1], strides = [1]} : vector<4xf32> to vector<1xf32>
        %1185 = arith.andi %592, %1042 : i1
        %1186 = arith.addi %1045, %243 overflow<nsw> : index
        %1187 = arith.select %1185, %1186, %c536870911 : index
        vector.store %1184, %438[%1187] : memref<?xf32, #amdgpu.address_space<fat_raw_buffer>>, vector<1xf32>
        %1188 = vector.extract_strided_slice %392 {offsets = [1], sizes = [1], strides = [1]} : vector<4xf32> to vector<1xf32>
        %1189 = arith.andi %592, %1050 : i1
        %1190 = arith.addi %1053, %243 overflow<nsw> : index
        %1191 = arith.select %1189, %1190, %c536870911 : index
        vector.store %1188, %438[%1191] : memref<?xf32, #amdgpu.address_space<fat_raw_buffer>>, vector<1xf32>
        %1192 = vector.extract_strided_slice %392 {offsets = [2], sizes = [1], strides = [1]} : vector<4xf32> to vector<1xf32>
        %1193 = arith.andi %592, %1058 : i1
        %1194 = arith.addi %1061, %243 overflow<nsw> : index
        %1195 = arith.select %1193, %1194, %c536870911 : index
        vector.store %1192, %438[%1195] : memref<?xf32, #amdgpu.address_space<fat_raw_buffer>>, vector<1xf32>
        %1196 = vector.extract_strided_slice %392 {offsets = [3], sizes = [1], strides = [1]} : vector<4xf32> to vector<1xf32>
        %1197 = arith.andi %592, %1066 : i1
        %1198 = arith.addi %1069, %243 overflow<nsw> : index
        %1199 = arith.select %1197, %1198, %c536870911 : index
        vector.store %1196, %438[%1199] : memref<?xf32, #amdgpu.address_space<fat_raw_buffer>>, vector<1xf32>
        %1200 = vector.extract_strided_slice %393 {offsets = [0], sizes = [1], strides = [1]} : vector<4xf32> to vector<1xf32>
        %1201 = arith.andi %610, %1042 : i1
        %1202 = arith.addi %1045, %247 overflow<nsw> : index
        %1203 = arith.select %1201, %1202, %c536870911 : index
        vector.store %1200, %438[%1203] : memref<?xf32, #amdgpu.address_space<fat_raw_buffer>>, vector<1xf32>
        %1204 = vector.extract_strided_slice %393 {offsets = [1], sizes = [1], strides = [1]} : vector<4xf32> to vector<1xf32>
        %1205 = arith.andi %610, %1050 : i1
        %1206 = arith.addi %1053, %247 overflow<nsw> : index
        %1207 = arith.select %1205, %1206, %c536870911 : index
        vector.store %1204, %438[%1207] : memref<?xf32, #amdgpu.address_space<fat_raw_buffer>>, vector<1xf32>
        %1208 = vector.extract_strided_slice %393 {offsets = [2], sizes = [1], strides = [1]} : vector<4xf32> to vector<1xf32>
        %1209 = arith.andi %610, %1058 : i1
        %1210 = arith.addi %1061, %247 overflow<nsw> : index
        %1211 = arith.select %1209, %1210, %c536870911 : index
        vector.store %1208, %438[%1211] : memref<?xf32, #amdgpu.address_space<fat_raw_buffer>>, vector<1xf32>
        %1212 = vector.extract_strided_slice %393 {offsets = [3], sizes = [1], strides = [1]} : vector<4xf32> to vector<1xf32>
        %1213 = arith.andi %610, %1066 : i1
        %1214 = arith.addi %1069, %247 overflow<nsw> : index
        %1215 = arith.select %1213, %1214, %c536870911 : index
        vector.store %1212, %438[%1215] : memref<?xf32, #amdgpu.address_space<fat_raw_buffer>>, vector<1xf32>
        %1216 = vector.extract_strided_slice %394 {offsets = [0], sizes = [1], strides = [1]} : vector<4xf32> to vector<1xf32>
        %1217 = arith.andi %628, %1042 : i1
        %1218 = arith.addi %1045, %251 overflow<nsw> : index
        %1219 = arith.select %1217, %1218, %c536870911 : index
        vector.store %1216, %438[%1219] : memref<?xf32, #amdgpu.address_space<fat_raw_buffer>>, vector<1xf32>
        %1220 = vector.extract_strided_slice %394 {offsets = [1], sizes = [1], strides = [1]} : vector<4xf32> to vector<1xf32>
        %1221 = arith.andi %628, %1050 : i1
        %1222 = arith.addi %1053, %251 overflow<nsw> : index
        %1223 = arith.select %1221, %1222, %c536870911 : index
        vector.store %1220, %438[%1223] : memref<?xf32, #amdgpu.address_space<fat_raw_buffer>>, vector<1xf32>
        %1224 = vector.extract_strided_slice %394 {offsets = [2], sizes = [1], strides = [1]} : vector<4xf32> to vector<1xf32>
        %1225 = arith.andi %628, %1058 : i1
        %1226 = arith.addi %1061, %251 overflow<nsw> : index
        %1227 = arith.select %1225, %1226, %c536870911 : index
        vector.store %1224, %438[%1227] : memref<?xf32, #amdgpu.address_space<fat_raw_buffer>>, vector<1xf32>
        %1228 = vector.extract_strided_slice %394 {offsets = [3], sizes = [1], strides = [1]} : vector<4xf32> to vector<1xf32>
        %1229 = arith.andi %628, %1066 : i1
        %1230 = arith.addi %1069, %251 overflow<nsw> : index
        %1231 = arith.select %1229, %1230, %c536870911 : index
        vector.store %1228, %438[%1231] : memref<?xf32, #amdgpu.address_space<fat_raw_buffer>>, vector<1xf32>
        %1232 = vector.extract_strided_slice %395 {offsets = [0], sizes = [1], strides = [1]} : vector<4xf32> to vector<1xf32>
        %1233 = arith.andi %646, %1042 : i1
        %1234 = arith.addi %1045, %255 overflow<nsw> : index
        %1235 = arith.select %1233, %1234, %c536870911 : index
        vector.store %1232, %438[%1235] : memref<?xf32, #amdgpu.address_space<fat_raw_buffer>>, vector<1xf32>
        %1236 = vector.extract_strided_slice %395 {offsets = [1], sizes = [1], strides = [1]} : vector<4xf32> to vector<1xf32>
        %1237 = arith.andi %646, %1050 : i1
        %1238 = arith.addi %1053, %255 overflow<nsw> : index
        %1239 = arith.select %1237, %1238, %c536870911 : index
        vector.store %1236, %438[%1239] : memref<?xf32, #amdgpu.address_space<fat_raw_buffer>>, vector<1xf32>
        %1240 = vector.extract_strided_slice %395 {offsets = [2], sizes = [1], strides = [1]} : vector<4xf32> to vector<1xf32>
        %1241 = arith.andi %646, %1058 : i1
        %1242 = arith.addi %1061, %255 overflow<nsw> : index
        %1243 = arith.select %1241, %1242, %c536870911 : index
        vector.store %1240, %438[%1243] : memref<?xf32, #amdgpu.address_space<fat_raw_buffer>>, vector<1xf32>
        %1244 = vector.extract_strided_slice %395 {offsets = [3], sizes = [1], strides = [1]} : vector<4xf32> to vector<1xf32>
        %1245 = arith.andi %646, %1066 : i1
        %1246 = arith.addi %1069, %255 overflow<nsw> : index
        %1247 = arith.select %1245, %1246, %c536870911 : index
        vector.store %1244, %438[%1247] : memref<?xf32, #amdgpu.address_space<fat_raw_buffer>>, vector<1xf32>
        %1248 = vector.extract_strided_slice %396 {offsets = [0], sizes = [1], strides = [1]} : vector<4xf32> to vector<1xf32>
        %1249 = arith.andi %664, %1042 : i1
        %1250 = arith.addi %1045, %259 overflow<nsw> : index
        %1251 = arith.select %1249, %1250, %c536870911 : index
        vector.store %1248, %438[%1251] : memref<?xf32, #amdgpu.address_space<fat_raw_buffer>>, vector<1xf32>
        %1252 = vector.extract_strided_slice %396 {offsets = [1], sizes = [1], strides = [1]} : vector<4xf32> to vector<1xf32>
        %1253 = arith.andi %664, %1050 : i1
        %1254 = arith.addi %1053, %259 overflow<nsw> : index
        %1255 = arith.select %1253, %1254, %c536870911 : index
        vector.store %1252, %438[%1255] : memref<?xf32, #amdgpu.address_space<fat_raw_buffer>>, vector<1xf32>
        %1256 = vector.extract_strided_slice %396 {offsets = [2], sizes = [1], strides = [1]} : vector<4xf32> to vector<1xf32>
        %1257 = arith.andi %664, %1058 : i1
        %1258 = arith.addi %1061, %259 overflow<nsw> : index
        %1259 = arith.select %1257, %1258, %c536870911 : index
        vector.store %1256, %438[%1259] : memref<?xf32, #amdgpu.address_space<fat_raw_buffer>>, vector<1xf32>
        %1260 = vector.extract_strided_slice %396 {offsets = [3], sizes = [1], strides = [1]} : vector<4xf32> to vector<1xf32>
        %1261 = arith.andi %664, %1066 : i1
        %1262 = arith.addi %1069, %259 overflow<nsw> : index
        %1263 = arith.select %1261, %1262, %c536870911 : index
        vector.store %1260, %438[%1263] : memref<?xf32, #amdgpu.address_space<fat_raw_buffer>>, vector<1xf32>
        %1264 = vector.extract_strided_slice %397 {offsets = [0], sizes = [1], strides = [1]} : vector<4xf32> to vector<1xf32>
        %1265 = arith.andi %682, %1042 : i1
        %1266 = arith.addi %1045, %263 overflow<nsw> : index
        %1267 = arith.select %1265, %1266, %c536870911 : index
        vector.store %1264, %438[%1267] : memref<?xf32, #amdgpu.address_space<fat_raw_buffer>>, vector<1xf32>
        %1268 = vector.extract_strided_slice %397 {offsets = [1], sizes = [1], strides = [1]} : vector<4xf32> to vector<1xf32>
        %1269 = arith.andi %682, %1050 : i1
        %1270 = arith.addi %1053, %263 overflow<nsw> : index
        %1271 = arith.select %1269, %1270, %c536870911 : index
        vector.store %1268, %438[%1271] : memref<?xf32, #amdgpu.address_space<fat_raw_buffer>>, vector<1xf32>
        %1272 = vector.extract_strided_slice %397 {offsets = [2], sizes = [1], strides = [1]} : vector<4xf32> to vector<1xf32>
        %1273 = arith.andi %682, %1058 : i1
        %1274 = arith.addi %1061, %263 overflow<nsw> : index
        %1275 = arith.select %1273, %1274, %c536870911 : index
        vector.store %1272, %438[%1275] : memref<?xf32, #amdgpu.address_space<fat_raw_buffer>>, vector<1xf32>
        %1276 = vector.extract_strided_slice %397 {offsets = [3], sizes = [1], strides = [1]} : vector<4xf32> to vector<1xf32>
        %1277 = arith.andi %682, %1066 : i1
        %1278 = arith.addi %1069, %263 overflow<nsw> : index
        %1279 = arith.select %1277, %1278, %c536870911 : index
        vector.store %1276, %438[%1279] : memref<?xf32, #amdgpu.address_space<fat_raw_buffer>>, vector<1xf32>
        %1280 = vector.extract_strided_slice %398 {offsets = [0], sizes = [1], strides = [1]} : vector<4xf32> to vector<1xf32>
        %1281 = arith.andi %700, %1042 : i1
        %1282 = arith.addi %1045, %267 overflow<nsw> : index
        %1283 = arith.select %1281, %1282, %c536870911 : index
        vector.store %1280, %438[%1283] : memref<?xf32, #amdgpu.address_space<fat_raw_buffer>>, vector<1xf32>
        %1284 = vector.extract_strided_slice %398 {offsets = [1], sizes = [1], strides = [1]} : vector<4xf32> to vector<1xf32>
        %1285 = arith.andi %700, %1050 : i1
        %1286 = arith.addi %1053, %267 overflow<nsw> : index
        %1287 = arith.select %1285, %1286, %c536870911 : index
        vector.store %1284, %438[%1287] : memref<?xf32, #amdgpu.address_space<fat_raw_buffer>>, vector<1xf32>
        %1288 = vector.extract_strided_slice %398 {offsets = [2], sizes = [1], strides = [1]} : vector<4xf32> to vector<1xf32>
        %1289 = arith.andi %700, %1058 : i1
        %1290 = arith.addi %1061, %267 overflow<nsw> : index
        %1291 = arith.select %1289, %1290, %c536870911 : index
        vector.store %1288, %438[%1291] : memref<?xf32, #amdgpu.address_space<fat_raw_buffer>>, vector<1xf32>
        %1292 = vector.extract_strided_slice %398 {offsets = [3], sizes = [1], strides = [1]} : vector<4xf32> to vector<1xf32>
        %1293 = arith.andi %700, %1066 : i1
        %1294 = arith.addi %1069, %267 overflow<nsw> : index
        %1295 = arith.select %1293, %1294, %c536870911 : index
        vector.store %1292, %438[%1295] : memref<?xf32, #amdgpu.address_space<fat_raw_buffer>>, vector<1xf32>
        %1296 = vector.extract_strided_slice %399 {offsets = [0], sizes = [1], strides = [1]} : vector<4xf32> to vector<1xf32>
        %1297 = arith.andi %718, %1042 : i1
        %1298 = arith.addi %1045, %271 overflow<nsw> : index
        %1299 = arith.select %1297, %1298, %c536870911 : index
        vector.store %1296, %438[%1299] : memref<?xf32, #amdgpu.address_space<fat_raw_buffer>>, vector<1xf32>
        %1300 = vector.extract_strided_slice %399 {offsets = [1], sizes = [1], strides = [1]} : vector<4xf32> to vector<1xf32>
        %1301 = arith.andi %718, %1050 : i1
        %1302 = arith.addi %1053, %271 overflow<nsw> : index
        %1303 = arith.select %1301, %1302, %c536870911 : index
        vector.store %1300, %438[%1303] : memref<?xf32, #amdgpu.address_space<fat_raw_buffer>>, vector<1xf32>
        %1304 = vector.extract_strided_slice %399 {offsets = [2], sizes = [1], strides = [1]} : vector<4xf32> to vector<1xf32>
        %1305 = arith.andi %718, %1058 : i1
        %1306 = arith.addi %1061, %271 overflow<nsw> : index
        %1307 = arith.select %1305, %1306, %c536870911 : index
        vector.store %1304, %438[%1307] : memref<?xf32, #amdgpu.address_space<fat_raw_buffer>>, vector<1xf32>
        %1308 = vector.extract_strided_slice %399 {offsets = [3], sizes = [1], strides = [1]} : vector<4xf32> to vector<1xf32>
        %1309 = arith.andi %718, %1066 : i1
        %1310 = arith.addi %1069, %271 overflow<nsw> : index
        %1311 = arith.select %1309, %1310, %c536870911 : index
        vector.store %1308, %438[%1311] : memref<?xf32, #amdgpu.address_space<fat_raw_buffer>>, vector<1xf32>
        %1312 = vector.extract_strided_slice %400 {offsets = [0], sizes = [1], strides = [1]} : vector<4xf32> to vector<1xf32>
        %1313 = arith.andi %736, %1042 : i1
        %1314 = arith.addi %1045, %275 overflow<nsw> : index
        %1315 = arith.select %1313, %1314, %c536870911 : index
        vector.store %1312, %438[%1315] : memref<?xf32, #amdgpu.address_space<fat_raw_buffer>>, vector<1xf32>
        %1316 = vector.extract_strided_slice %400 {offsets = [1], sizes = [1], strides = [1]} : vector<4xf32> to vector<1xf32>
        %1317 = arith.andi %736, %1050 : i1
        %1318 = arith.addi %1053, %275 overflow<nsw> : index
        %1319 = arith.select %1317, %1318, %c536870911 : index
        vector.store %1316, %438[%1319] : memref<?xf32, #amdgpu.address_space<fat_raw_buffer>>, vector<1xf32>
        %1320 = vector.extract_strided_slice %400 {offsets = [2], sizes = [1], strides = [1]} : vector<4xf32> to vector<1xf32>
        %1321 = arith.andi %736, %1058 : i1
        %1322 = arith.addi %1061, %275 overflow<nsw> : index
        %1323 = arith.select %1321, %1322, %c536870911 : index
        vector.store %1320, %438[%1323] : memref<?xf32, #amdgpu.address_space<fat_raw_buffer>>, vector<1xf32>
        %1324 = vector.extract_strided_slice %400 {offsets = [3], sizes = [1], strides = [1]} : vector<4xf32> to vector<1xf32>
        %1325 = arith.andi %736, %1066 : i1
        %1326 = arith.addi %1069, %275 overflow<nsw> : index
        %1327 = arith.select %1325, %1326, %c536870911 : index
        vector.store %1324, %438[%1327] : memref<?xf32, #amdgpu.address_space<fat_raw_buffer>>, vector<1xf32>
        %1328 = vector.extract_strided_slice %401 {offsets = [0], sizes = [1], strides = [1]} : vector<4xf32> to vector<1xf32>
        %1329 = arith.andi %754, %1042 : i1
        %1330 = arith.addi %1045, %279 overflow<nsw> : index
        %1331 = arith.select %1329, %1330, %c536870911 : index
        vector.store %1328, %438[%1331] : memref<?xf32, #amdgpu.address_space<fat_raw_buffer>>, vector<1xf32>
        %1332 = vector.extract_strided_slice %401 {offsets = [1], sizes = [1], strides = [1]} : vector<4xf32> to vector<1xf32>
        %1333 = arith.andi %754, %1050 : i1
        %1334 = arith.addi %1053, %279 overflow<nsw> : index
        %1335 = arith.select %1333, %1334, %c536870911 : index
        vector.store %1332, %438[%1335] : memref<?xf32, #amdgpu.address_space<fat_raw_buffer>>, vector<1xf32>
        %1336 = vector.extract_strided_slice %401 {offsets = [2], sizes = [1], strides = [1]} : vector<4xf32> to vector<1xf32>
        %1337 = arith.andi %754, %1058 : i1
        %1338 = arith.addi %1061, %279 overflow<nsw> : index
        %1339 = arith.select %1337, %1338, %c536870911 : index
        vector.store %1336, %438[%1339] : memref<?xf32, #amdgpu.address_space<fat_raw_buffer>>, vector<1xf32>
        %1340 = vector.extract_strided_slice %401 {offsets = [3], sizes = [1], strides = [1]} : vector<4xf32> to vector<1xf32>
        %1341 = arith.andi %754, %1066 : i1
        %1342 = arith.addi %1069, %279 overflow<nsw> : index
        %1343 = arith.select %1341, %1342, %c536870911 : index
        vector.store %1340, %438[%1343] : memref<?xf32, #amdgpu.address_space<fat_raw_buffer>>, vector<1xf32>
        %1344 = vector.extract_strided_slice %402 {offsets = [0], sizes = [1], strides = [1]} : vector<4xf32> to vector<1xf32>
        %1345 = arith.andi %772, %1042 : i1
        %1346 = arith.addi %1045, %283 overflow<nsw> : index
        %1347 = arith.select %1345, %1346, %c536870911 : index
        vector.store %1344, %438[%1347] : memref<?xf32, #amdgpu.address_space<fat_raw_buffer>>, vector<1xf32>
        %1348 = vector.extract_strided_slice %402 {offsets = [1], sizes = [1], strides = [1]} : vector<4xf32> to vector<1xf32>
        %1349 = arith.andi %772, %1050 : i1
        %1350 = arith.addi %1053, %283 overflow<nsw> : index
        %1351 = arith.select %1349, %1350, %c536870911 : index
        vector.store %1348, %438[%1351] : memref<?xf32, #amdgpu.address_space<fat_raw_buffer>>, vector<1xf32>
        %1352 = vector.extract_strided_slice %402 {offsets = [2], sizes = [1], strides = [1]} : vector<4xf32> to vector<1xf32>
        %1353 = arith.andi %772, %1058 : i1
        %1354 = arith.addi %1061, %283 overflow<nsw> : index
        %1355 = arith.select %1353, %1354, %c536870911 : index
        vector.store %1352, %438[%1355] : memref<?xf32, #amdgpu.address_space<fat_raw_buffer>>, vector<1xf32>
        %1356 = vector.extract_strided_slice %402 {offsets = [3], sizes = [1], strides = [1]} : vector<4xf32> to vector<1xf32>
        %1357 = arith.andi %772, %1066 : i1
        %1358 = arith.addi %1069, %283 overflow<nsw> : index
        %1359 = arith.select %1357, %1358, %c536870911 : index
        vector.store %1356, %438[%1359] : memref<?xf32, #amdgpu.address_space<fat_raw_buffer>>, vector<1xf32>
        %1360 = vector.extract_strided_slice %403 {offsets = [0], sizes = [1], strides = [1]} : vector<4xf32> to vector<1xf32>
        %1361 = arith.andi %790, %1042 : i1
        %1362 = arith.addi %1045, %287 overflow<nsw> : index
        %1363 = arith.select %1361, %1362, %c536870911 : index
        vector.store %1360, %438[%1363] : memref<?xf32, #amdgpu.address_space<fat_raw_buffer>>, vector<1xf32>
        %1364 = vector.extract_strided_slice %403 {offsets = [1], sizes = [1], strides = [1]} : vector<4xf32> to vector<1xf32>
        %1365 = arith.andi %790, %1050 : i1
        %1366 = arith.addi %1053, %287 overflow<nsw> : index
        %1367 = arith.select %1365, %1366, %c536870911 : index
        vector.store %1364, %438[%1367] : memref<?xf32, #amdgpu.address_space<fat_raw_buffer>>, vector<1xf32>
        %1368 = vector.extract_strided_slice %403 {offsets = [2], sizes = [1], strides = [1]} : vector<4xf32> to vector<1xf32>
        %1369 = arith.andi %790, %1058 : i1
        %1370 = arith.addi %1061, %287 overflow<nsw> : index
        %1371 = arith.select %1369, %1370, %c536870911 : index
        vector.store %1368, %438[%1371] : memref<?xf32, #amdgpu.address_space<fat_raw_buffer>>, vector<1xf32>
        %1372 = vector.extract_strided_slice %403 {offsets = [3], sizes = [1], strides = [1]} : vector<4xf32> to vector<1xf32>
        %1373 = arith.andi %790, %1066 : i1
        %1374 = arith.addi %1069, %287 overflow<nsw> : index
        %1375 = arith.select %1373, %1374, %c536870911 : index
        vector.store %1372, %438[%1375] : memref<?xf32, #amdgpu.address_space<fat_raw_buffer>>, vector<1xf32>
        %1376 = vector.extract_strided_slice %404 {offsets = [0], sizes = [1], strides = [1]} : vector<4xf32> to vector<1xf32>
        %1377 = arith.andi %808, %1042 : i1
        %1378 = arith.addi %1045, %291 overflow<nsw> : index
        %1379 = arith.select %1377, %1378, %c536870911 : index
        vector.store %1376, %438[%1379] : memref<?xf32, #amdgpu.address_space<fat_raw_buffer>>, vector<1xf32>
        %1380 = vector.extract_strided_slice %404 {offsets = [1], sizes = [1], strides = [1]} : vector<4xf32> to vector<1xf32>
        %1381 = arith.andi %808, %1050 : i1
        %1382 = arith.addi %1053, %291 overflow<nsw> : index
        %1383 = arith.select %1381, %1382, %c536870911 : index
        vector.store %1380, %438[%1383] : memref<?xf32, #amdgpu.address_space<fat_raw_buffer>>, vector<1xf32>
        %1384 = vector.extract_strided_slice %404 {offsets = [2], sizes = [1], strides = [1]} : vector<4xf32> to vector<1xf32>
        %1385 = arith.andi %808, %1058 : i1
        %1386 = arith.addi %1061, %291 overflow<nsw> : index
        %1387 = arith.select %1385, %1386, %c536870911 : index
        vector.store %1384, %438[%1387] : memref<?xf32, #amdgpu.address_space<fat_raw_buffer>>, vector<1xf32>
        %1388 = vector.extract_strided_slice %404 {offsets = [3], sizes = [1], strides = [1]} : vector<4xf32> to vector<1xf32>
        %1389 = arith.andi %808, %1066 : i1
        %1390 = arith.addi %1069, %291 overflow<nsw> : index
        %1391 = arith.select %1389, %1390, %c536870911 : index
        vector.store %1388, %438[%1391] : memref<?xf32, #amdgpu.address_space<fat_raw_buffer>>, vector<1xf32>
        %1392 = vector.extract_strided_slice %405 {offsets = [0], sizes = [1], strides = [1]} : vector<4xf32> to vector<1xf32>
        %1393 = arith.andi %826, %1042 : i1
        %1394 = arith.addi %1045, %295 overflow<nsw> : index
        %1395 = arith.select %1393, %1394, %c536870911 : index
        vector.store %1392, %438[%1395] : memref<?xf32, #amdgpu.address_space<fat_raw_buffer>>, vector<1xf32>
        %1396 = vector.extract_strided_slice %405 {offsets = [1], sizes = [1], strides = [1]} : vector<4xf32> to vector<1xf32>
        %1397 = arith.andi %826, %1050 : i1
        %1398 = arith.addi %1053, %295 overflow<nsw> : index
        %1399 = arith.select %1397, %1398, %c536870911 : index
        vector.store %1396, %438[%1399] : memref<?xf32, #amdgpu.address_space<fat_raw_buffer>>, vector<1xf32>
        %1400 = vector.extract_strided_slice %405 {offsets = [2], sizes = [1], strides = [1]} : vector<4xf32> to vector<1xf32>
        %1401 = arith.andi %826, %1058 : i1
        %1402 = arith.addi %1061, %295 overflow<nsw> : index
        %1403 = arith.select %1401, %1402, %c536870911 : index
        vector.store %1400, %438[%1403] : memref<?xf32, #amdgpu.address_space<fat_raw_buffer>>, vector<1xf32>
        %1404 = vector.extract_strided_slice %405 {offsets = [3], sizes = [1], strides = [1]} : vector<4xf32> to vector<1xf32>
        %1405 = arith.andi %826, %1066 : i1
        %1406 = arith.addi %1069, %295 overflow<nsw> : index
        %1407 = arith.select %1405, %1406, %c536870911 : index
        vector.store %1404, %438[%1407] : memref<?xf32, #amdgpu.address_space<fat_raw_buffer>>, vector<1xf32>
        %1408 = vector.extract_strided_slice %406 {offsets = [0], sizes = [1], strides = [1]} : vector<4xf32> to vector<1xf32>
        %1409 = arith.andi %844, %1042 : i1
        %1410 = arith.addi %1045, %299 overflow<nsw> : index
        %1411 = arith.select %1409, %1410, %c536870911 : index
        vector.store %1408, %438[%1411] : memref<?xf32, #amdgpu.address_space<fat_raw_buffer>>, vector<1xf32>
        %1412 = vector.extract_strided_slice %406 {offsets = [1], sizes = [1], strides = [1]} : vector<4xf32> to vector<1xf32>
        %1413 = arith.andi %844, %1050 : i1
        %1414 = arith.addi %1053, %299 overflow<nsw> : index
        %1415 = arith.select %1413, %1414, %c536870911 : index
        vector.store %1412, %438[%1415] : memref<?xf32, #amdgpu.address_space<fat_raw_buffer>>, vector<1xf32>
        %1416 = vector.extract_strided_slice %406 {offsets = [2], sizes = [1], strides = [1]} : vector<4xf32> to vector<1xf32>
        %1417 = arith.andi %844, %1058 : i1
        %1418 = arith.addi %1061, %299 overflow<nsw> : index
        %1419 = arith.select %1417, %1418, %c536870911 : index
        vector.store %1416, %438[%1419] : memref<?xf32, #amdgpu.address_space<fat_raw_buffer>>, vector<1xf32>
        %1420 = vector.extract_strided_slice %406 {offsets = [3], sizes = [1], strides = [1]} : vector<4xf32> to vector<1xf32>
        %1421 = arith.andi %844, %1066 : i1
        %1422 = arith.addi %1069, %299 overflow<nsw> : index
        %1423 = arith.select %1421, %1422, %c536870911 : index
        vector.store %1420, %438[%1423] : memref<?xf32, #amdgpu.address_space<fat_raw_buffer>>, vector<1xf32>
        %1424 = vector.extract_strided_slice %407 {offsets = [0], sizes = [1], strides = [1]} : vector<4xf32> to vector<1xf32>
        %1425 = arith.andi %862, %1042 : i1
        %1426 = arith.addi %1045, %303 overflow<nsw> : index
        %1427 = arith.select %1425, %1426, %c536870911 : index
        vector.store %1424, %438[%1427] : memref<?xf32, #amdgpu.address_space<fat_raw_buffer>>, vector<1xf32>
        %1428 = vector.extract_strided_slice %407 {offsets = [1], sizes = [1], strides = [1]} : vector<4xf32> to vector<1xf32>
        %1429 = arith.andi %862, %1050 : i1
        %1430 = arith.addi %1053, %303 overflow<nsw> : index
        %1431 = arith.select %1429, %1430, %c536870911 : index
        vector.store %1428, %438[%1431] : memref<?xf32, #amdgpu.address_space<fat_raw_buffer>>, vector<1xf32>
        %1432 = vector.extract_strided_slice %407 {offsets = [2], sizes = [1], strides = [1]} : vector<4xf32> to vector<1xf32>
        %1433 = arith.andi %862, %1058 : i1
        %1434 = arith.addi %1061, %303 overflow<nsw> : index
        %1435 = arith.select %1433, %1434, %c536870911 : index
        vector.store %1432, %438[%1435] : memref<?xf32, #amdgpu.address_space<fat_raw_buffer>>, vector<1xf32>
        %1436 = vector.extract_strided_slice %407 {offsets = [3], sizes = [1], strides = [1]} : vector<4xf32> to vector<1xf32>
        %1437 = arith.andi %862, %1066 : i1
        %1438 = arith.addi %1069, %303 overflow<nsw> : index
        %1439 = arith.select %1437, %1438, %c536870911 : index
        vector.store %1436, %438[%1439] : memref<?xf32, #amdgpu.address_space<fat_raw_buffer>>, vector<1xf32>
        %1440 = vector.extract_strided_slice %408 {offsets = [0], sizes = [1], strides = [1]} : vector<4xf32> to vector<1xf32>
        %1441 = arith.andi %880, %1042 : i1
        %1442 = arith.addi %1045, %307 overflow<nsw> : index
        %1443 = arith.select %1441, %1442, %c536870911 : index
        vector.store %1440, %438[%1443] : memref<?xf32, #amdgpu.address_space<fat_raw_buffer>>, vector<1xf32>
        %1444 = vector.extract_strided_slice %408 {offsets = [1], sizes = [1], strides = [1]} : vector<4xf32> to vector<1xf32>
        %1445 = arith.andi %880, %1050 : i1
        %1446 = arith.addi %1053, %307 overflow<nsw> : index
        %1447 = arith.select %1445, %1446, %c536870911 : index
        vector.store %1444, %438[%1447] : memref<?xf32, #amdgpu.address_space<fat_raw_buffer>>, vector<1xf32>
        %1448 = vector.extract_strided_slice %408 {offsets = [2], sizes = [1], strides = [1]} : vector<4xf32> to vector<1xf32>
        %1449 = arith.andi %880, %1058 : i1
        %1450 = arith.addi %1061, %307 overflow<nsw> : index
        %1451 = arith.select %1449, %1450, %c536870911 : index
        vector.store %1448, %438[%1451] : memref<?xf32, #amdgpu.address_space<fat_raw_buffer>>, vector<1xf32>
        %1452 = vector.extract_strided_slice %408 {offsets = [3], sizes = [1], strides = [1]} : vector<4xf32> to vector<1xf32>
        %1453 = arith.andi %880, %1066 : i1
        %1454 = arith.addi %1069, %307 overflow<nsw> : index
        %1455 = arith.select %1453, %1454, %c536870911 : index
        vector.store %1452, %438[%1455] : memref<?xf32, #amdgpu.address_space<fat_raw_buffer>>, vector<1xf32>
        %1456 = vector.extract_strided_slice %409 {offsets = [0], sizes = [1], strides = [1]} : vector<4xf32> to vector<1xf32>
        %1457 = arith.andi %898, %1042 : i1
        %1458 = arith.addi %1045, %311 overflow<nsw> : index
        %1459 = arith.select %1457, %1458, %c536870911 : index
        vector.store %1456, %438[%1459] : memref<?xf32, #amdgpu.address_space<fat_raw_buffer>>, vector<1xf32>
        %1460 = vector.extract_strided_slice %409 {offsets = [1], sizes = [1], strides = [1]} : vector<4xf32> to vector<1xf32>
        %1461 = arith.andi %898, %1050 : i1
        %1462 = arith.addi %1053, %311 overflow<nsw> : index
        %1463 = arith.select %1461, %1462, %c536870911 : index
        vector.store %1460, %438[%1463] : memref<?xf32, #amdgpu.address_space<fat_raw_buffer>>, vector<1xf32>
        %1464 = vector.extract_strided_slice %409 {offsets = [2], sizes = [1], strides = [1]} : vector<4xf32> to vector<1xf32>
        %1465 = arith.andi %898, %1058 : i1
        %1466 = arith.addi %1061, %311 overflow<nsw> : index
        %1467 = arith.select %1465, %1466, %c536870911 : index
        vector.store %1464, %438[%1467] : memref<?xf32, #amdgpu.address_space<fat_raw_buffer>>, vector<1xf32>
        %1468 = vector.extract_strided_slice %409 {offsets = [3], sizes = [1], strides = [1]} : vector<4xf32> to vector<1xf32>
        %1469 = arith.andi %898, %1066 : i1
        %1470 = arith.addi %1069, %311 overflow<nsw> : index
        %1471 = arith.select %1469, %1470, %c536870911 : index
        vector.store %1468, %438[%1471] : memref<?xf32, #amdgpu.address_space<fat_raw_buffer>>, vector<1xf32>
        %1472 = vector.extract_strided_slice %410 {offsets = [0], sizes = [1], strides = [1]} : vector<4xf32> to vector<1xf32>
        %1473 = arith.andi %916, %1042 : i1
        %1474 = arith.addi %1045, %315 overflow<nsw> : index
        %1475 = arith.select %1473, %1474, %c536870911 : index
        vector.store %1472, %438[%1475] : memref<?xf32, #amdgpu.address_space<fat_raw_buffer>>, vector<1xf32>
        %1476 = vector.extract_strided_slice %410 {offsets = [1], sizes = [1], strides = [1]} : vector<4xf32> to vector<1xf32>
        %1477 = arith.andi %916, %1050 : i1
        %1478 = arith.addi %1053, %315 overflow<nsw> : index
        %1479 = arith.select %1477, %1478, %c536870911 : index
        vector.store %1476, %438[%1479] : memref<?xf32, #amdgpu.address_space<fat_raw_buffer>>, vector<1xf32>
        %1480 = vector.extract_strided_slice %410 {offsets = [2], sizes = [1], strides = [1]} : vector<4xf32> to vector<1xf32>
        %1481 = arith.andi %916, %1058 : i1
        %1482 = arith.addi %1061, %315 overflow<nsw> : index
        %1483 = arith.select %1481, %1482, %c536870911 : index
        vector.store %1480, %438[%1483] : memref<?xf32, #amdgpu.address_space<fat_raw_buffer>>, vector<1xf32>
        %1484 = vector.extract_strided_slice %410 {offsets = [3], sizes = [1], strides = [1]} : vector<4xf32> to vector<1xf32>
        %1485 = arith.andi %916, %1066 : i1
        %1486 = arith.addi %1069, %315 overflow<nsw> : index
        %1487 = arith.select %1485, %1486, %c536870911 : index
        vector.store %1484, %438[%1487] : memref<?xf32, #amdgpu.address_space<fat_raw_buffer>>, vector<1xf32>
        %1488 = vector.extract_strided_slice %411 {offsets = [0], sizes = [1], strides = [1]} : vector<4xf32> to vector<1xf32>
        %1489 = arith.andi %934, %1042 : i1
        %1490 = arith.addi %1045, %319 overflow<nsw> : index
        %1491 = arith.select %1489, %1490, %c536870911 : index
        vector.store %1488, %438[%1491] : memref<?xf32, #amdgpu.address_space<fat_raw_buffer>>, vector<1xf32>
        %1492 = vector.extract_strided_slice %411 {offsets = [1], sizes = [1], strides = [1]} : vector<4xf32> to vector<1xf32>
        %1493 = arith.andi %934, %1050 : i1
        %1494 = arith.addi %1053, %319 overflow<nsw> : index
        %1495 = arith.select %1493, %1494, %c536870911 : index
        vector.store %1492, %438[%1495] : memref<?xf32, #amdgpu.address_space<fat_raw_buffer>>, vector<1xf32>
        %1496 = vector.extract_strided_slice %411 {offsets = [2], sizes = [1], strides = [1]} : vector<4xf32> to vector<1xf32>
        %1497 = arith.andi %934, %1058 : i1
        %1498 = arith.addi %1061, %319 overflow<nsw> : index
        %1499 = arith.select %1497, %1498, %c536870911 : index
        vector.store %1496, %438[%1499] : memref<?xf32, #amdgpu.address_space<fat_raw_buffer>>, vector<1xf32>
        %1500 = vector.extract_strided_slice %411 {offsets = [3], sizes = [1], strides = [1]} : vector<4xf32> to vector<1xf32>
        %1501 = arith.andi %934, %1066 : i1
        %1502 = arith.addi %1069, %319 overflow<nsw> : index
        %1503 = arith.select %1501, %1502, %c536870911 : index
        vector.store %1500, %438[%1503] : memref<?xf32, #amdgpu.address_space<fat_raw_buffer>>, vector<1xf32>
        %1504 = vector.extract_strided_slice %412 {offsets = [0], sizes = [1], strides = [1]} : vector<4xf32> to vector<1xf32>
        %1505 = arith.andi %952, %1042 : i1
        %1506 = arith.addi %1045, %323 overflow<nsw> : index
        %1507 = arith.select %1505, %1506, %c536870911 : index
        vector.store %1504, %438[%1507] : memref<?xf32, #amdgpu.address_space<fat_raw_buffer>>, vector<1xf32>
        %1508 = vector.extract_strided_slice %412 {offsets = [1], sizes = [1], strides = [1]} : vector<4xf32> to vector<1xf32>
        %1509 = arith.andi %952, %1050 : i1
        %1510 = arith.addi %1053, %323 overflow<nsw> : index
        %1511 = arith.select %1509, %1510, %c536870911 : index
        vector.store %1508, %438[%1511] : memref<?xf32, #amdgpu.address_space<fat_raw_buffer>>, vector<1xf32>
        %1512 = vector.extract_strided_slice %412 {offsets = [2], sizes = [1], strides = [1]} : vector<4xf32> to vector<1xf32>
        %1513 = arith.andi %952, %1058 : i1
        %1514 = arith.addi %1061, %323 overflow<nsw> : index
        %1515 = arith.select %1513, %1514, %c536870911 : index
        vector.store %1512, %438[%1515] : memref<?xf32, #amdgpu.address_space<fat_raw_buffer>>, vector<1xf32>
        %1516 = vector.extract_strided_slice %412 {offsets = [3], sizes = [1], strides = [1]} : vector<4xf32> to vector<1xf32>
        %1517 = arith.andi %952, %1066 : i1
        %1518 = arith.addi %1069, %323 overflow<nsw> : index
        %1519 = arith.select %1517, %1518, %c536870911 : index
        vector.store %1516, %438[%1519] : memref<?xf32, #amdgpu.address_space<fat_raw_buffer>>, vector<1xf32>
        %1520 = vector.extract_strided_slice %413 {offsets = [0], sizes = [1], strides = [1]} : vector<4xf32> to vector<1xf32>
        %1521 = arith.andi %970, %1042 : i1
        %1522 = arith.addi %1045, %327 overflow<nsw> : index
        %1523 = arith.select %1521, %1522, %c536870911 : index
        vector.store %1520, %438[%1523] : memref<?xf32, #amdgpu.address_space<fat_raw_buffer>>, vector<1xf32>
        %1524 = vector.extract_strided_slice %413 {offsets = [1], sizes = [1], strides = [1]} : vector<4xf32> to vector<1xf32>
        %1525 = arith.andi %970, %1050 : i1
        %1526 = arith.addi %1053, %327 overflow<nsw> : index
        %1527 = arith.select %1525, %1526, %c536870911 : index
        vector.store %1524, %438[%1527] : memref<?xf32, #amdgpu.address_space<fat_raw_buffer>>, vector<1xf32>
        %1528 = vector.extract_strided_slice %413 {offsets = [2], sizes = [1], strides = [1]} : vector<4xf32> to vector<1xf32>
        %1529 = arith.andi %970, %1058 : i1
        %1530 = arith.addi %1061, %327 overflow<nsw> : index
        %1531 = arith.select %1529, %1530, %c536870911 : index
        vector.store %1528, %438[%1531] : memref<?xf32, #amdgpu.address_space<fat_raw_buffer>>, vector<1xf32>
        %1532 = vector.extract_strided_slice %413 {offsets = [3], sizes = [1], strides = [1]} : vector<4xf32> to vector<1xf32>
        %1533 = arith.andi %970, %1066 : i1
        %1534 = arith.addi %1069, %327 overflow<nsw> : index
        %1535 = arith.select %1533, %1534, %c536870911 : index
        vector.store %1532, %438[%1535] : memref<?xf32, #amdgpu.address_space<fat_raw_buffer>>, vector<1xf32>
        %1536 = vector.extract_strided_slice %414 {offsets = [0], sizes = [1], strides = [1]} : vector<4xf32> to vector<1xf32>
        %1537 = arith.andi %988, %1042 : i1
        %1538 = arith.addi %1045, %331 overflow<nsw> : index
        %1539 = arith.select %1537, %1538, %c536870911 : index
        vector.store %1536, %438[%1539] : memref<?xf32, #amdgpu.address_space<fat_raw_buffer>>, vector<1xf32>
        %1540 = vector.extract_strided_slice %414 {offsets = [1], sizes = [1], strides = [1]} : vector<4xf32> to vector<1xf32>
        %1541 = arith.andi %988, %1050 : i1
        %1542 = arith.addi %1053, %331 overflow<nsw> : index
        %1543 = arith.select %1541, %1542, %c536870911 : index
        vector.store %1540, %438[%1543] : memref<?xf32, #amdgpu.address_space<fat_raw_buffer>>, vector<1xf32>
        %1544 = vector.extract_strided_slice %414 {offsets = [2], sizes = [1], strides = [1]} : vector<4xf32> to vector<1xf32>
        %1545 = arith.andi %988, %1058 : i1
        %1546 = arith.addi %1061, %331 overflow<nsw> : index
        %1547 = arith.select %1545, %1546, %c536870911 : index
        vector.store %1544, %438[%1547] : memref<?xf32, #amdgpu.address_space<fat_raw_buffer>>, vector<1xf32>
        %1548 = vector.extract_strided_slice %414 {offsets = [3], sizes = [1], strides = [1]} : vector<4xf32> to vector<1xf32>
        %1549 = arith.andi %988, %1066 : i1
        %1550 = arith.addi %1069, %331 overflow<nsw> : index
        %1551 = arith.select %1549, %1550, %c536870911 : index
        vector.store %1548, %438[%1551] : memref<?xf32, #amdgpu.address_space<fat_raw_buffer>>, vector<1xf32>
        %1552 = vector.extract_strided_slice %415 {offsets = [0], sizes = [1], strides = [1]} : vector<4xf32> to vector<1xf32>
        %1553 = arith.andi %1006, %1042 : i1
        %1554 = arith.addi %1045, %335 overflow<nsw> : index
        %1555 = arith.select %1553, %1554, %c536870911 : index
        vector.store %1552, %438[%1555] : memref<?xf32, #amdgpu.address_space<fat_raw_buffer>>, vector<1xf32>
        %1556 = vector.extract_strided_slice %415 {offsets = [1], sizes = [1], strides = [1]} : vector<4xf32> to vector<1xf32>
        %1557 = arith.andi %1006, %1050 : i1
        %1558 = arith.addi %1053, %335 overflow<nsw> : index
        %1559 = arith.select %1557, %1558, %c536870911 : index
        vector.store %1556, %438[%1559] : memref<?xf32, #amdgpu.address_space<fat_raw_buffer>>, vector<1xf32>
        %1560 = vector.extract_strided_slice %415 {offsets = [2], sizes = [1], strides = [1]} : vector<4xf32> to vector<1xf32>
        %1561 = arith.andi %1006, %1058 : i1
        %1562 = arith.addi %1061, %335 overflow<nsw> : index
        %1563 = arith.select %1561, %1562, %c536870911 : index
        vector.store %1560, %438[%1563] : memref<?xf32, #amdgpu.address_space<fat_raw_buffer>>, vector<1xf32>
        %1564 = vector.extract_strided_slice %415 {offsets = [3], sizes = [1], strides = [1]} : vector<4xf32> to vector<1xf32>
        %1565 = arith.andi %1006, %1066 : i1
        %1566 = arith.addi %1069, %335 overflow<nsw> : index
        %1567 = arith.select %1565, %1566, %c536870911 : index
        vector.store %1564, %438[%1567] : memref<?xf32, #amdgpu.address_space<fat_raw_buffer>>, vector<1xf32>
        %1568 = vector.extract_strided_slice %416 {offsets = [0], sizes = [1], strides = [1]} : vector<4xf32> to vector<1xf32>
        %1569 = arith.andi %1024, %1042 : i1
        %1570 = arith.addi %1045, %339 overflow<nsw> : index
        %1571 = arith.select %1569, %1570, %c536870911 : index
        vector.store %1568, %438[%1571] : memref<?xf32, #amdgpu.address_space<fat_raw_buffer>>, vector<1xf32>
        %1572 = vector.extract_strided_slice %416 {offsets = [1], sizes = [1], strides = [1]} : vector<4xf32> to vector<1xf32>
        %1573 = arith.andi %1024, %1050 : i1
        %1574 = arith.addi %1053, %339 overflow<nsw> : index
        %1575 = arith.select %1573, %1574, %c536870911 : index
        vector.store %1572, %438[%1575] : memref<?xf32, #amdgpu.address_space<fat_raw_buffer>>, vector<1xf32>
        %1576 = vector.extract_strided_slice %416 {offsets = [2], sizes = [1], strides = [1]} : vector<4xf32> to vector<1xf32>
        %1577 = arith.andi %1024, %1058 : i1
        %1578 = arith.addi %1061, %339 overflow<nsw> : index
        %1579 = arith.select %1577, %1578, %c536870911 : index
        vector.store %1576, %438[%1579] : memref<?xf32, #amdgpu.address_space<fat_raw_buffer>>, vector<1xf32>
        %1580 = vector.extract_strided_slice %416 {offsets = [3], sizes = [1], strides = [1]} : vector<4xf32> to vector<1xf32>
        %1581 = arith.andi %1024, %1066 : i1
        %1582 = arith.addi %1069, %339 overflow<nsw> : index
        %1583 = arith.select %1581, %1582, %c536870911 : index
        vector.store %1580, %438[%1583] : memref<?xf32, #amdgpu.address_space<fat_raw_buffer>>, vector<1xf32>
        return
      }
    }
  }
  func.func @isolated_benchmark(%arg0: tensor<642x28672xf16>, %arg1: tensor<8192x28672xf16>, %arg2: tensor<642x8192xf32>) -> tensor<642x8192xf32> {
    %0 = flow.dispatch @gemm::@gemm(%arg0, %arg1, %arg2) : (tensor<642x28672xf16>, tensor<8192x28672xf16>, tensor<642x8192xf32>) -> %arg2
    return %0 : tensor<642x8192xf32>
  }
}
