#map = affine_map<()[s0, s1] -> ((s0 * 2048 + s1 * 8) mod 79)>
#map1 = affine_map<()[s0, s1, s2, s3] -> (s2 * 144 + ((s0 * 2048 + s1 * 8) floordiv 79) mod 144 - (s2 floordiv 8) * 1152 + ((s3 + s2 floordiv 8) floordiv 13) * 144)>
#map2 = affine_map<()[s0, s1] -> (s0 * 2048 + s1 * 8 - ((s0 * 2048 + s1 * 8 + 67) floordiv 79) * 79 + 67)>
#map3 = affine_map<()[s0, s1, s2, s3] -> (s2 * 144 + ((s0 * 2048 + s1 * 8 + 4096) floordiv 79) mod 144 - (s2 floordiv 8) * 1152 + ((s3 + s2 floordiv 8) floordiv 13) * 144)>
#map4 = affine_map<()[s0, s1] -> (s0 * 2048 + s1 * 8 - ((s0 * 2048 + s1 * 8 + 55) floordiv 79) * 79 + 55)>
#map5 = affine_map<()[s0, s1, s2, s3] -> (s2 * 144 + ((s0 * 2048 + s1 * 8 + 8192) floordiv 79) mod 144 - (s2 floordiv 8) * 1152 + ((s3 + s2 floordiv 8) floordiv 13) * 144)>
#map6 = affine_map<()[s0, s1, s2, s3] -> (s3 * 80 + ((s0 * 2048 + s1 * 8) floordiv 79) mod 80 + (s2 floordiv 8) * 80 - ((s3 + s2 floordiv 8) floordiv 13) * 1040)>
#map7 = affine_map<()[s0, s1, s2, s3] -> (s3 * 80 + ((s0 * 2048 + s1 * 8 + 4096) floordiv 79) mod 80 + (s2 floordiv 8) * 80 - ((s3 + s2 floordiv 8) floordiv 13) * 1040)>
#map8 = affine_map<()[s0] -> ((s0 floordiv 64) * 36 + 36)>
#map9 = affine_map<()[s0, s1] -> (((s0 * 2048 + s1 * 8) floordiv 79) mod 144)>
#map10 = affine_map<()[s0, s1] -> (((s0 * 2048 + s1 * 8 + 4096) floordiv 79) mod 144)>
#map11 = affine_map<()[s0, s1] -> (((s0 * 2048 + s1 * 8 + 8192) floordiv 79) mod 144)>
#map12 = affine_map<()[s0] -> (s0 * 40 + 40)>
#map13 = affine_map<()[s0, s1] -> (((s0 * 2048 + s1 * 8) floordiv 79) mod 80)>
#map14 = affine_map<()[s0, s1] -> (((s0 * 2048 + s1 * 8 + 4096) floordiv 79) mod 80)>
#map15 = affine_map<()[s0] -> (((s0 mod 64) floordiv 32) * 4)>
#map16 = affine_map<()[s0, s1] -> (s0 + s1 * 40 - (s0 floordiv 32) * 32)>
#map17 = affine_map<()[s0] -> (((s0 mod 64) floordiv 32) * 4 + 8)>
#map18 = affine_map<()[s0] -> (((s0 mod 64) floordiv 32) * 4 + 16)>
#map19 = affine_map<()[s0] -> (((s0 mod 64) floordiv 32) * 4 + 24)>
#map20 = affine_map<()[s0] -> (((s0 mod 64) floordiv 32) * 4 + 32)>
#map21 = affine_map<()[s0] -> (((s0 mod 64) floordiv 32) * 4 + 40)>
#map22 = affine_map<()[s0] -> (((s0 mod 64) floordiv 32) * 4 + 48)>
#map23 = affine_map<()[s0] -> (((s0 mod 64) floordiv 32) * 4 + 56)>
#map24 = affine_map<()[s0] -> (((s0 mod 64) floordiv 32) * 4 + 64)>
#map25 = affine_map<()[s0] -> (((s0 mod 64) floordiv 32) * 4 + 72)>
#map26 = affine_map<()[s0, s1] -> (s0 + s1 * 40 - (s0 floordiv 32) * 32 + 32)>
#map27 = affine_map<()[s0] -> (s0 mod 32 + (s0 floordiv 64) * 36)>
#map28 = affine_map<()[s0] -> (s0 mod 32 + (s0 floordiv 64) * 36 + 32)>
#map29 = affine_map<()[s0, s1, s2] -> (s0 * 2048 + s1 * 8 + s2 * 79 - ((s0 * 2048 + s1 * 8) floordiv 79) * 79)>
#map30 = affine_map<()[s0, s1, s2] -> (s0 * 2048 + s1 * 8 + s2 * 79 - ((s0 * 2048 + s1 * 8) floordiv 79) * 79 + 79)>
#map31 = affine_map<()[s0, s1, s2] -> (s0 * 2048 + s1 * 8 + s2 * 79 - ((s0 * 2048 + s1 * 8 + 67) floordiv 79) * 79 + 67)>
#map32 = affine_map<()[s0, s1, s2] -> (s0 * 2048 + s1 * 8 + s2 * 79 - ((s0 * 2048 + s1 * 8 + 67) floordiv 79) * 79 + 146)>
#map33 = affine_map<()[s0, s1, s2] -> (s0 * 2048 + s1 * 8 + s2 * 79 - ((s0 * 2048 + s1 * 8 + 55) floordiv 79) * 79 + 55)>
#map34 = affine_map<()[s0, s1, s2] -> (s0 * 2048 + s1 * 8 + s2 * 79 - ((s0 * 2048 + s1 * 8 + 55) floordiv 79) * 79 + 134)>
#map35 = affine_map<()[s0, s1] -> (s0 * 80 + s1 * 40 + 40)>
#map36 = affine_map<()[s0] -> (s0 * 80 + 80)>
#map37 = affine_map<()[s0, s1, s2, s3] -> (s0 + s2 * 80 + s3 * 40 - (s0 floordiv 32) * 32 + (s1 floordiv 8) * 80 - ((s2 + s1 floordiv 8) floordiv 13) * 1040)>
#map38 = affine_map<()[s0, s1] -> (s0 * 144 + (s1 floordiv 64) * 36 + 36)>
#map39 = affine_map<()[s0] -> (s0 * 144 + 144)>
#map40 = affine_map<()[s0, s1, s2] -> (s0 * 144 - (s0 floordiv 8) * 1152 + ((s1 + s0 floordiv 8) floordiv 13) * 144 + (s2 floordiv 64) * 36 + ((s2 mod 64) floordiv 32) * 4)>
#map41 = affine_map<()[s0, s1] -> (s0 * 144 - (s0 floordiv 8) * 1152 + ((s1 + s0 floordiv 8) floordiv 13) * 144)>
#map42 = affine_map<()[s0, s1] -> (s1 * 80 + (s0 floordiv 8) * 80 - ((s1 + s0 floordiv 8) floordiv 13) * 1040)>
#map43 = affine_map<()[s0] -> ((s0 floordiv 64) * 36 + ((s0 mod 64) floordiv 32) * 4)>
#map44 = affine_map<()[s0, s1, s2] -> (s0 * 144 - (s0 floordiv 8) * 1152 + ((s1 + s0 floordiv 8) floordiv 13) * 144 + (s2 floordiv 64) * 36 + ((s2 mod 64) floordiv 32) * 4 + 1)>
#map45 = affine_map<()[s0] -> ((s0 floordiv 64) * 36 + ((s0 mod 64) floordiv 32) * 4 + 1)>
#map46 = affine_map<()[s0, s1, s2] -> (s0 * 144 - (s0 floordiv 8) * 1152 + ((s1 + s0 floordiv 8) floordiv 13) * 144 + (s2 floordiv 64) * 36 + ((s2 mod 64) floordiv 32) * 4 + 2)>
#map47 = affine_map<()[s0] -> ((s0 floordiv 64) * 36 + ((s0 mod 64) floordiv 32) * 4 + 2)>
#map48 = affine_map<()[s0, s1, s2] -> (s0 * 144 - (s0 floordiv 8) * 1152 + ((s1 + s0 floordiv 8) floordiv 13) * 144 + (s2 floordiv 64) * 36 + ((s2 mod 64) floordiv 32) * 4 + 3)>
#map49 = affine_map<()[s0] -> ((s0 floordiv 64) * 36 + ((s0 mod 64) floordiv 32) * 4 + 3)>
#map50 = affine_map<()[s0, s1, s2] -> (s0 * 144 - (s0 floordiv 8) * 1152 + ((s1 + s0 floordiv 8) floordiv 13) * 144 + (s2 floordiv 64) * 36 + ((s2 mod 64) floordiv 32) * 4 + 8)>
#map51 = affine_map<()[s0] -> ((s0 floordiv 64) * 36 + ((s0 mod 64) floordiv 32) * 4 + 8)>
#map52 = affine_map<()[s0, s1, s2] -> (s0 * 144 - (s0 floordiv 8) * 1152 + ((s1 + s0 floordiv 8) floordiv 13) * 144 + (s2 floordiv 64) * 36 + ((s2 mod 64) floordiv 32) * 4 + 9)>
#map53 = affine_map<()[s0] -> ((s0 floordiv 64) * 36 + ((s0 mod 64) floordiv 32) * 4 + 9)>
#map54 = affine_map<()[s0, s1, s2] -> (s0 * 144 - (s0 floordiv 8) * 1152 + ((s1 + s0 floordiv 8) floordiv 13) * 144 + (s2 floordiv 64) * 36 + ((s2 mod 64) floordiv 32) * 4 + 10)>
#map55 = affine_map<()[s0] -> ((s0 floordiv 64) * 36 + ((s0 mod 64) floordiv 32) * 4 + 10)>
#map56 = affine_map<()[s0, s1, s2] -> (s0 * 144 - (s0 floordiv 8) * 1152 + ((s1 + s0 floordiv 8) floordiv 13) * 144 + (s2 floordiv 64) * 36 + ((s2 mod 64) floordiv 32) * 4 + 11)>
#map57 = affine_map<()[s0] -> ((s0 floordiv 64) * 36 + ((s0 mod 64) floordiv 32) * 4 + 11)>
#map58 = affine_map<()[s0, s1, s2] -> (s0 * 144 - (s0 floordiv 8) * 1152 + ((s1 + s0 floordiv 8) floordiv 13) * 144 + (s2 floordiv 64) * 36 + ((s2 mod 64) floordiv 32) * 4 + 16)>
#map59 = affine_map<()[s0] -> ((s0 floordiv 64) * 36 + ((s0 mod 64) floordiv 32) * 4 + 16)>
#map60 = affine_map<()[s0, s1, s2] -> (s0 * 144 - (s0 floordiv 8) * 1152 + ((s1 + s0 floordiv 8) floordiv 13) * 144 + (s2 floordiv 64) * 36 + ((s2 mod 64) floordiv 32) * 4 + 17)>
#map61 = affine_map<()[s0] -> ((s0 floordiv 64) * 36 + ((s0 mod 64) floordiv 32) * 4 + 17)>
#map62 = affine_map<()[s0, s1, s2] -> (s0 * 144 - (s0 floordiv 8) * 1152 + ((s1 + s0 floordiv 8) floordiv 13) * 144 + (s2 floordiv 64) * 36 + ((s2 mod 64) floordiv 32) * 4 + 18)>
#map63 = affine_map<()[s0] -> ((s0 floordiv 64) * 36 + ((s0 mod 64) floordiv 32) * 4 + 18)>
#map64 = affine_map<()[s0, s1, s2] -> (s0 * 144 - (s0 floordiv 8) * 1152 + ((s1 + s0 floordiv 8) floordiv 13) * 144 + (s2 floordiv 64) * 36 + ((s2 mod 64) floordiv 32) * 4 + 19)>
#map65 = affine_map<()[s0] -> ((s0 floordiv 64) * 36 + ((s0 mod 64) floordiv 32) * 4 + 19)>
#map66 = affine_map<()[s0, s1, s2] -> (s0 * 144 - (s0 floordiv 8) * 1152 + ((s1 + s0 floordiv 8) floordiv 13) * 144 + (s2 floordiv 64) * 36 + ((s2 mod 64) floordiv 32) * 4 + 24)>
#map67 = affine_map<()[s0] -> ((s0 floordiv 64) * 36 + ((s0 mod 64) floordiv 32) * 4 + 24)>
#map68 = affine_map<()[s0, s1, s2] -> (s0 * 144 - (s0 floordiv 8) * 1152 + ((s1 + s0 floordiv 8) floordiv 13) * 144 + (s2 floordiv 64) * 36 + ((s2 mod 64) floordiv 32) * 4 + 25)>
#map69 = affine_map<()[s0] -> ((s0 floordiv 64) * 36 + ((s0 mod 64) floordiv 32) * 4 + 25)>
#map70 = affine_map<()[s0, s1, s2] -> (s0 * 144 - (s0 floordiv 8) * 1152 + ((s1 + s0 floordiv 8) floordiv 13) * 144 + (s2 floordiv 64) * 36 + ((s2 mod 64) floordiv 32) * 4 + 26)>
#map71 = affine_map<()[s0] -> ((s0 floordiv 64) * 36 + ((s0 mod 64) floordiv 32) * 4 + 26)>
#map72 = affine_map<()[s0, s1, s2] -> (s0 * 144 - (s0 floordiv 8) * 1152 + ((s1 + s0 floordiv 8) floordiv 13) * 144 + (s2 floordiv 64) * 36 + ((s2 mod 64) floordiv 32) * 4 + 27)>
#map73 = affine_map<()[s0] -> ((s0 floordiv 64) * 36 + ((s0 mod 64) floordiv 32) * 4 + 27)>
#map74 = affine_map<()[s0, s1, s2, s3] -> (s0 + s2 * 80 + s3 * 40 - (s0 floordiv 32) * 32 + (s1 floordiv 8) * 80 - ((s2 + s1 floordiv 8) floordiv 13) * 1040 + 32)>
#map75 = affine_map<()[s0, s1, s2] -> (s0 * 144 - (s0 floordiv 8) * 1152 + ((s1 + s0 floordiv 8) floordiv 13) * 144 + (s2 floordiv 64) * 36 + ((s2 mod 64) floordiv 32) * 4 + 32)>
#map76 = affine_map<()[s0] -> ((s0 floordiv 64) * 36 + ((s0 mod 64) floordiv 32) * 4 + 32)>
#map77 = affine_map<()[s0, s1, s2] -> (s0 * 144 - (s0 floordiv 8) * 1152 + ((s1 + s0 floordiv 8) floordiv 13) * 144 + (s2 floordiv 64) * 36 + ((s2 mod 64) floordiv 32) * 4 + 33)>
#map78 = affine_map<()[s0] -> ((s0 floordiv 64) * 36 + ((s0 mod 64) floordiv 32) * 4 + 33)>
#map79 = affine_map<()[s0, s1, s2] -> (s0 * 144 - (s0 floordiv 8) * 1152 + ((s1 + s0 floordiv 8) floordiv 13) * 144 + (s2 floordiv 64) * 36 + ((s2 mod 64) floordiv 32) * 4 + 34)>
#map80 = affine_map<()[s0] -> ((s0 floordiv 64) * 36 + ((s0 mod 64) floordiv 32) * 4 + 34)>
#map81 = affine_map<()[s0, s1, s2] -> (s0 * 144 - (s0 floordiv 8) * 1152 + ((s1 + s0 floordiv 8) floordiv 13) * 144 + (s2 floordiv 64) * 36 + ((s2 mod 64) floordiv 32) * 4 + 35)>
#map82 = affine_map<()[s0] -> ((s0 floordiv 64) * 36 + ((s0 mod 64) floordiv 32) * 4 + 35)>
#map83 = affine_map<()[s0, s1, s2] -> (s0 * 144 - (s0 floordiv 8) * 1152 + ((s1 + s0 floordiv 8) floordiv 13) * 144 + (s2 floordiv 64) * 36 + ((s2 mod 64) floordiv 32) * 4 + 40)>
#map84 = affine_map<()[s0] -> ((s0 floordiv 64) * 36 + ((s0 mod 64) floordiv 32) * 4 + 40)>
#map85 = affine_map<()[s0, s1, s2] -> (s0 * 144 - (s0 floordiv 8) * 1152 + ((s1 + s0 floordiv 8) floordiv 13) * 144 + (s2 floordiv 64) * 36 + ((s2 mod 64) floordiv 32) * 4 + 41)>
#map86 = affine_map<()[s0] -> ((s0 floordiv 64) * 36 + ((s0 mod 64) floordiv 32) * 4 + 41)>
#map87 = affine_map<()[s0, s1, s2] -> (s0 * 144 - (s0 floordiv 8) * 1152 + ((s1 + s0 floordiv 8) floordiv 13) * 144 + (s2 floordiv 64) * 36 + ((s2 mod 64) floordiv 32) * 4 + 42)>
#map88 = affine_map<()[s0] -> ((s0 floordiv 64) * 36 + ((s0 mod 64) floordiv 32) * 4 + 42)>
#map89 = affine_map<()[s0, s1, s2] -> (s0 * 144 - (s0 floordiv 8) * 1152 + ((s1 + s0 floordiv 8) floordiv 13) * 144 + (s2 floordiv 64) * 36 + ((s2 mod 64) floordiv 32) * 4 + 43)>
#map90 = affine_map<()[s0] -> ((s0 floordiv 64) * 36 + ((s0 mod 64) floordiv 32) * 4 + 43)>
#map91 = affine_map<()[s0, s1, s2] -> (s0 * 144 - (s0 floordiv 8) * 1152 + ((s1 + s0 floordiv 8) floordiv 13) * 144 + (s2 floordiv 64) * 36 + ((s2 mod 64) floordiv 32) * 4 + 48)>
#map92 = affine_map<()[s0] -> ((s0 floordiv 64) * 36 + ((s0 mod 64) floordiv 32) * 4 + 48)>
#map93 = affine_map<()[s0, s1, s2] -> (s0 * 144 - (s0 floordiv 8) * 1152 + ((s1 + s0 floordiv 8) floordiv 13) * 144 + (s2 floordiv 64) * 36 + ((s2 mod 64) floordiv 32) * 4 + 49)>
#map94 = affine_map<()[s0] -> ((s0 floordiv 64) * 36 + ((s0 mod 64) floordiv 32) * 4 + 49)>
#map95 = affine_map<()[s0, s1, s2] -> (s0 * 144 - (s0 floordiv 8) * 1152 + ((s1 + s0 floordiv 8) floordiv 13) * 144 + (s2 floordiv 64) * 36 + ((s2 mod 64) floordiv 32) * 4 + 50)>
#map96 = affine_map<()[s0] -> ((s0 floordiv 64) * 36 + ((s0 mod 64) floordiv 32) * 4 + 50)>
#map97 = affine_map<()[s0, s1, s2] -> (s0 * 144 - (s0 floordiv 8) * 1152 + ((s1 + s0 floordiv 8) floordiv 13) * 144 + (s2 floordiv 64) * 36 + ((s2 mod 64) floordiv 32) * 4 + 51)>
#map98 = affine_map<()[s0] -> ((s0 floordiv 64) * 36 + ((s0 mod 64) floordiv 32) * 4 + 51)>
#map99 = affine_map<()[s0, s1, s2] -> (s0 * 144 - (s0 floordiv 8) * 1152 + ((s1 + s0 floordiv 8) floordiv 13) * 144 + (s2 floordiv 64) * 36 + ((s2 mod 64) floordiv 32) * 4 + 56)>
#map100 = affine_map<()[s0] -> ((s0 floordiv 64) * 36 + ((s0 mod 64) floordiv 32) * 4 + 56)>
#map101 = affine_map<()[s0, s1, s2] -> (s0 * 144 - (s0 floordiv 8) * 1152 + ((s1 + s0 floordiv 8) floordiv 13) * 144 + (s2 floordiv 64) * 36 + ((s2 mod 64) floordiv 32) * 4 + 57)>
#map102 = affine_map<()[s0] -> ((s0 floordiv 64) * 36 + ((s0 mod 64) floordiv 32) * 4 + 57)>
#map103 = affine_map<()[s0, s1, s2] -> (s0 * 144 - (s0 floordiv 8) * 1152 + ((s1 + s0 floordiv 8) floordiv 13) * 144 + (s2 floordiv 64) * 36 + ((s2 mod 64) floordiv 32) * 4 + 58)>
#map104 = affine_map<()[s0] -> ((s0 floordiv 64) * 36 + ((s0 mod 64) floordiv 32) * 4 + 58)>
#map105 = affine_map<()[s0, s1, s2] -> (s0 * 144 - (s0 floordiv 8) * 1152 + ((s1 + s0 floordiv 8) floordiv 13) * 144 + (s2 floordiv 64) * 36 + ((s2 mod 64) floordiv 32) * 4 + 59)>
#map106 = affine_map<()[s0] -> ((s0 floordiv 64) * 36 + ((s0 mod 64) floordiv 32) * 4 + 59)>
#translation = #iree_codegen.translation_info<pipeline = None workgroup_size = [256, 2, 1] subgroup_size = 64>
module attributes {transform.with_named_sequence} {
  stream.executable private @gemm {
    stream.executable.export public @gemm workgroups() -> (index, index, index) {
      %c8 = arith.constant 8 : index
      %c13 = arith.constant 13 : index
      %c1 = arith.constant 1 : index
      stream.return %c8, %c13, %c1 : index, index, index
    }
    builtin.module {
      func.func @gemm(%arg0: !stream.binding, %arg1: !stream.binding, %arg2: !stream.binding) attributes {translation_info = #translation} {
        %cst = arith.constant dense<72> : vector<4xindex>
        %cst_0 = arith.constant dense<64> : vector<4xindex>
        %cst_1 = arith.constant dense<56> : vector<4xindex>
        %cst_2 = arith.constant dense<48> : vector<4xindex>
        %cst_3 = arith.constant dense<40> : vector<4xindex>
        %cst_4 = arith.constant dense<32> : vector<4xindex>
        %cst_5 = arith.constant dense<24> : vector<4xindex>
        %cst_6 = arith.constant dense<16> : vector<4xindex>
        %cst_7 = arith.constant dense<8> : vector<4xindex>
        %cst_8 = arith.constant dense<0.000000e+00> : vector<4xf16>
        %cst_9 = arith.constant dense<79> : vector<4xindex>
        %cst_10 = arith.constant dense<79> : vector<8xindex>
        %cst_11 = arith.constant dense<[0, 1, 2, 3, 4, 5, 6, 7]> : vector<8xi32>
        %cst_12 = arith.constant dense<1073741823> : vector<8xindex>
        %c1024_i14 = arith.constant 1024 : i14
        %cst_13 = arith.constant dense<1024> : vector<8xindex>
        %c536870911 = arith.constant 536870911 : index
        %c2147483643_i32 = arith.constant 2147483643 : i32
        %c536870910 = arith.constant 536870910 : index
        %cst_14 = arith.constant dense<[0, 1, 2, 3]> : vector<4xindex>
        %c12 = arith.constant 12 : index
        %c80 = arith.constant 80 : index
        %c2147483645_i32 = arith.constant 2147483645 : i32
        %c1073741822 = arith.constant 1073741822 : index
        %c1 = arith.constant 1 : index
        %c144 = arith.constant 144 : index
        %c1024 = arith.constant 1024 : index
        %cst_15 = arith.constant dense<[0, 1, 2, 3, 4, 5, 6, 7]> : vector<8xindex>
        %c0 = arith.constant 0 : index
        %c23904 = arith.constant 23904 : index
        %cst_16 = arith.constant dense<0.000000e+00> : vector<16xf32>
        %block_id_x = gpu.block_id  x upper_bound 8
        %block_id_y = gpu.block_id  y upper_bound 13
        %thread_id_x = gpu.thread_id  x upper_bound 256
        %thread_id_y = gpu.thread_id  y upper_bound 2
        %alloc = memref.alloc() : memref<37184xi8, #gpu.address_space<workgroup>>
        %view = memref.view %alloc[%c23904][] : memref<37184xi8, #gpu.address_space<workgroup>> to memref<80x83xf16, #gpu.address_space<workgroup>>
        %view_17 = memref.view %alloc[%c0][] : memref<37184xi8, #gpu.address_space<workgroup>> to memref<144x83xf16, #gpu.address_space<workgroup>>
        %0 = stream.binding.subspan %arg0[%c0] : !stream.binding -> memref<1024x1024xf16, strided<[1024, 1], offset: ?>>
        %1 = affine.apply #map()[%thread_id_y, %thread_id_x]
        %2 = vector.broadcast %1 : index to vector<8xindex>
        %3 = arith.addi %2, %cst_15 overflow<nsw, nuw> : vector<8xindex>
        %4 = arith.cmpi slt, %3, %cst_13 : vector<8xindex>
        %5 = affine.apply #map1()[%thread_id_y, %thread_id_x, %block_id_x, %block_id_y]
        %6 = arith.cmpi slt, %5, %c1024 : index
        %7 = vector.broadcast %6 : i1 to vector<8xi1>
        %8 = arith.andi %4, %7 : vector<8xi1>
        %9 = arith.muli %5, %c1024 overflow<nsw> : index
        %10 = arith.addi %9, %1 overflow<nsw> : index
        %base_buffer, %offset, %sizes:2, %strides:2 = memref.extract_strided_metadata %0 : memref<1024x1024xf16, strided<[1024, 1], offset: ?>> -> memref<f16>, index, index, index, index, index
        %reinterpret_cast = memref.reinterpret_cast %0 to offset: [%offset], sizes: [%c1073741822], strides: [1] : memref<1024x1024xf16, strided<[1024, 1], offset: ?>> to memref<?xf16, strided<[1], offset: ?>>
        %11 = amdgpu.fat_raw_buffer_cast %reinterpret_cast validBytes(%c2147483645_i32) cacheSwizzleStride(%c1024_i14) resetOffset : memref<?xf16, strided<[1], offset: ?>> to memref<?xf16, #amdgpu.address_space<fat_raw_buffer>>
        %12 = arith.index_cast %10 : index to i32
        %13 = vector.broadcast %12 : i32 to vector<8xi32>
        %14 = arith.addi %13, %cst_11 : vector<8xi32>
        %15 = arith.index_cast %14 : vector<8xi32> to vector<8xindex>
        %16 = arith.select %8, %15, %cst_12 : vector<8xi1>, vector<8xindex>
        %17 = vector.extract %16[0] : index from vector<8xindex>
        %18 = memref.load %11[%17] : memref<?xf16, #amdgpu.address_space<fat_raw_buffer>>
        %19 = vector.extract %16[1] : index from vector<8xindex>
        %20 = memref.load %11[%19] : memref<?xf16, #amdgpu.address_space<fat_raw_buffer>>
        %21 = vector.extract %16[2] : index from vector<8xindex>
        %22 = memref.load %11[%21] : memref<?xf16, #amdgpu.address_space<fat_raw_buffer>>
        %23 = vector.extract %16[3] : index from vector<8xindex>
        %24 = memref.load %11[%23] : memref<?xf16, #amdgpu.address_space<fat_raw_buffer>>
        %25 = vector.extract %16[4] : index from vector<8xindex>
        %26 = memref.load %11[%25] : memref<?xf16, #amdgpu.address_space<fat_raw_buffer>>
        %27 = vector.extract %16[5] : index from vector<8xindex>
        %28 = memref.load %11[%27] : memref<?xf16, #amdgpu.address_space<fat_raw_buffer>>
        %29 = vector.extract %16[6] : index from vector<8xindex>
        %30 = memref.load %11[%29] : memref<?xf16, #amdgpu.address_space<fat_raw_buffer>>
        %31 = vector.extract %16[7] : index from vector<8xindex>
        %32 = memref.load %11[%31] : memref<?xf16, #amdgpu.address_space<fat_raw_buffer>>
        %33 = vector.from_elements %18, %20, %22, %24, %26, %28, %30, %32 : vector<8xf16>
        %34 = affine.apply #map2()[%thread_id_y, %thread_id_x]
        %35 = vector.broadcast %34 : index to vector<8xindex>
        %36 = arith.addi %35, %cst_15 overflow<nsw, nuw> : vector<8xindex>
        %37 = arith.cmpi slt, %36, %cst_13 : vector<8xindex>
        %38 = affine.apply #map3()[%thread_id_y, %thread_id_x, %block_id_x, %block_id_y]
        %39 = arith.cmpi slt, %38, %c1024 : index
        %40 = vector.broadcast %39 : i1 to vector<8xi1>
        %41 = arith.andi %37, %40 : vector<8xi1>
        %42 = arith.muli %38, %c1024 overflow<nsw> : index
        %43 = arith.addi %42, %34 overflow<nsw> : index
        %44 = arith.index_cast %43 : index to i32
        %45 = vector.broadcast %44 : i32 to vector<8xi32>
        %46 = arith.addi %45, %cst_11 : vector<8xi32>
        %47 = arith.index_cast %46 : vector<8xi32> to vector<8xindex>
        %48 = arith.select %41, %47, %cst_12 : vector<8xi1>, vector<8xindex>
        %49 = vector.extract %48[0] : index from vector<8xindex>
        %50 = memref.load %11[%49] : memref<?xf16, #amdgpu.address_space<fat_raw_buffer>>
        %51 = vector.extract %48[1] : index from vector<8xindex>
        %52 = memref.load %11[%51] : memref<?xf16, #amdgpu.address_space<fat_raw_buffer>>
        %53 = vector.extract %48[2] : index from vector<8xindex>
        %54 = memref.load %11[%53] : memref<?xf16, #amdgpu.address_space<fat_raw_buffer>>
        %55 = vector.extract %48[3] : index from vector<8xindex>
        %56 = memref.load %11[%55] : memref<?xf16, #amdgpu.address_space<fat_raw_buffer>>
        %57 = vector.extract %48[4] : index from vector<8xindex>
        %58 = memref.load %11[%57] : memref<?xf16, #amdgpu.address_space<fat_raw_buffer>>
        %59 = vector.extract %48[5] : index from vector<8xindex>
        %60 = memref.load %11[%59] : memref<?xf16, #amdgpu.address_space<fat_raw_buffer>>
        %61 = vector.extract %48[6] : index from vector<8xindex>
        %62 = memref.load %11[%61] : memref<?xf16, #amdgpu.address_space<fat_raw_buffer>>
        %63 = vector.extract %48[7] : index from vector<8xindex>
        %64 = memref.load %11[%63] : memref<?xf16, #amdgpu.address_space<fat_raw_buffer>>
        %65 = vector.from_elements %50, %52, %54, %56, %58, %60, %62, %64 : vector<8xf16>
        %66 = affine.apply #map4()[%thread_id_y, %thread_id_x]
        %67 = vector.broadcast %66 : index to vector<8xindex>
        %68 = arith.addi %67, %cst_15 overflow<nsw, nuw> : vector<8xindex>
        %69 = arith.cmpi slt, %68, %cst_13 : vector<8xindex>
        %70 = affine.apply #map5()[%thread_id_y, %thread_id_x, %block_id_x, %block_id_y]
        %71 = arith.cmpi slt, %70, %c1024 : index
        %72 = vector.broadcast %71 : i1 to vector<8xi1>
        %73 = arith.andi %69, %72 : vector<8xi1>
        %74 = arith.muli %70, %c1024 overflow<nsw> : index
        %75 = arith.addi %74, %66 overflow<nsw> : index
        %76 = arith.index_cast %75 : index to i32
        %77 = vector.broadcast %76 : i32 to vector<8xi32>
        %78 = arith.addi %77, %cst_11 : vector<8xi32>
        %79 = arith.index_cast %78 : vector<8xi32> to vector<8xindex>
        %80 = arith.select %73, %79, %cst_12 : vector<8xi1>, vector<8xindex>
        %81 = vector.extract %80[0] : index from vector<8xindex>
        %82 = memref.load %11[%81] : memref<?xf16, #amdgpu.address_space<fat_raw_buffer>>
        %83 = vector.extract %80[1] : index from vector<8xindex>
        %84 = memref.load %11[%83] : memref<?xf16, #amdgpu.address_space<fat_raw_buffer>>
        %85 = vector.extract %80[2] : index from vector<8xindex>
        %86 = memref.load %11[%85] : memref<?xf16, #amdgpu.address_space<fat_raw_buffer>>
        %87 = vector.extract %80[3] : index from vector<8xindex>
        %88 = memref.load %11[%87] : memref<?xf16, #amdgpu.address_space<fat_raw_buffer>>
        %89 = vector.extract %80[4] : index from vector<8xindex>
        %90 = memref.load %11[%89] : memref<?xf16, #amdgpu.address_space<fat_raw_buffer>>
        %91 = vector.extract %80[5] : index from vector<8xindex>
        %92 = memref.load %11[%91] : memref<?xf16, #amdgpu.address_space<fat_raw_buffer>>
        %93 = vector.extract %80[6] : index from vector<8xindex>
        %94 = memref.load %11[%93] : memref<?xf16, #amdgpu.address_space<fat_raw_buffer>>
        %95 = vector.extract %80[7] : index from vector<8xindex>
        %96 = memref.load %11[%95] : memref<?xf16, #amdgpu.address_space<fat_raw_buffer>>
        %97 = vector.from_elements %82, %84, %86, %88, %90, %92, %94, %96 : vector<8xf16>
        %98 = stream.binding.subspan %arg1[%c0] : !stream.binding -> memref<1024x1024xf16, strided<[1024, 1], offset: ?>>
        %99 = affine.apply #map6()[%thread_id_y, %thread_id_x, %block_id_x, %block_id_y]
        %100 = arith.cmpi slt, %99, %c1024 : index
        %101 = vector.broadcast %100 : i1 to vector<8xi1>
        %102 = arith.andi %4, %101 : vector<8xi1>
        %103 = arith.muli %99, %c1024 overflow<nsw> : index
        %104 = arith.addi %103, %1 overflow<nsw> : index
        %base_buffer_18, %offset_19, %sizes_20:2, %strides_21:2 = memref.extract_strided_metadata %98 : memref<1024x1024xf16, strided<[1024, 1], offset: ?>> -> memref<f16>, index, index, index, index, index
        %reinterpret_cast_22 = memref.reinterpret_cast %98 to offset: [%offset_19], sizes: [%c1073741822], strides: [1] : memref<1024x1024xf16, strided<[1024, 1], offset: ?>> to memref<?xf16, strided<[1], offset: ?>>
        %105 = amdgpu.fat_raw_buffer_cast %reinterpret_cast_22 validBytes(%c2147483645_i32) cacheSwizzleStride(%c1024_i14) resetOffset : memref<?xf16, strided<[1], offset: ?>> to memref<?xf16, #amdgpu.address_space<fat_raw_buffer>>
        %106 = arith.index_cast %104 : index to i32
        %107 = vector.broadcast %106 : i32 to vector<8xi32>
        %108 = arith.addi %107, %cst_11 : vector<8xi32>
        %109 = arith.index_cast %108 : vector<8xi32> to vector<8xindex>
        %110 = arith.select %102, %109, %cst_12 : vector<8xi1>, vector<8xindex>
        %111 = vector.extract %110[0] : index from vector<8xindex>
        %112 = memref.load %105[%111] : memref<?xf16, #amdgpu.address_space<fat_raw_buffer>>
        %113 = vector.extract %110[1] : index from vector<8xindex>
        %114 = memref.load %105[%113] : memref<?xf16, #amdgpu.address_space<fat_raw_buffer>>
        %115 = vector.extract %110[2] : index from vector<8xindex>
        %116 = memref.load %105[%115] : memref<?xf16, #amdgpu.address_space<fat_raw_buffer>>
        %117 = vector.extract %110[3] : index from vector<8xindex>
        %118 = memref.load %105[%117] : memref<?xf16, #amdgpu.address_space<fat_raw_buffer>>
        %119 = vector.extract %110[4] : index from vector<8xindex>
        %120 = memref.load %105[%119] : memref<?xf16, #amdgpu.address_space<fat_raw_buffer>>
        %121 = vector.extract %110[5] : index from vector<8xindex>
        %122 = memref.load %105[%121] : memref<?xf16, #amdgpu.address_space<fat_raw_buffer>>
        %123 = vector.extract %110[6] : index from vector<8xindex>
        %124 = memref.load %105[%123] : memref<?xf16, #amdgpu.address_space<fat_raw_buffer>>
        %125 = vector.extract %110[7] : index from vector<8xindex>
        %126 = memref.load %105[%125] : memref<?xf16, #amdgpu.address_space<fat_raw_buffer>>
        %127 = vector.from_elements %112, %114, %116, %118, %120, %122, %124, %126 : vector<8xf16>
        %128 = affine.apply #map7()[%thread_id_y, %thread_id_x, %block_id_x, %block_id_y]
        %129 = arith.cmpi slt, %128, %c1024 : index
        %130 = vector.broadcast %129 : i1 to vector<8xi1>
        %131 = arith.andi %37, %130 : vector<8xi1>
        %132 = arith.muli %128, %c1024 overflow<nsw> : index
        %133 = arith.addi %132, %34 overflow<nsw> : index
        %134 = arith.index_cast %133 : index to i32
        %135 = vector.broadcast %134 : i32 to vector<8xi32>
        %136 = arith.addi %135, %cst_11 : vector<8xi32>
        %137 = arith.index_cast %136 : vector<8xi32> to vector<8xindex>
        %138 = arith.select %131, %137, %cst_12 : vector<8xi1>, vector<8xindex>
        %139 = vector.extract %138[0] : index from vector<8xindex>
        %140 = memref.load %105[%139] : memref<?xf16, #amdgpu.address_space<fat_raw_buffer>>
        %141 = vector.extract %138[1] : index from vector<8xindex>
        %142 = memref.load %105[%141] : memref<?xf16, #amdgpu.address_space<fat_raw_buffer>>
        %143 = vector.extract %138[2] : index from vector<8xindex>
        %144 = memref.load %105[%143] : memref<?xf16, #amdgpu.address_space<fat_raw_buffer>>
        %145 = vector.extract %138[3] : index from vector<8xindex>
        %146 = memref.load %105[%145] : memref<?xf16, #amdgpu.address_space<fat_raw_buffer>>
        %147 = vector.extract %138[4] : index from vector<8xindex>
        %148 = memref.load %105[%147] : memref<?xf16, #amdgpu.address_space<fat_raw_buffer>>
        %149 = vector.extract %138[5] : index from vector<8xindex>
        %150 = memref.load %105[%149] : memref<?xf16, #amdgpu.address_space<fat_raw_buffer>>
        %151 = vector.extract %138[6] : index from vector<8xindex>
        %152 = memref.load %105[%151] : memref<?xf16, #amdgpu.address_space<fat_raw_buffer>>
        %153 = vector.extract %138[7] : index from vector<8xindex>
        %154 = memref.load %105[%153] : memref<?xf16, #amdgpu.address_space<fat_raw_buffer>>
        %155 = vector.from_elements %140, %142, %144, %146, %148, %150, %152, %154 : vector<8xf16>
        %156 = arith.cmpi slt, %3, %cst_10 : vector<8xindex>
        %157 = affine.apply #map8()[%thread_id_x]
        %158 = arith.minsi %157, %c144 : index
        %159 = affine.apply #map9()[%thread_id_y, %thread_id_x]
        %160 = arith.cmpi slt, %159, %158 : index
        %161 = vector.broadcast %160 : i1 to vector<8xi1>
        %162 = arith.andi %156, %161 : vector<8xi1>
        vector.maskedstore %view_17[%159, %1], %162, %33 : memref<144x83xf16, #gpu.address_space<workgroup>>, vector<8xi1>, vector<8xf16>
        %163 = arith.cmpi slt, %36, %cst_10 : vector<8xindex>
        %164 = affine.apply #map10()[%thread_id_y, %thread_id_x]
        %165 = arith.cmpi slt, %164, %158 : index
        %166 = vector.broadcast %165 : i1 to vector<8xi1>
        %167 = arith.andi %163, %166 : vector<8xi1>
        vector.maskedstore %view_17[%164, %34], %167, %65 : memref<144x83xf16, #gpu.address_space<workgroup>>, vector<8xi1>, vector<8xf16>
        %168 = arith.cmpi slt, %68, %cst_10 : vector<8xindex>
        %169 = affine.apply #map11()[%thread_id_y, %thread_id_x]
        %170 = arith.cmpi slt, %169, %158 : index
        %171 = vector.broadcast %170 : i1 to vector<8xi1>
        %172 = arith.andi %168, %171 : vector<8xi1>
        vector.maskedstore %view_17[%169, %66], %172, %97 : memref<144x83xf16, #gpu.address_space<workgroup>>, vector<8xi1>, vector<8xf16>
        %173 = affine.apply #map12()[%thread_id_y]
        %174 = arith.minsi %173, %c80 : index
        %175 = affine.apply #map13()[%thread_id_y, %thread_id_x]
        %176 = arith.cmpi slt, %175, %174 : index
        %177 = vector.broadcast %176 : i1 to vector<8xi1>
        %178 = arith.andi %156, %177 : vector<8xi1>
        vector.maskedstore %view[%175, %1], %178, %127 : memref<80x83xf16, #gpu.address_space<workgroup>>, vector<8xi1>, vector<8xf16>
        %179 = affine.apply #map14()[%thread_id_y, %thread_id_x]
        %180 = arith.cmpi slt, %179, %174 : index
        %181 = vector.broadcast %180 : i1 to vector<8xi1>
        %182 = arith.andi %163, %181 : vector<8xi1>
        vector.maskedstore %view[%179, %34], %182, %155 : memref<80x83xf16, #gpu.address_space<workgroup>>, vector<8xi1>, vector<8xf16>
        %183 = affine.apply #map15()[%thread_id_x]
        %184 = vector.broadcast %183 : index to vector<4xindex>
        %185 = arith.addi %184, %cst_14 overflow<nsw, nuw> : vector<4xindex>
        %186 = arith.cmpi slt, %185, %cst_9 : vector<4xindex>
        %187 = affine.apply #map16()[%thread_id_x, %thread_id_y]
        %188 = arith.cmpi slt, %187, %174 : index
        %189 = vector.broadcast %188 : i1 to vector<4xi1>
        %190 = arith.andi %186, %189 : vector<4xi1>
        %191 = arith.addi %185, %cst_7 overflow<nsw, nuw> : vector<4xindex>
        %192 = arith.cmpi slt, %191, %cst_9 : vector<4xindex>
        %193 = arith.andi %192, %189 : vector<4xi1>
        %194 = affine.apply #map17()[%thread_id_x]
        %195 = arith.addi %185, %cst_6 overflow<nsw, nuw> : vector<4xindex>
        %196 = arith.cmpi slt, %195, %cst_9 : vector<4xindex>
        %197 = arith.andi %196, %189 : vector<4xi1>
        %198 = affine.apply #map18()[%thread_id_x]
        %199 = arith.addi %185, %cst_5 overflow<nsw, nuw> : vector<4xindex>
        %200 = arith.cmpi slt, %199, %cst_9 : vector<4xindex>
        %201 = arith.andi %200, %189 : vector<4xi1>
        %202 = affine.apply #map19()[%thread_id_x]
        %203 = arith.addi %185, %cst_4 overflow<nsw, nuw> : vector<4xindex>
        %204 = arith.cmpi slt, %203, %cst_9 : vector<4xindex>
        %205 = arith.andi %204, %189 : vector<4xi1>
        %206 = affine.apply #map20()[%thread_id_x]
        %207 = arith.addi %185, %cst_3 overflow<nsw, nuw> : vector<4xindex>
        %208 = arith.cmpi slt, %207, %cst_9 : vector<4xindex>
        %209 = arith.andi %208, %189 : vector<4xi1>
        %210 = affine.apply #map21()[%thread_id_x]
        %211 = arith.addi %185, %cst_2 overflow<nsw, nuw> : vector<4xindex>
        %212 = arith.cmpi slt, %211, %cst_9 : vector<4xindex>
        %213 = arith.andi %212, %189 : vector<4xi1>
        %214 = affine.apply #map22()[%thread_id_x]
        %215 = arith.addi %185, %cst_1 overflow<nsw, nuw> : vector<4xindex>
        %216 = arith.cmpi slt, %215, %cst_9 : vector<4xindex>
        %217 = arith.andi %216, %189 : vector<4xi1>
        %218 = affine.apply #map23()[%thread_id_x]
        %219 = arith.addi %185, %cst_0 overflow<nsw, nuw> : vector<4xindex>
        %220 = arith.cmpi slt, %219, %cst_9 : vector<4xindex>
        %221 = arith.andi %220, %189 : vector<4xi1>
        %222 = affine.apply #map24()[%thread_id_x]
        %223 = arith.addi %185, %cst overflow<nsw, nuw> : vector<4xindex>
        %224 = arith.cmpi slt, %223, %cst_9 : vector<4xindex>
        %225 = arith.andi %224, %189 : vector<4xi1>
        %226 = affine.apply #map25()[%thread_id_x]
        %227 = affine.apply #map26()[%thread_id_x, %thread_id_y]
        %228 = arith.cmpi slt, %227, %174 : index
        %229 = vector.broadcast %228 : i1 to vector<4xi1>
        %230 = arith.andi %186, %229 : vector<4xi1>
        %231 = arith.andi %192, %229 : vector<4xi1>
        %232 = arith.andi %196, %229 : vector<4xi1>
        %233 = arith.andi %200, %229 : vector<4xi1>
        %234 = arith.andi %204, %229 : vector<4xi1>
        %235 = arith.andi %208, %229 : vector<4xi1>
        %236 = arith.andi %212, %229 : vector<4xi1>
        %237 = arith.andi %216, %229 : vector<4xi1>
        %238 = arith.andi %220, %229 : vector<4xi1>
        %239 = arith.andi %224, %229 : vector<4xi1>
        %240 = affine.apply #map27()[%thread_id_x]
        %241 = arith.cmpi slt, %240, %158 : index
        %242 = vector.broadcast %241 : i1 to vector<4xi1>
        %243 = arith.andi %186, %242 : vector<4xi1>
        %244 = arith.andi %192, %242 : vector<4xi1>
        %245 = arith.andi %196, %242 : vector<4xi1>
        %246 = arith.andi %200, %242 : vector<4xi1>
        %247 = arith.andi %204, %242 : vector<4xi1>
        %248 = arith.andi %208, %242 : vector<4xi1>
        %249 = arith.andi %212, %242 : vector<4xi1>
        %250 = arith.andi %216, %242 : vector<4xi1>
        %251 = arith.andi %220, %242 : vector<4xi1>
        %252 = arith.andi %224, %242 : vector<4xi1>
        %253 = affine.apply #map28()[%thread_id_x]
        %254 = arith.cmpi slt, %253, %158 : index
        %255 = vector.broadcast %254 : i1 to vector<4xi1>
        %256 = arith.andi %186, %255 : vector<4xi1>
        %257 = arith.andi %192, %255 : vector<4xi1>
        %258 = arith.andi %196, %255 : vector<4xi1>
        %259 = arith.andi %200, %255 : vector<4xi1>
        %260 = arith.andi %204, %255 : vector<4xi1>
        %261 = arith.andi %208, %255 : vector<4xi1>
        %262 = arith.andi %212, %255 : vector<4xi1>
        %263 = arith.andi %216, %255 : vector<4xi1>
        %264 = arith.andi %220, %255 : vector<4xi1>
        %265 = arith.andi %224, %255 : vector<4xi1>
        %266:4 = scf.for %arg3 = %c0 to %c12 step %c1 iter_args(%arg4 = %cst_16, %arg5 = %cst_16, %arg6 = %cst_16, %arg7 = %cst_16) -> (vector<16xf32>, vector<16xf32>, vector<16xf32>, vector<16xf32>) {
          amdgpu.lds_barrier
          %833 = vector.maskedload %view[%187, %183], %190, %cst_8 : memref<80x83xf16, #gpu.address_space<workgroup>>, vector<4xi1>, vector<4xf16> into vector<4xf16>
          %834 = vector.maskedload %view[%187, %194], %193, %cst_8 : memref<80x83xf16, #gpu.address_space<workgroup>>, vector<4xi1>, vector<4xf16> into vector<4xf16>
          %835 = vector.maskedload %view[%187, %198], %197, %cst_8 : memref<80x83xf16, #gpu.address_space<workgroup>>, vector<4xi1>, vector<4xf16> into vector<4xf16>
          %836 = vector.maskedload %view[%187, %202], %201, %cst_8 : memref<80x83xf16, #gpu.address_space<workgroup>>, vector<4xi1>, vector<4xf16> into vector<4xf16>
          %837 = vector.maskedload %view[%187, %206], %205, %cst_8 : memref<80x83xf16, #gpu.address_space<workgroup>>, vector<4xi1>, vector<4xf16> into vector<4xf16>
          %838 = vector.maskedload %view[%187, %210], %209, %cst_8 : memref<80x83xf16, #gpu.address_space<workgroup>>, vector<4xi1>, vector<4xf16> into vector<4xf16>
          %839 = vector.maskedload %view[%187, %214], %213, %cst_8 : memref<80x83xf16, #gpu.address_space<workgroup>>, vector<4xi1>, vector<4xf16> into vector<4xf16>
          %840 = vector.maskedload %view[%187, %218], %217, %cst_8 : memref<80x83xf16, #gpu.address_space<workgroup>>, vector<4xi1>, vector<4xf16> into vector<4xf16>
          %841 = vector.maskedload %view[%187, %222], %221, %cst_8 : memref<80x83xf16, #gpu.address_space<workgroup>>, vector<4xi1>, vector<4xf16> into vector<4xf16>
          %842 = vector.maskedload %view[%187, %226], %225, %cst_8 : memref<80x83xf16, #gpu.address_space<workgroup>>, vector<4xi1>, vector<4xf16> into vector<4xf16>
          %843 = vector.maskedload %view[%227, %183], %230, %cst_8 : memref<80x83xf16, #gpu.address_space<workgroup>>, vector<4xi1>, vector<4xf16> into vector<4xf16>
          %844 = vector.maskedload %view[%227, %194], %231, %cst_8 : memref<80x83xf16, #gpu.address_space<workgroup>>, vector<4xi1>, vector<4xf16> into vector<4xf16>
          %845 = vector.maskedload %view[%227, %198], %232, %cst_8 : memref<80x83xf16, #gpu.address_space<workgroup>>, vector<4xi1>, vector<4xf16> into vector<4xf16>
          %846 = vector.maskedload %view[%227, %202], %233, %cst_8 : memref<80x83xf16, #gpu.address_space<workgroup>>, vector<4xi1>, vector<4xf16> into vector<4xf16>
          %847 = vector.maskedload %view[%227, %206], %234, %cst_8 : memref<80x83xf16, #gpu.address_space<workgroup>>, vector<4xi1>, vector<4xf16> into vector<4xf16>
          %848 = vector.maskedload %view[%227, %210], %235, %cst_8 : memref<80x83xf16, #gpu.address_space<workgroup>>, vector<4xi1>, vector<4xf16> into vector<4xf16>
          %849 = vector.maskedload %view[%227, %214], %236, %cst_8 : memref<80x83xf16, #gpu.address_space<workgroup>>, vector<4xi1>, vector<4xf16> into vector<4xf16>
          %850 = vector.maskedload %view[%227, %218], %237, %cst_8 : memref<80x83xf16, #gpu.address_space<workgroup>>, vector<4xi1>, vector<4xf16> into vector<4xf16>
          %851 = vector.maskedload %view[%227, %222], %238, %cst_8 : memref<80x83xf16, #gpu.address_space<workgroup>>, vector<4xi1>, vector<4xf16> into vector<4xf16>
          %852 = vector.maskedload %view[%227, %226], %239, %cst_8 : memref<80x83xf16, #gpu.address_space<workgroup>>, vector<4xi1>, vector<4xf16> into vector<4xf16>
          %853 = vector.maskedload %view_17[%240, %183], %243, %cst_8 : memref<144x83xf16, #gpu.address_space<workgroup>>, vector<4xi1>, vector<4xf16> into vector<4xf16>
          %854 = vector.maskedload %view_17[%240, %194], %244, %cst_8 : memref<144x83xf16, #gpu.address_space<workgroup>>, vector<4xi1>, vector<4xf16> into vector<4xf16>
          %855 = vector.maskedload %view_17[%240, %198], %245, %cst_8 : memref<144x83xf16, #gpu.address_space<workgroup>>, vector<4xi1>, vector<4xf16> into vector<4xf16>
          %856 = vector.maskedload %view_17[%240, %202], %246, %cst_8 : memref<144x83xf16, #gpu.address_space<workgroup>>, vector<4xi1>, vector<4xf16> into vector<4xf16>
          %857 = vector.maskedload %view_17[%240, %206], %247, %cst_8 : memref<144x83xf16, #gpu.address_space<workgroup>>, vector<4xi1>, vector<4xf16> into vector<4xf16>
          %858 = vector.maskedload %view_17[%240, %210], %248, %cst_8 : memref<144x83xf16, #gpu.address_space<workgroup>>, vector<4xi1>, vector<4xf16> into vector<4xf16>
          %859 = vector.maskedload %view_17[%240, %214], %249, %cst_8 : memref<144x83xf16, #gpu.address_space<workgroup>>, vector<4xi1>, vector<4xf16> into vector<4xf16>
          %860 = vector.maskedload %view_17[%240, %218], %250, %cst_8 : memref<144x83xf16, #gpu.address_space<workgroup>>, vector<4xi1>, vector<4xf16> into vector<4xf16>
          %861 = vector.maskedload %view_17[%240, %222], %251, %cst_8 : memref<144x83xf16, #gpu.address_space<workgroup>>, vector<4xi1>, vector<4xf16> into vector<4xf16>
          %862 = vector.maskedload %view_17[%240, %226], %252, %cst_8 : memref<144x83xf16, #gpu.address_space<workgroup>>, vector<4xi1>, vector<4xf16> into vector<4xf16>
          %863 = vector.maskedload %view_17[%253, %183], %256, %cst_8 : memref<144x83xf16, #gpu.address_space<workgroup>>, vector<4xi1>, vector<4xf16> into vector<4xf16>
          %864 = vector.maskedload %view_17[%253, %194], %257, %cst_8 : memref<144x83xf16, #gpu.address_space<workgroup>>, vector<4xi1>, vector<4xf16> into vector<4xf16>
          %865 = vector.maskedload %view_17[%253, %198], %258, %cst_8 : memref<144x83xf16, #gpu.address_space<workgroup>>, vector<4xi1>, vector<4xf16> into vector<4xf16>
          %866 = vector.maskedload %view_17[%253, %202], %259, %cst_8 : memref<144x83xf16, #gpu.address_space<workgroup>>, vector<4xi1>, vector<4xf16> into vector<4xf16>
          %867 = vector.maskedload %view_17[%253, %206], %260, %cst_8 : memref<144x83xf16, #gpu.address_space<workgroup>>, vector<4xi1>, vector<4xf16> into vector<4xf16>
          %868 = vector.maskedload %view_17[%253, %210], %261, %cst_8 : memref<144x83xf16, #gpu.address_space<workgroup>>, vector<4xi1>, vector<4xf16> into vector<4xf16>
          %869 = vector.maskedload %view_17[%253, %214], %262, %cst_8 : memref<144x83xf16, #gpu.address_space<workgroup>>, vector<4xi1>, vector<4xf16> into vector<4xf16>
          %870 = vector.maskedload %view_17[%253, %218], %263, %cst_8 : memref<144x83xf16, #gpu.address_space<workgroup>>, vector<4xi1>, vector<4xf16> into vector<4xf16>
          %871 = vector.maskedload %view_17[%253, %222], %264, %cst_8 : memref<144x83xf16, #gpu.address_space<workgroup>>, vector<4xi1>, vector<4xf16> into vector<4xf16>
          %872 = vector.maskedload %view_17[%253, %226], %265, %cst_8 : memref<144x83xf16, #gpu.address_space<workgroup>>, vector<4xi1>, vector<4xf16> into vector<4xf16>
          %873 = affine.apply #map29()[%thread_id_y, %thread_id_x, %arg3]
          %874 = vector.broadcast %873 : index to vector<8xindex>
          %875 = arith.addi %874, %cst_15 overflow<nsw, nuw> : vector<8xindex>
          %876 = arith.addi %875, %cst_10 overflow<nsw, nuw> : vector<8xindex>
          %877 = arith.cmpi slt, %876, %cst_13 : vector<8xindex>
          %878 = arith.andi %877, %7 : vector<8xi1>
          %879 = affine.apply #map30()[%thread_id_y, %thread_id_x, %arg3]
          %880 = arith.addi %9, %879 overflow<nsw> : index
          %881 = arith.index_cast %880 : index to i32
          %882 = vector.broadcast %881 : i32 to vector<8xi32>
          %883 = arith.addi %882, %cst_11 : vector<8xi32>
          %884 = arith.index_cast %883 : vector<8xi32> to vector<8xindex>
          %885 = arith.select %878, %884, %cst_12 : vector<8xi1>, vector<8xindex>
          %886 = vector.extract %885[0] : index from vector<8xindex>
          %887 = memref.load %11[%886] : memref<?xf16, #amdgpu.address_space<fat_raw_buffer>>
          %888 = vector.extract %885[1] : index from vector<8xindex>
          %889 = memref.load %11[%888] : memref<?xf16, #amdgpu.address_space<fat_raw_buffer>>
          %890 = vector.extract %885[2] : index from vector<8xindex>
          %891 = memref.load %11[%890] : memref<?xf16, #amdgpu.address_space<fat_raw_buffer>>
          %892 = vector.extract %885[3] : index from vector<8xindex>
          %893 = memref.load %11[%892] : memref<?xf16, #amdgpu.address_space<fat_raw_buffer>>
          %894 = vector.extract %885[4] : index from vector<8xindex>
          %895 = memref.load %11[%894] : memref<?xf16, #amdgpu.address_space<fat_raw_buffer>>
          %896 = vector.extract %885[5] : index from vector<8xindex>
          %897 = memref.load %11[%896] : memref<?xf16, #amdgpu.address_space<fat_raw_buffer>>
          %898 = vector.extract %885[6] : index from vector<8xindex>
          %899 = memref.load %11[%898] : memref<?xf16, #amdgpu.address_space<fat_raw_buffer>>
          %900 = vector.extract %885[7] : index from vector<8xindex>
          %901 = memref.load %11[%900] : memref<?xf16, #amdgpu.address_space<fat_raw_buffer>>
          %902 = vector.from_elements %887, %889, %891, %893, %895, %897, %899, %901 : vector<8xf16>
          %903 = affine.apply #map31()[%thread_id_y, %thread_id_x, %arg3]
          %904 = vector.broadcast %903 : index to vector<8xindex>
          %905 = arith.addi %904, %cst_15 overflow<nsw, nuw> : vector<8xindex>
          %906 = arith.addi %905, %cst_10 overflow<nsw, nuw> : vector<8xindex>
          %907 = arith.cmpi slt, %906, %cst_13 : vector<8xindex>
          %908 = arith.andi %907, %40 : vector<8xi1>
          %909 = affine.apply #map32()[%thread_id_y, %thread_id_x, %arg3]
          %910 = arith.addi %42, %909 overflow<nsw> : index
          %911 = arith.index_cast %910 : index to i32
          %912 = vector.broadcast %911 : i32 to vector<8xi32>
          %913 = arith.addi %912, %cst_11 : vector<8xi32>
          %914 = arith.index_cast %913 : vector<8xi32> to vector<8xindex>
          %915 = arith.select %908, %914, %cst_12 : vector<8xi1>, vector<8xindex>
          %916 = vector.extract %915[0] : index from vector<8xindex>
          %917 = memref.load %11[%916] : memref<?xf16, #amdgpu.address_space<fat_raw_buffer>>
          %918 = vector.extract %915[1] : index from vector<8xindex>
          %919 = memref.load %11[%918] : memref<?xf16, #amdgpu.address_space<fat_raw_buffer>>
          %920 = vector.extract %915[2] : index from vector<8xindex>
          %921 = memref.load %11[%920] : memref<?xf16, #amdgpu.address_space<fat_raw_buffer>>
          %922 = vector.extract %915[3] : index from vector<8xindex>
          %923 = memref.load %11[%922] : memref<?xf16, #amdgpu.address_space<fat_raw_buffer>>
          %924 = vector.extract %915[4] : index from vector<8xindex>
          %925 = memref.load %11[%924] : memref<?xf16, #amdgpu.address_space<fat_raw_buffer>>
          %926 = vector.extract %915[5] : index from vector<8xindex>
          %927 = memref.load %11[%926] : memref<?xf16, #amdgpu.address_space<fat_raw_buffer>>
          %928 = vector.extract %915[6] : index from vector<8xindex>
          %929 = memref.load %11[%928] : memref<?xf16, #amdgpu.address_space<fat_raw_buffer>>
          %930 = vector.extract %915[7] : index from vector<8xindex>
          %931 = memref.load %11[%930] : memref<?xf16, #amdgpu.address_space<fat_raw_buffer>>
          %932 = vector.from_elements %917, %919, %921, %923, %925, %927, %929, %931 : vector<8xf16>
          %933 = affine.apply #map33()[%thread_id_y, %thread_id_x, %arg3]
          %934 = vector.broadcast %933 : index to vector<8xindex>
          %935 = arith.addi %934, %cst_15 overflow<nsw, nuw> : vector<8xindex>
          %936 = arith.addi %935, %cst_10 overflow<nsw, nuw> : vector<8xindex>
          %937 = arith.cmpi slt, %936, %cst_13 : vector<8xindex>
          %938 = arith.andi %937, %72 : vector<8xi1>
          %939 = affine.apply #map34()[%thread_id_y, %thread_id_x, %arg3]
          %940 = arith.addi %74, %939 overflow<nsw> : index
          %941 = arith.index_cast %940 : index to i32
          %942 = vector.broadcast %941 : i32 to vector<8xi32>
          %943 = arith.addi %942, %cst_11 : vector<8xi32>
          %944 = arith.index_cast %943 : vector<8xi32> to vector<8xindex>
          %945 = arith.select %938, %944, %cst_12 : vector<8xi1>, vector<8xindex>
          %946 = vector.extract %945[0] : index from vector<8xindex>
          %947 = memref.load %11[%946] : memref<?xf16, #amdgpu.address_space<fat_raw_buffer>>
          %948 = vector.extract %945[1] : index from vector<8xindex>
          %949 = memref.load %11[%948] : memref<?xf16, #amdgpu.address_space<fat_raw_buffer>>
          %950 = vector.extract %945[2] : index from vector<8xindex>
          %951 = memref.load %11[%950] : memref<?xf16, #amdgpu.address_space<fat_raw_buffer>>
          %952 = vector.extract %945[3] : index from vector<8xindex>
          %953 = memref.load %11[%952] : memref<?xf16, #amdgpu.address_space<fat_raw_buffer>>
          %954 = vector.extract %945[4] : index from vector<8xindex>
          %955 = memref.load %11[%954] : memref<?xf16, #amdgpu.address_space<fat_raw_buffer>>
          %956 = vector.extract %945[5] : index from vector<8xindex>
          %957 = memref.load %11[%956] : memref<?xf16, #amdgpu.address_space<fat_raw_buffer>>
          %958 = vector.extract %945[6] : index from vector<8xindex>
          %959 = memref.load %11[%958] : memref<?xf16, #amdgpu.address_space<fat_raw_buffer>>
          %960 = vector.extract %945[7] : index from vector<8xindex>
          %961 = memref.load %11[%960] : memref<?xf16, #amdgpu.address_space<fat_raw_buffer>>
          %962 = vector.from_elements %947, %949, %951, %953, %955, %957, %959, %961 : vector<8xf16>
          %963 = arith.andi %877, %101 : vector<8xi1>
          %964 = arith.addi %103, %879 overflow<nsw> : index
          %965 = arith.index_cast %964 : index to i32
          %966 = vector.broadcast %965 : i32 to vector<8xi32>
          %967 = arith.addi %966, %cst_11 : vector<8xi32>
          %968 = arith.index_cast %967 : vector<8xi32> to vector<8xindex>
          %969 = arith.select %963, %968, %cst_12 : vector<8xi1>, vector<8xindex>
          %970 = vector.extract %969[0] : index from vector<8xindex>
          %971 = memref.load %105[%970] : memref<?xf16, #amdgpu.address_space<fat_raw_buffer>>
          %972 = vector.extract %969[1] : index from vector<8xindex>
          %973 = memref.load %105[%972] : memref<?xf16, #amdgpu.address_space<fat_raw_buffer>>
          %974 = vector.extract %969[2] : index from vector<8xindex>
          %975 = memref.load %105[%974] : memref<?xf16, #amdgpu.address_space<fat_raw_buffer>>
          %976 = vector.extract %969[3] : index from vector<8xindex>
          %977 = memref.load %105[%976] : memref<?xf16, #amdgpu.address_space<fat_raw_buffer>>
          %978 = vector.extract %969[4] : index from vector<8xindex>
          %979 = memref.load %105[%978] : memref<?xf16, #amdgpu.address_space<fat_raw_buffer>>
          %980 = vector.extract %969[5] : index from vector<8xindex>
          %981 = memref.load %105[%980] : memref<?xf16, #amdgpu.address_space<fat_raw_buffer>>
          %982 = vector.extract %969[6] : index from vector<8xindex>
          %983 = memref.load %105[%982] : memref<?xf16, #amdgpu.address_space<fat_raw_buffer>>
          %984 = vector.extract %969[7] : index from vector<8xindex>
          %985 = memref.load %105[%984] : memref<?xf16, #amdgpu.address_space<fat_raw_buffer>>
          %986 = vector.from_elements %971, %973, %975, %977, %979, %981, %983, %985 : vector<8xf16>
          %987 = arith.andi %907, %130 : vector<8xi1>
          %988 = arith.addi %132, %909 overflow<nsw> : index
          %989 = arith.index_cast %988 : index to i32
          %990 = vector.broadcast %989 : i32 to vector<8xi32>
          %991 = arith.addi %990, %cst_11 : vector<8xi32>
          %992 = arith.index_cast %991 : vector<8xi32> to vector<8xindex>
          %993 = arith.select %987, %992, %cst_12 : vector<8xi1>, vector<8xindex>
          %994 = vector.extract %993[0] : index from vector<8xindex>
          %995 = memref.load %105[%994] : memref<?xf16, #amdgpu.address_space<fat_raw_buffer>>
          %996 = vector.extract %993[1] : index from vector<8xindex>
          %997 = memref.load %105[%996] : memref<?xf16, #amdgpu.address_space<fat_raw_buffer>>
          %998 = vector.extract %993[2] : index from vector<8xindex>
          %999 = memref.load %105[%998] : memref<?xf16, #amdgpu.address_space<fat_raw_buffer>>
          %1000 = vector.extract %993[3] : index from vector<8xindex>
          %1001 = memref.load %105[%1000] : memref<?xf16, #amdgpu.address_space<fat_raw_buffer>>
          %1002 = vector.extract %993[4] : index from vector<8xindex>
          %1003 = memref.load %105[%1002] : memref<?xf16, #amdgpu.address_space<fat_raw_buffer>>
          %1004 = vector.extract %993[5] : index from vector<8xindex>
          %1005 = memref.load %105[%1004] : memref<?xf16, #amdgpu.address_space<fat_raw_buffer>>
          %1006 = vector.extract %993[6] : index from vector<8xindex>
          %1007 = memref.load %105[%1006] : memref<?xf16, #amdgpu.address_space<fat_raw_buffer>>
          %1008 = vector.extract %993[7] : index from vector<8xindex>
          %1009 = memref.load %105[%1008] : memref<?xf16, #amdgpu.address_space<fat_raw_buffer>>
          %1010 = vector.from_elements %995, %997, %999, %1001, %1003, %1005, %1007, %1009 : vector<8xf16>
          %1011 = amdgpu.mfma %853 * %833 + %arg4 {blocks = 1 : i32, k = 8 : i32, m = 32 : i32, n = 32 : i32} blgp =  none : vector<4xf16>, vector<4xf16>, vector<16xf32>
          %1012 = amdgpu.mfma %854 * %834 + %1011 {blocks = 1 : i32, k = 8 : i32, m = 32 : i32, n = 32 : i32} blgp =  none : vector<4xf16>, vector<4xf16>, vector<16xf32>
          %1013 = amdgpu.mfma %855 * %835 + %1012 {blocks = 1 : i32, k = 8 : i32, m = 32 : i32, n = 32 : i32} blgp =  none : vector<4xf16>, vector<4xf16>, vector<16xf32>
          %1014 = amdgpu.mfma %856 * %836 + %1013 {blocks = 1 : i32, k = 8 : i32, m = 32 : i32, n = 32 : i32} blgp =  none : vector<4xf16>, vector<4xf16>, vector<16xf32>
          %1015 = amdgpu.mfma %857 * %837 + %1014 {blocks = 1 : i32, k = 8 : i32, m = 32 : i32, n = 32 : i32} blgp =  none : vector<4xf16>, vector<4xf16>, vector<16xf32>
          %1016 = amdgpu.mfma %858 * %838 + %1015 {blocks = 1 : i32, k = 8 : i32, m = 32 : i32, n = 32 : i32} blgp =  none : vector<4xf16>, vector<4xf16>, vector<16xf32>
          %1017 = amdgpu.mfma %859 * %839 + %1016 {blocks = 1 : i32, k = 8 : i32, m = 32 : i32, n = 32 : i32} blgp =  none : vector<4xf16>, vector<4xf16>, vector<16xf32>
          %1018 = amdgpu.mfma %860 * %840 + %1017 {blocks = 1 : i32, k = 8 : i32, m = 32 : i32, n = 32 : i32} blgp =  none : vector<4xf16>, vector<4xf16>, vector<16xf32>
          %1019 = amdgpu.mfma %861 * %841 + %1018 {blocks = 1 : i32, k = 8 : i32, m = 32 : i32, n = 32 : i32} blgp =  none : vector<4xf16>, vector<4xf16>, vector<16xf32>
          %1020 = amdgpu.mfma %862 * %842 + %1019 {blocks = 1 : i32, k = 8 : i32, m = 32 : i32, n = 32 : i32} blgp =  none : vector<4xf16>, vector<4xf16>, vector<16xf32>
          %1021 = amdgpu.mfma %853 * %843 + %arg5 {blocks = 1 : i32, k = 8 : i32, m = 32 : i32, n = 32 : i32} blgp =  none : vector<4xf16>, vector<4xf16>, vector<16xf32>
          %1022 = amdgpu.mfma %854 * %844 + %1021 {blocks = 1 : i32, k = 8 : i32, m = 32 : i32, n = 32 : i32} blgp =  none : vector<4xf16>, vector<4xf16>, vector<16xf32>
          %1023 = amdgpu.mfma %855 * %845 + %1022 {blocks = 1 : i32, k = 8 : i32, m = 32 : i32, n = 32 : i32} blgp =  none : vector<4xf16>, vector<4xf16>, vector<16xf32>
          %1024 = amdgpu.mfma %856 * %846 + %1023 {blocks = 1 : i32, k = 8 : i32, m = 32 : i32, n = 32 : i32} blgp =  none : vector<4xf16>, vector<4xf16>, vector<16xf32>
          %1025 = amdgpu.mfma %857 * %847 + %1024 {blocks = 1 : i32, k = 8 : i32, m = 32 : i32, n = 32 : i32} blgp =  none : vector<4xf16>, vector<4xf16>, vector<16xf32>
          %1026 = amdgpu.mfma %858 * %848 + %1025 {blocks = 1 : i32, k = 8 : i32, m = 32 : i32, n = 32 : i32} blgp =  none : vector<4xf16>, vector<4xf16>, vector<16xf32>
          %1027 = amdgpu.mfma %859 * %849 + %1026 {blocks = 1 : i32, k = 8 : i32, m = 32 : i32, n = 32 : i32} blgp =  none : vector<4xf16>, vector<4xf16>, vector<16xf32>
          %1028 = amdgpu.mfma %860 * %850 + %1027 {blocks = 1 : i32, k = 8 : i32, m = 32 : i32, n = 32 : i32} blgp =  none : vector<4xf16>, vector<4xf16>, vector<16xf32>
          %1029 = amdgpu.mfma %861 * %851 + %1028 {blocks = 1 : i32, k = 8 : i32, m = 32 : i32, n = 32 : i32} blgp =  none : vector<4xf16>, vector<4xf16>, vector<16xf32>
          %1030 = amdgpu.mfma %862 * %852 + %1029 {blocks = 1 : i32, k = 8 : i32, m = 32 : i32, n = 32 : i32} blgp =  none : vector<4xf16>, vector<4xf16>, vector<16xf32>
          %1031 = amdgpu.mfma %863 * %833 + %arg6 {blocks = 1 : i32, k = 8 : i32, m = 32 : i32, n = 32 : i32} blgp =  none : vector<4xf16>, vector<4xf16>, vector<16xf32>
          %1032 = amdgpu.mfma %864 * %834 + %1031 {blocks = 1 : i32, k = 8 : i32, m = 32 : i32, n = 32 : i32} blgp =  none : vector<4xf16>, vector<4xf16>, vector<16xf32>
          %1033 = amdgpu.mfma %865 * %835 + %1032 {blocks = 1 : i32, k = 8 : i32, m = 32 : i32, n = 32 : i32} blgp =  none : vector<4xf16>, vector<4xf16>, vector<16xf32>
          %1034 = amdgpu.mfma %866 * %836 + %1033 {blocks = 1 : i32, k = 8 : i32, m = 32 : i32, n = 32 : i32} blgp =  none : vector<4xf16>, vector<4xf16>, vector<16xf32>
          %1035 = amdgpu.mfma %867 * %837 + %1034 {blocks = 1 : i32, k = 8 : i32, m = 32 : i32, n = 32 : i32} blgp =  none : vector<4xf16>, vector<4xf16>, vector<16xf32>
          %1036 = amdgpu.mfma %868 * %838 + %1035 {blocks = 1 : i32, k = 8 : i32, m = 32 : i32, n = 32 : i32} blgp =  none : vector<4xf16>, vector<4xf16>, vector<16xf32>
          %1037 = amdgpu.mfma %869 * %839 + %1036 {blocks = 1 : i32, k = 8 : i32, m = 32 : i32, n = 32 : i32} blgp =  none : vector<4xf16>, vector<4xf16>, vector<16xf32>
          %1038 = amdgpu.mfma %870 * %840 + %1037 {blocks = 1 : i32, k = 8 : i32, m = 32 : i32, n = 32 : i32} blgp =  none : vector<4xf16>, vector<4xf16>, vector<16xf32>
          %1039 = amdgpu.mfma %871 * %841 + %1038 {blocks = 1 : i32, k = 8 : i32, m = 32 : i32, n = 32 : i32} blgp =  none : vector<4xf16>, vector<4xf16>, vector<16xf32>
          %1040 = amdgpu.mfma %872 * %842 + %1039 {blocks = 1 : i32, k = 8 : i32, m = 32 : i32, n = 32 : i32} blgp =  none : vector<4xf16>, vector<4xf16>, vector<16xf32>
          %1041 = amdgpu.mfma %863 * %843 + %arg7 {blocks = 1 : i32, k = 8 : i32, m = 32 : i32, n = 32 : i32} blgp =  none : vector<4xf16>, vector<4xf16>, vector<16xf32>
          %1042 = amdgpu.mfma %864 * %844 + %1041 {blocks = 1 : i32, k = 8 : i32, m = 32 : i32, n = 32 : i32} blgp =  none : vector<4xf16>, vector<4xf16>, vector<16xf32>
          %1043 = amdgpu.mfma %865 * %845 + %1042 {blocks = 1 : i32, k = 8 : i32, m = 32 : i32, n = 32 : i32} blgp =  none : vector<4xf16>, vector<4xf16>, vector<16xf32>
          %1044 = amdgpu.mfma %866 * %846 + %1043 {blocks = 1 : i32, k = 8 : i32, m = 32 : i32, n = 32 : i32} blgp =  none : vector<4xf16>, vector<4xf16>, vector<16xf32>
          %1045 = amdgpu.mfma %867 * %847 + %1044 {blocks = 1 : i32, k = 8 : i32, m = 32 : i32, n = 32 : i32} blgp =  none : vector<4xf16>, vector<4xf16>, vector<16xf32>
          %1046 = amdgpu.mfma %868 * %848 + %1045 {blocks = 1 : i32, k = 8 : i32, m = 32 : i32, n = 32 : i32} blgp =  none : vector<4xf16>, vector<4xf16>, vector<16xf32>
          %1047 = amdgpu.mfma %869 * %849 + %1046 {blocks = 1 : i32, k = 8 : i32, m = 32 : i32, n = 32 : i32} blgp =  none : vector<4xf16>, vector<4xf16>, vector<16xf32>
          %1048 = amdgpu.mfma %870 * %850 + %1047 {blocks = 1 : i32, k = 8 : i32, m = 32 : i32, n = 32 : i32} blgp =  none : vector<4xf16>, vector<4xf16>, vector<16xf32>
          %1049 = amdgpu.mfma %871 * %851 + %1048 {blocks = 1 : i32, k = 8 : i32, m = 32 : i32, n = 32 : i32} blgp =  none : vector<4xf16>, vector<4xf16>, vector<16xf32>
          %1050 = amdgpu.mfma %872 * %852 + %1049 {blocks = 1 : i32, k = 8 : i32, m = 32 : i32, n = 32 : i32} blgp =  none : vector<4xf16>, vector<4xf16>, vector<16xf32>
          amdgpu.lds_barrier
          vector.maskedstore %view_17[%159, %1], %162, %902 : memref<144x83xf16, #gpu.address_space<workgroup>>, vector<8xi1>, vector<8xf16>
          vector.maskedstore %view_17[%164, %34], %167, %932 : memref<144x83xf16, #gpu.address_space<workgroup>>, vector<8xi1>, vector<8xf16>
          vector.maskedstore %view_17[%169, %66], %172, %962 : memref<144x83xf16, #gpu.address_space<workgroup>>, vector<8xi1>, vector<8xf16>
          vector.maskedstore %view[%175, %1], %178, %986 : memref<80x83xf16, #gpu.address_space<workgroup>>, vector<8xi1>, vector<8xf16>
          vector.maskedstore %view[%179, %34], %182, %1010 : memref<80x83xf16, #gpu.address_space<workgroup>>, vector<8xi1>, vector<8xf16>
          scf.yield %1020, %1030, %1040, %1050 : vector<16xf32>, vector<16xf32>, vector<16xf32>, vector<16xf32>
        }
        amdgpu.lds_barrier
        %267 = affine.apply #map15()[%thread_id_x]
        %268 = vector.broadcast %267 : index to vector<4xindex>
        %269 = arith.addi %268, %cst_14 overflow<nsw, nuw> : vector<4xindex>
        %270 = arith.cmpi slt, %269, %cst_9 : vector<4xindex>
        %271 = affine.apply #map16()[%thread_id_x, %thread_id_y]
        %272 = arith.cmpi slt, %271, %174 : index
        %273 = vector.broadcast %272 : i1 to vector<4xi1>
        %274 = arith.andi %270, %273 : vector<4xi1>
        %275 = vector.maskedload %view[%271, %267], %274, %cst_8 : memref<80x83xf16, #gpu.address_space<workgroup>>, vector<4xi1>, vector<4xf16> into vector<4xf16>
        %276 = arith.addi %269, %cst_7 overflow<nsw, nuw> : vector<4xindex>
        %277 = arith.cmpi slt, %276, %cst_9 : vector<4xindex>
        %278 = arith.andi %277, %273 : vector<4xi1>
        %279 = affine.apply #map17()[%thread_id_x]
        %280 = vector.maskedload %view[%271, %279], %278, %cst_8 : memref<80x83xf16, #gpu.address_space<workgroup>>, vector<4xi1>, vector<4xf16> into vector<4xf16>
        %281 = arith.addi %269, %cst_6 overflow<nsw, nuw> : vector<4xindex>
        %282 = arith.cmpi slt, %281, %cst_9 : vector<4xindex>
        %283 = arith.andi %282, %273 : vector<4xi1>
        %284 = affine.apply #map18()[%thread_id_x]
        %285 = vector.maskedload %view[%271, %284], %283, %cst_8 : memref<80x83xf16, #gpu.address_space<workgroup>>, vector<4xi1>, vector<4xf16> into vector<4xf16>
        %286 = arith.addi %269, %cst_5 overflow<nsw, nuw> : vector<4xindex>
        %287 = arith.cmpi slt, %286, %cst_9 : vector<4xindex>
        %288 = arith.andi %287, %273 : vector<4xi1>
        %289 = affine.apply #map19()[%thread_id_x]
        %290 = vector.maskedload %view[%271, %289], %288, %cst_8 : memref<80x83xf16, #gpu.address_space<workgroup>>, vector<4xi1>, vector<4xf16> into vector<4xf16>
        %291 = arith.addi %269, %cst_4 overflow<nsw, nuw> : vector<4xindex>
        %292 = arith.cmpi slt, %291, %cst_9 : vector<4xindex>
        %293 = arith.andi %292, %273 : vector<4xi1>
        %294 = affine.apply #map20()[%thread_id_x]
        %295 = vector.maskedload %view[%271, %294], %293, %cst_8 : memref<80x83xf16, #gpu.address_space<workgroup>>, vector<4xi1>, vector<4xf16> into vector<4xf16>
        %296 = arith.addi %269, %cst_3 overflow<nsw, nuw> : vector<4xindex>
        %297 = arith.cmpi slt, %296, %cst_9 : vector<4xindex>
        %298 = arith.andi %297, %273 : vector<4xi1>
        %299 = affine.apply #map21()[%thread_id_x]
        %300 = vector.maskedload %view[%271, %299], %298, %cst_8 : memref<80x83xf16, #gpu.address_space<workgroup>>, vector<4xi1>, vector<4xf16> into vector<4xf16>
        %301 = arith.addi %269, %cst_2 overflow<nsw, nuw> : vector<4xindex>
        %302 = arith.cmpi slt, %301, %cst_9 : vector<4xindex>
        %303 = arith.andi %302, %273 : vector<4xi1>
        %304 = affine.apply #map22()[%thread_id_x]
        %305 = vector.maskedload %view[%271, %304], %303, %cst_8 : memref<80x83xf16, #gpu.address_space<workgroup>>, vector<4xi1>, vector<4xf16> into vector<4xf16>
        %306 = arith.addi %269, %cst_1 overflow<nsw, nuw> : vector<4xindex>
        %307 = arith.cmpi slt, %306, %cst_9 : vector<4xindex>
        %308 = arith.andi %307, %273 : vector<4xi1>
        %309 = affine.apply #map23()[%thread_id_x]
        %310 = vector.maskedload %view[%271, %309], %308, %cst_8 : memref<80x83xf16, #gpu.address_space<workgroup>>, vector<4xi1>, vector<4xf16> into vector<4xf16>
        %311 = arith.addi %269, %cst_0 overflow<nsw, nuw> : vector<4xindex>
        %312 = arith.cmpi slt, %311, %cst_9 : vector<4xindex>
        %313 = arith.andi %312, %273 : vector<4xi1>
        %314 = affine.apply #map24()[%thread_id_x]
        %315 = vector.maskedload %view[%271, %314], %313, %cst_8 : memref<80x83xf16, #gpu.address_space<workgroup>>, vector<4xi1>, vector<4xf16> into vector<4xf16>
        %316 = arith.addi %269, %cst overflow<nsw, nuw> : vector<4xindex>
        %317 = arith.cmpi slt, %316, %cst_9 : vector<4xindex>
        %318 = arith.andi %317, %273 : vector<4xi1>
        %319 = affine.apply #map25()[%thread_id_x]
        %320 = vector.maskedload %view[%271, %319], %318, %cst_8 : memref<80x83xf16, #gpu.address_space<workgroup>>, vector<4xi1>, vector<4xf16> into vector<4xf16>
        %321 = affine.apply #map26()[%thread_id_x, %thread_id_y]
        %322 = arith.cmpi slt, %321, %174 : index
        %323 = vector.broadcast %322 : i1 to vector<4xi1>
        %324 = arith.andi %270, %323 : vector<4xi1>
        %325 = vector.maskedload %view[%321, %267], %324, %cst_8 : memref<80x83xf16, #gpu.address_space<workgroup>>, vector<4xi1>, vector<4xf16> into vector<4xf16>
        %326 = arith.andi %277, %323 : vector<4xi1>
        %327 = vector.maskedload %view[%321, %279], %326, %cst_8 : memref<80x83xf16, #gpu.address_space<workgroup>>, vector<4xi1>, vector<4xf16> into vector<4xf16>
        %328 = arith.andi %282, %323 : vector<4xi1>
        %329 = vector.maskedload %view[%321, %284], %328, %cst_8 : memref<80x83xf16, #gpu.address_space<workgroup>>, vector<4xi1>, vector<4xf16> into vector<4xf16>
        %330 = arith.andi %287, %323 : vector<4xi1>
        %331 = vector.maskedload %view[%321, %289], %330, %cst_8 : memref<80x83xf16, #gpu.address_space<workgroup>>, vector<4xi1>, vector<4xf16> into vector<4xf16>
        %332 = arith.andi %292, %323 : vector<4xi1>
        %333 = vector.maskedload %view[%321, %294], %332, %cst_8 : memref<80x83xf16, #gpu.address_space<workgroup>>, vector<4xi1>, vector<4xf16> into vector<4xf16>
        %334 = arith.andi %297, %323 : vector<4xi1>
        %335 = vector.maskedload %view[%321, %299], %334, %cst_8 : memref<80x83xf16, #gpu.address_space<workgroup>>, vector<4xi1>, vector<4xf16> into vector<4xf16>
        %336 = arith.andi %302, %323 : vector<4xi1>
        %337 = vector.maskedload %view[%321, %304], %336, %cst_8 : memref<80x83xf16, #gpu.address_space<workgroup>>, vector<4xi1>, vector<4xf16> into vector<4xf16>
        %338 = arith.andi %307, %323 : vector<4xi1>
        %339 = vector.maskedload %view[%321, %309], %338, %cst_8 : memref<80x83xf16, #gpu.address_space<workgroup>>, vector<4xi1>, vector<4xf16> into vector<4xf16>
        %340 = arith.andi %312, %323 : vector<4xi1>
        %341 = vector.maskedload %view[%321, %314], %340, %cst_8 : memref<80x83xf16, #gpu.address_space<workgroup>>, vector<4xi1>, vector<4xf16> into vector<4xf16>
        %342 = arith.andi %317, %323 : vector<4xi1>
        %343 = vector.maskedload %view[%321, %319], %342, %cst_8 : memref<80x83xf16, #gpu.address_space<workgroup>>, vector<4xi1>, vector<4xf16> into vector<4xf16>
        %344 = affine.apply #map27()[%thread_id_x]
        %345 = arith.cmpi slt, %344, %158 : index
        %346 = vector.broadcast %345 : i1 to vector<4xi1>
        %347 = arith.andi %270, %346 : vector<4xi1>
        %348 = vector.maskedload %view_17[%344, %267], %347, %cst_8 : memref<144x83xf16, #gpu.address_space<workgroup>>, vector<4xi1>, vector<4xf16> into vector<4xf16>
        %349 = arith.andi %277, %346 : vector<4xi1>
        %350 = vector.maskedload %view_17[%344, %279], %349, %cst_8 : memref<144x83xf16, #gpu.address_space<workgroup>>, vector<4xi1>, vector<4xf16> into vector<4xf16>
        %351 = arith.andi %282, %346 : vector<4xi1>
        %352 = vector.maskedload %view_17[%344, %284], %351, %cst_8 : memref<144x83xf16, #gpu.address_space<workgroup>>, vector<4xi1>, vector<4xf16> into vector<4xf16>
        %353 = arith.andi %287, %346 : vector<4xi1>
        %354 = vector.maskedload %view_17[%344, %289], %353, %cst_8 : memref<144x83xf16, #gpu.address_space<workgroup>>, vector<4xi1>, vector<4xf16> into vector<4xf16>
        %355 = arith.andi %292, %346 : vector<4xi1>
        %356 = vector.maskedload %view_17[%344, %294], %355, %cst_8 : memref<144x83xf16, #gpu.address_space<workgroup>>, vector<4xi1>, vector<4xf16> into vector<4xf16>
        %357 = arith.andi %297, %346 : vector<4xi1>
        %358 = vector.maskedload %view_17[%344, %299], %357, %cst_8 : memref<144x83xf16, #gpu.address_space<workgroup>>, vector<4xi1>, vector<4xf16> into vector<4xf16>
        %359 = arith.andi %302, %346 : vector<4xi1>
        %360 = vector.maskedload %view_17[%344, %304], %359, %cst_8 : memref<144x83xf16, #gpu.address_space<workgroup>>, vector<4xi1>, vector<4xf16> into vector<4xf16>
        %361 = arith.andi %307, %346 : vector<4xi1>
        %362 = vector.maskedload %view_17[%344, %309], %361, %cst_8 : memref<144x83xf16, #gpu.address_space<workgroup>>, vector<4xi1>, vector<4xf16> into vector<4xf16>
        %363 = arith.andi %312, %346 : vector<4xi1>
        %364 = vector.maskedload %view_17[%344, %314], %363, %cst_8 : memref<144x83xf16, #gpu.address_space<workgroup>>, vector<4xi1>, vector<4xf16> into vector<4xf16>
        %365 = arith.andi %317, %346 : vector<4xi1>
        %366 = vector.maskedload %view_17[%344, %319], %365, %cst_8 : memref<144x83xf16, #gpu.address_space<workgroup>>, vector<4xi1>, vector<4xf16> into vector<4xf16>
        %367 = affine.apply #map28()[%thread_id_x]
        %368 = arith.cmpi slt, %367, %158 : index
        %369 = vector.broadcast %368 : i1 to vector<4xi1>
        %370 = arith.andi %270, %369 : vector<4xi1>
        %371 = vector.maskedload %view_17[%367, %267], %370, %cst_8 : memref<144x83xf16, #gpu.address_space<workgroup>>, vector<4xi1>, vector<4xf16> into vector<4xf16>
        %372 = arith.andi %277, %369 : vector<4xi1>
        %373 = vector.maskedload %view_17[%367, %279], %372, %cst_8 : memref<144x83xf16, #gpu.address_space<workgroup>>, vector<4xi1>, vector<4xf16> into vector<4xf16>
        %374 = arith.andi %282, %369 : vector<4xi1>
        %375 = vector.maskedload %view_17[%367, %284], %374, %cst_8 : memref<144x83xf16, #gpu.address_space<workgroup>>, vector<4xi1>, vector<4xf16> into vector<4xf16>
        %376 = arith.andi %287, %369 : vector<4xi1>
        %377 = vector.maskedload %view_17[%367, %289], %376, %cst_8 : memref<144x83xf16, #gpu.address_space<workgroup>>, vector<4xi1>, vector<4xf16> into vector<4xf16>
        %378 = arith.andi %292, %369 : vector<4xi1>
        %379 = vector.maskedload %view_17[%367, %294], %378, %cst_8 : memref<144x83xf16, #gpu.address_space<workgroup>>, vector<4xi1>, vector<4xf16> into vector<4xf16>
        %380 = arith.andi %297, %369 : vector<4xi1>
        %381 = vector.maskedload %view_17[%367, %299], %380, %cst_8 : memref<144x83xf16, #gpu.address_space<workgroup>>, vector<4xi1>, vector<4xf16> into vector<4xf16>
        %382 = arith.andi %302, %369 : vector<4xi1>
        %383 = vector.maskedload %view_17[%367, %304], %382, %cst_8 : memref<144x83xf16, #gpu.address_space<workgroup>>, vector<4xi1>, vector<4xf16> into vector<4xf16>
        %384 = arith.andi %307, %369 : vector<4xi1>
        %385 = vector.maskedload %view_17[%367, %309], %384, %cst_8 : memref<144x83xf16, #gpu.address_space<workgroup>>, vector<4xi1>, vector<4xf16> into vector<4xf16>
        %386 = arith.andi %312, %369 : vector<4xi1>
        %387 = vector.maskedload %view_17[%367, %314], %386, %cst_8 : memref<144x83xf16, #gpu.address_space<workgroup>>, vector<4xi1>, vector<4xf16> into vector<4xf16>
        %388 = arith.andi %317, %369 : vector<4xi1>
        %389 = vector.maskedload %view_17[%367, %319], %388, %cst_8 : memref<144x83xf16, #gpu.address_space<workgroup>>, vector<4xi1>, vector<4xf16> into vector<4xf16>
        %390 = amdgpu.mfma %348 * %275 + %266#0 {blocks = 1 : i32, k = 8 : i32, m = 32 : i32, n = 32 : i32} blgp =  none : vector<4xf16>, vector<4xf16>, vector<16xf32>
        %391 = amdgpu.mfma %350 * %280 + %390 {blocks = 1 : i32, k = 8 : i32, m = 32 : i32, n = 32 : i32} blgp =  none : vector<4xf16>, vector<4xf16>, vector<16xf32>
        %392 = amdgpu.mfma %352 * %285 + %391 {blocks = 1 : i32, k = 8 : i32, m = 32 : i32, n = 32 : i32} blgp =  none : vector<4xf16>, vector<4xf16>, vector<16xf32>
        %393 = amdgpu.mfma %354 * %290 + %392 {blocks = 1 : i32, k = 8 : i32, m = 32 : i32, n = 32 : i32} blgp =  none : vector<4xf16>, vector<4xf16>, vector<16xf32>
        %394 = amdgpu.mfma %356 * %295 + %393 {blocks = 1 : i32, k = 8 : i32, m = 32 : i32, n = 32 : i32} blgp =  none : vector<4xf16>, vector<4xf16>, vector<16xf32>
        %395 = amdgpu.mfma %358 * %300 + %394 {blocks = 1 : i32, k = 8 : i32, m = 32 : i32, n = 32 : i32} blgp =  none : vector<4xf16>, vector<4xf16>, vector<16xf32>
        %396 = amdgpu.mfma %360 * %305 + %395 {blocks = 1 : i32, k = 8 : i32, m = 32 : i32, n = 32 : i32} blgp =  none : vector<4xf16>, vector<4xf16>, vector<16xf32>
        %397 = amdgpu.mfma %362 * %310 + %396 {blocks = 1 : i32, k = 8 : i32, m = 32 : i32, n = 32 : i32} blgp =  none : vector<4xf16>, vector<4xf16>, vector<16xf32>
        %398 = amdgpu.mfma %364 * %315 + %397 {blocks = 1 : i32, k = 8 : i32, m = 32 : i32, n = 32 : i32} blgp =  none : vector<4xf16>, vector<4xf16>, vector<16xf32>
        %399 = amdgpu.mfma %366 * %320 + %398 {blocks = 1 : i32, k = 8 : i32, m = 32 : i32, n = 32 : i32} blgp =  none : vector<4xf16>, vector<4xf16>, vector<16xf32>
        %400 = amdgpu.mfma %348 * %325 + %266#1 {blocks = 1 : i32, k = 8 : i32, m = 32 : i32, n = 32 : i32} blgp =  none : vector<4xf16>, vector<4xf16>, vector<16xf32>
        %401 = amdgpu.mfma %350 * %327 + %400 {blocks = 1 : i32, k = 8 : i32, m = 32 : i32, n = 32 : i32} blgp =  none : vector<4xf16>, vector<4xf16>, vector<16xf32>
        %402 = amdgpu.mfma %352 * %329 + %401 {blocks = 1 : i32, k = 8 : i32, m = 32 : i32, n = 32 : i32} blgp =  none : vector<4xf16>, vector<4xf16>, vector<16xf32>
        %403 = amdgpu.mfma %354 * %331 + %402 {blocks = 1 : i32, k = 8 : i32, m = 32 : i32, n = 32 : i32} blgp =  none : vector<4xf16>, vector<4xf16>, vector<16xf32>
        %404 = amdgpu.mfma %356 * %333 + %403 {blocks = 1 : i32, k = 8 : i32, m = 32 : i32, n = 32 : i32} blgp =  none : vector<4xf16>, vector<4xf16>, vector<16xf32>
        %405 = amdgpu.mfma %358 * %335 + %404 {blocks = 1 : i32, k = 8 : i32, m = 32 : i32, n = 32 : i32} blgp =  none : vector<4xf16>, vector<4xf16>, vector<16xf32>
        %406 = amdgpu.mfma %360 * %337 + %405 {blocks = 1 : i32, k = 8 : i32, m = 32 : i32, n = 32 : i32} blgp =  none : vector<4xf16>, vector<4xf16>, vector<16xf32>
        %407 = amdgpu.mfma %362 * %339 + %406 {blocks = 1 : i32, k = 8 : i32, m = 32 : i32, n = 32 : i32} blgp =  none : vector<4xf16>, vector<4xf16>, vector<16xf32>
        %408 = amdgpu.mfma %364 * %341 + %407 {blocks = 1 : i32, k = 8 : i32, m = 32 : i32, n = 32 : i32} blgp =  none : vector<4xf16>, vector<4xf16>, vector<16xf32>
        %409 = amdgpu.mfma %366 * %343 + %408 {blocks = 1 : i32, k = 8 : i32, m = 32 : i32, n = 32 : i32} blgp =  none : vector<4xf16>, vector<4xf16>, vector<16xf32>
        %410 = amdgpu.mfma %371 * %275 + %266#2 {blocks = 1 : i32, k = 8 : i32, m = 32 : i32, n = 32 : i32} blgp =  none : vector<4xf16>, vector<4xf16>, vector<16xf32>
        %411 = amdgpu.mfma %373 * %280 + %410 {blocks = 1 : i32, k = 8 : i32, m = 32 : i32, n = 32 : i32} blgp =  none : vector<4xf16>, vector<4xf16>, vector<16xf32>
        %412 = amdgpu.mfma %375 * %285 + %411 {blocks = 1 : i32, k = 8 : i32, m = 32 : i32, n = 32 : i32} blgp =  none : vector<4xf16>, vector<4xf16>, vector<16xf32>
        %413 = amdgpu.mfma %377 * %290 + %412 {blocks = 1 : i32, k = 8 : i32, m = 32 : i32, n = 32 : i32} blgp =  none : vector<4xf16>, vector<4xf16>, vector<16xf32>
        %414 = amdgpu.mfma %379 * %295 + %413 {blocks = 1 : i32, k = 8 : i32, m = 32 : i32, n = 32 : i32} blgp =  none : vector<4xf16>, vector<4xf16>, vector<16xf32>
        %415 = amdgpu.mfma %381 * %300 + %414 {blocks = 1 : i32, k = 8 : i32, m = 32 : i32, n = 32 : i32} blgp =  none : vector<4xf16>, vector<4xf16>, vector<16xf32>
        %416 = amdgpu.mfma %383 * %305 + %415 {blocks = 1 : i32, k = 8 : i32, m = 32 : i32, n = 32 : i32} blgp =  none : vector<4xf16>, vector<4xf16>, vector<16xf32>
        %417 = amdgpu.mfma %385 * %310 + %416 {blocks = 1 : i32, k = 8 : i32, m = 32 : i32, n = 32 : i32} blgp =  none : vector<4xf16>, vector<4xf16>, vector<16xf32>
        %418 = amdgpu.mfma %387 * %315 + %417 {blocks = 1 : i32, k = 8 : i32, m = 32 : i32, n = 32 : i32} blgp =  none : vector<4xf16>, vector<4xf16>, vector<16xf32>
        %419 = amdgpu.mfma %389 * %320 + %418 {blocks = 1 : i32, k = 8 : i32, m = 32 : i32, n = 32 : i32} blgp =  none : vector<4xf16>, vector<4xf16>, vector<16xf32>
        %420 = amdgpu.mfma %371 * %325 + %266#3 {blocks = 1 : i32, k = 8 : i32, m = 32 : i32, n = 32 : i32} blgp =  none : vector<4xf16>, vector<4xf16>, vector<16xf32>
        %421 = amdgpu.mfma %373 * %327 + %420 {blocks = 1 : i32, k = 8 : i32, m = 32 : i32, n = 32 : i32} blgp =  none : vector<4xf16>, vector<4xf16>, vector<16xf32>
        %422 = amdgpu.mfma %375 * %329 + %421 {blocks = 1 : i32, k = 8 : i32, m = 32 : i32, n = 32 : i32} blgp =  none : vector<4xf16>, vector<4xf16>, vector<16xf32>
        %423 = amdgpu.mfma %377 * %331 + %422 {blocks = 1 : i32, k = 8 : i32, m = 32 : i32, n = 32 : i32} blgp =  none : vector<4xf16>, vector<4xf16>, vector<16xf32>
        %424 = amdgpu.mfma %379 * %333 + %423 {blocks = 1 : i32, k = 8 : i32, m = 32 : i32, n = 32 : i32} blgp =  none : vector<4xf16>, vector<4xf16>, vector<16xf32>
        %425 = amdgpu.mfma %381 * %335 + %424 {blocks = 1 : i32, k = 8 : i32, m = 32 : i32, n = 32 : i32} blgp =  none : vector<4xf16>, vector<4xf16>, vector<16xf32>
        %426 = amdgpu.mfma %383 * %337 + %425 {blocks = 1 : i32, k = 8 : i32, m = 32 : i32, n = 32 : i32} blgp =  none : vector<4xf16>, vector<4xf16>, vector<16xf32>
        %427 = amdgpu.mfma %385 * %339 + %426 {blocks = 1 : i32, k = 8 : i32, m = 32 : i32, n = 32 : i32} blgp =  none : vector<4xf16>, vector<4xf16>, vector<16xf32>
        %428 = amdgpu.mfma %387 * %341 + %427 {blocks = 1 : i32, k = 8 : i32, m = 32 : i32, n = 32 : i32} blgp =  none : vector<4xf16>, vector<4xf16>, vector<16xf32>
        %429 = amdgpu.mfma %389 * %343 + %428 {blocks = 1 : i32, k = 8 : i32, m = 32 : i32, n = 32 : i32} blgp =  none : vector<4xf16>, vector<4xf16>, vector<16xf32>
        %430 = vector.extract_strided_slice %399 {offsets = [0], sizes = [1], strides = [1]} : vector<16xf32> to vector<1xf32>
        %431 = stream.binding.subspan %arg2[%c0] : !stream.binding -> memref<1024x1024xf32, strided<[1024, 1], offset: ?>>
        %432 = affine.apply #map35()[%block_id_y, %thread_id_y]
        %433 = affine.apply #map36()[%block_id_y]
        %434 = arith.minsi %432, %433 : index
        %435 = arith.minsi %434, %c1024 : index
        %436 = affine.apply #map37()[%thread_id_x, %block_id_x, %block_id_y, %thread_id_y]
        %437 = arith.cmpi slt, %436, %435 : index
        %438 = affine.apply #map38()[%block_id_x, %thread_id_x]
        %439 = affine.apply #map39()[%block_id_x]
        %440 = arith.minsi %438, %439 : index
        %441 = arith.minsi %440, %c1024 : index
        %442 = affine.apply #map40()[%block_id_x, %block_id_y, %thread_id_x]
        %443 = arith.cmpi slt, %442, %441 : index
        %444 = arith.andi %437, %443 : i1
        %445 = affine.apply #map41()[%block_id_x, %block_id_y]
        %446 = affine.apply #map42()[%block_id_x, %block_id_y]
        %447 = affine.apply #map43()[%thread_id_x]
        %448 = arith.muli %445, %c1024 overflow<nsw> : index
        %449 = arith.muli %447, %c1024 overflow<nsw> : index
        %450 = arith.addi %448, %446 overflow<nsw> : index
        %451 = arith.addi %449, %271 overflow<nsw> : index
        %base_buffer_23, %offset_24, %sizes_25:2, %strides_26:2 = memref.extract_strided_metadata %431 : memref<1024x1024xf32, strided<[1024, 1], offset: ?>> -> memref<f32>, index, index, index, index, index
        %452 = arith.addi %450, %offset_24 overflow<nsw> : index
        %reinterpret_cast_27 = memref.reinterpret_cast %431 to offset: [%452], sizes: [%c536870910], strides: [1] : memref<1024x1024xf32, strided<[1024, 1], offset: ?>> to memref<?xf32, strided<[1], offset: ?>>
        %453 = amdgpu.fat_raw_buffer_cast %reinterpret_cast_27 validBytes(%c2147483643_i32) cacheSwizzleStride(%c1024_i14) resetOffset : memref<?xf32, strided<[1], offset: ?>> to memref<?xf32, #amdgpu.address_space<fat_raw_buffer>>
        %454 = arith.select %444, %451, %c536870911 : index
        vector.store %430, %453[%454] : memref<?xf32, #amdgpu.address_space<fat_raw_buffer>>, vector<1xf32>
        %455 = vector.extract_strided_slice %399 {offsets = [1], sizes = [1], strides = [1]} : vector<16xf32> to vector<1xf32>
        %456 = affine.apply #map44()[%block_id_x, %block_id_y, %thread_id_x]
        %457 = arith.cmpi slt, %456, %441 : index
        %458 = arith.andi %437, %457 : i1
        %459 = affine.apply #map45()[%thread_id_x]
        %460 = arith.muli %459, %c1024 overflow<nsw> : index
        %461 = arith.addi %460, %271 overflow<nsw> : index
        %462 = arith.select %458, %461, %c536870911 : index
        vector.store %455, %453[%462] : memref<?xf32, #amdgpu.address_space<fat_raw_buffer>>, vector<1xf32>
        %463 = vector.extract_strided_slice %399 {offsets = [2], sizes = [1], strides = [1]} : vector<16xf32> to vector<1xf32>
        %464 = affine.apply #map46()[%block_id_x, %block_id_y, %thread_id_x]
        %465 = arith.cmpi slt, %464, %441 : index
        %466 = arith.andi %437, %465 : i1
        %467 = affine.apply #map47()[%thread_id_x]
        %468 = arith.muli %467, %c1024 overflow<nsw> : index
        %469 = arith.addi %468, %271 overflow<nsw> : index
        %470 = arith.select %466, %469, %c536870911 : index
        vector.store %463, %453[%470] : memref<?xf32, #amdgpu.address_space<fat_raw_buffer>>, vector<1xf32>
        %471 = vector.extract_strided_slice %399 {offsets = [3], sizes = [1], strides = [1]} : vector<16xf32> to vector<1xf32>
        %472 = affine.apply #map48()[%block_id_x, %block_id_y, %thread_id_x]
        %473 = arith.cmpi slt, %472, %441 : index
        %474 = arith.andi %437, %473 : i1
        %475 = affine.apply #map49()[%thread_id_x]
        %476 = arith.muli %475, %c1024 overflow<nsw> : index
        %477 = arith.addi %476, %271 overflow<nsw> : index
        %478 = arith.select %474, %477, %c536870911 : index
        vector.store %471, %453[%478] : memref<?xf32, #amdgpu.address_space<fat_raw_buffer>>, vector<1xf32>
        %479 = vector.extract_strided_slice %399 {offsets = [4], sizes = [1], strides = [1]} : vector<16xf32> to vector<1xf32>
        %480 = affine.apply #map50()[%block_id_x, %block_id_y, %thread_id_x]
        %481 = arith.cmpi slt, %480, %441 : index
        %482 = arith.andi %437, %481 : i1
        %483 = affine.apply #map51()[%thread_id_x]
        %484 = arith.muli %483, %c1024 overflow<nsw> : index
        %485 = arith.addi %484, %271 overflow<nsw> : index
        %486 = arith.select %482, %485, %c536870911 : index
        vector.store %479, %453[%486] : memref<?xf32, #amdgpu.address_space<fat_raw_buffer>>, vector<1xf32>
        %487 = vector.extract_strided_slice %399 {offsets = [5], sizes = [1], strides = [1]} : vector<16xf32> to vector<1xf32>
        %488 = affine.apply #map52()[%block_id_x, %block_id_y, %thread_id_x]
        %489 = arith.cmpi slt, %488, %441 : index
        %490 = arith.andi %437, %489 : i1
        %491 = affine.apply #map53()[%thread_id_x]
        %492 = arith.muli %491, %c1024 overflow<nsw> : index
        %493 = arith.addi %492, %271 overflow<nsw> : index
        %494 = arith.select %490, %493, %c536870911 : index
        vector.store %487, %453[%494] : memref<?xf32, #amdgpu.address_space<fat_raw_buffer>>, vector<1xf32>
        %495 = vector.extract_strided_slice %399 {offsets = [6], sizes = [1], strides = [1]} : vector<16xf32> to vector<1xf32>
        %496 = affine.apply #map54()[%block_id_x, %block_id_y, %thread_id_x]
        %497 = arith.cmpi slt, %496, %441 : index
        %498 = arith.andi %437, %497 : i1
        %499 = affine.apply #map55()[%thread_id_x]
        %500 = arith.muli %499, %c1024 overflow<nsw> : index
        %501 = arith.addi %500, %271 overflow<nsw> : index
        %502 = arith.select %498, %501, %c536870911 : index
        vector.store %495, %453[%502] : memref<?xf32, #amdgpu.address_space<fat_raw_buffer>>, vector<1xf32>
        %503 = vector.extract_strided_slice %399 {offsets = [7], sizes = [1], strides = [1]} : vector<16xf32> to vector<1xf32>
        %504 = affine.apply #map56()[%block_id_x, %block_id_y, %thread_id_x]
        %505 = arith.cmpi slt, %504, %441 : index
        %506 = arith.andi %437, %505 : i1
        %507 = affine.apply #map57()[%thread_id_x]
        %508 = arith.muli %507, %c1024 overflow<nsw> : index
        %509 = arith.addi %508, %271 overflow<nsw> : index
        %510 = arith.select %506, %509, %c536870911 : index
        vector.store %503, %453[%510] : memref<?xf32, #amdgpu.address_space<fat_raw_buffer>>, vector<1xf32>
        %511 = vector.extract_strided_slice %399 {offsets = [8], sizes = [1], strides = [1]} : vector<16xf32> to vector<1xf32>
        %512 = affine.apply #map58()[%block_id_x, %block_id_y, %thread_id_x]
        %513 = arith.cmpi slt, %512, %441 : index
        %514 = arith.andi %437, %513 : i1
        %515 = affine.apply #map59()[%thread_id_x]
        %516 = arith.muli %515, %c1024 overflow<nsw> : index
        %517 = arith.addi %516, %271 overflow<nsw> : index
        %518 = arith.select %514, %517, %c536870911 : index
        vector.store %511, %453[%518] : memref<?xf32, #amdgpu.address_space<fat_raw_buffer>>, vector<1xf32>
        %519 = vector.extract_strided_slice %399 {offsets = [9], sizes = [1], strides = [1]} : vector<16xf32> to vector<1xf32>
        %520 = affine.apply #map60()[%block_id_x, %block_id_y, %thread_id_x]
        %521 = arith.cmpi slt, %520, %441 : index
        %522 = arith.andi %437, %521 : i1
        %523 = affine.apply #map61()[%thread_id_x]
        %524 = arith.muli %523, %c1024 overflow<nsw> : index
        %525 = arith.addi %524, %271 overflow<nsw> : index
        %526 = arith.select %522, %525, %c536870911 : index
        vector.store %519, %453[%526] : memref<?xf32, #amdgpu.address_space<fat_raw_buffer>>, vector<1xf32>
        %527 = vector.extract_strided_slice %399 {offsets = [10], sizes = [1], strides = [1]} : vector<16xf32> to vector<1xf32>
        %528 = affine.apply #map62()[%block_id_x, %block_id_y, %thread_id_x]
        %529 = arith.cmpi slt, %528, %441 : index
        %530 = arith.andi %437, %529 : i1
        %531 = affine.apply #map63()[%thread_id_x]
        %532 = arith.muli %531, %c1024 overflow<nsw> : index
        %533 = arith.addi %532, %271 overflow<nsw> : index
        %534 = arith.select %530, %533, %c536870911 : index
        vector.store %527, %453[%534] : memref<?xf32, #amdgpu.address_space<fat_raw_buffer>>, vector<1xf32>
        %535 = vector.extract_strided_slice %399 {offsets = [11], sizes = [1], strides = [1]} : vector<16xf32> to vector<1xf32>
        %536 = affine.apply #map64()[%block_id_x, %block_id_y, %thread_id_x]
        %537 = arith.cmpi slt, %536, %441 : index
        %538 = arith.andi %437, %537 : i1
        %539 = affine.apply #map65()[%thread_id_x]
        %540 = arith.muli %539, %c1024 overflow<nsw> : index
        %541 = arith.addi %540, %271 overflow<nsw> : index
        %542 = arith.select %538, %541, %c536870911 : index
        vector.store %535, %453[%542] : memref<?xf32, #amdgpu.address_space<fat_raw_buffer>>, vector<1xf32>
        %543 = vector.extract_strided_slice %399 {offsets = [12], sizes = [1], strides = [1]} : vector<16xf32> to vector<1xf32>
        %544 = affine.apply #map66()[%block_id_x, %block_id_y, %thread_id_x]
        %545 = arith.cmpi slt, %544, %441 : index
        %546 = arith.andi %437, %545 : i1
        %547 = affine.apply #map67()[%thread_id_x]
        %548 = arith.muli %547, %c1024 overflow<nsw> : index
        %549 = arith.addi %548, %271 overflow<nsw> : index
        %550 = arith.select %546, %549, %c536870911 : index
        vector.store %543, %453[%550] : memref<?xf32, #amdgpu.address_space<fat_raw_buffer>>, vector<1xf32>
        %551 = vector.extract_strided_slice %399 {offsets = [13], sizes = [1], strides = [1]} : vector<16xf32> to vector<1xf32>
        %552 = affine.apply #map68()[%block_id_x, %block_id_y, %thread_id_x]
        %553 = arith.cmpi slt, %552, %441 : index
        %554 = arith.andi %437, %553 : i1
        %555 = affine.apply #map69()[%thread_id_x]
        %556 = arith.muli %555, %c1024 overflow<nsw> : index
        %557 = arith.addi %556, %271 overflow<nsw> : index
        %558 = arith.select %554, %557, %c536870911 : index
        vector.store %551, %453[%558] : memref<?xf32, #amdgpu.address_space<fat_raw_buffer>>, vector<1xf32>
        %559 = vector.extract_strided_slice %399 {offsets = [14], sizes = [1], strides = [1]} : vector<16xf32> to vector<1xf32>
        %560 = affine.apply #map70()[%block_id_x, %block_id_y, %thread_id_x]
        %561 = arith.cmpi slt, %560, %441 : index
        %562 = arith.andi %437, %561 : i1
        %563 = affine.apply #map71()[%thread_id_x]
        %564 = arith.muli %563, %c1024 overflow<nsw> : index
        %565 = arith.addi %564, %271 overflow<nsw> : index
        %566 = arith.select %562, %565, %c536870911 : index
        vector.store %559, %453[%566] : memref<?xf32, #amdgpu.address_space<fat_raw_buffer>>, vector<1xf32>
        %567 = vector.extract_strided_slice %399 {offsets = [15], sizes = [1], strides = [1]} : vector<16xf32> to vector<1xf32>
        %568 = affine.apply #map72()[%block_id_x, %block_id_y, %thread_id_x]
        %569 = arith.cmpi slt, %568, %441 : index
        %570 = arith.andi %437, %569 : i1
        %571 = affine.apply #map73()[%thread_id_x]
        %572 = arith.muli %571, %c1024 overflow<nsw> : index
        %573 = arith.addi %572, %271 overflow<nsw> : index
        %574 = arith.select %570, %573, %c536870911 : index
        vector.store %567, %453[%574] : memref<?xf32, #amdgpu.address_space<fat_raw_buffer>>, vector<1xf32>
        %575 = vector.extract_strided_slice %409 {offsets = [0], sizes = [1], strides = [1]} : vector<16xf32> to vector<1xf32>
        %576 = affine.apply #map74()[%thread_id_x, %block_id_x, %block_id_y, %thread_id_y]
        %577 = arith.cmpi slt, %576, %435 : index
        %578 = arith.andi %577, %443 : i1
        %579 = arith.addi %449, %321 overflow<nsw> : index
        %580 = arith.select %578, %579, %c536870911 : index
        vector.store %575, %453[%580] : memref<?xf32, #amdgpu.address_space<fat_raw_buffer>>, vector<1xf32>
        %581 = vector.extract_strided_slice %409 {offsets = [1], sizes = [1], strides = [1]} : vector<16xf32> to vector<1xf32>
        %582 = arith.andi %577, %457 : i1
        %583 = arith.addi %460, %321 overflow<nsw> : index
        %584 = arith.select %582, %583, %c536870911 : index
        vector.store %581, %453[%584] : memref<?xf32, #amdgpu.address_space<fat_raw_buffer>>, vector<1xf32>
        %585 = vector.extract_strided_slice %409 {offsets = [2], sizes = [1], strides = [1]} : vector<16xf32> to vector<1xf32>
        %586 = arith.andi %577, %465 : i1
        %587 = arith.addi %468, %321 overflow<nsw> : index
        %588 = arith.select %586, %587, %c536870911 : index
        vector.store %585, %453[%588] : memref<?xf32, #amdgpu.address_space<fat_raw_buffer>>, vector<1xf32>
        %589 = vector.extract_strided_slice %409 {offsets = [3], sizes = [1], strides = [1]} : vector<16xf32> to vector<1xf32>
        %590 = arith.andi %577, %473 : i1
        %591 = arith.addi %476, %321 overflow<nsw> : index
        %592 = arith.select %590, %591, %c536870911 : index
        vector.store %589, %453[%592] : memref<?xf32, #amdgpu.address_space<fat_raw_buffer>>, vector<1xf32>
        %593 = vector.extract_strided_slice %409 {offsets = [4], sizes = [1], strides = [1]} : vector<16xf32> to vector<1xf32>
        %594 = arith.andi %577, %481 : i1
        %595 = arith.addi %484, %321 overflow<nsw> : index
        %596 = arith.select %594, %595, %c536870911 : index
        vector.store %593, %453[%596] : memref<?xf32, #amdgpu.address_space<fat_raw_buffer>>, vector<1xf32>
        %597 = vector.extract_strided_slice %409 {offsets = [5], sizes = [1], strides = [1]} : vector<16xf32> to vector<1xf32>
        %598 = arith.andi %577, %489 : i1
        %599 = arith.addi %492, %321 overflow<nsw> : index
        %600 = arith.select %598, %599, %c536870911 : index
        vector.store %597, %453[%600] : memref<?xf32, #amdgpu.address_space<fat_raw_buffer>>, vector<1xf32>
        %601 = vector.extract_strided_slice %409 {offsets = [6], sizes = [1], strides = [1]} : vector<16xf32> to vector<1xf32>
        %602 = arith.andi %577, %497 : i1
        %603 = arith.addi %500, %321 overflow<nsw> : index
        %604 = arith.select %602, %603, %c536870911 : index
        vector.store %601, %453[%604] : memref<?xf32, #amdgpu.address_space<fat_raw_buffer>>, vector<1xf32>
        %605 = vector.extract_strided_slice %409 {offsets = [7], sizes = [1], strides = [1]} : vector<16xf32> to vector<1xf32>
        %606 = arith.andi %577, %505 : i1
        %607 = arith.addi %508, %321 overflow<nsw> : index
        %608 = arith.select %606, %607, %c536870911 : index
        vector.store %605, %453[%608] : memref<?xf32, #amdgpu.address_space<fat_raw_buffer>>, vector<1xf32>
        %609 = vector.extract_strided_slice %409 {offsets = [8], sizes = [1], strides = [1]} : vector<16xf32> to vector<1xf32>
        %610 = arith.andi %577, %513 : i1
        %611 = arith.addi %516, %321 overflow<nsw> : index
        %612 = arith.select %610, %611, %c536870911 : index
        vector.store %609, %453[%612] : memref<?xf32, #amdgpu.address_space<fat_raw_buffer>>, vector<1xf32>
        %613 = vector.extract_strided_slice %409 {offsets = [9], sizes = [1], strides = [1]} : vector<16xf32> to vector<1xf32>
        %614 = arith.andi %577, %521 : i1
        %615 = arith.addi %524, %321 overflow<nsw> : index
        %616 = arith.select %614, %615, %c536870911 : index
        vector.store %613, %453[%616] : memref<?xf32, #amdgpu.address_space<fat_raw_buffer>>, vector<1xf32>
        %617 = vector.extract_strided_slice %409 {offsets = [10], sizes = [1], strides = [1]} : vector<16xf32> to vector<1xf32>
        %618 = arith.andi %577, %529 : i1
        %619 = arith.addi %532, %321 overflow<nsw> : index
        %620 = arith.select %618, %619, %c536870911 : index
        vector.store %617, %453[%620] : memref<?xf32, #amdgpu.address_space<fat_raw_buffer>>, vector<1xf32>
        %621 = vector.extract_strided_slice %409 {offsets = [11], sizes = [1], strides = [1]} : vector<16xf32> to vector<1xf32>
        %622 = arith.andi %577, %537 : i1
        %623 = arith.addi %540, %321 overflow<nsw> : index
        %624 = arith.select %622, %623, %c536870911 : index
        vector.store %621, %453[%624] : memref<?xf32, #amdgpu.address_space<fat_raw_buffer>>, vector<1xf32>
        %625 = vector.extract_strided_slice %409 {offsets = [12], sizes = [1], strides = [1]} : vector<16xf32> to vector<1xf32>
        %626 = arith.andi %577, %545 : i1
        %627 = arith.addi %548, %321 overflow<nsw> : index
        %628 = arith.select %626, %627, %c536870911 : index
        vector.store %625, %453[%628] : memref<?xf32, #amdgpu.address_space<fat_raw_buffer>>, vector<1xf32>
        %629 = vector.extract_strided_slice %409 {offsets = [13], sizes = [1], strides = [1]} : vector<16xf32> to vector<1xf32>
        %630 = arith.andi %577, %553 : i1
        %631 = arith.addi %556, %321 overflow<nsw> : index
        %632 = arith.select %630, %631, %c536870911 : index
        vector.store %629, %453[%632] : memref<?xf32, #amdgpu.address_space<fat_raw_buffer>>, vector<1xf32>
        %633 = vector.extract_strided_slice %409 {offsets = [14], sizes = [1], strides = [1]} : vector<16xf32> to vector<1xf32>
        %634 = arith.andi %577, %561 : i1
        %635 = arith.addi %564, %321 overflow<nsw> : index
        %636 = arith.select %634, %635, %c536870911 : index
        vector.store %633, %453[%636] : memref<?xf32, #amdgpu.address_space<fat_raw_buffer>>, vector<1xf32>
        %637 = vector.extract_strided_slice %409 {offsets = [15], sizes = [1], strides = [1]} : vector<16xf32> to vector<1xf32>
        %638 = arith.andi %577, %569 : i1
        %639 = arith.addi %572, %321 overflow<nsw> : index
        %640 = arith.select %638, %639, %c536870911 : index
        vector.store %637, %453[%640] : memref<?xf32, #amdgpu.address_space<fat_raw_buffer>>, vector<1xf32>
        %641 = vector.extract_strided_slice %419 {offsets = [0], sizes = [1], strides = [1]} : vector<16xf32> to vector<1xf32>
        %642 = affine.apply #map75()[%block_id_x, %block_id_y, %thread_id_x]
        %643 = arith.cmpi slt, %642, %441 : index
        %644 = arith.andi %437, %643 : i1
        %645 = affine.apply #map76()[%thread_id_x]
        %646 = arith.muli %645, %c1024 overflow<nsw> : index
        %647 = arith.addi %646, %271 overflow<nsw> : index
        %648 = arith.select %644, %647, %c536870911 : index
        vector.store %641, %453[%648] : memref<?xf32, #amdgpu.address_space<fat_raw_buffer>>, vector<1xf32>
        %649 = vector.extract_strided_slice %419 {offsets = [1], sizes = [1], strides = [1]} : vector<16xf32> to vector<1xf32>
        %650 = affine.apply #map77()[%block_id_x, %block_id_y, %thread_id_x]
        %651 = arith.cmpi slt, %650, %441 : index
        %652 = arith.andi %437, %651 : i1
        %653 = affine.apply #map78()[%thread_id_x]
        %654 = arith.muli %653, %c1024 overflow<nsw> : index
        %655 = arith.addi %654, %271 overflow<nsw> : index
        %656 = arith.select %652, %655, %c536870911 : index
        vector.store %649, %453[%656] : memref<?xf32, #amdgpu.address_space<fat_raw_buffer>>, vector<1xf32>
        %657 = vector.extract_strided_slice %419 {offsets = [2], sizes = [1], strides = [1]} : vector<16xf32> to vector<1xf32>
        %658 = affine.apply #map79()[%block_id_x, %block_id_y, %thread_id_x]
        %659 = arith.cmpi slt, %658, %441 : index
        %660 = arith.andi %437, %659 : i1
        %661 = affine.apply #map80()[%thread_id_x]
        %662 = arith.muli %661, %c1024 overflow<nsw> : index
        %663 = arith.addi %662, %271 overflow<nsw> : index
        %664 = arith.select %660, %663, %c536870911 : index
        vector.store %657, %453[%664] : memref<?xf32, #amdgpu.address_space<fat_raw_buffer>>, vector<1xf32>
        %665 = vector.extract_strided_slice %419 {offsets = [3], sizes = [1], strides = [1]} : vector<16xf32> to vector<1xf32>
        %666 = affine.apply #map81()[%block_id_x, %block_id_y, %thread_id_x]
        %667 = arith.cmpi slt, %666, %441 : index
        %668 = arith.andi %437, %667 : i1
        %669 = affine.apply #map82()[%thread_id_x]
        %670 = arith.muli %669, %c1024 overflow<nsw> : index
        %671 = arith.addi %670, %271 overflow<nsw> : index
        %672 = arith.select %668, %671, %c536870911 : index
        vector.store %665, %453[%672] : memref<?xf32, #amdgpu.address_space<fat_raw_buffer>>, vector<1xf32>
        %673 = vector.extract_strided_slice %419 {offsets = [4], sizes = [1], strides = [1]} : vector<16xf32> to vector<1xf32>
        %674 = affine.apply #map83()[%block_id_x, %block_id_y, %thread_id_x]
        %675 = arith.cmpi slt, %674, %441 : index
        %676 = arith.andi %437, %675 : i1
        %677 = affine.apply #map84()[%thread_id_x]
        %678 = arith.muli %677, %c1024 overflow<nsw> : index
        %679 = arith.addi %678, %271 overflow<nsw> : index
        %680 = arith.select %676, %679, %c536870911 : index
        vector.store %673, %453[%680] : memref<?xf32, #amdgpu.address_space<fat_raw_buffer>>, vector<1xf32>
        %681 = vector.extract_strided_slice %419 {offsets = [5], sizes = [1], strides = [1]} : vector<16xf32> to vector<1xf32>
        %682 = affine.apply #map85()[%block_id_x, %block_id_y, %thread_id_x]
        %683 = arith.cmpi slt, %682, %441 : index
        %684 = arith.andi %437, %683 : i1
        %685 = affine.apply #map86()[%thread_id_x]
        %686 = arith.muli %685, %c1024 overflow<nsw> : index
        %687 = arith.addi %686, %271 overflow<nsw> : index
        %688 = arith.select %684, %687, %c536870911 : index
        vector.store %681, %453[%688] : memref<?xf32, #amdgpu.address_space<fat_raw_buffer>>, vector<1xf32>
        %689 = vector.extract_strided_slice %419 {offsets = [6], sizes = [1], strides = [1]} : vector<16xf32> to vector<1xf32>
        %690 = affine.apply #map87()[%block_id_x, %block_id_y, %thread_id_x]
        %691 = arith.cmpi slt, %690, %441 : index
        %692 = arith.andi %437, %691 : i1
        %693 = affine.apply #map88()[%thread_id_x]
        %694 = arith.muli %693, %c1024 overflow<nsw> : index
        %695 = arith.addi %694, %271 overflow<nsw> : index
        %696 = arith.select %692, %695, %c536870911 : index
        vector.store %689, %453[%696] : memref<?xf32, #amdgpu.address_space<fat_raw_buffer>>, vector<1xf32>
        %697 = vector.extract_strided_slice %419 {offsets = [7], sizes = [1], strides = [1]} : vector<16xf32> to vector<1xf32>
        %698 = affine.apply #map89()[%block_id_x, %block_id_y, %thread_id_x]
        %699 = arith.cmpi slt, %698, %441 : index
        %700 = arith.andi %437, %699 : i1
        %701 = affine.apply #map90()[%thread_id_x]
        %702 = arith.muli %701, %c1024 overflow<nsw> : index
        %703 = arith.addi %702, %271 overflow<nsw> : index
        %704 = arith.select %700, %703, %c536870911 : index
        vector.store %697, %453[%704] : memref<?xf32, #amdgpu.address_space<fat_raw_buffer>>, vector<1xf32>
        %705 = vector.extract_strided_slice %419 {offsets = [8], sizes = [1], strides = [1]} : vector<16xf32> to vector<1xf32>
        %706 = affine.apply #map91()[%block_id_x, %block_id_y, %thread_id_x]
        %707 = arith.cmpi slt, %706, %441 : index
        %708 = arith.andi %437, %707 : i1
        %709 = affine.apply #map92()[%thread_id_x]
        %710 = arith.muli %709, %c1024 overflow<nsw> : index
        %711 = arith.addi %710, %271 overflow<nsw> : index
        %712 = arith.select %708, %711, %c536870911 : index
        vector.store %705, %453[%712] : memref<?xf32, #amdgpu.address_space<fat_raw_buffer>>, vector<1xf32>
        %713 = vector.extract_strided_slice %419 {offsets = [9], sizes = [1], strides = [1]} : vector<16xf32> to vector<1xf32>
        %714 = affine.apply #map93()[%block_id_x, %block_id_y, %thread_id_x]
        %715 = arith.cmpi slt, %714, %441 : index
        %716 = arith.andi %437, %715 : i1
        %717 = affine.apply #map94()[%thread_id_x]
        %718 = arith.muli %717, %c1024 overflow<nsw> : index
        %719 = arith.addi %718, %271 overflow<nsw> : index
        %720 = arith.select %716, %719, %c536870911 : index
        vector.store %713, %453[%720] : memref<?xf32, #amdgpu.address_space<fat_raw_buffer>>, vector<1xf32>
        %721 = vector.extract_strided_slice %419 {offsets = [10], sizes = [1], strides = [1]} : vector<16xf32> to vector<1xf32>
        %722 = affine.apply #map95()[%block_id_x, %block_id_y, %thread_id_x]
        %723 = arith.cmpi slt, %722, %441 : index
        %724 = arith.andi %437, %723 : i1
        %725 = affine.apply #map96()[%thread_id_x]
        %726 = arith.muli %725, %c1024 overflow<nsw> : index
        %727 = arith.addi %726, %271 overflow<nsw> : index
        %728 = arith.select %724, %727, %c536870911 : index
        vector.store %721, %453[%728] : memref<?xf32, #amdgpu.address_space<fat_raw_buffer>>, vector<1xf32>
        %729 = vector.extract_strided_slice %419 {offsets = [11], sizes = [1], strides = [1]} : vector<16xf32> to vector<1xf32>
        %730 = affine.apply #map97()[%block_id_x, %block_id_y, %thread_id_x]
        %731 = arith.cmpi slt, %730, %441 : index
        %732 = arith.andi %437, %731 : i1
        %733 = affine.apply #map98()[%thread_id_x]
        %734 = arith.muli %733, %c1024 overflow<nsw> : index
        %735 = arith.addi %734, %271 overflow<nsw> : index
        %736 = arith.select %732, %735, %c536870911 : index
        vector.store %729, %453[%736] : memref<?xf32, #amdgpu.address_space<fat_raw_buffer>>, vector<1xf32>
        %737 = vector.extract_strided_slice %419 {offsets = [12], sizes = [1], strides = [1]} : vector<16xf32> to vector<1xf32>
        %738 = affine.apply #map99()[%block_id_x, %block_id_y, %thread_id_x]
        %739 = arith.cmpi slt, %738, %441 : index
        %740 = arith.andi %437, %739 : i1
        %741 = affine.apply #map100()[%thread_id_x]
        %742 = arith.muli %741, %c1024 overflow<nsw> : index
        %743 = arith.addi %742, %271 overflow<nsw> : index
        %744 = arith.select %740, %743, %c536870911 : index
        vector.store %737, %453[%744] : memref<?xf32, #amdgpu.address_space<fat_raw_buffer>>, vector<1xf32>
        %745 = vector.extract_strided_slice %419 {offsets = [13], sizes = [1], strides = [1]} : vector<16xf32> to vector<1xf32>
        %746 = affine.apply #map101()[%block_id_x, %block_id_y, %thread_id_x]
        %747 = arith.cmpi slt, %746, %441 : index
        %748 = arith.andi %437, %747 : i1
        %749 = affine.apply #map102()[%thread_id_x]
        %750 = arith.muli %749, %c1024 overflow<nsw> : index
        %751 = arith.addi %750, %271 overflow<nsw> : index
        %752 = arith.select %748, %751, %c536870911 : index
        vector.store %745, %453[%752] : memref<?xf32, #amdgpu.address_space<fat_raw_buffer>>, vector<1xf32>
        %753 = vector.extract_strided_slice %419 {offsets = [14], sizes = [1], strides = [1]} : vector<16xf32> to vector<1xf32>
        %754 = affine.apply #map103()[%block_id_x, %block_id_y, %thread_id_x]
        %755 = arith.cmpi slt, %754, %441 : index
        %756 = arith.andi %437, %755 : i1
        %757 = affine.apply #map104()[%thread_id_x]
        %758 = arith.muli %757, %c1024 overflow<nsw> : index
        %759 = arith.addi %758, %271 overflow<nsw> : index
        %760 = arith.select %756, %759, %c536870911 : index
        vector.store %753, %453[%760] : memref<?xf32, #amdgpu.address_space<fat_raw_buffer>>, vector<1xf32>
        %761 = vector.extract_strided_slice %419 {offsets = [15], sizes = [1], strides = [1]} : vector<16xf32> to vector<1xf32>
        %762 = affine.apply #map105()[%block_id_x, %block_id_y, %thread_id_x]
        %763 = arith.cmpi slt, %762, %441 : index
        %764 = arith.andi %437, %763 : i1
        %765 = affine.apply #map106()[%thread_id_x]
        %766 = arith.muli %765, %c1024 overflow<nsw> : index
        %767 = arith.addi %766, %271 overflow<nsw> : index
        %768 = arith.select %764, %767, %c536870911 : index
        vector.store %761, %453[%768] : memref<?xf32, #amdgpu.address_space<fat_raw_buffer>>, vector<1xf32>
        %769 = vector.extract_strided_slice %429 {offsets = [0], sizes = [1], strides = [1]} : vector<16xf32> to vector<1xf32>
        %770 = arith.andi %577, %643 : i1
        %771 = arith.addi %646, %321 overflow<nsw> : index
        %772 = arith.select %770, %771, %c536870911 : index
        vector.store %769, %453[%772] : memref<?xf32, #amdgpu.address_space<fat_raw_buffer>>, vector<1xf32>
        %773 = vector.extract_strided_slice %429 {offsets = [1], sizes = [1], strides = [1]} : vector<16xf32> to vector<1xf32>
        %774 = arith.andi %577, %651 : i1
        %775 = arith.addi %654, %321 overflow<nsw> : index
        %776 = arith.select %774, %775, %c536870911 : index
        vector.store %773, %453[%776] : memref<?xf32, #amdgpu.address_space<fat_raw_buffer>>, vector<1xf32>
        %777 = vector.extract_strided_slice %429 {offsets = [2], sizes = [1], strides = [1]} : vector<16xf32> to vector<1xf32>
        %778 = arith.andi %577, %659 : i1
        %779 = arith.addi %662, %321 overflow<nsw> : index
        %780 = arith.select %778, %779, %c536870911 : index
        vector.store %777, %453[%780] : memref<?xf32, #amdgpu.address_space<fat_raw_buffer>>, vector<1xf32>
        %781 = vector.extract_strided_slice %429 {offsets = [3], sizes = [1], strides = [1]} : vector<16xf32> to vector<1xf32>
        %782 = arith.andi %577, %667 : i1
        %783 = arith.addi %670, %321 overflow<nsw> : index
        %784 = arith.select %782, %783, %c536870911 : index
        vector.store %781, %453[%784] : memref<?xf32, #amdgpu.address_space<fat_raw_buffer>>, vector<1xf32>
        %785 = vector.extract_strided_slice %429 {offsets = [4], sizes = [1], strides = [1]} : vector<16xf32> to vector<1xf32>
        %786 = arith.andi %577, %675 : i1
        %787 = arith.addi %678, %321 overflow<nsw> : index
        %788 = arith.select %786, %787, %c536870911 : index
        vector.store %785, %453[%788] : memref<?xf32, #amdgpu.address_space<fat_raw_buffer>>, vector<1xf32>
        %789 = vector.extract_strided_slice %429 {offsets = [5], sizes = [1], strides = [1]} : vector<16xf32> to vector<1xf32>
        %790 = arith.andi %577, %683 : i1
        %791 = arith.addi %686, %321 overflow<nsw> : index
        %792 = arith.select %790, %791, %c536870911 : index
        vector.store %789, %453[%792] : memref<?xf32, #amdgpu.address_space<fat_raw_buffer>>, vector<1xf32>
        %793 = vector.extract_strided_slice %429 {offsets = [6], sizes = [1], strides = [1]} : vector<16xf32> to vector<1xf32>
        %794 = arith.andi %577, %691 : i1
        %795 = arith.addi %694, %321 overflow<nsw> : index
        %796 = arith.select %794, %795, %c536870911 : index
        vector.store %793, %453[%796] : memref<?xf32, #amdgpu.address_space<fat_raw_buffer>>, vector<1xf32>
        %797 = vector.extract_strided_slice %429 {offsets = [7], sizes = [1], strides = [1]} : vector<16xf32> to vector<1xf32>
        %798 = arith.andi %577, %699 : i1
        %799 = arith.addi %702, %321 overflow<nsw> : index
        %800 = arith.select %798, %799, %c536870911 : index
        vector.store %797, %453[%800] : memref<?xf32, #amdgpu.address_space<fat_raw_buffer>>, vector<1xf32>
        %801 = vector.extract_strided_slice %429 {offsets = [8], sizes = [1], strides = [1]} : vector<16xf32> to vector<1xf32>
        %802 = arith.andi %577, %707 : i1
        %803 = arith.addi %710, %321 overflow<nsw> : index
        %804 = arith.select %802, %803, %c536870911 : index
        vector.store %801, %453[%804] : memref<?xf32, #amdgpu.address_space<fat_raw_buffer>>, vector<1xf32>
        %805 = vector.extract_strided_slice %429 {offsets = [9], sizes = [1], strides = [1]} : vector<16xf32> to vector<1xf32>
        %806 = arith.andi %577, %715 : i1
        %807 = arith.addi %718, %321 overflow<nsw> : index
        %808 = arith.select %806, %807, %c536870911 : index
        vector.store %805, %453[%808] : memref<?xf32, #amdgpu.address_space<fat_raw_buffer>>, vector<1xf32>
        %809 = vector.extract_strided_slice %429 {offsets = [10], sizes = [1], strides = [1]} : vector<16xf32> to vector<1xf32>
        %810 = arith.andi %577, %723 : i1
        %811 = arith.addi %726, %321 overflow<nsw> : index
        %812 = arith.select %810, %811, %c536870911 : index
        vector.store %809, %453[%812] : memref<?xf32, #amdgpu.address_space<fat_raw_buffer>>, vector<1xf32>
        %813 = vector.extract_strided_slice %429 {offsets = [11], sizes = [1], strides = [1]} : vector<16xf32> to vector<1xf32>
        %814 = arith.andi %577, %731 : i1
        %815 = arith.addi %734, %321 overflow<nsw> : index
        %816 = arith.select %814, %815, %c536870911 : index
        vector.store %813, %453[%816] : memref<?xf32, #amdgpu.address_space<fat_raw_buffer>>, vector<1xf32>
        %817 = vector.extract_strided_slice %429 {offsets = [12], sizes = [1], strides = [1]} : vector<16xf32> to vector<1xf32>
        %818 = arith.andi %577, %739 : i1
        %819 = arith.addi %742, %321 overflow<nsw> : index
        %820 = arith.select %818, %819, %c536870911 : index
        vector.store %817, %453[%820] : memref<?xf32, #amdgpu.address_space<fat_raw_buffer>>, vector<1xf32>
        %821 = vector.extract_strided_slice %429 {offsets = [13], sizes = [1], strides = [1]} : vector<16xf32> to vector<1xf32>
        %822 = arith.andi %577, %747 : i1
        %823 = arith.addi %750, %321 overflow<nsw> : index
        %824 = arith.select %822, %823, %c536870911 : index
        vector.store %821, %453[%824] : memref<?xf32, #amdgpu.address_space<fat_raw_buffer>>, vector<1xf32>
        %825 = vector.extract_strided_slice %429 {offsets = [14], sizes = [1], strides = [1]} : vector<16xf32> to vector<1xf32>
        %826 = arith.andi %577, %755 : i1
        %827 = arith.addi %758, %321 overflow<nsw> : index
        %828 = arith.select %826, %827, %c536870911 : index
        vector.store %825, %453[%828] : memref<?xf32, #amdgpu.address_space<fat_raw_buffer>>, vector<1xf32>
        %829 = vector.extract_strided_slice %429 {offsets = [15], sizes = [1], strides = [1]} : vector<16xf32> to vector<1xf32>
        %830 = arith.andi %577, %763 : i1
        %831 = arith.addi %766, %321 overflow<nsw> : index
        %832 = arith.select %830, %831, %c536870911 : index
        vector.store %829, %453[%832] : memref<?xf32, #amdgpu.address_space<fat_raw_buffer>>, vector<1xf32>
        return
      }
    }
  }
  func.func @isolated_benchmark(%arg0: tensor<1024x1024xf16>, %arg1: tensor<1024x1024xf16>, %arg2: tensor<1024x1024xf32>) -> tensor<1024x1024xf32> {
    %0 = flow.dispatch @gemm::@gemm(%arg0, %arg1, %arg2) : (tensor<1024x1024xf16>, tensor<1024x1024xf16>, tensor<1024x1024xf32>) -> %arg2
    return %0 : tensor<1024x1024xf32>
  }
}
