#map = affine_map<()[s0, s1] -> ((s0 * 2048 + s1 * 8) mod 195)>
#map1 = affine_map<()[s0, s1, s2, s3] -> (((s0 * 2048 + s1 * 8) floordiv 195) mod 96 + ((s2 * 1568 + s3 * 224 - ((s2 * 7 + s3) floordiv 8) * 1791) floordiv 256) * 96)>
#map2 = affine_map<()[s0, s1] -> (s0 * 2048 + s1 * 8 - ((s0 * 2048 + s1 * 8 + 1) floordiv 195) * 195 + 1)>
#map3 = affine_map<()[s0, s1, s2, s3] -> (((s0 * 2048 + s1 * 8 + 4096) floordiv 195) mod 96 + ((s2 * 1568 + s3 * 224 - ((s2 * 7 + s3) floordiv 8) * 1791) floordiv 256) * 96)>
#map4 = affine_map<()[s0, s1] -> (s0 * 2048 + s1 * 8 - ((s0 * 2048 + s1 * 8 + 2) floordiv 195) * 195 + 2)>
#map5 = affine_map<()[s0, s1, s2, s3] -> (((s0 * 2048 + s1 * 8 + 8192) floordiv 195) mod 96 + ((s2 * 1568 + s3 * 224 - ((s2 * 7 + s3) floordiv 8) * 1791) floordiv 256) * 96)>
#map6 = affine_map<()[s0, s1] -> (s0 * 2048 + s1 * 8 - ((s0 * 2048 + s1 * 8 + 3) floordiv 195) * 195 + 3)>
#map7 = affine_map<()[s0, s1, s2, s3] -> (((s0 * 2048 + s1 * 8 + 12288) floordiv 195) mod 96 + ((s2 * 1568 + s3 * 224 - ((s2 * 7 + s3) floordiv 8) * 1791) floordiv 256) * 96)>
#map8 = affine_map<()[s0, s1] -> (s0 * 2048 + s1 * 8 - ((s0 * 2048 + s1 * 8 + 4) floordiv 195) * 195 + 4)>
#map9 = affine_map<()[s0, s1, s2, s3] -> (((s0 * 2048 + s1 * 8 + 16384) floordiv 195) mod 96 + ((s2 * 1568 + s3 * 224 - ((s2 * 7 + s3) floordiv 8) * 1791) floordiv 256) * 96)>
#map10 = affine_map<()[s0, s1] -> ((s0 * 1792 + s1 * 7) mod 195)>
#map11 = affine_map<()[s0, s1, s2, s3] -> (s2 * 25088 + s3 * 3584 + ((s0 * 1792 + s1 * 7) floordiv 195) mod 16 - ((s2 * 7 + s3) floordiv 8) * 28656 - ((s2 * 1568 + s3 * 224 - ((s2 * 7 + s3) floordiv 8) * 1791) floordiv 256) * 4096)>
#map12 = affine_map<()[s0] -> ((s0 floordiv 64) * 24 + 24)>
#map13 = affine_map<()[s0, s1] -> (((s0 * 2048 + s1 * 8) floordiv 195) mod 96)>
#map14 = affine_map<()[s0, s1] -> (((s0 * 2048 + s1 * 8 + 4096) floordiv 195) mod 96)>
#map15 = affine_map<()[s0, s1] -> (((s0 * 2048 + s1 * 8 + 8192) floordiv 195) mod 96)>
#map16 = affine_map<()[s0, s1] -> (((s0 * 2048 + s1 * 8 + 12288) floordiv 195) mod 96)>
#map17 = affine_map<()[s0, s1] -> (((s0 * 2048 + s1 * 8 + 16384) floordiv 195) mod 96)>
#map18 = affine_map<()[s0] -> (s0 * 8 + 8)>
#map19 = affine_map<()[s0, s1] -> (((s0 * 1792 + s1 * 7) floordiv 195) mod 16)>
#map20 = affine_map<()[s0] -> (((s0 mod 64) floordiv 32) * 4)>
#map21 = affine_map<()[s0, s1] -> (s0 + s1 * 8 - (s0 floordiv 32) * 32)>
#map22 = affine_map<()[s0] -> (((s0 mod 64) floordiv 32) * 4 + 8)>
#map23 = affine_map<()[s0] -> (((s0 mod 64) floordiv 32) * 4 + 16)>
#map24 = affine_map<()[s0] -> (((s0 mod 64) floordiv 32) * 4 + 24)>
#map25 = affine_map<()[s0] -> (((s0 mod 64) floordiv 32) * 4 + 32)>
#map26 = affine_map<()[s0] -> (((s0 mod 64) floordiv 32) * 4 + 40)>
#map27 = affine_map<()[s0] -> (((s0 mod 64) floordiv 32) * 4 + 48)>
#map28 = affine_map<()[s0] -> (((s0 mod 64) floordiv 32) * 4 + 56)>
#map29 = affine_map<()[s0] -> (((s0 mod 64) floordiv 32) * 4 + 64)>
#map30 = affine_map<()[s0] -> (((s0 mod 64) floordiv 32) * 4 + 72)>
#map31 = affine_map<()[s0] -> (((s0 mod 64) floordiv 32) * 4 + 80)>
#map32 = affine_map<()[s0] -> (((s0 mod 64) floordiv 32) * 4 + 88)>
#map33 = affine_map<()[s0] -> (((s0 mod 64) floordiv 32) * 4 + 96)>
#map34 = affine_map<()[s0] -> (((s0 mod 64) floordiv 32) * 4 + 104)>
#map35 = affine_map<()[s0] -> (((s0 mod 64) floordiv 32) * 4 + 112)>
#map36 = affine_map<()[s0] -> (((s0 mod 64) floordiv 32) * 4 + 120)>
#map37 = affine_map<()[s0] -> (((s0 mod 64) floordiv 32) * 4 + 128)>
#map38 = affine_map<()[s0] -> (((s0 mod 64) floordiv 32) * 4 + 136)>
#map39 = affine_map<()[s0] -> (((s0 mod 64) floordiv 32) * 4 + 144)>
#map40 = affine_map<()[s0] -> (((s0 mod 64) floordiv 32) * 4 + 152)>
#map41 = affine_map<()[s0] -> (((s0 mod 64) floordiv 32) * 4 + 160)>
#map42 = affine_map<()[s0] -> (((s0 mod 64) floordiv 32) * 4 + 168)>
#map43 = affine_map<()[s0] -> (((s0 mod 64) floordiv 32) * 4 + 176)>
#map44 = affine_map<()[s0] -> (((s0 mod 64) floordiv 32) * 4 + 184)>
#map45 = affine_map<()[s0] -> (((s0 mod 64) floordiv 32) * 4 + 192)>
#map46 = affine_map<()[s0] -> (s0 mod 32 + (s0 floordiv 64) * 24)>
#map47 = affine_map<()[s0, s1, s2] -> (s0 * 2048 + s1 * 8 + s2 * 195 - ((s0 * 2048 + s1 * 8) floordiv 195) * 195)>
#map48 = affine_map<()[s0, s1, s2] -> (s0 * 2048 + s1 * 8 + s2 * 195 - ((s0 * 2048 + s1 * 8) floordiv 195) * 195 + 195)>
#map49 = affine_map<()[s0, s1, s2] -> (s0 * 2048 + s1 * 8 + s2 * 195 - ((s0 * 2048 + s1 * 8 + 1) floordiv 195) * 195 + 1)>
#map50 = affine_map<()[s0, s1, s2] -> (s0 * 2048 + s1 * 8 + s2 * 195 - ((s0 * 2048 + s1 * 8 + 1) floordiv 195) * 195 + 196)>
#map51 = affine_map<()[s0, s1, s2] -> (s0 * 2048 + s1 * 8 + s2 * 195 - ((s0 * 2048 + s1 * 8 + 2) floordiv 195) * 195 + 2)>
#map52 = affine_map<()[s0, s1, s2] -> (s0 * 2048 + s1 * 8 + s2 * 195 - ((s0 * 2048 + s1 * 8 + 2) floordiv 195) * 195 + 197)>
#map53 = affine_map<()[s0, s1, s2] -> (s0 * 2048 + s1 * 8 + s2 * 195 - ((s0 * 2048 + s1 * 8 + 3) floordiv 195) * 195 + 3)>
#map54 = affine_map<()[s0, s1, s2] -> (s0 * 2048 + s1 * 8 + s2 * 195 - ((s0 * 2048 + s1 * 8 + 3) floordiv 195) * 195 + 198)>
#map55 = affine_map<()[s0, s1, s2] -> (s0 * 2048 + s1 * 8 + s2 * 195 - ((s0 * 2048 + s1 * 8 + 4) floordiv 195) * 195 + 4)>
#map56 = affine_map<()[s0, s1, s2] -> (s0 * 2048 + s1 * 8 + s2 * 195 - ((s0 * 2048 + s1 * 8 + 4) floordiv 195) * 195 + 199)>
#map57 = affine_map<()[s0, s1, s2] -> (s0 * 1792 + s1 * 7 + s2 * 195 - ((s0 * 1792 + s1 * 7) floordiv 195) * 195)>
#map58 = affine_map<()[s0, s1, s2] -> (s0 * 1792 + s1 * 7 + s2 * 195 - ((s0 * 1792 + s1 * 7) floordiv 195) * 195 + 195)>
#map59 = affine_map<()[s0, s1] -> (s0 * 16 + s1 * 8 + 8)>
#map60 = affine_map<()[s0] -> (s0 * 16 + 16)>
#map61 = affine_map<()[s0, s1, s2, s3] -> (s0 + s1 * 25088 + s2 * 3584 + s3 * 8 - (s0 floordiv 32) * 32 - ((s1 * 7 + s2) floordiv 8) * 28656 - ((s1 * 1568 + s2 * 224 - ((s1 * 7 + s2) floordiv 8) * 1791) floordiv 256) * 4096)>
#map62 = affine_map<()[s0, s1] -> (s0 * 96 + (s1 floordiv 64) * 24 + 24)>
#map63 = affine_map<()[s0, s1, s2] -> (((s0 * 1568 + s1 * 224 - ((s0 * 7 + s1) floordiv 8) * 1791) floordiv 256) * 96 + (s2 floordiv 64) * 24 + ((s2 mod 64) floordiv 32) * 4)>
#map64 = affine_map<()[s0, s1] -> (((s0 * 1568 + s1 * 224 - ((s0 * 7 + s1) floordiv 8) * 1791) floordiv 256) * 96)>
#map65 = affine_map<()[s0, s1] -> (s0 * 25088 + s1 * 3584 - ((s0 * 7 + s1) floordiv 8) * 28656 - ((s0 * 1568 + s1 * 224 - ((s0 * 7 + s1) floordiv 8) * 1791) floordiv 256) * 4096)>
#map66 = affine_map<()[s0] -> ((s0 floordiv 64) * 24 + ((s0 mod 64) floordiv 32) * 4)>
#map67 = affine_map<()[s0, s1, s2] -> (((s0 * 1568 + s1 * 224 - ((s0 * 7 + s1) floordiv 8) * 1791) floordiv 256) * 96 + (s2 floordiv 64) * 24 + ((s2 mod 64) floordiv 32) * 4 + 1)>
#map68 = affine_map<()[s0] -> ((s0 floordiv 64) * 24 + ((s0 mod 64) floordiv 32) * 4 + 1)>
#map69 = affine_map<()[s0, s1, s2] -> (((s0 * 1568 + s1 * 224 - ((s0 * 7 + s1) floordiv 8) * 1791) floordiv 256) * 96 + (s2 floordiv 64) * 24 + ((s2 mod 64) floordiv 32) * 4 + 2)>
#map70 = affine_map<()[s0] -> ((s0 floordiv 64) * 24 + ((s0 mod 64) floordiv 32) * 4 + 2)>
#map71 = affine_map<()[s0, s1, s2] -> (((s0 * 1568 + s1 * 224 - ((s0 * 7 + s1) floordiv 8) * 1791) floordiv 256) * 96 + (s2 floordiv 64) * 24 + ((s2 mod 64) floordiv 32) * 4 + 3)>
#map72 = affine_map<()[s0] -> ((s0 floordiv 64) * 24 + ((s0 mod 64) floordiv 32) * 4 + 3)>
#map73 = affine_map<()[s0, s1, s2] -> (((s0 * 1568 + s1 * 224 - ((s0 * 7 + s1) floordiv 8) * 1791) floordiv 256) * 96 + (s2 floordiv 64) * 24 + ((s2 mod 64) floordiv 32) * 4 + 8)>
#map74 = affine_map<()[s0] -> ((s0 floordiv 64) * 24 + ((s0 mod 64) floordiv 32) * 4 + 8)>
#map75 = affine_map<()[s0, s1, s2] -> (((s0 * 1568 + s1 * 224 - ((s0 * 7 + s1) floordiv 8) * 1791) floordiv 256) * 96 + (s2 floordiv 64) * 24 + ((s2 mod 64) floordiv 32) * 4 + 9)>
#map76 = affine_map<()[s0] -> ((s0 floordiv 64) * 24 + ((s0 mod 64) floordiv 32) * 4 + 9)>
#map77 = affine_map<()[s0, s1, s2] -> (((s0 * 1568 + s1 * 224 - ((s0 * 7 + s1) floordiv 8) * 1791) floordiv 256) * 96 + (s2 floordiv 64) * 24 + ((s2 mod 64) floordiv 32) * 4 + 10)>
#map78 = affine_map<()[s0] -> ((s0 floordiv 64) * 24 + ((s0 mod 64) floordiv 32) * 4 + 10)>
#map79 = affine_map<()[s0, s1, s2] -> (((s0 * 1568 + s1 * 224 - ((s0 * 7 + s1) floordiv 8) * 1791) floordiv 256) * 96 + (s2 floordiv 64) * 24 + ((s2 mod 64) floordiv 32) * 4 + 11)>
#map80 = affine_map<()[s0] -> ((s0 floordiv 64) * 24 + ((s0 mod 64) floordiv 32) * 4 + 11)>
#map81 = affine_map<()[s0, s1, s2] -> (((s0 * 1568 + s1 * 224 - ((s0 * 7 + s1) floordiv 8) * 1791) floordiv 256) * 96 + (s2 floordiv 64) * 24 + ((s2 mod 64) floordiv 32) * 4 + 16)>
#map82 = affine_map<()[s0] -> ((s0 floordiv 64) * 24 + ((s0 mod 64) floordiv 32) * 4 + 16)>
#map83 = affine_map<()[s0, s1, s2] -> (((s0 * 1568 + s1 * 224 - ((s0 * 7 + s1) floordiv 8) * 1791) floordiv 256) * 96 + (s2 floordiv 64) * 24 + ((s2 mod 64) floordiv 32) * 4 + 17)>
#map84 = affine_map<()[s0] -> ((s0 floordiv 64) * 24 + ((s0 mod 64) floordiv 32) * 4 + 17)>
#map85 = affine_map<()[s0, s1, s2] -> (((s0 * 1568 + s1 * 224 - ((s0 * 7 + s1) floordiv 8) * 1791) floordiv 256) * 96 + (s2 floordiv 64) * 24 + ((s2 mod 64) floordiv 32) * 4 + 18)>
#map86 = affine_map<()[s0] -> ((s0 floordiv 64) * 24 + ((s0 mod 64) floordiv 32) * 4 + 18)>
#map87 = affine_map<()[s0, s1, s2] -> (((s0 * 1568 + s1 * 224 - ((s0 * 7 + s1) floordiv 8) * 1791) floordiv 256) * 96 + (s2 floordiv 64) * 24 + ((s2 mod 64) floordiv 32) * 4 + 19)>
#map88 = affine_map<()[s0] -> ((s0 floordiv 64) * 24 + ((s0 mod 64) floordiv 32) * 4 + 19)>
#map89 = affine_map<()[s0, s1, s2] -> (((s0 * 1568 + s1 * 224 - ((s0 * 7 + s1) floordiv 8) * 1791) floordiv 256) * 96 + (s2 floordiv 64) * 24 + ((s2 mod 64) floordiv 32) * 4 + 24)>
#map90 = affine_map<()[s0] -> ((s0 floordiv 64) * 24 + ((s0 mod 64) floordiv 32) * 4 + 24)>
#map91 = affine_map<()[s0, s1, s2] -> (((s0 * 1568 + s1 * 224 - ((s0 * 7 + s1) floordiv 8) * 1791) floordiv 256) * 96 + (s2 floordiv 64) * 24 + ((s2 mod 64) floordiv 32) * 4 + 25)>
#map92 = affine_map<()[s0] -> ((s0 floordiv 64) * 24 + ((s0 mod 64) floordiv 32) * 4 + 25)>
#map93 = affine_map<()[s0, s1, s2] -> (((s0 * 1568 + s1 * 224 - ((s0 * 7 + s1) floordiv 8) * 1791) floordiv 256) * 96 + (s2 floordiv 64) * 24 + ((s2 mod 64) floordiv 32) * 4 + 26)>
#map94 = affine_map<()[s0] -> ((s0 floordiv 64) * 24 + ((s0 mod 64) floordiv 32) * 4 + 26)>
#map95 = affine_map<()[s0, s1, s2] -> (((s0 * 1568 + s1 * 224 - ((s0 * 7 + s1) floordiv 8) * 1791) floordiv 256) * 96 + (s2 floordiv 64) * 24 + ((s2 mod 64) floordiv 32) * 4 + 27)>
#map96 = affine_map<()[s0] -> ((s0 floordiv 64) * 24 + ((s0 mod 64) floordiv 32) * 4 + 27)>
#translation = #iree_codegen.translation_info<pipeline = None workgroup_size = [256, 2, 1] subgroup_size = 64>
module attributes {transform.with_named_sequence} {
  stream.executable private @gemm {
    stream.executable.export public @gemm workgroups() -> (index, index, index) {
      %c7 = arith.constant 7 : index
      %c256 = arith.constant 256 : index
      %c1 = arith.constant 1 : index
      stream.return %c7, %c256, %c1 : index, index, index
    }
    builtin.module {
      func.func @gemm(%arg0: !stream.binding, %arg1: !stream.binding, %arg2: !stream.binding) attributes {translation_info = #translation} {
        %c4096_i14 = arith.constant 4096 : i14
        %cst = arith.constant dense<192> : vector<4xindex>
        %cst_0 = arith.constant dense<184> : vector<4xindex>
        %cst_1 = arith.constant dense<176> : vector<4xindex>
        %cst_2 = arith.constant dense<168> : vector<4xindex>
        %cst_3 = arith.constant dense<160> : vector<4xindex>
        %cst_4 = arith.constant dense<152> : vector<4xindex>
        %cst_5 = arith.constant dense<144> : vector<4xindex>
        %cst_6 = arith.constant dense<136> : vector<4xindex>
        %cst_7 = arith.constant dense<128> : vector<4xindex>
        %cst_8 = arith.constant dense<120> : vector<4xindex>
        %cst_9 = arith.constant dense<112> : vector<4xindex>
        %cst_10 = arith.constant dense<104> : vector<4xindex>
        %cst_11 = arith.constant dense<96> : vector<4xindex>
        %cst_12 = arith.constant dense<88> : vector<4xindex>
        %cst_13 = arith.constant dense<80> : vector<4xindex>
        %cst_14 = arith.constant dense<72> : vector<4xindex>
        %cst_15 = arith.constant dense<64> : vector<4xindex>
        %cst_16 = arith.constant dense<56> : vector<4xindex>
        %cst_17 = arith.constant dense<48> : vector<4xindex>
        %cst_18 = arith.constant dense<40> : vector<4xindex>
        %cst_19 = arith.constant dense<32> : vector<4xindex>
        %cst_20 = arith.constant dense<24> : vector<4xindex>
        %cst_21 = arith.constant dense<16> : vector<4xindex>
        %cst_22 = arith.constant dense<8> : vector<4xindex>
        %cst_23 = arith.constant dense<0.000000e+00> : vector<4xf16>
        %cst_24 = arith.constant dense<195> : vector<4xindex>
        %cst_25 = arith.constant dense<195> : vector<7xindex>
        %cst_26 = arith.constant dense<195> : vector<8xindex>
        %cst_27 = arith.constant dense<[0, 1, 2, 3, 4, 5, 6]> : vector<7xi32>
        %cst_28 = arith.constant dense<1073741823> : vector<7xindex>
        %cst_29 = arith.constant dense<2880> : vector<7xindex>
        %cst_30 = arith.constant dense<[0, 1, 2, 3, 4, 5, 6, 7]> : vector<8xi32>
        %cst_31 = arith.constant dense<1073741823> : vector<8xindex>
        %c2880_i14 = arith.constant 2880 : i14
        %cst_32 = arith.constant dense<2880> : vector<8xindex>
        %c536870911 = arith.constant 536870911 : index
        %c2147483643_i32 = arith.constant 2147483643 : i32
        %c536870910 = arith.constant 536870910 : index
        %cst_33 = arith.constant dense<[0, 1, 2, 3]> : vector<4xindex>
        %c14 = arith.constant 14 : index
        %c16 = arith.constant 16 : index
        %cst_34 = arith.constant dense<[0, 1, 2, 3, 4, 5, 6]> : vector<7xindex>
        %c4096 = arith.constant 4096 : index
        %c2147483645_i32 = arith.constant 2147483645 : i32
        %c1073741822 = arith.constant 1073741822 : index
        %c641 = arith.constant 641 : index
        %c1 = arith.constant 1 : index
        %c96 = arith.constant 96 : index
        %c2880 = arith.constant 2880 : index
        %cst_35 = arith.constant dense<[0, 1, 2, 3, 4, 5, 6, 7]> : vector<8xindex>
        %c0 = arith.constant 0 : index
        %c38208 = arith.constant 38208 : index
        %cst_36 = arith.constant dense<0.000000e+00> : vector<16xf32>
        %block_id_x = gpu.block_id  x upper_bound 7
        %block_id_y = gpu.block_id  y upper_bound 256
        %thread_id_x = gpu.thread_id  x upper_bound 256
        %thread_id_y = gpu.thread_id  y upper_bound 2
        %alloc = memref.alloc() : memref<44576xi8, #gpu.address_space<workgroup>>
        %view = memref.view %alloc[%c38208][] : memref<44576xi8, #gpu.address_space<workgroup>> to memref<16x199xf16, #gpu.address_space<workgroup>>
        %view_37 = memref.view %alloc[%c0][] : memref<44576xi8, #gpu.address_space<workgroup>> to memref<96x199xf16, #gpu.address_space<workgroup>>
        %0 = stream.binding.subspan %arg0[%c0] : !stream.binding -> memref<641x2880xf16, strided<[2880, 1], offset: ?>>
        %1 = affine.apply #map()[%thread_id_y, %thread_id_x]
        %2 = vector.broadcast %1 : index to vector<8xindex>
        %3 = arith.addi %2, %cst_35 overflow<nsw, nuw> : vector<8xindex>
        %4 = arith.cmpi slt, %3, %cst_32 : vector<8xindex>
        %5 = affine.apply #map1()[%thread_id_y, %thread_id_x, %block_id_y, %block_id_x]
        %6 = arith.cmpi slt, %5, %c641 : index
        %7 = vector.broadcast %6 : i1 to vector<8xi1>
        %8 = arith.andi %4, %7 : vector<8xi1>
        %9 = arith.muli %5, %c2880 overflow<nsw> : index
        %10 = arith.addi %9, %1 overflow<nsw> : index
        %base_buffer, %offset, %sizes:2, %strides:2 = memref.extract_strided_metadata %0 : memref<641x2880xf16, strided<[2880, 1], offset: ?>> -> memref<f16>, index, index, index, index, index
        %reinterpret_cast = memref.reinterpret_cast %0 to offset: [%offset], sizes: [%c1073741822], strides: [1] : memref<641x2880xf16, strided<[2880, 1], offset: ?>> to memref<?xf16, strided<[1], offset: ?>>
        %11 = amdgpu.fat_raw_buffer_cast %reinterpret_cast validBytes(%c2147483645_i32) cacheSwizzleStride(%c2880_i14) resetOffset : memref<?xf16, strided<[1], offset: ?>> to memref<?xf16, #amdgpu.address_space<fat_raw_buffer>>
        %12 = arith.index_cast %10 : index to i32
        %13 = vector.broadcast %12 : i32 to vector<8xi32>
        %14 = arith.addi %13, %cst_30 : vector<8xi32>
        %15 = arith.index_cast %14 : vector<8xi32> to vector<8xindex>
        %16 = arith.select %8, %15, %cst_31 : vector<8xi1>, vector<8xindex>
        %17 = vector.extract %16[0] : index from vector<8xindex>
        %18 = memref.load %11[%17] : memref<?xf16, #amdgpu.address_space<fat_raw_buffer>>
        %19 = vector.extract %16[1] : index from vector<8xindex>
        %20 = memref.load %11[%19] : memref<?xf16, #amdgpu.address_space<fat_raw_buffer>>
        %21 = vector.extract %16[2] : index from vector<8xindex>
        %22 = memref.load %11[%21] : memref<?xf16, #amdgpu.address_space<fat_raw_buffer>>
        %23 = vector.extract %16[3] : index from vector<8xindex>
        %24 = memref.load %11[%23] : memref<?xf16, #amdgpu.address_space<fat_raw_buffer>>
        %25 = vector.extract %16[4] : index from vector<8xindex>
        %26 = memref.load %11[%25] : memref<?xf16, #amdgpu.address_space<fat_raw_buffer>>
        %27 = vector.extract %16[5] : index from vector<8xindex>
        %28 = memref.load %11[%27] : memref<?xf16, #amdgpu.address_space<fat_raw_buffer>>
        %29 = vector.extract %16[6] : index from vector<8xindex>
        %30 = memref.load %11[%29] : memref<?xf16, #amdgpu.address_space<fat_raw_buffer>>
        %31 = vector.extract %16[7] : index from vector<8xindex>
        %32 = memref.load %11[%31] : memref<?xf16, #amdgpu.address_space<fat_raw_buffer>>
        %33 = vector.from_elements %18, %20, %22, %24, %26, %28, %30, %32 : vector<8xf16>
        %34 = affine.apply #map2()[%thread_id_y, %thread_id_x]
        %35 = vector.broadcast %34 : index to vector<8xindex>
        %36 = arith.addi %35, %cst_35 overflow<nsw, nuw> : vector<8xindex>
        %37 = arith.cmpi slt, %36, %cst_32 : vector<8xindex>
        %38 = affine.apply #map3()[%thread_id_y, %thread_id_x, %block_id_y, %block_id_x]
        %39 = arith.cmpi slt, %38, %c641 : index
        %40 = vector.broadcast %39 : i1 to vector<8xi1>
        %41 = arith.andi %37, %40 : vector<8xi1>
        %42 = arith.muli %38, %c2880 overflow<nsw> : index
        %43 = arith.addi %42, %34 overflow<nsw> : index
        %44 = arith.index_cast %43 : index to i32
        %45 = vector.broadcast %44 : i32 to vector<8xi32>
        %46 = arith.addi %45, %cst_30 : vector<8xi32>
        %47 = arith.index_cast %46 : vector<8xi32> to vector<8xindex>
        %48 = arith.select %41, %47, %cst_31 : vector<8xi1>, vector<8xindex>
        %49 = vector.extract %48[0] : index from vector<8xindex>
        %50 = memref.load %11[%49] : memref<?xf16, #amdgpu.address_space<fat_raw_buffer>>
        %51 = vector.extract %48[1] : index from vector<8xindex>
        %52 = memref.load %11[%51] : memref<?xf16, #amdgpu.address_space<fat_raw_buffer>>
        %53 = vector.extract %48[2] : index from vector<8xindex>
        %54 = memref.load %11[%53] : memref<?xf16, #amdgpu.address_space<fat_raw_buffer>>
        %55 = vector.extract %48[3] : index from vector<8xindex>
        %56 = memref.load %11[%55] : memref<?xf16, #amdgpu.address_space<fat_raw_buffer>>
        %57 = vector.extract %48[4] : index from vector<8xindex>
        %58 = memref.load %11[%57] : memref<?xf16, #amdgpu.address_space<fat_raw_buffer>>
        %59 = vector.extract %48[5] : index from vector<8xindex>
        %60 = memref.load %11[%59] : memref<?xf16, #amdgpu.address_space<fat_raw_buffer>>
        %61 = vector.extract %48[6] : index from vector<8xindex>
        %62 = memref.load %11[%61] : memref<?xf16, #amdgpu.address_space<fat_raw_buffer>>
        %63 = vector.extract %48[7] : index from vector<8xindex>
        %64 = memref.load %11[%63] : memref<?xf16, #amdgpu.address_space<fat_raw_buffer>>
        %65 = vector.from_elements %50, %52, %54, %56, %58, %60, %62, %64 : vector<8xf16>
        %66 = affine.apply #map4()[%thread_id_y, %thread_id_x]
        %67 = vector.broadcast %66 : index to vector<8xindex>
        %68 = arith.addi %67, %cst_35 overflow<nsw, nuw> : vector<8xindex>
        %69 = arith.cmpi slt, %68, %cst_32 : vector<8xindex>
        %70 = affine.apply #map5()[%thread_id_y, %thread_id_x, %block_id_y, %block_id_x]
        %71 = arith.cmpi slt, %70, %c641 : index
        %72 = vector.broadcast %71 : i1 to vector<8xi1>
        %73 = arith.andi %69, %72 : vector<8xi1>
        %74 = arith.muli %70, %c2880 overflow<nsw> : index
        %75 = arith.addi %74, %66 overflow<nsw> : index
        %76 = arith.index_cast %75 : index to i32
        %77 = vector.broadcast %76 : i32 to vector<8xi32>
        %78 = arith.addi %77, %cst_30 : vector<8xi32>
        %79 = arith.index_cast %78 : vector<8xi32> to vector<8xindex>
        %80 = arith.select %73, %79, %cst_31 : vector<8xi1>, vector<8xindex>
        %81 = vector.extract %80[0] : index from vector<8xindex>
        %82 = memref.load %11[%81] : memref<?xf16, #amdgpu.address_space<fat_raw_buffer>>
        %83 = vector.extract %80[1] : index from vector<8xindex>
        %84 = memref.load %11[%83] : memref<?xf16, #amdgpu.address_space<fat_raw_buffer>>
        %85 = vector.extract %80[2] : index from vector<8xindex>
        %86 = memref.load %11[%85] : memref<?xf16, #amdgpu.address_space<fat_raw_buffer>>
        %87 = vector.extract %80[3] : index from vector<8xindex>
        %88 = memref.load %11[%87] : memref<?xf16, #amdgpu.address_space<fat_raw_buffer>>
        %89 = vector.extract %80[4] : index from vector<8xindex>
        %90 = memref.load %11[%89] : memref<?xf16, #amdgpu.address_space<fat_raw_buffer>>
        %91 = vector.extract %80[5] : index from vector<8xindex>
        %92 = memref.load %11[%91] : memref<?xf16, #amdgpu.address_space<fat_raw_buffer>>
        %93 = vector.extract %80[6] : index from vector<8xindex>
        %94 = memref.load %11[%93] : memref<?xf16, #amdgpu.address_space<fat_raw_buffer>>
        %95 = vector.extract %80[7] : index from vector<8xindex>
        %96 = memref.load %11[%95] : memref<?xf16, #amdgpu.address_space<fat_raw_buffer>>
        %97 = vector.from_elements %82, %84, %86, %88, %90, %92, %94, %96 : vector<8xf16>
        %98 = affine.apply #map6()[%thread_id_y, %thread_id_x]
        %99 = vector.broadcast %98 : index to vector<8xindex>
        %100 = arith.addi %99, %cst_35 overflow<nsw, nuw> : vector<8xindex>
        %101 = arith.cmpi slt, %100, %cst_32 : vector<8xindex>
        %102 = affine.apply #map7()[%thread_id_y, %thread_id_x, %block_id_y, %block_id_x]
        %103 = arith.cmpi slt, %102, %c641 : index
        %104 = vector.broadcast %103 : i1 to vector<8xi1>
        %105 = arith.andi %101, %104 : vector<8xi1>
        %106 = arith.muli %102, %c2880 overflow<nsw> : index
        %107 = arith.addi %106, %98 overflow<nsw> : index
        %108 = arith.index_cast %107 : index to i32
        %109 = vector.broadcast %108 : i32 to vector<8xi32>
        %110 = arith.addi %109, %cst_30 : vector<8xi32>
        %111 = arith.index_cast %110 : vector<8xi32> to vector<8xindex>
        %112 = arith.select %105, %111, %cst_31 : vector<8xi1>, vector<8xindex>
        %113 = vector.extract %112[0] : index from vector<8xindex>
        %114 = memref.load %11[%113] : memref<?xf16, #amdgpu.address_space<fat_raw_buffer>>
        %115 = vector.extract %112[1] : index from vector<8xindex>
        %116 = memref.load %11[%115] : memref<?xf16, #amdgpu.address_space<fat_raw_buffer>>
        %117 = vector.extract %112[2] : index from vector<8xindex>
        %118 = memref.load %11[%117] : memref<?xf16, #amdgpu.address_space<fat_raw_buffer>>
        %119 = vector.extract %112[3] : index from vector<8xindex>
        %120 = memref.load %11[%119] : memref<?xf16, #amdgpu.address_space<fat_raw_buffer>>
        %121 = vector.extract %112[4] : index from vector<8xindex>
        %122 = memref.load %11[%121] : memref<?xf16, #amdgpu.address_space<fat_raw_buffer>>
        %123 = vector.extract %112[5] : index from vector<8xindex>
        %124 = memref.load %11[%123] : memref<?xf16, #amdgpu.address_space<fat_raw_buffer>>
        %125 = vector.extract %112[6] : index from vector<8xindex>
        %126 = memref.load %11[%125] : memref<?xf16, #amdgpu.address_space<fat_raw_buffer>>
        %127 = vector.extract %112[7] : index from vector<8xindex>
        %128 = memref.load %11[%127] : memref<?xf16, #amdgpu.address_space<fat_raw_buffer>>
        %129 = vector.from_elements %114, %116, %118, %120, %122, %124, %126, %128 : vector<8xf16>
        %130 = affine.apply #map8()[%thread_id_y, %thread_id_x]
        %131 = vector.broadcast %130 : index to vector<8xindex>
        %132 = arith.addi %131, %cst_35 overflow<nsw, nuw> : vector<8xindex>
        %133 = arith.cmpi slt, %132, %cst_32 : vector<8xindex>
        %134 = affine.apply #map9()[%thread_id_y, %thread_id_x, %block_id_y, %block_id_x]
        %135 = arith.cmpi slt, %134, %c641 : index
        %136 = vector.broadcast %135 : i1 to vector<8xi1>
        %137 = arith.andi %133, %136 : vector<8xi1>
        %138 = arith.muli %134, %c2880 overflow<nsw> : index
        %139 = arith.addi %138, %130 overflow<nsw> : index
        %140 = arith.index_cast %139 : index to i32
        %141 = vector.broadcast %140 : i32 to vector<8xi32>
        %142 = arith.addi %141, %cst_30 : vector<8xi32>
        %143 = arith.index_cast %142 : vector<8xi32> to vector<8xindex>
        %144 = arith.select %137, %143, %cst_31 : vector<8xi1>, vector<8xindex>
        %145 = vector.extract %144[0] : index from vector<8xindex>
        %146 = memref.load %11[%145] : memref<?xf16, #amdgpu.address_space<fat_raw_buffer>>
        %147 = vector.extract %144[1] : index from vector<8xindex>
        %148 = memref.load %11[%147] : memref<?xf16, #amdgpu.address_space<fat_raw_buffer>>
        %149 = vector.extract %144[2] : index from vector<8xindex>
        %150 = memref.load %11[%149] : memref<?xf16, #amdgpu.address_space<fat_raw_buffer>>
        %151 = vector.extract %144[3] : index from vector<8xindex>
        %152 = memref.load %11[%151] : memref<?xf16, #amdgpu.address_space<fat_raw_buffer>>
        %153 = vector.extract %144[4] : index from vector<8xindex>
        %154 = memref.load %11[%153] : memref<?xf16, #amdgpu.address_space<fat_raw_buffer>>
        %155 = vector.extract %144[5] : index from vector<8xindex>
        %156 = memref.load %11[%155] : memref<?xf16, #amdgpu.address_space<fat_raw_buffer>>
        %157 = vector.extract %144[6] : index from vector<8xindex>
        %158 = memref.load %11[%157] : memref<?xf16, #amdgpu.address_space<fat_raw_buffer>>
        %159 = vector.extract %144[7] : index from vector<8xindex>
        %160 = memref.load %11[%159] : memref<?xf16, #amdgpu.address_space<fat_raw_buffer>>
        %161 = vector.from_elements %146, %148, %150, %152, %154, %156, %158, %160 : vector<8xf16>
        %162 = stream.binding.subspan %arg1[%c0] : !stream.binding -> memref<4096x2880xf16, strided<[2880, 1], offset: ?>>
        %163 = affine.apply #map10()[%thread_id_y, %thread_id_x]
        %164 = vector.broadcast %163 : index to vector<7xindex>
        %165 = arith.addi %164, %cst_34 overflow<nsw, nuw> : vector<7xindex>
        %166 = arith.cmpi slt, %165, %cst_29 : vector<7xindex>
        %167 = affine.apply #map11()[%thread_id_y, %thread_id_x, %block_id_y, %block_id_x]
        %168 = arith.muli %167, %c2880 overflow<nsw> : index
        %169 = arith.addi %168, %163 overflow<nsw> : index
        %base_buffer_38, %offset_39, %sizes_40:2, %strides_41:2 = memref.extract_strided_metadata %162 : memref<4096x2880xf16, strided<[2880, 1], offset: ?>> -> memref<f16>, index, index, index, index, index
        %reinterpret_cast_42 = memref.reinterpret_cast %162 to offset: [%offset_39], sizes: [%c1073741822], strides: [1] : memref<4096x2880xf16, strided<[2880, 1], offset: ?>> to memref<?xf16, strided<[1], offset: ?>>
        %170 = amdgpu.fat_raw_buffer_cast %reinterpret_cast_42 validBytes(%c2147483645_i32) cacheSwizzleStride(%c2880_i14) resetOffset : memref<?xf16, strided<[1], offset: ?>> to memref<?xf16, #amdgpu.address_space<fat_raw_buffer>>
        %171 = arith.index_cast %169 : index to i32
        %172 = vector.broadcast %171 : i32 to vector<7xi32>
        %173 = arith.addi %172, %cst_27 : vector<7xi32>
        %174 = arith.index_cast %173 : vector<7xi32> to vector<7xindex>
        %175 = arith.select %166, %174, %cst_28 : vector<7xi1>, vector<7xindex>
        %176 = vector.extract %175[0] : index from vector<7xindex>
        %177 = memref.load %170[%176] : memref<?xf16, #amdgpu.address_space<fat_raw_buffer>>
        %178 = vector.extract %175[1] : index from vector<7xindex>
        %179 = memref.load %170[%178] : memref<?xf16, #amdgpu.address_space<fat_raw_buffer>>
        %180 = vector.extract %175[2] : index from vector<7xindex>
        %181 = memref.load %170[%180] : memref<?xf16, #amdgpu.address_space<fat_raw_buffer>>
        %182 = vector.extract %175[3] : index from vector<7xindex>
        %183 = memref.load %170[%182] : memref<?xf16, #amdgpu.address_space<fat_raw_buffer>>
        %184 = vector.extract %175[4] : index from vector<7xindex>
        %185 = memref.load %170[%184] : memref<?xf16, #amdgpu.address_space<fat_raw_buffer>>
        %186 = vector.extract %175[5] : index from vector<7xindex>
        %187 = memref.load %170[%186] : memref<?xf16, #amdgpu.address_space<fat_raw_buffer>>
        %188 = vector.extract %175[6] : index from vector<7xindex>
        %189 = memref.load %170[%188] : memref<?xf16, #amdgpu.address_space<fat_raw_buffer>>
        %190 = vector.from_elements %177, %179, %181, %183, %185, %187, %189 : vector<7xf16>
        %191 = arith.cmpi slt, %3, %cst_26 : vector<8xindex>
        %192 = affine.apply #map12()[%thread_id_x]
        %193 = arith.minsi %192, %c96 : index
        %194 = affine.apply #map13()[%thread_id_y, %thread_id_x]
        %195 = arith.cmpi slt, %194, %193 : index
        %196 = vector.broadcast %195 : i1 to vector<8xi1>
        %197 = arith.andi %191, %196 : vector<8xi1>
        vector.maskedstore %view_37[%194, %1], %197, %33 : memref<96x199xf16, #gpu.address_space<workgroup>>, vector<8xi1>, vector<8xf16>
        %198 = arith.cmpi slt, %36, %cst_26 : vector<8xindex>
        %199 = affine.apply #map14()[%thread_id_y, %thread_id_x]
        %200 = arith.cmpi slt, %199, %193 : index
        %201 = vector.broadcast %200 : i1 to vector<8xi1>
        %202 = arith.andi %198, %201 : vector<8xi1>
        vector.maskedstore %view_37[%199, %34], %202, %65 : memref<96x199xf16, #gpu.address_space<workgroup>>, vector<8xi1>, vector<8xf16>
        %203 = arith.cmpi slt, %68, %cst_26 : vector<8xindex>
        %204 = affine.apply #map15()[%thread_id_y, %thread_id_x]
        %205 = arith.cmpi slt, %204, %193 : index
        %206 = vector.broadcast %205 : i1 to vector<8xi1>
        %207 = arith.andi %203, %206 : vector<8xi1>
        vector.maskedstore %view_37[%204, %66], %207, %97 : memref<96x199xf16, #gpu.address_space<workgroup>>, vector<8xi1>, vector<8xf16>
        %208 = arith.cmpi slt, %100, %cst_26 : vector<8xindex>
        %209 = affine.apply #map16()[%thread_id_y, %thread_id_x]
        %210 = arith.cmpi slt, %209, %193 : index
        %211 = vector.broadcast %210 : i1 to vector<8xi1>
        %212 = arith.andi %208, %211 : vector<8xi1>
        vector.maskedstore %view_37[%209, %98], %212, %129 : memref<96x199xf16, #gpu.address_space<workgroup>>, vector<8xi1>, vector<8xf16>
        %213 = arith.cmpi slt, %132, %cst_26 : vector<8xindex>
        %214 = affine.apply #map17()[%thread_id_y, %thread_id_x]
        %215 = arith.cmpi slt, %214, %193 : index
        %216 = vector.broadcast %215 : i1 to vector<8xi1>
        %217 = arith.andi %213, %216 : vector<8xi1>
        vector.maskedstore %view_37[%214, %130], %217, %161 : memref<96x199xf16, #gpu.address_space<workgroup>>, vector<8xi1>, vector<8xf16>
        %218 = arith.cmpi slt, %165, %cst_25 : vector<7xindex>
        %219 = affine.apply #map18()[%thread_id_y]
        %220 = arith.minsi %219, %c16 : index
        %221 = affine.apply #map19()[%thread_id_y, %thread_id_x]
        %222 = arith.cmpi slt, %221, %220 : index
        %223 = vector.broadcast %222 : i1 to vector<7xi1>
        %224 = arith.andi %218, %223 : vector<7xi1>
        vector.maskedstore %view[%221, %163], %224, %190 : memref<16x199xf16, #gpu.address_space<workgroup>>, vector<7xi1>, vector<7xf16>
        %225 = affine.apply #map20()[%thread_id_x]
        %226 = vector.broadcast %225 : index to vector<4xindex>
        %227 = arith.addi %226, %cst_33 overflow<nsw, nuw> : vector<4xindex>
        %228 = arith.cmpi slt, %227, %cst_24 : vector<4xindex>
        %229 = affine.apply #map21()[%thread_id_x, %thread_id_y]
        %230 = arith.cmpi slt, %229, %220 : index
        %231 = vector.broadcast %230 : i1 to vector<4xi1>
        %232 = arith.andi %228, %231 : vector<4xi1>
        %233 = arith.addi %227, %cst_22 overflow<nsw, nuw> : vector<4xindex>
        %234 = arith.cmpi slt, %233, %cst_24 : vector<4xindex>
        %235 = arith.andi %234, %231 : vector<4xi1>
        %236 = affine.apply #map22()[%thread_id_x]
        %237 = arith.addi %227, %cst_21 overflow<nsw, nuw> : vector<4xindex>
        %238 = arith.cmpi slt, %237, %cst_24 : vector<4xindex>
        %239 = arith.andi %238, %231 : vector<4xi1>
        %240 = affine.apply #map23()[%thread_id_x]
        %241 = arith.addi %227, %cst_20 overflow<nsw, nuw> : vector<4xindex>
        %242 = arith.cmpi slt, %241, %cst_24 : vector<4xindex>
        %243 = arith.andi %242, %231 : vector<4xi1>
        %244 = affine.apply #map24()[%thread_id_x]
        %245 = arith.addi %227, %cst_19 overflow<nsw, nuw> : vector<4xindex>
        %246 = arith.cmpi slt, %245, %cst_24 : vector<4xindex>
        %247 = arith.andi %246, %231 : vector<4xi1>
        %248 = affine.apply #map25()[%thread_id_x]
        %249 = arith.addi %227, %cst_18 overflow<nsw, nuw> : vector<4xindex>
        %250 = arith.cmpi slt, %249, %cst_24 : vector<4xindex>
        %251 = arith.andi %250, %231 : vector<4xi1>
        %252 = affine.apply #map26()[%thread_id_x]
        %253 = arith.addi %227, %cst_17 overflow<nsw, nuw> : vector<4xindex>
        %254 = arith.cmpi slt, %253, %cst_24 : vector<4xindex>
        %255 = arith.andi %254, %231 : vector<4xi1>
        %256 = affine.apply #map27()[%thread_id_x]
        %257 = arith.addi %227, %cst_16 overflow<nsw, nuw> : vector<4xindex>
        %258 = arith.cmpi slt, %257, %cst_24 : vector<4xindex>
        %259 = arith.andi %258, %231 : vector<4xi1>
        %260 = affine.apply #map28()[%thread_id_x]
        %261 = arith.addi %227, %cst_15 overflow<nsw, nuw> : vector<4xindex>
        %262 = arith.cmpi slt, %261, %cst_24 : vector<4xindex>
        %263 = arith.andi %262, %231 : vector<4xi1>
        %264 = affine.apply #map29()[%thread_id_x]
        %265 = arith.addi %227, %cst_14 overflow<nsw, nuw> : vector<4xindex>
        %266 = arith.cmpi slt, %265, %cst_24 : vector<4xindex>
        %267 = arith.andi %266, %231 : vector<4xi1>
        %268 = affine.apply #map30()[%thread_id_x]
        %269 = arith.addi %227, %cst_13 overflow<nsw, nuw> : vector<4xindex>
        %270 = arith.cmpi slt, %269, %cst_24 : vector<4xindex>
        %271 = arith.andi %270, %231 : vector<4xi1>
        %272 = affine.apply #map31()[%thread_id_x]
        %273 = arith.addi %227, %cst_12 overflow<nsw, nuw> : vector<4xindex>
        %274 = arith.cmpi slt, %273, %cst_24 : vector<4xindex>
        %275 = arith.andi %274, %231 : vector<4xi1>
        %276 = affine.apply #map32()[%thread_id_x]
        %277 = arith.addi %227, %cst_11 overflow<nsw, nuw> : vector<4xindex>
        %278 = arith.cmpi slt, %277, %cst_24 : vector<4xindex>
        %279 = arith.andi %278, %231 : vector<4xi1>
        %280 = affine.apply #map33()[%thread_id_x]
        %281 = arith.addi %227, %cst_10 overflow<nsw, nuw> : vector<4xindex>
        %282 = arith.cmpi slt, %281, %cst_24 : vector<4xindex>
        %283 = arith.andi %282, %231 : vector<4xi1>
        %284 = affine.apply #map34()[%thread_id_x]
        %285 = arith.addi %227, %cst_9 overflow<nsw, nuw> : vector<4xindex>
        %286 = arith.cmpi slt, %285, %cst_24 : vector<4xindex>
        %287 = arith.andi %286, %231 : vector<4xi1>
        %288 = affine.apply #map35()[%thread_id_x]
        %289 = arith.addi %227, %cst_8 overflow<nsw, nuw> : vector<4xindex>
        %290 = arith.cmpi slt, %289, %cst_24 : vector<4xindex>
        %291 = arith.andi %290, %231 : vector<4xi1>
        %292 = affine.apply #map36()[%thread_id_x]
        %293 = arith.addi %227, %cst_7 overflow<nsw, nuw> : vector<4xindex>
        %294 = arith.cmpi slt, %293, %cst_24 : vector<4xindex>
        %295 = arith.andi %294, %231 : vector<4xi1>
        %296 = affine.apply #map37()[%thread_id_x]
        %297 = arith.addi %227, %cst_6 overflow<nsw, nuw> : vector<4xindex>
        %298 = arith.cmpi slt, %297, %cst_24 : vector<4xindex>
        %299 = arith.andi %298, %231 : vector<4xi1>
        %300 = affine.apply #map38()[%thread_id_x]
        %301 = arith.addi %227, %cst_5 overflow<nsw, nuw> : vector<4xindex>
        %302 = arith.cmpi slt, %301, %cst_24 : vector<4xindex>
        %303 = arith.andi %302, %231 : vector<4xi1>
        %304 = affine.apply #map39()[%thread_id_x]
        %305 = arith.addi %227, %cst_4 overflow<nsw, nuw> : vector<4xindex>
        %306 = arith.cmpi slt, %305, %cst_24 : vector<4xindex>
        %307 = arith.andi %306, %231 : vector<4xi1>
        %308 = affine.apply #map40()[%thread_id_x]
        %309 = arith.addi %227, %cst_3 overflow<nsw, nuw> : vector<4xindex>
        %310 = arith.cmpi slt, %309, %cst_24 : vector<4xindex>
        %311 = arith.andi %310, %231 : vector<4xi1>
        %312 = affine.apply #map41()[%thread_id_x]
        %313 = arith.addi %227, %cst_2 overflow<nsw, nuw> : vector<4xindex>
        %314 = arith.cmpi slt, %313, %cst_24 : vector<4xindex>
        %315 = arith.andi %314, %231 : vector<4xi1>
        %316 = affine.apply #map42()[%thread_id_x]
        %317 = arith.addi %227, %cst_1 overflow<nsw, nuw> : vector<4xindex>
        %318 = arith.cmpi slt, %317, %cst_24 : vector<4xindex>
        %319 = arith.andi %318, %231 : vector<4xi1>
        %320 = affine.apply #map43()[%thread_id_x]
        %321 = arith.addi %227, %cst_0 overflow<nsw, nuw> : vector<4xindex>
        %322 = arith.cmpi slt, %321, %cst_24 : vector<4xindex>
        %323 = arith.andi %322, %231 : vector<4xi1>
        %324 = affine.apply #map44()[%thread_id_x]
        %325 = arith.addi %227, %cst overflow<nsw, nuw> : vector<4xindex>
        %326 = arith.cmpi slt, %325, %cst_24 : vector<4xindex>
        %327 = arith.andi %326, %231 : vector<4xi1>
        %328 = affine.apply #map45()[%thread_id_x]
        %329 = affine.apply #map46()[%thread_id_x]
        %330 = arith.cmpi slt, %329, %193 : index
        %331 = vector.broadcast %330 : i1 to vector<4xi1>
        %332 = arith.andi %228, %331 : vector<4xi1>
        %333 = arith.andi %234, %331 : vector<4xi1>
        %334 = arith.andi %238, %331 : vector<4xi1>
        %335 = arith.andi %242, %331 : vector<4xi1>
        %336 = arith.andi %246, %331 : vector<4xi1>
        %337 = arith.andi %250, %331 : vector<4xi1>
        %338 = arith.andi %254, %331 : vector<4xi1>
        %339 = arith.andi %258, %331 : vector<4xi1>
        %340 = arith.andi %262, %331 : vector<4xi1>
        %341 = arith.andi %266, %331 : vector<4xi1>
        %342 = arith.andi %270, %331 : vector<4xi1>
        %343 = arith.andi %274, %331 : vector<4xi1>
        %344 = arith.andi %278, %331 : vector<4xi1>
        %345 = arith.andi %282, %331 : vector<4xi1>
        %346 = arith.andi %286, %331 : vector<4xi1>
        %347 = arith.andi %290, %331 : vector<4xi1>
        %348 = arith.andi %294, %331 : vector<4xi1>
        %349 = arith.andi %298, %331 : vector<4xi1>
        %350 = arith.andi %302, %331 : vector<4xi1>
        %351 = arith.andi %306, %331 : vector<4xi1>
        %352 = arith.andi %310, %331 : vector<4xi1>
        %353 = arith.andi %314, %331 : vector<4xi1>
        %354 = arith.andi %318, %331 : vector<4xi1>
        %355 = arith.andi %322, %331 : vector<4xi1>
        %356 = arith.andi %326, %331 : vector<4xi1>
        %357 = scf.for %arg3 = %c0 to %c14 step %c1 iter_args(%arg4 = %cst_36) -> (vector<16xf32>) {
          amdgpu.lds_barrier
          %707 = vector.maskedload %view[%229, %225], %232, %cst_23 : memref<16x199xf16, #gpu.address_space<workgroup>>, vector<4xi1>, vector<4xf16> into vector<4xf16>
          %708 = vector.maskedload %view[%229, %236], %235, %cst_23 : memref<16x199xf16, #gpu.address_space<workgroup>>, vector<4xi1>, vector<4xf16> into vector<4xf16>
          %709 = vector.maskedload %view[%229, %240], %239, %cst_23 : memref<16x199xf16, #gpu.address_space<workgroup>>, vector<4xi1>, vector<4xf16> into vector<4xf16>
          %710 = vector.maskedload %view[%229, %244], %243, %cst_23 : memref<16x199xf16, #gpu.address_space<workgroup>>, vector<4xi1>, vector<4xf16> into vector<4xf16>
          %711 = vector.maskedload %view[%229, %248], %247, %cst_23 : memref<16x199xf16, #gpu.address_space<workgroup>>, vector<4xi1>, vector<4xf16> into vector<4xf16>
          %712 = vector.maskedload %view[%229, %252], %251, %cst_23 : memref<16x199xf16, #gpu.address_space<workgroup>>, vector<4xi1>, vector<4xf16> into vector<4xf16>
          %713 = vector.maskedload %view[%229, %256], %255, %cst_23 : memref<16x199xf16, #gpu.address_space<workgroup>>, vector<4xi1>, vector<4xf16> into vector<4xf16>
          %714 = vector.maskedload %view[%229, %260], %259, %cst_23 : memref<16x199xf16, #gpu.address_space<workgroup>>, vector<4xi1>, vector<4xf16> into vector<4xf16>
          %715 = vector.maskedload %view[%229, %264], %263, %cst_23 : memref<16x199xf16, #gpu.address_space<workgroup>>, vector<4xi1>, vector<4xf16> into vector<4xf16>
          %716 = vector.maskedload %view[%229, %268], %267, %cst_23 : memref<16x199xf16, #gpu.address_space<workgroup>>, vector<4xi1>, vector<4xf16> into vector<4xf16>
          %717 = vector.maskedload %view[%229, %272], %271, %cst_23 : memref<16x199xf16, #gpu.address_space<workgroup>>, vector<4xi1>, vector<4xf16> into vector<4xf16>
          %718 = vector.maskedload %view[%229, %276], %275, %cst_23 : memref<16x199xf16, #gpu.address_space<workgroup>>, vector<4xi1>, vector<4xf16> into vector<4xf16>
          %719 = vector.maskedload %view[%229, %280], %279, %cst_23 : memref<16x199xf16, #gpu.address_space<workgroup>>, vector<4xi1>, vector<4xf16> into vector<4xf16>
          %720 = vector.maskedload %view[%229, %284], %283, %cst_23 : memref<16x199xf16, #gpu.address_space<workgroup>>, vector<4xi1>, vector<4xf16> into vector<4xf16>
          %721 = vector.maskedload %view[%229, %288], %287, %cst_23 : memref<16x199xf16, #gpu.address_space<workgroup>>, vector<4xi1>, vector<4xf16> into vector<4xf16>
          %722 = vector.maskedload %view[%229, %292], %291, %cst_23 : memref<16x199xf16, #gpu.address_space<workgroup>>, vector<4xi1>, vector<4xf16> into vector<4xf16>
          %723 = vector.maskedload %view[%229, %296], %295, %cst_23 : memref<16x199xf16, #gpu.address_space<workgroup>>, vector<4xi1>, vector<4xf16> into vector<4xf16>
          %724 = vector.maskedload %view[%229, %300], %299, %cst_23 : memref<16x199xf16, #gpu.address_space<workgroup>>, vector<4xi1>, vector<4xf16> into vector<4xf16>
          %725 = vector.maskedload %view[%229, %304], %303, %cst_23 : memref<16x199xf16, #gpu.address_space<workgroup>>, vector<4xi1>, vector<4xf16> into vector<4xf16>
          %726 = vector.maskedload %view[%229, %308], %307, %cst_23 : memref<16x199xf16, #gpu.address_space<workgroup>>, vector<4xi1>, vector<4xf16> into vector<4xf16>
          %727 = vector.maskedload %view[%229, %312], %311, %cst_23 : memref<16x199xf16, #gpu.address_space<workgroup>>, vector<4xi1>, vector<4xf16> into vector<4xf16>
          %728 = vector.maskedload %view[%229, %316], %315, %cst_23 : memref<16x199xf16, #gpu.address_space<workgroup>>, vector<4xi1>, vector<4xf16> into vector<4xf16>
          %729 = vector.maskedload %view[%229, %320], %319, %cst_23 : memref<16x199xf16, #gpu.address_space<workgroup>>, vector<4xi1>, vector<4xf16> into vector<4xf16>
          %730 = vector.maskedload %view[%229, %324], %323, %cst_23 : memref<16x199xf16, #gpu.address_space<workgroup>>, vector<4xi1>, vector<4xf16> into vector<4xf16>
          %731 = vector.maskedload %view[%229, %328], %327, %cst_23 : memref<16x199xf16, #gpu.address_space<workgroup>>, vector<4xi1>, vector<4xf16> into vector<4xf16>
          %732 = vector.maskedload %view_37[%329, %225], %332, %cst_23 : memref<96x199xf16, #gpu.address_space<workgroup>>, vector<4xi1>, vector<4xf16> into vector<4xf16>
          %733 = vector.maskedload %view_37[%329, %236], %333, %cst_23 : memref<96x199xf16, #gpu.address_space<workgroup>>, vector<4xi1>, vector<4xf16> into vector<4xf16>
          %734 = vector.maskedload %view_37[%329, %240], %334, %cst_23 : memref<96x199xf16, #gpu.address_space<workgroup>>, vector<4xi1>, vector<4xf16> into vector<4xf16>
          %735 = vector.maskedload %view_37[%329, %244], %335, %cst_23 : memref<96x199xf16, #gpu.address_space<workgroup>>, vector<4xi1>, vector<4xf16> into vector<4xf16>
          %736 = vector.maskedload %view_37[%329, %248], %336, %cst_23 : memref<96x199xf16, #gpu.address_space<workgroup>>, vector<4xi1>, vector<4xf16> into vector<4xf16>
          %737 = vector.maskedload %view_37[%329, %252], %337, %cst_23 : memref<96x199xf16, #gpu.address_space<workgroup>>, vector<4xi1>, vector<4xf16> into vector<4xf16>
          %738 = vector.maskedload %view_37[%329, %256], %338, %cst_23 : memref<96x199xf16, #gpu.address_space<workgroup>>, vector<4xi1>, vector<4xf16> into vector<4xf16>
          %739 = vector.maskedload %view_37[%329, %260], %339, %cst_23 : memref<96x199xf16, #gpu.address_space<workgroup>>, vector<4xi1>, vector<4xf16> into vector<4xf16>
          %740 = vector.maskedload %view_37[%329, %264], %340, %cst_23 : memref<96x199xf16, #gpu.address_space<workgroup>>, vector<4xi1>, vector<4xf16> into vector<4xf16>
          %741 = vector.maskedload %view_37[%329, %268], %341, %cst_23 : memref<96x199xf16, #gpu.address_space<workgroup>>, vector<4xi1>, vector<4xf16> into vector<4xf16>
          %742 = vector.maskedload %view_37[%329, %272], %342, %cst_23 : memref<96x199xf16, #gpu.address_space<workgroup>>, vector<4xi1>, vector<4xf16> into vector<4xf16>
          %743 = vector.maskedload %view_37[%329, %276], %343, %cst_23 : memref<96x199xf16, #gpu.address_space<workgroup>>, vector<4xi1>, vector<4xf16> into vector<4xf16>
          %744 = vector.maskedload %view_37[%329, %280], %344, %cst_23 : memref<96x199xf16, #gpu.address_space<workgroup>>, vector<4xi1>, vector<4xf16> into vector<4xf16>
          %745 = vector.maskedload %view_37[%329, %284], %345, %cst_23 : memref<96x199xf16, #gpu.address_space<workgroup>>, vector<4xi1>, vector<4xf16> into vector<4xf16>
          %746 = vector.maskedload %view_37[%329, %288], %346, %cst_23 : memref<96x199xf16, #gpu.address_space<workgroup>>, vector<4xi1>, vector<4xf16> into vector<4xf16>
          %747 = vector.maskedload %view_37[%329, %292], %347, %cst_23 : memref<96x199xf16, #gpu.address_space<workgroup>>, vector<4xi1>, vector<4xf16> into vector<4xf16>
          %748 = vector.maskedload %view_37[%329, %296], %348, %cst_23 : memref<96x199xf16, #gpu.address_space<workgroup>>, vector<4xi1>, vector<4xf16> into vector<4xf16>
          %749 = vector.maskedload %view_37[%329, %300], %349, %cst_23 : memref<96x199xf16, #gpu.address_space<workgroup>>, vector<4xi1>, vector<4xf16> into vector<4xf16>
          %750 = vector.maskedload %view_37[%329, %304], %350, %cst_23 : memref<96x199xf16, #gpu.address_space<workgroup>>, vector<4xi1>, vector<4xf16> into vector<4xf16>
          %751 = vector.maskedload %view_37[%329, %308], %351, %cst_23 : memref<96x199xf16, #gpu.address_space<workgroup>>, vector<4xi1>, vector<4xf16> into vector<4xf16>
          %752 = vector.maskedload %view_37[%329, %312], %352, %cst_23 : memref<96x199xf16, #gpu.address_space<workgroup>>, vector<4xi1>, vector<4xf16> into vector<4xf16>
          %753 = vector.maskedload %view_37[%329, %316], %353, %cst_23 : memref<96x199xf16, #gpu.address_space<workgroup>>, vector<4xi1>, vector<4xf16> into vector<4xf16>
          %754 = vector.maskedload %view_37[%329, %320], %354, %cst_23 : memref<96x199xf16, #gpu.address_space<workgroup>>, vector<4xi1>, vector<4xf16> into vector<4xf16>
          %755 = vector.maskedload %view_37[%329, %324], %355, %cst_23 : memref<96x199xf16, #gpu.address_space<workgroup>>, vector<4xi1>, vector<4xf16> into vector<4xf16>
          %756 = vector.maskedload %view_37[%329, %328], %356, %cst_23 : memref<96x199xf16, #gpu.address_space<workgroup>>, vector<4xi1>, vector<4xf16> into vector<4xf16>
          %757 = affine.apply #map47()[%thread_id_y, %thread_id_x, %arg3]
          %758 = vector.broadcast %757 : index to vector<8xindex>
          %759 = arith.addi %758, %cst_35 overflow<nsw, nuw> : vector<8xindex>
          %760 = arith.addi %759, %cst_26 overflow<nsw, nuw> : vector<8xindex>
          %761 = arith.cmpi slt, %760, %cst_32 : vector<8xindex>
          %762 = arith.andi %761, %7 : vector<8xi1>
          %763 = affine.apply #map48()[%thread_id_y, %thread_id_x, %arg3]
          %764 = arith.addi %9, %763 overflow<nsw> : index
          %765 = arith.index_cast %764 : index to i32
          %766 = vector.broadcast %765 : i32 to vector<8xi32>
          %767 = arith.addi %766, %cst_30 : vector<8xi32>
          %768 = arith.index_cast %767 : vector<8xi32> to vector<8xindex>
          %769 = arith.select %762, %768, %cst_31 : vector<8xi1>, vector<8xindex>
          %770 = vector.extract %769[0] : index from vector<8xindex>
          %771 = memref.load %11[%770] : memref<?xf16, #amdgpu.address_space<fat_raw_buffer>>
          %772 = vector.extract %769[1] : index from vector<8xindex>
          %773 = memref.load %11[%772] : memref<?xf16, #amdgpu.address_space<fat_raw_buffer>>
          %774 = vector.extract %769[2] : index from vector<8xindex>
          %775 = memref.load %11[%774] : memref<?xf16, #amdgpu.address_space<fat_raw_buffer>>
          %776 = vector.extract %769[3] : index from vector<8xindex>
          %777 = memref.load %11[%776] : memref<?xf16, #amdgpu.address_space<fat_raw_buffer>>
          %778 = vector.extract %769[4] : index from vector<8xindex>
          %779 = memref.load %11[%778] : memref<?xf16, #amdgpu.address_space<fat_raw_buffer>>
          %780 = vector.extract %769[5] : index from vector<8xindex>
          %781 = memref.load %11[%780] : memref<?xf16, #amdgpu.address_space<fat_raw_buffer>>
          %782 = vector.extract %769[6] : index from vector<8xindex>
          %783 = memref.load %11[%782] : memref<?xf16, #amdgpu.address_space<fat_raw_buffer>>
          %784 = vector.extract %769[7] : index from vector<8xindex>
          %785 = memref.load %11[%784] : memref<?xf16, #amdgpu.address_space<fat_raw_buffer>>
          %786 = vector.from_elements %771, %773, %775, %777, %779, %781, %783, %785 : vector<8xf16>
          %787 = affine.apply #map49()[%thread_id_y, %thread_id_x, %arg3]
          %788 = vector.broadcast %787 : index to vector<8xindex>
          %789 = arith.addi %788, %cst_35 overflow<nsw, nuw> : vector<8xindex>
          %790 = arith.addi %789, %cst_26 overflow<nsw, nuw> : vector<8xindex>
          %791 = arith.cmpi slt, %790, %cst_32 : vector<8xindex>
          %792 = arith.andi %791, %40 : vector<8xi1>
          %793 = affine.apply #map50()[%thread_id_y, %thread_id_x, %arg3]
          %794 = arith.addi %42, %793 overflow<nsw> : index
          %795 = arith.index_cast %794 : index to i32
          %796 = vector.broadcast %795 : i32 to vector<8xi32>
          %797 = arith.addi %796, %cst_30 : vector<8xi32>
          %798 = arith.index_cast %797 : vector<8xi32> to vector<8xindex>
          %799 = arith.select %792, %798, %cst_31 : vector<8xi1>, vector<8xindex>
          %800 = vector.extract %799[0] : index from vector<8xindex>
          %801 = memref.load %11[%800] : memref<?xf16, #amdgpu.address_space<fat_raw_buffer>>
          %802 = vector.extract %799[1] : index from vector<8xindex>
          %803 = memref.load %11[%802] : memref<?xf16, #amdgpu.address_space<fat_raw_buffer>>
          %804 = vector.extract %799[2] : index from vector<8xindex>
          %805 = memref.load %11[%804] : memref<?xf16, #amdgpu.address_space<fat_raw_buffer>>
          %806 = vector.extract %799[3] : index from vector<8xindex>
          %807 = memref.load %11[%806] : memref<?xf16, #amdgpu.address_space<fat_raw_buffer>>
          %808 = vector.extract %799[4] : index from vector<8xindex>
          %809 = memref.load %11[%808] : memref<?xf16, #amdgpu.address_space<fat_raw_buffer>>
          %810 = vector.extract %799[5] : index from vector<8xindex>
          %811 = memref.load %11[%810] : memref<?xf16, #amdgpu.address_space<fat_raw_buffer>>
          %812 = vector.extract %799[6] : index from vector<8xindex>
          %813 = memref.load %11[%812] : memref<?xf16, #amdgpu.address_space<fat_raw_buffer>>
          %814 = vector.extract %799[7] : index from vector<8xindex>
          %815 = memref.load %11[%814] : memref<?xf16, #amdgpu.address_space<fat_raw_buffer>>
          %816 = vector.from_elements %801, %803, %805, %807, %809, %811, %813, %815 : vector<8xf16>
          %817 = affine.apply #map51()[%thread_id_y, %thread_id_x, %arg3]
          %818 = vector.broadcast %817 : index to vector<8xindex>
          %819 = arith.addi %818, %cst_35 overflow<nsw, nuw> : vector<8xindex>
          %820 = arith.addi %819, %cst_26 overflow<nsw, nuw> : vector<8xindex>
          %821 = arith.cmpi slt, %820, %cst_32 : vector<8xindex>
          %822 = arith.andi %821, %72 : vector<8xi1>
          %823 = affine.apply #map52()[%thread_id_y, %thread_id_x, %arg3]
          %824 = arith.addi %74, %823 overflow<nsw> : index
          %825 = arith.index_cast %824 : index to i32
          %826 = vector.broadcast %825 : i32 to vector<8xi32>
          %827 = arith.addi %826, %cst_30 : vector<8xi32>
          %828 = arith.index_cast %827 : vector<8xi32> to vector<8xindex>
          %829 = arith.select %822, %828, %cst_31 : vector<8xi1>, vector<8xindex>
          %830 = vector.extract %829[0] : index from vector<8xindex>
          %831 = memref.load %11[%830] : memref<?xf16, #amdgpu.address_space<fat_raw_buffer>>
          %832 = vector.extract %829[1] : index from vector<8xindex>
          %833 = memref.load %11[%832] : memref<?xf16, #amdgpu.address_space<fat_raw_buffer>>
          %834 = vector.extract %829[2] : index from vector<8xindex>
          %835 = memref.load %11[%834] : memref<?xf16, #amdgpu.address_space<fat_raw_buffer>>
          %836 = vector.extract %829[3] : index from vector<8xindex>
          %837 = memref.load %11[%836] : memref<?xf16, #amdgpu.address_space<fat_raw_buffer>>
          %838 = vector.extract %829[4] : index from vector<8xindex>
          %839 = memref.load %11[%838] : memref<?xf16, #amdgpu.address_space<fat_raw_buffer>>
          %840 = vector.extract %829[5] : index from vector<8xindex>
          %841 = memref.load %11[%840] : memref<?xf16, #amdgpu.address_space<fat_raw_buffer>>
          %842 = vector.extract %829[6] : index from vector<8xindex>
          %843 = memref.load %11[%842] : memref<?xf16, #amdgpu.address_space<fat_raw_buffer>>
          %844 = vector.extract %829[7] : index from vector<8xindex>
          %845 = memref.load %11[%844] : memref<?xf16, #amdgpu.address_space<fat_raw_buffer>>
          %846 = vector.from_elements %831, %833, %835, %837, %839, %841, %843, %845 : vector<8xf16>
          %847 = affine.apply #map53()[%thread_id_y, %thread_id_x, %arg3]
          %848 = vector.broadcast %847 : index to vector<8xindex>
          %849 = arith.addi %848, %cst_35 overflow<nsw, nuw> : vector<8xindex>
          %850 = arith.addi %849, %cst_26 overflow<nsw, nuw> : vector<8xindex>
          %851 = arith.cmpi slt, %850, %cst_32 : vector<8xindex>
          %852 = arith.andi %851, %104 : vector<8xi1>
          %853 = affine.apply #map54()[%thread_id_y, %thread_id_x, %arg3]
          %854 = arith.addi %106, %853 overflow<nsw> : index
          %855 = arith.index_cast %854 : index to i32
          %856 = vector.broadcast %855 : i32 to vector<8xi32>
          %857 = arith.addi %856, %cst_30 : vector<8xi32>
          %858 = arith.index_cast %857 : vector<8xi32> to vector<8xindex>
          %859 = arith.select %852, %858, %cst_31 : vector<8xi1>, vector<8xindex>
          %860 = vector.extract %859[0] : index from vector<8xindex>
          %861 = memref.load %11[%860] : memref<?xf16, #amdgpu.address_space<fat_raw_buffer>>
          %862 = vector.extract %859[1] : index from vector<8xindex>
          %863 = memref.load %11[%862] : memref<?xf16, #amdgpu.address_space<fat_raw_buffer>>
          %864 = vector.extract %859[2] : index from vector<8xindex>
          %865 = memref.load %11[%864] : memref<?xf16, #amdgpu.address_space<fat_raw_buffer>>
          %866 = vector.extract %859[3] : index from vector<8xindex>
          %867 = memref.load %11[%866] : memref<?xf16, #amdgpu.address_space<fat_raw_buffer>>
          %868 = vector.extract %859[4] : index from vector<8xindex>
          %869 = memref.load %11[%868] : memref<?xf16, #amdgpu.address_space<fat_raw_buffer>>
          %870 = vector.extract %859[5] : index from vector<8xindex>
          %871 = memref.load %11[%870] : memref<?xf16, #amdgpu.address_space<fat_raw_buffer>>
          %872 = vector.extract %859[6] : index from vector<8xindex>
          %873 = memref.load %11[%872] : memref<?xf16, #amdgpu.address_space<fat_raw_buffer>>
          %874 = vector.extract %859[7] : index from vector<8xindex>
          %875 = memref.load %11[%874] : memref<?xf16, #amdgpu.address_space<fat_raw_buffer>>
          %876 = vector.from_elements %861, %863, %865, %867, %869, %871, %873, %875 : vector<8xf16>
          %877 = affine.apply #map55()[%thread_id_y, %thread_id_x, %arg3]
          %878 = vector.broadcast %877 : index to vector<8xindex>
          %879 = arith.addi %878, %cst_35 overflow<nsw, nuw> : vector<8xindex>
          %880 = arith.addi %879, %cst_26 overflow<nsw, nuw> : vector<8xindex>
          %881 = arith.cmpi slt, %880, %cst_32 : vector<8xindex>
          %882 = arith.andi %881, %136 : vector<8xi1>
          %883 = affine.apply #map56()[%thread_id_y, %thread_id_x, %arg3]
          %884 = arith.addi %138, %883 overflow<nsw> : index
          %885 = arith.index_cast %884 : index to i32
          %886 = vector.broadcast %885 : i32 to vector<8xi32>
          %887 = arith.addi %886, %cst_30 : vector<8xi32>
          %888 = arith.index_cast %887 : vector<8xi32> to vector<8xindex>
          %889 = arith.select %882, %888, %cst_31 : vector<8xi1>, vector<8xindex>
          %890 = vector.extract %889[0] : index from vector<8xindex>
          %891 = memref.load %11[%890] : memref<?xf16, #amdgpu.address_space<fat_raw_buffer>>
          %892 = vector.extract %889[1] : index from vector<8xindex>
          %893 = memref.load %11[%892] : memref<?xf16, #amdgpu.address_space<fat_raw_buffer>>
          %894 = vector.extract %889[2] : index from vector<8xindex>
          %895 = memref.load %11[%894] : memref<?xf16, #amdgpu.address_space<fat_raw_buffer>>
          %896 = vector.extract %889[3] : index from vector<8xindex>
          %897 = memref.load %11[%896] : memref<?xf16, #amdgpu.address_space<fat_raw_buffer>>
          %898 = vector.extract %889[4] : index from vector<8xindex>
          %899 = memref.load %11[%898] : memref<?xf16, #amdgpu.address_space<fat_raw_buffer>>
          %900 = vector.extract %889[5] : index from vector<8xindex>
          %901 = memref.load %11[%900] : memref<?xf16, #amdgpu.address_space<fat_raw_buffer>>
          %902 = vector.extract %889[6] : index from vector<8xindex>
          %903 = memref.load %11[%902] : memref<?xf16, #amdgpu.address_space<fat_raw_buffer>>
          %904 = vector.extract %889[7] : index from vector<8xindex>
          %905 = memref.load %11[%904] : memref<?xf16, #amdgpu.address_space<fat_raw_buffer>>
          %906 = vector.from_elements %891, %893, %895, %897, %899, %901, %903, %905 : vector<8xf16>
          %907 = affine.apply #map57()[%thread_id_y, %thread_id_x, %arg3]
          %908 = vector.broadcast %907 : index to vector<7xindex>
          %909 = arith.addi %908, %cst_34 overflow<nsw, nuw> : vector<7xindex>
          %910 = arith.addi %909, %cst_25 overflow<nsw, nuw> : vector<7xindex>
          %911 = arith.cmpi slt, %910, %cst_29 : vector<7xindex>
          %912 = affine.apply #map58()[%thread_id_y, %thread_id_x, %arg3]
          %913 = arith.addi %168, %912 overflow<nsw> : index
          %914 = arith.index_cast %913 : index to i32
          %915 = vector.broadcast %914 : i32 to vector<7xi32>
          %916 = arith.addi %915, %cst_27 : vector<7xi32>
          %917 = arith.index_cast %916 : vector<7xi32> to vector<7xindex>
          %918 = arith.select %911, %917, %cst_28 : vector<7xi1>, vector<7xindex>
          %919 = vector.extract %918[0] : index from vector<7xindex>
          %920 = memref.load %170[%919] : memref<?xf16, #amdgpu.address_space<fat_raw_buffer>>
          %921 = vector.extract %918[1] : index from vector<7xindex>
          %922 = memref.load %170[%921] : memref<?xf16, #amdgpu.address_space<fat_raw_buffer>>
          %923 = vector.extract %918[2] : index from vector<7xindex>
          %924 = memref.load %170[%923] : memref<?xf16, #amdgpu.address_space<fat_raw_buffer>>
          %925 = vector.extract %918[3] : index from vector<7xindex>
          %926 = memref.load %170[%925] : memref<?xf16, #amdgpu.address_space<fat_raw_buffer>>
          %927 = vector.extract %918[4] : index from vector<7xindex>
          %928 = memref.load %170[%927] : memref<?xf16, #amdgpu.address_space<fat_raw_buffer>>
          %929 = vector.extract %918[5] : index from vector<7xindex>
          %930 = memref.load %170[%929] : memref<?xf16, #amdgpu.address_space<fat_raw_buffer>>
          %931 = vector.extract %918[6] : index from vector<7xindex>
          %932 = memref.load %170[%931] : memref<?xf16, #amdgpu.address_space<fat_raw_buffer>>
          %933 = vector.from_elements %920, %922, %924, %926, %928, %930, %932 : vector<7xf16>
          %934 = amdgpu.mfma %732 * %707 + %arg4 {blocks = 1 : i32, k = 8 : i32, m = 32 : i32, n = 32 : i32} blgp =  none : vector<4xf16>, vector<4xf16>, vector<16xf32>
          %935 = amdgpu.mfma %733 * %708 + %934 {blocks = 1 : i32, k = 8 : i32, m = 32 : i32, n = 32 : i32} blgp =  none : vector<4xf16>, vector<4xf16>, vector<16xf32>
          %936 = amdgpu.mfma %734 * %709 + %935 {blocks = 1 : i32, k = 8 : i32, m = 32 : i32, n = 32 : i32} blgp =  none : vector<4xf16>, vector<4xf16>, vector<16xf32>
          %937 = amdgpu.mfma %735 * %710 + %936 {blocks = 1 : i32, k = 8 : i32, m = 32 : i32, n = 32 : i32} blgp =  none : vector<4xf16>, vector<4xf16>, vector<16xf32>
          %938 = amdgpu.mfma %736 * %711 + %937 {blocks = 1 : i32, k = 8 : i32, m = 32 : i32, n = 32 : i32} blgp =  none : vector<4xf16>, vector<4xf16>, vector<16xf32>
          %939 = amdgpu.mfma %737 * %712 + %938 {blocks = 1 : i32, k = 8 : i32, m = 32 : i32, n = 32 : i32} blgp =  none : vector<4xf16>, vector<4xf16>, vector<16xf32>
          %940 = amdgpu.mfma %738 * %713 + %939 {blocks = 1 : i32, k = 8 : i32, m = 32 : i32, n = 32 : i32} blgp =  none : vector<4xf16>, vector<4xf16>, vector<16xf32>
          %941 = amdgpu.mfma %739 * %714 + %940 {blocks = 1 : i32, k = 8 : i32, m = 32 : i32, n = 32 : i32} blgp =  none : vector<4xf16>, vector<4xf16>, vector<16xf32>
          %942 = amdgpu.mfma %740 * %715 + %941 {blocks = 1 : i32, k = 8 : i32, m = 32 : i32, n = 32 : i32} blgp =  none : vector<4xf16>, vector<4xf16>, vector<16xf32>
          %943 = amdgpu.mfma %741 * %716 + %942 {blocks = 1 : i32, k = 8 : i32, m = 32 : i32, n = 32 : i32} blgp =  none : vector<4xf16>, vector<4xf16>, vector<16xf32>
          %944 = amdgpu.mfma %742 * %717 + %943 {blocks = 1 : i32, k = 8 : i32, m = 32 : i32, n = 32 : i32} blgp =  none : vector<4xf16>, vector<4xf16>, vector<16xf32>
          %945 = amdgpu.mfma %743 * %718 + %944 {blocks = 1 : i32, k = 8 : i32, m = 32 : i32, n = 32 : i32} blgp =  none : vector<4xf16>, vector<4xf16>, vector<16xf32>
          %946 = amdgpu.mfma %744 * %719 + %945 {blocks = 1 : i32, k = 8 : i32, m = 32 : i32, n = 32 : i32} blgp =  none : vector<4xf16>, vector<4xf16>, vector<16xf32>
          %947 = amdgpu.mfma %745 * %720 + %946 {blocks = 1 : i32, k = 8 : i32, m = 32 : i32, n = 32 : i32} blgp =  none : vector<4xf16>, vector<4xf16>, vector<16xf32>
          %948 = amdgpu.mfma %746 * %721 + %947 {blocks = 1 : i32, k = 8 : i32, m = 32 : i32, n = 32 : i32} blgp =  none : vector<4xf16>, vector<4xf16>, vector<16xf32>
          %949 = amdgpu.mfma %747 * %722 + %948 {blocks = 1 : i32, k = 8 : i32, m = 32 : i32, n = 32 : i32} blgp =  none : vector<4xf16>, vector<4xf16>, vector<16xf32>
          %950 = amdgpu.mfma %748 * %723 + %949 {blocks = 1 : i32, k = 8 : i32, m = 32 : i32, n = 32 : i32} blgp =  none : vector<4xf16>, vector<4xf16>, vector<16xf32>
          %951 = amdgpu.mfma %749 * %724 + %950 {blocks = 1 : i32, k = 8 : i32, m = 32 : i32, n = 32 : i32} blgp =  none : vector<4xf16>, vector<4xf16>, vector<16xf32>
          %952 = amdgpu.mfma %750 * %725 + %951 {blocks = 1 : i32, k = 8 : i32, m = 32 : i32, n = 32 : i32} blgp =  none : vector<4xf16>, vector<4xf16>, vector<16xf32>
          %953 = amdgpu.mfma %751 * %726 + %952 {blocks = 1 : i32, k = 8 : i32, m = 32 : i32, n = 32 : i32} blgp =  none : vector<4xf16>, vector<4xf16>, vector<16xf32>
          %954 = amdgpu.mfma %752 * %727 + %953 {blocks = 1 : i32, k = 8 : i32, m = 32 : i32, n = 32 : i32} blgp =  none : vector<4xf16>, vector<4xf16>, vector<16xf32>
          %955 = amdgpu.mfma %753 * %728 + %954 {blocks = 1 : i32, k = 8 : i32, m = 32 : i32, n = 32 : i32} blgp =  none : vector<4xf16>, vector<4xf16>, vector<16xf32>
          %956 = amdgpu.mfma %754 * %729 + %955 {blocks = 1 : i32, k = 8 : i32, m = 32 : i32, n = 32 : i32} blgp =  none : vector<4xf16>, vector<4xf16>, vector<16xf32>
          %957 = amdgpu.mfma %755 * %730 + %956 {blocks = 1 : i32, k = 8 : i32, m = 32 : i32, n = 32 : i32} blgp =  none : vector<4xf16>, vector<4xf16>, vector<16xf32>
          %958 = amdgpu.mfma %756 * %731 + %957 {blocks = 1 : i32, k = 8 : i32, m = 32 : i32, n = 32 : i32} blgp =  none : vector<4xf16>, vector<4xf16>, vector<16xf32>
          amdgpu.lds_barrier
          vector.maskedstore %view_37[%194, %1], %197, %786 : memref<96x199xf16, #gpu.address_space<workgroup>>, vector<8xi1>, vector<8xf16>
          vector.maskedstore %view_37[%199, %34], %202, %816 : memref<96x199xf16, #gpu.address_space<workgroup>>, vector<8xi1>, vector<8xf16>
          vector.maskedstore %view_37[%204, %66], %207, %846 : memref<96x199xf16, #gpu.address_space<workgroup>>, vector<8xi1>, vector<8xf16>
          vector.maskedstore %view_37[%209, %98], %212, %876 : memref<96x199xf16, #gpu.address_space<workgroup>>, vector<8xi1>, vector<8xf16>
          vector.maskedstore %view_37[%214, %130], %217, %906 : memref<96x199xf16, #gpu.address_space<workgroup>>, vector<8xi1>, vector<8xf16>
          vector.maskedstore %view[%221, %163], %224, %933 : memref<16x199xf16, #gpu.address_space<workgroup>>, vector<7xi1>, vector<7xf16>
          scf.yield %958 : vector<16xf32>
        }
        amdgpu.lds_barrier
        %358 = affine.apply #map20()[%thread_id_x]
        %359 = vector.broadcast %358 : index to vector<4xindex>
        %360 = arith.addi %359, %cst_33 overflow<nsw, nuw> : vector<4xindex>
        %361 = arith.cmpi slt, %360, %cst_24 : vector<4xindex>
        %362 = affine.apply #map21()[%thread_id_x, %thread_id_y]
        %363 = arith.cmpi slt, %362, %220 : index
        %364 = vector.broadcast %363 : i1 to vector<4xi1>
        %365 = arith.andi %361, %364 : vector<4xi1>
        %366 = vector.maskedload %view[%362, %358], %365, %cst_23 : memref<16x199xf16, #gpu.address_space<workgroup>>, vector<4xi1>, vector<4xf16> into vector<4xf16>
        %367 = arith.addi %360, %cst_22 overflow<nsw, nuw> : vector<4xindex>
        %368 = arith.cmpi slt, %367, %cst_24 : vector<4xindex>
        %369 = arith.andi %368, %364 : vector<4xi1>
        %370 = affine.apply #map22()[%thread_id_x]
        %371 = vector.maskedload %view[%362, %370], %369, %cst_23 : memref<16x199xf16, #gpu.address_space<workgroup>>, vector<4xi1>, vector<4xf16> into vector<4xf16>
        %372 = arith.addi %360, %cst_21 overflow<nsw, nuw> : vector<4xindex>
        %373 = arith.cmpi slt, %372, %cst_24 : vector<4xindex>
        %374 = arith.andi %373, %364 : vector<4xi1>
        %375 = affine.apply #map23()[%thread_id_x]
        %376 = vector.maskedload %view[%362, %375], %374, %cst_23 : memref<16x199xf16, #gpu.address_space<workgroup>>, vector<4xi1>, vector<4xf16> into vector<4xf16>
        %377 = arith.addi %360, %cst_20 overflow<nsw, nuw> : vector<4xindex>
        %378 = arith.cmpi slt, %377, %cst_24 : vector<4xindex>
        %379 = arith.andi %378, %364 : vector<4xi1>
        %380 = affine.apply #map24()[%thread_id_x]
        %381 = vector.maskedload %view[%362, %380], %379, %cst_23 : memref<16x199xf16, #gpu.address_space<workgroup>>, vector<4xi1>, vector<4xf16> into vector<4xf16>
        %382 = arith.addi %360, %cst_19 overflow<nsw, nuw> : vector<4xindex>
        %383 = arith.cmpi slt, %382, %cst_24 : vector<4xindex>
        %384 = arith.andi %383, %364 : vector<4xi1>
        %385 = affine.apply #map25()[%thread_id_x]
        %386 = vector.maskedload %view[%362, %385], %384, %cst_23 : memref<16x199xf16, #gpu.address_space<workgroup>>, vector<4xi1>, vector<4xf16> into vector<4xf16>
        %387 = arith.addi %360, %cst_18 overflow<nsw, nuw> : vector<4xindex>
        %388 = arith.cmpi slt, %387, %cst_24 : vector<4xindex>
        %389 = arith.andi %388, %364 : vector<4xi1>
        %390 = affine.apply #map26()[%thread_id_x]
        %391 = vector.maskedload %view[%362, %390], %389, %cst_23 : memref<16x199xf16, #gpu.address_space<workgroup>>, vector<4xi1>, vector<4xf16> into vector<4xf16>
        %392 = arith.addi %360, %cst_17 overflow<nsw, nuw> : vector<4xindex>
        %393 = arith.cmpi slt, %392, %cst_24 : vector<4xindex>
        %394 = arith.andi %393, %364 : vector<4xi1>
        %395 = affine.apply #map27()[%thread_id_x]
        %396 = vector.maskedload %view[%362, %395], %394, %cst_23 : memref<16x199xf16, #gpu.address_space<workgroup>>, vector<4xi1>, vector<4xf16> into vector<4xf16>
        %397 = arith.addi %360, %cst_16 overflow<nsw, nuw> : vector<4xindex>
        %398 = arith.cmpi slt, %397, %cst_24 : vector<4xindex>
        %399 = arith.andi %398, %364 : vector<4xi1>
        %400 = affine.apply #map28()[%thread_id_x]
        %401 = vector.maskedload %view[%362, %400], %399, %cst_23 : memref<16x199xf16, #gpu.address_space<workgroup>>, vector<4xi1>, vector<4xf16> into vector<4xf16>
        %402 = arith.addi %360, %cst_15 overflow<nsw, nuw> : vector<4xindex>
        %403 = arith.cmpi slt, %402, %cst_24 : vector<4xindex>
        %404 = arith.andi %403, %364 : vector<4xi1>
        %405 = affine.apply #map29()[%thread_id_x]
        %406 = vector.maskedload %view[%362, %405], %404, %cst_23 : memref<16x199xf16, #gpu.address_space<workgroup>>, vector<4xi1>, vector<4xf16> into vector<4xf16>
        %407 = arith.addi %360, %cst_14 overflow<nsw, nuw> : vector<4xindex>
        %408 = arith.cmpi slt, %407, %cst_24 : vector<4xindex>
        %409 = arith.andi %408, %364 : vector<4xi1>
        %410 = affine.apply #map30()[%thread_id_x]
        %411 = vector.maskedload %view[%362, %410], %409, %cst_23 : memref<16x199xf16, #gpu.address_space<workgroup>>, vector<4xi1>, vector<4xf16> into vector<4xf16>
        %412 = arith.addi %360, %cst_13 overflow<nsw, nuw> : vector<4xindex>
        %413 = arith.cmpi slt, %412, %cst_24 : vector<4xindex>
        %414 = arith.andi %413, %364 : vector<4xi1>
        %415 = affine.apply #map31()[%thread_id_x]
        %416 = vector.maskedload %view[%362, %415], %414, %cst_23 : memref<16x199xf16, #gpu.address_space<workgroup>>, vector<4xi1>, vector<4xf16> into vector<4xf16>
        %417 = arith.addi %360, %cst_12 overflow<nsw, nuw> : vector<4xindex>
        %418 = arith.cmpi slt, %417, %cst_24 : vector<4xindex>
        %419 = arith.andi %418, %364 : vector<4xi1>
        %420 = affine.apply #map32()[%thread_id_x]
        %421 = vector.maskedload %view[%362, %420], %419, %cst_23 : memref<16x199xf16, #gpu.address_space<workgroup>>, vector<4xi1>, vector<4xf16> into vector<4xf16>
        %422 = arith.addi %360, %cst_11 overflow<nsw, nuw> : vector<4xindex>
        %423 = arith.cmpi slt, %422, %cst_24 : vector<4xindex>
        %424 = arith.andi %423, %364 : vector<4xi1>
        %425 = affine.apply #map33()[%thread_id_x]
        %426 = vector.maskedload %view[%362, %425], %424, %cst_23 : memref<16x199xf16, #gpu.address_space<workgroup>>, vector<4xi1>, vector<4xf16> into vector<4xf16>
        %427 = arith.addi %360, %cst_10 overflow<nsw, nuw> : vector<4xindex>
        %428 = arith.cmpi slt, %427, %cst_24 : vector<4xindex>
        %429 = arith.andi %428, %364 : vector<4xi1>
        %430 = affine.apply #map34()[%thread_id_x]
        %431 = vector.maskedload %view[%362, %430], %429, %cst_23 : memref<16x199xf16, #gpu.address_space<workgroup>>, vector<4xi1>, vector<4xf16> into vector<4xf16>
        %432 = arith.addi %360, %cst_9 overflow<nsw, nuw> : vector<4xindex>
        %433 = arith.cmpi slt, %432, %cst_24 : vector<4xindex>
        %434 = arith.andi %433, %364 : vector<4xi1>
        %435 = affine.apply #map35()[%thread_id_x]
        %436 = vector.maskedload %view[%362, %435], %434, %cst_23 : memref<16x199xf16, #gpu.address_space<workgroup>>, vector<4xi1>, vector<4xf16> into vector<4xf16>
        %437 = arith.addi %360, %cst_8 overflow<nsw, nuw> : vector<4xindex>
        %438 = arith.cmpi slt, %437, %cst_24 : vector<4xindex>
        %439 = arith.andi %438, %364 : vector<4xi1>
        %440 = affine.apply #map36()[%thread_id_x]
        %441 = vector.maskedload %view[%362, %440], %439, %cst_23 : memref<16x199xf16, #gpu.address_space<workgroup>>, vector<4xi1>, vector<4xf16> into vector<4xf16>
        %442 = arith.addi %360, %cst_7 overflow<nsw, nuw> : vector<4xindex>
        %443 = arith.cmpi slt, %442, %cst_24 : vector<4xindex>
        %444 = arith.andi %443, %364 : vector<4xi1>
        %445 = affine.apply #map37()[%thread_id_x]
        %446 = vector.maskedload %view[%362, %445], %444, %cst_23 : memref<16x199xf16, #gpu.address_space<workgroup>>, vector<4xi1>, vector<4xf16> into vector<4xf16>
        %447 = arith.addi %360, %cst_6 overflow<nsw, nuw> : vector<4xindex>
        %448 = arith.cmpi slt, %447, %cst_24 : vector<4xindex>
        %449 = arith.andi %448, %364 : vector<4xi1>
        %450 = affine.apply #map38()[%thread_id_x]
        %451 = vector.maskedload %view[%362, %450], %449, %cst_23 : memref<16x199xf16, #gpu.address_space<workgroup>>, vector<4xi1>, vector<4xf16> into vector<4xf16>
        %452 = arith.addi %360, %cst_5 overflow<nsw, nuw> : vector<4xindex>
        %453 = arith.cmpi slt, %452, %cst_24 : vector<4xindex>
        %454 = arith.andi %453, %364 : vector<4xi1>
        %455 = affine.apply #map39()[%thread_id_x]
        %456 = vector.maskedload %view[%362, %455], %454, %cst_23 : memref<16x199xf16, #gpu.address_space<workgroup>>, vector<4xi1>, vector<4xf16> into vector<4xf16>
        %457 = arith.addi %360, %cst_4 overflow<nsw, nuw> : vector<4xindex>
        %458 = arith.cmpi slt, %457, %cst_24 : vector<4xindex>
        %459 = arith.andi %458, %364 : vector<4xi1>
        %460 = affine.apply #map40()[%thread_id_x]
        %461 = vector.maskedload %view[%362, %460], %459, %cst_23 : memref<16x199xf16, #gpu.address_space<workgroup>>, vector<4xi1>, vector<4xf16> into vector<4xf16>
        %462 = arith.addi %360, %cst_3 overflow<nsw, nuw> : vector<4xindex>
        %463 = arith.cmpi slt, %462, %cst_24 : vector<4xindex>
        %464 = arith.andi %463, %364 : vector<4xi1>
        %465 = affine.apply #map41()[%thread_id_x]
        %466 = vector.maskedload %view[%362, %465], %464, %cst_23 : memref<16x199xf16, #gpu.address_space<workgroup>>, vector<4xi1>, vector<4xf16> into vector<4xf16>
        %467 = arith.addi %360, %cst_2 overflow<nsw, nuw> : vector<4xindex>
        %468 = arith.cmpi slt, %467, %cst_24 : vector<4xindex>
        %469 = arith.andi %468, %364 : vector<4xi1>
        %470 = affine.apply #map42()[%thread_id_x]
        %471 = vector.maskedload %view[%362, %470], %469, %cst_23 : memref<16x199xf16, #gpu.address_space<workgroup>>, vector<4xi1>, vector<4xf16> into vector<4xf16>
        %472 = arith.addi %360, %cst_1 overflow<nsw, nuw> : vector<4xindex>
        %473 = arith.cmpi slt, %472, %cst_24 : vector<4xindex>
        %474 = arith.andi %473, %364 : vector<4xi1>
        %475 = affine.apply #map43()[%thread_id_x]
        %476 = vector.maskedload %view[%362, %475], %474, %cst_23 : memref<16x199xf16, #gpu.address_space<workgroup>>, vector<4xi1>, vector<4xf16> into vector<4xf16>
        %477 = arith.addi %360, %cst_0 overflow<nsw, nuw> : vector<4xindex>
        %478 = arith.cmpi slt, %477, %cst_24 : vector<4xindex>
        %479 = arith.andi %478, %364 : vector<4xi1>
        %480 = affine.apply #map44()[%thread_id_x]
        %481 = vector.maskedload %view[%362, %480], %479, %cst_23 : memref<16x199xf16, #gpu.address_space<workgroup>>, vector<4xi1>, vector<4xf16> into vector<4xf16>
        %482 = arith.addi %360, %cst overflow<nsw, nuw> : vector<4xindex>
        %483 = arith.cmpi slt, %482, %cst_24 : vector<4xindex>
        %484 = arith.andi %483, %364 : vector<4xi1>
        %485 = affine.apply #map45()[%thread_id_x]
        %486 = vector.maskedload %view[%362, %485], %484, %cst_23 : memref<16x199xf16, #gpu.address_space<workgroup>>, vector<4xi1>, vector<4xf16> into vector<4xf16>
        %487 = affine.apply #map46()[%thread_id_x]
        %488 = arith.cmpi slt, %487, %193 : index
        %489 = vector.broadcast %488 : i1 to vector<4xi1>
        %490 = arith.andi %361, %489 : vector<4xi1>
        %491 = vector.maskedload %view_37[%487, %358], %490, %cst_23 : memref<96x199xf16, #gpu.address_space<workgroup>>, vector<4xi1>, vector<4xf16> into vector<4xf16>
        %492 = arith.andi %368, %489 : vector<4xi1>
        %493 = vector.maskedload %view_37[%487, %370], %492, %cst_23 : memref<96x199xf16, #gpu.address_space<workgroup>>, vector<4xi1>, vector<4xf16> into vector<4xf16>
        %494 = arith.andi %373, %489 : vector<4xi1>
        %495 = vector.maskedload %view_37[%487, %375], %494, %cst_23 : memref<96x199xf16, #gpu.address_space<workgroup>>, vector<4xi1>, vector<4xf16> into vector<4xf16>
        %496 = arith.andi %378, %489 : vector<4xi1>
        %497 = vector.maskedload %view_37[%487, %380], %496, %cst_23 : memref<96x199xf16, #gpu.address_space<workgroup>>, vector<4xi1>, vector<4xf16> into vector<4xf16>
        %498 = arith.andi %383, %489 : vector<4xi1>
        %499 = vector.maskedload %view_37[%487, %385], %498, %cst_23 : memref<96x199xf16, #gpu.address_space<workgroup>>, vector<4xi1>, vector<4xf16> into vector<4xf16>
        %500 = arith.andi %388, %489 : vector<4xi1>
        %501 = vector.maskedload %view_37[%487, %390], %500, %cst_23 : memref<96x199xf16, #gpu.address_space<workgroup>>, vector<4xi1>, vector<4xf16> into vector<4xf16>
        %502 = arith.andi %393, %489 : vector<4xi1>
        %503 = vector.maskedload %view_37[%487, %395], %502, %cst_23 : memref<96x199xf16, #gpu.address_space<workgroup>>, vector<4xi1>, vector<4xf16> into vector<4xf16>
        %504 = arith.andi %398, %489 : vector<4xi1>
        %505 = vector.maskedload %view_37[%487, %400], %504, %cst_23 : memref<96x199xf16, #gpu.address_space<workgroup>>, vector<4xi1>, vector<4xf16> into vector<4xf16>
        %506 = arith.andi %403, %489 : vector<4xi1>
        %507 = vector.maskedload %view_37[%487, %405], %506, %cst_23 : memref<96x199xf16, #gpu.address_space<workgroup>>, vector<4xi1>, vector<4xf16> into vector<4xf16>
        %508 = arith.andi %408, %489 : vector<4xi1>
        %509 = vector.maskedload %view_37[%487, %410], %508, %cst_23 : memref<96x199xf16, #gpu.address_space<workgroup>>, vector<4xi1>, vector<4xf16> into vector<4xf16>
        %510 = arith.andi %413, %489 : vector<4xi1>
        %511 = vector.maskedload %view_37[%487, %415], %510, %cst_23 : memref<96x199xf16, #gpu.address_space<workgroup>>, vector<4xi1>, vector<4xf16> into vector<4xf16>
        %512 = arith.andi %418, %489 : vector<4xi1>
        %513 = vector.maskedload %view_37[%487, %420], %512, %cst_23 : memref<96x199xf16, #gpu.address_space<workgroup>>, vector<4xi1>, vector<4xf16> into vector<4xf16>
        %514 = arith.andi %423, %489 : vector<4xi1>
        %515 = vector.maskedload %view_37[%487, %425], %514, %cst_23 : memref<96x199xf16, #gpu.address_space<workgroup>>, vector<4xi1>, vector<4xf16> into vector<4xf16>
        %516 = arith.andi %428, %489 : vector<4xi1>
        %517 = vector.maskedload %view_37[%487, %430], %516, %cst_23 : memref<96x199xf16, #gpu.address_space<workgroup>>, vector<4xi1>, vector<4xf16> into vector<4xf16>
        %518 = arith.andi %433, %489 : vector<4xi1>
        %519 = vector.maskedload %view_37[%487, %435], %518, %cst_23 : memref<96x199xf16, #gpu.address_space<workgroup>>, vector<4xi1>, vector<4xf16> into vector<4xf16>
        %520 = arith.andi %438, %489 : vector<4xi1>
        %521 = vector.maskedload %view_37[%487, %440], %520, %cst_23 : memref<96x199xf16, #gpu.address_space<workgroup>>, vector<4xi1>, vector<4xf16> into vector<4xf16>
        %522 = arith.andi %443, %489 : vector<4xi1>
        %523 = vector.maskedload %view_37[%487, %445], %522, %cst_23 : memref<96x199xf16, #gpu.address_space<workgroup>>, vector<4xi1>, vector<4xf16> into vector<4xf16>
        %524 = arith.andi %448, %489 : vector<4xi1>
        %525 = vector.maskedload %view_37[%487, %450], %524, %cst_23 : memref<96x199xf16, #gpu.address_space<workgroup>>, vector<4xi1>, vector<4xf16> into vector<4xf16>
        %526 = arith.andi %453, %489 : vector<4xi1>
        %527 = vector.maskedload %view_37[%487, %455], %526, %cst_23 : memref<96x199xf16, #gpu.address_space<workgroup>>, vector<4xi1>, vector<4xf16> into vector<4xf16>
        %528 = arith.andi %458, %489 : vector<4xi1>
        %529 = vector.maskedload %view_37[%487, %460], %528, %cst_23 : memref<96x199xf16, #gpu.address_space<workgroup>>, vector<4xi1>, vector<4xf16> into vector<4xf16>
        %530 = arith.andi %463, %489 : vector<4xi1>
        %531 = vector.maskedload %view_37[%487, %465], %530, %cst_23 : memref<96x199xf16, #gpu.address_space<workgroup>>, vector<4xi1>, vector<4xf16> into vector<4xf16>
        %532 = arith.andi %468, %489 : vector<4xi1>
        %533 = vector.maskedload %view_37[%487, %470], %532, %cst_23 : memref<96x199xf16, #gpu.address_space<workgroup>>, vector<4xi1>, vector<4xf16> into vector<4xf16>
        %534 = arith.andi %473, %489 : vector<4xi1>
        %535 = vector.maskedload %view_37[%487, %475], %534, %cst_23 : memref<96x199xf16, #gpu.address_space<workgroup>>, vector<4xi1>, vector<4xf16> into vector<4xf16>
        %536 = arith.andi %478, %489 : vector<4xi1>
        %537 = vector.maskedload %view_37[%487, %480], %536, %cst_23 : memref<96x199xf16, #gpu.address_space<workgroup>>, vector<4xi1>, vector<4xf16> into vector<4xf16>
        %538 = arith.andi %483, %489 : vector<4xi1>
        %539 = vector.maskedload %view_37[%487, %485], %538, %cst_23 : memref<96x199xf16, #gpu.address_space<workgroup>>, vector<4xi1>, vector<4xf16> into vector<4xf16>
        %540 = amdgpu.mfma %491 * %366 + %357 {blocks = 1 : i32, k = 8 : i32, m = 32 : i32, n = 32 : i32} blgp =  none : vector<4xf16>, vector<4xf16>, vector<16xf32>
        %541 = amdgpu.mfma %493 * %371 + %540 {blocks = 1 : i32, k = 8 : i32, m = 32 : i32, n = 32 : i32} blgp =  none : vector<4xf16>, vector<4xf16>, vector<16xf32>
        %542 = amdgpu.mfma %495 * %376 + %541 {blocks = 1 : i32, k = 8 : i32, m = 32 : i32, n = 32 : i32} blgp =  none : vector<4xf16>, vector<4xf16>, vector<16xf32>
        %543 = amdgpu.mfma %497 * %381 + %542 {blocks = 1 : i32, k = 8 : i32, m = 32 : i32, n = 32 : i32} blgp =  none : vector<4xf16>, vector<4xf16>, vector<16xf32>
        %544 = amdgpu.mfma %499 * %386 + %543 {blocks = 1 : i32, k = 8 : i32, m = 32 : i32, n = 32 : i32} blgp =  none : vector<4xf16>, vector<4xf16>, vector<16xf32>
        %545 = amdgpu.mfma %501 * %391 + %544 {blocks = 1 : i32, k = 8 : i32, m = 32 : i32, n = 32 : i32} blgp =  none : vector<4xf16>, vector<4xf16>, vector<16xf32>
        %546 = amdgpu.mfma %503 * %396 + %545 {blocks = 1 : i32, k = 8 : i32, m = 32 : i32, n = 32 : i32} blgp =  none : vector<4xf16>, vector<4xf16>, vector<16xf32>
        %547 = amdgpu.mfma %505 * %401 + %546 {blocks = 1 : i32, k = 8 : i32, m = 32 : i32, n = 32 : i32} blgp =  none : vector<4xf16>, vector<4xf16>, vector<16xf32>
        %548 = amdgpu.mfma %507 * %406 + %547 {blocks = 1 : i32, k = 8 : i32, m = 32 : i32, n = 32 : i32} blgp =  none : vector<4xf16>, vector<4xf16>, vector<16xf32>
        %549 = amdgpu.mfma %509 * %411 + %548 {blocks = 1 : i32, k = 8 : i32, m = 32 : i32, n = 32 : i32} blgp =  none : vector<4xf16>, vector<4xf16>, vector<16xf32>
        %550 = amdgpu.mfma %511 * %416 + %549 {blocks = 1 : i32, k = 8 : i32, m = 32 : i32, n = 32 : i32} blgp =  none : vector<4xf16>, vector<4xf16>, vector<16xf32>
        %551 = amdgpu.mfma %513 * %421 + %550 {blocks = 1 : i32, k = 8 : i32, m = 32 : i32, n = 32 : i32} blgp =  none : vector<4xf16>, vector<4xf16>, vector<16xf32>
        %552 = amdgpu.mfma %515 * %426 + %551 {blocks = 1 : i32, k = 8 : i32, m = 32 : i32, n = 32 : i32} blgp =  none : vector<4xf16>, vector<4xf16>, vector<16xf32>
        %553 = amdgpu.mfma %517 * %431 + %552 {blocks = 1 : i32, k = 8 : i32, m = 32 : i32, n = 32 : i32} blgp =  none : vector<4xf16>, vector<4xf16>, vector<16xf32>
        %554 = amdgpu.mfma %519 * %436 + %553 {blocks = 1 : i32, k = 8 : i32, m = 32 : i32, n = 32 : i32} blgp =  none : vector<4xf16>, vector<4xf16>, vector<16xf32>
        %555 = amdgpu.mfma %521 * %441 + %554 {blocks = 1 : i32, k = 8 : i32, m = 32 : i32, n = 32 : i32} blgp =  none : vector<4xf16>, vector<4xf16>, vector<16xf32>
        %556 = amdgpu.mfma %523 * %446 + %555 {blocks = 1 : i32, k = 8 : i32, m = 32 : i32, n = 32 : i32} blgp =  none : vector<4xf16>, vector<4xf16>, vector<16xf32>
        %557 = amdgpu.mfma %525 * %451 + %556 {blocks = 1 : i32, k = 8 : i32, m = 32 : i32, n = 32 : i32} blgp =  none : vector<4xf16>, vector<4xf16>, vector<16xf32>
        %558 = amdgpu.mfma %527 * %456 + %557 {blocks = 1 : i32, k = 8 : i32, m = 32 : i32, n = 32 : i32} blgp =  none : vector<4xf16>, vector<4xf16>, vector<16xf32>
        %559 = amdgpu.mfma %529 * %461 + %558 {blocks = 1 : i32, k = 8 : i32, m = 32 : i32, n = 32 : i32} blgp =  none : vector<4xf16>, vector<4xf16>, vector<16xf32>
        %560 = amdgpu.mfma %531 * %466 + %559 {blocks = 1 : i32, k = 8 : i32, m = 32 : i32, n = 32 : i32} blgp =  none : vector<4xf16>, vector<4xf16>, vector<16xf32>
        %561 = amdgpu.mfma %533 * %471 + %560 {blocks = 1 : i32, k = 8 : i32, m = 32 : i32, n = 32 : i32} blgp =  none : vector<4xf16>, vector<4xf16>, vector<16xf32>
        %562 = amdgpu.mfma %535 * %476 + %561 {blocks = 1 : i32, k = 8 : i32, m = 32 : i32, n = 32 : i32} blgp =  none : vector<4xf16>, vector<4xf16>, vector<16xf32>
        %563 = amdgpu.mfma %537 * %481 + %562 {blocks = 1 : i32, k = 8 : i32, m = 32 : i32, n = 32 : i32} blgp =  none : vector<4xf16>, vector<4xf16>, vector<16xf32>
        %564 = amdgpu.mfma %539 * %486 + %563 {blocks = 1 : i32, k = 8 : i32, m = 32 : i32, n = 32 : i32} blgp =  none : vector<4xf16>, vector<4xf16>, vector<16xf32>
        %565 = vector.extract_strided_slice %564 {offsets = [0], sizes = [1], strides = [1]} : vector<16xf32> to vector<1xf32>
        %566 = stream.binding.subspan %arg2[%c0] : !stream.binding -> memref<641x4096xf32, strided<[4096, 1], offset: ?>>
        %567 = affine.apply #map59()[%block_id_y, %thread_id_y]
        %568 = affine.apply #map60()[%block_id_y]
        %569 = arith.minsi %567, %568 : index
        %570 = affine.apply #map61()[%thread_id_x, %block_id_y, %block_id_x, %thread_id_y]
        %571 = arith.cmpi slt, %570, %569 : index
        %572 = affine.apply #map62()[%block_id_x, %thread_id_x]
        %573 = arith.minsi %572, %c641 : index
        %574 = affine.apply #map63()[%block_id_y, %block_id_x, %thread_id_x]
        %575 = arith.cmpi slt, %574, %573 : index
        %576 = arith.andi %571, %575 : i1
        %577 = affine.apply #map64()[%block_id_y, %block_id_x]
        %578 = affine.apply #map65()[%block_id_y, %block_id_x]
        %579 = affine.apply #map66()[%thread_id_x]
        %580 = arith.muli %577, %c4096 overflow<nsw> : index
        %581 = arith.muli %579, %c4096 overflow<nsw> : index
        %582 = arith.addi %580, %578 overflow<nsw> : index
        %583 = arith.addi %581, %362 overflow<nsw> : index
        %base_buffer_43, %offset_44, %sizes_45:2, %strides_46:2 = memref.extract_strided_metadata %566 : memref<641x4096xf32, strided<[4096, 1], offset: ?>> -> memref<f32>, index, index, index, index, index
        %584 = arith.addi %582, %offset_44 overflow<nsw> : index
        %reinterpret_cast_47 = memref.reinterpret_cast %566 to offset: [%584], sizes: [%c536870910], strides: [1] : memref<641x4096xf32, strided<[4096, 1], offset: ?>> to memref<?xf32, strided<[1], offset: ?>>
        %585 = amdgpu.fat_raw_buffer_cast %reinterpret_cast_47 validBytes(%c2147483643_i32) cacheSwizzleStride(%c4096_i14) resetOffset : memref<?xf32, strided<[1], offset: ?>> to memref<?xf32, #amdgpu.address_space<fat_raw_buffer>>
        %586 = arith.select %576, %583, %c536870911 : index
        vector.store %565, %585[%586] : memref<?xf32, #amdgpu.address_space<fat_raw_buffer>>, vector<1xf32>
        %587 = vector.extract_strided_slice %564 {offsets = [1], sizes = [1], strides = [1]} : vector<16xf32> to vector<1xf32>
        %588 = affine.apply #map67()[%block_id_y, %block_id_x, %thread_id_x]
        %589 = arith.cmpi slt, %588, %573 : index
        %590 = arith.andi %571, %589 : i1
        %591 = affine.apply #map68()[%thread_id_x]
        %592 = arith.muli %591, %c4096 overflow<nsw> : index
        %593 = arith.addi %592, %362 overflow<nsw> : index
        %594 = arith.select %590, %593, %c536870911 : index
        vector.store %587, %585[%594] : memref<?xf32, #amdgpu.address_space<fat_raw_buffer>>, vector<1xf32>
        %595 = vector.extract_strided_slice %564 {offsets = [2], sizes = [1], strides = [1]} : vector<16xf32> to vector<1xf32>
        %596 = affine.apply #map69()[%block_id_y, %block_id_x, %thread_id_x]
        %597 = arith.cmpi slt, %596, %573 : index
        %598 = arith.andi %571, %597 : i1
        %599 = affine.apply #map70()[%thread_id_x]
        %600 = arith.muli %599, %c4096 overflow<nsw> : index
        %601 = arith.addi %600, %362 overflow<nsw> : index
        %602 = arith.select %598, %601, %c536870911 : index
        vector.store %595, %585[%602] : memref<?xf32, #amdgpu.address_space<fat_raw_buffer>>, vector<1xf32>
        %603 = vector.extract_strided_slice %564 {offsets = [3], sizes = [1], strides = [1]} : vector<16xf32> to vector<1xf32>
        %604 = affine.apply #map71()[%block_id_y, %block_id_x, %thread_id_x]
        %605 = arith.cmpi slt, %604, %573 : index
        %606 = arith.andi %571, %605 : i1
        %607 = affine.apply #map72()[%thread_id_x]
        %608 = arith.muli %607, %c4096 overflow<nsw> : index
        %609 = arith.addi %608, %362 overflow<nsw> : index
        %610 = arith.select %606, %609, %c536870911 : index
        vector.store %603, %585[%610] : memref<?xf32, #amdgpu.address_space<fat_raw_buffer>>, vector<1xf32>
        %611 = vector.extract_strided_slice %564 {offsets = [4], sizes = [1], strides = [1]} : vector<16xf32> to vector<1xf32>
        %612 = affine.apply #map73()[%block_id_y, %block_id_x, %thread_id_x]
        %613 = arith.cmpi slt, %612, %573 : index
        %614 = arith.andi %571, %613 : i1
        %615 = affine.apply #map74()[%thread_id_x]
        %616 = arith.muli %615, %c4096 overflow<nsw> : index
        %617 = arith.addi %616, %362 overflow<nsw> : index
        %618 = arith.select %614, %617, %c536870911 : index
        vector.store %611, %585[%618] : memref<?xf32, #amdgpu.address_space<fat_raw_buffer>>, vector<1xf32>
        %619 = vector.extract_strided_slice %564 {offsets = [5], sizes = [1], strides = [1]} : vector<16xf32> to vector<1xf32>
        %620 = affine.apply #map75()[%block_id_y, %block_id_x, %thread_id_x]
        %621 = arith.cmpi slt, %620, %573 : index
        %622 = arith.andi %571, %621 : i1
        %623 = affine.apply #map76()[%thread_id_x]
        %624 = arith.muli %623, %c4096 overflow<nsw> : index
        %625 = arith.addi %624, %362 overflow<nsw> : index
        %626 = arith.select %622, %625, %c536870911 : index
        vector.store %619, %585[%626] : memref<?xf32, #amdgpu.address_space<fat_raw_buffer>>, vector<1xf32>
        %627 = vector.extract_strided_slice %564 {offsets = [6], sizes = [1], strides = [1]} : vector<16xf32> to vector<1xf32>
        %628 = affine.apply #map77()[%block_id_y, %block_id_x, %thread_id_x]
        %629 = arith.cmpi slt, %628, %573 : index
        %630 = arith.andi %571, %629 : i1
        %631 = affine.apply #map78()[%thread_id_x]
        %632 = arith.muli %631, %c4096 overflow<nsw> : index
        %633 = arith.addi %632, %362 overflow<nsw> : index
        %634 = arith.select %630, %633, %c536870911 : index
        vector.store %627, %585[%634] : memref<?xf32, #amdgpu.address_space<fat_raw_buffer>>, vector<1xf32>
        %635 = vector.extract_strided_slice %564 {offsets = [7], sizes = [1], strides = [1]} : vector<16xf32> to vector<1xf32>
        %636 = affine.apply #map79()[%block_id_y, %block_id_x, %thread_id_x]
        %637 = arith.cmpi slt, %636, %573 : index
        %638 = arith.andi %571, %637 : i1
        %639 = affine.apply #map80()[%thread_id_x]
        %640 = arith.muli %639, %c4096 overflow<nsw> : index
        %641 = arith.addi %640, %362 overflow<nsw> : index
        %642 = arith.select %638, %641, %c536870911 : index
        vector.store %635, %585[%642] : memref<?xf32, #amdgpu.address_space<fat_raw_buffer>>, vector<1xf32>
        %643 = vector.extract_strided_slice %564 {offsets = [8], sizes = [1], strides = [1]} : vector<16xf32> to vector<1xf32>
        %644 = affine.apply #map81()[%block_id_y, %block_id_x, %thread_id_x]
        %645 = arith.cmpi slt, %644, %573 : index
        %646 = arith.andi %571, %645 : i1
        %647 = affine.apply #map82()[%thread_id_x]
        %648 = arith.muli %647, %c4096 overflow<nsw> : index
        %649 = arith.addi %648, %362 overflow<nsw> : index
        %650 = arith.select %646, %649, %c536870911 : index
        vector.store %643, %585[%650] : memref<?xf32, #amdgpu.address_space<fat_raw_buffer>>, vector<1xf32>
        %651 = vector.extract_strided_slice %564 {offsets = [9], sizes = [1], strides = [1]} : vector<16xf32> to vector<1xf32>
        %652 = affine.apply #map83()[%block_id_y, %block_id_x, %thread_id_x]
        %653 = arith.cmpi slt, %652, %573 : index
        %654 = arith.andi %571, %653 : i1
        %655 = affine.apply #map84()[%thread_id_x]
        %656 = arith.muli %655, %c4096 overflow<nsw> : index
        %657 = arith.addi %656, %362 overflow<nsw> : index
        %658 = arith.select %654, %657, %c536870911 : index
        vector.store %651, %585[%658] : memref<?xf32, #amdgpu.address_space<fat_raw_buffer>>, vector<1xf32>
        %659 = vector.extract_strided_slice %564 {offsets = [10], sizes = [1], strides = [1]} : vector<16xf32> to vector<1xf32>
        %660 = affine.apply #map85()[%block_id_y, %block_id_x, %thread_id_x]
        %661 = arith.cmpi slt, %660, %573 : index
        %662 = arith.andi %571, %661 : i1
        %663 = affine.apply #map86()[%thread_id_x]
        %664 = arith.muli %663, %c4096 overflow<nsw> : index
        %665 = arith.addi %664, %362 overflow<nsw> : index
        %666 = arith.select %662, %665, %c536870911 : index
        vector.store %659, %585[%666] : memref<?xf32, #amdgpu.address_space<fat_raw_buffer>>, vector<1xf32>
        %667 = vector.extract_strided_slice %564 {offsets = [11], sizes = [1], strides = [1]} : vector<16xf32> to vector<1xf32>
        %668 = affine.apply #map87()[%block_id_y, %block_id_x, %thread_id_x]
        %669 = arith.cmpi slt, %668, %573 : index
        %670 = arith.andi %571, %669 : i1
        %671 = affine.apply #map88()[%thread_id_x]
        %672 = arith.muli %671, %c4096 overflow<nsw> : index
        %673 = arith.addi %672, %362 overflow<nsw> : index
        %674 = arith.select %670, %673, %c536870911 : index
        vector.store %667, %585[%674] : memref<?xf32, #amdgpu.address_space<fat_raw_buffer>>, vector<1xf32>
        %675 = vector.extract_strided_slice %564 {offsets = [12], sizes = [1], strides = [1]} : vector<16xf32> to vector<1xf32>
        %676 = affine.apply #map89()[%block_id_y, %block_id_x, %thread_id_x]
        %677 = arith.cmpi slt, %676, %573 : index
        %678 = arith.andi %571, %677 : i1
        %679 = affine.apply #map90()[%thread_id_x]
        %680 = arith.muli %679, %c4096 overflow<nsw> : index
        %681 = arith.addi %680, %362 overflow<nsw> : index
        %682 = arith.select %678, %681, %c536870911 : index
        vector.store %675, %585[%682] : memref<?xf32, #amdgpu.address_space<fat_raw_buffer>>, vector<1xf32>
        %683 = vector.extract_strided_slice %564 {offsets = [13], sizes = [1], strides = [1]} : vector<16xf32> to vector<1xf32>
        %684 = affine.apply #map91()[%block_id_y, %block_id_x, %thread_id_x]
        %685 = arith.cmpi slt, %684, %573 : index
        %686 = arith.andi %571, %685 : i1
        %687 = affine.apply #map92()[%thread_id_x]
        %688 = arith.muli %687, %c4096 overflow<nsw> : index
        %689 = arith.addi %688, %362 overflow<nsw> : index
        %690 = arith.select %686, %689, %c536870911 : index
        vector.store %683, %585[%690] : memref<?xf32, #amdgpu.address_space<fat_raw_buffer>>, vector<1xf32>
        %691 = vector.extract_strided_slice %564 {offsets = [14], sizes = [1], strides = [1]} : vector<16xf32> to vector<1xf32>
        %692 = affine.apply #map93()[%block_id_y, %block_id_x, %thread_id_x]
        %693 = arith.cmpi slt, %692, %573 : index
        %694 = arith.andi %571, %693 : i1
        %695 = affine.apply #map94()[%thread_id_x]
        %696 = arith.muli %695, %c4096 overflow<nsw> : index
        %697 = arith.addi %696, %362 overflow<nsw> : index
        %698 = arith.select %694, %697, %c536870911 : index
        vector.store %691, %585[%698] : memref<?xf32, #amdgpu.address_space<fat_raw_buffer>>, vector<1xf32>
        %699 = vector.extract_strided_slice %564 {offsets = [15], sizes = [1], strides = [1]} : vector<16xf32> to vector<1xf32>
        %700 = affine.apply #map95()[%block_id_y, %block_id_x, %thread_id_x]
        %701 = arith.cmpi slt, %700, %573 : index
        %702 = arith.andi %571, %701 : i1
        %703 = affine.apply #map96()[%thread_id_x]
        %704 = arith.muli %703, %c4096 overflow<nsw> : index
        %705 = arith.addi %704, %362 overflow<nsw> : index
        %706 = arith.select %702, %705, %c536870911 : index
        vector.store %699, %585[%706] : memref<?xf32, #amdgpu.address_space<fat_raw_buffer>>, vector<1xf32>
        return
      }
    }
  }
  func.func @isolated_benchmark(%arg0: tensor<641x2880xf16>, %arg1: tensor<4096x2880xf16>, %arg2: tensor<641x4096xf32>) -> tensor<641x4096xf32> {
    %0 = flow.dispatch @gemm::@gemm(%arg0, %arg1, %arg2) : (tensor<641x2880xf16>, tensor<4096x2880xf16>, tensor<641x4096xf32>) -> %arg2
    return %0 : tensor<641x4096xf32>
  }
}
