#map = affine_map<()[s0, s1] -> ((s0 * 2048 + s1 * 8) mod 195)>
#map1 = affine_map<()[s0, s1] -> (((s0 * 1568 + s1 * 224 - ((s0 * 7 + s1) floordiv 8) * 1791) floordiv 768) * -3 + 7)>
#map2 = affine_map<()[s0, s1, s2, s3, s4] -> (((s0 * 2048 + s1 * 8) floordiv 195) mod 96 + ((s2 * 1568 + s3 * 224 - ((s2 * 7 + s3) floordiv 8) * 1791) floordiv 768) * 288 + (((s2 * 1568 + s3 * 224 - ((s2 * 7 + s3) floordiv 8) * 1791) mod 768) mod s4) * 96)>
#map3 = affine_map<()[s0, s1] -> (s0 * 2048 + s1 * 8 - ((s0 * 2048 + s1 * 8 + 1) floordiv 195) * 195 + 1)>
#map4 = affine_map<()[s0, s1, s2, s3, s4] -> (((s0 * 2048 + s1 * 8 + 4096) floordiv 195) mod 96 + ((s2 * 1568 + s3 * 224 - ((s2 * 7 + s3) floordiv 8) * 1791) floordiv 768) * 288 + (((s2 * 1568 + s3 * 224 - ((s2 * 7 + s3) floordiv 8) * 1791) mod 768) mod s4) * 96)>
#map5 = affine_map<()[s0, s1] -> (s0 * 2048 + s1 * 8 - ((s0 * 2048 + s1 * 8 + 2) floordiv 195) * 195 + 2)>
#map6 = affine_map<()[s0, s1, s2, s3, s4] -> (((s0 * 2048 + s1 * 8 + 8192) floordiv 195) mod 96 + ((s2 * 1568 + s3 * 224 - ((s2 * 7 + s3) floordiv 8) * 1791) floordiv 768) * 288 + (((s2 * 1568 + s3 * 224 - ((s2 * 7 + s3) floordiv 8) * 1791) mod 768) mod s4) * 96)>
#map7 = affine_map<()[s0, s1] -> (s0 * 2048 + s1 * 8 - ((s0 * 2048 + s1 * 8 + 3) floordiv 195) * 195 + 3)>
#map8 = affine_map<()[s0, s1, s2, s3, s4] -> (((s0 * 2048 + s1 * 8 + 12288) floordiv 195) mod 96 + ((s2 * 1568 + s3 * 224 - ((s2 * 7 + s3) floordiv 8) * 1791) floordiv 768) * 288 + (((s2 * 1568 + s3 * 224 - ((s2 * 7 + s3) floordiv 8) * 1791) mod 768) mod s4) * 96)>
#map9 = affine_map<()[s0, s1] -> (s0 * 2048 + s1 * 8 - ((s0 * 2048 + s1 * 8 + 4) floordiv 195) * 195 + 4)>
#map10 = affine_map<()[s0, s1, s2, s3, s4] -> (((s0 * 2048 + s1 * 8 + 16384) floordiv 195) mod 96 + ((s2 * 1568 + s3 * 224 - ((s2 * 7 + s3) floordiv 8) * 1791) floordiv 768) * 288 + (((s2 * 1568 + s3 * 224 - ((s2 * 7 + s3) floordiv 8) * 1791) mod 768) mod s4) * 96)>
#map11 = affine_map<()[s0, s1] -> ((s0 * 1792 + s1 * 7) mod 195)>
#map12 = affine_map<()[s0, s1, s2, s3, s4] -> (((s0 * 1792 + s1 * 7) floordiv 195) mod 16 + (((s2 * 1568 + s3 * 224 - ((s2 * 7 + s3) floordiv 8) * 1791) mod 768) floordiv s4) * 16)>
#map13 = affine_map<()[s0] -> ((s0 floordiv 64) * 24 + 24)>
#map14 = affine_map<()[s0, s1] -> (((s0 * 2048 + s1 * 8) floordiv 195) mod 96)>
#map15 = affine_map<()[s0, s1] -> (((s0 * 2048 + s1 * 8 + 4096) floordiv 195) mod 96)>
#map16 = affine_map<()[s0, s1] -> (((s0 * 2048 + s1 * 8 + 8192) floordiv 195) mod 96)>
#map17 = affine_map<()[s0, s1] -> (((s0 * 2048 + s1 * 8 + 12288) floordiv 195) mod 96)>
#map18 = affine_map<()[s0, s1] -> (((s0 * 2048 + s1 * 8 + 16384) floordiv 195) mod 96)>
#map19 = affine_map<()[s0] -> (s0 * 8 + 8)>
#map20 = affine_map<()[s0, s1] -> (((s0 * 1792 + s1 * 7) floordiv 195) mod 16)>
#map21 = affine_map<()[s0] -> (((s0 mod 64) floordiv 32) * 4)>
#map22 = affine_map<()[s0, s1] -> (s0 + s1 * 8 - (s0 floordiv 32) * 32)>
#map23 = affine_map<()[s0] -> (((s0 mod 64) floordiv 32) * 4 + 8)>
#map24 = affine_map<()[s0] -> (((s0 mod 64) floordiv 32) * 4 + 16)>
#map25 = affine_map<()[s0] -> (((s0 mod 64) floordiv 32) * 4 + 24)>
#map26 = affine_map<()[s0] -> (((s0 mod 64) floordiv 32) * 4 + 32)>
#map27 = affine_map<()[s0] -> (((s0 mod 64) floordiv 32) * 4 + 40)>
#map28 = affine_map<()[s0] -> (((s0 mod 64) floordiv 32) * 4 + 48)>
#map29 = affine_map<()[s0] -> (((s0 mod 64) floordiv 32) * 4 + 56)>
#map30 = affine_map<()[s0] -> (((s0 mod 64) floordiv 32) * 4 + 64)>
#map31 = affine_map<()[s0] -> (((s0 mod 64) floordiv 32) * 4 + 72)>
#map32 = affine_map<()[s0] -> (((s0 mod 64) floordiv 32) * 4 + 80)>
#map33 = affine_map<()[s0] -> (((s0 mod 64) floordiv 32) * 4 + 88)>
#map34 = affine_map<()[s0] -> (((s0 mod 64) floordiv 32) * 4 + 96)>
#map35 = affine_map<()[s0] -> (((s0 mod 64) floordiv 32) * 4 + 104)>
#map36 = affine_map<()[s0] -> (((s0 mod 64) floordiv 32) * 4 + 112)>
#map37 = affine_map<()[s0] -> (((s0 mod 64) floordiv 32) * 4 + 120)>
#map38 = affine_map<()[s0] -> (((s0 mod 64) floordiv 32) * 4 + 128)>
#map39 = affine_map<()[s0] -> (((s0 mod 64) floordiv 32) * 4 + 136)>
#map40 = affine_map<()[s0] -> (((s0 mod 64) floordiv 32) * 4 + 144)>
#map41 = affine_map<()[s0] -> (((s0 mod 64) floordiv 32) * 4 + 152)>
#map42 = affine_map<()[s0] -> (((s0 mod 64) floordiv 32) * 4 + 160)>
#map43 = affine_map<()[s0] -> (((s0 mod 64) floordiv 32) * 4 + 168)>
#map44 = affine_map<()[s0] -> (((s0 mod 64) floordiv 32) * 4 + 176)>
#map45 = affine_map<()[s0] -> (((s0 mod 64) floordiv 32) * 4 + 184)>
#map46 = affine_map<()[s0] -> (((s0 mod 64) floordiv 32) * 4 + 192)>
#map47 = affine_map<()[s0] -> (s0 mod 32 + (s0 floordiv 64) * 24)>
#map48 = affine_map<()[s0, s1, s2] -> (s0 * 2048 + s1 * 8 + s2 * 195 - ((s0 * 2048 + s1 * 8) floordiv 195) * 195)>
#map49 = affine_map<()[s0, s1, s2] -> (s0 * 2048 + s1 * 8 + s2 * 195 - ((s0 * 2048 + s1 * 8) floordiv 195) * 195 + 195)>
#map50 = affine_map<()[s0, s1, s2] -> (s0 * 2048 + s1 * 8 + s2 * 195 - ((s0 * 2048 + s1 * 8 + 1) floordiv 195) * 195 + 1)>
#map51 = affine_map<()[s0, s1, s2] -> (s0 * 2048 + s1 * 8 + s2 * 195 - ((s0 * 2048 + s1 * 8 + 1) floordiv 195) * 195 + 196)>
#map52 = affine_map<()[s0, s1, s2] -> (s0 * 2048 + s1 * 8 + s2 * 195 - ((s0 * 2048 + s1 * 8 + 2) floordiv 195) * 195 + 2)>
#map53 = affine_map<()[s0, s1, s2] -> (s0 * 2048 + s1 * 8 + s2 * 195 - ((s0 * 2048 + s1 * 8 + 2) floordiv 195) * 195 + 197)>
#map54 = affine_map<()[s0, s1, s2] -> (s0 * 2048 + s1 * 8 + s2 * 195 - ((s0 * 2048 + s1 * 8 + 3) floordiv 195) * 195 + 3)>
#map55 = affine_map<()[s0, s1, s2] -> (s0 * 2048 + s1 * 8 + s2 * 195 - ((s0 * 2048 + s1 * 8 + 3) floordiv 195) * 195 + 198)>
#map56 = affine_map<()[s0, s1, s2] -> (s0 * 2048 + s1 * 8 + s2 * 195 - ((s0 * 2048 + s1 * 8 + 4) floordiv 195) * 195 + 4)>
#map57 = affine_map<()[s0, s1, s2] -> (s0 * 2048 + s1 * 8 + s2 * 195 - ((s0 * 2048 + s1 * 8 + 4) floordiv 195) * 195 + 199)>
#map58 = affine_map<()[s0, s1, s2] -> (s0 * 1792 + s1 * 7 + s2 * 195 - ((s0 * 1792 + s1 * 7) floordiv 195) * 195)>
#map59 = affine_map<()[s0, s1, s2] -> (s0 * 1792 + s1 * 7 + s2 * 195 - ((s0 * 1792 + s1 * 7) floordiv 195) * 195 + 195)>
#map60 = affine_map<()[s0, s1] -> (s0 * 16 + s1 * 8 + 8)>
#map61 = affine_map<()[s0] -> (s0 * 16 + 16)>
#map62 = affine_map<()[s0, s1, s2, s3, s4] -> (s0 mod 32 + s4 * 8 + (((s1 * 1568 + s2 * 224 - ((s1 * 7 + s2) floordiv 8) * 1791) mod 768) floordiv s3) * 16)>
#map63 = affine_map<()[s0, s1] -> (s0 * 96 + (s1 floordiv 64) * 24 + 24)>
#map64 = affine_map<()[s0, s1, s2, s3] -> ((s3 floordiv 64) * 24 + ((s0 * 1568 + s1 * 224 - ((s0 * 7 + s1) floordiv 8) * 1791) floordiv 768) * 288 + (((s0 * 1568 + s1 * 224 - ((s0 * 7 + s1) floordiv 8) * 1791) mod 768) mod s2) * 96 + ((s3 mod 64) floordiv 32) * 4)>
#map65 = affine_map<()[s0, s1, s2] -> (((s0 * 1568 + s1 * 224 - ((s0 * 7 + s1) floordiv 8) * 1791) floordiv 768) * 288 + (((s0 * 1568 + s1 * 224 - ((s0 * 7 + s1) floordiv 8) * 1791) mod 768) mod s2) * 96)>
#map66 = affine_map<()[s0, s1, s2] -> ((((s0 * 1568 + s1 * 224 - ((s0 * 7 + s1) floordiv 8) * 1791) mod 768) floordiv s2) * 16)>
#map67 = affine_map<()[s0] -> ((s0 floordiv 64) * 24 + ((s0 mod 64) floordiv 32) * 4)>
#map68 = affine_map<()[s0, s1, s2, s3] -> ((s3 floordiv 64) * 24 + ((s0 * 1568 + s1 * 224 - ((s0 * 7 + s1) floordiv 8) * 1791) floordiv 768) * 288 + (((s0 * 1568 + s1 * 224 - ((s0 * 7 + s1) floordiv 8) * 1791) mod 768) mod s2) * 96 + ((s3 mod 64) floordiv 32) * 4 + 1)>
#map69 = affine_map<()[s0] -> ((s0 floordiv 64) * 24 + ((s0 mod 64) floordiv 32) * 4 + 1)>
#map70 = affine_map<()[s0, s1, s2, s3] -> ((s3 floordiv 64) * 24 + ((s0 * 1568 + s1 * 224 - ((s0 * 7 + s1) floordiv 8) * 1791) floordiv 768) * 288 + (((s0 * 1568 + s1 * 224 - ((s0 * 7 + s1) floordiv 8) * 1791) mod 768) mod s2) * 96 + ((s3 mod 64) floordiv 32) * 4 + 2)>
#map71 = affine_map<()[s0] -> ((s0 floordiv 64) * 24 + ((s0 mod 64) floordiv 32) * 4 + 2)>
#map72 = affine_map<()[s0, s1, s2, s3] -> ((s3 floordiv 64) * 24 + ((s0 * 1568 + s1 * 224 - ((s0 * 7 + s1) floordiv 8) * 1791) floordiv 768) * 288 + (((s0 * 1568 + s1 * 224 - ((s0 * 7 + s1) floordiv 8) * 1791) mod 768) mod s2) * 96 + ((s3 mod 64) floordiv 32) * 4 + 3)>
#map73 = affine_map<()[s0] -> ((s0 floordiv 64) * 24 + ((s0 mod 64) floordiv 32) * 4 + 3)>
#map74 = affine_map<()[s0, s1, s2, s3] -> ((s3 floordiv 64) * 24 + ((s0 * 1568 + s1 * 224 - ((s0 * 7 + s1) floordiv 8) * 1791) floordiv 768) * 288 + (((s0 * 1568 + s1 * 224 - ((s0 * 7 + s1) floordiv 8) * 1791) mod 768) mod s2) * 96 + ((s3 mod 64) floordiv 32) * 4 + 8)>
#map75 = affine_map<()[s0] -> ((s0 floordiv 64) * 24 + ((s0 mod 64) floordiv 32) * 4 + 8)>
#map76 = affine_map<()[s0, s1, s2, s3] -> ((s3 floordiv 64) * 24 + ((s0 * 1568 + s1 * 224 - ((s0 * 7 + s1) floordiv 8) * 1791) floordiv 768) * 288 + (((s0 * 1568 + s1 * 224 - ((s0 * 7 + s1) floordiv 8) * 1791) mod 768) mod s2) * 96 + ((s3 mod 64) floordiv 32) * 4 + 9)>
#map77 = affine_map<()[s0] -> ((s0 floordiv 64) * 24 + ((s0 mod 64) floordiv 32) * 4 + 9)>
#map78 = affine_map<()[s0, s1, s2, s3] -> ((s3 floordiv 64) * 24 + ((s0 * 1568 + s1 * 224 - ((s0 * 7 + s1) floordiv 8) * 1791) floordiv 768) * 288 + (((s0 * 1568 + s1 * 224 - ((s0 * 7 + s1) floordiv 8) * 1791) mod 768) mod s2) * 96 + ((s3 mod 64) floordiv 32) * 4 + 10)>
#map79 = affine_map<()[s0] -> ((s0 floordiv 64) * 24 + ((s0 mod 64) floordiv 32) * 4 + 10)>
#map80 = affine_map<()[s0, s1, s2, s3] -> ((s3 floordiv 64) * 24 + ((s0 * 1568 + s1 * 224 - ((s0 * 7 + s1) floordiv 8) * 1791) floordiv 768) * 288 + (((s0 * 1568 + s1 * 224 - ((s0 * 7 + s1) floordiv 8) * 1791) mod 768) mod s2) * 96 + ((s3 mod 64) floordiv 32) * 4 + 11)>
#map81 = affine_map<()[s0] -> ((s0 floordiv 64) * 24 + ((s0 mod 64) floordiv 32) * 4 + 11)>
#map82 = affine_map<()[s0, s1, s2, s3] -> ((s3 floordiv 64) * 24 + ((s0 * 1568 + s1 * 224 - ((s0 * 7 + s1) floordiv 8) * 1791) floordiv 768) * 288 + (((s0 * 1568 + s1 * 224 - ((s0 * 7 + s1) floordiv 8) * 1791) mod 768) mod s2) * 96 + ((s3 mod 64) floordiv 32) * 4 + 16)>
#map83 = affine_map<()[s0] -> ((s0 floordiv 64) * 24 + ((s0 mod 64) floordiv 32) * 4 + 16)>
#map84 = affine_map<()[s0, s1, s2, s3] -> ((s3 floordiv 64) * 24 + ((s0 * 1568 + s1 * 224 - ((s0 * 7 + s1) floordiv 8) * 1791) floordiv 768) * 288 + (((s0 * 1568 + s1 * 224 - ((s0 * 7 + s1) floordiv 8) * 1791) mod 768) mod s2) * 96 + ((s3 mod 64) floordiv 32) * 4 + 17)>
#map85 = affine_map<()[s0] -> ((s0 floordiv 64) * 24 + ((s0 mod 64) floordiv 32) * 4 + 17)>
#map86 = affine_map<()[s0, s1, s2, s3] -> ((s3 floordiv 64) * 24 + ((s0 * 1568 + s1 * 224 - ((s0 * 7 + s1) floordiv 8) * 1791) floordiv 768) * 288 + (((s0 * 1568 + s1 * 224 - ((s0 * 7 + s1) floordiv 8) * 1791) mod 768) mod s2) * 96 + ((s3 mod 64) floordiv 32) * 4 + 18)>
#map87 = affine_map<()[s0] -> ((s0 floordiv 64) * 24 + ((s0 mod 64) floordiv 32) * 4 + 18)>
#map88 = affine_map<()[s0, s1, s2, s3] -> ((s3 floordiv 64) * 24 + ((s0 * 1568 + s1 * 224 - ((s0 * 7 + s1) floordiv 8) * 1791) floordiv 768) * 288 + (((s0 * 1568 + s1 * 224 - ((s0 * 7 + s1) floordiv 8) * 1791) mod 768) mod s2) * 96 + ((s3 mod 64) floordiv 32) * 4 + 19)>
#map89 = affine_map<()[s0] -> ((s0 floordiv 64) * 24 + ((s0 mod 64) floordiv 32) * 4 + 19)>
#map90 = affine_map<()[s0, s1, s2, s3] -> ((s3 floordiv 64) * 24 + ((s0 * 1568 + s1 * 224 - ((s0 * 7 + s1) floordiv 8) * 1791) floordiv 768) * 288 + (((s0 * 1568 + s1 * 224 - ((s0 * 7 + s1) floordiv 8) * 1791) mod 768) mod s2) * 96 + ((s3 mod 64) floordiv 32) * 4 + 24)>
#map91 = affine_map<()[s0] -> ((s0 floordiv 64) * 24 + ((s0 mod 64) floordiv 32) * 4 + 24)>
#map92 = affine_map<()[s0, s1, s2, s3] -> ((s3 floordiv 64) * 24 + ((s0 * 1568 + s1 * 224 - ((s0 * 7 + s1) floordiv 8) * 1791) floordiv 768) * 288 + (((s0 * 1568 + s1 * 224 - ((s0 * 7 + s1) floordiv 8) * 1791) mod 768) mod s2) * 96 + ((s3 mod 64) floordiv 32) * 4 + 25)>
#map93 = affine_map<()[s0] -> ((s0 floordiv 64) * 24 + ((s0 mod 64) floordiv 32) * 4 + 25)>
#map94 = affine_map<()[s0, s1, s2, s3] -> ((s3 floordiv 64) * 24 + ((s0 * 1568 + s1 * 224 - ((s0 * 7 + s1) floordiv 8) * 1791) floordiv 768) * 288 + (((s0 * 1568 + s1 * 224 - ((s0 * 7 + s1) floordiv 8) * 1791) mod 768) mod s2) * 96 + ((s3 mod 64) floordiv 32) * 4 + 26)>
#map95 = affine_map<()[s0] -> ((s0 floordiv 64) * 24 + ((s0 mod 64) floordiv 32) * 4 + 26)>
#map96 = affine_map<()[s0, s1, s2, s3] -> ((s3 floordiv 64) * 24 + ((s0 * 1568 + s1 * 224 - ((s0 * 7 + s1) floordiv 8) * 1791) floordiv 768) * 288 + (((s0 * 1568 + s1 * 224 - ((s0 * 7 + s1) floordiv 8) * 1791) mod 768) mod s2) * 96 + ((s3 mod 64) floordiv 32) * 4 + 27)>
#map97 = affine_map<()[s0] -> ((s0 floordiv 64) * 24 + ((s0 mod 64) floordiv 32) * 4 + 27)>
#translation = #iree_codegen.translation_info<pipeline = None workgroup_size = [256, 2, 1] subgroup_size = 64>
module attributes {transform.with_named_sequence} {
  stream.executable private @gemm {
    stream.executable.export public @gemm workgroups() -> (index, index, index) {
      %c7 = arith.constant 7 : index
      %c256 = arith.constant 256 : index
      %c1 = arith.constant 1 : index
      stream.return %c7, %c256, %c1 : index, index, index
    }
    builtin.module {
      func.func @gemm(%arg0: !stream.binding, %arg1: !stream.binding, %arg2: !stream.binding) attributes {translation_info = #translation} {
        %c4096_i14 = arith.constant 4096 : i14
        %cst = arith.constant dense<192> : vector<4xindex>
        %cst_0 = arith.constant dense<184> : vector<4xindex>
        %cst_1 = arith.constant dense<176> : vector<4xindex>
        %cst_2 = arith.constant dense<168> : vector<4xindex>
        %cst_3 = arith.constant dense<160> : vector<4xindex>
        %cst_4 = arith.constant dense<152> : vector<4xindex>
        %cst_5 = arith.constant dense<144> : vector<4xindex>
        %cst_6 = arith.constant dense<136> : vector<4xindex>
        %cst_7 = arith.constant dense<128> : vector<4xindex>
        %cst_8 = arith.constant dense<120> : vector<4xindex>
        %cst_9 = arith.constant dense<112> : vector<4xindex>
        %cst_10 = arith.constant dense<104> : vector<4xindex>
        %cst_11 = arith.constant dense<96> : vector<4xindex>
        %cst_12 = arith.constant dense<88> : vector<4xindex>
        %cst_13 = arith.constant dense<80> : vector<4xindex>
        %cst_14 = arith.constant dense<72> : vector<4xindex>
        %cst_15 = arith.constant dense<64> : vector<4xindex>
        %cst_16 = arith.constant dense<56> : vector<4xindex>
        %cst_17 = arith.constant dense<48> : vector<4xindex>
        %cst_18 = arith.constant dense<40> : vector<4xindex>
        %cst_19 = arith.constant dense<32> : vector<4xindex>
        %cst_20 = arith.constant dense<24> : vector<4xindex>
        %cst_21 = arith.constant dense<16> : vector<4xindex>
        %cst_22 = arith.constant dense<8> : vector<4xindex>
        %cst_23 = arith.constant dense<0.000000e+00> : vector<4xf16>
        %cst_24 = arith.constant dense<195> : vector<4xindex>
        %cst_25 = arith.constant dense<195> : vector<7xindex>
        %cst_26 = arith.constant dense<195> : vector<8xindex>
        %cst_27 = arith.constant dense<[0, 1, 2, 3, 4, 5, 6]> : vector<7xi32>
        %cst_28 = arith.constant dense<1073741823> : vector<7xindex>
        %cst_29 = arith.constant dense<2880> : vector<7xindex>
        %cst_30 = arith.constant dense<[0, 1, 2, 3, 4, 5, 6, 7]> : vector<8xi32>
        %cst_31 = arith.constant dense<1073741823> : vector<8xindex>
        %c2880_i14 = arith.constant 2880 : i14
        %cst_32 = arith.constant dense<2880> : vector<8xindex>
        %c536870911 = arith.constant 536870911 : index
        %c2147483643_i32 = arith.constant 2147483643 : i32
        %c536870910 = arith.constant 536870910 : index
        %cst_33 = arith.constant dense<[0, 1, 2, 3]> : vector<4xindex>
        %c14 = arith.constant 14 : index
        %c16 = arith.constant 16 : index
        %cst_34 = arith.constant dense<[0, 1, 2, 3, 4, 5, 6]> : vector<7xindex>
        %c4096 = arith.constant 4096 : index
        %c2147483645_i32 = arith.constant 2147483645 : i32
        %c1073741822 = arith.constant 1073741822 : index
        %c641 = arith.constant 641 : index
        %c3 = arith.constant 3 : index
        %c1 = arith.constant 1 : index
        %c96 = arith.constant 96 : index
        %c2880 = arith.constant 2880 : index
        %cst_35 = arith.constant dense<[0, 1, 2, 3, 4, 5, 6, 7]> : vector<8xindex>
        %c0 = arith.constant 0 : index
        %c38208 = arith.constant 38208 : index
        %cst_36 = arith.constant dense<0.000000e+00> : vector<16xf32>
        %block_id_x = gpu.block_id  x upper_bound 7
        %block_id_y = gpu.block_id  y upper_bound 256
        %thread_id_x = gpu.thread_id  x upper_bound 256
        %thread_id_y = gpu.thread_id  y upper_bound 2
        %alloc = memref.alloc() : memref<44576xi8, #gpu.address_space<workgroup>>
        %view = memref.view %alloc[%c38208][] : memref<44576xi8, #gpu.address_space<workgroup>> to memref<16x199xf16, #gpu.address_space<workgroup>>
        %view_37 = memref.view %alloc[%c0][] : memref<44576xi8, #gpu.address_space<workgroup>> to memref<96x199xf16, #gpu.address_space<workgroup>>
        %0 = stream.binding.subspan %arg0[%c0] : !stream.binding -> memref<641x2880xf16, strided<[2880, 1], offset: ?>>
        %1 = affine.apply #map()[%thread_id_y, %thread_id_x]
        %2 = vector.broadcast %1 : index to vector<8xindex>
        %3 = arith.addi %2, %cst_35 overflow<nsw, nuw> : vector<8xindex>
        %4 = arith.cmpi slt, %3, %cst_32 : vector<8xindex>
        %5 = affine.apply #map1()[%block_id_y, %block_id_x]
        %6 = arith.minsi %5, %c3 : index
        %7 = arith.maxsi %6, %c1 : index
        %8 = affine.apply #map2()[%thread_id_y, %thread_id_x, %block_id_y, %block_id_x, %7]
        %9 = arith.cmpi slt, %8, %c641 : index
        %10 = vector.broadcast %9 : i1 to vector<8xi1>
        %11 = arith.andi %4, %10 : vector<8xi1>
        %12 = arith.muli %8, %c2880 overflow<nsw> : index
        %13 = arith.addi %12, %1 overflow<nsw> : index
        %base_buffer, %offset, %sizes:2, %strides:2 = memref.extract_strided_metadata %0 : memref<641x2880xf16, strided<[2880, 1], offset: ?>> -> memref<f16>, index, index, index, index, index
        %reinterpret_cast = memref.reinterpret_cast %0 to offset: [%offset], sizes: [%c1073741822], strides: [1] : memref<641x2880xf16, strided<[2880, 1], offset: ?>> to memref<?xf16, strided<[1], offset: ?>>
        %14 = amdgpu.fat_raw_buffer_cast %reinterpret_cast validBytes(%c2147483645_i32) cacheSwizzleStride(%c2880_i14) resetOffset : memref<?xf16, strided<[1], offset: ?>> to memref<?xf16, #amdgpu.address_space<fat_raw_buffer>>
        %15 = arith.index_cast %13 : index to i32
        %16 = vector.broadcast %15 : i32 to vector<8xi32>
        %17 = arith.addi %16, %cst_30 : vector<8xi32>
        %18 = arith.index_cast %17 : vector<8xi32> to vector<8xindex>
        %19 = arith.select %11, %18, %cst_31 : vector<8xi1>, vector<8xindex>
        %20 = vector.extract %19[0] : index from vector<8xindex>
        %21 = memref.load %14[%20] : memref<?xf16, #amdgpu.address_space<fat_raw_buffer>>
        %22 = vector.extract %19[1] : index from vector<8xindex>
        %23 = memref.load %14[%22] : memref<?xf16, #amdgpu.address_space<fat_raw_buffer>>
        %24 = vector.extract %19[2] : index from vector<8xindex>
        %25 = memref.load %14[%24] : memref<?xf16, #amdgpu.address_space<fat_raw_buffer>>
        %26 = vector.extract %19[3] : index from vector<8xindex>
        %27 = memref.load %14[%26] : memref<?xf16, #amdgpu.address_space<fat_raw_buffer>>
        %28 = vector.extract %19[4] : index from vector<8xindex>
        %29 = memref.load %14[%28] : memref<?xf16, #amdgpu.address_space<fat_raw_buffer>>
        %30 = vector.extract %19[5] : index from vector<8xindex>
        %31 = memref.load %14[%30] : memref<?xf16, #amdgpu.address_space<fat_raw_buffer>>
        %32 = vector.extract %19[6] : index from vector<8xindex>
        %33 = memref.load %14[%32] : memref<?xf16, #amdgpu.address_space<fat_raw_buffer>>
        %34 = vector.extract %19[7] : index from vector<8xindex>
        %35 = memref.load %14[%34] : memref<?xf16, #amdgpu.address_space<fat_raw_buffer>>
        %36 = vector.from_elements %21, %23, %25, %27, %29, %31, %33, %35 : vector<8xf16>
        %37 = affine.apply #map3()[%thread_id_y, %thread_id_x]
        %38 = vector.broadcast %37 : index to vector<8xindex>
        %39 = arith.addi %38, %cst_35 overflow<nsw, nuw> : vector<8xindex>
        %40 = arith.cmpi slt, %39, %cst_32 : vector<8xindex>
        %41 = affine.apply #map4()[%thread_id_y, %thread_id_x, %block_id_y, %block_id_x, %7]
        %42 = arith.cmpi slt, %41, %c641 : index
        %43 = vector.broadcast %42 : i1 to vector<8xi1>
        %44 = arith.andi %40, %43 : vector<8xi1>
        %45 = arith.muli %41, %c2880 overflow<nsw> : index
        %46 = arith.addi %45, %37 overflow<nsw> : index
        %47 = arith.index_cast %46 : index to i32
        %48 = vector.broadcast %47 : i32 to vector<8xi32>
        %49 = arith.addi %48, %cst_30 : vector<8xi32>
        %50 = arith.index_cast %49 : vector<8xi32> to vector<8xindex>
        %51 = arith.select %44, %50, %cst_31 : vector<8xi1>, vector<8xindex>
        %52 = vector.extract %51[0] : index from vector<8xindex>
        %53 = memref.load %14[%52] : memref<?xf16, #amdgpu.address_space<fat_raw_buffer>>
        %54 = vector.extract %51[1] : index from vector<8xindex>
        %55 = memref.load %14[%54] : memref<?xf16, #amdgpu.address_space<fat_raw_buffer>>
        %56 = vector.extract %51[2] : index from vector<8xindex>
        %57 = memref.load %14[%56] : memref<?xf16, #amdgpu.address_space<fat_raw_buffer>>
        %58 = vector.extract %51[3] : index from vector<8xindex>
        %59 = memref.load %14[%58] : memref<?xf16, #amdgpu.address_space<fat_raw_buffer>>
        %60 = vector.extract %51[4] : index from vector<8xindex>
        %61 = memref.load %14[%60] : memref<?xf16, #amdgpu.address_space<fat_raw_buffer>>
        %62 = vector.extract %51[5] : index from vector<8xindex>
        %63 = memref.load %14[%62] : memref<?xf16, #amdgpu.address_space<fat_raw_buffer>>
        %64 = vector.extract %51[6] : index from vector<8xindex>
        %65 = memref.load %14[%64] : memref<?xf16, #amdgpu.address_space<fat_raw_buffer>>
        %66 = vector.extract %51[7] : index from vector<8xindex>
        %67 = memref.load %14[%66] : memref<?xf16, #amdgpu.address_space<fat_raw_buffer>>
        %68 = vector.from_elements %53, %55, %57, %59, %61, %63, %65, %67 : vector<8xf16>
        %69 = affine.apply #map5()[%thread_id_y, %thread_id_x]
        %70 = vector.broadcast %69 : index to vector<8xindex>
        %71 = arith.addi %70, %cst_35 overflow<nsw, nuw> : vector<8xindex>
        %72 = arith.cmpi slt, %71, %cst_32 : vector<8xindex>
        %73 = affine.apply #map6()[%thread_id_y, %thread_id_x, %block_id_y, %block_id_x, %7]
        %74 = arith.cmpi slt, %73, %c641 : index
        %75 = vector.broadcast %74 : i1 to vector<8xi1>
        %76 = arith.andi %72, %75 : vector<8xi1>
        %77 = arith.muli %73, %c2880 overflow<nsw> : index
        %78 = arith.addi %77, %69 overflow<nsw> : index
        %79 = arith.index_cast %78 : index to i32
        %80 = vector.broadcast %79 : i32 to vector<8xi32>
        %81 = arith.addi %80, %cst_30 : vector<8xi32>
        %82 = arith.index_cast %81 : vector<8xi32> to vector<8xindex>
        %83 = arith.select %76, %82, %cst_31 : vector<8xi1>, vector<8xindex>
        %84 = vector.extract %83[0] : index from vector<8xindex>
        %85 = memref.load %14[%84] : memref<?xf16, #amdgpu.address_space<fat_raw_buffer>>
        %86 = vector.extract %83[1] : index from vector<8xindex>
        %87 = memref.load %14[%86] : memref<?xf16, #amdgpu.address_space<fat_raw_buffer>>
        %88 = vector.extract %83[2] : index from vector<8xindex>
        %89 = memref.load %14[%88] : memref<?xf16, #amdgpu.address_space<fat_raw_buffer>>
        %90 = vector.extract %83[3] : index from vector<8xindex>
        %91 = memref.load %14[%90] : memref<?xf16, #amdgpu.address_space<fat_raw_buffer>>
        %92 = vector.extract %83[4] : index from vector<8xindex>
        %93 = memref.load %14[%92] : memref<?xf16, #amdgpu.address_space<fat_raw_buffer>>
        %94 = vector.extract %83[5] : index from vector<8xindex>
        %95 = memref.load %14[%94] : memref<?xf16, #amdgpu.address_space<fat_raw_buffer>>
        %96 = vector.extract %83[6] : index from vector<8xindex>
        %97 = memref.load %14[%96] : memref<?xf16, #amdgpu.address_space<fat_raw_buffer>>
        %98 = vector.extract %83[7] : index from vector<8xindex>
        %99 = memref.load %14[%98] : memref<?xf16, #amdgpu.address_space<fat_raw_buffer>>
        %100 = vector.from_elements %85, %87, %89, %91, %93, %95, %97, %99 : vector<8xf16>
        %101 = affine.apply #map7()[%thread_id_y, %thread_id_x]
        %102 = vector.broadcast %101 : index to vector<8xindex>
        %103 = arith.addi %102, %cst_35 overflow<nsw, nuw> : vector<8xindex>
        %104 = arith.cmpi slt, %103, %cst_32 : vector<8xindex>
        %105 = affine.apply #map8()[%thread_id_y, %thread_id_x, %block_id_y, %block_id_x, %7]
        %106 = arith.cmpi slt, %105, %c641 : index
        %107 = vector.broadcast %106 : i1 to vector<8xi1>
        %108 = arith.andi %104, %107 : vector<8xi1>
        %109 = arith.muli %105, %c2880 overflow<nsw> : index
        %110 = arith.addi %109, %101 overflow<nsw> : index
        %111 = arith.index_cast %110 : index to i32
        %112 = vector.broadcast %111 : i32 to vector<8xi32>
        %113 = arith.addi %112, %cst_30 : vector<8xi32>
        %114 = arith.index_cast %113 : vector<8xi32> to vector<8xindex>
        %115 = arith.select %108, %114, %cst_31 : vector<8xi1>, vector<8xindex>
        %116 = vector.extract %115[0] : index from vector<8xindex>
        %117 = memref.load %14[%116] : memref<?xf16, #amdgpu.address_space<fat_raw_buffer>>
        %118 = vector.extract %115[1] : index from vector<8xindex>
        %119 = memref.load %14[%118] : memref<?xf16, #amdgpu.address_space<fat_raw_buffer>>
        %120 = vector.extract %115[2] : index from vector<8xindex>
        %121 = memref.load %14[%120] : memref<?xf16, #amdgpu.address_space<fat_raw_buffer>>
        %122 = vector.extract %115[3] : index from vector<8xindex>
        %123 = memref.load %14[%122] : memref<?xf16, #amdgpu.address_space<fat_raw_buffer>>
        %124 = vector.extract %115[4] : index from vector<8xindex>
        %125 = memref.load %14[%124] : memref<?xf16, #amdgpu.address_space<fat_raw_buffer>>
        %126 = vector.extract %115[5] : index from vector<8xindex>
        %127 = memref.load %14[%126] : memref<?xf16, #amdgpu.address_space<fat_raw_buffer>>
        %128 = vector.extract %115[6] : index from vector<8xindex>
        %129 = memref.load %14[%128] : memref<?xf16, #amdgpu.address_space<fat_raw_buffer>>
        %130 = vector.extract %115[7] : index from vector<8xindex>
        %131 = memref.load %14[%130] : memref<?xf16, #amdgpu.address_space<fat_raw_buffer>>
        %132 = vector.from_elements %117, %119, %121, %123, %125, %127, %129, %131 : vector<8xf16>
        %133 = affine.apply #map9()[%thread_id_y, %thread_id_x]
        %134 = vector.broadcast %133 : index to vector<8xindex>
        %135 = arith.addi %134, %cst_35 overflow<nsw, nuw> : vector<8xindex>
        %136 = arith.cmpi slt, %135, %cst_32 : vector<8xindex>
        %137 = affine.apply #map10()[%thread_id_y, %thread_id_x, %block_id_y, %block_id_x, %7]
        %138 = arith.cmpi slt, %137, %c641 : index
        %139 = vector.broadcast %138 : i1 to vector<8xi1>
        %140 = arith.andi %136, %139 : vector<8xi1>
        %141 = arith.muli %137, %c2880 overflow<nsw> : index
        %142 = arith.addi %141, %133 overflow<nsw> : index
        %143 = arith.index_cast %142 : index to i32
        %144 = vector.broadcast %143 : i32 to vector<8xi32>
        %145 = arith.addi %144, %cst_30 : vector<8xi32>
        %146 = arith.index_cast %145 : vector<8xi32> to vector<8xindex>
        %147 = arith.select %140, %146, %cst_31 : vector<8xi1>, vector<8xindex>
        %148 = vector.extract %147[0] : index from vector<8xindex>
        %149 = memref.load %14[%148] : memref<?xf16, #amdgpu.address_space<fat_raw_buffer>>
        %150 = vector.extract %147[1] : index from vector<8xindex>
        %151 = memref.load %14[%150] : memref<?xf16, #amdgpu.address_space<fat_raw_buffer>>
        %152 = vector.extract %147[2] : index from vector<8xindex>
        %153 = memref.load %14[%152] : memref<?xf16, #amdgpu.address_space<fat_raw_buffer>>
        %154 = vector.extract %147[3] : index from vector<8xindex>
        %155 = memref.load %14[%154] : memref<?xf16, #amdgpu.address_space<fat_raw_buffer>>
        %156 = vector.extract %147[4] : index from vector<8xindex>
        %157 = memref.load %14[%156] : memref<?xf16, #amdgpu.address_space<fat_raw_buffer>>
        %158 = vector.extract %147[5] : index from vector<8xindex>
        %159 = memref.load %14[%158] : memref<?xf16, #amdgpu.address_space<fat_raw_buffer>>
        %160 = vector.extract %147[6] : index from vector<8xindex>
        %161 = memref.load %14[%160] : memref<?xf16, #amdgpu.address_space<fat_raw_buffer>>
        %162 = vector.extract %147[7] : index from vector<8xindex>
        %163 = memref.load %14[%162] : memref<?xf16, #amdgpu.address_space<fat_raw_buffer>>
        %164 = vector.from_elements %149, %151, %153, %155, %157, %159, %161, %163 : vector<8xf16>
        %165 = stream.binding.subspan %arg1[%c0] : !stream.binding -> memref<4096x2880xf16, strided<[2880, 1], offset: ?>>
        %166 = affine.apply #map11()[%thread_id_y, %thread_id_x]
        %167 = vector.broadcast %166 : index to vector<7xindex>
        %168 = arith.addi %167, %cst_34 overflow<nsw, nuw> : vector<7xindex>
        %169 = arith.cmpi slt, %168, %cst_29 : vector<7xindex>
        %170 = affine.apply #map12()[%thread_id_y, %thread_id_x, %block_id_y, %block_id_x, %7]
        %171 = arith.muli %170, %c2880 overflow<nsw> : index
        %172 = arith.addi %171, %166 overflow<nsw> : index
        %base_buffer_38, %offset_39, %sizes_40:2, %strides_41:2 = memref.extract_strided_metadata %165 : memref<4096x2880xf16, strided<[2880, 1], offset: ?>> -> memref<f16>, index, index, index, index, index
        %reinterpret_cast_42 = memref.reinterpret_cast %165 to offset: [%offset_39], sizes: [%c1073741822], strides: [1] : memref<4096x2880xf16, strided<[2880, 1], offset: ?>> to memref<?xf16, strided<[1], offset: ?>>
        %173 = amdgpu.fat_raw_buffer_cast %reinterpret_cast_42 validBytes(%c2147483645_i32) cacheSwizzleStride(%c2880_i14) resetOffset : memref<?xf16, strided<[1], offset: ?>> to memref<?xf16, #amdgpu.address_space<fat_raw_buffer>>
        %174 = arith.index_cast %172 : index to i32
        %175 = vector.broadcast %174 : i32 to vector<7xi32>
        %176 = arith.addi %175, %cst_27 : vector<7xi32>
        %177 = arith.index_cast %176 : vector<7xi32> to vector<7xindex>
        %178 = arith.select %169, %177, %cst_28 : vector<7xi1>, vector<7xindex>
        %179 = vector.extract %178[0] : index from vector<7xindex>
        %180 = memref.load %173[%179] : memref<?xf16, #amdgpu.address_space<fat_raw_buffer>>
        %181 = vector.extract %178[1] : index from vector<7xindex>
        %182 = memref.load %173[%181] : memref<?xf16, #amdgpu.address_space<fat_raw_buffer>>
        %183 = vector.extract %178[2] : index from vector<7xindex>
        %184 = memref.load %173[%183] : memref<?xf16, #amdgpu.address_space<fat_raw_buffer>>
        %185 = vector.extract %178[3] : index from vector<7xindex>
        %186 = memref.load %173[%185] : memref<?xf16, #amdgpu.address_space<fat_raw_buffer>>
        %187 = vector.extract %178[4] : index from vector<7xindex>
        %188 = memref.load %173[%187] : memref<?xf16, #amdgpu.address_space<fat_raw_buffer>>
        %189 = vector.extract %178[5] : index from vector<7xindex>
        %190 = memref.load %173[%189] : memref<?xf16, #amdgpu.address_space<fat_raw_buffer>>
        %191 = vector.extract %178[6] : index from vector<7xindex>
        %192 = memref.load %173[%191] : memref<?xf16, #amdgpu.address_space<fat_raw_buffer>>
        %193 = vector.from_elements %180, %182, %184, %186, %188, %190, %192 : vector<7xf16>
        %194 = arith.cmpi slt, %3, %cst_26 : vector<8xindex>
        %195 = affine.apply #map13()[%thread_id_x]
        %196 = arith.minsi %195, %c96 : index
        %197 = affine.apply #map14()[%thread_id_y, %thread_id_x]
        %198 = arith.cmpi slt, %197, %196 : index
        %199 = vector.broadcast %198 : i1 to vector<8xi1>
        %200 = arith.andi %194, %199 : vector<8xi1>
        vector.maskedstore %view_37[%197, %1], %200, %36 : memref<96x199xf16, #gpu.address_space<workgroup>>, vector<8xi1>, vector<8xf16>
        %201 = arith.cmpi slt, %39, %cst_26 : vector<8xindex>
        %202 = affine.apply #map15()[%thread_id_y, %thread_id_x]
        %203 = arith.cmpi slt, %202, %196 : index
        %204 = vector.broadcast %203 : i1 to vector<8xi1>
        %205 = arith.andi %201, %204 : vector<8xi1>
        vector.maskedstore %view_37[%202, %37], %205, %68 : memref<96x199xf16, #gpu.address_space<workgroup>>, vector<8xi1>, vector<8xf16>
        %206 = arith.cmpi slt, %71, %cst_26 : vector<8xindex>
        %207 = affine.apply #map16()[%thread_id_y, %thread_id_x]
        %208 = arith.cmpi slt, %207, %196 : index
        %209 = vector.broadcast %208 : i1 to vector<8xi1>
        %210 = arith.andi %206, %209 : vector<8xi1>
        vector.maskedstore %view_37[%207, %69], %210, %100 : memref<96x199xf16, #gpu.address_space<workgroup>>, vector<8xi1>, vector<8xf16>
        %211 = arith.cmpi slt, %103, %cst_26 : vector<8xindex>
        %212 = affine.apply #map17()[%thread_id_y, %thread_id_x]
        %213 = arith.cmpi slt, %212, %196 : index
        %214 = vector.broadcast %213 : i1 to vector<8xi1>
        %215 = arith.andi %211, %214 : vector<8xi1>
        vector.maskedstore %view_37[%212, %101], %215, %132 : memref<96x199xf16, #gpu.address_space<workgroup>>, vector<8xi1>, vector<8xf16>
        %216 = arith.cmpi slt, %135, %cst_26 : vector<8xindex>
        %217 = affine.apply #map18()[%thread_id_y, %thread_id_x]
        %218 = arith.cmpi slt, %217, %196 : index
        %219 = vector.broadcast %218 : i1 to vector<8xi1>
        %220 = arith.andi %216, %219 : vector<8xi1>
        vector.maskedstore %view_37[%217, %133], %220, %164 : memref<96x199xf16, #gpu.address_space<workgroup>>, vector<8xi1>, vector<8xf16>
        %221 = arith.cmpi slt, %168, %cst_25 : vector<7xindex>
        %222 = affine.apply #map19()[%thread_id_y]
        %223 = arith.minsi %222, %c16 : index
        %224 = affine.apply #map20()[%thread_id_y, %thread_id_x]
        %225 = arith.cmpi slt, %224, %223 : index
        %226 = vector.broadcast %225 : i1 to vector<7xi1>
        %227 = arith.andi %221, %226 : vector<7xi1>
        vector.maskedstore %view[%224, %166], %227, %193 : memref<16x199xf16, #gpu.address_space<workgroup>>, vector<7xi1>, vector<7xf16>
        %228 = affine.apply #map21()[%thread_id_x]
        %229 = vector.broadcast %228 : index to vector<4xindex>
        %230 = arith.addi %229, %cst_33 overflow<nsw, nuw> : vector<4xindex>
        %231 = arith.cmpi slt, %230, %cst_24 : vector<4xindex>
        %232 = affine.apply #map22()[%thread_id_x, %thread_id_y]
        %233 = arith.cmpi slt, %232, %223 : index
        %234 = vector.broadcast %233 : i1 to vector<4xi1>
        %235 = arith.andi %231, %234 : vector<4xi1>
        %236 = arith.addi %230, %cst_22 overflow<nsw, nuw> : vector<4xindex>
        %237 = arith.cmpi slt, %236, %cst_24 : vector<4xindex>
        %238 = arith.andi %237, %234 : vector<4xi1>
        %239 = affine.apply #map23()[%thread_id_x]
        %240 = arith.addi %230, %cst_21 overflow<nsw, nuw> : vector<4xindex>
        %241 = arith.cmpi slt, %240, %cst_24 : vector<4xindex>
        %242 = arith.andi %241, %234 : vector<4xi1>
        %243 = affine.apply #map24()[%thread_id_x]
        %244 = arith.addi %230, %cst_20 overflow<nsw, nuw> : vector<4xindex>
        %245 = arith.cmpi slt, %244, %cst_24 : vector<4xindex>
        %246 = arith.andi %245, %234 : vector<4xi1>
        %247 = affine.apply #map25()[%thread_id_x]
        %248 = arith.addi %230, %cst_19 overflow<nsw, nuw> : vector<4xindex>
        %249 = arith.cmpi slt, %248, %cst_24 : vector<4xindex>
        %250 = arith.andi %249, %234 : vector<4xi1>
        %251 = affine.apply #map26()[%thread_id_x]
        %252 = arith.addi %230, %cst_18 overflow<nsw, nuw> : vector<4xindex>
        %253 = arith.cmpi slt, %252, %cst_24 : vector<4xindex>
        %254 = arith.andi %253, %234 : vector<4xi1>
        %255 = affine.apply #map27()[%thread_id_x]
        %256 = arith.addi %230, %cst_17 overflow<nsw, nuw> : vector<4xindex>
        %257 = arith.cmpi slt, %256, %cst_24 : vector<4xindex>
        %258 = arith.andi %257, %234 : vector<4xi1>
        %259 = affine.apply #map28()[%thread_id_x]
        %260 = arith.addi %230, %cst_16 overflow<nsw, nuw> : vector<4xindex>
        %261 = arith.cmpi slt, %260, %cst_24 : vector<4xindex>
        %262 = arith.andi %261, %234 : vector<4xi1>
        %263 = affine.apply #map29()[%thread_id_x]
        %264 = arith.addi %230, %cst_15 overflow<nsw, nuw> : vector<4xindex>
        %265 = arith.cmpi slt, %264, %cst_24 : vector<4xindex>
        %266 = arith.andi %265, %234 : vector<4xi1>
        %267 = affine.apply #map30()[%thread_id_x]
        %268 = arith.addi %230, %cst_14 overflow<nsw, nuw> : vector<4xindex>
        %269 = arith.cmpi slt, %268, %cst_24 : vector<4xindex>
        %270 = arith.andi %269, %234 : vector<4xi1>
        %271 = affine.apply #map31()[%thread_id_x]
        %272 = arith.addi %230, %cst_13 overflow<nsw, nuw> : vector<4xindex>
        %273 = arith.cmpi slt, %272, %cst_24 : vector<4xindex>
        %274 = arith.andi %273, %234 : vector<4xi1>
        %275 = affine.apply #map32()[%thread_id_x]
        %276 = arith.addi %230, %cst_12 overflow<nsw, nuw> : vector<4xindex>
        %277 = arith.cmpi slt, %276, %cst_24 : vector<4xindex>
        %278 = arith.andi %277, %234 : vector<4xi1>
        %279 = affine.apply #map33()[%thread_id_x]
        %280 = arith.addi %230, %cst_11 overflow<nsw, nuw> : vector<4xindex>
        %281 = arith.cmpi slt, %280, %cst_24 : vector<4xindex>
        %282 = arith.andi %281, %234 : vector<4xi1>
        %283 = affine.apply #map34()[%thread_id_x]
        %284 = arith.addi %230, %cst_10 overflow<nsw, nuw> : vector<4xindex>
        %285 = arith.cmpi slt, %284, %cst_24 : vector<4xindex>
        %286 = arith.andi %285, %234 : vector<4xi1>
        %287 = affine.apply #map35()[%thread_id_x]
        %288 = arith.addi %230, %cst_9 overflow<nsw, nuw> : vector<4xindex>
        %289 = arith.cmpi slt, %288, %cst_24 : vector<4xindex>
        %290 = arith.andi %289, %234 : vector<4xi1>
        %291 = affine.apply #map36()[%thread_id_x]
        %292 = arith.addi %230, %cst_8 overflow<nsw, nuw> : vector<4xindex>
        %293 = arith.cmpi slt, %292, %cst_24 : vector<4xindex>
        %294 = arith.andi %293, %234 : vector<4xi1>
        %295 = affine.apply #map37()[%thread_id_x]
        %296 = arith.addi %230, %cst_7 overflow<nsw, nuw> : vector<4xindex>
        %297 = arith.cmpi slt, %296, %cst_24 : vector<4xindex>
        %298 = arith.andi %297, %234 : vector<4xi1>
        %299 = affine.apply #map38()[%thread_id_x]
        %300 = arith.addi %230, %cst_6 overflow<nsw, nuw> : vector<4xindex>
        %301 = arith.cmpi slt, %300, %cst_24 : vector<4xindex>
        %302 = arith.andi %301, %234 : vector<4xi1>
        %303 = affine.apply #map39()[%thread_id_x]
        %304 = arith.addi %230, %cst_5 overflow<nsw, nuw> : vector<4xindex>
        %305 = arith.cmpi slt, %304, %cst_24 : vector<4xindex>
        %306 = arith.andi %305, %234 : vector<4xi1>
        %307 = affine.apply #map40()[%thread_id_x]
        %308 = arith.addi %230, %cst_4 overflow<nsw, nuw> : vector<4xindex>
        %309 = arith.cmpi slt, %308, %cst_24 : vector<4xindex>
        %310 = arith.andi %309, %234 : vector<4xi1>
        %311 = affine.apply #map41()[%thread_id_x]
        %312 = arith.addi %230, %cst_3 overflow<nsw, nuw> : vector<4xindex>
        %313 = arith.cmpi slt, %312, %cst_24 : vector<4xindex>
        %314 = arith.andi %313, %234 : vector<4xi1>
        %315 = affine.apply #map42()[%thread_id_x]
        %316 = arith.addi %230, %cst_2 overflow<nsw, nuw> : vector<4xindex>
        %317 = arith.cmpi slt, %316, %cst_24 : vector<4xindex>
        %318 = arith.andi %317, %234 : vector<4xi1>
        %319 = affine.apply #map43()[%thread_id_x]
        %320 = arith.addi %230, %cst_1 overflow<nsw, nuw> : vector<4xindex>
        %321 = arith.cmpi slt, %320, %cst_24 : vector<4xindex>
        %322 = arith.andi %321, %234 : vector<4xi1>
        %323 = affine.apply #map44()[%thread_id_x]
        %324 = arith.addi %230, %cst_0 overflow<nsw, nuw> : vector<4xindex>
        %325 = arith.cmpi slt, %324, %cst_24 : vector<4xindex>
        %326 = arith.andi %325, %234 : vector<4xi1>
        %327 = affine.apply #map45()[%thread_id_x]
        %328 = arith.addi %230, %cst overflow<nsw, nuw> : vector<4xindex>
        %329 = arith.cmpi slt, %328, %cst_24 : vector<4xindex>
        %330 = arith.andi %329, %234 : vector<4xi1>
        %331 = affine.apply #map46()[%thread_id_x]
        %332 = affine.apply #map47()[%thread_id_x]
        %333 = arith.cmpi slt, %332, %196 : index
        %334 = vector.broadcast %333 : i1 to vector<4xi1>
        %335 = arith.andi %231, %334 : vector<4xi1>
        %336 = arith.andi %237, %334 : vector<4xi1>
        %337 = arith.andi %241, %334 : vector<4xi1>
        %338 = arith.andi %245, %334 : vector<4xi1>
        %339 = arith.andi %249, %334 : vector<4xi1>
        %340 = arith.andi %253, %334 : vector<4xi1>
        %341 = arith.andi %257, %334 : vector<4xi1>
        %342 = arith.andi %261, %334 : vector<4xi1>
        %343 = arith.andi %265, %334 : vector<4xi1>
        %344 = arith.andi %269, %334 : vector<4xi1>
        %345 = arith.andi %273, %334 : vector<4xi1>
        %346 = arith.andi %277, %334 : vector<4xi1>
        %347 = arith.andi %281, %334 : vector<4xi1>
        %348 = arith.andi %285, %334 : vector<4xi1>
        %349 = arith.andi %289, %334 : vector<4xi1>
        %350 = arith.andi %293, %334 : vector<4xi1>
        %351 = arith.andi %297, %334 : vector<4xi1>
        %352 = arith.andi %301, %334 : vector<4xi1>
        %353 = arith.andi %305, %334 : vector<4xi1>
        %354 = arith.andi %309, %334 : vector<4xi1>
        %355 = arith.andi %313, %334 : vector<4xi1>
        %356 = arith.andi %317, %334 : vector<4xi1>
        %357 = arith.andi %321, %334 : vector<4xi1>
        %358 = arith.andi %325, %334 : vector<4xi1>
        %359 = arith.andi %329, %334 : vector<4xi1>
        %360 = scf.for %arg3 = %c0 to %c14 step %c1 iter_args(%arg4 = %cst_36) -> (vector<16xf32>) {
          amdgpu.lds_barrier
          %710 = vector.maskedload %view[%232, %228], %235, %cst_23 : memref<16x199xf16, #gpu.address_space<workgroup>>, vector<4xi1>, vector<4xf16> into vector<4xf16>
          %711 = vector.maskedload %view[%232, %239], %238, %cst_23 : memref<16x199xf16, #gpu.address_space<workgroup>>, vector<4xi1>, vector<4xf16> into vector<4xf16>
          %712 = vector.maskedload %view[%232, %243], %242, %cst_23 : memref<16x199xf16, #gpu.address_space<workgroup>>, vector<4xi1>, vector<4xf16> into vector<4xf16>
          %713 = vector.maskedload %view[%232, %247], %246, %cst_23 : memref<16x199xf16, #gpu.address_space<workgroup>>, vector<4xi1>, vector<4xf16> into vector<4xf16>
          %714 = vector.maskedload %view[%232, %251], %250, %cst_23 : memref<16x199xf16, #gpu.address_space<workgroup>>, vector<4xi1>, vector<4xf16> into vector<4xf16>
          %715 = vector.maskedload %view[%232, %255], %254, %cst_23 : memref<16x199xf16, #gpu.address_space<workgroup>>, vector<4xi1>, vector<4xf16> into vector<4xf16>
          %716 = vector.maskedload %view[%232, %259], %258, %cst_23 : memref<16x199xf16, #gpu.address_space<workgroup>>, vector<4xi1>, vector<4xf16> into vector<4xf16>
          %717 = vector.maskedload %view[%232, %263], %262, %cst_23 : memref<16x199xf16, #gpu.address_space<workgroup>>, vector<4xi1>, vector<4xf16> into vector<4xf16>
          %718 = vector.maskedload %view[%232, %267], %266, %cst_23 : memref<16x199xf16, #gpu.address_space<workgroup>>, vector<4xi1>, vector<4xf16> into vector<4xf16>
          %719 = vector.maskedload %view[%232, %271], %270, %cst_23 : memref<16x199xf16, #gpu.address_space<workgroup>>, vector<4xi1>, vector<4xf16> into vector<4xf16>
          %720 = vector.maskedload %view[%232, %275], %274, %cst_23 : memref<16x199xf16, #gpu.address_space<workgroup>>, vector<4xi1>, vector<4xf16> into vector<4xf16>
          %721 = vector.maskedload %view[%232, %279], %278, %cst_23 : memref<16x199xf16, #gpu.address_space<workgroup>>, vector<4xi1>, vector<4xf16> into vector<4xf16>
          %722 = vector.maskedload %view[%232, %283], %282, %cst_23 : memref<16x199xf16, #gpu.address_space<workgroup>>, vector<4xi1>, vector<4xf16> into vector<4xf16>
          %723 = vector.maskedload %view[%232, %287], %286, %cst_23 : memref<16x199xf16, #gpu.address_space<workgroup>>, vector<4xi1>, vector<4xf16> into vector<4xf16>
          %724 = vector.maskedload %view[%232, %291], %290, %cst_23 : memref<16x199xf16, #gpu.address_space<workgroup>>, vector<4xi1>, vector<4xf16> into vector<4xf16>
          %725 = vector.maskedload %view[%232, %295], %294, %cst_23 : memref<16x199xf16, #gpu.address_space<workgroup>>, vector<4xi1>, vector<4xf16> into vector<4xf16>
          %726 = vector.maskedload %view[%232, %299], %298, %cst_23 : memref<16x199xf16, #gpu.address_space<workgroup>>, vector<4xi1>, vector<4xf16> into vector<4xf16>
          %727 = vector.maskedload %view[%232, %303], %302, %cst_23 : memref<16x199xf16, #gpu.address_space<workgroup>>, vector<4xi1>, vector<4xf16> into vector<4xf16>
          %728 = vector.maskedload %view[%232, %307], %306, %cst_23 : memref<16x199xf16, #gpu.address_space<workgroup>>, vector<4xi1>, vector<4xf16> into vector<4xf16>
          %729 = vector.maskedload %view[%232, %311], %310, %cst_23 : memref<16x199xf16, #gpu.address_space<workgroup>>, vector<4xi1>, vector<4xf16> into vector<4xf16>
          %730 = vector.maskedload %view[%232, %315], %314, %cst_23 : memref<16x199xf16, #gpu.address_space<workgroup>>, vector<4xi1>, vector<4xf16> into vector<4xf16>
          %731 = vector.maskedload %view[%232, %319], %318, %cst_23 : memref<16x199xf16, #gpu.address_space<workgroup>>, vector<4xi1>, vector<4xf16> into vector<4xf16>
          %732 = vector.maskedload %view[%232, %323], %322, %cst_23 : memref<16x199xf16, #gpu.address_space<workgroup>>, vector<4xi1>, vector<4xf16> into vector<4xf16>
          %733 = vector.maskedload %view[%232, %327], %326, %cst_23 : memref<16x199xf16, #gpu.address_space<workgroup>>, vector<4xi1>, vector<4xf16> into vector<4xf16>
          %734 = vector.maskedload %view[%232, %331], %330, %cst_23 : memref<16x199xf16, #gpu.address_space<workgroup>>, vector<4xi1>, vector<4xf16> into vector<4xf16>
          %735 = vector.maskedload %view_37[%332, %228], %335, %cst_23 : memref<96x199xf16, #gpu.address_space<workgroup>>, vector<4xi1>, vector<4xf16> into vector<4xf16>
          %736 = vector.maskedload %view_37[%332, %239], %336, %cst_23 : memref<96x199xf16, #gpu.address_space<workgroup>>, vector<4xi1>, vector<4xf16> into vector<4xf16>
          %737 = vector.maskedload %view_37[%332, %243], %337, %cst_23 : memref<96x199xf16, #gpu.address_space<workgroup>>, vector<4xi1>, vector<4xf16> into vector<4xf16>
          %738 = vector.maskedload %view_37[%332, %247], %338, %cst_23 : memref<96x199xf16, #gpu.address_space<workgroup>>, vector<4xi1>, vector<4xf16> into vector<4xf16>
          %739 = vector.maskedload %view_37[%332, %251], %339, %cst_23 : memref<96x199xf16, #gpu.address_space<workgroup>>, vector<4xi1>, vector<4xf16> into vector<4xf16>
          %740 = vector.maskedload %view_37[%332, %255], %340, %cst_23 : memref<96x199xf16, #gpu.address_space<workgroup>>, vector<4xi1>, vector<4xf16> into vector<4xf16>
          %741 = vector.maskedload %view_37[%332, %259], %341, %cst_23 : memref<96x199xf16, #gpu.address_space<workgroup>>, vector<4xi1>, vector<4xf16> into vector<4xf16>
          %742 = vector.maskedload %view_37[%332, %263], %342, %cst_23 : memref<96x199xf16, #gpu.address_space<workgroup>>, vector<4xi1>, vector<4xf16> into vector<4xf16>
          %743 = vector.maskedload %view_37[%332, %267], %343, %cst_23 : memref<96x199xf16, #gpu.address_space<workgroup>>, vector<4xi1>, vector<4xf16> into vector<4xf16>
          %744 = vector.maskedload %view_37[%332, %271], %344, %cst_23 : memref<96x199xf16, #gpu.address_space<workgroup>>, vector<4xi1>, vector<4xf16> into vector<4xf16>
          %745 = vector.maskedload %view_37[%332, %275], %345, %cst_23 : memref<96x199xf16, #gpu.address_space<workgroup>>, vector<4xi1>, vector<4xf16> into vector<4xf16>
          %746 = vector.maskedload %view_37[%332, %279], %346, %cst_23 : memref<96x199xf16, #gpu.address_space<workgroup>>, vector<4xi1>, vector<4xf16> into vector<4xf16>
          %747 = vector.maskedload %view_37[%332, %283], %347, %cst_23 : memref<96x199xf16, #gpu.address_space<workgroup>>, vector<4xi1>, vector<4xf16> into vector<4xf16>
          %748 = vector.maskedload %view_37[%332, %287], %348, %cst_23 : memref<96x199xf16, #gpu.address_space<workgroup>>, vector<4xi1>, vector<4xf16> into vector<4xf16>
          %749 = vector.maskedload %view_37[%332, %291], %349, %cst_23 : memref<96x199xf16, #gpu.address_space<workgroup>>, vector<4xi1>, vector<4xf16> into vector<4xf16>
          %750 = vector.maskedload %view_37[%332, %295], %350, %cst_23 : memref<96x199xf16, #gpu.address_space<workgroup>>, vector<4xi1>, vector<4xf16> into vector<4xf16>
          %751 = vector.maskedload %view_37[%332, %299], %351, %cst_23 : memref<96x199xf16, #gpu.address_space<workgroup>>, vector<4xi1>, vector<4xf16> into vector<4xf16>
          %752 = vector.maskedload %view_37[%332, %303], %352, %cst_23 : memref<96x199xf16, #gpu.address_space<workgroup>>, vector<4xi1>, vector<4xf16> into vector<4xf16>
          %753 = vector.maskedload %view_37[%332, %307], %353, %cst_23 : memref<96x199xf16, #gpu.address_space<workgroup>>, vector<4xi1>, vector<4xf16> into vector<4xf16>
          %754 = vector.maskedload %view_37[%332, %311], %354, %cst_23 : memref<96x199xf16, #gpu.address_space<workgroup>>, vector<4xi1>, vector<4xf16> into vector<4xf16>
          %755 = vector.maskedload %view_37[%332, %315], %355, %cst_23 : memref<96x199xf16, #gpu.address_space<workgroup>>, vector<4xi1>, vector<4xf16> into vector<4xf16>
          %756 = vector.maskedload %view_37[%332, %319], %356, %cst_23 : memref<96x199xf16, #gpu.address_space<workgroup>>, vector<4xi1>, vector<4xf16> into vector<4xf16>
          %757 = vector.maskedload %view_37[%332, %323], %357, %cst_23 : memref<96x199xf16, #gpu.address_space<workgroup>>, vector<4xi1>, vector<4xf16> into vector<4xf16>
          %758 = vector.maskedload %view_37[%332, %327], %358, %cst_23 : memref<96x199xf16, #gpu.address_space<workgroup>>, vector<4xi1>, vector<4xf16> into vector<4xf16>
          %759 = vector.maskedload %view_37[%332, %331], %359, %cst_23 : memref<96x199xf16, #gpu.address_space<workgroup>>, vector<4xi1>, vector<4xf16> into vector<4xf16>
          %760 = affine.apply #map48()[%thread_id_y, %thread_id_x, %arg3]
          %761 = vector.broadcast %760 : index to vector<8xindex>
          %762 = arith.addi %761, %cst_35 overflow<nsw, nuw> : vector<8xindex>
          %763 = arith.addi %762, %cst_26 overflow<nsw, nuw> : vector<8xindex>
          %764 = arith.cmpi slt, %763, %cst_32 : vector<8xindex>
          %765 = arith.andi %764, %10 : vector<8xi1>
          %766 = affine.apply #map49()[%thread_id_y, %thread_id_x, %arg3]
          %767 = arith.addi %12, %766 overflow<nsw> : index
          %768 = arith.index_cast %767 : index to i32
          %769 = vector.broadcast %768 : i32 to vector<8xi32>
          %770 = arith.addi %769, %cst_30 : vector<8xi32>
          %771 = arith.index_cast %770 : vector<8xi32> to vector<8xindex>
          %772 = arith.select %765, %771, %cst_31 : vector<8xi1>, vector<8xindex>
          %773 = vector.extract %772[0] : index from vector<8xindex>
          %774 = memref.load %14[%773] : memref<?xf16, #amdgpu.address_space<fat_raw_buffer>>
          %775 = vector.extract %772[1] : index from vector<8xindex>
          %776 = memref.load %14[%775] : memref<?xf16, #amdgpu.address_space<fat_raw_buffer>>
          %777 = vector.extract %772[2] : index from vector<8xindex>
          %778 = memref.load %14[%777] : memref<?xf16, #amdgpu.address_space<fat_raw_buffer>>
          %779 = vector.extract %772[3] : index from vector<8xindex>
          %780 = memref.load %14[%779] : memref<?xf16, #amdgpu.address_space<fat_raw_buffer>>
          %781 = vector.extract %772[4] : index from vector<8xindex>
          %782 = memref.load %14[%781] : memref<?xf16, #amdgpu.address_space<fat_raw_buffer>>
          %783 = vector.extract %772[5] : index from vector<8xindex>
          %784 = memref.load %14[%783] : memref<?xf16, #amdgpu.address_space<fat_raw_buffer>>
          %785 = vector.extract %772[6] : index from vector<8xindex>
          %786 = memref.load %14[%785] : memref<?xf16, #amdgpu.address_space<fat_raw_buffer>>
          %787 = vector.extract %772[7] : index from vector<8xindex>
          %788 = memref.load %14[%787] : memref<?xf16, #amdgpu.address_space<fat_raw_buffer>>
          %789 = vector.from_elements %774, %776, %778, %780, %782, %784, %786, %788 : vector<8xf16>
          %790 = affine.apply #map50()[%thread_id_y, %thread_id_x, %arg3]
          %791 = vector.broadcast %790 : index to vector<8xindex>
          %792 = arith.addi %791, %cst_35 overflow<nsw, nuw> : vector<8xindex>
          %793 = arith.addi %792, %cst_26 overflow<nsw, nuw> : vector<8xindex>
          %794 = arith.cmpi slt, %793, %cst_32 : vector<8xindex>
          %795 = arith.andi %794, %43 : vector<8xi1>
          %796 = affine.apply #map51()[%thread_id_y, %thread_id_x, %arg3]
          %797 = arith.addi %45, %796 overflow<nsw> : index
          %798 = arith.index_cast %797 : index to i32
          %799 = vector.broadcast %798 : i32 to vector<8xi32>
          %800 = arith.addi %799, %cst_30 : vector<8xi32>
          %801 = arith.index_cast %800 : vector<8xi32> to vector<8xindex>
          %802 = arith.select %795, %801, %cst_31 : vector<8xi1>, vector<8xindex>
          %803 = vector.extract %802[0] : index from vector<8xindex>
          %804 = memref.load %14[%803] : memref<?xf16, #amdgpu.address_space<fat_raw_buffer>>
          %805 = vector.extract %802[1] : index from vector<8xindex>
          %806 = memref.load %14[%805] : memref<?xf16, #amdgpu.address_space<fat_raw_buffer>>
          %807 = vector.extract %802[2] : index from vector<8xindex>
          %808 = memref.load %14[%807] : memref<?xf16, #amdgpu.address_space<fat_raw_buffer>>
          %809 = vector.extract %802[3] : index from vector<8xindex>
          %810 = memref.load %14[%809] : memref<?xf16, #amdgpu.address_space<fat_raw_buffer>>
          %811 = vector.extract %802[4] : index from vector<8xindex>
          %812 = memref.load %14[%811] : memref<?xf16, #amdgpu.address_space<fat_raw_buffer>>
          %813 = vector.extract %802[5] : index from vector<8xindex>
          %814 = memref.load %14[%813] : memref<?xf16, #amdgpu.address_space<fat_raw_buffer>>
          %815 = vector.extract %802[6] : index from vector<8xindex>
          %816 = memref.load %14[%815] : memref<?xf16, #amdgpu.address_space<fat_raw_buffer>>
          %817 = vector.extract %802[7] : index from vector<8xindex>
          %818 = memref.load %14[%817] : memref<?xf16, #amdgpu.address_space<fat_raw_buffer>>
          %819 = vector.from_elements %804, %806, %808, %810, %812, %814, %816, %818 : vector<8xf16>
          %820 = affine.apply #map52()[%thread_id_y, %thread_id_x, %arg3]
          %821 = vector.broadcast %820 : index to vector<8xindex>
          %822 = arith.addi %821, %cst_35 overflow<nsw, nuw> : vector<8xindex>
          %823 = arith.addi %822, %cst_26 overflow<nsw, nuw> : vector<8xindex>
          %824 = arith.cmpi slt, %823, %cst_32 : vector<8xindex>
          %825 = arith.andi %824, %75 : vector<8xi1>
          %826 = affine.apply #map53()[%thread_id_y, %thread_id_x, %arg3]
          %827 = arith.addi %77, %826 overflow<nsw> : index
          %828 = arith.index_cast %827 : index to i32
          %829 = vector.broadcast %828 : i32 to vector<8xi32>
          %830 = arith.addi %829, %cst_30 : vector<8xi32>
          %831 = arith.index_cast %830 : vector<8xi32> to vector<8xindex>
          %832 = arith.select %825, %831, %cst_31 : vector<8xi1>, vector<8xindex>
          %833 = vector.extract %832[0] : index from vector<8xindex>
          %834 = memref.load %14[%833] : memref<?xf16, #amdgpu.address_space<fat_raw_buffer>>
          %835 = vector.extract %832[1] : index from vector<8xindex>
          %836 = memref.load %14[%835] : memref<?xf16, #amdgpu.address_space<fat_raw_buffer>>
          %837 = vector.extract %832[2] : index from vector<8xindex>
          %838 = memref.load %14[%837] : memref<?xf16, #amdgpu.address_space<fat_raw_buffer>>
          %839 = vector.extract %832[3] : index from vector<8xindex>
          %840 = memref.load %14[%839] : memref<?xf16, #amdgpu.address_space<fat_raw_buffer>>
          %841 = vector.extract %832[4] : index from vector<8xindex>
          %842 = memref.load %14[%841] : memref<?xf16, #amdgpu.address_space<fat_raw_buffer>>
          %843 = vector.extract %832[5] : index from vector<8xindex>
          %844 = memref.load %14[%843] : memref<?xf16, #amdgpu.address_space<fat_raw_buffer>>
          %845 = vector.extract %832[6] : index from vector<8xindex>
          %846 = memref.load %14[%845] : memref<?xf16, #amdgpu.address_space<fat_raw_buffer>>
          %847 = vector.extract %832[7] : index from vector<8xindex>
          %848 = memref.load %14[%847] : memref<?xf16, #amdgpu.address_space<fat_raw_buffer>>
          %849 = vector.from_elements %834, %836, %838, %840, %842, %844, %846, %848 : vector<8xf16>
          %850 = affine.apply #map54()[%thread_id_y, %thread_id_x, %arg3]
          %851 = vector.broadcast %850 : index to vector<8xindex>
          %852 = arith.addi %851, %cst_35 overflow<nsw, nuw> : vector<8xindex>
          %853 = arith.addi %852, %cst_26 overflow<nsw, nuw> : vector<8xindex>
          %854 = arith.cmpi slt, %853, %cst_32 : vector<8xindex>
          %855 = arith.andi %854, %107 : vector<8xi1>
          %856 = affine.apply #map55()[%thread_id_y, %thread_id_x, %arg3]
          %857 = arith.addi %109, %856 overflow<nsw> : index
          %858 = arith.index_cast %857 : index to i32
          %859 = vector.broadcast %858 : i32 to vector<8xi32>
          %860 = arith.addi %859, %cst_30 : vector<8xi32>
          %861 = arith.index_cast %860 : vector<8xi32> to vector<8xindex>
          %862 = arith.select %855, %861, %cst_31 : vector<8xi1>, vector<8xindex>
          %863 = vector.extract %862[0] : index from vector<8xindex>
          %864 = memref.load %14[%863] : memref<?xf16, #amdgpu.address_space<fat_raw_buffer>>
          %865 = vector.extract %862[1] : index from vector<8xindex>
          %866 = memref.load %14[%865] : memref<?xf16, #amdgpu.address_space<fat_raw_buffer>>
          %867 = vector.extract %862[2] : index from vector<8xindex>
          %868 = memref.load %14[%867] : memref<?xf16, #amdgpu.address_space<fat_raw_buffer>>
          %869 = vector.extract %862[3] : index from vector<8xindex>
          %870 = memref.load %14[%869] : memref<?xf16, #amdgpu.address_space<fat_raw_buffer>>
          %871 = vector.extract %862[4] : index from vector<8xindex>
          %872 = memref.load %14[%871] : memref<?xf16, #amdgpu.address_space<fat_raw_buffer>>
          %873 = vector.extract %862[5] : index from vector<8xindex>
          %874 = memref.load %14[%873] : memref<?xf16, #amdgpu.address_space<fat_raw_buffer>>
          %875 = vector.extract %862[6] : index from vector<8xindex>
          %876 = memref.load %14[%875] : memref<?xf16, #amdgpu.address_space<fat_raw_buffer>>
          %877 = vector.extract %862[7] : index from vector<8xindex>
          %878 = memref.load %14[%877] : memref<?xf16, #amdgpu.address_space<fat_raw_buffer>>
          %879 = vector.from_elements %864, %866, %868, %870, %872, %874, %876, %878 : vector<8xf16>
          %880 = affine.apply #map56()[%thread_id_y, %thread_id_x, %arg3]
          %881 = vector.broadcast %880 : index to vector<8xindex>
          %882 = arith.addi %881, %cst_35 overflow<nsw, nuw> : vector<8xindex>
          %883 = arith.addi %882, %cst_26 overflow<nsw, nuw> : vector<8xindex>
          %884 = arith.cmpi slt, %883, %cst_32 : vector<8xindex>
          %885 = arith.andi %884, %139 : vector<8xi1>
          %886 = affine.apply #map57()[%thread_id_y, %thread_id_x, %arg3]
          %887 = arith.addi %141, %886 overflow<nsw> : index
          %888 = arith.index_cast %887 : index to i32
          %889 = vector.broadcast %888 : i32 to vector<8xi32>
          %890 = arith.addi %889, %cst_30 : vector<8xi32>
          %891 = arith.index_cast %890 : vector<8xi32> to vector<8xindex>
          %892 = arith.select %885, %891, %cst_31 : vector<8xi1>, vector<8xindex>
          %893 = vector.extract %892[0] : index from vector<8xindex>
          %894 = memref.load %14[%893] : memref<?xf16, #amdgpu.address_space<fat_raw_buffer>>
          %895 = vector.extract %892[1] : index from vector<8xindex>
          %896 = memref.load %14[%895] : memref<?xf16, #amdgpu.address_space<fat_raw_buffer>>
          %897 = vector.extract %892[2] : index from vector<8xindex>
          %898 = memref.load %14[%897] : memref<?xf16, #amdgpu.address_space<fat_raw_buffer>>
          %899 = vector.extract %892[3] : index from vector<8xindex>
          %900 = memref.load %14[%899] : memref<?xf16, #amdgpu.address_space<fat_raw_buffer>>
          %901 = vector.extract %892[4] : index from vector<8xindex>
          %902 = memref.load %14[%901] : memref<?xf16, #amdgpu.address_space<fat_raw_buffer>>
          %903 = vector.extract %892[5] : index from vector<8xindex>
          %904 = memref.load %14[%903] : memref<?xf16, #amdgpu.address_space<fat_raw_buffer>>
          %905 = vector.extract %892[6] : index from vector<8xindex>
          %906 = memref.load %14[%905] : memref<?xf16, #amdgpu.address_space<fat_raw_buffer>>
          %907 = vector.extract %892[7] : index from vector<8xindex>
          %908 = memref.load %14[%907] : memref<?xf16, #amdgpu.address_space<fat_raw_buffer>>
          %909 = vector.from_elements %894, %896, %898, %900, %902, %904, %906, %908 : vector<8xf16>
          %910 = affine.apply #map58()[%thread_id_y, %thread_id_x, %arg3]
          %911 = vector.broadcast %910 : index to vector<7xindex>
          %912 = arith.addi %911, %cst_34 overflow<nsw, nuw> : vector<7xindex>
          %913 = arith.addi %912, %cst_25 overflow<nsw, nuw> : vector<7xindex>
          %914 = arith.cmpi slt, %913, %cst_29 : vector<7xindex>
          %915 = affine.apply #map59()[%thread_id_y, %thread_id_x, %arg3]
          %916 = arith.addi %171, %915 overflow<nsw> : index
          %917 = arith.index_cast %916 : index to i32
          %918 = vector.broadcast %917 : i32 to vector<7xi32>
          %919 = arith.addi %918, %cst_27 : vector<7xi32>
          %920 = arith.index_cast %919 : vector<7xi32> to vector<7xindex>
          %921 = arith.select %914, %920, %cst_28 : vector<7xi1>, vector<7xindex>
          %922 = vector.extract %921[0] : index from vector<7xindex>
          %923 = memref.load %173[%922] : memref<?xf16, #amdgpu.address_space<fat_raw_buffer>>
          %924 = vector.extract %921[1] : index from vector<7xindex>
          %925 = memref.load %173[%924] : memref<?xf16, #amdgpu.address_space<fat_raw_buffer>>
          %926 = vector.extract %921[2] : index from vector<7xindex>
          %927 = memref.load %173[%926] : memref<?xf16, #amdgpu.address_space<fat_raw_buffer>>
          %928 = vector.extract %921[3] : index from vector<7xindex>
          %929 = memref.load %173[%928] : memref<?xf16, #amdgpu.address_space<fat_raw_buffer>>
          %930 = vector.extract %921[4] : index from vector<7xindex>
          %931 = memref.load %173[%930] : memref<?xf16, #amdgpu.address_space<fat_raw_buffer>>
          %932 = vector.extract %921[5] : index from vector<7xindex>
          %933 = memref.load %173[%932] : memref<?xf16, #amdgpu.address_space<fat_raw_buffer>>
          %934 = vector.extract %921[6] : index from vector<7xindex>
          %935 = memref.load %173[%934] : memref<?xf16, #amdgpu.address_space<fat_raw_buffer>>
          %936 = vector.from_elements %923, %925, %927, %929, %931, %933, %935 : vector<7xf16>
          %937 = amdgpu.mfma %735 * %710 + %arg4 {blocks = 1 : i32, k = 8 : i32, m = 32 : i32, n = 32 : i32} blgp =  none : vector<4xf16>, vector<4xf16>, vector<16xf32>
          %938 = amdgpu.mfma %736 * %711 + %937 {blocks = 1 : i32, k = 8 : i32, m = 32 : i32, n = 32 : i32} blgp =  none : vector<4xf16>, vector<4xf16>, vector<16xf32>
          %939 = amdgpu.mfma %737 * %712 + %938 {blocks = 1 : i32, k = 8 : i32, m = 32 : i32, n = 32 : i32} blgp =  none : vector<4xf16>, vector<4xf16>, vector<16xf32>
          %940 = amdgpu.mfma %738 * %713 + %939 {blocks = 1 : i32, k = 8 : i32, m = 32 : i32, n = 32 : i32} blgp =  none : vector<4xf16>, vector<4xf16>, vector<16xf32>
          %941 = amdgpu.mfma %739 * %714 + %940 {blocks = 1 : i32, k = 8 : i32, m = 32 : i32, n = 32 : i32} blgp =  none : vector<4xf16>, vector<4xf16>, vector<16xf32>
          %942 = amdgpu.mfma %740 * %715 + %941 {blocks = 1 : i32, k = 8 : i32, m = 32 : i32, n = 32 : i32} blgp =  none : vector<4xf16>, vector<4xf16>, vector<16xf32>
          %943 = amdgpu.mfma %741 * %716 + %942 {blocks = 1 : i32, k = 8 : i32, m = 32 : i32, n = 32 : i32} blgp =  none : vector<4xf16>, vector<4xf16>, vector<16xf32>
          %944 = amdgpu.mfma %742 * %717 + %943 {blocks = 1 : i32, k = 8 : i32, m = 32 : i32, n = 32 : i32} blgp =  none : vector<4xf16>, vector<4xf16>, vector<16xf32>
          %945 = amdgpu.mfma %743 * %718 + %944 {blocks = 1 : i32, k = 8 : i32, m = 32 : i32, n = 32 : i32} blgp =  none : vector<4xf16>, vector<4xf16>, vector<16xf32>
          %946 = amdgpu.mfma %744 * %719 + %945 {blocks = 1 : i32, k = 8 : i32, m = 32 : i32, n = 32 : i32} blgp =  none : vector<4xf16>, vector<4xf16>, vector<16xf32>
          %947 = amdgpu.mfma %745 * %720 + %946 {blocks = 1 : i32, k = 8 : i32, m = 32 : i32, n = 32 : i32} blgp =  none : vector<4xf16>, vector<4xf16>, vector<16xf32>
          %948 = amdgpu.mfma %746 * %721 + %947 {blocks = 1 : i32, k = 8 : i32, m = 32 : i32, n = 32 : i32} blgp =  none : vector<4xf16>, vector<4xf16>, vector<16xf32>
          %949 = amdgpu.mfma %747 * %722 + %948 {blocks = 1 : i32, k = 8 : i32, m = 32 : i32, n = 32 : i32} blgp =  none : vector<4xf16>, vector<4xf16>, vector<16xf32>
          %950 = amdgpu.mfma %748 * %723 + %949 {blocks = 1 : i32, k = 8 : i32, m = 32 : i32, n = 32 : i32} blgp =  none : vector<4xf16>, vector<4xf16>, vector<16xf32>
          %951 = amdgpu.mfma %749 * %724 + %950 {blocks = 1 : i32, k = 8 : i32, m = 32 : i32, n = 32 : i32} blgp =  none : vector<4xf16>, vector<4xf16>, vector<16xf32>
          %952 = amdgpu.mfma %750 * %725 + %951 {blocks = 1 : i32, k = 8 : i32, m = 32 : i32, n = 32 : i32} blgp =  none : vector<4xf16>, vector<4xf16>, vector<16xf32>
          %953 = amdgpu.mfma %751 * %726 + %952 {blocks = 1 : i32, k = 8 : i32, m = 32 : i32, n = 32 : i32} blgp =  none : vector<4xf16>, vector<4xf16>, vector<16xf32>
          %954 = amdgpu.mfma %752 * %727 + %953 {blocks = 1 : i32, k = 8 : i32, m = 32 : i32, n = 32 : i32} blgp =  none : vector<4xf16>, vector<4xf16>, vector<16xf32>
          %955 = amdgpu.mfma %753 * %728 + %954 {blocks = 1 : i32, k = 8 : i32, m = 32 : i32, n = 32 : i32} blgp =  none : vector<4xf16>, vector<4xf16>, vector<16xf32>
          %956 = amdgpu.mfma %754 * %729 + %955 {blocks = 1 : i32, k = 8 : i32, m = 32 : i32, n = 32 : i32} blgp =  none : vector<4xf16>, vector<4xf16>, vector<16xf32>
          %957 = amdgpu.mfma %755 * %730 + %956 {blocks = 1 : i32, k = 8 : i32, m = 32 : i32, n = 32 : i32} blgp =  none : vector<4xf16>, vector<4xf16>, vector<16xf32>
          %958 = amdgpu.mfma %756 * %731 + %957 {blocks = 1 : i32, k = 8 : i32, m = 32 : i32, n = 32 : i32} blgp =  none : vector<4xf16>, vector<4xf16>, vector<16xf32>
          %959 = amdgpu.mfma %757 * %732 + %958 {blocks = 1 : i32, k = 8 : i32, m = 32 : i32, n = 32 : i32} blgp =  none : vector<4xf16>, vector<4xf16>, vector<16xf32>
          %960 = amdgpu.mfma %758 * %733 + %959 {blocks = 1 : i32, k = 8 : i32, m = 32 : i32, n = 32 : i32} blgp =  none : vector<4xf16>, vector<4xf16>, vector<16xf32>
          %961 = amdgpu.mfma %759 * %734 + %960 {blocks = 1 : i32, k = 8 : i32, m = 32 : i32, n = 32 : i32} blgp =  none : vector<4xf16>, vector<4xf16>, vector<16xf32>
          amdgpu.lds_barrier
          vector.maskedstore %view_37[%197, %1], %200, %789 : memref<96x199xf16, #gpu.address_space<workgroup>>, vector<8xi1>, vector<8xf16>
          vector.maskedstore %view_37[%202, %37], %205, %819 : memref<96x199xf16, #gpu.address_space<workgroup>>, vector<8xi1>, vector<8xf16>
          vector.maskedstore %view_37[%207, %69], %210, %849 : memref<96x199xf16, #gpu.address_space<workgroup>>, vector<8xi1>, vector<8xf16>
          vector.maskedstore %view_37[%212, %101], %215, %879 : memref<96x199xf16, #gpu.address_space<workgroup>>, vector<8xi1>, vector<8xf16>
          vector.maskedstore %view_37[%217, %133], %220, %909 : memref<96x199xf16, #gpu.address_space<workgroup>>, vector<8xi1>, vector<8xf16>
          vector.maskedstore %view[%224, %166], %227, %936 : memref<16x199xf16, #gpu.address_space<workgroup>>, vector<7xi1>, vector<7xf16>
          scf.yield %961 : vector<16xf32>
        }
        amdgpu.lds_barrier
        %361 = affine.apply #map21()[%thread_id_x]
        %362 = vector.broadcast %361 : index to vector<4xindex>
        %363 = arith.addi %362, %cst_33 overflow<nsw, nuw> : vector<4xindex>
        %364 = arith.cmpi slt, %363, %cst_24 : vector<4xindex>
        %365 = affine.apply #map22()[%thread_id_x, %thread_id_y]
        %366 = arith.cmpi slt, %365, %223 : index
        %367 = vector.broadcast %366 : i1 to vector<4xi1>
        %368 = arith.andi %364, %367 : vector<4xi1>
        %369 = vector.maskedload %view[%365, %361], %368, %cst_23 : memref<16x199xf16, #gpu.address_space<workgroup>>, vector<4xi1>, vector<4xf16> into vector<4xf16>
        %370 = arith.addi %363, %cst_22 overflow<nsw, nuw> : vector<4xindex>
        %371 = arith.cmpi slt, %370, %cst_24 : vector<4xindex>
        %372 = arith.andi %371, %367 : vector<4xi1>
        %373 = affine.apply #map23()[%thread_id_x]
        %374 = vector.maskedload %view[%365, %373], %372, %cst_23 : memref<16x199xf16, #gpu.address_space<workgroup>>, vector<4xi1>, vector<4xf16> into vector<4xf16>
        %375 = arith.addi %363, %cst_21 overflow<nsw, nuw> : vector<4xindex>
        %376 = arith.cmpi slt, %375, %cst_24 : vector<4xindex>
        %377 = arith.andi %376, %367 : vector<4xi1>
        %378 = affine.apply #map24()[%thread_id_x]
        %379 = vector.maskedload %view[%365, %378], %377, %cst_23 : memref<16x199xf16, #gpu.address_space<workgroup>>, vector<4xi1>, vector<4xf16> into vector<4xf16>
        %380 = arith.addi %363, %cst_20 overflow<nsw, nuw> : vector<4xindex>
        %381 = arith.cmpi slt, %380, %cst_24 : vector<4xindex>
        %382 = arith.andi %381, %367 : vector<4xi1>
        %383 = affine.apply #map25()[%thread_id_x]
        %384 = vector.maskedload %view[%365, %383], %382, %cst_23 : memref<16x199xf16, #gpu.address_space<workgroup>>, vector<4xi1>, vector<4xf16> into vector<4xf16>
        %385 = arith.addi %363, %cst_19 overflow<nsw, nuw> : vector<4xindex>
        %386 = arith.cmpi slt, %385, %cst_24 : vector<4xindex>
        %387 = arith.andi %386, %367 : vector<4xi1>
        %388 = affine.apply #map26()[%thread_id_x]
        %389 = vector.maskedload %view[%365, %388], %387, %cst_23 : memref<16x199xf16, #gpu.address_space<workgroup>>, vector<4xi1>, vector<4xf16> into vector<4xf16>
        %390 = arith.addi %363, %cst_18 overflow<nsw, nuw> : vector<4xindex>
        %391 = arith.cmpi slt, %390, %cst_24 : vector<4xindex>
        %392 = arith.andi %391, %367 : vector<4xi1>
        %393 = affine.apply #map27()[%thread_id_x]
        %394 = vector.maskedload %view[%365, %393], %392, %cst_23 : memref<16x199xf16, #gpu.address_space<workgroup>>, vector<4xi1>, vector<4xf16> into vector<4xf16>
        %395 = arith.addi %363, %cst_17 overflow<nsw, nuw> : vector<4xindex>
        %396 = arith.cmpi slt, %395, %cst_24 : vector<4xindex>
        %397 = arith.andi %396, %367 : vector<4xi1>
        %398 = affine.apply #map28()[%thread_id_x]
        %399 = vector.maskedload %view[%365, %398], %397, %cst_23 : memref<16x199xf16, #gpu.address_space<workgroup>>, vector<4xi1>, vector<4xf16> into vector<4xf16>
        %400 = arith.addi %363, %cst_16 overflow<nsw, nuw> : vector<4xindex>
        %401 = arith.cmpi slt, %400, %cst_24 : vector<4xindex>
        %402 = arith.andi %401, %367 : vector<4xi1>
        %403 = affine.apply #map29()[%thread_id_x]
        %404 = vector.maskedload %view[%365, %403], %402, %cst_23 : memref<16x199xf16, #gpu.address_space<workgroup>>, vector<4xi1>, vector<4xf16> into vector<4xf16>
        %405 = arith.addi %363, %cst_15 overflow<nsw, nuw> : vector<4xindex>
        %406 = arith.cmpi slt, %405, %cst_24 : vector<4xindex>
        %407 = arith.andi %406, %367 : vector<4xi1>
        %408 = affine.apply #map30()[%thread_id_x]
        %409 = vector.maskedload %view[%365, %408], %407, %cst_23 : memref<16x199xf16, #gpu.address_space<workgroup>>, vector<4xi1>, vector<4xf16> into vector<4xf16>
        %410 = arith.addi %363, %cst_14 overflow<nsw, nuw> : vector<4xindex>
        %411 = arith.cmpi slt, %410, %cst_24 : vector<4xindex>
        %412 = arith.andi %411, %367 : vector<4xi1>
        %413 = affine.apply #map31()[%thread_id_x]
        %414 = vector.maskedload %view[%365, %413], %412, %cst_23 : memref<16x199xf16, #gpu.address_space<workgroup>>, vector<4xi1>, vector<4xf16> into vector<4xf16>
        %415 = arith.addi %363, %cst_13 overflow<nsw, nuw> : vector<4xindex>
        %416 = arith.cmpi slt, %415, %cst_24 : vector<4xindex>
        %417 = arith.andi %416, %367 : vector<4xi1>
        %418 = affine.apply #map32()[%thread_id_x]
        %419 = vector.maskedload %view[%365, %418], %417, %cst_23 : memref<16x199xf16, #gpu.address_space<workgroup>>, vector<4xi1>, vector<4xf16> into vector<4xf16>
        %420 = arith.addi %363, %cst_12 overflow<nsw, nuw> : vector<4xindex>
        %421 = arith.cmpi slt, %420, %cst_24 : vector<4xindex>
        %422 = arith.andi %421, %367 : vector<4xi1>
        %423 = affine.apply #map33()[%thread_id_x]
        %424 = vector.maskedload %view[%365, %423], %422, %cst_23 : memref<16x199xf16, #gpu.address_space<workgroup>>, vector<4xi1>, vector<4xf16> into vector<4xf16>
        %425 = arith.addi %363, %cst_11 overflow<nsw, nuw> : vector<4xindex>
        %426 = arith.cmpi slt, %425, %cst_24 : vector<4xindex>
        %427 = arith.andi %426, %367 : vector<4xi1>
        %428 = affine.apply #map34()[%thread_id_x]
        %429 = vector.maskedload %view[%365, %428], %427, %cst_23 : memref<16x199xf16, #gpu.address_space<workgroup>>, vector<4xi1>, vector<4xf16> into vector<4xf16>
        %430 = arith.addi %363, %cst_10 overflow<nsw, nuw> : vector<4xindex>
        %431 = arith.cmpi slt, %430, %cst_24 : vector<4xindex>
        %432 = arith.andi %431, %367 : vector<4xi1>
        %433 = affine.apply #map35()[%thread_id_x]
        %434 = vector.maskedload %view[%365, %433], %432, %cst_23 : memref<16x199xf16, #gpu.address_space<workgroup>>, vector<4xi1>, vector<4xf16> into vector<4xf16>
        %435 = arith.addi %363, %cst_9 overflow<nsw, nuw> : vector<4xindex>
        %436 = arith.cmpi slt, %435, %cst_24 : vector<4xindex>
        %437 = arith.andi %436, %367 : vector<4xi1>
        %438 = affine.apply #map36()[%thread_id_x]
        %439 = vector.maskedload %view[%365, %438], %437, %cst_23 : memref<16x199xf16, #gpu.address_space<workgroup>>, vector<4xi1>, vector<4xf16> into vector<4xf16>
        %440 = arith.addi %363, %cst_8 overflow<nsw, nuw> : vector<4xindex>
        %441 = arith.cmpi slt, %440, %cst_24 : vector<4xindex>
        %442 = arith.andi %441, %367 : vector<4xi1>
        %443 = affine.apply #map37()[%thread_id_x]
        %444 = vector.maskedload %view[%365, %443], %442, %cst_23 : memref<16x199xf16, #gpu.address_space<workgroup>>, vector<4xi1>, vector<4xf16> into vector<4xf16>
        %445 = arith.addi %363, %cst_7 overflow<nsw, nuw> : vector<4xindex>
        %446 = arith.cmpi slt, %445, %cst_24 : vector<4xindex>
        %447 = arith.andi %446, %367 : vector<4xi1>
        %448 = affine.apply #map38()[%thread_id_x]
        %449 = vector.maskedload %view[%365, %448], %447, %cst_23 : memref<16x199xf16, #gpu.address_space<workgroup>>, vector<4xi1>, vector<4xf16> into vector<4xf16>
        %450 = arith.addi %363, %cst_6 overflow<nsw, nuw> : vector<4xindex>
        %451 = arith.cmpi slt, %450, %cst_24 : vector<4xindex>
        %452 = arith.andi %451, %367 : vector<4xi1>
        %453 = affine.apply #map39()[%thread_id_x]
        %454 = vector.maskedload %view[%365, %453], %452, %cst_23 : memref<16x199xf16, #gpu.address_space<workgroup>>, vector<4xi1>, vector<4xf16> into vector<4xf16>
        %455 = arith.addi %363, %cst_5 overflow<nsw, nuw> : vector<4xindex>
        %456 = arith.cmpi slt, %455, %cst_24 : vector<4xindex>
        %457 = arith.andi %456, %367 : vector<4xi1>
        %458 = affine.apply #map40()[%thread_id_x]
        %459 = vector.maskedload %view[%365, %458], %457, %cst_23 : memref<16x199xf16, #gpu.address_space<workgroup>>, vector<4xi1>, vector<4xf16> into vector<4xf16>
        %460 = arith.addi %363, %cst_4 overflow<nsw, nuw> : vector<4xindex>
        %461 = arith.cmpi slt, %460, %cst_24 : vector<4xindex>
        %462 = arith.andi %461, %367 : vector<4xi1>
        %463 = affine.apply #map41()[%thread_id_x]
        %464 = vector.maskedload %view[%365, %463], %462, %cst_23 : memref<16x199xf16, #gpu.address_space<workgroup>>, vector<4xi1>, vector<4xf16> into vector<4xf16>
        %465 = arith.addi %363, %cst_3 overflow<nsw, nuw> : vector<4xindex>
        %466 = arith.cmpi slt, %465, %cst_24 : vector<4xindex>
        %467 = arith.andi %466, %367 : vector<4xi1>
        %468 = affine.apply #map42()[%thread_id_x]
        %469 = vector.maskedload %view[%365, %468], %467, %cst_23 : memref<16x199xf16, #gpu.address_space<workgroup>>, vector<4xi1>, vector<4xf16> into vector<4xf16>
        %470 = arith.addi %363, %cst_2 overflow<nsw, nuw> : vector<4xindex>
        %471 = arith.cmpi slt, %470, %cst_24 : vector<4xindex>
        %472 = arith.andi %471, %367 : vector<4xi1>
        %473 = affine.apply #map43()[%thread_id_x]
        %474 = vector.maskedload %view[%365, %473], %472, %cst_23 : memref<16x199xf16, #gpu.address_space<workgroup>>, vector<4xi1>, vector<4xf16> into vector<4xf16>
        %475 = arith.addi %363, %cst_1 overflow<nsw, nuw> : vector<4xindex>
        %476 = arith.cmpi slt, %475, %cst_24 : vector<4xindex>
        %477 = arith.andi %476, %367 : vector<4xi1>
        %478 = affine.apply #map44()[%thread_id_x]
        %479 = vector.maskedload %view[%365, %478], %477, %cst_23 : memref<16x199xf16, #gpu.address_space<workgroup>>, vector<4xi1>, vector<4xf16> into vector<4xf16>
        %480 = arith.addi %363, %cst_0 overflow<nsw, nuw> : vector<4xindex>
        %481 = arith.cmpi slt, %480, %cst_24 : vector<4xindex>
        %482 = arith.andi %481, %367 : vector<4xi1>
        %483 = affine.apply #map45()[%thread_id_x]
        %484 = vector.maskedload %view[%365, %483], %482, %cst_23 : memref<16x199xf16, #gpu.address_space<workgroup>>, vector<4xi1>, vector<4xf16> into vector<4xf16>
        %485 = arith.addi %363, %cst overflow<nsw, nuw> : vector<4xindex>
        %486 = arith.cmpi slt, %485, %cst_24 : vector<4xindex>
        %487 = arith.andi %486, %367 : vector<4xi1>
        %488 = affine.apply #map46()[%thread_id_x]
        %489 = vector.maskedload %view[%365, %488], %487, %cst_23 : memref<16x199xf16, #gpu.address_space<workgroup>>, vector<4xi1>, vector<4xf16> into vector<4xf16>
        %490 = affine.apply #map47()[%thread_id_x]
        %491 = arith.cmpi slt, %490, %196 : index
        %492 = vector.broadcast %491 : i1 to vector<4xi1>
        %493 = arith.andi %364, %492 : vector<4xi1>
        %494 = vector.maskedload %view_37[%490, %361], %493, %cst_23 : memref<96x199xf16, #gpu.address_space<workgroup>>, vector<4xi1>, vector<4xf16> into vector<4xf16>
        %495 = arith.andi %371, %492 : vector<4xi1>
        %496 = vector.maskedload %view_37[%490, %373], %495, %cst_23 : memref<96x199xf16, #gpu.address_space<workgroup>>, vector<4xi1>, vector<4xf16> into vector<4xf16>
        %497 = arith.andi %376, %492 : vector<4xi1>
        %498 = vector.maskedload %view_37[%490, %378], %497, %cst_23 : memref<96x199xf16, #gpu.address_space<workgroup>>, vector<4xi1>, vector<4xf16> into vector<4xf16>
        %499 = arith.andi %381, %492 : vector<4xi1>
        %500 = vector.maskedload %view_37[%490, %383], %499, %cst_23 : memref<96x199xf16, #gpu.address_space<workgroup>>, vector<4xi1>, vector<4xf16> into vector<4xf16>
        %501 = arith.andi %386, %492 : vector<4xi1>
        %502 = vector.maskedload %view_37[%490, %388], %501, %cst_23 : memref<96x199xf16, #gpu.address_space<workgroup>>, vector<4xi1>, vector<4xf16> into vector<4xf16>
        %503 = arith.andi %391, %492 : vector<4xi1>
        %504 = vector.maskedload %view_37[%490, %393], %503, %cst_23 : memref<96x199xf16, #gpu.address_space<workgroup>>, vector<4xi1>, vector<4xf16> into vector<4xf16>
        %505 = arith.andi %396, %492 : vector<4xi1>
        %506 = vector.maskedload %view_37[%490, %398], %505, %cst_23 : memref<96x199xf16, #gpu.address_space<workgroup>>, vector<4xi1>, vector<4xf16> into vector<4xf16>
        %507 = arith.andi %401, %492 : vector<4xi1>
        %508 = vector.maskedload %view_37[%490, %403], %507, %cst_23 : memref<96x199xf16, #gpu.address_space<workgroup>>, vector<4xi1>, vector<4xf16> into vector<4xf16>
        %509 = arith.andi %406, %492 : vector<4xi1>
        %510 = vector.maskedload %view_37[%490, %408], %509, %cst_23 : memref<96x199xf16, #gpu.address_space<workgroup>>, vector<4xi1>, vector<4xf16> into vector<4xf16>
        %511 = arith.andi %411, %492 : vector<4xi1>
        %512 = vector.maskedload %view_37[%490, %413], %511, %cst_23 : memref<96x199xf16, #gpu.address_space<workgroup>>, vector<4xi1>, vector<4xf16> into vector<4xf16>
        %513 = arith.andi %416, %492 : vector<4xi1>
        %514 = vector.maskedload %view_37[%490, %418], %513, %cst_23 : memref<96x199xf16, #gpu.address_space<workgroup>>, vector<4xi1>, vector<4xf16> into vector<4xf16>
        %515 = arith.andi %421, %492 : vector<4xi1>
        %516 = vector.maskedload %view_37[%490, %423], %515, %cst_23 : memref<96x199xf16, #gpu.address_space<workgroup>>, vector<4xi1>, vector<4xf16> into vector<4xf16>
        %517 = arith.andi %426, %492 : vector<4xi1>
        %518 = vector.maskedload %view_37[%490, %428], %517, %cst_23 : memref<96x199xf16, #gpu.address_space<workgroup>>, vector<4xi1>, vector<4xf16> into vector<4xf16>
        %519 = arith.andi %431, %492 : vector<4xi1>
        %520 = vector.maskedload %view_37[%490, %433], %519, %cst_23 : memref<96x199xf16, #gpu.address_space<workgroup>>, vector<4xi1>, vector<4xf16> into vector<4xf16>
        %521 = arith.andi %436, %492 : vector<4xi1>
        %522 = vector.maskedload %view_37[%490, %438], %521, %cst_23 : memref<96x199xf16, #gpu.address_space<workgroup>>, vector<4xi1>, vector<4xf16> into vector<4xf16>
        %523 = arith.andi %441, %492 : vector<4xi1>
        %524 = vector.maskedload %view_37[%490, %443], %523, %cst_23 : memref<96x199xf16, #gpu.address_space<workgroup>>, vector<4xi1>, vector<4xf16> into vector<4xf16>
        %525 = arith.andi %446, %492 : vector<4xi1>
        %526 = vector.maskedload %view_37[%490, %448], %525, %cst_23 : memref<96x199xf16, #gpu.address_space<workgroup>>, vector<4xi1>, vector<4xf16> into vector<4xf16>
        %527 = arith.andi %451, %492 : vector<4xi1>
        %528 = vector.maskedload %view_37[%490, %453], %527, %cst_23 : memref<96x199xf16, #gpu.address_space<workgroup>>, vector<4xi1>, vector<4xf16> into vector<4xf16>
        %529 = arith.andi %456, %492 : vector<4xi1>
        %530 = vector.maskedload %view_37[%490, %458], %529, %cst_23 : memref<96x199xf16, #gpu.address_space<workgroup>>, vector<4xi1>, vector<4xf16> into vector<4xf16>
        %531 = arith.andi %461, %492 : vector<4xi1>
        %532 = vector.maskedload %view_37[%490, %463], %531, %cst_23 : memref<96x199xf16, #gpu.address_space<workgroup>>, vector<4xi1>, vector<4xf16> into vector<4xf16>
        %533 = arith.andi %466, %492 : vector<4xi1>
        %534 = vector.maskedload %view_37[%490, %468], %533, %cst_23 : memref<96x199xf16, #gpu.address_space<workgroup>>, vector<4xi1>, vector<4xf16> into vector<4xf16>
        %535 = arith.andi %471, %492 : vector<4xi1>
        %536 = vector.maskedload %view_37[%490, %473], %535, %cst_23 : memref<96x199xf16, #gpu.address_space<workgroup>>, vector<4xi1>, vector<4xf16> into vector<4xf16>
        %537 = arith.andi %476, %492 : vector<4xi1>
        %538 = vector.maskedload %view_37[%490, %478], %537, %cst_23 : memref<96x199xf16, #gpu.address_space<workgroup>>, vector<4xi1>, vector<4xf16> into vector<4xf16>
        %539 = arith.andi %481, %492 : vector<4xi1>
        %540 = vector.maskedload %view_37[%490, %483], %539, %cst_23 : memref<96x199xf16, #gpu.address_space<workgroup>>, vector<4xi1>, vector<4xf16> into vector<4xf16>
        %541 = arith.andi %486, %492 : vector<4xi1>
        %542 = vector.maskedload %view_37[%490, %488], %541, %cst_23 : memref<96x199xf16, #gpu.address_space<workgroup>>, vector<4xi1>, vector<4xf16> into vector<4xf16>
        %543 = amdgpu.mfma %494 * %369 + %360 {blocks = 1 : i32, k = 8 : i32, m = 32 : i32, n = 32 : i32} blgp =  none : vector<4xf16>, vector<4xf16>, vector<16xf32>
        %544 = amdgpu.mfma %496 * %374 + %543 {blocks = 1 : i32, k = 8 : i32, m = 32 : i32, n = 32 : i32} blgp =  none : vector<4xf16>, vector<4xf16>, vector<16xf32>
        %545 = amdgpu.mfma %498 * %379 + %544 {blocks = 1 : i32, k = 8 : i32, m = 32 : i32, n = 32 : i32} blgp =  none : vector<4xf16>, vector<4xf16>, vector<16xf32>
        %546 = amdgpu.mfma %500 * %384 + %545 {blocks = 1 : i32, k = 8 : i32, m = 32 : i32, n = 32 : i32} blgp =  none : vector<4xf16>, vector<4xf16>, vector<16xf32>
        %547 = amdgpu.mfma %502 * %389 + %546 {blocks = 1 : i32, k = 8 : i32, m = 32 : i32, n = 32 : i32} blgp =  none : vector<4xf16>, vector<4xf16>, vector<16xf32>
        %548 = amdgpu.mfma %504 * %394 + %547 {blocks = 1 : i32, k = 8 : i32, m = 32 : i32, n = 32 : i32} blgp =  none : vector<4xf16>, vector<4xf16>, vector<16xf32>
        %549 = amdgpu.mfma %506 * %399 + %548 {blocks = 1 : i32, k = 8 : i32, m = 32 : i32, n = 32 : i32} blgp =  none : vector<4xf16>, vector<4xf16>, vector<16xf32>
        %550 = amdgpu.mfma %508 * %404 + %549 {blocks = 1 : i32, k = 8 : i32, m = 32 : i32, n = 32 : i32} blgp =  none : vector<4xf16>, vector<4xf16>, vector<16xf32>
        %551 = amdgpu.mfma %510 * %409 + %550 {blocks = 1 : i32, k = 8 : i32, m = 32 : i32, n = 32 : i32} blgp =  none : vector<4xf16>, vector<4xf16>, vector<16xf32>
        %552 = amdgpu.mfma %512 * %414 + %551 {blocks = 1 : i32, k = 8 : i32, m = 32 : i32, n = 32 : i32} blgp =  none : vector<4xf16>, vector<4xf16>, vector<16xf32>
        %553 = amdgpu.mfma %514 * %419 + %552 {blocks = 1 : i32, k = 8 : i32, m = 32 : i32, n = 32 : i32} blgp =  none : vector<4xf16>, vector<4xf16>, vector<16xf32>
        %554 = amdgpu.mfma %516 * %424 + %553 {blocks = 1 : i32, k = 8 : i32, m = 32 : i32, n = 32 : i32} blgp =  none : vector<4xf16>, vector<4xf16>, vector<16xf32>
        %555 = amdgpu.mfma %518 * %429 + %554 {blocks = 1 : i32, k = 8 : i32, m = 32 : i32, n = 32 : i32} blgp =  none : vector<4xf16>, vector<4xf16>, vector<16xf32>
        %556 = amdgpu.mfma %520 * %434 + %555 {blocks = 1 : i32, k = 8 : i32, m = 32 : i32, n = 32 : i32} blgp =  none : vector<4xf16>, vector<4xf16>, vector<16xf32>
        %557 = amdgpu.mfma %522 * %439 + %556 {blocks = 1 : i32, k = 8 : i32, m = 32 : i32, n = 32 : i32} blgp =  none : vector<4xf16>, vector<4xf16>, vector<16xf32>
        %558 = amdgpu.mfma %524 * %444 + %557 {blocks = 1 : i32, k = 8 : i32, m = 32 : i32, n = 32 : i32} blgp =  none : vector<4xf16>, vector<4xf16>, vector<16xf32>
        %559 = amdgpu.mfma %526 * %449 + %558 {blocks = 1 : i32, k = 8 : i32, m = 32 : i32, n = 32 : i32} blgp =  none : vector<4xf16>, vector<4xf16>, vector<16xf32>
        %560 = amdgpu.mfma %528 * %454 + %559 {blocks = 1 : i32, k = 8 : i32, m = 32 : i32, n = 32 : i32} blgp =  none : vector<4xf16>, vector<4xf16>, vector<16xf32>
        %561 = amdgpu.mfma %530 * %459 + %560 {blocks = 1 : i32, k = 8 : i32, m = 32 : i32, n = 32 : i32} blgp =  none : vector<4xf16>, vector<4xf16>, vector<16xf32>
        %562 = amdgpu.mfma %532 * %464 + %561 {blocks = 1 : i32, k = 8 : i32, m = 32 : i32, n = 32 : i32} blgp =  none : vector<4xf16>, vector<4xf16>, vector<16xf32>
        %563 = amdgpu.mfma %534 * %469 + %562 {blocks = 1 : i32, k = 8 : i32, m = 32 : i32, n = 32 : i32} blgp =  none : vector<4xf16>, vector<4xf16>, vector<16xf32>
        %564 = amdgpu.mfma %536 * %474 + %563 {blocks = 1 : i32, k = 8 : i32, m = 32 : i32, n = 32 : i32} blgp =  none : vector<4xf16>, vector<4xf16>, vector<16xf32>
        %565 = amdgpu.mfma %538 * %479 + %564 {blocks = 1 : i32, k = 8 : i32, m = 32 : i32, n = 32 : i32} blgp =  none : vector<4xf16>, vector<4xf16>, vector<16xf32>
        %566 = amdgpu.mfma %540 * %484 + %565 {blocks = 1 : i32, k = 8 : i32, m = 32 : i32, n = 32 : i32} blgp =  none : vector<4xf16>, vector<4xf16>, vector<16xf32>
        %567 = amdgpu.mfma %542 * %489 + %566 {blocks = 1 : i32, k = 8 : i32, m = 32 : i32, n = 32 : i32} blgp =  none : vector<4xf16>, vector<4xf16>, vector<16xf32>
        %568 = vector.extract_strided_slice %567 {offsets = [0], sizes = [1], strides = [1]} : vector<16xf32> to vector<1xf32>
        %569 = stream.binding.subspan %arg2[%c0] : !stream.binding -> memref<641x4096xf32, strided<[4096, 1], offset: ?>>
        %570 = affine.apply #map60()[%block_id_y, %thread_id_y]
        %571 = affine.apply #map61()[%block_id_y]
        %572 = arith.minsi %570, %571 : index
        %573 = affine.apply #map62()[%thread_id_x, %block_id_y, %block_id_x, %7, %thread_id_y]
        %574 = arith.cmpi slt, %573, %572 : index
        %575 = affine.apply #map63()[%block_id_x, %thread_id_x]
        %576 = arith.minsi %575, %c641 : index
        %577 = affine.apply #map64()[%block_id_y, %block_id_x, %7, %thread_id_x]
        %578 = arith.cmpi slt, %577, %576 : index
        %579 = arith.andi %574, %578 : i1
        %580 = affine.apply #map65()[%block_id_y, %block_id_x, %7]
        %581 = affine.apply #map66()[%block_id_y, %block_id_x, %7]
        %582 = affine.apply #map67()[%thread_id_x]
        %583 = arith.muli %580, %c4096 overflow<nsw> : index
        %584 = arith.muli %582, %c4096 overflow<nsw> : index
        %585 = arith.addi %583, %581 overflow<nsw> : index
        %586 = arith.addi %584, %365 overflow<nsw> : index
        %base_buffer_43, %offset_44, %sizes_45:2, %strides_46:2 = memref.extract_strided_metadata %569 : memref<641x4096xf32, strided<[4096, 1], offset: ?>> -> memref<f32>, index, index, index, index, index
        %587 = arith.addi %585, %offset_44 overflow<nsw> : index
        %reinterpret_cast_47 = memref.reinterpret_cast %569 to offset: [%587], sizes: [%c536870910], strides: [1] : memref<641x4096xf32, strided<[4096, 1], offset: ?>> to memref<?xf32, strided<[1], offset: ?>>
        %588 = amdgpu.fat_raw_buffer_cast %reinterpret_cast_47 validBytes(%c2147483643_i32) cacheSwizzleStride(%c4096_i14) resetOffset : memref<?xf32, strided<[1], offset: ?>> to memref<?xf32, #amdgpu.address_space<fat_raw_buffer>>
        %589 = arith.select %579, %586, %c536870911 : index
        vector.store %568, %588[%589] : memref<?xf32, #amdgpu.address_space<fat_raw_buffer>>, vector<1xf32>
        %590 = vector.extract_strided_slice %567 {offsets = [1], sizes = [1], strides = [1]} : vector<16xf32> to vector<1xf32>
        %591 = affine.apply #map68()[%block_id_y, %block_id_x, %7, %thread_id_x]
        %592 = arith.cmpi slt, %591, %576 : index
        %593 = arith.andi %574, %592 : i1
        %594 = affine.apply #map69()[%thread_id_x]
        %595 = arith.muli %594, %c4096 overflow<nsw> : index
        %596 = arith.addi %595, %365 overflow<nsw> : index
        %597 = arith.select %593, %596, %c536870911 : index
        vector.store %590, %588[%597] : memref<?xf32, #amdgpu.address_space<fat_raw_buffer>>, vector<1xf32>
        %598 = vector.extract_strided_slice %567 {offsets = [2], sizes = [1], strides = [1]} : vector<16xf32> to vector<1xf32>
        %599 = affine.apply #map70()[%block_id_y, %block_id_x, %7, %thread_id_x]
        %600 = arith.cmpi slt, %599, %576 : index
        %601 = arith.andi %574, %600 : i1
        %602 = affine.apply #map71()[%thread_id_x]
        %603 = arith.muli %602, %c4096 overflow<nsw> : index
        %604 = arith.addi %603, %365 overflow<nsw> : index
        %605 = arith.select %601, %604, %c536870911 : index
        vector.store %598, %588[%605] : memref<?xf32, #amdgpu.address_space<fat_raw_buffer>>, vector<1xf32>
        %606 = vector.extract_strided_slice %567 {offsets = [3], sizes = [1], strides = [1]} : vector<16xf32> to vector<1xf32>
        %607 = affine.apply #map72()[%block_id_y, %block_id_x, %7, %thread_id_x]
        %608 = arith.cmpi slt, %607, %576 : index
        %609 = arith.andi %574, %608 : i1
        %610 = affine.apply #map73()[%thread_id_x]
        %611 = arith.muli %610, %c4096 overflow<nsw> : index
        %612 = arith.addi %611, %365 overflow<nsw> : index
        %613 = arith.select %609, %612, %c536870911 : index
        vector.store %606, %588[%613] : memref<?xf32, #amdgpu.address_space<fat_raw_buffer>>, vector<1xf32>
        %614 = vector.extract_strided_slice %567 {offsets = [4], sizes = [1], strides = [1]} : vector<16xf32> to vector<1xf32>
        %615 = affine.apply #map74()[%block_id_y, %block_id_x, %7, %thread_id_x]
        %616 = arith.cmpi slt, %615, %576 : index
        %617 = arith.andi %574, %616 : i1
        %618 = affine.apply #map75()[%thread_id_x]
        %619 = arith.muli %618, %c4096 overflow<nsw> : index
        %620 = arith.addi %619, %365 overflow<nsw> : index
        %621 = arith.select %617, %620, %c536870911 : index
        vector.store %614, %588[%621] : memref<?xf32, #amdgpu.address_space<fat_raw_buffer>>, vector<1xf32>
        %622 = vector.extract_strided_slice %567 {offsets = [5], sizes = [1], strides = [1]} : vector<16xf32> to vector<1xf32>
        %623 = affine.apply #map76()[%block_id_y, %block_id_x, %7, %thread_id_x]
        %624 = arith.cmpi slt, %623, %576 : index
        %625 = arith.andi %574, %624 : i1
        %626 = affine.apply #map77()[%thread_id_x]
        %627 = arith.muli %626, %c4096 overflow<nsw> : index
        %628 = arith.addi %627, %365 overflow<nsw> : index
        %629 = arith.select %625, %628, %c536870911 : index
        vector.store %622, %588[%629] : memref<?xf32, #amdgpu.address_space<fat_raw_buffer>>, vector<1xf32>
        %630 = vector.extract_strided_slice %567 {offsets = [6], sizes = [1], strides = [1]} : vector<16xf32> to vector<1xf32>
        %631 = affine.apply #map78()[%block_id_y, %block_id_x, %7, %thread_id_x]
        %632 = arith.cmpi slt, %631, %576 : index
        %633 = arith.andi %574, %632 : i1
        %634 = affine.apply #map79()[%thread_id_x]
        %635 = arith.muli %634, %c4096 overflow<nsw> : index
        %636 = arith.addi %635, %365 overflow<nsw> : index
        %637 = arith.select %633, %636, %c536870911 : index
        vector.store %630, %588[%637] : memref<?xf32, #amdgpu.address_space<fat_raw_buffer>>, vector<1xf32>
        %638 = vector.extract_strided_slice %567 {offsets = [7], sizes = [1], strides = [1]} : vector<16xf32> to vector<1xf32>
        %639 = affine.apply #map80()[%block_id_y, %block_id_x, %7, %thread_id_x]
        %640 = arith.cmpi slt, %639, %576 : index
        %641 = arith.andi %574, %640 : i1
        %642 = affine.apply #map81()[%thread_id_x]
        %643 = arith.muli %642, %c4096 overflow<nsw> : index
        %644 = arith.addi %643, %365 overflow<nsw> : index
        %645 = arith.select %641, %644, %c536870911 : index
        vector.store %638, %588[%645] : memref<?xf32, #amdgpu.address_space<fat_raw_buffer>>, vector<1xf32>
        %646 = vector.extract_strided_slice %567 {offsets = [8], sizes = [1], strides = [1]} : vector<16xf32> to vector<1xf32>
        %647 = affine.apply #map82()[%block_id_y, %block_id_x, %7, %thread_id_x]
        %648 = arith.cmpi slt, %647, %576 : index
        %649 = arith.andi %574, %648 : i1
        %650 = affine.apply #map83()[%thread_id_x]
        %651 = arith.muli %650, %c4096 overflow<nsw> : index
        %652 = arith.addi %651, %365 overflow<nsw> : index
        %653 = arith.select %649, %652, %c536870911 : index
        vector.store %646, %588[%653] : memref<?xf32, #amdgpu.address_space<fat_raw_buffer>>, vector<1xf32>
        %654 = vector.extract_strided_slice %567 {offsets = [9], sizes = [1], strides = [1]} : vector<16xf32> to vector<1xf32>
        %655 = affine.apply #map84()[%block_id_y, %block_id_x, %7, %thread_id_x]
        %656 = arith.cmpi slt, %655, %576 : index
        %657 = arith.andi %574, %656 : i1
        %658 = affine.apply #map85()[%thread_id_x]
        %659 = arith.muli %658, %c4096 overflow<nsw> : index
        %660 = arith.addi %659, %365 overflow<nsw> : index
        %661 = arith.select %657, %660, %c536870911 : index
        vector.store %654, %588[%661] : memref<?xf32, #amdgpu.address_space<fat_raw_buffer>>, vector<1xf32>
        %662 = vector.extract_strided_slice %567 {offsets = [10], sizes = [1], strides = [1]} : vector<16xf32> to vector<1xf32>
        %663 = affine.apply #map86()[%block_id_y, %block_id_x, %7, %thread_id_x]
        %664 = arith.cmpi slt, %663, %576 : index
        %665 = arith.andi %574, %664 : i1
        %666 = affine.apply #map87()[%thread_id_x]
        %667 = arith.muli %666, %c4096 overflow<nsw> : index
        %668 = arith.addi %667, %365 overflow<nsw> : index
        %669 = arith.select %665, %668, %c536870911 : index
        vector.store %662, %588[%669] : memref<?xf32, #amdgpu.address_space<fat_raw_buffer>>, vector<1xf32>
        %670 = vector.extract_strided_slice %567 {offsets = [11], sizes = [1], strides = [1]} : vector<16xf32> to vector<1xf32>
        %671 = affine.apply #map88()[%block_id_y, %block_id_x, %7, %thread_id_x]
        %672 = arith.cmpi slt, %671, %576 : index
        %673 = arith.andi %574, %672 : i1
        %674 = affine.apply #map89()[%thread_id_x]
        %675 = arith.muli %674, %c4096 overflow<nsw> : index
        %676 = arith.addi %675, %365 overflow<nsw> : index
        %677 = arith.select %673, %676, %c536870911 : index
        vector.store %670, %588[%677] : memref<?xf32, #amdgpu.address_space<fat_raw_buffer>>, vector<1xf32>
        %678 = vector.extract_strided_slice %567 {offsets = [12], sizes = [1], strides = [1]} : vector<16xf32> to vector<1xf32>
        %679 = affine.apply #map90()[%block_id_y, %block_id_x, %7, %thread_id_x]
        %680 = arith.cmpi slt, %679, %576 : index
        %681 = arith.andi %574, %680 : i1
        %682 = affine.apply #map91()[%thread_id_x]
        %683 = arith.muli %682, %c4096 overflow<nsw> : index
        %684 = arith.addi %683, %365 overflow<nsw> : index
        %685 = arith.select %681, %684, %c536870911 : index
        vector.store %678, %588[%685] : memref<?xf32, #amdgpu.address_space<fat_raw_buffer>>, vector<1xf32>
        %686 = vector.extract_strided_slice %567 {offsets = [13], sizes = [1], strides = [1]} : vector<16xf32> to vector<1xf32>
        %687 = affine.apply #map92()[%block_id_y, %block_id_x, %7, %thread_id_x]
        %688 = arith.cmpi slt, %687, %576 : index
        %689 = arith.andi %574, %688 : i1
        %690 = affine.apply #map93()[%thread_id_x]
        %691 = arith.muli %690, %c4096 overflow<nsw> : index
        %692 = arith.addi %691, %365 overflow<nsw> : index
        %693 = arith.select %689, %692, %c536870911 : index
        vector.store %686, %588[%693] : memref<?xf32, #amdgpu.address_space<fat_raw_buffer>>, vector<1xf32>
        %694 = vector.extract_strided_slice %567 {offsets = [14], sizes = [1], strides = [1]} : vector<16xf32> to vector<1xf32>
        %695 = affine.apply #map94()[%block_id_y, %block_id_x, %7, %thread_id_x]
        %696 = arith.cmpi slt, %695, %576 : index
        %697 = arith.andi %574, %696 : i1
        %698 = affine.apply #map95()[%thread_id_x]
        %699 = arith.muli %698, %c4096 overflow<nsw> : index
        %700 = arith.addi %699, %365 overflow<nsw> : index
        %701 = arith.select %697, %700, %c536870911 : index
        vector.store %694, %588[%701] : memref<?xf32, #amdgpu.address_space<fat_raw_buffer>>, vector<1xf32>
        %702 = vector.extract_strided_slice %567 {offsets = [15], sizes = [1], strides = [1]} : vector<16xf32> to vector<1xf32>
        %703 = affine.apply #map96()[%block_id_y, %block_id_x, %7, %thread_id_x]
        %704 = arith.cmpi slt, %703, %576 : index
        %705 = arith.andi %574, %704 : i1
        %706 = affine.apply #map97()[%thread_id_x]
        %707 = arith.muli %706, %c4096 overflow<nsw> : index
        %708 = arith.addi %707, %365 overflow<nsw> : index
        %709 = arith.select %705, %708, %c536870911 : index
        vector.store %702, %588[%709] : memref<?xf32, #amdgpu.address_space<fat_raw_buffer>>, vector<1xf32>
        return
      }
    }
  }
  func.func @isolated_benchmark(%arg0: tensor<641x2880xf16>, %arg1: tensor<4096x2880xf16>, %arg2: tensor<641x4096xf32>) -> tensor<641x4096xf32> {
    %0 = flow.dispatch @gemm::@gemm(%arg0, %arg1, %arg2) : (tensor<641x2880xf16>, tensor<4096x2880xf16>, tensor<641x4096xf32>) -> %arg2
    return %0 : tensor<641x4096xf32>
  }
}
