#map = affine_map<()[s0] -> (s0 mod 8)>
#map1 = affine_map<()[s0, s1, s2, s3] -> (s1 * 128 + s3 * 328 + s0 floordiv 2 - ((s1 * 128 + s0 floordiv 2) floordiv 328) * 328 + (s2 floordiv 8) * 328)>
#map2 = affine_map<()[s0] -> (s0 * 8 - (s0 floordiv 2) * 16)>
#map3 = affine_map<()[s0, s1, s2, s3] -> (s1 * 128 + s3 * 328 + s0 floordiv 2 - ((s1 * 128 + s0 floordiv 2 + 256) floordiv 328) * 328 + (s2 floordiv 8) * 328 + 256)>
#map4 = affine_map<()[s0, s1] -> ((s1 * 128 + s0 floordiv 2) mod 1024)>
#map5 = affine_map<()[s0, s1] -> (s1 * 128 + s0 floordiv 2 - ((s1 * 128 + s0 floordiv 2 + 256) floordiv 1024) * 1024 + 256)>
#map6 = affine_map<()[s0, s1] -> (s1 * 128 + s0 floordiv 2 - ((s1 * 128 + s0 floordiv 2 + 512) floordiv 1024) * 1024 + 512)>
#map7 = affine_map<()[s0, s1] -> (s1 * 128 + s0 floordiv 2 - ((s1 * 128 + s0 floordiv 2 + 768) floordiv 1024) * 1024 + 768)>
#map8 = affine_map<()[s0] -> ((s0 floordiv 64) * 82 + 82)>
#map9 = affine_map<()[s0, s1] -> ((s1 * 128 + s0 floordiv 2) mod 328)>
#map10 = affine_map<()[s0, s1] -> (s1 * 128 + s0 floordiv 2 - ((s1 * 128 + s0 floordiv 2 + 256) floordiv 328) * 328 + 256)>
#map11 = affine_map<()[s0, s1] -> (s0 + s1 * 512 - (s0 floordiv 16) * 16)>
#map12 = affine_map<()[s0] -> (((s0 mod 64) floordiv 16) * 4)>
#map13 = affine_map<()[s0, s1] -> (s0 + s1 * 512 - (s0 floordiv 16) * 16 + 16)>
#map14 = affine_map<()[s0, s1] -> (s0 + s1 * 512 - (s0 floordiv 16) * 16 + 32)>
#map15 = affine_map<()[s0, s1] -> (s0 + s1 * 512 - (s0 floordiv 16) * 16 + 48)>
#map16 = affine_map<()[s0, s1] -> (s0 + s1 * 512 - (s0 floordiv 16) * 16 + 64)>
#map17 = affine_map<()[s0, s1] -> (s0 + s1 * 512 - (s0 floordiv 16) * 16 + 80)>
#map18 = affine_map<()[s0, s1] -> (s0 + s1 * 512 - (s0 floordiv 16) * 16 + 96)>
#map19 = affine_map<()[s0, s1] -> (s0 + s1 * 512 - (s0 floordiv 16) * 16 + 112)>
#map20 = affine_map<()[s0, s1] -> (s0 + s1 * 512 - (s0 floordiv 16) * 16 + 128)>
#map21 = affine_map<()[s0, s1] -> (s0 + s1 * 512 - (s0 floordiv 16) * 16 + 144)>
#map22 = affine_map<()[s0, s1] -> (s0 + s1 * 512 - (s0 floordiv 16) * 16 + 160)>
#map23 = affine_map<()[s0, s1] -> (s0 + s1 * 512 - (s0 floordiv 16) * 16 + 176)>
#map24 = affine_map<()[s0, s1] -> (s0 + s1 * 512 - (s0 floordiv 16) * 16 + 192)>
#map25 = affine_map<()[s0, s1] -> (s0 + s1 * 512 - (s0 floordiv 16) * 16 + 208)>
#map26 = affine_map<()[s0, s1] -> (s0 + s1 * 512 - (s0 floordiv 16) * 16 + 224)>
#map27 = affine_map<()[s0, s1] -> (s0 + s1 * 512 - (s0 floordiv 16) * 16 + 240)>
#map28 = affine_map<()[s0, s1] -> (s0 + s1 * 512 - (s0 floordiv 16) * 16 + 256)>
#map29 = affine_map<()[s0, s1] -> (s0 + s1 * 512 - (s0 floordiv 16) * 16 + 272)>
#map30 = affine_map<()[s0, s1] -> (s0 + s1 * 512 - (s0 floordiv 16) * 16 + 288)>
#map31 = affine_map<()[s0, s1] -> (s0 + s1 * 512 - (s0 floordiv 16) * 16 + 304)>
#map32 = affine_map<()[s0, s1] -> (s0 + s1 * 512 - (s0 floordiv 16) * 16 + 320)>
#map33 = affine_map<()[s0, s1] -> (s0 + s1 * 512 - (s0 floordiv 16) * 16 + 336)>
#map34 = affine_map<()[s0, s1] -> (s0 + s1 * 512 - (s0 floordiv 16) * 16 + 352)>
#map35 = affine_map<()[s0, s1] -> (s0 + s1 * 512 - (s0 floordiv 16) * 16 + 368)>
#map36 = affine_map<()[s0, s1] -> (s0 + s1 * 512 - (s0 floordiv 16) * 16 + 384)>
#map37 = affine_map<()[s0, s1] -> (s0 + s1 * 512 - (s0 floordiv 16) * 16 + 400)>
#map38 = affine_map<()[s0, s1] -> (s0 + s1 * 512 - (s0 floordiv 16) * 16 + 416)>
#map39 = affine_map<()[s0, s1] -> (s0 + s1 * 512 - (s0 floordiv 16) * 16 + 432)>
#map40 = affine_map<()[s0, s1] -> (s0 + s1 * 512 - (s0 floordiv 16) * 16 + 448)>
#map41 = affine_map<()[s0, s1] -> (s0 + s1 * 512 - (s0 floordiv 16) * 16 + 464)>
#map42 = affine_map<()[s0, s1] -> (s0 + s1 * 512 - (s0 floordiv 16) * 16 + 480)>
#map43 = affine_map<()[s0, s1] -> (s0 + s1 * 512 - (s0 floordiv 16) * 16 + 496)>
#map44 = affine_map<()[s0] -> (s0 mod 16 + (s0 floordiv 64) * 82)>
#map45 = affine_map<()[s0] -> (s0 mod 16 + (s0 floordiv 64) * 82 + 16)>
#map46 = affine_map<()[s0] -> (s0 mod 16 + (s0 floordiv 64) * 82 + 32)>
#map47 = affine_map<()[s0] -> (s0 mod 16 + (s0 floordiv 64) * 82 + 48)>
#map48 = affine_map<()[s0] -> (s0 mod 16 + (s0 floordiv 64) * 82 + 64)>
#map49 = affine_map<()[s0] -> (s0 mod 16 + (s0 floordiv 64) * 82 + 80)>
#map50 = affine_map<()[s0, s1] -> (s0 * 16 + s1 * 8 - (s1 floordiv 2) * 16 + 16)>
#map51 = affine_map<()[s0, s1] -> (s0 * 328 + (s1 floordiv 64) * 82 + 82)>
#map52 = affine_map<()[s0] -> (s0 * 328 + 328)>
#map53 = affine_map<()[s0, s1, s2] -> (s1 * 328 + (s0 floordiv 8) * 328 + (s2 floordiv 64) * 82 + ((s2 mod 64) floordiv 16) * 4)>
#map54 = affine_map<()[s0, s1] -> (s1 * 328 + (s0 floordiv 8) * 328)>
#map55 = affine_map<()[s0] -> ((s0 floordiv 64) * 82 + ((s0 mod 64) floordiv 16) * 4)>
#map56 = affine_map<()[s0, s1, s2] -> (s1 * 328 + (s0 floordiv 8) * 328 + (s2 floordiv 64) * 82 + ((s2 mod 64) floordiv 16) * 4 + 1)>
#map57 = affine_map<()[s0] -> ((s0 floordiv 64) * 82 + ((s0 mod 64) floordiv 16) * 4 + 1)>
#map58 = affine_map<()[s0, s1, s2] -> (s1 * 328 + (s0 floordiv 8) * 328 + (s2 floordiv 64) * 82 + ((s2 mod 64) floordiv 16) * 4 + 2)>
#map59 = affine_map<()[s0] -> ((s0 floordiv 64) * 82 + ((s0 mod 64) floordiv 16) * 4 + 2)>
#map60 = affine_map<()[s0, s1, s2] -> (s1 * 328 + (s0 floordiv 8) * 328 + (s2 floordiv 64) * 82 + ((s2 mod 64) floordiv 16) * 4 + 3)>
#map61 = affine_map<()[s0] -> ((s0 floordiv 64) * 82 + ((s0 mod 64) floordiv 16) * 4 + 3)>
#map62 = affine_map<()[s0, s1, s2] -> (s1 * 328 + (s0 floordiv 8) * 328 + (s2 floordiv 64) * 82 + ((s2 mod 64) floordiv 16) * 4 + 16)>
#map63 = affine_map<()[s0] -> ((s0 floordiv 64) * 82 + ((s0 mod 64) floordiv 16) * 4 + 16)>
#map64 = affine_map<()[s0, s1, s2] -> (s1 * 328 + (s0 floordiv 8) * 328 + (s2 floordiv 64) * 82 + ((s2 mod 64) floordiv 16) * 4 + 17)>
#map65 = affine_map<()[s0] -> ((s0 floordiv 64) * 82 + ((s0 mod 64) floordiv 16) * 4 + 17)>
#map66 = affine_map<()[s0, s1, s2] -> (s1 * 328 + (s0 floordiv 8) * 328 + (s2 floordiv 64) * 82 + ((s2 mod 64) floordiv 16) * 4 + 18)>
#map67 = affine_map<()[s0] -> ((s0 floordiv 64) * 82 + ((s0 mod 64) floordiv 16) * 4 + 18)>
#map68 = affine_map<()[s0, s1, s2] -> (s1 * 328 + (s0 floordiv 8) * 328 + (s2 floordiv 64) * 82 + ((s2 mod 64) floordiv 16) * 4 + 19)>
#map69 = affine_map<()[s0] -> ((s0 floordiv 64) * 82 + ((s0 mod 64) floordiv 16) * 4 + 19)>
#map70 = affine_map<()[s0, s1, s2] -> (s1 * 328 + (s0 floordiv 8) * 328 + (s2 floordiv 64) * 82 + ((s2 mod 64) floordiv 16) * 4 + 32)>
#map71 = affine_map<()[s0] -> ((s0 floordiv 64) * 82 + ((s0 mod 64) floordiv 16) * 4 + 32)>
#map72 = affine_map<()[s0, s1, s2] -> (s1 * 328 + (s0 floordiv 8) * 328 + (s2 floordiv 64) * 82 + ((s2 mod 64) floordiv 16) * 4 + 33)>
#map73 = affine_map<()[s0] -> ((s0 floordiv 64) * 82 + ((s0 mod 64) floordiv 16) * 4 + 33)>
#map74 = affine_map<()[s0, s1, s2] -> (s1 * 328 + (s0 floordiv 8) * 328 + (s2 floordiv 64) * 82 + ((s2 mod 64) floordiv 16) * 4 + 34)>
#map75 = affine_map<()[s0] -> ((s0 floordiv 64) * 82 + ((s0 mod 64) floordiv 16) * 4 + 34)>
#map76 = affine_map<()[s0, s1, s2] -> (s1 * 328 + (s0 floordiv 8) * 328 + (s2 floordiv 64) * 82 + ((s2 mod 64) floordiv 16) * 4 + 35)>
#map77 = affine_map<()[s0] -> ((s0 floordiv 64) * 82 + ((s0 mod 64) floordiv 16) * 4 + 35)>
#map78 = affine_map<()[s0, s1, s2] -> (s1 * 328 + (s0 floordiv 8) * 328 + (s2 floordiv 64) * 82 + ((s2 mod 64) floordiv 16) * 4 + 48)>
#map79 = affine_map<()[s0] -> ((s0 floordiv 64) * 82 + ((s0 mod 64) floordiv 16) * 4 + 48)>
#map80 = affine_map<()[s0, s1, s2] -> (s1 * 328 + (s0 floordiv 8) * 328 + (s2 floordiv 64) * 82 + ((s2 mod 64) floordiv 16) * 4 + 49)>
#map81 = affine_map<()[s0] -> ((s0 floordiv 64) * 82 + ((s0 mod 64) floordiv 16) * 4 + 49)>
#map82 = affine_map<()[s0, s1, s2] -> (s1 * 328 + (s0 floordiv 8) * 328 + (s2 floordiv 64) * 82 + ((s2 mod 64) floordiv 16) * 4 + 50)>
#map83 = affine_map<()[s0] -> ((s0 floordiv 64) * 82 + ((s0 mod 64) floordiv 16) * 4 + 50)>
#map84 = affine_map<()[s0, s1, s2] -> (s1 * 328 + (s0 floordiv 8) * 328 + (s2 floordiv 64) * 82 + ((s2 mod 64) floordiv 16) * 4 + 51)>
#map85 = affine_map<()[s0] -> ((s0 floordiv 64) * 82 + ((s0 mod 64) floordiv 16) * 4 + 51)>
#map86 = affine_map<()[s0, s1, s2] -> (s1 * 328 + (s0 floordiv 8) * 328 + (s2 floordiv 64) * 82 + ((s2 mod 64) floordiv 16) * 4 + 64)>
#map87 = affine_map<()[s0] -> ((s0 floordiv 64) * 82 + ((s0 mod 64) floordiv 16) * 4 + 64)>
#map88 = affine_map<()[s0, s1, s2] -> (s1 * 328 + (s0 floordiv 8) * 328 + (s2 floordiv 64) * 82 + ((s2 mod 64) floordiv 16) * 4 + 65)>
#map89 = affine_map<()[s0] -> ((s0 floordiv 64) * 82 + ((s0 mod 64) floordiv 16) * 4 + 65)>
#map90 = affine_map<()[s0, s1, s2] -> (s1 * 328 + (s0 floordiv 8) * 328 + (s2 floordiv 64) * 82 + ((s2 mod 64) floordiv 16) * 4 + 66)>
#map91 = affine_map<()[s0] -> ((s0 floordiv 64) * 82 + ((s0 mod 64) floordiv 16) * 4 + 66)>
#map92 = affine_map<()[s0, s1, s2] -> (s1 * 328 + (s0 floordiv 8) * 328 + (s2 floordiv 64) * 82 + ((s2 mod 64) floordiv 16) * 4 + 67)>
#map93 = affine_map<()[s0] -> ((s0 floordiv 64) * 82 + ((s0 mod 64) floordiv 16) * 4 + 67)>
#map94 = affine_map<()[s0, s1, s2] -> (s1 * 328 + (s0 floordiv 8) * 328 + (s2 floordiv 64) * 82 + ((s2 mod 64) floordiv 16) * 4 + 80)>
#map95 = affine_map<()[s0] -> ((s0 floordiv 64) * 82 + ((s0 mod 64) floordiv 16) * 4 + 80)>
#map96 = affine_map<()[s0, s1, s2] -> (s1 * 328 + (s0 floordiv 8) * 328 + (s2 floordiv 64) * 82 + ((s2 mod 64) floordiv 16) * 4 + 81)>
#map97 = affine_map<()[s0] -> ((s0 floordiv 64) * 82 + ((s0 mod 64) floordiv 16) * 4 + 81)>
#map98 = affine_map<()[s0, s1, s2] -> (s1 * 328 + (s0 floordiv 8) * 328 + (s2 floordiv 64) * 82 + ((s2 mod 64) floordiv 16) * 4 + 82)>
#map99 = affine_map<()[s0] -> ((s0 floordiv 64) * 82 + ((s0 mod 64) floordiv 16) * 4 + 82)>
#map100 = affine_map<()[s0, s1, s2] -> (s1 * 328 + (s0 floordiv 8) * 328 + (s2 floordiv 64) * 82 + ((s2 mod 64) floordiv 16) * 4 + 83)>
#map101 = affine_map<()[s0] -> ((s0 floordiv 64) * 82 + ((s0 mod 64) floordiv 16) * 4 + 83)>
#translation = #iree_codegen.translation_info<pipeline = None workgroup_size = [256, 2, 1] subgroup_size = 64>
module attributes {transform.with_named_sequence} {
  stream.executable private @gemm {
    stream.executable.export public @gemm workgroups() -> (index, index, index) {
      %c2 = arith.constant 2 : index
      %c1 = arith.constant 1 : index
      stream.return %c2, %c1, %c1 : index, index, index
    }
    builtin.module {
      func.func @gemm(%arg0: !stream.binding, %arg1: !stream.binding, %arg2: !stream.binding) attributes {translation_info = #translation} {
        %c1024_i14 = arith.constant 1024 : i14
        %cst = arith.constant dense<0.000000e+00> : vector<4xf16>
        %cst_0 = arith.constant dense<[0, 1, 2, 3, 4, 5, 6, 7]> : vector<8xi32>
        %cst_1 = arith.constant dense<1073741823> : vector<8xindex>
        %c4096_i14 = arith.constant 4096 : i14
        %c536870911 = arith.constant 536870911 : index
        %c2147483643_i32 = arith.constant 2147483643 : i32
        %c536870910 = arith.constant 536870910 : index
        %c255 = arith.constant 255 : index
        %c1024 = arith.constant 1024 : index
        %c2147483645_i32 = arith.constant 2147483645 : i32
        %c1073741822 = arith.constant 1073741822 : index
        %c4096 = arith.constant 4096 : index
        %c642 = arith.constant 642 : index
        %c1 = arith.constant 1 : index
        %c2 = arith.constant 2 : index
        %c328 = arith.constant 328 : index
        %c40960 = arith.constant 40960 : index
        %c0 = arith.constant 0 : index
        %cst_2 = arith.constant dense<0.000000e+00> : vector<4xf32>
        %block_id_x = gpu.block_id  x upper_bound 2
        %thread_id_x = gpu.thread_id  x upper_bound 256
        %thread_id_y = gpu.thread_id  y upper_bound 2
        %alloc = memref.alloc() : memref<54080xi8, #gpu.address_space<workgroup>>
        %view = memref.view %alloc[%c0][] : memref<54080xi8, #gpu.address_space<workgroup>> to memref<1024x20xf16, #gpu.address_space<workgroup>>
        %view_3 = memref.view %alloc[%c40960][] : memref<54080xi8, #gpu.address_space<workgroup>> to memref<328x20xf16, #gpu.address_space<workgroup>>
        %0 = stream.binding.subspan %arg0[%c0] : !stream.binding -> memref<642x4096xf16, strided<[4096, 1], offset: ?>>
        %1 = affine.apply #map()[%block_id_x]
        %2 = arith.minsi %1, %c2 : index
        %3 = affine.apply #map1()[%thread_id_x, %thread_id_y, %block_id_x, %2]
        %4 = arith.cmpi slt, %3, %c642 : index
        %5 = vector.broadcast %4 : i1 to vector<8xi1>
        %6 = affine.apply #map2()[%thread_id_x]
        %7 = arith.muli %3, %c4096 overflow<nsw> : index
        %8 = arith.addi %7, %6 overflow<nsw> : index
        %base_buffer, %offset, %sizes:2, %strides:2 = memref.extract_strided_metadata %0 : memref<642x4096xf16, strided<[4096, 1], offset: ?>> -> memref<f16>, index, index, index, index, index
        %reinterpret_cast = memref.reinterpret_cast %0 to offset: [%offset], sizes: [%c1073741822], strides: [1] : memref<642x4096xf16, strided<[4096, 1], offset: ?>> to memref<?xf16, strided<[1], offset: ?>>
        %9 = amdgpu.fat_raw_buffer_cast %reinterpret_cast validBytes(%c2147483645_i32) cacheSwizzleStride(%c4096_i14) resetOffset : memref<?xf16, strided<[1], offset: ?>> to memref<?xf16, #amdgpu.address_space<fat_raw_buffer>>
        %10 = arith.index_cast %8 : index to i32
        %11 = vector.broadcast %10 : i32 to vector<8xi32>
        %12 = arith.addi %11, %cst_0 : vector<8xi32>
        %13 = arith.index_cast %12 : vector<8xi32> to vector<8xindex>
        %14 = arith.select %5, %13, %cst_1 : vector<8xi1>, vector<8xindex>
        %15 = vector.extract %14[0] : index from vector<8xindex>
        %16 = vector.load %9[%15] : memref<?xf16, #amdgpu.address_space<fat_raw_buffer>>, vector<8xf16>
        %17 = affine.apply #map3()[%thread_id_x, %thread_id_y, %block_id_x, %2]
        %18 = arith.cmpi slt, %17, %c642 : index
        %19 = vector.broadcast %18 : i1 to vector<8xi1>
        %20 = arith.muli %17, %c4096 overflow<nsw> : index
        %21 = arith.addi %20, %6 overflow<nsw> : index
        %22 = arith.index_cast %21 : index to i32
        %23 = vector.broadcast %22 : i32 to vector<8xi32>
        %24 = arith.addi %23, %cst_0 : vector<8xi32>
        %25 = arith.index_cast %24 : vector<8xi32> to vector<8xindex>
        %26 = arith.select %19, %25, %cst_1 : vector<8xi1>, vector<8xindex>
        %27 = vector.extract %26[0] : index from vector<8xindex>
        %28 = vector.load %9[%27] : memref<?xf16, #amdgpu.address_space<fat_raw_buffer>>, vector<8xf16>
        %29 = stream.binding.subspan %arg1[%c0] : !stream.binding -> memref<1024x4096xf16, strided<[4096, 1], offset: ?>>
        %30 = affine.apply #map4()[%thread_id_x, %thread_id_y]
        %31 = arith.muli %30, %c4096 overflow<nsw> : index
        %32 = arith.addi %31, %6 overflow<nsw> : index
        %base_buffer_4, %offset_5, %sizes_6:2, %strides_7:2 = memref.extract_strided_metadata %29 : memref<1024x4096xf16, strided<[4096, 1], offset: ?>> -> memref<f16>, index, index, index, index, index
        %reinterpret_cast_8 = memref.reinterpret_cast %29 to offset: [%offset_5], sizes: [%c1073741822], strides: [1] : memref<1024x4096xf16, strided<[4096, 1], offset: ?>> to memref<?xf16, strided<[1], offset: ?>>
        %33 = amdgpu.fat_raw_buffer_cast %reinterpret_cast_8 validBytes(%c2147483645_i32) cacheSwizzleStride(%c4096_i14) resetOffset : memref<?xf16, strided<[1], offset: ?>> to memref<?xf16, #amdgpu.address_space<fat_raw_buffer>>
        %34 = vector.load %33[%32] : memref<?xf16, #amdgpu.address_space<fat_raw_buffer>>, vector<8xf16>
        %35 = affine.apply #map5()[%thread_id_x, %thread_id_y]
        %36 = arith.muli %35, %c4096 overflow<nsw> : index
        %37 = arith.addi %36, %6 overflow<nsw> : index
        %38 = vector.load %33[%37] : memref<?xf16, #amdgpu.address_space<fat_raw_buffer>>, vector<8xf16>
        %39 = affine.apply #map6()[%thread_id_x, %thread_id_y]
        %40 = arith.muli %39, %c4096 overflow<nsw> : index
        %41 = arith.addi %40, %6 overflow<nsw> : index
        %42 = vector.load %33[%41] : memref<?xf16, #amdgpu.address_space<fat_raw_buffer>>, vector<8xf16>
        %43 = affine.apply #map7()[%thread_id_x, %thread_id_y]
        %44 = arith.muli %43, %c4096 overflow<nsw> : index
        %45 = arith.addi %44, %6 overflow<nsw> : index
        %46 = vector.load %33[%45] : memref<?xf16, #amdgpu.address_space<fat_raw_buffer>>, vector<8xf16>
        %47 = affine.apply #map8()[%thread_id_x]
        %48 = arith.minsi %47, %c328 : index
        %49 = affine.apply #map9()[%thread_id_x, %thread_id_y]
        %50 = arith.cmpi slt, %49, %48 : index
        %51 = vector.broadcast %50 : i1 to vector<8xi1>
        vector.maskedstore %view_3[%49, %6], %51, %16 : memref<328x20xf16, #gpu.address_space<workgroup>>, vector<8xi1>, vector<8xf16>
        %52 = affine.apply #map10()[%thread_id_x, %thread_id_y]
        %53 = arith.cmpi slt, %52, %48 : index
        %54 = vector.broadcast %53 : i1 to vector<8xi1>
        vector.maskedstore %view_3[%52, %6], %54, %28 : memref<328x20xf16, #gpu.address_space<workgroup>>, vector<8xi1>, vector<8xf16>
        vector.store %34, %view[%30, %6] : memref<1024x20xf16, #gpu.address_space<workgroup>>, vector<8xf16>
        vector.store %38, %view[%35, %6] : memref<1024x20xf16, #gpu.address_space<workgroup>>, vector<8xf16>
        vector.store %42, %view[%39, %6] : memref<1024x20xf16, #gpu.address_space<workgroup>>, vector<8xf16>
        vector.store %46, %view[%43, %6] : memref<1024x20xf16, #gpu.address_space<workgroup>>, vector<8xf16>
        %55 = affine.apply #map11()[%thread_id_x, %thread_id_y]
        %56 = affine.apply #map12()[%thread_id_x]
        %57 = affine.apply #map13()[%thread_id_x, %thread_id_y]
        %58 = affine.apply #map14()[%thread_id_x, %thread_id_y]
        %59 = affine.apply #map15()[%thread_id_x, %thread_id_y]
        %60 = affine.apply #map16()[%thread_id_x, %thread_id_y]
        %61 = affine.apply #map17()[%thread_id_x, %thread_id_y]
        %62 = affine.apply #map18()[%thread_id_x, %thread_id_y]
        %63 = affine.apply #map19()[%thread_id_x, %thread_id_y]
        %64 = affine.apply #map20()[%thread_id_x, %thread_id_y]
        %65 = affine.apply #map21()[%thread_id_x, %thread_id_y]
        %66 = affine.apply #map22()[%thread_id_x, %thread_id_y]
        %67 = affine.apply #map23()[%thread_id_x, %thread_id_y]
        %68 = affine.apply #map24()[%thread_id_x, %thread_id_y]
        %69 = affine.apply #map25()[%thread_id_x, %thread_id_y]
        %70 = affine.apply #map26()[%thread_id_x, %thread_id_y]
        %71 = affine.apply #map27()[%thread_id_x, %thread_id_y]
        %72 = affine.apply #map28()[%thread_id_x, %thread_id_y]
        %73 = affine.apply #map29()[%thread_id_x, %thread_id_y]
        %74 = affine.apply #map30()[%thread_id_x, %thread_id_y]
        %75 = affine.apply #map31()[%thread_id_x, %thread_id_y]
        %76 = affine.apply #map32()[%thread_id_x, %thread_id_y]
        %77 = affine.apply #map33()[%thread_id_x, %thread_id_y]
        %78 = affine.apply #map34()[%thread_id_x, %thread_id_y]
        %79 = affine.apply #map35()[%thread_id_x, %thread_id_y]
        %80 = affine.apply #map36()[%thread_id_x, %thread_id_y]
        %81 = affine.apply #map37()[%thread_id_x, %thread_id_y]
        %82 = affine.apply #map38()[%thread_id_x, %thread_id_y]
        %83 = affine.apply #map39()[%thread_id_x, %thread_id_y]
        %84 = affine.apply #map40()[%thread_id_x, %thread_id_y]
        %85 = affine.apply #map41()[%thread_id_x, %thread_id_y]
        %86 = affine.apply #map42()[%thread_id_x, %thread_id_y]
        %87 = affine.apply #map43()[%thread_id_x, %thread_id_y]
        %88 = affine.apply #map44()[%thread_id_x]
        %89 = arith.cmpi slt, %88, %48 : index
        %90 = vector.broadcast %89 : i1 to vector<4xi1>
        %91 = affine.apply #map45()[%thread_id_x]
        %92 = arith.cmpi slt, %91, %48 : index
        %93 = vector.broadcast %92 : i1 to vector<4xi1>
        %94 = affine.apply #map46()[%thread_id_x]
        %95 = arith.cmpi slt, %94, %48 : index
        %96 = vector.broadcast %95 : i1 to vector<4xi1>
        %97 = affine.apply #map47()[%thread_id_x]
        %98 = arith.cmpi slt, %97, %48 : index
        %99 = vector.broadcast %98 : i1 to vector<4xi1>
        %100 = affine.apply #map48()[%thread_id_x]
        %101 = arith.cmpi slt, %100, %48 : index
        %102 = vector.broadcast %101 : i1 to vector<4xi1>
        %103 = affine.apply #map49()[%thread_id_x]
        %104 = arith.cmpi slt, %103, %48 : index
        %105 = vector.broadcast %104 : i1 to vector<4xi1>
        %106:192 = scf.for %arg3 = %c0 to %c255 step %c1 iter_args(%arg4 = %cst_2, %arg5 = %cst_2, %arg6 = %cst_2, %arg7 = %cst_2, %arg8 = %cst_2, %arg9 = %cst_2, %arg10 = %cst_2, %arg11 = %cst_2, %arg12 = %cst_2, %arg13 = %cst_2, %arg14 = %cst_2, %arg15 = %cst_2, %arg16 = %cst_2, %arg17 = %cst_2, %arg18 = %cst_2, %arg19 = %cst_2, %arg20 = %cst_2, %arg21 = %cst_2, %arg22 = %cst_2, %arg23 = %cst_2, %arg24 = %cst_2, %arg25 = %cst_2, %arg26 = %cst_2, %arg27 = %cst_2, %arg28 = %cst_2, %arg29 = %cst_2, %arg30 = %cst_2, %arg31 = %cst_2, %arg32 = %cst_2, %arg33 = %cst_2, %arg34 = %cst_2, %arg35 = %cst_2, %arg36 = %cst_2, %arg37 = %cst_2, %arg38 = %cst_2, %arg39 = %cst_2, %arg40 = %cst_2, %arg41 = %cst_2, %arg42 = %cst_2, %arg43 = %cst_2, %arg44 = %cst_2, %arg45 = %cst_2, %arg46 = %cst_2, %arg47 = %cst_2, %arg48 = %cst_2, %arg49 = %cst_2, %arg50 = %cst_2, %arg51 = %cst_2, %arg52 = %cst_2, %arg53 = %cst_2, %arg54 = %cst_2, %arg55 = %cst_2, %arg56 = %cst_2, %arg57 = %cst_2, %arg58 = %cst_2, %arg59 = %cst_2, %arg60 = %cst_2, %arg61 = %cst_2, %arg62 = %cst_2, %arg63 = %cst_2, %arg64 = %cst_2, %arg65 = %cst_2, %arg66 = %cst_2, %arg67 = %cst_2, %arg68 = %cst_2, %arg69 = %cst_2, %arg70 = %cst_2, %arg71 = %cst_2, %arg72 = %cst_2, %arg73 = %cst_2, %arg74 = %cst_2, %arg75 = %cst_2, %arg76 = %cst_2, %arg77 = %cst_2, %arg78 = %cst_2, %arg79 = %cst_2, %arg80 = %cst_2, %arg81 = %cst_2, %arg82 = %cst_2, %arg83 = %cst_2, %arg84 = %cst_2, %arg85 = %cst_2, %arg86 = %cst_2, %arg87 = %cst_2, %arg88 = %cst_2, %arg89 = %cst_2, %arg90 = %cst_2, %arg91 = %cst_2, %arg92 = %cst_2, %arg93 = %cst_2, %arg94 = %cst_2, %arg95 = %cst_2, %arg96 = %cst_2, %arg97 = %cst_2, %arg98 = %cst_2, %arg99 = %cst_2, %arg100 = %cst_2, %arg101 = %cst_2, %arg102 = %cst_2, %arg103 = %cst_2, %arg104 = %cst_2, %arg105 = %cst_2, %arg106 = %cst_2, %arg107 = %cst_2, %arg108 = %cst_2, %arg109 = %cst_2, %arg110 = %cst_2, %arg111 = %cst_2, %arg112 = %cst_2, %arg113 = %cst_2, %arg114 = %cst_2, %arg115 = %cst_2, %arg116 = %cst_2, %arg117 = %cst_2, %arg118 = %cst_2, %arg119 = %cst_2, %arg120 = %cst_2, %arg121 = %cst_2, %arg122 = %cst_2, %arg123 = %cst_2, %arg124 = %cst_2, %arg125 = %cst_2, %arg126 = %cst_2, %arg127 = %cst_2, %arg128 = %cst_2, %arg129 = %cst_2, %arg130 = %cst_2, %arg131 = %cst_2, %arg132 = %cst_2, %arg133 = %cst_2, %arg134 = %cst_2, %arg135 = %cst_2, %arg136 = %cst_2, %arg137 = %cst_2, %arg138 = %cst_2, %arg139 = %cst_2, %arg140 = %cst_2, %arg141 = %cst_2, %arg142 = %cst_2, %arg143 = %cst_2, %arg144 = %cst_2, %arg145 = %cst_2, %arg146 = %cst_2, %arg147 = %cst_2, %arg148 = %cst_2, %arg149 = %cst_2, %arg150 = %cst_2, %arg151 = %cst_2, %arg152 = %cst_2, %arg153 = %cst_2, %arg154 = %cst_2, %arg155 = %cst_2, %arg156 = %cst_2, %arg157 = %cst_2, %arg158 = %cst_2, %arg159 = %cst_2, %arg160 = %cst_2, %arg161 = %cst_2, %arg162 = %cst_2, %arg163 = %cst_2, %arg164 = %cst_2, %arg165 = %cst_2, %arg166 = %cst_2, %arg167 = %cst_2, %arg168 = %cst_2, %arg169 = %cst_2, %arg170 = %cst_2, %arg171 = %cst_2, %arg172 = %cst_2, %arg173 = %cst_2, %arg174 = %cst_2, %arg175 = %cst_2, %arg176 = %cst_2, %arg177 = %cst_2, %arg178 = %cst_2, %arg179 = %cst_2, %arg180 = %cst_2, %arg181 = %cst_2, %arg182 = %cst_2, %arg183 = %cst_2, %arg184 = %cst_2, %arg185 = %cst_2, %arg186 = %cst_2, %arg187 = %cst_2, %arg188 = %cst_2, %arg189 = %cst_2, %arg190 = %cst_2, %arg191 = %cst_2, %arg192 = %cst_2, %arg193 = %cst_2, %arg194 = %cst_2, %arg195 = %cst_2) -> (vector<4xf32>, vector<4xf32>, vector<4xf32>, vector<4xf32>, vector<4xf32>, vector<4xf32>, vector<4xf32>, vector<4xf32>, vector<4xf32>, vector<4xf32>, vector<4xf32>, vector<4xf32>, vector<4xf32>, vector<4xf32>, vector<4xf32>, vector<4xf32>, vector<4xf32>, vector<4xf32>, vector<4xf32>, vector<4xf32>, vector<4xf32>, vector<4xf32>, vector<4xf32>, vector<4xf32>, vector<4xf32>, vector<4xf32>, vector<4xf32>, vector<4xf32>, vector<4xf32>, vector<4xf32>, vector<4xf32>, vector<4xf32>, vector<4xf32>, vector<4xf32>, vector<4xf32>, vector<4xf32>, vector<4xf32>, vector<4xf32>, vector<4xf32>, vector<4xf32>, vector<4xf32>, vector<4xf32>, vector<4xf32>, vector<4xf32>, vector<4xf32>, vector<4xf32>, vector<4xf32>, vector<4xf32>, vector<4xf32>, vector<4xf32>, vector<4xf32>, vector<4xf32>, vector<4xf32>, vector<4xf32>, vector<4xf32>, vector<4xf32>, vector<4xf32>, vector<4xf32>, vector<4xf32>, vector<4xf32>, vector<4xf32>, vector<4xf32>, vector<4xf32>, vector<4xf32>, vector<4xf32>, vector<4xf32>, vector<4xf32>, vector<4xf32>, vector<4xf32>, vector<4xf32>, vector<4xf32>, vector<4xf32>, vector<4xf32>, vector<4xf32>, vector<4xf32>, vector<4xf32>, vector<4xf32>, vector<4xf32>, vector<4xf32>, vector<4xf32>, vector<4xf32>, vector<4xf32>, vector<4xf32>, vector<4xf32>, vector<4xf32>, vector<4xf32>, vector<4xf32>, vector<4xf32>, vector<4xf32>, vector<4xf32>, vector<4xf32>, vector<4xf32>, vector<4xf32>, vector<4xf32>, vector<4xf32>, vector<4xf32>, vector<4xf32>, vector<4xf32>, vector<4xf32>, vector<4xf32>, vector<4xf32>, vector<4xf32>, vector<4xf32>, vector<4xf32>, vector<4xf32>, vector<4xf32>, vector<4xf32>, vector<4xf32>, vector<4xf32>, vector<4xf32>, vector<4xf32>, vector<4xf32>, vector<4xf32>, vector<4xf32>, vector<4xf32>, vector<4xf32>, vector<4xf32>, vector<4xf32>, vector<4xf32>, vector<4xf32>, vector<4xf32>, vector<4xf32>, vector<4xf32>, vector<4xf32>, vector<4xf32>, vector<4xf32>, vector<4xf32>, vector<4xf32>, vector<4xf32>, vector<4xf32>, vector<4xf32>, vector<4xf32>, vector<4xf32>, vector<4xf32>, vector<4xf32>, vector<4xf32>, vector<4xf32>, vector<4xf32>, vector<4xf32>, vector<4xf32>, vector<4xf32>, vector<4xf32>, vector<4xf32>, vector<4xf32>, vector<4xf32>, vector<4xf32>, vector<4xf32>, vector<4xf32>, vector<4xf32>, vector<4xf32>, vector<4xf32>, vector<4xf32>, vector<4xf32>, vector<4xf32>, vector<4xf32>, vector<4xf32>, vector<4xf32>, vector<4xf32>, vector<4xf32>, vector<4xf32>, vector<4xf32>, vector<4xf32>, vector<4xf32>, vector<4xf32>, vector<4xf32>, vector<4xf32>, vector<4xf32>, vector<4xf32>, vector<4xf32>, vector<4xf32>, vector<4xf32>, vector<4xf32>, vector<4xf32>, vector<4xf32>, vector<4xf32>, vector<4xf32>, vector<4xf32>, vector<4xf32>, vector<4xf32>, vector<4xf32>, vector<4xf32>, vector<4xf32>, vector<4xf32>, vector<4xf32>, vector<4xf32>, vector<4xf32>, vector<4xf32>, vector<4xf32>, vector<4xf32>, vector<4xf32>, vector<4xf32>, vector<4xf32>) {
          amdgpu.lds_barrier
          %2797 = vector.load %view[%55, %56] : memref<1024x20xf16, #gpu.address_space<workgroup>>, vector<4xf16>
          %2798 = vector.load %view[%57, %56] : memref<1024x20xf16, #gpu.address_space<workgroup>>, vector<4xf16>
          %2799 = vector.load %view[%58, %56] : memref<1024x20xf16, #gpu.address_space<workgroup>>, vector<4xf16>
          %2800 = vector.load %view[%59, %56] : memref<1024x20xf16, #gpu.address_space<workgroup>>, vector<4xf16>
          %2801 = vector.load %view[%60, %56] : memref<1024x20xf16, #gpu.address_space<workgroup>>, vector<4xf16>
          %2802 = vector.load %view[%61, %56] : memref<1024x20xf16, #gpu.address_space<workgroup>>, vector<4xf16>
          %2803 = vector.load %view[%62, %56] : memref<1024x20xf16, #gpu.address_space<workgroup>>, vector<4xf16>
          %2804 = vector.load %view[%63, %56] : memref<1024x20xf16, #gpu.address_space<workgroup>>, vector<4xf16>
          %2805 = vector.load %view[%64, %56] : memref<1024x20xf16, #gpu.address_space<workgroup>>, vector<4xf16>
          %2806 = vector.load %view[%65, %56] : memref<1024x20xf16, #gpu.address_space<workgroup>>, vector<4xf16>
          %2807 = vector.load %view[%66, %56] : memref<1024x20xf16, #gpu.address_space<workgroup>>, vector<4xf16>
          %2808 = vector.load %view[%67, %56] : memref<1024x20xf16, #gpu.address_space<workgroup>>, vector<4xf16>
          %2809 = vector.load %view[%68, %56] : memref<1024x20xf16, #gpu.address_space<workgroup>>, vector<4xf16>
          %2810 = vector.load %view[%69, %56] : memref<1024x20xf16, #gpu.address_space<workgroup>>, vector<4xf16>
          %2811 = vector.load %view[%70, %56] : memref<1024x20xf16, #gpu.address_space<workgroup>>, vector<4xf16>
          %2812 = vector.load %view[%71, %56] : memref<1024x20xf16, #gpu.address_space<workgroup>>, vector<4xf16>
          %2813 = vector.load %view[%72, %56] : memref<1024x20xf16, #gpu.address_space<workgroup>>, vector<4xf16>
          %2814 = vector.load %view[%73, %56] : memref<1024x20xf16, #gpu.address_space<workgroup>>, vector<4xf16>
          %2815 = vector.load %view[%74, %56] : memref<1024x20xf16, #gpu.address_space<workgroup>>, vector<4xf16>
          %2816 = vector.load %view[%75, %56] : memref<1024x20xf16, #gpu.address_space<workgroup>>, vector<4xf16>
          %2817 = vector.load %view[%76, %56] : memref<1024x20xf16, #gpu.address_space<workgroup>>, vector<4xf16>
          %2818 = vector.load %view[%77, %56] : memref<1024x20xf16, #gpu.address_space<workgroup>>, vector<4xf16>
          %2819 = vector.load %view[%78, %56] : memref<1024x20xf16, #gpu.address_space<workgroup>>, vector<4xf16>
          %2820 = vector.load %view[%79, %56] : memref<1024x20xf16, #gpu.address_space<workgroup>>, vector<4xf16>
          %2821 = vector.load %view[%80, %56] : memref<1024x20xf16, #gpu.address_space<workgroup>>, vector<4xf16>
          %2822 = vector.load %view[%81, %56] : memref<1024x20xf16, #gpu.address_space<workgroup>>, vector<4xf16>
          %2823 = vector.load %view[%82, %56] : memref<1024x20xf16, #gpu.address_space<workgroup>>, vector<4xf16>
          %2824 = vector.load %view[%83, %56] : memref<1024x20xf16, #gpu.address_space<workgroup>>, vector<4xf16>
          %2825 = vector.load %view[%84, %56] : memref<1024x20xf16, #gpu.address_space<workgroup>>, vector<4xf16>
          %2826 = vector.load %view[%85, %56] : memref<1024x20xf16, #gpu.address_space<workgroup>>, vector<4xf16>
          %2827 = vector.load %view[%86, %56] : memref<1024x20xf16, #gpu.address_space<workgroup>>, vector<4xf16>
          %2828 = vector.load %view[%87, %56] : memref<1024x20xf16, #gpu.address_space<workgroup>>, vector<4xf16>
          %2829 = vector.maskedload %view_3[%88, %56], %90, %cst : memref<328x20xf16, #gpu.address_space<workgroup>>, vector<4xi1>, vector<4xf16> into vector<4xf16>
          %2830 = vector.maskedload %view_3[%91, %56], %93, %cst : memref<328x20xf16, #gpu.address_space<workgroup>>, vector<4xi1>, vector<4xf16> into vector<4xf16>
          %2831 = vector.maskedload %view_3[%94, %56], %96, %cst : memref<328x20xf16, #gpu.address_space<workgroup>>, vector<4xi1>, vector<4xf16> into vector<4xf16>
          %2832 = vector.maskedload %view_3[%97, %56], %99, %cst : memref<328x20xf16, #gpu.address_space<workgroup>>, vector<4xi1>, vector<4xf16> into vector<4xf16>
          %2833 = vector.maskedload %view_3[%100, %56], %102, %cst : memref<328x20xf16, #gpu.address_space<workgroup>>, vector<4xi1>, vector<4xf16> into vector<4xf16>
          %2834 = vector.maskedload %view_3[%103, %56], %105, %cst : memref<328x20xf16, #gpu.address_space<workgroup>>, vector<4xi1>, vector<4xf16> into vector<4xf16>
          %2835 = affine.apply #map50()[%arg3, %thread_id_x]
          %2836 = arith.addi %7, %2835 overflow<nsw> : index
          %2837 = arith.index_cast %2836 : index to i32
          %2838 = vector.broadcast %2837 : i32 to vector<8xi32>
          %2839 = arith.addi %2838, %cst_0 : vector<8xi32>
          %2840 = arith.index_cast %2839 : vector<8xi32> to vector<8xindex>
          %2841 = arith.select %5, %2840, %cst_1 : vector<8xi1>, vector<8xindex>
          %2842 = vector.extract %2841[0] : index from vector<8xindex>
          %2843 = vector.load %9[%2842] : memref<?xf16, #amdgpu.address_space<fat_raw_buffer>>, vector<8xf16>
          %2844 = arith.addi %20, %2835 overflow<nsw> : index
          %2845 = arith.index_cast %2844 : index to i32
          %2846 = vector.broadcast %2845 : i32 to vector<8xi32>
          %2847 = arith.addi %2846, %cst_0 : vector<8xi32>
          %2848 = arith.index_cast %2847 : vector<8xi32> to vector<8xindex>
          %2849 = arith.select %19, %2848, %cst_1 : vector<8xi1>, vector<8xindex>
          %2850 = vector.extract %2849[0] : index from vector<8xindex>
          %2851 = vector.load %9[%2850] : memref<?xf16, #amdgpu.address_space<fat_raw_buffer>>, vector<8xf16>
          %2852 = arith.addi %31, %2835 overflow<nsw> : index
          %2853 = vector.load %33[%2852] : memref<?xf16, #amdgpu.address_space<fat_raw_buffer>>, vector<8xf16>
          %2854 = arith.addi %36, %2835 overflow<nsw> : index
          %2855 = vector.load %33[%2854] : memref<?xf16, #amdgpu.address_space<fat_raw_buffer>>, vector<8xf16>
          %2856 = arith.addi %40, %2835 overflow<nsw> : index
          %2857 = vector.load %33[%2856] : memref<?xf16, #amdgpu.address_space<fat_raw_buffer>>, vector<8xf16>
          %2858 = arith.addi %44, %2835 overflow<nsw> : index
          %2859 = vector.load %33[%2858] : memref<?xf16, #amdgpu.address_space<fat_raw_buffer>>, vector<8xf16>
          %2860 = amdgpu.mfma %2829 * %2797 + %arg4 {blocks = 1 : i32, k = 16 : i32, m = 16 : i32, n = 16 : i32} blgp =  none : vector<4xf16>, vector<4xf16>, vector<4xf32>
          %2861 = amdgpu.mfma %2829 * %2798 + %arg5 {blocks = 1 : i32, k = 16 : i32, m = 16 : i32, n = 16 : i32} blgp =  none : vector<4xf16>, vector<4xf16>, vector<4xf32>
          %2862 = amdgpu.mfma %2829 * %2799 + %arg6 {blocks = 1 : i32, k = 16 : i32, m = 16 : i32, n = 16 : i32} blgp =  none : vector<4xf16>, vector<4xf16>, vector<4xf32>
          %2863 = amdgpu.mfma %2829 * %2800 + %arg7 {blocks = 1 : i32, k = 16 : i32, m = 16 : i32, n = 16 : i32} blgp =  none : vector<4xf16>, vector<4xf16>, vector<4xf32>
          %2864 = amdgpu.mfma %2829 * %2801 + %arg8 {blocks = 1 : i32, k = 16 : i32, m = 16 : i32, n = 16 : i32} blgp =  none : vector<4xf16>, vector<4xf16>, vector<4xf32>
          %2865 = amdgpu.mfma %2829 * %2802 + %arg9 {blocks = 1 : i32, k = 16 : i32, m = 16 : i32, n = 16 : i32} blgp =  none : vector<4xf16>, vector<4xf16>, vector<4xf32>
          %2866 = amdgpu.mfma %2829 * %2803 + %arg10 {blocks = 1 : i32, k = 16 : i32, m = 16 : i32, n = 16 : i32} blgp =  none : vector<4xf16>, vector<4xf16>, vector<4xf32>
          %2867 = amdgpu.mfma %2829 * %2804 + %arg11 {blocks = 1 : i32, k = 16 : i32, m = 16 : i32, n = 16 : i32} blgp =  none : vector<4xf16>, vector<4xf16>, vector<4xf32>
          %2868 = amdgpu.mfma %2829 * %2805 + %arg12 {blocks = 1 : i32, k = 16 : i32, m = 16 : i32, n = 16 : i32} blgp =  none : vector<4xf16>, vector<4xf16>, vector<4xf32>
          %2869 = amdgpu.mfma %2829 * %2806 + %arg13 {blocks = 1 : i32, k = 16 : i32, m = 16 : i32, n = 16 : i32} blgp =  none : vector<4xf16>, vector<4xf16>, vector<4xf32>
          %2870 = amdgpu.mfma %2829 * %2807 + %arg14 {blocks = 1 : i32, k = 16 : i32, m = 16 : i32, n = 16 : i32} blgp =  none : vector<4xf16>, vector<4xf16>, vector<4xf32>
          %2871 = amdgpu.mfma %2829 * %2808 + %arg15 {blocks = 1 : i32, k = 16 : i32, m = 16 : i32, n = 16 : i32} blgp =  none : vector<4xf16>, vector<4xf16>, vector<4xf32>
          %2872 = amdgpu.mfma %2829 * %2809 + %arg16 {blocks = 1 : i32, k = 16 : i32, m = 16 : i32, n = 16 : i32} blgp =  none : vector<4xf16>, vector<4xf16>, vector<4xf32>
          %2873 = amdgpu.mfma %2829 * %2810 + %arg17 {blocks = 1 : i32, k = 16 : i32, m = 16 : i32, n = 16 : i32} blgp =  none : vector<4xf16>, vector<4xf16>, vector<4xf32>
          %2874 = amdgpu.mfma %2829 * %2811 + %arg18 {blocks = 1 : i32, k = 16 : i32, m = 16 : i32, n = 16 : i32} blgp =  none : vector<4xf16>, vector<4xf16>, vector<4xf32>
          %2875 = amdgpu.mfma %2829 * %2812 + %arg19 {blocks = 1 : i32, k = 16 : i32, m = 16 : i32, n = 16 : i32} blgp =  none : vector<4xf16>, vector<4xf16>, vector<4xf32>
          %2876 = amdgpu.mfma %2829 * %2813 + %arg20 {blocks = 1 : i32, k = 16 : i32, m = 16 : i32, n = 16 : i32} blgp =  none : vector<4xf16>, vector<4xf16>, vector<4xf32>
          %2877 = amdgpu.mfma %2829 * %2814 + %arg21 {blocks = 1 : i32, k = 16 : i32, m = 16 : i32, n = 16 : i32} blgp =  none : vector<4xf16>, vector<4xf16>, vector<4xf32>
          %2878 = amdgpu.mfma %2829 * %2815 + %arg22 {blocks = 1 : i32, k = 16 : i32, m = 16 : i32, n = 16 : i32} blgp =  none : vector<4xf16>, vector<4xf16>, vector<4xf32>
          %2879 = amdgpu.mfma %2829 * %2816 + %arg23 {blocks = 1 : i32, k = 16 : i32, m = 16 : i32, n = 16 : i32} blgp =  none : vector<4xf16>, vector<4xf16>, vector<4xf32>
          %2880 = amdgpu.mfma %2829 * %2817 + %arg24 {blocks = 1 : i32, k = 16 : i32, m = 16 : i32, n = 16 : i32} blgp =  none : vector<4xf16>, vector<4xf16>, vector<4xf32>
          %2881 = amdgpu.mfma %2829 * %2818 + %arg25 {blocks = 1 : i32, k = 16 : i32, m = 16 : i32, n = 16 : i32} blgp =  none : vector<4xf16>, vector<4xf16>, vector<4xf32>
          %2882 = amdgpu.mfma %2829 * %2819 + %arg26 {blocks = 1 : i32, k = 16 : i32, m = 16 : i32, n = 16 : i32} blgp =  none : vector<4xf16>, vector<4xf16>, vector<4xf32>
          %2883 = amdgpu.mfma %2829 * %2820 + %arg27 {blocks = 1 : i32, k = 16 : i32, m = 16 : i32, n = 16 : i32} blgp =  none : vector<4xf16>, vector<4xf16>, vector<4xf32>
          %2884 = amdgpu.mfma %2829 * %2821 + %arg28 {blocks = 1 : i32, k = 16 : i32, m = 16 : i32, n = 16 : i32} blgp =  none : vector<4xf16>, vector<4xf16>, vector<4xf32>
          %2885 = amdgpu.mfma %2829 * %2822 + %arg29 {blocks = 1 : i32, k = 16 : i32, m = 16 : i32, n = 16 : i32} blgp =  none : vector<4xf16>, vector<4xf16>, vector<4xf32>
          %2886 = amdgpu.mfma %2829 * %2823 + %arg30 {blocks = 1 : i32, k = 16 : i32, m = 16 : i32, n = 16 : i32} blgp =  none : vector<4xf16>, vector<4xf16>, vector<4xf32>
          %2887 = amdgpu.mfma %2829 * %2824 + %arg31 {blocks = 1 : i32, k = 16 : i32, m = 16 : i32, n = 16 : i32} blgp =  none : vector<4xf16>, vector<4xf16>, vector<4xf32>
          %2888 = amdgpu.mfma %2829 * %2825 + %arg32 {blocks = 1 : i32, k = 16 : i32, m = 16 : i32, n = 16 : i32} blgp =  none : vector<4xf16>, vector<4xf16>, vector<4xf32>
          %2889 = amdgpu.mfma %2829 * %2826 + %arg33 {blocks = 1 : i32, k = 16 : i32, m = 16 : i32, n = 16 : i32} blgp =  none : vector<4xf16>, vector<4xf16>, vector<4xf32>
          %2890 = amdgpu.mfma %2829 * %2827 + %arg34 {blocks = 1 : i32, k = 16 : i32, m = 16 : i32, n = 16 : i32} blgp =  none : vector<4xf16>, vector<4xf16>, vector<4xf32>
          %2891 = amdgpu.mfma %2829 * %2828 + %arg35 {blocks = 1 : i32, k = 16 : i32, m = 16 : i32, n = 16 : i32} blgp =  none : vector<4xf16>, vector<4xf16>, vector<4xf32>
          %2892 = amdgpu.mfma %2830 * %2797 + %arg36 {blocks = 1 : i32, k = 16 : i32, m = 16 : i32, n = 16 : i32} blgp =  none : vector<4xf16>, vector<4xf16>, vector<4xf32>
          %2893 = amdgpu.mfma %2830 * %2798 + %arg37 {blocks = 1 : i32, k = 16 : i32, m = 16 : i32, n = 16 : i32} blgp =  none : vector<4xf16>, vector<4xf16>, vector<4xf32>
          %2894 = amdgpu.mfma %2830 * %2799 + %arg38 {blocks = 1 : i32, k = 16 : i32, m = 16 : i32, n = 16 : i32} blgp =  none : vector<4xf16>, vector<4xf16>, vector<4xf32>
          %2895 = amdgpu.mfma %2830 * %2800 + %arg39 {blocks = 1 : i32, k = 16 : i32, m = 16 : i32, n = 16 : i32} blgp =  none : vector<4xf16>, vector<4xf16>, vector<4xf32>
          %2896 = amdgpu.mfma %2830 * %2801 + %arg40 {blocks = 1 : i32, k = 16 : i32, m = 16 : i32, n = 16 : i32} blgp =  none : vector<4xf16>, vector<4xf16>, vector<4xf32>
          %2897 = amdgpu.mfma %2830 * %2802 + %arg41 {blocks = 1 : i32, k = 16 : i32, m = 16 : i32, n = 16 : i32} blgp =  none : vector<4xf16>, vector<4xf16>, vector<4xf32>
          %2898 = amdgpu.mfma %2830 * %2803 + %arg42 {blocks = 1 : i32, k = 16 : i32, m = 16 : i32, n = 16 : i32} blgp =  none : vector<4xf16>, vector<4xf16>, vector<4xf32>
          %2899 = amdgpu.mfma %2830 * %2804 + %arg43 {blocks = 1 : i32, k = 16 : i32, m = 16 : i32, n = 16 : i32} blgp =  none : vector<4xf16>, vector<4xf16>, vector<4xf32>
          %2900 = amdgpu.mfma %2830 * %2805 + %arg44 {blocks = 1 : i32, k = 16 : i32, m = 16 : i32, n = 16 : i32} blgp =  none : vector<4xf16>, vector<4xf16>, vector<4xf32>
          %2901 = amdgpu.mfma %2830 * %2806 + %arg45 {blocks = 1 : i32, k = 16 : i32, m = 16 : i32, n = 16 : i32} blgp =  none : vector<4xf16>, vector<4xf16>, vector<4xf32>
          %2902 = amdgpu.mfma %2830 * %2807 + %arg46 {blocks = 1 : i32, k = 16 : i32, m = 16 : i32, n = 16 : i32} blgp =  none : vector<4xf16>, vector<4xf16>, vector<4xf32>
          %2903 = amdgpu.mfma %2830 * %2808 + %arg47 {blocks = 1 : i32, k = 16 : i32, m = 16 : i32, n = 16 : i32} blgp =  none : vector<4xf16>, vector<4xf16>, vector<4xf32>
          %2904 = amdgpu.mfma %2830 * %2809 + %arg48 {blocks = 1 : i32, k = 16 : i32, m = 16 : i32, n = 16 : i32} blgp =  none : vector<4xf16>, vector<4xf16>, vector<4xf32>
          %2905 = amdgpu.mfma %2830 * %2810 + %arg49 {blocks = 1 : i32, k = 16 : i32, m = 16 : i32, n = 16 : i32} blgp =  none : vector<4xf16>, vector<4xf16>, vector<4xf32>
          %2906 = amdgpu.mfma %2830 * %2811 + %arg50 {blocks = 1 : i32, k = 16 : i32, m = 16 : i32, n = 16 : i32} blgp =  none : vector<4xf16>, vector<4xf16>, vector<4xf32>
          %2907 = amdgpu.mfma %2830 * %2812 + %arg51 {blocks = 1 : i32, k = 16 : i32, m = 16 : i32, n = 16 : i32} blgp =  none : vector<4xf16>, vector<4xf16>, vector<4xf32>
          %2908 = amdgpu.mfma %2830 * %2813 + %arg52 {blocks = 1 : i32, k = 16 : i32, m = 16 : i32, n = 16 : i32} blgp =  none : vector<4xf16>, vector<4xf16>, vector<4xf32>
          %2909 = amdgpu.mfma %2830 * %2814 + %arg53 {blocks = 1 : i32, k = 16 : i32, m = 16 : i32, n = 16 : i32} blgp =  none : vector<4xf16>, vector<4xf16>, vector<4xf32>
          %2910 = amdgpu.mfma %2830 * %2815 + %arg54 {blocks = 1 : i32, k = 16 : i32, m = 16 : i32, n = 16 : i32} blgp =  none : vector<4xf16>, vector<4xf16>, vector<4xf32>
          %2911 = amdgpu.mfma %2830 * %2816 + %arg55 {blocks = 1 : i32, k = 16 : i32, m = 16 : i32, n = 16 : i32} blgp =  none : vector<4xf16>, vector<4xf16>, vector<4xf32>
          %2912 = amdgpu.mfma %2830 * %2817 + %arg56 {blocks = 1 : i32, k = 16 : i32, m = 16 : i32, n = 16 : i32} blgp =  none : vector<4xf16>, vector<4xf16>, vector<4xf32>
          %2913 = amdgpu.mfma %2830 * %2818 + %arg57 {blocks = 1 : i32, k = 16 : i32, m = 16 : i32, n = 16 : i32} blgp =  none : vector<4xf16>, vector<4xf16>, vector<4xf32>
          %2914 = amdgpu.mfma %2830 * %2819 + %arg58 {blocks = 1 : i32, k = 16 : i32, m = 16 : i32, n = 16 : i32} blgp =  none : vector<4xf16>, vector<4xf16>, vector<4xf32>
          %2915 = amdgpu.mfma %2830 * %2820 + %arg59 {blocks = 1 : i32, k = 16 : i32, m = 16 : i32, n = 16 : i32} blgp =  none : vector<4xf16>, vector<4xf16>, vector<4xf32>
          %2916 = amdgpu.mfma %2830 * %2821 + %arg60 {blocks = 1 : i32, k = 16 : i32, m = 16 : i32, n = 16 : i32} blgp =  none : vector<4xf16>, vector<4xf16>, vector<4xf32>
          %2917 = amdgpu.mfma %2830 * %2822 + %arg61 {blocks = 1 : i32, k = 16 : i32, m = 16 : i32, n = 16 : i32} blgp =  none : vector<4xf16>, vector<4xf16>, vector<4xf32>
          %2918 = amdgpu.mfma %2830 * %2823 + %arg62 {blocks = 1 : i32, k = 16 : i32, m = 16 : i32, n = 16 : i32} blgp =  none : vector<4xf16>, vector<4xf16>, vector<4xf32>
          %2919 = amdgpu.mfma %2830 * %2824 + %arg63 {blocks = 1 : i32, k = 16 : i32, m = 16 : i32, n = 16 : i32} blgp =  none : vector<4xf16>, vector<4xf16>, vector<4xf32>
          %2920 = amdgpu.mfma %2830 * %2825 + %arg64 {blocks = 1 : i32, k = 16 : i32, m = 16 : i32, n = 16 : i32} blgp =  none : vector<4xf16>, vector<4xf16>, vector<4xf32>
          %2921 = amdgpu.mfma %2830 * %2826 + %arg65 {blocks = 1 : i32, k = 16 : i32, m = 16 : i32, n = 16 : i32} blgp =  none : vector<4xf16>, vector<4xf16>, vector<4xf32>
          %2922 = amdgpu.mfma %2830 * %2827 + %arg66 {blocks = 1 : i32, k = 16 : i32, m = 16 : i32, n = 16 : i32} blgp =  none : vector<4xf16>, vector<4xf16>, vector<4xf32>
          %2923 = amdgpu.mfma %2830 * %2828 + %arg67 {blocks = 1 : i32, k = 16 : i32, m = 16 : i32, n = 16 : i32} blgp =  none : vector<4xf16>, vector<4xf16>, vector<4xf32>
          %2924 = amdgpu.mfma %2831 * %2797 + %arg68 {blocks = 1 : i32, k = 16 : i32, m = 16 : i32, n = 16 : i32} blgp =  none : vector<4xf16>, vector<4xf16>, vector<4xf32>
          %2925 = amdgpu.mfma %2831 * %2798 + %arg69 {blocks = 1 : i32, k = 16 : i32, m = 16 : i32, n = 16 : i32} blgp =  none : vector<4xf16>, vector<4xf16>, vector<4xf32>
          %2926 = amdgpu.mfma %2831 * %2799 + %arg70 {blocks = 1 : i32, k = 16 : i32, m = 16 : i32, n = 16 : i32} blgp =  none : vector<4xf16>, vector<4xf16>, vector<4xf32>
          %2927 = amdgpu.mfma %2831 * %2800 + %arg71 {blocks = 1 : i32, k = 16 : i32, m = 16 : i32, n = 16 : i32} blgp =  none : vector<4xf16>, vector<4xf16>, vector<4xf32>
          %2928 = amdgpu.mfma %2831 * %2801 + %arg72 {blocks = 1 : i32, k = 16 : i32, m = 16 : i32, n = 16 : i32} blgp =  none : vector<4xf16>, vector<4xf16>, vector<4xf32>
          %2929 = amdgpu.mfma %2831 * %2802 + %arg73 {blocks = 1 : i32, k = 16 : i32, m = 16 : i32, n = 16 : i32} blgp =  none : vector<4xf16>, vector<4xf16>, vector<4xf32>
          %2930 = amdgpu.mfma %2831 * %2803 + %arg74 {blocks = 1 : i32, k = 16 : i32, m = 16 : i32, n = 16 : i32} blgp =  none : vector<4xf16>, vector<4xf16>, vector<4xf32>
          %2931 = amdgpu.mfma %2831 * %2804 + %arg75 {blocks = 1 : i32, k = 16 : i32, m = 16 : i32, n = 16 : i32} blgp =  none : vector<4xf16>, vector<4xf16>, vector<4xf32>
          %2932 = amdgpu.mfma %2831 * %2805 + %arg76 {blocks = 1 : i32, k = 16 : i32, m = 16 : i32, n = 16 : i32} blgp =  none : vector<4xf16>, vector<4xf16>, vector<4xf32>
          %2933 = amdgpu.mfma %2831 * %2806 + %arg77 {blocks = 1 : i32, k = 16 : i32, m = 16 : i32, n = 16 : i32} blgp =  none : vector<4xf16>, vector<4xf16>, vector<4xf32>
          %2934 = amdgpu.mfma %2831 * %2807 + %arg78 {blocks = 1 : i32, k = 16 : i32, m = 16 : i32, n = 16 : i32} blgp =  none : vector<4xf16>, vector<4xf16>, vector<4xf32>
          %2935 = amdgpu.mfma %2831 * %2808 + %arg79 {blocks = 1 : i32, k = 16 : i32, m = 16 : i32, n = 16 : i32} blgp =  none : vector<4xf16>, vector<4xf16>, vector<4xf32>
          %2936 = amdgpu.mfma %2831 * %2809 + %arg80 {blocks = 1 : i32, k = 16 : i32, m = 16 : i32, n = 16 : i32} blgp =  none : vector<4xf16>, vector<4xf16>, vector<4xf32>
          %2937 = amdgpu.mfma %2831 * %2810 + %arg81 {blocks = 1 : i32, k = 16 : i32, m = 16 : i32, n = 16 : i32} blgp =  none : vector<4xf16>, vector<4xf16>, vector<4xf32>
          %2938 = amdgpu.mfma %2831 * %2811 + %arg82 {blocks = 1 : i32, k = 16 : i32, m = 16 : i32, n = 16 : i32} blgp =  none : vector<4xf16>, vector<4xf16>, vector<4xf32>
          %2939 = amdgpu.mfma %2831 * %2812 + %arg83 {blocks = 1 : i32, k = 16 : i32, m = 16 : i32, n = 16 : i32} blgp =  none : vector<4xf16>, vector<4xf16>, vector<4xf32>
          %2940 = amdgpu.mfma %2831 * %2813 + %arg84 {blocks = 1 : i32, k = 16 : i32, m = 16 : i32, n = 16 : i32} blgp =  none : vector<4xf16>, vector<4xf16>, vector<4xf32>
          %2941 = amdgpu.mfma %2831 * %2814 + %arg85 {blocks = 1 : i32, k = 16 : i32, m = 16 : i32, n = 16 : i32} blgp =  none : vector<4xf16>, vector<4xf16>, vector<4xf32>
          %2942 = amdgpu.mfma %2831 * %2815 + %arg86 {blocks = 1 : i32, k = 16 : i32, m = 16 : i32, n = 16 : i32} blgp =  none : vector<4xf16>, vector<4xf16>, vector<4xf32>
          %2943 = amdgpu.mfma %2831 * %2816 + %arg87 {blocks = 1 : i32, k = 16 : i32, m = 16 : i32, n = 16 : i32} blgp =  none : vector<4xf16>, vector<4xf16>, vector<4xf32>
          %2944 = amdgpu.mfma %2831 * %2817 + %arg88 {blocks = 1 : i32, k = 16 : i32, m = 16 : i32, n = 16 : i32} blgp =  none : vector<4xf16>, vector<4xf16>, vector<4xf32>
          %2945 = amdgpu.mfma %2831 * %2818 + %arg89 {blocks = 1 : i32, k = 16 : i32, m = 16 : i32, n = 16 : i32} blgp =  none : vector<4xf16>, vector<4xf16>, vector<4xf32>
          %2946 = amdgpu.mfma %2831 * %2819 + %arg90 {blocks = 1 : i32, k = 16 : i32, m = 16 : i32, n = 16 : i32} blgp =  none : vector<4xf16>, vector<4xf16>, vector<4xf32>
          %2947 = amdgpu.mfma %2831 * %2820 + %arg91 {blocks = 1 : i32, k = 16 : i32, m = 16 : i32, n = 16 : i32} blgp =  none : vector<4xf16>, vector<4xf16>, vector<4xf32>
          %2948 = amdgpu.mfma %2831 * %2821 + %arg92 {blocks = 1 : i32, k = 16 : i32, m = 16 : i32, n = 16 : i32} blgp =  none : vector<4xf16>, vector<4xf16>, vector<4xf32>
          %2949 = amdgpu.mfma %2831 * %2822 + %arg93 {blocks = 1 : i32, k = 16 : i32, m = 16 : i32, n = 16 : i32} blgp =  none : vector<4xf16>, vector<4xf16>, vector<4xf32>
          %2950 = amdgpu.mfma %2831 * %2823 + %arg94 {blocks = 1 : i32, k = 16 : i32, m = 16 : i32, n = 16 : i32} blgp =  none : vector<4xf16>, vector<4xf16>, vector<4xf32>
          %2951 = amdgpu.mfma %2831 * %2824 + %arg95 {blocks = 1 : i32, k = 16 : i32, m = 16 : i32, n = 16 : i32} blgp =  none : vector<4xf16>, vector<4xf16>, vector<4xf32>
          %2952 = amdgpu.mfma %2831 * %2825 + %arg96 {blocks = 1 : i32, k = 16 : i32, m = 16 : i32, n = 16 : i32} blgp =  none : vector<4xf16>, vector<4xf16>, vector<4xf32>
          %2953 = amdgpu.mfma %2831 * %2826 + %arg97 {blocks = 1 : i32, k = 16 : i32, m = 16 : i32, n = 16 : i32} blgp =  none : vector<4xf16>, vector<4xf16>, vector<4xf32>
          %2954 = amdgpu.mfma %2831 * %2827 + %arg98 {blocks = 1 : i32, k = 16 : i32, m = 16 : i32, n = 16 : i32} blgp =  none : vector<4xf16>, vector<4xf16>, vector<4xf32>
          %2955 = amdgpu.mfma %2831 * %2828 + %arg99 {blocks = 1 : i32, k = 16 : i32, m = 16 : i32, n = 16 : i32} blgp =  none : vector<4xf16>, vector<4xf16>, vector<4xf32>
          %2956 = amdgpu.mfma %2832 * %2797 + %arg100 {blocks = 1 : i32, k = 16 : i32, m = 16 : i32, n = 16 : i32} blgp =  none : vector<4xf16>, vector<4xf16>, vector<4xf32>
          %2957 = amdgpu.mfma %2832 * %2798 + %arg101 {blocks = 1 : i32, k = 16 : i32, m = 16 : i32, n = 16 : i32} blgp =  none : vector<4xf16>, vector<4xf16>, vector<4xf32>
          %2958 = amdgpu.mfma %2832 * %2799 + %arg102 {blocks = 1 : i32, k = 16 : i32, m = 16 : i32, n = 16 : i32} blgp =  none : vector<4xf16>, vector<4xf16>, vector<4xf32>
          %2959 = amdgpu.mfma %2832 * %2800 + %arg103 {blocks = 1 : i32, k = 16 : i32, m = 16 : i32, n = 16 : i32} blgp =  none : vector<4xf16>, vector<4xf16>, vector<4xf32>
          %2960 = amdgpu.mfma %2832 * %2801 + %arg104 {blocks = 1 : i32, k = 16 : i32, m = 16 : i32, n = 16 : i32} blgp =  none : vector<4xf16>, vector<4xf16>, vector<4xf32>
          %2961 = amdgpu.mfma %2832 * %2802 + %arg105 {blocks = 1 : i32, k = 16 : i32, m = 16 : i32, n = 16 : i32} blgp =  none : vector<4xf16>, vector<4xf16>, vector<4xf32>
          %2962 = amdgpu.mfma %2832 * %2803 + %arg106 {blocks = 1 : i32, k = 16 : i32, m = 16 : i32, n = 16 : i32} blgp =  none : vector<4xf16>, vector<4xf16>, vector<4xf32>
          %2963 = amdgpu.mfma %2832 * %2804 + %arg107 {blocks = 1 : i32, k = 16 : i32, m = 16 : i32, n = 16 : i32} blgp =  none : vector<4xf16>, vector<4xf16>, vector<4xf32>
          %2964 = amdgpu.mfma %2832 * %2805 + %arg108 {blocks = 1 : i32, k = 16 : i32, m = 16 : i32, n = 16 : i32} blgp =  none : vector<4xf16>, vector<4xf16>, vector<4xf32>
          %2965 = amdgpu.mfma %2832 * %2806 + %arg109 {blocks = 1 : i32, k = 16 : i32, m = 16 : i32, n = 16 : i32} blgp =  none : vector<4xf16>, vector<4xf16>, vector<4xf32>
          %2966 = amdgpu.mfma %2832 * %2807 + %arg110 {blocks = 1 : i32, k = 16 : i32, m = 16 : i32, n = 16 : i32} blgp =  none : vector<4xf16>, vector<4xf16>, vector<4xf32>
          %2967 = amdgpu.mfma %2832 * %2808 + %arg111 {blocks = 1 : i32, k = 16 : i32, m = 16 : i32, n = 16 : i32} blgp =  none : vector<4xf16>, vector<4xf16>, vector<4xf32>
          %2968 = amdgpu.mfma %2832 * %2809 + %arg112 {blocks = 1 : i32, k = 16 : i32, m = 16 : i32, n = 16 : i32} blgp =  none : vector<4xf16>, vector<4xf16>, vector<4xf32>
          %2969 = amdgpu.mfma %2832 * %2810 + %arg113 {blocks = 1 : i32, k = 16 : i32, m = 16 : i32, n = 16 : i32} blgp =  none : vector<4xf16>, vector<4xf16>, vector<4xf32>
          %2970 = amdgpu.mfma %2832 * %2811 + %arg114 {blocks = 1 : i32, k = 16 : i32, m = 16 : i32, n = 16 : i32} blgp =  none : vector<4xf16>, vector<4xf16>, vector<4xf32>
          %2971 = amdgpu.mfma %2832 * %2812 + %arg115 {blocks = 1 : i32, k = 16 : i32, m = 16 : i32, n = 16 : i32} blgp =  none : vector<4xf16>, vector<4xf16>, vector<4xf32>
          %2972 = amdgpu.mfma %2832 * %2813 + %arg116 {blocks = 1 : i32, k = 16 : i32, m = 16 : i32, n = 16 : i32} blgp =  none : vector<4xf16>, vector<4xf16>, vector<4xf32>
          %2973 = amdgpu.mfma %2832 * %2814 + %arg117 {blocks = 1 : i32, k = 16 : i32, m = 16 : i32, n = 16 : i32} blgp =  none : vector<4xf16>, vector<4xf16>, vector<4xf32>
          %2974 = amdgpu.mfma %2832 * %2815 + %arg118 {blocks = 1 : i32, k = 16 : i32, m = 16 : i32, n = 16 : i32} blgp =  none : vector<4xf16>, vector<4xf16>, vector<4xf32>
          %2975 = amdgpu.mfma %2832 * %2816 + %arg119 {blocks = 1 : i32, k = 16 : i32, m = 16 : i32, n = 16 : i32} blgp =  none : vector<4xf16>, vector<4xf16>, vector<4xf32>
          %2976 = amdgpu.mfma %2832 * %2817 + %arg120 {blocks = 1 : i32, k = 16 : i32, m = 16 : i32, n = 16 : i32} blgp =  none : vector<4xf16>, vector<4xf16>, vector<4xf32>
          %2977 = amdgpu.mfma %2832 * %2818 + %arg121 {blocks = 1 : i32, k = 16 : i32, m = 16 : i32, n = 16 : i32} blgp =  none : vector<4xf16>, vector<4xf16>, vector<4xf32>
          %2978 = amdgpu.mfma %2832 * %2819 + %arg122 {blocks = 1 : i32, k = 16 : i32, m = 16 : i32, n = 16 : i32} blgp =  none : vector<4xf16>, vector<4xf16>, vector<4xf32>
          %2979 = amdgpu.mfma %2832 * %2820 + %arg123 {blocks = 1 : i32, k = 16 : i32, m = 16 : i32, n = 16 : i32} blgp =  none : vector<4xf16>, vector<4xf16>, vector<4xf32>
          %2980 = amdgpu.mfma %2832 * %2821 + %arg124 {blocks = 1 : i32, k = 16 : i32, m = 16 : i32, n = 16 : i32} blgp =  none : vector<4xf16>, vector<4xf16>, vector<4xf32>
          %2981 = amdgpu.mfma %2832 * %2822 + %arg125 {blocks = 1 : i32, k = 16 : i32, m = 16 : i32, n = 16 : i32} blgp =  none : vector<4xf16>, vector<4xf16>, vector<4xf32>
          %2982 = amdgpu.mfma %2832 * %2823 + %arg126 {blocks = 1 : i32, k = 16 : i32, m = 16 : i32, n = 16 : i32} blgp =  none : vector<4xf16>, vector<4xf16>, vector<4xf32>
          %2983 = amdgpu.mfma %2832 * %2824 + %arg127 {blocks = 1 : i32, k = 16 : i32, m = 16 : i32, n = 16 : i32} blgp =  none : vector<4xf16>, vector<4xf16>, vector<4xf32>
          %2984 = amdgpu.mfma %2832 * %2825 + %arg128 {blocks = 1 : i32, k = 16 : i32, m = 16 : i32, n = 16 : i32} blgp =  none : vector<4xf16>, vector<4xf16>, vector<4xf32>
          %2985 = amdgpu.mfma %2832 * %2826 + %arg129 {blocks = 1 : i32, k = 16 : i32, m = 16 : i32, n = 16 : i32} blgp =  none : vector<4xf16>, vector<4xf16>, vector<4xf32>
          %2986 = amdgpu.mfma %2832 * %2827 + %arg130 {blocks = 1 : i32, k = 16 : i32, m = 16 : i32, n = 16 : i32} blgp =  none : vector<4xf16>, vector<4xf16>, vector<4xf32>
          %2987 = amdgpu.mfma %2832 * %2828 + %arg131 {blocks = 1 : i32, k = 16 : i32, m = 16 : i32, n = 16 : i32} blgp =  none : vector<4xf16>, vector<4xf16>, vector<4xf32>
          %2988 = amdgpu.mfma %2833 * %2797 + %arg132 {blocks = 1 : i32, k = 16 : i32, m = 16 : i32, n = 16 : i32} blgp =  none : vector<4xf16>, vector<4xf16>, vector<4xf32>
          %2989 = amdgpu.mfma %2833 * %2798 + %arg133 {blocks = 1 : i32, k = 16 : i32, m = 16 : i32, n = 16 : i32} blgp =  none : vector<4xf16>, vector<4xf16>, vector<4xf32>
          %2990 = amdgpu.mfma %2833 * %2799 + %arg134 {blocks = 1 : i32, k = 16 : i32, m = 16 : i32, n = 16 : i32} blgp =  none : vector<4xf16>, vector<4xf16>, vector<4xf32>
          %2991 = amdgpu.mfma %2833 * %2800 + %arg135 {blocks = 1 : i32, k = 16 : i32, m = 16 : i32, n = 16 : i32} blgp =  none : vector<4xf16>, vector<4xf16>, vector<4xf32>
          %2992 = amdgpu.mfma %2833 * %2801 + %arg136 {blocks = 1 : i32, k = 16 : i32, m = 16 : i32, n = 16 : i32} blgp =  none : vector<4xf16>, vector<4xf16>, vector<4xf32>
          %2993 = amdgpu.mfma %2833 * %2802 + %arg137 {blocks = 1 : i32, k = 16 : i32, m = 16 : i32, n = 16 : i32} blgp =  none : vector<4xf16>, vector<4xf16>, vector<4xf32>
          %2994 = amdgpu.mfma %2833 * %2803 + %arg138 {blocks = 1 : i32, k = 16 : i32, m = 16 : i32, n = 16 : i32} blgp =  none : vector<4xf16>, vector<4xf16>, vector<4xf32>
          %2995 = amdgpu.mfma %2833 * %2804 + %arg139 {blocks = 1 : i32, k = 16 : i32, m = 16 : i32, n = 16 : i32} blgp =  none : vector<4xf16>, vector<4xf16>, vector<4xf32>
          %2996 = amdgpu.mfma %2833 * %2805 + %arg140 {blocks = 1 : i32, k = 16 : i32, m = 16 : i32, n = 16 : i32} blgp =  none : vector<4xf16>, vector<4xf16>, vector<4xf32>
          %2997 = amdgpu.mfma %2833 * %2806 + %arg141 {blocks = 1 : i32, k = 16 : i32, m = 16 : i32, n = 16 : i32} blgp =  none : vector<4xf16>, vector<4xf16>, vector<4xf32>
          %2998 = amdgpu.mfma %2833 * %2807 + %arg142 {blocks = 1 : i32, k = 16 : i32, m = 16 : i32, n = 16 : i32} blgp =  none : vector<4xf16>, vector<4xf16>, vector<4xf32>
          %2999 = amdgpu.mfma %2833 * %2808 + %arg143 {blocks = 1 : i32, k = 16 : i32, m = 16 : i32, n = 16 : i32} blgp =  none : vector<4xf16>, vector<4xf16>, vector<4xf32>
          %3000 = amdgpu.mfma %2833 * %2809 + %arg144 {blocks = 1 : i32, k = 16 : i32, m = 16 : i32, n = 16 : i32} blgp =  none : vector<4xf16>, vector<4xf16>, vector<4xf32>
          %3001 = amdgpu.mfma %2833 * %2810 + %arg145 {blocks = 1 : i32, k = 16 : i32, m = 16 : i32, n = 16 : i32} blgp =  none : vector<4xf16>, vector<4xf16>, vector<4xf32>
          %3002 = amdgpu.mfma %2833 * %2811 + %arg146 {blocks = 1 : i32, k = 16 : i32, m = 16 : i32, n = 16 : i32} blgp =  none : vector<4xf16>, vector<4xf16>, vector<4xf32>
          %3003 = amdgpu.mfma %2833 * %2812 + %arg147 {blocks = 1 : i32, k = 16 : i32, m = 16 : i32, n = 16 : i32} blgp =  none : vector<4xf16>, vector<4xf16>, vector<4xf32>
          %3004 = amdgpu.mfma %2833 * %2813 + %arg148 {blocks = 1 : i32, k = 16 : i32, m = 16 : i32, n = 16 : i32} blgp =  none : vector<4xf16>, vector<4xf16>, vector<4xf32>
          %3005 = amdgpu.mfma %2833 * %2814 + %arg149 {blocks = 1 : i32, k = 16 : i32, m = 16 : i32, n = 16 : i32} blgp =  none : vector<4xf16>, vector<4xf16>, vector<4xf32>
          %3006 = amdgpu.mfma %2833 * %2815 + %arg150 {blocks = 1 : i32, k = 16 : i32, m = 16 : i32, n = 16 : i32} blgp =  none : vector<4xf16>, vector<4xf16>, vector<4xf32>
          %3007 = amdgpu.mfma %2833 * %2816 + %arg151 {blocks = 1 : i32, k = 16 : i32, m = 16 : i32, n = 16 : i32} blgp =  none : vector<4xf16>, vector<4xf16>, vector<4xf32>
          %3008 = amdgpu.mfma %2833 * %2817 + %arg152 {blocks = 1 : i32, k = 16 : i32, m = 16 : i32, n = 16 : i32} blgp =  none : vector<4xf16>, vector<4xf16>, vector<4xf32>
          %3009 = amdgpu.mfma %2833 * %2818 + %arg153 {blocks = 1 : i32, k = 16 : i32, m = 16 : i32, n = 16 : i32} blgp =  none : vector<4xf16>, vector<4xf16>, vector<4xf32>
          %3010 = amdgpu.mfma %2833 * %2819 + %arg154 {blocks = 1 : i32, k = 16 : i32, m = 16 : i32, n = 16 : i32} blgp =  none : vector<4xf16>, vector<4xf16>, vector<4xf32>
          %3011 = amdgpu.mfma %2833 * %2820 + %arg155 {blocks = 1 : i32, k = 16 : i32, m = 16 : i32, n = 16 : i32} blgp =  none : vector<4xf16>, vector<4xf16>, vector<4xf32>
          %3012 = amdgpu.mfma %2833 * %2821 + %arg156 {blocks = 1 : i32, k = 16 : i32, m = 16 : i32, n = 16 : i32} blgp =  none : vector<4xf16>, vector<4xf16>, vector<4xf32>
          %3013 = amdgpu.mfma %2833 * %2822 + %arg157 {blocks = 1 : i32, k = 16 : i32, m = 16 : i32, n = 16 : i32} blgp =  none : vector<4xf16>, vector<4xf16>, vector<4xf32>
          %3014 = amdgpu.mfma %2833 * %2823 + %arg158 {blocks = 1 : i32, k = 16 : i32, m = 16 : i32, n = 16 : i32} blgp =  none : vector<4xf16>, vector<4xf16>, vector<4xf32>
          %3015 = amdgpu.mfma %2833 * %2824 + %arg159 {blocks = 1 : i32, k = 16 : i32, m = 16 : i32, n = 16 : i32} blgp =  none : vector<4xf16>, vector<4xf16>, vector<4xf32>
          %3016 = amdgpu.mfma %2833 * %2825 + %arg160 {blocks = 1 : i32, k = 16 : i32, m = 16 : i32, n = 16 : i32} blgp =  none : vector<4xf16>, vector<4xf16>, vector<4xf32>
          %3017 = amdgpu.mfma %2833 * %2826 + %arg161 {blocks = 1 : i32, k = 16 : i32, m = 16 : i32, n = 16 : i32} blgp =  none : vector<4xf16>, vector<4xf16>, vector<4xf32>
          %3018 = amdgpu.mfma %2833 * %2827 + %arg162 {blocks = 1 : i32, k = 16 : i32, m = 16 : i32, n = 16 : i32} blgp =  none : vector<4xf16>, vector<4xf16>, vector<4xf32>
          %3019 = amdgpu.mfma %2833 * %2828 + %arg163 {blocks = 1 : i32, k = 16 : i32, m = 16 : i32, n = 16 : i32} blgp =  none : vector<4xf16>, vector<4xf16>, vector<4xf32>
          %3020 = amdgpu.mfma %2834 * %2797 + %arg164 {blocks = 1 : i32, k = 16 : i32, m = 16 : i32, n = 16 : i32} blgp =  none : vector<4xf16>, vector<4xf16>, vector<4xf32>
          %3021 = amdgpu.mfma %2834 * %2798 + %arg165 {blocks = 1 : i32, k = 16 : i32, m = 16 : i32, n = 16 : i32} blgp =  none : vector<4xf16>, vector<4xf16>, vector<4xf32>
          %3022 = amdgpu.mfma %2834 * %2799 + %arg166 {blocks = 1 : i32, k = 16 : i32, m = 16 : i32, n = 16 : i32} blgp =  none : vector<4xf16>, vector<4xf16>, vector<4xf32>
          %3023 = amdgpu.mfma %2834 * %2800 + %arg167 {blocks = 1 : i32, k = 16 : i32, m = 16 : i32, n = 16 : i32} blgp =  none : vector<4xf16>, vector<4xf16>, vector<4xf32>
          %3024 = amdgpu.mfma %2834 * %2801 + %arg168 {blocks = 1 : i32, k = 16 : i32, m = 16 : i32, n = 16 : i32} blgp =  none : vector<4xf16>, vector<4xf16>, vector<4xf32>
          %3025 = amdgpu.mfma %2834 * %2802 + %arg169 {blocks = 1 : i32, k = 16 : i32, m = 16 : i32, n = 16 : i32} blgp =  none : vector<4xf16>, vector<4xf16>, vector<4xf32>
          %3026 = amdgpu.mfma %2834 * %2803 + %arg170 {blocks = 1 : i32, k = 16 : i32, m = 16 : i32, n = 16 : i32} blgp =  none : vector<4xf16>, vector<4xf16>, vector<4xf32>
          %3027 = amdgpu.mfma %2834 * %2804 + %arg171 {blocks = 1 : i32, k = 16 : i32, m = 16 : i32, n = 16 : i32} blgp =  none : vector<4xf16>, vector<4xf16>, vector<4xf32>
          %3028 = amdgpu.mfma %2834 * %2805 + %arg172 {blocks = 1 : i32, k = 16 : i32, m = 16 : i32, n = 16 : i32} blgp =  none : vector<4xf16>, vector<4xf16>, vector<4xf32>
          %3029 = amdgpu.mfma %2834 * %2806 + %arg173 {blocks = 1 : i32, k = 16 : i32, m = 16 : i32, n = 16 : i32} blgp =  none : vector<4xf16>, vector<4xf16>, vector<4xf32>
          %3030 = amdgpu.mfma %2834 * %2807 + %arg174 {blocks = 1 : i32, k = 16 : i32, m = 16 : i32, n = 16 : i32} blgp =  none : vector<4xf16>, vector<4xf16>, vector<4xf32>
          %3031 = amdgpu.mfma %2834 * %2808 + %arg175 {blocks = 1 : i32, k = 16 : i32, m = 16 : i32, n = 16 : i32} blgp =  none : vector<4xf16>, vector<4xf16>, vector<4xf32>
          %3032 = amdgpu.mfma %2834 * %2809 + %arg176 {blocks = 1 : i32, k = 16 : i32, m = 16 : i32, n = 16 : i32} blgp =  none : vector<4xf16>, vector<4xf16>, vector<4xf32>
          %3033 = amdgpu.mfma %2834 * %2810 + %arg177 {blocks = 1 : i32, k = 16 : i32, m = 16 : i32, n = 16 : i32} blgp =  none : vector<4xf16>, vector<4xf16>, vector<4xf32>
          %3034 = amdgpu.mfma %2834 * %2811 + %arg178 {blocks = 1 : i32, k = 16 : i32, m = 16 : i32, n = 16 : i32} blgp =  none : vector<4xf16>, vector<4xf16>, vector<4xf32>
          %3035 = amdgpu.mfma %2834 * %2812 + %arg179 {blocks = 1 : i32, k = 16 : i32, m = 16 : i32, n = 16 : i32} blgp =  none : vector<4xf16>, vector<4xf16>, vector<4xf32>
          %3036 = amdgpu.mfma %2834 * %2813 + %arg180 {blocks = 1 : i32, k = 16 : i32, m = 16 : i32, n = 16 : i32} blgp =  none : vector<4xf16>, vector<4xf16>, vector<4xf32>
          %3037 = amdgpu.mfma %2834 * %2814 + %arg181 {blocks = 1 : i32, k = 16 : i32, m = 16 : i32, n = 16 : i32} blgp =  none : vector<4xf16>, vector<4xf16>, vector<4xf32>
          %3038 = amdgpu.mfma %2834 * %2815 + %arg182 {blocks = 1 : i32, k = 16 : i32, m = 16 : i32, n = 16 : i32} blgp =  none : vector<4xf16>, vector<4xf16>, vector<4xf32>
          %3039 = amdgpu.mfma %2834 * %2816 + %arg183 {blocks = 1 : i32, k = 16 : i32, m = 16 : i32, n = 16 : i32} blgp =  none : vector<4xf16>, vector<4xf16>, vector<4xf32>
          %3040 = amdgpu.mfma %2834 * %2817 + %arg184 {blocks = 1 : i32, k = 16 : i32, m = 16 : i32, n = 16 : i32} blgp =  none : vector<4xf16>, vector<4xf16>, vector<4xf32>
          %3041 = amdgpu.mfma %2834 * %2818 + %arg185 {blocks = 1 : i32, k = 16 : i32, m = 16 : i32, n = 16 : i32} blgp =  none : vector<4xf16>, vector<4xf16>, vector<4xf32>
          %3042 = amdgpu.mfma %2834 * %2819 + %arg186 {blocks = 1 : i32, k = 16 : i32, m = 16 : i32, n = 16 : i32} blgp =  none : vector<4xf16>, vector<4xf16>, vector<4xf32>
          %3043 = amdgpu.mfma %2834 * %2820 + %arg187 {blocks = 1 : i32, k = 16 : i32, m = 16 : i32, n = 16 : i32} blgp =  none : vector<4xf16>, vector<4xf16>, vector<4xf32>
          %3044 = amdgpu.mfma %2834 * %2821 + %arg188 {blocks = 1 : i32, k = 16 : i32, m = 16 : i32, n = 16 : i32} blgp =  none : vector<4xf16>, vector<4xf16>, vector<4xf32>
          %3045 = amdgpu.mfma %2834 * %2822 + %arg189 {blocks = 1 : i32, k = 16 : i32, m = 16 : i32, n = 16 : i32} blgp =  none : vector<4xf16>, vector<4xf16>, vector<4xf32>
          %3046 = amdgpu.mfma %2834 * %2823 + %arg190 {blocks = 1 : i32, k = 16 : i32, m = 16 : i32, n = 16 : i32} blgp =  none : vector<4xf16>, vector<4xf16>, vector<4xf32>
          %3047 = amdgpu.mfma %2834 * %2824 + %arg191 {blocks = 1 : i32, k = 16 : i32, m = 16 : i32, n = 16 : i32} blgp =  none : vector<4xf16>, vector<4xf16>, vector<4xf32>
          %3048 = amdgpu.mfma %2834 * %2825 + %arg192 {blocks = 1 : i32, k = 16 : i32, m = 16 : i32, n = 16 : i32} blgp =  none : vector<4xf16>, vector<4xf16>, vector<4xf32>
          %3049 = amdgpu.mfma %2834 * %2826 + %arg193 {blocks = 1 : i32, k = 16 : i32, m = 16 : i32, n = 16 : i32} blgp =  none : vector<4xf16>, vector<4xf16>, vector<4xf32>
          %3050 = amdgpu.mfma %2834 * %2827 + %arg194 {blocks = 1 : i32, k = 16 : i32, m = 16 : i32, n = 16 : i32} blgp =  none : vector<4xf16>, vector<4xf16>, vector<4xf32>
          %3051 = amdgpu.mfma %2834 * %2828 + %arg195 {blocks = 1 : i32, k = 16 : i32, m = 16 : i32, n = 16 : i32} blgp =  none : vector<4xf16>, vector<4xf16>, vector<4xf32>
          amdgpu.lds_barrier
          vector.maskedstore %view_3[%49, %6], %51, %2843 : memref<328x20xf16, #gpu.address_space<workgroup>>, vector<8xi1>, vector<8xf16>
          vector.maskedstore %view_3[%52, %6], %54, %2851 : memref<328x20xf16, #gpu.address_space<workgroup>>, vector<8xi1>, vector<8xf16>
          vector.store %2853, %view[%30, %6] : memref<1024x20xf16, #gpu.address_space<workgroup>>, vector<8xf16>
          vector.store %2855, %view[%35, %6] : memref<1024x20xf16, #gpu.address_space<workgroup>>, vector<8xf16>
          vector.store %2857, %view[%39, %6] : memref<1024x20xf16, #gpu.address_space<workgroup>>, vector<8xf16>
          vector.store %2859, %view[%43, %6] : memref<1024x20xf16, #gpu.address_space<workgroup>>, vector<8xf16>
          scf.yield %2860, %2861, %2862, %2863, %2864, %2865, %2866, %2867, %2868, %2869, %2870, %2871, %2872, %2873, %2874, %2875, %2876, %2877, %2878, %2879, %2880, %2881, %2882, %2883, %2884, %2885, %2886, %2887, %2888, %2889, %2890, %2891, %2892, %2893, %2894, %2895, %2896, %2897, %2898, %2899, %2900, %2901, %2902, %2903, %2904, %2905, %2906, %2907, %2908, %2909, %2910, %2911, %2912, %2913, %2914, %2915, %2916, %2917, %2918, %2919, %2920, %2921, %2922, %2923, %2924, %2925, %2926, %2927, %2928, %2929, %2930, %2931, %2932, %2933, %2934, %2935, %2936, %2937, %2938, %2939, %2940, %2941, %2942, %2943, %2944, %2945, %2946, %2947, %2948, %2949, %2950, %2951, %2952, %2953, %2954, %2955, %2956, %2957, %2958, %2959, %2960, %2961, %2962, %2963, %2964, %2965, %2966, %2967, %2968, %2969, %2970, %2971, %2972, %2973, %2974, %2975, %2976, %2977, %2978, %2979, %2980, %2981, %2982, %2983, %2984, %2985, %2986, %2987, %2988, %2989, %2990, %2991, %2992, %2993, %2994, %2995, %2996, %2997, %2998, %2999, %3000, %3001, %3002, %3003, %3004, %3005, %3006, %3007, %3008, %3009, %3010, %3011, %3012, %3013, %3014, %3015, %3016, %3017, %3018, %3019, %3020, %3021, %3022, %3023, %3024, %3025, %3026, %3027, %3028, %3029, %3030, %3031, %3032, %3033, %3034, %3035, %3036, %3037, %3038, %3039, %3040, %3041, %3042, %3043, %3044, %3045, %3046, %3047, %3048, %3049, %3050, %3051 : vector<4xf32>, vector<4xf32>, vector<4xf32>, vector<4xf32>, vector<4xf32>, vector<4xf32>, vector<4xf32>, vector<4xf32>, vector<4xf32>, vector<4xf32>, vector<4xf32>, vector<4xf32>, vector<4xf32>, vector<4xf32>, vector<4xf32>, vector<4xf32>, vector<4xf32>, vector<4xf32>, vector<4xf32>, vector<4xf32>, vector<4xf32>, vector<4xf32>, vector<4xf32>, vector<4xf32>, vector<4xf32>, vector<4xf32>, vector<4xf32>, vector<4xf32>, vector<4xf32>, vector<4xf32>, vector<4xf32>, vector<4xf32>, vector<4xf32>, vector<4xf32>, vector<4xf32>, vector<4xf32>, vector<4xf32>, vector<4xf32>, vector<4xf32>, vector<4xf32>, vector<4xf32>, vector<4xf32>, vector<4xf32>, vector<4xf32>, vector<4xf32>, vector<4xf32>, vector<4xf32>, vector<4xf32>, vector<4xf32>, vector<4xf32>, vector<4xf32>, vector<4xf32>, vector<4xf32>, vector<4xf32>, vector<4xf32>, vector<4xf32>, vector<4xf32>, vector<4xf32>, vector<4xf32>, vector<4xf32>, vector<4xf32>, vector<4xf32>, vector<4xf32>, vector<4xf32>, vector<4xf32>, vector<4xf32>, vector<4xf32>, vector<4xf32>, vector<4xf32>, vector<4xf32>, vector<4xf32>, vector<4xf32>, vector<4xf32>, vector<4xf32>, vector<4xf32>, vector<4xf32>, vector<4xf32>, vector<4xf32>, vector<4xf32>, vector<4xf32>, vector<4xf32>, vector<4xf32>, vector<4xf32>, vector<4xf32>, vector<4xf32>, vector<4xf32>, vector<4xf32>, vector<4xf32>, vector<4xf32>, vector<4xf32>, vector<4xf32>, vector<4xf32>, vector<4xf32>, vector<4xf32>, vector<4xf32>, vector<4xf32>, vector<4xf32>, vector<4xf32>, vector<4xf32>, vector<4xf32>, vector<4xf32>, vector<4xf32>, vector<4xf32>, vector<4xf32>, vector<4xf32>, vector<4xf32>, vector<4xf32>, vector<4xf32>, vector<4xf32>, vector<4xf32>, vector<4xf32>, vector<4xf32>, vector<4xf32>, vector<4xf32>, vector<4xf32>, vector<4xf32>, vector<4xf32>, vector<4xf32>, vector<4xf32>, vector<4xf32>, vector<4xf32>, vector<4xf32>, vector<4xf32>, vector<4xf32>, vector<4xf32>, vector<4xf32>, vector<4xf32>, vector<4xf32>, vector<4xf32>, vector<4xf32>, vector<4xf32>, vector<4xf32>, vector<4xf32>, vector<4xf32>, vector<4xf32>, vector<4xf32>, vector<4xf32>, vector<4xf32>, vector<4xf32>, vector<4xf32>, vector<4xf32>, vector<4xf32>, vector<4xf32>, vector<4xf32>, vector<4xf32>, vector<4xf32>, vector<4xf32>, vector<4xf32>, vector<4xf32>, vector<4xf32>, vector<4xf32>, vector<4xf32>, vector<4xf32>, vector<4xf32>, vector<4xf32>, vector<4xf32>, vector<4xf32>, vector<4xf32>, vector<4xf32>, vector<4xf32>, vector<4xf32>, vector<4xf32>, vector<4xf32>, vector<4xf32>, vector<4xf32>, vector<4xf32>, vector<4xf32>, vector<4xf32>, vector<4xf32>, vector<4xf32>, vector<4xf32>, vector<4xf32>, vector<4xf32>, vector<4xf32>, vector<4xf32>, vector<4xf32>, vector<4xf32>, vector<4xf32>, vector<4xf32>, vector<4xf32>, vector<4xf32>, vector<4xf32>, vector<4xf32>, vector<4xf32>, vector<4xf32>, vector<4xf32>, vector<4xf32>, vector<4xf32>, vector<4xf32>, vector<4xf32>, vector<4xf32>, vector<4xf32>
        }
        amdgpu.lds_barrier
        %107 = affine.apply #map11()[%thread_id_x, %thread_id_y]
        %108 = affine.apply #map12()[%thread_id_x]
        %109 = vector.load %view[%107, %108] : memref<1024x20xf16, #gpu.address_space<workgroup>>, vector<4xf16>
        %110 = affine.apply #map13()[%thread_id_x, %thread_id_y]
        %111 = vector.load %view[%110, %108] : memref<1024x20xf16, #gpu.address_space<workgroup>>, vector<4xf16>
        %112 = affine.apply #map14()[%thread_id_x, %thread_id_y]
        %113 = vector.load %view[%112, %108] : memref<1024x20xf16, #gpu.address_space<workgroup>>, vector<4xf16>
        %114 = affine.apply #map15()[%thread_id_x, %thread_id_y]
        %115 = vector.load %view[%114, %108] : memref<1024x20xf16, #gpu.address_space<workgroup>>, vector<4xf16>
        %116 = affine.apply #map16()[%thread_id_x, %thread_id_y]
        %117 = vector.load %view[%116, %108] : memref<1024x20xf16, #gpu.address_space<workgroup>>, vector<4xf16>
        %118 = affine.apply #map17()[%thread_id_x, %thread_id_y]
        %119 = vector.load %view[%118, %108] : memref<1024x20xf16, #gpu.address_space<workgroup>>, vector<4xf16>
        %120 = affine.apply #map18()[%thread_id_x, %thread_id_y]
        %121 = vector.load %view[%120, %108] : memref<1024x20xf16, #gpu.address_space<workgroup>>, vector<4xf16>
        %122 = affine.apply #map19()[%thread_id_x, %thread_id_y]
        %123 = vector.load %view[%122, %108] : memref<1024x20xf16, #gpu.address_space<workgroup>>, vector<4xf16>
        %124 = affine.apply #map20()[%thread_id_x, %thread_id_y]
        %125 = vector.load %view[%124, %108] : memref<1024x20xf16, #gpu.address_space<workgroup>>, vector<4xf16>
        %126 = affine.apply #map21()[%thread_id_x, %thread_id_y]
        %127 = vector.load %view[%126, %108] : memref<1024x20xf16, #gpu.address_space<workgroup>>, vector<4xf16>
        %128 = affine.apply #map22()[%thread_id_x, %thread_id_y]
        %129 = vector.load %view[%128, %108] : memref<1024x20xf16, #gpu.address_space<workgroup>>, vector<4xf16>
        %130 = affine.apply #map23()[%thread_id_x, %thread_id_y]
        %131 = vector.load %view[%130, %108] : memref<1024x20xf16, #gpu.address_space<workgroup>>, vector<4xf16>
        %132 = affine.apply #map24()[%thread_id_x, %thread_id_y]
        %133 = vector.load %view[%132, %108] : memref<1024x20xf16, #gpu.address_space<workgroup>>, vector<4xf16>
        %134 = affine.apply #map25()[%thread_id_x, %thread_id_y]
        %135 = vector.load %view[%134, %108] : memref<1024x20xf16, #gpu.address_space<workgroup>>, vector<4xf16>
        %136 = affine.apply #map26()[%thread_id_x, %thread_id_y]
        %137 = vector.load %view[%136, %108] : memref<1024x20xf16, #gpu.address_space<workgroup>>, vector<4xf16>
        %138 = affine.apply #map27()[%thread_id_x, %thread_id_y]
        %139 = vector.load %view[%138, %108] : memref<1024x20xf16, #gpu.address_space<workgroup>>, vector<4xf16>
        %140 = affine.apply #map28()[%thread_id_x, %thread_id_y]
        %141 = vector.load %view[%140, %108] : memref<1024x20xf16, #gpu.address_space<workgroup>>, vector<4xf16>
        %142 = affine.apply #map29()[%thread_id_x, %thread_id_y]
        %143 = vector.load %view[%142, %108] : memref<1024x20xf16, #gpu.address_space<workgroup>>, vector<4xf16>
        %144 = affine.apply #map30()[%thread_id_x, %thread_id_y]
        %145 = vector.load %view[%144, %108] : memref<1024x20xf16, #gpu.address_space<workgroup>>, vector<4xf16>
        %146 = affine.apply #map31()[%thread_id_x, %thread_id_y]
        %147 = vector.load %view[%146, %108] : memref<1024x20xf16, #gpu.address_space<workgroup>>, vector<4xf16>
        %148 = affine.apply #map32()[%thread_id_x, %thread_id_y]
        %149 = vector.load %view[%148, %108] : memref<1024x20xf16, #gpu.address_space<workgroup>>, vector<4xf16>
        %150 = affine.apply #map33()[%thread_id_x, %thread_id_y]
        %151 = vector.load %view[%150, %108] : memref<1024x20xf16, #gpu.address_space<workgroup>>, vector<4xf16>
        %152 = affine.apply #map34()[%thread_id_x, %thread_id_y]
        %153 = vector.load %view[%152, %108] : memref<1024x20xf16, #gpu.address_space<workgroup>>, vector<4xf16>
        %154 = affine.apply #map35()[%thread_id_x, %thread_id_y]
        %155 = vector.load %view[%154, %108] : memref<1024x20xf16, #gpu.address_space<workgroup>>, vector<4xf16>
        %156 = affine.apply #map36()[%thread_id_x, %thread_id_y]
        %157 = vector.load %view[%156, %108] : memref<1024x20xf16, #gpu.address_space<workgroup>>, vector<4xf16>
        %158 = affine.apply #map37()[%thread_id_x, %thread_id_y]
        %159 = vector.load %view[%158, %108] : memref<1024x20xf16, #gpu.address_space<workgroup>>, vector<4xf16>
        %160 = affine.apply #map38()[%thread_id_x, %thread_id_y]
        %161 = vector.load %view[%160, %108] : memref<1024x20xf16, #gpu.address_space<workgroup>>, vector<4xf16>
        %162 = affine.apply #map39()[%thread_id_x, %thread_id_y]
        %163 = vector.load %view[%162, %108] : memref<1024x20xf16, #gpu.address_space<workgroup>>, vector<4xf16>
        %164 = affine.apply #map40()[%thread_id_x, %thread_id_y]
        %165 = vector.load %view[%164, %108] : memref<1024x20xf16, #gpu.address_space<workgroup>>, vector<4xf16>
        %166 = affine.apply #map41()[%thread_id_x, %thread_id_y]
        %167 = vector.load %view[%166, %108] : memref<1024x20xf16, #gpu.address_space<workgroup>>, vector<4xf16>
        %168 = affine.apply #map42()[%thread_id_x, %thread_id_y]
        %169 = vector.load %view[%168, %108] : memref<1024x20xf16, #gpu.address_space<workgroup>>, vector<4xf16>
        %170 = affine.apply #map43()[%thread_id_x, %thread_id_y]
        %171 = vector.load %view[%170, %108] : memref<1024x20xf16, #gpu.address_space<workgroup>>, vector<4xf16>
        %172 = affine.apply #map44()[%thread_id_x]
        %173 = arith.cmpi slt, %172, %48 : index
        %174 = vector.broadcast %173 : i1 to vector<4xi1>
        %175 = vector.maskedload %view_3[%172, %108], %174, %cst : memref<328x20xf16, #gpu.address_space<workgroup>>, vector<4xi1>, vector<4xf16> into vector<4xf16>
        %176 = affine.apply #map45()[%thread_id_x]
        %177 = arith.cmpi slt, %176, %48 : index
        %178 = vector.broadcast %177 : i1 to vector<4xi1>
        %179 = vector.maskedload %view_3[%176, %108], %178, %cst : memref<328x20xf16, #gpu.address_space<workgroup>>, vector<4xi1>, vector<4xf16> into vector<4xf16>
        %180 = affine.apply #map46()[%thread_id_x]
        %181 = arith.cmpi slt, %180, %48 : index
        %182 = vector.broadcast %181 : i1 to vector<4xi1>
        %183 = vector.maskedload %view_3[%180, %108], %182, %cst : memref<328x20xf16, #gpu.address_space<workgroup>>, vector<4xi1>, vector<4xf16> into vector<4xf16>
        %184 = affine.apply #map47()[%thread_id_x]
        %185 = arith.cmpi slt, %184, %48 : index
        %186 = vector.broadcast %185 : i1 to vector<4xi1>
        %187 = vector.maskedload %view_3[%184, %108], %186, %cst : memref<328x20xf16, #gpu.address_space<workgroup>>, vector<4xi1>, vector<4xf16> into vector<4xf16>
        %188 = affine.apply #map48()[%thread_id_x]
        %189 = arith.cmpi slt, %188, %48 : index
        %190 = vector.broadcast %189 : i1 to vector<4xi1>
        %191 = vector.maskedload %view_3[%188, %108], %190, %cst : memref<328x20xf16, #gpu.address_space<workgroup>>, vector<4xi1>, vector<4xf16> into vector<4xf16>
        %192 = affine.apply #map49()[%thread_id_x]
        %193 = arith.cmpi slt, %192, %48 : index
        %194 = vector.broadcast %193 : i1 to vector<4xi1>
        %195 = vector.maskedload %view_3[%192, %108], %194, %cst : memref<328x20xf16, #gpu.address_space<workgroup>>, vector<4xi1>, vector<4xf16> into vector<4xf16>
        %196 = amdgpu.mfma %175 * %109 + %106#0 {blocks = 1 : i32, k = 16 : i32, m = 16 : i32, n = 16 : i32} blgp =  none : vector<4xf16>, vector<4xf16>, vector<4xf32>
        %197 = amdgpu.mfma %175 * %111 + %106#1 {blocks = 1 : i32, k = 16 : i32, m = 16 : i32, n = 16 : i32} blgp =  none : vector<4xf16>, vector<4xf16>, vector<4xf32>
        %198 = amdgpu.mfma %175 * %113 + %106#2 {blocks = 1 : i32, k = 16 : i32, m = 16 : i32, n = 16 : i32} blgp =  none : vector<4xf16>, vector<4xf16>, vector<4xf32>
        %199 = amdgpu.mfma %175 * %115 + %106#3 {blocks = 1 : i32, k = 16 : i32, m = 16 : i32, n = 16 : i32} blgp =  none : vector<4xf16>, vector<4xf16>, vector<4xf32>
        %200 = amdgpu.mfma %175 * %117 + %106#4 {blocks = 1 : i32, k = 16 : i32, m = 16 : i32, n = 16 : i32} blgp =  none : vector<4xf16>, vector<4xf16>, vector<4xf32>
        %201 = amdgpu.mfma %175 * %119 + %106#5 {blocks = 1 : i32, k = 16 : i32, m = 16 : i32, n = 16 : i32} blgp =  none : vector<4xf16>, vector<4xf16>, vector<4xf32>
        %202 = amdgpu.mfma %175 * %121 + %106#6 {blocks = 1 : i32, k = 16 : i32, m = 16 : i32, n = 16 : i32} blgp =  none : vector<4xf16>, vector<4xf16>, vector<4xf32>
        %203 = amdgpu.mfma %175 * %123 + %106#7 {blocks = 1 : i32, k = 16 : i32, m = 16 : i32, n = 16 : i32} blgp =  none : vector<4xf16>, vector<4xf16>, vector<4xf32>
        %204 = amdgpu.mfma %175 * %125 + %106#8 {blocks = 1 : i32, k = 16 : i32, m = 16 : i32, n = 16 : i32} blgp =  none : vector<4xf16>, vector<4xf16>, vector<4xf32>
        %205 = amdgpu.mfma %175 * %127 + %106#9 {blocks = 1 : i32, k = 16 : i32, m = 16 : i32, n = 16 : i32} blgp =  none : vector<4xf16>, vector<4xf16>, vector<4xf32>
        %206 = amdgpu.mfma %175 * %129 + %106#10 {blocks = 1 : i32, k = 16 : i32, m = 16 : i32, n = 16 : i32} blgp =  none : vector<4xf16>, vector<4xf16>, vector<4xf32>
        %207 = amdgpu.mfma %175 * %131 + %106#11 {blocks = 1 : i32, k = 16 : i32, m = 16 : i32, n = 16 : i32} blgp =  none : vector<4xf16>, vector<4xf16>, vector<4xf32>
        %208 = amdgpu.mfma %175 * %133 + %106#12 {blocks = 1 : i32, k = 16 : i32, m = 16 : i32, n = 16 : i32} blgp =  none : vector<4xf16>, vector<4xf16>, vector<4xf32>
        %209 = amdgpu.mfma %175 * %135 + %106#13 {blocks = 1 : i32, k = 16 : i32, m = 16 : i32, n = 16 : i32} blgp =  none : vector<4xf16>, vector<4xf16>, vector<4xf32>
        %210 = amdgpu.mfma %175 * %137 + %106#14 {blocks = 1 : i32, k = 16 : i32, m = 16 : i32, n = 16 : i32} blgp =  none : vector<4xf16>, vector<4xf16>, vector<4xf32>
        %211 = amdgpu.mfma %175 * %139 + %106#15 {blocks = 1 : i32, k = 16 : i32, m = 16 : i32, n = 16 : i32} blgp =  none : vector<4xf16>, vector<4xf16>, vector<4xf32>
        %212 = amdgpu.mfma %175 * %141 + %106#16 {blocks = 1 : i32, k = 16 : i32, m = 16 : i32, n = 16 : i32} blgp =  none : vector<4xf16>, vector<4xf16>, vector<4xf32>
        %213 = amdgpu.mfma %175 * %143 + %106#17 {blocks = 1 : i32, k = 16 : i32, m = 16 : i32, n = 16 : i32} blgp =  none : vector<4xf16>, vector<4xf16>, vector<4xf32>
        %214 = amdgpu.mfma %175 * %145 + %106#18 {blocks = 1 : i32, k = 16 : i32, m = 16 : i32, n = 16 : i32} blgp =  none : vector<4xf16>, vector<4xf16>, vector<4xf32>
        %215 = amdgpu.mfma %175 * %147 + %106#19 {blocks = 1 : i32, k = 16 : i32, m = 16 : i32, n = 16 : i32} blgp =  none : vector<4xf16>, vector<4xf16>, vector<4xf32>
        %216 = amdgpu.mfma %175 * %149 + %106#20 {blocks = 1 : i32, k = 16 : i32, m = 16 : i32, n = 16 : i32} blgp =  none : vector<4xf16>, vector<4xf16>, vector<4xf32>
        %217 = amdgpu.mfma %175 * %151 + %106#21 {blocks = 1 : i32, k = 16 : i32, m = 16 : i32, n = 16 : i32} blgp =  none : vector<4xf16>, vector<4xf16>, vector<4xf32>
        %218 = amdgpu.mfma %175 * %153 + %106#22 {blocks = 1 : i32, k = 16 : i32, m = 16 : i32, n = 16 : i32} blgp =  none : vector<4xf16>, vector<4xf16>, vector<4xf32>
        %219 = amdgpu.mfma %175 * %155 + %106#23 {blocks = 1 : i32, k = 16 : i32, m = 16 : i32, n = 16 : i32} blgp =  none : vector<4xf16>, vector<4xf16>, vector<4xf32>
        %220 = amdgpu.mfma %175 * %157 + %106#24 {blocks = 1 : i32, k = 16 : i32, m = 16 : i32, n = 16 : i32} blgp =  none : vector<4xf16>, vector<4xf16>, vector<4xf32>
        %221 = amdgpu.mfma %175 * %159 + %106#25 {blocks = 1 : i32, k = 16 : i32, m = 16 : i32, n = 16 : i32} blgp =  none : vector<4xf16>, vector<4xf16>, vector<4xf32>
        %222 = amdgpu.mfma %175 * %161 + %106#26 {blocks = 1 : i32, k = 16 : i32, m = 16 : i32, n = 16 : i32} blgp =  none : vector<4xf16>, vector<4xf16>, vector<4xf32>
        %223 = amdgpu.mfma %175 * %163 + %106#27 {blocks = 1 : i32, k = 16 : i32, m = 16 : i32, n = 16 : i32} blgp =  none : vector<4xf16>, vector<4xf16>, vector<4xf32>
        %224 = amdgpu.mfma %175 * %165 + %106#28 {blocks = 1 : i32, k = 16 : i32, m = 16 : i32, n = 16 : i32} blgp =  none : vector<4xf16>, vector<4xf16>, vector<4xf32>
        %225 = amdgpu.mfma %175 * %167 + %106#29 {blocks = 1 : i32, k = 16 : i32, m = 16 : i32, n = 16 : i32} blgp =  none : vector<4xf16>, vector<4xf16>, vector<4xf32>
        %226 = amdgpu.mfma %175 * %169 + %106#30 {blocks = 1 : i32, k = 16 : i32, m = 16 : i32, n = 16 : i32} blgp =  none : vector<4xf16>, vector<4xf16>, vector<4xf32>
        %227 = amdgpu.mfma %175 * %171 + %106#31 {blocks = 1 : i32, k = 16 : i32, m = 16 : i32, n = 16 : i32} blgp =  none : vector<4xf16>, vector<4xf16>, vector<4xf32>
        %228 = amdgpu.mfma %179 * %109 + %106#32 {blocks = 1 : i32, k = 16 : i32, m = 16 : i32, n = 16 : i32} blgp =  none : vector<4xf16>, vector<4xf16>, vector<4xf32>
        %229 = amdgpu.mfma %179 * %111 + %106#33 {blocks = 1 : i32, k = 16 : i32, m = 16 : i32, n = 16 : i32} blgp =  none : vector<4xf16>, vector<4xf16>, vector<4xf32>
        %230 = amdgpu.mfma %179 * %113 + %106#34 {blocks = 1 : i32, k = 16 : i32, m = 16 : i32, n = 16 : i32} blgp =  none : vector<4xf16>, vector<4xf16>, vector<4xf32>
        %231 = amdgpu.mfma %179 * %115 + %106#35 {blocks = 1 : i32, k = 16 : i32, m = 16 : i32, n = 16 : i32} blgp =  none : vector<4xf16>, vector<4xf16>, vector<4xf32>
        %232 = amdgpu.mfma %179 * %117 + %106#36 {blocks = 1 : i32, k = 16 : i32, m = 16 : i32, n = 16 : i32} blgp =  none : vector<4xf16>, vector<4xf16>, vector<4xf32>
        %233 = amdgpu.mfma %179 * %119 + %106#37 {blocks = 1 : i32, k = 16 : i32, m = 16 : i32, n = 16 : i32} blgp =  none : vector<4xf16>, vector<4xf16>, vector<4xf32>
        %234 = amdgpu.mfma %179 * %121 + %106#38 {blocks = 1 : i32, k = 16 : i32, m = 16 : i32, n = 16 : i32} blgp =  none : vector<4xf16>, vector<4xf16>, vector<4xf32>
        %235 = amdgpu.mfma %179 * %123 + %106#39 {blocks = 1 : i32, k = 16 : i32, m = 16 : i32, n = 16 : i32} blgp =  none : vector<4xf16>, vector<4xf16>, vector<4xf32>
        %236 = amdgpu.mfma %179 * %125 + %106#40 {blocks = 1 : i32, k = 16 : i32, m = 16 : i32, n = 16 : i32} blgp =  none : vector<4xf16>, vector<4xf16>, vector<4xf32>
        %237 = amdgpu.mfma %179 * %127 + %106#41 {blocks = 1 : i32, k = 16 : i32, m = 16 : i32, n = 16 : i32} blgp =  none : vector<4xf16>, vector<4xf16>, vector<4xf32>
        %238 = amdgpu.mfma %179 * %129 + %106#42 {blocks = 1 : i32, k = 16 : i32, m = 16 : i32, n = 16 : i32} blgp =  none : vector<4xf16>, vector<4xf16>, vector<4xf32>
        %239 = amdgpu.mfma %179 * %131 + %106#43 {blocks = 1 : i32, k = 16 : i32, m = 16 : i32, n = 16 : i32} blgp =  none : vector<4xf16>, vector<4xf16>, vector<4xf32>
        %240 = amdgpu.mfma %179 * %133 + %106#44 {blocks = 1 : i32, k = 16 : i32, m = 16 : i32, n = 16 : i32} blgp =  none : vector<4xf16>, vector<4xf16>, vector<4xf32>
        %241 = amdgpu.mfma %179 * %135 + %106#45 {blocks = 1 : i32, k = 16 : i32, m = 16 : i32, n = 16 : i32} blgp =  none : vector<4xf16>, vector<4xf16>, vector<4xf32>
        %242 = amdgpu.mfma %179 * %137 + %106#46 {blocks = 1 : i32, k = 16 : i32, m = 16 : i32, n = 16 : i32} blgp =  none : vector<4xf16>, vector<4xf16>, vector<4xf32>
        %243 = amdgpu.mfma %179 * %139 + %106#47 {blocks = 1 : i32, k = 16 : i32, m = 16 : i32, n = 16 : i32} blgp =  none : vector<4xf16>, vector<4xf16>, vector<4xf32>
        %244 = amdgpu.mfma %179 * %141 + %106#48 {blocks = 1 : i32, k = 16 : i32, m = 16 : i32, n = 16 : i32} blgp =  none : vector<4xf16>, vector<4xf16>, vector<4xf32>
        %245 = amdgpu.mfma %179 * %143 + %106#49 {blocks = 1 : i32, k = 16 : i32, m = 16 : i32, n = 16 : i32} blgp =  none : vector<4xf16>, vector<4xf16>, vector<4xf32>
        %246 = amdgpu.mfma %179 * %145 + %106#50 {blocks = 1 : i32, k = 16 : i32, m = 16 : i32, n = 16 : i32} blgp =  none : vector<4xf16>, vector<4xf16>, vector<4xf32>
        %247 = amdgpu.mfma %179 * %147 + %106#51 {blocks = 1 : i32, k = 16 : i32, m = 16 : i32, n = 16 : i32} blgp =  none : vector<4xf16>, vector<4xf16>, vector<4xf32>
        %248 = amdgpu.mfma %179 * %149 + %106#52 {blocks = 1 : i32, k = 16 : i32, m = 16 : i32, n = 16 : i32} blgp =  none : vector<4xf16>, vector<4xf16>, vector<4xf32>
        %249 = amdgpu.mfma %179 * %151 + %106#53 {blocks = 1 : i32, k = 16 : i32, m = 16 : i32, n = 16 : i32} blgp =  none : vector<4xf16>, vector<4xf16>, vector<4xf32>
        %250 = amdgpu.mfma %179 * %153 + %106#54 {blocks = 1 : i32, k = 16 : i32, m = 16 : i32, n = 16 : i32} blgp =  none : vector<4xf16>, vector<4xf16>, vector<4xf32>
        %251 = amdgpu.mfma %179 * %155 + %106#55 {blocks = 1 : i32, k = 16 : i32, m = 16 : i32, n = 16 : i32} blgp =  none : vector<4xf16>, vector<4xf16>, vector<4xf32>
        %252 = amdgpu.mfma %179 * %157 + %106#56 {blocks = 1 : i32, k = 16 : i32, m = 16 : i32, n = 16 : i32} blgp =  none : vector<4xf16>, vector<4xf16>, vector<4xf32>
        %253 = amdgpu.mfma %179 * %159 + %106#57 {blocks = 1 : i32, k = 16 : i32, m = 16 : i32, n = 16 : i32} blgp =  none : vector<4xf16>, vector<4xf16>, vector<4xf32>
        %254 = amdgpu.mfma %179 * %161 + %106#58 {blocks = 1 : i32, k = 16 : i32, m = 16 : i32, n = 16 : i32} blgp =  none : vector<4xf16>, vector<4xf16>, vector<4xf32>
        %255 = amdgpu.mfma %179 * %163 + %106#59 {blocks = 1 : i32, k = 16 : i32, m = 16 : i32, n = 16 : i32} blgp =  none : vector<4xf16>, vector<4xf16>, vector<4xf32>
        %256 = amdgpu.mfma %179 * %165 + %106#60 {blocks = 1 : i32, k = 16 : i32, m = 16 : i32, n = 16 : i32} blgp =  none : vector<4xf16>, vector<4xf16>, vector<4xf32>
        %257 = amdgpu.mfma %179 * %167 + %106#61 {blocks = 1 : i32, k = 16 : i32, m = 16 : i32, n = 16 : i32} blgp =  none : vector<4xf16>, vector<4xf16>, vector<4xf32>
        %258 = amdgpu.mfma %179 * %169 + %106#62 {blocks = 1 : i32, k = 16 : i32, m = 16 : i32, n = 16 : i32} blgp =  none : vector<4xf16>, vector<4xf16>, vector<4xf32>
        %259 = amdgpu.mfma %179 * %171 + %106#63 {blocks = 1 : i32, k = 16 : i32, m = 16 : i32, n = 16 : i32} blgp =  none : vector<4xf16>, vector<4xf16>, vector<4xf32>
        %260 = amdgpu.mfma %183 * %109 + %106#64 {blocks = 1 : i32, k = 16 : i32, m = 16 : i32, n = 16 : i32} blgp =  none : vector<4xf16>, vector<4xf16>, vector<4xf32>
        %261 = amdgpu.mfma %183 * %111 + %106#65 {blocks = 1 : i32, k = 16 : i32, m = 16 : i32, n = 16 : i32} blgp =  none : vector<4xf16>, vector<4xf16>, vector<4xf32>
        %262 = amdgpu.mfma %183 * %113 + %106#66 {blocks = 1 : i32, k = 16 : i32, m = 16 : i32, n = 16 : i32} blgp =  none : vector<4xf16>, vector<4xf16>, vector<4xf32>
        %263 = amdgpu.mfma %183 * %115 + %106#67 {blocks = 1 : i32, k = 16 : i32, m = 16 : i32, n = 16 : i32} blgp =  none : vector<4xf16>, vector<4xf16>, vector<4xf32>
        %264 = amdgpu.mfma %183 * %117 + %106#68 {blocks = 1 : i32, k = 16 : i32, m = 16 : i32, n = 16 : i32} blgp =  none : vector<4xf16>, vector<4xf16>, vector<4xf32>
        %265 = amdgpu.mfma %183 * %119 + %106#69 {blocks = 1 : i32, k = 16 : i32, m = 16 : i32, n = 16 : i32} blgp =  none : vector<4xf16>, vector<4xf16>, vector<4xf32>
        %266 = amdgpu.mfma %183 * %121 + %106#70 {blocks = 1 : i32, k = 16 : i32, m = 16 : i32, n = 16 : i32} blgp =  none : vector<4xf16>, vector<4xf16>, vector<4xf32>
        %267 = amdgpu.mfma %183 * %123 + %106#71 {blocks = 1 : i32, k = 16 : i32, m = 16 : i32, n = 16 : i32} blgp =  none : vector<4xf16>, vector<4xf16>, vector<4xf32>
        %268 = amdgpu.mfma %183 * %125 + %106#72 {blocks = 1 : i32, k = 16 : i32, m = 16 : i32, n = 16 : i32} blgp =  none : vector<4xf16>, vector<4xf16>, vector<4xf32>
        %269 = amdgpu.mfma %183 * %127 + %106#73 {blocks = 1 : i32, k = 16 : i32, m = 16 : i32, n = 16 : i32} blgp =  none : vector<4xf16>, vector<4xf16>, vector<4xf32>
        %270 = amdgpu.mfma %183 * %129 + %106#74 {blocks = 1 : i32, k = 16 : i32, m = 16 : i32, n = 16 : i32} blgp =  none : vector<4xf16>, vector<4xf16>, vector<4xf32>
        %271 = amdgpu.mfma %183 * %131 + %106#75 {blocks = 1 : i32, k = 16 : i32, m = 16 : i32, n = 16 : i32} blgp =  none : vector<4xf16>, vector<4xf16>, vector<4xf32>
        %272 = amdgpu.mfma %183 * %133 + %106#76 {blocks = 1 : i32, k = 16 : i32, m = 16 : i32, n = 16 : i32} blgp =  none : vector<4xf16>, vector<4xf16>, vector<4xf32>
        %273 = amdgpu.mfma %183 * %135 + %106#77 {blocks = 1 : i32, k = 16 : i32, m = 16 : i32, n = 16 : i32} blgp =  none : vector<4xf16>, vector<4xf16>, vector<4xf32>
        %274 = amdgpu.mfma %183 * %137 + %106#78 {blocks = 1 : i32, k = 16 : i32, m = 16 : i32, n = 16 : i32} blgp =  none : vector<4xf16>, vector<4xf16>, vector<4xf32>
        %275 = amdgpu.mfma %183 * %139 + %106#79 {blocks = 1 : i32, k = 16 : i32, m = 16 : i32, n = 16 : i32} blgp =  none : vector<4xf16>, vector<4xf16>, vector<4xf32>
        %276 = amdgpu.mfma %183 * %141 + %106#80 {blocks = 1 : i32, k = 16 : i32, m = 16 : i32, n = 16 : i32} blgp =  none : vector<4xf16>, vector<4xf16>, vector<4xf32>
        %277 = amdgpu.mfma %183 * %143 + %106#81 {blocks = 1 : i32, k = 16 : i32, m = 16 : i32, n = 16 : i32} blgp =  none : vector<4xf16>, vector<4xf16>, vector<4xf32>
        %278 = amdgpu.mfma %183 * %145 + %106#82 {blocks = 1 : i32, k = 16 : i32, m = 16 : i32, n = 16 : i32} blgp =  none : vector<4xf16>, vector<4xf16>, vector<4xf32>
        %279 = amdgpu.mfma %183 * %147 + %106#83 {blocks = 1 : i32, k = 16 : i32, m = 16 : i32, n = 16 : i32} blgp =  none : vector<4xf16>, vector<4xf16>, vector<4xf32>
        %280 = amdgpu.mfma %183 * %149 + %106#84 {blocks = 1 : i32, k = 16 : i32, m = 16 : i32, n = 16 : i32} blgp =  none : vector<4xf16>, vector<4xf16>, vector<4xf32>
        %281 = amdgpu.mfma %183 * %151 + %106#85 {blocks = 1 : i32, k = 16 : i32, m = 16 : i32, n = 16 : i32} blgp =  none : vector<4xf16>, vector<4xf16>, vector<4xf32>
        %282 = amdgpu.mfma %183 * %153 + %106#86 {blocks = 1 : i32, k = 16 : i32, m = 16 : i32, n = 16 : i32} blgp =  none : vector<4xf16>, vector<4xf16>, vector<4xf32>
        %283 = amdgpu.mfma %183 * %155 + %106#87 {blocks = 1 : i32, k = 16 : i32, m = 16 : i32, n = 16 : i32} blgp =  none : vector<4xf16>, vector<4xf16>, vector<4xf32>
        %284 = amdgpu.mfma %183 * %157 + %106#88 {blocks = 1 : i32, k = 16 : i32, m = 16 : i32, n = 16 : i32} blgp =  none : vector<4xf16>, vector<4xf16>, vector<4xf32>
        %285 = amdgpu.mfma %183 * %159 + %106#89 {blocks = 1 : i32, k = 16 : i32, m = 16 : i32, n = 16 : i32} blgp =  none : vector<4xf16>, vector<4xf16>, vector<4xf32>
        %286 = amdgpu.mfma %183 * %161 + %106#90 {blocks = 1 : i32, k = 16 : i32, m = 16 : i32, n = 16 : i32} blgp =  none : vector<4xf16>, vector<4xf16>, vector<4xf32>
        %287 = amdgpu.mfma %183 * %163 + %106#91 {blocks = 1 : i32, k = 16 : i32, m = 16 : i32, n = 16 : i32} blgp =  none : vector<4xf16>, vector<4xf16>, vector<4xf32>
        %288 = amdgpu.mfma %183 * %165 + %106#92 {blocks = 1 : i32, k = 16 : i32, m = 16 : i32, n = 16 : i32} blgp =  none : vector<4xf16>, vector<4xf16>, vector<4xf32>
        %289 = amdgpu.mfma %183 * %167 + %106#93 {blocks = 1 : i32, k = 16 : i32, m = 16 : i32, n = 16 : i32} blgp =  none : vector<4xf16>, vector<4xf16>, vector<4xf32>
        %290 = amdgpu.mfma %183 * %169 + %106#94 {blocks = 1 : i32, k = 16 : i32, m = 16 : i32, n = 16 : i32} blgp =  none : vector<4xf16>, vector<4xf16>, vector<4xf32>
        %291 = amdgpu.mfma %183 * %171 + %106#95 {blocks = 1 : i32, k = 16 : i32, m = 16 : i32, n = 16 : i32} blgp =  none : vector<4xf16>, vector<4xf16>, vector<4xf32>
        %292 = amdgpu.mfma %187 * %109 + %106#96 {blocks = 1 : i32, k = 16 : i32, m = 16 : i32, n = 16 : i32} blgp =  none : vector<4xf16>, vector<4xf16>, vector<4xf32>
        %293 = amdgpu.mfma %187 * %111 + %106#97 {blocks = 1 : i32, k = 16 : i32, m = 16 : i32, n = 16 : i32} blgp =  none : vector<4xf16>, vector<4xf16>, vector<4xf32>
        %294 = amdgpu.mfma %187 * %113 + %106#98 {blocks = 1 : i32, k = 16 : i32, m = 16 : i32, n = 16 : i32} blgp =  none : vector<4xf16>, vector<4xf16>, vector<4xf32>
        %295 = amdgpu.mfma %187 * %115 + %106#99 {blocks = 1 : i32, k = 16 : i32, m = 16 : i32, n = 16 : i32} blgp =  none : vector<4xf16>, vector<4xf16>, vector<4xf32>
        %296 = amdgpu.mfma %187 * %117 + %106#100 {blocks = 1 : i32, k = 16 : i32, m = 16 : i32, n = 16 : i32} blgp =  none : vector<4xf16>, vector<4xf16>, vector<4xf32>
        %297 = amdgpu.mfma %187 * %119 + %106#101 {blocks = 1 : i32, k = 16 : i32, m = 16 : i32, n = 16 : i32} blgp =  none : vector<4xf16>, vector<4xf16>, vector<4xf32>
        %298 = amdgpu.mfma %187 * %121 + %106#102 {blocks = 1 : i32, k = 16 : i32, m = 16 : i32, n = 16 : i32} blgp =  none : vector<4xf16>, vector<4xf16>, vector<4xf32>
        %299 = amdgpu.mfma %187 * %123 + %106#103 {blocks = 1 : i32, k = 16 : i32, m = 16 : i32, n = 16 : i32} blgp =  none : vector<4xf16>, vector<4xf16>, vector<4xf32>
        %300 = amdgpu.mfma %187 * %125 + %106#104 {blocks = 1 : i32, k = 16 : i32, m = 16 : i32, n = 16 : i32} blgp =  none : vector<4xf16>, vector<4xf16>, vector<4xf32>
        %301 = amdgpu.mfma %187 * %127 + %106#105 {blocks = 1 : i32, k = 16 : i32, m = 16 : i32, n = 16 : i32} blgp =  none : vector<4xf16>, vector<4xf16>, vector<4xf32>
        %302 = amdgpu.mfma %187 * %129 + %106#106 {blocks = 1 : i32, k = 16 : i32, m = 16 : i32, n = 16 : i32} blgp =  none : vector<4xf16>, vector<4xf16>, vector<4xf32>
        %303 = amdgpu.mfma %187 * %131 + %106#107 {blocks = 1 : i32, k = 16 : i32, m = 16 : i32, n = 16 : i32} blgp =  none : vector<4xf16>, vector<4xf16>, vector<4xf32>
        %304 = amdgpu.mfma %187 * %133 + %106#108 {blocks = 1 : i32, k = 16 : i32, m = 16 : i32, n = 16 : i32} blgp =  none : vector<4xf16>, vector<4xf16>, vector<4xf32>
        %305 = amdgpu.mfma %187 * %135 + %106#109 {blocks = 1 : i32, k = 16 : i32, m = 16 : i32, n = 16 : i32} blgp =  none : vector<4xf16>, vector<4xf16>, vector<4xf32>
        %306 = amdgpu.mfma %187 * %137 + %106#110 {blocks = 1 : i32, k = 16 : i32, m = 16 : i32, n = 16 : i32} blgp =  none : vector<4xf16>, vector<4xf16>, vector<4xf32>
        %307 = amdgpu.mfma %187 * %139 + %106#111 {blocks = 1 : i32, k = 16 : i32, m = 16 : i32, n = 16 : i32} blgp =  none : vector<4xf16>, vector<4xf16>, vector<4xf32>
        %308 = amdgpu.mfma %187 * %141 + %106#112 {blocks = 1 : i32, k = 16 : i32, m = 16 : i32, n = 16 : i32} blgp =  none : vector<4xf16>, vector<4xf16>, vector<4xf32>
        %309 = amdgpu.mfma %187 * %143 + %106#113 {blocks = 1 : i32, k = 16 : i32, m = 16 : i32, n = 16 : i32} blgp =  none : vector<4xf16>, vector<4xf16>, vector<4xf32>
        %310 = amdgpu.mfma %187 * %145 + %106#114 {blocks = 1 : i32, k = 16 : i32, m = 16 : i32, n = 16 : i32} blgp =  none : vector<4xf16>, vector<4xf16>, vector<4xf32>
        %311 = amdgpu.mfma %187 * %147 + %106#115 {blocks = 1 : i32, k = 16 : i32, m = 16 : i32, n = 16 : i32} blgp =  none : vector<4xf16>, vector<4xf16>, vector<4xf32>
        %312 = amdgpu.mfma %187 * %149 + %106#116 {blocks = 1 : i32, k = 16 : i32, m = 16 : i32, n = 16 : i32} blgp =  none : vector<4xf16>, vector<4xf16>, vector<4xf32>
        %313 = amdgpu.mfma %187 * %151 + %106#117 {blocks = 1 : i32, k = 16 : i32, m = 16 : i32, n = 16 : i32} blgp =  none : vector<4xf16>, vector<4xf16>, vector<4xf32>
        %314 = amdgpu.mfma %187 * %153 + %106#118 {blocks = 1 : i32, k = 16 : i32, m = 16 : i32, n = 16 : i32} blgp =  none : vector<4xf16>, vector<4xf16>, vector<4xf32>
        %315 = amdgpu.mfma %187 * %155 + %106#119 {blocks = 1 : i32, k = 16 : i32, m = 16 : i32, n = 16 : i32} blgp =  none : vector<4xf16>, vector<4xf16>, vector<4xf32>
        %316 = amdgpu.mfma %187 * %157 + %106#120 {blocks = 1 : i32, k = 16 : i32, m = 16 : i32, n = 16 : i32} blgp =  none : vector<4xf16>, vector<4xf16>, vector<4xf32>
        %317 = amdgpu.mfma %187 * %159 + %106#121 {blocks = 1 : i32, k = 16 : i32, m = 16 : i32, n = 16 : i32} blgp =  none : vector<4xf16>, vector<4xf16>, vector<4xf32>
        %318 = amdgpu.mfma %187 * %161 + %106#122 {blocks = 1 : i32, k = 16 : i32, m = 16 : i32, n = 16 : i32} blgp =  none : vector<4xf16>, vector<4xf16>, vector<4xf32>
        %319 = amdgpu.mfma %187 * %163 + %106#123 {blocks = 1 : i32, k = 16 : i32, m = 16 : i32, n = 16 : i32} blgp =  none : vector<4xf16>, vector<4xf16>, vector<4xf32>
        %320 = amdgpu.mfma %187 * %165 + %106#124 {blocks = 1 : i32, k = 16 : i32, m = 16 : i32, n = 16 : i32} blgp =  none : vector<4xf16>, vector<4xf16>, vector<4xf32>
        %321 = amdgpu.mfma %187 * %167 + %106#125 {blocks = 1 : i32, k = 16 : i32, m = 16 : i32, n = 16 : i32} blgp =  none : vector<4xf16>, vector<4xf16>, vector<4xf32>
        %322 = amdgpu.mfma %187 * %169 + %106#126 {blocks = 1 : i32, k = 16 : i32, m = 16 : i32, n = 16 : i32} blgp =  none : vector<4xf16>, vector<4xf16>, vector<4xf32>
        %323 = amdgpu.mfma %187 * %171 + %106#127 {blocks = 1 : i32, k = 16 : i32, m = 16 : i32, n = 16 : i32} blgp =  none : vector<4xf16>, vector<4xf16>, vector<4xf32>
        %324 = amdgpu.mfma %191 * %109 + %106#128 {blocks = 1 : i32, k = 16 : i32, m = 16 : i32, n = 16 : i32} blgp =  none : vector<4xf16>, vector<4xf16>, vector<4xf32>
        %325 = amdgpu.mfma %191 * %111 + %106#129 {blocks = 1 : i32, k = 16 : i32, m = 16 : i32, n = 16 : i32} blgp =  none : vector<4xf16>, vector<4xf16>, vector<4xf32>
        %326 = amdgpu.mfma %191 * %113 + %106#130 {blocks = 1 : i32, k = 16 : i32, m = 16 : i32, n = 16 : i32} blgp =  none : vector<4xf16>, vector<4xf16>, vector<4xf32>
        %327 = amdgpu.mfma %191 * %115 + %106#131 {blocks = 1 : i32, k = 16 : i32, m = 16 : i32, n = 16 : i32} blgp =  none : vector<4xf16>, vector<4xf16>, vector<4xf32>
        %328 = amdgpu.mfma %191 * %117 + %106#132 {blocks = 1 : i32, k = 16 : i32, m = 16 : i32, n = 16 : i32} blgp =  none : vector<4xf16>, vector<4xf16>, vector<4xf32>
        %329 = amdgpu.mfma %191 * %119 + %106#133 {blocks = 1 : i32, k = 16 : i32, m = 16 : i32, n = 16 : i32} blgp =  none : vector<4xf16>, vector<4xf16>, vector<4xf32>
        %330 = amdgpu.mfma %191 * %121 + %106#134 {blocks = 1 : i32, k = 16 : i32, m = 16 : i32, n = 16 : i32} blgp =  none : vector<4xf16>, vector<4xf16>, vector<4xf32>
        %331 = amdgpu.mfma %191 * %123 + %106#135 {blocks = 1 : i32, k = 16 : i32, m = 16 : i32, n = 16 : i32} blgp =  none : vector<4xf16>, vector<4xf16>, vector<4xf32>
        %332 = amdgpu.mfma %191 * %125 + %106#136 {blocks = 1 : i32, k = 16 : i32, m = 16 : i32, n = 16 : i32} blgp =  none : vector<4xf16>, vector<4xf16>, vector<4xf32>
        %333 = amdgpu.mfma %191 * %127 + %106#137 {blocks = 1 : i32, k = 16 : i32, m = 16 : i32, n = 16 : i32} blgp =  none : vector<4xf16>, vector<4xf16>, vector<4xf32>
        %334 = amdgpu.mfma %191 * %129 + %106#138 {blocks = 1 : i32, k = 16 : i32, m = 16 : i32, n = 16 : i32} blgp =  none : vector<4xf16>, vector<4xf16>, vector<4xf32>
        %335 = amdgpu.mfma %191 * %131 + %106#139 {blocks = 1 : i32, k = 16 : i32, m = 16 : i32, n = 16 : i32} blgp =  none : vector<4xf16>, vector<4xf16>, vector<4xf32>
        %336 = amdgpu.mfma %191 * %133 + %106#140 {blocks = 1 : i32, k = 16 : i32, m = 16 : i32, n = 16 : i32} blgp =  none : vector<4xf16>, vector<4xf16>, vector<4xf32>
        %337 = amdgpu.mfma %191 * %135 + %106#141 {blocks = 1 : i32, k = 16 : i32, m = 16 : i32, n = 16 : i32} blgp =  none : vector<4xf16>, vector<4xf16>, vector<4xf32>
        %338 = amdgpu.mfma %191 * %137 + %106#142 {blocks = 1 : i32, k = 16 : i32, m = 16 : i32, n = 16 : i32} blgp =  none : vector<4xf16>, vector<4xf16>, vector<4xf32>
        %339 = amdgpu.mfma %191 * %139 + %106#143 {blocks = 1 : i32, k = 16 : i32, m = 16 : i32, n = 16 : i32} blgp =  none : vector<4xf16>, vector<4xf16>, vector<4xf32>
        %340 = amdgpu.mfma %191 * %141 + %106#144 {blocks = 1 : i32, k = 16 : i32, m = 16 : i32, n = 16 : i32} blgp =  none : vector<4xf16>, vector<4xf16>, vector<4xf32>
        %341 = amdgpu.mfma %191 * %143 + %106#145 {blocks = 1 : i32, k = 16 : i32, m = 16 : i32, n = 16 : i32} blgp =  none : vector<4xf16>, vector<4xf16>, vector<4xf32>
        %342 = amdgpu.mfma %191 * %145 + %106#146 {blocks = 1 : i32, k = 16 : i32, m = 16 : i32, n = 16 : i32} blgp =  none : vector<4xf16>, vector<4xf16>, vector<4xf32>
        %343 = amdgpu.mfma %191 * %147 + %106#147 {blocks = 1 : i32, k = 16 : i32, m = 16 : i32, n = 16 : i32} blgp =  none : vector<4xf16>, vector<4xf16>, vector<4xf32>
        %344 = amdgpu.mfma %191 * %149 + %106#148 {blocks = 1 : i32, k = 16 : i32, m = 16 : i32, n = 16 : i32} blgp =  none : vector<4xf16>, vector<4xf16>, vector<4xf32>
        %345 = amdgpu.mfma %191 * %151 + %106#149 {blocks = 1 : i32, k = 16 : i32, m = 16 : i32, n = 16 : i32} blgp =  none : vector<4xf16>, vector<4xf16>, vector<4xf32>
        %346 = amdgpu.mfma %191 * %153 + %106#150 {blocks = 1 : i32, k = 16 : i32, m = 16 : i32, n = 16 : i32} blgp =  none : vector<4xf16>, vector<4xf16>, vector<4xf32>
        %347 = amdgpu.mfma %191 * %155 + %106#151 {blocks = 1 : i32, k = 16 : i32, m = 16 : i32, n = 16 : i32} blgp =  none : vector<4xf16>, vector<4xf16>, vector<4xf32>
        %348 = amdgpu.mfma %191 * %157 + %106#152 {blocks = 1 : i32, k = 16 : i32, m = 16 : i32, n = 16 : i32} blgp =  none : vector<4xf16>, vector<4xf16>, vector<4xf32>
        %349 = amdgpu.mfma %191 * %159 + %106#153 {blocks = 1 : i32, k = 16 : i32, m = 16 : i32, n = 16 : i32} blgp =  none : vector<4xf16>, vector<4xf16>, vector<4xf32>
        %350 = amdgpu.mfma %191 * %161 + %106#154 {blocks = 1 : i32, k = 16 : i32, m = 16 : i32, n = 16 : i32} blgp =  none : vector<4xf16>, vector<4xf16>, vector<4xf32>
        %351 = amdgpu.mfma %191 * %163 + %106#155 {blocks = 1 : i32, k = 16 : i32, m = 16 : i32, n = 16 : i32} blgp =  none : vector<4xf16>, vector<4xf16>, vector<4xf32>
        %352 = amdgpu.mfma %191 * %165 + %106#156 {blocks = 1 : i32, k = 16 : i32, m = 16 : i32, n = 16 : i32} blgp =  none : vector<4xf16>, vector<4xf16>, vector<4xf32>
        %353 = amdgpu.mfma %191 * %167 + %106#157 {blocks = 1 : i32, k = 16 : i32, m = 16 : i32, n = 16 : i32} blgp =  none : vector<4xf16>, vector<4xf16>, vector<4xf32>
        %354 = amdgpu.mfma %191 * %169 + %106#158 {blocks = 1 : i32, k = 16 : i32, m = 16 : i32, n = 16 : i32} blgp =  none : vector<4xf16>, vector<4xf16>, vector<4xf32>
        %355 = amdgpu.mfma %191 * %171 + %106#159 {blocks = 1 : i32, k = 16 : i32, m = 16 : i32, n = 16 : i32} blgp =  none : vector<4xf16>, vector<4xf16>, vector<4xf32>
        %356 = amdgpu.mfma %195 * %109 + %106#160 {blocks = 1 : i32, k = 16 : i32, m = 16 : i32, n = 16 : i32} blgp =  none : vector<4xf16>, vector<4xf16>, vector<4xf32>
        %357 = amdgpu.mfma %195 * %111 + %106#161 {blocks = 1 : i32, k = 16 : i32, m = 16 : i32, n = 16 : i32} blgp =  none : vector<4xf16>, vector<4xf16>, vector<4xf32>
        %358 = amdgpu.mfma %195 * %113 + %106#162 {blocks = 1 : i32, k = 16 : i32, m = 16 : i32, n = 16 : i32} blgp =  none : vector<4xf16>, vector<4xf16>, vector<4xf32>
        %359 = amdgpu.mfma %195 * %115 + %106#163 {blocks = 1 : i32, k = 16 : i32, m = 16 : i32, n = 16 : i32} blgp =  none : vector<4xf16>, vector<4xf16>, vector<4xf32>
        %360 = amdgpu.mfma %195 * %117 + %106#164 {blocks = 1 : i32, k = 16 : i32, m = 16 : i32, n = 16 : i32} blgp =  none : vector<4xf16>, vector<4xf16>, vector<4xf32>
        %361 = amdgpu.mfma %195 * %119 + %106#165 {blocks = 1 : i32, k = 16 : i32, m = 16 : i32, n = 16 : i32} blgp =  none : vector<4xf16>, vector<4xf16>, vector<4xf32>
        %362 = amdgpu.mfma %195 * %121 + %106#166 {blocks = 1 : i32, k = 16 : i32, m = 16 : i32, n = 16 : i32} blgp =  none : vector<4xf16>, vector<4xf16>, vector<4xf32>
        %363 = amdgpu.mfma %195 * %123 + %106#167 {blocks = 1 : i32, k = 16 : i32, m = 16 : i32, n = 16 : i32} blgp =  none : vector<4xf16>, vector<4xf16>, vector<4xf32>
        %364 = amdgpu.mfma %195 * %125 + %106#168 {blocks = 1 : i32, k = 16 : i32, m = 16 : i32, n = 16 : i32} blgp =  none : vector<4xf16>, vector<4xf16>, vector<4xf32>
        %365 = amdgpu.mfma %195 * %127 + %106#169 {blocks = 1 : i32, k = 16 : i32, m = 16 : i32, n = 16 : i32} blgp =  none : vector<4xf16>, vector<4xf16>, vector<4xf32>
        %366 = amdgpu.mfma %195 * %129 + %106#170 {blocks = 1 : i32, k = 16 : i32, m = 16 : i32, n = 16 : i32} blgp =  none : vector<4xf16>, vector<4xf16>, vector<4xf32>
        %367 = amdgpu.mfma %195 * %131 + %106#171 {blocks = 1 : i32, k = 16 : i32, m = 16 : i32, n = 16 : i32} blgp =  none : vector<4xf16>, vector<4xf16>, vector<4xf32>
        %368 = amdgpu.mfma %195 * %133 + %106#172 {blocks = 1 : i32, k = 16 : i32, m = 16 : i32, n = 16 : i32} blgp =  none : vector<4xf16>, vector<4xf16>, vector<4xf32>
        %369 = amdgpu.mfma %195 * %135 + %106#173 {blocks = 1 : i32, k = 16 : i32, m = 16 : i32, n = 16 : i32} blgp =  none : vector<4xf16>, vector<4xf16>, vector<4xf32>
        %370 = amdgpu.mfma %195 * %137 + %106#174 {blocks = 1 : i32, k = 16 : i32, m = 16 : i32, n = 16 : i32} blgp =  none : vector<4xf16>, vector<4xf16>, vector<4xf32>
        %371 = amdgpu.mfma %195 * %139 + %106#175 {blocks = 1 : i32, k = 16 : i32, m = 16 : i32, n = 16 : i32} blgp =  none : vector<4xf16>, vector<4xf16>, vector<4xf32>
        %372 = amdgpu.mfma %195 * %141 + %106#176 {blocks = 1 : i32, k = 16 : i32, m = 16 : i32, n = 16 : i32} blgp =  none : vector<4xf16>, vector<4xf16>, vector<4xf32>
        %373 = amdgpu.mfma %195 * %143 + %106#177 {blocks = 1 : i32, k = 16 : i32, m = 16 : i32, n = 16 : i32} blgp =  none : vector<4xf16>, vector<4xf16>, vector<4xf32>
        %374 = amdgpu.mfma %195 * %145 + %106#178 {blocks = 1 : i32, k = 16 : i32, m = 16 : i32, n = 16 : i32} blgp =  none : vector<4xf16>, vector<4xf16>, vector<4xf32>
        %375 = amdgpu.mfma %195 * %147 + %106#179 {blocks = 1 : i32, k = 16 : i32, m = 16 : i32, n = 16 : i32} blgp =  none : vector<4xf16>, vector<4xf16>, vector<4xf32>
        %376 = amdgpu.mfma %195 * %149 + %106#180 {blocks = 1 : i32, k = 16 : i32, m = 16 : i32, n = 16 : i32} blgp =  none : vector<4xf16>, vector<4xf16>, vector<4xf32>
        %377 = amdgpu.mfma %195 * %151 + %106#181 {blocks = 1 : i32, k = 16 : i32, m = 16 : i32, n = 16 : i32} blgp =  none : vector<4xf16>, vector<4xf16>, vector<4xf32>
        %378 = amdgpu.mfma %195 * %153 + %106#182 {blocks = 1 : i32, k = 16 : i32, m = 16 : i32, n = 16 : i32} blgp =  none : vector<4xf16>, vector<4xf16>, vector<4xf32>
        %379 = amdgpu.mfma %195 * %155 + %106#183 {blocks = 1 : i32, k = 16 : i32, m = 16 : i32, n = 16 : i32} blgp =  none : vector<4xf16>, vector<4xf16>, vector<4xf32>
        %380 = amdgpu.mfma %195 * %157 + %106#184 {blocks = 1 : i32, k = 16 : i32, m = 16 : i32, n = 16 : i32} blgp =  none : vector<4xf16>, vector<4xf16>, vector<4xf32>
        %381 = amdgpu.mfma %195 * %159 + %106#185 {blocks = 1 : i32, k = 16 : i32, m = 16 : i32, n = 16 : i32} blgp =  none : vector<4xf16>, vector<4xf16>, vector<4xf32>
        %382 = amdgpu.mfma %195 * %161 + %106#186 {blocks = 1 : i32, k = 16 : i32, m = 16 : i32, n = 16 : i32} blgp =  none : vector<4xf16>, vector<4xf16>, vector<4xf32>
        %383 = amdgpu.mfma %195 * %163 + %106#187 {blocks = 1 : i32, k = 16 : i32, m = 16 : i32, n = 16 : i32} blgp =  none : vector<4xf16>, vector<4xf16>, vector<4xf32>
        %384 = amdgpu.mfma %195 * %165 + %106#188 {blocks = 1 : i32, k = 16 : i32, m = 16 : i32, n = 16 : i32} blgp =  none : vector<4xf16>, vector<4xf16>, vector<4xf32>
        %385 = amdgpu.mfma %195 * %167 + %106#189 {blocks = 1 : i32, k = 16 : i32, m = 16 : i32, n = 16 : i32} blgp =  none : vector<4xf16>, vector<4xf16>, vector<4xf32>
        %386 = amdgpu.mfma %195 * %169 + %106#190 {blocks = 1 : i32, k = 16 : i32, m = 16 : i32, n = 16 : i32} blgp =  none : vector<4xf16>, vector<4xf16>, vector<4xf32>
        %387 = amdgpu.mfma %195 * %171 + %106#191 {blocks = 1 : i32, k = 16 : i32, m = 16 : i32, n = 16 : i32} blgp =  none : vector<4xf16>, vector<4xf16>, vector<4xf32>
        %388 = vector.extract_strided_slice %196 {offsets = [0], sizes = [1], strides = [1]} : vector<4xf32> to vector<1xf32>
        %389 = stream.binding.subspan %arg2[%c0] : !stream.binding -> memref<642x1024xf32, strided<[1024, 1], offset: ?>>
        %390 = affine.apply #map51()[%block_id_x, %thread_id_x]
        %391 = affine.apply #map52()[%block_id_x]
        %392 = arith.minsi %390, %391 : index
        %393 = arith.minsi %392, %c642 : index
        %394 = affine.apply #map53()[%block_id_x, %2, %thread_id_x]
        %395 = arith.cmpi slt, %394, %393 : index
        %396 = affine.apply #map54()[%block_id_x, %2]
        %397 = affine.apply #map55()[%thread_id_x]
        %398 = arith.muli %396, %c1024 overflow<nsw> : index
        %399 = arith.muli %397, %c1024 overflow<nsw> : index
        %400 = arith.addi %399, %107 overflow<nsw> : index
        %base_buffer_9, %offset_10, %sizes_11:2, %strides_12:2 = memref.extract_strided_metadata %389 : memref<642x1024xf32, strided<[1024, 1], offset: ?>> -> memref<f32>, index, index, index, index, index
        %401 = arith.addi %398, %offset_10 overflow<nsw> : index
        %reinterpret_cast_13 = memref.reinterpret_cast %389 to offset: [%401], sizes: [%c536870910], strides: [1] : memref<642x1024xf32, strided<[1024, 1], offset: ?>> to memref<?xf32, strided<[1], offset: ?>>
        %402 = amdgpu.fat_raw_buffer_cast %reinterpret_cast_13 validBytes(%c2147483643_i32) cacheSwizzleStride(%c1024_i14) resetOffset : memref<?xf32, strided<[1], offset: ?>> to memref<?xf32, #amdgpu.address_space<fat_raw_buffer>>
        %403 = arith.select %395, %400, %c536870911 : index
        vector.store %388, %402[%403] : memref<?xf32, #amdgpu.address_space<fat_raw_buffer>>, vector<1xf32>
        %404 = vector.extract_strided_slice %196 {offsets = [1], sizes = [1], strides = [1]} : vector<4xf32> to vector<1xf32>
        %405 = affine.apply #map56()[%block_id_x, %2, %thread_id_x]
        %406 = arith.cmpi slt, %405, %393 : index
        %407 = affine.apply #map57()[%thread_id_x]
        %408 = arith.muli %407, %c1024 overflow<nsw> : index
        %409 = arith.addi %408, %107 overflow<nsw> : index
        %410 = arith.select %406, %409, %c536870911 : index
        vector.store %404, %402[%410] : memref<?xf32, #amdgpu.address_space<fat_raw_buffer>>, vector<1xf32>
        %411 = vector.extract_strided_slice %196 {offsets = [2], sizes = [1], strides = [1]} : vector<4xf32> to vector<1xf32>
        %412 = affine.apply #map58()[%block_id_x, %2, %thread_id_x]
        %413 = arith.cmpi slt, %412, %393 : index
        %414 = affine.apply #map59()[%thread_id_x]
        %415 = arith.muli %414, %c1024 overflow<nsw> : index
        %416 = arith.addi %415, %107 overflow<nsw> : index
        %417 = arith.select %413, %416, %c536870911 : index
        vector.store %411, %402[%417] : memref<?xf32, #amdgpu.address_space<fat_raw_buffer>>, vector<1xf32>
        %418 = vector.extract_strided_slice %196 {offsets = [3], sizes = [1], strides = [1]} : vector<4xf32> to vector<1xf32>
        %419 = affine.apply #map60()[%block_id_x, %2, %thread_id_x]
        %420 = arith.cmpi slt, %419, %393 : index
        %421 = affine.apply #map61()[%thread_id_x]
        %422 = arith.muli %421, %c1024 overflow<nsw> : index
        %423 = arith.addi %422, %107 overflow<nsw> : index
        %424 = arith.select %420, %423, %c536870911 : index
        vector.store %418, %402[%424] : memref<?xf32, #amdgpu.address_space<fat_raw_buffer>>, vector<1xf32>
        %425 = vector.extract_strided_slice %197 {offsets = [0], sizes = [1], strides = [1]} : vector<4xf32> to vector<1xf32>
        %426 = arith.addi %399, %110 overflow<nsw> : index
        %427 = arith.select %395, %426, %c536870911 : index
        vector.store %425, %402[%427] : memref<?xf32, #amdgpu.address_space<fat_raw_buffer>>, vector<1xf32>
        %428 = vector.extract_strided_slice %197 {offsets = [1], sizes = [1], strides = [1]} : vector<4xf32> to vector<1xf32>
        %429 = arith.addi %408, %110 overflow<nsw> : index
        %430 = arith.select %406, %429, %c536870911 : index
        vector.store %428, %402[%430] : memref<?xf32, #amdgpu.address_space<fat_raw_buffer>>, vector<1xf32>
        %431 = vector.extract_strided_slice %197 {offsets = [2], sizes = [1], strides = [1]} : vector<4xf32> to vector<1xf32>
        %432 = arith.addi %415, %110 overflow<nsw> : index
        %433 = arith.select %413, %432, %c536870911 : index
        vector.store %431, %402[%433] : memref<?xf32, #amdgpu.address_space<fat_raw_buffer>>, vector<1xf32>
        %434 = vector.extract_strided_slice %197 {offsets = [3], sizes = [1], strides = [1]} : vector<4xf32> to vector<1xf32>
        %435 = arith.addi %422, %110 overflow<nsw> : index
        %436 = arith.select %420, %435, %c536870911 : index
        vector.store %434, %402[%436] : memref<?xf32, #amdgpu.address_space<fat_raw_buffer>>, vector<1xf32>
        %437 = vector.extract_strided_slice %198 {offsets = [0], sizes = [1], strides = [1]} : vector<4xf32> to vector<1xf32>
        %438 = arith.addi %399, %112 overflow<nsw> : index
        %439 = arith.select %395, %438, %c536870911 : index
        vector.store %437, %402[%439] : memref<?xf32, #amdgpu.address_space<fat_raw_buffer>>, vector<1xf32>
        %440 = vector.extract_strided_slice %198 {offsets = [1], sizes = [1], strides = [1]} : vector<4xf32> to vector<1xf32>
        %441 = arith.addi %408, %112 overflow<nsw> : index
        %442 = arith.select %406, %441, %c536870911 : index
        vector.store %440, %402[%442] : memref<?xf32, #amdgpu.address_space<fat_raw_buffer>>, vector<1xf32>
        %443 = vector.extract_strided_slice %198 {offsets = [2], sizes = [1], strides = [1]} : vector<4xf32> to vector<1xf32>
        %444 = arith.addi %415, %112 overflow<nsw> : index
        %445 = arith.select %413, %444, %c536870911 : index
        vector.store %443, %402[%445] : memref<?xf32, #amdgpu.address_space<fat_raw_buffer>>, vector<1xf32>
        %446 = vector.extract_strided_slice %198 {offsets = [3], sizes = [1], strides = [1]} : vector<4xf32> to vector<1xf32>
        %447 = arith.addi %422, %112 overflow<nsw> : index
        %448 = arith.select %420, %447, %c536870911 : index
        vector.store %446, %402[%448] : memref<?xf32, #amdgpu.address_space<fat_raw_buffer>>, vector<1xf32>
        %449 = vector.extract_strided_slice %199 {offsets = [0], sizes = [1], strides = [1]} : vector<4xf32> to vector<1xf32>
        %450 = arith.addi %399, %114 overflow<nsw> : index
        %451 = arith.select %395, %450, %c536870911 : index
        vector.store %449, %402[%451] : memref<?xf32, #amdgpu.address_space<fat_raw_buffer>>, vector<1xf32>
        %452 = vector.extract_strided_slice %199 {offsets = [1], sizes = [1], strides = [1]} : vector<4xf32> to vector<1xf32>
        %453 = arith.addi %408, %114 overflow<nsw> : index
        %454 = arith.select %406, %453, %c536870911 : index
        vector.store %452, %402[%454] : memref<?xf32, #amdgpu.address_space<fat_raw_buffer>>, vector<1xf32>
        %455 = vector.extract_strided_slice %199 {offsets = [2], sizes = [1], strides = [1]} : vector<4xf32> to vector<1xf32>
        %456 = arith.addi %415, %114 overflow<nsw> : index
        %457 = arith.select %413, %456, %c536870911 : index
        vector.store %455, %402[%457] : memref<?xf32, #amdgpu.address_space<fat_raw_buffer>>, vector<1xf32>
        %458 = vector.extract_strided_slice %199 {offsets = [3], sizes = [1], strides = [1]} : vector<4xf32> to vector<1xf32>
        %459 = arith.addi %422, %114 overflow<nsw> : index
        %460 = arith.select %420, %459, %c536870911 : index
        vector.store %458, %402[%460] : memref<?xf32, #amdgpu.address_space<fat_raw_buffer>>, vector<1xf32>
        %461 = vector.extract_strided_slice %200 {offsets = [0], sizes = [1], strides = [1]} : vector<4xf32> to vector<1xf32>
        %462 = arith.addi %399, %116 overflow<nsw> : index
        %463 = arith.select %395, %462, %c536870911 : index
        vector.store %461, %402[%463] : memref<?xf32, #amdgpu.address_space<fat_raw_buffer>>, vector<1xf32>
        %464 = vector.extract_strided_slice %200 {offsets = [1], sizes = [1], strides = [1]} : vector<4xf32> to vector<1xf32>
        %465 = arith.addi %408, %116 overflow<nsw> : index
        %466 = arith.select %406, %465, %c536870911 : index
        vector.store %464, %402[%466] : memref<?xf32, #amdgpu.address_space<fat_raw_buffer>>, vector<1xf32>
        %467 = vector.extract_strided_slice %200 {offsets = [2], sizes = [1], strides = [1]} : vector<4xf32> to vector<1xf32>
        %468 = arith.addi %415, %116 overflow<nsw> : index
        %469 = arith.select %413, %468, %c536870911 : index
        vector.store %467, %402[%469] : memref<?xf32, #amdgpu.address_space<fat_raw_buffer>>, vector<1xf32>
        %470 = vector.extract_strided_slice %200 {offsets = [3], sizes = [1], strides = [1]} : vector<4xf32> to vector<1xf32>
        %471 = arith.addi %422, %116 overflow<nsw> : index
        %472 = arith.select %420, %471, %c536870911 : index
        vector.store %470, %402[%472] : memref<?xf32, #amdgpu.address_space<fat_raw_buffer>>, vector<1xf32>
        %473 = vector.extract_strided_slice %201 {offsets = [0], sizes = [1], strides = [1]} : vector<4xf32> to vector<1xf32>
        %474 = arith.addi %399, %118 overflow<nsw> : index
        %475 = arith.select %395, %474, %c536870911 : index
        vector.store %473, %402[%475] : memref<?xf32, #amdgpu.address_space<fat_raw_buffer>>, vector<1xf32>
        %476 = vector.extract_strided_slice %201 {offsets = [1], sizes = [1], strides = [1]} : vector<4xf32> to vector<1xf32>
        %477 = arith.addi %408, %118 overflow<nsw> : index
        %478 = arith.select %406, %477, %c536870911 : index
        vector.store %476, %402[%478] : memref<?xf32, #amdgpu.address_space<fat_raw_buffer>>, vector<1xf32>
        %479 = vector.extract_strided_slice %201 {offsets = [2], sizes = [1], strides = [1]} : vector<4xf32> to vector<1xf32>
        %480 = arith.addi %415, %118 overflow<nsw> : index
        %481 = arith.select %413, %480, %c536870911 : index
        vector.store %479, %402[%481] : memref<?xf32, #amdgpu.address_space<fat_raw_buffer>>, vector<1xf32>
        %482 = vector.extract_strided_slice %201 {offsets = [3], sizes = [1], strides = [1]} : vector<4xf32> to vector<1xf32>
        %483 = arith.addi %422, %118 overflow<nsw> : index
        %484 = arith.select %420, %483, %c536870911 : index
        vector.store %482, %402[%484] : memref<?xf32, #amdgpu.address_space<fat_raw_buffer>>, vector<1xf32>
        %485 = vector.extract_strided_slice %202 {offsets = [0], sizes = [1], strides = [1]} : vector<4xf32> to vector<1xf32>
        %486 = arith.addi %399, %120 overflow<nsw> : index
        %487 = arith.select %395, %486, %c536870911 : index
        vector.store %485, %402[%487] : memref<?xf32, #amdgpu.address_space<fat_raw_buffer>>, vector<1xf32>
        %488 = vector.extract_strided_slice %202 {offsets = [1], sizes = [1], strides = [1]} : vector<4xf32> to vector<1xf32>
        %489 = arith.addi %408, %120 overflow<nsw> : index
        %490 = arith.select %406, %489, %c536870911 : index
        vector.store %488, %402[%490] : memref<?xf32, #amdgpu.address_space<fat_raw_buffer>>, vector<1xf32>
        %491 = vector.extract_strided_slice %202 {offsets = [2], sizes = [1], strides = [1]} : vector<4xf32> to vector<1xf32>
        %492 = arith.addi %415, %120 overflow<nsw> : index
        %493 = arith.select %413, %492, %c536870911 : index
        vector.store %491, %402[%493] : memref<?xf32, #amdgpu.address_space<fat_raw_buffer>>, vector<1xf32>
        %494 = vector.extract_strided_slice %202 {offsets = [3], sizes = [1], strides = [1]} : vector<4xf32> to vector<1xf32>
        %495 = arith.addi %422, %120 overflow<nsw> : index
        %496 = arith.select %420, %495, %c536870911 : index
        vector.store %494, %402[%496] : memref<?xf32, #amdgpu.address_space<fat_raw_buffer>>, vector<1xf32>
        %497 = vector.extract_strided_slice %203 {offsets = [0], sizes = [1], strides = [1]} : vector<4xf32> to vector<1xf32>
        %498 = arith.addi %399, %122 overflow<nsw> : index
        %499 = arith.select %395, %498, %c536870911 : index
        vector.store %497, %402[%499] : memref<?xf32, #amdgpu.address_space<fat_raw_buffer>>, vector<1xf32>
        %500 = vector.extract_strided_slice %203 {offsets = [1], sizes = [1], strides = [1]} : vector<4xf32> to vector<1xf32>
        %501 = arith.addi %408, %122 overflow<nsw> : index
        %502 = arith.select %406, %501, %c536870911 : index
        vector.store %500, %402[%502] : memref<?xf32, #amdgpu.address_space<fat_raw_buffer>>, vector<1xf32>
        %503 = vector.extract_strided_slice %203 {offsets = [2], sizes = [1], strides = [1]} : vector<4xf32> to vector<1xf32>
        %504 = arith.addi %415, %122 overflow<nsw> : index
        %505 = arith.select %413, %504, %c536870911 : index
        vector.store %503, %402[%505] : memref<?xf32, #amdgpu.address_space<fat_raw_buffer>>, vector<1xf32>
        %506 = vector.extract_strided_slice %203 {offsets = [3], sizes = [1], strides = [1]} : vector<4xf32> to vector<1xf32>
        %507 = arith.addi %422, %122 overflow<nsw> : index
        %508 = arith.select %420, %507, %c536870911 : index
        vector.store %506, %402[%508] : memref<?xf32, #amdgpu.address_space<fat_raw_buffer>>, vector<1xf32>
        %509 = vector.extract_strided_slice %204 {offsets = [0], sizes = [1], strides = [1]} : vector<4xf32> to vector<1xf32>
        %510 = arith.addi %399, %124 overflow<nsw> : index
        %511 = arith.select %395, %510, %c536870911 : index
        vector.store %509, %402[%511] : memref<?xf32, #amdgpu.address_space<fat_raw_buffer>>, vector<1xf32>
        %512 = vector.extract_strided_slice %204 {offsets = [1], sizes = [1], strides = [1]} : vector<4xf32> to vector<1xf32>
        %513 = arith.addi %408, %124 overflow<nsw> : index
        %514 = arith.select %406, %513, %c536870911 : index
        vector.store %512, %402[%514] : memref<?xf32, #amdgpu.address_space<fat_raw_buffer>>, vector<1xf32>
        %515 = vector.extract_strided_slice %204 {offsets = [2], sizes = [1], strides = [1]} : vector<4xf32> to vector<1xf32>
        %516 = arith.addi %415, %124 overflow<nsw> : index
        %517 = arith.select %413, %516, %c536870911 : index
        vector.store %515, %402[%517] : memref<?xf32, #amdgpu.address_space<fat_raw_buffer>>, vector<1xf32>
        %518 = vector.extract_strided_slice %204 {offsets = [3], sizes = [1], strides = [1]} : vector<4xf32> to vector<1xf32>
        %519 = arith.addi %422, %124 overflow<nsw> : index
        %520 = arith.select %420, %519, %c536870911 : index
        vector.store %518, %402[%520] : memref<?xf32, #amdgpu.address_space<fat_raw_buffer>>, vector<1xf32>
        %521 = vector.extract_strided_slice %205 {offsets = [0], sizes = [1], strides = [1]} : vector<4xf32> to vector<1xf32>
        %522 = arith.addi %399, %126 overflow<nsw> : index
        %523 = arith.select %395, %522, %c536870911 : index
        vector.store %521, %402[%523] : memref<?xf32, #amdgpu.address_space<fat_raw_buffer>>, vector<1xf32>
        %524 = vector.extract_strided_slice %205 {offsets = [1], sizes = [1], strides = [1]} : vector<4xf32> to vector<1xf32>
        %525 = arith.addi %408, %126 overflow<nsw> : index
        %526 = arith.select %406, %525, %c536870911 : index
        vector.store %524, %402[%526] : memref<?xf32, #amdgpu.address_space<fat_raw_buffer>>, vector<1xf32>
        %527 = vector.extract_strided_slice %205 {offsets = [2], sizes = [1], strides = [1]} : vector<4xf32> to vector<1xf32>
        %528 = arith.addi %415, %126 overflow<nsw> : index
        %529 = arith.select %413, %528, %c536870911 : index
        vector.store %527, %402[%529] : memref<?xf32, #amdgpu.address_space<fat_raw_buffer>>, vector<1xf32>
        %530 = vector.extract_strided_slice %205 {offsets = [3], sizes = [1], strides = [1]} : vector<4xf32> to vector<1xf32>
        %531 = arith.addi %422, %126 overflow<nsw> : index
        %532 = arith.select %420, %531, %c536870911 : index
        vector.store %530, %402[%532] : memref<?xf32, #amdgpu.address_space<fat_raw_buffer>>, vector<1xf32>
        %533 = vector.extract_strided_slice %206 {offsets = [0], sizes = [1], strides = [1]} : vector<4xf32> to vector<1xf32>
        %534 = arith.addi %399, %128 overflow<nsw> : index
        %535 = arith.select %395, %534, %c536870911 : index
        vector.store %533, %402[%535] : memref<?xf32, #amdgpu.address_space<fat_raw_buffer>>, vector<1xf32>
        %536 = vector.extract_strided_slice %206 {offsets = [1], sizes = [1], strides = [1]} : vector<4xf32> to vector<1xf32>
        %537 = arith.addi %408, %128 overflow<nsw> : index
        %538 = arith.select %406, %537, %c536870911 : index
        vector.store %536, %402[%538] : memref<?xf32, #amdgpu.address_space<fat_raw_buffer>>, vector<1xf32>
        %539 = vector.extract_strided_slice %206 {offsets = [2], sizes = [1], strides = [1]} : vector<4xf32> to vector<1xf32>
        %540 = arith.addi %415, %128 overflow<nsw> : index
        %541 = arith.select %413, %540, %c536870911 : index
        vector.store %539, %402[%541] : memref<?xf32, #amdgpu.address_space<fat_raw_buffer>>, vector<1xf32>
        %542 = vector.extract_strided_slice %206 {offsets = [3], sizes = [1], strides = [1]} : vector<4xf32> to vector<1xf32>
        %543 = arith.addi %422, %128 overflow<nsw> : index
        %544 = arith.select %420, %543, %c536870911 : index
        vector.store %542, %402[%544] : memref<?xf32, #amdgpu.address_space<fat_raw_buffer>>, vector<1xf32>
        %545 = vector.extract_strided_slice %207 {offsets = [0], sizes = [1], strides = [1]} : vector<4xf32> to vector<1xf32>
        %546 = arith.addi %399, %130 overflow<nsw> : index
        %547 = arith.select %395, %546, %c536870911 : index
        vector.store %545, %402[%547] : memref<?xf32, #amdgpu.address_space<fat_raw_buffer>>, vector<1xf32>
        %548 = vector.extract_strided_slice %207 {offsets = [1], sizes = [1], strides = [1]} : vector<4xf32> to vector<1xf32>
        %549 = arith.addi %408, %130 overflow<nsw> : index
        %550 = arith.select %406, %549, %c536870911 : index
        vector.store %548, %402[%550] : memref<?xf32, #amdgpu.address_space<fat_raw_buffer>>, vector<1xf32>
        %551 = vector.extract_strided_slice %207 {offsets = [2], sizes = [1], strides = [1]} : vector<4xf32> to vector<1xf32>
        %552 = arith.addi %415, %130 overflow<nsw> : index
        %553 = arith.select %413, %552, %c536870911 : index
        vector.store %551, %402[%553] : memref<?xf32, #amdgpu.address_space<fat_raw_buffer>>, vector<1xf32>
        %554 = vector.extract_strided_slice %207 {offsets = [3], sizes = [1], strides = [1]} : vector<4xf32> to vector<1xf32>
        %555 = arith.addi %422, %130 overflow<nsw> : index
        %556 = arith.select %420, %555, %c536870911 : index
        vector.store %554, %402[%556] : memref<?xf32, #amdgpu.address_space<fat_raw_buffer>>, vector<1xf32>
        %557 = vector.extract_strided_slice %208 {offsets = [0], sizes = [1], strides = [1]} : vector<4xf32> to vector<1xf32>
        %558 = arith.addi %399, %132 overflow<nsw> : index
        %559 = arith.select %395, %558, %c536870911 : index
        vector.store %557, %402[%559] : memref<?xf32, #amdgpu.address_space<fat_raw_buffer>>, vector<1xf32>
        %560 = vector.extract_strided_slice %208 {offsets = [1], sizes = [1], strides = [1]} : vector<4xf32> to vector<1xf32>
        %561 = arith.addi %408, %132 overflow<nsw> : index
        %562 = arith.select %406, %561, %c536870911 : index
        vector.store %560, %402[%562] : memref<?xf32, #amdgpu.address_space<fat_raw_buffer>>, vector<1xf32>
        %563 = vector.extract_strided_slice %208 {offsets = [2], sizes = [1], strides = [1]} : vector<4xf32> to vector<1xf32>
        %564 = arith.addi %415, %132 overflow<nsw> : index
        %565 = arith.select %413, %564, %c536870911 : index
        vector.store %563, %402[%565] : memref<?xf32, #amdgpu.address_space<fat_raw_buffer>>, vector<1xf32>
        %566 = vector.extract_strided_slice %208 {offsets = [3], sizes = [1], strides = [1]} : vector<4xf32> to vector<1xf32>
        %567 = arith.addi %422, %132 overflow<nsw> : index
        %568 = arith.select %420, %567, %c536870911 : index
        vector.store %566, %402[%568] : memref<?xf32, #amdgpu.address_space<fat_raw_buffer>>, vector<1xf32>
        %569 = vector.extract_strided_slice %209 {offsets = [0], sizes = [1], strides = [1]} : vector<4xf32> to vector<1xf32>
        %570 = arith.addi %399, %134 overflow<nsw> : index
        %571 = arith.select %395, %570, %c536870911 : index
        vector.store %569, %402[%571] : memref<?xf32, #amdgpu.address_space<fat_raw_buffer>>, vector<1xf32>
        %572 = vector.extract_strided_slice %209 {offsets = [1], sizes = [1], strides = [1]} : vector<4xf32> to vector<1xf32>
        %573 = arith.addi %408, %134 overflow<nsw> : index
        %574 = arith.select %406, %573, %c536870911 : index
        vector.store %572, %402[%574] : memref<?xf32, #amdgpu.address_space<fat_raw_buffer>>, vector<1xf32>
        %575 = vector.extract_strided_slice %209 {offsets = [2], sizes = [1], strides = [1]} : vector<4xf32> to vector<1xf32>
        %576 = arith.addi %415, %134 overflow<nsw> : index
        %577 = arith.select %413, %576, %c536870911 : index
        vector.store %575, %402[%577] : memref<?xf32, #amdgpu.address_space<fat_raw_buffer>>, vector<1xf32>
        %578 = vector.extract_strided_slice %209 {offsets = [3], sizes = [1], strides = [1]} : vector<4xf32> to vector<1xf32>
        %579 = arith.addi %422, %134 overflow<nsw> : index
        %580 = arith.select %420, %579, %c536870911 : index
        vector.store %578, %402[%580] : memref<?xf32, #amdgpu.address_space<fat_raw_buffer>>, vector<1xf32>
        %581 = vector.extract_strided_slice %210 {offsets = [0], sizes = [1], strides = [1]} : vector<4xf32> to vector<1xf32>
        %582 = arith.addi %399, %136 overflow<nsw> : index
        %583 = arith.select %395, %582, %c536870911 : index
        vector.store %581, %402[%583] : memref<?xf32, #amdgpu.address_space<fat_raw_buffer>>, vector<1xf32>
        %584 = vector.extract_strided_slice %210 {offsets = [1], sizes = [1], strides = [1]} : vector<4xf32> to vector<1xf32>
        %585 = arith.addi %408, %136 overflow<nsw> : index
        %586 = arith.select %406, %585, %c536870911 : index
        vector.store %584, %402[%586] : memref<?xf32, #amdgpu.address_space<fat_raw_buffer>>, vector<1xf32>
        %587 = vector.extract_strided_slice %210 {offsets = [2], sizes = [1], strides = [1]} : vector<4xf32> to vector<1xf32>
        %588 = arith.addi %415, %136 overflow<nsw> : index
        %589 = arith.select %413, %588, %c536870911 : index
        vector.store %587, %402[%589] : memref<?xf32, #amdgpu.address_space<fat_raw_buffer>>, vector<1xf32>
        %590 = vector.extract_strided_slice %210 {offsets = [3], sizes = [1], strides = [1]} : vector<4xf32> to vector<1xf32>
        %591 = arith.addi %422, %136 overflow<nsw> : index
        %592 = arith.select %420, %591, %c536870911 : index
        vector.store %590, %402[%592] : memref<?xf32, #amdgpu.address_space<fat_raw_buffer>>, vector<1xf32>
        %593 = vector.extract_strided_slice %211 {offsets = [0], sizes = [1], strides = [1]} : vector<4xf32> to vector<1xf32>
        %594 = arith.addi %399, %138 overflow<nsw> : index
        %595 = arith.select %395, %594, %c536870911 : index
        vector.store %593, %402[%595] : memref<?xf32, #amdgpu.address_space<fat_raw_buffer>>, vector<1xf32>
        %596 = vector.extract_strided_slice %211 {offsets = [1], sizes = [1], strides = [1]} : vector<4xf32> to vector<1xf32>
        %597 = arith.addi %408, %138 overflow<nsw> : index
        %598 = arith.select %406, %597, %c536870911 : index
        vector.store %596, %402[%598] : memref<?xf32, #amdgpu.address_space<fat_raw_buffer>>, vector<1xf32>
        %599 = vector.extract_strided_slice %211 {offsets = [2], sizes = [1], strides = [1]} : vector<4xf32> to vector<1xf32>
        %600 = arith.addi %415, %138 overflow<nsw> : index
        %601 = arith.select %413, %600, %c536870911 : index
        vector.store %599, %402[%601] : memref<?xf32, #amdgpu.address_space<fat_raw_buffer>>, vector<1xf32>
        %602 = vector.extract_strided_slice %211 {offsets = [3], sizes = [1], strides = [1]} : vector<4xf32> to vector<1xf32>
        %603 = arith.addi %422, %138 overflow<nsw> : index
        %604 = arith.select %420, %603, %c536870911 : index
        vector.store %602, %402[%604] : memref<?xf32, #amdgpu.address_space<fat_raw_buffer>>, vector<1xf32>
        %605 = vector.extract_strided_slice %212 {offsets = [0], sizes = [1], strides = [1]} : vector<4xf32> to vector<1xf32>
        %606 = arith.addi %399, %140 overflow<nsw> : index
        %607 = arith.select %395, %606, %c536870911 : index
        vector.store %605, %402[%607] : memref<?xf32, #amdgpu.address_space<fat_raw_buffer>>, vector<1xf32>
        %608 = vector.extract_strided_slice %212 {offsets = [1], sizes = [1], strides = [1]} : vector<4xf32> to vector<1xf32>
        %609 = arith.addi %408, %140 overflow<nsw> : index
        %610 = arith.select %406, %609, %c536870911 : index
        vector.store %608, %402[%610] : memref<?xf32, #amdgpu.address_space<fat_raw_buffer>>, vector<1xf32>
        %611 = vector.extract_strided_slice %212 {offsets = [2], sizes = [1], strides = [1]} : vector<4xf32> to vector<1xf32>
        %612 = arith.addi %415, %140 overflow<nsw> : index
        %613 = arith.select %413, %612, %c536870911 : index
        vector.store %611, %402[%613] : memref<?xf32, #amdgpu.address_space<fat_raw_buffer>>, vector<1xf32>
        %614 = vector.extract_strided_slice %212 {offsets = [3], sizes = [1], strides = [1]} : vector<4xf32> to vector<1xf32>
        %615 = arith.addi %422, %140 overflow<nsw> : index
        %616 = arith.select %420, %615, %c536870911 : index
        vector.store %614, %402[%616] : memref<?xf32, #amdgpu.address_space<fat_raw_buffer>>, vector<1xf32>
        %617 = vector.extract_strided_slice %213 {offsets = [0], sizes = [1], strides = [1]} : vector<4xf32> to vector<1xf32>
        %618 = arith.addi %399, %142 overflow<nsw> : index
        %619 = arith.select %395, %618, %c536870911 : index
        vector.store %617, %402[%619] : memref<?xf32, #amdgpu.address_space<fat_raw_buffer>>, vector<1xf32>
        %620 = vector.extract_strided_slice %213 {offsets = [1], sizes = [1], strides = [1]} : vector<4xf32> to vector<1xf32>
        %621 = arith.addi %408, %142 overflow<nsw> : index
        %622 = arith.select %406, %621, %c536870911 : index
        vector.store %620, %402[%622] : memref<?xf32, #amdgpu.address_space<fat_raw_buffer>>, vector<1xf32>
        %623 = vector.extract_strided_slice %213 {offsets = [2], sizes = [1], strides = [1]} : vector<4xf32> to vector<1xf32>
        %624 = arith.addi %415, %142 overflow<nsw> : index
        %625 = arith.select %413, %624, %c536870911 : index
        vector.store %623, %402[%625] : memref<?xf32, #amdgpu.address_space<fat_raw_buffer>>, vector<1xf32>
        %626 = vector.extract_strided_slice %213 {offsets = [3], sizes = [1], strides = [1]} : vector<4xf32> to vector<1xf32>
        %627 = arith.addi %422, %142 overflow<nsw> : index
        %628 = arith.select %420, %627, %c536870911 : index
        vector.store %626, %402[%628] : memref<?xf32, #amdgpu.address_space<fat_raw_buffer>>, vector<1xf32>
        %629 = vector.extract_strided_slice %214 {offsets = [0], sizes = [1], strides = [1]} : vector<4xf32> to vector<1xf32>
        %630 = arith.addi %399, %144 overflow<nsw> : index
        %631 = arith.select %395, %630, %c536870911 : index
        vector.store %629, %402[%631] : memref<?xf32, #amdgpu.address_space<fat_raw_buffer>>, vector<1xf32>
        %632 = vector.extract_strided_slice %214 {offsets = [1], sizes = [1], strides = [1]} : vector<4xf32> to vector<1xf32>
        %633 = arith.addi %408, %144 overflow<nsw> : index
        %634 = arith.select %406, %633, %c536870911 : index
        vector.store %632, %402[%634] : memref<?xf32, #amdgpu.address_space<fat_raw_buffer>>, vector<1xf32>
        %635 = vector.extract_strided_slice %214 {offsets = [2], sizes = [1], strides = [1]} : vector<4xf32> to vector<1xf32>
        %636 = arith.addi %415, %144 overflow<nsw> : index
        %637 = arith.select %413, %636, %c536870911 : index
        vector.store %635, %402[%637] : memref<?xf32, #amdgpu.address_space<fat_raw_buffer>>, vector<1xf32>
        %638 = vector.extract_strided_slice %214 {offsets = [3], sizes = [1], strides = [1]} : vector<4xf32> to vector<1xf32>
        %639 = arith.addi %422, %144 overflow<nsw> : index
        %640 = arith.select %420, %639, %c536870911 : index
        vector.store %638, %402[%640] : memref<?xf32, #amdgpu.address_space<fat_raw_buffer>>, vector<1xf32>
        %641 = vector.extract_strided_slice %215 {offsets = [0], sizes = [1], strides = [1]} : vector<4xf32> to vector<1xf32>
        %642 = arith.addi %399, %146 overflow<nsw> : index
        %643 = arith.select %395, %642, %c536870911 : index
        vector.store %641, %402[%643] : memref<?xf32, #amdgpu.address_space<fat_raw_buffer>>, vector<1xf32>
        %644 = vector.extract_strided_slice %215 {offsets = [1], sizes = [1], strides = [1]} : vector<4xf32> to vector<1xf32>
        %645 = arith.addi %408, %146 overflow<nsw> : index
        %646 = arith.select %406, %645, %c536870911 : index
        vector.store %644, %402[%646] : memref<?xf32, #amdgpu.address_space<fat_raw_buffer>>, vector<1xf32>
        %647 = vector.extract_strided_slice %215 {offsets = [2], sizes = [1], strides = [1]} : vector<4xf32> to vector<1xf32>
        %648 = arith.addi %415, %146 overflow<nsw> : index
        %649 = arith.select %413, %648, %c536870911 : index
        vector.store %647, %402[%649] : memref<?xf32, #amdgpu.address_space<fat_raw_buffer>>, vector<1xf32>
        %650 = vector.extract_strided_slice %215 {offsets = [3], sizes = [1], strides = [1]} : vector<4xf32> to vector<1xf32>
        %651 = arith.addi %422, %146 overflow<nsw> : index
        %652 = arith.select %420, %651, %c536870911 : index
        vector.store %650, %402[%652] : memref<?xf32, #amdgpu.address_space<fat_raw_buffer>>, vector<1xf32>
        %653 = vector.extract_strided_slice %216 {offsets = [0], sizes = [1], strides = [1]} : vector<4xf32> to vector<1xf32>
        %654 = arith.addi %399, %148 overflow<nsw> : index
        %655 = arith.select %395, %654, %c536870911 : index
        vector.store %653, %402[%655] : memref<?xf32, #amdgpu.address_space<fat_raw_buffer>>, vector<1xf32>
        %656 = vector.extract_strided_slice %216 {offsets = [1], sizes = [1], strides = [1]} : vector<4xf32> to vector<1xf32>
        %657 = arith.addi %408, %148 overflow<nsw> : index
        %658 = arith.select %406, %657, %c536870911 : index
        vector.store %656, %402[%658] : memref<?xf32, #amdgpu.address_space<fat_raw_buffer>>, vector<1xf32>
        %659 = vector.extract_strided_slice %216 {offsets = [2], sizes = [1], strides = [1]} : vector<4xf32> to vector<1xf32>
        %660 = arith.addi %415, %148 overflow<nsw> : index
        %661 = arith.select %413, %660, %c536870911 : index
        vector.store %659, %402[%661] : memref<?xf32, #amdgpu.address_space<fat_raw_buffer>>, vector<1xf32>
        %662 = vector.extract_strided_slice %216 {offsets = [3], sizes = [1], strides = [1]} : vector<4xf32> to vector<1xf32>
        %663 = arith.addi %422, %148 overflow<nsw> : index
        %664 = arith.select %420, %663, %c536870911 : index
        vector.store %662, %402[%664] : memref<?xf32, #amdgpu.address_space<fat_raw_buffer>>, vector<1xf32>
        %665 = vector.extract_strided_slice %217 {offsets = [0], sizes = [1], strides = [1]} : vector<4xf32> to vector<1xf32>
        %666 = arith.addi %399, %150 overflow<nsw> : index
        %667 = arith.select %395, %666, %c536870911 : index
        vector.store %665, %402[%667] : memref<?xf32, #amdgpu.address_space<fat_raw_buffer>>, vector<1xf32>
        %668 = vector.extract_strided_slice %217 {offsets = [1], sizes = [1], strides = [1]} : vector<4xf32> to vector<1xf32>
        %669 = arith.addi %408, %150 overflow<nsw> : index
        %670 = arith.select %406, %669, %c536870911 : index
        vector.store %668, %402[%670] : memref<?xf32, #amdgpu.address_space<fat_raw_buffer>>, vector<1xf32>
        %671 = vector.extract_strided_slice %217 {offsets = [2], sizes = [1], strides = [1]} : vector<4xf32> to vector<1xf32>
        %672 = arith.addi %415, %150 overflow<nsw> : index
        %673 = arith.select %413, %672, %c536870911 : index
        vector.store %671, %402[%673] : memref<?xf32, #amdgpu.address_space<fat_raw_buffer>>, vector<1xf32>
        %674 = vector.extract_strided_slice %217 {offsets = [3], sizes = [1], strides = [1]} : vector<4xf32> to vector<1xf32>
        %675 = arith.addi %422, %150 overflow<nsw> : index
        %676 = arith.select %420, %675, %c536870911 : index
        vector.store %674, %402[%676] : memref<?xf32, #amdgpu.address_space<fat_raw_buffer>>, vector<1xf32>
        %677 = vector.extract_strided_slice %218 {offsets = [0], sizes = [1], strides = [1]} : vector<4xf32> to vector<1xf32>
        %678 = arith.addi %399, %152 overflow<nsw> : index
        %679 = arith.select %395, %678, %c536870911 : index
        vector.store %677, %402[%679] : memref<?xf32, #amdgpu.address_space<fat_raw_buffer>>, vector<1xf32>
        %680 = vector.extract_strided_slice %218 {offsets = [1], sizes = [1], strides = [1]} : vector<4xf32> to vector<1xf32>
        %681 = arith.addi %408, %152 overflow<nsw> : index
        %682 = arith.select %406, %681, %c536870911 : index
        vector.store %680, %402[%682] : memref<?xf32, #amdgpu.address_space<fat_raw_buffer>>, vector<1xf32>
        %683 = vector.extract_strided_slice %218 {offsets = [2], sizes = [1], strides = [1]} : vector<4xf32> to vector<1xf32>
        %684 = arith.addi %415, %152 overflow<nsw> : index
        %685 = arith.select %413, %684, %c536870911 : index
        vector.store %683, %402[%685] : memref<?xf32, #amdgpu.address_space<fat_raw_buffer>>, vector<1xf32>
        %686 = vector.extract_strided_slice %218 {offsets = [3], sizes = [1], strides = [1]} : vector<4xf32> to vector<1xf32>
        %687 = arith.addi %422, %152 overflow<nsw> : index
        %688 = arith.select %420, %687, %c536870911 : index
        vector.store %686, %402[%688] : memref<?xf32, #amdgpu.address_space<fat_raw_buffer>>, vector<1xf32>
        %689 = vector.extract_strided_slice %219 {offsets = [0], sizes = [1], strides = [1]} : vector<4xf32> to vector<1xf32>
        %690 = arith.addi %399, %154 overflow<nsw> : index
        %691 = arith.select %395, %690, %c536870911 : index
        vector.store %689, %402[%691] : memref<?xf32, #amdgpu.address_space<fat_raw_buffer>>, vector<1xf32>
        %692 = vector.extract_strided_slice %219 {offsets = [1], sizes = [1], strides = [1]} : vector<4xf32> to vector<1xf32>
        %693 = arith.addi %408, %154 overflow<nsw> : index
        %694 = arith.select %406, %693, %c536870911 : index
        vector.store %692, %402[%694] : memref<?xf32, #amdgpu.address_space<fat_raw_buffer>>, vector<1xf32>
        %695 = vector.extract_strided_slice %219 {offsets = [2], sizes = [1], strides = [1]} : vector<4xf32> to vector<1xf32>
        %696 = arith.addi %415, %154 overflow<nsw> : index
        %697 = arith.select %413, %696, %c536870911 : index
        vector.store %695, %402[%697] : memref<?xf32, #amdgpu.address_space<fat_raw_buffer>>, vector<1xf32>
        %698 = vector.extract_strided_slice %219 {offsets = [3], sizes = [1], strides = [1]} : vector<4xf32> to vector<1xf32>
        %699 = arith.addi %422, %154 overflow<nsw> : index
        %700 = arith.select %420, %699, %c536870911 : index
        vector.store %698, %402[%700] : memref<?xf32, #amdgpu.address_space<fat_raw_buffer>>, vector<1xf32>
        %701 = vector.extract_strided_slice %220 {offsets = [0], sizes = [1], strides = [1]} : vector<4xf32> to vector<1xf32>
        %702 = arith.addi %399, %156 overflow<nsw> : index
        %703 = arith.select %395, %702, %c536870911 : index
        vector.store %701, %402[%703] : memref<?xf32, #amdgpu.address_space<fat_raw_buffer>>, vector<1xf32>
        %704 = vector.extract_strided_slice %220 {offsets = [1], sizes = [1], strides = [1]} : vector<4xf32> to vector<1xf32>
        %705 = arith.addi %408, %156 overflow<nsw> : index
        %706 = arith.select %406, %705, %c536870911 : index
        vector.store %704, %402[%706] : memref<?xf32, #amdgpu.address_space<fat_raw_buffer>>, vector<1xf32>
        %707 = vector.extract_strided_slice %220 {offsets = [2], sizes = [1], strides = [1]} : vector<4xf32> to vector<1xf32>
        %708 = arith.addi %415, %156 overflow<nsw> : index
        %709 = arith.select %413, %708, %c536870911 : index
        vector.store %707, %402[%709] : memref<?xf32, #amdgpu.address_space<fat_raw_buffer>>, vector<1xf32>
        %710 = vector.extract_strided_slice %220 {offsets = [3], sizes = [1], strides = [1]} : vector<4xf32> to vector<1xf32>
        %711 = arith.addi %422, %156 overflow<nsw> : index
        %712 = arith.select %420, %711, %c536870911 : index
        vector.store %710, %402[%712] : memref<?xf32, #amdgpu.address_space<fat_raw_buffer>>, vector<1xf32>
        %713 = vector.extract_strided_slice %221 {offsets = [0], sizes = [1], strides = [1]} : vector<4xf32> to vector<1xf32>
        %714 = arith.addi %399, %158 overflow<nsw> : index
        %715 = arith.select %395, %714, %c536870911 : index
        vector.store %713, %402[%715] : memref<?xf32, #amdgpu.address_space<fat_raw_buffer>>, vector<1xf32>
        %716 = vector.extract_strided_slice %221 {offsets = [1], sizes = [1], strides = [1]} : vector<4xf32> to vector<1xf32>
        %717 = arith.addi %408, %158 overflow<nsw> : index
        %718 = arith.select %406, %717, %c536870911 : index
…
        %2376 = vector.extract_strided_slice %354 {offsets = [1], sizes = [1], strides = [1]} : vector<4xf32> to vector<1xf32>
        %2377 = arith.addi %2008, %168 overflow<nsw> : index
        %2378 = arith.select %2006, %2377, %c536870911 : index
        vector.store %2376, %402[%2378] : memref<?xf32, #amdgpu.address_space<fat_raw_buffer>>, vector<1xf32>
        %2379 = vector.extract_strided_slice %354 {offsets = [2], sizes = [1], strides = [1]} : vector<4xf32> to vector<1xf32>
        %2380 = arith.addi %2015, %168 overflow<nsw> : index
        %2381 = arith.select %2013, %2380, %c536870911 : index
        vector.store %2379, %402[%2381] : memref<?xf32, #amdgpu.address_space<fat_raw_buffer>>, vector<1xf32>
        %2382 = vector.extract_strided_slice %354 {offsets = [3], sizes = [1], strides = [1]} : vector<4xf32> to vector<1xf32>
        %2383 = arith.addi %2022, %168 overflow<nsw> : index
        %2384 = arith.select %2020, %2383, %c536870911 : index
        vector.store %2382, %402[%2384] : memref<?xf32, #amdgpu.address_space<fat_raw_buffer>>, vector<1xf32>
        %2385 = vector.extract_strided_slice %355 {offsets = [0], sizes = [1], strides = [1]} : vector<4xf32> to vector<1xf32>
        %2386 = arith.addi %2001, %170 overflow<nsw> : index
        %2387 = arith.select %1999, %2386, %c536870911 : index
        vector.store %2385, %402[%2387] : memref<?xf32, #amdgpu.address_space<fat_raw_buffer>>, vector<1xf32>
        %2388 = vector.extract_strided_slice %355 {offsets = [1], sizes = [1], strides = [1]} : vector<4xf32> to vector<1xf32>
        %2389 = arith.addi %2008, %170 overflow<nsw> : index
        %2390 = arith.select %2006, %2389, %c536870911 : index
        vector.store %2388, %402[%2390] : memref<?xf32, #amdgpu.address_space<fat_raw_buffer>>, vector<1xf32>
        %2391 = vector.extract_strided_slice %355 {offsets = [2], sizes = [1], strides = [1]} : vector<4xf32> to vector<1xf32>
        %2392 = arith.addi %2015, %170 overflow<nsw> : index
        %2393 = arith.select %2013, %2392, %c536870911 : index
        vector.store %2391, %402[%2393] : memref<?xf32, #amdgpu.address_space<fat_raw_buffer>>, vector<1xf32>
        %2394 = vector.extract_strided_slice %355 {offsets = [3], sizes = [1], strides = [1]} : vector<4xf32> to vector<1xf32>
        %2395 = arith.addi %2022, %170 overflow<nsw> : index
        %2396 = arith.select %2020, %2395, %c536870911 : index
        vector.store %2394, %402[%2396] : memref<?xf32, #amdgpu.address_space<fat_raw_buffer>>, vector<1xf32>
        %2397 = vector.extract_strided_slice %356 {offsets = [0], sizes = [1], strides = [1]} : vector<4xf32> to vector<1xf32>
        %2398 = affine.apply #map94()[%block_id_x, %2, %thread_id_x]
        %2399 = arith.cmpi slt, %2398, %393 : index
        %2400 = affine.apply #map95()[%thread_id_x]
        %2401 = arith.muli %2400, %c1024 overflow<nsw> : index
        %2402 = arith.addi %2401, %107 overflow<nsw> : index
        %2403 = arith.select %2399, %2402, %c536870911 : index
        vector.store %2397, %402[%2403] : memref<?xf32, #amdgpu.address_space<fat_raw_buffer>>, vector<1xf32>
        %2404 = vector.extract_strided_slice %356 {offsets = [1], sizes = [1], strides = [1]} : vector<4xf32> to vector<1xf32>
        %2405 = affine.apply #map96()[%block_id_x, %2, %thread_id_x]
        %2406 = arith.cmpi slt, %2405, %393 : index
        %2407 = affine.apply #map97()[%thread_id_x]
        %2408 = arith.muli %2407, %c1024 overflow<nsw> : index
        %2409 = arith.addi %2408, %107 overflow<nsw> : index
        %2410 = arith.select %2406, %2409, %c536870911 : index
        vector.store %2404, %402[%2410] : memref<?xf32, #amdgpu.address_space<fat_raw_buffer>>, vector<1xf32>
        %2411 = vector.extract_strided_slice %356 {offsets = [2], sizes = [1], strides = [1]} : vector<4xf32> to vector<1xf32>
        %2412 = affine.apply #map98()[%block_id_x, %2, %thread_id_x]
        %2413 = arith.cmpi slt, %2412, %393 : index
        %2414 = affine.apply #map99()[%thread_id_x]
        %2415 = arith.muli %2414, %c1024 overflow<nsw> : index
        %2416 = arith.addi %2415, %107 overflow<nsw> : index
        %2417 = arith.select %2413, %2416, %c536870911 : index
        vector.store %2411, %402[%2417] : memref<?xf32, #amdgpu.address_space<fat_raw_buffer>>, vector<1xf32>
        %2418 = vector.extract_strided_slice %356 {offsets = [3], sizes = [1], strides = [1]} : vector<4xf32> to vector<1xf32>
        %2419 = affine.apply #map100()[%block_id_x, %2, %thread_id_x]
        %2420 = arith.cmpi slt, %2419, %393 : index
        %2421 = affine.apply #map101()[%thread_id_x]
        %2422 = arith.muli %2421, %c1024 overflow<nsw> : index
        %2423 = arith.addi %2422, %107 overflow<nsw> : index
        %2424 = arith.select %2420, %2423, %c536870911 : index
        vector.store %2418, %402[%2424] : memref<?xf32, #amdgpu.address_space<fat_raw_buffer>>, vector<1xf32>
        %2425 = vector.extract_strided_slice %357 {offsets = [0], sizes = [1], strides = [1]} : vector<4xf32> to vector<1xf32>
        %2426 = arith.addi %2401, %110 overflow<nsw> : index
        %2427 = arith.select %2399, %2426, %c536870911 : index
        vector.store %2425, %402[%2427] : memref<?xf32, #amdgpu.address_space<fat_raw_buffer>>, vector<1xf32>
        %2428 = vector.extract_strided_slice %357 {offsets = [1], sizes = [1], strides = [1]} : vector<4xf32> to vector<1xf32>
        %2429 = arith.addi %2408, %110 overflow<nsw> : index
        %2430 = arith.select %2406, %2429, %c536870911 : index
        vector.store %2428, %402[%2430] : memref<?xf32, #amdgpu.address_space<fat_raw_buffer>>, vector<1xf32>
        %2431 = vector.extract_strided_slice %357 {offsets = [2], sizes = [1], strides = [1]} : vector<4xf32> to vector<1xf32>
        %2432 = arith.addi %2415, %110 overflow<nsw> : index
        %2433 = arith.select %2413, %2432, %c536870911 : index
        vector.store %2431, %402[%2433] : memref<?xf32, #amdgpu.address_space<fat_raw_buffer>>, vector<1xf32>
        %2434 = vector.extract_strided_slice %357 {offsets = [3], sizes = [1], strides = [1]} : vector<4xf32> to vector<1xf32>
        %2435 = arith.addi %2422, %110 overflow<nsw> : index
        %2436 = arith.select %2420, %2435, %c536870911 : index
        vector.store %2434, %402[%2436] : memref<?xf32, #amdgpu.address_space<fat_raw_buffer>>, vector<1xf32>
        %2437 = vector.extract_strided_slice %358 {offsets = [0], sizes = [1], strides = [1]} : vector<4xf32> to vector<1xf32>
        %2438 = arith.addi %2401, %112 overflow<nsw> : index
        %2439 = arith.select %2399, %2438, %c536870911 : index
        vector.store %2437, %402[%2439] : memref<?xf32, #amdgpu.address_space<fat_raw_buffer>>, vector<1xf32>
        %2440 = vector.extract_strided_slice %358 {offsets = [1], sizes = [1], strides = [1]} : vector<4xf32> to vector<1xf32>
        %2441 = arith.addi %2408, %112 overflow<nsw> : index
        %2442 = arith.select %2406, %2441, %c536870911 : index
        vector.store %2440, %402[%2442] : memref<?xf32, #amdgpu.address_space<fat_raw_buffer>>, vector<1xf32>
        %2443 = vector.extract_strided_slice %358 {offsets = [2], sizes = [1], strides = [1]} : vector<4xf32> to vector<1xf32>
        %2444 = arith.addi %2415, %112 overflow<nsw> : index
        %2445 = arith.select %2413, %2444, %c536870911 : index
        vector.store %2443, %402[%2445] : memref<?xf32, #amdgpu.address_space<fat_raw_buffer>>, vector<1xf32>
        %2446 = vector.extract_strided_slice %358 {offsets = [3], sizes = [1], strides = [1]} : vector<4xf32> to vector<1xf32>
        %2447 = arith.addi %2422, %112 overflow<nsw> : index
        %2448 = arith.select %2420, %2447, %c536870911 : index
        vector.store %2446, %402[%2448] : memref<?xf32, #amdgpu.address_space<fat_raw_buffer>>, vector<1xf32>
        %2449 = vector.extract_strided_slice %359 {offsets = [0], sizes = [1], strides = [1]} : vector<4xf32> to vector<1xf32>
        %2450 = arith.addi %2401, %114 overflow<nsw> : index
        %2451 = arith.select %2399, %2450, %c536870911 : index
        vector.store %2449, %402[%2451] : memref<?xf32, #amdgpu.address_space<fat_raw_buffer>>, vector<1xf32>
        %2452 = vector.extract_strided_slice %359 {offsets = [1], sizes = [1], strides = [1]} : vector<4xf32> to vector<1xf32>
        %2453 = arith.addi %2408, %114 overflow<nsw> : index
        %2454 = arith.select %2406, %2453, %c536870911 : index
        vector.store %2452, %402[%2454] : memref<?xf32, #amdgpu.address_space<fat_raw_buffer>>, vector<1xf32>
        %2455 = vector.extract_strided_slice %359 {offsets = [2], sizes = [1], strides = [1]} : vector<4xf32> to vector<1xf32>
        %2456 = arith.addi %2415, %114 overflow<nsw> : index
        %2457 = arith.select %2413, %2456, %c536870911 : index
        vector.store %2455, %402[%2457] : memref<?xf32, #amdgpu.address_space<fat_raw_buffer>>, vector<1xf32>
        %2458 = vector.extract_strided_slice %359 {offsets = [3], sizes = [1], strides = [1]} : vector<4xf32> to vector<1xf32>
        %2459 = arith.addi %2422, %114 overflow<nsw> : index
        %2460 = arith.select %2420, %2459, %c536870911 : index
        vector.store %2458, %402[%2460] : memref<?xf32, #amdgpu.address_space<fat_raw_buffer>>, vector<1xf32>
        %2461 = vector.extract_strided_slice %360 {offsets = [0], sizes = [1], strides = [1]} : vector<4xf32> to vector<1xf32>
        %2462 = arith.addi %2401, %116 overflow<nsw> : index
        %2463 = arith.select %2399, %2462, %c536870911 : index
        vector.store %2461, %402[%2463] : memref<?xf32, #amdgpu.address_space<fat_raw_buffer>>, vector<1xf32>
        %2464 = vector.extract_strided_slice %360 {offsets = [1], sizes = [1], strides = [1]} : vector<4xf32> to vector<1xf32>
        %2465 = arith.addi %2408, %116 overflow<nsw> : index
        %2466 = arith.select %2406, %2465, %c536870911 : index
        vector.store %2464, %402[%2466] : memref<?xf32, #amdgpu.address_space<fat_raw_buffer>>, vector<1xf32>
        %2467 = vector.extract_strided_slice %360 {offsets = [2], sizes = [1], strides = [1]} : vector<4xf32> to vector<1xf32>
        %2468 = arith.addi %2415, %116 overflow<nsw> : index
        %2469 = arith.select %2413, %2468, %c536870911 : index
        vector.store %2467, %402[%2469] : memref<?xf32, #amdgpu.address_space<fat_raw_buffer>>, vector<1xf32>
        %2470 = vector.extract_strided_slice %360 {offsets = [3], sizes = [1], strides = [1]} : vector<4xf32> to vector<1xf32>
        %2471 = arith.addi %2422, %116 overflow<nsw> : index
        %2472 = arith.select %2420, %2471, %c536870911 : index
        vector.store %2470, %402[%2472] : memref<?xf32, #amdgpu.address_space<fat_raw_buffer>>, vector<1xf32>
        %2473 = vector.extract_strided_slice %361 {offsets = [0], sizes = [1], strides = [1]} : vector<4xf32> to vector<1xf32>
        %2474 = arith.addi %2401, %118 overflow<nsw> : index
        %2475 = arith.select %2399, %2474, %c536870911 : index
        vector.store %2473, %402[%2475] : memref<?xf32, #amdgpu.address_space<fat_raw_buffer>>, vector<1xf32>
        %2476 = vector.extract_strided_slice %361 {offsets = [1], sizes = [1], strides = [1]} : vector<4xf32> to vector<1xf32>
        %2477 = arith.addi %2408, %118 overflow<nsw> : index
        %2478 = arith.select %2406, %2477, %c536870911 : index
        vector.store %2476, %402[%2478] : memref<?xf32, #amdgpu.address_space<fat_raw_buffer>>, vector<1xf32>
        %2479 = vector.extract_strided_slice %361 {offsets = [2], sizes = [1], strides = [1]} : vector<4xf32> to vector<1xf32>
        %2480 = arith.addi %2415, %118 overflow<nsw> : index
        %2481 = arith.select %2413, %2480, %c536870911 : index
        vector.store %2479, %402[%2481] : memref<?xf32, #amdgpu.address_space<fat_raw_buffer>>, vector<1xf32>
        %2482 = vector.extract_strided_slice %361 {offsets = [3], sizes = [1], strides = [1]} : vector<4xf32> to vector<1xf32>
        %2483 = arith.addi %2422, %118 overflow<nsw> : index
        %2484 = arith.select %2420, %2483, %c536870911 : index
        vector.store %2482, %402[%2484] : memref<?xf32, #amdgpu.address_space<fat_raw_buffer>>, vector<1xf32>
        %2485 = vector.extract_strided_slice %362 {offsets = [0], sizes = [1], strides = [1]} : vector<4xf32> to vector<1xf32>
        %2486 = arith.addi %2401, %120 overflow<nsw> : index
        %2487 = arith.select %2399, %2486, %c536870911 : index
        vector.store %2485, %402[%2487] : memref<?xf32, #amdgpu.address_space<fat_raw_buffer>>, vector<1xf32>
        %2488 = vector.extract_strided_slice %362 {offsets = [1], sizes = [1], strides = [1]} : vector<4xf32> to vector<1xf32>
        %2489 = arith.addi %2408, %120 overflow<nsw> : index
        %2490 = arith.select %2406, %2489, %c536870911 : index
        vector.store %2488, %402[%2490] : memref<?xf32, #amdgpu.address_space<fat_raw_buffer>>, vector<1xf32>
        %2491 = vector.extract_strided_slice %362 {offsets = [2], sizes = [1], strides = [1]} : vector<4xf32> to vector<1xf32>
        %2492 = arith.addi %2415, %120 overflow<nsw> : index
        %2493 = arith.select %2413, %2492, %c536870911 : index
        vector.store %2491, %402[%2493] : memref<?xf32, #amdgpu.address_space<fat_raw_buffer>>, vector<1xf32>
        %2494 = vector.extract_strided_slice %362 {offsets = [3], sizes = [1], strides = [1]} : vector<4xf32> to vector<1xf32>
        %2495 = arith.addi %2422, %120 overflow<nsw> : index
        %2496 = arith.select %2420, %2495, %c536870911 : index
        vector.store %2494, %402[%2496] : memref<?xf32, #amdgpu.address_space<fat_raw_buffer>>, vector<1xf32>
        %2497 = vector.extract_strided_slice %363 {offsets = [0], sizes = [1], strides = [1]} : vector<4xf32> to vector<1xf32>
        %2498 = arith.addi %2401, %122 overflow<nsw> : index
        %2499 = arith.select %2399, %2498, %c536870911 : index
        vector.store %2497, %402[%2499] : memref<?xf32, #amdgpu.address_space<fat_raw_buffer>>, vector<1xf32>
        %2500 = vector.extract_strided_slice %363 {offsets = [1], sizes = [1], strides = [1]} : vector<4xf32> to vector<1xf32>
        %2501 = arith.addi %2408, %122 overflow<nsw> : index
        %2502 = arith.select %2406, %2501, %c536870911 : index
        vector.store %2500, %402[%2502] : memref<?xf32, #amdgpu.address_space<fat_raw_buffer>>, vector<1xf32>
        %2503 = vector.extract_strided_slice %363 {offsets = [2], sizes = [1], strides = [1]} : vector<4xf32> to vector<1xf32>
        %2504 = arith.addi %2415, %122 overflow<nsw> : index
        %2505 = arith.select %2413, %2504, %c536870911 : index
        vector.store %2503, %402[%2505] : memref<?xf32, #amdgpu.address_space<fat_raw_buffer>>, vector<1xf32>
        %2506 = vector.extract_strided_slice %363 {offsets = [3], sizes = [1], strides = [1]} : vector<4xf32> to vector<1xf32>
        %2507 = arith.addi %2422, %122 overflow<nsw> : index
        %2508 = arith.select %2420, %2507, %c536870911 : index
        vector.store %2506, %402[%2508] : memref<?xf32, #amdgpu.address_space<fat_raw_buffer>>, vector<1xf32>
        %2509 = vector.extract_strided_slice %364 {offsets = [0], sizes = [1], strides = [1]} : vector<4xf32> to vector<1xf32>
        %2510 = arith.addi %2401, %124 overflow<nsw> : index
        %2511 = arith.select %2399, %2510, %c536870911 : index
        vector.store %2509, %402[%2511] : memref<?xf32, #amdgpu.address_space<fat_raw_buffer>>, vector<1xf32>
        %2512 = vector.extract_strided_slice %364 {offsets = [1], sizes = [1], strides = [1]} : vector<4xf32> to vector<1xf32>
        %2513 = arith.addi %2408, %124 overflow<nsw> : index
        %2514 = arith.select %2406, %2513, %c536870911 : index
        vector.store %2512, %402[%2514] : memref<?xf32, #amdgpu.address_space<fat_raw_buffer>>, vector<1xf32>
        %2515 = vector.extract_strided_slice %364 {offsets = [2], sizes = [1], strides = [1]} : vector<4xf32> to vector<1xf32>
        %2516 = arith.addi %2415, %124 overflow<nsw> : index
        %2517 = arith.select %2413, %2516, %c536870911 : index
        vector.store %2515, %402[%2517] : memref<?xf32, #amdgpu.address_space<fat_raw_buffer>>, vector<1xf32>
        %2518 = vector.extract_strided_slice %364 {offsets = [3], sizes = [1], strides = [1]} : vector<4xf32> to vector<1xf32>
        %2519 = arith.addi %2422, %124 overflow<nsw> : index
        %2520 = arith.select %2420, %2519, %c536870911 : index
        vector.store %2518, %402[%2520] : memref<?xf32, #amdgpu.address_space<fat_raw_buffer>>, vector<1xf32>
        %2521 = vector.extract_strided_slice %365 {offsets = [0], sizes = [1], strides = [1]} : vector<4xf32> to vector<1xf32>
        %2522 = arith.addi %2401, %126 overflow<nsw> : index
        %2523 = arith.select %2399, %2522, %c536870911 : index
        vector.store %2521, %402[%2523] : memref<?xf32, #amdgpu.address_space<fat_raw_buffer>>, vector<1xf32>
        %2524 = vector.extract_strided_slice %365 {offsets = [1], sizes = [1], strides = [1]} : vector<4xf32> to vector<1xf32>
        %2525 = arith.addi %2408, %126 overflow<nsw> : index
        %2526 = arith.select %2406, %2525, %c536870911 : index
        vector.store %2524, %402[%2526] : memref<?xf32, #amdgpu.address_space<fat_raw_buffer>>, vector<1xf32>
        %2527 = vector.extract_strided_slice %365 {offsets = [2], sizes = [1], strides = [1]} : vector<4xf32> to vector<1xf32>
        %2528 = arith.addi %2415, %126 overflow<nsw> : index
        %2529 = arith.select %2413, %2528, %c536870911 : index
        vector.store %2527, %402[%2529] : memref<?xf32, #amdgpu.address_space<fat_raw_buffer>>, vector<1xf32>
        %2530 = vector.extract_strided_slice %365 {offsets = [3], sizes = [1], strides = [1]} : vector<4xf32> to vector<1xf32>
        %2531 = arith.addi %2422, %126 overflow<nsw> : index
        %2532 = arith.select %2420, %2531, %c536870911 : index
        vector.store %2530, %402[%2532] : memref<?xf32, #amdgpu.address_space<fat_raw_buffer>>, vector<1xf32>
        %2533 = vector.extract_strided_slice %366 {offsets = [0], sizes = [1], strides = [1]} : vector<4xf32> to vector<1xf32>
        %2534 = arith.addi %2401, %128 overflow<nsw> : index
        %2535 = arith.select %2399, %2534, %c536870911 : index
        vector.store %2533, %402[%2535] : memref<?xf32, #amdgpu.address_space<fat_raw_buffer>>, vector<1xf32>
        %2536 = vector.extract_strided_slice %366 {offsets = [1], sizes = [1], strides = [1]} : vector<4xf32> to vector<1xf32>
        %2537 = arith.addi %2408, %128 overflow<nsw> : index
        %2538 = arith.select %2406, %2537, %c536870911 : index
        vector.store %2536, %402[%2538] : memref<?xf32, #amdgpu.address_space<fat_raw_buffer>>, vector<1xf32>
        %2539 = vector.extract_strided_slice %366 {offsets = [2], sizes = [1], strides = [1]} : vector<4xf32> to vector<1xf32>
        %2540 = arith.addi %2415, %128 overflow<nsw> : index
        %2541 = arith.select %2413, %2540, %c536870911 : index
        vector.store %2539, %402[%2541] : memref<?xf32, #amdgpu.address_space<fat_raw_buffer>>, vector<1xf32>
        %2542 = vector.extract_strided_slice %366 {offsets = [3], sizes = [1], strides = [1]} : vector<4xf32> to vector<1xf32>
        %2543 = arith.addi %2422, %128 overflow<nsw> : index
        %2544 = arith.select %2420, %2543, %c536870911 : index
        vector.store %2542, %402[%2544] : memref<?xf32, #amdgpu.address_space<fat_raw_buffer>>, vector<1xf32>
        %2545 = vector.extract_strided_slice %367 {offsets = [0], sizes = [1], strides = [1]} : vector<4xf32> to vector<1xf32>
        %2546 = arith.addi %2401, %130 overflow<nsw> : index
        %2547 = arith.select %2399, %2546, %c536870911 : index
        vector.store %2545, %402[%2547] : memref<?xf32, #amdgpu.address_space<fat_raw_buffer>>, vector<1xf32>
        %2548 = vector.extract_strided_slice %367 {offsets = [1], sizes = [1], strides = [1]} : vector<4xf32> to vector<1xf32>
        %2549 = arith.addi %2408, %130 overflow<nsw> : index
        %2550 = arith.select %2406, %2549, %c536870911 : index
        vector.store %2548, %402[%2550] : memref<?xf32, #amdgpu.address_space<fat_raw_buffer>>, vector<1xf32>
        %2551 = vector.extract_strided_slice %367 {offsets = [2], sizes = [1], strides = [1]} : vector<4xf32> to vector<1xf32>
        %2552 = arith.addi %2415, %130 overflow<nsw> : index
        %2553 = arith.select %2413, %2552, %c536870911 : index
        vector.store %2551, %402[%2553] : memref<?xf32, #amdgpu.address_space<fat_raw_buffer>>, vector<1xf32>
        %2554 = vector.extract_strided_slice %367 {offsets = [3], sizes = [1], strides = [1]} : vector<4xf32> to vector<1xf32>
        %2555 = arith.addi %2422, %130 overflow<nsw> : index
        %2556 = arith.select %2420, %2555, %c536870911 : index
        vector.store %2554, %402[%2556] : memref<?xf32, #amdgpu.address_space<fat_raw_buffer>>, vector<1xf32>
        %2557 = vector.extract_strided_slice %368 {offsets = [0], sizes = [1], strides = [1]} : vector<4xf32> to vector<1xf32>
        %2558 = arith.addi %2401, %132 overflow<nsw> : index
        %2559 = arith.select %2399, %2558, %c536870911 : index
        vector.store %2557, %402[%2559] : memref<?xf32, #amdgpu.address_space<fat_raw_buffer>>, vector<1xf32>
        %2560 = vector.extract_strided_slice %368 {offsets = [1], sizes = [1], strides = [1]} : vector<4xf32> to vector<1xf32>
        %2561 = arith.addi %2408, %132 overflow<nsw> : index
        %2562 = arith.select %2406, %2561, %c536870911 : index
        vector.store %2560, %402[%2562] : memref<?xf32, #amdgpu.address_space<fat_raw_buffer>>, vector<1xf32>
        %2563 = vector.extract_strided_slice %368 {offsets = [2], sizes = [1], strides = [1]} : vector<4xf32> to vector<1xf32>
        %2564 = arith.addi %2415, %132 overflow<nsw> : index
        %2565 = arith.select %2413, %2564, %c536870911 : index
        vector.store %2563, %402[%2565] : memref<?xf32, #amdgpu.address_space<fat_raw_buffer>>, vector<1xf32>
        %2566 = vector.extract_strided_slice %368 {offsets = [3], sizes = [1], strides = [1]} : vector<4xf32> to vector<1xf32>
        %2567 = arith.addi %2422, %132 overflow<nsw> : index
        %2568 = arith.select %2420, %2567, %c536870911 : index
        vector.store %2566, %402[%2568] : memref<?xf32, #amdgpu.address_space<fat_raw_buffer>>, vector<1xf32>
        %2569 = vector.extract_strided_slice %369 {offsets = [0], sizes = [1], strides = [1]} : vector<4xf32> to vector<1xf32>
        %2570 = arith.addi %2401, %134 overflow<nsw> : index
        %2571 = arith.select %2399, %2570, %c536870911 : index
        vector.store %2569, %402[%2571] : memref<?xf32, #amdgpu.address_space<fat_raw_buffer>>, vector<1xf32>
        %2572 = vector.extract_strided_slice %369 {offsets = [1], sizes = [1], strides = [1]} : vector<4xf32> to vector<1xf32>
        %2573 = arith.addi %2408, %134 overflow<nsw> : index
        %2574 = arith.select %2406, %2573, %c536870911 : index
        vector.store %2572, %402[%2574] : memref<?xf32, #amdgpu.address_space<fat_raw_buffer>>, vector<1xf32>
        %2575 = vector.extract_strided_slice %369 {offsets = [2], sizes = [1], strides = [1]} : vector<4xf32> to vector<1xf32>
        %2576 = arith.addi %2415, %134 overflow<nsw> : index
        %2577 = arith.select %2413, %2576, %c536870911 : index
        vector.store %2575, %402[%2577] : memref<?xf32, #amdgpu.address_space<fat_raw_buffer>>, vector<1xf32>
        %2578 = vector.extract_strided_slice %369 {offsets = [3], sizes = [1], strides = [1]} : vector<4xf32> to vector<1xf32>
        %2579 = arith.addi %2422, %134 overflow<nsw> : index
        %2580 = arith.select %2420, %2579, %c536870911 : index
        vector.store %2578, %402[%2580] : memref<?xf32, #amdgpu.address_space<fat_raw_buffer>>, vector<1xf32>
        %2581 = vector.extract_strided_slice %370 {offsets = [0], sizes = [1], strides = [1]} : vector<4xf32> to vector<1xf32>
        %2582 = arith.addi %2401, %136 overflow<nsw> : index
        %2583 = arith.select %2399, %2582, %c536870911 : index
        vector.store %2581, %402[%2583] : memref<?xf32, #amdgpu.address_space<fat_raw_buffer>>, vector<1xf32>
        %2584 = vector.extract_strided_slice %370 {offsets = [1], sizes = [1], strides = [1]} : vector<4xf32> to vector<1xf32>
        %2585 = arith.addi %2408, %136 overflow<nsw> : index
        %2586 = arith.select %2406, %2585, %c536870911 : index
        vector.store %2584, %402[%2586] : memref<?xf32, #amdgpu.address_space<fat_raw_buffer>>, vector<1xf32>
        %2587 = vector.extract_strided_slice %370 {offsets = [2], sizes = [1], strides = [1]} : vector<4xf32> to vector<1xf32>
        %2588 = arith.addi %2415, %136 overflow<nsw> : index
        %2589 = arith.select %2413, %2588, %c536870911 : index
        vector.store %2587, %402[%2589] : memref<?xf32, #amdgpu.address_space<fat_raw_buffer>>, vector<1xf32>
        %2590 = vector.extract_strided_slice %370 {offsets = [3], sizes = [1], strides = [1]} : vector<4xf32> to vector<1xf32>
        %2591 = arith.addi %2422, %136 overflow<nsw> : index
        %2592 = arith.select %2420, %2591, %c536870911 : index
        vector.store %2590, %402[%2592] : memref<?xf32, #amdgpu.address_space<fat_raw_buffer>>, vector<1xf32>
        %2593 = vector.extract_strided_slice %371 {offsets = [0], sizes = [1], strides = [1]} : vector<4xf32> to vector<1xf32>
        %2594 = arith.addi %2401, %138 overflow<nsw> : index
        %2595 = arith.select %2399, %2594, %c536870911 : index
        vector.store %2593, %402[%2595] : memref<?xf32, #amdgpu.address_space<fat_raw_buffer>>, vector<1xf32>
        %2596 = vector.extract_strided_slice %371 {offsets = [1], sizes = [1], strides = [1]} : vector<4xf32> to vector<1xf32>
        %2597 = arith.addi %2408, %138 overflow<nsw> : index
        %2598 = arith.select %2406, %2597, %c536870911 : index
        vector.store %2596, %402[%2598] : memref<?xf32, #amdgpu.address_space<fat_raw_buffer>>, vector<1xf32>
        %2599 = vector.extract_strided_slice %371 {offsets = [2], sizes = [1], strides = [1]} : vector<4xf32> to vector<1xf32>
        %2600 = arith.addi %2415, %138 overflow<nsw> : index
        %2601 = arith.select %2413, %2600, %c536870911 : index
        vector.store %2599, %402[%2601] : memref<?xf32, #amdgpu.address_space<fat_raw_buffer>>, vector<1xf32>
        %2602 = vector.extract_strided_slice %371 {offsets = [3], sizes = [1], strides = [1]} : vector<4xf32> to vector<1xf32>
        %2603 = arith.addi %2422, %138 overflow<nsw> : index
        %2604 = arith.select %2420, %2603, %c536870911 : index
        vector.store %2602, %402[%2604] : memref<?xf32, #amdgpu.address_space<fat_raw_buffer>>, vector<1xf32>
        %2605 = vector.extract_strided_slice %372 {offsets = [0], sizes = [1], strides = [1]} : vector<4xf32> to vector<1xf32>
        %2606 = arith.addi %2401, %140 overflow<nsw> : index
        %2607 = arith.select %2399, %2606, %c536870911 : index
        vector.store %2605, %402[%2607] : memref<?xf32, #amdgpu.address_space<fat_raw_buffer>>, vector<1xf32>
        %2608 = vector.extract_strided_slice %372 {offsets = [1], sizes = [1], strides = [1]} : vector<4xf32> to vector<1xf32>
        %2609 = arith.addi %2408, %140 overflow<nsw> : index
        %2610 = arith.select %2406, %2609, %c536870911 : index
        vector.store %2608, %402[%2610] : memref<?xf32, #amdgpu.address_space<fat_raw_buffer>>, vector<1xf32>
        %2611 = vector.extract_strided_slice %372 {offsets = [2], sizes = [1], strides = [1]} : vector<4xf32> to vector<1xf32>
        %2612 = arith.addi %2415, %140 overflow<nsw> : index
        %2613 = arith.select %2413, %2612, %c536870911 : index
        vector.store %2611, %402[%2613] : memref<?xf32, #amdgpu.address_space<fat_raw_buffer>>, vector<1xf32>
        %2614 = vector.extract_strided_slice %372 {offsets = [3], sizes = [1], strides = [1]} : vector<4xf32> to vector<1xf32>
        %2615 = arith.addi %2422, %140 overflow<nsw> : index
        %2616 = arith.select %2420, %2615, %c536870911 : index
        vector.store %2614, %402[%2616] : memref<?xf32, #amdgpu.address_space<fat_raw_buffer>>, vector<1xf32>
        %2617 = vector.extract_strided_slice %373 {offsets = [0], sizes = [1], strides = [1]} : vector<4xf32> to vector<1xf32>
        %2618 = arith.addi %2401, %142 overflow<nsw> : index
        %2619 = arith.select %2399, %2618, %c536870911 : index
        vector.store %2617, %402[%2619] : memref<?xf32, #amdgpu.address_space<fat_raw_buffer>>, vector<1xf32>
        %2620 = vector.extract_strided_slice %373 {offsets = [1], sizes = [1], strides = [1]} : vector<4xf32> to vector<1xf32>
        %2621 = arith.addi %2408, %142 overflow<nsw> : index
        %2622 = arith.select %2406, %2621, %c536870911 : index
        vector.store %2620, %402[%2622] : memref<?xf32, #amdgpu.address_space<fat_raw_buffer>>, vector<1xf32>
        %2623 = vector.extract_strided_slice %373 {offsets = [2], sizes = [1], strides = [1]} : vector<4xf32> to vector<1xf32>
        %2624 = arith.addi %2415, %142 overflow<nsw> : index
        %2625 = arith.select %2413, %2624, %c536870911 : index
        vector.store %2623, %402[%2625] : memref<?xf32, #amdgpu.address_space<fat_raw_buffer>>, vector<1xf32>
        %2626 = vector.extract_strided_slice %373 {offsets = [3], sizes = [1], strides = [1]} : vector<4xf32> to vector<1xf32>
        %2627 = arith.addi %2422, %142 overflow<nsw> : index
        %2628 = arith.select %2420, %2627, %c536870911 : index
        vector.store %2626, %402[%2628] : memref<?xf32, #amdgpu.address_space<fat_raw_buffer>>, vector<1xf32>
        %2629 = vector.extract_strided_slice %374 {offsets = [0], sizes = [1], strides = [1]} : vector<4xf32> to vector<1xf32>
        %2630 = arith.addi %2401, %144 overflow<nsw> : index
        %2631 = arith.select %2399, %2630, %c536870911 : index
        vector.store %2629, %402[%2631] : memref<?xf32, #amdgpu.address_space<fat_raw_buffer>>, vector<1xf32>
        %2632 = vector.extract_strided_slice %374 {offsets = [1], sizes = [1], strides = [1]} : vector<4xf32> to vector<1xf32>
        %2633 = arith.addi %2408, %144 overflow<nsw> : index
        %2634 = arith.select %2406, %2633, %c536870911 : index
        vector.store %2632, %402[%2634] : memref<?xf32, #amdgpu.address_space<fat_raw_buffer>>, vector<1xf32>
        %2635 = vector.extract_strided_slice %374 {offsets = [2], sizes = [1], strides = [1]} : vector<4xf32> to vector<1xf32>
        %2636 = arith.addi %2415, %144 overflow<nsw> : index
        %2637 = arith.select %2413, %2636, %c536870911 : index
        vector.store %2635, %402[%2637] : memref<?xf32, #amdgpu.address_space<fat_raw_buffer>>, vector<1xf32>
        %2638 = vector.extract_strided_slice %374 {offsets = [3], sizes = [1], strides = [1]} : vector<4xf32> to vector<1xf32>
        %2639 = arith.addi %2422, %144 overflow<nsw> : index
        %2640 = arith.select %2420, %2639, %c536870911 : index
        vector.store %2638, %402[%2640] : memref<?xf32, #amdgpu.address_space<fat_raw_buffer>>, vector<1xf32>
        %2641 = vector.extract_strided_slice %375 {offsets = [0], sizes = [1], strides = [1]} : vector<4xf32> to vector<1xf32>
        %2642 = arith.addi %2401, %146 overflow<nsw> : index
        %2643 = arith.select %2399, %2642, %c536870911 : index
        vector.store %2641, %402[%2643] : memref<?xf32, #amdgpu.address_space<fat_raw_buffer>>, vector<1xf32>
        %2644 = vector.extract_strided_slice %375 {offsets = [1], sizes = [1], strides = [1]} : vector<4xf32> to vector<1xf32>
        %2645 = arith.addi %2408, %146 overflow<nsw> : index
        %2646 = arith.select %2406, %2645, %c536870911 : index
        vector.store %2644, %402[%2646] : memref<?xf32, #amdgpu.address_space<fat_raw_buffer>>, vector<1xf32>
        %2647 = vector.extract_strided_slice %375 {offsets = [2], sizes = [1], strides = [1]} : vector<4xf32> to vector<1xf32>
        %2648 = arith.addi %2415, %146 overflow<nsw> : index
        %2649 = arith.select %2413, %2648, %c536870911 : index
        vector.store %2647, %402[%2649] : memref<?xf32, #amdgpu.address_space<fat_raw_buffer>>, vector<1xf32>
        %2650 = vector.extract_strided_slice %375 {offsets = [3], sizes = [1], strides = [1]} : vector<4xf32> to vector<1xf32>
        %2651 = arith.addi %2422, %146 overflow<nsw> : index
        %2652 = arith.select %2420, %2651, %c536870911 : index
        vector.store %2650, %402[%2652] : memref<?xf32, #amdgpu.address_space<fat_raw_buffer>>, vector<1xf32>
        %2653 = vector.extract_strided_slice %376 {offsets = [0], sizes = [1], strides = [1]} : vector<4xf32> to vector<1xf32>
        %2654 = arith.addi %2401, %148 overflow<nsw> : index
        %2655 = arith.select %2399, %2654, %c536870911 : index
        vector.store %2653, %402[%2655] : memref<?xf32, #amdgpu.address_space<fat_raw_buffer>>, vector<1xf32>
        %2656 = vector.extract_strided_slice %376 {offsets = [1], sizes = [1], strides = [1]} : vector<4xf32> to vector<1xf32>
        %2657 = arith.addi %2408, %148 overflow<nsw> : index
        %2658 = arith.select %2406, %2657, %c536870911 : index
        vector.store %2656, %402[%2658] : memref<?xf32, #amdgpu.address_space<fat_raw_buffer>>, vector<1xf32>
        %2659 = vector.extract_strided_slice %376 {offsets = [2], sizes = [1], strides = [1]} : vector<4xf32> to vector<1xf32>
        %2660 = arith.addi %2415, %148 overflow<nsw> : index
        %2661 = arith.select %2413, %2660, %c536870911 : index
        vector.store %2659, %402[%2661] : memref<?xf32, #amdgpu.address_space<fat_raw_buffer>>, vector<1xf32>
        %2662 = vector.extract_strided_slice %376 {offsets = [3], sizes = [1], strides = [1]} : vector<4xf32> to vector<1xf32>
        %2663 = arith.addi %2422, %148 overflow<nsw> : index
        %2664 = arith.select %2420, %2663, %c536870911 : index
        vector.store %2662, %402[%2664] : memref<?xf32, #amdgpu.address_space<fat_raw_buffer>>, vector<1xf32>
        %2665 = vector.extract_strided_slice %377 {offsets = [0], sizes = [1], strides = [1]} : vector<4xf32> to vector<1xf32>
        %2666 = arith.addi %2401, %150 overflow<nsw> : index
        %2667 = arith.select %2399, %2666, %c536870911 : index
        vector.store %2665, %402[%2667] : memref<?xf32, #amdgpu.address_space<fat_raw_buffer>>, vector<1xf32>
        %2668 = vector.extract_strided_slice %377 {offsets = [1], sizes = [1], strides = [1]} : vector<4xf32> to vector<1xf32>
        %2669 = arith.addi %2408, %150 overflow<nsw> : index
        %2670 = arith.select %2406, %2669, %c536870911 : index
        vector.store %2668, %402[%2670] : memref<?xf32, #amdgpu.address_space<fat_raw_buffer>>, vector<1xf32>
        %2671 = vector.extract_strided_slice %377 {offsets = [2], sizes = [1], strides = [1]} : vector<4xf32> to vector<1xf32>
        %2672 = arith.addi %2415, %150 overflow<nsw> : index
        %2673 = arith.select %2413, %2672, %c536870911 : index
        vector.store %2671, %402[%2673] : memref<?xf32, #amdgpu.address_space<fat_raw_buffer>>, vector<1xf32>
        %2674 = vector.extract_strided_slice %377 {offsets = [3], sizes = [1], strides = [1]} : vector<4xf32> to vector<1xf32>
        %2675 = arith.addi %2422, %150 overflow<nsw> : index
        %2676 = arith.select %2420, %2675, %c536870911 : index
        vector.store %2674, %402[%2676] : memref<?xf32, #amdgpu.address_space<fat_raw_buffer>>, vector<1xf32>
        %2677 = vector.extract_strided_slice %378 {offsets = [0], sizes = [1], strides = [1]} : vector<4xf32> to vector<1xf32>
        %2678 = arith.addi %2401, %152 overflow<nsw> : index
        %2679 = arith.select %2399, %2678, %c536870911 : index
        vector.store %2677, %402[%2679] : memref<?xf32, #amdgpu.address_space<fat_raw_buffer>>, vector<1xf32>
        %2680 = vector.extract_strided_slice %378 {offsets = [1], sizes = [1], strides = [1]} : vector<4xf32> to vector<1xf32>
        %2681 = arith.addi %2408, %152 overflow<nsw> : index
        %2682 = arith.select %2406, %2681, %c536870911 : index
        vector.store %2680, %402[%2682] : memref<?xf32, #amdgpu.address_space<fat_raw_buffer>>, vector<1xf32>
        %2683 = vector.extract_strided_slice %378 {offsets = [2], sizes = [1], strides = [1]} : vector<4xf32> to vector<1xf32>
        %2684 = arith.addi %2415, %152 overflow<nsw> : index
        %2685 = arith.select %2413, %2684, %c536870911 : index
        vector.store %2683, %402[%2685] : memref<?xf32, #amdgpu.address_space<fat_raw_buffer>>, vector<1xf32>
        %2686 = vector.extract_strided_slice %378 {offsets = [3], sizes = [1], strides = [1]} : vector<4xf32> to vector<1xf32>
        %2687 = arith.addi %2422, %152 overflow<nsw> : index
        %2688 = arith.select %2420, %2687, %c536870911 : index
        vector.store %2686, %402[%2688] : memref<?xf32, #amdgpu.address_space<fat_raw_buffer>>, vector<1xf32>
        %2689 = vector.extract_strided_slice %379 {offsets = [0], sizes = [1], strides = [1]} : vector<4xf32> to vector<1xf32>
        %2690 = arith.addi %2401, %154 overflow<nsw> : index
        %2691 = arith.select %2399, %2690, %c536870911 : index
        vector.store %2689, %402[%2691] : memref<?xf32, #amdgpu.address_space<fat_raw_buffer>>, vector<1xf32>
        %2692 = vector.extract_strided_slice %379 {offsets = [1], sizes = [1], strides = [1]} : vector<4xf32> to vector<1xf32>
        %2693 = arith.addi %2408, %154 overflow<nsw> : index
        %2694 = arith.select %2406, %2693, %c536870911 : index
        vector.store %2692, %402[%2694] : memref<?xf32, #amdgpu.address_space<fat_raw_buffer>>, vector<1xf32>
        %2695 = vector.extract_strided_slice %379 {offsets = [2], sizes = [1], strides = [1]} : vector<4xf32> to vector<1xf32>
        %2696 = arith.addi %2415, %154 overflow<nsw> : index
        %2697 = arith.select %2413, %2696, %c536870911 : index
        vector.store %2695, %402[%2697] : memref<?xf32, #amdgpu.address_space<fat_raw_buffer>>, vector<1xf32>
        %2698 = vector.extract_strided_slice %379 {offsets = [3], sizes = [1], strides = [1]} : vector<4xf32> to vector<1xf32>
        %2699 = arith.addi %2422, %154 overflow<nsw> : index
        %2700 = arith.select %2420, %2699, %c536870911 : index
        vector.store %2698, %402[%2700] : memref<?xf32, #amdgpu.address_space<fat_raw_buffer>>, vector<1xf32>
        %2701 = vector.extract_strided_slice %380 {offsets = [0], sizes = [1], strides = [1]} : vector<4xf32> to vector<1xf32>
        %2702 = arith.addi %2401, %156 overflow<nsw> : index
        %2703 = arith.select %2399, %2702, %c536870911 : index
        vector.store %2701, %402[%2703] : memref<?xf32, #amdgpu.address_space<fat_raw_buffer>>, vector<1xf32>
        %2704 = vector.extract_strided_slice %380 {offsets = [1], sizes = [1], strides = [1]} : vector<4xf32> to vector<1xf32>
        %2705 = arith.addi %2408, %156 overflow<nsw> : index
        %2706 = arith.select %2406, %2705, %c536870911 : index
        vector.store %2704, %402[%2706] : memref<?xf32, #amdgpu.address_space<fat_raw_buffer>>, vector<1xf32>
        %2707 = vector.extract_strided_slice %380 {offsets = [2], sizes = [1], strides = [1]} : vector<4xf32> to vector<1xf32>
        %2708 = arith.addi %2415, %156 overflow<nsw> : index
        %2709 = arith.select %2413, %2708, %c536870911 : index
        vector.store %2707, %402[%2709] : memref<?xf32, #amdgpu.address_space<fat_raw_buffer>>, vector<1xf32>
        %2710 = vector.extract_strided_slice %380 {offsets = [3], sizes = [1], strides = [1]} : vector<4xf32> to vector<1xf32>
        %2711 = arith.addi %2422, %156 overflow<nsw> : index
        %2712 = arith.select %2420, %2711, %c536870911 : index
        vector.store %2710, %402[%2712] : memref<?xf32, #amdgpu.address_space<fat_raw_buffer>>, vector<1xf32>
        %2713 = vector.extract_strided_slice %381 {offsets = [0], sizes = [1], strides = [1]} : vector<4xf32> to vector<1xf32>
        %2714 = arith.addi %2401, %158 overflow<nsw> : index
        %2715 = arith.select %2399, %2714, %c536870911 : index
        vector.store %2713, %402[%2715] : memref<?xf32, #amdgpu.address_space<fat_raw_buffer>>, vector<1xf32>
        %2716 = vector.extract_strided_slice %381 {offsets = [1], sizes = [1], strides = [1]} : vector<4xf32> to vector<1xf32>
        %2717 = arith.addi %2408, %158 overflow<nsw> : index
        %2718 = arith.select %2406, %2717, %c536870911 : index
        vector.store %2716, %402[%2718] : memref<?xf32, #amdgpu.address_space<fat_raw_buffer>>, vector<1xf32>
        %2719 = vector.extract_strided_slice %381 {offsets = [2], sizes = [1], strides = [1]} : vector<4xf32> to vector<1xf32>
        %2720 = arith.addi %2415, %158 overflow<nsw> : index
        %2721 = arith.select %2413, %2720, %c536870911 : index
        vector.store %2719, %402[%2721] : memref<?xf32, #amdgpu.address_space<fat_raw_buffer>>, vector<1xf32>
        %2722 = vector.extract_strided_slice %381 {offsets = [3], sizes = [1], strides = [1]} : vector<4xf32> to vector<1xf32>
        %2723 = arith.addi %2422, %158 overflow<nsw> : index
        %2724 = arith.select %2420, %2723, %c536870911 : index
        vector.store %2722, %402[%2724] : memref<?xf32, #amdgpu.address_space<fat_raw_buffer>>, vector<1xf32>
        %2725 = vector.extract_strided_slice %382 {offsets = [0], sizes = [1], strides = [1]} : vector<4xf32> to vector<1xf32>
        %2726 = arith.addi %2401, %160 overflow<nsw> : index
        %2727 = arith.select %2399, %2726, %c536870911 : index
        vector.store %2725, %402[%2727] : memref<?xf32, #amdgpu.address_space<fat_raw_buffer>>, vector<1xf32>
        %2728 = vector.extract_strided_slice %382 {offsets = [1], sizes = [1], strides = [1]} : vector<4xf32> to vector<1xf32>
        %2729 = arith.addi %2408, %160 overflow<nsw> : index
        %2730 = arith.select %2406, %2729, %c536870911 : index
        vector.store %2728, %402[%2730] : memref<?xf32, #amdgpu.address_space<fat_raw_buffer>>, vector<1xf32>
        %2731 = vector.extract_strided_slice %382 {offsets = [2], sizes = [1], strides = [1]} : vector<4xf32> to vector<1xf32>
        %2732 = arith.addi %2415, %160 overflow<nsw> : index
        %2733 = arith.select %2413, %2732, %c536870911 : index
        vector.store %2731, %402[%2733] : memref<?xf32, #amdgpu.address_space<fat_raw_buffer>>, vector<1xf32>
        %2734 = vector.extract_strided_slice %382 {offsets = [3], sizes = [1], strides = [1]} : vector<4xf32> to vector<1xf32>
        %2735 = arith.addi %2422, %160 overflow<nsw> : index
        %2736 = arith.select %2420, %2735, %c536870911 : index
        vector.store %2734, %402[%2736] : memref<?xf32, #amdgpu.address_space<fat_raw_buffer>>, vector<1xf32>
        %2737 = vector.extract_strided_slice %383 {offsets = [0], sizes = [1], strides = [1]} : vector<4xf32> to vector<1xf32>
        %2738 = arith.addi %2401, %162 overflow<nsw> : index
        %2739 = arith.select %2399, %2738, %c536870911 : index
        vector.store %2737, %402[%2739] : memref<?xf32, #amdgpu.address_space<fat_raw_buffer>>, vector<1xf32>
        %2740 = vector.extract_strided_slice %383 {offsets = [1], sizes = [1], strides = [1]} : vector<4xf32> to vector<1xf32>
        %2741 = arith.addi %2408, %162 overflow<nsw> : index
        %2742 = arith.select %2406, %2741, %c536870911 : index
        vector.store %2740, %402[%2742] : memref<?xf32, #amdgpu.address_space<fat_raw_buffer>>, vector<1xf32>
        %2743 = vector.extract_strided_slice %383 {offsets = [2], sizes = [1], strides = [1]} : vector<4xf32> to vector<1xf32>
        %2744 = arith.addi %2415, %162 overflow<nsw> : index
        %2745 = arith.select %2413, %2744, %c536870911 : index
        vector.store %2743, %402[%2745] : memref<?xf32, #amdgpu.address_space<fat_raw_buffer>>, vector<1xf32>
        %2746 = vector.extract_strided_slice %383 {offsets = [3], sizes = [1], strides = [1]} : vector<4xf32> to vector<1xf32>
        %2747 = arith.addi %2422, %162 overflow<nsw> : index
        %2748 = arith.select %2420, %2747, %c536870911 : index
        vector.store %2746, %402[%2748] : memref<?xf32, #amdgpu.address_space<fat_raw_buffer>>, vector<1xf32>
        %2749 = vector.extract_strided_slice %384 {offsets = [0], sizes = [1], strides = [1]} : vector<4xf32> to vector<1xf32>
        %2750 = arith.addi %2401, %164 overflow<nsw> : index
        %2751 = arith.select %2399, %2750, %c536870911 : index
        vector.store %2749, %402[%2751] : memref<?xf32, #amdgpu.address_space<fat_raw_buffer>>, vector<1xf32>
        %2752 = vector.extract_strided_slice %384 {offsets = [1], sizes = [1], strides = [1]} : vector<4xf32> to vector<1xf32>
        %2753 = arith.addi %2408, %164 overflow<nsw> : index
        %2754 = arith.select %2406, %2753, %c536870911 : index
        vector.store %2752, %402[%2754] : memref<?xf32, #amdgpu.address_space<fat_raw_buffer>>, vector<1xf32>
        %2755 = vector.extract_strided_slice %384 {offsets = [2], sizes = [1], strides = [1]} : vector<4xf32> to vector<1xf32>
        %2756 = arith.addi %2415, %164 overflow<nsw> : index
        %2757 = arith.select %2413, %2756, %c536870911 : index
        vector.store %2755, %402[%2757] : memref<?xf32, #amdgpu.address_space<fat_raw_buffer>>, vector<1xf32>
        %2758 = vector.extract_strided_slice %384 {offsets = [3], sizes = [1], strides = [1]} : vector<4xf32> to vector<1xf32>
        %2759 = arith.addi %2422, %164 overflow<nsw> : index
        %2760 = arith.select %2420, %2759, %c536870911 : index
        vector.store %2758, %402[%2760] : memref<?xf32, #amdgpu.address_space<fat_raw_buffer>>, vector<1xf32>
        %2761 = vector.extract_strided_slice %385 {offsets = [0], sizes = [1], strides = [1]} : vector<4xf32> to vector<1xf32>
        %2762 = arith.addi %2401, %166 overflow<nsw> : index
        %2763 = arith.select %2399, %2762, %c536870911 : index
        vector.store %2761, %402[%2763] : memref<?xf32, #amdgpu.address_space<fat_raw_buffer>>, vector<1xf32>
        %2764 = vector.extract_strided_slice %385 {offsets = [1], sizes = [1], strides = [1]} : vector<4xf32> to vector<1xf32>
        %2765 = arith.addi %2408, %166 overflow<nsw> : index
        %2766 = arith.select %2406, %2765, %c536870911 : index
        vector.store %2764, %402[%2766] : memref<?xf32, #amdgpu.address_space<fat_raw_buffer>>, vector<1xf32>
        %2767 = vector.extract_strided_slice %385 {offsets = [2], sizes = [1], strides = [1]} : vector<4xf32> to vector<1xf32>
        %2768 = arith.addi %2415, %166 overflow<nsw> : index
        %2769 = arith.select %2413, %2768, %c536870911 : index
        vector.store %2767, %402[%2769] : memref<?xf32, #amdgpu.address_space<fat_raw_buffer>>, vector<1xf32>
        %2770 = vector.extract_strided_slice %385 {offsets = [3], sizes = [1], strides = [1]} : vector<4xf32> to vector<1xf32>
        %2771 = arith.addi %2422, %166 overflow<nsw> : index
        %2772 = arith.select %2420, %2771, %c536870911 : index
        vector.store %2770, %402[%2772] : memref<?xf32, #amdgpu.address_space<fat_raw_buffer>>, vector<1xf32>
        %2773 = vector.extract_strided_slice %386 {offsets = [0], sizes = [1], strides = [1]} : vector<4xf32> to vector<1xf32>
        %2774 = arith.addi %2401, %168 overflow<nsw> : index
        %2775 = arith.select %2399, %2774, %c536870911 : index
        vector.store %2773, %402[%2775] : memref<?xf32, #amdgpu.address_space<fat_raw_buffer>>, vector<1xf32>
        %2776 = vector.extract_strided_slice %386 {offsets = [1], sizes = [1], strides = [1]} : vector<4xf32> to vector<1xf32>
        %2777 = arith.addi %2408, %168 overflow<nsw> : index
        %2778 = arith.select %2406, %2777, %c536870911 : index
        vector.store %2776, %402[%2778] : memref<?xf32, #amdgpu.address_space<fat_raw_buffer>>, vector<1xf32>
        %2779 = vector.extract_strided_slice %386 {offsets = [2], sizes = [1], strides = [1]} : vector<4xf32> to vector<1xf32>
        %2780 = arith.addi %2415, %168 overflow<nsw> : index
        %2781 = arith.select %2413, %2780, %c536870911 : index
        vector.store %2779, %402[%2781] : memref<?xf32, #amdgpu.address_space<fat_raw_buffer>>, vector<1xf32>
        %2782 = vector.extract_strided_slice %386 {offsets = [3], sizes = [1], strides = [1]} : vector<4xf32> to vector<1xf32>
        %2783 = arith.addi %2422, %168 overflow<nsw> : index
        %2784 = arith.select %2420, %2783, %c536870911 : index
        vector.store %2782, %402[%2784] : memref<?xf32, #amdgpu.address_space<fat_raw_buffer>>, vector<1xf32>
        %2785 = vector.extract_strided_slice %387 {offsets = [0], sizes = [1], strides = [1]} : vector<4xf32> to vector<1xf32>
        %2786 = arith.addi %2401, %170 overflow<nsw> : index
        %2787 = arith.select %2399, %2786, %c536870911 : index
        vector.store %2785, %402[%2787] : memref<?xf32, #amdgpu.address_space<fat_raw_buffer>>, vector<1xf32>
        %2788 = vector.extract_strided_slice %387 {offsets = [1], sizes = [1], strides = [1]} : vector<4xf32> to vector<1xf32>
        %2789 = arith.addi %2408, %170 overflow<nsw> : index
        %2790 = arith.select %2406, %2789, %c536870911 : index
        vector.store %2788, %402[%2790] : memref<?xf32, #amdgpu.address_space<fat_raw_buffer>>, vector<1xf32>
        %2791 = vector.extract_strided_slice %387 {offsets = [2], sizes = [1], strides = [1]} : vector<4xf32> to vector<1xf32>
        %2792 = arith.addi %2415, %170 overflow<nsw> : index
        %2793 = arith.select %2413, %2792, %c536870911 : index
        vector.store %2791, %402[%2793] : memref<?xf32, #amdgpu.address_space<fat_raw_buffer>>, vector<1xf32>
        %2794 = vector.extract_strided_slice %387 {offsets = [3], sizes = [1], strides = [1]} : vector<4xf32> to vector<1xf32>
        %2795 = arith.addi %2422, %170 overflow<nsw> : index
        %2796 = arith.select %2420, %2795, %c536870911 : index
        vector.store %2794, %402[%2796] : memref<?xf32, #amdgpu.address_space<fat_raw_buffer>>, vector<1xf32>
        return
      }
    }
  }
  func.func @isolated_benchmark(%arg0: tensor<642x4096xf16>, %arg1: tensor<1024x4096xf16>, %arg2: tensor<642x1024xf32>) -> tensor<642x1024xf32> {
    %0 = flow.dispatch @gemm::@gemm(%arg0, %arg1, %arg2) : (tensor<642x4096xf16>, tensor<1024x4096xf16>, tensor<642x1024xf32>) -> %arg2
    return %0 : tensor<642x1024xf32>
  }
}
