#map = affine_map<()[s0, s1] -> ((s0 * 2 + s1) mod 8)>
#map1 = affine_map<()[s0, s1, s2, s3, s4] -> ((s1 * 128 + s0 floordiv 2) mod 404 + ((s4 + (s2 + s3 * 2) floordiv 8) floordiv 3) * 404)>
#map2 = affine_map<()[s0] -> (s0 * 8 - (s0 floordiv 2) * 16)>
#map3 = affine_map<()[s0, s1, s2, s3, s4] -> (s1 * 128 + s0 floordiv 2 - ((s1 * 128 + s0 floordiv 2 + 256) floordiv 404) * 404 + ((s4 + (s2 + s3 * 2) floordiv 8) floordiv 3) * 404 + 256)>
#map4 = affine_map<()[s0, s1, s2, s3, s4] -> (s1 * 128 + s4 * 1090 + s0 floordiv 2 - ((s1 * 128 + s0 floordiv 2) floordiv 1090) * 1090 + ((s2 + s3 * 2) floordiv 8) * 1090 - ((s4 + (s2 + s3 * 2) floordiv 8) floordiv 3) * 3270)>
#map5 = affine_map<()[s0, s1, s2, s3, s4] -> (s1 * 128 + s4 * 1090 + s0 floordiv 2 - ((s1 * 128 + s0 floordiv 2 + 256) floordiv 1090) * 1090 + ((s2 + s3 * 2) floordiv 8) * 1090 - ((s4 + (s2 + s3 * 2) floordiv 8) floordiv 3) * 3270 + 256)>
#map6 = affine_map<()[s0, s1, s2, s3, s4] -> (s1 * 128 + s4 * 1090 + s0 floordiv 2 - ((s1 * 128 + s0 floordiv 2 + 512) floordiv 1090) * 1090 + ((s2 + s3 * 2) floordiv 8) * 1090 - ((s4 + (s2 + s3 * 2) floordiv 8) floordiv 3) * 3270 + 512)>
#map7 = affine_map<()[s0, s1, s2, s3, s4] -> (s1 * 128 + s4 * 1090 + s0 floordiv 2 - ((s1 * 128 + s0 floordiv 2 + 768) floordiv 1090) * 1090 + ((s2 + s3 * 2) floordiv 8) * 1090 - ((s4 + (s2 + s3 * 2) floordiv 8) floordiv 3) * 3270 + 768)>
#map8 = affine_map<()[s0, s1, s2, s3, s4] -> (s1 * 128 + s4 * 1090 + s0 floordiv 2 - ((s1 * 128 + s0 floordiv 2 + 1024) floordiv 1090) * 1090 + ((s2 + s3 * 2) floordiv 8) * 1090 - ((s4 + (s2 + s3 * 2) floordiv 8) floordiv 3) * 3270 + 1024)>
#map9 = affine_map<()[s0] -> ((s0 floordiv 64) * 101 + 101)>
#map10 = affine_map<()[s0, s1] -> ((s1 * 128 + s0 floordiv 2) mod 404)>
#map11 = affine_map<()[s0, s1] -> (s1 * 128 + s0 floordiv 2 - ((s1 * 128 + s0 floordiv 2 + 256) floordiv 404) * 404 + 256)>
#map12 = affine_map<()[s0] -> (s0 * 545 + 545)>
#map13 = affine_map<()[s0, s1] -> ((s1 * 128 + s0 floordiv 2) mod 1090)>
#map14 = affine_map<()[s0, s1] -> (s1 * 128 + s0 floordiv 2 - ((s1 * 128 + s0 floordiv 2 + 256) floordiv 1090) * 1090 + 256)>
#map15 = affine_map<()[s0, s1] -> (s1 * 128 + s0 floordiv 2 - ((s1 * 128 + s0 floordiv 2 + 512) floordiv 1090) * 1090 + 512)>
#map16 = affine_map<()[s0, s1] -> (s1 * 128 + s0 floordiv 2 - ((s1 * 128 + s0 floordiv 2 + 768) floordiv 1090) * 1090 + 768)>
#map17 = affine_map<()[s0, s1] -> (s1 * 128 + s0 floordiv 2 - ((s1 * 128 + s0 floordiv 2 + 1024) floordiv 1090) * 1090 + 1024)>
#map18 = affine_map<()[s0, s1] -> (s0 + s1 * 545 - (s0 floordiv 32) * 32)>
#map19 = affine_map<()[s0] -> (((s0 mod 64) floordiv 32) * 4)>
#map20 = affine_map<()[s0] -> (((s0 mod 64) floordiv 32) * 4 + 8)>
#map21 = affine_map<()[s0, s1] -> (s0 + s1 * 545 - (s0 floordiv 32) * 32 + 32)>
#map22 = affine_map<()[s0, s1] -> (s0 + s1 * 545 - (s0 floordiv 32) * 32 + 64)>
#map23 = affine_map<()[s0, s1] -> (s0 + s1 * 545 - (s0 floordiv 32) * 32 + 96)>
#map24 = affine_map<()[s0, s1] -> (s0 + s1 * 545 - (s0 floordiv 32) * 32 + 128)>
#map25 = affine_map<()[s0, s1] -> (s0 + s1 * 545 - (s0 floordiv 32) * 32 + 160)>
#map26 = affine_map<()[s0, s1] -> (s0 + s1 * 545 - (s0 floordiv 32) * 32 + 192)>
#map27 = affine_map<()[s0, s1] -> (s0 + s1 * 545 - (s0 floordiv 32) * 32 + 224)>
#map28 = affine_map<()[s0, s1] -> (s0 + s1 * 545 - (s0 floordiv 32) * 32 + 256)>
#map29 = affine_map<()[s0, s1] -> (s0 + s1 * 545 - (s0 floordiv 32) * 32 + 288)>
#map30 = affine_map<()[s0, s1] -> (s0 + s1 * 545 - (s0 floordiv 32) * 32 + 320)>
#map31 = affine_map<()[s0, s1] -> (s0 + s1 * 545 - (s0 floordiv 32) * 32 + 352)>
#map32 = affine_map<()[s0, s1] -> (s0 + s1 * 545 - (s0 floordiv 32) * 32 + 384)>
#map33 = affine_map<()[s0, s1] -> (s0 + s1 * 545 - (s0 floordiv 32) * 32 + 416)>
#map34 = affine_map<()[s0, s1] -> (s0 + s1 * 545 - (s0 floordiv 32) * 32 + 448)>
#map35 = affine_map<()[s0, s1] -> (s0 + s1 * 545 - (s0 floordiv 32) * 32 + 480)>
#map36 = affine_map<()[s0, s1] -> (s0 + s1 * 545 - (s0 floordiv 32) * 32 + 512)>
#map37 = affine_map<()[s0, s1] -> (s0 + s1 * 545 - (s0 floordiv 32) * 32 + 544)>
#map38 = affine_map<()[s0] -> (s0 mod 32 + (s0 floordiv 64) * 101)>
#map39 = affine_map<()[s0] -> (s0 mod 32 + (s0 floordiv 64) * 101 + 32)>
#map40 = affine_map<()[s0] -> (s0 mod 32 + (s0 floordiv 64) * 101 + 64)>
#map41 = affine_map<()[s0] -> (s0 mod 32 + (s0 floordiv 64) * 101 + 96)>
#map42 = affine_map<()[s0, s1] -> (s0 * 16 + s1 * 8 - (s1 floordiv 2) * 16 + 16)>
#map43 = affine_map<()[s0, s1] -> (s0 * 1090 + s1 * 545 + 545)>
#map44 = affine_map<()[s0] -> (s0 * 1090 + 1090)>
#map45 = affine_map<()[s0, s1, s2, s3, s4] -> (s0 + s3 * 1090 + s4 * 545 - (s0 floordiv 32) * 32 + ((s1 + s2 * 2) floordiv 8) * 1090 - ((s3 + (s1 + s2 * 2) floordiv 8) floordiv 3) * 3270)>
#map46 = affine_map<()[s0, s1] -> (s0 * 404 + (s1 floordiv 64) * 101 + 101)>
#map47 = affine_map<()[s0] -> (s0 * 404 + 404)>
#map48 = affine_map<()[s0, s1, s2, s3] -> (((s2 + (s0 + s1 * 2) floordiv 8) floordiv 3) * 404 + (s3 floordiv 64) * 101 + ((s3 mod 64) floordiv 32) * 4)>
#map49 = affine_map<()[s0, s1, s2] -> (((s2 + (s0 + s1 * 2) floordiv 8) floordiv 3) * 404)>
#map50 = affine_map<()[s0, s1, s2] -> (s2 * 1090 + ((s0 + s1 * 2) floordiv 8) * 1090 - ((s2 + (s0 + s1 * 2) floordiv 8) floordiv 3) * 3270)>
#map51 = affine_map<()[s0] -> ((s0 floordiv 64) * 101 + ((s0 mod 64) floordiv 32) * 4)>
#map52 = affine_map<()[s0, s1, s2, s3] -> (((s2 + (s0 + s1 * 2) floordiv 8) floordiv 3) * 404 + (s3 floordiv 64) * 101 + ((s3 mod 64) floordiv 32) * 4 + 1)>
#map53 = affine_map<()[s0] -> ((s0 floordiv 64) * 101 + ((s0 mod 64) floordiv 32) * 4 + 1)>
#map54 = affine_map<()[s0, s1, s2, s3] -> (((s2 + (s0 + s1 * 2) floordiv 8) floordiv 3) * 404 + (s3 floordiv 64) * 101 + ((s3 mod 64) floordiv 32) * 4 + 2)>
#map55 = affine_map<()[s0] -> ((s0 floordiv 64) * 101 + ((s0 mod 64) floordiv 32) * 4 + 2)>
#map56 = affine_map<()[s0, s1, s2, s3] -> (((s2 + (s0 + s1 * 2) floordiv 8) floordiv 3) * 404 + (s3 floordiv 64) * 101 + ((s3 mod 64) floordiv 32) * 4 + 3)>
#map57 = affine_map<()[s0] -> ((s0 floordiv 64) * 101 + ((s0 mod 64) floordiv 32) * 4 + 3)>
#map58 = affine_map<()[s0, s1, s2, s3] -> (((s2 + (s0 + s1 * 2) floordiv 8) floordiv 3) * 404 + (s3 floordiv 64) * 101 + ((s3 mod 64) floordiv 32) * 4 + 8)>
#map59 = affine_map<()[s0] -> ((s0 floordiv 64) * 101 + ((s0 mod 64) floordiv 32) * 4 + 8)>
#map60 = affine_map<()[s0, s1, s2, s3] -> (((s2 + (s0 + s1 * 2) floordiv 8) floordiv 3) * 404 + (s3 floordiv 64) * 101 + ((s3 mod 64) floordiv 32) * 4 + 9)>
#map61 = affine_map<()[s0] -> ((s0 floordiv 64) * 101 + ((s0 mod 64) floordiv 32) * 4 + 9)>
#map62 = affine_map<()[s0, s1, s2, s3] -> (((s2 + (s0 + s1 * 2) floordiv 8) floordiv 3) * 404 + (s3 floordiv 64) * 101 + ((s3 mod 64) floordiv 32) * 4 + 10)>
#map63 = affine_map<()[s0] -> ((s0 floordiv 64) * 101 + ((s0 mod 64) floordiv 32) * 4 + 10)>
#map64 = affine_map<()[s0, s1, s2, s3] -> (((s2 + (s0 + s1 * 2) floordiv 8) floordiv 3) * 404 + (s3 floordiv 64) * 101 + ((s3 mod 64) floordiv 32) * 4 + 11)>
#map65 = affine_map<()[s0] -> ((s0 floordiv 64) * 101 + ((s0 mod 64) floordiv 32) * 4 + 11)>
#map66 = affine_map<()[s0, s1, s2, s3] -> (((s2 + (s0 + s1 * 2) floordiv 8) floordiv 3) * 404 + (s3 floordiv 64) * 101 + ((s3 mod 64) floordiv 32) * 4 + 16)>
#map67 = affine_map<()[s0] -> ((s0 floordiv 64) * 101 + ((s0 mod 64) floordiv 32) * 4 + 16)>
#map68 = affine_map<()[s0, s1, s2, s3] -> (((s2 + (s0 + s1 * 2) floordiv 8) floordiv 3) * 404 + (s3 floordiv 64) * 101 + ((s3 mod 64) floordiv 32) * 4 + 17)>
#map69 = affine_map<()[s0] -> ((s0 floordiv 64) * 101 + ((s0 mod 64) floordiv 32) * 4 + 17)>
#map70 = affine_map<()[s0, s1, s2, s3] -> (((s2 + (s0 + s1 * 2) floordiv 8) floordiv 3) * 404 + (s3 floordiv 64) * 101 + ((s3 mod 64) floordiv 32) * 4 + 18)>
#map71 = affine_map<()[s0] -> ((s0 floordiv 64) * 101 + ((s0 mod 64) floordiv 32) * 4 + 18)>
#map72 = affine_map<()[s0, s1, s2, s3] -> (((s2 + (s0 + s1 * 2) floordiv 8) floordiv 3) * 404 + (s3 floordiv 64) * 101 + ((s3 mod 64) floordiv 32) * 4 + 19)>
#map73 = affine_map<()[s0] -> ((s0 floordiv 64) * 101 + ((s0 mod 64) floordiv 32) * 4 + 19)>
#map74 = affine_map<()[s0, s1, s2, s3] -> (((s2 + (s0 + s1 * 2) floordiv 8) floordiv 3) * 404 + (s3 floordiv 64) * 101 + ((s3 mod 64) floordiv 32) * 4 + 24)>
#map75 = affine_map<()[s0] -> ((s0 floordiv 64) * 101 + ((s0 mod 64) floordiv 32) * 4 + 24)>
#map76 = affine_map<()[s0, s1, s2, s3] -> (((s2 + (s0 + s1 * 2) floordiv 8) floordiv 3) * 404 + (s3 floordiv 64) * 101 + ((s3 mod 64) floordiv 32) * 4 + 25)>
#map77 = affine_map<()[s0] -> ((s0 floordiv 64) * 101 + ((s0 mod 64) floordiv 32) * 4 + 25)>
#map78 = affine_map<()[s0, s1, s2, s3] -> (((s2 + (s0 + s1 * 2) floordiv 8) floordiv 3) * 404 + (s3 floordiv 64) * 101 + ((s3 mod 64) floordiv 32) * 4 + 26)>
#map79 = affine_map<()[s0] -> ((s0 floordiv 64) * 101 + ((s0 mod 64) floordiv 32) * 4 + 26)>
#map80 = affine_map<()[s0, s1, s2, s3] -> (((s2 + (s0 + s1 * 2) floordiv 8) floordiv 3) * 404 + (s3 floordiv 64) * 101 + ((s3 mod 64) floordiv 32) * 4 + 27)>
#map81 = affine_map<()[s0] -> ((s0 floordiv 64) * 101 + ((s0 mod 64) floordiv 32) * 4 + 27)>
#map82 = affine_map<()[s0, s1, s2, s3, s4] -> (s0 + s3 * 1090 + s4 * 545 - (s0 floordiv 32) * 32 + ((s1 + s2 * 2) floordiv 8) * 1090 - ((s3 + (s1 + s2 * 2) floordiv 8) floordiv 3) * 3270 + 32)>
#map83 = affine_map<()[s0, s1, s2, s3, s4] -> (s0 + s3 * 1090 + s4 * 545 - (s0 floordiv 32) * 32 + ((s1 + s2 * 2) floordiv 8) * 1090 - ((s3 + (s1 + s2 * 2) floordiv 8) floordiv 3) * 3270 + 64)>
#map84 = affine_map<()[s0, s1, s2, s3, s4] -> (s0 + s3 * 1090 + s4 * 545 - (s0 floordiv 32) * 32 + ((s1 + s2 * 2) floordiv 8) * 1090 - ((s3 + (s1 + s2 * 2) floordiv 8) floordiv 3) * 3270 + 96)>
#map85 = affine_map<()[s0, s1, s2, s3, s4] -> (s0 + s3 * 1090 + s4 * 545 - (s0 floordiv 32) * 32 + ((s1 + s2 * 2) floordiv 8) * 1090 - ((s3 + (s1 + s2 * 2) floordiv 8) floordiv 3) * 3270 + 128)>
#map86 = affine_map<()[s0, s1, s2, s3, s4] -> (s0 + s3 * 1090 + s4 * 545 - (s0 floordiv 32) * 32 + ((s1 + s2 * 2) floordiv 8) * 1090 - ((s3 + (s1 + s2 * 2) floordiv 8) floordiv 3) * 3270 + 160)>
#map87 = affine_map<()[s0, s1, s2, s3, s4] -> (s0 + s3 * 1090 + s4 * 545 - (s0 floordiv 32) * 32 + ((s1 + s2 * 2) floordiv 8) * 1090 - ((s3 + (s1 + s2 * 2) floordiv 8) floordiv 3) * 3270 + 192)>
#map88 = affine_map<()[s0, s1, s2, s3, s4] -> (s0 + s3 * 1090 + s4 * 545 - (s0 floordiv 32) * 32 + ((s1 + s2 * 2) floordiv 8) * 1090 - ((s3 + (s1 + s2 * 2) floordiv 8) floordiv 3) * 3270 + 224)>
#map89 = affine_map<()[s0, s1, s2, s3, s4] -> (s0 + s3 * 1090 + s4 * 545 - (s0 floordiv 32) * 32 + ((s1 + s2 * 2) floordiv 8) * 1090 - ((s3 + (s1 + s2 * 2) floordiv 8) floordiv 3) * 3270 + 256)>
#map90 = affine_map<()[s0, s1, s2, s3, s4] -> (s0 + s3 * 1090 + s4 * 545 - (s0 floordiv 32) * 32 + ((s1 + s2 * 2) floordiv 8) * 1090 - ((s3 + (s1 + s2 * 2) floordiv 8) floordiv 3) * 3270 + 288)>
#map91 = affine_map<()[s0, s1, s2, s3, s4] -> (s0 + s3 * 1090 + s4 * 545 - (s0 floordiv 32) * 32 + ((s1 + s2 * 2) floordiv 8) * 1090 - ((s3 + (s1 + s2 * 2) floordiv 8) floordiv 3) * 3270 + 320)>
#map92 = affine_map<()[s0, s1, s2, s3, s4] -> (s0 + s3 * 1090 + s4 * 545 - (s0 floordiv 32) * 32 + ((s1 + s2 * 2) floordiv 8) * 1090 - ((s3 + (s1 + s2 * 2) floordiv 8) floordiv 3) * 3270 + 352)>
#map93 = affine_map<()[s0, s1, s2, s3, s4] -> (s0 + s3 * 1090 + s4 * 545 - (s0 floordiv 32) * 32 + ((s1 + s2 * 2) floordiv 8) * 1090 - ((s3 + (s1 + s2 * 2) floordiv 8) floordiv 3) * 3270 + 384)>
#map94 = affine_map<()[s0, s1, s2, s3, s4] -> (s0 + s3 * 1090 + s4 * 545 - (s0 floordiv 32) * 32 + ((s1 + s2 * 2) floordiv 8) * 1090 - ((s3 + (s1 + s2 * 2) floordiv 8) floordiv 3) * 3270 + 416)>
#map95 = affine_map<()[s0, s1, s2, s3, s4] -> (s0 + s3 * 1090 + s4 * 545 - (s0 floordiv 32) * 32 + ((s1 + s2 * 2) floordiv 8) * 1090 - ((s3 + (s1 + s2 * 2) floordiv 8) floordiv 3) * 3270 + 448)>
#map96 = affine_map<()[s0, s1, s2, s3, s4] -> (s0 + s3 * 1090 + s4 * 545 - (s0 floordiv 32) * 32 + ((s1 + s2 * 2) floordiv 8) * 1090 - ((s3 + (s1 + s2 * 2) floordiv 8) floordiv 3) * 3270 + 480)>
#map97 = affine_map<()[s0, s1, s2, s3, s4] -> (s0 + s3 * 1090 + s4 * 545 - (s0 floordiv 32) * 32 + ((s1 + s2 * 2) floordiv 8) * 1090 - ((s3 + (s1 + s2 * 2) floordiv 8) floordiv 3) * 3270 + 512)>
#map98 = affine_map<()[s0, s1, s2, s3, s4] -> (s0 + s3 * 1090 + s4 * 545 - (s0 floordiv 32) * 32 + ((s1 + s2 * 2) floordiv 8) * 1090 - ((s3 + (s1 + s2 * 2) floordiv 8) floordiv 3) * 3270 + 544)>
#map99 = affine_map<()[s0, s1, s2, s3] -> (((s2 + (s0 + s1 * 2) floordiv 8) floordiv 3) * 404 + (s3 floordiv 64) * 101 + ((s3 mod 64) floordiv 32) * 4 + 32)>
#map100 = affine_map<()[s0] -> ((s0 floordiv 64) * 101 + ((s0 mod 64) floordiv 32) * 4 + 32)>
#map101 = affine_map<()[s0, s1, s2, s3] -> (((s2 + (s0 + s1 * 2) floordiv 8) floordiv 3) * 404 + (s3 floordiv 64) * 101 + ((s3 mod 64) floordiv 32) * 4 + 33)>
#map102 = affine_map<()[s0] -> ((s0 floordiv 64) * 101 + ((s0 mod 64) floordiv 32) * 4 + 33)>
#map103 = affine_map<()[s0, s1, s2, s3] -> (((s2 + (s0 + s1 * 2) floordiv 8) floordiv 3) * 404 + (s3 floordiv 64) * 101 + ((s3 mod 64) floordiv 32) * 4 + 34)>
#map104 = affine_map<()[s0] -> ((s0 floordiv 64) * 101 + ((s0 mod 64) floordiv 32) * 4 + 34)>
#map105 = affine_map<()[s0, s1, s2, s3] -> (((s2 + (s0 + s1 * 2) floordiv 8) floordiv 3) * 404 + (s3 floordiv 64) * 101 + ((s3 mod 64) floordiv 32) * 4 + 35)>
#map106 = affine_map<()[s0] -> ((s0 floordiv 64) * 101 + ((s0 mod 64) floordiv 32) * 4 + 35)>
#map107 = affine_map<()[s0, s1, s2, s3] -> (((s2 + (s0 + s1 * 2) floordiv 8) floordiv 3) * 404 + (s3 floordiv 64) * 101 + ((s3 mod 64) floordiv 32) * 4 + 40)>
#map108 = affine_map<()[s0] -> ((s0 floordiv 64) * 101 + ((s0 mod 64) floordiv 32) * 4 + 40)>
#map109 = affine_map<()[s0, s1, s2, s3] -> (((s2 + (s0 + s1 * 2) floordiv 8) floordiv 3) * 404 + (s3 floordiv 64) * 101 + ((s3 mod 64) floordiv 32) * 4 + 41)>
#map110 = affine_map<()[s0] -> ((s0 floordiv 64) * 101 + ((s0 mod 64) floordiv 32) * 4 + 41)>
#map111 = affine_map<()[s0, s1, s2, s3] -> (((s2 + (s0 + s1 * 2) floordiv 8) floordiv 3) * 404 + (s3 floordiv 64) * 101 + ((s3 mod 64) floordiv 32) * 4 + 42)>
#map112 = affine_map<()[s0] -> ((s0 floordiv 64) * 101 + ((s0 mod 64) floordiv 32) * 4 + 42)>
#map113 = affine_map<()[s0, s1, s2, s3] -> (((s2 + (s0 + s1 * 2) floordiv 8) floordiv 3) * 404 + (s3 floordiv 64) * 101 + ((s3 mod 64) floordiv 32) * 4 + 43)>
#map114 = affine_map<()[s0] -> ((s0 floordiv 64) * 101 + ((s0 mod 64) floordiv 32) * 4 + 43)>
#map115 = affine_map<()[s0, s1, s2, s3] -> (((s2 + (s0 + s1 * 2) floordiv 8) floordiv 3) * 404 + (s3 floordiv 64) * 101 + ((s3 mod 64) floordiv 32) * 4 + 48)>
#map116 = affine_map<()[s0] -> ((s0 floordiv 64) * 101 + ((s0 mod 64) floordiv 32) * 4 + 48)>
#map117 = affine_map<()[s0, s1, s2, s3] -> (((s2 + (s0 + s1 * 2) floordiv 8) floordiv 3) * 404 + (s3 floordiv 64) * 101 + ((s3 mod 64) floordiv 32) * 4 + 49)>
#map118 = affine_map<()[s0] -> ((s0 floordiv 64) * 101 + ((s0 mod 64) floordiv 32) * 4 + 49)>
#map119 = affine_map<()[s0, s1, s2, s3] -> (((s2 + (s0 + s1 * 2) floordiv 8) floordiv 3) * 404 + (s3 floordiv 64) * 101 + ((s3 mod 64) floordiv 32) * 4 + 50)>
#map120 = affine_map<()[s0] -> ((s0 floordiv 64) * 101 + ((s0 mod 64) floordiv 32) * 4 + 50)>
#map121 = affine_map<()[s0, s1, s2, s3] -> (((s2 + (s0 + s1 * 2) floordiv 8) floordiv 3) * 404 + (s3 floordiv 64) * 101 + ((s3 mod 64) floordiv 32) * 4 + 51)>
#map122 = affine_map<()[s0] -> ((s0 floordiv 64) * 101 + ((s0 mod 64) floordiv 32) * 4 + 51)>
#map123 = affine_map<()[s0, s1, s2, s3] -> (((s2 + (s0 + s1 * 2) floordiv 8) floordiv 3) * 404 + (s3 floordiv 64) * 101 + ((s3 mod 64) floordiv 32) * 4 + 56)>
#map124 = affine_map<()[s0] -> ((s0 floordiv 64) * 101 + ((s0 mod 64) floordiv 32) * 4 + 56)>
#map125 = affine_map<()[s0, s1, s2, s3] -> (((s2 + (s0 + s1 * 2) floordiv 8) floordiv 3) * 404 + (s3 floordiv 64) * 101 + ((s3 mod 64) floordiv 32) * 4 + 57)>
#map126 = affine_map<()[s0] -> ((s0 floordiv 64) * 101 + ((s0 mod 64) floordiv 32) * 4 + 57)>
#map127 = affine_map<()[s0, s1, s2, s3] -> (((s2 + (s0 + s1 * 2) floordiv 8) floordiv 3) * 404 + (s3 floordiv 64) * 101 + ((s3 mod 64) floordiv 32) * 4 + 58)>
#map128 = affine_map<()[s0] -> ((s0 floordiv 64) * 101 + ((s0 mod 64) floordiv 32) * 4 + 58)>
#map129 = affine_map<()[s0, s1, s2, s3] -> (((s2 + (s0 + s1 * 2) floordiv 8) floordiv 3) * 404 + (s3 floordiv 64) * 101 + ((s3 mod 64) floordiv 32) * 4 + 59)>
#map130 = affine_map<()[s0] -> ((s0 floordiv 64) * 101 + ((s0 mod 64) floordiv 32) * 4 + 59)>
#map131 = affine_map<()[s0, s1, s2, s3] -> (((s2 + (s0 + s1 * 2) floordiv 8) floordiv 3) * 404 + (s3 floordiv 64) * 101 + ((s3 mod 64) floordiv 32) * 4 + 64)>
#map132 = affine_map<()[s0] -> ((s0 floordiv 64) * 101 + ((s0 mod 64) floordiv 32) * 4 + 64)>
#map133 = affine_map<()[s0, s1, s2, s3] -> (((s2 + (s0 + s1 * 2) floordiv 8) floordiv 3) * 404 + (s3 floordiv 64) * 101 + ((s3 mod 64) floordiv 32) * 4 + 65)>
#map134 = affine_map<()[s0] -> ((s0 floordiv 64) * 101 + ((s0 mod 64) floordiv 32) * 4 + 65)>
#map135 = affine_map<()[s0, s1, s2, s3] -> (((s2 + (s0 + s1 * 2) floordiv 8) floordiv 3) * 404 + (s3 floordiv 64) * 101 + ((s3 mod 64) floordiv 32) * 4 + 66)>
#map136 = affine_map<()[s0] -> ((s0 floordiv 64) * 101 + ((s0 mod 64) floordiv 32) * 4 + 66)>
#map137 = affine_map<()[s0, s1, s2, s3] -> (((s2 + (s0 + s1 * 2) floordiv 8) floordiv 3) * 404 + (s3 floordiv 64) * 101 + ((s3 mod 64) floordiv 32) * 4 + 67)>
#map138 = affine_map<()[s0] -> ((s0 floordiv 64) * 101 + ((s0 mod 64) floordiv 32) * 4 + 67)>
#map139 = affine_map<()[s0, s1, s2, s3] -> (((s2 + (s0 + s1 * 2) floordiv 8) floordiv 3) * 404 + (s3 floordiv 64) * 101 + ((s3 mod 64) floordiv 32) * 4 + 72)>
#map140 = affine_map<()[s0] -> ((s0 floordiv 64) * 101 + ((s0 mod 64) floordiv 32) * 4 + 72)>
#map141 = affine_map<()[s0, s1, s2, s3] -> (((s2 + (s0 + s1 * 2) floordiv 8) floordiv 3) * 404 + (s3 floordiv 64) * 101 + ((s3 mod 64) floordiv 32) * 4 + 73)>
#map142 = affine_map<()[s0] -> ((s0 floordiv 64) * 101 + ((s0 mod 64) floordiv 32) * 4 + 73)>
#map143 = affine_map<()[s0, s1, s2, s3] -> (((s2 + (s0 + s1 * 2) floordiv 8) floordiv 3) * 404 + (s3 floordiv 64) * 101 + ((s3 mod 64) floordiv 32) * 4 + 74)>
#map144 = affine_map<()[s0] -> ((s0 floordiv 64) * 101 + ((s0 mod 64) floordiv 32) * 4 + 74)>
#map145 = affine_map<()[s0, s1, s2, s3] -> (((s2 + (s0 + s1 * 2) floordiv 8) floordiv 3) * 404 + (s3 floordiv 64) * 101 + ((s3 mod 64) floordiv 32) * 4 + 75)>
#map146 = affine_map<()[s0] -> ((s0 floordiv 64) * 101 + ((s0 mod 64) floordiv 32) * 4 + 75)>
#map147 = affine_map<()[s0, s1, s2, s3] -> (((s2 + (s0 + s1 * 2) floordiv 8) floordiv 3) * 404 + (s3 floordiv 64) * 101 + ((s3 mod 64) floordiv 32) * 4 + 80)>
#map148 = affine_map<()[s0] -> ((s0 floordiv 64) * 101 + ((s0 mod 64) floordiv 32) * 4 + 80)>
#map149 = affine_map<()[s0, s1, s2, s3] -> (((s2 + (s0 + s1 * 2) floordiv 8) floordiv 3) * 404 + (s3 floordiv 64) * 101 + ((s3 mod 64) floordiv 32) * 4 + 81)>
#map150 = affine_map<()[s0] -> ((s0 floordiv 64) * 101 + ((s0 mod 64) floordiv 32) * 4 + 81)>
#map151 = affine_map<()[s0, s1, s2, s3] -> (((s2 + (s0 + s1 * 2) floordiv 8) floordiv 3) * 404 + (s3 floordiv 64) * 101 + ((s3 mod 64) floordiv 32) * 4 + 82)>
#map152 = affine_map<()[s0] -> ((s0 floordiv 64) * 101 + ((s0 mod 64) floordiv 32) * 4 + 82)>
#map153 = affine_map<()[s0, s1, s2, s3] -> (((s2 + (s0 + s1 * 2) floordiv 8) floordiv 3) * 404 + (s3 floordiv 64) * 101 + ((s3 mod 64) floordiv 32) * 4 + 83)>
#map154 = affine_map<()[s0] -> ((s0 floordiv 64) * 101 + ((s0 mod 64) floordiv 32) * 4 + 83)>
#map155 = affine_map<()[s0, s1, s2, s3] -> (((s2 + (s0 + s1 * 2) floordiv 8) floordiv 3) * 404 + (s3 floordiv 64) * 101 + ((s3 mod 64) floordiv 32) * 4 + 88)>
#map156 = affine_map<()[s0] -> ((s0 floordiv 64) * 101 + ((s0 mod 64) floordiv 32) * 4 + 88)>
#map157 = affine_map<()[s0, s1, s2, s3] -> (((s2 + (s0 + s1 * 2) floordiv 8) floordiv 3) * 404 + (s3 floordiv 64) * 101 + ((s3 mod 64) floordiv 32) * 4 + 89)>
#map158 = affine_map<()[s0] -> ((s0 floordiv 64) * 101 + ((s0 mod 64) floordiv 32) * 4 + 89)>
#map159 = affine_map<()[s0, s1, s2, s3] -> (((s2 + (s0 + s1 * 2) floordiv 8) floordiv 3) * 404 + (s3 floordiv 64) * 101 + ((s3 mod 64) floordiv 32) * 4 + 90)>
#map160 = affine_map<()[s0] -> ((s0 floordiv 64) * 101 + ((s0 mod 64) floordiv 32) * 4 + 90)>
#map161 = affine_map<()[s0, s1, s2, s3] -> (((s2 + (s0 + s1 * 2) floordiv 8) floordiv 3) * 404 + (s3 floordiv 64) * 101 + ((s3 mod 64) floordiv 32) * 4 + 91)>
#map162 = affine_map<()[s0] -> ((s0 floordiv 64) * 101 + ((s0 mod 64) floordiv 32) * 4 + 91)>
#map163 = affine_map<()[s0, s1, s2, s3] -> (((s2 + (s0 + s1 * 2) floordiv 8) floordiv 3) * 404 + (s3 floordiv 64) * 101 + ((s3 mod 64) floordiv 32) * 4 + 96)>
#map164 = affine_map<()[s0] -> ((s0 floordiv 64) * 101 + ((s0 mod 64) floordiv 32) * 4 + 96)>
#map165 = affine_map<()[s0, s1, s2, s3] -> (((s2 + (s0 + s1 * 2) floordiv 8) floordiv 3) * 404 + (s3 floordiv 64) * 101 + ((s3 mod 64) floordiv 32) * 4 + 97)>
#map166 = affine_map<()[s0] -> ((s0 floordiv 64) * 101 + ((s0 mod 64) floordiv 32) * 4 + 97)>
#map167 = affine_map<()[s0, s1, s2, s3] -> (((s2 + (s0 + s1 * 2) floordiv 8) floordiv 3) * 404 + (s3 floordiv 64) * 101 + ((s3 mod 64) floordiv 32) * 4 + 98)>
#map168 = affine_map<()[s0] -> ((s0 floordiv 64) * 101 + ((s0 mod 64) floordiv 32) * 4 + 98)>
#map169 = affine_map<()[s0, s1, s2, s3] -> (((s2 + (s0 + s1 * 2) floordiv 8) floordiv 3) * 404 + (s3 floordiv 64) * 101 + ((s3 mod 64) floordiv 32) * 4 + 99)>
#map170 = affine_map<()[s0] -> ((s0 floordiv 64) * 101 + ((s0 mod 64) floordiv 32) * 4 + 99)>
#map171 = affine_map<()[s0, s1, s2, s3] -> (((s2 + (s0 + s1 * 2) floordiv 8) floordiv 3) * 404 + (s3 floordiv 64) * 101 + ((s3 mod 64) floordiv 32) * 4 + 104)>
#map172 = affine_map<()[s0] -> ((s0 floordiv 64) * 101 + ((s0 mod 64) floordiv 32) * 4 + 104)>
#map173 = affine_map<()[s0, s1, s2, s3] -> (((s2 + (s0 + s1 * 2) floordiv 8) floordiv 3) * 404 + (s3 floordiv 64) * 101 + ((s3 mod 64) floordiv 32) * 4 + 105)>
#map174 = affine_map<()[s0] -> ((s0 floordiv 64) * 101 + ((s0 mod 64) floordiv 32) * 4 + 105)>
#map175 = affine_map<()[s0, s1, s2, s3] -> (((s2 + (s0 + s1 * 2) floordiv 8) floordiv 3) * 404 + (s3 floordiv 64) * 101 + ((s3 mod 64) floordiv 32) * 4 + 106)>
#map176 = affine_map<()[s0] -> ((s0 floordiv 64) * 101 + ((s0 mod 64) floordiv 32) * 4 + 106)>
#map177 = affine_map<()[s0, s1, s2, s3] -> (((s2 + (s0 + s1 * 2) floordiv 8) floordiv 3) * 404 + (s3 floordiv 64) * 101 + ((s3 mod 64) floordiv 32) * 4 + 107)>
#map178 = affine_map<()[s0] -> ((s0 floordiv 64) * 101 + ((s0 mod 64) floordiv 32) * 4 + 107)>
#map179 = affine_map<()[s0, s1, s2, s3] -> (((s2 + (s0 + s1 * 2) floordiv 8) floordiv 3) * 404 + (s3 floordiv 64) * 101 + ((s3 mod 64) floordiv 32) * 4 + 112)>
#map180 = affine_map<()[s0] -> ((s0 floordiv 64) * 101 + ((s0 mod 64) floordiv 32) * 4 + 112)>
#map181 = affine_map<()[s0, s1, s2, s3] -> (((s2 + (s0 + s1 * 2) floordiv 8) floordiv 3) * 404 + (s3 floordiv 64) * 101 + ((s3 mod 64) floordiv 32) * 4 + 113)>
#map182 = affine_map<()[s0] -> ((s0 floordiv 64) * 101 + ((s0 mod 64) floordiv 32) * 4 + 113)>
#map183 = affine_map<()[s0, s1, s2, s3] -> (((s2 + (s0 + s1 * 2) floordiv 8) floordiv 3) * 404 + (s3 floordiv 64) * 101 + ((s3 mod 64) floordiv 32) * 4 + 114)>
#map184 = affine_map<()[s0] -> ((s0 floordiv 64) * 101 + ((s0 mod 64) floordiv 32) * 4 + 114)>
#map185 = affine_map<()[s0, s1, s2, s3] -> (((s2 + (s0 + s1 * 2) floordiv 8) floordiv 3) * 404 + (s3 floordiv 64) * 101 + ((s3 mod 64) floordiv 32) * 4 + 115)>
#map186 = affine_map<()[s0] -> ((s0 floordiv 64) * 101 + ((s0 mod 64) floordiv 32) * 4 + 115)>
#map187 = affine_map<()[s0, s1, s2, s3] -> (((s2 + (s0 + s1 * 2) floordiv 8) floordiv 3) * 404 + (s3 floordiv 64) * 101 + ((s3 mod 64) floordiv 32) * 4 + 120)>
#map188 = affine_map<()[s0] -> ((s0 floordiv 64) * 101 + ((s0 mod 64) floordiv 32) * 4 + 120)>
#map189 = affine_map<()[s0, s1, s2, s3] -> (((s2 + (s0 + s1 * 2) floordiv 8) floordiv 3) * 404 + (s3 floordiv 64) * 101 + ((s3 mod 64) floordiv 32) * 4 + 121)>
#map190 = affine_map<()[s0] -> ((s0 floordiv 64) * 101 + ((s0 mod 64) floordiv 32) * 4 + 121)>
#map191 = affine_map<()[s0, s1, s2, s3] -> (((s2 + (s0 + s1 * 2) floordiv 8) floordiv 3) * 404 + (s3 floordiv 64) * 101 + ((s3 mod 64) floordiv 32) * 4 + 122)>
#map192 = affine_map<()[s0] -> ((s0 floordiv 64) * 101 + ((s0 mod 64) floordiv 32) * 4 + 122)>
#map193 = affine_map<()[s0, s1, s2, s3] -> (((s2 + (s0 + s1 * 2) floordiv 8) floordiv 3) * 404 + (s3 floordiv 64) * 101 + ((s3 mod 64) floordiv 32) * 4 + 123)>
#map194 = affine_map<()[s0] -> ((s0 floordiv 64) * 101 + ((s0 mod 64) floordiv 32) * 4 + 123)>
#translation = #iree_codegen.translation_info<pipeline = None workgroup_size = [256, 2, 1] subgroup_size = 64>
module attributes {transform.with_named_sequence} {
  stream.executable private @gemm {
    stream.executable.export public @gemm workgroups() -> (index, index, index) {
      %c2 = arith.constant 2 : index
      %c3 = arith.constant 3 : index
      %c1 = arith.constant 1 : index
      stream.return %c2, %c3, %c1 : index, index, index
    }
    builtin.module {
      func.func @gemm(%arg0: !stream.binding, %arg1: !stream.binding, %arg2: !stream.binding) attributes {translation_info = #translation} {
        %c2880_i14 = arith.constant 2880 : i14
        %cst = arith.constant dense<0.000000e+00> : vector<4xf16>
        %cst_0 = arith.constant dense<[0, 1, 2, 3, 4, 5, 6, 7]> : vector<8xi32>
        %cst_1 = arith.constant dense<1073741823> : vector<8xindex>
        %c4096_i14 = arith.constant 4096 : i14
        %c536870911 = arith.constant 536870911 : index
        %c2147483643_i32 = arith.constant 2147483643 : i32
        %c536870910 = arith.constant 536870910 : index
        %c255 = arith.constant 255 : index
        %c2880 = arith.constant 2880 : index
        %c1090 = arith.constant 1090 : index
        %c2147483645_i32 = arith.constant 2147483645 : i32
        %c1073741822 = arith.constant 1073741822 : index
        %c4096 = arith.constant 4096 : index
        %c641 = arith.constant 641 : index
        %c6 = arith.constant 6 : index
        %c1 = arith.constant 1 : index
        %c404 = arith.constant 404 : index
        %c43600 = arith.constant 43600 : index
        %c0 = arith.constant 0 : index
        %cst_2 = arith.constant dense<0.000000e+00> : vector<16xf32>
        %block_id_x = gpu.block_id  x upper_bound 2
        %block_id_y = gpu.block_id  y upper_bound 3
        %thread_id_x = gpu.thread_id  x upper_bound 256
        %thread_id_y = gpu.thread_id  y upper_bound 2
        %alloc = memref.alloc() : memref<59760xi8, #gpu.address_space<workgroup>>
        %view = memref.view %alloc[%c0][] : memref<59760xi8, #gpu.address_space<workgroup>> to memref<1090x20xf16, #gpu.address_space<workgroup>>
        %view_3 = memref.view %alloc[%c43600][] : memref<59760xi8, #gpu.address_space<workgroup>> to memref<404x20xf16, #gpu.address_space<workgroup>>
        %0 = stream.binding.subspan %arg0[%c0] : !stream.binding -> memref<641x4096xf16, strided<[4096, 1], offset: ?>>
        %1 = affine.apply #map()[%block_id_y, %block_id_x]
        %2 = arith.minsi %1, %c6 : index
        %3 = affine.apply #map1()[%thread_id_x, %thread_id_y, %block_id_x, %block_id_y, %2]
        %4 = arith.cmpi slt, %3, %c641 : index
        %5 = vector.broadcast %4 : i1 to vector<8xi1>
        %6 = affine.apply #map2()[%thread_id_x]
        %7 = arith.muli %3, %c4096 overflow<nsw> : index
        %8 = arith.addi %7, %6 overflow<nsw> : index
        %base_buffer, %offset, %sizes:2, %strides:2 = memref.extract_strided_metadata %0 : memref<641x4096xf16, strided<[4096, 1], offset: ?>> -> memref<f16>, index, index, index, index, index
        %reinterpret_cast = memref.reinterpret_cast %0 to offset: [%offset], sizes: [%c1073741822], strides: [1] : memref<641x4096xf16, strided<[4096, 1], offset: ?>> to memref<?xf16, strided<[1], offset: ?>>
        %9 = amdgpu.fat_raw_buffer_cast %reinterpret_cast validBytes(%c2147483645_i32) cacheSwizzleStride(%c4096_i14) resetOffset : memref<?xf16, strided<[1], offset: ?>> to memref<?xf16, #amdgpu.address_space<fat_raw_buffer>>
        %10 = arith.index_cast %8 : index to i32
        %11 = vector.broadcast %10 : i32 to vector<8xi32>
        %12 = arith.addi %11, %cst_0 : vector<8xi32>
        %13 = arith.index_cast %12 : vector<8xi32> to vector<8xindex>
        %14 = arith.select %5, %13, %cst_1 : vector<8xi1>, vector<8xindex>
        %15 = vector.extract %14[0] : index from vector<8xindex>
        %16 = vector.load %9[%15] : memref<?xf16, #amdgpu.address_space<fat_raw_buffer>>, vector<8xf16>
        %17 = affine.apply #map3()[%thread_id_x, %thread_id_y, %block_id_x, %block_id_y, %2]
        %18 = arith.cmpi slt, %17, %c641 : index
        %19 = vector.broadcast %18 : i1 to vector<8xi1>
        %20 = arith.muli %17, %c4096 overflow<nsw> : index
        %21 = arith.addi %20, %6 overflow<nsw> : index
        %22 = arith.index_cast %21 : index to i32
        %23 = vector.broadcast %22 : i32 to vector<8xi32>
        %24 = arith.addi %23, %cst_0 : vector<8xi32>
        %25 = arith.index_cast %24 : vector<8xi32> to vector<8xindex>
        %26 = arith.select %19, %25, %cst_1 : vector<8xi1>, vector<8xindex>
        %27 = vector.extract %26[0] : index from vector<8xindex>
        %28 = vector.load %9[%27] : memref<?xf16, #amdgpu.address_space<fat_raw_buffer>>, vector<8xf16>
        %29 = stream.binding.subspan %arg1[%c0] : !stream.binding -> memref<2880x4096xf16, strided<[4096, 1], offset: ?>>
        %30 = affine.apply #map4()[%thread_id_x, %thread_id_y, %block_id_x, %block_id_y, %2]
        %31 = arith.cmpi slt, %30, %c2880 : index
        %32 = vector.broadcast %31 : i1 to vector<8xi1>
        %33 = arith.muli %30, %c4096 overflow<nsw> : index
        %34 = arith.addi %33, %6 overflow<nsw> : index
        %base_buffer_4, %offset_5, %sizes_6:2, %strides_7:2 = memref.extract_strided_metadata %29 : memref<2880x4096xf16, strided<[4096, 1], offset: ?>> -> memref<f16>, index, index, index, index, index
        %reinterpret_cast_8 = memref.reinterpret_cast %29 to offset: [%offset_5], sizes: [%c1073741822], strides: [1] : memref<2880x4096xf16, strided<[4096, 1], offset: ?>> to memref<?xf16, strided<[1], offset: ?>>
        %35 = amdgpu.fat_raw_buffer_cast %reinterpret_cast_8 validBytes(%c2147483645_i32) cacheSwizzleStride(%c4096_i14) resetOffset : memref<?xf16, strided<[1], offset: ?>> to memref<?xf16, #amdgpu.address_space<fat_raw_buffer>>
        %36 = arith.index_cast %34 : index to i32
        %37 = vector.broadcast %36 : i32 to vector<8xi32>
        %38 = arith.addi %37, %cst_0 : vector<8xi32>
        %39 = arith.index_cast %38 : vector<8xi32> to vector<8xindex>
        %40 = arith.select %32, %39, %cst_1 : vector<8xi1>, vector<8xindex>
        %41 = vector.extract %40[0] : index from vector<8xindex>
        %42 = vector.load %35[%41] : memref<?xf16, #amdgpu.address_space<fat_raw_buffer>>, vector<8xf16>
        %43 = affine.apply #map5()[%thread_id_x, %thread_id_y, %block_id_x, %block_id_y, %2]
        %44 = arith.cmpi slt, %43, %c2880 : index
        %45 = vector.broadcast %44 : i1 to vector<8xi1>
        %46 = arith.muli %43, %c4096 overflow<nsw> : index
        %47 = arith.addi %46, %6 overflow<nsw> : index
        %48 = arith.index_cast %47 : index to i32
        %49 = vector.broadcast %48 : i32 to vector<8xi32>
        %50 = arith.addi %49, %cst_0 : vector<8xi32>
        %51 = arith.index_cast %50 : vector<8xi32> to vector<8xindex>
        %52 = arith.select %45, %51, %cst_1 : vector<8xi1>, vector<8xindex>
        %53 = vector.extract %52[0] : index from vector<8xindex>
        %54 = vector.load %35[%53] : memref<?xf16, #amdgpu.address_space<fat_raw_buffer>>, vector<8xf16>
        %55 = affine.apply #map6()[%thread_id_x, %thread_id_y, %block_id_x, %block_id_y, %2]
        %56 = arith.cmpi slt, %55, %c2880 : index
        %57 = vector.broadcast %56 : i1 to vector<8xi1>
        %58 = arith.muli %55, %c4096 overflow<nsw> : index
        %59 = arith.addi %58, %6 overflow<nsw> : index
        %60 = arith.index_cast %59 : index to i32
        %61 = vector.broadcast %60 : i32 to vector<8xi32>
        %62 = arith.addi %61, %cst_0 : vector<8xi32>
        %63 = arith.index_cast %62 : vector<8xi32> to vector<8xindex>
        %64 = arith.select %57, %63, %cst_1 : vector<8xi1>, vector<8xindex>
        %65 = vector.extract %64[0] : index from vector<8xindex>
        %66 = vector.load %35[%65] : memref<?xf16, #amdgpu.address_space<fat_raw_buffer>>, vector<8xf16>
        %67 = affine.apply #map7()[%thread_id_x, %thread_id_y, %block_id_x, %block_id_y, %2]
        %68 = arith.cmpi slt, %67, %c2880 : index
        %69 = vector.broadcast %68 : i1 to vector<8xi1>
        %70 = arith.muli %67, %c4096 overflow<nsw> : index
        %71 = arith.addi %70, %6 overflow<nsw> : index
        %72 = arith.index_cast %71 : index to i32
        %73 = vector.broadcast %72 : i32 to vector<8xi32>
        %74 = arith.addi %73, %cst_0 : vector<8xi32>
        %75 = arith.index_cast %74 : vector<8xi32> to vector<8xindex>
        %76 = arith.select %69, %75, %cst_1 : vector<8xi1>, vector<8xindex>
        %77 = vector.extract %76[0] : index from vector<8xindex>
        %78 = vector.load %35[%77] : memref<?xf16, #amdgpu.address_space<fat_raw_buffer>>, vector<8xf16>
        %79 = affine.apply #map8()[%thread_id_x, %thread_id_y, %block_id_x, %block_id_y, %2]
        %80 = arith.cmpi slt, %79, %c2880 : index
        %81 = vector.broadcast %80 : i1 to vector<8xi1>
        %82 = arith.muli %79, %c4096 overflow<nsw> : index
        %83 = arith.addi %82, %6 overflow<nsw> : index
        %84 = arith.index_cast %83 : index to i32
        %85 = vector.broadcast %84 : i32 to vector<8xi32>
        %86 = arith.addi %85, %cst_0 : vector<8xi32>
        %87 = arith.index_cast %86 : vector<8xi32> to vector<8xindex>
        %88 = arith.select %81, %87, %cst_1 : vector<8xi1>, vector<8xindex>
        %89 = vector.extract %88[0] : index from vector<8xindex>
        %90 = vector.load %35[%89] : memref<?xf16, #amdgpu.address_space<fat_raw_buffer>>, vector<8xf16>
        %91 = affine.apply #map9()[%thread_id_x]
        %92 = arith.minsi %91, %c404 : index
        %93 = affine.apply #map10()[%thread_id_x, %thread_id_y]
        %94 = arith.cmpi slt, %93, %92 : index
        %95 = vector.broadcast %94 : i1 to vector<8xi1>
        vector.maskedstore %view_3[%93, %6], %95, %16 : memref<404x20xf16, #gpu.address_space<workgroup>>, vector<8xi1>, vector<8xf16>
        %96 = affine.apply #map11()[%thread_id_x, %thread_id_y]
        %97 = arith.cmpi slt, %96, %92 : index
        %98 = vector.broadcast %97 : i1 to vector<8xi1>
        vector.maskedstore %view_3[%96, %6], %98, %28 : memref<404x20xf16, #gpu.address_space<workgroup>>, vector<8xi1>, vector<8xf16>
        %99 = affine.apply #map12()[%thread_id_y]
        %100 = arith.minsi %99, %c1090 : index
        %101 = affine.apply #map13()[%thread_id_x, %thread_id_y]
        %102 = arith.cmpi slt, %101, %100 : index
        %103 = vector.broadcast %102 : i1 to vector<8xi1>
        vector.maskedstore %view[%101, %6], %103, %42 : memref<1090x20xf16, #gpu.address_space<workgroup>>, vector<8xi1>, vector<8xf16>
        %104 = affine.apply #map14()[%thread_id_x, %thread_id_y]
        %105 = arith.cmpi slt, %104, %100 : index
        %106 = vector.broadcast %105 : i1 to vector<8xi1>
        vector.maskedstore %view[%104, %6], %106, %54 : memref<1090x20xf16, #gpu.address_space<workgroup>>, vector<8xi1>, vector<8xf16>
        %107 = affine.apply #map15()[%thread_id_x, %thread_id_y]
        %108 = arith.cmpi slt, %107, %100 : index
        %109 = vector.broadcast %108 : i1 to vector<8xi1>
        vector.maskedstore %view[%107, %6], %109, %66 : memref<1090x20xf16, #gpu.address_space<workgroup>>, vector<8xi1>, vector<8xf16>
        %110 = affine.apply #map16()[%thread_id_x, %thread_id_y]
        %111 = arith.cmpi slt, %110, %100 : index
        %112 = vector.broadcast %111 : i1 to vector<8xi1>
        vector.maskedstore %view[%110, %6], %112, %78 : memref<1090x20xf16, #gpu.address_space<workgroup>>, vector<8xi1>, vector<8xf16>
        %113 = affine.apply #map17()[%thread_id_x, %thread_id_y]
        %114 = arith.cmpi slt, %113, %100 : index
        %115 = vector.broadcast %114 : i1 to vector<8xi1>
        vector.maskedstore %view[%113, %6], %115, %90 : memref<1090x20xf16, #gpu.address_space<workgroup>>, vector<8xi1>, vector<8xf16>
        %116 = affine.apply #map18()[%thread_id_x, %thread_id_y]
        %117 = arith.cmpi slt, %116, %100 : index
        %118 = vector.broadcast %117 : i1 to vector<4xi1>
        %119 = affine.apply #map19()[%thread_id_x]
        %120 = affine.apply #map20()[%thread_id_x]
        %121 = affine.apply #map21()[%thread_id_x, %thread_id_y]
        %122 = arith.cmpi slt, %121, %100 : index
        %123 = vector.broadcast %122 : i1 to vector<4xi1>
        %124 = affine.apply #map22()[%thread_id_x, %thread_id_y]
        %125 = arith.cmpi slt, %124, %100 : index
        %126 = vector.broadcast %125 : i1 to vector<4xi1>
        %127 = affine.apply #map23()[%thread_id_x, %thread_id_y]
        %128 = arith.cmpi slt, %127, %100 : index
        %129 = vector.broadcast %128 : i1 to vector<4xi1>
        %130 = affine.apply #map24()[%thread_id_x, %thread_id_y]
        %131 = arith.cmpi slt, %130, %100 : index
        %132 = vector.broadcast %131 : i1 to vector<4xi1>
        %133 = affine.apply #map25()[%thread_id_x, %thread_id_y]
        %134 = arith.cmpi slt, %133, %100 : index
        %135 = vector.broadcast %134 : i1 to vector<4xi1>
        %136 = affine.apply #map26()[%thread_id_x, %thread_id_y]
        %137 = arith.cmpi slt, %136, %100 : index
        %138 = vector.broadcast %137 : i1 to vector<4xi1>
        %139 = affine.apply #map27()[%thread_id_x, %thread_id_y]
        %140 = arith.cmpi slt, %139, %100 : index
        %141 = vector.broadcast %140 : i1 to vector<4xi1>
        %142 = affine.apply #map28()[%thread_id_x, %thread_id_y]
        %143 = arith.cmpi slt, %142, %100 : index
        %144 = vector.broadcast %143 : i1 to vector<4xi1>
        %145 = affine.apply #map29()[%thread_id_x, %thread_id_y]
        %146 = arith.cmpi slt, %145, %100 : index
        %147 = vector.broadcast %146 : i1 to vector<4xi1>
        %148 = affine.apply #map30()[%thread_id_x, %thread_id_y]
        %149 = arith.cmpi slt, %148, %100 : index
        %150 = vector.broadcast %149 : i1 to vector<4xi1>
        %151 = affine.apply #map31()[%thread_id_x, %thread_id_y]
        %152 = arith.cmpi slt, %151, %100 : index
        %153 = vector.broadcast %152 : i1 to vector<4xi1>
        %154 = affine.apply #map32()[%thread_id_x, %thread_id_y]
        %155 = arith.cmpi slt, %154, %100 : index
        %156 = vector.broadcast %155 : i1 to vector<4xi1>
        %157 = affine.apply #map33()[%thread_id_x, %thread_id_y]
        %158 = arith.cmpi slt, %157, %100 : index
        %159 = vector.broadcast %158 : i1 to vector<4xi1>
        %160 = affine.apply #map34()[%thread_id_x, %thread_id_y]
        %161 = arith.cmpi slt, %160, %100 : index
        %162 = vector.broadcast %161 : i1 to vector<4xi1>
        %163 = affine.apply #map35()[%thread_id_x, %thread_id_y]
        %164 = arith.cmpi slt, %163, %100 : index
        %165 = vector.broadcast %164 : i1 to vector<4xi1>
        %166 = affine.apply #map36()[%thread_id_x, %thread_id_y]
        %167 = arith.cmpi slt, %166, %100 : index
        %168 = vector.broadcast %167 : i1 to vector<4xi1>
        %169 = affine.apply #map37()[%thread_id_x, %thread_id_y]
        %170 = arith.cmpi slt, %169, %100 : index
        %171 = vector.broadcast %170 : i1 to vector<4xi1>
        %172 = affine.apply #map38()[%thread_id_x]
        %173 = arith.cmpi slt, %172, %92 : index
        %174 = vector.broadcast %173 : i1 to vector<4xi1>
        %175 = affine.apply #map39()[%thread_id_x]
        %176 = arith.cmpi slt, %175, %92 : index
        %177 = vector.broadcast %176 : i1 to vector<4xi1>
        %178 = affine.apply #map40()[%thread_id_x]
        %179 = arith.cmpi slt, %178, %92 : index
        %180 = vector.broadcast %179 : i1 to vector<4xi1>
        %181 = affine.apply #map41()[%thread_id_x]
        %182 = arith.cmpi slt, %181, %92 : index
        %183 = vector.broadcast %182 : i1 to vector<4xi1>
        %184:72 = scf.for %arg3 = %c0 to %c255 step %c1 iter_args(%arg4 = %cst_2, %arg5 = %cst_2, %arg6 = %cst_2, %arg7 = %cst_2, %arg8 = %cst_2, %arg9 = %cst_2, %arg10 = %cst_2, %arg11 = %cst_2, %arg12 = %cst_2, %arg13 = %cst_2, %arg14 = %cst_2, %arg15 = %cst_2, %arg16 = %cst_2, %arg17 = %cst_2, %arg18 = %cst_2, %arg19 = %cst_2, %arg20 = %cst_2, %arg21 = %cst_2, %arg22 = %cst_2, %arg23 = %cst_2, %arg24 = %cst_2, %arg25 = %cst_2, %arg26 = %cst_2, %arg27 = %cst_2, %arg28 = %cst_2, %arg29 = %cst_2, %arg30 = %cst_2, %arg31 = %cst_2, %arg32 = %cst_2, %arg33 = %cst_2, %arg34 = %cst_2, %arg35 = %cst_2, %arg36 = %cst_2, %arg37 = %cst_2, %arg38 = %cst_2, %arg39 = %cst_2, %arg40 = %cst_2, %arg41 = %cst_2, %arg42 = %cst_2, %arg43 = %cst_2, %arg44 = %cst_2, %arg45 = %cst_2, %arg46 = %cst_2, %arg47 = %cst_2, %arg48 = %cst_2, %arg49 = %cst_2, %arg50 = %cst_2, %arg51 = %cst_2, %arg52 = %cst_2, %arg53 = %cst_2, %arg54 = %cst_2, %arg55 = %cst_2, %arg56 = %cst_2, %arg57 = %cst_2, %arg58 = %cst_2, %arg59 = %cst_2, %arg60 = %cst_2, %arg61 = %cst_2, %arg62 = %cst_2, %arg63 = %cst_2, %arg64 = %cst_2, %arg65 = %cst_2, %arg66 = %cst_2, %arg67 = %cst_2, %arg68 = %cst_2, %arg69 = %cst_2, %arg70 = %cst_2, %arg71 = %cst_2, %arg72 = %cst_2, %arg73 = %cst_2, %arg74 = %cst_2, %arg75 = %cst_2) -> (vector<16xf32>, vector<16xf32>, vector<16xf32>, vector<16xf32>, vector<16xf32>, vector<16xf32>, vector<16xf32>, vector<16xf32>, vector<16xf32>, vector<16xf32>, vector<16xf32>, vector<16xf32>, vector<16xf32>, vector<16xf32>, vector<16xf32>, vector<16xf32>, vector<16xf32>, vector<16xf32>, vector<16xf32>, vector<16xf32>, vector<16xf32>, vector<16xf32>, vector<16xf32>, vector<16xf32>, vector<16xf32>, vector<16xf32>, vector<16xf32>, vector<16xf32>, vector<16xf32>, vector<16xf32>, vector<16xf32>, vector<16xf32>, vector<16xf32>, vector<16xf32>, vector<16xf32>, vector<16xf32>, vector<16xf32>, vector<16xf32>, vector<16xf32>, vector<16xf32>, vector<16xf32>, vector<16xf32>, vector<16xf32>, vector<16xf32>, vector<16xf32>, vector<16xf32>, vector<16xf32>, vector<16xf32>, vector<16xf32>, vector<16xf32>, vector<16xf32>, vector<16xf32>, vector<16xf32>, vector<16xf32>, vector<16xf32>, vector<16xf32>, vector<16xf32>, vector<16xf32>, vector<16xf32>, vector<16xf32>, vector<16xf32>, vector<16xf32>, vector<16xf32>, vector<16xf32>, vector<16xf32>, vector<16xf32>, vector<16xf32>, vector<16xf32>, vector<16xf32>, vector<16xf32>, vector<16xf32>, vector<16xf32>) {
          amdgpu.lds_barrier
          %5356 = vector.maskedload %view[%116, %119], %118, %cst : memref<1090x20xf16, #gpu.address_space<workgroup>>, vector<4xi1>, vector<4xf16> into vector<4xf16>
          %5357 = vector.maskedload %view[%116, %120], %118, %cst : memref<1090x20xf16, #gpu.address_space<workgroup>>, vector<4xi1>, vector<4xf16> into vector<4xf16>
          %5358 = vector.maskedload %view[%121, %119], %123, %cst : memref<1090x20xf16, #gpu.address_space<workgroup>>, vector<4xi1>, vector<4xf16> into vector<4xf16>
          %5359 = vector.maskedload %view[%121, %120], %123, %cst : memref<1090x20xf16, #gpu.address_space<workgroup>>, vector<4xi1>, vector<4xf16> into vector<4xf16>
          %5360 = vector.maskedload %view[%124, %119], %126, %cst : memref<1090x20xf16, #gpu.address_space<workgroup>>, vector<4xi1>, vector<4xf16> into vector<4xf16>
          %5361 = vector.maskedload %view[%124, %120], %126, %cst : memref<1090x20xf16, #gpu.address_space<workgroup>>, vector<4xi1>, vector<4xf16> into vector<4xf16>
          %5362 = vector.maskedload %view[%127, %119], %129, %cst : memref<1090x20xf16, #gpu.address_space<workgroup>>, vector<4xi1>, vector<4xf16> into vector<4xf16>
          %5363 = vector.maskedload %view[%127, %120], %129, %cst : memref<1090x20xf16, #gpu.address_space<workgroup>>, vector<4xi1>, vector<4xf16> into vector<4xf16>
          %5364 = vector.maskedload %view[%130, %119], %132, %cst : memref<1090x20xf16, #gpu.address_space<workgroup>>, vector<4xi1>, vector<4xf16> into vector<4xf16>
          %5365 = vector.maskedload %view[%130, %120], %132, %cst : memref<1090x20xf16, #gpu.address_space<workgroup>>, vector<4xi1>, vector<4xf16> into vector<4xf16>
          %5366 = vector.maskedload %view[%133, %119], %135, %cst : memref<1090x20xf16, #gpu.address_space<workgroup>>, vector<4xi1>, vector<4xf16> into vector<4xf16>
          %5367 = vector.maskedload %view[%133, %120], %135, %cst : memref<1090x20xf16, #gpu.address_space<workgroup>>, vector<4xi1>, vector<4xf16> into vector<4xf16>
          %5368 = vector.maskedload %view[%136, %119], %138, %cst : memref<1090x20xf16, #gpu.address_space<workgroup>>, vector<4xi1>, vector<4xf16> into vector<4xf16>
          %5369 = vector.maskedload %view[%136, %120], %138, %cst : memref<1090x20xf16, #gpu.address_space<workgroup>>, vector<4xi1>, vector<4xf16> into vector<4xf16>
          %5370 = vector.maskedload %view[%139, %119], %141, %cst : memref<1090x20xf16, #gpu.address_space<workgroup>>, vector<4xi1>, vector<4xf16> into vector<4xf16>
          %5371 = vector.maskedload %view[%139, %120], %141, %cst : memref<1090x20xf16, #gpu.address_space<workgroup>>, vector<4xi1>, vector<4xf16> into vector<4xf16>
          %5372 = vector.maskedload %view[%142, %119], %144, %cst : memref<1090x20xf16, #gpu.address_space<workgroup>>, vector<4xi1>, vector<4xf16> into vector<4xf16>
          %5373 = vector.maskedload %view[%142, %120], %144, %cst : memref<1090x20xf16, #gpu.address_space<workgroup>>, vector<4xi1>, vector<4xf16> into vector<4xf16>
          %5374 = vector.maskedload %view[%145, %119], %147, %cst : memref<1090x20xf16, #gpu.address_space<workgroup>>, vector<4xi1>, vector<4xf16> into vector<4xf16>
          %5375 = vector.maskedload %view[%145, %120], %147, %cst : memref<1090x20xf16, #gpu.address_space<workgroup>>, vector<4xi1>, vector<4xf16> into vector<4xf16>
          %5376 = vector.maskedload %view[%148, %119], %150, %cst : memref<1090x20xf16, #gpu.address_space<workgroup>>, vector<4xi1>, vector<4xf16> into vector<4xf16>
          %5377 = vector.maskedload %view[%148, %120], %150, %cst : memref<1090x20xf16, #gpu.address_space<workgroup>>, vector<4xi1>, vector<4xf16> into vector<4xf16>
          %5378 = vector.maskedload %view[%151, %119], %153, %cst : memref<1090x20xf16, #gpu.address_space<workgroup>>, vector<4xi1>, vector<4xf16> into vector<4xf16>
          %5379 = vector.maskedload %view[%151, %120], %153, %cst : memref<1090x20xf16, #gpu.address_space<workgroup>>, vector<4xi1>, vector<4xf16> into vector<4xf16>
          %5380 = vector.maskedload %view[%154, %119], %156, %cst : memref<1090x20xf16, #gpu.address_space<workgroup>>, vector<4xi1>, vector<4xf16> into vector<4xf16>
          %5381 = vector.maskedload %view[%154, %120], %156, %cst : memref<1090x20xf16, #gpu.address_space<workgroup>>, vector<4xi1>, vector<4xf16> into vector<4xf16>
          %5382 = vector.maskedload %view[%157, %119], %159, %cst : memref<1090x20xf16, #gpu.address_space<workgroup>>, vector<4xi1>, vector<4xf16> into vector<4xf16>
          %5383 = vector.maskedload %view[%157, %120], %159, %cst : memref<1090x20xf16, #gpu.address_space<workgroup>>, vector<4xi1>, vector<4xf16> into vector<4xf16>
          %5384 = vector.maskedload %view[%160, %119], %162, %cst : memref<1090x20xf16, #gpu.address_space<workgroup>>, vector<4xi1>, vector<4xf16> into vector<4xf16>
          %5385 = vector.maskedload %view[%160, %120], %162, %cst : memref<1090x20xf16, #gpu.address_space<workgroup>>, vector<4xi1>, vector<4xf16> into vector<4xf16>
          %5386 = vector.maskedload %view[%163, %119], %165, %cst : memref<1090x20xf16, #gpu.address_space<workgroup>>, vector<4xi1>, vector<4xf16> into vector<4xf16>
          %5387 = vector.maskedload %view[%163, %120], %165, %cst : memref<1090x20xf16, #gpu.address_space<workgroup>>, vector<4xi1>, vector<4xf16> into vector<4xf16>
          %5388 = vector.maskedload %view[%166, %119], %168, %cst : memref<1090x20xf16, #gpu.address_space<workgroup>>, vector<4xi1>, vector<4xf16> into vector<4xf16>
          %5389 = vector.maskedload %view[%166, %120], %168, %cst : memref<1090x20xf16, #gpu.address_space<workgroup>>, vector<4xi1>, vector<4xf16> into vector<4xf16>
          %5390 = vector.maskedload %view[%169, %119], %171, %cst : memref<1090x20xf16, #gpu.address_space<workgroup>>, vector<4xi1>, vector<4xf16> into vector<4xf16>
          %5391 = vector.maskedload %view[%169, %120], %171, %cst : memref<1090x20xf16, #gpu.address_space<workgroup>>, vector<4xi1>, vector<4xf16> into vector<4xf16>
          %5392 = vector.maskedload %view_3[%172, %119], %174, %cst : memref<404x20xf16, #gpu.address_space<workgroup>>, vector<4xi1>, vector<4xf16> into vector<4xf16>
          %5393 = vector.maskedload %view_3[%172, %120], %174, %cst : memref<404x20xf16, #gpu.address_space<workgroup>>, vector<4xi1>, vector<4xf16> into vector<4xf16>
          %5394 = vector.maskedload %view_3[%175, %119], %177, %cst : memref<404x20xf16, #gpu.address_space<workgroup>>, vector<4xi1>, vector<4xf16> into vector<4xf16>
          %5395 = vector.maskedload %view_3[%175, %120], %177, %cst : memref<404x20xf16, #gpu.address_space<workgroup>>, vector<4xi1>, vector<4xf16> into vector<4xf16>
          %5396 = vector.maskedload %view_3[%178, %119], %180, %cst : memref<404x20xf16, #gpu.address_space<workgroup>>, vector<4xi1>, vector<4xf16> into vector<4xf16>
          %5397 = vector.maskedload %view_3[%178, %120], %180, %cst : memref<404x20xf16, #gpu.address_space<workgroup>>, vector<4xi1>, vector<4xf16> into vector<4xf16>
          %5398 = vector.maskedload %view_3[%181, %119], %183, %cst : memref<404x20xf16, #gpu.address_space<workgroup>>, vector<4xi1>, vector<4xf16> into vector<4xf16>
          %5399 = vector.maskedload %view_3[%181, %120], %183, %cst : memref<404x20xf16, #gpu.address_space<workgroup>>, vector<4xi1>, vector<4xf16> into vector<4xf16>
          %5400 = affine.apply #map42()[%arg3, %thread_id_x]
          %5401 = arith.addi %7, %5400 overflow<nsw> : index
          %5402 = arith.index_cast %5401 : index to i32
          %5403 = vector.broadcast %5402 : i32 to vector<8xi32>
          %5404 = arith.addi %5403, %cst_0 : vector<8xi32>
          %5405 = arith.index_cast %5404 : vector<8xi32> to vector<8xindex>
          %5406 = arith.select %5, %5405, %cst_1 : vector<8xi1>, vector<8xindex>
          %5407 = vector.extract %5406[0] : index from vector<8xindex>
          %5408 = vector.load %9[%5407] : memref<?xf16, #amdgpu.address_space<fat_raw_buffer>>, vector<8xf16>
          %5409 = arith.addi %20, %5400 overflow<nsw> : index
          %5410 = arith.index_cast %5409 : index to i32
          %5411 = vector.broadcast %5410 : i32 to vector<8xi32>
          %5412 = arith.addi %5411, %cst_0 : vector<8xi32>
          %5413 = arith.index_cast %5412 : vector<8xi32> to vector<8xindex>
          %5414 = arith.select %19, %5413, %cst_1 : vector<8xi1>, vector<8xindex>
          %5415 = vector.extract %5414[0] : index from vector<8xindex>
          %5416 = vector.load %9[%5415] : memref<?xf16, #amdgpu.address_space<fat_raw_buffer>>, vector<8xf16>
          %5417 = arith.addi %33, %5400 overflow<nsw> : index
          %5418 = arith.index_cast %5417 : index to i32
          %5419 = vector.broadcast %5418 : i32 to vector<8xi32>
          %5420 = arith.addi %5419, %cst_0 : vector<8xi32>
          %5421 = arith.index_cast %5420 : vector<8xi32> to vector<8xindex>
          %5422 = arith.select %32, %5421, %cst_1 : vector<8xi1>, vector<8xindex>
          %5423 = vector.extract %5422[0] : index from vector<8xindex>
          %5424 = vector.load %35[%5423] : memref<?xf16, #amdgpu.address_space<fat_raw_buffer>>, vector<8xf16>
          %5425 = arith.addi %46, %5400 overflow<nsw> : index
          %5426 = arith.index_cast %5425 : index to i32
          %5427 = vector.broadcast %5426 : i32 to vector<8xi32>
          %5428 = arith.addi %5427, %cst_0 : vector<8xi32>
          %5429 = arith.index_cast %5428 : vector<8xi32> to vector<8xindex>
          %5430 = arith.select %45, %5429, %cst_1 : vector<8xi1>, vector<8xindex>
          %5431 = vector.extract %5430[0] : index from vector<8xindex>
          %5432 = vector.load %35[%5431] : memref<?xf16, #amdgpu.address_space<fat_raw_buffer>>, vector<8xf16>
          %5433 = arith.addi %58, %5400 overflow<nsw> : index
          %5434 = arith.index_cast %5433 : index to i32
          %5435 = vector.broadcast %5434 : i32 to vector<8xi32>
          %5436 = arith.addi %5435, %cst_0 : vector<8xi32>
          %5437 = arith.index_cast %5436 : vector<8xi32> to vector<8xindex>
          %5438 = arith.select %57, %5437, %cst_1 : vector<8xi1>, vector<8xindex>
          %5439 = vector.extract %5438[0] : index from vector<8xindex>
          %5440 = vector.load %35[%5439] : memref<?xf16, #amdgpu.address_space<fat_raw_buffer>>, vector<8xf16>
          %5441 = arith.addi %70, %5400 overflow<nsw> : index
          %5442 = arith.index_cast %5441 : index to i32
          %5443 = vector.broadcast %5442 : i32 to vector<8xi32>
          %5444 = arith.addi %5443, %cst_0 : vector<8xi32>
          %5445 = arith.index_cast %5444 : vector<8xi32> to vector<8xindex>
          %5446 = arith.select %69, %5445, %cst_1 : vector<8xi1>, vector<8xindex>
          %5447 = vector.extract %5446[0] : index from vector<8xindex>
          %5448 = vector.load %35[%5447] : memref<?xf16, #amdgpu.address_space<fat_raw_buffer>>, vector<8xf16>
          %5449 = arith.addi %82, %5400 overflow<nsw> : index
          %5450 = arith.index_cast %5449 : index to i32
          %5451 = vector.broadcast %5450 : i32 to vector<8xi32>
          %5452 = arith.addi %5451, %cst_0 : vector<8xi32>
          %5453 = arith.index_cast %5452 : vector<8xi32> to vector<8xindex>
          %5454 = arith.select %81, %5453, %cst_1 : vector<8xi1>, vector<8xindex>
          %5455 = vector.extract %5454[0] : index from vector<8xindex>
          %5456 = vector.load %35[%5455] : memref<?xf16, #amdgpu.address_space<fat_raw_buffer>>, vector<8xf16>
          %5457 = amdgpu.mfma %5392 * %5356 + %arg4 {blocks = 1 : i32, k = 8 : i32, m = 32 : i32, n = 32 : i32} blgp =  none : vector<4xf16>, vector<4xf16>, vector<16xf32>
          %5458 = amdgpu.mfma %5393 * %5357 + %5457 {blocks = 1 : i32, k = 8 : i32, m = 32 : i32, n = 32 : i32} blgp =  none : vector<4xf16>, vector<4xf16>, vector<16xf32>
          %5459 = amdgpu.mfma %5392 * %5358 + %arg5 {blocks = 1 : i32, k = 8 : i32, m = 32 : i32, n = 32 : i32} blgp =  none : vector<4xf16>, vector<4xf16>, vector<16xf32>
          %5460 = amdgpu.mfma %5393 * %5359 + %5459 {blocks = 1 : i32, k = 8 : i32, m = 32 : i32, n = 32 : i32} blgp =  none : vector<4xf16>, vector<4xf16>, vector<16xf32>
          %5461 = amdgpu.mfma %5392 * %5360 + %arg6 {blocks = 1 : i32, k = 8 : i32, m = 32 : i32, n = 32 : i32} blgp =  none : vector<4xf16>, vector<4xf16>, vector<16xf32>
          %5462 = amdgpu.mfma %5393 * %5361 + %5461 {blocks = 1 : i32, k = 8 : i32, m = 32 : i32, n = 32 : i32} blgp =  none : vector<4xf16>, vector<4xf16>, vector<16xf32>
          %5463 = amdgpu.mfma %5392 * %5362 + %arg7 {blocks = 1 : i32, k = 8 : i32, m = 32 : i32, n = 32 : i32} blgp =  none : vector<4xf16>, vector<4xf16>, vector<16xf32>
          %5464 = amdgpu.mfma %5393 * %5363 + %5463 {blocks = 1 : i32, k = 8 : i32, m = 32 : i32, n = 32 : i32} blgp =  none : vector<4xf16>, vector<4xf16>, vector<16xf32>
          %5465 = amdgpu.mfma %5392 * %5364 + %arg8 {blocks = 1 : i32, k = 8 : i32, m = 32 : i32, n = 32 : i32} blgp =  none : vector<4xf16>, vector<4xf16>, vector<16xf32>
          %5466 = amdgpu.mfma %5393 * %5365 + %5465 {blocks = 1 : i32, k = 8 : i32, m = 32 : i32, n = 32 : i32} blgp =  none : vector<4xf16>, vector<4xf16>, vector<16xf32>
          %5467 = amdgpu.mfma %5392 * %5366 + %arg9 {blocks = 1 : i32, k = 8 : i32, m = 32 : i32, n = 32 : i32} blgp =  none : vector<4xf16>, vector<4xf16>, vector<16xf32>
          %5468 = amdgpu.mfma %5393 * %5367 + %5467 {blocks = 1 : i32, k = 8 : i32, m = 32 : i32, n = 32 : i32} blgp =  none : vector<4xf16>, vector<4xf16>, vector<16xf32>
          %5469 = amdgpu.mfma %5392 * %5368 + %arg10 {blocks = 1 : i32, k = 8 : i32, m = 32 : i32, n = 32 : i32} blgp =  none : vector<4xf16>, vector<4xf16>, vector<16xf32>
          %5470 = amdgpu.mfma %5393 * %5369 + %5469 {blocks = 1 : i32, k = 8 : i32, m = 32 : i32, n = 32 : i32} blgp =  none : vector<4xf16>, vector<4xf16>, vector<16xf32>
          %5471 = amdgpu.mfma %5392 * %5370 + %arg11 {blocks = 1 : i32, k = 8 : i32, m = 32 : i32, n = 32 : i32} blgp =  none : vector<4xf16>, vector<4xf16>, vector<16xf32>
          %5472 = amdgpu.mfma %5393 * %5371 + %5471 {blocks = 1 : i32, k = 8 : i32, m = 32 : i32, n = 32 : i32} blgp =  none : vector<4xf16>, vector<4xf16>, vector<16xf32>
          %5473 = amdgpu.mfma %5392 * %5372 + %arg12 {blocks = 1 : i32, k = 8 : i32, m = 32 : i32, n = 32 : i32} blgp =  none : vector<4xf16>, vector<4xf16>, vector<16xf32>
          %5474 = amdgpu.mfma %5393 * %5373 + %5473 {blocks = 1 : i32, k = 8 : i32, m = 32 : i32, n = 32 : i32} blgp =  none : vector<4xf16>, vector<4xf16>, vector<16xf32>
          %5475 = amdgpu.mfma %5392 * %5374 + %arg13 {blocks = 1 : i32, k = 8 : i32, m = 32 : i32, n = 32 : i32} blgp =  none : vector<4xf16>, vector<4xf16>, vector<16xf32>
          %5476 = amdgpu.mfma %5393 * %5375 + %5475 {blocks = 1 : i32, k = 8 : i32, m = 32 : i32, n = 32 : i32} blgp =  none : vector<4xf16>, vector<4xf16>, vector<16xf32>
          %5477 = amdgpu.mfma %5392 * %5376 + %arg14 {blocks = 1 : i32, k = 8 : i32, m = 32 : i32, n = 32 : i32} blgp =  none : vector<4xf16>, vector<4xf16>, vector<16xf32>
          %5478 = amdgpu.mfma %5393 * %5377 + %5477 {blocks = 1 : i32, k = 8 : i32, m = 32 : i32, n = 32 : i32} blgp =  none : vector<4xf16>, vector<4xf16>, vector<16xf32>
          %5479 = amdgpu.mfma %5392 * %5378 + %arg15 {blocks = 1 : i32, k = 8 : i32, m = 32 : i32, n = 32 : i32} blgp =  none : vector<4xf16>, vector<4xf16>, vector<16xf32>
          %5480 = amdgpu.mfma %5393 * %5379 + %5479 {blocks = 1 : i32, k = 8 : i32, m = 32 : i32, n = 32 : i32} blgp =  none : vector<4xf16>, vector<4xf16>, vector<16xf32>
          %5481 = amdgpu.mfma %5392 * %5380 + %arg16 {blocks = 1 : i32, k = 8 : i32, m = 32 : i32, n = 32 : i32} blgp =  none : vector<4xf16>, vector<4xf16>, vector<16xf32>
          %5482 = amdgpu.mfma %5393 * %5381 + %5481 {blocks = 1 : i32, k = 8 : i32, m = 32 : i32, n = 32 : i32} blgp =  none : vector<4xf16>, vector<4xf16>, vector<16xf32>
          %5483 = amdgpu.mfma %5392 * %5382 + %arg17 {blocks = 1 : i32, k = 8 : i32, m = 32 : i32, n = 32 : i32} blgp =  none : vector<4xf16>, vector<4xf16>, vector<16xf32>
          %5484 = amdgpu.mfma %5393 * %5383 + %5483 {blocks = 1 : i32, k = 8 : i32, m = 32 : i32, n = 32 : i32} blgp =  none : vector<4xf16>, vector<4xf16>, vector<16xf32>
          %5485 = amdgpu.mfma %5392 * %5384 + %arg18 {blocks = 1 : i32, k = 8 : i32, m = 32 : i32, n = 32 : i32} blgp =  none : vector<4xf16>, vector<4xf16>, vector<16xf32>
          %5486 = amdgpu.mfma %5393 * %5385 + %5485 {blocks = 1 : i32, k = 8 : i32, m = 32 : i32, n = 32 : i32} blgp =  none : vector<4xf16>, vector<4xf16>, vector<16xf32>
          %5487 = amdgpu.mfma %5392 * %5386 + %arg19 {blocks = 1 : i32, k = 8 : i32, m = 32 : i32, n = 32 : i32} blgp =  none : vector<4xf16>, vector<4xf16>, vector<16xf32>
          %5488 = amdgpu.mfma %5393 * %5387 + %5487 {blocks = 1 : i32, k = 8 : i32, m = 32 : i32, n = 32 : i32} blgp =  none : vector<4xf16>, vector<4xf16>, vector<16xf32>
          %5489 = amdgpu.mfma %5392 * %5388 + %arg20 {blocks = 1 : i32, k = 8 : i32, m = 32 : i32, n = 32 : i32} blgp =  none : vector<4xf16>, vector<4xf16>, vector<16xf32>
          %5490 = amdgpu.mfma %5393 * %5389 + %5489 {blocks = 1 : i32, k = 8 : i32, m = 32 : i32, n = 32 : i32} blgp =  none : vector<4xf16>, vector<4xf16>, vector<16xf32>
          %5491 = amdgpu.mfma %5392 * %5390 + %arg21 {blocks = 1 : i32, k = 8 : i32, m = 32 : i32, n = 32 : i32} blgp =  none : vector<4xf16>, vector<4xf16>, vector<16xf32>
          %5492 = amdgpu.mfma %5393 * %5391 + %5491 {blocks = 1 : i32, k = 8 : i32, m = 32 : i32, n = 32 : i32} blgp =  none : vector<4xf16>, vector<4xf16>, vector<16xf32>
          %5493 = amdgpu.mfma %5394 * %5356 + %arg22 {blocks = 1 : i32, k = 8 : i32, m = 32 : i32, n = 32 : i32} blgp =  none : vector<4xf16>, vector<4xf16>, vector<16xf32>
          %5494 = amdgpu.mfma %5395 * %5357 + %5493 {blocks = 1 : i32, k = 8 : i32, m = 32 : i32, n = 32 : i32} blgp =  none : vector<4xf16>, vector<4xf16>, vector<16xf32>
          %5495 = amdgpu.mfma %5394 * %5358 + %arg23 {blocks = 1 : i32, k = 8 : i32, m = 32 : i32, n = 32 : i32} blgp =  none : vector<4xf16>, vector<4xf16>, vector<16xf32>
          %5496 = amdgpu.mfma %5395 * %5359 + %5495 {blocks = 1 : i32, k = 8 : i32, m = 32 : i32, n = 32 : i32} blgp =  none : vector<4xf16>, vector<4xf16>, vector<16xf32>
          %5497 = amdgpu.mfma %5394 * %5360 + %arg24 {blocks = 1 : i32, k = 8 : i32, m = 32 : i32, n = 32 : i32} blgp =  none : vector<4xf16>, vector<4xf16>, vector<16xf32>
          %5498 = amdgpu.mfma %5395 * %5361 + %5497 {blocks = 1 : i32, k = 8 : i32, m = 32 : i32, n = 32 : i32} blgp =  none : vector<4xf16>, vector<4xf16>, vector<16xf32>
          %5499 = amdgpu.mfma %5394 * %5362 + %arg25 {blocks = 1 : i32, k = 8 : i32, m = 32 : i32, n = 32 : i32} blgp =  none : vector<4xf16>, vector<4xf16>, vector<16xf32>
          %5500 = amdgpu.mfma %5395 * %5363 + %5499 {blocks = 1 : i32, k = 8 : i32, m = 32 : i32, n = 32 : i32} blgp =  none : vector<4xf16>, vector<4xf16>, vector<16xf32>
          %5501 = amdgpu.mfma %5394 * %5364 + %arg26 {blocks = 1 : i32, k = 8 : i32, m = 32 : i32, n = 32 : i32} blgp =  none : vector<4xf16>, vector<4xf16>, vector<16xf32>
          %5502 = amdgpu.mfma %5395 * %5365 + %5501 {blocks = 1 : i32, k = 8 : i32, m = 32 : i32, n = 32 : i32} blgp =  none : vector<4xf16>, vector<4xf16>, vector<16xf32>
          %5503 = amdgpu.mfma %5394 * %5366 + %arg27 {blocks = 1 : i32, k = 8 : i32, m = 32 : i32, n = 32 : i32} blgp =  none : vector<4xf16>, vector<4xf16>, vector<16xf32>
          %5504 = amdgpu.mfma %5395 * %5367 + %5503 {blocks = 1 : i32, k = 8 : i32, m = 32 : i32, n = 32 : i32} blgp =  none : vector<4xf16>, vector<4xf16>, vector<16xf32>
          %5505 = amdgpu.mfma %5394 * %5368 + %arg28 {blocks = 1 : i32, k = 8 : i32, m = 32 : i32, n = 32 : i32} blgp =  none : vector<4xf16>, vector<4xf16>, vector<16xf32>
          %5506 = amdgpu.mfma %5395 * %5369 + %5505 {blocks = 1 : i32, k = 8 : i32, m = 32 : i32, n = 32 : i32} blgp =  none : vector<4xf16>, vector<4xf16>, vector<16xf32>
          %5507 = amdgpu.mfma %5394 * %5370 + %arg29 {blocks = 1 : i32, k = 8 : i32, m = 32 : i32, n = 32 : i32} blgp =  none : vector<4xf16>, vector<4xf16>, vector<16xf32>
          %5508 = amdgpu.mfma %5395 * %5371 + %5507 {blocks = 1 : i32, k = 8 : i32, m = 32 : i32, n = 32 : i32} blgp =  none : vector<4xf16>, vector<4xf16>, vector<16xf32>
          %5509 = amdgpu.mfma %5394 * %5372 + %arg30 {blocks = 1 : i32, k = 8 : i32, m = 32 : i32, n = 32 : i32} blgp =  none : vector<4xf16>, vector<4xf16>, vector<16xf32>
          %5510 = amdgpu.mfma %5395 * %5373 + %5509 {blocks = 1 : i32, k = 8 : i32, m = 32 : i32, n = 32 : i32} blgp =  none : vector<4xf16>, vector<4xf16>, vector<16xf32>
          %5511 = amdgpu.mfma %5394 * %5374 + %arg31 {blocks = 1 : i32, k = 8 : i32, m = 32 : i32, n = 32 : i32} blgp =  none : vector<4xf16>, vector<4xf16>, vector<16xf32>
          %5512 = amdgpu.mfma %5395 * %5375 + %5511 {blocks = 1 : i32, k = 8 : i32, m = 32 : i32, n = 32 : i32} blgp =  none : vector<4xf16>, vector<4xf16>, vector<16xf32>
          %5513 = amdgpu.mfma %5394 * %5376 + %arg32 {blocks = 1 : i32, k = 8 : i32, m = 32 : i32, n = 32 : i32} blgp =  none : vector<4xf16>, vector<4xf16>, vector<16xf32>
          %5514 = amdgpu.mfma %5395 * %5377 + %5513 {blocks = 1 : i32, k = 8 : i32, m = 32 : i32, n = 32 : i32} blgp =  none : vector<4xf16>, vector<4xf16>, vector<16xf32>
          %5515 = amdgpu.mfma %5394 * %5378 + %arg33 {blocks = 1 : i32, k = 8 : i32, m = 32 : i32, n = 32 : i32} blgp =  none : vector<4xf16>, vector<4xf16>, vector<16xf32>
          %5516 = amdgpu.mfma %5395 * %5379 + %5515 {blocks = 1 : i32, k = 8 : i32, m = 32 : i32, n = 32 : i32} blgp =  none : vector<4xf16>, vector<4xf16>, vector<16xf32>
          %5517 = amdgpu.mfma %5394 * %5380 + %arg34 {blocks = 1 : i32, k = 8 : i32, m = 32 : i32, n = 32 : i32} blgp =  none : vector<4xf16>, vector<4xf16>, vector<16xf32>
          %5518 = amdgpu.mfma %5395 * %5381 + %5517 {blocks = 1 : i32, k = 8 : i32, m = 32 : i32, n = 32 : i32} blgp =  none : vector<4xf16>, vector<4xf16>, vector<16xf32>
          %5519 = amdgpu.mfma %5394 * %5382 + %arg35 {blocks = 1 : i32, k = 8 : i32, m = 32 : i32, n = 32 : i32} blgp =  none : vector<4xf16>, vector<4xf16>, vector<16xf32>
          %5520 = amdgpu.mfma %5395 * %5383 + %5519 {blocks = 1 : i32, k = 8 : i32, m = 32 : i32, n = 32 : i32} blgp =  none : vector<4xf16>, vector<4xf16>, vector<16xf32>
          %5521 = amdgpu.mfma %5394 * %5384 + %arg36 {blocks = 1 : i32, k = 8 : i32, m = 32 : i32, n = 32 : i32} blgp =  none : vector<4xf16>, vector<4xf16>, vector<16xf32>
          %5522 = amdgpu.mfma %5395 * %5385 + %5521 {blocks = 1 : i32, k = 8 : i32, m = 32 : i32, n = 32 : i32} blgp =  none : vector<4xf16>, vector<4xf16>, vector<16xf32>
          %5523 = amdgpu.mfma %5394 * %5386 + %arg37 {blocks = 1 : i32, k = 8 : i32, m = 32 : i32, n = 32 : i32} blgp =  none : vector<4xf16>, vector<4xf16>, vector<16xf32>
          %5524 = amdgpu.mfma %5395 * %5387 + %5523 {blocks = 1 : i32, k = 8 : i32, m = 32 : i32, n = 32 : i32} blgp =  none : vector<4xf16>, vector<4xf16>, vector<16xf32>
          %5525 = amdgpu.mfma %5394 * %5388 + %arg38 {blocks = 1 : i32, k = 8 : i32, m = 32 : i32, n = 32 : i32} blgp =  none : vector<4xf16>, vector<4xf16>, vector<16xf32>
          %5526 = amdgpu.mfma %5395 * %5389 + %5525 {blocks = 1 : i32, k = 8 : i32, m = 32 : i32, n = 32 : i32} blgp =  none : vector<4xf16>, vector<4xf16>, vector<16xf32>
          %5527 = amdgpu.mfma %5394 * %5390 + %arg39 {blocks = 1 : i32, k = 8 : i32, m = 32 : i32, n = 32 : i32} blgp =  none : vector<4xf16>, vector<4xf16>, vector<16xf32>
          %5528 = amdgpu.mfma %5395 * %5391 + %5527 {blocks = 1 : i32, k = 8 : i32, m = 32 : i32, n = 32 : i32} blgp =  none : vector<4xf16>, vector<4xf16>, vector<16xf32>
          %5529 = amdgpu.mfma %5396 * %5356 + %arg40 {blocks = 1 : i32, k = 8 : i32, m = 32 : i32, n = 32 : i32} blgp =  none : vector<4xf16>, vector<4xf16>, vector<16xf32>
          %5530 = amdgpu.mfma %5397 * %5357 + %5529 {blocks = 1 : i32, k = 8 : i32, m = 32 : i32, n = 32 : i32} blgp =  none : vector<4xf16>, vector<4xf16>, vector<16xf32>
          %5531 = amdgpu.mfma %5396 * %5358 + %arg41 {blocks = 1 : i32, k = 8 : i32, m = 32 : i32, n = 32 : i32} blgp =  none : vector<4xf16>, vector<4xf16>, vector<16xf32>
          %5532 = amdgpu.mfma %5397 * %5359 + %5531 {blocks = 1 : i32, k = 8 : i32, m = 32 : i32, n = 32 : i32} blgp =  none : vector<4xf16>, vector<4xf16>, vector<16xf32>
          %5533 = amdgpu.mfma %5396 * %5360 + %arg42 {blocks = 1 : i32, k = 8 : i32, m = 32 : i32, n = 32 : i32} blgp =  none : vector<4xf16>, vector<4xf16>, vector<16xf32>
          %5534 = amdgpu.mfma %5397 * %5361 + %5533 {blocks = 1 : i32, k = 8 : i32, m = 32 : i32, n = 32 : i32} blgp =  none : vector<4xf16>, vector<4xf16>, vector<16xf32>
          %5535 = amdgpu.mfma %5396 * %5362 + %arg43 {blocks = 1 : i32, k = 8 : i32, m = 32 : i32, n = 32 : i32} blgp =  none : vector<4xf16>, vector<4xf16>, vector<16xf32>
          %5536 = amdgpu.mfma %5397 * %5363 + %5535 {blocks = 1 : i32, k = 8 : i32, m = 32 : i32, n = 32 : i32} blgp =  none : vector<4xf16>, vector<4xf16>, vector<16xf32>
          %5537 = amdgpu.mfma %5396 * %5364 + %arg44 {blocks = 1 : i32, k = 8 : i32, m = 32 : i32, n = 32 : i32} blgp =  none : vector<4xf16>, vector<4xf16>, vector<16xf32>
          %5538 = amdgpu.mfma %5397 * %5365 + %5537 {blocks = 1 : i32, k = 8 : i32, m = 32 : i32, n = 32 : i32} blgp =  none : vector<4xf16>, vector<4xf16>, vector<16xf32>
          %5539 = amdgpu.mfma %5396 * %5366 + %arg45 {blocks = 1 : i32, k = 8 : i32, m = 32 : i32, n = 32 : i32} blgp =  none : vector<4xf16>, vector<4xf16>, vector<16xf32>
          %5540 = amdgpu.mfma %5397 * %5367 + %5539 {blocks = 1 : i32, k = 8 : i32, m = 32 : i32, n = 32 : i32} blgp =  none : vector<4xf16>, vector<4xf16>, vector<16xf32>
          %5541 = amdgpu.mfma %5396 * %5368 + %arg46 {blocks = 1 : i32, k = 8 : i32, m = 32 : i32, n = 32 : i32} blgp =  none : vector<4xf16>, vector<4xf16>, vector<16xf32>
          %5542 = amdgpu.mfma %5397 * %5369 + %5541 {blocks = 1 : i32, k = 8 : i32, m = 32 : i32, n = 32 : i32} blgp =  none : vector<4xf16>, vector<4xf16>, vector<16xf32>
          %5543 = amdgpu.mfma %5396 * %5370 + %arg47 {blocks = 1 : i32, k = 8 : i32, m = 32 : i32, n = 32 : i32} blgp =  none : vector<4xf16>, vector<4xf16>, vector<16xf32>
          %5544 = amdgpu.mfma %5397 * %5371 + %5543 {blocks = 1 : i32, k = 8 : i32, m = 32 : i32, n = 32 : i32} blgp =  none : vector<4xf16>, vector<4xf16>, vector<16xf32>
          %5545 = amdgpu.mfma %5396 * %5372 + %arg48 {blocks = 1 : i32, k = 8 : i32, m = 32 : i32, n = 32 : i32} blgp =  none : vector<4xf16>, vector<4xf16>, vector<16xf32>
          %5546 = amdgpu.mfma %5397 * %5373 + %5545 {blocks = 1 : i32, k = 8 : i32, m = 32 : i32, n = 32 : i32} blgp =  none : vector<4xf16>, vector<4xf16>, vector<16xf32>
          %5547 = amdgpu.mfma %5396 * %5374 + %arg49 {blocks = 1 : i32, k = 8 : i32, m = 32 : i32, n = 32 : i32} blgp =  none : vector<4xf16>, vector<4xf16>, vector<16xf32>
          %5548 = amdgpu.mfma %5397 * %5375 + %5547 {blocks = 1 : i32, k = 8 : i32, m = 32 : i32, n = 32 : i32} blgp =  none : vector<4xf16>, vector<4xf16>, vector<16xf32>
          %5549 = amdgpu.mfma %5396 * %5376 + %arg50 {blocks = 1 : i32, k = 8 : i32, m = 32 : i32, n = 32 : i32} blgp =  none : vector<4xf16>, vector<4xf16>, vector<16xf32>
          %5550 = amdgpu.mfma %5397 * %5377 + %5549 {blocks = 1 : i32, k = 8 : i32, m = 32 : i32, n = 32 : i32} blgp =  none : vector<4xf16>, vector<4xf16>, vector<16xf32>
          %5551 = amdgpu.mfma %5396 * %5378 + %arg51 {blocks = 1 : i32, k = 8 : i32, m = 32 : i32, n = 32 : i32} blgp =  none : vector<4xf16>, vector<4xf16>, vector<16xf32>
          %5552 = amdgpu.mfma %5397 * %5379 + %5551 {blocks = 1 : i32, k = 8 : i32, m = 32 : i32, n = 32 : i32} blgp =  none : vector<4xf16>, vector<4xf16>, vector<16xf32>
          %5553 = amdgpu.mfma %5396 * %5380 + %arg52 {blocks = 1 : i32, k = 8 : i32, m = 32 : i32, n = 32 : i32} blgp =  none : vector<4xf16>, vector<4xf16>, vector<16xf32>
          %5554 = amdgpu.mfma %5397 * %5381 + %5553 {blocks = 1 : i32, k = 8 : i32, m = 32 : i32, n = 32 : i32} blgp =  none : vector<4xf16>, vector<4xf16>, vector<16xf32>
          %5555 = amdgpu.mfma %5396 * %5382 + %arg53 {blocks = 1 : i32, k = 8 : i32, m = 32 : i32, n = 32 : i32} blgp =  none : vector<4xf16>, vector<4xf16>, vector<16xf32>
          %5556 = amdgpu.mfma %5397 * %5383 + %5555 {blocks = 1 : i32, k = 8 : i32, m = 32 : i32, n = 32 : i32} blgp =  none : vector<4xf16>, vector<4xf16>, vector<16xf32>
          %5557 = amdgpu.mfma %5396 * %5384 + %arg54 {blocks = 1 : i32, k = 8 : i32, m = 32 : i32, n = 32 : i32} blgp =  none : vector<4xf16>, vector<4xf16>, vector<16xf32>
          %5558 = amdgpu.mfma %5397 * %5385 + %5557 {blocks = 1 : i32, k = 8 : i32, m = 32 : i32, n = 32 : i32} blgp =  none : vector<4xf16>, vector<4xf16>, vector<16xf32>
          %5559 = amdgpu.mfma %5396 * %5386 + %arg55 {blocks = 1 : i32, k = 8 : i32, m = 32 : i32, n = 32 : i32} blgp =  none : vector<4xf16>, vector<4xf16>, vector<16xf32>
          %5560 = amdgpu.mfma %5397 * %5387 + %5559 {blocks = 1 : i32, k = 8 : i32, m = 32 : i32, n = 32 : i32} blgp =  none : vector<4xf16>, vector<4xf16>, vector<16xf32>
          %5561 = amdgpu.mfma %5396 * %5388 + %arg56 {blocks = 1 : i32, k = 8 : i32, m = 32 : i32, n = 32 : i32} blgp =  none : vector<4xf16>, vector<4xf16>, vector<16xf32>
          %5562 = amdgpu.mfma %5397 * %5389 + %5561 {blocks = 1 : i32, k = 8 : i32, m = 32 : i32, n = 32 : i32} blgp =  none : vector<4xf16>, vector<4xf16>, vector<16xf32>
          %5563 = amdgpu.mfma %5396 * %5390 + %arg57 {blocks = 1 : i32, k = 8 : i32, m = 32 : i32, n = 32 : i32} blgp =  none : vector<4xf16>, vector<4xf16>, vector<16xf32>
          %5564 = amdgpu.mfma %5397 * %5391 + %5563 {blocks = 1 : i32, k = 8 : i32, m = 32 : i32, n = 32 : i32} blgp =  none : vector<4xf16>, vector<4xf16>, vector<16xf32>
          %5565 = amdgpu.mfma %5398 * %5356 + %arg58 {blocks = 1 : i32, k = 8 : i32, m = 32 : i32, n = 32 : i32} blgp =  none : vector<4xf16>, vector<4xf16>, vector<16xf32>
          %5566 = amdgpu.mfma %5399 * %5357 + %5565 {blocks = 1 : i32, k = 8 : i32, m = 32 : i32, n = 32 : i32} blgp =  none : vector<4xf16>, vector<4xf16>, vector<16xf32>
          %5567 = amdgpu.mfma %5398 * %5358 + %arg59 {blocks = 1 : i32, k = 8 : i32, m = 32 : i32, n = 32 : i32} blgp =  none : vector<4xf16>, vector<4xf16>, vector<16xf32>
          %5568 = amdgpu.mfma %5399 * %5359 + %5567 {blocks = 1 : i32, k = 8 : i32, m = 32 : i32, n = 32 : i32} blgp =  none : vector<4xf16>, vector<4xf16>, vector<16xf32>
          %5569 = amdgpu.mfma %5398 * %5360 + %arg60 {blocks = 1 : i32, k = 8 : i32, m = 32 : i32, n = 32 : i32} blgp =  none : vector<4xf16>, vector<4xf16>, vector<16xf32>
          %5570 = amdgpu.mfma %5399 * %5361 + %5569 {blocks = 1 : i32, k = 8 : i32, m = 32 : i32, n = 32 : i32} blgp =  none : vector<4xf16>, vector<4xf16>, vector<16xf32>
          %5571 = amdgpu.mfma %5398 * %5362 + %arg61 {blocks = 1 : i32, k = 8 : i32, m = 32 : i32, n = 32 : i32} blgp =  none : vector<4xf16>, vector<4xf16>, vector<16xf32>
          %5572 = amdgpu.mfma %5399 * %5363 + %5571 {blocks = 1 : i32, k = 8 : i32, m = 32 : i32, n = 32 : i32} blgp =  none : vector<4xf16>, vector<4xf16>, vector<16xf32>
          %5573 = amdgpu.mfma %5398 * %5364 + %arg62 {blocks = 1 : i32, k = 8 : i32, m = 32 : i32, n = 32 : i32} blgp =  none : vector<4xf16>, vector<4xf16>, vector<16xf32>
          %5574 = amdgpu.mfma %5399 * %5365 + %5573 {blocks = 1 : i32, k = 8 : i32, m = 32 : i32, n = 32 : i32} blgp =  none : vector<4xf16>, vector<4xf16>, vector<16xf32>
          %5575 = amdgpu.mfma %5398 * %5366 + %arg63 {blocks = 1 : i32, k = 8 : i32, m = 32 : i32, n = 32 : i32} blgp =  none : vector<4xf16>, vector<4xf16>, vector<16xf32>
          %5576 = amdgpu.mfma %5399 * %5367 + %5575 {blocks = 1 : i32, k = 8 : i32, m = 32 : i32, n = 32 : i32} blgp =  none : vector<4xf16>, vector<4xf16>, vector<16xf32>
          %5577 = amdgpu.mfma %5398 * %5368 + %arg64 {blocks = 1 : i32, k = 8 : i32, m = 32 : i32, n = 32 : i32} blgp =  none : vector<4xf16>, vector<4xf16>, vector<16xf32>
          %5578 = amdgpu.mfma %5399 * %5369 + %5577 {blocks = 1 : i32, k = 8 : i32, m = 32 : i32, n = 32 : i32} blgp =  none : vector<4xf16>, vector<4xf16>, vector<16xf32>
          %5579 = amdgpu.mfma %5398 * %5370 + %arg65 {blocks = 1 : i32, k = 8 : i32, m = 32 : i32, n = 32 : i32} blgp =  none : vector<4xf16>, vector<4xf16>, vector<16xf32>
          %5580 = amdgpu.mfma %5399 * %5371 + %5579 {blocks = 1 : i32, k = 8 : i32, m = 32 : i32, n = 32 : i32} blgp =  none : vector<4xf16>, vector<4xf16>, vector<16xf32>
          %5581 = amdgpu.mfma %5398 * %5372 + %arg66 {blocks = 1 : i32, k = 8 : i32, m = 32 : i32, n = 32 : i32} blgp =  none : vector<4xf16>, vector<4xf16>, vector<16xf32>
          %5582 = amdgpu.mfma %5399 * %5373 + %5581 {blocks = 1 : i32, k = 8 : i32, m = 32 : i32, n = 32 : i32} blgp =  none : vector<4xf16>, vector<4xf16>, vector<16xf32>
          %5583 = amdgpu.mfma %5398 * %5374 + %arg67 {blocks = 1 : i32, k = 8 : i32, m = 32 : i32, n = 32 : i32} blgp =  none : vector<4xf16>, vector<4xf16>, vector<16xf32>
          %5584 = amdgpu.mfma %5399 * %5375 + %5583 {blocks = 1 : i32, k = 8 : i32, m = 32 : i32, n = 32 : i32} blgp =  none : vector<4xf16>, vector<4xf16>, vector<16xf32>
          %5585 = amdgpu.mfma %5398 * %5376 + %arg68 {blocks = 1 : i32, k = 8 : i32, m = 32 : i32, n = 32 : i32} blgp =  none : vector<4xf16>, vector<4xf16>, vector<16xf32>
          %5586 = amdgpu.mfma %5399 * %5377 + %5585 {blocks = 1 : i32, k = 8 : i32, m = 32 : i32, n = 32 : i32} blgp =  none : vector<4xf16>, vector<4xf16>, vector<16xf32>
          %5587 = amdgpu.mfma %5398 * %5378 + %arg69 {blocks = 1 : i32, k = 8 : i32, m = 32 : i32, n = 32 : i32} blgp =  none : vector<4xf16>, vector<4xf16>, vector<16xf32>
          %5588 = amdgpu.mfma %5399 * %5379 + %5587 {blocks = 1 : i32, k = 8 : i32, m = 32 : i32, n = 32 : i32} blgp =  none : vector<4xf16>, vector<4xf16>, vector<16xf32>
          %5589 = amdgpu.mfma %5398 * %5380 + %arg70 {blocks = 1 : i32, k = 8 : i32, m = 32 : i32, n = 32 : i32} blgp =  none : vector<4xf16>, vector<4xf16>, vector<16xf32>
          %5590 = amdgpu.mfma %5399 * %5381 + %5589 {blocks = 1 : i32, k = 8 : i32, m = 32 : i32, n = 32 : i32} blgp =  none : vector<4xf16>, vector<4xf16>, vector<16xf32>
          %5591 = amdgpu.mfma %5398 * %5382 + %arg71 {blocks = 1 : i32, k = 8 : i32, m = 32 : i32, n = 32 : i32} blgp =  none : vector<4xf16>, vector<4xf16>, vector<16xf32>
          %5592 = amdgpu.mfma %5399 * %5383 + %5591 {blocks = 1 : i32, k = 8 : i32, m = 32 : i32, n = 32 : i32} blgp =  none : vector<4xf16>, vector<4xf16>, vector<16xf32>
          %5593 = amdgpu.mfma %5398 * %5384 + %arg72 {blocks = 1 : i32, k = 8 : i32, m = 32 : i32, n = 32 : i32} blgp =  none : vector<4xf16>, vector<4xf16>, vector<16xf32>
          %5594 = amdgpu.mfma %5399 * %5385 + %5593 {blocks = 1 : i32, k = 8 : i32, m = 32 : i32, n = 32 : i32} blgp =  none : vector<4xf16>, vector<4xf16>, vector<16xf32>
          %5595 = amdgpu.mfma %5398 * %5386 + %arg73 {blocks = 1 : i32, k = 8 : i32, m = 32 : i32, n = 32 : i32} blgp =  none : vector<4xf16>, vector<4xf16>, vector<16xf32>
          %5596 = amdgpu.mfma %5399 * %5387 + %5595 {blocks = 1 : i32, k = 8 : i32, m = 32 : i32, n = 32 : i32} blgp =  none : vector<4xf16>, vector<4xf16>, vector<16xf32>
          %5597 = amdgpu.mfma %5398 * %5388 + %arg74 {blocks = 1 : i32, k = 8 : i32, m = 32 : i32, n = 32 : i32} blgp =  none : vector<4xf16>, vector<4xf16>, vector<16xf32>
          %5598 = amdgpu.mfma %5399 * %5389 + %5597 {blocks = 1 : i32, k = 8 : i32, m = 32 : i32, n = 32 : i32} blgp =  none : vector<4xf16>, vector<4xf16>, vector<16xf32>
          %5599 = amdgpu.mfma %5398 * %5390 + %arg75 {blocks = 1 : i32, k = 8 : i32, m = 32 : i32, n = 32 : i32} blgp =  none : vector<4xf16>, vector<4xf16>, vector<16xf32>
          %5600 = amdgpu.mfma %5399 * %5391 + %5599 {blocks = 1 : i32, k = 8 : i32, m = 32 : i32, n = 32 : i32} blgp =  none : vector<4xf16>, vector<4xf16>, vector<16xf32>
          amdgpu.lds_barrier
          vector.maskedstore %view_3[%93, %6], %95, %5408 : memref<404x20xf16, #gpu.address_space<workgroup>>, vector<8xi1>, vector<8xf16>
          vector.maskedstore %view_3[%96, %6], %98, %5416 : memref<404x20xf16, #gpu.address_space<workgroup>>, vector<8xi1>, vector<8xf16>
          vector.maskedstore %view[%101, %6], %103, %5424 : memref<1090x20xf16, #gpu.address_space<workgroup>>, vector<8xi1>, vector<8xf16>
          vector.maskedstore %view[%104, %6], %106, %5432 : memref<1090x20xf16, #gpu.address_space<workgroup>>, vector<8xi1>, vector<8xf16>
          vector.maskedstore %view[%107, %6], %109, %5440 : memref<1090x20xf16, #gpu.address_space<workgroup>>, vector<8xi1>, vector<8xf16>
          vector.maskedstore %view[%110, %6], %112, %5448 : memref<1090x20xf16, #gpu.address_space<workgroup>>, vector<8xi1>, vector<8xf16>
          vector.maskedstore %view[%113, %6], %115, %5456 : memref<1090x20xf16, #gpu.address_space<workgroup>>, vector<8xi1>, vector<8xf16>
          scf.yield %5458, %5460, %5462, %5464, %5466, %5468, %5470, %5472, %5474, %5476, %5478, %5480, %5482, %5484, %5486, %5488, %5490, %5492, %5494, %5496, %5498, %5500, %5502, %5504, %5506, %5508, %5510, %5512, %5514, %5516, %5518, %5520, %5522, %5524, %5526, %5528, %5530, %5532, %5534, %5536, %5538, %5540, %5542, %5544, %5546, %5548, %5550, %5552, %5554, %5556, %5558, %5560, %5562, %5564, %5566, %5568, %5570, %5572, %5574, %5576, %5578, %5580, %5582, %5584, %5586, %5588, %5590, %5592, %5594, %5596, %5598, %5600 : vector<16xf32>, vector<16xf32>, vector<16xf32>, vector<16xf32>, vector<16xf32>, vector<16xf32>, vector<16xf32>, vector<16xf32>, vector<16xf32>, vector<16xf32>, vector<16xf32>, vector<16xf32>, vector<16xf32>, vector<16xf32>, vector<16xf32>, vector<16xf32>, vector<16xf32>, vector<16xf32>, vector<16xf32>, vector<16xf32>, vector<16xf32>, vector<16xf32>, vector<16xf32>, vector<16xf32>, vector<16xf32>, vector<16xf32>, vector<16xf32>, vector<16xf32>, vector<16xf32>, vector<16xf32>, vector<16xf32>, vector<16xf32>, vector<16xf32>, vector<16xf32>, vector<16xf32>, vector<16xf32>, vector<16xf32>, vector<16xf32>, vector<16xf32>, vector<16xf32>, vector<16xf32>, vector<16xf32>, vector<16xf32>, vector<16xf32>, vector<16xf32>, vector<16xf32>, vector<16xf32>, vector<16xf32>, vector<16xf32>, vector<16xf32>, vector<16xf32>, vector<16xf32>, vector<16xf32>, vector<16xf32>, vector<16xf32>, vector<16xf32>, vector<16xf32>, vector<16xf32>, vector<16xf32>, vector<16xf32>, vector<16xf32>, vector<16xf32>, vector<16xf32>, vector<16xf32>, vector<16xf32>, vector<16xf32>, vector<16xf32>, vector<16xf32>, vector<16xf32>, vector<16xf32>, vector<16xf32>, vector<16xf32>
        }
        amdgpu.lds_barrier
        %185 = affine.apply #map18()[%thread_id_x, %thread_id_y]
        %186 = arith.cmpi slt, %185, %100 : index
        %187 = vector.broadcast %186 : i1 to vector<4xi1>
        %188 = affine.apply #map19()[%thread_id_x]
        %189 = vector.maskedload %view[%185, %188], %187, %cst : memref<1090x20xf16, #gpu.address_space<workgroup>>, vector<4xi1>, vector<4xf16> into vector<4xf16>
        %190 = affine.apply #map20()[%thread_id_x]
        %191 = vector.maskedload %view[%185, %190], %187, %cst : memref<1090x20xf16, #gpu.address_space<workgroup>>, vector<4xi1>, vector<4xf16> into vector<4xf16>
        %192 = affine.apply #map21()[%thread_id_x, %thread_id_y]
        %193 = arith.cmpi slt, %192, %100 : index
        %194 = vector.broadcast %193 : i1 to vector<4xi1>
        %195 = vector.maskedload %view[%192, %188], %194, %cst : memref<1090x20xf16, #gpu.address_space<workgroup>>, vector<4xi1>, vector<4xf16> into vector<4xf16>
        %196 = vector.maskedload %view[%192, %190], %194, %cst : memref<1090x20xf16, #gpu.address_space<workgroup>>, vector<4xi1>, vector<4xf16> into vector<4xf16>
        %197 = affine.apply #map22()[%thread_id_x, %thread_id_y]
        %198 = arith.cmpi slt, %197, %100 : index
        %199 = vector.broadcast %198 : i1 to vector<4xi1>
        %200 = vector.maskedload %view[%197, %188], %199, %cst : memref<1090x20xf16, #gpu.address_space<workgroup>>, vector<4xi1>, vector<4xf16> into vector<4xf16>
        %201 = vector.maskedload %view[%197, %190], %199, %cst : memref<1090x20xf16, #gpu.address_space<workgroup>>, vector<4xi1>, vector<4xf16> into vector<4xf16>
        %202 = affine.apply #map23()[%thread_id_x, %thread_id_y]
        %203 = arith.cmpi slt, %202, %100 : index
        %204 = vector.broadcast %203 : i1 to vector<4xi1>
        %205 = vector.maskedload %view[%202, %188], %204, %cst : memref<1090x20xf16, #gpu.address_space<workgroup>>, vector<4xi1>, vector<4xf16> into vector<4xf16>
        %206 = vector.maskedload %view[%202, %190], %204, %cst : memref<1090x20xf16, #gpu.address_space<workgroup>>, vector<4xi1>, vector<4xf16> into vector<4xf16>
        %207 = affine.apply #map24()[%thread_id_x, %thread_id_y]
        %208 = arith.cmpi slt, %207, %100 : index
        %209 = vector.broadcast %208 : i1 to vector<4xi1>
        %210 = vector.maskedload %view[%207, %188], %209, %cst : memref<1090x20xf16, #gpu.address_space<workgroup>>, vector<4xi1>, vector<4xf16> into vector<4xf16>
        %211 = vector.maskedload %view[%207, %190], %209, %cst : memref<1090x20xf16, #gpu.address_space<workgroup>>, vector<4xi1>, vector<4xf16> into vector<4xf16>
        %212 = affine.apply #map25()[%thread_id_x, %thread_id_y]
        %213 = arith.cmpi slt, %212, %100 : index
        %214 = vector.broadcast %213 : i1 to vector<4xi1>
        %215 = vector.maskedload %view[%212, %188], %214, %cst : memref<1090x20xf16, #gpu.address_space<workgroup>>, vector<4xi1>, vector<4xf16> into vector<4xf16>
        %216 = vector.maskedload %view[%212, %190], %214, %cst : memref<1090x20xf16, #gpu.address_space<workgroup>>, vector<4xi1>, vector<4xf16> into vector<4xf16>
        %217 = affine.apply #map26()[%thread_id_x, %thread_id_y]
        %218 = arith.cmpi slt, %217, %100 : index
        %219 = vector.broadcast %218 : i1 to vector<4xi1>
        %220 = vector.maskedload %view[%217, %188], %219, %cst : memref<1090x20xf16, #gpu.address_space<workgroup>>, vector<4xi1>, vector<4xf16> into vector<4xf16>
        %221 = vector.maskedload %view[%217, %190], %219, %cst : memref<1090x20xf16, #gpu.address_space<workgroup>>, vector<4xi1>, vector<4xf16> into vector<4xf16>
        %222 = affine.apply #map27()[%thread_id_x, %thread_id_y]
        %223 = arith.cmpi slt, %222, %100 : index
        %224 = vector.broadcast %223 : i1 to vector<4xi1>
        %225 = vector.maskedload %view[%222, %188], %224, %cst : memref<1090x20xf16, #gpu.address_space<workgroup>>, vector<4xi1>, vector<4xf16> into vector<4xf16>
        %226 = vector.maskedload %view[%222, %190], %224, %cst : memref<1090x20xf16, #gpu.address_space<workgroup>>, vector<4xi1>, vector<4xf16> into vector<4xf16>
        %227 = affine.apply #map28()[%thread_id_x, %thread_id_y]
        %228 = arith.cmpi slt, %227, %100 : index
        %229 = vector.broadcast %228 : i1 to vector<4xi1>
        %230 = vector.maskedload %view[%227, %188], %229, %cst : memref<1090x20xf16, #gpu.address_space<workgroup>>, vector<4xi1>, vector<4xf16> into vector<4xf16>
        %231 = vector.maskedload %view[%227, %190], %229, %cst : memref<1090x20xf16, #gpu.address_space<workgroup>>, vector<4xi1>, vector<4xf16> into vector<4xf16>
        %232 = affine.apply #map29()[%thread_id_x, %thread_id_y]
        %233 = arith.cmpi slt, %232, %100 : index
        %234 = vector.broadcast %233 : i1 to vector<4xi1>
        %235 = vector.maskedload %view[%232, %188], %234, %cst : memref<1090x20xf16, #gpu.address_space<workgroup>>, vector<4xi1>, vector<4xf16> into vector<4xf16>
        %236 = vector.maskedload %view[%232, %190], %234, %cst : memref<1090x20xf16, #gpu.address_space<workgroup>>, vector<4xi1>, vector<4xf16> into vector<4xf16>
        %237 = affine.apply #map30()[%thread_id_x, %thread_id_y]
        %238 = arith.cmpi slt, %237, %100 : index
        %239 = vector.broadcast %238 : i1 to vector<4xi1>
        %240 = vector.maskedload %view[%237, %188], %239, %cst : memref<1090x20xf16, #gpu.address_space<workgroup>>, vector<4xi1>, vector<4xf16> into vector<4xf16>
        %241 = vector.maskedload %view[%237, %190], %239, %cst : memref<1090x20xf16, #gpu.address_space<workgroup>>, vector<4xi1>, vector<4xf16> into vector<4xf16>
        %242 = affine.apply #map31()[%thread_id_x, %thread_id_y]
        %243 = arith.cmpi slt, %242, %100 : index
        %244 = vector.broadcast %243 : i1 to vector<4xi1>
        %245 = vector.maskedload %view[%242, %188], %244, %cst : memref<1090x20xf16, #gpu.address_space<workgroup>>, vector<4xi1>, vector<4xf16> into vector<4xf16>
        %246 = vector.maskedload %view[%242, %190], %244, %cst : memref<1090x20xf16, #gpu.address_space<workgroup>>, vector<4xi1>, vector<4xf16> into vector<4xf16>
        %247 = affine.apply #map32()[%thread_id_x, %thread_id_y]
        %248 = arith.cmpi slt, %247, %100 : index
        %249 = vector.broadcast %248 : i1 to vector<4xi1>
        %250 = vector.maskedload %view[%247, %188], %249, %cst : memref<1090x20xf16, #gpu.address_space<workgroup>>, vector<4xi1>, vector<4xf16> into vector<4xf16>
        %251 = vector.maskedload %view[%247, %190], %249, %cst : memref<1090x20xf16, #gpu.address_space<workgroup>>, vector<4xi1>, vector<4xf16> into vector<4xf16>
        %252 = affine.apply #map33()[%thread_id_x, %thread_id_y]
        %253 = arith.cmpi slt, %252, %100 : index
        %254 = vector.broadcast %253 : i1 to vector<4xi1>
        %255 = vector.maskedload %view[%252, %188], %254, %cst : memref<1090x20xf16, #gpu.address_space<workgroup>>, vector<4xi1>, vector<4xf16> into vector<4xf16>
        %256 = vector.maskedload %view[%252, %190], %254, %cst : memref<1090x20xf16, #gpu.address_space<workgroup>>, vector<4xi1>, vector<4xf16> into vector<4xf16>
        %257 = affine.apply #map34()[%thread_id_x, %thread_id_y]
        %258 = arith.cmpi slt, %257, %100 : index
        %259 = vector.broadcast %258 : i1 to vector<4xi1>
        %260 = vector.maskedload %view[%257, %188], %259, %cst : memref<1090x20xf16, #gpu.address_space<workgroup>>, vector<4xi1>, vector<4xf16> into vector<4xf16>
        %261 = vector.maskedload %view[%257, %190], %259, %cst : memref<1090x20xf16, #gpu.address_space<workgroup>>, vector<4xi1>, vector<4xf16> into vector<4xf16>
        %262 = affine.apply #map35()[%thread_id_x, %thread_id_y]
        %263 = arith.cmpi slt, %262, %100 : index
        %264 = vector.broadcast %263 : i1 to vector<4xi1>
        %265 = vector.maskedload %view[%262, %188], %264, %cst : memref<1090x20xf16, #gpu.address_space<workgroup>>, vector<4xi1>, vector<4xf16> into vector<4xf16>
        %266 = vector.maskedload %view[%262, %190], %264, %cst : memref<1090x20xf16, #gpu.address_space<workgroup>>, vector<4xi1>, vector<4xf16> into vector<4xf16>
        %267 = affine.apply #map36()[%thread_id_x, %thread_id_y]
        %268 = arith.cmpi slt, %267, %100 : index
        %269 = vector.broadcast %268 : i1 to vector<4xi1>
        %270 = vector.maskedload %view[%267, %188], %269, %cst : memref<1090x20xf16, #gpu.address_space<workgroup>>, vector<4xi1>, vector<4xf16> into vector<4xf16>
        %271 = vector.maskedload %view[%267, %190], %269, %cst : memref<1090x20xf16, #gpu.address_space<workgroup>>, vector<4xi1>, vector<4xf16> into vector<4xf16>
        %272 = affine.apply #map37()[%thread_id_x, %thread_id_y]
        %273 = arith.cmpi slt, %272, %100 : index
        %274 = vector.broadcast %273 : i1 to vector<4xi1>
        %275 = vector.maskedload %view[%272, %188], %274, %cst : memref<1090x20xf16, #gpu.address_space<workgroup>>, vector<4xi1>, vector<4xf16> into vector<4xf16>
        %276 = vector.maskedload %view[%272, %190], %274, %cst : memref<1090x20xf16, #gpu.address_space<workgroup>>, vector<4xi1>, vector<4xf16> into vector<4xf16>
        %277 = affine.apply #map38()[%thread_id_x]
        %278 = arith.cmpi slt, %277, %92 : index
        %279 = vector.broadcast %278 : i1 to vector<4xi1>
        %280 = vector.maskedload %view_3[%277, %188], %279, %cst : memref<404x20xf16, #gpu.address_space<workgroup>>, vector<4xi1>, vector<4xf16> into vector<4xf16>
        %281 = vector.maskedload %view_3[%277, %190], %279, %cst : memref<404x20xf16, #gpu.address_space<workgroup>>, vector<4xi1>, vector<4xf16> into vector<4xf16>
        %282 = affine.apply #map39()[%thread_id_x]
        %283 = arith.cmpi slt, %282, %92 : index
        %284 = vector.broadcast %283 : i1 to vector<4xi1>
        %285 = vector.maskedload %view_3[%282, %188], %284, %cst : memref<404x20xf16, #gpu.address_space<workgroup>>, vector<4xi1>, vector<4xf16> into vector<4xf16>
        %286 = vector.maskedload %view_3[%282, %190], %284, %cst : memref<404x20xf16, #gpu.address_space<workgroup>>, vector<4xi1>, vector<4xf16> into vector<4xf16>
        %287 = affine.apply #map40()[%thread_id_x]
        %288 = arith.cmpi slt, %287, %92 : index
        %289 = vector.broadcast %288 : i1 to vector<4xi1>
        %290 = vector.maskedload %view_3[%287, %188], %289, %cst : memref<404x20xf16, #gpu.address_space<workgroup>>, vector<4xi1>, vector<4xf16> into vector<4xf16>
        %291 = vector.maskedload %view_3[%287, %190], %289, %cst : memref<404x20xf16, #gpu.address_space<workgroup>>, vector<4xi1>, vector<4xf16> into vector<4xf16>
        %292 = affine.apply #map41()[%thread_id_x]
        %293 = arith.cmpi slt, %292, %92 : index
        %294 = vector.broadcast %293 : i1 to vector<4xi1>
        %295 = vector.maskedload %view_3[%292, %188], %294, %cst : memref<404x20xf16, #gpu.address_space<workgroup>>, vector<4xi1>, vector<4xf16> into vector<4xf16>
        %296 = vector.maskedload %view_3[%292, %190], %294, %cst : memref<404x20xf16, #gpu.address_space<workgroup>>, vector<4xi1>, vector<4xf16> into vector<4xf16>
        %297 = amdgpu.mfma %280 * %189 + %184#0 {blocks = 1 : i32, k = 8 : i32, m = 32 : i32, n = 32 : i32} blgp =  none : vector<4xf16>, vector<4xf16>, vector<16xf32>
        %298 = amdgpu.mfma %281 * %191 + %297 {blocks = 1 : i32, k = 8 : i32, m = 32 : i32, n = 32 : i32} blgp =  none : vector<4xf16>, vector<4xf16>, vector<16xf32>
        %299 = amdgpu.mfma %280 * %195 + %184#1 {blocks = 1 : i32, k = 8 : i32, m = 32 : i32, n = 32 : i32} blgp =  none : vector<4xf16>, vector<4xf16>, vector<16xf32>
        %300 = amdgpu.mfma %281 * %196 + %299 {blocks = 1 : i32, k = 8 : i32, m = 32 : i32, n = 32 : i32} blgp =  none : vector<4xf16>, vector<4xf16>, vector<16xf32>
        %301 = amdgpu.mfma %280 * %200 + %184#2 {blocks = 1 : i32, k = 8 : i32, m = 32 : i32, n = 32 : i32} blgp =  none : vector<4xf16>, vector<4xf16>, vector<16xf32>
        %302 = amdgpu.mfma %281 * %201 + %301 {blocks = 1 : i32, k = 8 : i32, m = 32 : i32, n = 32 : i32} blgp =  none : vector<4xf16>, vector<4xf16>, vector<16xf32>
        %303 = amdgpu.mfma %280 * %205 + %184#3 {blocks = 1 : i32, k = 8 : i32, m = 32 : i32, n = 32 : i32} blgp =  none : vector<4xf16>, vector<4xf16>, vector<16xf32>
        %304 = amdgpu.mfma %281 * %206 + %303 {blocks = 1 : i32, k = 8 : i32, m = 32 : i32, n = 32 : i32} blgp =  none : vector<4xf16>, vector<4xf16>, vector<16xf32>
        %305 = amdgpu.mfma %280 * %210 + %184#4 {blocks = 1 : i32, k = 8 : i32, m = 32 : i32, n = 32 : i32} blgp =  none : vector<4xf16>, vector<4xf16>, vector<16xf32>
        %306 = amdgpu.mfma %281 * %211 + %305 {blocks = 1 : i32, k = 8 : i32, m = 32 : i32, n = 32 : i32} blgp =  none : vector<4xf16>, vector<4xf16>, vector<16xf32>
        %307 = amdgpu.mfma %280 * %215 + %184#5 {blocks = 1 : i32, k = 8 : i32, m = 32 : i32, n = 32 : i32} blgp =  none : vector<4xf16>, vector<4xf16>, vector<16xf32>
        %308 = amdgpu.mfma %281 * %216 + %307 {blocks = 1 : i32, k = 8 : i32, m = 32 : i32, n = 32 : i32} blgp =  none : vector<4xf16>, vector<4xf16>, vector<16xf32>
        %309 = amdgpu.mfma %280 * %220 + %184#6 {blocks = 1 : i32, k = 8 : i32, m = 32 : i32, n = 32 : i32} blgp =  none : vector<4xf16>, vector<4xf16>, vector<16xf32>
        %310 = amdgpu.mfma %281 * %221 + %309 {blocks = 1 : i32, k = 8 : i32, m = 32 : i32, n = 32 : i32} blgp =  none : vector<4xf16>, vector<4xf16>, vector<16xf32>
        %311 = amdgpu.mfma %280 * %225 + %184#7 {blocks = 1 : i32, k = 8 : i32, m = 32 : i32, n = 32 : i32} blgp =  none : vector<4xf16>, vector<4xf16>, vector<16xf32>
        %312 = amdgpu.mfma %281 * %226 + %311 {blocks = 1 : i32, k = 8 : i32, m = 32 : i32, n = 32 : i32} blgp =  none : vector<4xf16>, vector<4xf16>, vector<16xf32>
        %313 = amdgpu.mfma %280 * %230 + %184#8 {blocks = 1 : i32, k = 8 : i32, m = 32 : i32, n = 32 : i32} blgp =  none : vector<4xf16>, vector<4xf16>, vector<16xf32>
        %314 = amdgpu.mfma %281 * %231 + %313 {blocks = 1 : i32, k = 8 : i32, m = 32 : i32, n = 32 : i32} blgp =  none : vector<4xf16>, vector<4xf16>, vector<16xf32>
        %315 = amdgpu.mfma %280 * %235 + %184#9 {blocks = 1 : i32, k = 8 : i32, m = 32 : i32, n = 32 : i32} blgp =  none : vector<4xf16>, vector<4xf16>, vector<16xf32>
        %316 = amdgpu.mfma %281 * %236 + %315 {blocks = 1 : i32, k = 8 : i32, m = 32 : i32, n = 32 : i32} blgp =  none : vector<4xf16>, vector<4xf16>, vector<16xf32>
        %317 = amdgpu.mfma %280 * %240 + %184#10 {blocks = 1 : i32, k = 8 : i32, m = 32 : i32, n = 32 : i32} blgp =  none : vector<4xf16>, vector<4xf16>, vector<16xf32>
        %318 = amdgpu.mfma %281 * %241 + %317 {blocks = 1 : i32, k = 8 : i32, m = 32 : i32, n = 32 : i32} blgp =  none : vector<4xf16>, vector<4xf16>, vector<16xf32>
        %319 = amdgpu.mfma %280 * %245 + %184#11 {blocks = 1 : i32, k = 8 : i32, m = 32 : i32, n = 32 : i32} blgp =  none : vector<4xf16>, vector<4xf16>, vector<16xf32>
        %320 = amdgpu.mfma %281 * %246 + %319 {blocks = 1 : i32, k = 8 : i32, m = 32 : i32, n = 32 : i32} blgp =  none : vector<4xf16>, vector<4xf16>, vector<16xf32>
        %321 = amdgpu.mfma %280 * %250 + %184#12 {blocks = 1 : i32, k = 8 : i32, m = 32 : i32, n = 32 : i32} blgp =  none : vector<4xf16>, vector<4xf16>, vector<16xf32>
        %322 = amdgpu.mfma %281 * %251 + %321 {blocks = 1 : i32, k = 8 : i32, m = 32 : i32, n = 32 : i32} blgp =  none : vector<4xf16>, vector<4xf16>, vector<16xf32>
        %323 = amdgpu.mfma %280 * %255 + %184#13 {blocks = 1 : i32, k = 8 : i32, m = 32 : i32, n = 32 : i32} blgp =  none : vector<4xf16>, vector<4xf16>, vector<16xf32>
        %324 = amdgpu.mfma %281 * %256 + %323 {blocks = 1 : i32, k = 8 : i32, m = 32 : i32, n = 32 : i32} blgp =  none : vector<4xf16>, vector<4xf16>, vector<16xf32>
        %325 = amdgpu.mfma %280 * %260 + %184#14 {blocks = 1 : i32, k = 8 : i32, m = 32 : i32, n = 32 : i32} blgp =  none : vector<4xf16>, vector<4xf16>, vector<16xf32>
        %326 = amdgpu.mfma %281 * %261 + %325 {blocks = 1 : i32, k = 8 : i32, m = 32 : i32, n = 32 : i32} blgp =  none : vector<4xf16>, vector<4xf16>, vector<16xf32>
        %327 = amdgpu.mfma %280 * %265 + %184#15 {blocks = 1 : i32, k = 8 : i32, m = 32 : i32, n = 32 : i32} blgp =  none : vector<4xf16>, vector<4xf16>, vector<16xf32>
        %328 = amdgpu.mfma %281 * %266 + %327 {blocks = 1 : i32, k = 8 : i32, m = 32 : i32, n = 32 : i32} blgp =  none : vector<4xf16>, vector<4xf16>, vector<16xf32>
        %329 = amdgpu.mfma %280 * %270 + %184#16 {blocks = 1 : i32, k = 8 : i32, m = 32 : i32, n = 32 : i32} blgp =  none : vector<4xf16>, vector<4xf16>, vector<16xf32>
        %330 = amdgpu.mfma %281 * %271 + %329 {blocks = 1 : i32, k = 8 : i32, m = 32 : i32, n = 32 : i32} blgp =  none : vector<4xf16>, vector<4xf16>, vector<16xf32>
        %331 = amdgpu.mfma %280 * %275 + %184#17 {blocks = 1 : i32, k = 8 : i32, m = 32 : i32, n = 32 : i32} blgp =  none : vector<4xf16>, vector<4xf16>, vector<16xf32>
        %332 = amdgpu.mfma %281 * %276 + %331 {blocks = 1 : i32, k = 8 : i32, m = 32 : i32, n = 32 : i32} blgp =  none : vector<4xf16>, vector<4xf16>, vector<16xf32>
        %333 = amdgpu.mfma %285 * %189 + %184#18 {blocks = 1 : i32, k = 8 : i32, m = 32 : i32, n = 32 : i32} blgp =  none : vector<4xf16>, vector<4xf16>, vector<16xf32>
        %334 = amdgpu.mfma %286 * %191 + %333 {blocks = 1 : i32, k = 8 : i32, m = 32 : i32, n = 32 : i32} blgp =  none : vector<4xf16>, vector<4xf16>, vector<16xf32>
        %335 = amdgpu.mfma %285 * %195 + %184#19 {blocks = 1 : i32, k = 8 : i32, m = 32 : i32, n = 32 : i32} blgp =  none : vector<4xf16>, vector<4xf16>, vector<16xf32>
        %336 = amdgpu.mfma %286 * %196 + %335 {blocks = 1 : i32, k = 8 : i32, m = 32 : i32, n = 32 : i32} blgp =  none : vector<4xf16>, vector<4xf16>, vector<16xf32>
        %337 = amdgpu.mfma %285 * %200 + %184#20 {blocks = 1 : i32, k = 8 : i32, m = 32 : i32, n = 32 : i32} blgp =  none : vector<4xf16>, vector<4xf16>, vector<16xf32>
        %338 = amdgpu.mfma %286 * %201 + %337 {blocks = 1 : i32, k = 8 : i32, m = 32 : i32, n = 32 : i32} blgp =  none : vector<4xf16>, vector<4xf16>, vector<16xf32>
        %339 = amdgpu.mfma %285 * %205 + %184#21 {blocks = 1 : i32, k = 8 : i32, m = 32 : i32, n = 32 : i32} blgp =  none : vector<4xf16>, vector<4xf16>, vector<16xf32>
        %340 = amdgpu.mfma %286 * %206 + %339 {blocks = 1 : i32, k = 8 : i32, m = 32 : i32, n = 32 : i32} blgp =  none : vector<4xf16>, vector<4xf16>, vector<16xf32>
        %341 = amdgpu.mfma %285 * %210 + %184#22 {blocks = 1 : i32, k = 8 : i32, m = 32 : i32, n = 32 : i32} blgp =  none : vector<4xf16>, vector<4xf16>, vector<16xf32>
        %342 = amdgpu.mfma %286 * %211 + %341 {blocks = 1 : i32, k = 8 : i32, m = 32 : i32, n = 32 : i32} blgp =  none : vector<4xf16>, vector<4xf16>, vector<16xf32>
        %343 = amdgpu.mfma %285 * %215 + %184#23 {blocks = 1 : i32, k = 8 : i32, m = 32 : i32, n = 32 : i32} blgp =  none : vector<4xf16>, vector<4xf16>, vector<16xf32>
        %344 = amdgpu.mfma %286 * %216 + %343 {blocks = 1 : i32, k = 8 : i32, m = 32 : i32, n = 32 : i32} blgp =  none : vector<4xf16>, vector<4xf16>, vector<16xf32>
        %345 = amdgpu.mfma %285 * %220 + %184#24 {blocks = 1 : i32, k = 8 : i32, m = 32 : i32, n = 32 : i32} blgp =  none : vector<4xf16>, vector<4xf16>, vector<16xf32>
        %346 = amdgpu.mfma %286 * %221 + %345 {blocks = 1 : i32, k = 8 : i32, m = 32 : i32, n = 32 : i32} blgp =  none : vector<4xf16>, vector<4xf16>, vector<16xf32>
        %347 = amdgpu.mfma %285 * %225 + %184#25 {blocks = 1 : i32, k = 8 : i32, m = 32 : i32, n = 32 : i32} blgp =  none : vector<4xf16>, vector<4xf16>, vector<16xf32>
        %348 = amdgpu.mfma %286 * %226 + %347 {blocks = 1 : i32, k = 8 : i32, m = 32 : i32, n = 32 : i32} blgp =  none : vector<4xf16>, vector<4xf16>, vector<16xf32>
        %349 = amdgpu.mfma %285 * %230 + %184#26 {blocks = 1 : i32, k = 8 : i32, m = 32 : i32, n = 32 : i32} blgp =  none : vector<4xf16>, vector<4xf16>, vector<16xf32>
        %350 = amdgpu.mfma %286 * %231 + %349 {blocks = 1 : i32, k = 8 : i32, m = 32 : i32, n = 32 : i32} blgp =  none : vector<4xf16>, vector<4xf16>, vector<16xf32>
        %351 = amdgpu.mfma %285 * %235 + %184#27 {blocks = 1 : i32, k = 8 : i32, m = 32 : i32, n = 32 : i32} blgp =  none : vector<4xf16>, vector<4xf16>, vector<16xf32>
        %352 = amdgpu.mfma %286 * %236 + %351 {blocks = 1 : i32, k = 8 : i32, m = 32 : i32, n = 32 : i32} blgp =  none : vector<4xf16>, vector<4xf16>, vector<16xf32>
        %353 = amdgpu.mfma %285 * %240 + %184#28 {blocks = 1 : i32, k = 8 : i32, m = 32 : i32, n = 32 : i32} blgp =  none : vector<4xf16>, vector<4xf16>, vector<16xf32>
        %354 = amdgpu.mfma %286 * %241 + %353 {blocks = 1 : i32, k = 8 : i32, m = 32 : i32, n = 32 : i32} blgp =  none : vector<4xf16>, vector<4xf16>, vector<16xf32>
        %355 = amdgpu.mfma %285 * %245 + %184#29 {blocks = 1 : i32, k = 8 : i32, m = 32 : i32, n = 32 : i32} blgp =  none : vector<4xf16>, vector<4xf16>, vector<16xf32>
        %356 = amdgpu.mfma %286 * %246 + %355 {blocks = 1 : i32, k = 8 : i32, m = 32 : i32, n = 32 : i32} blgp =  none : vector<4xf16>, vector<4xf16>, vector<16xf32>
        %357 = amdgpu.mfma %285 * %250 + %184#30 {blocks = 1 : i32, k = 8 : i32, m = 32 : i32, n = 32 : i32} blgp =  none : vector<4xf16>, vector<4xf16>, vector<16xf32>
        %358 = amdgpu.mfma %286 * %251 + %357 {blocks = 1 : i32, k = 8 : i32, m = 32 : i32, n = 32 : i32} blgp =  none : vector<4xf16>, vector<4xf16>, vector<16xf32>
        %359 = amdgpu.mfma %285 * %255 + %184#31 {blocks = 1 : i32, k = 8 : i32, m = 32 : i32, n = 32 : i32} blgp =  none : vector<4xf16>, vector<4xf16>, vector<16xf32>
        %360 = amdgpu.mfma %286 * %256 + %359 {blocks = 1 : i32, k = 8 : i32, m = 32 : i32, n = 32 : i32} blgp =  none : vector<4xf16>, vector<4xf16>, vector<16xf32>
        %361 = amdgpu.mfma %285 * %260 + %184#32 {blocks = 1 : i32, k = 8 : i32, m = 32 : i32, n = 32 : i32} blgp =  none : vector<4xf16>, vector<4xf16>, vector<16xf32>
        %362 = amdgpu.mfma %286 * %261 + %361 {blocks = 1 : i32, k = 8 : i32, m = 32 : i32, n = 32 : i32} blgp =  none : vector<4xf16>, vector<4xf16>, vector<16xf32>
        %363 = amdgpu.mfma %285 * %265 + %184#33 {blocks = 1 : i32, k = 8 : i32, m = 32 : i32, n = 32 : i32} blgp =  none : vector<4xf16>, vector<4xf16>, vector<16xf32>
        %364 = amdgpu.mfma %286 * %266 + %363 {blocks = 1 : i32, k = 8 : i32, m = 32 : i32, n = 32 : i32} blgp =  none : vector<4xf16>, vector<4xf16>, vector<16xf32>
        %365 = amdgpu.mfma %285 * %270 + %184#34 {blocks = 1 : i32, k = 8 : i32, m = 32 : i32, n = 32 : i32} blgp =  none : vector<4xf16>, vector<4xf16>, vector<16xf32>
        %366 = amdgpu.mfma %286 * %271 + %365 {blocks = 1 : i32, k = 8 : i32, m = 32 : i32, n = 32 : i32} blgp =  none : vector<4xf16>, vector<4xf16>, vector<16xf32>
        %367 = amdgpu.mfma %285 * %275 + %184#35 {blocks = 1 : i32, k = 8 : i32, m = 32 : i32, n = 32 : i32} blgp =  none : vector<4xf16>, vector<4xf16>, vector<16xf32>
        %368 = amdgpu.mfma %286 * %276 + %367 {blocks = 1 : i32, k = 8 : i32, m = 32 : i32, n = 32 : i32} blgp =  none : vector<4xf16>, vector<4xf16>, vector<16xf32>
        %369 = amdgpu.mfma %290 * %189 + %184#36 {blocks = 1 : i32, k = 8 : i32, m = 32 : i32, n = 32 : i32} blgp =  none : vector<4xf16>, vector<4xf16>, vector<16xf32>
        %370 = amdgpu.mfma %291 * %191 + %369 {blocks = 1 : i32, k = 8 : i32, m = 32 : i32, n = 32 : i32} blgp =  none : vector<4xf16>, vector<4xf16>, vector<16xf32>
        %371 = amdgpu.mfma %290 * %195 + %184#37 {blocks = 1 : i32, k = 8 : i32, m = 32 : i32, n = 32 : i32} blgp =  none : vector<4xf16>, vector<4xf16>, vector<16xf32>
        %372 = amdgpu.mfma %291 * %196 + %371 {blocks = 1 : i32, k = 8 : i32, m = 32 : i32, n = 32 : i32} blgp =  none : vector<4xf16>, vector<4xf16>, vector<16xf32>
        %373 = amdgpu.mfma %290 * %200 + %184#38 {blocks = 1 : i32, k = 8 : i32, m = 32 : i32, n = 32 : i32} blgp =  none : vector<4xf16>, vector<4xf16>, vector<16xf32>
        %374 = amdgpu.mfma %291 * %201 + %373 {blocks = 1 : i32, k = 8 : i32, m = 32 : i32, n = 32 : i32} blgp =  none : vector<4xf16>, vector<4xf16>, vector<16xf32>
        %375 = amdgpu.mfma %290 * %205 + %184#39 {blocks = 1 : i32, k = 8 : i32, m = 32 : i32, n = 32 : i32} blgp =  none : vector<4xf16>, vector<4xf16>, vector<16xf32>
        %376 = amdgpu.mfma %291 * %206 + %375 {blocks = 1 : i32, k = 8 : i32, m = 32 : i32, n = 32 : i32} blgp =  none : vector<4xf16>, vector<4xf16>, vector<16xf32>
        %377 = amdgpu.mfma %290 * %210 + %184#40 {blocks = 1 : i32, k = 8 : i32, m = 32 : i32, n = 32 : i32} blgp =  none : vector<4xf16>, vector<4xf16>, vector<16xf32>
        %378 = amdgpu.mfma %291 * %211 + %377 {blocks = 1 : i32, k = 8 : i32, m = 32 : i32, n = 32 : i32} blgp =  none : vector<4xf16>, vector<4xf16>, vector<16xf32>
        %379 = amdgpu.mfma %290 * %215 + %184#41 {blocks = 1 : i32, k = 8 : i32, m = 32 : i32, n = 32 : i32} blgp =  none : vector<4xf16>, vector<4xf16>, vector<16xf32>
        %380 = amdgpu.mfma %291 * %216 + %379 {blocks = 1 : i32, k = 8 : i32, m = 32 : i32, n = 32 : i32} blgp =  none : vector<4xf16>, vector<4xf16>, vector<16xf32>
        %381 = amdgpu.mfma %290 * %220 + %184#42 {blocks = 1 : i32, k = 8 : i32, m = 32 : i32, n = 32 : i32} blgp =  none : vector<4xf16>, vector<4xf16>, vector<16xf32>
        %382 = amdgpu.mfma %291 * %221 + %381 {blocks = 1 : i32, k = 8 : i32, m = 32 : i32, n = 32 : i32} blgp =  none : vector<4xf16>, vector<4xf16>, vector<16xf32>
        %383 = amdgpu.mfma %290 * %225 + %184#43 {blocks = 1 : i32, k = 8 : i32, m = 32 : i32, n = 32 : i32} blgp =  none : vector<4xf16>, vector<4xf16>, vector<16xf32>
        %384 = amdgpu.mfma %291 * %226 + %383 {blocks = 1 : i32, k = 8 : i32, m = 32 : i32, n = 32 : i32} blgp =  none : vector<4xf16>, vector<4xf16>, vector<16xf32>
        %385 = amdgpu.mfma %290 * %230 + %184#44 {blocks = 1 : i32, k = 8 : i32, m = 32 : i32, n = 32 : i32} blgp =  none : vector<4xf16>, vector<4xf16>, vector<16xf32>
        %386 = amdgpu.mfma %291 * %231 + %385 {blocks = 1 : i32, k = 8 : i32, m = 32 : i32, n = 32 : i32} blgp =  none : vector<4xf16>, vector<4xf16>, vector<16xf32>
        %387 = amdgpu.mfma %290 * %235 + %184#45 {blocks = 1 : i32, k = 8 : i32, m = 32 : i32, n = 32 : i32} blgp =  none : vector<4xf16>, vector<4xf16>, vector<16xf32>
        %388 = amdgpu.mfma %291 * %236 + %387 {blocks = 1 : i32, k = 8 : i32, m = 32 : i32, n = 32 : i32} blgp =  none : vector<4xf16>, vector<4xf16>, vector<16xf32>
        %389 = amdgpu.mfma %290 * %240 + %184#46 {blocks = 1 : i32, k = 8 : i32, m = 32 : i32, n = 32 : i32} blgp =  none : vector<4xf16>, vector<4xf16>, vector<16xf32>
        %390 = amdgpu.mfma %291 * %241 + %389 {blocks = 1 : i32, k = 8 : i32, m = 32 : i32, n = 32 : i32} blgp =  none : vector<4xf16>, vector<4xf16>, vector<16xf32>
        %391 = amdgpu.mfma %290 * %245 + %184#47 {blocks = 1 : i32, k = 8 : i32, m = 32 : i32, n = 32 : i32} blgp =  none : vector<4xf16>, vector<4xf16>, vector<16xf32>
        %392 = amdgpu.mfma %291 * %246 + %391 {blocks = 1 : i32, k = 8 : i32, m = 32 : i32, n = 32 : i32} blgp =  none : vector<4xf16>, vector<4xf16>, vector<16xf32>
        %393 = amdgpu.mfma %290 * %250 + %184#48 {blocks = 1 : i32, k = 8 : i32, m = 32 : i32, n = 32 : i32} blgp =  none : vector<4xf16>, vector<4xf16>, vector<16xf32>
        %394 = amdgpu.mfma %291 * %251 + %393 {blocks = 1 : i32, k = 8 : i32, m = 32 : i32, n = 32 : i32} blgp =  none : vector<4xf16>, vector<4xf16>, vector<16xf32>
        %395 = amdgpu.mfma %290 * %255 + %184#49 {blocks = 1 : i32, k = 8 : i32, m = 32 : i32, n = 32 : i32} blgp =  none : vector<4xf16>, vector<4xf16>, vector<16xf32>
        %396 = amdgpu.mfma %291 * %256 + %395 {blocks = 1 : i32, k = 8 : i32, m = 32 : i32, n = 32 : i32} blgp =  none : vector<4xf16>, vector<4xf16>, vector<16xf32>
        %397 = amdgpu.mfma %290 * %260 + %184#50 {blocks = 1 : i32, k = 8 : i32, m = 32 : i32, n = 32 : i32} blgp =  none : vector<4xf16>, vector<4xf16>, vector<16xf32>
        %398 = amdgpu.mfma %291 * %261 + %397 {blocks = 1 : i32, k = 8 : i32, m = 32 : i32, n = 32 : i32} blgp =  none : vector<4xf16>, vector<4xf16>, vector<16xf32>
        %399 = amdgpu.mfma %290 * %265 + %184#51 {blocks = 1 : i32, k = 8 : i32, m = 32 : i32, n = 32 : i32} blgp =  none : vector<4xf16>, vector<4xf16>, vector<16xf32>
        %400 = amdgpu.mfma %291 * %266 + %399 {blocks = 1 : i32, k = 8 : i32, m = 32 : i32, n = 32 : i32} blgp =  none : vector<4xf16>, vector<4xf16>, vector<16xf32>
        %401 = amdgpu.mfma %290 * %270 + %184#52 {blocks = 1 : i32, k = 8 : i32, m = 32 : i32, n = 32 : i32} blgp =  none : vector<4xf16>, vector<4xf16>, vector<16xf32>
        %402 = amdgpu.mfma %291 * %271 + %401 {blocks = 1 : i32, k = 8 : i32, m = 32 : i32, n = 32 : i32} blgp =  none : vector<4xf16>, vector<4xf16>, vector<16xf32>
        %403 = amdgpu.mfma %290 * %275 + %184#53 {blocks = 1 : i32, k = 8 : i32, m = 32 : i32, n = 32 : i32} blgp =  none : vector<4xf16>, vector<4xf16>, vector<16xf32>
        %404 = amdgpu.mfma %291 * %276 + %403 {blocks = 1 : i32, k = 8 : i32, m = 32 : i32, n = 32 : i32} blgp =  none : vector<4xf16>, vector<4xf16>, vector<16xf32>
        %405 = amdgpu.mfma %295 * %189 + %184#54 {blocks = 1 : i32, k = 8 : i32, m = 32 : i32, n = 32 : i32} blgp =  none : vector<4xf16>, vector<4xf16>, vector<16xf32>
        %406 = amdgpu.mfma %296 * %191 + %405 {blocks = 1 : i32, k = 8 : i32, m = 32 : i32, n = 32 : i32} blgp =  none : vector<4xf16>, vector<4xf16>, vector<16xf32>
        %407 = amdgpu.mfma %295 * %195 + %184#55 {blocks = 1 : i32, k = 8 : i32, m = 32 : i32, n = 32 : i32} blgp =  none : vector<4xf16>, vector<4xf16>, vector<16xf32>
        %408 = amdgpu.mfma %296 * %196 + %407 {blocks = 1 : i32, k = 8 : i32, m = 32 : i32, n = 32 : i32} blgp =  none : vector<4xf16>, vector<4xf16>, vector<16xf32>
        %409 = amdgpu.mfma %295 * %200 + %184#56 {blocks = 1 : i32, k = 8 : i32, m = 32 : i32, n = 32 : i32} blgp =  none : vector<4xf16>, vector<4xf16>, vector<16xf32>
        %410 = amdgpu.mfma %296 * %201 + %409 {blocks = 1 : i32, k = 8 : i32, m = 32 : i32, n = 32 : i32} blgp =  none : vector<4xf16>, vector<4xf16>, vector<16xf32>
        %411 = amdgpu.mfma %295 * %205 + %184#57 {blocks = 1 : i32, k = 8 : i32, m = 32 : i32, n = 32 : i32} blgp =  none : vector<4xf16>, vector<4xf16>, vector<16xf32>
        %412 = amdgpu.mfma %296 * %206 + %411 {blocks = 1 : i32, k = 8 : i32, m = 32 : i32, n = 32 : i32} blgp =  none : vector<4xf16>, vector<4xf16>, vector<16xf32>
        %413 = amdgpu.mfma %295 * %210 + %184#58 {blocks = 1 : i32, k = 8 : i32, m = 32 : i32, n = 32 : i32} blgp =  none : vector<4xf16>, vector<4xf16>, vector<16xf32>
        %414 = amdgpu.mfma %296 * %211 + %413 {blocks = 1 : i32, k = 8 : i32, m = 32 : i32, n = 32 : i32} blgp =  none : vector<4xf16>, vector<4xf16>, vector<16xf32>
        %415 = amdgpu.mfma %295 * %215 + %184#59 {blocks = 1 : i32, k = 8 : i32, m = 32 : i32, n = 32 : i32} blgp =  none : vector<4xf16>, vector<4xf16>, vector<16xf32>
        %416 = amdgpu.mfma %296 * %216 + %415 {blocks = 1 : i32, k = 8 : i32, m = 32 : i32, n = 32 : i32} blgp =  none : vector<4xf16>, vector<4xf16>, vector<16xf32>
        %417 = amdgpu.mfma %295 * %220 + %184#60 {blocks = 1 : i32, k = 8 : i32, m = 32 : i32, n = 32 : i32} blgp =  none : vector<4xf16>, vector<4xf16>, vector<16xf32>
        %418 = amdgpu.mfma %296 * %221 + %417 {blocks = 1 : i32, k = 8 : i32, m = 32 : i32, n = 32 : i32} blgp =  none : vector<4xf16>, vector<4xf16>, vector<16xf32>
        %419 = amdgpu.mfma %295 * %225 + %184#61 {blocks = 1 : i32, k = 8 : i32, m = 32 : i32, n = 32 : i32} blgp =  none : vector<4xf16>, vector<4xf16>, vector<16xf32>
        %420 = amdgpu.mfma %296 * %226 + %419 {blocks = 1 : i32, k = 8 : i32, m = 32 : i32, n = 32 : i32} blgp =  none : vector<4xf16>, vector<4xf16>, vector<16xf32>
        %421 = amdgpu.mfma %295 * %230 + %184#62 {blocks = 1 : i32, k = 8 : i32, m = 32 : i32, n = 32 : i32} blgp =  none : vector<4xf16>, vector<4xf16>, vector<16xf32>
        %422 = amdgpu.mfma %296 * %231 + %421 {blocks = 1 : i32, k = 8 : i32, m = 32 : i32, n = 32 : i32} blgp =  none : vector<4xf16>, vector<4xf16>, vector<16xf32>
        %423 = amdgpu.mfma %295 * %235 + %184#63 {blocks = 1 : i32, k = 8 : i32, m = 32 : i32, n = 32 : i32} blgp =  none : vector<4xf16>, vector<4xf16>, vector<16xf32>
        %424 = amdgpu.mfma %296 * %236 + %423 {blocks = 1 : i32, k = 8 : i32, m = 32 : i32, n = 32 : i32} blgp =  none : vector<4xf16>, vector<4xf16>, vector<16xf32>
        %425 = amdgpu.mfma %295 * %240 + %184#64 {blocks = 1 : i32, k = 8 : i32, m = 32 : i32, n = 32 : i32} blgp =  none : vector<4xf16>, vector<4xf16>, vector<16xf32>
        %426 = amdgpu.mfma %296 * %241 + %425 {blocks = 1 : i32, k = 8 : i32, m = 32 : i32, n = 32 : i32} blgp =  none : vector<4xf16>, vector<4xf16>, vector<16xf32>
        %427 = amdgpu.mfma %295 * %245 + %184#65 {blocks = 1 : i32, k = 8 : i32, m = 32 : i32, n = 32 : i32} blgp =  none : vector<4xf16>, vector<4xf16>, vector<16xf32>
        %428 = amdgpu.mfma %296 * %246 + %427 {blocks = 1 : i32, k = 8 : i32, m = 32 : i32, n = 32 : i32} blgp =  none : vector<4xf16>, vector<4xf16>, vector<16xf32>
        %429 = amdgpu.mfma %295 * %250 + %184#66 {blocks = 1 : i32, k = 8 : i32, m = 32 : i32, n = 32 : i32} blgp =  none : vector<4xf16>, vector<4xf16>, vector<16xf32>
        %430 = amdgpu.mfma %296 * %251 + %429 {blocks = 1 : i32, k = 8 : i32, m = 32 : i32, n = 32 : i32} blgp =  none : vector<4xf16>, vector<4xf16>, vector<16xf32>
        %431 = amdgpu.mfma %295 * %255 + %184#67 {blocks = 1 : i32, k = 8 : i32, m = 32 : i32, n = 32 : i32} blgp =  none : vector<4xf16>, vector<4xf16>, vector<16xf32>
        %432 = amdgpu.mfma %296 * %256 + %431 {blocks = 1 : i32, k = 8 : i32, m = 32 : i32, n = 32 : i32} blgp =  none : vector<4xf16>, vector<4xf16>, vector<16xf32>
        %433 = amdgpu.mfma %295 * %260 + %184#68 {blocks = 1 : i32, k = 8 : i32, m = 32 : i32, n = 32 : i32} blgp =  none : vector<4xf16>, vector<4xf16>, vector<16xf32>
        %434 = amdgpu.mfma %296 * %261 + %433 {blocks = 1 : i32, k = 8 : i32, m = 32 : i32, n = 32 : i32} blgp =  none : vector<4xf16>, vector<4xf16>, vector<16xf32>
        %435 = amdgpu.mfma %295 * %265 + %184#69 {blocks = 1 : i32, k = 8 : i32, m = 32 : i32, n = 32 : i32} blgp =  none : vector<4xf16>, vector<4xf16>, vector<16xf32>
        %436 = amdgpu.mfma %296 * %266 + %435 {blocks = 1 : i32, k = 8 : i32, m = 32 : i32, n = 32 : i32} blgp =  none : vector<4xf16>, vector<4xf16>, vector<16xf32>
        %437 = amdgpu.mfma %295 * %270 + %184#70 {blocks = 1 : i32, k = 8 : i32, m = 32 : i32, n = 32 : i32} blgp =  none : vector<4xf16>, vector<4xf16>, vector<16xf32>
        %438 = amdgpu.mfma %296 * %271 + %437 {blocks = 1 : i32, k = 8 : i32, m = 32 : i32, n = 32 : i32} blgp =  none : vector<4xf16>, vector<4xf16>, vector<16xf32>
        %439 = amdgpu.mfma %295 * %275 + %184#71 {blocks = 1 : i32, k = 8 : i32, m = 32 : i32, n = 32 : i32} blgp =  none : vector<4xf16>, vector<4xf16>, vector<16xf32>
        %440 = amdgpu.mfma %296 * %276 + %439 {blocks = 1 : i32, k = 8 : i32, m = 32 : i32, n = 32 : i32} blgp =  none : vector<4xf16>, vector<4xf16>, vector<16xf32>
        %441 = vector.extract_strided_slice %298 {offsets = [0], sizes = [1], strides = [1]} : vector<16xf32> to vector<1xf32>
        %442 = stream.binding.subspan %arg2[%c0] : !stream.binding -> memref<641x2880xf32, strided<[2880, 1], offset: ?>>
        %443 = affine.apply #map43()[%block_id_y, %thread_id_y]
        %444 = affine.apply #map44()[%block_id_y]
        %445 = arith.minsi %443, %444 : index
        %446 = arith.minsi %445, %c2880 : index
        %447 = affine.apply #map45()[%thread_id_x, %block_id_x, %block_id_y, %2, %thread_id_y]
        %448 = arith.cmpi slt, %447, %446 : index
        %449 = affine.apply #map46()[%block_id_x, %thread_id_x]
        %450 = affine.apply #map47()[%block_id_x]
        %451 = arith.minsi %449, %450 : index
        %452 = arith.minsi %451, %c641 : index
        %453 = affine.apply #map48()[%block_id_x, %block_id_y, %2, %thread_id_x]
        %454 = arith.cmpi slt, %453, %452 : index
        %455 = arith.andi %448, %454 : i1
        %456 = affine.apply #map49()[%block_id_x, %block_id_y, %2]
        %457 = affine.apply #map50()[%block_id_x, %block_id_y, %2]
        %458 = affine.apply #map51()[%thread_id_x]
        %459 = arith.muli %456, %c2880 overflow<nsw> : index
        %460 = arith.muli %458, %c2880 overflow<nsw> : index
        %461 = arith.addi %459, %457 overflow<nsw> : index
        %462 = arith.addi %460, %185 overflow<nsw> : index
        %base_buffer_9, %offset_10, %sizes_11:2, %strides_12:2 = memref.extract_strided_metadata %442 : memref<641x2880xf32, strided<[2880, 1], offset: ?>> -> memref<f32>, index, index, index, index, index
        %463 = arith.addi %461, %offset_10 overflow<nsw> : index
        %reinterpret_cast_13 = memref.reinterpret_cast %442 to offset: [%463], sizes: [%c536870910], strides: [1] : memref<641x2880xf32, strided<[2880, 1], offset: ?>> to memref<?xf32, strided<[1], offset: ?>>
        %464 = amdgpu.fat_raw_buffer_cast %reinterpret_cast_13 validBytes(%c2147483643_i32) cacheSwizzleStride(%c2880_i14) resetOffset : memref<?xf32, strided<[1], offset: ?>> to memref<?xf32, #amdgpu.address_space<fat_raw_buffer>>
        %465 = arith.select %455, %462, %c536870911 : index
        vector.store %441, %464[%465] : memref<?xf32, #amdgpu.address_space<fat_raw_buffer>>, vector<1xf32>
        %466 = vector.extract_strided_slice %298 {offsets = [1], sizes = [1], strides = [1]} : vector<16xf32> to vector<1xf32>
        %467 = affine.apply #map52()[%block_id_x, %block_id_y, %2, %thread_id_x]
        %468 = arith.cmpi slt, %467, %452 : index
        %469 = arith.andi %448, %468 : i1
        %470 = affine.apply #map53()[%thread_id_x]
        %471 = arith.muli %470, %c2880 overflow<nsw> : index
        %472 = arith.addi %471, %185 overflow<nsw> : index
        %473 = arith.select %469, %472, %c536870911 : index
        vector.store %466, %464[%473] : memref<?xf32, #amdgpu.address_space<fat_raw_buffer>>, vector<1xf32>
        %474 = vector.extract_strided_slice %298 {offsets = [2], sizes = [1], strides = [1]} : vector<16xf32> to vector<1xf32>
        %475 = affine.apply #map54()[%block_id_x, %block_id_y, %2, %thread_id_x]
        %476 = arith.cmpi slt, %475, %452 : index
        %477 = arith.andi %448, %476 : i1
        %478 = affine.apply #map55()[%thread_id_x]
        %479 = arith.muli %478, %c2880 overflow<nsw> : index
        %480 = arith.addi %479, %185 overflow<nsw> : index
        %481 = arith.select %477, %480, %c536870911 : index
        vector.store %474, %464[%481] : memref<?xf32, #amdgpu.address_space<fat_raw_buffer>>, vector<1xf32>
        %482 = vector.extract_strided_slice %298 {offsets = [3], sizes = [1], strides = [1]} : vector<16xf32> to vector<1xf32>
        %483 = affine.apply #map56()[%block_id_x, %block_id_y, %2, %thread_id_x]
        %484 = arith.cmpi slt, %483, %452 : index
        %485 = arith.andi %448, %484 : i1
        %486 = affine.apply #map57()[%thread_id_x]
        %487 = arith.muli %486, %c2880 overflow<nsw> : index
        %488 = arith.addi %487, %185 overflow<nsw> : index
        %489 = arith.select %485, %488, %c536870911 : index
        vector.store %482, %464[%489] : memref<?xf32, #amdgpu.address_space<fat_raw_buffer>>, vector<1xf32>
        %490 = vector.extract_strided_slice %298 {offsets = [4], sizes = [1], strides = [1]} : vector<16xf32> to vector<1xf32>
        %491 = affine.apply #map58()[%block_id_x, %block_id_y, %2, %thread_id_x]
        %492 = arith.cmpi slt, %491, %452 : index
        %493 = arith.andi %448, %492 : i1
        %494 = affine.apply #map59()[%thread_id_x]
        %495 = arith.muli %494, %c2880 overflow<nsw> : index
        %496 = arith.addi %495, %185 overflow<nsw> : index
        %497 = arith.select %493, %496, %c536870911 : index
        vector.store %490, %464[%497] : memref<?xf32, #amdgpu.address_space<fat_raw_buffer>>, vector<1xf32>
        %498 = vector.extract_strided_slice %298 {offsets = [5], sizes = [1], strides = [1]} : vector<16xf32> to vector<1xf32>
        %499 = affine.apply #map60()[%block_id_x, %block_id_y, %2, %thread_id_x]
        %500 = arith.cmpi slt, %499, %452 : index
        %501 = arith.andi %448, %500 : i1
        %502 = affine.apply #map61()[%thread_id_x]
        %503 = arith.muli %502, %c2880 overflow<nsw> : index
        %504 = arith.addi %503, %185 overflow<nsw> : index
        %505 = arith.select %501, %504, %c536870911 : index
        vector.store %498, %464[%505] : memref<?xf32, #amdgpu.address_space<fat_raw_buffer>>, vector<1xf32>
        %506 = vector.extract_strided_slice %298 {offsets = [6], sizes = [1], strides = [1]} : vector<16xf32> to vector<1xf32>
        %507 = affine.apply #map62()[%block_id_x, %block_id_y, %2, %thread_id_x]
        %508 = arith.cmpi slt, %507, %452 : index
        %509 = arith.andi %448, %508 : i1
        %510 = affine.apply #map63()[%thread_id_x]
        %511 = arith.muli %510, %c2880 overflow<nsw> : index
        %512 = arith.addi %511, %185 overflow<nsw> : index
        %513 = arith.select %509, %512, %c536870911 : index
        vector.store %506, %464[%513] : memref<?xf32, #amdgpu.address_space<fat_raw_buffer>>, vector<1xf32>
        %514 = vector.extract_strided_slice %298 {offsets = [7], sizes = [1], strides = [1]} : vector<16xf32> to vector<1xf32>
        %515 = affine.apply #map64()[%block_id_x, %block_id_y, %2, %thread_id_x]
        %516 = arith.cmpi slt, %515, %452 : index
        %517 = arith.andi %448, %516 : i1
        %518 = affine.apply #map65()[%thread_id_x]
        %519 = arith.muli %518, %c2880 overflow<nsw> : index
        %520 = arith.addi %519, %185 overflow<nsw> : index
        %521 = arith.select %517, %520, %c536870911 : index
        vector.store %514, %464[%521] : memref<?xf32, #amdgpu.address_space<fat_raw_buffer>>, vector<1xf32>
        %522 = vector.extract_strided_slice %298 {offsets = [8], sizes = [1], strides = [1]} : vector<16xf32> to vector<1xf32>
        %523 = affine.apply #map66()[%block_id_x, %block_id_y, %2, %thread_id_x]
        %524 = arith.cmpi slt, %523, %452 : index
        %525 = arith.andi %448, %524 : i1
        %526 = affine.apply #map67()[%thread_id_x]
        %527 = arith.muli %526, %c2880 overflow<nsw> : index
        %528 = arith.addi %527, %185 overflow<nsw> : index
        %529 = arith.select %525, %528, %c536870911 : index
        vector.store %522, %464[%529] : memref<?xf32, #amdgpu.address_space<fat_raw_buffer>>, vector<1xf32>
        %530 = vector.extract_strided_slice %298 {offsets = [9], sizes = [1], strides = [1]} : vector<16xf32> to vector<1xf32>
        %531 = affine.apply #map68()[%block_id_x, %block_id_y, %2, %thread_id_x]
        %532 = arith.cmpi slt, %531, %452 : index
        %533 = arith.andi %448, %532 : i1
        %534 = affine.apply #map69()[%thread_id_x]
        %535 = arith.muli %534, %c2880 overflow<nsw> : index
        %536 = arith.addi %535, %185 overflow<nsw> : index
        %537 = arith.select %533, %536, %c536870911 : index
        vector.store %530, %464[%537] : memref<?xf32, #amdgpu.address_space<fat_raw_buffer>>, vector<1xf32>
        %538 = vector.extract_strided_slice %298 {offsets = [10], sizes = [1], strides = [1]} : vector<16xf32> to vector<1xf32>
        %539 = affine.apply #map70()[%block_id_x, %block_id_y, %2, %thread_id_x]
        %540 = arith.cmpi slt, %539, %452 : index
        %541 = arith.andi %448, %540 : i1
        %542 = affine.apply #map71()[%thread_id_x]
        %543 = arith.muli %542, %c2880 overflow<nsw> : index
        %544 = arith.addi %543, %185 overflow<nsw> : index
        %545 = arith.select %541, %544, %c536870911 : index
        vector.store %538, %464[%545] : memref<?xf32, #amdgpu.address_space<fat_raw_buffer>>, vector<1xf32>
        %546 = vector.extract_strided_slice %298 {offsets = [11], sizes = [1], strides = [1]} : vector<16xf32> to vector<1xf32>
        %547 = affine.apply #map72()[%block_id_x, %block_id_y, %2, %thread_id_x]
        %548 = arith.cmpi slt, %547, %452 : index
        %549 = arith.andi %448, %548 : i1
        %550 = affine.apply #map73()[%thread_id_x]
        %551 = arith.muli %550, %c2880 overflow<nsw> : index
        %552 = arith.addi %551, %185 overflow<nsw> : index
        %553 = arith.select %549, %552, %c536870911 : index
        vector.store %546, %464[%553] : memref<?xf32, #amdgpu.address_space<fat_raw_buffer>>, vector<1xf32>
        %554 = vector.extract_strided_slice %298 {offsets = [12], sizes = [1], strides = [1]} : vector<16xf32> to vector<1xf32>
        %555 = affine.apply #map74()[%block_id_x, %block_id_y, %2, %thread_id_x]
        %556 = arith.cmpi slt, %555, %452 : index
        %557 = arith.andi %448, %556 : i1
        %558 = affine.apply #map75()[%thread_id_x]
        %559 = arith.muli %558, %c2880 overflow<nsw> : index
        %560 = arith.addi %559, %185 overflow<nsw> : index
        %561 = arith.select %557, %560, %c536870911 : index
        vector.store %554, %464[%561] : memref<?xf32, #amdgpu.address_space<fat_raw_buffer>>, vector<1xf32>
        %562 = vector.extract_strided_slice %298 {offsets = [13], sizes = [1], strides = [1]} : vector<16xf32> to vector<1xf32>
        %563 = affine.apply #map76()[%block_id_x, %block_id_y, %2, %thread_id_x]
        %564 = arith.cmpi slt, %563, %452 : index
        %565 = arith.andi %448, %564 : i1
        %566 = affine.apply #map77()[%thread_id_x]
        %567 = arith.muli %566, %c2880 overflow<nsw> : index
        %568 = arith.addi %567, %185 overflow<nsw> : index
        %569 = arith.select %565, %568, %c536870911 : index
        vector.store %562, %464[%569] : memref<?xf32, #amdgpu.address_space<fat_raw_buffer>>, vector<1xf32>
        %570 = vector.extract_strided_slice %298 {offsets = [14], sizes = [1], strides = [1]} : vector<16xf32> to vector<1xf32>
        %571 = affine.apply #map78()[%block_id_x, %block_id_y, %2, %thread_id_x]
        %572 = arith.cmpi slt, %571, %452 : index
        %573 = arith.andi %448, %572 : i1
        %574 = affine.apply #map79()[%thread_id_x]
        %575 = arith.muli %574, %c2880 overflow<nsw> : index
        %576 = arith.addi %575, %185 overflow<nsw> : index
        %577 = arith.select %573, %576, %c536870911 : index
        vector.store %570, %464[%577] : memref<?xf32, #amdgpu.address_space<fat_raw_buffer>>, vector<1xf32>
        %578 = vector.extract_strided_slice %298 {offsets = [15], sizes = [1], strides = [1]} : vector<16xf32> to vector<1xf32>
        %579 = affine.apply #map80()[%block_id_x, %block_id_y, %2, %thread_id_x]
        %580 = arith.cmpi slt, %579, %452 : index
        %581 = arith.andi %448, %580 : i1
        %582 = affine.apply #map81()[%thread_id_x]
        %583 = arith.muli %582, %c2880 overflow<nsw> : index
        %584 = arith.addi %583, %185 overflow<nsw> : index
        %585 = arith.select %581, %584, %c536870911 : index
        vector.store %578, %464[%585] : memref<?xf32, #amdgpu.address_space<fat_raw_buffer>>, vector<1xf32>
        %586 = vector.extract_strided_slice %300 {offsets = [0], sizes = [1], strides = [1]} : vector<16xf32> to vector<1xf32>
        %587 = affine.apply #map82()[%thread_id_x, %block_id_x, %block_id_y, %2, %thread_id_y]
        %588 = arith.cmpi slt, %587, %446 : index
        %589 = arith.andi %588, %454 : i1
        %590 = arith.addi %460, %192 overflow<nsw> : index
        %591 = arith.select %589, %590, %c536870911 : index
        vector.store %586, %464[%591] : memref<?xf32, #amdgpu.address_space<fat_raw_buffer>>, vector<1xf32>
        %592 = vector.extract_strided_slice %300 {offsets = [1], sizes = [1], strides = [1]} : vector<16xf32> to vector<1xf32>
        %593 = arith.andi %588, %468 : i1
        %594 = arith.addi %471, %192 overflow<nsw> : index
        %595 = arith.select %593, %594, %c536870911 : index
        vector.store %592, %464[%595] : memref<?xf32, #amdgpu.address_space<fat_raw_buffer>>, vector<1xf32>
        %596 = vector.extract_strided_slice %300 {offsets = [2], sizes = [1], strides = [1]} : vector<16xf32> to vector<1xf32>
        %597 = arith.andi %588, %476 : i1
        %598 = arith.addi %479, %192 overflow<nsw> : index
        %599 = arith.select %597, %598, %c536870911 : index
        vector.store %596, %464[%599] : memref<?xf32, #amdgpu.address_space<fat_raw_buffer>>, vector<1xf32>
        %600 = vector.extract_strided_slice %300 {offsets = [3], sizes = [1], strides = [1]} : vector<16xf32> to vector<1xf32>
        %601 = arith.andi %588, %484 : i1
        %602 = arith.addi %487, %192 overflow<nsw> : index
        %603 = arith.select %601, %602, %c536870911 : index
        vector.store %600, %464[%603] : memref<?xf32, #amdgpu.address_space<fat_raw_buffer>>, vector<1xf32>
        %604 = vector.extract_strided_slice %300 {offsets = [4], sizes = [1], strides = [1]} : vector<16xf32> to vector<1xf32>
        %605 = arith.andi %588, %492 : i1
        %606 = arith.addi %495, %192 overflow<nsw> : index
        %607 = arith.select %605, %606, %c536870911 : index
        vector.store %604, %464[%607] : memref<?xf32, #amdgpu.address_space<fat_raw_buffer>>, vector<1xf32>
        %608 = vector.extract_strided_slice %300 {offsets = [5], sizes = [1], strides = [1]} : vector<16xf32> to vector<1xf32>
        %609 = arith.andi %588, %500 : i1
        %610 = arith.addi %503, %192 overflow<nsw> : index
        %611 = arith.select %609, %610, %c536870911 : index
        vector.store %608, %464[%611] : memref<?xf32, #amdgpu.address_space<fat_raw_buffer>>, vector<1xf32>
        %612 = vector.extract_strided_slice %300 {offsets = [6], sizes = [1], strides = [1]} : vector<16xf32> to vector<1xf32>
        %613 = arith.andi %588, %508 : i1
        %614 = arith.addi %511, %192 overflow<nsw> : index
        %615 = arith.select %613, %614, %c536870911 : index
        vector.store %612, %464[%615] : memref<?xf32, #amdgpu.address_space<fat_raw_buffer>>, vector<1xf32>
        %616 = vector.extract_strided_slice %300 {offsets = [7], sizes = [1], strides = [1]} : vector<16xf32> to vector<1xf32>
        %617 = arith.andi %588, %516 : i1
        %618 = arith.addi %519, %192 overflow<nsw> : index
        %619 = arith.select %617, %618, %c536870911 : index
        vector.store %616, %464[%619] : memref<?xf32, #amdgpu.address_space<fat_raw_buffer>>, vector<1xf32>
        %620 = vector.extract_strided_slice %300 {offsets = [8], sizes = [1], strides = [1]} : vector<16xf32> to vector<1xf32>
        %621 = arith.andi %588, %524 : i1
        %622 = arith.addi %527, %192 overflow<nsw> : index
        %623 = arith.select %621, %622, %c536870911 : index
        vector.store %620, %464[%623] : memref<?xf32, #amdgpu.address_space<fat_raw_buffer>>, vector<1xf32>
        %624 = vector.extract_strided_slice %300 {offsets = [9], sizes = [1], strides = [1]} : vector<16xf32> to vector<1xf32>
        %625 = arith.andi %588, %532 : i1
        %626 = arith.addi %535, %192 overflow<nsw> : index
        %627 = arith.select %625, %626, %c536870911 : index
        vector.store %624, %464[%627] : memref<?xf32, #amdgpu.address_space<fat_raw_buffer>>, vector<1xf32>
        %628 = vector.extract_strided_slice %300 {offsets = [10], sizes = [1], strides = [1]} : vector<16xf32> to vector<1xf32>
        %629 = arith.andi %588, %540 : i1
        %630 = arith.addi %543, %192 overflow<nsw> : index
        %631 = arith.select %629, %630, %c536870911 : index
        vector.store %628, %464[%631] : memref<?xf32, #amdgpu.address_space<fat_raw_buffer>>, vector<1xf32>
        %632 = vector.extract_strided_slice %300 {offsets = [11], sizes = [1], strides = [1]} : vector<16xf32> to vector<1xf32>
        %633 = arith.andi %588, %548 : i1
        %634 = arith.addi %551, %192 overflow<nsw> : index
        %635 = arith.select %633, %634, %c536870911 : index
        vector.store %632, %464[%635] : memref<?xf32, #amdgpu.address_space<fat_raw_buffer>>, vector<1xf32>
        %636 = vector.extract_strided_slice %300 {offsets = [12], sizes = [1], strides = [1]} : vector<16xf32> to vector<1xf32>
        %637 = arith.andi %588, %556 : i1
        %638 = arith.addi %559, %192 overflow<nsw> : index
        %639 = arith.select %637, %638, %c536870911 : index
        vector.store %636, %464[%639] : memref<?xf32, #amdgpu.address_space<fat_raw_buffer>>, vector<1xf32>
        %640 = vector.extract_strided_slice %300 {offsets = [13], sizes = [1], strides = [1]} : vector<16xf32> to vector<1xf32>
        %641 = arith.andi %588, %564 : i1
        %642 = arith.addi %567, %192 overflow<nsw> : index
        %643 = arith.select %641, %642, %c536870911 : index
        vector.store %640, %464[%643] : memref<?xf32, #amdgpu.address_space<fat_raw_buffer>>, vector<1xf32>
        %644 = vector.extract_strided_slice %300 {offsets = [14], sizes = [1], strides = [1]} : vector<16xf32> to vector<1xf32>
        %645 = arith.andi %588, %572 : i1
        %646 = arith.addi %575, %192 overflow<nsw> : index
        %647 = arith.select %645, %646, %c536870911 : index
        vector.store %644, %464[%647] : memref<?xf32, #amdgpu.address_space<fat_raw_buffer>>, vector<1xf32>
        %648 = vector.extract_strided_slice %300 {offsets = [15], sizes = [1], strides = [1]} : vector<16xf32> to vector<1xf32>
        %649 = arith.andi %588, %580 : i1
        %650 = arith.addi %583, %192 overflow<nsw> : index
        %651 = arith.select %649, %650, %c536870911 : index
        vector.store %648, %464[%651] : memref<?xf32, #amdgpu.address_space<fat_raw_buffer>>, vector<1xf32>
        %652 = vector.extract_strided_slice %302 {offsets = [0], sizes = [1], strides = [1]} : vector<16xf32> to vector<1xf32>
        %653 = affine.apply #map83()[%thread_id_x, %block_id_x, %block_id_y, %2, %thread_id_y]
        %654 = arith.cmpi slt, %653, %446 : index
        %655 = arith.andi %654, %454 : i1
        %656 = arith.addi %460, %197 overflow<nsw> : index
        %657 = arith.select %655, %656, %c536870911 : index
        vector.store %652, %464[%657] : memref<?xf32, #amdgpu.address_space<fat_raw_buffer>>, vector<1xf32>
        %658 = vector.extract_strided_slice %302 {offsets = [1], sizes = [1], strides = [1]} : vector<16xf32> to vector<1xf32>
        %659 = arith.andi %654, %468 : i1
        %660 = arith.addi %471, %197 overflow<nsw> : index
        %661 = arith.select %659, %660, %c536870911 : index
        vector.store %658, %464[%661] : memref<?xf32, #amdgpu.address_space<fat_raw_buffer>>, vector<1xf32>
        %662 = vector.extract_strided_slice %302 {offsets = [2], sizes = [1], strides = [1]} : vector<16xf32> to vector<1xf32>
        %663 = arith.andi %654, %476 : i1
        %664 = arith.addi %479, %197 overflow<nsw> : index
        %665 = arith.select %663, %664, %c536870911 : index
        vector.store %662, %464[%665] : memref<?xf32, #amdgpu.address_space<fat_raw_buffer>>, vector<1xf32>
        %666 = vector.extract_strided_slice %302 {offsets = [3], sizes = [1], strides = [1]} : vector<16xf32> to vector<1xf32>
        %667 = arith.andi %654, %484 : i1
        %668 = arith.addi %487, %197 overflow<nsw> : index
        %669 = arith.select %667, %668, %c536870911 : index
        vector.store %666, %464[%669] : memref<?xf32, #amdgpu.address_space<fat_raw_buffer>>, vector<1xf32>
        %670 = vector.extract_strided_slice %302 {offsets = [4], sizes = [1], strides = [1]} : vector<16xf32> to vector<1xf32>
        %671 = arith.andi %654, %492 : i1
        %672 = arith.addi %495, %197 overflow<nsw> : index
        %673 = arith.select %671, %672, %c536870911 : index
        vector.store %670, %464[%673] : memref<?xf32, #amdgpu.address_space<fat_raw_buffer>>, vector<1xf32>
        %674 = vector.extract_strided_slice %302 {offsets = [5], sizes = [1], strides = [1]} : vector<16xf32> to vector<1xf32>
        %675 = arith.andi %654, %500 : i1
        %676 = arith.addi %503, %197 overflow<nsw> : index
        %677 = arith.select %675, %676, %c536870911 : index
        vector.store %674, %464[%677] : memref<?xf32, #amdgpu.address_space<fat_raw_buffer>>, vector<1xf32>
        %678 = vector.extract_strided_slice %302 {offsets = [6], sizes = [1], strides = [1]} : vector<16xf32> to vector<1xf32>
        %679 = arith.andi %654, %508 : i1
        %680 = arith.addi %511, %197 overflow<nsw> : index
        %681 = arith.select %679, %680, %c536870911 : index
        vector.store %678, %464[%681] : memref<?xf32, #amdgpu.address_space<fat_raw_buffer>>, vector<1xf32>
        %682 = vector.extract_strided_slice %302 {offsets = [7], sizes = [1], strides = [1]} : vector<16xf32> to vector<1xf32>
        %683 = arith.andi %654, %516 : i1
        %684 = arith.addi %519, %197 overflow<nsw> : index
        %685 = arith.select %683, %684, %c536870911 : index
        vector.store %682, %464[%685] : memref<?xf32, #amdgpu.address_space<fat_raw_buffer>>, vector<1xf32>
        %686 = vector.extract_strided_slice %302 {offsets = [8], sizes = [1], strides = [1]} : vector<16xf32> to vector<1xf32>
        %687 = arith.andi %654, %524 : i1
        %688 = arith.addi %527, %197 overflow<nsw> : index
        %689 = arith.select %687, %688, %c536870911 : index
        vector.store %686, %464[%689] : memref<?xf32, #amdgpu.address_space<fat_raw_buffer>>, vector<1xf32>
        %690 = vector.extract_strided_slice %302 {offsets = [9], sizes = [1], strides = [1]} : vector<16xf32> to vector<1xf32>
        %691 = arith.andi %654, %532 : i1
        %692 = arith.addi %535, %197 overflow<nsw> : index
        %693 = arith.select %691, %692, %c536870911 : index
        vector.store %690, %464[%693] : memref<?xf32, #amdgpu.address_space<fat_raw_buffer>>, vector<1xf32>
        %694 = vector.extract_strided_slice %302 {offsets = [10], sizes = [1], strides = [1]} : vector<16xf32> to vector<1xf32>
        %695 = arith.andi %654, %540 : i1
        %696 = arith.addi %543, %197 overflow<nsw> : index
        %697 = arith.select %695, %696, %c536870911 : index
        vector.store %694, %464[%697] : memref<?xf32, #amdgpu.address_space<fat_raw_buffer>>, vector<1xf32>
        %698 = vector.extract_strided_slice %302 {offsets = [11], sizes = [1], strides = [1]} : vector<16xf32> to vector<1xf32>
        %699 = arith.andi %654, %548 : i1
        %700 = arith.addi %551, %197 overflow<nsw> : index
        %701 = arith.select %699, %700, %c536870911 : index
        vector.store %698, %464[%701] : memref<?xf32, #amdgpu.address_space<fat_raw_buffer>>, vector<1xf32>
        %702 = vector.extract_strided_slice %302 {offsets = [12], sizes = [1], strides = [1]} : vector<16xf32> to vector<1xf32>
        %703 = arith.andi %654, %556 : i1
        %704 = arith.addi %559, %197 overflow<nsw> : index
        %705 = arith.select %703, %704, %c536870911 : index
        vector.store %702, %464[%705] : memref<?xf32, #amdgpu.address_space<fat_raw_buffer>>, vector<1xf32>
        %706 = vector.extract_strided_slice %302 {offsets = [13], sizes = [1], strides = [1]} : vector<16xf32> to vector<1xf32>
        %707 = arith.andi %654, %564 : i1
        %708 = arith.addi %567, %197 overflow<nsw> : index
        %709 = arith.select %707, %708, %c536870911 : index
        vector.store %706, %464[%709] : memref<?xf32, #amdgpu.address_space<fat_raw_buffer>>, vector<1xf32>
        %710 = vector.extract_strided_slice %302 {offsets = [14], sizes = [1], strides = [1]} : vector<16xf32> to vector<1xf32>
        %711 = arith.andi %654, %572 : i1
        %712 = arith.addi %575, %197 overflow<nsw> : index
        %713 = arith.select %711, %712, %c536870911 : index
        vector.store %710, %464[%713] : memref<?xf32, #amdgpu.address_space<fat_raw_buffer>>, vector<1xf32>
        %714 = vector.extract_strided_slice %302 {offsets = [15], sizes = [1], strides = [1]} : vector<16xf32> to vector<1xf32>
        %715 = arith.andi %654, %580 : i1
        %716 = arith.addi %583, %197 overflow<nsw> : index
        %717 = arith.select %715, %716, %c536870911 : index
        vector.store %714, %464[%717] : memref<?xf32, #amdgpu.address_space<fat_raw_buffer>>, vector<1xf32>
        %718 = vector.extract_strided_slice %304 {offsets = [0], sizes = [1], strides = [1]} : vector<16xf32> to vector<1xf32>
        %719 = affine.apply #map84()[%thread_id_x, %block_id_x, %block_id_y, %2, %thread_id_y]
        %720 = arith.cmpi slt, %719, %446 : index
        %721 = arith.andi %720, %454 : i1
        %722 = arith.addi %460, %202 overflow<nsw> : index
        %723 = arith.select %721, %722, %c536870911 : index
        vector.store %718, %464[%723] : memref<?xf32, #amdgpu.address_space<fat_raw_buffer>>, vector<1xf32>
        %724 = vector.extract_strided_slice %304 {offsets = [1], sizes = [1], strides = [1]} : vector<16xf32> to vector<1xf32>
        %725 = arith.andi %720, %468 : i1
        %726 = arith.addi %471, %202 overflow<nsw> : index
        %727 = arith.select %725, %726, %c536870911 : index
        vector.store %724, %464[%727] : memref<?xf32, #amdgpu.address_space<fat_raw_buffer>>, vector<1xf32>
        %728 = vector.extract_strided_slice %304 {offsets = [2], sizes = [1], strides = [1]} : vector<16xf32> to vector<1xf32>
        %729 = arith.andi %720, %476 : i1
        %730 = arith.addi %479, %202 overflow<nsw> : index
        %731 = arith.select %729, %730, %c536870911 : index
        vector.store %728, %464[%731] : memref<?xf32, #amdgpu.address_space<fat_raw_buffer>>, vector<1xf32>
        %732 = vector.extract_strided_slice %304 {offsets = [3], sizes = [1], strides = [1]} : vector<16xf32> to vector<1xf32>
        %733 = arith.andi %720, %484 : i1
        %734 = arith.addi %487, %202 overflow<nsw> : index
        %735 = arith.select %733, %734, %c536870911 : index
        vector.store %732, %464[%735] : memref<?xf32, #amdgpu.address_space<fat_raw_buffer>>, vector<1xf32>
        %736 = vector.extract_strided_slice %304 {offsets = [4], sizes = [1], strides = [1]} : vector<16xf32> to vector<1xf32>
        %737 = arith.andi %720, %492 : i1
        %738 = arith.addi %495, %202 overflow<nsw> : index
        %739 = arith.select %737, %738, %c536870911 : index
        vector.store %736, %464[%739] : memref<?xf32, #amdgpu.address_space<fat_raw_buffer>>, vector<1xf32>
        %740 = vector.extract_strided_slice %304 {offsets = [5], sizes = [1], strides = [1]} : vector<16xf32> to vector<1xf32>
        %741 = arith.andi %720, %500 : i1
        %742 = arith.addi %503, %202 overflow<nsw> : index
        %743 = arith.select %741, %742, %c536870911 : index
        vector.store %740, %464[%743] : memref<?xf32, #amdgpu.address_space<fat_raw_buffer>>, vector<1xf32>
        %744 = vector.extract_strided_slice %304 {offsets = [6], sizes = [1], strides = [1]} : vector<16xf32> to vector<1xf32>
        %745 = arith.andi %720, %508 : i1
        %746 = arith.addi %511, %202 overflow<nsw> : index
        %747 = arith.select %745, %746, %c536870911 : index
        vector.store %744, %464[%747] : memref<?xf32, #amdgpu.address_space<fat_raw_buffer>>, vector<1xf32>
        %748 = vector.extract_strided_slice %304 {offsets = [7], sizes = [1], strides = [1]} : vector<16xf32> to vector<1xf32>
        %749 = arith.andi %720, %516 : i1
        %750 = arith.addi %519, %202 overflow<nsw> : index
        %751 = arith.select %749, %750, %c536870911 : index
        vector.store %748, %464[%751] : memref<?xf32, #amdgpu.address_space<fat_raw_buffer>>, vector<1xf32>
        %752 = vector.extract_strided_slice %304 {offsets = [8], sizes = [1], strides = [1]} : vector<16xf32> to vector<1xf32>
        %753 = arith.andi %720, %524 : i1
        %754 = arith.addi %527, %202 overflow<nsw> : index
        %755 = arith.select %753, %754, %c536870911 : index
        vector.store %752, %464[%755] : memref<?xf32, #amdgpu.address_space<fat_raw_buffer>>, vector<1xf32>
        %756 = vector.extract_strided_slice %304 {offsets = [9], sizes = [1], strides = [1]} : vector<16xf32> to vector<1xf32>
        %757 = arith.andi %720, %532 : i1
        %758 = arith.addi %535, %202 overflow<nsw> : index
        %759 = arith.select %757, %758, %c536870911 : index
        vector.store %756, %464[%759] : memref<?xf32, #amdgpu.address_space<fat_raw_buffer>>, vector<1xf32>
        %760 = vector.extract_strided_slice %304 {offsets = [10], sizes = [1], strides = [1]} : vector<16xf32> to vector<1xf32>
        %761 = arith.andi %720, %540 : i1
        %762 = arith.addi %543, %202 overflow<nsw> : index
        %763 = arith.select %761, %762, %c536870911 : index
        vector.store %760, %464[%763] : memref<?xf32, #amdgpu.address_space<fat_raw_buffer>>, vector<1xf32>
        %764 = vector.extract_strided_slice %304 {offsets = [11], sizes = [1], strides = [1]} : vector<16xf32> to vector<1xf32>
        %765 = arith.andi %720, %548 : i1
        %766 = arith.addi %551, %202 overflow<nsw> : index
        %767 = arith.select %765, %766, %c536870911 : index
        vector.store %764, %464[%767] : memref<?xf32, #amdgpu.address_space<fat_raw_buffer>>, vector<1xf32>
        %768 = vector.extract_strided_slice %304 {offsets = [12], sizes = [1], strides = [1]} : vector<16xf32> to vector<1xf32>
        %769 = arith.andi %720, %556 : i1
        %770 = arith.addi %559, %202 overflow<nsw> : index
        %771 = arith.select %769, %770, %c536870911 : index
        vector.store %768, %464[%771] : memref<?xf32, #amdgpu.address_space<fat_raw_buffer>>, vector<1xf32>
        %772 = vector.extract_strided_slice %304 {offsets = [13], sizes = [1], strides = [1]} : vector<16xf32> to vector<1xf32>
        %773 = arith.andi %720, %564 : i1
        %774 = arith.addi %567, %202 overflow<nsw> : index
        %775 = arith.select %773, %774, %c536870911 : index
        vector.store %772, %464[%775] : memref<?xf32, #amdgpu.address_space<fat_raw_buffer>>, vector<1xf32>
        %776 = vector.extract_strided_slice %304 {offsets = [14], sizes = [1], strides = [1]} : vector<16xf32> to vector<1xf32>
        %777 = arith.andi %720, %572 : i1
        %778 = arith.addi %575, %202 overflow<nsw> : index
        %779 = arith.select %777, %778, %c536870911 : index
        vector.store %776, %464[%779] : memref<?xf32, #amdgpu.address_space<fat_raw_buffer>>, vector<1xf32>
        %780 = vector.extract_strided_slice %304 {offsets = [15], sizes = [1], strides = [1]} : vector<16xf32> to vector<1xf32>
        %781 = arith.andi %720, %580 : i1
        %782 = arith.addi %583, %202 overflow<nsw> : index
        %783 = arith.select %781, %782, %c536870911 : index
        vector.store %780, %464[%783] : memref<?xf32, #amdgpu.address_space<fat_raw_buffer>>, vector<1xf32>
        %784 = vector.extract_strided_slice %306 {offsets = [0], sizes = [1], strides = [1]} : vector<16xf32> to vector<1xf32>
        %785 = affine.apply #map85()[%thread_id_x, %block_id_x, %block_id_y, %2, %thread_id_y]
        %786 = arith.cmpi slt, %785, %446 : index
        %787 = arith.andi %786, %454 : i1
        %788 = arith.addi %460, %207 overflow<nsw> : index
        %789 = arith.select %787, %788, %c536870911 : index
        vector.store %784, %464[%789] : memref<?xf32, #amdgpu.address_space<fat_raw_buffer>>, vector<1xf32>
        %790 = vector.extract_strided_slice %306 {offsets = [1], sizes = [1], strides = [1]} : vector<16xf32> to vector<1xf32>
        %791 = arith.andi %786, %468 : i1
        %792 = arith.addi %471, %207 overflow<nsw> : index
        %793 = arith.select %791, %792, %c536870911 : index
        vector.store %790, %464[%793] : memref<?xf32, #amdgpu.address_space<fat_raw_buffer>>, vector<1xf32>
        %794 = vector.extract_strided_slice %306 {offsets = [2], sizes = [1], strides = [1]} : vector<16xf32> to vector<1xf32>
        %795 = arith.andi %786, %476 : i1
        %796 = arith.addi %479, %207 overflow<nsw> : index
        %797 = arith.select %795, %796, %c536870911 : index
        vector.store %794, %464[%797] : memref<?xf32, #amdgpu.address_space<fat_raw_buffer>>, vector<1xf32>
        %798 = vector.extract_strided_slice %306 {offsets = [3], sizes = [1], strides = [1]} : vector<16xf32> to vector<1xf32>
        %799 = arith.andi %786, %484 : i1
        %800 = arith.addi %487, %207 overflow<nsw> : index
        %801 = arith.select %799, %800, %c536870911 : index
…
        %4868 = vector.extract_strided_slice %426 {offsets = [6], sizes = [1], strides = [1]} : vector<16xf32> to vector<1xf32>
        %4869 = arith.andi %1182, %4190 : i1
        %4870 = arith.addi %4193, %237 overflow<nsw> : index
        %4871 = arith.select %4869, %4870, %c536870911 : index
        vector.store %4868, %464[%4871] : memref<?xf32, #amdgpu.address_space<fat_raw_buffer>>, vector<1xf32>
        %4872 = vector.extract_strided_slice %426 {offsets = [7], sizes = [1], strides = [1]} : vector<16xf32> to vector<1xf32>
        %4873 = arith.andi %1182, %4198 : i1
        %4874 = arith.addi %4201, %237 overflow<nsw> : index
        %4875 = arith.select %4873, %4874, %c536870911 : index
        vector.store %4872, %464[%4875] : memref<?xf32, #amdgpu.address_space<fat_raw_buffer>>, vector<1xf32>
        %4876 = vector.extract_strided_slice %426 {offsets = [8], sizes = [1], strides = [1]} : vector<16xf32> to vector<1xf32>
        %4877 = arith.andi %1182, %4206 : i1
        %4878 = arith.addi %4209, %237 overflow<nsw> : index
        %4879 = arith.select %4877, %4878, %c536870911 : index
        vector.store %4876, %464[%4879] : memref<?xf32, #amdgpu.address_space<fat_raw_buffer>>, vector<1xf32>
        %4880 = vector.extract_strided_slice %426 {offsets = [9], sizes = [1], strides = [1]} : vector<16xf32> to vector<1xf32>
        %4881 = arith.andi %1182, %4214 : i1
        %4882 = arith.addi %4217, %237 overflow<nsw> : index
        %4883 = arith.select %4881, %4882, %c536870911 : index
        vector.store %4880, %464[%4883] : memref<?xf32, #amdgpu.address_space<fat_raw_buffer>>, vector<1xf32>
        %4884 = vector.extract_strided_slice %426 {offsets = [10], sizes = [1], strides = [1]} : vector<16xf32> to vector<1xf32>
        %4885 = arith.andi %1182, %4222 : i1
        %4886 = arith.addi %4225, %237 overflow<nsw> : index
        %4887 = arith.select %4885, %4886, %c536870911 : index
        vector.store %4884, %464[%4887] : memref<?xf32, #amdgpu.address_space<fat_raw_buffer>>, vector<1xf32>
        %4888 = vector.extract_strided_slice %426 {offsets = [11], sizes = [1], strides = [1]} : vector<16xf32> to vector<1xf32>
        %4889 = arith.andi %1182, %4230 : i1
        %4890 = arith.addi %4233, %237 overflow<nsw> : index
        %4891 = arith.select %4889, %4890, %c536870911 : index
        vector.store %4888, %464[%4891] : memref<?xf32, #amdgpu.address_space<fat_raw_buffer>>, vector<1xf32>
        %4892 = vector.extract_strided_slice %426 {offsets = [12], sizes = [1], strides = [1]} : vector<16xf32> to vector<1xf32>
        %4893 = arith.andi %1182, %4238 : i1
        %4894 = arith.addi %4241, %237 overflow<nsw> : index
        %4895 = arith.select %4893, %4894, %c536870911 : index
        vector.store %4892, %464[%4895] : memref<?xf32, #amdgpu.address_space<fat_raw_buffer>>, vector<1xf32>
        %4896 = vector.extract_strided_slice %426 {offsets = [13], sizes = [1], strides = [1]} : vector<16xf32> to vector<1xf32>
        %4897 = arith.andi %1182, %4246 : i1
        %4898 = arith.addi %4249, %237 overflow<nsw> : index
        %4899 = arith.select %4897, %4898, %c536870911 : index
        vector.store %4896, %464[%4899] : memref<?xf32, #amdgpu.address_space<fat_raw_buffer>>, vector<1xf32>
        %4900 = vector.extract_strided_slice %426 {offsets = [14], sizes = [1], strides = [1]} : vector<16xf32> to vector<1xf32>
        %4901 = arith.andi %1182, %4254 : i1
        %4902 = arith.addi %4257, %237 overflow<nsw> : index
        %4903 = arith.select %4901, %4902, %c536870911 : index
        vector.store %4900, %464[%4903] : memref<?xf32, #amdgpu.address_space<fat_raw_buffer>>, vector<1xf32>
        %4904 = vector.extract_strided_slice %426 {offsets = [15], sizes = [1], strides = [1]} : vector<16xf32> to vector<1xf32>
        %4905 = arith.andi %1182, %4262 : i1
        %4906 = arith.addi %4265, %237 overflow<nsw> : index
        %4907 = arith.select %4905, %4906, %c536870911 : index
        vector.store %4904, %464[%4907] : memref<?xf32, #amdgpu.address_space<fat_raw_buffer>>, vector<1xf32>
        %4908 = vector.extract_strided_slice %428 {offsets = [0], sizes = [1], strides = [1]} : vector<16xf32> to vector<1xf32>
        %4909 = arith.andi %1248, %4142 : i1
        %4910 = arith.addi %4145, %242 overflow<nsw> : index
        %4911 = arith.select %4909, %4910, %c536870911 : index
        vector.store %4908, %464[%4911] : memref<?xf32, #amdgpu.address_space<fat_raw_buffer>>, vector<1xf32>
        %4912 = vector.extract_strided_slice %428 {offsets = [1], sizes = [1], strides = [1]} : vector<16xf32> to vector<1xf32>
        %4913 = arith.andi %1248, %4150 : i1
        %4914 = arith.addi %4153, %242 overflow<nsw> : index
        %4915 = arith.select %4913, %4914, %c536870911 : index
        vector.store %4912, %464[%4915] : memref<?xf32, #amdgpu.address_space<fat_raw_buffer>>, vector<1xf32>
        %4916 = vector.extract_strided_slice %428 {offsets = [2], sizes = [1], strides = [1]} : vector<16xf32> to vector<1xf32>
        %4917 = arith.andi %1248, %4158 : i1
        %4918 = arith.addi %4161, %242 overflow<nsw> : index
        %4919 = arith.select %4917, %4918, %c536870911 : index
        vector.store %4916, %464[%4919] : memref<?xf32, #amdgpu.address_space<fat_raw_buffer>>, vector<1xf32>
        %4920 = vector.extract_strided_slice %428 {offsets = [3], sizes = [1], strides = [1]} : vector<16xf32> to vector<1xf32>
        %4921 = arith.andi %1248, %4166 : i1
        %4922 = arith.addi %4169, %242 overflow<nsw> : index
        %4923 = arith.select %4921, %4922, %c536870911 : index
        vector.store %4920, %464[%4923] : memref<?xf32, #amdgpu.address_space<fat_raw_buffer>>, vector<1xf32>
        %4924 = vector.extract_strided_slice %428 {offsets = [4], sizes = [1], strides = [1]} : vector<16xf32> to vector<1xf32>
        %4925 = arith.andi %1248, %4174 : i1
        %4926 = arith.addi %4177, %242 overflow<nsw> : index
        %4927 = arith.select %4925, %4926, %c536870911 : index
        vector.store %4924, %464[%4927] : memref<?xf32, #amdgpu.address_space<fat_raw_buffer>>, vector<1xf32>
        %4928 = vector.extract_strided_slice %428 {offsets = [5], sizes = [1], strides = [1]} : vector<16xf32> to vector<1xf32>
        %4929 = arith.andi %1248, %4182 : i1
        %4930 = arith.addi %4185, %242 overflow<nsw> : index
        %4931 = arith.select %4929, %4930, %c536870911 : index
        vector.store %4928, %464[%4931] : memref<?xf32, #amdgpu.address_space<fat_raw_buffer>>, vector<1xf32>
        %4932 = vector.extract_strided_slice %428 {offsets = [6], sizes = [1], strides = [1]} : vector<16xf32> to vector<1xf32>
        %4933 = arith.andi %1248, %4190 : i1
        %4934 = arith.addi %4193, %242 overflow<nsw> : index
        %4935 = arith.select %4933, %4934, %c536870911 : index
        vector.store %4932, %464[%4935] : memref<?xf32, #amdgpu.address_space<fat_raw_buffer>>, vector<1xf32>
        %4936 = vector.extract_strided_slice %428 {offsets = [7], sizes = [1], strides = [1]} : vector<16xf32> to vector<1xf32>
        %4937 = arith.andi %1248, %4198 : i1
        %4938 = arith.addi %4201, %242 overflow<nsw> : index
        %4939 = arith.select %4937, %4938, %c536870911 : index
        vector.store %4936, %464[%4939] : memref<?xf32, #amdgpu.address_space<fat_raw_buffer>>, vector<1xf32>
        %4940 = vector.extract_strided_slice %428 {offsets = [8], sizes = [1], strides = [1]} : vector<16xf32> to vector<1xf32>
        %4941 = arith.andi %1248, %4206 : i1
        %4942 = arith.addi %4209, %242 overflow<nsw> : index
        %4943 = arith.select %4941, %4942, %c536870911 : index
        vector.store %4940, %464[%4943] : memref<?xf32, #amdgpu.address_space<fat_raw_buffer>>, vector<1xf32>
        %4944 = vector.extract_strided_slice %428 {offsets = [9], sizes = [1], strides = [1]} : vector<16xf32> to vector<1xf32>
        %4945 = arith.andi %1248, %4214 : i1
        %4946 = arith.addi %4217, %242 overflow<nsw> : index
        %4947 = arith.select %4945, %4946, %c536870911 : index
        vector.store %4944, %464[%4947] : memref<?xf32, #amdgpu.address_space<fat_raw_buffer>>, vector<1xf32>
        %4948 = vector.extract_strided_slice %428 {offsets = [10], sizes = [1], strides = [1]} : vector<16xf32> to vector<1xf32>
        %4949 = arith.andi %1248, %4222 : i1
        %4950 = arith.addi %4225, %242 overflow<nsw> : index
        %4951 = arith.select %4949, %4950, %c536870911 : index
        vector.store %4948, %464[%4951] : memref<?xf32, #amdgpu.address_space<fat_raw_buffer>>, vector<1xf32>
        %4952 = vector.extract_strided_slice %428 {offsets = [11], sizes = [1], strides = [1]} : vector<16xf32> to vector<1xf32>
        %4953 = arith.andi %1248, %4230 : i1
        %4954 = arith.addi %4233, %242 overflow<nsw> : index
        %4955 = arith.select %4953, %4954, %c536870911 : index
        vector.store %4952, %464[%4955] : memref<?xf32, #amdgpu.address_space<fat_raw_buffer>>, vector<1xf32>
        %4956 = vector.extract_strided_slice %428 {offsets = [12], sizes = [1], strides = [1]} : vector<16xf32> to vector<1xf32>
        %4957 = arith.andi %1248, %4238 : i1
        %4958 = arith.addi %4241, %242 overflow<nsw> : index
        %4959 = arith.select %4957, %4958, %c536870911 : index
        vector.store %4956, %464[%4959] : memref<?xf32, #amdgpu.address_space<fat_raw_buffer>>, vector<1xf32>
        %4960 = vector.extract_strided_slice %428 {offsets = [13], sizes = [1], strides = [1]} : vector<16xf32> to vector<1xf32>
        %4961 = arith.andi %1248, %4246 : i1
        %4962 = arith.addi %4249, %242 overflow<nsw> : index
        %4963 = arith.select %4961, %4962, %c536870911 : index
        vector.store %4960, %464[%4963] : memref<?xf32, #amdgpu.address_space<fat_raw_buffer>>, vector<1xf32>
        %4964 = vector.extract_strided_slice %428 {offsets = [14], sizes = [1], strides = [1]} : vector<16xf32> to vector<1xf32>
        %4965 = arith.andi %1248, %4254 : i1
        %4966 = arith.addi %4257, %242 overflow<nsw> : index
        %4967 = arith.select %4965, %4966, %c536870911 : index
        vector.store %4964, %464[%4967] : memref<?xf32, #amdgpu.address_space<fat_raw_buffer>>, vector<1xf32>
        %4968 = vector.extract_strided_slice %428 {offsets = [15], sizes = [1], strides = [1]} : vector<16xf32> to vector<1xf32>
        %4969 = arith.andi %1248, %4262 : i1
        %4970 = arith.addi %4265, %242 overflow<nsw> : index
        %4971 = arith.select %4969, %4970, %c536870911 : index
        vector.store %4968, %464[%4971] : memref<?xf32, #amdgpu.address_space<fat_raw_buffer>>, vector<1xf32>
        %4972 = vector.extract_strided_slice %430 {offsets = [0], sizes = [1], strides = [1]} : vector<16xf32> to vector<1xf32>
        %4973 = arith.andi %1314, %4142 : i1
        %4974 = arith.addi %4145, %247 overflow<nsw> : index
        %4975 = arith.select %4973, %4974, %c536870911 : index
        vector.store %4972, %464[%4975] : memref<?xf32, #amdgpu.address_space<fat_raw_buffer>>, vector<1xf32>
        %4976 = vector.extract_strided_slice %430 {offsets = [1], sizes = [1], strides = [1]} : vector<16xf32> to vector<1xf32>
        %4977 = arith.andi %1314, %4150 : i1
        %4978 = arith.addi %4153, %247 overflow<nsw> : index
        %4979 = arith.select %4977, %4978, %c536870911 : index
        vector.store %4976, %464[%4979] : memref<?xf32, #amdgpu.address_space<fat_raw_buffer>>, vector<1xf32>
        %4980 = vector.extract_strided_slice %430 {offsets = [2], sizes = [1], strides = [1]} : vector<16xf32> to vector<1xf32>
        %4981 = arith.andi %1314, %4158 : i1
        %4982 = arith.addi %4161, %247 overflow<nsw> : index
        %4983 = arith.select %4981, %4982, %c536870911 : index
        vector.store %4980, %464[%4983] : memref<?xf32, #amdgpu.address_space<fat_raw_buffer>>, vector<1xf32>
        %4984 = vector.extract_strided_slice %430 {offsets = [3], sizes = [1], strides = [1]} : vector<16xf32> to vector<1xf32>
        %4985 = arith.andi %1314, %4166 : i1
        %4986 = arith.addi %4169, %247 overflow<nsw> : index
        %4987 = arith.select %4985, %4986, %c536870911 : index
        vector.store %4984, %464[%4987] : memref<?xf32, #amdgpu.address_space<fat_raw_buffer>>, vector<1xf32>
        %4988 = vector.extract_strided_slice %430 {offsets = [4], sizes = [1], strides = [1]} : vector<16xf32> to vector<1xf32>
        %4989 = arith.andi %1314, %4174 : i1
        %4990 = arith.addi %4177, %247 overflow<nsw> : index
        %4991 = arith.select %4989, %4990, %c536870911 : index
        vector.store %4988, %464[%4991] : memref<?xf32, #amdgpu.address_space<fat_raw_buffer>>, vector<1xf32>
        %4992 = vector.extract_strided_slice %430 {offsets = [5], sizes = [1], strides = [1]} : vector<16xf32> to vector<1xf32>
        %4993 = arith.andi %1314, %4182 : i1
        %4994 = arith.addi %4185, %247 overflow<nsw> : index
        %4995 = arith.select %4993, %4994, %c536870911 : index
        vector.store %4992, %464[%4995] : memref<?xf32, #amdgpu.address_space<fat_raw_buffer>>, vector<1xf32>
        %4996 = vector.extract_strided_slice %430 {offsets = [6], sizes = [1], strides = [1]} : vector<16xf32> to vector<1xf32>
        %4997 = arith.andi %1314, %4190 : i1
        %4998 = arith.addi %4193, %247 overflow<nsw> : index
        %4999 = arith.select %4997, %4998, %c536870911 : index
        vector.store %4996, %464[%4999] : memref<?xf32, #amdgpu.address_space<fat_raw_buffer>>, vector<1xf32>
        %5000 = vector.extract_strided_slice %430 {offsets = [7], sizes = [1], strides = [1]} : vector<16xf32> to vector<1xf32>
        %5001 = arith.andi %1314, %4198 : i1
        %5002 = arith.addi %4201, %247 overflow<nsw> : index
        %5003 = arith.select %5001, %5002, %c536870911 : index
        vector.store %5000, %464[%5003] : memref<?xf32, #amdgpu.address_space<fat_raw_buffer>>, vector<1xf32>
        %5004 = vector.extract_strided_slice %430 {offsets = [8], sizes = [1], strides = [1]} : vector<16xf32> to vector<1xf32>
        %5005 = arith.andi %1314, %4206 : i1
        %5006 = arith.addi %4209, %247 overflow<nsw> : index
        %5007 = arith.select %5005, %5006, %c536870911 : index
        vector.store %5004, %464[%5007] : memref<?xf32, #amdgpu.address_space<fat_raw_buffer>>, vector<1xf32>
        %5008 = vector.extract_strided_slice %430 {offsets = [9], sizes = [1], strides = [1]} : vector<16xf32> to vector<1xf32>
        %5009 = arith.andi %1314, %4214 : i1
        %5010 = arith.addi %4217, %247 overflow<nsw> : index
        %5011 = arith.select %5009, %5010, %c536870911 : index
        vector.store %5008, %464[%5011] : memref<?xf32, #amdgpu.address_space<fat_raw_buffer>>, vector<1xf32>
        %5012 = vector.extract_strided_slice %430 {offsets = [10], sizes = [1], strides = [1]} : vector<16xf32> to vector<1xf32>
        %5013 = arith.andi %1314, %4222 : i1
        %5014 = arith.addi %4225, %247 overflow<nsw> : index
        %5015 = arith.select %5013, %5014, %c536870911 : index
        vector.store %5012, %464[%5015] : memref<?xf32, #amdgpu.address_space<fat_raw_buffer>>, vector<1xf32>
        %5016 = vector.extract_strided_slice %430 {offsets = [11], sizes = [1], strides = [1]} : vector<16xf32> to vector<1xf32>
        %5017 = arith.andi %1314, %4230 : i1
        %5018 = arith.addi %4233, %247 overflow<nsw> : index
        %5019 = arith.select %5017, %5018, %c536870911 : index
        vector.store %5016, %464[%5019] : memref<?xf32, #amdgpu.address_space<fat_raw_buffer>>, vector<1xf32>
        %5020 = vector.extract_strided_slice %430 {offsets = [12], sizes = [1], strides = [1]} : vector<16xf32> to vector<1xf32>
        %5021 = arith.andi %1314, %4238 : i1
        %5022 = arith.addi %4241, %247 overflow<nsw> : index
        %5023 = arith.select %5021, %5022, %c536870911 : index
        vector.store %5020, %464[%5023] : memref<?xf32, #amdgpu.address_space<fat_raw_buffer>>, vector<1xf32>
        %5024 = vector.extract_strided_slice %430 {offsets = [13], sizes = [1], strides = [1]} : vector<16xf32> to vector<1xf32>
        %5025 = arith.andi %1314, %4246 : i1
        %5026 = arith.addi %4249, %247 overflow<nsw> : index
        %5027 = arith.select %5025, %5026, %c536870911 : index
        vector.store %5024, %464[%5027] : memref<?xf32, #amdgpu.address_space<fat_raw_buffer>>, vector<1xf32>
        %5028 = vector.extract_strided_slice %430 {offsets = [14], sizes = [1], strides = [1]} : vector<16xf32> to vector<1xf32>
        %5029 = arith.andi %1314, %4254 : i1
        %5030 = arith.addi %4257, %247 overflow<nsw> : index
        %5031 = arith.select %5029, %5030, %c536870911 : index
        vector.store %5028, %464[%5031] : memref<?xf32, #amdgpu.address_space<fat_raw_buffer>>, vector<1xf32>
        %5032 = vector.extract_strided_slice %430 {offsets = [15], sizes = [1], strides = [1]} : vector<16xf32> to vector<1xf32>
        %5033 = arith.andi %1314, %4262 : i1
        %5034 = arith.addi %4265, %247 overflow<nsw> : index
        %5035 = arith.select %5033, %5034, %c536870911 : index
        vector.store %5032, %464[%5035] : memref<?xf32, #amdgpu.address_space<fat_raw_buffer>>, vector<1xf32>
        %5036 = vector.extract_strided_slice %432 {offsets = [0], sizes = [1], strides = [1]} : vector<16xf32> to vector<1xf32>
        %5037 = arith.andi %1380, %4142 : i1
        %5038 = arith.addi %4145, %252 overflow<nsw> : index
        %5039 = arith.select %5037, %5038, %c536870911 : index
        vector.store %5036, %464[%5039] : memref<?xf32, #amdgpu.address_space<fat_raw_buffer>>, vector<1xf32>
        %5040 = vector.extract_strided_slice %432 {offsets = [1], sizes = [1], strides = [1]} : vector<16xf32> to vector<1xf32>
        %5041 = arith.andi %1380, %4150 : i1
        %5042 = arith.addi %4153, %252 overflow<nsw> : index
        %5043 = arith.select %5041, %5042, %c536870911 : index
        vector.store %5040, %464[%5043] : memref<?xf32, #amdgpu.address_space<fat_raw_buffer>>, vector<1xf32>
        %5044 = vector.extract_strided_slice %432 {offsets = [2], sizes = [1], strides = [1]} : vector<16xf32> to vector<1xf32>
        %5045 = arith.andi %1380, %4158 : i1
        %5046 = arith.addi %4161, %252 overflow<nsw> : index
        %5047 = arith.select %5045, %5046, %c536870911 : index
        vector.store %5044, %464[%5047] : memref<?xf32, #amdgpu.address_space<fat_raw_buffer>>, vector<1xf32>
        %5048 = vector.extract_strided_slice %432 {offsets = [3], sizes = [1], strides = [1]} : vector<16xf32> to vector<1xf32>
        %5049 = arith.andi %1380, %4166 : i1
        %5050 = arith.addi %4169, %252 overflow<nsw> : index
        %5051 = arith.select %5049, %5050, %c536870911 : index
        vector.store %5048, %464[%5051] : memref<?xf32, #amdgpu.address_space<fat_raw_buffer>>, vector<1xf32>
        %5052 = vector.extract_strided_slice %432 {offsets = [4], sizes = [1], strides = [1]} : vector<16xf32> to vector<1xf32>
        %5053 = arith.andi %1380, %4174 : i1
        %5054 = arith.addi %4177, %252 overflow<nsw> : index
        %5055 = arith.select %5053, %5054, %c536870911 : index
        vector.store %5052, %464[%5055] : memref<?xf32, #amdgpu.address_space<fat_raw_buffer>>, vector<1xf32>
        %5056 = vector.extract_strided_slice %432 {offsets = [5], sizes = [1], strides = [1]} : vector<16xf32> to vector<1xf32>
        %5057 = arith.andi %1380, %4182 : i1
        %5058 = arith.addi %4185, %252 overflow<nsw> : index
        %5059 = arith.select %5057, %5058, %c536870911 : index
        vector.store %5056, %464[%5059] : memref<?xf32, #amdgpu.address_space<fat_raw_buffer>>, vector<1xf32>
        %5060 = vector.extract_strided_slice %432 {offsets = [6], sizes = [1], strides = [1]} : vector<16xf32> to vector<1xf32>
        %5061 = arith.andi %1380, %4190 : i1
        %5062 = arith.addi %4193, %252 overflow<nsw> : index
        %5063 = arith.select %5061, %5062, %c536870911 : index
        vector.store %5060, %464[%5063] : memref<?xf32, #amdgpu.address_space<fat_raw_buffer>>, vector<1xf32>
        %5064 = vector.extract_strided_slice %432 {offsets = [7], sizes = [1], strides = [1]} : vector<16xf32> to vector<1xf32>
        %5065 = arith.andi %1380, %4198 : i1
        %5066 = arith.addi %4201, %252 overflow<nsw> : index
        %5067 = arith.select %5065, %5066, %c536870911 : index
        vector.store %5064, %464[%5067] : memref<?xf32, #amdgpu.address_space<fat_raw_buffer>>, vector<1xf32>
        %5068 = vector.extract_strided_slice %432 {offsets = [8], sizes = [1], strides = [1]} : vector<16xf32> to vector<1xf32>
        %5069 = arith.andi %1380, %4206 : i1
        %5070 = arith.addi %4209, %252 overflow<nsw> : index
        %5071 = arith.select %5069, %5070, %c536870911 : index
        vector.store %5068, %464[%5071] : memref<?xf32, #amdgpu.address_space<fat_raw_buffer>>, vector<1xf32>
        %5072 = vector.extract_strided_slice %432 {offsets = [9], sizes = [1], strides = [1]} : vector<16xf32> to vector<1xf32>
        %5073 = arith.andi %1380, %4214 : i1
        %5074 = arith.addi %4217, %252 overflow<nsw> : index
        %5075 = arith.select %5073, %5074, %c536870911 : index
        vector.store %5072, %464[%5075] : memref<?xf32, #amdgpu.address_space<fat_raw_buffer>>, vector<1xf32>
        %5076 = vector.extract_strided_slice %432 {offsets = [10], sizes = [1], strides = [1]} : vector<16xf32> to vector<1xf32>
        %5077 = arith.andi %1380, %4222 : i1
        %5078 = arith.addi %4225, %252 overflow<nsw> : index
        %5079 = arith.select %5077, %5078, %c536870911 : index
        vector.store %5076, %464[%5079] : memref<?xf32, #amdgpu.address_space<fat_raw_buffer>>, vector<1xf32>
        %5080 = vector.extract_strided_slice %432 {offsets = [11], sizes = [1], strides = [1]} : vector<16xf32> to vector<1xf32>
        %5081 = arith.andi %1380, %4230 : i1
        %5082 = arith.addi %4233, %252 overflow<nsw> : index
        %5083 = arith.select %5081, %5082, %c536870911 : index
        vector.store %5080, %464[%5083] : memref<?xf32, #amdgpu.address_space<fat_raw_buffer>>, vector<1xf32>
        %5084 = vector.extract_strided_slice %432 {offsets = [12], sizes = [1], strides = [1]} : vector<16xf32> to vector<1xf32>
        %5085 = arith.andi %1380, %4238 : i1
        %5086 = arith.addi %4241, %252 overflow<nsw> : index
        %5087 = arith.select %5085, %5086, %c536870911 : index
        vector.store %5084, %464[%5087] : memref<?xf32, #amdgpu.address_space<fat_raw_buffer>>, vector<1xf32>
        %5088 = vector.extract_strided_slice %432 {offsets = [13], sizes = [1], strides = [1]} : vector<16xf32> to vector<1xf32>
        %5089 = arith.andi %1380, %4246 : i1
        %5090 = arith.addi %4249, %252 overflow<nsw> : index
        %5091 = arith.select %5089, %5090, %c536870911 : index
        vector.store %5088, %464[%5091] : memref<?xf32, #amdgpu.address_space<fat_raw_buffer>>, vector<1xf32>
        %5092 = vector.extract_strided_slice %432 {offsets = [14], sizes = [1], strides = [1]} : vector<16xf32> to vector<1xf32>
        %5093 = arith.andi %1380, %4254 : i1
        %5094 = arith.addi %4257, %252 overflow<nsw> : index
        %5095 = arith.select %5093, %5094, %c536870911 : index
        vector.store %5092, %464[%5095] : memref<?xf32, #amdgpu.address_space<fat_raw_buffer>>, vector<1xf32>
        %5096 = vector.extract_strided_slice %432 {offsets = [15], sizes = [1], strides = [1]} : vector<16xf32> to vector<1xf32>
        %5097 = arith.andi %1380, %4262 : i1
        %5098 = arith.addi %4265, %252 overflow<nsw> : index
        %5099 = arith.select %5097, %5098, %c536870911 : index
        vector.store %5096, %464[%5099] : memref<?xf32, #amdgpu.address_space<fat_raw_buffer>>, vector<1xf32>
        %5100 = vector.extract_strided_slice %434 {offsets = [0], sizes = [1], strides = [1]} : vector<16xf32> to vector<1xf32>
        %5101 = arith.andi %1446, %4142 : i1
        %5102 = arith.addi %4145, %257 overflow<nsw> : index
        %5103 = arith.select %5101, %5102, %c536870911 : index
        vector.store %5100, %464[%5103] : memref<?xf32, #amdgpu.address_space<fat_raw_buffer>>, vector<1xf32>
        %5104 = vector.extract_strided_slice %434 {offsets = [1], sizes = [1], strides = [1]} : vector<16xf32> to vector<1xf32>
        %5105 = arith.andi %1446, %4150 : i1
        %5106 = arith.addi %4153, %257 overflow<nsw> : index
        %5107 = arith.select %5105, %5106, %c536870911 : index
        vector.store %5104, %464[%5107] : memref<?xf32, #amdgpu.address_space<fat_raw_buffer>>, vector<1xf32>
        %5108 = vector.extract_strided_slice %434 {offsets = [2], sizes = [1], strides = [1]} : vector<16xf32> to vector<1xf32>
        %5109 = arith.andi %1446, %4158 : i1
        %5110 = arith.addi %4161, %257 overflow<nsw> : index
        %5111 = arith.select %5109, %5110, %c536870911 : index
        vector.store %5108, %464[%5111] : memref<?xf32, #amdgpu.address_space<fat_raw_buffer>>, vector<1xf32>
        %5112 = vector.extract_strided_slice %434 {offsets = [3], sizes = [1], strides = [1]} : vector<16xf32> to vector<1xf32>
        %5113 = arith.andi %1446, %4166 : i1
        %5114 = arith.addi %4169, %257 overflow<nsw> : index
        %5115 = arith.select %5113, %5114, %c536870911 : index
        vector.store %5112, %464[%5115] : memref<?xf32, #amdgpu.address_space<fat_raw_buffer>>, vector<1xf32>
        %5116 = vector.extract_strided_slice %434 {offsets = [4], sizes = [1], strides = [1]} : vector<16xf32> to vector<1xf32>
        %5117 = arith.andi %1446, %4174 : i1
        %5118 = arith.addi %4177, %257 overflow<nsw> : index
        %5119 = arith.select %5117, %5118, %c536870911 : index
        vector.store %5116, %464[%5119] : memref<?xf32, #amdgpu.address_space<fat_raw_buffer>>, vector<1xf32>
        %5120 = vector.extract_strided_slice %434 {offsets = [5], sizes = [1], strides = [1]} : vector<16xf32> to vector<1xf32>
        %5121 = arith.andi %1446, %4182 : i1
        %5122 = arith.addi %4185, %257 overflow<nsw> : index
        %5123 = arith.select %5121, %5122, %c536870911 : index
        vector.store %5120, %464[%5123] : memref<?xf32, #amdgpu.address_space<fat_raw_buffer>>, vector<1xf32>
        %5124 = vector.extract_strided_slice %434 {offsets = [6], sizes = [1], strides = [1]} : vector<16xf32> to vector<1xf32>
        %5125 = arith.andi %1446, %4190 : i1
        %5126 = arith.addi %4193, %257 overflow<nsw> : index
        %5127 = arith.select %5125, %5126, %c536870911 : index
        vector.store %5124, %464[%5127] : memref<?xf32, #amdgpu.address_space<fat_raw_buffer>>, vector<1xf32>
        %5128 = vector.extract_strided_slice %434 {offsets = [7], sizes = [1], strides = [1]} : vector<16xf32> to vector<1xf32>
        %5129 = arith.andi %1446, %4198 : i1
        %5130 = arith.addi %4201, %257 overflow<nsw> : index
        %5131 = arith.select %5129, %5130, %c536870911 : index
        vector.store %5128, %464[%5131] : memref<?xf32, #amdgpu.address_space<fat_raw_buffer>>, vector<1xf32>
        %5132 = vector.extract_strided_slice %434 {offsets = [8], sizes = [1], strides = [1]} : vector<16xf32> to vector<1xf32>
        %5133 = arith.andi %1446, %4206 : i1
        %5134 = arith.addi %4209, %257 overflow<nsw> : index
        %5135 = arith.select %5133, %5134, %c536870911 : index
        vector.store %5132, %464[%5135] : memref<?xf32, #amdgpu.address_space<fat_raw_buffer>>, vector<1xf32>
        %5136 = vector.extract_strided_slice %434 {offsets = [9], sizes = [1], strides = [1]} : vector<16xf32> to vector<1xf32>
        %5137 = arith.andi %1446, %4214 : i1
        %5138 = arith.addi %4217, %257 overflow<nsw> : index
        %5139 = arith.select %5137, %5138, %c536870911 : index
        vector.store %5136, %464[%5139] : memref<?xf32, #amdgpu.address_space<fat_raw_buffer>>, vector<1xf32>
        %5140 = vector.extract_strided_slice %434 {offsets = [10], sizes = [1], strides = [1]} : vector<16xf32> to vector<1xf32>
        %5141 = arith.andi %1446, %4222 : i1
        %5142 = arith.addi %4225, %257 overflow<nsw> : index
        %5143 = arith.select %5141, %5142, %c536870911 : index
        vector.store %5140, %464[%5143] : memref<?xf32, #amdgpu.address_space<fat_raw_buffer>>, vector<1xf32>
        %5144 = vector.extract_strided_slice %434 {offsets = [11], sizes = [1], strides = [1]} : vector<16xf32> to vector<1xf32>
        %5145 = arith.andi %1446, %4230 : i1
        %5146 = arith.addi %4233, %257 overflow<nsw> : index
        %5147 = arith.select %5145, %5146, %c536870911 : index
        vector.store %5144, %464[%5147] : memref<?xf32, #amdgpu.address_space<fat_raw_buffer>>, vector<1xf32>
        %5148 = vector.extract_strided_slice %434 {offsets = [12], sizes = [1], strides = [1]} : vector<16xf32> to vector<1xf32>
        %5149 = arith.andi %1446, %4238 : i1
        %5150 = arith.addi %4241, %257 overflow<nsw> : index
        %5151 = arith.select %5149, %5150, %c536870911 : index
        vector.store %5148, %464[%5151] : memref<?xf32, #amdgpu.address_space<fat_raw_buffer>>, vector<1xf32>
        %5152 = vector.extract_strided_slice %434 {offsets = [13], sizes = [1], strides = [1]} : vector<16xf32> to vector<1xf32>
        %5153 = arith.andi %1446, %4246 : i1
        %5154 = arith.addi %4249, %257 overflow<nsw> : index
        %5155 = arith.select %5153, %5154, %c536870911 : index
        vector.store %5152, %464[%5155] : memref<?xf32, #amdgpu.address_space<fat_raw_buffer>>, vector<1xf32>
        %5156 = vector.extract_strided_slice %434 {offsets = [14], sizes = [1], strides = [1]} : vector<16xf32> to vector<1xf32>
        %5157 = arith.andi %1446, %4254 : i1
        %5158 = arith.addi %4257, %257 overflow<nsw> : index
        %5159 = arith.select %5157, %5158, %c536870911 : index
        vector.store %5156, %464[%5159] : memref<?xf32, #amdgpu.address_space<fat_raw_buffer>>, vector<1xf32>
        %5160 = vector.extract_strided_slice %434 {offsets = [15], sizes = [1], strides = [1]} : vector<16xf32> to vector<1xf32>
        %5161 = arith.andi %1446, %4262 : i1
        %5162 = arith.addi %4265, %257 overflow<nsw> : index
        %5163 = arith.select %5161, %5162, %c536870911 : index
        vector.store %5160, %464[%5163] : memref<?xf32, #amdgpu.address_space<fat_raw_buffer>>, vector<1xf32>
        %5164 = vector.extract_strided_slice %436 {offsets = [0], sizes = [1], strides = [1]} : vector<16xf32> to vector<1xf32>
        %5165 = arith.andi %1512, %4142 : i1
        %5166 = arith.addi %4145, %262 overflow<nsw> : index
        %5167 = arith.select %5165, %5166, %c536870911 : index
        vector.store %5164, %464[%5167] : memref<?xf32, #amdgpu.address_space<fat_raw_buffer>>, vector<1xf32>
        %5168 = vector.extract_strided_slice %436 {offsets = [1], sizes = [1], strides = [1]} : vector<16xf32> to vector<1xf32>
        %5169 = arith.andi %1512, %4150 : i1
        %5170 = arith.addi %4153, %262 overflow<nsw> : index
        %5171 = arith.select %5169, %5170, %c536870911 : index
        vector.store %5168, %464[%5171] : memref<?xf32, #amdgpu.address_space<fat_raw_buffer>>, vector<1xf32>
        %5172 = vector.extract_strided_slice %436 {offsets = [2], sizes = [1], strides = [1]} : vector<16xf32> to vector<1xf32>
        %5173 = arith.andi %1512, %4158 : i1
        %5174 = arith.addi %4161, %262 overflow<nsw> : index
        %5175 = arith.select %5173, %5174, %c536870911 : index
        vector.store %5172, %464[%5175] : memref<?xf32, #amdgpu.address_space<fat_raw_buffer>>, vector<1xf32>
        %5176 = vector.extract_strided_slice %436 {offsets = [3], sizes = [1], strides = [1]} : vector<16xf32> to vector<1xf32>
        %5177 = arith.andi %1512, %4166 : i1
        %5178 = arith.addi %4169, %262 overflow<nsw> : index
        %5179 = arith.select %5177, %5178, %c536870911 : index
        vector.store %5176, %464[%5179] : memref<?xf32, #amdgpu.address_space<fat_raw_buffer>>, vector<1xf32>
        %5180 = vector.extract_strided_slice %436 {offsets = [4], sizes = [1], strides = [1]} : vector<16xf32> to vector<1xf32>
        %5181 = arith.andi %1512, %4174 : i1
        %5182 = arith.addi %4177, %262 overflow<nsw> : index
        %5183 = arith.select %5181, %5182, %c536870911 : index
        vector.store %5180, %464[%5183] : memref<?xf32, #amdgpu.address_space<fat_raw_buffer>>, vector<1xf32>
        %5184 = vector.extract_strided_slice %436 {offsets = [5], sizes = [1], strides = [1]} : vector<16xf32> to vector<1xf32>
        %5185 = arith.andi %1512, %4182 : i1
        %5186 = arith.addi %4185, %262 overflow<nsw> : index
        %5187 = arith.select %5185, %5186, %c536870911 : index
        vector.store %5184, %464[%5187] : memref<?xf32, #amdgpu.address_space<fat_raw_buffer>>, vector<1xf32>
        %5188 = vector.extract_strided_slice %436 {offsets = [6], sizes = [1], strides = [1]} : vector<16xf32> to vector<1xf32>
        %5189 = arith.andi %1512, %4190 : i1
        %5190 = arith.addi %4193, %262 overflow<nsw> : index
        %5191 = arith.select %5189, %5190, %c536870911 : index
        vector.store %5188, %464[%5191] : memref<?xf32, #amdgpu.address_space<fat_raw_buffer>>, vector<1xf32>
        %5192 = vector.extract_strided_slice %436 {offsets = [7], sizes = [1], strides = [1]} : vector<16xf32> to vector<1xf32>
        %5193 = arith.andi %1512, %4198 : i1
        %5194 = arith.addi %4201, %262 overflow<nsw> : index
        %5195 = arith.select %5193, %5194, %c536870911 : index
        vector.store %5192, %464[%5195] : memref<?xf32, #amdgpu.address_space<fat_raw_buffer>>, vector<1xf32>
        %5196 = vector.extract_strided_slice %436 {offsets = [8], sizes = [1], strides = [1]} : vector<16xf32> to vector<1xf32>
        %5197 = arith.andi %1512, %4206 : i1
        %5198 = arith.addi %4209, %262 overflow<nsw> : index
        %5199 = arith.select %5197, %5198, %c536870911 : index
        vector.store %5196, %464[%5199] : memref<?xf32, #amdgpu.address_space<fat_raw_buffer>>, vector<1xf32>
        %5200 = vector.extract_strided_slice %436 {offsets = [9], sizes = [1], strides = [1]} : vector<16xf32> to vector<1xf32>
        %5201 = arith.andi %1512, %4214 : i1
        %5202 = arith.addi %4217, %262 overflow<nsw> : index
        %5203 = arith.select %5201, %5202, %c536870911 : index
        vector.store %5200, %464[%5203] : memref<?xf32, #amdgpu.address_space<fat_raw_buffer>>, vector<1xf32>
        %5204 = vector.extract_strided_slice %436 {offsets = [10], sizes = [1], strides = [1]} : vector<16xf32> to vector<1xf32>
        %5205 = arith.andi %1512, %4222 : i1
        %5206 = arith.addi %4225, %262 overflow<nsw> : index
        %5207 = arith.select %5205, %5206, %c536870911 : index
        vector.store %5204, %464[%5207] : memref<?xf32, #amdgpu.address_space<fat_raw_buffer>>, vector<1xf32>
        %5208 = vector.extract_strided_slice %436 {offsets = [11], sizes = [1], strides = [1]} : vector<16xf32> to vector<1xf32>
        %5209 = arith.andi %1512, %4230 : i1
        %5210 = arith.addi %4233, %262 overflow<nsw> : index
        %5211 = arith.select %5209, %5210, %c536870911 : index
        vector.store %5208, %464[%5211] : memref<?xf32, #amdgpu.address_space<fat_raw_buffer>>, vector<1xf32>
        %5212 = vector.extract_strided_slice %436 {offsets = [12], sizes = [1], strides = [1]} : vector<16xf32> to vector<1xf32>
        %5213 = arith.andi %1512, %4238 : i1
        %5214 = arith.addi %4241, %262 overflow<nsw> : index
        %5215 = arith.select %5213, %5214, %c536870911 : index
        vector.store %5212, %464[%5215] : memref<?xf32, #amdgpu.address_space<fat_raw_buffer>>, vector<1xf32>
        %5216 = vector.extract_strided_slice %436 {offsets = [13], sizes = [1], strides = [1]} : vector<16xf32> to vector<1xf32>
        %5217 = arith.andi %1512, %4246 : i1
        %5218 = arith.addi %4249, %262 overflow<nsw> : index
        %5219 = arith.select %5217, %5218, %c536870911 : index
        vector.store %5216, %464[%5219] : memref<?xf32, #amdgpu.address_space<fat_raw_buffer>>, vector<1xf32>
        %5220 = vector.extract_strided_slice %436 {offsets = [14], sizes = [1], strides = [1]} : vector<16xf32> to vector<1xf32>
        %5221 = arith.andi %1512, %4254 : i1
        %5222 = arith.addi %4257, %262 overflow<nsw> : index
        %5223 = arith.select %5221, %5222, %c536870911 : index
        vector.store %5220, %464[%5223] : memref<?xf32, #amdgpu.address_space<fat_raw_buffer>>, vector<1xf32>
        %5224 = vector.extract_strided_slice %436 {offsets = [15], sizes = [1], strides = [1]} : vector<16xf32> to vector<1xf32>
        %5225 = arith.andi %1512, %4262 : i1
        %5226 = arith.addi %4265, %262 overflow<nsw> : index
        %5227 = arith.select %5225, %5226, %c536870911 : index
        vector.store %5224, %464[%5227] : memref<?xf32, #amdgpu.address_space<fat_raw_buffer>>, vector<1xf32>
        %5228 = vector.extract_strided_slice %438 {offsets = [0], sizes = [1], strides = [1]} : vector<16xf32> to vector<1xf32>
        %5229 = arith.andi %1578, %4142 : i1
        %5230 = arith.addi %4145, %267 overflow<nsw> : index
        %5231 = arith.select %5229, %5230, %c536870911 : index
        vector.store %5228, %464[%5231] : memref<?xf32, #amdgpu.address_space<fat_raw_buffer>>, vector<1xf32>
        %5232 = vector.extract_strided_slice %438 {offsets = [1], sizes = [1], strides = [1]} : vector<16xf32> to vector<1xf32>
        %5233 = arith.andi %1578, %4150 : i1
        %5234 = arith.addi %4153, %267 overflow<nsw> : index
        %5235 = arith.select %5233, %5234, %c536870911 : index
        vector.store %5232, %464[%5235] : memref<?xf32, #amdgpu.address_space<fat_raw_buffer>>, vector<1xf32>
        %5236 = vector.extract_strided_slice %438 {offsets = [2], sizes = [1], strides = [1]} : vector<16xf32> to vector<1xf32>
        %5237 = arith.andi %1578, %4158 : i1
        %5238 = arith.addi %4161, %267 overflow<nsw> : index
        %5239 = arith.select %5237, %5238, %c536870911 : index
        vector.store %5236, %464[%5239] : memref<?xf32, #amdgpu.address_space<fat_raw_buffer>>, vector<1xf32>
        %5240 = vector.extract_strided_slice %438 {offsets = [3], sizes = [1], strides = [1]} : vector<16xf32> to vector<1xf32>
        %5241 = arith.andi %1578, %4166 : i1
        %5242 = arith.addi %4169, %267 overflow<nsw> : index
        %5243 = arith.select %5241, %5242, %c536870911 : index
        vector.store %5240, %464[%5243] : memref<?xf32, #amdgpu.address_space<fat_raw_buffer>>, vector<1xf32>
        %5244 = vector.extract_strided_slice %438 {offsets = [4], sizes = [1], strides = [1]} : vector<16xf32> to vector<1xf32>
        %5245 = arith.andi %1578, %4174 : i1
        %5246 = arith.addi %4177, %267 overflow<nsw> : index
        %5247 = arith.select %5245, %5246, %c536870911 : index
        vector.store %5244, %464[%5247] : memref<?xf32, #amdgpu.address_space<fat_raw_buffer>>, vector<1xf32>
        %5248 = vector.extract_strided_slice %438 {offsets = [5], sizes = [1], strides = [1]} : vector<16xf32> to vector<1xf32>
        %5249 = arith.andi %1578, %4182 : i1
        %5250 = arith.addi %4185, %267 overflow<nsw> : index
        %5251 = arith.select %5249, %5250, %c536870911 : index
        vector.store %5248, %464[%5251] : memref<?xf32, #amdgpu.address_space<fat_raw_buffer>>, vector<1xf32>
        %5252 = vector.extract_strided_slice %438 {offsets = [6], sizes = [1], strides = [1]} : vector<16xf32> to vector<1xf32>
        %5253 = arith.andi %1578, %4190 : i1
        %5254 = arith.addi %4193, %267 overflow<nsw> : index
        %5255 = arith.select %5253, %5254, %c536870911 : index
        vector.store %5252, %464[%5255] : memref<?xf32, #amdgpu.address_space<fat_raw_buffer>>, vector<1xf32>
        %5256 = vector.extract_strided_slice %438 {offsets = [7], sizes = [1], strides = [1]} : vector<16xf32> to vector<1xf32>
        %5257 = arith.andi %1578, %4198 : i1
        %5258 = arith.addi %4201, %267 overflow<nsw> : index
        %5259 = arith.select %5257, %5258, %c536870911 : index
        vector.store %5256, %464[%5259] : memref<?xf32, #amdgpu.address_space<fat_raw_buffer>>, vector<1xf32>
        %5260 = vector.extract_strided_slice %438 {offsets = [8], sizes = [1], strides = [1]} : vector<16xf32> to vector<1xf32>
        %5261 = arith.andi %1578, %4206 : i1
        %5262 = arith.addi %4209, %267 overflow<nsw> : index
        %5263 = arith.select %5261, %5262, %c536870911 : index
        vector.store %5260, %464[%5263] : memref<?xf32, #amdgpu.address_space<fat_raw_buffer>>, vector<1xf32>
        %5264 = vector.extract_strided_slice %438 {offsets = [9], sizes = [1], strides = [1]} : vector<16xf32> to vector<1xf32>
        %5265 = arith.andi %1578, %4214 : i1
        %5266 = arith.addi %4217, %267 overflow<nsw> : index
        %5267 = arith.select %5265, %5266, %c536870911 : index
        vector.store %5264, %464[%5267] : memref<?xf32, #amdgpu.address_space<fat_raw_buffer>>, vector<1xf32>
        %5268 = vector.extract_strided_slice %438 {offsets = [10], sizes = [1], strides = [1]} : vector<16xf32> to vector<1xf32>
        %5269 = arith.andi %1578, %4222 : i1
        %5270 = arith.addi %4225, %267 overflow<nsw> : index
        %5271 = arith.select %5269, %5270, %c536870911 : index
        vector.store %5268, %464[%5271] : memref<?xf32, #amdgpu.address_space<fat_raw_buffer>>, vector<1xf32>
        %5272 = vector.extract_strided_slice %438 {offsets = [11], sizes = [1], strides = [1]} : vector<16xf32> to vector<1xf32>
        %5273 = arith.andi %1578, %4230 : i1
        %5274 = arith.addi %4233, %267 overflow<nsw> : index
        %5275 = arith.select %5273, %5274, %c536870911 : index
        vector.store %5272, %464[%5275] : memref<?xf32, #amdgpu.address_space<fat_raw_buffer>>, vector<1xf32>
        %5276 = vector.extract_strided_slice %438 {offsets = [12], sizes = [1], strides = [1]} : vector<16xf32> to vector<1xf32>
        %5277 = arith.andi %1578, %4238 : i1
        %5278 = arith.addi %4241, %267 overflow<nsw> : index
        %5279 = arith.select %5277, %5278, %c536870911 : index
        vector.store %5276, %464[%5279] : memref<?xf32, #amdgpu.address_space<fat_raw_buffer>>, vector<1xf32>
        %5280 = vector.extract_strided_slice %438 {offsets = [13], sizes = [1], strides = [1]} : vector<16xf32> to vector<1xf32>
        %5281 = arith.andi %1578, %4246 : i1
        %5282 = arith.addi %4249, %267 overflow<nsw> : index
        %5283 = arith.select %5281, %5282, %c536870911 : index
        vector.store %5280, %464[%5283] : memref<?xf32, #amdgpu.address_space<fat_raw_buffer>>, vector<1xf32>
        %5284 = vector.extract_strided_slice %438 {offsets = [14], sizes = [1], strides = [1]} : vector<16xf32> to vector<1xf32>
        %5285 = arith.andi %1578, %4254 : i1
        %5286 = arith.addi %4257, %267 overflow<nsw> : index
        %5287 = arith.select %5285, %5286, %c536870911 : index
        vector.store %5284, %464[%5287] : memref<?xf32, #amdgpu.address_space<fat_raw_buffer>>, vector<1xf32>
        %5288 = vector.extract_strided_slice %438 {offsets = [15], sizes = [1], strides = [1]} : vector<16xf32> to vector<1xf32>
        %5289 = arith.andi %1578, %4262 : i1
        %5290 = arith.addi %4265, %267 overflow<nsw> : index
        %5291 = arith.select %5289, %5290, %c536870911 : index
        vector.store %5288, %464[%5291] : memref<?xf32, #amdgpu.address_space<fat_raw_buffer>>, vector<1xf32>
        %5292 = vector.extract_strided_slice %440 {offsets = [0], sizes = [1], strides = [1]} : vector<16xf32> to vector<1xf32>
        %5293 = arith.andi %1644, %4142 : i1
        %5294 = arith.addi %4145, %272 overflow<nsw> : index
        %5295 = arith.select %5293, %5294, %c536870911 : index
        vector.store %5292, %464[%5295] : memref<?xf32, #amdgpu.address_space<fat_raw_buffer>>, vector<1xf32>
        %5296 = vector.extract_strided_slice %440 {offsets = [1], sizes = [1], strides = [1]} : vector<16xf32> to vector<1xf32>
        %5297 = arith.andi %1644, %4150 : i1
        %5298 = arith.addi %4153, %272 overflow<nsw> : index
        %5299 = arith.select %5297, %5298, %c536870911 : index
        vector.store %5296, %464[%5299] : memref<?xf32, #amdgpu.address_space<fat_raw_buffer>>, vector<1xf32>
        %5300 = vector.extract_strided_slice %440 {offsets = [2], sizes = [1], strides = [1]} : vector<16xf32> to vector<1xf32>
        %5301 = arith.andi %1644, %4158 : i1
        %5302 = arith.addi %4161, %272 overflow<nsw> : index
        %5303 = arith.select %5301, %5302, %c536870911 : index
        vector.store %5300, %464[%5303] : memref<?xf32, #amdgpu.address_space<fat_raw_buffer>>, vector<1xf32>
        %5304 = vector.extract_strided_slice %440 {offsets = [3], sizes = [1], strides = [1]} : vector<16xf32> to vector<1xf32>
        %5305 = arith.andi %1644, %4166 : i1
        %5306 = arith.addi %4169, %272 overflow<nsw> : index
        %5307 = arith.select %5305, %5306, %c536870911 : index
        vector.store %5304, %464[%5307] : memref<?xf32, #amdgpu.address_space<fat_raw_buffer>>, vector<1xf32>
        %5308 = vector.extract_strided_slice %440 {offsets = [4], sizes = [1], strides = [1]} : vector<16xf32> to vector<1xf32>
        %5309 = arith.andi %1644, %4174 : i1
        %5310 = arith.addi %4177, %272 overflow<nsw> : index
        %5311 = arith.select %5309, %5310, %c536870911 : index
        vector.store %5308, %464[%5311] : memref<?xf32, #amdgpu.address_space<fat_raw_buffer>>, vector<1xf32>
        %5312 = vector.extract_strided_slice %440 {offsets = [5], sizes = [1], strides = [1]} : vector<16xf32> to vector<1xf32>
        %5313 = arith.andi %1644, %4182 : i1
        %5314 = arith.addi %4185, %272 overflow<nsw> : index
        %5315 = arith.select %5313, %5314, %c536870911 : index
        vector.store %5312, %464[%5315] : memref<?xf32, #amdgpu.address_space<fat_raw_buffer>>, vector<1xf32>
        %5316 = vector.extract_strided_slice %440 {offsets = [6], sizes = [1], strides = [1]} : vector<16xf32> to vector<1xf32>
        %5317 = arith.andi %1644, %4190 : i1
        %5318 = arith.addi %4193, %272 overflow<nsw> : index
        %5319 = arith.select %5317, %5318, %c536870911 : index
        vector.store %5316, %464[%5319] : memref<?xf32, #amdgpu.address_space<fat_raw_buffer>>, vector<1xf32>
        %5320 = vector.extract_strided_slice %440 {offsets = [7], sizes = [1], strides = [1]} : vector<16xf32> to vector<1xf32>
        %5321 = arith.andi %1644, %4198 : i1
        %5322 = arith.addi %4201, %272 overflow<nsw> : index
        %5323 = arith.select %5321, %5322, %c536870911 : index
        vector.store %5320, %464[%5323] : memref<?xf32, #amdgpu.address_space<fat_raw_buffer>>, vector<1xf32>
        %5324 = vector.extract_strided_slice %440 {offsets = [8], sizes = [1], strides = [1]} : vector<16xf32> to vector<1xf32>
        %5325 = arith.andi %1644, %4206 : i1
        %5326 = arith.addi %4209, %272 overflow<nsw> : index
        %5327 = arith.select %5325, %5326, %c536870911 : index
        vector.store %5324, %464[%5327] : memref<?xf32, #amdgpu.address_space<fat_raw_buffer>>, vector<1xf32>
        %5328 = vector.extract_strided_slice %440 {offsets = [9], sizes = [1], strides = [1]} : vector<16xf32> to vector<1xf32>
        %5329 = arith.andi %1644, %4214 : i1
        %5330 = arith.addi %4217, %272 overflow<nsw> : index
        %5331 = arith.select %5329, %5330, %c536870911 : index
        vector.store %5328, %464[%5331] : memref<?xf32, #amdgpu.address_space<fat_raw_buffer>>, vector<1xf32>
        %5332 = vector.extract_strided_slice %440 {offsets = [10], sizes = [1], strides = [1]} : vector<16xf32> to vector<1xf32>
        %5333 = arith.andi %1644, %4222 : i1
        %5334 = arith.addi %4225, %272 overflow<nsw> : index
        %5335 = arith.select %5333, %5334, %c536870911 : index
        vector.store %5332, %464[%5335] : memref<?xf32, #amdgpu.address_space<fat_raw_buffer>>, vector<1xf32>
        %5336 = vector.extract_strided_slice %440 {offsets = [11], sizes = [1], strides = [1]} : vector<16xf32> to vector<1xf32>
        %5337 = arith.andi %1644, %4230 : i1
        %5338 = arith.addi %4233, %272 overflow<nsw> : index
        %5339 = arith.select %5337, %5338, %c536870911 : index
        vector.store %5336, %464[%5339] : memref<?xf32, #amdgpu.address_space<fat_raw_buffer>>, vector<1xf32>
        %5340 = vector.extract_strided_slice %440 {offsets = [12], sizes = [1], strides = [1]} : vector<16xf32> to vector<1xf32>
        %5341 = arith.andi %1644, %4238 : i1
        %5342 = arith.addi %4241, %272 overflow<nsw> : index
        %5343 = arith.select %5341, %5342, %c536870911 : index
        vector.store %5340, %464[%5343] : memref<?xf32, #amdgpu.address_space<fat_raw_buffer>>, vector<1xf32>
        %5344 = vector.extract_strided_slice %440 {offsets = [13], sizes = [1], strides = [1]} : vector<16xf32> to vector<1xf32>
        %5345 = arith.andi %1644, %4246 : i1
        %5346 = arith.addi %4249, %272 overflow<nsw> : index
        %5347 = arith.select %5345, %5346, %c536870911 : index
        vector.store %5344, %464[%5347] : memref<?xf32, #amdgpu.address_space<fat_raw_buffer>>, vector<1xf32>
        %5348 = vector.extract_strided_slice %440 {offsets = [14], sizes = [1], strides = [1]} : vector<16xf32> to vector<1xf32>
        %5349 = arith.andi %1644, %4254 : i1
        %5350 = arith.addi %4257, %272 overflow<nsw> : index
        %5351 = arith.select %5349, %5350, %c536870911 : index
        vector.store %5348, %464[%5351] : memref<?xf32, #amdgpu.address_space<fat_raw_buffer>>, vector<1xf32>
        %5352 = vector.extract_strided_slice %440 {offsets = [15], sizes = [1], strides = [1]} : vector<16xf32> to vector<1xf32>
        %5353 = arith.andi %1644, %4262 : i1
        %5354 = arith.addi %4265, %272 overflow<nsw> : index
        %5355 = arith.select %5353, %5354, %c536870911 : index
        vector.store %5352, %464[%5355] : memref<?xf32, #amdgpu.address_space<fat_raw_buffer>>, vector<1xf32>
        return
      }
    }
  }
  func.func @isolated_benchmark(%arg0: tensor<641x4096xf16>, %arg1: tensor<2880x4096xf16>, %arg2: tensor<641x2880xf32>) -> tensor<641x2880xf32> {
    %0 = flow.dispatch @gemm::@gemm(%arg0, %arg1, %arg2) : (tensor<641x4096xf16>, tensor<2880x4096xf16>, tensor<641x2880xf32>) -> %arg2
    return %0 : tensor<641x2880xf32>
  }
}
