#map = affine_map<()[s0, s1] -> ((s0 * 2048 + s1 * 8) mod 79)>
#map1 = affine_map<()[s0, s1] -> (((s0 * 13 + s1 - (s0 floordiv 8) * 103) floordiv 65) * -5 + 8)>
#map2 = affine_map<()[s0, s1, s2, s3, s4] -> (((s0 * 2048 + s1 * 8) floordiv 79) mod 144 + ((s2 * 13 + s3 - (s2 floordiv 8) * 103) floordiv 65) * 720 + (((s2 * 13 + s3 - (s2 floordiv 8) * 103) mod 65) mod s4) * 144)>
#map3 = affine_map<()[s0, s1] -> (s0 * 2048 + s1 * 8 - ((s0 * 2048 + s1 * 8 + 67) floordiv 79) * 79 + 67)>
#map4 = affine_map<()[s0, s1, s2, s3, s4] -> (((s0 * 2048 + s1 * 8 + 4096) floordiv 79) mod 144 + ((s2 * 13 + s3 - (s2 floordiv 8) * 103) floordiv 65) * 720 + (((s2 * 13 + s3 - (s2 floordiv 8) * 103) mod 65) mod s4) * 144)>
#map5 = affine_map<()[s0, s1] -> (s0 * 2048 + s1 * 8 - ((s0 * 2048 + s1 * 8 + 55) floordiv 79) * 79 + 55)>
#map6 = affine_map<()[s0, s1, s2, s3, s4] -> (((s0 * 2048 + s1 * 8 + 8192) floordiv 79) mod 144 + ((s2 * 13 + s3 - (s2 floordiv 8) * 103) floordiv 65) * 720 + (((s2 * 13 + s3 - (s2 floordiv 8) * 103) mod 65) mod s4) * 144)>
#map7 = affine_map<()[s0, s1, s2, s3, s4] -> (((s0 * 2048 + s1 * 8) floordiv 79) mod 80 + (((s2 * 13 + s3 - (s2 floordiv 8) * 103) mod 65) floordiv s4) * 80)>
#map8 = affine_map<()[s0, s1, s2, s3, s4] -> (((s0 * 2048 + s1 * 8 + 4096) floordiv 79) mod 80 + (((s2 * 13 + s3 - (s2 floordiv 8) * 103) mod 65) floordiv s4) * 80)>
#map9 = affine_map<()[s0] -> ((s0 floordiv 64) * 36 + 36)>
#map10 = affine_map<()[s0, s1] -> (((s0 * 2048 + s1 * 8) floordiv 79) mod 144)>
#map11 = affine_map<()[s0, s1] -> (((s0 * 2048 + s1 * 8 + 4096) floordiv 79) mod 144)>
#map12 = affine_map<()[s0, s1] -> (((s0 * 2048 + s1 * 8 + 8192) floordiv 79) mod 144)>
#map13 = affine_map<()[s0] -> (s0 * 40 + 40)>
#map14 = affine_map<()[s0, s1] -> (((s0 * 2048 + s1 * 8) floordiv 79) mod 80)>
#map15 = affine_map<()[s0, s1] -> (((s0 * 2048 + s1 * 8 + 4096) floordiv 79) mod 80)>
#map16 = affine_map<()[s0] -> (((s0 mod 64) floordiv 32) * 4)>
#map17 = affine_map<()[s0, s1] -> (s0 + s1 * 40 - (s0 floordiv 32) * 32)>
#map18 = affine_map<()[s0] -> (((s0 mod 64) floordiv 32) * 4 + 8)>
#map19 = affine_map<()[s0] -> (((s0 mod 64) floordiv 32) * 4 + 16)>
#map20 = affine_map<()[s0] -> (((s0 mod 64) floordiv 32) * 4 + 24)>
#map21 = affine_map<()[s0] -> (((s0 mod 64) floordiv 32) * 4 + 32)>
#map22 = affine_map<()[s0] -> (((s0 mod 64) floordiv 32) * 4 + 40)>
#map23 = affine_map<()[s0] -> (((s0 mod 64) floordiv 32) * 4 + 48)>
#map24 = affine_map<()[s0] -> (((s0 mod 64) floordiv 32) * 4 + 56)>
#map25 = affine_map<()[s0] -> (((s0 mod 64) floordiv 32) * 4 + 64)>
#map26 = affine_map<()[s0] -> (((s0 mod 64) floordiv 32) * 4 + 72)>
#map27 = affine_map<()[s0, s1] -> (s0 + s1 * 40 - (s0 floordiv 32) * 32 + 32)>
#map28 = affine_map<()[s0] -> (s0 mod 32 + (s0 floordiv 64) * 36)>
#map29 = affine_map<()[s0] -> (s0 mod 32 + (s0 floordiv 64) * 36 + 32)>
#map30 = affine_map<()[s0, s1, s2] -> (s0 * 2048 + s1 * 8 + s2 * 79 - ((s0 * 2048 + s1 * 8) floordiv 79) * 79)>
#map31 = affine_map<()[s0, s1, s2] -> (s0 * 2048 + s1 * 8 + s2 * 79 - ((s0 * 2048 + s1 * 8) floordiv 79) * 79 + 79)>
#map32 = affine_map<()[s0, s1, s2] -> (s0 * 2048 + s1 * 8 + s2 * 79 - ((s0 * 2048 + s1 * 8 + 67) floordiv 79) * 79 + 67)>
#map33 = affine_map<()[s0, s1, s2] -> (s0 * 2048 + s1 * 8 + s2 * 79 - ((s0 * 2048 + s1 * 8 + 67) floordiv 79) * 79 + 146)>
#map34 = affine_map<()[s0, s1, s2] -> (s0 * 2048 + s1 * 8 + s2 * 79 - ((s0 * 2048 + s1 * 8 + 55) floordiv 79) * 79 + 55)>
#map35 = affine_map<()[s0, s1, s2] -> (s0 * 2048 + s1 * 8 + s2 * 79 - ((s0 * 2048 + s1 * 8 + 55) floordiv 79) * 79 + 134)>
#map36 = affine_map<()[s0, s1] -> (s0 * 80 + s1 * 40 + 40)>
#map37 = affine_map<()[s0] -> (s0 * 80 + 80)>
#map38 = affine_map<()[s0, s1, s2, s3, s4] -> (s0 mod 32 + s4 * 40 + (((s1 * 13 + s2 - (s1 floordiv 8) * 103) mod 65) floordiv s3) * 80)>
#map39 = affine_map<()[s0, s1] -> (s0 * 144 + (s1 floordiv 64) * 36 + 36)>
#map40 = affine_map<()[s0] -> (s0 * 144 + 144)>
#map41 = affine_map<()[s0, s1, s2, s3] -> ((s3 floordiv 64) * 36 + ((s0 * 13 + s1 - (s0 floordiv 8) * 103) floordiv 65) * 720 + (((s0 * 13 + s1 - (s0 floordiv 8) * 103) mod 65) mod s2) * 144 + ((s3 mod 64) floordiv 32) * 4)>
#map42 = affine_map<()[s0, s1, s2] -> (((s0 * 13 + s1 - (s0 floordiv 8) * 103) floordiv 65) * 720 + (((s0 * 13 + s1 - (s0 floordiv 8) * 103) mod 65) mod s2) * 144)>
#map43 = affine_map<()[s0, s1, s2] -> ((((s0 * 13 + s1 - (s0 floordiv 8) * 103) mod 65) floordiv s2) * 80)>
#map44 = affine_map<()[s0] -> ((s0 floordiv 64) * 36 + ((s0 mod 64) floordiv 32) * 4)>
#map45 = affine_map<()[s0, s1, s2, s3] -> ((s3 floordiv 64) * 36 + ((s0 * 13 + s1 - (s0 floordiv 8) * 103) floordiv 65) * 720 + (((s0 * 13 + s1 - (s0 floordiv 8) * 103) mod 65) mod s2) * 144 + ((s3 mod 64) floordiv 32) * 4 + 1)>
#map46 = affine_map<()[s0] -> ((s0 floordiv 64) * 36 + ((s0 mod 64) floordiv 32) * 4 + 1)>
#map47 = affine_map<()[s0, s1, s2, s3] -> ((s3 floordiv 64) * 36 + ((s0 * 13 + s1 - (s0 floordiv 8) * 103) floordiv 65) * 720 + (((s0 * 13 + s1 - (s0 floordiv 8) * 103) mod 65) mod s2) * 144 + ((s3 mod 64) floordiv 32) * 4 + 2)>
#map48 = affine_map<()[s0] -> ((s0 floordiv 64) * 36 + ((s0 mod 64) floordiv 32) * 4 + 2)>
#map49 = affine_map<()[s0, s1, s2, s3] -> ((s3 floordiv 64) * 36 + ((s0 * 13 + s1 - (s0 floordiv 8) * 103) floordiv 65) * 720 + (((s0 * 13 + s1 - (s0 floordiv 8) * 103) mod 65) mod s2) * 144 + ((s3 mod 64) floordiv 32) * 4 + 3)>
#map50 = affine_map<()[s0] -> ((s0 floordiv 64) * 36 + ((s0 mod 64) floordiv 32) * 4 + 3)>
#map51 = affine_map<()[s0, s1, s2, s3] -> ((s3 floordiv 64) * 36 + ((s0 * 13 + s1 - (s0 floordiv 8) * 103) floordiv 65) * 720 + (((s0 * 13 + s1 - (s0 floordiv 8) * 103) mod 65) mod s2) * 144 + ((s3 mod 64) floordiv 32) * 4 + 8)>
#map52 = affine_map<()[s0] -> ((s0 floordiv 64) * 36 + ((s0 mod 64) floordiv 32) * 4 + 8)>
#map53 = affine_map<()[s0, s1, s2, s3] -> ((s3 floordiv 64) * 36 + ((s0 * 13 + s1 - (s0 floordiv 8) * 103) floordiv 65) * 720 + (((s0 * 13 + s1 - (s0 floordiv 8) * 103) mod 65) mod s2) * 144 + ((s3 mod 64) floordiv 32) * 4 + 9)>
#map54 = affine_map<()[s0] -> ((s0 floordiv 64) * 36 + ((s0 mod 64) floordiv 32) * 4 + 9)>
#map55 = affine_map<()[s0, s1, s2, s3] -> ((s3 floordiv 64) * 36 + ((s0 * 13 + s1 - (s0 floordiv 8) * 103) floordiv 65) * 720 + (((s0 * 13 + s1 - (s0 floordiv 8) * 103) mod 65) mod s2) * 144 + ((s3 mod 64) floordiv 32) * 4 + 10)>
#map56 = affine_map<()[s0] -> ((s0 floordiv 64) * 36 + ((s0 mod 64) floordiv 32) * 4 + 10)>
#map57 = affine_map<()[s0, s1, s2, s3] -> ((s3 floordiv 64) * 36 + ((s0 * 13 + s1 - (s0 floordiv 8) * 103) floordiv 65) * 720 + (((s0 * 13 + s1 - (s0 floordiv 8) * 103) mod 65) mod s2) * 144 + ((s3 mod 64) floordiv 32) * 4 + 11)>
#map58 = affine_map<()[s0] -> ((s0 floordiv 64) * 36 + ((s0 mod 64) floordiv 32) * 4 + 11)>
#map59 = affine_map<()[s0, s1, s2, s3] -> ((s3 floordiv 64) * 36 + ((s0 * 13 + s1 - (s0 floordiv 8) * 103) floordiv 65) * 720 + (((s0 * 13 + s1 - (s0 floordiv 8) * 103) mod 65) mod s2) * 144 + ((s3 mod 64) floordiv 32) * 4 + 16)>
#map60 = affine_map<()[s0] -> ((s0 floordiv 64) * 36 + ((s0 mod 64) floordiv 32) * 4 + 16)>
#map61 = affine_map<()[s0, s1, s2, s3] -> ((s3 floordiv 64) * 36 + ((s0 * 13 + s1 - (s0 floordiv 8) * 103) floordiv 65) * 720 + (((s0 * 13 + s1 - (s0 floordiv 8) * 103) mod 65) mod s2) * 144 + ((s3 mod 64) floordiv 32) * 4 + 17)>
#map62 = affine_map<()[s0] -> ((s0 floordiv 64) * 36 + ((s0 mod 64) floordiv 32) * 4 + 17)>
#map63 = affine_map<()[s0, s1, s2, s3] -> ((s3 floordiv 64) * 36 + ((s0 * 13 + s1 - (s0 floordiv 8) * 103) floordiv 65) * 720 + (((s0 * 13 + s1 - (s0 floordiv 8) * 103) mod 65) mod s2) * 144 + ((s3 mod 64) floordiv 32) * 4 + 18)>
#map64 = affine_map<()[s0] -> ((s0 floordiv 64) * 36 + ((s0 mod 64) floordiv 32) * 4 + 18)>
#map65 = affine_map<()[s0, s1, s2, s3] -> ((s3 floordiv 64) * 36 + ((s0 * 13 + s1 - (s0 floordiv 8) * 103) floordiv 65) * 720 + (((s0 * 13 + s1 - (s0 floordiv 8) * 103) mod 65) mod s2) * 144 + ((s3 mod 64) floordiv 32) * 4 + 19)>
#map66 = affine_map<()[s0] -> ((s0 floordiv 64) * 36 + ((s0 mod 64) floordiv 32) * 4 + 19)>
#map67 = affine_map<()[s0, s1, s2, s3] -> ((s3 floordiv 64) * 36 + ((s0 * 13 + s1 - (s0 floordiv 8) * 103) floordiv 65) * 720 + (((s0 * 13 + s1 - (s0 floordiv 8) * 103) mod 65) mod s2) * 144 + ((s3 mod 64) floordiv 32) * 4 + 24)>
#map68 = affine_map<()[s0] -> ((s0 floordiv 64) * 36 + ((s0 mod 64) floordiv 32) * 4 + 24)>
#map69 = affine_map<()[s0, s1, s2, s3] -> ((s3 floordiv 64) * 36 + ((s0 * 13 + s1 - (s0 floordiv 8) * 103) floordiv 65) * 720 + (((s0 * 13 + s1 - (s0 floordiv 8) * 103) mod 65) mod s2) * 144 + ((s3 mod 64) floordiv 32) * 4 + 25)>
#map70 = affine_map<()[s0] -> ((s0 floordiv 64) * 36 + ((s0 mod 64) floordiv 32) * 4 + 25)>
#map71 = affine_map<()[s0, s1, s2, s3] -> ((s3 floordiv 64) * 36 + ((s0 * 13 + s1 - (s0 floordiv 8) * 103) floordiv 65) * 720 + (((s0 * 13 + s1 - (s0 floordiv 8) * 103) mod 65) mod s2) * 144 + ((s3 mod 64) floordiv 32) * 4 + 26)>
#map72 = affine_map<()[s0] -> ((s0 floordiv 64) * 36 + ((s0 mod 64) floordiv 32) * 4 + 26)>
#map73 = affine_map<()[s0, s1, s2, s3] -> ((s3 floordiv 64) * 36 + ((s0 * 13 + s1 - (s0 floordiv 8) * 103) floordiv 65) * 720 + (((s0 * 13 + s1 - (s0 floordiv 8) * 103) mod 65) mod s2) * 144 + ((s3 mod 64) floordiv 32) * 4 + 27)>
#map74 = affine_map<()[s0] -> ((s0 floordiv 64) * 36 + ((s0 mod 64) floordiv 32) * 4 + 27)>
#map75 = affine_map<()[s0, s1, s2, s3, s4] -> (s0 mod 32 + s4 * 40 + (((s1 * 13 + s2 - (s1 floordiv 8) * 103) mod 65) floordiv s3) * 80 + 32)>
#map76 = affine_map<()[s0, s1, s2, s3] -> ((s3 floordiv 64) * 36 + ((s0 * 13 + s1 - (s0 floordiv 8) * 103) floordiv 65) * 720 + (((s0 * 13 + s1 - (s0 floordiv 8) * 103) mod 65) mod s2) * 144 + ((s3 mod 64) floordiv 32) * 4 + 32)>
#map77 = affine_map<()[s0] -> ((s0 floordiv 64) * 36 + ((s0 mod 64) floordiv 32) * 4 + 32)>
#map78 = affine_map<()[s0, s1, s2, s3] -> ((s3 floordiv 64) * 36 + ((s0 * 13 + s1 - (s0 floordiv 8) * 103) floordiv 65) * 720 + (((s0 * 13 + s1 - (s0 floordiv 8) * 103) mod 65) mod s2) * 144 + ((s3 mod 64) floordiv 32) * 4 + 33)>
#map79 = affine_map<()[s0] -> ((s0 floordiv 64) * 36 + ((s0 mod 64) floordiv 32) * 4 + 33)>
#map80 = affine_map<()[s0, s1, s2, s3] -> ((s3 floordiv 64) * 36 + ((s0 * 13 + s1 - (s0 floordiv 8) * 103) floordiv 65) * 720 + (((s0 * 13 + s1 - (s0 floordiv 8) * 103) mod 65) mod s2) * 144 + ((s3 mod 64) floordiv 32) * 4 + 34)>
#map81 = affine_map<()[s0] -> ((s0 floordiv 64) * 36 + ((s0 mod 64) floordiv 32) * 4 + 34)>
#map82 = affine_map<()[s0, s1, s2, s3] -> ((s3 floordiv 64) * 36 + ((s0 * 13 + s1 - (s0 floordiv 8) * 103) floordiv 65) * 720 + (((s0 * 13 + s1 - (s0 floordiv 8) * 103) mod 65) mod s2) * 144 + ((s3 mod 64) floordiv 32) * 4 + 35)>
#map83 = affine_map<()[s0] -> ((s0 floordiv 64) * 36 + ((s0 mod 64) floordiv 32) * 4 + 35)>
#map84 = affine_map<()[s0, s1, s2, s3] -> ((s3 floordiv 64) * 36 + ((s0 * 13 + s1 - (s0 floordiv 8) * 103) floordiv 65) * 720 + (((s0 * 13 + s1 - (s0 floordiv 8) * 103) mod 65) mod s2) * 144 + ((s3 mod 64) floordiv 32) * 4 + 40)>
#map85 = affine_map<()[s0] -> ((s0 floordiv 64) * 36 + ((s0 mod 64) floordiv 32) * 4 + 40)>
#map86 = affine_map<()[s0, s1, s2, s3] -> ((s3 floordiv 64) * 36 + ((s0 * 13 + s1 - (s0 floordiv 8) * 103) floordiv 65) * 720 + (((s0 * 13 + s1 - (s0 floordiv 8) * 103) mod 65) mod s2) * 144 + ((s3 mod 64) floordiv 32) * 4 + 41)>
#map87 = affine_map<()[s0] -> ((s0 floordiv 64) * 36 + ((s0 mod 64) floordiv 32) * 4 + 41)>
#map88 = affine_map<()[s0, s1, s2, s3] -> ((s3 floordiv 64) * 36 + ((s0 * 13 + s1 - (s0 floordiv 8) * 103) floordiv 65) * 720 + (((s0 * 13 + s1 - (s0 floordiv 8) * 103) mod 65) mod s2) * 144 + ((s3 mod 64) floordiv 32) * 4 + 42)>
#map89 = affine_map<()[s0] -> ((s0 floordiv 64) * 36 + ((s0 mod 64) floordiv 32) * 4 + 42)>
#map90 = affine_map<()[s0, s1, s2, s3] -> ((s3 floordiv 64) * 36 + ((s0 * 13 + s1 - (s0 floordiv 8) * 103) floordiv 65) * 720 + (((s0 * 13 + s1 - (s0 floordiv 8) * 103) mod 65) mod s2) * 144 + ((s3 mod 64) floordiv 32) * 4 + 43)>
#map91 = affine_map<()[s0] -> ((s0 floordiv 64) * 36 + ((s0 mod 64) floordiv 32) * 4 + 43)>
#map92 = affine_map<()[s0, s1, s2, s3] -> ((s3 floordiv 64) * 36 + ((s0 * 13 + s1 - (s0 floordiv 8) * 103) floordiv 65) * 720 + (((s0 * 13 + s1 - (s0 floordiv 8) * 103) mod 65) mod s2) * 144 + ((s3 mod 64) floordiv 32) * 4 + 48)>
#map93 = affine_map<()[s0] -> ((s0 floordiv 64) * 36 + ((s0 mod 64) floordiv 32) * 4 + 48)>
#map94 = affine_map<()[s0, s1, s2, s3] -> ((s3 floordiv 64) * 36 + ((s0 * 13 + s1 - (s0 floordiv 8) * 103) floordiv 65) * 720 + (((s0 * 13 + s1 - (s0 floordiv 8) * 103) mod 65) mod s2) * 144 + ((s3 mod 64) floordiv 32) * 4 + 49)>
#map95 = affine_map<()[s0] -> ((s0 floordiv 64) * 36 + ((s0 mod 64) floordiv 32) * 4 + 49)>
#map96 = affine_map<()[s0, s1, s2, s3] -> ((s3 floordiv 64) * 36 + ((s0 * 13 + s1 - (s0 floordiv 8) * 103) floordiv 65) * 720 + (((s0 * 13 + s1 - (s0 floordiv 8) * 103) mod 65) mod s2) * 144 + ((s3 mod 64) floordiv 32) * 4 + 50)>
#map97 = affine_map<()[s0] -> ((s0 floordiv 64) * 36 + ((s0 mod 64) floordiv 32) * 4 + 50)>
#map98 = affine_map<()[s0, s1, s2, s3] -> ((s3 floordiv 64) * 36 + ((s0 * 13 + s1 - (s0 floordiv 8) * 103) floordiv 65) * 720 + (((s0 * 13 + s1 - (s0 floordiv 8) * 103) mod 65) mod s2) * 144 + ((s3 mod 64) floordiv 32) * 4 + 51)>
#map99 = affine_map<()[s0] -> ((s0 floordiv 64) * 36 + ((s0 mod 64) floordiv 32) * 4 + 51)>
#map100 = affine_map<()[s0, s1, s2, s3] -> ((s3 floordiv 64) * 36 + ((s0 * 13 + s1 - (s0 floordiv 8) * 103) floordiv 65) * 720 + (((s0 * 13 + s1 - (s0 floordiv 8) * 103) mod 65) mod s2) * 144 + ((s3 mod 64) floordiv 32) * 4 + 56)>
#map101 = affine_map<()[s0] -> ((s0 floordiv 64) * 36 + ((s0 mod 64) floordiv 32) * 4 + 56)>
#map102 = affine_map<()[s0, s1, s2, s3] -> ((s3 floordiv 64) * 36 + ((s0 * 13 + s1 - (s0 floordiv 8) * 103) floordiv 65) * 720 + (((s0 * 13 + s1 - (s0 floordiv 8) * 103) mod 65) mod s2) * 144 + ((s3 mod 64) floordiv 32) * 4 + 57)>
#map103 = affine_map<()[s0] -> ((s0 floordiv 64) * 36 + ((s0 mod 64) floordiv 32) * 4 + 57)>
#map104 = affine_map<()[s0, s1, s2, s3] -> ((s3 floordiv 64) * 36 + ((s0 * 13 + s1 - (s0 floordiv 8) * 103) floordiv 65) * 720 + (((s0 * 13 + s1 - (s0 floordiv 8) * 103) mod 65) mod s2) * 144 + ((s3 mod 64) floordiv 32) * 4 + 58)>
#map105 = affine_map<()[s0] -> ((s0 floordiv 64) * 36 + ((s0 mod 64) floordiv 32) * 4 + 58)>
#map106 = affine_map<()[s0, s1, s2, s3] -> ((s3 floordiv 64) * 36 + ((s0 * 13 + s1 - (s0 floordiv 8) * 103) floordiv 65) * 720 + (((s0 * 13 + s1 - (s0 floordiv 8) * 103) mod 65) mod s2) * 144 + ((s3 mod 64) floordiv 32) * 4 + 59)>
#map107 = affine_map<()[s0] -> ((s0 floordiv 64) * 36 + ((s0 mod 64) floordiv 32) * 4 + 59)>
#translation = #iree_codegen.translation_info<pipeline = None workgroup_size = [256, 2, 1] subgroup_size = 64>
module attributes {transform.with_named_sequence} {
  stream.executable private @gemm {
    stream.executable.export public @gemm workgroups() -> (index, index, index) {
      %c8 = arith.constant 8 : index
      %c13 = arith.constant 13 : index
      %c1 = arith.constant 1 : index
      stream.return %c8, %c13, %c1 : index, index, index
    }
    builtin.module {
      func.func @gemm(%arg0: !stream.binding, %arg1: !stream.binding, %arg2: !stream.binding) attributes {translation_info = #translation} {
        %cst = arith.constant dense<72> : vector<4xindex>
        %cst_0 = arith.constant dense<64> : vector<4xindex>
        %cst_1 = arith.constant dense<56> : vector<4xindex>
        %cst_2 = arith.constant dense<48> : vector<4xindex>
        %cst_3 = arith.constant dense<40> : vector<4xindex>
        %cst_4 = arith.constant dense<32> : vector<4xindex>
        %cst_5 = arith.constant dense<24> : vector<4xindex>
        %cst_6 = arith.constant dense<16> : vector<4xindex>
        %cst_7 = arith.constant dense<8> : vector<4xindex>
        %cst_8 = arith.constant dense<0.000000e+00> : vector<4xf16>
        %cst_9 = arith.constant dense<79> : vector<4xindex>
        %cst_10 = arith.constant dense<79> : vector<8xindex>
        %cst_11 = arith.constant dense<[0, 1, 2, 3, 4, 5, 6, 7]> : vector<8xi32>
        %cst_12 = arith.constant dense<1073741823> : vector<8xindex>
        %c1024_i14 = arith.constant 1024 : i14
        %cst_13 = arith.constant dense<1024> : vector<8xindex>
        %c536870911 = arith.constant 536870911 : index
        %c2147483643_i32 = arith.constant 2147483643 : i32
        %c536870910 = arith.constant 536870910 : index
        %cst_14 = arith.constant dense<[0, 1, 2, 3]> : vector<4xindex>
        %c12 = arith.constant 12 : index
        %c80 = arith.constant 80 : index
        %c2147483645_i32 = arith.constant 2147483645 : i32
        %c1073741822 = arith.constant 1073741822 : index
        %c5 = arith.constant 5 : index
        %c1 = arith.constant 1 : index
        %c144 = arith.constant 144 : index
        %c1024 = arith.constant 1024 : index
        %cst_15 = arith.constant dense<[0, 1, 2, 3, 4, 5, 6, 7]> : vector<8xindex>
        %c0 = arith.constant 0 : index
        %c23904 = arith.constant 23904 : index
        %cst_16 = arith.constant dense<0.000000e+00> : vector<16xf32>
        %block_id_x = gpu.block_id  x upper_bound 8
        %block_id_y = gpu.block_id  y upper_bound 13
        %thread_id_x = gpu.thread_id  x upper_bound 256
        %thread_id_y = gpu.thread_id  y upper_bound 2
        %alloc = memref.alloc() : memref<37184xi8, #gpu.address_space<workgroup>>
        %view = memref.view %alloc[%c23904][] : memref<37184xi8, #gpu.address_space<workgroup>> to memref<80x83xf16, #gpu.address_space<workgroup>>
        %view_17 = memref.view %alloc[%c0][] : memref<37184xi8, #gpu.address_space<workgroup>> to memref<144x83xf16, #gpu.address_space<workgroup>>
        %0 = stream.binding.subspan %arg0[%c0] : !stream.binding -> memref<1024x1024xf16, strided<[1024, 1], offset: ?>>
        %1 = affine.apply #map()[%thread_id_y, %thread_id_x]
        %2 = vector.broadcast %1 : index to vector<8xindex>
        %3 = arith.addi %2, %cst_15 overflow<nsw, nuw> : vector<8xindex>
        %4 = arith.cmpi slt, %3, %cst_13 : vector<8xindex>
        %5 = affine.apply #map1()[%block_id_x, %block_id_y]
        %6 = arith.minsi %5, %c5 : index
        %7 = arith.maxsi %6, %c1 : index
        %8 = affine.apply #map2()[%thread_id_y, %thread_id_x, %block_id_x, %block_id_y, %7]
        %9 = arith.cmpi slt, %8, %c1024 : index
        %10 = vector.broadcast %9 : i1 to vector<8xi1>
        %11 = arith.andi %4, %10 : vector<8xi1>
        %12 = arith.muli %8, %c1024 overflow<nsw> : index
        %13 = arith.addi %12, %1 overflow<nsw> : index
        %base_buffer, %offset, %sizes:2, %strides:2 = memref.extract_strided_metadata %0 : memref<1024x1024xf16, strided<[1024, 1], offset: ?>> -> memref<f16>, index, index, index, index, index
        %reinterpret_cast = memref.reinterpret_cast %0 to offset: [%offset], sizes: [%c1073741822], strides: [1] : memref<1024x1024xf16, strided<[1024, 1], offset: ?>> to memref<?xf16, strided<[1], offset: ?>>
        %14 = amdgpu.fat_raw_buffer_cast %reinterpret_cast validBytes(%c2147483645_i32) cacheSwizzleStride(%c1024_i14) resetOffset : memref<?xf16, strided<[1], offset: ?>> to memref<?xf16, #amdgpu.address_space<fat_raw_buffer>>
        %15 = arith.index_cast %13 : index to i32
        %16 = vector.broadcast %15 : i32 to vector<8xi32>
        %17 = arith.addi %16, %cst_11 : vector<8xi32>
        %18 = arith.index_cast %17 : vector<8xi32> to vector<8xindex>
        %19 = arith.select %11, %18, %cst_12 : vector<8xi1>, vector<8xindex>
        %20 = vector.extract %19[0] : index from vector<8xindex>
        %21 = memref.load %14[%20] : memref<?xf16, #amdgpu.address_space<fat_raw_buffer>>
        %22 = vector.extract %19[1] : index from vector<8xindex>
        %23 = memref.load %14[%22] : memref<?xf16, #amdgpu.address_space<fat_raw_buffer>>
        %24 = vector.extract %19[2] : index from vector<8xindex>
        %25 = memref.load %14[%24] : memref<?xf16, #amdgpu.address_space<fat_raw_buffer>>
        %26 = vector.extract %19[3] : index from vector<8xindex>
        %27 = memref.load %14[%26] : memref<?xf16, #amdgpu.address_space<fat_raw_buffer>>
        %28 = vector.extract %19[4] : index from vector<8xindex>
        %29 = memref.load %14[%28] : memref<?xf16, #amdgpu.address_space<fat_raw_buffer>>
        %30 = vector.extract %19[5] : index from vector<8xindex>
        %31 = memref.load %14[%30] : memref<?xf16, #amdgpu.address_space<fat_raw_buffer>>
        %32 = vector.extract %19[6] : index from vector<8xindex>
        %33 = memref.load %14[%32] : memref<?xf16, #amdgpu.address_space<fat_raw_buffer>>
        %34 = vector.extract %19[7] : index from vector<8xindex>
        %35 = memref.load %14[%34] : memref<?xf16, #amdgpu.address_space<fat_raw_buffer>>
        %36 = vector.from_elements %21, %23, %25, %27, %29, %31, %33, %35 : vector<8xf16>
        %37 = affine.apply #map3()[%thread_id_y, %thread_id_x]
        %38 = vector.broadcast %37 : index to vector<8xindex>
        %39 = arith.addi %38, %cst_15 overflow<nsw, nuw> : vector<8xindex>
        %40 = arith.cmpi slt, %39, %cst_13 : vector<8xindex>
        %41 = affine.apply #map4()[%thread_id_y, %thread_id_x, %block_id_x, %block_id_y, %7]
        %42 = arith.cmpi slt, %41, %c1024 : index
        %43 = vector.broadcast %42 : i1 to vector<8xi1>
        %44 = arith.andi %40, %43 : vector<8xi1>
        %45 = arith.muli %41, %c1024 overflow<nsw> : index
        %46 = arith.addi %45, %37 overflow<nsw> : index
        %47 = arith.index_cast %46 : index to i32
        %48 = vector.broadcast %47 : i32 to vector<8xi32>
        %49 = arith.addi %48, %cst_11 : vector<8xi32>
        %50 = arith.index_cast %49 : vector<8xi32> to vector<8xindex>
        %51 = arith.select %44, %50, %cst_12 : vector<8xi1>, vector<8xindex>
        %52 = vector.extract %51[0] : index from vector<8xindex>
        %53 = memref.load %14[%52] : memref<?xf16, #amdgpu.address_space<fat_raw_buffer>>
        %54 = vector.extract %51[1] : index from vector<8xindex>
        %55 = memref.load %14[%54] : memref<?xf16, #amdgpu.address_space<fat_raw_buffer>>
        %56 = vector.extract %51[2] : index from vector<8xindex>
        %57 = memref.load %14[%56] : memref<?xf16, #amdgpu.address_space<fat_raw_buffer>>
        %58 = vector.extract %51[3] : index from vector<8xindex>
        %59 = memref.load %14[%58] : memref<?xf16, #amdgpu.address_space<fat_raw_buffer>>
        %60 = vector.extract %51[4] : index from vector<8xindex>
        %61 = memref.load %14[%60] : memref<?xf16, #amdgpu.address_space<fat_raw_buffer>>
        %62 = vector.extract %51[5] : index from vector<8xindex>
        %63 = memref.load %14[%62] : memref<?xf16, #amdgpu.address_space<fat_raw_buffer>>
        %64 = vector.extract %51[6] : index from vector<8xindex>
        %65 = memref.load %14[%64] : memref<?xf16, #amdgpu.address_space<fat_raw_buffer>>
        %66 = vector.extract %51[7] : index from vector<8xindex>
        %67 = memref.load %14[%66] : memref<?xf16, #amdgpu.address_space<fat_raw_buffer>>
        %68 = vector.from_elements %53, %55, %57, %59, %61, %63, %65, %67 : vector<8xf16>
        %69 = affine.apply #map5()[%thread_id_y, %thread_id_x]
        %70 = vector.broadcast %69 : index to vector<8xindex>
        %71 = arith.addi %70, %cst_15 overflow<nsw, nuw> : vector<8xindex>
        %72 = arith.cmpi slt, %71, %cst_13 : vector<8xindex>
        %73 = affine.apply #map6()[%thread_id_y, %thread_id_x, %block_id_x, %block_id_y, %7]
        %74 = arith.cmpi slt, %73, %c1024 : index
        %75 = vector.broadcast %74 : i1 to vector<8xi1>
        %76 = arith.andi %72, %75 : vector<8xi1>
        %77 = arith.muli %73, %c1024 overflow<nsw> : index
        %78 = arith.addi %77, %69 overflow<nsw> : index
        %79 = arith.index_cast %78 : index to i32
        %80 = vector.broadcast %79 : i32 to vector<8xi32>
        %81 = arith.addi %80, %cst_11 : vector<8xi32>
        %82 = arith.index_cast %81 : vector<8xi32> to vector<8xindex>
        %83 = arith.select %76, %82, %cst_12 : vector<8xi1>, vector<8xindex>
        %84 = vector.extract %83[0] : index from vector<8xindex>
        %85 = memref.load %14[%84] : memref<?xf16, #amdgpu.address_space<fat_raw_buffer>>
        %86 = vector.extract %83[1] : index from vector<8xindex>
        %87 = memref.load %14[%86] : memref<?xf16, #amdgpu.address_space<fat_raw_buffer>>
        %88 = vector.extract %83[2] : index from vector<8xindex>
        %89 = memref.load %14[%88] : memref<?xf16, #amdgpu.address_space<fat_raw_buffer>>
        %90 = vector.extract %83[3] : index from vector<8xindex>
        %91 = memref.load %14[%90] : memref<?xf16, #amdgpu.address_space<fat_raw_buffer>>
        %92 = vector.extract %83[4] : index from vector<8xindex>
        %93 = memref.load %14[%92] : memref<?xf16, #amdgpu.address_space<fat_raw_buffer>>
        %94 = vector.extract %83[5] : index from vector<8xindex>
        %95 = memref.load %14[%94] : memref<?xf16, #amdgpu.address_space<fat_raw_buffer>>
        %96 = vector.extract %83[6] : index from vector<8xindex>
        %97 = memref.load %14[%96] : memref<?xf16, #amdgpu.address_space<fat_raw_buffer>>
        %98 = vector.extract %83[7] : index from vector<8xindex>
        %99 = memref.load %14[%98] : memref<?xf16, #amdgpu.address_space<fat_raw_buffer>>
        %100 = vector.from_elements %85, %87, %89, %91, %93, %95, %97, %99 : vector<8xf16>
        %101 = stream.binding.subspan %arg1[%c0] : !stream.binding -> memref<1024x1024xf16, strided<[1024, 1], offset: ?>>
        %102 = affine.apply #map7()[%thread_id_y, %thread_id_x, %block_id_x, %block_id_y, %7]
        %103 = arith.cmpi slt, %102, %c1024 : index
        %104 = vector.broadcast %103 : i1 to vector<8xi1>
        %105 = arith.andi %4, %104 : vector<8xi1>
        %106 = arith.muli %102, %c1024 overflow<nsw> : index
        %107 = arith.addi %106, %1 overflow<nsw> : index
        %base_buffer_18, %offset_19, %sizes_20:2, %strides_21:2 = memref.extract_strided_metadata %101 : memref<1024x1024xf16, strided<[1024, 1], offset: ?>> -> memref<f16>, index, index, index, index, index
        %reinterpret_cast_22 = memref.reinterpret_cast %101 to offset: [%offset_19], sizes: [%c1073741822], strides: [1] : memref<1024x1024xf16, strided<[1024, 1], offset: ?>> to memref<?xf16, strided<[1], offset: ?>>
        %108 = amdgpu.fat_raw_buffer_cast %reinterpret_cast_22 validBytes(%c2147483645_i32) cacheSwizzleStride(%c1024_i14) resetOffset : memref<?xf16, strided<[1], offset: ?>> to memref<?xf16, #amdgpu.address_space<fat_raw_buffer>>
        %109 = arith.index_cast %107 : index to i32
        %110 = vector.broadcast %109 : i32 to vector<8xi32>
        %111 = arith.addi %110, %cst_11 : vector<8xi32>
        %112 = arith.index_cast %111 : vector<8xi32> to vector<8xindex>
        %113 = arith.select %105, %112, %cst_12 : vector<8xi1>, vector<8xindex>
        %114 = vector.extract %113[0] : index from vector<8xindex>
        %115 = memref.load %108[%114] : memref<?xf16, #amdgpu.address_space<fat_raw_buffer>>
        %116 = vector.extract %113[1] : index from vector<8xindex>
        %117 = memref.load %108[%116] : memref<?xf16, #amdgpu.address_space<fat_raw_buffer>>
        %118 = vector.extract %113[2] : index from vector<8xindex>
        %119 = memref.load %108[%118] : memref<?xf16, #amdgpu.address_space<fat_raw_buffer>>
        %120 = vector.extract %113[3] : index from vector<8xindex>
        %121 = memref.load %108[%120] : memref<?xf16, #amdgpu.address_space<fat_raw_buffer>>
        %122 = vector.extract %113[4] : index from vector<8xindex>
        %123 = memref.load %108[%122] : memref<?xf16, #amdgpu.address_space<fat_raw_buffer>>
        %124 = vector.extract %113[5] : index from vector<8xindex>
        %125 = memref.load %108[%124] : memref<?xf16, #amdgpu.address_space<fat_raw_buffer>>
        %126 = vector.extract %113[6] : index from vector<8xindex>
        %127 = memref.load %108[%126] : memref<?xf16, #amdgpu.address_space<fat_raw_buffer>>
        %128 = vector.extract %113[7] : index from vector<8xindex>
        %129 = memref.load %108[%128] : memref<?xf16, #amdgpu.address_space<fat_raw_buffer>>
        %130 = vector.from_elements %115, %117, %119, %121, %123, %125, %127, %129 : vector<8xf16>
        %131 = affine.apply #map8()[%thread_id_y, %thread_id_x, %block_id_x, %block_id_y, %7]
        %132 = arith.cmpi slt, %131, %c1024 : index
        %133 = vector.broadcast %132 : i1 to vector<8xi1>
        %134 = arith.andi %40, %133 : vector<8xi1>
        %135 = arith.muli %131, %c1024 overflow<nsw> : index
        %136 = arith.addi %135, %37 overflow<nsw> : index
        %137 = arith.index_cast %136 : index to i32
        %138 = vector.broadcast %137 : i32 to vector<8xi32>
        %139 = arith.addi %138, %cst_11 : vector<8xi32>
        %140 = arith.index_cast %139 : vector<8xi32> to vector<8xindex>
        %141 = arith.select %134, %140, %cst_12 : vector<8xi1>, vector<8xindex>
        %142 = vector.extract %141[0] : index from vector<8xindex>
        %143 = memref.load %108[%142] : memref<?xf16, #amdgpu.address_space<fat_raw_buffer>>
        %144 = vector.extract %141[1] : index from vector<8xindex>
        %145 = memref.load %108[%144] : memref<?xf16, #amdgpu.address_space<fat_raw_buffer>>
        %146 = vector.extract %141[2] : index from vector<8xindex>
        %147 = memref.load %108[%146] : memref<?xf16, #amdgpu.address_space<fat_raw_buffer>>
        %148 = vector.extract %141[3] : index from vector<8xindex>
        %149 = memref.load %108[%148] : memref<?xf16, #amdgpu.address_space<fat_raw_buffer>>
        %150 = vector.extract %141[4] : index from vector<8xindex>
        %151 = memref.load %108[%150] : memref<?xf16, #amdgpu.address_space<fat_raw_buffer>>
        %152 = vector.extract %141[5] : index from vector<8xindex>
        %153 = memref.load %108[%152] : memref<?xf16, #amdgpu.address_space<fat_raw_buffer>>
        %154 = vector.extract %141[6] : index from vector<8xindex>
        %155 = memref.load %108[%154] : memref<?xf16, #amdgpu.address_space<fat_raw_buffer>>
        %156 = vector.extract %141[7] : index from vector<8xindex>
        %157 = memref.load %108[%156] : memref<?xf16, #amdgpu.address_space<fat_raw_buffer>>
        %158 = vector.from_elements %143, %145, %147, %149, %151, %153, %155, %157 : vector<8xf16>
        %159 = arith.cmpi slt, %3, %cst_10 : vector<8xindex>
        %160 = affine.apply #map9()[%thread_id_x]
        %161 = arith.minsi %160, %c144 : index
        %162 = affine.apply #map10()[%thread_id_y, %thread_id_x]
        %163 = arith.cmpi slt, %162, %161 : index
        %164 = vector.broadcast %163 : i1 to vector<8xi1>
        %165 = arith.andi %159, %164 : vector<8xi1>
        vector.maskedstore %view_17[%162, %1], %165, %36 : memref<144x83xf16, #gpu.address_space<workgroup>>, vector<8xi1>, vector<8xf16>
        %166 = arith.cmpi slt, %39, %cst_10 : vector<8xindex>
        %167 = affine.apply #map11()[%thread_id_y, %thread_id_x]
        %168 = arith.cmpi slt, %167, %161 : index
        %169 = vector.broadcast %168 : i1 to vector<8xi1>
        %170 = arith.andi %166, %169 : vector<8xi1>
        vector.maskedstore %view_17[%167, %37], %170, %68 : memref<144x83xf16, #gpu.address_space<workgroup>>, vector<8xi1>, vector<8xf16>
        %171 = arith.cmpi slt, %71, %cst_10 : vector<8xindex>
        %172 = affine.apply #map12()[%thread_id_y, %thread_id_x]
        %173 = arith.cmpi slt, %172, %161 : index
        %174 = vector.broadcast %173 : i1 to vector<8xi1>
        %175 = arith.andi %171, %174 : vector<8xi1>
        vector.maskedstore %view_17[%172, %69], %175, %100 : memref<144x83xf16, #gpu.address_space<workgroup>>, vector<8xi1>, vector<8xf16>
        %176 = affine.apply #map13()[%thread_id_y]
        %177 = arith.minsi %176, %c80 : index
        %178 = affine.apply #map14()[%thread_id_y, %thread_id_x]
        %179 = arith.cmpi slt, %178, %177 : index
        %180 = vector.broadcast %179 : i1 to vector<8xi1>
        %181 = arith.andi %159, %180 : vector<8xi1>
        vector.maskedstore %view[%178, %1], %181, %130 : memref<80x83xf16, #gpu.address_space<workgroup>>, vector<8xi1>, vector<8xf16>
        %182 = affine.apply #map15()[%thread_id_y, %thread_id_x]
        %183 = arith.cmpi slt, %182, %177 : index
        %184 = vector.broadcast %183 : i1 to vector<8xi1>
        %185 = arith.andi %166, %184 : vector<8xi1>
        vector.maskedstore %view[%182, %37], %185, %158 : memref<80x83xf16, #gpu.address_space<workgroup>>, vector<8xi1>, vector<8xf16>
        %186 = affine.apply #map16()[%thread_id_x]
        %187 = vector.broadcast %186 : index to vector<4xindex>
        %188 = arith.addi %187, %cst_14 overflow<nsw, nuw> : vector<4xindex>
        %189 = arith.cmpi slt, %188, %cst_9 : vector<4xindex>
        %190 = affine.apply #map17()[%thread_id_x, %thread_id_y]
        %191 = arith.cmpi slt, %190, %177 : index
        %192 = vector.broadcast %191 : i1 to vector<4xi1>
        %193 = arith.andi %189, %192 : vector<4xi1>
        %194 = arith.addi %188, %cst_7 overflow<nsw, nuw> : vector<4xindex>
        %195 = arith.cmpi slt, %194, %cst_9 : vector<4xindex>
        %196 = arith.andi %195, %192 : vector<4xi1>
        %197 = affine.apply #map18()[%thread_id_x]
        %198 = arith.addi %188, %cst_6 overflow<nsw, nuw> : vector<4xindex>
        %199 = arith.cmpi slt, %198, %cst_9 : vector<4xindex>
        %200 = arith.andi %199, %192 : vector<4xi1>
        %201 = affine.apply #map19()[%thread_id_x]
        %202 = arith.addi %188, %cst_5 overflow<nsw, nuw> : vector<4xindex>
        %203 = arith.cmpi slt, %202, %cst_9 : vector<4xindex>
        %204 = arith.andi %203, %192 : vector<4xi1>
        %205 = affine.apply #map20()[%thread_id_x]
        %206 = arith.addi %188, %cst_4 overflow<nsw, nuw> : vector<4xindex>
        %207 = arith.cmpi slt, %206, %cst_9 : vector<4xindex>
        %208 = arith.andi %207, %192 : vector<4xi1>
        %209 = affine.apply #map21()[%thread_id_x]
        %210 = arith.addi %188, %cst_3 overflow<nsw, nuw> : vector<4xindex>
        %211 = arith.cmpi slt, %210, %cst_9 : vector<4xindex>
        %212 = arith.andi %211, %192 : vector<4xi1>
        %213 = affine.apply #map22()[%thread_id_x]
        %214 = arith.addi %188, %cst_2 overflow<nsw, nuw> : vector<4xindex>
        %215 = arith.cmpi slt, %214, %cst_9 : vector<4xindex>
        %216 = arith.andi %215, %192 : vector<4xi1>
        %217 = affine.apply #map23()[%thread_id_x]
        %218 = arith.addi %188, %cst_1 overflow<nsw, nuw> : vector<4xindex>
        %219 = arith.cmpi slt, %218, %cst_9 : vector<4xindex>
        %220 = arith.andi %219, %192 : vector<4xi1>
        %221 = affine.apply #map24()[%thread_id_x]
        %222 = arith.addi %188, %cst_0 overflow<nsw, nuw> : vector<4xindex>
        %223 = arith.cmpi slt, %222, %cst_9 : vector<4xindex>
        %224 = arith.andi %223, %192 : vector<4xi1>
        %225 = affine.apply #map25()[%thread_id_x]
        %226 = arith.addi %188, %cst overflow<nsw, nuw> : vector<4xindex>
        %227 = arith.cmpi slt, %226, %cst_9 : vector<4xindex>
        %228 = arith.andi %227, %192 : vector<4xi1>
        %229 = affine.apply #map26()[%thread_id_x]
        %230 = affine.apply #map27()[%thread_id_x, %thread_id_y]
        %231 = arith.cmpi slt, %230, %177 : index
        %232 = vector.broadcast %231 : i1 to vector<4xi1>
        %233 = arith.andi %189, %232 : vector<4xi1>
        %234 = arith.andi %195, %232 : vector<4xi1>
        %235 = arith.andi %199, %232 : vector<4xi1>
        %236 = arith.andi %203, %232 : vector<4xi1>
        %237 = arith.andi %207, %232 : vector<4xi1>
        %238 = arith.andi %211, %232 : vector<4xi1>
        %239 = arith.andi %215, %232 : vector<4xi1>
        %240 = arith.andi %219, %232 : vector<4xi1>
        %241 = arith.andi %223, %232 : vector<4xi1>
        %242 = arith.andi %227, %232 : vector<4xi1>
        %243 = affine.apply #map28()[%thread_id_x]
        %244 = arith.cmpi slt, %243, %161 : index
        %245 = vector.broadcast %244 : i1 to vector<4xi1>
        %246 = arith.andi %189, %245 : vector<4xi1>
        %247 = arith.andi %195, %245 : vector<4xi1>
        %248 = arith.andi %199, %245 : vector<4xi1>
        %249 = arith.andi %203, %245 : vector<4xi1>
        %250 = arith.andi %207, %245 : vector<4xi1>
        %251 = arith.andi %211, %245 : vector<4xi1>
        %252 = arith.andi %215, %245 : vector<4xi1>
        %253 = arith.andi %219, %245 : vector<4xi1>
        %254 = arith.andi %223, %245 : vector<4xi1>
        %255 = arith.andi %227, %245 : vector<4xi1>
        %256 = affine.apply #map29()[%thread_id_x]
        %257 = arith.cmpi slt, %256, %161 : index
        %258 = vector.broadcast %257 : i1 to vector<4xi1>
        %259 = arith.andi %189, %258 : vector<4xi1>
        %260 = arith.andi %195, %258 : vector<4xi1>
        %261 = arith.andi %199, %258 : vector<4xi1>
        %262 = arith.andi %203, %258 : vector<4xi1>
        %263 = arith.andi %207, %258 : vector<4xi1>
        %264 = arith.andi %211, %258 : vector<4xi1>
        %265 = arith.andi %215, %258 : vector<4xi1>
        %266 = arith.andi %219, %258 : vector<4xi1>
        %267 = arith.andi %223, %258 : vector<4xi1>
        %268 = arith.andi %227, %258 : vector<4xi1>
        %269:4 = scf.for %arg3 = %c0 to %c12 step %c1 iter_args(%arg4 = %cst_16, %arg5 = %cst_16, %arg6 = %cst_16, %arg7 = %cst_16) -> (vector<16xf32>, vector<16xf32>, vector<16xf32>, vector<16xf32>) {
          amdgpu.lds_barrier
          %836 = vector.maskedload %view[%190, %186], %193, %cst_8 : memref<80x83xf16, #gpu.address_space<workgroup>>, vector<4xi1>, vector<4xf16> into vector<4xf16>
          %837 = vector.maskedload %view[%190, %197], %196, %cst_8 : memref<80x83xf16, #gpu.address_space<workgroup>>, vector<4xi1>, vector<4xf16> into vector<4xf16>
          %838 = vector.maskedload %view[%190, %201], %200, %cst_8 : memref<80x83xf16, #gpu.address_space<workgroup>>, vector<4xi1>, vector<4xf16> into vector<4xf16>
          %839 = vector.maskedload %view[%190, %205], %204, %cst_8 : memref<80x83xf16, #gpu.address_space<workgroup>>, vector<4xi1>, vector<4xf16> into vector<4xf16>
          %840 = vector.maskedload %view[%190, %209], %208, %cst_8 : memref<80x83xf16, #gpu.address_space<workgroup>>, vector<4xi1>, vector<4xf16> into vector<4xf16>
          %841 = vector.maskedload %view[%190, %213], %212, %cst_8 : memref<80x83xf16, #gpu.address_space<workgroup>>, vector<4xi1>, vector<4xf16> into vector<4xf16>
          %842 = vector.maskedload %view[%190, %217], %216, %cst_8 : memref<80x83xf16, #gpu.address_space<workgroup>>, vector<4xi1>, vector<4xf16> into vector<4xf16>
          %843 = vector.maskedload %view[%190, %221], %220, %cst_8 : memref<80x83xf16, #gpu.address_space<workgroup>>, vector<4xi1>, vector<4xf16> into vector<4xf16>
          %844 = vector.maskedload %view[%190, %225], %224, %cst_8 : memref<80x83xf16, #gpu.address_space<workgroup>>, vector<4xi1>, vector<4xf16> into vector<4xf16>
          %845 = vector.maskedload %view[%190, %229], %228, %cst_8 : memref<80x83xf16, #gpu.address_space<workgroup>>, vector<4xi1>, vector<4xf16> into vector<4xf16>
          %846 = vector.maskedload %view[%230, %186], %233, %cst_8 : memref<80x83xf16, #gpu.address_space<workgroup>>, vector<4xi1>, vector<4xf16> into vector<4xf16>
          %847 = vector.maskedload %view[%230, %197], %234, %cst_8 : memref<80x83xf16, #gpu.address_space<workgroup>>, vector<4xi1>, vector<4xf16> into vector<4xf16>
          %848 = vector.maskedload %view[%230, %201], %235, %cst_8 : memref<80x83xf16, #gpu.address_space<workgroup>>, vector<4xi1>, vector<4xf16> into vector<4xf16>
          %849 = vector.maskedload %view[%230, %205], %236, %cst_8 : memref<80x83xf16, #gpu.address_space<workgroup>>, vector<4xi1>, vector<4xf16> into vector<4xf16>
          %850 = vector.maskedload %view[%230, %209], %237, %cst_8 : memref<80x83xf16, #gpu.address_space<workgroup>>, vector<4xi1>, vector<4xf16> into vector<4xf16>
          %851 = vector.maskedload %view[%230, %213], %238, %cst_8 : memref<80x83xf16, #gpu.address_space<workgroup>>, vector<4xi1>, vector<4xf16> into vector<4xf16>
          %852 = vector.maskedload %view[%230, %217], %239, %cst_8 : memref<80x83xf16, #gpu.address_space<workgroup>>, vector<4xi1>, vector<4xf16> into vector<4xf16>
          %853 = vector.maskedload %view[%230, %221], %240, %cst_8 : memref<80x83xf16, #gpu.address_space<workgroup>>, vector<4xi1>, vector<4xf16> into vector<4xf16>
          %854 = vector.maskedload %view[%230, %225], %241, %cst_8 : memref<80x83xf16, #gpu.address_space<workgroup>>, vector<4xi1>, vector<4xf16> into vector<4xf16>
          %855 = vector.maskedload %view[%230, %229], %242, %cst_8 : memref<80x83xf16, #gpu.address_space<workgroup>>, vector<4xi1>, vector<4xf16> into vector<4xf16>
          %856 = vector.maskedload %view_17[%243, %186], %246, %cst_8 : memref<144x83xf16, #gpu.address_space<workgroup>>, vector<4xi1>, vector<4xf16> into vector<4xf16>
          %857 = vector.maskedload %view_17[%243, %197], %247, %cst_8 : memref<144x83xf16, #gpu.address_space<workgroup>>, vector<4xi1>, vector<4xf16> into vector<4xf16>
          %858 = vector.maskedload %view_17[%243, %201], %248, %cst_8 : memref<144x83xf16, #gpu.address_space<workgroup>>, vector<4xi1>, vector<4xf16> into vector<4xf16>
          %859 = vector.maskedload %view_17[%243, %205], %249, %cst_8 : memref<144x83xf16, #gpu.address_space<workgroup>>, vector<4xi1>, vector<4xf16> into vector<4xf16>
          %860 = vector.maskedload %view_17[%243, %209], %250, %cst_8 : memref<144x83xf16, #gpu.address_space<workgroup>>, vector<4xi1>, vector<4xf16> into vector<4xf16>
          %861 = vector.maskedload %view_17[%243, %213], %251, %cst_8 : memref<144x83xf16, #gpu.address_space<workgroup>>, vector<4xi1>, vector<4xf16> into vector<4xf16>
          %862 = vector.maskedload %view_17[%243, %217], %252, %cst_8 : memref<144x83xf16, #gpu.address_space<workgroup>>, vector<4xi1>, vector<4xf16> into vector<4xf16>
          %863 = vector.maskedload %view_17[%243, %221], %253, %cst_8 : memref<144x83xf16, #gpu.address_space<workgroup>>, vector<4xi1>, vector<4xf16> into vector<4xf16>
          %864 = vector.maskedload %view_17[%243, %225], %254, %cst_8 : memref<144x83xf16, #gpu.address_space<workgroup>>, vector<4xi1>, vector<4xf16> into vector<4xf16>
          %865 = vector.maskedload %view_17[%243, %229], %255, %cst_8 : memref<144x83xf16, #gpu.address_space<workgroup>>, vector<4xi1>, vector<4xf16> into vector<4xf16>
          %866 = vector.maskedload %view_17[%256, %186], %259, %cst_8 : memref<144x83xf16, #gpu.address_space<workgroup>>, vector<4xi1>, vector<4xf16> into vector<4xf16>
          %867 = vector.maskedload %view_17[%256, %197], %260, %cst_8 : memref<144x83xf16, #gpu.address_space<workgroup>>, vector<4xi1>, vector<4xf16> into vector<4xf16>
          %868 = vector.maskedload %view_17[%256, %201], %261, %cst_8 : memref<144x83xf16, #gpu.address_space<workgroup>>, vector<4xi1>, vector<4xf16> into vector<4xf16>
          %869 = vector.maskedload %view_17[%256, %205], %262, %cst_8 : memref<144x83xf16, #gpu.address_space<workgroup>>, vector<4xi1>, vector<4xf16> into vector<4xf16>
          %870 = vector.maskedload %view_17[%256, %209], %263, %cst_8 : memref<144x83xf16, #gpu.address_space<workgroup>>, vector<4xi1>, vector<4xf16> into vector<4xf16>
          %871 = vector.maskedload %view_17[%256, %213], %264, %cst_8 : memref<144x83xf16, #gpu.address_space<workgroup>>, vector<4xi1>, vector<4xf16> into vector<4xf16>
          %872 = vector.maskedload %view_17[%256, %217], %265, %cst_8 : memref<144x83xf16, #gpu.address_space<workgroup>>, vector<4xi1>, vector<4xf16> into vector<4xf16>
          %873 = vector.maskedload %view_17[%256, %221], %266, %cst_8 : memref<144x83xf16, #gpu.address_space<workgroup>>, vector<4xi1>, vector<4xf16> into vector<4xf16>
          %874 = vector.maskedload %view_17[%256, %225], %267, %cst_8 : memref<144x83xf16, #gpu.address_space<workgroup>>, vector<4xi1>, vector<4xf16> into vector<4xf16>
          %875 = vector.maskedload %view_17[%256, %229], %268, %cst_8 : memref<144x83xf16, #gpu.address_space<workgroup>>, vector<4xi1>, vector<4xf16> into vector<4xf16>
          %876 = affine.apply #map30()[%thread_id_y, %thread_id_x, %arg3]
          %877 = vector.broadcast %876 : index to vector<8xindex>
          %878 = arith.addi %877, %cst_15 overflow<nsw, nuw> : vector<8xindex>
          %879 = arith.addi %878, %cst_10 overflow<nsw, nuw> : vector<8xindex>
          %880 = arith.cmpi slt, %879, %cst_13 : vector<8xindex>
          %881 = arith.andi %880, %10 : vector<8xi1>
          %882 = affine.apply #map31()[%thread_id_y, %thread_id_x, %arg3]
          %883 = arith.addi %12, %882 overflow<nsw> : index
          %884 = arith.index_cast %883 : index to i32
          %885 = vector.broadcast %884 : i32 to vector<8xi32>
          %886 = arith.addi %885, %cst_11 : vector<8xi32>
          %887 = arith.index_cast %886 : vector<8xi32> to vector<8xindex>
          %888 = arith.select %881, %887, %cst_12 : vector<8xi1>, vector<8xindex>
          %889 = vector.extract %888[0] : index from vector<8xindex>
          %890 = memref.load %14[%889] : memref<?xf16, #amdgpu.address_space<fat_raw_buffer>>
          %891 = vector.extract %888[1] : index from vector<8xindex>
          %892 = memref.load %14[%891] : memref<?xf16, #amdgpu.address_space<fat_raw_buffer>>
          %893 = vector.extract %888[2] : index from vector<8xindex>
          %894 = memref.load %14[%893] : memref<?xf16, #amdgpu.address_space<fat_raw_buffer>>
          %895 = vector.extract %888[3] : index from vector<8xindex>
          %896 = memref.load %14[%895] : memref<?xf16, #amdgpu.address_space<fat_raw_buffer>>
          %897 = vector.extract %888[4] : index from vector<8xindex>
          %898 = memref.load %14[%897] : memref<?xf16, #amdgpu.address_space<fat_raw_buffer>>
          %899 = vector.extract %888[5] : index from vector<8xindex>
          %900 = memref.load %14[%899] : memref<?xf16, #amdgpu.address_space<fat_raw_buffer>>
          %901 = vector.extract %888[6] : index from vector<8xindex>
          %902 = memref.load %14[%901] : memref<?xf16, #amdgpu.address_space<fat_raw_buffer>>
          %903 = vector.extract %888[7] : index from vector<8xindex>
          %904 = memref.load %14[%903] : memref<?xf16, #amdgpu.address_space<fat_raw_buffer>>
          %905 = vector.from_elements %890, %892, %894, %896, %898, %900, %902, %904 : vector<8xf16>
          %906 = affine.apply #map32()[%thread_id_y, %thread_id_x, %arg3]
          %907 = vector.broadcast %906 : index to vector<8xindex>
          %908 = arith.addi %907, %cst_15 overflow<nsw, nuw> : vector<8xindex>
          %909 = arith.addi %908, %cst_10 overflow<nsw, nuw> : vector<8xindex>
          %910 = arith.cmpi slt, %909, %cst_13 : vector<8xindex>
          %911 = arith.andi %910, %43 : vector<8xi1>
          %912 = affine.apply #map33()[%thread_id_y, %thread_id_x, %arg3]
          %913 = arith.addi %45, %912 overflow<nsw> : index
          %914 = arith.index_cast %913 : index to i32
          %915 = vector.broadcast %914 : i32 to vector<8xi32>
          %916 = arith.addi %915, %cst_11 : vector<8xi32>
          %917 = arith.index_cast %916 : vector<8xi32> to vector<8xindex>
          %918 = arith.select %911, %917, %cst_12 : vector<8xi1>, vector<8xindex>
          %919 = vector.extract %918[0] : index from vector<8xindex>
          %920 = memref.load %14[%919] : memref<?xf16, #amdgpu.address_space<fat_raw_buffer>>
          %921 = vector.extract %918[1] : index from vector<8xindex>
          %922 = memref.load %14[%921] : memref<?xf16, #amdgpu.address_space<fat_raw_buffer>>
          %923 = vector.extract %918[2] : index from vector<8xindex>
          %924 = memref.load %14[%923] : memref<?xf16, #amdgpu.address_space<fat_raw_buffer>>
          %925 = vector.extract %918[3] : index from vector<8xindex>
          %926 = memref.load %14[%925] : memref<?xf16, #amdgpu.address_space<fat_raw_buffer>>
          %927 = vector.extract %918[4] : index from vector<8xindex>
          %928 = memref.load %14[%927] : memref<?xf16, #amdgpu.address_space<fat_raw_buffer>>
          %929 = vector.extract %918[5] : index from vector<8xindex>
          %930 = memref.load %14[%929] : memref<?xf16, #amdgpu.address_space<fat_raw_buffer>>
          %931 = vector.extract %918[6] : index from vector<8xindex>
          %932 = memref.load %14[%931] : memref<?xf16, #amdgpu.address_space<fat_raw_buffer>>
          %933 = vector.extract %918[7] : index from vector<8xindex>
          %934 = memref.load %14[%933] : memref<?xf16, #amdgpu.address_space<fat_raw_buffer>>
          %935 = vector.from_elements %920, %922, %924, %926, %928, %930, %932, %934 : vector<8xf16>
          %936 = affine.apply #map34()[%thread_id_y, %thread_id_x, %arg3]
          %937 = vector.broadcast %936 : index to vector<8xindex>
          %938 = arith.addi %937, %cst_15 overflow<nsw, nuw> : vector<8xindex>
          %939 = arith.addi %938, %cst_10 overflow<nsw, nuw> : vector<8xindex>
          %940 = arith.cmpi slt, %939, %cst_13 : vector<8xindex>
          %941 = arith.andi %940, %75 : vector<8xi1>
          %942 = affine.apply #map35()[%thread_id_y, %thread_id_x, %arg3]
          %943 = arith.addi %77, %942 overflow<nsw> : index
          %944 = arith.index_cast %943 : index to i32
          %945 = vector.broadcast %944 : i32 to vector<8xi32>
          %946 = arith.addi %945, %cst_11 : vector<8xi32>
          %947 = arith.index_cast %946 : vector<8xi32> to vector<8xindex>
          %948 = arith.select %941, %947, %cst_12 : vector<8xi1>, vector<8xindex>
          %949 = vector.extract %948[0] : index from vector<8xindex>
          %950 = memref.load %14[%949] : memref<?xf16, #amdgpu.address_space<fat_raw_buffer>>
          %951 = vector.extract %948[1] : index from vector<8xindex>
          %952 = memref.load %14[%951] : memref<?xf16, #amdgpu.address_space<fat_raw_buffer>>
          %953 = vector.extract %948[2] : index from vector<8xindex>
          %954 = memref.load %14[%953] : memref<?xf16, #amdgpu.address_space<fat_raw_buffer>>
          %955 = vector.extract %948[3] : index from vector<8xindex>
          %956 = memref.load %14[%955] : memref<?xf16, #amdgpu.address_space<fat_raw_buffer>>
          %957 = vector.extract %948[4] : index from vector<8xindex>
          %958 = memref.load %14[%957] : memref<?xf16, #amdgpu.address_space<fat_raw_buffer>>
          %959 = vector.extract %948[5] : index from vector<8xindex>
          %960 = memref.load %14[%959] : memref<?xf16, #amdgpu.address_space<fat_raw_buffer>>
          %961 = vector.extract %948[6] : index from vector<8xindex>
          %962 = memref.load %14[%961] : memref<?xf16, #amdgpu.address_space<fat_raw_buffer>>
          %963 = vector.extract %948[7] : index from vector<8xindex>
          %964 = memref.load %14[%963] : memref<?xf16, #amdgpu.address_space<fat_raw_buffer>>
          %965 = vector.from_elements %950, %952, %954, %956, %958, %960, %962, %964 : vector<8xf16>
          %966 = arith.andi %880, %104 : vector<8xi1>
          %967 = arith.addi %106, %882 overflow<nsw> : index
          %968 = arith.index_cast %967 : index to i32
          %969 = vector.broadcast %968 : i32 to vector<8xi32>
          %970 = arith.addi %969, %cst_11 : vector<8xi32>
          %971 = arith.index_cast %970 : vector<8xi32> to vector<8xindex>
          %972 = arith.select %966, %971, %cst_12 : vector<8xi1>, vector<8xindex>
          %973 = vector.extract %972[0] : index from vector<8xindex>
          %974 = memref.load %108[%973] : memref<?xf16, #amdgpu.address_space<fat_raw_buffer>>
          %975 = vector.extract %972[1] : index from vector<8xindex>
          %976 = memref.load %108[%975] : memref<?xf16, #amdgpu.address_space<fat_raw_buffer>>
          %977 = vector.extract %972[2] : index from vector<8xindex>
          %978 = memref.load %108[%977] : memref<?xf16, #amdgpu.address_space<fat_raw_buffer>>
          %979 = vector.extract %972[3] : index from vector<8xindex>
          %980 = memref.load %108[%979] : memref<?xf16, #amdgpu.address_space<fat_raw_buffer>>
          %981 = vector.extract %972[4] : index from vector<8xindex>
          %982 = memref.load %108[%981] : memref<?xf16, #amdgpu.address_space<fat_raw_buffer>>
          %983 = vector.extract %972[5] : index from vector<8xindex>
          %984 = memref.load %108[%983] : memref<?xf16, #amdgpu.address_space<fat_raw_buffer>>
          %985 = vector.extract %972[6] : index from vector<8xindex>
          %986 = memref.load %108[%985] : memref<?xf16, #amdgpu.address_space<fat_raw_buffer>>
          %987 = vector.extract %972[7] : index from vector<8xindex>
          %988 = memref.load %108[%987] : memref<?xf16, #amdgpu.address_space<fat_raw_buffer>>
          %989 = vector.from_elements %974, %976, %978, %980, %982, %984, %986, %988 : vector<8xf16>
          %990 = arith.andi %910, %133 : vector<8xi1>
          %991 = arith.addi %135, %912 overflow<nsw> : index
          %992 = arith.index_cast %991 : index to i32
          %993 = vector.broadcast %992 : i32 to vector<8xi32>
          %994 = arith.addi %993, %cst_11 : vector<8xi32>
          %995 = arith.index_cast %994 : vector<8xi32> to vector<8xindex>
          %996 = arith.select %990, %995, %cst_12 : vector<8xi1>, vector<8xindex>
          %997 = vector.extract %996[0] : index from vector<8xindex>
          %998 = memref.load %108[%997] : memref<?xf16, #amdgpu.address_space<fat_raw_buffer>>
          %999 = vector.extract %996[1] : index from vector<8xindex>
          %1000 = memref.load %108[%999] : memref<?xf16, #amdgpu.address_space<fat_raw_buffer>>
          %1001 = vector.extract %996[2] : index from vector<8xindex>
          %1002 = memref.load %108[%1001] : memref<?xf16, #amdgpu.address_space<fat_raw_buffer>>
          %1003 = vector.extract %996[3] : index from vector<8xindex>
          %1004 = memref.load %108[%1003] : memref<?xf16, #amdgpu.address_space<fat_raw_buffer>>
          %1005 = vector.extract %996[4] : index from vector<8xindex>
          %1006 = memref.load %108[%1005] : memref<?xf16, #amdgpu.address_space<fat_raw_buffer>>
          %1007 = vector.extract %996[5] : index from vector<8xindex>
          %1008 = memref.load %108[%1007] : memref<?xf16, #amdgpu.address_space<fat_raw_buffer>>
          %1009 = vector.extract %996[6] : index from vector<8xindex>
          %1010 = memref.load %108[%1009] : memref<?xf16, #amdgpu.address_space<fat_raw_buffer>>
          %1011 = vector.extract %996[7] : index from vector<8xindex>
          %1012 = memref.load %108[%1011] : memref<?xf16, #amdgpu.address_space<fat_raw_buffer>>
          %1013 = vector.from_elements %998, %1000, %1002, %1004, %1006, %1008, %1010, %1012 : vector<8xf16>
          %1014 = amdgpu.mfma %856 * %836 + %arg4 {blocks = 1 : i32, k = 8 : i32, m = 32 : i32, n = 32 : i32} blgp =  none : vector<4xf16>, vector<4xf16>, vector<16xf32>
          %1015 = amdgpu.mfma %857 * %837 + %1014 {blocks = 1 : i32, k = 8 : i32, m = 32 : i32, n = 32 : i32} blgp =  none : vector<4xf16>, vector<4xf16>, vector<16xf32>
          %1016 = amdgpu.mfma %858 * %838 + %1015 {blocks = 1 : i32, k = 8 : i32, m = 32 : i32, n = 32 : i32} blgp =  none : vector<4xf16>, vector<4xf16>, vector<16xf32>
          %1017 = amdgpu.mfma %859 * %839 + %1016 {blocks = 1 : i32, k = 8 : i32, m = 32 : i32, n = 32 : i32} blgp =  none : vector<4xf16>, vector<4xf16>, vector<16xf32>
          %1018 = amdgpu.mfma %860 * %840 + %1017 {blocks = 1 : i32, k = 8 : i32, m = 32 : i32, n = 32 : i32} blgp =  none : vector<4xf16>, vector<4xf16>, vector<16xf32>
          %1019 = amdgpu.mfma %861 * %841 + %1018 {blocks = 1 : i32, k = 8 : i32, m = 32 : i32, n = 32 : i32} blgp =  none : vector<4xf16>, vector<4xf16>, vector<16xf32>
          %1020 = amdgpu.mfma %862 * %842 + %1019 {blocks = 1 : i32, k = 8 : i32, m = 32 : i32, n = 32 : i32} blgp =  none : vector<4xf16>, vector<4xf16>, vector<16xf32>
          %1021 = amdgpu.mfma %863 * %843 + %1020 {blocks = 1 : i32, k = 8 : i32, m = 32 : i32, n = 32 : i32} blgp =  none : vector<4xf16>, vector<4xf16>, vector<16xf32>
          %1022 = amdgpu.mfma %864 * %844 + %1021 {blocks = 1 : i32, k = 8 : i32, m = 32 : i32, n = 32 : i32} blgp =  none : vector<4xf16>, vector<4xf16>, vector<16xf32>
          %1023 = amdgpu.mfma %865 * %845 + %1022 {blocks = 1 : i32, k = 8 : i32, m = 32 : i32, n = 32 : i32} blgp =  none : vector<4xf16>, vector<4xf16>, vector<16xf32>
          %1024 = amdgpu.mfma %856 * %846 + %arg5 {blocks = 1 : i32, k = 8 : i32, m = 32 : i32, n = 32 : i32} blgp =  none : vector<4xf16>, vector<4xf16>, vector<16xf32>
          %1025 = amdgpu.mfma %857 * %847 + %1024 {blocks = 1 : i32, k = 8 : i32, m = 32 : i32, n = 32 : i32} blgp =  none : vector<4xf16>, vector<4xf16>, vector<16xf32>
          %1026 = amdgpu.mfma %858 * %848 + %1025 {blocks = 1 : i32, k = 8 : i32, m = 32 : i32, n = 32 : i32} blgp =  none : vector<4xf16>, vector<4xf16>, vector<16xf32>
          %1027 = amdgpu.mfma %859 * %849 + %1026 {blocks = 1 : i32, k = 8 : i32, m = 32 : i32, n = 32 : i32} blgp =  none : vector<4xf16>, vector<4xf16>, vector<16xf32>
          %1028 = amdgpu.mfma %860 * %850 + %1027 {blocks = 1 : i32, k = 8 : i32, m = 32 : i32, n = 32 : i32} blgp =  none : vector<4xf16>, vector<4xf16>, vector<16xf32>
          %1029 = amdgpu.mfma %861 * %851 + %1028 {blocks = 1 : i32, k = 8 : i32, m = 32 : i32, n = 32 : i32} blgp =  none : vector<4xf16>, vector<4xf16>, vector<16xf32>
          %1030 = amdgpu.mfma %862 * %852 + %1029 {blocks = 1 : i32, k = 8 : i32, m = 32 : i32, n = 32 : i32} blgp =  none : vector<4xf16>, vector<4xf16>, vector<16xf32>
          %1031 = amdgpu.mfma %863 * %853 + %1030 {blocks = 1 : i32, k = 8 : i32, m = 32 : i32, n = 32 : i32} blgp =  none : vector<4xf16>, vector<4xf16>, vector<16xf32>
          %1032 = amdgpu.mfma %864 * %854 + %1031 {blocks = 1 : i32, k = 8 : i32, m = 32 : i32, n = 32 : i32} blgp =  none : vector<4xf16>, vector<4xf16>, vector<16xf32>
          %1033 = amdgpu.mfma %865 * %855 + %1032 {blocks = 1 : i32, k = 8 : i32, m = 32 : i32, n = 32 : i32} blgp =  none : vector<4xf16>, vector<4xf16>, vector<16xf32>
          %1034 = amdgpu.mfma %866 * %836 + %arg6 {blocks = 1 : i32, k = 8 : i32, m = 32 : i32, n = 32 : i32} blgp =  none : vector<4xf16>, vector<4xf16>, vector<16xf32>
          %1035 = amdgpu.mfma %867 * %837 + %1034 {blocks = 1 : i32, k = 8 : i32, m = 32 : i32, n = 32 : i32} blgp =  none : vector<4xf16>, vector<4xf16>, vector<16xf32>
          %1036 = amdgpu.mfma %868 * %838 + %1035 {blocks = 1 : i32, k = 8 : i32, m = 32 : i32, n = 32 : i32} blgp =  none : vector<4xf16>, vector<4xf16>, vector<16xf32>
          %1037 = amdgpu.mfma %869 * %839 + %1036 {blocks = 1 : i32, k = 8 : i32, m = 32 : i32, n = 32 : i32} blgp =  none : vector<4xf16>, vector<4xf16>, vector<16xf32>
          %1038 = amdgpu.mfma %870 * %840 + %1037 {blocks = 1 : i32, k = 8 : i32, m = 32 : i32, n = 32 : i32} blgp =  none : vector<4xf16>, vector<4xf16>, vector<16xf32>
          %1039 = amdgpu.mfma %871 * %841 + %1038 {blocks = 1 : i32, k = 8 : i32, m = 32 : i32, n = 32 : i32} blgp =  none : vector<4xf16>, vector<4xf16>, vector<16xf32>
          %1040 = amdgpu.mfma %872 * %842 + %1039 {blocks = 1 : i32, k = 8 : i32, m = 32 : i32, n = 32 : i32} blgp =  none : vector<4xf16>, vector<4xf16>, vector<16xf32>
          %1041 = amdgpu.mfma %873 * %843 + %1040 {blocks = 1 : i32, k = 8 : i32, m = 32 : i32, n = 32 : i32} blgp =  none : vector<4xf16>, vector<4xf16>, vector<16xf32>
          %1042 = amdgpu.mfma %874 * %844 + %1041 {blocks = 1 : i32, k = 8 : i32, m = 32 : i32, n = 32 : i32} blgp =  none : vector<4xf16>, vector<4xf16>, vector<16xf32>
          %1043 = amdgpu.mfma %875 * %845 + %1042 {blocks = 1 : i32, k = 8 : i32, m = 32 : i32, n = 32 : i32} blgp =  none : vector<4xf16>, vector<4xf16>, vector<16xf32>
          %1044 = amdgpu.mfma %866 * %846 + %arg7 {blocks = 1 : i32, k = 8 : i32, m = 32 : i32, n = 32 : i32} blgp =  none : vector<4xf16>, vector<4xf16>, vector<16xf32>
          %1045 = amdgpu.mfma %867 * %847 + %1044 {blocks = 1 : i32, k = 8 : i32, m = 32 : i32, n = 32 : i32} blgp =  none : vector<4xf16>, vector<4xf16>, vector<16xf32>
          %1046 = amdgpu.mfma %868 * %848 + %1045 {blocks = 1 : i32, k = 8 : i32, m = 32 : i32, n = 32 : i32} blgp =  none : vector<4xf16>, vector<4xf16>, vector<16xf32>
          %1047 = amdgpu.mfma %869 * %849 + %1046 {blocks = 1 : i32, k = 8 : i32, m = 32 : i32, n = 32 : i32} blgp =  none : vector<4xf16>, vector<4xf16>, vector<16xf32>
          %1048 = amdgpu.mfma %870 * %850 + %1047 {blocks = 1 : i32, k = 8 : i32, m = 32 : i32, n = 32 : i32} blgp =  none : vector<4xf16>, vector<4xf16>, vector<16xf32>
          %1049 = amdgpu.mfma %871 * %851 + %1048 {blocks = 1 : i32, k = 8 : i32, m = 32 : i32, n = 32 : i32} blgp =  none : vector<4xf16>, vector<4xf16>, vector<16xf32>
          %1050 = amdgpu.mfma %872 * %852 + %1049 {blocks = 1 : i32, k = 8 : i32, m = 32 : i32, n = 32 : i32} blgp =  none : vector<4xf16>, vector<4xf16>, vector<16xf32>
          %1051 = amdgpu.mfma %873 * %853 + %1050 {blocks = 1 : i32, k = 8 : i32, m = 32 : i32, n = 32 : i32} blgp =  none : vector<4xf16>, vector<4xf16>, vector<16xf32>
          %1052 = amdgpu.mfma %874 * %854 + %1051 {blocks = 1 : i32, k = 8 : i32, m = 32 : i32, n = 32 : i32} blgp =  none : vector<4xf16>, vector<4xf16>, vector<16xf32>
          %1053 = amdgpu.mfma %875 * %855 + %1052 {blocks = 1 : i32, k = 8 : i32, m = 32 : i32, n = 32 : i32} blgp =  none : vector<4xf16>, vector<4xf16>, vector<16xf32>
          amdgpu.lds_barrier
          vector.maskedstore %view_17[%162, %1], %165, %905 : memref<144x83xf16, #gpu.address_space<workgroup>>, vector<8xi1>, vector<8xf16>
          vector.maskedstore %view_17[%167, %37], %170, %935 : memref<144x83xf16, #gpu.address_space<workgroup>>, vector<8xi1>, vector<8xf16>
          vector.maskedstore %view_17[%172, %69], %175, %965 : memref<144x83xf16, #gpu.address_space<workgroup>>, vector<8xi1>, vector<8xf16>
          vector.maskedstore %view[%178, %1], %181, %989 : memref<80x83xf16, #gpu.address_space<workgroup>>, vector<8xi1>, vector<8xf16>
          vector.maskedstore %view[%182, %37], %185, %1013 : memref<80x83xf16, #gpu.address_space<workgroup>>, vector<8xi1>, vector<8xf16>
          scf.yield %1023, %1033, %1043, %1053 : vector<16xf32>, vector<16xf32>, vector<16xf32>, vector<16xf32>
        }
        amdgpu.lds_barrier
        %270 = affine.apply #map16()[%thread_id_x]
        %271 = vector.broadcast %270 : index to vector<4xindex>
        %272 = arith.addi %271, %cst_14 overflow<nsw, nuw> : vector<4xindex>
        %273 = arith.cmpi slt, %272, %cst_9 : vector<4xindex>
        %274 = affine.apply #map17()[%thread_id_x, %thread_id_y]
        %275 = arith.cmpi slt, %274, %177 : index
        %276 = vector.broadcast %275 : i1 to vector<4xi1>
        %277 = arith.andi %273, %276 : vector<4xi1>
        %278 = vector.maskedload %view[%274, %270], %277, %cst_8 : memref<80x83xf16, #gpu.address_space<workgroup>>, vector<4xi1>, vector<4xf16> into vector<4xf16>
        %279 = arith.addi %272, %cst_7 overflow<nsw, nuw> : vector<4xindex>
        %280 = arith.cmpi slt, %279, %cst_9 : vector<4xindex>
        %281 = arith.andi %280, %276 : vector<4xi1>
        %282 = affine.apply #map18()[%thread_id_x]
        %283 = vector.maskedload %view[%274, %282], %281, %cst_8 : memref<80x83xf16, #gpu.address_space<workgroup>>, vector<4xi1>, vector<4xf16> into vector<4xf16>
        %284 = arith.addi %272, %cst_6 overflow<nsw, nuw> : vector<4xindex>
        %285 = arith.cmpi slt, %284, %cst_9 : vector<4xindex>
        %286 = arith.andi %285, %276 : vector<4xi1>
        %287 = affine.apply #map19()[%thread_id_x]
        %288 = vector.maskedload %view[%274, %287], %286, %cst_8 : memref<80x83xf16, #gpu.address_space<workgroup>>, vector<4xi1>, vector<4xf16> into vector<4xf16>
        %289 = arith.addi %272, %cst_5 overflow<nsw, nuw> : vector<4xindex>
        %290 = arith.cmpi slt, %289, %cst_9 : vector<4xindex>
        %291 = arith.andi %290, %276 : vector<4xi1>
        %292 = affine.apply #map20()[%thread_id_x]
        %293 = vector.maskedload %view[%274, %292], %291, %cst_8 : memref<80x83xf16, #gpu.address_space<workgroup>>, vector<4xi1>, vector<4xf16> into vector<4xf16>
        %294 = arith.addi %272, %cst_4 overflow<nsw, nuw> : vector<4xindex>
        %295 = arith.cmpi slt, %294, %cst_9 : vector<4xindex>
        %296 = arith.andi %295, %276 : vector<4xi1>
        %297 = affine.apply #map21()[%thread_id_x]
        %298 = vector.maskedload %view[%274, %297], %296, %cst_8 : memref<80x83xf16, #gpu.address_space<workgroup>>, vector<4xi1>, vector<4xf16> into vector<4xf16>
        %299 = arith.addi %272, %cst_3 overflow<nsw, nuw> : vector<4xindex>
        %300 = arith.cmpi slt, %299, %cst_9 : vector<4xindex>
        %301 = arith.andi %300, %276 : vector<4xi1>
        %302 = affine.apply #map22()[%thread_id_x]
        %303 = vector.maskedload %view[%274, %302], %301, %cst_8 : memref<80x83xf16, #gpu.address_space<workgroup>>, vector<4xi1>, vector<4xf16> into vector<4xf16>
        %304 = arith.addi %272, %cst_2 overflow<nsw, nuw> : vector<4xindex>
        %305 = arith.cmpi slt, %304, %cst_9 : vector<4xindex>
        %306 = arith.andi %305, %276 : vector<4xi1>
        %307 = affine.apply #map23()[%thread_id_x]
        %308 = vector.maskedload %view[%274, %307], %306, %cst_8 : memref<80x83xf16, #gpu.address_space<workgroup>>, vector<4xi1>, vector<4xf16> into vector<4xf16>
        %309 = arith.addi %272, %cst_1 overflow<nsw, nuw> : vector<4xindex>
        %310 = arith.cmpi slt, %309, %cst_9 : vector<4xindex>
        %311 = arith.andi %310, %276 : vector<4xi1>
        %312 = affine.apply #map24()[%thread_id_x]
        %313 = vector.maskedload %view[%274, %312], %311, %cst_8 : memref<80x83xf16, #gpu.address_space<workgroup>>, vector<4xi1>, vector<4xf16> into vector<4xf16>
        %314 = arith.addi %272, %cst_0 overflow<nsw, nuw> : vector<4xindex>
        %315 = arith.cmpi slt, %314, %cst_9 : vector<4xindex>
        %316 = arith.andi %315, %276 : vector<4xi1>
        %317 = affine.apply #map25()[%thread_id_x]
        %318 = vector.maskedload %view[%274, %317], %316, %cst_8 : memref<80x83xf16, #gpu.address_space<workgroup>>, vector<4xi1>, vector<4xf16> into vector<4xf16>
        %319 = arith.addi %272, %cst overflow<nsw, nuw> : vector<4xindex>
        %320 = arith.cmpi slt, %319, %cst_9 : vector<4xindex>
        %321 = arith.andi %320, %276 : vector<4xi1>
        %322 = affine.apply #map26()[%thread_id_x]
        %323 = vector.maskedload %view[%274, %322], %321, %cst_8 : memref<80x83xf16, #gpu.address_space<workgroup>>, vector<4xi1>, vector<4xf16> into vector<4xf16>
        %324 = affine.apply #map27()[%thread_id_x, %thread_id_y]
        %325 = arith.cmpi slt, %324, %177 : index
        %326 = vector.broadcast %325 : i1 to vector<4xi1>
        %327 = arith.andi %273, %326 : vector<4xi1>
        %328 = vector.maskedload %view[%324, %270], %327, %cst_8 : memref<80x83xf16, #gpu.address_space<workgroup>>, vector<4xi1>, vector<4xf16> into vector<4xf16>
        %329 = arith.andi %280, %326 : vector<4xi1>
        %330 = vector.maskedload %view[%324, %282], %329, %cst_8 : memref<80x83xf16, #gpu.address_space<workgroup>>, vector<4xi1>, vector<4xf16> into vector<4xf16>
        %331 = arith.andi %285, %326 : vector<4xi1>
        %332 = vector.maskedload %view[%324, %287], %331, %cst_8 : memref<80x83xf16, #gpu.address_space<workgroup>>, vector<4xi1>, vector<4xf16> into vector<4xf16>
        %333 = arith.andi %290, %326 : vector<4xi1>
        %334 = vector.maskedload %view[%324, %292], %333, %cst_8 : memref<80x83xf16, #gpu.address_space<workgroup>>, vector<4xi1>, vector<4xf16> into vector<4xf16>
        %335 = arith.andi %295, %326 : vector<4xi1>
        %336 = vector.maskedload %view[%324, %297], %335, %cst_8 : memref<80x83xf16, #gpu.address_space<workgroup>>, vector<4xi1>, vector<4xf16> into vector<4xf16>
        %337 = arith.andi %300, %326 : vector<4xi1>
        %338 = vector.maskedload %view[%324, %302], %337, %cst_8 : memref<80x83xf16, #gpu.address_space<workgroup>>, vector<4xi1>, vector<4xf16> into vector<4xf16>
        %339 = arith.andi %305, %326 : vector<4xi1>
        %340 = vector.maskedload %view[%324, %307], %339, %cst_8 : memref<80x83xf16, #gpu.address_space<workgroup>>, vector<4xi1>, vector<4xf16> into vector<4xf16>
        %341 = arith.andi %310, %326 : vector<4xi1>
        %342 = vector.maskedload %view[%324, %312], %341, %cst_8 : memref<80x83xf16, #gpu.address_space<workgroup>>, vector<4xi1>, vector<4xf16> into vector<4xf16>
        %343 = arith.andi %315, %326 : vector<4xi1>
        %344 = vector.maskedload %view[%324, %317], %343, %cst_8 : memref<80x83xf16, #gpu.address_space<workgroup>>, vector<4xi1>, vector<4xf16> into vector<4xf16>
        %345 = arith.andi %320, %326 : vector<4xi1>
        %346 = vector.maskedload %view[%324, %322], %345, %cst_8 : memref<80x83xf16, #gpu.address_space<workgroup>>, vector<4xi1>, vector<4xf16> into vector<4xf16>
        %347 = affine.apply #map28()[%thread_id_x]
        %348 = arith.cmpi slt, %347, %161 : index
        %349 = vector.broadcast %348 : i1 to vector<4xi1>
        %350 = arith.andi %273, %349 : vector<4xi1>
        %351 = vector.maskedload %view_17[%347, %270], %350, %cst_8 : memref<144x83xf16, #gpu.address_space<workgroup>>, vector<4xi1>, vector<4xf16> into vector<4xf16>
        %352 = arith.andi %280, %349 : vector<4xi1>
        %353 = vector.maskedload %view_17[%347, %282], %352, %cst_8 : memref<144x83xf16, #gpu.address_space<workgroup>>, vector<4xi1>, vector<4xf16> into vector<4xf16>
        %354 = arith.andi %285, %349 : vector<4xi1>
        %355 = vector.maskedload %view_17[%347, %287], %354, %cst_8 : memref<144x83xf16, #gpu.address_space<workgroup>>, vector<4xi1>, vector<4xf16> into vector<4xf16>
        %356 = arith.andi %290, %349 : vector<4xi1>
        %357 = vector.maskedload %view_17[%347, %292], %356, %cst_8 : memref<144x83xf16, #gpu.address_space<workgroup>>, vector<4xi1>, vector<4xf16> into vector<4xf16>
        %358 = arith.andi %295, %349 : vector<4xi1>
        %359 = vector.maskedload %view_17[%347, %297], %358, %cst_8 : memref<144x83xf16, #gpu.address_space<workgroup>>, vector<4xi1>, vector<4xf16> into vector<4xf16>
        %360 = arith.andi %300, %349 : vector<4xi1>
        %361 = vector.maskedload %view_17[%347, %302], %360, %cst_8 : memref<144x83xf16, #gpu.address_space<workgroup>>, vector<4xi1>, vector<4xf16> into vector<4xf16>
        %362 = arith.andi %305, %349 : vector<4xi1>
        %363 = vector.maskedload %view_17[%347, %307], %362, %cst_8 : memref<144x83xf16, #gpu.address_space<workgroup>>, vector<4xi1>, vector<4xf16> into vector<4xf16>
        %364 = arith.andi %310, %349 : vector<4xi1>
        %365 = vector.maskedload %view_17[%347, %312], %364, %cst_8 : memref<144x83xf16, #gpu.address_space<workgroup>>, vector<4xi1>, vector<4xf16> into vector<4xf16>
        %366 = arith.andi %315, %349 : vector<4xi1>
        %367 = vector.maskedload %view_17[%347, %317], %366, %cst_8 : memref<144x83xf16, #gpu.address_space<workgroup>>, vector<4xi1>, vector<4xf16> into vector<4xf16>
        %368 = arith.andi %320, %349 : vector<4xi1>
        %369 = vector.maskedload %view_17[%347, %322], %368, %cst_8 : memref<144x83xf16, #gpu.address_space<workgroup>>, vector<4xi1>, vector<4xf16> into vector<4xf16>
        %370 = affine.apply #map29()[%thread_id_x]
        %371 = arith.cmpi slt, %370, %161 : index
        %372 = vector.broadcast %371 : i1 to vector<4xi1>
        %373 = arith.andi %273, %372 : vector<4xi1>
        %374 = vector.maskedload %view_17[%370, %270], %373, %cst_8 : memref<144x83xf16, #gpu.address_space<workgroup>>, vector<4xi1>, vector<4xf16> into vector<4xf16>
        %375 = arith.andi %280, %372 : vector<4xi1>
        %376 = vector.maskedload %view_17[%370, %282], %375, %cst_8 : memref<144x83xf16, #gpu.address_space<workgroup>>, vector<4xi1>, vector<4xf16> into vector<4xf16>
        %377 = arith.andi %285, %372 : vector<4xi1>
        %378 = vector.maskedload %view_17[%370, %287], %377, %cst_8 : memref<144x83xf16, #gpu.address_space<workgroup>>, vector<4xi1>, vector<4xf16> into vector<4xf16>
        %379 = arith.andi %290, %372 : vector<4xi1>
        %380 = vector.maskedload %view_17[%370, %292], %379, %cst_8 : memref<144x83xf16, #gpu.address_space<workgroup>>, vector<4xi1>, vector<4xf16> into vector<4xf16>
        %381 = arith.andi %295, %372 : vector<4xi1>
        %382 = vector.maskedload %view_17[%370, %297], %381, %cst_8 : memref<144x83xf16, #gpu.address_space<workgroup>>, vector<4xi1>, vector<4xf16> into vector<4xf16>
        %383 = arith.andi %300, %372 : vector<4xi1>
        %384 = vector.maskedload %view_17[%370, %302], %383, %cst_8 : memref<144x83xf16, #gpu.address_space<workgroup>>, vector<4xi1>, vector<4xf16> into vector<4xf16>
        %385 = arith.andi %305, %372 : vector<4xi1>
        %386 = vector.maskedload %view_17[%370, %307], %385, %cst_8 : memref<144x83xf16, #gpu.address_space<workgroup>>, vector<4xi1>, vector<4xf16> into vector<4xf16>
        %387 = arith.andi %310, %372 : vector<4xi1>
        %388 = vector.maskedload %view_17[%370, %312], %387, %cst_8 : memref<144x83xf16, #gpu.address_space<workgroup>>, vector<4xi1>, vector<4xf16> into vector<4xf16>
        %389 = arith.andi %315, %372 : vector<4xi1>
        %390 = vector.maskedload %view_17[%370, %317], %389, %cst_8 : memref<144x83xf16, #gpu.address_space<workgroup>>, vector<4xi1>, vector<4xf16> into vector<4xf16>
        %391 = arith.andi %320, %372 : vector<4xi1>
        %392 = vector.maskedload %view_17[%370, %322], %391, %cst_8 : memref<144x83xf16, #gpu.address_space<workgroup>>, vector<4xi1>, vector<4xf16> into vector<4xf16>
        %393 = amdgpu.mfma %351 * %278 + %269#0 {blocks = 1 : i32, k = 8 : i32, m = 32 : i32, n = 32 : i32} blgp =  none : vector<4xf16>, vector<4xf16>, vector<16xf32>
        %394 = amdgpu.mfma %353 * %283 + %393 {blocks = 1 : i32, k = 8 : i32, m = 32 : i32, n = 32 : i32} blgp =  none : vector<4xf16>, vector<4xf16>, vector<16xf32>
        %395 = amdgpu.mfma %355 * %288 + %394 {blocks = 1 : i32, k = 8 : i32, m = 32 : i32, n = 32 : i32} blgp =  none : vector<4xf16>, vector<4xf16>, vector<16xf32>
        %396 = amdgpu.mfma %357 * %293 + %395 {blocks = 1 : i32, k = 8 : i32, m = 32 : i32, n = 32 : i32} blgp =  none : vector<4xf16>, vector<4xf16>, vector<16xf32>
        %397 = amdgpu.mfma %359 * %298 + %396 {blocks = 1 : i32, k = 8 : i32, m = 32 : i32, n = 32 : i32} blgp =  none : vector<4xf16>, vector<4xf16>, vector<16xf32>
        %398 = amdgpu.mfma %361 * %303 + %397 {blocks = 1 : i32, k = 8 : i32, m = 32 : i32, n = 32 : i32} blgp =  none : vector<4xf16>, vector<4xf16>, vector<16xf32>
        %399 = amdgpu.mfma %363 * %308 + %398 {blocks = 1 : i32, k = 8 : i32, m = 32 : i32, n = 32 : i32} blgp =  none : vector<4xf16>, vector<4xf16>, vector<16xf32>
        %400 = amdgpu.mfma %365 * %313 + %399 {blocks = 1 : i32, k = 8 : i32, m = 32 : i32, n = 32 : i32} blgp =  none : vector<4xf16>, vector<4xf16>, vector<16xf32>
        %401 = amdgpu.mfma %367 * %318 + %400 {blocks = 1 : i32, k = 8 : i32, m = 32 : i32, n = 32 : i32} blgp =  none : vector<4xf16>, vector<4xf16>, vector<16xf32>
        %402 = amdgpu.mfma %369 * %323 + %401 {blocks = 1 : i32, k = 8 : i32, m = 32 : i32, n = 32 : i32} blgp =  none : vector<4xf16>, vector<4xf16>, vector<16xf32>
        %403 = amdgpu.mfma %351 * %328 + %269#1 {blocks = 1 : i32, k = 8 : i32, m = 32 : i32, n = 32 : i32} blgp =  none : vector<4xf16>, vector<4xf16>, vector<16xf32>
        %404 = amdgpu.mfma %353 * %330 + %403 {blocks = 1 : i32, k = 8 : i32, m = 32 : i32, n = 32 : i32} blgp =  none : vector<4xf16>, vector<4xf16>, vector<16xf32>
        %405 = amdgpu.mfma %355 * %332 + %404 {blocks = 1 : i32, k = 8 : i32, m = 32 : i32, n = 32 : i32} blgp =  none : vector<4xf16>, vector<4xf16>, vector<16xf32>
        %406 = amdgpu.mfma %357 * %334 + %405 {blocks = 1 : i32, k = 8 : i32, m = 32 : i32, n = 32 : i32} blgp =  none : vector<4xf16>, vector<4xf16>, vector<16xf32>
        %407 = amdgpu.mfma %359 * %336 + %406 {blocks = 1 : i32, k = 8 : i32, m = 32 : i32, n = 32 : i32} blgp =  none : vector<4xf16>, vector<4xf16>, vector<16xf32>
        %408 = amdgpu.mfma %361 * %338 + %407 {blocks = 1 : i32, k = 8 : i32, m = 32 : i32, n = 32 : i32} blgp =  none : vector<4xf16>, vector<4xf16>, vector<16xf32>
        %409 = amdgpu.mfma %363 * %340 + %408 {blocks = 1 : i32, k = 8 : i32, m = 32 : i32, n = 32 : i32} blgp =  none : vector<4xf16>, vector<4xf16>, vector<16xf32>
        %410 = amdgpu.mfma %365 * %342 + %409 {blocks = 1 : i32, k = 8 : i32, m = 32 : i32, n = 32 : i32} blgp =  none : vector<4xf16>, vector<4xf16>, vector<16xf32>
        %411 = amdgpu.mfma %367 * %344 + %410 {blocks = 1 : i32, k = 8 : i32, m = 32 : i32, n = 32 : i32} blgp =  none : vector<4xf16>, vector<4xf16>, vector<16xf32>
        %412 = amdgpu.mfma %369 * %346 + %411 {blocks = 1 : i32, k = 8 : i32, m = 32 : i32, n = 32 : i32} blgp =  none : vector<4xf16>, vector<4xf16>, vector<16xf32>
        %413 = amdgpu.mfma %374 * %278 + %269#2 {blocks = 1 : i32, k = 8 : i32, m = 32 : i32, n = 32 : i32} blgp =  none : vector<4xf16>, vector<4xf16>, vector<16xf32>
        %414 = amdgpu.mfma %376 * %283 + %413 {blocks = 1 : i32, k = 8 : i32, m = 32 : i32, n = 32 : i32} blgp =  none : vector<4xf16>, vector<4xf16>, vector<16xf32>
        %415 = amdgpu.mfma %378 * %288 + %414 {blocks = 1 : i32, k = 8 : i32, m = 32 : i32, n = 32 : i32} blgp =  none : vector<4xf16>, vector<4xf16>, vector<16xf32>
        %416 = amdgpu.mfma %380 * %293 + %415 {blocks = 1 : i32, k = 8 : i32, m = 32 : i32, n = 32 : i32} blgp =  none : vector<4xf16>, vector<4xf16>, vector<16xf32>
        %417 = amdgpu.mfma %382 * %298 + %416 {blocks = 1 : i32, k = 8 : i32, m = 32 : i32, n = 32 : i32} blgp =  none : vector<4xf16>, vector<4xf16>, vector<16xf32>
        %418 = amdgpu.mfma %384 * %303 + %417 {blocks = 1 : i32, k = 8 : i32, m = 32 : i32, n = 32 : i32} blgp =  none : vector<4xf16>, vector<4xf16>, vector<16xf32>
        %419 = amdgpu.mfma %386 * %308 + %418 {blocks = 1 : i32, k = 8 : i32, m = 32 : i32, n = 32 : i32} blgp =  none : vector<4xf16>, vector<4xf16>, vector<16xf32>
        %420 = amdgpu.mfma %388 * %313 + %419 {blocks = 1 : i32, k = 8 : i32, m = 32 : i32, n = 32 : i32} blgp =  none : vector<4xf16>, vector<4xf16>, vector<16xf32>
        %421 = amdgpu.mfma %390 * %318 + %420 {blocks = 1 : i32, k = 8 : i32, m = 32 : i32, n = 32 : i32} blgp =  none : vector<4xf16>, vector<4xf16>, vector<16xf32>
        %422 = amdgpu.mfma %392 * %323 + %421 {blocks = 1 : i32, k = 8 : i32, m = 32 : i32, n = 32 : i32} blgp =  none : vector<4xf16>, vector<4xf16>, vector<16xf32>
        %423 = amdgpu.mfma %374 * %328 + %269#3 {blocks = 1 : i32, k = 8 : i32, m = 32 : i32, n = 32 : i32} blgp =  none : vector<4xf16>, vector<4xf16>, vector<16xf32>
        %424 = amdgpu.mfma %376 * %330 + %423 {blocks = 1 : i32, k = 8 : i32, m = 32 : i32, n = 32 : i32} blgp =  none : vector<4xf16>, vector<4xf16>, vector<16xf32>
        %425 = amdgpu.mfma %378 * %332 + %424 {blocks = 1 : i32, k = 8 : i32, m = 32 : i32, n = 32 : i32} blgp =  none : vector<4xf16>, vector<4xf16>, vector<16xf32>
        %426 = amdgpu.mfma %380 * %334 + %425 {blocks = 1 : i32, k = 8 : i32, m = 32 : i32, n = 32 : i32} blgp =  none : vector<4xf16>, vector<4xf16>, vector<16xf32>
        %427 = amdgpu.mfma %382 * %336 + %426 {blocks = 1 : i32, k = 8 : i32, m = 32 : i32, n = 32 : i32} blgp =  none : vector<4xf16>, vector<4xf16>, vector<16xf32>
        %428 = amdgpu.mfma %384 * %338 + %427 {blocks = 1 : i32, k = 8 : i32, m = 32 : i32, n = 32 : i32} blgp =  none : vector<4xf16>, vector<4xf16>, vector<16xf32>
        %429 = amdgpu.mfma %386 * %340 + %428 {blocks = 1 : i32, k = 8 : i32, m = 32 : i32, n = 32 : i32} blgp =  none : vector<4xf16>, vector<4xf16>, vector<16xf32>
        %430 = amdgpu.mfma %388 * %342 + %429 {blocks = 1 : i32, k = 8 : i32, m = 32 : i32, n = 32 : i32} blgp =  none : vector<4xf16>, vector<4xf16>, vector<16xf32>
        %431 = amdgpu.mfma %390 * %344 + %430 {blocks = 1 : i32, k = 8 : i32, m = 32 : i32, n = 32 : i32} blgp =  none : vector<4xf16>, vector<4xf16>, vector<16xf32>
        %432 = amdgpu.mfma %392 * %346 + %431 {blocks = 1 : i32, k = 8 : i32, m = 32 : i32, n = 32 : i32} blgp =  none : vector<4xf16>, vector<4xf16>, vector<16xf32>
        %433 = vector.extract_strided_slice %402 {offsets = [0], sizes = [1], strides = [1]} : vector<16xf32> to vector<1xf32>
        %434 = stream.binding.subspan %arg2[%c0] : !stream.binding -> memref<1024x1024xf32, strided<[1024, 1], offset: ?>>
        %435 = affine.apply #map36()[%block_id_y, %thread_id_y]
        %436 = affine.apply #map37()[%block_id_y]
        %437 = arith.minsi %435, %436 : index
        %438 = arith.minsi %437, %c1024 : index
        %439 = affine.apply #map38()[%thread_id_x, %block_id_x, %block_id_y, %7, %thread_id_y]
        %440 = arith.cmpi slt, %439, %438 : index
        %441 = affine.apply #map39()[%block_id_x, %thread_id_x]
        %442 = affine.apply #map40()[%block_id_x]
        %443 = arith.minsi %441, %442 : index
        %444 = arith.minsi %443, %c1024 : index
        %445 = affine.apply #map41()[%block_id_x, %block_id_y, %7, %thread_id_x]
        %446 = arith.cmpi slt, %445, %444 : index
        %447 = arith.andi %440, %446 : i1
        %448 = affine.apply #map42()[%block_id_x, %block_id_y, %7]
        %449 = affine.apply #map43()[%block_id_x, %block_id_y, %7]
        %450 = affine.apply #map44()[%thread_id_x]
        %451 = arith.muli %448, %c1024 overflow<nsw> : index
        %452 = arith.muli %450, %c1024 overflow<nsw> : index
        %453 = arith.addi %451, %449 overflow<nsw> : index
        %454 = arith.addi %452, %274 overflow<nsw> : index
        %base_buffer_23, %offset_24, %sizes_25:2, %strides_26:2 = memref.extract_strided_metadata %434 : memref<1024x1024xf32, strided<[1024, 1], offset: ?>> -> memref<f32>, index, index, index, index, index
        %455 = arith.addi %453, %offset_24 overflow<nsw> : index
        %reinterpret_cast_27 = memref.reinterpret_cast %434 to offset: [%455], sizes: [%c536870910], strides: [1] : memref<1024x1024xf32, strided<[1024, 1], offset: ?>> to memref<?xf32, strided<[1], offset: ?>>
        %456 = amdgpu.fat_raw_buffer_cast %reinterpret_cast_27 validBytes(%c2147483643_i32) cacheSwizzleStride(%c1024_i14) resetOffset : memref<?xf32, strided<[1], offset: ?>> to memref<?xf32, #amdgpu.address_space<fat_raw_buffer>>
        %457 = arith.select %447, %454, %c536870911 : index
        vector.store %433, %456[%457] : memref<?xf32, #amdgpu.address_space<fat_raw_buffer>>, vector<1xf32>
        %458 = vector.extract_strided_slice %402 {offsets = [1], sizes = [1], strides = [1]} : vector<16xf32> to vector<1xf32>
        %459 = affine.apply #map45()[%block_id_x, %block_id_y, %7, %thread_id_x]
        %460 = arith.cmpi slt, %459, %444 : index
        %461 = arith.andi %440, %460 : i1
        %462 = affine.apply #map46()[%thread_id_x]
        %463 = arith.muli %462, %c1024 overflow<nsw> : index
        %464 = arith.addi %463, %274 overflow<nsw> : index
        %465 = arith.select %461, %464, %c536870911 : index
        vector.store %458, %456[%465] : memref<?xf32, #amdgpu.address_space<fat_raw_buffer>>, vector<1xf32>
        %466 = vector.extract_strided_slice %402 {offsets = [2], sizes = [1], strides = [1]} : vector<16xf32> to vector<1xf32>
        %467 = affine.apply #map47()[%block_id_x, %block_id_y, %7, %thread_id_x]
        %468 = arith.cmpi slt, %467, %444 : index
        %469 = arith.andi %440, %468 : i1
        %470 = affine.apply #map48()[%thread_id_x]
        %471 = arith.muli %470, %c1024 overflow<nsw> : index
        %472 = arith.addi %471, %274 overflow<nsw> : index
        %473 = arith.select %469, %472, %c536870911 : index
        vector.store %466, %456[%473] : memref<?xf32, #amdgpu.address_space<fat_raw_buffer>>, vector<1xf32>
        %474 = vector.extract_strided_slice %402 {offsets = [3], sizes = [1], strides = [1]} : vector<16xf32> to vector<1xf32>
        %475 = affine.apply #map49()[%block_id_x, %block_id_y, %7, %thread_id_x]
        %476 = arith.cmpi slt, %475, %444 : index
        %477 = arith.andi %440, %476 : i1
        %478 = affine.apply #map50()[%thread_id_x]
        %479 = arith.muli %478, %c1024 overflow<nsw> : index
        %480 = arith.addi %479, %274 overflow<nsw> : index
        %481 = arith.select %477, %480, %c536870911 : index
        vector.store %474, %456[%481] : memref<?xf32, #amdgpu.address_space<fat_raw_buffer>>, vector<1xf32>
        %482 = vector.extract_strided_slice %402 {offsets = [4], sizes = [1], strides = [1]} : vector<16xf32> to vector<1xf32>
        %483 = affine.apply #map51()[%block_id_x, %block_id_y, %7, %thread_id_x]
        %484 = arith.cmpi slt, %483, %444 : index
        %485 = arith.andi %440, %484 : i1
        %486 = affine.apply #map52()[%thread_id_x]
        %487 = arith.muli %486, %c1024 overflow<nsw> : index
        %488 = arith.addi %487, %274 overflow<nsw> : index
        %489 = arith.select %485, %488, %c536870911 : index
        vector.store %482, %456[%489] : memref<?xf32, #amdgpu.address_space<fat_raw_buffer>>, vector<1xf32>
        %490 = vector.extract_strided_slice %402 {offsets = [5], sizes = [1], strides = [1]} : vector<16xf32> to vector<1xf32>
        %491 = affine.apply #map53()[%block_id_x, %block_id_y, %7, %thread_id_x]
        %492 = arith.cmpi slt, %491, %444 : index
        %493 = arith.andi %440, %492 : i1
        %494 = affine.apply #map54()[%thread_id_x]
        %495 = arith.muli %494, %c1024 overflow<nsw> : index
        %496 = arith.addi %495, %274 overflow<nsw> : index
        %497 = arith.select %493, %496, %c536870911 : index
        vector.store %490, %456[%497] : memref<?xf32, #amdgpu.address_space<fat_raw_buffer>>, vector<1xf32>
        %498 = vector.extract_strided_slice %402 {offsets = [6], sizes = [1], strides = [1]} : vector<16xf32> to vector<1xf32>
        %499 = affine.apply #map55()[%block_id_x, %block_id_y, %7, %thread_id_x]
        %500 = arith.cmpi slt, %499, %444 : index
        %501 = arith.andi %440, %500 : i1
        %502 = affine.apply #map56()[%thread_id_x]
        %503 = arith.muli %502, %c1024 overflow<nsw> : index
        %504 = arith.addi %503, %274 overflow<nsw> : index
        %505 = arith.select %501, %504, %c536870911 : index
        vector.store %498, %456[%505] : memref<?xf32, #amdgpu.address_space<fat_raw_buffer>>, vector<1xf32>
        %506 = vector.extract_strided_slice %402 {offsets = [7], sizes = [1], strides = [1]} : vector<16xf32> to vector<1xf32>
        %507 = affine.apply #map57()[%block_id_x, %block_id_y, %7, %thread_id_x]
        %508 = arith.cmpi slt, %507, %444 : index
        %509 = arith.andi %440, %508 : i1
        %510 = affine.apply #map58()[%thread_id_x]
        %511 = arith.muli %510, %c1024 overflow<nsw> : index
        %512 = arith.addi %511, %274 overflow<nsw> : index
        %513 = arith.select %509, %512, %c536870911 : index
        vector.store %506, %456[%513] : memref<?xf32, #amdgpu.address_space<fat_raw_buffer>>, vector<1xf32>
        %514 = vector.extract_strided_slice %402 {offsets = [8], sizes = [1], strides = [1]} : vector<16xf32> to vector<1xf32>
        %515 = affine.apply #map59()[%block_id_x, %block_id_y, %7, %thread_id_x]
        %516 = arith.cmpi slt, %515, %444 : index
        %517 = arith.andi %440, %516 : i1
        %518 = affine.apply #map60()[%thread_id_x]
        %519 = arith.muli %518, %c1024 overflow<nsw> : index
        %520 = arith.addi %519, %274 overflow<nsw> : index
        %521 = arith.select %517, %520, %c536870911 : index
        vector.store %514, %456[%521] : memref<?xf32, #amdgpu.address_space<fat_raw_buffer>>, vector<1xf32>
        %522 = vector.extract_strided_slice %402 {offsets = [9], sizes = [1], strides = [1]} : vector<16xf32> to vector<1xf32>
        %523 = affine.apply #map61()[%block_id_x, %block_id_y, %7, %thread_id_x]
        %524 = arith.cmpi slt, %523, %444 : index
        %525 = arith.andi %440, %524 : i1
        %526 = affine.apply #map62()[%thread_id_x]
        %527 = arith.muli %526, %c1024 overflow<nsw> : index
        %528 = arith.addi %527, %274 overflow<nsw> : index
        %529 = arith.select %525, %528, %c536870911 : index
        vector.store %522, %456[%529] : memref<?xf32, #amdgpu.address_space<fat_raw_buffer>>, vector<1xf32>
        %530 = vector.extract_strided_slice %402 {offsets = [10], sizes = [1], strides = [1]} : vector<16xf32> to vector<1xf32>
        %531 = affine.apply #map63()[%block_id_x, %block_id_y, %7, %thread_id_x]
        %532 = arith.cmpi slt, %531, %444 : index
        %533 = arith.andi %440, %532 : i1
        %534 = affine.apply #map64()[%thread_id_x]
        %535 = arith.muli %534, %c1024 overflow<nsw> : index
        %536 = arith.addi %535, %274 overflow<nsw> : index
        %537 = arith.select %533, %536, %c536870911 : index
        vector.store %530, %456[%537] : memref<?xf32, #amdgpu.address_space<fat_raw_buffer>>, vector<1xf32>
        %538 = vector.extract_strided_slice %402 {offsets = [11], sizes = [1], strides = [1]} : vector<16xf32> to vector<1xf32>
        %539 = affine.apply #map65()[%block_id_x, %block_id_y, %7, %thread_id_x]
        %540 = arith.cmpi slt, %539, %444 : index
        %541 = arith.andi %440, %540 : i1
        %542 = affine.apply #map66()[%thread_id_x]
        %543 = arith.muli %542, %c1024 overflow<nsw> : index
        %544 = arith.addi %543, %274 overflow<nsw> : index
        %545 = arith.select %541, %544, %c536870911 : index
        vector.store %538, %456[%545] : memref<?xf32, #amdgpu.address_space<fat_raw_buffer>>, vector<1xf32>
        %546 = vector.extract_strided_slice %402 {offsets = [12], sizes = [1], strides = [1]} : vector<16xf32> to vector<1xf32>
        %547 = affine.apply #map67()[%block_id_x, %block_id_y, %7, %thread_id_x]
        %548 = arith.cmpi slt, %547, %444 : index
        %549 = arith.andi %440, %548 : i1
        %550 = affine.apply #map68()[%thread_id_x]
        %551 = arith.muli %550, %c1024 overflow<nsw> : index
        %552 = arith.addi %551, %274 overflow<nsw> : index
        %553 = arith.select %549, %552, %c536870911 : index
        vector.store %546, %456[%553] : memref<?xf32, #amdgpu.address_space<fat_raw_buffer>>, vector<1xf32>
        %554 = vector.extract_strided_slice %402 {offsets = [13], sizes = [1], strides = [1]} : vector<16xf32> to vector<1xf32>
        %555 = affine.apply #map69()[%block_id_x, %block_id_y, %7, %thread_id_x]
        %556 = arith.cmpi slt, %555, %444 : index
        %557 = arith.andi %440, %556 : i1
        %558 = affine.apply #map70()[%thread_id_x]
        %559 = arith.muli %558, %c1024 overflow<nsw> : index
        %560 = arith.addi %559, %274 overflow<nsw> : index
        %561 = arith.select %557, %560, %c536870911 : index
        vector.store %554, %456[%561] : memref<?xf32, #amdgpu.address_space<fat_raw_buffer>>, vector<1xf32>
        %562 = vector.extract_strided_slice %402 {offsets = [14], sizes = [1], strides = [1]} : vector<16xf32> to vector<1xf32>
        %563 = affine.apply #map71()[%block_id_x, %block_id_y, %7, %thread_id_x]
        %564 = arith.cmpi slt, %563, %444 : index
        %565 = arith.andi %440, %564 : i1
        %566 = affine.apply #map72()[%thread_id_x]
        %567 = arith.muli %566, %c1024 overflow<nsw> : index
        %568 = arith.addi %567, %274 overflow<nsw> : index
        %569 = arith.select %565, %568, %c536870911 : index
        vector.store %562, %456[%569] : memref<?xf32, #amdgpu.address_space<fat_raw_buffer>>, vector<1xf32>
        %570 = vector.extract_strided_slice %402 {offsets = [15], sizes = [1], strides = [1]} : vector<16xf32> to vector<1xf32>
        %571 = affine.apply #map73()[%block_id_x, %block_id_y, %7, %thread_id_x]
        %572 = arith.cmpi slt, %571, %444 : index
        %573 = arith.andi %440, %572 : i1
        %574 = affine.apply #map74()[%thread_id_x]
        %575 = arith.muli %574, %c1024 overflow<nsw> : index
        %576 = arith.addi %575, %274 overflow<nsw> : index
        %577 = arith.select %573, %576, %c536870911 : index
        vector.store %570, %456[%577] : memref<?xf32, #amdgpu.address_space<fat_raw_buffer>>, vector<1xf32>
        %578 = vector.extract_strided_slice %412 {offsets = [0], sizes = [1], strides = [1]} : vector<16xf32> to vector<1xf32>
        %579 = affine.apply #map75()[%thread_id_x, %block_id_x, %block_id_y, %7, %thread_id_y]
        %580 = arith.cmpi slt, %579, %438 : index
        %581 = arith.andi %580, %446 : i1
        %582 = arith.addi %452, %324 overflow<nsw> : index
        %583 = arith.select %581, %582, %c536870911 : index
        vector.store %578, %456[%583] : memref<?xf32, #amdgpu.address_space<fat_raw_buffer>>, vector<1xf32>
        %584 = vector.extract_strided_slice %412 {offsets = [1], sizes = [1], strides = [1]} : vector<16xf32> to vector<1xf32>
        %585 = arith.andi %580, %460 : i1
        %586 = arith.addi %463, %324 overflow<nsw> : index
        %587 = arith.select %585, %586, %c536870911 : index
        vector.store %584, %456[%587] : memref<?xf32, #amdgpu.address_space<fat_raw_buffer>>, vector<1xf32>
        %588 = vector.extract_strided_slice %412 {offsets = [2], sizes = [1], strides = [1]} : vector<16xf32> to vector<1xf32>
        %589 = arith.andi %580, %468 : i1
        %590 = arith.addi %471, %324 overflow<nsw> : index
        %591 = arith.select %589, %590, %c536870911 : index
        vector.store %588, %456[%591] : memref<?xf32, #amdgpu.address_space<fat_raw_buffer>>, vector<1xf32>
        %592 = vector.extract_strided_slice %412 {offsets = [3], sizes = [1], strides = [1]} : vector<16xf32> to vector<1xf32>
        %593 = arith.andi %580, %476 : i1
        %594 = arith.addi %479, %324 overflow<nsw> : index
        %595 = arith.select %593, %594, %c536870911 : index
        vector.store %592, %456[%595] : memref<?xf32, #amdgpu.address_space<fat_raw_buffer>>, vector<1xf32>
        %596 = vector.extract_strided_slice %412 {offsets = [4], sizes = [1], strides = [1]} : vector<16xf32> to vector<1xf32>
        %597 = arith.andi %580, %484 : i1
        %598 = arith.addi %487, %324 overflow<nsw> : index
        %599 = arith.select %597, %598, %c536870911 : index
        vector.store %596, %456[%599] : memref<?xf32, #amdgpu.address_space<fat_raw_buffer>>, vector<1xf32>
        %600 = vector.extract_strided_slice %412 {offsets = [5], sizes = [1], strides = [1]} : vector<16xf32> to vector<1xf32>
        %601 = arith.andi %580, %492 : i1
        %602 = arith.addi %495, %324 overflow<nsw> : index
        %603 = arith.select %601, %602, %c536870911 : index
        vector.store %600, %456[%603] : memref<?xf32, #amdgpu.address_space<fat_raw_buffer>>, vector<1xf32>
        %604 = vector.extract_strided_slice %412 {offsets = [6], sizes = [1], strides = [1]} : vector<16xf32> to vector<1xf32>
        %605 = arith.andi %580, %500 : i1
        %606 = arith.addi %503, %324 overflow<nsw> : index
        %607 = arith.select %605, %606, %c536870911 : index
        vector.store %604, %456[%607] : memref<?xf32, #amdgpu.address_space<fat_raw_buffer>>, vector<1xf32>
        %608 = vector.extract_strided_slice %412 {offsets = [7], sizes = [1], strides = [1]} : vector<16xf32> to vector<1xf32>
        %609 = arith.andi %580, %508 : i1
        %610 = arith.addi %511, %324 overflow<nsw> : index
        %611 = arith.select %609, %610, %c536870911 : index
        vector.store %608, %456[%611] : memref<?xf32, #amdgpu.address_space<fat_raw_buffer>>, vector<1xf32>
        %612 = vector.extract_strided_slice %412 {offsets = [8], sizes = [1], strides = [1]} : vector<16xf32> to vector<1xf32>
        %613 = arith.andi %580, %516 : i1
        %614 = arith.addi %519, %324 overflow<nsw> : index
        %615 = arith.select %613, %614, %c536870911 : index
        vector.store %612, %456[%615] : memref<?xf32, #amdgpu.address_space<fat_raw_buffer>>, vector<1xf32>
        %616 = vector.extract_strided_slice %412 {offsets = [9], sizes = [1], strides = [1]} : vector<16xf32> to vector<1xf32>
        %617 = arith.andi %580, %524 : i1
        %618 = arith.addi %527, %324 overflow<nsw> : index
        %619 = arith.select %617, %618, %c536870911 : index
        vector.store %616, %456[%619] : memref<?xf32, #amdgpu.address_space<fat_raw_buffer>>, vector<1xf32>
        %620 = vector.extract_strided_slice %412 {offsets = [10], sizes = [1], strides = [1]} : vector<16xf32> to vector<1xf32>
        %621 = arith.andi %580, %532 : i1
        %622 = arith.addi %535, %324 overflow<nsw> : index
        %623 = arith.select %621, %622, %c536870911 : index
        vector.store %620, %456[%623] : memref<?xf32, #amdgpu.address_space<fat_raw_buffer>>, vector<1xf32>
        %624 = vector.extract_strided_slice %412 {offsets = [11], sizes = [1], strides = [1]} : vector<16xf32> to vector<1xf32>
        %625 = arith.andi %580, %540 : i1
        %626 = arith.addi %543, %324 overflow<nsw> : index
        %627 = arith.select %625, %626, %c536870911 : index
        vector.store %624, %456[%627] : memref<?xf32, #amdgpu.address_space<fat_raw_buffer>>, vector<1xf32>
        %628 = vector.extract_strided_slice %412 {offsets = [12], sizes = [1], strides = [1]} : vector<16xf32> to vector<1xf32>
        %629 = arith.andi %580, %548 : i1
        %630 = arith.addi %551, %324 overflow<nsw> : index
        %631 = arith.select %629, %630, %c536870911 : index
        vector.store %628, %456[%631] : memref<?xf32, #amdgpu.address_space<fat_raw_buffer>>, vector<1xf32>
        %632 = vector.extract_strided_slice %412 {offsets = [13], sizes = [1], strides = [1]} : vector<16xf32> to vector<1xf32>
        %633 = arith.andi %580, %556 : i1
        %634 = arith.addi %559, %324 overflow<nsw> : index
        %635 = arith.select %633, %634, %c536870911 : index
        vector.store %632, %456[%635] : memref<?xf32, #amdgpu.address_space<fat_raw_buffer>>, vector<1xf32>
        %636 = vector.extract_strided_slice %412 {offsets = [14], sizes = [1], strides = [1]} : vector<16xf32> to vector<1xf32>
        %637 = arith.andi %580, %564 : i1
        %638 = arith.addi %567, %324 overflow<nsw> : index
        %639 = arith.select %637, %638, %c536870911 : index
        vector.store %636, %456[%639] : memref<?xf32, #amdgpu.address_space<fat_raw_buffer>>, vector<1xf32>
        %640 = vector.extract_strided_slice %412 {offsets = [15], sizes = [1], strides = [1]} : vector<16xf32> to vector<1xf32>
        %641 = arith.andi %580, %572 : i1
        %642 = arith.addi %575, %324 overflow<nsw> : index
        %643 = arith.select %641, %642, %c536870911 : index
        vector.store %640, %456[%643] : memref<?xf32, #amdgpu.address_space<fat_raw_buffer>>, vector<1xf32>
        %644 = vector.extract_strided_slice %422 {offsets = [0], sizes = [1], strides = [1]} : vector<16xf32> to vector<1xf32>
        %645 = affine.apply #map76()[%block_id_x, %block_id_y, %7, %thread_id_x]
        %646 = arith.cmpi slt, %645, %444 : index
        %647 = arith.andi %440, %646 : i1
        %648 = affine.apply #map77()[%thread_id_x]
        %649 = arith.muli %648, %c1024 overflow<nsw> : index
        %650 = arith.addi %649, %274 overflow<nsw> : index
        %651 = arith.select %647, %650, %c536870911 : index
        vector.store %644, %456[%651] : memref<?xf32, #amdgpu.address_space<fat_raw_buffer>>, vector<1xf32>
        %652 = vector.extract_strided_slice %422 {offsets = [1], sizes = [1], strides = [1]} : vector<16xf32> to vector<1xf32>
        %653 = affine.apply #map78()[%block_id_x, %block_id_y, %7, %thread_id_x]
        %654 = arith.cmpi slt, %653, %444 : index
        %655 = arith.andi %440, %654 : i1
        %656 = affine.apply #map79()[%thread_id_x]
        %657 = arith.muli %656, %c1024 overflow<nsw> : index
        %658 = arith.addi %657, %274 overflow<nsw> : index
        %659 = arith.select %655, %658, %c536870911 : index
        vector.store %652, %456[%659] : memref<?xf32, #amdgpu.address_space<fat_raw_buffer>>, vector<1xf32>
        %660 = vector.extract_strided_slice %422 {offsets = [2], sizes = [1], strides = [1]} : vector<16xf32> to vector<1xf32>
        %661 = affine.apply #map80()[%block_id_x, %block_id_y, %7, %thread_id_x]
        %662 = arith.cmpi slt, %661, %444 : index
        %663 = arith.andi %440, %662 : i1
        %664 = affine.apply #map81()[%thread_id_x]
        %665 = arith.muli %664, %c1024 overflow<nsw> : index
        %666 = arith.addi %665, %274 overflow<nsw> : index
        %667 = arith.select %663, %666, %c536870911 : index
        vector.store %660, %456[%667] : memref<?xf32, #amdgpu.address_space<fat_raw_buffer>>, vector<1xf32>
        %668 = vector.extract_strided_slice %422 {offsets = [3], sizes = [1], strides = [1]} : vector<16xf32> to vector<1xf32>
        %669 = affine.apply #map82()[%block_id_x, %block_id_y, %7, %thread_id_x]
        %670 = arith.cmpi slt, %669, %444 : index
        %671 = arith.andi %440, %670 : i1
        %672 = affine.apply #map83()[%thread_id_x]
        %673 = arith.muli %672, %c1024 overflow<nsw> : index
        %674 = arith.addi %673, %274 overflow<nsw> : index
        %675 = arith.select %671, %674, %c536870911 : index
        vector.store %668, %456[%675] : memref<?xf32, #amdgpu.address_space<fat_raw_buffer>>, vector<1xf32>
        %676 = vector.extract_strided_slice %422 {offsets = [4], sizes = [1], strides = [1]} : vector<16xf32> to vector<1xf32>
        %677 = affine.apply #map84()[%block_id_x, %block_id_y, %7, %thread_id_x]
        %678 = arith.cmpi slt, %677, %444 : index
        %679 = arith.andi %440, %678 : i1
        %680 = affine.apply #map85()[%thread_id_x]
        %681 = arith.muli %680, %c1024 overflow<nsw> : index
        %682 = arith.addi %681, %274 overflow<nsw> : index
        %683 = arith.select %679, %682, %c536870911 : index
        vector.store %676, %456[%683] : memref<?xf32, #amdgpu.address_space<fat_raw_buffer>>, vector<1xf32>
        %684 = vector.extract_strided_slice %422 {offsets = [5], sizes = [1], strides = [1]} : vector<16xf32> to vector<1xf32>
        %685 = affine.apply #map86()[%block_id_x, %block_id_y, %7, %thread_id_x]
        %686 = arith.cmpi slt, %685, %444 : index
        %687 = arith.andi %440, %686 : i1
        %688 = affine.apply #map87()[%thread_id_x]
        %689 = arith.muli %688, %c1024 overflow<nsw> : index
        %690 = arith.addi %689, %274 overflow<nsw> : index
        %691 = arith.select %687, %690, %c536870911 : index
        vector.store %684, %456[%691] : memref<?xf32, #amdgpu.address_space<fat_raw_buffer>>, vector<1xf32>
        %692 = vector.extract_strided_slice %422 {offsets = [6], sizes = [1], strides = [1]} : vector<16xf32> to vector<1xf32>
        %693 = affine.apply #map88()[%block_id_x, %block_id_y, %7, %thread_id_x]
        %694 = arith.cmpi slt, %693, %444 : index
        %695 = arith.andi %440, %694 : i1
        %696 = affine.apply #map89()[%thread_id_x]
        %697 = arith.muli %696, %c1024 overflow<nsw> : index
        %698 = arith.addi %697, %274 overflow<nsw> : index
        %699 = arith.select %695, %698, %c536870911 : index
        vector.store %692, %456[%699] : memref<?xf32, #amdgpu.address_space<fat_raw_buffer>>, vector<1xf32>
        %700 = vector.extract_strided_slice %422 {offsets = [7], sizes = [1], strides = [1]} : vector<16xf32> to vector<1xf32>
        %701 = affine.apply #map90()[%block_id_x, %block_id_y, %7, %thread_id_x]
        %702 = arith.cmpi slt, %701, %444 : index
        %703 = arith.andi %440, %702 : i1
        %704 = affine.apply #map91()[%thread_id_x]
        %705 = arith.muli %704, %c1024 overflow<nsw> : index
        %706 = arith.addi %705, %274 overflow<nsw> : index
        %707 = arith.select %703, %706, %c536870911 : index
        vector.store %700, %456[%707] : memref<?xf32, #amdgpu.address_space<fat_raw_buffer>>, vector<1xf32>
        %708 = vector.extract_strided_slice %422 {offsets = [8], sizes = [1], strides = [1]} : vector<16xf32> to vector<1xf32>
        %709 = affine.apply #map92()[%block_id_x, %block_id_y, %7, %thread_id_x]
        %710 = arith.cmpi slt, %709, %444 : index
        %711 = arith.andi %440, %710 : i1
        %712 = affine.apply #map93()[%thread_id_x]
        %713 = arith.muli %712, %c1024 overflow<nsw> : index
        %714 = arith.addi %713, %274 overflow<nsw> : index
        %715 = arith.select %711, %714, %c536870911 : index
        vector.store %708, %456[%715] : memref<?xf32, #amdgpu.address_space<fat_raw_buffer>>, vector<1xf32>
        %716 = vector.extract_strided_slice %422 {offsets = [9], sizes = [1], strides = [1]} : vector<16xf32> to vector<1xf32>
        %717 = affine.apply #map94()[%block_id_x, %block_id_y, %7, %thread_id_x]
        %718 = arith.cmpi slt, %717, %444 : index
        %719 = arith.andi %440, %718 : i1
        %720 = affine.apply #map95()[%thread_id_x]
        %721 = arith.muli %720, %c1024 overflow<nsw> : index
        %722 = arith.addi %721, %274 overflow<nsw> : index
        %723 = arith.select %719, %722, %c536870911 : index
        vector.store %716, %456[%723] : memref<?xf32, #amdgpu.address_space<fat_raw_buffer>>, vector<1xf32>
        %724 = vector.extract_strided_slice %422 {offsets = [10], sizes = [1], strides = [1]} : vector<16xf32> to vector<1xf32>
        %725 = affine.apply #map96()[%block_id_x, %block_id_y, %7, %thread_id_x]
        %726 = arith.cmpi slt, %725, %444 : index
        %727 = arith.andi %440, %726 : i1
        %728 = affine.apply #map97()[%thread_id_x]
        %729 = arith.muli %728, %c1024 overflow<nsw> : index
        %730 = arith.addi %729, %274 overflow<nsw> : index
        %731 = arith.select %727, %730, %c536870911 : index
        vector.store %724, %456[%731] : memref<?xf32, #amdgpu.address_space<fat_raw_buffer>>, vector<1xf32>
        %732 = vector.extract_strided_slice %422 {offsets = [11], sizes = [1], strides = [1]} : vector<16xf32> to vector<1xf32>
        %733 = affine.apply #map98()[%block_id_x, %block_id_y, %7, %thread_id_x]
        %734 = arith.cmpi slt, %733, %444 : index
        %735 = arith.andi %440, %734 : i1
        %736 = affine.apply #map99()[%thread_id_x]
        %737 = arith.muli %736, %c1024 overflow<nsw> : index
        %738 = arith.addi %737, %274 overflow<nsw> : index
        %739 = arith.select %735, %738, %c536870911 : index
        vector.store %732, %456[%739] : memref<?xf32, #amdgpu.address_space<fat_raw_buffer>>, vector<1xf32>
        %740 = vector.extract_strided_slice %422 {offsets = [12], sizes = [1], strides = [1]} : vector<16xf32> to vector<1xf32>
        %741 = affine.apply #map100()[%block_id_x, %block_id_y, %7, %thread_id_x]
        %742 = arith.cmpi slt, %741, %444 : index
        %743 = arith.andi %440, %742 : i1
        %744 = affine.apply #map101()[%thread_id_x]
        %745 = arith.muli %744, %c1024 overflow<nsw> : index
        %746 = arith.addi %745, %274 overflow<nsw> : index
        %747 = arith.select %743, %746, %c536870911 : index
        vector.store %740, %456[%747] : memref<?xf32, #amdgpu.address_space<fat_raw_buffer>>, vector<1xf32>
        %748 = vector.extract_strided_slice %422 {offsets = [13], sizes = [1], strides = [1]} : vector<16xf32> to vector<1xf32>
        %749 = affine.apply #map102()[%block_id_x, %block_id_y, %7, %thread_id_x]
        %750 = arith.cmpi slt, %749, %444 : index
        %751 = arith.andi %440, %750 : i1
        %752 = affine.apply #map103()[%thread_id_x]
        %753 = arith.muli %752, %c1024 overflow<nsw> : index
        %754 = arith.addi %753, %274 overflow<nsw> : index
        %755 = arith.select %751, %754, %c536870911 : index
        vector.store %748, %456[%755] : memref<?xf32, #amdgpu.address_space<fat_raw_buffer>>, vector<1xf32>
        %756 = vector.extract_strided_slice %422 {offsets = [14], sizes = [1], strides = [1]} : vector<16xf32> to vector<1xf32>
        %757 = affine.apply #map104()[%block_id_x, %block_id_y, %7, %thread_id_x]
        %758 = arith.cmpi slt, %757, %444 : index
        %759 = arith.andi %440, %758 : i1
        %760 = affine.apply #map105()[%thread_id_x]
        %761 = arith.muli %760, %c1024 overflow<nsw> : index
        %762 = arith.addi %761, %274 overflow<nsw> : index
        %763 = arith.select %759, %762, %c536870911 : index
        vector.store %756, %456[%763] : memref<?xf32, #amdgpu.address_space<fat_raw_buffer>>, vector<1xf32>
        %764 = vector.extract_strided_slice %422 {offsets = [15], sizes = [1], strides = [1]} : vector<16xf32> to vector<1xf32>
        %765 = affine.apply #map106()[%block_id_x, %block_id_y, %7, %thread_id_x]
        %766 = arith.cmpi slt, %765, %444 : index
        %767 = arith.andi %440, %766 : i1
        %768 = affine.apply #map107()[%thread_id_x]
        %769 = arith.muli %768, %c1024 overflow<nsw> : index
        %770 = arith.addi %769, %274 overflow<nsw> : index
        %771 = arith.select %767, %770, %c536870911 : index
        vector.store %764, %456[%771] : memref<?xf32, #amdgpu.address_space<fat_raw_buffer>>, vector<1xf32>
        %772 = vector.extract_strided_slice %432 {offsets = [0], sizes = [1], strides = [1]} : vector<16xf32> to vector<1xf32>
        %773 = arith.andi %580, %646 : i1
        %774 = arith.addi %649, %324 overflow<nsw> : index
        %775 = arith.select %773, %774, %c536870911 : index
        vector.store %772, %456[%775] : memref<?xf32, #amdgpu.address_space<fat_raw_buffer>>, vector<1xf32>
        %776 = vector.extract_strided_slice %432 {offsets = [1], sizes = [1], strides = [1]} : vector<16xf32> to vector<1xf32>
        %777 = arith.andi %580, %654 : i1
        %778 = arith.addi %657, %324 overflow<nsw> : index
        %779 = arith.select %777, %778, %c536870911 : index
        vector.store %776, %456[%779] : memref<?xf32, #amdgpu.address_space<fat_raw_buffer>>, vector<1xf32>
        %780 = vector.extract_strided_slice %432 {offsets = [2], sizes = [1], strides = [1]} : vector<16xf32> to vector<1xf32>
        %781 = arith.andi %580, %662 : i1
        %782 = arith.addi %665, %324 overflow<nsw> : index
        %783 = arith.select %781, %782, %c536870911 : index
        vector.store %780, %456[%783] : memref<?xf32, #amdgpu.address_space<fat_raw_buffer>>, vector<1xf32>
        %784 = vector.extract_strided_slice %432 {offsets = [3], sizes = [1], strides = [1]} : vector<16xf32> to vector<1xf32>
        %785 = arith.andi %580, %670 : i1
        %786 = arith.addi %673, %324 overflow<nsw> : index
        %787 = arith.select %785, %786, %c536870911 : index
        vector.store %784, %456[%787] : memref<?xf32, #amdgpu.address_space<fat_raw_buffer>>, vector<1xf32>
        %788 = vector.extract_strided_slice %432 {offsets = [4], sizes = [1], strides = [1]} : vector<16xf32> to vector<1xf32>
        %789 = arith.andi %580, %678 : i1
        %790 = arith.addi %681, %324 overflow<nsw> : index
        %791 = arith.select %789, %790, %c536870911 : index
        vector.store %788, %456[%791] : memref<?xf32, #amdgpu.address_space<fat_raw_buffer>>, vector<1xf32>
        %792 = vector.extract_strided_slice %432 {offsets = [5], sizes = [1], strides = [1]} : vector<16xf32> to vector<1xf32>
        %793 = arith.andi %580, %686 : i1
        %794 = arith.addi %689, %324 overflow<nsw> : index
        %795 = arith.select %793, %794, %c536870911 : index
        vector.store %792, %456[%795] : memref<?xf32, #amdgpu.address_space<fat_raw_buffer>>, vector<1xf32>
        %796 = vector.extract_strided_slice %432 {offsets = [6], sizes = [1], strides = [1]} : vector<16xf32> to vector<1xf32>
        %797 = arith.andi %580, %694 : i1
        %798 = arith.addi %697, %324 overflow<nsw> : index
        %799 = arith.select %797, %798, %c536870911 : index
        vector.store %796, %456[%799] : memref<?xf32, #amdgpu.address_space<fat_raw_buffer>>, vector<1xf32>
        %800 = vector.extract_strided_slice %432 {offsets = [7], sizes = [1], strides = [1]} : vector<16xf32> to vector<1xf32>
        %801 = arith.andi %580, %702 : i1
        %802 = arith.addi %705, %324 overflow<nsw> : index
        %803 = arith.select %801, %802, %c536870911 : index
        vector.store %800, %456[%803] : memref<?xf32, #amdgpu.address_space<fat_raw_buffer>>, vector<1xf32>
        %804 = vector.extract_strided_slice %432 {offsets = [8], sizes = [1], strides = [1]} : vector<16xf32> to vector<1xf32>
        %805 = arith.andi %580, %710 : i1
        %806 = arith.addi %713, %324 overflow<nsw> : index
        %807 = arith.select %805, %806, %c536870911 : index
        vector.store %804, %456[%807] : memref<?xf32, #amdgpu.address_space<fat_raw_buffer>>, vector<1xf32>
        %808 = vector.extract_strided_slice %432 {offsets = [9], sizes = [1], strides = [1]} : vector<16xf32> to vector<1xf32>
        %809 = arith.andi %580, %718 : i1
        %810 = arith.addi %721, %324 overflow<nsw> : index
        %811 = arith.select %809, %810, %c536870911 : index
        vector.store %808, %456[%811] : memref<?xf32, #amdgpu.address_space<fat_raw_buffer>>, vector<1xf32>
        %812 = vector.extract_strided_slice %432 {offsets = [10], sizes = [1], strides = [1]} : vector<16xf32> to vector<1xf32>
        %813 = arith.andi %580, %726 : i1
        %814 = arith.addi %729, %324 overflow<nsw> : index
        %815 = arith.select %813, %814, %c536870911 : index
        vector.store %812, %456[%815] : memref<?xf32, #amdgpu.address_space<fat_raw_buffer>>, vector<1xf32>
        %816 = vector.extract_strided_slice %432 {offsets = [11], sizes = [1], strides = [1]} : vector<16xf32> to vector<1xf32>
        %817 = arith.andi %580, %734 : i1
        %818 = arith.addi %737, %324 overflow<nsw> : index
        %819 = arith.select %817, %818, %c536870911 : index
        vector.store %816, %456[%819] : memref<?xf32, #amdgpu.address_space<fat_raw_buffer>>, vector<1xf32>
        %820 = vector.extract_strided_slice %432 {offsets = [12], sizes = [1], strides = [1]} : vector<16xf32> to vector<1xf32>
        %821 = arith.andi %580, %742 : i1
        %822 = arith.addi %745, %324 overflow<nsw> : index
        %823 = arith.select %821, %822, %c536870911 : index
        vector.store %820, %456[%823] : memref<?xf32, #amdgpu.address_space<fat_raw_buffer>>, vector<1xf32>
        %824 = vector.extract_strided_slice %432 {offsets = [13], sizes = [1], strides = [1]} : vector<16xf32> to vector<1xf32>
        %825 = arith.andi %580, %750 : i1
        %826 = arith.addi %753, %324 overflow<nsw> : index
        %827 = arith.select %825, %826, %c536870911 : index
        vector.store %824, %456[%827] : memref<?xf32, #amdgpu.address_space<fat_raw_buffer>>, vector<1xf32>
        %828 = vector.extract_strided_slice %432 {offsets = [14], sizes = [1], strides = [1]} : vector<16xf32> to vector<1xf32>
        %829 = arith.andi %580, %758 : i1
        %830 = arith.addi %761, %324 overflow<nsw> : index
        %831 = arith.select %829, %830, %c536870911 : index
        vector.store %828, %456[%831] : memref<?xf32, #amdgpu.address_space<fat_raw_buffer>>, vector<1xf32>
        %832 = vector.extract_strided_slice %432 {offsets = [15], sizes = [1], strides = [1]} : vector<16xf32> to vector<1xf32>
        %833 = arith.andi %580, %766 : i1
        %834 = arith.addi %769, %324 overflow<nsw> : index
        %835 = arith.select %833, %834, %c536870911 : index
        vector.store %832, %456[%835] : memref<?xf32, #amdgpu.address_space<fat_raw_buffer>>, vector<1xf32>
        return
      }
    }
  }
  func.func @isolated_benchmark(%arg0: tensor<1024x1024xf16>, %arg1: tensor<1024x1024xf16>, %arg2: tensor<1024x1024xf32>) -> tensor<1024x1024xf32> {
    %0 = flow.dispatch @gemm::@gemm(%arg0, %arg1, %arg2) : (tensor<1024x1024xf16>, tensor<1024x1024xf16>, tensor<1024x1024xf32>) -> %arg2
    return %0 : tensor<1024x1024xf32>
  }
}
