#map = affine_map<()[s0, s1, s2, s3] -> ((s1 * 128 + s0 floordiv 2) mod 328 + ((s2 + s3 * 2 - ((s2 + s3 * 2) floordiv 8) * 7) floordiv 4) * 328)>
#map1 = affine_map<()[s0] -> (s0 * 8 - (s0 floordiv 2) * 16)>
#map2 = affine_map<()[s0, s1, s2, s3] -> (s1 * 128 + s0 floordiv 2 - ((s1 * 128 + s0 floordiv 2 + 256) floordiv 328) * 328 + ((s2 + s3 * 2 - ((s2 + s3 * 2) floordiv 8) * 7) floordiv 4) * 328 + 256)>
#map3 = affine_map<()[s0, s1, s2, s3] -> (s1 * 128 + s2 * 732 + s3 * 1464 + s0 floordiv 2 - ((s1 * 128 + s0 floordiv 2) floordiv 732) * 732 + ((s2 + s3 * 2) floordiv 8) * 732 - ((s2 + s3 * 2 + (s2 + s3 * 2) floordiv 8) floordiv 4) * 2928)>
#map4 = affine_map<()[s0, s1, s2, s3] -> (s1 * 128 + s2 * 732 + s3 * 1464 + s0 floordiv 2 - ((s1 * 128 + s0 floordiv 2 + 256) floordiv 732) * 732 + ((s2 + s3 * 2) floordiv 8) * 732 - ((s2 + s3 * 2 + (s2 + s3 * 2) floordiv 8) floordiv 4) * 2928 + 256)>
#map5 = affine_map<()[s0, s1, s2, s3] -> (s1 * 128 + s2 * 732 + s3 * 1464 + s0 floordiv 2 - ((s1 * 128 + s0 floordiv 2 + 512) floordiv 732) * 732 + ((s2 + s3 * 2) floordiv 8) * 732 - ((s2 + s3 * 2 + (s2 + s3 * 2) floordiv 8) floordiv 4) * 2928 + 512)>
#map6 = affine_map<()[s0] -> ((s0 floordiv 64) * 82 + 82)>
#map7 = affine_map<()[s0, s1] -> ((s1 * 128 + s0 floordiv 2) mod 328)>
#map8 = affine_map<()[s0, s1] -> (s1 * 128 + s0 floordiv 2 - ((s1 * 128 + s0 floordiv 2 + 256) floordiv 328) * 328 + 256)>
#map9 = affine_map<()[s0] -> (s0 * 366 + 366)>
#map10 = affine_map<()[s0, s1] -> ((s1 * 128 + s0 floordiv 2) mod 732)>
#map11 = affine_map<()[s0, s1] -> (s1 * 128 + s0 floordiv 2 - ((s1 * 128 + s0 floordiv 2 + 256) floordiv 732) * 732 + 256)>
#map12 = affine_map<()[s0, s1] -> (s1 * 128 + s0 floordiv 2 - ((s1 * 128 + s0 floordiv 2 + 512) floordiv 732) * 732 + 512)>
#map13 = affine_map<()[s0, s1] -> (s0 + s1 * 366 - (s0 floordiv 32) * 32)>
#map14 = affine_map<()[s0] -> (((s0 mod 64) floordiv 32) * 4)>
#map15 = affine_map<()[s0] -> (((s0 mod 64) floordiv 32) * 4 + 8)>
#map16 = affine_map<()[s0, s1] -> (s0 + s1 * 366 - (s0 floordiv 32) * 32 + 32)>
#map17 = affine_map<()[s0, s1] -> (s0 + s1 * 366 - (s0 floordiv 32) * 32 + 64)>
#map18 = affine_map<()[s0, s1] -> (s0 + s1 * 366 - (s0 floordiv 32) * 32 + 96)>
#map19 = affine_map<()[s0, s1] -> (s0 + s1 * 366 - (s0 floordiv 32) * 32 + 128)>
#map20 = affine_map<()[s0, s1] -> (s0 + s1 * 366 - (s0 floordiv 32) * 32 + 160)>
#map21 = affine_map<()[s0, s1] -> (s0 + s1 * 366 - (s0 floordiv 32) * 32 + 192)>
#map22 = affine_map<()[s0, s1] -> (s0 + s1 * 366 - (s0 floordiv 32) * 32 + 224)>
#map23 = affine_map<()[s0, s1] -> (s0 + s1 * 366 - (s0 floordiv 32) * 32 + 256)>
#map24 = affine_map<()[s0, s1] -> (s0 + s1 * 366 - (s0 floordiv 32) * 32 + 288)>
#map25 = affine_map<()[s0, s1] -> (s0 + s1 * 366 - (s0 floordiv 32) * 32 + 320)>
#map26 = affine_map<()[s0, s1] -> (s0 + s1 * 366 - (s0 floordiv 32) * 32 + 352)>
#map27 = affine_map<()[s0] -> (s0 mod 32 + (s0 floordiv 64) * 82)>
#map28 = affine_map<()[s0] -> (s0 mod 32 + (s0 floordiv 64) * 82 + 32)>
#map29 = affine_map<()[s0] -> (s0 mod 32 + (s0 floordiv 64) * 82 + 64)>
#map30 = affine_map<()[s0, s1] -> (s0 * 16 + s1 * 8 - (s1 floordiv 2) * 16 + 16)>
#map31 = affine_map<()[s0, s1] -> (s0 * 732 + s1 * 366 + 366)>
#map32 = affine_map<()[s0] -> (s0 * 732 + 732)>
#map33 = affine_map<()[s0, s1, s2, s3] -> (s0 + s1 * 732 + s2 * 1464 + s3 * 366 - (s0 floordiv 32) * 32 + ((s1 + s2 * 2) floordiv 8) * 732 - ((s1 + s2 * 2 + (s1 + s2 * 2) floordiv 8) floordiv 4) * 2928)>
#map34 = affine_map<()[s0, s1] -> (s0 * 328 + (s1 floordiv 64) * 82 + 82)>
#map35 = affine_map<()[s0] -> (s0 * 328 + 328)>
#map36 = affine_map<()[s0, s1, s2] -> (((s0 + s1 * 2 - ((s0 + s1 * 2) floordiv 8) * 7) floordiv 4) * 328 + (s2 floordiv 64) * 82 + ((s2 mod 64) floordiv 32) * 4)>
#map37 = affine_map<()[s0, s1] -> (((s0 + s1 * 2 - ((s0 + s1 * 2) floordiv 8) * 7) floordiv 4) * 328)>
#map38 = affine_map<()[s0, s1] -> (s0 * 732 + s1 * 1464 + ((s0 + s1 * 2) floordiv 8) * 732 - ((s0 + s1 * 2 + (s0 + s1 * 2) floordiv 8) floordiv 4) * 2928)>
#map39 = affine_map<()[s0] -> ((s0 floordiv 64) * 82 + ((s0 mod 64) floordiv 32) * 4)>
#map40 = affine_map<()[s0, s1, s2] -> (((s0 + s1 * 2 - ((s0 + s1 * 2) floordiv 8) * 7) floordiv 4) * 328 + (s2 floordiv 64) * 82 + ((s2 mod 64) floordiv 32) * 4 + 1)>
#map41 = affine_map<()[s0] -> ((s0 floordiv 64) * 82 + ((s0 mod 64) floordiv 32) * 4 + 1)>
#map42 = affine_map<()[s0, s1, s2] -> (((s0 + s1 * 2 - ((s0 + s1 * 2) floordiv 8) * 7) floordiv 4) * 328 + (s2 floordiv 64) * 82 + ((s2 mod 64) floordiv 32) * 4 + 2)>
#map43 = affine_map<()[s0] -> ((s0 floordiv 64) * 82 + ((s0 mod 64) floordiv 32) * 4 + 2)>
#map44 = affine_map<()[s0, s1, s2] -> (((s0 + s1 * 2 - ((s0 + s1 * 2) floordiv 8) * 7) floordiv 4) * 328 + (s2 floordiv 64) * 82 + ((s2 mod 64) floordiv 32) * 4 + 3)>
#map45 = affine_map<()[s0] -> ((s0 floordiv 64) * 82 + ((s0 mod 64) floordiv 32) * 4 + 3)>
#map46 = affine_map<()[s0, s1, s2] -> (((s0 + s1 * 2 - ((s0 + s1 * 2) floordiv 8) * 7) floordiv 4) * 328 + (s2 floordiv 64) * 82 + ((s2 mod 64) floordiv 32) * 4 + 8)>
#map47 = affine_map<()[s0] -> ((s0 floordiv 64) * 82 + ((s0 mod 64) floordiv 32) * 4 + 8)>
#map48 = affine_map<()[s0, s1, s2] -> (((s0 + s1 * 2 - ((s0 + s1 * 2) floordiv 8) * 7) floordiv 4) * 328 + (s2 floordiv 64) * 82 + ((s2 mod 64) floordiv 32) * 4 + 9)>
#map49 = affine_map<()[s0] -> ((s0 floordiv 64) * 82 + ((s0 mod 64) floordiv 32) * 4 + 9)>
#map50 = affine_map<()[s0, s1, s2] -> (((s0 + s1 * 2 - ((s0 + s1 * 2) floordiv 8) * 7) floordiv 4) * 328 + (s2 floordiv 64) * 82 + ((s2 mod 64) floordiv 32) * 4 + 10)>
#map51 = affine_map<()[s0] -> ((s0 floordiv 64) * 82 + ((s0 mod 64) floordiv 32) * 4 + 10)>
#map52 = affine_map<()[s0, s1, s2] -> (((s0 + s1 * 2 - ((s0 + s1 * 2) floordiv 8) * 7) floordiv 4) * 328 + (s2 floordiv 64) * 82 + ((s2 mod 64) floordiv 32) * 4 + 11)>
#map53 = affine_map<()[s0] -> ((s0 floordiv 64) * 82 + ((s0 mod 64) floordiv 32) * 4 + 11)>
#map54 = affine_map<()[s0, s1, s2] -> (((s0 + s1 * 2 - ((s0 + s1 * 2) floordiv 8) * 7) floordiv 4) * 328 + (s2 floordiv 64) * 82 + ((s2 mod 64) floordiv 32) * 4 + 16)>
#map55 = affine_map<()[s0] -> ((s0 floordiv 64) * 82 + ((s0 mod 64) floordiv 32) * 4 + 16)>
#map56 = affine_map<()[s0, s1, s2] -> (((s0 + s1 * 2 - ((s0 + s1 * 2) floordiv 8) * 7) floordiv 4) * 328 + (s2 floordiv 64) * 82 + ((s2 mod 64) floordiv 32) * 4 + 17)>
#map57 = affine_map<()[s0] -> ((s0 floordiv 64) * 82 + ((s0 mod 64) floordiv 32) * 4 + 17)>
#map58 = affine_map<()[s0, s1, s2] -> (((s0 + s1 * 2 - ((s0 + s1 * 2) floordiv 8) * 7) floordiv 4) * 328 + (s2 floordiv 64) * 82 + ((s2 mod 64) floordiv 32) * 4 + 18)>
#map59 = affine_map<()[s0] -> ((s0 floordiv 64) * 82 + ((s0 mod 64) floordiv 32) * 4 + 18)>
#map60 = affine_map<()[s0, s1, s2] -> (((s0 + s1 * 2 - ((s0 + s1 * 2) floordiv 8) * 7) floordiv 4) * 328 + (s2 floordiv 64) * 82 + ((s2 mod 64) floordiv 32) * 4 + 19)>
#map61 = affine_map<()[s0] -> ((s0 floordiv 64) * 82 + ((s0 mod 64) floordiv 32) * 4 + 19)>
#map62 = affine_map<()[s0, s1, s2] -> (((s0 + s1 * 2 - ((s0 + s1 * 2) floordiv 8) * 7) floordiv 4) * 328 + (s2 floordiv 64) * 82 + ((s2 mod 64) floordiv 32) * 4 + 24)>
#map63 = affine_map<()[s0] -> ((s0 floordiv 64) * 82 + ((s0 mod 64) floordiv 32) * 4 + 24)>
#map64 = affine_map<()[s0, s1, s2] -> (((s0 + s1 * 2 - ((s0 + s1 * 2) floordiv 8) * 7) floordiv 4) * 328 + (s2 floordiv 64) * 82 + ((s2 mod 64) floordiv 32) * 4 + 25)>
#map65 = affine_map<()[s0] -> ((s0 floordiv 64) * 82 + ((s0 mod 64) floordiv 32) * 4 + 25)>
#map66 = affine_map<()[s0, s1, s2] -> (((s0 + s1 * 2 - ((s0 + s1 * 2) floordiv 8) * 7) floordiv 4) * 328 + (s2 floordiv 64) * 82 + ((s2 mod 64) floordiv 32) * 4 + 26)>
#map67 = affine_map<()[s0] -> ((s0 floordiv 64) * 82 + ((s0 mod 64) floordiv 32) * 4 + 26)>
#map68 = affine_map<()[s0, s1, s2] -> (((s0 + s1 * 2 - ((s0 + s1 * 2) floordiv 8) * 7) floordiv 4) * 328 + (s2 floordiv 64) * 82 + ((s2 mod 64) floordiv 32) * 4 + 27)>
#map69 = affine_map<()[s0] -> ((s0 floordiv 64) * 82 + ((s0 mod 64) floordiv 32) * 4 + 27)>
#map70 = affine_map<()[s0, s1, s2, s3] -> (s0 + s1 * 732 + s2 * 1464 + s3 * 366 - (s0 floordiv 32) * 32 + ((s1 + s2 * 2) floordiv 8) * 732 - ((s1 + s2 * 2 + (s1 + s2 * 2) floordiv 8) floordiv 4) * 2928 + 32)>
#map71 = affine_map<()[s0, s1, s2, s3] -> (s0 + s1 * 732 + s2 * 1464 + s3 * 366 - (s0 floordiv 32) * 32 + ((s1 + s2 * 2) floordiv 8) * 732 - ((s1 + s2 * 2 + (s1 + s2 * 2) floordiv 8) floordiv 4) * 2928 + 64)>
#map72 = affine_map<()[s0, s1, s2, s3] -> (s0 + s1 * 732 + s2 * 1464 + s3 * 366 - (s0 floordiv 32) * 32 + ((s1 + s2 * 2) floordiv 8) * 732 - ((s1 + s2 * 2 + (s1 + s2 * 2) floordiv 8) floordiv 4) * 2928 + 96)>
#map73 = affine_map<()[s0, s1, s2, s3] -> (s0 + s1 * 732 + s2 * 1464 + s3 * 366 - (s0 floordiv 32) * 32 + ((s1 + s2 * 2) floordiv 8) * 732 - ((s1 + s2 * 2 + (s1 + s2 * 2) floordiv 8) floordiv 4) * 2928 + 128)>
#map74 = affine_map<()[s0, s1, s2, s3] -> (s0 + s1 * 732 + s2 * 1464 + s3 * 366 - (s0 floordiv 32) * 32 + ((s1 + s2 * 2) floordiv 8) * 732 - ((s1 + s2 * 2 + (s1 + s2 * 2) floordiv 8) floordiv 4) * 2928 + 160)>
#map75 = affine_map<()[s0, s1, s2, s3] -> (s0 + s1 * 732 + s2 * 1464 + s3 * 366 - (s0 floordiv 32) * 32 + ((s1 + s2 * 2) floordiv 8) * 732 - ((s1 + s2 * 2 + (s1 + s2 * 2) floordiv 8) floordiv 4) * 2928 + 192)>
#map76 = affine_map<()[s0, s1, s2, s3] -> (s0 + s1 * 732 + s2 * 1464 + s3 * 366 - (s0 floordiv 32) * 32 + ((s1 + s2 * 2) floordiv 8) * 732 - ((s1 + s2 * 2 + (s1 + s2 * 2) floordiv 8) floordiv 4) * 2928 + 224)>
#map77 = affine_map<()[s0, s1, s2, s3] -> (s0 + s1 * 732 + s2 * 1464 + s3 * 366 - (s0 floordiv 32) * 32 + ((s1 + s2 * 2) floordiv 8) * 732 - ((s1 + s2 * 2 + (s1 + s2 * 2) floordiv 8) floordiv 4) * 2928 + 256)>
#map78 = affine_map<()[s0, s1, s2, s3] -> (s0 + s1 * 732 + s2 * 1464 + s3 * 366 - (s0 floordiv 32) * 32 + ((s1 + s2 * 2) floordiv 8) * 732 - ((s1 + s2 * 2 + (s1 + s2 * 2) floordiv 8) floordiv 4) * 2928 + 288)>
#map79 = affine_map<()[s0, s1, s2, s3] -> (s0 + s1 * 732 + s2 * 1464 + s3 * 366 - (s0 floordiv 32) * 32 + ((s1 + s2 * 2) floordiv 8) * 732 - ((s1 + s2 * 2 + (s1 + s2 * 2) floordiv 8) floordiv 4) * 2928 + 320)>
#map80 = affine_map<()[s0, s1, s2, s3] -> (s0 + s1 * 732 + s2 * 1464 + s3 * 366 - (s0 floordiv 32) * 32 + ((s1 + s2 * 2) floordiv 8) * 732 - ((s1 + s2 * 2 + (s1 + s2 * 2) floordiv 8) floordiv 4) * 2928 + 352)>
#map81 = affine_map<()[s0, s1, s2] -> (((s0 + s1 * 2 - ((s0 + s1 * 2) floordiv 8) * 7) floordiv 4) * 328 + (s2 floordiv 64) * 82 + ((s2 mod 64) floordiv 32) * 4 + 32)>
#map82 = affine_map<()[s0] -> ((s0 floordiv 64) * 82 + ((s0 mod 64) floordiv 32) * 4 + 32)>
#map83 = affine_map<()[s0, s1, s2] -> (((s0 + s1 * 2 - ((s0 + s1 * 2) floordiv 8) * 7) floordiv 4) * 328 + (s2 floordiv 64) * 82 + ((s2 mod 64) floordiv 32) * 4 + 33)>
#map84 = affine_map<()[s0] -> ((s0 floordiv 64) * 82 + ((s0 mod 64) floordiv 32) * 4 + 33)>
#map85 = affine_map<()[s0, s1, s2] -> (((s0 + s1 * 2 - ((s0 + s1 * 2) floordiv 8) * 7) floordiv 4) * 328 + (s2 floordiv 64) * 82 + ((s2 mod 64) floordiv 32) * 4 + 34)>
#map86 = affine_map<()[s0] -> ((s0 floordiv 64) * 82 + ((s0 mod 64) floordiv 32) * 4 + 34)>
#map87 = affine_map<()[s0, s1, s2] -> (((s0 + s1 * 2 - ((s0 + s1 * 2) floordiv 8) * 7) floordiv 4) * 328 + (s2 floordiv 64) * 82 + ((s2 mod 64) floordiv 32) * 4 + 35)>
#map88 = affine_map<()[s0] -> ((s0 floordiv 64) * 82 + ((s0 mod 64) floordiv 32) * 4 + 35)>
#map89 = affine_map<()[s0, s1, s2] -> (((s0 + s1 * 2 - ((s0 + s1 * 2) floordiv 8) * 7) floordiv 4) * 328 + (s2 floordiv 64) * 82 + ((s2 mod 64) floordiv 32) * 4 + 40)>
#map90 = affine_map<()[s0] -> ((s0 floordiv 64) * 82 + ((s0 mod 64) floordiv 32) * 4 + 40)>
#map91 = affine_map<()[s0, s1, s2] -> (((s0 + s1 * 2 - ((s0 + s1 * 2) floordiv 8) * 7) floordiv 4) * 328 + (s2 floordiv 64) * 82 + ((s2 mod 64) floordiv 32) * 4 + 41)>
#map92 = affine_map<()[s0] -> ((s0 floordiv 64) * 82 + ((s0 mod 64) floordiv 32) * 4 + 41)>
#map93 = affine_map<()[s0, s1, s2] -> (((s0 + s1 * 2 - ((s0 + s1 * 2) floordiv 8) * 7) floordiv 4) * 328 + (s2 floordiv 64) * 82 + ((s2 mod 64) floordiv 32) * 4 + 42)>
#map94 = affine_map<()[s0] -> ((s0 floordiv 64) * 82 + ((s0 mod 64) floordiv 32) * 4 + 42)>
#map95 = affine_map<()[s0, s1, s2] -> (((s0 + s1 * 2 - ((s0 + s1 * 2) floordiv 8) * 7) floordiv 4) * 328 + (s2 floordiv 64) * 82 + ((s2 mod 64) floordiv 32) * 4 + 43)>
#map96 = affine_map<()[s0] -> ((s0 floordiv 64) * 82 + ((s0 mod 64) floordiv 32) * 4 + 43)>
#map97 = affine_map<()[s0, s1, s2] -> (((s0 + s1 * 2 - ((s0 + s1 * 2) floordiv 8) * 7) floordiv 4) * 328 + (s2 floordiv 64) * 82 + ((s2 mod 64) floordiv 32) * 4 + 48)>
#map98 = affine_map<()[s0] -> ((s0 floordiv 64) * 82 + ((s0 mod 64) floordiv 32) * 4 + 48)>
#map99 = affine_map<()[s0, s1, s2] -> (((s0 + s1 * 2 - ((s0 + s1 * 2) floordiv 8) * 7) floordiv 4) * 328 + (s2 floordiv 64) * 82 + ((s2 mod 64) floordiv 32) * 4 + 49)>
#map100 = affine_map<()[s0] -> ((s0 floordiv 64) * 82 + ((s0 mod 64) floordiv 32) * 4 + 49)>
#map101 = affine_map<()[s0, s1, s2] -> (((s0 + s1 * 2 - ((s0 + s1 * 2) floordiv 8) * 7) floordiv 4) * 328 + (s2 floordiv 64) * 82 + ((s2 mod 64) floordiv 32) * 4 + 50)>
#map102 = affine_map<()[s0] -> ((s0 floordiv 64) * 82 + ((s0 mod 64) floordiv 32) * 4 + 50)>
#map103 = affine_map<()[s0, s1, s2] -> (((s0 + s1 * 2 - ((s0 + s1 * 2) floordiv 8) * 7) floordiv 4) * 328 + (s2 floordiv 64) * 82 + ((s2 mod 64) floordiv 32) * 4 + 51)>
#map104 = affine_map<()[s0] -> ((s0 floordiv 64) * 82 + ((s0 mod 64) floordiv 32) * 4 + 51)>
#map105 = affine_map<()[s0, s1, s2] -> (((s0 + s1 * 2 - ((s0 + s1 * 2) floordiv 8) * 7) floordiv 4) * 328 + (s2 floordiv 64) * 82 + ((s2 mod 64) floordiv 32) * 4 + 56)>
#map106 = affine_map<()[s0] -> ((s0 floordiv 64) * 82 + ((s0 mod 64) floordiv 32) * 4 + 56)>
#map107 = affine_map<()[s0, s1, s2] -> (((s0 + s1 * 2 - ((s0 + s1 * 2) floordiv 8) * 7) floordiv 4) * 328 + (s2 floordiv 64) * 82 + ((s2 mod 64) floordiv 32) * 4 + 57)>
#map108 = affine_map<()[s0] -> ((s0 floordiv 64) * 82 + ((s0 mod 64) floordiv 32) * 4 + 57)>
#map109 = affine_map<()[s0, s1, s2] -> (((s0 + s1 * 2 - ((s0 + s1 * 2) floordiv 8) * 7) floordiv 4) * 328 + (s2 floordiv 64) * 82 + ((s2 mod 64) floordiv 32) * 4 + 58)>
#map110 = affine_map<()[s0] -> ((s0 floordiv 64) * 82 + ((s0 mod 64) floordiv 32) * 4 + 58)>
#map111 = affine_map<()[s0, s1, s2] -> (((s0 + s1 * 2 - ((s0 + s1 * 2) floordiv 8) * 7) floordiv 4) * 328 + (s2 floordiv 64) * 82 + ((s2 mod 64) floordiv 32) * 4 + 59)>
#map112 = affine_map<()[s0] -> ((s0 floordiv 64) * 82 + ((s0 mod 64) floordiv 32) * 4 + 59)>
#map113 = affine_map<()[s0, s1, s2] -> (((s0 + s1 * 2 - ((s0 + s1 * 2) floordiv 8) * 7) floordiv 4) * 328 + (s2 floordiv 64) * 82 + ((s2 mod 64) floordiv 32) * 4 + 64)>
#map114 = affine_map<()[s0] -> ((s0 floordiv 64) * 82 + ((s0 mod 64) floordiv 32) * 4 + 64)>
#map115 = affine_map<()[s0, s1, s2] -> (((s0 + s1 * 2 - ((s0 + s1 * 2) floordiv 8) * 7) floordiv 4) * 328 + (s2 floordiv 64) * 82 + ((s2 mod 64) floordiv 32) * 4 + 65)>
#map116 = affine_map<()[s0] -> ((s0 floordiv 64) * 82 + ((s0 mod 64) floordiv 32) * 4 + 65)>
#map117 = affine_map<()[s0, s1, s2] -> (((s0 + s1 * 2 - ((s0 + s1 * 2) floordiv 8) * 7) floordiv 4) * 328 + (s2 floordiv 64) * 82 + ((s2 mod 64) floordiv 32) * 4 + 66)>
#map118 = affine_map<()[s0] -> ((s0 floordiv 64) * 82 + ((s0 mod 64) floordiv 32) * 4 + 66)>
#map119 = affine_map<()[s0, s1, s2] -> (((s0 + s1 * 2 - ((s0 + s1 * 2) floordiv 8) * 7) floordiv 4) * 328 + (s2 floordiv 64) * 82 + ((s2 mod 64) floordiv 32) * 4 + 67)>
#map120 = affine_map<()[s0] -> ((s0 floordiv 64) * 82 + ((s0 mod 64) floordiv 32) * 4 + 67)>
#map121 = affine_map<()[s0, s1, s2] -> (((s0 + s1 * 2 - ((s0 + s1 * 2) floordiv 8) * 7) floordiv 4) * 328 + (s2 floordiv 64) * 82 + ((s2 mod 64) floordiv 32) * 4 + 72)>
#map122 = affine_map<()[s0] -> ((s0 floordiv 64) * 82 + ((s0 mod 64) floordiv 32) * 4 + 72)>
#map123 = affine_map<()[s0, s1, s2] -> (((s0 + s1 * 2 - ((s0 + s1 * 2) floordiv 8) * 7) floordiv 4) * 328 + (s2 floordiv 64) * 82 + ((s2 mod 64) floordiv 32) * 4 + 73)>
#map124 = affine_map<()[s0] -> ((s0 floordiv 64) * 82 + ((s0 mod 64) floordiv 32) * 4 + 73)>
#map125 = affine_map<()[s0, s1, s2] -> (((s0 + s1 * 2 - ((s0 + s1 * 2) floordiv 8) * 7) floordiv 4) * 328 + (s2 floordiv 64) * 82 + ((s2 mod 64) floordiv 32) * 4 + 74)>
#map126 = affine_map<()[s0] -> ((s0 floordiv 64) * 82 + ((s0 mod 64) floordiv 32) * 4 + 74)>
#map127 = affine_map<()[s0, s1, s2] -> (((s0 + s1 * 2 - ((s0 + s1 * 2) floordiv 8) * 7) floordiv 4) * 328 + (s2 floordiv 64) * 82 + ((s2 mod 64) floordiv 32) * 4 + 75)>
#map128 = affine_map<()[s0] -> ((s0 floordiv 64) * 82 + ((s0 mod 64) floordiv 32) * 4 + 75)>
#map129 = affine_map<()[s0, s1, s2] -> (((s0 + s1 * 2 - ((s0 + s1 * 2) floordiv 8) * 7) floordiv 4) * 328 + (s2 floordiv 64) * 82 + ((s2 mod 64) floordiv 32) * 4 + 80)>
#map130 = affine_map<()[s0] -> ((s0 floordiv 64) * 82 + ((s0 mod 64) floordiv 32) * 4 + 80)>
#map131 = affine_map<()[s0, s1, s2] -> (((s0 + s1 * 2 - ((s0 + s1 * 2) floordiv 8) * 7) floordiv 4) * 328 + (s2 floordiv 64) * 82 + ((s2 mod 64) floordiv 32) * 4 + 81)>
#map132 = affine_map<()[s0] -> ((s0 floordiv 64) * 82 + ((s0 mod 64) floordiv 32) * 4 + 81)>
#map133 = affine_map<()[s0, s1, s2] -> (((s0 + s1 * 2 - ((s0 + s1 * 2) floordiv 8) * 7) floordiv 4) * 328 + (s2 floordiv 64) * 82 + ((s2 mod 64) floordiv 32) * 4 + 82)>
#map134 = affine_map<()[s0] -> ((s0 floordiv 64) * 82 + ((s0 mod 64) floordiv 32) * 4 + 82)>
#map135 = affine_map<()[s0, s1, s2] -> (((s0 + s1 * 2 - ((s0 + s1 * 2) floordiv 8) * 7) floordiv 4) * 328 + (s2 floordiv 64) * 82 + ((s2 mod 64) floordiv 32) * 4 + 83)>
#map136 = affine_map<()[s0] -> ((s0 floordiv 64) * 82 + ((s0 mod 64) floordiv 32) * 4 + 83)>
#map137 = affine_map<()[s0, s1, s2] -> (((s0 + s1 * 2 - ((s0 + s1 * 2) floordiv 8) * 7) floordiv 4) * 328 + (s2 floordiv 64) * 82 + ((s2 mod 64) floordiv 32) * 4 + 88)>
#map138 = affine_map<()[s0] -> ((s0 floordiv 64) * 82 + ((s0 mod 64) floordiv 32) * 4 + 88)>
#map139 = affine_map<()[s0, s1, s2] -> (((s0 + s1 * 2 - ((s0 + s1 * 2) floordiv 8) * 7) floordiv 4) * 328 + (s2 floordiv 64) * 82 + ((s2 mod 64) floordiv 32) * 4 + 89)>
#map140 = affine_map<()[s0] -> ((s0 floordiv 64) * 82 + ((s0 mod 64) floordiv 32) * 4 + 89)>
#map141 = affine_map<()[s0, s1, s2] -> (((s0 + s1 * 2 - ((s0 + s1 * 2) floordiv 8) * 7) floordiv 4) * 328 + (s2 floordiv 64) * 82 + ((s2 mod 64) floordiv 32) * 4 + 90)>
#map142 = affine_map<()[s0] -> ((s0 floordiv 64) * 82 + ((s0 mod 64) floordiv 32) * 4 + 90)>
#map143 = affine_map<()[s0, s1, s2] -> (((s0 + s1 * 2 - ((s0 + s1 * 2) floordiv 8) * 7) floordiv 4) * 328 + (s2 floordiv 64) * 82 + ((s2 mod 64) floordiv 32) * 4 + 91)>
#map144 = affine_map<()[s0] -> ((s0 floordiv 64) * 82 + ((s0 mod 64) floordiv 32) * 4 + 91)>
#translation = #iree_codegen.translation_info<pipeline = None workgroup_size = [256, 2, 1] subgroup_size = 64>
module attributes {transform.with_named_sequence} {
  stream.executable private @gemm {
    stream.executable.export public @gemm workgroups() -> (index, index, index) {
      %c2 = arith.constant 2 : index
      %c4 = arith.constant 4 : index
      %c1 = arith.constant 1 : index
      stream.return %c2, %c4, %c1 : index, index, index
    }
    builtin.module {
      func.func @gemm(%arg0: !stream.binding, %arg1: !stream.binding, %arg2: !stream.binding) attributes {translation_info = #translation} {
        %c2880_i14 = arith.constant 2880 : i14
        %cst = arith.constant dense<0.000000e+00> : vector<4xf16>
        %cst_0 = arith.constant dense<[0, 1, 2, 3, 4, 5, 6, 7]> : vector<8xi32>
        %cst_1 = arith.constant dense<1073741823> : vector<8xindex>
        %c4096_i14 = arith.constant 4096 : i14
        %c536870911 = arith.constant 536870911 : index
        %c2147483643_i32 = arith.constant 2147483643 : i32
        %c536870910 = arith.constant 536870910 : index
        %c255 = arith.constant 255 : index
        %c2880 = arith.constant 2880 : index
        %c732 = arith.constant 732 : index
        %c2147483645_i32 = arith.constant 2147483645 : i32
        %c1073741822 = arith.constant 1073741822 : index
        %c4096 = arith.constant 4096 : index
        %c641 = arith.constant 641 : index
        %c1 = arith.constant 1 : index
        %c328 = arith.constant 328 : index
        %c29280 = arith.constant 29280 : index
        %c0 = arith.constant 0 : index
        %cst_2 = arith.constant dense<0.000000e+00> : vector<16xf32>
        %block_id_x = gpu.block_id  x upper_bound 2
        %block_id_y = gpu.block_id  y upper_bound 4
        %thread_id_x = gpu.thread_id  x upper_bound 256
        %thread_id_y = gpu.thread_id  y upper_bound 2
        %alloc = memref.alloc() : memref<42400xi8, #gpu.address_space<workgroup>>
        %view = memref.view %alloc[%c0][] : memref<42400xi8, #gpu.address_space<workgroup>> to memref<732x20xf16, #gpu.address_space<workgroup>>
        %view_3 = memref.view %alloc[%c29280][] : memref<42400xi8, #gpu.address_space<workgroup>> to memref<328x20xf16, #gpu.address_space<workgroup>>
        %0 = stream.binding.subspan %arg0[%c0] : !stream.binding -> memref<641x4096xf16, strided<[4096, 1], offset: ?>>
        %1 = affine.apply #map()[%thread_id_x, %thread_id_y, %block_id_x, %block_id_y]
        %2 = arith.cmpi slt, %1, %c641 : index
        %3 = vector.broadcast %2 : i1 to vector<8xi1>
        %4 = affine.apply #map1()[%thread_id_x]
        %5 = arith.muli %1, %c4096 overflow<nsw> : index
        %6 = arith.addi %5, %4 overflow<nsw> : index
        %base_buffer, %offset, %sizes:2, %strides:2 = memref.extract_strided_metadata %0 : memref<641x4096xf16, strided<[4096, 1], offset: ?>> -> memref<f16>, index, index, index, index, index
        %reinterpret_cast = memref.reinterpret_cast %0 to offset: [%offset], sizes: [%c1073741822], strides: [1] : memref<641x4096xf16, strided<[4096, 1], offset: ?>> to memref<?xf16, strided<[1], offset: ?>>
        %7 = amdgpu.fat_raw_buffer_cast %reinterpret_cast validBytes(%c2147483645_i32) cacheSwizzleStride(%c4096_i14) resetOffset : memref<?xf16, strided<[1], offset: ?>> to memref<?xf16, #amdgpu.address_space<fat_raw_buffer>>
        %8 = arith.index_cast %6 : index to i32
        %9 = vector.broadcast %8 : i32 to vector<8xi32>
        %10 = arith.addi %9, %cst_0 : vector<8xi32>
        %11 = arith.index_cast %10 : vector<8xi32> to vector<8xindex>
        %12 = arith.select %3, %11, %cst_1 : vector<8xi1>, vector<8xindex>
        %13 = vector.extract %12[0] : index from vector<8xindex>
        %14 = vector.load %7[%13] : memref<?xf16, #amdgpu.address_space<fat_raw_buffer>>, vector<8xf16>
        %15 = affine.apply #map2()[%thread_id_x, %thread_id_y, %block_id_x, %block_id_y]
        %16 = arith.cmpi slt, %15, %c641 : index
        %17 = vector.broadcast %16 : i1 to vector<8xi1>
        %18 = arith.muli %15, %c4096 overflow<nsw> : index
        %19 = arith.addi %18, %4 overflow<nsw> : index
        %20 = arith.index_cast %19 : index to i32
        %21 = vector.broadcast %20 : i32 to vector<8xi32>
        %22 = arith.addi %21, %cst_0 : vector<8xi32>
        %23 = arith.index_cast %22 : vector<8xi32> to vector<8xindex>
        %24 = arith.select %17, %23, %cst_1 : vector<8xi1>, vector<8xindex>
        %25 = vector.extract %24[0] : index from vector<8xindex>
        %26 = vector.load %7[%25] : memref<?xf16, #amdgpu.address_space<fat_raw_buffer>>, vector<8xf16>
        %27 = stream.binding.subspan %arg1[%c0] : !stream.binding -> memref<2880x4096xf16, strided<[4096, 1], offset: ?>>
        %28 = affine.apply #map3()[%thread_id_x, %thread_id_y, %block_id_x, %block_id_y]
        %29 = arith.cmpi slt, %28, %c2880 : index
        %30 = vector.broadcast %29 : i1 to vector<8xi1>
        %31 = arith.muli %28, %c4096 overflow<nsw> : index
        %32 = arith.addi %31, %4 overflow<nsw> : index
        %base_buffer_4, %offset_5, %sizes_6:2, %strides_7:2 = memref.extract_strided_metadata %27 : memref<2880x4096xf16, strided<[4096, 1], offset: ?>> -> memref<f16>, index, index, index, index, index
        %reinterpret_cast_8 = memref.reinterpret_cast %27 to offset: [%offset_5], sizes: [%c1073741822], strides: [1] : memref<2880x4096xf16, strided<[4096, 1], offset: ?>> to memref<?xf16, strided<[1], offset: ?>>
        %33 = amdgpu.fat_raw_buffer_cast %reinterpret_cast_8 validBytes(%c2147483645_i32) cacheSwizzleStride(%c4096_i14) resetOffset : memref<?xf16, strided<[1], offset: ?>> to memref<?xf16, #amdgpu.address_space<fat_raw_buffer>>
        %34 = arith.index_cast %32 : index to i32
        %35 = vector.broadcast %34 : i32 to vector<8xi32>
        %36 = arith.addi %35, %cst_0 : vector<8xi32>
        %37 = arith.index_cast %36 : vector<8xi32> to vector<8xindex>
        %38 = arith.select %30, %37, %cst_1 : vector<8xi1>, vector<8xindex>
        %39 = vector.extract %38[0] : index from vector<8xindex>
        %40 = vector.load %33[%39] : memref<?xf16, #amdgpu.address_space<fat_raw_buffer>>, vector<8xf16>
        %41 = affine.apply #map4()[%thread_id_x, %thread_id_y, %block_id_x, %block_id_y]
        %42 = arith.cmpi slt, %41, %c2880 : index
        %43 = vector.broadcast %42 : i1 to vector<8xi1>
        %44 = arith.muli %41, %c4096 overflow<nsw> : index
        %45 = arith.addi %44, %4 overflow<nsw> : index
        %46 = arith.index_cast %45 : index to i32
        %47 = vector.broadcast %46 : i32 to vector<8xi32>
        %48 = arith.addi %47, %cst_0 : vector<8xi32>
        %49 = arith.index_cast %48 : vector<8xi32> to vector<8xindex>
        %50 = arith.select %43, %49, %cst_1 : vector<8xi1>, vector<8xindex>
        %51 = vector.extract %50[0] : index from vector<8xindex>
        %52 = vector.load %33[%51] : memref<?xf16, #amdgpu.address_space<fat_raw_buffer>>, vector<8xf16>
        %53 = affine.apply #map5()[%thread_id_x, %thread_id_y, %block_id_x, %block_id_y]
        %54 = arith.cmpi slt, %53, %c2880 : index
        %55 = vector.broadcast %54 : i1 to vector<8xi1>
        %56 = arith.muli %53, %c4096 overflow<nsw> : index
        %57 = arith.addi %56, %4 overflow<nsw> : index
        %58 = arith.index_cast %57 : index to i32
        %59 = vector.broadcast %58 : i32 to vector<8xi32>
        %60 = arith.addi %59, %cst_0 : vector<8xi32>
        %61 = arith.index_cast %60 : vector<8xi32> to vector<8xindex>
        %62 = arith.select %55, %61, %cst_1 : vector<8xi1>, vector<8xindex>
        %63 = vector.extract %62[0] : index from vector<8xindex>
        %64 = vector.load %33[%63] : memref<?xf16, #amdgpu.address_space<fat_raw_buffer>>, vector<8xf16>
        %65 = affine.apply #map6()[%thread_id_x]
        %66 = arith.minsi %65, %c328 : index
        %67 = affine.apply #map7()[%thread_id_x, %thread_id_y]
        %68 = arith.cmpi slt, %67, %66 : index
        %69 = vector.broadcast %68 : i1 to vector<8xi1>
        vector.maskedstore %view_3[%67, %4], %69, %14 : memref<328x20xf16, #gpu.address_space<workgroup>>, vector<8xi1>, vector<8xf16>
        %70 = affine.apply #map8()[%thread_id_x, %thread_id_y]
        %71 = arith.cmpi slt, %70, %66 : index
        %72 = vector.broadcast %71 : i1 to vector<8xi1>
        vector.maskedstore %view_3[%70, %4], %72, %26 : memref<328x20xf16, #gpu.address_space<workgroup>>, vector<8xi1>, vector<8xf16>
        %73 = affine.apply #map9()[%thread_id_y]
        %74 = arith.minsi %73, %c732 : index
        %75 = affine.apply #map10()[%thread_id_x, %thread_id_y]
        %76 = arith.cmpi slt, %75, %74 : index
        %77 = vector.broadcast %76 : i1 to vector<8xi1>
        vector.maskedstore %view[%75, %4], %77, %40 : memref<732x20xf16, #gpu.address_space<workgroup>>, vector<8xi1>, vector<8xf16>
        %78 = affine.apply #map11()[%thread_id_x, %thread_id_y]
        %79 = arith.cmpi slt, %78, %74 : index
        %80 = vector.broadcast %79 : i1 to vector<8xi1>
        vector.maskedstore %view[%78, %4], %80, %52 : memref<732x20xf16, #gpu.address_space<workgroup>>, vector<8xi1>, vector<8xf16>
        %81 = affine.apply #map12()[%thread_id_x, %thread_id_y]
        %82 = arith.cmpi slt, %81, %74 : index
        %83 = vector.broadcast %82 : i1 to vector<8xi1>
        vector.maskedstore %view[%81, %4], %83, %64 : memref<732x20xf16, #gpu.address_space<workgroup>>, vector<8xi1>, vector<8xf16>
        %84 = affine.apply #map13()[%thread_id_x, %thread_id_y]
        %85 = arith.cmpi slt, %84, %74 : index
        %86 = vector.broadcast %85 : i1 to vector<4xi1>
        %87 = affine.apply #map14()[%thread_id_x]
        %88 = affine.apply #map15()[%thread_id_x]
        %89 = affine.apply #map16()[%thread_id_x, %thread_id_y]
        %90 = arith.cmpi slt, %89, %74 : index
        %91 = vector.broadcast %90 : i1 to vector<4xi1>
        %92 = affine.apply #map17()[%thread_id_x, %thread_id_y]
        %93 = arith.cmpi slt, %92, %74 : index
        %94 = vector.broadcast %93 : i1 to vector<4xi1>
        %95 = affine.apply #map18()[%thread_id_x, %thread_id_y]
        %96 = arith.cmpi slt, %95, %74 : index
        %97 = vector.broadcast %96 : i1 to vector<4xi1>
        %98 = affine.apply #map19()[%thread_id_x, %thread_id_y]
        %99 = arith.cmpi slt, %98, %74 : index
        %100 = vector.broadcast %99 : i1 to vector<4xi1>
        %101 = affine.apply #map20()[%thread_id_x, %thread_id_y]
        %102 = arith.cmpi slt, %101, %74 : index
        %103 = vector.broadcast %102 : i1 to vector<4xi1>
        %104 = affine.apply #map21()[%thread_id_x, %thread_id_y]
        %105 = arith.cmpi slt, %104, %74 : index
        %106 = vector.broadcast %105 : i1 to vector<4xi1>
        %107 = affine.apply #map22()[%thread_id_x, %thread_id_y]
        %108 = arith.cmpi slt, %107, %74 : index
        %109 = vector.broadcast %108 : i1 to vector<4xi1>
        %110 = affine.apply #map23()[%thread_id_x, %thread_id_y]
        %111 = arith.cmpi slt, %110, %74 : index
        %112 = vector.broadcast %111 : i1 to vector<4xi1>
        %113 = affine.apply #map24()[%thread_id_x, %thread_id_y]
        %114 = arith.cmpi slt, %113, %74 : index
        %115 = vector.broadcast %114 : i1 to vector<4xi1>
        %116 = affine.apply #map25()[%thread_id_x, %thread_id_y]
        %117 = arith.cmpi slt, %116, %74 : index
        %118 = vector.broadcast %117 : i1 to vector<4xi1>
        %119 = affine.apply #map26()[%thread_id_x, %thread_id_y]
        %120 = arith.cmpi slt, %119, %74 : index
        %121 = vector.broadcast %120 : i1 to vector<4xi1>
        %122 = affine.apply #map27()[%thread_id_x]
        %123 = arith.cmpi slt, %122, %66 : index
        %124 = vector.broadcast %123 : i1 to vector<4xi1>
        %125 = affine.apply #map28()[%thread_id_x]
        %126 = arith.cmpi slt, %125, %66 : index
        %127 = vector.broadcast %126 : i1 to vector<4xi1>
        %128 = affine.apply #map29()[%thread_id_x]
        %129 = arith.cmpi slt, %128, %66 : index
        %130 = vector.broadcast %129 : i1 to vector<4xi1>
        %131:36 = scf.for %arg3 = %c0 to %c255 step %c1 iter_args(%arg4 = %cst_2, %arg5 = %cst_2, %arg6 = %cst_2, %arg7 = %cst_2, %arg8 = %cst_2, %arg9 = %cst_2, %arg10 = %cst_2, %arg11 = %cst_2, %arg12 = %cst_2, %arg13 = %cst_2, %arg14 = %cst_2, %arg15 = %cst_2, %arg16 = %cst_2, %arg17 = %cst_2, %arg18 = %cst_2, %arg19 = %cst_2, %arg20 = %cst_2, %arg21 = %cst_2, %arg22 = %cst_2, %arg23 = %cst_2, %arg24 = %cst_2, %arg25 = %cst_2, %arg26 = %cst_2, %arg27 = %cst_2, %arg28 = %cst_2, %arg29 = %cst_2, %arg30 = %cst_2, %arg31 = %cst_2, %arg32 = %cst_2, %arg33 = %cst_2, %arg34 = %cst_2, %arg35 = %cst_2, %arg36 = %cst_2, %arg37 = %cst_2, %arg38 = %cst_2, %arg39 = %cst_2) -> (vector<16xf32>, vector<16xf32>, vector<16xf32>, vector<16xf32>, vector<16xf32>, vector<16xf32>, vector<16xf32>, vector<16xf32>, vector<16xf32>, vector<16xf32>, vector<16xf32>, vector<16xf32>, vector<16xf32>, vector<16xf32>, vector<16xf32>, vector<16xf32>, vector<16xf32>, vector<16xf32>, vector<16xf32>, vector<16xf32>, vector<16xf32>, vector<16xf32>, vector<16xf32>, vector<16xf32>, vector<16xf32>, vector<16xf32>, vector<16xf32>, vector<16xf32>, vector<16xf32>, vector<16xf32>, vector<16xf32>, vector<16xf32>, vector<16xf32>, vector<16xf32>, vector<16xf32>, vector<16xf32>) {
          amdgpu.lds_barrier
          %2816 = vector.maskedload %view[%84, %87], %86, %cst : memref<732x20xf16, #gpu.address_space<workgroup>>, vector<4xi1>, vector<4xf16> into vector<4xf16>
          %2817 = vector.maskedload %view[%84, %88], %86, %cst : memref<732x20xf16, #gpu.address_space<workgroup>>, vector<4xi1>, vector<4xf16> into vector<4xf16>
          %2818 = vector.maskedload %view[%89, %87], %91, %cst : memref<732x20xf16, #gpu.address_space<workgroup>>, vector<4xi1>, vector<4xf16> into vector<4xf16>
          %2819 = vector.maskedload %view[%89, %88], %91, %cst : memref<732x20xf16, #gpu.address_space<workgroup>>, vector<4xi1>, vector<4xf16> into vector<4xf16>
          %2820 = vector.maskedload %view[%92, %87], %94, %cst : memref<732x20xf16, #gpu.address_space<workgroup>>, vector<4xi1>, vector<4xf16> into vector<4xf16>
          %2821 = vector.maskedload %view[%92, %88], %94, %cst : memref<732x20xf16, #gpu.address_space<workgroup>>, vector<4xi1>, vector<4xf16> into vector<4xf16>
          %2822 = vector.maskedload %view[%95, %87], %97, %cst : memref<732x20xf16, #gpu.address_space<workgroup>>, vector<4xi1>, vector<4xf16> into vector<4xf16>
          %2823 = vector.maskedload %view[%95, %88], %97, %cst : memref<732x20xf16, #gpu.address_space<workgroup>>, vector<4xi1>, vector<4xf16> into vector<4xf16>
          %2824 = vector.maskedload %view[%98, %87], %100, %cst : memref<732x20xf16, #gpu.address_space<workgroup>>, vector<4xi1>, vector<4xf16> into vector<4xf16>
          %2825 = vector.maskedload %view[%98, %88], %100, %cst : memref<732x20xf16, #gpu.address_space<workgroup>>, vector<4xi1>, vector<4xf16> into vector<4xf16>
          %2826 = vector.maskedload %view[%101, %87], %103, %cst : memref<732x20xf16, #gpu.address_space<workgroup>>, vector<4xi1>, vector<4xf16> into vector<4xf16>
          %2827 = vector.maskedload %view[%101, %88], %103, %cst : memref<732x20xf16, #gpu.address_space<workgroup>>, vector<4xi1>, vector<4xf16> into vector<4xf16>
          %2828 = vector.maskedload %view[%104, %87], %106, %cst : memref<732x20xf16, #gpu.address_space<workgroup>>, vector<4xi1>, vector<4xf16> into vector<4xf16>
          %2829 = vector.maskedload %view[%104, %88], %106, %cst : memref<732x20xf16, #gpu.address_space<workgroup>>, vector<4xi1>, vector<4xf16> into vector<4xf16>
          %2830 = vector.maskedload %view[%107, %87], %109, %cst : memref<732x20xf16, #gpu.address_space<workgroup>>, vector<4xi1>, vector<4xf16> into vector<4xf16>
          %2831 = vector.maskedload %view[%107, %88], %109, %cst : memref<732x20xf16, #gpu.address_space<workgroup>>, vector<4xi1>, vector<4xf16> into vector<4xf16>
          %2832 = vector.maskedload %view[%110, %87], %112, %cst : memref<732x20xf16, #gpu.address_space<workgroup>>, vector<4xi1>, vector<4xf16> into vector<4xf16>
          %2833 = vector.maskedload %view[%110, %88], %112, %cst : memref<732x20xf16, #gpu.address_space<workgroup>>, vector<4xi1>, vector<4xf16> into vector<4xf16>
          %2834 = vector.maskedload %view[%113, %87], %115, %cst : memref<732x20xf16, #gpu.address_space<workgroup>>, vector<4xi1>, vector<4xf16> into vector<4xf16>
          %2835 = vector.maskedload %view[%113, %88], %115, %cst : memref<732x20xf16, #gpu.address_space<workgroup>>, vector<4xi1>, vector<4xf16> into vector<4xf16>
          %2836 = vector.maskedload %view[%116, %87], %118, %cst : memref<732x20xf16, #gpu.address_space<workgroup>>, vector<4xi1>, vector<4xf16> into vector<4xf16>
          %2837 = vector.maskedload %view[%116, %88], %118, %cst : memref<732x20xf16, #gpu.address_space<workgroup>>, vector<4xi1>, vector<4xf16> into vector<4xf16>
          %2838 = vector.maskedload %view[%119, %87], %121, %cst : memref<732x20xf16, #gpu.address_space<workgroup>>, vector<4xi1>, vector<4xf16> into vector<4xf16>
          %2839 = vector.maskedload %view[%119, %88], %121, %cst : memref<732x20xf16, #gpu.address_space<workgroup>>, vector<4xi1>, vector<4xf16> into vector<4xf16>
          %2840 = vector.maskedload %view_3[%122, %87], %124, %cst : memref<328x20xf16, #gpu.address_space<workgroup>>, vector<4xi1>, vector<4xf16> into vector<4xf16>
          %2841 = vector.maskedload %view_3[%122, %88], %124, %cst : memref<328x20xf16, #gpu.address_space<workgroup>>, vector<4xi1>, vector<4xf16> into vector<4xf16>
          %2842 = vector.maskedload %view_3[%125, %87], %127, %cst : memref<328x20xf16, #gpu.address_space<workgroup>>, vector<4xi1>, vector<4xf16> into vector<4xf16>
          %2843 = vector.maskedload %view_3[%125, %88], %127, %cst : memref<328x20xf16, #gpu.address_space<workgroup>>, vector<4xi1>, vector<4xf16> into vector<4xf16>
          %2844 = vector.maskedload %view_3[%128, %87], %130, %cst : memref<328x20xf16, #gpu.address_space<workgroup>>, vector<4xi1>, vector<4xf16> into vector<4xf16>
          %2845 = vector.maskedload %view_3[%128, %88], %130, %cst : memref<328x20xf16, #gpu.address_space<workgroup>>, vector<4xi1>, vector<4xf16> into vector<4xf16>
          %2846 = affine.apply #map30()[%arg3, %thread_id_x]
          %2847 = arith.addi %5, %2846 overflow<nsw> : index
          %2848 = arith.index_cast %2847 : index to i32
          %2849 = vector.broadcast %2848 : i32 to vector<8xi32>
          %2850 = arith.addi %2849, %cst_0 : vector<8xi32>
          %2851 = arith.index_cast %2850 : vector<8xi32> to vector<8xindex>
          %2852 = arith.select %3, %2851, %cst_1 : vector<8xi1>, vector<8xindex>
          %2853 = vector.extract %2852[0] : index from vector<8xindex>
          %2854 = vector.load %7[%2853] : memref<?xf16, #amdgpu.address_space<fat_raw_buffer>>, vector<8xf16>
          %2855 = arith.addi %18, %2846 overflow<nsw> : index
          %2856 = arith.index_cast %2855 : index to i32
          %2857 = vector.broadcast %2856 : i32 to vector<8xi32>
          %2858 = arith.addi %2857, %cst_0 : vector<8xi32>
          %2859 = arith.index_cast %2858 : vector<8xi32> to vector<8xindex>
          %2860 = arith.select %17, %2859, %cst_1 : vector<8xi1>, vector<8xindex>
          %2861 = vector.extract %2860[0] : index from vector<8xindex>
          %2862 = vector.load %7[%2861] : memref<?xf16, #amdgpu.address_space<fat_raw_buffer>>, vector<8xf16>
          %2863 = arith.addi %31, %2846 overflow<nsw> : index
          %2864 = arith.index_cast %2863 : index to i32
          %2865 = vector.broadcast %2864 : i32 to vector<8xi32>
          %2866 = arith.addi %2865, %cst_0 : vector<8xi32>
          %2867 = arith.index_cast %2866 : vector<8xi32> to vector<8xindex>
          %2868 = arith.select %30, %2867, %cst_1 : vector<8xi1>, vector<8xindex>
          %2869 = vector.extract %2868[0] : index from vector<8xindex>
          %2870 = vector.load %33[%2869] : memref<?xf16, #amdgpu.address_space<fat_raw_buffer>>, vector<8xf16>
          %2871 = arith.addi %44, %2846 overflow<nsw> : index
          %2872 = arith.index_cast %2871 : index to i32
          %2873 = vector.broadcast %2872 : i32 to vector<8xi32>
          %2874 = arith.addi %2873, %cst_0 : vector<8xi32>
          %2875 = arith.index_cast %2874 : vector<8xi32> to vector<8xindex>
          %2876 = arith.select %43, %2875, %cst_1 : vector<8xi1>, vector<8xindex>
          %2877 = vector.extract %2876[0] : index from vector<8xindex>
          %2878 = vector.load %33[%2877] : memref<?xf16, #amdgpu.address_space<fat_raw_buffer>>, vector<8xf16>
          %2879 = arith.addi %56, %2846 overflow<nsw> : index
          %2880 = arith.index_cast %2879 : index to i32
          %2881 = vector.broadcast %2880 : i32 to vector<8xi32>
          %2882 = arith.addi %2881, %cst_0 : vector<8xi32>
          %2883 = arith.index_cast %2882 : vector<8xi32> to vector<8xindex>
          %2884 = arith.select %55, %2883, %cst_1 : vector<8xi1>, vector<8xindex>
          %2885 = vector.extract %2884[0] : index from vector<8xindex>
          %2886 = vector.load %33[%2885] : memref<?xf16, #amdgpu.address_space<fat_raw_buffer>>, vector<8xf16>
          %2887 = amdgpu.mfma %2840 * %2816 + %arg4 {blocks = 1 : i32, k = 8 : i32, m = 32 : i32, n = 32 : i32} blgp =  none : vector<4xf16>, vector<4xf16>, vector<16xf32>
          %2888 = amdgpu.mfma %2841 * %2817 + %2887 {blocks = 1 : i32, k = 8 : i32, m = 32 : i32, n = 32 : i32} blgp =  none : vector<4xf16>, vector<4xf16>, vector<16xf32>
          %2889 = amdgpu.mfma %2840 * %2818 + %arg5 {blocks = 1 : i32, k = 8 : i32, m = 32 : i32, n = 32 : i32} blgp =  none : vector<4xf16>, vector<4xf16>, vector<16xf32>
          %2890 = amdgpu.mfma %2841 * %2819 + %2889 {blocks = 1 : i32, k = 8 : i32, m = 32 : i32, n = 32 : i32} blgp =  none : vector<4xf16>, vector<4xf16>, vector<16xf32>
          %2891 = amdgpu.mfma %2840 * %2820 + %arg6 {blocks = 1 : i32, k = 8 : i32, m = 32 : i32, n = 32 : i32} blgp =  none : vector<4xf16>, vector<4xf16>, vector<16xf32>
          %2892 = amdgpu.mfma %2841 * %2821 + %2891 {blocks = 1 : i32, k = 8 : i32, m = 32 : i32, n = 32 : i32} blgp =  none : vector<4xf16>, vector<4xf16>, vector<16xf32>
          %2893 = amdgpu.mfma %2840 * %2822 + %arg7 {blocks = 1 : i32, k = 8 : i32, m = 32 : i32, n = 32 : i32} blgp =  none : vector<4xf16>, vector<4xf16>, vector<16xf32>
          %2894 = amdgpu.mfma %2841 * %2823 + %2893 {blocks = 1 : i32, k = 8 : i32, m = 32 : i32, n = 32 : i32} blgp =  none : vector<4xf16>, vector<4xf16>, vector<16xf32>
          %2895 = amdgpu.mfma %2840 * %2824 + %arg8 {blocks = 1 : i32, k = 8 : i32, m = 32 : i32, n = 32 : i32} blgp =  none : vector<4xf16>, vector<4xf16>, vector<16xf32>
          %2896 = amdgpu.mfma %2841 * %2825 + %2895 {blocks = 1 : i32, k = 8 : i32, m = 32 : i32, n = 32 : i32} blgp =  none : vector<4xf16>, vector<4xf16>, vector<16xf32>
          %2897 = amdgpu.mfma %2840 * %2826 + %arg9 {blocks = 1 : i32, k = 8 : i32, m = 32 : i32, n = 32 : i32} blgp =  none : vector<4xf16>, vector<4xf16>, vector<16xf32>
          %2898 = amdgpu.mfma %2841 * %2827 + %2897 {blocks = 1 : i32, k = 8 : i32, m = 32 : i32, n = 32 : i32} blgp =  none : vector<4xf16>, vector<4xf16>, vector<16xf32>
          %2899 = amdgpu.mfma %2840 * %2828 + %arg10 {blocks = 1 : i32, k = 8 : i32, m = 32 : i32, n = 32 : i32} blgp =  none : vector<4xf16>, vector<4xf16>, vector<16xf32>
          %2900 = amdgpu.mfma %2841 * %2829 + %2899 {blocks = 1 : i32, k = 8 : i32, m = 32 : i32, n = 32 : i32} blgp =  none : vector<4xf16>, vector<4xf16>, vector<16xf32>
          %2901 = amdgpu.mfma %2840 * %2830 + %arg11 {blocks = 1 : i32, k = 8 : i32, m = 32 : i32, n = 32 : i32} blgp =  none : vector<4xf16>, vector<4xf16>, vector<16xf32>
          %2902 = amdgpu.mfma %2841 * %2831 + %2901 {blocks = 1 : i32, k = 8 : i32, m = 32 : i32, n = 32 : i32} blgp =  none : vector<4xf16>, vector<4xf16>, vector<16xf32>
          %2903 = amdgpu.mfma %2840 * %2832 + %arg12 {blocks = 1 : i32, k = 8 : i32, m = 32 : i32, n = 32 : i32} blgp =  none : vector<4xf16>, vector<4xf16>, vector<16xf32>
          %2904 = amdgpu.mfma %2841 * %2833 + %2903 {blocks = 1 : i32, k = 8 : i32, m = 32 : i32, n = 32 : i32} blgp =  none : vector<4xf16>, vector<4xf16>, vector<16xf32>
          %2905 = amdgpu.mfma %2840 * %2834 + %arg13 {blocks = 1 : i32, k = 8 : i32, m = 32 : i32, n = 32 : i32} blgp =  none : vector<4xf16>, vector<4xf16>, vector<16xf32>
          %2906 = amdgpu.mfma %2841 * %2835 + %2905 {blocks = 1 : i32, k = 8 : i32, m = 32 : i32, n = 32 : i32} blgp =  none : vector<4xf16>, vector<4xf16>, vector<16xf32>
          %2907 = amdgpu.mfma %2840 * %2836 + %arg14 {blocks = 1 : i32, k = 8 : i32, m = 32 : i32, n = 32 : i32} blgp =  none : vector<4xf16>, vector<4xf16>, vector<16xf32>
          %2908 = amdgpu.mfma %2841 * %2837 + %2907 {blocks = 1 : i32, k = 8 : i32, m = 32 : i32, n = 32 : i32} blgp =  none : vector<4xf16>, vector<4xf16>, vector<16xf32>
          %2909 = amdgpu.mfma %2840 * %2838 + %arg15 {blocks = 1 : i32, k = 8 : i32, m = 32 : i32, n = 32 : i32} blgp =  none : vector<4xf16>, vector<4xf16>, vector<16xf32>
          %2910 = amdgpu.mfma %2841 * %2839 + %2909 {blocks = 1 : i32, k = 8 : i32, m = 32 : i32, n = 32 : i32} blgp =  none : vector<4xf16>, vector<4xf16>, vector<16xf32>
          %2911 = amdgpu.mfma %2842 * %2816 + %arg16 {blocks = 1 : i32, k = 8 : i32, m = 32 : i32, n = 32 : i32} blgp =  none : vector<4xf16>, vector<4xf16>, vector<16xf32>
          %2912 = amdgpu.mfma %2843 * %2817 + %2911 {blocks = 1 : i32, k = 8 : i32, m = 32 : i32, n = 32 : i32} blgp =  none : vector<4xf16>, vector<4xf16>, vector<16xf32>
          %2913 = amdgpu.mfma %2842 * %2818 + %arg17 {blocks = 1 : i32, k = 8 : i32, m = 32 : i32, n = 32 : i32} blgp =  none : vector<4xf16>, vector<4xf16>, vector<16xf32>
          %2914 = amdgpu.mfma %2843 * %2819 + %2913 {blocks = 1 : i32, k = 8 : i32, m = 32 : i32, n = 32 : i32} blgp =  none : vector<4xf16>, vector<4xf16>, vector<16xf32>
          %2915 = amdgpu.mfma %2842 * %2820 + %arg18 {blocks = 1 : i32, k = 8 : i32, m = 32 : i32, n = 32 : i32} blgp =  none : vector<4xf16>, vector<4xf16>, vector<16xf32>
          %2916 = amdgpu.mfma %2843 * %2821 + %2915 {blocks = 1 : i32, k = 8 : i32, m = 32 : i32, n = 32 : i32} blgp =  none : vector<4xf16>, vector<4xf16>, vector<16xf32>
          %2917 = amdgpu.mfma %2842 * %2822 + %arg19 {blocks = 1 : i32, k = 8 : i32, m = 32 : i32, n = 32 : i32} blgp =  none : vector<4xf16>, vector<4xf16>, vector<16xf32>
          %2918 = amdgpu.mfma %2843 * %2823 + %2917 {blocks = 1 : i32, k = 8 : i32, m = 32 : i32, n = 32 : i32} blgp =  none : vector<4xf16>, vector<4xf16>, vector<16xf32>
          %2919 = amdgpu.mfma %2842 * %2824 + %arg20 {blocks = 1 : i32, k = 8 : i32, m = 32 : i32, n = 32 : i32} blgp =  none : vector<4xf16>, vector<4xf16>, vector<16xf32>
          %2920 = amdgpu.mfma %2843 * %2825 + %2919 {blocks = 1 : i32, k = 8 : i32, m = 32 : i32, n = 32 : i32} blgp =  none : vector<4xf16>, vector<4xf16>, vector<16xf32>
          %2921 = amdgpu.mfma %2842 * %2826 + %arg21 {blocks = 1 : i32, k = 8 : i32, m = 32 : i32, n = 32 : i32} blgp =  none : vector<4xf16>, vector<4xf16>, vector<16xf32>
          %2922 = amdgpu.mfma %2843 * %2827 + %2921 {blocks = 1 : i32, k = 8 : i32, m = 32 : i32, n = 32 : i32} blgp =  none : vector<4xf16>, vector<4xf16>, vector<16xf32>
          %2923 = amdgpu.mfma %2842 * %2828 + %arg22 {blocks = 1 : i32, k = 8 : i32, m = 32 : i32, n = 32 : i32} blgp =  none : vector<4xf16>, vector<4xf16>, vector<16xf32>
          %2924 = amdgpu.mfma %2843 * %2829 + %2923 {blocks = 1 : i32, k = 8 : i32, m = 32 : i32, n = 32 : i32} blgp =  none : vector<4xf16>, vector<4xf16>, vector<16xf32>
          %2925 = amdgpu.mfma %2842 * %2830 + %arg23 {blocks = 1 : i32, k = 8 : i32, m = 32 : i32, n = 32 : i32} blgp =  none : vector<4xf16>, vector<4xf16>, vector<16xf32>
          %2926 = amdgpu.mfma %2843 * %2831 + %2925 {blocks = 1 : i32, k = 8 : i32, m = 32 : i32, n = 32 : i32} blgp =  none : vector<4xf16>, vector<4xf16>, vector<16xf32>
          %2927 = amdgpu.mfma %2842 * %2832 + %arg24 {blocks = 1 : i32, k = 8 : i32, m = 32 : i32, n = 32 : i32} blgp =  none : vector<4xf16>, vector<4xf16>, vector<16xf32>
          %2928 = amdgpu.mfma %2843 * %2833 + %2927 {blocks = 1 : i32, k = 8 : i32, m = 32 : i32, n = 32 : i32} blgp =  none : vector<4xf16>, vector<4xf16>, vector<16xf32>
          %2929 = amdgpu.mfma %2842 * %2834 + %arg25 {blocks = 1 : i32, k = 8 : i32, m = 32 : i32, n = 32 : i32} blgp =  none : vector<4xf16>, vector<4xf16>, vector<16xf32>
          %2930 = amdgpu.mfma %2843 * %2835 + %2929 {blocks = 1 : i32, k = 8 : i32, m = 32 : i32, n = 32 : i32} blgp =  none : vector<4xf16>, vector<4xf16>, vector<16xf32>
          %2931 = amdgpu.mfma %2842 * %2836 + %arg26 {blocks = 1 : i32, k = 8 : i32, m = 32 : i32, n = 32 : i32} blgp =  none : vector<4xf16>, vector<4xf16>, vector<16xf32>
          %2932 = amdgpu.mfma %2843 * %2837 + %2931 {blocks = 1 : i32, k = 8 : i32, m = 32 : i32, n = 32 : i32} blgp =  none : vector<4xf16>, vector<4xf16>, vector<16xf32>
          %2933 = amdgpu.mfma %2842 * %2838 + %arg27 {blocks = 1 : i32, k = 8 : i32, m = 32 : i32, n = 32 : i32} blgp =  none : vector<4xf16>, vector<4xf16>, vector<16xf32>
          %2934 = amdgpu.mfma %2843 * %2839 + %2933 {blocks = 1 : i32, k = 8 : i32, m = 32 : i32, n = 32 : i32} blgp =  none : vector<4xf16>, vector<4xf16>, vector<16xf32>
          %2935 = amdgpu.mfma %2844 * %2816 + %arg28 {blocks = 1 : i32, k = 8 : i32, m = 32 : i32, n = 32 : i32} blgp =  none : vector<4xf16>, vector<4xf16>, vector<16xf32>
          %2936 = amdgpu.mfma %2845 * %2817 + %2935 {blocks = 1 : i32, k = 8 : i32, m = 32 : i32, n = 32 : i32} blgp =  none : vector<4xf16>, vector<4xf16>, vector<16xf32>
          %2937 = amdgpu.mfma %2844 * %2818 + %arg29 {blocks = 1 : i32, k = 8 : i32, m = 32 : i32, n = 32 : i32} blgp =  none : vector<4xf16>, vector<4xf16>, vector<16xf32>
          %2938 = amdgpu.mfma %2845 * %2819 + %2937 {blocks = 1 : i32, k = 8 : i32, m = 32 : i32, n = 32 : i32} blgp =  none : vector<4xf16>, vector<4xf16>, vector<16xf32>
          %2939 = amdgpu.mfma %2844 * %2820 + %arg30 {blocks = 1 : i32, k = 8 : i32, m = 32 : i32, n = 32 : i32} blgp =  none : vector<4xf16>, vector<4xf16>, vector<16xf32>
          %2940 = amdgpu.mfma %2845 * %2821 + %2939 {blocks = 1 : i32, k = 8 : i32, m = 32 : i32, n = 32 : i32} blgp =  none : vector<4xf16>, vector<4xf16>, vector<16xf32>
          %2941 = amdgpu.mfma %2844 * %2822 + %arg31 {blocks = 1 : i32, k = 8 : i32, m = 32 : i32, n = 32 : i32} blgp =  none : vector<4xf16>, vector<4xf16>, vector<16xf32>
          %2942 = amdgpu.mfma %2845 * %2823 + %2941 {blocks = 1 : i32, k = 8 : i32, m = 32 : i32, n = 32 : i32} blgp =  none : vector<4xf16>, vector<4xf16>, vector<16xf32>
          %2943 = amdgpu.mfma %2844 * %2824 + %arg32 {blocks = 1 : i32, k = 8 : i32, m = 32 : i32, n = 32 : i32} blgp =  none : vector<4xf16>, vector<4xf16>, vector<16xf32>
          %2944 = amdgpu.mfma %2845 * %2825 + %2943 {blocks = 1 : i32, k = 8 : i32, m = 32 : i32, n = 32 : i32} blgp =  none : vector<4xf16>, vector<4xf16>, vector<16xf32>
          %2945 = amdgpu.mfma %2844 * %2826 + %arg33 {blocks = 1 : i32, k = 8 : i32, m = 32 : i32, n = 32 : i32} blgp =  none : vector<4xf16>, vector<4xf16>, vector<16xf32>
          %2946 = amdgpu.mfma %2845 * %2827 + %2945 {blocks = 1 : i32, k = 8 : i32, m = 32 : i32, n = 32 : i32} blgp =  none : vector<4xf16>, vector<4xf16>, vector<16xf32>
          %2947 = amdgpu.mfma %2844 * %2828 + %arg34 {blocks = 1 : i32, k = 8 : i32, m = 32 : i32, n = 32 : i32} blgp =  none : vector<4xf16>, vector<4xf16>, vector<16xf32>
          %2948 = amdgpu.mfma %2845 * %2829 + %2947 {blocks = 1 : i32, k = 8 : i32, m = 32 : i32, n = 32 : i32} blgp =  none : vector<4xf16>, vector<4xf16>, vector<16xf32>
          %2949 = amdgpu.mfma %2844 * %2830 + %arg35 {blocks = 1 : i32, k = 8 : i32, m = 32 : i32, n = 32 : i32} blgp =  none : vector<4xf16>, vector<4xf16>, vector<16xf32>
          %2950 = amdgpu.mfma %2845 * %2831 + %2949 {blocks = 1 : i32, k = 8 : i32, m = 32 : i32, n = 32 : i32} blgp =  none : vector<4xf16>, vector<4xf16>, vector<16xf32>
          %2951 = amdgpu.mfma %2844 * %2832 + %arg36 {blocks = 1 : i32, k = 8 : i32, m = 32 : i32, n = 32 : i32} blgp =  none : vector<4xf16>, vector<4xf16>, vector<16xf32>
          %2952 = amdgpu.mfma %2845 * %2833 + %2951 {blocks = 1 : i32, k = 8 : i32, m = 32 : i32, n = 32 : i32} blgp =  none : vector<4xf16>, vector<4xf16>, vector<16xf32>
          %2953 = amdgpu.mfma %2844 * %2834 + %arg37 {blocks = 1 : i32, k = 8 : i32, m = 32 : i32, n = 32 : i32} blgp =  none : vector<4xf16>, vector<4xf16>, vector<16xf32>
          %2954 = amdgpu.mfma %2845 * %2835 + %2953 {blocks = 1 : i32, k = 8 : i32, m = 32 : i32, n = 32 : i32} blgp =  none : vector<4xf16>, vector<4xf16>, vector<16xf32>
          %2955 = amdgpu.mfma %2844 * %2836 + %arg38 {blocks = 1 : i32, k = 8 : i32, m = 32 : i32, n = 32 : i32} blgp =  none : vector<4xf16>, vector<4xf16>, vector<16xf32>
          %2956 = amdgpu.mfma %2845 * %2837 + %2955 {blocks = 1 : i32, k = 8 : i32, m = 32 : i32, n = 32 : i32} blgp =  none : vector<4xf16>, vector<4xf16>, vector<16xf32>
          %2957 = amdgpu.mfma %2844 * %2838 + %arg39 {blocks = 1 : i32, k = 8 : i32, m = 32 : i32, n = 32 : i32} blgp =  none : vector<4xf16>, vector<4xf16>, vector<16xf32>
          %2958 = amdgpu.mfma %2845 * %2839 + %2957 {blocks = 1 : i32, k = 8 : i32, m = 32 : i32, n = 32 : i32} blgp =  none : vector<4xf16>, vector<4xf16>, vector<16xf32>
          amdgpu.lds_barrier
          vector.maskedstore %view_3[%67, %4], %69, %2854 : memref<328x20xf16, #gpu.address_space<workgroup>>, vector<8xi1>, vector<8xf16>
          vector.maskedstore %view_3[%70, %4], %72, %2862 : memref<328x20xf16, #gpu.address_space<workgroup>>, vector<8xi1>, vector<8xf16>
          vector.maskedstore %view[%75, %4], %77, %2870 : memref<732x20xf16, #gpu.address_space<workgroup>>, vector<8xi1>, vector<8xf16>
          vector.maskedstore %view[%78, %4], %80, %2878 : memref<732x20xf16, #gpu.address_space<workgroup>>, vector<8xi1>, vector<8xf16>
          vector.maskedstore %view[%81, %4], %83, %2886 : memref<732x20xf16, #gpu.address_space<workgroup>>, vector<8xi1>, vector<8xf16>
          scf.yield %2888, %2890, %2892, %2894, %2896, %2898, %2900, %2902, %2904, %2906, %2908, %2910, %2912, %2914, %2916, %2918, %2920, %2922, %2924, %2926, %2928, %2930, %2932, %2934, %2936, %2938, %2940, %2942, %2944, %2946, %2948, %2950, %2952, %2954, %2956, %2958 : vector<16xf32>, vector<16xf32>, vector<16xf32>, vector<16xf32>, vector<16xf32>, vector<16xf32>, vector<16xf32>, vector<16xf32>, vector<16xf32>, vector<16xf32>, vector<16xf32>, vector<16xf32>, vector<16xf32>, vector<16xf32>, vector<16xf32>, vector<16xf32>, vector<16xf32>, vector<16xf32>, vector<16xf32>, vector<16xf32>, vector<16xf32>, vector<16xf32>, vector<16xf32>, vector<16xf32>, vector<16xf32>, vector<16xf32>, vector<16xf32>, vector<16xf32>, vector<16xf32>, vector<16xf32>, vector<16xf32>, vector<16xf32>, vector<16xf32>, vector<16xf32>, vector<16xf32>, vector<16xf32>
        }
        amdgpu.lds_barrier
        %132 = affine.apply #map13()[%thread_id_x, %thread_id_y]
        %133 = arith.cmpi slt, %132, %74 : index
        %134 = vector.broadcast %133 : i1 to vector<4xi1>
        %135 = affine.apply #map14()[%thread_id_x]
        %136 = vector.maskedload %view[%132, %135], %134, %cst : memref<732x20xf16, #gpu.address_space<workgroup>>, vector<4xi1>, vector<4xf16> into vector<4xf16>
        %137 = affine.apply #map15()[%thread_id_x]
        %138 = vector.maskedload %view[%132, %137], %134, %cst : memref<732x20xf16, #gpu.address_space<workgroup>>, vector<4xi1>, vector<4xf16> into vector<4xf16>
        %139 = affine.apply #map16()[%thread_id_x, %thread_id_y]
        %140 = arith.cmpi slt, %139, %74 : index
        %141 = vector.broadcast %140 : i1 to vector<4xi1>
        %142 = vector.maskedload %view[%139, %135], %141, %cst : memref<732x20xf16, #gpu.address_space<workgroup>>, vector<4xi1>, vector<4xf16> into vector<4xf16>
        %143 = vector.maskedload %view[%139, %137], %141, %cst : memref<732x20xf16, #gpu.address_space<workgroup>>, vector<4xi1>, vector<4xf16> into vector<4xf16>
        %144 = affine.apply #map17()[%thread_id_x, %thread_id_y]
        %145 = arith.cmpi slt, %144, %74 : index
        %146 = vector.broadcast %145 : i1 to vector<4xi1>
        %147 = vector.maskedload %view[%144, %135], %146, %cst : memref<732x20xf16, #gpu.address_space<workgroup>>, vector<4xi1>, vector<4xf16> into vector<4xf16>
        %148 = vector.maskedload %view[%144, %137], %146, %cst : memref<732x20xf16, #gpu.address_space<workgroup>>, vector<4xi1>, vector<4xf16> into vector<4xf16>
        %149 = affine.apply #map18()[%thread_id_x, %thread_id_y]
        %150 = arith.cmpi slt, %149, %74 : index
        %151 = vector.broadcast %150 : i1 to vector<4xi1>
        %152 = vector.maskedload %view[%149, %135], %151, %cst : memref<732x20xf16, #gpu.address_space<workgroup>>, vector<4xi1>, vector<4xf16> into vector<4xf16>
        %153 = vector.maskedload %view[%149, %137], %151, %cst : memref<732x20xf16, #gpu.address_space<workgroup>>, vector<4xi1>, vector<4xf16> into vector<4xf16>
        %154 = affine.apply #map19()[%thread_id_x, %thread_id_y]
        %155 = arith.cmpi slt, %154, %74 : index
        %156 = vector.broadcast %155 : i1 to vector<4xi1>
        %157 = vector.maskedload %view[%154, %135], %156, %cst : memref<732x20xf16, #gpu.address_space<workgroup>>, vector<4xi1>, vector<4xf16> into vector<4xf16>
        %158 = vector.maskedload %view[%154, %137], %156, %cst : memref<732x20xf16, #gpu.address_space<workgroup>>, vector<4xi1>, vector<4xf16> into vector<4xf16>
        %159 = affine.apply #map20()[%thread_id_x, %thread_id_y]
        %160 = arith.cmpi slt, %159, %74 : index
        %161 = vector.broadcast %160 : i1 to vector<4xi1>
        %162 = vector.maskedload %view[%159, %135], %161, %cst : memref<732x20xf16, #gpu.address_space<workgroup>>, vector<4xi1>, vector<4xf16> into vector<4xf16>
        %163 = vector.maskedload %view[%159, %137], %161, %cst : memref<732x20xf16, #gpu.address_space<workgroup>>, vector<4xi1>, vector<4xf16> into vector<4xf16>
        %164 = affine.apply #map21()[%thread_id_x, %thread_id_y]
        %165 = arith.cmpi slt, %164, %74 : index
        %166 = vector.broadcast %165 : i1 to vector<4xi1>
        %167 = vector.maskedload %view[%164, %135], %166, %cst : memref<732x20xf16, #gpu.address_space<workgroup>>, vector<4xi1>, vector<4xf16> into vector<4xf16>
        %168 = vector.maskedload %view[%164, %137], %166, %cst : memref<732x20xf16, #gpu.address_space<workgroup>>, vector<4xi1>, vector<4xf16> into vector<4xf16>
        %169 = affine.apply #map22()[%thread_id_x, %thread_id_y]
        %170 = arith.cmpi slt, %169, %74 : index
        %171 = vector.broadcast %170 : i1 to vector<4xi1>
        %172 = vector.maskedload %view[%169, %135], %171, %cst : memref<732x20xf16, #gpu.address_space<workgroup>>, vector<4xi1>, vector<4xf16> into vector<4xf16>
        %173 = vector.maskedload %view[%169, %137], %171, %cst : memref<732x20xf16, #gpu.address_space<workgroup>>, vector<4xi1>, vector<4xf16> into vector<4xf16>
        %174 = affine.apply #map23()[%thread_id_x, %thread_id_y]
        %175 = arith.cmpi slt, %174, %74 : index
        %176 = vector.broadcast %175 : i1 to vector<4xi1>
        %177 = vector.maskedload %view[%174, %135], %176, %cst : memref<732x20xf16, #gpu.address_space<workgroup>>, vector<4xi1>, vector<4xf16> into vector<4xf16>
        %178 = vector.maskedload %view[%174, %137], %176, %cst : memref<732x20xf16, #gpu.address_space<workgroup>>, vector<4xi1>, vector<4xf16> into vector<4xf16>
        %179 = affine.apply #map24()[%thread_id_x, %thread_id_y]
        %180 = arith.cmpi slt, %179, %74 : index
        %181 = vector.broadcast %180 : i1 to vector<4xi1>
        %182 = vector.maskedload %view[%179, %135], %181, %cst : memref<732x20xf16, #gpu.address_space<workgroup>>, vector<4xi1>, vector<4xf16> into vector<4xf16>
        %183 = vector.maskedload %view[%179, %137], %181, %cst : memref<732x20xf16, #gpu.address_space<workgroup>>, vector<4xi1>, vector<4xf16> into vector<4xf16>
        %184 = affine.apply #map25()[%thread_id_x, %thread_id_y]
        %185 = arith.cmpi slt, %184, %74 : index
        %186 = vector.broadcast %185 : i1 to vector<4xi1>
        %187 = vector.maskedload %view[%184, %135], %186, %cst : memref<732x20xf16, #gpu.address_space<workgroup>>, vector<4xi1>, vector<4xf16> into vector<4xf16>
        %188 = vector.maskedload %view[%184, %137], %186, %cst : memref<732x20xf16, #gpu.address_space<workgroup>>, vector<4xi1>, vector<4xf16> into vector<4xf16>
        %189 = affine.apply #map26()[%thread_id_x, %thread_id_y]
        %190 = arith.cmpi slt, %189, %74 : index
        %191 = vector.broadcast %190 : i1 to vector<4xi1>
        %192 = vector.maskedload %view[%189, %135], %191, %cst : memref<732x20xf16, #gpu.address_space<workgroup>>, vector<4xi1>, vector<4xf16> into vector<4xf16>
        %193 = vector.maskedload %view[%189, %137], %191, %cst : memref<732x20xf16, #gpu.address_space<workgroup>>, vector<4xi1>, vector<4xf16> into vector<4xf16>
        %194 = affine.apply #map27()[%thread_id_x]
        %195 = arith.cmpi slt, %194, %66 : index
        %196 = vector.broadcast %195 : i1 to vector<4xi1>
        %197 = vector.maskedload %view_3[%194, %135], %196, %cst : memref<328x20xf16, #gpu.address_space<workgroup>>, vector<4xi1>, vector<4xf16> into vector<4xf16>
        %198 = vector.maskedload %view_3[%194, %137], %196, %cst : memref<328x20xf16, #gpu.address_space<workgroup>>, vector<4xi1>, vector<4xf16> into vector<4xf16>
        %199 = affine.apply #map28()[%thread_id_x]
        %200 = arith.cmpi slt, %199, %66 : index
        %201 = vector.broadcast %200 : i1 to vector<4xi1>
        %202 = vector.maskedload %view_3[%199, %135], %201, %cst : memref<328x20xf16, #gpu.address_space<workgroup>>, vector<4xi1>, vector<4xf16> into vector<4xf16>
        %203 = vector.maskedload %view_3[%199, %137], %201, %cst : memref<328x20xf16, #gpu.address_space<workgroup>>, vector<4xi1>, vector<4xf16> into vector<4xf16>
        %204 = affine.apply #map29()[%thread_id_x]
        %205 = arith.cmpi slt, %204, %66 : index
        %206 = vector.broadcast %205 : i1 to vector<4xi1>
        %207 = vector.maskedload %view_3[%204, %135], %206, %cst : memref<328x20xf16, #gpu.address_space<workgroup>>, vector<4xi1>, vector<4xf16> into vector<4xf16>
        %208 = vector.maskedload %view_3[%204, %137], %206, %cst : memref<328x20xf16, #gpu.address_space<workgroup>>, vector<4xi1>, vector<4xf16> into vector<4xf16>
        %209 = amdgpu.mfma %197 * %136 + %131#0 {blocks = 1 : i32, k = 8 : i32, m = 32 : i32, n = 32 : i32} blgp =  none : vector<4xf16>, vector<4xf16>, vector<16xf32>
        %210 = amdgpu.mfma %198 * %138 + %209 {blocks = 1 : i32, k = 8 : i32, m = 32 : i32, n = 32 : i32} blgp =  none : vector<4xf16>, vector<4xf16>, vector<16xf32>
        %211 = amdgpu.mfma %197 * %142 + %131#1 {blocks = 1 : i32, k = 8 : i32, m = 32 : i32, n = 32 : i32} blgp =  none : vector<4xf16>, vector<4xf16>, vector<16xf32>
        %212 = amdgpu.mfma %198 * %143 + %211 {blocks = 1 : i32, k = 8 : i32, m = 32 : i32, n = 32 : i32} blgp =  none : vector<4xf16>, vector<4xf16>, vector<16xf32>
        %213 = amdgpu.mfma %197 * %147 + %131#2 {blocks = 1 : i32, k = 8 : i32, m = 32 : i32, n = 32 : i32} blgp =  none : vector<4xf16>, vector<4xf16>, vector<16xf32>
        %214 = amdgpu.mfma %198 * %148 + %213 {blocks = 1 : i32, k = 8 : i32, m = 32 : i32, n = 32 : i32} blgp =  none : vector<4xf16>, vector<4xf16>, vector<16xf32>
        %215 = amdgpu.mfma %197 * %152 + %131#3 {blocks = 1 : i32, k = 8 : i32, m = 32 : i32, n = 32 : i32} blgp =  none : vector<4xf16>, vector<4xf16>, vector<16xf32>
        %216 = amdgpu.mfma %198 * %153 + %215 {blocks = 1 : i32, k = 8 : i32, m = 32 : i32, n = 32 : i32} blgp =  none : vector<4xf16>, vector<4xf16>, vector<16xf32>
        %217 = amdgpu.mfma %197 * %157 + %131#4 {blocks = 1 : i32, k = 8 : i32, m = 32 : i32, n = 32 : i32} blgp =  none : vector<4xf16>, vector<4xf16>, vector<16xf32>
        %218 = amdgpu.mfma %198 * %158 + %217 {blocks = 1 : i32, k = 8 : i32, m = 32 : i32, n = 32 : i32} blgp =  none : vector<4xf16>, vector<4xf16>, vector<16xf32>
        %219 = amdgpu.mfma %197 * %162 + %131#5 {blocks = 1 : i32, k = 8 : i32, m = 32 : i32, n = 32 : i32} blgp =  none : vector<4xf16>, vector<4xf16>, vector<16xf32>
        %220 = amdgpu.mfma %198 * %163 + %219 {blocks = 1 : i32, k = 8 : i32, m = 32 : i32, n = 32 : i32} blgp =  none : vector<4xf16>, vector<4xf16>, vector<16xf32>
        %221 = amdgpu.mfma %197 * %167 + %131#6 {blocks = 1 : i32, k = 8 : i32, m = 32 : i32, n = 32 : i32} blgp =  none : vector<4xf16>, vector<4xf16>, vector<16xf32>
        %222 = amdgpu.mfma %198 * %168 + %221 {blocks = 1 : i32, k = 8 : i32, m = 32 : i32, n = 32 : i32} blgp =  none : vector<4xf16>, vector<4xf16>, vector<16xf32>
        %223 = amdgpu.mfma %197 * %172 + %131#7 {blocks = 1 : i32, k = 8 : i32, m = 32 : i32, n = 32 : i32} blgp =  none : vector<4xf16>, vector<4xf16>, vector<16xf32>
        %224 = amdgpu.mfma %198 * %173 + %223 {blocks = 1 : i32, k = 8 : i32, m = 32 : i32, n = 32 : i32} blgp =  none : vector<4xf16>, vector<4xf16>, vector<16xf32>
        %225 = amdgpu.mfma %197 * %177 + %131#8 {blocks = 1 : i32, k = 8 : i32, m = 32 : i32, n = 32 : i32} blgp =  none : vector<4xf16>, vector<4xf16>, vector<16xf32>
        %226 = amdgpu.mfma %198 * %178 + %225 {blocks = 1 : i32, k = 8 : i32, m = 32 : i32, n = 32 : i32} blgp =  none : vector<4xf16>, vector<4xf16>, vector<16xf32>
        %227 = amdgpu.mfma %197 * %182 + %131#9 {blocks = 1 : i32, k = 8 : i32, m = 32 : i32, n = 32 : i32} blgp =  none : vector<4xf16>, vector<4xf16>, vector<16xf32>
        %228 = amdgpu.mfma %198 * %183 + %227 {blocks = 1 : i32, k = 8 : i32, m = 32 : i32, n = 32 : i32} blgp =  none : vector<4xf16>, vector<4xf16>, vector<16xf32>
        %229 = amdgpu.mfma %197 * %187 + %131#10 {blocks = 1 : i32, k = 8 : i32, m = 32 : i32, n = 32 : i32} blgp =  none : vector<4xf16>, vector<4xf16>, vector<16xf32>
        %230 = amdgpu.mfma %198 * %188 + %229 {blocks = 1 : i32, k = 8 : i32, m = 32 : i32, n = 32 : i32} blgp =  none : vector<4xf16>, vector<4xf16>, vector<16xf32>
        %231 = amdgpu.mfma %197 * %192 + %131#11 {blocks = 1 : i32, k = 8 : i32, m = 32 : i32, n = 32 : i32} blgp =  none : vector<4xf16>, vector<4xf16>, vector<16xf32>
        %232 = amdgpu.mfma %198 * %193 + %231 {blocks = 1 : i32, k = 8 : i32, m = 32 : i32, n = 32 : i32} blgp =  none : vector<4xf16>, vector<4xf16>, vector<16xf32>
        %233 = amdgpu.mfma %202 * %136 + %131#12 {blocks = 1 : i32, k = 8 : i32, m = 32 : i32, n = 32 : i32} blgp =  none : vector<4xf16>, vector<4xf16>, vector<16xf32>
        %234 = amdgpu.mfma %203 * %138 + %233 {blocks = 1 : i32, k = 8 : i32, m = 32 : i32, n = 32 : i32} blgp =  none : vector<4xf16>, vector<4xf16>, vector<16xf32>
        %235 = amdgpu.mfma %202 * %142 + %131#13 {blocks = 1 : i32, k = 8 : i32, m = 32 : i32, n = 32 : i32} blgp =  none : vector<4xf16>, vector<4xf16>, vector<16xf32>
        %236 = amdgpu.mfma %203 * %143 + %235 {blocks = 1 : i32, k = 8 : i32, m = 32 : i32, n = 32 : i32} blgp =  none : vector<4xf16>, vector<4xf16>, vector<16xf32>
        %237 = amdgpu.mfma %202 * %147 + %131#14 {blocks = 1 : i32, k = 8 : i32, m = 32 : i32, n = 32 : i32} blgp =  none : vector<4xf16>, vector<4xf16>, vector<16xf32>
        %238 = amdgpu.mfma %203 * %148 + %237 {blocks = 1 : i32, k = 8 : i32, m = 32 : i32, n = 32 : i32} blgp =  none : vector<4xf16>, vector<4xf16>, vector<16xf32>
        %239 = amdgpu.mfma %202 * %152 + %131#15 {blocks = 1 : i32, k = 8 : i32, m = 32 : i32, n = 32 : i32} blgp =  none : vector<4xf16>, vector<4xf16>, vector<16xf32>
        %240 = amdgpu.mfma %203 * %153 + %239 {blocks = 1 : i32, k = 8 : i32, m = 32 : i32, n = 32 : i32} blgp =  none : vector<4xf16>, vector<4xf16>, vector<16xf32>
        %241 = amdgpu.mfma %202 * %157 + %131#16 {blocks = 1 : i32, k = 8 : i32, m = 32 : i32, n = 32 : i32} blgp =  none : vector<4xf16>, vector<4xf16>, vector<16xf32>
        %242 = amdgpu.mfma %203 * %158 + %241 {blocks = 1 : i32, k = 8 : i32, m = 32 : i32, n = 32 : i32} blgp =  none : vector<4xf16>, vector<4xf16>, vector<16xf32>
        %243 = amdgpu.mfma %202 * %162 + %131#17 {blocks = 1 : i32, k = 8 : i32, m = 32 : i32, n = 32 : i32} blgp =  none : vector<4xf16>, vector<4xf16>, vector<16xf32>
        %244 = amdgpu.mfma %203 * %163 + %243 {blocks = 1 : i32, k = 8 : i32, m = 32 : i32, n = 32 : i32} blgp =  none : vector<4xf16>, vector<4xf16>, vector<16xf32>
        %245 = amdgpu.mfma %202 * %167 + %131#18 {blocks = 1 : i32, k = 8 : i32, m = 32 : i32, n = 32 : i32} blgp =  none : vector<4xf16>, vector<4xf16>, vector<16xf32>
        %246 = amdgpu.mfma %203 * %168 + %245 {blocks = 1 : i32, k = 8 : i32, m = 32 : i32, n = 32 : i32} blgp =  none : vector<4xf16>, vector<4xf16>, vector<16xf32>
        %247 = amdgpu.mfma %202 * %172 + %131#19 {blocks = 1 : i32, k = 8 : i32, m = 32 : i32, n = 32 : i32} blgp =  none : vector<4xf16>, vector<4xf16>, vector<16xf32>
        %248 = amdgpu.mfma %203 * %173 + %247 {blocks = 1 : i32, k = 8 : i32, m = 32 : i32, n = 32 : i32} blgp =  none : vector<4xf16>, vector<4xf16>, vector<16xf32>
        %249 = amdgpu.mfma %202 * %177 + %131#20 {blocks = 1 : i32, k = 8 : i32, m = 32 : i32, n = 32 : i32} blgp =  none : vector<4xf16>, vector<4xf16>, vector<16xf32>
        %250 = amdgpu.mfma %203 * %178 + %249 {blocks = 1 : i32, k = 8 : i32, m = 32 : i32, n = 32 : i32} blgp =  none : vector<4xf16>, vector<4xf16>, vector<16xf32>
        %251 = amdgpu.mfma %202 * %182 + %131#21 {blocks = 1 : i32, k = 8 : i32, m = 32 : i32, n = 32 : i32} blgp =  none : vector<4xf16>, vector<4xf16>, vector<16xf32>
        %252 = amdgpu.mfma %203 * %183 + %251 {blocks = 1 : i32, k = 8 : i32, m = 32 : i32, n = 32 : i32} blgp =  none : vector<4xf16>, vector<4xf16>, vector<16xf32>
        %253 = amdgpu.mfma %202 * %187 + %131#22 {blocks = 1 : i32, k = 8 : i32, m = 32 : i32, n = 32 : i32} blgp =  none : vector<4xf16>, vector<4xf16>, vector<16xf32>
        %254 = amdgpu.mfma %203 * %188 + %253 {blocks = 1 : i32, k = 8 : i32, m = 32 : i32, n = 32 : i32} blgp =  none : vector<4xf16>, vector<4xf16>, vector<16xf32>
        %255 = amdgpu.mfma %202 * %192 + %131#23 {blocks = 1 : i32, k = 8 : i32, m = 32 : i32, n = 32 : i32} blgp =  none : vector<4xf16>, vector<4xf16>, vector<16xf32>
        %256 = amdgpu.mfma %203 * %193 + %255 {blocks = 1 : i32, k = 8 : i32, m = 32 : i32, n = 32 : i32} blgp =  none : vector<4xf16>, vector<4xf16>, vector<16xf32>
        %257 = amdgpu.mfma %207 * %136 + %131#24 {blocks = 1 : i32, k = 8 : i32, m = 32 : i32, n = 32 : i32} blgp =  none : vector<4xf16>, vector<4xf16>, vector<16xf32>
        %258 = amdgpu.mfma %208 * %138 + %257 {blocks = 1 : i32, k = 8 : i32, m = 32 : i32, n = 32 : i32} blgp =  none : vector<4xf16>, vector<4xf16>, vector<16xf32>
        %259 = amdgpu.mfma %207 * %142 + %131#25 {blocks = 1 : i32, k = 8 : i32, m = 32 : i32, n = 32 : i32} blgp =  none : vector<4xf16>, vector<4xf16>, vector<16xf32>
        %260 = amdgpu.mfma %208 * %143 + %259 {blocks = 1 : i32, k = 8 : i32, m = 32 : i32, n = 32 : i32} blgp =  none : vector<4xf16>, vector<4xf16>, vector<16xf32>
        %261 = amdgpu.mfma %207 * %147 + %131#26 {blocks = 1 : i32, k = 8 : i32, m = 32 : i32, n = 32 : i32} blgp =  none : vector<4xf16>, vector<4xf16>, vector<16xf32>
        %262 = amdgpu.mfma %208 * %148 + %261 {blocks = 1 : i32, k = 8 : i32, m = 32 : i32, n = 32 : i32} blgp =  none : vector<4xf16>, vector<4xf16>, vector<16xf32>
        %263 = amdgpu.mfma %207 * %152 + %131#27 {blocks = 1 : i32, k = 8 : i32, m = 32 : i32, n = 32 : i32} blgp =  none : vector<4xf16>, vector<4xf16>, vector<16xf32>
        %264 = amdgpu.mfma %208 * %153 + %263 {blocks = 1 : i32, k = 8 : i32, m = 32 : i32, n = 32 : i32} blgp =  none : vector<4xf16>, vector<4xf16>, vector<16xf32>
        %265 = amdgpu.mfma %207 * %157 + %131#28 {blocks = 1 : i32, k = 8 : i32, m = 32 : i32, n = 32 : i32} blgp =  none : vector<4xf16>, vector<4xf16>, vector<16xf32>
        %266 = amdgpu.mfma %208 * %158 + %265 {blocks = 1 : i32, k = 8 : i32, m = 32 : i32, n = 32 : i32} blgp =  none : vector<4xf16>, vector<4xf16>, vector<16xf32>
        %267 = amdgpu.mfma %207 * %162 + %131#29 {blocks = 1 : i32, k = 8 : i32, m = 32 : i32, n = 32 : i32} blgp =  none : vector<4xf16>, vector<4xf16>, vector<16xf32>
        %268 = amdgpu.mfma %208 * %163 + %267 {blocks = 1 : i32, k = 8 : i32, m = 32 : i32, n = 32 : i32} blgp =  none : vector<4xf16>, vector<4xf16>, vector<16xf32>
        %269 = amdgpu.mfma %207 * %167 + %131#30 {blocks = 1 : i32, k = 8 : i32, m = 32 : i32, n = 32 : i32} blgp =  none : vector<4xf16>, vector<4xf16>, vector<16xf32>
        %270 = amdgpu.mfma %208 * %168 + %269 {blocks = 1 : i32, k = 8 : i32, m = 32 : i32, n = 32 : i32} blgp =  none : vector<4xf16>, vector<4xf16>, vector<16xf32>
        %271 = amdgpu.mfma %207 * %172 + %131#31 {blocks = 1 : i32, k = 8 : i32, m = 32 : i32, n = 32 : i32} blgp =  none : vector<4xf16>, vector<4xf16>, vector<16xf32>
        %272 = amdgpu.mfma %208 * %173 + %271 {blocks = 1 : i32, k = 8 : i32, m = 32 : i32, n = 32 : i32} blgp =  none : vector<4xf16>, vector<4xf16>, vector<16xf32>
        %273 = amdgpu.mfma %207 * %177 + %131#32 {blocks = 1 : i32, k = 8 : i32, m = 32 : i32, n = 32 : i32} blgp =  none : vector<4xf16>, vector<4xf16>, vector<16xf32>
        %274 = amdgpu.mfma %208 * %178 + %273 {blocks = 1 : i32, k = 8 : i32, m = 32 : i32, n = 32 : i32} blgp =  none : vector<4xf16>, vector<4xf16>, vector<16xf32>
        %275 = amdgpu.mfma %207 * %182 + %131#33 {blocks = 1 : i32, k = 8 : i32, m = 32 : i32, n = 32 : i32} blgp =  none : vector<4xf16>, vector<4xf16>, vector<16xf32>
        %276 = amdgpu.mfma %208 * %183 + %275 {blocks = 1 : i32, k = 8 : i32, m = 32 : i32, n = 32 : i32} blgp =  none : vector<4xf16>, vector<4xf16>, vector<16xf32>
        %277 = amdgpu.mfma %207 * %187 + %131#34 {blocks = 1 : i32, k = 8 : i32, m = 32 : i32, n = 32 : i32} blgp =  none : vector<4xf16>, vector<4xf16>, vector<16xf32>
        %278 = amdgpu.mfma %208 * %188 + %277 {blocks = 1 : i32, k = 8 : i32, m = 32 : i32, n = 32 : i32} blgp =  none : vector<4xf16>, vector<4xf16>, vector<16xf32>
        %279 = amdgpu.mfma %207 * %192 + %131#35 {blocks = 1 : i32, k = 8 : i32, m = 32 : i32, n = 32 : i32} blgp =  none : vector<4xf16>, vector<4xf16>, vector<16xf32>
        %280 = amdgpu.mfma %208 * %193 + %279 {blocks = 1 : i32, k = 8 : i32, m = 32 : i32, n = 32 : i32} blgp =  none : vector<4xf16>, vector<4xf16>, vector<16xf32>
        %281 = vector.extract_strided_slice %210 {offsets = [0], sizes = [1], strides = [1]} : vector<16xf32> to vector<1xf32>
        %282 = stream.binding.subspan %arg2[%c0] : !stream.binding -> memref<641x2880xf32, strided<[2880, 1], offset: ?>>
        %283 = affine.apply #map31()[%block_id_y, %thread_id_y]
        %284 = affine.apply #map32()[%block_id_y]
        %285 = arith.minsi %283, %284 : index
        %286 = arith.minsi %285, %c2880 : index
        %287 = affine.apply #map33()[%thread_id_x, %block_id_x, %block_id_y, %thread_id_y]
        %288 = arith.cmpi slt, %287, %286 : index
        %289 = affine.apply #map34()[%block_id_x, %thread_id_x]
        %290 = affine.apply #map35()[%block_id_x]
        %291 = arith.minsi %289, %290 : index
        %292 = arith.minsi %291, %c641 : index
        %293 = affine.apply #map36()[%block_id_x, %block_id_y, %thread_id_x]
        %294 = arith.cmpi slt, %293, %292 : index
        %295 = arith.andi %288, %294 : i1
        %296 = affine.apply #map37()[%block_id_x, %block_id_y]
        %297 = affine.apply #map38()[%block_id_x, %block_id_y]
        %298 = affine.apply #map39()[%thread_id_x]
        %299 = arith.muli %296, %c2880 overflow<nsw> : index
        %300 = arith.muli %298, %c2880 overflow<nsw> : index
        %301 = arith.addi %299, %297 overflow<nsw> : index
        %302 = arith.addi %300, %132 overflow<nsw> : index
        %base_buffer_9, %offset_10, %sizes_11:2, %strides_12:2 = memref.extract_strided_metadata %282 : memref<641x2880xf32, strided<[2880, 1], offset: ?>> -> memref<f32>, index, index, index, index, index
        %303 = arith.addi %301, %offset_10 overflow<nsw> : index
        %reinterpret_cast_13 = memref.reinterpret_cast %282 to offset: [%303], sizes: [%c536870910], strides: [1] : memref<641x2880xf32, strided<[2880, 1], offset: ?>> to memref<?xf32, strided<[1], offset: ?>>
        %304 = amdgpu.fat_raw_buffer_cast %reinterpret_cast_13 validBytes(%c2147483643_i32) cacheSwizzleStride(%c2880_i14) resetOffset : memref<?xf32, strided<[1], offset: ?>> to memref<?xf32, #amdgpu.address_space<fat_raw_buffer>>
        %305 = arith.select %295, %302, %c536870911 : index
        vector.store %281, %304[%305] : memref<?xf32, #amdgpu.address_space<fat_raw_buffer>>, vector<1xf32>
        %306 = vector.extract_strided_slice %210 {offsets = [1], sizes = [1], strides = [1]} : vector<16xf32> to vector<1xf32>
        %307 = affine.apply #map40()[%block_id_x, %block_id_y, %thread_id_x]
        %308 = arith.cmpi slt, %307, %292 : index
        %309 = arith.andi %288, %308 : i1
        %310 = affine.apply #map41()[%thread_id_x]
        %311 = arith.muli %310, %c2880 overflow<nsw> : index
        %312 = arith.addi %311, %132 overflow<nsw> : index
        %313 = arith.select %309, %312, %c536870911 : index
        vector.store %306, %304[%313] : memref<?xf32, #amdgpu.address_space<fat_raw_buffer>>, vector<1xf32>
        %314 = vector.extract_strided_slice %210 {offsets = [2], sizes = [1], strides = [1]} : vector<16xf32> to vector<1xf32>
        %315 = affine.apply #map42()[%block_id_x, %block_id_y, %thread_id_x]
        %316 = arith.cmpi slt, %315, %292 : index
        %317 = arith.andi %288, %316 : i1
        %318 = affine.apply #map43()[%thread_id_x]
        %319 = arith.muli %318, %c2880 overflow<nsw> : index
        %320 = arith.addi %319, %132 overflow<nsw> : index
        %321 = arith.select %317, %320, %c536870911 : index
        vector.store %314, %304[%321] : memref<?xf32, #amdgpu.address_space<fat_raw_buffer>>, vector<1xf32>
        %322 = vector.extract_strided_slice %210 {offsets = [3], sizes = [1], strides = [1]} : vector<16xf32> to vector<1xf32>
        %323 = affine.apply #map44()[%block_id_x, %block_id_y, %thread_id_x]
        %324 = arith.cmpi slt, %323, %292 : index
        %325 = arith.andi %288, %324 : i1
        %326 = affine.apply #map45()[%thread_id_x]
        %327 = arith.muli %326, %c2880 overflow<nsw> : index
        %328 = arith.addi %327, %132 overflow<nsw> : index
        %329 = arith.select %325, %328, %c536870911 : index
        vector.store %322, %304[%329] : memref<?xf32, #amdgpu.address_space<fat_raw_buffer>>, vector<1xf32>
        %330 = vector.extract_strided_slice %210 {offsets = [4], sizes = [1], strides = [1]} : vector<16xf32> to vector<1xf32>
        %331 = affine.apply #map46()[%block_id_x, %block_id_y, %thread_id_x]
        %332 = arith.cmpi slt, %331, %292 : index
        %333 = arith.andi %288, %332 : i1
        %334 = affine.apply #map47()[%thread_id_x]
        %335 = arith.muli %334, %c2880 overflow<nsw> : index
        %336 = arith.addi %335, %132 overflow<nsw> : index
        %337 = arith.select %333, %336, %c536870911 : index
        vector.store %330, %304[%337] : memref<?xf32, #amdgpu.address_space<fat_raw_buffer>>, vector<1xf32>
        %338 = vector.extract_strided_slice %210 {offsets = [5], sizes = [1], strides = [1]} : vector<16xf32> to vector<1xf32>
        %339 = affine.apply #map48()[%block_id_x, %block_id_y, %thread_id_x]
        %340 = arith.cmpi slt, %339, %292 : index
        %341 = arith.andi %288, %340 : i1
        %342 = affine.apply #map49()[%thread_id_x]
        %343 = arith.muli %342, %c2880 overflow<nsw> : index
        %344 = arith.addi %343, %132 overflow<nsw> : index
        %345 = arith.select %341, %344, %c536870911 : index
        vector.store %338, %304[%345] : memref<?xf32, #amdgpu.address_space<fat_raw_buffer>>, vector<1xf32>
        %346 = vector.extract_strided_slice %210 {offsets = [6], sizes = [1], strides = [1]} : vector<16xf32> to vector<1xf32>
        %347 = affine.apply #map50()[%block_id_x, %block_id_y, %thread_id_x]
        %348 = arith.cmpi slt, %347, %292 : index
        %349 = arith.andi %288, %348 : i1
        %350 = affine.apply #map51()[%thread_id_x]
        %351 = arith.muli %350, %c2880 overflow<nsw> : index
        %352 = arith.addi %351, %132 overflow<nsw> : index
        %353 = arith.select %349, %352, %c536870911 : index
        vector.store %346, %304[%353] : memref<?xf32, #amdgpu.address_space<fat_raw_buffer>>, vector<1xf32>
        %354 = vector.extract_strided_slice %210 {offsets = [7], sizes = [1], strides = [1]} : vector<16xf32> to vector<1xf32>
        %355 = affine.apply #map52()[%block_id_x, %block_id_y, %thread_id_x]
        %356 = arith.cmpi slt, %355, %292 : index
        %357 = arith.andi %288, %356 : i1
        %358 = affine.apply #map53()[%thread_id_x]
        %359 = arith.muli %358, %c2880 overflow<nsw> : index
        %360 = arith.addi %359, %132 overflow<nsw> : index
        %361 = arith.select %357, %360, %c536870911 : index
        vector.store %354, %304[%361] : memref<?xf32, #amdgpu.address_space<fat_raw_buffer>>, vector<1xf32>
        %362 = vector.extract_strided_slice %210 {offsets = [8], sizes = [1], strides = [1]} : vector<16xf32> to vector<1xf32>
        %363 = affine.apply #map54()[%block_id_x, %block_id_y, %thread_id_x]
        %364 = arith.cmpi slt, %363, %292 : index
        %365 = arith.andi %288, %364 : i1
        %366 = affine.apply #map55()[%thread_id_x]
        %367 = arith.muli %366, %c2880 overflow<nsw> : index
        %368 = arith.addi %367, %132 overflow<nsw> : index
        %369 = arith.select %365, %368, %c536870911 : index
        vector.store %362, %304[%369] : memref<?xf32, #amdgpu.address_space<fat_raw_buffer>>, vector<1xf32>
        %370 = vector.extract_strided_slice %210 {offsets = [9], sizes = [1], strides = [1]} : vector<16xf32> to vector<1xf32>
        %371 = affine.apply #map56()[%block_id_x, %block_id_y, %thread_id_x]
        %372 = arith.cmpi slt, %371, %292 : index
        %373 = arith.andi %288, %372 : i1
        %374 = affine.apply #map57()[%thread_id_x]
        %375 = arith.muli %374, %c2880 overflow<nsw> : index
        %376 = arith.addi %375, %132 overflow<nsw> : index
        %377 = arith.select %373, %376, %c536870911 : index
        vector.store %370, %304[%377] : memref<?xf32, #amdgpu.address_space<fat_raw_buffer>>, vector<1xf32>
        %378 = vector.extract_strided_slice %210 {offsets = [10], sizes = [1], strides = [1]} : vector<16xf32> to vector<1xf32>
        %379 = affine.apply #map58()[%block_id_x, %block_id_y, %thread_id_x]
        %380 = arith.cmpi slt, %379, %292 : index
        %381 = arith.andi %288, %380 : i1
        %382 = affine.apply #map59()[%thread_id_x]
        %383 = arith.muli %382, %c2880 overflow<nsw> : index
        %384 = arith.addi %383, %132 overflow<nsw> : index
        %385 = arith.select %381, %384, %c536870911 : index
        vector.store %378, %304[%385] : memref<?xf32, #amdgpu.address_space<fat_raw_buffer>>, vector<1xf32>
        %386 = vector.extract_strided_slice %210 {offsets = [11], sizes = [1], strides = [1]} : vector<16xf32> to vector<1xf32>
        %387 = affine.apply #map60()[%block_id_x, %block_id_y, %thread_id_x]
        %388 = arith.cmpi slt, %387, %292 : index
        %389 = arith.andi %288, %388 : i1
        %390 = affine.apply #map61()[%thread_id_x]
        %391 = arith.muli %390, %c2880 overflow<nsw> : index
        %392 = arith.addi %391, %132 overflow<nsw> : index
        %393 = arith.select %389, %392, %c536870911 : index
        vector.store %386, %304[%393] : memref<?xf32, #amdgpu.address_space<fat_raw_buffer>>, vector<1xf32>
        %394 = vector.extract_strided_slice %210 {offsets = [12], sizes = [1], strides = [1]} : vector<16xf32> to vector<1xf32>
        %395 = affine.apply #map62()[%block_id_x, %block_id_y, %thread_id_x]
        %396 = arith.cmpi slt, %395, %292 : index
        %397 = arith.andi %288, %396 : i1
        %398 = affine.apply #map63()[%thread_id_x]
        %399 = arith.muli %398, %c2880 overflow<nsw> : index
        %400 = arith.addi %399, %132 overflow<nsw> : index
        %401 = arith.select %397, %400, %c536870911 : index
        vector.store %394, %304[%401] : memref<?xf32, #amdgpu.address_space<fat_raw_buffer>>, vector<1xf32>
        %402 = vector.extract_strided_slice %210 {offsets = [13], sizes = [1], strides = [1]} : vector<16xf32> to vector<1xf32>
        %403 = affine.apply #map64()[%block_id_x, %block_id_y, %thread_id_x]
        %404 = arith.cmpi slt, %403, %292 : index
        %405 = arith.andi %288, %404 : i1
        %406 = affine.apply #map65()[%thread_id_x]
        %407 = arith.muli %406, %c2880 overflow<nsw> : index
        %408 = arith.addi %407, %132 overflow<nsw> : index
        %409 = arith.select %405, %408, %c536870911 : index
        vector.store %402, %304[%409] : memref<?xf32, #amdgpu.address_space<fat_raw_buffer>>, vector<1xf32>
        %410 = vector.extract_strided_slice %210 {offsets = [14], sizes = [1], strides = [1]} : vector<16xf32> to vector<1xf32>
        %411 = affine.apply #map66()[%block_id_x, %block_id_y, %thread_id_x]
        %412 = arith.cmpi slt, %411, %292 : index
        %413 = arith.andi %288, %412 : i1
        %414 = affine.apply #map67()[%thread_id_x]
        %415 = arith.muli %414, %c2880 overflow<nsw> : index
        %416 = arith.addi %415, %132 overflow<nsw> : index
        %417 = arith.select %413, %416, %c536870911 : index
        vector.store %410, %304[%417] : memref<?xf32, #amdgpu.address_space<fat_raw_buffer>>, vector<1xf32>
        %418 = vector.extract_strided_slice %210 {offsets = [15], sizes = [1], strides = [1]} : vector<16xf32> to vector<1xf32>
        %419 = affine.apply #map68()[%block_id_x, %block_id_y, %thread_id_x]
        %420 = arith.cmpi slt, %419, %292 : index
        %421 = arith.andi %288, %420 : i1
        %422 = affine.apply #map69()[%thread_id_x]
        %423 = arith.muli %422, %c2880 overflow<nsw> : index
        %424 = arith.addi %423, %132 overflow<nsw> : index
        %425 = arith.select %421, %424, %c536870911 : index
        vector.store %418, %304[%425] : memref<?xf32, #amdgpu.address_space<fat_raw_buffer>>, vector<1xf32>
        %426 = vector.extract_strided_slice %212 {offsets = [0], sizes = [1], strides = [1]} : vector<16xf32> to vector<1xf32>
        %427 = affine.apply #map70()[%thread_id_x, %block_id_x, %block_id_y, %thread_id_y]
        %428 = arith.cmpi slt, %427, %286 : index
        %429 = arith.andi %428, %294 : i1
        %430 = arith.addi %300, %139 overflow<nsw> : index
        %431 = arith.select %429, %430, %c536870911 : index
        vector.store %426, %304[%431] : memref<?xf32, #amdgpu.address_space<fat_raw_buffer>>, vector<1xf32>
        %432 = vector.extract_strided_slice %212 {offsets = [1], sizes = [1], strides = [1]} : vector<16xf32> to vector<1xf32>
        %433 = arith.andi %428, %308 : i1
        %434 = arith.addi %311, %139 overflow<nsw> : index
        %435 = arith.select %433, %434, %c536870911 : index
        vector.store %432, %304[%435] : memref<?xf32, #amdgpu.address_space<fat_raw_buffer>>, vector<1xf32>
        %436 = vector.extract_strided_slice %212 {offsets = [2], sizes = [1], strides = [1]} : vector<16xf32> to vector<1xf32>
        %437 = arith.andi %428, %316 : i1
        %438 = arith.addi %319, %139 overflow<nsw> : index
        %439 = arith.select %437, %438, %c536870911 : index
        vector.store %436, %304[%439] : memref<?xf32, #amdgpu.address_space<fat_raw_buffer>>, vector<1xf32>
        %440 = vector.extract_strided_slice %212 {offsets = [3], sizes = [1], strides = [1]} : vector<16xf32> to vector<1xf32>
        %441 = arith.andi %428, %324 : i1
        %442 = arith.addi %327, %139 overflow<nsw> : index
        %443 = arith.select %441, %442, %c536870911 : index
        vector.store %440, %304[%443] : memref<?xf32, #amdgpu.address_space<fat_raw_buffer>>, vector<1xf32>
        %444 = vector.extract_strided_slice %212 {offsets = [4], sizes = [1], strides = [1]} : vector<16xf32> to vector<1xf32>
        %445 = arith.andi %428, %332 : i1
        %446 = arith.addi %335, %139 overflow<nsw> : index
        %447 = arith.select %445, %446, %c536870911 : index
        vector.store %444, %304[%447] : memref<?xf32, #amdgpu.address_space<fat_raw_buffer>>, vector<1xf32>
        %448 = vector.extract_strided_slice %212 {offsets = [5], sizes = [1], strides = [1]} : vector<16xf32> to vector<1xf32>
        %449 = arith.andi %428, %340 : i1
        %450 = arith.addi %343, %139 overflow<nsw> : index
        %451 = arith.select %449, %450, %c536870911 : index
        vector.store %448, %304[%451] : memref<?xf32, #amdgpu.address_space<fat_raw_buffer>>, vector<1xf32>
        %452 = vector.extract_strided_slice %212 {offsets = [6], sizes = [1], strides = [1]} : vector<16xf32> to vector<1xf32>
        %453 = arith.andi %428, %348 : i1
        %454 = arith.addi %351, %139 overflow<nsw> : index
        %455 = arith.select %453, %454, %c536870911 : index
        vector.store %452, %304[%455] : memref<?xf32, #amdgpu.address_space<fat_raw_buffer>>, vector<1xf32>
        %456 = vector.extract_strided_slice %212 {offsets = [7], sizes = [1], strides = [1]} : vector<16xf32> to vector<1xf32>
        %457 = arith.andi %428, %356 : i1
        %458 = arith.addi %359, %139 overflow<nsw> : index
        %459 = arith.select %457, %458, %c536870911 : index
        vector.store %456, %304[%459] : memref<?xf32, #amdgpu.address_space<fat_raw_buffer>>, vector<1xf32>
        %460 = vector.extract_strided_slice %212 {offsets = [8], sizes = [1], strides = [1]} : vector<16xf32> to vector<1xf32>
        %461 = arith.andi %428, %364 : i1
        %462 = arith.addi %367, %139 overflow<nsw> : index
        %463 = arith.select %461, %462, %c536870911 : index
        vector.store %460, %304[%463] : memref<?xf32, #amdgpu.address_space<fat_raw_buffer>>, vector<1xf32>
        %464 = vector.extract_strided_slice %212 {offsets = [9], sizes = [1], strides = [1]} : vector<16xf32> to vector<1xf32>
        %465 = arith.andi %428, %372 : i1
        %466 = arith.addi %375, %139 overflow<nsw> : index
        %467 = arith.select %465, %466, %c536870911 : index
        vector.store %464, %304[%467] : memref<?xf32, #amdgpu.address_space<fat_raw_buffer>>, vector<1xf32>
        %468 = vector.extract_strided_slice %212 {offsets = [10], sizes = [1], strides = [1]} : vector<16xf32> to vector<1xf32>
        %469 = arith.andi %428, %380 : i1
        %470 = arith.addi %383, %139 overflow<nsw> : index
        %471 = arith.select %469, %470, %c536870911 : index
        vector.store %468, %304[%471] : memref<?xf32, #amdgpu.address_space<fat_raw_buffer>>, vector<1xf32>
        %472 = vector.extract_strided_slice %212 {offsets = [11], sizes = [1], strides = [1]} : vector<16xf32> to vector<1xf32>
        %473 = arith.andi %428, %388 : i1
        %474 = arith.addi %391, %139 overflow<nsw> : index
        %475 = arith.select %473, %474, %c536870911 : index
        vector.store %472, %304[%475] : memref<?xf32, #amdgpu.address_space<fat_raw_buffer>>, vector<1xf32>
        %476 = vector.extract_strided_slice %212 {offsets = [12], sizes = [1], strides = [1]} : vector<16xf32> to vector<1xf32>
        %477 = arith.andi %428, %396 : i1
        %478 = arith.addi %399, %139 overflow<nsw> : index
        %479 = arith.select %477, %478, %c536870911 : index
        vector.store %476, %304[%479] : memref<?xf32, #amdgpu.address_space<fat_raw_buffer>>, vector<1xf32>
        %480 = vector.extract_strided_slice %212 {offsets = [13], sizes = [1], strides = [1]} : vector<16xf32> to vector<1xf32>
        %481 = arith.andi %428, %404 : i1
        %482 = arith.addi %407, %139 overflow<nsw> : index
        %483 = arith.select %481, %482, %c536870911 : index
        vector.store %480, %304[%483] : memref<?xf32, #amdgpu.address_space<fat_raw_buffer>>, vector<1xf32>
        %484 = vector.extract_strided_slice %212 {offsets = [14], sizes = [1], strides = [1]} : vector<16xf32> to vector<1xf32>
        %485 = arith.andi %428, %412 : i1
        %486 = arith.addi %415, %139 overflow<nsw> : index
        %487 = arith.select %485, %486, %c536870911 : index
        vector.store %484, %304[%487] : memref<?xf32, #amdgpu.address_space<fat_raw_buffer>>, vector<1xf32>
        %488 = vector.extract_strided_slice %212 {offsets = [15], sizes = [1], strides = [1]} : vector<16xf32> to vector<1xf32>
        %489 = arith.andi %428, %420 : i1
        %490 = arith.addi %423, %139 overflow<nsw> : index
        %491 = arith.select %489, %490, %c536870911 : index
        vector.store %488, %304[%491] : memref<?xf32, #amdgpu.address_space<fat_raw_buffer>>, vector<1xf32>
        %492 = vector.extract_strided_slice %214 {offsets = [0], sizes = [1], strides = [1]} : vector<16xf32> to vector<1xf32>
        %493 = affine.apply #map71()[%thread_id_x, %block_id_x, %block_id_y, %thread_id_y]
        %494 = arith.cmpi slt, %493, %286 : index
        %495 = arith.andi %494, %294 : i1
        %496 = arith.addi %300, %144 overflow<nsw> : index
        %497 = arith.select %495, %496, %c536870911 : index
        vector.store %492, %304[%497] : memref<?xf32, #amdgpu.address_space<fat_raw_buffer>>, vector<1xf32>
        %498 = vector.extract_strided_slice %214 {offsets = [1], sizes = [1], strides = [1]} : vector<16xf32> to vector<1xf32>
        %499 = arith.andi %494, %308 : i1
        %500 = arith.addi %311, %144 overflow<nsw> : index
        %501 = arith.select %499, %500, %c536870911 : index
        vector.store %498, %304[%501] : memref<?xf32, #amdgpu.address_space<fat_raw_buffer>>, vector<1xf32>
        %502 = vector.extract_strided_slice %214 {offsets = [2], sizes = [1], strides = [1]} : vector<16xf32> to vector<1xf32>
        %503 = arith.andi %494, %316 : i1
        %504 = arith.addi %319, %144 overflow<nsw> : index
        %505 = arith.select %503, %504, %c536870911 : index
        vector.store %502, %304[%505] : memref<?xf32, #amdgpu.address_space<fat_raw_buffer>>, vector<1xf32>
        %506 = vector.extract_strided_slice %214 {offsets = [3], sizes = [1], strides = [1]} : vector<16xf32> to vector<1xf32>
        %507 = arith.andi %494, %324 : i1
        %508 = arith.addi %327, %144 overflow<nsw> : index
        %509 = arith.select %507, %508, %c536870911 : index
        vector.store %506, %304[%509] : memref<?xf32, #amdgpu.address_space<fat_raw_buffer>>, vector<1xf32>
        %510 = vector.extract_strided_slice %214 {offsets = [4], sizes = [1], strides = [1]} : vector<16xf32> to vector<1xf32>
        %511 = arith.andi %494, %332 : i1
        %512 = arith.addi %335, %144 overflow<nsw> : index
        %513 = arith.select %511, %512, %c536870911 : index
        vector.store %510, %304[%513] : memref<?xf32, #amdgpu.address_space<fat_raw_buffer>>, vector<1xf32>
        %514 = vector.extract_strided_slice %214 {offsets = [5], sizes = [1], strides = [1]} : vector<16xf32> to vector<1xf32>
        %515 = arith.andi %494, %340 : i1
        %516 = arith.addi %343, %144 overflow<nsw> : index
        %517 = arith.select %515, %516, %c536870911 : index
        vector.store %514, %304[%517] : memref<?xf32, #amdgpu.address_space<fat_raw_buffer>>, vector<1xf32>
        %518 = vector.extract_strided_slice %214 {offsets = [6], sizes = [1], strides = [1]} : vector<16xf32> to vector<1xf32>
        %519 = arith.andi %494, %348 : i1
        %520 = arith.addi %351, %144 overflow<nsw> : index
        %521 = arith.select %519, %520, %c536870911 : index
        vector.store %518, %304[%521] : memref<?xf32, #amdgpu.address_space<fat_raw_buffer>>, vector<1xf32>
        %522 = vector.extract_strided_slice %214 {offsets = [7], sizes = [1], strides = [1]} : vector<16xf32> to vector<1xf32>
        %523 = arith.andi %494, %356 : i1
        %524 = arith.addi %359, %144 overflow<nsw> : index
        %525 = arith.select %523, %524, %c536870911 : index
        vector.store %522, %304[%525] : memref<?xf32, #amdgpu.address_space<fat_raw_buffer>>, vector<1xf32>
        %526 = vector.extract_strided_slice %214 {offsets = [8], sizes = [1], strides = [1]} : vector<16xf32> to vector<1xf32>
        %527 = arith.andi %494, %364 : i1
        %528 = arith.addi %367, %144 overflow<nsw> : index
        %529 = arith.select %527, %528, %c536870911 : index
        vector.store %526, %304[%529] : memref<?xf32, #amdgpu.address_space<fat_raw_buffer>>, vector<1xf32>
        %530 = vector.extract_strided_slice %214 {offsets = [9], sizes = [1], strides = [1]} : vector<16xf32> to vector<1xf32>
        %531 = arith.andi %494, %372 : i1
        %532 = arith.addi %375, %144 overflow<nsw> : index
        %533 = arith.select %531, %532, %c536870911 : index
        vector.store %530, %304[%533] : memref<?xf32, #amdgpu.address_space<fat_raw_buffer>>, vector<1xf32>
        %534 = vector.extract_strided_slice %214 {offsets = [10], sizes = [1], strides = [1]} : vector<16xf32> to vector<1xf32>
        %535 = arith.andi %494, %380 : i1
        %536 = arith.addi %383, %144 overflow<nsw> : index
        %537 = arith.select %535, %536, %c536870911 : index
        vector.store %534, %304[%537] : memref<?xf32, #amdgpu.address_space<fat_raw_buffer>>, vector<1xf32>
        %538 = vector.extract_strided_slice %214 {offsets = [11], sizes = [1], strides = [1]} : vector<16xf32> to vector<1xf32>
        %539 = arith.andi %494, %388 : i1
        %540 = arith.addi %391, %144 overflow<nsw> : index
        %541 = arith.select %539, %540, %c536870911 : index
        vector.store %538, %304[%541] : memref<?xf32, #amdgpu.address_space<fat_raw_buffer>>, vector<1xf32>
        %542 = vector.extract_strided_slice %214 {offsets = [12], sizes = [1], strides = [1]} : vector<16xf32> to vector<1xf32>
        %543 = arith.andi %494, %396 : i1
        %544 = arith.addi %399, %144 overflow<nsw> : index
        %545 = arith.select %543, %544, %c536870911 : index
        vector.store %542, %304[%545] : memref<?xf32, #amdgpu.address_space<fat_raw_buffer>>, vector<1xf32>
        %546 = vector.extract_strided_slice %214 {offsets = [13], sizes = [1], strides = [1]} : vector<16xf32> to vector<1xf32>
        %547 = arith.andi %494, %404 : i1
        %548 = arith.addi %407, %144 overflow<nsw> : index
        %549 = arith.select %547, %548, %c536870911 : index
        vector.store %546, %304[%549] : memref<?xf32, #amdgpu.address_space<fat_raw_buffer>>, vector<1xf32>
        %550 = vector.extract_strided_slice %214 {offsets = [14], sizes = [1], strides = [1]} : vector<16xf32> to vector<1xf32>
        %551 = arith.andi %494, %412 : i1
        %552 = arith.addi %415, %144 overflow<nsw> : index
        %553 = arith.select %551, %552, %c536870911 : index
        vector.store %550, %304[%553] : memref<?xf32, #amdgpu.address_space<fat_raw_buffer>>, vector<1xf32>
        %554 = vector.extract_strided_slice %214 {offsets = [15], sizes = [1], strides = [1]} : vector<16xf32> to vector<1xf32>
        %555 = arith.andi %494, %420 : i1
        %556 = arith.addi %423, %144 overflow<nsw> : index
        %557 = arith.select %555, %556, %c536870911 : index
        vector.store %554, %304[%557] : memref<?xf32, #amdgpu.address_space<fat_raw_buffer>>, vector<1xf32>
        %558 = vector.extract_strided_slice %216 {offsets = [0], sizes = [1], strides = [1]} : vector<16xf32> to vector<1xf32>
        %559 = affine.apply #map72()[%thread_id_x, %block_id_x, %block_id_y, %thread_id_y]
        %560 = arith.cmpi slt, %559, %286 : index
        %561 = arith.andi %560, %294 : i1
        %562 = arith.addi %300, %149 overflow<nsw> : index
        %563 = arith.select %561, %562, %c536870911 : index
        vector.store %558, %304[%563] : memref<?xf32, #amdgpu.address_space<fat_raw_buffer>>, vector<1xf32>
        %564 = vector.extract_strided_slice %216 {offsets = [1], sizes = [1], strides = [1]} : vector<16xf32> to vector<1xf32>
        %565 = arith.andi %560, %308 : i1
        %566 = arith.addi %311, %149 overflow<nsw> : index
        %567 = arith.select %565, %566, %c536870911 : index
        vector.store %564, %304[%567] : memref<?xf32, #amdgpu.address_space<fat_raw_buffer>>, vector<1xf32>
        %568 = vector.extract_strided_slice %216 {offsets = [2], sizes = [1], strides = [1]} : vector<16xf32> to vector<1xf32>
        %569 = arith.andi %560, %316 : i1
        %570 = arith.addi %319, %149 overflow<nsw> : index
        %571 = arith.select %569, %570, %c536870911 : index
        vector.store %568, %304[%571] : memref<?xf32, #amdgpu.address_space<fat_raw_buffer>>, vector<1xf32>
        %572 = vector.extract_strided_slice %216 {offsets = [3], sizes = [1], strides = [1]} : vector<16xf32> to vector<1xf32>
        %573 = arith.andi %560, %324 : i1
        %574 = arith.addi %327, %149 overflow<nsw> : index
        %575 = arith.select %573, %574, %c536870911 : index
        vector.store %572, %304[%575] : memref<?xf32, #amdgpu.address_space<fat_raw_buffer>>, vector<1xf32>
        %576 = vector.extract_strided_slice %216 {offsets = [4], sizes = [1], strides = [1]} : vector<16xf32> to vector<1xf32>
        %577 = arith.andi %560, %332 : i1
        %578 = arith.addi %335, %149 overflow<nsw> : index
        %579 = arith.select %577, %578, %c536870911 : index
        vector.store %576, %304[%579] : memref<?xf32, #amdgpu.address_space<fat_raw_buffer>>, vector<1xf32>
        %580 = vector.extract_strided_slice %216 {offsets = [5], sizes = [1], strides = [1]} : vector<16xf32> to vector<1xf32>
        %581 = arith.andi %560, %340 : i1
        %582 = arith.addi %343, %149 overflow<nsw> : index
        %583 = arith.select %581, %582, %c536870911 : index
        vector.store %580, %304[%583] : memref<?xf32, #amdgpu.address_space<fat_raw_buffer>>, vector<1xf32>
        %584 = vector.extract_strided_slice %216 {offsets = [6], sizes = [1], strides = [1]} : vector<16xf32> to vector<1xf32>
        %585 = arith.andi %560, %348 : i1
        %586 = arith.addi %351, %149 overflow<nsw> : index
        %587 = arith.select %585, %586, %c536870911 : index
        vector.store %584, %304[%587] : memref<?xf32, #amdgpu.address_space<fat_raw_buffer>>, vector<1xf32>
        %588 = vector.extract_strided_slice %216 {offsets = [7], sizes = [1], strides = [1]} : vector<16xf32> to vector<1xf32>
        %589 = arith.andi %560, %356 : i1
        %590 = arith.addi %359, %149 overflow<nsw> : index
        %591 = arith.select %589, %590, %c536870911 : index
        vector.store %588, %304[%591] : memref<?xf32, #amdgpu.address_space<fat_raw_buffer>>, vector<1xf32>
        %592 = vector.extract_strided_slice %216 {offsets = [8], sizes = [1], strides = [1]} : vector<16xf32> to vector<1xf32>
        %593 = arith.andi %560, %364 : i1
        %594 = arith.addi %367, %149 overflow<nsw> : index
        %595 = arith.select %593, %594, %c536870911 : index
        vector.store %592, %304[%595] : memref<?xf32, #amdgpu.address_space<fat_raw_buffer>>, vector<1xf32>
        %596 = vector.extract_strided_slice %216 {offsets = [9], sizes = [1], strides = [1]} : vector<16xf32> to vector<1xf32>
        %597 = arith.andi %560, %372 : i1
        %598 = arith.addi %375, %149 overflow<nsw> : index
        %599 = arith.select %597, %598, %c536870911 : index
        vector.store %596, %304[%599] : memref<?xf32, #amdgpu.address_space<fat_raw_buffer>>, vector<1xf32>
        %600 = vector.extract_strided_slice %216 {offsets = [10], sizes = [1], strides = [1]} : vector<16xf32> to vector<1xf32>
        %601 = arith.andi %560, %380 : i1
        %602 = arith.addi %383, %149 overflow<nsw> : index
        %603 = arith.select %601, %602, %c536870911 : index
        vector.store %600, %304[%603] : memref<?xf32, #amdgpu.address_space<fat_raw_buffer>>, vector<1xf32>
        %604 = vector.extract_strided_slice %216 {offsets = [11], sizes = [1], strides = [1]} : vector<16xf32> to vector<1xf32>
        %605 = arith.andi %560, %388 : i1
        %606 = arith.addi %391, %149 overflow<nsw> : index
        %607 = arith.select %605, %606, %c536870911 : index
        vector.store %604, %304[%607] : memref<?xf32, #amdgpu.address_space<fat_raw_buffer>>, vector<1xf32>
        %608 = vector.extract_strided_slice %216 {offsets = [12], sizes = [1], strides = [1]} : vector<16xf32> to vector<1xf32>
        %609 = arith.andi %560, %396 : i1
        %610 = arith.addi %399, %149 overflow<nsw> : index
        %611 = arith.select %609, %610, %c536870911 : index
        vector.store %608, %304[%611] : memref<?xf32, #amdgpu.address_space<fat_raw_buffer>>, vector<1xf32>
        %612 = vector.extract_strided_slice %216 {offsets = [13], sizes = [1], strides = [1]} : vector<16xf32> to vector<1xf32>
        %613 = arith.andi %560, %404 : i1
        %614 = arith.addi %407, %149 overflow<nsw> : index
        %615 = arith.select %613, %614, %c536870911 : index
        vector.store %612, %304[%615] : memref<?xf32, #amdgpu.address_space<fat_raw_buffer>>, vector<1xf32>
        %616 = vector.extract_strided_slice %216 {offsets = [14], sizes = [1], strides = [1]} : vector<16xf32> to vector<1xf32>
        %617 = arith.andi %560, %412 : i1
        %618 = arith.addi %415, %149 overflow<nsw> : index
        %619 = arith.select %617, %618, %c536870911 : index
        vector.store %616, %304[%619] : memref<?xf32, #amdgpu.address_space<fat_raw_buffer>>, vector<1xf32>
        %620 = vector.extract_strided_slice %216 {offsets = [15], sizes = [1], strides = [1]} : vector<16xf32> to vector<1xf32>
        %621 = arith.andi %560, %420 : i1
        %622 = arith.addi %423, %149 overflow<nsw> : index
        %623 = arith.select %621, %622, %c536870911 : index
        vector.store %620, %304[%623] : memref<?xf32, #amdgpu.address_space<fat_raw_buffer>>, vector<1xf32>
        %624 = vector.extract_strided_slice %218 {offsets = [0], sizes = [1], strides = [1]} : vector<16xf32> to vector<1xf32>
        %625 = affine.apply #map73()[%thread_id_x, %block_id_x, %block_id_y, %thread_id_y]
        %626 = arith.cmpi slt, %625, %286 : index
        %627 = arith.andi %626, %294 : i1
        %628 = arith.addi %300, %154 overflow<nsw> : index
        %629 = arith.select %627, %628, %c536870911 : index
        vector.store %624, %304[%629] : memref<?xf32, #amdgpu.address_space<fat_raw_buffer>>, vector<1xf32>
        %630 = vector.extract_strided_slice %218 {offsets = [1], sizes = [1], strides = [1]} : vector<16xf32> to vector<1xf32>
        %631 = arith.andi %626, %308 : i1
        %632 = arith.addi %311, %154 overflow<nsw> : index
        %633 = arith.select %631, %632, %c536870911 : index
        vector.store %630, %304[%633] : memref<?xf32, #amdgpu.address_space<fat_raw_buffer>>, vector<1xf32>
        %634 = vector.extract_strided_slice %218 {offsets = [2], sizes = [1], strides = [1]} : vector<16xf32> to vector<1xf32>
        %635 = arith.andi %626, %316 : i1
        %636 = arith.addi %319, %154 overflow<nsw> : index
        %637 = arith.select %635, %636, %c536870911 : index
        vector.store %634, %304[%637] : memref<?xf32, #amdgpu.address_space<fat_raw_buffer>>, vector<1xf32>
        %638 = vector.extract_strided_slice %218 {offsets = [3], sizes = [1], strides = [1]} : vector<16xf32> to vector<1xf32>
        %639 = arith.andi %626, %324 : i1
        %640 = arith.addi %327, %154 overflow<nsw> : index
        %641 = arith.select %639, %640, %c536870911 : index
        vector.store %638, %304[%641] : memref<?xf32, #amdgpu.address_space<fat_raw_buffer>>, vector<1xf32>
        %642 = vector.extract_strided_slice %218 {offsets = [4], sizes = [1], strides = [1]} : vector<16xf32> to vector<1xf32>
        %643 = arith.andi %626, %332 : i1
        %644 = arith.addi %335, %154 overflow<nsw> : index
        %645 = arith.select %643, %644, %c536870911 : index
        vector.store %642, %304[%645] : memref<?xf32, #amdgpu.address_space<fat_raw_buffer>>, vector<1xf32>
        %646 = vector.extract_strided_slice %218 {offsets = [5], sizes = [1], strides = [1]} : vector<16xf32> to vector<1xf32>
        %647 = arith.andi %626, %340 : i1
        %648 = arith.addi %343, %154 overflow<nsw> : index
        %649 = arith.select %647, %648, %c536870911 : index
        vector.store %646, %304[%649] : memref<?xf32, #amdgpu.address_space<fat_raw_buffer>>, vector<1xf32>
        %650 = vector.extract_strided_slice %218 {offsets = [6], sizes = [1], strides = [1]} : vector<16xf32> to vector<1xf32>
        %651 = arith.andi %626, %348 : i1
        %652 = arith.addi %351, %154 overflow<nsw> : index
        %653 = arith.select %651, %652, %c536870911 : index
        vector.store %650, %304[%653] : memref<?xf32, #amdgpu.address_space<fat_raw_buffer>>, vector<1xf32>
        %654 = vector.extract_strided_slice %218 {offsets = [7], sizes = [1], strides = [1]} : vector<16xf32> to vector<1xf32>
        %655 = arith.andi %626, %356 : i1
        %656 = arith.addi %359, %154 overflow<nsw> : index
        %657 = arith.select %655, %656, %c536870911 : index
        vector.store %654, %304[%657] : memref<?xf32, #amdgpu.address_space<fat_raw_buffer>>, vector<1xf32>
        %658 = vector.extract_strided_slice %218 {offsets = [8], sizes = [1], strides = [1]} : vector<16xf32> to vector<1xf32>
        %659 = arith.andi %626, %364 : i1
        %660 = arith.addi %367, %154 overflow<nsw> : index
        %661 = arith.select %659, %660, %c536870911 : index
        vector.store %658, %304[%661] : memref<?xf32, #amdgpu.address_space<fat_raw_buffer>>, vector<1xf32>
        %662 = vector.extract_strided_slice %218 {offsets = [9], sizes = [1], strides = [1]} : vector<16xf32> to vector<1xf32>
        %663 = arith.andi %626, %372 : i1
        %664 = arith.addi %375, %154 overflow<nsw> : index
        %665 = arith.select %663, %664, %c536870911 : index
        vector.store %662, %304[%665] : memref<?xf32, #amdgpu.address_space<fat_raw_buffer>>, vector<1xf32>
        %666 = vector.extract_strided_slice %218 {offsets = [10], sizes = [1], strides = [1]} : vector<16xf32> to vector<1xf32>
        %667 = arith.andi %626, %380 : i1
        %668 = arith.addi %383, %154 overflow<nsw> : index
        %669 = arith.select %667, %668, %c536870911 : index
        vector.store %666, %304[%669] : memref<?xf32, #amdgpu.address_space<fat_raw_buffer>>, vector<1xf32>
        %670 = vector.extract_strided_slice %218 {offsets = [11], sizes = [1], strides = [1]} : vector<16xf32> to vector<1xf32>
        %671 = arith.andi %626, %388 : i1
        %672 = arith.addi %391, %154 overflow<nsw> : index
        %673 = arith.select %671, %672, %c536870911 : index
        vector.store %670, %304[%673] : memref<?xf32, #amdgpu.address_space<fat_raw_buffer>>, vector<1xf32>
        %674 = vector.extract_strided_slice %218 {offsets = [12], sizes = [1], strides = [1]} : vector<16xf32> to vector<1xf32>
        %675 = arith.andi %626, %396 : i1
        %676 = arith.addi %399, %154 overflow<nsw> : index
        %677 = arith.select %675, %676, %c536870911 : index
        vector.store %674, %304[%677] : memref<?xf32, #amdgpu.address_space<fat_raw_buffer>>, vector<1xf32>
        %678 = vector.extract_strided_slice %218 {offsets = [13], sizes = [1], strides = [1]} : vector<16xf32> to vector<1xf32>
        %679 = arith.andi %626, %404 : i1
        %680 = arith.addi %407, %154 overflow<nsw> : index
        %681 = arith.select %679, %680, %c536870911 : index
        vector.store %678, %304[%681] : memref<?xf32, #amdgpu.address_space<fat_raw_buffer>>, vector<1xf32>
        %682 = vector.extract_strided_slice %218 {offsets = [14], sizes = [1], strides = [1]} : vector<16xf32> to vector<1xf32>
        %683 = arith.andi %626, %412 : i1
        %684 = arith.addi %415, %154 overflow<nsw> : index
        %685 = arith.select %683, %684, %c536870911 : index
        vector.store %682, %304[%685] : memref<?xf32, #amdgpu.address_space<fat_raw_buffer>>, vector<1xf32>
        %686 = vector.extract_strided_slice %218 {offsets = [15], sizes = [1], strides = [1]} : vector<16xf32> to vector<1xf32>
        %687 = arith.andi %626, %420 : i1
        %688 = arith.addi %423, %154 overflow<nsw> : index
        %689 = arith.select %687, %688, %c536870911 : index
        vector.store %686, %304[%689] : memref<?xf32, #amdgpu.address_space<fat_raw_buffer>>, vector<1xf32>
        %690 = vector.extract_strided_slice %220 {offsets = [0], sizes = [1], strides = [1]} : vector<16xf32> to vector<1xf32>
        %691 = affine.apply #map74()[%thread_id_x, %block_id_x, %block_id_y, %thread_id_y]
        %692 = arith.cmpi slt, %691, %286 : index
        %693 = arith.andi %692, %294 : i1
        %694 = arith.addi %300, %159 overflow<nsw> : index
        %695 = arith.select %693, %694, %c536870911 : index
        vector.store %690, %304[%695] : memref<?xf32, #amdgpu.address_space<fat_raw_buffer>>, vector<1xf32>
        %696 = vector.extract_strided_slice %220 {offsets = [1], sizes = [1], strides = [1]} : vector<16xf32> to vector<1xf32>
        %697 = arith.andi %692, %308 : i1
        %698 = arith.addi %311, %159 overflow<nsw> : index
        %699 = arith.select %697, %698, %c536870911 : index
        vector.store %696, %304[%699] : memref<?xf32, #amdgpu.address_space<fat_raw_buffer>>, vector<1xf32>
        %700 = vector.extract_strided_slice %220 {offsets = [2], sizes = [1], strides = [1]} : vector<16xf32> to vector<1xf32>
        %701 = arith.andi %692, %316 : i1
        %702 = arith.addi %319, %159 overflow<nsw> : index
        %703 = arith.select %701, %702, %c536870911 : index
        vector.store %700, %304[%703] : memref<?xf32, #amdgpu.address_space<fat_raw_buffer>>, vector<1xf32>
        %704 = vector.extract_strided_slice %220 {offsets = [3], sizes = [1], strides = [1]} : vector<16xf32> to vector<1xf32>
        %705 = arith.andi %692, %324 : i1
        %706 = arith.addi %327, %159 overflow<nsw> : index
        %707 = arith.select %705, %706, %c536870911 : index
        vector.store %704, %304[%707] : memref<?xf32, #amdgpu.address_space<fat_raw_buffer>>, vector<1xf32>
        %708 = vector.extract_strided_slice %220 {offsets = [4], sizes = [1], strides = [1]} : vector<16xf32> to vector<1xf32>
        %709 = arith.andi %692, %332 : i1
        %710 = arith.addi %335, %159 overflow<nsw> : index
        %711 = arith.select %709, %710, %c536870911 : index
        vector.store %708, %304[%711] : memref<?xf32, #amdgpu.address_space<fat_raw_buffer>>, vector<1xf32>
        %712 = vector.extract_strided_slice %220 {offsets = [5], sizes = [1], strides = [1]} : vector<16xf32> to vector<1xf32>
        %713 = arith.andi %692, %340 : i1
        %714 = arith.addi %343, %159 overflow<nsw> : index
        %715 = arith.select %713, %714, %c536870911 : index
        vector.store %712, %304[%715] : memref<?xf32, #amdgpu.address_space<fat_raw_buffer>>, vector<1xf32>
        %716 = vector.extract_strided_slice %220 {offsets = [6], sizes = [1], strides = [1]} : vector<16xf32> to vector<1xf32>
        %717 = arith.andi %692, %348 : i1
        %718 = arith.addi %351, %159 overflow<nsw> : index
        %719 = arith.select %717, %718, %c536870911 : index
        vector.store %716, %304[%719] : memref<?xf32, #amdgpu.address_space<fat_raw_buffer>>, vector<1xf32>
        %720 = vector.extract_strided_slice %220 {offsets = [7], sizes = [1], strides = [1]} : vector<16xf32> to vector<1xf32>
        %721 = arith.andi %692, %356 : i1
        %722 = arith.addi %359, %159 overflow<nsw> : index
        %723 = arith.select %721, %722, %c536870911 : index
        vector.store %720, %304[%723] : memref<?xf32, #amdgpu.address_space<fat_raw_buffer>>, vector<1xf32>
        %724 = vector.extract_strided_slice %220 {offsets = [8], sizes = [1], strides = [1]} : vector<16xf32> to vector<1xf32>
        %725 = arith.andi %692, %364 : i1
        %726 = arith.addi %367, %159 overflow<nsw> : index
        %727 = arith.select %725, %726, %c536870911 : index
        vector.store %724, %304[%727] : memref<?xf32, #amdgpu.address_space<fat_raw_buffer>>, vector<1xf32>
        %728 = vector.extract_strided_slice %220 {offsets = [9], sizes = [1], strides = [1]} : vector<16xf32> to vector<1xf32>
        %729 = arith.andi %692, %372 : i1
        %730 = arith.addi %375, %159 overflow<nsw> : index
        %731 = arith.select %729, %730, %c536870911 : index
        vector.store %728, %304[%731] : memref<?xf32, #amdgpu.address_space<fat_raw_buffer>>, vector<1xf32>
        %732 = vector.extract_strided_slice %220 {offsets = [10], sizes = [1], strides = [1]} : vector<16xf32> to vector<1xf32>
        %733 = arith.andi %692, %380 : i1
        %734 = arith.addi %383, %159 overflow<nsw> : index
        %735 = arith.select %733, %734, %c536870911 : index
        vector.store %732, %304[%735] : memref<?xf32, #amdgpu.address_space<fat_raw_buffer>>, vector<1xf32>
        %736 = vector.extract_strided_slice %220 {offsets = [11], sizes = [1], strides = [1]} : vector<16xf32> to vector<1xf32>
        %737 = arith.andi %692, %388 : i1
        %738 = arith.addi %391, %159 overflow<nsw> : index
        %739 = arith.select %737, %738, %c536870911 : index
        vector.store %736, %304[%739] : memref<?xf32, #amdgpu.address_space<fat_raw_buffer>>, vector<1xf32>
        %740 = vector.extract_strided_slice %220 {offsets = [12], sizes = [1], strides = [1]} : vector<16xf32> to vector<1xf32>
        %741 = arith.andi %692, %396 : i1
        %742 = arith.addi %399, %159 overflow<nsw> : index
        %743 = arith.select %741, %742, %c536870911 : index
        vector.store %740, %304[%743] : memref<?xf32, #amdgpu.address_space<fat_raw_buffer>>, vector<1xf32>
        %744 = vector.extract_strided_slice %220 {offsets = [13], sizes = [1], strides = [1]} : vector<16xf32> to vector<1xf32>
        %745 = arith.andi %692, %404 : i1
        %746 = arith.addi %407, %159 overflow<nsw> : index
        %747 = arith.select %745, %746, %c536870911 : index
        vector.store %744, %304[%747] : memref<?xf32, #amdgpu.address_space<fat_raw_buffer>>, vector<1xf32>
        %748 = vector.extract_strided_slice %220 {offsets = [14], sizes = [1], strides = [1]} : vector<16xf32> to vector<1xf32>
        %749 = arith.andi %692, %412 : i1
        %750 = arith.addi %415, %159 overflow<nsw> : index
        %751 = arith.select %749, %750, %c536870911 : index
        vector.store %748, %304[%751] : memref<?xf32, #amdgpu.address_space<fat_raw_buffer>>, vector<1xf32>
        %752 = vector.extract_strided_slice %220 {offsets = [15], sizes = [1], strides = [1]} : vector<16xf32> to vector<1xf32>
        %753 = arith.andi %692, %420 : i1
        %754 = arith.addi %423, %159 overflow<nsw> : index
        %755 = arith.select %753, %754, %c536870911 : index
        vector.store %752, %304[%755] : memref<?xf32, #amdgpu.address_space<fat_raw_buffer>>, vector<1xf32>
        %756 = vector.extract_strided_slice %222 {offsets = [0], sizes = [1], strides = [1]} : vector<16xf32> to vector<1xf32>
        %757 = affine.apply #map75()[%thread_id_x, %block_id_x, %block_id_y, %thread_id_y]
        %758 = arith.cmpi slt, %757, %286 : index
        %759 = arith.andi %758, %294 : i1
        %760 = arith.addi %300, %164 overflow<nsw> : index
        %761 = arith.select %759, %760, %c536870911 : index
        vector.store %756, %304[%761] : memref<?xf32, #amdgpu.address_space<fat_raw_buffer>>, vector<1xf32>
        %762 = vector.extract_strided_slice %222 {offsets = [1], sizes = [1], strides = [1]} : vector<16xf32> to vector<1xf32>
        %763 = arith.andi %758, %308 : i1
        %764 = arith.addi %311, %164 overflow<nsw> : index
        %765 = arith.select %763, %764, %c536870911 : index
        vector.store %762, %304[%765] : memref<?xf32, #amdgpu.address_space<fat_raw_buffer>>, vector<1xf32>
        %766 = vector.extract_strided_slice %222 {offsets = [2], sizes = [1], strides = [1]} : vector<16xf32> to vector<1xf32>
        %767 = arith.andi %758, %316 : i1
        %768 = arith.addi %319, %164 overflow<nsw> : index
        %769 = arith.select %767, %768, %c536870911 : index
        vector.store %766, %304[%769] : memref<?xf32, #amdgpu.address_space<fat_raw_buffer>>, vector<1xf32>
        %770 = vector.extract_strided_slice %222 {offsets = [3], sizes = [1], strides = [1]} : vector<16xf32> to vector<1xf32>
        %771 = arith.andi %758, %324 : i1
        %772 = arith.addi %327, %164 overflow<nsw> : index
        %773 = arith.select %771, %772, %c536870911 : index
        vector.store %770, %304[%773] : memref<?xf32, #amdgpu.address_space<fat_raw_buffer>>, vector<1xf32>
        %774 = vector.extract_strided_slice %222 {offsets = [4], sizes = [1], strides = [1]} : vector<16xf32> to vector<1xf32>
        %775 = arith.andi %758, %332 : i1
        %776 = arith.addi %335, %164 overflow<nsw> : index
        %777 = arith.select %775, %776, %c536870911 : index
        vector.store %774, %304[%777] : memref<?xf32, #amdgpu.address_space<fat_raw_buffer>>, vector<1xf32>
        %778 = vector.extract_strided_slice %222 {offsets = [5], sizes = [1], strides = [1]} : vector<16xf32> to vector<1xf32>
        %779 = arith.andi %758, %340 : i1
        %780 = arith.addi %343, %164 overflow<nsw> : index
        %781 = arith.select %779, %780, %c536870911 : index
        vector.store %778, %304[%781] : memref<?xf32, #amdgpu.address_space<fat_raw_buffer>>, vector<1xf32>
        %782 = vector.extract_strided_slice %222 {offsets = [6], sizes = [1], strides = [1]} : vector<16xf32> to vector<1xf32>
        %783 = arith.andi %758, %348 : i1
        %784 = arith.addi %351, %164 overflow<nsw> : index
        %785 = arith.select %783, %784, %c536870911 : index
        vector.store %782, %304[%785] : memref<?xf32, #amdgpu.address_space<fat_raw_buffer>>, vector<1xf32>
        %786 = vector.extract_strided_slice %222 {offsets = [7], sizes = [1], strides = [1]} : vector<16xf32> to vector<1xf32>
        %787 = arith.andi %758, %356 : i1
        %788 = arith.addi %359, %164 overflow<nsw> : index
        %789 = arith.select %787, %788, %c536870911 : index
        vector.store %786, %304[%789] : memref<?xf32, #amdgpu.address_space<fat_raw_buffer>>, vector<1xf32>
        %790 = vector.extract_strided_slice %222 {offsets = [8], sizes = [1], strides = [1]} : vector<16xf32> to vector<1xf32>
        %791 = arith.andi %758, %364 : i1
        %792 = arith.addi %367, %164 overflow<nsw> : index
        %793 = arith.select %791, %792, %c536870911 : index
        vector.store %790, %304[%793] : memref<?xf32, #amdgpu.address_space<fat_raw_buffer>>, vector<1xf32>
        %794 = vector.extract_strided_slice %222 {offsets = [9], sizes = [1], strides = [1]} : vector<16xf32> to vector<1xf32>
        %795 = arith.andi %758, %372 : i1
        %796 = arith.addi %375, %164 overflow<nsw> : index
        %797 = arith.select %795, %796, %c536870911 : index
        vector.store %794, %304[%797] : memref<?xf32, #amdgpu.address_space<fat_raw_buffer>>, vector<1xf32>
        %798 = vector.extract_strided_slice %222 {offsets = [10], sizes = [1], strides = [1]} : vector<16xf32> to vector<1xf32>
        %799 = arith.andi %758, %380 : i1
        %800 = arith.addi %383, %164 overflow<nsw> : index
        %801 = arith.select %799, %800, %c536870911 : index
        vector.store %798, %304[%801] : memref<?xf32, #amdgpu.address_space<fat_raw_buffer>>, vector<1xf32>
        %802 = vector.extract_strided_slice %222 {offsets = [11], sizes = [1], strides = [1]} : vector<16xf32> to vector<1xf32>
        %803 = arith.andi %758, %388 : i1
        %804 = arith.addi %391, %164 overflow<nsw> : index
        %805 = arith.select %803, %804, %c536870911 : index
        vector.store %802, %304[%805] : memref<?xf32, #amdgpu.address_space<fat_raw_buffer>>, vector<1xf32>
        %806 = vector.extract_strided_slice %222 {offsets = [12], sizes = [1], strides = [1]} : vector<16xf32> to vector<1xf32>
        %807 = arith.andi %758, %396 : i1
        %808 = arith.addi %399, %164 overflow<nsw> : index
        %809 = arith.select %807, %808, %c536870911 : index
        vector.store %806, %304[%809] : memref<?xf32, #amdgpu.address_space<fat_raw_buffer>>, vector<1xf32>
        %810 = vector.extract_strided_slice %222 {offsets = [13], sizes = [1], strides = [1]} : vector<16xf32> to vector<1xf32>
        %811 = arith.andi %758, %404 : i1
        %812 = arith.addi %407, %164 overflow<nsw> : index
        %813 = arith.select %811, %812, %c536870911 : index
        vector.store %810, %304[%813] : memref<?xf32, #amdgpu.address_space<fat_raw_buffer>>, vector<1xf32>
        %814 = vector.extract_strided_slice %222 {offsets = [14], sizes = [1], strides = [1]} : vector<16xf32> to vector<1xf32>
        %815 = arith.andi %758, %412 : i1
        %816 = arith.addi %415, %164 overflow<nsw> : index
        %817 = arith.select %815, %816, %c536870911 : index
        vector.store %814, %304[%817] : memref<?xf32, #amdgpu.address_space<fat_raw_buffer>>, vector<1xf32>
        %818 = vector.extract_strided_slice %222 {offsets = [15], sizes = [1], strides = [1]} : vector<16xf32> to vector<1xf32>
        %819 = arith.andi %758, %420 : i1
        %820 = arith.addi %423, %164 overflow<nsw> : index
        %821 = arith.select %819, %820, %c536870911 : index
        vector.store %818, %304[%821] : memref<?xf32, #amdgpu.address_space<fat_raw_buffer>>, vector<1xf32>
        %822 = vector.extract_strided_slice %224 {offsets = [0], sizes = [1], strides = [1]} : vector<16xf32> to vector<1xf32>
        %823 = affine.apply #map76()[%thread_id_x, %block_id_x, %block_id_y, %thread_id_y]
        %824 = arith.cmpi slt, %823, %286 : index
        %825 = arith.andi %824, %294 : i1
        %826 = arith.addi %300, %169 overflow<nsw> : index
        %827 = arith.select %825, %826, %c536870911 : index
        vector.store %822, %304[%827] : memref<?xf32, #amdgpu.address_space<fat_raw_buffer>>, vector<1xf32>
        %828 = vector.extract_strided_slice %224 {offsets = [1], sizes = [1], strides = [1]} : vector<16xf32> to vector<1xf32>
        %829 = arith.andi %824, %308 : i1
        %830 = arith.addi %311, %169 overflow<nsw> : index
        %831 = arith.select %829, %830, %c536870911 : index
        vector.store %828, %304[%831] : memref<?xf32, #amdgpu.address_space<fat_raw_buffer>>, vector<1xf32>
        %832 = vector.extract_strided_slice %224 {offsets = [2], sizes = [1], strides = [1]} : vector<16xf32> to vector<1xf32>
        %833 = arith.andi %824, %316 : i1
        %834 = arith.addi %319, %169 overflow<nsw> : index
        %835 = arith.select %833, %834, %c536870911 : index
        vector.store %832, %304[%835] : memref<?xf32, #amdgpu.address_space<fat_raw_buffer>>, vector<1xf32>
        %836 = vector.extract_strided_slice %224 {offsets = [3], sizes = [1], strides = [1]} : vector<16xf32> to vector<1xf32>
        %837 = arith.andi %824, %324 : i1
        %838 = arith.addi %327, %169 overflow<nsw> : index
        %839 = arith.select %837, %838, %c536870911 : index
        vector.store %836, %304[%839] : memref<?xf32, #amdgpu.address_space<fat_raw_buffer>>, vector<1xf32>
        %840 = vector.extract_strided_slice %224 {offsets = [4], sizes = [1], strides = [1]} : vector<16xf32> to vector<1xf32>
        %841 = arith.andi %824, %332 : i1
        %842 = arith.addi %335, %169 overflow<nsw> : index
        %843 = arith.select %841, %842, %c536870911 : index
        vector.store %840, %304[%843] : memref<?xf32, #amdgpu.address_space<fat_raw_buffer>>, vector<1xf32>
        %844 = vector.extract_strided_slice %224 {offsets = [5], sizes = [1], strides = [1]} : vector<16xf32> to vector<1xf32>
        %845 = arith.andi %824, %340 : i1
        %846 = arith.addi %343, %169 overflow<nsw> : index
        %847 = arith.select %845, %846, %c536870911 : index
        vector.store %844, %304[%847] : memref<?xf32, #amdgpu.address_space<fat_raw_buffer>>, vector<1xf32>
        %848 = vector.extract_strided_slice %224 {offsets = [6], sizes = [1], strides = [1]} : vector<16xf32> to vector<1xf32>
        %849 = arith.andi %824, %348 : i1
        %850 = arith.addi %351, %169 overflow<nsw> : index
        %851 = arith.select %849, %850, %c536870911 : index
        vector.store %848, %304[%851] : memref<?xf32, #amdgpu.address_space<fat_raw_buffer>>, vector<1xf32>
        %852 = vector.extract_strided_slice %224 {offsets = [7], sizes = [1], strides = [1]} : vector<16xf32> to vector<1xf32>
        %853 = arith.andi %824, %356 : i1
        %854 = arith.addi %359, %169 overflow<nsw> : index
        %855 = arith.select %853, %854, %c536870911 : index
        vector.store %852, %304[%855] : memref<?xf32, #amdgpu.address_space<fat_raw_buffer>>, vector<1xf32>
        %856 = vector.extract_strided_slice %224 {offsets = [8], sizes = [1], strides = [1]} : vector<16xf32> to vector<1xf32>
        %857 = arith.andi %824, %364 : i1
        %858 = arith.addi %367, %169 overflow<nsw> : index
        %859 = arith.select %857, %858, %c536870911 : index
        vector.store %856, %304[%859] : memref<?xf32, #amdgpu.address_space<fat_raw_buffer>>, vector<1xf32>
        %860 = vector.extract_strided_slice %224 {offsets = [9], sizes = [1], strides = [1]} : vector<16xf32> to vector<1xf32>
        %861 = arith.andi %824, %372 : i1
        %862 = arith.addi %375, %169 overflow<nsw> : index
        %863 = arith.select %861, %862, %c536870911 : index
        vector.store %860, %304[%863] : memref<?xf32, #amdgpu.address_space<fat_raw_buffer>>, vector<1xf32>
        %864 = vector.extract_strided_slice %224 {offsets = [10], sizes = [1], strides = [1]} : vector<16xf32> to vector<1xf32>
        %865 = arith.andi %824, %380 : i1
        %866 = arith.addi %383, %169 overflow<nsw> : index
        %867 = arith.select %865, %866, %c536870911 : index
        vector.store %864, %304[%867] : memref<?xf32, #amdgpu.address_space<fat_raw_buffer>>, vector<1xf32>
        %868 = vector.extract_strided_slice %224 {offsets = [11], sizes = [1], strides = [1]} : vector<16xf32> to vector<1xf32>
        %869 = arith.andi %824, %388 : i1
        %870 = arith.addi %391, %169 overflow<nsw> : index
        %871 = arith.select %869, %870, %c536870911 : index
        vector.store %868, %304[%871] : memref<?xf32, #amdgpu.address_space<fat_raw_buffer>>, vector<1xf32>
        %872 = vector.extract_strided_slice %224 {offsets = [12], sizes = [1], strides = [1]} : vector<16xf32> to vector<1xf32>
        %873 = arith.andi %824, %396 : i1
        %874 = arith.addi %399, %169 overflow<nsw> : index
        %875 = arith.select %873, %874, %c536870911 : index
        vector.store %872, %304[%875] : memref<?xf32, #amdgpu.address_space<fat_raw_buffer>>, vector<1xf32>
        %876 = vector.extract_strided_slice %224 {offsets = [13], sizes = [1], strides = [1]} : vector<16xf32> to vector<1xf32>
        %877 = arith.andi %824, %404 : i1
        %878 = arith.addi %407, %169 overflow<nsw> : index
        %879 = arith.select %877, %878, %c536870911 : index
        vector.store %876, %304[%879] : memref<?xf32, #amdgpu.address_space<fat_raw_buffer>>, vector<1xf32>
        %880 = vector.extract_strided_slice %224 {offsets = [14], sizes = [1], strides = [1]} : vector<16xf32> to vector<1xf32>
        %881 = arith.andi %824, %412 : i1
        %882 = arith.addi %415, %169 overflow<nsw> : index
        %883 = arith.select %881, %882, %c536870911 : index
        vector.store %880, %304[%883] : memref<?xf32, #amdgpu.address_space<fat_raw_buffer>>, vector<1xf32>
        %884 = vector.extract_strided_slice %224 {offsets = [15], sizes = [1], strides = [1]} : vector<16xf32> to vector<1xf32>
        %885 = arith.andi %824, %420 : i1
        %886 = arith.addi %423, %169 overflow<nsw> : index
        %887 = arith.select %885, %886, %c536870911 : index
        vector.store %884, %304[%887] : memref<?xf32, #amdgpu.address_space<fat_raw_buffer>>, vector<1xf32>
        %888 = vector.extract_strided_slice %226 {offsets = [0], sizes = [1], strides = [1]} : vector<16xf32> to vector<1xf32>
        %889 = affine.apply #map77()[%thread_id_x, %block_id_x, %block_id_y, %thread_id_y]
        %890 = arith.cmpi slt, %889, %286 : index
        %891 = arith.andi %890, %294 : i1
        %892 = arith.addi %300, %174 overflow<nsw> : index
        %893 = arith.select %891, %892, %c536870911 : index
        vector.store %888, %304[%893] : memref<?xf32, #amdgpu.address_space<fat_raw_buffer>>, vector<1xf32>
        %894 = vector.extract_strided_slice %226 {offsets = [1], sizes = [1], strides = [1]} : vector<16xf32> to vector<1xf32>
        %895 = arith.andi %890, %308 : i1
        %896 = arith.addi %311, %174 overflow<nsw> : index
        %897 = arith.select %895, %896, %c536870911 : index
        vector.store %894, %304[%897] : memref<?xf32, #amdgpu.address_space<fat_raw_buffer>>, vector<1xf32>
        %898 = vector.extract_strided_slice %226 {offsets = [2], sizes = [1], strides = [1]} : vector<16xf32> to vector<1xf32>
        %899 = arith.andi %890, %316 : i1
        %900 = arith.addi %319, %174 overflow<nsw> : index
        %901 = arith.select %899, %900, %c536870911 : index
        vector.store %898, %304[%901] : memref<?xf32, #amdgpu.address_space<fat_raw_buffer>>, vector<1xf32>
        %902 = vector.extract_strided_slice %226 {offsets = [3], sizes = [1], strides = [1]} : vector<16xf32> to vector<1xf32>
        %903 = arith.andi %890, %324 : i1
        %904 = arith.addi %327, %174 overflow<nsw> : index
        %905 = arith.select %903, %904, %c536870911 : index
        vector.store %902, %304[%905] : memref<?xf32, #amdgpu.address_space<fat_raw_buffer>>, vector<1xf32>
        %906 = vector.extract_strided_slice %226 {offsets = [4], sizes = [1], strides = [1]} : vector<16xf32> to vector<1xf32>
        %907 = arith.andi %890, %332 : i1
        %908 = arith.addi %335, %174 overflow<nsw> : index
        %909 = arith.select %907, %908, %c536870911 : index
        vector.store %906, %304[%909] : memref<?xf32, #amdgpu.address_space<fat_raw_buffer>>, vector<1xf32>
        %910 = vector.extract_strided_slice %226 {offsets = [5], sizes = [1], strides = [1]} : vector<16xf32> to vector<1xf32>
        %911 = arith.andi %890, %340 : i1
        %912 = arith.addi %343, %174 overflow<nsw> : index
        %913 = arith.select %911, %912, %c536870911 : index
        vector.store %910, %304[%913] : memref<?xf32, #amdgpu.address_space<fat_raw_buffer>>, vector<1xf32>
        %914 = vector.extract_strided_slice %226 {offsets = [6], sizes = [1], strides = [1]} : vector<16xf32> to vector<1xf32>
        %915 = arith.andi %890, %348 : i1
        %916 = arith.addi %351, %174 overflow<nsw> : index
        %917 = arith.select %915, %916, %c536870911 : index
        vector.store %914, %304[%917] : memref<?xf32, #amdgpu.address_space<fat_raw_buffer>>, vector<1xf32>
        %918 = vector.extract_strided_slice %226 {offsets = [7], sizes = [1], strides = [1]} : vector<16xf32> to vector<1xf32>
        %919 = arith.andi %890, %356 : i1
        %920 = arith.addi %359, %174 overflow<nsw> : index
        %921 = arith.select %919, %920, %c536870911 : index
        vector.store %918, %304[%921] : memref<?xf32, #amdgpu.address_space<fat_raw_buffer>>, vector<1xf32>
        %922 = vector.extract_strided_slice %226 {offsets = [8], sizes = [1], strides = [1]} : vector<16xf32> to vector<1xf32>
        %923 = arith.andi %890, %364 : i1
        %924 = arith.addi %367, %174 overflow<nsw> : index
        %925 = arith.select %923, %924, %c536870911 : index
        vector.store %922, %304[%925] : memref<?xf32, #amdgpu.address_space<fat_raw_buffer>>, vector<1xf32>
        %926 = vector.extract_strided_slice %226 {offsets = [9], sizes = [1], strides = [1]} : vector<16xf32> to vector<1xf32>
        %927 = arith.andi %890, %372 : i1
        %928 = arith.addi %375, %174 overflow<nsw> : index
        %929 = arith.select %927, %928, %c536870911 : index
        vector.store %926, %304[%929] : memref<?xf32, #amdgpu.address_space<fat_raw_buffer>>, vector<1xf32>
        %930 = vector.extract_strided_slice %226 {offsets = [10], sizes = [1], strides = [1]} : vector<16xf32> to vector<1xf32>
        %931 = arith.andi %890, %380 : i1
        %932 = arith.addi %383, %174 overflow<nsw> : index
        %933 = arith.select %931, %932, %c536870911 : index
        vector.store %930, %304[%933] : memref<?xf32, #amdgpu.address_space<fat_raw_buffer>>, vector<1xf32>
        %934 = vector.extract_strided_slice %226 {offsets = [11], sizes = [1], strides = [1]} : vector<16xf32> to vector<1xf32>
        %935 = arith.andi %890, %388 : i1
        %936 = arith.addi %391, %174 overflow<nsw> : index
        %937 = arith.select %935, %936, %c536870911 : index
        vector.store %934, %304[%937] : memref<?xf32, #amdgpu.address_space<fat_raw_buffer>>, vector<1xf32>
        %938 = vector.extract_strided_slice %226 {offsets = [12], sizes = [1], strides = [1]} : vector<16xf32> to vector<1xf32>
        %939 = arith.andi %890, %396 : i1
        %940 = arith.addi %399, %174 overflow<nsw> : index
        %941 = arith.select %939, %940, %c536870911 : index
        vector.store %938, %304[%941] : memref<?xf32, #amdgpu.address_space<fat_raw_buffer>>, vector<1xf32>
        %942 = vector.extract_strided_slice %226 {offsets = [13], sizes = [1], strides = [1]} : vector<16xf32> to vector<1xf32>
        %943 = arith.andi %890, %404 : i1
        %944 = arith.addi %407, %174 overflow<nsw> : index
        %945 = arith.select %943, %944, %c536870911 : index
        vector.store %942, %304[%945] : memref<?xf32, #amdgpu.address_space<fat_raw_buffer>>, vector<1xf32>
        %946 = vector.extract_strided_slice %226 {offsets = [14], sizes = [1], strides = [1]} : vector<16xf32> to vector<1xf32>
        %947 = arith.andi %890, %412 : i1
        %948 = arith.addi %415, %174 overflow<nsw> : index
        %949 = arith.select %947, %948, %c536870911 : index
        vector.store %946, %304[%949] : memref<?xf32, #amdgpu.address_space<fat_raw_buffer>>, vector<1xf32>
        %950 = vector.extract_strided_slice %226 {offsets = [15], sizes = [1], strides = [1]} : vector<16xf32> to vector<1xf32>
        %951 = arith.andi %890, %420 : i1
        %952 = arith.addi %423, %174 overflow<nsw> : index
        %953 = arith.select %951, %952, %c536870911 : index
        vector.store %950, %304[%953] : memref<?xf32, #amdgpu.address_space<fat_raw_buffer>>, vector<1xf32>
        %954 = vector.extract_strided_slice %228 {offsets = [0], sizes = [1], strides = [1]} : vector<16xf32> to vector<1xf32>
        %955 = affine.apply #map78()[%thread_id_x, %block_id_x, %block_id_y, %thread_id_y]
        %956 = arith.cmpi slt, %955, %286 : index
        %957 = arith.andi %956, %294 : i1
        %958 = arith.addi %300, %179 overflow<nsw> : index
        %959 = arith.select %957, %958, %c536870911 : index
        vector.store %954, %304[%959] : memref<?xf32, #amdgpu.address_space<fat_raw_buffer>>, vector<1xf32>
        %960 = vector.extract_strided_slice %228 {offsets = [1], sizes = [1], strides = [1]} : vector<16xf32> to vector<1xf32>
        %961 = arith.andi %956, %308 : i1
        %962 = arith.addi %311, %179 overflow<nsw> : index
        %963 = arith.select %961, %962, %c536870911 : index
        vector.store %960, %304[%963] : memref<?xf32, #amdgpu.address_space<fat_raw_buffer>>, vector<1xf32>
        %964 = vector.extract_strided_slice %228 {offsets = [2], sizes = [1], strides = [1]} : vector<16xf32> to vector<1xf32>
        %965 = arith.andi %956, %316 : i1
        %966 = arith.addi %319, %179 overflow<nsw> : index
        %967 = arith.select %965, %966, %c536870911 : index
        vector.store %964, %304[%967] : memref<?xf32, #amdgpu.address_space<fat_raw_buffer>>, vector<1xf32>
        %968 = vector.extract_strided_slice %228 {offsets = [3], sizes = [1], strides = [1]} : vector<16xf32> to vector<1xf32>
        %969 = arith.andi %956, %324 : i1
        %970 = arith.addi %327, %179 overflow<nsw> : index
        %971 = arith.select %969, %970, %c536870911 : index
        vector.store %968, %304[%971] : memref<?xf32, #amdgpu.address_space<fat_raw_buffer>>, vector<1xf32>
        %972 = vector.extract_strided_slice %228 {offsets = [4], sizes = [1], strides = [1]} : vector<16xf32> to vector<1xf32>
        %973 = arith.andi %956, %332 : i1
        %974 = arith.addi %335, %179 overflow<nsw> : index
        %975 = arith.select %973, %974, %c536870911 : index
        vector.store %972, %304[%975] : memref<?xf32, #amdgpu.address_space<fat_raw_buffer>>, vector<1xf32>
        %976 = vector.extract_strided_slice %228 {offsets = [5], sizes = [1], strides = [1]} : vector<16xf32> to vector<1xf32>
        %977 = arith.andi %956, %340 : i1
        %978 = arith.addi %343, %179 overflow<nsw> : index
        %979 = arith.select %977, %978, %c536870911 : index
        vector.store %976, %304[%979] : memref<?xf32, #amdgpu.address_space<fat_raw_buffer>>, vector<1xf32>
        %980 = vector.extract_strided_slice %228 {offsets = [6], sizes = [1], strides = [1]} : vector<16xf32> to vector<1xf32>
        %981 = arith.andi %956, %348 : i1
        %982 = arith.addi %351, %179 overflow<nsw> : index
        %983 = arith.select %981, %982, %c536870911 : index
        vector.store %980, %304[%983] : memref<?xf32, #amdgpu.address_space<fat_raw_buffer>>, vector<1xf32>
        %984 = vector.extract_strided_slice %228 {offsets = [7], sizes = [1], strides = [1]} : vector<16xf32> to vector<1xf32>
        %985 = arith.andi %956, %356 : i1
        %986 = arith.addi %359, %179 overflow<nsw> : index
        %987 = arith.select %985, %986, %c536870911 : index
        vector.store %984, %304[%987] : memref<?xf32, #amdgpu.address_space<fat_raw_buffer>>, vector<1xf32>
        %988 = vector.extract_strided_slice %228 {offsets = [8], sizes = [1], strides = [1]} : vector<16xf32> to vector<1xf32>
        %989 = arith.andi %956, %364 : i1
        %990 = arith.addi %367, %179 overflow<nsw> : index
        %991 = arith.select %989, %990, %c536870911 : index
        vector.store %988, %304[%991] : memref<?xf32, #amdgpu.address_space<fat_raw_buffer>>, vector<1xf32>
        %992 = vector.extract_strided_slice %228 {offsets = [9], sizes = [1], strides = [1]} : vector<16xf32> to vector<1xf32>
        %993 = arith.andi %956, %372 : i1
        %994 = arith.addi %375, %179 overflow<nsw> : index
        %995 = arith.select %993, %994, %c536870911 : index
        vector.store %992, %304[%995] : memref<?xf32, #amdgpu.address_space<fat_raw_buffer>>, vector<1xf32>
        %996 = vector.extract_strided_slice %228 {offsets = [10], sizes = [1], strides = [1]} : vector<16xf32> to vector<1xf32>
        %997 = arith.andi %956, %380 : i1
        %998 = arith.addi %383, %179 overflow<nsw> : index
        %999 = arith.select %997, %998, %c536870911 : index
        vector.store %996, %304[%999] : memref<?xf32, #amdgpu.address_space<fat_raw_buffer>>, vector<1xf32>
        %1000 = vector.extract_strided_slice %228 {offsets = [11], sizes = [1], strides = [1]} : vector<16xf32> to vector<1xf32>
        %1001 = arith.andi %956, %388 : i1
        %1002 = arith.addi %391, %179 overflow<nsw> : index
        %1003 = arith.select %1001, %1002, %c536870911 : index
        vector.store %1000, %304[%1003] : memref<?xf32, #amdgpu.address_space<fat_raw_buffer>>, vector<1xf32>
        %1004 = vector.extract_strided_slice %228 {offsets = [12], sizes = [1], strides = [1]} : vector<16xf32> to vector<1xf32>
        %1005 = arith.andi %956, %396 : i1
        %1006 = arith.addi %399, %179 overflow<nsw> : index
        %1007 = arith.select %1005, %1006, %c536870911 : index
        vector.store %1004, %304[%1007] : memref<?xf32, #amdgpu.address_space<fat_raw_buffer>>, vector<1xf32>
        %1008 = vector.extract_strided_slice %228 {offsets = [13], sizes = [1], strides = [1]} : vector<16xf32> to vector<1xf32>
        %1009 = arith.andi %956, %404 : i1
        %1010 = arith.addi %407, %179 overflow<nsw> : index
        %1011 = arith.select %1009, %1010, %c536870911 : index
        vector.store %1008, %304[%1011] : memref<?xf32, #amdgpu.address_space<fat_raw_buffer>>, vector<1xf32>
        %1012 = vector.extract_strided_slice %228 {offsets = [14], sizes = [1], strides = [1]} : vector<16xf32> to vector<1xf32>
        %1013 = arith.andi %956, %412 : i1
        %1014 = arith.addi %415, %179 overflow<nsw> : index
        %1015 = arith.select %1013, %1014, %c536870911 : index
        vector.store %1012, %304[%1015] : memref<?xf32, #amdgpu.address_space<fat_raw_buffer>>, vector<1xf32>
        %1016 = vector.extract_strided_slice %228 {offsets = [15], sizes = [1], strides = [1]} : vector<16xf32> to vector<1xf32>
        %1017 = arith.andi %956, %420 : i1
        %1018 = arith.addi %423, %179 overflow<nsw> : index
        %1019 = arith.select %1017, %1018, %c536870911 : index
        vector.store %1016, %304[%1019] : memref<?xf32, #amdgpu.address_space<fat_raw_buffer>>, vector<1xf32>
        %1020 = vector.extract_strided_slice %230 {offsets = [0], sizes = [1], strides = [1]} : vector<16xf32> to vector<1xf32>
        %1021 = affine.apply #map79()[%thread_id_x, %block_id_x, %block_id_y, %thread_id_y]
        %1022 = arith.cmpi slt, %1021, %286 : index
        %1023 = arith.andi %1022, %294 : i1
        %1024 = arith.addi %300, %184 overflow<nsw> : index
        %1025 = arith.select %1023, %1024, %c536870911 : index
        vector.store %1020, %304[%1025] : memref<?xf32, #amdgpu.address_space<fat_raw_buffer>>, vector<1xf32>
        %1026 = vector.extract_strided_slice %230 {offsets = [1], sizes = [1], strides = [1]} : vector<16xf32> to vector<1xf32>
        %1027 = arith.andi %1022, %308 : i1
        %1028 = arith.addi %311, %184 overflow<nsw> : index
        %1029 = arith.select %1027, %1028, %c536870911 : index
        vector.store %1026, %304[%1029] : memref<?xf32, #amdgpu.address_space<fat_raw_buffer>>, vector<1xf32>
        %1030 = vector.extract_strided_slice %230 {offsets = [2], sizes = [1], strides = [1]} : vector<16xf32> to vector<1xf32>
        %1031 = arith.andi %1022, %316 : i1
        %1032 = arith.addi %319, %184 overflow<nsw> : index
        %1033 = arith.select %1031, %1032, %c536870911 : index
        vector.store %1030, %304[%1033] : memref<?xf32, #amdgpu.address_space<fat_raw_buffer>>, vector<1xf32>
        %1034 = vector.extract_strided_slice %230 {offsets = [3], sizes = [1], strides = [1]} : vector<16xf32> to vector<1xf32>
        %1035 = arith.andi %1022, %324 : i1
        %1036 = arith.addi %327, %184 overflow<nsw> : index
        %1037 = arith.select %1035, %1036, %c536870911 : index
        vector.store %1034, %304[%1037] : memref<?xf32, #amdgpu.address_space<fat_raw_buffer>>, vector<1xf32>
        %1038 = vector.extract_strided_slice %230 {offsets = [4], sizes = [1], strides = [1]} : vector<16xf32> to vector<1xf32>
        %1039 = arith.andi %1022, %332 : i1
        %1040 = arith.addi %335, %184 overflow<nsw> : index
        %1041 = arith.select %1039, %1040, %c536870911 : index
        vector.store %1038, %304[%1041] : memref<?xf32, #amdgpu.address_space<fat_raw_buffer>>, vector<1xf32>
        %1042 = vector.extract_strided_slice %230 {offsets = [5], sizes = [1], strides = [1]} : vector<16xf32> to vector<1xf32>
        %1043 = arith.andi %1022, %340 : i1
        %1044 = arith.addi %343, %184 overflow<nsw> : index
        %1045 = arith.select %1043, %1044, %c536870911 : index
        vector.store %1042, %304[%1045] : memref<?xf32, #amdgpu.address_space<fat_raw_buffer>>, vector<1xf32>
        %1046 = vector.extract_strided_slice %230 {offsets = [6], sizes = [1], strides = [1]} : vector<16xf32> to vector<1xf32>
        %1047 = arith.andi %1022, %348 : i1
        %1048 = arith.addi %351, %184 overflow<nsw> : index
        %1049 = arith.select %1047, %1048, %c536870911 : index
        vector.store %1046, %304[%1049] : memref<?xf32, #amdgpu.address_space<fat_raw_buffer>>, vector<1xf32>
        %1050 = vector.extract_strided_slice %230 {offsets = [7], sizes = [1], strides = [1]} : vector<16xf32> to vector<1xf32>
        %1051 = arith.andi %1022, %356 : i1
        %1052 = arith.addi %359, %184 overflow<nsw> : index
        %1053 = arith.select %1051, %1052, %c536870911 : index
        vector.store %1050, %304[%1053] : memref<?xf32, #amdgpu.address_space<fat_raw_buffer>>, vector<1xf32>
        %1054 = vector.extract_strided_slice %230 {offsets = [8], sizes = [1], strides = [1]} : vector<16xf32> to vector<1xf32>
        %1055 = arith.andi %1022, %364 : i1
        %1056 = arith.addi %367, %184 overflow<nsw> : index
        %1057 = arith.select %1055, %1056, %c536870911 : index
        vector.store %1054, %304[%1057] : memref<?xf32, #amdgpu.address_space<fat_raw_buffer>>, vector<1xf32>
        %1058 = vector.extract_strided_slice %230 {offsets = [9], sizes = [1], strides = [1]} : vector<16xf32> to vector<1xf32>
        %1059 = arith.andi %1022, %372 : i1
        %1060 = arith.addi %375, %184 overflow<nsw> : index
        %1061 = arith.select %1059, %1060, %c536870911 : index
        vector.store %1058, %304[%1061] : memref<?xf32, #amdgpu.address_space<fat_raw_buffer>>, vector<1xf32>
        %1062 = vector.extract_strided_slice %230 {offsets = [10], sizes = [1], strides = [1]} : vector<16xf32> to vector<1xf32>
        %1063 = arith.andi %1022, %380 : i1
        %1064 = arith.addi %383, %184 overflow<nsw> : index
        %1065 = arith.select %1063, %1064, %c536870911 : index
        vector.store %1062, %304[%1065] : memref<?xf32, #amdgpu.address_space<fat_raw_buffer>>, vector<1xf32>
        %1066 = vector.extract_strided_slice %230 {offsets = [11], sizes = [1], strides = [1]} : vector<16xf32> to vector<1xf32>
        %1067 = arith.andi %1022, %388 : i1
        %1068 = arith.addi %391, %184 overflow<nsw> : index
        %1069 = arith.select %1067, %1068, %c536870911 : index
        vector.store %1066, %304[%1069] : memref<?xf32, #amdgpu.address_space<fat_raw_buffer>>, vector<1xf32>
        %1070 = vector.extract_strided_slice %230 {offsets = [12], sizes = [1], strides = [1]} : vector<16xf32> to vector<1xf32>
        %1071 = arith.andi %1022, %396 : i1
        %1072 = arith.addi %399, %184 overflow<nsw> : index
        %1073 = arith.select %1071, %1072, %c536870911 : index
        vector.store %1070, %304[%1073] : memref<?xf32, #amdgpu.address_space<fat_raw_buffer>>, vector<1xf32>
        %1074 = vector.extract_strided_slice %230 {offsets = [13], sizes = [1], strides = [1]} : vector<16xf32> to vector<1xf32>
        %1075 = arith.andi %1022, %404 : i1
        %1076 = arith.addi %407, %184 overflow<nsw> : index
        %1077 = arith.select %1075, %1076, %c536870911 : index
        vector.store %1074, %304[%1077] : memref<?xf32, #amdgpu.address_space<fat_raw_buffer>>, vector<1xf32>
        %1078 = vector.extract_strided_slice %230 {offsets = [14], sizes = [1], strides = [1]} : vector<16xf32> to vector<1xf32>
        %1079 = arith.andi %1022, %412 : i1
        %1080 = arith.addi %415, %184 overflow<nsw> : index
        %1081 = arith.select %1079, %1080, %c536870911 : index
        vector.store %1078, %304[%1081] : memref<?xf32, #amdgpu.address_space<fat_raw_buffer>>, vector<1xf32>
…
        vector.store %2324, %304[%2327] : memref<?xf32, #amdgpu.address_space<fat_raw_buffer>>, vector<1xf32>
        %2328 = vector.extract_strided_slice %266 {offsets = [6], sizes = [1], strides = [1]} : vector<16xf32> to vector<1xf32>
        %2329 = arith.andi %626, %2034 : i1
        %2330 = arith.addi %2037, %154 overflow<nsw> : index
        %2331 = arith.select %2329, %2330, %c536870911 : index
        vector.store %2328, %304[%2331] : memref<?xf32, #amdgpu.address_space<fat_raw_buffer>>, vector<1xf32>
        %2332 = vector.extract_strided_slice %266 {offsets = [7], sizes = [1], strides = [1]} : vector<16xf32> to vector<1xf32>
        %2333 = arith.andi %626, %2042 : i1
        %2334 = arith.addi %2045, %154 overflow<nsw> : index
        %2335 = arith.select %2333, %2334, %c536870911 : index
        vector.store %2332, %304[%2335] : memref<?xf32, #amdgpu.address_space<fat_raw_buffer>>, vector<1xf32>
        %2336 = vector.extract_strided_slice %266 {offsets = [8], sizes = [1], strides = [1]} : vector<16xf32> to vector<1xf32>
        %2337 = arith.andi %626, %2050 : i1
        %2338 = arith.addi %2053, %154 overflow<nsw> : index
        %2339 = arith.select %2337, %2338, %c536870911 : index
        vector.store %2336, %304[%2339] : memref<?xf32, #amdgpu.address_space<fat_raw_buffer>>, vector<1xf32>
        %2340 = vector.extract_strided_slice %266 {offsets = [9], sizes = [1], strides = [1]} : vector<16xf32> to vector<1xf32>
        %2341 = arith.andi %626, %2058 : i1
        %2342 = arith.addi %2061, %154 overflow<nsw> : index
        %2343 = arith.select %2341, %2342, %c536870911 : index
        vector.store %2340, %304[%2343] : memref<?xf32, #amdgpu.address_space<fat_raw_buffer>>, vector<1xf32>
        %2344 = vector.extract_strided_slice %266 {offsets = [10], sizes = [1], strides = [1]} : vector<16xf32> to vector<1xf32>
        %2345 = arith.andi %626, %2066 : i1
        %2346 = arith.addi %2069, %154 overflow<nsw> : index
        %2347 = arith.select %2345, %2346, %c536870911 : index
        vector.store %2344, %304[%2347] : memref<?xf32, #amdgpu.address_space<fat_raw_buffer>>, vector<1xf32>
        %2348 = vector.extract_strided_slice %266 {offsets = [11], sizes = [1], strides = [1]} : vector<16xf32> to vector<1xf32>
        %2349 = arith.andi %626, %2074 : i1
        %2350 = arith.addi %2077, %154 overflow<nsw> : index
        %2351 = arith.select %2349, %2350, %c536870911 : index
        vector.store %2348, %304[%2351] : memref<?xf32, #amdgpu.address_space<fat_raw_buffer>>, vector<1xf32>
        %2352 = vector.extract_strided_slice %266 {offsets = [12], sizes = [1], strides = [1]} : vector<16xf32> to vector<1xf32>
        %2353 = arith.andi %626, %2082 : i1
        %2354 = arith.addi %2085, %154 overflow<nsw> : index
        %2355 = arith.select %2353, %2354, %c536870911 : index
        vector.store %2352, %304[%2355] : memref<?xf32, #amdgpu.address_space<fat_raw_buffer>>, vector<1xf32>
        %2356 = vector.extract_strided_slice %266 {offsets = [13], sizes = [1], strides = [1]} : vector<16xf32> to vector<1xf32>
        %2357 = arith.andi %626, %2090 : i1
        %2358 = arith.addi %2093, %154 overflow<nsw> : index
        %2359 = arith.select %2357, %2358, %c536870911 : index
        vector.store %2356, %304[%2359] : memref<?xf32, #amdgpu.address_space<fat_raw_buffer>>, vector<1xf32>
        %2360 = vector.extract_strided_slice %266 {offsets = [14], sizes = [1], strides = [1]} : vector<16xf32> to vector<1xf32>
        %2361 = arith.andi %626, %2098 : i1
        %2362 = arith.addi %2101, %154 overflow<nsw> : index
        %2363 = arith.select %2361, %2362, %c536870911 : index
        vector.store %2360, %304[%2363] : memref<?xf32, #amdgpu.address_space<fat_raw_buffer>>, vector<1xf32>
        %2364 = vector.extract_strided_slice %266 {offsets = [15], sizes = [1], strides = [1]} : vector<16xf32> to vector<1xf32>
        %2365 = arith.andi %626, %2106 : i1
        %2366 = arith.addi %2109, %154 overflow<nsw> : index
        %2367 = arith.select %2365, %2366, %c536870911 : index
        vector.store %2364, %304[%2367] : memref<?xf32, #amdgpu.address_space<fat_raw_buffer>>, vector<1xf32>
        %2368 = vector.extract_strided_slice %268 {offsets = [0], sizes = [1], strides = [1]} : vector<16xf32> to vector<1xf32>
        %2369 = arith.andi %692, %1986 : i1
        %2370 = arith.addi %1989, %159 overflow<nsw> : index
        %2371 = arith.select %2369, %2370, %c536870911 : index
        vector.store %2368, %304[%2371] : memref<?xf32, #amdgpu.address_space<fat_raw_buffer>>, vector<1xf32>
        %2372 = vector.extract_strided_slice %268 {offsets = [1], sizes = [1], strides = [1]} : vector<16xf32> to vector<1xf32>
        %2373 = arith.andi %692, %1994 : i1
        %2374 = arith.addi %1997, %159 overflow<nsw> : index
        %2375 = arith.select %2373, %2374, %c536870911 : index
        vector.store %2372, %304[%2375] : memref<?xf32, #amdgpu.address_space<fat_raw_buffer>>, vector<1xf32>
        %2376 = vector.extract_strided_slice %268 {offsets = [2], sizes = [1], strides = [1]} : vector<16xf32> to vector<1xf32>
        %2377 = arith.andi %692, %2002 : i1
        %2378 = arith.addi %2005, %159 overflow<nsw> : index
        %2379 = arith.select %2377, %2378, %c536870911 : index
        vector.store %2376, %304[%2379] : memref<?xf32, #amdgpu.address_space<fat_raw_buffer>>, vector<1xf32>
        %2380 = vector.extract_strided_slice %268 {offsets = [3], sizes = [1], strides = [1]} : vector<16xf32> to vector<1xf32>
        %2381 = arith.andi %692, %2010 : i1
        %2382 = arith.addi %2013, %159 overflow<nsw> : index
        %2383 = arith.select %2381, %2382, %c536870911 : index
        vector.store %2380, %304[%2383] : memref<?xf32, #amdgpu.address_space<fat_raw_buffer>>, vector<1xf32>
        %2384 = vector.extract_strided_slice %268 {offsets = [4], sizes = [1], strides = [1]} : vector<16xf32> to vector<1xf32>
        %2385 = arith.andi %692, %2018 : i1
        %2386 = arith.addi %2021, %159 overflow<nsw> : index
        %2387 = arith.select %2385, %2386, %c536870911 : index
        vector.store %2384, %304[%2387] : memref<?xf32, #amdgpu.address_space<fat_raw_buffer>>, vector<1xf32>
        %2388 = vector.extract_strided_slice %268 {offsets = [5], sizes = [1], strides = [1]} : vector<16xf32> to vector<1xf32>
        %2389 = arith.andi %692, %2026 : i1
        %2390 = arith.addi %2029, %159 overflow<nsw> : index
        %2391 = arith.select %2389, %2390, %c536870911 : index
        vector.store %2388, %304[%2391] : memref<?xf32, #amdgpu.address_space<fat_raw_buffer>>, vector<1xf32>
        %2392 = vector.extract_strided_slice %268 {offsets = [6], sizes = [1], strides = [1]} : vector<16xf32> to vector<1xf32>
        %2393 = arith.andi %692, %2034 : i1
        %2394 = arith.addi %2037, %159 overflow<nsw> : index
        %2395 = arith.select %2393, %2394, %c536870911 : index
        vector.store %2392, %304[%2395] : memref<?xf32, #amdgpu.address_space<fat_raw_buffer>>, vector<1xf32>
        %2396 = vector.extract_strided_slice %268 {offsets = [7], sizes = [1], strides = [1]} : vector<16xf32> to vector<1xf32>
        %2397 = arith.andi %692, %2042 : i1
        %2398 = arith.addi %2045, %159 overflow<nsw> : index
        %2399 = arith.select %2397, %2398, %c536870911 : index
        vector.store %2396, %304[%2399] : memref<?xf32, #amdgpu.address_space<fat_raw_buffer>>, vector<1xf32>
        %2400 = vector.extract_strided_slice %268 {offsets = [8], sizes = [1], strides = [1]} : vector<16xf32> to vector<1xf32>
        %2401 = arith.andi %692, %2050 : i1
        %2402 = arith.addi %2053, %159 overflow<nsw> : index
        %2403 = arith.select %2401, %2402, %c536870911 : index
        vector.store %2400, %304[%2403] : memref<?xf32, #amdgpu.address_space<fat_raw_buffer>>, vector<1xf32>
        %2404 = vector.extract_strided_slice %268 {offsets = [9], sizes = [1], strides = [1]} : vector<16xf32> to vector<1xf32>
        %2405 = arith.andi %692, %2058 : i1
        %2406 = arith.addi %2061, %159 overflow<nsw> : index
        %2407 = arith.select %2405, %2406, %c536870911 : index
        vector.store %2404, %304[%2407] : memref<?xf32, #amdgpu.address_space<fat_raw_buffer>>, vector<1xf32>
        %2408 = vector.extract_strided_slice %268 {offsets = [10], sizes = [1], strides = [1]} : vector<16xf32> to vector<1xf32>
        %2409 = arith.andi %692, %2066 : i1
        %2410 = arith.addi %2069, %159 overflow<nsw> : index
        %2411 = arith.select %2409, %2410, %c536870911 : index
        vector.store %2408, %304[%2411] : memref<?xf32, #amdgpu.address_space<fat_raw_buffer>>, vector<1xf32>
        %2412 = vector.extract_strided_slice %268 {offsets = [11], sizes = [1], strides = [1]} : vector<16xf32> to vector<1xf32>
        %2413 = arith.andi %692, %2074 : i1
        %2414 = arith.addi %2077, %159 overflow<nsw> : index
        %2415 = arith.select %2413, %2414, %c536870911 : index
        vector.store %2412, %304[%2415] : memref<?xf32, #amdgpu.address_space<fat_raw_buffer>>, vector<1xf32>
        %2416 = vector.extract_strided_slice %268 {offsets = [12], sizes = [1], strides = [1]} : vector<16xf32> to vector<1xf32>
        %2417 = arith.andi %692, %2082 : i1
        %2418 = arith.addi %2085, %159 overflow<nsw> : index
        %2419 = arith.select %2417, %2418, %c536870911 : index
        vector.store %2416, %304[%2419] : memref<?xf32, #amdgpu.address_space<fat_raw_buffer>>, vector<1xf32>
        %2420 = vector.extract_strided_slice %268 {offsets = [13], sizes = [1], strides = [1]} : vector<16xf32> to vector<1xf32>
        %2421 = arith.andi %692, %2090 : i1
        %2422 = arith.addi %2093, %159 overflow<nsw> : index
        %2423 = arith.select %2421, %2422, %c536870911 : index
        vector.store %2420, %304[%2423] : memref<?xf32, #amdgpu.address_space<fat_raw_buffer>>, vector<1xf32>
        %2424 = vector.extract_strided_slice %268 {offsets = [14], sizes = [1], strides = [1]} : vector<16xf32> to vector<1xf32>
        %2425 = arith.andi %692, %2098 : i1
        %2426 = arith.addi %2101, %159 overflow<nsw> : index
        %2427 = arith.select %2425, %2426, %c536870911 : index
        vector.store %2424, %304[%2427] : memref<?xf32, #amdgpu.address_space<fat_raw_buffer>>, vector<1xf32>
        %2428 = vector.extract_strided_slice %268 {offsets = [15], sizes = [1], strides = [1]} : vector<16xf32> to vector<1xf32>
        %2429 = arith.andi %692, %2106 : i1
        %2430 = arith.addi %2109, %159 overflow<nsw> : index
        %2431 = arith.select %2429, %2430, %c536870911 : index
        vector.store %2428, %304[%2431] : memref<?xf32, #amdgpu.address_space<fat_raw_buffer>>, vector<1xf32>
        %2432 = vector.extract_strided_slice %270 {offsets = [0], sizes = [1], strides = [1]} : vector<16xf32> to vector<1xf32>
        %2433 = arith.andi %758, %1986 : i1
        %2434 = arith.addi %1989, %164 overflow<nsw> : index
        %2435 = arith.select %2433, %2434, %c536870911 : index
        vector.store %2432, %304[%2435] : memref<?xf32, #amdgpu.address_space<fat_raw_buffer>>, vector<1xf32>
        %2436 = vector.extract_strided_slice %270 {offsets = [1], sizes = [1], strides = [1]} : vector<16xf32> to vector<1xf32>
        %2437 = arith.andi %758, %1994 : i1
        %2438 = arith.addi %1997, %164 overflow<nsw> : index
        %2439 = arith.select %2437, %2438, %c536870911 : index
        vector.store %2436, %304[%2439] : memref<?xf32, #amdgpu.address_space<fat_raw_buffer>>, vector<1xf32>
        %2440 = vector.extract_strided_slice %270 {offsets = [2], sizes = [1], strides = [1]} : vector<16xf32> to vector<1xf32>
        %2441 = arith.andi %758, %2002 : i1
        %2442 = arith.addi %2005, %164 overflow<nsw> : index
        %2443 = arith.select %2441, %2442, %c536870911 : index
        vector.store %2440, %304[%2443] : memref<?xf32, #amdgpu.address_space<fat_raw_buffer>>, vector<1xf32>
        %2444 = vector.extract_strided_slice %270 {offsets = [3], sizes = [1], strides = [1]} : vector<16xf32> to vector<1xf32>
        %2445 = arith.andi %758, %2010 : i1
        %2446 = arith.addi %2013, %164 overflow<nsw> : index
        %2447 = arith.select %2445, %2446, %c536870911 : index
        vector.store %2444, %304[%2447] : memref<?xf32, #amdgpu.address_space<fat_raw_buffer>>, vector<1xf32>
        %2448 = vector.extract_strided_slice %270 {offsets = [4], sizes = [1], strides = [1]} : vector<16xf32> to vector<1xf32>
        %2449 = arith.andi %758, %2018 : i1
        %2450 = arith.addi %2021, %164 overflow<nsw> : index
        %2451 = arith.select %2449, %2450, %c536870911 : index
        vector.store %2448, %304[%2451] : memref<?xf32, #amdgpu.address_space<fat_raw_buffer>>, vector<1xf32>
        %2452 = vector.extract_strided_slice %270 {offsets = [5], sizes = [1], strides = [1]} : vector<16xf32> to vector<1xf32>
        %2453 = arith.andi %758, %2026 : i1
        %2454 = arith.addi %2029, %164 overflow<nsw> : index
        %2455 = arith.select %2453, %2454, %c536870911 : index
        vector.store %2452, %304[%2455] : memref<?xf32, #amdgpu.address_space<fat_raw_buffer>>, vector<1xf32>
        %2456 = vector.extract_strided_slice %270 {offsets = [6], sizes = [1], strides = [1]} : vector<16xf32> to vector<1xf32>
        %2457 = arith.andi %758, %2034 : i1
        %2458 = arith.addi %2037, %164 overflow<nsw> : index
        %2459 = arith.select %2457, %2458, %c536870911 : index
        vector.store %2456, %304[%2459] : memref<?xf32, #amdgpu.address_space<fat_raw_buffer>>, vector<1xf32>
        %2460 = vector.extract_strided_slice %270 {offsets = [7], sizes = [1], strides = [1]} : vector<16xf32> to vector<1xf32>
        %2461 = arith.andi %758, %2042 : i1
        %2462 = arith.addi %2045, %164 overflow<nsw> : index
        %2463 = arith.select %2461, %2462, %c536870911 : index
        vector.store %2460, %304[%2463] : memref<?xf32, #amdgpu.address_space<fat_raw_buffer>>, vector<1xf32>
        %2464 = vector.extract_strided_slice %270 {offsets = [8], sizes = [1], strides = [1]} : vector<16xf32> to vector<1xf32>
        %2465 = arith.andi %758, %2050 : i1
        %2466 = arith.addi %2053, %164 overflow<nsw> : index
        %2467 = arith.select %2465, %2466, %c536870911 : index
        vector.store %2464, %304[%2467] : memref<?xf32, #amdgpu.address_space<fat_raw_buffer>>, vector<1xf32>
        %2468 = vector.extract_strided_slice %270 {offsets = [9], sizes = [1], strides = [1]} : vector<16xf32> to vector<1xf32>
        %2469 = arith.andi %758, %2058 : i1
        %2470 = arith.addi %2061, %164 overflow<nsw> : index
        %2471 = arith.select %2469, %2470, %c536870911 : index
        vector.store %2468, %304[%2471] : memref<?xf32, #amdgpu.address_space<fat_raw_buffer>>, vector<1xf32>
        %2472 = vector.extract_strided_slice %270 {offsets = [10], sizes = [1], strides = [1]} : vector<16xf32> to vector<1xf32>
        %2473 = arith.andi %758, %2066 : i1
        %2474 = arith.addi %2069, %164 overflow<nsw> : index
        %2475 = arith.select %2473, %2474, %c536870911 : index
        vector.store %2472, %304[%2475] : memref<?xf32, #amdgpu.address_space<fat_raw_buffer>>, vector<1xf32>
        %2476 = vector.extract_strided_slice %270 {offsets = [11], sizes = [1], strides = [1]} : vector<16xf32> to vector<1xf32>
        %2477 = arith.andi %758, %2074 : i1
        %2478 = arith.addi %2077, %164 overflow<nsw> : index
        %2479 = arith.select %2477, %2478, %c536870911 : index
        vector.store %2476, %304[%2479] : memref<?xf32, #amdgpu.address_space<fat_raw_buffer>>, vector<1xf32>
        %2480 = vector.extract_strided_slice %270 {offsets = [12], sizes = [1], strides = [1]} : vector<16xf32> to vector<1xf32>
        %2481 = arith.andi %758, %2082 : i1
        %2482 = arith.addi %2085, %164 overflow<nsw> : index
        %2483 = arith.select %2481, %2482, %c536870911 : index
        vector.store %2480, %304[%2483] : memref<?xf32, #amdgpu.address_space<fat_raw_buffer>>, vector<1xf32>
        %2484 = vector.extract_strided_slice %270 {offsets = [13], sizes = [1], strides = [1]} : vector<16xf32> to vector<1xf32>
        %2485 = arith.andi %758, %2090 : i1
        %2486 = arith.addi %2093, %164 overflow<nsw> : index
        %2487 = arith.select %2485, %2486, %c536870911 : index
        vector.store %2484, %304[%2487] : memref<?xf32, #amdgpu.address_space<fat_raw_buffer>>, vector<1xf32>
        %2488 = vector.extract_strided_slice %270 {offsets = [14], sizes = [1], strides = [1]} : vector<16xf32> to vector<1xf32>
        %2489 = arith.andi %758, %2098 : i1
        %2490 = arith.addi %2101, %164 overflow<nsw> : index
        %2491 = arith.select %2489, %2490, %c536870911 : index
        vector.store %2488, %304[%2491] : memref<?xf32, #amdgpu.address_space<fat_raw_buffer>>, vector<1xf32>
        %2492 = vector.extract_strided_slice %270 {offsets = [15], sizes = [1], strides = [1]} : vector<16xf32> to vector<1xf32>
        %2493 = arith.andi %758, %2106 : i1
        %2494 = arith.addi %2109, %164 overflow<nsw> : index
        %2495 = arith.select %2493, %2494, %c536870911 : index
        vector.store %2492, %304[%2495] : memref<?xf32, #amdgpu.address_space<fat_raw_buffer>>, vector<1xf32>
        %2496 = vector.extract_strided_slice %272 {offsets = [0], sizes = [1], strides = [1]} : vector<16xf32> to vector<1xf32>
        %2497 = arith.andi %824, %1986 : i1
        %2498 = arith.addi %1989, %169 overflow<nsw> : index
        %2499 = arith.select %2497, %2498, %c536870911 : index
        vector.store %2496, %304[%2499] : memref<?xf32, #amdgpu.address_space<fat_raw_buffer>>, vector<1xf32>
        %2500 = vector.extract_strided_slice %272 {offsets = [1], sizes = [1], strides = [1]} : vector<16xf32> to vector<1xf32>
        %2501 = arith.andi %824, %1994 : i1
        %2502 = arith.addi %1997, %169 overflow<nsw> : index
        %2503 = arith.select %2501, %2502, %c536870911 : index
        vector.store %2500, %304[%2503] : memref<?xf32, #amdgpu.address_space<fat_raw_buffer>>, vector<1xf32>
        %2504 = vector.extract_strided_slice %272 {offsets = [2], sizes = [1], strides = [1]} : vector<16xf32> to vector<1xf32>
        %2505 = arith.andi %824, %2002 : i1
        %2506 = arith.addi %2005, %169 overflow<nsw> : index
        %2507 = arith.select %2505, %2506, %c536870911 : index
        vector.store %2504, %304[%2507] : memref<?xf32, #amdgpu.address_space<fat_raw_buffer>>, vector<1xf32>
        %2508 = vector.extract_strided_slice %272 {offsets = [3], sizes = [1], strides = [1]} : vector<16xf32> to vector<1xf32>
        %2509 = arith.andi %824, %2010 : i1
        %2510 = arith.addi %2013, %169 overflow<nsw> : index
        %2511 = arith.select %2509, %2510, %c536870911 : index
        vector.store %2508, %304[%2511] : memref<?xf32, #amdgpu.address_space<fat_raw_buffer>>, vector<1xf32>
        %2512 = vector.extract_strided_slice %272 {offsets = [4], sizes = [1], strides = [1]} : vector<16xf32> to vector<1xf32>
        %2513 = arith.andi %824, %2018 : i1
        %2514 = arith.addi %2021, %169 overflow<nsw> : index
        %2515 = arith.select %2513, %2514, %c536870911 : index
        vector.store %2512, %304[%2515] : memref<?xf32, #amdgpu.address_space<fat_raw_buffer>>, vector<1xf32>
        %2516 = vector.extract_strided_slice %272 {offsets = [5], sizes = [1], strides = [1]} : vector<16xf32> to vector<1xf32>
        %2517 = arith.andi %824, %2026 : i1
        %2518 = arith.addi %2029, %169 overflow<nsw> : index
        %2519 = arith.select %2517, %2518, %c536870911 : index
        vector.store %2516, %304[%2519] : memref<?xf32, #amdgpu.address_space<fat_raw_buffer>>, vector<1xf32>
        %2520 = vector.extract_strided_slice %272 {offsets = [6], sizes = [1], strides = [1]} : vector<16xf32> to vector<1xf32>
        %2521 = arith.andi %824, %2034 : i1
        %2522 = arith.addi %2037, %169 overflow<nsw> : index
        %2523 = arith.select %2521, %2522, %c536870911 : index
        vector.store %2520, %304[%2523] : memref<?xf32, #amdgpu.address_space<fat_raw_buffer>>, vector<1xf32>
        %2524 = vector.extract_strided_slice %272 {offsets = [7], sizes = [1], strides = [1]} : vector<16xf32> to vector<1xf32>
        %2525 = arith.andi %824, %2042 : i1
        %2526 = arith.addi %2045, %169 overflow<nsw> : index
        %2527 = arith.select %2525, %2526, %c536870911 : index
        vector.store %2524, %304[%2527] : memref<?xf32, #amdgpu.address_space<fat_raw_buffer>>, vector<1xf32>
        %2528 = vector.extract_strided_slice %272 {offsets = [8], sizes = [1], strides = [1]} : vector<16xf32> to vector<1xf32>
        %2529 = arith.andi %824, %2050 : i1
        %2530 = arith.addi %2053, %169 overflow<nsw> : index
        %2531 = arith.select %2529, %2530, %c536870911 : index
        vector.store %2528, %304[%2531] : memref<?xf32, #amdgpu.address_space<fat_raw_buffer>>, vector<1xf32>
        %2532 = vector.extract_strided_slice %272 {offsets = [9], sizes = [1], strides = [1]} : vector<16xf32> to vector<1xf32>
        %2533 = arith.andi %824, %2058 : i1
        %2534 = arith.addi %2061, %169 overflow<nsw> : index
        %2535 = arith.select %2533, %2534, %c536870911 : index
        vector.store %2532, %304[%2535] : memref<?xf32, #amdgpu.address_space<fat_raw_buffer>>, vector<1xf32>
        %2536 = vector.extract_strided_slice %272 {offsets = [10], sizes = [1], strides = [1]} : vector<16xf32> to vector<1xf32>
        %2537 = arith.andi %824, %2066 : i1
        %2538 = arith.addi %2069, %169 overflow<nsw> : index
        %2539 = arith.select %2537, %2538, %c536870911 : index
        vector.store %2536, %304[%2539] : memref<?xf32, #amdgpu.address_space<fat_raw_buffer>>, vector<1xf32>
        %2540 = vector.extract_strided_slice %272 {offsets = [11], sizes = [1], strides = [1]} : vector<16xf32> to vector<1xf32>
        %2541 = arith.andi %824, %2074 : i1
        %2542 = arith.addi %2077, %169 overflow<nsw> : index
        %2543 = arith.select %2541, %2542, %c536870911 : index
        vector.store %2540, %304[%2543] : memref<?xf32, #amdgpu.address_space<fat_raw_buffer>>, vector<1xf32>
        %2544 = vector.extract_strided_slice %272 {offsets = [12], sizes = [1], strides = [1]} : vector<16xf32> to vector<1xf32>
        %2545 = arith.andi %824, %2082 : i1
        %2546 = arith.addi %2085, %169 overflow<nsw> : index
        %2547 = arith.select %2545, %2546, %c536870911 : index
        vector.store %2544, %304[%2547] : memref<?xf32, #amdgpu.address_space<fat_raw_buffer>>, vector<1xf32>
        %2548 = vector.extract_strided_slice %272 {offsets = [13], sizes = [1], strides = [1]} : vector<16xf32> to vector<1xf32>
        %2549 = arith.andi %824, %2090 : i1
        %2550 = arith.addi %2093, %169 overflow<nsw> : index
        %2551 = arith.select %2549, %2550, %c536870911 : index
        vector.store %2548, %304[%2551] : memref<?xf32, #amdgpu.address_space<fat_raw_buffer>>, vector<1xf32>
        %2552 = vector.extract_strided_slice %272 {offsets = [14], sizes = [1], strides = [1]} : vector<16xf32> to vector<1xf32>
        %2553 = arith.andi %824, %2098 : i1
        %2554 = arith.addi %2101, %169 overflow<nsw> : index
        %2555 = arith.select %2553, %2554, %c536870911 : index
        vector.store %2552, %304[%2555] : memref<?xf32, #amdgpu.address_space<fat_raw_buffer>>, vector<1xf32>
        %2556 = vector.extract_strided_slice %272 {offsets = [15], sizes = [1], strides = [1]} : vector<16xf32> to vector<1xf32>
        %2557 = arith.andi %824, %2106 : i1
        %2558 = arith.addi %2109, %169 overflow<nsw> : index
        %2559 = arith.select %2557, %2558, %c536870911 : index
        vector.store %2556, %304[%2559] : memref<?xf32, #amdgpu.address_space<fat_raw_buffer>>, vector<1xf32>
        %2560 = vector.extract_strided_slice %274 {offsets = [0], sizes = [1], strides = [1]} : vector<16xf32> to vector<1xf32>
        %2561 = arith.andi %890, %1986 : i1
        %2562 = arith.addi %1989, %174 overflow<nsw> : index
        %2563 = arith.select %2561, %2562, %c536870911 : index
        vector.store %2560, %304[%2563] : memref<?xf32, #amdgpu.address_space<fat_raw_buffer>>, vector<1xf32>
        %2564 = vector.extract_strided_slice %274 {offsets = [1], sizes = [1], strides = [1]} : vector<16xf32> to vector<1xf32>
        %2565 = arith.andi %890, %1994 : i1
        %2566 = arith.addi %1997, %174 overflow<nsw> : index
        %2567 = arith.select %2565, %2566, %c536870911 : index
        vector.store %2564, %304[%2567] : memref<?xf32, #amdgpu.address_space<fat_raw_buffer>>, vector<1xf32>
        %2568 = vector.extract_strided_slice %274 {offsets = [2], sizes = [1], strides = [1]} : vector<16xf32> to vector<1xf32>
        %2569 = arith.andi %890, %2002 : i1
        %2570 = arith.addi %2005, %174 overflow<nsw> : index
        %2571 = arith.select %2569, %2570, %c536870911 : index
        vector.store %2568, %304[%2571] : memref<?xf32, #amdgpu.address_space<fat_raw_buffer>>, vector<1xf32>
        %2572 = vector.extract_strided_slice %274 {offsets = [3], sizes = [1], strides = [1]} : vector<16xf32> to vector<1xf32>
        %2573 = arith.andi %890, %2010 : i1
        %2574 = arith.addi %2013, %174 overflow<nsw> : index
        %2575 = arith.select %2573, %2574, %c536870911 : index
        vector.store %2572, %304[%2575] : memref<?xf32, #amdgpu.address_space<fat_raw_buffer>>, vector<1xf32>
        %2576 = vector.extract_strided_slice %274 {offsets = [4], sizes = [1], strides = [1]} : vector<16xf32> to vector<1xf32>
        %2577 = arith.andi %890, %2018 : i1
        %2578 = arith.addi %2021, %174 overflow<nsw> : index
        %2579 = arith.select %2577, %2578, %c536870911 : index
        vector.store %2576, %304[%2579] : memref<?xf32, #amdgpu.address_space<fat_raw_buffer>>, vector<1xf32>
        %2580 = vector.extract_strided_slice %274 {offsets = [5], sizes = [1], strides = [1]} : vector<16xf32> to vector<1xf32>
        %2581 = arith.andi %890, %2026 : i1
        %2582 = arith.addi %2029, %174 overflow<nsw> : index
        %2583 = arith.select %2581, %2582, %c536870911 : index
        vector.store %2580, %304[%2583] : memref<?xf32, #amdgpu.address_space<fat_raw_buffer>>, vector<1xf32>
        %2584 = vector.extract_strided_slice %274 {offsets = [6], sizes = [1], strides = [1]} : vector<16xf32> to vector<1xf32>
        %2585 = arith.andi %890, %2034 : i1
        %2586 = arith.addi %2037, %174 overflow<nsw> : index
        %2587 = arith.select %2585, %2586, %c536870911 : index
        vector.store %2584, %304[%2587] : memref<?xf32, #amdgpu.address_space<fat_raw_buffer>>, vector<1xf32>
        %2588 = vector.extract_strided_slice %274 {offsets = [7], sizes = [1], strides = [1]} : vector<16xf32> to vector<1xf32>
        %2589 = arith.andi %890, %2042 : i1
        %2590 = arith.addi %2045, %174 overflow<nsw> : index
        %2591 = arith.select %2589, %2590, %c536870911 : index
        vector.store %2588, %304[%2591] : memref<?xf32, #amdgpu.address_space<fat_raw_buffer>>, vector<1xf32>
        %2592 = vector.extract_strided_slice %274 {offsets = [8], sizes = [1], strides = [1]} : vector<16xf32> to vector<1xf32>
        %2593 = arith.andi %890, %2050 : i1
        %2594 = arith.addi %2053, %174 overflow<nsw> : index
        %2595 = arith.select %2593, %2594, %c536870911 : index
        vector.store %2592, %304[%2595] : memref<?xf32, #amdgpu.address_space<fat_raw_buffer>>, vector<1xf32>
        %2596 = vector.extract_strided_slice %274 {offsets = [9], sizes = [1], strides = [1]} : vector<16xf32> to vector<1xf32>
        %2597 = arith.andi %890, %2058 : i1
        %2598 = arith.addi %2061, %174 overflow<nsw> : index
        %2599 = arith.select %2597, %2598, %c536870911 : index
        vector.store %2596, %304[%2599] : memref<?xf32, #amdgpu.address_space<fat_raw_buffer>>, vector<1xf32>
        %2600 = vector.extract_strided_slice %274 {offsets = [10], sizes = [1], strides = [1]} : vector<16xf32> to vector<1xf32>
        %2601 = arith.andi %890, %2066 : i1
        %2602 = arith.addi %2069, %174 overflow<nsw> : index
        %2603 = arith.select %2601, %2602, %c536870911 : index
        vector.store %2600, %304[%2603] : memref<?xf32, #amdgpu.address_space<fat_raw_buffer>>, vector<1xf32>
        %2604 = vector.extract_strided_slice %274 {offsets = [11], sizes = [1], strides = [1]} : vector<16xf32> to vector<1xf32>
        %2605 = arith.andi %890, %2074 : i1
        %2606 = arith.addi %2077, %174 overflow<nsw> : index
        %2607 = arith.select %2605, %2606, %c536870911 : index
        vector.store %2604, %304[%2607] : memref<?xf32, #amdgpu.address_space<fat_raw_buffer>>, vector<1xf32>
        %2608 = vector.extract_strided_slice %274 {offsets = [12], sizes = [1], strides = [1]} : vector<16xf32> to vector<1xf32>
        %2609 = arith.andi %890, %2082 : i1
        %2610 = arith.addi %2085, %174 overflow<nsw> : index
        %2611 = arith.select %2609, %2610, %c536870911 : index
        vector.store %2608, %304[%2611] : memref<?xf32, #amdgpu.address_space<fat_raw_buffer>>, vector<1xf32>
        %2612 = vector.extract_strided_slice %274 {offsets = [13], sizes = [1], strides = [1]} : vector<16xf32> to vector<1xf32>
        %2613 = arith.andi %890, %2090 : i1
        %2614 = arith.addi %2093, %174 overflow<nsw> : index
        %2615 = arith.select %2613, %2614, %c536870911 : index
        vector.store %2612, %304[%2615] : memref<?xf32, #amdgpu.address_space<fat_raw_buffer>>, vector<1xf32>
        %2616 = vector.extract_strided_slice %274 {offsets = [14], sizes = [1], strides = [1]} : vector<16xf32> to vector<1xf32>
        %2617 = arith.andi %890, %2098 : i1
        %2618 = arith.addi %2101, %174 overflow<nsw> : index
        %2619 = arith.select %2617, %2618, %c536870911 : index
        vector.store %2616, %304[%2619] : memref<?xf32, #amdgpu.address_space<fat_raw_buffer>>, vector<1xf32>
        %2620 = vector.extract_strided_slice %274 {offsets = [15], sizes = [1], strides = [1]} : vector<16xf32> to vector<1xf32>
        %2621 = arith.andi %890, %2106 : i1
        %2622 = arith.addi %2109, %174 overflow<nsw> : index
        %2623 = arith.select %2621, %2622, %c536870911 : index
        vector.store %2620, %304[%2623] : memref<?xf32, #amdgpu.address_space<fat_raw_buffer>>, vector<1xf32>
        %2624 = vector.extract_strided_slice %276 {offsets = [0], sizes = [1], strides = [1]} : vector<16xf32> to vector<1xf32>
        %2625 = arith.andi %956, %1986 : i1
        %2626 = arith.addi %1989, %179 overflow<nsw> : index
        %2627 = arith.select %2625, %2626, %c536870911 : index
        vector.store %2624, %304[%2627] : memref<?xf32, #amdgpu.address_space<fat_raw_buffer>>, vector<1xf32>
        %2628 = vector.extract_strided_slice %276 {offsets = [1], sizes = [1], strides = [1]} : vector<16xf32> to vector<1xf32>
        %2629 = arith.andi %956, %1994 : i1
        %2630 = arith.addi %1997, %179 overflow<nsw> : index
        %2631 = arith.select %2629, %2630, %c536870911 : index
        vector.store %2628, %304[%2631] : memref<?xf32, #amdgpu.address_space<fat_raw_buffer>>, vector<1xf32>
        %2632 = vector.extract_strided_slice %276 {offsets = [2], sizes = [1], strides = [1]} : vector<16xf32> to vector<1xf32>
        %2633 = arith.andi %956, %2002 : i1
        %2634 = arith.addi %2005, %179 overflow<nsw> : index
        %2635 = arith.select %2633, %2634, %c536870911 : index
        vector.store %2632, %304[%2635] : memref<?xf32, #amdgpu.address_space<fat_raw_buffer>>, vector<1xf32>
        %2636 = vector.extract_strided_slice %276 {offsets = [3], sizes = [1], strides = [1]} : vector<16xf32> to vector<1xf32>
        %2637 = arith.andi %956, %2010 : i1
        %2638 = arith.addi %2013, %179 overflow<nsw> : index
        %2639 = arith.select %2637, %2638, %c536870911 : index
        vector.store %2636, %304[%2639] : memref<?xf32, #amdgpu.address_space<fat_raw_buffer>>, vector<1xf32>
        %2640 = vector.extract_strided_slice %276 {offsets = [4], sizes = [1], strides = [1]} : vector<16xf32> to vector<1xf32>
        %2641 = arith.andi %956, %2018 : i1
        %2642 = arith.addi %2021, %179 overflow<nsw> : index
        %2643 = arith.select %2641, %2642, %c536870911 : index
        vector.store %2640, %304[%2643] : memref<?xf32, #amdgpu.address_space<fat_raw_buffer>>, vector<1xf32>
        %2644 = vector.extract_strided_slice %276 {offsets = [5], sizes = [1], strides = [1]} : vector<16xf32> to vector<1xf32>
        %2645 = arith.andi %956, %2026 : i1
        %2646 = arith.addi %2029, %179 overflow<nsw> : index
        %2647 = arith.select %2645, %2646, %c536870911 : index
        vector.store %2644, %304[%2647] : memref<?xf32, #amdgpu.address_space<fat_raw_buffer>>, vector<1xf32>
        %2648 = vector.extract_strided_slice %276 {offsets = [6], sizes = [1], strides = [1]} : vector<16xf32> to vector<1xf32>
        %2649 = arith.andi %956, %2034 : i1
        %2650 = arith.addi %2037, %179 overflow<nsw> : index
        %2651 = arith.select %2649, %2650, %c536870911 : index
        vector.store %2648, %304[%2651] : memref<?xf32, #amdgpu.address_space<fat_raw_buffer>>, vector<1xf32>
        %2652 = vector.extract_strided_slice %276 {offsets = [7], sizes = [1], strides = [1]} : vector<16xf32> to vector<1xf32>
        %2653 = arith.andi %956, %2042 : i1
        %2654 = arith.addi %2045, %179 overflow<nsw> : index
        %2655 = arith.select %2653, %2654, %c536870911 : index
        vector.store %2652, %304[%2655] : memref<?xf32, #amdgpu.address_space<fat_raw_buffer>>, vector<1xf32>
        %2656 = vector.extract_strided_slice %276 {offsets = [8], sizes = [1], strides = [1]} : vector<16xf32> to vector<1xf32>
        %2657 = arith.andi %956, %2050 : i1
        %2658 = arith.addi %2053, %179 overflow<nsw> : index
        %2659 = arith.select %2657, %2658, %c536870911 : index
        vector.store %2656, %304[%2659] : memref<?xf32, #amdgpu.address_space<fat_raw_buffer>>, vector<1xf32>
        %2660 = vector.extract_strided_slice %276 {offsets = [9], sizes = [1], strides = [1]} : vector<16xf32> to vector<1xf32>
        %2661 = arith.andi %956, %2058 : i1
        %2662 = arith.addi %2061, %179 overflow<nsw> : index
        %2663 = arith.select %2661, %2662, %c536870911 : index
        vector.store %2660, %304[%2663] : memref<?xf32, #amdgpu.address_space<fat_raw_buffer>>, vector<1xf32>
        %2664 = vector.extract_strided_slice %276 {offsets = [10], sizes = [1], strides = [1]} : vector<16xf32> to vector<1xf32>
        %2665 = arith.andi %956, %2066 : i1
        %2666 = arith.addi %2069, %179 overflow<nsw> : index
        %2667 = arith.select %2665, %2666, %c536870911 : index
        vector.store %2664, %304[%2667] : memref<?xf32, #amdgpu.address_space<fat_raw_buffer>>, vector<1xf32>
        %2668 = vector.extract_strided_slice %276 {offsets = [11], sizes = [1], strides = [1]} : vector<16xf32> to vector<1xf32>
        %2669 = arith.andi %956, %2074 : i1
        %2670 = arith.addi %2077, %179 overflow<nsw> : index
        %2671 = arith.select %2669, %2670, %c536870911 : index
        vector.store %2668, %304[%2671] : memref<?xf32, #amdgpu.address_space<fat_raw_buffer>>, vector<1xf32>
        %2672 = vector.extract_strided_slice %276 {offsets = [12], sizes = [1], strides = [1]} : vector<16xf32> to vector<1xf32>
        %2673 = arith.andi %956, %2082 : i1
        %2674 = arith.addi %2085, %179 overflow<nsw> : index
        %2675 = arith.select %2673, %2674, %c536870911 : index
        vector.store %2672, %304[%2675] : memref<?xf32, #amdgpu.address_space<fat_raw_buffer>>, vector<1xf32>
        %2676 = vector.extract_strided_slice %276 {offsets = [13], sizes = [1], strides = [1]} : vector<16xf32> to vector<1xf32>
        %2677 = arith.andi %956, %2090 : i1
        %2678 = arith.addi %2093, %179 overflow<nsw> : index
        %2679 = arith.select %2677, %2678, %c536870911 : index
        vector.store %2676, %304[%2679] : memref<?xf32, #amdgpu.address_space<fat_raw_buffer>>, vector<1xf32>
        %2680 = vector.extract_strided_slice %276 {offsets = [14], sizes = [1], strides = [1]} : vector<16xf32> to vector<1xf32>
        %2681 = arith.andi %956, %2098 : i1
        %2682 = arith.addi %2101, %179 overflow<nsw> : index
        %2683 = arith.select %2681, %2682, %c536870911 : index
        vector.store %2680, %304[%2683] : memref<?xf32, #amdgpu.address_space<fat_raw_buffer>>, vector<1xf32>
        %2684 = vector.extract_strided_slice %276 {offsets = [15], sizes = [1], strides = [1]} : vector<16xf32> to vector<1xf32>
        %2685 = arith.andi %956, %2106 : i1
        %2686 = arith.addi %2109, %179 overflow<nsw> : index
        %2687 = arith.select %2685, %2686, %c536870911 : index
        vector.store %2684, %304[%2687] : memref<?xf32, #amdgpu.address_space<fat_raw_buffer>>, vector<1xf32>
        %2688 = vector.extract_strided_slice %278 {offsets = [0], sizes = [1], strides = [1]} : vector<16xf32> to vector<1xf32>
        %2689 = arith.andi %1022, %1986 : i1
        %2690 = arith.addi %1989, %184 overflow<nsw> : index
        %2691 = arith.select %2689, %2690, %c536870911 : index
        vector.store %2688, %304[%2691] : memref<?xf32, #amdgpu.address_space<fat_raw_buffer>>, vector<1xf32>
        %2692 = vector.extract_strided_slice %278 {offsets = [1], sizes = [1], strides = [1]} : vector<16xf32> to vector<1xf32>
        %2693 = arith.andi %1022, %1994 : i1
        %2694 = arith.addi %1997, %184 overflow<nsw> : index
        %2695 = arith.select %2693, %2694, %c536870911 : index
        vector.store %2692, %304[%2695] : memref<?xf32, #amdgpu.address_space<fat_raw_buffer>>, vector<1xf32>
        %2696 = vector.extract_strided_slice %278 {offsets = [2], sizes = [1], strides = [1]} : vector<16xf32> to vector<1xf32>
        %2697 = arith.andi %1022, %2002 : i1
        %2698 = arith.addi %2005, %184 overflow<nsw> : index
        %2699 = arith.select %2697, %2698, %c536870911 : index
        vector.store %2696, %304[%2699] : memref<?xf32, #amdgpu.address_space<fat_raw_buffer>>, vector<1xf32>
        %2700 = vector.extract_strided_slice %278 {offsets = [3], sizes = [1], strides = [1]} : vector<16xf32> to vector<1xf32>
        %2701 = arith.andi %1022, %2010 : i1
        %2702 = arith.addi %2013, %184 overflow<nsw> : index
        %2703 = arith.select %2701, %2702, %c536870911 : index
        vector.store %2700, %304[%2703] : memref<?xf32, #amdgpu.address_space<fat_raw_buffer>>, vector<1xf32>
        %2704 = vector.extract_strided_slice %278 {offsets = [4], sizes = [1], strides = [1]} : vector<16xf32> to vector<1xf32>
        %2705 = arith.andi %1022, %2018 : i1
        %2706 = arith.addi %2021, %184 overflow<nsw> : index
        %2707 = arith.select %2705, %2706, %c536870911 : index
        vector.store %2704, %304[%2707] : memref<?xf32, #amdgpu.address_space<fat_raw_buffer>>, vector<1xf32>
        %2708 = vector.extract_strided_slice %278 {offsets = [5], sizes = [1], strides = [1]} : vector<16xf32> to vector<1xf32>
        %2709 = arith.andi %1022, %2026 : i1
        %2710 = arith.addi %2029, %184 overflow<nsw> : index
        %2711 = arith.select %2709, %2710, %c536870911 : index
        vector.store %2708, %304[%2711] : memref<?xf32, #amdgpu.address_space<fat_raw_buffer>>, vector<1xf32>
        %2712 = vector.extract_strided_slice %278 {offsets = [6], sizes = [1], strides = [1]} : vector<16xf32> to vector<1xf32>
        %2713 = arith.andi %1022, %2034 : i1
        %2714 = arith.addi %2037, %184 overflow<nsw> : index
        %2715 = arith.select %2713, %2714, %c536870911 : index
        vector.store %2712, %304[%2715] : memref<?xf32, #amdgpu.address_space<fat_raw_buffer>>, vector<1xf32>
        %2716 = vector.extract_strided_slice %278 {offsets = [7], sizes = [1], strides = [1]} : vector<16xf32> to vector<1xf32>
        %2717 = arith.andi %1022, %2042 : i1
        %2718 = arith.addi %2045, %184 overflow<nsw> : index
        %2719 = arith.select %2717, %2718, %c536870911 : index
        vector.store %2716, %304[%2719] : memref<?xf32, #amdgpu.address_space<fat_raw_buffer>>, vector<1xf32>
        %2720 = vector.extract_strided_slice %278 {offsets = [8], sizes = [1], strides = [1]} : vector<16xf32> to vector<1xf32>
        %2721 = arith.andi %1022, %2050 : i1
        %2722 = arith.addi %2053, %184 overflow<nsw> : index
        %2723 = arith.select %2721, %2722, %c536870911 : index
        vector.store %2720, %304[%2723] : memref<?xf32, #amdgpu.address_space<fat_raw_buffer>>, vector<1xf32>
        %2724 = vector.extract_strided_slice %278 {offsets = [9], sizes = [1], strides = [1]} : vector<16xf32> to vector<1xf32>
        %2725 = arith.andi %1022, %2058 : i1
        %2726 = arith.addi %2061, %184 overflow<nsw> : index
        %2727 = arith.select %2725, %2726, %c536870911 : index
        vector.store %2724, %304[%2727] : memref<?xf32, #amdgpu.address_space<fat_raw_buffer>>, vector<1xf32>
        %2728 = vector.extract_strided_slice %278 {offsets = [10], sizes = [1], strides = [1]} : vector<16xf32> to vector<1xf32>
        %2729 = arith.andi %1022, %2066 : i1
        %2730 = arith.addi %2069, %184 overflow<nsw> : index
        %2731 = arith.select %2729, %2730, %c536870911 : index
        vector.store %2728, %304[%2731] : memref<?xf32, #amdgpu.address_space<fat_raw_buffer>>, vector<1xf32>
        %2732 = vector.extract_strided_slice %278 {offsets = [11], sizes = [1], strides = [1]} : vector<16xf32> to vector<1xf32>
        %2733 = arith.andi %1022, %2074 : i1
        %2734 = arith.addi %2077, %184 overflow<nsw> : index
        %2735 = arith.select %2733, %2734, %c536870911 : index
        vector.store %2732, %304[%2735] : memref<?xf32, #amdgpu.address_space<fat_raw_buffer>>, vector<1xf32>
        %2736 = vector.extract_strided_slice %278 {offsets = [12], sizes = [1], strides = [1]} : vector<16xf32> to vector<1xf32>
        %2737 = arith.andi %1022, %2082 : i1
        %2738 = arith.addi %2085, %184 overflow<nsw> : index
        %2739 = arith.select %2737, %2738, %c536870911 : index
        vector.store %2736, %304[%2739] : memref<?xf32, #amdgpu.address_space<fat_raw_buffer>>, vector<1xf32>
        %2740 = vector.extract_strided_slice %278 {offsets = [13], sizes = [1], strides = [1]} : vector<16xf32> to vector<1xf32>
        %2741 = arith.andi %1022, %2090 : i1
        %2742 = arith.addi %2093, %184 overflow<nsw> : index
        %2743 = arith.select %2741, %2742, %c536870911 : index
        vector.store %2740, %304[%2743] : memref<?xf32, #amdgpu.address_space<fat_raw_buffer>>, vector<1xf32>
        %2744 = vector.extract_strided_slice %278 {offsets = [14], sizes = [1], strides = [1]} : vector<16xf32> to vector<1xf32>
        %2745 = arith.andi %1022, %2098 : i1
        %2746 = arith.addi %2101, %184 overflow<nsw> : index
        %2747 = arith.select %2745, %2746, %c536870911 : index
        vector.store %2744, %304[%2747] : memref<?xf32, #amdgpu.address_space<fat_raw_buffer>>, vector<1xf32>
        %2748 = vector.extract_strided_slice %278 {offsets = [15], sizes = [1], strides = [1]} : vector<16xf32> to vector<1xf32>
        %2749 = arith.andi %1022, %2106 : i1
        %2750 = arith.addi %2109, %184 overflow<nsw> : index
        %2751 = arith.select %2749, %2750, %c536870911 : index
        vector.store %2748, %304[%2751] : memref<?xf32, #amdgpu.address_space<fat_raw_buffer>>, vector<1xf32>
        %2752 = vector.extract_strided_slice %280 {offsets = [0], sizes = [1], strides = [1]} : vector<16xf32> to vector<1xf32>
        %2753 = arith.andi %1088, %1986 : i1
        %2754 = arith.addi %1989, %189 overflow<nsw> : index
        %2755 = arith.select %2753, %2754, %c536870911 : index
        vector.store %2752, %304[%2755] : memref<?xf32, #amdgpu.address_space<fat_raw_buffer>>, vector<1xf32>
        %2756 = vector.extract_strided_slice %280 {offsets = [1], sizes = [1], strides = [1]} : vector<16xf32> to vector<1xf32>
        %2757 = arith.andi %1088, %1994 : i1
        %2758 = arith.addi %1997, %189 overflow<nsw> : index
        %2759 = arith.select %2757, %2758, %c536870911 : index
        vector.store %2756, %304[%2759] : memref<?xf32, #amdgpu.address_space<fat_raw_buffer>>, vector<1xf32>
        %2760 = vector.extract_strided_slice %280 {offsets = [2], sizes = [1], strides = [1]} : vector<16xf32> to vector<1xf32>
        %2761 = arith.andi %1088, %2002 : i1
        %2762 = arith.addi %2005, %189 overflow<nsw> : index
        %2763 = arith.select %2761, %2762, %c536870911 : index
        vector.store %2760, %304[%2763] : memref<?xf32, #amdgpu.address_space<fat_raw_buffer>>, vector<1xf32>
        %2764 = vector.extract_strided_slice %280 {offsets = [3], sizes = [1], strides = [1]} : vector<16xf32> to vector<1xf32>
        %2765 = arith.andi %1088, %2010 : i1
        %2766 = arith.addi %2013, %189 overflow<nsw> : index
        %2767 = arith.select %2765, %2766, %c536870911 : index
        vector.store %2764, %304[%2767] : memref<?xf32, #amdgpu.address_space<fat_raw_buffer>>, vector<1xf32>
        %2768 = vector.extract_strided_slice %280 {offsets = [4], sizes = [1], strides = [1]} : vector<16xf32> to vector<1xf32>
        %2769 = arith.andi %1088, %2018 : i1
        %2770 = arith.addi %2021, %189 overflow<nsw> : index
        %2771 = arith.select %2769, %2770, %c536870911 : index
        vector.store %2768, %304[%2771] : memref<?xf32, #amdgpu.address_space<fat_raw_buffer>>, vector<1xf32>
        %2772 = vector.extract_strided_slice %280 {offsets = [5], sizes = [1], strides = [1]} : vector<16xf32> to vector<1xf32>
        %2773 = arith.andi %1088, %2026 : i1
        %2774 = arith.addi %2029, %189 overflow<nsw> : index
        %2775 = arith.select %2773, %2774, %c536870911 : index
        vector.store %2772, %304[%2775] : memref<?xf32, #amdgpu.address_space<fat_raw_buffer>>, vector<1xf32>
        %2776 = vector.extract_strided_slice %280 {offsets = [6], sizes = [1], strides = [1]} : vector<16xf32> to vector<1xf32>
        %2777 = arith.andi %1088, %2034 : i1
        %2778 = arith.addi %2037, %189 overflow<nsw> : index
        %2779 = arith.select %2777, %2778, %c536870911 : index
        vector.store %2776, %304[%2779] : memref<?xf32, #amdgpu.address_space<fat_raw_buffer>>, vector<1xf32>
        %2780 = vector.extract_strided_slice %280 {offsets = [7], sizes = [1], strides = [1]} : vector<16xf32> to vector<1xf32>
        %2781 = arith.andi %1088, %2042 : i1
        %2782 = arith.addi %2045, %189 overflow<nsw> : index
        %2783 = arith.select %2781, %2782, %c536870911 : index
        vector.store %2780, %304[%2783] : memref<?xf32, #amdgpu.address_space<fat_raw_buffer>>, vector<1xf32>
        %2784 = vector.extract_strided_slice %280 {offsets = [8], sizes = [1], strides = [1]} : vector<16xf32> to vector<1xf32>
        %2785 = arith.andi %1088, %2050 : i1
        %2786 = arith.addi %2053, %189 overflow<nsw> : index
        %2787 = arith.select %2785, %2786, %c536870911 : index
        vector.store %2784, %304[%2787] : memref<?xf32, #amdgpu.address_space<fat_raw_buffer>>, vector<1xf32>
        %2788 = vector.extract_strided_slice %280 {offsets = [9], sizes = [1], strides = [1]} : vector<16xf32> to vector<1xf32>
        %2789 = arith.andi %1088, %2058 : i1
        %2790 = arith.addi %2061, %189 overflow<nsw> : index
        %2791 = arith.select %2789, %2790, %c536870911 : index
        vector.store %2788, %304[%2791] : memref<?xf32, #amdgpu.address_space<fat_raw_buffer>>, vector<1xf32>
        %2792 = vector.extract_strided_slice %280 {offsets = [10], sizes = [1], strides = [1]} : vector<16xf32> to vector<1xf32>
        %2793 = arith.andi %1088, %2066 : i1
        %2794 = arith.addi %2069, %189 overflow<nsw> : index
        %2795 = arith.select %2793, %2794, %c536870911 : index
        vector.store %2792, %304[%2795] : memref<?xf32, #amdgpu.address_space<fat_raw_buffer>>, vector<1xf32>
        %2796 = vector.extract_strided_slice %280 {offsets = [11], sizes = [1], strides = [1]} : vector<16xf32> to vector<1xf32>
        %2797 = arith.andi %1088, %2074 : i1
        %2798 = arith.addi %2077, %189 overflow<nsw> : index
        %2799 = arith.select %2797, %2798, %c536870911 : index
        vector.store %2796, %304[%2799] : memref<?xf32, #amdgpu.address_space<fat_raw_buffer>>, vector<1xf32>
        %2800 = vector.extract_strided_slice %280 {offsets = [12], sizes = [1], strides = [1]} : vector<16xf32> to vector<1xf32>
        %2801 = arith.andi %1088, %2082 : i1
        %2802 = arith.addi %2085, %189 overflow<nsw> : index
        %2803 = arith.select %2801, %2802, %c536870911 : index
        vector.store %2800, %304[%2803] : memref<?xf32, #amdgpu.address_space<fat_raw_buffer>>, vector<1xf32>
        %2804 = vector.extract_strided_slice %280 {offsets = [13], sizes = [1], strides = [1]} : vector<16xf32> to vector<1xf32>
        %2805 = arith.andi %1088, %2090 : i1
        %2806 = arith.addi %2093, %189 overflow<nsw> : index
        %2807 = arith.select %2805, %2806, %c536870911 : index
        vector.store %2804, %304[%2807] : memref<?xf32, #amdgpu.address_space<fat_raw_buffer>>, vector<1xf32>
        %2808 = vector.extract_strided_slice %280 {offsets = [14], sizes = [1], strides = [1]} : vector<16xf32> to vector<1xf32>
        %2809 = arith.andi %1088, %2098 : i1
        %2810 = arith.addi %2101, %189 overflow<nsw> : index
        %2811 = arith.select %2809, %2810, %c536870911 : index
        vector.store %2808, %304[%2811] : memref<?xf32, #amdgpu.address_space<fat_raw_buffer>>, vector<1xf32>
        %2812 = vector.extract_strided_slice %280 {offsets = [15], sizes = [1], strides = [1]} : vector<16xf32> to vector<1xf32>
        %2813 = arith.andi %1088, %2106 : i1
        %2814 = arith.addi %2109, %189 overflow<nsw> : index
        %2815 = arith.select %2813, %2814, %c536870911 : index
        vector.store %2812, %304[%2815] : memref<?xf32, #amdgpu.address_space<fat_raw_buffer>>, vector<1xf32>
        return
      }
    }
  }
  func.func @isolated_benchmark(%arg0: tensor<641x4096xf16>, %arg1: tensor<2880x4096xf16>, %arg2: tensor<641x2880xf32>) -> tensor<641x2880xf32> {
    %0 = flow.dispatch @gemm::@gemm(%arg0, %arg1, %arg2) : (tensor<641x4096xf16>, tensor<2880x4096xf16>, tensor<641x2880xf32>) -> %arg2
    return %0 : tensor<641x2880xf32>
  }
}
