#map = affine_map<()[s0, s1, s2, s3] -> ((s1 * 128 + s0 floordiv 2) mod 532 + ((s2 + s3 * 2 - ((s2 + s3 * 2) floordiv 8) * 7) floordiv 4) * 532)>
#map1 = affine_map<()[s0] -> (s0 * 8 - (s0 floordiv 2) * 16)>
#map2 = affine_map<()[s0, s1, s2, s3] -> (s1 * 128 + s0 floordiv 2 - ((s1 * 128 + s0 floordiv 2 + 256) floordiv 532) * 532 + ((s2 + s3 * 2 - ((s2 + s3 * 2) floordiv 8) * 7) floordiv 4) * 532 + 256)>
#map3 = affine_map<()[s0, s1, s2, s3] -> (s1 * 128 + s0 floordiv 2 - ((s1 * 128 + s0 floordiv 2 + 512) floordiv 532) * 532 + ((s2 + s3 * 2 - ((s2 + s3 * 2) floordiv 8) * 7) floordiv 4) * 532 + 512)>
#map4 = affine_map<()[s0, s1, s2, s3] -> (s1 * 128 + s2 * 1036 + s3 * 2072 + s0 floordiv 2 - ((s1 * 128 + s0 floordiv 2) floordiv 1036) * 1036 + ((s2 + s3 * 2) floordiv 8) * 1036 - ((s2 + s3 * 2 + (s2 + s3 * 2) floordiv 8) floordiv 4) * 4144)>
#map5 = affine_map<()[s0, s1, s2, s3] -> (s1 * 128 + s2 * 1036 + s3 * 2072 + s0 floordiv 2 - ((s1 * 128 + s0 floordiv 2 + 256) floordiv 1036) * 1036 + ((s2 + s3 * 2) floordiv 8) * 1036 - ((s2 + s3 * 2 + (s2 + s3 * 2) floordiv 8) floordiv 4) * 4144 + 256)>
#map6 = affine_map<()[s0, s1, s2, s3] -> (s1 * 128 + s2 * 1036 + s3 * 2072 + s0 floordiv 2 - ((s1 * 128 + s0 floordiv 2 + 512) floordiv 1036) * 1036 + ((s2 + s3 * 2) floordiv 8) * 1036 - ((s2 + s3 * 2 + (s2 + s3 * 2) floordiv 8) floordiv 4) * 4144 + 512)>
#map7 = affine_map<()[s0, s1, s2, s3] -> (s1 * 128 + s2 * 1036 + s3 * 2072 + s0 floordiv 2 - ((s1 * 128 + s0 floordiv 2 + 768) floordiv 1036) * 1036 + ((s2 + s3 * 2) floordiv 8) * 1036 - ((s2 + s3 * 2 + (s2 + s3 * 2) floordiv 8) floordiv 4) * 4144 + 768)>
#map8 = affine_map<()[s0, s1, s2, s3] -> (s1 * 128 + s2 * 1036 + s3 * 2072 + s0 floordiv 2 - ((s1 * 128 + s0 floordiv 2 + 1024) floordiv 1036) * 1036 + ((s2 + s3 * 2) floordiv 8) * 1036 - ((s2 + s3 * 2 + (s2 + s3 * 2) floordiv 8) floordiv 4) * 4144 + 1024)>
#map9 = affine_map<()[s0] -> ((s0 floordiv 64) * 133 + 133)>
#map10 = affine_map<()[s0, s1] -> ((s1 * 128 + s0 floordiv 2) mod 532)>
#map11 = affine_map<()[s0, s1] -> (s1 * 128 + s0 floordiv 2 - ((s1 * 128 + s0 floordiv 2 + 256) floordiv 532) * 532 + 256)>
#map12 = affine_map<()[s0, s1] -> (s1 * 128 + s0 floordiv 2 - ((s1 * 128 + s0 floordiv 2 + 512) floordiv 532) * 532 + 512)>
#map13 = affine_map<()[s0] -> (s0 * 518 + 518)>
#map14 = affine_map<()[s0, s1] -> ((s1 * 128 + s0 floordiv 2) mod 1036)>
#map15 = affine_map<()[s0, s1] -> (s1 * 128 + s0 floordiv 2 - ((s1 * 128 + s0 floordiv 2 + 256) floordiv 1036) * 1036 + 256)>
#map16 = affine_map<()[s0, s1] -> (s1 * 128 + s0 floordiv 2 - ((s1 * 128 + s0 floordiv 2 + 512) floordiv 1036) * 1036 + 512)>
#map17 = affine_map<()[s0, s1] -> (s1 * 128 + s0 floordiv 2 - ((s1 * 128 + s0 floordiv 2 + 768) floordiv 1036) * 1036 + 768)>
#map18 = affine_map<()[s0, s1] -> (s1 * 128 + s0 floordiv 2 - ((s1 * 128 + s0 floordiv 2 + 1024) floordiv 1036) * 1036 + 1024)>
#map19 = affine_map<()[s0, s1] -> (s0 + s1 * 518 - (s0 floordiv 32) * 32)>
#map20 = affine_map<()[s0] -> (((s0 mod 64) floordiv 32) * 4)>
#map21 = affine_map<()[s0] -> (((s0 mod 64) floordiv 32) * 4 + 8)>
#map22 = affine_map<()[s0, s1] -> (s0 + s1 * 518 - (s0 floordiv 32) * 32 + 32)>
#map23 = affine_map<()[s0, s1] -> (s0 + s1 * 518 - (s0 floordiv 32) * 32 + 64)>
#map24 = affine_map<()[s0, s1] -> (s0 + s1 * 518 - (s0 floordiv 32) * 32 + 96)>
#map25 = affine_map<()[s0, s1] -> (s0 + s1 * 518 - (s0 floordiv 32) * 32 + 128)>
#map26 = affine_map<()[s0, s1] -> (s0 + s1 * 518 - (s0 floordiv 32) * 32 + 160)>
#map27 = affine_map<()[s0, s1] -> (s0 + s1 * 518 - (s0 floordiv 32) * 32 + 192)>
#map28 = affine_map<()[s0, s1] -> (s0 + s1 * 518 - (s0 floordiv 32) * 32 + 224)>
#map29 = affine_map<()[s0, s1] -> (s0 + s1 * 518 - (s0 floordiv 32) * 32 + 256)>
#map30 = affine_map<()[s0, s1] -> (s0 + s1 * 518 - (s0 floordiv 32) * 32 + 288)>
#map31 = affine_map<()[s0, s1] -> (s0 + s1 * 518 - (s0 floordiv 32) * 32 + 320)>
#map32 = affine_map<()[s0, s1] -> (s0 + s1 * 518 - (s0 floordiv 32) * 32 + 352)>
#map33 = affine_map<()[s0, s1] -> (s0 + s1 * 518 - (s0 floordiv 32) * 32 + 384)>
#map34 = affine_map<()[s0, s1] -> (s0 + s1 * 518 - (s0 floordiv 32) * 32 + 416)>
#map35 = affine_map<()[s0, s1] -> (s0 + s1 * 518 - (s0 floordiv 32) * 32 + 448)>
#map36 = affine_map<()[s0, s1] -> (s0 + s1 * 518 - (s0 floordiv 32) * 32 + 480)>
#map37 = affine_map<()[s0, s1] -> (s0 + s1 * 518 - (s0 floordiv 32) * 32 + 512)>
#map38 = affine_map<()[s0] -> (s0 mod 32 + (s0 floordiv 64) * 133)>
#map39 = affine_map<()[s0] -> (s0 mod 32 + (s0 floordiv 64) * 133 + 32)>
#map40 = affine_map<()[s0] -> (s0 mod 32 + (s0 floordiv 64) * 133 + 64)>
#map41 = affine_map<()[s0] -> (s0 mod 32 + (s0 floordiv 64) * 133 + 96)>
#map42 = affine_map<()[s0] -> (s0 mod 32 + (s0 floordiv 64) * 133 + 128)>
#map43 = affine_map<()[s0, s1] -> (s0 * 16 + s1 * 8 - (s1 floordiv 2) * 16 + 16)>
#map44 = affine_map<()[s0, s1] -> (s0 * 1036 + s1 * 518 + 518)>
#map45 = affine_map<()[s0] -> (s0 * 1036 + 1036)>
#map46 = affine_map<()[s0, s1, s2, s3] -> (s0 + s1 * 1036 + s2 * 2072 + s3 * 518 - (s0 floordiv 32) * 32 + ((s1 + s2 * 2) floordiv 8) * 1036 - ((s1 + s2 * 2 + (s1 + s2 * 2) floordiv 8) floordiv 4) * 4144)>
#map47 = affine_map<()[s0, s1] -> (s0 * 532 + (s1 floordiv 64) * 133 + 133)>
#map48 = affine_map<()[s0] -> (s0 * 532 + 532)>
#map49 = affine_map<()[s0, s1, s2] -> (((s0 + s1 * 2 - ((s0 + s1 * 2) floordiv 8) * 7) floordiv 4) * 532 + (s2 floordiv 64) * 133 + ((s2 mod 64) floordiv 32) * 4)>
#map50 = affine_map<()[s0, s1] -> (((s0 + s1 * 2 - ((s0 + s1 * 2) floordiv 8) * 7) floordiv 4) * 532)>
#map51 = affine_map<()[s0, s1] -> (s0 * 1036 + s1 * 2072 + ((s0 + s1 * 2) floordiv 8) * 1036 - ((s0 + s1 * 2 + (s0 + s1 * 2) floordiv 8) floordiv 4) * 4144)>
#map52 = affine_map<()[s0] -> ((s0 floordiv 64) * 133 + ((s0 mod 64) floordiv 32) * 4)>
#map53 = affine_map<()[s0, s1, s2] -> (((s0 + s1 * 2 - ((s0 + s1 * 2) floordiv 8) * 7) floordiv 4) * 532 + (s2 floordiv 64) * 133 + ((s2 mod 64) floordiv 32) * 4 + 1)>
#map54 = affine_map<()[s0] -> ((s0 floordiv 64) * 133 + ((s0 mod 64) floordiv 32) * 4 + 1)>
#map55 = affine_map<()[s0, s1, s2] -> (((s0 + s1 * 2 - ((s0 + s1 * 2) floordiv 8) * 7) floordiv 4) * 532 + (s2 floordiv 64) * 133 + ((s2 mod 64) floordiv 32) * 4 + 2)>
#map56 = affine_map<()[s0] -> ((s0 floordiv 64) * 133 + ((s0 mod 64) floordiv 32) * 4 + 2)>
#map57 = affine_map<()[s0, s1, s2] -> (((s0 + s1 * 2 - ((s0 + s1 * 2) floordiv 8) * 7) floordiv 4) * 532 + (s2 floordiv 64) * 133 + ((s2 mod 64) floordiv 32) * 4 + 3)>
#map58 = affine_map<()[s0] -> ((s0 floordiv 64) * 133 + ((s0 mod 64) floordiv 32) * 4 + 3)>
#map59 = affine_map<()[s0, s1, s2] -> (((s0 + s1 * 2 - ((s0 + s1 * 2) floordiv 8) * 7) floordiv 4) * 532 + (s2 floordiv 64) * 133 + ((s2 mod 64) floordiv 32) * 4 + 8)>
#map60 = affine_map<()[s0] -> ((s0 floordiv 64) * 133 + ((s0 mod 64) floordiv 32) * 4 + 8)>
#map61 = affine_map<()[s0, s1, s2] -> (((s0 + s1 * 2 - ((s0 + s1 * 2) floordiv 8) * 7) floordiv 4) * 532 + (s2 floordiv 64) * 133 + ((s2 mod 64) floordiv 32) * 4 + 9)>
#map62 = affine_map<()[s0] -> ((s0 floordiv 64) * 133 + ((s0 mod 64) floordiv 32) * 4 + 9)>
#map63 = affine_map<()[s0, s1, s2] -> (((s0 + s1 * 2 - ((s0 + s1 * 2) floordiv 8) * 7) floordiv 4) * 532 + (s2 floordiv 64) * 133 + ((s2 mod 64) floordiv 32) * 4 + 10)>
#map64 = affine_map<()[s0] -> ((s0 floordiv 64) * 133 + ((s0 mod 64) floordiv 32) * 4 + 10)>
#map65 = affine_map<()[s0, s1, s2] -> (((s0 + s1 * 2 - ((s0 + s1 * 2) floordiv 8) * 7) floordiv 4) * 532 + (s2 floordiv 64) * 133 + ((s2 mod 64) floordiv 32) * 4 + 11)>
#map66 = affine_map<()[s0] -> ((s0 floordiv 64) * 133 + ((s0 mod 64) floordiv 32) * 4 + 11)>
#map67 = affine_map<()[s0, s1, s2] -> (((s0 + s1 * 2 - ((s0 + s1 * 2) floordiv 8) * 7) floordiv 4) * 532 + (s2 floordiv 64) * 133 + ((s2 mod 64) floordiv 32) * 4 + 16)>
#map68 = affine_map<()[s0] -> ((s0 floordiv 64) * 133 + ((s0 mod 64) floordiv 32) * 4 + 16)>
#map69 = affine_map<()[s0, s1, s2] -> (((s0 + s1 * 2 - ((s0 + s1 * 2) floordiv 8) * 7) floordiv 4) * 532 + (s2 floordiv 64) * 133 + ((s2 mod 64) floordiv 32) * 4 + 17)>
#map70 = affine_map<()[s0] -> ((s0 floordiv 64) * 133 + ((s0 mod 64) floordiv 32) * 4 + 17)>
#map71 = affine_map<()[s0, s1, s2] -> (((s0 + s1 * 2 - ((s0 + s1 * 2) floordiv 8) * 7) floordiv 4) * 532 + (s2 floordiv 64) * 133 + ((s2 mod 64) floordiv 32) * 4 + 18)>
#map72 = affine_map<()[s0] -> ((s0 floordiv 64) * 133 + ((s0 mod 64) floordiv 32) * 4 + 18)>
#map73 = affine_map<()[s0, s1, s2] -> (((s0 + s1 * 2 - ((s0 + s1 * 2) floordiv 8) * 7) floordiv 4) * 532 + (s2 floordiv 64) * 133 + ((s2 mod 64) floordiv 32) * 4 + 19)>
#map74 = affine_map<()[s0] -> ((s0 floordiv 64) * 133 + ((s0 mod 64) floordiv 32) * 4 + 19)>
#map75 = affine_map<()[s0, s1, s2] -> (((s0 + s1 * 2 - ((s0 + s1 * 2) floordiv 8) * 7) floordiv 4) * 532 + (s2 floordiv 64) * 133 + ((s2 mod 64) floordiv 32) * 4 + 24)>
#map76 = affine_map<()[s0] -> ((s0 floordiv 64) * 133 + ((s0 mod 64) floordiv 32) * 4 + 24)>
#map77 = affine_map<()[s0, s1, s2] -> (((s0 + s1 * 2 - ((s0 + s1 * 2) floordiv 8) * 7) floordiv 4) * 532 + (s2 floordiv 64) * 133 + ((s2 mod 64) floordiv 32) * 4 + 25)>
#map78 = affine_map<()[s0] -> ((s0 floordiv 64) * 133 + ((s0 mod 64) floordiv 32) * 4 + 25)>
#map79 = affine_map<()[s0, s1, s2] -> (((s0 + s1 * 2 - ((s0 + s1 * 2) floordiv 8) * 7) floordiv 4) * 532 + (s2 floordiv 64) * 133 + ((s2 mod 64) floordiv 32) * 4 + 26)>
#map80 = affine_map<()[s0] -> ((s0 floordiv 64) * 133 + ((s0 mod 64) floordiv 32) * 4 + 26)>
#map81 = affine_map<()[s0, s1, s2] -> (((s0 + s1 * 2 - ((s0 + s1 * 2) floordiv 8) * 7) floordiv 4) * 532 + (s2 floordiv 64) * 133 + ((s2 mod 64) floordiv 32) * 4 + 27)>
#map82 = affine_map<()[s0] -> ((s0 floordiv 64) * 133 + ((s0 mod 64) floordiv 32) * 4 + 27)>
#map83 = affine_map<()[s0, s1, s2, s3] -> (s0 + s1 * 1036 + s2 * 2072 + s3 * 518 - (s0 floordiv 32) * 32 + ((s1 + s2 * 2) floordiv 8) * 1036 - ((s1 + s2 * 2 + (s1 + s2 * 2) floordiv 8) floordiv 4) * 4144 + 32)>
#map84 = affine_map<()[s0, s1, s2, s3] -> (s0 + s1 * 1036 + s2 * 2072 + s3 * 518 - (s0 floordiv 32) * 32 + ((s1 + s2 * 2) floordiv 8) * 1036 - ((s1 + s2 * 2 + (s1 + s2 * 2) floordiv 8) floordiv 4) * 4144 + 64)>
#map85 = affine_map<()[s0, s1, s2, s3] -> (s0 + s1 * 1036 + s2 * 2072 + s3 * 518 - (s0 floordiv 32) * 32 + ((s1 + s2 * 2) floordiv 8) * 1036 - ((s1 + s2 * 2 + (s1 + s2 * 2) floordiv 8) floordiv 4) * 4144 + 96)>
#map86 = affine_map<()[s0, s1, s2, s3] -> (s0 + s1 * 1036 + s2 * 2072 + s3 * 518 - (s0 floordiv 32) * 32 + ((s1 + s2 * 2) floordiv 8) * 1036 - ((s1 + s2 * 2 + (s1 + s2 * 2) floordiv 8) floordiv 4) * 4144 + 128)>
#map87 = affine_map<()[s0, s1, s2, s3] -> (s0 + s1 * 1036 + s2 * 2072 + s3 * 518 - (s0 floordiv 32) * 32 + ((s1 + s2 * 2) floordiv 8) * 1036 - ((s1 + s2 * 2 + (s1 + s2 * 2) floordiv 8) floordiv 4) * 4144 + 160)>
#map88 = affine_map<()[s0, s1, s2, s3] -> (s0 + s1 * 1036 + s2 * 2072 + s3 * 518 - (s0 floordiv 32) * 32 + ((s1 + s2 * 2) floordiv 8) * 1036 - ((s1 + s2 * 2 + (s1 + s2 * 2) floordiv 8) floordiv 4) * 4144 + 192)>
#map89 = affine_map<()[s0, s1, s2, s3] -> (s0 + s1 * 1036 + s2 * 2072 + s3 * 518 - (s0 floordiv 32) * 32 + ((s1 + s2 * 2) floordiv 8) * 1036 - ((s1 + s2 * 2 + (s1 + s2 * 2) floordiv 8) floordiv 4) * 4144 + 224)>
#map90 = affine_map<()[s0, s1, s2, s3] -> (s0 + s1 * 1036 + s2 * 2072 + s3 * 518 - (s0 floordiv 32) * 32 + ((s1 + s2 * 2) floordiv 8) * 1036 - ((s1 + s2 * 2 + (s1 + s2 * 2) floordiv 8) floordiv 4) * 4144 + 256)>
#map91 = affine_map<()[s0, s1, s2, s3] -> (s0 + s1 * 1036 + s2 * 2072 + s3 * 518 - (s0 floordiv 32) * 32 + ((s1 + s2 * 2) floordiv 8) * 1036 - ((s1 + s2 * 2 + (s1 + s2 * 2) floordiv 8) floordiv 4) * 4144 + 288)>
#map92 = affine_map<()[s0, s1, s2, s3] -> (s0 + s1 * 1036 + s2 * 2072 + s3 * 518 - (s0 floordiv 32) * 32 + ((s1 + s2 * 2) floordiv 8) * 1036 - ((s1 + s2 * 2 + (s1 + s2 * 2) floordiv 8) floordiv 4) * 4144 + 320)>
#map93 = affine_map<()[s0, s1, s2, s3] -> (s0 + s1 * 1036 + s2 * 2072 + s3 * 518 - (s0 floordiv 32) * 32 + ((s1 + s2 * 2) floordiv 8) * 1036 - ((s1 + s2 * 2 + (s1 + s2 * 2) floordiv 8) floordiv 4) * 4144 + 352)>
#map94 = affine_map<()[s0, s1, s2, s3] -> (s0 + s1 * 1036 + s2 * 2072 + s3 * 518 - (s0 floordiv 32) * 32 + ((s1 + s2 * 2) floordiv 8) * 1036 - ((s1 + s2 * 2 + (s1 + s2 * 2) floordiv 8) floordiv 4) * 4144 + 384)>
#map95 = affine_map<()[s0, s1, s2, s3] -> (s0 + s1 * 1036 + s2 * 2072 + s3 * 518 - (s0 floordiv 32) * 32 + ((s1 + s2 * 2) floordiv 8) * 1036 - ((s1 + s2 * 2 + (s1 + s2 * 2) floordiv 8) floordiv 4) * 4144 + 416)>
#map96 = affine_map<()[s0, s1, s2, s3] -> (s0 + s1 * 1036 + s2 * 2072 + s3 * 518 - (s0 floordiv 32) * 32 + ((s1 + s2 * 2) floordiv 8) * 1036 - ((s1 + s2 * 2 + (s1 + s2 * 2) floordiv 8) floordiv 4) * 4144 + 448)>
#map97 = affine_map<()[s0, s1, s2, s3] -> (s0 + s1 * 1036 + s2 * 2072 + s3 * 518 - (s0 floordiv 32) * 32 + ((s1 + s2 * 2) floordiv 8) * 1036 - ((s1 + s2 * 2 + (s1 + s2 * 2) floordiv 8) floordiv 4) * 4144 + 480)>
#map98 = affine_map<()[s0, s1, s2, s3] -> (s0 + s1 * 1036 + s2 * 2072 + s3 * 518 - (s0 floordiv 32) * 32 + ((s1 + s2 * 2) floordiv 8) * 1036 - ((s1 + s2 * 2 + (s1 + s2 * 2) floordiv 8) floordiv 4) * 4144 + 512)>
#map99 = affine_map<()[s0, s1, s2] -> (((s0 + s1 * 2 - ((s0 + s1 * 2) floordiv 8) * 7) floordiv 4) * 532 + (s2 floordiv 64) * 133 + ((s2 mod 64) floordiv 32) * 4 + 32)>
#map100 = affine_map<()[s0] -> ((s0 floordiv 64) * 133 + ((s0 mod 64) floordiv 32) * 4 + 32)>
#map101 = affine_map<()[s0, s1, s2] -> (((s0 + s1 * 2 - ((s0 + s1 * 2) floordiv 8) * 7) floordiv 4) * 532 + (s2 floordiv 64) * 133 + ((s2 mod 64) floordiv 32) * 4 + 33)>
#map102 = affine_map<()[s0] -> ((s0 floordiv 64) * 133 + ((s0 mod 64) floordiv 32) * 4 + 33)>
#map103 = affine_map<()[s0, s1, s2] -> (((s0 + s1 * 2 - ((s0 + s1 * 2) floordiv 8) * 7) floordiv 4) * 532 + (s2 floordiv 64) * 133 + ((s2 mod 64) floordiv 32) * 4 + 34)>
#map104 = affine_map<()[s0] -> ((s0 floordiv 64) * 133 + ((s0 mod 64) floordiv 32) * 4 + 34)>
#map105 = affine_map<()[s0, s1, s2] -> (((s0 + s1 * 2 - ((s0 + s1 * 2) floordiv 8) * 7) floordiv 4) * 532 + (s2 floordiv 64) * 133 + ((s2 mod 64) floordiv 32) * 4 + 35)>
#map106 = affine_map<()[s0] -> ((s0 floordiv 64) * 133 + ((s0 mod 64) floordiv 32) * 4 + 35)>
#map107 = affine_map<()[s0, s1, s2] -> (((s0 + s1 * 2 - ((s0 + s1 * 2) floordiv 8) * 7) floordiv 4) * 532 + (s2 floordiv 64) * 133 + ((s2 mod 64) floordiv 32) * 4 + 40)>
#map108 = affine_map<()[s0] -> ((s0 floordiv 64) * 133 + ((s0 mod 64) floordiv 32) * 4 + 40)>
#map109 = affine_map<()[s0, s1, s2] -> (((s0 + s1 * 2 - ((s0 + s1 * 2) floordiv 8) * 7) floordiv 4) * 532 + (s2 floordiv 64) * 133 + ((s2 mod 64) floordiv 32) * 4 + 41)>
#map110 = affine_map<()[s0] -> ((s0 floordiv 64) * 133 + ((s0 mod 64) floordiv 32) * 4 + 41)>
#map111 = affine_map<()[s0, s1, s2] -> (((s0 + s1 * 2 - ((s0 + s1 * 2) floordiv 8) * 7) floordiv 4) * 532 + (s2 floordiv 64) * 133 + ((s2 mod 64) floordiv 32) * 4 + 42)>
#map112 = affine_map<()[s0] -> ((s0 floordiv 64) * 133 + ((s0 mod 64) floordiv 32) * 4 + 42)>
#map113 = affine_map<()[s0, s1, s2] -> (((s0 + s1 * 2 - ((s0 + s1 * 2) floordiv 8) * 7) floordiv 4) * 532 + (s2 floordiv 64) * 133 + ((s2 mod 64) floordiv 32) * 4 + 43)>
#map114 = affine_map<()[s0] -> ((s0 floordiv 64) * 133 + ((s0 mod 64) floordiv 32) * 4 + 43)>
#map115 = affine_map<()[s0, s1, s2] -> (((s0 + s1 * 2 - ((s0 + s1 * 2) floordiv 8) * 7) floordiv 4) * 532 + (s2 floordiv 64) * 133 + ((s2 mod 64) floordiv 32) * 4 + 48)>
#map116 = affine_map<()[s0] -> ((s0 floordiv 64) * 133 + ((s0 mod 64) floordiv 32) * 4 + 48)>
#map117 = affine_map<()[s0, s1, s2] -> (((s0 + s1 * 2 - ((s0 + s1 * 2) floordiv 8) * 7) floordiv 4) * 532 + (s2 floordiv 64) * 133 + ((s2 mod 64) floordiv 32) * 4 + 49)>
#map118 = affine_map<()[s0] -> ((s0 floordiv 64) * 133 + ((s0 mod 64) floordiv 32) * 4 + 49)>
#map119 = affine_map<()[s0, s1, s2] -> (((s0 + s1 * 2 - ((s0 + s1 * 2) floordiv 8) * 7) floordiv 4) * 532 + (s2 floordiv 64) * 133 + ((s2 mod 64) floordiv 32) * 4 + 50)>
#map120 = affine_map<()[s0] -> ((s0 floordiv 64) * 133 + ((s0 mod 64) floordiv 32) * 4 + 50)>
#map121 = affine_map<()[s0, s1, s2] -> (((s0 + s1 * 2 - ((s0 + s1 * 2) floordiv 8) * 7) floordiv 4) * 532 + (s2 floordiv 64) * 133 + ((s2 mod 64) floordiv 32) * 4 + 51)>
#map122 = affine_map<()[s0] -> ((s0 floordiv 64) * 133 + ((s0 mod 64) floordiv 32) * 4 + 51)>
#map123 = affine_map<()[s0, s1, s2] -> (((s0 + s1 * 2 - ((s0 + s1 * 2) floordiv 8) * 7) floordiv 4) * 532 + (s2 floordiv 64) * 133 + ((s2 mod 64) floordiv 32) * 4 + 56)>
#map124 = affine_map<()[s0] -> ((s0 floordiv 64) * 133 + ((s0 mod 64) floordiv 32) * 4 + 56)>
#map125 = affine_map<()[s0, s1, s2] -> (((s0 + s1 * 2 - ((s0 + s1 * 2) floordiv 8) * 7) floordiv 4) * 532 + (s2 floordiv 64) * 133 + ((s2 mod 64) floordiv 32) * 4 + 57)>
#map126 = affine_map<()[s0] -> ((s0 floordiv 64) * 133 + ((s0 mod 64) floordiv 32) * 4 + 57)>
#map127 = affine_map<()[s0, s1, s2] -> (((s0 + s1 * 2 - ((s0 + s1 * 2) floordiv 8) * 7) floordiv 4) * 532 + (s2 floordiv 64) * 133 + ((s2 mod 64) floordiv 32) * 4 + 58)>
#map128 = affine_map<()[s0] -> ((s0 floordiv 64) * 133 + ((s0 mod 64) floordiv 32) * 4 + 58)>
#map129 = affine_map<()[s0, s1, s2] -> (((s0 + s1 * 2 - ((s0 + s1 * 2) floordiv 8) * 7) floordiv 4) * 532 + (s2 floordiv 64) * 133 + ((s2 mod 64) floordiv 32) * 4 + 59)>
#map130 = affine_map<()[s0] -> ((s0 floordiv 64) * 133 + ((s0 mod 64) floordiv 32) * 4 + 59)>
#map131 = affine_map<()[s0, s1, s2] -> (((s0 + s1 * 2 - ((s0 + s1 * 2) floordiv 8) * 7) floordiv 4) * 532 + (s2 floordiv 64) * 133 + ((s2 mod 64) floordiv 32) * 4 + 64)>
#map132 = affine_map<()[s0] -> ((s0 floordiv 64) * 133 + ((s0 mod 64) floordiv 32) * 4 + 64)>
#map133 = affine_map<()[s0, s1, s2] -> (((s0 + s1 * 2 - ((s0 + s1 * 2) floordiv 8) * 7) floordiv 4) * 532 + (s2 floordiv 64) * 133 + ((s2 mod 64) floordiv 32) * 4 + 65)>
#map134 = affine_map<()[s0] -> ((s0 floordiv 64) * 133 + ((s0 mod 64) floordiv 32) * 4 + 65)>
#map135 = affine_map<()[s0, s1, s2] -> (((s0 + s1 * 2 - ((s0 + s1 * 2) floordiv 8) * 7) floordiv 4) * 532 + (s2 floordiv 64) * 133 + ((s2 mod 64) floordiv 32) * 4 + 66)>
#map136 = affine_map<()[s0] -> ((s0 floordiv 64) * 133 + ((s0 mod 64) floordiv 32) * 4 + 66)>
#map137 = affine_map<()[s0, s1, s2] -> (((s0 + s1 * 2 - ((s0 + s1 * 2) floordiv 8) * 7) floordiv 4) * 532 + (s2 floordiv 64) * 133 + ((s2 mod 64) floordiv 32) * 4 + 67)>
#map138 = affine_map<()[s0] -> ((s0 floordiv 64) * 133 + ((s0 mod 64) floordiv 32) * 4 + 67)>
#map139 = affine_map<()[s0, s1, s2] -> (((s0 + s1 * 2 - ((s0 + s1 * 2) floordiv 8) * 7) floordiv 4) * 532 + (s2 floordiv 64) * 133 + ((s2 mod 64) floordiv 32) * 4 + 72)>
#map140 = affine_map<()[s0] -> ((s0 floordiv 64) * 133 + ((s0 mod 64) floordiv 32) * 4 + 72)>
#map141 = affine_map<()[s0, s1, s2] -> (((s0 + s1 * 2 - ((s0 + s1 * 2) floordiv 8) * 7) floordiv 4) * 532 + (s2 floordiv 64) * 133 + ((s2 mod 64) floordiv 32) * 4 + 73)>
#map142 = affine_map<()[s0] -> ((s0 floordiv 64) * 133 + ((s0 mod 64) floordiv 32) * 4 + 73)>
#map143 = affine_map<()[s0, s1, s2] -> (((s0 + s1 * 2 - ((s0 + s1 * 2) floordiv 8) * 7) floordiv 4) * 532 + (s2 floordiv 64) * 133 + ((s2 mod 64) floordiv 32) * 4 + 74)>
#map144 = affine_map<()[s0] -> ((s0 floordiv 64) * 133 + ((s0 mod 64) floordiv 32) * 4 + 74)>
#map145 = affine_map<()[s0, s1, s2] -> (((s0 + s1 * 2 - ((s0 + s1 * 2) floordiv 8) * 7) floordiv 4) * 532 + (s2 floordiv 64) * 133 + ((s2 mod 64) floordiv 32) * 4 + 75)>
#map146 = affine_map<()[s0] -> ((s0 floordiv 64) * 133 + ((s0 mod 64) floordiv 32) * 4 + 75)>
#map147 = affine_map<()[s0, s1, s2] -> (((s0 + s1 * 2 - ((s0 + s1 * 2) floordiv 8) * 7) floordiv 4) * 532 + (s2 floordiv 64) * 133 + ((s2 mod 64) floordiv 32) * 4 + 80)>
#map148 = affine_map<()[s0] -> ((s0 floordiv 64) * 133 + ((s0 mod 64) floordiv 32) * 4 + 80)>
#map149 = affine_map<()[s0, s1, s2] -> (((s0 + s1 * 2 - ((s0 + s1 * 2) floordiv 8) * 7) floordiv 4) * 532 + (s2 floordiv 64) * 133 + ((s2 mod 64) floordiv 32) * 4 + 81)>
#map150 = affine_map<()[s0] -> ((s0 floordiv 64) * 133 + ((s0 mod 64) floordiv 32) * 4 + 81)>
#map151 = affine_map<()[s0, s1, s2] -> (((s0 + s1 * 2 - ((s0 + s1 * 2) floordiv 8) * 7) floordiv 4) * 532 + (s2 floordiv 64) * 133 + ((s2 mod 64) floordiv 32) * 4 + 82)>
#map152 = affine_map<()[s0] -> ((s0 floordiv 64) * 133 + ((s0 mod 64) floordiv 32) * 4 + 82)>
#map153 = affine_map<()[s0, s1, s2] -> (((s0 + s1 * 2 - ((s0 + s1 * 2) floordiv 8) * 7) floordiv 4) * 532 + (s2 floordiv 64) * 133 + ((s2 mod 64) floordiv 32) * 4 + 83)>
#map154 = affine_map<()[s0] -> ((s0 floordiv 64) * 133 + ((s0 mod 64) floordiv 32) * 4 + 83)>
#map155 = affine_map<()[s0, s1, s2] -> (((s0 + s1 * 2 - ((s0 + s1 * 2) floordiv 8) * 7) floordiv 4) * 532 + (s2 floordiv 64) * 133 + ((s2 mod 64) floordiv 32) * 4 + 88)>
#map156 = affine_map<()[s0] -> ((s0 floordiv 64) * 133 + ((s0 mod 64) floordiv 32) * 4 + 88)>
#map157 = affine_map<()[s0, s1, s2] -> (((s0 + s1 * 2 - ((s0 + s1 * 2) floordiv 8) * 7) floordiv 4) * 532 + (s2 floordiv 64) * 133 + ((s2 mod 64) floordiv 32) * 4 + 89)>
#map158 = affine_map<()[s0] -> ((s0 floordiv 64) * 133 + ((s0 mod 64) floordiv 32) * 4 + 89)>
#map159 = affine_map<()[s0, s1, s2] -> (((s0 + s1 * 2 - ((s0 + s1 * 2) floordiv 8) * 7) floordiv 4) * 532 + (s2 floordiv 64) * 133 + ((s2 mod 64) floordiv 32) * 4 + 90)>
#map160 = affine_map<()[s0] -> ((s0 floordiv 64) * 133 + ((s0 mod 64) floordiv 32) * 4 + 90)>
#map161 = affine_map<()[s0, s1, s2] -> (((s0 + s1 * 2 - ((s0 + s1 * 2) floordiv 8) * 7) floordiv 4) * 532 + (s2 floordiv 64) * 133 + ((s2 mod 64) floordiv 32) * 4 + 91)>
#map162 = affine_map<()[s0] -> ((s0 floordiv 64) * 133 + ((s0 mod 64) floordiv 32) * 4 + 91)>
#map163 = affine_map<()[s0, s1, s2] -> (((s0 + s1 * 2 - ((s0 + s1 * 2) floordiv 8) * 7) floordiv 4) * 532 + (s2 floordiv 64) * 133 + ((s2 mod 64) floordiv 32) * 4 + 96)>
#map164 = affine_map<()[s0] -> ((s0 floordiv 64) * 133 + ((s0 mod 64) floordiv 32) * 4 + 96)>
#map165 = affine_map<()[s0, s1, s2] -> (((s0 + s1 * 2 - ((s0 + s1 * 2) floordiv 8) * 7) floordiv 4) * 532 + (s2 floordiv 64) * 133 + ((s2 mod 64) floordiv 32) * 4 + 97)>
#map166 = affine_map<()[s0] -> ((s0 floordiv 64) * 133 + ((s0 mod 64) floordiv 32) * 4 + 97)>
#map167 = affine_map<()[s0, s1, s2] -> (((s0 + s1 * 2 - ((s0 + s1 * 2) floordiv 8) * 7) floordiv 4) * 532 + (s2 floordiv 64) * 133 + ((s2 mod 64) floordiv 32) * 4 + 98)>
#map168 = affine_map<()[s0] -> ((s0 floordiv 64) * 133 + ((s0 mod 64) floordiv 32) * 4 + 98)>
#map169 = affine_map<()[s0, s1, s2] -> (((s0 + s1 * 2 - ((s0 + s1 * 2) floordiv 8) * 7) floordiv 4) * 532 + (s2 floordiv 64) * 133 + ((s2 mod 64) floordiv 32) * 4 + 99)>
#map170 = affine_map<()[s0] -> ((s0 floordiv 64) * 133 + ((s0 mod 64) floordiv 32) * 4 + 99)>
#map171 = affine_map<()[s0, s1, s2] -> (((s0 + s1 * 2 - ((s0 + s1 * 2) floordiv 8) * 7) floordiv 4) * 532 + (s2 floordiv 64) * 133 + ((s2 mod 64) floordiv 32) * 4 + 104)>
#map172 = affine_map<()[s0] -> ((s0 floordiv 64) * 133 + ((s0 mod 64) floordiv 32) * 4 + 104)>
#map173 = affine_map<()[s0, s1, s2] -> (((s0 + s1 * 2 - ((s0 + s1 * 2) floordiv 8) * 7) floordiv 4) * 532 + (s2 floordiv 64) * 133 + ((s2 mod 64) floordiv 32) * 4 + 105)>
#map174 = affine_map<()[s0] -> ((s0 floordiv 64) * 133 + ((s0 mod 64) floordiv 32) * 4 + 105)>
#map175 = affine_map<()[s0, s1, s2] -> (((s0 + s1 * 2 - ((s0 + s1 * 2) floordiv 8) * 7) floordiv 4) * 532 + (s2 floordiv 64) * 133 + ((s2 mod 64) floordiv 32) * 4 + 106)>
#map176 = affine_map<()[s0] -> ((s0 floordiv 64) * 133 + ((s0 mod 64) floordiv 32) * 4 + 106)>
#map177 = affine_map<()[s0, s1, s2] -> (((s0 + s1 * 2 - ((s0 + s1 * 2) floordiv 8) * 7) floordiv 4) * 532 + (s2 floordiv 64) * 133 + ((s2 mod 64) floordiv 32) * 4 + 107)>
#map178 = affine_map<()[s0] -> ((s0 floordiv 64) * 133 + ((s0 mod 64) floordiv 32) * 4 + 107)>
#map179 = affine_map<()[s0, s1, s2] -> (((s0 + s1 * 2 - ((s0 + s1 * 2) floordiv 8) * 7) floordiv 4) * 532 + (s2 floordiv 64) * 133 + ((s2 mod 64) floordiv 32) * 4 + 112)>
#map180 = affine_map<()[s0] -> ((s0 floordiv 64) * 133 + ((s0 mod 64) floordiv 32) * 4 + 112)>
#map181 = affine_map<()[s0, s1, s2] -> (((s0 + s1 * 2 - ((s0 + s1 * 2) floordiv 8) * 7) floordiv 4) * 532 + (s2 floordiv 64) * 133 + ((s2 mod 64) floordiv 32) * 4 + 113)>
#map182 = affine_map<()[s0] -> ((s0 floordiv 64) * 133 + ((s0 mod 64) floordiv 32) * 4 + 113)>
#map183 = affine_map<()[s0, s1, s2] -> (((s0 + s1 * 2 - ((s0 + s1 * 2) floordiv 8) * 7) floordiv 4) * 532 + (s2 floordiv 64) * 133 + ((s2 mod 64) floordiv 32) * 4 + 114)>
#map184 = affine_map<()[s0] -> ((s0 floordiv 64) * 133 + ((s0 mod 64) floordiv 32) * 4 + 114)>
#map185 = affine_map<()[s0, s1, s2] -> (((s0 + s1 * 2 - ((s0 + s1 * 2) floordiv 8) * 7) floordiv 4) * 532 + (s2 floordiv 64) * 133 + ((s2 mod 64) floordiv 32) * 4 + 115)>
#map186 = affine_map<()[s0] -> ((s0 floordiv 64) * 133 + ((s0 mod 64) floordiv 32) * 4 + 115)>
#map187 = affine_map<()[s0, s1, s2] -> (((s0 + s1 * 2 - ((s0 + s1 * 2) floordiv 8) * 7) floordiv 4) * 532 + (s2 floordiv 64) * 133 + ((s2 mod 64) floordiv 32) * 4 + 120)>
#map188 = affine_map<()[s0] -> ((s0 floordiv 64) * 133 + ((s0 mod 64) floordiv 32) * 4 + 120)>
#map189 = affine_map<()[s0, s1, s2] -> (((s0 + s1 * 2 - ((s0 + s1 * 2) floordiv 8) * 7) floordiv 4) * 532 + (s2 floordiv 64) * 133 + ((s2 mod 64) floordiv 32) * 4 + 121)>
#map190 = affine_map<()[s0] -> ((s0 floordiv 64) * 133 + ((s0 mod 64) floordiv 32) * 4 + 121)>
#map191 = affine_map<()[s0, s1, s2] -> (((s0 + s1 * 2 - ((s0 + s1 * 2) floordiv 8) * 7) floordiv 4) * 532 + (s2 floordiv 64) * 133 + ((s2 mod 64) floordiv 32) * 4 + 122)>
#map192 = affine_map<()[s0] -> ((s0 floordiv 64) * 133 + ((s0 mod 64) floordiv 32) * 4 + 122)>
#map193 = affine_map<()[s0, s1, s2] -> (((s0 + s1 * 2 - ((s0 + s1 * 2) floordiv 8) * 7) floordiv 4) * 532 + (s2 floordiv 64) * 133 + ((s2 mod 64) floordiv 32) * 4 + 123)>
#map194 = affine_map<()[s0] -> ((s0 floordiv 64) * 133 + ((s0 mod 64) floordiv 32) * 4 + 123)>
#map195 = affine_map<()[s0, s1, s2] -> (((s0 + s1 * 2 - ((s0 + s1 * 2) floordiv 8) * 7) floordiv 4) * 532 + (s2 floordiv 64) * 133 + ((s2 mod 64) floordiv 32) * 4 + 128)>
#map196 = affine_map<()[s0] -> ((s0 floordiv 64) * 133 + ((s0 mod 64) floordiv 32) * 4 + 128)>
#map197 = affine_map<()[s0, s1, s2] -> (((s0 + s1 * 2 - ((s0 + s1 * 2) floordiv 8) * 7) floordiv 4) * 532 + (s2 floordiv 64) * 133 + ((s2 mod 64) floordiv 32) * 4 + 129)>
#map198 = affine_map<()[s0] -> ((s0 floordiv 64) * 133 + ((s0 mod 64) floordiv 32) * 4 + 129)>
#map199 = affine_map<()[s0, s1, s2] -> (((s0 + s1 * 2 - ((s0 + s1 * 2) floordiv 8) * 7) floordiv 4) * 532 + (s2 floordiv 64) * 133 + ((s2 mod 64) floordiv 32) * 4 + 130)>
#map200 = affine_map<()[s0] -> ((s0 floordiv 64) * 133 + ((s0 mod 64) floordiv 32) * 4 + 130)>
#map201 = affine_map<()[s0, s1, s2] -> (((s0 + s1 * 2 - ((s0 + s1 * 2) floordiv 8) * 7) floordiv 4) * 532 + (s2 floordiv 64) * 133 + ((s2 mod 64) floordiv 32) * 4 + 131)>
#map202 = affine_map<()[s0] -> ((s0 floordiv 64) * 133 + ((s0 mod 64) floordiv 32) * 4 + 131)>
#map203 = affine_map<()[s0, s1, s2] -> (((s0 + s1 * 2 - ((s0 + s1 * 2) floordiv 8) * 7) floordiv 4) * 532 + (s2 floordiv 64) * 133 + ((s2 mod 64) floordiv 32) * 4 + 136)>
#map204 = affine_map<()[s0] -> ((s0 floordiv 64) * 133 + ((s0 mod 64) floordiv 32) * 4 + 136)>
#map205 = affine_map<()[s0, s1, s2] -> (((s0 + s1 * 2 - ((s0 + s1 * 2) floordiv 8) * 7) floordiv 4) * 532 + (s2 floordiv 64) * 133 + ((s2 mod 64) floordiv 32) * 4 + 137)>
#map206 = affine_map<()[s0] -> ((s0 floordiv 64) * 133 + ((s0 mod 64) floordiv 32) * 4 + 137)>
#map207 = affine_map<()[s0, s1, s2] -> (((s0 + s1 * 2 - ((s0 + s1 * 2) floordiv 8) * 7) floordiv 4) * 532 + (s2 floordiv 64) * 133 + ((s2 mod 64) floordiv 32) * 4 + 138)>
#map208 = affine_map<()[s0] -> ((s0 floordiv 64) * 133 + ((s0 mod 64) floordiv 32) * 4 + 138)>
#map209 = affine_map<()[s0, s1, s2] -> (((s0 + s1 * 2 - ((s0 + s1 * 2) floordiv 8) * 7) floordiv 4) * 532 + (s2 floordiv 64) * 133 + ((s2 mod 64) floordiv 32) * 4 + 139)>
#map210 = affine_map<()[s0] -> ((s0 floordiv 64) * 133 + ((s0 mod 64) floordiv 32) * 4 + 139)>
#map211 = affine_map<()[s0, s1, s2] -> (((s0 + s1 * 2 - ((s0 + s1 * 2) floordiv 8) * 7) floordiv 4) * 532 + (s2 floordiv 64) * 133 + ((s2 mod 64) floordiv 32) * 4 + 144)>
#map212 = affine_map<()[s0] -> ((s0 floordiv 64) * 133 + ((s0 mod 64) floordiv 32) * 4 + 144)>
#map213 = affine_map<()[s0, s1, s2] -> (((s0 + s1 * 2 - ((s0 + s1 * 2) floordiv 8) * 7) floordiv 4) * 532 + (s2 floordiv 64) * 133 + ((s2 mod 64) floordiv 32) * 4 + 145)>
#map214 = affine_map<()[s0] -> ((s0 floordiv 64) * 133 + ((s0 mod 64) floordiv 32) * 4 + 145)>
#map215 = affine_map<()[s0, s1, s2] -> (((s0 + s1 * 2 - ((s0 + s1 * 2) floordiv 8) * 7) floordiv 4) * 532 + (s2 floordiv 64) * 133 + ((s2 mod 64) floordiv 32) * 4 + 146)>
#map216 = affine_map<()[s0] -> ((s0 floordiv 64) * 133 + ((s0 mod 64) floordiv 32) * 4 + 146)>
#map217 = affine_map<()[s0, s1, s2] -> (((s0 + s1 * 2 - ((s0 + s1 * 2) floordiv 8) * 7) floordiv 4) * 532 + (s2 floordiv 64) * 133 + ((s2 mod 64) floordiv 32) * 4 + 147)>
#map218 = affine_map<()[s0] -> ((s0 floordiv 64) * 133 + ((s0 mod 64) floordiv 32) * 4 + 147)>
#map219 = affine_map<()[s0, s1, s2] -> (((s0 + s1 * 2 - ((s0 + s1 * 2) floordiv 8) * 7) floordiv 4) * 532 + (s2 floordiv 64) * 133 + ((s2 mod 64) floordiv 32) * 4 + 152)>
#map220 = affine_map<()[s0] -> ((s0 floordiv 64) * 133 + ((s0 mod 64) floordiv 32) * 4 + 152)>
#map221 = affine_map<()[s0, s1, s2] -> (((s0 + s1 * 2 - ((s0 + s1 * 2) floordiv 8) * 7) floordiv 4) * 532 + (s2 floordiv 64) * 133 + ((s2 mod 64) floordiv 32) * 4 + 153)>
#map222 = affine_map<()[s0] -> ((s0 floordiv 64) * 133 + ((s0 mod 64) floordiv 32) * 4 + 153)>
#map223 = affine_map<()[s0, s1, s2] -> (((s0 + s1 * 2 - ((s0 + s1 * 2) floordiv 8) * 7) floordiv 4) * 532 + (s2 floordiv 64) * 133 + ((s2 mod 64) floordiv 32) * 4 + 154)>
#map224 = affine_map<()[s0] -> ((s0 floordiv 64) * 133 + ((s0 mod 64) floordiv 32) * 4 + 154)>
#map225 = affine_map<()[s0, s1, s2] -> (((s0 + s1 * 2 - ((s0 + s1 * 2) floordiv 8) * 7) floordiv 4) * 532 + (s2 floordiv 64) * 133 + ((s2 mod 64) floordiv 32) * 4 + 155)>
#map226 = affine_map<()[s0] -> ((s0 floordiv 64) * 133 + ((s0 mod 64) floordiv 32) * 4 + 155)>
#translation = #iree_codegen.translation_info<pipeline = None workgroup_size = [256, 2, 1] subgroup_size = 64>
module attributes {transform.with_named_sequence} {
  stream.executable private @gemm {
    stream.executable.export public @gemm workgroups() -> (index, index, index) {
      %c2 = arith.constant 2 : index
      %c4 = arith.constant 4 : index
      %c1 = arith.constant 1 : index
      stream.return %c2, %c4, %c1 : index, index, index
    }
    builtin.module {
      func.func @gemm(%arg0: !stream.binding, %arg1: !stream.binding, %arg2: !stream.binding) attributes {translation_info = #translation} {
        %cst = arith.constant dense<0.000000e+00> : vector<4xf16>
        %cst_0 = arith.constant dense<[0, 1, 2, 3, 4, 5, 6, 7]> : vector<8xi32>
        %cst_1 = arith.constant dense<1073741823> : vector<8xindex>
        %c4096_i14 = arith.constant 4096 : i14
        %c536870911 = arith.constant 536870911 : index
        %c2147483643_i32 = arith.constant 2147483643 : i32
        %c536870910 = arith.constant 536870910 : index
        %c255 = arith.constant 255 : index
        %c1036 = arith.constant 1036 : index
        %c2147483645_i32 = arith.constant 2147483645 : i32
        %c1073741822 = arith.constant 1073741822 : index
        %c4096 = arith.constant 4096 : index
        %c706 = arith.constant 706 : index
        %c1 = arith.constant 1 : index
        %c532 = arith.constant 532 : index
        %c41440 = arith.constant 41440 : index
        %c0 = arith.constant 0 : index
        %cst_2 = arith.constant dense<0.000000e+00> : vector<16xf32>
        %block_id_x = gpu.block_id  x upper_bound 2
        %block_id_y = gpu.block_id  y upper_bound 4
        %thread_id_x = gpu.thread_id  x upper_bound 256
        %thread_id_y = gpu.thread_id  y upper_bound 2
        %alloc = memref.alloc() : memref<62720xi8, #gpu.address_space<workgroup>>
        %view = memref.view %alloc[%c0][] : memref<62720xi8, #gpu.address_space<workgroup>> to memref<1036x20xf16, #gpu.address_space<workgroup>>
        %view_3 = memref.view %alloc[%c41440][] : memref<62720xi8, #gpu.address_space<workgroup>> to memref<532x20xf16, #gpu.address_space<workgroup>>
        %0 = stream.binding.subspan %arg0[%c0] : !stream.binding -> memref<706x4096xf16, strided<[4096, 1], offset: ?>>
        %1 = affine.apply #map()[%thread_id_x, %thread_id_y, %block_id_x, %block_id_y]
        %2 = arith.cmpi slt, %1, %c706 : index
        %3 = vector.broadcast %2 : i1 to vector<8xi1>
        %4 = affine.apply #map1()[%thread_id_x]
        %5 = arith.muli %1, %c4096 overflow<nsw> : index
        %6 = arith.addi %5, %4 overflow<nsw> : index
        %base_buffer, %offset, %sizes:2, %strides:2 = memref.extract_strided_metadata %0 : memref<706x4096xf16, strided<[4096, 1], offset: ?>> -> memref<f16>, index, index, index, index, index
        %reinterpret_cast = memref.reinterpret_cast %0 to offset: [%offset], sizes: [%c1073741822], strides: [1] : memref<706x4096xf16, strided<[4096, 1], offset: ?>> to memref<?xf16, strided<[1], offset: ?>>
        %7 = amdgpu.fat_raw_buffer_cast %reinterpret_cast validBytes(%c2147483645_i32) cacheSwizzleStride(%c4096_i14) resetOffset : memref<?xf16, strided<[1], offset: ?>> to memref<?xf16, #amdgpu.address_space<fat_raw_buffer>>
        %8 = arith.index_cast %6 : index to i32
        %9 = vector.broadcast %8 : i32 to vector<8xi32>
        %10 = arith.addi %9, %cst_0 : vector<8xi32>
        %11 = arith.index_cast %10 : vector<8xi32> to vector<8xindex>
        %12 = arith.select %3, %11, %cst_1 : vector<8xi1>, vector<8xindex>
        %13 = vector.extract %12[0] : index from vector<8xindex>
        %14 = vector.load %7[%13] : memref<?xf16, #amdgpu.address_space<fat_raw_buffer>>, vector<8xf16>
        %15 = affine.apply #map2()[%thread_id_x, %thread_id_y, %block_id_x, %block_id_y]
        %16 = arith.cmpi slt, %15, %c706 : index
        %17 = vector.broadcast %16 : i1 to vector<8xi1>
        %18 = arith.muli %15, %c4096 overflow<nsw> : index
        %19 = arith.addi %18, %4 overflow<nsw> : index
        %20 = arith.index_cast %19 : index to i32
        %21 = vector.broadcast %20 : i32 to vector<8xi32>
        %22 = arith.addi %21, %cst_0 : vector<8xi32>
        %23 = arith.index_cast %22 : vector<8xi32> to vector<8xindex>
        %24 = arith.select %17, %23, %cst_1 : vector<8xi1>, vector<8xindex>
        %25 = vector.extract %24[0] : index from vector<8xindex>
        %26 = vector.load %7[%25] : memref<?xf16, #amdgpu.address_space<fat_raw_buffer>>, vector<8xf16>
        %27 = affine.apply #map3()[%thread_id_x, %thread_id_y, %block_id_x, %block_id_y]
        %28 = arith.cmpi slt, %27, %c706 : index
        %29 = vector.broadcast %28 : i1 to vector<8xi1>
        %30 = arith.muli %27, %c4096 overflow<nsw> : index
        %31 = arith.addi %30, %4 overflow<nsw> : index
        %32 = arith.index_cast %31 : index to i32
        %33 = vector.broadcast %32 : i32 to vector<8xi32>
        %34 = arith.addi %33, %cst_0 : vector<8xi32>
        %35 = arith.index_cast %34 : vector<8xi32> to vector<8xindex>
        %36 = arith.select %29, %35, %cst_1 : vector<8xi1>, vector<8xindex>
        %37 = vector.extract %36[0] : index from vector<8xindex>
        %38 = vector.load %7[%37] : memref<?xf16, #amdgpu.address_space<fat_raw_buffer>>, vector<8xf16>
        %39 = stream.binding.subspan %arg1[%c0] : !stream.binding -> memref<4096x4096xf16, strided<[4096, 1], offset: ?>>
        %40 = affine.apply #map4()[%thread_id_x, %thread_id_y, %block_id_x, %block_id_y]
        %41 = arith.cmpi slt, %40, %c4096 : index
        %42 = vector.broadcast %41 : i1 to vector<8xi1>
        %43 = arith.muli %40, %c4096 overflow<nsw> : index
        %44 = arith.addi %43, %4 overflow<nsw> : index
        %base_buffer_4, %offset_5, %sizes_6:2, %strides_7:2 = memref.extract_strided_metadata %39 : memref<4096x4096xf16, strided<[4096, 1], offset: ?>> -> memref<f16>, index, index, index, index, index
        %reinterpret_cast_8 = memref.reinterpret_cast %39 to offset: [%offset_5], sizes: [%c1073741822], strides: [1] : memref<4096x4096xf16, strided<[4096, 1], offset: ?>> to memref<?xf16, strided<[1], offset: ?>>
        %45 = amdgpu.fat_raw_buffer_cast %reinterpret_cast_8 validBytes(%c2147483645_i32) cacheSwizzleStride(%c4096_i14) resetOffset : memref<?xf16, strided<[1], offset: ?>> to memref<?xf16, #amdgpu.address_space<fat_raw_buffer>>
        %46 = arith.index_cast %44 : index to i32
        %47 = vector.broadcast %46 : i32 to vector<8xi32>
        %48 = arith.addi %47, %cst_0 : vector<8xi32>
        %49 = arith.index_cast %48 : vector<8xi32> to vector<8xindex>
        %50 = arith.select %42, %49, %cst_1 : vector<8xi1>, vector<8xindex>
        %51 = vector.extract %50[0] : index from vector<8xindex>
        %52 = vector.load %45[%51] : memref<?xf16, #amdgpu.address_space<fat_raw_buffer>>, vector<8xf16>
        %53 = affine.apply #map5()[%thread_id_x, %thread_id_y, %block_id_x, %block_id_y]
        %54 = arith.cmpi slt, %53, %c4096 : index
        %55 = vector.broadcast %54 : i1 to vector<8xi1>
        %56 = arith.muli %53, %c4096 overflow<nsw> : index
        %57 = arith.addi %56, %4 overflow<nsw> : index
        %58 = arith.index_cast %57 : index to i32
        %59 = vector.broadcast %58 : i32 to vector<8xi32>
        %60 = arith.addi %59, %cst_0 : vector<8xi32>
        %61 = arith.index_cast %60 : vector<8xi32> to vector<8xindex>
        %62 = arith.select %55, %61, %cst_1 : vector<8xi1>, vector<8xindex>
        %63 = vector.extract %62[0] : index from vector<8xindex>
        %64 = vector.load %45[%63] : memref<?xf16, #amdgpu.address_space<fat_raw_buffer>>, vector<8xf16>
        %65 = affine.apply #map6()[%thread_id_x, %thread_id_y, %block_id_x, %block_id_y]
        %66 = arith.cmpi slt, %65, %c4096 : index
        %67 = vector.broadcast %66 : i1 to vector<8xi1>
        %68 = arith.muli %65, %c4096 overflow<nsw> : index
        %69 = arith.addi %68, %4 overflow<nsw> : index
        %70 = arith.index_cast %69 : index to i32
        %71 = vector.broadcast %70 : i32 to vector<8xi32>
        %72 = arith.addi %71, %cst_0 : vector<8xi32>
        %73 = arith.index_cast %72 : vector<8xi32> to vector<8xindex>
        %74 = arith.select %67, %73, %cst_1 : vector<8xi1>, vector<8xindex>
        %75 = vector.extract %74[0] : index from vector<8xindex>
        %76 = vector.load %45[%75] : memref<?xf16, #amdgpu.address_space<fat_raw_buffer>>, vector<8xf16>
        %77 = affine.apply #map7()[%thread_id_x, %thread_id_y, %block_id_x, %block_id_y]
        %78 = arith.cmpi slt, %77, %c4096 : index
        %79 = vector.broadcast %78 : i1 to vector<8xi1>
        %80 = arith.muli %77, %c4096 overflow<nsw> : index
        %81 = arith.addi %80, %4 overflow<nsw> : index
        %82 = arith.index_cast %81 : index to i32
        %83 = vector.broadcast %82 : i32 to vector<8xi32>
        %84 = arith.addi %83, %cst_0 : vector<8xi32>
        %85 = arith.index_cast %84 : vector<8xi32> to vector<8xindex>
        %86 = arith.select %79, %85, %cst_1 : vector<8xi1>, vector<8xindex>
        %87 = vector.extract %86[0] : index from vector<8xindex>
        %88 = vector.load %45[%87] : memref<?xf16, #amdgpu.address_space<fat_raw_buffer>>, vector<8xf16>
        %89 = affine.apply #map8()[%thread_id_x, %thread_id_y, %block_id_x, %block_id_y]
        %90 = arith.cmpi slt, %89, %c4096 : index
        %91 = vector.broadcast %90 : i1 to vector<8xi1>
        %92 = arith.muli %89, %c4096 overflow<nsw> : index
        %93 = arith.addi %92, %4 overflow<nsw> : index
        %94 = arith.index_cast %93 : index to i32
        %95 = vector.broadcast %94 : i32 to vector<8xi32>
        %96 = arith.addi %95, %cst_0 : vector<8xi32>
        %97 = arith.index_cast %96 : vector<8xi32> to vector<8xindex>
        %98 = arith.select %91, %97, %cst_1 : vector<8xi1>, vector<8xindex>
        %99 = vector.extract %98[0] : index from vector<8xindex>
        %100 = vector.load %45[%99] : memref<?xf16, #amdgpu.address_space<fat_raw_buffer>>, vector<8xf16>
        %101 = affine.apply #map9()[%thread_id_x]
        %102 = arith.minsi %101, %c532 : index
        %103 = affine.apply #map10()[%thread_id_x, %thread_id_y]
        %104 = arith.cmpi slt, %103, %102 : index
        %105 = vector.broadcast %104 : i1 to vector<8xi1>
        vector.maskedstore %view_3[%103, %4], %105, %14 : memref<532x20xf16, #gpu.address_space<workgroup>>, vector<8xi1>, vector<8xf16>
        %106 = affine.apply #map11()[%thread_id_x, %thread_id_y]
        %107 = arith.cmpi slt, %106, %102 : index
        %108 = vector.broadcast %107 : i1 to vector<8xi1>
        vector.maskedstore %view_3[%106, %4], %108, %26 : memref<532x20xf16, #gpu.address_space<workgroup>>, vector<8xi1>, vector<8xf16>
        %109 = affine.apply #map12()[%thread_id_x, %thread_id_y]
        %110 = arith.cmpi slt, %109, %102 : index
        %111 = vector.broadcast %110 : i1 to vector<8xi1>
        vector.maskedstore %view_3[%109, %4], %111, %38 : memref<532x20xf16, #gpu.address_space<workgroup>>, vector<8xi1>, vector<8xf16>
        %112 = affine.apply #map13()[%thread_id_y]
        %113 = arith.minsi %112, %c1036 : index
        %114 = affine.apply #map14()[%thread_id_x, %thread_id_y]
        %115 = arith.cmpi slt, %114, %113 : index
        %116 = vector.broadcast %115 : i1 to vector<8xi1>
        vector.maskedstore %view[%114, %4], %116, %52 : memref<1036x20xf16, #gpu.address_space<workgroup>>, vector<8xi1>, vector<8xf16>
        %117 = affine.apply #map15()[%thread_id_x, %thread_id_y]
        %118 = arith.cmpi slt, %117, %113 : index
        %119 = vector.broadcast %118 : i1 to vector<8xi1>
        vector.maskedstore %view[%117, %4], %119, %64 : memref<1036x20xf16, #gpu.address_space<workgroup>>, vector<8xi1>, vector<8xf16>
        %120 = affine.apply #map16()[%thread_id_x, %thread_id_y]
        %121 = arith.cmpi slt, %120, %113 : index
        %122 = vector.broadcast %121 : i1 to vector<8xi1>
        vector.maskedstore %view[%120, %4], %122, %76 : memref<1036x20xf16, #gpu.address_space<workgroup>>, vector<8xi1>, vector<8xf16>
        %123 = affine.apply #map17()[%thread_id_x, %thread_id_y]
        %124 = arith.cmpi slt, %123, %113 : index
        %125 = vector.broadcast %124 : i1 to vector<8xi1>
        vector.maskedstore %view[%123, %4], %125, %88 : memref<1036x20xf16, #gpu.address_space<workgroup>>, vector<8xi1>, vector<8xf16>
        %126 = affine.apply #map18()[%thread_id_x, %thread_id_y]
        %127 = arith.cmpi slt, %126, %113 : index
        %128 = vector.broadcast %127 : i1 to vector<8xi1>
        vector.maskedstore %view[%126, %4], %128, %100 : memref<1036x20xf16, #gpu.address_space<workgroup>>, vector<8xi1>, vector<8xf16>
        %129 = affine.apply #map19()[%thread_id_x, %thread_id_y]
        %130 = arith.cmpi slt, %129, %113 : index
        %131 = vector.broadcast %130 : i1 to vector<4xi1>
        %132 = affine.apply #map20()[%thread_id_x]
        %133 = affine.apply #map21()[%thread_id_x]
        %134 = affine.apply #map22()[%thread_id_x, %thread_id_y]
        %135 = arith.cmpi slt, %134, %113 : index
        %136 = vector.broadcast %135 : i1 to vector<4xi1>
        %137 = affine.apply #map23()[%thread_id_x, %thread_id_y]
        %138 = arith.cmpi slt, %137, %113 : index
        %139 = vector.broadcast %138 : i1 to vector<4xi1>
        %140 = affine.apply #map24()[%thread_id_x, %thread_id_y]
        %141 = arith.cmpi slt, %140, %113 : index
        %142 = vector.broadcast %141 : i1 to vector<4xi1>
        %143 = affine.apply #map25()[%thread_id_x, %thread_id_y]
        %144 = arith.cmpi slt, %143, %113 : index
        %145 = vector.broadcast %144 : i1 to vector<4xi1>
        %146 = affine.apply #map26()[%thread_id_x, %thread_id_y]
        %147 = arith.cmpi slt, %146, %113 : index
        %148 = vector.broadcast %147 : i1 to vector<4xi1>
        %149 = affine.apply #map27()[%thread_id_x, %thread_id_y]
        %150 = arith.cmpi slt, %149, %113 : index
        %151 = vector.broadcast %150 : i1 to vector<4xi1>
        %152 = affine.apply #map28()[%thread_id_x, %thread_id_y]
        %153 = arith.cmpi slt, %152, %113 : index
        %154 = vector.broadcast %153 : i1 to vector<4xi1>
        %155 = affine.apply #map29()[%thread_id_x, %thread_id_y]
        %156 = arith.cmpi slt, %155, %113 : index
        %157 = vector.broadcast %156 : i1 to vector<4xi1>
        %158 = affine.apply #map30()[%thread_id_x, %thread_id_y]
        %159 = arith.cmpi slt, %158, %113 : index
        %160 = vector.broadcast %159 : i1 to vector<4xi1>
        %161 = affine.apply #map31()[%thread_id_x, %thread_id_y]
        %162 = arith.cmpi slt, %161, %113 : index
        %163 = vector.broadcast %162 : i1 to vector<4xi1>
        %164 = affine.apply #map32()[%thread_id_x, %thread_id_y]
        %165 = arith.cmpi slt, %164, %113 : index
        %166 = vector.broadcast %165 : i1 to vector<4xi1>
        %167 = affine.apply #map33()[%thread_id_x, %thread_id_y]
        %168 = arith.cmpi slt, %167, %113 : index
        %169 = vector.broadcast %168 : i1 to vector<4xi1>
        %170 = affine.apply #map34()[%thread_id_x, %thread_id_y]
        %171 = arith.cmpi slt, %170, %113 : index
        %172 = vector.broadcast %171 : i1 to vector<4xi1>
        %173 = affine.apply #map35()[%thread_id_x, %thread_id_y]
        %174 = arith.cmpi slt, %173, %113 : index
        %175 = vector.broadcast %174 : i1 to vector<4xi1>
        %176 = affine.apply #map36()[%thread_id_x, %thread_id_y]
        %177 = arith.cmpi slt, %176, %113 : index
        %178 = vector.broadcast %177 : i1 to vector<4xi1>
        %179 = affine.apply #map37()[%thread_id_x, %thread_id_y]
        %180 = arith.cmpi slt, %179, %113 : index
        %181 = vector.broadcast %180 : i1 to vector<4xi1>
        %182 = affine.apply #map38()[%thread_id_x]
        %183 = arith.cmpi slt, %182, %102 : index
        %184 = vector.broadcast %183 : i1 to vector<4xi1>
        %185 = affine.apply #map39()[%thread_id_x]
        %186 = arith.cmpi slt, %185, %102 : index
        %187 = vector.broadcast %186 : i1 to vector<4xi1>
        %188 = affine.apply #map40()[%thread_id_x]
        %189 = arith.cmpi slt, %188, %102 : index
        %190 = vector.broadcast %189 : i1 to vector<4xi1>
        %191 = affine.apply #map41()[%thread_id_x]
        %192 = arith.cmpi slt, %191, %102 : index
        %193 = vector.broadcast %192 : i1 to vector<4xi1>
        %194 = affine.apply #map42()[%thread_id_x]
        %195 = arith.cmpi slt, %194, %102 : index
        %196 = vector.broadcast %195 : i1 to vector<4xi1>
        %197:85 = scf.for %arg3 = %c0 to %c255 step %c1 iter_args(%arg4 = %cst_2, %arg5 = %cst_2, %arg6 = %cst_2, %arg7 = %cst_2, %arg8 = %cst_2, %arg9 = %cst_2, %arg10 = %cst_2, %arg11 = %cst_2, %arg12 = %cst_2, %arg13 = %cst_2, %arg14 = %cst_2, %arg15 = %cst_2, %arg16 = %cst_2, %arg17 = %cst_2, %arg18 = %cst_2, %arg19 = %cst_2, %arg20 = %cst_2, %arg21 = %cst_2, %arg22 = %cst_2, %arg23 = %cst_2, %arg24 = %cst_2, %arg25 = %cst_2, %arg26 = %cst_2, %arg27 = %cst_2, %arg28 = %cst_2, %arg29 = %cst_2, %arg30 = %cst_2, %arg31 = %cst_2, %arg32 = %cst_2, %arg33 = %cst_2, %arg34 = %cst_2, %arg35 = %cst_2, %arg36 = %cst_2, %arg37 = %cst_2, %arg38 = %cst_2, %arg39 = %cst_2, %arg40 = %cst_2, %arg41 = %cst_2, %arg42 = %cst_2, %arg43 = %cst_2, %arg44 = %cst_2, %arg45 = %cst_2, %arg46 = %cst_2, %arg47 = %cst_2, %arg48 = %cst_2, %arg49 = %cst_2, %arg50 = %cst_2, %arg51 = %cst_2, %arg52 = %cst_2, %arg53 = %cst_2, %arg54 = %cst_2, %arg55 = %cst_2, %arg56 = %cst_2, %arg57 = %cst_2, %arg58 = %cst_2, %arg59 = %cst_2, %arg60 = %cst_2, %arg61 = %cst_2, %arg62 = %cst_2, %arg63 = %cst_2, %arg64 = %cst_2, %arg65 = %cst_2, %arg66 = %cst_2, %arg67 = %cst_2, %arg68 = %cst_2, %arg69 = %cst_2, %arg70 = %cst_2, %arg71 = %cst_2, %arg72 = %cst_2, %arg73 = %cst_2, %arg74 = %cst_2, %arg75 = %cst_2, %arg76 = %cst_2, %arg77 = %cst_2, %arg78 = %cst_2, %arg79 = %cst_2, %arg80 = %cst_2, %arg81 = %cst_2, %arg82 = %cst_2, %arg83 = %cst_2, %arg84 = %cst_2, %arg85 = %cst_2, %arg86 = %cst_2, %arg87 = %cst_2, %arg88 = %cst_2) -> (vector<16xf32>, vector<16xf32>, vector<16xf32>, vector<16xf32>, vector<16xf32>, vector<16xf32>, vector<16xf32>, vector<16xf32>, vector<16xf32>, vector<16xf32>, vector<16xf32>, vector<16xf32>, vector<16xf32>, vector<16xf32>, vector<16xf32>, vector<16xf32>, vector<16xf32>, vector<16xf32>, vector<16xf32>, vector<16xf32>, vector<16xf32>, vector<16xf32>, vector<16xf32>, vector<16xf32>, vector<16xf32>, vector<16xf32>, vector<16xf32>, vector<16xf32>, vector<16xf32>, vector<16xf32>, vector<16xf32>, vector<16xf32>, vector<16xf32>, vector<16xf32>, vector<16xf32>, vector<16xf32>, vector<16xf32>, vector<16xf32>, vector<16xf32>, vector<16xf32>, vector<16xf32>, vector<16xf32>, vector<16xf32>, vector<16xf32>, vector<16xf32>, vector<16xf32>, vector<16xf32>, vector<16xf32>, vector<16xf32>, vector<16xf32>, vector<16xf32>, vector<16xf32>, vector<16xf32>, vector<16xf32>, vector<16xf32>, vector<16xf32>, vector<16xf32>, vector<16xf32>, vector<16xf32>, vector<16xf32>, vector<16xf32>, vector<16xf32>, vector<16xf32>, vector<16xf32>, vector<16xf32>, vector<16xf32>, vector<16xf32>, vector<16xf32>, vector<16xf32>, vector<16xf32>, vector<16xf32>, vector<16xf32>, vector<16xf32>, vector<16xf32>, vector<16xf32>, vector<16xf32>, vector<16xf32>, vector<16xf32>, vector<16xf32>, vector<16xf32>, vector<16xf32>, vector<16xf32>, vector<16xf32>, vector<16xf32>, vector<16xf32>) {
          amdgpu.lds_barrier
          %6289 = vector.maskedload %view[%129, %132], %131, %cst : memref<1036x20xf16, #gpu.address_space<workgroup>>, vector<4xi1>, vector<4xf16> into vector<4xf16>
          %6290 = vector.maskedload %view[%129, %133], %131, %cst : memref<1036x20xf16, #gpu.address_space<workgroup>>, vector<4xi1>, vector<4xf16> into vector<4xf16>
          %6291 = vector.maskedload %view[%134, %132], %136, %cst : memref<1036x20xf16, #gpu.address_space<workgroup>>, vector<4xi1>, vector<4xf16> into vector<4xf16>
          %6292 = vector.maskedload %view[%134, %133], %136, %cst : memref<1036x20xf16, #gpu.address_space<workgroup>>, vector<4xi1>, vector<4xf16> into vector<4xf16>
          %6293 = vector.maskedload %view[%137, %132], %139, %cst : memref<1036x20xf16, #gpu.address_space<workgroup>>, vector<4xi1>, vector<4xf16> into vector<4xf16>
          %6294 = vector.maskedload %view[%137, %133], %139, %cst : memref<1036x20xf16, #gpu.address_space<workgroup>>, vector<4xi1>, vector<4xf16> into vector<4xf16>
          %6295 = vector.maskedload %view[%140, %132], %142, %cst : memref<1036x20xf16, #gpu.address_space<workgroup>>, vector<4xi1>, vector<4xf16> into vector<4xf16>
          %6296 = vector.maskedload %view[%140, %133], %142, %cst : memref<1036x20xf16, #gpu.address_space<workgroup>>, vector<4xi1>, vector<4xf16> into vector<4xf16>
          %6297 = vector.maskedload %view[%143, %132], %145, %cst : memref<1036x20xf16, #gpu.address_space<workgroup>>, vector<4xi1>, vector<4xf16> into vector<4xf16>
          %6298 = vector.maskedload %view[%143, %133], %145, %cst : memref<1036x20xf16, #gpu.address_space<workgroup>>, vector<4xi1>, vector<4xf16> into vector<4xf16>
          %6299 = vector.maskedload %view[%146, %132], %148, %cst : memref<1036x20xf16, #gpu.address_space<workgroup>>, vector<4xi1>, vector<4xf16> into vector<4xf16>
          %6300 = vector.maskedload %view[%146, %133], %148, %cst : memref<1036x20xf16, #gpu.address_space<workgroup>>, vector<4xi1>, vector<4xf16> into vector<4xf16>
          %6301 = vector.maskedload %view[%149, %132], %151, %cst : memref<1036x20xf16, #gpu.address_space<workgroup>>, vector<4xi1>, vector<4xf16> into vector<4xf16>
          %6302 = vector.maskedload %view[%149, %133], %151, %cst : memref<1036x20xf16, #gpu.address_space<workgroup>>, vector<4xi1>, vector<4xf16> into vector<4xf16>
          %6303 = vector.maskedload %view[%152, %132], %154, %cst : memref<1036x20xf16, #gpu.address_space<workgroup>>, vector<4xi1>, vector<4xf16> into vector<4xf16>
          %6304 = vector.maskedload %view[%152, %133], %154, %cst : memref<1036x20xf16, #gpu.address_space<workgroup>>, vector<4xi1>, vector<4xf16> into vector<4xf16>
          %6305 = vector.maskedload %view[%155, %132], %157, %cst : memref<1036x20xf16, #gpu.address_space<workgroup>>, vector<4xi1>, vector<4xf16> into vector<4xf16>
          %6306 = vector.maskedload %view[%155, %133], %157, %cst : memref<1036x20xf16, #gpu.address_space<workgroup>>, vector<4xi1>, vector<4xf16> into vector<4xf16>
          %6307 = vector.maskedload %view[%158, %132], %160, %cst : memref<1036x20xf16, #gpu.address_space<workgroup>>, vector<4xi1>, vector<4xf16> into vector<4xf16>
          %6308 = vector.maskedload %view[%158, %133], %160, %cst : memref<1036x20xf16, #gpu.address_space<workgroup>>, vector<4xi1>, vector<4xf16> into vector<4xf16>
          %6309 = vector.maskedload %view[%161, %132], %163, %cst : memref<1036x20xf16, #gpu.address_space<workgroup>>, vector<4xi1>, vector<4xf16> into vector<4xf16>
          %6310 = vector.maskedload %view[%161, %133], %163, %cst : memref<1036x20xf16, #gpu.address_space<workgroup>>, vector<4xi1>, vector<4xf16> into vector<4xf16>
          %6311 = vector.maskedload %view[%164, %132], %166, %cst : memref<1036x20xf16, #gpu.address_space<workgroup>>, vector<4xi1>, vector<4xf16> into vector<4xf16>
          %6312 = vector.maskedload %view[%164, %133], %166, %cst : memref<1036x20xf16, #gpu.address_space<workgroup>>, vector<4xi1>, vector<4xf16> into vector<4xf16>
          %6313 = vector.maskedload %view[%167, %132], %169, %cst : memref<1036x20xf16, #gpu.address_space<workgroup>>, vector<4xi1>, vector<4xf16> into vector<4xf16>
          %6314 = vector.maskedload %view[%167, %133], %169, %cst : memref<1036x20xf16, #gpu.address_space<workgroup>>, vector<4xi1>, vector<4xf16> into vector<4xf16>
          %6315 = vector.maskedload %view[%170, %132], %172, %cst : memref<1036x20xf16, #gpu.address_space<workgroup>>, vector<4xi1>, vector<4xf16> into vector<4xf16>
          %6316 = vector.maskedload %view[%170, %133], %172, %cst : memref<1036x20xf16, #gpu.address_space<workgroup>>, vector<4xi1>, vector<4xf16> into vector<4xf16>
          %6317 = vector.maskedload %view[%173, %132], %175, %cst : memref<1036x20xf16, #gpu.address_space<workgroup>>, vector<4xi1>, vector<4xf16> into vector<4xf16>
          %6318 = vector.maskedload %view[%173, %133], %175, %cst : memref<1036x20xf16, #gpu.address_space<workgroup>>, vector<4xi1>, vector<4xf16> into vector<4xf16>
          %6319 = vector.maskedload %view[%176, %132], %178, %cst : memref<1036x20xf16, #gpu.address_space<workgroup>>, vector<4xi1>, vector<4xf16> into vector<4xf16>
          %6320 = vector.maskedload %view[%176, %133], %178, %cst : memref<1036x20xf16, #gpu.address_space<workgroup>>, vector<4xi1>, vector<4xf16> into vector<4xf16>
          %6321 = vector.maskedload %view[%179, %132], %181, %cst : memref<1036x20xf16, #gpu.address_space<workgroup>>, vector<4xi1>, vector<4xf16> into vector<4xf16>
          %6322 = vector.maskedload %view[%179, %133], %181, %cst : memref<1036x20xf16, #gpu.address_space<workgroup>>, vector<4xi1>, vector<4xf16> into vector<4xf16>
          %6323 = vector.maskedload %view_3[%182, %132], %184, %cst : memref<532x20xf16, #gpu.address_space<workgroup>>, vector<4xi1>, vector<4xf16> into vector<4xf16>
          %6324 = vector.maskedload %view_3[%182, %133], %184, %cst : memref<532x20xf16, #gpu.address_space<workgroup>>, vector<4xi1>, vector<4xf16> into vector<4xf16>
          %6325 = vector.maskedload %view_3[%185, %132], %187, %cst : memref<532x20xf16, #gpu.address_space<workgroup>>, vector<4xi1>, vector<4xf16> into vector<4xf16>
          %6326 = vector.maskedload %view_3[%185, %133], %187, %cst : memref<532x20xf16, #gpu.address_space<workgroup>>, vector<4xi1>, vector<4xf16> into vector<4xf16>
          %6327 = vector.maskedload %view_3[%188, %132], %190, %cst : memref<532x20xf16, #gpu.address_space<workgroup>>, vector<4xi1>, vector<4xf16> into vector<4xf16>
          %6328 = vector.maskedload %view_3[%188, %133], %190, %cst : memref<532x20xf16, #gpu.address_space<workgroup>>, vector<4xi1>, vector<4xf16> into vector<4xf16>
          %6329 = vector.maskedload %view_3[%191, %132], %193, %cst : memref<532x20xf16, #gpu.address_space<workgroup>>, vector<4xi1>, vector<4xf16> into vector<4xf16>
          %6330 = vector.maskedload %view_3[%191, %133], %193, %cst : memref<532x20xf16, #gpu.address_space<workgroup>>, vector<4xi1>, vector<4xf16> into vector<4xf16>
          %6331 = vector.maskedload %view_3[%194, %132], %196, %cst : memref<532x20xf16, #gpu.address_space<workgroup>>, vector<4xi1>, vector<4xf16> into vector<4xf16>
          %6332 = vector.maskedload %view_3[%194, %133], %196, %cst : memref<532x20xf16, #gpu.address_space<workgroup>>, vector<4xi1>, vector<4xf16> into vector<4xf16>
          %6333 = affine.apply #map43()[%arg3, %thread_id_x]
          %6334 = arith.addi %5, %6333 overflow<nsw> : index
          %6335 = arith.index_cast %6334 : index to i32
          %6336 = vector.broadcast %6335 : i32 to vector<8xi32>
          %6337 = arith.addi %6336, %cst_0 : vector<8xi32>
          %6338 = arith.index_cast %6337 : vector<8xi32> to vector<8xindex>
          %6339 = arith.select %3, %6338, %cst_1 : vector<8xi1>, vector<8xindex>
          %6340 = vector.extract %6339[0] : index from vector<8xindex>
          %6341 = vector.load %7[%6340] : memref<?xf16, #amdgpu.address_space<fat_raw_buffer>>, vector<8xf16>
          %6342 = arith.addi %18, %6333 overflow<nsw> : index
          %6343 = arith.index_cast %6342 : index to i32
          %6344 = vector.broadcast %6343 : i32 to vector<8xi32>
          %6345 = arith.addi %6344, %cst_0 : vector<8xi32>
          %6346 = arith.index_cast %6345 : vector<8xi32> to vector<8xindex>
          %6347 = arith.select %17, %6346, %cst_1 : vector<8xi1>, vector<8xindex>
          %6348 = vector.extract %6347[0] : index from vector<8xindex>
          %6349 = vector.load %7[%6348] : memref<?xf16, #amdgpu.address_space<fat_raw_buffer>>, vector<8xf16>
          %6350 = arith.addi %30, %6333 overflow<nsw> : index
          %6351 = arith.index_cast %6350 : index to i32
          %6352 = vector.broadcast %6351 : i32 to vector<8xi32>
          %6353 = arith.addi %6352, %cst_0 : vector<8xi32>
          %6354 = arith.index_cast %6353 : vector<8xi32> to vector<8xindex>
          %6355 = arith.select %29, %6354, %cst_1 : vector<8xi1>, vector<8xindex>
          %6356 = vector.extract %6355[0] : index from vector<8xindex>
          %6357 = vector.load %7[%6356] : memref<?xf16, #amdgpu.address_space<fat_raw_buffer>>, vector<8xf16>
          %6358 = arith.addi %43, %6333 overflow<nsw> : index
          %6359 = arith.index_cast %6358 : index to i32
          %6360 = vector.broadcast %6359 : i32 to vector<8xi32>
          %6361 = arith.addi %6360, %cst_0 : vector<8xi32>
          %6362 = arith.index_cast %6361 : vector<8xi32> to vector<8xindex>
          %6363 = arith.select %42, %6362, %cst_1 : vector<8xi1>, vector<8xindex>
          %6364 = vector.extract %6363[0] : index from vector<8xindex>
          %6365 = vector.load %45[%6364] : memref<?xf16, #amdgpu.address_space<fat_raw_buffer>>, vector<8xf16>
          %6366 = arith.addi %56, %6333 overflow<nsw> : index
          %6367 = arith.index_cast %6366 : index to i32
          %6368 = vector.broadcast %6367 : i32 to vector<8xi32>
          %6369 = arith.addi %6368, %cst_0 : vector<8xi32>
          %6370 = arith.index_cast %6369 : vector<8xi32> to vector<8xindex>
          %6371 = arith.select %55, %6370, %cst_1 : vector<8xi1>, vector<8xindex>
          %6372 = vector.extract %6371[0] : index from vector<8xindex>
          %6373 = vector.load %45[%6372] : memref<?xf16, #amdgpu.address_space<fat_raw_buffer>>, vector<8xf16>
          %6374 = arith.addi %68, %6333 overflow<nsw> : index
          %6375 = arith.index_cast %6374 : index to i32
          %6376 = vector.broadcast %6375 : i32 to vector<8xi32>
          %6377 = arith.addi %6376, %cst_0 : vector<8xi32>
          %6378 = arith.index_cast %6377 : vector<8xi32> to vector<8xindex>
          %6379 = arith.select %67, %6378, %cst_1 : vector<8xi1>, vector<8xindex>
          %6380 = vector.extract %6379[0] : index from vector<8xindex>
          %6381 = vector.load %45[%6380] : memref<?xf16, #amdgpu.address_space<fat_raw_buffer>>, vector<8xf16>
          %6382 = arith.addi %80, %6333 overflow<nsw> : index
          %6383 = arith.index_cast %6382 : index to i32
          %6384 = vector.broadcast %6383 : i32 to vector<8xi32>
          %6385 = arith.addi %6384, %cst_0 : vector<8xi32>
          %6386 = arith.index_cast %6385 : vector<8xi32> to vector<8xindex>
          %6387 = arith.select %79, %6386, %cst_1 : vector<8xi1>, vector<8xindex>
          %6388 = vector.extract %6387[0] : index from vector<8xindex>
          %6389 = vector.load %45[%6388] : memref<?xf16, #amdgpu.address_space<fat_raw_buffer>>, vector<8xf16>
          %6390 = arith.addi %92, %6333 overflow<nsw> : index
          %6391 = arith.index_cast %6390 : index to i32
          %6392 = vector.broadcast %6391 : i32 to vector<8xi32>
          %6393 = arith.addi %6392, %cst_0 : vector<8xi32>
          %6394 = arith.index_cast %6393 : vector<8xi32> to vector<8xindex>
          %6395 = arith.select %91, %6394, %cst_1 : vector<8xi1>, vector<8xindex>
          %6396 = vector.extract %6395[0] : index from vector<8xindex>
          %6397 = vector.load %45[%6396] : memref<?xf16, #amdgpu.address_space<fat_raw_buffer>>, vector<8xf16>
          %6398 = amdgpu.mfma %6323 * %6289 + %arg4 {blocks = 1 : i32, k = 8 : i32, m = 32 : i32, n = 32 : i32} blgp =  none : vector<4xf16>, vector<4xf16>, vector<16xf32>
          %6399 = amdgpu.mfma %6324 * %6290 + %6398 {blocks = 1 : i32, k = 8 : i32, m = 32 : i32, n = 32 : i32} blgp =  none : vector<4xf16>, vector<4xf16>, vector<16xf32>
          %6400 = amdgpu.mfma %6323 * %6291 + %arg5 {blocks = 1 : i32, k = 8 : i32, m = 32 : i32, n = 32 : i32} blgp =  none : vector<4xf16>, vector<4xf16>, vector<16xf32>
          %6401 = amdgpu.mfma %6324 * %6292 + %6400 {blocks = 1 : i32, k = 8 : i32, m = 32 : i32, n = 32 : i32} blgp =  none : vector<4xf16>, vector<4xf16>, vector<16xf32>
          %6402 = amdgpu.mfma %6323 * %6293 + %arg6 {blocks = 1 : i32, k = 8 : i32, m = 32 : i32, n = 32 : i32} blgp =  none : vector<4xf16>, vector<4xf16>, vector<16xf32>
          %6403 = amdgpu.mfma %6324 * %6294 + %6402 {blocks = 1 : i32, k = 8 : i32, m = 32 : i32, n = 32 : i32} blgp =  none : vector<4xf16>, vector<4xf16>, vector<16xf32>
          %6404 = amdgpu.mfma %6323 * %6295 + %arg7 {blocks = 1 : i32, k = 8 : i32, m = 32 : i32, n = 32 : i32} blgp =  none : vector<4xf16>, vector<4xf16>, vector<16xf32>
          %6405 = amdgpu.mfma %6324 * %6296 + %6404 {blocks = 1 : i32, k = 8 : i32, m = 32 : i32, n = 32 : i32} blgp =  none : vector<4xf16>, vector<4xf16>, vector<16xf32>
          %6406 = amdgpu.mfma %6323 * %6297 + %arg8 {blocks = 1 : i32, k = 8 : i32, m = 32 : i32, n = 32 : i32} blgp =  none : vector<4xf16>, vector<4xf16>, vector<16xf32>
          %6407 = amdgpu.mfma %6324 * %6298 + %6406 {blocks = 1 : i32, k = 8 : i32, m = 32 : i32, n = 32 : i32} blgp =  none : vector<4xf16>, vector<4xf16>, vector<16xf32>
          %6408 = amdgpu.mfma %6323 * %6299 + %arg9 {blocks = 1 : i32, k = 8 : i32, m = 32 : i32, n = 32 : i32} blgp =  none : vector<4xf16>, vector<4xf16>, vector<16xf32>
          %6409 = amdgpu.mfma %6324 * %6300 + %6408 {blocks = 1 : i32, k = 8 : i32, m = 32 : i32, n = 32 : i32} blgp =  none : vector<4xf16>, vector<4xf16>, vector<16xf32>
          %6410 = amdgpu.mfma %6323 * %6301 + %arg10 {blocks = 1 : i32, k = 8 : i32, m = 32 : i32, n = 32 : i32} blgp =  none : vector<4xf16>, vector<4xf16>, vector<16xf32>
          %6411 = amdgpu.mfma %6324 * %6302 + %6410 {blocks = 1 : i32, k = 8 : i32, m = 32 : i32, n = 32 : i32} blgp =  none : vector<4xf16>, vector<4xf16>, vector<16xf32>
          %6412 = amdgpu.mfma %6323 * %6303 + %arg11 {blocks = 1 : i32, k = 8 : i32, m = 32 : i32, n = 32 : i32} blgp =  none : vector<4xf16>, vector<4xf16>, vector<16xf32>
          %6413 = amdgpu.mfma %6324 * %6304 + %6412 {blocks = 1 : i32, k = 8 : i32, m = 32 : i32, n = 32 : i32} blgp =  none : vector<4xf16>, vector<4xf16>, vector<16xf32>
          %6414 = amdgpu.mfma %6323 * %6305 + %arg12 {blocks = 1 : i32, k = 8 : i32, m = 32 : i32, n = 32 : i32} blgp =  none : vector<4xf16>, vector<4xf16>, vector<16xf32>
          %6415 = amdgpu.mfma %6324 * %6306 + %6414 {blocks = 1 : i32, k = 8 : i32, m = 32 : i32, n = 32 : i32} blgp =  none : vector<4xf16>, vector<4xf16>, vector<16xf32>
          %6416 = amdgpu.mfma %6323 * %6307 + %arg13 {blocks = 1 : i32, k = 8 : i32, m = 32 : i32, n = 32 : i32} blgp =  none : vector<4xf16>, vector<4xf16>, vector<16xf32>
          %6417 = amdgpu.mfma %6324 * %6308 + %6416 {blocks = 1 : i32, k = 8 : i32, m = 32 : i32, n = 32 : i32} blgp =  none : vector<4xf16>, vector<4xf16>, vector<16xf32>
          %6418 = amdgpu.mfma %6323 * %6309 + %arg14 {blocks = 1 : i32, k = 8 : i32, m = 32 : i32, n = 32 : i32} blgp =  none : vector<4xf16>, vector<4xf16>, vector<16xf32>
          %6419 = amdgpu.mfma %6324 * %6310 + %6418 {blocks = 1 : i32, k = 8 : i32, m = 32 : i32, n = 32 : i32} blgp =  none : vector<4xf16>, vector<4xf16>, vector<16xf32>
          %6420 = amdgpu.mfma %6323 * %6311 + %arg15 {blocks = 1 : i32, k = 8 : i32, m = 32 : i32, n = 32 : i32} blgp =  none : vector<4xf16>, vector<4xf16>, vector<16xf32>
          %6421 = amdgpu.mfma %6324 * %6312 + %6420 {blocks = 1 : i32, k = 8 : i32, m = 32 : i32, n = 32 : i32} blgp =  none : vector<4xf16>, vector<4xf16>, vector<16xf32>
          %6422 = amdgpu.mfma %6323 * %6313 + %arg16 {blocks = 1 : i32, k = 8 : i32, m = 32 : i32, n = 32 : i32} blgp =  none : vector<4xf16>, vector<4xf16>, vector<16xf32>
          %6423 = amdgpu.mfma %6324 * %6314 + %6422 {blocks = 1 : i32, k = 8 : i32, m = 32 : i32, n = 32 : i32} blgp =  none : vector<4xf16>, vector<4xf16>, vector<16xf32>
          %6424 = amdgpu.mfma %6323 * %6315 + %arg17 {blocks = 1 : i32, k = 8 : i32, m = 32 : i32, n = 32 : i32} blgp =  none : vector<4xf16>, vector<4xf16>, vector<16xf32>
          %6425 = amdgpu.mfma %6324 * %6316 + %6424 {blocks = 1 : i32, k = 8 : i32, m = 32 : i32, n = 32 : i32} blgp =  none : vector<4xf16>, vector<4xf16>, vector<16xf32>
          %6426 = amdgpu.mfma %6323 * %6317 + %arg18 {blocks = 1 : i32, k = 8 : i32, m = 32 : i32, n = 32 : i32} blgp =  none : vector<4xf16>, vector<4xf16>, vector<16xf32>
          %6427 = amdgpu.mfma %6324 * %6318 + %6426 {blocks = 1 : i32, k = 8 : i32, m = 32 : i32, n = 32 : i32} blgp =  none : vector<4xf16>, vector<4xf16>, vector<16xf32>
          %6428 = amdgpu.mfma %6323 * %6319 + %arg19 {blocks = 1 : i32, k = 8 : i32, m = 32 : i32, n = 32 : i32} blgp =  none : vector<4xf16>, vector<4xf16>, vector<16xf32>
          %6429 = amdgpu.mfma %6324 * %6320 + %6428 {blocks = 1 : i32, k = 8 : i32, m = 32 : i32, n = 32 : i32} blgp =  none : vector<4xf16>, vector<4xf16>, vector<16xf32>
          %6430 = amdgpu.mfma %6323 * %6321 + %arg20 {blocks = 1 : i32, k = 8 : i32, m = 32 : i32, n = 32 : i32} blgp =  none : vector<4xf16>, vector<4xf16>, vector<16xf32>
          %6431 = amdgpu.mfma %6324 * %6322 + %6430 {blocks = 1 : i32, k = 8 : i32, m = 32 : i32, n = 32 : i32} blgp =  none : vector<4xf16>, vector<4xf16>, vector<16xf32>
          %6432 = amdgpu.mfma %6325 * %6289 + %arg21 {blocks = 1 : i32, k = 8 : i32, m = 32 : i32, n = 32 : i32} blgp =  none : vector<4xf16>, vector<4xf16>, vector<16xf32>
          %6433 = amdgpu.mfma %6326 * %6290 + %6432 {blocks = 1 : i32, k = 8 : i32, m = 32 : i32, n = 32 : i32} blgp =  none : vector<4xf16>, vector<4xf16>, vector<16xf32>
          %6434 = amdgpu.mfma %6325 * %6291 + %arg22 {blocks = 1 : i32, k = 8 : i32, m = 32 : i32, n = 32 : i32} blgp =  none : vector<4xf16>, vector<4xf16>, vector<16xf32>
          %6435 = amdgpu.mfma %6326 * %6292 + %6434 {blocks = 1 : i32, k = 8 : i32, m = 32 : i32, n = 32 : i32} blgp =  none : vector<4xf16>, vector<4xf16>, vector<16xf32>
          %6436 = amdgpu.mfma %6325 * %6293 + %arg23 {blocks = 1 : i32, k = 8 : i32, m = 32 : i32, n = 32 : i32} blgp =  none : vector<4xf16>, vector<4xf16>, vector<16xf32>
          %6437 = amdgpu.mfma %6326 * %6294 + %6436 {blocks = 1 : i32, k = 8 : i32, m = 32 : i32, n = 32 : i32} blgp =  none : vector<4xf16>, vector<4xf16>, vector<16xf32>
          %6438 = amdgpu.mfma %6325 * %6295 + %arg24 {blocks = 1 : i32, k = 8 : i32, m = 32 : i32, n = 32 : i32} blgp =  none : vector<4xf16>, vector<4xf16>, vector<16xf32>
          %6439 = amdgpu.mfma %6326 * %6296 + %6438 {blocks = 1 : i32, k = 8 : i32, m = 32 : i32, n = 32 : i32} blgp =  none : vector<4xf16>, vector<4xf16>, vector<16xf32>
          %6440 = amdgpu.mfma %6325 * %6297 + %arg25 {blocks = 1 : i32, k = 8 : i32, m = 32 : i32, n = 32 : i32} blgp =  none : vector<4xf16>, vector<4xf16>, vector<16xf32>
          %6441 = amdgpu.mfma %6326 * %6298 + %6440 {blocks = 1 : i32, k = 8 : i32, m = 32 : i32, n = 32 : i32} blgp =  none : vector<4xf16>, vector<4xf16>, vector<16xf32>
          %6442 = amdgpu.mfma %6325 * %6299 + %arg26 {blocks = 1 : i32, k = 8 : i32, m = 32 : i32, n = 32 : i32} blgp =  none : vector<4xf16>, vector<4xf16>, vector<16xf32>
          %6443 = amdgpu.mfma %6326 * %6300 + %6442 {blocks = 1 : i32, k = 8 : i32, m = 32 : i32, n = 32 : i32} blgp =  none : vector<4xf16>, vector<4xf16>, vector<16xf32>
          %6444 = amdgpu.mfma %6325 * %6301 + %arg27 {blocks = 1 : i32, k = 8 : i32, m = 32 : i32, n = 32 : i32} blgp =  none : vector<4xf16>, vector<4xf16>, vector<16xf32>
          %6445 = amdgpu.mfma %6326 * %6302 + %6444 {blocks = 1 : i32, k = 8 : i32, m = 32 : i32, n = 32 : i32} blgp =  none : vector<4xf16>, vector<4xf16>, vector<16xf32>
          %6446 = amdgpu.mfma %6325 * %6303 + %arg28 {blocks = 1 : i32, k = 8 : i32, m = 32 : i32, n = 32 : i32} blgp =  none : vector<4xf16>, vector<4xf16>, vector<16xf32>
          %6447 = amdgpu.mfma %6326 * %6304 + %6446 {blocks = 1 : i32, k = 8 : i32, m = 32 : i32, n = 32 : i32} blgp =  none : vector<4xf16>, vector<4xf16>, vector<16xf32>
          %6448 = amdgpu.mfma %6325 * %6305 + %arg29 {blocks = 1 : i32, k = 8 : i32, m = 32 : i32, n = 32 : i32} blgp =  none : vector<4xf16>, vector<4xf16>, vector<16xf32>
          %6449 = amdgpu.mfma %6326 * %6306 + %6448 {blocks = 1 : i32, k = 8 : i32, m = 32 : i32, n = 32 : i32} blgp =  none : vector<4xf16>, vector<4xf16>, vector<16xf32>
          %6450 = amdgpu.mfma %6325 * %6307 + %arg30 {blocks = 1 : i32, k = 8 : i32, m = 32 : i32, n = 32 : i32} blgp =  none : vector<4xf16>, vector<4xf16>, vector<16xf32>
          %6451 = amdgpu.mfma %6326 * %6308 + %6450 {blocks = 1 : i32, k = 8 : i32, m = 32 : i32, n = 32 : i32} blgp =  none : vector<4xf16>, vector<4xf16>, vector<16xf32>
          %6452 = amdgpu.mfma %6325 * %6309 + %arg31 {blocks = 1 : i32, k = 8 : i32, m = 32 : i32, n = 32 : i32} blgp =  none : vector<4xf16>, vector<4xf16>, vector<16xf32>
          %6453 = amdgpu.mfma %6326 * %6310 + %6452 {blocks = 1 : i32, k = 8 : i32, m = 32 : i32, n = 32 : i32} blgp =  none : vector<4xf16>, vector<4xf16>, vector<16xf32>
          %6454 = amdgpu.mfma %6325 * %6311 + %arg32 {blocks = 1 : i32, k = 8 : i32, m = 32 : i32, n = 32 : i32} blgp =  none : vector<4xf16>, vector<4xf16>, vector<16xf32>
          %6455 = amdgpu.mfma %6326 * %6312 + %6454 {blocks = 1 : i32, k = 8 : i32, m = 32 : i32, n = 32 : i32} blgp =  none : vector<4xf16>, vector<4xf16>, vector<16xf32>
          %6456 = amdgpu.mfma %6325 * %6313 + %arg33 {blocks = 1 : i32, k = 8 : i32, m = 32 : i32, n = 32 : i32} blgp =  none : vector<4xf16>, vector<4xf16>, vector<16xf32>
          %6457 = amdgpu.mfma %6326 * %6314 + %6456 {blocks = 1 : i32, k = 8 : i32, m = 32 : i32, n = 32 : i32} blgp =  none : vector<4xf16>, vector<4xf16>, vector<16xf32>
          %6458 = amdgpu.mfma %6325 * %6315 + %arg34 {blocks = 1 : i32, k = 8 : i32, m = 32 : i32, n = 32 : i32} blgp =  none : vector<4xf16>, vector<4xf16>, vector<16xf32>
          %6459 = amdgpu.mfma %6326 * %6316 + %6458 {blocks = 1 : i32, k = 8 : i32, m = 32 : i32, n = 32 : i32} blgp =  none : vector<4xf16>, vector<4xf16>, vector<16xf32>
          %6460 = amdgpu.mfma %6325 * %6317 + %arg35 {blocks = 1 : i32, k = 8 : i32, m = 32 : i32, n = 32 : i32} blgp =  none : vector<4xf16>, vector<4xf16>, vector<16xf32>
          %6461 = amdgpu.mfma %6326 * %6318 + %6460 {blocks = 1 : i32, k = 8 : i32, m = 32 : i32, n = 32 : i32} blgp =  none : vector<4xf16>, vector<4xf16>, vector<16xf32>
          %6462 = amdgpu.mfma %6325 * %6319 + %arg36 {blocks = 1 : i32, k = 8 : i32, m = 32 : i32, n = 32 : i32} blgp =  none : vector<4xf16>, vector<4xf16>, vector<16xf32>
          %6463 = amdgpu.mfma %6326 * %6320 + %6462 {blocks = 1 : i32, k = 8 : i32, m = 32 : i32, n = 32 : i32} blgp =  none : vector<4xf16>, vector<4xf16>, vector<16xf32>
          %6464 = amdgpu.mfma %6325 * %6321 + %arg37 {blocks = 1 : i32, k = 8 : i32, m = 32 : i32, n = 32 : i32} blgp =  none : vector<4xf16>, vector<4xf16>, vector<16xf32>
          %6465 = amdgpu.mfma %6326 * %6322 + %6464 {blocks = 1 : i32, k = 8 : i32, m = 32 : i32, n = 32 : i32} blgp =  none : vector<4xf16>, vector<4xf16>, vector<16xf32>
          %6466 = amdgpu.mfma %6327 * %6289 + %arg38 {blocks = 1 : i32, k = 8 : i32, m = 32 : i32, n = 32 : i32} blgp =  none : vector<4xf16>, vector<4xf16>, vector<16xf32>
          %6467 = amdgpu.mfma %6328 * %6290 + %6466 {blocks = 1 : i32, k = 8 : i32, m = 32 : i32, n = 32 : i32} blgp =  none : vector<4xf16>, vector<4xf16>, vector<16xf32>
          %6468 = amdgpu.mfma %6327 * %6291 + %arg39 {blocks = 1 : i32, k = 8 : i32, m = 32 : i32, n = 32 : i32} blgp =  none : vector<4xf16>, vector<4xf16>, vector<16xf32>
          %6469 = amdgpu.mfma %6328 * %6292 + %6468 {blocks = 1 : i32, k = 8 : i32, m = 32 : i32, n = 32 : i32} blgp =  none : vector<4xf16>, vector<4xf16>, vector<16xf32>
          %6470 = amdgpu.mfma %6327 * %6293 + %arg40 {blocks = 1 : i32, k = 8 : i32, m = 32 : i32, n = 32 : i32} blgp =  none : vector<4xf16>, vector<4xf16>, vector<16xf32>
          %6471 = amdgpu.mfma %6328 * %6294 + %6470 {blocks = 1 : i32, k = 8 : i32, m = 32 : i32, n = 32 : i32} blgp =  none : vector<4xf16>, vector<4xf16>, vector<16xf32>
          %6472 = amdgpu.mfma %6327 * %6295 + %arg41 {blocks = 1 : i32, k = 8 : i32, m = 32 : i32, n = 32 : i32} blgp =  none : vector<4xf16>, vector<4xf16>, vector<16xf32>
          %6473 = amdgpu.mfma %6328 * %6296 + %6472 {blocks = 1 : i32, k = 8 : i32, m = 32 : i32, n = 32 : i32} blgp =  none : vector<4xf16>, vector<4xf16>, vector<16xf32>
          %6474 = amdgpu.mfma %6327 * %6297 + %arg42 {blocks = 1 : i32, k = 8 : i32, m = 32 : i32, n = 32 : i32} blgp =  none : vector<4xf16>, vector<4xf16>, vector<16xf32>
          %6475 = amdgpu.mfma %6328 * %6298 + %6474 {blocks = 1 : i32, k = 8 : i32, m = 32 : i32, n = 32 : i32} blgp =  none : vector<4xf16>, vector<4xf16>, vector<16xf32>
          %6476 = amdgpu.mfma %6327 * %6299 + %arg43 {blocks = 1 : i32, k = 8 : i32, m = 32 : i32, n = 32 : i32} blgp =  none : vector<4xf16>, vector<4xf16>, vector<16xf32>
          %6477 = amdgpu.mfma %6328 * %6300 + %6476 {blocks = 1 : i32, k = 8 : i32, m = 32 : i32, n = 32 : i32} blgp =  none : vector<4xf16>, vector<4xf16>, vector<16xf32>
          %6478 = amdgpu.mfma %6327 * %6301 + %arg44 {blocks = 1 : i32, k = 8 : i32, m = 32 : i32, n = 32 : i32} blgp =  none : vector<4xf16>, vector<4xf16>, vector<16xf32>
          %6479 = amdgpu.mfma %6328 * %6302 + %6478 {blocks = 1 : i32, k = 8 : i32, m = 32 : i32, n = 32 : i32} blgp =  none : vector<4xf16>, vector<4xf16>, vector<16xf32>
          %6480 = amdgpu.mfma %6327 * %6303 + %arg45 {blocks = 1 : i32, k = 8 : i32, m = 32 : i32, n = 32 : i32} blgp =  none : vector<4xf16>, vector<4xf16>, vector<16xf32>
          %6481 = amdgpu.mfma %6328 * %6304 + %6480 {blocks = 1 : i32, k = 8 : i32, m = 32 : i32, n = 32 : i32} blgp =  none : vector<4xf16>, vector<4xf16>, vector<16xf32>
          %6482 = amdgpu.mfma %6327 * %6305 + %arg46 {blocks = 1 : i32, k = 8 : i32, m = 32 : i32, n = 32 : i32} blgp =  none : vector<4xf16>, vector<4xf16>, vector<16xf32>
          %6483 = amdgpu.mfma %6328 * %6306 + %6482 {blocks = 1 : i32, k = 8 : i32, m = 32 : i32, n = 32 : i32} blgp =  none : vector<4xf16>, vector<4xf16>, vector<16xf32>
          %6484 = amdgpu.mfma %6327 * %6307 + %arg47 {blocks = 1 : i32, k = 8 : i32, m = 32 : i32, n = 32 : i32} blgp =  none : vector<4xf16>, vector<4xf16>, vector<16xf32>
          %6485 = amdgpu.mfma %6328 * %6308 + %6484 {blocks = 1 : i32, k = 8 : i32, m = 32 : i32, n = 32 : i32} blgp =  none : vector<4xf16>, vector<4xf16>, vector<16xf32>
          %6486 = amdgpu.mfma %6327 * %6309 + %arg48 {blocks = 1 : i32, k = 8 : i32, m = 32 : i32, n = 32 : i32} blgp =  none : vector<4xf16>, vector<4xf16>, vector<16xf32>
          %6487 = amdgpu.mfma %6328 * %6310 + %6486 {blocks = 1 : i32, k = 8 : i32, m = 32 : i32, n = 32 : i32} blgp =  none : vector<4xf16>, vector<4xf16>, vector<16xf32>
          %6488 = amdgpu.mfma %6327 * %6311 + %arg49 {blocks = 1 : i32, k = 8 : i32, m = 32 : i32, n = 32 : i32} blgp =  none : vector<4xf16>, vector<4xf16>, vector<16xf32>
          %6489 = amdgpu.mfma %6328 * %6312 + %6488 {blocks = 1 : i32, k = 8 : i32, m = 32 : i32, n = 32 : i32} blgp =  none : vector<4xf16>, vector<4xf16>, vector<16xf32>
          %6490 = amdgpu.mfma %6327 * %6313 + %arg50 {blocks = 1 : i32, k = 8 : i32, m = 32 : i32, n = 32 : i32} blgp =  none : vector<4xf16>, vector<4xf16>, vector<16xf32>
          %6491 = amdgpu.mfma %6328 * %6314 + %6490 {blocks = 1 : i32, k = 8 : i32, m = 32 : i32, n = 32 : i32} blgp =  none : vector<4xf16>, vector<4xf16>, vector<16xf32>
          %6492 = amdgpu.mfma %6327 * %6315 + %arg51 {blocks = 1 : i32, k = 8 : i32, m = 32 : i32, n = 32 : i32} blgp =  none : vector<4xf16>, vector<4xf16>, vector<16xf32>
          %6493 = amdgpu.mfma %6328 * %6316 + %6492 {blocks = 1 : i32, k = 8 : i32, m = 32 : i32, n = 32 : i32} blgp =  none : vector<4xf16>, vector<4xf16>, vector<16xf32>
          %6494 = amdgpu.mfma %6327 * %6317 + %arg52 {blocks = 1 : i32, k = 8 : i32, m = 32 : i32, n = 32 : i32} blgp =  none : vector<4xf16>, vector<4xf16>, vector<16xf32>
          %6495 = amdgpu.mfma %6328 * %6318 + %6494 {blocks = 1 : i32, k = 8 : i32, m = 32 : i32, n = 32 : i32} blgp =  none : vector<4xf16>, vector<4xf16>, vector<16xf32>
          %6496 = amdgpu.mfma %6327 * %6319 + %arg53 {blocks = 1 : i32, k = 8 : i32, m = 32 : i32, n = 32 : i32} blgp =  none : vector<4xf16>, vector<4xf16>, vector<16xf32>
          %6497 = amdgpu.mfma %6328 * %6320 + %6496 {blocks = 1 : i32, k = 8 : i32, m = 32 : i32, n = 32 : i32} blgp =  none : vector<4xf16>, vector<4xf16>, vector<16xf32>
          %6498 = amdgpu.mfma %6327 * %6321 + %arg54 {blocks = 1 : i32, k = 8 : i32, m = 32 : i32, n = 32 : i32} blgp =  none : vector<4xf16>, vector<4xf16>, vector<16xf32>
          %6499 = amdgpu.mfma %6328 * %6322 + %6498 {blocks = 1 : i32, k = 8 : i32, m = 32 : i32, n = 32 : i32} blgp =  none : vector<4xf16>, vector<4xf16>, vector<16xf32>
          %6500 = amdgpu.mfma %6329 * %6289 + %arg55 {blocks = 1 : i32, k = 8 : i32, m = 32 : i32, n = 32 : i32} blgp =  none : vector<4xf16>, vector<4xf16>, vector<16xf32>
          %6501 = amdgpu.mfma %6330 * %6290 + %6500 {blocks = 1 : i32, k = 8 : i32, m = 32 : i32, n = 32 : i32} blgp =  none : vector<4xf16>, vector<4xf16>, vector<16xf32>
          %6502 = amdgpu.mfma %6329 * %6291 + %arg56 {blocks = 1 : i32, k = 8 : i32, m = 32 : i32, n = 32 : i32} blgp =  none : vector<4xf16>, vector<4xf16>, vector<16xf32>
          %6503 = amdgpu.mfma %6330 * %6292 + %6502 {blocks = 1 : i32, k = 8 : i32, m = 32 : i32, n = 32 : i32} blgp =  none : vector<4xf16>, vector<4xf16>, vector<16xf32>
          %6504 = amdgpu.mfma %6329 * %6293 + %arg57 {blocks = 1 : i32, k = 8 : i32, m = 32 : i32, n = 32 : i32} blgp =  none : vector<4xf16>, vector<4xf16>, vector<16xf32>
          %6505 = amdgpu.mfma %6330 * %6294 + %6504 {blocks = 1 : i32, k = 8 : i32, m = 32 : i32, n = 32 : i32} blgp =  none : vector<4xf16>, vector<4xf16>, vector<16xf32>
          %6506 = amdgpu.mfma %6329 * %6295 + %arg58 {blocks = 1 : i32, k = 8 : i32, m = 32 : i32, n = 32 : i32} blgp =  none : vector<4xf16>, vector<4xf16>, vector<16xf32>
          %6507 = amdgpu.mfma %6330 * %6296 + %6506 {blocks = 1 : i32, k = 8 : i32, m = 32 : i32, n = 32 : i32} blgp =  none : vector<4xf16>, vector<4xf16>, vector<16xf32>
          %6508 = amdgpu.mfma %6329 * %6297 + %arg59 {blocks = 1 : i32, k = 8 : i32, m = 32 : i32, n = 32 : i32} blgp =  none : vector<4xf16>, vector<4xf16>, vector<16xf32>
          %6509 = amdgpu.mfma %6330 * %6298 + %6508 {blocks = 1 : i32, k = 8 : i32, m = 32 : i32, n = 32 : i32} blgp =  none : vector<4xf16>, vector<4xf16>, vector<16xf32>
          %6510 = amdgpu.mfma %6329 * %6299 + %arg60 {blocks = 1 : i32, k = 8 : i32, m = 32 : i32, n = 32 : i32} blgp =  none : vector<4xf16>, vector<4xf16>, vector<16xf32>
          %6511 = amdgpu.mfma %6330 * %6300 + %6510 {blocks = 1 : i32, k = 8 : i32, m = 32 : i32, n = 32 : i32} blgp =  none : vector<4xf16>, vector<4xf16>, vector<16xf32>
          %6512 = amdgpu.mfma %6329 * %6301 + %arg61 {blocks = 1 : i32, k = 8 : i32, m = 32 : i32, n = 32 : i32} blgp =  none : vector<4xf16>, vector<4xf16>, vector<16xf32>
          %6513 = amdgpu.mfma %6330 * %6302 + %6512 {blocks = 1 : i32, k = 8 : i32, m = 32 : i32, n = 32 : i32} blgp =  none : vector<4xf16>, vector<4xf16>, vector<16xf32>
          %6514 = amdgpu.mfma %6329 * %6303 + %arg62 {blocks = 1 : i32, k = 8 : i32, m = 32 : i32, n = 32 : i32} blgp =  none : vector<4xf16>, vector<4xf16>, vector<16xf32>
          %6515 = amdgpu.mfma %6330 * %6304 + %6514 {blocks = 1 : i32, k = 8 : i32, m = 32 : i32, n = 32 : i32} blgp =  none : vector<4xf16>, vector<4xf16>, vector<16xf32>
          %6516 = amdgpu.mfma %6329 * %6305 + %arg63 {blocks = 1 : i32, k = 8 : i32, m = 32 : i32, n = 32 : i32} blgp =  none : vector<4xf16>, vector<4xf16>, vector<16xf32>
          %6517 = amdgpu.mfma %6330 * %6306 + %6516 {blocks = 1 : i32, k = 8 : i32, m = 32 : i32, n = 32 : i32} blgp =  none : vector<4xf16>, vector<4xf16>, vector<16xf32>
          %6518 = amdgpu.mfma %6329 * %6307 + %arg64 {blocks = 1 : i32, k = 8 : i32, m = 32 : i32, n = 32 : i32} blgp =  none : vector<4xf16>, vector<4xf16>, vector<16xf32>
          %6519 = amdgpu.mfma %6330 * %6308 + %6518 {blocks = 1 : i32, k = 8 : i32, m = 32 : i32, n = 32 : i32} blgp =  none : vector<4xf16>, vector<4xf16>, vector<16xf32>
          %6520 = amdgpu.mfma %6329 * %6309 + %arg65 {blocks = 1 : i32, k = 8 : i32, m = 32 : i32, n = 32 : i32} blgp =  none : vector<4xf16>, vector<4xf16>, vector<16xf32>
          %6521 = amdgpu.mfma %6330 * %6310 + %6520 {blocks = 1 : i32, k = 8 : i32, m = 32 : i32, n = 32 : i32} blgp =  none : vector<4xf16>, vector<4xf16>, vector<16xf32>
          %6522 = amdgpu.mfma %6329 * %6311 + %arg66 {blocks = 1 : i32, k = 8 : i32, m = 32 : i32, n = 32 : i32} blgp =  none : vector<4xf16>, vector<4xf16>, vector<16xf32>
          %6523 = amdgpu.mfma %6330 * %6312 + %6522 {blocks = 1 : i32, k = 8 : i32, m = 32 : i32, n = 32 : i32} blgp =  none : vector<4xf16>, vector<4xf16>, vector<16xf32>
          %6524 = amdgpu.mfma %6329 * %6313 + %arg67 {blocks = 1 : i32, k = 8 : i32, m = 32 : i32, n = 32 : i32} blgp =  none : vector<4xf16>, vector<4xf16>, vector<16xf32>
          %6525 = amdgpu.mfma %6330 * %6314 + %6524 {blocks = 1 : i32, k = 8 : i32, m = 32 : i32, n = 32 : i32} blgp =  none : vector<4xf16>, vector<4xf16>, vector<16xf32>
          %6526 = amdgpu.mfma %6329 * %6315 + %arg68 {blocks = 1 : i32, k = 8 : i32, m = 32 : i32, n = 32 : i32} blgp =  none : vector<4xf16>, vector<4xf16>, vector<16xf32>
          %6527 = amdgpu.mfma %6330 * %6316 + %6526 {blocks = 1 : i32, k = 8 : i32, m = 32 : i32, n = 32 : i32} blgp =  none : vector<4xf16>, vector<4xf16>, vector<16xf32>
          %6528 = amdgpu.mfma %6329 * %6317 + %arg69 {blocks = 1 : i32, k = 8 : i32, m = 32 : i32, n = 32 : i32} blgp =  none : vector<4xf16>, vector<4xf16>, vector<16xf32>
          %6529 = amdgpu.mfma %6330 * %6318 + %6528 {blocks = 1 : i32, k = 8 : i32, m = 32 : i32, n = 32 : i32} blgp =  none : vector<4xf16>, vector<4xf16>, vector<16xf32>
          %6530 = amdgpu.mfma %6329 * %6319 + %arg70 {blocks = 1 : i32, k = 8 : i32, m = 32 : i32, n = 32 : i32} blgp =  none : vector<4xf16>, vector<4xf16>, vector<16xf32>
          %6531 = amdgpu.mfma %6330 * %6320 + %6530 {blocks = 1 : i32, k = 8 : i32, m = 32 : i32, n = 32 : i32} blgp =  none : vector<4xf16>, vector<4xf16>, vector<16xf32>
          %6532 = amdgpu.mfma %6329 * %6321 + %arg71 {blocks = 1 : i32, k = 8 : i32, m = 32 : i32, n = 32 : i32} blgp =  none : vector<4xf16>, vector<4xf16>, vector<16xf32>
          %6533 = amdgpu.mfma %6330 * %6322 + %6532 {blocks = 1 : i32, k = 8 : i32, m = 32 : i32, n = 32 : i32} blgp =  none : vector<4xf16>, vector<4xf16>, vector<16xf32>
          %6534 = amdgpu.mfma %6331 * %6289 + %arg72 {blocks = 1 : i32, k = 8 : i32, m = 32 : i32, n = 32 : i32} blgp =  none : vector<4xf16>, vector<4xf16>, vector<16xf32>
          %6535 = amdgpu.mfma %6332 * %6290 + %6534 {blocks = 1 : i32, k = 8 : i32, m = 32 : i32, n = 32 : i32} blgp =  none : vector<4xf16>, vector<4xf16>, vector<16xf32>
          %6536 = amdgpu.mfma %6331 * %6291 + %arg73 {blocks = 1 : i32, k = 8 : i32, m = 32 : i32, n = 32 : i32} blgp =  none : vector<4xf16>, vector<4xf16>, vector<16xf32>
          %6537 = amdgpu.mfma %6332 * %6292 + %6536 {blocks = 1 : i32, k = 8 : i32, m = 32 : i32, n = 32 : i32} blgp =  none : vector<4xf16>, vector<4xf16>, vector<16xf32>
          %6538 = amdgpu.mfma %6331 * %6293 + %arg74 {blocks = 1 : i32, k = 8 : i32, m = 32 : i32, n = 32 : i32} blgp =  none : vector<4xf16>, vector<4xf16>, vector<16xf32>
          %6539 = amdgpu.mfma %6332 * %6294 + %6538 {blocks = 1 : i32, k = 8 : i32, m = 32 : i32, n = 32 : i32} blgp =  none : vector<4xf16>, vector<4xf16>, vector<16xf32>
          %6540 = amdgpu.mfma %6331 * %6295 + %arg75 {blocks = 1 : i32, k = 8 : i32, m = 32 : i32, n = 32 : i32} blgp =  none : vector<4xf16>, vector<4xf16>, vector<16xf32>
          %6541 = amdgpu.mfma %6332 * %6296 + %6540 {blocks = 1 : i32, k = 8 : i32, m = 32 : i32, n = 32 : i32} blgp =  none : vector<4xf16>, vector<4xf16>, vector<16xf32>
          %6542 = amdgpu.mfma %6331 * %6297 + %arg76 {blocks = 1 : i32, k = 8 : i32, m = 32 : i32, n = 32 : i32} blgp =  none : vector<4xf16>, vector<4xf16>, vector<16xf32>
          %6543 = amdgpu.mfma %6332 * %6298 + %6542 {blocks = 1 : i32, k = 8 : i32, m = 32 : i32, n = 32 : i32} blgp =  none : vector<4xf16>, vector<4xf16>, vector<16xf32>
          %6544 = amdgpu.mfma %6331 * %6299 + %arg77 {blocks = 1 : i32, k = 8 : i32, m = 32 : i32, n = 32 : i32} blgp =  none : vector<4xf16>, vector<4xf16>, vector<16xf32>
          %6545 = amdgpu.mfma %6332 * %6300 + %6544 {blocks = 1 : i32, k = 8 : i32, m = 32 : i32, n = 32 : i32} blgp =  none : vector<4xf16>, vector<4xf16>, vector<16xf32>
          %6546 = amdgpu.mfma %6331 * %6301 + %arg78 {blocks = 1 : i32, k = 8 : i32, m = 32 : i32, n = 32 : i32} blgp =  none : vector<4xf16>, vector<4xf16>, vector<16xf32>
          %6547 = amdgpu.mfma %6332 * %6302 + %6546 {blocks = 1 : i32, k = 8 : i32, m = 32 : i32, n = 32 : i32} blgp =  none : vector<4xf16>, vector<4xf16>, vector<16xf32>
          %6548 = amdgpu.mfma %6331 * %6303 + %arg79 {blocks = 1 : i32, k = 8 : i32, m = 32 : i32, n = 32 : i32} blgp =  none : vector<4xf16>, vector<4xf16>, vector<16xf32>
          %6549 = amdgpu.mfma %6332 * %6304 + %6548 {blocks = 1 : i32, k = 8 : i32, m = 32 : i32, n = 32 : i32} blgp =  none : vector<4xf16>, vector<4xf16>, vector<16xf32>
          %6550 = amdgpu.mfma %6331 * %6305 + %arg80 {blocks = 1 : i32, k = 8 : i32, m = 32 : i32, n = 32 : i32} blgp =  none : vector<4xf16>, vector<4xf16>, vector<16xf32>
          %6551 = amdgpu.mfma %6332 * %6306 + %6550 {blocks = 1 : i32, k = 8 : i32, m = 32 : i32, n = 32 : i32} blgp =  none : vector<4xf16>, vector<4xf16>, vector<16xf32>
          %6552 = amdgpu.mfma %6331 * %6307 + %arg81 {blocks = 1 : i32, k = 8 : i32, m = 32 : i32, n = 32 : i32} blgp =  none : vector<4xf16>, vector<4xf16>, vector<16xf32>
          %6553 = amdgpu.mfma %6332 * %6308 + %6552 {blocks = 1 : i32, k = 8 : i32, m = 32 : i32, n = 32 : i32} blgp =  none : vector<4xf16>, vector<4xf16>, vector<16xf32>
          %6554 = amdgpu.mfma %6331 * %6309 + %arg82 {blocks = 1 : i32, k = 8 : i32, m = 32 : i32, n = 32 : i32} blgp =  none : vector<4xf16>, vector<4xf16>, vector<16xf32>
          %6555 = amdgpu.mfma %6332 * %6310 + %6554 {blocks = 1 : i32, k = 8 : i32, m = 32 : i32, n = 32 : i32} blgp =  none : vector<4xf16>, vector<4xf16>, vector<16xf32>
          %6556 = amdgpu.mfma %6331 * %6311 + %arg83 {blocks = 1 : i32, k = 8 : i32, m = 32 : i32, n = 32 : i32} blgp =  none : vector<4xf16>, vector<4xf16>, vector<16xf32>
          %6557 = amdgpu.mfma %6332 * %6312 + %6556 {blocks = 1 : i32, k = 8 : i32, m = 32 : i32, n = 32 : i32} blgp =  none : vector<4xf16>, vector<4xf16>, vector<16xf32>
          %6558 = amdgpu.mfma %6331 * %6313 + %arg84 {blocks = 1 : i32, k = 8 : i32, m = 32 : i32, n = 32 : i32} blgp =  none : vector<4xf16>, vector<4xf16>, vector<16xf32>
          %6559 = amdgpu.mfma %6332 * %6314 + %6558 {blocks = 1 : i32, k = 8 : i32, m = 32 : i32, n = 32 : i32} blgp =  none : vector<4xf16>, vector<4xf16>, vector<16xf32>
          %6560 = amdgpu.mfma %6331 * %6315 + %arg85 {blocks = 1 : i32, k = 8 : i32, m = 32 : i32, n = 32 : i32} blgp =  none : vector<4xf16>, vector<4xf16>, vector<16xf32>
          %6561 = amdgpu.mfma %6332 * %6316 + %6560 {blocks = 1 : i32, k = 8 : i32, m = 32 : i32, n = 32 : i32} blgp =  none : vector<4xf16>, vector<4xf16>, vector<16xf32>
          %6562 = amdgpu.mfma %6331 * %6317 + %arg86 {blocks = 1 : i32, k = 8 : i32, m = 32 : i32, n = 32 : i32} blgp =  none : vector<4xf16>, vector<4xf16>, vector<16xf32>
          %6563 = amdgpu.mfma %6332 * %6318 + %6562 {blocks = 1 : i32, k = 8 : i32, m = 32 : i32, n = 32 : i32} blgp =  none : vector<4xf16>, vector<4xf16>, vector<16xf32>
          %6564 = amdgpu.mfma %6331 * %6319 + %arg87 {blocks = 1 : i32, k = 8 : i32, m = 32 : i32, n = 32 : i32} blgp =  none : vector<4xf16>, vector<4xf16>, vector<16xf32>
          %6565 = amdgpu.mfma %6332 * %6320 + %6564 {blocks = 1 : i32, k = 8 : i32, m = 32 : i32, n = 32 : i32} blgp =  none : vector<4xf16>, vector<4xf16>, vector<16xf32>
          %6566 = amdgpu.mfma %6331 * %6321 + %arg88 {blocks = 1 : i32, k = 8 : i32, m = 32 : i32, n = 32 : i32} blgp =  none : vector<4xf16>, vector<4xf16>, vector<16xf32>
          %6567 = amdgpu.mfma %6332 * %6322 + %6566 {blocks = 1 : i32, k = 8 : i32, m = 32 : i32, n = 32 : i32} blgp =  none : vector<4xf16>, vector<4xf16>, vector<16xf32>
          amdgpu.lds_barrier
          vector.maskedstore %view_3[%103, %4], %105, %6341 : memref<532x20xf16, #gpu.address_space<workgroup>>, vector<8xi1>, vector<8xf16>
          vector.maskedstore %view_3[%106, %4], %108, %6349 : memref<532x20xf16, #gpu.address_space<workgroup>>, vector<8xi1>, vector<8xf16>
          vector.maskedstore %view_3[%109, %4], %111, %6357 : memref<532x20xf16, #gpu.address_space<workgroup>>, vector<8xi1>, vector<8xf16>
          vector.maskedstore %view[%114, %4], %116, %6365 : memref<1036x20xf16, #gpu.address_space<workgroup>>, vector<8xi1>, vector<8xf16>
          vector.maskedstore %view[%117, %4], %119, %6373 : memref<1036x20xf16, #gpu.address_space<workgroup>>, vector<8xi1>, vector<8xf16>
          vector.maskedstore %view[%120, %4], %122, %6381 : memref<1036x20xf16, #gpu.address_space<workgroup>>, vector<8xi1>, vector<8xf16>
          vector.maskedstore %view[%123, %4], %125, %6389 : memref<1036x20xf16, #gpu.address_space<workgroup>>, vector<8xi1>, vector<8xf16>
          vector.maskedstore %view[%126, %4], %128, %6397 : memref<1036x20xf16, #gpu.address_space<workgroup>>, vector<8xi1>, vector<8xf16>
          scf.yield %6399, %6401, %6403, %6405, %6407, %6409, %6411, %6413, %6415, %6417, %6419, %6421, %6423, %6425, %6427, %6429, %6431, %6433, %6435, %6437, %6439, %6441, %6443, %6445, %6447, %6449, %6451, %6453, %6455, %6457, %6459, %6461, %6463, %6465, %6467, %6469, %6471, %6473, %6475, %6477, %6479, %6481, %6483, %6485, %6487, %6489, %6491, %6493, %6495, %6497, %6499, %6501, %6503, %6505, %6507, %6509, %6511, %6513, %6515, %6517, %6519, %6521, %6523, %6525, %6527, %6529, %6531, %6533, %6535, %6537, %6539, %6541, %6543, %6545, %6547, %6549, %6551, %6553, %6555, %6557, %6559, %6561, %6563, %6565, %6567 : vector<16xf32>, vector<16xf32>, vector<16xf32>, vector<16xf32>, vector<16xf32>, vector<16xf32>, vector<16xf32>, vector<16xf32>, vector<16xf32>, vector<16xf32>, vector<16xf32>, vector<16xf32>, vector<16xf32>, vector<16xf32>, vector<16xf32>, vector<16xf32>, vector<16xf32>, vector<16xf32>, vector<16xf32>, vector<16xf32>, vector<16xf32>, vector<16xf32>, vector<16xf32>, vector<16xf32>, vector<16xf32>, vector<16xf32>, vector<16xf32>, vector<16xf32>, vector<16xf32>, vector<16xf32>, vector<16xf32>, vector<16xf32>, vector<16xf32>, vector<16xf32>, vector<16xf32>, vector<16xf32>, vector<16xf32>, vector<16xf32>, vector<16xf32>, vector<16xf32>, vector<16xf32>, vector<16xf32>, vector<16xf32>, vector<16xf32>, vector<16xf32>, vector<16xf32>, vector<16xf32>, vector<16xf32>, vector<16xf32>, vector<16xf32>, vector<16xf32>, vector<16xf32>, vector<16xf32>, vector<16xf32>, vector<16xf32>, vector<16xf32>, vector<16xf32>, vector<16xf32>, vector<16xf32>, vector<16xf32>, vector<16xf32>, vector<16xf32>, vector<16xf32>, vector<16xf32>, vector<16xf32>, vector<16xf32>, vector<16xf32>, vector<16xf32>, vector<16xf32>, vector<16xf32>, vector<16xf32>, vector<16xf32>, vector<16xf32>, vector<16xf32>, vector<16xf32>, vector<16xf32>, vector<16xf32>, vector<16xf32>, vector<16xf32>, vector<16xf32>, vector<16xf32>, vector<16xf32>, vector<16xf32>, vector<16xf32>, vector<16xf32>
        }
        amdgpu.lds_barrier
        %198 = affine.apply #map19()[%thread_id_x, %thread_id_y]
        %199 = arith.cmpi slt, %198, %113 : index
        %200 = vector.broadcast %199 : i1 to vector<4xi1>
        %201 = affine.apply #map20()[%thread_id_x]
        %202 = vector.maskedload %view[%198, %201], %200, %cst : memref<1036x20xf16, #gpu.address_space<workgroup>>, vector<4xi1>, vector<4xf16> into vector<4xf16>
        %203 = affine.apply #map21()[%thread_id_x]
        %204 = vector.maskedload %view[%198, %203], %200, %cst : memref<1036x20xf16, #gpu.address_space<workgroup>>, vector<4xi1>, vector<4xf16> into vector<4xf16>
        %205 = affine.apply #map22()[%thread_id_x, %thread_id_y]
        %206 = arith.cmpi slt, %205, %113 : index
        %207 = vector.broadcast %206 : i1 to vector<4xi1>
        %208 = vector.maskedload %view[%205, %201], %207, %cst : memref<1036x20xf16, #gpu.address_space<workgroup>>, vector<4xi1>, vector<4xf16> into vector<4xf16>
        %209 = vector.maskedload %view[%205, %203], %207, %cst : memref<1036x20xf16, #gpu.address_space<workgroup>>, vector<4xi1>, vector<4xf16> into vector<4xf16>
        %210 = affine.apply #map23()[%thread_id_x, %thread_id_y]
        %211 = arith.cmpi slt, %210, %113 : index
        %212 = vector.broadcast %211 : i1 to vector<4xi1>
        %213 = vector.maskedload %view[%210, %201], %212, %cst : memref<1036x20xf16, #gpu.address_space<workgroup>>, vector<4xi1>, vector<4xf16> into vector<4xf16>
        %214 = vector.maskedload %view[%210, %203], %212, %cst : memref<1036x20xf16, #gpu.address_space<workgroup>>, vector<4xi1>, vector<4xf16> into vector<4xf16>
        %215 = affine.apply #map24()[%thread_id_x, %thread_id_y]
        %216 = arith.cmpi slt, %215, %113 : index
        %217 = vector.broadcast %216 : i1 to vector<4xi1>
        %218 = vector.maskedload %view[%215, %201], %217, %cst : memref<1036x20xf16, #gpu.address_space<workgroup>>, vector<4xi1>, vector<4xf16> into vector<4xf16>
        %219 = vector.maskedload %view[%215, %203], %217, %cst : memref<1036x20xf16, #gpu.address_space<workgroup>>, vector<4xi1>, vector<4xf16> into vector<4xf16>
        %220 = affine.apply #map25()[%thread_id_x, %thread_id_y]
        %221 = arith.cmpi slt, %220, %113 : index
        %222 = vector.broadcast %221 : i1 to vector<4xi1>
        %223 = vector.maskedload %view[%220, %201], %222, %cst : memref<1036x20xf16, #gpu.address_space<workgroup>>, vector<4xi1>, vector<4xf16> into vector<4xf16>
        %224 = vector.maskedload %view[%220, %203], %222, %cst : memref<1036x20xf16, #gpu.address_space<workgroup>>, vector<4xi1>, vector<4xf16> into vector<4xf16>
        %225 = affine.apply #map26()[%thread_id_x, %thread_id_y]
        %226 = arith.cmpi slt, %225, %113 : index
        %227 = vector.broadcast %226 : i1 to vector<4xi1>
        %228 = vector.maskedload %view[%225, %201], %227, %cst : memref<1036x20xf16, #gpu.address_space<workgroup>>, vector<4xi1>, vector<4xf16> into vector<4xf16>
        %229 = vector.maskedload %view[%225, %203], %227, %cst : memref<1036x20xf16, #gpu.address_space<workgroup>>, vector<4xi1>, vector<4xf16> into vector<4xf16>
        %230 = affine.apply #map27()[%thread_id_x, %thread_id_y]
        %231 = arith.cmpi slt, %230, %113 : index
        %232 = vector.broadcast %231 : i1 to vector<4xi1>
        %233 = vector.maskedload %view[%230, %201], %232, %cst : memref<1036x20xf16, #gpu.address_space<workgroup>>, vector<4xi1>, vector<4xf16> into vector<4xf16>
        %234 = vector.maskedload %view[%230, %203], %232, %cst : memref<1036x20xf16, #gpu.address_space<workgroup>>, vector<4xi1>, vector<4xf16> into vector<4xf16>
        %235 = affine.apply #map28()[%thread_id_x, %thread_id_y]
        %236 = arith.cmpi slt, %235, %113 : index
        %237 = vector.broadcast %236 : i1 to vector<4xi1>
        %238 = vector.maskedload %view[%235, %201], %237, %cst : memref<1036x20xf16, #gpu.address_space<workgroup>>, vector<4xi1>, vector<4xf16> into vector<4xf16>
        %239 = vector.maskedload %view[%235, %203], %237, %cst : memref<1036x20xf16, #gpu.address_space<workgroup>>, vector<4xi1>, vector<4xf16> into vector<4xf16>
        %240 = affine.apply #map29()[%thread_id_x, %thread_id_y]
        %241 = arith.cmpi slt, %240, %113 : index
        %242 = vector.broadcast %241 : i1 to vector<4xi1>
        %243 = vector.maskedload %view[%240, %201], %242, %cst : memref<1036x20xf16, #gpu.address_space<workgroup>>, vector<4xi1>, vector<4xf16> into vector<4xf16>
        %244 = vector.maskedload %view[%240, %203], %242, %cst : memref<1036x20xf16, #gpu.address_space<workgroup>>, vector<4xi1>, vector<4xf16> into vector<4xf16>
        %245 = affine.apply #map30()[%thread_id_x, %thread_id_y]
        %246 = arith.cmpi slt, %245, %113 : index
        %247 = vector.broadcast %246 : i1 to vector<4xi1>
        %248 = vector.maskedload %view[%245, %201], %247, %cst : memref<1036x20xf16, #gpu.address_space<workgroup>>, vector<4xi1>, vector<4xf16> into vector<4xf16>
        %249 = vector.maskedload %view[%245, %203], %247, %cst : memref<1036x20xf16, #gpu.address_space<workgroup>>, vector<4xi1>, vector<4xf16> into vector<4xf16>
        %250 = affine.apply #map31()[%thread_id_x, %thread_id_y]
        %251 = arith.cmpi slt, %250, %113 : index
        %252 = vector.broadcast %251 : i1 to vector<4xi1>
        %253 = vector.maskedload %view[%250, %201], %252, %cst : memref<1036x20xf16, #gpu.address_space<workgroup>>, vector<4xi1>, vector<4xf16> into vector<4xf16>
        %254 = vector.maskedload %view[%250, %203], %252, %cst : memref<1036x20xf16, #gpu.address_space<workgroup>>, vector<4xi1>, vector<4xf16> into vector<4xf16>
        %255 = affine.apply #map32()[%thread_id_x, %thread_id_y]
        %256 = arith.cmpi slt, %255, %113 : index
        %257 = vector.broadcast %256 : i1 to vector<4xi1>
        %258 = vector.maskedload %view[%255, %201], %257, %cst : memref<1036x20xf16, #gpu.address_space<workgroup>>, vector<4xi1>, vector<4xf16> into vector<4xf16>
        %259 = vector.maskedload %view[%255, %203], %257, %cst : memref<1036x20xf16, #gpu.address_space<workgroup>>, vector<4xi1>, vector<4xf16> into vector<4xf16>
        %260 = affine.apply #map33()[%thread_id_x, %thread_id_y]
        %261 = arith.cmpi slt, %260, %113 : index
        %262 = vector.broadcast %261 : i1 to vector<4xi1>
        %263 = vector.maskedload %view[%260, %201], %262, %cst : memref<1036x20xf16, #gpu.address_space<workgroup>>, vector<4xi1>, vector<4xf16> into vector<4xf16>
        %264 = vector.maskedload %view[%260, %203], %262, %cst : memref<1036x20xf16, #gpu.address_space<workgroup>>, vector<4xi1>, vector<4xf16> into vector<4xf16>
        %265 = affine.apply #map34()[%thread_id_x, %thread_id_y]
        %266 = arith.cmpi slt, %265, %113 : index
        %267 = vector.broadcast %266 : i1 to vector<4xi1>
        %268 = vector.maskedload %view[%265, %201], %267, %cst : memref<1036x20xf16, #gpu.address_space<workgroup>>, vector<4xi1>, vector<4xf16> into vector<4xf16>
        %269 = vector.maskedload %view[%265, %203], %267, %cst : memref<1036x20xf16, #gpu.address_space<workgroup>>, vector<4xi1>, vector<4xf16> into vector<4xf16>
        %270 = affine.apply #map35()[%thread_id_x, %thread_id_y]
        %271 = arith.cmpi slt, %270, %113 : index
        %272 = vector.broadcast %271 : i1 to vector<4xi1>
        %273 = vector.maskedload %view[%270, %201], %272, %cst : memref<1036x20xf16, #gpu.address_space<workgroup>>, vector<4xi1>, vector<4xf16> into vector<4xf16>
        %274 = vector.maskedload %view[%270, %203], %272, %cst : memref<1036x20xf16, #gpu.address_space<workgroup>>, vector<4xi1>, vector<4xf16> into vector<4xf16>
        %275 = affine.apply #map36()[%thread_id_x, %thread_id_y]
        %276 = arith.cmpi slt, %275, %113 : index
        %277 = vector.broadcast %276 : i1 to vector<4xi1>
        %278 = vector.maskedload %view[%275, %201], %277, %cst : memref<1036x20xf16, #gpu.address_space<workgroup>>, vector<4xi1>, vector<4xf16> into vector<4xf16>
        %279 = vector.maskedload %view[%275, %203], %277, %cst : memref<1036x20xf16, #gpu.address_space<workgroup>>, vector<4xi1>, vector<4xf16> into vector<4xf16>
        %280 = affine.apply #map37()[%thread_id_x, %thread_id_y]
        %281 = arith.cmpi slt, %280, %113 : index
        %282 = vector.broadcast %281 : i1 to vector<4xi1>
        %283 = vector.maskedload %view[%280, %201], %282, %cst : memref<1036x20xf16, #gpu.address_space<workgroup>>, vector<4xi1>, vector<4xf16> into vector<4xf16>
        %284 = vector.maskedload %view[%280, %203], %282, %cst : memref<1036x20xf16, #gpu.address_space<workgroup>>, vector<4xi1>, vector<4xf16> into vector<4xf16>
        %285 = affine.apply #map38()[%thread_id_x]
        %286 = arith.cmpi slt, %285, %102 : index
        %287 = vector.broadcast %286 : i1 to vector<4xi1>
        %288 = vector.maskedload %view_3[%285, %201], %287, %cst : memref<532x20xf16, #gpu.address_space<workgroup>>, vector<4xi1>, vector<4xf16> into vector<4xf16>
        %289 = vector.maskedload %view_3[%285, %203], %287, %cst : memref<532x20xf16, #gpu.address_space<workgroup>>, vector<4xi1>, vector<4xf16> into vector<4xf16>
        %290 = affine.apply #map39()[%thread_id_x]
        %291 = arith.cmpi slt, %290, %102 : index
        %292 = vector.broadcast %291 : i1 to vector<4xi1>
        %293 = vector.maskedload %view_3[%290, %201], %292, %cst : memref<532x20xf16, #gpu.address_space<workgroup>>, vector<4xi1>, vector<4xf16> into vector<4xf16>
        %294 = vector.maskedload %view_3[%290, %203], %292, %cst : memref<532x20xf16, #gpu.address_space<workgroup>>, vector<4xi1>, vector<4xf16> into vector<4xf16>
        %295 = affine.apply #map40()[%thread_id_x]
        %296 = arith.cmpi slt, %295, %102 : index
        %297 = vector.broadcast %296 : i1 to vector<4xi1>
        %298 = vector.maskedload %view_3[%295, %201], %297, %cst : memref<532x20xf16, #gpu.address_space<workgroup>>, vector<4xi1>, vector<4xf16> into vector<4xf16>
        %299 = vector.maskedload %view_3[%295, %203], %297, %cst : memref<532x20xf16, #gpu.address_space<workgroup>>, vector<4xi1>, vector<4xf16> into vector<4xf16>
        %300 = affine.apply #map41()[%thread_id_x]
        %301 = arith.cmpi slt, %300, %102 : index
        %302 = vector.broadcast %301 : i1 to vector<4xi1>
        %303 = vector.maskedload %view_3[%300, %201], %302, %cst : memref<532x20xf16, #gpu.address_space<workgroup>>, vector<4xi1>, vector<4xf16> into vector<4xf16>
        %304 = vector.maskedload %view_3[%300, %203], %302, %cst : memref<532x20xf16, #gpu.address_space<workgroup>>, vector<4xi1>, vector<4xf16> into vector<4xf16>
        %305 = affine.apply #map42()[%thread_id_x]
        %306 = arith.cmpi slt, %305, %102 : index
        %307 = vector.broadcast %306 : i1 to vector<4xi1>
        %308 = vector.maskedload %view_3[%305, %201], %307, %cst : memref<532x20xf16, #gpu.address_space<workgroup>>, vector<4xi1>, vector<4xf16> into vector<4xf16>
        %309 = vector.maskedload %view_3[%305, %203], %307, %cst : memref<532x20xf16, #gpu.address_space<workgroup>>, vector<4xi1>, vector<4xf16> into vector<4xf16>
        %310 = amdgpu.mfma %288 * %202 + %197#0 {blocks = 1 : i32, k = 8 : i32, m = 32 : i32, n = 32 : i32} blgp =  none : vector<4xf16>, vector<4xf16>, vector<16xf32>
        %311 = amdgpu.mfma %289 * %204 + %310 {blocks = 1 : i32, k = 8 : i32, m = 32 : i32, n = 32 : i32} blgp =  none : vector<4xf16>, vector<4xf16>, vector<16xf32>
        %312 = amdgpu.mfma %288 * %208 + %197#1 {blocks = 1 : i32, k = 8 : i32, m = 32 : i32, n = 32 : i32} blgp =  none : vector<4xf16>, vector<4xf16>, vector<16xf32>
        %313 = amdgpu.mfma %289 * %209 + %312 {blocks = 1 : i32, k = 8 : i32, m = 32 : i32, n = 32 : i32} blgp =  none : vector<4xf16>, vector<4xf16>, vector<16xf32>
        %314 = amdgpu.mfma %288 * %213 + %197#2 {blocks = 1 : i32, k = 8 : i32, m = 32 : i32, n = 32 : i32} blgp =  none : vector<4xf16>, vector<4xf16>, vector<16xf32>
        %315 = amdgpu.mfma %289 * %214 + %314 {blocks = 1 : i32, k = 8 : i32, m = 32 : i32, n = 32 : i32} blgp =  none : vector<4xf16>, vector<4xf16>, vector<16xf32>
        %316 = amdgpu.mfma %288 * %218 + %197#3 {blocks = 1 : i32, k = 8 : i32, m = 32 : i32, n = 32 : i32} blgp =  none : vector<4xf16>, vector<4xf16>, vector<16xf32>
        %317 = amdgpu.mfma %289 * %219 + %316 {blocks = 1 : i32, k = 8 : i32, m = 32 : i32, n = 32 : i32} blgp =  none : vector<4xf16>, vector<4xf16>, vector<16xf32>
        %318 = amdgpu.mfma %288 * %223 + %197#4 {blocks = 1 : i32, k = 8 : i32, m = 32 : i32, n = 32 : i32} blgp =  none : vector<4xf16>, vector<4xf16>, vector<16xf32>
        %319 = amdgpu.mfma %289 * %224 + %318 {blocks = 1 : i32, k = 8 : i32, m = 32 : i32, n = 32 : i32} blgp =  none : vector<4xf16>, vector<4xf16>, vector<16xf32>
        %320 = amdgpu.mfma %288 * %228 + %197#5 {blocks = 1 : i32, k = 8 : i32, m = 32 : i32, n = 32 : i32} blgp =  none : vector<4xf16>, vector<4xf16>, vector<16xf32>
        %321 = amdgpu.mfma %289 * %229 + %320 {blocks = 1 : i32, k = 8 : i32, m = 32 : i32, n = 32 : i32} blgp =  none : vector<4xf16>, vector<4xf16>, vector<16xf32>
        %322 = amdgpu.mfma %288 * %233 + %197#6 {blocks = 1 : i32, k = 8 : i32, m = 32 : i32, n = 32 : i32} blgp =  none : vector<4xf16>, vector<4xf16>, vector<16xf32>
        %323 = amdgpu.mfma %289 * %234 + %322 {blocks = 1 : i32, k = 8 : i32, m = 32 : i32, n = 32 : i32} blgp =  none : vector<4xf16>, vector<4xf16>, vector<16xf32>
        %324 = amdgpu.mfma %288 * %238 + %197#7 {blocks = 1 : i32, k = 8 : i32, m = 32 : i32, n = 32 : i32} blgp =  none : vector<4xf16>, vector<4xf16>, vector<16xf32>
        %325 = amdgpu.mfma %289 * %239 + %324 {blocks = 1 : i32, k = 8 : i32, m = 32 : i32, n = 32 : i32} blgp =  none : vector<4xf16>, vector<4xf16>, vector<16xf32>
        %326 = amdgpu.mfma %288 * %243 + %197#8 {blocks = 1 : i32, k = 8 : i32, m = 32 : i32, n = 32 : i32} blgp =  none : vector<4xf16>, vector<4xf16>, vector<16xf32>
        %327 = amdgpu.mfma %289 * %244 + %326 {blocks = 1 : i32, k = 8 : i32, m = 32 : i32, n = 32 : i32} blgp =  none : vector<4xf16>, vector<4xf16>, vector<16xf32>
        %328 = amdgpu.mfma %288 * %248 + %197#9 {blocks = 1 : i32, k = 8 : i32, m = 32 : i32, n = 32 : i32} blgp =  none : vector<4xf16>, vector<4xf16>, vector<16xf32>
        %329 = amdgpu.mfma %289 * %249 + %328 {blocks = 1 : i32, k = 8 : i32, m = 32 : i32, n = 32 : i32} blgp =  none : vector<4xf16>, vector<4xf16>, vector<16xf32>
        %330 = amdgpu.mfma %288 * %253 + %197#10 {blocks = 1 : i32, k = 8 : i32, m = 32 : i32, n = 32 : i32} blgp =  none : vector<4xf16>, vector<4xf16>, vector<16xf32>
        %331 = amdgpu.mfma %289 * %254 + %330 {blocks = 1 : i32, k = 8 : i32, m = 32 : i32, n = 32 : i32} blgp =  none : vector<4xf16>, vector<4xf16>, vector<16xf32>
        %332 = amdgpu.mfma %288 * %258 + %197#11 {blocks = 1 : i32, k = 8 : i32, m = 32 : i32, n = 32 : i32} blgp =  none : vector<4xf16>, vector<4xf16>, vector<16xf32>
        %333 = amdgpu.mfma %289 * %259 + %332 {blocks = 1 : i32, k = 8 : i32, m = 32 : i32, n = 32 : i32} blgp =  none : vector<4xf16>, vector<4xf16>, vector<16xf32>
        %334 = amdgpu.mfma %288 * %263 + %197#12 {blocks = 1 : i32, k = 8 : i32, m = 32 : i32, n = 32 : i32} blgp =  none : vector<4xf16>, vector<4xf16>, vector<16xf32>
        %335 = amdgpu.mfma %289 * %264 + %334 {blocks = 1 : i32, k = 8 : i32, m = 32 : i32, n = 32 : i32} blgp =  none : vector<4xf16>, vector<4xf16>, vector<16xf32>
        %336 = amdgpu.mfma %288 * %268 + %197#13 {blocks = 1 : i32, k = 8 : i32, m = 32 : i32, n = 32 : i32} blgp =  none : vector<4xf16>, vector<4xf16>, vector<16xf32>
        %337 = amdgpu.mfma %289 * %269 + %336 {blocks = 1 : i32, k = 8 : i32, m = 32 : i32, n = 32 : i32} blgp =  none : vector<4xf16>, vector<4xf16>, vector<16xf32>
        %338 = amdgpu.mfma %288 * %273 + %197#14 {blocks = 1 : i32, k = 8 : i32, m = 32 : i32, n = 32 : i32} blgp =  none : vector<4xf16>, vector<4xf16>, vector<16xf32>
        %339 = amdgpu.mfma %289 * %274 + %338 {blocks = 1 : i32, k = 8 : i32, m = 32 : i32, n = 32 : i32} blgp =  none : vector<4xf16>, vector<4xf16>, vector<16xf32>
        %340 = amdgpu.mfma %288 * %278 + %197#15 {blocks = 1 : i32, k = 8 : i32, m = 32 : i32, n = 32 : i32} blgp =  none : vector<4xf16>, vector<4xf16>, vector<16xf32>
        %341 = amdgpu.mfma %289 * %279 + %340 {blocks = 1 : i32, k = 8 : i32, m = 32 : i32, n = 32 : i32} blgp =  none : vector<4xf16>, vector<4xf16>, vector<16xf32>
        %342 = amdgpu.mfma %288 * %283 + %197#16 {blocks = 1 : i32, k = 8 : i32, m = 32 : i32, n = 32 : i32} blgp =  none : vector<4xf16>, vector<4xf16>, vector<16xf32>
        %343 = amdgpu.mfma %289 * %284 + %342 {blocks = 1 : i32, k = 8 : i32, m = 32 : i32, n = 32 : i32} blgp =  none : vector<4xf16>, vector<4xf16>, vector<16xf32>
        %344 = amdgpu.mfma %293 * %202 + %197#17 {blocks = 1 : i32, k = 8 : i32, m = 32 : i32, n = 32 : i32} blgp =  none : vector<4xf16>, vector<4xf16>, vector<16xf32>
        %345 = amdgpu.mfma %294 * %204 + %344 {blocks = 1 : i32, k = 8 : i32, m = 32 : i32, n = 32 : i32} blgp =  none : vector<4xf16>, vector<4xf16>, vector<16xf32>
        %346 = amdgpu.mfma %293 * %208 + %197#18 {blocks = 1 : i32, k = 8 : i32, m = 32 : i32, n = 32 : i32} blgp =  none : vector<4xf16>, vector<4xf16>, vector<16xf32>
        %347 = amdgpu.mfma %294 * %209 + %346 {blocks = 1 : i32, k = 8 : i32, m = 32 : i32, n = 32 : i32} blgp =  none : vector<4xf16>, vector<4xf16>, vector<16xf32>
        %348 = amdgpu.mfma %293 * %213 + %197#19 {blocks = 1 : i32, k = 8 : i32, m = 32 : i32, n = 32 : i32} blgp =  none : vector<4xf16>, vector<4xf16>, vector<16xf32>
        %349 = amdgpu.mfma %294 * %214 + %348 {blocks = 1 : i32, k = 8 : i32, m = 32 : i32, n = 32 : i32} blgp =  none : vector<4xf16>, vector<4xf16>, vector<16xf32>
        %350 = amdgpu.mfma %293 * %218 + %197#20 {blocks = 1 : i32, k = 8 : i32, m = 32 : i32, n = 32 : i32} blgp =  none : vector<4xf16>, vector<4xf16>, vector<16xf32>
        %351 = amdgpu.mfma %294 * %219 + %350 {blocks = 1 : i32, k = 8 : i32, m = 32 : i32, n = 32 : i32} blgp =  none : vector<4xf16>, vector<4xf16>, vector<16xf32>
        %352 = amdgpu.mfma %293 * %223 + %197#21 {blocks = 1 : i32, k = 8 : i32, m = 32 : i32, n = 32 : i32} blgp =  none : vector<4xf16>, vector<4xf16>, vector<16xf32>
        %353 = amdgpu.mfma %294 * %224 + %352 {blocks = 1 : i32, k = 8 : i32, m = 32 : i32, n = 32 : i32} blgp =  none : vector<4xf16>, vector<4xf16>, vector<16xf32>
        %354 = amdgpu.mfma %293 * %228 + %197#22 {blocks = 1 : i32, k = 8 : i32, m = 32 : i32, n = 32 : i32} blgp =  none : vector<4xf16>, vector<4xf16>, vector<16xf32>
        %355 = amdgpu.mfma %294 * %229 + %354 {blocks = 1 : i32, k = 8 : i32, m = 32 : i32, n = 32 : i32} blgp =  none : vector<4xf16>, vector<4xf16>, vector<16xf32>
        %356 = amdgpu.mfma %293 * %233 + %197#23 {blocks = 1 : i32, k = 8 : i32, m = 32 : i32, n = 32 : i32} blgp =  none : vector<4xf16>, vector<4xf16>, vector<16xf32>
        %357 = amdgpu.mfma %294 * %234 + %356 {blocks = 1 : i32, k = 8 : i32, m = 32 : i32, n = 32 : i32} blgp =  none : vector<4xf16>, vector<4xf16>, vector<16xf32>
        %358 = amdgpu.mfma %293 * %238 + %197#24 {blocks = 1 : i32, k = 8 : i32, m = 32 : i32, n = 32 : i32} blgp =  none : vector<4xf16>, vector<4xf16>, vector<16xf32>
        %359 = amdgpu.mfma %294 * %239 + %358 {blocks = 1 : i32, k = 8 : i32, m = 32 : i32, n = 32 : i32} blgp =  none : vector<4xf16>, vector<4xf16>, vector<16xf32>
        %360 = amdgpu.mfma %293 * %243 + %197#25 {blocks = 1 : i32, k = 8 : i32, m = 32 : i32, n = 32 : i32} blgp =  none : vector<4xf16>, vector<4xf16>, vector<16xf32>
        %361 = amdgpu.mfma %294 * %244 + %360 {blocks = 1 : i32, k = 8 : i32, m = 32 : i32, n = 32 : i32} blgp =  none : vector<4xf16>, vector<4xf16>, vector<16xf32>
        %362 = amdgpu.mfma %293 * %248 + %197#26 {blocks = 1 : i32, k = 8 : i32, m = 32 : i32, n = 32 : i32} blgp =  none : vector<4xf16>, vector<4xf16>, vector<16xf32>
        %363 = amdgpu.mfma %294 * %249 + %362 {blocks = 1 : i32, k = 8 : i32, m = 32 : i32, n = 32 : i32} blgp =  none : vector<4xf16>, vector<4xf16>, vector<16xf32>
        %364 = amdgpu.mfma %293 * %253 + %197#27 {blocks = 1 : i32, k = 8 : i32, m = 32 : i32, n = 32 : i32} blgp =  none : vector<4xf16>, vector<4xf16>, vector<16xf32>
        %365 = amdgpu.mfma %294 * %254 + %364 {blocks = 1 : i32, k = 8 : i32, m = 32 : i32, n = 32 : i32} blgp =  none : vector<4xf16>, vector<4xf16>, vector<16xf32>
        %366 = amdgpu.mfma %293 * %258 + %197#28 {blocks = 1 : i32, k = 8 : i32, m = 32 : i32, n = 32 : i32} blgp =  none : vector<4xf16>, vector<4xf16>, vector<16xf32>
        %367 = amdgpu.mfma %294 * %259 + %366 {blocks = 1 : i32, k = 8 : i32, m = 32 : i32, n = 32 : i32} blgp =  none : vector<4xf16>, vector<4xf16>, vector<16xf32>
        %368 = amdgpu.mfma %293 * %263 + %197#29 {blocks = 1 : i32, k = 8 : i32, m = 32 : i32, n = 32 : i32} blgp =  none : vector<4xf16>, vector<4xf16>, vector<16xf32>
        %369 = amdgpu.mfma %294 * %264 + %368 {blocks = 1 : i32, k = 8 : i32, m = 32 : i32, n = 32 : i32} blgp =  none : vector<4xf16>, vector<4xf16>, vector<16xf32>
        %370 = amdgpu.mfma %293 * %268 + %197#30 {blocks = 1 : i32, k = 8 : i32, m = 32 : i32, n = 32 : i32} blgp =  none : vector<4xf16>, vector<4xf16>, vector<16xf32>
        %371 = amdgpu.mfma %294 * %269 + %370 {blocks = 1 : i32, k = 8 : i32, m = 32 : i32, n = 32 : i32} blgp =  none : vector<4xf16>, vector<4xf16>, vector<16xf32>
        %372 = amdgpu.mfma %293 * %273 + %197#31 {blocks = 1 : i32, k = 8 : i32, m = 32 : i32, n = 32 : i32} blgp =  none : vector<4xf16>, vector<4xf16>, vector<16xf32>
        %373 = amdgpu.mfma %294 * %274 + %372 {blocks = 1 : i32, k = 8 : i32, m = 32 : i32, n = 32 : i32} blgp =  none : vector<4xf16>, vector<4xf16>, vector<16xf32>
        %374 = amdgpu.mfma %293 * %278 + %197#32 {blocks = 1 : i32, k = 8 : i32, m = 32 : i32, n = 32 : i32} blgp =  none : vector<4xf16>, vector<4xf16>, vector<16xf32>
        %375 = amdgpu.mfma %294 * %279 + %374 {blocks = 1 : i32, k = 8 : i32, m = 32 : i32, n = 32 : i32} blgp =  none : vector<4xf16>, vector<4xf16>, vector<16xf32>
        %376 = amdgpu.mfma %293 * %283 + %197#33 {blocks = 1 : i32, k = 8 : i32, m = 32 : i32, n = 32 : i32} blgp =  none : vector<4xf16>, vector<4xf16>, vector<16xf32>
        %377 = amdgpu.mfma %294 * %284 + %376 {blocks = 1 : i32, k = 8 : i32, m = 32 : i32, n = 32 : i32} blgp =  none : vector<4xf16>, vector<4xf16>, vector<16xf32>
        %378 = amdgpu.mfma %298 * %202 + %197#34 {blocks = 1 : i32, k = 8 : i32, m = 32 : i32, n = 32 : i32} blgp =  none : vector<4xf16>, vector<4xf16>, vector<16xf32>
        %379 = amdgpu.mfma %299 * %204 + %378 {blocks = 1 : i32, k = 8 : i32, m = 32 : i32, n = 32 : i32} blgp =  none : vector<4xf16>, vector<4xf16>, vector<16xf32>
        %380 = amdgpu.mfma %298 * %208 + %197#35 {blocks = 1 : i32, k = 8 : i32, m = 32 : i32, n = 32 : i32} blgp =  none : vector<4xf16>, vector<4xf16>, vector<16xf32>
        %381 = amdgpu.mfma %299 * %209 + %380 {blocks = 1 : i32, k = 8 : i32, m = 32 : i32, n = 32 : i32} blgp =  none : vector<4xf16>, vector<4xf16>, vector<16xf32>
        %382 = amdgpu.mfma %298 * %213 + %197#36 {blocks = 1 : i32, k = 8 : i32, m = 32 : i32, n = 32 : i32} blgp =  none : vector<4xf16>, vector<4xf16>, vector<16xf32>
        %383 = amdgpu.mfma %299 * %214 + %382 {blocks = 1 : i32, k = 8 : i32, m = 32 : i32, n = 32 : i32} blgp =  none : vector<4xf16>, vector<4xf16>, vector<16xf32>
        %384 = amdgpu.mfma %298 * %218 + %197#37 {blocks = 1 : i32, k = 8 : i32, m = 32 : i32, n = 32 : i32} blgp =  none : vector<4xf16>, vector<4xf16>, vector<16xf32>
        %385 = amdgpu.mfma %299 * %219 + %384 {blocks = 1 : i32, k = 8 : i32, m = 32 : i32, n = 32 : i32} blgp =  none : vector<4xf16>, vector<4xf16>, vector<16xf32>
        %386 = amdgpu.mfma %298 * %223 + %197#38 {blocks = 1 : i32, k = 8 : i32, m = 32 : i32, n = 32 : i32} blgp =  none : vector<4xf16>, vector<4xf16>, vector<16xf32>
        %387 = amdgpu.mfma %299 * %224 + %386 {blocks = 1 : i32, k = 8 : i32, m = 32 : i32, n = 32 : i32} blgp =  none : vector<4xf16>, vector<4xf16>, vector<16xf32>
        %388 = amdgpu.mfma %298 * %228 + %197#39 {blocks = 1 : i32, k = 8 : i32, m = 32 : i32, n = 32 : i32} blgp =  none : vector<4xf16>, vector<4xf16>, vector<16xf32>
        %389 = amdgpu.mfma %299 * %229 + %388 {blocks = 1 : i32, k = 8 : i32, m = 32 : i32, n = 32 : i32} blgp =  none : vector<4xf16>, vector<4xf16>, vector<16xf32>
        %390 = amdgpu.mfma %298 * %233 + %197#40 {blocks = 1 : i32, k = 8 : i32, m = 32 : i32, n = 32 : i32} blgp =  none : vector<4xf16>, vector<4xf16>, vector<16xf32>
        %391 = amdgpu.mfma %299 * %234 + %390 {blocks = 1 : i32, k = 8 : i32, m = 32 : i32, n = 32 : i32} blgp =  none : vector<4xf16>, vector<4xf16>, vector<16xf32>
        %392 = amdgpu.mfma %298 * %238 + %197#41 {blocks = 1 : i32, k = 8 : i32, m = 32 : i32, n = 32 : i32} blgp =  none : vector<4xf16>, vector<4xf16>, vector<16xf32>
        %393 = amdgpu.mfma %299 * %239 + %392 {blocks = 1 : i32, k = 8 : i32, m = 32 : i32, n = 32 : i32} blgp =  none : vector<4xf16>, vector<4xf16>, vector<16xf32>
        %394 = amdgpu.mfma %298 * %243 + %197#42 {blocks = 1 : i32, k = 8 : i32, m = 32 : i32, n = 32 : i32} blgp =  none : vector<4xf16>, vector<4xf16>, vector<16xf32>
        %395 = amdgpu.mfma %299 * %244 + %394 {blocks = 1 : i32, k = 8 : i32, m = 32 : i32, n = 32 : i32} blgp =  none : vector<4xf16>, vector<4xf16>, vector<16xf32>
        %396 = amdgpu.mfma %298 * %248 + %197#43 {blocks = 1 : i32, k = 8 : i32, m = 32 : i32, n = 32 : i32} blgp =  none : vector<4xf16>, vector<4xf16>, vector<16xf32>
        %397 = amdgpu.mfma %299 * %249 + %396 {blocks = 1 : i32, k = 8 : i32, m = 32 : i32, n = 32 : i32} blgp =  none : vector<4xf16>, vector<4xf16>, vector<16xf32>
        %398 = amdgpu.mfma %298 * %253 + %197#44 {blocks = 1 : i32, k = 8 : i32, m = 32 : i32, n = 32 : i32} blgp =  none : vector<4xf16>, vector<4xf16>, vector<16xf32>
        %399 = amdgpu.mfma %299 * %254 + %398 {blocks = 1 : i32, k = 8 : i32, m = 32 : i32, n = 32 : i32} blgp =  none : vector<4xf16>, vector<4xf16>, vector<16xf32>
        %400 = amdgpu.mfma %298 * %258 + %197#45 {blocks = 1 : i32, k = 8 : i32, m = 32 : i32, n = 32 : i32} blgp =  none : vector<4xf16>, vector<4xf16>, vector<16xf32>
        %401 = amdgpu.mfma %299 * %259 + %400 {blocks = 1 : i32, k = 8 : i32, m = 32 : i32, n = 32 : i32} blgp =  none : vector<4xf16>, vector<4xf16>, vector<16xf32>
        %402 = amdgpu.mfma %298 * %263 + %197#46 {blocks = 1 : i32, k = 8 : i32, m = 32 : i32, n = 32 : i32} blgp =  none : vector<4xf16>, vector<4xf16>, vector<16xf32>
        %403 = amdgpu.mfma %299 * %264 + %402 {blocks = 1 : i32, k = 8 : i32, m = 32 : i32, n = 32 : i32} blgp =  none : vector<4xf16>, vector<4xf16>, vector<16xf32>
        %404 = amdgpu.mfma %298 * %268 + %197#47 {blocks = 1 : i32, k = 8 : i32, m = 32 : i32, n = 32 : i32} blgp =  none : vector<4xf16>, vector<4xf16>, vector<16xf32>
        %405 = amdgpu.mfma %299 * %269 + %404 {blocks = 1 : i32, k = 8 : i32, m = 32 : i32, n = 32 : i32} blgp =  none : vector<4xf16>, vector<4xf16>, vector<16xf32>
        %406 = amdgpu.mfma %298 * %273 + %197#48 {blocks = 1 : i32, k = 8 : i32, m = 32 : i32, n = 32 : i32} blgp =  none : vector<4xf16>, vector<4xf16>, vector<16xf32>
        %407 = amdgpu.mfma %299 * %274 + %406 {blocks = 1 : i32, k = 8 : i32, m = 32 : i32, n = 32 : i32} blgp =  none : vector<4xf16>, vector<4xf16>, vector<16xf32>
        %408 = amdgpu.mfma %298 * %278 + %197#49 {blocks = 1 : i32, k = 8 : i32, m = 32 : i32, n = 32 : i32} blgp =  none : vector<4xf16>, vector<4xf16>, vector<16xf32>
        %409 = amdgpu.mfma %299 * %279 + %408 {blocks = 1 : i32, k = 8 : i32, m = 32 : i32, n = 32 : i32} blgp =  none : vector<4xf16>, vector<4xf16>, vector<16xf32>
        %410 = amdgpu.mfma %298 * %283 + %197#50 {blocks = 1 : i32, k = 8 : i32, m = 32 : i32, n = 32 : i32} blgp =  none : vector<4xf16>, vector<4xf16>, vector<16xf32>
        %411 = amdgpu.mfma %299 * %284 + %410 {blocks = 1 : i32, k = 8 : i32, m = 32 : i32, n = 32 : i32} blgp =  none : vector<4xf16>, vector<4xf16>, vector<16xf32>
        %412 = amdgpu.mfma %303 * %202 + %197#51 {blocks = 1 : i32, k = 8 : i32, m = 32 : i32, n = 32 : i32} blgp =  none : vector<4xf16>, vector<4xf16>, vector<16xf32>
        %413 = amdgpu.mfma %304 * %204 + %412 {blocks = 1 : i32, k = 8 : i32, m = 32 : i32, n = 32 : i32} blgp =  none : vector<4xf16>, vector<4xf16>, vector<16xf32>
        %414 = amdgpu.mfma %303 * %208 + %197#52 {blocks = 1 : i32, k = 8 : i32, m = 32 : i32, n = 32 : i32} blgp =  none : vector<4xf16>, vector<4xf16>, vector<16xf32>
        %415 = amdgpu.mfma %304 * %209 + %414 {blocks = 1 : i32, k = 8 : i32, m = 32 : i32, n = 32 : i32} blgp =  none : vector<4xf16>, vector<4xf16>, vector<16xf32>
        %416 = amdgpu.mfma %303 * %213 + %197#53 {blocks = 1 : i32, k = 8 : i32, m = 32 : i32, n = 32 : i32} blgp =  none : vector<4xf16>, vector<4xf16>, vector<16xf32>
        %417 = amdgpu.mfma %304 * %214 + %416 {blocks = 1 : i32, k = 8 : i32, m = 32 : i32, n = 32 : i32} blgp =  none : vector<4xf16>, vector<4xf16>, vector<16xf32>
        %418 = amdgpu.mfma %303 * %218 + %197#54 {blocks = 1 : i32, k = 8 : i32, m = 32 : i32, n = 32 : i32} blgp =  none : vector<4xf16>, vector<4xf16>, vector<16xf32>
        %419 = amdgpu.mfma %304 * %219 + %418 {blocks = 1 : i32, k = 8 : i32, m = 32 : i32, n = 32 : i32} blgp =  none : vector<4xf16>, vector<4xf16>, vector<16xf32>
        %420 = amdgpu.mfma %303 * %223 + %197#55 {blocks = 1 : i32, k = 8 : i32, m = 32 : i32, n = 32 : i32} blgp =  none : vector<4xf16>, vector<4xf16>, vector<16xf32>
        %421 = amdgpu.mfma %304 * %224 + %420 {blocks = 1 : i32, k = 8 : i32, m = 32 : i32, n = 32 : i32} blgp =  none : vector<4xf16>, vector<4xf16>, vector<16xf32>
        %422 = amdgpu.mfma %303 * %228 + %197#56 {blocks = 1 : i32, k = 8 : i32, m = 32 : i32, n = 32 : i32} blgp =  none : vector<4xf16>, vector<4xf16>, vector<16xf32>
        %423 = amdgpu.mfma %304 * %229 + %422 {blocks = 1 : i32, k = 8 : i32, m = 32 : i32, n = 32 : i32} blgp =  none : vector<4xf16>, vector<4xf16>, vector<16xf32>
        %424 = amdgpu.mfma %303 * %233 + %197#57 {blocks = 1 : i32, k = 8 : i32, m = 32 : i32, n = 32 : i32} blgp =  none : vector<4xf16>, vector<4xf16>, vector<16xf32>
        %425 = amdgpu.mfma %304 * %234 + %424 {blocks = 1 : i32, k = 8 : i32, m = 32 : i32, n = 32 : i32} blgp =  none : vector<4xf16>, vector<4xf16>, vector<16xf32>
        %426 = amdgpu.mfma %303 * %238 + %197#58 {blocks = 1 : i32, k = 8 : i32, m = 32 : i32, n = 32 : i32} blgp =  none : vector<4xf16>, vector<4xf16>, vector<16xf32>
        %427 = amdgpu.mfma %304 * %239 + %426 {blocks = 1 : i32, k = 8 : i32, m = 32 : i32, n = 32 : i32} blgp =  none : vector<4xf16>, vector<4xf16>, vector<16xf32>
        %428 = amdgpu.mfma %303 * %243 + %197#59 {blocks = 1 : i32, k = 8 : i32, m = 32 : i32, n = 32 : i32} blgp =  none : vector<4xf16>, vector<4xf16>, vector<16xf32>
        %429 = amdgpu.mfma %304 * %244 + %428 {blocks = 1 : i32, k = 8 : i32, m = 32 : i32, n = 32 : i32} blgp =  none : vector<4xf16>, vector<4xf16>, vector<16xf32>
        %430 = amdgpu.mfma %303 * %248 + %197#60 {blocks = 1 : i32, k = 8 : i32, m = 32 : i32, n = 32 : i32} blgp =  none : vector<4xf16>, vector<4xf16>, vector<16xf32>
        %431 = amdgpu.mfma %304 * %249 + %430 {blocks = 1 : i32, k = 8 : i32, m = 32 : i32, n = 32 : i32} blgp =  none : vector<4xf16>, vector<4xf16>, vector<16xf32>
        %432 = amdgpu.mfma %303 * %253 + %197#61 {blocks = 1 : i32, k = 8 : i32, m = 32 : i32, n = 32 : i32} blgp =  none : vector<4xf16>, vector<4xf16>, vector<16xf32>
        %433 = amdgpu.mfma %304 * %254 + %432 {blocks = 1 : i32, k = 8 : i32, m = 32 : i32, n = 32 : i32} blgp =  none : vector<4xf16>, vector<4xf16>, vector<16xf32>
        %434 = amdgpu.mfma %303 * %258 + %197#62 {blocks = 1 : i32, k = 8 : i32, m = 32 : i32, n = 32 : i32} blgp =  none : vector<4xf16>, vector<4xf16>, vector<16xf32>
        %435 = amdgpu.mfma %304 * %259 + %434 {blocks = 1 : i32, k = 8 : i32, m = 32 : i32, n = 32 : i32} blgp =  none : vector<4xf16>, vector<4xf16>, vector<16xf32>
        %436 = amdgpu.mfma %303 * %263 + %197#63 {blocks = 1 : i32, k = 8 : i32, m = 32 : i32, n = 32 : i32} blgp =  none : vector<4xf16>, vector<4xf16>, vector<16xf32>
        %437 = amdgpu.mfma %304 * %264 + %436 {blocks = 1 : i32, k = 8 : i32, m = 32 : i32, n = 32 : i32} blgp =  none : vector<4xf16>, vector<4xf16>, vector<16xf32>
        %438 = amdgpu.mfma %303 * %268 + %197#64 {blocks = 1 : i32, k = 8 : i32, m = 32 : i32, n = 32 : i32} blgp =  none : vector<4xf16>, vector<4xf16>, vector<16xf32>
        %439 = amdgpu.mfma %304 * %269 + %438 {blocks = 1 : i32, k = 8 : i32, m = 32 : i32, n = 32 : i32} blgp =  none : vector<4xf16>, vector<4xf16>, vector<16xf32>
        %440 = amdgpu.mfma %303 * %273 + %197#65 {blocks = 1 : i32, k = 8 : i32, m = 32 : i32, n = 32 : i32} blgp =  none : vector<4xf16>, vector<4xf16>, vector<16xf32>
        %441 = amdgpu.mfma %304 * %274 + %440 {blocks = 1 : i32, k = 8 : i32, m = 32 : i32, n = 32 : i32} blgp =  none : vector<4xf16>, vector<4xf16>, vector<16xf32>
        %442 = amdgpu.mfma %303 * %278 + %197#66 {blocks = 1 : i32, k = 8 : i32, m = 32 : i32, n = 32 : i32} blgp =  none : vector<4xf16>, vector<4xf16>, vector<16xf32>
        %443 = amdgpu.mfma %304 * %279 + %442 {blocks = 1 : i32, k = 8 : i32, m = 32 : i32, n = 32 : i32} blgp =  none : vector<4xf16>, vector<4xf16>, vector<16xf32>
        %444 = amdgpu.mfma %303 * %283 + %197#67 {blocks = 1 : i32, k = 8 : i32, m = 32 : i32, n = 32 : i32} blgp =  none : vector<4xf16>, vector<4xf16>, vector<16xf32>
        %445 = amdgpu.mfma %304 * %284 + %444 {blocks = 1 : i32, k = 8 : i32, m = 32 : i32, n = 32 : i32} blgp =  none : vector<4xf16>, vector<4xf16>, vector<16xf32>
        %446 = amdgpu.mfma %308 * %202 + %197#68 {blocks = 1 : i32, k = 8 : i32, m = 32 : i32, n = 32 : i32} blgp =  none : vector<4xf16>, vector<4xf16>, vector<16xf32>
        %447 = amdgpu.mfma %309 * %204 + %446 {blocks = 1 : i32, k = 8 : i32, m = 32 : i32, n = 32 : i32} blgp =  none : vector<4xf16>, vector<4xf16>, vector<16xf32>
        %448 = amdgpu.mfma %308 * %208 + %197#69 {blocks = 1 : i32, k = 8 : i32, m = 32 : i32, n = 32 : i32} blgp =  none : vector<4xf16>, vector<4xf16>, vector<16xf32>
        %449 = amdgpu.mfma %309 * %209 + %448 {blocks = 1 : i32, k = 8 : i32, m = 32 : i32, n = 32 : i32} blgp =  none : vector<4xf16>, vector<4xf16>, vector<16xf32>
        %450 = amdgpu.mfma %308 * %213 + %197#70 {blocks = 1 : i32, k = 8 : i32, m = 32 : i32, n = 32 : i32} blgp =  none : vector<4xf16>, vector<4xf16>, vector<16xf32>
        %451 = amdgpu.mfma %309 * %214 + %450 {blocks = 1 : i32, k = 8 : i32, m = 32 : i32, n = 32 : i32} blgp =  none : vector<4xf16>, vector<4xf16>, vector<16xf32>
        %452 = amdgpu.mfma %308 * %218 + %197#71 {blocks = 1 : i32, k = 8 : i32, m = 32 : i32, n = 32 : i32} blgp =  none : vector<4xf16>, vector<4xf16>, vector<16xf32>
        %453 = amdgpu.mfma %309 * %219 + %452 {blocks = 1 : i32, k = 8 : i32, m = 32 : i32, n = 32 : i32} blgp =  none : vector<4xf16>, vector<4xf16>, vector<16xf32>
        %454 = amdgpu.mfma %308 * %223 + %197#72 {blocks = 1 : i32, k = 8 : i32, m = 32 : i32, n = 32 : i32} blgp =  none : vector<4xf16>, vector<4xf16>, vector<16xf32>
        %455 = amdgpu.mfma %309 * %224 + %454 {blocks = 1 : i32, k = 8 : i32, m = 32 : i32, n = 32 : i32} blgp =  none : vector<4xf16>, vector<4xf16>, vector<16xf32>
        %456 = amdgpu.mfma %308 * %228 + %197#73 {blocks = 1 : i32, k = 8 : i32, m = 32 : i32, n = 32 : i32} blgp =  none : vector<4xf16>, vector<4xf16>, vector<16xf32>
        %457 = amdgpu.mfma %309 * %229 + %456 {blocks = 1 : i32, k = 8 : i32, m = 32 : i32, n = 32 : i32} blgp =  none : vector<4xf16>, vector<4xf16>, vector<16xf32>
        %458 = amdgpu.mfma %308 * %233 + %197#74 {blocks = 1 : i32, k = 8 : i32, m = 32 : i32, n = 32 : i32} blgp =  none : vector<4xf16>, vector<4xf16>, vector<16xf32>
        %459 = amdgpu.mfma %309 * %234 + %458 {blocks = 1 : i32, k = 8 : i32, m = 32 : i32, n = 32 : i32} blgp =  none : vector<4xf16>, vector<4xf16>, vector<16xf32>
        %460 = amdgpu.mfma %308 * %238 + %197#75 {blocks = 1 : i32, k = 8 : i32, m = 32 : i32, n = 32 : i32} blgp =  none : vector<4xf16>, vector<4xf16>, vector<16xf32>
        %461 = amdgpu.mfma %309 * %239 + %460 {blocks = 1 : i32, k = 8 : i32, m = 32 : i32, n = 32 : i32} blgp =  none : vector<4xf16>, vector<4xf16>, vector<16xf32>
        %462 = amdgpu.mfma %308 * %243 + %197#76 {blocks = 1 : i32, k = 8 : i32, m = 32 : i32, n = 32 : i32} blgp =  none : vector<4xf16>, vector<4xf16>, vector<16xf32>
        %463 = amdgpu.mfma %309 * %244 + %462 {blocks = 1 : i32, k = 8 : i32, m = 32 : i32, n = 32 : i32} blgp =  none : vector<4xf16>, vector<4xf16>, vector<16xf32>
        %464 = amdgpu.mfma %308 * %248 + %197#77 {blocks = 1 : i32, k = 8 : i32, m = 32 : i32, n = 32 : i32} blgp =  none : vector<4xf16>, vector<4xf16>, vector<16xf32>
        %465 = amdgpu.mfma %309 * %249 + %464 {blocks = 1 : i32, k = 8 : i32, m = 32 : i32, n = 32 : i32} blgp =  none : vector<4xf16>, vector<4xf16>, vector<16xf32>
        %466 = amdgpu.mfma %308 * %253 + %197#78 {blocks = 1 : i32, k = 8 : i32, m = 32 : i32, n = 32 : i32} blgp =  none : vector<4xf16>, vector<4xf16>, vector<16xf32>
        %467 = amdgpu.mfma %309 * %254 + %466 {blocks = 1 : i32, k = 8 : i32, m = 32 : i32, n = 32 : i32} blgp =  none : vector<4xf16>, vector<4xf16>, vector<16xf32>
        %468 = amdgpu.mfma %308 * %258 + %197#79 {blocks = 1 : i32, k = 8 : i32, m = 32 : i32, n = 32 : i32} blgp =  none : vector<4xf16>, vector<4xf16>, vector<16xf32>
        %469 = amdgpu.mfma %309 * %259 + %468 {blocks = 1 : i32, k = 8 : i32, m = 32 : i32, n = 32 : i32} blgp =  none : vector<4xf16>, vector<4xf16>, vector<16xf32>
        %470 = amdgpu.mfma %308 * %263 + %197#80 {blocks = 1 : i32, k = 8 : i32, m = 32 : i32, n = 32 : i32} blgp =  none : vector<4xf16>, vector<4xf16>, vector<16xf32>
        %471 = amdgpu.mfma %309 * %264 + %470 {blocks = 1 : i32, k = 8 : i32, m = 32 : i32, n = 32 : i32} blgp =  none : vector<4xf16>, vector<4xf16>, vector<16xf32>
        %472 = amdgpu.mfma %308 * %268 + %197#81 {blocks = 1 : i32, k = 8 : i32, m = 32 : i32, n = 32 : i32} blgp =  none : vector<4xf16>, vector<4xf16>, vector<16xf32>
        %473 = amdgpu.mfma %309 * %269 + %472 {blocks = 1 : i32, k = 8 : i32, m = 32 : i32, n = 32 : i32} blgp =  none : vector<4xf16>, vector<4xf16>, vector<16xf32>
        %474 = amdgpu.mfma %308 * %273 + %197#82 {blocks = 1 : i32, k = 8 : i32, m = 32 : i32, n = 32 : i32} blgp =  none : vector<4xf16>, vector<4xf16>, vector<16xf32>
        %475 = amdgpu.mfma %309 * %274 + %474 {blocks = 1 : i32, k = 8 : i32, m = 32 : i32, n = 32 : i32} blgp =  none : vector<4xf16>, vector<4xf16>, vector<16xf32>
        %476 = amdgpu.mfma %308 * %278 + %197#83 {blocks = 1 : i32, k = 8 : i32, m = 32 : i32, n = 32 : i32} blgp =  none : vector<4xf16>, vector<4xf16>, vector<16xf32>
        %477 = amdgpu.mfma %309 * %279 + %476 {blocks = 1 : i32, k = 8 : i32, m = 32 : i32, n = 32 : i32} blgp =  none : vector<4xf16>, vector<4xf16>, vector<16xf32>
        %478 = amdgpu.mfma %308 * %283 + %197#84 {blocks = 1 : i32, k = 8 : i32, m = 32 : i32, n = 32 : i32} blgp =  none : vector<4xf16>, vector<4xf16>, vector<16xf32>
        %479 = amdgpu.mfma %309 * %284 + %478 {blocks = 1 : i32, k = 8 : i32, m = 32 : i32, n = 32 : i32} blgp =  none : vector<4xf16>, vector<4xf16>, vector<16xf32>
        %480 = vector.extract_strided_slice %311 {offsets = [0], sizes = [1], strides = [1]} : vector<16xf32> to vector<1xf32>
        %481 = stream.binding.subspan %arg2[%c0] : !stream.binding -> memref<706x4096xf32, strided<[4096, 1], offset: ?>>
        %482 = affine.apply #map44()[%block_id_y, %thread_id_y]
        %483 = affine.apply #map45()[%block_id_y]
        %484 = arith.minsi %482, %483 : index
        %485 = arith.minsi %484, %c4096 : index
        %486 = affine.apply #map46()[%thread_id_x, %block_id_x, %block_id_y, %thread_id_y]
        %487 = arith.cmpi slt, %486, %485 : index
        %488 = affine.apply #map47()[%block_id_x, %thread_id_x]
        %489 = affine.apply #map48()[%block_id_x]
        %490 = arith.minsi %488, %489 : index
        %491 = arith.minsi %490, %c706 : index
        %492 = affine.apply #map49()[%block_id_x, %block_id_y, %thread_id_x]
        %493 = arith.cmpi slt, %492, %491 : index
        %494 = arith.andi %487, %493 : i1
        %495 = affine.apply #map50()[%block_id_x, %block_id_y]
        %496 = affine.apply #map51()[%block_id_x, %block_id_y]
        %497 = affine.apply #map52()[%thread_id_x]
        %498 = arith.muli %495, %c4096 overflow<nsw> : index
        %499 = arith.muli %497, %c4096 overflow<nsw> : index
        %500 = arith.addi %498, %496 overflow<nsw> : index
        %501 = arith.addi %499, %198 overflow<nsw> : index
        %base_buffer_9, %offset_10, %sizes_11:2, %strides_12:2 = memref.extract_strided_metadata %481 : memref<706x4096xf32, strided<[4096, 1], offset: ?>> -> memref<f32>, index, index, index, index, index
        %502 = arith.addi %500, %offset_10 overflow<nsw> : index
        %reinterpret_cast_13 = memref.reinterpret_cast %481 to offset: [%502], sizes: [%c536870910], strides: [1] : memref<706x4096xf32, strided<[4096, 1], offset: ?>> to memref<?xf32, strided<[1], offset: ?>>
        %503 = amdgpu.fat_raw_buffer_cast %reinterpret_cast_13 validBytes(%c2147483643_i32) cacheSwizzleStride(%c4096_i14) resetOffset : memref<?xf32, strided<[1], offset: ?>> to memref<?xf32, #amdgpu.address_space<fat_raw_buffer>>
        %504 = arith.select %494, %501, %c536870911 : index
        vector.store %480, %503[%504] : memref<?xf32, #amdgpu.address_space<fat_raw_buffer>>, vector<1xf32>
        %505 = vector.extract_strided_slice %311 {offsets = [1], sizes = [1], strides = [1]} : vector<16xf32> to vector<1xf32>
        %506 = affine.apply #map53()[%block_id_x, %block_id_y, %thread_id_x]
        %507 = arith.cmpi slt, %506, %491 : index
        %508 = arith.andi %487, %507 : i1
        %509 = affine.apply #map54()[%thread_id_x]
        %510 = arith.muli %509, %c4096 overflow<nsw> : index
        %511 = arith.addi %510, %198 overflow<nsw> : index
        %512 = arith.select %508, %511, %c536870911 : index
        vector.store %505, %503[%512] : memref<?xf32, #amdgpu.address_space<fat_raw_buffer>>, vector<1xf32>
        %513 = vector.extract_strided_slice %311 {offsets = [2], sizes = [1], strides = [1]} : vector<16xf32> to vector<1xf32>
        %514 = affine.apply #map55()[%block_id_x, %block_id_y, %thread_id_x]
        %515 = arith.cmpi slt, %514, %491 : index
        %516 = arith.andi %487, %515 : i1
        %517 = affine.apply #map56()[%thread_id_x]
        %518 = arith.muli %517, %c4096 overflow<nsw> : index
        %519 = arith.addi %518, %198 overflow<nsw> : index
        %520 = arith.select %516, %519, %c536870911 : index
        vector.store %513, %503[%520] : memref<?xf32, #amdgpu.address_space<fat_raw_buffer>>, vector<1xf32>
        %521 = vector.extract_strided_slice %311 {offsets = [3], sizes = [1], strides = [1]} : vector<16xf32> to vector<1xf32>
        %522 = affine.apply #map57()[%block_id_x, %block_id_y, %thread_id_x]
        %523 = arith.cmpi slt, %522, %491 : index
        %524 = arith.andi %487, %523 : i1
        %525 = affine.apply #map58()[%thread_id_x]
        %526 = arith.muli %525, %c4096 overflow<nsw> : index
        %527 = arith.addi %526, %198 overflow<nsw> : index
        %528 = arith.select %524, %527, %c536870911 : index
        vector.store %521, %503[%528] : memref<?xf32, #amdgpu.address_space<fat_raw_buffer>>, vector<1xf32>
        %529 = vector.extract_strided_slice %311 {offsets = [4], sizes = [1], strides = [1]} : vector<16xf32> to vector<1xf32>
        %530 = affine.apply #map59()[%block_id_x, %block_id_y, %thread_id_x]
        %531 = arith.cmpi slt, %530, %491 : index
        %532 = arith.andi %487, %531 : i1
        %533 = affine.apply #map60()[%thread_id_x]
        %534 = arith.muli %533, %c4096 overflow<nsw> : index
        %535 = arith.addi %534, %198 overflow<nsw> : index
        %536 = arith.select %532, %535, %c536870911 : index
        vector.store %529, %503[%536] : memref<?xf32, #amdgpu.address_space<fat_raw_buffer>>, vector<1xf32>
        %537 = vector.extract_strided_slice %311 {offsets = [5], sizes = [1], strides = [1]} : vector<16xf32> to vector<1xf32>
        %538 = affine.apply #map61()[%block_id_x, %block_id_y, %thread_id_x]
        %539 = arith.cmpi slt, %538, %491 : index
        %540 = arith.andi %487, %539 : i1
        %541 = affine.apply #map62()[%thread_id_x]
        %542 = arith.muli %541, %c4096 overflow<nsw> : index
        %543 = arith.addi %542, %198 overflow<nsw> : index
        %544 = arith.select %540, %543, %c536870911 : index
        vector.store %537, %503[%544] : memref<?xf32, #amdgpu.address_space<fat_raw_buffer>>, vector<1xf32>
        %545 = vector.extract_strided_slice %311 {offsets = [6], sizes = [1], strides = [1]} : vector<16xf32> to vector<1xf32>
        %546 = affine.apply #map63()[%block_id_x, %block_id_y, %thread_id_x]
        %547 = arith.cmpi slt, %546, %491 : index
        %548 = arith.andi %487, %547 : i1
        %549 = affine.apply #map64()[%thread_id_x]
        %550 = arith.muli %549, %c4096 overflow<nsw> : index
        %551 = arith.addi %550, %198 overflow<nsw> : index
        %552 = arith.select %548, %551, %c536870911 : index
        vector.store %545, %503[%552] : memref<?xf32, #amdgpu.address_space<fat_raw_buffer>>, vector<1xf32>
        %553 = vector.extract_strided_slice %311 {offsets = [7], sizes = [1], strides = [1]} : vector<16xf32> to vector<1xf32>
        %554 = affine.apply #map65()[%block_id_x, %block_id_y, %thread_id_x]
        %555 = arith.cmpi slt, %554, %491 : index
        %556 = arith.andi %487, %555 : i1
        %557 = affine.apply #map66()[%thread_id_x]
        %558 = arith.muli %557, %c4096 overflow<nsw> : index
        %559 = arith.addi %558, %198 overflow<nsw> : index
        %560 = arith.select %556, %559, %c536870911 : index
        vector.store %553, %503[%560] : memref<?xf32, #amdgpu.address_space<fat_raw_buffer>>, vector<1xf32>
        %561 = vector.extract_strided_slice %311 {offsets = [8], sizes = [1], strides = [1]} : vector<16xf32> to vector<1xf32>
        %562 = affine.apply #map67()[%block_id_x, %block_id_y, %thread_id_x]
        %563 = arith.cmpi slt, %562, %491 : index
        %564 = arith.andi %487, %563 : i1
        %565 = affine.apply #map68()[%thread_id_x]
        %566 = arith.muli %565, %c4096 overflow<nsw> : index
        %567 = arith.addi %566, %198 overflow<nsw> : index
        %568 = arith.select %564, %567, %c536870911 : index
        vector.store %561, %503[%568] : memref<?xf32, #amdgpu.address_space<fat_raw_buffer>>, vector<1xf32>
        %569 = vector.extract_strided_slice %311 {offsets = [9], sizes = [1], strides = [1]} : vector<16xf32> to vector<1xf32>
        %570 = affine.apply #map69()[%block_id_x, %block_id_y, %thread_id_x]
        %571 = arith.cmpi slt, %570, %491 : index
        %572 = arith.andi %487, %571 : i1
        %573 = affine.apply #map70()[%thread_id_x]
        %574 = arith.muli %573, %c4096 overflow<nsw> : index
        %575 = arith.addi %574, %198 overflow<nsw> : index
        %576 = arith.select %572, %575, %c536870911 : index
        vector.store %569, %503[%576] : memref<?xf32, #amdgpu.address_space<fat_raw_buffer>>, vector<1xf32>
        %577 = vector.extract_strided_slice %311 {offsets = [10], sizes = [1], strides = [1]} : vector<16xf32> to vector<1xf32>
        %578 = affine.apply #map71()[%block_id_x, %block_id_y, %thread_id_x]
        %579 = arith.cmpi slt, %578, %491 : index
        %580 = arith.andi %487, %579 : i1
        %581 = affine.apply #map72()[%thread_id_x]
        %582 = arith.muli %581, %c4096 overflow<nsw> : index
        %583 = arith.addi %582, %198 overflow<nsw> : index
        %584 = arith.select %580, %583, %c536870911 : index
        vector.store %577, %503[%584] : memref<?xf32, #amdgpu.address_space<fat_raw_buffer>>, vector<1xf32>
        %585 = vector.extract_strided_slice %311 {offsets = [11], sizes = [1], strides = [1]} : vector<16xf32> to vector<1xf32>
        %586 = affine.apply #map73()[%block_id_x, %block_id_y, %thread_id_x]
        %587 = arith.cmpi slt, %586, %491 : index
        %588 = arith.andi %487, %587 : i1
        %589 = affine.apply #map74()[%thread_id_x]
        %590 = arith.muli %589, %c4096 overflow<nsw> : index
        %591 = arith.addi %590, %198 overflow<nsw> : index
        %592 = arith.select %588, %591, %c536870911 : index
        vector.store %585, %503[%592] : memref<?xf32, #amdgpu.address_space<fat_raw_buffer>>, vector<1xf32>
        %593 = vector.extract_strided_slice %311 {offsets = [12], sizes = [1], strides = [1]} : vector<16xf32> to vector<1xf32>
        %594 = affine.apply #map75()[%block_id_x, %block_id_y, %thread_id_x]
        %595 = arith.cmpi slt, %594, %491 : index
        %596 = arith.andi %487, %595 : i1
        %597 = affine.apply #map76()[%thread_id_x]
        %598 = arith.muli %597, %c4096 overflow<nsw> : index
        %599 = arith.addi %598, %198 overflow<nsw> : index
        %600 = arith.select %596, %599, %c536870911 : index
        vector.store %593, %503[%600] : memref<?xf32, #amdgpu.address_space<fat_raw_buffer>>, vector<1xf32>
        %601 = vector.extract_strided_slice %311 {offsets = [13], sizes = [1], strides = [1]} : vector<16xf32> to vector<1xf32>
        %602 = affine.apply #map77()[%block_id_x, %block_id_y, %thread_id_x]
        %603 = arith.cmpi slt, %602, %491 : index
        %604 = arith.andi %487, %603 : i1
        %605 = affine.apply #map78()[%thread_id_x]
        %606 = arith.muli %605, %c4096 overflow<nsw> : index
        %607 = arith.addi %606, %198 overflow<nsw> : index
        %608 = arith.select %604, %607, %c536870911 : index
        vector.store %601, %503[%608] : memref<?xf32, #amdgpu.address_space<fat_raw_buffer>>, vector<1xf32>
        %609 = vector.extract_strided_slice %311 {offsets = [14], sizes = [1], strides = [1]} : vector<16xf32> to vector<1xf32>
        %610 = affine.apply #map79()[%block_id_x, %block_id_y, %thread_id_x]
        %611 = arith.cmpi slt, %610, %491 : index
        %612 = arith.andi %487, %611 : i1
        %613 = affine.apply #map80()[%thread_id_x]
        %614 = arith.muli %613, %c4096 overflow<nsw> : index
        %615 = arith.addi %614, %198 overflow<nsw> : index
        %616 = arith.select %612, %615, %c536870911 : index
        vector.store %609, %503[%616] : memref<?xf32, #amdgpu.address_space<fat_raw_buffer>>, vector<1xf32>
        %617 = vector.extract_strided_slice %311 {offsets = [15], sizes = [1], strides = [1]} : vector<16xf32> to vector<1xf32>
        %618 = affine.apply #map81()[%block_id_x, %block_id_y, %thread_id_x]
        %619 = arith.cmpi slt, %618, %491 : index
        %620 = arith.andi %487, %619 : i1
        %621 = affine.apply #map82()[%thread_id_x]
        %622 = arith.muli %621, %c4096 overflow<nsw> : index
        %623 = arith.addi %622, %198 overflow<nsw> : index
        %624 = arith.select %620, %623, %c536870911 : index
        vector.store %617, %503[%624] : memref<?xf32, #amdgpu.address_space<fat_raw_buffer>>, vector<1xf32>
        %625 = vector.extract_strided_slice %313 {offsets = [0], sizes = [1], strides = [1]} : vector<16xf32> to vector<1xf32>
        %626 = affine.apply #map83()[%thread_id_x, %block_id_x, %block_id_y, %thread_id_y]
        %627 = arith.cmpi slt, %626, %485 : index
        %628 = arith.andi %627, %493 : i1
        %629 = arith.addi %499, %205 overflow<nsw> : index
        %630 = arith.select %628, %629, %c536870911 : index
        vector.store %625, %503[%630] : memref<?xf32, #amdgpu.address_space<fat_raw_buffer>>, vector<1xf32>
        %631 = vector.extract_strided_slice %313 {offsets = [1], sizes = [1], strides = [1]} : vector<16xf32> to vector<1xf32>
        %632 = arith.andi %627, %507 : i1
        %633 = arith.addi %510, %205 overflow<nsw> : index
        %634 = arith.select %632, %633, %c536870911 : index
        vector.store %631, %503[%634] : memref<?xf32, #amdgpu.address_space<fat_raw_buffer>>, vector<1xf32>
        %635 = vector.extract_strided_slice %313 {offsets = [2], sizes = [1], strides = [1]} : vector<16xf32> to vector<1xf32>
        %636 = arith.andi %627, %515 : i1
        %637 = arith.addi %518, %205 overflow<nsw> : index
        %638 = arith.select %636, %637, %c536870911 : index
        vector.store %635, %503[%638] : memref<?xf32, #amdgpu.address_space<fat_raw_buffer>>, vector<1xf32>
        %639 = vector.extract_strided_slice %313 {offsets = [3], sizes = [1], strides = [1]} : vector<16xf32> to vector<1xf32>
        %640 = arith.andi %627, %523 : i1
        %641 = arith.addi %526, %205 overflow<nsw> : index
        %642 = arith.select %640, %641, %c536870911 : index
        vector.store %639, %503[%642] : memref<?xf32, #amdgpu.address_space<fat_raw_buffer>>, vector<1xf32>
        %643 = vector.extract_strided_slice %313 {offsets = [4], sizes = [1], strides = [1]} : vector<16xf32> to vector<1xf32>
        %644 = arith.andi %627, %531 : i1
        %645 = arith.addi %534, %205 overflow<nsw> : index
        %646 = arith.select %644, %645, %c536870911 : index
        vector.store %643, %503[%646] : memref<?xf32, #amdgpu.address_space<fat_raw_buffer>>, vector<1xf32>
        %647 = vector.extract_strided_slice %313 {offsets = [5], sizes = [1], strides = [1]} : vector<16xf32> to vector<1xf32>
        %648 = arith.andi %627, %539 : i1
        %649 = arith.addi %542, %205 overflow<nsw> : index
        %650 = arith.select %648, %649, %c536870911 : index
        vector.store %647, %503[%650] : memref<?xf32, #amdgpu.address_space<fat_raw_buffer>>, vector<1xf32>
        %651 = vector.extract_strided_slice %313 {offsets = [6], sizes = [1], strides = [1]} : vector<16xf32> to vector<1xf32>
        %652 = arith.andi %627, %547 : i1
        %653 = arith.addi %550, %205 overflow<nsw> : index
        %654 = arith.select %652, %653, %c536870911 : index
        vector.store %651, %503[%654] : memref<?xf32, #amdgpu.address_space<fat_raw_buffer>>, vector<1xf32>
        %655 = vector.extract_strided_slice %313 {offsets = [7], sizes = [1], strides = [1]} : vector<16xf32> to vector<1xf32>
        %656 = arith.andi %627, %555 : i1
        %657 = arith.addi %558, %205 overflow<nsw> : index
        %658 = arith.select %656, %657, %c536870911 : index
        vector.store %655, %503[%658] : memref<?xf32, #amdgpu.address_space<fat_raw_buffer>>, vector<1xf32>
        %659 = vector.extract_strided_slice %313 {offsets = [8], sizes = [1], strides = [1]} : vector<16xf32> to vector<1xf32>
        %660 = arith.andi %627, %563 : i1
        %661 = arith.addi %566, %205 overflow<nsw> : index
        %662 = arith.select %660, %661, %c536870911 : index
        vector.store %659, %503[%662] : memref<?xf32, #amdgpu.address_space<fat_raw_buffer>>, vector<1xf32>
        %663 = vector.extract_strided_slice %313 {offsets = [9], sizes = [1], strides = [1]} : vector<16xf32> to vector<1xf32>
        %664 = arith.andi %627, %571 : i1
        %665 = arith.addi %574, %205 overflow<nsw> : index
        %666 = arith.select %664, %665, %c536870911 : index
        vector.store %663, %503[%666] : memref<?xf32, #amdgpu.address_space<fat_raw_buffer>>, vector<1xf32>
        %667 = vector.extract_strided_slice %313 {offsets = [10], sizes = [1], strides = [1]} : vector<16xf32> to vector<1xf32>
        %668 = arith.andi %627, %579 : i1
        %669 = arith.addi %582, %205 overflow<nsw> : index
        %670 = arith.select %668, %669, %c536870911 : index
        vector.store %667, %503[%670] : memref<?xf32, #amdgpu.address_space<fat_raw_buffer>>, vector<1xf32>
        %671 = vector.extract_strided_slice %313 {offsets = [11], sizes = [1], strides = [1]} : vector<16xf32> to vector<1xf32>
        %672 = arith.andi %627, %587 : i1
…
        %5801 = vector.extract_strided_slice %465 {offsets = [6], sizes = [1], strides = [1]} : vector<16xf32> to vector<1xf32>
        %5802 = arith.andi %1155, %5187 : i1
        %5803 = arith.addi %5190, %245 overflow<nsw> : index
        %5804 = arith.select %5802, %5803, %c536870911 : index
        vector.store %5801, %503[%5804] : memref<?xf32, #amdgpu.address_space<fat_raw_buffer>>, vector<1xf32>
        %5805 = vector.extract_strided_slice %465 {offsets = [7], sizes = [1], strides = [1]} : vector<16xf32> to vector<1xf32>
        %5806 = arith.andi %1155, %5195 : i1
        %5807 = arith.addi %5198, %245 overflow<nsw> : index
        %5808 = arith.select %5806, %5807, %c536870911 : index
        vector.store %5805, %503[%5808] : memref<?xf32, #amdgpu.address_space<fat_raw_buffer>>, vector<1xf32>
        %5809 = vector.extract_strided_slice %465 {offsets = [8], sizes = [1], strides = [1]} : vector<16xf32> to vector<1xf32>
        %5810 = arith.andi %1155, %5203 : i1
        %5811 = arith.addi %5206, %245 overflow<nsw> : index
        %5812 = arith.select %5810, %5811, %c536870911 : index
        vector.store %5809, %503[%5812] : memref<?xf32, #amdgpu.address_space<fat_raw_buffer>>, vector<1xf32>
        %5813 = vector.extract_strided_slice %465 {offsets = [9], sizes = [1], strides = [1]} : vector<16xf32> to vector<1xf32>
        %5814 = arith.andi %1155, %5211 : i1
        %5815 = arith.addi %5214, %245 overflow<nsw> : index
        %5816 = arith.select %5814, %5815, %c536870911 : index
        vector.store %5813, %503[%5816] : memref<?xf32, #amdgpu.address_space<fat_raw_buffer>>, vector<1xf32>
        %5817 = vector.extract_strided_slice %465 {offsets = [10], sizes = [1], strides = [1]} : vector<16xf32> to vector<1xf32>
        %5818 = arith.andi %1155, %5219 : i1
        %5819 = arith.addi %5222, %245 overflow<nsw> : index
        %5820 = arith.select %5818, %5819, %c536870911 : index
        vector.store %5817, %503[%5820] : memref<?xf32, #amdgpu.address_space<fat_raw_buffer>>, vector<1xf32>
        %5821 = vector.extract_strided_slice %465 {offsets = [11], sizes = [1], strides = [1]} : vector<16xf32> to vector<1xf32>
        %5822 = arith.andi %1155, %5227 : i1
        %5823 = arith.addi %5230, %245 overflow<nsw> : index
        %5824 = arith.select %5822, %5823, %c536870911 : index
        vector.store %5821, %503[%5824] : memref<?xf32, #amdgpu.address_space<fat_raw_buffer>>, vector<1xf32>
        %5825 = vector.extract_strided_slice %465 {offsets = [12], sizes = [1], strides = [1]} : vector<16xf32> to vector<1xf32>
        %5826 = arith.andi %1155, %5235 : i1
        %5827 = arith.addi %5238, %245 overflow<nsw> : index
        %5828 = arith.select %5826, %5827, %c536870911 : index
        vector.store %5825, %503[%5828] : memref<?xf32, #amdgpu.address_space<fat_raw_buffer>>, vector<1xf32>
        %5829 = vector.extract_strided_slice %465 {offsets = [13], sizes = [1], strides = [1]} : vector<16xf32> to vector<1xf32>
        %5830 = arith.andi %1155, %5243 : i1
        %5831 = arith.addi %5246, %245 overflow<nsw> : index
        %5832 = arith.select %5830, %5831, %c536870911 : index
        vector.store %5829, %503[%5832] : memref<?xf32, #amdgpu.address_space<fat_raw_buffer>>, vector<1xf32>
        %5833 = vector.extract_strided_slice %465 {offsets = [14], sizes = [1], strides = [1]} : vector<16xf32> to vector<1xf32>
        %5834 = arith.andi %1155, %5251 : i1
        %5835 = arith.addi %5254, %245 overflow<nsw> : index
        %5836 = arith.select %5834, %5835, %c536870911 : index
        vector.store %5833, %503[%5836] : memref<?xf32, #amdgpu.address_space<fat_raw_buffer>>, vector<1xf32>
        %5837 = vector.extract_strided_slice %465 {offsets = [15], sizes = [1], strides = [1]} : vector<16xf32> to vector<1xf32>
        %5838 = arith.andi %1155, %5259 : i1
        %5839 = arith.addi %5262, %245 overflow<nsw> : index
        %5840 = arith.select %5838, %5839, %c536870911 : index
        vector.store %5837, %503[%5840] : memref<?xf32, #amdgpu.address_space<fat_raw_buffer>>, vector<1xf32>
        %5841 = vector.extract_strided_slice %467 {offsets = [0], sizes = [1], strides = [1]} : vector<16xf32> to vector<1xf32>
        %5842 = arith.andi %1221, %5139 : i1
        %5843 = arith.addi %5142, %250 overflow<nsw> : index
        %5844 = arith.select %5842, %5843, %c536870911 : index
        vector.store %5841, %503[%5844] : memref<?xf32, #amdgpu.address_space<fat_raw_buffer>>, vector<1xf32>
        %5845 = vector.extract_strided_slice %467 {offsets = [1], sizes = [1], strides = [1]} : vector<16xf32> to vector<1xf32>
        %5846 = arith.andi %1221, %5147 : i1
        %5847 = arith.addi %5150, %250 overflow<nsw> : index
        %5848 = arith.select %5846, %5847, %c536870911 : index
        vector.store %5845, %503[%5848] : memref<?xf32, #amdgpu.address_space<fat_raw_buffer>>, vector<1xf32>
        %5849 = vector.extract_strided_slice %467 {offsets = [2], sizes = [1], strides = [1]} : vector<16xf32> to vector<1xf32>
        %5850 = arith.andi %1221, %5155 : i1
        %5851 = arith.addi %5158, %250 overflow<nsw> : index
        %5852 = arith.select %5850, %5851, %c536870911 : index
        vector.store %5849, %503[%5852] : memref<?xf32, #amdgpu.address_space<fat_raw_buffer>>, vector<1xf32>
        %5853 = vector.extract_strided_slice %467 {offsets = [3], sizes = [1], strides = [1]} : vector<16xf32> to vector<1xf32>
        %5854 = arith.andi %1221, %5163 : i1
        %5855 = arith.addi %5166, %250 overflow<nsw> : index
        %5856 = arith.select %5854, %5855, %c536870911 : index
        vector.store %5853, %503[%5856] : memref<?xf32, #amdgpu.address_space<fat_raw_buffer>>, vector<1xf32>
        %5857 = vector.extract_strided_slice %467 {offsets = [4], sizes = [1], strides = [1]} : vector<16xf32> to vector<1xf32>
        %5858 = arith.andi %1221, %5171 : i1
        %5859 = arith.addi %5174, %250 overflow<nsw> : index
        %5860 = arith.select %5858, %5859, %c536870911 : index
        vector.store %5857, %503[%5860] : memref<?xf32, #amdgpu.address_space<fat_raw_buffer>>, vector<1xf32>
        %5861 = vector.extract_strided_slice %467 {offsets = [5], sizes = [1], strides = [1]} : vector<16xf32> to vector<1xf32>
        %5862 = arith.andi %1221, %5179 : i1
        %5863 = arith.addi %5182, %250 overflow<nsw> : index
        %5864 = arith.select %5862, %5863, %c536870911 : index
        vector.store %5861, %503[%5864] : memref<?xf32, #amdgpu.address_space<fat_raw_buffer>>, vector<1xf32>
        %5865 = vector.extract_strided_slice %467 {offsets = [6], sizes = [1], strides = [1]} : vector<16xf32> to vector<1xf32>
        %5866 = arith.andi %1221, %5187 : i1
        %5867 = arith.addi %5190, %250 overflow<nsw> : index
        %5868 = arith.select %5866, %5867, %c536870911 : index
        vector.store %5865, %503[%5868] : memref<?xf32, #amdgpu.address_space<fat_raw_buffer>>, vector<1xf32>
        %5869 = vector.extract_strided_slice %467 {offsets = [7], sizes = [1], strides = [1]} : vector<16xf32> to vector<1xf32>
        %5870 = arith.andi %1221, %5195 : i1
        %5871 = arith.addi %5198, %250 overflow<nsw> : index
        %5872 = arith.select %5870, %5871, %c536870911 : index
        vector.store %5869, %503[%5872] : memref<?xf32, #amdgpu.address_space<fat_raw_buffer>>, vector<1xf32>
        %5873 = vector.extract_strided_slice %467 {offsets = [8], sizes = [1], strides = [1]} : vector<16xf32> to vector<1xf32>
        %5874 = arith.andi %1221, %5203 : i1
        %5875 = arith.addi %5206, %250 overflow<nsw> : index
        %5876 = arith.select %5874, %5875, %c536870911 : index
        vector.store %5873, %503[%5876] : memref<?xf32, #amdgpu.address_space<fat_raw_buffer>>, vector<1xf32>
        %5877 = vector.extract_strided_slice %467 {offsets = [9], sizes = [1], strides = [1]} : vector<16xf32> to vector<1xf32>
        %5878 = arith.andi %1221, %5211 : i1
        %5879 = arith.addi %5214, %250 overflow<nsw> : index
        %5880 = arith.select %5878, %5879, %c536870911 : index
        vector.store %5877, %503[%5880] : memref<?xf32, #amdgpu.address_space<fat_raw_buffer>>, vector<1xf32>
        %5881 = vector.extract_strided_slice %467 {offsets = [10], sizes = [1], strides = [1]} : vector<16xf32> to vector<1xf32>
        %5882 = arith.andi %1221, %5219 : i1
        %5883 = arith.addi %5222, %250 overflow<nsw> : index
        %5884 = arith.select %5882, %5883, %c536870911 : index
        vector.store %5881, %503[%5884] : memref<?xf32, #amdgpu.address_space<fat_raw_buffer>>, vector<1xf32>
        %5885 = vector.extract_strided_slice %467 {offsets = [11], sizes = [1], strides = [1]} : vector<16xf32> to vector<1xf32>
        %5886 = arith.andi %1221, %5227 : i1
        %5887 = arith.addi %5230, %250 overflow<nsw> : index
        %5888 = arith.select %5886, %5887, %c536870911 : index
        vector.store %5885, %503[%5888] : memref<?xf32, #amdgpu.address_space<fat_raw_buffer>>, vector<1xf32>
        %5889 = vector.extract_strided_slice %467 {offsets = [12], sizes = [1], strides = [1]} : vector<16xf32> to vector<1xf32>
        %5890 = arith.andi %1221, %5235 : i1
        %5891 = arith.addi %5238, %250 overflow<nsw> : index
        %5892 = arith.select %5890, %5891, %c536870911 : index
        vector.store %5889, %503[%5892] : memref<?xf32, #amdgpu.address_space<fat_raw_buffer>>, vector<1xf32>
        %5893 = vector.extract_strided_slice %467 {offsets = [13], sizes = [1], strides = [1]} : vector<16xf32> to vector<1xf32>
        %5894 = arith.andi %1221, %5243 : i1
        %5895 = arith.addi %5246, %250 overflow<nsw> : index
        %5896 = arith.select %5894, %5895, %c536870911 : index
        vector.store %5893, %503[%5896] : memref<?xf32, #amdgpu.address_space<fat_raw_buffer>>, vector<1xf32>
        %5897 = vector.extract_strided_slice %467 {offsets = [14], sizes = [1], strides = [1]} : vector<16xf32> to vector<1xf32>
        %5898 = arith.andi %1221, %5251 : i1
        %5899 = arith.addi %5254, %250 overflow<nsw> : index
        %5900 = arith.select %5898, %5899, %c536870911 : index
        vector.store %5897, %503[%5900] : memref<?xf32, #amdgpu.address_space<fat_raw_buffer>>, vector<1xf32>
        %5901 = vector.extract_strided_slice %467 {offsets = [15], sizes = [1], strides = [1]} : vector<16xf32> to vector<1xf32>
        %5902 = arith.andi %1221, %5259 : i1
        %5903 = arith.addi %5262, %250 overflow<nsw> : index
        %5904 = arith.select %5902, %5903, %c536870911 : index
        vector.store %5901, %503[%5904] : memref<?xf32, #amdgpu.address_space<fat_raw_buffer>>, vector<1xf32>
        %5905 = vector.extract_strided_slice %469 {offsets = [0], sizes = [1], strides = [1]} : vector<16xf32> to vector<1xf32>
        %5906 = arith.andi %1287, %5139 : i1
        %5907 = arith.addi %5142, %255 overflow<nsw> : index
        %5908 = arith.select %5906, %5907, %c536870911 : index
        vector.store %5905, %503[%5908] : memref<?xf32, #amdgpu.address_space<fat_raw_buffer>>, vector<1xf32>
        %5909 = vector.extract_strided_slice %469 {offsets = [1], sizes = [1], strides = [1]} : vector<16xf32> to vector<1xf32>
        %5910 = arith.andi %1287, %5147 : i1
        %5911 = arith.addi %5150, %255 overflow<nsw> : index
        %5912 = arith.select %5910, %5911, %c536870911 : index
        vector.store %5909, %503[%5912] : memref<?xf32, #amdgpu.address_space<fat_raw_buffer>>, vector<1xf32>
        %5913 = vector.extract_strided_slice %469 {offsets = [2], sizes = [1], strides = [1]} : vector<16xf32> to vector<1xf32>
        %5914 = arith.andi %1287, %5155 : i1
        %5915 = arith.addi %5158, %255 overflow<nsw> : index
        %5916 = arith.select %5914, %5915, %c536870911 : index
        vector.store %5913, %503[%5916] : memref<?xf32, #amdgpu.address_space<fat_raw_buffer>>, vector<1xf32>
        %5917 = vector.extract_strided_slice %469 {offsets = [3], sizes = [1], strides = [1]} : vector<16xf32> to vector<1xf32>
        %5918 = arith.andi %1287, %5163 : i1
        %5919 = arith.addi %5166, %255 overflow<nsw> : index
        %5920 = arith.select %5918, %5919, %c536870911 : index
        vector.store %5917, %503[%5920] : memref<?xf32, #amdgpu.address_space<fat_raw_buffer>>, vector<1xf32>
        %5921 = vector.extract_strided_slice %469 {offsets = [4], sizes = [1], strides = [1]} : vector<16xf32> to vector<1xf32>
        %5922 = arith.andi %1287, %5171 : i1
        %5923 = arith.addi %5174, %255 overflow<nsw> : index
        %5924 = arith.select %5922, %5923, %c536870911 : index
        vector.store %5921, %503[%5924] : memref<?xf32, #amdgpu.address_space<fat_raw_buffer>>, vector<1xf32>
        %5925 = vector.extract_strided_slice %469 {offsets = [5], sizes = [1], strides = [1]} : vector<16xf32> to vector<1xf32>
        %5926 = arith.andi %1287, %5179 : i1
        %5927 = arith.addi %5182, %255 overflow<nsw> : index
        %5928 = arith.select %5926, %5927, %c536870911 : index
        vector.store %5925, %503[%5928] : memref<?xf32, #amdgpu.address_space<fat_raw_buffer>>, vector<1xf32>
        %5929 = vector.extract_strided_slice %469 {offsets = [6], sizes = [1], strides = [1]} : vector<16xf32> to vector<1xf32>
        %5930 = arith.andi %1287, %5187 : i1
        %5931 = arith.addi %5190, %255 overflow<nsw> : index
        %5932 = arith.select %5930, %5931, %c536870911 : index
        vector.store %5929, %503[%5932] : memref<?xf32, #amdgpu.address_space<fat_raw_buffer>>, vector<1xf32>
        %5933 = vector.extract_strided_slice %469 {offsets = [7], sizes = [1], strides = [1]} : vector<16xf32> to vector<1xf32>
        %5934 = arith.andi %1287, %5195 : i1
        %5935 = arith.addi %5198, %255 overflow<nsw> : index
        %5936 = arith.select %5934, %5935, %c536870911 : index
        vector.store %5933, %503[%5936] : memref<?xf32, #amdgpu.address_space<fat_raw_buffer>>, vector<1xf32>
        %5937 = vector.extract_strided_slice %469 {offsets = [8], sizes = [1], strides = [1]} : vector<16xf32> to vector<1xf32>
        %5938 = arith.andi %1287, %5203 : i1
        %5939 = arith.addi %5206, %255 overflow<nsw> : index
        %5940 = arith.select %5938, %5939, %c536870911 : index
        vector.store %5937, %503[%5940] : memref<?xf32, #amdgpu.address_space<fat_raw_buffer>>, vector<1xf32>
        %5941 = vector.extract_strided_slice %469 {offsets = [9], sizes = [1], strides = [1]} : vector<16xf32> to vector<1xf32>
        %5942 = arith.andi %1287, %5211 : i1
        %5943 = arith.addi %5214, %255 overflow<nsw> : index
        %5944 = arith.select %5942, %5943, %c536870911 : index
        vector.store %5941, %503[%5944] : memref<?xf32, #amdgpu.address_space<fat_raw_buffer>>, vector<1xf32>
        %5945 = vector.extract_strided_slice %469 {offsets = [10], sizes = [1], strides = [1]} : vector<16xf32> to vector<1xf32>
        %5946 = arith.andi %1287, %5219 : i1
        %5947 = arith.addi %5222, %255 overflow<nsw> : index
        %5948 = arith.select %5946, %5947, %c536870911 : index
        vector.store %5945, %503[%5948] : memref<?xf32, #amdgpu.address_space<fat_raw_buffer>>, vector<1xf32>
        %5949 = vector.extract_strided_slice %469 {offsets = [11], sizes = [1], strides = [1]} : vector<16xf32> to vector<1xf32>
        %5950 = arith.andi %1287, %5227 : i1
        %5951 = arith.addi %5230, %255 overflow<nsw> : index
        %5952 = arith.select %5950, %5951, %c536870911 : index
        vector.store %5949, %503[%5952] : memref<?xf32, #amdgpu.address_space<fat_raw_buffer>>, vector<1xf32>
        %5953 = vector.extract_strided_slice %469 {offsets = [12], sizes = [1], strides = [1]} : vector<16xf32> to vector<1xf32>
        %5954 = arith.andi %1287, %5235 : i1
        %5955 = arith.addi %5238, %255 overflow<nsw> : index
        %5956 = arith.select %5954, %5955, %c536870911 : index
        vector.store %5953, %503[%5956] : memref<?xf32, #amdgpu.address_space<fat_raw_buffer>>, vector<1xf32>
        %5957 = vector.extract_strided_slice %469 {offsets = [13], sizes = [1], strides = [1]} : vector<16xf32> to vector<1xf32>
        %5958 = arith.andi %1287, %5243 : i1
        %5959 = arith.addi %5246, %255 overflow<nsw> : index
        %5960 = arith.select %5958, %5959, %c536870911 : index
        vector.store %5957, %503[%5960] : memref<?xf32, #amdgpu.address_space<fat_raw_buffer>>, vector<1xf32>
        %5961 = vector.extract_strided_slice %469 {offsets = [14], sizes = [1], strides = [1]} : vector<16xf32> to vector<1xf32>
        %5962 = arith.andi %1287, %5251 : i1
        %5963 = arith.addi %5254, %255 overflow<nsw> : index
        %5964 = arith.select %5962, %5963, %c536870911 : index
        vector.store %5961, %503[%5964] : memref<?xf32, #amdgpu.address_space<fat_raw_buffer>>, vector<1xf32>
        %5965 = vector.extract_strided_slice %469 {offsets = [15], sizes = [1], strides = [1]} : vector<16xf32> to vector<1xf32>
        %5966 = arith.andi %1287, %5259 : i1
        %5967 = arith.addi %5262, %255 overflow<nsw> : index
        %5968 = arith.select %5966, %5967, %c536870911 : index
        vector.store %5965, %503[%5968] : memref<?xf32, #amdgpu.address_space<fat_raw_buffer>>, vector<1xf32>
        %5969 = vector.extract_strided_slice %471 {offsets = [0], sizes = [1], strides = [1]} : vector<16xf32> to vector<1xf32>
        %5970 = arith.andi %1353, %5139 : i1
        %5971 = arith.addi %5142, %260 overflow<nsw> : index
        %5972 = arith.select %5970, %5971, %c536870911 : index
        vector.store %5969, %503[%5972] : memref<?xf32, #amdgpu.address_space<fat_raw_buffer>>, vector<1xf32>
        %5973 = vector.extract_strided_slice %471 {offsets = [1], sizes = [1], strides = [1]} : vector<16xf32> to vector<1xf32>
        %5974 = arith.andi %1353, %5147 : i1
        %5975 = arith.addi %5150, %260 overflow<nsw> : index
        %5976 = arith.select %5974, %5975, %c536870911 : index
        vector.store %5973, %503[%5976] : memref<?xf32, #amdgpu.address_space<fat_raw_buffer>>, vector<1xf32>
        %5977 = vector.extract_strided_slice %471 {offsets = [2], sizes = [1], strides = [1]} : vector<16xf32> to vector<1xf32>
        %5978 = arith.andi %1353, %5155 : i1
        %5979 = arith.addi %5158, %260 overflow<nsw> : index
        %5980 = arith.select %5978, %5979, %c536870911 : index
        vector.store %5977, %503[%5980] : memref<?xf32, #amdgpu.address_space<fat_raw_buffer>>, vector<1xf32>
        %5981 = vector.extract_strided_slice %471 {offsets = [3], sizes = [1], strides = [1]} : vector<16xf32> to vector<1xf32>
        %5982 = arith.andi %1353, %5163 : i1
        %5983 = arith.addi %5166, %260 overflow<nsw> : index
        %5984 = arith.select %5982, %5983, %c536870911 : index
        vector.store %5981, %503[%5984] : memref<?xf32, #amdgpu.address_space<fat_raw_buffer>>, vector<1xf32>
        %5985 = vector.extract_strided_slice %471 {offsets = [4], sizes = [1], strides = [1]} : vector<16xf32> to vector<1xf32>
        %5986 = arith.andi %1353, %5171 : i1
        %5987 = arith.addi %5174, %260 overflow<nsw> : index
        %5988 = arith.select %5986, %5987, %c536870911 : index
        vector.store %5985, %503[%5988] : memref<?xf32, #amdgpu.address_space<fat_raw_buffer>>, vector<1xf32>
        %5989 = vector.extract_strided_slice %471 {offsets = [5], sizes = [1], strides = [1]} : vector<16xf32> to vector<1xf32>
        %5990 = arith.andi %1353, %5179 : i1
        %5991 = arith.addi %5182, %260 overflow<nsw> : index
        %5992 = arith.select %5990, %5991, %c536870911 : index
        vector.store %5989, %503[%5992] : memref<?xf32, #amdgpu.address_space<fat_raw_buffer>>, vector<1xf32>
        %5993 = vector.extract_strided_slice %471 {offsets = [6], sizes = [1], strides = [1]} : vector<16xf32> to vector<1xf32>
        %5994 = arith.andi %1353, %5187 : i1
        %5995 = arith.addi %5190, %260 overflow<nsw> : index
        %5996 = arith.select %5994, %5995, %c536870911 : index
        vector.store %5993, %503[%5996] : memref<?xf32, #amdgpu.address_space<fat_raw_buffer>>, vector<1xf32>
        %5997 = vector.extract_strided_slice %471 {offsets = [7], sizes = [1], strides = [1]} : vector<16xf32> to vector<1xf32>
        %5998 = arith.andi %1353, %5195 : i1
        %5999 = arith.addi %5198, %260 overflow<nsw> : index
        %6000 = arith.select %5998, %5999, %c536870911 : index
        vector.store %5997, %503[%6000] : memref<?xf32, #amdgpu.address_space<fat_raw_buffer>>, vector<1xf32>
        %6001 = vector.extract_strided_slice %471 {offsets = [8], sizes = [1], strides = [1]} : vector<16xf32> to vector<1xf32>
        %6002 = arith.andi %1353, %5203 : i1
        %6003 = arith.addi %5206, %260 overflow<nsw> : index
        %6004 = arith.select %6002, %6003, %c536870911 : index
        vector.store %6001, %503[%6004] : memref<?xf32, #amdgpu.address_space<fat_raw_buffer>>, vector<1xf32>
        %6005 = vector.extract_strided_slice %471 {offsets = [9], sizes = [1], strides = [1]} : vector<16xf32> to vector<1xf32>
        %6006 = arith.andi %1353, %5211 : i1
        %6007 = arith.addi %5214, %260 overflow<nsw> : index
        %6008 = arith.select %6006, %6007, %c536870911 : index
        vector.store %6005, %503[%6008] : memref<?xf32, #amdgpu.address_space<fat_raw_buffer>>, vector<1xf32>
        %6009 = vector.extract_strided_slice %471 {offsets = [10], sizes = [1], strides = [1]} : vector<16xf32> to vector<1xf32>
        %6010 = arith.andi %1353, %5219 : i1
        %6011 = arith.addi %5222, %260 overflow<nsw> : index
        %6012 = arith.select %6010, %6011, %c536870911 : index
        vector.store %6009, %503[%6012] : memref<?xf32, #amdgpu.address_space<fat_raw_buffer>>, vector<1xf32>
        %6013 = vector.extract_strided_slice %471 {offsets = [11], sizes = [1], strides = [1]} : vector<16xf32> to vector<1xf32>
        %6014 = arith.andi %1353, %5227 : i1
        %6015 = arith.addi %5230, %260 overflow<nsw> : index
        %6016 = arith.select %6014, %6015, %c536870911 : index
        vector.store %6013, %503[%6016] : memref<?xf32, #amdgpu.address_space<fat_raw_buffer>>, vector<1xf32>
        %6017 = vector.extract_strided_slice %471 {offsets = [12], sizes = [1], strides = [1]} : vector<16xf32> to vector<1xf32>
        %6018 = arith.andi %1353, %5235 : i1
        %6019 = arith.addi %5238, %260 overflow<nsw> : index
        %6020 = arith.select %6018, %6019, %c536870911 : index
        vector.store %6017, %503[%6020] : memref<?xf32, #amdgpu.address_space<fat_raw_buffer>>, vector<1xf32>
        %6021 = vector.extract_strided_slice %471 {offsets = [13], sizes = [1], strides = [1]} : vector<16xf32> to vector<1xf32>
        %6022 = arith.andi %1353, %5243 : i1
        %6023 = arith.addi %5246, %260 overflow<nsw> : index
        %6024 = arith.select %6022, %6023, %c536870911 : index
        vector.store %6021, %503[%6024] : memref<?xf32, #amdgpu.address_space<fat_raw_buffer>>, vector<1xf32>
        %6025 = vector.extract_strided_slice %471 {offsets = [14], sizes = [1], strides = [1]} : vector<16xf32> to vector<1xf32>
        %6026 = arith.andi %1353, %5251 : i1
        %6027 = arith.addi %5254, %260 overflow<nsw> : index
        %6028 = arith.select %6026, %6027, %c536870911 : index
        vector.store %6025, %503[%6028] : memref<?xf32, #amdgpu.address_space<fat_raw_buffer>>, vector<1xf32>
        %6029 = vector.extract_strided_slice %471 {offsets = [15], sizes = [1], strides = [1]} : vector<16xf32> to vector<1xf32>
        %6030 = arith.andi %1353, %5259 : i1
        %6031 = arith.addi %5262, %260 overflow<nsw> : index
        %6032 = arith.select %6030, %6031, %c536870911 : index
        vector.store %6029, %503[%6032] : memref<?xf32, #amdgpu.address_space<fat_raw_buffer>>, vector<1xf32>
        %6033 = vector.extract_strided_slice %473 {offsets = [0], sizes = [1], strides = [1]} : vector<16xf32> to vector<1xf32>
        %6034 = arith.andi %1419, %5139 : i1
        %6035 = arith.addi %5142, %265 overflow<nsw> : index
        %6036 = arith.select %6034, %6035, %c536870911 : index
        vector.store %6033, %503[%6036] : memref<?xf32, #amdgpu.address_space<fat_raw_buffer>>, vector<1xf32>
        %6037 = vector.extract_strided_slice %473 {offsets = [1], sizes = [1], strides = [1]} : vector<16xf32> to vector<1xf32>
        %6038 = arith.andi %1419, %5147 : i1
        %6039 = arith.addi %5150, %265 overflow<nsw> : index
        %6040 = arith.select %6038, %6039, %c536870911 : index
        vector.store %6037, %503[%6040] : memref<?xf32, #amdgpu.address_space<fat_raw_buffer>>, vector<1xf32>
        %6041 = vector.extract_strided_slice %473 {offsets = [2], sizes = [1], strides = [1]} : vector<16xf32> to vector<1xf32>
        %6042 = arith.andi %1419, %5155 : i1
        %6043 = arith.addi %5158, %265 overflow<nsw> : index
        %6044 = arith.select %6042, %6043, %c536870911 : index
        vector.store %6041, %503[%6044] : memref<?xf32, #amdgpu.address_space<fat_raw_buffer>>, vector<1xf32>
        %6045 = vector.extract_strided_slice %473 {offsets = [3], sizes = [1], strides = [1]} : vector<16xf32> to vector<1xf32>
        %6046 = arith.andi %1419, %5163 : i1
        %6047 = arith.addi %5166, %265 overflow<nsw> : index
        %6048 = arith.select %6046, %6047, %c536870911 : index
        vector.store %6045, %503[%6048] : memref<?xf32, #amdgpu.address_space<fat_raw_buffer>>, vector<1xf32>
        %6049 = vector.extract_strided_slice %473 {offsets = [4], sizes = [1], strides = [1]} : vector<16xf32> to vector<1xf32>
        %6050 = arith.andi %1419, %5171 : i1
        %6051 = arith.addi %5174, %265 overflow<nsw> : index
        %6052 = arith.select %6050, %6051, %c536870911 : index
        vector.store %6049, %503[%6052] : memref<?xf32, #amdgpu.address_space<fat_raw_buffer>>, vector<1xf32>
        %6053 = vector.extract_strided_slice %473 {offsets = [5], sizes = [1], strides = [1]} : vector<16xf32> to vector<1xf32>
        %6054 = arith.andi %1419, %5179 : i1
        %6055 = arith.addi %5182, %265 overflow<nsw> : index
        %6056 = arith.select %6054, %6055, %c536870911 : index
        vector.store %6053, %503[%6056] : memref<?xf32, #amdgpu.address_space<fat_raw_buffer>>, vector<1xf32>
        %6057 = vector.extract_strided_slice %473 {offsets = [6], sizes = [1], strides = [1]} : vector<16xf32> to vector<1xf32>
        %6058 = arith.andi %1419, %5187 : i1
        %6059 = arith.addi %5190, %265 overflow<nsw> : index
        %6060 = arith.select %6058, %6059, %c536870911 : index
        vector.store %6057, %503[%6060] : memref<?xf32, #amdgpu.address_space<fat_raw_buffer>>, vector<1xf32>
        %6061 = vector.extract_strided_slice %473 {offsets = [7], sizes = [1], strides = [1]} : vector<16xf32> to vector<1xf32>
        %6062 = arith.andi %1419, %5195 : i1
        %6063 = arith.addi %5198, %265 overflow<nsw> : index
        %6064 = arith.select %6062, %6063, %c536870911 : index
        vector.store %6061, %503[%6064] : memref<?xf32, #amdgpu.address_space<fat_raw_buffer>>, vector<1xf32>
        %6065 = vector.extract_strided_slice %473 {offsets = [8], sizes = [1], strides = [1]} : vector<16xf32> to vector<1xf32>
        %6066 = arith.andi %1419, %5203 : i1
        %6067 = arith.addi %5206, %265 overflow<nsw> : index
        %6068 = arith.select %6066, %6067, %c536870911 : index
        vector.store %6065, %503[%6068] : memref<?xf32, #amdgpu.address_space<fat_raw_buffer>>, vector<1xf32>
        %6069 = vector.extract_strided_slice %473 {offsets = [9], sizes = [1], strides = [1]} : vector<16xf32> to vector<1xf32>
        %6070 = arith.andi %1419, %5211 : i1
        %6071 = arith.addi %5214, %265 overflow<nsw> : index
        %6072 = arith.select %6070, %6071, %c536870911 : index
        vector.store %6069, %503[%6072] : memref<?xf32, #amdgpu.address_space<fat_raw_buffer>>, vector<1xf32>
        %6073 = vector.extract_strided_slice %473 {offsets = [10], sizes = [1], strides = [1]} : vector<16xf32> to vector<1xf32>
        %6074 = arith.andi %1419, %5219 : i1
        %6075 = arith.addi %5222, %265 overflow<nsw> : index
        %6076 = arith.select %6074, %6075, %c536870911 : index
        vector.store %6073, %503[%6076] : memref<?xf32, #amdgpu.address_space<fat_raw_buffer>>, vector<1xf32>
        %6077 = vector.extract_strided_slice %473 {offsets = [11], sizes = [1], strides = [1]} : vector<16xf32> to vector<1xf32>
        %6078 = arith.andi %1419, %5227 : i1
        %6079 = arith.addi %5230, %265 overflow<nsw> : index
        %6080 = arith.select %6078, %6079, %c536870911 : index
        vector.store %6077, %503[%6080] : memref<?xf32, #amdgpu.address_space<fat_raw_buffer>>, vector<1xf32>
        %6081 = vector.extract_strided_slice %473 {offsets = [12], sizes = [1], strides = [1]} : vector<16xf32> to vector<1xf32>
        %6082 = arith.andi %1419, %5235 : i1
        %6083 = arith.addi %5238, %265 overflow<nsw> : index
        %6084 = arith.select %6082, %6083, %c536870911 : index
        vector.store %6081, %503[%6084] : memref<?xf32, #amdgpu.address_space<fat_raw_buffer>>, vector<1xf32>
        %6085 = vector.extract_strided_slice %473 {offsets = [13], sizes = [1], strides = [1]} : vector<16xf32> to vector<1xf32>
        %6086 = arith.andi %1419, %5243 : i1
        %6087 = arith.addi %5246, %265 overflow<nsw> : index
        %6088 = arith.select %6086, %6087, %c536870911 : index
        vector.store %6085, %503[%6088] : memref<?xf32, #amdgpu.address_space<fat_raw_buffer>>, vector<1xf32>
        %6089 = vector.extract_strided_slice %473 {offsets = [14], sizes = [1], strides = [1]} : vector<16xf32> to vector<1xf32>
        %6090 = arith.andi %1419, %5251 : i1
        %6091 = arith.addi %5254, %265 overflow<nsw> : index
        %6092 = arith.select %6090, %6091, %c536870911 : index
        vector.store %6089, %503[%6092] : memref<?xf32, #amdgpu.address_space<fat_raw_buffer>>, vector<1xf32>
        %6093 = vector.extract_strided_slice %473 {offsets = [15], sizes = [1], strides = [1]} : vector<16xf32> to vector<1xf32>
        %6094 = arith.andi %1419, %5259 : i1
        %6095 = arith.addi %5262, %265 overflow<nsw> : index
        %6096 = arith.select %6094, %6095, %c536870911 : index
        vector.store %6093, %503[%6096] : memref<?xf32, #amdgpu.address_space<fat_raw_buffer>>, vector<1xf32>
        %6097 = vector.extract_strided_slice %475 {offsets = [0], sizes = [1], strides = [1]} : vector<16xf32> to vector<1xf32>
        %6098 = arith.andi %1485, %5139 : i1
        %6099 = arith.addi %5142, %270 overflow<nsw> : index
        %6100 = arith.select %6098, %6099, %c536870911 : index
        vector.store %6097, %503[%6100] : memref<?xf32, #amdgpu.address_space<fat_raw_buffer>>, vector<1xf32>
        %6101 = vector.extract_strided_slice %475 {offsets = [1], sizes = [1], strides = [1]} : vector<16xf32> to vector<1xf32>
        %6102 = arith.andi %1485, %5147 : i1
        %6103 = arith.addi %5150, %270 overflow<nsw> : index
        %6104 = arith.select %6102, %6103, %c536870911 : index
        vector.store %6101, %503[%6104] : memref<?xf32, #amdgpu.address_space<fat_raw_buffer>>, vector<1xf32>
        %6105 = vector.extract_strided_slice %475 {offsets = [2], sizes = [1], strides = [1]} : vector<16xf32> to vector<1xf32>
        %6106 = arith.andi %1485, %5155 : i1
        %6107 = arith.addi %5158, %270 overflow<nsw> : index
        %6108 = arith.select %6106, %6107, %c536870911 : index
        vector.store %6105, %503[%6108] : memref<?xf32, #amdgpu.address_space<fat_raw_buffer>>, vector<1xf32>
        %6109 = vector.extract_strided_slice %475 {offsets = [3], sizes = [1], strides = [1]} : vector<16xf32> to vector<1xf32>
        %6110 = arith.andi %1485, %5163 : i1
        %6111 = arith.addi %5166, %270 overflow<nsw> : index
        %6112 = arith.select %6110, %6111, %c536870911 : index
        vector.store %6109, %503[%6112] : memref<?xf32, #amdgpu.address_space<fat_raw_buffer>>, vector<1xf32>
        %6113 = vector.extract_strided_slice %475 {offsets = [4], sizes = [1], strides = [1]} : vector<16xf32> to vector<1xf32>
        %6114 = arith.andi %1485, %5171 : i1
        %6115 = arith.addi %5174, %270 overflow<nsw> : index
        %6116 = arith.select %6114, %6115, %c536870911 : index
        vector.store %6113, %503[%6116] : memref<?xf32, #amdgpu.address_space<fat_raw_buffer>>, vector<1xf32>
        %6117 = vector.extract_strided_slice %475 {offsets = [5], sizes = [1], strides = [1]} : vector<16xf32> to vector<1xf32>
        %6118 = arith.andi %1485, %5179 : i1
        %6119 = arith.addi %5182, %270 overflow<nsw> : index
        %6120 = arith.select %6118, %6119, %c536870911 : index
        vector.store %6117, %503[%6120] : memref<?xf32, #amdgpu.address_space<fat_raw_buffer>>, vector<1xf32>
        %6121 = vector.extract_strided_slice %475 {offsets = [6], sizes = [1], strides = [1]} : vector<16xf32> to vector<1xf32>
        %6122 = arith.andi %1485, %5187 : i1
        %6123 = arith.addi %5190, %270 overflow<nsw> : index
        %6124 = arith.select %6122, %6123, %c536870911 : index
        vector.store %6121, %503[%6124] : memref<?xf32, #amdgpu.address_space<fat_raw_buffer>>, vector<1xf32>
        %6125 = vector.extract_strided_slice %475 {offsets = [7], sizes = [1], strides = [1]} : vector<16xf32> to vector<1xf32>
        %6126 = arith.andi %1485, %5195 : i1
        %6127 = arith.addi %5198, %270 overflow<nsw> : index
        %6128 = arith.select %6126, %6127, %c536870911 : index
        vector.store %6125, %503[%6128] : memref<?xf32, #amdgpu.address_space<fat_raw_buffer>>, vector<1xf32>
        %6129 = vector.extract_strided_slice %475 {offsets = [8], sizes = [1], strides = [1]} : vector<16xf32> to vector<1xf32>
        %6130 = arith.andi %1485, %5203 : i1
        %6131 = arith.addi %5206, %270 overflow<nsw> : index
        %6132 = arith.select %6130, %6131, %c536870911 : index
        vector.store %6129, %503[%6132] : memref<?xf32, #amdgpu.address_space<fat_raw_buffer>>, vector<1xf32>
        %6133 = vector.extract_strided_slice %475 {offsets = [9], sizes = [1], strides = [1]} : vector<16xf32> to vector<1xf32>
        %6134 = arith.andi %1485, %5211 : i1
        %6135 = arith.addi %5214, %270 overflow<nsw> : index
        %6136 = arith.select %6134, %6135, %c536870911 : index
        vector.store %6133, %503[%6136] : memref<?xf32, #amdgpu.address_space<fat_raw_buffer>>, vector<1xf32>
        %6137 = vector.extract_strided_slice %475 {offsets = [10], sizes = [1], strides = [1]} : vector<16xf32> to vector<1xf32>
        %6138 = arith.andi %1485, %5219 : i1
        %6139 = arith.addi %5222, %270 overflow<nsw> : index
        %6140 = arith.select %6138, %6139, %c536870911 : index
        vector.store %6137, %503[%6140] : memref<?xf32, #amdgpu.address_space<fat_raw_buffer>>, vector<1xf32>
        %6141 = vector.extract_strided_slice %475 {offsets = [11], sizes = [1], strides = [1]} : vector<16xf32> to vector<1xf32>
        %6142 = arith.andi %1485, %5227 : i1
        %6143 = arith.addi %5230, %270 overflow<nsw> : index
        %6144 = arith.select %6142, %6143, %c536870911 : index
        vector.store %6141, %503[%6144] : memref<?xf32, #amdgpu.address_space<fat_raw_buffer>>, vector<1xf32>
        %6145 = vector.extract_strided_slice %475 {offsets = [12], sizes = [1], strides = [1]} : vector<16xf32> to vector<1xf32>
        %6146 = arith.andi %1485, %5235 : i1
        %6147 = arith.addi %5238, %270 overflow<nsw> : index
        %6148 = arith.select %6146, %6147, %c536870911 : index
        vector.store %6145, %503[%6148] : memref<?xf32, #amdgpu.address_space<fat_raw_buffer>>, vector<1xf32>
        %6149 = vector.extract_strided_slice %475 {offsets = [13], sizes = [1], strides = [1]} : vector<16xf32> to vector<1xf32>
        %6150 = arith.andi %1485, %5243 : i1
        %6151 = arith.addi %5246, %270 overflow<nsw> : index
        %6152 = arith.select %6150, %6151, %c536870911 : index
        vector.store %6149, %503[%6152] : memref<?xf32, #amdgpu.address_space<fat_raw_buffer>>, vector<1xf32>
        %6153 = vector.extract_strided_slice %475 {offsets = [14], sizes = [1], strides = [1]} : vector<16xf32> to vector<1xf32>
        %6154 = arith.andi %1485, %5251 : i1
        %6155 = arith.addi %5254, %270 overflow<nsw> : index
        %6156 = arith.select %6154, %6155, %c536870911 : index
        vector.store %6153, %503[%6156] : memref<?xf32, #amdgpu.address_space<fat_raw_buffer>>, vector<1xf32>
        %6157 = vector.extract_strided_slice %475 {offsets = [15], sizes = [1], strides = [1]} : vector<16xf32> to vector<1xf32>
        %6158 = arith.andi %1485, %5259 : i1
        %6159 = arith.addi %5262, %270 overflow<nsw> : index
        %6160 = arith.select %6158, %6159, %c536870911 : index
        vector.store %6157, %503[%6160] : memref<?xf32, #amdgpu.address_space<fat_raw_buffer>>, vector<1xf32>
        %6161 = vector.extract_strided_slice %477 {offsets = [0], sizes = [1], strides = [1]} : vector<16xf32> to vector<1xf32>
        %6162 = arith.andi %1551, %5139 : i1
        %6163 = arith.addi %5142, %275 overflow<nsw> : index
        %6164 = arith.select %6162, %6163, %c536870911 : index
        vector.store %6161, %503[%6164] : memref<?xf32, #amdgpu.address_space<fat_raw_buffer>>, vector<1xf32>
        %6165 = vector.extract_strided_slice %477 {offsets = [1], sizes = [1], strides = [1]} : vector<16xf32> to vector<1xf32>
        %6166 = arith.andi %1551, %5147 : i1
        %6167 = arith.addi %5150, %275 overflow<nsw> : index
        %6168 = arith.select %6166, %6167, %c536870911 : index
        vector.store %6165, %503[%6168] : memref<?xf32, #amdgpu.address_space<fat_raw_buffer>>, vector<1xf32>
        %6169 = vector.extract_strided_slice %477 {offsets = [2], sizes = [1], strides = [1]} : vector<16xf32> to vector<1xf32>
        %6170 = arith.andi %1551, %5155 : i1
        %6171 = arith.addi %5158, %275 overflow<nsw> : index
        %6172 = arith.select %6170, %6171, %c536870911 : index
        vector.store %6169, %503[%6172] : memref<?xf32, #amdgpu.address_space<fat_raw_buffer>>, vector<1xf32>
        %6173 = vector.extract_strided_slice %477 {offsets = [3], sizes = [1], strides = [1]} : vector<16xf32> to vector<1xf32>
        %6174 = arith.andi %1551, %5163 : i1
        %6175 = arith.addi %5166, %275 overflow<nsw> : index
        %6176 = arith.select %6174, %6175, %c536870911 : index
        vector.store %6173, %503[%6176] : memref<?xf32, #amdgpu.address_space<fat_raw_buffer>>, vector<1xf32>
        %6177 = vector.extract_strided_slice %477 {offsets = [4], sizes = [1], strides = [1]} : vector<16xf32> to vector<1xf32>
        %6178 = arith.andi %1551, %5171 : i1
        %6179 = arith.addi %5174, %275 overflow<nsw> : index
        %6180 = arith.select %6178, %6179, %c536870911 : index
        vector.store %6177, %503[%6180] : memref<?xf32, #amdgpu.address_space<fat_raw_buffer>>, vector<1xf32>
        %6181 = vector.extract_strided_slice %477 {offsets = [5], sizes = [1], strides = [1]} : vector<16xf32> to vector<1xf32>
        %6182 = arith.andi %1551, %5179 : i1
        %6183 = arith.addi %5182, %275 overflow<nsw> : index
        %6184 = arith.select %6182, %6183, %c536870911 : index
        vector.store %6181, %503[%6184] : memref<?xf32, #amdgpu.address_space<fat_raw_buffer>>, vector<1xf32>
        %6185 = vector.extract_strided_slice %477 {offsets = [6], sizes = [1], strides = [1]} : vector<16xf32> to vector<1xf32>
        %6186 = arith.andi %1551, %5187 : i1
        %6187 = arith.addi %5190, %275 overflow<nsw> : index
        %6188 = arith.select %6186, %6187, %c536870911 : index
        vector.store %6185, %503[%6188] : memref<?xf32, #amdgpu.address_space<fat_raw_buffer>>, vector<1xf32>
        %6189 = vector.extract_strided_slice %477 {offsets = [7], sizes = [1], strides = [1]} : vector<16xf32> to vector<1xf32>
        %6190 = arith.andi %1551, %5195 : i1
        %6191 = arith.addi %5198, %275 overflow<nsw> : index
        %6192 = arith.select %6190, %6191, %c536870911 : index
        vector.store %6189, %503[%6192] : memref<?xf32, #amdgpu.address_space<fat_raw_buffer>>, vector<1xf32>
        %6193 = vector.extract_strided_slice %477 {offsets = [8], sizes = [1], strides = [1]} : vector<16xf32> to vector<1xf32>
        %6194 = arith.andi %1551, %5203 : i1
        %6195 = arith.addi %5206, %275 overflow<nsw> : index
        %6196 = arith.select %6194, %6195, %c536870911 : index
        vector.store %6193, %503[%6196] : memref<?xf32, #amdgpu.address_space<fat_raw_buffer>>, vector<1xf32>
        %6197 = vector.extract_strided_slice %477 {offsets = [9], sizes = [1], strides = [1]} : vector<16xf32> to vector<1xf32>
        %6198 = arith.andi %1551, %5211 : i1
        %6199 = arith.addi %5214, %275 overflow<nsw> : index
        %6200 = arith.select %6198, %6199, %c536870911 : index
        vector.store %6197, %503[%6200] : memref<?xf32, #amdgpu.address_space<fat_raw_buffer>>, vector<1xf32>
        %6201 = vector.extract_strided_slice %477 {offsets = [10], sizes = [1], strides = [1]} : vector<16xf32> to vector<1xf32>
        %6202 = arith.andi %1551, %5219 : i1
        %6203 = arith.addi %5222, %275 overflow<nsw> : index
        %6204 = arith.select %6202, %6203, %c536870911 : index
        vector.store %6201, %503[%6204] : memref<?xf32, #amdgpu.address_space<fat_raw_buffer>>, vector<1xf32>
        %6205 = vector.extract_strided_slice %477 {offsets = [11], sizes = [1], strides = [1]} : vector<16xf32> to vector<1xf32>
        %6206 = arith.andi %1551, %5227 : i1
        %6207 = arith.addi %5230, %275 overflow<nsw> : index
        %6208 = arith.select %6206, %6207, %c536870911 : index
        vector.store %6205, %503[%6208] : memref<?xf32, #amdgpu.address_space<fat_raw_buffer>>, vector<1xf32>
        %6209 = vector.extract_strided_slice %477 {offsets = [12], sizes = [1], strides = [1]} : vector<16xf32> to vector<1xf32>
        %6210 = arith.andi %1551, %5235 : i1
        %6211 = arith.addi %5238, %275 overflow<nsw> : index
        %6212 = arith.select %6210, %6211, %c536870911 : index
        vector.store %6209, %503[%6212] : memref<?xf32, #amdgpu.address_space<fat_raw_buffer>>, vector<1xf32>
        %6213 = vector.extract_strided_slice %477 {offsets = [13], sizes = [1], strides = [1]} : vector<16xf32> to vector<1xf32>
        %6214 = arith.andi %1551, %5243 : i1
        %6215 = arith.addi %5246, %275 overflow<nsw> : index
        %6216 = arith.select %6214, %6215, %c536870911 : index
        vector.store %6213, %503[%6216] : memref<?xf32, #amdgpu.address_space<fat_raw_buffer>>, vector<1xf32>
        %6217 = vector.extract_strided_slice %477 {offsets = [14], sizes = [1], strides = [1]} : vector<16xf32> to vector<1xf32>
        %6218 = arith.andi %1551, %5251 : i1
        %6219 = arith.addi %5254, %275 overflow<nsw> : index
        %6220 = arith.select %6218, %6219, %c536870911 : index
        vector.store %6217, %503[%6220] : memref<?xf32, #amdgpu.address_space<fat_raw_buffer>>, vector<1xf32>
        %6221 = vector.extract_strided_slice %477 {offsets = [15], sizes = [1], strides = [1]} : vector<16xf32> to vector<1xf32>
        %6222 = arith.andi %1551, %5259 : i1
        %6223 = arith.addi %5262, %275 overflow<nsw> : index
        %6224 = arith.select %6222, %6223, %c536870911 : index
        vector.store %6221, %503[%6224] : memref<?xf32, #amdgpu.address_space<fat_raw_buffer>>, vector<1xf32>
        %6225 = vector.extract_strided_slice %479 {offsets = [0], sizes = [1], strides = [1]} : vector<16xf32> to vector<1xf32>
        %6226 = arith.andi %1617, %5139 : i1
        %6227 = arith.addi %5142, %280 overflow<nsw> : index
        %6228 = arith.select %6226, %6227, %c536870911 : index
        vector.store %6225, %503[%6228] : memref<?xf32, #amdgpu.address_space<fat_raw_buffer>>, vector<1xf32>
        %6229 = vector.extract_strided_slice %479 {offsets = [1], sizes = [1], strides = [1]} : vector<16xf32> to vector<1xf32>
        %6230 = arith.andi %1617, %5147 : i1
        %6231 = arith.addi %5150, %280 overflow<nsw> : index
        %6232 = arith.select %6230, %6231, %c536870911 : index
        vector.store %6229, %503[%6232] : memref<?xf32, #amdgpu.address_space<fat_raw_buffer>>, vector<1xf32>
        %6233 = vector.extract_strided_slice %479 {offsets = [2], sizes = [1], strides = [1]} : vector<16xf32> to vector<1xf32>
        %6234 = arith.andi %1617, %5155 : i1
        %6235 = arith.addi %5158, %280 overflow<nsw> : index
        %6236 = arith.select %6234, %6235, %c536870911 : index
        vector.store %6233, %503[%6236] : memref<?xf32, #amdgpu.address_space<fat_raw_buffer>>, vector<1xf32>
        %6237 = vector.extract_strided_slice %479 {offsets = [3], sizes = [1], strides = [1]} : vector<16xf32> to vector<1xf32>
        %6238 = arith.andi %1617, %5163 : i1
        %6239 = arith.addi %5166, %280 overflow<nsw> : index
        %6240 = arith.select %6238, %6239, %c536870911 : index
        vector.store %6237, %503[%6240] : memref<?xf32, #amdgpu.address_space<fat_raw_buffer>>, vector<1xf32>
        %6241 = vector.extract_strided_slice %479 {offsets = [4], sizes = [1], strides = [1]} : vector<16xf32> to vector<1xf32>
        %6242 = arith.andi %1617, %5171 : i1
        %6243 = arith.addi %5174, %280 overflow<nsw> : index
        %6244 = arith.select %6242, %6243, %c536870911 : index
        vector.store %6241, %503[%6244] : memref<?xf32, #amdgpu.address_space<fat_raw_buffer>>, vector<1xf32>
        %6245 = vector.extract_strided_slice %479 {offsets = [5], sizes = [1], strides = [1]} : vector<16xf32> to vector<1xf32>
        %6246 = arith.andi %1617, %5179 : i1
        %6247 = arith.addi %5182, %280 overflow<nsw> : index
        %6248 = arith.select %6246, %6247, %c536870911 : index
        vector.store %6245, %503[%6248] : memref<?xf32, #amdgpu.address_space<fat_raw_buffer>>, vector<1xf32>
        %6249 = vector.extract_strided_slice %479 {offsets = [6], sizes = [1], strides = [1]} : vector<16xf32> to vector<1xf32>
        %6250 = arith.andi %1617, %5187 : i1
        %6251 = arith.addi %5190, %280 overflow<nsw> : index
        %6252 = arith.select %6250, %6251, %c536870911 : index
        vector.store %6249, %503[%6252] : memref<?xf32, #amdgpu.address_space<fat_raw_buffer>>, vector<1xf32>
        %6253 = vector.extract_strided_slice %479 {offsets = [7], sizes = [1], strides = [1]} : vector<16xf32> to vector<1xf32>
        %6254 = arith.andi %1617, %5195 : i1
        %6255 = arith.addi %5198, %280 overflow<nsw> : index
        %6256 = arith.select %6254, %6255, %c536870911 : index
        vector.store %6253, %503[%6256] : memref<?xf32, #amdgpu.address_space<fat_raw_buffer>>, vector<1xf32>
        %6257 = vector.extract_strided_slice %479 {offsets = [8], sizes = [1], strides = [1]} : vector<16xf32> to vector<1xf32>
        %6258 = arith.andi %1617, %5203 : i1
        %6259 = arith.addi %5206, %280 overflow<nsw> : index
        %6260 = arith.select %6258, %6259, %c536870911 : index
        vector.store %6257, %503[%6260] : memref<?xf32, #amdgpu.address_space<fat_raw_buffer>>, vector<1xf32>
        %6261 = vector.extract_strided_slice %479 {offsets = [9], sizes = [1], strides = [1]} : vector<16xf32> to vector<1xf32>
        %6262 = arith.andi %1617, %5211 : i1
        %6263 = arith.addi %5214, %280 overflow<nsw> : index
        %6264 = arith.select %6262, %6263, %c536870911 : index
        vector.store %6261, %503[%6264] : memref<?xf32, #amdgpu.address_space<fat_raw_buffer>>, vector<1xf32>
        %6265 = vector.extract_strided_slice %479 {offsets = [10], sizes = [1], strides = [1]} : vector<16xf32> to vector<1xf32>
        %6266 = arith.andi %1617, %5219 : i1
        %6267 = arith.addi %5222, %280 overflow<nsw> : index
        %6268 = arith.select %6266, %6267, %c536870911 : index
        vector.store %6265, %503[%6268] : memref<?xf32, #amdgpu.address_space<fat_raw_buffer>>, vector<1xf32>
        %6269 = vector.extract_strided_slice %479 {offsets = [11], sizes = [1], strides = [1]} : vector<16xf32> to vector<1xf32>
        %6270 = arith.andi %1617, %5227 : i1
        %6271 = arith.addi %5230, %280 overflow<nsw> : index
        %6272 = arith.select %6270, %6271, %c536870911 : index
        vector.store %6269, %503[%6272] : memref<?xf32, #amdgpu.address_space<fat_raw_buffer>>, vector<1xf32>
        %6273 = vector.extract_strided_slice %479 {offsets = [12], sizes = [1], strides = [1]} : vector<16xf32> to vector<1xf32>
        %6274 = arith.andi %1617, %5235 : i1
        %6275 = arith.addi %5238, %280 overflow<nsw> : index
        %6276 = arith.select %6274, %6275, %c536870911 : index
        vector.store %6273, %503[%6276] : memref<?xf32, #amdgpu.address_space<fat_raw_buffer>>, vector<1xf32>
        %6277 = vector.extract_strided_slice %479 {offsets = [13], sizes = [1], strides = [1]} : vector<16xf32> to vector<1xf32>
        %6278 = arith.andi %1617, %5243 : i1
        %6279 = arith.addi %5246, %280 overflow<nsw> : index
        %6280 = arith.select %6278, %6279, %c536870911 : index
        vector.store %6277, %503[%6280] : memref<?xf32, #amdgpu.address_space<fat_raw_buffer>>, vector<1xf32>
        %6281 = vector.extract_strided_slice %479 {offsets = [14], sizes = [1], strides = [1]} : vector<16xf32> to vector<1xf32>
        %6282 = arith.andi %1617, %5251 : i1
        %6283 = arith.addi %5254, %280 overflow<nsw> : index
        %6284 = arith.select %6282, %6283, %c536870911 : index
        vector.store %6281, %503[%6284] : memref<?xf32, #amdgpu.address_space<fat_raw_buffer>>, vector<1xf32>
        %6285 = vector.extract_strided_slice %479 {offsets = [15], sizes = [1], strides = [1]} : vector<16xf32> to vector<1xf32>
        %6286 = arith.andi %1617, %5259 : i1
        %6287 = arith.addi %5262, %280 overflow<nsw> : index
        %6288 = arith.select %6286, %6287, %c536870911 : index
        vector.store %6285, %503[%6288] : memref<?xf32, #amdgpu.address_space<fat_raw_buffer>>, vector<1xf32>
        return
      }
    }
  }
  func.func @isolated_benchmark(%arg0: tensor<706x4096xf16>, %arg1: tensor<4096x4096xf16>, %arg2: tensor<706x4096xf32>) -> tensor<706x4096xf32> {
    %0 = flow.dispatch @gemm::@gemm(%arg0, %arg1, %arg2) : (tensor<706x4096xf16>, tensor<4096x4096xf16>, tensor<706x4096xf32>) -> %arg2
    return %0 : tensor<706x4096xf32>
  }
}
