#map = affine_map<()[s0, s1] -> (s0 * 16 + (s1 floordiv 64) * 4 + 4)>
#map1 = affine_map<()[s0] -> (s0 * 16 + 16)>
#map2 = affine_map<()[s0, s1, s2] -> (s0 mod 32 + ((s1 * 821762 + s2 * 641 - ((s1 * 1282 + s2) floordiv 8) * 5127) floordiv 4) * 16 + (s0 floordiv 64) * 4)>
#map3 = affine_map<()[s0] -> (((s0 mod 64) floordiv 32) * 8)>
#map4 = affine_map<()[s0, s1, s2, s3] -> (s1 * 128 + s2 * 601529784 + s3 * 469212 + s0 floordiv 2 - ((s1 * 128 + s0 floordiv 2) floordiv 732) * 732 - ((s2 * 1282 + s3) floordiv 8) * 3752964 - ((s2 * 821762 + s3 * 641 - ((s2 * 1282 + s3) floordiv 8) * 5127) floordiv 4) * 2928)>
#map5 = affine_map<()[s0] -> (s0 * 8 - (s0 floordiv 2) * 16)>
#map6 = affine_map<()[s0, s1, s2, s3] -> (s1 * 128 + s2 * 601529784 + s3 * 469212 + s0 floordiv 2 - ((s1 * 128 + s0 floordiv 2 + 256) floordiv 732) * 732 - ((s2 * 1282 + s3) floordiv 8) * 3752964 - ((s2 * 821762 + s3 * 641 - ((s2 * 1282 + s3) floordiv 8) * 5127) floordiv 4) * 2928 + 256)>
#map7 = affine_map<()[s0, s1, s2, s3] -> (s1 * 128 + s2 * 601529784 + s3 * 469212 + s0 floordiv 2 - ((s1 * 128 + s0 floordiv 2 + 512) floordiv 732) * 732 - ((s2 * 1282 + s3) floordiv 8) * 3752964 - ((s2 * 821762 + s3 * 641 - ((s2 * 1282 + s3) floordiv 8) * 5127) floordiv 4) * 2928 + 512)>
#map8 = affine_map<()[s0] -> ((s0 floordiv 64) * 4 + 4)>
#map9 = affine_map<()[s0] -> (s0 mod 32 + (s0 floordiv 64) * 4)>
#map10 = affine_map<()[s0] -> (s0 * 366 + 366)>
#map11 = affine_map<()[s0, s1] -> ((s1 * 128 + s0 floordiv 2) mod 732)>
#map12 = affine_map<()[s0, s1] -> (s1 * 128 + s0 floordiv 2 - ((s1 * 128 + s0 floordiv 2 + 256) floordiv 732) * 732 + 256)>
#map13 = affine_map<()[s0, s1] -> (s1 * 128 + s0 floordiv 2 - ((s1 * 128 + s0 floordiv 2 + 512) floordiv 732) * 732 + 512)>
#map14 = affine_map<()[s0, s1] -> (s0 + s1 * 366 - (s0 floordiv 32) * 32)>
#map15 = affine_map<()[s0, s1] -> (s0 + s1 * 366 - (s0 floordiv 32) * 32 + 32)>
#map16 = affine_map<()[s0, s1] -> (s0 + s1 * 366 - (s0 floordiv 32) * 32 + 64)>
#map17 = affine_map<()[s0, s1] -> (s0 + s1 * 366 - (s0 floordiv 32) * 32 + 96)>
#map18 = affine_map<()[s0, s1] -> (s0 + s1 * 366 - (s0 floordiv 32) * 32 + 128)>
#map19 = affine_map<()[s0, s1] -> (s0 + s1 * 366 - (s0 floordiv 32) * 32 + 160)>
#map20 = affine_map<()[s0, s1] -> (s0 + s1 * 366 - (s0 floordiv 32) * 32 + 192)>
#map21 = affine_map<()[s0, s1] -> (s0 + s1 * 366 - (s0 floordiv 32) * 32 + 224)>
#map22 = affine_map<()[s0, s1] -> (s0 + s1 * 366 - (s0 floordiv 32) * 32 + 256)>
#map23 = affine_map<()[s0, s1] -> (s0 + s1 * 366 - (s0 floordiv 32) * 32 + 288)>
#map24 = affine_map<()[s0, s1] -> (s0 + s1 * 366 - (s0 floordiv 32) * 32 + 320)>
#map25 = affine_map<()[s0, s1] -> (s0 + s1 * 366 - (s0 floordiv 32) * 32 + 352)>
#map26 = affine_map<()[s0, s1] -> (s0 * 16 + ((s1 mod 64) floordiv 32) * 8 + 16)>
#map27 = affine_map<()[s0, s1] -> (s0 * 16 + s1 * 8 - (s1 floordiv 2) * 16 + 16)>
#map28 = affine_map<()[s0, s1] -> (s0 * 732 + s1 * 366 + 366)>
#map29 = affine_map<()[s0] -> (s0 * 732 + 732)>
#map30 = affine_map<()[s0, s1, s2, s3] -> (s0 + s1 * 601529784 + s2 * 469212 + s3 * 366 - (s0 floordiv 32) * 32 - ((s1 * 1282 + s2) floordiv 8) * 3752964 - ((s1 * 821762 + s2 * 641 - ((s1 * 1282 + s2) floordiv 8) * 5127) floordiv 4) * 2928)>
#map31 = affine_map<()[s0, s1, s2] -> (((s0 * 821762 + s1 * 641 - ((s0 * 1282 + s1) floordiv 8) * 5127) floordiv 4) * 16 + (s2 floordiv 64) * 4 + ((s2 mod 64) floordiv 32) * 4)>
#map32 = affine_map<()[s0, s1] -> (((s0 * 821762 + s1 * 641 - ((s0 * 1282 + s1) floordiv 8) * 5127) floordiv 4) * 16)>
#map33 = affine_map<()[s0, s1] -> (s0 * 601529784 + s1 * 469212 - ((s0 * 1282 + s1) floordiv 8) * 3752964 - ((s0 * 821762 + s1 * 641 - ((s0 * 1282 + s1) floordiv 8) * 5127) floordiv 4) * 2928)>
#map34 = affine_map<()[s0] -> ((s0 floordiv 64) * 4 + ((s0 mod 64) floordiv 32) * 4)>
#map35 = affine_map<()[s0, s1, s2] -> (((s0 * 821762 + s1 * 641 - ((s0 * 1282 + s1) floordiv 8) * 5127) floordiv 4) * 16 + (s2 floordiv 64) * 4 + ((s2 mod 64) floordiv 32) * 4 + 1)>
#map36 = affine_map<()[s0] -> ((s0 floordiv 64) * 4 + ((s0 mod 64) floordiv 32) * 4 + 1)>
#map37 = affine_map<()[s0, s1, s2] -> (((s0 * 821762 + s1 * 641 - ((s0 * 1282 + s1) floordiv 8) * 5127) floordiv 4) * 16 + (s2 floordiv 64) * 4 + ((s2 mod 64) floordiv 32) * 4 + 2)>
#map38 = affine_map<()[s0] -> ((s0 floordiv 64) * 4 + ((s0 mod 64) floordiv 32) * 4 + 2)>
#map39 = affine_map<()[s0, s1, s2] -> (((s0 * 821762 + s1 * 641 - ((s0 * 1282 + s1) floordiv 8) * 5127) floordiv 4) * 16 + (s2 floordiv 64) * 4 + ((s2 mod 64) floordiv 32) * 4 + 3)>
#map40 = affine_map<()[s0] -> ((s0 floordiv 64) * 4 + ((s0 mod 64) floordiv 32) * 4 + 3)>
#map41 = affine_map<()[s0, s1, s2] -> (((s0 * 821762 + s1 * 641 - ((s0 * 1282 + s1) floordiv 8) * 5127) floordiv 4) * 16 + (s2 floordiv 64) * 4 + ((s2 mod 64) floordiv 32) * 4 + 8)>
#map42 = affine_map<()[s0] -> ((s0 floordiv 64) * 4 + ((s0 mod 64) floordiv 32) * 4 + 8)>
#map43 = affine_map<()[s0, s1, s2] -> (((s0 * 821762 + s1 * 641 - ((s0 * 1282 + s1) floordiv 8) * 5127) floordiv 4) * 16 + (s2 floordiv 64) * 4 + ((s2 mod 64) floordiv 32) * 4 + 9)>
#map44 = affine_map<()[s0] -> ((s0 floordiv 64) * 4 + ((s0 mod 64) floordiv 32) * 4 + 9)>
#map45 = affine_map<()[s0, s1, s2] -> (((s0 * 821762 + s1 * 641 - ((s0 * 1282 + s1) floordiv 8) * 5127) floordiv 4) * 16 + (s2 floordiv 64) * 4 + ((s2 mod 64) floordiv 32) * 4 + 10)>
#map46 = affine_map<()[s0] -> ((s0 floordiv 64) * 4 + ((s0 mod 64) floordiv 32) * 4 + 10)>
#map47 = affine_map<()[s0, s1, s2] -> (((s0 * 821762 + s1 * 641 - ((s0 * 1282 + s1) floordiv 8) * 5127) floordiv 4) * 16 + (s2 floordiv 64) * 4 + ((s2 mod 64) floordiv 32) * 4 + 11)>
#map48 = affine_map<()[s0] -> ((s0 floordiv 64) * 4 + ((s0 mod 64) floordiv 32) * 4 + 11)>
#map49 = affine_map<()[s0, s1, s2] -> (((s0 * 821762 + s1 * 641 - ((s0 * 1282 + s1) floordiv 8) * 5127) floordiv 4) * 16 + (s2 floordiv 64) * 4 + ((s2 mod 64) floordiv 32) * 4 + 16)>
#map50 = affine_map<()[s0] -> ((s0 floordiv 64) * 4 + ((s0 mod 64) floordiv 32) * 4 + 16)>
#map51 = affine_map<()[s0, s1, s2] -> (((s0 * 821762 + s1 * 641 - ((s0 * 1282 + s1) floordiv 8) * 5127) floordiv 4) * 16 + (s2 floordiv 64) * 4 + ((s2 mod 64) floordiv 32) * 4 + 17)>
#map52 = affine_map<()[s0] -> ((s0 floordiv 64) * 4 + ((s0 mod 64) floordiv 32) * 4 + 17)>
#map53 = affine_map<()[s0, s1, s2] -> (((s0 * 821762 + s1 * 641 - ((s0 * 1282 + s1) floordiv 8) * 5127) floordiv 4) * 16 + (s2 floordiv 64) * 4 + ((s2 mod 64) floordiv 32) * 4 + 18)>
#map54 = affine_map<()[s0] -> ((s0 floordiv 64) * 4 + ((s0 mod 64) floordiv 32) * 4 + 18)>
#map55 = affine_map<()[s0, s1, s2] -> (((s0 * 821762 + s1 * 641 - ((s0 * 1282 + s1) floordiv 8) * 5127) floordiv 4) * 16 + (s2 floordiv 64) * 4 + ((s2 mod 64) floordiv 32) * 4 + 19)>
#map56 = affine_map<()[s0] -> ((s0 floordiv 64) * 4 + ((s0 mod 64) floordiv 32) * 4 + 19)>
#map57 = affine_map<()[s0, s1, s2] -> (((s0 * 821762 + s1 * 641 - ((s0 * 1282 + s1) floordiv 8) * 5127) floordiv 4) * 16 + (s2 floordiv 64) * 4 + ((s2 mod 64) floordiv 32) * 4 + 24)>
#map58 = affine_map<()[s0] -> ((s0 floordiv 64) * 4 + ((s0 mod 64) floordiv 32) * 4 + 24)>
#map59 = affine_map<()[s0, s1, s2] -> (((s0 * 821762 + s1 * 641 - ((s0 * 1282 + s1) floordiv 8) * 5127) floordiv 4) * 16 + (s2 floordiv 64) * 4 + ((s2 mod 64) floordiv 32) * 4 + 25)>
#map60 = affine_map<()[s0] -> ((s0 floordiv 64) * 4 + ((s0 mod 64) floordiv 32) * 4 + 25)>
#map61 = affine_map<()[s0, s1, s2] -> (((s0 * 821762 + s1 * 641 - ((s0 * 1282 + s1) floordiv 8) * 5127) floordiv 4) * 16 + (s2 floordiv 64) * 4 + ((s2 mod 64) floordiv 32) * 4 + 26)>
#map62 = affine_map<()[s0] -> ((s0 floordiv 64) * 4 + ((s0 mod 64) floordiv 32) * 4 + 26)>
#map63 = affine_map<()[s0, s1, s2] -> (((s0 * 821762 + s1 * 641 - ((s0 * 1282 + s1) floordiv 8) * 5127) floordiv 4) * 16 + (s2 floordiv 64) * 4 + ((s2 mod 64) floordiv 32) * 4 + 27)>
#map64 = affine_map<()[s0] -> ((s0 floordiv 64) * 4 + ((s0 mod 64) floordiv 32) * 4 + 27)>
#map65 = affine_map<()[s0, s1, s2, s3] -> (s0 + s1 * 601529784 + s2 * 469212 + s3 * 366 - (s0 floordiv 32) * 32 - ((s1 * 1282 + s2) floordiv 8) * 3752964 - ((s1 * 821762 + s2 * 641 - ((s1 * 1282 + s2) floordiv 8) * 5127) floordiv 4) * 2928 + 32)>
#map66 = affine_map<()[s0, s1, s2, s3] -> (s0 + s1 * 601529784 + s2 * 469212 + s3 * 366 - (s0 floordiv 32) * 32 - ((s1 * 1282 + s2) floordiv 8) * 3752964 - ((s1 * 821762 + s2 * 641 - ((s1 * 1282 + s2) floordiv 8) * 5127) floordiv 4) * 2928 + 64)>
#map67 = affine_map<()[s0, s1, s2, s3] -> (s0 + s1 * 601529784 + s2 * 469212 + s3 * 366 - (s0 floordiv 32) * 32 - ((s1 * 1282 + s2) floordiv 8) * 3752964 - ((s1 * 821762 + s2 * 641 - ((s1 * 1282 + s2) floordiv 8) * 5127) floordiv 4) * 2928 + 96)>
#map68 = affine_map<()[s0, s1, s2, s3] -> (s0 + s1 * 601529784 + s2 * 469212 + s3 * 366 - (s0 floordiv 32) * 32 - ((s1 * 1282 + s2) floordiv 8) * 3752964 - ((s1 * 821762 + s2 * 641 - ((s1 * 1282 + s2) floordiv 8) * 5127) floordiv 4) * 2928 + 128)>
#map69 = affine_map<()[s0, s1, s2, s3] -> (s0 + s1 * 601529784 + s2 * 469212 + s3 * 366 - (s0 floordiv 32) * 32 - ((s1 * 1282 + s2) floordiv 8) * 3752964 - ((s1 * 821762 + s2 * 641 - ((s1 * 1282 + s2) floordiv 8) * 5127) floordiv 4) * 2928 + 160)>
#map70 = affine_map<()[s0, s1, s2, s3] -> (s0 + s1 * 601529784 + s2 * 469212 + s3 * 366 - (s0 floordiv 32) * 32 - ((s1 * 1282 + s2) floordiv 8) * 3752964 - ((s1 * 821762 + s2 * 641 - ((s1 * 1282 + s2) floordiv 8) * 5127) floordiv 4) * 2928 + 192)>
#map71 = affine_map<()[s0, s1, s2, s3] -> (s0 + s1 * 601529784 + s2 * 469212 + s3 * 366 - (s0 floordiv 32) * 32 - ((s1 * 1282 + s2) floordiv 8) * 3752964 - ((s1 * 821762 + s2 * 641 - ((s1 * 1282 + s2) floordiv 8) * 5127) floordiv 4) * 2928 + 224)>
#map72 = affine_map<()[s0, s1, s2, s3] -> (s0 + s1 * 601529784 + s2 * 469212 + s3 * 366 - (s0 floordiv 32) * 32 - ((s1 * 1282 + s2) floordiv 8) * 3752964 - ((s1 * 821762 + s2 * 641 - ((s1 * 1282 + s2) floordiv 8) * 5127) floordiv 4) * 2928 + 256)>
#map73 = affine_map<()[s0, s1, s2, s3] -> (s0 + s1 * 601529784 + s2 * 469212 + s3 * 366 - (s0 floordiv 32) * 32 - ((s1 * 1282 + s2) floordiv 8) * 3752964 - ((s1 * 821762 + s2 * 641 - ((s1 * 1282 + s2) floordiv 8) * 5127) floordiv 4) * 2928 + 288)>
#map74 = affine_map<()[s0, s1, s2, s3] -> (s0 + s1 * 601529784 + s2 * 469212 + s3 * 366 - (s0 floordiv 32) * 32 - ((s1 * 1282 + s2) floordiv 8) * 3752964 - ((s1 * 821762 + s2 * 641 - ((s1 * 1282 + s2) floordiv 8) * 5127) floordiv 4) * 2928 + 320)>
#map75 = affine_map<()[s0, s1, s2, s3] -> (s0 + s1 * 601529784 + s2 * 469212 + s3 * 366 - (s0 floordiv 32) * 32 - ((s1 * 1282 + s2) floordiv 8) * 3752964 - ((s1 * 821762 + s2 * 641 - ((s1 * 1282 + s2) floordiv 8) * 5127) floordiv 4) * 2928 + 352)>
#translation = #iree_codegen.translation_info<pipeline = None workgroup_size = [256, 2, 1] subgroup_size = 64>
module attributes {transform.with_named_sequence} {
  stream.executable private @gemm {
    stream.executable.export public @gemm workgroups() -> (index, index, index) {
      %c1282 = arith.constant 1282 : index
      %c4 = arith.constant 4 : index
      %c1 = arith.constant 1 : index
      stream.return %c1282, %c4, %c1 : index, index, index
    }
    builtin.module {
      func.func @gemm(%arg0: !stream.binding, %arg1: !stream.binding, %arg2: !stream.binding) attributes {translation_info = #translation} {
        %cst = arith.constant dense<0.000000e+00> : vector<8xf16>
        %cst_0 = arith.constant dense<[0, 1, 2, 3, 4, 5, 6, 7]> : vector<8xi32>
        %cst_1 = arith.constant dense<1073741823> : vector<8xindex>
        %c2880_i14 = arith.constant 2880 : i14
        %c536870911 = arith.constant 536870911 : index
        %c2147483643_i32 = arith.constant 2147483643 : i32
        %c536870910 = arith.constant 536870910 : index
        %c179 = arith.constant 179 : index
        %c732 = arith.constant 732 : index
        %c2147483645_i32 = arith.constant 2147483645 : i32
        %c1073741822 = arith.constant 1073741822 : index
        %c2880 = arith.constant 2880 : index
        %c16 = arith.constant 16 : index
        %c1 = arith.constant 1 : index
        %c29280 = arith.constant 29280 : index
        %c0 = arith.constant 0 : index
        %cst_2 = arith.constant dense<0.000000e+00> : vector<16xf32>
        %block_id_x = gpu.block_id  x upper_bound 1282
        %block_id_y = gpu.block_id  y upper_bound 4
        %thread_id_x = gpu.thread_id  x upper_bound 256
        %thread_id_y = gpu.thread_id  y upper_bound 2
        %alloc = memref.alloc() : memref<29920xi8, #gpu.address_space<workgroup>>
        %view = memref.view %alloc[%c0][] : memref<29920xi8, #gpu.address_space<workgroup>> to memref<732x20xf16, #gpu.address_space<workgroup>>
        %view_3 = memref.view %alloc[%c29280][] : memref<29920xi8, #gpu.address_space<workgroup>> to memref<16x20xf16, #gpu.address_space<workgroup>>
        %0 = stream.binding.subspan %arg0[%c0] : !stream.binding -> memref<20512x2880xf16, strided<[2880, 1], offset: ?>>
        %1 = affine.apply #map()[%block_id_x, %thread_id_x]
        %2 = affine.apply #map1()[%block_id_x]
        %3 = arith.minsi %1, %2 : index
        %4 = affine.apply #map2()[%thread_id_x, %block_id_y, %block_id_x]
        %5 = arith.cmpi slt, %4, %3 : index
        %6 = vector.broadcast %5 : i1 to vector<8xi1>
        %7 = affine.apply #map3()[%thread_id_x]
        %8 = arith.muli %4, %c2880 overflow<nsw> : index
        %9 = arith.addi %8, %7 overflow<nsw> : index
        %base_buffer, %offset, %sizes:2, %strides:2 = memref.extract_strided_metadata %0 : memref<20512x2880xf16, strided<[2880, 1], offset: ?>> -> memref<f16>, index, index, index, index, index
        %reinterpret_cast = memref.reinterpret_cast %0 to offset: [%offset], sizes: [%c1073741822], strides: [1] : memref<20512x2880xf16, strided<[2880, 1], offset: ?>> to memref<?xf16, strided<[1], offset: ?>>
        %10 = amdgpu.fat_raw_buffer_cast %reinterpret_cast validBytes(%c2147483645_i32) cacheSwizzleStride(%c2880_i14) resetOffset : memref<?xf16, strided<[1], offset: ?>> to memref<?xf16, #amdgpu.address_space<fat_raw_buffer>>
        %11 = arith.index_cast %9 : index to i32
        %12 = vector.broadcast %11 : i32 to vector<8xi32>
        %13 = arith.addi %12, %cst_0 : vector<8xi32>
        %14 = arith.index_cast %13 : vector<8xi32> to vector<8xindex>
        %15 = arith.select %6, %14, %cst_1 : vector<8xi1>, vector<8xindex>
        %16 = vector.extract %15[0] : index from vector<8xindex>
        %17 = vector.load %10[%16] : memref<?xf16, #amdgpu.address_space<fat_raw_buffer>>, vector<8xf16>
        %18 = stream.binding.subspan %arg1[%c0] : !stream.binding -> memref<2880x2880xf16, strided<[2880, 1], offset: ?>>
        %19 = affine.apply #map4()[%thread_id_x, %thread_id_y, %block_id_y, %block_id_x]
        %20 = arith.cmpi slt, %19, %c2880 : index
        %21 = vector.broadcast %20 : i1 to vector<8xi1>
        %22 = affine.apply #map5()[%thread_id_x]
        %23 = arith.muli %19, %c2880 overflow<nsw> : index
        %24 = arith.addi %23, %22 overflow<nsw> : index
        %base_buffer_4, %offset_5, %sizes_6:2, %strides_7:2 = memref.extract_strided_metadata %18 : memref<2880x2880xf16, strided<[2880, 1], offset: ?>> -> memref<f16>, index, index, index, index, index
        %reinterpret_cast_8 = memref.reinterpret_cast %18 to offset: [%offset_5], sizes: [%c1073741822], strides: [1] : memref<2880x2880xf16, strided<[2880, 1], offset: ?>> to memref<?xf16, strided<[1], offset: ?>>
        %25 = amdgpu.fat_raw_buffer_cast %reinterpret_cast_8 validBytes(%c2147483645_i32) cacheSwizzleStride(%c2880_i14) resetOffset : memref<?xf16, strided<[1], offset: ?>> to memref<?xf16, #amdgpu.address_space<fat_raw_buffer>>
        %26 = arith.index_cast %24 : index to i32
        %27 = vector.broadcast %26 : i32 to vector<8xi32>
        %28 = arith.addi %27, %cst_0 : vector<8xi32>
        %29 = arith.index_cast %28 : vector<8xi32> to vector<8xindex>
        %30 = arith.select %21, %29, %cst_1 : vector<8xi1>, vector<8xindex>
        %31 = vector.extract %30[0] : index from vector<8xindex>
        %32 = vector.load %25[%31] : memref<?xf16, #amdgpu.address_space<fat_raw_buffer>>, vector<8xf16>
        %33 = affine.apply #map6()[%thread_id_x, %thread_id_y, %block_id_y, %block_id_x]
        %34 = arith.cmpi slt, %33, %c2880 : index
        %35 = vector.broadcast %34 : i1 to vector<8xi1>
        %36 = arith.muli %33, %c2880 overflow<nsw> : index
        %37 = arith.addi %36, %22 overflow<nsw> : index
        %38 = arith.index_cast %37 : index to i32
        %39 = vector.broadcast %38 : i32 to vector<8xi32>
        %40 = arith.addi %39, %cst_0 : vector<8xi32>
        %41 = arith.index_cast %40 : vector<8xi32> to vector<8xindex>
        %42 = arith.select %35, %41, %cst_1 : vector<8xi1>, vector<8xindex>
        %43 = vector.extract %42[0] : index from vector<8xindex>
        %44 = vector.load %25[%43] : memref<?xf16, #amdgpu.address_space<fat_raw_buffer>>, vector<8xf16>
        %45 = affine.apply #map7()[%thread_id_x, %thread_id_y, %block_id_y, %block_id_x]
        %46 = arith.cmpi slt, %45, %c2880 : index
        %47 = vector.broadcast %46 : i1 to vector<8xi1>
        %48 = arith.muli %45, %c2880 overflow<nsw> : index
        %49 = arith.addi %48, %22 overflow<nsw> : index
        %50 = arith.index_cast %49 : index to i32
        %51 = vector.broadcast %50 : i32 to vector<8xi32>
        %52 = arith.addi %51, %cst_0 : vector<8xi32>
        %53 = arith.index_cast %52 : vector<8xi32> to vector<8xindex>
        %54 = arith.select %47, %53, %cst_1 : vector<8xi1>, vector<8xindex>
        %55 = vector.extract %54[0] : index from vector<8xindex>
        %56 = vector.load %25[%55] : memref<?xf16, #amdgpu.address_space<fat_raw_buffer>>, vector<8xf16>
        %57 = affine.apply #map8()[%thread_id_x]
        %58 = arith.minsi %57, %c16 : index
        %59 = affine.apply #map9()[%thread_id_x]
        %60 = arith.cmpi slt, %59, %58 : index
        %61 = vector.broadcast %60 : i1 to vector<8xi1>
        vector.maskedstore %view_3[%59, %7], %61, %17 : memref<16x20xf16, #gpu.address_space<workgroup>>, vector<8xi1>, vector<8xf16>
        %62 = affine.apply #map10()[%thread_id_y]
        %63 = arith.minsi %62, %c732 : index
        %64 = affine.apply #map11()[%thread_id_x, %thread_id_y]
        %65 = arith.cmpi slt, %64, %63 : index
        %66 = vector.broadcast %65 : i1 to vector<8xi1>
        vector.maskedstore %view[%64, %22], %66, %32 : memref<732x20xf16, #gpu.address_space<workgroup>>, vector<8xi1>, vector<8xf16>
        %67 = affine.apply #map12()[%thread_id_x, %thread_id_y]
        %68 = arith.cmpi slt, %67, %63 : index
        %69 = vector.broadcast %68 : i1 to vector<8xi1>
        vector.maskedstore %view[%67, %22], %69, %44 : memref<732x20xf16, #gpu.address_space<workgroup>>, vector<8xi1>, vector<8xf16>
        %70 = affine.apply #map13()[%thread_id_x, %thread_id_y]
        %71 = arith.cmpi slt, %70, %63 : index
        %72 = vector.broadcast %71 : i1 to vector<8xi1>
        vector.maskedstore %view[%70, %22], %72, %56 : memref<732x20xf16, #gpu.address_space<workgroup>>, vector<8xi1>, vector<8xf16>
        %73 = affine.apply #map14()[%thread_id_x, %thread_id_y]
        %74 = arith.cmpi slt, %73, %63 : index
        %75 = vector.broadcast %74 : i1 to vector<8xi1>
        %76 = affine.apply #map15()[%thread_id_x, %thread_id_y]
        %77 = arith.cmpi slt, %76, %63 : index
        %78 = vector.broadcast %77 : i1 to vector<8xi1>
        %79 = affine.apply #map16()[%thread_id_x, %thread_id_y]
        %80 = arith.cmpi slt, %79, %63 : index
        %81 = vector.broadcast %80 : i1 to vector<8xi1>
        %82 = affine.apply #map17()[%thread_id_x, %thread_id_y]
        %83 = arith.cmpi slt, %82, %63 : index
        %84 = vector.broadcast %83 : i1 to vector<8xi1>
        %85 = affine.apply #map18()[%thread_id_x, %thread_id_y]
        %86 = arith.cmpi slt, %85, %63 : index
        %87 = vector.broadcast %86 : i1 to vector<8xi1>
        %88 = affine.apply #map19()[%thread_id_x, %thread_id_y]
        %89 = arith.cmpi slt, %88, %63 : index
        %90 = vector.broadcast %89 : i1 to vector<8xi1>
        %91 = affine.apply #map20()[%thread_id_x, %thread_id_y]
        %92 = arith.cmpi slt, %91, %63 : index
        %93 = vector.broadcast %92 : i1 to vector<8xi1>
        %94 = affine.apply #map21()[%thread_id_x, %thread_id_y]
        %95 = arith.cmpi slt, %94, %63 : index
        %96 = vector.broadcast %95 : i1 to vector<8xi1>
        %97 = affine.apply #map22()[%thread_id_x, %thread_id_y]
        %98 = arith.cmpi slt, %97, %63 : index
        %99 = vector.broadcast %98 : i1 to vector<8xi1>
        %100 = affine.apply #map23()[%thread_id_x, %thread_id_y]
        %101 = arith.cmpi slt, %100, %63 : index
        %102 = vector.broadcast %101 : i1 to vector<8xi1>
        %103 = affine.apply #map24()[%thread_id_x, %thread_id_y]
        %104 = arith.cmpi slt, %103, %63 : index
        %105 = vector.broadcast %104 : i1 to vector<8xi1>
        %106 = affine.apply #map25()[%thread_id_x, %thread_id_y]
        %107 = arith.cmpi slt, %106, %63 : index
        %108 = vector.broadcast %107 : i1 to vector<8xi1>
        %109:12 = scf.for %arg3 = %c0 to %c179 step %c1 iter_args(%arg4 = %cst_2, %arg5 = %cst_2, %arg6 = %cst_2, %arg7 = %cst_2, %arg8 = %cst_2, %arg9 = %cst_2, %arg10 = %cst_2, %arg11 = %cst_2, %arg12 = %cst_2, %arg13 = %cst_2, %arg14 = %cst_2, %arg15 = %cst_2) -> (vector<16xf32>, vector<16xf32>, vector<16xf32>, vector<16xf32>, vector<16xf32>, vector<16xf32>, vector<16xf32>, vector<16xf32>, vector<16xf32>, vector<16xf32>, vector<16xf32>, vector<16xf32>) {
          amdgpu.lds_barrier
          %1076 = vector.maskedload %view[%73, %7], %75, %cst : memref<732x20xf16, #gpu.address_space<workgroup>>, vector<8xi1>, vector<8xf16> into vector<8xf16>
          %1077 = vector.maskedload %view[%76, %7], %78, %cst : memref<732x20xf16, #gpu.address_space<workgroup>>, vector<8xi1>, vector<8xf16> into vector<8xf16>
          %1078 = vector.maskedload %view[%79, %7], %81, %cst : memref<732x20xf16, #gpu.address_space<workgroup>>, vector<8xi1>, vector<8xf16> into vector<8xf16>
          %1079 = vector.maskedload %view[%82, %7], %84, %cst : memref<732x20xf16, #gpu.address_space<workgroup>>, vector<8xi1>, vector<8xf16> into vector<8xf16>
          %1080 = vector.maskedload %view[%85, %7], %87, %cst : memref<732x20xf16, #gpu.address_space<workgroup>>, vector<8xi1>, vector<8xf16> into vector<8xf16>
          %1081 = vector.maskedload %view[%88, %7], %90, %cst : memref<732x20xf16, #gpu.address_space<workgroup>>, vector<8xi1>, vector<8xf16> into vector<8xf16>
          %1082 = vector.maskedload %view[%91, %7], %93, %cst : memref<732x20xf16, #gpu.address_space<workgroup>>, vector<8xi1>, vector<8xf16> into vector<8xf16>
          %1083 = vector.maskedload %view[%94, %7], %96, %cst : memref<732x20xf16, #gpu.address_space<workgroup>>, vector<8xi1>, vector<8xf16> into vector<8xf16>
          %1084 = vector.maskedload %view[%97, %7], %99, %cst : memref<732x20xf16, #gpu.address_space<workgroup>>, vector<8xi1>, vector<8xf16> into vector<8xf16>
          %1085 = vector.maskedload %view[%100, %7], %102, %cst : memref<732x20xf16, #gpu.address_space<workgroup>>, vector<8xi1>, vector<8xf16> into vector<8xf16>
          %1086 = vector.maskedload %view[%103, %7], %105, %cst : memref<732x20xf16, #gpu.address_space<workgroup>>, vector<8xi1>, vector<8xf16> into vector<8xf16>
          %1087 = vector.maskedload %view[%106, %7], %108, %cst : memref<732x20xf16, #gpu.address_space<workgroup>>, vector<8xi1>, vector<8xf16> into vector<8xf16>
          %1088 = vector.maskedload %view_3[%59, %7], %61, %cst : memref<16x20xf16, #gpu.address_space<workgroup>>, vector<8xi1>, vector<8xf16> into vector<8xf16>
          %1089 = affine.apply #map26()[%arg3, %thread_id_x]
          %1090 = arith.addi %8, %1089 overflow<nsw> : index
          %1091 = arith.index_cast %1090 : index to i32
          %1092 = vector.broadcast %1091 : i32 to vector<8xi32>
          %1093 = arith.addi %1092, %cst_0 : vector<8xi32>
          %1094 = arith.index_cast %1093 : vector<8xi32> to vector<8xindex>
          %1095 = arith.select %6, %1094, %cst_1 : vector<8xi1>, vector<8xindex>
          %1096 = vector.extract %1095[0] : index from vector<8xindex>
          %1097 = vector.load %10[%1096] : memref<?xf16, #amdgpu.address_space<fat_raw_buffer>>, vector<8xf16>
          %1098 = affine.apply #map27()[%arg3, %thread_id_x]
          %1099 = arith.addi %23, %1098 overflow<nsw> : index
          %1100 = arith.index_cast %1099 : index to i32
          %1101 = vector.broadcast %1100 : i32 to vector<8xi32>
          %1102 = arith.addi %1101, %cst_0 : vector<8xi32>
          %1103 = arith.index_cast %1102 : vector<8xi32> to vector<8xindex>
          %1104 = arith.select %21, %1103, %cst_1 : vector<8xi1>, vector<8xindex>
          %1105 = vector.extract %1104[0] : index from vector<8xindex>
          %1106 = vector.load %25[%1105] : memref<?xf16, #amdgpu.address_space<fat_raw_buffer>>, vector<8xf16>
          %1107 = arith.addi %36, %1098 overflow<nsw> : index
          %1108 = arith.index_cast %1107 : index to i32
          %1109 = vector.broadcast %1108 : i32 to vector<8xi32>
          %1110 = arith.addi %1109, %cst_0 : vector<8xi32>
          %1111 = arith.index_cast %1110 : vector<8xi32> to vector<8xindex>
          %1112 = arith.select %35, %1111, %cst_1 : vector<8xi1>, vector<8xindex>
          %1113 = vector.extract %1112[0] : index from vector<8xindex>
          %1114 = vector.load %25[%1113] : memref<?xf16, #amdgpu.address_space<fat_raw_buffer>>, vector<8xf16>
          %1115 = arith.addi %48, %1098 overflow<nsw> : index
          %1116 = arith.index_cast %1115 : index to i32
          %1117 = vector.broadcast %1116 : i32 to vector<8xi32>
          %1118 = arith.addi %1117, %cst_0 : vector<8xi32>
          %1119 = arith.index_cast %1118 : vector<8xi32> to vector<8xindex>
          %1120 = arith.select %47, %1119, %cst_1 : vector<8xi1>, vector<8xindex>
          %1121 = vector.extract %1120[0] : index from vector<8xindex>
          %1122 = vector.load %25[%1121] : memref<?xf16, #amdgpu.address_space<fat_raw_buffer>>, vector<8xf16>
          %1123 = vector.extract_strided_slice %1088 {offsets = [0], sizes = [4], strides = [1]} : vector<8xf16> to vector<4xf16>
          %1124 = vector.extract_strided_slice %1076 {offsets = [0], sizes = [4], strides = [1]} : vector<8xf16> to vector<4xf16>
          %1125 = amdgpu.mfma %1123 * %1124 + %arg4 {blocks = 1 : i32, k = 8 : i32, m = 32 : i32, n = 32 : i32} blgp =  none : vector<4xf16>, vector<4xf16>, vector<16xf32>
          %1126 = vector.extract_strided_slice %1088 {offsets = [4], sizes = [4], strides = [1]} : vector<8xf16> to vector<4xf16>
          %1127 = vector.extract_strided_slice %1076 {offsets = [4], sizes = [4], strides = [1]} : vector<8xf16> to vector<4xf16>
          %1128 = amdgpu.mfma %1126 * %1127 + %1125 {blocks = 1 : i32, k = 8 : i32, m = 32 : i32, n = 32 : i32} blgp =  none : vector<4xf16>, vector<4xf16>, vector<16xf32>
          %1129 = vector.extract_strided_slice %1077 {offsets = [0], sizes = [4], strides = [1]} : vector<8xf16> to vector<4xf16>
          %1130 = amdgpu.mfma %1123 * %1129 + %arg5 {blocks = 1 : i32, k = 8 : i32, m = 32 : i32, n = 32 : i32} blgp =  none : vector<4xf16>, vector<4xf16>, vector<16xf32>
          %1131 = vector.extract_strided_slice %1077 {offsets = [4], sizes = [4], strides = [1]} : vector<8xf16> to vector<4xf16>
          %1132 = amdgpu.mfma %1126 * %1131 + %1130 {blocks = 1 : i32, k = 8 : i32, m = 32 : i32, n = 32 : i32} blgp =  none : vector<4xf16>, vector<4xf16>, vector<16xf32>
          %1133 = vector.extract_strided_slice %1078 {offsets = [0], sizes = [4], strides = [1]} : vector<8xf16> to vector<4xf16>
          %1134 = amdgpu.mfma %1123 * %1133 + %arg6 {blocks = 1 : i32, k = 8 : i32, m = 32 : i32, n = 32 : i32} blgp =  none : vector<4xf16>, vector<4xf16>, vector<16xf32>
          %1135 = vector.extract_strided_slice %1078 {offsets = [4], sizes = [4], strides = [1]} : vector<8xf16> to vector<4xf16>
          %1136 = amdgpu.mfma %1126 * %1135 + %1134 {blocks = 1 : i32, k = 8 : i32, m = 32 : i32, n = 32 : i32} blgp =  none : vector<4xf16>, vector<4xf16>, vector<16xf32>
          %1137 = vector.extract_strided_slice %1079 {offsets = [0], sizes = [4], strides = [1]} : vector<8xf16> to vector<4xf16>
          %1138 = amdgpu.mfma %1123 * %1137 + %arg7 {blocks = 1 : i32, k = 8 : i32, m = 32 : i32, n = 32 : i32} blgp =  none : vector<4xf16>, vector<4xf16>, vector<16xf32>
          %1139 = vector.extract_strided_slice %1079 {offsets = [4], sizes = [4], strides = [1]} : vector<8xf16> to vector<4xf16>
          %1140 = amdgpu.mfma %1126 * %1139 + %1138 {blocks = 1 : i32, k = 8 : i32, m = 32 : i32, n = 32 : i32} blgp =  none : vector<4xf16>, vector<4xf16>, vector<16xf32>
          %1141 = vector.extract_strided_slice %1080 {offsets = [0], sizes = [4], strides = [1]} : vector<8xf16> to vector<4xf16>
          %1142 = amdgpu.mfma %1123 * %1141 + %arg8 {blocks = 1 : i32, k = 8 : i32, m = 32 : i32, n = 32 : i32} blgp =  none : vector<4xf16>, vector<4xf16>, vector<16xf32>
          %1143 = vector.extract_strided_slice %1080 {offsets = [4], sizes = [4], strides = [1]} : vector<8xf16> to vector<4xf16>
          %1144 = amdgpu.mfma %1126 * %1143 + %1142 {blocks = 1 : i32, k = 8 : i32, m = 32 : i32, n = 32 : i32} blgp =  none : vector<4xf16>, vector<4xf16>, vector<16xf32>
          %1145 = vector.extract_strided_slice %1081 {offsets = [0], sizes = [4], strides = [1]} : vector<8xf16> to vector<4xf16>
          %1146 = amdgpu.mfma %1123 * %1145 + %arg9 {blocks = 1 : i32, k = 8 : i32, m = 32 : i32, n = 32 : i32} blgp =  none : vector<4xf16>, vector<4xf16>, vector<16xf32>
          %1147 = vector.extract_strided_slice %1081 {offsets = [4], sizes = [4], strides = [1]} : vector<8xf16> to vector<4xf16>
          %1148 = amdgpu.mfma %1126 * %1147 + %1146 {blocks = 1 : i32, k = 8 : i32, m = 32 : i32, n = 32 : i32} blgp =  none : vector<4xf16>, vector<4xf16>, vector<16xf32>
          %1149 = vector.extract_strided_slice %1082 {offsets = [0], sizes = [4], strides = [1]} : vector<8xf16> to vector<4xf16>
          %1150 = amdgpu.mfma %1123 * %1149 + %arg10 {blocks = 1 : i32, k = 8 : i32, m = 32 : i32, n = 32 : i32} blgp =  none : vector<4xf16>, vector<4xf16>, vector<16xf32>
          %1151 = vector.extract_strided_slice %1082 {offsets = [4], sizes = [4], strides = [1]} : vector<8xf16> to vector<4xf16>
          %1152 = amdgpu.mfma %1126 * %1151 + %1150 {blocks = 1 : i32, k = 8 : i32, m = 32 : i32, n = 32 : i32} blgp =  none : vector<4xf16>, vector<4xf16>, vector<16xf32>
          %1153 = vector.extract_strided_slice %1083 {offsets = [0], sizes = [4], strides = [1]} : vector<8xf16> to vector<4xf16>
          %1154 = amdgpu.mfma %1123 * %1153 + %arg11 {blocks = 1 : i32, k = 8 : i32, m = 32 : i32, n = 32 : i32} blgp =  none : vector<4xf16>, vector<4xf16>, vector<16xf32>
          %1155 = vector.extract_strided_slice %1083 {offsets = [4], sizes = [4], strides = [1]} : vector<8xf16> to vector<4xf16>
          %1156 = amdgpu.mfma %1126 * %1155 + %1154 {blocks = 1 : i32, k = 8 : i32, m = 32 : i32, n = 32 : i32} blgp =  none : vector<4xf16>, vector<4xf16>, vector<16xf32>
          %1157 = vector.extract_strided_slice %1084 {offsets = [0], sizes = [4], strides = [1]} : vector<8xf16> to vector<4xf16>
          %1158 = amdgpu.mfma %1123 * %1157 + %arg12 {blocks = 1 : i32, k = 8 : i32, m = 32 : i32, n = 32 : i32} blgp =  none : vector<4xf16>, vector<4xf16>, vector<16xf32>
          %1159 = vector.extract_strided_slice %1084 {offsets = [4], sizes = [4], strides = [1]} : vector<8xf16> to vector<4xf16>
          %1160 = amdgpu.mfma %1126 * %1159 + %1158 {blocks = 1 : i32, k = 8 : i32, m = 32 : i32, n = 32 : i32} blgp =  none : vector<4xf16>, vector<4xf16>, vector<16xf32>
          %1161 = vector.extract_strided_slice %1085 {offsets = [0], sizes = [4], strides = [1]} : vector<8xf16> to vector<4xf16>
          %1162 = amdgpu.mfma %1123 * %1161 + %arg13 {blocks = 1 : i32, k = 8 : i32, m = 32 : i32, n = 32 : i32} blgp =  none : vector<4xf16>, vector<4xf16>, vector<16xf32>
          %1163 = vector.extract_strided_slice %1085 {offsets = [4], sizes = [4], strides = [1]} : vector<8xf16> to vector<4xf16>
          %1164 = amdgpu.mfma %1126 * %1163 + %1162 {blocks = 1 : i32, k = 8 : i32, m = 32 : i32, n = 32 : i32} blgp =  none : vector<4xf16>, vector<4xf16>, vector<16xf32>
          %1165 = vector.extract_strided_slice %1086 {offsets = [0], sizes = [4], strides = [1]} : vector<8xf16> to vector<4xf16>
          %1166 = amdgpu.mfma %1123 * %1165 + %arg14 {blocks = 1 : i32, k = 8 : i32, m = 32 : i32, n = 32 : i32} blgp =  none : vector<4xf16>, vector<4xf16>, vector<16xf32>
          %1167 = vector.extract_strided_slice %1086 {offsets = [4], sizes = [4], strides = [1]} : vector<8xf16> to vector<4xf16>
          %1168 = amdgpu.mfma %1126 * %1167 + %1166 {blocks = 1 : i32, k = 8 : i32, m = 32 : i32, n = 32 : i32} blgp =  none : vector<4xf16>, vector<4xf16>, vector<16xf32>
          %1169 = vector.extract_strided_slice %1087 {offsets = [0], sizes = [4], strides = [1]} : vector<8xf16> to vector<4xf16>
          %1170 = amdgpu.mfma %1123 * %1169 + %arg15 {blocks = 1 : i32, k = 8 : i32, m = 32 : i32, n = 32 : i32} blgp =  none : vector<4xf16>, vector<4xf16>, vector<16xf32>
          %1171 = vector.extract_strided_slice %1087 {offsets = [4], sizes = [4], strides = [1]} : vector<8xf16> to vector<4xf16>
          %1172 = amdgpu.mfma %1126 * %1171 + %1170 {blocks = 1 : i32, k = 8 : i32, m = 32 : i32, n = 32 : i32} blgp =  none : vector<4xf16>, vector<4xf16>, vector<16xf32>
          amdgpu.lds_barrier
          vector.maskedstore %view_3[%59, %7], %61, %1097 : memref<16x20xf16, #gpu.address_space<workgroup>>, vector<8xi1>, vector<8xf16>
          vector.maskedstore %view[%64, %22], %66, %1106 : memref<732x20xf16, #gpu.address_space<workgroup>>, vector<8xi1>, vector<8xf16>
          vector.maskedstore %view[%67, %22], %69, %1114 : memref<732x20xf16, #gpu.address_space<workgroup>>, vector<8xi1>, vector<8xf16>
          vector.maskedstore %view[%70, %22], %72, %1122 : memref<732x20xf16, #gpu.address_space<workgroup>>, vector<8xi1>, vector<8xf16>
          scf.yield %1128, %1132, %1136, %1140, %1144, %1148, %1152, %1156, %1160, %1164, %1168, %1172 : vector<16xf32>, vector<16xf32>, vector<16xf32>, vector<16xf32>, vector<16xf32>, vector<16xf32>, vector<16xf32>, vector<16xf32>, vector<16xf32>, vector<16xf32>, vector<16xf32>, vector<16xf32>
        }
        amdgpu.lds_barrier
        %110 = affine.apply #map14()[%thread_id_x, %thread_id_y]
        %111 = arith.cmpi slt, %110, %63 : index
        %112 = vector.broadcast %111 : i1 to vector<8xi1>
        %113 = vector.maskedload %view[%110, %7], %112, %cst : memref<732x20xf16, #gpu.address_space<workgroup>>, vector<8xi1>, vector<8xf16> into vector<8xf16>
        %114 = affine.apply #map15()[%thread_id_x, %thread_id_y]
        %115 = arith.cmpi slt, %114, %63 : index
        %116 = vector.broadcast %115 : i1 to vector<8xi1>
        %117 = vector.maskedload %view[%114, %7], %116, %cst : memref<732x20xf16, #gpu.address_space<workgroup>>, vector<8xi1>, vector<8xf16> into vector<8xf16>
        %118 = affine.apply #map16()[%thread_id_x, %thread_id_y]
        %119 = arith.cmpi slt, %118, %63 : index
        %120 = vector.broadcast %119 : i1 to vector<8xi1>
        %121 = vector.maskedload %view[%118, %7], %120, %cst : memref<732x20xf16, #gpu.address_space<workgroup>>, vector<8xi1>, vector<8xf16> into vector<8xf16>
        %122 = affine.apply #map17()[%thread_id_x, %thread_id_y]
        %123 = arith.cmpi slt, %122, %63 : index
        %124 = vector.broadcast %123 : i1 to vector<8xi1>
        %125 = vector.maskedload %view[%122, %7], %124, %cst : memref<732x20xf16, #gpu.address_space<workgroup>>, vector<8xi1>, vector<8xf16> into vector<8xf16>
        %126 = affine.apply #map18()[%thread_id_x, %thread_id_y]
        %127 = arith.cmpi slt, %126, %63 : index
        %128 = vector.broadcast %127 : i1 to vector<8xi1>
        %129 = vector.maskedload %view[%126, %7], %128, %cst : memref<732x20xf16, #gpu.address_space<workgroup>>, vector<8xi1>, vector<8xf16> into vector<8xf16>
        %130 = affine.apply #map19()[%thread_id_x, %thread_id_y]
        %131 = arith.cmpi slt, %130, %63 : index
        %132 = vector.broadcast %131 : i1 to vector<8xi1>
        %133 = vector.maskedload %view[%130, %7], %132, %cst : memref<732x20xf16, #gpu.address_space<workgroup>>, vector<8xi1>, vector<8xf16> into vector<8xf16>
        %134 = affine.apply #map20()[%thread_id_x, %thread_id_y]
        %135 = arith.cmpi slt, %134, %63 : index
        %136 = vector.broadcast %135 : i1 to vector<8xi1>
        %137 = vector.maskedload %view[%134, %7], %136, %cst : memref<732x20xf16, #gpu.address_space<workgroup>>, vector<8xi1>, vector<8xf16> into vector<8xf16>
        %138 = affine.apply #map21()[%thread_id_x, %thread_id_y]
        %139 = arith.cmpi slt, %138, %63 : index
        %140 = vector.broadcast %139 : i1 to vector<8xi1>
        %141 = vector.maskedload %view[%138, %7], %140, %cst : memref<732x20xf16, #gpu.address_space<workgroup>>, vector<8xi1>, vector<8xf16> into vector<8xf16>
        %142 = affine.apply #map22()[%thread_id_x, %thread_id_y]
        %143 = arith.cmpi slt, %142, %63 : index
        %144 = vector.broadcast %143 : i1 to vector<8xi1>
        %145 = vector.maskedload %view[%142, %7], %144, %cst : memref<732x20xf16, #gpu.address_space<workgroup>>, vector<8xi1>, vector<8xf16> into vector<8xf16>
        %146 = affine.apply #map23()[%thread_id_x, %thread_id_y]
        %147 = arith.cmpi slt, %146, %63 : index
        %148 = vector.broadcast %147 : i1 to vector<8xi1>
        %149 = vector.maskedload %view[%146, %7], %148, %cst : memref<732x20xf16, #gpu.address_space<workgroup>>, vector<8xi1>, vector<8xf16> into vector<8xf16>
        %150 = affine.apply #map24()[%thread_id_x, %thread_id_y]
        %151 = arith.cmpi slt, %150, %63 : index
        %152 = vector.broadcast %151 : i1 to vector<8xi1>
        %153 = vector.maskedload %view[%150, %7], %152, %cst : memref<732x20xf16, #gpu.address_space<workgroup>>, vector<8xi1>, vector<8xf16> into vector<8xf16>
        %154 = affine.apply #map25()[%thread_id_x, %thread_id_y]
        %155 = arith.cmpi slt, %154, %63 : index
        %156 = vector.broadcast %155 : i1 to vector<8xi1>
        %157 = vector.maskedload %view[%154, %7], %156, %cst : memref<732x20xf16, #gpu.address_space<workgroup>>, vector<8xi1>, vector<8xf16> into vector<8xf16>
        %158 = vector.maskedload %view_3[%59, %7], %61, %cst : memref<16x20xf16, #gpu.address_space<workgroup>>, vector<8xi1>, vector<8xf16> into vector<8xf16>
        %159 = vector.extract_strided_slice %158 {offsets = [0], sizes = [4], strides = [1]} : vector<8xf16> to vector<4xf16>
        %160 = vector.extract_strided_slice %113 {offsets = [0], sizes = [4], strides = [1]} : vector<8xf16> to vector<4xf16>
        %161 = amdgpu.mfma %159 * %160 + %109#0 {blocks = 1 : i32, k = 8 : i32, m = 32 : i32, n = 32 : i32} blgp =  none : vector<4xf16>, vector<4xf16>, vector<16xf32>
        %162 = vector.extract_strided_slice %158 {offsets = [4], sizes = [4], strides = [1]} : vector<8xf16> to vector<4xf16>
        %163 = vector.extract_strided_slice %113 {offsets = [4], sizes = [4], strides = [1]} : vector<8xf16> to vector<4xf16>
        %164 = amdgpu.mfma %162 * %163 + %161 {blocks = 1 : i32, k = 8 : i32, m = 32 : i32, n = 32 : i32} blgp =  none : vector<4xf16>, vector<4xf16>, vector<16xf32>
        %165 = vector.extract_strided_slice %117 {offsets = [0], sizes = [4], strides = [1]} : vector<8xf16> to vector<4xf16>
        %166 = amdgpu.mfma %159 * %165 + %109#1 {blocks = 1 : i32, k = 8 : i32, m = 32 : i32, n = 32 : i32} blgp =  none : vector<4xf16>, vector<4xf16>, vector<16xf32>
        %167 = vector.extract_strided_slice %117 {offsets = [4], sizes = [4], strides = [1]} : vector<8xf16> to vector<4xf16>
        %168 = amdgpu.mfma %162 * %167 + %166 {blocks = 1 : i32, k = 8 : i32, m = 32 : i32, n = 32 : i32} blgp =  none : vector<4xf16>, vector<4xf16>, vector<16xf32>
        %169 = vector.extract_strided_slice %121 {offsets = [0], sizes = [4], strides = [1]} : vector<8xf16> to vector<4xf16>
        %170 = amdgpu.mfma %159 * %169 + %109#2 {blocks = 1 : i32, k = 8 : i32, m = 32 : i32, n = 32 : i32} blgp =  none : vector<4xf16>, vector<4xf16>, vector<16xf32>
        %171 = vector.extract_strided_slice %121 {offsets = [4], sizes = [4], strides = [1]} : vector<8xf16> to vector<4xf16>
        %172 = amdgpu.mfma %162 * %171 + %170 {blocks = 1 : i32, k = 8 : i32, m = 32 : i32, n = 32 : i32} blgp =  none : vector<4xf16>, vector<4xf16>, vector<16xf32>
        %173 = vector.extract_strided_slice %125 {offsets = [0], sizes = [4], strides = [1]} : vector<8xf16> to vector<4xf16>
        %174 = amdgpu.mfma %159 * %173 + %109#3 {blocks = 1 : i32, k = 8 : i32, m = 32 : i32, n = 32 : i32} blgp =  none : vector<4xf16>, vector<4xf16>, vector<16xf32>
        %175 = vector.extract_strided_slice %125 {offsets = [4], sizes = [4], strides = [1]} : vector<8xf16> to vector<4xf16>
        %176 = amdgpu.mfma %162 * %175 + %174 {blocks = 1 : i32, k = 8 : i32, m = 32 : i32, n = 32 : i32} blgp =  none : vector<4xf16>, vector<4xf16>, vector<16xf32>
        %177 = vector.extract_strided_slice %129 {offsets = [0], sizes = [4], strides = [1]} : vector<8xf16> to vector<4xf16>
        %178 = amdgpu.mfma %159 * %177 + %109#4 {blocks = 1 : i32, k = 8 : i32, m = 32 : i32, n = 32 : i32} blgp =  none : vector<4xf16>, vector<4xf16>, vector<16xf32>
        %179 = vector.extract_strided_slice %129 {offsets = [4], sizes = [4], strides = [1]} : vector<8xf16> to vector<4xf16>
        %180 = amdgpu.mfma %162 * %179 + %178 {blocks = 1 : i32, k = 8 : i32, m = 32 : i32, n = 32 : i32} blgp =  none : vector<4xf16>, vector<4xf16>, vector<16xf32>
        %181 = vector.extract_strided_slice %133 {offsets = [0], sizes = [4], strides = [1]} : vector<8xf16> to vector<4xf16>
        %182 = amdgpu.mfma %159 * %181 + %109#5 {blocks = 1 : i32, k = 8 : i32, m = 32 : i32, n = 32 : i32} blgp =  none : vector<4xf16>, vector<4xf16>, vector<16xf32>
        %183 = vector.extract_strided_slice %133 {offsets = [4], sizes = [4], strides = [1]} : vector<8xf16> to vector<4xf16>
        %184 = amdgpu.mfma %162 * %183 + %182 {blocks = 1 : i32, k = 8 : i32, m = 32 : i32, n = 32 : i32} blgp =  none : vector<4xf16>, vector<4xf16>, vector<16xf32>
        %185 = vector.extract_strided_slice %137 {offsets = [0], sizes = [4], strides = [1]} : vector<8xf16> to vector<4xf16>
        %186 = amdgpu.mfma %159 * %185 + %109#6 {blocks = 1 : i32, k = 8 : i32, m = 32 : i32, n = 32 : i32} blgp =  none : vector<4xf16>, vector<4xf16>, vector<16xf32>
        %187 = vector.extract_strided_slice %137 {offsets = [4], sizes = [4], strides = [1]} : vector<8xf16> to vector<4xf16>
        %188 = amdgpu.mfma %162 * %187 + %186 {blocks = 1 : i32, k = 8 : i32, m = 32 : i32, n = 32 : i32} blgp =  none : vector<4xf16>, vector<4xf16>, vector<16xf32>
        %189 = vector.extract_strided_slice %141 {offsets = [0], sizes = [4], strides = [1]} : vector<8xf16> to vector<4xf16>
        %190 = amdgpu.mfma %159 * %189 + %109#7 {blocks = 1 : i32, k = 8 : i32, m = 32 : i32, n = 32 : i32} blgp =  none : vector<4xf16>, vector<4xf16>, vector<16xf32>
        %191 = vector.extract_strided_slice %141 {offsets = [4], sizes = [4], strides = [1]} : vector<8xf16> to vector<4xf16>
        %192 = amdgpu.mfma %162 * %191 + %190 {blocks = 1 : i32, k = 8 : i32, m = 32 : i32, n = 32 : i32} blgp =  none : vector<4xf16>, vector<4xf16>, vector<16xf32>
        %193 = vector.extract_strided_slice %145 {offsets = [0], sizes = [4], strides = [1]} : vector<8xf16> to vector<4xf16>
        %194 = amdgpu.mfma %159 * %193 + %109#8 {blocks = 1 : i32, k = 8 : i32, m = 32 : i32, n = 32 : i32} blgp =  none : vector<4xf16>, vector<4xf16>, vector<16xf32>
        %195 = vector.extract_strided_slice %145 {offsets = [4], sizes = [4], strides = [1]} : vector<8xf16> to vector<4xf16>
        %196 = amdgpu.mfma %162 * %195 + %194 {blocks = 1 : i32, k = 8 : i32, m = 32 : i32, n = 32 : i32} blgp =  none : vector<4xf16>, vector<4xf16>, vector<16xf32>
        %197 = vector.extract_strided_slice %149 {offsets = [0], sizes = [4], strides = [1]} : vector<8xf16> to vector<4xf16>
        %198 = amdgpu.mfma %159 * %197 + %109#9 {blocks = 1 : i32, k = 8 : i32, m = 32 : i32, n = 32 : i32} blgp =  none : vector<4xf16>, vector<4xf16>, vector<16xf32>
        %199 = vector.extract_strided_slice %149 {offsets = [4], sizes = [4], strides = [1]} : vector<8xf16> to vector<4xf16>
        %200 = amdgpu.mfma %162 * %199 + %198 {blocks = 1 : i32, k = 8 : i32, m = 32 : i32, n = 32 : i32} blgp =  none : vector<4xf16>, vector<4xf16>, vector<16xf32>
        %201 = vector.extract_strided_slice %153 {offsets = [0], sizes = [4], strides = [1]} : vector<8xf16> to vector<4xf16>
        %202 = amdgpu.mfma %159 * %201 + %109#10 {blocks = 1 : i32, k = 8 : i32, m = 32 : i32, n = 32 : i32} blgp =  none : vector<4xf16>, vector<4xf16>, vector<16xf32>
        %203 = vector.extract_strided_slice %153 {offsets = [4], sizes = [4], strides = [1]} : vector<8xf16> to vector<4xf16>
        %204 = amdgpu.mfma %162 * %203 + %202 {blocks = 1 : i32, k = 8 : i32, m = 32 : i32, n = 32 : i32} blgp =  none : vector<4xf16>, vector<4xf16>, vector<16xf32>
        %205 = vector.extract_strided_slice %157 {offsets = [0], sizes = [4], strides = [1]} : vector<8xf16> to vector<4xf16>
        %206 = amdgpu.mfma %159 * %205 + %109#11 {blocks = 1 : i32, k = 8 : i32, m = 32 : i32, n = 32 : i32} blgp =  none : vector<4xf16>, vector<4xf16>, vector<16xf32>
        %207 = vector.extract_strided_slice %157 {offsets = [4], sizes = [4], strides = [1]} : vector<8xf16> to vector<4xf16>
        %208 = amdgpu.mfma %162 * %207 + %206 {blocks = 1 : i32, k = 8 : i32, m = 32 : i32, n = 32 : i32} blgp =  none : vector<4xf16>, vector<4xf16>, vector<16xf32>
        %209 = vector.extract_strided_slice %164 {offsets = [0], sizes = [1], strides = [1]} : vector<16xf32> to vector<1xf32>
        %210 = stream.binding.subspan %arg2[%c0] : !stream.binding -> memref<20512x2880xf32, strided<[2880, 1], offset: ?>>
        %211 = affine.apply #map28()[%block_id_y, %thread_id_y]
        %212 = affine.apply #map29()[%block_id_y]
        %213 = arith.minsi %211, %212 : index
        %214 = arith.minsi %213, %c2880 : index
        %215 = affine.apply #map30()[%thread_id_x, %block_id_y, %block_id_x, %thread_id_y]
        %216 = arith.cmpi slt, %215, %214 : index
        %217 = affine.apply #map31()[%block_id_y, %block_id_x, %thread_id_x]
        %218 = arith.cmpi slt, %217, %3 : index
        %219 = arith.andi %216, %218 : i1
        %220 = affine.apply #map32()[%block_id_y, %block_id_x]
        %221 = affine.apply #map33()[%block_id_y, %block_id_x]
        %222 = affine.apply #map34()[%thread_id_x]
        %223 = arith.muli %220, %c2880 overflow<nsw> : index
        %224 = arith.muli %222, %c2880 overflow<nsw> : index
        %225 = arith.addi %223, %221 overflow<nsw> : index
        %226 = arith.addi %224, %110 overflow<nsw> : index
        %base_buffer_9, %offset_10, %sizes_11:2, %strides_12:2 = memref.extract_strided_metadata %210 : memref<20512x2880xf32, strided<[2880, 1], offset: ?>> -> memref<f32>, index, index, index, index, index
        %227 = arith.addi %225, %offset_10 overflow<nsw> : index
        %reinterpret_cast_13 = memref.reinterpret_cast %210 to offset: [%227], sizes: [%c536870910], strides: [1] : memref<20512x2880xf32, strided<[2880, 1], offset: ?>> to memref<?xf32, strided<[1], offset: ?>>
        %228 = amdgpu.fat_raw_buffer_cast %reinterpret_cast_13 validBytes(%c2147483643_i32) cacheSwizzleStride(%c2880_i14) resetOffset : memref<?xf32, strided<[1], offset: ?>> to memref<?xf32, #amdgpu.address_space<fat_raw_buffer>>
        %229 = arith.select %219, %226, %c536870911 : index
        vector.store %209, %228[%229] : memref<?xf32, #amdgpu.address_space<fat_raw_buffer>>, vector<1xf32>
        %230 = vector.extract_strided_slice %164 {offsets = [1], sizes = [1], strides = [1]} : vector<16xf32> to vector<1xf32>
        %231 = affine.apply #map35()[%block_id_y, %block_id_x, %thread_id_x]
        %232 = arith.cmpi slt, %231, %3 : index
        %233 = arith.andi %216, %232 : i1
        %234 = affine.apply #map36()[%thread_id_x]
        %235 = arith.muli %234, %c2880 overflow<nsw> : index
        %236 = arith.addi %235, %110 overflow<nsw> : index
        %237 = arith.select %233, %236, %c536870911 : index
        vector.store %230, %228[%237] : memref<?xf32, #amdgpu.address_space<fat_raw_buffer>>, vector<1xf32>
        %238 = vector.extract_strided_slice %164 {offsets = [2], sizes = [1], strides = [1]} : vector<16xf32> to vector<1xf32>
        %239 = affine.apply #map37()[%block_id_y, %block_id_x, %thread_id_x]
        %240 = arith.cmpi slt, %239, %3 : index
        %241 = arith.andi %216, %240 : i1
        %242 = affine.apply #map38()[%thread_id_x]
        %243 = arith.muli %242, %c2880 overflow<nsw> : index
        %244 = arith.addi %243, %110 overflow<nsw> : index
        %245 = arith.select %241, %244, %c536870911 : index
        vector.store %238, %228[%245] : memref<?xf32, #amdgpu.address_space<fat_raw_buffer>>, vector<1xf32>
        %246 = vector.extract_strided_slice %164 {offsets = [3], sizes = [1], strides = [1]} : vector<16xf32> to vector<1xf32>
        %247 = affine.apply #map39()[%block_id_y, %block_id_x, %thread_id_x]
        %248 = arith.cmpi slt, %247, %3 : index
        %249 = arith.andi %216, %248 : i1
        %250 = affine.apply #map40()[%thread_id_x]
        %251 = arith.muli %250, %c2880 overflow<nsw> : index
        %252 = arith.addi %251, %110 overflow<nsw> : index
        %253 = arith.select %249, %252, %c536870911 : index
        vector.store %246, %228[%253] : memref<?xf32, #amdgpu.address_space<fat_raw_buffer>>, vector<1xf32>
        %254 = vector.extract_strided_slice %164 {offsets = [4], sizes = [1], strides = [1]} : vector<16xf32> to vector<1xf32>
        %255 = affine.apply #map41()[%block_id_y, %block_id_x, %thread_id_x]
        %256 = arith.cmpi slt, %255, %3 : index
        %257 = arith.andi %216, %256 : i1
        %258 = affine.apply #map42()[%thread_id_x]
        %259 = arith.muli %258, %c2880 overflow<nsw> : index
        %260 = arith.addi %259, %110 overflow<nsw> : index
        %261 = arith.select %257, %260, %c536870911 : index
        vector.store %254, %228[%261] : memref<?xf32, #amdgpu.address_space<fat_raw_buffer>>, vector<1xf32>
        %262 = vector.extract_strided_slice %164 {offsets = [5], sizes = [1], strides = [1]} : vector<16xf32> to vector<1xf32>
        %263 = affine.apply #map43()[%block_id_y, %block_id_x, %thread_id_x]
        %264 = arith.cmpi slt, %263, %3 : index
        %265 = arith.andi %216, %264 : i1
        %266 = affine.apply #map44()[%thread_id_x]
        %267 = arith.muli %266, %c2880 overflow<nsw> : index
        %268 = arith.addi %267, %110 overflow<nsw> : index
        %269 = arith.select %265, %268, %c536870911 : index
        vector.store %262, %228[%269] : memref<?xf32, #amdgpu.address_space<fat_raw_buffer>>, vector<1xf32>
        %270 = vector.extract_strided_slice %164 {offsets = [6], sizes = [1], strides = [1]} : vector<16xf32> to vector<1xf32>
        %271 = affine.apply #map45()[%block_id_y, %block_id_x, %thread_id_x]
        %272 = arith.cmpi slt, %271, %3 : index
        %273 = arith.andi %216, %272 : i1
        %274 = affine.apply #map46()[%thread_id_x]
        %275 = arith.muli %274, %c2880 overflow<nsw> : index
        %276 = arith.addi %275, %110 overflow<nsw> : index
        %277 = arith.select %273, %276, %c536870911 : index
        vector.store %270, %228[%277] : memref<?xf32, #amdgpu.address_space<fat_raw_buffer>>, vector<1xf32>
        %278 = vector.extract_strided_slice %164 {offsets = [7], sizes = [1], strides = [1]} : vector<16xf32> to vector<1xf32>
        %279 = affine.apply #map47()[%block_id_y, %block_id_x, %thread_id_x]
        %280 = arith.cmpi slt, %279, %3 : index
        %281 = arith.andi %216, %280 : i1
        %282 = affine.apply #map48()[%thread_id_x]
        %283 = arith.muli %282, %c2880 overflow<nsw> : index
        %284 = arith.addi %283, %110 overflow<nsw> : index
        %285 = arith.select %281, %284, %c536870911 : index
        vector.store %278, %228[%285] : memref<?xf32, #amdgpu.address_space<fat_raw_buffer>>, vector<1xf32>
        %286 = vector.extract_strided_slice %164 {offsets = [8], sizes = [1], strides = [1]} : vector<16xf32> to vector<1xf32>
        %287 = affine.apply #map49()[%block_id_y, %block_id_x, %thread_id_x]
        %288 = arith.cmpi slt, %287, %3 : index
        %289 = arith.andi %216, %288 : i1
        %290 = affine.apply #map50()[%thread_id_x]
        %291 = arith.muli %290, %c2880 overflow<nsw> : index
        %292 = arith.addi %291, %110 overflow<nsw> : index
        %293 = arith.select %289, %292, %c536870911 : index
        vector.store %286, %228[%293] : memref<?xf32, #amdgpu.address_space<fat_raw_buffer>>, vector<1xf32>
        %294 = vector.extract_strided_slice %164 {offsets = [9], sizes = [1], strides = [1]} : vector<16xf32> to vector<1xf32>
        %295 = affine.apply #map51()[%block_id_y, %block_id_x, %thread_id_x]
        %296 = arith.cmpi slt, %295, %3 : index
        %297 = arith.andi %216, %296 : i1
        %298 = affine.apply #map52()[%thread_id_x]
        %299 = arith.muli %298, %c2880 overflow<nsw> : index
        %300 = arith.addi %299, %110 overflow<nsw> : index
        %301 = arith.select %297, %300, %c536870911 : index
        vector.store %294, %228[%301] : memref<?xf32, #amdgpu.address_space<fat_raw_buffer>>, vector<1xf32>
        %302 = vector.extract_strided_slice %164 {offsets = [10], sizes = [1], strides = [1]} : vector<16xf32> to vector<1xf32>
        %303 = affine.apply #map53()[%block_id_y, %block_id_x, %thread_id_x]
        %304 = arith.cmpi slt, %303, %3 : index
        %305 = arith.andi %216, %304 : i1
        %306 = affine.apply #map54()[%thread_id_x]
        %307 = arith.muli %306, %c2880 overflow<nsw> : index
        %308 = arith.addi %307, %110 overflow<nsw> : index
        %309 = arith.select %305, %308, %c536870911 : index
        vector.store %302, %228[%309] : memref<?xf32, #amdgpu.address_space<fat_raw_buffer>>, vector<1xf32>
        %310 = vector.extract_strided_slice %164 {offsets = [11], sizes = [1], strides = [1]} : vector<16xf32> to vector<1xf32>
        %311 = affine.apply #map55()[%block_id_y, %block_id_x, %thread_id_x]
        %312 = arith.cmpi slt, %311, %3 : index
        %313 = arith.andi %216, %312 : i1
        %314 = affine.apply #map56()[%thread_id_x]
        %315 = arith.muli %314, %c2880 overflow<nsw> : index
        %316 = arith.addi %315, %110 overflow<nsw> : index
        %317 = arith.select %313, %316, %c536870911 : index
        vector.store %310, %228[%317] : memref<?xf32, #amdgpu.address_space<fat_raw_buffer>>, vector<1xf32>
        %318 = vector.extract_strided_slice %164 {offsets = [12], sizes = [1], strides = [1]} : vector<16xf32> to vector<1xf32>
        %319 = affine.apply #map57()[%block_id_y, %block_id_x, %thread_id_x]
        %320 = arith.cmpi slt, %319, %3 : index
        %321 = arith.andi %216, %320 : i1
        %322 = affine.apply #map58()[%thread_id_x]
        %323 = arith.muli %322, %c2880 overflow<nsw> : index
        %324 = arith.addi %323, %110 overflow<nsw> : index
        %325 = arith.select %321, %324, %c536870911 : index
        vector.store %318, %228[%325] : memref<?xf32, #amdgpu.address_space<fat_raw_buffer>>, vector<1xf32>
        %326 = vector.extract_strided_slice %164 {offsets = [13], sizes = [1], strides = [1]} : vector<16xf32> to vector<1xf32>
        %327 = affine.apply #map59()[%block_id_y, %block_id_x, %thread_id_x]
        %328 = arith.cmpi slt, %327, %3 : index
        %329 = arith.andi %216, %328 : i1
        %330 = affine.apply #map60()[%thread_id_x]
        %331 = arith.muli %330, %c2880 overflow<nsw> : index
        %332 = arith.addi %331, %110 overflow<nsw> : index
        %333 = arith.select %329, %332, %c536870911 : index
        vector.store %326, %228[%333] : memref<?xf32, #amdgpu.address_space<fat_raw_buffer>>, vector<1xf32>
        %334 = vector.extract_strided_slice %164 {offsets = [14], sizes = [1], strides = [1]} : vector<16xf32> to vector<1xf32>
        %335 = affine.apply #map61()[%block_id_y, %block_id_x, %thread_id_x]
        %336 = arith.cmpi slt, %335, %3 : index
        %337 = arith.andi %216, %336 : i1
        %338 = affine.apply #map62()[%thread_id_x]
        %339 = arith.muli %338, %c2880 overflow<nsw> : index
        %340 = arith.addi %339, %110 overflow<nsw> : index
        %341 = arith.select %337, %340, %c536870911 : index
        vector.store %334, %228[%341] : memref<?xf32, #amdgpu.address_space<fat_raw_buffer>>, vector<1xf32>
        %342 = vector.extract_strided_slice %164 {offsets = [15], sizes = [1], strides = [1]} : vector<16xf32> to vector<1xf32>
        %343 = affine.apply #map63()[%block_id_y, %block_id_x, %thread_id_x]
        %344 = arith.cmpi slt, %343, %3 : index
        %345 = arith.andi %216, %344 : i1
        %346 = affine.apply #map64()[%thread_id_x]
        %347 = arith.muli %346, %c2880 overflow<nsw> : index
        %348 = arith.addi %347, %110 overflow<nsw> : index
        %349 = arith.select %345, %348, %c536870911 : index
        vector.store %342, %228[%349] : memref<?xf32, #amdgpu.address_space<fat_raw_buffer>>, vector<1xf32>
        %350 = vector.extract_strided_slice %168 {offsets = [0], sizes = [1], strides = [1]} : vector<16xf32> to vector<1xf32>
        %351 = affine.apply #map65()[%thread_id_x, %block_id_y, %block_id_x, %thread_id_y]
        %352 = arith.cmpi slt, %351, %214 : index
        %353 = arith.andi %352, %218 : i1
        %354 = arith.addi %224, %114 overflow<nsw> : index
        %355 = arith.select %353, %354, %c536870911 : index
        vector.store %350, %228[%355] : memref<?xf32, #amdgpu.address_space<fat_raw_buffer>>, vector<1xf32>
        %356 = vector.extract_strided_slice %168 {offsets = [1], sizes = [1], strides = [1]} : vector<16xf32> to vector<1xf32>
        %357 = arith.andi %352, %232 : i1
        %358 = arith.addi %235, %114 overflow<nsw> : index
        %359 = arith.select %357, %358, %c536870911 : index
        vector.store %356, %228[%359] : memref<?xf32, #amdgpu.address_space<fat_raw_buffer>>, vector<1xf32>
        %360 = vector.extract_strided_slice %168 {offsets = [2], sizes = [1], strides = [1]} : vector<16xf32> to vector<1xf32>
        %361 = arith.andi %352, %240 : i1
        %362 = arith.addi %243, %114 overflow<nsw> : index
        %363 = arith.select %361, %362, %c536870911 : index
        vector.store %360, %228[%363] : memref<?xf32, #amdgpu.address_space<fat_raw_buffer>>, vector<1xf32>
        %364 = vector.extract_strided_slice %168 {offsets = [3], sizes = [1], strides = [1]} : vector<16xf32> to vector<1xf32>
        %365 = arith.andi %352, %248 : i1
        %366 = arith.addi %251, %114 overflow<nsw> : index
        %367 = arith.select %365, %366, %c536870911 : index
        vector.store %364, %228[%367] : memref<?xf32, #amdgpu.address_space<fat_raw_buffer>>, vector<1xf32>
        %368 = vector.extract_strided_slice %168 {offsets = [4], sizes = [1], strides = [1]} : vector<16xf32> to vector<1xf32>
        %369 = arith.andi %352, %256 : i1
        %370 = arith.addi %259, %114 overflow<nsw> : index
        %371 = arith.select %369, %370, %c536870911 : index
        vector.store %368, %228[%371] : memref<?xf32, #amdgpu.address_space<fat_raw_buffer>>, vector<1xf32>
        %372 = vector.extract_strided_slice %168 {offsets = [5], sizes = [1], strides = [1]} : vector<16xf32> to vector<1xf32>
        %373 = arith.andi %352, %264 : i1
        %374 = arith.addi %267, %114 overflow<nsw> : index
        %375 = arith.select %373, %374, %c536870911 : index
        vector.store %372, %228[%375] : memref<?xf32, #amdgpu.address_space<fat_raw_buffer>>, vector<1xf32>
        %376 = vector.extract_strided_slice %168 {offsets = [6], sizes = [1], strides = [1]} : vector<16xf32> to vector<1xf32>
        %377 = arith.andi %352, %272 : i1
        %378 = arith.addi %275, %114 overflow<nsw> : index
        %379 = arith.select %377, %378, %c536870911 : index
        vector.store %376, %228[%379] : memref<?xf32, #amdgpu.address_space<fat_raw_buffer>>, vector<1xf32>
        %380 = vector.extract_strided_slice %168 {offsets = [7], sizes = [1], strides = [1]} : vector<16xf32> to vector<1xf32>
        %381 = arith.andi %352, %280 : i1
        %382 = arith.addi %283, %114 overflow<nsw> : index
        %383 = arith.select %381, %382, %c536870911 : index
        vector.store %380, %228[%383] : memref<?xf32, #amdgpu.address_space<fat_raw_buffer>>, vector<1xf32>
        %384 = vector.extract_strided_slice %168 {offsets = [8], sizes = [1], strides = [1]} : vector<16xf32> to vector<1xf32>
        %385 = arith.andi %352, %288 : i1
        %386 = arith.addi %291, %114 overflow<nsw> : index
        %387 = arith.select %385, %386, %c536870911 : index
        vector.store %384, %228[%387] : memref<?xf32, #amdgpu.address_space<fat_raw_buffer>>, vector<1xf32>
        %388 = vector.extract_strided_slice %168 {offsets = [9], sizes = [1], strides = [1]} : vector<16xf32> to vector<1xf32>
        %389 = arith.andi %352, %296 : i1
        %390 = arith.addi %299, %114 overflow<nsw> : index
        %391 = arith.select %389, %390, %c536870911 : index
        vector.store %388, %228[%391] : memref<?xf32, #amdgpu.address_space<fat_raw_buffer>>, vector<1xf32>
        %392 = vector.extract_strided_slice %168 {offsets = [10], sizes = [1], strides = [1]} : vector<16xf32> to vector<1xf32>
        %393 = arith.andi %352, %304 : i1
        %394 = arith.addi %307, %114 overflow<nsw> : index
        %395 = arith.select %393, %394, %c536870911 : index
        vector.store %392, %228[%395] : memref<?xf32, #amdgpu.address_space<fat_raw_buffer>>, vector<1xf32>
        %396 = vector.extract_strided_slice %168 {offsets = [11], sizes = [1], strides = [1]} : vector<16xf32> to vector<1xf32>
        %397 = arith.andi %352, %312 : i1
        %398 = arith.addi %315, %114 overflow<nsw> : index
        %399 = arith.select %397, %398, %c536870911 : index
        vector.store %396, %228[%399] : memref<?xf32, #amdgpu.address_space<fat_raw_buffer>>, vector<1xf32>
        %400 = vector.extract_strided_slice %168 {offsets = [12], sizes = [1], strides = [1]} : vector<16xf32> to vector<1xf32>
        %401 = arith.andi %352, %320 : i1
        %402 = arith.addi %323, %114 overflow<nsw> : index
        %403 = arith.select %401, %402, %c536870911 : index
        vector.store %400, %228[%403] : memref<?xf32, #amdgpu.address_space<fat_raw_buffer>>, vector<1xf32>
        %404 = vector.extract_strided_slice %168 {offsets = [13], sizes = [1], strides = [1]} : vector<16xf32> to vector<1xf32>
        %405 = arith.andi %352, %328 : i1
        %406 = arith.addi %331, %114 overflow<nsw> : index
        %407 = arith.select %405, %406, %c536870911 : index
        vector.store %404, %228[%407] : memref<?xf32, #amdgpu.address_space<fat_raw_buffer>>, vector<1xf32>
        %408 = vector.extract_strided_slice %168 {offsets = [14], sizes = [1], strides = [1]} : vector<16xf32> to vector<1xf32>
        %409 = arith.andi %352, %336 : i1
        %410 = arith.addi %339, %114 overflow<nsw> : index
        %411 = arith.select %409, %410, %c536870911 : index
        vector.store %408, %228[%411] : memref<?xf32, #amdgpu.address_space<fat_raw_buffer>>, vector<1xf32>
        %412 = vector.extract_strided_slice %168 {offsets = [15], sizes = [1], strides = [1]} : vector<16xf32> to vector<1xf32>
        %413 = arith.andi %352, %344 : i1
        %414 = arith.addi %347, %114 overflow<nsw> : index
        %415 = arith.select %413, %414, %c536870911 : index
        vector.store %412, %228[%415] : memref<?xf32, #amdgpu.address_space<fat_raw_buffer>>, vector<1xf32>
        %416 = vector.extract_strided_slice %172 {offsets = [0], sizes = [1], strides = [1]} : vector<16xf32> to vector<1xf32>
        %417 = affine.apply #map66()[%thread_id_x, %block_id_y, %block_id_x, %thread_id_y]
        %418 = arith.cmpi slt, %417, %214 : index
        %419 = arith.andi %418, %218 : i1
        %420 = arith.addi %224, %118 overflow<nsw> : index
        %421 = arith.select %419, %420, %c536870911 : index
        vector.store %416, %228[%421] : memref<?xf32, #amdgpu.address_space<fat_raw_buffer>>, vector<1xf32>
        %422 = vector.extract_strided_slice %172 {offsets = [1], sizes = [1], strides = [1]} : vector<16xf32> to vector<1xf32>
        %423 = arith.andi %418, %232 : i1
        %424 = arith.addi %235, %118 overflow<nsw> : index
        %425 = arith.select %423, %424, %c536870911 : index
        vector.store %422, %228[%425] : memref<?xf32, #amdgpu.address_space<fat_raw_buffer>>, vector<1xf32>
        %426 = vector.extract_strided_slice %172 {offsets = [2], sizes = [1], strides = [1]} : vector<16xf32> to vector<1xf32>
        %427 = arith.andi %418, %240 : i1
        %428 = arith.addi %243, %118 overflow<nsw> : index
        %429 = arith.select %427, %428, %c536870911 : index
        vector.store %426, %228[%429] : memref<?xf32, #amdgpu.address_space<fat_raw_buffer>>, vector<1xf32>
        %430 = vector.extract_strided_slice %172 {offsets = [3], sizes = [1], strides = [1]} : vector<16xf32> to vector<1xf32>
        %431 = arith.andi %418, %248 : i1
        %432 = arith.addi %251, %118 overflow<nsw> : index
        %433 = arith.select %431, %432, %c536870911 : index
        vector.store %430, %228[%433] : memref<?xf32, #amdgpu.address_space<fat_raw_buffer>>, vector<1xf32>
        %434 = vector.extract_strided_slice %172 {offsets = [4], sizes = [1], strides = [1]} : vector<16xf32> to vector<1xf32>
        %435 = arith.andi %418, %256 : i1
        %436 = arith.addi %259, %118 overflow<nsw> : index
        %437 = arith.select %435, %436, %c536870911 : index
        vector.store %434, %228[%437] : memref<?xf32, #amdgpu.address_space<fat_raw_buffer>>, vector<1xf32>
        %438 = vector.extract_strided_slice %172 {offsets = [5], sizes = [1], strides = [1]} : vector<16xf32> to vector<1xf32>
        %439 = arith.andi %418, %264 : i1
        %440 = arith.addi %267, %118 overflow<nsw> : index
        %441 = arith.select %439, %440, %c536870911 : index
        vector.store %438, %228[%441] : memref<?xf32, #amdgpu.address_space<fat_raw_buffer>>, vector<1xf32>
        %442 = vector.extract_strided_slice %172 {offsets = [6], sizes = [1], strides = [1]} : vector<16xf32> to vector<1xf32>
        %443 = arith.andi %418, %272 : i1
        %444 = arith.addi %275, %118 overflow<nsw> : index
        %445 = arith.select %443, %444, %c536870911 : index
        vector.store %442, %228[%445] : memref<?xf32, #amdgpu.address_space<fat_raw_buffer>>, vector<1xf32>
        %446 = vector.extract_strided_slice %172 {offsets = [7], sizes = [1], strides = [1]} : vector<16xf32> to vector<1xf32>
        %447 = arith.andi %418, %280 : i1
        %448 = arith.addi %283, %118 overflow<nsw> : index
        %449 = arith.select %447, %448, %c536870911 : index
        vector.store %446, %228[%449] : memref<?xf32, #amdgpu.address_space<fat_raw_buffer>>, vector<1xf32>
        %450 = vector.extract_strided_slice %172 {offsets = [8], sizes = [1], strides = [1]} : vector<16xf32> to vector<1xf32>
        %451 = arith.andi %418, %288 : i1
        %452 = arith.addi %291, %118 overflow<nsw> : index
        %453 = arith.select %451, %452, %c536870911 : index
        vector.store %450, %228[%453] : memref<?xf32, #amdgpu.address_space<fat_raw_buffer>>, vector<1xf32>
        %454 = vector.extract_strided_slice %172 {offsets = [9], sizes = [1], strides = [1]} : vector<16xf32> to vector<1xf32>
        %455 = arith.andi %418, %296 : i1
        %456 = arith.addi %299, %118 overflow<nsw> : index
        %457 = arith.select %455, %456, %c536870911 : index
        vector.store %454, %228[%457] : memref<?xf32, #amdgpu.address_space<fat_raw_buffer>>, vector<1xf32>
        %458 = vector.extract_strided_slice %172 {offsets = [10], sizes = [1], strides = [1]} : vector<16xf32> to vector<1xf32>
        %459 = arith.andi %418, %304 : i1
        %460 = arith.addi %307, %118 overflow<nsw> : index
        %461 = arith.select %459, %460, %c536870911 : index
        vector.store %458, %228[%461] : memref<?xf32, #amdgpu.address_space<fat_raw_buffer>>, vector<1xf32>
        %462 = vector.extract_strided_slice %172 {offsets = [11], sizes = [1], strides = [1]} : vector<16xf32> to vector<1xf32>
        %463 = arith.andi %418, %312 : i1
        %464 = arith.addi %315, %118 overflow<nsw> : index
        %465 = arith.select %463, %464, %c536870911 : index
        vector.store %462, %228[%465] : memref<?xf32, #amdgpu.address_space<fat_raw_buffer>>, vector<1xf32>
        %466 = vector.extract_strided_slice %172 {offsets = [12], sizes = [1], strides = [1]} : vector<16xf32> to vector<1xf32>
        %467 = arith.andi %418, %320 : i1
        %468 = arith.addi %323, %118 overflow<nsw> : index
        %469 = arith.select %467, %468, %c536870911 : index
        vector.store %466, %228[%469] : memref<?xf32, #amdgpu.address_space<fat_raw_buffer>>, vector<1xf32>
        %470 = vector.extract_strided_slice %172 {offsets = [13], sizes = [1], strides = [1]} : vector<16xf32> to vector<1xf32>
        %471 = arith.andi %418, %328 : i1
        %472 = arith.addi %331, %118 overflow<nsw> : index
        %473 = arith.select %471, %472, %c536870911 : index
        vector.store %470, %228[%473] : memref<?xf32, #amdgpu.address_space<fat_raw_buffer>>, vector<1xf32>
        %474 = vector.extract_strided_slice %172 {offsets = [14], sizes = [1], strides = [1]} : vector<16xf32> to vector<1xf32>
        %475 = arith.andi %418, %336 : i1
        %476 = arith.addi %339, %118 overflow<nsw> : index
        %477 = arith.select %475, %476, %c536870911 : index
        vector.store %474, %228[%477] : memref<?xf32, #amdgpu.address_space<fat_raw_buffer>>, vector<1xf32>
        %478 = vector.extract_strided_slice %172 {offsets = [15], sizes = [1], strides = [1]} : vector<16xf32> to vector<1xf32>
        %479 = arith.andi %418, %344 : i1
        %480 = arith.addi %347, %118 overflow<nsw> : index
        %481 = arith.select %479, %480, %c536870911 : index
        vector.store %478, %228[%481] : memref<?xf32, #amdgpu.address_space<fat_raw_buffer>>, vector<1xf32>
        %482 = vector.extract_strided_slice %176 {offsets = [0], sizes = [1], strides = [1]} : vector<16xf32> to vector<1xf32>
        %483 = affine.apply #map67()[%thread_id_x, %block_id_y, %block_id_x, %thread_id_y]
        %484 = arith.cmpi slt, %483, %214 : index
        %485 = arith.andi %484, %218 : i1
        %486 = arith.addi %224, %122 overflow<nsw> : index
        %487 = arith.select %485, %486, %c536870911 : index
        vector.store %482, %228[%487] : memref<?xf32, #amdgpu.address_space<fat_raw_buffer>>, vector<1xf32>
        %488 = vector.extract_strided_slice %176 {offsets = [1], sizes = [1], strides = [1]} : vector<16xf32> to vector<1xf32>
        %489 = arith.andi %484, %232 : i1
        %490 = arith.addi %235, %122 overflow<nsw> : index
        %491 = arith.select %489, %490, %c536870911 : index
        vector.store %488, %228[%491] : memref<?xf32, #amdgpu.address_space<fat_raw_buffer>>, vector<1xf32>
        %492 = vector.extract_strided_slice %176 {offsets = [2], sizes = [1], strides = [1]} : vector<16xf32> to vector<1xf32>
        %493 = arith.andi %484, %240 : i1
        %494 = arith.addi %243, %122 overflow<nsw> : index
        %495 = arith.select %493, %494, %c536870911 : index
        vector.store %492, %228[%495] : memref<?xf32, #amdgpu.address_space<fat_raw_buffer>>, vector<1xf32>
        %496 = vector.extract_strided_slice %176 {offsets = [3], sizes = [1], strides = [1]} : vector<16xf32> to vector<1xf32>
        %497 = arith.andi %484, %248 : i1
        %498 = arith.addi %251, %122 overflow<nsw> : index
        %499 = arith.select %497, %498, %c536870911 : index
        vector.store %496, %228[%499] : memref<?xf32, #amdgpu.address_space<fat_raw_buffer>>, vector<1xf32>
        %500 = vector.extract_strided_slice %176 {offsets = [4], sizes = [1], strides = [1]} : vector<16xf32> to vector<1xf32>
        %501 = arith.andi %484, %256 : i1
        %502 = arith.addi %259, %122 overflow<nsw> : index
        %503 = arith.select %501, %502, %c536870911 : index
        vector.store %500, %228[%503] : memref<?xf32, #amdgpu.address_space<fat_raw_buffer>>, vector<1xf32>
        %504 = vector.extract_strided_slice %176 {offsets = [5], sizes = [1], strides = [1]} : vector<16xf32> to vector<1xf32>
        %505 = arith.andi %484, %264 : i1
        %506 = arith.addi %267, %122 overflow<nsw> : index
        %507 = arith.select %505, %506, %c536870911 : index
        vector.store %504, %228[%507] : memref<?xf32, #amdgpu.address_space<fat_raw_buffer>>, vector<1xf32>
        %508 = vector.extract_strided_slice %176 {offsets = [6], sizes = [1], strides = [1]} : vector<16xf32> to vector<1xf32>
        %509 = arith.andi %484, %272 : i1
        %510 = arith.addi %275, %122 overflow<nsw> : index
        %511 = arith.select %509, %510, %c536870911 : index
        vector.store %508, %228[%511] : memref<?xf32, #amdgpu.address_space<fat_raw_buffer>>, vector<1xf32>
        %512 = vector.extract_strided_slice %176 {offsets = [7], sizes = [1], strides = [1]} : vector<16xf32> to vector<1xf32>
        %513 = arith.andi %484, %280 : i1
        %514 = arith.addi %283, %122 overflow<nsw> : index
        %515 = arith.select %513, %514, %c536870911 : index
        vector.store %512, %228[%515] : memref<?xf32, #amdgpu.address_space<fat_raw_buffer>>, vector<1xf32>
        %516 = vector.extract_strided_slice %176 {offsets = [8], sizes = [1], strides = [1]} : vector<16xf32> to vector<1xf32>
        %517 = arith.andi %484, %288 : i1
        %518 = arith.addi %291, %122 overflow<nsw> : index
        %519 = arith.select %517, %518, %c536870911 : index
        vector.store %516, %228[%519] : memref<?xf32, #amdgpu.address_space<fat_raw_buffer>>, vector<1xf32>
        %520 = vector.extract_strided_slice %176 {offsets = [9], sizes = [1], strides = [1]} : vector<16xf32> to vector<1xf32>
        %521 = arith.andi %484, %296 : i1
        %522 = arith.addi %299, %122 overflow<nsw> : index
        %523 = arith.select %521, %522, %c536870911 : index
        vector.store %520, %228[%523] : memref<?xf32, #amdgpu.address_space<fat_raw_buffer>>, vector<1xf32>
        %524 = vector.extract_strided_slice %176 {offsets = [10], sizes = [1], strides = [1]} : vector<16xf32> to vector<1xf32>
        %525 = arith.andi %484, %304 : i1
        %526 = arith.addi %307, %122 overflow<nsw> : index
        %527 = arith.select %525, %526, %c536870911 : index
        vector.store %524, %228[%527] : memref<?xf32, #amdgpu.address_space<fat_raw_buffer>>, vector<1xf32>
        %528 = vector.extract_strided_slice %176 {offsets = [11], sizes = [1], strides = [1]} : vector<16xf32> to vector<1xf32>
        %529 = arith.andi %484, %312 : i1
        %530 = arith.addi %315, %122 overflow<nsw> : index
        %531 = arith.select %529, %530, %c536870911 : index
        vector.store %528, %228[%531] : memref<?xf32, #amdgpu.address_space<fat_raw_buffer>>, vector<1xf32>
        %532 = vector.extract_strided_slice %176 {offsets = [12], sizes = [1], strides = [1]} : vector<16xf32> to vector<1xf32>
        %533 = arith.andi %484, %320 : i1
        %534 = arith.addi %323, %122 overflow<nsw> : index
        %535 = arith.select %533, %534, %c536870911 : index
        vector.store %532, %228[%535] : memref<?xf32, #amdgpu.address_space<fat_raw_buffer>>, vector<1xf32>
        %536 = vector.extract_strided_slice %176 {offsets = [13], sizes = [1], strides = [1]} : vector<16xf32> to vector<1xf32>
        %537 = arith.andi %484, %328 : i1
        %538 = arith.addi %331, %122 overflow<nsw> : index
        %539 = arith.select %537, %538, %c536870911 : index
        vector.store %536, %228[%539] : memref<?xf32, #amdgpu.address_space<fat_raw_buffer>>, vector<1xf32>
        %540 = vector.extract_strided_slice %176 {offsets = [14], sizes = [1], strides = [1]} : vector<16xf32> to vector<1xf32>
        %541 = arith.andi %484, %336 : i1
        %542 = arith.addi %339, %122 overflow<nsw> : index
        %543 = arith.select %541, %542, %c536870911 : index
        vector.store %540, %228[%543] : memref<?xf32, #amdgpu.address_space<fat_raw_buffer>>, vector<1xf32>
        %544 = vector.extract_strided_slice %176 {offsets = [15], sizes = [1], strides = [1]} : vector<16xf32> to vector<1xf32>
        %545 = arith.andi %484, %344 : i1
        %546 = arith.addi %347, %122 overflow<nsw> : index
        %547 = arith.select %545, %546, %c536870911 : index
        vector.store %544, %228[%547] : memref<?xf32, #amdgpu.address_space<fat_raw_buffer>>, vector<1xf32>
        %548 = vector.extract_strided_slice %180 {offsets = [0], sizes = [1], strides = [1]} : vector<16xf32> to vector<1xf32>
        %549 = affine.apply #map68()[%thread_id_x, %block_id_y, %block_id_x, %thread_id_y]
        %550 = arith.cmpi slt, %549, %214 : index
        %551 = arith.andi %550, %218 : i1
        %552 = arith.addi %224, %126 overflow<nsw> : index
        %553 = arith.select %551, %552, %c536870911 : index
        vector.store %548, %228[%553] : memref<?xf32, #amdgpu.address_space<fat_raw_buffer>>, vector<1xf32>
        %554 = vector.extract_strided_slice %180 {offsets = [1], sizes = [1], strides = [1]} : vector<16xf32> to vector<1xf32>
        %555 = arith.andi %550, %232 : i1
        %556 = arith.addi %235, %126 overflow<nsw> : index
        %557 = arith.select %555, %556, %c536870911 : index
        vector.store %554, %228[%557] : memref<?xf32, #amdgpu.address_space<fat_raw_buffer>>, vector<1xf32>
        %558 = vector.extract_strided_slice %180 {offsets = [2], sizes = [1], strides = [1]} : vector<16xf32> to vector<1xf32>
        %559 = arith.andi %550, %240 : i1
        %560 = arith.addi %243, %126 overflow<nsw> : index
        %561 = arith.select %559, %560, %c536870911 : index
        vector.store %558, %228[%561] : memref<?xf32, #amdgpu.address_space<fat_raw_buffer>>, vector<1xf32>
        %562 = vector.extract_strided_slice %180 {offsets = [3], sizes = [1], strides = [1]} : vector<16xf32> to vector<1xf32>
        %563 = arith.andi %550, %248 : i1
        %564 = arith.addi %251, %126 overflow<nsw> : index
        %565 = arith.select %563, %564, %c536870911 : index
        vector.store %562, %228[%565] : memref<?xf32, #amdgpu.address_space<fat_raw_buffer>>, vector<1xf32>
        %566 = vector.extract_strided_slice %180 {offsets = [4], sizes = [1], strides = [1]} : vector<16xf32> to vector<1xf32>
        %567 = arith.andi %550, %256 : i1
        %568 = arith.addi %259, %126 overflow<nsw> : index
        %569 = arith.select %567, %568, %c536870911 : index
        vector.store %566, %228[%569] : memref<?xf32, #amdgpu.address_space<fat_raw_buffer>>, vector<1xf32>
        %570 = vector.extract_strided_slice %180 {offsets = [5], sizes = [1], strides = [1]} : vector<16xf32> to vector<1xf32>
        %571 = arith.andi %550, %264 : i1
        %572 = arith.addi %267, %126 overflow<nsw> : index
        %573 = arith.select %571, %572, %c536870911 : index
        vector.store %570, %228[%573] : memref<?xf32, #amdgpu.address_space<fat_raw_buffer>>, vector<1xf32>
        %574 = vector.extract_strided_slice %180 {offsets = [6], sizes = [1], strides = [1]} : vector<16xf32> to vector<1xf32>
        %575 = arith.andi %550, %272 : i1
        %576 = arith.addi %275, %126 overflow<nsw> : index
        %577 = arith.select %575, %576, %c536870911 : index
        vector.store %574, %228[%577] : memref<?xf32, #amdgpu.address_space<fat_raw_buffer>>, vector<1xf32>
        %578 = vector.extract_strided_slice %180 {offsets = [7], sizes = [1], strides = [1]} : vector<16xf32> to vector<1xf32>
        %579 = arith.andi %550, %280 : i1
        %580 = arith.addi %283, %126 overflow<nsw> : index
        %581 = arith.select %579, %580, %c536870911 : index
        vector.store %578, %228[%581] : memref<?xf32, #amdgpu.address_space<fat_raw_buffer>>, vector<1xf32>
        %582 = vector.extract_strided_slice %180 {offsets = [8], sizes = [1], strides = [1]} : vector<16xf32> to vector<1xf32>
        %583 = arith.andi %550, %288 : i1
        %584 = arith.addi %291, %126 overflow<nsw> : index
        %585 = arith.select %583, %584, %c536870911 : index
        vector.store %582, %228[%585] : memref<?xf32, #amdgpu.address_space<fat_raw_buffer>>, vector<1xf32>
        %586 = vector.extract_strided_slice %180 {offsets = [9], sizes = [1], strides = [1]} : vector<16xf32> to vector<1xf32>
        %587 = arith.andi %550, %296 : i1
        %588 = arith.addi %299, %126 overflow<nsw> : index
        %589 = arith.select %587, %588, %c536870911 : index
        vector.store %586, %228[%589] : memref<?xf32, #amdgpu.address_space<fat_raw_buffer>>, vector<1xf32>
        %590 = vector.extract_strided_slice %180 {offsets = [10], sizes = [1], strides = [1]} : vector<16xf32> to vector<1xf32>
        %591 = arith.andi %550, %304 : i1
        %592 = arith.addi %307, %126 overflow<nsw> : index
        %593 = arith.select %591, %592, %c536870911 : index
        vector.store %590, %228[%593] : memref<?xf32, #amdgpu.address_space<fat_raw_buffer>>, vector<1xf32>
        %594 = vector.extract_strided_slice %180 {offsets = [11], sizes = [1], strides = [1]} : vector<16xf32> to vector<1xf32>
        %595 = arith.andi %550, %312 : i1
        %596 = arith.addi %315, %126 overflow<nsw> : index
        %597 = arith.select %595, %596, %c536870911 : index
        vector.store %594, %228[%597] : memref<?xf32, #amdgpu.address_space<fat_raw_buffer>>, vector<1xf32>
        %598 = vector.extract_strided_slice %180 {offsets = [12], sizes = [1], strides = [1]} : vector<16xf32> to vector<1xf32>
        %599 = arith.andi %550, %320 : i1
        %600 = arith.addi %323, %126 overflow<nsw> : index
        %601 = arith.select %599, %600, %c536870911 : index
        vector.store %598, %228[%601] : memref<?xf32, #amdgpu.address_space<fat_raw_buffer>>, vector<1xf32>
        %602 = vector.extract_strided_slice %180 {offsets = [13], sizes = [1], strides = [1]} : vector<16xf32> to vector<1xf32>
        %603 = arith.andi %550, %328 : i1
        %604 = arith.addi %331, %126 overflow<nsw> : index
        %605 = arith.select %603, %604, %c536870911 : index
        vector.store %602, %228[%605] : memref<?xf32, #amdgpu.address_space<fat_raw_buffer>>, vector<1xf32>
        %606 = vector.extract_strided_slice %180 {offsets = [14], sizes = [1], strides = [1]} : vector<16xf32> to vector<1xf32>
        %607 = arith.andi %550, %336 : i1
        %608 = arith.addi %339, %126 overflow<nsw> : index
        %609 = arith.select %607, %608, %c536870911 : index
        vector.store %606, %228[%609] : memref<?xf32, #amdgpu.address_space<fat_raw_buffer>>, vector<1xf32>
        %610 = vector.extract_strided_slice %180 {offsets = [15], sizes = [1], strides = [1]} : vector<16xf32> to vector<1xf32>
        %611 = arith.andi %550, %344 : i1
        %612 = arith.addi %347, %126 overflow<nsw> : index
        %613 = arith.select %611, %612, %c536870911 : index
        vector.store %610, %228[%613] : memref<?xf32, #amdgpu.address_space<fat_raw_buffer>>, vector<1xf32>
        %614 = vector.extract_strided_slice %184 {offsets = [0], sizes = [1], strides = [1]} : vector<16xf32> to vector<1xf32>
        %615 = affine.apply #map69()[%thread_id_x, %block_id_y, %block_id_x, %thread_id_y]
        %616 = arith.cmpi slt, %615, %214 : index
        %617 = arith.andi %616, %218 : i1
        %618 = arith.addi %224, %130 overflow<nsw> : index
        %619 = arith.select %617, %618, %c536870911 : index
        vector.store %614, %228[%619] : memref<?xf32, #amdgpu.address_space<fat_raw_buffer>>, vector<1xf32>
        %620 = vector.extract_strided_slice %184 {offsets = [1], sizes = [1], strides = [1]} : vector<16xf32> to vector<1xf32>
        %621 = arith.andi %616, %232 : i1
        %622 = arith.addi %235, %130 overflow<nsw> : index
        %623 = arith.select %621, %622, %c536870911 : index
        vector.store %620, %228[%623] : memref<?xf32, #amdgpu.address_space<fat_raw_buffer>>, vector<1xf32>
        %624 = vector.extract_strided_slice %184 {offsets = [2], sizes = [1], strides = [1]} : vector<16xf32> to vector<1xf32>
        %625 = arith.andi %616, %240 : i1
        %626 = arith.addi %243, %130 overflow<nsw> : index
        %627 = arith.select %625, %626, %c536870911 : index
        vector.store %624, %228[%627] : memref<?xf32, #amdgpu.address_space<fat_raw_buffer>>, vector<1xf32>
        %628 = vector.extract_strided_slice %184 {offsets = [3], sizes = [1], strides = [1]} : vector<16xf32> to vector<1xf32>
        %629 = arith.andi %616, %248 : i1
        %630 = arith.addi %251, %130 overflow<nsw> : index
        %631 = arith.select %629, %630, %c536870911 : index
        vector.store %628, %228[%631] : memref<?xf32, #amdgpu.address_space<fat_raw_buffer>>, vector<1xf32>
        %632 = vector.extract_strided_slice %184 {offsets = [4], sizes = [1], strides = [1]} : vector<16xf32> to vector<1xf32>
        %633 = arith.andi %616, %256 : i1
        %634 = arith.addi %259, %130 overflow<nsw> : index
        %635 = arith.select %633, %634, %c536870911 : index
        vector.store %632, %228[%635] : memref<?xf32, #amdgpu.address_space<fat_raw_buffer>>, vector<1xf32>
        %636 = vector.extract_strided_slice %184 {offsets = [5], sizes = [1], strides = [1]} : vector<16xf32> to vector<1xf32>
        %637 = arith.andi %616, %264 : i1
        %638 = arith.addi %267, %130 overflow<nsw> : index
        %639 = arith.select %637, %638, %c536870911 : index
        vector.store %636, %228[%639] : memref<?xf32, #amdgpu.address_space<fat_raw_buffer>>, vector<1xf32>
        %640 = vector.extract_strided_slice %184 {offsets = [6], sizes = [1], strides = [1]} : vector<16xf32> to vector<1xf32>
        %641 = arith.andi %616, %272 : i1
        %642 = arith.addi %275, %130 overflow<nsw> : index
        %643 = arith.select %641, %642, %c536870911 : index
        vector.store %640, %228[%643] : memref<?xf32, #amdgpu.address_space<fat_raw_buffer>>, vector<1xf32>
        %644 = vector.extract_strided_slice %184 {offsets = [7], sizes = [1], strides = [1]} : vector<16xf32> to vector<1xf32>
        %645 = arith.andi %616, %280 : i1
        %646 = arith.addi %283, %130 overflow<nsw> : index
        %647 = arith.select %645, %646, %c536870911 : index
        vector.store %644, %228[%647] : memref<?xf32, #amdgpu.address_space<fat_raw_buffer>>, vector<1xf32>
        %648 = vector.extract_strided_slice %184 {offsets = [8], sizes = [1], strides = [1]} : vector<16xf32> to vector<1xf32>
        %649 = arith.andi %616, %288 : i1
        %650 = arith.addi %291, %130 overflow<nsw> : index
        %651 = arith.select %649, %650, %c536870911 : index
        vector.store %648, %228[%651] : memref<?xf32, #amdgpu.address_space<fat_raw_buffer>>, vector<1xf32>
        %652 = vector.extract_strided_slice %184 {offsets = [9], sizes = [1], strides = [1]} : vector<16xf32> to vector<1xf32>
        %653 = arith.andi %616, %296 : i1
        %654 = arith.addi %299, %130 overflow<nsw> : index
        %655 = arith.select %653, %654, %c536870911 : index
        vector.store %652, %228[%655] : memref<?xf32, #amdgpu.address_space<fat_raw_buffer>>, vector<1xf32>
        %656 = vector.extract_strided_slice %184 {offsets = [10], sizes = [1], strides = [1]} : vector<16xf32> to vector<1xf32>
        %657 = arith.andi %616, %304 : i1
        %658 = arith.addi %307, %130 overflow<nsw> : index
        %659 = arith.select %657, %658, %c536870911 : index
        vector.store %656, %228[%659] : memref<?xf32, #amdgpu.address_space<fat_raw_buffer>>, vector<1xf32>
        %660 = vector.extract_strided_slice %184 {offsets = [11], sizes = [1], strides = [1]} : vector<16xf32> to vector<1xf32>
        %661 = arith.andi %616, %312 : i1
        %662 = arith.addi %315, %130 overflow<nsw> : index
        %663 = arith.select %661, %662, %c536870911 : index
        vector.store %660, %228[%663] : memref<?xf32, #amdgpu.address_space<fat_raw_buffer>>, vector<1xf32>
        %664 = vector.extract_strided_slice %184 {offsets = [12], sizes = [1], strides = [1]} : vector<16xf32> to vector<1xf32>
        %665 = arith.andi %616, %320 : i1
        %666 = arith.addi %323, %130 overflow<nsw> : index
        %667 = arith.select %665, %666, %c536870911 : index
        vector.store %664, %228[%667] : memref<?xf32, #amdgpu.address_space<fat_raw_buffer>>, vector<1xf32>
        %668 = vector.extract_strided_slice %184 {offsets = [13], sizes = [1], strides = [1]} : vector<16xf32> to vector<1xf32>
        %669 = arith.andi %616, %328 : i1
        %670 = arith.addi %331, %130 overflow<nsw> : index
        %671 = arith.select %669, %670, %c536870911 : index
        vector.store %668, %228[%671] : memref<?xf32, #amdgpu.address_space<fat_raw_buffer>>, vector<1xf32>
        %672 = vector.extract_strided_slice %184 {offsets = [14], sizes = [1], strides = [1]} : vector<16xf32> to vector<1xf32>
        %673 = arith.andi %616, %336 : i1
        %674 = arith.addi %339, %130 overflow<nsw> : index
        %675 = arith.select %673, %674, %c536870911 : index
        vector.store %672, %228[%675] : memref<?xf32, #amdgpu.address_space<fat_raw_buffer>>, vector<1xf32>
        %676 = vector.extract_strided_slice %184 {offsets = [15], sizes = [1], strides = [1]} : vector<16xf32> to vector<1xf32>
        %677 = arith.andi %616, %344 : i1
        %678 = arith.addi %347, %130 overflow<nsw> : index
        %679 = arith.select %677, %678, %c536870911 : index
        vector.store %676, %228[%679] : memref<?xf32, #amdgpu.address_space<fat_raw_buffer>>, vector<1xf32>
        %680 = vector.extract_strided_slice %188 {offsets = [0], sizes = [1], strides = [1]} : vector<16xf32> to vector<1xf32>
        %681 = affine.apply #map70()[%thread_id_x, %block_id_y, %block_id_x, %thread_id_y]
        %682 = arith.cmpi slt, %681, %214 : index
        %683 = arith.andi %682, %218 : i1
        %684 = arith.addi %224, %134 overflow<nsw> : index
        %685 = arith.select %683, %684, %c536870911 : index
        vector.store %680, %228[%685] : memref<?xf32, #amdgpu.address_space<fat_raw_buffer>>, vector<1xf32>
        %686 = vector.extract_strided_slice %188 {offsets = [1], sizes = [1], strides = [1]} : vector<16xf32> to vector<1xf32>
        %687 = arith.andi %682, %232 : i1
        %688 = arith.addi %235, %134 overflow<nsw> : index
        %689 = arith.select %687, %688, %c536870911 : index
        vector.store %686, %228[%689] : memref<?xf32, #amdgpu.address_space<fat_raw_buffer>>, vector<1xf32>
        %690 = vector.extract_strided_slice %188 {offsets = [2], sizes = [1], strides = [1]} : vector<16xf32> to vector<1xf32>
        %691 = arith.andi %682, %240 : i1
        %692 = arith.addi %243, %134 overflow<nsw> : index
        %693 = arith.select %691, %692, %c536870911 : index
        vector.store %690, %228[%693] : memref<?xf32, #amdgpu.address_space<fat_raw_buffer>>, vector<1xf32>
        %694 = vector.extract_strided_slice %188 {offsets = [3], sizes = [1], strides = [1]} : vector<16xf32> to vector<1xf32>
        %695 = arith.andi %682, %248 : i1
        %696 = arith.addi %251, %134 overflow<nsw> : index
        %697 = arith.select %695, %696, %c536870911 : index
        vector.store %694, %228[%697] : memref<?xf32, #amdgpu.address_space<fat_raw_buffer>>, vector<1xf32>
        %698 = vector.extract_strided_slice %188 {offsets = [4], sizes = [1], strides = [1]} : vector<16xf32> to vector<1xf32>
        %699 = arith.andi %682, %256 : i1
        %700 = arith.addi %259, %134 overflow<nsw> : index
        %701 = arith.select %699, %700, %c536870911 : index
        vector.store %698, %228[%701] : memref<?xf32, #amdgpu.address_space<fat_raw_buffer>>, vector<1xf32>
        %702 = vector.extract_strided_slice %188 {offsets = [5], sizes = [1], strides = [1]} : vector<16xf32> to vector<1xf32>
        %703 = arith.andi %682, %264 : i1
        %704 = arith.addi %267, %134 overflow<nsw> : index
        %705 = arith.select %703, %704, %c536870911 : index
        vector.store %702, %228[%705] : memref<?xf32, #amdgpu.address_space<fat_raw_buffer>>, vector<1xf32>
        %706 = vector.extract_strided_slice %188 {offsets = [6], sizes = [1], strides = [1]} : vector<16xf32> to vector<1xf32>
        %707 = arith.andi %682, %272 : i1
        %708 = arith.addi %275, %134 overflow<nsw> : index
        %709 = arith.select %707, %708, %c536870911 : index
        vector.store %706, %228[%709] : memref<?xf32, #amdgpu.address_space<fat_raw_buffer>>, vector<1xf32>
        %710 = vector.extract_strided_slice %188 {offsets = [7], sizes = [1], strides = [1]} : vector<16xf32> to vector<1xf32>
        %711 = arith.andi %682, %280 : i1
        %712 = arith.addi %283, %134 overflow<nsw> : index
        %713 = arith.select %711, %712, %c536870911 : index
        vector.store %710, %228[%713] : memref<?xf32, #amdgpu.address_space<fat_raw_buffer>>, vector<1xf32>
        %714 = vector.extract_strided_slice %188 {offsets = [8], sizes = [1], strides = [1]} : vector<16xf32> to vector<1xf32>
        %715 = arith.andi %682, %288 : i1
        %716 = arith.addi %291, %134 overflow<nsw> : index
        %717 = arith.select %715, %716, %c536870911 : index
        vector.store %714, %228[%717] : memref<?xf32, #amdgpu.address_space<fat_raw_buffer>>, vector<1xf32>
        %718 = vector.extract_strided_slice %188 {offsets = [9], sizes = [1], strides = [1]} : vector<16xf32> to vector<1xf32>
        %719 = arith.andi %682, %296 : i1
        %720 = arith.addi %299, %134 overflow<nsw> : index
        %721 = arith.select %719, %720, %c536870911 : index
        vector.store %718, %228[%721] : memref<?xf32, #amdgpu.address_space<fat_raw_buffer>>, vector<1xf32>
        %722 = vector.extract_strided_slice %188 {offsets = [10], sizes = [1], strides = [1]} : vector<16xf32> to vector<1xf32>
        %723 = arith.andi %682, %304 : i1
        %724 = arith.addi %307, %134 overflow<nsw> : index
        %725 = arith.select %723, %724, %c536870911 : index
        vector.store %722, %228[%725] : memref<?xf32, #amdgpu.address_space<fat_raw_buffer>>, vector<1xf32>
        %726 = vector.extract_strided_slice %188 {offsets = [11], sizes = [1], strides = [1]} : vector<16xf32> to vector<1xf32>
        %727 = arith.andi %682, %312 : i1
        %728 = arith.addi %315, %134 overflow<nsw> : index
        %729 = arith.select %727, %728, %c536870911 : index
        vector.store %726, %228[%729] : memref<?xf32, #amdgpu.address_space<fat_raw_buffer>>, vector<1xf32>
        %730 = vector.extract_strided_slice %188 {offsets = [12], sizes = [1], strides = [1]} : vector<16xf32> to vector<1xf32>
        %731 = arith.andi %682, %320 : i1
        %732 = arith.addi %323, %134 overflow<nsw> : index
        %733 = arith.select %731, %732, %c536870911 : index
        vector.store %730, %228[%733] : memref<?xf32, #amdgpu.address_space<fat_raw_buffer>>, vector<1xf32>
        %734 = vector.extract_strided_slice %188 {offsets = [13], sizes = [1], strides = [1]} : vector<16xf32> to vector<1xf32>
        %735 = arith.andi %682, %328 : i1
        %736 = arith.addi %331, %134 overflow<nsw> : index
        %737 = arith.select %735, %736, %c536870911 : index
        vector.store %734, %228[%737] : memref<?xf32, #amdgpu.address_space<fat_raw_buffer>>, vector<1xf32>
        %738 = vector.extract_strided_slice %188 {offsets = [14], sizes = [1], strides = [1]} : vector<16xf32> to vector<1xf32>
        %739 = arith.andi %682, %336 : i1
        %740 = arith.addi %339, %134 overflow<nsw> : index
        %741 = arith.select %739, %740, %c536870911 : index
        vector.store %738, %228[%741] : memref<?xf32, #amdgpu.address_space<fat_raw_buffer>>, vector<1xf32>
        %742 = vector.extract_strided_slice %188 {offsets = [15], sizes = [1], strides = [1]} : vector<16xf32> to vector<1xf32>
        %743 = arith.andi %682, %344 : i1
        %744 = arith.addi %347, %134 overflow<nsw> : index
        %745 = arith.select %743, %744, %c536870911 : index
        vector.store %742, %228[%745] : memref<?xf32, #amdgpu.address_space<fat_raw_buffer>>, vector<1xf32>
        %746 = vector.extract_strided_slice %192 {offsets = [0], sizes = [1], strides = [1]} : vector<16xf32> to vector<1xf32>
        %747 = affine.apply #map71()[%thread_id_x, %block_id_y, %block_id_x, %thread_id_y]
        %748 = arith.cmpi slt, %747, %214 : index
        %749 = arith.andi %748, %218 : i1
        %750 = arith.addi %224, %138 overflow<nsw> : index
        %751 = arith.select %749, %750, %c536870911 : index
        vector.store %746, %228[%751] : memref<?xf32, #amdgpu.address_space<fat_raw_buffer>>, vector<1xf32>
        %752 = vector.extract_strided_slice %192 {offsets = [1], sizes = [1], strides = [1]} : vector<16xf32> to vector<1xf32>
        %753 = arith.andi %748, %232 : i1
        %754 = arith.addi %235, %138 overflow<nsw> : index
        %755 = arith.select %753, %754, %c536870911 : index
        vector.store %752, %228[%755] : memref<?xf32, #amdgpu.address_space<fat_raw_buffer>>, vector<1xf32>
        %756 = vector.extract_strided_slice %192 {offsets = [2], sizes = [1], strides = [1]} : vector<16xf32> to vector<1xf32>
        %757 = arith.andi %748, %240 : i1
        %758 = arith.addi %243, %138 overflow<nsw> : index
        %759 = arith.select %757, %758, %c536870911 : index
        vector.store %756, %228[%759] : memref<?xf32, #amdgpu.address_space<fat_raw_buffer>>, vector<1xf32>
        %760 = vector.extract_strided_slice %192 {offsets = [3], sizes = [1], strides = [1]} : vector<16xf32> to vector<1xf32>
        %761 = arith.andi %748, %248 : i1
        %762 = arith.addi %251, %138 overflow<nsw> : index
        %763 = arith.select %761, %762, %c536870911 : index
        vector.store %760, %228[%763] : memref<?xf32, #amdgpu.address_space<fat_raw_buffer>>, vector<1xf32>
        %764 = vector.extract_strided_slice %192 {offsets = [4], sizes = [1], strides = [1]} : vector<16xf32> to vector<1xf32>
        %765 = arith.andi %748, %256 : i1
        %766 = arith.addi %259, %138 overflow<nsw> : index
        %767 = arith.select %765, %766, %c536870911 : index
        vector.store %764, %228[%767] : memref<?xf32, #amdgpu.address_space<fat_raw_buffer>>, vector<1xf32>
        %768 = vector.extract_strided_slice %192 {offsets = [5], sizes = [1], strides = [1]} : vector<16xf32> to vector<1xf32>
        %769 = arith.andi %748, %264 : i1
        %770 = arith.addi %267, %138 overflow<nsw> : index
        %771 = arith.select %769, %770, %c536870911 : index
        vector.store %768, %228[%771] : memref<?xf32, #amdgpu.address_space<fat_raw_buffer>>, vector<1xf32>
        %772 = vector.extract_strided_slice %192 {offsets = [6], sizes = [1], strides = [1]} : vector<16xf32> to vector<1xf32>
        %773 = arith.andi %748, %272 : i1
        %774 = arith.addi %275, %138 overflow<nsw> : index
        %775 = arith.select %773, %774, %c536870911 : index
        vector.store %772, %228[%775] : memref<?xf32, #amdgpu.address_space<fat_raw_buffer>>, vector<1xf32>
        %776 = vector.extract_strided_slice %192 {offsets = [7], sizes = [1], strides = [1]} : vector<16xf32> to vector<1xf32>
        %777 = arith.andi %748, %280 : i1
        %778 = arith.addi %283, %138 overflow<nsw> : index
        %779 = arith.select %777, %778, %c536870911 : index
        vector.store %776, %228[%779] : memref<?xf32, #amdgpu.address_space<fat_raw_buffer>>, vector<1xf32>
        %780 = vector.extract_strided_slice %192 {offsets = [8], sizes = [1], strides = [1]} : vector<16xf32> to vector<1xf32>
        %781 = arith.andi %748, %288 : i1
        %782 = arith.addi %291, %138 overflow<nsw> : index
        %783 = arith.select %781, %782, %c536870911 : index
        vector.store %780, %228[%783] : memref<?xf32, #amdgpu.address_space<fat_raw_buffer>>, vector<1xf32>
        %784 = vector.extract_strided_slice %192 {offsets = [9], sizes = [1], strides = [1]} : vector<16xf32> to vector<1xf32>
        %785 = arith.andi %748, %296 : i1
        %786 = arith.addi %299, %138 overflow<nsw> : index
        %787 = arith.select %785, %786, %c536870911 : index
        vector.store %784, %228[%787] : memref<?xf32, #amdgpu.address_space<fat_raw_buffer>>, vector<1xf32>
        %788 = vector.extract_strided_slice %192 {offsets = [10], sizes = [1], strides = [1]} : vector<16xf32> to vector<1xf32>
        %789 = arith.andi %748, %304 : i1
        %790 = arith.addi %307, %138 overflow<nsw> : index
        %791 = arith.select %789, %790, %c536870911 : index
        vector.store %788, %228[%791] : memref<?xf32, #amdgpu.address_space<fat_raw_buffer>>, vector<1xf32>
        %792 = vector.extract_strided_slice %192 {offsets = [11], sizes = [1], strides = [1]} : vector<16xf32> to vector<1xf32>
        %793 = arith.andi %748, %312 : i1
        %794 = arith.addi %315, %138 overflow<nsw> : index
        %795 = arith.select %793, %794, %c536870911 : index
        vector.store %792, %228[%795] : memref<?xf32, #amdgpu.address_space<fat_raw_buffer>>, vector<1xf32>
        %796 = vector.extract_strided_slice %192 {offsets = [12], sizes = [1], strides = [1]} : vector<16xf32> to vector<1xf32>
        %797 = arith.andi %748, %320 : i1
        %798 = arith.addi %323, %138 overflow<nsw> : index
        %799 = arith.select %797, %798, %c536870911 : index
        vector.store %796, %228[%799] : memref<?xf32, #amdgpu.address_space<fat_raw_buffer>>, vector<1xf32>
        %800 = vector.extract_strided_slice %192 {offsets = [13], sizes = [1], strides = [1]} : vector<16xf32> to vector<1xf32>
        %801 = arith.andi %748, %328 : i1
        %802 = arith.addi %331, %138 overflow<nsw> : index
        %803 = arith.select %801, %802, %c536870911 : index
        vector.store %800, %228[%803] : memref<?xf32, #amdgpu.address_space<fat_raw_buffer>>, vector<1xf32>
        %804 = vector.extract_strided_slice %192 {offsets = [14], sizes = [1], strides = [1]} : vector<16xf32> to vector<1xf32>
        %805 = arith.andi %748, %336 : i1
        %806 = arith.addi %339, %138 overflow<nsw> : index
        %807 = arith.select %805, %806, %c536870911 : index
        vector.store %804, %228[%807] : memref<?xf32, #amdgpu.address_space<fat_raw_buffer>>, vector<1xf32>
        %808 = vector.extract_strided_slice %192 {offsets = [15], sizes = [1], strides = [1]} : vector<16xf32> to vector<1xf32>
        %809 = arith.andi %748, %344 : i1
        %810 = arith.addi %347, %138 overflow<nsw> : index
        %811 = arith.select %809, %810, %c536870911 : index
        vector.store %808, %228[%811] : memref<?xf32, #amdgpu.address_space<fat_raw_buffer>>, vector<1xf32>
        %812 = vector.extract_strided_slice %196 {offsets = [0], sizes = [1], strides = [1]} : vector<16xf32> to vector<1xf32>
        %813 = affine.apply #map72()[%thread_id_x, %block_id_y, %block_id_x, %thread_id_y]
        %814 = arith.cmpi slt, %813, %214 : index
        %815 = arith.andi %814, %218 : i1
        %816 = arith.addi %224, %142 overflow<nsw> : index
        %817 = arith.select %815, %816, %c536870911 : index
        vector.store %812, %228[%817] : memref<?xf32, #amdgpu.address_space<fat_raw_buffer>>, vector<1xf32>
        %818 = vector.extract_strided_slice %196 {offsets = [1], sizes = [1], strides = [1]} : vector<16xf32> to vector<1xf32>
        %819 = arith.andi %814, %232 : i1
        %820 = arith.addi %235, %142 overflow<nsw> : index
        %821 = arith.select %819, %820, %c536870911 : index
        vector.store %818, %228[%821] : memref<?xf32, #amdgpu.address_space<fat_raw_buffer>>, vector<1xf32>
        %822 = vector.extract_strided_slice %196 {offsets = [2], sizes = [1], strides = [1]} : vector<16xf32> to vector<1xf32>
        %823 = arith.andi %814, %240 : i1
        %824 = arith.addi %243, %142 overflow<nsw> : index
        %825 = arith.select %823, %824, %c536870911 : index
        vector.store %822, %228[%825] : memref<?xf32, #amdgpu.address_space<fat_raw_buffer>>, vector<1xf32>
        %826 = vector.extract_strided_slice %196 {offsets = [3], sizes = [1], strides = [1]} : vector<16xf32> to vector<1xf32>
        %827 = arith.andi %814, %248 : i1
        %828 = arith.addi %251, %142 overflow<nsw> : index
        %829 = arith.select %827, %828, %c536870911 : index
        vector.store %826, %228[%829] : memref<?xf32, #amdgpu.address_space<fat_raw_buffer>>, vector<1xf32>
        %830 = vector.extract_strided_slice %196 {offsets = [4], sizes = [1], strides = [1]} : vector<16xf32> to vector<1xf32>
        %831 = arith.andi %814, %256 : i1
        %832 = arith.addi %259, %142 overflow<nsw> : index
        %833 = arith.select %831, %832, %c536870911 : index
        vector.store %830, %228[%833] : memref<?xf32, #amdgpu.address_space<fat_raw_buffer>>, vector<1xf32>
        %834 = vector.extract_strided_slice %196 {offsets = [5], sizes = [1], strides = [1]} : vector<16xf32> to vector<1xf32>
        %835 = arith.andi %814, %264 : i1
        %836 = arith.addi %267, %142 overflow<nsw> : index
        %837 = arith.select %835, %836, %c536870911 : index
        vector.store %834, %228[%837] : memref<?xf32, #amdgpu.address_space<fat_raw_buffer>>, vector<1xf32>
        %838 = vector.extract_strided_slice %196 {offsets = [6], sizes = [1], strides = [1]} : vector<16xf32> to vector<1xf32>
        %839 = arith.andi %814, %272 : i1
        %840 = arith.addi %275, %142 overflow<nsw> : index
        %841 = arith.select %839, %840, %c536870911 : index
        vector.store %838, %228[%841] : memref<?xf32, #amdgpu.address_space<fat_raw_buffer>>, vector<1xf32>
        %842 = vector.extract_strided_slice %196 {offsets = [7], sizes = [1], strides = [1]} : vector<16xf32> to vector<1xf32>
        %843 = arith.andi %814, %280 : i1
        %844 = arith.addi %283, %142 overflow<nsw> : index
        %845 = arith.select %843, %844, %c536870911 : index
        vector.store %842, %228[%845] : memref<?xf32, #amdgpu.address_space<fat_raw_buffer>>, vector<1xf32>
        %846 = vector.extract_strided_slice %196 {offsets = [8], sizes = [1], strides = [1]} : vector<16xf32> to vector<1xf32>
        %847 = arith.andi %814, %288 : i1
        %848 = arith.addi %291, %142 overflow<nsw> : index
        %849 = arith.select %847, %848, %c536870911 : index
        vector.store %846, %228[%849] : memref<?xf32, #amdgpu.address_space<fat_raw_buffer>>, vector<1xf32>
        %850 = vector.extract_strided_slice %196 {offsets = [9], sizes = [1], strides = [1]} : vector<16xf32> to vector<1xf32>
        %851 = arith.andi %814, %296 : i1
        %852 = arith.addi %299, %142 overflow<nsw> : index
        %853 = arith.select %851, %852, %c536870911 : index
        vector.store %850, %228[%853] : memref<?xf32, #amdgpu.address_space<fat_raw_buffer>>, vector<1xf32>
        %854 = vector.extract_strided_slice %196 {offsets = [10], sizes = [1], strides = [1]} : vector<16xf32> to vector<1xf32>
        %855 = arith.andi %814, %304 : i1
        %856 = arith.addi %307, %142 overflow<nsw> : index
        %857 = arith.select %855, %856, %c536870911 : index
        vector.store %854, %228[%857] : memref<?xf32, #amdgpu.address_space<fat_raw_buffer>>, vector<1xf32>
        %858 = vector.extract_strided_slice %196 {offsets = [11], sizes = [1], strides = [1]} : vector<16xf32> to vector<1xf32>
        %859 = arith.andi %814, %312 : i1
        %860 = arith.addi %315, %142 overflow<nsw> : index
        %861 = arith.select %859, %860, %c536870911 : index
        vector.store %858, %228[%861] : memref<?xf32, #amdgpu.address_space<fat_raw_buffer>>, vector<1xf32>
        %862 = vector.extract_strided_slice %196 {offsets = [12], sizes = [1], strides = [1]} : vector<16xf32> to vector<1xf32>
        %863 = arith.andi %814, %320 : i1
        %864 = arith.addi %323, %142 overflow<nsw> : index
        %865 = arith.select %863, %864, %c536870911 : index
        vector.store %862, %228[%865] : memref<?xf32, #amdgpu.address_space<fat_raw_buffer>>, vector<1xf32>
        %866 = vector.extract_strided_slice %196 {offsets = [13], sizes = [1], strides = [1]} : vector<16xf32> to vector<1xf32>
        %867 = arith.andi %814, %328 : i1
        %868 = arith.addi %331, %142 overflow<nsw> : index
        %869 = arith.select %867, %868, %c536870911 : index
        vector.store %866, %228[%869] : memref<?xf32, #amdgpu.address_space<fat_raw_buffer>>, vector<1xf32>
        %870 = vector.extract_strided_slice %196 {offsets = [14], sizes = [1], strides = [1]} : vector<16xf32> to vector<1xf32>
        %871 = arith.andi %814, %336 : i1
        %872 = arith.addi %339, %142 overflow<nsw> : index
        %873 = arith.select %871, %872, %c536870911 : index
        vector.store %870, %228[%873] : memref<?xf32, #amdgpu.address_space<fat_raw_buffer>>, vector<1xf32>
        %874 = vector.extract_strided_slice %196 {offsets = [15], sizes = [1], strides = [1]} : vector<16xf32> to vector<1xf32>
        %875 = arith.andi %814, %344 : i1
        %876 = arith.addi %347, %142 overflow<nsw> : index
        %877 = arith.select %875, %876, %c536870911 : index
        vector.store %874, %228[%877] : memref<?xf32, #amdgpu.address_space<fat_raw_buffer>>, vector<1xf32>
        %878 = vector.extract_strided_slice %200 {offsets = [0], sizes = [1], strides = [1]} : vector<16xf32> to vector<1xf32>
        %879 = affine.apply #map73()[%thread_id_x, %block_id_y, %block_id_x, %thread_id_y]
        %880 = arith.cmpi slt, %879, %214 : index
        %881 = arith.andi %880, %218 : i1
        %882 = arith.addi %224, %146 overflow<nsw> : index
        %883 = arith.select %881, %882, %c536870911 : index
        vector.store %878, %228[%883] : memref<?xf32, #amdgpu.address_space<fat_raw_buffer>>, vector<1xf32>
        %884 = vector.extract_strided_slice %200 {offsets = [1], sizes = [1], strides = [1]} : vector<16xf32> to vector<1xf32>
        %885 = arith.andi %880, %232 : i1
        %886 = arith.addi %235, %146 overflow<nsw> : index
        %887 = arith.select %885, %886, %c536870911 : index
        vector.store %884, %228[%887] : memref<?xf32, #amdgpu.address_space<fat_raw_buffer>>, vector<1xf32>
        %888 = vector.extract_strided_slice %200 {offsets = [2], sizes = [1], strides = [1]} : vector<16xf32> to vector<1xf32>
        %889 = arith.andi %880, %240 : i1
        %890 = arith.addi %243, %146 overflow<nsw> : index
        %891 = arith.select %889, %890, %c536870911 : index
        vector.store %888, %228[%891] : memref<?xf32, #amdgpu.address_space<fat_raw_buffer>>, vector<1xf32>
        %892 = vector.extract_strided_slice %200 {offsets = [3], sizes = [1], strides = [1]} : vector<16xf32> to vector<1xf32>
        %893 = arith.andi %880, %248 : i1
        %894 = arith.addi %251, %146 overflow<nsw> : index
        %895 = arith.select %893, %894, %c536870911 : index
        vector.store %892, %228[%895] : memref<?xf32, #amdgpu.address_space<fat_raw_buffer>>, vector<1xf32>
        %896 = vector.extract_strided_slice %200 {offsets = [4], sizes = [1], strides = [1]} : vector<16xf32> to vector<1xf32>
        %897 = arith.andi %880, %256 : i1
        %898 = arith.addi %259, %146 overflow<nsw> : index
        %899 = arith.select %897, %898, %c536870911 : index
        vector.store %896, %228[%899] : memref<?xf32, #amdgpu.address_space<fat_raw_buffer>>, vector<1xf32>
        %900 = vector.extract_strided_slice %200 {offsets = [5], sizes = [1], strides = [1]} : vector<16xf32> to vector<1xf32>
        %901 = arith.andi %880, %264 : i1
        %902 = arith.addi %267, %146 overflow<nsw> : index
        %903 = arith.select %901, %902, %c536870911 : index
        vector.store %900, %228[%903] : memref<?xf32, #amdgpu.address_space<fat_raw_buffer>>, vector<1xf32>
        %904 = vector.extract_strided_slice %200 {offsets = [6], sizes = [1], strides = [1]} : vector<16xf32> to vector<1xf32>
        %905 = arith.andi %880, %272 : i1
        %906 = arith.addi %275, %146 overflow<nsw> : index
        %907 = arith.select %905, %906, %c536870911 : index
        vector.store %904, %228[%907] : memref<?xf32, #amdgpu.address_space<fat_raw_buffer>>, vector<1xf32>
        %908 = vector.extract_strided_slice %200 {offsets = [7], sizes = [1], strides = [1]} : vector<16xf32> to vector<1xf32>
        %909 = arith.andi %880, %280 : i1
        %910 = arith.addi %283, %146 overflow<nsw> : index
        %911 = arith.select %909, %910, %c536870911 : index
        vector.store %908, %228[%911] : memref<?xf32, #amdgpu.address_space<fat_raw_buffer>>, vector<1xf32>
        %912 = vector.extract_strided_slice %200 {offsets = [8], sizes = [1], strides = [1]} : vector<16xf32> to vector<1xf32>
        %913 = arith.andi %880, %288 : i1
        %914 = arith.addi %291, %146 overflow<nsw> : index
        %915 = arith.select %913, %914, %c536870911 : index
        vector.store %912, %228[%915] : memref<?xf32, #amdgpu.address_space<fat_raw_buffer>>, vector<1xf32>
        %916 = vector.extract_strided_slice %200 {offsets = [9], sizes = [1], strides = [1]} : vector<16xf32> to vector<1xf32>
        %917 = arith.andi %880, %296 : i1
        %918 = arith.addi %299, %146 overflow<nsw> : index
        %919 = arith.select %917, %918, %c536870911 : index
        vector.store %916, %228[%919] : memref<?xf32, #amdgpu.address_space<fat_raw_buffer>>, vector<1xf32>
        %920 = vector.extract_strided_slice %200 {offsets = [10], sizes = [1], strides = [1]} : vector<16xf32> to vector<1xf32>
        %921 = arith.andi %880, %304 : i1
        %922 = arith.addi %307, %146 overflow<nsw> : index
        %923 = arith.select %921, %922, %c536870911 : index
        vector.store %920, %228[%923] : memref<?xf32, #amdgpu.address_space<fat_raw_buffer>>, vector<1xf32>
        %924 = vector.extract_strided_slice %200 {offsets = [11], sizes = [1], strides = [1]} : vector<16xf32> to vector<1xf32>
        %925 = arith.andi %880, %312 : i1
        %926 = arith.addi %315, %146 overflow<nsw> : index
        %927 = arith.select %925, %926, %c536870911 : index
        vector.store %924, %228[%927] : memref<?xf32, #amdgpu.address_space<fat_raw_buffer>>, vector<1xf32>
        %928 = vector.extract_strided_slice %200 {offsets = [12], sizes = [1], strides = [1]} : vector<16xf32> to vector<1xf32>
        %929 = arith.andi %880, %320 : i1
        %930 = arith.addi %323, %146 overflow<nsw> : index
        %931 = arith.select %929, %930, %c536870911 : index
        vector.store %928, %228[%931] : memref<?xf32, #amdgpu.address_space<fat_raw_buffer>>, vector<1xf32>
        %932 = vector.extract_strided_slice %200 {offsets = [13], sizes = [1], strides = [1]} : vector<16xf32> to vector<1xf32>
        %933 = arith.andi %880, %328 : i1
        %934 = arith.addi %331, %146 overflow<nsw> : index
        %935 = arith.select %933, %934, %c536870911 : index
        vector.store %932, %228[%935] : memref<?xf32, #amdgpu.address_space<fat_raw_buffer>>, vector<1xf32>
        %936 = vector.extract_strided_slice %200 {offsets = [14], sizes = [1], strides = [1]} : vector<16xf32> to vector<1xf32>
        %937 = arith.andi %880, %336 : i1
        %938 = arith.addi %339, %146 overflow<nsw> : index
        %939 = arith.select %937, %938, %c536870911 : index
        vector.store %936, %228[%939] : memref<?xf32, #amdgpu.address_space<fat_raw_buffer>>, vector<1xf32>
        %940 = vector.extract_strided_slice %200 {offsets = [15], sizes = [1], strides = [1]} : vector<16xf32> to vector<1xf32>
        %941 = arith.andi %880, %344 : i1
        %942 = arith.addi %347, %146 overflow<nsw> : index
        %943 = arith.select %941, %942, %c536870911 : index
        vector.store %940, %228[%943] : memref<?xf32, #amdgpu.address_space<fat_raw_buffer>>, vector<1xf32>
        %944 = vector.extract_strided_slice %204 {offsets = [0], sizes = [1], strides = [1]} : vector<16xf32> to vector<1xf32>
        %945 = affine.apply #map74()[%thread_id_x, %block_id_y, %block_id_x, %thread_id_y]
        %946 = arith.cmpi slt, %945, %214 : index
        %947 = arith.andi %946, %218 : i1
        %948 = arith.addi %224, %150 overflow<nsw> : index
        %949 = arith.select %947, %948, %c536870911 : index
        vector.store %944, %228[%949] : memref<?xf32, #amdgpu.address_space<fat_raw_buffer>>, vector<1xf32>
        %950 = vector.extract_strided_slice %204 {offsets = [1], sizes = [1], strides = [1]} : vector<16xf32> to vector<1xf32>
        %951 = arith.andi %946, %232 : i1
        %952 = arith.addi %235, %150 overflow<nsw> : index
        %953 = arith.select %951, %952, %c536870911 : index
        vector.store %950, %228[%953] : memref<?xf32, #amdgpu.address_space<fat_raw_buffer>>, vector<1xf32>
        %954 = vector.extract_strided_slice %204 {offsets = [2], sizes = [1], strides = [1]} : vector<16xf32> to vector<1xf32>
        %955 = arith.andi %946, %240 : i1
        %956 = arith.addi %243, %150 overflow<nsw> : index
        %957 = arith.select %955, %956, %c536870911 : index
        vector.store %954, %228[%957] : memref<?xf32, #amdgpu.address_space<fat_raw_buffer>>, vector<1xf32>
        %958 = vector.extract_strided_slice %204 {offsets = [3], sizes = [1], strides = [1]} : vector<16xf32> to vector<1xf32>
        %959 = arith.andi %946, %248 : i1
        %960 = arith.addi %251, %150 overflow<nsw> : index
        %961 = arith.select %959, %960, %c536870911 : index
        vector.store %958, %228[%961] : memref<?xf32, #amdgpu.address_space<fat_raw_buffer>>, vector<1xf32>
        %962 = vector.extract_strided_slice %204 {offsets = [4], sizes = [1], strides = [1]} : vector<16xf32> to vector<1xf32>
        %963 = arith.andi %946, %256 : i1
        %964 = arith.addi %259, %150 overflow<nsw> : index
        %965 = arith.select %963, %964, %c536870911 : index
        vector.store %962, %228[%965] : memref<?xf32, #amdgpu.address_space<fat_raw_buffer>>, vector<1xf32>
        %966 = vector.extract_strided_slice %204 {offsets = [5], sizes = [1], strides = [1]} : vector<16xf32> to vector<1xf32>
        %967 = arith.andi %946, %264 : i1
        %968 = arith.addi %267, %150 overflow<nsw> : index
        %969 = arith.select %967, %968, %c536870911 : index
        vector.store %966, %228[%969] : memref<?xf32, #amdgpu.address_space<fat_raw_buffer>>, vector<1xf32>
        %970 = vector.extract_strided_slice %204 {offsets = [6], sizes = [1], strides = [1]} : vector<16xf32> to vector<1xf32>
        %971 = arith.andi %946, %272 : i1
        %972 = arith.addi %275, %150 overflow<nsw> : index
        %973 = arith.select %971, %972, %c536870911 : index
        vector.store %970, %228[%973] : memref<?xf32, #amdgpu.address_space<fat_raw_buffer>>, vector<1xf32>
        %974 = vector.extract_strided_slice %204 {offsets = [7], sizes = [1], strides = [1]} : vector<16xf32> to vector<1xf32>
        %975 = arith.andi %946, %280 : i1
        %976 = arith.addi %283, %150 overflow<nsw> : index
        %977 = arith.select %975, %976, %c536870911 : index
        vector.store %974, %228[%977] : memref<?xf32, #amdgpu.address_space<fat_raw_buffer>>, vector<1xf32>
        %978 = vector.extract_strided_slice %204 {offsets = [8], sizes = [1], strides = [1]} : vector<16xf32> to vector<1xf32>
        %979 = arith.andi %946, %288 : i1
        %980 = arith.addi %291, %150 overflow<nsw> : index
        %981 = arith.select %979, %980, %c536870911 : index
        vector.store %978, %228[%981] : memref<?xf32, #amdgpu.address_space<fat_raw_buffer>>, vector<1xf32>
        %982 = vector.extract_strided_slice %204 {offsets = [9], sizes = [1], strides = [1]} : vector<16xf32> to vector<1xf32>
        %983 = arith.andi %946, %296 : i1
        %984 = arith.addi %299, %150 overflow<nsw> : index
        %985 = arith.select %983, %984, %c536870911 : index
        vector.store %982, %228[%985] : memref<?xf32, #amdgpu.address_space<fat_raw_buffer>>, vector<1xf32>
        %986 = vector.extract_strided_slice %204 {offsets = [10], sizes = [1], strides = [1]} : vector<16xf32> to vector<1xf32>
        %987 = arith.andi %946, %304 : i1
        %988 = arith.addi %307, %150 overflow<nsw> : index
        %989 = arith.select %987, %988, %c536870911 : index
        vector.store %986, %228[%989] : memref<?xf32, #amdgpu.address_space<fat_raw_buffer>>, vector<1xf32>
        %990 = vector.extract_strided_slice %204 {offsets = [11], sizes = [1], strides = [1]} : vector<16xf32> to vector<1xf32>
        %991 = arith.andi %946, %312 : i1
        %992 = arith.addi %315, %150 overflow<nsw> : index
        %993 = arith.select %991, %992, %c536870911 : index
        vector.store %990, %228[%993] : memref<?xf32, #amdgpu.address_space<fat_raw_buffer>>, vector<1xf32>
        %994 = vector.extract_strided_slice %204 {offsets = [12], sizes = [1], strides = [1]} : vector<16xf32> to vector<1xf32>
        %995 = arith.andi %946, %320 : i1
        %996 = arith.addi %323, %150 overflow<nsw> : index
        %997 = arith.select %995, %996, %c536870911 : index
        vector.store %994, %228[%997] : memref<?xf32, #amdgpu.address_space<fat_raw_buffer>>, vector<1xf32>
        %998 = vector.extract_strided_slice %204 {offsets = [13], sizes = [1], strides = [1]} : vector<16xf32> to vector<1xf32>
        %999 = arith.andi %946, %328 : i1
        %1000 = arith.addi %331, %150 overflow<nsw> : index
        %1001 = arith.select %999, %1000, %c536870911 : index
        vector.store %998, %228[%1001] : memref<?xf32, #amdgpu.address_space<fat_raw_buffer>>, vector<1xf32>
        %1002 = vector.extract_strided_slice %204 {offsets = [14], sizes = [1], strides = [1]} : vector<16xf32> to vector<1xf32>
        %1003 = arith.andi %946, %336 : i1
        %1004 = arith.addi %339, %150 overflow<nsw> : index
        %1005 = arith.select %1003, %1004, %c536870911 : index
        vector.store %1002, %228[%1005] : memref<?xf32, #amdgpu.address_space<fat_raw_buffer>>, vector<1xf32>
        %1006 = vector.extract_strided_slice %204 {offsets = [15], sizes = [1], strides = [1]} : vector<16xf32> to vector<1xf32>
        %1007 = arith.andi %946, %344 : i1
        %1008 = arith.addi %347, %150 overflow<nsw> : index
        %1009 = arith.select %1007, %1008, %c536870911 : index
        vector.store %1006, %228[%1009] : memref<?xf32, #amdgpu.address_space<fat_raw_buffer>>, vector<1xf32>
        %1010 = vector.extract_strided_slice %208 {offsets = [0], sizes = [1], strides = [1]} : vector<16xf32> to vector<1xf32>
        %1011 = affine.apply #map75()[%thread_id_x, %block_id_y, %block_id_x, %thread_id_y]
        %1012 = arith.cmpi slt, %1011, %214 : index
        %1013 = arith.andi %1012, %218 : i1
        %1014 = arith.addi %224, %154 overflow<nsw> : index
        %1015 = arith.select %1013, %1014, %c536870911 : index
        vector.store %1010, %228[%1015] : memref<?xf32, #amdgpu.address_space<fat_raw_buffer>>, vector<1xf32>
        %1016 = vector.extract_strided_slice %208 {offsets = [1], sizes = [1], strides = [1]} : vector<16xf32> to vector<1xf32>
        %1017 = arith.andi %1012, %232 : i1
        %1018 = arith.addi %235, %154 overflow<nsw> : index
        %1019 = arith.select %1017, %1018, %c536870911 : index
        vector.store %1016, %228[%1019] : memref<?xf32, #amdgpu.address_space<fat_raw_buffer>>, vector<1xf32>
        %1020 = vector.extract_strided_slice %208 {offsets = [2], sizes = [1], strides = [1]} : vector<16xf32> to vector<1xf32>
        %1021 = arith.andi %1012, %240 : i1
        %1022 = arith.addi %243, %154 overflow<nsw> : index
        %1023 = arith.select %1021, %1022, %c536870911 : index
        vector.store %1020, %228[%1023] : memref<?xf32, #amdgpu.address_space<fat_raw_buffer>>, vector<1xf32>
        %1024 = vector.extract_strided_slice %208 {offsets = [3], sizes = [1], strides = [1]} : vector<16xf32> to vector<1xf32>
        %1025 = arith.andi %1012, %248 : i1
        %1026 = arith.addi %251, %154 overflow<nsw> : index
        %1027 = arith.select %1025, %1026, %c536870911 : index
        vector.store %1024, %228[%1027] : memref<?xf32, #amdgpu.address_space<fat_raw_buffer>>, vector<1xf32>
        %1028 = vector.extract_strided_slice %208 {offsets = [4], sizes = [1], strides = [1]} : vector<16xf32> to vector<1xf32>
        %1029 = arith.andi %1012, %256 : i1
        %1030 = arith.addi %259, %154 overflow<nsw> : index
        %1031 = arith.select %1029, %1030, %c536870911 : index
        vector.store %1028, %228[%1031] : memref<?xf32, #amdgpu.address_space<fat_raw_buffer>>, vector<1xf32>
        %1032 = vector.extract_strided_slice %208 {offsets = [5], sizes = [1], strides = [1]} : vector<16xf32> to vector<1xf32>
        %1033 = arith.andi %1012, %264 : i1
        %1034 = arith.addi %267, %154 overflow<nsw> : index
        %1035 = arith.select %1033, %1034, %c536870911 : index
        vector.store %1032, %228[%1035] : memref<?xf32, #amdgpu.address_space<fat_raw_buffer>>, vector<1xf32>
        %1036 = vector.extract_strided_slice %208 {offsets = [6], sizes = [1], strides = [1]} : vector<16xf32> to vector<1xf32>
        %1037 = arith.andi %1012, %272 : i1
        %1038 = arith.addi %275, %154 overflow<nsw> : index
        %1039 = arith.select %1037, %1038, %c536870911 : index
        vector.store %1036, %228[%1039] : memref<?xf32, #amdgpu.address_space<fat_raw_buffer>>, vector<1xf32>
        %1040 = vector.extract_strided_slice %208 {offsets = [7], sizes = [1], strides = [1]} : vector<16xf32> to vector<1xf32>
        %1041 = arith.andi %1012, %280 : i1
        %1042 = arith.addi %283, %154 overflow<nsw> : index
        %1043 = arith.select %1041, %1042, %c536870911 : index
        vector.store %1040, %228[%1043] : memref<?xf32, #amdgpu.address_space<fat_raw_buffer>>, vector<1xf32>
        %1044 = vector.extract_strided_slice %208 {offsets = [8], sizes = [1], strides = [1]} : vector<16xf32> to vector<1xf32>
        %1045 = arith.andi %1012, %288 : i1
        %1046 = arith.addi %291, %154 overflow<nsw> : index
        %1047 = arith.select %1045, %1046, %c536870911 : index
        vector.store %1044, %228[%1047] : memref<?xf32, #amdgpu.address_space<fat_raw_buffer>>, vector<1xf32>
        %1048 = vector.extract_strided_slice %208 {offsets = [9], sizes = [1], strides = [1]} : vector<16xf32> to vector<1xf32>
        %1049 = arith.andi %1012, %296 : i1
        %1050 = arith.addi %299, %154 overflow<nsw> : index
        %1051 = arith.select %1049, %1050, %c536870911 : index
        vector.store %1048, %228[%1051] : memref<?xf32, #amdgpu.address_space<fat_raw_buffer>>, vector<1xf32>
        %1052 = vector.extract_strided_slice %208 {offsets = [10], sizes = [1], strides = [1]} : vector<16xf32> to vector<1xf32>
        %1053 = arith.andi %1012, %304 : i1
        %1054 = arith.addi %307, %154 overflow<nsw> : index
        %1055 = arith.select %1053, %1054, %c536870911 : index
        vector.store %1052, %228[%1055] : memref<?xf32, #amdgpu.address_space<fat_raw_buffer>>, vector<1xf32>
        %1056 = vector.extract_strided_slice %208 {offsets = [11], sizes = [1], strides = [1]} : vector<16xf32> to vector<1xf32>
        %1057 = arith.andi %1012, %312 : i1
        %1058 = arith.addi %315, %154 overflow<nsw> : index
        %1059 = arith.select %1057, %1058, %c536870911 : index
        vector.store %1056, %228[%1059] : memref<?xf32, #amdgpu.address_space<fat_raw_buffer>>, vector<1xf32>
        %1060 = vector.extract_strided_slice %208 {offsets = [12], sizes = [1], strides = [1]} : vector<16xf32> to vector<1xf32>
        %1061 = arith.andi %1012, %320 : i1
        %1062 = arith.addi %323, %154 overflow<nsw> : index
        %1063 = arith.select %1061, %1062, %c536870911 : index
        vector.store %1060, %228[%1063] : memref<?xf32, #amdgpu.address_space<fat_raw_buffer>>, vector<1xf32>
        %1064 = vector.extract_strided_slice %208 {offsets = [13], sizes = [1], strides = [1]} : vector<16xf32> to vector<1xf32>
        %1065 = arith.andi %1012, %328 : i1
        %1066 = arith.addi %331, %154 overflow<nsw> : index
        %1067 = arith.select %1065, %1066, %c536870911 : index
        vector.store %1064, %228[%1067] : memref<?xf32, #amdgpu.address_space<fat_raw_buffer>>, vector<1xf32>
        %1068 = vector.extract_strided_slice %208 {offsets = [14], sizes = [1], strides = [1]} : vector<16xf32> to vector<1xf32>
        %1069 = arith.andi %1012, %336 : i1
        %1070 = arith.addi %339, %154 overflow<nsw> : index
        %1071 = arith.select %1069, %1070, %c536870911 : index
        vector.store %1068, %228[%1071] : memref<?xf32, #amdgpu.address_space<fat_raw_buffer>>, vector<1xf32>
        %1072 = vector.extract_strided_slice %208 {offsets = [15], sizes = [1], strides = [1]} : vector<16xf32> to vector<1xf32>
        %1073 = arith.andi %1012, %344 : i1
        %1074 = arith.addi %347, %154 overflow<nsw> : index
        %1075 = arith.select %1073, %1074, %c536870911 : index
        vector.store %1072, %228[%1075] : memref<?xf32, #amdgpu.address_space<fat_raw_buffer>>, vector<1xf32>
        return
      }
    }
  }
  func.func @isolated_benchmark(%arg0: tensor<20512x2880xf16>, %arg1: tensor<2880x2880xf16>, %arg2: tensor<20512x2880xf32>) -> tensor<20512x2880xf32> {
    %0 = flow.dispatch @gemm::@gemm(%arg0, %arg1, %arg2) : (tensor<20512x2880xf16>, tensor<2880x2880xf16>, tensor<20512x2880xf32>) -> %arg2
    return %0 : tensor<20512x2880xf32>
  }
}
